…
  phase: TRAIN
}
layer {
  name: "word_images"
  type: "Data"
  top: "word_images"
  top: "label"
  transform_param {
    scale: -0.0039215689
    mean_value: 255
  }
  data_param {
    source: "/data/fwolf/mintpp/gw_cv3_nti500000_pul2-3-4-5_train_word_images_lmdb"
    batch_size: 1
    backend: LMDB
    prefetch: 20
  }
}
layer {
  name: "phocs"
  type: "Data"
  top: "phocs"
  top: "label_phocs"
  data_param {
    source: "/data/fwolf/mintpp/gw_cv3_nti500000_pul2-3-4-5_train_phocs_lmdb"
    batch_size: 1
    backend: LMDB
    prefetch: 20
  }
}
layer {
  name: "conv1_grey"
  type: "Convolution"
  bottom: "word_images"
  top: "conv1_grey"
  convolution_param {
    num_output: 64
    bias_term: false
    pad: 3
    kernel_size: 7
    stride: 2
    weight_filler {
      type: "msra"
    }
    bias_filler {
      type: "constant"
    }
    engine: CUDNN
  }
}
layer {
  name: "conv1/bn"
  type: "BatchNorm"
  bottom: "conv1_grey"
  top: "conv1/bn"
  batch_norm_param {
    eps: 1e-05
  }
}
layer {
  name: "conv1/scale"
  type: "Scale"
  bottom: "conv1/bn"
  top: "conv1/bn"
  scale_param {
    bias_term: true
  }
}
layer {
  name: "relu1"
  type: "ReLU"
  bottom: "conv1/bn"
  top: "conv1/bn"
}
layer {
  name: "pool1"
  type: "Pooling"
  bottom: "conv1/bn"
  top: "pool1"
  pooling_param {
    pool: MAX
    kernel_size: 3
    stride: 2
  }
}
layer {
  name: "conv2_1/x1/bn"
  type: "BatchNorm"
  bottom: "pool1"
  top: "conv2_1/x1/bn"
  batch_norm_param {
    eps: 1e-05
  }
}
layer {
  name: "conv2_1/x1/scale"
  type: "Scale"
  bottom: "conv2_1/x1/bn"
  top: "conv2_1/x1/bn"
  scale_param {
    bias_term: true
  }
}
layer {
  name: "relu2_1/x1"
  type: "ReLU"
  bottom: "conv2_1/x1/bn"
  top: "conv2_1/x1/bn"
}
layer {
  name: "conv2_1/x1"
  type: "Convolution"
  bottom: "conv2_1/x1/bn"
  top: "conv2_1/x1"
  convolution_param {
    num_output: 128
    bias_term: false
    pad: 0
    kernel_size: 1
    stride: 1
    weight_filler {
      type: "msra"
    }
    bias_filler {
      type: "constant"
    }
    engine: CUDNN
  }
}
layer {
  name: "conv2_1/x2/bn"
  type: "BatchNorm"
  bottom: "conv2_1/x1"
  top: "conv2_1/x2/bn"
  batch_norm_param {
    eps: 1e-05
  }
}
layer {
  name: "conv2_1/x2/scale"
  type: "Scale"
  bottom: "conv2_1/x2/bn"
  top: "conv2_1/x2/bn"
  scale_param {
    bias_term: true
  }
}
layer {
  name: "relu2_1/x2"
  type: "ReLU"
  bottom: "conv2_1/x2/bn"
  top: "conv2_1/x2/bn"
}
layer {
  name: "conv2_1/x2"
  type: "Convolution"
  bottom: "conv2_1/x2/bn"
  top: "conv2_1/x2"
  convolution_param {
    num_output: 32
    bias_term: false
    pad: 1
    kernel_size: 3
    stride: 1
    weight_filler {
      type: "msra"
    }
    bias_filler {
      type: "constant"
    }
    engine: CUDNN
  }
}
layer {
  name: "concat_2_1"
  type: "Concat"
  bottom: "pool1"
  bottom: "conv2_1/x2"
  top: "concat_2_1"
}
layer {
  name: "conv2_2/x1/bn"
  type: "BatchNorm"
  bottom: "concat_2_1"
  top: "conv2_2/x1/bn"
  batch_norm_param {
    eps: 1e-05
  }
}
layer {
  name: "conv2_2/x1/scale"
  type: "Scale"
  bottom: "conv2_2/x1/bn"
  top: "conv2_2/x1/bn"
  scale_param {
    bias_term: true
  }
}
layer {
  name: "relu2_2/x1"
  type: "ReLU"
  bottom: "conv2_2/x1/bn"
  top: "conv2_2/x1/bn"
}
layer {
  name: "conv2_2/x1"
  type: "Convolution"
  bottom: "conv2_2/x1/bn"
  top: "conv2_2/x1"
  convolution_param {
    num_output: 128
    bias_term: false
    pad: 0
    kernel_size: 1
    stride: 1
    weight_filler {
      type: "msra"
    }
    bias_filler {
      type: "constant"
    }
    engine: CUDNN
  }
}
layer {
  name: "conv2_2/x2/bn"
  type: "BatchNorm"
  bottom: "conv2_2/x1"
  top: "conv2_2/x2/bn"
  batch_norm_param {
    eps: 1e-05
  }
}
layer {
  name: "conv2_2/x2/scale"
  type: "Scale"
  bottom: "conv2_2/x2/bn"
  top: "conv2_2/x2/bn"
  scale_param {
    bias_term: true
  }
}
layer {
  name: "relu2_2/x2"
  type: "ReLU"
  bottom: "conv2_2/x2/bn"
  top: "conv2_2/x2/bn"
}
layer {
  name: "conv2_2/x2"
  type: "Convolution"
  bottom: "conv2_2/x2/bn"
  top: "conv2_2/x2"
  convolution_param {
    num_output: 32
    bias_term: false
    pad: 1
    kernel_size: 3
    stride: 1
    weight_filler {
      type: "msra"
    }
    bias_filler {
      type: "constant"
    }
    engine: CUDNN
  }
}
layer {
  name: "concat_2_2"
  type: "Concat"
  bottom: "concat_2_1"
  bottom: "conv2_2/x2"
  top: "concat_2_2"
}
layer {
  name: "conv2_3/x1/bn"
  type: "BatchNorm"
  bottom: "concat_2_2"
  top: "conv2_3/x1/bn"
  batch_norm_param {
    eps: 1e-05
  }
}
layer {
  name: "conv2_3/x1/scale"
  type: "Scale"
  bottom: "conv2_3/x1/bn"
  top: "conv2_3/x1/bn"
  scale_param {
    bias_term: true
  }
}
layer {
  name: "relu2_3/x1"
  type: "ReLU"
  bottom: "conv2_3/x1/bn"
  top: "conv2_3/x1/bn"
}
layer {
  name: "conv2_3/x1"
  type: "Convolution"
  bottom: "conv2_3/x1/bn"
  top: "conv2_3/x1"
  convolution_param {
    num_output: 128
    bias_term: false
    pad: 0
    kernel_size: 1
    stride: 1
    weight_filler {
      type: "msra"
    }
    bias_filler {
      type: "constant"
    }
    engine: CUDNN
  }
}
layer {
  name: "conv2_3/x2/bn"
  type: "BatchNorm"
  bottom: "conv2_3/x1"
  top: "conv2_3/x2/bn"
  batch_norm_param {
    eps: 1e-05
  }
}
layer {
  name: "conv2_3/x2/scale"
  type: "Scale"
  bottom: "conv2_3/x2/bn"
  top: "conv2_3/x2/bn"
  scale_param {
    bias_term: true
  }
}
layer {
  name: "relu2_3/x2"
  type: "ReLU"
  bottom: "conv2_3/x2/bn"
  top: "conv2_3/x2/bn"
}
layer {
  name: "conv2_3/x2"
  type: "Convolution"
  bottom: "conv2_3/x2/bn"
  top: "conv2_3/x2"
  convolution_param {
    num_output: 32
    bias_term: false
    pad: 1
    kernel_size: 3
    stride: 1
    weight_filler {
      type: "msra"
    }
    bias_filler {
      type: "constant"
    }
    engine: CUDNN
  }
}
layer {
  name: "concat_2_3"
  type: "Concat"
  bottom: "concat_2_2"
  bottom: "conv2_3/x2"
  top: "concat_2_3"
}
layer {
  name: "conv2_4/x1/bn"
  type: "BatchNorm"
  bottom: "concat_2_3"
  top: "conv2_4/x1/bn"
  batch_norm_param {
    eps: 1e-05
  }
}
layer {
  name: "conv2_4/x1/scale"
  type: "Scale"
  bottom: "conv2_4/x1/bn"
  top: "conv2_4/x1/bn"
  scale_param {
    bias_term: true
  }
}
layer {
  name: "relu2_4/x1"
  type: "ReLU"
  bottom: "conv2_4/x1/bn"
  top: "conv2_4/x1/bn"
}
layer {
  name: "conv2_4/x1"
  type: "Convolution"
  bottom: "conv2_4/x1/bn"
  top: "conv2_4/x1"
  convolution_param {
    num_output: 128
    bias_term: false
    pad: 0
    kernel_size: 1
    stride: 1
    weight_filler {
      type: "msra"
    }
    bias_filler {
      type: "constant"
    }
    engine: CUDNN
  }
}
layer {
  name: "conv2_4/x2/bn"
  type: "BatchNorm"
  bottom: "conv2_4/x1"
  top: "conv2_4/x2/bn"
  batch_norm_param {
    eps: 1e-05
  }
}
layer {
  name: "conv2_4/x2/scale"
  type: "Scale"
  bottom: "conv2_4/x2/bn"
  top: "conv2_4/x2/bn"
  scale_param {
    bias_term: true
  }
}
layer {
  name: "relu2_4/x2"
  type: "ReLU"
  bottom: "conv2_4/x2/bn"
  top: "conv2_4/x2/bn"
}
layer {
  name: "conv2_4/x2"
  type: "Convolution"
  bottom: "conv2_4/x2/bn"
  top: "conv2_4/x2"
  convolution_param {
    num_output: 32
    bias_term: false
    pad: 1
    kernel_size: 3
    stride: 1
    weight_filler {
      type: "msra"
    }
    bias_filler {
      type: "constant"
    }
    engine: CUDNN
  }
}
layer {
  name: "concat_2_4"
  type: "Concat"
  bottom: "concat_2_3"
  bottom: "conv2_4/x2"
  top: "concat_2_4"
}
layer {
  name: "conv2_5/x1/bn"
  type: "BatchNorm"
  bottom: "concat_2_4"
  top: "conv2_5/x1/bn"
  batch_norm_param {
    eps: 1e-05
  }
}
layer {
  name: "conv2_5/x1/scale"
  type: "Scale"
  bottom: "conv2_5/x1/bn"
  top: "conv2_5/x1/bn"
  scale_param {
    bias_term: true
  }
}
layer {
  name: "relu2_5/x1"
  type: "ReLU"
  bottom: "conv2_5/x1/bn"
  top: "conv2_5/x1/bn"
}
layer {
  name: "conv2_5/x1"
  type: "Convolution"
  bottom: "conv2_5/x1/bn"
  top: "conv2_5/x1"
  convolution_param {
    num_output: 128
    bias_term: false
    pad: 0
    kernel_size: 1
    stride: 1
    weight_filler {
      type: "msra"
    }
    bias_filler {
      type: "constant"
    }
    engine: CUDNN
  }
}
layer {
  name: "conv2_5/x2/bn"
  type: "BatchNorm"
  bottom: "conv2_5/x1"
  top: "conv2_5/x2/bn"
  batch_norm_param {
    eps: 1e-05
  }
}
layer {
  name: "conv2_5/x2/scale"
  type: "Scale"
  bottom: "conv2_5/x2/bn"
  top: "conv2_5/x2/bn"
  scale_param {
    bias_term: true
  }
}
layer {
  name: "relu2_5/x2"
  type: "ReLU"
  bottom: "conv2_5/x2/bn"
  top: "conv2_5/x2/bn"
}
layer {
  name: "conv2_5/x2"
  type: "Convolution"
  bottom: "conv2_5/x2/bn"
  top: "conv2_5/x2"
  convolution_param {
    num_output: 32
    bias_term: false
    pad: 1
    kernel_size: 3
    stride: 1
    weight_filler {
      type: "msra"
    }
    bias_filler {
      type: "constant"
    }
    engine: CUDNN
  }
}
layer {
  name: "concat_2_5"
  type: "Concat"
  bottom: "concat_2_4"
  bottom: "conv2_5/x2"
  top: "concat_2_5"
}
layer {
  name: "conv2_6/x1/bn"
  type: "BatchNorm"
  bottom: "concat_2_5"
  top: "conv2_6/x1/bn"
  batch_norm_param {
    eps: 1e-05
  }
}
layer {
  name: "conv2_6/x1/scale"
  type: "Scale"
  bottom: "conv2_6/x1/bn"
  top: "conv2_6/x1/bn"
  scale_param {
    bias_term: true
  }
}
layer {
  name: "relu2_6/x1"
  type: "ReLU"
  bottom: "conv2_6/x1/bn"
  top: "conv2_6/x1/bn"
}
layer {
  name: "conv2_6/x1"
  type: "Convolution"
  bottom: "conv2_6/x1/bn"
  top: "conv2_6/x1"
  convolution_param {
    num_output: 128
    bias_term: false
    pad: 0
    kernel_size: 1
    stride: 1
    weight_filler {
      type: "msra"
    }
    bias_filler {
      type: "constant"
    }
    engine: CUDNN
  }
}
layer {
  name: "conv2_6/x2/bn"
  type: "BatchNorm"
  bottom: "conv2_6/x1"
  top: "conv2_6/x2/bn"
  batch_norm_param {
    eps: 1e-05
  }
}
layer {
  name: "conv2_6/x2/scale"
  type: "Scale"
  bottom: "conv2_6/x2/bn"
  top: "conv2_6/x2/bn"
  scale_param {
    bias_term: true
  }
}
layer {
  name: "relu2_6/x2"
  type: "ReLU"
  bottom: "conv2_6/x2/bn"
  top: "conv2_6/x2/bn"
}
layer {
  name: "conv2_6/x2"
  type: "Convolution"
  bottom: "conv2_6/x2/bn"
  top: "conv2_6/x2"
  convolution_param {
    num_output: 32
    bias_term: false
    pad: 1
    kernel_size: 3
    stride: 1
    weight_filler {
      type: "msra"
    }
    bias_filler {
      type: "constant"
    }
    engine: CUDNN
  }
}
layer {
  name: "concat_2_6"
  type: "Concat"
  bottom: "concat_2_5"
  bottom: "conv2_6/x2"
  top: "concat_2_6"
}
layer {
  name: "conv2_blk/bn"
  type: "BatchNorm"
  bottom: "concat_2_6"
  top: "conv2_blk/bn"
  batch_norm_param {
    eps: 1e-05
  }
}
layer {
  name: "conv2_blk/scale"
  type: "Scale"
  bottom: "conv2_blk/bn"
  top: "conv2_blk/bn"
  scale_param {
    bias_term: true
  }
}
layer {
  name: "relu2_blk"
  type: "ReLU"
  bottom: "conv2_blk/bn"
  top: "conv2_blk/bn"
}
layer {
  name: "conv2_blk"
  type: "Convolution"
  bottom: "conv2_blk/bn"
  top: "conv2_blk"
  convolution_param {
    num_output: 128
    bias_term: false
    pad: 0
    kernel_size: 1
    stride: 1
    weight_filler {
      type: "msra"
    }
    bias_filler {
      type: "constant"
    }
    engine: CUDNN
  }
}
layer {
  name: "pool2"
  type: "Pooling"
  bottom: "conv2_blk"
  top: "pool2"
  pooling_param {
    pool: AVE
    kernel_size: 2
    stride: 2
  }
}
layer {
  name: "conv3_1/x1/bn"
  type: "BatchNorm"
  bottom: "pool2"
  top: "conv3_1/x1/bn"
  batch_norm_param {
    eps: 1e-05
  }
}
layer {
  name: "conv3_1/x1/scale"
  type: "Scale"
  bottom: "conv3_1/x1/bn"
  top: "conv3_1/x1/bn"
  scale_param {
    bias_term: true
  }
}
layer {
  name: "relu3_1/x1"
  type: "ReLU"
  bottom: "conv3_1/x1/bn"
  top: "conv3_1/x1/bn"
}
layer {
  name: "conv3_1/x1"
  type: "Convolution"
  bottom: "conv3_1/x1/bn"
  top: "conv3_1/x1"
  convolution_param {
    num_output: 128
    bias_term: false
    pad: 0
    kernel_size: 1
    stride: 1
    weight_filler {
      type: "msra"
    }
    bias_filler {
      type: "constant"
    }
    engine: CUDNN
  }
}
layer {
  name: "conv3_1/x2/bn"
  type: "BatchNorm"
  bottom: "conv3_1/x1"
  top: "conv3_1/x2/bn"
  batch_norm_param {
    eps: 1e-05
  }
}
layer {
  name: "conv3_1/x2/scale"
  type: "Scale"
  bottom: "conv3_1/x2/bn"
  top: "conv3_1/x2/bn"
  scale_param {
    bias_term: true
  }
}
layer {
  name: "relu3_1/x2"
  type: "ReLU"
  bottom: "conv3_1/x2/bn"
  top: "conv3_1/x2/bn"
}
layer {
  name: "conv3_1/x2"
  type: "Convolution"
  bottom: "conv3_1/x2/bn"
  top: "conv3_1/x2"
  convolution_param {
    num_output: 32
    bias_term: false
    pad: 1
    kernel_size: 3
    stride: 1
    weight_filler {
      type: "msra"
    }
    bias_filler {
      type: "constant"
    }
    engine: CUDNN
  }
}
layer {
  name: "concat_3_1"
  type: "Concat"
  bottom: "pool2"
  bottom: "conv3_1/x2"
  top: "concat_3_1"
}
layer {
  name: "conv3_2/x1/bn"
  type: "BatchNorm"
  bottom: "concat_3_1"
  top: "conv3_2/x1/bn"
  batch_norm_param {
    eps: 1e-05
  }
}
layer {
  name: "conv3_2/x1/scale"
  type: "Scale"
  bottom: "conv3_2/x1/bn"
  top: "conv3_2/x1/bn"
  scale_param {
    bias_term: true
  }
}
layer {
  name: "relu3_2/x1"
  type: "ReLU"
  bottom: "conv3_2/x1/bn"
  top: "conv3_2/x1/bn"
}
layer {
  name: "conv3_2/x1"
  type: "Convolution"
  bottom: "conv3_2/x1/bn"
  top: "conv3_2/x1"
  convolution_param {
    num_output: 128
    bias_term: false
    pad: 0
    kernel_size: 1
    stride: 1
    weight_filler {
      type: "msra"
    }
    bias_filler {
      type: "constant"
    }
    engine: CUDNN
  }
}
layer {
  name: "conv3_2/x2/bn"
  type: "BatchNorm"
  bottom: "conv3_2/x1"
  top: "conv3_2/x2/bn"
  batch_norm_param {
    eps: 1e-05
  }
}
layer {
  name: "conv3_2/x2/scale"
  type: "Scale"
  bottom: "conv3_2/x2/bn"
  top: "conv3_2/x2/bn"
  scale_param {
    bias_term: true
  }
}
layer {
  name: "relu3_2/x2"
  type: "ReLU"
  bottom: "conv3_2/x2/bn"
  top: "conv3_2/x2/bn"
}
layer {
  name: "conv3_2/x2"
  type: "Convolution"
  bottom: "conv3_2/x2/bn"
  top: "conv3_2/x2"
  convolution_param {
    num_output: 32
    bias_term: false
    pad: 1
    kernel_size: 3
    stride: 1
    weight_filler {
      type: "msra"
    }
    bias_filler {
      type: "constant"
    }
    engine: CUDNN
  }
}
layer {
  name: "concat_3_2"
  type: "Concat"
  bottom: "concat_3_1"
  bottom: "conv3_2/x2"
  top: "concat_3_2"
}
layer {
  name: "conv3_3/x1/bn"
  type: "BatchNorm"
  bottom: "concat_3_2"
  top: "conv3_3/x1/bn"
  batch_norm_param {
    eps: 1e-05
  }
}
layer {
  name: "conv3_3/x1/scale"
  type: "Scale"
  bottom: "conv3_3/x1/bn"
  top: "conv3_3/x1/bn"
  scale_param {
    bias_term: true
  }
}
layer {
  name: "relu3_3/x1"
  type: "ReLU"
  bottom: "conv3_3/x1/bn"
  top: "conv3_3/x1/bn"
}
layer {
  name: "conv3_3/x1"
  type: "Convolution"
  bottom: "conv3_3/x1/bn"
  top: "conv3_3/x1"
  convolution_param {
    num_output: 128
    bias_term: false
    pad: 0
    kernel_size: 1
    stride: 1
    weight_filler {
      type: "msra"
    }
    bias_filler {
      type: "constant"
    }
    engine: CUDNN
  }
}
layer {
  name: "conv3_3/x2/bn"
  type: "BatchNorm"
  bottom: "conv3_3/x1"
  top: "conv3_3/x2/bn"
  batch_norm_param {
    eps: 1e-05
  }
}
layer {
  name: "conv3_3/x2/scale"
  type: "Scale"
  bottom: "conv3_3/x2/bn"
  top: "conv3_3/x2/bn"
  scale_param {
    bias_term: true
  }
}
layer {
  name: "relu3_3/x2"
  type: "ReLU"
  bottom: "conv3_3/x2/bn"
  top: "conv3_3/x2/bn"
}
layer {
  name: "conv3_3/x2"
  type: "Convolution"
  bottom: "conv3_3/x2/bn"
  top: "conv3_3/x2"
  convolution_param {
    num_output: 32
    bias_term: false
    pad: 1
    kernel_size: 3
    stride: 1
    weight_filler {
      type: "msra"
    }
    bias_filler {
      type: "constant"
    }
    engine: CUDNN
  }
}
layer {
  name: "concat_3_3"
  type: "Concat"
  bottom: "concat_3_2"
  bottom: "conv3_3/x2"
  top: "concat_3_3"
}
layer {
  name: "conv3_4/x1/bn"
  type: "BatchNorm"
  bottom: "concat_3_3"
  top: "conv3_4/x1/bn"
  batch_norm_param {
    eps: 1e-05
  }
}
layer {
  name: "conv3_4/x1/scale"
  type: "Scale"
  bottom: "conv3_4/x1/bn"
  top: "conv3_4/x1/bn"
  scale_param {
    bias_term: true
  }
}
layer {
  name: "relu3_4/x1"
  type: "ReLU"
  bottom: "conv3_4/x1/bn"
  top: "conv3_4/x1/bn"
}
layer {
  name: "conv3_4/x1"
  type: "Convolution"
  bottom: "conv3_4/x1/bn"
  top: "conv3_4/x1"
  convolution_param {
    num_output: 128
    bias_term: false
    pad: 0
    kernel_size: 1
    stride: 1
    weight_filler {
      type: "msra"
    }
    bias_filler {
      type: "constant"
    }
    engine: CUDNN
  }
}
layer {
  name: "conv3_4/x2/bn"
  type: "BatchNorm"
  bottom: "conv3_4/x1"
  top: "conv3_4/x2/bn"
  batch_norm_param {
    eps: 1e-05
  }
}
layer {
  name: "conv3_4/x2/scale"
  type: "Scale"
  bottom: "conv3_4/x2/bn"
  top: "conv3_4/x2/bn"
  scale_param {
    bias_term: true
  }
}
layer {
  name: "relu3_4/x2"
  type: "ReLU"
  bottom: "conv3_4/x2/bn"
  top: "conv3_4/x2/bn"
}
layer {
  name: "conv3_4/x2"
  type: "Convolution"
  bottom: "conv3_4/x2/bn"
  top: "conv3_4/x2"
  convolution_param {
    num_output: 32
    bias_term: false
    pad: 1
    kernel_size: 3
    stride: 1
    weight_filler {
      type: "msra"
    }
    bias_filler {
      type: "constant"
    }
    engine: CUDNN
  }
}
layer {
  name: "concat_3_4"
  type: "Concat"
  bottom: "concat_3_3"
  bottom: "conv3_4/x2"
  top: "concat_3_4"
}
layer {
  name: "conv3_5/x1/bn"
  type: "BatchNorm"
  bottom: "concat_3_4"
  top: "conv3_5/x1/bn"
  batch_norm_param {
    eps: 1e-05
  }
}
layer {
  name: "conv3_5/x1/scale"
  type: "Scale"
  bottom: "conv3_5/x1/bn"
  top: "conv3_5/x1/bn"
  scale_param {
    bias_term: true
  }
}
layer {
  name: "relu3_5/x1"
  type: "ReLU"
  bottom: "conv3_5/x1/bn"
  top: "conv3_5/x1/bn"
}
layer {
  name: "conv3_5/x1"
  type: "Convolution"
  bottom: "conv3_5/x1/bn"
  top: "conv3_5/x1"
  convolution_param {
    num_output: 128
    bias_term: false
    pad: 0
    kernel_size: 1
    stride: 1
    weight_filler {
      type: "msra"
    }
    bias_filler {
      type: "constant"
    }
    engine: CUDNN
  }
}
layer {
  name: "conv3_5/x2/bn"
  type: "BatchNorm"
  bottom: "conv3_5/x1"
  top: "conv3_5/x2/bn"
  batch_norm_param {
    eps: 1e-05
  }
}
layer {
  name: "conv3_5/x2/scale"
  type: "Scale"
  bottom: "conv3_5/x2/bn"
  top: "conv3_5/x2/bn"
  scale_param {
    bias_term: true
  }
}
layer {
  name: "relu3_5/x2"
  type: "ReLU"
  bottom: "conv3_5/x2/bn"
  top: "conv3_5/x2/bn"
}
layer {
  name: "conv3_5/x2"
  type: "Convolution"
  bottom: "conv3_5/x2/bn"
  top: "conv3_5/x2"
  convolution_param {
    num_output: 32
    bias_term: false
    pad: 1
    kernel_size: 3
    stride: 1
    weight_filler {
      type: "msra"
    }
    bias_filler {
      type: "constant"
    }
    engine: CUDNN
  }
}
layer {
  name: "concat_3_5"
  type: "Concat"
  bottom: "concat_3_4"
  bottom: "conv3_5/x2"
  top: "concat_3_5"
}
layer {
  name: "conv3_6/x1/bn"
  type: "BatchNorm"
  bottom: "concat_3_5"
  top: "conv3_6/x1/bn"
  batch_norm_param {
    eps: 1e-05
  }
}
layer {
  name: "conv3_6/x1/scale"
  type: "Scale"
  bottom: "conv3_6/x1/bn"
  top: "conv3_6/x1/bn"
  scale_param {
    bias_term: true
  }
}
layer {
  name: "relu3_6/x1"
  type: "ReLU"
  bottom: "conv3_6/x1/bn"
  top: "conv3_6/x1/bn"
}
layer {
  name: "conv3_6/x1"
  type: "Convolution"
  bottom: "conv3_6/x1/bn"
  top: "conv3_6/x1"
  convolution_param {
    num_output: 128
    bias_term: false
    pad: 0
    kernel_size: 1
    stride: 1
    weight_filler {
      type: "msra"
    }
    bias_filler {
      type: "constant"
    }
    engine: CUDNN
  }
}
layer {
  name: "conv3_6/x2/bn"
  type: "BatchNorm"
  bottom: "conv3_6/x1"
  top: "conv3_6/x2/bn"
  batch_norm_param {
    eps: 1e-05
  }
}
layer {
  name: "conv3_6/x2/scale"
  type: "Scale"
  bottom: "conv3_6/x2/bn"
  top: "conv3_6/x2/bn"
  scale_param {
    bias_term: true
  }
}
layer {
  name: "relu3_6/x2"
  type: "ReLU"
  bottom: "conv3_6/x2/bn"
  top: "conv3_6/x2/bn"
}
layer {
  name: "conv3_6/x2"
  type: "Convolution"
  bottom: "conv3_6/x2/bn"
  top: "conv3_6/x2"
  convolution_param {
    num_output: 32
    bias_term: false
    pad: 1
    kernel_size: 3
    stride: 1
    weight_filler {
      type: "msra"
    }
    bias_filler {
      type: "constant"
    }
    engine: CUDNN
  }
}
layer {
  name: "concat_3_6"
  type: "Concat"
  bottom: "concat_3_5"
  bottom: "conv3_6/x2"
  top: "concat_3_6"
}
layer {
  name: "conv3_7/x1/bn"
  type: "BatchNorm"
  bottom: "concat_3_6"
  top: "conv3_7/x1/bn"
  batch_norm_param {
    eps: 1e-05
  }
}
layer {
  name: "conv3_7/x1/scale"
  type: "Scale"
  bottom: "conv3_7/x1/bn"
  top: "conv3_7/x1/bn"
  scale_param {
    bias_term: true
  }
}
layer {
  name: "relu3_7/x1"
  type: "ReLU"
  bottom: "conv3_7/x1/bn"
  top: "conv3_7/x1/bn"
}
layer {
  name: "conv3_7/x1"
  type: "Convolution"
  bottom: "conv3_7/x1/bn"
  top: "conv3_7/x1"
  convolution_param {
    num_output: 128
    bias_term: false
    pad: 0
    kernel_size: 1
    stride: 1
    weight_filler {
      type: "msra"
    }
    bias_filler {
      type: "constant"
    }
    engine: CUDNN
  }
}
layer {
  name: "conv3_7/x2/bn"
  type: "BatchNorm"
  bottom: "conv3_7/x1"
  top: "conv3_7/x2/bn"
  batch_norm_param {
    eps: 1e-05
  }
}
layer {
  name: "conv3_7/x2/scale"
  type: "Scale"
  bottom: "conv3_7/x2/bn"
  top: "conv3_7/x2/bn"
  scale_param {
    bias_term: true
  }
}
layer {
  name: "relu3_7/x2"
  type: "ReLU"
  bottom: "conv3_7/x2/bn"
  top: "conv3_7/x2/bn"
}
layer {
  name: "conv3_7/x2"
  type: "Convolution"
  bottom: "conv3_7/x2/bn"
  top: "conv3_7/x2"
  convolution_param {
    num_output: 32
    bias_term: false
    pad: 1
    kernel_size: 3
    stride: 1
    weight_filler {
      type: "msra"
    }
    bias_filler {
      type: "constant"
    }
    engine: CUDNN
  }
}
layer {
  name: "concat_3_7"
  type: "Concat"
  bottom: "concat_3_6"
  bottom: "conv3_7/x2"
  top: "concat_3_7"
}
layer {
  name: "conv3_8/x1/bn"
  type: "BatchNorm"
  bottom: "concat_3_7"
  top: "conv3_8/x1/bn"
  batch_norm_param {
    eps: 1e-05
  }
}
layer {
  name: "conv3_8/x1/scale"
  type: "Scale"
  bottom: "conv3_8/x1/bn"
  top: "conv3_8/x1/bn"
  scale_param {
    bias_term: true
  }
}
layer {
  name: "relu3_8/x1"
  type: "ReLU"
  bottom: "conv3_8/x1/bn"
  top: "conv3_8/x1/bn"
}
layer {
  name: "conv3_8/x1"
  type: "Convolution"
  bottom: "conv3_8/x1/bn"
  top: "conv3_8/x1"
  convolution_param {
    num_output: 128
    bias_term: false
    pad: 0
    kernel_size: 1
    stride: 1
    weight_filler {
      type: "msra"
    }
    bias_filler {
      type: "constant"
    }
    engine: CUDNN
  }
}
layer {
  name: "conv3_8/x2/bn"
  type: "BatchNorm"
  bottom: "conv3_8/x1"
  top: "conv3_8/x2/bn"
  batch_norm_param {
    eps: 1e-05
  }
}
layer {
  name: "conv3_8/x2/scale"
  type: "Scale"
  bottom: "conv3_8/x2/bn"
  top: "conv3_8/x2/bn"
  scale_param {
    bias_term: true
  }
}
layer {
  name: "relu3_8/x2"
  type: "ReLU"
  bottom: "conv3_8/x2/bn"
  top: "conv3_8/x2/bn"
}
layer {
  name: "conv3_8/x2"
  type: "Convolution"
  bottom: "conv3_8/x2/bn"
  top: "conv3_8/x2"
  convolution_param {
    num_output: 32
    bias_term: false
    pad: 1
    kernel_size: 3
    stride: 1
    weight_filler {
      type: "msra"
    }
    bias_filler {
      type: "constant"
    }
    engine: CUDNN
  }
}
layer {
  name: "concat_3_8"
  type: "Concat"
  bottom: "concat_3_7"
  bottom: "conv3_8/x2"
  top: "concat_3_8"
}
layer {
  name: "conv3_9/x1/bn"
  type: "BatchNorm"
  bottom: "concat_3_8"
  top: "conv3_9/x1/bn"
  batch_norm_param {
    eps: 1e-05
  }
}
layer {
  name: "conv3_9/x1/scale"
  type: "Scale"
  bottom: "conv3_9/x1/bn"
  top: "conv3_9/x1/bn"
  scale_param {
    bias_term: true
  }
}
layer {
  name: "relu3_9/x1"
  type: "ReLU"
  bottom: "conv3_9/x1/bn"
  top: "conv3_9/x1/bn"
}
layer {
  name: "conv3_9/x1"
  type: "Convolution"
  bottom: "conv3_9/x1/bn"
  top: "conv3_9/x1"
  convolution_param {
    num_output: 128
    bias_term: false
    pad: 0
    kernel_size: 1
    stride: 1
    weight_filler {
      type: "msra"
    }
    bias_filler {
      type: "constant"
    }
    engine: CUDNN
  }
}
layer {
  name: "conv3_9/x2/bn"
  type: "BatchNorm"
  bottom: "conv3_9/x1"
  top: "conv3_9/x2/bn"
  batch_norm_param {
    eps: 1e-05
  }
}
layer {
  name: "conv3_9/x2/scale"
  type: "Scale"
  bottom: "conv3_9/x2/bn"
  top: "conv3_9/x2/bn"
  scale_param {
    bias_term: true
  }
}
layer {
  name: "relu3_9/x2"
  type: "ReLU"
  bottom: "conv3_9/x2/bn"
  top: "conv3_9/x2/bn"
}
layer {
  name: "conv3_9/x2"
  type: "Convolution"
  bottom: "conv3_9/x2/bn"
  top: "conv3_9/x2"
  convolution_param {
    num_output: 32
    bias_term: false
    pad: 1
    kernel_size: 3
    stride: 1
    weight_filler {
      type: "msra"
    }
    bias_filler {
      type: "constant"
    }
    engine: CUDNN
  }
}
layer {
  name: "concat_3_9"
  type: "Concat"
  bottom: "concat_3_8"
  bottom: "conv3_9/x2"
  top: "concat_3_9"
}
layer {
  name: "conv3_10/x1/bn"
  type: "BatchNorm"
  bottom: "concat_3_9"
  top: "conv3_10/x1/bn"
  batch_norm_param {
    eps: 1e-05
  }
}
layer {
  name: "conv3_10/x1/scale"
  type: "Scale"
  bottom: "conv3_10/x1/bn"
  top: "conv3_10/x1/bn"
  scale_param {
    bias_term: true
  }
}
layer {
  name: "relu3_10/x1"
  type: "ReLU"
  bottom: "conv3_10/x1/bn"
  top: "conv3_10/x1/bn"
}
layer {
  name: "conv3_10/x1"
  type: "Convolution"
  bottom: "conv3_10/x1/bn"
  top: "conv3_10/x1"
  convolution_param {
    num_output: 128
    bias_term: false
    pad: 0
    kernel_size: 1
    stride: 1
    weight_filler {
      type: "msra"
    }
    bias_filler {
      type: "constant"
    }
    engine: CUDNN
  }
}
layer {
  name: "conv3_10/x2/bn"
  type: "BatchNorm"
  bottom: "conv3_10/x1"
  top: "conv3_10/x2/bn"
  batch_norm_param {
    eps: 1e-05
  }
}
layer {
  name: "conv3_10/x2/scale"
  type: "Scale"
  bottom: "conv3_10/x2/bn"
  top: "conv3_10/x2/bn"
  scale_param {
    bias_term: true
  }
}
layer {
  name: "relu3_10/x2"
  type: "ReLU"
  bottom: "conv3_10/x2/bn"
  top: "conv3_10/x2/bn"
}
layer {
  name: "conv3_10/x2"
  type: "Convolution"
  bottom: "conv3_10/x2/bn"
  top: "conv3_10/x2"
  convolution_param {
    num_output: 32
    bias_term: false
    pad: 1
    kernel_size: 3
    stride: 1
    weight_filler {
      type: "msra"
    }
    bias_filler {
      type: "constant"
    }
    engine: CUDNN
  }
}
layer {
  name: "concat_3_10"
  type: "Concat"
  bottom: "concat_3_9"
  bottom: "conv3_10/x2"
  top: "concat_3_10"
}
layer {
  name: "conv3_11/x1/bn"
  type: "BatchNorm"
  bottom: "concat_3_10"
  top: "conv3_11/x1/bn"
  batch_norm_param {
    eps: 1e-05
  }
}
layer {
  name: "conv3_11/x1/scale"
  type: "Scale"
  bottom: "conv3_11/x1/bn"
  top: "conv3_11/x1/bn"
  scale_param {
    bias_term: true
  }
}
layer {
  name: "relu3_11/x1"
  type: "ReLU"
  bottom: "conv3_11/x1/bn"
  top: "conv3_11/x1/bn"
}
layer {
  name: "conv3_11/x1"
  type: "Convolution"
  bottom: "conv3_11/x1/bn"
  top: "conv3_11/x1"
  convolution_param {
    num_output: 128
    bias_term: false
    pad: 0
    kernel_size: 1
    stride: 1
    weight_filler {
      type: "msra"
    }
    bias_filler {
      type: "constant"
    }
    engine: CUDNN
  }
}
layer {
  name: "conv3_11/x2/bn"
  type: "BatchNorm"
  bottom: "conv3_11/x1"
  top: "conv3_11/x2/bn"
  batch_norm_param {
    eps: 1e-05
  }
}
layer {
  name: "conv3_11/x2/scale"
  type: "Scale"
  bottom: "conv3_11/x2/bn"
  top: "conv3_11/x2/bn"
  scale_param {
    bias_term: true
  }
}
layer {
  name: "relu3_11/x2"
  type: "ReLU"
  bottom: "conv3_11/x2/bn"
  top: "conv3_11/x2/bn"
}
layer {
  name: "conv3_11/x2"
  type: "Convolution"
  bottom: "conv3_11/x2/bn"
  top: "conv3_11/x2"
  convolution_param {
    num_output: 32
    bias_term: false
    pad: 1
    kernel_size: 3
    stride: 1
    weight_filler {
      type: "msra"
    }
    bias_filler {
      type: "constant"
    }
    engine: CUDNN
  }
}
layer {
  name: "concat_3_11"
  type: "Concat"
  bottom: "concat_3_10"
  bottom: "conv3_11/x2"
  top: "concat_3_11"
}
layer {
  name: "conv3_12/x1/bn"
  type: "BatchNorm"
  bottom: "concat_3_11"
  top: "conv3_12/x1/bn"
  batch_norm_param {
    eps: 1e-05
  }
}
layer {
  name: "conv3_12/x1/scale"
  type: "Scale"
  bottom: "conv3_12/x1/bn"
  top: "conv3_12/x1/bn"
  scale_param {
    bias_term: true
  }
}
layer {
  name: "relu3_12/x1"
  type: "ReLU"
  bottom: "conv3_12/x1/bn"
  top: "conv3_12/x1/bn"
}
layer {
  name: "conv3_12/x1"
  type: "Convolution"
  bottom: "conv3_12/x1/bn"
  top: "conv3_12/x1"
  convolution_param {
    num_output: 128
    bias_term: false
    pad: 0
    kernel_size: 1
    stride: 1
    weight_filler {
      type: "msra"
    }
    bias_filler {
      type: "constant"
    }
    engine: CUDNN
  }
}
layer {
  name: "conv3_12/x2/bn"
  type: "BatchNorm"
  bottom: "conv3_12/x1"
  top: "conv3_12/x2/bn"
  batch_norm_param {
    eps: 1e-05
  }
}
layer {
  name: "conv3_12/x2/scale"
  type: "Scale"
  bottom: "conv3_12/x2/bn"
  top: "conv3_12/x2/bn"
  scale_param {
    bias_term: true
  }
}
layer {
  name: "relu3_12/x2"
  type: "ReLU"
  bottom: "conv3_12/x2/bn"
  top: "conv3_12/x2/bn"
}
layer {
  name: "conv3_12/x2"
  type: "Convolution"
  bottom: "conv3_12/x2/bn"
  top: "conv3_12/x2"
  convolution_param {
    num_output: 32
    bias_term: false
    pad: 1
    kernel_size: 3
    stride: 1
    weight_filler {
      type: "msra"
    }
    bias_filler {
      type: "constant"
    }
    engine: CUDNN
  }
}
layer {
  name: "concat_3_12"
  type: "Concat"
  bottom: "concat_3_11"
  bottom: "conv3_12/x2"
  top: "concat_3_12"
}
layer {
  name: "conv3_blk/bn"
  type: "BatchNorm"
  bottom: "concat_3_12"
  top: "conv3_blk/bn"
  batch_norm_param {
    eps: 1e-05
  }
}
layer {
  name: "conv3_blk/scale"
  type: "Scale"
  bottom: "conv3_blk/bn"
  top: "conv3_blk/bn"
  scale_param {
    bias_term: true
  }
}
layer {
  name: "relu3_blk"
  type: "ReLU"
  bottom: "conv3_blk/bn"
  top: "conv3_blk/bn"
}
layer {
  name: "conv3_blk"
  type: "Convolution"
  bottom: "conv3_blk/bn"
  top: "conv3_blk"
  convolution_param {
    num_output: 256
    bias_term: false
    pad: 
I1201 16:59:13.424016 31460 layer_factory.hpp:77] Creating layer word_images
I1201 16:59:13.424144 31460 db_lmdb.cpp:35] Opened lmdb /data/fwolf/mintpp/gw_cv3_nti500000_pul2-3-4-5_train_word_images_lmdb
I1201 16:59:13.454174 31460 net.cpp:84] Creating Layer word_images
I1201 16:59:13.454210 31460 net.cpp:380] word_images -> word_images
I1201 16:59:13.454234 31460 net.cpp:380] word_images -> label
I1201 16:59:13.455621 31460 data_layer.cpp:44] output data size: 1,1,126,487
I1201 16:59:13.549181 31460 net.cpp:122] Setting up word_images
I1201 16:59:13.549216 31460 net.cpp:129] Top shape: 1 1 126 487 (61362)
I1201 16:59:13.549224 31460 net.cpp:129] Top shape: 1 (1)
I1201 16:59:13.549229 31460 net.cpp:137] Memory required for data: 245452
I1201 16:59:13.549237 31460 layer_factory.hpp:77] Creating layer phocs
I1201 16:59:13.549317 31460 db_lmdb.cpp:35] Opened lmdb /data/fwolf/mintpp/gw_cv3_nti500000_pul2-3-4-5_train_phocs_lmdb
I1201 16:59:13.706123 31460 net.cpp:84] Creating Layer phocs
I1201 16:59:13.706171 31460 net.cpp:380] phocs -> phocs
I1201 16:59:13.706188 31460 net.cpp:380] phocs -> label_phocs
I1201 16:59:13.706678 31460 data_layer.cpp:44] output data size: 1,1,1,604
I1201 16:59:13.712673 31460 net.cpp:122] Setting up phocs
I1201 16:59:13.712713 31460 net.cpp:129] Top shape: 1 1 1 604 (604)
I1201 16:59:13.712719 31460 net.cpp:129] Top shape: 1 (1)
I1201 16:59:13.712723 31460 net.cpp:137] Memory required for data: 247872
I1201 16:59:13.712729 31460 layer_factory.hpp:77] Creating layer conv1_grey
I1201 16:59:13.712751 31460 net.cpp:84] Creating Layer conv1_grey
I1201 16:59:13.712757 31460 net.cpp:406] conv1_grey <- word_images
I1201 16:59:13.712769 31460 net.cpp:380] conv1_grey -> conv1_grey
I1201 16:59:14.905776 31460 net.cpp:122] Setting up conv1_grey
I1201 16:59:14.905822 31460 net.cpp:129] Top shape: 1 64 63 244 (983808)
I1201 16:59:14.905828 31460 net.cpp:137] Memory required for data: 4183104
I1201 16:59:14.905843 31460 layer_factory.hpp:77] Creating layer conv1/bn
I1201 16:59:14.905858 31460 net.cpp:84] Creating Layer conv1/bn
I1201 16:59:14.905864 31460 net.cpp:406] conv1/bn <- conv1_grey
I1201 16:59:14.905870 31460 net.cpp:380] conv1/bn -> conv1/bn
I1201 16:59:14.996937 31460 net.cpp:122] Setting up conv1/bn
I1201 16:59:14.996971 31460 net.cpp:129] Top shape: 1 64 63 244 (983808)
I1201 16:59:14.996978 31460 net.cpp:137] Memory required for data: 8118336
I1201 16:59:14.996996 31460 layer_factory.hpp:77] Creating layer conv1/scale
I1201 16:59:14.997009 31460 net.cpp:84] Creating Layer conv1/scale
I1201 16:59:14.997015 31460 net.cpp:406] conv1/scale <- conv1/bn
I1201 16:59:14.997023 31460 net.cpp:367] conv1/scale -> conv1/bn (in-place)
I1201 16:59:14.997107 31460 layer_factory.hpp:77] Creating layer conv1/scale
I1201 16:59:14.997352 31460 net.cpp:122] Setting up conv1/scale
I1201 16:59:14.997361 31460 net.cpp:129] Top shape: 1 64 63 244 (983808)
I1201 16:59:14.997365 31460 net.cpp:137] Memory required for data: 12053568
I1201 16:59:14.997375 31460 layer_factory.hpp:77] Creating layer relu1
I1201 16:59:14.997383 31460 net.cpp:84] Creating Layer relu1
I1201 16:59:14.997387 31460 net.cpp:406] relu1 <- conv1/bn
I1201 16:59:14.997393 31460 net.cpp:367] relu1 -> conv1/bn (in-place)
I1201 16:59:14.997938 31460 net.cpp:122] Setting up relu1
I1201 16:59:14.997952 31460 net.cpp:129] Top shape: 1 64 63 244 (983808)
I1201 16:59:14.997957 31460 net.cpp:137] Memory required for data: 15988800
I1201 16:59:14.997961 31460 layer_factory.hpp:77] Creating layer pool1
I1201 16:59:14.997970 31460 net.cpp:84] Creating Layer pool1
I1201 16:59:14.997974 31460 net.cpp:406] pool1 <- conv1/bn
I1201 16:59:14.997982 31460 net.cpp:380] pool1 -> pool1
I1201 16:59:14.998057 31460 net.cpp:122] Setting up pool1
I1201 16:59:14.998066 31460 net.cpp:129] Top shape: 1 64 31 122 (242048)
I1201 16:59:14.998070 31460 net.cpp:137] Memory required for data: 16956992
I1201 16:59:14.998075 31460 layer_factory.hpp:77] Creating layer pool1_pool1_0_split
I1201 16:59:14.998081 31460 net.cpp:84] Creating Layer pool1_pool1_0_split
I1201 16:59:14.998085 31460 net.cpp:406] pool1_pool1_0_split <- pool1
I1201 16:59:14.998091 31460 net.cpp:380] pool1_pool1_0_split -> pool1_pool1_0_split_0
I1201 16:59:14.998098 31460 net.cpp:380] pool1_pool1_0_split -> pool1_pool1_0_split_1
I1201 16:59:14.998159 31460 net.cpp:122] Setting up pool1_pool1_0_split
I1201 16:59:14.998167 31460 net.cpp:129] Top shape: 1 64 31 122 (242048)
I1201 16:59:14.998173 31460 net.cpp:129] Top shape: 1 64 31 122 (242048)
I1201 16:59:14.998178 31460 net.cpp:137] Memory required for data: 18893376
I1201 16:59:14.998183 31460 layer_factory.hpp:77] Creating layer conv2_1/x1/bn
I1201 16:59:14.998191 31460 net.cpp:84] Creating Layer conv2_1/x1/bn
I1201 16:59:14.998195 31460 net.cpp:406] conv2_1/x1/bn <- pool1_pool1_0_split_0
I1201 16:59:14.998201 31460 net.cpp:380] conv2_1/x1/bn -> conv2_1/x1/bn
I1201 16:59:14.998585 31460 net.cpp:122] Setting up conv2_1/x1/bn
I1201 16:59:14.998594 31460 net.cpp:129] Top shape: 1 64 31 122 (242048)
I1201 16:59:14.998598 31460 net.cpp:137] Memory required for data: 19861568
I1201 16:59:14.998610 31460 layer_factory.hpp:77] Creating layer conv2_1/x1/scale
I1201 16:59:14.998618 31460 net.cpp:84] Creating Layer conv2_1/x1/scale
I1201 16:59:14.998622 31460 net.cpp:406] conv2_1/x1/scale <- conv2_1/x1/bn
I1201 16:59:14.998628 31460 net.cpp:367] conv2_1/x1/scale -> conv2_1/x1/bn (in-place)
I1201 16:59:14.998694 31460 layer_factory.hpp:77] Creating layer conv2_1/x1/scale
I1201 16:59:14.998921 31460 net.cpp:122] Setting up conv2_1/x1/scale
I1201 16:59:14.998930 31460 net.cpp:129] Top shape: 1 64 31 122 (242048)
I1201 16:59:14.998934 31460 net.cpp:137] Memory required for data: 20829760
I1201 16:59:14.998942 31460 layer_factory.hpp:77] Creating layer relu2_1/x1
I1201 16:59:14.998948 31460 net.cpp:84] Creating Layer relu2_1/x1
I1201 16:59:14.998960 31460 net.cpp:406] relu2_1/x1 <- conv2_1/x1/bn
I1201 16:59:14.998965 31460 net.cpp:367] relu2_1/x1 -> conv2_1/x1/bn (in-place)
I1201 16:59:14.999181 31460 net.cpp:122] Setting up relu2_1/x1
I1201 16:59:14.999191 31460 net.cpp:129] Top shape: 1 64 31 122 (242048)
I1201 16:59:14.999195 31460 net.cpp:137] Memory required for data: 21797952
I1201 16:59:14.999199 31460 layer_factory.hpp:77] Creating layer conv2_1/x1
I1201 16:59:14.999212 31460 net.cpp:84] Creating Layer conv2_1/x1
I1201 16:59:14.999217 31460 net.cpp:406] conv2_1/x1 <- conv2_1/x1/bn
I1201 16:59:14.999223 31460 net.cpp:380] conv2_1/x1 -> conv2_1/x1
I1201 16:59:15.054028 31460 net.cpp:122] Setting up conv2_1/x1
I1201 16:59:15.054061 31460 net.cpp:129] Top shape: 1 128 31 122 (484096)
I1201 16:59:15.054067 31460 net.cpp:137] Memory required for data: 23734336
I1201 16:59:15.054077 31460 layer_factory.hpp:77] Creating layer conv2_1/x2/bn
I1201 16:59:15.054090 31460 net.cpp:84] Creating Layer conv2_1/x2/bn
I1201 16:59:15.054096 31460 net.cpp:406] conv2_1/x2/bn <- conv2_1/x1
I1201 16:59:15.054105 31460 net.cpp:380] conv2_1/x2/bn -> conv2_1/x2/bn
I1201 16:59:15.054502 31460 net.cpp:122] Setting up conv2_1/x2/bn
I1201 16:59:15.054510 31460 net.cpp:129] Top shape: 1 128 31 122 (484096)
I1201 16:59:15.054514 31460 net.cpp:137] Memory required for data: 25670720
I1201 16:59:15.054524 31460 layer_factory.hpp:77] Creating layer conv2_1/x2/scale
I1201 16:59:15.054533 31460 net.cpp:84] Creating Layer conv2_1/x2/scale
I1201 16:59:15.054538 31460 net.cpp:406] conv2_1/x2/scale <- conv2_1/x2/bn
I1201 16:59:15.054543 31460 net.cpp:367] conv2_1/x2/scale -> conv2_1/x2/bn (in-place)
I1201 16:59:15.054612 31460 layer_factory.hpp:77] Creating layer conv2_1/x2/scale
I1201 16:59:15.054818 31460 net.cpp:122] Setting up conv2_1/x2/scale
I1201 16:59:15.054827 31460 net.cpp:129] Top shape: 1 128 31 122 (484096)
I1201 16:59:15.054831 31460 net.cpp:137] Memory required for data: 27607104
I1201 16:59:15.054842 31460 layer_factory.hpp:77] Creating layer relu2_1/x2
I1201 16:59:15.054850 31460 net.cpp:84] Creating Layer relu2_1/x2
I1201 16:59:15.054854 31460 net.cpp:406] relu2_1/x2 <- conv2_1/x2/bn
I1201 16:59:15.054860 31460 net.cpp:367] relu2_1/x2 -> conv2_1/x2/bn (in-place)
I1201 16:59:15.055282 31460 net.cpp:122] Setting up relu2_1/x2
I1201 16:59:15.055295 31460 net.cpp:129] Top shape: 1 128 31 122 (484096)
I1201 16:59:15.055299 31460 net.cpp:137] Memory required for data: 29543488
I1201 16:59:15.055305 31460 layer_factory.hpp:77] Creating layer conv2_1/x2
I1201 16:59:15.055316 31460 net.cpp:84] Creating Layer conv2_1/x2
I1201 16:59:15.055321 31460 net.cpp:406] conv2_1/x2 <- conv2_1/x2/bn
I1201 16:59:15.055328 31460 net.cpp:380] conv2_1/x2 -> conv2_1/x2
I1201 16:59:15.096987 31460 net.cpp:122] Setting up conv2_1/x2
I1201 16:59:15.097021 31460 net.cpp:129] Top shape: 1 32 31 122 (121024)
I1201 16:59:15.097026 31460 net.cpp:137] Memory required for data: 30027584
I1201 16:59:15.097038 31460 layer_factory.hpp:77] Creating layer concat_2_1
I1201 16:59:15.097054 31460 net.cpp:84] Creating Layer concat_2_1
I1201 16:59:15.097060 31460 net.cpp:406] concat_2_1 <- pool1_pool1_0_split_1
I1201 16:59:15.097069 31460 net.cpp:406] concat_2_1 <- conv2_1/x2
I1201 16:59:15.097077 31460 net.cpp:380] concat_2_1 -> concat_2_1
I1201 16:59:15.097131 31460 net.cpp:122] Setting up concat_2_1
I1201 16:59:15.097138 31460 net.cpp:129] Top shape: 1 96 31 122 (363072)
I1201 16:59:15.097142 31460 net.cpp:137] Memory required for data: 31479872
I1201 16:59:15.097146 31460 layer_factory.hpp:77] Creating layer concat_2_1_concat_2_1_0_split
I1201 16:59:15.097153 31460 net.cpp:84] Creating Layer concat_2_1_concat_2_1_0_split
I1201 16:59:15.097157 31460 net.cpp:406] concat_2_1_concat_2_1_0_split <- concat_2_1
I1201 16:59:15.097164 31460 net.cpp:380] concat_2_1_concat_2_1_0_split -> concat_2_1_concat_2_1_0_split_0
I1201 16:59:15.097172 31460 net.cpp:380] concat_2_1_concat_2_1_0_split -> concat_2_1_concat_2_1_0_split_1
I1201 16:59:15.097239 31460 net.cpp:122] Setting up concat_2_1_concat_2_1_0_split
I1201 16:59:15.097246 31460 net.cpp:129] Top shape: 1 96 31 122 (363072)
I1201 16:59:15.097256 31460 net.cpp:129] Top shape: 1 96 31 122 (363072)
I1201 16:59:15.097260 31460 net.cpp:137] Memory required for data: 34384448
I1201 16:59:15.097265 31460 layer_factory.hpp:77] Creating layer conv2_2/x1/bn
I1201 16:59:15.097272 31460 net.cpp:84] Creating Layer conv2_2/x1/bn
I1201 16:59:15.097278 31460 net.cpp:406] conv2_2/x1/bn <- concat_2_1_concat_2_1_0_split_0
I1201 16:59:15.097285 31460 net.cpp:380] conv2_2/x1/bn -> conv2_2/x1/bn
I1201 16:59:15.097735 31460 net.cpp:122] Setting up conv2_2/x1/bn
I1201 16:59:15.097745 31460 net.cpp:129] Top shape: 1 96 31 122 (363072)
I1201 16:59:15.097749 31460 net.cpp:137] Memory required for data: 35836736
I1201 16:59:15.097759 31460 layer_factory.hpp:77] Creating layer conv2_2/x1/scale
I1201 16:59:15.097769 31460 net.cpp:84] Creating Layer conv2_2/x1/scale
I1201 16:59:15.097774 31460 net.cpp:406] conv2_2/x1/scale <- conv2_2/x1/bn
I1201 16:59:15.097779 31460 net.cpp:367] conv2_2/x1/scale -> conv2_2/x1/bn (in-place)
I1201 16:59:15.097856 31460 layer_factory.hpp:77] Creating layer conv2_2/x1/scale
I1201 16:59:15.098101 31460 net.cpp:122] Setting up conv2_2/x1/scale
I1201 16:59:15.098110 31460 net.cpp:129] Top shape: 1 96 31 122 (363072)
I1201 16:59:15.098114 31460 net.cpp:137] Memory required for data: 37289024
I1201 16:59:15.098122 31460 layer_factory.hpp:77] Creating layer relu2_2/x1
I1201 16:59:15.098131 31460 net.cpp:84] Creating Layer relu2_2/x1
I1201 16:59:15.098135 31460 net.cpp:406] relu2_2/x1 <- conv2_2/x1/bn
I1201 16:59:15.098141 31460 net.cpp:367] relu2_2/x1 -> conv2_2/x1/bn (in-place)
I1201 16:59:15.098405 31460 net.cpp:122] Setting up relu2_2/x1
I1201 16:59:15.098417 31460 net.cpp:129] Top shape: 1 96 31 122 (363072)
I1201 16:59:15.098423 31460 net.cpp:137] Memory required for data: 38741312
I1201 16:59:15.098426 31460 layer_factory.hpp:77] Creating layer conv2_2/x1
I1201 16:59:15.098440 31460 net.cpp:84] Creating Layer conv2_2/x1
I1201 16:59:15.098445 31460 net.cpp:406] conv2_2/x1 <- conv2_2/x1/bn
I1201 16:59:15.098453 31460 net.cpp:380] conv2_2/x1 -> conv2_2/x1
I1201 16:59:15.100664 31460 net.cpp:122] Setting up conv2_2/x1
I1201 16:59:15.100702 31460 net.cpp:129] Top shape: 1 128 31 122 (484096)
I1201 16:59:15.100706 31460 net.cpp:137] Memory required for data: 40677696
I1201 16:59:15.100718 31460 layer_factory.hpp:77] Creating layer conv2_2/x2/bn
I1201 16:59:15.100734 31460 net.cpp:84] Creating Layer conv2_2/x2/bn
I1201 16:59:15.100741 31460 net.cpp:406] conv2_2/x2/bn <- conv2_2/x1
I1201 16:59:15.100750 31460 net.cpp:380] conv2_2/x2/bn -> conv2_2/x2/bn
I1201 16:59:15.101191 31460 net.cpp:122] Setting up conv2_2/x2/bn
I1201 16:59:15.101202 31460 net.cpp:129] Top shape: 1 128 31 122 (484096)
I1201 16:59:15.101207 31460 net.cpp:137] Memory required for data: 42614080
I1201 16:59:15.101217 31460 layer_factory.hpp:77] Creating layer conv2_2/x2/scale
I1201 16:59:15.101225 31460 net.cpp:84] Creating Layer conv2_2/x2/scale
I1201 16:59:15.101229 31460 net.cpp:406] conv2_2/x2/scale <- conv2_2/x2/bn
I1201 16:59:15.101235 31460 net.cpp:367] conv2_2/x2/scale -> conv2_2/x2/bn (in-place)
I1201 16:59:15.101315 31460 layer_factory.hpp:77] Creating layer conv2_2/x2/scale
I1201 16:59:15.101544 31460 net.cpp:122] Setting up conv2_2/x2/scale
I1201 16:59:15.101552 31460 net.cpp:129] Top shape: 1 128 31 122 (484096)
I1201 16:59:15.101557 31460 net.cpp:137] Memory required for data: 44550464
I1201 16:59:15.101563 31460 layer_factory.hpp:77] Creating layer relu2_2/x2
I1201 16:59:15.101572 31460 net.cpp:84] Creating Layer relu2_2/x2
I1201 16:59:15.101575 31460 net.cpp:406] relu2_2/x2 <- conv2_2/x2/bn
I1201 16:59:15.101583 31460 net.cpp:367] relu2_2/x2 -> conv2_2/x2/bn (in-place)
I1201 16:59:15.102166 31460 net.cpp:122] Setting up relu2_2/x2
I1201 16:59:15.102182 31460 net.cpp:129] Top shape: 1 128 31 122 (484096)
I1201 16:59:15.102186 31460 net.cpp:137] Memory required for data: 46486848
I1201 16:59:15.102191 31460 layer_factory.hpp:77] Creating layer conv2_2/x2
I1201 16:59:15.102206 31460 net.cpp:84] Creating Layer conv2_2/x2
I1201 16:59:15.102216 31460 net.cpp:406] conv2_2/x2 <- conv2_2/x2/bn
I1201 16:59:15.102226 31460 net.cpp:380] conv2_2/x2 -> conv2_2/x2
I1201 16:59:15.105561 31460 net.cpp:122] Setting up conv2_2/x2
I1201 16:59:15.105595 31460 net.cpp:129] Top shape: 1 32 31 122 (121024)
I1201 16:59:15.105600 31460 net.cpp:137] Memory required for data: 46970944
I1201 16:59:15.105612 31460 layer_factory.hpp:77] Creating layer concat_2_2
I1201 16:59:15.105624 31460 net.cpp:84] Creating Layer concat_2_2
I1201 16:59:15.105631 31460 net.cpp:406] concat_2_2 <- concat_2_1_concat_2_1_0_split_1
I1201 16:59:15.105639 31460 net.cpp:406] concat_2_2 <- conv2_2/x2
I1201 16:59:15.105645 31460 net.cpp:380] concat_2_2 -> concat_2_2
I1201 16:59:15.105700 31460 net.cpp:122] Setting up concat_2_2
I1201 16:59:15.105710 31460 net.cpp:129] Top shape: 1 128 31 122 (484096)
I1201 16:59:15.105715 31460 net.cpp:137] Memory required for data: 48907328
I1201 16:59:15.105718 31460 layer_factory.hpp:77] Creating layer concat_2_2_concat_2_2_0_split
I1201 16:59:15.105726 31460 net.cpp:84] Creating Layer concat_2_2_concat_2_2_0_split
I1201 16:59:15.105731 31460 net.cpp:406] concat_2_2_concat_2_2_0_split <- concat_2_2
I1201 16:59:15.105736 31460 net.cpp:380] concat_2_2_concat_2_2_0_split -> concat_2_2_concat_2_2_0_split_0
I1201 16:59:15.105743 31460 net.cpp:380] concat_2_2_concat_2_2_0_split -> concat_2_2_concat_2_2_0_split_1
I1201 16:59:15.105813 31460 net.cpp:122] Setting up concat_2_2_concat_2_2_0_split
I1201 16:59:15.105821 31460 net.cpp:129] Top shape: 1 128 31 122 (484096)
I1201 16:59:15.105826 31460 net.cpp:129] Top shape: 1 128 31 122 (484096)
I1201 16:59:15.105830 31460 net.cpp:137] Memory required for data: 52780096
I1201 16:59:15.105834 31460 layer_factory.hpp:77] Creating layer conv2_3/x1/bn
I1201 16:59:15.105844 31460 net.cpp:84] Creating Layer conv2_3/x1/bn
I1201 16:59:15.105847 31460 net.cpp:406] conv2_3/x1/bn <- concat_2_2_concat_2_2_0_split_0
I1201 16:59:15.105854 31460 net.cpp:380] conv2_3/x1/bn -> conv2_3/x1/bn
I1201 16:59:15.106277 31460 net.cpp:122] Setting up conv2_3/x1/bn
I1201 16:59:15.106286 31460 net.cpp:129] Top shape: 1 128 31 122 (484096)
I1201 16:59:15.106289 31460 net.cpp:137] Memory required for data: 54716480
I1201 16:59:15.106305 31460 layer_factory.hpp:77] Creating layer conv2_3/x1/scale
I1201 16:59:15.106315 31460 net.cpp:84] Creating Layer conv2_3/x1/scale
I1201 16:59:15.106319 31460 net.cpp:406] conv2_3/x1/scale <- conv2_3/x1/bn
I1201 16:59:15.106325 31460 net.cpp:367] conv2_3/x1/scale -> conv2_3/x1/bn (in-place)
I1201 16:59:15.106402 31460 layer_factory.hpp:77] Creating layer conv2_3/x1/scale
I1201 16:59:15.106626 31460 net.cpp:122] Setting up conv2_3/x1/scale
I1201 16:59:15.106634 31460 net.cpp:129] Top shape: 1 128 31 122 (484096)
I1201 16:59:15.106638 31460 net.cpp:137] Memory required for data: 56652864
I1201 16:59:15.106645 31460 layer_factory.hpp:77] Creating layer relu2_3/x1
I1201 16:59:15.106653 31460 net.cpp:84] Creating Layer relu2_3/x1
I1201 16:59:15.106657 31460 net.cpp:406] relu2_3/x1 <- conv2_3/x1/bn
I1201 16:59:15.106662 31460 net.cpp:367] relu2_3/x1 -> conv2_3/x1/bn (in-place)
I1201 16:59:15.107125 31460 net.cpp:122] Setting up relu2_3/x1
I1201 16:59:15.107138 31460 net.cpp:129] Top shape: 1 128 31 122 (484096)
I1201 16:59:15.107143 31460 net.cpp:137] Memory required for data: 58589248
I1201 16:59:15.107147 31460 layer_factory.hpp:77] Creating layer conv2_3/x1
I1201 16:59:15.107161 31460 net.cpp:84] Creating Layer conv2_3/x1
I1201 16:59:15.107167 31460 net.cpp:406] conv2_3/x1 <- conv2_3/x1/bn
I1201 16:59:15.107174 31460 net.cpp:380] conv2_3/x1 -> conv2_3/x1
I1201 16:59:15.109377 31460 net.cpp:122] Setting up conv2_3/x1
I1201 16:59:15.109402 31460 net.cpp:129] Top shape: 1 128 31 122 (484096)
I1201 16:59:15.109406 31460 net.cpp:137] Memory required for data: 60525632
I1201 16:59:15.109416 31460 layer_factory.hpp:77] Creating layer conv2_3/x2/bn
I1201 16:59:15.109429 31460 net.cpp:84] Creating Layer conv2_3/x2/bn
I1201 16:59:15.109436 31460 net.cpp:406] conv2_3/x2/bn <- conv2_3/x1
I1201 16:59:15.109444 31460 net.cpp:380] conv2_3/x2/bn -> conv2_3/x2/bn
I1201 16:59:15.109881 31460 net.cpp:122] Setting up conv2_3/x2/bn
I1201 16:59:15.109891 31460 net.cpp:129] Top shape: 1 128 31 122 (484096)
I1201 16:59:15.109895 31460 net.cpp:137] Memory required for data: 62462016
I1201 16:59:15.109905 31460 layer_factory.hpp:77] Creating layer conv2_3/x2/scale
I1201 16:59:15.109913 31460 net.cpp:84] Creating Layer conv2_3/x2/scale
I1201 16:59:15.109917 31460 net.cpp:406] conv2_3/x2/scale <- conv2_3/x2/bn
I1201 16:59:15.109925 31460 net.cpp:367] conv2_3/x2/scale -> conv2_3/x2/bn (in-place)
I1201 16:59:15.110002 31460 layer_factory.hpp:77] Creating layer conv2_3/x2/scale
I1201 16:59:15.110231 31460 net.cpp:122] Setting up conv2_3/x2/scale
I1201 16:59:15.110240 31460 net.cpp:129] Top shape: 1 128 31 122 (484096)
I1201 16:59:15.110244 31460 net.cpp:137] Memory required for data: 64398400
I1201 16:59:15.110251 31460 layer_factory.hpp:77] Creating layer relu2_3/x2
I1201 16:59:15.110258 31460 net.cpp:84] Creating Layer relu2_3/x2
I1201 16:59:15.110262 31460 net.cpp:406] relu2_3/x2 <- conv2_3/x2/bn
I1201 16:59:15.110268 31460 net.cpp:367] relu2_3/x2 -> conv2_3/x2/bn (in-place)
I1201 16:59:15.110515 31460 net.cpp:122] Setting up relu2_3/x2
I1201 16:59:15.110527 31460 net.cpp:129] Top shape: 1 128 31 122 (484096)
I1201 16:59:15.110530 31460 net.cpp:137] Memory required for data: 66334784
I1201 16:59:15.110534 31460 layer_factory.hpp:77] Creating layer conv2_3/x2
I1201 16:59:15.110548 31460 net.cpp:84] Creating Layer conv2_3/x2
I1201 16:59:15.110553 31460 net.cpp:406] conv2_3/x2 <- conv2_3/x2/bn
I1201 16:59:15.110560 31460 net.cpp:380] conv2_3/x2 -> conv2_3/x2
I1201 16:59:15.113864 31460 net.cpp:122] Setting up conv2_3/x2
I1201 16:59:15.113898 31460 net.cpp:129] Top shape: 1 32 31 122 (121024)
I1201 16:59:15.113903 31460 net.cpp:137] Memory required for data: 66818880
I1201 16:59:15.113914 31460 layer_factory.hpp:77] Creating layer concat_2_3
I1201 16:59:15.113925 31460 net.cpp:84] Creating Layer concat_2_3
I1201 16:59:15.113932 31460 net.cpp:406] concat_2_3 <- concat_2_2_concat_2_2_0_split_1
I1201 16:59:15.113940 31460 net.cpp:406] concat_2_3 <- conv2_3/x2
I1201 16:59:15.113950 31460 net.cpp:380] concat_2_3 -> concat_2_3
I1201 16:59:15.114001 31460 net.cpp:122] Setting up concat_2_3
I1201 16:59:15.114009 31460 net.cpp:129] Top shape: 1 160 31 122 (605120)
I1201 16:59:15.114013 31460 net.cpp:137] Memory required for data: 69239360
I1201 16:59:15.114017 31460 layer_factory.hpp:77] Creating layer concat_2_3_concat_2_3_0_split
I1201 16:59:15.114024 31460 net.cpp:84] Creating Layer concat_2_3_concat_2_3_0_split
I1201 16:59:15.114028 31460 net.cpp:406] concat_2_3_concat_2_3_0_split <- concat_2_3
I1201 16:59:15.114037 31460 net.cpp:380] concat_2_3_concat_2_3_0_split -> concat_2_3_concat_2_3_0_split_0
I1201 16:59:15.114043 31460 net.cpp:380] concat_2_3_concat_2_3_0_split -> concat_2_3_concat_2_3_0_split_1
I1201 16:59:15.114114 31460 net.cpp:122] Setting up concat_2_3_concat_2_3_0_split
I1201 16:59:15.114122 31460 net.cpp:129] Top shape: 1 160 31 122 (605120)
I1201 16:59:15.114128 31460 net.cpp:129] Top shape: 1 160 31 122 (605120)
I1201 16:59:15.114132 31460 net.cpp:137] Memory required for data: 74080320
I1201 16:59:15.114136 31460 layer_factory.hpp:77] Creating layer conv2_4/x1/bn
I1201 16:59:15.114143 31460 net.cpp:84] Creating Layer conv2_4/x1/bn
I1201 16:59:15.114150 31460 net.cpp:406] conv2_4/x1/bn <- concat_2_3_concat_2_3_0_split_0
I1201 16:59:15.114154 31460 net.cpp:380] conv2_4/x1/bn -> conv2_4/x1/bn
I1201 16:59:15.114604 31460 net.cpp:122] Setting up conv2_4/x1/bn
I1201 16:59:15.114614 31460 net.cpp:129] Top shape: 1 160 31 122 (605120)
I1201 16:59:15.114617 31460 net.cpp:137] Memory required for data: 76500800
I1201 16:59:15.114627 31460 layer_factory.hpp:77] Creating layer conv2_4/x1/scale
I1201 16:59:15.114634 31460 net.cpp:84] Creating Layer conv2_4/x1/scale
I1201 16:59:15.114639 31460 net.cpp:406] conv2_4/x1/scale <- conv2_4/x1/bn
I1201 16:59:15.114646 31460 net.cpp:367] conv2_4/x1/scale -> conv2_4/x1/bn (in-place)
I1201 16:59:15.114723 31460 layer_factory.hpp:77] Creating layer conv2_4/x1/scale
I1201 16:59:15.115044 31460 net.cpp:122] Setting up conv2_4/x1/scale
I1201 16:59:15.115064 31460 net.cpp:129] Top shape: 1 160 31 122 (605120)
I1201 16:59:15.115068 31460 net.cpp:137] Memory required for data: 78921280
I1201 16:59:15.115077 31460 layer_factory.hpp:77] Creating layer relu2_4/x1
I1201 16:59:15.115085 31460 net.cpp:84] Creating Layer relu2_4/x1
I1201 16:59:15.115090 31460 net.cpp:406] relu2_4/x1 <- conv2_4/x1/bn
I1201 16:59:15.115095 31460 net.cpp:367] relu2_4/x1 -> conv2_4/x1/bn (in-place)
I1201 16:59:15.115592 31460 net.cpp:122] Setting up relu2_4/x1
I1201 16:59:15.115607 31460 net.cpp:129] Top shape: 1 160 31 122 (605120)
I1201 16:59:15.115610 31460 net.cpp:137] Memory required for data: 81341760
I1201 16:59:15.115615 31460 layer_factory.hpp:77] Creating layer conv2_4/x1
I1201 16:59:15.115628 31460 net.cpp:84] Creating Layer conv2_4/x1
I1201 16:59:15.115633 31460 net.cpp:406] conv2_4/x1 <- conv2_4/x1/bn
I1201 16:59:15.115643 31460 net.cpp:380] conv2_4/x1 -> conv2_4/x1
I1201 16:59:15.118134 31460 net.cpp:122] Setting up conv2_4/x1
I1201 16:59:15.118147 31460 net.cpp:129] Top shape: 1 128 31 122 (484096)
I1201 16:59:15.118152 31460 net.cpp:137] Memory required for data: 83278144
I1201 16:59:15.118160 31460 layer_factory.hpp:77] Creating layer conv2_4/x2/bn
I1201 16:59:15.118168 31460 net.cpp:84] Creating Layer conv2_4/x2/bn
I1201 16:59:15.118173 31460 net.cpp:406] conv2_4/x2/bn <- conv2_4/x1
I1201 16:59:15.118180 31460 net.cpp:380] conv2_4/x2/bn -> conv2_4/x2/bn
I1201 16:59:15.118630 31460 net.cpp:122] Setting up conv2_4/x2/bn
I1201 16:59:15.118643 31460 net.cpp:129] Top shape: 1 128 31 122 (484096)
I1201 16:59:15.118646 31460 net.cpp:137] Memory required for data: 85214528
I1201 16:59:15.118656 31460 layer_factory.hpp:77] Creating layer conv2_4/x2/scale
I1201 16:59:15.118664 31460 net.cpp:84] Creating Layer conv2_4/x2/scale
I1201 16:59:15.118669 31460 net.cpp:406] conv2_4/x2/scale <- conv2_4/x2/bn
I1201 16:59:15.118674 31460 net.cpp:367] conv2_4/x2/scale -> conv2_4/x2/bn (in-place)
I1201 16:59:15.118748 31460 layer_factory.hpp:77] Creating layer conv2_4/x2/scale
I1201 16:59:15.118978 31460 net.cpp:122] Setting up conv2_4/x2/scale
I1201 16:59:15.118986 31460 net.cpp:129] Top shape: 1 128 31 122 (484096)
I1201 16:59:15.118990 31460 net.cpp:137] Memory required for data: 87150912
I1201 16:59:15.118998 31460 layer_factory.hpp:77] Creating layer relu2_4/x2
I1201 16:59:15.119004 31460 net.cpp:84] Creating Layer relu2_4/x2
I1201 16:59:15.119009 31460 net.cpp:406] relu2_4/x2 <- conv2_4/x2/bn
I1201 16:59:15.119017 31460 net.cpp:367] relu2_4/x2 -> conv2_4/x2/bn (in-place)
I1201 16:59:15.119246 31460 net.cpp:122] Setting up relu2_4/x2
I1201 16:59:15.119256 31460 net.cpp:129] Top shape: 1 128 31 122 (484096)
I1201 16:59:15.119261 31460 net.cpp:137] Memory required for data: 89087296
I1201 16:59:15.119266 31460 layer_factory.hpp:77] Creating layer conv2_4/x2
I1201 16:59:15.119277 31460 net.cpp:84] Creating Layer conv2_4/x2
I1201 16:59:15.119282 31460 net.cpp:406] conv2_4/x2 <- conv2_4/x2/bn
I1201 16:59:15.119289 31460 net.cpp:380] conv2_4/x2 -> conv2_4/x2
I1201 16:59:15.122390 31460 net.cpp:122] Setting up conv2_4/x2
I1201 16:59:15.122406 31460 net.cpp:129] Top shape: 1 32 31 122 (121024)
I1201 16:59:15.122409 31460 net.cpp:137] Memory required for data: 89571392
I1201 16:59:15.122416 31460 layer_factory.hpp:77] Creating layer concat_2_4
I1201 16:59:15.122426 31460 net.cpp:84] Creating Layer concat_2_4
I1201 16:59:15.122431 31460 net.cpp:406] concat_2_4 <- concat_2_3_concat_2_3_0_split_1
I1201 16:59:15.122437 31460 net.cpp:406] concat_2_4 <- conv2_4/x2
I1201 16:59:15.122442 31460 net.cpp:380] concat_2_4 -> concat_2_4
I1201 16:59:15.122493 31460 net.cpp:122] Setting up concat_2_4
I1201 16:59:15.122500 31460 net.cpp:129] Top shape: 1 192 31 122 (726144)
I1201 16:59:15.122504 31460 net.cpp:137] Memory required for data: 92475968
I1201 16:59:15.122509 31460 layer_factory.hpp:77] Creating layer concat_2_4_concat_2_4_0_split
I1201 16:59:15.122516 31460 net.cpp:84] Creating Layer concat_2_4_concat_2_4_0_split
I1201 16:59:15.122524 31460 net.cpp:406] concat_2_4_concat_2_4_0_split <- concat_2_4
I1201 16:59:15.122532 31460 net.cpp:380] concat_2_4_concat_2_4_0_split -> concat_2_4_concat_2_4_0_split_0
I1201 16:59:15.122539 31460 net.cpp:380] concat_2_4_concat_2_4_0_split -> concat_2_4_concat_2_4_0_split_1
I1201 16:59:15.122609 31460 net.cpp:122] Setting up concat_2_4_concat_2_4_0_split
I1201 16:59:15.122617 31460 net.cpp:129] Top shape: 1 192 31 122 (726144)
I1201 16:59:15.122622 31460 net.cpp:129] Top shape: 1 192 31 122 (726144)
I1201 16:59:15.122627 31460 net.cpp:137] Memory required for data: 98285120
I1201 16:59:15.122630 31460 layer_factory.hpp:77] Creating layer conv2_5/x1/bn
I1201 16:59:15.122637 31460 net.cpp:84] Creating Layer conv2_5/x1/bn
I1201 16:59:15.122642 31460 net.cpp:406] conv2_5/x1/bn <- concat_2_4_concat_2_4_0_split_0
I1201 16:59:15.122649 31460 net.cpp:380] conv2_5/x1/bn -> conv2_5/x1/bn
I1201 16:59:15.123106 31460 net.cpp:122] Setting up conv2_5/x1/bn
I1201 16:59:15.123116 31460 net.cpp:129] Top shape: 1 192 31 122 (726144)
I1201 16:59:15.123121 31460 net.cpp:137] Memory required for data: 101189696
I1201 16:59:15.123129 31460 layer_factory.hpp:77] Creating layer conv2_5/x1/scale
I1201 16:59:15.123136 31460 net.cpp:84] Creating Layer conv2_5/x1/scale
I1201 16:59:15.123142 31460 net.cpp:406] conv2_5/x1/scale <- conv2_5/x1/bn
I1201 16:59:15.123148 31460 net.cpp:367] conv2_5/x1/scale -> conv2_5/x1/bn (in-place)
I1201 16:59:15.123224 31460 layer_factory.hpp:77] Creating layer conv2_5/x1/scale
I1201 16:59:15.123471 31460 net.cpp:122] Setting up conv2_5/x1/scale
I1201 16:59:15.123481 31460 net.cpp:129] Top shape: 1 192 31 122 (726144)
I1201 16:59:15.123484 31460 net.cpp:137] Memory required for data: 104094272
I1201 16:59:15.123492 31460 layer_factory.hpp:77] Creating layer relu2_5/x1
I1201 16:59:15.123498 31460 net.cpp:84] Creating Layer relu2_5/x1
I1201 16:59:15.123502 31460 net.cpp:406] relu2_5/x1 <- conv2_5/x1/bn
I1201 16:59:15.123509 31460 net.cpp:367] relu2_5/x1 -> conv2_5/x1/bn (in-place)
I1201 16:59:15.123945 31460 net.cpp:122] Setting up relu2_5/x1
I1201 16:59:15.123958 31460 net.cpp:129] Top shape: 1 192 31 122 (726144)
I1201 16:59:15.123962 31460 net.cpp:137] Memory required for data: 106998848
I1201 16:59:15.123967 31460 layer_factory.hpp:77] Creating layer conv2_5/x1
I1201 16:59:15.123980 31460 net.cpp:84] Creating Layer conv2_5/x1
I1201 16:59:15.123984 31460 net.cpp:406] conv2_5/x1 <- conv2_5/x1/bn
I1201 16:59:15.123992 31460 net.cpp:380] conv2_5/x1 -> conv2_5/x1
I1201 16:59:15.126564 31460 net.cpp:122] Setting up conv2_5/x1
I1201 16:59:15.126582 31460 net.cpp:129] Top shape: 1 128 31 122 (484096)
I1201 16:59:15.126587 31460 net.cpp:137] Memory required for data: 108935232
I1201 16:59:15.126595 31460 layer_factory.hpp:77] Creating layer conv2_5/x2/bn
I1201 16:59:15.126603 31460 net.cpp:84] Creating Layer conv2_5/x2/bn
I1201 16:59:15.126608 31460 net.cpp:406] conv2_5/x2/bn <- conv2_5/x1
I1201 16:59:15.126617 31460 net.cpp:380] conv2_5/x2/bn -> conv2_5/x2/bn
I1201 16:59:15.127059 31460 net.cpp:122] Setting up conv2_5/x2/bn
I1201 16:59:15.127069 31460 net.cpp:129] Top shape: 1 128 31 122 (484096)
I1201 16:59:15.127074 31460 net.cpp:137] Memory required for data: 110871616
I1201 16:59:15.127084 31460 layer_factory.hpp:77] Creating layer conv2_5/x2/scale
I1201 16:59:15.127091 31460 net.cpp:84] Creating Layer conv2_5/x2/scale
I1201 16:59:15.127095 31460 net.cpp:406] conv2_5/x2/scale <- conv2_5/x2/bn
I1201 16:59:15.127102 31460 net.cpp:367] conv2_5/x2/scale -> conv2_5/x2/bn (in-place)
I1201 16:59:15.127180 31460 layer_factory.hpp:77] Creating layer conv2_5/x2/scale
I1201 16:59:15.127413 31460 net.cpp:122] Setting up conv2_5/x2/scale
I1201 16:59:15.127423 31460 net.cpp:129] Top shape: 1 128 31 122 (484096)
I1201 16:59:15.127426 31460 net.cpp:137] Memory required for data: 112808000
I1201 16:59:15.127440 31460 layer_factory.hpp:77] Creating layer relu2_5/x2
I1201 16:59:15.127449 31460 net.cpp:84] Creating Layer relu2_5/x2
I1201 16:59:15.127452 31460 net.cpp:406] relu2_5/x2 <- conv2_5/x2/bn
I1201 16:59:15.127462 31460 net.cpp:367] relu2_5/x2 -> conv2_5/x2/bn (in-place)
I1201 16:59:15.127910 31460 net.cpp:122] Setting up relu2_5/x2
I1201 16:59:15.127923 31460 net.cpp:129] Top shape: 1 128 31 122 (484096)
I1201 16:59:15.127928 31460 net.cpp:137] Memory required for data: 114744384
I1201 16:59:15.127933 31460 layer_factory.hpp:77] Creating layer conv2_5/x2
I1201 16:59:15.127944 31460 net.cpp:84] Creating Layer conv2_5/x2
I1201 16:59:15.127949 31460 net.cpp:406] conv2_5/x2 <- conv2_5/x2/bn
I1201 16:59:15.127957 31460 net.cpp:380] conv2_5/x2 -> conv2_5/x2
I1201 16:59:15.131467 31460 net.cpp:122] Setting up conv2_5/x2
I1201 16:59:15.131501 31460 net.cpp:129] Top shape: 1 32 31 122 (121024)
I1201 16:59:15.131506 31460 net.cpp:137] Memory required for data: 115228480
I1201 16:59:15.131518 31460 layer_factory.hpp:77] Creating layer concat_2_5
I1201 16:59:15.131532 31460 net.cpp:84] Creating Layer concat_2_5
I1201 16:59:15.131539 31460 net.cpp:406] concat_2_5 <- concat_2_4_concat_2_4_0_split_1
I1201 16:59:15.131547 31460 net.cpp:406] concat_2_5 <- conv2_5/x2
I1201 16:59:15.131554 31460 net.cpp:380] concat_2_5 -> concat_2_5
I1201 16:59:15.131613 31460 net.cpp:122] Setting up concat_2_5
I1201 16:59:15.131621 31460 net.cpp:129] Top shape: 1 224 31 122 (847168)
I1201 16:59:15.131625 31460 net.cpp:137] Memory required for data: 118617152
I1201 16:59:15.131630 31460 layer_factory.hpp:77] Creating layer concat_2_5_concat_2_5_0_split
I1201 16:59:15.131638 31460 net.cpp:84] Creating Layer concat_2_5_concat_2_5_0_split
I1201 16:59:15.131641 31460 net.cpp:406] concat_2_5_concat_2_5_0_split <- concat_2_5
I1201 16:59:15.131647 31460 net.cpp:380] concat_2_5_concat_2_5_0_split -> concat_2_5_concat_2_5_0_split_0
I1201 16:59:15.131654 31460 net.cpp:380] concat_2_5_concat_2_5_0_split -> concat_2_5_concat_2_5_0_split_1
I1201 16:59:15.131727 31460 net.cpp:122] Setting up concat_2_5_concat_2_5_0_split
I1201 16:59:15.131736 31460 net.cpp:129] Top shape: 1 224 31 122 (847168)
I1201 16:59:15.131741 31460 net.cpp:129] Top shape: 1 224 31 122 (847168)
I1201 16:59:15.131744 31460 net.cpp:137] Memory required for data: 125394496
I1201 16:59:15.131755 31460 layer_factory.hpp:77] Creating layer conv2_6/x1/bn
I1201 16:59:15.131764 31460 net.cpp:84] Creating Layer conv2_6/x1/bn
I1201 16:59:15.131768 31460 net.cpp:406] conv2_6/x1/bn <- concat_2_5_concat_2_5_0_split_0
I1201 16:59:15.131774 31460 net.cpp:380] conv2_6/x1/bn -> conv2_6/x1/bn
I1201 16:59:15.132505 31460 net.cpp:122] Setting up conv2_6/x1/bn
I1201 16:59:15.132524 31460 net.cpp:129] Top shape: 1 224 31 122 (847168)
I1201 16:59:15.132529 31460 net.cpp:137] Memory required for data: 128783168
I1201 16:59:15.132541 31460 layer_factory.hpp:77] Creating layer conv2_6/x1/scale
I1201 16:59:15.132552 31460 net.cpp:84] Creating Layer conv2_6/x1/scale
I1201 16:59:15.132558 31460 net.cpp:406] conv2_6/x1/scale <- conv2_6/x1/bn
I1201 16:59:15.132565 31460 net.cpp:367] conv2_6/x1/scale -> conv2_6/x1/bn (in-place)
I1201 16:59:15.132647 31460 layer_factory.hpp:77] Creating layer conv2_6/x1/scale
I1201 16:59:15.132912 31460 net.cpp:122] Setting up conv2_6/x1/scale
I1201 16:59:15.132921 31460 net.cpp:129] Top shape: 1 224 31 122 (847168)
I1201 16:59:15.132925 31460 net.cpp:137] Memory required for data: 132171840
I1201 16:59:15.132933 31460 layer_factory.hpp:77] Creating layer relu2_6/x1
I1201 16:59:15.132941 31460 net.cpp:84] Creating Layer relu2_6/x1
I1201 16:59:15.132946 31460 net.cpp:406] relu2_6/x1 <- conv2_6/x1/bn
I1201 16:59:15.132951 31460 net.cpp:367] relu2_6/x1 -> conv2_6/x1/bn (in-place)
I1201 16:59:15.133260 31460 net.cpp:122] Setting up relu2_6/x1
I1201 16:59:15.133271 31460 net.cpp:129] Top shape: 1 224 31 122 (847168)
I1201 16:59:15.133275 31460 net.cpp:137] Memory required for data: 135560512
I1201 16:59:15.133280 31460 layer_factory.hpp:77] Creating layer conv2_6/x1
I1201 16:59:15.133293 31460 net.cpp:84] Creating Layer conv2_6/x1
I1201 16:59:15.133298 31460 net.cpp:406] conv2_6/x1 <- conv2_6/x1/bn
I1201 16:59:15.133307 31460 net.cpp:380] conv2_6/x1 -> conv2_6/x1
I1201 16:59:15.136373 31460 net.cpp:122] Setting up conv2_6/x1
I1201 16:59:15.136409 31460 net.cpp:129] Top shape: 1 128 31 122 (484096)
I1201 16:59:15.136415 31460 net.cpp:137] Memory required for data: 137496896
I1201 16:59:15.136425 31460 layer_factory.hpp:77] Creating layer conv2_6/x2/bn
I1201 16:59:15.136440 31460 net.cpp:84] Creating Layer conv2_6/x2/bn
I1201 16:59:15.136446 31460 net.cpp:406] conv2_6/x2/bn <- conv2_6/x1
I1201 16:59:15.136457 31460 net.cpp:380] conv2_6/x2/bn -> conv2_6/x2/bn
I1201 16:59:15.136924 31460 net.cpp:122] Setting up conv2_6/x2/bn
I1201 16:59:15.136934 31460 net.cpp:129] Top shape: 1 128 31 122 (484096)
I1201 16:59:15.136937 31460 net.cpp:137] Memory required for data: 139433280
I1201 16:59:15.136947 31460 layer_factory.hpp:77] Creating layer conv2_6/x2/scale
I1201 16:59:15.136955 31460 net.cpp:84] Creating Layer conv2_6/x2/scale
I1201 16:59:15.136960 31460 net.cpp:406] conv2_6/x2/scale <- conv2_6/x2/bn
I1201 16:59:15.136967 31460 net.cpp:367] conv2_6/x2/scale -> conv2_6/x2/bn (in-place)
I1201 16:59:15.137049 31460 layer_factory.hpp:77] Creating layer conv2_6/x2/scale
I1201 16:59:15.137295 31460 net.cpp:122] Setting up conv2_6/x2/scale
I1201 16:59:15.137303 31460 net.cpp:129] Top shape: 1 128 31 122 (484096)
I1201 16:59:15.137307 31460 net.cpp:137] Memory required for data: 141369664
I1201 16:59:15.137315 31460 layer_factory.hpp:77] Creating layer relu2_6/x2
I1201 16:59:15.137325 31460 net.cpp:84] Creating Layer relu2_6/x2
I1201 16:59:15.137329 31460 net.cpp:406] relu2_6/x2 <- conv2_6/x2/bn
I1201 16:59:15.137337 31460 net.cpp:367] relu2_6/x2 -> conv2_6/x2/bn (in-place)
I1201 16:59:15.137809 31460 net.cpp:122] Setting up relu2_6/x2
I1201 16:59:15.137820 31460 net.cpp:129] Top shape: 1 128 31 122 (484096)
I1201 16:59:15.137825 31460 net.cpp:137] Memory required for data: 143306048
I1201 16:59:15.137830 31460 layer_factory.hpp:77] Creating layer conv2_6/x2
I1201 16:59:15.137845 31460 net.cpp:84] Creating Layer conv2_6/x2
I1201 16:59:15.137850 31460 net.cpp:406] conv2_6/x2 <- conv2_6/x2/bn
I1201 16:59:15.137859 31460 net.cpp:380] conv2_6/x2 -> conv2_6/x2
I1201 16:59:15.141966 31460 net.cpp:122] Setting up conv2_6/x2
I1201 16:59:15.141994 31460 net.cpp:129] Top shape: 1 32 31 122 (121024)
I1201 16:59:15.141999 31460 net.cpp:137] Memory required for data: 143790144
I1201 16:59:15.142009 31460 layer_factory.hpp:77] Creating layer concat_2_6
I1201 16:59:15.142019 31460 net.cpp:84] Creating Layer concat_2_6
I1201 16:59:15.142025 31460 net.cpp:406] concat_2_6 <- concat_2_5_concat_2_5_0_split_1
I1201 16:59:15.142035 31460 net.cpp:406] concat_2_6 <- conv2_6/x2
I1201 16:59:15.142041 31460 net.cpp:380] concat_2_6 -> concat_2_6
I1201 16:59:15.142096 31460 net.cpp:122] Setting up concat_2_6
I1201 16:59:15.142103 31460 net.cpp:129] Top shape: 1 256 31 122 (968192)
I1201 16:59:15.142107 31460 net.cpp:137] Memory required for data: 147662912
I1201 16:59:15.142112 31460 layer_factory.hpp:77] Creating layer conv2_blk/bn
I1201 16:59:15.142120 31460 net.cpp:84] Creating Layer conv2_blk/bn
I1201 16:59:15.142125 31460 net.cpp:406] conv2_blk/bn <- concat_2_6
I1201 16:59:15.142132 31460 net.cpp:380] conv2_blk/bn -> conv2_blk/bn
I1201 16:59:15.142598 31460 net.cpp:122] Setting up conv2_blk/bn
I1201 16:59:15.142607 31460 net.cpp:129] Top shape: 1 256 31 122 (968192)
I1201 16:59:15.142611 31460 net.cpp:137] Memory required for data: 151535680
I1201 16:59:15.142621 31460 layer_factory.hpp:77] Creating layer conv2_blk/scale
I1201 16:59:15.142632 31460 net.cpp:84] Creating Layer conv2_blk/scale
I1201 16:59:15.142635 31460 net.cpp:406] conv2_blk/scale <- conv2_blk/bn
I1201 16:59:15.142642 31460 net.cpp:367] conv2_blk/scale -> conv2_blk/bn (in-place)
I1201 16:59:15.142724 31460 layer_factory.hpp:77] Creating layer conv2_blk/scale
I1201 16:59:15.142968 31460 net.cpp:122] Setting up conv2_blk/scale
I1201 16:59:15.142977 31460 net.cpp:129] Top shape: 1 256 31 122 (968192)
I1201 16:59:15.142982 31460 net.cpp:137] Memory required for data: 155408448
I1201 16:59:15.142988 31460 layer_factory.hpp:77] Creating layer relu2_blk
I1201 16:59:15.142995 31460 net.cpp:84] Creating Layer relu2_blk
I1201 16:59:15.143004 31460 net.cpp:406] relu2_blk <- conv2_blk/bn
I1201 16:59:15.143012 31460 net.cpp:367] relu2_blk -> conv2_blk/bn (in-place)
I1201 16:59:15.143249 31460 net.cpp:122] Setting up relu2_blk
I1201 16:59:15.143260 31460 net.cpp:129] Top shape: 1 256 31 122 (968192)
I1201 16:59:15.143263 31460 net.cpp:137] Memory required for data: 159281216
I1201 16:59:15.143268 31460 layer_factory.hpp:77] Creating layer conv2_blk
I1201 16:59:15.143280 31460 net.cpp:84] Creating Layer conv2_blk
I1201 16:59:15.143285 31460 net.cpp:406] conv2_blk <- conv2_blk/bn
I1201 16:59:15.143295 31460 net.cpp:380] conv2_blk -> conv2_blk
I1201 16:59:15.167486 31460 net.cpp:122] Setting up conv2_blk
I1201 16:59:15.167523 31460 net.cpp:129] Top shape: 1 128 31 122 (484096)
I1201 16:59:15.167528 31460 net.cpp:137] Memory required for data: 161217600
I1201 16:59:15.167538 31460 layer_factory.hpp:77] Creating layer pool2
I1201 16:59:15.167553 31460 net.cpp:84] Creating Layer pool2
I1201 16:59:15.167559 31460 net.cpp:406] pool2 <- conv2_blk
I1201 16:59:15.167570 31460 net.cpp:380] pool2 -> pool2
I1201 16:59:15.211678 31460 net.cpp:122] Setting up pool2
I1201 16:59:15.211709 31460 net.cpp:129] Top shape: 1 128 16 61 (124928)
I1201 16:59:15.211714 31460 net.cpp:137] Memory required for data: 161717312
I1201 16:59:15.211721 31460 layer_factory.hpp:77] Creating layer pool2_pool2_0_split
I1201 16:59:15.211735 31460 net.cpp:84] Creating Layer pool2_pool2_0_split
I1201 16:59:15.211741 31460 net.cpp:406] pool2_pool2_0_split <- pool2
I1201 16:59:15.211753 31460 net.cpp:380] pool2_pool2_0_split -> pool2_pool2_0_split_0
I1201 16:59:15.211766 31460 net.cpp:380] pool2_pool2_0_split -> pool2_pool2_0_split_1
I1201 16:59:15.211853 31460 net.cpp:122] Setting up pool2_pool2_0_split
I1201 16:59:15.211860 31460 net.cpp:129] Top shape: 1 128 16 61 (124928)
I1201 16:59:15.211865 31460 net.cpp:129] Top shape: 1 128 16 61 (124928)
I1201 16:59:15.211869 31460 net.cpp:137] Memory required for data: 162716736
I1201 16:59:15.211874 31460 layer_factory.hpp:77] Creating layer conv3_1/x1/bn
I1201 16:59:15.211884 31460 net.cpp:84] Creating Layer conv3_1/x1/bn
I1201 16:59:15.211887 31460 net.cpp:406] conv3_1/x1/bn <- pool2_pool2_0_split_0
I1201 16:59:15.211895 31460 net.cpp:380] conv3_1/x1/bn -> conv3_1/x1/bn
I1201 16:59:15.212368 31460 net.cpp:122] Setting up conv3_1/x1/bn
I1201 16:59:15.212378 31460 net.cpp:129] Top shape: 1 128 16 61 (124928)
I1201 16:59:15.212381 31460 net.cpp:137] Memory required for data: 163216448
I1201 16:59:15.212393 31460 layer_factory.hpp:77] Creating layer conv3_1/x1/scale
I1201 16:59:15.212402 31460 net.cpp:84] Creating Layer conv3_1/x1/scale
I1201 16:59:15.212407 31460 net.cpp:406] conv3_1/x1/scale <- conv3_1/x1/bn
I1201 16:59:15.212414 31460 net.cpp:367] conv3_1/x1/scale -> conv3_1/x1/bn (in-place)
I1201 16:59:15.212494 31460 layer_factory.hpp:77] Creating layer conv3_1/x1/scale
I1201 16:59:15.212762 31460 net.cpp:122] Setting up conv3_1/x1/scale
I1201 16:59:15.212771 31460 net.cpp:129] Top shape: 1 128 16 61 (124928)
I1201 16:59:15.212775 31460 net.cpp:137] Memory required for data: 163716160
I1201 16:59:15.212782 31460 layer_factory.hpp:77] Creating layer relu3_1/x1
I1201 16:59:15.212790 31460 net.cpp:84] Creating Layer relu3_1/x1
I1201 16:59:15.212795 31460 net.cpp:406] relu3_1/x1 <- conv3_1/x1/bn
I1201 16:59:15.212800 31460 net.cpp:367] relu3_1/x1 -> conv3_1/x1/bn (in-place)
I1201 16:59:15.213285 31460 net.cpp:122] Setting up relu3_1/x1
I1201 16:59:15.213299 31460 net.cpp:129] Top shape: 1 128 16 61 (124928)
I1201 16:59:15.213304 31460 net.cpp:137] Memory required for data: 164215872
I1201 16:59:15.213307 31460 layer_factory.hpp:77] Creating layer conv3_1/x1
I1201 16:59:15.213323 31460 net.cpp:84] Creating Layer conv3_1/x1
I1201 16:59:15.213330 31460 net.cpp:406] conv3_1/x1 <- conv3_1/x1/bn
I1201 16:59:15.213337 31460 net.cpp:380] conv3_1/x1 -> conv3_1/x1
I1201 16:59:15.215732 31460 net.cpp:122] Setting up conv3_1/x1
I1201 16:59:15.233829 31460 net.cpp:129] Top shape: 1 128 16 61 (124928)
I1201 16:59:15.233861 31460 net.cpp:137] Memory required for data: 164715584
I1201 16:59:15.233875 31460 layer_factory.hpp:77] Creating layer conv3_1/x2/bn
I1201 16:59:15.233889 31460 net.cpp:84] Creating Layer conv3_1/x2/bn
I1201 16:59:15.233896 31460 net.cpp:406] conv3_1/x2/bn <- conv3_1/x1
I1201 16:59:15.233904 31460 net.cpp:380] conv3_1/x2/bn -> conv3_1/x2/bn
I1201 16:59:15.234483 31460 net.cpp:122] Setting up conv3_1/x2/bn
I1201 16:59:15.234493 31460 net.cpp:129] Top shape: 1 128 16 61 (124928)
I1201 16:59:15.234498 31460 net.cpp:137] Memory required for data: 165215296
I1201 16:59:15.234508 31460 layer_factory.hpp:77] Creating layer conv3_1/x2/scale
I1201 16:59:15.234517 31460 net.cpp:84] Creating Layer conv3_1/x2/scale
I1201 16:59:15.234522 31460 net.cpp:406] conv3_1/x2/scale <- conv3_1/x2/bn
I1201 16:59:15.234527 31460 net.cpp:367] conv3_1/x2/scale -> conv3_1/x2/bn (in-place)
I1201 16:59:15.234609 31460 layer_factory.hpp:77] Creating layer conv3_1/x2/scale
I1201 16:59:15.234854 31460 net.cpp:122] Setting up conv3_1/x2/scale
I1201 16:59:15.234863 31460 net.cpp:129] Top shape: 1 128 16 61 (124928)
I1201 16:59:15.234868 31460 net.cpp:137] Memory required for data: 165715008
I1201 16:59:15.234874 31460 layer_factory.hpp:77] Creating layer relu3_1/x2
I1201 16:59:15.234881 31460 net.cpp:84] Creating Layer relu3_1/x2
I1201 16:59:15.234886 31460 net.cpp:406] relu3_1/x2 <- conv3_1/x2/bn
I1201 16:59:15.234891 31460 net.cpp:367] relu3_1/x2 -> conv3_1/x2/bn (in-place)
I1201 16:59:15.235183 31460 net.cpp:122] Setting up relu3_1/x2
I1201 16:59:15.235193 31460 net.cpp:129] Top shape: 1 128 16 61 (124928)
I1201 16:59:15.235198 31460 net.cpp:137] Memory required for data: 166214720
I1201 16:59:15.235201 31460 layer_factory.hpp:77] Creating layer conv3_1/x2
I1201 16:59:15.235218 31460 net.cpp:84] Creating Layer conv3_1/x2
I1201 16:59:15.235224 31460 net.cpp:406] conv3_1/x2 <- conv3_1/x2/bn
I1201 16:59:15.235231 31460 net.cpp:380] conv3_1/x2 -> conv3_1/x2
I1201 16:59:15.238528 31460 net.cpp:122] Setting up conv3_1/x2
I1201 16:59:15.238548 31460 net.cpp:129] Top shape: 1 32 16 61 (31232)
I1201 16:59:15.238554 31460 net.cpp:137] Memory required for data: 166339648
I1201 16:59:15.238561 31460 layer_factory.hpp:77] Creating layer concat_3_1
I1201 16:59:15.238570 31460 net.cpp:84] Creating Layer concat_3_1
I1201 16:59:15.238576 31460 net.cpp:406] concat_3_1 <- pool2_pool2_0_split_1
I1201 16:59:15.238582 31460 net.cpp:406] concat_3_1 <- conv3_1/x2
I1201 16:59:15.238590 31460 net.cpp:380] concat_3_1 -> concat_3_1
I1201 16:59:15.238647 31460 net.cpp:122] Setting up concat_3_1
I1201 16:59:15.238656 31460 net.cpp:129] Top shape: 1 160 16 61 (156160)
I1201 16:59:15.238660 31460 net.cpp:137] Memory required for data: 166964288
I1201 16:59:15.238664 31460 layer_factory.hpp:77] Creating layer concat_3_1_concat_3_1_0_split
I1201 16:59:15.238670 31460 net.cpp:84] Creating Layer concat_3_1_concat_3_1_0_split
I1201 16:59:15.238674 31460 net.cpp:406] concat_3_1_concat_3_1_0_split <- concat_3_1
I1201 16:59:15.238680 31460 net.cpp:380] concat_3_1_concat_3_1_0_split -> concat_3_1_concat_3_1_0_split_0
I1201 16:59:15.238687 31460 net.cpp:380] concat_3_1_concat_3_1_0_split -> concat_3_1_concat_3_1_0_split_1
I1201 16:59:15.238776 31460 net.cpp:122] Setting up concat_3_1_concat_3_1_0_split
I1201 16:59:15.238786 31460 net.cpp:129] Top shape: 1 160 16 61 (156160)
I1201 16:59:15.238791 31460 net.cpp:129] Top shape: 1 160 16 61 (156160)
I1201 16:59:15.238795 31460 net.cpp:137] Memory required for data: 168213568
I1201 16:59:15.238800 31460 layer_factory.hpp:77] Creating layer conv3_2/x1/bn
I1201 16:59:15.238806 31460 net.cpp:84] Creating Layer conv3_2/x1/bn
I1201 16:59:15.238811 31460 net.cpp:406] conv3_2/x1/bn <- concat_3_1_concat_3_1_0_split_0
I1201 16:59:15.238816 31460 net.cpp:380] conv3_2/x1/bn -> conv3_2/x1/bn
I1201 16:59:15.239313 31460 net.cpp:122] Setting up conv3_2/x1/bn
I1201 16:59:15.239322 31460 net.cpp:129] Top shape: 1 160 16 61 (156160)
I1201 16:59:15.239326 31460 net.cpp:137] Memory required for data: 168838208
I1201 16:59:15.239336 31460 layer_factory.hpp:77] Creating layer conv3_2/x1/scale
I1201 16:59:15.239351 31460 net.cpp:84] Creating Layer conv3_2/x1/scale
I1201 16:59:15.239356 31460 net.cpp:406] conv3_2/x1/scale <- conv3_2/x1/bn
I1201 16:59:15.239362 31460 net.cpp:367] conv3_2/x1/scale -> conv3_2/x1/bn (in-place)
I1201 16:59:15.239444 31460 layer_factory.hpp:77] Creating layer conv3_2/x1/scale
I1201 16:59:15.239706 31460 net.cpp:122] Setting up conv3_2/x1/scale
I1201 16:59:15.239715 31460 net.cpp:129] Top shape: 1 160 16 61 (156160)
I1201 16:59:15.239718 31460 net.cpp:137] Memory required for data: 169462848
I1201 16:59:15.239727 31460 layer_factory.hpp:77] Creating layer relu3_2/x1
I1201 16:59:15.239733 31460 net.cpp:84] Creating Layer relu3_2/x1
I1201 16:59:15.239737 31460 net.cpp:406] relu3_2/x1 <- conv3_2/x1/bn
I1201 16:59:15.239743 31460 net.cpp:367] relu3_2/x1 -> conv3_2/x1/bn (in-place)
I1201 16:59:15.240191 31460 net.cpp:122] Setting up relu3_2/x1
I1201 16:59:15.240205 31460 net.cpp:129] Top shape: 1 160 16 61 (156160)
I1201 16:59:15.240208 31460 net.cpp:137] Memory required for data: 170087488
I1201 16:59:15.240213 31460 layer_factory.hpp:77] Creating layer conv3_2/x1
I1201 16:59:15.240226 31460 net.cpp:84] Creating Layer conv3_2/x1
I1201 16:59:15.240231 31460 net.cpp:406] conv3_2/x1 <- conv3_2/x1/bn
I1201 16:59:15.240239 31460 net.cpp:380] conv3_2/x1 -> conv3_2/x1
I1201 16:59:15.242578 31460 net.cpp:122] Setting up conv3_2/x1
I1201 16:59:15.242591 31460 net.cpp:129] Top shape: 1 128 16 61 (124928)
I1201 16:59:15.242596 31460 net.cpp:137] Memory required for data: 170587200
I1201 16:59:15.242604 31460 layer_factory.hpp:77] Creating layer conv3_2/x2/bn
I1201 16:59:15.242612 31460 net.cpp:84] Creating Layer conv3_2/x2/bn
I1201 16:59:15.242617 31460 net.cpp:406] conv3_2/x2/bn <- conv3_2/x1
I1201 16:59:15.242625 31460 net.cpp:380] conv3_2/x2/bn -> conv3_2/x2/bn
I1201 16:59:15.243091 31460 net.cpp:122] Setting up conv3_2/x2/bn
I1201 16:59:15.243101 31460 net.cpp:129] Top shape: 1 128 16 61 (124928)
I1201 16:59:15.243105 31460 net.cpp:137] Memory required for data: 171086912
I1201 16:59:15.243115 31460 layer_factory.hpp:77] Creating layer conv3_2/x2/scale
I1201 16:59:15.243122 31460 net.cpp:84] Creating Layer conv3_2/x2/scale
I1201 16:59:15.243126 31460 net.cpp:406] conv3_2/x2/scale <- conv3_2/x2/bn
I1201 16:59:15.243134 31460 net.cpp:367] conv3_2/x2/scale -> conv3_2/x2/bn (in-place)
I1201 16:59:15.243211 31460 layer_factory.hpp:77] Creating layer conv3_2/x2/scale
I1201 16:59:15.243455 31460 net.cpp:122] Setting up conv3_2/x2/scale
I1201 16:59:15.243464 31460 net.cpp:129] Top shape: 1 128 16 61 (124928)
I1201 16:59:15.243468 31460 net.cpp:137] Memory required for data: 171586624
I1201 16:59:15.243475 31460 layer_factory.hpp:77] Creating layer relu3_2/x2
I1201 16:59:15.243481 31460 net.cpp:84] Creating Layer relu3_2/x2
I1201 16:59:15.243486 31460 net.cpp:406] relu3_2/x2 <- conv3_2/x2/bn
I1201 16:59:15.243492 31460 net.cpp:367] relu3_2/x2 -> conv3_2/x2/bn (in-place)
I1201 16:59:15.243729 31460 net.cpp:122] Setting up relu3_2/x2
I1201 16:59:15.243741 31460 net.cpp:129] Top shape: 1 128 16 61 (124928)
I1201 16:59:15.243746 31460 net.cpp:137] Memory required for data: 172086336
I1201 16:59:15.243754 31460 layer_factory.hpp:77] Creating layer conv3_2/x2
I1201 16:59:15.243765 31460 net.cpp:84] Creating Layer conv3_2/x2
I1201 16:59:15.243769 31460 net.cpp:406] conv3_2/x2 <- conv3_2/x2/bn
I1201 16:59:15.243778 31460 net.cpp:380] conv3_2/x2 -> conv3_2/x2
I1201 16:59:15.246937 31460 net.cpp:122] Setting up conv3_2/x2
I1201 16:59:15.246953 31460 net.cpp:129] Top shape: 1 32 16 61 (31232)
I1201 16:59:15.246958 31460 net.cpp:137] Memory required for data: 172211264
I1201 16:59:15.246965 31460 layer_factory.hpp:77] Creating layer concat_3_2
I1201 16:59:15.246973 31460 net.cpp:84] Creating Layer concat_3_2
I1201 16:59:15.246978 31460 net.cpp:406] concat_3_2 <- concat_3_1_concat_3_1_0_split_1
I1201 16:59:15.246984 31460 net.cpp:406] concat_3_2 <- conv3_2/x2
I1201 16:59:15.246990 31460 net.cpp:380] concat_3_2 -> concat_3_2
I1201 16:59:15.247043 31460 net.cpp:122] Setting up concat_3_2
I1201 16:59:15.247054 31460 net.cpp:129] Top shape: 1 192 16 61 (187392)
I1201 16:59:15.247058 31460 net.cpp:137] Memory required for data: 172960832
I1201 16:59:15.247063 31460 layer_factory.hpp:77] Creating layer concat_3_2_concat_3_2_0_split
I1201 16:59:15.247069 31460 net.cpp:84] Creating Layer concat_3_2_concat_3_2_0_split
I1201 16:59:15.247074 31460 net.cpp:406] concat_3_2_concat_3_2_0_split <- concat_3_2
I1201 16:59:15.247081 31460 net.cpp:380] concat_3_2_concat_3_2_0_split -> concat_3_2_concat_3_2_0_split_0
I1201 16:59:15.247089 31460 net.cpp:380] concat_3_2_concat_3_2_0_split -> concat_3_2_concat_3_2_0_split_1
I1201 16:59:15.247167 31460 net.cpp:122] Setting up concat_3_2_concat_3_2_0_split
I1201 16:59:15.247175 31460 net.cpp:129] Top shape: 1 192 16 61 (187392)
I1201 16:59:15.247181 31460 net.cpp:129] Top shape: 1 192 16 61 (187392)
I1201 16:59:15.247185 31460 net.cpp:137] Memory required for data: 174459968
I1201 16:59:15.247189 31460 layer_factory.hpp:77] Creating layer conv3_3/x1/bn
I1201 16:59:15.247196 31460 net.cpp:84] Creating Layer conv3_3/x1/bn
I1201 16:59:15.247201 31460 net.cpp:406] conv3_3/x1/bn <- concat_3_2_concat_3_2_0_split_0
I1201 16:59:15.247207 31460 net.cpp:380] conv3_3/x1/bn -> conv3_3/x1/bn
I1201 16:59:15.247702 31460 net.cpp:122] Setting up conv3_3/x1/bn
I1201 16:59:15.247711 31460 net.cpp:129] Top shape: 1 192 16 61 (187392)
I1201 16:59:15.247715 31460 net.cpp:137] Memory required for data: 175209536
I1201 16:59:15.247725 31460 layer_factory.hpp:77] Creating layer conv3_3/x1/scale
I1201 16:59:15.247731 31460 net.cpp:84] Creating Layer conv3_3/x1/scale
I1201 16:59:15.247736 31460 net.cpp:406] conv3_3/x1/scale <- conv3_3/x1/bn
I1201 16:59:15.247743 31460 net.cpp:367] conv3_3/x1/scale -> conv3_3/x1/bn (in-place)
I1201 16:59:15.247841 31460 layer_factory.hpp:77] Creating layer conv3_3/x1/scale
I1201 16:59:15.248124 31460 net.cpp:122] Setting up conv3_3/x1/scale
I1201 16:59:15.248133 31460 net.cpp:129] Top shape: 1 192 16 61 (187392)
I1201 16:59:15.248137 31460 net.cpp:137] Memory required for data: 175959104
I1201 16:59:15.248144 31460 layer_factory.hpp:77] Creating layer relu3_3/x1
I1201 16:59:15.248152 31460 net.cpp:84] Creating Layer relu3_3/x1
I1201 16:59:15.248157 31460 net.cpp:406] relu3_3/x1 <- conv3_3/x1/bn
I1201 16:59:15.248162 31460 net.cpp:367] relu3_3/x1 -> conv3_3/x1/bn (in-place)
I1201 16:59:15.248601 31460 net.cpp:122] Setting up relu3_3/x1
I1201 16:59:15.248615 31460 net.cpp:129] Top shape: 1 192 16 61 (187392)
I1201 16:59:15.248618 31460 net.cpp:137] Memory required for data: 176708672
I1201 16:59:15.248623 31460 layer_factory.hpp:77] Creating layer conv3_3/x1
I1201 16:59:15.248636 31460 net.cpp:84] Creating Layer conv3_3/x1
I1201 16:59:15.248641 31460 net.cpp:406] conv3_3/x1 <- conv3_3/x1/bn
I1201 16:59:15.248649 31460 net.cpp:380] conv3_3/x1 -> conv3_3/x1
I1201 16:59:15.251149 31460 net.cpp:122] Setting up conv3_3/x1
I1201 16:59:15.251163 31460 net.cpp:129] Top shape: 1 128 16 61 (124928)
I1201 16:59:15.251168 31460 net.cpp:137] Memory required for data: 177208384
I1201 16:59:15.251174 31460 layer_factory.hpp:77] Creating layer conv3_3/x2/bn
I1201 16:59:15.251183 31460 net.cpp:84] Creating Layer conv3_3/x2/bn
I1201 16:59:15.251188 31460 net.cpp:406] conv3_3/x2/bn <- conv3_3/x1
I1201 16:59:15.251195 31460 net.cpp:380] conv3_3/x2/bn -> conv3_3/x2/bn
I1201 16:59:15.251667 31460 net.cpp:122] Setting up conv3_3/x2/bn
I1201 16:59:15.251675 31460 net.cpp:129] Top shape: 1 128 16 61 (124928)
I1201 16:59:15.251679 31460 net.cpp:137] Memory required for data: 177708096
I1201 16:59:15.251688 31460 layer_factory.hpp:77] Creating layer conv3_3/x2/scale
I1201 16:59:15.251695 31460 net.cpp:84] Creating Layer conv3_3/x2/scale
I1201 16:59:15.251700 31460 net.cpp:406] conv3_3/x2/scale <- conv3_3/x2/bn
I1201 16:59:15.251708 31460 net.cpp:367] conv3_3/x2/scale -> conv3_3/x2/bn (in-place)
I1201 16:59:15.251796 31460 layer_factory.hpp:77] Creating layer conv3_3/x2/scale
I1201 16:59:15.252045 31460 net.cpp:122] Setting up conv3_3/x2/scale
I1201 16:59:15.252054 31460 net.cpp:129] Top shape: 1 128 16 61 (124928)
I1201 16:59:15.252061 31460 net.cpp:137] Memory required for data: 178207808
I1201 16:59:15.252068 31460 layer_factory.hpp:77] Creating layer relu3_3/x2
I1201 16:59:15.252075 31460 net.cpp:84] Creating Layer relu3_3/x2
I1201 16:59:15.252079 31460 net.cpp:406] relu3_3/x2 <- conv3_3/x2/bn
I1201 16:59:15.252085 31460 net.cpp:367] relu3_3/x2 -> conv3_3/x2/bn (in-place)
I1201 16:59:15.252522 31460 net.cpp:122] Setting up relu3_3/x2
I1201 16:59:15.252535 31460 net.cpp:129] Top shape: 1 128 16 61 (124928)
I1201 16:59:15.252539 31460 net.cpp:137] Memory required for data: 178707520
I1201 16:59:15.252544 31460 layer_factory.hpp:77] Creating layer conv3_3/x2
I1201 16:59:15.252557 31460 net.cpp:84] Creating Layer conv3_3/x2
I1201 16:59:15.252562 31460 net.cpp:406] conv3_3/x2 <- conv3_3/x2/bn
I1201 16:59:15.252568 31460 net.cpp:380] conv3_3/x2 -> conv3_3/x2
I1201 16:59:15.255738 31460 net.cpp:122] Setting up conv3_3/x2
I1201 16:59:15.255759 31460 net.cpp:129] Top shape: 1 32 16 61 (31232)
I1201 16:59:15.255764 31460 net.cpp:137] Memory required for data: 178832448
I1201 16:59:15.255770 31460 layer_factory.hpp:77] Creating layer concat_3_3
I1201 16:59:15.255779 31460 net.cpp:84] Creating Layer concat_3_3
I1201 16:59:15.255784 31460 net.cpp:406] concat_3_3 <- concat_3_2_concat_3_2_0_split_1
I1201 16:59:15.255789 31460 net.cpp:406] concat_3_3 <- conv3_3/x2
I1201 16:59:15.255796 31460 net.cpp:380] concat_3_3 -> concat_3_3
I1201 16:59:15.255851 31460 net.cpp:122] Setting up concat_3_3
I1201 16:59:15.255859 31460 net.cpp:129] Top shape: 1 224 16 61 (218624)
I1201 16:59:15.255863 31460 net.cpp:137] Memory required for data: 179706944
I1201 16:59:15.255867 31460 layer_factory.hpp:77] Creating layer concat_3_3_concat_3_3_0_split
I1201 16:59:15.255873 31460 net.cpp:84] Creating Layer concat_3_3_concat_3_3_0_split
I1201 16:59:15.255878 31460 net.cpp:406] concat_3_3_concat_3_3_0_split <- concat_3_3
I1201 16:59:15.255885 31460 net.cpp:380] concat_3_3_concat_3_3_0_split -> concat_3_3_concat_3_3_0_split_0
I1201 16:59:15.255892 31460 net.cpp:380] concat_3_3_concat_3_3_0_split -> concat_3_3_concat_3_3_0_split_1
I1201 16:59:15.255970 31460 net.cpp:122] Setting up concat_3_3_concat_3_3_0_split
I1201 16:59:15.255978 31460 net.cpp:129] Top shape: 1 224 16 61 (218624)
I1201 16:59:15.255985 31460 net.cpp:129] Top shape: 1 224 16 61 (218624)
I1201 16:59:15.255987 31460 net.cpp:137] Memory required for data: 181455936
I1201 16:59:15.255991 31460 layer_factory.hpp:77] Creating layer conv3_4/x1/bn
I1201 16:59:15.255998 31460 net.cpp:84] Creating Layer conv3_4/x1/bn
I1201 16:59:15.256002 31460 net.cpp:406] conv3_4/x1/bn <- concat_3_3_concat_3_3_0_split_0
I1201 16:59:15.256011 31460 net.cpp:380] conv3_4/x1/bn -> conv3_4/x1/bn
I1201 16:59:15.256505 31460 net.cpp:122] Setting up conv3_4/x1/bn
I1201 16:59:15.256515 31460 net.cpp:129] Top shape: 1 224 16 61 (218624)
I1201 16:59:15.256518 31460 net.cpp:137] Memory required for data: 182330432
I1201 16:59:15.256527 31460 layer_factory.hpp:77] Creating layer conv3_4/x1/scale
I1201 16:59:15.256536 31460 net.cpp:84] Creating Layer conv3_4/x1/scale
I1201 16:59:15.256541 31460 net.cpp:406] conv3_4/x1/scale <- conv3_4/x1/bn
I1201 16:59:15.256546 31460 net.cpp:367] conv3_4/x1/scale -> conv3_4/x1/bn (in-place)
I1201 16:59:15.256638 31460 layer_factory.hpp:77] Creating layer conv3_4/x1/scale
I1201 16:59:15.256940 31460 net.cpp:122] Setting up conv3_4/x1/scale
I1201 16:59:15.256950 31460 net.cpp:129] Top shape: 1 224 16 61 (218624)
I1201 16:59:15.256954 31460 net.cpp:137] Memory required for data: 183204928
I1201 16:59:15.256961 31460 layer_factory.hpp:77] Creating layer relu3_4/x1
I1201 16:59:15.256968 31460 net.cpp:84] Creating Layer relu3_4/x1
I1201 16:59:15.256973 31460 net.cpp:406] relu3_4/x1 <- conv3_4/x1/bn
I1201 16:59:15.256978 31460 net.cpp:367] relu3_4/x1 -> conv3_4/x1/bn (in-place)
I1201 16:59:15.257221 31460 net.cpp:122] Setting up relu3_4/x1
I1201 16:59:15.257233 31460 net.cpp:129] Top shape: 1 224 16 61 (218624)
I1201 16:59:15.257237 31460 net.cpp:137] Memory required for data: 184079424
I1201 16:59:15.257246 31460 layer_factory.hpp:77] Creating layer conv3_4/x1
I1201 16:59:15.257256 31460 net.cpp:84] Creating Layer conv3_4/x1
I1201 16:59:15.257261 31460 net.cpp:406] conv3_4/x1 <- conv3_4/x1/bn
I1201 16:59:15.257268 31460 net.cpp:380] conv3_4/x1 -> conv3_4/x1
I1201 16:59:15.259950 31460 net.cpp:122] Setting up conv3_4/x1
I1201 16:59:15.259964 31460 net.cpp:129] Top shape: 1 128 16 61 (124928)
I1201 16:59:15.259968 31460 net.cpp:137] Memory required for data: 184579136
I1201 16:59:15.259975 31460 layer_factory.hpp:77] Creating layer conv3_4/x2/bn
I1201 16:59:15.259984 31460 net.cpp:84] Creating Layer conv3_4/x2/bn
I1201 16:59:15.259989 31460 net.cpp:406] conv3_4/x2/bn <- conv3_4/x1
I1201 16:59:15.259996 31460 net.cpp:380] conv3_4/x2/bn -> conv3_4/x2/bn
I1201 16:59:15.260468 31460 net.cpp:122] Setting up conv3_4/x2/bn
I1201 16:59:15.260476 31460 net.cpp:129] Top shape: 1 128 16 61 (124928)
I1201 16:59:15.260480 31460 net.cpp:137] Memory required for data: 185078848
I1201 16:59:15.260502 31460 layer_factory.hpp:77] Creating layer conv3_4/x2/scale
I1201 16:59:15.260510 31460 net.cpp:84] Creating Layer conv3_4/x2/scale
I1201 16:59:15.260515 31460 net.cpp:406] conv3_4/x2/scale <- conv3_4/x2/bn
I1201 16:59:15.260524 31460 net.cpp:367] conv3_4/x2/scale -> conv3_4/x2/bn (in-place)
I1201 16:59:15.260601 31460 layer_factory.hpp:77] Creating layer conv3_4/x2/scale
I1201 16:59:15.260852 31460 net.cpp:122] Setting up conv3_4/x2/scale
I1201 16:59:15.260861 31460 net.cpp:129] Top shape: 1 128 16 61 (124928)
I1201 16:59:15.260865 31460 net.cpp:137] Memory required for data: 185578560
I1201 16:59:15.260872 31460 layer_factory.hpp:77] Creating layer relu3_4/x2
I1201 16:59:15.260879 31460 net.cpp:84] Creating Layer relu3_4/x2
I1201 16:59:15.260884 31460 net.cpp:406] relu3_4/x2 <- conv3_4/x2/bn
I1201 16:59:15.260888 31460 net.cpp:367] relu3_4/x2 -> conv3_4/x2/bn (in-place)
I1201 16:59:15.261337 31460 net.cpp:122] Setting up relu3_4/x2
I1201 16:59:15.261350 31460 net.cpp:129] Top shape: 1 128 16 61 (124928)
I1201 16:59:15.261355 31460 net.cpp:137] Memory required for data: 186078272
I1201 16:59:15.261359 31460 layer_factory.hpp:77] Creating layer conv3_4/x2
I1201 16:59:15.261370 31460 net.cpp:84] Creating Layer conv3_4/x2
I1201 16:59:15.261374 31460 net.cpp:406] conv3_4/x2 <- conv3_4/x2/bn
I1201 16:59:15.261384 31460 net.cpp:380] conv3_4/x2 -> conv3_4/x2
I1201 16:59:15.265321 31460 net.cpp:122] Setting up conv3_4/x2
I1201 16:59:15.265336 31460 net.cpp:129] Top shape: 1 32 16 61 (31232)
I1201 16:59:15.265341 31460 net.cpp:137] Memory required for data: 186203200
I1201 16:59:15.265348 31460 layer_factory.hpp:77] Creating layer concat_3_4
I1201 16:59:15.265357 31460 net.cpp:84] Creating Layer concat_3_4
I1201 16:59:15.265362 31460 net.cpp:406] concat_3_4 <- concat_3_3_concat_3_3_0_split_1
I1201 16:59:15.265367 31460 net.cpp:406] concat_3_4 <- conv3_4/x2
I1201 16:59:15.265373 31460 net.cpp:380] concat_3_4 -> concat_3_4
I1201 16:59:15.265432 31460 net.cpp:122] Setting up concat_3_4
I1201 16:59:15.265441 31460 net.cpp:129] Top shape: 1 256 16 61 (249856)
I1201 16:59:15.265445 31460 net.cpp:137] Memory required for data: 187202624
I1201 16:59:15.265450 31460 layer_factory.hpp:77] Creating layer concat_3_4_concat_3_4_0_split
I1201 16:59:15.265455 31460 net.cpp:84] Creating Layer concat_3_4_concat_3_4_0_split
I1201 16:59:15.265460 31460 net.cpp:406] concat_3_4_concat_3_4_0_split <- concat_3_4
I1201 16:59:15.265465 31460 net.cpp:380] concat_3_4_concat_3_4_0_split -> concat_3_4_concat_3_4_0_split_0
I1201 16:59:15.265473 31460 net.cpp:380] concat_3_4_concat_3_4_0_split -> concat_3_4_concat_3_4_0_split_1
I1201 16:59:15.265568 31460 net.cpp:122] Setting up concat_3_4_concat_3_4_0_split
I1201 16:59:15.265578 31460 net.cpp:129] Top shape: 1 256 16 61 (249856)
I1201 16:59:15.265583 31460 net.cpp:129] Top shape: 1 256 16 61 (249856)
I1201 16:59:15.265586 31460 net.cpp:137] Memory required for data: 189201472
I1201 16:59:15.265590 31460 layer_factory.hpp:77] Creating layer conv3_5/x1/bn
I1201 16:59:15.265596 31460 net.cpp:84] Creating Layer conv3_5/x1/bn
I1201 16:59:15.265605 31460 net.cpp:406] conv3_5/x1/bn <- concat_3_4_concat_3_4_0_split_0
I1201 16:59:15.265614 31460 net.cpp:380] conv3_5/x1/bn -> conv3_5/x1/bn
I1201 16:59:15.266093 31460 net.cpp:122] Setting up conv3_5/x1/bn
I1201 16:59:15.266104 31460 net.cpp:129] Top shape: 1 256 16 61 (249856)
I1201 16:59:15.266108 31460 net.cpp:137] Memory required for data: 190200896
I1201 16:59:15.266119 31460 layer_factory.hpp:77] Creating layer conv3_5/x1/scale
I1201 16:59:15.266125 31460 net.cpp:84] Creating Layer conv3_5/x1/scale
I1201 16:59:15.266130 31460 net.cpp:406] conv3_5/x1/scale <- conv3_5/x1/bn
I1201 16:59:15.266137 31460 net.cpp:367] conv3_5/x1/scale -> conv3_5/x1/bn (in-place)
I1201 16:59:15.266222 31460 layer_factory.hpp:77] Creating layer conv3_5/x1/scale
I1201 16:59:15.266479 31460 net.cpp:122] Setting up conv3_5/x1/scale
I1201 16:59:15.266489 31460 net.cpp:129] Top shape: 1 256 16 61 (249856)
I1201 16:59:15.266492 31460 net.cpp:137] Memory required for data: 191200320
I1201 16:59:15.266500 31460 layer_factory.hpp:77] Creating layer relu3_5/x1
I1201 16:59:15.266506 31460 net.cpp:84] Creating Layer relu3_5/x1
I1201 16:59:15.266511 31460 net.cpp:406] relu3_5/x1 <- conv3_5/x1/bn
I1201 16:59:15.266516 31460 net.cpp:367] relu3_5/x1 -> conv3_5/x1/bn (in-place)
I1201 16:59:15.266759 31460 net.cpp:122] Setting up relu3_5/x1
I1201 16:59:15.266770 31460 net.cpp:129] Top shape: 1 256 16 61 (249856)
I1201 16:59:15.266774 31460 net.cpp:137] Memory required for data: 192199744
I1201 16:59:15.266778 31460 layer_factory.hpp:77] Creating layer conv3_5/x1
I1201 16:59:15.266790 31460 net.cpp:84] Creating Layer conv3_5/x1
I1201 16:59:15.266795 31460 net.cpp:406] conv3_5/x1 <- conv3_5/x1/bn
I1201 16:59:15.266803 31460 net.cpp:380] conv3_5/x1 -> conv3_5/x1
I1201 16:59:15.269850 31460 net.cpp:122] Setting up conv3_5/x1
I1201 16:59:15.269863 31460 net.cpp:129] Top shape: 1 128 16 61 (124928)
I1201 16:59:15.269867 31460 net.cpp:137] Memory required for data: 192699456
I1201 16:59:15.269875 31460 layer_factory.hpp:77] Creating layer conv3_5/x2/bn
I1201 16:59:15.269883 31460 net.cpp:84] Creating Layer conv3_5/x2/bn
I1201 16:59:15.269888 31460 net.cpp:406] conv3_5/x2/bn <- conv3_5/x1
I1201 16:59:15.269896 31460 net.cpp:380] conv3_5/x2/bn -> conv3_5/x2/bn
I1201 16:59:15.270387 31460 net.cpp:122] Setting up conv3_5/x2/bn
I1201 16:59:15.270397 31460 net.cpp:129] Top shape: 1 128 16 61 (124928)
I1201 16:59:15.270401 31460 net.cpp:137] Memory required for data: 193199168
I1201 16:59:15.270411 31460 layer_factory.hpp:77] Creating layer conv3_5/x2/scale
I1201 16:59:15.270418 31460 net.cpp:84] Creating Layer conv3_5/x2/scale
I1201 16:59:15.270423 31460 net.cpp:406] conv3_5/x2/scale <- conv3_5/x2/bn
I1201 16:59:15.270431 31460 net.cpp:367] conv3_5/x2/scale -> conv3_5/x2/bn (in-place)
I1201 16:59:15.270512 31460 layer_factory.hpp:77] Creating layer conv3_5/x2/scale
I1201 16:59:15.270771 31460 net.cpp:122] Setting up conv3_5/x2/scale
I1201 16:59:15.270779 31460 net.cpp:129] Top shape: 1 128 16 61 (124928)
I1201 16:59:15.270783 31460 net.cpp:137] Memory required for data: 193698880
I1201 16:59:15.270790 31460 layer_factory.hpp:77] Creating layer relu3_5/x2
I1201 16:59:15.270797 31460 net.cpp:84] Creating Layer relu3_5/x2
I1201 16:59:15.270802 31460 net.cpp:406] relu3_5/x2 <- conv3_5/x2/bn
I1201 16:59:15.270809 31460 net.cpp:367] relu3_5/x2 -> conv3_5/x2/bn (in-place)
I1201 16:59:15.271258 31460 net.cpp:122] Setting up relu3_5/x2
I1201 16:59:15.271271 31460 net.cpp:129] Top shape: 1 128 16 61 (124928)
I1201 16:59:15.271275 31460 net.cpp:137] Memory required for data: 194198592
I1201 16:59:15.271281 31460 layer_factory.hpp:77] Creating layer conv3_5/x2
I1201 16:59:15.271292 31460 net.cpp:84] Creating Layer conv3_5/x2
I1201 16:59:15.271298 31460 net.cpp:406] conv3_5/x2 <- conv3_5/x2/bn
I1201 16:59:15.271306 31460 net.cpp:380] conv3_5/x2 -> conv3_5/x2
I1201 16:59:15.274739 31460 net.cpp:122] Setting up conv3_5/x2
I1201 16:59:15.274754 31460 net.cpp:129] Top shape: 1 32 16 61 (31232)
I1201 16:59:15.274758 31460 net.cpp:137] Memory required for data: 194323520
I1201 16:59:15.274768 31460 layer_factory.hpp:77] Creating layer concat_3_5
I1201 16:59:15.274777 31460 net.cpp:84] Creating Layer concat_3_5
I1201 16:59:15.274783 31460 net.cpp:406] concat_3_5 <- concat_3_4_concat_3_4_0_split_1
I1201 16:59:15.274791 31460 net.cpp:406] concat_3_5 <- conv3_5/x2
I1201 16:59:15.274796 31460 net.cpp:380] concat_3_5 -> concat_3_5
I1201 16:59:15.274853 31460 net.cpp:122] Setting up concat_3_5
I1201 16:59:15.274861 31460 net.cpp:129] Top shape: 1 288 16 61 (281088)
I1201 16:59:15.274865 31460 net.cpp:137] Memory required for data: 195447872
I1201 16:59:15.274869 31460 layer_factory.hpp:77] Creating layer concat_3_5_concat_3_5_0_split
I1201 16:59:15.274878 31460 net.cpp:84] Creating Layer concat_3_5_concat_3_5_0_split
I1201 16:59:15.274883 31460 net.cpp:406] concat_3_5_concat_3_5_0_split <- concat_3_5
I1201 16:59:15.274889 31460 net.cpp:380] concat_3_5_concat_3_5_0_split -> concat_3_5_concat_3_5_0_split_0
I1201 16:59:15.274896 31460 net.cpp:380] concat_3_5_concat_3_5_0_split -> concat_3_5_concat_3_5_0_split_1
I1201 16:59:15.274977 31460 net.cpp:122] Setting up concat_3_5_concat_3_5_0_split
I1201 16:59:15.274986 31460 net.cpp:129] Top shape: 1 288 16 61 (281088)
I1201 16:59:15.274991 31460 net.cpp:129] Top shape: 1 288 16 61 (281088)
I1201 16:59:15.274994 31460 net.cpp:137] Memory required for data: 197696576
I1201 16:59:15.274999 31460 layer_factory.hpp:77] Creating layer conv3_6/x1/bn
I1201 16:59:15.275007 31460 net.cpp:84] Creating Layer conv3_6/x1/bn
I1201 16:59:15.275012 31460 net.cpp:406] conv3_6/x1/bn <- concat_3_5_concat_3_5_0_split_0
I1201 16:59:15.275018 31460 net.cpp:380] conv3_6/x1/bn -> conv3_6/x1/bn
I1201 16:59:15.275537 31460 net.cpp:122] Setting up conv3_6/x1/bn
I1201 16:59:15.275547 31460 net.cpp:129] Top shape: 1 288 16 61 (281088)
I1201 16:59:15.275552 31460 net.cpp:137] Memory required for data: 198820928
I1201 16:59:15.275562 31460 layer_factory.hpp:77] Creating layer conv3_6/x1/scale
I1201 16:59:15.275568 31460 net.cpp:84] Creating Layer conv3_6/x1/scale
I1201 16:59:15.275573 31460 net.cpp:406] conv3_6/x1/scale <- conv3_6/x1/bn
I1201 16:59:15.275579 31460 net.cpp:367] conv3_6/x1/scale -> conv3_6/x1/bn (in-place)
I1201 16:59:15.275669 31460 layer_factory.hpp:77] Creating layer conv3_6/x1/scale
I1201 16:59:15.275955 31460 net.cpp:122] Setting up conv3_6/x1/scale
I1201 16:59:15.275964 31460 net.cpp:129] Top shape: 1 288 16 61 (281088)
I1201 16:59:15.275969 31460 net.cpp:137] Memory required for data: 199945280
I1201 16:59:15.275976 31460 layer_factory.hpp:77] Creating layer relu3_6/x1
I1201 16:59:15.275984 31460 net.cpp:84] Creating Layer relu3_6/x1
I1201 16:59:15.275988 31460 net.cpp:406] relu3_6/x1 <- conv3_6/x1/bn
I1201 16:59:15.275995 31460 net.cpp:367] relu3_6/x1 -> conv3_6/x1/bn (in-place)
I1201 16:59:15.276446 31460 net.cpp:122] Setting up relu3_6/x1
I1201 16:59:15.276459 31460 net.cpp:129] Top shape: 1 288 16 61 (281088)
I1201 16:59:15.276463 31460 net.cpp:137] Memory required for data: 201069632
I1201 16:59:15.276468 31460 layer_factory.hpp:77] Creating layer conv3_6/x1
I1201 16:59:15.276480 31460 net.cpp:84] Creating Layer conv3_6/x1
I1201 16:59:15.276485 31460 net.cpp:406] conv3_6/x1 <- conv3_6/x1/bn
I1201 16:59:15.276494 31460 net.cpp:380] conv3_6/x1 -> conv3_6/x1
I1201 16:59:15.279501 31460 net.cpp:122] Setting up conv3_6/x1
I1201 16:59:15.279515 31460 net.cpp:129] Top shape: 1 128 16 61 (124928)
I1201 16:59:15.279520 31460 net.cpp:137] Memory required for data: 201569344
I1201 16:59:15.279526 31460 layer_factory.hpp:77] Creating layer conv3_6/x2/bn
I1201 16:59:15.279534 31460 net.cpp:84] Creating Layer conv3_6/x2/bn
I1201 16:59:15.279539 31460 net.cpp:406] conv3_6/x2/bn <- conv3_6/x1
I1201 16:59:15.279547 31460 net.cpp:380] conv3_6/x2/bn -> conv3_6/x2/bn
I1201 16:59:15.280050 31460 net.cpp:122] Setting up conv3_6/x2/bn
I1201 16:59:15.280059 31460 net.cpp:129] Top shape: 1 128 16 61 (124928)
I1201 16:59:15.280063 31460 net.cpp:137] Memory required for data: 202069056
I1201 16:59:15.280072 31460 layer_factory.hpp:77] Creating layer conv3_6/x2/scale
I1201 16:59:15.280092 31460 net.cpp:84] Creating Layer conv3_6/x2/scale
I1201 16:59:15.280097 31460 net.cpp:406] conv3_6/x2/scale <- conv3_6/x2/bn
I1201 16:59:15.280103 31460 net.cpp:367] conv3_6/x2/scale -> conv3_6/x2/bn (in-place)
I1201 16:59:15.280189 31460 layer_factory.hpp:77] Creating layer conv3_6/x2/scale
I1201 16:59:15.280450 31460 net.cpp:122] Setting up conv3_6/x2/scale
I1201 16:59:15.280459 31460 net.cpp:129] Top shape: 1 128 16 61 (124928)
I1201 16:59:15.280463 31460 net.cpp:137] Memory required for data: 202568768
I1201 16:59:15.280472 31460 layer_factory.hpp:77] Creating layer relu3_6/x2
I1201 16:59:15.280478 31460 net.cpp:84] Creating Layer relu3_6/x2
I1201 16:59:15.280483 31460 net.cpp:406] relu3_6/x2 <- conv3_6/x2/bn
I1201 16:59:15.280489 31460 net.cpp:367] relu3_6/x2 -> conv3_6/x2/bn (in-place)
I1201 16:59:15.280733 31460 net.cpp:122] Setting up relu3_6/x2
I1201 16:59:15.280745 31460 net.cpp:129] Top shape: 1 128 16 61 (124928)
I1201 16:59:15.280748 31460 net.cpp:137] Memory required for data: 203068480
I1201 16:59:15.280752 31460 layer_factory.hpp:77] Creating layer conv3_6/x2
I1201 16:59:15.280763 31460 net.cpp:84] Creating Layer conv3_6/x2
I1201 16:59:15.280768 31460 net.cpp:406] conv3_6/x2 <- conv3_6/x2/bn
I1201 16:59:15.280777 31460 net.cpp:380] conv3_6/x2 -> conv3_6/x2
I1201 16:59:15.284191 31460 net.cpp:122] Setting up conv3_6/x2
I1201 16:59:15.284212 31460 net.cpp:129] Top shape: 1 32 16 61 (31232)
I1201 16:59:15.284217 31460 net.cpp:137] Memory required for data: 203193408
I1201 16:59:15.284225 31460 layer_factory.hpp:77] Creating layer concat_3_6
I1201 16:59:15.284235 31460 net.cpp:84] Creating Layer concat_3_6
I1201 16:59:15.284241 31460 net.cpp:406] concat_3_6 <- concat_3_5_concat_3_5_0_split_1
I1201 16:59:15.284248 31460 net.cpp:406] concat_3_6 <- conv3_6/x2
I1201 16:59:15.284255 31460 net.cpp:380] concat_3_6 -> concat_3_6
I1201 16:59:15.284312 31460 net.cpp:122] Setting up concat_3_6
I1201 16:59:15.284323 31460 net.cpp:129] Top shape: 1 320 16 61 (312320)
I1201 16:59:15.284327 31460 net.cpp:137] Memory required for data: 204442688
I1201 16:59:15.284332 31460 layer_factory.hpp:77] Creating layer concat_3_6_concat_3_6_0_split
I1201 16:59:15.284337 31460 net.cpp:84] Creating Layer concat_3_6_concat_3_6_0_split
I1201 16:59:15.284343 31460 net.cpp:406] concat_3_6_concat_3_6_0_split <- concat_3_6
I1201 16:59:15.284349 31460 net.cpp:380] concat_3_6_concat_3_6_0_split -> concat_3_6_concat_3_6_0_split_0
I1201 16:59:15.284356 31460 net.cpp:380] concat_3_6_concat_3_6_0_split -> concat_3_6_concat_3_6_0_split_1
I1201 16:59:15.284438 31460 net.cpp:122] Setting up concat_3_6_concat_3_6_0_split
I1201 16:59:15.284446 31460 net.cpp:129] Top shape: 1 320 16 61 (312320)
I1201 16:59:15.284451 31460 net.cpp:129] Top shape: 1 320 16 61 (312320)
I1201 16:59:15.284456 31460 net.cpp:137] Memory required for data: 206941248
I1201 16:59:15.284459 31460 layer_factory.hpp:77] Creating layer conv3_7/x1/bn
I1201 16:59:15.284467 31460 net.cpp:84] Creating Layer conv3_7/x1/bn
I1201 16:59:15.284471 31460 net.cpp:406] conv3_7/x1/bn <- concat_3_6_concat_3_6_0_split_0
I1201 16:59:15.284479 31460 net.cpp:380] conv3_7/x1/bn -> conv3_7/x1/bn
I1201 16:59:15.285009 31460 net.cpp:122] Setting up conv3_7/x1/bn
I1201 16:59:15.285018 31460 net.cpp:129] Top shape: 1 320 16 61 (312320)
I1201 16:59:15.285022 31460 net.cpp:137] Memory required for data: 208190528
I1201 16:59:15.285032 31460 layer_factory.hpp:77] Creating layer conv3_7/x1/scale
I1201 16:59:15.285039 31460 net.cpp:84] Creating Layer conv3_7/x1/scale
I1201 16:59:15.285043 31460 net.cpp:406] conv3_7/x1/scale <- conv3_7/x1/bn
I1201 16:59:15.285051 31460 net.cpp:367] conv3_7/x1/scale -> conv3_7/x1/bn (in-place)
I1201 16:59:15.285145 31460 layer_factory.hpp:77] Creating layer conv3_7/x1/scale
I1201 16:59:15.285436 31460 net.cpp:122] Setting up conv3_7/x1/scale
I1201 16:59:15.285446 31460 net.cpp:129] Top shape: 1 320 16 61 (312320)
I1201 16:59:15.285450 31460 net.cpp:137] Memory required for data: 209439808
I1201 16:59:15.285457 31460 layer_factory.hpp:77] Creating layer relu3_7/x1
I1201 16:59:15.285470 31460 net.cpp:84] Creating Layer relu3_7/x1
I1201 16:59:15.285473 31460 net.cpp:406] relu3_7/x1 <- conv3_7/x1/bn
I1201 16:59:15.285480 31460 net.cpp:367] relu3_7/x1 -> conv3_7/x1/bn (in-place)
I1201 16:59:15.286054 31460 net.cpp:122] Setting up relu3_7/x1
I1201 16:59:15.286079 31460 net.cpp:129] Top shape: 1 320 16 61 (312320)
I1201 16:59:15.286084 31460 net.cpp:137] Memory required for data: 210689088
I1201 16:59:15.286089 31460 layer_factory.hpp:77] Creating layer conv3_7/x1
I1201 16:59:15.286106 31460 net.cpp:84] Creating Layer conv3_7/x1
I1201 16:59:15.286113 31460 net.cpp:406] conv3_7/x1 <- conv3_7/x1/bn
I1201 16:59:15.286123 31460 net.cpp:380] conv3_7/x1 -> conv3_7/x1
I1201 16:59:15.289669 31460 net.cpp:122] Setting up conv3_7/x1
I1201 16:59:15.289701 31460 net.cpp:129] Top shape: 1 128 16 61 (124928)
I1201 16:59:15.289707 31460 net.cpp:137] Memory required for data: 211188800
I1201 16:59:15.289717 31460 layer_factory.hpp:77] Creating layer conv3_7/x2/bn
I1201 16:59:15.289729 31460 net.cpp:84] Creating Layer conv3_7/x2/bn
I1201 16:59:15.289736 31460 net.cpp:406] conv3_7/x2/bn <- conv3_7/x1
I1201 16:59:15.289746 31460 net.cpp:380] conv3_7/x2/bn -> conv3_7/x2/bn
I1201 16:59:15.290277 31460 net.cpp:122] Setting up conv3_7/x2/bn
I1201 16:59:15.290287 31460 net.cpp:129] Top shape: 1 128 16 61 (124928)
I1201 16:59:15.290292 31460 net.cpp:137] Memory required for data: 211688512
I1201 16:59:15.290302 31460 layer_factory.hpp:77] Creating layer conv3_7/x2/scale
I1201 16:59:15.290309 31460 net.cpp:84] Creating Layer conv3_7/x2/scale
I1201 16:59:15.290314 31460 net.cpp:406] conv3_7/x2/scale <- conv3_7/x2/bn
I1201 16:59:15.290320 31460 net.cpp:367] conv3_7/x2/scale -> conv3_7/x2/bn (in-place)
I1201 16:59:15.290408 31460 layer_factory.hpp:77] Creating layer conv3_7/x2/scale
I1201 16:59:15.290676 31460 net.cpp:122] Setting up conv3_7/x2/scale
I1201 16:59:15.290684 31460 net.cpp:129] Top shape: 1 128 16 61 (124928)
I1201 16:59:15.290688 31460 net.cpp:137] Memory required for data: 212188224
I1201 16:59:15.290696 31460 layer_factory.hpp:77] Creating layer relu3_7/x2
I1201 16:59:15.290704 31460 net.cpp:84] Creating Layer relu3_7/x2
I1201 16:59:15.290709 31460 net.cpp:406] relu3_7/x2 <- conv3_7/x2/bn
I1201 16:59:15.290714 31460 net.cpp:367] relu3_7/x2 -> conv3_7/x2/bn (in-place)
I1201 16:59:15.290959 31460 net.cpp:122] Setting up relu3_7/x2
I1201 16:59:15.290969 31460 net.cpp:129] Top shape: 1 128 16 61 (124928)
I1201 16:59:15.290974 31460 net.cpp:137] Memory required for data: 212687936
I1201 16:59:15.290978 31460 layer_factory.hpp:77] Creating layer conv3_7/x2
I1201 16:59:15.290992 31460 net.cpp:84] Creating Layer conv3_7/x2
I1201 16:59:15.290997 31460 net.cpp:406] conv3_7/x2 <- conv3_7/x2/bn
I1201 16:59:15.291004 31460 net.cpp:380] conv3_7/x2 -> conv3_7/x2
I1201 16:59:15.294250 31460 net.cpp:122] Setting up conv3_7/x2
I1201 16:59:15.294265 31460 net.cpp:129] Top shape: 1 32 16 61 (31232)
I1201 16:59:15.294270 31460 net.cpp:137] Memory required for data: 212812864
I1201 16:59:15.294277 31460 layer_factory.hpp:77] Creating layer concat_3_7
I1201 16:59:15.294286 31460 net.cpp:84] Creating Layer concat_3_7
I1201 16:59:15.294291 31460 net.cpp:406] concat_3_7 <- concat_3_6_concat_3_6_0_split_1
I1201 16:59:15.294297 31460 net.cpp:406] concat_3_7 <- conv3_7/x2
I1201 16:59:15.294306 31460 net.cpp:380] concat_3_7 -> concat_3_7
I1201 16:59:15.294361 31460 net.cpp:122] Setting up concat_3_7
I1201 16:59:15.294370 31460 net.cpp:129] Top shape: 1 352 16 61 (343552)
I1201 16:59:15.294373 31460 net.cpp:137] Memory required for data: 214187072
I1201 16:59:15.294378 31460 layer_factory.hpp:77] Creating layer concat_3_7_concat_3_7_0_split
I1201 16:59:15.294385 31460 net.cpp:84] Creating Layer concat_3_7_concat_3_7_0_split
I1201 16:59:15.294389 31460 net.cpp:406] concat_3_7_concat_3_7_0_split <- concat_3_7
I1201 16:59:15.294396 31460 net.cpp:380] concat_3_7_concat_3_7_0_split -> concat_3_7_concat_3_7_0_split_0
I1201 16:59:15.294404 31460 net.cpp:380] concat_3_7_concat_3_7_0_split -> concat_3_7_concat_3_7_0_split_1
I1201 16:59:15.294497 31460 net.cpp:122] Setting up concat_3_7_concat_3_7_0_split
I1201 16:59:15.294505 31460 net.cpp:129] Top shape: 1 352 16 61 (343552)
I1201 16:59:15.294512 31460 net.cpp:129] Top shape: 1 352 16 61 (343552)
I1201 16:59:15.294514 31460 net.cpp:137] Memory required for data: 216935488
I1201 16:59:15.294519 31460 layer_factory.hpp:77] Creating layer conv3_8/x1/bn
I1201 16:59:15.294525 31460 net.cpp:84] Creating Layer conv3_8/x1/bn
I1201 16:59:15.294531 31460 net.cpp:406] conv3_8/x1/bn <- concat_3_7_concat_3_7_0_split_0
I1201 16:59:15.294538 31460 net.cpp:380] conv3_8/x1/bn -> conv3_8/x1/bn
I1201 16:59:15.295079 31460 net.cpp:122] Setting up conv3_8/x1/bn
I1201 16:59:15.295089 31460 net.cpp:129] Top shape: 1 352 16 61 (343552)
I1201 16:59:15.295092 31460 net.cpp:137] Memory required for data: 218309696
I1201 16:59:15.295101 31460 layer_factory.hpp:77] Creating layer conv3_8/x1/scale
I1201 16:59:15.295109 31460 net.cpp:84] Creating Layer conv3_8/x1/scale
I1201 16:59:15.295114 31460 net.cpp:406] conv3_8/x1/scale <- conv3_8/x1/bn
I1201 16:59:15.295120 31460 net.cpp:367] conv3_8/x1/scale -> conv3_8/x1/bn (in-place)
I1201 16:59:15.295213 31460 layer_factory.hpp:77] Creating layer conv3_8/x1/scale
I1201 16:59:15.295502 31460 net.cpp:122] Setting up conv3_8/x1/scale
I1201 16:59:15.295511 31460 net.cpp:129] Top shape: 1 352 16 61 (343552)
I1201 16:59:15.295514 31460 net.cpp:137] Memory required for data: 219683904
I1201 16:59:15.295522 31460 layer_factory.hpp:77] Creating layer relu3_8/x1
I1201 16:59:15.295532 31460 net.cpp:84] Creating Layer relu3_8/x1
I1201 16:59:15.295537 31460 net.cpp:406] relu3_8/x1 <- conv3_8/x1/bn
I1201 16:59:15.295542 31460 net.cpp:367] relu3_8/x1 -> conv3_8/x1/bn (in-place)
I1201 16:59:15.296000 31460 net.cpp:122] Setting up relu3_8/x1
I1201 16:59:15.296012 31460 net.cpp:129] Top shape: 1 352 16 61 (343552)
I1201 16:59:15.296016 31460 net.cpp:137] Memory required for data: 221058112
I1201 16:59:15.296021 31460 layer_factory.hpp:77] Creating layer conv3_8/x1
I1201 16:59:15.296036 31460 net.cpp:84] Creating Layer conv3_8/x1
I1201 16:59:15.296041 31460 net.cpp:406] conv3_8/x1 <- conv3_8/x1/bn
I1201 16:59:15.296048 31460 net.cpp:380] conv3_8/x1 -> conv3_8/x1
I1201 16:59:15.300150 31460 net.cpp:122] Setting up conv3_8/x1
I1201 16:59:15.300168 31460 net.cpp:129] Top shape: 1 128 16 61 (124928)
I1201 16:59:15.300173 31460 net.cpp:137] Memory required for data: 221557824
I1201 16:59:15.300179 31460 layer_factory.hpp:77] Creating layer conv3_8/x2/bn
I1201 16:59:15.300187 31460 net.cpp:84] Creating Layer conv3_8/x2/bn
I1201 16:59:15.300192 31460 net.cpp:406] conv3_8/x2/bn <- conv3_8/x1
I1201 16:59:15.300200 31460 net.cpp:380] conv3_8/x2/bn -> conv3_8/x2/bn
I1201 16:59:15.300719 31460 net.cpp:122] Setting up conv3_8/x2/bn
I1201 16:59:15.300729 31460 net.cpp:129] Top shape: 1 128 16 61 (124928)
I1201 16:59:15.300732 31460 net.cpp:137] Memory required for data: 222057536
I1201 16:59:15.300742 31460 layer_factory.hpp:77] Creating layer conv3_8/x2/scale
I1201 16:59:15.300750 31460 net.cpp:84] Creating Layer conv3_8/x2/scale
I1201 16:59:15.300753 31460 net.cpp:406] conv3_8/x2/scale <- conv3_8/x2/bn
I1201 16:59:15.300761 31460 net.cpp:367] conv3_8/x2/scale -> conv3_8/x2/bn (in-place)
I1201 16:59:15.300851 31460 layer_factory.hpp:77] Creating layer conv3_8/x2/scale
I1201 16:59:15.301127 31460 net.cpp:122] Setting up conv3_8/x2/scale
I1201 16:59:15.301136 31460 net.cpp:129] Top shape: 1 128 16 61 (124928)
I1201 16:59:15.301141 31460 net.cpp:137] Memory required for data: 222557248
I1201 16:59:15.301147 31460 layer_factory.hpp:77] Creating layer relu3_8/x2
I1201 16:59:15.301153 31460 net.cpp:84] Creating Layer relu3_8/x2
I1201 16:59:15.301158 31460 net.cpp:406] relu3_8/x2 <- conv3_8/x2/bn
I1201 16:59:15.301163 31460 net.cpp:367] relu3_8/x2 -> conv3_8/x2/bn (in-place)
I1201 16:59:15.301617 31460 net.cpp:122] Setting up relu3_8/x2
I1201 16:59:15.301632 31460 net.cpp:129] Top shape: 1 128 16 61 (124928)
I1201 16:59:15.301636 31460 net.cpp:137] Memory required for data: 223056960
I1201 16:59:15.301641 31460 layer_factory.hpp:77] Creating layer conv3_8/x2
I1201 16:59:15.301656 31460 net.cpp:84] Creating Layer conv3_8/x2
I1201 16:59:15.301662 31460 net.cpp:406] conv3_8/x2 <- conv3_8/x2/bn
I1201 16:59:15.301669 31460 net.cpp:380] conv3_8/x2 -> conv3_8/x2
I1201 16:59:15.305122 31460 net.cpp:122] Setting up conv3_8/x2
I1201 16:59:15.305136 31460 net.cpp:129] Top shape: 1 32 16 61 (31232)
I1201 16:59:15.305140 31460 net.cpp:137] Memory required for data: 223181888
I1201 16:59:15.305147 31460 layer_factory.hpp:77] Creating layer concat_3_8
I1201 16:59:15.305156 31460 net.cpp:84] Creating Layer concat_3_8
I1201 16:59:15.305162 31460 net.cpp:406] concat_3_8 <- concat_3_7_concat_3_7_0_split_1
I1201 16:59:15.305168 31460 net.cpp:406] concat_3_8 <- conv3_8/x2
I1201 16:59:15.305174 31460 net.cpp:380] concat_3_8 -> concat_3_8
I1201 16:59:15.305233 31460 net.cpp:122] Setting up concat_3_8
I1201 16:59:15.305240 31460 net.cpp:129] Top shape: 1 384 16 61 (374784)
I1201 16:59:15.305244 31460 net.cpp:137] Memory required for data: 224681024
I1201 16:59:15.305248 31460 layer_factory.hpp:77] Creating layer concat_3_8_concat_3_8_0_split
I1201 16:59:15.305256 31460 net.cpp:84] Creating Layer concat_3_8_concat_3_8_0_split
I1201 16:59:15.305261 31460 net.cpp:406] concat_3_8_concat_3_8_0_split <- concat_3_8
I1201 16:59:15.305268 31460 net.cpp:380] concat_3_8_concat_3_8_0_split -> concat_3_8_concat_3_8_0_split_0
I1201 16:59:15.305275 31460 net.cpp:380] concat_3_8_concat_3_8_0_split -> concat_3_8_concat_3_8_0_split_1
I1201 16:59:15.305559 31460 net.cpp:122] Setting up concat_3_8_concat_3_8_0_split
I1201 16:59:15.305570 31460 net.cpp:129] Top shape: 1 384 16 61 (374784)
I1201 16:59:15.305575 31460 net.cpp:129] Top shape: 1 384 16 61 (374784)
I1201 16:59:15.305579 31460 net.cpp:137] Memory required for data: 227679296
I1201 16:59:15.305584 31460 layer_factory.hpp:77] Creating layer conv3_9/x1/bn
I1201 16:59:15.305593 31460 net.cpp:84] Creating Layer conv3_9/x1/bn
I1201 16:59:15.305598 31460 net.cpp:406] conv3_9/x1/bn <- concat_3_8_concat_3_8_0_split_0
I1201 16:59:15.305604 31460 net.cpp:380] conv3_9/x1/bn -> conv3_9/x1/bn
I1201 16:59:15.306120 31460 net.cpp:122] Setting up conv3_9/x1/bn
I1201 16:59:15.306129 31460 net.cpp:129] Top shape: 1 384 16 61 (374784)
I1201 16:59:15.306133 31460 net.cpp:137] Memory required for data: 229178432
I1201 16:59:15.306143 31460 layer_factory.hpp:77] Creating layer conv3_9/x1/scale
I1201 16:59:15.306151 31460 net.cpp:84] Creating Layer conv3_9/x1/scale
I1201 16:59:15.306155 31460 net.cpp:406] conv3_9/x1/scale <- conv3_9/x1/bn
I1201 16:59:15.306162 31460 net.cpp:367] conv3_9/x1/scale -> conv3_9/x1/bn (in-place)
I1201 16:59:15.306254 31460 layer_factory.hpp:77] Creating layer conv3_9/x1/scale
I1201 16:59:15.306530 31460 net.cpp:122] Setting up conv3_9/x1/scale
I1201 16:59:15.306538 31460 net.cpp:129] Top shape: 1 384 16 61 (374784)
I1201 16:59:15.306542 31460 net.cpp:137] Memory required for data: 230677568
I1201 16:59:15.306550 31460 layer_factory.hpp:77] Creating layer relu3_9/x1
I1201 16:59:15.306556 31460 net.cpp:84] Creating Layer relu3_9/x1
I1201 16:59:15.306561 31460 net.cpp:406] relu3_9/x1 <- conv3_9/x1/bn
I1201 16:59:15.306567 31460 net.cpp:367] relu3_9/x1 -> conv3_9/x1/bn (in-place)
I1201 16:59:15.306818 31460 net.cpp:122] Setting up relu3_9/x1
I1201 16:59:15.306828 31460 net.cpp:129] Top shape: 1 384 16 61 (374784)
I1201 16:59:15.306833 31460 net.cpp:137] Memory required for data: 232176704
I1201 16:59:15.306838 31460 layer_factory.hpp:77] Creating layer conv3_9/x1
I1201 16:59:15.306849 31460 net.cpp:84] Creating Layer conv3_9/x1
I1201 16:59:15.306852 31460 net.cpp:406] conv3_9/x1 <- conv3_9/x1/bn
I1201 16:59:15.306861 31460 net.cpp:380] conv3_9/x1 -> conv3_9/x1
I1201 16:59:15.310431 31460 net.cpp:122] Setting up conv3_9/x1
I1201 16:59:15.310446 31460 net.cpp:129] Top shape: 1 128 16 61 (124928)
I1201 16:59:15.310451 31460 net.cpp:137] Memory required for data: 232676416
I1201 16:59:15.310458 31460 layer_factory.hpp:77] Creating layer conv3_9/x2/bn
I1201 16:59:15.310468 31460 net.cpp:84] Creating Layer conv3_9/x2/bn
I1201 16:59:15.310477 31460 net.cpp:406] conv3_9/x2/bn <- conv3_9/x1
I1201 16:59:15.310485 31460 net.cpp:380] conv3_9/x2/bn -> conv3_9/x2/bn
I1201 16:59:15.311012 31460 net.cpp:122] Setting up conv3_9/x2/bn
I1201 16:59:15.311020 31460 net.cpp:129] Top shape: 1 128 16 61 (124928)
I1201 16:59:15.311024 31460 net.cpp:137] Memory required for data: 233176128
I1201 16:59:15.311035 31460 layer_factory.hpp:77] Creating layer conv3_9/x2/scale
I1201 16:59:15.311043 31460 net.cpp:84] Creating Layer conv3_9/x2/scale
I1201 16:59:15.311048 31460 net.cpp:406] conv3_9/x2/scale <- conv3_9/x2/bn
I1201 16:59:15.311054 31460 net.cpp:367] conv3_9/x2/scale -> conv3_9/x2/bn (in-place)
I1201 16:59:15.311142 31460 layer_factory.hpp:77] Creating layer conv3_9/x2/scale
I1201 16:59:15.311424 31460 net.cpp:122] Setting up conv3_9/x2/scale
I1201 16:59:15.311432 31460 net.cpp:129] Top shape: 1 128 16 61 (124928)
I1201 16:59:15.311436 31460 net.cpp:137] Memory required for data: 233675840
I1201 16:59:15.311444 31460 layer_factory.hpp:77] Creating layer relu3_9/x2
I1201 16:59:15.311450 31460 net.cpp:84] Creating Layer relu3_9/x2
I1201 16:59:15.311455 31460 net.cpp:406] relu3_9/x2 <- conv3_9/x2/bn
I1201 16:59:15.311461 31460 net.cpp:367] relu3_9/x2 -> conv3_9/x2/bn (in-place)
I1201 16:59:15.311923 31460 net.cpp:122] Setting up relu3_9/x2
I1201 16:59:15.311934 31460 net.cpp:129] Top shape: 1 128 16 61 (124928)
I1201 16:59:15.311939 31460 net.cpp:137] Memory required for data: 234175552
I1201 16:59:15.311944 31460 layer_factory.hpp:77] Creating layer conv3_9/x2
I1201 16:59:15.311956 31460 net.cpp:84] Creating Layer conv3_9/x2
I1201 16:59:15.311961 31460 net.cpp:406] conv3_9/x2 <- conv3_9/x2/bn
I1201 16:59:15.311969 31460 net.cpp:380] conv3_9/x2 -> conv3_9/x2
I1201 16:59:15.315220 31460 net.cpp:122] Setting up conv3_9/x2
I1201 16:59:15.315234 31460 net.cpp:129] Top shape: 1 32 16 61 (31232)
I1201 16:59:15.315239 31460 net.cpp:137] Memory required for data: 234300480
I1201 16:59:15.315248 31460 layer_factory.hpp:77] Creating layer concat_3_9
I1201 16:59:15.315255 31460 net.cpp:84] Creating Layer concat_3_9
I1201 16:59:15.315261 31460 net.cpp:406] concat_3_9 <- concat_3_8_concat_3_8_0_split_1
I1201 16:59:15.315268 31460 net.cpp:406] concat_3_9 <- conv3_9/x2
I1201 16:59:15.315274 31460 net.cpp:380] concat_3_9 -> concat_3_9
I1201 16:59:15.315335 31460 net.cpp:122] Setting up concat_3_9
I1201 16:59:15.315342 31460 net.cpp:129] Top shape: 1 416 16 61 (406016)
I1201 16:59:15.315346 31460 net.cpp:137] Memory required for data: 235924544
I1201 16:59:15.315351 31460 layer_factory.hpp:77] Creating layer concat_3_9_concat_3_9_0_split
I1201 16:59:15.315357 31460 net.cpp:84] Creating Layer concat_3_9_concat_3_9_0_split
I1201 16:59:15.315361 31460 net.cpp:406] concat_3_9_concat_3_9_0_split <- concat_3_9
I1201 16:59:15.315369 31460 net.cpp:380] concat_3_9_concat_3_9_0_split -> concat_3_9_concat_3_9_0_split_0
I1201 16:59:15.315376 31460 net.cpp:380] concat_3_9_concat_3_9_0_split -> concat_3_9_concat_3_9_0_split_1
I1201 16:59:15.315462 31460 net.cpp:122] Setting up concat_3_9_concat_3_9_0_split
I1201 16:59:15.315470 31460 net.cpp:129] Top shape: 1 416 16 61 (406016)
I1201 16:59:15.315475 31460 net.cpp:129] Top shape: 1 416 16 61 (406016)
I1201 16:59:15.315479 31460 net.cpp:137] Memory required for data: 239172672
I1201 16:59:15.315484 31460 layer_factory.hpp:77] Creating layer conv3_10/x1/bn
I1201 16:59:15.315491 31460 net.cpp:84] Creating Layer conv3_10/x1/bn
I1201 16:59:15.315495 31460 net.cpp:406] conv3_10/x1/bn <- concat_3_9_concat_3_9_0_split_0
I1201 16:59:15.315503 31460 net.cpp:380] conv3_10/x1/bn -> conv3_10/x1/bn
I1201 16:59:15.316071 31460 net.cpp:122] Setting up conv3_10/x1/bn
I1201 16:59:15.316081 31460 net.cpp:129] Top shape: 1 416 16 61 (406016)
I1201 16:59:15.316084 31460 net.cpp:137] Memory required for data: 240796736
I1201 16:59:15.316093 31460 layer_factory.hpp:77] Creating layer conv3_10/x1/scale
I1201 16:59:15.316100 31460 net.cpp:84] Creating Layer conv3_10/x1/scale
I1201 16:59:15.316105 31460 net.cpp:406] conv3_10/x1/scale <- conv3_10/x1/bn
I1201 16:59:15.316117 31460 net.cpp:367] conv3_10/x1/scale -> conv3_10/x1/bn (in-place)
I1201 16:59:15.316212 31460 layer_factory.hpp:77] Creating layer conv3_10/x1/scale
I1201 16:59:15.316515 31460 net.cpp:122] Setting up conv3_10/x1/scale
I1201 16:59:15.316524 31460 net.cpp:129] Top shape: 1 416 16 61 (406016)
I1201 16:59:15.316529 31460 net.cpp:137] Memory required for data: 242420800
I1201 16:59:15.316535 31460 layer_factory.hpp:77] Creating layer relu3_10/x1
I1201 16:59:15.316542 31460 net.cpp:84] Creating Layer relu3_10/x1
I1201 16:59:15.316546 31460 net.cpp:406] relu3_10/x1 <- conv3_10/x1/bn
I1201 16:59:15.316555 31460 net.cpp:367] relu3_10/x1 -> conv3_10/x1/bn (in-place)
I1201 16:59:15.316805 31460 net.cpp:122] Setting up relu3_10/x1
I1201 16:59:15.316817 31460 net.cpp:129] Top shape: 1 416 16 61 (406016)
I1201 16:59:15.316821 31460 net.cpp:137] Memory required for data: 244044864
I1201 16:59:15.316825 31460 layer_factory.hpp:77] Creating layer conv3_10/x1
I1201 16:59:15.316838 31460 net.cpp:84] Creating Layer conv3_10/x1
I1201 16:59:15.316843 31460 net.cpp:406] conv3_10/x1 <- conv3_10/x1/bn
I1201 16:59:15.316849 31460 net.cpp:380] conv3_10/x1 -> conv3_10/x1
I1201 16:59:15.320581 31460 net.cpp:122] Setting up conv3_10/x1
I1201 16:59:15.320598 31460 net.cpp:129] Top shape: 1 128 16 61 (124928)
I1201 16:59:15.320602 31460 net.cpp:137] Memory required for data: 244544576
I1201 16:59:15.320610 31460 layer_factory.hpp:77] Creating layer conv3_10/x2/bn
I1201 16:59:15.320619 31460 net.cpp:84] Creating Layer conv3_10/x2/bn
I1201 16:59:15.320624 31460 net.cpp:406] conv3_10/x2/bn <- conv3_10/x1
I1201 16:59:15.320632 31460 net.cpp:380] conv3_10/x2/bn -> conv3_10/x2/bn
I1201 16:59:15.321175 31460 net.cpp:122] Setting up conv3_10/x2/bn
I1201 16:59:15.321187 31460 net.cpp:129] Top shape: 1 128 16 61 (124928)
I1201 16:59:15.321190 31460 net.cpp:137] Memory required for data: 245044288
I1201 16:59:15.321203 31460 layer_factory.hpp:77] Creating layer conv3_10/x2/scale
I1201 16:59:15.321211 31460 net.cpp:84] Creating Layer conv3_10/x2/scale
I1201 16:59:15.321216 31460 net.cpp:406] conv3_10/x2/scale <- conv3_10/x2/bn
I1201 16:59:15.321223 31460 net.cpp:367] conv3_10/x2/scale -> conv3_10/x2/bn (in-place)
I1201 16:59:15.321316 31460 layer_factory.hpp:77] Creating layer conv3_10/x2/scale
I1201 16:59:15.321604 31460 net.cpp:122] Setting up conv3_10/x2/scale
I1201 16:59:15.321614 31460 net.cpp:129] Top shape: 1 128 16 61 (124928)
I1201 16:59:15.321617 31460 net.cpp:137] Memory required for data: 245544000
I1201 16:59:15.321624 31460 layer_factory.hpp:77] Creating layer relu3_10/x2
I1201 16:59:15.321633 31460 net.cpp:84] Creating Layer relu3_10/x2
I1201 16:59:15.321637 31460 net.cpp:406] relu3_10/x2 <- conv3_10/x2/bn
I1201 16:59:15.321645 31460 net.cpp:367] relu3_10/x2 -> conv3_10/x2/bn (in-place)
I1201 16:59:15.322124 31460 net.cpp:122] Setting up relu3_10/x2
I1201 16:59:15.322135 31460 net.cpp:129] Top shape: 1 128 16 61 (124928)
I1201 16:59:15.322140 31460 net.cpp:137] Memory required for data: 246043712
I1201 16:59:15.322145 31460 layer_factory.hpp:77] Creating layer conv3_10/x2
I1201 16:59:15.322158 31460 net.cpp:84] Creating Layer conv3_10/x2
I1201 16:59:15.322163 31460 net.cpp:406] conv3_10/x2 <- conv3_10/x2/bn
I1201 16:59:15.322171 31460 net.cpp:380] conv3_10/x2 -> conv3_10/x2
I1201 16:59:15.325757 31460 net.cpp:122] Setting up conv3_10/x2
I1201 16:59:15.325790 31460 net.cpp:129] Top shape: 1 32 16 61 (31232)
I1201 16:59:15.325795 31460 net.cpp:137] Memory required for data: 246168640
I1201 16:59:15.325805 31460 layer_factory.hpp:77] Creating layer concat_3_10
I1201 16:59:15.325819 31460 net.cpp:84] Creating Layer concat_3_10
I1201 16:59:15.325827 31460 net.cpp:406] concat_3_10 <- concat_3_9_concat_3_9_0_split_1
I1201 16:59:15.325835 31460 net.cpp:406] concat_3_10 <- conv3_10/x2
I1201 16:59:15.325844 31460 net.cpp:380] concat_3_10 -> concat_3_10
I1201 16:59:15.325909 31460 net.cpp:122] Setting up concat_3_10
I1201 16:59:15.325919 31460 net.cpp:129] Top shape: 1 448 16 61 (437248)
I1201 16:59:15.325923 31460 net.cpp:137] Memory required for data: 247917632
I1201 16:59:15.325932 31460 layer_factory.hpp:77] Creating layer concat_3_10_concat_3_10_0_split
I1201 16:59:15.325939 31460 net.cpp:84] Creating Layer concat_3_10_concat_3_10_0_split
I1201 16:59:15.325943 31460 net.cpp:406] concat_3_10_concat_3_10_0_split <- concat_3_10
I1201 16:59:15.325949 31460 net.cpp:380] concat_3_10_concat_3_10_0_split -> concat_3_10_concat_3_10_0_split_0
I1201 16:59:15.325956 31460 net.cpp:380] concat_3_10_concat_3_10_0_split -> concat_3_10_concat_3_10_0_split_1
I1201 16:59:15.326046 31460 net.cpp:122] Setting up concat_3_10_concat_3_10_0_split
I1201 16:59:15.326056 31460 net.cpp:129] Top shape: 1 448 16 61 (437248)
I1201 16:59:15.326061 31460 net.cpp:129] Top shape: 1 448 16 61 (437248)
I1201 16:59:15.326064 31460 net.cpp:137] Memory required for data: 251415616
I1201 16:59:15.326068 31460 layer_factory.hpp:77] Creating layer conv3_11/x1/bn
I1201 16:59:15.326077 31460 net.cpp:84] Creating Layer conv3_11/x1/bn
I1201 16:59:15.326081 31460 net.cpp:406] conv3_11/x1/bn <- concat_3_10_concat_3_10_0_split_0
I1201 16:59:15.326087 31460 net.cpp:380] conv3_11/x1/bn -> conv3_11/x1/bn
I1201 16:59:15.326699 31460 net.cpp:122] Setting up conv3_11/x1/bn
I1201 16:59:15.326709 31460 net.cpp:129] Top shape: 1 448 16 61 (437248)
I1201 16:59:15.326714 31460 net.cpp:137] Memory required for data: 253164608
I1201 16:59:15.326725 31460 layer_factory.hpp:77] Creating layer conv3_11/x1/scale
I1201 16:59:15.326735 31460 net.cpp:84] Creating Layer conv3_11/x1/scale
I1201 16:59:15.326740 31460 net.cpp:406] conv3_11/x1/scale <- conv3_11/x1/bn
I1201 16:59:15.326745 31460 net.cpp:367] conv3_11/x1/scale -> conv3_11/x1/bn (in-place)
I1201 16:59:15.326848 31460 layer_factory.hpp:77] Creating layer conv3_11/x1/scale
I1201 16:59:15.327164 31460 net.cpp:122] Setting up conv3_11/x1/scale
I1201 16:59:15.327174 31460 net.cpp:129] Top shape: 1 448 16 61 (437248)
I1201 16:59:15.327178 31460 net.cpp:137] Memory required for data: 254913600
I1201 16:59:15.327186 31460 layer_factory.hpp:77] Creating layer relu3_11/x1
I1201 16:59:15.327193 31460 net.cpp:84] Creating Layer relu3_11/x1
I1201 16:59:15.327198 31460 net.cpp:406] relu3_11/x1 <- conv3_11/x1/bn
I1201 16:59:15.327204 31460 net.cpp:367] relu3_11/x1 -> conv3_11/x1/bn (in-place)
I1201 16:59:15.327772 31460 net.cpp:122] Setting up relu3_11/x1
I1201 16:59:15.327787 31460 net.cpp:129] Top shape: 1 448 16 61 (437248)
I1201 16:59:15.327792 31460 net.cpp:137] Memory required for data: 256662592
I1201 16:59:15.327796 31460 layer_factory.hpp:77] Creating layer conv3_11/x1
I1201 16:59:15.327811 31460 net.cpp:84] Creating Layer conv3_11/x1
I1201 16:59:15.327816 31460 net.cpp:406] conv3_11/x1 <- conv3_11/x1/bn
I1201 16:59:15.327826 31460 net.cpp:380] conv3_11/x1 -> conv3_11/x1
I1201 16:59:15.333200 31460 net.cpp:122] Setting up conv3_11/x1
I1201 16:59:15.333236 31460 net.cpp:129] Top shape: 1 128 16 61 (124928)
I1201 16:59:15.333242 31460 net.cpp:137] Memory required for data: 257162304
I1201 16:59:15.333253 31460 layer_factory.hpp:77] Creating layer conv3_11/x2/bn
I1201 16:59:15.333271 31460 net.cpp:84] Creating Layer conv3_11/x2/bn
I1201 16:59:15.333277 31460 net.cpp:406] conv3_11/x2/bn <- conv3_11/x1
I1201 16:59:15.333287 31460 net.cpp:380] conv3_11/x2/bn -> conv3_11/x2/bn
I1201 16:59:15.333902 31460 net.cpp:122] Setting up conv3_11/x2/bn
I1201 16:59:15.333912 31460 net.cpp:129] Top shape: 1 128 16 61 (124928)
I1201 16:59:15.333916 31460 net.cpp:137] Memory required for data: 257662016
I1201 16:59:15.333927 31460 layer_factory.hpp:77] Creating layer conv3_11/x2/scale
I1201 16:59:15.333937 31460 net.cpp:84] Creating Layer conv3_11/x2/scale
I1201 16:59:15.333942 31460 net.cpp:406] conv3_11/x2/scale <- conv3_11/x2/bn
I1201 16:59:15.333948 31460 net.cpp:367] conv3_11/x2/scale -> conv3_11/x2/bn (in-place)
I1201 16:59:15.334043 31460 layer_factory.hpp:77] Creating layer conv3_11/x2/scale
I1201 16:59:15.334333 31460 net.cpp:122] Setting up conv3_11/x2/scale
I1201 16:59:15.334342 31460 net.cpp:129] Top shape: 1 128 16 61 (124928)
I1201 16:59:15.334347 31460 net.cpp:137] Memory required for data: 258161728
I1201 16:59:15.334358 31460 layer_factory.hpp:77] Creating layer relu3_11/x2
I1201 16:59:15.334367 31460 net.cpp:84] Creating Layer relu3_11/x2
I1201 16:59:15.334372 31460 net.cpp:406] relu3_11/x2 <- conv3_11/x2/bn
I1201 16:59:15.334377 31460 net.cpp:367] relu3_11/x2 -> conv3_11/x2/bn (in-place)
I1201 16:59:15.334642 31460 net.cpp:122] Setting up relu3_11/x2
I1201 16:59:15.334652 31460 net.cpp:129] Top shape: 1 128 16 61 (124928)
I1201 16:59:15.334656 31460 net.cpp:137] Memory required for data: 258661440
I1201 16:59:15.334661 31460 layer_factory.hpp:77] Creating layer conv3_11/x2
I1201 16:59:15.334676 31460 net.cpp:84] Creating Layer conv3_11/x2
I1201 16:59:15.334681 31460 net.cpp:406] conv3_11/x2 <- conv3_11/x2/bn
I1201 16:59:15.334688 31460 net.cpp:380] conv3_11/x2 -> conv3_11/x2
I1201 16:59:15.338268 31460 net.cpp:122] Setting up conv3_11/x2
I1201 16:59:15.338300 31460 net.cpp:129] Top shape: 1 32 16 61 (31232)
I1201 16:59:15.338305 31460 net.cpp:137] Memory required for data: 258786368
I1201 16:59:15.338315 31460 layer_factory.hpp:77] Creating layer concat_3_11
I1201 16:59:15.338326 31460 net.cpp:84] Creating Layer concat_3_11
I1201 16:59:15.338333 31460 net.cpp:406] concat_3_11 <- concat_3_10_concat_3_10_0_split_1
I1201 16:59:15.338341 31460 net.cpp:406] concat_3_11 <- conv3_11/x2
I1201 16:59:15.338348 31460 net.cpp:380] concat_3_11 -> concat_3_11
I1201 16:59:15.338415 31460 net.cpp:122] Setting up concat_3_11
I1201 16:59:15.338426 31460 net.cpp:129] Top shape: 1 480 16 61 (468480)
I1201 16:59:15.338430 31460 net.cpp:137] Memory required for data: 260660288
I1201 16:59:15.338434 31460 layer_factory.hpp:77] Creating layer concat_3_11_concat_3_11_0_split
I1201 16:59:15.338441 31460 net.cpp:84] Creating Layer concat_3_11_concat_3_11_0_split
I1201 16:59:15.338445 31460 net.cpp:406] concat_3_11_concat_3_11_0_split <- concat_3_11
I1201 16:59:15.338451 31460 net.cpp:380] concat_3_11_concat_3_11_0_split -> concat_3_11_concat_3_11_0_split_0
I1201 16:59:15.338459 31460 net.cpp:380] concat_3_11_concat_3_11_0_split -> concat_3_11_concat_3_11_0_split_1
I1201 16:59:15.338548 31460 net.cpp:122] Setting up concat_3_11_concat_3_11_0_split
I1201 16:59:15.338557 31460 net.cpp:129] Top shape: 1 480 16 61 (468480)
I1201 16:59:15.338562 31460 net.cpp:129] Top shape: 1 480 16 61 (468480)
I1201 16:59:15.338565 31460 net.cpp:137] Memory required for data: 264408128
I1201 16:59:15.338569 31460 layer_factory.hpp:77] Creating layer conv3_12/x1/bn
I1201 16:59:15.338578 31460 net.cpp:84] Creating Layer conv3_12/x1/bn
I1201 16:59:15.338582 31460 net.cpp:406] conv3_12/x1/bn <- concat_3_11_concat_3_11_0_split_0
I1201 16:59:15.338589 31460 net.cpp:380] conv3_12/x1/bn -> conv3_12/x1/bn
I1201 16:59:15.339192 31460 net.cpp:122] Setting up conv3_12/x1/bn
I1201 16:59:15.339201 31460 net.cpp:129] Top shape: 1 480 16 61 (468480)
I1201 16:59:15.339205 31460 net.cpp:137] Memory required for data: 266282048
I1201 16:59:15.339215 31460 layer_factory.hpp:77] Creating layer conv3_12/x1/scale
I1201 16:59:15.339224 31460 net.cpp:84] Creating Layer conv3_12/x1/scale
I1201 16:59:15.339229 31460 net.cpp:406] conv3_12/x1/scale <- conv3_12/x1/bn
I1201 16:59:15.339234 31460 net.cpp:367] conv3_12/x1/scale -> conv3_12/x1/bn (in-place)
I1201 16:59:15.339335 31460 layer_factory.hpp:77] Creating layer conv3_12/x1/scale
I1201 16:59:15.339650 31460 net.cpp:122] Setting up conv3_12/x1/scale
I1201 16:59:15.339659 31460 net.cpp:129] Top shape: 1 480 16 61 (468480)
I1201 16:59:15.339663 31460 net.cpp:137] Memory required for data: 268155968
I1201 16:59:15.339671 31460 layer_factory.hpp:77] Creating layer relu3_12/x1
I1201 16:59:15.339679 31460 net.cpp:84] Creating Layer relu3_12/x1
I1201 16:59:15.339684 31460 net.cpp:406] relu3_12/x1 <- conv3_12/x1/bn
I1201 16:59:15.339689 31460 net.cpp:367] relu3_12/x1 -> conv3_12/x1/bn (in-place)
I1201 16:59:15.340176 31460 net.cpp:122] Setting up relu3_12/x1
I1201 16:59:15.340189 31460 net.cpp:129] Top shape: 1 480 16 61 (468480)
I1201 16:59:15.340194 31460 net.cpp:137] Memory required for data: 270029888
I1201 16:59:15.340198 31460 layer_factory.hpp:77] Creating layer conv3_12/x1
I1201 16:59:15.340216 31460 net.cpp:84] Creating Layer conv3_12/x1
I1201 16:59:15.340221 31460 net.cpp:406] conv3_12/x1 <- conv3_12/x1/bn
I1201 16:59:15.340229 31460 net.cpp:380] conv3_12/x1 -> conv3_12/x1
I1201 16:59:15.344576 31460 net.cpp:122] Setting up conv3_12/x1
I1201 16:59:15.344601 31460 net.cpp:129] Top shape: 1 128 16 61 (124928)
I1201 16:59:15.344606 31460 net.cpp:137] Memory required for data: 270529600
I1201 16:59:15.344614 31460 layer_factory.hpp:77] Creating layer conv3_12/x2/bn
I1201 16:59:15.344626 31460 net.cpp:84] Creating Layer conv3_12/x2/bn
I1201 16:59:15.344632 31460 net.cpp:406] conv3_12/x2/bn <- conv3_12/x1
I1201 16:59:15.344640 31460 net.cpp:380] conv3_12/x2/bn -> conv3_12/x2/bn
I1201 16:59:15.345212 31460 net.cpp:122] Setting up conv3_12/x2/bn
I1201 16:59:15.345222 31460 net.cpp:129] Top shape: 1 128 16 61 (124928)
I1201 16:59:15.345227 31460 net.cpp:137] Memory required for data: 271029312
I1201 16:59:15.345235 31460 layer_factory.hpp:77] Creating layer conv3_12/x2/scale
I1201 16:59:15.345245 31460 net.cpp:84] Creating Layer conv3_12/x2/scale
I1201 16:59:15.345250 31460 net.cpp:406] conv3_12/x2/scale <- conv3_12/x2/bn
I1201 16:59:15.345257 31460 net.cpp:367] conv3_12/x2/scale -> conv3_12/x2/bn (in-place)
I1201 16:59:15.345350 31460 layer_factory.hpp:77] Creating layer conv3_12/x2/scale
I1201 16:59:15.345649 31460 net.cpp:122] Setting up conv3_12/x2/scale
I1201 16:59:15.345656 31460 net.cpp:129] Top shape: 1 128 16 61 (124928)
I1201 16:59:15.345660 31460 net.cpp:137] Memory required for data: 271529024
I1201 16:59:15.345667 31460 layer_factory.hpp:77] Creating layer relu3_12/x2
I1201 16:59:15.345676 31460 net.cpp:84] Creating Layer relu3_12/x2
I1201 16:59:15.345681 31460 net.cpp:406] relu3_12/x2 <- conv3_12/x2/bn
I1201 16:59:15.345687 31460 net.cpp:367] relu3_12/x2 -> conv3_12/x2/bn (in-place)
I1201 16:59:15.345955 31460 net.cpp:122] Setting up relu3_12/x2
I1201 16:59:15.345965 31460 net.cpp:129] Top shape: 1 128 16 61 (124928)
I1201 16:59:15.345969 31460 net.cpp:137] Memory required for data: 272028736
I1201 16:59:15.345974 31460 layer_factory.hpp:77] Creating layer conv3_12/x2
I1201 16:59:15.345986 31460 net.cpp:84] Creating Layer conv3_12/x2
I1201 16:59:15.345991 31460 net.cpp:406] conv3_12/x2 <- conv3_12/x2/bn
I1201 16:59:15.345999 31460 net.cpp:380] conv3_12/x2 -> conv3_12/x2
I1201 16:59:15.349443 31460 net.cpp:122] Setting up conv3_12/x2
I1201 16:59:15.349468 31460 net.cpp:129] Top shape: 1 32 16 61 (31232)
I1201 16:59:15.349473 31460 net.cpp:137] Memory required for data: 272153664
I1201 16:59:15.349481 31460 layer_factory.hpp:77] Creating layer concat_3_12
I1201 16:59:15.349493 31460 net.cpp:84] Creating Layer concat_3_12
I1201 16:59:15.349499 31460 net.cpp:406] concat_3_12 <- concat_3_11_concat_3_11_0_split_1
I1201 16:59:15.349508 31460 net.cpp:406] concat_3_12 <- conv3_12/x2
I1201 16:59:15.349514 31460 net.cpp:380] concat_3_12 -> concat_3_12
I1201 16:59:15.349576 31460 net.cpp:122] Setting up concat_3_12
I1201 16:59:15.349584 31460 net.cpp:129] Top shape: 1 512 16 61 (499712)
I1201 16:59:15.349588 31460 net.cpp:137] Memory required for data: 274152512
I1201 16:59:15.349592 31460 layer_factory.hpp:77] Creating layer conv3_blk/bn
I1201 16:59:15.349602 31460 net.cpp:84] Creating Layer conv3_blk/bn
I1201 16:59:15.349606 31460 net.cpp:406] conv3_blk/bn <- concat_3_12
I1201 16:59:15.349614 31460 net.cpp:380] conv3_blk/bn -> conv3_blk/bn
I1201 16:59:15.350186 31460 net.cpp:122] Setting up conv3_blk/bn
I1201 16:59:15.350195 31460 net.cpp:129] Top shape: 1 512 16 61 (499712)
I1201 16:59:15.350199 31460 net.cpp:137] Memory required for data: 276151360
I1201 16:59:15.350209 31460 layer_factory.hpp:77] Creating layer conv3_blk/scale
I1201 16:59:15.350217 31460 net.cpp:84] Creating Layer conv3_blk/scale
I1201 16:59:15.350222 31460 net.cpp:406] conv3_blk/scale <- conv3_blk/bn
I1201 16:59:15.350229 31460 net.cpp:367] conv3_blk/scale -> conv3_blk/bn (in-place)
I1201 16:59:15.350328 31460 layer_factory.hpp:77] Creating layer conv3_blk/scale
I1201 16:59:15.350623 31460 net.cpp:122] Setting up conv3_blk/scale
I1201 16:59:15.350633 31460 net.cpp:129] Top shape: 1 512 16 61 (499712)
I1201 16:59:15.350637 31460 net.cpp:137] Memory required for data: 278150208
I1201 16:59:15.350644 31460 layer_factory.hpp:77] Creating layer relu3_blk
I1201 16:59:15.350651 31460 net.cpp:84] Creating Layer relu3_blk
I1201 16:59:15.350656 31460 net.cpp:406] relu3_blk <- conv3_blk/bn
I1201 16:59:15.350662 31460 net.cpp:367] relu3_blk -> conv3_blk/bn (in-place)
I1201 16:59:15.351136 31460 net.cpp:122] Setting up relu3_blk
I1201 16:59:15.351150 31460 net.cpp:129] Top shape: 1 512 16 61 (499712)
I1201 16:59:15.351153 31460 net.cpp:137] Memory required for data: 280149056
I1201 16:59:15.351158 31460 layer_factory.hpp:77] Creating layer conv3_blk
I1201 16:59:15.351171 31460 net.cpp:84] Creating Layer conv3_blk
I1201 16:59:15.351179 31460 net.cpp:406] conv3_blk <- conv3_blk/bn
I1201 16:59:15.351187 31460 net.cpp:380] conv3_blk -> conv3_blk
I1201 16:59:15.359076 31460 net.cpp:122] Setting up conv3_blk
I1201 16:59:15.359110 31460 net.cpp:129] Top shape: 1 256 16 61 (249856)
I1201 16:59:15.359115 31460 net.cpp:137] Memory required for data: 281148480
I1201 16:59:15.359125 31460 layer_factory.hpp:77] Creating layer pool3
I1201 16:59:15.359139 31460 net.cpp:84] Creating Layer pool3
I1201 16:59:15.359146 31460 net.cpp:406] pool3 <- conv3_blk
I1201 16:59:15.359156 31460 net.cpp:380] pool3 -> pool3
I1201 16:59:15.359681 31460 net.cpp:122] Setting up pool3
I1201 16:59:15.359695 31460 net.cpp:129] Top shape: 1 256 8 31 (63488)
I1201 16:59:15.359700 31460 net.cpp:137] Memory required for data: 281402432
I1201 16:59:15.359704 31460 layer_factory.hpp:77] Creating layer pool3_pool3_0_split
I1201 16:59:15.359712 31460 net.cpp:84] Creating Layer pool3_pool3_0_split
I1201 16:59:15.359717 31460 net.cpp:406] pool3_pool3_0_split <- pool3
I1201 16:59:15.359724 31460 net.cpp:380] pool3_pool3_0_split -> pool3_pool3_0_split_0
I1201 16:59:15.359731 31460 net.cpp:380] pool3_pool3_0_split -> pool3_pool3_0_split_1
I1201 16:59:15.359838 31460 net.cpp:122] Setting up pool3_pool3_0_split
I1201 16:59:15.359846 31460 net.cpp:129] Top shape: 1 256 8 31 (63488)
I1201 16:59:15.359853 31460 net.cpp:129] Top shape: 1 256 8 31 (63488)
I1201 16:59:15.359856 31460 net.cpp:137] Memory required for data: 281910336
I1201 16:59:15.359861 31460 layer_factory.hpp:77] Creating layer conv4_1/x1/bn
I1201 16:59:15.359869 31460 net.cpp:84] Creating Layer conv4_1/x1/bn
I1201 16:59:15.359874 31460 net.cpp:406] conv4_1/x1/bn <- pool3_pool3_0_split_0
I1201 16:59:15.359880 31460 net.cpp:380] conv4_1/x1/bn -> conv4_1/x1/bn
I1201 16:59:15.360435 31460 net.cpp:122] Setting up conv4_1/x1/bn
I1201 16:59:15.360445 31460 net.cpp:129] Top shape: 1 256 8 31 (63488)
I1201 16:59:15.360450 31460 net.cpp:137] Memory required for data: 282164288
I1201 16:59:15.360460 31460 layer_factory.hpp:77] Creating layer conv4_1/x1/scale
I1201 16:59:15.360468 31460 net.cpp:84] Creating Layer conv4_1/x1/scale
I1201 16:59:15.360472 31460 net.cpp:406] conv4_1/x1/scale <- conv4_1/x1/bn
I1201 16:59:15.360478 31460 net.cpp:367] conv4_1/x1/scale -> conv4_1/x1/bn (in-place)
I1201 16:59:15.360575 31460 layer_factory.hpp:77] Creating layer conv4_1/x1/scale
I1201 16:59:15.360860 31460 net.cpp:122] Setting up conv4_1/x1/scale
I1201 16:59:15.360869 31460 net.cpp:129] Top shape: 1 256 8 31 (63488)
I1201 16:59:15.360873 31460 net.cpp:137] Memory required for data: 282418240
I1201 16:59:15.360880 31460 layer_factory.hpp:77] Creating layer relu4_1/x1
I1201 16:59:15.360888 31460 net.cpp:84] Creating Layer relu4_1/x1
I1201 16:59:15.360893 31460 net.cpp:406] relu4_1/x1 <- conv4_1/x1/bn
I1201 16:59:15.360898 31460 net.cpp:367] relu4_1/x1 -> conv4_1/x1/bn (in-place)
I1201 16:59:15.361157 31460 net.cpp:122] Setting up relu4_1/x1
I1201 16:59:15.361167 31460 net.cpp:129] Top shape: 1 256 8 31 (63488)
I1201 16:59:15.361172 31460 net.cpp:137] Memory required for data: 282672192
I1201 16:59:15.361176 31460 layer_factory.hpp:77] Creating layer conv4_1/x1
I1201 16:59:15.361189 31460 net.cpp:84] Creating Layer conv4_1/x1
I1201 16:59:15.361202 31460 net.cpp:406] conv4_1/x1 <- conv4_1/x1/bn
I1201 16:59:15.361208 31460 net.cpp:380] conv4_1/x1 -> conv4_1/x1
I1201 16:59:15.364706 31460 net.cpp:122] Setting up conv4_1/x1
I1201 16:59:15.364744 31460 net.cpp:129] Top shape: 1 128 8 31 (31744)
I1201 16:59:15.364749 31460 net.cpp:137] Memory required for data: 282799168
I1201 16:59:15.364760 31460 layer_factory.hpp:77] Creating layer conv4_1/x2/bn
I1201 16:59:15.364776 31460 net.cpp:84] Creating Layer conv4_1/x2/bn
I1201 16:59:15.364784 31460 net.cpp:406] conv4_1/x2/bn <- conv4_1/x1
I1201 16:59:15.364794 31460 net.cpp:380] conv4_1/x2/bn -> conv4_1/x2/bn
I1201 16:59:15.365370 31460 net.cpp:122] Setting up conv4_1/x2/bn
I1201 16:59:15.365382 31460 net.cpp:129] Top shape: 1 128 8 31 (31744)
I1201 16:59:15.365386 31460 net.cpp:137] Memory required for data: 282926144
I1201 16:59:15.365397 31460 layer_factory.hpp:77] Creating layer conv4_1/x2/scale
I1201 16:59:15.365407 31460 net.cpp:84] Creating Layer conv4_1/x2/scale
I1201 16:59:15.365412 31460 net.cpp:406] conv4_1/x2/scale <- conv4_1/x2/bn
I1201 16:59:15.365422 31460 net.cpp:367] conv4_1/x2/scale -> conv4_1/x2/bn (in-place)
I1201 16:59:15.365521 31460 layer_factory.hpp:77] Creating layer conv4_1/x2/scale
I1201 16:59:15.365873 31460 net.cpp:122] Setting up conv4_1/x2/scale
I1201 16:59:15.365885 31460 net.cpp:129] Top shape: 1 128 8 31 (31744)
I1201 16:59:15.365888 31460 net.cpp:137] Memory required for data: 283053120
I1201 16:59:15.365895 31460 layer_factory.hpp:77] Creating layer relu4_1/x2
I1201 16:59:15.365903 31460 net.cpp:84] Creating Layer relu4_1/x2
I1201 16:59:15.365908 31460 net.cpp:406] relu4_1/x2 <- conv4_1/x2/bn
I1201 16:59:15.365916 31460 net.cpp:367] relu4_1/x2 -> conv4_1/x2/bn (in-place)
I1201 16:59:15.366636 31460 net.cpp:122] Setting up relu4_1/x2
I1201 16:59:15.366657 31460 net.cpp:129] Top shape: 1 128 8 31 (31744)
I1201 16:59:15.366662 31460 net.cpp:137] Memory required for data: 283180096
I1201 16:59:15.366668 31460 layer_factory.hpp:77] Creating layer conv4_1/x2
I1201 16:59:15.366685 31460 net.cpp:84] Creating Layer conv4_1/x2
I1201 16:59:15.366693 31460 net.cpp:406] conv4_1/x2 <- conv4_1/x2/bn
I1201 16:59:15.366703 31460 net.cpp:380] conv4_1/x2 -> conv4_1/x2
I1201 16:59:15.370501 31460 net.cpp:122] Setting up conv4_1/x2
I1201 16:59:15.370533 31460 net.cpp:129] Top shape: 1 32 8 31 (7936)
I1201 16:59:15.370538 31460 net.cpp:137] Memory required for data: 283211840
I1201 16:59:15.370550 31460 layer_factory.hpp:77] Creating layer concat_4_1
I1201 16:59:15.370563 31460 net.cpp:84] Creating Layer concat_4_1
I1201 16:59:15.370570 31460 net.cpp:406] concat_4_1 <- pool3_pool3_0_split_1
I1201 16:59:15.370579 31460 net.cpp:406] concat_4_1 <- conv4_1/x2
I1201 16:59:15.370587 31460 net.cpp:380] concat_4_1 -> concat_4_1
I1201 16:59:15.370653 31460 net.cpp:122] Setting up concat_4_1
I1201 16:59:15.370661 31460 net.cpp:129] Top shape: 1 288 8 31 (71424)
I1201 16:59:15.370666 31460 net.cpp:137] Memory required for data: 283497536
I1201 16:59:15.370669 31460 layer_factory.hpp:77] Creating layer concat_4_1_concat_4_1_0_split
I1201 16:59:15.370676 31460 net.cpp:84] Creating Layer concat_4_1_concat_4_1_0_split
I1201 16:59:15.370682 31460 net.cpp:406] concat_4_1_concat_4_1_0_split <- concat_4_1
I1201 16:59:15.370688 31460 net.cpp:380] concat_4_1_concat_4_1_0_split -> concat_4_1_concat_4_1_0_split_0
I1201 16:59:15.370697 31460 net.cpp:380] concat_4_1_concat_4_1_0_split -> concat_4_1_concat_4_1_0_split_1
I1201 16:59:15.370791 31460 net.cpp:122] Setting up concat_4_1_concat_4_1_0_split
I1201 16:59:15.370800 31460 net.cpp:129] Top shape: 1 288 8 31 (71424)
I1201 16:59:15.370805 31460 net.cpp:129] Top shape: 1 288 8 31 (71424)
I1201 16:59:15.370810 31460 net.cpp:137] Memory required for data: 284068928
I1201 16:59:15.370813 31460 layer_factory.hpp:77] Creating layer conv4_2/x1/bn
I1201 16:59:15.370820 31460 net.cpp:84] Creating Layer conv4_2/x1/bn
I1201 16:59:15.370826 31460 net.cpp:406] conv4_2/x1/bn <- concat_4_1_concat_4_1_0_split_0
I1201 16:59:15.370832 31460 net.cpp:380] conv4_2/x1/bn -> conv4_2/x1/bn
I1201 16:59:15.371454 31460 net.cpp:122] Setting up conv4_2/x1/bn
I1201 16:59:15.371462 31460 net.cpp:129] Top shape: 1 288 8 31 (71424)
I1201 16:59:15.371466 31460 net.cpp:137] Memory required for data: 284354624
I1201 16:59:15.371477 31460 layer_factory.hpp:77] Creating layer conv4_2/x1/scale
I1201 16:59:15.371487 31460 net.cpp:84] Creating Layer conv4_2/x1/scale
I1201 16:59:15.371492 31460 net.cpp:406] conv4_2/x1/scale <- conv4_2/x1/bn
I1201 16:59:15.371498 31460 net.cpp:367] conv4_2/x1/scale -> conv4_2/x1/bn (in-place)
I1201 16:59:15.371600 31460 layer_factory.hpp:77] Creating layer conv4_2/x1/scale
I1201 16:59:15.371932 31460 net.cpp:122] Setting up conv4_2/x1/scale
I1201 16:59:15.371942 31460 net.cpp:129] Top shape: 1 288 8 31 (71424)
I1201 16:59:15.371945 31460 net.cpp:137] Memory required for data: 284640320
I1201 16:59:15.371953 31460 layer_factory.hpp:77] Creating layer relu4_2/x1
I1201 16:59:15.371960 31460 net.cpp:84] Creating Layer relu4_2/x1
I1201 16:59:15.371965 31460 net.cpp:406] relu4_2/x1 <- conv4_2/x1/bn
I1201 16:59:15.371970 31460 net.cpp:367] relu4_2/x1 -> conv4_2/x1/bn (in-place)
I1201 16:59:15.372261 31460 net.cpp:122] Setting up relu4_2/x1
I1201 16:59:15.372272 31460 net.cpp:129] Top shape: 1 288 8 31 (71424)
I1201 16:59:15.372277 31460 net.cpp:137] Memory required for data: 284926016
I1201 16:59:15.372280 31460 layer_factory.hpp:77] Creating layer conv4_2/x1
I1201 16:59:15.372297 31460 net.cpp:84] Creating Layer conv4_2/x1
I1201 16:59:15.372301 31460 net.cpp:406] conv4_2/x1 <- conv4_2/x1/bn
I1201 16:59:15.372309 31460 net.cpp:380] conv4_2/x1 -> conv4_2/x1
I1201 16:59:15.385232 31460 net.cpp:122] Setting up conv4_2/x1
I1201 16:59:15.385268 31460 net.cpp:129] Top shape: 1 128 8 31 (31744)
I1201 16:59:15.385273 31460 net.cpp:137] Memory required for data: 285052992
I1201 16:59:15.385284 31460 layer_factory.hpp:77] Creating layer conv4_2/x2/bn
I1201 16:59:15.385299 31460 net.cpp:84] Creating Layer conv4_2/x2/bn
I1201 16:59:15.385306 31460 net.cpp:406] conv4_2/x2/bn <- conv4_2/x1
I1201 16:59:15.385315 31460 net.cpp:380] conv4_2/x2/bn -> conv4_2/x2/bn
I1201 16:59:15.385903 31460 net.cpp:122] Setting up conv4_2/x2/bn
I1201 16:59:15.385913 31460 net.cpp:129] Top shape: 1 128 8 31 (31744)
I1201 16:59:15.385917 31460 net.cpp:137] Memory required for data: 285179968
I1201 16:59:15.385927 31460 layer_factory.hpp:77] Creating layer conv4_2/x2/scale
I1201 16:59:15.385939 31460 net.cpp:84] Creating Layer conv4_2/x2/scale
I1201 16:59:15.385944 31460 net.cpp:406] conv4_2/x2/scale <- conv4_2/x2/bn
I1201 16:59:15.385951 31460 net.cpp:367] conv4_2/x2/scale -> conv4_2/x2/bn (in-place)
I1201 16:59:15.386050 31460 layer_factory.hpp:77] Creating layer conv4_2/x2/scale
I1201 16:59:15.386348 31460 net.cpp:122] Setting up conv4_2/x2/scale
I1201 16:59:15.386356 31460 net.cpp:129] Top shape: 1 128 8 31 (31744)
I1201 16:59:15.386360 31460 net.cpp:137] Memory required for data: 285306944
I1201 16:59:15.386384 31460 layer_factory.hpp:77] Creating layer relu4_2/x2
I1201 16:59:15.386392 31460 net.cpp:84] Creating Layer relu4_2/x2
I1201 16:59:15.386396 31460 net.cpp:406] relu4_2/x2 <- conv4_2/x2/bn
I1201 16:59:15.386402 31460 net.cpp:367] relu4_2/x2 -> conv4_2/x2/bn (in-place)
I1201 16:59:15.386961 31460 net.cpp:122] Setting up relu4_2/x2
I1201 16:59:15.386976 31460 net.cpp:129] Top shape: 1 128 8 31 (31744)
I1201 16:59:15.386981 31460 net.cpp:137] Memory required for data: 285433920
I1201 16:59:15.386986 31460 layer_factory.hpp:77] Creating layer conv4_2/x2
I1201 16:59:15.386999 31460 net.cpp:84] Creating Layer conv4_2/x2
…
I1201 16:59:23.131731 31460 net.cpp:129] Top shape: 1 32 4 8 (1024)
I1201 16:59:23.131736 31460 net.cpp:137] Memory required for data: 179867272
I1201 16:59:23.131745 31460 layer_factory.hpp:77] Creating layer concat_5_8
I1201 16:59:23.131763 31460 net.cpp:84] Creating Layer concat_5_8
I1201 16:59:23.131772 31460 net.cpp:406] concat_5_8 <- concat_5_7_concat_5_7_0_split_1
I1201 16:59:23.131780 31460 net.cpp:406] concat_5_8 <- conv5_8/x2
I1201 16:59:23.131786 31460 net.cpp:380] concat_5_8 -> concat_5_8
I1201 16:59:23.131845 31460 net.cpp:122] Setting up concat_5_8
I1201 16:59:23.131855 31460 net.cpp:129] Top shape: 1 768 4 8 (24576)
I1201 16:59:23.131858 31460 net.cpp:137] Memory required for data: 179965576
I1201 16:59:23.131862 31460 layer_factory.hpp:77] Creating layer concat_5_8_concat_5_8_0_split
I1201 16:59:23.131870 31460 net.cpp:84] Creating Layer concat_5_8_concat_5_8_0_split
I1201 16:59:23.131875 31460 net.cpp:406] concat_5_8_concat_5_8_0_split <- concat_5_8
I1201 16:59:23.131881 31460 net.cpp:380] concat_5_8_concat_5_8_0_split -> concat_5_8_concat_5_8_0_split_0
I1201 16:59:23.131888 31460 net.cpp:380] concat_5_8_concat_5_8_0_split -> concat_5_8_concat_5_8_0_split_1
I1201 16:59:23.131966 31460 net.cpp:122] Setting up concat_5_8_concat_5_8_0_split
I1201 16:59:23.131973 31460 net.cpp:129] Top shape: 1 768 4 8 (24576)
I1201 16:59:23.131979 31460 net.cpp:129] Top shape: 1 768 4 8 (24576)
I1201 16:59:23.131983 31460 net.cpp:137] Memory required for data: 180162184
I1201 16:59:23.131986 31460 layer_factory.hpp:77] Creating layer conv5_9/x1/bn
I1201 16:59:23.131994 31460 net.cpp:84] Creating Layer conv5_9/x1/bn
I1201 16:59:23.131999 31460 net.cpp:406] conv5_9/x1/bn <- concat_5_8_concat_5_8_0_split_0
I1201 16:59:23.132005 31460 net.cpp:380] conv5_9/x1/bn -> conv5_9/x1/bn
I1201 16:59:23.132531 31460 net.cpp:122] Setting up conv5_9/x1/bn
I1201 16:59:23.132540 31460 net.cpp:129] Top shape: 1 768 4 8 (24576)
I1201 16:59:23.132544 31460 net.cpp:137] Memory required for data: 180260488
I1201 16:59:23.132555 31460 layer_factory.hpp:77] Creating layer conv5_9/x1/scale
I1201 16:59:23.132565 31460 net.cpp:84] Creating Layer conv5_9/x1/scale
I1201 16:59:23.132568 31460 net.cpp:406] conv5_9/x1/scale <- conv5_9/x1/bn
I1201 16:59:23.132575 31460 net.cpp:367] conv5_9/x1/scale -> conv5_9/x1/bn (in-place)
I1201 16:59:23.132666 31460 layer_factory.hpp:77] Creating layer conv5_9/x1/scale
I1201 16:59:23.132937 31460 net.cpp:122] Setting up conv5_9/x1/scale
I1201 16:59:23.132946 31460 net.cpp:129] Top shape: 1 768 4 8 (24576)
I1201 16:59:23.132949 31460 net.cpp:137] Memory required for data: 180358792
I1201 16:59:23.132957 31460 layer_factory.hpp:77] Creating layer relu5_9/x1
I1201 16:59:23.132964 31460 net.cpp:84] Creating Layer relu5_9/x1
I1201 16:59:23.132968 31460 net.cpp:406] relu5_9/x1 <- conv5_9/x1/bn
I1201 16:59:23.132974 31460 net.cpp:367] relu5_9/x1 -> conv5_9/x1/bn (in-place)
I1201 16:59:23.133544 31460 net.cpp:122] Setting up relu5_9/x1
I1201 16:59:23.133556 31460 net.cpp:129] Top shape: 1 768 4 8 (24576)
I1201 16:59:23.133560 31460 net.cpp:137] Memory required for data: 180457096
I1201 16:59:23.133565 31460 layer_factory.hpp:77] Creating layer conv5_9/x1
I1201 16:59:23.133579 31460 net.cpp:84] Creating Layer conv5_9/x1
I1201 16:59:23.133584 31460 net.cpp:406] conv5_9/x1 <- conv5_9/x1/bn
I1201 16:59:23.133592 31460 net.cpp:380] conv5_9/x1 -> conv5_9/x1
I1201 16:59:23.139040 31460 net.cpp:122] Setting up conv5_9/x1
I1201 16:59:23.139058 31460 net.cpp:129] Top shape: 1 128 4 8 (4096)
I1201 16:59:23.139062 31460 net.cpp:137] Memory required for data: 180473480
I1201 16:59:23.139070 31460 layer_factory.hpp:77] Creating layer conv5_9/x2/bn
I1201 16:59:23.139081 31460 net.cpp:84] Creating Layer conv5_9/x2/bn
I1201 16:59:23.139086 31460 net.cpp:406] conv5_9/x2/bn <- conv5_9/x1
I1201 16:59:23.139092 31460 net.cpp:380] conv5_9/x2/bn -> conv5_9/x2/bn
I1201 16:59:23.139547 31460 net.cpp:122] Setting up conv5_9/x2/bn
I1201 16:59:23.139556 31460 net.cpp:129] Top shape: 1 128 4 8 (4096)
I1201 16:59:23.139561 31460 net.cpp:137] Memory required for data: 180489864
I1201 16:59:23.139571 31460 layer_factory.hpp:77] Creating layer conv5_9/x2/scale
I1201 16:59:23.139578 31460 net.cpp:84] Creating Layer conv5_9/x2/scale
I1201 16:59:23.139583 31460 net.cpp:406] conv5_9/x2/scale <- conv5_9/x2/bn
I1201 16:59:23.139590 31460 net.cpp:367] conv5_9/x2/scale -> conv5_9/x2/bn (in-place)
I1201 16:59:23.139667 31460 layer_factory.hpp:77] Creating layer conv5_9/x2/scale
I1201 16:59:23.139909 31460 net.cpp:122] Setting up conv5_9/x2/scale
I1201 16:59:23.139917 31460 net.cpp:129] Top shape: 1 128 4 8 (4096)
I1201 16:59:23.139921 31460 net.cpp:137] Memory required for data: 180506248
I1201 16:59:23.139928 31460 layer_factory.hpp:77] Creating layer relu5_9/x2
I1201 16:59:23.139935 31460 net.cpp:84] Creating Layer relu5_9/x2
I1201 16:59:23.139940 31460 net.cpp:406] relu5_9/x2 <- conv5_9/x2/bn
I1201 16:59:23.139950 31460 net.cpp:367] relu5_9/x2 -> conv5_9/x2/bn (in-place)
I1201 16:59:23.140208 31460 net.cpp:122] Setting up relu5_9/x2
I1201 16:59:23.140218 31460 net.cpp:129] Top shape: 1 128 4 8 (4096)
I1201 16:59:23.140221 31460 net.cpp:137] Memory required for data: 180522632
I1201 16:59:23.140225 31460 layer_factory.hpp:77] Creating layer conv5_9/x2
I1201 16:59:23.140238 31460 net.cpp:84] Creating Layer conv5_9/x2
I1201 16:59:23.140242 31460 net.cpp:406] conv5_9/x2 <- conv5_9/x2/bn
I1201 16:59:23.140250 31460 net.cpp:380] conv5_9/x2 -> conv5_9/x2
I1201 16:59:23.143677 31460 net.cpp:122] Setting up conv5_9/x2
I1201 16:59:23.143692 31460 net.cpp:129] Top shape: 1 32 4 8 (1024)
I1201 16:59:23.143697 31460 net.cpp:137] Memory required for data: 180526728
I1201 16:59:23.143704 31460 layer_factory.hpp:77] Creating layer concat_5_9
I1201 16:59:23.143712 31460 net.cpp:84] Creating Layer concat_5_9
I1201 16:59:23.143719 31460 net.cpp:406] concat_5_9 <- concat_5_8_concat_5_8_0_split_1
I1201 16:59:23.143726 31460 net.cpp:406] concat_5_9 <- conv5_9/x2
I1201 16:59:23.143733 31460 net.cpp:380] concat_5_9 -> concat_5_9
I1201 16:59:23.143793 31460 net.cpp:122] Setting up concat_5_9
I1201 16:59:23.143802 31460 net.cpp:129] Top shape: 1 800 4 8 (25600)
I1201 16:59:23.143806 31460 net.cpp:137] Memory required for data: 180629128
I1201 16:59:23.143810 31460 layer_factory.hpp:77] Creating layer concat_5_9_concat_5_9_0_split
I1201 16:59:23.143817 31460 net.cpp:84] Creating Layer concat_5_9_concat_5_9_0_split
I1201 16:59:23.143821 31460 net.cpp:406] concat_5_9_concat_5_9_0_split <- concat_5_9
I1201 16:59:23.143831 31460 net.cpp:380] concat_5_9_concat_5_9_0_split -> concat_5_9_concat_5_9_0_split_0
I1201 16:59:23.143837 31460 net.cpp:380] concat_5_9_concat_5_9_0_split -> concat_5_9_concat_5_9_0_split_1
I1201 16:59:23.143913 31460 net.cpp:122] Setting up concat_5_9_concat_5_9_0_split
I1201 16:59:23.143921 31460 net.cpp:129] Top shape: 1 800 4 8 (25600)
I1201 16:59:23.143926 31460 net.cpp:129] Top shape: 1 800 4 8 (25600)
I1201 16:59:23.143930 31460 net.cpp:137] Memory required for data: 180833928
I1201 16:59:23.143934 31460 layer_factory.hpp:77] Creating layer conv5_10/x1/bn
I1201 16:59:23.143941 31460 net.cpp:84] Creating Layer conv5_10/x1/bn
I1201 16:59:23.143947 31460 net.cpp:406] conv5_10/x1/bn <- concat_5_9_concat_5_9_0_split_0
I1201 16:59:23.143954 31460 net.cpp:380] conv5_10/x1/bn -> conv5_10/x1/bn
I1201 16:59:23.144472 31460 net.cpp:122] Setting up conv5_10/x1/bn
I1201 16:59:23.144482 31460 net.cpp:129] Top shape: 1 800 4 8 (25600)
I1201 16:59:23.144486 31460 net.cpp:137] Memory required for data: 180936328
I1201 16:59:23.144497 31460 layer_factory.hpp:77] Creating layer conv5_10/x1/scale
I1201 16:59:23.144505 31460 net.cpp:84] Creating Layer conv5_10/x1/scale
I1201 16:59:23.144510 31460 net.cpp:406] conv5_10/x1/scale <- conv5_10/x1/bn
I1201 16:59:23.144515 31460 net.cpp:367] conv5_10/x1/scale -> conv5_10/x1/bn (in-place)
I1201 16:59:23.144619 31460 layer_factory.hpp:77] Creating layer conv5_10/x1/scale
I1201 16:59:23.144909 31460 net.cpp:122] Setting up conv5_10/x1/scale
I1201 16:59:23.144918 31460 net.cpp:129] Top shape: 1 800 4 8 (25600)
I1201 16:59:23.144922 31460 net.cpp:137] Memory required for data: 181038728
I1201 16:59:23.144929 31460 layer_factory.hpp:77] Creating layer relu5_10/x1
I1201 16:59:23.144937 31460 net.cpp:84] Creating Layer relu5_10/x1
I1201 16:59:23.144942 31460 net.cpp:406] relu5_10/x1 <- conv5_10/x1/bn
I1201 16:59:23.144948 31460 net.cpp:367] relu5_10/x1 -> conv5_10/x1/bn (in-place)
I1201 16:59:23.145501 31460 net.cpp:122] Setting up relu5_10/x1
I1201 16:59:23.145514 31460 net.cpp:129] Top shape: 1 800 4 8 (25600)
I1201 16:59:23.145519 31460 net.cpp:137] Memory required for data: 181141128
I1201 16:59:23.145522 31460 layer_factory.hpp:77] Creating layer conv5_10/x1
I1201 16:59:23.145535 31460 net.cpp:84] Creating Layer conv5_10/x1
I1201 16:59:23.145540 31460 net.cpp:406] conv5_10/x1 <- conv5_10/x1/bn
I1201 16:59:23.145547 31460 net.cpp:380] conv5_10/x1 -> conv5_10/x1
I1201 16:59:23.152482 31460 net.cpp:122] Setting up conv5_10/x1
I1201 16:59:23.152513 31460 net.cpp:129] Top shape: 1 128 4 8 (4096)
I1201 16:59:23.152518 31460 net.cpp:137] Memory required for data: 181157512
I1201 16:59:23.152528 31460 layer_factory.hpp:77] Creating layer conv5_10/x2/bn
I1201 16:59:23.152540 31460 net.cpp:84] Creating Layer conv5_10/x2/bn
I1201 16:59:23.152547 31460 net.cpp:406] conv5_10/x2/bn <- conv5_10/x1
I1201 16:59:23.152556 31460 net.cpp:380] conv5_10/x2/bn -> conv5_10/x2/bn
I1201 16:59:23.153081 31460 net.cpp:122] Setting up conv5_10/x2/bn
I1201 16:59:23.153090 31460 net.cpp:129] Top shape: 1 128 4 8 (4096)
I1201 16:59:23.153095 31460 net.cpp:137] Memory required for data: 181173896
I1201 16:59:23.153106 31460 layer_factory.hpp:77] Creating layer conv5_10/x2/scale
I1201 16:59:23.153116 31460 net.cpp:84] Creating Layer conv5_10/x2/scale
I1201 16:59:23.153121 31460 net.cpp:406] conv5_10/x2/scale <- conv5_10/x2/bn
I1201 16:59:23.153127 31460 net.cpp:367] conv5_10/x2/scale -> conv5_10/x2/bn (in-place)
I1201 16:59:23.153216 31460 layer_factory.hpp:77] Creating layer conv5_10/x2/scale
I1201 16:59:23.153482 31460 net.cpp:122] Setting up conv5_10/x2/scale
I1201 16:59:23.153491 31460 net.cpp:129] Top shape: 1 128 4 8 (4096)
I1201 16:59:23.153496 31460 net.cpp:137] Memory required for data: 181190280
I1201 16:59:23.153503 31460 layer_factory.hpp:77] Creating layer relu5_10/x2
I1201 16:59:23.153511 31460 net.cpp:84] Creating Layer relu5_10/x2
I1201 16:59:23.153515 31460 net.cpp:406] relu5_10/x2 <- conv5_10/x2/bn
I1201 16:59:23.153522 31460 net.cpp:367] relu5_10/x2 -> conv5_10/x2/bn (in-place)
I1201 16:59:23.154098 31460 net.cpp:122] Setting up relu5_10/x2
I1201 16:59:23.154110 31460 net.cpp:129] Top shape: 1 128 4 8 (4096)
I1201 16:59:23.154115 31460 net.cpp:137] Memory required for data: 181206664
I1201 16:59:23.154119 31460 layer_factory.hpp:77] Creating layer conv5_10/x2
I1201 16:59:23.154134 31460 net.cpp:84] Creating Layer conv5_10/x2
I1201 16:59:23.154140 31460 net.cpp:406] conv5_10/x2 <- conv5_10/x2/bn
I1201 16:59:23.154148 31460 net.cpp:380] conv5_10/x2 -> conv5_10/x2
I1201 16:59:23.170315 31460 net.cpp:122] Setting up conv5_10/x2
I1201 16:59:23.170349 31460 net.cpp:129] Top shape: 1 32 4 8 (1024)
I1201 16:59:23.170354 31460 net.cpp:137] Memory required for data: 181210760
I1201 16:59:23.170366 31460 layer_factory.hpp:77] Creating layer concat_5_10
I1201 16:59:23.170380 31460 net.cpp:84] Creating Layer concat_5_10
I1201 16:59:23.170388 31460 net.cpp:406] concat_5_10 <- concat_5_9_concat_5_9_0_split_1
I1201 16:59:23.170397 31460 net.cpp:406] concat_5_10 <- conv5_10/x2
I1201 16:59:23.170404 31460 net.cpp:380] concat_5_10 -> concat_5_10
I1201 16:59:23.170464 31460 net.cpp:122] Setting up concat_5_10
I1201 16:59:23.170473 31460 net.cpp:129] Top shape: 1 832 4 8 (26624)
I1201 16:59:23.170477 31460 net.cpp:137] Memory required for data: 181317256
I1201 16:59:23.170481 31460 layer_factory.hpp:77] Creating layer concat_5_10_concat_5_10_0_split
I1201 16:59:23.170488 31460 net.cpp:84] Creating Layer concat_5_10_concat_5_10_0_split
I1201 16:59:23.170497 31460 net.cpp:406] concat_5_10_concat_5_10_0_split <- concat_5_10
I1201 16:59:23.170503 31460 net.cpp:380] concat_5_10_concat_5_10_0_split -> concat_5_10_concat_5_10_0_split_0
I1201 16:59:23.170511 31460 net.cpp:380] concat_5_10_concat_5_10_0_split -> concat_5_10_concat_5_10_0_split_1
I1201 16:59:23.170589 31460 net.cpp:122] Setting up concat_5_10_concat_5_10_0_split
I1201 16:59:23.170598 31460 net.cpp:129] Top shape: 1 832 4 8 (26624)
I1201 16:59:23.170603 31460 net.cpp:129] Top shape: 1 832 4 8 (26624)
I1201 16:59:23.170605 31460 net.cpp:137] Memory required for data: 181530248
I1201 16:59:23.170609 31460 layer_factory.hpp:77] Creating layer conv5_11/x1/bn
I1201 16:59:23.170619 31460 net.cpp:84] Creating Layer conv5_11/x1/bn
I1201 16:59:23.170622 31460 net.cpp:406] conv5_11/x1/bn <- concat_5_10_concat_5_10_0_split_0
I1201 16:59:23.170629 31460 net.cpp:380] conv5_11/x1/bn -> conv5_11/x1/bn
I1201 16:59:23.171191 31460 net.cpp:122] Setting up conv5_11/x1/bn
I1201 16:59:23.171200 31460 net.cpp:129] Top shape: 1 832 4 8 (26624)
I1201 16:59:23.171205 31460 net.cpp:137] Memory required for data: 181636744
I1201 16:59:23.171214 31460 layer_factory.hpp:77] Creating layer conv5_11/x1/scale
I1201 16:59:23.171223 31460 net.cpp:84] Creating Layer conv5_11/x1/scale
I1201 16:59:23.171228 31460 net.cpp:406] conv5_11/x1/scale <- conv5_11/x1/bn
I1201 16:59:23.171234 31460 net.cpp:367] conv5_11/x1/scale -> conv5_11/x1/bn (in-place)
I1201 16:59:23.171339 31460 layer_factory.hpp:77] Creating layer conv5_11/x1/scale
I1201 16:59:23.171633 31460 net.cpp:122] Setting up conv5_11/x1/scale
I1201 16:59:23.171643 31460 net.cpp:129] Top shape: 1 832 4 8 (26624)
I1201 16:59:23.171646 31460 net.cpp:137] Memory required for data: 181743240
I1201 16:59:23.171653 31460 layer_factory.hpp:77] Creating layer relu5_11/x1
I1201 16:59:23.171661 31460 net.cpp:84] Creating Layer relu5_11/x1
I1201 16:59:23.171665 31460 net.cpp:406] relu5_11/x1 <- conv5_11/x1/bn
I1201 16:59:23.171671 31460 net.cpp:367] relu5_11/x1 -> conv5_11/x1/bn (in-place)
I1201 16:59:23.179996 31460 net.cpp:122] Setting up relu5_11/x1
I1201 16:59:23.180011 31460 net.cpp:129] Top shape: 1 832 4 8 (26624)
I1201 16:59:23.180016 31460 net.cpp:137] Memory required for data: 181849736
I1201 16:59:23.180019 31460 layer_factory.hpp:77] Creating layer conv5_11/x1
I1201 16:59:23.180033 31460 net.cpp:84] Creating Layer conv5_11/x1
I1201 16:59:23.180038 31460 net.cpp:406] conv5_11/x1 <- conv5_11/x1/bn
I1201 16:59:23.180047 31460 net.cpp:380] conv5_11/x1 -> conv5_11/x1
I1201 16:59:23.186080 31460 net.cpp:122] Setting up conv5_11/x1
I1201 16:59:23.186101 31460 net.cpp:129] Top shape: 1 128 4 8 (4096)
I1201 16:59:23.186105 31460 net.cpp:137] Memory required for data: 181866120
I1201 16:59:23.186113 31460 layer_factory.hpp:77] Creating layer conv5_11/x2/bn
I1201 16:59:23.186122 31460 net.cpp:84] Creating Layer conv5_11/x2/bn
I1201 16:59:23.186128 31460 net.cpp:406] conv5_11/x2/bn <- conv5_11/x1
I1201 16:59:23.186136 31460 net.cpp:380] conv5_11/x2/bn -> conv5_11/x2/bn
I1201 16:59:23.186595 31460 net.cpp:122] Setting up conv5_11/x2/bn
I1201 16:59:23.186605 31460 net.cpp:129] Top shape: 1 128 4 8 (4096)
I1201 16:59:23.186609 31460 net.cpp:137] Memory required for data: 181882504
I1201 16:59:23.186619 31460 layer_factory.hpp:77] Creating layer conv5_11/x2/scale
I1201 16:59:23.186626 31460 net.cpp:84] Creating Layer conv5_11/x2/scale
I1201 16:59:23.186631 31460 net.cpp:406] conv5_11/x2/scale <- conv5_11/x2/bn
I1201 16:59:23.186640 31460 net.cpp:367] conv5_11/x2/scale -> conv5_11/x2/bn (in-place)
I1201 16:59:23.186722 31460 layer_factory.hpp:77] Creating layer conv5_11/x2/scale
I1201 16:59:23.186955 31460 net.cpp:122] Setting up conv5_11/x2/scale
I1201 16:59:23.186964 31460 net.cpp:129] Top shape: 1 128 4 8 (4096)
I1201 16:59:23.186969 31460 net.cpp:137] Memory required for data: 181898888
I1201 16:59:23.186975 31460 layer_factory.hpp:77] Creating layer relu5_11/x2
I1201 16:59:23.186982 31460 net.cpp:84] Creating Layer relu5_11/x2
I1201 16:59:23.186987 31460 net.cpp:406] relu5_11/x2 <- conv5_11/x2/bn
I1201 16:59:23.186997 31460 net.cpp:367] relu5_11/x2 -> conv5_11/x2/bn (in-place)
I1201 16:59:23.187546 31460 net.cpp:122] Setting up relu5_11/x2
I1201 16:59:23.187557 31460 net.cpp:129] Top shape: 1 128 4 8 (4096)
I1201 16:59:23.187561 31460 net.cpp:137] Memory required for data: 181915272
I1201 16:59:23.187566 31460 layer_factory.hpp:77] Creating layer conv5_11/x2
I1201 16:59:23.187578 31460 net.cpp:84] Creating Layer conv5_11/x2
I1201 16:59:23.187583 31460 net.cpp:406] conv5_11/x2 <- conv5_11/x2/bn
I1201 16:59:23.187592 31460 net.cpp:380] conv5_11/x2 -> conv5_11/x2
I1201 16:59:23.198261 31460 net.cpp:122] Setting up conv5_11/x2
I1201 16:59:23.198278 31460 net.cpp:129] Top shape: 1 32 4 8 (1024)
I1201 16:59:23.198284 31460 net.cpp:137] Memory required for data: 181919368
I1201 16:59:23.198292 31460 layer_factory.hpp:77] Creating layer concat_5_11
I1201 16:59:23.198299 31460 net.cpp:84] Creating Layer concat_5_11
I1201 16:59:23.198307 31460 net.cpp:406] concat_5_11 <- concat_5_10_concat_5_10_0_split_1
I1201 16:59:23.198312 31460 net.cpp:406] concat_5_11 <- conv5_11/x2
I1201 16:59:23.198319 31460 net.cpp:380] concat_5_11 -> concat_5_11
I1201 16:59:23.198379 31460 net.cpp:122] Setting up concat_5_11
I1201 16:59:23.198387 31460 net.cpp:129] Top shape: 1 864 4 8 (27648)
I1201 16:59:23.198391 31460 net.cpp:137] Memory required for data: 182029960
I1201 16:59:23.198396 31460 layer_factory.hpp:77] Creating layer concat_5_11_concat_5_11_0_split
I1201 16:59:23.198403 31460 net.cpp:84] Creating Layer concat_5_11_concat_5_11_0_split
I1201 16:59:23.198407 31460 net.cpp:406] concat_5_11_concat_5_11_0_split <- concat_5_11
I1201 16:59:23.198413 31460 net.cpp:380] concat_5_11_concat_5_11_0_split -> concat_5_11_concat_5_11_0_split_0
I1201 16:59:23.198421 31460 net.cpp:380] concat_5_11_concat_5_11_0_split -> concat_5_11_concat_5_11_0_split_1
I1201 16:59:23.198506 31460 net.cpp:122] Setting up concat_5_11_concat_5_11_0_split
I1201 16:59:23.198515 31460 net.cpp:129] Top shape: 1 864 4 8 (27648)
I1201 16:59:23.198521 31460 net.cpp:129] Top shape: 1 864 4 8 (27648)
I1201 16:59:23.198525 31460 net.cpp:137] Memory required for data: 182251144
I1201 16:59:23.198529 31460 layer_factory.hpp:77] Creating layer conv5_12/x1/bn
I1201 16:59:23.198536 31460 net.cpp:84] Creating Layer conv5_12/x1/bn
I1201 16:59:23.198541 31460 net.cpp:406] conv5_12/x1/bn <- concat_5_11_concat_5_11_0_split_0
I1201 16:59:23.198547 31460 net.cpp:380] conv5_12/x1/bn -> conv5_12/x1/bn
I1201 16:59:23.199149 31460 net.cpp:122] Setting up conv5_12/x1/bn
I1201 16:59:23.199158 31460 net.cpp:129] Top shape: 1 864 4 8 (27648)
I1201 16:59:23.199163 31460 net.cpp:137] Memory required for data: 182361736
I1201 16:59:23.199173 31460 layer_factory.hpp:77] Creating layer conv5_12/x1/scale
I1201 16:59:23.199182 31460 net.cpp:84] Creating Layer conv5_12/x1/scale
I1201 16:59:23.199187 31460 net.cpp:406] conv5_12/x1/scale <- conv5_12/x1/bn
I1201 16:59:23.199195 31460 net.cpp:367] conv5_12/x1/scale -> conv5_12/x1/bn (in-place)
I1201 16:59:23.199304 31460 layer_factory.hpp:77] Creating layer conv5_12/x1/scale
I1201 16:59:23.199616 31460 net.cpp:122] Setting up conv5_12/x1/scale
I1201 16:59:23.199626 31460 net.cpp:129] Top shape: 1 864 4 8 (27648)
I1201 16:59:23.199630 31460 net.cpp:137] Memory required for data: 182472328
I1201 16:59:23.199637 31460 layer_factory.hpp:77] Creating layer relu5_12/x1
I1201 16:59:23.199645 31460 net.cpp:84] Creating Layer relu5_12/x1
I1201 16:59:23.199650 31460 net.cpp:406] relu5_12/x1 <- conv5_12/x1/bn
I1201 16:59:23.199656 31460 net.cpp:367] relu5_12/x1 -> conv5_12/x1/bn (in-place)
I1201 16:59:23.199961 31460 net.cpp:122] Setting up relu5_12/x1
I1201 16:59:23.199972 31460 net.cpp:129] Top shape: 1 864 4 8 (27648)
I1201 16:59:23.199977 31460 net.cpp:137] Memory required for data: 182582920
I1201 16:59:23.199981 31460 layer_factory.hpp:77] Creating layer conv5_12/x1
I1201 16:59:23.199997 31460 net.cpp:84] Creating Layer conv5_12/x1
I1201 16:59:23.200002 31460 net.cpp:406] conv5_12/x1 <- conv5_12/x1/bn
I1201 16:59:23.200009 31460 net.cpp:380] conv5_12/x1 -> conv5_12/x1
I1201 16:59:23.207465 31460 net.cpp:122] Setting up conv5_12/x1
I1201 16:59:23.207501 31460 net.cpp:129] Top shape: 1 128 4 8 (4096)
I1201 16:59:23.207506 31460 net.cpp:137] Memory required for data: 182599304
I1201 16:59:23.207518 31460 layer_factory.hpp:77] Creating layer conv5_12/x2/bn
I1201 16:59:23.207530 31460 net.cpp:84] Creating Layer conv5_12/x2/bn
I1201 16:59:23.207540 31460 net.cpp:406] conv5_12/x2/bn <- conv5_12/x1
I1201 16:59:23.207551 31460 net.cpp:380] conv5_12/x2/bn -> conv5_12/x2/bn
I1201 16:59:23.208127 31460 net.cpp:122] Setting up conv5_12/x2/bn
I1201 16:59:23.208142 31460 net.cpp:129] Top shape: 1 128 4 8 (4096)
I1201 16:59:23.208145 31460 net.cpp:137] Memory required for data: 182615688
I1201 16:59:23.208158 31460 layer_factory.hpp:77] Creating layer conv5_12/x2/scale
I1201 16:59:23.208168 31460 net.cpp:84] Creating Layer conv5_12/x2/scale
I1201 16:59:23.208173 31460 net.cpp:406] conv5_12/x2/scale <- conv5_12/x2/bn
I1201 16:59:23.208181 31460 net.cpp:367] conv5_12/x2/scale -> conv5_12/x2/bn (in-place)
I1201 16:59:23.208276 31460 layer_factory.hpp:77] Creating layer conv5_12/x2/scale
I1201 16:59:23.208547 31460 net.cpp:122] Setting up conv5_12/x2/scale
I1201 16:59:23.208556 31460 net.cpp:129] Top shape: 1 128 4 8 (4096)
I1201 16:59:23.208560 31460 net.cpp:137] Memory required for data: 182632072
I1201 16:59:23.208569 31460 layer_factory.hpp:77] Creating layer relu5_12/x2
I1201 16:59:23.208576 31460 net.cpp:84] Creating Layer relu5_12/x2
I1201 16:59:23.208580 31460 net.cpp:406] relu5_12/x2 <- conv5_12/x2/bn
I1201 16:59:23.208586 31460 net.cpp:367] relu5_12/x2 -> conv5_12/x2/bn (in-place)
I1201 16:59:23.209441 31460 net.cpp:122] Setting up relu5_12/x2
I1201 16:59:23.209455 31460 net.cpp:129] Top shape: 1 128 4 8 (4096)
I1201 16:59:23.209460 31460 net.cpp:137] Memory required for data: 182648456
I1201 16:59:23.209465 31460 layer_factory.hpp:77] Creating layer conv5_12/x2
I1201 16:59:23.209481 31460 net.cpp:84] Creating Layer conv5_12/x2
I1201 16:59:23.209487 31460 net.cpp:406] conv5_12/x2 <- conv5_12/x2/bn
I1201 16:59:23.209496 31460 net.cpp:380] conv5_12/x2 -> conv5_12/x2
I1201 16:59:23.214004 31460 net.cpp:122] Setting up conv5_12/x2
I1201 16:59:23.214036 31460 net.cpp:129] Top shape: 1 32 4 8 (1024)
I1201 16:59:23.214041 31460 net.cpp:137] Memory required for data: 182652552
I1201 16:59:23.214052 31460 layer_factory.hpp:77] Creating layer concat_5_12
I1201 16:59:23.214064 31460 net.cpp:84] Creating Layer concat_5_12
I1201 16:59:23.214072 31460 net.cpp:406] concat_5_12 <- concat_5_11_concat_5_11_0_split_1
I1201 16:59:23.214082 31460 net.cpp:406] concat_5_12 <- conv5_12/x2
I1201 16:59:23.214088 31460 net.cpp:380] concat_5_12 -> concat_5_12
I1201 16:59:23.214151 31460 net.cpp:122] Setting up concat_5_12
I1201 16:59:23.214159 31460 net.cpp:129] Top shape: 1 896 4 8 (28672)
I1201 16:59:23.214164 31460 net.cpp:137] Memory required for data: 182767240
I1201 16:59:23.214169 31460 layer_factory.hpp:77] Creating layer concat_5_12_concat_5_12_0_split
I1201 16:59:23.214176 31460 net.cpp:84] Creating Layer concat_5_12_concat_5_12_0_split
I1201 16:59:23.214181 31460 net.cpp:406] concat_5_12_concat_5_12_0_split <- concat_5_12
I1201 16:59:23.214187 31460 net.cpp:380] concat_5_12_concat_5_12_0_split -> concat_5_12_concat_5_12_0_split_0
I1201 16:59:23.214195 31460 net.cpp:380] concat_5_12_concat_5_12_0_split -> concat_5_12_concat_5_12_0_split_1
I1201 16:59:23.214282 31460 net.cpp:122] Setting up concat_5_12_concat_5_12_0_split
I1201 16:59:23.214289 31460 net.cpp:129] Top shape: 1 896 4 8 (28672)
I1201 16:59:23.214295 31460 net.cpp:129] Top shape: 1 896 4 8 (28672)
I1201 16:59:23.214298 31460 net.cpp:137] Memory required for data: 182996616
I1201 16:59:23.214303 31460 layer_factory.hpp:77] Creating layer conv5_13/x1/bn
I1201 16:59:23.214313 31460 net.cpp:84] Creating Layer conv5_13/x1/bn
I1201 16:59:23.214316 31460 net.cpp:406] conv5_13/x1/bn <- concat_5_12_concat_5_12_0_split_0
I1201 16:59:23.214323 31460 net.cpp:380] conv5_13/x1/bn -> conv5_13/x1/bn
I1201 16:59:23.214916 31460 net.cpp:122] Setting up conv5_13/x1/bn
I1201 16:59:23.214931 31460 net.cpp:129] Top shape: 1 896 4 8 (28672)
I1201 16:59:23.214934 31460 net.cpp:137] Memory required for data: 183111304
I1201 16:59:23.214946 31460 layer_factory.hpp:77] Creating layer conv5_13/x1/scale
I1201 16:59:23.214956 31460 net.cpp:84] Creating Layer conv5_13/x1/scale
I1201 16:59:23.214960 31460 net.cpp:406] conv5_13/x1/scale <- conv5_13/x1/bn
I1201 16:59:23.214967 31460 net.cpp:367] conv5_13/x1/scale -> conv5_13/x1/bn (in-place)
I1201 16:59:23.215066 31460 layer_factory.hpp:77] Creating layer conv5_13/x1/scale
I1201 16:59:23.215368 31460 net.cpp:122] Setting up conv5_13/x1/scale
I1201 16:59:23.215378 31460 net.cpp:129] Top shape: 1 896 4 8 (28672)
I1201 16:59:23.215381 31460 net.cpp:137] Memory required for data: 183225992
I1201 16:59:23.215389 31460 layer_factory.hpp:77] Creating layer relu5_13/x1
I1201 16:59:23.215397 31460 net.cpp:84] Creating Layer relu5_13/x1
I1201 16:59:23.215402 31460 net.cpp:406] relu5_13/x1 <- conv5_13/x1/bn
I1201 16:59:23.215409 31460 net.cpp:367] relu5_13/x1 -> conv5_13/x1/bn (in-place)
I1201 16:59:23.216089 31460 net.cpp:122] Setting up relu5_13/x1
I1201 16:59:23.216101 31460 net.cpp:129] Top shape: 1 896 4 8 (28672)
I1201 16:59:23.216106 31460 net.cpp:137] Memory required for data: 183340680
I1201 16:59:23.216110 31460 layer_factory.hpp:77] Creating layer conv5_13/x1
I1201 16:59:23.216125 31460 net.cpp:84] Creating Layer conv5_13/x1
I1201 16:59:23.216130 31460 net.cpp:406] conv5_13/x1 <- conv5_13/x1/bn
I1201 16:59:23.216138 31460 net.cpp:380] conv5_13/x1 -> conv5_13/x1
I1201 16:59:23.222450 31460 net.cpp:122] Setting up conv5_13/x1
I1201 16:59:23.222466 31460 net.cpp:129] Top shape: 1 128 4 8 (4096)
I1201 16:59:23.222471 31460 net.cpp:137] Memory required for data: 183357064
I1201 16:59:23.222478 31460 layer_factory.hpp:77] Creating layer conv5_13/x2/bn
I1201 16:59:23.222486 31460 net.cpp:84] Creating Layer conv5_13/x2/bn
I1201 16:59:23.222492 31460 net.cpp:406] conv5_13/x2/bn <- conv5_13/x1
I1201 16:59:23.222501 31460 net.cpp:380] conv5_13/x2/bn -> conv5_13/x2/bn
I1201 16:59:23.223014 31460 net.cpp:122] Setting up conv5_13/x2/bn
I1201 16:59:23.223023 31460 net.cpp:129] Top shape: 1 128 4 8 (4096)
I1201 16:59:23.223027 31460 net.cpp:137] Memory required for data: 183373448
I1201 16:59:23.223037 31460 layer_factory.hpp:77] Creating layer conv5_13/x2/scale
I1201 16:59:23.223047 31460 net.cpp:84] Creating Layer conv5_13/x2/scale
I1201 16:59:23.223052 31460 net.cpp:406] conv5_13/x2/scale <- conv5_13/x2/bn
I1201 16:59:23.223057 31460 net.cpp:367] conv5_13/x2/scale -> conv5_13/x2/bn (in-place)
I1201 16:59:23.223145 31460 layer_factory.hpp:77] Creating layer conv5_13/x2/scale
I1201 16:59:23.223415 31460 net.cpp:122] Setting up conv5_13/x2/scale
I1201 16:59:23.223425 31460 net.cpp:129] Top shape: 1 128 4 8 (4096)
I1201 16:59:23.223429 31460 net.cpp:137] Memory required for data: 183389832
I1201 16:59:23.223436 31460 layer_factory.hpp:77] Creating layer relu5_13/x2
I1201 16:59:23.223443 31460 net.cpp:84] Creating Layer relu5_13/x2
I1201 16:59:23.223448 31460 net.cpp:406] relu5_13/x2 <- conv5_13/x2/bn
I1201 16:59:23.223454 31460 net.cpp:367] relu5_13/x2 -> conv5_13/x2/bn (in-place)
I1201 16:59:23.223734 31460 net.cpp:122] Setting up relu5_13/x2
I1201 16:59:23.223745 31460 net.cpp:129] Top shape: 1 128 4 8 (4096)
I1201 16:59:23.223753 31460 net.cpp:137] Memory required for data: 183406216
I1201 16:59:23.223758 31460 layer_factory.hpp:77] Creating layer conv5_13/x2
I1201 16:59:23.223770 31460 net.cpp:84] Creating Layer conv5_13/x2
I1201 16:59:23.223775 31460 net.cpp:406] conv5_13/x2 <- conv5_13/x2/bn
I1201 16:59:23.223783 31460 net.cpp:380] conv5_13/x2 -> conv5_13/x2
I1201 16:59:23.227416 31460 net.cpp:122] Setting up conv5_13/x2
I1201 16:59:23.227432 31460 net.cpp:129] Top shape: 1 32 4 8 (1024)
I1201 16:59:23.227437 31460 net.cpp:137] Memory required for data: 183410312
I1201 16:59:23.227443 31460 layer_factory.hpp:77] Creating layer concat_5_13
I1201 16:59:23.227452 31460 net.cpp:84] Creating Layer concat_5_13
I1201 16:59:23.227459 31460 net.cpp:406] concat_5_13 <- concat_5_12_concat_5_12_0_split_1
I1201 16:59:23.227470 31460 net.cpp:406] concat_5_13 <- conv5_13/x2
I1201 16:59:23.227478 31460 net.cpp:380] concat_5_13 -> concat_5_13
I1201 16:59:23.227540 31460 net.cpp:122] Setting up concat_5_13
I1201 16:59:23.227550 31460 net.cpp:129] Top shape: 1 928 4 8 (29696)
I1201 16:59:23.227555 31460 net.cpp:137] Memory required for data: 183529096
I1201 16:59:23.227560 31460 layer_factory.hpp:77] Creating layer concat_5_13_concat_5_13_0_split
I1201 16:59:23.227566 31460 net.cpp:84] Creating Layer concat_5_13_concat_5_13_0_split
I1201 16:59:23.227571 31460 net.cpp:406] concat_5_13_concat_5_13_0_split <- concat_5_13
I1201 16:59:23.227577 31460 net.cpp:380] concat_5_13_concat_5_13_0_split -> concat_5_13_concat_5_13_0_split_0
I1201 16:59:23.227584 31460 net.cpp:380] concat_5_13_concat_5_13_0_split -> concat_5_13_concat_5_13_0_split_1
I1201 16:59:23.227671 31460 net.cpp:122] Setting up concat_5_13_concat_5_13_0_split
I1201 16:59:23.227679 31460 net.cpp:129] Top shape: 1 928 4 8 (29696)
I1201 16:59:23.227689 31460 net.cpp:129] Top shape: 1 928 4 8 (29696)
I1201 16:59:23.227692 31460 net.cpp:137] Memory required for data: 183766664
I1201 16:59:23.227696 31460 layer_factory.hpp:77] Creating layer conv5_14/x1/bn
I1201 16:59:23.227704 31460 net.cpp:84] Creating Layer conv5_14/x1/bn
I1201 16:59:23.227708 31460 net.cpp:406] conv5_14/x1/bn <- concat_5_13_concat_5_13_0_split_0
I1201 16:59:23.227715 31460 net.cpp:380] conv5_14/x1/bn -> conv5_14/x1/bn
I1201 16:59:23.228312 31460 net.cpp:122] Setting up conv5_14/x1/bn
I1201 16:59:23.228322 31460 net.cpp:129] Top shape: 1 928 4 8 (29696)
I1201 16:59:23.228327 31460 net.cpp:137] Memory required for data: 183885448
I1201 16:59:23.228337 31460 layer_factory.hpp:77] Creating layer conv5_14/x1/scale
I1201 16:59:23.228344 31460 net.cpp:84] Creating Layer conv5_14/x1/scale
I1201 16:59:23.228349 31460 net.cpp:406] conv5_14/x1/scale <- conv5_14/x1/bn
I1201 16:59:23.228356 31460 net.cpp:367] conv5_14/x1/scale -> conv5_14/x1/bn (in-place)
I1201 16:59:23.228471 31460 layer_factory.hpp:77] Creating layer conv5_14/x1/scale
I1201 16:59:23.228791 31460 net.cpp:122] Setting up conv5_14/x1/scale
I1201 16:59:23.228801 31460 net.cpp:129] Top shape: 1 928 4 8 (29696)
I1201 16:59:23.228806 31460 net.cpp:137] Memory required for data: 184004232
I1201 16:59:23.228812 31460 layer_factory.hpp:77] Creating layer relu5_14/x1
I1201 16:59:23.228821 31460 net.cpp:84] Creating Layer relu5_14/x1
I1201 16:59:23.228826 31460 net.cpp:406] relu5_14/x1 <- conv5_14/x1/bn
I1201 16:59:23.228832 31460 net.cpp:367] relu5_14/x1 -> conv5_14/x1/bn (in-place)
I1201 16:59:23.229446 31460 net.cpp:122] Setting up relu5_14/x1
I1201 16:59:23.229460 31460 net.cpp:129] Top shape: 1 928 4 8 (29696)
I1201 16:59:23.229465 31460 net.cpp:137] Memory required for data: 184123016
I1201 16:59:23.229468 31460 layer_factory.hpp:77] Creating layer conv5_14/x1
I1201 16:59:23.229481 31460 net.cpp:84] Creating Layer conv5_14/x1
I1201 16:59:23.229487 31460 net.cpp:406] conv5_14/x1 <- conv5_14/x1/bn
I1201 16:59:23.229497 31460 net.cpp:380] conv5_14/x1 -> conv5_14/x1
I1201 16:59:23.236773 31460 net.cpp:122] Setting up conv5_14/x1
I1201 16:59:23.236791 31460 net.cpp:129] Top shape: 1 128 4 8 (4096)
I1201 16:59:23.236796 31460 net.cpp:137] Memory required for data: 184139400
I1201 16:59:23.236804 31460 layer_factory.hpp:77] Creating layer conv5_14/x2/bn
I1201 16:59:23.236812 31460 net.cpp:84] Creating Layer conv5_14/x2/bn
I1201 16:59:23.236819 31460 net.cpp:406] conv5_14/x2/bn <- conv5_14/x1
I1201 16:59:23.236827 31460 net.cpp:380] conv5_14/x2/bn -> conv5_14/x2/bn
I1201 16:59:23.237357 31460 net.cpp:122] Setting up conv5_14/x2/bn
I1201 16:59:23.237366 31460 net.cpp:129] Top shape: 1 128 4 8 (4096)
I1201 16:59:23.237371 31460 net.cpp:137] Memory required for data: 184155784
I1201 16:59:23.237380 31460 layer_factory.hpp:77] Creating layer conv5_14/x2/scale
I1201 16:59:23.237388 31460 net.cpp:84] Creating Layer conv5_14/x2/scale
I1201 16:59:23.237395 31460 net.cpp:406] conv5_14/x2/scale <- conv5_14/x2/bn
I1201 16:59:23.237407 31460 net.cpp:367] conv5_14/x2/scale -> conv5_14/x2/bn (in-place)
I1201 16:59:23.237499 31460 layer_factory.hpp:77] Creating layer conv5_14/x2/scale
I1201 16:59:23.237769 31460 net.cpp:122] Setting up conv5_14/x2/scale
I1201 16:59:23.237778 31460 net.cpp:129] Top shape: 1 128 4 8 (4096)
I1201 16:59:23.237782 31460 net.cpp:137] Memory required for data: 184172168
I1201 16:59:23.237790 31460 layer_factory.hpp:77] Creating layer relu5_14/x2
I1201 16:59:23.237797 31460 net.cpp:84] Creating Layer relu5_14/x2
I1201 16:59:23.237802 31460 net.cpp:406] relu5_14/x2 <- conv5_14/x2/bn
I1201 16:59:23.237807 31460 net.cpp:367] relu5_14/x2 -> conv5_14/x2/bn (in-place)
I1201 16:59:23.238090 31460 net.cpp:122] Setting up relu5_14/x2
I1201 16:59:23.238102 31460 net.cpp:129] Top shape: 1 128 4 8 (4096)
I1201 16:59:23.238106 31460 net.cpp:137] Memory required for data: 184188552
I1201 16:59:23.238111 31460 layer_factory.hpp:77] Creating layer conv5_14/x2
I1201 16:59:23.238123 31460 net.cpp:84] Creating Layer conv5_14/x2
I1201 16:59:23.238128 31460 net.cpp:406] conv5_14/x2 <- conv5_14/x2/bn
I1201 16:59:23.238135 31460 net.cpp:380] conv5_14/x2 -> conv5_14/x2
I1201 16:59:23.242569 31460 net.cpp:122] Setting up conv5_14/x2
I1201 16:59:23.242584 31460 net.cpp:129] Top shape: 1 32 4 8 (1024)
I1201 16:59:23.242589 31460 net.cpp:137] Memory required for data: 184192648
I1201 16:59:23.242596 31460 layer_factory.hpp:77] Creating layer concat_5_14
I1201 16:59:23.242604 31460 net.cpp:84] Creating Layer concat_5_14
I1201 16:59:23.242611 31460 net.cpp:406] concat_5_14 <- concat_5_13_concat_5_13_0_split_1
I1201 16:59:23.242617 31460 net.cpp:406] concat_5_14 <- conv5_14/x2
I1201 16:59:23.242626 31460 net.cpp:380] concat_5_14 -> concat_5_14
I1201 16:59:23.242687 31460 net.cpp:122] Setting up concat_5_14
I1201 16:59:23.242696 31460 net.cpp:129] Top shape: 1 960 4 8 (30720)
I1201 16:59:23.242699 31460 net.cpp:137] Memory required for data: 184315528
I1201 16:59:23.242704 31460 layer_factory.hpp:77] Creating layer concat_5_14_concat_5_14_0_split
I1201 16:59:23.242712 31460 net.cpp:84] Creating Layer concat_5_14_concat_5_14_0_split
I1201 16:59:23.242715 31460 net.cpp:406] concat_5_14_concat_5_14_0_split <- concat_5_14
I1201 16:59:23.242723 31460 net.cpp:380] concat_5_14_concat_5_14_0_split -> concat_5_14_concat_5_14_0_split_0
I1201 16:59:23.242730 31460 net.cpp:380] concat_5_14_concat_5_14_0_split -> concat_5_14_concat_5_14_0_split_1
I1201 16:59:23.242818 31460 net.cpp:122] Setting up concat_5_14_concat_5_14_0_split
I1201 16:59:23.242826 31460 net.cpp:129] Top shape: 1 960 4 8 (30720)
I1201 16:59:23.242832 31460 net.cpp:129] Top shape: 1 960 4 8 (30720)
I1201 16:59:23.242836 31460 net.cpp:137] Memory required for data: 184561288
I1201 16:59:23.242841 31460 layer_factory.hpp:77] Creating layer conv5_15/x1/bn
I1201 16:59:23.242848 31460 net.cpp:84] Creating Layer conv5_15/x1/bn
I1201 16:59:23.242853 31460 net.cpp:406] conv5_15/x1/bn <- concat_5_14_concat_5_14_0_split_0
I1201 16:59:23.242861 31460 net.cpp:380] conv5_15/x1/bn -> conv5_15/x1/bn
I1201 16:59:23.243477 31460 net.cpp:122] Setting up conv5_15/x1/bn
I1201 16:59:23.243486 31460 net.cpp:129] Top shape: 1 960 4 8 (30720)
I1201 16:59:23.243490 31460 net.cpp:137] Memory required for data: 184684168
I1201 16:59:23.243500 31460 layer_factory.hpp:77] Creating layer conv5_15/x1/scale
I1201 16:59:23.243508 31460 net.cpp:84] Creating Layer conv5_15/x1/scale
I1201 16:59:23.243513 31460 net.cpp:406] conv5_15/x1/scale <- conv5_15/x1/bn
I1201 16:59:23.243520 31460 net.cpp:367] conv5_15/x1/scale -> conv5_15/x1/bn (in-place)
I1201 16:59:23.243636 31460 layer_factory.hpp:77] Creating layer conv5_15/x1/scale
I1201 16:59:23.243975 31460 net.cpp:122] Setting up conv5_15/x1/scale
I1201 16:59:23.243985 31460 net.cpp:129] Top shape: 1 960 4 8 (30720)
I1201 16:59:23.243989 31460 net.cpp:137] Memory required for data: 184807048
I1201 16:59:23.243998 31460 layer_factory.hpp:77] Creating layer relu5_15/x1
I1201 16:59:23.244006 31460 net.cpp:84] Creating Layer relu5_15/x1
I1201 16:59:23.244011 31460 net.cpp:406] relu5_15/x1 <- conv5_15/x1/bn
I1201 16:59:23.244021 31460 net.cpp:367] relu5_15/x1 -> conv5_15/x1/bn (in-place)
I1201 16:59:23.244607 31460 net.cpp:122] Setting up relu5_15/x1
I1201 16:59:23.244621 31460 net.cpp:129] Top shape: 1 960 4 8 (30720)
I1201 16:59:23.244626 31460 net.cpp:137] Memory required for data: 184929928
I1201 16:59:23.244632 31460 layer_factory.hpp:77] Creating layer conv5_15/x1
I1201 16:59:23.244645 31460 net.cpp:84] Creating Layer conv5_15/x1
I1201 16:59:23.244650 31460 net.cpp:406] conv5_15/x1 <- conv5_15/x1/bn
I1201 16:59:23.244658 31460 net.cpp:380] conv5_15/x1 -> conv5_15/x1
I1201 16:59:23.252063 31460 net.cpp:122] Setting up conv5_15/x1
I1201 16:59:23.252095 31460 net.cpp:129] Top shape: 1 128 4 8 (4096)
I1201 16:59:23.252100 31460 net.cpp:137] Memory required for data: 184946312
I1201 16:59:23.252111 31460 layer_factory.hpp:77] Creating layer conv5_15/x2/bn
I1201 16:59:23.252125 31460 net.cpp:84] Creating Layer conv5_15/x2/bn
I1201 16:59:23.252133 31460 net.cpp:406] conv5_15/x2/bn <- conv5_15/x1
I1201 16:59:23.252142 31460 net.cpp:380] conv5_15/x2/bn -> conv5_15/x2/bn
I1201 16:59:23.252724 31460 net.cpp:122] Setting up conv5_15/x2/bn
I1201 16:59:23.252741 31460 net.cpp:129] Top shape: 1 128 4 8 (4096)
I1201 16:59:23.252745 31460 net.cpp:137] Memory required for data: 184962696
I1201 16:59:23.252758 31460 layer_factory.hpp:77] Creating layer conv5_15/x2/scale
I1201 16:59:23.252770 31460 net.cpp:84] Creating Layer conv5_15/x2/scale
I1201 16:59:23.252777 31460 net.cpp:406] conv5_15/x2/scale <- conv5_15/x2/bn
I1201 16:59:23.252784 31460 net.cpp:367] conv5_15/x2/scale -> conv5_15/x2/bn (in-place)
I1201 16:59:23.252884 31460 layer_factory.hpp:77] Creating layer conv5_15/x2/scale
I1201 16:59:23.253175 31460 net.cpp:122] Setting up conv5_15/x2/scale
I1201 16:59:23.253185 31460 net.cpp:129] Top shape: 1 128 4 8 (4096)
I1201 16:59:23.253190 31460 net.cpp:137] Memory required for data: 184979080
I1201 16:59:23.253197 31460 layer_factory.hpp:77] Creating layer relu5_15/x2
I1201 16:59:23.253206 31460 net.cpp:84] Creating Layer relu5_15/x2
I1201 16:59:23.253211 31460 net.cpp:406] relu5_15/x2 <- conv5_15/x2/bn
I1201 16:59:23.253218 31460 net.cpp:367] relu5_15/x2 -> conv5_15/x2/bn (in-place)
I1201 16:59:23.254262 31460 net.cpp:122] Setting up relu5_15/x2
I1201 16:59:23.254288 31460 net.cpp:129] Top shape: 1 128 4 8 (4096)
I1201 16:59:23.254293 31460 net.cpp:137] Memory required for data: 184995464
I1201 16:59:23.254299 31460 layer_factory.hpp:77] Creating layer conv5_15/x2
I1201 16:59:23.254317 31460 net.cpp:84] Creating Layer conv5_15/x2
I1201 16:59:23.254325 31460 net.cpp:406] conv5_15/x2 <- conv5_15/x2/bn
I1201 16:59:23.254335 31460 net.cpp:380] conv5_15/x2 -> conv5_15/x2
I1201 16:59:23.258610 31460 net.cpp:122] Setting up conv5_15/x2
I1201 16:59:23.258641 31460 net.cpp:129] Top shape: 1 32 4 8 (1024)
I1201 16:59:23.258646 31460 net.cpp:137] Memory required for data: 184999560
I1201 16:59:23.258656 31460 layer_factory.hpp:77] Creating layer concat_5_15
I1201 16:59:23.258668 31460 net.cpp:84] Creating Layer concat_5_15
I1201 16:59:23.258677 31460 net.cpp:406] concat_5_15 <- concat_5_14_concat_5_14_0_split_1
I1201 16:59:23.258685 31460 net.cpp:406] concat_5_15 <- conv5_15/x2
I1201 16:59:23.258693 31460 net.cpp:380] concat_5_15 -> concat_5_15
I1201 16:59:23.258757 31460 net.cpp:122] Setting up concat_5_15
I1201 16:59:23.258766 31460 net.cpp:129] Top shape: 1 992 4 8 (31744)
I1201 16:59:23.258770 31460 net.cpp:137] Memory required for data: 185126536
I1201 16:59:23.258774 31460 layer_factory.hpp:77] Creating layer concat_5_15_concat_5_15_0_split
I1201 16:59:23.258781 31460 net.cpp:84] Creating Layer concat_5_15_concat_5_15_0_split
I1201 16:59:23.258786 31460 net.cpp:406] concat_5_15_concat_5_15_0_split <- concat_5_15
I1201 16:59:23.258795 31460 net.cpp:380] concat_5_15_concat_5_15_0_split -> concat_5_15_concat_5_15_0_split_0
I1201 16:59:23.258801 31460 net.cpp:380] concat_5_15_concat_5_15_0_split -> concat_5_15_concat_5_15_0_split_1
I1201 16:59:23.258893 31460 net.cpp:122] Setting up concat_5_15_concat_5_15_0_split
I1201 16:59:23.258905 31460 net.cpp:129] Top shape: 1 992 4 8 (31744)
I1201 16:59:23.258911 31460 net.cpp:129] Top shape: 1 992 4 8 (31744)
I1201 16:59:23.258915 31460 net.cpp:137] Memory required for data: 185380488
I1201 16:59:23.258919 31460 layer_factory.hpp:77] Creating layer conv5_16/x1/bn
I1201 16:59:23.258927 31460 net.cpp:84] Creating Layer conv5_16/x1/bn
I1201 16:59:23.258932 31460 net.cpp:406] conv5_16/x1/bn <- concat_5_15_concat_5_15_0_split_0
I1201 16:59:23.258940 31460 net.cpp:380] conv5_16/x1/bn -> conv5_16/x1/bn
I1201 16:59:23.259591 31460 net.cpp:122] Setting up conv5_16/x1/bn
I1201 16:59:23.259600 31460 net.cpp:129] Top shape: 1 992 4 8 (31744)
I1201 16:59:23.259604 31460 net.cpp:137] Memory required for data: 185507464
I1201 16:59:23.259614 31460 layer_factory.hpp:77] Creating layer conv5_16/x1/scale
I1201 16:59:23.259624 31460 net.cpp:84] Creating Layer conv5_16/x1/scale
I1201 16:59:23.259629 31460 net.cpp:406] conv5_16/x1/scale <- conv5_16/x1/bn
I1201 16:59:23.259635 31460 net.cpp:367] conv5_16/x1/scale -> conv5_16/x1/bn (in-place)
I1201 16:59:23.259757 31460 layer_factory.hpp:77] Creating layer conv5_16/x1/scale
I1201 16:59:23.260093 31460 net.cpp:122] Setting up conv5_16/x1/scale
I1201 16:59:23.260104 31460 net.cpp:129] Top shape: 1 992 4 8 (31744)
I1201 16:59:23.260108 31460 net.cpp:137] Memory required for data: 185634440
I1201 16:59:23.260115 31460 layer_factory.hpp:77] Creating layer relu5_16/x1
I1201 16:59:23.260123 31460 net.cpp:84] Creating Layer relu5_16/x1
I1201 16:59:23.260128 31460 net.cpp:406] relu5_16/x1 <- conv5_16/x1/bn
I1201 16:59:23.260134 31460 net.cpp:367] relu5_16/x1 -> conv5_16/x1/bn (in-place)
I1201 16:59:23.260432 31460 net.cpp:122] Setting up relu5_16/x1
I1201 16:59:23.260443 31460 net.cpp:129] Top shape: 1 992 4 8 (31744)
I1201 16:59:23.260447 31460 net.cpp:137] Memory required for data: 185761416
I1201 16:59:23.260452 31460 layer_factory.hpp:77] Creating layer conv5_16/x1
I1201 16:59:23.260465 31460 net.cpp:84] Creating Layer conv5_16/x1
I1201 16:59:23.260470 31460 net.cpp:406] conv5_16/x1 <- conv5_16/x1/bn
I1201 16:59:23.260478 31460 net.cpp:380] conv5_16/x1 -> conv5_16/x1
I1201 16:59:23.268227 31460 net.cpp:122] Setting up conv5_16/x1
I1201 16:59:23.268250 31460 net.cpp:129] Top shape: 1 128 4 8 (4096)
I1201 16:59:23.268255 31460 net.cpp:137] Memory required for data: 185777800
I1201 16:59:23.268263 31460 layer_factory.hpp:77] Creating layer conv5_16/x2/bn
I1201 16:59:23.268275 31460 net.cpp:84] Creating Layer conv5_16/x2/bn
I1201 16:59:23.268281 31460 net.cpp:406] conv5_16/x2/bn <- conv5_16/x1
I1201 16:59:23.268290 31460 net.cpp:380] conv5_16/x2/bn -> conv5_16/x2/bn
I1201 16:59:23.268841 31460 net.cpp:122] Setting up conv5_16/x2/bn
I1201 16:59:23.268851 31460 net.cpp:129] Top shape: 1 128 4 8 (4096)
I1201 16:59:23.268856 31460 net.cpp:137] Memory required for data: 185794184
I1201 16:59:23.268864 31460 layer_factory.hpp:77] Creating layer conv5_16/x2/scale
I1201 16:59:23.268874 31460 net.cpp:84] Creating Layer conv5_16/x2/scale
I1201 16:59:23.268879 31460 net.cpp:406] conv5_16/x2/scale <- conv5_16/x2/bn
I1201 16:59:23.268885 31460 net.cpp:367] conv5_16/x2/scale -> conv5_16/x2/bn (in-place)
I1201 16:59:23.268978 31460 layer_factory.hpp:77] Creating layer conv5_16/x2/scale
I1201 16:59:23.269258 31460 net.cpp:122] Setting up conv5_16/x2/scale
I1201 16:59:23.269268 31460 net.cpp:129] Top shape: 1 128 4 8 (4096)
I1201 16:59:23.269273 31460 net.cpp:137] Memory required for data: 185810568
I1201 16:59:23.269279 31460 layer_factory.hpp:77] Creating layer relu5_16/x2
I1201 16:59:23.269286 31460 net.cpp:84] Creating Layer relu5_16/x2
I1201 16:59:23.269291 31460 net.cpp:406] relu5_16/x2 <- conv5_16/x2/bn
I1201 16:59:23.269297 31460 net.cpp:367] relu5_16/x2 -> conv5_16/x2/bn (in-place)
I1201 16:59:23.269889 31460 net.cpp:122] Setting up relu5_16/x2
I1201 16:59:23.269902 31460 net.cpp:129] Top shape: 1 128 4 8 (4096)
I1201 16:59:23.269907 31460 net.cpp:137] Memory required for data: 185826952
I1201 16:59:23.269912 31460 layer_factory.hpp:77] Creating layer conv5_16/x2
I1201 16:59:23.269929 31460 net.cpp:84] Creating Layer conv5_16/x2
I1201 16:59:23.269934 31460 net.cpp:406] conv5_16/x2 <- conv5_16/x2/bn
I1201 16:59:23.269943 31460 net.cpp:380] conv5_16/x2 -> conv5_16/x2
I1201 16:59:23.274051 31460 net.cpp:122] Setting up conv5_16/x2
I1201 16:59:23.274070 31460 net.cpp:129] Top shape: 1 32 4 8 (1024)
I1201 16:59:23.274075 31460 net.cpp:137] Memory required for data: 185831048
I1201 16:59:23.274086 31460 layer_factory.hpp:77] Creating layer concat_5_16
I1201 16:59:23.274094 31460 net.cpp:84] Creating Layer concat_5_16
I1201 16:59:23.274101 31460 net.cpp:406] concat_5_16 <- concat_5_15_concat_5_15_0_split_1
I1201 16:59:23.274109 31460 net.cpp:406] concat_5_16 <- conv5_16/x2
I1201 16:59:23.274117 31460 net.cpp:380] concat_5_16 -> concat_5_16
I1201 16:59:23.274179 31460 net.cpp:122] Setting up concat_5_16
I1201 16:59:23.274188 31460 net.cpp:129] Top shape: 1 1024 4 8 (32768)
I1201 16:59:23.274193 31460 net.cpp:137] Memory required for data: 185962120
I1201 16:59:23.274196 31460 layer_factory.hpp:77] Creating layer tpp5
I1201 16:59:23.274205 31460 net.cpp:84] Creating Layer tpp5
I1201 16:59:23.274210 31460 net.cpp:406] tpp5 <- concat_5_16
I1201 16:59:23.274217 31460 net.cpp:380] tpp5 -> tpp5
I1201 16:59:23.275439 31460 net.cpp:122] Setting up tpp5
I1201 16:59:23.275449 31460 net.cpp:129] Top shape: 1 15360 (15360)
I1201 16:59:23.275454 31460 net.cpp:137] Memory required for data: 186023560
I1201 16:59:23.275458 31460 layer_factory.hpp:77] Creating layer fc6_d
I1201 16:59:23.275467 31460 net.cpp:84] Creating Layer fc6_d
I1201 16:59:23.275472 31460 net.cpp:406] fc6_d <- tpp5
I1201 16:59:23.275481 31460 net.cpp:380] fc6_d -> fc6_d
I1201 16:59:27.082609 31460 net.cpp:122] Setting up fc6_d
I1201 16:59:27.082641 31460 net.cpp:129] Top shape: 1 4096 (4096)
I1201 16:59:27.082644 31460 net.cpp:137] Memory required for data: 186039944
I1201 16:59:27.082653 31460 layer_factory.hpp:77] Creating layer relu6
I1201 16:59:27.082664 31460 net.cpp:84] Creating Layer relu6
I1201 16:59:27.082670 31460 net.cpp:406] relu6 <- fc6_d
I1201 16:59:27.082675 31460 net.cpp:367] relu6 -> fc6_d (in-place)
I1201 16:59:27.082979 31460 net.cpp:122] Setting up relu6
I1201 16:59:27.082988 31460 net.cpp:129] Top shape: 1 4096 (4096)
I1201 16:59:27.082990 31460 net.cpp:137] Memory required for data: 186056328
I1201 16:59:27.082993 31460 layer_factory.hpp:77] Creating layer fc7_d
I1201 16:59:27.083003 31460 net.cpp:84] Creating Layer fc7_d
I1201 16:59:27.083006 31460 net.cpp:406] fc7_d <- fc6_d
I1201 16:59:27.083011 31460 net.cpp:380] fc7_d -> fc7_d
I1201 16:59:28.045646 31460 net.cpp:122] Setting up fc7_d
I1201 16:59:28.045683 31460 net.cpp:129] Top shape: 1 4096 (4096)
I1201 16:59:28.045688 31460 net.cpp:137] Memory required for data: 186072712
I1201 16:59:28.045701 31460 layer_factory.hpp:77] Creating layer relu7
I1201 16:59:28.045712 31460 net.cpp:84] Creating Layer relu7
I1201 16:59:28.045719 31460 net.cpp:406] relu7 <- fc7_d
I1201 16:59:28.045729 31460 net.cpp:367] relu7 -> fc7_d (in-place)
I1201 16:59:28.046583 31460 net.cpp:122] Setting up relu7
I1201 16:59:28.046597 31460 net.cpp:129] Top shape: 1 4096 (4096)
I1201 16:59:28.046602 31460 net.cpp:137] Memory required for data: 186089096
I1201 16:59:28.046607 31460 layer_factory.hpp:77] Creating layer fc8_d
I1201 16:59:28.046618 31460 net.cpp:84] Creating Layer fc8_d
I1201 16:59:28.046623 31460 net.cpp:406] fc8_d <- fc7_d
I1201 16:59:28.046630 31460 net.cpp:380] fc8_d -> fc8_d
I1201 16:59:28.215878 31460 net.cpp:122] Setting up fc8_d
I1201 16:59:28.215915 31460 net.cpp:129] Top shape: 1 604 (604)
I1201 16:59:28.215920 31460 net.cpp:137] Memory required for data: 186091512
I1201 16:59:28.215932 31460 layer_factory.hpp:77] Creating layer fc8_d_fc8_d_0_split
I1201 16:59:28.215948 31460 net.cpp:84] Creating Layer fc8_d_fc8_d_0_split
I1201 16:59:28.215956 31460 net.cpp:406] fc8_d_fc8_d_0_split <- fc8_d
I1201 16:59:28.215965 31460 net.cpp:380] fc8_d_fc8_d_0_split -> fc8_d_fc8_d_0_split_0
I1201 16:59:28.215975 31460 net.cpp:380] fc8_d_fc8_d_0_split -> fc8_d_fc8_d_0_split_1
I1201 16:59:28.216073 31460 net.cpp:122] Setting up fc8_d_fc8_d_0_split
I1201 16:59:28.216083 31460 net.cpp:129] Top shape: 1 604 (604)
I1201 16:59:28.216087 31460 net.cpp:129] Top shape: 1 604 (604)
I1201 16:59:28.216091 31460 net.cpp:137] Memory required for data: 186096344
I1201 16:59:28.216095 31460 layer_factory.hpp:77] Creating layer sigmoid
I1201 16:59:28.216104 31460 net.cpp:84] Creating Layer sigmoid
I1201 16:59:28.216109 31460 net.cpp:406] sigmoid <- fc8_d_fc8_d_0_split_0
I1201 16:59:28.216118 31460 net.cpp:380] sigmoid -> sigmoid
I1201 16:59:28.217141 31460 net.cpp:122] Setting up sigmoid
I1201 16:59:28.217159 31460 net.cpp:129] Top shape: 1 604 (604)
I1201 16:59:28.217164 31460 net.cpp:137] Memory required for data: 186098760
I1201 16:59:28.217170 31460 layer_factory.hpp:77] Creating layer silence
I1201 16:59:28.217180 31460 net.cpp:84] Creating Layer silence
I1201 16:59:28.217185 31460 net.cpp:406] silence <- sigmoid
I1201 16:59:28.217192 31460 net.cpp:122] Setting up silence
I1201 16:59:28.217195 31460 net.cpp:137] Memory required for data: 186098760
…
