…
  phase: TRAIN
}
layer {
  name: "word_images"
  type: "Data"
  top: "word_images"
  top: "label"
  transform_param {
    scale: -0.0039215689
    mean_value: 255
  }
  data_param {
    source: "/data/fwolf/mintpp/gw_cv3_nti500000_pul2-3-4-5_train_word_images_lmdb"
    batch_size: 1
    backend: LMDB
    prefetch: 20
  }
}
layer {
  name: "phocs"
  type: "Data"
  top: "phocs"
  top: "label_phocs"
  data_param {
    source: "/data/fwolf/mintpp/gw_cv3_nti500000_pul2-3-4-5_train_phocs_lmdb"
    batch_size: 1
    backend: LMDB
    prefetch: 20
  }
}
layer {
  name: "conv1_grey"
  type: "Convolution"
  bottom: "word_images"
  top: "conv1_grey"
  convolution_param {
    num_output: 64
    bias_term: false
    pad: 3
    kernel_size: 7
    stride: 2
    weight_filler {
      type: "msra"
    }
    bias_filler {
      type: "constant"
    }
  }
}
layer {
  name: "conv1/bn"
  type: "BatchNorm"
  bottom: "conv1_grey"
  top: "conv1/bn"
  batch_norm_param {
    eps: 1e-05
  }
}
layer {
  name: "conv1/scale"
  type: "Scale"
  bottom: "conv1/bn"
  top: "conv1/bn"
  scale_param {
    bias_term: true
  }
}
layer {
  name: "relu1"
  type: "ReLU"
  bottom: "conv1/bn"
  top: "conv1/bn"
}
layer {
  name: "pool1"
  type: "Pooling"
  bottom: "conv1/bn"
  top: "pool1"
  pooling_param {
    pool: MAX
    kernel_size: 3
    stride: 2
  }
}
layer {
  name: "conv2_1/x1/bn"
  type: "BatchNorm"
  bottom: "pool1"
  top: "conv2_1/x1/bn"
  batch_norm_param {
    eps: 1e-05
  }
}
layer {
  name: "conv2_1/x1/scale"
  type: "Scale"
  bottom: "conv2_1/x1/bn"
  top: "conv2_1/x1/bn"
  scale_param {
    bias_term: true
  }
}
layer {
  name: "relu2_1/x1"
  type: "ReLU"
  bottom: "conv2_1/x1/bn"
  top: "conv2_1/x1/bn"
}
layer {
  name: "conv2_1/x1"
  type: "Convolution"
  bottom: "conv2_1/x1/bn"
  top: "conv2_1/x1"
  convolution_param {
    num_output: 128
    bias_term: false
    pad: 0
    kernel_size: 1
    stride: 1
    weight_filler {
      type: "msra"
    }
    bias_filler {
      type: "constant"
    }
  }
}
layer {
  name: "conv2_1/x2/bn"
  type: "BatchNorm"
  bottom: "conv2_1/x1"
  top: "conv2_1/x2/bn"
  batch_norm_param {
    eps: 1e-05
  }
}
layer {
  name: "conv2_1/x2/scale"
  type: "Scale"
  bottom: "conv2_1/x2/bn"
  top: "conv2_1/x2/bn"
  scale_param {
    bias_term: true
  }
}
layer {
  name: "relu2_1/x2"
  type: "ReLU"
  bottom: "conv2_1/x2/bn"
  top: "conv2_1/x2/bn"
}
layer {
  name: "conv2_1/x2"
  type: "Convolution"
  bottom: "conv2_1/x2/bn"
  top: "conv2_1/x2"
  convolution_param {
    num_output: 32
    bias_term: false
    pad: 1
    kernel_size: 3
    stride: 1
    weight_filler {
      type: "msra"
    }
    bias_filler {
      type: "constant"
    }
  }
}
layer {
  name: "concat_2_1"
  type: "Concat"
  bottom: "pool1"
  bottom: "conv2_1/x2"
  top: "concat_2_1"
}
layer {
  name: "conv2_2/x1/bn"
  type: "BatchNorm"
  bottom: "concat_2_1"
  top: "conv2_2/x1/bn"
  batch_norm_param {
    eps: 1e-05
  }
}
layer {
  name: "conv2_2/x1/scale"
  type: "Scale"
  bottom: "conv2_2/x1/bn"
  top: "conv2_2/x1/bn"
  scale_param {
    bias_term: true
  }
}
layer {
  name: "relu2_2/x1"
  type: "ReLU"
  bottom: "conv2_2/x1/bn"
  top: "conv2_2/x1/bn"
}
layer {
  name: "conv2_2/x1"
  type: "Convolution"
  bottom: "conv2_2/x1/bn"
  top: "conv2_2/x1"
  convolution_param {
    num_output: 128
    bias_term: false
    pad: 0
    kernel_size: 1
    stride: 1
    weight_filler {
      type: "msra"
    }
    bias_filler {
      type: "constant"
    }
  }
}
layer {
  name: "conv2_2/x2/bn"
  type: "BatchNorm"
  bottom: "conv2_2/x1"
  top: "conv2_2/x2/bn"
  batch_norm_param {
    eps: 1e-05
  }
}
layer {
  name: "conv2_2/x2/scale"
  type: "Scale"
  bottom: "conv2_2/x2/bn"
  top: "conv2_2/x2/bn"
  scale_param {
    bias_term: true
  }
}
layer {
  name: "relu2_2/x2"
  type: "ReLU"
  bottom: "conv2_2/x2/bn"
  top: "conv2_2/x2/bn"
}
layer {
  name: "conv2_2/x2"
  type: "Convolution"
  bottom: "conv2_2/x2/bn"
  top: "conv2_2/x2"
  convolution_param {
    num_output: 32
    bias_term: false
    pad: 1
    kernel_size: 3
    stride: 1
    weight_filler {
      type: "msra"
    }
    bias_filler {
      type: "constant"
    }
  }
}
layer {
  name: "concat_2_2"
  type: "Concat"
  bottom: "concat_2_1"
  bottom: "conv2_2/x2"
  top: "concat_2_2"
}
layer {
  name: "conv2_3/x1/bn"
  type: "BatchNorm"
  bottom: "concat_2_2"
  top: "conv2_3/x1/bn"
  batch_norm_param {
    eps: 1e-05
  }
}
layer {
  name: "conv2_3/x1/scale"
  type: "Scale"
  bottom: "conv2_3/x1/bn"
  top: "conv2_3/x1/bn"
  scale_param {
    bias_term: true
  }
}
layer {
  name: "relu2_3/x1"
  type: "ReLU"
  bottom: "conv2_3/x1/bn"
  top: "conv2_3/x1/bn"
}
layer {
  name: "conv2_3/x1"
  type: "Convolution"
  bottom: "conv2_3/x1/bn"
  top: "conv2_3/x1"
  convolution_param {
    num_output: 128
    bias_term: false
    pad: 0
    kernel_size: 1
    stride: 1
    weight_filler {
      type: "msra"
    }
    bias_filler {
      type: "constant"
    }
  }
}
layer {
  name: "conv2_3/x2/bn"
  type: "BatchNorm"
  bottom: "conv2_3/x1"
  top: "conv2_3/x2/bn"
  batch_norm_param {
    eps: 1e-05
  }
}
layer {
  name: "conv2_3/x2/scale"
  type: "Scale"
  bottom: "conv2_3/x2/bn"
  top: "conv2_3/x2/bn"
  scale_param {
    bias_term: true
  }
}
layer {
  name: "relu2_3/x2"
  type: "ReLU"
  bottom: "conv2_3/x2/bn"
  top: "conv2_3/x2/bn"
}
layer {
  name: "conv2_3/x2"
  type: "Convolution"
  bottom: "conv2_3/x2/bn"
  top: "conv2_3/x2"
  convolution_param {
    num_output: 32
    bias_term: false
    pad: 1
    kernel_size: 3
    stride: 1
    weight_filler {
      type: "msra"
    }
    bias_filler {
      type: "constant"
    }
  }
}
layer {
  name: "concat_2_3"
  type: "Concat"
  bottom: "concat_2_2"
  bottom: "conv2_3/x2"
  top: "concat_2_3"
}
layer {
  name: "conv2_4/x1/bn"
  type: "BatchNorm"
  bottom: "concat_2_3"
  top: "conv2_4/x1/bn"
  batch_norm_param {
    eps: 1e-05
  }
}
layer {
  name: "conv2_4/x1/scale"
  type: "Scale"
  bottom: "conv2_4/x1/bn"
  top: "conv2_4/x1/bn"
  scale_param {
    bias_term: true
  }
}
layer {
  name: "relu2_4/x1"
  type: "ReLU"
  bottom: "conv2_4/x1/bn"
  top: "conv2_4/x1/bn"
}
layer {
  name: "conv2_4/x1"
  type: "Convolution"
  bottom: "conv2_4/x1/bn"
  top: "conv2_4/x1"
  convolution_param {
    num_output: 128
    bias_term: false
    pad: 0
    kernel_size: 1
    stride: 1
    weight_filler {
      type: "msra"
    }
    bias_filler {
      type: "constant"
    }
  }
}
layer {
  name: "conv2_4/x2/bn"
  type: "BatchNorm"
  bottom: "conv2_4/x1"
  top: "conv2_4/x2/bn"
  batch_norm_param {
    eps: 1e-05
  }
}
layer {
  name: "conv2_4/x2/scale"
  type: "Scale"
  bottom: "conv2_4/x2/bn"
  top: "conv2_4/x2/bn"
  scale_param {
    bias_term: true
  }
}
layer {
  name: "relu2_4/x2"
  type: "ReLU"
  bottom: "conv2_4/x2/bn"
  top: "conv2_4/x2/bn"
}
layer {
  name: "conv2_4/x2"
  type: "Convolution"
  bottom: "conv2_4/x2/bn"
  top: "conv2_4/x2"
  convolution_param {
    num_output: 32
    bias_term: false
    pad: 1
    kernel_size: 3
    stride: 1
    weight_filler {
      type: "msra"
    }
    bias_filler {
      type: "constant"
    }
  }
}
layer {
  name: "concat_2_4"
  type: "Concat"
  bottom: "concat_2_3"
  bottom: "conv2_4/x2"
  top: "concat_2_4"
}
layer {
  name: "conv2_5/x1/bn"
  type: "BatchNorm"
  bottom: "concat_2_4"
  top: "conv2_5/x1/bn"
  batch_norm_param {
    eps: 1e-05
  }
}
layer {
  name: "conv2_5/x1/scale"
  type: "Scale"
  bottom: "conv2_5/x1/bn"
  top: "conv2_5/x1/bn"
  scale_param {
    bias_term: true
  }
}
layer {
  name: "relu2_5/x1"
  type: "ReLU"
  bottom: "conv2_5/x1/bn"
  top: "conv2_5/x1/bn"
}
layer {
  name: "conv2_5/x1"
  type: "Convolution"
  bottom: "conv2_5/x1/bn"
  top: "conv2_5/x1"
  convolution_param {
    num_output: 128
    bias_term: false
    pad: 0
    kernel_size: 1
    stride: 1
    weight_filler {
      type: "msra"
    }
    bias_filler {
      type: "constant"
    }
  }
}
layer {
  name: "conv2_5/x2/bn"
  type: "BatchNorm"
  bottom: "conv2_5/x1"
  top: "conv2_5/x2/bn"
  batch_norm_param {
    eps: 1e-05
  }
}
layer {
  name: "conv2_5/x2/scale"
  type: "Scale"
  bottom: "conv2_5/x2/bn"
  top: "conv2_5/x2/bn"
  scale_param {
    bias_term: true
  }
}
layer {
  name: "relu2_5/x2"
  type: "ReLU"
  bottom: "conv2_5/x2/bn"
  top: "conv2_5/x2/bn"
}
layer {
  name: "conv2_5/x2"
  type: "Convolution"
  bottom: "conv2_5/x2/bn"
  top: "conv2_5/x2"
  convolution_param {
    num_output: 32
    bias_term: false
    pad: 1
    kernel_size: 3
    stride: 1
    weight_filler {
      type: "msra"
    }
    bias_filler {
      type: "constant"
    }
  }
}
layer {
  name: "concat_2_5"
  type: "Concat"
  bottom: "concat_2_4"
  bottom: "conv2_5/x2"
  top: "concat_2_5"
}
layer {
  name: "conv2_6/x1/bn"
  type: "BatchNorm"
  bottom: "concat_2_5"
  top: "conv2_6/x1/bn"
  batch_norm_param {
    eps: 1e-05
  }
}
layer {
  name: "conv2_6/x1/scale"
  type: "Scale"
  bottom: "conv2_6/x1/bn"
  top: "conv2_6/x1/bn"
  scale_param {
    bias_term: true
  }
}
layer {
  name: "relu2_6/x1"
  type: "ReLU"
  bottom: "conv2_6/x1/bn"
  top: "conv2_6/x1/bn"
}
layer {
  name: "conv2_6/x1"
  type: "Convolution"
  bottom: "conv2_6/x1/bn"
  top: "conv2_6/x1"
  convolution_param {
    num_output: 128
    bias_term: false
    pad: 0
    kernel_size: 1
    stride: 1
    weight_filler {
      type: "msra"
    }
    bias_filler {
      type: "constant"
    }
  }
}
layer {
  name: "conv2_6/x2/bn"
  type: "BatchNorm"
  bottom: "conv2_6/x1"
  top: "conv2_6/x2/bn"
  batch_norm_param {
    eps: 1e-05
  }
}
layer {
  name: "conv2_6/x2/scale"
  type: "Scale"
  bottom: "conv2_6/x2/bn"
  top: "conv2_6/x2/bn"
  scale_param {
    bias_term: true
  }
}
layer {
  name: "relu2_6/x2"
  type: "ReLU"
  bottom: "conv2_6/x2/bn"
  top: "conv2_6/x2/bn"
}
layer {
  name: "conv2_6/x2"
  type: "Convolution"
  bottom: "conv2_6/x2/bn"
  top: "conv2_6/x2"
  convolution_param {
    num_output: 32
    bias_term: false
    pad: 1
    kernel_size: 3
    stride: 1
    weight_filler {
      type: "msra"
    }
    bias_filler {
      type: "constant"
    }
  }
}
layer {
  name: "concat_2_6"
  type: "Concat"
  bottom: "concat_2_5"
  bottom: "conv2_6/x2"
  top: "concat_2_6"
}
layer {
  name: "conv2_blk/bn"
  type: "BatchNorm"
  bottom: "concat_2_6"
  top: "conv2_blk/bn"
  batch_norm_param {
    eps: 1e-05
  }
}
layer {
  name: "conv2_blk/scale"
  type: "Scale"
  bottom: "conv2_blk/bn"
  top: "conv2_blk/bn"
  scale_param {
    bias_term: true
  }
}
layer {
  name: "relu2_blk"
  type: "ReLU"
  bottom: "conv2_blk/bn"
  top: "conv2_blk/bn"
}
layer {
  name: "conv2_blk"
  type: "Convolution"
  bottom: "conv2_blk/bn"
  top: "conv2_blk"
  convolution_param {
    num_output: 128
    bias_term: false
    pad: 0
    kernel_size: 1
    stride: 1
    weight_filler {
      type: "msra"
    }
    bias_filler {
      type: "constant"
    }
  }
}
layer {
  name: "pool2"
  type: "Pooling"
  bottom: "conv2_blk"
  top: "pool2"
  pooling_param {
    pool: AVE
    kernel_size: 2
    stride: 2
  }
}
layer {
  name: "conv3_1/x1/bn"
  type: "BatchNorm"
  bottom: "pool2"
  top: "conv3_1/x1/bn"
  batch_norm_param {
    eps: 1e-05
  }
}
layer {
  name: "conv3_1/x1/scale"
  type: "Scale"
  bottom: "conv3_1/x1/bn"
  top: "conv3_1/x1/bn"
  scale_param {
    bias_term: true
  }
}
layer {
  name: "relu3_1/x1"
  type: "ReLU"
  bottom: "conv3_1/x1/bn"
  top: "conv3_1/x1/bn"
}
layer {
  name: "conv3_1/x1"
  type: "Convolution"
  bottom: "conv3_1/x1/bn"
  top: "conv3_1/x1"
  convolution_param {
    num_output: 128
    bias_term: false
    pad: 0
    kernel_size: 1
    stride: 1
    weight_filler {
      type: "msra"
    }
    bias_filler {
      type: "constant"
    }
  }
}
layer {
  name: "conv3_1/x2/bn"
  type: "BatchNorm"
  bottom: "conv3_1/x1"
  top: "conv3_1/x2/bn"
  batch_norm_param {
    eps: 1e-05
  }
}
layer {
  name: "conv3_1/x2/scale"
  type: "Scale"
  bottom: "conv3_1/x2/bn"
  top: "conv3_1/x2/bn"
  scale_param {
    bias_term: true
  }
}
layer {
  name: "relu3_1/x2"
  type: "ReLU"
  bottom: "conv3_1/x2/bn"
  top: "conv3_1/x2/bn"
}
layer {
  name: "conv3_1/x2"
  type: "Convolution"
  bottom: "conv3_1/x2/bn"
  top: "conv3_1/x2"
  convolution_param {
    num_output: 32
    bias_term: false
    pad: 1
    kernel_size: 3
    stride: 1
    weight_filler {
      type: "msra"
    }
    bias_filler {
      type: "constant"
    }
  }
}
layer {
  name: "concat_3_1"
  type: "Concat"
  bottom: "pool2"
  bottom: "conv3_1/x2"
  top: "concat_3_1"
}
layer {
  name: "conv3_2/x1/bn"
  type: "BatchNorm"
  bottom: "concat_3_1"
  top: "conv3_2/x1/bn"
  batch_norm_param {
    eps: 1e-05
  }
}
layer {
  name: "conv3_2/x1/scale"
  type: "Scale"
  bottom: "conv3_2/x1/bn"
  top: "conv3_2/x1/bn"
  scale_param {
    bias_term: true
  }
}
layer {
  name: "relu3_2/x1"
  type: "ReLU"
  bottom: "conv3_2/x1/bn"
  top: "conv3_2/x1/bn"
}
layer {
  name: "conv3_2/x1"
  type: "Convolution"
  bottom: "conv3_2/x1/bn"
  top: "conv3_2/x1"
  convolution_param {
    num_output: 128
    bias_term: false
    pad: 0
    kernel_size: 1
    stride: 1
    weight_filler {
      type: "msra"
    }
    bias_filler {
      type: "constant"
    }
  }
}
layer {
  name: "conv3_2/x2/bn"
  type: "BatchNorm"
  bottom: "conv3_2/x1"
  top: "conv3_2/x2/bn"
  batch_norm_param {
    eps: 1e-05
  }
}
layer {
  name: "conv3_2/x2/scale"
  type: "Scale"
  bottom: "conv3_2/x2/bn"
  top: "conv3_2/x2/bn"
  scale_param {
    bias_term: true
  }
}
layer {
  name: "relu3_2/x2"
  type: "ReLU"
  bottom: "conv3_2/x2/bn"
  top: "conv3_2/x2/bn"
}
layer {
  name: "conv3_2/x2"
  type: "Convolution"
  bottom: "conv3_2/x2/bn"
  top: "conv3_2/x2"
  convolution_param {
    num_output: 32
    bias_term: false
    pad: 1
    kernel_size: 3
    stride: 1
    weight_filler {
      type: "msra"
    }
    bias_filler {
      type: "constant"
    }
  }
}
layer {
  name: "concat_3_2"
  type: "Concat"
  bottom: "concat_3_1"
  bottom: "conv3_2/x2"
  top: "concat_3_2"
}
layer {
  name: "conv3_3/x1/bn"
  type: "BatchNorm"
  bottom: "concat_3_2"
  top: "conv3_3/x1/bn"
  batch_norm_param {
    eps: 1e-05
  }
}
layer {
  name: "conv3_3/x1/scale"
  type: "Scale"
  bottom: "conv3_3/x1/bn"
  top: "conv3_3/x1/bn"
  scale_param {
    bias_term: true
  }
}
layer {
  name: "relu3_3/x1"
  type: "ReLU"
  bottom: "conv3_3/x1/bn"
  top: "conv3_3/x1/bn"
}
layer {
  name: "conv3_3/x1"
  type: "Convolution"
  bottom: "conv3_3/x1/bn"
  top: "conv3_3/x1"
  convolution_param {
    num_output: 128
    bias_term: false
    pad: 0
    kernel_size: 1
    stride: 1
    weight_filler {
      type: "msra"
    }
    bias_filler {
      type: "constant"
    }
  }
}
layer {
  name: "conv3_3/x2/bn"
  type: "BatchNorm"
  bottom: "conv3_3/x1"
  top: "conv3_3/x2/bn"
  batch_norm_param {
    eps: 1e-05
  }
}
layer {
  name: "conv3_3/x2/scale"
  type: "Scale"
  bottom: "conv3_3/x2/bn"
  top: "conv3_3/x2/bn"
  scale_param {
    bias_term: true
  }
}
layer {
  name: "relu3_3/x2"
  type: "ReLU"
  bottom: "conv3_3/x2/bn"
  top: "conv3_3/x2/bn"
}
layer {
  name: "conv3_3/x2"
  type: "Convolution"
  bottom: "conv3_3/x2/bn"
  top: "conv3_3/x2"
  convolution_param {
    num_output: 32
    bias_term: false
    pad: 1
    kernel_size: 3
    stride: 1
    weight_filler {
      type: "msra"
    }
    bias_filler {
      type: "constant"
    }
  }
}
layer {
  name: "concat_3_3"
  type: "Concat"
  bottom: "concat_3_2"
  bottom: "conv3_3/x2"
  top: "concat_3_3"
}
layer {
  name: "conv3_4/x1/bn"
  type: "BatchNorm"
  bottom: "concat_3_3"
  top: "conv3_4/x1/bn"
  batch_norm_param {
    eps: 1e-05
  }
}
layer {
  name: "conv3_4/x1/scale"
  type: "Scale"
  bottom: "conv3_4/x1/bn"
  top: "conv3_4/x1/bn"
  scale_param {
    bias_term: true
  }
}
layer {
  name: "relu3_4/x1"
  type: "ReLU"
  bottom: "conv3_4/x1/bn"
  top: "conv3_4/x1/bn"
}
layer {
  name: "conv3_4/x1"
  type: "Convolution"
  bottom: "conv3_4/x1/bn"
  top: "conv3_4/x1"
  convolution_param {
    num_output: 128
    bias_term: false
    pad: 0
    kernel_size: 1
    stride: 1
    weight_filler {
      type: "msra"
    }
    bias_filler {
      type: "constant"
    }
  }
}
layer {
  name: "conv3_4/x2/bn"
  type: "BatchNorm"
  bottom: "conv3_4/x1"
  top: "conv3_4/x2/bn"
  batch_norm_param {
    eps: 1e-05
  }
}
layer {
  name: "conv3_4/x2/scale"
  type: "Scale"
  bottom: "conv3_4/x2/bn"
  top: "conv3_4/x2/bn"
  scale_param {
    bias_term: true
  }
}
layer {
  name: "relu3_4/x2"
  type: "ReLU"
  bottom: "conv3_4/x2/bn"
  top: "conv3_4/x2/bn"
}
layer {
  name: "conv3_4/x2"
  type: "Convolution"
  bottom: "conv3_4/x2/bn"
  top: "conv3_4/x2"
  convolution_param {
    num_output: 32
    bias_term: false
    pad: 1
    kernel_size: 3
    stride: 1
    weight_filler {
      type: "msra"
    }
    bias_filler {
      type: "constant"
    }
  }
}
layer {
  name: "concat_3_4"
  type: "Concat"
  bottom: "concat_3_3"
  bottom: "conv3_4/x2"
  top: "concat_3_4"
}
layer {
  name: "conv3_5/x1/bn"
  type: "BatchNorm"
  bottom: "concat_3_4"
  top: "conv3_5/x1/bn"
  batch_norm_param {
    eps: 1e-05
  }
}
layer {
  name: "conv3_5/x1/scale"
  type: "Scale"
  bottom: "conv3_5/x1/bn"
  top: "conv3_5/x1/bn"
  scale_param {
    bias_term: true
  }
}
layer {
  name: "relu3_5/x1"
  type: "ReLU"
  bottom: "conv3_5/x1/bn"
  top: "conv3_5/x1/bn"
}
layer {
  name: "conv3_5/x1"
  type: "Convolution"
  bottom: "conv3_5/x1/bn"
  top: "conv3_5/x1"
  convolution_param {
    num_output: 128
    bias_term: false
    pad: 0
    kernel_size: 1
    stride: 1
    weight_filler {
      type: "msra"
    }
    bias_filler {
      type: "constant"
    }
  }
}
layer {
  name: "conv3_5/x2/bn"
  type: "BatchNorm"
  bottom: "conv3_5/x1"
  top: "conv3_5/x2/bn"
  batch_norm_param {
    eps: 1e-05
  }
}
layer {
  name: "conv3_5/x2/scale"
  type: "Scale"
  bottom: "conv3_5/x2/bn"
  top: "conv3_5/x2/bn"
  scale_param {
    bias_term: true
  }
}
layer {
  name: "relu3_5/x2"
  type: "ReLU"
  bottom: "conv3_5/x2/bn"
  top: "conv3_5/x2/bn"
}
layer {
  name: "conv3_5/x2"
  type: "Convolution"
  bottom: "conv3_5/x2/bn"
  top: "conv3_5/x2"
  convolution_param {
    num_output: 32
    bias_term: false
    pad: 1
    kernel_size: 3
    stride: 1
    weight_filler {
      type: "msra"
    }
    bias_filler {
      type: "constant"
    }
  }
}
layer {
  name: "concat_3_5"
  type: "Concat"
  bottom: "concat_3_4"
  bottom: "conv3_5/x2"
  top: "concat_3_5"
}
layer {
  name: "conv3_6/x1/bn"
  type: "BatchNorm"
  bottom: "concat_3_5"
  top: "conv3_6/x1/bn"
  batch_norm_param {
    eps: 1e-05
  }
}
layer {
  name: "conv3_6/x1/scale"
  type: "Scale"
  bottom: "conv3_6/x1/bn"
  top: "conv3_6/x1/bn"
  scale_param {
    bias_term: true
  }
}
layer {
  name: "relu3_6/x1"
  type: "ReLU"
  bottom: "conv3_6/x1/bn"
  top: "conv3_6/x1/bn"
}
layer {
  name: "conv3_6/x1"
  type: "Convolution"
  bottom: "conv3_6/x1/bn"
  top: "conv3_6/x1"
  convolution_param {
    num_output: 128
    bias_term: false
    pad: 0
    kernel_size: 1
    stride: 1
    weight_filler {
      type: "msra"
    }
    bias_filler {
      type: "constant"
    }
  }
}
layer {
  name: "conv3_6/x2/bn"
  type: "BatchNorm"
  bottom: "conv3_6/x1"
  top: "conv3_6/x2/bn"
  batch_norm_param {
    eps: 1e-05
  }
}
layer {
  name: "conv3_6/x2/scale"
  type: "Scale"
  bottom: "conv3_6/x2/bn"
  top: "conv3_6/x2/bn"
  scale_param {
    bias_term: true
  }
}
layer {
  name: "relu3_6/x2"
  type: "ReLU"
  bottom: "conv3_6/x2/bn"
  top: "conv3_6/x2/bn"
}
layer {
  name: "conv3_6/x2"
  type: "Convolution"
  bottom: "conv3_6/x2/bn"
  top: "conv3_6/x2"
  convolution_param {
    num_output: 32
    bias_term: false
    pad: 1
    kernel_size: 3
    stride: 1
    weight_filler {
      type: "msra"
    }
    bias_filler {
      type: "constant"
    }
  }
}
layer {
  name: "concat_3_6"
  type: "Concat"
  bottom: "concat_3_5"
  bottom: "conv3_6/x2"
  top: "concat_3_6"
}
layer {
  name: "conv3_7/x1/bn"
  type: "BatchNorm"
  bottom: "concat_3_6"
  top: "conv3_7/x1/bn"
  batch_norm_param {
    eps: 1e-05
  }
}
layer {
  name: "conv3_7/x1/scale"
  type: "Scale"
  bottom: "conv3_7/x1/bn"
  top: "conv3_7/x1/bn"
  scale_param {
    bias_term: true
  }
}
layer {
  name: "relu3_7/x1"
  type: "ReLU"
  bottom: "conv3_7/x1/bn"
  top: "conv3_7/x1/bn"
}
layer {
  name: "conv3_7/x1"
  type: "Convolution"
  bottom: "conv3_7/x1/bn"
  top: "conv3_7/x1"
  convolution_param {
    num_output: 128
    bias_term: false
    pad: 0
    kernel_size: 1
    stride: 1
    weight_filler {
      type: "msra"
    }
    bias_filler {
      type: "constant"
    }
  }
}
layer {
  name: "conv3_7/x2/bn"
  type: "BatchNorm"
  bottom: "conv3_7/x1"
  top: "conv3_7/x2/bn"
  batch_norm_param {
    eps: 1e-05
  }
}
layer {
  name: "conv3_7/x2/scale"
  type: "Scale"
  bottom: "conv3_7/x2/bn"
  top: "conv3_7/x2/bn"
  scale_param {
    bias_term: true
  }
}
layer {
  name: "relu3_7/x2"
  type: "ReLU"
  bottom: "conv3_7/x2/bn"
  top: "conv3_7/x2/bn"
}
layer {
  name: "conv3_7/x2"
  type: "Convolution"
  bottom: "conv3_7/x2/bn"
  top: "conv3_7/x2"
  convolution_param {
    num_output: 32
    bias_term: false
    pad: 1
    kernel_size: 3
    stride: 1
    weight_filler {
      type: "msra"
    }
    bias_filler {
      type: "constant"
    }
  }
}
layer {
  name: "concat_3_7"
  type: "Concat"
  bottom: "concat_3_6"
  bottom: "conv3_7/x2"
  top: "concat_3_7"
}
layer {
  name: "conv3_8/x1/bn"
  type: "BatchNorm"
  bottom: "concat_3_7"
  top: "conv3_8/x1/bn"
  batch_norm_param {
    eps: 1e-05
  }
}
layer {
  name: "conv3_8/x1/scale"
  type: "Scale"
  bottom: "conv3_8/x1/bn"
  top: "conv3_8/x1/bn"
  scale_param {
    bias_term: true
  }
}
layer {
  name: "relu3_8/x1"
  type: "ReLU"
  bottom: "conv3_8/x1/bn"
  top: "conv3_8/x1/bn"
}
layer {
  name: "conv3_8/x1"
  type: "Convolution"
  bottom: "conv3_8/x1/bn"
  top: "conv3_8/x1"
  convolution_param {
    num_output: 128
    bias_term: false
    pad: 0
    kernel_size: 1
    stride: 1
    weight_filler {
      type: "msra"
    }
    bias_filler {
      type: "constant"
    }
  }
}
layer {
  name: "conv3_8/x2/bn"
  type: "BatchNorm"
  bottom: "conv3_8/x1"
  top: "conv3_8/x2/bn"
  batch_norm_param {
    eps: 1e-05
  }
}
layer {
  name: "conv3_8/x2/scale"
  type: "Scale"
  bottom: "conv3_8/x2/bn"
  top: "conv3_8/x2/bn"
  scale_param {
    bias_term: true
  }
}
layer {
  name: "relu3_8/x2"
  type: "ReLU"
  bottom: "conv3_8/x2/bn"
  top: "conv3_8/x2/bn"
}
layer {
  name: "conv3_8/x2"
  type: "Convolution"
  bottom: "conv3_8/x2/bn"
  top: "conv3_8/x2"
  convolution_param {
    num_output: 32
    bias_term: false
    pad: 1
    kernel_size: 3
    stride: 1
    weight_filler {
      type: "msra"
    }
    bias_filler {
      type: "constant"
    }
  }
}
layer {
  name: "concat_3_8"
  type: "Concat"
  bottom: "concat_3_7"
  bottom: "conv3_8/x2"
  top: "concat_3_8"
}
layer {
  name: "conv3_9/x1/bn"
  type: "BatchNorm"
  bottom: "concat_3_8"
  top: "conv3_9/x1/bn"
  batch_norm_param {
    eps: 1e-05
  }
}
layer {
  name: "conv3_9/x1/scale"
  type: "Scale"
  bottom: "conv3_9/x1/bn"
  top: "conv3_9/x1/bn"
  scale_param {
    bias_term: true
  }
}
layer {
  name: "relu3_9/x1"
  type: "ReLU"
  bottom: "conv3_9/x1/bn"
  top: "conv3_9/x1/bn"
}
layer {
  name: "conv3_9/x1"
  type: "Convolution"
  bottom: "conv3_9/x1/bn"
  top: "conv3_9/x1"
  convolution_param {
    num_output: 128
    bias_term: false
    pad: 0
    kernel_size: 1
    stride: 1
    weight_filler {
      type: "msra"
    }
    bias_filler {
      type: "constant"
    }
  }
}
layer {
  name: "conv3_9/x2/bn"
  type: "BatchNorm"
  bottom: "conv3_9/x1"
  top: "conv3_9/x2/bn"
  batch_norm_param {
    eps: 1e-05
  }
}
layer {
  name: "conv3_9/x2/scale"
  type: "Scale"
  bottom: "conv3_9/x2/bn"
  top: "conv3_9/x2/bn"
  scale_param {
    bias_term: true
  }
}
layer {
  name: "relu3_9/x2"
  type: "ReLU"
  bottom: "conv3_9/x2/bn"
  top: "conv3_9/x2/bn"
}
layer {
  name: "conv3_9/x2"
  type: "Convolution"
  bottom: "conv3_9/x2/bn"
  top: "conv3_9/x2"
  convolution_param {
    num_output: 32
    bias_term: false
    pad: 1
    kernel_size: 3
    stride: 1
    weight_filler {
      type: "msra"
    }
    bias_filler {
      type: "constant"
    }
  }
}
layer {
  name: "concat_3_9"
  type: "Concat"
  bottom: "concat_3_8"
  bottom: "conv3_9/x2"
  top: "concat_3_9"
}
layer {
  name: "conv3_10/x1/bn"
  type: "BatchNorm"
  bottom: "concat_3_9"
  top: "conv3_10/x1/bn"
  batch_norm_param {
    eps: 1e-05
  }
}
layer {
  name: "conv3_10/x1/scale"
  type: "Scale"
  bottom: "conv3_10/x1/bn"
  top: "conv3_10/x1/bn"
  scale_param {
    bias_term: true
  }
}
layer {
  name: "relu3_10/x1"
  type: "ReLU"
  bottom: "conv3_10/x1/bn"
  top: "conv3_10/x1/bn"
}
layer {
  name: "conv3_10/x1"
  type: "Convolution"
  bottom: "conv3_10/x1/bn"
  top: "conv3_10/x1"
  convolution_param {
    num_output: 128
    bias_term: false
    pad: 0
    kernel_size: 1
    stride: 1
    weight_filler {
      type: "msra"
    }
    bias_filler {
      type: "constant"
    }
  }
}
layer {
  name: "conv3_10/x2/bn"
  type: "BatchNorm"
  bottom: "conv3_10/x1"
  top: "conv3_10/x2/bn"
  batch_norm_param {
    eps: 1e-05
  }
}
layer {
  name: "conv3_10/x2/scale"
  type: "Scale"
  bottom: "conv3_10/x2/bn"
  top: "conv3_10/x2/bn"
  scale_param {
    bias_term: true
  }
}
layer {
  name: "relu3_10/x2"
  type: "ReLU"
  bottom: "conv3_10/x2/bn"
  top: "conv3_10/x2/bn"
}
layer {
  name: "conv3_10/x2"
  type: "Convolution"
  bottom: "conv3_10/x2/bn"
  top: "conv3_10/x2"
  convolution_param {
    num_output: 32
    bias_term: false
    pad: 1
    kernel_size: 3
    stride: 1
    weight_filler {
      type: "msra"
    }
    bias_filler {
      type: "constant"
    }
  }
}
layer {
  name: "concat_3_10"
  type: "Concat"
  bottom: "concat_3_9"
  bottom: "conv3_10/x2"
  top: "concat_3_10"
}
layer {
  name: "conv3_11/x1/bn"
  type: "BatchNorm"
  bottom: "concat_3_10"
  top: "conv3_11/x1/bn"
  batch_norm_param {
    eps: 1e-05
  }
}
layer {
  name: "conv3_11/x1/scale"
  type: "Scale"
  bottom: "conv3_11/x1/bn"
  top: "conv3_11/x1/bn"
  scale_param {
    bias_term: true
  }
}
layer {
  name: "relu3_11/x1"
  type: "ReLU"
  bottom: "conv3_11/x1/bn"
  top: "conv3_11/x1/bn"
}
layer {
  name: "conv3_11/x1"
  type: "Convolution"
  bottom: "conv3_11/x1/bn"
  top: "conv3_11/x1"
  convolution_param {
    num_output: 128
    bias_term: false
    pad: 0
    kernel_size: 1
    stride: 1
    weight_filler {
      type: "msra"
    }
    bias_filler {
      type: "constant"
    }
  }
}
layer {
  name: "conv3_11/x2/bn"
  type: "BatchNorm"
  bottom: "conv3_11/x1"
  top: "conv3_11/x2/bn"
  batch_norm_param {
    eps: 1e-05
  }
}
layer {
  name: "conv3_11/x2/scale"
  type: "Scale"
  bottom: "conv3_11/x2/bn"
  top: "conv3_11/x2/bn"
  scale_param {
    bias_term: true
  }
}
layer {
  name: "relu3_11/x2"
  type: "ReLU"
  bottom: "conv3_11/x2/bn"
  top: "conv3_11/x2/bn"
}
layer {
  name: "conv3_11/x2"
  type: "Convolution"
  bottom: "conv3_11/x2/bn"
  top: "conv3_11/x2"
  convolution_param {
    num_output: 32
    bias_term: false
    pad: 1
    kernel_size: 3
    stride: 1
    weight_filler {
      type: "msra"
    }
    bias_filler {
      type: "constant"
    }
  }
}
layer {
  name: "concat_3_11"
  type: "Concat"
  bottom: "concat_3_10"
  bottom: "conv3_11/x2"
  top: "concat_3_11"
}
layer {
  name: "conv3_12/x1/bn"
  type: "BatchNorm"
  bottom: "concat_3_11"
  top: "conv3_12/x1/bn"
  batch_norm_param {
    eps: 1e-05
  }
}
layer {
  name: "conv3_12/x1/scale"
  type: "Scale"
  bottom: "conv3_12/x1/bn"
  top: "conv3_12/x1/bn"
  scale_param {
    bias_term: true
  }
}
layer {
  name: "relu3_12/x1"
  type: "ReLU"
  bottom: "conv3_12/x1/bn"
  top: "conv3_12/x1/bn"
}
layer {
  name: "conv3_12/x1"
  type: "Convolution"
  bottom: "conv3_12/x1/bn"
  top: "conv3_12/x1"
  convolution_param {
    num_output: 128
    bias_term: false
    pad: 0
    kernel_size: 1
    stride: 1
    weight_filler {
      type: "msra"
    }
    bias_filler {
      type: "constant"
    }
  }
}
layer {
  name: "conv3_12/x2/bn"
  type: "BatchNorm"
  bottom: "conv3_12/x1"
  top: "conv3_12/x2/bn"
  batch_norm_param {
    eps: 1e-05
  }
}
layer {
  name: "conv3_12/x2/scale"
  type: "Scale"
  bottom: "conv3_12/x2/bn"
  top: "conv3_12/x2/bn"
  scale_param {
    bias_term: true
  }
}
layer {
  name: "relu3_12/x2"
  type: "ReLU"
  bottom: "conv3_12/x2/bn"
  top: "conv3_12/x2/bn"
}
layer {
  name: "conv3_12/x2"
  type: "Convolution"
  bottom: "conv3_12/x2/bn"
  top: "conv3_12/x2"
  convolution_param {
    num_output: 32
    bias_term: false
    pad: 1
    kernel_size: 3
    stride: 1
    weight_filler {
      type: "msra"
    }
    bias_filler {
      type: "constant"
    }
  }
}
layer {
  name: "concat_3_12"
  type: "Concat"
  bottom: "concat_3_11"
  bottom: "conv3_12/x2"
  top: "concat_3_12"
}
layer {
  name: "conv3_blk/bn"
  type: "BatchNorm"
  bottom: "concat_3_12"
  top: "conv3_blk/bn"
  batch_norm_param {
    eps: 1e-05
  }
}
layer {
  name: "conv3_blk/scale"
  type: "Scale"
  bottom: "conv3_blk/bn"
  top: "conv3_blk/bn"
  scale_param {
    bias_term: true
  }
}
layer {
  name: "relu3_blk"
  type: "ReLU"
  bottom: "conv3_blk/bn"
  top: "conv3_blk/bn"
}
layer {
  name: "conv3_blk"
  type: "Convolution"
  bottom: "conv3_blk/bn"
  top: "conv3_blk"
  convolution_param {
    num_output: 256
    bias_term: false
    pad: 0
    kernel_size: 1
    stride: 1
    weight_filler {
      type: "msra"
    }
    bias_filler {
      type: "constant"
    }
  }
}
layer {
  name: "pool3"
  type: "Pooling"
  bottom: "conv3_blk"
  top: "pool3"
  pooling_param {
    pool: AVE
    kernel_size: 2
    stride: 2
  }
}
layer {
  name: "conv4_1/x1/bn"
  type: "BatchNorm"
  bottom: "pool3"
  top: "conv4_1/x1/bn"
  batch_norm_param {
    eps: 1e-05
  }
}
layer {
  name: "conv4_1/x1/scale"
  type: "Scale"
  bottom: "conv4_1/x1/bn"
  top: "conv4_1/x1/bn"
  scale_param {
    bias_term: true
  }
}
layer {
  name: "relu4_1/x1"
  type: "ReLU"
  bottom: "conv4_1/x1/bn"
  top: "conv4_1/x1/bn"
}
layer {
  name: "conv4_1/x1"
I1201 09:29:16.317698 23278 layer_factory.hpp:77] Creating layer word_images
I1201 09:29:16.317781 23278 db_lmdb.cpp:35] Opened lmdb /data/fwolf/mintpp/gw_cv3_nti500000_pul2-3-4-5_train_word_images_lmdb
I1201 09:29:16.317808 23278 net.cpp:84] Creating Layer word_images
I1201 09:29:16.317816 23278 net.cpp:380] word_images -> word_images
I1201 09:29:16.317829 23278 net.cpp:380] word_images -> label
I1201 09:29:16.319080 23278 data_layer.cpp:44] output data size: 1,1,126,487
I1201 09:29:16.326398 23278 net.cpp:122] Setting up word_images
I1201 09:29:16.326414 23278 net.cpp:129] Top shape: 1 1 126 487 (61362)
I1201 09:29:16.326421 23278 net.cpp:129] Top shape: 1 (1)
I1201 09:29:16.326424 23278 net.cpp:137] Memory required for data: 245452
I1201 09:29:16.326431 23278 layer_factory.hpp:77] Creating layer phocs
I1201 09:29:16.326486 23278 db_lmdb.cpp:35] Opened lmdb /data/fwolf/mintpp/gw_cv3_nti500000_pul2-3-4-5_train_phocs_lmdb
I1201 09:29:16.326514 23278 net.cpp:84] Creating Layer phocs
I1201 09:29:16.326521 23278 net.cpp:380] phocs -> phocs
I1201 09:29:16.326532 23278 net.cpp:380] phocs -> label_phocs
I1201 09:29:16.326962 23278 data_layer.cpp:44] output data size: 1,1,1,604
I1201 09:29:16.329735 23278 net.cpp:122] Setting up phocs
I1201 09:29:16.329749 23278 net.cpp:129] Top shape: 1 1 1 604 (604)
I1201 09:29:16.329754 23278 net.cpp:129] Top shape: 1 (1)
I1201 09:29:16.329758 23278 net.cpp:137] Memory required for data: 247872
I1201 09:29:16.329763 23278 layer_factory.hpp:77] Creating layer conv1_grey
I1201 09:29:16.329777 23278 net.cpp:84] Creating Layer conv1_grey
I1201 09:29:16.329782 23278 net.cpp:406] conv1_grey <- word_images
I1201 09:29:16.329789 23278 net.cpp:380] conv1_grey -> conv1_grey
I1201 09:29:16.761348 23278 net.cpp:122] Setting up conv1_grey
I1201 09:29:16.761376 23278 net.cpp:129] Top shape: 1 64 63 244 (983808)
I1201 09:29:16.761380 23278 net.cpp:137] Memory required for data: 4183104
I1201 09:29:16.761392 23278 layer_factory.hpp:77] Creating layer conv1/bn
I1201 09:29:16.761401 23278 net.cpp:84] Creating Layer conv1/bn
I1201 09:29:16.761406 23278 net.cpp:406] conv1/bn <- conv1_grey
I1201 09:29:16.761412 23278 net.cpp:380] conv1/bn -> conv1/bn
I1201 09:29:16.762290 23278 net.cpp:122] Setting up conv1/bn
I1201 09:29:16.762308 23278 net.cpp:129] Top shape: 1 64 63 244 (983808)
I1201 09:29:16.762311 23278 net.cpp:137] Memory required for data: 8118336
I1201 09:29:16.762323 23278 layer_factory.hpp:77] Creating layer conv1/scale
I1201 09:29:16.762336 23278 net.cpp:84] Creating Layer conv1/scale
I1201 09:29:16.762341 23278 net.cpp:406] conv1/scale <- conv1/bn
I1201 09:29:16.762346 23278 net.cpp:367] conv1/scale -> conv1/bn (in-place)
I1201 09:29:16.762403 23278 layer_factory.hpp:77] Creating layer conv1/scale
I1201 09:29:16.762563 23278 net.cpp:122] Setting up conv1/scale
I1201 09:29:16.762569 23278 net.cpp:129] Top shape: 1 64 63 244 (983808)
I1201 09:29:16.762573 23278 net.cpp:137] Memory required for data: 12053568
I1201 09:29:16.762578 23278 layer_factory.hpp:77] Creating layer relu1
I1201 09:29:16.762583 23278 net.cpp:84] Creating Layer relu1
I1201 09:29:16.762586 23278 net.cpp:406] relu1 <- conv1/bn
I1201 09:29:16.762590 23278 net.cpp:367] relu1 -> conv1/bn (in-place)
I1201 09:29:16.762919 23278 net.cpp:122] Setting up relu1
I1201 09:29:16.762929 23278 net.cpp:129] Top shape: 1 64 63 244 (983808)
I1201 09:29:16.762933 23278 net.cpp:137] Memory required for data: 15988800
I1201 09:29:16.762935 23278 layer_factory.hpp:77] Creating layer pool1
I1201 09:29:16.762941 23278 net.cpp:84] Creating Layer pool1
I1201 09:29:16.762944 23278 net.cpp:406] pool1 <- conv1/bn
I1201 09:29:16.762948 23278 net.cpp:380] pool1 -> pool1
I1201 09:29:16.763003 23278 net.cpp:122] Setting up pool1
I1201 09:29:16.763010 23278 net.cpp:129] Top shape: 1 64 31 122 (242048)
I1201 09:29:16.763011 23278 net.cpp:137] Memory required for data: 16956992
I1201 09:29:16.763015 23278 layer_factory.hpp:77] Creating layer pool1_pool1_0_split
I1201 09:29:16.763018 23278 net.cpp:84] Creating Layer pool1_pool1_0_split
I1201 09:29:16.763021 23278 net.cpp:406] pool1_pool1_0_split <- pool1
I1201 09:29:16.763025 23278 net.cpp:380] pool1_pool1_0_split -> pool1_pool1_0_split_0
I1201 09:29:16.763031 23278 net.cpp:380] pool1_pool1_0_split -> pool1_pool1_0_split_1
I1201 09:29:16.763072 23278 net.cpp:122] Setting up pool1_pool1_0_split
I1201 09:29:16.763077 23278 net.cpp:129] Top shape: 1 64 31 122 (242048)
I1201 09:29:16.763080 23278 net.cpp:129] Top shape: 1 64 31 122 (242048)
I1201 09:29:16.763082 23278 net.cpp:137] Memory required for data: 18893376
I1201 09:29:16.763085 23278 layer_factory.hpp:77] Creating layer conv2_1/x1/bn
I1201 09:29:16.763090 23278 net.cpp:84] Creating Layer conv2_1/x1/bn
I1201 09:29:16.763093 23278 net.cpp:406] conv2_1/x1/bn <- pool1_pool1_0_split_0
I1201 09:29:16.763098 23278 net.cpp:380] conv2_1/x1/bn -> conv2_1/x1/bn
I1201 09:29:16.763368 23278 net.cpp:122] Setting up conv2_1/x1/bn
I1201 09:29:16.763375 23278 net.cpp:129] Top shape: 1 64 31 122 (242048)
I1201 09:29:16.763376 23278 net.cpp:137] Memory required for data: 19861568
I1201 09:29:16.763384 23278 layer_factory.hpp:77] Creating layer conv2_1/x1/scale
I1201 09:29:16.763389 23278 net.cpp:84] Creating Layer conv2_1/x1/scale
I1201 09:29:16.763392 23278 net.cpp:406] conv2_1/x1/scale <- conv2_1/x1/bn
I1201 09:29:16.763397 23278 net.cpp:367] conv2_1/x1/scale -> conv2_1/x1/bn (in-place)
I1201 09:29:16.763447 23278 layer_factory.hpp:77] Creating layer conv2_1/x1/scale
I1201 09:29:16.763617 23278 net.cpp:122] Setting up conv2_1/x1/scale
I1201 09:29:16.763622 23278 net.cpp:129] Top shape: 1 64 31 122 (242048)
I1201 09:29:16.763624 23278 net.cpp:137] Memory required for data: 20829760
I1201 09:29:16.763629 23278 layer_factory.hpp:77] Creating layer relu2_1/x1
I1201 09:29:16.763635 23278 net.cpp:84] Creating Layer relu2_1/x1
I1201 09:29:16.763638 23278 net.cpp:406] relu2_1/x1 <- conv2_1/x1/bn
I1201 09:29:16.763641 23278 net.cpp:367] relu2_1/x1 -> conv2_1/x1/bn (in-place)
I1201 09:29:16.763806 23278 net.cpp:122] Setting up relu2_1/x1
I1201 09:29:16.763814 23278 net.cpp:129] Top shape: 1 64 31 122 (242048)
I1201 09:29:16.763816 23278 net.cpp:137] Memory required for data: 21797952
I1201 09:29:16.763819 23278 layer_factory.hpp:77] Creating layer conv2_1/x1
I1201 09:29:16.763829 23278 net.cpp:84] Creating Layer conv2_1/x1
I1201 09:29:16.763833 23278 net.cpp:406] conv2_1/x1 <- conv2_1/x1/bn
I1201 09:29:16.763839 23278 net.cpp:380] conv2_1/x1 -> conv2_1/x1
I1201 09:29:16.765296 23278 net.cpp:122] Setting up conv2_1/x1
I1201 09:29:16.765311 23278 net.cpp:129] Top shape: 1 128 31 122 (484096)
I1201 09:29:16.765316 23278 net.cpp:137] Memory required for data: 23734336
I1201 09:29:16.765321 23278 layer_factory.hpp:77] Creating layer conv2_1/x2/bn
I1201 09:29:16.765326 23278 net.cpp:84] Creating Layer conv2_1/x2/bn
I1201 09:29:16.765329 23278 net.cpp:406] conv2_1/x2/bn <- conv2_1/x1
I1201 09:29:16.765334 23278 net.cpp:380] conv2_1/x2/bn -> conv2_1/x2/bn
I1201 09:29:16.765617 23278 net.cpp:122] Setting up conv2_1/x2/bn
I1201 09:29:16.765625 23278 net.cpp:129] Top shape: 1 128 31 122 (484096)
I1201 09:29:16.765628 23278 net.cpp:137] Memory required for data: 25670720
I1201 09:29:16.765635 23278 layer_factory.hpp:77] Creating layer conv2_1/x2/scale
I1201 09:29:16.765640 23278 net.cpp:84] Creating Layer conv2_1/x2/scale
I1201 09:29:16.765642 23278 net.cpp:406] conv2_1/x2/scale <- conv2_1/x2/bn
I1201 09:29:16.765647 23278 net.cpp:367] conv2_1/x2/scale -> conv2_1/x2/bn (in-place)
I1201 09:29:16.765697 23278 layer_factory.hpp:77] Creating layer conv2_1/x2/scale
I1201 09:29:16.765846 23278 net.cpp:122] Setting up conv2_1/x2/scale
I1201 09:29:16.765852 23278 net.cpp:129] Top shape: 1 128 31 122 (484096)
I1201 09:29:16.765854 23278 net.cpp:137] Memory required for data: 27607104
I1201 09:29:16.765861 23278 layer_factory.hpp:77] Creating layer relu2_1/x2
I1201 09:29:16.765866 23278 net.cpp:84] Creating Layer relu2_1/x2
I1201 09:29:16.765868 23278 net.cpp:406] relu2_1/x2 <- conv2_1/x2/bn
I1201 09:29:16.765872 23278 net.cpp:367] relu2_1/x2 -> conv2_1/x2/bn (in-place)
I1201 09:29:16.766204 23278 net.cpp:122] Setting up relu2_1/x2
I1201 09:29:16.766213 23278 net.cpp:129] Top shape: 1 128 31 122 (484096)
I1201 09:29:16.766216 23278 net.cpp:137] Memory required for data: 29543488
I1201 09:29:16.766219 23278 layer_factory.hpp:77] Creating layer conv2_1/x2
I1201 09:29:16.766228 23278 net.cpp:84] Creating Layer conv2_1/x2
I1201 09:29:16.766232 23278 net.cpp:406] conv2_1/x2 <- conv2_1/x2/bn
I1201 09:29:16.766235 23278 net.cpp:380] conv2_1/x2 -> conv2_1/x2
I1201 09:29:16.768899 23278 net.cpp:122] Setting up conv2_1/x2
I1201 09:29:16.768910 23278 net.cpp:129] Top shape: 1 32 31 122 (121024)
I1201 09:29:16.768913 23278 net.cpp:137] Memory required for data: 30027584
I1201 09:29:16.768918 23278 layer_factory.hpp:77] Creating layer concat_2_1
I1201 09:29:16.768925 23278 net.cpp:84] Creating Layer concat_2_1
I1201 09:29:16.768929 23278 net.cpp:406] concat_2_1 <- pool1_pool1_0_split_1
I1201 09:29:16.768932 23278 net.cpp:406] concat_2_1 <- conv2_1/x2
I1201 09:29:16.768939 23278 net.cpp:380] concat_2_1 -> concat_2_1
I1201 09:29:16.768976 23278 net.cpp:122] Setting up concat_2_1
I1201 09:29:16.768981 23278 net.cpp:129] Top shape: 1 96 31 122 (363072)
I1201 09:29:16.768985 23278 net.cpp:137] Memory required for data: 31479872
I1201 09:29:16.768986 23278 layer_factory.hpp:77] Creating layer concat_2_1_concat_2_1_0_split
I1201 09:29:16.768991 23278 net.cpp:84] Creating Layer concat_2_1_concat_2_1_0_split
I1201 09:29:16.768995 23278 net.cpp:406] concat_2_1_concat_2_1_0_split <- concat_2_1
I1201 09:29:16.768998 23278 net.cpp:380] concat_2_1_concat_2_1_0_split -> concat_2_1_concat_2_1_0_split_0
I1201 09:29:16.769003 23278 net.cpp:380] concat_2_1_concat_2_1_0_split -> concat_2_1_concat_2_1_0_split_1
I1201 09:29:16.769052 23278 net.cpp:122] Setting up concat_2_1_concat_2_1_0_split
I1201 09:29:16.769057 23278 net.cpp:129] Top shape: 1 96 31 122 (363072)
I1201 09:29:16.769060 23278 net.cpp:129] Top shape: 1 96 31 122 (363072)
I1201 09:29:16.769063 23278 net.cpp:137] Memory required for data: 34384448
I1201 09:29:16.769065 23278 layer_factory.hpp:77] Creating layer conv2_2/x1/bn
I1201 09:29:16.769070 23278 net.cpp:84] Creating Layer conv2_2/x1/bn
I1201 09:29:16.769073 23278 net.cpp:406] conv2_2/x1/bn <- concat_2_1_concat_2_1_0_split_0
I1201 09:29:16.769078 23278 net.cpp:380] conv2_2/x1/bn -> conv2_2/x1/bn
I1201 09:29:16.769364 23278 net.cpp:122] Setting up conv2_2/x1/bn
I1201 09:29:16.769371 23278 net.cpp:129] Top shape: 1 96 31 122 (363072)
I1201 09:29:16.769373 23278 net.cpp:137] Memory required for data: 35836736
I1201 09:29:16.769383 23278 layer_factory.hpp:77] Creating layer conv2_2/x1/scale
I1201 09:29:16.769388 23278 net.cpp:84] Creating Layer conv2_2/x1/scale
I1201 09:29:16.769392 23278 net.cpp:406] conv2_2/x1/scale <- conv2_2/x1/bn
I1201 09:29:16.769394 23278 net.cpp:367] conv2_2/x1/scale -> conv2_2/x1/bn (in-place)
I1201 09:29:16.769445 23278 layer_factory.hpp:77] Creating layer conv2_2/x1/scale
I1201 09:29:16.769613 23278 net.cpp:122] Setting up conv2_2/x1/scale
I1201 09:29:16.769619 23278 net.cpp:129] Top shape: 1 96 31 122 (363072)
I1201 09:29:16.769623 23278 net.cpp:137] Memory required for data: 37289024
I1201 09:29:16.769626 23278 layer_factory.hpp:77] Creating layer relu2_2/x1
I1201 09:29:16.769631 23278 net.cpp:84] Creating Layer relu2_2/x1
I1201 09:29:16.769634 23278 net.cpp:406] relu2_2/x1 <- conv2_2/x1/bn
I1201 09:29:16.769637 23278 net.cpp:367] relu2_2/x1 -> conv2_2/x1/bn (in-place)
I1201 09:29:16.769805 23278 net.cpp:122] Setting up relu2_2/x1
I1201 09:29:16.769814 23278 net.cpp:129] Top shape: 1 96 31 122 (363072)
I1201 09:29:16.769816 23278 net.cpp:137] Memory required for data: 38741312
I1201 09:29:16.769819 23278 layer_factory.hpp:77] Creating layer conv2_2/x1
I1201 09:29:16.769827 23278 net.cpp:84] Creating Layer conv2_2/x1
I1201 09:29:16.769830 23278 net.cpp:406] conv2_2/x1 <- conv2_2/x1/bn
I1201 09:29:16.769835 23278 net.cpp:380] conv2_2/x1 -> conv2_2/x1
I1201 09:29:16.771217 23278 net.cpp:122] Setting up conv2_2/x1
I1201 09:29:16.771229 23278 net.cpp:129] Top shape: 1 128 31 122 (484096)
I1201 09:29:16.771231 23278 net.cpp:137] Memory required for data: 40677696
I1201 09:29:16.771235 23278 layer_factory.hpp:77] Creating layer conv2_2/x2/bn
I1201 09:29:16.771242 23278 net.cpp:84] Creating Layer conv2_2/x2/bn
I1201 09:29:16.771245 23278 net.cpp:406] conv2_2/x2/bn <- conv2_2/x1
I1201 09:29:16.771251 23278 net.cpp:380] conv2_2/x2/bn -> conv2_2/x2/bn
I1201 09:29:16.771534 23278 net.cpp:122] Setting up conv2_2/x2/bn
I1201 09:29:16.771540 23278 net.cpp:129] Top shape: 1 128 31 122 (484096)
I1201 09:29:16.771543 23278 net.cpp:137] Memory required for data: 42614080
I1201 09:29:16.771549 23278 layer_factory.hpp:77] Creating layer conv2_2/x2/scale
I1201 09:29:16.771554 23278 net.cpp:84] Creating Layer conv2_2/x2/scale
I1201 09:29:16.771558 23278 net.cpp:406] conv2_2/x2/scale <- conv2_2/x2/bn
I1201 09:29:16.771562 23278 net.cpp:367] conv2_2/x2/scale -> conv2_2/x2/bn (in-place)
I1201 09:29:16.771615 23278 layer_factory.hpp:77] Creating layer conv2_2/x2/scale
I1201 09:29:16.771777 23278 net.cpp:122] Setting up conv2_2/x2/scale
I1201 09:29:16.771783 23278 net.cpp:129] Top shape: 1 128 31 122 (484096)
I1201 09:29:16.771786 23278 net.cpp:137] Memory required for data: 44550464
I1201 09:29:16.771790 23278 layer_factory.hpp:77] Creating layer relu2_2/x2
I1201 09:29:16.771795 23278 net.cpp:84] Creating Layer relu2_2/x2
I1201 09:29:16.771798 23278 net.cpp:406] relu2_2/x2 <- conv2_2/x2/bn
I1201 09:29:16.771803 23278 net.cpp:367] relu2_2/x2 -> conv2_2/x2/bn (in-place)
I1201 09:29:16.772131 23278 net.cpp:122] Setting up relu2_2/x2
I1201 09:29:16.772140 23278 net.cpp:129] Top shape: 1 128 31 122 (484096)
I1201 09:29:16.772143 23278 net.cpp:137] Memory required for data: 46486848
I1201 09:29:16.772146 23278 layer_factory.hpp:77] Creating layer conv2_2/x2
I1201 09:29:16.772156 23278 net.cpp:84] Creating Layer conv2_2/x2
I1201 09:29:16.772158 23278 net.cpp:406] conv2_2/x2 <- conv2_2/x2/bn
I1201 09:29:16.772163 23278 net.cpp:380] conv2_2/x2 -> conv2_2/x2
I1201 09:29:16.774267 23278 net.cpp:122] Setting up conv2_2/x2
I1201 09:29:16.774278 23278 net.cpp:129] Top shape: 1 32 31 122 (121024)
I1201 09:29:16.774281 23278 net.cpp:137] Memory required for data: 46970944
I1201 09:29:16.774286 23278 layer_factory.hpp:77] Creating layer concat_2_2
I1201 09:29:16.774292 23278 net.cpp:84] Creating Layer concat_2_2
I1201 09:29:16.774296 23278 net.cpp:406] concat_2_2 <- concat_2_1_concat_2_1_0_split_1
I1201 09:29:16.774299 23278 net.cpp:406] concat_2_2 <- conv2_2/x2
I1201 09:29:16.774303 23278 net.cpp:380] concat_2_2 -> concat_2_2
I1201 09:29:16.774343 23278 net.cpp:122] Setting up concat_2_2
I1201 09:29:16.774348 23278 net.cpp:129] Top shape: 1 128 31 122 (484096)
I1201 09:29:16.774350 23278 net.cpp:137] Memory required for data: 48907328
I1201 09:29:16.774353 23278 layer_factory.hpp:77] Creating layer concat_2_2_concat_2_2_0_split
I1201 09:29:16.774358 23278 net.cpp:84] Creating Layer concat_2_2_concat_2_2_0_split
I1201 09:29:16.774361 23278 net.cpp:406] concat_2_2_concat_2_2_0_split <- concat_2_2
I1201 09:29:16.774365 23278 net.cpp:380] concat_2_2_concat_2_2_0_split -> concat_2_2_concat_2_2_0_split_0
I1201 09:29:16.774371 23278 net.cpp:380] concat_2_2_concat_2_2_0_split -> concat_2_2_concat_2_2_0_split_1
I1201 09:29:16.774420 23278 net.cpp:122] Setting up concat_2_2_concat_2_2_0_split
I1201 09:29:16.774425 23278 net.cpp:129] Top shape: 1 128 31 122 (484096)
I1201 09:29:16.774428 23278 net.cpp:129] Top shape: 1 128 31 122 (484096)
I1201 09:29:16.774430 23278 net.cpp:137] Memory required for data: 52780096
I1201 09:29:16.774433 23278 layer_factory.hpp:77] Creating layer conv2_3/x1/bn
I1201 09:29:16.774438 23278 net.cpp:84] Creating Layer conv2_3/x1/bn
I1201 09:29:16.774441 23278 net.cpp:406] conv2_3/x1/bn <- concat_2_2_concat_2_2_0_split_0
I1201 09:29:16.774446 23278 net.cpp:380] conv2_3/x1/bn -> conv2_3/x1/bn
I1201 09:29:16.774718 23278 net.cpp:122] Setting up conv2_3/x1/bn
I1201 09:29:16.774724 23278 net.cpp:129] Top shape: 1 128 31 122 (484096)
I1201 09:29:16.774725 23278 net.cpp:137] Memory required for data: 54716480
I1201 09:29:16.774735 23278 layer_factory.hpp:77] Creating layer conv2_3/x1/scale
I1201 09:29:16.774740 23278 net.cpp:84] Creating Layer conv2_3/x1/scale
I1201 09:29:16.774744 23278 net.cpp:406] conv2_3/x1/scale <- conv2_3/x1/bn
I1201 09:29:16.774747 23278 net.cpp:367] conv2_3/x1/scale -> conv2_3/x1/bn (in-place)
I1201 09:29:16.774799 23278 layer_factory.hpp:77] Creating layer conv2_3/x1/scale
I1201 09:29:16.774953 23278 net.cpp:122] Setting up conv2_3/x1/scale
I1201 09:29:16.774960 23278 net.cpp:129] Top shape: 1 128 31 122 (484096)
I1201 09:29:16.774962 23278 net.cpp:137] Memory required for data: 56652864
I1201 09:29:16.774966 23278 layer_factory.hpp:77] Creating layer relu2_3/x1
I1201 09:29:16.774971 23278 net.cpp:84] Creating Layer relu2_3/x1
I1201 09:29:16.774973 23278 net.cpp:406] relu2_3/x1 <- conv2_3/x1/bn
I1201 09:29:16.774978 23278 net.cpp:367] relu2_3/x1 -> conv2_3/x1/bn (in-place)
I1201 09:29:16.775310 23278 net.cpp:122] Setting up relu2_3/x1
I1201 09:29:16.775321 23278 net.cpp:129] Top shape: 1 128 31 122 (484096)
I1201 09:29:16.775323 23278 net.cpp:137] Memory required for data: 58589248
I1201 09:29:16.775326 23278 layer_factory.hpp:77] Creating layer conv2_3/x1
I1201 09:29:16.775336 23278 net.cpp:84] Creating Layer conv2_3/x1
I1201 09:29:16.775338 23278 net.cpp:406] conv2_3/x1 <- conv2_3/x1/bn
I1201 09:29:16.775344 23278 net.cpp:380] conv2_3/x1 -> conv2_3/x1
I1201 09:29:16.776837 23278 net.cpp:122] Setting up conv2_3/x1
I1201 09:29:16.776849 23278 net.cpp:129] Top shape: 1 128 31 122 (484096)
I1201 09:29:16.776851 23278 net.cpp:137] Memory required for data: 60525632
I1201 09:29:16.776856 23278 layer_factory.hpp:77] Creating layer conv2_3/x2/bn
I1201 09:29:16.776865 23278 net.cpp:84] Creating Layer conv2_3/x2/bn
I1201 09:29:16.776868 23278 net.cpp:406] conv2_3/x2/bn <- conv2_3/x1
I1201 09:29:16.776872 23278 net.cpp:380] conv2_3/x2/bn -> conv2_3/x2/bn
I1201 09:29:16.777160 23278 net.cpp:122] Setting up conv2_3/x2/bn
I1201 09:29:16.777166 23278 net.cpp:129] Top shape: 1 128 31 122 (484096)
I1201 09:29:16.777169 23278 net.cpp:137] Memory required for data: 62462016
I1201 09:29:16.777175 23278 layer_factory.hpp:77] Creating layer conv2_3/x2/scale
I1201 09:29:16.777180 23278 net.cpp:84] Creating Layer conv2_3/x2/scale
I1201 09:29:16.777184 23278 net.cpp:406] conv2_3/x2/scale <- conv2_3/x2/bn
I1201 09:29:16.777187 23278 net.cpp:367] conv2_3/x2/scale -> conv2_3/x2/bn (in-place)
I1201 09:29:16.777240 23278 layer_factory.hpp:77] Creating layer conv2_3/x2/scale
I1201 09:29:16.777395 23278 net.cpp:122] Setting up conv2_3/x2/scale
I1201 09:29:16.777405 23278 net.cpp:129] Top shape: 1 128 31 122 (484096)
I1201 09:29:16.777406 23278 net.cpp:137] Memory required for data: 64398400
I1201 09:29:16.777411 23278 layer_factory.hpp:77] Creating layer relu2_3/x2
I1201 09:29:16.777417 23278 net.cpp:84] Creating Layer relu2_3/x2
I1201 09:29:16.777420 23278 net.cpp:406] relu2_3/x2 <- conv2_3/x2/bn
I1201 09:29:16.777423 23278 net.cpp:367] relu2_3/x2 -> conv2_3/x2/bn (in-place)
I1201 09:29:16.777595 23278 net.cpp:122] Setting up relu2_3/x2
I1201 09:29:16.777601 23278 net.cpp:129] Top shape: 1 128 31 122 (484096)
I1201 09:29:16.777604 23278 net.cpp:137] Memory required for data: 66334784
I1201 09:29:16.777607 23278 layer_factory.hpp:77] Creating layer conv2_3/x2
I1201 09:29:16.777616 23278 net.cpp:84] Creating Layer conv2_3/x2
I1201 09:29:16.777618 23278 net.cpp:406] conv2_3/x2 <- conv2_3/x2/bn
I1201 09:29:16.777623 23278 net.cpp:380] conv2_3/x2 -> conv2_3/x2
I1201 09:29:16.779728 23278 net.cpp:122] Setting up conv2_3/x2
I1201 09:29:16.779738 23278 net.cpp:129] Top shape: 1 32 31 122 (121024)
I1201 09:29:16.779742 23278 net.cpp:137] Memory required for data: 66818880
I1201 09:29:16.779752 23278 layer_factory.hpp:77] Creating layer concat_2_3
I1201 09:29:16.779757 23278 net.cpp:84] Creating Layer concat_2_3
I1201 09:29:16.779762 23278 net.cpp:406] concat_2_3 <- concat_2_2_concat_2_2_0_split_1
I1201 09:29:16.779765 23278 net.cpp:406] concat_2_3 <- conv2_3/x2
I1201 09:29:16.779770 23278 net.cpp:380] concat_2_3 -> concat_2_3
I1201 09:29:16.779808 23278 net.cpp:122] Setting up concat_2_3
I1201 09:29:16.779812 23278 net.cpp:129] Top shape: 1 160 31 122 (605120)
I1201 09:29:16.779815 23278 net.cpp:137] Memory required for data: 69239360
I1201 09:29:16.779819 23278 layer_factory.hpp:77] Creating layer concat_2_3_concat_2_3_0_split
I1201 09:29:16.779822 23278 net.cpp:84] Creating Layer concat_2_3_concat_2_3_0_split
I1201 09:29:16.779824 23278 net.cpp:406] concat_2_3_concat_2_3_0_split <- concat_2_3
I1201 09:29:16.779829 23278 net.cpp:380] concat_2_3_concat_2_3_0_split -> concat_2_3_concat_2_3_0_split_0
I1201 09:29:16.779834 23278 net.cpp:380] concat_2_3_concat_2_3_0_split -> concat_2_3_concat_2_3_0_split_1
I1201 09:29:16.779883 23278 net.cpp:122] Setting up concat_2_3_concat_2_3_0_split
I1201 09:29:16.779888 23278 net.cpp:129] Top shape: 1 160 31 122 (605120)
I1201 09:29:16.779892 23278 net.cpp:129] Top shape: 1 160 31 122 (605120)
I1201 09:29:16.779894 23278 net.cpp:137] Memory required for data: 74080320
I1201 09:29:16.779896 23278 layer_factory.hpp:77] Creating layer conv2_4/x1/bn
I1201 09:29:16.779901 23278 net.cpp:84] Creating Layer conv2_4/x1/bn
I1201 09:29:16.779904 23278 net.cpp:406] conv2_4/x1/bn <- concat_2_3_concat_2_3_0_split_0
I1201 09:29:16.779908 23278 net.cpp:380] conv2_4/x1/bn -> conv2_4/x1/bn
I1201 09:29:16.780198 23278 net.cpp:122] Setting up conv2_4/x1/bn
I1201 09:29:16.780205 23278 net.cpp:129] Top shape: 1 160 31 122 (605120)
I1201 09:29:16.780206 23278 net.cpp:137] Memory required for data: 76500800
I1201 09:29:16.780212 23278 layer_factory.hpp:77] Creating layer conv2_4/x1/scale
I1201 09:29:16.780218 23278 net.cpp:84] Creating Layer conv2_4/x1/scale
I1201 09:29:16.780221 23278 net.cpp:406] conv2_4/x1/scale <- conv2_4/x1/bn
I1201 09:29:16.780225 23278 net.cpp:367] conv2_4/x1/scale -> conv2_4/x1/bn (in-place)
I1201 09:29:16.780275 23278 layer_factory.hpp:77] Creating layer conv2_4/x1/scale
I1201 09:29:16.780442 23278 net.cpp:122] Setting up conv2_4/x1/scale
I1201 09:29:16.780449 23278 net.cpp:129] Top shape: 1 160 31 122 (605120)
I1201 09:29:16.780452 23278 net.cpp:137] Memory required for data: 78921280
I1201 09:29:16.780457 23278 layer_factory.hpp:77] Creating layer relu2_4/x1
I1201 09:29:16.780460 23278 net.cpp:84] Creating Layer relu2_4/x1
I1201 09:29:16.780463 23278 net.cpp:406] relu2_4/x1 <- conv2_4/x1/bn
I1201 09:29:16.780467 23278 net.cpp:367] relu2_4/x1 -> conv2_4/x1/bn (in-place)
I1201 09:29:16.780800 23278 net.cpp:122] Setting up relu2_4/x1
I1201 09:29:16.780812 23278 net.cpp:129] Top shape: 1 160 31 122 (605120)
I1201 09:29:16.780817 23278 net.cpp:137] Memory required for data: 81341760
I1201 09:29:16.780820 23278 layer_factory.hpp:77] Creating layer conv2_4/x1
I1201 09:29:16.780827 23278 net.cpp:84] Creating Layer conv2_4/x1
I1201 09:29:16.780830 23278 net.cpp:406] conv2_4/x1 <- conv2_4/x1/bn
I1201 09:29:16.780836 23278 net.cpp:380] conv2_4/x1 -> conv2_4/x1
I1201 09:29:16.782560 23278 net.cpp:122] Setting up conv2_4/x1
I1201 09:29:16.782572 23278 net.cpp:129] Top shape: 1 128 31 122 (484096)
I1201 09:29:16.782574 23278 net.cpp:137] Memory required for data: 83278144
I1201 09:29:16.782578 23278 layer_factory.hpp:77] Creating layer conv2_4/x2/bn
I1201 09:29:16.782585 23278 net.cpp:84] Creating Layer conv2_4/x2/bn
I1201 09:29:16.782588 23278 net.cpp:406] conv2_4/x2/bn <- conv2_4/x1
I1201 09:29:16.782593 23278 net.cpp:380] conv2_4/x2/bn -> conv2_4/x2/bn
I1201 09:29:16.782883 23278 net.cpp:122] Setting up conv2_4/x2/bn
I1201 09:29:16.782891 23278 net.cpp:129] Top shape: 1 128 31 122 (484096)
I1201 09:29:16.782892 23278 net.cpp:137] Memory required for data: 85214528
I1201 09:29:16.782898 23278 layer_factory.hpp:77] Creating layer conv2_4/x2/scale
I1201 09:29:16.782905 23278 net.cpp:84] Creating Layer conv2_4/x2/scale
I1201 09:29:16.782908 23278 net.cpp:406] conv2_4/x2/scale <- conv2_4/x2/bn
I1201 09:29:16.782913 23278 net.cpp:367] conv2_4/x2/scale -> conv2_4/x2/bn (in-place)
I1201 09:29:16.782964 23278 layer_factory.hpp:77] Creating layer conv2_4/x2/scale
I1201 09:29:16.783120 23278 net.cpp:122] Setting up conv2_4/x2/scale
I1201 09:29:16.783126 23278 net.cpp:129] Top shape: 1 128 31 122 (484096)
I1201 09:29:16.783129 23278 net.cpp:137] Memory required for data: 87150912
I1201 09:29:16.783133 23278 layer_factory.hpp:77] Creating layer relu2_4/x2
I1201 09:29:16.783138 23278 net.cpp:84] Creating Layer relu2_4/x2
I1201 09:29:16.783140 23278 net.cpp:406] relu2_4/x2 <- conv2_4/x2/bn
I1201 09:29:16.783145 23278 net.cpp:367] relu2_4/x2 -> conv2_4/x2/bn (in-place)
I1201 09:29:16.783311 23278 net.cpp:122] Setting up relu2_4/x2
I1201 09:29:16.783319 23278 net.cpp:129] Top shape: 1 128 31 122 (484096)
I1201 09:29:16.783321 23278 net.cpp:137] Memory required for data: 89087296
I1201 09:29:16.783324 23278 layer_factory.hpp:77] Creating layer conv2_4/x2
I1201 09:29:16.783332 23278 net.cpp:84] Creating Layer conv2_4/x2
I1201 09:29:16.783335 23278 net.cpp:406] conv2_4/x2 <- conv2_4/x2/bn
I1201 09:29:16.783341 23278 net.cpp:380] conv2_4/x2 -> conv2_4/x2
I1201 09:29:16.785455 23278 net.cpp:122] Setting up conv2_4/x2
I1201 09:29:16.785465 23278 net.cpp:129] Top shape: 1 32 31 122 (121024)
I1201 09:29:16.785468 23278 net.cpp:137] Memory required for data: 89571392
I1201 09:29:16.785473 23278 layer_factory.hpp:77] Creating layer concat_2_4
I1201 09:29:16.785480 23278 net.cpp:84] Creating Layer concat_2_4
I1201 09:29:16.785482 23278 net.cpp:406] concat_2_4 <- concat_2_3_concat_2_3_0_split_1
I1201 09:29:16.785486 23278 net.cpp:406] concat_2_4 <- conv2_4/x2
I1201 09:29:16.785490 23278 net.cpp:380] concat_2_4 -> concat_2_4
I1201 09:29:16.785529 23278 net.cpp:122] Setting up concat_2_4
I1201 09:29:16.785534 23278 net.cpp:129] Top shape: 1 192 31 122 (726144)
I1201 09:29:16.785537 23278 net.cpp:137] Memory required for data: 92475968
I1201 09:29:16.785540 23278 layer_factory.hpp:77] Creating layer concat_2_4_concat_2_4_0_split
I1201 09:29:16.785544 23278 net.cpp:84] Creating Layer concat_2_4_concat_2_4_0_split
I1201 09:29:16.785547 23278 net.cpp:406] concat_2_4_concat_2_4_0_split <- concat_2_4
I1201 09:29:16.785552 23278 net.cpp:380] concat_2_4_concat_2_4_0_split -> concat_2_4_concat_2_4_0_split_0
I1201 09:29:16.785557 23278 net.cpp:380] concat_2_4_concat_2_4_0_split -> concat_2_4_concat_2_4_0_split_1
I1201 09:29:16.785606 23278 net.cpp:122] Setting up concat_2_4_concat_2_4_0_split
I1201 09:29:16.785610 23278 net.cpp:129] Top shape: 1 192 31 122 (726144)
I1201 09:29:16.785614 23278 net.cpp:129] Top shape: 1 192 31 122 (726144)
I1201 09:29:16.785616 23278 net.cpp:137] Memory required for data: 98285120
I1201 09:29:16.785619 23278 layer_factory.hpp:77] Creating layer conv2_5/x1/bn
I1201 09:29:16.785624 23278 net.cpp:84] Creating Layer conv2_5/x1/bn
I1201 09:29:16.785627 23278 net.cpp:406] conv2_5/x1/bn <- concat_2_4_concat_2_4_0_split_0
I1201 09:29:16.785632 23278 net.cpp:380] conv2_5/x1/bn -> conv2_5/x1/bn
I1201 09:29:16.785933 23278 net.cpp:122] Setting up conv2_5/x1/bn
I1201 09:29:16.785940 23278 net.cpp:129] Top shape: 1 192 31 122 (726144)
I1201 09:29:16.785943 23278 net.cpp:137] Memory required for data: 101189696
I1201 09:29:16.785949 23278 layer_factory.hpp:77] Creating layer conv2_5/x1/scale
I1201 09:29:16.785953 23278 net.cpp:84] Creating Layer conv2_5/x1/scale
I1201 09:29:16.785956 23278 net.cpp:406] conv2_5/x1/scale <- conv2_5/x1/bn
I1201 09:29:16.785961 23278 net.cpp:367] conv2_5/x1/scale -> conv2_5/x1/bn (in-place)
I1201 09:29:16.786015 23278 layer_factory.hpp:77] Creating layer conv2_5/x1/scale
I1201 09:29:16.786185 23278 net.cpp:122] Setting up conv2_5/x1/scale
I1201 09:29:16.786190 23278 net.cpp:129] Top shape: 1 192 31 122 (726144)
I1201 09:29:16.786193 23278 net.cpp:137] Memory required for data: 104094272
I1201 09:29:16.786197 23278 layer_factory.hpp:77] Creating layer relu2_5/x1
I1201 09:29:16.786202 23278 net.cpp:84] Creating Layer relu2_5/x1
I1201 09:29:16.786206 23278 net.cpp:406] relu2_5/x1 <- conv2_5/x1/bn
I1201 09:29:16.786208 23278 net.cpp:367] relu2_5/x1 -> conv2_5/x1/bn (in-place)
I1201 09:29:16.786541 23278 net.cpp:122] Setting up relu2_5/x1
I1201 09:29:16.786551 23278 net.cpp:129] Top shape: 1 192 31 122 (726144)
I1201 09:29:16.786554 23278 net.cpp:137] Memory required for data: 106998848
I1201 09:29:16.786558 23278 layer_factory.hpp:77] Creating layer conv2_5/x1
I1201 09:29:16.786566 23278 net.cpp:84] Creating Layer conv2_5/x1
I1201 09:29:16.786568 23278 net.cpp:406] conv2_5/x1 <- conv2_5/x1/bn
I1201 09:29:16.786574 23278 net.cpp:380] conv2_5/x1 -> conv2_5/x1
I1201 09:29:16.788259 23278 net.cpp:122] Setting up conv2_5/x1
I1201 09:29:16.788269 23278 net.cpp:129] Top shape: 1 128 31 122 (484096)
I1201 09:29:16.788272 23278 net.cpp:137] Memory required for data: 108935232
I1201 09:29:16.788277 23278 layer_factory.hpp:77] Creating layer conv2_5/x2/bn
I1201 09:29:16.788283 23278 net.cpp:84] Creating Layer conv2_5/x2/bn
I1201 09:29:16.788286 23278 net.cpp:406] conv2_5/x2/bn <- conv2_5/x1
I1201 09:29:16.788291 23278 net.cpp:380] conv2_5/x2/bn -> conv2_5/x2/bn
I1201 09:29:16.788589 23278 net.cpp:122] Setting up conv2_5/x2/bn
I1201 09:29:16.788595 23278 net.cpp:129] Top shape: 1 128 31 122 (484096)
I1201 09:29:16.788599 23278 net.cpp:137] Memory required for data: 110871616
I1201 09:29:16.788604 23278 layer_factory.hpp:77] Creating layer conv2_5/x2/scale
I1201 09:29:16.788609 23278 net.cpp:84] Creating Layer conv2_5/x2/scale
I1201 09:29:16.788612 23278 net.cpp:406] conv2_5/x2/scale <- conv2_5/x2/bn
I1201 09:29:16.788616 23278 net.cpp:367] conv2_5/x2/scale -> conv2_5/x2/bn (in-place)
I1201 09:29:16.788671 23278 layer_factory.hpp:77] Creating layer conv2_5/x2/scale
I1201 09:29:16.788831 23278 net.cpp:122] Setting up conv2_5/x2/scale
I1201 09:29:16.788837 23278 net.cpp:129] Top shape: 1 128 31 122 (484096)
I1201 09:29:16.788841 23278 net.cpp:137] Memory required for data: 112808000
I1201 09:29:16.788848 23278 layer_factory.hpp:77] Creating layer relu2_5/x2
I1201 09:29:16.788856 23278 net.cpp:84] Creating Layer relu2_5/x2
I1201 09:29:16.788858 23278 net.cpp:406] relu2_5/x2 <- conv2_5/x2/bn
I1201 09:29:16.788861 23278 net.cpp:367] relu2_5/x2 -> conv2_5/x2/bn (in-place)
I1201 09:29:16.789186 23278 net.cpp:122] Setting up relu2_5/x2
I1201 09:29:16.789196 23278 net.cpp:129] Top shape: 1 128 31 122 (484096)
I1201 09:29:16.789198 23278 net.cpp:137] Memory required for data: 114744384
I1201 09:29:16.789201 23278 layer_factory.hpp:77] Creating layer conv2_5/x2
I1201 09:29:16.789211 23278 net.cpp:84] Creating Layer conv2_5/x2
I1201 09:29:16.789214 23278 net.cpp:406] conv2_5/x2 <- conv2_5/x2/bn
I1201 09:29:16.789219 23278 net.cpp:380] conv2_5/x2 -> conv2_5/x2
I1201 09:29:16.791363 23278 net.cpp:122] Setting up conv2_5/x2
I1201 09:29:16.791375 23278 net.cpp:129] Top shape: 1 32 31 122 (121024)
I1201 09:29:16.791380 23278 net.cpp:137] Memory required for data: 115228480
I1201 09:29:16.791386 23278 layer_factory.hpp:77] Creating layer concat_2_5
I1201 09:29:16.791393 23278 net.cpp:84] Creating Layer concat_2_5
I1201 09:29:16.791396 23278 net.cpp:406] concat_2_5 <- concat_2_4_concat_2_4_0_split_1
I1201 09:29:16.791400 23278 net.cpp:406] concat_2_5 <- conv2_5/x2
I1201 09:29:16.791404 23278 net.cpp:380] concat_2_5 -> concat_2_5
I1201 09:29:16.791445 23278 net.cpp:122] Setting up concat_2_5
I1201 09:29:16.791450 23278 net.cpp:129] Top shape: 1 224 31 122 (847168)
I1201 09:29:16.791452 23278 net.cpp:137] Memory required for data: 118617152
I1201 09:29:16.791455 23278 layer_factory.hpp:77] Creating layer concat_2_5_concat_2_5_0_split
I1201 09:29:16.791460 23278 net.cpp:84] Creating Layer concat_2_5_concat_2_5_0_split
I1201 09:29:16.791463 23278 net.cpp:406] concat_2_5_concat_2_5_0_split <- concat_2_5
I1201 09:29:16.791467 23278 net.cpp:380] concat_2_5_concat_2_5_0_split -> concat_2_5_concat_2_5_0_split_0
I1201 09:29:16.791472 23278 net.cpp:380] concat_2_5_concat_2_5_0_split -> concat_2_5_concat_2_5_0_split_1
I1201 09:29:16.791522 23278 net.cpp:122] Setting up concat_2_5_concat_2_5_0_split
I1201 09:29:16.791527 23278 net.cpp:129] Top shape: 1 224 31 122 (847168)
I1201 09:29:16.791532 23278 net.cpp:129] Top shape: 1 224 31 122 (847168)
I1201 09:29:16.791533 23278 net.cpp:137] Memory required for data: 125394496
I1201 09:29:16.791535 23278 layer_factory.hpp:77] Creating layer conv2_6/x1/bn
I1201 09:29:16.791540 23278 net.cpp:84] Creating Layer conv2_6/x1/bn
I1201 09:29:16.791543 23278 net.cpp:406] conv2_6/x1/bn <- concat_2_5_concat_2_5_0_split_0
I1201 09:29:16.791548 23278 net.cpp:380] conv2_6/x1/bn -> conv2_6/x1/bn
I1201 09:29:16.791865 23278 net.cpp:122] Setting up conv2_6/x1/bn
I1201 09:29:16.791874 23278 net.cpp:129] Top shape: 1 224 31 122 (847168)
I1201 09:29:16.791877 23278 net.cpp:137] Memory required for data: 128783168
I1201 09:29:16.791883 23278 layer_factory.hpp:77] Creating layer conv2_6/x1/scale
I1201 09:29:16.791888 23278 net.cpp:84] Creating Layer conv2_6/x1/scale
I1201 09:29:16.791891 23278 net.cpp:406] conv2_6/x1/scale <- conv2_6/x1/bn
I1201 09:29:16.791896 23278 net.cpp:367] conv2_6/x1/scale -> conv2_6/x1/bn (in-place)
I1201 09:29:16.791951 23278 layer_factory.hpp:77] Creating layer conv2_6/x1/scale
I1201 09:29:16.792131 23278 net.cpp:122] Setting up conv2_6/x1/scale
I1201 09:29:16.792137 23278 net.cpp:129] Top shape: 1 224 31 122 (847168)
I1201 09:29:16.792140 23278 net.cpp:137] Memory required for data: 132171840
I1201 09:29:16.792145 23278 layer_factory.hpp:77] Creating layer relu2_6/x1
I1201 09:29:16.792148 23278 net.cpp:84] Creating Layer relu2_6/x1
I1201 09:29:16.792151 23278 net.cpp:406] relu2_6/x1 <- conv2_6/x1/bn
I1201 09:29:16.792156 23278 net.cpp:367] relu2_6/x1 -> conv2_6/x1/bn (in-place)
I1201 09:29:16.792325 23278 net.cpp:122] Setting up relu2_6/x1
I1201 09:29:16.792332 23278 net.cpp:129] Top shape: 1 224 31 122 (847168)
I1201 09:29:16.792336 23278 net.cpp:137] Memory required for data: 135560512
I1201 09:29:16.792340 23278 layer_factory.hpp:77] Creating layer conv2_6/x1
I1201 09:29:16.792346 23278 net.cpp:84] Creating Layer conv2_6/x1
I1201 09:29:16.792349 23278 net.cpp:406] conv2_6/x1 <- conv2_6/x1/bn
I1201 09:29:16.792356 23278 net.cpp:380] conv2_6/x1 -> conv2_6/x1
I1201 09:29:16.794185 23278 net.cpp:122] Setting up conv2_6/x1
I1201 09:29:16.794204 23278 net.cpp:129] Top shape: 1 128 31 122 (484096)
I1201 09:29:16.794208 23278 net.cpp:137] Memory required for data: 137496896
I1201 09:29:16.794214 23278 layer_factory.hpp:77] Creating layer conv2_6/x2/bn
I1201 09:29:16.794224 23278 net.cpp:84] Creating Layer conv2_6/x2/bn
I1201 09:29:16.794229 23278 net.cpp:406] conv2_6/x2/bn <- conv2_6/x1
I1201 09:29:16.794234 23278 net.cpp:380] conv2_6/x2/bn -> conv2_6/x2/bn
I1201 09:29:16.794554 23278 net.cpp:122] Setting up conv2_6/x2/bn
I1201 09:29:16.794562 23278 net.cpp:129] Top shape: 1 128 31 122 (484096)
I1201 09:29:16.794565 23278 net.cpp:137] Memory required for data: 139433280
I1201 09:29:16.794575 23278 layer_factory.hpp:77] Creating layer conv2_6/x2/scale
I1201 09:29:16.794582 23278 net.cpp:84] Creating Layer conv2_6/x2/scale
I1201 09:29:16.794585 23278 net.cpp:406] conv2_6/x2/scale <- conv2_6/x2/bn
I1201 09:29:16.794589 23278 net.cpp:367] conv2_6/x2/scale -> conv2_6/x2/bn (in-place)
I1201 09:29:16.794646 23278 layer_factory.hpp:77] Creating layer conv2_6/x2/scale
I1201 09:29:16.794812 23278 net.cpp:122] Setting up conv2_6/x2/scale
I1201 09:29:16.794818 23278 net.cpp:129] Top shape: 1 128 31 122 (484096)
I1201 09:29:16.794821 23278 net.cpp:137] Memory required for data: 141369664
I1201 09:29:16.794826 23278 layer_factory.hpp:77] Creating layer relu2_6/x2
I1201 09:29:16.794833 23278 net.cpp:84] Creating Layer relu2_6/x2
I1201 09:29:16.794836 23278 net.cpp:406] relu2_6/x2 <- conv2_6/x2/bn
I1201 09:29:16.794839 23278 net.cpp:367] relu2_6/x2 -> conv2_6/x2/bn (in-place)
I1201 09:29:16.795186 23278 net.cpp:122] Setting up relu2_6/x2
I1201 09:29:16.795197 23278 net.cpp:129] Top shape: 1 128 31 122 (484096)
I1201 09:29:16.795199 23278 net.cpp:137] Memory required for data: 143306048
I1201 09:29:16.795203 23278 layer_factory.hpp:77] Creating layer conv2_6/x2
I1201 09:29:16.795212 23278 net.cpp:84] Creating Layer conv2_6/x2
I1201 09:29:16.795215 23278 net.cpp:406] conv2_6/x2 <- conv2_6/x2/bn
I1201 09:29:16.795222 23278 net.cpp:380] conv2_6/x2 -> conv2_6/x2
I1201 09:29:16.797976 23278 net.cpp:122] Setting up conv2_6/x2
I1201 09:29:16.797991 23278 net.cpp:129] Top shape: 1 32 31 122 (121024)
I1201 09:29:16.797993 23278 net.cpp:137] Memory required for data: 143790144
I1201 09:29:16.797999 23278 layer_factory.hpp:77] Creating layer concat_2_6
I1201 09:29:16.798007 23278 net.cpp:84] Creating Layer concat_2_6
I1201 09:29:16.798012 23278 net.cpp:406] concat_2_6 <- concat_2_5_concat_2_5_0_split_1
I1201 09:29:16.798017 23278 net.cpp:406] concat_2_6 <- conv2_6/x2
I1201 09:29:16.798020 23278 net.cpp:380] concat_2_6 -> concat_2_6
I1201 09:29:16.798063 23278 net.cpp:122] Setting up concat_2_6
I1201 09:29:16.798069 23278 net.cpp:129] Top shape: 1 256 31 122 (968192)
I1201 09:29:16.798072 23278 net.cpp:137] Memory required for data: 147662912
I1201 09:29:16.798074 23278 layer_factory.hpp:77] Creating layer conv2_blk/bn
I1201 09:29:16.798080 23278 net.cpp:84] Creating Layer conv2_blk/bn
I1201 09:29:16.798084 23278 net.cpp:406] conv2_blk/bn <- concat_2_6
I1201 09:29:16.798087 23278 net.cpp:380] conv2_blk/bn -> conv2_blk/bn
I1201 09:29:16.798400 23278 net.cpp:122] Setting up conv2_blk/bn
I1201 09:29:16.798408 23278 net.cpp:129] Top shape: 1 256 31 122 (968192)
I1201 09:29:16.798410 23278 net.cpp:137] Memory required for data: 151535680
I1201 09:29:16.798418 23278 layer_factory.hpp:77] Creating layer conv2_blk/scale
I1201 09:29:16.798424 23278 net.cpp:84] Creating Layer conv2_blk/scale
I1201 09:29:16.798426 23278 net.cpp:406] conv2_blk/scale <- conv2_blk/bn
I1201 09:29:16.798431 23278 net.cpp:367] conv2_blk/scale -> conv2_blk/bn (in-place)
I1201 09:29:16.798488 23278 layer_factory.hpp:77] Creating layer conv2_blk/scale
I1201 09:29:16.798660 23278 net.cpp:122] Setting up conv2_blk/scale
I1201 09:29:16.798666 23278 net.cpp:129] Top shape: 1 256 31 122 (968192)
I1201 09:29:16.798667 23278 net.cpp:137] Memory required for data: 155408448
I1201 09:29:16.798672 23278 layer_factory.hpp:77] Creating layer relu2_blk
I1201 09:29:16.798677 23278 net.cpp:84] Creating Layer relu2_blk
I1201 09:29:16.798681 23278 net.cpp:406] relu2_blk <- conv2_blk/bn
I1201 09:29:16.798683 23278 net.cpp:367] relu2_blk -> conv2_blk/bn (in-place)
I1201 09:29:16.798871 23278 net.cpp:122] Setting up relu2_blk
I1201 09:29:16.798878 23278 net.cpp:129] Top shape: 1 256 31 122 (968192)
I1201 09:29:16.798880 23278 net.cpp:137] Memory required for data: 159281216
I1201 09:29:16.798883 23278 layer_factory.hpp:77] Creating layer conv2_blk
I1201 09:29:16.798893 23278 net.cpp:84] Creating Layer conv2_blk
I1201 09:29:16.798897 23278 net.cpp:406] conv2_blk <- conv2_blk/bn
I1201 09:29:16.798902 23278 net.cpp:380] conv2_blk -> conv2_blk
I1201 09:29:16.800876 23278 net.cpp:122] Setting up conv2_blk
I1201 09:29:16.800891 23278 net.cpp:129] Top shape: 1 128 31 122 (484096)
I1201 09:29:16.800894 23278 net.cpp:137] Memory required for data: 161217600
I1201 09:29:16.800899 23278 layer_factory.hpp:77] Creating layer pool2
I1201 09:29:16.800905 23278 net.cpp:84] Creating Layer pool2
I1201 09:29:16.800909 23278 net.cpp:406] pool2 <- conv2_blk
I1201 09:29:16.800915 23278 net.cpp:380] pool2 -> pool2
I1201 09:29:16.801280 23278 net.cpp:122] Setting up pool2
I1201 09:29:16.801290 23278 net.cpp:129] Top shape: 1 128 16 61 (124928)
I1201 09:29:16.801293 23278 net.cpp:137] Memory required for data: 161717312
I1201 09:29:16.801296 23278 layer_factory.hpp:77] Creating layer pool2_pool2_0_split
I1201 09:29:16.801301 23278 net.cpp:84] Creating Layer pool2_pool2_0_split
I1201 09:29:16.801304 23278 net.cpp:406] pool2_pool2_0_split <- pool2
I1201 09:29:16.801311 23278 net.cpp:380] pool2_pool2_0_split -> pool2_pool2_0_split_0
I1201 09:29:16.801316 23278 net.cpp:380] pool2_pool2_0_split -> pool2_pool2_0_split_1
I1201 09:29:16.801371 23278 net.cpp:122] Setting up pool2_pool2_0_split
I1201 09:29:16.801378 23278 net.cpp:129] Top shape: 1 128 16 61 (124928)
I1201 09:29:16.801380 23278 net.cpp:129] Top shape: 1 128 16 61 (124928)
I1201 09:29:16.801383 23278 net.cpp:137] Memory required for data: 162716736
I1201 09:29:16.801385 23278 layer_factory.hpp:77] Creating layer conv3_1/x1/bn
I1201 09:29:16.801389 23278 net.cpp:84] Creating Layer conv3_1/x1/bn
I1201 09:29:16.801393 23278 net.cpp:406] conv3_1/x1/bn <- pool2_pool2_0_split_0
I1201 09:29:16.801398 23278 net.cpp:380] conv3_1/x1/bn -> conv3_1/x1/bn
I1201 09:29:16.801705 23278 net.cpp:122] Setting up conv3_1/x1/bn
I1201 09:29:16.801712 23278 net.cpp:129] Top shape: 1 128 16 61 (124928)
I1201 09:29:16.801714 23278 net.cpp:137] Memory required for data: 163216448
I1201 09:29:16.801720 23278 layer_factory.hpp:77] Creating layer conv3_1/x1/scale
I1201 09:29:16.801725 23278 net.cpp:84] Creating Layer conv3_1/x1/scale
I1201 09:29:16.801728 23278 net.cpp:406] conv3_1/x1/scale <- conv3_1/x1/bn
I1201 09:29:16.801736 23278 net.cpp:367] conv3_1/x1/scale -> conv3_1/x1/bn (in-place)
I1201 09:29:16.801793 23278 layer_factory.hpp:77] Creating layer conv3_1/x1/scale
I1201 09:29:16.801964 23278 net.cpp:122] Setting up conv3_1/x1/scale
I1201 09:29:16.801970 23278 net.cpp:129] Top shape: 1 128 16 61 (124928)
I1201 09:29:16.801972 23278 net.cpp:137] Memory required for data: 163716160
I1201 09:29:16.801977 23278 layer_factory.hpp:77] Creating layer relu3_1/x1
I1201 09:29:16.801982 23278 net.cpp:84] Creating Layer relu3_1/x1
I1201 09:29:16.801985 23278 net.cpp:406] relu3_1/x1 <- conv3_1/x1/bn
I1201 09:29:16.801988 23278 net.cpp:367] relu3_1/x1 -> conv3_1/x1/bn (in-place)
I1201 09:29:16.802320 23278 net.cpp:122] Setting up relu3_1/x1
I1201 09:29:16.802330 23278 net.cpp:129] Top shape: 1 128 16 61 (124928)
I1201 09:29:16.802333 23278 net.cpp:137] Memory required for data: 164215872
I1201 09:29:16.802336 23278 layer_factory.hpp:77] Creating layer conv3_1/x1
I1201 09:29:16.802345 23278 net.cpp:84] Creating Layer conv3_1/x1
I1201 09:29:16.802347 23278 net.cpp:406] conv3_1/x1 <- conv3_1/x1/bn
I1201 09:29:16.802353 23278 net.cpp:380] conv3_1/x1 -> conv3_1/x1
I1201 09:29:16.804046 23278 net.cpp:122] Setting up conv3_1/x1
I1201 09:29:16.804056 23278 net.cpp:129] Top shape: 1 128 16 61 (124928)
I1201 09:29:16.804059 23278 net.cpp:137] Memory required for data: 164715584
I1201 09:29:16.804064 23278 layer_factory.hpp:77] Creating layer conv3_1/x2/bn
I1201 09:29:16.804070 23278 net.cpp:84] Creating Layer conv3_1/x2/bn
I1201 09:29:16.804075 23278 net.cpp:406] conv3_1/x2/bn <- conv3_1/x1
I1201 09:29:16.804078 23278 net.cpp:380] conv3_1/x2/bn -> conv3_1/x2/bn
I1201 09:29:16.804399 23278 net.cpp:122] Setting up conv3_1/x2/bn
I1201 09:29:16.804406 23278 net.cpp:129] Top shape: 1 128 16 61 (124928)
I1201 09:29:16.804409 23278 net.cpp:137] Memory required for data: 165215296
I1201 09:29:16.804416 23278 layer_factory.hpp:77] Creating layer conv3_1/x2/scale
I1201 09:29:16.804421 23278 net.cpp:84] Creating Layer conv3_1/x2/scale
I1201 09:29:16.804426 23278 net.cpp:406] conv3_1/x2/scale <- conv3_1/x2/bn
I1201 09:29:16.804430 23278 net.cpp:367] conv3_1/x2/scale -> conv3_1/x2/bn (in-place)
I1201 09:29:16.804486 23278 layer_factory.hpp:77] Creating layer conv3_1/x2/scale
I1201 09:29:16.804653 23278 net.cpp:122] Setting up conv3_1/x2/scale
I1201 09:29:16.804659 23278 net.cpp:129] Top shape: 1 128 16 61 (124928)
I1201 09:29:16.804662 23278 net.cpp:137] Memory required for data: 165715008
I1201 09:29:16.804666 23278 layer_factory.hpp:77] Creating layer relu3_1/x2
I1201 09:29:16.804672 23278 net.cpp:84] Creating Layer relu3_1/x2
I1201 09:29:16.804674 23278 net.cpp:406] relu3_1/x2 <- conv3_1/x2/bn
I1201 09:29:16.804678 23278 net.cpp:367] relu3_1/x2 -> conv3_1/x2/bn (in-place)
I1201 09:29:16.804852 23278 net.cpp:122] Setting up relu3_1/x2
I1201 09:29:16.804858 23278 net.cpp:129] Top shape: 1 128 16 61 (124928)
I1201 09:29:16.804862 23278 net.cpp:137] Memory required for data: 166214720
I1201 09:29:16.804864 23278 layer_factory.hpp:77] Creating layer conv3_1/x2
I1201 09:29:16.804872 23278 net.cpp:84] Creating Layer conv3_1/x2
I1201 09:29:16.804877 23278 net.cpp:406] conv3_1/x2 <- conv3_1/x2/bn
I1201 09:29:16.804880 23278 net.cpp:380] conv3_1/x2 -> conv3_1/x2
I1201 09:29:16.807040 23278 net.cpp:122] Setting up conv3_1/x2
I1201 09:29:16.807050 23278 net.cpp:129] Top shape: 1 32 16 61 (31232)
I1201 09:29:16.807054 23278 net.cpp:137] Memory required for data: 166339648
I1201 09:29:16.807060 23278 layer_factory.hpp:77] Creating layer concat_3_1
I1201 09:29:16.807065 23278 net.cpp:84] Creating Layer concat_3_1
I1201 09:29:16.807068 23278 net.cpp:406] concat_3_1 <- pool2_pool2_0_split_1
I1201 09:29:16.807072 23278 net.cpp:406] concat_3_1 <- conv3_1/x2
I1201 09:29:16.807077 23278 net.cpp:380] concat_3_1 -> concat_3_1
I1201 09:29:16.807119 23278 net.cpp:122] Setting up concat_3_1
I1201 09:29:16.807124 23278 net.cpp:129] Top shape: 1 160 16 61 (156160)
I1201 09:29:16.807127 23278 net.cpp:137] Memory required for data: 166964288
I1201 09:29:16.807129 23278 layer_factory.hpp:77] Creating layer concat_3_1_concat_3_1_0_split
I1201 09:29:16.807134 23278 net.cpp:84] Creating Layer concat_3_1_concat_3_1_0_split
I1201 09:29:16.807137 23278 net.cpp:406] concat_3_1_concat_3_1_0_split <- concat_3_1
I1201 09:29:16.807142 23278 net.cpp:380] concat_3_1_concat_3_1_0_split -> concat_3_1_concat_3_1_0_split_0
I1201 09:29:16.807147 23278 net.cpp:380] concat_3_1_concat_3_1_0_split -> concat_3_1_concat_3_1_0_split_1
I1201 09:29:16.807199 23278 net.cpp:122] Setting up concat_3_1_concat_3_1_0_split
I1201 09:29:16.807204 23278 net.cpp:129] Top shape: 1 160 16 61 (156160)
I1201 09:29:16.807207 23278 net.cpp:129] Top shape: 1 160 16 61 (156160)
I1201 09:29:16.807209 23278 net.cpp:137] Memory required for data: 168213568
I1201 09:29:16.807212 23278 layer_factory.hpp:77] Creating layer conv3_2/x1/bn
I1201 09:29:16.807217 23278 net.cpp:84] Creating Layer conv3_2/x1/bn
I1201 09:29:16.807220 23278 net.cpp:406] conv3_2/x1/bn <- concat_3_1_concat_3_1_0_split_0
I1201 09:29:16.807225 23278 net.cpp:380] conv3_2/x1/bn -> conv3_2/x1/bn
I1201 09:29:16.807543 23278 net.cpp:122] Setting up conv3_2/x1/bn
I1201 09:29:16.807549 23278 net.cpp:129] Top shape: 1 160 16 61 (156160)
I1201 09:29:16.807552 23278 net.cpp:137] Memory required for data: 168838208
I1201 09:29:16.807559 23278 layer_factory.hpp:77] Creating layer conv3_2/x1/scale
I1201 09:29:16.807564 23278 net.cpp:84] Creating Layer conv3_2/x1/scale
I1201 09:29:16.807566 23278 net.cpp:406] conv3_2/x1/scale <- conv3_2/x1/bn
I1201 09:29:16.807571 23278 net.cpp:367] conv3_2/x1/scale -> conv3_2/x1/bn (in-place)
I1201 09:29:16.807627 23278 layer_factory.hpp:77] Creating layer conv3_2/x1/scale
I1201 09:29:16.807812 23278 net.cpp:122] Setting up conv3_2/x1/scale
I1201 09:29:16.807818 23278 net.cpp:129] Top shape: 1 160 16 61 (156160)
I1201 09:29:16.807821 23278 net.cpp:137] Memory required for data: 169462848
I1201 09:29:16.807826 23278 layer_factory.hpp:77] Creating layer relu3_2/x1
I1201 09:29:16.807831 23278 net.cpp:84] Creating Layer relu3_2/x1
I1201 09:29:16.807835 23278 net.cpp:406] relu3_2/x1 <- conv3_2/x1/bn
I1201 09:29:16.807840 23278 net.cpp:367] relu3_2/x1 -> conv3_2/x1/bn (in-place)
I1201 09:29:16.808181 23278 net.cpp:122] Setting up relu3_2/x1
I1201 09:29:16.808190 23278 net.cpp:129] Top shape: 1 160 16 61 (156160)
I1201 09:29:16.808193 23278 net.cpp:137] Memory required for data: 170087488
I1201 09:29:16.808195 23278 layer_factory.hpp:77] Creating layer conv3_2/x1
I1201 09:29:16.808205 23278 net.cpp:84] Creating Layer conv3_2/x1
I1201 09:29:16.808208 23278 net.cpp:406] conv3_2/x1 <- conv3_2/x1/bn
I1201 09:29:16.808213 23278 net.cpp:380] conv3_2/x1 -> conv3_2/x1
I1201 09:29:16.809831 23278 net.cpp:122] Setting up conv3_2/x1
I1201 09:29:16.809842 23278 net.cpp:129] Top shape: 1 128 16 61 (124928)
I1201 09:29:16.809845 23278 net.cpp:137] Memory required for data: 170587200
I1201 09:29:16.809849 23278 layer_factory.hpp:77] Creating layer conv3_2/x2/bn
I1201 09:29:16.809854 23278 net.cpp:84] Creating Layer conv3_2/x2/bn
I1201 09:29:16.809857 23278 net.cpp:406] conv3_2/x2/bn <- conv3_2/x1
I1201 09:29:16.809864 23278 net.cpp:380] conv3_2/x2/bn -> conv3_2/x2/bn
I1201 09:29:16.810173 23278 net.cpp:122] Setting up conv3_2/x2/bn
I1201 09:29:16.810179 23278 net.cpp:129] Top shape: 1 128 16 61 (124928)
I1201 09:29:16.810183 23278 net.cpp:137] Memory required for data: 171086912
I1201 09:29:16.810189 23278 layer_factory.hpp:77] Creating layer conv3_2/x2/scale
I1201 09:29:16.810194 23278 net.cpp:84] Creating Layer conv3_2/x2/scale
I1201 09:29:16.810196 23278 net.cpp:406] conv3_2/x2/scale <- conv3_2/x2/bn
I1201 09:29:16.810201 23278 net.cpp:367] conv3_2/x2/scale -> conv3_2/x2/bn (in-place)
I1201 09:29:16.810256 23278 layer_factory.hpp:77] Creating layer conv3_2/x2/scale
I1201 09:29:16.810421 23278 net.cpp:122] Setting up conv3_2/x2/scale
I1201 09:29:16.810427 23278 net.cpp:129] Top shape: 1 128 16 61 (124928)
I1201 09:29:16.810430 23278 net.cpp:137] Memory required for data: 171586624
I1201 09:29:16.810434 23278 layer_factory.hpp:77] Creating layer relu3_2/x2
I1201 09:29:16.810438 23278 net.cpp:84] Creating Layer relu3_2/x2
I1201 09:29:16.810441 23278 net.cpp:406] relu3_2/x2 <- conv3_2/x2/bn
I1201 09:29:16.810444 23278 net.cpp:367] relu3_2/x2 -> conv3_2/x2/bn (in-place)
I1201 09:29:16.810616 23278 net.cpp:122] Setting up relu3_2/x2
I1201 09:29:16.810624 23278 net.cpp:129] Top shape: 1 128 16 61 (124928)
I1201 09:29:16.810627 23278 net.cpp:137] Memory required for data: 172086336
I1201 09:29:16.810629 23278 layer_factory.hpp:77] Creating layer conv3_2/x2
I1201 09:29:16.810638 23278 net.cpp:84] Creating Layer conv3_2/x2
I1201 09:29:16.810642 23278 net.cpp:406] conv3_2/x2 <- conv3_2/x2/bn
I1201 09:29:16.810647 23278 net.cpp:380] conv3_2/x2 -> conv3_2/x2
I1201 09:29:16.812815 23278 net.cpp:122] Setting up conv3_2/x2
I1201 09:29:16.812826 23278 net.cpp:129] Top shape: 1 32 16 61 (31232)
I1201 09:29:16.812829 23278 net.cpp:137] Memory required for data: 172211264
I1201 09:29:16.812834 23278 layer_factory.hpp:77] Creating layer concat_3_2
I1201 09:29:16.812839 23278 net.cpp:84] Creating Layer concat_3_2
I1201 09:29:16.812844 23278 net.cpp:406] concat_3_2 <- concat_3_1_concat_3_1_0_split_1
I1201 09:29:16.812846 23278 net.cpp:406] concat_3_2 <- conv3_2/x2
I1201 09:29:16.812851 23278 net.cpp:380] concat_3_2 -> concat_3_2
I1201 09:29:16.812893 23278 net.cpp:122] Setting up concat_3_2
I1201 09:29:16.812898 23278 net.cpp:129] Top shape: 1 192 16 61 (187392)
I1201 09:29:16.812901 23278 net.cpp:137] Memory required for data: 172960832
I1201 09:29:16.812903 23278 layer_factory.hpp:77] Creating layer concat_3_2_concat_3_2_0_split
I1201 09:29:16.812907 23278 net.cpp:84] Creating Layer concat_3_2_concat_3_2_0_split
I1201 09:29:16.812911 23278 net.cpp:406] concat_3_2_concat_3_2_0_split <- concat_3_2
I1201 09:29:16.812916 23278 net.cpp:380] concat_3_2_concat_3_2_0_split -> concat_3_2_concat_3_2_0_split_0
I1201 09:29:16.812921 23278 net.cpp:380] concat_3_2_concat_3_2_0_split -> concat_3_2_concat_3_2_0_split_1
I1201 09:29:16.812974 23278 net.cpp:122] Setting up concat_3_2_concat_3_2_0_split
I1201 09:29:16.812983 23278 net.cpp:129] Top shape: 1 192 16 61 (187392)
I1201 09:29:16.812985 23278 net.cpp:129] Top shape: 1 192 16 61 (187392)
I1201 09:29:16.812988 23278 net.cpp:137] Memory required for data: 174459968
I1201 09:29:16.812990 23278 layer_factory.hpp:77] Creating layer conv3_3/x1/bn
I1201 09:29:16.812995 23278 net.cpp:84] Creating Layer conv3_3/x1/bn
I1201 09:29:16.812999 23278 net.cpp:406] conv3_3/x1/bn <- concat_3_2_concat_3_2_0_split_0
I1201 09:29:16.813002 23278 net.cpp:380] conv3_3/x1/bn -> conv3_3/x1/bn
I1201 09:29:16.813318 23278 net.cpp:122] Setting up conv3_3/x1/bn
I1201 09:29:16.813323 23278 net.cpp:129] Top shape: 1 192 16 61 (187392)
I1201 09:29:16.813326 23278 net.cpp:137] Memory required for data: 175209536
I1201 09:29:16.813331 23278 layer_factory.hpp:77] Creating layer conv3_3/x1/scale
I1201 09:29:16.813338 23278 net.cpp:84] Creating Layer conv3_3/x1/scale
I1201 09:29:16.813341 23278 net.cpp:406] conv3_3/x1/scale <- conv3_3/x1/bn
I1201 09:29:16.813344 23278 net.cpp:367] conv3_3/x1/scale -> conv3_3/x1/bn (in-place)
I1201 09:29:16.813398 23278 layer_factory.hpp:77] Creating layer conv3_3/x1/scale
I1201 09:29:16.813581 23278 net.cpp:122] Setting up conv3_3/x1/scale
I1201 09:29:16.813587 23278 net.cpp:129] Top shape: 1 192 16 61 (187392)
I1201 09:29:16.813591 23278 net.cpp:137] Memory required for data: 175959104
I1201 09:29:16.813596 23278 layer_factory.hpp:77] Creating layer relu3_3/x1
I1201 09:29:16.813599 23278 net.cpp:84] Creating Layer relu3_3/x1
I1201 09:29:16.813602 23278 net.cpp:406] relu3_3/x1 <- conv3_3/x1/bn
I1201 09:29:16.813606 23278 net.cpp:367] relu3_3/x1 -> conv3_3/x1/bn (in-place)
I1201 09:29:16.813951 23278 net.cpp:122] Setting up relu3_3/x1
I1201 09:29:16.813961 23278 net.cpp:129] Top shape: 1 192 16 61 (187392)
I1201 09:29:16.813963 23278 net.cpp:137] Memory required for data: 176708672
I1201 09:29:16.813966 23278 layer_factory.hpp:77] Creating layer conv3_3/x1
I1201 09:29:16.813976 23278 net.cpp:84] Creating Layer conv3_3/x1
I1201 09:29:16.813978 23278 net.cpp:406] conv3_3/x1 <- conv3_3/x1/bn
I1201 09:29:16.813983 23278 net.cpp:380] conv3_3/x1 -> conv3_3/x1
I1201 09:29:16.815697 23278 net.cpp:122] Setting up conv3_3/x1
I1201 09:29:16.815707 23278 net.cpp:129] Top shape: 1 128 16 61 (124928)
I1201 09:29:16.815711 23278 net.cpp:137] Memory required for data: 177208384
I1201 09:29:16.815716 23278 layer_factory.hpp:77] Creating layer conv3_3/x2/bn
I1201 09:29:16.815721 23278 net.cpp:84] Creating Layer conv3_3/x2/bn
I1201 09:29:16.815726 23278 net.cpp:406] conv3_3/x2/bn <- conv3_3/x1
I1201 09:29:16.815729 23278 net.cpp:380] conv3_3/x2/bn -> conv3_3/x2/bn
I1201 09:29:16.816043 23278 net.cpp:122] Setting up conv3_3/x2/bn
I1201 09:29:16.816051 23278 net.cpp:129] Top shape: 1 128 16 61 (124928)
I1201 09:29:16.816052 23278 net.cpp:137] Memory required for data: 177708096
I1201 09:29:16.816058 23278 layer_factory.hpp:77] Creating layer conv3_3/x2/scale
I1201 09:29:16.816064 23278 net.cpp:84] Creating Layer conv3_3/x2/scale
I1201 09:29:16.816067 23278 net.cpp:406] conv3_3/x2/scale <- conv3_3/x2/bn
I1201 09:29:16.816071 23278 net.cpp:367] conv3_3/x2/scale -> conv3_3/x2/bn (in-place)
I1201 09:29:16.816128 23278 layer_factory.hpp:77] Creating layer conv3_3/x2/scale
I1201 09:29:16.816298 23278 net.cpp:122] Setting up conv3_3/x2/scale
I1201 09:29:16.816303 23278 net.cpp:129] Top shape: 1 128 16 61 (124928)
I1201 09:29:16.816306 23278 net.cpp:137] Memory required for data: 178207808
I1201 09:29:16.816310 23278 layer_factory.hpp:77] Creating layer relu3_3/x2
I1201 09:29:16.816316 23278 net.cpp:84] Creating Layer relu3_3/x2
I1201 09:29:16.816319 23278 net.cpp:406] relu3_3/x2 <- conv3_3/x2/bn
I1201 09:29:16.816323 23278 net.cpp:367] relu3_3/x2 -> conv3_3/x2/bn (in-place)
I1201 09:29:16.816660 23278 net.cpp:122] Setting up relu3_3/x2
I1201 09:29:16.816670 23278 net.cpp:129] Top shape: 1 128 16 61 (124928)
I1201 09:29:16.816673 23278 net.cpp:137] Memory required for data: 178707520
I1201 09:29:16.816676 23278 layer_factory.hpp:77] Creating layer conv3_3/x2
I1201 09:29:16.816686 23278 net.cpp:84] Creating Layer conv3_3/x2
I1201 09:29:16.816690 23278 net.cpp:406] conv3_3/x2 <- conv3_3/x2/bn
I1201 09:29:16.816694 23278 net.cpp:380] conv3_3/x2 -> conv3_3/x2
I1201 09:29:16.818862 23278 net.cpp:122] Setting up conv3_3/x2
I1201 09:29:16.818872 23278 net.cpp:129] Top shape: 1 32 16 61 (31232)
I1201 09:29:16.818876 23278 net.cpp:137] Memory required for data: 178832448
I1201 09:29:16.818881 23278 layer_factory.hpp:77] Creating layer concat_3_3
I1201 09:29:16.818886 23278 net.cpp:84] Creating Layer concat_3_3
I1201 09:29:16.818889 23278 net.cpp:406] concat_3_3 <- concat_3_2_concat_3_2_0_split_1
I1201 09:29:16.818893 23278 net.cpp:406] concat_3_3 <- conv3_3/x2
I1201 09:29:16.818897 23278 net.cpp:380] concat_3_3 -> concat_3_3
I1201 09:29:16.818939 23278 net.cpp:122] Setting up concat_3_3
I1201 09:29:16.818945 23278 net.cpp:129] Top shape: 1 224 16 61 (218624)
I1201 09:29:16.818948 23278 net.cpp:137] Memory required for data: 179706944
I1201 09:29:16.818949 23278 layer_factory.hpp:77] Creating layer concat_3_3_concat_3_3_0_split
I1201 09:29:16.818954 23278 net.cpp:84] Creating Layer concat_3_3_concat_3_3_0_split
I1201 09:29:16.818958 23278 net.cpp:406] concat_3_3_concat_3_3_0_split <- concat_3_3
I1201 09:29:16.818961 23278 net.cpp:380] concat_3_3_concat_3_3_0_split -> concat_3_3_concat_3_3_0_split_0
I1201 09:29:16.818966 23278 net.cpp:380] concat_3_3_concat_3_3_0_split -> concat_3_3_concat_3_3_0_split_1
I1201 09:29:16.819018 23278 net.cpp:122] Setting up concat_3_3_concat_3_3_0_split
I1201 09:29:16.819023 23278 net.cpp:129] Top shape: 1 224 16 61 (218624)
I1201 09:29:16.819026 23278 net.cpp:129] Top shape: 1 224 16 61 (218624)
I1201 09:29:16.819030 23278 net.cpp:137] Memory required for data: 181455936
I1201 09:29:16.819031 23278 layer_factory.hpp:77] Creating layer conv3_4/x1/bn
I1201 09:29:16.819036 23278 net.cpp:84] Creating Layer conv3_4/x1/bn
I1201 09:29:16.819039 23278 net.cpp:406] conv3_4/x1/bn <- concat_3_3_concat_3_3_0_split_0
I1201 09:29:16.819043 23278 net.cpp:380] conv3_4/x1/bn -> conv3_4/x1/bn
I1201 09:29:16.819371 23278 net.cpp:122] Setting up conv3_4/x1/bn
I1201 09:29:16.819377 23278 net.cpp:129] Top shape: 1 224 16 61 (218624)
I1201 09:29:16.819380 23278 net.cpp:137] Memory required for data: 182330432
I1201 09:29:16.819386 23278 layer_factory.hpp:77] Creating layer conv3_4/x1/scale
I1201 09:29:16.819391 23278 net.cpp:84] Creating Layer conv3_4/x1/scale
I1201 09:29:16.819394 23278 net.cpp:406] conv3_4/x1/scale <- conv3_4/x1/bn
I1201 09:29:16.819398 23278 net.cpp:367] conv3_4/x1/scale -> conv3_4/x1/bn (in-place)
I1201 09:29:16.819456 23278 layer_factory.hpp:77] Creating layer conv3_4/x1/scale
I1201 09:29:16.819638 23278 net.cpp:122] Setting up conv3_4/x1/scale
I1201 09:29:16.819643 23278 net.cpp:129] Top shape: 1 224 16 61 (218624)
I1201 09:29:16.819646 23278 net.cpp:137] Memory required for data: 183204928
I1201 09:29:16.819650 23278 layer_factory.hpp:77] Creating layer relu3_4/x1
I1201 09:29:16.819656 23278 net.cpp:84] Creating Layer relu3_4/x1
I1201 09:29:16.819659 23278 net.cpp:406] relu3_4/x1 <- conv3_4/x1/bn
I1201 09:29:16.819663 23278 net.cpp:367] relu3_4/x1 -> conv3_4/x1/bn (in-place)
I1201 09:29:16.819844 23278 net.cpp:122] Setting up relu3_4/x1
I1201 09:29:16.819851 23278 net.cpp:129] Top shape: 1 224 16 61 (218624)
I1201 09:29:16.819854 23278 net.cpp:137] Memory required for data: 184079424
I1201 09:29:16.819857 23278 layer_factory.hpp:77] Creating layer conv3_4/x1
I1201 09:29:16.819865 23278 net.cpp:84] Creating Layer conv3_4/x1
I1201 09:29:16.819869 23278 net.cpp:406] conv3_4/x1 <- conv3_4/x1/bn
I1201 09:29:16.819875 23278 net.cpp:380] conv3_4/x1 -> conv3_4/x1
I1201 09:29:16.821712 23278 net.cpp:122] Setting up conv3_4/x1
I1201 09:29:16.821723 23278 net.cpp:129] Top shape: 1 128 16 61 (124928)
I1201 09:29:16.821727 23278 net.cpp:137] Memory required for data: 184579136
I1201 09:29:16.821730 23278 layer_factory.hpp:77] Creating layer conv3_4/x2/bn
I1201 09:29:16.821738 23278 net.cpp:84] Creating Layer conv3_4/x2/bn
I1201 09:29:16.821740 23278 net.cpp:406] conv3_4/x2/bn <- conv3_4/x1
I1201 09:29:16.821748 23278 net.cpp:380] conv3_4/x2/bn -> conv3_4/x2/bn
I1201 09:29:16.822067 23278 net.cpp:122] Setting up conv3_4/x2/bn
I1201 09:29:16.822073 23278 net.cpp:129] Top shape: 1 128 16 61 (124928)
I1201 09:29:16.822075 23278 net.cpp:137] Memory required for data: 185078848
I1201 09:29:16.822091 23278 layer_factory.hpp:77] Creating layer conv3_4/x2/scale
I1201 09:29:16.822098 23278 net.cpp:84] Creating Layer conv3_4/x2/scale
I1201 09:29:16.822100 23278 net.cpp:406] conv3_4/x2/scale <- conv3_4/x2/bn
I1201 09:29:16.822105 23278 net.cpp:367] conv3_4/x2/scale -> conv3_4/x2/bn (in-place)
I1201 09:29:16.822165 23278 layer_factory.hpp:77] Creating layer conv3_4/x2/scale
I1201 09:29:16.822335 23278 net.cpp:122] Setting up conv3_4/x2/scale
I1201 09:29:16.822340 23278 net.cpp:129] Top shape: 1 128 16 61 (124928)
I1201 09:29:16.822343 23278 net.cpp:137] Memory required for data: 185578560
I1201 09:29:16.822347 23278 layer_factory.hpp:77] Creating layer relu3_4/x2
I1201 09:29:16.822352 23278 net.cpp:84] Creating Layer relu3_4/x2
I1201 09:29:16.822355 23278 net.cpp:406] relu3_4/x2 <- conv3_4/x2/bn
I1201 09:29:16.822360 23278 net.cpp:367] relu3_4/x2 -> conv3_4/x2/bn (in-place)
I1201 09:29:16.822706 23278 net.cpp:122] Setting up relu3_4/x2
I1201 09:29:16.822716 23278 net.cpp:129] Top shape: 1 128 16 61 (124928)
I1201 09:29:16.822719 23278 net.cpp:137] Memory required for data: 186078272
I1201 09:29:16.822722 23278 layer_factory.hpp:77] Creating layer conv3_4/x2
I1201 09:29:16.822732 23278 net.cpp:84] Creating Layer conv3_4/x2
I1201 09:29:16.822736 23278 net.cpp:406] conv3_4/x2 <- conv3_4/x2/bn
I1201 09:29:16.822741 23278 net.cpp:380] conv3_4/x2 -> conv3_4/x2
I1201 09:29:16.825662 23278 net.cpp:122] Setting up conv3_4/x2
I1201 09:29:16.825692 23278 net.cpp:129] Top shape: 1 32 16 61 (31232)
I1201 09:29:16.825696 23278 net.cpp:137] Memory required for data: 186203200
I1201 09:29:16.825706 23278 layer_factory.hpp:77] Creating layer concat_3_4
I1201 09:29:16.825714 23278 net.cpp:84] Creating Layer concat_3_4
I1201 09:29:16.825719 23278 net.cpp:406] concat_3_4 <- concat_3_3_concat_3_3_0_split_1
I1201 09:29:16.825726 23278 net.cpp:406] concat_3_4 <- conv3_4/x2
I1201 09:29:16.825732 23278 net.cpp:380] concat_3_4 -> concat_3_4
I1201 09:29:16.825783 23278 net.cpp:122] Setting up concat_3_4
I1201 09:29:16.825788 23278 net.cpp:129] Top shape: 1 256 16 61 (249856)
I1201 09:29:16.825790 23278 net.cpp:137] Memory required for data: 187202624
I1201 09:29:16.825793 23278 layer_factory.hpp:77] Creating layer concat_3_4_concat_3_4_0_split
I1201 09:29:16.825798 23278 net.cpp:84] Creating Layer concat_3_4_concat_3_4_0_split
I1201 09:29:16.825800 23278 net.cpp:406] concat_3_4_concat_3_4_0_split <- concat_3_4
I1201 09:29:16.825805 23278 net.cpp:380] concat_3_4_concat_3_4_0_split -> concat_3_4_concat_3_4_0_split_0
I1201 09:29:16.825810 23278 net.cpp:380] concat_3_4_concat_3_4_0_split -> concat_3_4_concat_3_4_0_split_1
I1201 09:29:16.825871 23278 net.cpp:122] Setting up concat_3_4_concat_3_4_0_split
I1201 09:29:16.825876 23278 net.cpp:129] Top shape: 1 256 16 61 (249856)
I1201 09:29:16.825881 23278 net.cpp:129] Top shape: 1 256 16 61 (249856)
I1201 09:29:16.825882 23278 net.cpp:137] Memory required for data: 189201472
I1201 09:29:16.825884 23278 layer_factory.hpp:77] Creating layer conv3_5/x1/bn
I1201 09:29:16.825891 23278 net.cpp:84] Creating Layer conv3_5/x1/bn
I1201 09:29:16.825893 23278 net.cpp:406] conv3_5/x1/bn <- concat_3_4_concat_3_4_0_split_0
I1201 09:29:16.825898 23278 net.cpp:380] conv3_5/x1/bn -> conv3_5/x1/bn
I1201 09:29:16.826228 23278 net.cpp:122] Setting up conv3_5/x1/bn
I1201 09:29:16.826234 23278 net.cpp:129] Top shape: 1 256 16 61 (249856)
I1201 09:29:16.826237 23278 net.cpp:137] Memory required for data: 190200896
I1201 09:29:16.826244 23278 layer_factory.hpp:77] Creating layer conv3_5/x1/scale
I1201 09:29:16.826251 23278 net.cpp:84] Creating Layer conv3_5/x1/scale
I1201 09:29:16.826254 23278 net.cpp:406] conv3_5/x1/scale <- conv3_5/x1/bn
I1201 09:29:16.826258 23278 net.cpp:367] conv3_5/x1/scale -> conv3_5/x1/bn (in-place)
I1201 09:29:16.826324 23278 layer_factory.hpp:77] Creating layer conv3_5/x1/scale
I1201 09:29:16.826499 23278 net.cpp:122] Setting up conv3_5/x1/scale
I1201 09:29:16.826504 23278 net.cpp:129] Top shape: 1 256 16 61 (249856)
I1201 09:29:16.826508 23278 net.cpp:137] Memory required for data: 191200320
I1201 09:29:16.826512 23278 layer_factory.hpp:77] Creating layer relu3_5/x1
I1201 09:29:16.826519 23278 net.cpp:84] Creating Layer relu3_5/x1
I1201 09:29:16.826521 23278 net.cpp:406] relu3_5/x1 <- conv3_5/x1/bn
I1201 09:29:16.826524 23278 net.cpp:367] relu3_5/x1 -> conv3_5/x1/bn (in-place)
I1201 09:29:16.826711 23278 net.cpp:122] Setting up relu3_5/x1
I1201 09:29:16.826719 23278 net.cpp:129] Top shape: 1 256 16 61 (249856)
I1201 09:29:16.826722 23278 net.cpp:137] Memory required for data: 192199744
I1201 09:29:16.826725 23278 layer_factory.hpp:77] Creating layer conv3_5/x1
I1201 09:29:16.826735 23278 net.cpp:84] Creating Layer conv3_5/x1
I1201 09:29:16.826737 23278 net.cpp:406] conv3_5/x1 <- conv3_5/x1/bn
I1201 09:29:16.826743 23278 net.cpp:380] conv3_5/x1 -> conv3_5/x1
I1201 09:29:16.828900 23278 net.cpp:122] Setting up conv3_5/x1
I1201 09:29:16.828913 23278 net.cpp:129] Top shape: 1 128 16 61 (124928)
I1201 09:29:16.828917 23278 net.cpp:137] Memory required for data: 192699456
I1201 09:29:16.828922 23278 layer_factory.hpp:77] Creating layer conv3_5/x2/bn
I1201 09:29:16.828927 23278 net.cpp:84] Creating Layer conv3_5/x2/bn
I1201 09:29:16.828930 23278 net.cpp:406] conv3_5/x2/bn <- conv3_5/x1
I1201 09:29:16.828936 23278 net.cpp:380] conv3_5/x2/bn -> conv3_5/x2/bn
I1201 09:29:16.829262 23278 net.cpp:122] Setting up conv3_5/x2/bn
I1201 09:29:16.829269 23278 net.cpp:129] Top shape: 1 128 16 61 (124928)
I1201 09:29:16.829272 23278 net.cpp:137] Memory required for data: 193199168
I1201 09:29:16.829277 23278 layer_factory.hpp:77] Creating layer conv3_5/x2/scale
I1201 09:29:16.829283 23278 net.cpp:84] Creating Layer conv3_5/x2/scale
I1201 09:29:16.829286 23278 net.cpp:406] conv3_5/x2/scale <- conv3_5/x2/bn
I1201 09:29:16.829291 23278 net.cpp:367] conv3_5/x2/scale -> conv3_5/x2/bn (in-place)
I1201 09:29:16.829349 23278 layer_factory.hpp:77] Creating layer conv3_5/x2/scale
I1201 09:29:16.829521 23278 net.cpp:122] Setting up conv3_5/x2/scale
I1201 09:29:16.829527 23278 net.cpp:129] Top shape: 1 128 16 61 (124928)
I1201 09:29:16.829530 23278 net.cpp:137] Memory required for data: 193698880
I1201 09:29:16.829535 23278 layer_factory.hpp:77] Creating layer relu3_5/x2
I1201 09:29:16.829540 23278 net.cpp:84] Creating Layer relu3_5/x2
I1201 09:29:16.829542 23278 net.cpp:406] relu3_5/x2 <- conv3_5/x2/bn
I1201 09:29:16.829546 23278 net.cpp:367] relu3_5/x2 -> conv3_5/x2/bn (in-place)
I1201 09:29:16.829890 23278 net.cpp:122] Setting up relu3_5/x2
I1201 09:29:16.829900 23278 net.cpp:129] Top shape: 1 128 16 61 (124928)
I1201 09:29:16.829903 23278 net.cpp:137] Memory required for data: 194198592
I1201 09:29:16.829906 23278 layer_factory.hpp:77] Creating layer conv3_5/x2
I1201 09:29:16.829916 23278 net.cpp:84] Creating Layer conv3_5/x2
I1201 09:29:16.829918 23278 net.cpp:406] conv3_5/x2 <- conv3_5/x2/bn
I1201 09:29:16.829923 23278 net.cpp:380] conv3_5/x2 -> conv3_5/x2
I1201 09:29:16.832129 23278 net.cpp:122] Setting up conv3_5/x2
I1201 09:29:16.832140 23278 net.cpp:129] Top shape: 1 32 16 61 (31232)
I1201 09:29:16.832144 23278 net.cpp:137] Memory required for data: 194323520
I1201 09:29:16.832149 23278 layer_factory.hpp:77] Creating layer concat_3_5
I1201 09:29:16.832154 23278 net.cpp:84] Creating Layer concat_3_5
I1201 09:29:16.832157 23278 net.cpp:406] concat_3_5 <- concat_3_4_concat_3_4_0_split_1
I1201 09:29:16.832161 23278 net.cpp:406] concat_3_5 <- conv3_5/x2
I1201 09:29:16.832165 23278 net.cpp:380] concat_3_5 -> concat_3_5
I1201 09:29:16.832211 23278 net.cpp:122] Setting up concat_3_5
I1201 09:29:16.832216 23278 net.cpp:129] Top shape: 1 288 16 61 (281088)
I1201 09:29:16.832218 23278 net.cpp:137] Memory required for data: 195447872
I1201 09:29:16.832221 23278 layer_factory.hpp:77] Creating layer concat_3_5_concat_3_5_0_split
I1201 09:29:16.832231 23278 net.cpp:84] Creating Layer concat_3_5_concat_3_5_0_split
I1201 09:29:16.832233 23278 net.cpp:406] concat_3_5_concat_3_5_0_split <- concat_3_5
I1201 09:29:16.832238 23278 net.cpp:380] concat_3_5_concat_3_5_0_split -> concat_3_5_concat_3_5_0_split_0
I1201 09:29:16.832243 23278 net.cpp:380] concat_3_5_concat_3_5_0_split -> concat_3_5_concat_3_5_0_split_1
I1201 09:29:16.832301 23278 net.cpp:122] Setting up concat_3_5_concat_3_5_0_split
I1201 09:29:16.832306 23278 net.cpp:129] Top shape: 1 288 16 61 (281088)
I1201 09:29:16.832309 23278 net.cpp:129] Top shape: 1 288 16 61 (281088)
I1201 09:29:16.832311 23278 net.cpp:137] Memory required for data: 197696576
I1201 09:29:16.832314 23278 layer_factory.hpp:77] Creating layer conv3_6/x1/bn
I1201 09:29:16.832319 23278 net.cpp:84] Creating Layer conv3_6/x1/bn
I1201 09:29:16.832321 23278 net.cpp:406] conv3_6/x1/bn <- concat_3_5_concat_3_5_0_split_0
I1201 09:29:16.832326 23278 net.cpp:380] conv3_6/x1/bn -> conv3_6/x1/bn
I1201 09:29:16.832669 23278 net.cpp:122] Setting up conv3_6/x1/bn
I1201 09:29:16.832676 23278 net.cpp:129] Top shape: 1 288 16 61 (281088)
I1201 09:29:16.832679 23278 net.cpp:137] Memory required for data: 198820928
I1201 09:29:16.832684 23278 layer_factory.hpp:77] Creating layer conv3_6/x1/scale
I1201 09:29:16.832690 23278 net.cpp:84] Creating Layer conv3_6/x1/scale
I1201 09:29:16.832695 23278 net.cpp:406] conv3_6/x1/scale <- conv3_6/x1/bn
I1201 09:29:16.832697 23278 net.cpp:367] conv3_6/x1/scale -> conv3_6/x1/bn (in-place)
I1201 09:29:16.832762 23278 layer_factory.hpp:77] Creating layer conv3_6/x1/scale
I1201 09:29:16.832953 23278 net.cpp:122] Setting up conv3_6/x1/scale
I1201 09:29:16.832959 23278 net.cpp:129] Top shape: 1 288 16 61 (281088)
I1201 09:29:16.832962 23278 net.cpp:137] Memory required for data: 199945280
I1201 09:29:16.832967 23278 layer_factory.hpp:77] Creating layer relu3_6/x1
I1201 09:29:16.832972 23278 net.cpp:84] Creating Layer relu3_6/x1
I1201 09:29:16.832974 23278 net.cpp:406] relu3_6/x1 <- conv3_6/x1/bn
I1201 09:29:16.832978 23278 net.cpp:367] relu3_6/x1 -> conv3_6/x1/bn (in-place)
I1201 09:29:16.833328 23278 net.cpp:122] Setting up relu3_6/x1
I1201 09:29:16.833339 23278 net.cpp:129] Top shape: 1 288 16 61 (281088)
I1201 09:29:16.833341 23278 net.cpp:137] Memory required for data: 201069632
I1201 09:29:16.833345 23278 layer_factory.hpp:77] Creating layer conv3_6/x1
I1201 09:29:16.833353 23278 net.cpp:84] Creating Layer conv3_6/x1
I1201 09:29:16.833355 23278 net.cpp:406] conv3_6/x1 <- conv3_6/x1/bn
I1201 09:29:16.833361 23278 net.cpp:380] conv3_6/x1 -> conv3_6/x1
I1201 09:29:16.835404 23278 net.cpp:122] Setting up conv3_6/x1
I1201 09:29:16.835415 23278 net.cpp:129] Top shape: 1 128 16 61 (124928)
I1201 09:29:16.835418 23278 net.cpp:137] Memory required for data: 201569344
I1201 09:29:16.835423 23278 layer_factory.hpp:77] Creating layer conv3_6/x2/bn
I1201 09:29:16.835429 23278 net.cpp:84] Creating Layer conv3_6/x2/bn
I1201 09:29:16.835433 23278 net.cpp:406] conv3_6/x2/bn <- conv3_6/x1
I1201 09:29:16.835438 23278 net.cpp:380] conv3_6/x2/bn -> conv3_6/x2/bn
I1201 09:29:16.835777 23278 net.cpp:122] Setting up conv3_6/x2/bn
I1201 09:29:16.835783 23278 net.cpp:129] Top shape: 1 128 16 61 (124928)
I1201 09:29:16.835786 23278 net.cpp:137] Memory required for data: 202069056
I1201 09:29:16.835791 23278 layer_factory.hpp:77] Creating layer conv3_6/x2/scale
I1201 09:29:16.835803 23278 net.cpp:84] Creating Layer conv3_6/x2/scale
I1201 09:29:16.835806 23278 net.cpp:406] conv3_6/x2/scale <- conv3_6/x2/bn
I1201 09:29:16.835810 23278 net.cpp:367] conv3_6/x2/scale -> conv3_6/x2/bn (in-place)
I1201 09:29:16.835870 23278 layer_factory.hpp:77] Creating layer conv3_6/x2/scale
I1201 09:29:16.836046 23278 net.cpp:122] Setting up conv3_6/x2/scale
I1201 09:29:16.836052 23278 net.cpp:129] Top shape: 1 128 16 61 (124928)
I1201 09:29:16.836055 23278 net.cpp:137] Memory required for data: 202568768
I1201 09:29:16.836061 23278 layer_factory.hpp:77] Creating layer relu3_6/x2
I1201 09:29:16.836066 23278 net.cpp:84] Creating Layer relu3_6/x2
I1201 09:29:16.836068 23278 net.cpp:406] relu3_6/x2 <- conv3_6/x2/bn
I1201 09:29:16.836074 23278 net.cpp:367] relu3_6/x2 -> conv3_6/x2/bn (in-place)
I1201 09:29:16.836253 23278 net.cpp:122] Setting up relu3_6/x2
I1201 09:29:16.836261 23278 net.cpp:129] Top shape: 1 128 16 61 (124928)
I1201 09:29:16.836263 23278 net.cpp:137] Memory required for data: 203068480
I1201 09:29:16.836266 23278 layer_factory.hpp:77] Creating layer conv3_6/x2
I1201 09:29:16.836275 23278 net.cpp:84] Creating Layer conv3_6/x2
I1201 09:29:16.836278 23278 net.cpp:406] conv3_6/x2 <- conv3_6/x2/bn
I1201 09:29:16.836284 23278 net.cpp:380] conv3_6/x2 -> conv3_6/x2
I1201 09:29:16.839102 23278 net.cpp:122] Setting up conv3_6/x2
I1201 09:29:16.839115 23278 net.cpp:129] Top shape: 1 32 16 61 (31232)
I1201 09:29:16.839120 23278 net.cpp:137] Memory required for data: 203193408
I1201 09:29:16.839128 23278 layer_factory.hpp:77] Creating layer concat_3_6
I1201 09:29:16.839134 23278 net.cpp:84] Creating Layer concat_3_6
I1201 09:29:16.839139 23278 net.cpp:406] concat_3_6 <- concat_3_5_concat_3_5_0_split_1
I1201 09:29:16.839146 23278 net.cpp:406] concat_3_6 <- conv3_6/x2
I1201 09:29:16.839152 23278 net.cpp:380] concat_3_6 -> concat_3_6
I1201 09:29:16.839208 23278 net.cpp:122] Setting up concat_3_6
I1201 09:29:16.839217 23278 net.cpp:129] Top shape: 1 320 16 61 (312320)
I1201 09:29:16.839221 23278 net.cpp:137] Memory required for data: 204442688
I1201 09:29:16.839226 23278 layer_factory.hpp:77] Creating layer concat_3_6_concat_3_6_0_split
I1201 09:29:16.839231 23278 net.cpp:84] Creating Layer concat_3_6_concat_3_6_0_split
I1201 09:29:16.839236 23278 net.cpp:406] concat_3_6_concat_3_6_0_split <- concat_3_6
I1201 09:29:16.839243 23278 net.cpp:380] concat_3_6_concat_3_6_0_split -> concat_3_6_concat_3_6_0_split_0
I1201 09:29:16.839251 23278 net.cpp:380] concat_3_6_concat_3_6_0_split -> concat_3_6_concat_3_6_0_split_1
I1201 09:29:16.839326 23278 net.cpp:122] Setting up concat_3_6_concat_3_6_0_split
I1201 09:29:16.839334 23278 net.cpp:129] Top shape: 1 320 16 61 (312320)
I1201 09:29:16.839339 23278 net.cpp:129] Top shape: 1 320 16 61 (312320)
I1201 09:29:16.839344 23278 net.cpp:137] Memory required for data: 206941248
I1201 09:29:16.839347 23278 layer_factory.hpp:77] Creating layer conv3_7/x1/bn
I1201 09:29:16.839354 23278 net.cpp:84] Creating Layer conv3_7/x1/bn
I1201 09:29:16.839359 23278 net.cpp:406] conv3_7/x1/bn <- concat_3_6_concat_3_6_0_split_0
I1201 09:29:16.839365 23278 net.cpp:380] conv3_7/x1/bn -> conv3_7/x1/bn
I1201 09:29:16.839857 23278 net.cpp:122] Setting up conv3_7/x1/bn
I1201 09:29:16.839867 23278 net.cpp:129] Top shape: 1 320 16 61 (312320)
I1201 09:29:16.839871 23278 net.cpp:137] Memory required for data: 208190528
I1201 09:29:16.839880 23278 layer_factory.hpp:77] Creating layer conv3_7/x1/scale
I1201 09:29:16.839889 23278 net.cpp:84] Creating Layer conv3_7/x1/scale
I1201 09:29:16.839893 23278 net.cpp:406] conv3_7/x1/scale <- conv3_7/x1/bn
I1201 09:29:16.839900 23278 net.cpp:367] conv3_7/x1/scale -> conv3_7/x1/bn (in-place)
I1201 09:29:16.839987 23278 layer_factory.hpp:77] Creating layer conv3_7/x1/scale
I1201 09:29:16.840250 23278 net.cpp:122] Setting up conv3_7/x1/scale
I1201 09:29:16.840258 23278 net.cpp:129] Top shape: 1 320 16 61 (312320)
I1201 09:29:16.840262 23278 net.cpp:137] Memory required for data: 209439808
I1201 09:29:16.840270 23278 layer_factory.hpp:77] Creating layer relu3_7/x1
I1201 09:29:16.840276 23278 net.cpp:84] Creating Layer relu3_7/x1
I1201 09:29:16.840281 23278 net.cpp:406] relu3_7/x1 <- conv3_7/x1/bn
I1201 09:29:16.840286 23278 net.cpp:367] relu3_7/x1 -> conv3_7/x1/bn (in-place)
I1201 09:29:16.840723 23278 net.cpp:122] Setting up relu3_7/x1
I1201 09:29:16.840737 23278 net.cpp:129] Top shape: 1 320 16 61 (312320)
I1201 09:29:16.840742 23278 net.cpp:137] Memory required for data: 210689088
I1201 09:29:16.840746 23278 layer_factory.hpp:77] Creating layer conv3_7/x1
I1201 09:29:16.840757 23278 net.cpp:84] Creating Layer conv3_7/x1
I1201 09:29:16.840761 23278 net.cpp:406] conv3_7/x1 <- conv3_7/x1/bn
I1201 09:29:16.840770 23278 net.cpp:380] conv3_7/x1 -> conv3_7/x1
I1201 09:29:16.843775 23278 net.cpp:122] Setting up conv3_7/x1
I1201 09:29:16.843788 23278 net.cpp:129] Top shape: 1 128 16 61 (124928)
I1201 09:29:16.843793 23278 net.cpp:137] Memory required for data: 211188800
I1201 09:29:16.843799 23278 layer_factory.hpp:77] Creating layer conv3_7/x2/bn
I1201 09:29:16.843808 23278 net.cpp:84] Creating Layer conv3_7/x2/bn
I1201 09:29:16.843813 23278 net.cpp:406] conv3_7/x2/bn <- conv3_7/x1
I1201 09:29:16.843822 23278 net.cpp:380] conv3_7/x2/bn -> conv3_7/x2/bn
I1201 09:29:16.844286 23278 net.cpp:122] Setting up conv3_7/x2/bn
I1201 09:29:16.844295 23278 net.cpp:129] Top shape: 1 128 16 61 (124928)
I1201 09:29:16.844300 23278 net.cpp:137] Memory required for data: 211688512
I1201 09:29:16.844310 23278 layer_factory.hpp:77] Creating layer conv3_7/x2/scale
I1201 09:29:16.844317 23278 net.cpp:84] Creating Layer conv3_7/x2/scale
I1201 09:29:16.844321 23278 net.cpp:406] conv3_7/x2/scale <- conv3_7/x2/bn
I1201 09:29:16.844328 23278 net.cpp:367] conv3_7/x2/scale -> conv3_7/x2/bn (in-place)
I1201 09:29:16.844408 23278 layer_factory.hpp:77] Creating layer conv3_7/x2/scale
I1201 09:29:16.844653 23278 net.cpp:122] Setting up conv3_7/x2/scale
I1201 09:29:16.844661 23278 net.cpp:129] Top shape: 1 128 16 61 (124928)
I1201 09:29:16.844666 23278 net.cpp:137] Memory required for data: 212188224
I1201 09:29:16.844672 23278 layer_factory.hpp:77] Creating layer relu3_7/x2
I1201 09:29:16.844679 23278 net.cpp:84] Creating Layer relu3_7/x2
I1201 09:29:16.844683 23278 net.cpp:406] relu3_7/x2 <- conv3_7/x2/bn
I1201 09:29:16.844691 23278 net.cpp:367] relu3_7/x2 -> conv3_7/x2/bn (in-place)
I1201 09:29:16.844928 23278 net.cpp:122] Setting up relu3_7/x2
I1201 09:29:16.844938 23278 net.cpp:129] Top shape: 1 128 16 61 (124928)
I1201 09:29:16.844943 23278 net.cpp:137] Memory required for data: 212687936
I1201 09:29:16.844947 23278 layer_factory.hpp:77] Creating layer conv3_7/x2
I1201 09:29:16.844959 23278 net.cpp:84] Creating Layer conv3_7/x2
I1201 09:29:16.844965 23278 net.cpp:406] conv3_7/x2 <- conv3_7/x2/bn
I1201 09:29:16.844972 23278 net.cpp:380] conv3_7/x2 -> conv3_7/x2
I1201 09:29:16.848040 23278 net.cpp:122] Setting up conv3_7/x2
I1201 09:29:16.848053 23278 net.cpp:129] Top shape: 1 32 16 61 (31232)
I1201 09:29:16.848057 23278 net.cpp:137] Memory required for data: 212812864
I1201 09:29:16.848064 23278 layer_factory.hpp:77] Creating layer concat_3_7
I1201 09:29:16.848073 23278 net.cpp:84] Creating Layer concat_3_7
I1201 09:29:16.848078 23278 net.cpp:406] concat_3_7 <- concat_3_6_concat_3_6_0_split_1
I1201 09:29:16.848083 23278 net.cpp:406] concat_3_7 <- conv3_7/x2
I1201 09:29:16.848090 23278 net.cpp:380] concat_3_7 -> concat_3_7
I1201 09:29:16.848147 23278 net.cpp:122] Setting up concat_3_7
I1201 09:29:16.848155 23278 net.cpp:129] Top shape: 1 352 16 61 (343552)
I1201 09:29:16.848160 23278 net.cpp:137] Memory required for data: 214187072
I1201 09:29:16.848163 23278 layer_factory.hpp:77] Creating layer concat_3_7_concat_3_7_0_split
I1201 09:29:16.848170 23278 net.cpp:84] Creating Layer concat_3_7_concat_3_7_0_split
I1201 09:29:16.848173 23278 net.cpp:406] concat_3_7_concat_3_7_0_split <- concat_3_7
I1201 09:29:16.848181 23278 net.cpp:380] concat_3_7_concat_3_7_0_split -> concat_3_7_concat_3_7_0_split_0
I1201 09:29:16.848188 23278 net.cpp:380] concat_3_7_concat_3_7_0_split -> concat_3_7_concat_3_7_0_split_1
I1201 09:29:16.848268 23278 net.cpp:122] Setting up concat_3_7_concat_3_7_0_split
I1201 09:29:16.848276 23278 net.cpp:129] Top shape: 1 352 16 61 (343552)
I1201 09:29:16.848281 23278 net.cpp:129] Top shape: 1 352 16 61 (343552)
I1201 09:29:16.848285 23278 net.cpp:137] Memory required for data: 216935488
I1201 09:29:16.848289 23278 layer_factory.hpp:77] Creating layer conv3_8/x1/bn
I1201 09:29:16.848296 23278 net.cpp:84] Creating Layer conv3_8/x1/bn
I1201 09:29:16.848301 23278 net.cpp:406] conv3_8/x1/bn <- concat_3_7_concat_3_7_0_split_0
I1201 09:29:16.848307 23278 net.cpp:380] conv3_8/x1/bn -> conv3_8/x1/bn
I1201 09:29:16.848799 23278 net.cpp:122] Setting up conv3_8/x1/bn
I1201 09:29:16.848808 23278 net.cpp:129] Top shape: 1 352 16 61 (343552)
I1201 09:29:16.848814 23278 net.cpp:137] Memory required for data: 218309696
I1201 09:29:16.848824 23278 layer_factory.hpp:77] Creating layer conv3_8/x1/scale
I1201 09:29:16.848832 23278 net.cpp:84] Creating Layer conv3_8/x1/scale
I1201 09:29:16.848837 23278 net.cpp:406] conv3_8/x1/scale <- conv3_8/x1/bn
I1201 09:29:16.848843 23278 net.cpp:367] conv3_8/x1/scale -> conv3_8/x1/bn (in-place)
I1201 09:29:16.848929 23278 layer_factory.hpp:77] Creating layer conv3_8/x1/scale
I1201 09:29:16.849200 23278 net.cpp:122] Setting up conv3_8/x1/scale
I1201 09:29:16.849210 23278 net.cpp:129] Top shape: 1 352 16 61 (343552)
I1201 09:29:16.849213 23278 net.cpp:137] Memory required for data: 219683904
I1201 09:29:16.849220 23278 layer_factory.hpp:77] Creating layer relu3_8/x1
I1201 09:29:16.849227 23278 net.cpp:84] Creating Layer relu3_8/x1
I1201 09:29:16.849231 23278 net.cpp:406] relu3_8/x1 <- conv3_8/x1/bn
I1201 09:29:16.849236 23278 net.cpp:367] relu3_8/x1 -> conv3_8/x1/bn (in-place)
I1201 09:29:16.849676 23278 net.cpp:122] Setting up relu3_8/x1
I1201 09:29:16.849689 23278 net.cpp:129] Top shape: 1 352 16 61 (343552)
I1201 09:29:16.849694 23278 net.cpp:137] Memory required for data: 221058112
I1201 09:29:16.849699 23278 layer_factory.hpp:77] Creating layer conv3_8/x1
I1201 09:29:16.849710 23278 net.cpp:84] Creating Layer conv3_8/x1
I1201 09:29:16.849714 23278 net.cpp:406] conv3_8/x1 <- conv3_8/x1/bn
I1201 09:29:16.849722 23278 net.cpp:380] conv3_8/x1 -> conv3_8/x1
I1201 09:29:16.853580 23278 net.cpp:122] Setting up conv3_8/x1
I1201 09:29:16.853596 23278 net.cpp:129] Top shape: 1 128 16 61 (124928)
I1201 09:29:16.853601 23278 net.cpp:137] Memory required for data: 221557824
I1201 09:29:16.853608 23278 layer_factory.hpp:77] Creating layer conv3_8/x2/bn
I1201 09:29:16.853615 23278 net.cpp:84] Creating Layer conv3_8/x2/bn
I1201 09:29:16.853622 23278 net.cpp:406] conv3_8/x2/bn <- conv3_8/x1
I1201 09:29:16.853629 23278 net.cpp:380] conv3_8/x2/bn -> conv3_8/x2/bn
I1201 09:29:16.854099 23278 net.cpp:122] Setting up conv3_8/x2/bn
I1201 09:29:16.854109 23278 net.cpp:129] Top shape: 1 128 16 61 (124928)
I1201 09:29:16.854112 23278 net.cpp:137] Memory required for data: 222057536
I1201 09:29:16.854122 23278 layer_factory.hpp:77] Creating layer conv3_8/x2/scale
I1201 09:29:16.854130 23278 net.cpp:84] Creating Layer conv3_8/x2/scale
I1201 09:29:16.854135 23278 net.cpp:406] conv3_8/x2/scale <- conv3_8/x2/bn
I1201 09:29:16.854141 23278 net.cpp:367] conv3_8/x2/scale -> conv3_8/x2/bn (in-place)
I1201 09:29:16.854224 23278 layer_factory.hpp:77] Creating layer conv3_8/x2/scale
I1201 09:29:16.854475 23278 net.cpp:122] Setting up conv3_8/x2/scale
I1201 09:29:16.854483 23278 net.cpp:129] Top shape: 1 128 16 61 (124928)
I1201 09:29:16.854487 23278 net.cpp:137] Memory required for data: 222557248
I1201 09:29:16.854495 23278 layer_factory.hpp:77] Creating layer relu3_8/x2
I1201 09:29:16.854502 23278 net.cpp:84] Creating Layer relu3_8/x2
I1201 09:29:16.854506 23278 net.cpp:406] relu3_8/x2 <- conv3_8/x2/bn
I1201 09:29:16.854512 23278 net.cpp:367] relu3_8/x2 -> conv3_8/x2/bn (in-place)
I1201 09:29:16.854946 23278 net.cpp:122] Setting up relu3_8/x2
I1201 09:29:16.854959 23278 net.cpp:129] Top shape: 1 128 16 61 (124928)
I1201 09:29:16.854964 23278 net.cpp:137] Memory required for data: 223056960
I1201 09:29:16.854969 23278 layer_factory.hpp:77] Creating layer conv3_8/x2
I1201 09:29:16.854984 23278 net.cpp:84] Creating Layer conv3_8/x2
I1201 09:29:16.854988 23278 net.cpp:406] conv3_8/x2 <- conv3_8/x2/bn
I1201 09:29:16.854995 23278 net.cpp:380] conv3_8/x2 -> conv3_8/x2
I1201 09:29:16.858248 23278 net.cpp:122] Setting up conv3_8/x2
I1201 09:29:16.858263 23278 net.cpp:129] Top shape: 1 32 16 61 (31232)
I1201 09:29:16.858268 23278 net.cpp:137] Memory required for data: 223181888
I1201 09:29:16.858274 23278 layer_factory.hpp:77] Creating layer concat_3_8
I1201 09:29:16.858283 23278 net.cpp:84] Creating Layer concat_3_8
I1201 09:29:16.858288 23278 net.cpp:406] concat_3_8 <- concat_3_7_concat_3_7_0_split_1
I1201 09:29:16.858295 23278 net.cpp:406] concat_3_8 <- conv3_8/x2
I1201 09:29:16.858302 23278 net.cpp:380] concat_3_8 -> concat_3_8
I1201 09:29:16.858358 23278 net.cpp:122] Setting up concat_3_8
I1201 09:29:16.858367 23278 net.cpp:129] Top shape: 1 384 16 61 (374784)
I1201 09:29:16.858371 23278 net.cpp:137] Memory required for data: 224681024
I1201 09:29:16.858376 23278 layer_factory.hpp:77] Creating layer concat_3_8_concat_3_8_0_split
I1201 09:29:16.858381 23278 net.cpp:84] Creating Layer concat_3_8_concat_3_8_0_split
I1201 09:29:16.858386 23278 net.cpp:406] concat_3_8_concat_3_8_0_split <- concat_3_8
I1201 09:29:16.858393 23278 net.cpp:380] concat_3_8_concat_3_8_0_split -> concat_3_8_concat_3_8_0_split_0
I1201 09:29:16.858400 23278 net.cpp:380] concat_3_8_concat_3_8_0_split -> concat_3_8_concat_3_8_0_split_1
I1201 09:29:16.858481 23278 net.cpp:122] Setting up concat_3_8_concat_3_8_0_split
I1201 09:29:16.858489 23278 net.cpp:129] Top shape: 1 384 16 61 (374784)
I1201 09:29:16.858494 23278 net.cpp:129] Top shape: 1 384 16 61 (374784)
I1201 09:29:16.858499 23278 net.cpp:137] Memory required for data: 227679296
I1201 09:29:16.858502 23278 layer_factory.hpp:77] Creating layer conv3_9/x1/bn
I1201 09:29:16.858508 23278 net.cpp:84] Creating Layer conv3_9/x1/bn
I1201 09:29:16.858512 23278 net.cpp:406] conv3_9/x1/bn <- concat_3_8_concat_3_8_0_split_0
I1201 09:29:16.858520 23278 net.cpp:380] conv3_9/x1/bn -> conv3_9/x1/bn
I1201 09:29:16.858994 23278 net.cpp:122] Setting up conv3_9/x1/bn
I1201 09:29:16.859004 23278 net.cpp:129] Top shape: 1 384 16 61 (374784)
I1201 09:29:16.859007 23278 net.cpp:137] Memory required for data: 229178432
I1201 09:29:16.859016 23278 layer_factory.hpp:77] Creating layer conv3_9/x1/scale
I1201 09:29:16.859024 23278 net.cpp:84] Creating Layer conv3_9/x1/scale
I1201 09:29:16.859028 23278 net.cpp:406] conv3_9/x1/scale <- conv3_9/x1/bn
I1201 09:29:16.859035 23278 net.cpp:367] conv3_9/x1/scale -> conv3_9/x1/bn (in-place)
I1201 09:29:16.859127 23278 layer_factory.hpp:77] Creating layer conv3_9/x1/scale
I1201 09:29:16.859380 23278 net.cpp:122] Setting up conv3_9/x1/scale
I1201 09:29:16.859388 23278 net.cpp:129] Top shape: 1 384 16 61 (374784)
I1201 09:29:16.859392 23278 net.cpp:137] Memory required for data: 230677568
I1201 09:29:16.859400 23278 layer_factory.hpp:77] Creating layer relu3_9/x1
I1201 09:29:16.859405 23278 net.cpp:84] Creating Layer relu3_9/x1
I1201 09:29:16.859411 23278 net.cpp:406] relu3_9/x1 <- conv3_9/x1/bn
I1201 09:29:16.859416 23278 net.cpp:367] relu3_9/x1 -> conv3_9/x1/bn (in-place)
I1201 09:29:16.859658 23278 net.cpp:122] Setting up relu3_9/x1
I1201 09:29:16.859668 23278 net.cpp:129] Top shape: 1 384 16 61 (374784)
I1201 09:29:16.859673 23278 net.cpp:137] Memory required for data: 232176704
I1201 09:29:16.859678 23278 layer_factory.hpp:77] Creating layer conv3_9/x1
I1201 09:29:16.859688 23278 net.cpp:84] Creating Layer conv3_9/x1
I1201 09:29:16.859694 23278 net.cpp:406] conv3_9/x1 <- conv3_9/x1/bn
I1201 09:29:16.859700 23278 net.cpp:380] conv3_9/x1 -> conv3_9/x1
I1201 09:29:16.863055 23278 net.cpp:122] Setting up conv3_9/x1
I1201 09:29:16.863076 23278 net.cpp:129] Top shape: 1 128 16 61 (124928)
I1201 09:29:16.863080 23278 net.cpp:137] Memory required for data: 232676416
I1201 09:29:16.863087 23278 layer_factory.hpp:77] Creating layer conv3_9/x2/bn
I1201 09:29:16.863095 23278 net.cpp:84] Creating Layer conv3_9/x2/bn
I1201 09:29:16.863101 23278 net.cpp:406] conv3_9/x2/bn <- conv3_9/x1
I1201 09:29:16.863109 23278 net.cpp:380] conv3_9/x2/bn -> conv3_9/x2/bn
I1201 09:29:16.863598 23278 net.cpp:122] Setting up conv3_9/x2/bn
I1201 09:29:16.863608 23278 net.cpp:129] Top shape: 1 128 16 61 (124928)
I1201 09:29:16.863612 23278 net.cpp:137] Memory required for data: 233176128
I1201 09:29:16.863621 23278 layer_factory.hpp:77] Creating layer conv3_9/x2/scale
I1201 09:29:16.863628 23278 net.cpp:84] Creating Layer conv3_9/x2/scale
I1201 09:29:16.863633 23278 net.cpp:406] conv3_9/x2/scale <- conv3_9/x2/bn
I1201 09:29:16.863641 23278 net.cpp:367] conv3_9/x2/scale -> conv3_9/x2/bn (in-place)
I1201 09:29:16.863726 23278 layer_factory.hpp:77] Creating layer conv3_9/x2/scale
I1201 09:29:16.863997 23278 net.cpp:122] Setting up conv3_9/x2/scale
I1201 09:29:16.864007 23278 net.cpp:129] Top shape: 1 128 16 61 (124928)
I1201 09:29:16.864012 23278 net.cpp:137] Memory required for data: 233675840
I1201 09:29:16.864019 23278 layer_factory.hpp:77] Creating layer relu3_9/x2
I1201 09:29:16.864027 23278 net.cpp:84] Creating Layer relu3_9/x2
I1201 09:29:16.864032 23278 net.cpp:406] relu3_9/x2 <- conv3_9/x2/bn
I1201 09:29:16.864037 23278 net.cpp:367] relu3_9/x2 -> conv3_9/x2/bn (in-place)
I1201 09:29:16.864490 23278 net.cpp:122] Setting up relu3_9/x2
I1201 09:29:16.864502 23278 net.cpp:129] Top shape: 1 128 16 61 (124928)
I1201 09:29:16.864506 23278 net.cpp:137] Memory required for data: 234175552
I1201 09:29:16.864511 23278 layer_factory.hpp:77] Creating layer conv3_9/x2
I1201 09:29:16.864523 23278 net.cpp:84] Creating Layer conv3_9/x2
I1201 09:29:16.864528 23278 net.cpp:406] conv3_9/x2 <- conv3_9/x2/bn
I1201 09:29:16.864537 23278 net.cpp:380] conv3_9/x2 -> conv3_9/x2
I1201 09:29:16.867866 23278 net.cpp:122] Setting up conv3_9/x2
I1201 09:29:16.867899 23278 net.cpp:129] Top shape: 1 32 16 61 (31232)
I1201 09:29:16.867903 23278 net.cpp:137] Memory required for data: 234300480
I1201 09:29:16.867914 23278 layer_factory.hpp:77] Creating layer concat_3_9
I1201 09:29:16.867926 23278 net.cpp:84] Creating Layer concat_3_9
I1201 09:29:16.867933 23278 net.cpp:406] concat_3_9 <- concat_3_8_concat_3_8_0_split_1
I1201 09:29:16.867941 23278 net.cpp:406] concat_3_9 <- conv3_9/x2
I1201 09:29:16.867949 23278 net.cpp:380] concat_3_9 -> concat_3_9
I1201 09:29:16.868011 23278 net.cpp:122] Setting up concat_3_9
I1201 09:29:16.868021 23278 net.cpp:129] Top shape: 1 416 16 61 (406016)
I1201 09:29:16.868024 23278 net.cpp:137] Memory required for data: 235924544
I1201 09:29:16.868028 23278 layer_factory.hpp:77] Creating layer concat_3_9_concat_3_9_0_split
I1201 09:29:16.868036 23278 net.cpp:84] Creating Layer concat_3_9_concat_3_9_0_split
I1201 09:29:16.868041 23278 net.cpp:406] concat_3_9_concat_3_9_0_split <- concat_3_9
I1201 09:29:16.868048 23278 net.cpp:380] concat_3_9_concat_3_9_0_split -> concat_3_9_concat_3_9_0_split_0
I1201 09:29:16.868055 23278 net.cpp:380] concat_3_9_concat_3_9_0_split -> concat_3_9_concat_3_9_0_split_1
I1201 09:29:16.868139 23278 net.cpp:122] Setting up concat_3_9_concat_3_9_0_split
I1201 09:29:16.868146 23278 net.cpp:129] Top shape: 1 416 16 61 (406016)
I1201 09:29:16.868152 23278 net.cpp:129] Top shape: 1 416 16 61 (406016)
I1201 09:29:16.868155 23278 net.cpp:137] Memory required for data: 239172672
I1201 09:29:16.868160 23278 layer_factory.hpp:77] Creating layer conv3_10/x1/bn
I1201 09:29:16.868167 23278 net.cpp:84] Creating Layer conv3_10/x1/bn
I1201 09:29:16.868171 23278 net.cpp:406] conv3_10/x1/bn <- concat_3_9_concat_3_9_0_split_0
I1201 09:29:16.868180 23278 net.cpp:380] conv3_10/x1/bn -> conv3_10/x1/bn
I1201 09:29:16.868717 23278 net.cpp:122] Setting up conv3_10/x1/bn
I1201 09:29:16.868727 23278 net.cpp:129] Top shape: 1 416 16 61 (406016)
I1201 09:29:16.868731 23278 net.cpp:137] Memory required for data: 240796736
I1201 09:29:16.868741 23278 layer_factory.hpp:77] Creating layer conv3_10/x1/scale
I1201 09:29:16.868752 23278 net.cpp:84] Creating Layer conv3_10/x1/scale
I1201 09:29:16.868757 23278 net.cpp:406] conv3_10/x1/scale <- conv3_10/x1/bn
I1201 09:29:16.868762 23278 net.cpp:367] conv3_10/x1/scale -> conv3_10/x1/bn (in-place)
I1201 09:29:16.868854 23278 layer_factory.hpp:77] Creating layer conv3_10/x1/scale
I1201 09:29:16.869134 23278 net.cpp:122] Setting up conv3_10/x1/scale
I1201 09:29:16.869146 23278 net.cpp:129] Top shape: 1 416 16 61 (406016)
I1201 09:29:16.869150 23278 net.cpp:137] Memory required for data: 242420800
I1201 09:29:16.869158 23278 layer_factory.hpp:77] Creating layer relu3_10/x1
I1201 09:29:16.869166 23278 net.cpp:84] Creating Layer relu3_10/x1
I1201 09:29:16.869170 23278 net.cpp:406] relu3_10/x1 <- conv3_10/x1/bn
I1201 09:29:16.869175 23278 net.cpp:367] relu3_10/x1 -> conv3_10/x1/bn (in-place)
I1201 09:29:16.869437 23278 net.cpp:122] Setting up relu3_10/x1
I1201 09:29:16.869452 23278 net.cpp:129] Top shape: 1 416 16 61 (406016)
I1201 09:29:16.869457 23278 net.cpp:137] Memory required for data: 244044864
I1201 09:29:16.869462 23278 layer_factory.hpp:77] Creating layer conv3_10/x1
I1201 09:29:16.869473 23278 net.cpp:84] Creating Layer conv3_10/x1
I1201 09:29:16.869478 23278 net.cpp:406] conv3_10/x1 <- conv3_10/x1/bn
I1201 09:29:16.869485 23278 net.cpp:380] conv3_10/x1 -> conv3_10/x1
I1201 09:29:16.873097 23278 net.cpp:122] Setting up conv3_10/x1
I1201 09:29:16.873116 23278 net.cpp:129] Top shape: 1 128 16 61 (124928)
I1201 09:29:16.873121 23278 net.cpp:137] Memory required for data: 244544576
I1201 09:29:16.873128 23278 layer_factory.hpp:77] Creating layer conv3_10/x2/bn
I1201 09:29:16.873138 23278 net.cpp:84] Creating Layer conv3_10/x2/bn
I1201 09:29:16.873143 23278 net.cpp:406] conv3_10/x2/bn <- conv3_10/x1
I1201 09:29:16.873150 23278 net.cpp:380] conv3_10/x2/bn -> conv3_10/x2/bn
I1201 09:29:16.873648 23278 net.cpp:122] Setting up conv3_10/x2/bn
I1201 09:29:16.873658 23278 net.cpp:129] Top shape: 1 128 16 61 (124928)
I1201 09:29:16.873662 23278 net.cpp:137] Memory required for data: 245044288
I1201 09:29:16.873672 23278 layer_factory.hpp:77] Creating layer conv3_10/x2/scale
I1201 09:29:16.873682 23278 net.cpp:84] Creating Layer conv3_10/x2/scale
I1201 09:29:16.873685 23278 net.cpp:406] conv3_10/x2/scale <- conv3_10/x2/bn
I1201 09:29:16.873692 23278 net.cpp:367] conv3_10/x2/scale -> conv3_10/x2/bn (in-place)
I1201 09:29:16.873778 23278 layer_factory.hpp:77] Creating layer conv3_10/x2/scale
I1201 09:29:16.874038 23278 net.cpp:122] Setting up conv3_10/x2/scale
I1201 09:29:16.874047 23278 net.cpp:129] Top shape: 1 128 16 61 (124928)
I1201 09:29:16.874052 23278 net.cpp:137] Memory required for data: 245544000
I1201 09:29:16.874058 23278 layer_factory.hpp:77] Creating layer relu3_10/x2
I1201 09:29:16.874065 23278 net.cpp:84] Creating Layer relu3_10/x2
I1201 09:29:16.874070 23278 net.cpp:406] relu3_10/x2 <- conv3_10/x2/bn
I1201 09:29:16.874078 23278 net.cpp:367] relu3_10/x2 -> conv3_10/x2/bn (in-place)
I1201 09:29:16.874529 23278 net.cpp:122] Setting up relu3_10/x2
I1201 09:29:16.874542 23278 net.cpp:129] Top shape: 1 128 16 61 (124928)
I1201 09:29:16.874547 23278 net.cpp:137] Memory required for data: 246043712
I1201 09:29:16.874552 23278 layer_factory.hpp:77] Creating layer conv3_10/x2
I1201 09:29:16.874564 23278 net.cpp:84] Creating Layer conv3_10/x2
I1201 09:29:16.874569 23278 net.cpp:406] conv3_10/x2 <- conv3_10/x2/bn
I1201 09:29:16.874577 23278 net.cpp:380] conv3_10/x2 -> conv3_10/x2
I1201 09:29:16.877737 23278 net.cpp:122] Setting up conv3_10/x2
I1201 09:29:16.877753 23278 net.cpp:129] Top shape: 1 32 16 61 (31232)
I1201 09:29:16.877756 23278 net.cpp:137] Memory required for data: 246168640
I1201 09:29:16.877763 23278 layer_factory.hpp:77] Creating layer concat_3_10
I1201 09:29:16.877773 23278 net.cpp:84] Creating Layer concat_3_10
I1201 09:29:16.877779 23278 net.cpp:406] concat_3_10 <- concat_3_9_concat_3_9_0_split_1
I1201 09:29:16.877785 23278 net.cpp:406] concat_3_10 <- conv3_10/x2
I1201 09:29:16.877791 23278 net.cpp:380] concat_3_10 -> concat_3_10
I1201 09:29:16.877851 23278 net.cpp:122] Setting up concat_3_10
I1201 09:29:16.877861 23278 net.cpp:129] Top shape: 1 448 16 61 (437248)
I1201 09:29:16.877864 23278 net.cpp:137] Memory required for data: 247917632
I1201 09:29:16.877869 23278 layer_factory.hpp:77] Creating layer concat_3_10_concat_3_10_0_split
I1201 09:29:16.877877 23278 net.cpp:84] Creating Layer concat_3_10_concat_3_10_0_split
I1201 09:29:16.877882 23278 net.cpp:406] concat_3_10_concat_3_10_0_split <- concat_3_10
I1201 09:29:16.877887 23278 net.cpp:380] concat_3_10_concat_3_10_0_split -> concat_3_10_concat_3_10_0_split_0
I1201 09:29:16.877897 23278 net.cpp:380] concat_3_10_concat_3_10_0_split -> concat_3_10_concat_3_10_0_split_1
I1201 09:29:16.877979 23278 net.cpp:122] Setting up concat_3_10_concat_3_10_0_split
I1201 09:29:16.877986 23278 net.cpp:129] Top shape: 1 448 16 61 (437248)
I1201 09:29:16.877991 23278 net.cpp:129] Top shape: 1 448 16 61 (437248)
I1201 09:29:16.878000 23278 net.cpp:137] Memory required for data: 251415616
I1201 09:29:16.878005 23278 layer_factory.hpp:77] Creating layer conv3_11/x1/bn
I1201 09:29:16.878013 23278 net.cpp:84] Creating Layer conv3_11/x1/bn
I1201 09:29:16.878018 23278 net.cpp:406] conv3_11/x1/bn <- concat_3_10_concat_3_10_0_split_0
I1201 09:29:16.878026 23278 net.cpp:380] conv3_11/x1/bn -> conv3_11/x1/bn
I1201 09:29:16.878545 23278 net.cpp:122] Setting up conv3_11/x1/bn
I1201 09:29:16.878556 23278 net.cpp:129] Top shape: 1 448 16 61 (437248)
I1201 09:29:16.878559 23278 net.cpp:137] Memory required for data: 253164608
I1201 09:29:16.878569 23278 layer_factory.hpp:77] Creating layer conv3_11/x1/scale
I1201 09:29:16.878576 23278 net.cpp:84] Creating Layer conv3_11/x1/scale
I1201 09:29:16.878581 23278 net.cpp:406] conv3_11/x1/scale <- conv3_11/x1/bn
I1201 09:29:16.878587 23278 net.cpp:367] conv3_11/x1/scale -> conv3_11/x1/bn (in-place)
I1201 09:29:16.878676 23278 layer_factory.hpp:77] Creating layer conv3_11/x1/scale
I1201 09:29:16.878962 23278 net.cpp:122] Setting up conv3_11/x1/scale
I1201 09:29:16.878970 23278 net.cpp:129] Top shape: 1 448 16 61 (437248)
I1201 09:29:16.878974 23278 net.cpp:137] Memory required for data: 254913600
I1201 09:29:16.878981 23278 layer_factory.hpp:77] Creating layer relu3_11/x1
I1201 09:29:16.878988 23278 net.cpp:84] Creating Layer relu3_11/x1
I1201 09:29:16.878993 23278 net.cpp:406] relu3_11/x1 <- conv3_11/x1/bn
I1201 09:29:16.879000 23278 net.cpp:367] relu3_11/x1 -> conv3_11/x1/bn (in-place)
I1201 09:29:16.879451 23278 net.cpp:122] Setting up relu3_11/x1
I1201 09:29:16.879463 23278 net.cpp:129] Top shape: 1 448 16 61 (437248)
I1201 09:29:16.879467 23278 net.cpp:137] Memory required for data: 256662592
I1201 09:29:16.879472 23278 layer_factory.hpp:77] Creating layer conv3_11/x1
I1201 09:29:16.879485 23278 net.cpp:84] Creating Layer conv3_11/x1
I1201 09:29:16.879490 23278 net.cpp:406] conv3_11/x1 <- conv3_11/x1/bn
I1201 09:29:16.879499 23278 net.cpp:380] conv3_11/x1 -> conv3_11/x1
I1201 09:29:16.883865 23278 net.cpp:122] Setting up conv3_11/x1
I1201 09:29:16.883879 23278 net.cpp:129] Top shape: 1 128 16 61 (124928)
I1201 09:29:16.883883 23278 net.cpp:137] Memory required for data: 257162304
I1201 09:29:16.883890 23278 layer_factory.hpp:77] Creating layer conv3_11/x2/bn
I1201 09:29:16.883899 23278 net.cpp:84] Creating Layer conv3_11/x2/bn
I1201 09:29:16.883904 23278 net.cpp:406] conv3_11/x2/bn <- conv3_11/x1
I1201 09:29:16.883911 23278 net.cpp:380] conv3_11/x2/bn -> conv3_11/x2/bn
I1201 09:29:16.884413 23278 net.cpp:122] Setting up conv3_11/x2/bn
I1201 09:29:16.884421 23278 net.cpp:129] Top shape: 1 128 16 61 (124928)
I1201 09:29:16.884425 23278 net.cpp:137] Memory required for data: 257662016
I1201 09:29:16.884436 23278 layer_factory.hpp:77] Creating layer conv3_11/x2/scale
I1201 09:29:16.884443 23278 net.cpp:84] Creating Layer conv3_11/x2/scale
I1201 09:29:16.884449 23278 net.cpp:406] conv3_11/x2/scale <- conv3_11/x2/bn
I1201 09:29:16.884454 23278 net.cpp:367] conv3_11/x2/scale -> conv3_11/x2/bn (in-place)
I1201 09:29:16.884542 23278 layer_factory.hpp:77] Creating layer conv3_11/x2/scale
I1201 09:29:16.884809 23278 net.cpp:122] Setting up conv3_11/x2/scale
I1201 09:29:16.884819 23278 net.cpp:129] Top shape: 1 128 16 61 (124928)
I1201 09:29:16.884822 23278 net.cpp:137] Memory required for data: 258161728
I1201 09:29:16.884830 23278 layer_factory.hpp:77] Creating layer relu3_11/x2
I1201 09:29:16.884836 23278 net.cpp:84] Creating Layer relu3_11/x2
I1201 09:29:16.884841 23278 net.cpp:406] relu3_11/x2 <- conv3_11/x2/bn
I1201 09:29:16.884848 23278 net.cpp:367] relu3_11/x2 -> conv3_11/x2/bn (in-place)
I1201 09:29:16.885087 23278 net.cpp:122] Setting up relu3_11/x2
I1201 09:29:16.885097 23278 net.cpp:129] Top shape: 1 128 16 61 (124928)
I1201 09:29:16.885102 23278 net.cpp:137] Memory required for data: 258661440
I1201 09:29:16.885107 23278 layer_factory.hpp:77] Creating layer conv3_11/x2
I1201 09:29:16.885119 23278 net.cpp:84] Creating Layer conv3_11/x2
I1201 09:29:16.885124 23278 net.cpp:406] conv3_11/x2 <- conv3_11/x2/bn
I1201 09:29:16.885134 23278 net.cpp:380] conv3_11/x2 -> conv3_11/x2
I1201 09:29:16.888233 23278 net.cpp:122] Setting up conv3_11/x2
I1201 09:29:16.888247 23278 net.cpp:129] Top shape: 1 32 16 61 (31232)
I1201 09:29:16.888252 23278 net.cpp:137] Memory required for data: 258786368
I1201 09:29:16.888258 23278 layer_factory.hpp:77] Creating layer concat_3_11
I1201 09:29:16.888267 23278 net.cpp:84] Creating Layer concat_3_11
I1201 09:29:16.888273 23278 net.cpp:406] concat_3_11 <- concat_3_10_concat_3_10_0_split_1
I1201 09:29:16.888278 23278 net.cpp:406] concat_3_11 <- conv3_11/x2
I1201 09:29:16.888284 23278 net.cpp:380] concat_3_11 -> concat_3_11
I1201 09:29:16.888348 23278 net.cpp:122] Setting up concat_3_11
I1201 09:29:16.888357 23278 net.cpp:129] Top shape: 1 480 16 61 (468480)
I1201 09:29:16.888362 23278 net.cpp:137] Memory required for data: 260660288
I1201 09:29:16.888366 23278 layer_factory.hpp:77] Creating layer concat_3_11_concat_3_11_0_split
I1201 09:29:16.888375 23278 net.cpp:84] Creating Layer concat_3_11_concat_3_11_0_split
I1201 09:29:16.888378 23278 net.cpp:406] concat_3_11_concat_3_11_0_split <- concat_3_11
I1201 09:29:16.888384 23278 net.cpp:380] concat_3_11_concat_3_11_0_split -> concat_3_11_concat_3_11_0_split_0
I1201 09:29:16.888392 23278 net.cpp:380] concat_3_11_concat_3_11_0_split -> concat_3_11_concat_3_11_0_split_1
I1201 09:29:16.888475 23278 net.cpp:122] Setting up concat_3_11_concat_3_11_0_split
I1201 09:29:16.888484 23278 net.cpp:129] Top shape: 1 480 16 61 (468480)
I1201 09:29:16.888489 23278 net.cpp:129] Top shape: 1 480 16 61 (468480)
I1201 09:29:16.888492 23278 net.cpp:137] Memory required for data: 264408128
I1201 09:29:16.888496 23278 layer_factory.hpp:77] Creating layer conv3_12/x1/bn
I1201 09:29:16.888504 23278 net.cpp:84] Creating Layer conv3_12/x1/bn
I1201 09:29:16.888509 23278 net.cpp:406] conv3_12/x1/bn <- concat_3_11_concat_3_11_0_split_0
I1201 09:29:16.888514 23278 net.cpp:380] conv3_12/x1/bn -> conv3_12/x1/bn
I1201 09:29:16.889039 23278 net.cpp:122] Setting up conv3_12/x1/bn
I1201 09:29:16.889050 23278 net.cpp:129] Top shape: 1 480 16 61 (468480)
I1201 09:29:16.889055 23278 net.cpp:137] Memory required for data: 266282048
I1201 09:29:16.889063 23278 layer_factory.hpp:77] Creating layer conv3_12/x1/scale
I1201 09:29:16.889070 23278 net.cpp:84] Creating Layer conv3_12/x1/scale
I1201 09:29:16.889075 23278 net.cpp:406] conv3_12/x1/scale <- conv3_12/x1/bn
I1201 09:29:16.889081 23278 net.cpp:367] conv3_12/x1/scale -> conv3_12/x1/bn (in-place)
I1201 09:29:16.889170 23278 layer_factory.hpp:77] Creating layer conv3_12/x1/scale
I1201 09:29:16.889461 23278 net.cpp:122] Setting up conv3_12/x1/scale
I1201 09:29:16.889470 23278 net.cpp:129] Top shape: 1 480 16 61 (468480)
I1201 09:29:16.889474 23278 net.cpp:137] Memory required for data: 268155968
I1201 09:29:16.889482 23278 layer_factory.hpp:77] Creating layer relu3_12/x1
I1201 09:29:16.889488 23278 net.cpp:84] Creating Layer relu3_12/x1
I1201 09:29:16.889492 23278 net.cpp:406] relu3_12/x1 <- conv3_12/x1/bn
I1201 09:29:16.889500 23278 net.cpp:367] relu3_12/x1 -> conv3_12/x1/bn (in-place)
I1201 09:29:16.889948 23278 net.cpp:122] Setting up relu3_12/x1
I1201 09:29:16.889961 23278 net.cpp:129] Top shape: 1 480 16 61 (468480)
I1201 09:29:16.889966 23278 net.cpp:137] Memory required for data: 270029888
I1201 09:29:16.889969 23278 layer_factory.hpp:77] Creating layer conv3_12/x1
I1201 09:29:16.889981 23278 net.cpp:84] Creating Layer conv3_12/x1
I1201 09:29:16.889986 23278 net.cpp:406] conv3_12/x1 <- conv3_12/x1/bn
I1201 09:29:16.889995 23278 net.cpp:380] conv3_12/x1 -> conv3_12/x1
I1201 09:29:16.893983 23278 net.cpp:122] Setting up conv3_12/x1
I1201 09:29:16.893996 23278 net.cpp:129] Top shape: 1 128 16 61 (124928)
I1201 09:29:16.894001 23278 net.cpp:137] Memory required for data: 270529600
I1201 09:29:16.894007 23278 layer_factory.hpp:77] Creating layer conv3_12/x2/bn
I1201 09:29:16.894016 23278 net.cpp:84] Creating Layer conv3_12/x2/bn
I1201 09:29:16.894021 23278 net.cpp:406] conv3_12/x2/bn <- conv3_12/x1
I1201 09:29:16.894031 23278 net.cpp:380] conv3_12/x2/bn -> conv3_12/x2/bn
I1201 09:29:16.894532 23278 net.cpp:122] Setting up conv3_12/x2/bn
I1201 09:29:16.894542 23278 net.cpp:129] Top shape: 1 128 16 61 (124928)
I1201 09:29:16.894546 23278 net.cpp:137] Memory required for data: 271029312
I1201 09:29:16.894556 23278 layer_factory.hpp:77] Creating layer conv3_12/x2/scale
I1201 09:29:16.894563 23278 net.cpp:84] Creating Layer conv3_12/x2/scale
I1201 09:29:16.894568 23278 net.cpp:406] conv3_12/x2/scale <- conv3_12/x2/bn
I1201 09:29:16.894574 23278 net.cpp:367] conv3_12/x2/scale -> conv3_12/x2/bn (in-place)
I1201 09:29:16.894660 23278 layer_factory.hpp:77] Creating layer conv3_12/x2/scale
I1201 09:29:16.894930 23278 net.cpp:122] Setting up conv3_12/x2/scale
I1201 09:29:16.894939 23278 net.cpp:129] Top shape: 1 128 16 61 (124928)
I1201 09:29:16.894943 23278 net.cpp:137] Memory required for data: 271529024
I1201 09:29:16.894951 23278 layer_factory.hpp:77] Creating layer relu3_12/x2
I1201 09:29:16.894958 23278 net.cpp:84] Creating Layer relu3_12/x2
I1201 09:29:16.894963 23278 net.cpp:406] relu3_12/x2 <- conv3_12/x2/bn
I1201 09:29:16.894968 23278 net.cpp:367] relu3_12/x2 -> conv3_12/x2/bn (in-place)
I1201 09:29:16.895221 23278 net.cpp:122] Setting up relu3_12/x2
I1201 09:29:16.895232 23278 net.cpp:129] Top shape: 1 128 16 61 (124928)
I1201 09:29:16.895236 23278 net.cpp:137] Memory required for data: 272028736
I1201 09:29:16.895241 23278 layer_factory.hpp:77] Creating layer conv3_12/x2
I1201 09:29:16.895252 23278 net.cpp:84] Creating Layer conv3_12/x2
I1201 09:29:16.895257 23278 net.cpp:406] conv3_12/x2 <- conv3_12/x2/bn
I1201 09:29:16.895265 23278 net.cpp:380] conv3_12/x2 -> conv3_12/x2
I1201 09:29:16.898378 23278 net.cpp:122] Setting up conv3_12/x2
I1201 09:29:16.898392 23278 net.cpp:129] Top shape: 1 32 16 61 (31232)
I1201 09:29:16.898397 23278 net.cpp:137] Memory required for data: 272153664
I1201 09:29:16.898404 23278 layer_factory.hpp:77] Creating layer concat_3_12
I1201 09:29:16.898411 23278 net.cpp:84] Creating Layer concat_3_12
I1201 09:29:16.898416 23278 net.cpp:406] concat_3_12 <- concat_3_11_concat_3_11_0_split_1
I1201 09:29:16.898422 23278 net.cpp:406] concat_3_12 <- conv3_12/x2
I1201 09:29:16.898428 23278 net.cpp:380] concat_3_12 -> concat_3_12
I1201 09:29:16.898489 23278 net.cpp:122] Setting up concat_3_12
I1201 09:29:16.898497 23278 net.cpp:129] Top shape: 1 512 16 61 (499712)
I1201 09:29:16.898501 23278 net.cpp:137] Memory required for data: 274152512
I1201 09:29:16.898506 23278 layer_factory.hpp:77] Creating layer conv3_blk/bn
I1201 09:29:16.898512 23278 net.cpp:84] Creating Layer conv3_blk/bn
I1201 09:29:16.898516 23278 net.cpp:406] conv3_blk/bn <- concat_3_12
I1201 09:29:16.898524 23278 net.cpp:380] conv3_blk/bn -> conv3_blk/bn
I1201 09:29:16.899027 23278 net.cpp:122] Setting up conv3_blk/bn
I1201 09:29:16.899036 23278 net.cpp:129] Top shape: 1 512 16 61 (499712)
I1201 09:29:16.899040 23278 net.cpp:137] Memory required for data: 276151360
I1201 09:29:16.899049 23278 layer_factory.hpp:77] Creating layer conv3_blk/scale
I1201 09:29:16.899056 23278 net.cpp:84] Creating Layer conv3_blk/scale
I1201 09:29:16.899060 23278 net.cpp:406] conv3_blk/scale <- conv3_blk/bn
I1201 09:29:16.899067 23278 net.cpp:367] conv3_blk/scale -> conv3_blk/bn (in-place)
I1201 09:29:16.899160 23278 layer_factory.hpp:77] Creating layer conv3_blk/scale
I1201 09:29:16.899425 23278 net.cpp:122] Setting up conv3_blk/scale
I1201 09:29:16.899435 23278 net.cpp:129] Top shape: 1 512 16 61 (499712)
I1201 09:29:16.899438 23278 net.cpp:137] Memory required for data: 278150208
I1201 09:29:16.899446 23278 layer_factory.hpp:77] Creating layer relu3_blk
I1201 09:29:16.899452 23278 net.cpp:84] Creating Layer relu3_blk
I1201 09:29:16.899456 23278 net.cpp:406] relu3_blk <- conv3_blk/bn
I1201 09:29:16.899462 23278 net.cpp:367] relu3_blk -> conv3_blk/bn (in-place)
I1201 09:29:16.899914 23278 net.cpp:122] Setting up relu3_blk
I1201 09:29:16.899929 23278 net.cpp:129] Top shape: 1 512 16 61 (499712)
I1201 09:29:16.899932 23278 net.cpp:137] Memory required for data: 280149056
I1201 09:29:16.899940 23278 layer_factory.hpp:77] Creating layer conv3_blk
I1201 09:29:16.899950 23278 net.cpp:84] Creating Layer conv3_blk
I1201 09:29:16.899955 23278 net.cpp:406] conv3_blk <- conv3_blk/bn
I1201 09:29:16.899963 23278 net.cpp:380] conv3_blk -> conv3_blk
I1201 09:29:16.906906 23278 net.cpp:122] Setting up conv3_blk
I1201 09:29:16.906920 23278 net.cpp:129] Top shape: 1 256 16 61 (249856)
I1201 09:29:16.906925 23278 net.cpp:137] Memory required for data: 281148480
I1201 09:29:16.906931 23278 layer_factory.hpp:77] Creating layer pool3
I1201 09:29:16.906941 23278 net.cpp:84] Creating Layer pool3
I1201 09:29:16.906946 23278 net.cpp:406] pool3 <- conv3_blk
I1201 09:29:16.906955 23278 net.cpp:380] pool3 -> pool3
I1201 09:29:16.907443 23278 net.cpp:122] Setting up pool3
I1201 09:29:16.907455 23278 net.cpp:129] Top shape: 1 256 8 31 (63488)
I1201 09:29:16.907460 23278 net.cpp:137] Memory required for data: 281402432
I1201 09:29:16.907464 23278 layer_factory.hpp:77] Creating layer pool3_pool3_0_split
I1201 09:29:16.907472 23278 net.cpp:84] Creating Layer pool3_pool3_0_split
I1201 09:29:16.907477 23278 net.cpp:406] pool3_pool3_0_split <- pool3
I1201 09:29:16.907485 23278 net.cpp:380] pool3_pool3_0_split -> pool3_pool3_0_split_0
I1201 09:29:16.907492 23278 net.cpp:380] pool3_pool3_0_split -> pool3_pool3_0_split_1
I1201 09:29:16.907578 23278 net.cpp:122] Setting up pool3_pool3_0_split
I1201 09:29:16.907588 23278 net.cpp:129] Top shape: 1 256 8 31 (63488)
I1201 09:29:16.907593 23278 net.cpp:129] Top shape: 1 256 8 31 (63488)
I1201 09:29:16.907596 23278 net.cpp:137] Memory required for data: 281910336
I1201 09:29:16.907600 23278 layer_factory.hpp:77] Creating layer conv4_1/x1/bn
I1201 09:29:16.907608 23278 net.cpp:84] Creating Layer conv4_1/x1/bn
I1201 09:29:16.907613 23278 net.cpp:406] conv4_1/x1/bn <- pool3_pool3_0_split_0
I1201 09:29:16.907621 23278 net.cpp:380] conv4_1/x1/bn -> conv4_1/x1/bn
I1201 09:29:16.908125 23278 net.cpp:122] Setting up conv4_1/x1/bn
I1201 09:29:16.908135 23278 net.cpp:129] Top shape: 1 256 8 31 (63488)
I1201 09:29:16.908139 23278 net.cpp:137] Memory required for data: 282164288
I1201 09:29:16.908150 23278 layer_factory.hpp:77] Creating layer conv4_1/x1/scale
I1201 09:29:16.908157 23278 net.cpp:84] Creating Layer conv4_1/x1/scale
I1201 09:29:16.908162 23278 net.cpp:406] conv4_1/x1/scale <- conv4_1/x1/bn
I1201 09:29:16.908169 23278 net.cpp:367] conv4_1/x1/scale -> conv4_1/x1/bn (in-place)
I1201 09:29:16.908257 23278 layer_factory.hpp:77] Creating layer conv4_1/x1/scale
I1201 09:29:16.908514 23278 net.cpp:122] Setting up conv4_1/x1/scale
I1201 09:29:16.908522 23278 net.cpp:129] Top shape: 1 256 8 31 (63488)
I1201 09:29:16.908526 23278 net.cpp:137] Memory required for data: 282418240
I1201 09:29:16.908534 23278 layer_factory.hpp:77] Creating layer relu4_1/x1
I1201 09:29:16.908540 23278 net.cpp:84] Creating Layer relu4_1/x1
I1201 09:29:16.908545 23278 net.cpp:406] relu4_1/x1 <- conv4_1/x1/bn
I1201 09:29:16.908550 23278 net.cpp:367] relu4_1/x1 -> conv4_1/x1/bn (in-place)
I1201 09:29:16.908787 23278 net.cpp:122] Setting up relu4_1/x1
I1201 09:29:16.908798 23278 net.cpp:129] Top shape: 1 256 8 31 (63488)
I1201 09:29:16.908802 23278 net.cpp:137] Memory required for data: 282672192
I1201 09:29:16.908807 23278 layer_factory.hpp:77] Creating layer conv4_1/x1
I1201 09:29:16.908818 23278 net.cpp:84] Creating Layer conv4_1/x1
I1201 09:29:16.908823 23278 net.cpp:406] conv4_1/x1 <- conv4_1/x1/bn
I1201 09:29:16.908829 23278 net.cpp:380] conv4_1/x1 -> conv4_1/x1
I1201 09:29:16.911815 23278 net.cpp:122] Setting up conv4_1/x1
I1201 09:29:16.911829 23278 net.cpp:129] Top shape: 1 128 8 31 (31744)
I1201 09:29:16.911834 23278 net.cpp:137] Memory required for data: 282799168
I1201 09:29:16.911840 23278 layer_factory.hpp:77] Creating layer conv4_1/x2/bn
I1201 09:29:16.911849 23278 net.cpp:84] Creating Layer conv4_1/x2/bn
I1201 09:29:16.911854 23278 net.cpp:406] conv4_1/x2/bn <- conv4_1/x1
I1201 09:29:16.911862 23278 net.cpp:380] conv4_1/x2/bn -> conv4_1/x2/bn
I1201 09:29:16.912369 23278 net.cpp:122] Setting up conv4_1/x2/bn
I1201 09:29:16.912380 23278 net.cpp:129] Top shape: 1 128 8 31 (31744)
I1201 09:29:16.912384 23278 net.cpp:137] Memory required for data: 282926144
I1201 09:29:16.912395 23278 layer_factory.hpp:77] Creating layer conv4_1/x2/scale
I1201 09:29:16.912401 23278 net.cpp:84] Creating Layer conv4_1/x2/scale
I1201 09:29:16.912405 23278 net.cpp:406] conv4_1/x2/scale <- conv4_1/x2/bn
I1201 09:29:16.912412 23278 net.cpp:367] conv4_1/x2/scale -> conv4_1/x2/bn (in-place)
I1201 09:29:16.912505 23278 layer_factory.hpp:77] Creating layer conv4_1/x2/scale
I1201 09:29:16.912762 23278 net.cpp:122] Setting up conv4_1/x2/scale
I1201 09:29:16.912771 23278 net.cpp:129] Top shape: 1 128 8 31 (31744)
I1201 09:29:16.912775 23278 net.cpp:137] Memory required for data: 283053120
I1201 09:29:16.912782 23278 layer_factory.hpp:77] Creating layer relu4_1/x2
I1201 09:29:16.912788 23278 net.cpp:84] Creating Layer relu4_1/x2
I1201 09:29:16.912793 23278 net.cpp:406] relu4_1/x2 <- conv4_1/x2/bn
I1201 09:29:16.912798 23278 net.cpp:367] relu4_1/x2 -> conv4_1/x2/bn (in-place)
I1201 09:29:16.913250 23278 net.cpp:122] Setting up relu4_1/x2
I1201 09:29:16.913262 23278 net.cpp:129] Top shape: 1 128 8 31 (31744)
I1201 09:29:16.913269 23278 net.cpp:137] Memory required for data: 283180096
I1201 09:29:16.913274 23278 layer_factory.hpp:77] Creating layer conv4_1/x2
I1201 09:29:16.913283 23278 net.cpp:84] Creating Layer conv4_1/x2
I1201 09:29:16.913288 23278 net.cpp:406] conv4_1/x2 <- conv4_1/x2/bn
I1201 09:29:16.913296 23278 net.cpp:380] conv4_1/x2 -> conv4_1/x2
I1201 09:29:16.916429 23278 net.cpp:122] Setting up conv4_1/x2
I1201 09:29:16.916442 23278 net.cpp:129] Top shape: 1 32 8 31 (7936)
I1201 09:29:16.916446 23278 net.cpp:137] Memory required for data: 283211840
I1201 09:29:16.916453 23278 layer_factory.hpp:77] Creating layer concat_4_1
I1201 09:29:16.916461 23278 net.cpp:84] Creating Layer concat_4_1
I1201 09:29:16.916466 23278 net.cpp:406] concat_4_1 <- pool3_pool3_0_split_1
I1201 09:29:16.916472 23278 net.cpp:406] concat_4_1 <- conv4_1/x2
I1201 09:29:16.916481 23278 net.cpp:380] concat_4_1 -> concat_4_1
I1201 09:29:16.916539 23278 net.cpp:122] Setting up concat_4_1
I1201 09:29:16.916548 23278 net.cpp:129] Top shape: 1 288 8 31 (71424)
I1201 09:29:16.916551 23278 net.cpp:137] Memory required for data: 283497536
I1201 09:29:16.916555 23278 layer_factory.hpp:77] Creating layer concat_4_1_concat_4_1_0_split
I1201 09:29:16.916564 23278 net.cpp:84] Creating Layer concat_4_1_concat_4_1_0_split
I1201 09:29:16.916568 23278 net.cpp:406] concat_4_1_concat_4_1_0_split <- concat_4_1
I1201 09:29:16.916575 23278 net.cpp:380] concat_4_1_concat_4_1_0_split -> concat_4_1_concat_4_1_0_split_0
I1201 09:29:16.916582 23278 net.cpp:380] concat_4_1_concat_4_1_0_split -> concat_4_1_concat_4_1_0_split_1
I1201 09:29:16.916667 23278 net.cpp:122] Setting up concat_4_1_concat_4_1_0_split
I1201 09:29:16.916676 23278 net.cpp:129] Top shape: 1 288 8 31 (71424)
I1201 09:29:16.916682 23278 net.cpp:129] Top shape: 1 288 8 31 (71424)
I1201 09:29:16.916684 23278 net.cpp:137] Memory required for data: 284068928
I1201 09:29:16.916689 23278 layer_factory.hpp:77] Creating layer conv4_2/x1/bn
I1201 09:29:16.916697 23278 net.cpp:84] Creating Layer conv4_2/x1/bn
I1201 09:29:16.916702 23278 net.cpp:406] conv4_2/x1/bn <- concat_4_1_concat_4_1_0_split_0
I1201 09:29:16.916707 23278 net.cpp:380] conv4_2/x1/bn -> conv4_2/x1/bn
I1201 09:29:16.917243 23278 net.cpp:122] Setting up conv4_2/x1/bn
I1201 09:29:16.917251 23278 net.cpp:129] Top shape: 1 288 8 31 (71424)
I1201 09:29:16.917255 23278 net.cpp:137] Memory required for data: 284354624
I1201 09:29:16.917265 23278 layer_factory.hpp:77] Creating layer conv4_2/x1/scale
I1201 09:29:16.917274 23278 net.cpp:84] Creating Layer conv4_2/x1/scale
I1201 09:29:16.917279 23278 net.cpp:406] conv4_2/x1/scale <- conv4_2/x1/bn
I1201 09:29:16.917284 23278 net.cpp:367] conv4_2/x1/scale -> conv4_2/x1/bn (in-place)
I1201 09:29:16.917379 23278 layer_factory.hpp:77] Creating layer conv4_2/x1/scale
I1201 09:29:16.917666 23278 net.cpp:122] Setting up conv4_2/x1/scale
I1201 09:29:16.917678 23278 net.cpp:129] Top shape: 1 288 8 31 (71424)
I1201 09:29:16.917682 23278 net.cpp:137] Memory required for data: 284640320
I1201 09:29:16.917690 23278 layer_factory.hpp:77] Creating layer relu4_2/x1
I1201 09:29:16.917697 23278 net.cpp:84] Creating Layer relu4_2/x1
I1201 09:29:16.917702 23278 net.cpp:406] relu4_2/x1 <- conv4_2/x1/bn
I1201 09:29:16.917707 23278 net.cpp:367] relu4_2/x1 -> conv4_2/x1/bn (in-place)
I1201 09:29:16.917960 23278 net.cpp:122] Setting up relu4_2/x1
I1201 09:29:16.917971 23278 net.cpp:129] Top shape: 1 288 8 31 (71424)
I1201 09:29:16.917975 23278 net.cpp:137] Memory required for data: 284926016
I1201 09:29:16.917980 23278 layer_factory.hpp:77] Creating layer conv4_2/x1
I1201 09:29:16.917991 23278 net.cpp:84] Creating Layer conv4_2/x1
I1201 09:29:16.917996 23278 net.cpp:406] conv4_2/x1 <- conv4_2/x1/bn
I1201 09:29:16.918004 23278 net.cpp:380] conv4_2/x1 -> conv4_2/x1
I1201 09:29:16.920892 23278 net.cpp:122] Setting up conv4_2/x1
I1201 09:29:16.920903 23278 net.cpp:129] Top shape: 1 128 8 31 (31744)
I1201 09:29:16.920907 23278 net.cpp:137] Memory required for data: 285052992
I1201 09:29:16.920912 23278 layer_factory.hpp:77] Creating layer conv4_2/x2/bn
I1201 09:29:16.920917 23278 net.cpp:84] Creating Layer conv4_2/x2/bn
I1201 09:29:16.920922 23278 net.cpp:406] conv4_2/x2/bn <- conv4_2/x1
I1201 09:29:16.920925 23278 net.cpp:380] conv4_2/x2/bn -> conv4_2/x2/bn
I1201 09:29:16.921308 23278 net.cpp:122] Setting up conv4_2/x2/bn
I1201 09:29:16.921314 23278 net.cpp:129] Top shape: 1 128 8 31 (31744)
I1201 09:29:16.921317 23278 net.cpp:137] Memory required for data: 285179968
I1201 09:29:16.921324 23278 layer_factory.hpp:77] Creating layer conv4_2/x2/scale
I1201 09:29:16.921329 23278 net.cpp:84] Creating Layer conv4_2/x2/scale
I1201 09:29:16.921332 23278 net.cpp:406] conv4_2/x2/scale <- conv4_2/x2/bn
I1201 09:29:16.921336 23278 net.cpp:367] conv4_2/x2/scale -> conv4_2/x2/bn (in-place)
I1201 09:29:16.921404 23278 layer_factory.hpp:77] Creating layer conv4_2/x2/scale
I1201 09:29:16.921598 23278 net.cpp:122] Setting up conv4_2/x2/scale
I1201 09:29:16.921604 23278 net.cpp:129] Top shape: 1 128 8 31 (31744)
I1201 09:29:16.921607 23278 net.cpp:137] Memory required for data: 285306944
I1201 09:29:16.921624 23278 layer_factory.hpp:77] Creating layer relu4_2/x2
I1201 09:29:16.921629 23278 net.cpp:84] Creating Layer relu4_2/x2
I1201 09:29:16.921633 23278 net.cpp:406] relu4_2/x2 <- conv4_2/x2/bn
I1201 09:29:16.921636 23278 net.cpp:367] relu4_2/x2 -> conv4_2/x2/bn (in-place)
I1201 09:29:16.921998 23278 net.cpp:122] Setting up relu4_2/x2
I1201 09:29:16.922008 23278 net.cpp:129] Top shape: 1 128 8 31 (31744)
I1201 09:29:16.922011 23278 net.cpp:137] Memory required for data: 285433920
I1201 09:29:16.922014 23278 layer_factory.hpp:77] Creating layer conv4_2/x2
I1201 09:29:16.922024 23278 net.cpp:84] Creating Layer conv4_2/x2
…
I1201 09:29:20.683353 23278 net.cpp:129] Top shape: 1 32 4 8 (1024)
I1201 09:29:20.683357 23278 net.cpp:137] Memory required for data: 179867272
I1201 09:29:20.683365 23278 layer_factory.hpp:77] Creating layer concat_5_8
I1201 09:29:20.683373 23278 net.cpp:84] Creating Layer concat_5_8
I1201 09:29:20.683378 23278 net.cpp:406] concat_5_8 <- concat_5_7_concat_5_7_0_split_1
I1201 09:29:20.683384 23278 net.cpp:406] concat_5_8 <- conv5_8/x2
I1201 09:29:20.683392 23278 net.cpp:380] concat_5_8 -> concat_5_8
I1201 09:29:20.683449 23278 net.cpp:122] Setting up concat_5_8
I1201 09:29:20.683457 23278 net.cpp:129] Top shape: 1 768 4 8 (24576)
I1201 09:29:20.683461 23278 net.cpp:137] Memory required for data: 179965576
I1201 09:29:20.683465 23278 layer_factory.hpp:77] Creating layer concat_5_8_concat_5_8_0_split
I1201 09:29:20.683471 23278 net.cpp:84] Creating Layer concat_5_8_concat_5_8_0_split
I1201 09:29:20.683476 23278 net.cpp:406] concat_5_8_concat_5_8_0_split <- concat_5_8
I1201 09:29:20.683483 23278 net.cpp:380] concat_5_8_concat_5_8_0_split -> concat_5_8_concat_5_8_0_split_0
I1201 09:29:20.683490 23278 net.cpp:380] concat_5_8_concat_5_8_0_split -> concat_5_8_concat_5_8_0_split_1
I1201 09:29:20.683562 23278 net.cpp:122] Setting up concat_5_8_concat_5_8_0_split
I1201 09:29:20.683569 23278 net.cpp:129] Top shape: 1 768 4 8 (24576)
I1201 09:29:20.683575 23278 net.cpp:129] Top shape: 1 768 4 8 (24576)
I1201 09:29:20.683578 23278 net.cpp:137] Memory required for data: 180162184
I1201 09:29:20.683583 23278 layer_factory.hpp:77] Creating layer conv5_9/x1/bn
I1201 09:29:20.683590 23278 net.cpp:84] Creating Layer conv5_9/x1/bn
I1201 09:29:20.683594 23278 net.cpp:406] conv5_9/x1/bn <- concat_5_8_concat_5_8_0_split_0
I1201 09:29:20.683601 23278 net.cpp:380] conv5_9/x1/bn -> conv5_9/x1/bn
I1201 09:29:20.684100 23278 net.cpp:122] Setting up conv5_9/x1/bn
I1201 09:29:20.684111 23278 net.cpp:129] Top shape: 1 768 4 8 (24576)
I1201 09:29:20.684115 23278 net.cpp:137] Memory required for data: 180260488
I1201 09:29:20.684126 23278 layer_factory.hpp:77] Creating layer conv5_9/x1/scale
I1201 09:29:20.684134 23278 net.cpp:84] Creating Layer conv5_9/x1/scale
I1201 09:29:20.684139 23278 net.cpp:406] conv5_9/x1/scale <- conv5_9/x1/bn
I1201 09:29:20.684144 23278 net.cpp:367] conv5_9/x1/scale -> conv5_9/x1/bn (in-place)
I1201 09:29:20.684232 23278 layer_factory.hpp:77] Creating layer conv5_9/x1/scale
I1201 09:29:20.684500 23278 net.cpp:122] Setting up conv5_9/x1/scale
I1201 09:29:20.684509 23278 net.cpp:129] Top shape: 1 768 4 8 (24576)
I1201 09:29:20.684514 23278 net.cpp:137] Memory required for data: 180358792
I1201 09:29:20.684520 23278 layer_factory.hpp:77] Creating layer relu5_9/x1
I1201 09:29:20.684527 23278 net.cpp:84] Creating Layer relu5_9/x1
I1201 09:29:20.684531 23278 net.cpp:406] relu5_9/x1 <- conv5_9/x1/bn
I1201 09:29:20.684537 23278 net.cpp:367] relu5_9/x1 -> conv5_9/x1/bn (in-place)
I1201 09:29:20.685079 23278 net.cpp:122] Setting up relu5_9/x1
I1201 09:29:20.685092 23278 net.cpp:129] Top shape: 1 768 4 8 (24576)
I1201 09:29:20.685096 23278 net.cpp:137] Memory required for data: 180457096
I1201 09:29:20.685101 23278 layer_factory.hpp:77] Creating layer conv5_9/x1
I1201 09:29:20.685112 23278 net.cpp:84] Creating Layer conv5_9/x1
I1201 09:29:20.685118 23278 net.cpp:406] conv5_9/x1 <- conv5_9/x1/bn
I1201 09:29:20.685127 23278 net.cpp:380] conv5_9/x1 -> conv5_9/x1
I1201 09:29:20.690456 23278 net.cpp:122] Setting up conv5_9/x1
I1201 09:29:20.690469 23278 net.cpp:129] Top shape: 1 128 4 8 (4096)
I1201 09:29:20.690474 23278 net.cpp:137] Memory required for data: 180473480
I1201 09:29:20.690481 23278 layer_factory.hpp:77] Creating layer conv5_9/x2/bn
I1201 09:29:20.690490 23278 net.cpp:84] Creating Layer conv5_9/x2/bn
I1201 09:29:20.690495 23278 net.cpp:406] conv5_9/x2/bn <- conv5_9/x1
I1201 09:29:20.690501 23278 net.cpp:380] conv5_9/x2/bn -> conv5_9/x2/bn
I1201 09:29:20.690942 23278 net.cpp:122] Setting up conv5_9/x2/bn
I1201 09:29:20.690951 23278 net.cpp:129] Top shape: 1 128 4 8 (4096)
I1201 09:29:20.690955 23278 net.cpp:137] Memory required for data: 180489864
I1201 09:29:20.690964 23278 layer_factory.hpp:77] Creating layer conv5_9/x2/scale
I1201 09:29:20.690973 23278 net.cpp:84] Creating Layer conv5_9/x2/scale
I1201 09:29:20.690978 23278 net.cpp:406] conv5_9/x2/scale <- conv5_9/x2/bn
I1201 09:29:20.690984 23278 net.cpp:367] conv5_9/x2/scale -> conv5_9/x2/bn (in-place)
I1201 09:29:20.691059 23278 layer_factory.hpp:77] Creating layer conv5_9/x2/scale
I1201 09:29:20.691287 23278 net.cpp:122] Setting up conv5_9/x2/scale
I1201 09:29:20.691298 23278 net.cpp:129] Top shape: 1 128 4 8 (4096)
I1201 09:29:20.691303 23278 net.cpp:137] Memory required for data: 180506248
I1201 09:29:20.691309 23278 layer_factory.hpp:77] Creating layer relu5_9/x2
I1201 09:29:20.691316 23278 net.cpp:84] Creating Layer relu5_9/x2
I1201 09:29:20.691320 23278 net.cpp:406] relu5_9/x2 <- conv5_9/x2/bn
I1201 09:29:20.691328 23278 net.cpp:367] relu5_9/x2 -> conv5_9/x2/bn (in-place)
I1201 09:29:20.691582 23278 net.cpp:122] Setting up relu5_9/x2
I1201 09:29:20.691593 23278 net.cpp:129] Top shape: 1 128 4 8 (4096)
I1201 09:29:20.691597 23278 net.cpp:137] Memory required for data: 180522632
I1201 09:29:20.691601 23278 layer_factory.hpp:77] Creating layer conv5_9/x2
I1201 09:29:20.691613 23278 net.cpp:84] Creating Layer conv5_9/x2
I1201 09:29:20.691617 23278 net.cpp:406] conv5_9/x2 <- conv5_9/x2/bn
I1201 09:29:20.691627 23278 net.cpp:380] conv5_9/x2 -> conv5_9/x2
I1201 09:29:20.694991 23278 net.cpp:122] Setting up conv5_9/x2
I1201 09:29:20.695005 23278 net.cpp:129] Top shape: 1 32 4 8 (1024)
I1201 09:29:20.695009 23278 net.cpp:137] Memory required for data: 180526728
I1201 09:29:20.695016 23278 layer_factory.hpp:77] Creating layer concat_5_9
I1201 09:29:20.695024 23278 net.cpp:84] Creating Layer concat_5_9
I1201 09:29:20.695029 23278 net.cpp:406] concat_5_9 <- concat_5_8_concat_5_8_0_split_1
I1201 09:29:20.695034 23278 net.cpp:406] concat_5_9 <- conv5_9/x2
I1201 09:29:20.695040 23278 net.cpp:380] concat_5_9 -> concat_5_9
I1201 09:29:20.695096 23278 net.cpp:122] Setting up concat_5_9
I1201 09:29:20.695104 23278 net.cpp:129] Top shape: 1 800 4 8 (25600)
I1201 09:29:20.695108 23278 net.cpp:137] Memory required for data: 180629128
I1201 09:29:20.695112 23278 layer_factory.hpp:77] Creating layer concat_5_9_concat_5_9_0_split
I1201 09:29:20.695118 23278 net.cpp:84] Creating Layer concat_5_9_concat_5_9_0_split
I1201 09:29:20.695122 23278 net.cpp:406] concat_5_9_concat_5_9_0_split <- concat_5_9
I1201 09:29:20.695129 23278 net.cpp:380] concat_5_9_concat_5_9_0_split -> concat_5_9_concat_5_9_0_split_0
I1201 09:29:20.695137 23278 net.cpp:380] concat_5_9_concat_5_9_0_split -> concat_5_9_concat_5_9_0_split_1
I1201 09:29:20.695214 23278 net.cpp:122] Setting up concat_5_9_concat_5_9_0_split
I1201 09:29:20.695221 23278 net.cpp:129] Top shape: 1 800 4 8 (25600)
I1201 09:29:20.695226 23278 net.cpp:129] Top shape: 1 800 4 8 (25600)
I1201 09:29:20.695230 23278 net.cpp:137] Memory required for data: 180833928
I1201 09:29:20.695235 23278 layer_factory.hpp:77] Creating layer conv5_10/x1/bn
I1201 09:29:20.695240 23278 net.cpp:84] Creating Layer conv5_10/x1/bn
I1201 09:29:20.695245 23278 net.cpp:406] conv5_10/x1/bn <- concat_5_9_concat_5_9_0_split_0
I1201 09:29:20.695252 23278 net.cpp:380] conv5_10/x1/bn -> conv5_10/x1/bn
I1201 09:29:20.695744 23278 net.cpp:122] Setting up conv5_10/x1/bn
I1201 09:29:20.695756 23278 net.cpp:129] Top shape: 1 800 4 8 (25600)
I1201 09:29:20.695761 23278 net.cpp:137] Memory required for data: 180936328
I1201 09:29:20.695770 23278 layer_factory.hpp:77] Creating layer conv5_10/x1/scale
I1201 09:29:20.695778 23278 net.cpp:84] Creating Layer conv5_10/x1/scale
I1201 09:29:20.695783 23278 net.cpp:406] conv5_10/x1/scale <- conv5_10/x1/bn
I1201 09:29:20.695789 23278 net.cpp:367] conv5_10/x1/scale -> conv5_10/x1/bn (in-place)
I1201 09:29:20.695894 23278 layer_factory.hpp:77] Creating layer conv5_10/x1/scale
I1201 09:29:20.696175 23278 net.cpp:122] Setting up conv5_10/x1/scale
I1201 09:29:20.696184 23278 net.cpp:129] Top shape: 1 800 4 8 (25600)
I1201 09:29:20.696188 23278 net.cpp:137] Memory required for data: 181038728
I1201 09:29:20.696197 23278 layer_factory.hpp:77] Creating layer relu5_10/x1
I1201 09:29:20.696202 23278 net.cpp:84] Creating Layer relu5_10/x1
I1201 09:29:20.696208 23278 net.cpp:406] relu5_10/x1 <- conv5_10/x1/bn
I1201 09:29:20.696213 23278 net.cpp:367] relu5_10/x1 -> conv5_10/x1/bn (in-place)
I1201 09:29:20.696748 23278 net.cpp:122] Setting up relu5_10/x1
I1201 09:29:20.696760 23278 net.cpp:129] Top shape: 1 800 4 8 (25600)
I1201 09:29:20.696764 23278 net.cpp:137] Memory required for data: 181141128
I1201 09:29:20.696771 23278 layer_factory.hpp:77] Creating layer conv5_10/x1
I1201 09:29:20.696784 23278 net.cpp:84] Creating Layer conv5_10/x1
I1201 09:29:20.696789 23278 net.cpp:406] conv5_10/x1 <- conv5_10/x1/bn
I1201 09:29:20.696796 23278 net.cpp:380] conv5_10/x1 -> conv5_10/x1
I1201 09:29:20.703030 23278 net.cpp:122] Setting up conv5_10/x1
I1201 09:29:20.703045 23278 net.cpp:129] Top shape: 1 128 4 8 (4096)
I1201 09:29:20.703049 23278 net.cpp:137] Memory required for data: 181157512
I1201 09:29:20.703058 23278 layer_factory.hpp:77] Creating layer conv5_10/x2/bn
I1201 09:29:20.703068 23278 net.cpp:84] Creating Layer conv5_10/x2/bn
I1201 09:29:20.703073 23278 net.cpp:406] conv5_10/x2/bn <- conv5_10/x1
I1201 09:29:20.703079 23278 net.cpp:380] conv5_10/x2/bn -> conv5_10/x2/bn
I1201 09:29:20.703532 23278 net.cpp:122] Setting up conv5_10/x2/bn
I1201 09:29:20.703542 23278 net.cpp:129] Top shape: 1 128 4 8 (4096)
I1201 09:29:20.703547 23278 net.cpp:137] Memory required for data: 181173896
I1201 09:29:20.703555 23278 layer_factory.hpp:77] Creating layer conv5_10/x2/scale
I1201 09:29:20.703563 23278 net.cpp:84] Creating Layer conv5_10/x2/scale
I1201 09:29:20.703568 23278 net.cpp:406] conv5_10/x2/scale <- conv5_10/x2/bn
I1201 09:29:20.703574 23278 net.cpp:367] conv5_10/x2/scale -> conv5_10/x2/bn (in-place)
I1201 09:29:20.703655 23278 layer_factory.hpp:77] Creating layer conv5_10/x2/scale
I1201 09:29:20.703896 23278 net.cpp:122] Setting up conv5_10/x2/scale
I1201 09:29:20.703907 23278 net.cpp:129] Top shape: 1 128 4 8 (4096)
I1201 09:29:20.703910 23278 net.cpp:137] Memory required for data: 181190280
I1201 09:29:20.703917 23278 layer_factory.hpp:77] Creating layer relu5_10/x2
I1201 09:29:20.703924 23278 net.cpp:84] Creating Layer relu5_10/x2
I1201 09:29:20.703928 23278 net.cpp:406] relu5_10/x2 <- conv5_10/x2/bn
I1201 09:29:20.703935 23278 net.cpp:367] relu5_10/x2 -> conv5_10/x2/bn (in-place)
I1201 09:29:20.704485 23278 net.cpp:122] Setting up relu5_10/x2
I1201 09:29:20.704499 23278 net.cpp:129] Top shape: 1 128 4 8 (4096)
I1201 09:29:20.704502 23278 net.cpp:137] Memory required for data: 181206664
I1201 09:29:20.704507 23278 layer_factory.hpp:77] Creating layer conv5_10/x2
I1201 09:29:20.704519 23278 net.cpp:84] Creating Layer conv5_10/x2
I1201 09:29:20.704524 23278 net.cpp:406] conv5_10/x2 <- conv5_10/x2/bn
I1201 09:29:20.704532 23278 net.cpp:380] conv5_10/x2 -> conv5_10/x2
I1201 09:29:20.707918 23278 net.cpp:122] Setting up conv5_10/x2
I1201 09:29:20.707931 23278 net.cpp:129] Top shape: 1 32 4 8 (1024)
I1201 09:29:20.707936 23278 net.cpp:137] Memory required for data: 181210760
I1201 09:29:20.707943 23278 layer_factory.hpp:77] Creating layer concat_5_10
I1201 09:29:20.707950 23278 net.cpp:84] Creating Layer concat_5_10
I1201 09:29:20.707955 23278 net.cpp:406] concat_5_10 <- concat_5_9_concat_5_9_0_split_1
I1201 09:29:20.707963 23278 net.cpp:406] concat_5_10 <- conv5_10/x2
I1201 09:29:20.707969 23278 net.cpp:380] concat_5_10 -> concat_5_10
I1201 09:29:20.708024 23278 net.cpp:122] Setting up concat_5_10
I1201 09:29:20.708032 23278 net.cpp:129] Top shape: 1 832 4 8 (26624)
I1201 09:29:20.708036 23278 net.cpp:137] Memory required for data: 181317256
I1201 09:29:20.708040 23278 layer_factory.hpp:77] Creating layer concat_5_10_concat_5_10_0_split
I1201 09:29:20.708048 23278 net.cpp:84] Creating Layer concat_5_10_concat_5_10_0_split
I1201 09:29:20.708052 23278 net.cpp:406] concat_5_10_concat_5_10_0_split <- concat_5_10
I1201 09:29:20.708058 23278 net.cpp:380] concat_5_10_concat_5_10_0_split -> concat_5_10_concat_5_10_0_split_0
I1201 09:29:20.708065 23278 net.cpp:380] concat_5_10_concat_5_10_0_split -> concat_5_10_concat_5_10_0_split_1
I1201 09:29:20.708144 23278 net.cpp:122] Setting up concat_5_10_concat_5_10_0_split
I1201 09:29:20.708151 23278 net.cpp:129] Top shape: 1 832 4 8 (26624)
I1201 09:29:20.708158 23278 net.cpp:129] Top shape: 1 832 4 8 (26624)
I1201 09:29:20.708160 23278 net.cpp:137] Memory required for data: 181530248
I1201 09:29:20.708164 23278 layer_factory.hpp:77] Creating layer conv5_11/x1/bn
I1201 09:29:20.708174 23278 net.cpp:84] Creating Layer conv5_11/x1/bn
I1201 09:29:20.708179 23278 net.cpp:406] conv5_11/x1/bn <- concat_5_10_concat_5_10_0_split_0
I1201 09:29:20.708185 23278 net.cpp:380] conv5_11/x1/bn -> conv5_11/x1/bn
I1201 09:29:20.708699 23278 net.cpp:122] Setting up conv5_11/x1/bn
I1201 09:29:20.708709 23278 net.cpp:129] Top shape: 1 832 4 8 (26624)
I1201 09:29:20.708714 23278 net.cpp:137] Memory required for data: 181636744
I1201 09:29:20.708724 23278 layer_factory.hpp:77] Creating layer conv5_11/x1/scale
I1201 09:29:20.708731 23278 net.cpp:84] Creating Layer conv5_11/x1/scale
I1201 09:29:20.708735 23278 net.cpp:406] conv5_11/x1/scale <- conv5_11/x1/bn
I1201 09:29:20.708741 23278 net.cpp:367] conv5_11/x1/scale -> conv5_11/x1/bn (in-place)
I1201 09:29:20.708844 23278 layer_factory.hpp:77] Creating layer conv5_11/x1/scale
I1201 09:29:20.709130 23278 net.cpp:122] Setting up conv5_11/x1/scale
I1201 09:29:20.709138 23278 net.cpp:129] Top shape: 1 832 4 8 (26624)
I1201 09:29:20.709142 23278 net.cpp:137] Memory required for data: 181743240
I1201 09:29:20.709149 23278 layer_factory.hpp:77] Creating layer relu5_11/x1
I1201 09:29:20.709156 23278 net.cpp:84] Creating Layer relu5_11/x1
I1201 09:29:20.709161 23278 net.cpp:406] relu5_11/x1 <- conv5_11/x1/bn
I1201 09:29:20.709166 23278 net.cpp:367] relu5_11/x1 -> conv5_11/x1/bn (in-place)
I1201 09:29:20.709434 23278 net.cpp:122] Setting up relu5_11/x1
I1201 09:29:20.709445 23278 net.cpp:129] Top shape: 1 832 4 8 (26624)
I1201 09:29:20.709450 23278 net.cpp:137] Memory required for data: 181849736
I1201 09:29:20.709453 23278 layer_factory.hpp:77] Creating layer conv5_11/x1
I1201 09:29:20.709465 23278 net.cpp:84] Creating Layer conv5_11/x1
I1201 09:29:20.709470 23278 net.cpp:406] conv5_11/x1 <- conv5_11/x1/bn
I1201 09:29:20.709477 23278 net.cpp:380] conv5_11/x1 -> conv5_11/x1
I1201 09:29:20.715131 23278 net.cpp:122] Setting up conv5_11/x1
I1201 09:29:20.715143 23278 net.cpp:129] Top shape: 1 128 4 8 (4096)
I1201 09:29:20.715148 23278 net.cpp:137] Memory required for data: 181866120
I1201 09:29:20.715154 23278 layer_factory.hpp:77] Creating layer conv5_11/x2/bn
I1201 09:29:20.715163 23278 net.cpp:84] Creating Layer conv5_11/x2/bn
I1201 09:29:20.715168 23278 net.cpp:406] conv5_11/x2/bn <- conv5_11/x1
I1201 09:29:20.715176 23278 net.cpp:380] conv5_11/x2/bn -> conv5_11/x2/bn
I1201 09:29:20.715626 23278 net.cpp:122] Setting up conv5_11/x2/bn
I1201 09:29:20.715634 23278 net.cpp:129] Top shape: 1 128 4 8 (4096)
I1201 09:29:20.715638 23278 net.cpp:137] Memory required for data: 181882504
I1201 09:29:20.715647 23278 layer_factory.hpp:77] Creating layer conv5_11/x2/scale
I1201 09:29:20.715656 23278 net.cpp:84] Creating Layer conv5_11/x2/scale
I1201 09:29:20.715661 23278 net.cpp:406] conv5_11/x2/scale <- conv5_11/x2/bn
I1201 09:29:20.715667 23278 net.cpp:367] conv5_11/x2/scale -> conv5_11/x2/bn (in-place)
I1201 09:29:20.715749 23278 layer_factory.hpp:77] Creating layer conv5_11/x2/scale
I1201 09:29:20.715988 23278 net.cpp:122] Setting up conv5_11/x2/scale
I1201 09:29:20.715997 23278 net.cpp:129] Top shape: 1 128 4 8 (4096)
I1201 09:29:20.716001 23278 net.cpp:137] Memory required for data: 181898888
I1201 09:29:20.716008 23278 layer_factory.hpp:77] Creating layer relu5_11/x2
I1201 09:29:20.716014 23278 net.cpp:84] Creating Layer relu5_11/x2
I1201 09:29:20.716019 23278 net.cpp:406] relu5_11/x2 <- conv5_11/x2/bn
I1201 09:29:20.716027 23278 net.cpp:367] relu5_11/x2 -> conv5_11/x2/bn (in-place)
I1201 09:29:20.716564 23278 net.cpp:122] Setting up relu5_11/x2
I1201 09:29:20.716578 23278 net.cpp:129] Top shape: 1 128 4 8 (4096)
I1201 09:29:20.716581 23278 net.cpp:137] Memory required for data: 181915272
I1201 09:29:20.716586 23278 layer_factory.hpp:77] Creating layer conv5_11/x2
I1201 09:29:20.716598 23278 net.cpp:84] Creating Layer conv5_11/x2
I1201 09:29:20.716603 23278 net.cpp:406] conv5_11/x2 <- conv5_11/x2/bn
I1201 09:29:20.716611 23278 net.cpp:380] conv5_11/x2 -> conv5_11/x2
I1201 09:29:20.720000 23278 net.cpp:122] Setting up conv5_11/x2
I1201 09:29:20.720012 23278 net.cpp:129] Top shape: 1 32 4 8 (1024)
I1201 09:29:20.720019 23278 net.cpp:137] Memory required for data: 181919368
I1201 09:29:20.720026 23278 layer_factory.hpp:77] Creating layer concat_5_11
I1201 09:29:20.720034 23278 net.cpp:84] Creating Layer concat_5_11
I1201 09:29:20.720041 23278 net.cpp:406] concat_5_11 <- concat_5_10_concat_5_10_0_split_1
I1201 09:29:20.720046 23278 net.cpp:406] concat_5_11 <- conv5_11/x2
I1201 09:29:20.720052 23278 net.cpp:380] concat_5_11 -> concat_5_11
I1201 09:29:20.720108 23278 net.cpp:122] Setting up concat_5_11
I1201 09:29:20.720116 23278 net.cpp:129] Top shape: 1 864 4 8 (27648)
I1201 09:29:20.720120 23278 net.cpp:137] Memory required for data: 182029960
I1201 09:29:20.720125 23278 layer_factory.hpp:77] Creating layer concat_5_11_concat_5_11_0_split
I1201 09:29:20.720132 23278 net.cpp:84] Creating Layer concat_5_11_concat_5_11_0_split
I1201 09:29:20.720137 23278 net.cpp:406] concat_5_11_concat_5_11_0_split <- concat_5_11
I1201 09:29:20.720144 23278 net.cpp:380] concat_5_11_concat_5_11_0_split -> concat_5_11_concat_5_11_0_split_0
I1201 09:29:20.720151 23278 net.cpp:380] concat_5_11_concat_5_11_0_split -> concat_5_11_concat_5_11_0_split_1
I1201 09:29:20.720226 23278 net.cpp:122] Setting up concat_5_11_concat_5_11_0_split
I1201 09:29:20.720233 23278 net.cpp:129] Top shape: 1 864 4 8 (27648)
I1201 09:29:20.720238 23278 net.cpp:129] Top shape: 1 864 4 8 (27648)
I1201 09:29:20.720242 23278 net.cpp:137] Memory required for data: 182251144
I1201 09:29:20.720247 23278 layer_factory.hpp:77] Creating layer conv5_12/x1/bn
I1201 09:29:20.720253 23278 net.cpp:84] Creating Layer conv5_12/x1/bn
I1201 09:29:20.720258 23278 net.cpp:406] conv5_12/x1/bn <- concat_5_11_concat_5_11_0_split_0
I1201 09:29:20.720265 23278 net.cpp:380] conv5_12/x1/bn -> conv5_12/x1/bn
I1201 09:29:20.720774 23278 net.cpp:122] Setting up conv5_12/x1/bn
I1201 09:29:20.720788 23278 net.cpp:129] Top shape: 1 864 4 8 (27648)
I1201 09:29:20.720791 23278 net.cpp:137] Memory required for data: 182361736
I1201 09:29:20.720801 23278 layer_factory.hpp:77] Creating layer conv5_12/x1/scale
I1201 09:29:20.720808 23278 net.cpp:84] Creating Layer conv5_12/x1/scale
I1201 09:29:20.720813 23278 net.cpp:406] conv5_12/x1/scale <- conv5_12/x1/bn
I1201 09:29:20.720819 23278 net.cpp:367] conv5_12/x1/scale -> conv5_12/x1/bn (in-place)
I1201 09:29:20.720921 23278 layer_factory.hpp:77] Creating layer conv5_12/x1/scale
I1201 09:29:20.721205 23278 net.cpp:122] Setting up conv5_12/x1/scale
I1201 09:29:20.721215 23278 net.cpp:129] Top shape: 1 864 4 8 (27648)
I1201 09:29:20.721218 23278 net.cpp:137] Memory required for data: 182472328
I1201 09:29:20.721225 23278 layer_factory.hpp:77] Creating layer relu5_12/x1
I1201 09:29:20.721232 23278 net.cpp:84] Creating Layer relu5_12/x1
I1201 09:29:20.721237 23278 net.cpp:406] relu5_12/x1 <- conv5_12/x1/bn
I1201 09:29:20.721245 23278 net.cpp:367] relu5_12/x1 -> conv5_12/x1/bn (in-place)
I1201 09:29:20.721518 23278 net.cpp:122] Setting up relu5_12/x1
I1201 09:29:20.721529 23278 net.cpp:129] Top shape: 1 864 4 8 (27648)
I1201 09:29:20.721532 23278 net.cpp:137] Memory required for data: 182582920
I1201 09:29:20.721537 23278 layer_factory.hpp:77] Creating layer conv5_12/x1
I1201 09:29:20.721549 23278 net.cpp:84] Creating Layer conv5_12/x1
I1201 09:29:20.721554 23278 net.cpp:406] conv5_12/x1 <- conv5_12/x1/bn
I1201 09:29:20.721561 23278 net.cpp:380] conv5_12/x1 -> conv5_12/x1
I1201 09:29:20.728082 23278 net.cpp:122] Setting up conv5_12/x1
I1201 09:29:20.728096 23278 net.cpp:129] Top shape: 1 128 4 8 (4096)
I1201 09:29:20.728101 23278 net.cpp:137] Memory required for data: 182599304
I1201 09:29:20.728108 23278 layer_factory.hpp:77] Creating layer conv5_12/x2/bn
I1201 09:29:20.728116 23278 net.cpp:84] Creating Layer conv5_12/x2/bn
I1201 09:29:20.728122 23278 net.cpp:406] conv5_12/x2/bn <- conv5_12/x1
I1201 09:29:20.728130 23278 net.cpp:380] conv5_12/x2/bn -> conv5_12/x2/bn
I1201 09:29:20.728590 23278 net.cpp:122] Setting up conv5_12/x2/bn
I1201 09:29:20.728600 23278 net.cpp:129] Top shape: 1 128 4 8 (4096)
I1201 09:29:20.728605 23278 net.cpp:137] Memory required for data: 182615688
I1201 09:29:20.728617 23278 layer_factory.hpp:77] Creating layer conv5_12/x2/scale
I1201 09:29:20.728624 23278 net.cpp:84] Creating Layer conv5_12/x2/scale
I1201 09:29:20.728629 23278 net.cpp:406] conv5_12/x2/scale <- conv5_12/x2/bn
I1201 09:29:20.728636 23278 net.cpp:367] conv5_12/x2/scale -> conv5_12/x2/bn (in-place)
I1201 09:29:20.728715 23278 layer_factory.hpp:77] Creating layer conv5_12/x2/scale
I1201 09:29:20.728946 23278 net.cpp:122] Setting up conv5_12/x2/scale
I1201 09:29:20.728955 23278 net.cpp:129] Top shape: 1 128 4 8 (4096)
I1201 09:29:20.728960 23278 net.cpp:137] Memory required for data: 182632072
I1201 09:29:20.728966 23278 layer_factory.hpp:77] Creating layer relu5_12/x2
I1201 09:29:20.728972 23278 net.cpp:84] Creating Layer relu5_12/x2
I1201 09:29:20.728977 23278 net.cpp:406] relu5_12/x2 <- conv5_12/x2/bn
I1201 09:29:20.728983 23278 net.cpp:367] relu5_12/x2 -> conv5_12/x2/bn (in-place)
I1201 09:29:20.729519 23278 net.cpp:122] Setting up relu5_12/x2
I1201 09:29:20.729532 23278 net.cpp:129] Top shape: 1 128 4 8 (4096)
I1201 09:29:20.729537 23278 net.cpp:137] Memory required for data: 182648456
I1201 09:29:20.729540 23278 layer_factory.hpp:77] Creating layer conv5_12/x2
I1201 09:29:20.729553 23278 net.cpp:84] Creating Layer conv5_12/x2
I1201 09:29:20.729558 23278 net.cpp:406] conv5_12/x2 <- conv5_12/x2/bn
I1201 09:29:20.729566 23278 net.cpp:380] conv5_12/x2 -> conv5_12/x2
I1201 09:29:20.733227 23278 net.cpp:122] Setting up conv5_12/x2
I1201 09:29:20.733239 23278 net.cpp:129] Top shape: 1 32 4 8 (1024)
I1201 09:29:20.733244 23278 net.cpp:137] Memory required for data: 182652552
I1201 09:29:20.733252 23278 layer_factory.hpp:77] Creating layer concat_5_12
I1201 09:29:20.733259 23278 net.cpp:84] Creating Layer concat_5_12
I1201 09:29:20.733264 23278 net.cpp:406] concat_5_12 <- concat_5_11_concat_5_11_0_split_1
I1201 09:29:20.733270 23278 net.cpp:406] concat_5_12 <- conv5_12/x2
I1201 09:29:20.733278 23278 net.cpp:380] concat_5_12 -> concat_5_12
I1201 09:29:20.733333 23278 net.cpp:122] Setting up concat_5_12
I1201 09:29:20.733342 23278 net.cpp:129] Top shape: 1 896 4 8 (28672)
I1201 09:29:20.733346 23278 net.cpp:137] Memory required for data: 182767240
I1201 09:29:20.733350 23278 layer_factory.hpp:77] Creating layer concat_5_12_concat_5_12_0_split
I1201 09:29:20.733356 23278 net.cpp:84] Creating Layer concat_5_12_concat_5_12_0_split
I1201 09:29:20.733361 23278 net.cpp:406] concat_5_12_concat_5_12_0_split <- concat_5_12
I1201 09:29:20.733367 23278 net.cpp:380] concat_5_12_concat_5_12_0_split -> concat_5_12_concat_5_12_0_split_0
I1201 09:29:20.733374 23278 net.cpp:380] concat_5_12_concat_5_12_0_split -> concat_5_12_concat_5_12_0_split_1
I1201 09:29:20.733450 23278 net.cpp:122] Setting up concat_5_12_concat_5_12_0_split
I1201 09:29:20.733458 23278 net.cpp:129] Top shape: 1 896 4 8 (28672)
I1201 09:29:20.733464 23278 net.cpp:129] Top shape: 1 896 4 8 (28672)
I1201 09:29:20.733467 23278 net.cpp:137] Memory required for data: 182996616
I1201 09:29:20.733471 23278 layer_factory.hpp:77] Creating layer conv5_13/x1/bn
I1201 09:29:20.733479 23278 net.cpp:84] Creating Layer conv5_13/x1/bn
I1201 09:29:20.733484 23278 net.cpp:406] conv5_13/x1/bn <- concat_5_12_concat_5_12_0_split_0
I1201 09:29:20.733489 23278 net.cpp:380] conv5_13/x1/bn -> conv5_13/x1/bn
I1201 09:29:20.733996 23278 net.cpp:122] Setting up conv5_13/x1/bn
I1201 09:29:20.734005 23278 net.cpp:129] Top shape: 1 896 4 8 (28672)
I1201 09:29:20.734009 23278 net.cpp:137] Memory required for data: 183111304
I1201 09:29:20.734019 23278 layer_factory.hpp:77] Creating layer conv5_13/x1/scale
I1201 09:29:20.734026 23278 net.cpp:84] Creating Layer conv5_13/x1/scale
I1201 09:29:20.734031 23278 net.cpp:406] conv5_13/x1/scale <- conv5_13/x1/bn
I1201 09:29:20.734038 23278 net.cpp:367] conv5_13/x1/scale -> conv5_13/x1/bn (in-place)
I1201 09:29:20.734127 23278 layer_factory.hpp:77] Creating layer conv5_13/x1/scale
I1201 09:29:20.734401 23278 net.cpp:122] Setting up conv5_13/x1/scale
I1201 09:29:20.734411 23278 net.cpp:129] Top shape: 1 896 4 8 (28672)
I1201 09:29:20.734417 23278 net.cpp:137] Memory required for data: 183225992
I1201 09:29:20.734424 23278 layer_factory.hpp:77] Creating layer relu5_13/x1
I1201 09:29:20.734431 23278 net.cpp:84] Creating Layer relu5_13/x1
I1201 09:29:20.734436 23278 net.cpp:406] relu5_13/x1 <- conv5_13/x1/bn
I1201 09:29:20.734441 23278 net.cpp:367] relu5_13/x1 -> conv5_13/x1/bn (in-place)
I1201 09:29:20.734997 23278 net.cpp:122] Setting up relu5_13/x1
I1201 09:29:20.735010 23278 net.cpp:129] Top shape: 1 896 4 8 (28672)
I1201 09:29:20.735015 23278 net.cpp:137] Memory required for data: 183340680
I1201 09:29:20.735019 23278 layer_factory.hpp:77] Creating layer conv5_13/x1
I1201 09:29:20.735031 23278 net.cpp:84] Creating Layer conv5_13/x1
I1201 09:29:20.735036 23278 net.cpp:406] conv5_13/x1 <- conv5_13/x1/bn
I1201 09:29:20.735044 23278 net.cpp:380] conv5_13/x1 -> conv5_13/x1
I1201 09:29:20.739811 23278 net.cpp:122] Setting up conv5_13/x1
I1201 09:29:20.739822 23278 net.cpp:129] Top shape: 1 128 4 8 (4096)
I1201 09:29:20.739825 23278 net.cpp:137] Memory required for data: 183357064
I1201 09:29:20.739830 23278 layer_factory.hpp:77] Creating layer conv5_13/x2/bn
I1201 09:29:20.739836 23278 net.cpp:84] Creating Layer conv5_13/x2/bn
I1201 09:29:20.739840 23278 net.cpp:406] conv5_13/x2/bn <- conv5_13/x1
I1201 09:29:20.739845 23278 net.cpp:380] conv5_13/x2/bn -> conv5_13/x2/bn
I1201 09:29:20.740191 23278 net.cpp:122] Setting up conv5_13/x2/bn
I1201 09:29:20.740197 23278 net.cpp:129] Top shape: 1 128 4 8 (4096)
I1201 09:29:20.740200 23278 net.cpp:137] Memory required for data: 183373448
I1201 09:29:20.740206 23278 layer_factory.hpp:77] Creating layer conv5_13/x2/scale
I1201 09:29:20.740212 23278 net.cpp:84] Creating Layer conv5_13/x2/scale
I1201 09:29:20.740216 23278 net.cpp:406] conv5_13/x2/scale <- conv5_13/x2/bn
I1201 09:29:20.740219 23278 net.cpp:367] conv5_13/x2/scale -> conv5_13/x2/bn (in-place)
I1201 09:29:20.740279 23278 layer_factory.hpp:77] Creating layer conv5_13/x2/scale
I1201 09:29:20.740463 23278 net.cpp:122] Setting up conv5_13/x2/scale
I1201 09:29:20.740470 23278 net.cpp:129] Top shape: 1 128 4 8 (4096)
I1201 09:29:20.740473 23278 net.cpp:137] Memory required for data: 183389832
I1201 09:29:20.740478 23278 layer_factory.hpp:77] Creating layer relu5_13/x2
I1201 09:29:20.740483 23278 net.cpp:84] Creating Layer relu5_13/x2
I1201 09:29:20.740485 23278 net.cpp:406] relu5_13/x2 <- conv5_13/x2/bn
I1201 09:29:20.740489 23278 net.cpp:367] relu5_13/x2 -> conv5_13/x2/bn (in-place)
I1201 09:29:20.740691 23278 net.cpp:122] Setting up relu5_13/x2
I1201 09:29:20.740698 23278 net.cpp:129] Top shape: 1 128 4 8 (4096)
I1201 09:29:20.740701 23278 net.cpp:137] Memory required for data: 183406216
I1201 09:29:20.740705 23278 layer_factory.hpp:77] Creating layer conv5_13/x2
I1201 09:29:20.740712 23278 net.cpp:84] Creating Layer conv5_13/x2
I1201 09:29:20.740716 23278 net.cpp:406] conv5_13/x2 <- conv5_13/x2/bn
I1201 09:29:20.740721 23278 net.cpp:380] conv5_13/x2 -> conv5_13/x2
I1201 09:29:20.743376 23278 net.cpp:122] Setting up conv5_13/x2
I1201 09:29:20.743387 23278 net.cpp:129] Top shape: 1 32 4 8 (1024)
I1201 09:29:20.743391 23278 net.cpp:137] Memory required for data: 183410312
I1201 09:29:20.743396 23278 layer_factory.hpp:77] Creating layer concat_5_13
I1201 09:29:20.743402 23278 net.cpp:84] Creating Layer concat_5_13
I1201 09:29:20.743405 23278 net.cpp:406] concat_5_13 <- concat_5_12_concat_5_12_0_split_1
I1201 09:29:20.743410 23278 net.cpp:406] concat_5_13 <- conv5_13/x2
I1201 09:29:20.743414 23278 net.cpp:380] concat_5_13 -> concat_5_13
I1201 09:29:20.743459 23278 net.cpp:122] Setting up concat_5_13
I1201 09:29:20.743465 23278 net.cpp:129] Top shape: 1 928 4 8 (29696)
I1201 09:29:20.743468 23278 net.cpp:137] Memory required for data: 183529096
I1201 09:29:20.743470 23278 layer_factory.hpp:77] Creating layer concat_5_13_concat_5_13_0_split
I1201 09:29:20.743475 23278 net.cpp:84] Creating Layer concat_5_13_concat_5_13_0_split
I1201 09:29:20.743479 23278 net.cpp:406] concat_5_13_concat_5_13_0_split <- concat_5_13
I1201 09:29:20.743485 23278 net.cpp:380] concat_5_13_concat_5_13_0_split -> concat_5_13_concat_5_13_0_split_0
I1201 09:29:20.743491 23278 net.cpp:380] concat_5_13_concat_5_13_0_split -> concat_5_13_concat_5_13_0_split_1
I1201 09:29:20.743551 23278 net.cpp:122] Setting up concat_5_13_concat_5_13_0_split
I1201 09:29:20.743556 23278 net.cpp:129] Top shape: 1 928 4 8 (29696)
I1201 09:29:20.743559 23278 net.cpp:129] Top shape: 1 928 4 8 (29696)
I1201 09:29:20.743561 23278 net.cpp:137] Memory required for data: 183766664
I1201 09:29:20.743564 23278 layer_factory.hpp:77] Creating layer conv5_14/x1/bn
I1201 09:29:20.743571 23278 net.cpp:84] Creating Layer conv5_14/x1/bn
I1201 09:29:20.743573 23278 net.cpp:406] conv5_14/x1/bn <- concat_5_13_concat_5_13_0_split_0
I1201 09:29:20.743578 23278 net.cpp:380] conv5_14/x1/bn -> conv5_14/x1/bn
I1201 09:29:20.743970 23278 net.cpp:122] Setting up conv5_14/x1/bn
I1201 09:29:20.743978 23278 net.cpp:129] Top shape: 1 928 4 8 (29696)
I1201 09:29:20.743979 23278 net.cpp:137] Memory required for data: 183885448
I1201 09:29:20.743985 23278 layer_factory.hpp:77] Creating layer conv5_14/x1/scale
I1201 09:29:20.743993 23278 net.cpp:84] Creating Layer conv5_14/x1/scale
I1201 09:29:20.743996 23278 net.cpp:406] conv5_14/x1/scale <- conv5_14/x1/bn
I1201 09:29:20.744000 23278 net.cpp:367] conv5_14/x1/scale -> conv5_14/x1/bn (in-place)
I1201 09:29:20.744084 23278 layer_factory.hpp:77] Creating layer conv5_14/x1/scale
I1201 09:29:20.744313 23278 net.cpp:122] Setting up conv5_14/x1/scale
I1201 09:29:20.744320 23278 net.cpp:129] Top shape: 1 928 4 8 (29696)
I1201 09:29:20.744323 23278 net.cpp:137] Memory required for data: 184004232
I1201 09:29:20.744328 23278 layer_factory.hpp:77] Creating layer relu5_14/x1
I1201 09:29:20.744333 23278 net.cpp:84] Creating Layer relu5_14/x1
I1201 09:29:20.744335 23278 net.cpp:406] relu5_14/x1 <- conv5_14/x1/bn
I1201 09:29:20.744339 23278 net.cpp:367] relu5_14/x1 -> conv5_14/x1/bn (in-place)
I1201 09:29:20.744796 23278 net.cpp:122] Setting up relu5_14/x1
I1201 09:29:20.744807 23278 net.cpp:129] Top shape: 1 928 4 8 (29696)
I1201 09:29:20.744810 23278 net.cpp:137] Memory required for data: 184123016
I1201 09:29:20.744813 23278 layer_factory.hpp:77] Creating layer conv5_14/x1
I1201 09:29:20.744822 23278 net.cpp:84] Creating Layer conv5_14/x1
I1201 09:29:20.744827 23278 net.cpp:406] conv5_14/x1 <- conv5_14/x1/bn
I1201 09:29:20.744832 23278 net.cpp:380] conv5_14/x1 -> conv5_14/x1
I1201 09:29:20.749986 23278 net.cpp:122] Setting up conv5_14/x1
I1201 09:29:20.750002 23278 net.cpp:129] Top shape: 1 128 4 8 (4096)
I1201 09:29:20.750005 23278 net.cpp:137] Memory required for data: 184139400
I1201 09:29:20.750010 23278 layer_factory.hpp:77] Creating layer conv5_14/x2/bn
I1201 09:29:20.750018 23278 net.cpp:84] Creating Layer conv5_14/x2/bn
I1201 09:29:20.750022 23278 net.cpp:406] conv5_14/x2/bn <- conv5_14/x1
I1201 09:29:20.750028 23278 net.cpp:380] conv5_14/x2/bn -> conv5_14/x2/bn
I1201 09:29:20.750391 23278 net.cpp:122] Setting up conv5_14/x2/bn
I1201 09:29:20.750398 23278 net.cpp:129] Top shape: 1 128 4 8 (4096)
I1201 09:29:20.750401 23278 net.cpp:137] Memory required for data: 184155784
I1201 09:29:20.750407 23278 layer_factory.hpp:77] Creating layer conv5_14/x2/scale
I1201 09:29:20.750413 23278 net.cpp:84] Creating Layer conv5_14/x2/scale
I1201 09:29:20.750417 23278 net.cpp:406] conv5_14/x2/scale <- conv5_14/x2/bn
I1201 09:29:20.750421 23278 net.cpp:367] conv5_14/x2/scale -> conv5_14/x2/bn (in-place)
I1201 09:29:20.750483 23278 layer_factory.hpp:77] Creating layer conv5_14/x2/scale
I1201 09:29:20.750666 23278 net.cpp:122] Setting up conv5_14/x2/scale
I1201 09:29:20.750672 23278 net.cpp:129] Top shape: 1 128 4 8 (4096)
I1201 09:29:20.750675 23278 net.cpp:137] Memory required for data: 184172168
I1201 09:29:20.750679 23278 layer_factory.hpp:77] Creating layer relu5_14/x2
I1201 09:29:20.750685 23278 net.cpp:84] Creating Layer relu5_14/x2
I1201 09:29:20.750689 23278 net.cpp:406] relu5_14/x2 <- conv5_14/x2/bn
I1201 09:29:20.750692 23278 net.cpp:367] relu5_14/x2 -> conv5_14/x2/bn (in-place)
I1201 09:29:20.750898 23278 net.cpp:122] Setting up relu5_14/x2
I1201 09:29:20.750906 23278 net.cpp:129] Top shape: 1 128 4 8 (4096)
I1201 09:29:20.750910 23278 net.cpp:137] Memory required for data: 184188552
I1201 09:29:20.750912 23278 layer_factory.hpp:77] Creating layer conv5_14/x2
I1201 09:29:20.750921 23278 net.cpp:84] Creating Layer conv5_14/x2
I1201 09:29:20.750926 23278 net.cpp:406] conv5_14/x2 <- conv5_14/x2/bn
I1201 09:29:20.750931 23278 net.cpp:380] conv5_14/x2 -> conv5_14/x2
I1201 09:29:20.754132 23278 net.cpp:122] Setting up conv5_14/x2
I1201 09:29:20.754144 23278 net.cpp:129] Top shape: 1 32 4 8 (1024)
I1201 09:29:20.754148 23278 net.cpp:137] Memory required for data: 184192648
I1201 09:29:20.754153 23278 layer_factory.hpp:77] Creating layer concat_5_14
I1201 09:29:20.754158 23278 net.cpp:84] Creating Layer concat_5_14
I1201 09:29:20.754163 23278 net.cpp:406] concat_5_14 <- concat_5_13_concat_5_13_0_split_1
I1201 09:29:20.754168 23278 net.cpp:406] concat_5_14 <- conv5_14/x2
I1201 09:29:20.754173 23278 net.cpp:380] concat_5_14 -> concat_5_14
I1201 09:29:20.754220 23278 net.cpp:122] Setting up concat_5_14
I1201 09:29:20.754226 23278 net.cpp:129] Top shape: 1 960 4 8 (30720)
I1201 09:29:20.754228 23278 net.cpp:137] Memory required for data: 184315528
I1201 09:29:20.754231 23278 layer_factory.hpp:77] Creating layer concat_5_14_concat_5_14_0_split
I1201 09:29:20.754236 23278 net.cpp:84] Creating Layer concat_5_14_concat_5_14_0_split
I1201 09:29:20.754240 23278 net.cpp:406] concat_5_14_concat_5_14_0_split <- concat_5_14
I1201 09:29:20.754243 23278 net.cpp:380] concat_5_14_concat_5_14_0_split -> concat_5_14_concat_5_14_0_split_0
I1201 09:29:20.754248 23278 net.cpp:380] concat_5_14_concat_5_14_0_split -> concat_5_14_concat_5_14_0_split_1
I1201 09:29:20.754310 23278 net.cpp:122] Setting up concat_5_14_concat_5_14_0_split
I1201 09:29:20.754317 23278 net.cpp:129] Top shape: 1 960 4 8 (30720)
I1201 09:29:20.754319 23278 net.cpp:129] Top shape: 1 960 4 8 (30720)
I1201 09:29:20.754321 23278 net.cpp:137] Memory required for data: 184561288
I1201 09:29:20.754324 23278 layer_factory.hpp:77] Creating layer conv5_15/x1/bn
I1201 09:29:20.754328 23278 net.cpp:84] Creating Layer conv5_15/x1/bn
I1201 09:29:20.754331 23278 net.cpp:406] conv5_15/x1/bn <- concat_5_14_concat_5_14_0_split_0
I1201 09:29:20.754336 23278 net.cpp:380] conv5_15/x1/bn -> conv5_15/x1/bn
I1201 09:29:20.754765 23278 net.cpp:122] Setting up conv5_15/x1/bn
I1201 09:29:20.754771 23278 net.cpp:129] Top shape: 1 960 4 8 (30720)
I1201 09:29:20.754773 23278 net.cpp:137] Memory required for data: 184684168
I1201 09:29:20.754779 23278 layer_factory.hpp:77] Creating layer conv5_15/x1/scale
I1201 09:29:20.754786 23278 net.cpp:84] Creating Layer conv5_15/x1/scale
I1201 09:29:20.754789 23278 net.cpp:406] conv5_15/x1/scale <- conv5_15/x1/bn
I1201 09:29:20.754793 23278 net.cpp:367] conv5_15/x1/scale -> conv5_15/x1/bn (in-place)
I1201 09:29:20.754876 23278 layer_factory.hpp:77] Creating layer conv5_15/x1/scale
I1201 09:29:20.755105 23278 net.cpp:122] Setting up conv5_15/x1/scale
I1201 09:29:20.755111 23278 net.cpp:129] Top shape: 1 960 4 8 (30720)
I1201 09:29:20.755115 23278 net.cpp:137] Memory required for data: 184807048
I1201 09:29:20.755118 23278 layer_factory.hpp:77] Creating layer relu5_15/x1
I1201 09:29:20.755123 23278 net.cpp:84] Creating Layer relu5_15/x1
I1201 09:29:20.755126 23278 net.cpp:406] relu5_15/x1 <- conv5_15/x1/bn
I1201 09:29:20.755129 23278 net.cpp:367] relu5_15/x1 -> conv5_15/x1/bn (in-place)
I1201 09:29:20.755568 23278 net.cpp:122] Setting up relu5_15/x1
I1201 09:29:20.755578 23278 net.cpp:129] Top shape: 1 960 4 8 (30720)
I1201 09:29:20.755581 23278 net.cpp:137] Memory required for data: 184929928
I1201 09:29:20.755584 23278 layer_factory.hpp:77] Creating layer conv5_15/x1
I1201 09:29:20.755594 23278 net.cpp:84] Creating Layer conv5_15/x1
I1201 09:29:20.755597 23278 net.cpp:406] conv5_15/x1 <- conv5_15/x1/bn
I1201 09:29:20.755602 23278 net.cpp:380] conv5_15/x1 -> conv5_15/x1
I1201 09:29:20.760143 23278 net.cpp:122] Setting up conv5_15/x1
I1201 09:29:20.760154 23278 net.cpp:129] Top shape: 1 128 4 8 (4096)
I1201 09:29:20.760159 23278 net.cpp:137] Memory required for data: 184946312
I1201 09:29:20.760164 23278 layer_factory.hpp:77] Creating layer conv5_15/x2/bn
I1201 09:29:20.760170 23278 net.cpp:84] Creating Layer conv5_15/x2/bn
I1201 09:29:20.760174 23278 net.cpp:406] conv5_15/x2/bn <- conv5_15/x1
I1201 09:29:20.760179 23278 net.cpp:380] conv5_15/x2/bn -> conv5_15/x2/bn
I1201 09:29:20.760535 23278 net.cpp:122] Setting up conv5_15/x2/bn
I1201 09:29:20.760542 23278 net.cpp:129] Top shape: 1 128 4 8 (4096)
I1201 09:29:20.760545 23278 net.cpp:137] Memory required for data: 184962696
I1201 09:29:20.760550 23278 layer_factory.hpp:77] Creating layer conv5_15/x2/scale
I1201 09:29:20.760556 23278 net.cpp:84] Creating Layer conv5_15/x2/scale
I1201 09:29:20.760560 23278 net.cpp:406] conv5_15/x2/scale <- conv5_15/x2/bn
I1201 09:29:20.760563 23278 net.cpp:367] conv5_15/x2/scale -> conv5_15/x2/bn (in-place)
I1201 09:29:20.760627 23278 layer_factory.hpp:77] Creating layer conv5_15/x2/scale
I1201 09:29:20.760810 23278 net.cpp:122] Setting up conv5_15/x2/scale
I1201 09:29:20.760818 23278 net.cpp:129] Top shape: 1 128 4 8 (4096)
I1201 09:29:20.760819 23278 net.cpp:137] Memory required for data: 184979080
I1201 09:29:20.760824 23278 layer_factory.hpp:77] Creating layer relu5_15/x2
I1201 09:29:20.760829 23278 net.cpp:84] Creating Layer relu5_15/x2
I1201 09:29:20.760833 23278 net.cpp:406] relu5_15/x2 <- conv5_15/x2/bn
I1201 09:29:20.760836 23278 net.cpp:367] relu5_15/x2 -> conv5_15/x2/bn (in-place)
I1201 09:29:20.761281 23278 net.cpp:122] Setting up relu5_15/x2
I1201 09:29:20.761291 23278 net.cpp:129] Top shape: 1 128 4 8 (4096)
I1201 09:29:20.761293 23278 net.cpp:137] Memory required for data: 184995464
I1201 09:29:20.761296 23278 layer_factory.hpp:77] Creating layer conv5_15/x2
I1201 09:29:20.761307 23278 net.cpp:84] Creating Layer conv5_15/x2
I1201 09:29:20.761309 23278 net.cpp:406] conv5_15/x2 <- conv5_15/x2/bn
I1201 09:29:20.761315 23278 net.cpp:380] conv5_15/x2 -> conv5_15/x2
I1201 09:29:20.763895 23278 net.cpp:122] Setting up conv5_15/x2
I1201 09:29:20.763906 23278 net.cpp:129] Top shape: 1 32 4 8 (1024)
I1201 09:29:20.763909 23278 net.cpp:137] Memory required for data: 184999560
I1201 09:29:20.763914 23278 layer_factory.hpp:77] Creating layer concat_5_15
I1201 09:29:20.763919 23278 net.cpp:84] Creating Layer concat_5_15
I1201 09:29:20.763922 23278 net.cpp:406] concat_5_15 <- concat_5_14_concat_5_14_0_split_1
I1201 09:29:20.763927 23278 net.cpp:406] concat_5_15 <- conv5_15/x2
I1201 09:29:20.763932 23278 net.cpp:380] concat_5_15 -> concat_5_15
I1201 09:29:20.763978 23278 net.cpp:122] Setting up concat_5_15
I1201 09:29:20.763983 23278 net.cpp:129] Top shape: 1 992 4 8 (31744)
I1201 09:29:20.763986 23278 net.cpp:137] Memory required for data: 185126536
I1201 09:29:20.763989 23278 layer_factory.hpp:77] Creating layer concat_5_15_concat_5_15_0_split
I1201 09:29:20.763993 23278 net.cpp:84] Creating Layer concat_5_15_concat_5_15_0_split
I1201 09:29:20.763998 23278 net.cpp:406] concat_5_15_concat_5_15_0_split <- concat_5_15
I1201 09:29:20.764001 23278 net.cpp:380] concat_5_15_concat_5_15_0_split -> concat_5_15_concat_5_15_0_split_0
I1201 09:29:20.764006 23278 net.cpp:380] concat_5_15_concat_5_15_0_split -> concat_5_15_concat_5_15_0_split_1
I1201 09:29:20.764068 23278 net.cpp:122] Setting up concat_5_15_concat_5_15_0_split
I1201 09:29:20.764075 23278 net.cpp:129] Top shape: 1 992 4 8 (31744)
I1201 09:29:20.764077 23278 net.cpp:129] Top shape: 1 992 4 8 (31744)
I1201 09:29:20.764080 23278 net.cpp:137] Memory required for data: 185380488
I1201 09:29:20.764082 23278 layer_factory.hpp:77] Creating layer conv5_16/x1/bn
I1201 09:29:20.764087 23278 net.cpp:84] Creating Layer conv5_16/x1/bn
I1201 09:29:20.764091 23278 net.cpp:406] conv5_16/x1/bn <- concat_5_15_concat_5_15_0_split_0
I1201 09:29:20.764094 23278 net.cpp:380] conv5_16/x1/bn -> conv5_16/x1/bn
I1201 09:29:20.764500 23278 net.cpp:122] Setting up conv5_16/x1/bn
I1201 09:29:20.764508 23278 net.cpp:129] Top shape: 1 992 4 8 (31744)
I1201 09:29:20.764513 23278 net.cpp:137] Memory required for data: 185507464
I1201 09:29:20.764518 23278 layer_factory.hpp:77] Creating layer conv5_16/x1/scale
I1201 09:29:20.764523 23278 net.cpp:84] Creating Layer conv5_16/x1/scale
I1201 09:29:20.764526 23278 net.cpp:406] conv5_16/x1/scale <- conv5_16/x1/bn
I1201 09:29:20.764531 23278 net.cpp:367] conv5_16/x1/scale -> conv5_16/x1/bn (in-place)
I1201 09:29:20.764618 23278 layer_factory.hpp:77] Creating layer conv5_16/x1/scale
I1201 09:29:20.764852 23278 net.cpp:122] Setting up conv5_16/x1/scale
I1201 09:29:20.764858 23278 net.cpp:129] Top shape: 1 992 4 8 (31744)
I1201 09:29:20.764860 23278 net.cpp:137] Memory required for data: 185634440
I1201 09:29:20.764865 23278 layer_factory.hpp:77] Creating layer relu5_16/x1
I1201 09:29:20.764871 23278 net.cpp:84] Creating Layer relu5_16/x1
I1201 09:29:20.764874 23278 net.cpp:406] relu5_16/x1 <- conv5_16/x1/bn
I1201 09:29:20.764878 23278 net.cpp:367] relu5_16/x1 -> conv5_16/x1/bn (in-place)
I1201 09:29:20.765090 23278 net.cpp:122] Setting up relu5_16/x1
I1201 09:29:20.765099 23278 net.cpp:129] Top shape: 1 992 4 8 (31744)
I1201 09:29:20.765101 23278 net.cpp:137] Memory required for data: 185761416
I1201 09:29:20.765105 23278 layer_factory.hpp:77] Creating layer conv5_16/x1
I1201 09:29:20.765112 23278 net.cpp:84] Creating Layer conv5_16/x1
I1201 09:29:20.765116 23278 net.cpp:406] conv5_16/x1 <- conv5_16/x1/bn
I1201 09:29:20.765121 23278 net.cpp:380] conv5_16/x1 -> conv5_16/x1
I1201 09:29:20.770339 23278 net.cpp:122] Setting up conv5_16/x1
I1201 09:29:20.770350 23278 net.cpp:129] Top shape: 1 128 4 8 (4096)
I1201 09:29:20.770354 23278 net.cpp:137] Memory required for data: 185777800
I1201 09:29:20.770359 23278 layer_factory.hpp:77] Creating layer conv5_16/x2/bn
I1201 09:29:20.770364 23278 net.cpp:84] Creating Layer conv5_16/x2/bn
I1201 09:29:20.770368 23278 net.cpp:406] conv5_16/x2/bn <- conv5_16/x1
I1201 09:29:20.770373 23278 net.cpp:380] conv5_16/x2/bn -> conv5_16/x2/bn
I1201 09:29:20.770740 23278 net.cpp:122] Setting up conv5_16/x2/bn
I1201 09:29:20.770746 23278 net.cpp:129] Top shape: 1 128 4 8 (4096)
I1201 09:29:20.770748 23278 net.cpp:137] Memory required for data: 185794184
I1201 09:29:20.770756 23278 layer_factory.hpp:77] Creating layer conv5_16/x2/scale
I1201 09:29:20.770761 23278 net.cpp:84] Creating Layer conv5_16/x2/scale
I1201 09:29:20.770764 23278 net.cpp:406] conv5_16/x2/scale <- conv5_16/x2/bn
I1201 09:29:20.770767 23278 net.cpp:367] conv5_16/x2/scale -> conv5_16/x2/bn (in-place)
I1201 09:29:20.770833 23278 layer_factory.hpp:77] Creating layer conv5_16/x2/scale
I1201 09:29:20.771023 23278 net.cpp:122] Setting up conv5_16/x2/scale
I1201 09:29:20.771028 23278 net.cpp:129] Top shape: 1 128 4 8 (4096)
I1201 09:29:20.771030 23278 net.cpp:137] Memory required for data: 185810568
I1201 09:29:20.771035 23278 layer_factory.hpp:77] Creating layer relu5_16/x2
I1201 09:29:20.771041 23278 net.cpp:84] Creating Layer relu5_16/x2
I1201 09:29:20.771044 23278 net.cpp:406] relu5_16/x2 <- conv5_16/x2/bn
I1201 09:29:20.771047 23278 net.cpp:367] relu5_16/x2 -> conv5_16/x2/bn (in-place)
I1201 09:29:20.771492 23278 net.cpp:122] Setting up relu5_16/x2
I1201 09:29:20.771502 23278 net.cpp:129] Top shape: 1 128 4 8 (4096)
I1201 09:29:20.771505 23278 net.cpp:137] Memory required for data: 185826952
I1201 09:29:20.771508 23278 layer_factory.hpp:77] Creating layer conv5_16/x2
I1201 09:29:20.771517 23278 net.cpp:84] Creating Layer conv5_16/x2
I1201 09:29:20.771520 23278 net.cpp:406] conv5_16/x2 <- conv5_16/x2/bn
I1201 09:29:20.771525 23278 net.cpp:380] conv5_16/x2 -> conv5_16/x2
I1201 09:29:20.774327 23278 net.cpp:122] Setting up conv5_16/x2
I1201 09:29:20.774338 23278 net.cpp:129] Top shape: 1 32 4 8 (1024)
I1201 09:29:20.774341 23278 net.cpp:137] Memory required for data: 185831048
I1201 09:29:20.774346 23278 layer_factory.hpp:77] Creating layer concat_5_16
I1201 09:29:20.774351 23278 net.cpp:84] Creating Layer concat_5_16
I1201 09:29:20.774355 23278 net.cpp:406] concat_5_16 <- concat_5_15_concat_5_15_0_split_1
I1201 09:29:20.774359 23278 net.cpp:406] concat_5_16 <- conv5_16/x2
I1201 09:29:20.774366 23278 net.cpp:380] concat_5_16 -> concat_5_16
I1201 09:29:20.774415 23278 net.cpp:122] Setting up concat_5_16
I1201 09:29:20.774420 23278 net.cpp:129] Top shape: 1 1024 4 8 (32768)
I1201 09:29:20.774422 23278 net.cpp:137] Memory required for data: 185962120
I1201 09:29:20.774425 23278 layer_factory.hpp:77] Creating layer tpp5
I1201 09:29:20.774430 23278 net.cpp:84] Creating Layer tpp5
I1201 09:29:20.774433 23278 net.cpp:406] tpp5 <- concat_5_16
I1201 09:29:20.774440 23278 net.cpp:380] tpp5 -> tpp5
I1201 09:29:20.775207 23278 net.cpp:122] Setting up tpp5
I1201 09:29:20.775216 23278 net.cpp:129] Top shape: 1 15360 (15360)
I1201 09:29:20.775219 23278 net.cpp:137] Memory required for data: 186023560
I1201 09:29:20.775223 23278 layer_factory.hpp:77] Creating layer fc6_d
I1201 09:29:20.775228 23278 net.cpp:84] Creating Layer fc6_d
I1201 09:29:20.775231 23278 net.cpp:406] fc6_d <- tpp5
I1201 09:29:20.775238 23278 net.cpp:380] fc6_d -> fc6_d
I1201 09:29:22.696507 23278 net.cpp:122] Setting up fc6_d
I1201 09:29:22.696539 23278 net.cpp:129] Top shape: 1 4096 (4096)
I1201 09:29:22.696542 23278 net.cpp:137] Memory required for data: 186039944
I1201 09:29:22.696550 23278 layer_factory.hpp:77] Creating layer relu6
I1201 09:29:22.696558 23278 net.cpp:84] Creating Layer relu6
I1201 09:29:22.696563 23278 net.cpp:406] relu6 <- fc6_d
I1201 09:29:22.696571 23278 net.cpp:367] relu6 -> fc6_d (in-place)
I1201 09:29:22.696861 23278 net.cpp:122] Setting up relu6
I1201 09:29:22.696873 23278 net.cpp:129] Top shape: 1 4096 (4096)
I1201 09:29:22.696877 23278 net.cpp:137] Memory required for data: 186056328
I1201 09:29:22.696878 23278 layer_factory.hpp:77] Creating layer fc7_d
I1201 09:29:22.696885 23278 net.cpp:84] Creating Layer fc7_d
I1201 09:29:22.696888 23278 net.cpp:406] fc7_d <- fc6_d
I1201 09:29:22.696893 23278 net.cpp:380] fc7_d -> fc7_d
I1201 09:29:23.193712 23278 net.cpp:122] Setting up fc7_d
I1201 09:29:23.193740 23278 net.cpp:129] Top shape: 1 4096 (4096)
I1201 09:29:23.193744 23278 net.cpp:137] Memory required for data: 186072712
I1201 09:29:23.193752 23278 layer_factory.hpp:77] Creating layer relu7
I1201 09:29:23.193760 23278 net.cpp:84] Creating Layer relu7
I1201 09:29:23.193765 23278 net.cpp:406] relu7 <- fc7_d
I1201 09:29:23.193771 23278 net.cpp:367] relu7 -> fc7_d (in-place)
I1201 09:29:23.194463 23278 net.cpp:122] Setting up relu7
I1201 09:29:23.194473 23278 net.cpp:129] Top shape: 1 4096 (4096)
I1201 09:29:23.194476 23278 net.cpp:137] Memory required for data: 186089096
I1201 09:29:23.194479 23278 layer_factory.hpp:77] Creating layer fc8_d
I1201 09:29:23.194486 23278 net.cpp:84] Creating Layer fc8_d
I1201 09:29:23.194490 23278 net.cpp:406] fc8_d <- fc7_d
I1201 09:29:23.194494 23278 net.cpp:380] fc8_d -> fc8_d
I1201 09:29:23.255442 23278 net.cpp:122] Setting up fc8_d
I1201 09:29:23.255472 23278 net.cpp:129] Top shape: 1 604 (604)
I1201 09:29:23.255475 23278 net.cpp:137] Memory required for data: 186091512
I1201 09:29:23.255483 23278 layer_factory.hpp:77] Creating layer fc8_d_fc8_d_0_split
I1201 09:29:23.255492 23278 net.cpp:84] Creating Layer fc8_d_fc8_d_0_split
I1201 09:29:23.255498 23278 net.cpp:406] fc8_d_fc8_d_0_split <- fc8_d
I1201 09:29:23.255504 23278 net.cpp:380] fc8_d_fc8_d_0_split -> fc8_d_fc8_d_0_split_0
I1201 09:29:23.255511 23278 net.cpp:380] fc8_d_fc8_d_0_split -> fc8_d_fc8_d_0_split_1
I1201 09:29:23.255578 23278 net.cpp:122] Setting up fc8_d_fc8_d_0_split
I1201 09:29:23.255584 23278 net.cpp:129] Top shape: 1 604 (604)
I1201 09:29:23.255586 23278 net.cpp:129] Top shape: 1 604 (604)
I1201 09:29:23.255589 23278 net.cpp:137] Memory required for data: 186096344
I1201 09:29:23.255591 23278 layer_factory.hpp:77] Creating layer sigmoid
I1201 09:29:23.255599 23278 net.cpp:84] Creating Layer sigmoid
I1201 09:29:23.255602 23278 net.cpp:406] sigmoid <- fc8_d_fc8_d_0_split_0
I1201 09:29:23.255606 23278 net.cpp:380] sigmoid -> sigmoid
I1201 09:29:23.256407 23278 net.cpp:122] Setting up sigmoid
I1201 09:29:23.256417 23278 net.cpp:129] Top shape: 1 604 (604)
I1201 09:29:23.256419 23278 net.cpp:137] Memory required for data: 186098760
I1201 09:29:23.256427 23278 layer_factory.hpp:77] Creating layer silence
I1201 09:29:23.256431 23278 net.cpp:84] Creating Layer silence
I1201 09:29:23.256434 23278 net.cpp:406] silence <- sigmoid
I1201 09:29:23.256438 23278 net.cpp:122] Setting up silence
I1201 09:29:23.256443 23278 net.cpp:137] Memory required for data: 186098760
…
