…
state {
  phase: TRAIN
}
layer {
  name: "word_images"
  type: "Data"
  top: "word_images"
  top: "label"
  transform_param {
    scale: -0.0039215689
    mean_value: 255
  }
  data_param {
    source: "/data/fwolf/min26/gw_cv1_nti500000_pul2-3-4-5_train_word_images_lmdb"
    batch_size: 1
    backend: LMDB
    prefetch: 20
  }
}
layer {
  name: "phocs"
  type: "Data"
  top: "phocs"
  top: "label_phocs"
  data_param {
    source: "/data/fwolf/min26/gw_cv1_nti500000_pul2-3-4-5_train_phocs_lmdb"
    batch_size: 1
    backend: LMDB
    prefetch: 20
  }
}
layer {
  name: "conv_init"
  type: "Convolution"
  bottom: "word_images"
  top: "conv_init"
  convolution_param {
    num_output: 32
    bias_term: false
    pad: 1
    kernel_size: 3
    stride: 1
    weight_filler {
      type: "msra"
    }
    bias_filler {
      type: "constant"
    }
    engine: CUDNN
  }
}
layer {
  name: "bn_init"
  type: "BatchNorm"
  bottom: "conv_init"
  top: "bn_init"
  param {
    lr_mult: 0
    decay_mult: 0
  }
  param {
    lr_mult: 0
    decay_mult: 0
  }
  param {
    lr_mult: 0
    decay_mult: 0
  }
  batch_norm_param {
    eps: 1e-05
  }
}
layer {
  name: "scale_init"
  type: "Scale"
  bottom: "bn_init"
  top: "bn_init"
  scale_param {
    filler {
      value: 1
    }
    bias_term: true
    bias_filler {
      value: 0
    }
  }
}
layer {
  name: "relu_init"
  type: "ReLU"
  bottom: "bn_init"
  top: "bn_init"
}
layer {
  name: "pool_init"
  type: "Pooling"
  bottom: "bn_init"
  top: "pool_init"
  pooling_param {
    pool: MAX
    kernel_size: 3
    stride: 2
    pad: 1
  }
}
layer {
  name: "conv0_0/bn"
  type: "BatchNorm"
  bottom: "pool_init"
  top: "conv0_0/bn"
  param {
    lr_mult: 0
    decay_mult: 0
  }
  param {
    lr_mult: 0
    decay_mult: 0
  }
  param {
    lr_mult: 0
    decay_mult: 0
  }
}
layer {
  name: "conv0_0/scale"
  type: "Scale"
  bottom: "conv0_0/bn"
  top: "conv0_0/bn"
  scale_param {
    filler {
      value: 1
    }
    bias_term: true
    bias_filler {
      value: 0
    }
  }
}
layer {
  name: "relu0_0"
  type: "ReLU"
  bottom: "conv0_0/bn"
  top: "conv0_0/bn"
}
layer {
  name: "conv0_0"
  type: "Convolution"
  bottom: "conv0_0/bn"
  top: "conv0_0"
  convolution_param {
    num_output: 12
    bias_term: false
    pad: 1
    kernel_size: 3
    stride: 1
    weight_filler {
      type: "msra"
    }
    bias_filler {
      type: "constant"
    }
    engine: CUDNN
  }
}
layer {
  name: "concat0_0"
  type: "Concat"
  bottom: "pool_init"
  bottom: "conv0_0"
  top: "concat0_0"
  concat_param {
    axis: 1
  }
}
layer {
  name: "conv0_1/bn"
  type: "BatchNorm"
  bottom: "concat0_0"
  top: "conv0_1/bn"
  param {
    lr_mult: 0
    decay_mult: 0
  }
  param {
    lr_mult: 0
    decay_mult: 0
  }
  param {
    lr_mult: 0
    decay_mult: 0
  }
}
layer {
  name: "conv0_1/scale"
  type: "Scale"
  bottom: "conv0_1/bn"
  top: "conv0_1/bn"
  scale_param {
    filler {
      value: 1
    }
    bias_term: true
    bias_filler {
      value: 0
    }
  }
}
layer {
  name: "relu0_1"
  type: "ReLU"
  bottom: "conv0_1/bn"
  top: "conv0_1/bn"
}
layer {
  name: "conv0_1"
  type: "Convolution"
  bottom: "conv0_1/bn"
  top: "conv0_1"
  convolution_param {
    num_output: 12
    bias_term: false
    pad: 1
    kernel_size: 3
    stride: 1
    weight_filler {
      type: "msra"
    }
    bias_filler {
      type: "constant"
    }
    engine: CUDNN
  }
}
layer {
  name: "concat0_1"
  type: "Concat"
  bottom: "concat0_0"
  bottom: "conv0_1"
  top: "concat0_1"
  concat_param {
    axis: 1
  }
}
layer {
  name: "conv0_2/bn"
  type: "BatchNorm"
  bottom: "concat0_1"
  top: "conv0_2/bn"
  param {
    lr_mult: 0
    decay_mult: 0
  }
  param {
    lr_mult: 0
    decay_mult: 0
  }
  param {
    lr_mult: 0
    decay_mult: 0
  }
}
layer {
  name: "conv0_2/scale"
  type: "Scale"
  bottom: "conv0_2/bn"
  top: "conv0_2/bn"
  scale_param {
    filler {
      value: 1
    }
    bias_term: true
    bias_filler {
      value: 0
    }
  }
}
layer {
  name: "relu0_2"
  type: "ReLU"
  bottom: "conv0_2/bn"
  top: "conv0_2/bn"
}
layer {
  name: "conv0_2"
  type: "Convolution"
  bottom: "conv0_2/bn"
  top: "conv0_2"
  convolution_param {
    num_output: 12
    bias_term: false
    pad: 1
    kernel_size: 3
    stride: 1
    weight_filler {
      type: "msra"
    }
    bias_filler {
      type: "constant"
    }
    engine: CUDNN
  }
}
layer {
  name: "concat0_2"
  type: "Concat"
  bottom: "concat0_1"
  bottom: "conv0_2"
  top: "concat0_2"
  concat_param {
    axis: 1
  }
}
layer {
  name: "conv0_3/bn"
  type: "BatchNorm"
  bottom: "concat0_2"
  top: "conv0_3/bn"
  param {
    lr_mult: 0
    decay_mult: 0
  }
  param {
    lr_mult: 0
    decay_mult: 0
  }
  param {
    lr_mult: 0
    decay_mult: 0
  }
}
layer {
  name: "conv0_3/scale"
  type: "Scale"
  bottom: "conv0_3/bn"
  top: "conv0_3/bn"
  scale_param {
    filler {
      value: 1
    }
    bias_term: true
    bias_filler {
      value: 0
    }
  }
}
layer {
  name: "relu0_3"
  type: "ReLU"
  bottom: "conv0_3/bn"
  top: "conv0_3/bn"
}
layer {
  name: "conv0_3"
  type: "Convolution"
  bottom: "conv0_3/bn"
  top: "conv0_3"
  convolution_param {
    num_output: 12
    bias_term: false
    pad: 1
    kernel_size: 3
    stride: 1
    weight_filler {
      type: "msra"
    }
    bias_filler {
      type: "constant"
    }
    engine: CUDNN
  }
}
layer {
  name: "concat0_3"
  type: "Concat"
  bottom: "concat0_2"
  bottom: "conv0_3"
  top: "concat0_3"
  concat_param {
    axis: 1
  }
}
layer {
  name: "conv0_4/bn"
  type: "BatchNorm"
  bottom: "concat0_3"
  top: "conv0_4/bn"
  param {
    lr_mult: 0
    decay_mult: 0
  }
  param {
    lr_mult: 0
    decay_mult: 0
  }
  param {
    lr_mult: 0
    decay_mult: 0
  }
}
layer {
  name: "conv0_4/scale"
  type: "Scale"
  bottom: "conv0_4/bn"
  top: "conv0_4/bn"
  scale_param {
    filler {
      value: 1
    }
    bias_term: true
    bias_filler {
      value: 0
    }
  }
}
layer {
  name: "relu0_4"
  type: "ReLU"
  bottom: "conv0_4/bn"
  top: "conv0_4/bn"
}
layer {
  name: "conv0_4"
  type: "Convolution"
  bottom: "conv0_4/bn"
  top: "conv0_4"
  convolution_param {
    num_output: 12
    bias_term: false
    pad: 1
    kernel_size: 3
    stride: 1
    weight_filler {
      type: "msra"
    }
    bias_filler {
      type: "constant"
    }
    engine: CUDNN
  }
}
layer {
  name: "concat0_4"
  type: "Concat"
  bottom: "concat0_3"
  bottom: "conv0_4"
  top: "concat0_4"
  concat_param {
    axis: 1
  }
}
layer {
  name: "conv0_5/bn"
  type: "BatchNorm"
  bottom: "concat0_4"
  top: "conv0_5/bn"
  param {
    lr_mult: 0
    decay_mult: 0
  }
  param {
    lr_mult: 0
    decay_mult: 0
  }
  param {
    lr_mult: 0
    decay_mult: 0
  }
}
layer {
  name: "conv0_5/scale"
  type: "Scale"
  bottom: "conv0_5/bn"
  top: "conv0_5/bn"
  scale_param {
    filler {
      value: 1
    }
    bias_term: true
    bias_filler {
      value: 0
    }
  }
}
layer {
  name: "relu0_5"
  type: "ReLU"
  bottom: "conv0_5/bn"
  top: "conv0_5/bn"
}
layer {
  name: "conv0_5"
  type: "Convolution"
  bottom: "conv0_5/bn"
  top: "conv0_5"
  convolution_param {
    num_output: 12
    bias_term: false
    pad: 1
    kernel_size: 3
    stride: 1
    weight_filler {
      type: "msra"
    }
    bias_filler {
      type: "constant"
    }
    engine: CUDNN
  }
}
layer {
  name: "concat0_5"
  type: "Concat"
  bottom: "concat0_4"
  bottom: "conv0_5"
  top: "concat0_5"
  concat_param {
    axis: 1
  }
}
layer {
  name: "conv0_6/bn"
  type: "BatchNorm"
  bottom: "concat0_5"
  top: "conv0_6/bn"
  param {
    lr_mult: 0
    decay_mult: 0
  }
  param {
    lr_mult: 0
    decay_mult: 0
  }
  param {
    lr_mult: 0
    decay_mult: 0
  }
}
layer {
  name: "conv0_6/scale"
  type: "Scale"
  bottom: "conv0_6/bn"
  top: "conv0_6/bn"
  scale_param {
    filler {
      value: 1
    }
    bias_term: true
    bias_filler {
      value: 0
    }
  }
}
layer {
  name: "relu0_6"
  type: "ReLU"
  bottom: "conv0_6/bn"
  top: "conv0_6/bn"
}
layer {
  name: "conv0_6"
  type: "Convolution"
  bottom: "conv0_6/bn"
  top: "conv0_6"
  convolution_param {
    num_output: 12
    bias_term: false
    pad: 1
    kernel_size: 3
    stride: 1
    weight_filler {
      type: "msra"
    }
    bias_filler {
      type: "constant"
    }
    engine: CUDNN
  }
}
layer {
  name: "concat0_6"
  type: "Concat"
  bottom: "concat0_5"
  bottom: "conv0_6"
  top: "concat0_6"
  concat_param {
    axis: 1
  }
}
layer {
  name: "conv0_7/bn"
  type: "BatchNorm"
  bottom: "concat0_6"
  top: "conv0_7/bn"
  param {
    lr_mult: 0
    decay_mult: 0
  }
  param {
    lr_mult: 0
    decay_mult: 0
  }
  param {
    lr_mult: 0
    decay_mult: 0
  }
}
layer {
  name: "conv0_7/scale"
  type: "Scale"
  bottom: "conv0_7/bn"
  top: "conv0_7/bn"
  scale_param {
    filler {
      value: 1
    }
    bias_term: true
    bias_filler {
      value: 0
    }
  }
}
layer {
  name: "relu0_7"
  type: "ReLU"
  bottom: "conv0_7/bn"
  top: "conv0_7/bn"
}
layer {
  name: "conv0_7"
  type: "Convolution"
  bottom: "conv0_7/bn"
  top: "conv0_7"
  convolution_param {
    num_output: 12
    bias_term: false
    pad: 1
    kernel_size: 3
    stride: 1
    weight_filler {
      type: "msra"
    }
    bias_filler {
      type: "constant"
    }
    engine: CUDNN
  }
}
layer {
  name: "concat0_7"
  type: "Concat"
  bottom: "concat0_6"
  bottom: "conv0_7"
  top: "concat0_7"
  concat_param {
    axis: 1
  }
}
layer {
  name: "conv0_8/bn"
  type: "BatchNorm"
  bottom: "concat0_7"
  top: "conv0_8/bn"
  param {
    lr_mult: 0
    decay_mult: 0
  }
  param {
    lr_mult: 0
    decay_mult: 0
  }
  param {
    lr_mult: 0
    decay_mult: 0
  }
}
layer {
  name: "conv0_8/scale"
  type: "Scale"
  bottom: "conv0_8/bn"
  top: "conv0_8/bn"
  scale_param {
    filler {
      value: 1
    }
    bias_term: true
    bias_filler {
      value: 0
    }
  }
}
layer {
  name: "relu0_8"
  type: "ReLU"
  bottom: "conv0_8/bn"
  top: "conv0_8/bn"
}
layer {
  name: "conv0_8"
  type: "Convolution"
  bottom: "conv0_8/bn"
  top: "conv0_8"
  convolution_param {
    num_output: 12
    bias_term: false
    pad: 1
    kernel_size: 3
    stride: 1
    weight_filler {
      type: "msra"
    }
    bias_filler {
      type: "constant"
    }
    engine: CUDNN
  }
}
layer {
  name: "concat0_8"
  type: "Concat"
  bottom: "concat0_7"
  bottom: "conv0_8"
  top: "concat0_8"
  concat_param {
    axis: 1
  }
}
layer {
  name: "conv0_9/bn"
  type: "BatchNorm"
  bottom: "concat0_8"
  top: "conv0_9/bn"
  param {
    lr_mult: 0
    decay_mult: 0
  }
  param {
    lr_mult: 0
    decay_mult: 0
  }
  param {
    lr_mult: 0
    decay_mult: 0
  }
}
layer {
  name: "conv0_9/scale"
  type: "Scale"
  bottom: "conv0_9/bn"
  top: "conv0_9/bn"
  scale_param {
    filler {
      value: 1
    }
    bias_term: true
    bias_filler {
      value: 0
    }
  }
}
layer {
  name: "relu0_9"
  type: "ReLU"
  bottom: "conv0_9/bn"
  top: "conv0_9/bn"
}
layer {
  name: "conv0_9"
  type: "Convolution"
  bottom: "conv0_9/bn"
  top: "conv0_9"
  convolution_param {
    num_output: 12
    bias_term: false
    pad: 1
    kernel_size: 3
    stride: 1
    weight_filler {
      type: "msra"
    }
    bias_filler {
      type: "constant"
    }
    engine: CUDNN
  }
}
layer {
  name: "concat0_9"
  type: "Concat"
  bottom: "concat0_8"
  bottom: "conv0_9"
  top: "concat0_9"
  concat_param {
    axis: 1
  }
}
layer {
  name: "conv0_10/bn"
  type: "BatchNorm"
  bottom: "concat0_9"
  top: "conv0_10/bn"
  param {
    lr_mult: 0
    decay_mult: 0
  }
  param {
    lr_mult: 0
    decay_mult: 0
  }
  param {
    lr_mult: 0
    decay_mult: 0
  }
}
layer {
  name: "conv0_10/scale"
  type: "Scale"
  bottom: "conv0_10/bn"
  top: "conv0_10/bn"
  scale_param {
    filler {
      value: 1
    }
    bias_term: true
    bias_filler {
      value: 0
    }
  }
}
layer {
  name: "relu0_10"
  type: "ReLU"
  bottom: "conv0_10/bn"
  top: "conv0_10/bn"
}
layer {
  name: "conv0_10"
  type: "Convolution"
  bottom: "conv0_10/bn"
  top: "conv0_10"
  convolution_param {
    num_output: 12
    bias_term: false
    pad: 1
    kernel_size: 3
    stride: 1
    weight_filler {
      type: "msra"
    }
    bias_filler {
      type: "constant"
    }
    engine: CUDNN
  }
}
layer {
  name: "concat0_10"
  type: "Concat"
  bottom: "concat0_9"
  bottom: "conv0_10"
  top: "concat0_10"
  concat_param {
    axis: 1
  }
}
layer {
  name: "conv0_11/bn"
  type: "BatchNorm"
  bottom: "concat0_10"
  top: "conv0_11/bn"
  param {
    lr_mult: 0
    decay_mult: 0
  }
  param {
    lr_mult: 0
    decay_mult: 0
  }
  param {
    lr_mult: 0
    decay_mult: 0
  }
}
layer {
  name: "conv0_11/scale"
  type: "Scale"
  bottom: "conv0_11/bn"
  top: "conv0_11/bn"
  scale_param {
    filler {
      value: 1
    }
    bias_term: true
    bias_filler {
      value: 0
    }
  }
}
layer {
  name: "relu0_11"
  type: "ReLU"
  bottom: "conv0_11/bn"
  top: "conv0_11/bn"
}
layer {
  name: "conv0_11"
  type: "Convolution"
  bottom: "conv0_11/bn"
  top: "conv0_11"
  convolution_param {
    num_output: 12
    bias_term: false
    pad: 1
    kernel_size: 3
    stride: 1
    weight_filler {
      type: "msra"
    }
    bias_filler {
      type: "constant"
    }
    engine: CUDNN
  }
}
layer {
  name: "concat0_11"
  type: "Concat"
  bottom: "concat0_10"
  bottom: "conv0_11"
  top: "concat0_11"
  concat_param {
    axis: 1
  }
}
layer {
  name: "conv0_12/bn"
  type: "BatchNorm"
  bottom: "concat0_11"
  top: "conv0_12/bn"
  param {
    lr_mult: 0
    decay_mult: 0
  }
  param {
    lr_mult: 0
    decay_mult: 0
  }
  param {
    lr_mult: 0
    decay_mult: 0
  }
}
layer {
  name: "conv0_12/scale"
  type: "Scale"
  bottom: "conv0_12/bn"
  top: "conv0_12/bn"
  scale_param {
    filler {
      value: 1
    }
    bias_term: true
    bias_filler {
      value: 0
    }
  }
}
layer {
  name: "relu0_12"
  type: "ReLU"
  bottom: "conv0_12/bn"
  top: "conv0_12/bn"
}
layer {
  name: "conv0_12"
  type: "Convolution"
  bottom: "conv0_12/bn"
  top: "conv0_12"
  convolution_param {
    num_output: 12
    bias_term: false
    pad: 1
    kernel_size: 3
    stride: 1
    weight_filler {
      type: "msra"
    }
    bias_filler {
      type: "constant"
    }
    engine: CUDNN
  }
}
layer {
  name: "concat0_12"
  type: "Concat"
  bottom: "concat0_11"
  bottom: "conv0_12"
  top: "concat0_12"
  concat_param {
    axis: 1
  }
}
layer {
  name: "conv0_13/bn"
  type: "BatchNorm"
  bottom: "concat0_12"
  top: "conv0_13/bn"
  param {
    lr_mult: 0
    decay_mult: 0
  }
  param {
    lr_mult: 0
    decay_mult: 0
  }
  param {
    lr_mult: 0
    decay_mult: 0
  }
}
layer {
  name: "conv0_13/scale"
  type: "Scale"
  bottom: "conv0_13/bn"
  top: "conv0_13/bn"
  scale_param {
    filler {
      value: 1
    }
    bias_term: true
    bias_filler {
      value: 0
    }
  }
}
layer {
  name: "relu0_13"
  type: "ReLU"
  bottom: "conv0_13/bn"
  top: "conv0_13/bn"
}
layer {
  name: "conv0_13"
  type: "Convolution"
  bottom: "conv0_13/bn"
  top: "conv0_13"
  convolution_param {
    num_output: 12
    bias_term: false
    pad: 1
    kernel_size: 3
    stride: 1
    weight_filler {
      type: "msra"
    }
    bias_filler {
      type: "constant"
    }
    engine: CUDNN
  }
}
layer {
  name: "concat0_13"
  type: "Concat"
  bottom: "concat0_12"
  bottom: "conv0_13"
  top: "concat0_13"
  concat_param {
    axis: 1
  }
}
layer {
  name: "conv0_14/bn"
  type: "BatchNorm"
  bottom: "concat0_13"
  top: "conv0_14/bn"
  param {
    lr_mult: 0
    decay_mult: 0
  }
  param {
    lr_mult: 0
    decay_mult: 0
  }
  param {
    lr_mult: 0
    decay_mult: 0
  }
}
layer {
  name: "conv0_14/scale"
  type: "Scale"
  bottom: "conv0_14/bn"
  top: "conv0_14/bn"
  scale_param {
    filler {
      value: 1
    }
    bias_term: true
    bias_filler {
      value: 0
    }
  }
}
layer {
  name: "relu0_14"
  type: "ReLU"
  bottom: "conv0_14/bn"
  top: "conv0_14/bn"
}
layer {
  name: "conv0_14"
  type: "Convolution"
  bottom: "conv0_14/bn"
  top: "conv0_14"
  convolution_param {
    num_output: 12
    bias_term: false
    pad: 1
    kernel_size: 3
    stride: 1
    weight_filler {
      type: "msra"
    }
    bias_filler {
      type: "constant"
    }
    engine: CUDNN
  }
}
layer {
  name: "concat0_14"
  type: "Concat"
  bottom: "concat0_13"
  bottom: "conv0_14"
  top: "concat0_14"
  concat_param {
    axis: 1
  }
}
layer {
  name: "conv0_15/bn"
  type: "BatchNorm"
  bottom: "concat0_14"
  top: "conv0_15/bn"
  param {
    lr_mult: 0
    decay_mult: 0
  }
  param {
    lr_mult: 0
    decay_mult: 0
  }
  param {
    lr_mult: 0
    decay_mult: 0
  }
}
layer {
  name: "conv0_15/scale"
  type: "Scale"
  bottom: "conv0_15/bn"
  top: "conv0_15/bn"
  scale_param {
    filler {
      value: 1
    }
    bias_term: true
    bias_filler {
      value: 0
    }
  }
}
layer {
  name: "relu0_15"
  type: "ReLU"
  bottom: "conv0_15/bn"
  top: "conv0_15/bn"
}
layer {
  name: "conv0_15"
  type: "Convolution"
  bottom: "conv0_15/bn"
  top: "conv0_15"
  convolution_param {
    num_output: 12
    bias_term: false
    pad: 1
    kernel_size: 3
    stride: 1
    weight_filler {
      type: "msra"
    }
    bias_filler {
      type: "constant"
    }
    engine: CUDNN
  }
}
layer {
  name: "concat0_15"
  type: "Concat"
  bottom: "concat0_14"
  bottom: "conv0_15"
  top: "concat0_15"
  concat_param {
    axis: 1
  }
}
layer {
  name: "conv0_16/bn"
  type: "BatchNorm"
  bottom: "concat0_15"
  top: "conv0_16/bn"
  param {
    lr_mult: 0
    decay_mult: 0
  }
  param {
    lr_mult: 0
    decay_mult: 0
  }
  param {
    lr_mult: 0
    decay_mult: 0
  }
}
layer {
  name: "conv0_16/scale"
  type: "Scale"
  bottom: "conv0_16/bn"
  top: "conv0_16/bn"
  scale_param {
    filler {
      value: 1
    }
    bias_term: true
    bias_filler {
      value: 0
    }
  }
}
layer {
  name: "relu0_16"
  type: "ReLU"
  bottom: "conv0_16/bn"
  top: "conv0_16/bn"
}
layer {
  name: "conv0_16"
  type: "Convolution"
  bottom: "conv0_16/bn"
  top: "conv0_16"
  convolution_param {
    num_output: 12
    bias_term: false
    pad: 1
    kernel_size: 3
    stride: 1
    weight_filler {
      type: "msra"
    }
    bias_filler {
      type: "constant"
    }
    engine: CUDNN
  }
}
layer {
  name: "concat0_16"
  type: "Concat"
  bottom: "concat0_15"
  bottom: "conv0_16"
  top: "concat0_16"
  concat_param {
    axis: 1
  }
}
layer {
  name: "conv0_17/bn"
  type: "BatchNorm"
  bottom: "concat0_16"
  top: "conv0_17/bn"
  param {
    lr_mult: 0
    decay_mult: 0
  }
  param {
    lr_mult: 0
    decay_mult: 0
  }
  param {
    lr_mult: 0
    decay_mult: 0
  }
}
layer {
  name: "conv0_17/scale"
  type: "Scale"
  bottom: "conv0_17/bn"
  top: "conv0_17/bn"
  scale_param {
    filler {
      value: 1
    }
    bias_term: true
    bias_filler {
      value: 0
    }
  }
}
layer {
  name: "relu0_17"
  type: "ReLU"
  bottom: "conv0_17/bn"
  top: "conv0_17/bn"
}
layer {
  name: "conv0_17"
  type: "Convolution"
  bottom: "conv0_17/bn"
  top: "conv0_17"
  convolution_param {
    num_output: 12
    bias_term: false
    pad: 1
    kernel_size: 3
    stride: 1
    weight_filler {
      type: "msra"
    }
    bias_filler {
      type: "constant"
    }
    engine: CUDNN
  }
}
layer {
  name: "concat0_17"
  type: "Concat"
  bottom: "concat0_16"
  bottom: "conv0_17"
  top: "concat0_17"
  concat_param {
    axis: 1
  }
}
layer {
  name: "conv0_18/bn"
  type: "BatchNorm"
  bottom: "concat0_17"
  top: "conv0_18/bn"
  param {
    lr_mult: 0
    decay_mult: 0
  }
  param {
    lr_mult: 0
    decay_mult: 0
  }
  param {
    lr_mult: 0
    decay_mult: 0
  }
}
layer {
  name: "conv0_18/scale"
  type: "Scale"
  bottom: "conv0_18/bn"
  top: "conv0_18/bn"
  scale_param {
    filler {
      value: 1
    }
    bias_term: true
    bias_filler {
      value: 0
    }
  }
}
layer {
  name: "relu0_18"
  type: "ReLU"
  bottom: "conv0_18/bn"
  top: "conv0_18/bn"
}
layer {
  name: "conv0_18"
  type: "Convolution"
  bottom: "conv0_18/bn"
  top: "conv0_18"
  convolution_param {
    num_output: 12
    bias_term: false
    pad: 1
    kernel_size: 3
    stride: 1
    weight_filler {
      type: "msra"
    }
    bias_filler {
      type: "constant"
    }
    engine: CUDNN
  }
}
layer {
  name: "concat0_18"
  type: "Concat"
  bottom: "concat0_17"
  bottom: "conv0_18"
  top: "concat0_18"
  concat_param {
    axis: 1
  }
}
layer {
  name: "conv0_19/bn"
  type: "BatchNorm"
  bottom: "concat0_18"
  top: "conv0_19/bn"
  param {
    lr_mult: 0
    decay_mult: 0
  }
  param {
    lr_mult: 0
    decay_mult: 0
  }
  param {
    lr_mult: 0
    decay_mult: 0
  }
}
layer {
  name: "conv0_19/scale"
  type: "Scale"
  bottom: "conv0_19/bn"
  top: "conv0_19/bn"
  scale_param {
    filler {
      value: 1
    }
    bias_term: true
    bias_filler {
      value: 0
    }
  }
}
layer {
  name: "relu0_19"
  type: "ReLU"
  bottom: "conv0_19/bn"
  top: "conv0_19/bn"
}
layer {
  name: "conv0_19"
  type: "Convolution"
  bottom: "conv0_19/bn"
  top: "conv0_19"
  convolution_param {
    num_output: 12
    bias_term: false
    pad: 1
    kernel_size: 3
    stride: 1
    weight_filler {
      type: "msra"
    }
    bias_filler {
      type: "constant"
    }
    engine: CUDNN
  }
}
layer {
  name: "concat0_19"
  type: "Concat"
  bottom: "concat0_18"
  bottom: "conv0_19"
  top: "concat0_19"
  concat_param {
    axis: 1
  }
}
layer {
  name: "BatchNorm1"
  type: "BatchNorm"
  bottom: "concat0_19"
  top: "BatchNorm1"
  param {
    lr_mult: 0
    decay_mult: 0
  }
  param {
    lr_mult: 0
    decay_mult: 0
  }
  param {
    lr_mult: 0
    decay_mult: 0
  }
}
layer {
  name: "Scale1"
  type: "Scale"
  bottom: "BatchNorm1"
  top: "BatchNorm1"
  scale_param {
    filler {
      value: 1
    }
    bias_term: true
    bias_filler {
      value: 0
    }
  }
}
layer {
  name: "ReLU1"
  type: "ReLU"
  bottom: "BatchNorm1"
  top: "BatchNorm1"
}
layer {
  name: "conv0_blk"
  type: "Convolution"
  bottom: "BatchNorm1"
  top: "conv0_blk"
  convolution_param {
    num_output: 272
    bias_term: false
    pad: 0
    kernel_size: 1
    stride: 1
    weight_filler {
      type: "msra"
    }
    bias_filler {
      type: "constant"
    }
    engine: CUDNN
  }
}
layer {
  name: "pool0"
  type: "Pooling"
  bottom: "conv0_blk"
  top: "pool0"
  pooling_param {
    pool: AVE
    kernel_size: 2
    stride: 2
  }
}
layer {
  name: "conv1_0/bn"
  type: "BatchNorm"
  bottom: "pool0"
  top: "conv1_0/bn"
  param {
    lr_mult: 0
    decay_mult: 0
  }
  param {
    lr_mult: 0
    decay_mult: 0
  }
  param {
    lr_mult: 0
    decay_mult: 0
  }
}
layer {
  name: "conv1_0/scale"
  type: "Scale"
  bottom: "conv1_0/bn"
  top: "conv1_0/bn"
  scale_param {
    filler {
      value: 1
    }
    bias_term: true
    bias_filler {
      value: 0
    }
  }
}
layer {
  name: "relu1_0"
  type: "ReLU"
  bottom: "conv1_0/bn"
  top: "conv1_0/bn"
}
layer {
  name: "conv1_0"
  type: "Convolution"
  bottom: "conv1_0/bn"
  top: "conv1_0"
  convolution_param {
    num_output: 12
    bias_term: false
    pad: 1
    kernel_size: 3
    stride: 1
    weight_filler {
      type: "msra"
    }
    bias_filler {
      type: "constant"
    }
    engine: CUDNN
  }
}
layer {
  name: "concat1_0"
  type: "Concat"
  bottom: "pool0"
  bottom: "conv1_0"
  top: "concat1_0"
  concat_param {
    axis: 1
  }
}
layer {
  name: "conv1_1/bn"
  type: "BatchNorm"
  bottom: "concat1_0"
  top: "conv1_1/bn"
  param {
    lr_mult: 0
    decay_mult: 0
  }
  param {
    lr_mult: 0
    decay_mult: 0
  }
  param {
    lr_mult: 0
    decay_mult: 0
  }
}
layer {
  name: "conv1_1/scale"
  type: "Scale"
  bottom: "conv1_1/bn"
  top: "conv1_1/bn"
  scale_param {
    filler {
      value: 1
    }
    bias_term: true
    bias_filler {
      value: 0
    }
  }
}
layer {
  name: "relu1_1"
  type: "ReLU"
  bottom: "conv1_1/bn"
  top: "conv1_1/bn"
}
layer {
  name: "conv1_1"
  type: "Convolution"
  bottom: "conv1_1/bn"
  top: "conv1_1"
  convolution_param {
    num_output: 12
    bias_term: false
    pad: 1
    kernel_size: 3
    stride: 1
    weight_filler {
      type: "msra"
    }
    bias_filler {
      type: "constant"
    }
    engine: CUDNN
  }
}
layer {
  name: "concat1_1"
  type: "Concat"
  bottom: "concat1_0"
  bottom: "conv1_1"
  top: "concat1_1"
  concat_param {
    axis: 1
  }
}
layer {
  name: "conv1_2/bn"
  type: "BatchNorm"
  bottom: "concat1_1"
  top: "conv1_2/bn"
  param {
    lr_mult: 0
    decay_mult: 0
  }
  param {
    lr_mult: 0
    decay_mult: 0
  }
  param {
    lr_mult: 0
    decay_mult: 0
  }
}
layer {
  name: "conv1_2/scale"
  type: "Scale"
  bottom: "conv1_2/bn"
  top: "conv1_2/bn"
  scale_param {
    filler {
      value: 1
    }
    bias_term: true
    bias_filler {
      value: 0
    }
  }
}
layer {
  name: "relu1_2"
  type: "ReLU"
  bottom: "conv1_2/bn"
  top: "conv1_2/bn"
}
layer {
  name: "conv1_2"
  type: "Convolution"
  bottom: "conv1_2/bn"
  top: "conv1_2"
  convolution_param {
    num_output: 12
    bias_term: false
    pad: 1
    kernel_size: 3
    stride: 1
    weight_filler {
      type: "msra"
    }
    bias_filler {
      type: "constant"
    }
    engine: CUDNN
  }
}
layer {
  name: "concat1_2"
  type: "Concat"
  bottom: "concat1_1"
  bottom: "conv1_2"
  top: "concat1_2"
  concat_param {
    axis: 1
  }
}
layer {
  name: "conv1_3/bn"
  type: "BatchNorm"
  bottom: "concat1_2"
  top: "conv1_3/bn"
  param {
    lr_mult: 0
    decay_mult: 0
  }
  param {
    lr_mult: 0
    decay_mult: 0
  }
  param {
    lr_mult: 0
    decay_mult: 0
  }
}
layer {
  name: "conv1_3/scale"
  type: "Scale"
  bottom: "conv1_3/bn"
  top: "conv1_3/bn"
  scale_param {
    filler {
      value: 1
    }
    bias_term: true
    bias_filler {
      value: 0
    }
  }
}
layer {
  name: "relu1_3"
  type: "ReLU"
  bottom: "conv1_3/bn"
  top: "conv1_3/bn"
}
layer {
  name: "conv1_3"
  type: "Convolution"
  bottom: "conv1_3/bn"
  top: "conv1_3"
  convolution_param {
    num_output: 12
    bias_term: false
    pad: 1
    kernel_size: 3
    stride: 1
    weight_filler {
      type: "msra"
    }
    bias_filler {
      type: "constant"
    }
    engine: CUDNN
  }
}
layer {
  name: "concat1_3"
  type: "Concat"
  bottom: "concat1_2"
  bottom: "conv1_3"
  top: "concat1_3"
  concat_param {
    axis: 1
  }
}
layer {
  name: "conv1_4/bn"
  type: "BatchNorm"
  bottom: "concat1_3"
  top: "conv1_4/bn"
  param {
    lr_mult: 0
    decay_mult: 0
  }
  param {
    lr_mult: 0
    decay_mult: 0
  }
  param {
    lr_mult: 0
    decay_mult: 0
  }
}
layer {
  name: "conv1_4/scale"
  type: "Scale"
  bottom: "conv1_4/bn"
  top: "conv1_4/bn"
  scale_param {
    filler {
      value: 1
    }
    bias_term: true
    bias_filler {
      value: 0
    }
  }
}
layer {
  name: "relu1_4"
  type: "ReLU"
  bottom: "conv1_4/bn"
  top: "conv1_4/bn"
}
layer {
  name: "conv1_4"
  type: "Convolution"
  bottom: "conv1_4/bn"
  top: "conv1_4"
  convolution_param {
    num_output: 12
    bias_term: false
    pad: 1
    kernel_size: 3
    stride: 1
    weight_filler {
      type: "msra"
    }
    bias_filler {
      type: "constant"
    }
    engine: CUDNN
  }
}
layer {
  name: "concat1_4"
  type: "Concat"
  bottom: "concat1_3"
  bottom: "conv1_4"
  top: "concat1_4"
  concat_param {
    axis: 1
  }
}
layer {
  name: "conv1_5/bn"
  type: "BatchNorm"
  bottom: "concat1_4"
  top: "conv1_5/bn"
  param {
    lr_mult: 0
    decay_mult: 0
  }
  param {
    lr_mult: 0
    decay_mult: 0
  }
  param {
    lr_mult: 0
    decay_mult: 0
  }
}
layer {
  name: "conv1_5/scale"
  type: "Scale"
  bottom: "conv1_5/bn"
  top: "conv1_5/bn"
  scale_param {
    filler {
      value: 1
    }
    bias_term: true
    bias_filler {
      value: 0
    }
  }
}
layer {
  name: "relu1_5"
  type: "ReLU"
  bottom: "conv1_5/bn"
  top: "conv1_5/bn"
}
layer {
  name: "conv1_5"
  type: "Convolution"
  bottom: "conv1_5/bn"
  top: "conv1_5"
  convolution_param {
    num_output: 12
    bias_term: false
    pad: 1
    kernel_size: 3
    stride: 1
    weight_filler {
      type: "msra"
    }
    bias_filler {
      type: "constant"
    }
    engine: CUDNN
  }
}
layer {
  name: "concat1_5"
  type: "Concat"
  bottom: "concat1_4"
  bottom: "conv1_5"
  top: "concat1_5"
  concat_param {
    axis: 1
  }
}
layer {
  name: "conv1_6/bn"
  type: "BatchNorm"
  bottom: "concat1_5"
  top: "conv1_6/bn"
  param {
    lr_mult: 0
    decay_mult: 0
  }
  param {
    lr_mult: 0
    decay_mult: 0
  }
  param {
    lr_mult: 0
    decay_mult: 0
  }
}
layer {
  name: "conv1_6/scale"
  type: "Scale"
  bottom: "conv1_6/bn"
  top: "conv1_6/bn"
  scale_param {
    filler {
      value: 1
    }
    bias_term: true
    bias_filler {
      value: 0
    }
  }
}
layer {
  name: "relu1_6"
  type: "ReLU"
  bottom: "conv1_6/bn"
  top: "conv1_6/bn"
}
layer {
  name: "conv1_6"
  type: "Convolution"
  bottom: "conv1_6/bn"
  top: "conv1_6"
  convolution_param {
    num_output: 12
    bias_term: false
    pad: 1
    kernel_size: 3
    stride: 1
    weight_filler {
      type: "msra"
    }
    bias_filler {
      type: "constant"
    }
    engine: CUDNN
  }
}
layer {
  name: "concat1_6"
  type: "Concat"
  bottom: "concat1_5"
  bottom: "conv1_6"
  top: "concat1_6"
  concat_param {
    axis: 1
  }
}
layer {
  name: "conv1_7/bn"
  type: "BatchNorm"
  bottom: "concat1_6"
  top: "conv1_7/bn"
  param {
    lr_mult: 0
    decay_mult: 0
  }
  param {
    lr_mult: 0
    decay_mult: 0
  }
  param {
    lr_mult: 0
    decay_mult: 0
  }
}
layer {
  name: "conv1_7/scale"
  type: "Scale"
  bottom: "conv1_7/bn"
  top: "conv1_7/bn"
  scale_param {
    filler {
      value: 1
    }
    bias_term: true
    bias_filler {
      value: 0
    }
  }
}
layer {
  name: "relu1_7"
  type: "ReLU"
  bottom: "conv1_7/bn"
  top: "conv1_7/bn"
}
layer {
  name: "conv1_7"
  type: "Convolution"
  bottom: "conv1_7/bn"
  top: "conv1_7"
  convolution_param {
    num_output: 12
    bias_term: false
    pad: 1
    kernel_size: 3
    stride: 1
    weight_filler {
      type: "msra"
    }
    bias_filler {
      type: "constant"
    }
    engine: 
I1207 20:48:44.370718 23282 layer_factory.hpp:77] Creating layer word_images
I1207 20:48:44.370841 23282 db_lmdb.cpp:35] Opened lmdb /data/fwolf/min26/gw_cv1_nti500000_pul2-3-4-5_train_word_images_lmdb
I1207 20:48:44.370870 23282 net.cpp:84] Creating Layer word_images
I1207 20:48:44.370878 23282 net.cpp:380] word_images -> word_images
I1207 20:48:44.370898 23282 net.cpp:380] word_images -> label
I1207 20:48:44.372233 23282 data_layer.cpp:44] output data size: 1,1,72,422
I1207 20:48:44.378226 23282 net.cpp:122] Setting up word_images
I1207 20:48:44.378258 23282 net.cpp:129] Top shape: 1 1 72 422 (30384)
I1207 20:48:44.378264 23282 net.cpp:129] Top shape: 1 (1)
I1207 20:48:44.378268 23282 net.cpp:137] Memory required for data: 121540
I1207 20:48:44.378276 23282 layer_factory.hpp:77] Creating layer phocs
I1207 20:48:44.378355 23282 db_lmdb.cpp:35] Opened lmdb /data/fwolf/min26/gw_cv1_nti500000_pul2-3-4-5_train_phocs_lmdb
I1207 20:48:44.378382 23282 net.cpp:84] Creating Layer phocs
I1207 20:48:44.378388 23282 net.cpp:380] phocs -> phocs
I1207 20:48:44.378401 23282 net.cpp:380] phocs -> label_phocs
I1207 20:48:44.378839 23282 data_layer.cpp:44] output data size: 1,1,1,604
I1207 20:48:44.381752 23282 net.cpp:122] Setting up phocs
I1207 20:48:44.381775 23282 net.cpp:129] Top shape: 1 1 1 604 (604)
I1207 20:48:44.381781 23282 net.cpp:129] Top shape: 1 (1)
I1207 20:48:44.381790 23282 net.cpp:137] Memory required for data: 123960
I1207 20:48:44.381796 23282 layer_factory.hpp:77] Creating layer conv_init
I1207 20:48:44.381816 23282 net.cpp:84] Creating Layer conv_init
I1207 20:48:44.381822 23282 net.cpp:406] conv_init <- word_images
I1207 20:48:44.381834 23282 net.cpp:380] conv_init -> conv_init
I1207 20:48:44.975643 23282 net.cpp:122] Setting up conv_init
I1207 20:48:44.975674 23282 net.cpp:129] Top shape: 1 32 72 422 (972288)
I1207 20:48:44.975677 23282 net.cpp:137] Memory required for data: 4013112
I1207 20:48:44.975688 23282 layer_factory.hpp:77] Creating layer bn_init
I1207 20:48:44.975700 23282 net.cpp:84] Creating Layer bn_init
I1207 20:48:44.975704 23282 net.cpp:406] bn_init <- conv_init
I1207 20:48:44.975709 23282 net.cpp:380] bn_init -> bn_init
I1207 20:48:44.976042 23282 net.cpp:122] Setting up bn_init
I1207 20:48:44.976049 23282 net.cpp:129] Top shape: 1 32 72 422 (972288)
I1207 20:48:44.976052 23282 net.cpp:137] Memory required for data: 7902264
I1207 20:48:44.976060 23282 layer_factory.hpp:77] Creating layer scale_init
I1207 20:48:44.976070 23282 net.cpp:84] Creating Layer scale_init
I1207 20:48:44.976073 23282 net.cpp:406] scale_init <- bn_init
I1207 20:48:44.976078 23282 net.cpp:367] scale_init -> bn_init (in-place)
I1207 20:48:44.976130 23282 layer_factory.hpp:77] Creating layer scale_init
I1207 20:48:44.976323 23282 net.cpp:122] Setting up scale_init
I1207 20:48:44.976330 23282 net.cpp:129] Top shape: 1 32 72 422 (972288)
I1207 20:48:44.976332 23282 net.cpp:137] Memory required for data: 11791416
I1207 20:48:44.976338 23282 layer_factory.hpp:77] Creating layer relu_init
I1207 20:48:44.976344 23282 net.cpp:84] Creating Layer relu_init
I1207 20:48:44.976347 23282 net.cpp:406] relu_init <- bn_init
I1207 20:48:44.976351 23282 net.cpp:367] relu_init -> bn_init (in-place)
I1207 20:48:44.976686 23282 net.cpp:122] Setting up relu_init
I1207 20:48:44.976696 23282 net.cpp:129] Top shape: 1 32 72 422 (972288)
I1207 20:48:44.976698 23282 net.cpp:137] Memory required for data: 15680568
I1207 20:48:44.976701 23282 layer_factory.hpp:77] Creating layer pool_init
I1207 20:48:44.976707 23282 net.cpp:84] Creating Layer pool_init
I1207 20:48:44.976711 23282 net.cpp:406] pool_init <- bn_init
I1207 20:48:44.976714 23282 net.cpp:380] pool_init -> pool_init
I1207 20:48:44.976773 23282 net.cpp:122] Setting up pool_init
I1207 20:48:44.976778 23282 net.cpp:129] Top shape: 1 32 37 212 (251008)
I1207 20:48:44.976780 23282 net.cpp:137] Memory required for data: 16684600
I1207 20:48:44.976783 23282 layer_factory.hpp:77] Creating layer pool_init_pool_init_0_split
I1207 20:48:44.976788 23282 net.cpp:84] Creating Layer pool_init_pool_init_0_split
I1207 20:48:44.976791 23282 net.cpp:406] pool_init_pool_init_0_split <- pool_init
I1207 20:48:44.976795 23282 net.cpp:380] pool_init_pool_init_0_split -> pool_init_pool_init_0_split_0
I1207 20:48:44.976799 23282 net.cpp:380] pool_init_pool_init_0_split -> pool_init_pool_init_0_split_1
I1207 20:48:44.976843 23282 net.cpp:122] Setting up pool_init_pool_init_0_split
I1207 20:48:44.976848 23282 net.cpp:129] Top shape: 1 32 37 212 (251008)
I1207 20:48:44.976851 23282 net.cpp:129] Top shape: 1 32 37 212 (251008)
I1207 20:48:44.976855 23282 net.cpp:137] Memory required for data: 18692664
I1207 20:48:44.976856 23282 layer_factory.hpp:77] Creating layer conv0_0/bn
I1207 20:48:44.976862 23282 net.cpp:84] Creating Layer conv0_0/bn
I1207 20:48:44.976866 23282 net.cpp:406] conv0_0/bn <- pool_init_pool_init_0_split_0
I1207 20:48:44.976869 23282 net.cpp:380] conv0_0/bn -> conv0_0/bn
I1207 20:48:44.977782 23282 net.cpp:122] Setting up conv0_0/bn
I1207 20:48:44.977794 23282 net.cpp:129] Top shape: 1 32 37 212 (251008)
I1207 20:48:44.977797 23282 net.cpp:137] Memory required for data: 19696696
I1207 20:48:44.977805 23282 layer_factory.hpp:77] Creating layer conv0_0/scale
I1207 20:48:44.977811 23282 net.cpp:84] Creating Layer conv0_0/scale
I1207 20:48:44.977814 23282 net.cpp:406] conv0_0/scale <- conv0_0/bn
I1207 20:48:44.977819 23282 net.cpp:367] conv0_0/scale -> conv0_0/bn (in-place)
I1207 20:48:44.977877 23282 layer_factory.hpp:77] Creating layer conv0_0/scale
I1207 20:48:44.978041 23282 net.cpp:122] Setting up conv0_0/scale
I1207 20:48:44.978049 23282 net.cpp:129] Top shape: 1 32 37 212 (251008)
I1207 20:48:44.978050 23282 net.cpp:137] Memory required for data: 20700728
I1207 20:48:44.978055 23282 layer_factory.hpp:77] Creating layer relu0_0
I1207 20:48:44.978061 23282 net.cpp:84] Creating Layer relu0_0
I1207 20:48:44.978065 23282 net.cpp:406] relu0_0 <- conv0_0/bn
I1207 20:48:44.978067 23282 net.cpp:367] relu0_0 -> conv0_0/bn (in-place)
I1207 20:48:44.978245 23282 net.cpp:122] Setting up relu0_0
I1207 20:48:44.978251 23282 net.cpp:129] Top shape: 1 32 37 212 (251008)
I1207 20:48:44.978255 23282 net.cpp:137] Memory required for data: 21704760
I1207 20:48:44.978256 23282 layer_factory.hpp:77] Creating layer conv0_0
I1207 20:48:44.978266 23282 net.cpp:84] Creating Layer conv0_0
I1207 20:48:44.978268 23282 net.cpp:406] conv0_0 <- conv0_0/bn
I1207 20:48:44.978274 23282 net.cpp:380] conv0_0 -> conv0_0
I1207 20:48:44.980113 23282 net.cpp:122] Setting up conv0_0
I1207 20:48:44.980126 23282 net.cpp:129] Top shape: 1 12 37 212 (94128)
I1207 20:48:44.980129 23282 net.cpp:137] Memory required for data: 22081272
I1207 20:48:44.980134 23282 layer_factory.hpp:77] Creating layer concat0_0
I1207 20:48:44.980140 23282 net.cpp:84] Creating Layer concat0_0
I1207 20:48:44.980144 23282 net.cpp:406] concat0_0 <- pool_init_pool_init_0_split_1
I1207 20:48:44.980149 23282 net.cpp:406] concat0_0 <- conv0_0
I1207 20:48:44.980154 23282 net.cpp:380] concat0_0 -> concat0_0
I1207 20:48:44.980190 23282 net.cpp:122] Setting up concat0_0
I1207 20:48:44.980195 23282 net.cpp:129] Top shape: 1 44 37 212 (345136)
I1207 20:48:44.980197 23282 net.cpp:137] Memory required for data: 23461816
I1207 20:48:44.980201 23282 layer_factory.hpp:77] Creating layer concat0_0_concat0_0_0_split
I1207 20:48:44.980206 23282 net.cpp:84] Creating Layer concat0_0_concat0_0_0_split
I1207 20:48:44.980208 23282 net.cpp:406] concat0_0_concat0_0_0_split <- concat0_0
I1207 20:48:44.980212 23282 net.cpp:380] concat0_0_concat0_0_0_split -> concat0_0_concat0_0_0_split_0
I1207 20:48:44.980216 23282 net.cpp:380] concat0_0_concat0_0_0_split -> concat0_0_concat0_0_0_split_1
I1207 20:48:44.980263 23282 net.cpp:122] Setting up concat0_0_concat0_0_0_split
I1207 20:48:44.980268 23282 net.cpp:129] Top shape: 1 44 37 212 (345136)
I1207 20:48:44.980271 23282 net.cpp:129] Top shape: 1 44 37 212 (345136)
I1207 20:48:44.980273 23282 net.cpp:137] Memory required for data: 26222904
I1207 20:48:44.980275 23282 layer_factory.hpp:77] Creating layer conv0_1/bn
I1207 20:48:44.980284 23282 net.cpp:84] Creating Layer conv0_1/bn
I1207 20:48:44.980286 23282 net.cpp:406] conv0_1/bn <- concat0_0_concat0_0_0_split_0
I1207 20:48:44.980291 23282 net.cpp:380] conv0_1/bn -> conv0_1/bn
I1207 20:48:44.980572 23282 net.cpp:122] Setting up conv0_1/bn
I1207 20:48:44.980578 23282 net.cpp:129] Top shape: 1 44 37 212 (345136)
I1207 20:48:44.980581 23282 net.cpp:137] Memory required for data: 27603448
I1207 20:48:44.980587 23282 layer_factory.hpp:77] Creating layer conv0_1/scale
I1207 20:48:44.980594 23282 net.cpp:84] Creating Layer conv0_1/scale
I1207 20:48:44.980597 23282 net.cpp:406] conv0_1/scale <- conv0_1/bn
I1207 20:48:44.980602 23282 net.cpp:367] conv0_1/scale -> conv0_1/bn (in-place)
I1207 20:48:44.980651 23282 layer_factory.hpp:77] Creating layer conv0_1/scale
I1207 20:48:44.980814 23282 net.cpp:122] Setting up conv0_1/scale
I1207 20:48:44.980821 23282 net.cpp:129] Top shape: 1 44 37 212 (345136)
I1207 20:48:44.980823 23282 net.cpp:137] Memory required for data: 28983992
I1207 20:48:44.980830 23282 layer_factory.hpp:77] Creating layer relu0_1
I1207 20:48:44.980837 23282 net.cpp:84] Creating Layer relu0_1
I1207 20:48:44.980839 23282 net.cpp:406] relu0_1 <- conv0_1/bn
I1207 20:48:44.980844 23282 net.cpp:367] relu0_1 -> conv0_1/bn (in-place)
I1207 20:48:44.981173 23282 net.cpp:122] Setting up relu0_1
I1207 20:48:44.981184 23282 net.cpp:129] Top shape: 1 44 37 212 (345136)
I1207 20:48:44.981185 23282 net.cpp:137] Memory required for data: 30364536
I1207 20:48:44.981192 23282 layer_factory.hpp:77] Creating layer conv0_1
I1207 20:48:44.981202 23282 net.cpp:84] Creating Layer conv0_1
I1207 20:48:44.981205 23282 net.cpp:406] conv0_1 <- conv0_1/bn
I1207 20:48:44.981210 23282 net.cpp:380] conv0_1 -> conv0_1
I1207 20:48:44.982573 23282 net.cpp:122] Setting up conv0_1
I1207 20:48:44.982583 23282 net.cpp:129] Top shape: 1 12 37 212 (94128)
I1207 20:48:44.982586 23282 net.cpp:137] Memory required for data: 30741048
I1207 20:48:44.982591 23282 layer_factory.hpp:77] Creating layer concat0_1
I1207 20:48:44.982597 23282 net.cpp:84] Creating Layer concat0_1
I1207 20:48:44.982601 23282 net.cpp:406] concat0_1 <- concat0_0_concat0_0_0_split_1
I1207 20:48:44.982604 23282 net.cpp:406] concat0_1 <- conv0_1
I1207 20:48:44.982609 23282 net.cpp:380] concat0_1 -> concat0_1
I1207 20:48:44.982648 23282 net.cpp:122] Setting up concat0_1
I1207 20:48:44.982655 23282 net.cpp:129] Top shape: 1 56 37 212 (439264)
I1207 20:48:44.982657 23282 net.cpp:137] Memory required for data: 32498104
I1207 20:48:44.982659 23282 layer_factory.hpp:77] Creating layer concat0_1_concat0_1_0_split
I1207 20:48:44.982663 23282 net.cpp:84] Creating Layer concat0_1_concat0_1_0_split
I1207 20:48:44.982666 23282 net.cpp:406] concat0_1_concat0_1_0_split <- concat0_1
I1207 20:48:44.982671 23282 net.cpp:380] concat0_1_concat0_1_0_split -> concat0_1_concat0_1_0_split_0
I1207 20:48:44.982676 23282 net.cpp:380] concat0_1_concat0_1_0_split -> concat0_1_concat0_1_0_split_1
I1207 20:48:44.982724 23282 net.cpp:122] Setting up concat0_1_concat0_1_0_split
I1207 20:48:44.982730 23282 net.cpp:129] Top shape: 1 56 37 212 (439264)
I1207 20:48:44.982733 23282 net.cpp:129] Top shape: 1 56 37 212 (439264)
I1207 20:48:44.982735 23282 net.cpp:137] Memory required for data: 36012216
I1207 20:48:44.982738 23282 layer_factory.hpp:77] Creating layer conv0_2/bn
I1207 20:48:44.982743 23282 net.cpp:84] Creating Layer conv0_2/bn
I1207 20:48:44.982745 23282 net.cpp:406] conv0_2/bn <- concat0_1_concat0_1_0_split_0
I1207 20:48:44.982749 23282 net.cpp:380] conv0_2/bn -> conv0_2/bn
I1207 20:48:44.983032 23282 net.cpp:122] Setting up conv0_2/bn
I1207 20:48:44.983038 23282 net.cpp:129] Top shape: 1 56 37 212 (439264)
I1207 20:48:44.983041 23282 net.cpp:137] Memory required for data: 37769272
I1207 20:48:44.983047 23282 layer_factory.hpp:77] Creating layer conv0_2/scale
I1207 20:48:44.983053 23282 net.cpp:84] Creating Layer conv0_2/scale
I1207 20:48:44.983055 23282 net.cpp:406] conv0_2/scale <- conv0_2/bn
I1207 20:48:44.983060 23282 net.cpp:367] conv0_2/scale -> conv0_2/bn (in-place)
I1207 20:48:44.983114 23282 layer_factory.hpp:77] Creating layer conv0_2/scale
I1207 20:48:44.983280 23282 net.cpp:122] Setting up conv0_2/scale
I1207 20:48:44.983286 23282 net.cpp:129] Top shape: 1 56 37 212 (439264)
I1207 20:48:44.983289 23282 net.cpp:137] Memory required for data: 39526328
I1207 20:48:44.983294 23282 layer_factory.hpp:77] Creating layer relu0_2
I1207 20:48:44.983299 23282 net.cpp:84] Creating Layer relu0_2
I1207 20:48:44.983301 23282 net.cpp:406] relu0_2 <- conv0_2/bn
I1207 20:48:44.983304 23282 net.cpp:367] relu0_2 -> conv0_2/bn (in-place)
I1207 20:48:44.983470 23282 net.cpp:122] Setting up relu0_2
I1207 20:48:44.983479 23282 net.cpp:129] Top shape: 1 56 37 212 (439264)
I1207 20:48:44.983480 23282 net.cpp:137] Memory required for data: 41283384
I1207 20:48:44.983484 23282 layer_factory.hpp:77] Creating layer conv0_2
I1207 20:48:44.983492 23282 net.cpp:84] Creating Layer conv0_2
I1207 20:48:44.983495 23282 net.cpp:406] conv0_2 <- conv0_2/bn
I1207 20:48:44.983500 23282 net.cpp:380] conv0_2 -> conv0_2
I1207 20:48:44.984745 23282 net.cpp:122] Setting up conv0_2
I1207 20:48:44.984755 23282 net.cpp:129] Top shape: 1 12 37 212 (94128)
I1207 20:48:44.984758 23282 net.cpp:137] Memory required for data: 41659896
I1207 20:48:44.984763 23282 layer_factory.hpp:77] Creating layer concat0_2
I1207 20:48:44.984771 23282 net.cpp:84] Creating Layer concat0_2
I1207 20:48:44.984773 23282 net.cpp:406] concat0_2 <- concat0_1_concat0_1_0_split_1
I1207 20:48:44.984779 23282 net.cpp:406] concat0_2 <- conv0_2
I1207 20:48:44.984783 23282 net.cpp:380] concat0_2 -> concat0_2
I1207 20:48:44.984818 23282 net.cpp:122] Setting up concat0_2
I1207 20:48:44.984824 23282 net.cpp:129] Top shape: 1 68 37 212 (533392)
I1207 20:48:44.984827 23282 net.cpp:137] Memory required for data: 43793464
I1207 20:48:44.984829 23282 layer_factory.hpp:77] Creating layer concat0_2_concat0_2_0_split
I1207 20:48:44.984834 23282 net.cpp:84] Creating Layer concat0_2_concat0_2_0_split
I1207 20:48:44.984838 23282 net.cpp:406] concat0_2_concat0_2_0_split <- concat0_2
I1207 20:48:44.984840 23282 net.cpp:380] concat0_2_concat0_2_0_split -> concat0_2_concat0_2_0_split_0
I1207 20:48:44.984846 23282 net.cpp:380] concat0_2_concat0_2_0_split -> concat0_2_concat0_2_0_split_1
I1207 20:48:44.984894 23282 net.cpp:122] Setting up concat0_2_concat0_2_0_split
I1207 20:48:44.984899 23282 net.cpp:129] Top shape: 1 68 37 212 (533392)
I1207 20:48:44.984902 23282 net.cpp:129] Top shape: 1 68 37 212 (533392)
I1207 20:48:44.984905 23282 net.cpp:137] Memory required for data: 48060600
I1207 20:48:44.984906 23282 layer_factory.hpp:77] Creating layer conv0_3/bn
I1207 20:48:44.984912 23282 net.cpp:84] Creating Layer conv0_3/bn
I1207 20:48:44.984915 23282 net.cpp:406] conv0_3/bn <- concat0_2_concat0_2_0_split_0
I1207 20:48:44.984920 23282 net.cpp:380] conv0_3/bn -> conv0_3/bn
I1207 20:48:44.985204 23282 net.cpp:122] Setting up conv0_3/bn
I1207 20:48:44.985211 23282 net.cpp:129] Top shape: 1 68 37 212 (533392)
I1207 20:48:44.985213 23282 net.cpp:137] Memory required for data: 50194168
I1207 20:48:44.985219 23282 layer_factory.hpp:77] Creating layer conv0_3/scale
I1207 20:48:44.985224 23282 net.cpp:84] Creating Layer conv0_3/scale
I1207 20:48:44.985227 23282 net.cpp:406] conv0_3/scale <- conv0_3/bn
I1207 20:48:44.985232 23282 net.cpp:367] conv0_3/scale -> conv0_3/bn (in-place)
I1207 20:48:44.985281 23282 layer_factory.hpp:77] Creating layer conv0_3/scale
I1207 20:48:44.985445 23282 net.cpp:122] Setting up conv0_3/scale
I1207 20:48:44.985452 23282 net.cpp:129] Top shape: 1 68 37 212 (533392)
I1207 20:48:44.985455 23282 net.cpp:137] Memory required for data: 52327736
I1207 20:48:44.985460 23282 layer_factory.hpp:77] Creating layer relu0_3
I1207 20:48:44.985463 23282 net.cpp:84] Creating Layer relu0_3
I1207 20:48:44.985466 23282 net.cpp:406] relu0_3 <- conv0_3/bn
I1207 20:48:44.985471 23282 net.cpp:367] relu0_3 -> conv0_3/bn (in-place)
I1207 20:48:44.985805 23282 net.cpp:122] Setting up relu0_3
I1207 20:48:44.985816 23282 net.cpp:129] Top shape: 1 68 37 212 (533392)
I1207 20:48:44.985818 23282 net.cpp:137] Memory required for data: 54461304
I1207 20:48:44.985821 23282 layer_factory.hpp:77] Creating layer conv0_3
I1207 20:48:44.985829 23282 net.cpp:84] Creating Layer conv0_3
I1207 20:48:44.985832 23282 net.cpp:406] conv0_3 <- conv0_3/bn
I1207 20:48:44.985841 23282 net.cpp:380] conv0_3 -> conv0_3
I1207 20:48:44.987265 23282 net.cpp:122] Setting up conv0_3
I1207 20:48:44.987277 23282 net.cpp:129] Top shape: 1 12 37 212 (94128)
I1207 20:48:44.987279 23282 net.cpp:137] Memory required for data: 54837816
I1207 20:48:44.987283 23282 layer_factory.hpp:77] Creating layer concat0_3
I1207 20:48:44.987289 23282 net.cpp:84] Creating Layer concat0_3
I1207 20:48:44.987293 23282 net.cpp:406] concat0_3 <- concat0_2_concat0_2_0_split_1
I1207 20:48:44.987296 23282 net.cpp:406] concat0_3 <- conv0_3
I1207 20:48:44.987303 23282 net.cpp:380] concat0_3 -> concat0_3
I1207 20:48:44.987339 23282 net.cpp:122] Setting up concat0_3
I1207 20:48:44.987345 23282 net.cpp:129] Top shape: 1 80 37 212 (627520)
I1207 20:48:44.987347 23282 net.cpp:137] Memory required for data: 57347896
I1207 20:48:44.987350 23282 layer_factory.hpp:77] Creating layer concat0_3_concat0_3_0_split
I1207 20:48:44.987354 23282 net.cpp:84] Creating Layer concat0_3_concat0_3_0_split
I1207 20:48:44.987359 23282 net.cpp:406] concat0_3_concat0_3_0_split <- concat0_3
I1207 20:48:44.987361 23282 net.cpp:380] concat0_3_concat0_3_0_split -> concat0_3_concat0_3_0_split_0
I1207 20:48:44.987368 23282 net.cpp:380] concat0_3_concat0_3_0_split -> concat0_3_concat0_3_0_split_1
I1207 20:48:44.987417 23282 net.cpp:122] Setting up concat0_3_concat0_3_0_split
I1207 20:48:44.987422 23282 net.cpp:129] Top shape: 1 80 37 212 (627520)
I1207 20:48:44.987426 23282 net.cpp:129] Top shape: 1 80 37 212 (627520)
I1207 20:48:44.987428 23282 net.cpp:137] Memory required for data: 62368056
I1207 20:48:44.987431 23282 layer_factory.hpp:77] Creating layer conv0_4/bn
I1207 20:48:44.987437 23282 net.cpp:84] Creating Layer conv0_4/bn
I1207 20:48:44.987440 23282 net.cpp:406] conv0_4/bn <- concat0_3_concat0_3_0_split_0
I1207 20:48:44.987444 23282 net.cpp:380] conv0_4/bn -> conv0_4/bn
I1207 20:48:44.987731 23282 net.cpp:122] Setting up conv0_4/bn
I1207 20:48:44.987738 23282 net.cpp:129] Top shape: 1 80 37 212 (627520)
I1207 20:48:44.987740 23282 net.cpp:137] Memory required for data: 64878136
I1207 20:48:44.987756 23282 layer_factory.hpp:77] Creating layer conv0_4/scale
I1207 20:48:44.987762 23282 net.cpp:84] Creating Layer conv0_4/scale
I1207 20:48:44.987766 23282 net.cpp:406] conv0_4/scale <- conv0_4/bn
I1207 20:48:44.987769 23282 net.cpp:367] conv0_4/scale -> conv0_4/bn (in-place)
I1207 20:48:44.987828 23282 layer_factory.hpp:77] Creating layer conv0_4/scale
I1207 20:48:44.987993 23282 net.cpp:122] Setting up conv0_4/scale
I1207 20:48:44.987999 23282 net.cpp:129] Top shape: 1 80 37 212 (627520)
I1207 20:48:44.988001 23282 net.cpp:137] Memory required for data: 67388216
I1207 20:48:44.988006 23282 layer_factory.hpp:77] Creating layer relu0_4
I1207 20:48:44.988011 23282 net.cpp:84] Creating Layer relu0_4
I1207 20:48:44.988014 23282 net.cpp:406] relu0_4 <- conv0_4/bn
I1207 20:48:44.988018 23282 net.cpp:367] relu0_4 -> conv0_4/bn (in-place)
I1207 20:48:44.988355 23282 net.cpp:122] Setting up relu0_4
I1207 20:48:44.988365 23282 net.cpp:129] Top shape: 1 80 37 212 (627520)
I1207 20:48:44.988368 23282 net.cpp:137] Memory required for data: 69898296
I1207 20:48:44.988371 23282 layer_factory.hpp:77] Creating layer conv0_4
I1207 20:48:44.988379 23282 net.cpp:84] Creating Layer conv0_4
I1207 20:48:44.988384 23282 net.cpp:406] conv0_4 <- conv0_4/bn
I1207 20:48:44.988389 23282 net.cpp:380] conv0_4 -> conv0_4
I1207 20:48:44.989683 23282 net.cpp:122] Setting up conv0_4
I1207 20:48:44.989694 23282 net.cpp:129] Top shape: 1 12 37 212 (94128)
I1207 20:48:44.989697 23282 net.cpp:137] Memory required for data: 70274808
I1207 20:48:44.989701 23282 layer_factory.hpp:77] Creating layer concat0_4
I1207 20:48:44.989707 23282 net.cpp:84] Creating Layer concat0_4
I1207 20:48:44.989711 23282 net.cpp:406] concat0_4 <- concat0_3_concat0_3_0_split_1
I1207 20:48:44.989714 23282 net.cpp:406] concat0_4 <- conv0_4
I1207 20:48:44.989718 23282 net.cpp:380] concat0_4 -> concat0_4
I1207 20:48:44.989754 23282 net.cpp:122] Setting up concat0_4
I1207 20:48:44.989760 23282 net.cpp:129] Top shape: 1 92 37 212 (721648)
I1207 20:48:44.989763 23282 net.cpp:137] Memory required for data: 73161400
I1207 20:48:44.989765 23282 layer_factory.hpp:77] Creating layer concat0_4_concat0_4_0_split
I1207 20:48:44.989769 23282 net.cpp:84] Creating Layer concat0_4_concat0_4_0_split
I1207 20:48:44.989771 23282 net.cpp:406] concat0_4_concat0_4_0_split <- concat0_4
I1207 20:48:44.989776 23282 net.cpp:380] concat0_4_concat0_4_0_split -> concat0_4_concat0_4_0_split_0
I1207 20:48:44.989783 23282 net.cpp:380] concat0_4_concat0_4_0_split -> concat0_4_concat0_4_0_split_1
I1207 20:48:44.989833 23282 net.cpp:122] Setting up concat0_4_concat0_4_0_split
I1207 20:48:44.989838 23282 net.cpp:129] Top shape: 1 92 37 212 (721648)
I1207 20:48:44.989841 23282 net.cpp:129] Top shape: 1 92 37 212 (721648)
I1207 20:48:44.989843 23282 net.cpp:137] Memory required for data: 78934584
I1207 20:48:44.989846 23282 layer_factory.hpp:77] Creating layer conv0_5/bn
I1207 20:48:44.989854 23282 net.cpp:84] Creating Layer conv0_5/bn
I1207 20:48:44.989857 23282 net.cpp:406] conv0_5/bn <- concat0_4_concat0_4_0_split_0
I1207 20:48:44.989862 23282 net.cpp:380] conv0_5/bn -> conv0_5/bn
I1207 20:48:44.990150 23282 net.cpp:122] Setting up conv0_5/bn
I1207 20:48:44.990159 23282 net.cpp:129] Top shape: 1 92 37 212 (721648)
I1207 20:48:44.990161 23282 net.cpp:137] Memory required for data: 81821176
I1207 20:48:44.990167 23282 layer_factory.hpp:77] Creating layer conv0_5/scale
I1207 20:48:44.990173 23282 net.cpp:84] Creating Layer conv0_5/scale
I1207 20:48:44.990176 23282 net.cpp:406] conv0_5/scale <- conv0_5/bn
I1207 20:48:44.990180 23282 net.cpp:367] conv0_5/scale -> conv0_5/bn (in-place)
I1207 20:48:44.990231 23282 layer_factory.hpp:77] Creating layer conv0_5/scale
I1207 20:48:44.990401 23282 net.cpp:122] Setting up conv0_5/scale
I1207 20:48:44.990406 23282 net.cpp:129] Top shape: 1 92 37 212 (721648)
I1207 20:48:44.990409 23282 net.cpp:137] Memory required for data: 84707768
I1207 20:48:44.990414 23282 layer_factory.hpp:77] Creating layer relu0_5
I1207 20:48:44.990418 23282 net.cpp:84] Creating Layer relu0_5
I1207 20:48:44.990422 23282 net.cpp:406] relu0_5 <- conv0_5/bn
I1207 20:48:44.990424 23282 net.cpp:367] relu0_5 -> conv0_5/bn (in-place)
I1207 20:48:44.990598 23282 net.cpp:122] Setting up relu0_5
I1207 20:48:44.990607 23282 net.cpp:129] Top shape: 1 92 37 212 (721648)
I1207 20:48:44.990608 23282 net.cpp:137] Memory required for data: 87594360
I1207 20:48:44.990612 23282 layer_factory.hpp:77] Creating layer conv0_5
I1207 20:48:44.990619 23282 net.cpp:84] Creating Layer conv0_5
I1207 20:48:44.990622 23282 net.cpp:406] conv0_5 <- conv0_5/bn
I1207 20:48:44.990630 23282 net.cpp:380] conv0_5 -> conv0_5
I1207 20:48:44.992148 23282 net.cpp:122] Setting up conv0_5
I1207 20:48:44.992159 23282 net.cpp:129] Top shape: 1 12 37 212 (94128)
I1207 20:48:44.992162 23282 net.cpp:137] Memory required for data: 87970872
I1207 20:48:44.992166 23282 layer_factory.hpp:77] Creating layer concat0_5
I1207 20:48:44.992172 23282 net.cpp:84] Creating Layer concat0_5
I1207 20:48:44.992177 23282 net.cpp:406] concat0_5 <- concat0_4_concat0_4_0_split_1
I1207 20:48:44.992179 23282 net.cpp:406] concat0_5 <- conv0_5
I1207 20:48:44.992185 23282 net.cpp:380] concat0_5 -> concat0_5
I1207 20:48:44.992224 23282 net.cpp:122] Setting up concat0_5
I1207 20:48:44.992230 23282 net.cpp:129] Top shape: 1 104 37 212 (815776)
I1207 20:48:44.992233 23282 net.cpp:137] Memory required for data: 91233976
I1207 20:48:44.992235 23282 layer_factory.hpp:77] Creating layer concat0_5_concat0_5_0_split
I1207 20:48:44.992239 23282 net.cpp:84] Creating Layer concat0_5_concat0_5_0_split
I1207 20:48:44.992242 23282 net.cpp:406] concat0_5_concat0_5_0_split <- concat0_5
I1207 20:48:44.992247 23282 net.cpp:380] concat0_5_concat0_5_0_split -> concat0_5_concat0_5_0_split_0
I1207 20:48:44.992251 23282 net.cpp:380] concat0_5_concat0_5_0_split -> concat0_5_concat0_5_0_split_1
I1207 20:48:44.992300 23282 net.cpp:122] Setting up concat0_5_concat0_5_0_split
I1207 20:48:44.992305 23282 net.cpp:129] Top shape: 1 104 37 212 (815776)
I1207 20:48:44.992307 23282 net.cpp:129] Top shape: 1 104 37 212 (815776)
I1207 20:48:44.992311 23282 net.cpp:137] Memory required for data: 97760184
I1207 20:48:44.992312 23282 layer_factory.hpp:77] Creating layer conv0_6/bn
I1207 20:48:44.992318 23282 net.cpp:84] Creating Layer conv0_6/bn
I1207 20:48:44.992321 23282 net.cpp:406] conv0_6/bn <- concat0_5_concat0_5_0_split_0
I1207 20:48:44.992324 23282 net.cpp:380] conv0_6/bn -> conv0_6/bn
I1207 20:48:44.992615 23282 net.cpp:122] Setting up conv0_6/bn
I1207 20:48:44.992622 23282 net.cpp:129] Top shape: 1 104 37 212 (815776)
I1207 20:48:44.992624 23282 net.cpp:137] Memory required for data: 101023288
I1207 20:48:44.992630 23282 layer_factory.hpp:77] Creating layer conv0_6/scale
I1207 20:48:44.992636 23282 net.cpp:84] Creating Layer conv0_6/scale
I1207 20:48:44.992640 23282 net.cpp:406] conv0_6/scale <- conv0_6/bn
I1207 20:48:44.992643 23282 net.cpp:367] conv0_6/scale -> conv0_6/bn (in-place)
I1207 20:48:44.992697 23282 layer_factory.hpp:77] Creating layer conv0_6/scale
I1207 20:48:44.992872 23282 net.cpp:122] Setting up conv0_6/scale
I1207 20:48:44.992878 23282 net.cpp:129] Top shape: 1 104 37 212 (815776)
I1207 20:48:44.992882 23282 net.cpp:137] Memory required for data: 104286392
I1207 20:48:44.992888 23282 layer_factory.hpp:77] Creating layer relu0_6
I1207 20:48:44.992893 23282 net.cpp:84] Creating Layer relu0_6
I1207 20:48:44.992897 23282 net.cpp:406] relu0_6 <- conv0_6/bn
I1207 20:48:44.992899 23282 net.cpp:367] relu0_6 -> conv0_6/bn (in-place)
I1207 20:48:44.993238 23282 net.cpp:122] Setting up relu0_6
I1207 20:48:44.993249 23282 net.cpp:129] Top shape: 1 104 37 212 (815776)
I1207 20:48:44.993252 23282 net.cpp:137] Memory required for data: 107549496
I1207 20:48:44.993254 23282 layer_factory.hpp:77] Creating layer conv0_6
I1207 20:48:44.993263 23282 net.cpp:84] Creating Layer conv0_6
I1207 20:48:44.993265 23282 net.cpp:406] conv0_6 <- conv0_6/bn
I1207 20:48:44.993271 23282 net.cpp:380] conv0_6 -> conv0_6
I1207 20:48:44.994963 23282 net.cpp:122] Setting up conv0_6
I1207 20:48:44.994976 23282 net.cpp:129] Top shape: 1 12 37 212 (94128)
I1207 20:48:44.994978 23282 net.cpp:137] Memory required for data: 107926008
I1207 20:48:44.994983 23282 layer_factory.hpp:77] Creating layer concat0_6
I1207 20:48:44.994989 23282 net.cpp:84] Creating Layer concat0_6
I1207 20:48:44.994992 23282 net.cpp:406] concat0_6 <- concat0_5_concat0_5_0_split_1
I1207 20:48:44.994997 23282 net.cpp:406] concat0_6 <- conv0_6
I1207 20:48:44.995000 23282 net.cpp:380] concat0_6 -> concat0_6
I1207 20:48:44.995043 23282 net.cpp:122] Setting up concat0_6
I1207 20:48:44.995049 23282 net.cpp:129] Top shape: 1 116 37 212 (909904)
I1207 20:48:44.995051 23282 net.cpp:137] Memory required for data: 111565624
I1207 20:48:44.995054 23282 layer_factory.hpp:77] Creating layer concat0_6_concat0_6_0_split
I1207 20:48:44.995059 23282 net.cpp:84] Creating Layer concat0_6_concat0_6_0_split
I1207 20:48:44.995061 23282 net.cpp:406] concat0_6_concat0_6_0_split <- concat0_6
I1207 20:48:44.995065 23282 net.cpp:380] concat0_6_concat0_6_0_split -> concat0_6_concat0_6_0_split_0
I1207 20:48:44.995070 23282 net.cpp:380] concat0_6_concat0_6_0_split -> concat0_6_concat0_6_0_split_1
I1207 20:48:44.995120 23282 net.cpp:122] Setting up concat0_6_concat0_6_0_split
I1207 20:48:44.995126 23282 net.cpp:129] Top shape: 1 116 37 212 (909904)
I1207 20:48:44.995128 23282 net.cpp:129] Top shape: 1 116 37 212 (909904)
I1207 20:48:44.995131 23282 net.cpp:137] Memory required for data: 118844856
I1207 20:48:44.995133 23282 layer_factory.hpp:77] Creating layer conv0_7/bn
I1207 20:48:44.995137 23282 net.cpp:84] Creating Layer conv0_7/bn
I1207 20:48:44.995139 23282 net.cpp:406] conv0_7/bn <- concat0_6_concat0_6_0_split_0
I1207 20:48:44.995146 23282 net.cpp:380] conv0_7/bn -> conv0_7/bn
I1207 20:48:44.995445 23282 net.cpp:122] Setting up conv0_7/bn
I1207 20:48:44.995451 23282 net.cpp:129] Top shape: 1 116 37 212 (909904)
I1207 20:48:44.995453 23282 net.cpp:137] Memory required for data: 122484472
I1207 20:48:44.995460 23282 layer_factory.hpp:77] Creating layer conv0_7/scale
I1207 20:48:44.995466 23282 net.cpp:84] Creating Layer conv0_7/scale
I1207 20:48:44.995470 23282 net.cpp:406] conv0_7/scale <- conv0_7/bn
I1207 20:48:44.995474 23282 net.cpp:367] conv0_7/scale -> conv0_7/bn (in-place)
I1207 20:48:44.995525 23282 layer_factory.hpp:77] Creating layer conv0_7/scale
I1207 20:48:44.995700 23282 net.cpp:122] Setting up conv0_7/scale
I1207 20:48:44.995707 23282 net.cpp:129] Top shape: 1 116 37 212 (909904)
I1207 20:48:44.995708 23282 net.cpp:137] Memory required for data: 126124088
I1207 20:48:44.995713 23282 layer_factory.hpp:77] Creating layer relu0_7
I1207 20:48:44.995718 23282 net.cpp:84] Creating Layer relu0_7
I1207 20:48:44.995720 23282 net.cpp:406] relu0_7 <- conv0_7/bn
I1207 20:48:44.995723 23282 net.cpp:367] relu0_7 -> conv0_7/bn (in-place)
I1207 20:48:44.995904 23282 net.cpp:122] Setting up relu0_7
I1207 20:48:44.995913 23282 net.cpp:129] Top shape: 1 116 37 212 (909904)
I1207 20:48:44.995915 23282 net.cpp:137] Memory required for data: 129763704
I1207 20:48:44.995918 23282 layer_factory.hpp:77] Creating layer conv0_7
I1207 20:48:44.995928 23282 net.cpp:84] Creating Layer conv0_7
I1207 20:48:44.995930 23282 net.cpp:406] conv0_7 <- conv0_7/bn
I1207 20:48:44.995939 23282 net.cpp:380] conv0_7 -> conv0_7
I1207 20:48:44.997506 23282 net.cpp:122] Setting up conv0_7
I1207 20:48:44.997517 23282 net.cpp:129] Top shape: 1 12 37 212 (94128)
I1207 20:48:44.997520 23282 net.cpp:137] Memory required for data: 130140216
I1207 20:48:44.997525 23282 layer_factory.hpp:77] Creating layer concat0_7
I1207 20:48:44.997532 23282 net.cpp:84] Creating Layer concat0_7
I1207 20:48:44.997536 23282 net.cpp:406] concat0_7 <- concat0_6_concat0_6_0_split_1
I1207 20:48:44.997540 23282 net.cpp:406] concat0_7 <- conv0_7
I1207 20:48:44.997545 23282 net.cpp:380] concat0_7 -> concat0_7
I1207 20:48:44.997583 23282 net.cpp:122] Setting up concat0_7
I1207 20:48:44.997591 23282 net.cpp:129] Top shape: 1 128 37 212 (1004032)
I1207 20:48:44.997592 23282 net.cpp:137] Memory required for data: 134156344
I1207 20:48:44.997596 23282 layer_factory.hpp:77] Creating layer concat0_7_concat0_7_0_split
I1207 20:48:44.997599 23282 net.cpp:84] Creating Layer concat0_7_concat0_7_0_split
I1207 20:48:44.997601 23282 net.cpp:406] concat0_7_concat0_7_0_split <- concat0_7
I1207 20:48:44.997606 23282 net.cpp:380] concat0_7_concat0_7_0_split -> concat0_7_concat0_7_0_split_0
I1207 20:48:44.997611 23282 net.cpp:380] concat0_7_concat0_7_0_split -> concat0_7_concat0_7_0_split_1
I1207 20:48:44.997658 23282 net.cpp:122] Setting up concat0_7_concat0_7_0_split
I1207 20:48:44.997663 23282 net.cpp:129] Top shape: 1 128 37 212 (1004032)
I1207 20:48:44.997666 23282 net.cpp:129] Top shape: 1 128 37 212 (1004032)
I1207 20:48:44.997668 23282 net.cpp:137] Memory required for data: 142188600
I1207 20:48:44.997671 23282 layer_factory.hpp:77] Creating layer conv0_8/bn
I1207 20:48:44.997676 23282 net.cpp:84] Creating Layer conv0_8/bn
I1207 20:48:44.997679 23282 net.cpp:406] conv0_8/bn <- concat0_7_concat0_7_0_split_0
I1207 20:48:44.997683 23282 net.cpp:380] conv0_8/bn -> conv0_8/bn
I1207 20:48:44.997972 23282 net.cpp:122] Setting up conv0_8/bn
I1207 20:48:44.997978 23282 net.cpp:129] Top shape: 1 128 37 212 (1004032)
I1207 20:48:44.997980 23282 net.cpp:137] Memory required for data: 146204728
I1207 20:48:44.997987 23282 layer_factory.hpp:77] Creating layer conv0_8/scale
I1207 20:48:44.997993 23282 net.cpp:84] Creating Layer conv0_8/scale
I1207 20:48:44.997997 23282 net.cpp:406] conv0_8/scale <- conv0_8/bn
I1207 20:48:44.998000 23282 net.cpp:367] conv0_8/scale -> conv0_8/bn (in-place)
I1207 20:48:44.998054 23282 layer_factory.hpp:77] Creating layer conv0_8/scale
I1207 20:48:44.998842 23282 net.cpp:122] Setting up conv0_8/scale
I1207 20:48:44.998852 23282 net.cpp:129] Top shape: 1 128 37 212 (1004032)
I1207 20:48:44.998854 23282 net.cpp:137] Memory required for data: 150220856
I1207 20:48:44.998859 23282 layer_factory.hpp:77] Creating layer relu0_8
I1207 20:48:44.998865 23282 net.cpp:84] Creating Layer relu0_8
I1207 20:48:44.998869 23282 net.cpp:406] relu0_8 <- conv0_8/bn
I1207 20:48:44.998873 23282 net.cpp:367] relu0_8 -> conv0_8/bn (in-place)
I1207 20:48:44.999210 23282 net.cpp:122] Setting up relu0_8
I1207 20:48:44.999220 23282 net.cpp:129] Top shape: 1 128 37 212 (1004032)
I1207 20:48:44.999222 23282 net.cpp:137] Memory required for data: 154236984
I1207 20:48:44.999225 23282 layer_factory.hpp:77] Creating layer conv0_8
I1207 20:48:44.999235 23282 net.cpp:84] Creating Layer conv0_8
I1207 20:48:44.999238 23282 net.cpp:406] conv0_8 <- conv0_8/bn
I1207 20:48:44.999243 23282 net.cpp:380] conv0_8 -> conv0_8
I1207 20:48:45.000860 23282 net.cpp:122] Setting up conv0_8
I1207 20:48:45.000872 23282 net.cpp:129] Top shape: 1 12 37 212 (94128)
I1207 20:48:45.000875 23282 net.cpp:137] Memory required for data: 154613496
I1207 20:48:45.000880 23282 layer_factory.hpp:77] Creating layer concat0_8
I1207 20:48:45.000887 23282 net.cpp:84] Creating Layer concat0_8
I1207 20:48:45.000890 23282 net.cpp:406] concat0_8 <- concat0_7_concat0_7_0_split_1
I1207 20:48:45.000895 23282 net.cpp:406] concat0_8 <- conv0_8
I1207 20:48:45.000898 23282 net.cpp:380] concat0_8 -> concat0_8
I1207 20:48:45.000939 23282 net.cpp:122] Setting up concat0_8
I1207 20:48:45.000948 23282 net.cpp:129] Top shape: 1 140 37 212 (1098160)
I1207 20:48:45.000952 23282 net.cpp:137] Memory required for data: 159006136
I1207 20:48:45.000954 23282 layer_factory.hpp:77] Creating layer concat0_8_concat0_8_0_split
I1207 20:48:45.000958 23282 net.cpp:84] Creating Layer concat0_8_concat0_8_0_split
I1207 20:48:45.000962 23282 net.cpp:406] concat0_8_concat0_8_0_split <- concat0_8
I1207 20:48:45.000964 23282 net.cpp:380] concat0_8_concat0_8_0_split -> concat0_8_concat0_8_0_split_0
I1207 20:48:45.000969 23282 net.cpp:380] concat0_8_concat0_8_0_split -> concat0_8_concat0_8_0_split_1
I1207 20:48:45.001020 23282 net.cpp:122] Setting up concat0_8_concat0_8_0_split
I1207 20:48:45.001025 23282 net.cpp:129] Top shape: 1 140 37 212 (1098160)
I1207 20:48:45.001029 23282 net.cpp:129] Top shape: 1 140 37 212 (1098160)
I1207 20:48:45.001031 23282 net.cpp:137] Memory required for data: 167791416
I1207 20:48:45.001034 23282 layer_factory.hpp:77] Creating layer conv0_9/bn
I1207 20:48:45.001039 23282 net.cpp:84] Creating Layer conv0_9/bn
I1207 20:48:45.001041 23282 net.cpp:406] conv0_9/bn <- concat0_8_concat0_8_0_split_0
I1207 20:48:45.001045 23282 net.cpp:380] conv0_9/bn -> conv0_9/bn
I1207 20:48:45.001338 23282 net.cpp:122] Setting up conv0_9/bn
I1207 20:48:45.001343 23282 net.cpp:129] Top shape: 1 140 37 212 (1098160)
I1207 20:48:45.001346 23282 net.cpp:137] Memory required for data: 172184056
I1207 20:48:45.001353 23282 layer_factory.hpp:77] Creating layer conv0_9/scale
I1207 20:48:45.001358 23282 net.cpp:84] Creating Layer conv0_9/scale
I1207 20:48:45.001360 23282 net.cpp:406] conv0_9/scale <- conv0_9/bn
I1207 20:48:45.001365 23282 net.cpp:367] conv0_9/scale -> conv0_9/bn (in-place)
I1207 20:48:45.001418 23282 layer_factory.hpp:77] Creating layer conv0_9/scale
I1207 20:48:45.001595 23282 net.cpp:122] Setting up conv0_9/scale
I1207 20:48:45.001601 23282 net.cpp:129] Top shape: 1 140 37 212 (1098160)
I1207 20:48:45.001603 23282 net.cpp:137] Memory required for data: 176576696
I1207 20:48:45.001615 23282 layer_factory.hpp:77] Creating layer relu0_9
I1207 20:48:45.001623 23282 net.cpp:84] Creating Layer relu0_9
I1207 20:48:45.001626 23282 net.cpp:406] relu0_9 <- conv0_9/bn
I1207 20:48:45.001631 23282 net.cpp:367] relu0_9 -> conv0_9/bn (in-place)
I1207 20:48:45.001971 23282 net.cpp:122] Setting up relu0_9
I1207 20:48:45.001981 23282 net.cpp:129] Top shape: 1 140 37 212 (1098160)
I1207 20:48:45.001984 23282 net.cpp:137] Memory required for data: 180969336
I1207 20:48:45.001987 23282 layer_factory.hpp:77] Creating layer conv0_9
I1207 20:48:45.001996 23282 net.cpp:84] Creating Layer conv0_9
I1207 20:48:45.001998 23282 net.cpp:406] conv0_9 <- conv0_9/bn
I1207 20:48:45.002004 23282 net.cpp:380] conv0_9 -> conv0_9
I1207 20:48:45.003643 23282 net.cpp:122] Setting up conv0_9
I1207 20:48:45.003654 23282 net.cpp:129] Top shape: 1 12 37 212 (94128)
I1207 20:48:45.003656 23282 net.cpp:137] Memory required for data: 181345848
I1207 20:48:45.003660 23282 layer_factory.hpp:77] Creating layer concat0_9
I1207 20:48:45.003666 23282 net.cpp:84] Creating Layer concat0_9
I1207 20:48:45.003669 23282 net.cpp:406] concat0_9 <- concat0_8_concat0_8_0_split_1
I1207 20:48:45.003674 23282 net.cpp:406] concat0_9 <- conv0_9
I1207 20:48:45.003679 23282 net.cpp:380] concat0_9 -> concat0_9
I1207 20:48:45.003720 23282 net.cpp:122] Setting up concat0_9
I1207 20:48:45.003726 23282 net.cpp:129] Top shape: 1 152 37 212 (1192288)
I1207 20:48:45.003728 23282 net.cpp:137] Memory required for data: 186115000
I1207 20:48:45.003731 23282 layer_factory.hpp:77] Creating layer concat0_9_concat0_9_0_split
I1207 20:48:45.003736 23282 net.cpp:84] Creating Layer concat0_9_concat0_9_0_split
I1207 20:48:45.003738 23282 net.cpp:406] concat0_9_concat0_9_0_split <- concat0_9
I1207 20:48:45.003743 23282 net.cpp:380] concat0_9_concat0_9_0_split -> concat0_9_concat0_9_0_split_0
I1207 20:48:45.003751 23282 net.cpp:380] concat0_9_concat0_9_0_split -> concat0_9_concat0_9_0_split_1
I1207 20:48:45.003804 23282 net.cpp:122] Setting up concat0_9_concat0_9_0_split
I1207 20:48:45.003809 23282 net.cpp:129] Top shape: 1 152 37 212 (1192288)
I1207 20:48:45.003818 23282 net.cpp:129] Top shape: 1 152 37 212 (1192288)
I1207 20:48:45.003820 23282 net.cpp:137] Memory required for data: 195653304
I1207 20:48:45.003823 23282 layer_factory.hpp:77] Creating layer conv0_10/bn
I1207 20:48:45.003828 23282 net.cpp:84] Creating Layer conv0_10/bn
I1207 20:48:45.003830 23282 net.cpp:406] conv0_10/bn <- concat0_9_concat0_9_0_split_0
I1207 20:48:45.003835 23282 net.cpp:380] conv0_10/bn -> conv0_10/bn
I1207 20:48:45.004132 23282 net.cpp:122] Setting up conv0_10/bn
I1207 20:48:45.004139 23282 net.cpp:129] Top shape: 1 152 37 212 (1192288)
I1207 20:48:45.004142 23282 net.cpp:137] Memory required for data: 200422456
I1207 20:48:45.004148 23282 layer_factory.hpp:77] Creating layer conv0_10/scale
I1207 20:48:45.004154 23282 net.cpp:84] Creating Layer conv0_10/scale
I1207 20:48:45.004156 23282 net.cpp:406] conv0_10/scale <- conv0_10/bn
I1207 20:48:45.004160 23282 net.cpp:367] conv0_10/scale -> conv0_10/bn (in-place)
I1207 20:48:45.004212 23282 layer_factory.hpp:77] Creating layer conv0_10/scale
I1207 20:48:45.004384 23282 net.cpp:122] Setting up conv0_10/scale
I1207 20:48:45.004391 23282 net.cpp:129] Top shape: 1 152 37 212 (1192288)
I1207 20:48:45.004393 23282 net.cpp:137] Memory required for data: 205191608
I1207 20:48:45.004398 23282 layer_factory.hpp:77] Creating layer relu0_10
I1207 20:48:45.004402 23282 net.cpp:84] Creating Layer relu0_10
I1207 20:48:45.004405 23282 net.cpp:406] relu0_10 <- conv0_10/bn
I1207 20:48:45.004410 23282 net.cpp:367] relu0_10 -> conv0_10/bn (in-place)
I1207 20:48:45.004585 23282 net.cpp:122] Setting up relu0_10
I1207 20:48:45.004593 23282 net.cpp:129] Top shape: 1 152 37 212 (1192288)
I1207 20:48:45.004596 23282 net.cpp:137] Memory required for data: 209960760
I1207 20:48:45.004598 23282 layer_factory.hpp:77] Creating layer conv0_10
I1207 20:48:45.004606 23282 net.cpp:84] Creating Layer conv0_10
I1207 20:48:45.004611 23282 net.cpp:406] conv0_10 <- conv0_10/bn
I1207 20:48:45.004614 23282 net.cpp:380] conv0_10 -> conv0_10
I1207 20:48:45.006300 23282 net.cpp:122] Setting up conv0_10
I1207 20:48:45.006312 23282 net.cpp:129] Top shape: 1 12 37 212 (94128)
I1207 20:48:45.006315 23282 net.cpp:137] Memory required for data: 210337272
I1207 20:48:45.006319 23282 layer_factory.hpp:77] Creating layer concat0_10
I1207 20:48:45.006325 23282 net.cpp:84] Creating Layer concat0_10
I1207 20:48:45.006328 23282 net.cpp:406] concat0_10 <- concat0_9_concat0_9_0_split_1
I1207 20:48:45.006332 23282 net.cpp:406] concat0_10 <- conv0_10
I1207 20:48:45.006337 23282 net.cpp:380] concat0_10 -> concat0_10
I1207 20:48:45.006378 23282 net.cpp:122] Setting up concat0_10
I1207 20:48:45.006384 23282 net.cpp:129] Top shape: 1 164 37 212 (1286416)
I1207 20:48:45.006386 23282 net.cpp:137] Memory required for data: 215482936
I1207 20:48:45.006389 23282 layer_factory.hpp:77] Creating layer concat0_10_concat0_10_0_split
I1207 20:48:45.006393 23282 net.cpp:84] Creating Layer concat0_10_concat0_10_0_split
I1207 20:48:45.006395 23282 net.cpp:406] concat0_10_concat0_10_0_split <- concat0_10
I1207 20:48:45.006399 23282 net.cpp:380] concat0_10_concat0_10_0_split -> concat0_10_concat0_10_0_split_0
I1207 20:48:45.006405 23282 net.cpp:380] concat0_10_concat0_10_0_split -> concat0_10_concat0_10_0_split_1
I1207 20:48:45.006455 23282 net.cpp:122] Setting up concat0_10_concat0_10_0_split
I1207 20:48:45.006461 23282 net.cpp:129] Top shape: 1 164 37 212 (1286416)
I1207 20:48:45.006464 23282 net.cpp:129] Top shape: 1 164 37 212 (1286416)
I1207 20:48:45.006466 23282 net.cpp:137] Memory required for data: 225774264
I1207 20:48:45.006469 23282 layer_factory.hpp:77] Creating layer conv0_11/bn
I1207 20:48:45.006474 23282 net.cpp:84] Creating Layer conv0_11/bn
I1207 20:48:45.006476 23282 net.cpp:406] conv0_11/bn <- concat0_10_concat0_10_0_split_0
I1207 20:48:45.006481 23282 net.cpp:380] conv0_11/bn -> conv0_11/bn
I1207 20:48:45.006784 23282 net.cpp:122] Setting up conv0_11/bn
I1207 20:48:45.006793 23282 net.cpp:129] Top shape: 1 164 37 212 (1286416)
I1207 20:48:45.006798 23282 net.cpp:137] Memory required for data: 230919928
I1207 20:48:45.006803 23282 layer_factory.hpp:77] Creating layer conv0_11/scale
I1207 20:48:45.006808 23282 net.cpp:84] Creating Layer conv0_11/scale
I1207 20:48:45.006811 23282 net.cpp:406] conv0_11/scale <- conv0_11/bn
I1207 20:48:45.006816 23282 net.cpp:367] conv0_11/scale -> conv0_11/bn (in-place)
I1207 20:48:45.006871 23282 layer_factory.hpp:77] Creating layer conv0_11/scale
I1207 20:48:45.007045 23282 net.cpp:122] Setting up conv0_11/scale
I1207 20:48:45.007052 23282 net.cpp:129] Top shape: 1 164 37 212 (1286416)
I1207 20:48:45.007055 23282 net.cpp:137] Memory required for data: 236065592
I1207 20:48:45.007059 23282 layer_factory.hpp:77] Creating layer relu0_11
I1207 20:48:45.007064 23282 net.cpp:84] Creating Layer relu0_11
I1207 20:48:45.007067 23282 net.cpp:406] relu0_11 <- conv0_11/bn
I1207 20:48:45.007071 23282 net.cpp:367] relu0_11 -> conv0_11/bn (in-place)
I1207 20:48:45.007419 23282 net.cpp:122] Setting up relu0_11
I1207 20:48:45.007429 23282 net.cpp:129] Top shape: 1 164 37 212 (1286416)
I1207 20:48:45.007432 23282 net.cpp:137] Memory required for data: 241211256
I1207 20:48:45.007436 23282 layer_factory.hpp:77] Creating layer conv0_11
I1207 20:48:45.007444 23282 net.cpp:84] Creating Layer conv0_11
I1207 20:48:45.007448 23282 net.cpp:406] conv0_11 <- conv0_11/bn
I1207 20:48:45.007453 23282 net.cpp:380] conv0_11 -> conv0_11
I1207 20:48:45.009188 23282 net.cpp:122] Setting up conv0_11
I1207 20:48:45.009199 23282 net.cpp:129] Top shape: 1 12 37 212 (94128)
I1207 20:48:45.009202 23282 net.cpp:137] Memory required for data: 241587768
I1207 20:48:45.009207 23282 layer_factory.hpp:77] Creating layer concat0_11
I1207 20:48:45.009213 23282 net.cpp:84] Creating Layer concat0_11
I1207 20:48:45.009217 23282 net.cpp:406] concat0_11 <- concat0_10_concat0_10_0_split_1
I1207 20:48:45.009220 23282 net.cpp:406] concat0_11 <- conv0_11
I1207 20:48:45.009229 23282 net.cpp:380] concat0_11 -> concat0_11
I1207 20:48:45.009269 23282 net.cpp:122] Setting up concat0_11
I1207 20:48:45.009276 23282 net.cpp:129] Top shape: 1 176 37 212 (1380544)
I1207 20:48:45.009279 23282 net.cpp:137] Memory required for data: 247109944
I1207 20:48:45.009280 23282 layer_factory.hpp:77] Creating layer concat0_11_concat0_11_0_split
I1207 20:48:45.009285 23282 net.cpp:84] Creating Layer concat0_11_concat0_11_0_split
I1207 20:48:45.009289 23282 net.cpp:406] concat0_11_concat0_11_0_split <- concat0_11
I1207 20:48:45.009292 23282 net.cpp:380] concat0_11_concat0_11_0_split -> concat0_11_concat0_11_0_split_0
I1207 20:48:45.009297 23282 net.cpp:380] concat0_11_concat0_11_0_split -> concat0_11_concat0_11_0_split_1
I1207 20:48:45.009347 23282 net.cpp:122] Setting up concat0_11_concat0_11_0_split
I1207 20:48:45.009352 23282 net.cpp:129] Top shape: 1 176 37 212 (1380544)
I1207 20:48:45.009356 23282 net.cpp:129] Top shape: 1 176 37 212 (1380544)
I1207 20:48:45.009358 23282 net.cpp:137] Memory required for data: 258154296
I1207 20:48:45.009361 23282 layer_factory.hpp:77] Creating layer conv0_12/bn
I1207 20:48:45.009366 23282 net.cpp:84] Creating Layer conv0_12/bn
I1207 20:48:45.009368 23282 net.cpp:406] conv0_12/bn <- concat0_11_concat0_11_0_split_0
I1207 20:48:45.009372 23282 net.cpp:380] conv0_12/bn -> conv0_12/bn
I1207 20:48:45.009675 23282 net.cpp:122] Setting up conv0_12/bn
I1207 20:48:45.009681 23282 net.cpp:129] Top shape: 1 176 37 212 (1380544)
I1207 20:48:45.009683 23282 net.cpp:137] Memory required for data: 263676472
I1207 20:48:45.009690 23282 layer_factory.hpp:77] Creating layer conv0_12/scale
I1207 20:48:45.009696 23282 net.cpp:84] Creating Layer conv0_12/scale
I1207 20:48:45.009699 23282 net.cpp:406] conv0_12/scale <- conv0_12/bn
I1207 20:48:45.009702 23282 net.cpp:367] conv0_12/scale -> conv0_12/bn (in-place)
I1207 20:48:45.009757 23282 layer_factory.hpp:77] Creating layer conv0_12/scale
I1207 20:48:45.009933 23282 net.cpp:122] Setting up conv0_12/scale
I1207 20:48:45.009940 23282 net.cpp:129] Top shape: 1 176 37 212 (1380544)
I1207 20:48:45.009943 23282 net.cpp:137] Memory required for data: 269198648
I1207 20:48:45.009949 23282 layer_factory.hpp:77] Creating layer relu0_12
I1207 20:48:45.009954 23282 net.cpp:84] Creating Layer relu0_12
I1207 20:48:45.009956 23282 net.cpp:406] relu0_12 <- conv0_12/bn
I1207 20:48:45.009960 23282 net.cpp:367] relu0_12 -> conv0_12/bn (in-place)
I1207 20:48:45.010138 23282 net.cpp:122] Setting up relu0_12
I1207 20:48:45.010146 23282 net.cpp:129] Top shape: 1 176 37 212 (1380544)
I1207 20:48:45.010149 23282 net.cpp:137] Memory required for data: 274720824
I1207 20:48:45.010151 23282 layer_factory.hpp:77] Creating layer conv0_12
I1207 20:48:45.010159 23282 net.cpp:84] Creating Layer conv0_12
I1207 20:48:45.010162 23282 net.cpp:406] conv0_12 <- conv0_12/bn
I1207 20:48:45.010169 23282 net.cpp:380] conv0_12 -> conv0_12
I1207 20:48:45.011919 23282 net.cpp:122] Setting up conv0_12
I1207 20:48:45.011931 23282 net.cpp:129] Top shape: 1 12 37 212 (94128)
I1207 20:48:45.011934 23282 net.cpp:137] Memory required for data: 275097336
I1207 20:48:45.011941 23282 layer_factory.hpp:77] Creating layer concat0_12
I1207 20:48:45.011947 23282 net.cpp:84] Creating Layer concat0_12
I1207 20:48:45.011950 23282 net.cpp:406] concat0_12 <- concat0_11_concat0_11_0_split_1
I1207 20:48:45.011955 23282 net.cpp:406] concat0_12 <- conv0_12
I1207 20:48:45.011960 23282 net.cpp:380] concat0_12 -> concat0_12
I1207 20:48:45.011999 23282 net.cpp:122] Setting up concat0_12
I1207 20:48:45.012006 23282 net.cpp:129] Top shape: 1 188 37 212 (1474672)
I1207 20:48:45.012008 23282 net.cpp:137] Memory required for data: 280996024
I1207 20:48:45.012012 23282 layer_factory.hpp:77] Creating layer concat0_12_concat0_12_0_split
I1207 20:48:45.012015 23282 net.cpp:84] Creating Layer concat0_12_concat0_12_0_split
I1207 20:48:45.012017 23282 net.cpp:406] concat0_12_concat0_12_0_split <- concat0_12
I1207 20:48:45.012023 23282 net.cpp:380] concat0_12_concat0_12_0_split -> concat0_12_concat0_12_0_split_0
I1207 20:48:45.012027 23282 net.cpp:380] concat0_12_concat0_12_0_split -> concat0_12_concat0_12_0_split_1
I1207 20:48:45.012079 23282 net.cpp:122] Setting up concat0_12_concat0_12_0_split
I1207 20:48:45.012085 23282 net.cpp:129] Top shape: 1 188 37 212 (1474672)
I1207 20:48:45.012089 23282 net.cpp:129] Top shape: 1 188 37 212 (1474672)
I1207 20:48:45.012090 23282 net.cpp:137] Memory required for data: 292793400
I1207 20:48:45.012094 23282 layer_factory.hpp:77] Creating layer conv0_13/bn
I1207 20:48:45.012099 23282 net.cpp:84] Creating Layer conv0_13/bn
I1207 20:48:45.012101 23282 net.cpp:406] conv0_13/bn <- concat0_12_concat0_12_0_split_0
I1207 20:48:45.012105 23282 net.cpp:380] conv0_13/bn -> conv0_13/bn
I1207 20:48:45.012406 23282 net.cpp:122] Setting up conv0_13/bn
I1207 20:48:45.012413 23282 net.cpp:129] Top shape: 1 188 37 212 (1474672)
I1207 20:48:45.012415 23282 net.cpp:137] Memory required for data: 298692088
I1207 20:48:45.012420 23282 layer_factory.hpp:77] Creating layer conv0_13/scale
I1207 20:48:45.012426 23282 net.cpp:84] Creating Layer conv0_13/scale
I1207 20:48:45.012429 23282 net.cpp:406] conv0_13/scale <- conv0_13/bn
I1207 20:48:45.012437 23282 net.cpp:367] conv0_13/scale -> conv0_13/bn (in-place)
I1207 20:48:45.012491 23282 layer_factory.hpp:77] Creating layer conv0_13/scale
I1207 20:48:45.012667 23282 net.cpp:122] Setting up conv0_13/scale
I1207 20:48:45.012675 23282 net.cpp:129] Top shape: 1 188 37 212 (1474672)
I1207 20:48:45.012676 23282 net.cpp:137] Memory required for data: 304590776
I1207 20:48:45.012681 23282 layer_factory.hpp:77] Creating layer relu0_13
I1207 20:48:45.012687 23282 net.cpp:84] Creating Layer relu0_13
I1207 20:48:45.012691 23282 net.cpp:406] relu0_13 <- conv0_13/bn
I1207 20:48:45.012694 23282 net.cpp:367] relu0_13 -> conv0_13/bn (in-place)
I1207 20:48:45.013051 23282 net.cpp:122] Setting up relu0_13
I1207 20:48:45.013062 23282 net.cpp:129] Top shape: 1 188 37 212 (1474672)
I1207 20:48:45.013064 23282 net.cpp:137] Memory required for data: 310489464
I1207 20:48:45.013067 23282 layer_factory.hpp:77] Creating layer conv0_13
I1207 20:48:45.013077 23282 net.cpp:84] Creating Layer conv0_13
I1207 20:48:45.013082 23282 net.cpp:406] conv0_13 <- conv0_13/bn
I1207 20:48:45.013087 23282 net.cpp:380] conv0_13 -> conv0_13
I1207 20:48:45.015487 23282 net.cpp:122] Setting up conv0_13
I1207 20:48:45.015498 23282 net.cpp:129] Top shape: 1 12 37 212 (94128)
I1207 20:48:45.015501 23282 net.cpp:137] Memory required for data: 310865976
I1207 20:48:45.015507 23282 layer_factory.hpp:77] Creating layer concat0_13
I1207 20:48:45.015514 23282 net.cpp:84] Creating Layer concat0_13
I1207 20:48:45.015517 23282 net.cpp:406] concat0_13 <- concat0_12_concat0_12_0_split_1
I1207 20:48:45.015522 23282 net.cpp:406] concat0_13 <- conv0_13
I1207 20:48:45.015527 23282 net.cpp:380] concat0_13 -> concat0_13
I1207 20:48:45.015569 23282 net.cpp:122] Setting up concat0_13
I1207 20:48:45.015575 23282 net.cpp:129] Top shape: 1 200 37 212 (1568800)
I1207 20:48:45.015578 23282 net.cpp:137] Memory required for data: 317141176
I1207 20:48:45.015580 23282 layer_factory.hpp:77] Creating layer concat0_13_concat0_13_0_split
I1207 20:48:45.015584 23282 net.cpp:84] Creating Layer concat0_13_concat0_13_0_split
I1207 20:48:45.015588 23282 net.cpp:406] concat0_13_concat0_13_0_split <- concat0_13
I1207 20:48:45.015592 23282 net.cpp:380] concat0_13_concat0_13_0_split -> concat0_13_concat0_13_0_split_0
I1207 20:48:45.015596 23282 net.cpp:380] concat0_13_concat0_13_0_split -> concat0_13_concat0_13_0_split_1
I1207 20:48:45.015647 23282 net.cpp:122] Setting up concat0_13_concat0_13_0_split
I1207 20:48:45.015652 23282 net.cpp:129] Top shape: 1 200 37 212 (1568800)
I1207 20:48:45.015656 23282 net.cpp:129] Top shape: 1 200 37 212 (1568800)
I1207 20:48:45.015658 23282 net.cpp:137] Memory required for data: 329691576
I1207 20:48:45.015661 23282 layer_factory.hpp:77] Creating layer conv0_14/bn
I1207 20:48:45.015666 23282 net.cpp:84] Creating Layer conv0_14/bn
I1207 20:48:45.015671 23282 net.cpp:406] conv0_14/bn <- concat0_13_concat0_13_0_split_0
I1207 20:48:45.015674 23282 net.cpp:380] conv0_14/bn -> conv0_14/bn
I1207 20:48:45.015996 23282 net.cpp:122] Setting up conv0_14/bn
I1207 20:48:45.016003 23282 net.cpp:129] Top shape: 1 200 37 212 (1568800)
I1207 20:48:45.016005 23282 net.cpp:137] Memory required for data: 335966776
I1207 20:48:45.016011 23282 layer_factory.hpp:77] Creating layer conv0_14/scale
I1207 20:48:45.016017 23282 net.cpp:84] Creating Layer conv0_14/scale
I1207 20:48:45.016021 23282 net.cpp:406] conv0_14/scale <- conv0_14/bn
I1207 20:48:45.016026 23282 net.cpp:367] conv0_14/scale -> conv0_14/bn (in-place)
I1207 20:48:45.016082 23282 layer_factory.hpp:77] Creating layer conv0_14/scale
I1207 20:48:45.016264 23282 net.cpp:122] Setting up conv0_14/scale
I1207 20:48:45.016271 23282 net.cpp:129] Top shape: 1 200 37 212 (1568800)
I1207 20:48:45.016273 23282 net.cpp:137] Memory required for data: 342241976
I1207 20:48:45.016278 23282 layer_factory.hpp:77] Creating layer relu0_14
I1207 20:48:45.016283 23282 net.cpp:84] Creating Layer relu0_14
I1207 20:48:45.016286 23282 net.cpp:406] relu0_14 <- conv0_14/bn
I1207 20:48:45.016290 23282 net.cpp:367] relu0_14 -> conv0_14/bn (in-place)
I1207 20:48:45.016631 23282 net.cpp:122] Setting up relu0_14
I1207 20:48:45.016641 23282 net.cpp:129] Top shape: 1 200 37 212 (1568800)
I1207 20:48:45.016644 23282 net.cpp:137] Memory required for data: 348517176
I1207 20:48:45.016647 23282 layer_factory.hpp:77] Creating layer conv0_14
I1207 20:48:45.016655 23282 net.cpp:84] Creating Layer conv0_14
I1207 20:48:45.016659 23282 net.cpp:406] conv0_14 <- conv0_14/bn
I1207 20:48:45.016664 23282 net.cpp:380] conv0_14 -> conv0_14
I1207 20:48:45.018640 23282 net.cpp:122] Setting up conv0_14
I1207 20:48:45.018651 23282 net.cpp:129] Top shape: 1 12 37 212 (94128)
I1207 20:48:45.018653 23282 net.cpp:137] Memory required for data: 348893688
I1207 20:48:45.018658 23282 layer_factory.hpp:77] Creating layer concat0_14
I1207 20:48:45.018664 23282 net.cpp:84] Creating Layer concat0_14
I1207 20:48:45.018667 23282 net.cpp:406] concat0_14 <- concat0_13_concat0_13_0_split_1
I1207 20:48:45.018671 23282 net.cpp:406] concat0_14 <- conv0_14
I1207 20:48:45.018676 23282 net.cpp:380] concat0_14 -> concat0_14
I1207 20:48:45.018721 23282 net.cpp:122] Setting up concat0_14
I1207 20:48:45.018728 23282 net.cpp:129] Top shape: 1 212 37 212 (1662928)
I1207 20:48:45.018729 23282 net.cpp:137] Memory required for data: 355545400
I1207 20:48:45.018733 23282 layer_factory.hpp:77] Creating layer concat0_14_concat0_14_0_split
I1207 20:48:45.018736 23282 net.cpp:84] Creating Layer concat0_14_concat0_14_0_split
I1207 20:48:45.018739 23282 net.cpp:406] concat0_14_concat0_14_0_split <- concat0_14
I1207 20:48:45.018743 23282 net.cpp:380] concat0_14_concat0_14_0_split -> concat0_14_concat0_14_0_split_0
I1207 20:48:45.018748 23282 net.cpp:380] concat0_14_concat0_14_0_split -> concat0_14_concat0_14_0_split_1
I1207 20:48:45.018801 23282 net.cpp:122] Setting up concat0_14_concat0_14_0_split
I1207 20:48:45.018807 23282 net.cpp:129] Top shape: 1 212 37 212 (1662928)
I1207 20:48:45.018810 23282 net.cpp:129] Top shape: 1 212 37 212 (1662928)
I1207 20:48:45.018812 23282 net.cpp:137] Memory required for data: 368848824
I1207 20:48:45.018815 23282 layer_factory.hpp:77] Creating layer conv0_15/bn
I1207 20:48:45.018823 23282 net.cpp:84] Creating Layer conv0_15/bn
I1207 20:48:45.018826 23282 net.cpp:406] conv0_15/bn <- concat0_14_concat0_14_0_split_0
I1207 20:48:45.018829 23282 net.cpp:380] conv0_15/bn -> conv0_15/bn
I1207 20:48:45.019148 23282 net.cpp:122] Setting up conv0_15/bn
I1207 20:48:45.019155 23282 net.cpp:129] Top shape: 1 212 37 212 (1662928)
I1207 20:48:45.019157 23282 net.cpp:137] Memory required for data: 375500536
I1207 20:48:45.019163 23282 layer_factory.hpp:77] Creating layer conv0_15/scale
I1207 20:48:45.019170 23282 net.cpp:84] Creating Layer conv0_15/scale
I1207 20:48:45.019173 23282 net.cpp:406] conv0_15/scale <- conv0_15/bn
I1207 20:48:45.019176 23282 net.cpp:367] conv0_15/scale -> conv0_15/bn (in-place)
I1207 20:48:45.019232 23282 layer_factory.hpp:77] Creating layer conv0_15/scale
I1207 20:48:45.019412 23282 net.cpp:122] Setting up conv0_15/scale
I1207 20:48:45.019418 23282 net.cpp:129] Top shape: 1 212 37 212 (1662928)
I1207 20:48:45.019421 23282 net.cpp:137] Memory required for data: 382152248
I1207 20:48:45.019425 23282 layer_factory.hpp:77] Creating layer relu0_15
I1207 20:48:45.019430 23282 net.cpp:84] Creating Layer relu0_15
I1207 20:48:45.019433 23282 net.cpp:406] relu0_15 <- conv0_15/bn
I1207 20:48:45.019436 23282 net.cpp:367] relu0_15 -> conv0_15/bn (in-place)
I1207 20:48:45.019613 23282 net.cpp:122] Setting up relu0_15
I1207 20:48:45.019620 23282 net.cpp:129] Top shape: 1 212 37 212 (1662928)
I1207 20:48:45.019623 23282 net.cpp:137] Memory required for data: 388803960
I1207 20:48:45.019625 23282 layer_factory.hpp:77] Creating layer conv0_15
I1207 20:48:45.019634 23282 net.cpp:84] Creating Layer conv0_15
I1207 20:48:45.019637 23282 net.cpp:406] conv0_15 <- conv0_15/bn
I1207 20:48:45.019642 23282 net.cpp:380] conv0_15 -> conv0_15
I1207 20:48:45.021499 23282 net.cpp:122] Setting up conv0_15
I1207 20:48:45.021510 23282 net.cpp:129] Top shape: 1 12 37 212 (94128)
I1207 20:48:45.021513 23282 net.cpp:137] Memory required for data: 389180472
I1207 20:48:45.021518 23282 layer_factory.hpp:77] Creating layer concat0_15
I1207 20:48:45.021524 23282 net.cpp:84] Creating Layer concat0_15
I1207 20:48:45.021528 23282 net.cpp:406] concat0_15 <- concat0_14_concat0_14_0_split_1
I1207 20:48:45.021531 23282 net.cpp:406] concat0_15 <- conv0_15
I1207 20:48:45.021538 23282 net.cpp:380] concat0_15 -> concat0_15
I1207 20:48:45.021579 23282 net.cpp:122] Setting up concat0_15
I1207 20:48:45.021585 23282 net.cpp:129] Top shape: 1 224 37 212 (1757056)
I1207 20:48:45.021587 23282 net.cpp:137] Memory required for data: 396208696
I1207 20:48:45.021590 23282 layer_factory.hpp:77] Creating layer concat0_15_concat0_15_0_split
I1207 20:48:45.021595 23282 net.cpp:84] Creating Layer concat0_15_concat0_15_0_split
I1207 20:48:45.021597 23282 net.cpp:406] concat0_15_concat0_15_0_split <- concat0_15
I1207 20:48:45.021602 23282 net.cpp:380] concat0_15_concat0_15_0_split -> concat0_15_concat0_15_0_split_0
I1207 20:48:45.021606 23282 net.cpp:380] concat0_15_concat0_15_0_split -> concat0_15_concat0_15_0_split_1
I1207 20:48:45.021662 23282 net.cpp:122] Setting up concat0_15_concat0_15_0_split
I1207 20:48:45.021668 23282 net.cpp:129] Top shape: 1 224 37 212 (1757056)
I1207 20:48:45.021672 23282 net.cpp:129] Top shape: 1 224 37 212 (1757056)
I1207 20:48:45.021673 23282 net.cpp:137] Memory required for data: 410265144
I1207 20:48:45.021677 23282 layer_factory.hpp:77] Creating layer conv0_16/bn
I1207 20:48:45.021680 23282 net.cpp:84] Creating Layer conv0_16/bn
I1207 20:48:45.021683 23282 net.cpp:406] conv0_16/bn <- concat0_15_concat0_15_0_split_0
I1207 20:48:45.021688 23282 net.cpp:380] conv0_16/bn -> conv0_16/bn
I1207 20:48:45.022001 23282 net.cpp:122] Setting up conv0_16/bn
I1207 20:48:45.022006 23282 net.cpp:129] Top shape: 1 224 37 212 (1757056)
I1207 20:48:45.022009 23282 net.cpp:137] Memory required for data: 417293368
I1207 20:48:45.022014 23282 layer_factory.hpp:77] Creating layer conv0_16/scale
I1207 20:48:45.022022 23282 net.cpp:84] Creating Layer conv0_16/scale
I1207 20:48:45.022024 23282 net.cpp:406] conv0_16/scale <- conv0_16/bn
I1207 20:48:45.022028 23282 net.cpp:367] conv0_16/scale -> conv0_16/bn (in-place)
I1207 20:48:45.022083 23282 layer_factory.hpp:77] Creating layer conv0_16/scale
I1207 20:48:45.022266 23282 net.cpp:122] Setting up conv0_16/scale
I1207 20:48:45.022272 23282 net.cpp:129] Top shape: 1 224 37 212 (1757056)
I1207 20:48:45.022275 23282 net.cpp:137] Memory required for data: 424321592
I1207 20:48:45.022279 23282 layer_factory.hpp:77] Creating layer relu0_16
I1207 20:48:45.022284 23282 net.cpp:84] Creating Layer relu0_16
I1207 20:48:45.022287 23282 net.cpp:406] relu0_16 <- conv0_16/bn
I1207 20:48:45.022290 23282 net.cpp:367] relu0_16 -> conv0_16/bn (in-place)
I1207 20:48:45.022646 23282 net.cpp:122] Setting up relu0_16
I1207 20:48:45.022656 23282 net.cpp:129] Top shape: 1 224 37 212 (1757056)
I1207 20:48:45.022658 23282 net.cpp:137] Memory required for data: 431349816
I1207 20:48:45.022661 23282 layer_factory.hpp:77] Creating layer conv0_16
I1207 20:48:45.022670 23282 net.cpp:84] Creating Layer conv0_16
I1207 20:48:45.022673 23282 net.cpp:406] conv0_16 <- conv0_16/bn
I1207 20:48:45.022678 23282 net.cpp:380] conv0_16 -> conv0_16
I1207 20:48:45.024590 23282 net.cpp:122] Setting up conv0_16
I1207 20:48:45.024601 23282 net.cpp:129] Top shape: 1 12 37 212 (94128)
I1207 20:48:45.024605 23282 net.cpp:137] Memory required for data: 431726328
I1207 20:48:45.024610 23282 layer_factory.hpp:77] Creating layer concat0_16
I1207 20:48:45.024616 23282 net.cpp:84] Creating Layer concat0_16
I1207 20:48:45.024619 23282 net.cpp:406] concat0_16 <- concat0_15_concat0_15_0_split_1
I1207 20:48:45.024623 23282 net.cpp:406] concat0_16 <- conv0_16
I1207 20:48:45.024627 23282 net.cpp:380] concat0_16 -> concat0_16
I1207 20:48:45.024669 23282 net.cpp:122] Setting up concat0_16
I1207 20:48:45.024675 23282 net.cpp:129] Top shape: 1 236 37 212 (1851184)
I1207 20:48:45.024677 23282 net.cpp:137] Memory required for data: 439131064
I1207 20:48:45.024680 23282 layer_factory.hpp:77] Creating layer concat0_16_concat0_16_0_split
I1207 20:48:45.024685 23282 net.cpp:84] Creating Layer concat0_16_concat0_16_0_split
I1207 20:48:45.024688 23282 net.cpp:406] concat0_16_concat0_16_0_split <- concat0_16
I1207 20:48:45.024691 23282 net.cpp:380] concat0_16_concat0_16_0_split -> concat0_16_concat0_16_0_split_0
I1207 20:48:45.024698 23282 net.cpp:380] concat0_16_concat0_16_0_split -> concat0_16_concat0_16_0_split_1
I1207 20:48:45.024749 23282 net.cpp:122] Setting up concat0_16_concat0_16_0_split
I1207 20:48:45.024755 23282 net.cpp:129] Top shape: 1 236 37 212 (1851184)
I1207 20:48:45.024757 23282 net.cpp:129] Top shape: 1 236 37 212 (1851184)
I1207 20:48:45.024760 23282 net.cpp:137] Memory required for data: 453940536
I1207 20:48:45.024762 23282 layer_factory.hpp:77] Creating layer conv0_17/bn
I1207 20:48:45.024771 23282 net.cpp:84] Creating Layer conv0_17/bn
I1207 20:48:45.024775 23282 net.cpp:406] conv0_17/bn <- concat0_16_concat0_16_0_split_0
I1207 20:48:45.024780 23282 net.cpp:380] conv0_17/bn -> conv0_17/bn
I1207 20:48:45.025095 23282 net.cpp:122] Setting up conv0_17/bn
I1207 20:48:45.025102 23282 net.cpp:129] Top shape: 1 236 37 212 (1851184)
I1207 20:48:45.025105 23282 net.cpp:137] Memory required for data: 461345272
I1207 20:48:45.025111 23282 layer_factory.hpp:77] Creating layer conv0_17/scale
I1207 20:48:45.025116 23282 net.cpp:84] Creating Layer conv0_17/scale
I1207 20:48:45.025120 23282 net.cpp:406] conv0_17/scale <- conv0_17/bn
I1207 20:48:45.025125 23282 net.cpp:367] conv0_17/scale -> conv0_17/bn (in-place)
I1207 20:48:45.025182 23282 layer_factory.hpp:77] Creating layer conv0_17/scale
I1207 20:48:45.025370 23282 net.cpp:122] Setting up conv0_17/scale
I1207 20:48:45.025377 23282 net.cpp:129] Top shape: 1 236 37 212 (1851184)
I1207 20:48:45.025380 23282 net.cpp:137] Memory required for data: 468750008
I1207 20:48:45.025384 23282 layer_factory.hpp:77] Creating layer relu0_17
I1207 20:48:45.025389 23282 net.cpp:84] Creating Layer relu0_17
I1207 20:48:45.025393 23282 net.cpp:406] relu0_17 <- conv0_17/bn
I1207 20:48:45.025396 23282 net.cpp:367] relu0_17 -> conv0_17/bn (in-place)
I1207 20:48:45.025574 23282 net.cpp:122] Setting up relu0_17
I1207 20:48:45.025583 23282 net.cpp:129] Top shape: 1 236 37 212 (1851184)
I1207 20:48:45.025586 23282 net.cpp:137] Memory required for data: 476154744
I1207 20:48:45.025588 23282 layer_factory.hpp:77] Creating layer conv0_17
I1207 20:48:45.025596 23282 net.cpp:84] Creating Layer conv0_17
I1207 20:48:45.025599 23282 net.cpp:406] conv0_17 <- conv0_17/bn
I1207 20:48:45.025604 23282 net.cpp:380] conv0_17 -> conv0_17
I1207 20:48:45.027520 23282 net.cpp:122] Setting up conv0_17
I1207 20:48:45.027532 23282 net.cpp:129] Top shape: 1 12 37 212 (94128)
I1207 20:48:45.027535 23282 net.cpp:137] Memory required for data: 476531256
I1207 20:48:45.027540 23282 layer_factory.hpp:77] Creating layer concat0_17
I1207 20:48:45.027545 23282 net.cpp:84] Creating Layer concat0_17
I1207 20:48:45.027549 23282 net.cpp:406] concat0_17 <- concat0_16_concat0_16_0_split_1
I1207 20:48:45.027554 23282 net.cpp:406] concat0_17 <- conv0_17
I1207 20:48:45.027557 23282 net.cpp:380] concat0_17 -> concat0_17
I1207 20:48:45.027600 23282 net.cpp:122] Setting up concat0_17
I1207 20:48:45.027606 23282 net.cpp:129] Top shape: 1 248 37 212 (1945312)
I1207 20:48:45.027608 23282 net.cpp:137] Memory required for data: 484312504
I1207 20:48:45.027611 23282 layer_factory.hpp:77] Creating layer concat0_17_concat0_17_0_split
I1207 20:48:45.027614 23282 net.cpp:84] Creating Layer concat0_17_concat0_17_0_split
I1207 20:48:45.027617 23282 net.cpp:406] concat0_17_concat0_17_0_split <- concat0_17
I1207 20:48:45.027622 23282 net.cpp:380] concat0_17_concat0_17_0_split -> concat0_17_concat0_17_0_split_0
I1207 20:48:45.027627 23282 net.cpp:380] concat0_17_concat0_17_0_split -> concat0_17_concat0_17_0_split_1
I1207 20:48:45.027681 23282 net.cpp:122] Setting up concat0_17_concat0_17_0_split
I1207 20:48:45.027686 23282 net.cpp:129] Top shape: 1 248 37 212 (1945312)
I1207 20:48:45.027689 23282 net.cpp:129] Top shape: 1 248 37 212 (1945312)
I1207 20:48:45.027691 23282 net.cpp:137] Memory required for data: 499875000
I1207 20:48:45.027694 23282 layer_factory.hpp:77] Creating layer conv0_18/bn
I1207 20:48:45.027698 23282 net.cpp:84] Creating Layer conv0_18/bn
I1207 20:48:45.027701 23282 net.cpp:406] conv0_18/bn <- concat0_17_concat0_17_0_split_0
I1207 20:48:45.027706 23282 net.cpp:380] conv0_18/bn -> conv0_18/bn
I1207 20:48:45.028654 23282 net.cpp:122] Setting up conv0_18/bn
I1207 20:48:45.028664 23282 net.cpp:129] Top shape: 1 248 37 212 (1945312)
I1207 20:48:45.028667 23282 net.cpp:137] Memory required for data: 507656248
I1207 20:48:45.028674 23282 layer_factory.hpp:77] Creating layer conv0_18/scale
I1207 20:48:45.028681 23282 net.cpp:84] Creating Layer conv0_18/scale
I1207 20:48:45.028684 23282 net.cpp:406] conv0_18/scale <- conv0_18/bn
I1207 20:48:45.028688 23282 net.cpp:367] conv0_18/scale -> conv0_18/bn (in-place)
I1207 20:48:45.028749 23282 layer_factory.hpp:77] Creating layer conv0_18/scale
I1207 20:48:45.028939 23282 net.cpp:122] Setting up conv0_18/scale
I1207 20:48:45.028946 23282 net.cpp:129] Top shape: 1 248 37 212 (1945312)
I1207 20:48:45.028949 23282 net.cpp:137] Memory required for data: 515437496
I1207 20:48:45.028954 23282 layer_factory.hpp:77] Creating layer relu0_18
I1207 20:48:45.028959 23282 net.cpp:84] Creating Layer relu0_18
I1207 20:48:45.028961 23282 net.cpp:406] relu0_18 <- conv0_18/bn
I1207 20:48:45.028964 23282 net.cpp:367] relu0_18 -> conv0_18/bn (in-place)
I1207 20:48:45.029314 23282 net.cpp:122] Setting up relu0_18
I1207 20:48:45.029325 23282 net.cpp:129] Top shape: 1 248 37 212 (1945312)
I1207 20:48:45.029327 23282 net.cpp:137] Memory required for data: 523218744
I1207 20:48:45.029330 23282 layer_factory.hpp:77] Creating layer conv0_18
I1207 20:48:45.029340 23282 net.cpp:84] Creating Layer conv0_18
I1207 20:48:45.029343 23282 net.cpp:406] conv0_18 <- conv0_18/bn
I1207 20:48:45.029348 23282 net.cpp:380] conv0_18 -> conv0_18
I1207 20:48:45.031313 23282 net.cpp:122] Setting up conv0_18
I1207 20:48:45.031327 23282 net.cpp:129] Top shape: 1 12 37 212 (94128)
I1207 20:48:45.031329 23282 net.cpp:137] Memory required for data: 523595256
I1207 20:48:45.031334 23282 layer_factory.hpp:77] Creating layer concat0_18
I1207 20:48:45.031340 23282 net.cpp:84] Creating Layer concat0_18
I1207 20:48:45.031343 23282 net.cpp:406] concat0_18 <- concat0_17_concat0_17_0_split_1
I1207 20:48:45.031347 23282 net.cpp:406] concat0_18 <- conv0_18
I1207 20:48:45.031352 23282 net.cpp:380] concat0_18 -> concat0_18
I1207 20:48:45.031396 23282 net.cpp:122] Setting up concat0_18
I1207 20:48:45.031404 23282 net.cpp:129] Top shape: 1 260 37 212 (2039440)
I1207 20:48:45.031405 23282 net.cpp:137] Memory required for data: 531753016
I1207 20:48:45.031409 23282 layer_factory.hpp:77] Creating layer concat0_18_concat0_18_0_split
I1207 20:48:45.031412 23282 net.cpp:84] Creating Layer concat0_18_concat0_18_0_split
I1207 20:48:45.031415 23282 net.cpp:406] concat0_18_concat0_18_0_split <- concat0_18
I1207 20:48:45.031419 23282 net.cpp:380] concat0_18_concat0_18_0_split -> concat0_18_concat0_18_0_split_0
I1207 20:48:45.031425 23282 net.cpp:380] concat0_18_concat0_18_0_split -> concat0_18_concat0_18_0_split_1
I1207 20:48:45.031481 23282 net.cpp:122] Setting up concat0_18_concat0_18_0_split
I1207 20:48:45.031486 23282 net.cpp:129] Top shape: 1 260 37 212 (2039440)
I1207 20:48:45.031489 23282 net.cpp:129] Top shape: 1 260 37 212 (2039440)
I1207 20:48:45.031491 23282 net.cpp:137] Memory required for data: 548068536
I1207 20:48:45.031493 23282 layer_factory.hpp:77] Creating layer conv0_19/bn
I1207 20:48:45.031498 23282 net.cpp:84] Creating Layer conv0_19/bn
I1207 20:48:45.031502 23282 net.cpp:406] conv0_19/bn <- concat0_18_concat0_18_0_split_0
I1207 20:48:45.031508 23282 net.cpp:380] conv0_19/bn -> conv0_19/bn
I1207 20:48:45.031850 23282 net.cpp:122] Setting up conv0_19/bn
I1207 20:48:45.031857 23282 net.cpp:129] Top shape: 1 260 37 212 (2039440)
I1207 20:48:45.031860 23282 net.cpp:137] Memory required for data: 556226296
I1207 20:48:45.031867 23282 layer_factory.hpp:77] Creating layer conv0_19/scale
I1207 20:48:45.031872 23282 net.cpp:84] Creating Layer conv0_19/scale
I1207 20:48:45.031877 23282 net.cpp:406] conv0_19/scale <- conv0_19/bn
I1207 20:48:45.031882 23282 net.cpp:367] conv0_19/scale -> conv0_19/bn (in-place)
I1207 20:48:45.031957 23282 layer_factory.hpp:77] Creating layer conv0_19/scale
I1207 20:48:45.032150 23282 net.cpp:122] Setting up conv0_19/scale
I1207 20:48:45.032156 23282 net.cpp:129] Top shape: 1 260 37 212 (2039440)
I1207 20:48:45.032158 23282 net.cpp:137] Memory required for data: 564384056
I1207 20:48:45.032163 23282 layer_factory.hpp:77] Creating layer relu0_19
I1207 20:48:45.032168 23282 net.cpp:84] Creating Layer relu0_19
I1207 20:48:45.032171 23282 net.cpp:406] relu0_19 <- conv0_19/bn
I1207 20:48:45.032174 23282 net.cpp:367] relu0_19 -> conv0_19/bn (in-place)
I1207 20:48:45.032534 23282 net.cpp:122] Setting up relu0_19
I1207 20:48:45.032546 23282 net.cpp:129] Top shape: 1 260 37 212 (2039440)
I1207 20:48:45.032548 23282 net.cpp:137] Memory required for data: 572541816
I1207 20:48:45.032553 23282 layer_factory.hpp:77] Creating layer conv0_19
I1207 20:48:45.032562 23282 net.cpp:84] Creating Layer conv0_19
I1207 20:48:45.032564 23282 net.cpp:406] conv0_19 <- conv0_19/bn
I1207 20:48:45.032570 23282 net.cpp:380] conv0_19 -> conv0_19
I1207 20:48:45.034579 23282 net.cpp:122] Setting up conv0_19
I1207 20:48:45.034590 23282 net.cpp:129] Top shape: 1 12 37 212 (94128)
I1207 20:48:45.034592 23282 net.cpp:137] Memory required for data: 572918328
I1207 20:48:45.034597 23282 layer_factory.hpp:77] Creating layer concat0_19
I1207 20:48:45.034603 23282 net.cpp:84] Creating Layer concat0_19
I1207 20:48:45.034606 23282 net.cpp:406] concat0_19 <- concat0_18_concat0_18_0_split_1
I1207 20:48:45.034610 23282 net.cpp:406] concat0_19 <- conv0_19
I1207 20:48:45.034616 23282 net.cpp:380] concat0_19 -> concat0_19
I1207 20:48:45.034659 23282 net.cpp:122] Setting up concat0_19
I1207 20:48:45.034665 23282 net.cpp:129] Top shape: 1 272 37 212 (2133568)
I1207 20:48:45.034667 23282 net.cpp:137] Memory required for data: 581452600
I1207 20:48:45.034670 23282 layer_factory.hpp:77] Creating layer BatchNorm1
I1207 20:48:45.034675 23282 net.cpp:84] Creating Layer BatchNorm1
I1207 20:48:45.034678 23282 net.cpp:406] BatchNorm1 <- concat0_19
I1207 20:48:45.034683 23282 net.cpp:380] BatchNorm1 -> BatchNorm1
I1207 20:48:45.035023 23282 net.cpp:122] Setting up BatchNorm1
I1207 20:48:45.035030 23282 net.cpp:129] Top shape: 1 272 37 212 (2133568)
I1207 20:48:45.035033 23282 net.cpp:137] Memory required for data: 589986872
I1207 20:48:45.035048 23282 layer_factory.hpp:77] Creating layer Scale1
I1207 20:48:45.035058 23282 net.cpp:84] Creating Layer Scale1
I1207 20:48:45.035061 23282 net.cpp:406] Scale1 <- BatchNorm1
I1207 20:48:45.035065 23282 net.cpp:367] Scale1 -> BatchNorm1 (in-place)
I1207 20:48:45.035128 23282 layer_factory.hpp:77] Creating layer Scale1
I1207 20:48:45.035322 23282 net.cpp:122] Setting up Scale1
I1207 20:48:45.035329 23282 net.cpp:129] Top shape: 1 272 37 212 (2133568)
I1207 20:48:45.035331 23282 net.cpp:137] Memory required for data: 598521144
I1207 20:48:45.035336 23282 layer_factory.hpp:77] Creating layer ReLU1
I1207 20:48:45.035341 23282 net.cpp:84] Creating Layer ReLU1
I1207 20:48:45.035343 23282 net.cpp:406] ReLU1 <- BatchNorm1
I1207 20:48:45.035347 23282 net.cpp:367] ReLU1 -> BatchNorm1 (in-place)
I1207 20:48:45.035529 23282 net.cpp:122] Setting up ReLU1
I1207 20:48:45.035537 23282 net.cpp:129] Top shape: 1 272 37 212 (2133568)
I1207 20:48:45.035539 23282 net.cpp:137] Memory required for data: 607055416
I1207 20:48:45.035542 23282 layer_factory.hpp:77] Creating layer conv0_blk
I1207 20:48:45.035552 23282 net.cpp:84] Creating Layer conv0_blk
I1207 20:48:45.035554 23282 net.cpp:406] conv0_blk <- BatchNorm1
I1207 20:48:45.035560 23282 net.cpp:380] conv0_blk -> conv0_blk
I1207 20:48:45.038506 23282 net.cpp:122] Setting up conv0_blk
I1207 20:48:45.038518 23282 net.cpp:129] Top shape: 1 272 37 212 (2133568)
I1207 20:48:45.038522 23282 net.cpp:137] Memory required for data: 615589688
I1207 20:48:45.038525 23282 layer_factory.hpp:77] Creating layer pool0
I1207 20:48:45.038532 23282 net.cpp:84] Creating Layer pool0
I1207 20:48:45.038535 23282 net.cpp:406] pool0 <- conv0_blk
I1207 20:48:45.038540 23282 net.cpp:380] pool0 -> pool0
I1207 20:48:45.038919 23282 net.cpp:122] Setting up pool0
I1207 20:48:45.038929 23282 net.cpp:129] Top shape: 1 272 19 106 (547808)
I1207 20:48:45.038933 23282 net.cpp:137] Memory required for data: 617780920
I1207 20:48:45.038935 23282 layer_factory.hpp:77] Creating layer pool0_pool0_0_split
I1207 20:48:45.038940 23282 net.cpp:84] Creating Layer pool0_pool0_0_split
I1207 20:48:45.038942 23282 net.cpp:406] pool0_pool0_0_split <- pool0
I1207 20:48:45.038949 23282 net.cpp:380] pool0_pool0_0_split -> pool0_pool0_0_split_0
I1207 20:48:45.038954 23282 net.cpp:380] pool0_pool0_0_split -> pool0_pool0_0_split_1
I1207 20:48:45.039014 23282 net.cpp:122] Setting up pool0_pool0_0_split
I1207 20:48:45.039021 23282 net.cpp:129] Top shape: 1 272 19 106 (547808)
I1207 20:48:45.039026 23282 net.cpp:129] Top shape: 1 272 19 106 (547808)
I1207 20:48:45.039029 23282 net.cpp:137] Memory required for data: 622163384
I1207 20:48:45.039031 23282 layer_factory.hpp:77] Creating layer conv1_0/bn
I1207 20:48:45.039036 23282 net.cpp:84] Creating Layer conv1_0/bn
I1207 20:48:45.039039 23282 net.cpp:406] conv1_0/bn <- pool0_pool0_0_split_0
I1207 20:48:45.039044 23282 net.cpp:380] conv1_0/bn -> conv1_0/bn
I1207 20:48:45.039386 23282 net.cpp:122] Setting up conv1_0/bn
I1207 20:48:45.039393 23282 net.cpp:129] Top shape: 1 272 19 106 (547808)
I1207 20:48:45.039396 23282 net.cpp:137] Memory required for data: 624354616
I1207 20:48:45.039402 23282 layer_factory.hpp:77] Creating layer conv1_0/scale
I1207 20:48:45.039409 23282 net.cpp:84] Creating Layer conv1_0/scale
I1207 20:48:45.039412 23282 net.cpp:406] conv1_0/scale <- conv1_0/bn
I1207 20:48:45.039417 23282 net.cpp:367] conv1_0/scale -> conv1_0/bn (in-place)
I1207 20:48:45.039479 23282 layer_factory.hpp:77] Creating layer conv1_0/scale
I1207 20:48:45.039676 23282 net.cpp:122] Setting up conv1_0/scale
I1207 20:48:45.039683 23282 net.cpp:129] Top shape: 1 272 19 106 (547808)
I1207 20:48:45.039686 23282 net.cpp:137] Memory required for data: 626545848
I1207 20:48:45.039690 23282 layer_factory.hpp:77] Creating layer relu1_0
I1207 20:48:45.039695 23282 net.cpp:84] Creating Layer relu1_0
I1207 20:48:45.039698 23282 net.cpp:406] relu1_0 <- conv1_0/bn
I1207 20:48:45.039701 23282 net.cpp:367] relu1_0 -> conv1_0/bn (in-place)
I1207 20:48:45.039885 23282 net.cpp:122] Setting up relu1_0
I1207 20:48:45.039893 23282 net.cpp:129] Top shape: 1 272 19 106 (547808)
I1207 20:48:45.039896 23282 net.cpp:137] Memory required for data: 628737080
I1207 20:48:45.039898 23282 layer_factory.hpp:77] Creating layer conv1_0
I1207 20:48:45.039908 23282 net.cpp:84] Creating Layer conv1_0
I1207 20:48:45.039911 23282 net.cpp:406] conv1_0 <- conv1_0/bn
I1207 20:48:45.039916 23282 net.cpp:380] conv1_0 -> conv1_0
I1207 20:48:45.041996 23282 net.cpp:122] Setting up conv1_0
I1207 20:48:45.042011 23282 net.cpp:129] Top shape: 1 12 19 106 (24168)
I1207 20:48:45.042014 23282 net.cpp:137] Memory required for data: 628833752
I1207 20:48:45.042019 23282 layer_factory.hpp:77] Creating layer concat1_0
I1207 20:48:45.042026 23282 net.cpp:84] Creating Layer concat1_0
I1207 20:48:45.042029 23282 net.cpp:406] concat1_0 <- pool0_pool0_0_split_1
I1207 20:48:45.042034 23282 net.cpp:406] concat1_0 <- conv1_0
I1207 20:48:45.042043 23282 net.cpp:380] concat1_0 -> concat1_0
I1207 20:48:45.042089 23282 net.cpp:122] Setting up concat1_0
I1207 20:48:45.042095 23282 net.cpp:129] Top shape: 1 284 19 106 (571976)
I1207 20:48:45.042098 23282 net.cpp:137] Memory required for data: 631121656
I1207 20:48:45.042100 23282 layer_factory.hpp:77] Creating layer concat1_0_concat1_0_0_split
I1207 20:48:45.042104 23282 net.cpp:84] Creating Layer concat1_0_concat1_0_0_split
I1207 20:48:45.042107 23282 net.cpp:406] concat1_0_concat1_0_0_split <- concat1_0
I1207 20:48:45.042112 23282 net.cpp:380] concat1_0_concat1_0_0_split -> concat1_0_concat1_0_0_split_0
I1207 20:48:45.042117 23282 net.cpp:380] concat1_0_concat1_0_0_split -> concat1_0_concat1_0_0_split_1
I1207 20:48:45.042176 23282 net.cpp:122] Setting up concat1_0_concat1_0_0_split
I1207 20:48:45.042181 23282 net.cpp:129] Top shape: 1 284 19 106 (571976)
I1207 20:48:45.042184 23282 net.cpp:129] Top shape: 1 284 19 106 (571976)
I1207 20:48:45.042186 23282 net.cpp:137] Memory required for data: 635697464
I1207 20:48:45.042189 23282 layer_factory.hpp:77] Creating layer conv1_1/bn
I1207 20:48:45.042194 23282 net.cpp:84] Creating Layer conv1_1/bn
I1207 20:48:45.042197 23282 net.cpp:406] conv1_1/bn <- concat1_0_concat1_0_0_split_0
I1207 20:48:45.042201 23282 net.cpp:380] conv1_1/bn -> conv1_1/bn
I1207 20:48:45.042557 23282 net.cpp:122] Setting up conv1_1/bn
I1207 20:48:45.042563 23282 net.cpp:129] Top shape: 1 284 19 106 (571976)
I1207 20:48:45.042567 23282 net.cpp:137] Memory required for data: 637985368
I1207 20:48:45.042572 23282 layer_factory.hpp:77] Creating layer conv1_1/scale
I1207 20:48:45.042580 23282 net.cpp:84] Creating Layer conv1_1/scale
I1207 20:48:45.042584 23282 net.cpp:406] conv1_1/scale <- conv1_1/bn
I1207 20:48:45.042588 23282 net.cpp:367] conv1_1/scale -> conv1_1/bn (in-place)
I1207 20:48:45.042655 23282 layer_factory.hpp:77] Creating layer conv1_1/scale
I1207 20:48:45.042850 23282 net.cpp:122] Setting up conv1_1/scale
I1207 20:48:45.042856 23282 net.cpp:129] Top shape: 1 284 19 106 (571976)
I1207 20:48:45.042858 23282 net.cpp:137] Memory required for data: 640273272
I1207 20:48:45.042863 23282 layer_factory.hpp:77] Creating layer relu1_1
I1207 20:48:45.042870 23282 net.cpp:84] Creating Layer relu1_1
I1207 20:48:45.042872 23282 net.cpp:406] relu1_1 <- conv1_1/bn
I1207 20:48:45.042876 23282 net.cpp:367] relu1_1 -> conv1_1/bn (in-place)
I1207 20:48:45.043390 23282 net.cpp:122] Setting up relu1_1
I1207 20:48:45.043401 23282 net.cpp:129] Top shape: 1 284 19 106 (571976)
I1207 20:48:45.043403 23282 net.cpp:137] Memory required for data: 642561176
I1207 20:48:45.043406 23282 layer_factory.hpp:77] Creating layer conv1_1
I1207 20:48:45.043416 23282 net.cpp:84] Creating Layer conv1_1
I1207 20:48:45.043418 23282 net.cpp:406] conv1_1 <- conv1_1/bn
I1207 20:48:45.043423 23282 net.cpp:380] conv1_1 -> conv1_1
I1207 20:48:45.045529 23282 net.cpp:122] Setting up conv1_1
I1207 20:48:45.045541 23282 net.cpp:129] Top shape: 1 12 19 106 (24168)
I1207 20:48:45.045543 23282 net.cpp:137] Memory required for data: 642657848
I1207 20:48:45.045548 23282 layer_factory.hpp:77] Creating layer concat1_1
I1207 20:48:45.045557 23282 net.cpp:84] Creating Layer concat1_1
I1207 20:48:45.045559 23282 net.cpp:406] concat1_1 <- concat1_0_concat1_0_0_split_1
I1207 20:48:45.045563 23282 net.cpp:406] concat1_1 <- conv1_1
I1207 20:48:45.045567 23282 net.cpp:380] concat1_1 -> concat1_1
I1207 20:48:45.045613 23282 net.cpp:122] Setting up concat1_1
I1207 20:48:45.045619 23282 net.cpp:129] Top shape: 1 296 19 106 (596144)
I1207 20:48:45.045620 23282 net.cpp:137] Memory required for data: 645042424
I1207 20:48:45.045624 23282 layer_factory.hpp:77] Creating layer concat1_1_concat1_1_0_split
I1207 20:48:45.045629 23282 net.cpp:84] Creating Layer concat1_1_concat1_1_0_split
I1207 20:48:45.045631 23282 net.cpp:406] concat1_1_concat1_1_0_split <- concat1_1
I1207 20:48:45.045635 23282 net.cpp:380] concat1_1_concat1_1_0_split -> concat1_1_concat1_1_0_split_0
I1207 20:48:45.045641 23282 net.cpp:380] concat1_1_concat1_1_0_split -> concat1_1_concat1_1_0_split_1
I1207 20:48:45.045699 23282 net.cpp:122] Setting up concat1_1_concat1_1_0_split
I1207 20:48:45.045704 23282 net.cpp:129] Top shape: 1 296 19 106 (596144)
I1207 20:48:45.045707 23282 net.cpp:129] Top shape: 1 296 19 106 (596144)
I1207 20:48:45.045709 23282 net.cpp:137] Memory required for data: 649811576
I1207 20:48:45.045712 23282 layer_factory.hpp:77] Creating layer conv1_2/bn
I1207 20:48:45.045717 23282 net.cpp:84] Creating Layer conv1_2/bn
I1207 20:48:45.045720 23282 net.cpp:406] conv1_2/bn <- concat1_1_concat1_1_0_split_0
I1207 20:48:45.045725 23282 net.cpp:380] conv1_2/bn -> conv1_2/bn
I1207 20:48:45.046072 23282 net.cpp:122] Setting up conv1_2/bn
I1207 20:48:45.046083 23282 net.cpp:129] Top shape: 1 296 19 106 (596144)
I1207 20:48:45.046085 23282 net.cpp:137] Memory required for data: 652196152
I1207 20:48:45.046092 23282 layer_factory.hpp:77] Creating layer conv1_2/scale
I1207 20:48:45.046097 23282 net.cpp:84] Creating Layer conv1_2/scale
I1207 20:48:45.046099 23282 net.cpp:406] conv1_2/scale <- conv1_2/bn
I1207 20:48:45.046104 23282 net.cpp:367] conv1_2/scale -> conv1_2/bn (in-place)
I1207 20:48:45.046169 23282 layer_factory.hpp:77] Creating layer conv1_2/scale
I1207 20:48:45.046365 23282 net.cpp:122] Setting up conv1_2/scale
I1207 20:48:45.046372 23282 net.cpp:129] Top shape: 1 296 19 106 (596144)
I1207 20:48:45.046375 23282 net.cpp:137] Memory required for data: 654580728
I1207 20:48:45.046380 23282 layer_factory.hpp:77] Creating layer relu1_2
I1207 20:48:45.046383 23282 net.cpp:84] Creating Layer relu1_2
I1207 20:48:45.046386 23282 net.cpp:406] relu1_2 <- conv1_2/bn
I1207 20:48:45.046393 23282 net.cpp:367] relu1_2 -> conv1_2/bn (in-place)
I1207 20:48:45.046753 23282 net.cpp:122] Setting up relu1_2
I1207 20:48:45.046763 23282 net.cpp:129] Top shape: 1 296 19 106 (596144)
I1207 20:48:45.046766 23282 net.cpp:137] Memory required for data: 656965304
I1207 20:48:45.046769 23282 layer_factory.hpp:77] Creating layer conv1_2
I1207 20:48:45.046777 23282 net.cpp:84] Creating Layer conv1_2
I1207 20:48:45.046780 23282 net.cpp:406] conv1_2 <- conv1_2/bn
I1207 20:48:45.046787 23282 net.cpp:380] conv1_2 -> conv1_2
I1207 20:48:45.048916 23282 net.cpp:122] Setting up conv1_2
I1207 20:48:45.048928 23282 net.cpp:129] Top shape: 1 12 19 106 (24168)
I1207 20:48:45.048930 23282 net.cpp:137] Memory required for data: 657061976
I1207 20:48:45.048934 23282 layer_factory.hpp:77] Creating layer concat1_2
I1207 20:48:45.048944 23282 net.cpp:84] Creating Layer concat1_2
I1207 20:48:45.048948 23282 net.cpp:406] concat1_2 <- concat1_1_concat1_1_0_split_1
I1207 20:48:45.048951 23282 net.cpp:406] concat1_2 <- conv1_2
I1207 20:48:45.048955 23282 net.cpp:380] concat1_2 -> concat1_2
I1207 20:48:45.049000 23282 net.cpp:122] Setting up concat1_2
I1207 20:48:45.049007 23282 net.cpp:129] Top shape: 1 308 19 106 (620312)
I1207 20:48:45.049010 23282 net.cpp:137] Memory required for data: 659543224
I1207 20:48:45.049012 23282 layer_factory.hpp:77] Creating layer concat1_2_concat1_2_0_split
I1207 20:48:45.049016 23282 net.cpp:84] Creating Layer concat1_2_concat1_2_0_split
I1207 20:48:45.049019 23282 net.cpp:406] concat1_2_concat1_2_0_split <- concat1_2
I1207 20:48:45.049023 23282 net.cpp:380] concat1_2_concat1_2_0_split -> concat1_2_concat1_2_0_split_0
I1207 20:48:45.049027 23282 net.cpp:380] concat1_2_concat1_2_0_split -> concat1_2_concat1_2_0_split_1
I1207 20:48:45.049087 23282 net.cpp:122] Setting up concat1_2_concat1_2_0_split
I1207 20:48:45.049093 23282 net.cpp:129] Top shape: 1 308 19 106 (620312)
I1207 20:48:45.049095 23282 net.cpp:129] Top shape: 1 308 19 106 (620312)
I1207 20:48:45.049098 23282 net.cpp:137] Memory required for data: 664505720
I1207 20:48:45.049100 23282 layer_factory.hpp:77] Creating layer conv1_3/bn
I1207 20:48:45.049105 23282 net.cpp:84] Creating Layer conv1_3/bn
I1207 20:48:45.049108 23282 net.cpp:406] conv1_3/bn <- concat1_2_concat1_2_0_split_0
I1207 20:48:45.049113 23282 net.cpp:380] conv1_3/bn -> conv1_3/bn
I1207 20:48:45.049465 23282 net.cpp:122] Setting up conv1_3/bn
I1207 20:48:45.049473 23282 net.cpp:129] Top shape: 1 308 19 106 (620312)
I1207 20:48:45.049475 23282 net.cpp:137] Memory required for data: 666986968
I1207 20:48:45.049481 23282 layer_factory.hpp:77] Creating layer conv1_3/scale
I1207 20:48:45.049487 23282 net.cpp:84] Creating Layer conv1_3/scale
I1207 20:48:45.049490 23282 net.cpp:406] conv1_3/scale <- conv1_3/bn
I1207 20:48:45.049495 23282 net.cpp:367] conv1_3/scale -> conv1_3/bn (in-place)
I1207 20:48:45.049561 23282 layer_factory.hpp:77] Creating layer conv1_3/scale
I1207 20:48:45.049757 23282 net.cpp:122] Setting up conv1_3/scale
I1207 20:48:45.049762 23282 net.cpp:129] Top shape: 1 308 19 106 (620312)
I1207 20:48:45.049765 23282 net.cpp:137] Memory required for data: 669468216
I1207 20:48:45.049769 23282 layer_factory.hpp:77] Creating layer relu1_3
I1207 20:48:45.049774 23282 net.cpp:84] Creating Layer relu1_3
I1207 20:48:45.049777 23282 net.cpp:406] relu1_3 <- conv1_3/bn
I1207 20:48:45.049780 23282 net.cpp:367] relu1_3 -> conv1_3/bn (in-place)
I1207 20:48:45.049968 23282 net.cpp:122] Setting up relu1_3
I1207 20:48:45.049976 23282 net.cpp:129] Top shape: 1 308 19 106 (620312)
I1207 20:48:45.049978 23282 net.cpp:137] Memory required for data: 671949464
I1207 20:48:45.049981 23282 layer_factory.hpp:77] Creating layer conv1_3
I1207 20:48:45.049990 23282 net.cpp:84] Creating Layer conv1_3
I1207 20:48:45.049993 23282 net.cpp:406] conv1_3 <- conv1_3/bn
I1207 20:48:45.049998 23282 net.cpp:380] conv1_3 -> conv1_3
I1207 20:48:45.052809 23282 net.cpp:122] Setting up conv1_3
I1207 20:48:45.052822 23282 net.cpp:129] Top shape: 1 12 19 106 (24168)
I1207 20:48:45.052825 23282 net.cpp:137] Memory required for data: 672046136
I1207 20:48:45.052832 23282 layer_factory.hpp:77] Creating layer concat1_3
I1207 20:48:45.052839 23282 net.cpp:84] Creating Layer concat1_3
I1207 20:48:45.052842 23282 net.cpp:406] concat1_3 <- concat1_2_concat1_2_0_split_1
I1207 20:48:45.052847 23282 net.cpp:406] concat1_3 <- conv1_3
I1207 20:48:45.052852 23282 net.cpp:380] concat1_3 -> concat1_3
I1207 20:48:45.052898 23282 net.cpp:122] Setting up concat1_3
I1207 20:48:45.052906 23282 net.cpp:129] Top shape: 1 320 19 106 (644480)
I1207 20:48:45.052907 23282 net.cpp:137] Memory required for data: 674624056
I1207 20:48:45.052911 23282 layer_factory.hpp:77] Creating layer concat1_3_concat1_3_0_split
I1207 20:48:45.052916 23282 net.cpp:84] Creating Layer concat1_3_concat1_3_0_split
I1207 20:48:45.052918 23282 net.cpp:406] concat1_3_concat1_3_0_split <- concat1_3
I1207 20:48:45.052922 23282 net.cpp:380] concat1_3_concat1_3_0_split -> concat1_3_concat1_3_0_split_0
I1207 20:48:45.052927 23282 net.cpp:380] concat1_3_concat1_3_0_split -> concat1_3_concat1_3_0_split_1
I1207 20:48:45.052987 23282 net.cpp:122] Setting up concat1_3_concat1_3_0_split
I1207 20:48:45.052992 23282 net.cpp:129] Top shape: 1 320 19 106 (644480)
I1207 20:48:45.052996 23282 net.cpp:129] Top shape: 1 320 19 106 (644480)
I1207 20:48:45.052999 23282 net.cpp:137] Memory required for data: 679779896
I1207 20:48:45.053000 23282 layer_factory.hpp:77] Creating layer conv1_4/bn
I1207 20:48:45.053006 23282 net.cpp:84] Creating Layer conv1_4/bn
I1207 20:48:45.053009 23282 net.cpp:406] conv1_4/bn <- concat1_3_concat1_3_0_split_0
I1207 20:48:45.053014 23282 net.cpp:380] conv1_4/bn -> conv1_4/bn
I1207 20:48:45.053365 23282 net.cpp:122] Setting up conv1_4/bn
I1207 20:48:45.053371 23282 net.cpp:129] Top shape: 1 320 19 106 (644480)
I1207 20:48:45.053375 23282 net.cpp:137] Memory required for data: 682357816
I1207 20:48:45.053380 23282 layer_factory.hpp:77] Creating layer conv1_4/scale
I1207 20:48:45.053386 23282 net.cpp:84] Creating Layer conv1_4/scale
I1207 20:48:45.053390 23282 net.cpp:406] conv1_4/scale <- conv1_4/bn
I1207 20:48:45.053393 23282 net.cpp:367] conv1_4/scale -> conv1_4/bn (in-place)
I1207 20:48:45.053458 23282 layer_factory.hpp:77] Creating layer conv1_4/scale
I1207 20:48:45.053658 23282 net.cpp:122] Setting up conv1_4/scale
I1207 20:48:45.053664 23282 net.cpp:129] Top shape: 1 320 19 106 (644480)
I1207 20:48:45.053668 23282 net.cpp:137] Memory required for data: 684935736
I1207 20:48:45.053673 23282 layer_factory.hpp:77] Creating layer relu1_4
I1207 20:48:45.053676 23282 net.cpp:84] Creating Layer relu1_4
I1207 20:48:45.053679 23282 net.cpp:406] relu1_4 <- conv1_4/bn
I1207 20:48:45.053684 23282 net.cpp:367] relu1_4 -> conv1_4/bn (in-place)
I1207 20:48:45.054050 23282 net.cpp:122] Setting up relu1_4
I1207 20:48:45.054061 23282 net.cpp:129] Top shape: 1 320 19 106 (644480)
I1207 20:48:45.054064 23282 net.cpp:137] Memory required for data: 687513656
I1207 20:48:45.054066 23282 layer_factory.hpp:77] Creating layer conv1_4
I1207 20:48:45.054076 23282 net.cpp:84] Creating Layer conv1_4
I1207 20:48:45.054080 23282 net.cpp:406] conv1_4 <- conv1_4/bn
I1207 20:48:45.054085 23282 net.cpp:380] conv1_4 -> conv1_4
I1207 20:48:45.056352 23282 net.cpp:122] Setting up conv1_4
I1207 20:48:45.056373 23282 net.cpp:129] Top shape: 1 12 19 106 (24168)
I1207 20:48:45.056376 23282 net.cpp:137] Memory required for data: 687610328
I1207 20:48:45.056383 23282 layer_factory.hpp:77] Creating layer concat1_4
I1207 20:48:45.056391 23282 net.cpp:84] Creating Layer concat1_4
I1207 20:48:45.056396 23282 net.cpp:406] concat1_4 <- concat1_3_concat1_3_0_split_1
I1207 20:48:45.056401 23282 net.cpp:406] concat1_4 <- conv1_4
I1207 20:48:45.056406 23282 net.cpp:380] concat1_4 -> concat1_4
I1207 20:48:45.056453 23282 net.cpp:122] Setting up concat1_4
I1207 20:48:45.056460 23282 net.cpp:129] Top shape: 1 332 19 106 (668648)
I1207 20:48:45.056463 23282 net.cpp:137] Memory required for data: 690284920
I1207 20:48:45.056465 23282 layer_factory.hpp:77] Creating layer concat1_4_concat1_4_0_split
I1207 20:48:45.056473 23282 net.cpp:84] Creating Layer concat1_4_concat1_4_0_split
I1207 20:48:45.056476 23282 net.cpp:406] concat1_4_concat1_4_0_split <- concat1_4
I1207 20:48:45.056481 23282 net.cpp:380] concat1_4_concat1_4_0_split -> concat1_4_concat1_4_0_split_0
I1207 20:48:45.056486 23282 net.cpp:380] concat1_4_concat1_4_0_split -> concat1_4_concat1_4_0_split_1
I1207 20:48:45.056547 23282 net.cpp:122] Setting up concat1_4_concat1_4_0_split
I1207 20:48:45.056553 23282 net.cpp:129] Top shape: 1 332 19 106 (668648)
I1207 20:48:45.056556 23282 net.cpp:129] Top shape: 1 332 19 106 (668648)
I1207 20:48:45.056558 23282 net.cpp:137] Memory required for data: 695634104
I1207 20:48:45.056561 23282 layer_factory.hpp:77] Creating layer conv1_5/bn
I1207 20:48:45.056567 23282 net.cpp:84] Creating Layer conv1_5/bn
I1207 20:48:45.056571 23282 net.cpp:406] conv1_5/bn <- concat1_4_concat1_4_0_split_0
I1207 20:48:45.056576 23282 net.cpp:380] conv1_5/bn -> conv1_5/bn
I1207 20:48:45.056968 23282 net.cpp:122] Setting up conv1_5/bn
I1207 20:48:45.056975 23282 net.cpp:129] Top shape: 1 332 19 106 (668648)
I1207 20:48:45.056977 23282 net.cpp:137] Memory required for data: 698308696
I1207 20:48:45.056983 23282 layer_factory.hpp:77] Creating layer conv1_5/scale
I1207 20:48:45.056990 23282 net.cpp:84] Creating Layer conv1_5/scale
I1207 20:48:45.056993 23282 net.cpp:406] conv1_5/scale <- conv1_5/bn
I1207 20:48:45.056998 23282 net.cpp:367] conv1_5/scale -> conv1_5/bn (in-place)
I1207 20:48:45.057068 23282 layer_factory.hpp:77] Creating layer conv1_5/scale
I1207 20:48:45.057273 23282 net.cpp:122] Setting up conv1_5/scale
I1207 20:48:45.057281 23282 net.cpp:129] Top shape: 1 332 19 106 (668648)
I1207 20:48:45.057283 23282 net.cpp:137] Memory required for data: 700983288
I1207 20:48:45.057288 23282 layer_factory.hpp:77] Creating layer relu1_5
I1207 20:48:45.057294 23282 net.cpp:84] Creating Layer relu1_5
I1207 20:48:45.057297 23282 net.cpp:406] relu1_5 <- conv1_5/bn
I1207 20:48:45.057301 23282 net.cpp:367] relu1_5 -> conv1_5/bn (in-place)
I1207 20:48:45.057497 23282 net.cpp:122] Setting up relu1_5
I1207 20:48:45.057504 23282 net.cpp:129] Top shape: 1 332 19 106 (668648)
I1207 20:48:45.057507 23282 net.cpp:137] Memory required for data: 703657880
I1207 20:48:45.057510 23282 layer_factory.hpp:77] Creating layer conv1_5
I1207 20:48:45.057518 23282 net.cpp:84] Creating Layer conv1_5
I1207 20:48:45.057523 23282 net.cpp:406] conv1_5 <- conv1_5/bn
I1207 20:48:45.057526 23282 net.cpp:380] conv1_5 -> conv1_5
I1207 20:48:45.059850 23282 net.cpp:122] Setting up conv1_5
I1207 20:48:45.059865 23282 net.cpp:129] Top shape: 1 12 19 106 (24168)
I1207 20:48:45.059868 23282 net.cpp:137] Memory required for data: 703754552
I1207 20:48:45.059873 23282 layer_factory.hpp:77] Creating layer concat1_5
I1207 20:48:45.059880 23282 net.cpp:84] Creating Layer concat1_5
I1207 20:48:45.059885 23282 net.cpp:406] concat1_5 <- concat1_4_concat1_4_0_split_1
I1207 20:48:45.059888 23282 net.cpp:406] concat1_5 <- conv1_5
I1207 20:48:45.059892 23282 net.cpp:380] concat1_5 -> concat1_5
I1207 20:48:45.059939 23282 net.cpp:122] Setting up concat1_5
I1207 20:48:45.059947 23282 net.cpp:129] Top shape: 1 344 19 106 (692816)
I1207 20:48:45.059948 23282 net.cpp:137] Memory required for data: 706525816
I1207 20:48:45.059952 23282 layer_factory.hpp:77] Creating layer concat1_5_concat1_5_0_split
I1207 20:48:45.059955 23282 net.cpp:84] Creating Layer concat1_5_concat1_5_0_split
I1207 20:48:45.059958 23282 net.cpp:406] concat1_5_concat1_5_0_split <- concat1_5
I1207 20:48:45.059963 23282 net.cpp:380] concat1_5_concat1_5_0_split -> concat1_5_concat1_5_0_split_0
I1207 20:48:45.059967 23282 net.cpp:380] concat1_5_concat1_5_0_split -> concat1_5_concat1_5_0_split_1
I1207 20:48:45.060029 23282 net.cpp:122] Setting up concat1_5_concat1_5_0_split
I1207 20:48:45.060034 23282 net.cpp:129] Top shape: 1 344 19 106 (692816)
I1207 20:48:45.060037 23282 net.cpp:129] Top shape: 1 344 19 106 (692816)
I1207 20:48:45.060039 23282 net.cpp:137] Memory required for data: 712068344
I1207 20:48:45.060042 23282 layer_factory.hpp:77] Creating layer conv1_6/bn
I1207 20:48:45.060050 23282 net.cpp:84] Creating Layer conv1_6/bn
I1207 20:48:45.060053 23282 net.cpp:406] conv1_6/bn <- concat1_5_concat1_5_0_split_0
I1207 20:48:45.060058 23282 net.cpp:380] conv1_6/bn -> conv1_6/bn
I1207 20:48:45.060434 23282 net.cpp:122] Setting up conv1_6/bn
I1207 20:48:45.060441 23282 net.cpp:129] Top shape: 1 344 19 106 (692816)
I1207 20:48:45.060443 23282 net.cpp:137] Memory required for data: 714839608
I1207 20:48:45.060449 23282 layer_factory.hpp:77] Creating layer conv1_6/scale
I1207 20:48:45.060456 23282 net.cpp:84] Creating Layer conv1_6/scale
I1207 20:48:45.060459 23282 net.cpp:406] conv1_6/scale <- conv1_6/bn
I1207 20:48:45.060463 23282 net.cpp:367] conv1_6/scale -> conv1_6/bn (in-place)
I1207 20:48:45.060533 23282 layer_factory.hpp:77] Creating layer conv1_6/scale
I1207 20:48:45.060734 23282 net.cpp:122] Setting up conv1_6/scale
I1207 20:48:45.060741 23282 net.cpp:129] Top shape: 1 344 19 106 (692816)
I1207 20:48:45.060745 23282 net.cpp:137] Memory required for data: 717610872
I1207 20:48:45.060748 23282 layer_factory.hpp:77] Creating layer relu1_6
I1207 20:48:45.060753 23282 net.cpp:84] Creating Layer relu1_6
I1207 20:48:45.060756 23282 net.cpp:406] relu1_6 <- conv1_6/bn
I1207 20:48:45.060760 23282 net.cpp:367] relu1_6 -> conv1_6/bn (in-place)
I1207 20:48:45.061126 23282 net.cpp:122] Setting up relu1_6
I1207 20:48:45.061137 23282 net.cpp:129] Top shape: 1 344 19 106 (692816)
I1207 20:48:45.061141 23282 net.cpp:137] Memory required for data: 720382136
I1207 20:48:45.061143 23282 layer_factory.hpp:77] Creating layer conv1_6
I1207 20:48:45.061152 23282 net.cpp:84] Creating Layer conv1_6
I1207 20:48:45.061156 23282 net.cpp:406] conv1_6 <- conv1_6/bn
I1207 20:48:45.061161 23282 net.cpp:380] conv1_6 -> conv1_6
I1207 20:48:45.063433 23282 net.cpp:122] Setting up conv1_6
I1207 20:48:45.063444 23282 net.cpp:129] Top shape: 1 12 19 106 (24168)
I1207 20:48:45.063447 23282 net.cpp:137] Memory required for data: 720478808
I1207 20:48:45.063452 23282 layer_factory.hpp:77] Creating layer concat1_6
I1207 20:48:45.063458 23282 net.cpp:84] Creating Layer concat1_6
I1207 20:48:45.063462 23282 net.cpp:406] concat1_6 <- concat1_5_concat1_5_0_split_1
I1207 20:48:45.063467 23282 net.cpp:406] concat1_6 <- conv1_6
I1207 20:48:45.063470 23282 net.cpp:380] concat1_6 -> concat1_6
I1207 20:48:45.063515 23282 net.cpp:122] Setting up concat1_6
I1207 20:48:45.063522 23282 net.cpp:129] Top shape: 1 356 19 106 (716984)
I1207 20:48:45.063524 23282 net.cpp:137] Memory required for data: 723346744
I1207 20:48:45.063526 23282 layer_factory.hpp:77] Creating layer concat1_6_concat1_6_0_split
I1207 20:48:45.063531 23282 net.cpp:84] Creating Layer concat1_6_concat1_6_0_split
I1207 20:48:45.063534 23282 net.cpp:406] concat1_6_concat1_6_0_split <- concat1_6
I1207 20:48:45.063539 23282 net.cpp:380] concat1_6_concat1_6_0_split -> concat1_6_concat1_6_0_split_0
I1207 20:48:45.063544 23282 net.cpp:380] concat1_6_concat1_6_0_split -> concat1_6_concat1_6_0_split_1
I1207 20:48:45.063606 23282 net.cpp:122] Setting up concat1_6_concat1_6_0_split
I1207 20:48:45.063611 23282 net.cpp:129] Top shape: 1 356 19 106 (716984)
I1207 20:48:45.063614 23282 net.cpp:129] Top shape: 1 356 19 106 (716984)
I1207 20:48:45.063616 23282 net.cpp:137] Memory required for data: 729082616
I1207 20:48:45.063618 23282 layer_factory.hpp:77] Creating layer conv1_7/bn
I1207 20:48:45.063627 23282 net.cpp:84] Creating Layer conv1_7/bn
I1207 20:48:45.063629 23282 net.cpp:406] conv1_7/bn <- concat1_6_concat1_6_0_split_0
I1207 20:48:45.063634 23282 net.cpp:380] conv1_7/bn -> conv1_7/bn
I1207 20:48:45.064021 23282 net.cpp:122] Setting up conv1_7/bn
I1207 20:48:45.064028 23282 net.cpp:129] Top shape: 1 356 19 106 (716984)
I1207 20:48:45.064031 23282 net.cpp:137] Memory required for data: 731950552
I1207 20:48:45.064038 23282 layer_factory.hpp:77] Creating layer conv1_7/scale
I1207 20:48:45.064044 23282 net.cpp:84] Creating Layer conv1_7/scale
I1207 20:48:45.064047 23282 net.cpp:406] conv1_7/scale <- conv1_7/bn
I1207 20:48:45.064051 23282 net.cpp:367] conv1_7/scale -> conv1_7/bn (in-place)
I1207 20:48:45.064122 23282 layer_factory.hpp:77] Creating layer conv1_7/scale
I1207 20:48:45.064330 23282 net.cpp:122] Setting up conv1_7/scale
I1207 20:48:45.064337 23282 net.cpp:129] Top shape: 1 356 19 106 (716984)
I1207 20:48:45.064340 23282 net.cpp:137] Memory required for data: 734818488
I1207 20:48:45.064344 23282 layer_factory.hpp:77] Creating layer relu1_7
I1207 20:48:45.064349 23282 net.cpp:84] Creating Layer relu1_7
I1207 20:48:45.064352 23282 net.cpp:406] relu1_7 <- conv1_7/bn
I1207 20:48:45.064357 23282 net.cpp:367] relu1_7 -> conv1_7/bn (in-place)
I1207 20:48:45.064724 23282 net.cpp:122] Setting up relu1_7
I1207 20:48:45.064733 23282 net.cpp:129] Top shape: 1 356 19 106 (716984)
I1207 20:48:45.064736 23282 net.cpp:137] Memory required for data: 737686424
I1207 20:48:45.064739 23282 layer_factory.hpp:77] Creating layer conv1_7
I1207 20:48:45.064748 23282 net.cpp:84] Creating Layer conv1_7
I1207 20:48:45.064751 23282 net.cpp:406] conv1_7 <- conv1_7/bn
I1207 20:48:45.064757 23282 net.cpp:380] conv1_7 -> conv1_7
I1207 20:48:45.067078 23282 net.cpp:122] Setting up conv1_7
I1207 20:48:45.067090 23282 net.cpp:129] Top shape: 1 12 19 106 (24168)
I1207 20:48:45.067092 23282 net.cpp:137] Memory required for data: 737783096
I1207 20:48:45.067097 23282 layer_factory.hpp:77] Creating layer concat1_7
I1207 20:48:45.067103 23282 net.cpp:84] Creating Layer concat1_7
I1207 20:48:45.067106 23282 net.cpp:406] concat1_7 <- concat1_6_concat1_6_0_split_1
I1207 20:48:45.067111 23282 net.cpp:406] concat1_7 <- conv1_7
I1207 20:48:45.067116 23282 net.cpp:380] concat1_7 -> concat1_7
I1207 20:48:45.067162 23282 net.cpp:122] Setting up concat1_7
I1207 20:48:45.067168 23282 net.cpp:129] Top shape: 1 368 19 106 (741152)
I1207 20:48:45.067172 23282 net.cpp:137] Memory required for data: 740747704
I1207 20:48:45.067173 23282 layer_factory.hpp:77] Creating layer concat1_7_concat1_7_0_split
I1207 20:48:45.067178 23282 net.cpp:84] Creating Layer concat1_7_concat1_7_0_split
I1207 20:48:45.067180 23282 net.cpp:406] concat1_7_concat1_7_0_split <- concat1_7
I1207 20:48:45.067186 23282 net.cpp:380] concat1_7_concat1_7_0_split -> concat1_7_concat1_7_0_split_0
I1207 20:48:45.067191 23282 net.cpp:380] concat1_7_concat1_7_0_split -> concat1_7_concat1_7_0_split_1
I1207 20:48:45.067255 23282 net.cpp:122] Setting up concat1_7_concat1_7_0_split
I1207 20:48:45.067260 23282 net.cpp:129] Top shape: 1 368 19 106 (741152)
I1207 20:48:45.067263 23282 net.cpp:129] Top shape: 1 368 19 106 (741152)
I1207 20:48:45.067265 23282 net.cpp:137] Memory required for data: 746676920
I1207 20:48:45.067267 23282 layer_factory.hpp:77] Creating layer conv1_8/bn
I1207 20:48:45.067273 23282 net.cpp:84] Creating Layer conv1_8/bn
I1207 20:48:45.067276 23282 net.cpp:406] conv1_8/bn <- concat1_7_concat1_7_0_split_0
I1207 20:48:45.067281 23282 net.cpp:380] conv1_8/bn -> conv1_8/bn
I1207 20:48:45.067649 23282 net.cpp:122] Setting up conv1_8/bn
I1207 20:48:45.067656 23282 net.cpp:129] Top shape: 1 368 19 106 (741152)
I1207 20:48:45.067658 23282 net.cpp:137] Memory required for data: 749641528
I1207 20:48:45.067664 23282 layer_factory.hpp:77] Creating layer conv1_8/scale
I1207 20:48:45.067672 23282 net.cpp:84] Creating Layer conv1_8/scale
I1207 20:48:45.067674 23282 net.cpp:406] conv1_8/scale <- conv1_8/bn
I1207 20:48:45.067678 23282 net.cpp:367] conv1_8/scale -> conv1_8/bn (in-place)
I1207 20:48:45.067751 23282 layer_factory.hpp:77] Creating layer conv1_8/scale
I1207 20:48:45.067960 23282 net.cpp:122] Setting up conv1_8/scale
I1207 20:48:45.067967 23282 net.cpp:129] Top shape: 1 368 19 106 (741152)
I1207 20:48:45.067970 23282 net.cpp:137] Memory required for data: 752606136
I1207 20:48:45.067975 23282 layer_factory.hpp:77] Creating layer relu1_8
I1207 20:48:45.067981 23282 net.cpp:84] Creating Layer relu1_8
I1207 20:48:45.067983 23282 net.cpp:406] relu1_8 <- conv1_8/bn
I1207 20:48:45.067986 23282 net.cpp:367] relu1_8 -> conv1_8/bn (in-place)
I1207 20:48:45.068181 23282 net.cpp:122] Setting up relu1_8
I1207 20:48:45.068188 23282 net.cpp:129] Top shape: 1 368 19 106 (741152)
I1207 20:48:45.068193 23282 net.cpp:137] Memory required for data: 755570744
I1207 20:48:45.068197 23282 layer_factory.hpp:77] Creating layer conv1_8
I1207 20:48:45.068205 23282 net.cpp:84] Creating Layer conv1_8
I1207 20:48:45.068208 23282 net.cpp:406] conv1_8 <- conv1_8/bn
I1207 20:48:45.068214 23282 net.cpp:380] conv1_8 -> conv1_8
I1207 20:48:45.070554 23282 net.cpp:122] Setting up conv1_8
I1207 20:48:45.070564 23282 net.cpp:129] Top shape: 1 12 19 106 (24168)
I1207 20:48:45.070567 23282 net.cpp:137] Memory required for data: 755667416
I1207 20:48:45.070572 23282 layer_factory.hpp:77] Creating layer concat1_8
I1207 20:48:45.070580 23282 net.cpp:84] Creating Layer concat1_8
I1207 20:48:45.070582 23282 net.cpp:406] concat1_8 <- concat1_7_concat1_7_0_split_1
I1207 20:48:45.070586 23282 net.cpp:406] concat1_8 <- conv1_8
I1207 20:48:45.070590 23282 net.cpp:380] concat1_8 -> concat1_8
I1207 20:48:45.070637 23282 net.cpp:122] Setting up concat1_8
I1207 20:48:45.070643 23282 net.cpp:129] Top shape: 1 380 19 106 (765320)
I1207 20:48:45.070647 23282 net.cpp:137] Memory required for data: 758728696
I1207 20:48:45.070648 23282 layer_factory.hpp:77] Creating layer concat1_8_concat1_8_0_split
I1207 20:48:45.070653 23282 net.cpp:84] Creating Layer concat1_8_concat1_8_0_split
I1207 20:48:45.070657 23282 net.cpp:406] concat1_8_concat1_8_0_split <- concat1_8
I1207 20:48:45.070660 23282 net.cpp:380] concat1_8_concat1_8_0_split -> concat1_8_concat1_8_0_split_0
I1207 20:48:45.070667 23282 net.cpp:380] concat1_8_concat1_8_0_split -> concat1_8_concat1_8_0_split_1
I1207 20:48:45.070727 23282 net.cpp:122] Setting up concat1_8_concat1_8_0_split
I1207 20:48:45.070734 23282 net.cpp:129] Top shape: 1 380 19 106 (765320)
I1207 20:48:45.070736 23282 net.cpp:129] Top shape: 1 380 19 106 (765320)
I1207 20:48:45.070739 23282 net.cpp:137] Memory required for data: 764851256
I1207 20:48:45.070740 23282 layer_factory.hpp:77] Creating layer conv1_9/bn
I1207 20:48:45.070746 23282 net.cpp:84] Creating Layer conv1_9/bn
I1207 20:48:45.070749 23282 net.cpp:406] conv1_9/bn <- concat1_8_concat1_8_0_split_0
I1207 20:48:45.070755 23282 net.cpp:380] conv1_9/bn -> conv1_9/bn
I1207 20:48:45.071125 23282 net.cpp:122] Setting up conv1_9/bn
I1207 20:48:45.071132 23282 net.cpp:129] Top shape: 1 380 19 106 (765320)
I1207 20:48:45.071135 23282 net.cpp:137] Memory required for data: 767912536
I1207 20:48:45.071141 23282 layer_factory.hpp:77] Creating layer conv1_9/scale
I1207 20:48:45.071146 23282 net.cpp:84] Creating Layer conv1_9/scale
I1207 20:48:45.071149 23282 net.cpp:406] conv1_9/scale <- conv1_9/bn
I1207 20:48:45.071153 23282 net.cpp:367] conv1_9/scale -> conv1_9/bn (in-place)
I1207 20:48:45.071221 23282 layer_factory.hpp:77] Creating layer conv1_9/scale
I1207 20:48:45.071431 23282 net.cpp:122] Setting up conv1_9/scale
I1207 20:48:45.071439 23282 net.cpp:129] Top shape: 1 380 19 106 (765320)
I1207 20:48:45.071441 23282 net.cpp:137] Memory required for data: 770973816
I1207 20:48:45.071445 23282 layer_factory.hpp:77] Creating layer relu1_9
I1207 20:48:45.071450 23282 net.cpp:84] Creating Layer relu1_9
I1207 20:48:45.071454 23282 net.cpp:406] relu1_9 <- conv1_9/bn
I1207 20:48:45.071457 23282 net.cpp:367] relu1_9 -> conv1_9/bn (in-place)
I1207 20:48:45.071990 23282 net.cpp:122] Setting up relu1_9
I1207 20:48:45.072000 23282 net.cpp:129] Top shape: 1 380 19 106 (765320)
I1207 20:48:45.072002 23282 net.cpp:137] Memory required for data: 774035096
I1207 20:48:45.072005 23282 layer_factory.hpp:77] Creating layer conv1_9
I1207 20:48:45.072015 23282 net.cpp:84] Creating Layer conv1_9
I1207 20:48:45.072017 23282 net.cpp:406] conv1_9 <- conv1_9/bn
I1207 20:48:45.072023 23282 net.cpp:380] conv1_9 -> conv1_9
I1207 20:48:45.074424 23282 net.cpp:122] Setting up conv1_9
I1207 20:48:45.074434 23282 net.cpp:129] Top shape: 1 12 19 106 (24168)
I1207 20:48:45.074437 23282 net.cpp:137] Memory required for data: 774131768
I1207 20:48:45.074441 23282 layer_factory.hpp:77] Creating layer concat1_9
I1207 20:48:45.074447 23282 net.cpp:84] Creating Layer concat1_9
I1207 20:48:45.074455 23282 net.cpp:406] concat1_9 <- concat1_8_concat1_8_0_split_1
I1207 20:48:45.074458 23282 net.cpp:406] concat1_9 <- conv1_9
I1207 20:48:45.074465 23282 net.cpp:380] concat1_9 -> concat1_9
I1207 20:48:45.074512 23282 net.cpp:122] Setting up concat1_9
I1207 20:48:45.074518 23282 net.cpp:129] Top shape: 1 392 19 106 (789488)
I1207 20:48:45.074520 23282 net.cpp:137] Memory required for data: 777289720
I1207 20:48:45.074523 23282 layer_factory.hpp:77] Creating layer concat1_9_concat1_9_0_split
I1207 20:48:45.074527 23282 net.cpp:84] Creating Layer concat1_9_concat1_9_0_split
I1207 20:48:45.074530 23282 net.cpp:406] concat1_9_concat1_9_0_split <- concat1_9
I1207 20:48:45.074535 23282 net.cpp:380] concat1_9_concat1_9_0_split -> concat1_9_concat1_9_0_split_0
I1207 20:48:45.074540 23282 net.cpp:380] concat1_9_concat1_9_0_split -> concat1_9_concat1_9_0_split_1
I1207 20:48:45.074604 23282 net.cpp:122] Setting up concat1_9_concat1_9_0_split
I1207 20:48:45.074609 23282 net.cpp:129] Top shape: 1 392 19 106 (789488)
I1207 20:48:45.074611 23282 net.cpp:129] Top shape: 1 392 19 106 (789488)
I1207 20:48:45.074615 23282 net.cpp:137] Memory required for data: 783605624
I1207 20:48:45.074616 23282 layer_factory.hpp:77] Creating layer conv1_10/bn
I1207 20:48:45.074622 23282 net.cpp:84] Creating Layer conv1_10/bn
I1207 20:48:45.074626 23282 net.cpp:406] conv1_10/bn <- concat1_9_concat1_9_0_split_0
I1207 20:48:45.074631 23282 net.cpp:380] conv1_10/bn -> conv1_10/bn
I1207 20:48:45.075008 23282 net.cpp:122] Setting up conv1_10/bn
I1207 20:48:45.075014 23282 net.cpp:129] Top shape: 1 392 19 106 (789488)
I1207 20:48:45.075017 23282 net.cpp:137] Memory required for data: 786763576
I1207 20:48:45.075023 23282 layer_factory.hpp:77] Creating layer conv1_10/scale
I1207 20:48:45.075031 23282 net.cpp:84] Creating Layer conv1_10/scale
I1207 20:48:45.075033 23282 net.cpp:406] conv1_10/scale <- conv1_10/bn
I1207 20:48:45.075037 23282 net.cpp:367] conv1_10/scale -> conv1_10/bn (in-place)
I1207 20:48:45.075105 23282 layer_factory.hpp:77] Creating layer conv1_10/scale
I1207 20:48:45.075315 23282 net.cpp:122] Setting up conv1_10/scale
I1207 20:48:45.075322 23282 net.cpp:129] Top shape: 1 392 19 106 (789488)
I1207 20:48:45.075325 23282 net.cpp:137] Memory required for data: 789921528
I1207 20:48:45.075330 23282 layer_factory.hpp:77] Creating layer relu1_10
I1207 20:48:45.075335 23282 net.cpp:84] Creating Layer relu1_10
I1207 20:48:45.075337 23282 net.cpp:406] relu1_10 <- conv1_10/bn
I1207 20:48:45.075340 23282 net.cpp:367] relu1_10 -> conv1_10/bn (in-place)
I1207 20:48:45.075536 23282 net.cpp:122] Setting up relu1_10
I1207 20:48:45.075543 23282 net.cpp:129] Top shape: 1 392 19 106 (789488)
I1207 20:48:45.075546 23282 net.cpp:137] Memory required for data: 793079480
I1207 20:48:45.075549 23282 layer_factory.hpp:77] Creating layer conv1_10
I1207 20:48:45.075557 23282 net.cpp:84] Creating Layer conv1_10
I1207 20:48:45.075561 23282 net.cpp:406] conv1_10 <- conv1_10/bn
I1207 20:48:45.075565 23282 net.cpp:380] conv1_10 -> conv1_10
I1207 20:48:45.078593 23282 net.cpp:122] Setting up conv1_10
I1207 20:48:45.078605 23282 net.cpp:129] Top shape: 1 12 19 106 (24168)
I1207 20:48:45.078608 23282 net.cpp:137] Memory required for data: 793176152
I1207 20:48:45.078613 23282 layer_factory.hpp:77] Creating layer concat1_10
I1207 20:48:45.078620 23282 net.cpp:84] Creating Layer concat1_10
I1207 20:48:45.078624 23282 net.cpp:406] concat1_10 <- concat1_9_concat1_9_0_split_1
I1207 20:48:45.078629 23282 net.cpp:406] concat1_10 <- conv1_10
I1207 20:48:45.078634 23282 net.cpp:380] concat1_10 -> concat1_10
I1207 20:48:45.078680 23282 net.cpp:122] Setting up concat1_10
I1207 20:48:45.078686 23282 net.cpp:129] Top shape: 1 404 19 106 (813656)
I1207 20:48:45.078689 23282 net.cpp:137] Memory required for data: 796430776
I1207 20:48:45.078691 23282 layer_factory.hpp:77] Creating layer concat1_10_concat1_10_0_split
I1207 20:48:45.078697 23282 net.cpp:84] Creating Layer concat1_10_concat1_10_0_split
I1207 20:48:45.078701 23282 net.cpp:406] concat1_10_concat1_10_0_split <- concat1_10
I1207 20:48:45.078711 23282 net.cpp:380] concat1_10_concat1_10_0_split -> concat1_10_concat1_10_0_split_0
I1207 20:48:45.078714 23282 net.cpp:380] concat1_10_concat1_10_0_split -> concat1_10_concat1_10_0_split_1
I1207 20:48:45.078778 23282 net.cpp:122] Setting up concat1_10_concat1_10_0_split
I1207 20:48:45.078784 23282 net.cpp:129] Top shape: 1 404 19 106 (813656)
I1207 20:48:45.078788 23282 net.cpp:129] Top shape: 1 404 19 106 (813656)
I1207 20:48:45.078789 23282 net.cpp:137] Memory required for data: 802940024
I1207 20:48:45.078793 23282 layer_factory.hpp:77] Creating layer conv1_11/bn
I1207 20:48:45.078799 23282 net.cpp:84] Creating Layer conv1_11/bn
I1207 20:48:45.078800 23282 net.cpp:406] conv1_11/bn <- concat1_10_concat1_10_0_split_0
I1207 20:48:45.078804 23282 net.cpp:380] conv1_11/bn -> conv1_11/bn
I1207 20:48:45.079185 23282 net.cpp:122] Setting up conv1_11/bn
I1207 20:48:45.079192 23282 net.cpp:129] Top shape: 1 404 19 106 (813656)
I1207 20:48:45.079195 23282 net.cpp:137] Memory required for data: 806194648
I1207 20:48:45.079201 23282 layer_factory.hpp:77] Creating layer conv1_11/scale
I1207 20:48:45.079208 23282 net.cpp:84] Creating Layer conv1_11/scale
I1207 20:48:45.079211 23282 net.cpp:406] conv1_11/scale <- conv1_11/bn
I1207 20:48:45.079216 23282 net.cpp:367] conv1_11/scale -> conv1_11/bn (in-place)
I1207 20:48:45.079285 23282 layer_factory.hpp:77] Creating layer conv1_11/scale
I1207 20:48:45.079495 23282 net.cpp:122] Setting up conv1_11/scale
I1207 20:48:45.079502 23282 net.cpp:129] Top shape: 1 404 19 106 (813656)
I1207 20:48:45.079505 23282 net.cpp:137] Memory required for data: 809449272
I1207 20:48:45.079509 23282 layer_factory.hpp:77] Creating layer relu1_11
I1207 20:48:45.079514 23282 net.cpp:84] Creating Layer relu1_11
I1207 20:48:45.079516 23282 net.cpp:406] relu1_11 <- conv1_11/bn
I1207 20:48:45.079520 23282 net.cpp:367] relu1_11 -> conv1_11/bn (in-place)
I1207 20:48:45.079895 23282 net.cpp:122] Setting up relu1_11
I1207 20:48:45.079905 23282 net.cpp:129] Top shape: 1 404 19 106 (813656)
I1207 20:48:45.079907 23282 net.cpp:137] Memory required for data: 812703896
I1207 20:48:45.079910 23282 layer_factory.hpp:77] Creating layer conv1_11
I1207 20:48:45.079919 23282 net.cpp:84] Creating Layer conv1_11
I1207 20:48:45.079923 23282 net.cpp:406] conv1_11 <- conv1_11/bn
I1207 20:48:45.079928 23282 net.cpp:380] conv1_11 -> conv1_11
I1207 20:48:45.082371 23282 net.cpp:122] Setting up conv1_11
I1207 20:48:45.082383 23282 net.cpp:129] Top shape: 1 12 19 106 (24168)
I1207 20:48:45.082386 23282 net.cpp:137] Memory required for data: 812800568
I1207 20:48:45.082391 23282 layer_factory.hpp:77] Creating layer concat1_11
I1207 20:48:45.082396 23282 net.cpp:84] Creating Layer concat1_11
I1207 20:48:45.082401 23282 net.cpp:406] concat1_11 <- concat1_10_concat1_10_0_split_1
I1207 20:48:45.082403 23282 net.cpp:406] concat1_11 <- conv1_11
I1207 20:48:45.082408 23282 net.cpp:380] concat1_11 -> concat1_11
I1207 20:48:45.082456 23282 net.cpp:122] Setting up concat1_11
I1207 20:48:45.082463 23282 net.cpp:129] Top shape: 1 416 19 106 (837824)
I1207 20:48:45.082465 23282 net.cpp:137] Memory required for data: 816151864
I1207 20:48:45.082468 23282 layer_factory.hpp:77] Creating layer concat1_11_concat1_11_0_split
I1207 20:48:45.082473 23282 net.cpp:84] Creating Layer concat1_11_concat1_11_0_split
I1207 20:48:45.082474 23282 net.cpp:406] concat1_11_concat1_11_0_split <- concat1_11
I1207 20:48:45.082479 23282 net.cpp:380] concat1_11_concat1_11_0_split -> concat1_11_concat1_11_0_split_0
I1207 20:48:45.082484 23282 net.cpp:380] concat1_11_concat1_11_0_split -> concat1_11_concat1_11_0_split_1
I1207 20:48:45.082550 23282 net.cpp:122] Setting up concat1_11_concat1_11_0_split
I1207 20:48:45.082554 23282 net.cpp:129] Top shape: 1 416 19 106 (837824)
I1207 20:48:45.082558 23282 net.cpp:129] Top shape: 1 416 19 106 (837824)
I1207 20:48:45.082561 23282 net.cpp:137] Memory required for data: 822854456
I1207 20:48:45.082562 23282 layer_factory.hpp:77] Creating layer conv1_12/bn
I1207 20:48:45.082567 23282 net.cpp:84] Creating Layer conv1_12/bn
I1207 20:48:45.082572 23282 net.cpp:406] conv1_12/bn <- concat1_11_concat1_11_0_split_0
I1207 20:48:45.082578 23282 net.cpp:380] conv1_12/bn -> conv1_12/bn
I1207 20:48:45.082957 23282 net.cpp:122] Setting up conv1_12/bn
I1207 20:48:45.082963 23282 net.cpp:129] Top shape: 1 416 19 106 (837824)
I1207 20:48:45.082967 23282 net.cpp:137] Memory required for data: 826205752
I1207 20:48:45.082973 23282 layer_factory.hpp:77] Creating layer conv1_12/scale
I1207 20:48:45.082979 23282 net.cpp:84] Creating Layer conv1_12/scale
I1207 20:48:45.082986 23282 net.cpp:406] conv1_12/scale <- conv1_12/bn
I1207 20:48:45.082990 23282 net.cpp:367] conv1_12/scale -> conv1_12/bn (in-place)
I1207 20:48:45.083061 23282 layer_factory.hpp:77] Creating layer conv1_12/scale
I1207 20:48:45.083273 23282 net.cpp:122] Setting up conv1_12/scale
I1207 20:48:45.083281 23282 net.cpp:129] Top shape: 1 416 19 106 (837824)
I1207 20:48:45.083282 23282 net.cpp:137] Memory required for data: 829557048
I1207 20:48:45.083287 23282 layer_factory.hpp:77] Creating layer relu1_12
I1207 20:48:45.083292 23282 net.cpp:84] Creating Layer relu1_12
I1207 20:48:45.083295 23282 net.cpp:406] relu1_12 <- conv1_12/bn
I1207 20:48:45.083298 23282 net.cpp:367] relu1_12 -> conv1_12/bn (in-place)
I1207 20:48:45.083667 23282 net.cpp:122] Setting up relu1_12
I1207 20:48:45.083678 23282 net.cpp:129] Top shape: 1 416 19 106 (837824)
I1207 20:48:45.083681 23282 net.cpp:137] Memory required for data: 832908344
I1207 20:48:45.083684 23282 layer_factory.hpp:77] Creating layer conv1_12
I1207 20:48:45.083693 23282 net.cpp:84] Creating Layer conv1_12
I1207 20:48:45.083696 23282 net.cpp:406] conv1_12 <- conv1_12/bn
I1207 20:48:45.083701 23282 net.cpp:380] conv1_12 -> conv1_12
I1207 20:48:45.086197 23282 net.cpp:122] Setting up conv1_12
I1207 20:48:45.086210 23282 net.cpp:129] Top shape: 1 12 19 106 (24168)
I1207 20:48:45.086212 23282 net.cpp:137] Memory required for data: 833005016
I1207 20:48:45.086217 23282 layer_factory.hpp:77] Creating layer concat1_12
I1207 20:48:45.086223 23282 net.cpp:84] Creating Layer concat1_12
I1207 20:48:45.086226 23282 net.cpp:406] concat1_12 <- concat1_11_concat1_11_0_split_1
I1207 20:48:45.086232 23282 net.cpp:406] concat1_12 <- conv1_12
I1207 20:48:45.086236 23282 net.cpp:380] concat1_12 -> concat1_12
I1207 20:48:45.086287 23282 net.cpp:122] Setting up concat1_12
I1207 20:48:45.086294 23282 net.cpp:129] Top shape: 1 428 19 106 (861992)
I1207 20:48:45.086297 23282 net.cpp:137] Memory required for data: 836452984
I1207 20:48:45.086299 23282 layer_factory.hpp:77] Creating layer concat1_12_concat1_12_0_split
I1207 20:48:45.086304 23282 net.cpp:84] Creating Layer concat1_12_concat1_12_0_split
I1207 20:48:45.086308 23282 net.cpp:406] concat1_12_concat1_12_0_split <- concat1_12
I1207 20:48:45.086311 23282 net.cpp:380] concat1_12_concat1_12_0_split -> concat1_12_concat1_12_0_split_0
I1207 20:48:45.086315 23282 net.cpp:380] concat1_12_concat1_12_0_split -> concat1_12_concat1_12_0_split_1
I1207 20:48:45.086380 23282 net.cpp:122] Setting up concat1_12_concat1_12_0_split
I1207 20:48:45.086386 23282 net.cpp:129] Top shape: 1 428 19 106 (861992)
I1207 20:48:45.086390 23282 net.cpp:129] Top shape: 1 428 19 106 (861992)
I1207 20:48:45.086391 23282 net.cpp:137] Memory required for data: 843348920
I1207 20:48:45.086393 23282 layer_factory.hpp:77] Creating layer conv1_13/bn
I1207 20:48:45.086400 23282 net.cpp:84] Creating Layer conv1_13/bn
I1207 20:48:45.086402 23282 net.cpp:406] conv1_13/bn <- concat1_12_concat1_12_0_split_0
I1207 20:48:45.086407 23282 net.cpp:380] conv1_13/bn -> conv1_13/bn
I1207 20:48:45.086796 23282 net.cpp:122] Setting up conv1_13/bn
I1207 20:48:45.086802 23282 net.cpp:129] Top shape: 1 428 19 106 (861992)
I1207 20:48:45.086804 23282 net.cpp:137] Memory required for data: 846796888
I1207 20:48:45.086810 23282 layer_factory.hpp:77] Creating layer conv1_13/scale
I1207 20:48:45.086817 23282 net.cpp:84] Creating Layer conv1_13/scale
…
I1207 20:48:47.056282 23282 net.cpp:122] Setting up relu1_26
I1207 20:48:47.056293 23282 net.cpp:129] Top shape: 1 584 17 35 (347480)
I1207 20:48:47.056295 23282 net.cpp:137] Memory required for data: 352520848
I1207 20:48:47.056298 23282 layer_factory.hpp:77] Creating layer conv1_26
I1207 20:48:47.056308 23282 net.cpp:84] Creating Layer conv1_26
I1207 20:48:47.056311 23282 net.cpp:406] conv1_26 <- conv1_26/bn
I1207 20:48:47.056319 23282 net.cpp:380] conv1_26 -> conv1_26
I1207 20:48:47.060333 23282 net.cpp:122] Setting up conv1_26
I1207 20:48:47.060362 23282 net.cpp:129] Top shape: 1 12 17 35 (7140)
I1207 20:48:47.060365 23282 net.cpp:137] Memory required for data: 352549408
I1207 20:48:47.060374 23282 layer_factory.hpp:77] Creating layer concat1_26
I1207 20:48:47.060384 23282 net.cpp:84] Creating Layer concat1_26
I1207 20:48:47.060390 23282 net.cpp:406] concat1_26 <- concat1_25_concat1_25_0_split_1
I1207 20:48:47.060396 23282 net.cpp:406] concat1_26 <- conv1_26
I1207 20:48:47.060402 23282 net.cpp:380] concat1_26 -> concat1_26
I1207 20:48:47.060451 23282 net.cpp:122] Setting up concat1_26
I1207 20:48:47.060458 23282 net.cpp:129] Top shape: 1 596 17 35 (354620)
I1207 20:48:47.060461 23282 net.cpp:137] Memory required for data: 353967888
I1207 20:48:47.060463 23282 layer_factory.hpp:77] Creating layer concat1_26_concat1_26_0_split
I1207 20:48:47.060470 23282 net.cpp:84] Creating Layer concat1_26_concat1_26_0_split
I1207 20:48:47.060473 23282 net.cpp:406] concat1_26_concat1_26_0_split <- concat1_26
I1207 20:48:47.060477 23282 net.cpp:380] concat1_26_concat1_26_0_split -> concat1_26_concat1_26_0_split_0
I1207 20:48:47.060482 23282 net.cpp:380] concat1_26_concat1_26_0_split -> concat1_26_concat1_26_0_split_1
I1207 20:48:47.060536 23282 net.cpp:122] Setting up concat1_26_concat1_26_0_split
I1207 20:48:47.060541 23282 net.cpp:129] Top shape: 1 596 17 35 (354620)
I1207 20:48:47.060545 23282 net.cpp:129] Top shape: 1 596 17 35 (354620)
I1207 20:48:47.060547 23282 net.cpp:137] Memory required for data: 356804848
I1207 20:48:47.060549 23282 layer_factory.hpp:77] Creating layer conv1_27/bn
I1207 20:48:47.060556 23282 net.cpp:84] Creating Layer conv1_27/bn
I1207 20:48:47.060559 23282 net.cpp:406] conv1_27/bn <- concat1_26_concat1_26_0_split_0
I1207 20:48:47.060564 23282 net.cpp:380] conv1_27/bn -> conv1_27/bn
I1207 20:48:47.061015 23282 net.cpp:122] Setting up conv1_27/bn
I1207 20:48:47.061023 23282 net.cpp:129] Top shape: 1 596 17 35 (354620)
I1207 20:48:47.061025 23282 net.cpp:137] Memory required for data: 358223328
I1207 20:48:47.061033 23282 layer_factory.hpp:77] Creating layer conv1_27/scale
I1207 20:48:47.061041 23282 net.cpp:84] Creating Layer conv1_27/scale
I1207 20:48:47.061044 23282 net.cpp:406] conv1_27/scale <- conv1_27/bn
I1207 20:48:47.061048 23282 net.cpp:367] conv1_27/scale -> conv1_27/bn (in-place)
I1207 20:48:47.061143 23282 layer_factory.hpp:77] Creating layer conv1_27/scale
I1207 20:48:47.061427 23282 net.cpp:122] Setting up conv1_27/scale
I1207 20:48:47.061434 23282 net.cpp:129] Top shape: 1 596 17 35 (354620)
I1207 20:48:47.061436 23282 net.cpp:137] Memory required for data: 359641808
I1207 20:48:47.061441 23282 layer_factory.hpp:77] Creating layer relu1_27
I1207 20:48:47.061447 23282 net.cpp:84] Creating Layer relu1_27
I1207 20:48:47.061450 23282 net.cpp:406] relu1_27 <- conv1_27/bn
I1207 20:48:47.061455 23282 net.cpp:367] relu1_27 -> conv1_27/bn (in-place)
I1207 20:48:47.062001 23282 net.cpp:122] Setting up relu1_27
I1207 20:48:47.062011 23282 net.cpp:129] Top shape: 1 596 17 35 (354620)
I1207 20:48:47.062014 23282 net.cpp:137] Memory required for data: 361060288
I1207 20:48:47.062017 23282 layer_factory.hpp:77] Creating layer conv1_27
I1207 20:48:47.062027 23282 net.cpp:84] Creating Layer conv1_27
I1207 20:48:47.062031 23282 net.cpp:406] conv1_27 <- conv1_27/bn
I1207 20:48:47.062037 23282 net.cpp:380] conv1_27 -> conv1_27
I1207 20:48:47.065392 23282 net.cpp:122] Setting up conv1_27
I1207 20:48:47.065413 23282 net.cpp:129] Top shape: 1 12 17 35 (7140)
I1207 20:48:47.065416 23282 net.cpp:137] Memory required for data: 361088848
I1207 20:48:47.065425 23282 layer_factory.hpp:77] Creating layer concat1_27
I1207 20:48:47.065434 23282 net.cpp:84] Creating Layer concat1_27
I1207 20:48:47.065439 23282 net.cpp:406] concat1_27 <- concat1_26_concat1_26_0_split_1
I1207 20:48:47.065445 23282 net.cpp:406] concat1_27 <- conv1_27
I1207 20:48:47.065450 23282 net.cpp:380] concat1_27 -> concat1_27
I1207 20:48:47.065497 23282 net.cpp:122] Setting up concat1_27
I1207 20:48:47.065505 23282 net.cpp:129] Top shape: 1 608 17 35 (361760)
I1207 20:48:47.065506 23282 net.cpp:137] Memory required for data: 362535888
I1207 20:48:47.065510 23282 layer_factory.hpp:77] Creating layer concat1_27_concat1_27_0_split
I1207 20:48:47.065515 23282 net.cpp:84] Creating Layer concat1_27_concat1_27_0_split
I1207 20:48:47.065517 23282 net.cpp:406] concat1_27_concat1_27_0_split <- concat1_27
I1207 20:48:47.065522 23282 net.cpp:380] concat1_27_concat1_27_0_split -> concat1_27_concat1_27_0_split_0
I1207 20:48:47.065527 23282 net.cpp:380] concat1_27_concat1_27_0_split -> concat1_27_concat1_27_0_split_1
I1207 20:48:47.065579 23282 net.cpp:122] Setting up concat1_27_concat1_27_0_split
I1207 20:48:47.065584 23282 net.cpp:129] Top shape: 1 608 17 35 (361760)
I1207 20:48:47.065588 23282 net.cpp:129] Top shape: 1 608 17 35 (361760)
I1207 20:48:47.065590 23282 net.cpp:137] Memory required for data: 365429968
I1207 20:48:47.065593 23282 layer_factory.hpp:77] Creating layer conv1_28/bn
I1207 20:48:47.065598 23282 net.cpp:84] Creating Layer conv1_28/bn
I1207 20:48:47.065603 23282 net.cpp:406] conv1_28/bn <- concat1_27_concat1_27_0_split_0
I1207 20:48:47.065606 23282 net.cpp:380] conv1_28/bn -> conv1_28/bn
I1207 20:48:47.066041 23282 net.cpp:122] Setting up conv1_28/bn
I1207 20:48:47.066048 23282 net.cpp:129] Top shape: 1 608 17 35 (361760)
I1207 20:48:47.066051 23282 net.cpp:137] Memory required for data: 366877008
I1207 20:48:47.066056 23282 layer_factory.hpp:77] Creating layer conv1_28/scale
I1207 20:48:47.066063 23282 net.cpp:84] Creating Layer conv1_28/scale
I1207 20:48:47.066066 23282 net.cpp:406] conv1_28/scale <- conv1_28/bn
I1207 20:48:47.066071 23282 net.cpp:367] conv1_28/scale -> conv1_28/bn (in-place)
I1207 20:48:47.066162 23282 layer_factory.hpp:77] Creating layer conv1_28/scale
I1207 20:48:47.066447 23282 net.cpp:122] Setting up conv1_28/scale
I1207 20:48:47.066454 23282 net.cpp:129] Top shape: 1 608 17 35 (361760)
I1207 20:48:47.066457 23282 net.cpp:137] Memory required for data: 368324048
I1207 20:48:47.066462 23282 layer_factory.hpp:77] Creating layer relu1_28
I1207 20:48:47.066468 23282 net.cpp:84] Creating Layer relu1_28
I1207 20:48:47.066471 23282 net.cpp:406] relu1_28 <- conv1_28/bn
I1207 20:48:47.066475 23282 net.cpp:367] relu1_28 -> conv1_28/bn (in-place)
I1207 20:48:47.066718 23282 net.cpp:122] Setting up relu1_28
I1207 20:48:47.066726 23282 net.cpp:129] Top shape: 1 608 17 35 (361760)
I1207 20:48:47.066728 23282 net.cpp:137] Memory required for data: 369771088
I1207 20:48:47.066731 23282 layer_factory.hpp:77] Creating layer conv1_28
I1207 20:48:47.066740 23282 net.cpp:84] Creating Layer conv1_28
I1207 20:48:47.066745 23282 net.cpp:406] conv1_28 <- conv1_28/bn
I1207 20:48:47.066748 23282 net.cpp:380] conv1_28 -> conv1_28
I1207 20:48:47.070696 23282 net.cpp:122] Setting up conv1_28
I1207 20:48:47.070715 23282 net.cpp:129] Top shape: 1 12 17 35 (7140)
I1207 20:48:47.070719 23282 net.cpp:137] Memory required for data: 369799648
I1207 20:48:47.070724 23282 layer_factory.hpp:77] Creating layer concat1_28
I1207 20:48:47.070732 23282 net.cpp:84] Creating Layer concat1_28
I1207 20:48:47.070737 23282 net.cpp:406] concat1_28 <- concat1_27_concat1_27_0_split_1
I1207 20:48:47.070744 23282 net.cpp:406] concat1_28 <- conv1_28
I1207 20:48:47.070749 23282 net.cpp:380] concat1_28 -> concat1_28
I1207 20:48:47.070792 23282 net.cpp:122] Setting up concat1_28
I1207 20:48:47.070798 23282 net.cpp:129] Top shape: 1 620 17 35 (368900)
I1207 20:48:47.070801 23282 net.cpp:137] Memory required for data: 371275248
I1207 20:48:47.070803 23282 layer_factory.hpp:77] Creating layer concat1_28_concat1_28_0_split
I1207 20:48:47.070808 23282 net.cpp:84] Creating Layer concat1_28_concat1_28_0_split
I1207 20:48:47.070811 23282 net.cpp:406] concat1_28_concat1_28_0_split <- concat1_28
I1207 20:48:47.070816 23282 net.cpp:380] concat1_28_concat1_28_0_split -> concat1_28_concat1_28_0_split_0
I1207 20:48:47.070821 23282 net.cpp:380] concat1_28_concat1_28_0_split -> concat1_28_concat1_28_0_split_1
I1207 20:48:47.070889 23282 net.cpp:122] Setting up concat1_28_concat1_28_0_split
I1207 20:48:47.070896 23282 net.cpp:129] Top shape: 1 620 17 35 (368900)
I1207 20:48:47.070901 23282 net.cpp:129] Top shape: 1 620 17 35 (368900)
I1207 20:48:47.070904 23282 net.cpp:137] Memory required for data: 374226448
I1207 20:48:47.070906 23282 layer_factory.hpp:77] Creating layer conv1_29/bn
I1207 20:48:47.070911 23282 net.cpp:84] Creating Layer conv1_29/bn
I1207 20:48:47.070914 23282 net.cpp:406] conv1_29/bn <- concat1_28_concat1_28_0_split_0
I1207 20:48:47.070920 23282 net.cpp:380] conv1_29/bn -> conv1_29/bn
I1207 20:48:47.071362 23282 net.cpp:122] Setting up conv1_29/bn
I1207 20:48:47.071369 23282 net.cpp:129] Top shape: 1 620 17 35 (368900)
I1207 20:48:47.071372 23282 net.cpp:137] Memory required for data: 375702048
I1207 20:48:47.071377 23282 layer_factory.hpp:77] Creating layer conv1_29/scale
I1207 20:48:47.071384 23282 net.cpp:84] Creating Layer conv1_29/scale
I1207 20:48:47.071388 23282 net.cpp:406] conv1_29/scale <- conv1_29/bn
I1207 20:48:47.071393 23282 net.cpp:367] conv1_29/scale -> conv1_29/bn (in-place)
I1207 20:48:47.071485 23282 layer_factory.hpp:77] Creating layer conv1_29/scale
I1207 20:48:47.071776 23282 net.cpp:122] Setting up conv1_29/scale
I1207 20:48:47.071784 23282 net.cpp:129] Top shape: 1 620 17 35 (368900)
I1207 20:48:47.071785 23282 net.cpp:137] Memory required for data: 377177648
I1207 20:48:47.071790 23282 layer_factory.hpp:77] Creating layer relu1_29
I1207 20:48:47.071797 23282 net.cpp:84] Creating Layer relu1_29
I1207 20:48:47.071800 23282 net.cpp:406] relu1_29 <- conv1_29/bn
I1207 20:48:47.071804 23282 net.cpp:367] relu1_29 -> conv1_29/bn (in-place)
I1207 20:48:47.072264 23282 net.cpp:122] Setting up relu1_29
I1207 20:48:47.072275 23282 net.cpp:129] Top shape: 1 620 17 35 (368900)
I1207 20:48:47.072278 23282 net.cpp:137] Memory required for data: 378653248
I1207 20:48:47.072281 23282 layer_factory.hpp:77] Creating layer conv1_29
I1207 20:48:47.072293 23282 net.cpp:84] Creating Layer conv1_29
I1207 20:48:47.072298 23282 net.cpp:406] conv1_29 <- conv1_29/bn
I1207 20:48:47.072304 23282 net.cpp:380] conv1_29 -> conv1_29
I1207 20:48:47.075767 23282 net.cpp:122] Setting up conv1_29
I1207 20:48:47.075783 23282 net.cpp:129] Top shape: 1 12 17 35 (7140)
I1207 20:48:47.075786 23282 net.cpp:137] Memory required for data: 378681808
I1207 20:48:47.075793 23282 layer_factory.hpp:77] Creating layer concat1_29
I1207 20:48:47.075800 23282 net.cpp:84] Creating Layer concat1_29
I1207 20:48:47.075804 23282 net.cpp:406] concat1_29 <- concat1_28_concat1_28_0_split_1
I1207 20:48:47.075809 23282 net.cpp:406] concat1_29 <- conv1_29
I1207 20:48:47.075814 23282 net.cpp:380] concat1_29 -> concat1_29
I1207 20:48:47.075857 23282 net.cpp:122] Setting up concat1_29
I1207 20:48:47.075863 23282 net.cpp:129] Top shape: 1 632 17 35 (376040)
I1207 20:48:47.075866 23282 net.cpp:137] Memory required for data: 380185968
I1207 20:48:47.075868 23282 layer_factory.hpp:77] Creating layer concat1_29_concat1_29_0_split
I1207 20:48:47.075875 23282 net.cpp:84] Creating Layer concat1_29_concat1_29_0_split
I1207 20:48:47.075877 23282 net.cpp:406] concat1_29_concat1_29_0_split <- concat1_29
I1207 20:48:47.075881 23282 net.cpp:380] concat1_29_concat1_29_0_split -> concat1_29_concat1_29_0_split_0
I1207 20:48:47.075886 23282 net.cpp:380] concat1_29_concat1_29_0_split -> concat1_29_concat1_29_0_split_1
I1207 20:48:47.075940 23282 net.cpp:122] Setting up concat1_29_concat1_29_0_split
I1207 20:48:47.075945 23282 net.cpp:129] Top shape: 1 632 17 35 (376040)
I1207 20:48:47.075948 23282 net.cpp:129] Top shape: 1 632 17 35 (376040)
I1207 20:48:47.075950 23282 net.cpp:137] Memory required for data: 383194288
I1207 20:48:47.075953 23282 layer_factory.hpp:77] Creating layer conv1_30/bn
I1207 20:48:47.075963 23282 net.cpp:84] Creating Layer conv1_30/bn
I1207 20:48:47.075965 23282 net.cpp:406] conv1_30/bn <- concat1_29_concat1_29_0_split_0
I1207 20:48:47.075970 23282 net.cpp:380] conv1_30/bn -> conv1_30/bn
I1207 20:48:47.076411 23282 net.cpp:122] Setting up conv1_30/bn
I1207 20:48:47.076422 23282 net.cpp:129] Top shape: 1 632 17 35 (376040)
I1207 20:48:47.076424 23282 net.cpp:137] Memory required for data: 384698448
I1207 20:48:47.076431 23282 layer_factory.hpp:77] Creating layer conv1_30/scale
I1207 20:48:47.076438 23282 net.cpp:84] Creating Layer conv1_30/scale
I1207 20:48:47.076442 23282 net.cpp:406] conv1_30/scale <- conv1_30/bn
I1207 20:48:47.076445 23282 net.cpp:367] conv1_30/scale -> conv1_30/bn (in-place)
I1207 20:48:47.076541 23282 layer_factory.hpp:77] Creating layer conv1_30/scale
I1207 20:48:47.076835 23282 net.cpp:122] Setting up conv1_30/scale
I1207 20:48:47.076843 23282 net.cpp:129] Top shape: 1 632 17 35 (376040)
I1207 20:48:47.076844 23282 net.cpp:137] Memory required for data: 386202608
I1207 20:48:47.076849 23282 layer_factory.hpp:77] Creating layer relu1_30
I1207 20:48:47.076854 23282 net.cpp:84] Creating Layer relu1_30
I1207 20:48:47.076858 23282 net.cpp:406] relu1_30 <- conv1_30/bn
I1207 20:48:47.076863 23282 net.cpp:367] relu1_30 -> conv1_30/bn (in-place)
I1207 20:48:47.077109 23282 net.cpp:122] Setting up relu1_30
I1207 20:48:47.077117 23282 net.cpp:129] Top shape: 1 632 17 35 (376040)
I1207 20:48:47.077121 23282 net.cpp:137] Memory required for data: 387706768
I1207 20:48:47.077123 23282 layer_factory.hpp:77] Creating layer conv1_30
I1207 20:48:47.077132 23282 net.cpp:84] Creating Layer conv1_30
I1207 20:48:47.077136 23282 net.cpp:406] conv1_30 <- conv1_30/bn
I1207 20:48:47.077142 23282 net.cpp:380] conv1_30 -> conv1_30
I1207 20:48:47.080487 23282 net.cpp:122] Setting up conv1_30
I1207 20:48:47.080502 23282 net.cpp:129] Top shape: 1 12 17 35 (7140)
I1207 20:48:47.080505 23282 net.cpp:137] Memory required for data: 387735328
I1207 20:48:47.080510 23282 layer_factory.hpp:77] Creating layer concat1_30
I1207 20:48:47.080516 23282 net.cpp:84] Creating Layer concat1_30
I1207 20:48:47.080521 23282 net.cpp:406] concat1_30 <- concat1_29_concat1_29_0_split_1
I1207 20:48:47.080526 23282 net.cpp:406] concat1_30 <- conv1_30
I1207 20:48:47.080533 23282 net.cpp:380] concat1_30 -> concat1_30
I1207 20:48:47.080574 23282 net.cpp:122] Setting up concat1_30
I1207 20:48:47.080581 23282 net.cpp:129] Top shape: 1 644 17 35 (383180)
I1207 20:48:47.080584 23282 net.cpp:137] Memory required for data: 389268048
I1207 20:48:47.080586 23282 layer_factory.hpp:77] Creating layer concat1_30_concat1_30_0_split
I1207 20:48:47.080590 23282 net.cpp:84] Creating Layer concat1_30_concat1_30_0_split
I1207 20:48:47.080595 23282 net.cpp:406] concat1_30_concat1_30_0_split <- concat1_30
I1207 20:48:47.080602 23282 net.cpp:380] concat1_30_concat1_30_0_split -> concat1_30_concat1_30_0_split_0
I1207 20:48:47.080607 23282 net.cpp:380] concat1_30_concat1_30_0_split -> concat1_30_concat1_30_0_split_1
I1207 20:48:47.080662 23282 net.cpp:122] Setting up concat1_30_concat1_30_0_split
I1207 20:48:47.080668 23282 net.cpp:129] Top shape: 1 644 17 35 (383180)
I1207 20:48:47.080672 23282 net.cpp:129] Top shape: 1 644 17 35 (383180)
I1207 20:48:47.080674 23282 net.cpp:137] Memory required for data: 392333488
I1207 20:48:47.080677 23282 layer_factory.hpp:77] Creating layer conv1_31/bn
I1207 20:48:47.080682 23282 net.cpp:84] Creating Layer conv1_31/bn
I1207 20:48:47.080685 23282 net.cpp:406] conv1_31/bn <- concat1_30_concat1_30_0_split_0
I1207 20:48:47.080689 23282 net.cpp:380] conv1_31/bn -> conv1_31/bn
I1207 20:48:47.081147 23282 net.cpp:122] Setting up conv1_31/bn
I1207 20:48:47.081156 23282 net.cpp:129] Top shape: 1 644 17 35 (383180)
I1207 20:48:47.081158 23282 net.cpp:137] Memory required for data: 393866208
I1207 20:48:47.081166 23282 layer_factory.hpp:77] Creating layer conv1_31/scale
I1207 20:48:47.081173 23282 net.cpp:84] Creating Layer conv1_31/scale
I1207 20:48:47.081176 23282 net.cpp:406] conv1_31/scale <- conv1_31/bn
I1207 20:48:47.081181 23282 net.cpp:367] conv1_31/scale -> conv1_31/bn (in-place)
I1207 20:48:47.081276 23282 layer_factory.hpp:77] Creating layer conv1_31/scale
I1207 20:48:47.081573 23282 net.cpp:122] Setting up conv1_31/scale
I1207 20:48:47.081581 23282 net.cpp:129] Top shape: 1 644 17 35 (383180)
I1207 20:48:47.081588 23282 net.cpp:137] Memory required for data: 395398928
I1207 20:48:47.081593 23282 layer_factory.hpp:77] Creating layer relu1_31
I1207 20:48:47.081599 23282 net.cpp:84] Creating Layer relu1_31
I1207 20:48:47.081603 23282 net.cpp:406] relu1_31 <- conv1_31/bn
I1207 20:48:47.081606 23282 net.cpp:367] relu1_31 -> conv1_31/bn (in-place)
I1207 20:48:47.082242 23282 net.cpp:122] Setting up relu1_31
I1207 20:48:47.082254 23282 net.cpp:129] Top shape: 1 644 17 35 (383180)
I1207 20:48:47.082257 23282 net.cpp:137] Memory required for data: 396931648
I1207 20:48:47.082260 23282 layer_factory.hpp:77] Creating layer conv1_31
I1207 20:48:47.082271 23282 net.cpp:84] Creating Layer conv1_31
I1207 20:48:47.082274 23282 net.cpp:406] conv1_31 <- conv1_31/bn
I1207 20:48:47.082280 23282 net.cpp:380] conv1_31 -> conv1_31
I1207 20:48:47.086490 23282 net.cpp:122] Setting up conv1_31
I1207 20:48:47.086516 23282 net.cpp:129] Top shape: 1 12 17 35 (7140)
I1207 20:48:47.086519 23282 net.cpp:137] Memory required for data: 396960208
I1207 20:48:47.086527 23282 layer_factory.hpp:77] Creating layer concat1_31
I1207 20:48:47.086537 23282 net.cpp:84] Creating Layer concat1_31
I1207 20:48:47.086544 23282 net.cpp:406] concat1_31 <- concat1_30_concat1_30_0_split_1
I1207 20:48:47.086550 23282 net.cpp:406] concat1_31 <- conv1_31
I1207 20:48:47.086556 23282 net.cpp:380] concat1_31 -> concat1_31
I1207 20:48:47.086602 23282 net.cpp:122] Setting up concat1_31
I1207 20:48:47.086609 23282 net.cpp:129] Top shape: 1 656 17 35 (390320)
I1207 20:48:47.086611 23282 net.cpp:137] Memory required for data: 398521488
I1207 20:48:47.086614 23282 layer_factory.hpp:77] Creating layer concat1_31_concat1_31_0_split
I1207 20:48:47.086619 23282 net.cpp:84] Creating Layer concat1_31_concat1_31_0_split
I1207 20:48:47.086622 23282 net.cpp:406] concat1_31_concat1_31_0_split <- concat1_31
I1207 20:48:47.086627 23282 net.cpp:380] concat1_31_concat1_31_0_split -> concat1_31_concat1_31_0_split_0
I1207 20:48:47.086632 23282 net.cpp:380] concat1_31_concat1_31_0_split -> concat1_31_concat1_31_0_split_1
I1207 20:48:47.086686 23282 net.cpp:122] Setting up concat1_31_concat1_31_0_split
I1207 20:48:47.086693 23282 net.cpp:129] Top shape: 1 656 17 35 (390320)
I1207 20:48:47.086695 23282 net.cpp:129] Top shape: 1 656 17 35 (390320)
I1207 20:48:47.086697 23282 net.cpp:137] Memory required for data: 401644048
I1207 20:48:47.086700 23282 layer_factory.hpp:77] Creating layer conv1_32/bn
I1207 20:48:47.086706 23282 net.cpp:84] Creating Layer conv1_32/bn
I1207 20:48:47.086709 23282 net.cpp:406] conv1_32/bn <- concat1_31_concat1_31_0_split_0
I1207 20:48:47.086714 23282 net.cpp:380] conv1_32/bn -> conv1_32/bn
I1207 20:48:47.087190 23282 net.cpp:122] Setting up conv1_32/bn
I1207 20:48:47.087198 23282 net.cpp:129] Top shape: 1 656 17 35 (390320)
I1207 20:48:47.087200 23282 net.cpp:137] Memory required for data: 403205328
I1207 20:48:47.087208 23282 layer_factory.hpp:77] Creating layer conv1_32/scale
I1207 20:48:47.087215 23282 net.cpp:84] Creating Layer conv1_32/scale
I1207 20:48:47.087219 23282 net.cpp:406] conv1_32/scale <- conv1_32/bn
I1207 20:48:47.087224 23282 net.cpp:367] conv1_32/scale -> conv1_32/bn (in-place)
I1207 20:48:47.087317 23282 layer_factory.hpp:77] Creating layer conv1_32/scale
I1207 20:48:47.087616 23282 net.cpp:122] Setting up conv1_32/scale
I1207 20:48:47.087623 23282 net.cpp:129] Top shape: 1 656 17 35 (390320)
I1207 20:48:47.087626 23282 net.cpp:137] Memory required for data: 404766608
I1207 20:48:47.087631 23282 layer_factory.hpp:77] Creating layer relu1_32
I1207 20:48:47.087636 23282 net.cpp:84] Creating Layer relu1_32
I1207 20:48:47.087640 23282 net.cpp:406] relu1_32 <- conv1_32/bn
I1207 20:48:47.087643 23282 net.cpp:367] relu1_32 -> conv1_32/bn (in-place)
I1207 20:48:47.088165 23282 net.cpp:122] Setting up relu1_32
I1207 20:48:47.088176 23282 net.cpp:129] Top shape: 1 656 17 35 (390320)
I1207 20:48:47.088177 23282 net.cpp:137] Memory required for data: 406327888
I1207 20:48:47.088181 23282 layer_factory.hpp:77] Creating layer conv1_32
I1207 20:48:47.088194 23282 net.cpp:84] Creating Layer conv1_32
I1207 20:48:47.088198 23282 net.cpp:406] conv1_32 <- conv1_32/bn
I1207 20:48:47.088204 23282 net.cpp:380] conv1_32 -> conv1_32
I1207 20:48:47.091637 23282 net.cpp:122] Setting up conv1_32
I1207 20:48:47.091652 23282 net.cpp:129] Top shape: 1 12 17 35 (7140)
I1207 20:48:47.091655 23282 net.cpp:137] Memory required for data: 406356448
I1207 20:48:47.091661 23282 layer_factory.hpp:77] Creating layer concat1_32
I1207 20:48:47.091670 23282 net.cpp:84] Creating Layer concat1_32
I1207 20:48:47.091673 23282 net.cpp:406] concat1_32 <- concat1_31_concat1_31_0_split_1
I1207 20:48:47.091678 23282 net.cpp:406] concat1_32 <- conv1_32
I1207 20:48:47.091682 23282 net.cpp:380] concat1_32 -> concat1_32
I1207 20:48:47.091727 23282 net.cpp:122] Setting up concat1_32
I1207 20:48:47.091732 23282 net.cpp:129] Top shape: 1 668 17 35 (397460)
I1207 20:48:47.091734 23282 net.cpp:137] Memory required for data: 407946288
I1207 20:48:47.091737 23282 layer_factory.hpp:77] Creating layer concat1_32_concat1_32_0_split
I1207 20:48:47.091742 23282 net.cpp:84] Creating Layer concat1_32_concat1_32_0_split
I1207 20:48:47.091745 23282 net.cpp:406] concat1_32_concat1_32_0_split <- concat1_32
I1207 20:48:47.091755 23282 net.cpp:380] concat1_32_concat1_32_0_split -> concat1_32_concat1_32_0_split_0
I1207 20:48:47.091761 23282 net.cpp:380] concat1_32_concat1_32_0_split -> concat1_32_concat1_32_0_split_1
I1207 20:48:47.091819 23282 net.cpp:122] Setting up concat1_32_concat1_32_0_split
I1207 20:48:47.091823 23282 net.cpp:129] Top shape: 1 668 17 35 (397460)
I1207 20:48:47.091826 23282 net.cpp:129] Top shape: 1 668 17 35 (397460)
I1207 20:48:47.091830 23282 net.cpp:137] Memory required for data: 411125968
I1207 20:48:47.091831 23282 layer_factory.hpp:77] Creating layer conv1_33/bn
I1207 20:48:47.091837 23282 net.cpp:84] Creating Layer conv1_33/bn
I1207 20:48:47.091840 23282 net.cpp:406] conv1_33/bn <- concat1_32_concat1_32_0_split_0
I1207 20:48:47.091846 23282 net.cpp:380] conv1_33/bn -> conv1_33/bn
I1207 20:48:47.092309 23282 net.cpp:122] Setting up conv1_33/bn
I1207 20:48:47.092317 23282 net.cpp:129] Top shape: 1 668 17 35 (397460)
I1207 20:48:47.092320 23282 net.cpp:137] Memory required for data: 412715808
I1207 20:48:47.092326 23282 layer_factory.hpp:77] Creating layer conv1_33/scale
I1207 20:48:47.092334 23282 net.cpp:84] Creating Layer conv1_33/scale
I1207 20:48:47.092336 23282 net.cpp:406] conv1_33/scale <- conv1_33/bn
I1207 20:48:47.092341 23282 net.cpp:367] conv1_33/scale -> conv1_33/bn (in-place)
I1207 20:48:47.092437 23282 layer_factory.hpp:77] Creating layer conv1_33/scale
I1207 20:48:47.093355 23282 net.cpp:122] Setting up conv1_33/scale
I1207 20:48:47.093365 23282 net.cpp:129] Top shape: 1 668 17 35 (397460)
I1207 20:48:47.093369 23282 net.cpp:137] Memory required for data: 414305648
I1207 20:48:47.093374 23282 layer_factory.hpp:77] Creating layer relu1_33
I1207 20:48:47.093379 23282 net.cpp:84] Creating Layer relu1_33
I1207 20:48:47.093384 23282 net.cpp:406] relu1_33 <- conv1_33/bn
I1207 20:48:47.093387 23282 net.cpp:367] relu1_33 -> conv1_33/bn (in-place)
I1207 20:48:47.093642 23282 net.cpp:122] Setting up relu1_33
I1207 20:48:47.093650 23282 net.cpp:129] Top shape: 1 668 17 35 (397460)
I1207 20:48:47.093653 23282 net.cpp:137] Memory required for data: 415895488
I1207 20:48:47.093657 23282 layer_factory.hpp:77] Creating layer conv1_33
I1207 20:48:47.093665 23282 net.cpp:84] Creating Layer conv1_33
I1207 20:48:47.093668 23282 net.cpp:406] conv1_33 <- conv1_33/bn
I1207 20:48:47.093673 23282 net.cpp:380] conv1_33 -> conv1_33
I1207 20:48:47.097182 23282 net.cpp:122] Setting up conv1_33
I1207 20:48:47.097200 23282 net.cpp:129] Top shape: 1 12 17 35 (7140)
I1207 20:48:47.097203 23282 net.cpp:137] Memory required for data: 415924048
I1207 20:48:47.097209 23282 layer_factory.hpp:77] Creating layer concat1_33
I1207 20:48:47.097218 23282 net.cpp:84] Creating Layer concat1_33
I1207 20:48:47.097223 23282 net.cpp:406] concat1_33 <- concat1_32_concat1_32_0_split_1
I1207 20:48:47.097231 23282 net.cpp:406] concat1_33 <- conv1_33
I1207 20:48:47.097237 23282 net.cpp:380] concat1_33 -> concat1_33
I1207 20:48:47.097281 23282 net.cpp:122] Setting up concat1_33
I1207 20:48:47.097288 23282 net.cpp:129] Top shape: 1 680 17 35 (404600)
I1207 20:48:47.097290 23282 net.cpp:137] Memory required for data: 417542448
I1207 20:48:47.097293 23282 layer_factory.hpp:77] Creating layer concat1_33_concat1_33_0_split
I1207 20:48:47.097298 23282 net.cpp:84] Creating Layer concat1_33_concat1_33_0_split
I1207 20:48:47.097301 23282 net.cpp:406] concat1_33_concat1_33_0_split <- concat1_33
I1207 20:48:47.097306 23282 net.cpp:380] concat1_33_concat1_33_0_split -> concat1_33_concat1_33_0_split_0
I1207 20:48:47.097311 23282 net.cpp:380] concat1_33_concat1_33_0_split -> concat1_33_concat1_33_0_split_1
I1207 20:48:47.097365 23282 net.cpp:122] Setting up concat1_33_concat1_33_0_split
I1207 20:48:47.097371 23282 net.cpp:129] Top shape: 1 680 17 35 (404600)
I1207 20:48:47.097374 23282 net.cpp:129] Top shape: 1 680 17 35 (404600)
I1207 20:48:47.097376 23282 net.cpp:137] Memory required for data: 420779248
I1207 20:48:47.097378 23282 layer_factory.hpp:77] Creating layer conv1_34/bn
I1207 20:48:47.097384 23282 net.cpp:84] Creating Layer conv1_34/bn
I1207 20:48:47.097388 23282 net.cpp:406] conv1_34/bn <- concat1_33_concat1_33_0_split_0
I1207 20:48:47.097391 23282 net.cpp:380] conv1_34/bn -> conv1_34/bn
I1207 20:48:47.097739 23282 net.cpp:122] Setting up conv1_34/bn
I1207 20:48:47.097745 23282 net.cpp:129] Top shape: 1 680 17 35 (404600)
I1207 20:48:47.097748 23282 net.cpp:137] Memory required for data: 422397648
I1207 20:48:47.097754 23282 layer_factory.hpp:77] Creating layer conv1_34/scale
I1207 20:48:47.097761 23282 net.cpp:84] Creating Layer conv1_34/scale
I1207 20:48:47.097764 23282 net.cpp:406] conv1_34/scale <- conv1_34/bn
I1207 20:48:47.097769 23282 net.cpp:367] conv1_34/scale -> conv1_34/bn (in-place)
I1207 20:48:47.097828 23282 layer_factory.hpp:77] Creating layer conv1_34/scale
I1207 20:48:47.098014 23282 net.cpp:122] Setting up conv1_34/scale
I1207 20:48:47.098021 23282 net.cpp:129] Top shape: 1 680 17 35 (404600)
I1207 20:48:47.098023 23282 net.cpp:137] Memory required for data: 424016048
I1207 20:48:47.098028 23282 layer_factory.hpp:77] Creating layer relu1_34
I1207 20:48:47.098034 23282 net.cpp:84] Creating Layer relu1_34
I1207 20:48:47.098037 23282 net.cpp:406] relu1_34 <- conv1_34/bn
I1207 20:48:47.098040 23282 net.cpp:367] relu1_34 -> conv1_34/bn (in-place)
I1207 20:48:47.098510 23282 net.cpp:122] Setting up relu1_34
I1207 20:48:47.098520 23282 net.cpp:129] Top shape: 1 680 17 35 (404600)
I1207 20:48:47.098523 23282 net.cpp:137] Memory required for data: 425634448
I1207 20:48:47.098526 23282 layer_factory.hpp:77] Creating layer conv1_34
I1207 20:48:47.098534 23282 net.cpp:84] Creating Layer conv1_34
I1207 20:48:47.098538 23282 net.cpp:406] conv1_34 <- conv1_34/bn
I1207 20:48:47.098544 23282 net.cpp:380] conv1_34 -> conv1_34
I1207 20:48:47.102679 23282 net.cpp:122] Setting up conv1_34
I1207 20:48:47.102699 23282 net.cpp:129] Top shape: 1 12 17 35 (7140)
I1207 20:48:47.102701 23282 net.cpp:137] Memory required for data: 425663008
I1207 20:48:47.102707 23282 layer_factory.hpp:77] Creating layer concat1_34
I1207 20:48:47.102715 23282 net.cpp:84] Creating Layer concat1_34
I1207 20:48:47.102720 23282 net.cpp:406] concat1_34 <- concat1_33_concat1_33_0_split_1
I1207 20:48:47.102725 23282 net.cpp:406] concat1_34 <- conv1_34
I1207 20:48:47.102730 23282 net.cpp:380] concat1_34 -> concat1_34
I1207 20:48:47.102776 23282 net.cpp:122] Setting up concat1_34
I1207 20:48:47.102782 23282 net.cpp:129] Top shape: 1 692 17 35 (411740)
I1207 20:48:47.102783 23282 net.cpp:137] Memory required for data: 427309968
I1207 20:48:47.102787 23282 layer_factory.hpp:77] Creating layer concat1_34_concat1_34_0_split
I1207 20:48:47.102790 23282 net.cpp:84] Creating Layer concat1_34_concat1_34_0_split
I1207 20:48:47.102793 23282 net.cpp:406] concat1_34_concat1_34_0_split <- concat1_34
I1207 20:48:47.102799 23282 net.cpp:380] concat1_34_concat1_34_0_split -> concat1_34_concat1_34_0_split_0
I1207 20:48:47.102808 23282 net.cpp:380] concat1_34_concat1_34_0_split -> concat1_34_concat1_34_0_split_1
I1207 20:48:47.102866 23282 net.cpp:122] Setting up concat1_34_concat1_34_0_split
I1207 20:48:47.102872 23282 net.cpp:129] Top shape: 1 692 17 35 (411740)
I1207 20:48:47.102875 23282 net.cpp:129] Top shape: 1 692 17 35 (411740)
I1207 20:48:47.102877 23282 net.cpp:137] Memory required for data: 430603888
I1207 20:48:47.102880 23282 layer_factory.hpp:77] Creating layer conv1_35/bn
I1207 20:48:47.102886 23282 net.cpp:84] Creating Layer conv1_35/bn
I1207 20:48:47.102890 23282 net.cpp:406] conv1_35/bn <- concat1_34_concat1_34_0_split_0
I1207 20:48:47.102895 23282 net.cpp:380] conv1_35/bn -> conv1_35/bn
I1207 20:48:47.103252 23282 net.cpp:122] Setting up conv1_35/bn
I1207 20:48:47.103260 23282 net.cpp:129] Top shape: 1 692 17 35 (411740)
I1207 20:48:47.103263 23282 net.cpp:137] Memory required for data: 432250848
I1207 20:48:47.103269 23282 layer_factory.hpp:77] Creating layer conv1_35/scale
I1207 20:48:47.103278 23282 net.cpp:84] Creating Layer conv1_35/scale
I1207 20:48:47.103281 23282 net.cpp:406] conv1_35/scale <- conv1_35/bn
I1207 20:48:47.103286 23282 net.cpp:367] conv1_35/scale -> conv1_35/bn (in-place)
I1207 20:48:47.103349 23282 layer_factory.hpp:77] Creating layer conv1_35/scale
I1207 20:48:47.103543 23282 net.cpp:122] Setting up conv1_35/scale
I1207 20:48:47.103549 23282 net.cpp:129] Top shape: 1 692 17 35 (411740)
I1207 20:48:47.103552 23282 net.cpp:137] Memory required for data: 433897808
I1207 20:48:47.103556 23282 layer_factory.hpp:77] Creating layer relu1_35
I1207 20:48:47.103562 23282 net.cpp:84] Creating Layer relu1_35
I1207 20:48:47.103565 23282 net.cpp:406] relu1_35 <- conv1_35/bn
I1207 20:48:47.103569 23282 net.cpp:367] relu1_35 -> conv1_35/bn (in-place)
I1207 20:48:47.103858 23282 net.cpp:122] Setting up relu1_35
I1207 20:48:47.103868 23282 net.cpp:129] Top shape: 1 692 17 35 (411740)
I1207 20:48:47.103871 23282 net.cpp:137] Memory required for data: 435544768
I1207 20:48:47.103874 23282 layer_factory.hpp:77] Creating layer conv1_35
I1207 20:48:47.103884 23282 net.cpp:84] Creating Layer conv1_35
I1207 20:48:47.103888 23282 net.cpp:406] conv1_35 <- conv1_35/bn
I1207 20:48:47.103893 23282 net.cpp:380] conv1_35 -> conv1_35
I1207 20:48:47.107668 23282 net.cpp:122] Setting up conv1_35
I1207 20:48:47.107695 23282 net.cpp:129] Top shape: 1 12 17 35 (7140)
I1207 20:48:47.107698 23282 net.cpp:137] Memory required for data: 435573328
I1207 20:48:47.107707 23282 layer_factory.hpp:77] Creating layer concat1_35
I1207 20:48:47.107715 23282 net.cpp:84] Creating Layer concat1_35
I1207 20:48:47.107722 23282 net.cpp:406] concat1_35 <- concat1_34_concat1_34_0_split_1
I1207 20:48:47.107728 23282 net.cpp:406] concat1_35 <- conv1_35
I1207 20:48:47.107733 23282 net.cpp:380] concat1_35 -> concat1_35
I1207 20:48:47.107786 23282 net.cpp:122] Setting up concat1_35
I1207 20:48:47.107792 23282 net.cpp:129] Top shape: 1 704 17 35 (418880)
I1207 20:48:47.107795 23282 net.cpp:137] Memory required for data: 437248848
I1207 20:48:47.107797 23282 layer_factory.hpp:77] Creating layer concat1_35_concat1_35_0_split
I1207 20:48:47.107802 23282 net.cpp:84] Creating Layer concat1_35_concat1_35_0_split
I1207 20:48:47.107805 23282 net.cpp:406] concat1_35_concat1_35_0_split <- concat1_35
I1207 20:48:47.107810 23282 net.cpp:380] concat1_35_concat1_35_0_split -> concat1_35_concat1_35_0_split_0
I1207 20:48:47.107815 23282 net.cpp:380] concat1_35_concat1_35_0_split -> concat1_35_concat1_35_0_split_1
I1207 20:48:47.107872 23282 net.cpp:122] Setting up concat1_35_concat1_35_0_split
I1207 20:48:47.107878 23282 net.cpp:129] Top shape: 1 704 17 35 (418880)
I1207 20:48:47.107882 23282 net.cpp:129] Top shape: 1 704 17 35 (418880)
I1207 20:48:47.107883 23282 net.cpp:137] Memory required for data: 440599888
I1207 20:48:47.107887 23282 layer_factory.hpp:77] Creating layer conv1_36/bn
I1207 20:48:47.107892 23282 net.cpp:84] Creating Layer conv1_36/bn
I1207 20:48:47.107893 23282 net.cpp:406] conv1_36/bn <- concat1_35_concat1_35_0_split_0
I1207 20:48:47.107903 23282 net.cpp:380] conv1_36/bn -> conv1_36/bn
I1207 20:48:47.108273 23282 net.cpp:122] Setting up conv1_36/bn
I1207 20:48:47.108280 23282 net.cpp:129] Top shape: 1 704 17 35 (418880)
I1207 20:48:47.108283 23282 net.cpp:137] Memory required for data: 442275408
I1207 20:48:47.108290 23282 layer_factory.hpp:77] Creating layer conv1_36/scale
I1207 20:48:47.108297 23282 net.cpp:84] Creating Layer conv1_36/scale
I1207 20:48:47.108301 23282 net.cpp:406] conv1_36/scale <- conv1_36/bn
I1207 20:48:47.108306 23282 net.cpp:367] conv1_36/scale -> conv1_36/bn (in-place)
I1207 20:48:47.108371 23282 layer_factory.hpp:77] Creating layer conv1_36/scale
I1207 20:48:47.108557 23282 net.cpp:122] Setting up conv1_36/scale
I1207 20:48:47.108564 23282 net.cpp:129] Top shape: 1 704 17 35 (418880)
I1207 20:48:47.108566 23282 net.cpp:137] Memory required for data: 443950928
I1207 20:48:47.108572 23282 layer_factory.hpp:77] Creating layer relu1_36
I1207 20:48:47.108577 23282 net.cpp:84] Creating Layer relu1_36
I1207 20:48:47.108580 23282 net.cpp:406] relu1_36 <- conv1_36/bn
I1207 20:48:47.108583 23282 net.cpp:367] relu1_36 -> conv1_36/bn (in-place)
I1207 20:48:47.109124 23282 net.cpp:122] Setting up relu1_36
I1207 20:48:47.109136 23282 net.cpp:129] Top shape: 1 704 17 35 (418880)
I1207 20:48:47.109139 23282 net.cpp:137] Memory required for data: 445626448
I1207 20:48:47.109143 23282 layer_factory.hpp:77] Creating layer conv1_36
I1207 20:48:47.109151 23282 net.cpp:84] Creating Layer conv1_36
I1207 20:48:47.109154 23282 net.cpp:406] conv1_36 <- conv1_36/bn
I1207 20:48:47.109160 23282 net.cpp:380] conv1_36 -> conv1_36
I1207 20:48:47.113101 23282 net.cpp:122] Setting up conv1_36
I1207 20:48:47.113131 23282 net.cpp:129] Top shape: 1 12 17 35 (7140)
I1207 20:48:47.113134 23282 net.cpp:137] Memory required for data: 445655008
I1207 20:48:47.113142 23282 layer_factory.hpp:77] Creating layer concat1_36
I1207 20:48:47.113152 23282 net.cpp:84] Creating Layer concat1_36
I1207 20:48:47.113158 23282 net.cpp:406] concat1_36 <- concat1_35_concat1_35_0_split_1
I1207 20:48:47.113164 23282 net.cpp:406] concat1_36 <- conv1_36
I1207 20:48:47.113171 23282 net.cpp:380] concat1_36 -> concat1_36
I1207 20:48:47.113220 23282 net.cpp:122] Setting up concat1_36
I1207 20:48:47.113226 23282 net.cpp:129] Top shape: 1 716 17 35 (426020)
I1207 20:48:47.113229 23282 net.cpp:137] Memory required for data: 447359088
I1207 20:48:47.113231 23282 layer_factory.hpp:77] Creating layer concat1_36_concat1_36_0_split
I1207 20:48:47.113237 23282 net.cpp:84] Creating Layer concat1_36_concat1_36_0_split
I1207 20:48:47.113240 23282 net.cpp:406] concat1_36_concat1_36_0_split <- concat1_36
I1207 20:48:47.113245 23282 net.cpp:380] concat1_36_concat1_36_0_split -> concat1_36_concat1_36_0_split_0
I1207 20:48:47.113250 23282 net.cpp:380] concat1_36_concat1_36_0_split -> concat1_36_concat1_36_0_split_1
I1207 20:48:47.113306 23282 net.cpp:122] Setting up concat1_36_concat1_36_0_split
I1207 20:48:47.113312 23282 net.cpp:129] Top shape: 1 716 17 35 (426020)
I1207 20:48:47.113314 23282 net.cpp:129] Top shape: 1 716 17 35 (426020)
I1207 20:48:47.113317 23282 net.cpp:137] Memory required for data: 450767248
I1207 20:48:47.113319 23282 layer_factory.hpp:77] Creating layer conv1_37/bn
I1207 20:48:47.113330 23282 net.cpp:84] Creating Layer conv1_37/bn
I1207 20:48:47.113333 23282 net.cpp:406] conv1_37/bn <- concat1_36_concat1_36_0_split_0
I1207 20:48:47.113337 23282 net.cpp:380] conv1_37/bn -> conv1_37/bn
I1207 20:48:47.113701 23282 net.cpp:122] Setting up conv1_37/bn
I1207 20:48:47.113708 23282 net.cpp:129] Top shape: 1 716 17 35 (426020)
I1207 20:48:47.113710 23282 net.cpp:137] Memory required for data: 452471328
I1207 20:48:47.113718 23282 layer_factory.hpp:77] Creating layer conv1_37/scale
I1207 20:48:47.113726 23282 net.cpp:84] Creating Layer conv1_37/scale
I1207 20:48:47.113729 23282 net.cpp:406] conv1_37/scale <- conv1_37/bn
I1207 20:48:47.113734 23282 net.cpp:367] conv1_37/scale -> conv1_37/bn (in-place)
I1207 20:48:47.113795 23282 layer_factory.hpp:77] Creating layer conv1_37/scale
I1207 20:48:47.113988 23282 net.cpp:122] Setting up conv1_37/scale
I1207 20:48:47.113996 23282 net.cpp:129] Top shape: 1 716 17 35 (426020)
I1207 20:48:47.113998 23282 net.cpp:137] Memory required for data: 454175408
I1207 20:48:47.114003 23282 layer_factory.hpp:77] Creating layer relu1_37
I1207 20:48:47.114008 23282 net.cpp:84] Creating Layer relu1_37
I1207 20:48:47.114012 23282 net.cpp:406] relu1_37 <- conv1_37/bn
I1207 20:48:47.114015 23282 net.cpp:367] relu1_37 -> conv1_37/bn (in-place)
I1207 20:48:47.114608 23282 net.cpp:122] Setting up relu1_37
I1207 20:48:47.114619 23282 net.cpp:129] Top shape: 1 716 17 35 (426020)
I1207 20:48:47.114621 23282 net.cpp:137] Memory required for data: 455879488
I1207 20:48:47.114624 23282 layer_factory.hpp:77] Creating layer conv1_37
I1207 20:48:47.114634 23282 net.cpp:84] Creating Layer conv1_37
I1207 20:48:47.114639 23282 net.cpp:406] conv1_37 <- conv1_37/bn
I1207 20:48:47.114644 23282 net.cpp:380] conv1_37 -> conv1_37
I1207 20:48:47.119565 23282 net.cpp:122] Setting up conv1_37
I1207 20:48:47.119596 23282 net.cpp:129] Top shape: 1 12 17 35 (7140)
I1207 20:48:47.119598 23282 net.cpp:137] Memory required for data: 455908048
I1207 20:48:47.119607 23282 layer_factory.hpp:77] Creating layer concat1_37
I1207 20:48:47.119618 23282 net.cpp:84] Creating Layer concat1_37
I1207 20:48:47.119626 23282 net.cpp:406] concat1_37 <- concat1_36_concat1_36_0_split_1
I1207 20:48:47.119632 23282 net.cpp:406] concat1_37 <- conv1_37
I1207 20:48:47.119637 23282 net.cpp:380] concat1_37 -> concat1_37
I1207 20:48:47.119689 23282 net.cpp:122] Setting up concat1_37
I1207 20:48:47.119695 23282 net.cpp:129] Top shape: 1 728 17 35 (433160)
I1207 20:48:47.119698 23282 net.cpp:137] Memory required for data: 457640688
I1207 20:48:47.119700 23282 layer_factory.hpp:77] Creating layer concat1_37_concat1_37_0_split
I1207 20:48:47.119705 23282 net.cpp:84] Creating Layer concat1_37_concat1_37_0_split
I1207 20:48:47.119709 23282 net.cpp:406] concat1_37_concat1_37_0_split <- concat1_37
I1207 20:48:47.119714 23282 net.cpp:380] concat1_37_concat1_37_0_split -> concat1_37_concat1_37_0_split_0
I1207 20:48:47.119719 23282 net.cpp:380] concat1_37_concat1_37_0_split -> concat1_37_concat1_37_0_split_1
I1207 20:48:47.119788 23282 net.cpp:122] Setting up concat1_37_concat1_37_0_split
I1207 20:48:47.119794 23282 net.cpp:129] Top shape: 1 728 17 35 (433160)
I1207 20:48:47.119797 23282 net.cpp:129] Top shape: 1 728 17 35 (433160)
I1207 20:48:47.119799 23282 net.cpp:137] Memory required for data: 461105968
I1207 20:48:47.119802 23282 layer_factory.hpp:77] Creating layer conv1_38/bn
I1207 20:48:47.119808 23282 net.cpp:84] Creating Layer conv1_38/bn
I1207 20:48:47.119812 23282 net.cpp:406] conv1_38/bn <- concat1_37_concat1_37_0_split_0
I1207 20:48:47.119817 23282 net.cpp:380] conv1_38/bn -> conv1_38/bn
I1207 20:48:47.120189 23282 net.cpp:122] Setting up conv1_38/bn
I1207 20:48:47.120196 23282 net.cpp:129] Top shape: 1 728 17 35 (433160)
I1207 20:48:47.120198 23282 net.cpp:137] Memory required for data: 462838608
I1207 20:48:47.120205 23282 layer_factory.hpp:77] Creating layer conv1_38/scale
I1207 20:48:47.120213 23282 net.cpp:84] Creating Layer conv1_38/scale
I1207 20:48:47.120216 23282 net.cpp:406] conv1_38/scale <- conv1_38/bn
I1207 20:48:47.120221 23282 net.cpp:367] conv1_38/scale -> conv1_38/bn (in-place)
I1207 20:48:47.120286 23282 layer_factory.hpp:77] Creating layer conv1_38/scale
I1207 20:48:47.120477 23282 net.cpp:122] Setting up conv1_38/scale
I1207 20:48:47.120484 23282 net.cpp:129] Top shape: 1 728 17 35 (433160)
I1207 20:48:47.120486 23282 net.cpp:137] Memory required for data: 464571248
I1207 20:48:47.120491 23282 layer_factory.hpp:77] Creating layer relu1_38
I1207 20:48:47.120504 23282 net.cpp:84] Creating Layer relu1_38
I1207 20:48:47.120507 23282 net.cpp:406] relu1_38 <- conv1_38/bn
I1207 20:48:47.120512 23282 net.cpp:367] relu1_38 -> conv1_38/bn (in-place)
I1207 20:48:47.120810 23282 net.cpp:122] Setting up relu1_38
I1207 20:48:47.120820 23282 net.cpp:129] Top shape: 1 728 17 35 (433160)
I1207 20:48:47.120821 23282 net.cpp:137] Memory required for data: 466303888
I1207 20:48:47.120828 23282 layer_factory.hpp:77] Creating layer conv1_38
I1207 20:48:47.120841 23282 net.cpp:84] Creating Layer conv1_38
I1207 20:48:47.120846 23282 net.cpp:406] conv1_38 <- conv1_38/bn
I1207 20:48:47.120849 23282 net.cpp:380] conv1_38 -> conv1_38
I1207 20:48:47.125020 23282 net.cpp:122] Setting up conv1_38
I1207 20:48:47.125049 23282 net.cpp:129] Top shape: 1 12 17 35 (7140)
I1207 20:48:47.125053 23282 net.cpp:137] Memory required for data: 466332448
I1207 20:48:47.125062 23282 layer_factory.hpp:77] Creating layer concat1_38
I1207 20:48:47.125073 23282 net.cpp:84] Creating Layer concat1_38
I1207 20:48:47.125080 23282 net.cpp:406] concat1_38 <- concat1_37_concat1_37_0_split_1
I1207 20:48:47.125087 23282 net.cpp:406] concat1_38 <- conv1_38
I1207 20:48:47.125092 23282 net.cpp:380] concat1_38 -> concat1_38
I1207 20:48:47.125150 23282 net.cpp:122] Setting up concat1_38
I1207 20:48:47.125157 23282 net.cpp:129] Top shape: 1 740 17 35 (440300)
I1207 20:48:47.125160 23282 net.cpp:137] Memory required for data: 468093648
I1207 20:48:47.125162 23282 layer_factory.hpp:77] Creating layer concat1_38_concat1_38_0_split
I1207 20:48:47.125169 23282 net.cpp:84] Creating Layer concat1_38_concat1_38_0_split
I1207 20:48:47.125171 23282 net.cpp:406] concat1_38_concat1_38_0_split <- concat1_38
I1207 20:48:47.125176 23282 net.cpp:380] concat1_38_concat1_38_0_split -> concat1_38_concat1_38_0_split_0
I1207 20:48:47.125182 23282 net.cpp:380] concat1_38_concat1_38_0_split -> concat1_38_concat1_38_0_split_1
I1207 20:48:47.125241 23282 net.cpp:122] Setting up concat1_38_concat1_38_0_split
I1207 20:48:47.125247 23282 net.cpp:129] Top shape: 1 740 17 35 (440300)
I1207 20:48:47.125249 23282 net.cpp:129] Top shape: 1 740 17 35 (440300)
I1207 20:48:47.125252 23282 net.cpp:137] Memory required for data: 471616048
I1207 20:48:47.125254 23282 layer_factory.hpp:77] Creating layer conv1_39/bn
I1207 20:48:47.125260 23282 net.cpp:84] Creating Layer conv1_39/bn
I1207 20:48:47.125263 23282 net.cpp:406] conv1_39/bn <- concat1_38_concat1_38_0_split_0
I1207 20:48:47.125269 23282 net.cpp:380] conv1_39/bn -> conv1_39/bn
I1207 20:48:47.125650 23282 net.cpp:122] Setting up conv1_39/bn
I1207 20:48:47.125659 23282 net.cpp:129] Top shape: 1 740 17 35 (440300)
I1207 20:48:47.125663 23282 net.cpp:137] Memory required for data: 473377248
I1207 20:48:47.125670 23282 layer_factory.hpp:77] Creating layer conv1_39/scale
I1207 20:48:47.125677 23282 net.cpp:84] Creating Layer conv1_39/scale
I1207 20:48:47.125680 23282 net.cpp:406] conv1_39/scale <- conv1_39/bn
I1207 20:48:47.125685 23282 net.cpp:367] conv1_39/scale -> conv1_39/bn (in-place)
I1207 20:48:47.125764 23282 layer_factory.hpp:77] Creating layer conv1_39/scale
I1207 20:48:47.125962 23282 net.cpp:122] Setting up conv1_39/scale
I1207 20:48:47.125969 23282 net.cpp:129] Top shape: 1 740 17 35 (440300)
I1207 20:48:47.125972 23282 net.cpp:137] Memory required for data: 475138448
I1207 20:48:47.125977 23282 layer_factory.hpp:77] Creating layer relu1_39
I1207 20:48:47.125983 23282 net.cpp:84] Creating Layer relu1_39
I1207 20:48:47.125986 23282 net.cpp:406] relu1_39 <- conv1_39/bn
I1207 20:48:47.125991 23282 net.cpp:367] relu1_39 -> conv1_39/bn (in-place)
I1207 20:48:47.126765 23282 net.cpp:122] Setting up relu1_39
I1207 20:48:47.126782 23282 net.cpp:129] Top shape: 1 740 17 35 (440300)
I1207 20:48:47.126785 23282 net.cpp:137] Memory required for data: 476899648
I1207 20:48:47.126788 23282 layer_factory.hpp:77] Creating layer conv1_39
I1207 20:48:47.126801 23282 net.cpp:84] Creating Layer conv1_39
I1207 20:48:47.126806 23282 net.cpp:406] conv1_39 <- conv1_39/bn
I1207 20:48:47.126813 23282 net.cpp:380] conv1_39 -> conv1_39
I1207 20:48:47.131229 23282 net.cpp:122] Setting up conv1_39
I1207 20:48:47.131261 23282 net.cpp:129] Top shape: 1 12 17 35 (7140)
I1207 20:48:47.131264 23282 net.cpp:137] Memory required for data: 476928208
I1207 20:48:47.131273 23282 layer_factory.hpp:77] Creating layer concat1_39
I1207 20:48:47.131284 23282 net.cpp:84] Creating Layer concat1_39
I1207 20:48:47.131295 23282 net.cpp:406] concat1_39 <- concat1_38_concat1_38_0_split_1
I1207 20:48:47.131302 23282 net.cpp:406] concat1_39 <- conv1_39
I1207 20:48:47.131309 23282 net.cpp:380] concat1_39 -> concat1_39
I1207 20:48:47.131366 23282 net.cpp:122] Setting up concat1_39
I1207 20:48:47.131372 23282 net.cpp:129] Top shape: 1 752 17 35 (447440)
I1207 20:48:47.131376 23282 net.cpp:137] Memory required for data: 478717968
I1207 20:48:47.131377 23282 layer_factory.hpp:77] Creating layer tpp5
I1207 20:48:47.131388 23282 net.cpp:84] Creating Layer tpp5
I1207 20:48:47.131392 23282 net.cpp:406] tpp5 <- concat1_39
I1207 20:48:47.131397 23282 net.cpp:380] tpp5 -> tpp5
I1207 20:48:47.132129 23282 net.cpp:122] Setting up tpp5
I1207 20:48:47.132141 23282 net.cpp:129] Top shape: 1 11280 (11280)
I1207 20:48:47.132144 23282 net.cpp:137] Memory required for data: 478763088
I1207 20:48:47.132148 23282 layer_factory.hpp:77] Creating layer fc6_d
I1207 20:48:47.132155 23282 net.cpp:84] Creating Layer fc6_d
I1207 20:48:47.132158 23282 net.cpp:406] fc6_d <- tpp5
I1207 20:48:47.132164 23282 net.cpp:380] fc6_d -> fc6_d
I1207 20:48:48.275393 23282 net.cpp:122] Setting up fc6_d
I1207 20:48:48.275426 23282 net.cpp:129] Top shape: 1 4096 (4096)
I1207 20:48:48.275429 23282 net.cpp:137] Memory required for data: 478779472
I1207 20:48:48.275439 23282 layer_factory.hpp:77] Creating layer relu6
I1207 20:48:48.275449 23282 net.cpp:84] Creating Layer relu6
I1207 20:48:48.275454 23282 net.cpp:406] relu6 <- fc6_d
I1207 20:48:48.275460 23282 net.cpp:367] relu6 -> fc6_d (in-place)
I1207 20:48:48.275879 23282 net.cpp:122] Setting up relu6
I1207 20:48:48.275888 23282 net.cpp:129] Top shape: 1 4096 (4096)
I1207 20:48:48.275892 23282 net.cpp:137] Memory required for data: 478795856
I1207 20:48:48.275894 23282 layer_factory.hpp:77] Creating layer fc7_d
I1207 20:48:48.275910 23282 net.cpp:84] Creating Layer fc7_d
I1207 20:48:48.275913 23282 net.cpp:406] fc7_d <- fc6_d
I1207 20:48:48.275920 23282 net.cpp:380] fc7_d -> fc7_d
I1207 20:48:48.690832 23282 net.cpp:122] Setting up fc7_d
I1207 20:48:48.690861 23282 net.cpp:129] Top shape: 1 4096 (4096)
I1207 20:48:48.690865 23282 net.cpp:137] Memory required for data: 478812240
I1207 20:48:48.690872 23282 layer_factory.hpp:77] Creating layer relu7
I1207 20:48:48.690881 23282 net.cpp:84] Creating Layer relu7
I1207 20:48:48.690886 23282 net.cpp:406] relu7 <- fc7_d
I1207 20:48:48.690892 23282 net.cpp:367] relu7 -> fc7_d (in-place)
I1207 20:48:48.691608 23282 net.cpp:122] Setting up relu7
I1207 20:48:48.691622 23282 net.cpp:129] Top shape: 1 4096 (4096)
I1207 20:48:48.691623 23282 net.cpp:137] Memory required for data: 478828624
I1207 20:48:48.691627 23282 layer_factory.hpp:77] Creating layer fc8_d
I1207 20:48:48.691637 23282 net.cpp:84] Creating Layer fc8_d
I1207 20:48:48.691639 23282 net.cpp:406] fc8_d <- fc7_d
I1207 20:48:48.691645 23282 net.cpp:380] fc8_d -> fc8_d
I1207 20:48:48.753759 23282 net.cpp:122] Setting up fc8_d
I1207 20:48:48.753790 23282 net.cpp:129] Top shape: 1 604 (604)
I1207 20:48:48.753793 23282 net.cpp:137] Memory required for data: 478831040
I1207 20:48:48.753801 23282 layer_factory.hpp:77] Creating layer fc8_d_fc8_d_0_split
I1207 20:48:48.753813 23282 net.cpp:84] Creating Layer fc8_d_fc8_d_0_split
I1207 20:48:48.753818 23282 net.cpp:406] fc8_d_fc8_d_0_split <- fc8_d
I1207 20:48:48.753824 23282 net.cpp:380] fc8_d_fc8_d_0_split -> fc8_d_fc8_d_0_split_0
I1207 20:48:48.753831 23282 net.cpp:380] fc8_d_fc8_d_0_split -> fc8_d_fc8_d_0_split_1
I1207 20:48:48.753890 23282 net.cpp:122] Setting up fc8_d_fc8_d_0_split
I1207 20:48:48.753895 23282 net.cpp:129] Top shape: 1 604 (604)
I1207 20:48:48.753898 23282 net.cpp:129] Top shape: 1 604 (604)
I1207 20:48:48.753901 23282 net.cpp:137] Memory required for data: 478835872
I1207 20:48:48.753902 23282 layer_factory.hpp:77] Creating layer sigmoid
I1207 20:48:48.753911 23282 net.cpp:84] Creating Layer sigmoid
I1207 20:48:48.753913 23282 net.cpp:406] sigmoid <- fc8_d_fc8_d_0_split_0
I1207 20:48:48.753917 23282 net.cpp:380] sigmoid -> sigmoid
I1207 20:48:48.754701 23282 net.cpp:122] Setting up sigmoid
I1207 20:48:48.754716 23282 net.cpp:129] Top shape: 1 604 (604)
I1207 20:48:48.754719 23282 net.cpp:137] Memory required for data: 478838288
I1207 20:48:48.754722 23282 layer_factory.hpp:77] Creating layer silence
I1207 20:48:48.754729 23282 net.cpp:84] Creating Layer silence
I1207 20:48:48.754731 23282 net.cpp:406] silence <- sigmoid
I1207 20:48:48.754735 23282 net.cpp:122] Setting up silence
I1207 20:48:48.754737 23282 net.cpp:137] Memory required for data: 478838288
…
