…
state {
  phase: TRAIN
}
layer {
  name: "word_images"
  type: "Data"
  top: "word_images"
  top: "label"
  transform_param {
    scale: -0.0039215689
    mean_value: 255
  }
  data_param {
    source: "/data/fwolf/min26/gw_cv1_nti500000_pul2-3-4-5_train_word_images_lmdb"
    batch_size: 1
    backend: LMDB
    prefetch: 20
  }
}
layer {
  name: "phocs"
  type: "Data"
  top: "phocs"
  top: "label_phocs"
  data_param {
    source: "/data/fwolf/min26/gw_cv1_nti500000_pul2-3-4-5_train_phocs_lmdb"
    batch_size: 1
    backend: LMDB
    prefetch: 20
  }
}
layer {
  name: "conv_init"
  type: "Convolution"
  bottom: "word_images"
  top: "conv_init"
  convolution_param {
    num_output: 32
    bias_term: false
    pad: 1
    kernel_size: 3
    stride: 1
    weight_filler {
      type: "msra"
    }
    bias_filler {
      type: "constant"
    }
    engine: CUDNN
  }
}
layer {
  name: "conv0_0/x1/bn"
  type: "BatchNorm"
  bottom: "conv_init"
  top: "conv0_0/x1/bn"
  param {
    lr_mult: 0
    decay_mult: 0
  }
  param {
    lr_mult: 0
    decay_mult: 0
  }
  param {
    lr_mult: 0
    decay_mult: 0
  }
}
layer {
  name: "conv0_0/x1/scale"
  type: "Scale"
  bottom: "conv0_0/x1/bn"
  top: "conv0_0/x1/bn"
  scale_param {
    filler {
      value: 1
    }
    bias_term: true
    bias_filler {
      value: 0
    }
  }
}
layer {
  name: "relu0_0/x1"
  type: "ReLU"
  bottom: "conv0_0/x1/bn"
  top: "conv0_0/x1/bn"
}
layer {
  name: "conv0_0/x1"
  type: "Convolution"
  bottom: "conv0_0/x1/bn"
  top: "conv0_0/x1"
  convolution_param {
    num_output: 128
    bias_term: false
    pad: 0
    kernel_size: 1
    stride: 1
    weight_filler {
      type: "msra"
    }
    bias_filler {
      type: "constant"
    }
    engine: CUDNN
  }
}
layer {
  name: "conv0_0/x2/bn"
  type: "BatchNorm"
  bottom: "conv0_0/x1"
  top: "conv0_0/x2/bn"
  param {
    lr_mult: 0
    decay_mult: 0
  }
  param {
    lr_mult: 0
    decay_mult: 0
  }
  param {
    lr_mult: 0
    decay_mult: 0
  }
}
layer {
  name: "conv0_0/x2/scale"
  type: "Scale"
  bottom: "conv0_0/x2/bn"
  top: "conv0_0/x2/bn"
  scale_param {
    filler {
      value: 1
    }
    bias_term: true
    bias_filler {
      value: 0
    }
  }
}
layer {
  name: "relu0_0/x2"
  type: "ReLU"
  bottom: "conv0_0/x2/bn"
  top: "conv0_0/x2/bn"
}
layer {
  name: "conv0_0/x2"
  type: "Convolution"
  bottom: "conv0_0/x2/bn"
  top: "conv0_0/x2"
  convolution_param {
    num_output: 32
    bias_term: false
    pad: 1
    kernel_size: 3
    stride: 1
    weight_filler {
      type: "msra"
    }
    bias_filler {
      type: "constant"
    }
    engine: CUDNN
  }
}
layer {
  name: "concat0_0"
  type: "Concat"
  bottom: "conv_init"
  bottom: "conv0_0/x2"
  top: "concat0_0"
  concat_param {
    axis: 1
  }
}
layer {
  name: "conv0_1/x1/bn"
  type: "BatchNorm"
  bottom: "concat0_0"
  top: "conv0_1/x1/bn"
  param {
    lr_mult: 0
    decay_mult: 0
  }
  param {
    lr_mult: 0
    decay_mult: 0
  }
  param {
    lr_mult: 0
    decay_mult: 0
  }
}
layer {
  name: "conv0_1/x1/scale"
  type: "Scale"
  bottom: "conv0_1/x1/bn"
  top: "conv0_1/x1/bn"
  scale_param {
    filler {
      value: 1
    }
    bias_term: true
    bias_filler {
      value: 0
    }
  }
}
layer {
  name: "relu0_1/x1"
  type: "ReLU"
  bottom: "conv0_1/x1/bn"
  top: "conv0_1/x1/bn"
}
layer {
  name: "conv0_1/x1"
  type: "Convolution"
  bottom: "conv0_1/x1/bn"
  top: "conv0_1/x1"
  convolution_param {
    num_output: 128
    bias_term: false
    pad: 0
    kernel_size: 1
    stride: 1
    weight_filler {
      type: "msra"
    }
    bias_filler {
      type: "constant"
    }
    engine: CUDNN
  }
}
layer {
  name: "conv0_1/x2/bn"
  type: "BatchNorm"
  bottom: "conv0_1/x1"
  top: "conv0_1/x2/bn"
  param {
    lr_mult: 0
    decay_mult: 0
  }
  param {
    lr_mult: 0
    decay_mult: 0
  }
  param {
    lr_mult: 0
    decay_mult: 0
  }
}
layer {
  name: "conv0_1/x2/scale"
  type: "Scale"
  bottom: "conv0_1/x2/bn"
  top: "conv0_1/x2/bn"
  scale_param {
    filler {
      value: 1
    }
    bias_term: true
    bias_filler {
      value: 0
    }
  }
}
layer {
  name: "relu0_1/x2"
  type: "ReLU"
  bottom: "conv0_1/x2/bn"
  top: "conv0_1/x2/bn"
}
layer {
  name: "conv0_1/x2"
  type: "Convolution"
  bottom: "conv0_1/x2/bn"
  top: "conv0_1/x2"
  convolution_param {
    num_output: 32
    bias_term: false
    pad: 1
    kernel_size: 3
    stride: 1
    weight_filler {
      type: "msra"
    }
    bias_filler {
      type: "constant"
    }
    engine: CUDNN
  }
}
layer {
  name: "concat0_1"
  type: "Concat"
  bottom: "concat0_0"
  bottom: "conv0_1/x2"
  top: "concat0_1"
  concat_param {
    axis: 1
  }
}
layer {
  name: "conv0_2/x1/bn"
  type: "BatchNorm"
  bottom: "concat0_1"
  top: "conv0_2/x1/bn"
  param {
    lr_mult: 0
    decay_mult: 0
  }
  param {
    lr_mult: 0
    decay_mult: 0
  }
  param {
    lr_mult: 0
    decay_mult: 0
  }
}
layer {
  name: "conv0_2/x1/scale"
  type: "Scale"
  bottom: "conv0_2/x1/bn"
  top: "conv0_2/x1/bn"
  scale_param {
    filler {
      value: 1
    }
    bias_term: true
    bias_filler {
      value: 0
    }
  }
}
layer {
  name: "relu0_2/x1"
  type: "ReLU"
  bottom: "conv0_2/x1/bn"
  top: "conv0_2/x1/bn"
}
layer {
  name: "conv0_2/x1"
  type: "Convolution"
  bottom: "conv0_2/x1/bn"
  top: "conv0_2/x1"
  convolution_param {
    num_output: 128
    bias_term: false
    pad: 0
    kernel_size: 1
    stride: 1
    weight_filler {
      type: "msra"
    }
    bias_filler {
      type: "constant"
    }
    engine: CUDNN
  }
}
layer {
  name: "conv0_2/x2/bn"
  type: "BatchNorm"
  bottom: "conv0_2/x1"
  top: "conv0_2/x2/bn"
  param {
    lr_mult: 0
    decay_mult: 0
  }
  param {
    lr_mult: 0
    decay_mult: 0
  }
  param {
    lr_mult: 0
    decay_mult: 0
  }
}
layer {
  name: "conv0_2/x2/scale"
  type: "Scale"
  bottom: "conv0_2/x2/bn"
  top: "conv0_2/x2/bn"
  scale_param {
    filler {
      value: 1
    }
    bias_term: true
    bias_filler {
      value: 0
    }
  }
}
layer {
  name: "relu0_2/x2"
  type: "ReLU"
  bottom: "conv0_2/x2/bn"
  top: "conv0_2/x2/bn"
}
layer {
  name: "conv0_2/x2"
  type: "Convolution"
  bottom: "conv0_2/x2/bn"
  top: "conv0_2/x2"
  convolution_param {
    num_output: 32
    bias_term: false
    pad: 1
    kernel_size: 3
    stride: 1
    weight_filler {
      type: "msra"
    }
    bias_filler {
      type: "constant"
    }
    engine: CUDNN
  }
}
layer {
  name: "concat0_2"
  type: "Concat"
  bottom: "concat0_1"
  bottom: "conv0_2/x2"
  top: "concat0_2"
  concat_param {
    axis: 1
  }
}
layer {
  name: "BatchNorm1"
  type: "BatchNorm"
  bottom: "concat0_2"
  top: "BatchNorm1"
  param {
    lr_mult: 0
    decay_mult: 0
  }
  param {
    lr_mult: 0
    decay_mult: 0
  }
  param {
    lr_mult: 0
    decay_mult: 0
  }
}
layer {
  name: "Scale1"
  type: "Scale"
  bottom: "BatchNorm1"
  top: "BatchNorm1"
  scale_param {
    filler {
      value: 1
    }
    bias_term: true
    bias_filler {
      value: 0
    }
  }
}
layer {
  name: "ReLU1"
  type: "ReLU"
  bottom: "BatchNorm1"
  top: "BatchNorm1"
}
layer {
  name: "conv0_blk"
  type: "Convolution"
  bottom: "BatchNorm1"
  top: "conv0_blk"
  convolution_param {
    num_output: 64
    bias_term: false
    pad: 0
    kernel_size: 1
    stride: 1
    weight_filler {
      type: "msra"
    }
    bias_filler {
      type: "constant"
    }
    engine: CUDNN
  }
}
layer {
  name: "pool0"
  type: "Pooling"
  bottom: "conv0_blk"
  top: "pool0"
  pooling_param {
    pool: AVE
    kernel_size: 2
    stride: 2
  }
}
layer {
  name: "conv1_0/x1/bn"
  type: "BatchNorm"
  bottom: "pool0"
  top: "conv1_0/x1/bn"
  param {
    lr_mult: 0
    decay_mult: 0
  }
  param {
    lr_mult: 0
    decay_mult: 0
  }
  param {
    lr_mult: 0
    decay_mult: 0
  }
}
layer {
  name: "conv1_0/x1/scale"
  type: "Scale"
  bottom: "conv1_0/x1/bn"
  top: "conv1_0/x1/bn"
  scale_param {
    filler {
      value: 1
    }
    bias_term: true
    bias_filler {
      value: 0
    }
  }
}
layer {
  name: "relu1_0/x1"
  type: "ReLU"
  bottom: "conv1_0/x1/bn"
  top: "conv1_0/x1/bn"
}
layer {
  name: "conv1_0/x1"
  type: "Convolution"
  bottom: "conv1_0/x1/bn"
  top: "conv1_0/x1"
  convolution_param {
    num_output: 128
    bias_term: false
    pad: 0
    kernel_size: 1
    stride: 1
    weight_filler {
      type: "msra"
    }
    bias_filler {
      type: "constant"
    }
    engine: CUDNN
  }
}
layer {
  name: "conv1_0/x2/bn"
  type: "BatchNorm"
  bottom: "conv1_0/x1"
  top: "conv1_0/x2/bn"
  param {
    lr_mult: 0
    decay_mult: 0
  }
  param {
    lr_mult: 0
    decay_mult: 0
  }
  param {
    lr_mult: 0
    decay_mult: 0
  }
}
layer {
  name: "conv1_0/x2/scale"
  type: "Scale"
  bottom: "conv1_0/x2/bn"
  top: "conv1_0/x2/bn"
  scale_param {
    filler {
      value: 1
    }
    bias_term: true
    bias_filler {
      value: 0
    }
  }
}
layer {
  name: "relu1_0/x2"
  type: "ReLU"
  bottom: "conv1_0/x2/bn"
  top: "conv1_0/x2/bn"
}
layer {
  name: "conv1_0/x2"
  type: "Convolution"
  bottom: "conv1_0/x2/bn"
  top: "conv1_0/x2"
  convolution_param {
    num_output: 32
    bias_term: false
    pad: 1
    kernel_size: 3
    stride: 1
    weight_filler {
      type: "msra"
    }
    bias_filler {
      type: "constant"
    }
    engine: CUDNN
  }
}
layer {
  name: "concat1_0"
  type: "Concat"
  bottom: "pool0"
  bottom: "conv1_0/x2"
  top: "concat1_0"
  concat_param {
    axis: 1
  }
}
layer {
  name: "conv1_1/x1/bn"
  type: "BatchNorm"
  bottom: "concat1_0"
  top: "conv1_1/x1/bn"
  param {
    lr_mult: 0
    decay_mult: 0
  }
  param {
    lr_mult: 0
    decay_mult: 0
  }
  param {
    lr_mult: 0
    decay_mult: 0
  }
}
layer {
  name: "conv1_1/x1/scale"
  type: "Scale"
  bottom: "conv1_1/x1/bn"
  top: "conv1_1/x1/bn"
  scale_param {
    filler {
      value: 1
    }
    bias_term: true
    bias_filler {
      value: 0
    }
  }
}
layer {
  name: "relu1_1/x1"
  type: "ReLU"
  bottom: "conv1_1/x1/bn"
  top: "conv1_1/x1/bn"
}
layer {
  name: "conv1_1/x1"
  type: "Convolution"
  bottom: "conv1_1/x1/bn"
  top: "conv1_1/x1"
  convolution_param {
    num_output: 128
    bias_term: false
    pad: 0
    kernel_size: 1
    stride: 1
    weight_filler {
      type: "msra"
    }
    bias_filler {
      type: "constant"
    }
    engine: CUDNN
  }
}
layer {
  name: "conv1_1/x2/bn"
  type: "BatchNorm"
  bottom: "conv1_1/x1"
  top: "conv1_1/x2/bn"
  param {
    lr_mult: 0
    decay_mult: 0
  }
  param {
    lr_mult: 0
    decay_mult: 0
  }
  param {
    lr_mult: 0
    decay_mult: 0
  }
}
layer {
  name: "conv1_1/x2/scale"
  type: "Scale"
  bottom: "conv1_1/x2/bn"
  top: "conv1_1/x2/bn"
  scale_param {
    filler {
      value: 1
    }
    bias_term: true
    bias_filler {
      value: 0
    }
  }
}
layer {
  name: "relu1_1/x2"
  type: "ReLU"
  bottom: "conv1_1/x2/bn"
  top: "conv1_1/x2/bn"
}
layer {
  name: "conv1_1/x2"
  type: "Convolution"
  bottom: "conv1_1/x2/bn"
  top: "conv1_1/x2"
  convolution_param {
    num_output: 32
    bias_term: false
    pad: 1
    kernel_size: 3
    stride: 1
    weight_filler {
      type: "msra"
    }
    bias_filler {
      type: "constant"
    }
    engine: CUDNN
  }
}
layer {
  name: "concat1_1"
  type: "Concat"
  bottom: "concat1_0"
  bottom: "conv1_1/x2"
  top: "concat1_1"
  concat_param {
    axis: 1
  }
}
layer {
  name: "conv1_2/x1/bn"
  type: "BatchNorm"
  bottom: "concat1_1"
  top: "conv1_2/x1/bn"
  param {
    lr_mult: 0
    decay_mult: 0
  }
  param {
    lr_mult: 0
    decay_mult: 0
  }
  param {
    lr_mult: 0
    decay_mult: 0
  }
}
layer {
  name: "conv1_2/x1/scale"
  type: "Scale"
  bottom: "conv1_2/x1/bn"
  top: "conv1_2/x1/bn"
  scale_param {
    filler {
      value: 1
    }
    bias_term: true
    bias_filler {
      value: 0
    }
  }
}
layer {
  name: "relu1_2/x1"
  type: "ReLU"
  bottom: "conv1_2/x1/bn"
  top: "conv1_2/x1/bn"
}
layer {
  name: "conv1_2/x1"
  type: "Convolution"
  bottom: "conv1_2/x1/bn"
  top: "conv1_2/x1"
  convolution_param {
    num_output: 128
    bias_term: false
    pad: 0
    kernel_size: 1
    stride: 1
    weight_filler {
      type: "msra"
    }
    bias_filler {
      type: "constant"
    }
    engine: CUDNN
  }
}
layer {
  name: "conv1_2/x2/bn"
  type: "BatchNorm"
  bottom: "conv1_2/x1"
  top: "conv1_2/x2/bn"
  param {
    lr_mult: 0
    decay_mult: 0
  }
  param {
    lr_mult: 0
    decay_mult: 0
  }
  param {
    lr_mult: 0
    decay_mult: 0
  }
}
layer {
  name: "conv1_2/x2/scale"
  type: "Scale"
  bottom: "conv1_2/x2/bn"
  top: "conv1_2/x2/bn"
  scale_param {
    filler {
      value: 1
    }
    bias_term: true
    bias_filler {
      value: 0
    }
  }
}
layer {
  name: "relu1_2/x2"
  type: "ReLU"
  bottom: "conv1_2/x2/bn"
  top: "conv1_2/x2/bn"
}
layer {
  name: "conv1_2/x2"
  type: "Convolution"
  bottom: "conv1_2/x2/bn"
  top: "conv1_2/x2"
  convolution_param {
    num_output: 32
    bias_term: false
    pad: 1
    kernel_size: 3
    stride: 1
    weight_filler {
      type: "msra"
    }
    bias_filler {
      type: "constant"
    }
    engine: CUDNN
  }
}
layer {
  name: "concat1_2"
  type: "Concat"
  bottom: "concat1_1"
  bottom: "conv1_2/x2"
  top: "concat1_2"
  concat_param {
    axis: 1
  }
}
layer {
  name: "conv1_3/x1/bn"
  type: "BatchNorm"
  bottom: "concat1_2"
  top: "conv1_3/x1/bn"
  param {
    lr_mult: 0
    decay_mult: 0
  }
  param {
    lr_mult: 0
    decay_mult: 0
  }
  param {
    lr_mult: 0
    decay_mult: 0
  }
}
layer {
  name: "conv1_3/x1/scale"
  type: "Scale"
  bottom: "conv1_3/x1/bn"
  top: "conv1_3/x1/bn"
  scale_param {
    filler {
      value: 1
    }
    bias_term: true
    bias_filler {
      value: 0
    }
  }
}
layer {
  name: "relu1_3/x1"
  type: "ReLU"
  bottom: "conv1_3/x1/bn"
  top: "conv1_3/x1/bn"
}
layer {
  name: "conv1_3/x1"
  type: "Convolution"
  bottom: "conv1_3/x1/bn"
  top: "conv1_3/x1"
  convolution_param {
    num_output: 128
    bias_term: false
    pad: 0
    kernel_size: 1
    stride: 1
    weight_filler {
      type: "msra"
    }
    bias_filler {
      type: "constant"
    }
    engine: CUDNN
  }
}
layer {
  name: "conv1_3/x2/bn"
  type: "BatchNorm"
  bottom: "conv1_3/x1"
  top: "conv1_3/x2/bn"
  param {
    lr_mult: 0
    decay_mult: 0
  }
  param {
    lr_mult: 0
    decay_mult: 0
  }
  param {
    lr_mult: 0
    decay_mult: 0
  }
}
layer {
  name: "conv1_3/x2/scale"
  type: "Scale"
  bottom: "conv1_3/x2/bn"
  top: "conv1_3/x2/bn"
  scale_param {
    filler {
      value: 1
    }
    bias_term: true
    bias_filler {
      value: 0
    }
  }
}
layer {
  name: "relu1_3/x2"
  type: "ReLU"
  bottom: "conv1_3/x2/bn"
  top: "conv1_3/x2/bn"
}
layer {
  name: "conv1_3/x2"
  type: "Convolution"
  bottom: "conv1_3/x2/bn"
  top: "conv1_3/x2"
  convolution_param {
    num_output: 32
    bias_term: false
    pad: 1
    kernel_size: 3
    stride: 1
    weight_filler {
      type: "msra"
    }
    bias_filler {
      type: "constant"
    }
    engine: CUDNN
  }
}
layer {
  name: "concat1_3"
  type: "Concat"
  bottom: "concat1_2"
  bottom: "conv1_3/x2"
  top: "concat1_3"
  concat_param {
    axis: 1
  }
}
layer {
  name: "conv1_4/x1/bn"
  type: "BatchNorm"
  bottom: "concat1_3"
  top: "conv1_4/x1/bn"
  param {
    lr_mult: 0
    decay_mult: 0
  }
  param {
    lr_mult: 0
    decay_mult: 0
  }
  param {
    lr_mult: 0
    decay_mult: 0
  }
}
layer {
  name: "conv1_4/x1/scale"
  type: "Scale"
  bottom: "conv1_4/x1/bn"
  top: "conv1_4/x1/bn"
  scale_param {
    filler {
      value: 1
    }
    bias_term: true
    bias_filler {
      value: 0
    }
  }
}
layer {
  name: "relu1_4/x1"
  type: "ReLU"
  bottom: "conv1_4/x1/bn"
  top: "conv1_4/x1/bn"
}
layer {
  name: "conv1_4/x1"
  type: "Convolution"
  bottom: "conv1_4/x1/bn"
  top: "conv1_4/x1"
  convolution_param {
    num_output: 128
    bias_term: false
    pad: 0
    kernel_size: 1
    stride: 1
    weight_filler {
      type: "msra"
    }
    bias_filler {
      type: "constant"
    }
    engine: CUDNN
  }
}
layer {
  name: "conv1_4/x2/bn"
  type: "BatchNorm"
  bottom: "conv1_4/x1"
  top: "conv1_4/x2/bn"
  param {
    lr_mult: 0
    decay_mult: 0
  }
  param {
    lr_mult: 0
    decay_mult: 0
  }
  param {
    lr_mult: 0
    decay_mult: 0
  }
}
layer {
  name: "conv1_4/x2/scale"
  type: "Scale"
  bottom: "conv1_4/x2/bn"
  top: "conv1_4/x2/bn"
  scale_param {
    filler {
      value: 1
    }
    bias_term: true
    bias_filler {
      value: 0
    }
  }
}
layer {
  name: "relu1_4/x2"
  type: "ReLU"
  bottom: "conv1_4/x2/bn"
  top: "conv1_4/x2/bn"
}
layer {
  name: "conv1_4/x2"
  type: "Convolution"
  bottom: "conv1_4/x2/bn"
  top: "conv1_4/x2"
  convolution_param {
    num_output: 32
    bias_term: false
    pad: 1
    kernel_size: 3
    stride: 1
    weight_filler {
      type: "msra"
    }
    bias_filler {
      type: "constant"
    }
    engine: CUDNN
  }
}
layer {
  name: "concat1_4"
  type: "Concat"
  bottom: "concat1_3"
  bottom: "conv1_4/x2"
  top: "concat1_4"
  concat_param {
    axis: 1
  }
}
layer {
  name: "conv1_5/x1/bn"
  type: "BatchNorm"
  bottom: "concat1_4"
  top: "conv1_5/x1/bn"
  param {
    lr_mult: 0
    decay_mult: 0
  }
  param {
    lr_mult: 0
    decay_mult: 0
  }
  param {
    lr_mult: 0
    decay_mult: 0
  }
}
layer {
  name: "conv1_5/x1/scale"
  type: "Scale"
  bottom: "conv1_5/x1/bn"
  top: "conv1_5/x1/bn"
  scale_param {
    filler {
      value: 1
    }
    bias_term: true
    bias_filler {
      value: 0
    }
  }
}
layer {
  name: "relu1_5/x1"
  type: "ReLU"
  bottom: "conv1_5/x1/bn"
  top: "conv1_5/x1/bn"
}
layer {
  name: "conv1_5/x1"
  type: "Convolution"
  bottom: "conv1_5/x1/bn"
  top: "conv1_5/x1"
  convolution_param {
    num_output: 128
    bias_term: false
    pad: 0
    kernel_size: 1
    stride: 1
    weight_filler {
      type: "msra"
    }
    bias_filler {
      type: "constant"
    }
    engine: CUDNN
  }
}
layer {
  name: "conv1_5/x2/bn"
  type: "BatchNorm"
  bottom: "conv1_5/x1"
  top: "conv1_5/x2/bn"
  param {
    lr_mult: 0
    decay_mult: 0
  }
  param {
    lr_mult: 0
    decay_mult: 0
  }
  param {
    lr_mult: 0
    decay_mult: 0
  }
}
layer {
  name: "conv1_5/x2/scale"
  type: "Scale"
  bottom: "conv1_5/x2/bn"
  top: "conv1_5/x2/bn"
  scale_param {
    filler {
      value: 1
    }
    bias_term: true
    bias_filler {
      value: 0
    }
  }
}
layer {
  name: "relu1_5/x2"
  type: "ReLU"
  bottom: "conv1_5/x2/bn"
  top: "conv1_5/x2/bn"
}
layer {
  name: "conv1_5/x2"
  type: "Convolution"
  bottom: "conv1_5/x2/bn"
  top: "conv1_5/x2"
  convolution_param {
    num_output: 32
    bias_term: false
    pad: 1
    kernel_size: 3
    stride: 1
    weight_filler {
      type: "msra"
    }
    bias_filler {
      type: "constant"
    }
    engine: CUDNN
  }
}
layer {
  name: "concat1_5"
  type: "Concat"
  bottom: "concat1_4"
  bottom: "conv1_5/x2"
  top: "concat1_5"
  concat_param {
    axis: 1
  }
}
layer {
  name: "BatchNorm2"
  type: "BatchNorm"
  bottom: "concat1_5"
  top: "BatchNorm2"
  param {
    lr_mult: 0
    decay_mult: 0
  }
  param {
    lr_mult: 0
    decay_mult: 0
  }
  param {
    lr_mult: 0
    decay_mult: 0
  }
}
layer {
  name: "Scale2"
  type: "Scale"
  bottom: "BatchNorm2"
  top: "BatchNorm2"
  scale_param {
    filler {
      value: 1
    }
    bias_term: true
    bias_filler {
      value: 0
    }
  }
}
layer {
  name: "ReLU2"
  type: "ReLU"
  bottom: "BatchNorm2"
  top: "BatchNorm2"
}
layer {
  name: "conv1_blk"
  type: "Convolution"
  bottom: "BatchNorm2"
  top: "conv1_blk"
  convolution_param {
    num_output: 128
    bias_term: false
    pad: 0
    kernel_size: 1
    stride: 1
    weight_filler {
      type: "msra"
    }
    bias_filler {
      type: "constant"
    }
    engine: CUDNN
  }
}
layer {
  name: "pool1"
  type: "Pooling"
  bottom: "conv1_blk"
  top: "pool1"
  pooling_param {
    pool: AVE
    kernel_size: 2
    stride: 2
  }
}
layer {
  name: "conv2_0/x1/bn"
  type: "BatchNorm"
  bottom: "pool1"
  top: "conv2_0/x1/bn"
  param {
    lr_mult: 0
    decay_mult: 0
  }
  param {
    lr_mult: 0
    decay_mult: 0
  }
  param {
    lr_mult: 0
    decay_mult: 0
  }
}
layer {
  name: "conv2_0/x1/scale"
  type: "Scale"
  bottom: "conv2_0/x1/bn"
  top: "conv2_0/x1/bn"
  scale_param {
    filler {
      value: 1
    }
    bias_term: true
    bias_filler {
      value: 0
    }
  }
}
layer {
  name: "relu2_0/x1"
  type: "ReLU"
  bottom: "conv2_0/x1/bn"
  top: "conv2_0/x1/bn"
}
layer {
  name: "conv2_0/x1"
  type: "Convolution"
  bottom: "conv2_0/x1/bn"
  top: "conv2_0/x1"
  convolution_param {
    num_output: 128
    bias_term: false
    pad: 0
    kernel_size: 1
    stride: 1
    weight_filler {
      type: "msra"
    }
    bias_filler {
      type: "constant"
    }
    engine: CUDNN
  }
}
layer {
  name: "conv2_0/x2/bn"
  type: "BatchNorm"
  bottom: "conv2_0/x1"
  top: "conv2_0/x2/bn"
  param {
    lr_mult: 0
    decay_mult: 0
  }
  param {
    lr_mult: 0
    decay_mult: 0
  }
  param {
    lr_mult: 0
    decay_mult: 0
  }
}
layer {
  name: "conv2_0/x2/scale"
  type: "Scale"
  bottom: "conv2_0/x2/bn"
  top: "conv2_0/x2/bn"
  scale_param {
    filler {
      value: 1
    }
    bias_term: true
    bias_filler {
      value: 0
    }
  }
}
layer {
  name: "relu2_0/x2"
  type: "ReLU"
  bottom: "conv2_0/x2/bn"
  top: "conv2_0/x2/bn"
}
layer {
  name: "conv2_0/x2"
  type: "Convolution"
  bottom: "conv2_0/x2/bn"
  top: "conv2_0/x2"
  convolution_param {
    num_output: 32
    bias_term: false
    pad: 1
    kernel_size: 3
    stride: 1
    weight_filler {
      type: "msra"
    }
    bias_filler {
      type: "constant"
    }
    engine: CUDNN
  }
}
layer {
  name: "concat2_0"
  type: "Concat"
  bottom: "pool1"
  bottom: "conv2_0/x2"
  top: "concat2_0"
  concat_param {
    axis: 1
  }
}
layer {
  name: "conv2_1/x1/bn"
  type: "BatchNorm"
  bottom: "concat2_0"
  top: "conv2_1/x1/bn"
  param {
    lr_mult: 0
    decay_mult: 0
  }
  param {
    lr_mult: 0
    decay_mult: 0
  }
  param {
    lr_mult: 0
    decay_mult: 0
  }
}
layer {
  name: "conv2_1/x1/scale"
  type: "Scale"
  bottom: "conv2_1/x1/bn"
  top: "conv2_1/x1/bn"
  scale_param {
    filler {
      value: 1
    }
    bias_term: true
    bias_filler {
      value: 0
    }
  }
}
layer {
  name: "relu2_1/x1"
  type: "ReLU"
  bottom: "conv2_1/x1/bn"
  top: "conv2_1/x1/bn"
}
layer {
  name: "conv2_1/x1"
  type: "Convolution"
  bottom: "conv2_1/x1/bn"
  top: "conv2_1/x1"
  convolution_param {
    num_output: 128
    bias_term: false
    pad: 0
    kernel_size: 1
    stride: 1
    weight_filler {
      type: "msra"
    }
    bias_filler {
      type: "constant"
    }
    engine: CUDNN
  }
}
layer {
  name: "conv2_1/x2/bn"
  type: "BatchNorm"
  bottom: "conv2_1/x1"
  top: "conv2_1/x2/bn"
  param {
    lr_mult: 0
    decay_mult: 0
  }
  param {
    lr_mult: 0
    decay_mult: 0
  }
  param {
    lr_mult: 0
    decay_mult: 0
  }
}
layer {
  name: "conv2_1/x2/scale"
  type: "Scale"
  bottom: "conv2_1/x2/bn"
  top: "conv2_1/x2/bn"
  scale_param {
    filler {
      value: 1
    }
    bias_term: true
    bias_filler {
      value: 0
    }
  }
}
layer {
  name: "relu2_1/x2"
  type: "ReLU"
  bottom: "conv2_1/x2/bn"
  top: "conv2_1/x2/bn"
}
layer {
  name: "conv2_1/x2"
  type: "Convolution"
  bottom: "conv2_1/x2/bn"
  top: "conv2_1/x2"
  convolution_param {
    num_output: 32
    bias_term: false
    pad: 1
    kernel_size: 3
    stride: 1
    weight_filler {
      type: "msra"
    }
    bias_filler {
      type: "constant"
    }
    engine: CUDNN
  }
}
layer {
  name: "concat2_1"
  type: "Concat"
  bottom: "concat2_0"
  bottom: "conv2_1/x2"
  top: "concat2_1"
  concat_param {
    axis: 1
  }
}
layer {
  name: "conv2_2/x1/bn"
  type: "BatchNorm"
  bottom: "concat2_1"
  top: "conv2_2/x1/bn"
  param {
    lr_mult: 0
    decay_mult: 0
  }
  param {
    lr_mult: 0
    decay_mult: 0
  }
  param {
    lr_mult: 0
    decay_mult: 0
  }
}
layer {
  name: "conv2_2/x1/scale"
  type: "Scale"
  bottom: "conv2_2/x1/bn"
  top: "conv2_2/x1/bn"
  scale_param {
    filler {
      value: 1
    }
    bias_term: true
    bias_filler {
      value: 0
    }
  }
}
layer {
  name: "relu2_2/x1"
  type: "ReLU"
  bottom: "conv2_2/x1/bn"
  top: "conv2_2/x1/bn"
}
layer {
  name: "conv2_2/x1"
  type: "Convolution"
  bottom: "conv2_2/x1/bn"
  top: "conv2_2/x1"
  convolution_param {
    num_output: 128
    bias_term: false
    pad: 0
    kernel_size: 1
    stride: 1
    weight_filler {
      type: "msra"
    }
    bias_filler {
      type: "constant"
    }
    engine: CUDNN
  }
}
layer {
  name: "conv2_2/x2/bn"
  type: "BatchNorm"
  bottom: "conv2_2/x1"
  top: "conv2_2/x2/bn"
  param {
    lr_mult: 0
    decay_mult: 0
  }
  param {
    lr_mult: 0
    decay_mult: 0
  }
  param {
    lr_mult: 0
    decay_mult: 0
  }
}
layer {
  name: "conv2_2/x2/scale"
  type: "Scale"
  bottom: "conv2_2/x2/bn"
  top: "conv2_2/x2/bn"
  scale_param {
    filler {
      value: 1
    }
    bias_term: true
    bias_filler {
      value: 0
    }
  }
}
layer {
  name: "relu2_2/x2"
  type: "ReLU"
  bottom: "conv2_2/x2/bn"
  top: "conv2_2/x2/bn"
}
layer {
  name: "conv2_2/x2"
  type: "Convolution"
  bottom: "conv2_2/x2/bn"
  top: "conv2_2/x2"
  convolution_param {
    num_output: 32
    bias_term: false
    pad: 1
    kernel_size: 3
    stride: 1
    weight_filler {
      type: "msra"
    }
    bias_filler {
      type: "constant"
    }
    engine: CUDNN
  }
}
layer {
  name: "concat2_2"
  type: "Concat"
  bottom: "concat2_1"
  bottom: "conv2_2/x2"
  top: "concat2_2"
  concat_param {
    axis: 1
  }
}
layer {
  name: "conv2_3/x1/bn"
  type: "BatchNorm"
  bottom: "concat2_2"
  top: "conv2_3/x1/bn"
  param {
    lr_mult: 0
    decay_mult: 0
  }
  param {
    lr_mult: 0
    decay_mult: 0
  }
  param {
    lr_mult: 0
    decay_mult: 0
  }
}
layer {
  name: "conv2_3/x1/scale"
  type: "Scale"
  bottom: "conv2_3/x1/bn"
  top: "conv2_3/x1/bn"
  scale_param {
    filler {
      value: 1
    }
    bias_term: true
    bias_filler {
      value: 0
    }
  }
}
layer {
  name: "relu2_3/x1"
  type: "ReLU"
  bottom: "conv2_3/x1/bn"
  top: "conv2_3/x1/bn"
}
layer {
  name: "conv2_3/x1"
  type: "Convolution"
  bottom: "conv2_3/x1/bn"
  top: "conv2_3/x1"
  convolution_param {
    num_output: 128
    bias_term: false
    pad: 0
    kernel_size: 1
    stride: 1
    weight_filler {
      type: "msra"
    }
    bias_filler {
      type: "constant"
    }
    engine: CUDNN
  }
}
layer {
  name: "conv2_3/x2/bn"
  type: "BatchNorm"
  bottom: "conv2_3/x1"
  top: "conv2_3/x2/bn"
  param {
    lr_mult: 0
    decay_mult: 0
  }
  param {
    lr_mult: 0
    decay_mult: 0
  }
  param {
    lr_mult: 0
    decay_mult: 0
  }
}
layer {
  name: "conv2_3/x2/scale"
  type: "Scale"
  bottom: "conv2_3/x2/bn"
  top: "conv2_3/x2/bn"
  scale_param {
    filler {
      value: 1
    }
    bias_term: true
    bias_filler {
      value: 0
    }
  }
}
layer {
  name: "relu2_3/x2"
  type: "ReLU"
  bottom: "conv2_3/x2/bn"
  top: "conv2_3/x2/bn"
}
layer {
  name: "conv2_3/x2"
  type: "Convolution"
  bottom: "conv2_3/x2/bn"
  top: "conv2_3/x2"
  convolution_param {
    num_output: 32
    bias_term: false
    pad: 1
    kernel_size: 3
    stride: 1
    weight_filler {
      type: "msra"
    }
    bias_filler {
      type: "constant"
    }
    engine: CUDNN
  }
}
layer {
  name: "concat2_3"
  type: "Concat"
  bottom: "concat2_2"
  bottom: "conv2_3/x2"
  top: "concat2_3"
  concat_param {
    axis: 1
  }
}
layer {
  name: "conv2_4/x1/bn"
  type: "BatchNorm"
  bottom: "concat2_3"
  top: "conv2_4/x1/bn"
  param {
    lr_mult: 0
    decay_mult: 0
  }
  param {
    lr_mult: 0
    decay_mult: 0
  }
  param {
    lr_mult: 0
    decay_mult: 0
  }
}
layer {
  name: "conv2_4/x1/scale"
  type: "Scale"
  bottom: "conv2_4/x1/bn"
  top: "conv2_4/x1/bn"
  scale_param {
    filler {
      value: 1
    }
    bias_term: true
    bias_filler {
      value: 0
    }
  }
}
layer {
  name: "relu2_4/x1"
  type: "ReLU"
  bottom: "conv2_4/x1/bn"
  top: "conv2_4/x1/bn"
}
layer {
  name: "conv2_4/x1"
  type: "Convolution"
  bottom: "conv2_4/x1/bn"
  top: "conv2_4/x1"
  convolution_param {
    num_output: 128
    bias_term: false
    pad: 0
    kernel_size: 1
    stride: 1
    weight_filler {
      type: "msra"
    }
    bias_filler {
      type: "constant"
    }
    engine: CUDNN
  }
}
layer {
  name: "conv2_4/x2/bn"
  type: "BatchNorm"
  bottom: "conv2_4/x1"
  top: "conv2_4/x2/bn"
  param {
    lr_mult: 0
    decay_mult: 0
  }
  param {
    lr_mult: 0
    decay_mult: 0
  }
  param {
    lr_mult: 0
    decay_mult: 0
  }
}
layer {
  name: "conv2_4/x2/scale"
  type: "Scale"
  bottom: "conv2_4/x2/bn"
  top: "conv2_4/x2/bn"
  scale_param {
    filler {
      value: 1
    }
    bias_term: true
    bias_filler {
      value: 0
    }
  }
}
layer {
  name: "relu2_4/x2"
  type: "ReLU"
  bottom: "conv2_4/x2/bn"
  top: "conv2_4/x2/bn"
}
layer {
  name: "conv2_4/x2"
  type: "Convolution"
  bottom: "conv2_4/x2/bn"
  top: "conv2_4/x2"
  convolution_param {
    num_output: 32
    bias_term: false
    pad: 1
    kernel_size: 3
    stride: 1
    weight_filler {
      type: "msra"
    }
    bias_filler {
      type: "constant"
    }
    engine: CUDNN
  }
}
layer {
  name: "concat2_4"
  type: "Concat"
  bottom: "concat2_3"
  bottom: "conv2_4/x2"
  top: "concat2_4"
  concat_param {
    axis: 1
  }
}
layer {
  name: "conv2_5/x1/bn"
  type: "BatchNorm"
  bottom: "concat2_4"
  top: "conv2_5/x1/bn"
  param {
    lr_mult: 0
    decay_mult: 0
  }
  param {
    lr_mult: 0
    decay_mult: 0
  }
  param {
    lr_mult: 0
    decay_mult: 0
  }
}
layer {
  name: "conv2_5/x1/scale"
  type: "Scale"
  bottom: "conv2_5/x1/bn"
  top: "conv2_5/x1/bn"
  scale_param {
    filler {
      value: 1
    }
    bias_term: true
    bias_filler {
      value: 0
    }
  }
}
layer {
  name: "relu2_5/x1"
  type: "ReLU"
  bottom: "conv2_5/x1/bn"
  top: "conv2_5/x1/bn"
}
layer {
  name: "conv2_5/x1"
  type: "Convolution"
  bottom: "conv2_5/x1/bn"
  top: "conv2_5/x1"
  convolution_param {
    num_output: 128
    bias_term: false
    pad: 0
    ke
I1211 15:05:29.891724 15749 layer_factory.hpp:77] Creating layer word_images
I1211 15:05:29.901530 15749 db_lmdb.cpp:35] Opened lmdb /data/fwolf/min26/gw_cv1_nti500000_pul2-3-4-5_train_word_images_lmdb
I1211 15:05:29.901590 15749 net.cpp:84] Creating Layer word_images
I1211 15:05:29.901604 15749 net.cpp:380] word_images -> word_images
I1211 15:05:29.901619 15749 net.cpp:380] word_images -> label
I1211 15:05:29.902925 15749 data_layer.cpp:44] output data size: 1,1,72,422
I1211 15:05:29.915596 15749 net.cpp:122] Setting up word_images
I1211 15:05:29.915629 15749 net.cpp:129] Top shape: 1 1 72 422 (30384)
I1211 15:05:29.915634 15749 net.cpp:129] Top shape: 1 (1)
I1211 15:05:29.915637 15749 net.cpp:137] Memory required for data: 121540
I1211 15:05:29.915644 15749 layer_factory.hpp:77] Creating layer phocs
I1211 15:05:29.915715 15749 db_lmdb.cpp:35] Opened lmdb /data/fwolf/min26/gw_cv1_nti500000_pul2-3-4-5_train_phocs_lmdb
I1211 15:05:29.915762 15749 net.cpp:84] Creating Layer phocs
I1211 15:05:29.915771 15749 net.cpp:380] phocs -> phocs
I1211 15:05:29.915781 15749 net.cpp:380] phocs -> label_phocs
I1211 15:05:29.916128 15749 data_layer.cpp:44] output data size: 1,1,1,604
I1211 15:05:29.919064 15749 net.cpp:122] Setting up phocs
I1211 15:05:29.919093 15749 net.cpp:129] Top shape: 1 1 1 604 (604)
I1211 15:05:29.919100 15749 net.cpp:129] Top shape: 1 (1)
I1211 15:05:29.919103 15749 net.cpp:137] Memory required for data: 123960
I1211 15:05:29.919108 15749 layer_factory.hpp:77] Creating layer conv_init
I1211 15:05:29.919123 15749 net.cpp:84] Creating Layer conv_init
I1211 15:05:29.919127 15749 net.cpp:406] conv_init <- word_images
I1211 15:05:29.919136 15749 net.cpp:380] conv_init -> conv_init
I1211 15:05:31.584120 15749 net.cpp:122] Setting up conv_init
I1211 15:05:31.584151 15749 net.cpp:129] Top shape: 1 32 72 422 (972288)
I1211 15:05:31.584153 15749 net.cpp:137] Memory required for data: 4013112
I1211 15:05:31.584164 15749 layer_factory.hpp:77] Creating layer conv_init_conv_init_0_split
I1211 15:05:31.584172 15749 net.cpp:84] Creating Layer conv_init_conv_init_0_split
I1211 15:05:31.584177 15749 net.cpp:406] conv_init_conv_init_0_split <- conv_init
I1211 15:05:31.584182 15749 net.cpp:380] conv_init_conv_init_0_split -> conv_init_conv_init_0_split_0
I1211 15:05:31.584188 15749 net.cpp:380] conv_init_conv_init_0_split -> conv_init_conv_init_0_split_1
I1211 15:05:31.584235 15749 net.cpp:122] Setting up conv_init_conv_init_0_split
I1211 15:05:31.584241 15749 net.cpp:129] Top shape: 1 32 72 422 (972288)
I1211 15:05:31.584244 15749 net.cpp:129] Top shape: 1 32 72 422 (972288)
I1211 15:05:31.584246 15749 net.cpp:137] Memory required for data: 11791416
I1211 15:05:31.584249 15749 layer_factory.hpp:77] Creating layer conv0_0/x1/bn
I1211 15:05:31.584255 15749 net.cpp:84] Creating Layer conv0_0/x1/bn
I1211 15:05:31.584259 15749 net.cpp:406] conv0_0/x1/bn <- conv_init_conv_init_0_split_0
I1211 15:05:31.584262 15749 net.cpp:380] conv0_0/x1/bn -> conv0_0/x1/bn
I1211 15:05:31.584547 15749 net.cpp:122] Setting up conv0_0/x1/bn
I1211 15:05:31.584553 15749 net.cpp:129] Top shape: 1 32 72 422 (972288)
I1211 15:05:31.584556 15749 net.cpp:137] Memory required for data: 15680568
I1211 15:05:31.584564 15749 layer_factory.hpp:77] Creating layer conv0_0/x1/scale
I1211 15:05:31.584571 15749 net.cpp:84] Creating Layer conv0_0/x1/scale
I1211 15:05:31.584573 15749 net.cpp:406] conv0_0/x1/scale <- conv0_0/x1/bn
I1211 15:05:31.584578 15749 net.cpp:367] conv0_0/x1/scale -> conv0_0/x1/bn (in-place)
I1211 15:05:31.584625 15749 layer_factory.hpp:77] Creating layer conv0_0/x1/scale
I1211 15:05:31.584810 15749 net.cpp:122] Setting up conv0_0/x1/scale
I1211 15:05:31.584818 15749 net.cpp:129] Top shape: 1 32 72 422 (972288)
I1211 15:05:31.584820 15749 net.cpp:137] Memory required for data: 19569720
I1211 15:05:31.584826 15749 layer_factory.hpp:77] Creating layer relu0_0/x1
I1211 15:05:31.584832 15749 net.cpp:84] Creating Layer relu0_0/x1
I1211 15:05:31.584836 15749 net.cpp:406] relu0_0/x1 <- conv0_0/x1/bn
I1211 15:05:31.584838 15749 net.cpp:367] relu0_0/x1 -> conv0_0/x1/bn (in-place)
I1211 15:05:31.585168 15749 net.cpp:122] Setting up relu0_0/x1
I1211 15:05:31.585178 15749 net.cpp:129] Top shape: 1 32 72 422 (972288)
I1211 15:05:31.585181 15749 net.cpp:137] Memory required for data: 23458872
I1211 15:05:31.585184 15749 layer_factory.hpp:77] Creating layer conv0_0/x1
I1211 15:05:31.585194 15749 net.cpp:84] Creating Layer conv0_0/x1
I1211 15:05:31.585197 15749 net.cpp:406] conv0_0/x1 <- conv0_0/x1/bn
I1211 15:05:31.585201 15749 net.cpp:380] conv0_0/x1 -> conv0_0/x1
I1211 15:05:31.587101 15749 net.cpp:122] Setting up conv0_0/x1
I1211 15:05:31.587116 15749 net.cpp:129] Top shape: 1 128 72 422 (3889152)
I1211 15:05:31.587118 15749 net.cpp:137] Memory required for data: 39015480
I1211 15:05:31.587123 15749 layer_factory.hpp:77] Creating layer conv0_0/x2/bn
I1211 15:05:31.587131 15749 net.cpp:84] Creating Layer conv0_0/x2/bn
I1211 15:05:31.587133 15749 net.cpp:406] conv0_0/x2/bn <- conv0_0/x1
I1211 15:05:31.587138 15749 net.cpp:380] conv0_0/x2/bn -> conv0_0/x2/bn
I1211 15:05:31.587435 15749 net.cpp:122] Setting up conv0_0/x2/bn
I1211 15:05:31.587441 15749 net.cpp:129] Top shape: 1 128 72 422 (3889152)
I1211 15:05:31.587443 15749 net.cpp:137] Memory required for data: 54572088
I1211 15:05:31.587451 15749 layer_factory.hpp:77] Creating layer conv0_0/x2/scale
I1211 15:05:31.587460 15749 net.cpp:84] Creating Layer conv0_0/x2/scale
I1211 15:05:31.587463 15749 net.cpp:406] conv0_0/x2/scale <- conv0_0/x2/bn
I1211 15:05:31.587468 15749 net.cpp:367] conv0_0/x2/scale -> conv0_0/x2/bn (in-place)
I1211 15:05:31.587519 15749 layer_factory.hpp:77] Creating layer conv0_0/x2/scale
I1211 15:05:31.588244 15749 net.cpp:122] Setting up conv0_0/x2/scale
I1211 15:05:31.588258 15749 net.cpp:129] Top shape: 1 128 72 422 (3889152)
I1211 15:05:31.588260 15749 net.cpp:137] Memory required for data: 70128696
I1211 15:05:31.588266 15749 layer_factory.hpp:77] Creating layer relu0_0/x2
I1211 15:05:31.588273 15749 net.cpp:84] Creating Layer relu0_0/x2
I1211 15:05:31.588275 15749 net.cpp:406] relu0_0/x2 <- conv0_0/x2/bn
I1211 15:05:31.588279 15749 net.cpp:367] relu0_0/x2 -> conv0_0/x2/bn (in-place)
I1211 15:05:31.588462 15749 net.cpp:122] Setting up relu0_0/x2
I1211 15:05:31.588470 15749 net.cpp:129] Top shape: 1 128 72 422 (3889152)
I1211 15:05:31.588472 15749 net.cpp:137] Memory required for data: 85685304
I1211 15:05:31.588475 15749 layer_factory.hpp:77] Creating layer conv0_0/x2
I1211 15:05:31.588485 15749 net.cpp:84] Creating Layer conv0_0/x2
I1211 15:05:31.588488 15749 net.cpp:406] conv0_0/x2 <- conv0_0/x2/bn
I1211 15:05:31.588495 15749 net.cpp:380] conv0_0/x2 -> conv0_0/x2
I1211 15:05:31.590730 15749 net.cpp:122] Setting up conv0_0/x2
I1211 15:05:31.590754 15749 net.cpp:129] Top shape: 1 32 72 422 (972288)
I1211 15:05:31.590756 15749 net.cpp:137] Memory required for data: 89574456
I1211 15:05:31.590764 15749 layer_factory.hpp:77] Creating layer concat0_0
I1211 15:05:31.590770 15749 net.cpp:84] Creating Layer concat0_0
I1211 15:05:31.590773 15749 net.cpp:406] concat0_0 <- conv_init_conv_init_0_split_1
I1211 15:05:31.590778 15749 net.cpp:406] concat0_0 <- conv0_0/x2
I1211 15:05:31.590783 15749 net.cpp:380] concat0_0 -> concat0_0
I1211 15:05:31.590823 15749 net.cpp:122] Setting up concat0_0
I1211 15:05:31.590829 15749 net.cpp:129] Top shape: 1 64 72 422 (1944576)
I1211 15:05:31.590831 15749 net.cpp:137] Memory required for data: 97352760
I1211 15:05:31.590833 15749 layer_factory.hpp:77] Creating layer concat0_0_concat0_0_0_split
I1211 15:05:31.590839 15749 net.cpp:84] Creating Layer concat0_0_concat0_0_0_split
I1211 15:05:31.590842 15749 net.cpp:406] concat0_0_concat0_0_0_split <- concat0_0
I1211 15:05:31.590845 15749 net.cpp:380] concat0_0_concat0_0_0_split -> concat0_0_concat0_0_0_split_0
I1211 15:05:31.590850 15749 net.cpp:380] concat0_0_concat0_0_0_split -> concat0_0_concat0_0_0_split_1
I1211 15:05:31.590898 15749 net.cpp:122] Setting up concat0_0_concat0_0_0_split
I1211 15:05:31.590901 15749 net.cpp:129] Top shape: 1 64 72 422 (1944576)
I1211 15:05:31.590904 15749 net.cpp:129] Top shape: 1 64 72 422 (1944576)
I1211 15:05:31.590908 15749 net.cpp:137] Memory required for data: 112909368
I1211 15:05:31.590909 15749 layer_factory.hpp:77] Creating layer conv0_1/x1/bn
I1211 15:05:31.590915 15749 net.cpp:84] Creating Layer conv0_1/x1/bn
I1211 15:05:31.590917 15749 net.cpp:406] conv0_1/x1/bn <- concat0_0_concat0_0_0_split_0
I1211 15:05:31.590921 15749 net.cpp:380] conv0_1/x1/bn -> conv0_1/x1/bn
I1211 15:05:31.591215 15749 net.cpp:122] Setting up conv0_1/x1/bn
I1211 15:05:31.591223 15749 net.cpp:129] Top shape: 1 64 72 422 (1944576)
I1211 15:05:31.591225 15749 net.cpp:137] Memory required for data: 120687672
I1211 15:05:31.591233 15749 layer_factory.hpp:77] Creating layer conv0_1/x1/scale
I1211 15:05:31.591238 15749 net.cpp:84] Creating Layer conv0_1/x1/scale
I1211 15:05:31.591241 15749 net.cpp:406] conv0_1/x1/scale <- conv0_1/x1/bn
I1211 15:05:31.591245 15749 net.cpp:367] conv0_1/x1/scale -> conv0_1/x1/bn (in-place)
I1211 15:05:31.591300 15749 layer_factory.hpp:77] Creating layer conv0_1/x1/scale
I1211 15:05:31.591500 15749 net.cpp:122] Setting up conv0_1/x1/scale
I1211 15:05:31.591506 15749 net.cpp:129] Top shape: 1 64 72 422 (1944576)
I1211 15:05:31.591508 15749 net.cpp:137] Memory required for data: 128465976
I1211 15:05:31.591517 15749 layer_factory.hpp:77] Creating layer relu0_1/x1
I1211 15:05:31.591524 15749 net.cpp:84] Creating Layer relu0_1/x1
I1211 15:05:31.591531 15749 net.cpp:406] relu0_1/x1 <- conv0_1/x1/bn
I1211 15:05:31.591536 15749 net.cpp:367] relu0_1/x1 -> conv0_1/x1/bn (in-place)
I1211 15:05:31.591953 15749 net.cpp:122] Setting up relu0_1/x1
I1211 15:05:31.591964 15749 net.cpp:129] Top shape: 1 64 72 422 (1944576)
I1211 15:05:31.591966 15749 net.cpp:137] Memory required for data: 136244280
I1211 15:05:31.591969 15749 layer_factory.hpp:77] Creating layer conv0_1/x1
I1211 15:05:31.591979 15749 net.cpp:84] Creating Layer conv0_1/x1
I1211 15:05:31.591982 15749 net.cpp:406] conv0_1/x1 <- conv0_1/x1/bn
I1211 15:05:31.591987 15749 net.cpp:380] conv0_1/x1 -> conv0_1/x1
I1211 15:05:31.594220 15749 net.cpp:122] Setting up conv0_1/x1
I1211 15:05:31.594249 15749 net.cpp:129] Top shape: 1 128 72 422 (3889152)
I1211 15:05:31.594252 15749 net.cpp:137] Memory required for data: 151800888
I1211 15:05:31.594260 15749 layer_factory.hpp:77] Creating layer conv0_1/x2/bn
I1211 15:05:31.594271 15749 net.cpp:84] Creating Layer conv0_1/x2/bn
I1211 15:05:31.594275 15749 net.cpp:406] conv0_1/x2/bn <- conv0_1/x1
I1211 15:05:31.594280 15749 net.cpp:380] conv0_1/x2/bn -> conv0_1/x2/bn
I1211 15:05:31.594596 15749 net.cpp:122] Setting up conv0_1/x2/bn
I1211 15:05:31.594604 15749 net.cpp:129] Top shape: 1 128 72 422 (3889152)
I1211 15:05:31.594606 15749 net.cpp:137] Memory required for data: 167357496
I1211 15:05:31.594612 15749 layer_factory.hpp:77] Creating layer conv0_1/x2/scale
I1211 15:05:31.594620 15749 net.cpp:84] Creating Layer conv0_1/x2/scale
I1211 15:05:31.594624 15749 net.cpp:406] conv0_1/x2/scale <- conv0_1/x2/bn
I1211 15:05:31.594626 15749 net.cpp:367] conv0_1/x2/scale -> conv0_1/x2/bn (in-place)
I1211 15:05:31.594678 15749 layer_factory.hpp:77] Creating layer conv0_1/x2/scale
I1211 15:05:31.594861 15749 net.cpp:122] Setting up conv0_1/x2/scale
I1211 15:05:31.594868 15749 net.cpp:129] Top shape: 1 128 72 422 (3889152)
I1211 15:05:31.594871 15749 net.cpp:137] Memory required for data: 182914104
I1211 15:05:31.594875 15749 layer_factory.hpp:77] Creating layer relu0_1/x2
I1211 15:05:31.594882 15749 net.cpp:84] Creating Layer relu0_1/x2
I1211 15:05:31.594883 15749 net.cpp:406] relu0_1/x2 <- conv0_1/x2/bn
I1211 15:05:31.594888 15749 net.cpp:367] relu0_1/x2 -> conv0_1/x2/bn (in-place)
I1211 15:05:31.595062 15749 net.cpp:122] Setting up relu0_1/x2
I1211 15:05:31.595068 15749 net.cpp:129] Top shape: 1 128 72 422 (3889152)
I1211 15:05:31.595072 15749 net.cpp:137] Memory required for data: 198470712
I1211 15:05:31.595073 15749 layer_factory.hpp:77] Creating layer conv0_1/x2
I1211 15:05:31.595082 15749 net.cpp:84] Creating Layer conv0_1/x2
I1211 15:05:31.595085 15749 net.cpp:406] conv0_1/x2 <- conv0_1/x2/bn
I1211 15:05:31.595090 15749 net.cpp:380] conv0_1/x2 -> conv0_1/x2
I1211 15:05:31.597971 15749 net.cpp:122] Setting up conv0_1/x2
I1211 15:05:31.597995 15749 net.cpp:129] Top shape: 1 32 72 422 (972288)
I1211 15:05:31.597997 15749 net.cpp:137] Memory required for data: 202359864
I1211 15:05:31.598004 15749 layer_factory.hpp:77] Creating layer concat0_1
I1211 15:05:31.598013 15749 net.cpp:84] Creating Layer concat0_1
I1211 15:05:31.598017 15749 net.cpp:406] concat0_1 <- concat0_0_concat0_0_0_split_1
I1211 15:05:31.598022 15749 net.cpp:406] concat0_1 <- conv0_1/x2
I1211 15:05:31.598026 15749 net.cpp:380] concat0_1 -> concat0_1
I1211 15:05:31.598067 15749 net.cpp:122] Setting up concat0_1
I1211 15:05:31.598073 15749 net.cpp:129] Top shape: 1 96 72 422 (2916864)
I1211 15:05:31.598076 15749 net.cpp:137] Memory required for data: 214027320
I1211 15:05:31.598078 15749 layer_factory.hpp:77] Creating layer concat0_1_concat0_1_0_split
I1211 15:05:31.598084 15749 net.cpp:84] Creating Layer concat0_1_concat0_1_0_split
I1211 15:05:31.598086 15749 net.cpp:406] concat0_1_concat0_1_0_split <- concat0_1
I1211 15:05:31.598090 15749 net.cpp:380] concat0_1_concat0_1_0_split -> concat0_1_concat0_1_0_split_0
I1211 15:05:31.598095 15749 net.cpp:380] concat0_1_concat0_1_0_split -> concat0_1_concat0_1_0_split_1
I1211 15:05:31.598142 15749 net.cpp:122] Setting up concat0_1_concat0_1_0_split
I1211 15:05:31.598152 15749 net.cpp:129] Top shape: 1 96 72 422 (2916864)
I1211 15:05:31.598155 15749 net.cpp:129] Top shape: 1 96 72 422 (2916864)
I1211 15:05:31.598157 15749 net.cpp:137] Memory required for data: 237362232
I1211 15:05:31.598160 15749 layer_factory.hpp:77] Creating layer conv0_2/x1/bn
I1211 15:05:31.598165 15749 net.cpp:84] Creating Layer conv0_2/x1/bn
I1211 15:05:31.598168 15749 net.cpp:406] conv0_2/x1/bn <- concat0_1_concat0_1_0_split_0
I1211 15:05:31.598172 15749 net.cpp:380] conv0_2/x1/bn -> conv0_2/x1/bn
I1211 15:05:31.598476 15749 net.cpp:122] Setting up conv0_2/x1/bn
I1211 15:05:31.598482 15749 net.cpp:129] Top shape: 1 96 72 422 (2916864)
I1211 15:05:31.598485 15749 net.cpp:137] Memory required for data: 249029688
I1211 15:05:31.598491 15749 layer_factory.hpp:77] Creating layer conv0_2/x1/scale
I1211 15:05:31.598498 15749 net.cpp:84] Creating Layer conv0_2/x1/scale
I1211 15:05:31.598501 15749 net.cpp:406] conv0_2/x1/scale <- conv0_2/x1/bn
I1211 15:05:31.598505 15749 net.cpp:367] conv0_2/x1/scale -> conv0_2/x1/bn (in-place)
I1211 15:05:31.598556 15749 layer_factory.hpp:77] Creating layer conv0_2/x1/scale
I1211 15:05:31.598747 15749 net.cpp:122] Setting up conv0_2/x1/scale
I1211 15:05:31.598752 15749 net.cpp:129] Top shape: 1 96 72 422 (2916864)
I1211 15:05:31.598755 15749 net.cpp:137] Memory required for data: 260697144
I1211 15:05:31.598759 15749 layer_factory.hpp:77] Creating layer relu0_2/x1
I1211 15:05:31.598765 15749 net.cpp:84] Creating Layer relu0_2/x1
I1211 15:05:31.598767 15749 net.cpp:406] relu0_2/x1 <- conv0_2/x1/bn
I1211 15:05:31.598772 15749 net.cpp:367] relu0_2/x1 -> conv0_2/x1/bn (in-place)
I1211 15:05:31.599112 15749 net.cpp:122] Setting up relu0_2/x1
I1211 15:05:31.599123 15749 net.cpp:129] Top shape: 1 96 72 422 (2916864)
I1211 15:05:31.599125 15749 net.cpp:137] Memory required for data: 272364600
I1211 15:05:31.599128 15749 layer_factory.hpp:77] Creating layer conv0_2/x1
I1211 15:05:31.599138 15749 net.cpp:84] Creating Layer conv0_2/x1
I1211 15:05:31.599140 15749 net.cpp:406] conv0_2/x1 <- conv0_2/x1/bn
I1211 15:05:31.599145 15749 net.cpp:380] conv0_2/x1 -> conv0_2/x1
I1211 15:05:31.600713 15749 net.cpp:122] Setting up conv0_2/x1
I1211 15:05:31.600726 15749 net.cpp:129] Top shape: 1 128 72 422 (3889152)
I1211 15:05:31.600729 15749 net.cpp:137] Memory required for data: 287921208
I1211 15:05:31.600734 15749 layer_factory.hpp:77] Creating layer conv0_2/x2/bn
I1211 15:05:31.600740 15749 net.cpp:84] Creating Layer conv0_2/x2/bn
I1211 15:05:31.600744 15749 net.cpp:406] conv0_2/x2/bn <- conv0_2/x1
I1211 15:05:31.600749 15749 net.cpp:380] conv0_2/x2/bn -> conv0_2/x2/bn
I1211 15:05:31.601053 15749 net.cpp:122] Setting up conv0_2/x2/bn
I1211 15:05:31.601060 15749 net.cpp:129] Top shape: 1 128 72 422 (3889152)
I1211 15:05:31.601063 15749 net.cpp:137] Memory required for data: 303477816
I1211 15:05:31.601073 15749 layer_factory.hpp:77] Creating layer conv0_2/x2/scale
I1211 15:05:31.601079 15749 net.cpp:84] Creating Layer conv0_2/x2/scale
I1211 15:05:31.601083 15749 net.cpp:406] conv0_2/x2/scale <- conv0_2/x2/bn
I1211 15:05:31.601086 15749 net.cpp:367] conv0_2/x2/scale -> conv0_2/x2/bn (in-place)
I1211 15:05:31.601137 15749 layer_factory.hpp:77] Creating layer conv0_2/x2/scale
I1211 15:05:31.601318 15749 net.cpp:122] Setting up conv0_2/x2/scale
I1211 15:05:31.601325 15749 net.cpp:129] Top shape: 1 128 72 422 (3889152)
I1211 15:05:31.601327 15749 net.cpp:137] Memory required for data: 319034424
I1211 15:05:31.601331 15749 layer_factory.hpp:77] Creating layer relu0_2/x2
I1211 15:05:31.601338 15749 net.cpp:84] Creating Layer relu0_2/x2
I1211 15:05:31.601341 15749 net.cpp:406] relu0_2/x2 <- conv0_2/x2/bn
I1211 15:05:31.601344 15749 net.cpp:367] relu0_2/x2 -> conv0_2/x2/bn (in-place)
I1211 15:05:31.601689 15749 net.cpp:122] Setting up relu0_2/x2
I1211 15:05:31.601699 15749 net.cpp:129] Top shape: 1 128 72 422 (3889152)
I1211 15:05:31.601702 15749 net.cpp:137] Memory required for data: 334591032
I1211 15:05:31.601706 15749 layer_factory.hpp:77] Creating layer conv0_2/x2
I1211 15:05:31.601719 15749 net.cpp:84] Creating Layer conv0_2/x2
I1211 15:05:31.601723 15749 net.cpp:406] conv0_2/x2 <- conv0_2/x2/bn
I1211 15:05:31.601727 15749 net.cpp:380] conv0_2/x2 -> conv0_2/x2
I1211 15:05:31.612390 15749 net.cpp:122] Setting up conv0_2/x2
I1211 15:05:31.612426 15749 net.cpp:129] Top shape: 1 32 72 422 (972288)
I1211 15:05:31.612431 15749 net.cpp:137] Memory required for data: 338480184
I1211 15:05:31.612442 15749 layer_factory.hpp:77] Creating layer concat0_2
I1211 15:05:31.612457 15749 net.cpp:84] Creating Layer concat0_2
I1211 15:05:31.612463 15749 net.cpp:406] concat0_2 <- concat0_1_concat0_1_0_split_1
I1211 15:05:31.612470 15749 net.cpp:406] concat0_2 <- conv0_2/x2
I1211 15:05:31.612478 15749 net.cpp:380] concat0_2 -> concat0_2
I1211 15:05:31.612534 15749 net.cpp:122] Setting up concat0_2
I1211 15:05:31.612541 15749 net.cpp:129] Top shape: 1 128 72 422 (3889152)
I1211 15:05:31.612545 15749 net.cpp:137] Memory required for data: 354036792
I1211 15:05:31.612550 15749 layer_factory.hpp:77] Creating layer BatchNorm1
I1211 15:05:31.612557 15749 net.cpp:84] Creating Layer BatchNorm1
I1211 15:05:31.612562 15749 net.cpp:406] BatchNorm1 <- concat0_2
I1211 15:05:31.612570 15749 net.cpp:380] BatchNorm1 -> BatchNorm1
I1211 15:05:31.632721 15749 net.cpp:122] Setting up BatchNorm1
I1211 15:05:31.632757 15749 net.cpp:129] Top shape: 1 128 72 422 (3889152)
I1211 15:05:31.632761 15749 net.cpp:137] Memory required for data: 369593400
I1211 15:05:31.632776 15749 layer_factory.hpp:77] Creating layer Scale1
I1211 15:05:31.632789 15749 net.cpp:84] Creating Layer Scale1
I1211 15:05:31.632796 15749 net.cpp:406] Scale1 <- BatchNorm1
I1211 15:05:31.632804 15749 net.cpp:367] Scale1 -> BatchNorm1 (in-place)
I1211 15:05:31.632884 15749 layer_factory.hpp:77] Creating layer Scale1
I1211 15:05:31.633147 15749 net.cpp:122] Setting up Scale1
I1211 15:05:31.633155 15749 net.cpp:129] Top shape: 1 128 72 422 (3889152)
I1211 15:05:31.633159 15749 net.cpp:137] Memory required for data: 385150008
I1211 15:05:31.633167 15749 layer_factory.hpp:77] Creating layer ReLU1
I1211 15:05:31.633174 15749 net.cpp:84] Creating Layer ReLU1
I1211 15:05:31.633178 15749 net.cpp:406] ReLU1 <- BatchNorm1
I1211 15:05:31.633184 15749 net.cpp:367] ReLU1 -> BatchNorm1 (in-place)
I1211 15:05:31.633476 15749 net.cpp:122] Setting up ReLU1
I1211 15:05:31.633487 15749 net.cpp:129] Top shape: 1 128 72 422 (3889152)
I1211 15:05:31.633491 15749 net.cpp:137] Memory required for data: 400706616
I1211 15:05:31.633496 15749 layer_factory.hpp:77] Creating layer conv0_blk
I1211 15:05:31.633509 15749 net.cpp:84] Creating Layer conv0_blk
I1211 15:05:31.633513 15749 net.cpp:406] conv0_blk <- BatchNorm1
I1211 15:05:31.633522 15749 net.cpp:380] conv0_blk -> conv0_blk
I1211 15:05:31.635732 15749 net.cpp:122] Setting up conv0_blk
I1211 15:05:31.694567 15749 net.cpp:129] Top shape: 1 64 72 422 (1944576)
I1211 15:05:31.694594 15749 net.cpp:137] Memory required for data: 408484920
I1211 15:05:31.694607 15749 layer_factory.hpp:77] Creating layer pool0
I1211 15:05:31.694620 15749 net.cpp:84] Creating Layer pool0
I1211 15:05:31.694627 15749 net.cpp:406] pool0 <- conv0_blk
I1211 15:05:31.694635 15749 net.cpp:380] pool0 -> pool0
I1211 15:05:31.695312 15749 net.cpp:122] Setting up pool0
I1211 15:05:31.695327 15749 net.cpp:129] Top shape: 1 64 36 211 (486144)
I1211 15:05:31.695333 15749 net.cpp:137] Memory required for data: 410429496
I1211 15:05:31.695336 15749 layer_factory.hpp:77] Creating layer pool0_pool0_0_split
I1211 15:05:31.695343 15749 net.cpp:84] Creating Layer pool0_pool0_0_split
I1211 15:05:31.695348 15749 net.cpp:406] pool0_pool0_0_split <- pool0
I1211 15:05:31.695354 15749 net.cpp:380] pool0_pool0_0_split -> pool0_pool0_0_split_0
I1211 15:05:31.695361 15749 net.cpp:380] pool0_pool0_0_split -> pool0_pool0_0_split_1
I1211 15:05:31.695436 15749 net.cpp:122] Setting up pool0_pool0_0_split
I1211 15:05:31.695444 15749 net.cpp:129] Top shape: 1 64 36 211 (486144)
I1211 15:05:31.695451 15749 net.cpp:129] Top shape: 1 64 36 211 (486144)
I1211 15:05:31.695453 15749 net.cpp:137] Memory required for data: 414318648
I1211 15:05:31.695461 15749 layer_factory.hpp:77] Creating layer conv1_0/x1/bn
I1211 15:05:31.695469 15749 net.cpp:84] Creating Layer conv1_0/x1/bn
I1211 15:05:31.695473 15749 net.cpp:406] conv1_0/x1/bn <- pool0_pool0_0_split_0
I1211 15:05:31.695482 15749 net.cpp:380] conv1_0/x1/bn -> conv1_0/x1/bn
I1211 15:05:31.695917 15749 net.cpp:122] Setting up conv1_0/x1/bn
I1211 15:05:31.695927 15749 net.cpp:129] Top shape: 1 64 36 211 (486144)
I1211 15:05:31.695931 15749 net.cpp:137] Memory required for data: 416263224
I1211 15:05:31.695942 15749 layer_factory.hpp:77] Creating layer conv1_0/x1/scale
I1211 15:05:31.695952 15749 net.cpp:84] Creating Layer conv1_0/x1/scale
I1211 15:05:31.695957 15749 net.cpp:406] conv1_0/x1/scale <- conv1_0/x1/bn
I1211 15:05:31.695962 15749 net.cpp:367] conv1_0/x1/scale -> conv1_0/x1/bn (in-place)
I1211 15:05:31.696038 15749 layer_factory.hpp:77] Creating layer conv1_0/x1/scale
I1211 15:05:31.696270 15749 net.cpp:122] Setting up conv1_0/x1/scale
I1211 15:05:31.696280 15749 net.cpp:129] Top shape: 1 64 36 211 (486144)
I1211 15:05:31.696283 15749 net.cpp:137] Memory required for data: 418207800
I1211 15:05:31.696291 15749 layer_factory.hpp:77] Creating layer relu1_0/x1
I1211 15:05:31.696300 15749 net.cpp:84] Creating Layer relu1_0/x1
I1211 15:05:31.696303 15749 net.cpp:406] relu1_0/x1 <- conv1_0/x1/bn
I1211 15:05:31.696308 15749 net.cpp:367] relu1_0/x1 -> conv1_0/x1/bn (in-place)
I1211 15:05:31.696528 15749 net.cpp:122] Setting up relu1_0/x1
I1211 15:05:31.696539 15749 net.cpp:129] Top shape: 1 64 36 211 (486144)
I1211 15:05:31.696543 15749 net.cpp:137] Memory required for data: 420152376
I1211 15:05:31.696547 15749 layer_factory.hpp:77] Creating layer conv1_0/x1
I1211 15:05:31.696560 15749 net.cpp:84] Creating Layer conv1_0/x1
I1211 15:05:31.696564 15749 net.cpp:406] conv1_0/x1 <- conv1_0/x1/bn
I1211 15:05:31.696571 15749 net.cpp:380] conv1_0/x1 -> conv1_0/x1
I1211 15:05:31.698333 15749 net.cpp:122] Setting up conv1_0/x1
I1211 15:05:31.698348 15749 net.cpp:129] Top shape: 1 128 36 211 (972288)
I1211 15:05:31.698351 15749 net.cpp:137] Memory required for data: 424041528
I1211 15:05:31.698359 15749 layer_factory.hpp:77] Creating layer conv1_0/x2/bn
I1211 15:05:31.698367 15749 net.cpp:84] Creating Layer conv1_0/x2/bn
I1211 15:05:31.698371 15749 net.cpp:406] conv1_0/x2/bn <- conv1_0/x1
I1211 15:05:31.698379 15749 net.cpp:380] conv1_0/x2/bn -> conv1_0/x2/bn
I1211 15:05:31.698770 15749 net.cpp:122] Setting up conv1_0/x2/bn
I1211 15:05:31.698777 15749 net.cpp:129] Top shape: 1 128 36 211 (972288)
I1211 15:05:31.698781 15749 net.cpp:137] Memory required for data: 427930680
I1211 15:05:31.698791 15749 layer_factory.hpp:77] Creating layer conv1_0/x2/scale
I1211 15:05:31.698797 15749 net.cpp:84] Creating Layer conv1_0/x2/scale
I1211 15:05:31.698802 15749 net.cpp:406] conv1_0/x2/scale <- conv1_0/x2/bn
I1211 15:05:31.698810 15749 net.cpp:367] conv1_0/x2/scale -> conv1_0/x2/bn (in-place)
I1211 15:05:31.698881 15749 layer_factory.hpp:77] Creating layer conv1_0/x2/scale
I1211 15:05:31.699098 15749 net.cpp:122] Setting up conv1_0/x2/scale
I1211 15:05:31.699107 15749 net.cpp:129] Top shape: 1 128 36 211 (972288)
I1211 15:05:31.699111 15749 net.cpp:137] Memory required for data: 431819832
I1211 15:05:31.699118 15749 layer_factory.hpp:77] Creating layer relu1_0/x2
I1211 15:05:31.699124 15749 net.cpp:84] Creating Layer relu1_0/x2
I1211 15:05:31.699129 15749 net.cpp:406] relu1_0/x2 <- conv1_0/x2/bn
I1211 15:05:31.699134 15749 net.cpp:367] relu1_0/x2 -> conv1_0/x2/bn (in-place)
I1211 15:05:31.699545 15749 net.cpp:122] Setting up relu1_0/x2
I1211 15:05:31.699559 15749 net.cpp:129] Top shape: 1 128 36 211 (972288)
I1211 15:05:31.699563 15749 net.cpp:137] Memory required for data: 435708984
I1211 15:05:31.699568 15749 layer_factory.hpp:77] Creating layer conv1_0/x2
I1211 15:05:31.699579 15749 net.cpp:84] Creating Layer conv1_0/x2
I1211 15:05:31.699584 15749 net.cpp:406] conv1_0/x2 <- conv1_0/x2/bn
I1211 15:05:31.699590 15749 net.cpp:380] conv1_0/x2 -> conv1_0/x2
I1211 15:05:31.728193 15749 net.cpp:122] Setting up conv1_0/x2
I1211 15:05:31.728233 15749 net.cpp:129] Top shape: 1 32 36 211 (243072)
I1211 15:05:31.728238 15749 net.cpp:137] Memory required for data: 436681272
I1211 15:05:31.728250 15749 layer_factory.hpp:77] Creating layer concat1_0
I1211 15:05:31.728265 15749 net.cpp:84] Creating Layer concat1_0
I1211 15:05:31.728271 15749 net.cpp:406] concat1_0 <- pool0_pool0_0_split_1
I1211 15:05:31.728278 15749 net.cpp:406] concat1_0 <- conv1_0/x2
I1211 15:05:31.728286 15749 net.cpp:380] concat1_0 -> concat1_0
I1211 15:05:31.728350 15749 net.cpp:122] Setting up concat1_0
I1211 15:05:31.728358 15749 net.cpp:129] Top shape: 1 96 36 211 (729216)
I1211 15:05:31.728363 15749 net.cpp:137] Memory required for data: 439598136
I1211 15:05:31.728366 15749 layer_factory.hpp:77] Creating layer concat1_0_concat1_0_0_split
I1211 15:05:31.728374 15749 net.cpp:84] Creating Layer concat1_0_concat1_0_0_split
I1211 15:05:31.728379 15749 net.cpp:406] concat1_0_concat1_0_0_split <- concat1_0
I1211 15:05:31.728384 15749 net.cpp:380] concat1_0_concat1_0_0_split -> concat1_0_concat1_0_0_split_0
I1211 15:05:31.728392 15749 net.cpp:380] concat1_0_concat1_0_0_split -> concat1_0_concat1_0_0_split_1
I1211 15:05:31.728461 15749 net.cpp:122] Setting up concat1_0_concat1_0_0_split
I1211 15:05:31.728468 15749 net.cpp:129] Top shape: 1 96 36 211 (729216)
I1211 15:05:31.728473 15749 net.cpp:129] Top shape: 1 96 36 211 (729216)
I1211 15:05:31.728477 15749 net.cpp:137] Memory required for data: 445431864
I1211 15:05:31.728482 15749 layer_factory.hpp:77] Creating layer conv1_1/x1/bn
I1211 15:05:31.728489 15749 net.cpp:84] Creating Layer conv1_1/x1/bn
I1211 15:05:31.728493 15749 net.cpp:406] conv1_1/x1/bn <- concat1_0_concat1_0_0_split_0
I1211 15:05:31.728500 15749 net.cpp:380] conv1_1/x1/bn -> conv1_1/x1/bn
I1211 15:05:31.728941 15749 net.cpp:122] Setting up conv1_1/x1/bn
I1211 15:05:31.728950 15749 net.cpp:129] Top shape: 1 96 36 211 (729216)
I1211 15:05:31.728955 15749 net.cpp:137] Memory required for data: 448348728
I1211 15:05:31.728966 15749 layer_factory.hpp:77] Creating layer conv1_1/x1/scale
I1211 15:05:31.728976 15749 net.cpp:84] Creating Layer conv1_1/x1/scale
I1211 15:05:31.728981 15749 net.cpp:406] conv1_1/x1/scale <- conv1_1/x1/bn
I1211 15:05:31.728986 15749 net.cpp:367] conv1_1/x1/scale -> conv1_1/x1/bn (in-place)
I1211 15:05:31.729061 15749 layer_factory.hpp:77] Creating layer conv1_1/x1/scale
I1211 15:05:31.729301 15749 net.cpp:122] Setting up conv1_1/x1/scale
I1211 15:05:31.729310 15749 net.cpp:129] Top shape: 1 96 36 211 (729216)
I1211 15:05:31.729315 15749 net.cpp:137] Memory required for data: 451265592
I1211 15:05:31.729321 15749 layer_factory.hpp:77] Creating layer relu1_1/x1
I1211 15:05:31.729329 15749 net.cpp:84] Creating Layer relu1_1/x1
I1211 15:05:31.729333 15749 net.cpp:406] relu1_1/x1 <- conv1_1/x1/bn
I1211 15:05:31.729341 15749 net.cpp:367] relu1_1/x1 -> conv1_1/x1/bn (in-place)
I1211 15:05:31.729907 15749 net.cpp:122] Setting up relu1_1/x1
I1211 15:05:31.729925 15749 net.cpp:129] Top shape: 1 96 36 211 (729216)
I1211 15:05:31.729930 15749 net.cpp:137] Memory required for data: 454182456
I1211 15:05:31.729935 15749 layer_factory.hpp:77] Creating layer conv1_1/x1
I1211 15:05:31.729950 15749 net.cpp:84] Creating Layer conv1_1/x1
I1211 15:05:31.729955 15749 net.cpp:406] conv1_1/x1 <- conv1_1/x1/bn
I1211 15:05:31.729964 15749 net.cpp:380] conv1_1/x1 -> conv1_1/x1
I1211 15:05:31.801384 15749 net.cpp:122] Setting up conv1_1/x1
I1211 15:05:31.801421 15749 net.cpp:129] Top shape: 1 128 36 211 (972288)
I1211 15:05:31.801425 15749 net.cpp:137] Memory required for data: 458071608
I1211 15:05:31.801436 15749 layer_factory.hpp:77] Creating layer conv1_1/x2/bn
I1211 15:05:31.801450 15749 net.cpp:84] Creating Layer conv1_1/x2/bn
I1211 15:05:31.801455 15749 net.cpp:406] conv1_1/x2/bn <- conv1_1/x1
I1211 15:05:31.801465 15749 net.cpp:380] conv1_1/x2/bn -> conv1_1/x2/bn
I1211 15:05:31.801877 15749 net.cpp:122] Setting up conv1_1/x2/bn
I1211 15:05:31.801887 15749 net.cpp:129] Top shape: 1 128 36 211 (972288)
I1211 15:05:31.801895 15749 net.cpp:137] Memory required for data: 461960760
I1211 15:05:31.801905 15749 layer_factory.hpp:77] Creating layer conv1_1/x2/scale
I1211 15:05:31.801915 15749 net.cpp:84] Creating Layer conv1_1/x2/scale
I1211 15:05:31.801919 15749 net.cpp:406] conv1_1/x2/scale <- conv1_1/x2/bn
I1211 15:05:31.801928 15749 net.cpp:367] conv1_1/x2/scale -> conv1_1/x2/bn (in-place)
I1211 15:05:31.802006 15749 layer_factory.hpp:77] Creating layer conv1_1/x2/scale
I1211 15:05:31.802245 15749 net.cpp:122] Setting up conv1_1/x2/scale
I1211 15:05:31.802254 15749 net.cpp:129] Top shape: 1 128 36 211 (972288)
I1211 15:05:31.802258 15749 net.cpp:137] Memory required for data: 465849912
I1211 15:05:31.802273 15749 layer_factory.hpp:77] Creating layer relu1_1/x2
I1211 15:05:31.802281 15749 net.cpp:84] Creating Layer relu1_1/x2
I1211 15:05:31.802285 15749 net.cpp:406] relu1_1/x2 <- conv1_1/x2/bn
I1211 15:05:31.802291 15749 net.cpp:367] relu1_1/x2 -> conv1_1/x2/bn (in-place)
I1211 15:05:31.802530 15749 net.cpp:122] Setting up relu1_1/x2
I1211 15:05:31.802541 15749 net.cpp:129] Top shape: 1 128 36 211 (972288)
I1211 15:05:31.802544 15749 net.cpp:137] Memory required for data: 469739064
I1211 15:05:31.802548 15749 layer_factory.hpp:77] Creating layer conv1_1/x2
I1211 15:05:31.802562 15749 net.cpp:84] Creating Layer conv1_1/x2
I1211 15:05:31.802567 15749 net.cpp:406] conv1_1/x2 <- conv1_1/x2/bn
I1211 15:05:31.802574 15749 net.cpp:380] conv1_1/x2 -> conv1_1/x2
I1211 15:05:31.805896 15749 net.cpp:122] Setting up conv1_1/x2
I1211 15:05:31.805932 15749 net.cpp:129] Top shape: 1 32 36 211 (243072)
I1211 15:05:31.805936 15749 net.cpp:137] Memory required for data: 470711352
I1211 15:05:31.805946 15749 layer_factory.hpp:77] Creating layer concat1_1
I1211 15:05:31.805960 15749 net.cpp:84] Creating Layer concat1_1
I1211 15:05:31.805968 15749 net.cpp:406] concat1_1 <- concat1_0_concat1_0_0_split_1
I1211 15:05:31.805975 15749 net.cpp:406] concat1_1 <- conv1_1/x2
I1211 15:05:31.805982 15749 net.cpp:380] concat1_1 -> concat1_1
I1211 15:05:31.806041 15749 net.cpp:122] Setting up concat1_1
I1211 15:05:31.806049 15749 net.cpp:129] Top shape: 1 128 36 211 (972288)
I1211 15:05:31.806053 15749 net.cpp:137] Memory required for data: 474600504
I1211 15:05:31.806057 15749 layer_factory.hpp:77] Creating layer concat1_1_concat1_1_0_split
I1211 15:05:31.806064 15749 net.cpp:84] Creating Layer concat1_1_concat1_1_0_split
I1211 15:05:31.806068 15749 net.cpp:406] concat1_1_concat1_1_0_split <- concat1_1
I1211 15:05:31.806076 15749 net.cpp:380] concat1_1_concat1_1_0_split -> concat1_1_concat1_1_0_split_0
I1211 15:05:31.806082 15749 net.cpp:380] concat1_1_concat1_1_0_split -> concat1_1_concat1_1_0_split_1
I1211 15:05:31.806151 15749 net.cpp:122] Setting up concat1_1_concat1_1_0_split
I1211 15:05:31.806159 15749 net.cpp:129] Top shape: 1 128 36 211 (972288)
I1211 15:05:31.806164 15749 net.cpp:129] Top shape: 1 128 36 211 (972288)
I1211 15:05:31.806169 15749 net.cpp:137] Memory required for data: 482378808
I1211 15:05:31.806171 15749 layer_factory.hpp:77] Creating layer conv1_2/x1/bn
I1211 15:05:31.806180 15749 net.cpp:84] Creating Layer conv1_2/x1/bn
I1211 15:05:31.806185 15749 net.cpp:406] conv1_2/x1/bn <- concat1_1_concat1_1_0_split_0
I1211 15:05:31.806191 15749 net.cpp:380] conv1_2/x1/bn -> conv1_2/x1/bn
I1211 15:05:31.806607 15749 net.cpp:122] Setting up conv1_2/x1/bn
I1211 15:05:31.806615 15749 net.cpp:129] Top shape: 1 128 36 211 (972288)
I1211 15:05:31.806619 15749 net.cpp:137] Memory required for data: 486267960
I1211 15:05:31.806629 15749 layer_factory.hpp:77] Creating layer conv1_2/x1/scale
I1211 15:05:31.806639 15749 net.cpp:84] Creating Layer conv1_2/x1/scale
I1211 15:05:31.806644 15749 net.cpp:406] conv1_2/x1/scale <- conv1_2/x1/bn
I1211 15:05:31.806650 15749 net.cpp:367] conv1_2/x1/scale -> conv1_2/x1/bn (in-place)
I1211 15:05:31.806727 15749 layer_factory.hpp:77] Creating layer conv1_2/x1/scale
I1211 15:05:31.806951 15749 net.cpp:122] Setting up conv1_2/x1/scale
I1211 15:05:31.806960 15749 net.cpp:129] Top shape: 1 128 36 211 (972288)
I1211 15:05:31.806964 15749 net.cpp:137] Memory required for data: 490157112
I1211 15:05:31.806977 15749 layer_factory.hpp:77] Creating layer relu1_2/x1
I1211 15:05:31.806985 15749 net.cpp:84] Creating Layer relu1_2/x1
I1211 15:05:31.806989 15749 net.cpp:406] relu1_2/x1 <- conv1_2/x1/bn
I1211 15:05:31.806995 15749 net.cpp:367] relu1_2/x1 -> conv1_2/x1/bn (in-place)
I1211 15:05:31.807435 15749 net.cpp:122] Setting up relu1_2/x1
I1211 15:05:31.807448 15749 net.cpp:129] Top shape: 1 128 36 211 (972288)
I1211 15:05:31.807452 15749 net.cpp:137] Memory required for data: 494046264
I1211 15:05:31.807457 15749 layer_factory.hpp:77] Creating layer conv1_2/x1
I1211 15:05:31.807471 15749 net.cpp:84] Creating Layer conv1_2/x1
I1211 15:05:31.807476 15749 net.cpp:406] conv1_2/x1 <- conv1_2/x1/bn
I1211 15:05:31.807482 15749 net.cpp:380] conv1_2/x1 -> conv1_2/x1
I1211 15:05:31.809598 15749 net.cpp:122] Setting up conv1_2/x1
I1211 15:05:31.809613 15749 net.cpp:129] Top shape: 1 128 36 211 (972288)
I1211 15:05:31.809617 15749 net.cpp:137] Memory required for data: 497935416
I1211 15:05:31.809624 15749 layer_factory.hpp:77] Creating layer conv1_2/x2/bn
I1211 15:05:31.809635 15749 net.cpp:84] Creating Layer conv1_2/x2/bn
I1211 15:05:31.809640 15749 net.cpp:406] conv1_2/x2/bn <- conv1_2/x1
I1211 15:05:31.809648 15749 net.cpp:380] conv1_2/x2/bn -> conv1_2/x2/bn
I1211 15:05:31.810052 15749 net.cpp:122] Setting up conv1_2/x2/bn
I1211 15:05:31.810061 15749 net.cpp:129] Top shape: 1 128 36 211 (972288)
I1211 15:05:31.810065 15749 net.cpp:137] Memory required for data: 501824568
I1211 15:05:31.810075 15749 layer_factory.hpp:77] Creating layer conv1_2/x2/scale
I1211 15:05:31.810088 15749 net.cpp:84] Creating Layer conv1_2/x2/scale
I1211 15:05:31.810093 15749 net.cpp:406] conv1_2/x2/scale <- conv1_2/x2/bn
I1211 15:05:31.810099 15749 net.cpp:367] conv1_2/x2/scale -> conv1_2/x2/bn (in-place)
I1211 15:05:31.810173 15749 layer_factory.hpp:77] Creating layer conv1_2/x2/scale
I1211 15:05:31.810397 15749 net.cpp:122] Setting up conv1_2/x2/scale
I1211 15:05:31.810406 15749 net.cpp:129] Top shape: 1 128 36 211 (972288)
I1211 15:05:31.810410 15749 net.cpp:137] Memory required for data: 505713720
I1211 15:05:31.810418 15749 layer_factory.hpp:77] Creating layer relu1_2/x2
I1211 15:05:31.810425 15749 net.cpp:84] Creating Layer relu1_2/x2
I1211 15:05:31.810430 15749 net.cpp:406] relu1_2/x2 <- conv1_2/x2/bn
I1211 15:05:31.810436 15749 net.cpp:367] relu1_2/x2 -> conv1_2/x2/bn (in-place)
I1211 15:05:31.810657 15749 net.cpp:122] Setting up relu1_2/x2
I1211 15:05:31.810667 15749 net.cpp:129] Top shape: 1 128 36 211 (972288)
I1211 15:05:31.810672 15749 net.cpp:137] Memory required for data: 509602872
I1211 15:05:31.810676 15749 layer_factory.hpp:77] Creating layer conv1_2/x2
I1211 15:05:31.810688 15749 net.cpp:84] Creating Layer conv1_2/x2
I1211 15:05:31.810693 15749 net.cpp:406] conv1_2/x2 <- conv1_2/x2/bn
I1211 15:05:31.810698 15749 net.cpp:380] conv1_2/x2 -> conv1_2/x2
I1211 15:05:31.813691 15749 net.cpp:122] Setting up conv1_2/x2
I1211 15:05:31.813707 15749 net.cpp:129] Top shape: 1 32 36 211 (243072)
I1211 15:05:31.813711 15749 net.cpp:137] Memory required for data: 510575160
I1211 15:05:31.813719 15749 layer_factory.hpp:77] Creating layer concat1_2
I1211 15:05:31.813726 15749 net.cpp:84] Creating Layer concat1_2
I1211 15:05:31.813732 15749 net.cpp:406] concat1_2 <- concat1_1_concat1_1_0_split_1
I1211 15:05:31.813738 15749 net.cpp:406] concat1_2 <- conv1_2/x2
I1211 15:05:31.813745 15749 net.cpp:380] concat1_2 -> concat1_2
I1211 15:05:31.813797 15749 net.cpp:122] Setting up concat1_2
I1211 15:05:31.813805 15749 net.cpp:129] Top shape: 1 160 36 211 (1215360)
I1211 15:05:31.813809 15749 net.cpp:137] Memory required for data: 515436600
I1211 15:05:31.813813 15749 layer_factory.hpp:77] Creating layer concat1_2_concat1_2_0_split
I1211 15:05:31.813820 15749 net.cpp:84] Creating Layer concat1_2_concat1_2_0_split
I1211 15:05:31.813824 15749 net.cpp:406] concat1_2_concat1_2_0_split <- concat1_2
I1211 15:05:31.813833 15749 net.cpp:380] concat1_2_concat1_2_0_split -> concat1_2_concat1_2_0_split_0
I1211 15:05:31.813844 15749 net.cpp:380] concat1_2_concat1_2_0_split -> concat1_2_concat1_2_0_split_1
I1211 15:05:31.813917 15749 net.cpp:122] Setting up concat1_2_concat1_2_0_split
I1211 15:05:31.813925 15749 net.cpp:129] Top shape: 1 160 36 211 (1215360)
I1211 15:05:31.813930 15749 net.cpp:129] Top shape: 1 160 36 211 (1215360)
I1211 15:05:31.813935 15749 net.cpp:137] Memory required for data: 525159480
I1211 15:05:31.813938 15749 layer_factory.hpp:77] Creating layer conv1_3/x1/bn
I1211 15:05:31.813944 15749 net.cpp:84] Creating Layer conv1_3/x1/bn
I1211 15:05:31.813949 15749 net.cpp:406] conv1_3/x1/bn <- concat1_2_concat1_2_0_split_0
I1211 15:05:31.813956 15749 net.cpp:380] conv1_3/x1/bn -> conv1_3/x1/bn
I1211 15:05:31.814386 15749 net.cpp:122] Setting up conv1_3/x1/bn
I1211 15:05:31.814394 15749 net.cpp:129] Top shape: 1 160 36 211 (1215360)
I1211 15:05:31.814399 15749 net.cpp:137] Memory required for data: 530020920
I1211 15:05:31.814407 15749 layer_factory.hpp:77] Creating layer conv1_3/x1/scale
I1211 15:05:31.814417 15749 net.cpp:84] Creating Layer conv1_3/x1/scale
I1211 15:05:31.814421 15749 net.cpp:406] conv1_3/x1/scale <- conv1_3/x1/bn
I1211 15:05:31.814427 15749 net.cpp:367] conv1_3/x1/scale -> conv1_3/x1/bn (in-place)
I1211 15:05:31.814502 15749 layer_factory.hpp:77] Creating layer conv1_3/x1/scale
I1211 15:05:31.814744 15749 net.cpp:122] Setting up conv1_3/x1/scale
I1211 15:05:31.814754 15749 net.cpp:129] Top shape: 1 160 36 211 (1215360)
I1211 15:05:31.814757 15749 net.cpp:137] Memory required for data: 534882360
I1211 15:05:31.814764 15749 layer_factory.hpp:77] Creating layer relu1_3/x1
I1211 15:05:31.814771 15749 net.cpp:84] Creating Layer relu1_3/x1
I1211 15:05:31.814775 15749 net.cpp:406] relu1_3/x1 <- conv1_3/x1/bn
I1211 15:05:31.814781 15749 net.cpp:367] relu1_3/x1 -> conv1_3/x1/bn (in-place)
I1211 15:05:31.815210 15749 net.cpp:122] Setting up relu1_3/x1
I1211 15:05:31.815223 15749 net.cpp:129] Top shape: 1 160 36 211 (1215360)
I1211 15:05:31.815227 15749 net.cpp:137] Memory required for data: 539743800
I1211 15:05:31.815232 15749 layer_factory.hpp:77] Creating layer conv1_3/x1
I1211 15:05:31.815243 15749 net.cpp:84] Creating Layer conv1_3/x1
I1211 15:05:31.815248 15749 net.cpp:406] conv1_3/x1 <- conv1_3/x1/bn
I1211 15:05:31.815255 15749 net.cpp:380] conv1_3/x1 -> conv1_3/x1
I1211 15:05:31.826031 15749 net.cpp:122] Setting up conv1_3/x1
I1211 15:05:31.826066 15749 net.cpp:129] Top shape: 1 128 36 211 (972288)
I1211 15:05:31.826071 15749 net.cpp:137] Memory required for data: 543632952
I1211 15:05:31.826081 15749 layer_factory.hpp:77] Creating layer conv1_3/x2/bn
I1211 15:05:31.826094 15749 net.cpp:84] Creating Layer conv1_3/x2/bn
I1211 15:05:31.826100 15749 net.cpp:406] conv1_3/x2/bn <- conv1_3/x1
I1211 15:05:31.826110 15749 net.cpp:380] conv1_3/x2/bn -> conv1_3/x2/bn
I1211 15:05:31.826562 15749 net.cpp:122] Setting up conv1_3/x2/bn
I1211 15:05:31.826571 15749 net.cpp:129] Top shape: 1 128 36 211 (972288)
I1211 15:05:31.826575 15749 net.cpp:137] Memory required for data: 547522104
I1211 15:05:31.826586 15749 layer_factory.hpp:77] Creating layer conv1_3/x2/scale
I1211 15:05:31.826596 15749 net.cpp:84] Creating Layer conv1_3/x2/scale
I1211 15:05:31.826601 15749 net.cpp:406] conv1_3/x2/scale <- conv1_3/x2/bn
I1211 15:05:31.826606 15749 net.cpp:367] conv1_3/x2/scale -> conv1_3/x2/bn (in-place)
I1211 15:05:31.826684 15749 layer_factory.hpp:77] Creating layer conv1_3/x2/scale
I1211 15:05:31.826920 15749 net.cpp:122] Setting up conv1_3/x2/scale
I1211 15:05:31.826928 15749 net.cpp:129] Top shape: 1 128 36 211 (972288)
I1211 15:05:31.826932 15749 net.cpp:137] Memory required for data: 551411256
I1211 15:05:31.826939 15749 layer_factory.hpp:77] Creating layer relu1_3/x2
I1211 15:05:31.826947 15749 net.cpp:84] Creating Layer relu1_3/x2
I1211 15:05:31.826951 15749 net.cpp:406] relu1_3/x2 <- conv1_3/x2/bn
I1211 15:05:31.826956 15749 net.cpp:367] relu1_3/x2 -> conv1_3/x2/bn (in-place)
I1211 15:05:31.827385 15749 net.cpp:122] Setting up relu1_3/x2
I1211 15:05:31.827399 15749 net.cpp:129] Top shape: 1 128 36 211 (972288)
I1211 15:05:31.827409 15749 net.cpp:137] Memory required for data: 555300408
I1211 15:05:31.827412 15749 layer_factory.hpp:77] Creating layer conv1_3/x2
I1211 15:05:31.827425 15749 net.cpp:84] Creating Layer conv1_3/x2
I1211 15:05:31.827430 15749 net.cpp:406] conv1_3/x2 <- conv1_3/x2/bn
I1211 15:05:31.827438 15749 net.cpp:380] conv1_3/x2 -> conv1_3/x2
I1211 15:05:31.876170 15749 net.cpp:122] Setting up conv1_3/x2
I1211 15:05:31.876205 15749 net.cpp:129] Top shape: 1 32 36 211 (243072)
I1211 15:05:31.876210 15749 net.cpp:137] Memory required for data: 556272696
I1211 15:05:31.876221 15749 layer_factory.hpp:77] Creating layer concat1_3
I1211 15:05:31.876235 15749 net.cpp:84] Creating Layer concat1_3
I1211 15:05:31.876241 15749 net.cpp:406] concat1_3 <- concat1_2_concat1_2_0_split_1
I1211 15:05:31.876250 15749 net.cpp:406] concat1_3 <- conv1_3/x2
I1211 15:05:31.876260 15749 net.cpp:380] concat1_3 -> concat1_3
I1211 15:05:31.876317 15749 net.cpp:122] Setting up concat1_3
I1211 15:05:31.876325 15749 net.cpp:129] Top shape: 1 192 36 211 (1458432)
I1211 15:05:31.876329 15749 net.cpp:137] Memory required for data: 562106424
I1211 15:05:31.876333 15749 layer_factory.hpp:77] Creating layer concat1_3_concat1_3_0_split
I1211 15:05:31.876341 15749 net.cpp:84] Creating Layer concat1_3_concat1_3_0_split
I1211 15:05:31.876345 15749 net.cpp:406] concat1_3_concat1_3_0_split <- concat1_3
I1211 15:05:31.876351 15749 net.cpp:380] concat1_3_concat1_3_0_split -> concat1_3_concat1_3_0_split_0
I1211 15:05:31.876358 15749 net.cpp:380] concat1_3_concat1_3_0_split -> concat1_3_concat1_3_0_split_1
I1211 15:05:31.876430 15749 net.cpp:122] Setting up concat1_3_concat1_3_0_split
I1211 15:05:31.876437 15749 net.cpp:129] Top shape: 1 192 36 211 (1458432)
I1211 15:05:31.876442 15749 net.cpp:129] Top shape: 1 192 36 211 (1458432)
I1211 15:05:31.876446 15749 net.cpp:137] Memory required for data: 573773880
I1211 15:05:31.876451 15749 layer_factory.hpp:77] Creating layer conv1_4/x1/bn
I1211 15:05:31.876459 15749 net.cpp:84] Creating Layer conv1_4/x1/bn
I1211 15:05:31.876463 15749 net.cpp:406] conv1_4/x1/bn <- concat1_3_concat1_3_0_split_0
I1211 15:05:31.876469 15749 net.cpp:380] conv1_4/x1/bn -> conv1_4/x1/bn
I1211 15:05:31.876929 15749 net.cpp:122] Setting up conv1_4/x1/bn
I1211 15:05:31.876938 15749 net.cpp:129] Top shape: 1 192 36 211 (1458432)
I1211 15:05:31.876942 15749 net.cpp:137] Memory required for data: 579607608
I1211 15:05:31.876953 15749 layer_factory.hpp:77] Creating layer conv1_4/x1/scale
I1211 15:05:31.876963 15749 net.cpp:84] Creating Layer conv1_4/x1/scale
I1211 15:05:31.876967 15749 net.cpp:406] conv1_4/x1/scale <- conv1_4/x1/bn
I1211 15:05:31.876973 15749 net.cpp:367] conv1_4/x1/scale -> conv1_4/x1/bn (in-place)
I1211 15:05:31.877053 15749 layer_factory.hpp:77] Creating layer conv1_4/x1/scale
I1211 15:05:31.898492 15749 net.cpp:122] Setting up conv1_4/x1/scale
I1211 15:05:31.898528 15749 net.cpp:129] Top shape: 1 192 36 211 (1458432)
I1211 15:05:31.898533 15749 net.cpp:137] Memory required for data: 585441336
I1211 15:05:31.898545 15749 layer_factory.hpp:77] Creating layer relu1_4/x1
I1211 15:05:31.898560 15749 net.cpp:84] Creating Layer relu1_4/x1
I1211 15:05:31.898566 15749 net.cpp:406] relu1_4/x1 <- conv1_4/x1/bn
I1211 15:05:31.898578 15749 net.cpp:367] relu1_4/x1 -> conv1_4/x1/bn (in-place)
I1211 15:05:31.898895 15749 net.cpp:122] Setting up relu1_4/x1
I1211 15:05:31.898910 15749 net.cpp:129] Top shape: 1 192 36 211 (1458432)
I1211 15:05:31.898913 15749 net.cpp:137] Memory required for data: 591275064
I1211 15:05:31.898918 15749 layer_factory.hpp:77] Creating layer conv1_4/x1
I1211 15:05:31.898934 15749 net.cpp:84] Creating Layer conv1_4/x1
I1211 15:05:31.898939 15749 net.cpp:406] conv1_4/x1 <- conv1_4/x1/bn
I1211 15:05:31.898948 15749 net.cpp:380] conv1_4/x1 -> conv1_4/x1
I1211 15:05:31.902669 15749 net.cpp:122] Setting up conv1_4/x1
I1211 15:05:31.902709 15749 net.cpp:129] Top shape: 1 128 36 211 (972288)
I1211 15:05:31.902714 15749 net.cpp:137] Memory required for data: 595164216
I1211 15:05:31.902725 15749 layer_factory.hpp:77] Creating layer conv1_4/x2/bn
I1211 15:05:31.902748 15749 net.cpp:84] Creating Layer conv1_4/x2/bn
I1211 15:05:31.902756 15749 net.cpp:406] conv1_4/x2/bn <- conv1_4/x1
I1211 15:05:31.902766 15749 net.cpp:380] conv1_4/x2/bn -> conv1_4/x2/bn
I1211 15:05:31.903264 15749 net.cpp:122] Setting up conv1_4/x2/bn
I1211 15:05:31.903282 15749 net.cpp:129] Top shape: 1 128 36 211 (972288)
I1211 15:05:31.903287 15749 net.cpp:137] Memory required for data: 599053368
I1211 15:05:31.903300 15749 layer_factory.hpp:77] Creating layer conv1_4/x2/scale
I1211 15:05:31.903313 15749 net.cpp:84] Creating Layer conv1_4/x2/scale
I1211 15:05:31.903318 15749 net.cpp:406] conv1_4/x2/scale <- conv1_4/x2/bn
I1211 15:05:31.903326 15749 net.cpp:367] conv1_4/x2/scale -> conv1_4/x2/bn (in-place)
I1211 15:05:31.903415 15749 layer_factory.hpp:77] Creating layer conv1_4/x2/scale
I1211 15:05:31.903666 15749 net.cpp:122] Setting up conv1_4/x2/scale
I1211 15:05:31.903677 15749 net.cpp:129] Top shape: 1 128 36 211 (972288)
I1211 15:05:31.903681 15749 net.cpp:137] Memory required for data: 602942520
I1211 15:05:31.903689 15749 layer_factory.hpp:77] Creating layer relu1_4/x2
I1211 15:05:31.903698 15749 net.cpp:84] Creating Layer relu1_4/x2
I1211 15:05:31.903703 15749 net.cpp:406] relu1_4/x2 <- conv1_4/x2/bn
I1211 15:05:31.903709 15749 net.cpp:367] relu1_4/x2 -> conv1_4/x2/bn (in-place)
I1211 15:05:31.904337 15749 net.cpp:122] Setting up relu1_4/x2
I1211 15:05:31.904358 15749 net.cpp:129] Top shape: 1 128 36 211 (972288)
I1211 15:05:31.904363 15749 net.cpp:137] Memory required for data: 606831672
I1211 15:05:31.904368 15749 layer_factory.hpp:77] Creating layer conv1_4/x2
I1211 15:05:31.904388 15749 net.cpp:84] Creating Layer conv1_4/x2
I1211 15:05:31.904395 15749 net.cpp:406] conv1_4/x2 <- conv1_4/x2/bn
I1211 15:05:31.904404 15749 net.cpp:380] conv1_4/x2 -> conv1_4/x2
I1211 15:05:31.907809 15749 net.cpp:122] Setting up conv1_4/x2
I1211 15:05:31.907845 15749 net.cpp:129] Top shape: 1 32 36 211 (243072)
I1211 15:05:31.907850 15749 net.cpp:137] Memory required for data: 607803960
I1211 15:05:31.907861 15749 layer_factory.hpp:77] Creating layer concat1_4
I1211 15:05:31.907876 15749 net.cpp:84] Creating Layer concat1_4
I1211 15:05:31.907882 15749 net.cpp:406] concat1_4 <- concat1_3_concat1_3_0_split_1
I1211 15:05:31.907891 15749 net.cpp:406] concat1_4 <- conv1_4/x2
I1211 15:05:31.907898 15749 net.cpp:380] concat1_4 -> concat1_4
I1211 15:05:31.907958 15749 net.cpp:122] Setting up concat1_4
I1211 15:05:31.907966 15749 net.cpp:129] Top shape: 1 224 36 211 (1701504)
I1211 15:05:31.907970 15749 net.cpp:137] Memory required for data: 614609976
I1211 15:05:31.907974 15749 layer_factory.hpp:77] Creating layer concat1_4_concat1_4_0_split
I1211 15:05:31.907980 15749 net.cpp:84] Creating Layer concat1_4_concat1_4_0_split
I1211 15:05:31.907984 15749 net.cpp:406] concat1_4_concat1_4_0_split <- concat1_4
I1211 15:05:31.907992 15749 net.cpp:380] concat1_4_concat1_4_0_split -> concat1_4_concat1_4_0_split_0
I1211 15:05:31.908004 15749 net.cpp:380] concat1_4_concat1_4_0_split -> concat1_4_concat1_4_0_split_1
I1211 15:05:31.908077 15749 net.cpp:122] Setting up concat1_4_concat1_4_0_split
I1211 15:05:31.908087 15749 net.cpp:129] Top shape: 1 224 36 211 (1701504)
I1211 15:05:31.908092 15749 net.cpp:129] Top shape: 1 224 36 211 (1701504)
I1211 15:05:31.908097 15749 net.cpp:137] Memory required for data: 628222008
I1211 15:05:31.908100 15749 layer_factory.hpp:77] Creating layer conv1_5/x1/bn
I1211 15:05:31.908107 15749 net.cpp:84] Creating Layer conv1_5/x1/bn
I1211 15:05:31.908112 15749 net.cpp:406] conv1_5/x1/bn <- concat1_4_concat1_4_0_split_0
I1211 15:05:31.908118 15749 net.cpp:380] conv1_5/x1/bn -> conv1_5/x1/bn
I1211 15:05:31.908592 15749 net.cpp:122] Setting up conv1_5/x1/bn
I1211 15:05:31.908602 15749 net.cpp:129] Top shape: 1 224 36 211 (1701504)
I1211 15:05:31.908607 15749 net.cpp:137] Memory required for data: 635028024
I1211 15:05:31.908617 15749 layer_factory.hpp:77] Creating layer conv1_5/x1/scale
I1211 15:05:31.908627 15749 net.cpp:84] Creating Layer conv1_5/x1/scale
I1211 15:05:31.908637 15749 net.cpp:406] conv1_5/x1/scale <- conv1_5/x1/bn
I1211 15:05:31.908643 15749 net.cpp:367] conv1_5/x1/scale -> conv1_5/x1/bn (in-place)
I1211 15:05:31.908725 15749 layer_factory.hpp:77] Creating layer conv1_5/x1/scale
I1211 15:05:31.908979 15749 net.cpp:122] Setting up conv1_5/x1/scale
I1211 15:05:31.908988 15749 net.cpp:129] Top shape: 1 224 36 211 (1701504)
I1211 15:05:31.908993 15749 net.cpp:137] Memory required for data: 641834040
I1211 15:05:31.908999 15749 layer_factory.hpp:77] Creating layer relu1_5/x1
I1211 15:05:31.909008 15749 net.cpp:84] Creating Layer relu1_5/x1
I1211 15:05:31.909013 15749 net.cpp:406] relu1_5/x1 <- conv1_5/x1/bn
I1211 15:05:31.909018 15749 net.cpp:367] relu1_5/x1 -> conv1_5/x1/bn (in-place)
I1211 15:05:31.909263 15749 net.cpp:122] Setting up relu1_5/x1
I1211 15:05:31.909274 15749 net.cpp:129] Top shape: 1 224 36 211 (1701504)
I1211 15:05:31.909278 15749 net.cpp:137] Memory required for data: 648640056
I1211 15:05:31.909282 15749 layer_factory.hpp:77] Creating layer conv1_5/x1
I1211 15:05:31.909296 15749 net.cpp:84] Creating Layer conv1_5/x1
I1211 15:05:31.909301 15749 net.cpp:406] conv1_5/x1 <- conv1_5/x1/bn
I1211 15:05:31.909308 15749 net.cpp:380] conv1_5/x1 -> conv1_5/x1
I1211 15:05:31.911998 15749 net.cpp:122] Setting up conv1_5/x1
I1211 15:05:31.912022 15749 net.cpp:129] Top shape: 1 128 36 211 (972288)
I1211 15:05:31.912027 15749 net.cpp:137] Memory required for data: 652529208
I1211 15:05:31.912036 15749 layer_factory.hpp:77] Creating layer conv1_5/x2/bn
I1211 15:05:31.912047 15749 net.cpp:84] Creating Layer conv1_5/x2/bn
I1211 15:05:31.912052 15749 net.cpp:406] conv1_5/x2/bn <- conv1_5/x1
I1211 15:05:31.912060 15749 net.cpp:380] conv1_5/x2/bn -> conv1_5/x2/bn
I1211 15:05:31.912520 15749 net.cpp:122] Setting up conv1_5/x2/bn
I1211 15:05:31.912530 15749 net.cpp:129] Top shape: 1 128 36 211 (972288)
I1211 15:05:31.912534 15749 net.cpp:137] Memory required for data: 656418360
I1211 15:05:31.912544 15749 layer_factory.hpp:77] Creating layer conv1_5/x2/scale
I1211 15:05:31.912554 15749 net.cpp:84] Creating Layer conv1_5/x2/scale
I1211 15:05:31.912559 15749 net.cpp:406] conv1_5/x2/scale <- conv1_5/x2/bn
I1211 15:05:31.912564 15749 net.cpp:367] conv1_5/x2/scale -> conv1_5/x2/bn (in-place)
I1211 15:05:31.912643 15749 layer_factory.hpp:77] Creating layer conv1_5/x2/scale
I1211 15:05:31.912880 15749 net.cpp:122] Setting up conv1_5/x2/scale
I1211 15:05:31.912889 15749 net.cpp:129] Top shape: 1 128 36 211 (972288)
I1211 15:05:31.912892 15749 net.cpp:137] Memory required for data: 660307512
I1211 15:05:31.912900 15749 layer_factory.hpp:77] Creating layer relu1_5/x2
I1211 15:05:31.912907 15749 net.cpp:84] Creating Layer relu1_5/x2
I1211 15:05:31.912912 15749 net.cpp:406] relu1_5/x2 <- conv1_5/x2/bn
I1211 15:05:31.912917 15749 net.cpp:367] relu1_5/x2 -> conv1_5/x2/bn (in-place)
I1211 15:05:31.913375 15749 net.cpp:122] Setting up relu1_5/x2
I1211 15:05:31.913388 15749 net.cpp:129] Top shape: 1 128 36 211 (972288)
I1211 15:05:31.913393 15749 net.cpp:137] Memory required for data: 664196664
I1211 15:05:31.913398 15749 layer_factory.hpp:77] Creating layer conv1_5/x2
I1211 15:05:31.913410 15749 net.cpp:84] Creating Layer conv1_5/x2
I1211 15:05:31.913414 15749 net.cpp:406] conv1_5/x2 <- conv1_5/x2/bn
I1211 15:05:31.913424 15749 net.cpp:380] conv1_5/x2 -> conv1_5/x2
I1211 15:05:31.924914 15749 net.cpp:122] Setting up conv1_5/x2
I1211 15:05:31.924947 15749 net.cpp:129] Top shape: 1 32 36 211 (243072)
I1211 15:05:31.924952 15749 net.cpp:137] Memory required for data: 665168952
I1211 15:05:31.924962 15749 layer_factory.hpp:77] Creating layer concat1_5
I1211 15:05:31.924975 15749 net.cpp:84] Creating Layer concat1_5
I1211 15:05:31.924983 15749 net.cpp:406] concat1_5 <- concat1_4_concat1_4_0_split_1
I1211 15:05:31.924990 15749 net.cpp:406] concat1_5 <- conv1_5/x2
I1211 15:05:31.924998 15749 net.cpp:380] concat1_5 -> concat1_5
I1211 15:05:31.925057 15749 net.cpp:122] Setting up concat1_5
I1211 15:05:31.925066 15749 net.cpp:129] Top shape: 1 256 36 211 (1944576)
I1211 15:05:31.925071 15749 net.cpp:137] Memory required for data: 672947256
I1211 15:05:31.925078 15749 layer_factory.hpp:77] Creating layer BatchNorm2
I1211 15:05:31.925086 15749 net.cpp:84] Creating Layer BatchNorm2
I1211 15:05:31.925091 15749 net.cpp:406] BatchNorm2 <- concat1_5
I1211 15:05:31.925098 15749 net.cpp:380] BatchNorm2 -> BatchNorm2
I1211 15:05:31.925556 15749 net.cpp:122] Setting up BatchNorm2
I1211 15:05:31.941845 15749 net.cpp:129] Top shape: 1 256 36 211 (1944576)
I1211 15:05:31.941859 15749 net.cpp:137] Memory required for data: 680725560
I1211 15:05:31.941874 15749 layer_factory.hpp:77] Creating layer Scale2
I1211 15:05:31.941891 15749 net.cpp:84] Creating Layer Scale2
I1211 15:05:31.941897 15749 net.cpp:406] Scale2 <- BatchNorm2
I1211 15:05:31.941906 15749 net.cpp:367] Scale2 -> BatchNorm2 (in-place)
I1211 15:05:31.942085 15749 layer_factory.hpp:77] Creating layer Scale2
I1211 15:05:31.942363 15749 net.cpp:122] Setting up Scale2
I1211 15:05:31.942373 15749 net.cpp:129] Top shape: 1 256 36 211 (1944576)
I1211 15:05:31.942376 15749 net.cpp:137] Memory required for data: 688503864
I1211 15:05:31.942384 15749 layer_factory.hpp:77] Creating layer ReLU2
I1211 15:05:31.942391 15749 net.cpp:84] Creating Layer ReLU2
I1211 15:05:31.942395 15749 net.cpp:406] ReLU2 <- BatchNorm2
I1211 15:05:31.942401 15749 net.cpp:367] ReLU2 -> BatchNorm2 (in-place)
I1211 15:05:31.943007 15749 net.cpp:122] Setting up ReLU2
I1211 15:05:31.943022 15749 net.cpp:129] Top shape: 1 256 36 211 (1944576)
I1211 15:05:31.943027 15749 net.cpp:137] Memory required for data: 696282168
I1211 15:05:31.943030 15749 layer_factory.hpp:77] Creating layer conv1_blk
I1211 15:05:31.943043 15749 net.cpp:84] Creating Layer conv1_blk
I1211 15:05:31.943048 15749 net.cpp:406] conv1_blk <- BatchNorm2
I1211 15:05:31.943058 15749 net.cpp:380] conv1_blk -> conv1_blk
I1211 15:05:31.945852 15749 net.cpp:122] Setting up conv1_blk
I1211 15:05:31.945873 15749 net.cpp:129] Top shape: 1 128 36 211 (972288)
I1211 15:05:31.945876 15749 net.cpp:137] Memory required for data: 700171320
I1211 15:05:31.945884 15749 layer_factory.hpp:77] Creating layer pool1
I1211 15:05:31.945894 15749 net.cpp:84] Creating Layer pool1
I1211 15:05:31.945899 15749 net.cpp:406] pool1 <- conv1_blk
I1211 15:05:31.945905 15749 net.cpp:380] pool1 -> pool1
I1211 15:05:31.946174 15749 net.cpp:122] Setting up pool1
I1211 15:05:31.946185 15749 net.cpp:129] Top shape: 1 128 18 106 (244224)
I1211 15:05:31.946189 15749 net.cpp:137] Memory required for data: 701148216
I1211 15:05:31.946193 15749 layer_factory.hpp:77] Creating layer pool1_pool1_0_split
I1211 15:05:31.946202 15749 net.cpp:84] Creating Layer pool1_pool1_0_split
I1211 15:05:31.946207 15749 net.cpp:406] pool1_pool1_0_split <- pool1
I1211 15:05:31.946215 15749 net.cpp:380] pool1_pool1_0_split -> pool1_pool1_0_split_0
I1211 15:05:31.946223 15749 net.cpp:380] pool1_pool1_0_split -> pool1_pool1_0_split_1
I1211 15:05:31.946300 15749 net.cpp:122] Setting up pool1_pool1_0_split
I1211 15:05:31.946307 15749 net.cpp:129] Top shape: 1 128 18 106 (244224)
I1211 15:05:31.946312 15749 net.cpp:129] Top shape: 1 128 18 106 (244224)
I1211 15:05:31.946316 15749 net.cpp:137] Memory required for data: 703102008
I1211 15:05:31.946319 15749 layer_factory.hpp:77] Creating layer conv2_0/x1/bn
I1211 15:05:31.946328 15749 net.cpp:84] Creating Layer conv2_0/x1/bn
I1211 15:05:31.946332 15749 net.cpp:406] conv2_0/x1/bn <- pool1_pool1_0_split_0
I1211 15:05:31.946339 15749 net.cpp:380] conv2_0/x1/bn -> conv2_0/x1/bn
I1211 15:05:31.946772 15749 net.cpp:122] Setting up conv2_0/x1/bn
I1211 15:05:31.946780 15749 net.cpp:129] Top shape: 1 128 18 106 (244224)
I1211 15:05:31.946784 15749 net.cpp:137] Memory required for data: 704078904
I1211 15:05:31.946794 15749 layer_factory.hpp:77] Creating layer conv2_0/x1/scale
I1211 15:05:31.946802 15749 net.cpp:84] Creating Layer conv2_0/x1/scale
I1211 15:05:31.946806 15749 net.cpp:406] conv2_0/x1/scale <- conv2_0/x1/bn
I1211 15:05:31.946812 15749 net.cpp:367] conv2_0/x1/scale -> conv2_0/x1/bn (in-place)
I1211 15:05:31.946893 15749 layer_factory.hpp:77] Creating layer conv2_0/x1/scale
I1211 15:05:31.947139 15749 net.cpp:122] Setting up conv2_0/x1/scale
I1211 15:05:31.947147 15749 net.cpp:129] Top shape: 1 128 18 106 (244224)
I1211 15:05:31.947151 15749 net.cpp:137] Memory required for data: 705055800
I1211 15:05:31.947158 15749 layer_factory.hpp:77] Creating layer relu2_0/x1
I1211 15:05:31.947165 15749 net.cpp:84] Creating Layer relu2_0/x1
I1211 15:05:31.947170 15749 net.cpp:406] relu2_0/x1 <- conv2_0/x1/bn
I1211 15:05:31.947175 15749 net.cpp:367] relu2_0/x1 -> conv2_0/x1/bn (in-place)
I1211 15:05:31.997691 15749 net.cpp:122] Setting up relu2_0/x1
I1211 15:05:31.997721 15749 net.cpp:129] Top shape: 1 128 18 106 (244224)
I1211 15:05:31.997725 15749 net.cpp:137] Memory required for data: 706032696
I1211 15:05:31.997730 15749 layer_factory.hpp:77] Creating layer conv2_0/x1
I1211 15:05:31.997745 15749 net.cpp:84] Creating Layer conv2_0/x1
I1211 15:05:31.997750 15749 net.cpp:406] conv2_0/x1 <- conv2_0/x1/bn
I1211 15:05:31.997759 15749 net.cpp:380] conv2_0/x1 -> conv2_0/x1
I1211 15:05:31.999554 15749 net.cpp:122] Setting up conv2_0/x1
I1211 15:05:31.999583 15749 net.cpp:129] Top shape: 1 128 18 106 (244224)
I1211 15:05:31.999585 15749 net.cpp:137] Memory required for data: 707009592
I1211 15:05:31.999593 15749 layer_factory.hpp:77] Creating layer conv2_0/x2/bn
I1211 15:05:31.999601 15749 net.cpp:84] Creating Layer conv2_0/x2/bn
I1211 15:05:31.999605 15749 net.cpp:406] conv2_0/x2/bn <- conv2_0/x1
I1211 15:05:31.999613 15749 net.cpp:380] conv2_0/x2/bn -> conv2_0/x2/bn
I1211 15:05:31.999981 15749 net.cpp:122] Setting up conv2_0/x2/bn
I1211 15:05:31.999989 15749 net.cpp:129] Top shape: 1 128 18 106 (244224)
I1211 15:05:31.999991 15749 net.cpp:137] Memory required for data: 707986488
I1211 15:05:32.000006 15749 layer_factory.hpp:77] Creating layer conv2_0/x2/scale
I1211 15:05:32.000013 15749 net.cpp:84] Creating Layer conv2_0/x2/scale
I1211 15:05:32.000017 15749 net.cpp:406] conv2_0/x2/scale <- conv2_0/x2/bn
I1211 15:05:32.000022 15749 net.cpp:367] conv2_0/x2/scale -> conv2_0/x2/bn (in-place)
I1211 15:05:32.000087 15749 layer_factory.hpp:77] Creating layer conv2_0/x2/scale
I1211 15:05:32.000267 15749 net.cpp:122] Setting up conv2_0/x2/scale
I1211 15:05:32.000273 15749 net.cpp:129] Top shape: 1 128 18 106 (244224)
I1211 15:05:32.000275 15749 net.cpp:137] Memory required for data: 708963384
I1211 15:05:32.000280 15749 layer_factory.hpp:77] Creating layer relu2_0/x2
I1211 15:05:32.000285 15749 net.cpp:84] Creating Layer relu2_0/x2
I1211 15:05:32.000288 15749 net.cpp:406] relu2_0/x2 <- conv2_0/x2/bn
I1211 15:05:32.000291 15749 net.cpp:367] relu2_0/x2 -> conv2_0/x2/bn (in-place)
I1211 15:05:32.000478 15749 net.cpp:122] Setting up relu2_0/x2
I1211 15:05:32.000485 15749 net.cpp:129] Top shape: 1 128 18 106 (244224)
I1211 15:05:32.000488 15749 net.cpp:137] Memory required for data: 709940280
I1211 15:05:32.000490 15749 layer_factory.hpp:77] Creating layer conv2_0/x2
I1211 15:05:32.000500 15749 net.cpp:84] Creating Layer conv2_0/x2
I1211 15:05:32.000504 15749 net.cpp:406] conv2_0/x2 <- conv2_0/x2/bn
I1211 15:05:32.000509 15749 net.cpp:380] conv2_0/x2 -> conv2_0/x2
I1211 15:05:32.002971 15749 net.cpp:122] Setting up conv2_0/x2
I1211 15:05:32.002984 15749 net.cpp:129] Top shape: 1 32 18 106 (61056)
I1211 15:05:32.002986 15749 net.cpp:137] Memory required for data: 710184504
I1211 15:05:32.002991 15749 layer_factory.hpp:77] Creating layer concat2_0
I1211 15:05:32.002998 15749 net.cpp:84] Creating Layer concat2_0
I1211 15:05:32.003001 15749 net.cpp:406] concat2_0 <- pool1_pool1_0_split_1
I1211 15:05:32.003005 15749 net.cpp:406] concat2_0 <- conv2_0/x2
I1211 15:05:32.003010 15749 net.cpp:380] concat2_0 -> concat2_0
I1211 15:05:32.003057 15749 net.cpp:122] Setting up concat2_0
I1211 15:05:32.003063 15749 net.cpp:129] Top shape: 1 160 18 106 (305280)
I1211 15:05:32.003065 15749 net.cpp:137] Memory required for data: 711405624
I1211 15:05:32.003067 15749 layer_factory.hpp:77] Creating layer concat2_0_concat2_0_0_split
I1211 15:05:32.003072 15749 net.cpp:84] Creating Layer concat2_0_concat2_0_0_split
I1211 15:05:32.003075 15749 net.cpp:406] concat2_0_concat2_0_0_split <- concat2_0
I1211 15:05:32.003082 15749 net.cpp:380] concat2_0_concat2_0_0_split -> concat2_0_concat2_0_0_split_0
I1211 15:05:32.003088 15749 net.cpp:380] concat2_0_concat2_0_0_split -> concat2_0_concat2_0_0_split_1
I1211 15:05:32.003149 15749 net.cpp:122] Setting up concat2_0_concat2_0_0_split
I1211 15:05:32.003154 15749 net.cpp:129] Top shape: 1 160 18 106 (305280)
I1211 15:05:32.003157 15749 net.cpp:129] Top shape: 1 160 18 106 (305280)
I1211 15:05:32.003160 15749 net.cpp:137] Memory required for data: 713847864
I1211 15:05:32.003162 15749 layer_factory.hpp:77] Creating layer conv2_1/x1/bn
I1211 15:05:32.003167 15749 net.cpp:84] Creating Layer conv2_1/x1/bn
I1211 15:05:32.003170 15749 net.cpp:406] conv2_1/x1/bn <- concat2_0_concat2_0_0_split_0
I1211 15:05:32.003176 15749 net.cpp:380] conv2_1/x1/bn -> conv2_1/x1/bn
I1211 15:05:32.003523 15749 net.cpp:122] Setting up conv2_1/x1/bn
I1211 15:05:32.003530 15749 net.cpp:129] Top shape: 1 160 18 106 (305280)
I1211 15:05:32.003532 15749 net.cpp:137] Memory required for data: 715068984
I1211 15:05:32.003538 15749 layer_factory.hpp:77] Creating layer conv2_1/x1/scale
I1211 15:05:32.003545 15749 net.cpp:84] Creating Layer conv2_1/x1/scale
I1211 15:05:32.003548 15749 net.cpp:406] conv2_1/x1/scale <- conv2_1/x1/bn
I1211 15:05:32.003553 15749 net.cpp:367] conv2_1/x1/scale -> conv2_1/x1/bn (in-place)
I1211 15:05:32.003613 15749 layer_factory.hpp:77] Creating layer conv2_1/x1/scale
I1211 15:05:32.003813 15749 net.cpp:122] Setting up conv2_1/x1/scale
I1211 15:05:32.003820 15749 net.cpp:129] Top shape: 1 160 18 106 (305280)
I1211 15:05:32.003823 15749 net.cpp:137] Memory required for data: 716290104
I1211 15:05:32.003828 15749 layer_factory.hpp:77] Creating layer relu2_1/x1
I1211 15:05:32.003832 15749 net.cpp:84] Creating Layer relu2_1/x1
I1211 15:05:32.003835 15749 net.cpp:406] relu2_1/x1 <- conv2_1/x1/bn
I1211 15:05:32.003839 15749 net.cpp:367] relu2_1/x1 -> conv2_1/x1/bn (in-place)
I1211 15:05:32.004204 15749 net.cpp:122] Setting up relu2_1/x1
I1211 15:05:32.004215 15749 net.cpp:129] Top shape: 1 160 18 106 (305280)
I1211 15:05:32.004216 15749 net.cpp:137] Memory required for data: 717511224
I1211 15:05:32.004220 15749 layer_factory.hpp:77] Creating layer conv2_1/x1
I1211 15:05:32.004228 15749 net.cpp:84] Creating Layer conv2_1/x1
I1211 15:05:32.004231 15749 net.cpp:406] conv2_1/x1 <- conv2_1/x1/bn
I1211 15:05:32.004236 15749 net.cpp:380] conv2_1/x1 -> conv2_1/x1
I1211 15:05:32.005946 15749 net.cpp:122] Setting up conv2_1/x1
I1211 15:05:32.005960 15749 net.cpp:129] Top shape: 1 128 18 106 (244224)
I1211 15:05:32.005964 15749 net.cpp:137] Memory required for data: 718488120
I1211 15:05:32.005969 15749 layer_factory.hpp:77] Creating layer conv2_1/x2/bn
I1211 15:05:32.005975 15749 net.cpp:84] Creating Layer conv2_1/x2/bn
I1211 15:05:32.005978 15749 net.cpp:406] conv2_1/x2/bn <- conv2_1/x1
I1211 15:05:32.005985 15749 net.cpp:380] conv2_1/x2/bn -> conv2_1/x2/bn
I1211 15:05:32.006325 15749 net.cpp:122] Setting up conv2_1/x2/bn
I1211 15:05:32.006333 15749 net.cpp:129] Top shape: 1 128 18 106 (244224)
I1211 15:05:32.006335 15749 net.cpp:137] Memory required for data: 719465016
I1211 15:05:32.006342 15749 layer_factory.hpp:77] Creating layer conv2_1/x2/scale
I1211 15:05:32.006350 15749 net.cpp:84] Creating Layer conv2_1/x2/scale
I1211 15:05:32.006352 15749 net.cpp:406] conv2_1/x2/scale <- conv2_1/x2/bn
I1211 15:05:32.006357 15749 net.cpp:367] conv2_1/x2/scale -> conv2_1/x2/bn (in-place)
I1211 15:05:32.006418 15749 layer_factory.hpp:77] Creating layer conv2_1/x2/scale
I1211 15:05:32.006598 15749 net.cpp:122] Setting up conv2_1/x2/scale
I1211 15:05:32.006604 15749 net.cpp:129] Top shape: 1 128 18 106 (244224)
I1211 15:05:32.006608 15749 net.cpp:137] Memory required for data: 720441912
I1211 15:05:32.006613 15749 layer_factory.hpp:77] Creating layer relu2_1/x2
I1211 15:05:32.006618 15749 net.cpp:84] Creating Layer relu2_1/x2
I1211 15:05:32.006621 15749 net.cpp:406] relu2_1/x2 <- conv2_1/x2/bn
I1211 15:05:32.006624 15749 net.cpp:367] relu2_1/x2 -> conv2_1/x2/bn (in-place)
I1211 15:05:32.007040 15749 net.cpp:122] Setting up relu2_1/x2
I1211 15:05:32.007050 15749 net.cpp:129] Top shape: 1 128 18 106 (244224)
I1211 15:05:32.007052 15749 net.cpp:137] Memory required for data: 721418808
I1211 15:05:32.007055 15749 layer_factory.hpp:77] Creating layer conv2_1/x2
I1211 15:05:32.007066 15749 net.cpp:84] Creating Layer conv2_1/x2
I1211 15:05:32.007071 15749 net.cpp:406] conv2_1/x2 <- conv2_1/x2/bn
I1211 15:05:32.007076 15749 net.cpp:380] conv2_1/x2 -> conv2_1/x2
I1211 15:05:32.009635 15749 net.cpp:122] Setting up conv2_1/x2
I1211 15:05:32.009665 15749 net.cpp:129] Top shape: 1 32 18 106 (61056)
I1211 15:05:32.009668 15749 net.cpp:137] Memory required for data: 721663032
I1211 15:05:32.009676 15749 layer_factory.hpp:77] Creating layer concat2_1
I1211 15:05:32.009687 15749 net.cpp:84] Creating Layer concat2_1
I1211 15:05:32.009692 15749 net.cpp:406] concat2_1 <- concat2_0_concat2_0_0_split_1
I1211 15:05:32.009697 15749 net.cpp:406] concat2_1 <- conv2_1/x2
I1211 15:05:32.009702 15749 net.cpp:380] concat2_1 -> concat2_1
I1211 15:05:32.009752 15749 net.cpp:122] Setting up concat2_1
I1211 15:05:32.009759 15749 net.cpp:129] Top shape: 1 192 18 106 (366336)
I1211 15:05:32.009763 15749 net.cpp:137] Memory required for data: 723128376
I1211 15:05:32.009764 15749 layer_factory.hpp:77] Creating layer concat2_1_concat2_1_0_split
I1211 15:05:32.009769 15749 net.cpp:84] Creating Layer concat2_1_concat2_1_0_split
I1211 15:05:32.009773 15749 net.cpp:406] concat2_1_concat2_1_0_split <- concat2_1
I1211 15:05:32.009776 15749 net.cpp:380] concat2_1_concat2_1_0_split -> concat2_1_concat2_1_0_split_0
I1211 15:05:32.009780 15749 net.cpp:380] concat2_1_concat2_1_0_split -> concat2_1_concat2_1_0_split_1
I1211 15:05:32.009840 15749 net.cpp:122] Setting up concat2_1_concat2_1_0_split
I1211 15:05:32.009845 15749 net.cpp:129] Top shape: 1 192 18 106 (366336)
I1211 15:05:32.009848 15749 net.cpp:129] Top shape: 1 192 18 106 (366336)
I1211 15:05:32.009850 15749 net.cpp:137] Memory required for data: 726059064
I1211 15:05:32.009852 15749 layer_factory.hpp:77] Creating layer conv2_2/x1/bn
I1211 15:05:32.009858 15749 net.cpp:84] Creating Layer conv2_2/x1/bn
I1211 15:05:32.009861 15749 net.cpp:406] conv2_2/x1/bn <- concat2_1_concat2_1_0_split_0
I1211 15:05:32.009865 15749 net.cpp:380] conv2_2/x1/bn -> conv2_2/x1/bn
I1211 15:05:32.010231 15749 net.cpp:122] Setting up conv2_2/x1/bn
I1211 15:05:32.010237 15749 net.cpp:129] Top shape: 1 192 18 106 (366336)
I1211 15:05:32.010241 15749 net.cpp:137] Memory required for data: 727524408
I1211 15:05:32.010247 15749 layer_factory.hpp:77] Creating layer conv2_2/x1/scale
I1211 15:05:32.010255 15749 net.cpp:84] Creating Layer conv2_2/x1/scale
I1211 15:05:32.010258 15749 net.cpp:406] conv2_2/x1/scale <- conv2_2/x1/bn
I1211 15:05:32.010263 15749 net.cpp:367] conv2_2/x1/scale -> conv2_2/x1/bn (in-place)
I1211 15:05:32.010327 15749 layer_factory.hpp:77] Creating layer conv2_2/x1/scale
I1211 15:05:32.010531 15749 net.cpp:122] Setting up conv2_2/x1/scale
I1211 15:05:32.010540 15749 net.cpp:129] Top shape: 1 192 18 106 (366336)
I1211 15:05:32.010542 15749 net.cpp:137] Memory required for data: 728989752
I1211 15:05:32.010547 15749 layer_factory.hpp:77] Creating layer relu2_2/x1
I1211 15:05:32.010552 15749 net.cpp:84] Creating Layer relu2_2/x1
I1211 15:05:32.010555 15749 net.cpp:406] relu2_2/x1 <- conv2_2/x1/bn
I1211 15:05:32.010558 15749 net.cpp:367] relu2_2/x1 -> conv2_2/x1/bn (in-place)
I1211 15:05:32.010771 15749 net.cpp:122] Setting up relu2_2/x1
I1211 15:05:32.010779 15749 net.cpp:129] Top shape: 1 192 18 106 (366336)
I1211 15:05:32.010782 15749 net.cpp:137] Memory required for data: 730455096
I1211 15:05:32.010784 15749 layer_factory.hpp:77] Creating layer conv2_2/x1
I1211 15:05:32.010793 15749 net.cpp:84] Creating Layer conv2_2/x1
I1211 15:05:32.010797 15749 net.cpp:406] conv2_2/x1 <- conv2_2/x1/bn
I1211 15:05:32.010802 15749 net.cpp:380] conv2_2/x1 -> conv2_2/x1
I1211 15:05:32.013609 15749 net.cpp:122] Setting up conv2_2/x1
I1211 15:05:32.013643 15749 net.cpp:129] Top shape: 1 128 18 106 (244224)
I1211 15:05:32.013650 15749 net.cpp:137] Memory required for data: 731431992
I1211 15:05:32.013659 15749 layer_factory.hpp:77] Creating layer conv2_2/x2/bn
I1211 15:05:32.013674 15749 net.cpp:84] Creating Layer conv2_2/x2/bn
I1211 15:05:32.013680 15749 net.cpp:406] conv2_2/x2/bn <- conv2_2/x1
I1211 15:05:32.013686 15749 net.cpp:380] conv2_2/x2/bn -> conv2_2/x2/bn
I1211 15:05:32.014051 15749 net.cpp:122] Setting up conv2_2/x2/bn
I1211 15:05:32.014061 15749 net.cpp:129] Top shape: 1 128 18 106 (244224)
I1211 15:05:32.014063 15749 net.cpp:137] Memory required for data: 732408888
I1211 15:05:32.014071 15749 layer_factory.hpp:77] Creating layer conv2_2/x2/scale
I1211 15:05:32.014080 15749 net.cpp:84] Creating Layer conv2_2/x2/scale
I1211 15:05:32.014082 15749 net.cpp:406] conv2_2/x2/scale <- conv2_2/x2/bn
I1211 15:05:32.014086 15749 net.cpp:367] conv2_2/x2/scale -> conv2_2/x2/bn (in-place)
I1211 15:05:32.014156 15749 layer_factory.hpp:77] Creating layer conv2_2/x2/scale
I1211 15:05:32.014341 15749 net.cpp:122] Setting up conv2_2/x2/scale
I1211 15:05:32.014348 15749 net.cpp:129] Top shape: 1 128 18 106 (244224)
I1211 15:05:32.014350 15749 net.cpp:137] Memory required for data: 733385784
I1211 15:05:32.014355 15749 layer_factory.hpp:77] Creating layer relu2_2/x2
I1211 15:05:32.014363 15749 net.cpp:84] Creating Layer relu2_2/x2
I1211 15:05:32.014365 15749 net.cpp:406] relu2_2/x2 <- conv2_2/x2/bn
I1211 15:05:32.014369 15749 net.cpp:367] relu2_2/x2 -> conv2_2/x2/bn (in-place)
I1211 15:05:32.014828 15749 net.cpp:122] Setting up relu2_2/x2
I1211 15:05:32.014839 15749 net.cpp:129] Top shape: 1 128 18 106 (244224)
I1211 15:05:32.014842 15749 net.cpp:137] Memory required for data: 734362680
I1211 15:05:32.014844 15749 layer_factory.hpp:77] Creating layer conv2_2/x2
I1211 15:05:32.014854 15749 net.cpp:84] Creating Layer conv2_2/x2
I1211 15:05:32.014858 15749 net.cpp:406] conv2_2/x2 <- conv2_2/x2/bn
I1211 15:05:32.014863 15749 net.cpp:380] conv2_2/x2 -> conv2_2/x2
I1211 15:05:32.017230 15749 net.cpp:122] Setting up conv2_2/x2
I1211 15:05:32.017248 15749 net.cpp:129] Top shape: 1 32 18 106 (61056)
I1211 15:05:32.017251 15749 net.cpp:137] Memory required for data: 734606904
I1211 15:05:32.017257 15749 layer_factory.hpp:77] Creating layer concat2_2
I1211 15:05:32.017263 15749 net.cpp:84] Creating Layer concat2_2
I1211 15:05:32.017268 15749 net.cpp:406] concat2_2 <- concat2_1_concat2_1_0_split_1
I1211 15:05:32.017274 15749 net.cpp:406] concat2_2 <- conv2_2/x2
I1211 15:05:32.017278 15749 net.cpp:380] concat2_2 -> concat2_2
I1211 15:05:32.017325 15749 net.cpp:122] Setting up concat2_2
I1211 15:05:32.017331 15749 net.cpp:129] Top shape: 1 224 18 106 (427392)
I1211 15:05:32.017334 15749 net.cpp:137] Memory required for data: 736316472
I1211 15:05:32.017336 15749 layer_factory.hpp:77] Creating layer concat2_2_concat2_2_0_split
I1211 15:05:32.017343 15749 net.cpp:84] Creating Layer concat2_2_concat2_2_0_split
I1211 15:05:32.017345 15749 net.cpp:406] concat2_2_concat2_2_0_split <- concat2_2
I1211 15:05:32.017349 15749 net.cpp:380] concat2_2_concat2_2_0_split -> concat2_2_concat2_2_0_split_0
I1211 15:05:32.017354 15749 net.cpp:380] concat2_2_concat2_2_0_split -> concat2_2_concat2_2_0_split_1
I1211 15:05:32.017413 15749 net.cpp:122] Setting up concat2_2_concat2_2_0_split
I1211 15:05:32.017419 15749 net.cpp:129] Top shape: 1 224 18 106 (427392)
I1211 15:05:32.017422 15749 net.cpp:129] Top shape: 1 224 18 106 (427392)
I1211 15:05:32.017424 15749 net.cpp:137] Memory required for data: 739735608
I1211 15:05:32.017426 15749 layer_factory.hpp:77] Creating layer conv2_3/x1/bn
I1211 15:05:32.017432 15749 net.cpp:84] Creating Layer conv2_3/x1/bn
I1211 15:05:32.017436 15749 net.cpp:406] conv2_3/x1/bn <- concat2_2_concat2_2_0_split_0
I1211 15:05:32.017439 15749 net.cpp:380] conv2_3/x1/bn -> conv2_3/x1/bn
I1211 15:05:32.017808 15749 net.cpp:122] Setting up conv2_3/x1/bn
I1211 15:05:32.017814 15749 net.cpp:129] Top shape: 1 224 18 106 (427392)
I1211 15:05:32.017817 15749 net.cpp:137] Memory required for data: 741445176
I1211 15:05:32.017827 15749 layer_factory.hpp:77] Creating layer conv2_3/x1/scale
I1211 15:05:32.017835 15749 net.cpp:84] Creating Layer conv2_3/x1/scale
I1211 15:05:32.017838 15749 net.cpp:406] conv2_3/x1/scale <- conv2_3/x1/bn
I1211 15:05:32.017841 15749 net.cpp:367] conv2_3/x1/scale -> conv2_3/x1/bn (in-place)
I1211 15:05:32.017906 15749 layer_factory.hpp:77] Creating layer conv2_3/x1/scale
I1211 15:05:32.018105 15749 net.cpp:122] Setting up conv2_3/x1/scale
I1211 15:05:32.018110 15749 net.cpp:129] Top shape: 1 224 18 106 (427392)
I1211 15:05:32.018113 15749 net.cpp:137] Memory required for data: 743154744
I1211 15:05:32.018118 15749 layer_factory.hpp:77] Creating layer relu2_3/x1
I1211 15:05:32.018123 15749 net.cpp:84] Creating Layer relu2_3/x1
I1211 15:05:32.018126 15749 net.cpp:406] relu2_3/x1 <- conv2_3/x1/bn
I1211 15:05:32.018129 15749 net.cpp:367] relu2_3/x1 -> conv2_3/x1/bn (in-place)
I1211 15:05:32.018318 15749 net.cpp:122] Setting up relu2_3/x1
I1211 15:05:32.018326 15749 net.cpp:129] Top shape: 1 224 18 106 (427392)
I1211 15:05:32.018329 15749 net.cpp:137] Memory required for data: 744864312
I1211 15:05:32.018332 15749 layer_factory.hpp:77] Creating layer conv2_3/x1
I1211 15:05:32.018342 15749 net.cpp:84] Creating Layer conv2_3/x1
I1211 15:05:32.018344 15749 net.cpp:406] conv2_3/x1 <- conv2_3/x1/bn
I1211 15:05:32.018350 15749 net.cpp:380] conv2_3/x1 -> conv2_3/x1
I1211 15:05:32.020997 15749 net.cpp:122] Setting up conv2_3/x1
I1211 15:05:32.021013 15749 net.cpp:129] Top shape: 1 128 18 106 (244224)
I1211 15:05:32.021018 15749 net.cpp:137] Memory required for data: 745841208
I1211 15:05:32.021024 15749 layer_factory.hpp:77] Creating layer conv2_3/x2/bn
I1211 15:05:32.021034 15749 net.cpp:84] Creating Layer conv2_3/x2/bn
I1211 15:05:32.021039 15749 net.cpp:406] conv2_3/x2/bn <- conv2_3/x1
I1211 15:05:32.021045 15749 net.cpp:380] conv2_3/x2/bn -> conv2_3/x2/bn
I1211 15:05:32.021505 15749 net.cpp:122] Setting up conv2_3/x2/bn
I1211 15:05:32.021514 15749 net.cpp:129] Top shape: 1 128 18 106 (244224)
I1211 15:05:32.021518 15749 net.cpp:137] Memory required for data: 746818104
I1211 15:05:32.021528 15749 layer_factory.hpp:77] Creating layer conv2_3/x2/scale
I1211 15:05:32.021536 15749 net.cpp:84] Creating Layer conv2_3/x2/scale
I1211 15:05:32.021541 15749 net.cpp:406] conv2_3/x2/scale <- conv2_3/x2/bn
I1211 15:05:32.021546 15749 net.cpp:367] conv2_3/x2/scale -> conv2_3/x2/bn (in-place)
I1211 15:05:32.021627 15749 layer_factory.hpp:77] Creating layer conv2_3/x2/scale
I1211 15:05:32.021875 15749 net.cpp:122] Setting up conv2_3/x2/scale
I1211 15:05:32.021884 15749 net.cpp:129] Top shape: 1 128 18 106 (244224)
I1211 15:05:32.021888 15749 net.cpp:137] Memory required for data: 747795000
I1211 15:05:32.021895 15749 layer_factory.hpp:77] Creating layer relu2_3/x2
I1211 15:05:32.021903 15749 net.cpp:84] Creating Layer relu2_3/x2
I1211 15:05:32.021906 15749 net.cpp:406] relu2_3/x2 <- conv2_3/x2/bn
I1211 15:05:32.021914 15749 net.cpp:367] relu2_3/x2 -> conv2_3/x2/bn (in-place)
I1211 15:05:32.022356 15749 net.cpp:122] Setting up relu2_3/x2
I1211 15:05:32.022369 15749 net.cpp:129] Top shape: 1 128 18 106 (244224)
I1211 15:05:32.022373 15749 net.cpp:137] Memory required for data: 748771896
I1211 15:05:32.022377 15749 layer_factory.hpp:77] Creating layer conv2_3/x2
I1211 15:05:32.022390 15749 net.cpp:84] Creating Layer conv2_3/x2
I1211 15:05:32.022395 15749 net.cpp:406] conv2_3/x2 <- conv2_3/x2/bn
I1211 15:05:32.022403 15749 net.cpp:380] conv2_3/x2 -> conv2_3/x2
I1211 15:05:32.033792 15749 net.cpp:122] Setting up conv2_3/x2
I1211 15:05:32.033830 15749 net.cpp:129] Top shape: 1 32 18 106 (61056)
I1211 15:05:32.033835 15749 net.cpp:137] Memory required for data: 749016120
I1211 15:05:32.033848 15749 layer_factory.hpp:77] Creating layer concat2_3
I1211 15:05:32.033860 15749 net.cpp:84] Creating Layer concat2_3
I1211 15:05:32.033869 15749 net.cpp:406] concat2_3 <- concat2_2_concat2_2_0_split_1
I1211 15:05:32.033876 15749 net.cpp:406] concat2_3 <- conv2_3/x2
I1211 15:05:32.033884 15749 net.cpp:380] concat2_3 -> concat2_3
I1211 15:05:32.033960 15749 net.cpp:122] Setting up concat2_3
I1211 15:05:32.033973 15749 net.cpp:129] Top shape: 1 256 18 106 (488448)
I1211 15:05:32.033978 15749 net.cpp:137] Memory required for data: 750969912
I1211 15:05:32.033982 15749 layer_factory.hpp:77] Creating layer concat2_3_concat2_3_0_split
I1211 15:05:32.033989 15749 net.cpp:84] Creating Layer concat2_3_concat2_3_0_split
I1211 15:05:32.033993 15749 net.cpp:406] concat2_3_concat2_3_0_split <- concat2_3
I1211 15:05:32.033999 15749 net.cpp:380] concat2_3_concat2_3_0_split -> concat2_3_concat2_3_0_split_0
I1211 15:05:32.034009 15749 net.cpp:380] concat2_3_concat2_3_0_split -> concat2_3_concat2_3_0_split_1
I1211 15:05:32.034093 15749 net.cpp:122] Setting up concat2_3_concat2_3_0_split
I1211 15:05:32.034102 15749 net.cpp:129] Top shape: 1 256 18 106 (488448)
I1211 15:05:32.034107 15749 net.cpp:129] Top shape: 1 256 18 106 (488448)
I1211 15:05:32.034111 15749 net.cpp:137] Memory required for data: 754877496
I1211 15:05:32.034116 15749 layer_factory.hpp:77] Creating layer conv2_4/x1/bn
I1211 15:05:32.034122 15749 net.cpp:84] Creating Layer conv2_4/x1/bn
I1211 15:05:32.034126 15749 net.cpp:406] conv2_4/x1/bn <- concat2_3_concat2_3_0_split_0
I1211 15:05:32.034137 15749 net.cpp:380] conv2_4/x1/bn -> conv2_4/x1/bn
I1211 15:05:32.034621 15749 net.cpp:122] Setting up conv2_4/x1/bn
I1211 15:05:32.034631 15749 net.cpp:129] Top shape: 1 256 18 106 (488448)
I1211 15:05:32.034636 15749 net.cpp:137] Memory required for data: 756831288
I1211 15:05:32.034646 15749 layer_factory.hpp:77] Creating layer conv2_4/x1/scale
I1211 15:05:32.034654 15749 net.cpp:84] Creating Layer conv2_4/x1/scale
I1211 15:05:32.034659 15749 net.cpp:406] conv2_4/x1/scale <- conv2_4/x1/bn
I1211 15:05:32.034667 15749 net.cpp:367] conv2_4/x1/scale -> conv2_4/x1/bn (in-place)
I1211 15:05:32.034752 15749 layer_factory.hpp:77] Creating layer conv2_4/x1/scale
I1211 15:05:32.035006 15749 net.cpp:122] Setting up conv2_4/x1/scale
I1211 15:05:32.035014 15749 net.cpp:129] Top shape: 1 256 18 106 (488448)
I1211 15:05:32.035018 15749 net.cpp:137] Memory required for data: 758785080
I1211 15:05:32.035027 15749 layer_factory.hpp:77] Creating layer relu2_4/x1
I1211 15:05:32.035033 15749 net.cpp:84] Creating Layer relu2_4/x1
I1211 15:05:32.035038 15749 net.cpp:406] relu2_4/x1 <- conv2_4/x1/bn
I1211 15:05:32.035043 15749 net.cpp:367] relu2_4/x1 -> conv2_4/x1/bn (in-place)
I1211 15:05:32.035651 15749 net.cpp:122] Setting up relu2_4/x1
I1211 15:05:32.035667 15749 net.cpp:129] Top shape: 1 256 18 106 (488448)
I1211 15:05:32.035672 15749 net.cpp:137] Memory required for data: 760738872
I1211 15:05:32.035676 15749 layer_factory.hpp:77] Creating layer conv2_4/x1
I1211 15:05:32.035689 15749 net.cpp:84] Creating Layer conv2_4/x1
I1211 15:05:32.035693 15749 net.cpp:406] conv2_4/x1 <- conv2_4/x1/bn
I1211 15:05:32.035704 15749 net.cpp:380] conv2_4/x1 -> conv2_4/x1
I1211 15:05:32.077806 15749 net.cpp:122] Setting up conv2_4/x1
I1211 15:05:32.077839 15749 net.cpp:129] Top shape: 1 128 18 106 (244224)
I1211 15:05:32.077844 15749 net.cpp:137] Memory required for data: 761715768
I1211 15:05:32.077853 15749 layer_factory.hpp:77] Creating layer conv2_4/x2/bn
I1211 15:05:32.077865 15749 net.cpp:84] Creating Layer conv2_4/x2/bn
I1211 15:05:32.077872 15749 net.cpp:406] conv2_4/x2/bn <- conv2_4/x1
I1211 15:05:32.077883 15749 net.cpp:380] conv2_4/x2/bn -> conv2_4/x2/bn
I1211 15:05:32.099911 15749 net.cpp:122] Setting up conv2_4/x2/bn
I1211 15:05:32.099944 15749 net.cpp:129] Top shape: 1 128 18 106 (244224)
I1211 15:05:32.099949 15749 net.cpp:137] Memory required for data: 762692664
I1211 15:05:32.099964 15749 layer_factory.hpp:77] Creating layer conv2_4/x2/scale
I1211 15:05:32.099978 15749 net.cpp:84] Creating Layer conv2_4/x2/scale
I1211 15:05:32.099984 15749 net.cpp:406] conv2_4/x2/scale <- conv2_4/x2/bn
I1211 15:05:32.099993 15749 net.cpp:367] conv2_4/x2/scale -> conv2_4/x2/bn (in-place)
I1211 15:05:32.100112 15749 layer_factory.hpp:77] Creating layer conv2_4/x2/scale
I1211 15:05:32.100400 15749 net.cpp:122] Setting up conv2_4/x2/scale
I1211 15:05:32.100409 15749 net.cpp:129] Top shape: 1 128 18 106 (244224)
I1211 15:05:32.100419 15749 net.cpp:137] Memory required for data: 763669560
I1211 15:05:32.100426 15749 layer_factory.hpp:77] Creating layer relu2_4/x2
I1211 15:05:32.100433 15749 net.cpp:84] Creating Layer relu2_4/x2
I1211 15:05:32.100437 15749 net.cpp:406] relu2_4/x2 <- conv2_4/x2/bn
I1211 15:05:32.100443 15749 net.cpp:367] relu2_4/x2 -> conv2_4/x2/bn (in-place)
I1211 15:05:32.100745 15749 net.cpp:122] Setting up relu2_4/x2
I1211 15:05:32.100756 15749 net.cpp:129] Top shape: 1 128 18 106 (244224)
I1211 15:05:32.100760 15749 net.cpp:137] Memory required for data: 764646456
I1211 15:05:32.100764 15749 layer_factory.hpp:77] Creating layer conv2_4/x2
I1211 15:05:32.100777 15749 net.cpp:84] Creating Layer conv2_4/x2
I1211 15:05:32.100782 15749 net.cpp:406] conv2_4/x2 <- conv2_4/x2/bn
I1211 15:05:32.100790 15749 net.cpp:380] conv2_4/x2 -> conv2_4/x2
I1211 15:05:32.107067 15749 net.cpp:122] Setting up conv2_4/x2
I1211 15:05:32.107101 15749 net.cpp:129] Top shape: 1 32 18 106 (61056)
I1211 15:05:32.107106 15749 net.cpp:137] Memory required for data: 764890680
I1211 15:05:32.107116 15749 layer_factory.hpp:77] Creating layer concat2_4
I1211 15:05:32.107130 15749 net.cpp:84] Creating Layer concat2_4
I1211 15:05:32.107137 15749 net.cpp:406] concat2_4 <- concat2_3_concat2_3_0_split_1
I1211 15:05:32.107146 15749 net.cpp:406] concat2_4 <- conv2_4/x2
I1211 15:05:32.107153 15749 net.cpp:380] concat2_4 -> concat2_4
I1211 15:05:32.107225 15749 net.cpp:122] Setting up concat2_4
I1211 15:05:32.107234 15749 net.cpp:129] Top shape: 1 288 18 106 (549504)
I1211 15:05:32.107239 15749 net.cpp:137] Memory required for data: 767088696
I1211 15:05:32.107242 15749 layer_factory.hpp:77] Creating layer concat2_4_concat2_4_0_split
I1211 15:05:32.107250 15749 net.cpp:84] Creating Layer concat2_4_concat2_4_0_split
I1211 15:05:32.107254 15749 net.cpp:406] concat2_4_concat2_4_0_split <- concat2_4
I1211 15:05:32.107260 15749 net.cpp:380] concat2_4_concat2_4_0_split -> concat2_4_concat2_4_0_split_0
I1211 15:05:32.107267 15749 net.cpp:380] concat2_4_concat2_4_0_split -> concat2_4_concat2_4_0_split_1
I1211 15:05:32.107355 15749 net.cpp:122] Setting up concat2_4_concat2_4_0_split
I1211 15:05:32.107363 15749 net.cpp:129] Top shape: 1 288 18 106 (549504)
I1211 15:05:32.107368 15749 net.cpp:129] Top shape: 1 288 18 106 (549504)
I1211 15:05:32.107372 15749 net.cpp:137] Memory required for data: 771484728
I1211 15:05:32.107376 15749 layer_factory.hpp:77] Creating layer conv2_5/x1/bn
I1211 15:05:32.107384 15749 net.cpp:84] Creating Layer conv2_5/x1/bn
I1211 15:05:32.107389 15749 net.cpp:406] conv2_5/x1/bn <- concat2_4_concat2_4_0_split_0
I1211 15:05:32.107395 15749 net.cpp:380] conv2_5/x1/bn -> conv2_5/x1/bn
I1211 15:05:32.107918 15749 net.cpp:122] Setting up conv2_5/x1/bn
I1211 15:05:32.107926 15749 net.cpp:129] Top shape: 1 288 18 106 (549504)
I1211 15:05:32.107928 15749 net.cpp:137] Memory required for data: 773682744
I1211 15:05:32.107936 15749 layer_factory.hpp:77] Creating layer conv2_5/x1/scale
I1211 15:05:32.107944 15749 net.cpp:84] Creating Layer conv2_5/x1/scale
I1211 15:05:32.107946 15749 net.cpp:406] conv2_5/x1/scale <- conv2_5/x1/bn
I1211 15:05:32.107950 15749 net.cpp:367] conv2_5/x1/scale -> conv2_5/x1/bn (in-place)
I1211 15:05:32.108022 15749 layer_factory.hpp:77] Creating layer conv2_5/x1/scale
I1211 15:05:32.108240 15749 net.cpp:122] Setting up conv2_5/x1/scale
I1211 15:05:32.108247 15749 net.cpp:129] Top shape: 1 288 18 106 (549504)
I1211 15:05:32.108249 15749 net.cpp:137] Memory required for data: 775880760
I1211 15:05:32.108254 15749 layer_factory.hpp:77] Creating layer relu2_5/x1
I1211 15:05:32.108260 15749 net.cpp:84] Creating Layer relu2_5/x1
I1211 15:05:32.108263 15749 net.cpp:406] relu2_5/x1 <- conv2_5/x1/bn
I1211 15:05:32.108268 15749 net.cpp:367] relu2_5/x1 -> conv2_5/x1/bn (in-place)
I1211 15:05:32.108837 15749 net.cpp:122] Setting up relu2_5/x1
I1211 15:05:32.108850 15749 net.cpp:129] Top shape: 1 288 18 106 (549504)
I1211 15:05:32.108852 15749 net.cpp:137] Memory required for data: 778078776
I1211 15:05:32.108860 15749 layer_factory.hpp:77] Creating layer conv2_5/x1
I1211 15:05:32.108870 15749 net.cpp:84] Creating Layer conv2_5/x1
I1211 15:05:32.108875 15749 net.cpp:406] conv2_5/x1 <- conv2_5/x1/bn
I1211 15:05:32.108880 15749 net.cpp:380] conv2_5/x1 -> conv2_5/x1
I1211 15:05:32.111399 15749 net.cpp:122] Setting up conv2_5/x1
I1211 15:05:32.111429 15749 net.cpp:129] Top shape: 1 128 18 106 (244224)
I1211 15:05:32.111433 15749 net.cpp:137] Memory required for data: 779055672
I1211 15:05:32.111440 15749 layer_factory.hpp:77] Creating layer conv2_5/x2/bn
I1211 15:05:32.111451 15749 net.cpp:84] Creating Layer conv2_5/x2/bn
I1211 15:05:32.111456 15749 net.cpp:406] conv2_5/x2/bn <- conv2_5/x1
I1211 15:05:32.111462 15749 net.cpp:380] conv2_5/x2/bn -> conv2_5/x2/bn
I1211 15:05:32.111850 15749 net.cpp:122] Setting up conv2_5/x2/bn
I1211 15:05:32.111858 15749 net.cpp:129] Top shape: 1 128 18 106 (244224)
I1211 15:05:32.111860 15749 net.cpp:137] Memory required for data: 780032568
I1211 15:05:32.111867 15749 layer_factory.hpp:77] Creating layer conv2_5/x2/scale
I1211 15:05:32.111881 15749 net.cpp:84] Creating Layer conv2_5/x2/scale
I1211 15:05:32.111884 15749 net.cpp:406] conv2_5/x2/scale <- conv2_5/x2/bn
I1211 15:05:32.111888 15749 net.cpp:367] conv2_5/x2/scale -> conv2_5/x2/bn (in-place)
I1211 15:05:32.111955 15749 layer_factory.hpp:77] Creating layer conv2_5/x2/scale
I1211 15:05:32.112148 15749 net.cpp:122] Setting up conv2_5/x2/scale
I1211 15:05:32.112154 15749 net.cpp:129] Top shape: 1 128 18 106 (244224)
I1211 15:05:32.112157 15749 net.cpp:137] Memory required for data: 781009464
I1211 15:05:32.112161 15749 layer_factory.hpp:77] Creating layer relu2_5/x2
I1211 15:05:32.112167 15749 net.cpp:84] Creating Layer relu2_5/x2
I1211 15:05:32.112170 15749 net.cpp:406] relu2_5/x2 <- conv2_5/x2/bn
I1211 15:05:32.112174 15749 net.cpp:367] relu2_5/x2 -> conv2_5/x2/bn (in-place)
I1211 15:05:32.112372 15749 net.cpp:122] Setting up relu2_5/x2
I1211 15:05:32.112380 15749 net.cpp:129] Top shape: 1 128 18 106 (244224)
I1211 15:05:32.112383 15749 net.cpp:137] Memory required for data: 781986360
I1211 15:05:32.112386 15749 layer_factory.hpp:77] Creating layer conv2_5/x2
I1211 15:05:32.112396 15749 net.cpp:84] Creating Layer conv2_5/x2
I1211 15:05:32.112399 15749 net.cpp:406] conv2_5/x2 <- conv2_5/x2/bn
I1211 15:05:32.112406 15749 net.cpp:380] conv2_5/x2 -> conv2_5/x2
I1211 15:05:32.115546 15749 net.cpp:122] Setting up conv2_5/x2
I1211 15:05:32.115574 15749 net.cpp:129] Top shape: 1 32 18 106 (61056)
I1211 15:05:32.115576 15749 net.cpp:137] Memory required for data: 782230584
I1211 15:05:32.115584 15749 layer_factory.hpp:77] Creating layer concat2_5
I1211 15:05:32.115592 15749 net.cpp:84] Creating Layer concat2_5
I1211 15:05:32.115598 15749 net.cpp:406] concat2_5 <- concat2_4_concat2_4_0_split_1
I1211 15:05:32.115604 15749 net.cpp:406] concat2_5 <- conv2_5/x2
I1211 15:05:32.115609 15749 net.cpp:380] concat2_5 -> concat2_5
I1211 15:05:32.115659 15749 net.cpp:122] Setting up concat2_5
I1211 15:05:32.115666 15749 net.cpp:129] Top shape: 1 320 18 106 (610560)
I1211 15:05:32.115669 15749 net.cpp:137] Memory required for data: 784672824
I1211 15:05:32.115670 15749 layer_factory.hpp:77] Creating layer concat2_5_concat2_5_0_split
I1211 15:05:32.115675 15749 net.cpp:84] Creating Layer concat2_5_concat2_5_0_split
I1211 15:05:32.115679 15749 net.cpp:406] concat2_5_concat2_5_0_split <- concat2_5
I1211 15:05:32.115684 15749 net.cpp:380] concat2_5_concat2_5_0_split -> concat2_5_concat2_5_0_split_0
I1211 15:05:32.115689 15749 net.cpp:380] concat2_5_concat2_5_0_split -> concat2_5_concat2_5_0_split_1
I1211 15:05:32.115762 15749 net.cpp:122] Setting up concat2_5_concat2_5_0_split
I1211 15:05:32.115768 15749 net.cpp:129] Top shape: 1 320 18 106 (610560)
I1211 15:05:32.115772 15749 net.cpp:129] Top shape: 1 320 18 106 (610560)
I1211 15:05:32.115774 15749 net.cpp:137] Memory required for data: 789557304
I1211 15:05:32.115777 15749 layer_factory.hpp:77] Creating layer conv2_6/x1/bn
I1211 15:05:32.115782 15749 net.cpp:84] Creating Layer conv2_6/x1/bn
I1211 15:05:32.115788 15749 net.cpp:406] conv2_6/x1/bn <- concat2_5_concat2_5_0_split_0
I1211 15:05:32.115793 15749 net.cpp:380] conv2_6/x1/bn -> conv2_6/x1/bn
I1211 15:05:32.116206 15749 net.cpp:122] Setting up conv2_6/x1/bn
I1211 15:05:32.116212 15749 net.cpp:129] Top shape: 1 320 18 106 (610560)
I1211 15:05:32.116215 15749 net.cpp:137] Memory required for data: 791999544
I1211 15:05:32.116221 15749 layer_factory.hpp:77] Creating layer conv2_6/x1/scale
I1211 15:05:32.116228 15749 net.cpp:84] Creating Layer conv2_6/x1/scale
I1211 15:05:32.116232 15749 net.cpp:406] conv2_6/x1/scale <- conv2_6/x1/bn
I1211 15:05:32.116235 15749 net.cpp:367] conv2_6/x1/scale -> conv2_6/x1/bn (in-place)
I1211 15:05:32.116307 15749 layer_factory.hpp:77] Creating layer conv2_6/x1/scale
I1211 15:05:32.116518 15749 net.cpp:122] Setting up conv2_6/x1/scale
I1211 15:05:32.116523 15749 net.cpp:129] Top shape: 1 320 18 106 (610560)
I1211 15:05:32.116526 15749 net.cpp:137] Memory required for data: 794441784
I1211 15:05:32.116530 15749 layer_factory.hpp:77] Creating layer relu2_6/x1
I1211 15:05:32.116536 15749 net.cpp:84] Creating Layer relu2_6/x1
I1211 15:05:32.116539 15749 net.cpp:406] relu2_6/x1 <- conv2_6/x1/bn
I1211 15:05:32.116542 15749 net.cpp:367] relu2_6/x1 -> conv2_6/x1/bn (in-place)
I1211 15:05:32.116906 15749 net.cpp:122] Setting up relu2_6/x1
I1211 15:05:32.116916 15749 net.cpp:129] Top shape: 1 320 18 106 (610560)
I1211 15:05:32.116919 15749 net.cpp:137] Memory required for data: 796884024
I1211 15:05:32.116921 15749 layer_factory.hpp:77] Creating layer conv2_6/x1
I1211 15:05:32.116933 15749 net.cpp:84] Creating Layer conv2_6/x1
I1211 15:05:32.116936 15749 net.cpp:406] conv2_6/x1 <- conv2_6/x1/bn
I1211 15:05:32.116942 15749 net.cpp:380] conv2_6/x1 -> conv2_6/x1
I1211 15:05:32.119148 15749 net.cpp:122] Setting up conv2_6/x1
I1211 15:05:32.119158 15749 net.cpp:129] Top shape: 1 128 18 106 (244224)
I1211 15:05:32.119161 15749 net.cpp:137] Memory required for data: 797860920
I1211 15:05:32.119165 15749 layer_factory.hpp:77] Creating layer conv2_6/x2/bn
I1211 15:05:32.119173 15749 net.cpp:84] Creating Layer conv2_6/x2/bn
I1211 15:05:32.119175 15749 net.cpp:406] conv2_6/x2/bn <- conv2_6/x1
I1211 15:05:32.119179 15749 net.cpp:380] conv2_6/x2/bn -> conv2_6/x2/bn
I1211 15:05:32.119537 15749 net.cpp:122] Setting up conv2_6/x2/bn
I1211 15:05:32.119544 15749 net.cpp:129] Top shape: 1 128 18 106 (244224)
I1211 15:05:32.119546 15749 net.cpp:137] Memory required for data: 798837816
I1211 15:05:32.119552 15749 layer_factory.hpp:77] Creating layer conv2_6/x2/scale
I1211 15:05:32.119559 15749 net.cpp:84] Creating Layer conv2_6/x2/scale
I1211 15:05:32.119561 15749 net.cpp:406] conv2_6/x2/scale <- conv2_6/x2/bn
I1211 15:05:32.119565 15749 net.cpp:367] conv2_6/x2/scale -> conv2_6/x2/bn (in-place)
I1211 15:05:32.119627 15749 layer_factory.hpp:77] Creating layer conv2_6/x2/scale
I1211 15:05:32.119827 15749 net.cpp:122] Setting up conv2_6/x2/scale
I1211 15:05:32.119833 15749 net.cpp:129] Top shape: 1 128 18 106 (244224)
I1211 15:05:32.119835 15749 net.cpp:137] Memory required for data: 799814712
I1211 15:05:32.119840 15749 layer_factory.hpp:77] Creating layer relu2_6/x2
I1211 15:05:32.119846 15749 net.cpp:84] Creating Layer relu2_6/x2
I1211 15:05:32.119849 15749 net.cpp:406] relu2_6/x2 <- conv2_6/x2/bn
I1211 15:05:32.119853 15749 net.cpp:367] relu2_6/x2 -> conv2_6/x2/bn (in-place)
I1211 15:05:32.120213 15749 net.cpp:122] Setting up relu2_6/x2
I1211 15:05:32.120223 15749 net.cpp:129] Top shape: 1 128 18 106 (244224)
I1211 15:05:32.120225 15749 net.cpp:137] Memory required for data: 800791608
I1211 15:05:32.120229 15749 layer_factory.hpp:77] Creating layer conv2_6/x2
I1211 15:05:32.120236 15749 net.cpp:84] Creating Layer conv2_6/x2
I1211 15:05:32.120240 15749 net.cpp:406] conv2_6/x2 <- conv2_6/x2/bn
I1211 15:05:32.120244 15749 net.cpp:380] conv2_6/x2 -> conv2_6/x2
I1211 15:05:32.122514 15749 net.cpp:122] Setting up conv2_6/x2
I1211 15:05:32.122526 15749 net.cpp:129] Top shape: 1 32 18 106 (61056)
I1211 15:05:32.122529 15749 net.cpp:137] Memory required for data: 801035832
I1211 15:05:32.122537 15749 layer_factory.hpp:77] Creating layer concat2_6
I1211 15:05:32.122544 15749 net.cpp:84] Creating Layer concat2_6
I1211 15:05:32.122547 15749 net.cpp:406] concat2_6 <- concat2_5_concat2_5_0_split_1
I1211 15:05:32.122552 15749 net.cpp:406] concat2_6 <- conv2_6/x2
I1211 15:05:32.122556 15749 net.cpp:380] concat2_6 -> concat2_6
I1211 15:05:32.122603 15749 net.cpp:122] Setting up concat2_6
I1211 15:05:32.122611 15749 net.cpp:129] Top shape: 1 352 18 106 (671616)
I1211 15:05:32.122612 15749 net.cpp:137] Memory required for data: 803722296
I1211 15:05:32.122614 15749 layer_factory.hpp:77] Creating layer concat2_6_concat2_6_0_split
I1211 15:05:32.122620 15749 net.cpp:84] Creating Layer concat2_6_concat2_6_0_split
I1211 15:05:32.122622 15749 net.cpp:406] concat2_6_concat2_6_0_split <- concat2_6
I1211 15:05:32.122627 15749 net.cpp:380] concat2_6_concat2_6_0_split -> concat2_6_concat2_6_0_split_0
I1211 15:05:32.122632 15749 net.cpp:380] concat2_6_concat2_6_0_split -> concat2_6_concat2_6_0_split_1
I1211 15:05:32.122694 15749 net.cpp:122] Setting up concat2_6_concat2_6_0_split
I1211 15:05:32.122699 15749 net.cpp:129] Top shape: 1 352 18 106 (671616)
I1211 15:05:32.122702 15749 net.cpp:129] Top shape: 1 352 18 106 (671616)
I1211 15:05:32.122704 15749 net.cpp:137] Memory required for data: 809095224
I1211 15:05:32.122706 15749 layer_factory.hpp:77] Creating layer conv2_7/x1/bn
I1211 15:05:32.122714 15749 net.cpp:84] Creating Layer conv2_7/x1/bn
I1211 15:05:32.122716 15749 net.cpp:406] conv2_7/x1/bn <- concat2_6_concat2_6_0_split_0
I1211 15:05:32.122720 15749 net.cpp:380] conv2_7/x1/bn -> conv2_7/x1/bn
I1211 15:05:32.123111 15749 net.cpp:122] Setting up conv2_7/x1/bn
I1211 15:05:32.123118 15749 net.cpp:129] Top shape: 1 352 18 106 (671616)
I1211 15:05:32.123121 15749 net.cpp:137] Memory required for data: 811781688
I1211 15:05:32.123126 15749 layer_factory.hpp:77] Creating layer conv2_7/x1/scale
I1211 15:05:32.123133 15749 net.cpp:84] Creating Layer conv2_7/x1/scale
I1211 15:05:32.123136 15749 net.cpp:406] conv2_7/x1/scale <- conv2_7/x1/bn
I1211 15:05:32.123139 15749 net.cpp:367] conv2_7/x1/scale -> conv2_7/x1/bn (in-place)
I1211 15:05:32.123212 15749 layer_factory.hpp:77] Creating layer conv2_7/x1/scale
I1211 15:05:32.123426 15749 net.cpp:122] Setting up conv2_7/x1/scale
I1211 15:05:32.123432 15749 net.cpp:129] Top shape: 1 352 18 106 (671616)
I1211 15:05:32.123435 15749 net.cpp:137] Memory required for data: 814468152
I1211 15:05:32.123440 15749 layer_factory.hpp:77] Creating layer relu2_7/x1
I1211 15:05:32.123445 15749 net.cpp:84] Creating Layer relu2_7/x1
I1211 15:05:32.123447 15749 net.cpp:406] relu2_7/x1 <- conv2_7/x1/bn
I1211 15:05:32.123450 15749 net.cpp:367] relu2_7/x1 -> conv2_7/x1/bn (in-place)
I1211 15:05:32.123646 15749 net.cpp:122] Setting up relu2_7/x1
I1211 15:05:32.123653 15749 net.cpp:129] Top shape: 1 352 18 106 (671616)
I1211 15:05:32.123656 15749 net.cpp:137] Memory required for data: 817154616
I1211 15:05:32.123659 15749 layer_factory.hpp:77] Creating layer conv2_7/x1
I1211 15:05:32.123667 15749 net.cpp:84] Creating Layer conv2_7/x1
I1211 15:05:32.123670 15749 net.cpp:406] conv2_7/x1 <- conv2_7/x1/bn
I1211 15:05:32.123675 15749 net.cpp:380] conv2_7/x1 -> conv2_7/x1
I1211 15:05:32.126230 15749 net.cpp:122] Setting up conv2_7/x1
I1211 15:05:32.126261 15749 net.cpp:129] Top shape: 1 128 18 106 (244224)
I1211 15:05:32.126265 15749 net.cpp:137] Memory required for data: 818131512
I1211 15:05:32.126272 15749 layer_factory.hpp:77] Creating layer conv2_7/x2/bn
I1211 15:05:32.126283 15749 net.cpp:84] Creating Layer conv2_7/x2/bn
I1211 15:05:32.126289 15749 net.cpp:406] conv2_7/x2/bn <- conv2_7/x1
I1211 15:05:32.126296 15749 net.cpp:380] conv2_7/x2/bn -> conv2_7/x2/bn
I1211 15:05:32.126699 15749 net.cpp:122] Setting up conv2_7/x2/bn
I1211 15:05:32.126711 15749 net.cpp:129] Top shape: 1 128 18 106 (244224)
I1211 15:05:32.126714 15749 net.cpp:137] Memory required for data: 819108408
I1211 15:05:32.126721 15749 layer_factory.hpp:77] Creating layer conv2_7/x2/scale
I1211 15:05:32.126731 15749 net.cpp:84] Creating Layer conv2_7/x2/scale
I1211 15:05:32.126740 15749 net.cpp:406] conv2_7/x2/scale <- conv2_7/x2/bn
I1211 15:05:32.126745 15749 net.cpp:367] conv2_7/x2/scale -> conv2_7/x2/bn (in-place)
I1211 15:05:32.126819 15749 layer_factory.hpp:77] Creating layer conv2_7/x2/scale
I1211 15:05:32.127041 15749 net.cpp:122] Setting up conv2_7/x2/scale
I1211 15:05:32.127049 15749 net.cpp:129] Top shape: 1 128 18 106 (244224)
I1211 15:05:32.127053 15749 net.cpp:137] Memory required for data: 820085304
I1211 15:05:32.127058 15749 layer_factory.hpp:77] Creating layer relu2_7/x2
I1211 15:05:32.127063 15749 net.cpp:84] Creating Layer relu2_7/x2
I1211 15:05:32.127066 15749 net.cpp:406] relu2_7/x2 <- conv2_7/x2/bn
I1211 15:05:32.127071 15749 net.cpp:367] relu2_7/x2 -> conv2_7/x2/bn (in-place)
I1211 15:05:32.127646 15749 net.cpp:122] Setting up relu2_7/x2
I1211 15:05:32.127666 15749 net.cpp:129] Top shape: 1 128 18 106 (244224)
I1211 15:05:32.127670 15749 net.cpp:137] Memory required for data: 821062200
I1211 15:05:32.127672 15749 layer_factory.hpp:77] Creating layer conv2_7/x2
I1211 15:05:32.127684 15749 net.cpp:84] Creating Layer conv2_7/x2
I1211 15:05:32.127689 15749 net.cpp:406] conv2_7/x2 <- conv2_7/x2/bn
I1211 15:05:32.127696 15749 net.cpp:380] conv2_7/x2 -> conv2_7/x2
I1211 15:05:32.130581 15749 net.cpp:122] Setting up conv2_7/x2
I1211 15:05:32.130614 15749 net.cpp:129] Top shape: 1 32 18 106 (61056)
I1211 15:05:32.130617 15749 net.cpp:137] Memory required for data: 821306424
I1211 15:05:32.130625 15749 layer_factory.hpp:77] Creating layer concat2_7
I1211 15:05:32.130636 15749 net.cpp:84] Creating Layer concat2_7
I1211 15:05:32.130641 15749 net.cpp:406] concat2_7 <- concat2_6_concat2_6_0_split_1
I1211 15:05:32.130647 15749 net.cpp:406] concat2_7 <- conv2_7/x2
I1211 15:05:32.130653 15749 net.cpp:380] concat2_7 -> concat2_7
I1211 15:05:32.130713 15749 net.cpp:122] Setting up concat2_7
I1211 15:05:32.130719 15749 net.cpp:129] Top shape: 1 384 18 106 (732672)
I1211 15:05:32.130722 15749 net.cpp:137] Memory required for data: 824237112
I1211 15:05:32.130723 15749 layer_factory.hpp:77] Creating layer concat2_7_concat2_7_0_split
I1211 15:05:32.130728 15749 net.cpp:84] Creating Layer concat2_7_concat2_7_0_split
I1211 15:05:32.130731 15749 net.cpp:406] concat2_7_concat2_7_0_split <- concat2_7
I1211 15:05:32.130736 15749 net.cpp:380] concat2_7_concat2_7_0_split -> concat2_7_concat2_7_0_split_0
I1211 15:05:32.130741 15749 net.cpp:380] concat2_7_concat2_7_0_split -> concat2_7_concat2_7_0_split_1
I1211 15:05:32.130807 15749 net.cpp:122] Setting up concat2_7_concat2_7_0_split
I1211 15:05:32.130813 15749 net.cpp:129] Top shape: 1 384 18 106 (732672)
I1211 15:05:32.130816 15749 net.cpp:129] Top shape: 1 384 18 106 (732672)
I1211 15:05:32.130818 15749 net.cpp:137] Memory required for data: 830098488
I1211 15:05:32.130821 15749 layer_factory.hpp:77] Creating layer conv2_8/x1/bn
I1211 15:05:32.130827 15749 net.cpp:84] Creating Layer conv2_8/x1/bn
I1211 15:05:32.130831 15749 net.cpp:406] conv2_8/x1/bn <- concat2_7_concat2_7_0_split_0
I1211 15:05:32.130834 15749 net.cpp:380] conv2_8/x1/bn -> conv2_8/x1/bn
I1211 15:05:32.131255 15749 net.cpp:122] Setting up conv2_8/x1/bn
I1211 15:05:32.131263 15749 net.cpp:129] Top shape: 1 384 18 106 (732672)
I1211 15:05:32.131265 15749 net.cpp:137] Memory required for data: 833029176
I1211 15:05:32.131273 15749 layer_factory.hpp:77] Creating layer conv2_8/x1/scale
I1211 15:05:32.131280 15749 net.cpp:84] Creating Layer conv2_8/x1/scale
I1211 15:05:32.131283 15749 net.cpp:406] conv2_8/x1/scale <- conv2_8/x1/bn
I1211 15:05:32.131289 15749 net.cpp:367] conv2_8/x1/scale -> conv2_8/x1/bn (in-place)
I1211 15:05:32.131356 15749 layer_factory.hpp:77] Creating layer conv2_8/x1/scale
I1211 15:05:32.131567 15749 net.cpp:122] Setting up conv2_8/x1/scale
I1211 15:05:32.131573 15749 net.cpp:129] Top shape: 1 384 18 106 (732672)
I1211 15:05:32.131575 15749 net.cpp:137] Memory required for data: 835959864
I1211 15:05:32.131580 15749 layer_factory.hpp:77] Creating layer relu2_8/x1
I1211 15:05:32.131587 15749 net.cpp:84] Creating Layer relu2_8/x1
I1211 15:05:32.131593 15749 net.cpp:406] relu2_8/x1 <- conv2_8/x1/bn
I1211 15:05:32.131597 15749 net.cpp:367] relu2_8/x1 -> conv2_8/x1/bn (in-place)
I1211 15:05:32.131832 15749 net.cpp:122] Setting up relu2_8/x1
I1211 15:05:32.131841 15749 net.cpp:129] Top shape: 1 384 18 106 (732672)
I1211 15:05:32.131844 15749 net.cpp:137] Memory required for data: 838890552
I1211 15:05:32.131847 15749 layer_factory.hpp:77] Creating layer conv2_8/x1
I1211 15:05:32.131856 15749 net.cpp:84] Creating Layer conv2_8/x1
I1211 15:05:32.131860 15749 net.cpp:406] conv2_8/x1 <- conv2_8/x1/bn
I1211 15:05:32.131865 15749 net.cpp:380] conv2_8/x1 -> conv2_8/x1
I1211 15:05:32.134464 15749 net.cpp:122] Setting up conv2_8/x1
I1211 15:05:32.134483 15749 net.cpp:129] Top shape: 1 128 18 106 (244224)
I1211 15:05:32.134485 15749 net.cpp:137] Memory required for data: 839867448
I1211 15:05:32.134491 15749 layer_factory.hpp:77] Creating layer conv2_8/x2/bn
I1211 15:05:32.134500 15749 net.cpp:84] Creating Layer conv2_8/x2/bn
I1211 15:05:32.134505 15749 net.cpp:406] conv2_8/x2/bn <- conv2_8/x1
I1211 15:05:32.134510 15749 net.cpp:380] conv2_8/x2/bn -> conv2_8/x2/bn
I1211 15:05:32.134897 15749 net.cpp:122] Setting up conv2_8/x2/bn
I1211 15:05:32.134903 15749 net.cpp:129] Top shape: 1 128 18 106 (244224)
I1211 15:05:32.134907 15749 net.cpp:137] Memory required for data: 840844344
I1211 15:05:32.134912 15749 layer_factory.hpp:77] Creating layer conv2_8/x2/scale
I1211 15:05:32.134919 15749 net.cpp:84] Creating Layer conv2_8/x2/scale
I1211 15:05:32.134922 15749 net.cpp:406] conv2_8/x2/scale <- conv2_8/x2/bn
I1211 15:05:32.134927 15749 net.cpp:367] conv2_8/x2/scale -> conv2_8/x2/bn (in-place)
I1211 15:05:32.134994 15749 layer_factory.hpp:77] Creating layer conv2_8/x2/scale
I1211 15:05:32.135193 15749 net.cpp:122] Setting up conv2_8/x2/scale
I1211 15:05:32.135200 15749 net.cpp:129] Top shape: 1 128 18 106 (244224)
I1211 15:05:32.135202 15749 net.cpp:137] Memory required for data: 841821240
I1211 15:05:32.135206 15749 layer_factory.hpp:77] Creating layer relu2_8/x2
I1211 15:05:32.135213 15749 net.cpp:84] Creating Layer relu2_8/x2
I1211 15:05:32.135216 15749 net.cpp:406] relu2_8/x2 <- conv2_8/x2/bn
I1211 15:05:32.135219 15749 net.cpp:367] relu2_8/x2 -> conv2_8/x2/bn (in-place)
I1211 15:05:32.135604 15749 net.cpp:122] Setting up relu2_8/x2
I1211 15:05:32.135614 15749 net.cpp:129] Top shape: 1 128 18 106 (244224)
I1211 15:05:32.135617 15749 net.cpp:137] Memory required for data: 842798136
I1211 15:05:32.135620 15749 layer_factory.hpp:77] Creating layer conv2_8/x2
I1211 15:05:32.135629 15749 net.cpp:84] Creating Layer conv2_8/x2
I1211 15:05:32.135633 15749 net.cpp:406] conv2_8/x2 <- conv2_8/x2/bn
I1211 15:05:32.135638 15749 net.cpp:380] conv2_8/x2 -> conv2_8/x2
I1211 15:05:32.138911 15749 net.cpp:122] Setting up conv2_8/x2
I1211 15:05:32.138947 15749 net.cpp:129] Top shape: 1 32 18 106 (61056)
I1211 15:05:32.138952 15749 net.cpp:137] Memory required for data: 843042360
I1211 15:05:32.138963 15749 layer_factory.hpp:77] Creating layer concat2_8
I1211 15:05:32.138976 15749 net.cpp:84] Creating Layer concat2_8
I1211 15:05:32.138983 15749 net.cpp:406] concat2_8 <- concat2_7_concat2_7_0_split_1
I1211 15:05:32.138991 15749 net.cpp:406] concat2_8 <- conv2_8/x2
I1211 15:05:32.139003 15749 net.cpp:380] concat2_8 -> concat2_8
I1211 15:05:32.139071 15749 net.cpp:122] Setting up concat2_8
I1211 15:05:32.139081 15749 net.cpp:129] Top shape: 1 416 18 106 (793728)
I1211 15:05:32.139084 15749 net.cpp:137] Memory required for data: 846217272
I1211 15:05:32.139088 15749 layer_factory.hpp:77] Creating layer concat2_8_concat2_8_0_split
I1211 15:05:32.139096 15749 net.cpp:84] Creating Layer concat2_8_concat2_8_0_split
I1211 15:05:32.139101 15749 net.cpp:406] concat2_8_concat2_8_0_split <- concat2_8
I1211 15:05:32.139107 15749 net.cpp:380] concat2_8_concat2_8_0_split -> concat2_8_concat2_8_0_split_0
I1211 15:05:32.139114 15749 net.cpp:380] concat2_8_concat2_8_0_split -> concat2_8_concat2_8_0_split_1
I1211 15:05:32.139206 15749 net.cpp:122] Setting up concat2_8_concat2_8_0_split
I1211 15:05:32.139219 15749 net.cpp:129] Top shape: 1 416 18 106 (793728)
I1211 15:05:32.139225 15749 net.cpp:129] Top shape: 1 416 18 106 (793728)
I1211 15:05:32.139227 15749 net.cpp:137] Memory required for data: 852567096
I1211 15:05:32.139231 15749 layer_factory.hpp:77] Creating layer conv2_9/x1/bn
I1211 15:05:32.139240 15749 net.cpp:84] Creating Layer conv2_9/x1/bn
I1211 15:05:32.139245 15749 net.cpp:406] conv2_9/x1/bn <- concat2_8_concat2_8_0_split_0
I1211 15:05:32.139250 15749 net.cpp:380] conv2_9/x1/bn -> conv2_9/x1/bn
I1211 15:05:32.139823 15749 net.cpp:122] Setting up conv2_9/x1/bn
I1211 15:05:32.139835 15749 net.cpp:129] Top shape: 1 416 18 106 (793728)
I1211 15:05:32.139839 15749 net.cpp:137] Memory required for data: 855742008
I1211 15:05:32.139850 15749 layer_factory.hpp:77] Creating layer conv2_9/x1/scale
I1211 15:05:32.139859 15749 net.cpp:84] Creating Layer conv2_9/x1/scale
I1211 15:05:32.139863 15749 net.cpp:406] conv2_9/x1/scale <- conv2_9/x1/bn
I1211 15:05:32.139871 15749 net.cpp:367] conv2_9/x1/scale -> conv2_9/x1/bn (in-place)
I1211 15:05:32.139971 15749 layer_factory.hpp:77] Creating layer conv2_9/x1/scale
I1211 15:05:32.140276 15749 net.cpp:122] Setting up conv2_9/x1/scale
I1211 15:05:32.140285 15749 net.cpp:129] Top shape: 1 416 18 106 (793728)
I1211 15:05:32.140290 15749 net.cpp:137] Memory required for data: 858916920
I1211 15:05:32.140296 15749 layer_factory.hpp:77] Creating layer relu2_9/x1
I1211 15:05:32.140305 15749 net.cpp:84] Creating Layer relu2_9/x1
I1211 15:05:32.140308 15749 net.cpp:406] relu2_9/x1 <- conv2_9/x1/bn
I1211 15:05:32.140316 15749 net.cpp:367] relu2_9/x1 -> conv2_9/x1/bn (in-place)
I1211 15:05:32.140897 15749 net.cpp:122] Setting up relu2_9/x1
I1211 15:05:32.140913 15749 net.cpp:129] Top shape: 1 416 18 106 (793728)
I1211 15:05:32.140918 15749 net.cpp:137] Memory required for data: 862091832
I1211 15:05:32.140921 15749 layer_factory.hpp:77] Creating layer conv2_9/x1
I1211 15:05:32.140938 15749 net.cpp:84] Creating Layer conv2_9/x1
I1211 15:05:32.140943 15749 net.cpp:406] conv2_9/x1 <- conv2_9/x1/bn
I1211 15:05:32.140950 15749 net.cpp:380] conv2_9/x1 -> conv2_9/x1
I1211 15:05:32.144945 15749 net.cpp:122] Setting up conv2_9/x1
I1211 15:05:32.144984 15749 net.cpp:129] Top shape: 1 128 18 106 (244224)
I1211 15:05:32.144989 15749 net.cpp:137] Memory required for data: 863068728
I1211 15:05:32.144999 15749 layer_factory.hpp:77] Creating layer conv2_9/x2/bn
I1211 15:05:32.145012 15749 net.cpp:84] Creating Layer conv2_9/x2/bn
I1211 15:05:32.145020 15749 net.cpp:406] conv2_9/x2/bn <- conv2_9/x1
I1211 15:05:32.145030 15749 net.cpp:380] conv2_9/x2/bn -> conv2_9/x2/bn
I1211 15:05:32.145586 15749 net.cpp:122] Setting up conv2_9/x2/bn
I1211 15:05:32.145597 15749 net.cpp:129] Top shape: 1 128 18 106 (244224)
I1211 15:05:32.145601 15749 net.cpp:137] Memory required for data: 864045624
I1211 15:05:32.145612 15749 layer_factory.hpp:77] Creating layer conv2_9/x2/scale
I1211 15:05:32.145620 15749 net.cpp:84] Creating Layer conv2_9/x2/scale
I1211 15:05:32.145625 15749 net.cpp:406] conv2_9/x2/scale <- conv2_9/x2/bn
I1211 15:05:32.145632 15749 net.cpp:367] conv2_9/x2/scale -> conv2_9/x2/bn (in-place)
I1211 15:05:32.145727 15749 layer_factory.hpp:77] Creating layer conv2_9/x2/scale
I1211 15:05:32.146008 15749 net.cpp:122] Setting up conv2_9/x2/scale
I1211 15:05:32.146018 15749 net.cpp:129] Top shape: 1 128 18 106 (244224)
I1211 15:05:32.146021 15749 net.cpp:137] Memory required for data: 865022520
I1211 15:05:32.146028 15749 layer_factory.hpp:77] Creating layer relu2_9/x2
I1211 15:05:32.146035 15749 net.cpp:84] Creating Layer relu2_9/x2
I1211 15:05:32.146039 15749 net.cpp:406] relu2_9/x2 <- conv2_9/x2/bn
I1211 15:05:32.146044 15749 net.cpp:367] relu2_9/x2 -> conv2_9/x2/bn (in-place)
I1211 15:05:32.146301 15749 net.cpp:122] Setting up relu2_9/x2
I1211 15:05:32.146313 15749 net.cpp:129] Top shape: 1 128 18 106 (244224)
I1211 15:05:32.146317 15749 net.cpp:137] Memory required for data: 865999416
I1211 15:05:32.146322 15749 layer_factory.hpp:77] Creating layer conv2_9/x2
I1211 15:05:32.146334 15749 net.cpp:84] Creating Layer conv2_9/x2
I1211 15:05:32.146343 15749 net.cpp:406] conv2_9/x2 <- conv2_9/x2/bn
I1211 15:05:32.146350 15749 net.cpp:380] conv2_9/x2 -> conv2_9/x2
I1211 15:05:32.149633 15749 net.cpp:122] Setting up conv2_9/x2
I1211 15:05:32.149652 15749 net.cpp:129] Top shape: 1 32 18 106 (61056)
I1211 15:05:32.149657 15749 net.cpp:137] Memory required for data: 866243640
I1211 15:05:32.149664 15749 layer_factory.hpp:77] Creating layer concat2_9
I1211 15:05:32.149674 15749 net.cpp:84] Creating Layer concat2_9
I1211 15:05:32.149682 15749 net.cpp:406] concat2_9 <- concat2_8_concat2_8_0_split_1
I1211 15:05:32.149688 15749 net.cpp:406] concat2_9 <- conv2_9/x2
I1211 15:05:32.149694 15749 net.cpp:380] concat2_9 -> concat2_9
I1211 15:05:32.149756 15749 net.cpp:122] Setting up concat2_9
I1211 15:05:32.149766 15749 net.cpp:129] Top shape: 1 448 18 106 (854784)
I1211 15:05:32.149770 15749 net.cpp:137] Memory required for data: 869662776
I1211 15:05:32.149773 15749 layer_factory.hpp:77] Creating layer concat2_9_concat2_9_0_split
I1211 15:05:32.149780 15749 net.cpp:84] Creating Layer concat2_9_concat2_9_0_split
I1211 15:05:32.149785 15749 net.cpp:406] concat2_9_concat2_9_0_split <- concat2_9
I1211 15:05:32.149791 15749 net.cpp:380] concat2_9_concat2_9_0_split -> concat2_9_concat2_9_0_split_0
I1211 15:05:32.149797 15749 net.cpp:380] concat2_9_concat2_9_0_split -> concat2_9_concat2_9_0_split_1
I1211 15:05:32.149889 15749 net.cpp:122] Setting up concat2_9_concat2_9_0_split
I1211 15:05:32.149897 15749 net.cpp:129] Top shape: 1 448 18 106 (854784)
I1211 15:05:32.149902 15749 net.cpp:129] Top shape: 1 448 18 106 (854784)
I1211 15:05:32.149905 15749 net.cpp:137] Memory required for data: 876501048
I1211 15:05:32.149909 15749 layer_factory.hpp:77] Creating layer conv2_10/x1/bn
I1211 15:05:32.149919 15749 net.cpp:84] Creating Layer conv2_10/x1/bn
I1211 15:05:32.149924 15749 net.cpp:406] conv2_10/x1/bn <- concat2_9_concat2_9_0_split_0
I1211 15:05:32.149930 15749 net.cpp:380] conv2_10/x1/bn -> conv2_10/x1/bn
I1211 15:05:32.150511 15749 net.cpp:122] Setting up conv2_10/x1/bn
I1211 15:05:32.150521 15749 net.cpp:129] Top shape: 1 448 18 106 (854784)
I1211 15:05:32.150524 15749 net.cpp:137] Memory required for data: 879920184
I1211 15:05:32.150533 15749 layer_factory.hpp:77] Creating layer conv2_10/x1/scale
I1211 15:05:32.150543 15749 net.cpp:84] Creating Layer conv2_10/x1/scale
I1211 15:05:32.150547 15749 net.cpp:406] conv2_10/x1/scale <- conv2_10/x1/bn
I1211 15:05:32.150554 15749 net.cpp:367] conv2_10/x1/scale -> conv2_10/x1/bn (in-place)
I1211 15:05:32.150650 15749 layer_factory.hpp:77] Creating layer conv2_10/x1/scale
I1211 15:05:32.150956 15749 net.cpp:122] Setting up conv2_10/x1/scale
I1211 15:05:32.150964 15749 net.cpp:129] Top shape: 1 448 18 106 (854784)
I1211 15:05:32.150969 15749 net.cpp:137] Memory required for data: 883339320
I1211 15:05:32.150975 15749 layer_factory.hpp:77] Creating layer relu2_10/x1
I1211 15:05:32.150984 15749 net.cpp:84] Creating Layer relu2_10/x1
I1211 15:05:32.150988 15749 net.cpp:406] relu2_10/x1 <- conv2_10/x1/bn
I1211 15:05:32.150993 15749 net.cpp:367] relu2_10/x1 -> conv2_10/x1/bn (in-place)
I1211 15:05:32.151473 15749 net.cpp:122] Setting up relu2_10/x1
I1211 15:05:32.151486 15749 net.cpp:129] Top shape: 1 448 18 106 (854784)
I1211 15:05:32.151490 15749 net.cpp:137] Memory required for data: 886758456
I1211 15:05:32.151494 15749 layer_factory.hpp:77] Creating layer conv2_10/x1
I1211 15:05:32.151507 15749 net.cpp:84] Creating Layer conv2_10/x1
I1211 15:05:32.151512 15749 net.cpp:406] conv2_10/x1 <- conv2_10/x1/bn
I1211 15:05:32.151520 15749 net.cpp:380] conv2_10/x1 -> conv2_10/x1
I1211 15:05:32.155299 15749 net.cpp:122] Setting up conv2_10/x1
I1211 15:05:32.155320 15749 net.cpp:129] Top shape: 1 128 18 106 (244224)
I1211 15:05:32.155325 15749 net.cpp:137] Memory required for data: 887735352
I1211 15:05:32.155333 15749 layer_factory.hpp:77] Creating layer conv2_10/x2/bn
I1211 15:05:32.155342 15749 net.cpp:84] Creating Layer conv2_10/x2/bn
I1211 15:05:32.155347 15749 net.cpp:406] conv2_10/x2/bn <- conv2_10/x1
I1211 15:05:32.155360 15749 net.cpp:380] conv2_10/x2/bn -> conv2_10/x2/bn
I1211 15:05:32.155915 15749 net.cpp:122] Setting up conv2_10/x2/bn
I1211 15:05:32.155925 15749 net.cpp:129] Top shape: 1 128 18 106 (244224)
I1211 15:05:32.155928 15749 net.cpp:137] Memory required for data: 888712248
I1211 15:05:32.155936 15749 layer_factory.hpp:77] Creating layer conv2_10/x2/scale
I1211 15:05:32.155946 15749 net.cpp:84] Creating Layer conv2_10/x2/scale
I1211 15:05:32.155951 15749 net.cpp:406] conv2_10/x2/scale <- conv2_10/x2/bn
I1211 15:05:32.155958 15749 net.cpp:367] conv2_10/x2/scale -> conv2_10/x2/bn (in-place)
I1211 15:05:32.156049 15749 layer_factory.hpp:77] Creating layer conv2_10/x2/scale
I1211 15:05:32.156330 15749 net.cpp:122] Setting up conv2_10/x2/scale
I1211 15:05:32.156339 15749 net.cpp:129] Top shape: 1 128 18 106 (244224)
I1211 15:05:32.156343 15749 net.cpp:137] Memory required for data: 889689144
I1211 15:05:32.156350 15749 layer_factory.hpp:77] Creating layer relu2_10/x2
I1211 15:05:32.156358 15749 net.cpp:84] Creating Layer relu2_10/x2
I1211 15:05:32.156361 15749 net.cpp:406] relu2_10/x2 <- conv2_10/x2/bn
I1211 15:05:32.156368 15749 net.cpp:367] relu2_10/x2 -> conv2_10/x2/bn (in-place)
I1211 15:05:32.156776 15749 net.cpp:122] Setting up relu2_10/x2
I1211 15:05:32.156790 15749 net.cpp:129] Top shape: 1 128 18 106 (244224)
I1211 15:05:32.156795 15749 net.cpp:137] Memory required for data: 890666040
I1211 15:05:32.156798 15749 layer_factory.hpp:77] Creating layer conv2_10/x2
I1211 15:05:32.156811 15749 net.cpp:84] Creating Layer conv2_10/x2
I1211 15:05:32.156816 15749 net.cpp:406] conv2_10/x2 <- conv2_10/x2/bn
I1211 15:05:32.156823 15749 net.cpp:380] conv2_10/x2 -> conv2_10/x2
I1211 15:05:32.160037 15749 net.cpp:122] Setting up conv2_10/x2
I1211 15:05:32.160058 15749 net.cpp:129] Top shape: 1 32 18 106 (61056)
I1211 15:05:32.160061 15749 net.cpp:137] Memory required for data: 890910264
I1211 15:05:32.160069 15749 layer_factory.hpp:77] Creating layer concat2_10
I1211 15:05:32.160079 15749 net.cpp:84] Creating Layer concat2_10
I1211 15:05:32.160084 15749 net.cpp:406] concat2_10 <- concat2_9_concat2_9_0_split_1
I1211 15:05:32.160091 15749 net.cpp:406] concat2_10 <- conv2_10/x2
I1211 15:05:32.160099 15749 net.cpp:380] concat2_10 -> concat2_10
I1211 15:05:32.160161 15749 net.cpp:122] Setting up concat2_10
I1211 15:05:32.160171 15749 net.cpp:129] Top shape: 1 480 18 106 (915840)
I1211 15:05:32.160174 15749 net.cpp:137] Memory required for data: 894573624
I1211 15:05:32.160178 15749 layer_factory.hpp:77] Creating layer concat2_10_concat2_10_0_split
I1211 15:05:32.160184 15749 net.cpp:84] Creating Layer concat2_10_concat2_10_0_split
I1211 15:05:32.160188 15749 net.cpp:406] concat2_10_concat2_10_0_split <- concat2_10
I1211 15:05:32.160195 15749 net.cpp:380] concat2_10_concat2_10_0_split -> concat2_10_concat2_10_0_split_0
I1211 15:05:32.160203 15749 net.cpp:380] concat2_10_concat2_10_0_split -> concat2_10_concat2_10_0_split_1
I1211 15:05:32.160295 15749 net.cpp:122] Setting up concat2_10_concat2_10_0_split
I1211 15:05:32.160303 15749 net.cpp:129] Top shape: 1 480 18 106 (915840)
I1211 15:05:32.160308 15749 net.cpp:129] Top shape: 1 480 18 106 (915840)
I1211 15:05:32.160312 15749 net.cpp:137] Memory required for data: 901900344
I1211 15:05:32.160316 15749 layer_factory.hpp:77] Creating layer conv2_11/x1/bn
I1211 15:05:32.160323 15749 net.cpp:84] Creating Layer conv2_11/x1/bn
I1211 15:05:32.160327 15749 net.cpp:406] conv2_11/x1/bn <- concat2_10_concat2_10_0_split_0
I1211 15:05:32.160334 15749 net.cpp:380] conv2_11/x1/bn -> conv2_11/x1/bn
I1211 15:05:32.160938 15749 net.cpp:122] Setting up conv2_11/x1/bn
I1211 15:05:32.160948 15749 net.cpp:129] Top shape: 1 480 18 106 (915840)
I1211 15:05:32.160951 15749 net.cpp:137] Memory required for data: 905563704
I1211 15:05:32.160961 15749 layer_factory.hpp:77] Creating layer conv2_11/x1/scale
I1211 15:05:32.160970 15749 net.cpp:84] Creating Layer conv2_11/x1/scale
I1211 15:05:32.160975 15749 net.cpp:406] conv2_11/x1/scale <- conv2_11/x1/bn
…
I1211 15:05:37.501936 15749 net.cpp:137] Memory required for data: 227197520
I1211 15:05:37.501940 15749 layer_factory.hpp:77] Creating layer conv2_3/x2
I1211 15:05:37.501953 15749 net.cpp:84] Creating Layer conv2_3/x2
I1211 15:05:37.501957 15749 net.cpp:406] conv2_3/x2 <- conv2_3/x2/bn
I1211 15:05:37.501965 15749 net.cpp:380] conv2_3/x2 -> conv2_3/x2
I1211 15:05:37.505115 15749 net.cpp:122] Setting up conv2_3/x2
I1211 15:05:37.505127 15749 net.cpp:129] Top shape: 1 32 17 35 (19040)
I1211 15:05:37.505131 15749 net.cpp:137] Memory required for data: 227273680
I1211 15:05:37.505138 15749 layer_factory.hpp:77] Creating layer concat2_3
I1211 15:05:37.505147 15749 net.cpp:84] Creating Layer concat2_3
I1211 15:05:37.505152 15749 net.cpp:406] concat2_3 <- concat2_2_concat2_2_0_split_1
I1211 15:05:37.505158 15749 net.cpp:406] concat2_3 <- conv2_3/x2
I1211 15:05:37.505164 15749 net.cpp:380] concat2_3 -> concat2_3
I1211 15:05:37.505218 15749 net.cpp:122] Setting up concat2_3
I1211 15:05:37.505226 15749 net.cpp:129] Top shape: 1 256 17 35 (152320)
I1211 15:05:37.505229 15749 net.cpp:137] Memory required for data: 227882960
I1211 15:05:37.505234 15749 layer_factory.hpp:77] Creating layer concat2_3_concat2_3_0_split
I1211 15:05:37.505240 15749 net.cpp:84] Creating Layer concat2_3_concat2_3_0_split
I1211 15:05:37.505244 15749 net.cpp:406] concat2_3_concat2_3_0_split <- concat2_3
I1211 15:05:37.505251 15749 net.cpp:380] concat2_3_concat2_3_0_split -> concat2_3_concat2_3_0_split_0
I1211 15:05:37.505259 15749 net.cpp:380] concat2_3_concat2_3_0_split -> concat2_3_concat2_3_0_split_1
I1211 15:05:37.505327 15749 net.cpp:122] Setting up concat2_3_concat2_3_0_split
I1211 15:05:37.505336 15749 net.cpp:129] Top shape: 1 256 17 35 (152320)
I1211 15:05:37.505340 15749 net.cpp:129] Top shape: 1 256 17 35 (152320)
I1211 15:05:37.505344 15749 net.cpp:137] Memory required for data: 229101520
I1211 15:05:37.505347 15749 layer_factory.hpp:77] Creating layer conv2_4/x1/bn
I1211 15:05:37.505355 15749 net.cpp:84] Creating Layer conv2_4/x1/bn
I1211 15:05:37.505359 15749 net.cpp:406] conv2_4/x1/bn <- concat2_3_concat2_3_0_split_0
I1211 15:05:37.505367 15749 net.cpp:380] conv2_4/x1/bn -> conv2_4/x1/bn
I1211 15:05:37.505796 15749 net.cpp:122] Setting up conv2_4/x1/bn
I1211 15:05:37.505805 15749 net.cpp:129] Top shape: 1 256 17 35 (152320)
I1211 15:05:37.505810 15749 net.cpp:137] Memory required for data: 229710800
I1211 15:05:37.505820 15749 layer_factory.hpp:77] Creating layer conv2_4/x1/scale
I1211 15:05:37.505828 15749 net.cpp:84] Creating Layer conv2_4/x1/scale
I1211 15:05:37.505832 15749 net.cpp:406] conv2_4/x1/scale <- conv2_4/x1/bn
I1211 15:05:37.505839 15749 net.cpp:367] conv2_4/x1/scale -> conv2_4/x1/bn (in-place)
I1211 15:05:37.505913 15749 layer_factory.hpp:77] Creating layer conv2_4/x1/scale
I1211 15:05:37.506176 15749 net.cpp:122] Setting up conv2_4/x1/scale
I1211 15:05:37.506186 15749 net.cpp:129] Top shape: 1 256 17 35 (152320)
I1211 15:05:37.506191 15749 net.cpp:137] Memory required for data: 230320080
I1211 15:05:37.506197 15749 layer_factory.hpp:77] Creating layer relu2_4/x1
I1211 15:05:37.506206 15749 net.cpp:84] Creating Layer relu2_4/x1
I1211 15:05:37.506209 15749 net.cpp:406] relu2_4/x1 <- conv2_4/x1/bn
I1211 15:05:37.506216 15749 net.cpp:367] relu2_4/x1 -> conv2_4/x1/bn (in-place)
I1211 15:05:37.506494 15749 net.cpp:122] Setting up relu2_4/x1
I1211 15:05:37.506505 15749 net.cpp:129] Top shape: 1 256 17 35 (152320)
I1211 15:05:37.506508 15749 net.cpp:137] Memory required for data: 230929360
I1211 15:05:37.506512 15749 layer_factory.hpp:77] Creating layer conv2_4/x1
I1211 15:05:37.506525 15749 net.cpp:84] Creating Layer conv2_4/x1
I1211 15:05:37.506530 15749 net.cpp:406] conv2_4/x1 <- conv2_4/x1/bn
I1211 15:05:37.506536 15749 net.cpp:380] conv2_4/x1 -> conv2_4/x1
I1211 15:05:37.509663 15749 net.cpp:122] Setting up conv2_4/x1
I1211 15:05:37.509697 15749 net.cpp:129] Top shape: 1 128 17 35 (76160)
I1211 15:05:37.509702 15749 net.cpp:137] Memory required for data: 231234000
I1211 15:05:37.509712 15749 layer_factory.hpp:77] Creating layer conv2_4/x2/bn
I1211 15:05:37.509726 15749 net.cpp:84] Creating Layer conv2_4/x2/bn
I1211 15:05:37.509732 15749 net.cpp:406] conv2_4/x2/bn <- conv2_4/x1
I1211 15:05:37.509740 15749 net.cpp:380] conv2_4/x2/bn -> conv2_4/x2/bn
I1211 15:05:37.510212 15749 net.cpp:122] Setting up conv2_4/x2/bn
I1211 15:05:37.510223 15749 net.cpp:129] Top shape: 1 128 17 35 (76160)
I1211 15:05:37.510226 15749 net.cpp:137] Memory required for data: 231538640
I1211 15:05:37.510236 15749 layer_factory.hpp:77] Creating layer conv2_4/x2/scale
I1211 15:05:37.510248 15749 net.cpp:84] Creating Layer conv2_4/x2/scale
I1211 15:05:37.510252 15749 net.cpp:406] conv2_4/x2/scale <- conv2_4/x2/bn
I1211 15:05:37.510258 15749 net.cpp:367] conv2_4/x2/scale -> conv2_4/x2/bn (in-place)
I1211 15:05:37.510334 15749 layer_factory.hpp:77] Creating layer conv2_4/x2/scale
I1211 15:05:37.510596 15749 net.cpp:122] Setting up conv2_4/x2/scale
I1211 15:05:37.510604 15749 net.cpp:129] Top shape: 1 128 17 35 (76160)
I1211 15:05:37.510608 15749 net.cpp:137] Memory required for data: 231843280
I1211 15:05:37.510617 15749 layer_factory.hpp:77] Creating layer relu2_4/x2
I1211 15:05:37.510624 15749 net.cpp:84] Creating Layer relu2_4/x2
I1211 15:05:37.510629 15749 net.cpp:406] relu2_4/x2 <- conv2_4/x2/bn
I1211 15:05:37.510634 15749 net.cpp:367] relu2_4/x2 -> conv2_4/x2/bn (in-place)
I1211 15:05:37.511510 15749 net.cpp:122] Setting up relu2_4/x2
I1211 15:05:37.511536 15749 net.cpp:129] Top shape: 1 128 17 35 (76160)
I1211 15:05:37.511540 15749 net.cpp:137] Memory required for data: 232147920
I1211 15:05:37.511548 15749 layer_factory.hpp:77] Creating layer conv2_4/x2
I1211 15:05:37.511564 15749 net.cpp:84] Creating Layer conv2_4/x2
I1211 15:05:37.511569 15749 net.cpp:406] conv2_4/x2 <- conv2_4/x2/bn
I1211 15:05:37.511577 15749 net.cpp:380] conv2_4/x2 -> conv2_4/x2
I1211 15:05:37.515305 15749 net.cpp:122] Setting up conv2_4/x2
I1211 15:05:37.515339 15749 net.cpp:129] Top shape: 1 32 17 35 (19040)
I1211 15:05:37.515344 15749 net.cpp:137] Memory required for data: 232224080
I1211 15:05:37.515354 15749 layer_factory.hpp:77] Creating layer concat2_4
I1211 15:05:37.515367 15749 net.cpp:84] Creating Layer concat2_4
I1211 15:05:37.515373 15749 net.cpp:406] concat2_4 <- concat2_3_concat2_3_0_split_1
I1211 15:05:37.515381 15749 net.cpp:406] concat2_4 <- conv2_4/x2
I1211 15:05:37.515389 15749 net.cpp:380] concat2_4 -> concat2_4
I1211 15:05:37.515445 15749 net.cpp:122] Setting up concat2_4
I1211 15:05:37.515453 15749 net.cpp:129] Top shape: 1 288 17 35 (171360)
I1211 15:05:37.515457 15749 net.cpp:137] Memory required for data: 232909520
I1211 15:05:37.515461 15749 layer_factory.hpp:77] Creating layer concat2_4_concat2_4_0_split
I1211 15:05:37.515468 15749 net.cpp:84] Creating Layer concat2_4_concat2_4_0_split
I1211 15:05:37.515477 15749 net.cpp:406] concat2_4_concat2_4_0_split <- concat2_4
I1211 15:05:37.515485 15749 net.cpp:380] concat2_4_concat2_4_0_split -> concat2_4_concat2_4_0_split_0
I1211 15:05:37.515492 15749 net.cpp:380] concat2_4_concat2_4_0_split -> concat2_4_concat2_4_0_split_1
I1211 15:05:37.515566 15749 net.cpp:122] Setting up concat2_4_concat2_4_0_split
I1211 15:05:37.515574 15749 net.cpp:129] Top shape: 1 288 17 35 (171360)
I1211 15:05:37.515579 15749 net.cpp:129] Top shape: 1 288 17 35 (171360)
I1211 15:05:37.515583 15749 net.cpp:137] Memory required for data: 234280400
I1211 15:05:37.515588 15749 layer_factory.hpp:77] Creating layer conv2_5/x1/bn
I1211 15:05:37.515595 15749 net.cpp:84] Creating Layer conv2_5/x1/bn
I1211 15:05:37.515599 15749 net.cpp:406] conv2_5/x1/bn <- concat2_4_concat2_4_0_split_0
I1211 15:05:37.515605 15749 net.cpp:380] conv2_5/x1/bn -> conv2_5/x1/bn
I1211 15:05:37.516152 15749 net.cpp:122] Setting up conv2_5/x1/bn
I1211 15:05:37.516161 15749 net.cpp:129] Top shape: 1 288 17 35 (171360)
I1211 15:05:37.516165 15749 net.cpp:137] Memory required for data: 234965840
I1211 15:05:37.516175 15749 layer_factory.hpp:77] Creating layer conv2_5/x1/scale
I1211 15:05:37.516185 15749 net.cpp:84] Creating Layer conv2_5/x1/scale
I1211 15:05:37.516191 15749 net.cpp:406] conv2_5/x1/scale <- conv2_5/x1/bn
I1211 15:05:37.516196 15749 net.cpp:367] conv2_5/x1/scale -> conv2_5/x1/bn (in-place)
I1211 15:05:37.516296 15749 layer_factory.hpp:77] Creating layer conv2_5/x1/scale
I1211 15:05:37.516608 15749 net.cpp:122] Setting up conv2_5/x1/scale
I1211 15:05:37.516618 15749 net.cpp:129] Top shape: 1 288 17 35 (171360)
I1211 15:05:37.516623 15749 net.cpp:137] Memory required for data: 235651280
I1211 15:05:37.516629 15749 layer_factory.hpp:77] Creating layer relu2_5/x1
I1211 15:05:37.516638 15749 net.cpp:84] Creating Layer relu2_5/x1
I1211 15:05:37.516641 15749 net.cpp:406] relu2_5/x1 <- conv2_5/x1/bn
I1211 15:05:37.516647 15749 net.cpp:367] relu2_5/x1 -> conv2_5/x1/bn (in-place)
I1211 15:05:37.517165 15749 net.cpp:122] Setting up relu2_5/x1
I1211 15:05:37.517179 15749 net.cpp:129] Top shape: 1 288 17 35 (171360)
I1211 15:05:37.517182 15749 net.cpp:137] Memory required for data: 236336720
I1211 15:05:37.517187 15749 layer_factory.hpp:77] Creating layer conv2_5/x1
I1211 15:05:37.517200 15749 net.cpp:84] Creating Layer conv2_5/x1
I1211 15:05:37.517205 15749 net.cpp:406] conv2_5/x1 <- conv2_5/x1/bn
I1211 15:05:37.517213 15749 net.cpp:380] conv2_5/x1 -> conv2_5/x1
I1211 15:05:37.520246 15749 net.cpp:122] Setting up conv2_5/x1
I1211 15:05:37.520262 15749 net.cpp:129] Top shape: 1 128 17 35 (76160)
I1211 15:05:37.520267 15749 net.cpp:137] Memory required for data: 236641360
I1211 15:05:37.520273 15749 layer_factory.hpp:77] Creating layer conv2_5/x2/bn
I1211 15:05:37.520283 15749 net.cpp:84] Creating Layer conv2_5/x2/bn
I1211 15:05:37.520288 15749 net.cpp:406] conv2_5/x2/bn <- conv2_5/x1
I1211 15:05:37.520295 15749 net.cpp:380] conv2_5/x2/bn -> conv2_5/x2/bn
I1211 15:05:37.520762 15749 net.cpp:122] Setting up conv2_5/x2/bn
I1211 15:05:37.520774 15749 net.cpp:129] Top shape: 1 128 17 35 (76160)
I1211 15:05:37.520778 15749 net.cpp:137] Memory required for data: 236946000
I1211 15:05:37.520787 15749 layer_factory.hpp:77] Creating layer conv2_5/x2/scale
I1211 15:05:37.520797 15749 net.cpp:84] Creating Layer conv2_5/x2/scale
I1211 15:05:37.520802 15749 net.cpp:406] conv2_5/x2/scale <- conv2_5/x2/bn
I1211 15:05:37.520808 15749 net.cpp:367] conv2_5/x2/scale -> conv2_5/x2/bn (in-place)
I1211 15:05:37.520889 15749 layer_factory.hpp:77] Creating layer conv2_5/x2/scale
I1211 15:05:37.521165 15749 net.cpp:122] Setting up conv2_5/x2/scale
I1211 15:05:37.521174 15749 net.cpp:129] Top shape: 1 128 17 35 (76160)
I1211 15:05:37.521178 15749 net.cpp:137] Memory required for data: 237250640
I1211 15:05:37.521185 15749 layer_factory.hpp:77] Creating layer relu2_5/x2
I1211 15:05:37.521193 15749 net.cpp:84] Creating Layer relu2_5/x2
I1211 15:05:37.521198 15749 net.cpp:406] relu2_5/x2 <- conv2_5/x2/bn
I1211 15:05:37.521203 15749 net.cpp:367] relu2_5/x2 -> conv2_5/x2/bn (in-place)
I1211 15:05:37.521494 15749 net.cpp:122] Setting up relu2_5/x2
I1211 15:05:37.521505 15749 net.cpp:129] Top shape: 1 128 17 35 (76160)
I1211 15:05:37.521510 15749 net.cpp:137] Memory required for data: 237555280
I1211 15:05:37.521514 15749 layer_factory.hpp:77] Creating layer conv2_5/x2
I1211 15:05:37.521526 15749 net.cpp:84] Creating Layer conv2_5/x2
I1211 15:05:37.521531 15749 net.cpp:406] conv2_5/x2 <- conv2_5/x2/bn
I1211 15:05:37.521539 15749 net.cpp:380] conv2_5/x2 -> conv2_5/x2
I1211 15:05:37.524966 15749 net.cpp:122] Setting up conv2_5/x2
I1211 15:05:37.524993 15749 net.cpp:129] Top shape: 1 32 17 35 (19040)
I1211 15:05:37.524998 15749 net.cpp:137] Memory required for data: 237631440
I1211 15:05:37.525008 15749 layer_factory.hpp:77] Creating layer concat2_5
I1211 15:05:37.525019 15749 net.cpp:84] Creating Layer concat2_5
I1211 15:05:37.525027 15749 net.cpp:406] concat2_5 <- concat2_4_concat2_4_0_split_1
I1211 15:05:37.525033 15749 net.cpp:406] concat2_5 <- conv2_5/x2
I1211 15:05:37.525043 15749 net.cpp:380] concat2_5 -> concat2_5
I1211 15:05:37.525099 15749 net.cpp:122] Setting up concat2_5
I1211 15:05:37.525108 15749 net.cpp:129] Top shape: 1 320 17 35 (190400)
I1211 15:05:37.525112 15749 net.cpp:137] Memory required for data: 238393040
I1211 15:05:37.525116 15749 layer_factory.hpp:77] Creating layer concat2_5_concat2_5_0_split
I1211 15:05:37.525123 15749 net.cpp:84] Creating Layer concat2_5_concat2_5_0_split
I1211 15:05:37.525127 15749 net.cpp:406] concat2_5_concat2_5_0_split <- concat2_5
I1211 15:05:37.525135 15749 net.cpp:380] concat2_5_concat2_5_0_split -> concat2_5_concat2_5_0_split_0
I1211 15:05:37.525142 15749 net.cpp:380] concat2_5_concat2_5_0_split -> concat2_5_concat2_5_0_split_1
I1211 15:05:37.525215 15749 net.cpp:122] Setting up concat2_5_concat2_5_0_split
I1211 15:05:37.525223 15749 net.cpp:129] Top shape: 1 320 17 35 (190400)
I1211 15:05:37.525228 15749 net.cpp:129] Top shape: 1 320 17 35 (190400)
I1211 15:05:37.525233 15749 net.cpp:137] Memory required for data: 239916240
I1211 15:05:37.525236 15749 layer_factory.hpp:77] Creating layer conv2_6/x1/bn
I1211 15:05:37.525245 15749 net.cpp:84] Creating Layer conv2_6/x1/bn
I1211 15:05:37.525250 15749 net.cpp:406] conv2_6/x1/bn <- concat2_5_concat2_5_0_split_0
I1211 15:05:37.525256 15749 net.cpp:380] conv2_6/x1/bn -> conv2_6/x1/bn
I1211 15:05:37.525806 15749 net.cpp:122] Setting up conv2_6/x1/bn
I1211 15:05:37.525818 15749 net.cpp:129] Top shape: 1 320 17 35 (190400)
I1211 15:05:37.525821 15749 net.cpp:137] Memory required for data: 240677840
I1211 15:05:37.525832 15749 layer_factory.hpp:77] Creating layer conv2_6/x1/scale
I1211 15:05:37.525842 15749 net.cpp:84] Creating Layer conv2_6/x1/scale
I1211 15:05:37.525847 15749 net.cpp:406] conv2_6/x1/scale <- conv2_6/x1/bn
I1211 15:05:37.525854 15749 net.cpp:367] conv2_6/x1/scale -> conv2_6/x1/bn (in-place)
I1211 15:05:37.525964 15749 layer_factory.hpp:77] Creating layer conv2_6/x1/scale
I1211 15:05:37.526283 15749 net.cpp:122] Setting up conv2_6/x1/scale
I1211 15:05:37.526293 15749 net.cpp:129] Top shape: 1 320 17 35 (190400)
I1211 15:05:37.526298 15749 net.cpp:137] Memory required for data: 241439440
I1211 15:05:37.526304 15749 layer_factory.hpp:77] Creating layer relu2_6/x1
I1211 15:05:37.526314 15749 net.cpp:84] Creating Layer relu2_6/x1
I1211 15:05:37.526319 15749 net.cpp:406] relu2_6/x1 <- conv2_6/x1/bn
I1211 15:05:37.526324 15749 net.cpp:367] relu2_6/x1 -> conv2_6/x1/bn (in-place)
I1211 15:05:37.526973 15749 net.cpp:122] Setting up relu2_6/x1
I1211 15:05:37.526988 15749 net.cpp:129] Top shape: 1 320 17 35 (190400)
I1211 15:05:37.526991 15749 net.cpp:137] Memory required for data: 242201040
I1211 15:05:37.526996 15749 layer_factory.hpp:77] Creating layer conv2_6/x1
I1211 15:05:37.527009 15749 net.cpp:84] Creating Layer conv2_6/x1
I1211 15:05:37.527014 15749 net.cpp:406] conv2_6/x1 <- conv2_6/x1/bn
I1211 15:05:37.527024 15749 net.cpp:380] conv2_6/x1 -> conv2_6/x1
I1211 15:05:37.530966 15749 net.cpp:122] Setting up conv2_6/x1
I1211 15:05:37.530992 15749 net.cpp:129] Top shape: 1 128 17 35 (76160)
I1211 15:05:37.531000 15749 net.cpp:137] Memory required for data: 242505680
I1211 15:05:37.531009 15749 layer_factory.hpp:77] Creating layer conv2_6/x2/bn
I1211 15:05:37.531019 15749 net.cpp:84] Creating Layer conv2_6/x2/bn
I1211 15:05:37.531024 15749 net.cpp:406] conv2_6/x2/bn <- conv2_6/x1
I1211 15:05:37.531033 15749 net.cpp:380] conv2_6/x2/bn -> conv2_6/x2/bn
I1211 15:05:37.531507 15749 net.cpp:122] Setting up conv2_6/x2/bn
I1211 15:05:37.531517 15749 net.cpp:129] Top shape: 1 128 17 35 (76160)
I1211 15:05:37.531522 15749 net.cpp:137] Memory required for data: 242810320
I1211 15:05:37.531532 15749 layer_factory.hpp:77] Creating layer conv2_6/x2/scale
I1211 15:05:37.531541 15749 net.cpp:84] Creating Layer conv2_6/x2/scale
I1211 15:05:37.531545 15749 net.cpp:406] conv2_6/x2/scale <- conv2_6/x2/bn
I1211 15:05:37.531553 15749 net.cpp:367] conv2_6/x2/scale -> conv2_6/x2/bn (in-place)
I1211 15:05:37.531632 15749 layer_factory.hpp:77] Creating layer conv2_6/x2/scale
I1211 15:05:37.531919 15749 net.cpp:122] Setting up conv2_6/x2/scale
I1211 15:05:37.531930 15749 net.cpp:129] Top shape: 1 128 17 35 (76160)
I1211 15:05:37.531934 15749 net.cpp:137] Memory required for data: 243114960
I1211 15:05:37.531942 15749 layer_factory.hpp:77] Creating layer relu2_6/x2
I1211 15:05:37.531949 15749 net.cpp:84] Creating Layer relu2_6/x2
I1211 15:05:37.531955 15749 net.cpp:406] relu2_6/x2 <- conv2_6/x2/bn
I1211 15:05:37.531960 15749 net.cpp:367] relu2_6/x2 -> conv2_6/x2/bn (in-place)
I1211 15:05:37.532259 15749 net.cpp:122] Setting up relu2_6/x2
I1211 15:05:37.532270 15749 net.cpp:129] Top shape: 1 128 17 35 (76160)
I1211 15:05:37.532274 15749 net.cpp:137] Memory required for data: 243419600
I1211 15:05:37.532279 15749 layer_factory.hpp:77] Creating layer conv2_6/x2
I1211 15:05:37.532291 15749 net.cpp:84] Creating Layer conv2_6/x2
I1211 15:05:37.532295 15749 net.cpp:406] conv2_6/x2 <- conv2_6/x2/bn
I1211 15:05:37.532302 15749 net.cpp:380] conv2_6/x2 -> conv2_6/x2
I1211 15:05:37.544297 15749 net.cpp:122] Setting up conv2_6/x2
I1211 15:05:37.544335 15749 net.cpp:129] Top shape: 1 32 17 35 (19040)
I1211 15:05:37.544340 15749 net.cpp:137] Memory required for data: 243495760
I1211 15:05:37.544351 15749 layer_factory.hpp:77] Creating layer concat2_6
I1211 15:05:37.544366 15749 net.cpp:84] Creating Layer concat2_6
I1211 15:05:37.544374 15749 net.cpp:406] concat2_6 <- concat2_5_concat2_5_0_split_1
I1211 15:05:37.544384 15749 net.cpp:406] concat2_6 <- conv2_6/x2
I1211 15:05:37.544390 15749 net.cpp:380] concat2_6 -> concat2_6
I1211 15:05:37.544472 15749 net.cpp:122] Setting up concat2_6
I1211 15:05:37.544481 15749 net.cpp:129] Top shape: 1 352 17 35 (209440)
I1211 15:05:37.544486 15749 net.cpp:137] Memory required for data: 244333520
I1211 15:05:37.544489 15749 layer_factory.hpp:77] Creating layer concat2_6_concat2_6_0_split
I1211 15:05:37.544497 15749 net.cpp:84] Creating Layer concat2_6_concat2_6_0_split
I1211 15:05:37.544502 15749 net.cpp:406] concat2_6_concat2_6_0_split <- concat2_6
I1211 15:05:37.544507 15749 net.cpp:380] concat2_6_concat2_6_0_split -> concat2_6_concat2_6_0_split_0
I1211 15:05:37.544514 15749 net.cpp:380] concat2_6_concat2_6_0_split -> concat2_6_concat2_6_0_split_1
I1211 15:05:37.544596 15749 net.cpp:122] Setting up concat2_6_concat2_6_0_split
I1211 15:05:37.544605 15749 net.cpp:129] Top shape: 1 352 17 35 (209440)
I1211 15:05:37.544610 15749 net.cpp:129] Top shape: 1 352 17 35 (209440)
I1211 15:05:37.544613 15749 net.cpp:137] Memory required for data: 246009040
I1211 15:05:37.544616 15749 layer_factory.hpp:77] Creating layer conv2_7/x1/bn
I1211 15:05:37.544625 15749 net.cpp:84] Creating Layer conv2_7/x1/bn
I1211 15:05:37.544631 15749 net.cpp:406] conv2_7/x1/bn <- concat2_6_concat2_6_0_split_0
I1211 15:05:37.544636 15749 net.cpp:380] conv2_7/x1/bn -> conv2_7/x1/bn
I1211 15:05:37.545265 15749 net.cpp:122] Setting up conv2_7/x1/bn
I1211 15:05:37.545286 15749 net.cpp:129] Top shape: 1 352 17 35 (209440)
I1211 15:05:37.545290 15749 net.cpp:137] Memory required for data: 246846800
I1211 15:05:37.545310 15749 layer_factory.hpp:77] Creating layer conv2_7/x1/scale
I1211 15:05:37.545322 15749 net.cpp:84] Creating Layer conv2_7/x1/scale
I1211 15:05:37.545328 15749 net.cpp:406] conv2_7/x1/scale <- conv2_7/x1/bn
I1211 15:05:37.545336 15749 net.cpp:367] conv2_7/x1/scale -> conv2_7/x1/bn (in-place)
I1211 15:05:37.545464 15749 layer_factory.hpp:77] Creating layer conv2_7/x1/scale
I1211 15:05:37.545821 15749 net.cpp:122] Setting up conv2_7/x1/scale
I1211 15:05:37.545835 15749 net.cpp:129] Top shape: 1 352 17 35 (209440)
I1211 15:05:37.545838 15749 net.cpp:137] Memory required for data: 247684560
I1211 15:05:37.545847 15749 layer_factory.hpp:77] Creating layer relu2_7/x1
I1211 15:05:37.545856 15749 net.cpp:84] Creating Layer relu2_7/x1
I1211 15:05:37.545862 15749 net.cpp:406] relu2_7/x1 <- conv2_7/x1/bn
I1211 15:05:37.545867 15749 net.cpp:367] relu2_7/x1 -> conv2_7/x1/bn (in-place)
I1211 15:05:37.546674 15749 net.cpp:122] Setting up relu2_7/x1
I1211 15:05:37.546710 15749 net.cpp:129] Top shape: 1 352 17 35 (209440)
I1211 15:05:37.546713 15749 net.cpp:137] Memory required for data: 248522320
I1211 15:05:37.546720 15749 layer_factory.hpp:77] Creating layer conv2_7/x1
I1211 15:05:37.546741 15749 net.cpp:84] Creating Layer conv2_7/x1
I1211 15:05:37.546747 15749 net.cpp:406] conv2_7/x1 <- conv2_7/x1/bn
I1211 15:05:37.546758 15749 net.cpp:380] conv2_7/x1 -> conv2_7/x1
I1211 15:05:37.609400 15749 net.cpp:122] Setting up conv2_7/x1
I1211 15:05:37.609433 15749 net.cpp:129] Top shape: 1 128 17 35 (76160)
I1211 15:05:37.609437 15749 net.cpp:137] Memory required for data: 248826960
I1211 15:05:37.609447 15749 layer_factory.hpp:77] Creating layer conv2_7/x2/bn
I1211 15:05:37.609459 15749 net.cpp:84] Creating Layer conv2_7/x2/bn
I1211 15:05:37.609467 15749 net.cpp:406] conv2_7/x2/bn <- conv2_7/x1
I1211 15:05:37.609474 15749 net.cpp:380] conv2_7/x2/bn -> conv2_7/x2/bn
I1211 15:05:37.609971 15749 net.cpp:122] Setting up conv2_7/x2/bn
I1211 15:05:37.609979 15749 net.cpp:129] Top shape: 1 128 17 35 (76160)
I1211 15:05:37.609983 15749 net.cpp:137] Memory required for data: 249131600
I1211 15:05:37.609993 15749 layer_factory.hpp:77] Creating layer conv2_7/x2/scale
I1211 15:05:37.610003 15749 net.cpp:84] Creating Layer conv2_7/x2/scale
I1211 15:05:37.610008 15749 net.cpp:406] conv2_7/x2/scale <- conv2_7/x2/bn
I1211 15:05:37.610013 15749 net.cpp:367] conv2_7/x2/scale -> conv2_7/x2/bn (in-place)
I1211 15:05:37.610095 15749 layer_factory.hpp:77] Creating layer conv2_7/x2/scale
I1211 15:05:37.610376 15749 net.cpp:122] Setting up conv2_7/x2/scale
I1211 15:05:37.610386 15749 net.cpp:129] Top shape: 1 128 17 35 (76160)
I1211 15:05:37.610390 15749 net.cpp:137] Memory required for data: 249436240
I1211 15:05:37.610397 15749 layer_factory.hpp:77] Creating layer relu2_7/x2
I1211 15:05:37.610404 15749 net.cpp:84] Creating Layer relu2_7/x2
I1211 15:05:37.610409 15749 net.cpp:406] relu2_7/x2 <- conv2_7/x2/bn
I1211 15:05:37.610415 15749 net.cpp:367] relu2_7/x2 -> conv2_7/x2/bn (in-place)
I1211 15:05:37.610918 15749 net.cpp:122] Setting up relu2_7/x2
I1211 15:05:37.610931 15749 net.cpp:129] Top shape: 1 128 17 35 (76160)
I1211 15:05:37.610935 15749 net.cpp:137] Memory required for data: 249740880
I1211 15:05:37.610940 15749 layer_factory.hpp:77] Creating layer conv2_7/x2
I1211 15:05:37.610952 15749 net.cpp:84] Creating Layer conv2_7/x2
I1211 15:05:37.610958 15749 net.cpp:406] conv2_7/x2 <- conv2_7/x2/bn
I1211 15:05:37.610966 15749 net.cpp:380] conv2_7/x2 -> conv2_7/x2
I1211 15:05:37.617755 15749 net.cpp:122] Setting up conv2_7/x2
I1211 15:05:37.617790 15749 net.cpp:129] Top shape: 1 32 17 35 (19040)
I1211 15:05:37.617795 15749 net.cpp:137] Memory required for data: 249817040
I1211 15:05:37.617805 15749 layer_factory.hpp:77] Creating layer concat2_7
I1211 15:05:37.617818 15749 net.cpp:84] Creating Layer concat2_7
I1211 15:05:37.617825 15749 net.cpp:406] concat2_7 <- concat2_6_concat2_6_0_split_1
I1211 15:05:37.617832 15749 net.cpp:406] concat2_7 <- conv2_7/x2
I1211 15:05:37.617841 15749 net.cpp:380] concat2_7 -> concat2_7
I1211 15:05:37.617900 15749 net.cpp:122] Setting up concat2_7
I1211 15:05:37.617913 15749 net.cpp:129] Top shape: 1 384 17 35 (228480)
I1211 15:05:37.617918 15749 net.cpp:137] Memory required for data: 250730960
I1211 15:05:37.617921 15749 layer_factory.hpp:77] Creating layer concat2_7_concat2_7_0_split
I1211 15:05:37.617929 15749 net.cpp:84] Creating Layer concat2_7_concat2_7_0_split
I1211 15:05:37.617934 15749 net.cpp:406] concat2_7_concat2_7_0_split <- concat2_7
I1211 15:05:37.617940 15749 net.cpp:380] concat2_7_concat2_7_0_split -> concat2_7_concat2_7_0_split_0
I1211 15:05:37.617947 15749 net.cpp:380] concat2_7_concat2_7_0_split -> concat2_7_concat2_7_0_split_1
I1211 15:05:37.618023 15749 net.cpp:122] Setting up concat2_7_concat2_7_0_split
I1211 15:05:37.618031 15749 net.cpp:129] Top shape: 1 384 17 35 (228480)
I1211 15:05:37.618036 15749 net.cpp:129] Top shape: 1 384 17 35 (228480)
I1211 15:05:37.618039 15749 net.cpp:137] Memory required for data: 252558800
I1211 15:05:37.618043 15749 layer_factory.hpp:77] Creating layer conv2_8/x1/bn
I1211 15:05:37.618052 15749 net.cpp:84] Creating Layer conv2_8/x1/bn
I1211 15:05:37.618057 15749 net.cpp:406] conv2_8/x1/bn <- concat2_7_concat2_7_0_split_0
I1211 15:05:37.618063 15749 net.cpp:380] conv2_8/x1/bn -> conv2_8/x1/bn
I1211 15:05:37.618589 15749 net.cpp:122] Setting up conv2_8/x1/bn
I1211 15:05:37.618598 15749 net.cpp:129] Top shape: 1 384 17 35 (228480)
I1211 15:05:37.618602 15749 net.cpp:137] Memory required for data: 253472720
I1211 15:05:37.618611 15749 layer_factory.hpp:77] Creating layer conv2_8/x1/scale
I1211 15:05:37.618621 15749 net.cpp:84] Creating Layer conv2_8/x1/scale
I1211 15:05:37.618625 15749 net.cpp:406] conv2_8/x1/scale <- conv2_8/x1/bn
I1211 15:05:37.618633 15749 net.cpp:367] conv2_8/x1/scale -> conv2_8/x1/bn (in-place)
I1211 15:05:37.618737 15749 layer_factory.hpp:77] Creating layer conv2_8/x1/scale
I1211 15:05:37.619132 15749 net.cpp:122] Setting up conv2_8/x1/scale
I1211 15:05:37.619143 15749 net.cpp:129] Top shape: 1 384 17 35 (228480)
I1211 15:05:37.619148 15749 net.cpp:137] Memory required for data: 254386640
I1211 15:05:37.619154 15749 layer_factory.hpp:77] Creating layer relu2_8/x1
I1211 15:05:37.619163 15749 net.cpp:84] Creating Layer relu2_8/x1
I1211 15:05:37.619166 15749 net.cpp:406] relu2_8/x1 <- conv2_8/x1/bn
I1211 15:05:37.619174 15749 net.cpp:367] relu2_8/x1 -> conv2_8/x1/bn (in-place)
I1211 15:05:37.619451 15749 net.cpp:122] Setting up relu2_8/x1
I1211 15:05:37.619462 15749 net.cpp:129] Top shape: 1 384 17 35 (228480)
I1211 15:05:37.619465 15749 net.cpp:137] Memory required for data: 255300560
I1211 15:05:37.619469 15749 layer_factory.hpp:77] Creating layer conv2_8/x1
I1211 15:05:37.619482 15749 net.cpp:84] Creating Layer conv2_8/x1
I1211 15:05:37.619487 15749 net.cpp:406] conv2_8/x1 <- conv2_8/x1/bn
I1211 15:05:37.619494 15749 net.cpp:380] conv2_8/x1 -> conv2_8/x1
I1211 15:05:37.623396 15749 net.cpp:122] Setting up conv2_8/x1
I1211 15:05:37.623435 15749 net.cpp:129] Top shape: 1 128 17 35 (76160)
I1211 15:05:37.623440 15749 net.cpp:137] Memory required for data: 255605200
I1211 15:05:37.623451 15749 layer_factory.hpp:77] Creating layer conv2_8/x2/bn
I1211 15:05:37.623464 15749 net.cpp:84] Creating Layer conv2_8/x2/bn
I1211 15:05:37.623471 15749 net.cpp:406] conv2_8/x2/bn <- conv2_8/x1
I1211 15:05:37.623482 15749 net.cpp:380] conv2_8/x2/bn -> conv2_8/x2/bn
I1211 15:05:37.624017 15749 net.cpp:122] Setting up conv2_8/x2/bn
I1211 15:05:37.624033 15749 net.cpp:129] Top shape: 1 128 17 35 (76160)
I1211 15:05:37.624037 15749 net.cpp:137] Memory required for data: 255909840
I1211 15:05:37.624049 15749 layer_factory.hpp:77] Creating layer conv2_8/x2/scale
I1211 15:05:37.624060 15749 net.cpp:84] Creating Layer conv2_8/x2/scale
I1211 15:05:37.624065 15749 net.cpp:406] conv2_8/x2/scale <- conv2_8/x2/bn
I1211 15:05:37.624079 15749 net.cpp:367] conv2_8/x2/scale -> conv2_8/x2/bn (in-place)
I1211 15:05:37.624163 15749 layer_factory.hpp:77] Creating layer conv2_8/x2/scale
I1211 15:05:37.624442 15749 net.cpp:122] Setting up conv2_8/x2/scale
I1211 15:05:37.624452 15749 net.cpp:129] Top shape: 1 128 17 35 (76160)
I1211 15:05:37.624460 15749 net.cpp:137] Memory required for data: 256214480
I1211 15:05:37.624469 15749 layer_factory.hpp:77] Creating layer relu2_8/x2
I1211 15:05:37.624476 15749 net.cpp:84] Creating Layer relu2_8/x2
I1211 15:05:37.624480 15749 net.cpp:406] relu2_8/x2 <- conv2_8/x2/bn
I1211 15:05:37.624486 15749 net.cpp:367] relu2_8/x2 -> conv2_8/x2/bn (in-place)
I1211 15:05:37.625161 15749 net.cpp:122] Setting up relu2_8/x2
I1211 15:05:37.625176 15749 net.cpp:129] Top shape: 1 128 17 35 (76160)
I1211 15:05:37.625180 15749 net.cpp:137] Memory required for data: 256519120
I1211 15:05:37.625185 15749 layer_factory.hpp:77] Creating layer conv2_8/x2
I1211 15:05:37.625198 15749 net.cpp:84] Creating Layer conv2_8/x2
I1211 15:05:37.625203 15749 net.cpp:406] conv2_8/x2 <- conv2_8/x2/bn
I1211 15:05:37.625211 15749 net.cpp:380] conv2_8/x2 -> conv2_8/x2
I1211 15:05:37.628547 15749 net.cpp:122] Setting up conv2_8/x2
I1211 15:05:37.628567 15749 net.cpp:129] Top shape: 1 32 17 35 (19040)
I1211 15:05:37.628571 15749 net.cpp:137] Memory required for data: 256595280
I1211 15:05:37.628581 15749 layer_factory.hpp:77] Creating layer concat2_8
I1211 15:05:37.628590 15749 net.cpp:84] Creating Layer concat2_8
I1211 15:05:37.628597 15749 net.cpp:406] concat2_8 <- concat2_7_concat2_7_0_split_1
I1211 15:05:37.628603 15749 net.cpp:406] concat2_8 <- conv2_8/x2
I1211 15:05:37.628609 15749 net.cpp:380] concat2_8 -> concat2_8
I1211 15:05:37.628666 15749 net.cpp:122] Setting up concat2_8
I1211 15:05:37.628674 15749 net.cpp:129] Top shape: 1 416 17 35 (247520)
I1211 15:05:37.628679 15749 net.cpp:137] Memory required for data: 257585360
I1211 15:05:37.628682 15749 layer_factory.hpp:77] Creating layer concat2_8_concat2_8_0_split
I1211 15:05:37.628690 15749 net.cpp:84] Creating Layer concat2_8_concat2_8_0_split
I1211 15:05:37.628693 15749 net.cpp:406] concat2_8_concat2_8_0_split <- concat2_8
I1211 15:05:37.628701 15749 net.cpp:380] concat2_8_concat2_8_0_split -> concat2_8_concat2_8_0_split_0
I1211 15:05:37.628708 15749 net.cpp:380] concat2_8_concat2_8_0_split -> concat2_8_concat2_8_0_split_1
I1211 15:05:37.628784 15749 net.cpp:122] Setting up concat2_8_concat2_8_0_split
I1211 15:05:37.628793 15749 net.cpp:129] Top shape: 1 416 17 35 (247520)
I1211 15:05:37.628798 15749 net.cpp:129] Top shape: 1 416 17 35 (247520)
I1211 15:05:37.628801 15749 net.cpp:137] Memory required for data: 259565520
I1211 15:05:37.628804 15749 layer_factory.hpp:77] Creating layer conv2_9/x1/bn
I1211 15:05:37.628811 15749 net.cpp:84] Creating Layer conv2_9/x1/bn
I1211 15:05:37.628816 15749 net.cpp:406] conv2_9/x1/bn <- concat2_8_concat2_8_0_split_0
I1211 15:05:37.628823 15749 net.cpp:380] conv2_9/x1/bn -> conv2_9/x1/bn
I1211 15:05:37.629374 15749 net.cpp:122] Setting up conv2_9/x1/bn
I1211 15:05:37.629384 15749 net.cpp:129] Top shape: 1 416 17 35 (247520)
I1211 15:05:37.629389 15749 net.cpp:137] Memory required for data: 260555600
I1211 15:05:37.629397 15749 layer_factory.hpp:77] Creating layer conv2_9/x1/scale
I1211 15:05:37.629406 15749 net.cpp:84] Creating Layer conv2_9/x1/scale
I1211 15:05:37.629411 15749 net.cpp:406] conv2_9/x1/scale <- conv2_9/x1/bn
I1211 15:05:37.629417 15749 net.cpp:367] conv2_9/x1/scale -> conv2_9/x1/bn (in-place)
I1211 15:05:37.629519 15749 layer_factory.hpp:77] Creating layer conv2_9/x1/scale
I1211 15:05:37.629842 15749 net.cpp:122] Setting up conv2_9/x1/scale
I1211 15:05:37.629853 15749 net.cpp:129] Top shape: 1 416 17 35 (247520)
I1211 15:05:37.629858 15749 net.cpp:137] Memory required for data: 261545680
I1211 15:05:37.629864 15749 layer_factory.hpp:77] Creating layer relu2_9/x1
I1211 15:05:37.629871 15749 net.cpp:84] Creating Layer relu2_9/x1
I1211 15:05:37.629876 15749 net.cpp:406] relu2_9/x1 <- conv2_9/x1/bn
I1211 15:05:37.629881 15749 net.cpp:367] relu2_9/x1 -> conv2_9/x1/bn (in-place)
I1211 15:05:37.630161 15749 net.cpp:122] Setting up relu2_9/x1
I1211 15:05:37.630172 15749 net.cpp:129] Top shape: 1 416 17 35 (247520)
I1211 15:05:37.630175 15749 net.cpp:137] Memory required for data: 262535760
I1211 15:05:37.630179 15749 layer_factory.hpp:77] Creating layer conv2_9/x1
I1211 15:05:37.630195 15749 net.cpp:84] Creating Layer conv2_9/x1
I1211 15:05:37.630201 15749 net.cpp:406] conv2_9/x1 <- conv2_9/x1/bn
I1211 15:05:37.630208 15749 net.cpp:380] conv2_9/x1 -> conv2_9/x1
I1211 15:05:37.634517 15749 net.cpp:122] Setting up conv2_9/x1
I1211 15:05:37.634531 15749 net.cpp:129] Top shape: 1 128 17 35 (76160)
I1211 15:05:37.634536 15749 net.cpp:137] Memory required for data: 262840400
I1211 15:05:37.634542 15749 layer_factory.hpp:77] Creating layer conv2_9/x2/bn
I1211 15:05:37.634551 15749 net.cpp:84] Creating Layer conv2_9/x2/bn
I1211 15:05:37.634555 15749 net.cpp:406] conv2_9/x2/bn <- conv2_9/x1
I1211 15:05:37.634563 15749 net.cpp:380] conv2_9/x2/bn -> conv2_9/x2/bn
I1211 15:05:37.635025 15749 net.cpp:122] Setting up conv2_9/x2/bn
I1211 15:05:37.635035 15749 net.cpp:129] Top shape: 1 128 17 35 (76160)
I1211 15:05:37.635040 15749 net.cpp:137] Memory required for data: 263145040
I1211 15:05:37.635048 15749 layer_factory.hpp:77] Creating layer conv2_9/x2/scale
I1211 15:05:37.635056 15749 net.cpp:84] Creating Layer conv2_9/x2/scale
I1211 15:05:37.635061 15749 net.cpp:406] conv2_9/x2/scale <- conv2_9/x2/bn
I1211 15:05:37.635068 15749 net.cpp:367] conv2_9/x2/scale -> conv2_9/x2/bn (in-place)
I1211 15:05:37.635148 15749 layer_factory.hpp:77] Creating layer conv2_9/x2/scale
I1211 15:05:37.635426 15749 net.cpp:122] Setting up conv2_9/x2/scale
I1211 15:05:37.635435 15749 net.cpp:129] Top shape: 1 128 17 35 (76160)
I1211 15:05:37.635439 15749 net.cpp:137] Memory required for data: 263449680
I1211 15:05:37.635447 15749 layer_factory.hpp:77] Creating layer relu2_9/x2
I1211 15:05:37.635453 15749 net.cpp:84] Creating Layer relu2_9/x2
I1211 15:05:37.635458 15749 net.cpp:406] relu2_9/x2 <- conv2_9/x2/bn
I1211 15:05:37.635463 15749 net.cpp:367] relu2_9/x2 -> conv2_9/x2/bn (in-place)
I1211 15:05:37.635979 15749 net.cpp:122] Setting up relu2_9/x2
I1211 15:05:37.635993 15749 net.cpp:129] Top shape: 1 128 17 35 (76160)
I1211 15:05:37.635996 15749 net.cpp:137] Memory required for data: 263754320
I1211 15:05:37.636001 15749 layer_factory.hpp:77] Creating layer conv2_9/x2
I1211 15:05:37.636013 15749 net.cpp:84] Creating Layer conv2_9/x2
I1211 15:05:37.636018 15749 net.cpp:406] conv2_9/x2 <- conv2_9/x2/bn
I1211 15:05:37.636026 15749 net.cpp:380] conv2_9/x2 -> conv2_9/x2
I1211 15:05:37.639549 15749 net.cpp:122] Setting up conv2_9/x2
I1211 15:05:37.639585 15749 net.cpp:129] Top shape: 1 32 17 35 (19040)
I1211 15:05:37.639588 15749 net.cpp:137] Memory required for data: 263830480
I1211 15:05:37.639597 15749 layer_factory.hpp:77] Creating layer concat2_9
I1211 15:05:37.639609 15749 net.cpp:84] Creating Layer concat2_9
I1211 15:05:37.639616 15749 net.cpp:406] concat2_9 <- concat2_8_concat2_8_0_split_1
I1211 15:05:37.639621 15749 net.cpp:406] concat2_9 <- conv2_9/x2
I1211 15:05:37.639626 15749 net.cpp:380] concat2_9 -> concat2_9
I1211 15:05:37.639680 15749 net.cpp:122] Setting up concat2_9
I1211 15:05:37.639686 15749 net.cpp:129] Top shape: 1 448 17 35 (266560)
I1211 15:05:37.639689 15749 net.cpp:137] Memory required for data: 264896720
I1211 15:05:37.639691 15749 layer_factory.hpp:77] Creating layer concat2_9_concat2_9_0_split
I1211 15:05:37.639698 15749 net.cpp:84] Creating Layer concat2_9_concat2_9_0_split
I1211 15:05:37.639700 15749 net.cpp:406] concat2_9_concat2_9_0_split <- concat2_9
I1211 15:05:37.639704 15749 net.cpp:380] concat2_9_concat2_9_0_split -> concat2_9_concat2_9_0_split_0
I1211 15:05:37.639710 15749 net.cpp:380] concat2_9_concat2_9_0_split -> concat2_9_concat2_9_0_split_1
I1211 15:05:37.639780 15749 net.cpp:122] Setting up concat2_9_concat2_9_0_split
I1211 15:05:37.639786 15749 net.cpp:129] Top shape: 1 448 17 35 (266560)
I1211 15:05:37.639789 15749 net.cpp:129] Top shape: 1 448 17 35 (266560)
I1211 15:05:37.639791 15749 net.cpp:137] Memory required for data: 267029200
I1211 15:05:37.639793 15749 layer_factory.hpp:77] Creating layer conv2_10/x1/bn
I1211 15:05:37.639801 15749 net.cpp:84] Creating Layer conv2_10/x1/bn
I1211 15:05:37.639803 15749 net.cpp:406] conv2_10/x1/bn <- concat2_9_concat2_9_0_split_0
I1211 15:05:37.639813 15749 net.cpp:380] conv2_10/x1/bn -> conv2_10/x1/bn
I1211 15:05:37.640271 15749 net.cpp:122] Setting up conv2_10/x1/bn
I1211 15:05:37.640283 15749 net.cpp:129] Top shape: 1 448 17 35 (266560)
I1211 15:05:37.640286 15749 net.cpp:137] Memory required for data: 268095440
I1211 15:05:37.640293 15749 layer_factory.hpp:77] Creating layer conv2_10/x1/scale
I1211 15:05:37.640301 15749 net.cpp:84] Creating Layer conv2_10/x1/scale
I1211 15:05:37.640305 15749 net.cpp:406] conv2_10/x1/scale <- conv2_10/x1/bn
I1211 15:05:37.640310 15749 net.cpp:367] conv2_10/x1/scale -> conv2_10/x1/bn (in-place)
I1211 15:05:37.640396 15749 layer_factory.hpp:77] Creating layer conv2_10/x1/scale
I1211 15:05:37.640650 15749 net.cpp:122] Setting up conv2_10/x1/scale
I1211 15:05:37.640658 15749 net.cpp:129] Top shape: 1 448 17 35 (266560)
I1211 15:05:37.640661 15749 net.cpp:137] Memory required for data: 269161680
I1211 15:05:37.640666 15749 layer_factory.hpp:77] Creating layer relu2_10/x1
I1211 15:05:37.640671 15749 net.cpp:84] Creating Layer relu2_10/x1
I1211 15:05:37.640674 15749 net.cpp:406] relu2_10/x1 <- conv2_10/x1/bn
I1211 15:05:37.640679 15749 net.cpp:367] relu2_10/x1 -> conv2_10/x1/bn (in-place)
I1211 15:05:37.641296 15749 net.cpp:122] Setting up relu2_10/x1
I1211 15:05:37.641309 15749 net.cpp:129] Top shape: 1 448 17 35 (266560)
I1211 15:05:37.641311 15749 net.cpp:137] Memory required for data: 270227920
I1211 15:05:37.641314 15749 layer_factory.hpp:77] Creating layer conv2_10/x1
I1211 15:05:37.641326 15749 net.cpp:84] Creating Layer conv2_10/x1
I1211 15:05:37.641330 15749 net.cpp:406] conv2_10/x1 <- conv2_10/x1/bn
I1211 15:05:37.641335 15749 net.cpp:380] conv2_10/x1 -> conv2_10/x1
I1211 15:05:37.644340 15749 net.cpp:122] Setting up conv2_10/x1
I1211 15:05:37.644368 15749 net.cpp:129] Top shape: 1 128 17 35 (76160)
I1211 15:05:37.644372 15749 net.cpp:137] Memory required for data: 270532560
I1211 15:05:37.644381 15749 layer_factory.hpp:77] Creating layer conv2_10/x2/bn
I1211 15:05:37.644389 15749 net.cpp:84] Creating Layer conv2_10/x2/bn
I1211 15:05:37.644394 15749 net.cpp:406] conv2_10/x2/bn <- conv2_10/x1
I1211 15:05:37.644402 15749 net.cpp:380] conv2_10/x2/bn -> conv2_10/x2/bn
I1211 15:05:37.644783 15749 net.cpp:122] Setting up conv2_10/x2/bn
I1211 15:05:37.644789 15749 net.cpp:129] Top shape: 1 128 17 35 (76160)
I1211 15:05:37.644793 15749 net.cpp:137] Memory required for data: 270837200
I1211 15:05:37.644798 15749 layer_factory.hpp:77] Creating layer conv2_10/x2/scale
I1211 15:05:37.644805 15749 net.cpp:84] Creating Layer conv2_10/x2/scale
I1211 15:05:37.644809 15749 net.cpp:406] conv2_10/x2/scale <- conv2_10/x2/bn
I1211 15:05:37.644812 15749 net.cpp:367] conv2_10/x2/scale -> conv2_10/x2/bn (in-place)
I1211 15:05:37.644876 15749 layer_factory.hpp:77] Creating layer conv2_10/x2/scale
I1211 15:05:37.645092 15749 net.cpp:122] Setting up conv2_10/x2/scale
I1211 15:05:37.645098 15749 net.cpp:129] Top shape: 1 128 17 35 (76160)
I1211 15:05:37.645102 15749 net.cpp:137] Memory required for data: 271141840
I1211 15:05:37.645105 15749 layer_factory.hpp:77] Creating layer relu2_10/x2
I1211 15:05:37.645112 15749 net.cpp:84] Creating Layer relu2_10/x2
I1211 15:05:37.645115 15749 net.cpp:406] relu2_10/x2 <- conv2_10/x2/bn
I1211 15:05:37.645118 15749 net.cpp:367] relu2_10/x2 -> conv2_10/x2/bn (in-place)
I1211 15:05:37.645345 15749 net.cpp:122] Setting up relu2_10/x2
I1211 15:05:37.645354 15749 net.cpp:129] Top shape: 1 128 17 35 (76160)
I1211 15:05:37.645356 15749 net.cpp:137] Memory required for data: 271446480
I1211 15:05:37.645359 15749 layer_factory.hpp:77] Creating layer conv2_10/x2
I1211 15:05:37.645370 15749 net.cpp:84] Creating Layer conv2_10/x2
I1211 15:05:37.645372 15749 net.cpp:406] conv2_10/x2 <- conv2_10/x2/bn
I1211 15:05:37.645377 15749 net.cpp:380] conv2_10/x2 -> conv2_10/x2
I1211 15:05:37.647956 15749 net.cpp:122] Setting up conv2_10/x2
I1211 15:05:37.647984 15749 net.cpp:129] Top shape: 1 32 17 35 (19040)
I1211 15:05:37.647987 15749 net.cpp:137] Memory required for data: 271522640
I1211 15:05:37.648000 15749 layer_factory.hpp:77] Creating layer concat2_10
I1211 15:05:37.648010 15749 net.cpp:84] Creating Layer concat2_10
I1211 15:05:37.648015 15749 net.cpp:406] concat2_10 <- concat2_9_concat2_9_0_split_1
I1211 15:05:37.648021 15749 net.cpp:406] concat2_10 <- conv2_10/x2
I1211 15:05:37.648028 15749 net.cpp:380] concat2_10 -> concat2_10
I1211 15:05:37.648078 15749 net.cpp:122] Setting up concat2_10
I1211 15:05:37.648084 15749 net.cpp:129] Top shape: 1 480 17 35 (285600)
I1211 15:05:37.648087 15749 net.cpp:137] Memory required for data: 272665040
I1211 15:05:37.648089 15749 layer_factory.hpp:77] Creating layer concat2_10_concat2_10_0_split
I1211 15:05:37.648094 15749 net.cpp:84] Creating Layer concat2_10_concat2_10_0_split
I1211 15:05:37.648098 15749 net.cpp:406] concat2_10_concat2_10_0_split <- concat2_10
I1211 15:05:37.648102 15749 net.cpp:380] concat2_10_concat2_10_0_split -> concat2_10_concat2_10_0_split_0
I1211 15:05:37.648106 15749 net.cpp:380] concat2_10_concat2_10_0_split -> concat2_10_concat2_10_0_split_1
I1211 15:05:37.648166 15749 net.cpp:122] Setting up concat2_10_concat2_10_0_split
I1211 15:05:37.648171 15749 net.cpp:129] Top shape: 1 480 17 35 (285600)
I1211 15:05:37.648175 15749 net.cpp:129] Top shape: 1 480 17 35 (285600)
I1211 15:05:37.648176 15749 net.cpp:137] Memory required for data: 274949840
I1211 15:05:37.648180 15749 layer_factory.hpp:77] Creating layer conv2_11/x1/bn
I1211 15:05:37.648185 15749 net.cpp:84] Creating Layer conv2_11/x1/bn
I1211 15:05:37.648188 15749 net.cpp:406] conv2_11/x1/bn <- concat2_10_concat2_10_0_split_0
I1211 15:05:37.648192 15749 net.cpp:380] conv2_11/x1/bn -> conv2_11/x1/bn
I1211 15:05:37.648636 15749 net.cpp:122] Setting up conv2_11/x1/bn
I1211 15:05:37.648643 15749 net.cpp:129] Top shape: 1 480 17 35 (285600)
I1211 15:05:37.648645 15749 net.cpp:137] Memory required for data: 276092240
I1211 15:05:37.648651 15749 layer_factory.hpp:77] Creating layer conv2_11/x1/scale
I1211 15:05:37.648660 15749 net.cpp:84] Creating Layer conv2_11/x1/scale
I1211 15:05:37.648663 15749 net.cpp:406] conv2_11/x1/scale <- conv2_11/x1/bn
I1211 15:05:37.648667 15749 net.cpp:367] conv2_11/x1/scale -> conv2_11/x1/bn (in-place)
I1211 15:05:37.648752 15749 layer_factory.hpp:77] Creating layer conv2_11/x1/scale
I1211 15:05:37.649013 15749 net.cpp:122] Setting up conv2_11/x1/scale
I1211 15:05:37.649020 15749 net.cpp:129] Top shape: 1 480 17 35 (285600)
I1211 15:05:37.649022 15749 net.cpp:137] Memory required for data: 277234640
I1211 15:05:37.649039 15749 layer_factory.hpp:77] Creating layer relu2_11/x1
I1211 15:05:37.649044 15749 net.cpp:84] Creating Layer relu2_11/x1
I1211 15:05:37.649047 15749 net.cpp:406] relu2_11/x1 <- conv2_11/x1/bn
I1211 15:05:37.649050 15749 net.cpp:367] relu2_11/x1 -> conv2_11/x1/bn (in-place)
I1211 15:05:37.649610 15749 net.cpp:122] Setting up relu2_11/x1
I1211 15:05:37.649621 15749 net.cpp:129] Top shape: 1 480 17 35 (285600)
I1211 15:05:37.649622 15749 net.cpp:137] Memory required for data: 278377040
I1211 15:05:37.649626 15749 layer_factory.hpp:77] Creating layer conv2_11/x1
I1211 15:05:37.649636 15749 net.cpp:84] Creating Layer conv2_11/x1
I1211 15:05:37.649639 15749 net.cpp:406] conv2_11/x1 <- conv2_11/x1/bn
I1211 15:05:37.649646 15749 net.cpp:380] conv2_11/x1 -> conv2_11/x1
I1211 15:05:37.661356 15749 net.cpp:122] Setting up conv2_11/x1
I1211 15:05:37.661396 15749 net.cpp:129] Top shape: 1 128 17 35 (76160)
I1211 15:05:37.661401 15749 net.cpp:137] Memory required for data: 278681680
I1211 15:05:37.661413 15749 layer_factory.hpp:77] Creating layer conv2_11/x2/bn
I1211 15:05:37.661428 15749 net.cpp:84] Creating Layer conv2_11/x2/bn
I1211 15:05:37.661435 15749 net.cpp:406] conv2_11/x2/bn <- conv2_11/x1
I1211 15:05:37.661444 15749 net.cpp:380] conv2_11/x2/bn -> conv2_11/x2/bn
I1211 15:05:37.662014 15749 net.cpp:122] Setting up conv2_11/x2/bn
I1211 15:05:37.662032 15749 net.cpp:129] Top shape: 1 128 17 35 (76160)
I1211 15:05:37.662036 15749 net.cpp:137] Memory required for data: 278986320
I1211 15:05:37.662047 15749 layer_factory.hpp:77] Creating layer conv2_11/x2/scale
I1211 15:05:37.662066 15749 net.cpp:84] Creating Layer conv2_11/x2/scale
I1211 15:05:37.662072 15749 net.cpp:406] conv2_11/x2/scale <- conv2_11/x2/bn
I1211 15:05:37.662078 15749 net.cpp:367] conv2_11/x2/scale -> conv2_11/x2/bn (in-place)
I1211 15:05:37.662169 15749 layer_factory.hpp:77] Creating layer conv2_11/x2/scale
I1211 15:05:37.662479 15749 net.cpp:122] Setting up conv2_11/x2/scale
I1211 15:05:37.662490 15749 net.cpp:129] Top shape: 1 128 17 35 (76160)
I1211 15:05:37.662494 15749 net.cpp:137] Memory required for data: 279290960
I1211 15:05:37.662503 15749 layer_factory.hpp:77] Creating layer relu2_11/x2
I1211 15:05:37.662511 15749 net.cpp:84] Creating Layer relu2_11/x2
I1211 15:05:37.662515 15749 net.cpp:406] relu2_11/x2 <- conv2_11/x2/bn
I1211 15:05:37.662521 15749 net.cpp:367] relu2_11/x2 -> conv2_11/x2/bn (in-place)
I1211 15:05:37.662896 15749 net.cpp:122] Setting up relu2_11/x2
I1211 15:05:37.662909 15749 net.cpp:129] Top shape: 1 128 17 35 (76160)
I1211 15:05:37.662912 15749 net.cpp:137] Memory required for data: 279595600
I1211 15:05:37.662917 15749 layer_factory.hpp:77] Creating layer conv2_11/x2
I1211 15:05:37.662931 15749 net.cpp:84] Creating Layer conv2_11/x2
I1211 15:05:37.662936 15749 net.cpp:406] conv2_11/x2 <- conv2_11/x2/bn
I1211 15:05:37.662945 15749 net.cpp:380] conv2_11/x2 -> conv2_11/x2
I1211 15:05:37.735656 15749 net.cpp:122] Setting up conv2_11/x2
I1211 15:05:37.735693 15749 net.cpp:129] Top shape: 1 32 17 35 (19040)
I1211 15:05:37.735698 15749 net.cpp:137] Memory required for data: 279671760
I1211 15:05:37.735710 15749 layer_factory.hpp:77] Creating layer concat2_11
I1211 15:05:37.735725 15749 net.cpp:84] Creating Layer concat2_11
I1211 15:05:37.735733 15749 net.cpp:406] concat2_11 <- concat2_10_concat2_10_0_split_1
I1211 15:05:37.735741 15749 net.cpp:406] concat2_11 <- conv2_11/x2
I1211 15:05:37.740833 15749 net.cpp:380] concat2_11 -> concat2_11
I1211 15:05:37.740991 15749 net.cpp:122] Setting up concat2_11
I1211 15:05:37.741006 15749 net.cpp:129] Top shape: 1 512 17 35 (304640)
I1211 15:05:37.741010 15749 net.cpp:137] Memory required for data: 280890320
I1211 15:05:37.741015 15749 layer_factory.hpp:77] Creating layer tpp5
I1211 15:05:37.741025 15749 net.cpp:84] Creating Layer tpp5
I1211 15:05:37.741030 15749 net.cpp:406] tpp5 <- concat2_11
I1211 15:05:37.741039 15749 net.cpp:380] tpp5 -> tpp5
I1211 15:05:37.742063 15749 net.cpp:122] Setting up tpp5
I1211 15:05:37.742079 15749 net.cpp:129] Top shape: 1 7680 (7680)
I1211 15:05:37.742084 15749 net.cpp:137] Memory required for data: 280921040
I1211 15:05:37.742089 15749 layer_factory.hpp:77] Creating layer fc6_d
I1211 15:05:37.742099 15749 net.cpp:84] Creating Layer fc6_d
I1211 15:05:37.742103 15749 net.cpp:406] fc6_d <- tpp5
I1211 15:05:37.742111 15749 net.cpp:380] fc6_d -> fc6_d
I1211 15:05:41.914537 15749 net.cpp:122] Setting up fc6_d
I1211 15:05:41.914579 15749 net.cpp:129] Top shape: 1 4096 (4096)
I1211 15:05:41.914584 15749 net.cpp:137] Memory required for data: 280937424
I1211 15:05:41.914597 15749 layer_factory.hpp:77] Creating layer relu6
I1211 15:05:41.914608 15749 net.cpp:84] Creating Layer relu6
I1211 15:05:41.914614 15749 net.cpp:406] relu6 <- fc6_d
I1211 15:05:41.914623 15749 net.cpp:367] relu6 -> fc6_d (in-place)
I1211 15:05:41.915433 15749 net.cpp:122] Setting up relu6
I1211 15:05:41.915460 15749 net.cpp:129] Top shape: 1 4096 (4096)
I1211 15:05:41.915465 15749 net.cpp:137] Memory required for data: 280953808
I1211 15:05:41.915472 15749 layer_factory.hpp:77] Creating layer fc7_d
I1211 15:05:41.915485 15749 net.cpp:84] Creating Layer fc7_d
I1211 15:05:41.915491 15749 net.cpp:406] fc7_d <- fc6_d
I1211 15:05:41.915500 15749 net.cpp:380] fc7_d -> fc7_d
I1211 15:05:44.172791 15749 net.cpp:122] Setting up fc7_d
I1211 15:05:44.172834 15749 net.cpp:129] Top shape: 1 4096 (4096)
I1211 15:05:44.172838 15749 net.cpp:137] Memory required for data: 280970192
I1211 15:05:44.172848 15749 layer_factory.hpp:77] Creating layer relu7
I1211 15:05:44.172857 15749 net.cpp:84] Creating Layer relu7
I1211 15:05:44.172863 15749 net.cpp:406] relu7 <- fc7_d
I1211 15:05:44.172873 15749 net.cpp:367] relu7 -> fc7_d (in-place)
I1211 15:05:44.173550 15749 net.cpp:122] Setting up relu7
I1211 15:05:44.173565 15749 net.cpp:129] Top shape: 1 4096 (4096)
I1211 15:05:44.173568 15749 net.cpp:137] Memory required for data: 280986576
I1211 15:05:44.173571 15749 layer_factory.hpp:77] Creating layer fc8_d
I1211 15:05:44.173579 15749 net.cpp:84] Creating Layer fc8_d
I1211 15:05:44.173583 15749 net.cpp:406] fc8_d <- fc7_d
I1211 15:05:44.173588 15749 net.cpp:380] fc8_d -> fc8_d
I1211 15:05:44.319290 15749 net.cpp:122] Setting up fc8_d
I1211 15:05:44.319329 15749 net.cpp:129] Top shape: 1 604 (604)
I1211 15:05:44.319334 15749 net.cpp:137] Memory required for data: 280988992
I1211 15:05:44.319345 15749 layer_factory.hpp:77] Creating layer fc8_d_fc8_d_0_split
I1211 15:05:44.319357 15749 net.cpp:84] Creating Layer fc8_d_fc8_d_0_split
I1211 15:05:44.319365 15749 net.cpp:406] fc8_d_fc8_d_0_split <- fc8_d
I1211 15:05:44.319372 15749 net.cpp:380] fc8_d_fc8_d_0_split -> fc8_d_fc8_d_0_split_0
I1211 15:05:44.319386 15749 net.cpp:380] fc8_d_fc8_d_0_split -> fc8_d_fc8_d_0_split_1
I1211 15:05:44.319464 15749 net.cpp:122] Setting up fc8_d_fc8_d_0_split
I1211 15:05:44.319473 15749 net.cpp:129] Top shape: 1 604 (604)
I1211 15:05:44.319478 15749 net.cpp:129] Top shape: 1 604 (604)
I1211 15:05:44.319483 15749 net.cpp:137] Memory required for data: 280993824
I1211 15:05:44.319486 15749 layer_factory.hpp:77] Creating layer sigmoid
I1211 15:05:44.319494 15749 net.cpp:84] Creating Layer sigmoid
I1211 15:05:44.319499 15749 net.cpp:406] sigmoid <- fc8_d_fc8_d_0_split_0
I1211 15:05:44.319505 15749 net.cpp:380] sigmoid -> sigmoid
I1211 15:05:44.319936 15749 net.cpp:122] Setting up sigmoid
I1211 15:05:44.319949 15749 net.cpp:129] Top shape: 1 604 (604)
I1211 15:05:44.319953 15749 net.cpp:137] Memory required for data: 280996240
I1211 15:05:44.319958 15749 layer_factory.hpp:77] Creating layer silence
I1211 15:05:44.319967 15749 net.cpp:84] Creating Layer silence
I1211 15:05:44.319972 15749 net.cpp:406] silence <- sigmoid
I1211 15:05:44.319977 15749 net.cpp:122] Setting up silence
I1211 15:05:44.319980 15749 net.cpp:137] Memory required for data: 280996240
…
