…
state {
  phase: TRAIN
}
layer {
  name: "word_images"
  type: "Data"
  top: "word_images"
  top: "label"
  transform_param {
    scale: -0.0039215689
    mean_value: 255
  }
  data_param {
    source: "/data/fwolf/min26/gw_cv1_nti500000_pul2-3-4-5_train_word_images_lmdb"
    batch_size: 1
    backend: LMDB
    prefetch: 20
  }
}
layer {
  name: "phocs"
  type: "Data"
  top: "phocs"
  top: "label_phocs"
  data_param {
    source: "/data/fwolf/min26/gw_cv1_nti500000_pul2-3-4-5_train_phocs_lmdb"
    batch_size: 1
    backend: LMDB
    prefetch: 20
  }
}
layer {
  name: "conv_init"
  type: "Convolution"
  bottom: "word_images"
  top: "conv_init"
  convolution_param {
    num_output: 32
    bias_term: false
    pad: 1
    kernel_size: 3
    stride: 1
    weight_filler {
      type: "msra"
    }
    bias_filler {
      type: "constant"
    }
    engine: CUDNN
  }
}
layer {
  name: "bn_init"
  type: "BatchNorm"
  bottom: "conv_init"
  top: "bn_init"
  param {
    lr_mult: 0
    decay_mult: 0
  }
  param {
    lr_mult: 0
    decay_mult: 0
  }
  param {
    lr_mult: 0
    decay_mult: 0
  }
  batch_norm_param {
    eps: 1e-05
  }
}
layer {
  name: "scale_init"
  type: "Scale"
  bottom: "bn_init"
  top: "bn_init"
  scale_param {
    filler {
      value: 1
    }
    bias_term: true
    bias_filler {
      value: 0
    }
  }
}
layer {
  name: "relu_init"
  type: "ReLU"
  bottom: "bn_init"
  top: "bn_init"
}
layer {
  name: "pool_init"
  type: "Pooling"
  bottom: "bn_init"
  top: "pool_init"
  pooling_param {
    pool: MAX
    kernel_size: 3
    stride: 2
    pad: 1
  }
}
layer {
  name: "conv0_0/bn"
  type: "BatchNorm"
  bottom: "pool_init"
  top: "conv0_0/bn"
  param {
    lr_mult: 0
    decay_mult: 0
  }
  param {
    lr_mult: 0
    decay_mult: 0
  }
  param {
    lr_mult: 0
    decay_mult: 0
  }
}
layer {
  name: "conv0_0/scale"
  type: "Scale"
  bottom: "conv0_0/bn"
  top: "conv0_0/bn"
  scale_param {
    filler {
      value: 1
    }
    bias_term: true
    bias_filler {
      value: 0
    }
  }
}
layer {
  name: "relu0_0"
  type: "ReLU"
  bottom: "conv0_0/bn"
  top: "conv0_0/bn"
}
layer {
  name: "conv0_0"
  type: "Convolution"
  bottom: "conv0_0/bn"
  top: "conv0_0"
  convolution_param {
    num_output: 32
    bias_term: false
    pad: 1
    kernel_size: 3
    stride: 1
    weight_filler {
      type: "msra"
    }
    bias_filler {
      type: "constant"
    }
    engine: CUDNN
  }
}
layer {
  name: "concat0_0"
  type: "Concat"
  bottom: "pool_init"
  bottom: "conv0_0"
  top: "concat0_0"
  concat_param {
    axis: 1
  }
}
layer {
  name: "conv0_1/bn"
  type: "BatchNorm"
  bottom: "concat0_0"
  top: "conv0_1/bn"
  param {
    lr_mult: 0
    decay_mult: 0
  }
  param {
    lr_mult: 0
    decay_mult: 0
  }
  param {
    lr_mult: 0
    decay_mult: 0
  }
}
layer {
  name: "conv0_1/scale"
  type: "Scale"
  bottom: "conv0_1/bn"
  top: "conv0_1/bn"
  scale_param {
    filler {
      value: 1
    }
    bias_term: true
    bias_filler {
      value: 0
    }
  }
}
layer {
  name: "relu0_1"
  type: "ReLU"
  bottom: "conv0_1/bn"
  top: "conv0_1/bn"
}
layer {
  name: "conv0_1"
  type: "Convolution"
  bottom: "conv0_1/bn"
  top: "conv0_1"
  convolution_param {
    num_output: 32
    bias_term: false
    pad: 1
    kernel_size: 3
    stride: 1
    weight_filler {
      type: "msra"
    }
    bias_filler {
      type: "constant"
    }
    engine: CUDNN
  }
}
layer {
  name: "concat0_1"
  type: "Concat"
  bottom: "concat0_0"
  bottom: "conv0_1"
  top: "concat0_1"
  concat_param {
    axis: 1
  }
}
layer {
  name: "conv0_2/bn"
  type: "BatchNorm"
  bottom: "concat0_1"
  top: "conv0_2/bn"
  param {
    lr_mult: 0
    decay_mult: 0
  }
  param {
    lr_mult: 0
    decay_mult: 0
  }
  param {
    lr_mult: 0
    decay_mult: 0
  }
}
layer {
  name: "conv0_2/scale"
  type: "Scale"
  bottom: "conv0_2/bn"
  top: "conv0_2/bn"
  scale_param {
    filler {
      value: 1
    }
    bias_term: true
    bias_filler {
      value: 0
    }
  }
}
layer {
  name: "relu0_2"
  type: "ReLU"
  bottom: "conv0_2/bn"
  top: "conv0_2/bn"
}
layer {
  name: "conv0_2"
  type: "Convolution"
  bottom: "conv0_2/bn"
  top: "conv0_2"
  convolution_param {
    num_output: 32
    bias_term: false
    pad: 1
    kernel_size: 3
    stride: 1
    weight_filler {
      type: "msra"
    }
    bias_filler {
      type: "constant"
    }
    engine: CUDNN
  }
}
layer {
  name: "concat0_2"
  type: "Concat"
  bottom: "concat0_1"
  bottom: "conv0_2"
  top: "concat0_2"
  concat_param {
    axis: 1
  }
}
layer {
  name: "conv0_3/bn"
  type: "BatchNorm"
  bottom: "concat0_2"
  top: "conv0_3/bn"
  param {
    lr_mult: 0
    decay_mult: 0
  }
  param {
    lr_mult: 0
    decay_mult: 0
  }
  param {
    lr_mult: 0
    decay_mult: 0
  }
}
layer {
  name: "conv0_3/scale"
  type: "Scale"
  bottom: "conv0_3/bn"
  top: "conv0_3/bn"
  scale_param {
    filler {
      value: 1
    }
    bias_term: true
    bias_filler {
      value: 0
    }
  }
}
layer {
  name: "relu0_3"
  type: "ReLU"
  bottom: "conv0_3/bn"
  top: "conv0_3/bn"
}
layer {
  name: "conv0_3"
  type: "Convolution"
  bottom: "conv0_3/bn"
  top: "conv0_3"
  convolution_param {
    num_output: 32
    bias_term: false
    pad: 1
    kernel_size: 3
    stride: 1
    weight_filler {
      type: "msra"
    }
    bias_filler {
      type: "constant"
    }
    engine: CUDNN
  }
}
layer {
  name: "concat0_3"
  type: "Concat"
  bottom: "concat0_2"
  bottom: "conv0_3"
  top: "concat0_3"
  concat_param {
    axis: 1
  }
}
layer {
  name: "conv0_4/bn"
  type: "BatchNorm"
  bottom: "concat0_3"
  top: "conv0_4/bn"
  param {
    lr_mult: 0
    decay_mult: 0
  }
  param {
    lr_mult: 0
    decay_mult: 0
  }
  param {
    lr_mult: 0
    decay_mult: 0
  }
}
layer {
  name: "conv0_4/scale"
  type: "Scale"
  bottom: "conv0_4/bn"
  top: "conv0_4/bn"
  scale_param {
    filler {
      value: 1
    }
    bias_term: true
    bias_filler {
      value: 0
    }
  }
}
layer {
  name: "relu0_4"
  type: "ReLU"
  bottom: "conv0_4/bn"
  top: "conv0_4/bn"
}
layer {
  name: "conv0_4"
  type: "Convolution"
  bottom: "conv0_4/bn"
  top: "conv0_4"
  convolution_param {
    num_output: 32
    bias_term: false
    pad: 1
    kernel_size: 3
    stride: 1
    weight_filler {
      type: "msra"
    }
    bias_filler {
      type: "constant"
    }
    engine: CUDNN
  }
}
layer {
  name: "concat0_4"
  type: "Concat"
  bottom: "concat0_3"
  bottom: "conv0_4"
  top: "concat0_4"
  concat_param {
    axis: 1
  }
}
layer {
  name: "conv0_5/bn"
  type: "BatchNorm"
  bottom: "concat0_4"
  top: "conv0_5/bn"
  param {
    lr_mult: 0
    decay_mult: 0
  }
  param {
    lr_mult: 0
    decay_mult: 0
  }
  param {
    lr_mult: 0
    decay_mult: 0
  }
}
layer {
  name: "conv0_5/scale"
  type: "Scale"
  bottom: "conv0_5/bn"
  top: "conv0_5/bn"
  scale_param {
    filler {
      value: 1
    }
    bias_term: true
    bias_filler {
      value: 0
    }
  }
}
layer {
  name: "relu0_5"
  type: "ReLU"
  bottom: "conv0_5/bn"
  top: "conv0_5/bn"
}
layer {
  name: "conv0_5"
  type: "Convolution"
  bottom: "conv0_5/bn"
  top: "conv0_5"
  convolution_param {
    num_output: 32
    bias_term: false
    pad: 1
    kernel_size: 3
    stride: 1
    weight_filler {
      type: "msra"
    }
    bias_filler {
      type: "constant"
    }
    engine: CUDNN
  }
}
layer {
  name: "concat0_5"
  type: "Concat"
  bottom: "concat0_4"
  bottom: "conv0_5"
  top: "concat0_5"
  concat_param {
    axis: 1
  }
}
layer {
  name: "conv0_6/bn"
  type: "BatchNorm"
  bottom: "concat0_5"
  top: "conv0_6/bn"
  param {
    lr_mult: 0
    decay_mult: 0
  }
  param {
    lr_mult: 0
    decay_mult: 0
  }
  param {
    lr_mult: 0
    decay_mult: 0
  }
}
layer {
  name: "conv0_6/scale"
  type: "Scale"
  bottom: "conv0_6/bn"
  top: "conv0_6/bn"
  scale_param {
    filler {
      value: 1
    }
    bias_term: true
    bias_filler {
      value: 0
    }
  }
}
layer {
  name: "relu0_6"
  type: "ReLU"
  bottom: "conv0_6/bn"
  top: "conv0_6/bn"
}
layer {
  name: "conv0_6"
  type: "Convolution"
  bottom: "conv0_6/bn"
  top: "conv0_6"
  convolution_param {
    num_output: 32
    bias_term: false
    pad: 1
    kernel_size: 3
    stride: 1
    weight_filler {
      type: "msra"
    }
    bias_filler {
      type: "constant"
    }
    engine: CUDNN
  }
}
layer {
  name: "concat0_6"
  type: "Concat"
  bottom: "concat0_5"
  bottom: "conv0_6"
  top: "concat0_6"
  concat_param {
    axis: 1
  }
}
layer {
  name: "conv0_7/bn"
  type: "BatchNorm"
  bottom: "concat0_6"
  top: "conv0_7/bn"
  param {
    lr_mult: 0
    decay_mult: 0
  }
  param {
    lr_mult: 0
    decay_mult: 0
  }
  param {
    lr_mult: 0
    decay_mult: 0
  }
}
layer {
  name: "conv0_7/scale"
  type: "Scale"
  bottom: "conv0_7/bn"
  top: "conv0_7/bn"
  scale_param {
    filler {
      value: 1
    }
    bias_term: true
    bias_filler {
      value: 0
    }
  }
}
layer {
  name: "relu0_7"
  type: "ReLU"
  bottom: "conv0_7/bn"
  top: "conv0_7/bn"
}
layer {
  name: "conv0_7"
  type: "Convolution"
  bottom: "conv0_7/bn"
  top: "conv0_7"
  convolution_param {
    num_output: 32
    bias_term: false
    pad: 1
    kernel_size: 3
    stride: 1
    weight_filler {
      type: "msra"
    }
    bias_filler {
      type: "constant"
    }
    engine: CUDNN
  }
}
layer {
  name: "concat0_7"
  type: "Concat"
  bottom: "concat0_6"
  bottom: "conv0_7"
  top: "concat0_7"
  concat_param {
    axis: 1
  }
}
layer {
  name: "conv0_8/bn"
  type: "BatchNorm"
  bottom: "concat0_7"
  top: "conv0_8/bn"
  param {
    lr_mult: 0
    decay_mult: 0
  }
  param {
    lr_mult: 0
    decay_mult: 0
  }
  param {
    lr_mult: 0
    decay_mult: 0
  }
}
layer {
  name: "conv0_8/scale"
  type: "Scale"
  bottom: "conv0_8/bn"
  top: "conv0_8/bn"
  scale_param {
    filler {
      value: 1
    }
    bias_term: true
    bias_filler {
      value: 0
    }
  }
}
layer {
  name: "relu0_8"
  type: "ReLU"
  bottom: "conv0_8/bn"
  top: "conv0_8/bn"
}
layer {
  name: "conv0_8"
  type: "Convolution"
  bottom: "conv0_8/bn"
  top: "conv0_8"
  convolution_param {
    num_output: 32
    bias_term: false
    pad: 1
    kernel_size: 3
    stride: 1
    weight_filler {
      type: "msra"
    }
    bias_filler {
      type: "constant"
    }
    engine: CUDNN
  }
}
layer {
  name: "concat0_8"
  type: "Concat"
  bottom: "concat0_7"
  bottom: "conv0_8"
  top: "concat0_8"
  concat_param {
    axis: 1
  }
}
layer {
  name: "conv0_9/bn"
  type: "BatchNorm"
  bottom: "concat0_8"
  top: "conv0_9/bn"
  param {
    lr_mult: 0
    decay_mult: 0
  }
  param {
    lr_mult: 0
    decay_mult: 0
  }
  param {
    lr_mult: 0
    decay_mult: 0
  }
}
layer {
  name: "conv0_9/scale"
  type: "Scale"
  bottom: "conv0_9/bn"
  top: "conv0_9/bn"
  scale_param {
    filler {
      value: 1
    }
    bias_term: true
    bias_filler {
      value: 0
    }
  }
}
layer {
  name: "relu0_9"
  type: "ReLU"
  bottom: "conv0_9/bn"
  top: "conv0_9/bn"
}
layer {
  name: "conv0_9"
  type: "Convolution"
  bottom: "conv0_9/bn"
  top: "conv0_9"
  convolution_param {
    num_output: 32
    bias_term: false
    pad: 1
    kernel_size: 3
    stride: 1
    weight_filler {
      type: "msra"
    }
    bias_filler {
      type: "constant"
    }
    engine: CUDNN
  }
}
layer {
  name: "concat0_9"
  type: "Concat"
  bottom: "concat0_8"
  bottom: "conv0_9"
  top: "concat0_9"
  concat_param {
    axis: 1
  }
}
layer {
  name: "conv0_10/bn"
  type: "BatchNorm"
  bottom: "concat0_9"
  top: "conv0_10/bn"
  param {
    lr_mult: 0
    decay_mult: 0
  }
  param {
    lr_mult: 0
    decay_mult: 0
  }
  param {
    lr_mult: 0
    decay_mult: 0
  }
}
layer {
  name: "conv0_10/scale"
  type: "Scale"
  bottom: "conv0_10/bn"
  top: "conv0_10/bn"
  scale_param {
    filler {
      value: 1
    }
    bias_term: true
    bias_filler {
      value: 0
    }
  }
}
layer {
  name: "relu0_10"
  type: "ReLU"
  bottom: "conv0_10/bn"
  top: "conv0_10/bn"
}
layer {
  name: "conv0_10"
  type: "Convolution"
  bottom: "conv0_10/bn"
  top: "conv0_10"
  convolution_param {
    num_output: 32
    bias_term: false
    pad: 1
    kernel_size: 3
    stride: 1
    weight_filler {
      type: "msra"
    }
    bias_filler {
      type: "constant"
    }
    engine: CUDNN
  }
}
layer {
  name: "concat0_10"
  type: "Concat"
  bottom: "concat0_9"
  bottom: "conv0_10"
  top: "concat0_10"
  concat_param {
    axis: 1
  }
}
layer {
  name: "conv0_11/bn"
  type: "BatchNorm"
  bottom: "concat0_10"
  top: "conv0_11/bn"
  param {
    lr_mult: 0
    decay_mult: 0
  }
  param {
    lr_mult: 0
    decay_mult: 0
  }
  param {
    lr_mult: 0
    decay_mult: 0
  }
}
layer {
  name: "conv0_11/scale"
  type: "Scale"
  bottom: "conv0_11/bn"
  top: "conv0_11/bn"
  scale_param {
    filler {
      value: 1
    }
    bias_term: true
    bias_filler {
      value: 0
    }
  }
}
layer {
  name: "relu0_11"
  type: "ReLU"
  bottom: "conv0_11/bn"
  top: "conv0_11/bn"
}
layer {
  name: "conv0_11"
  type: "Convolution"
  bottom: "conv0_11/bn"
  top: "conv0_11"
  convolution_param {
    num_output: 32
    bias_term: false
    pad: 1
    kernel_size: 3
    stride: 1
    weight_filler {
      type: "msra"
    }
    bias_filler {
      type: "constant"
    }
    engine: CUDNN
  }
}
layer {
  name: "concat0_11"
  type: "Concat"
  bottom: "concat0_10"
  bottom: "conv0_11"
  top: "concat0_11"
  concat_param {
    axis: 1
  }
}
layer {
  name: "BatchNorm1"
  type: "BatchNorm"
  bottom: "concat0_11"
  top: "BatchNorm1"
  param {
    lr_mult: 0
    decay_mult: 0
  }
  param {
    lr_mult: 0
    decay_mult: 0
  }
  param {
    lr_mult: 0
    decay_mult: 0
  }
}
layer {
  name: "Scale1"
  type: "Scale"
  bottom: "BatchNorm1"
  top: "BatchNorm1"
  scale_param {
    filler {
      value: 1
    }
    bias_term: true
    bias_filler {
      value: 0
    }
  }
}
layer {
  name: "ReLU1"
  type: "ReLU"
  bottom: "BatchNorm1"
  top: "BatchNorm1"
}
layer {
  name: "conv0_blk"
  type: "Convolution"
  bottom: "BatchNorm1"
  top: "conv0_blk"
  convolution_param {
    num_output: 416
    bias_term: false
    pad: 0
    kernel_size: 1
    stride: 1
    weight_filler {
      type: "msra"
    }
    bias_filler {
      type: "constant"
    }
    engine: CUDNN
  }
}
layer {
  name: "pool0"
  type: "Pooling"
  bottom: "conv0_blk"
  top: "pool0"
  pooling_param {
    pool: AVE
    kernel_size: 2
    stride: 2
  }
}
layer {
  name: "conv1_0/bn"
  type: "BatchNorm"
  bottom: "pool0"
  top: "conv1_0/bn"
  param {
    lr_mult: 0
    decay_mult: 0
  }
  param {
    lr_mult: 0
    decay_mult: 0
  }
  param {
    lr_mult: 0
    decay_mult: 0
  }
}
layer {
  name: "conv1_0/scale"
  type: "Scale"
  bottom: "conv1_0/bn"
  top: "conv1_0/bn"
  scale_param {
    filler {
      value: 1
    }
    bias_term: true
    bias_filler {
      value: 0
    }
  }
}
layer {
  name: "relu1_0"
  type: "ReLU"
  bottom: "conv1_0/bn"
  top: "conv1_0/bn"
}
layer {
  name: "conv1_0"
  type: "Convolution"
  bottom: "conv1_0/bn"
  top: "conv1_0"
  convolution_param {
    num_output: 32
    bias_term: false
    pad: 1
    kernel_size: 3
    stride: 1
    weight_filler {
      type: "msra"
    }
    bias_filler {
      type: "constant"
    }
    engine: CUDNN
  }
}
layer {
  name: "concat1_0"
  type: "Concat"
  bottom: "pool0"
  bottom: "conv1_0"
  top: "concat1_0"
  concat_param {
    axis: 1
  }
}
layer {
  name: "conv1_1/bn"
  type: "BatchNorm"
  bottom: "concat1_0"
  top: "conv1_1/bn"
  param {
    lr_mult: 0
    decay_mult: 0
  }
  param {
    lr_mult: 0
    decay_mult: 0
  }
  param {
    lr_mult: 0
    decay_mult: 0
  }
}
layer {
  name: "conv1_1/scale"
  type: "Scale"
  bottom: "conv1_1/bn"
  top: "conv1_1/bn"
  scale_param {
    filler {
      value: 1
    }
    bias_term: true
    bias_filler {
      value: 0
    }
  }
}
layer {
  name: "relu1_1"
  type: "ReLU"
  bottom: "conv1_1/bn"
  top: "conv1_1/bn"
}
layer {
  name: "conv1_1"
  type: "Convolution"
  bottom: "conv1_1/bn"
  top: "conv1_1"
  convolution_param {
    num_output: 32
    bias_term: false
    pad: 1
    kernel_size: 3
    stride: 1
    weight_filler {
      type: "msra"
    }
    bias_filler {
      type: "constant"
    }
    engine: CUDNN
  }
}
layer {
  name: "concat1_1"
  type: "Concat"
  bottom: "concat1_0"
  bottom: "conv1_1"
  top: "concat1_1"
  concat_param {
    axis: 1
  }
}
layer {
  name: "conv1_2/bn"
  type: "BatchNorm"
  bottom: "concat1_1"
  top: "conv1_2/bn"
  param {
    lr_mult: 0
    decay_mult: 0
  }
  param {
    lr_mult: 0
    decay_mult: 0
  }
  param {
    lr_mult: 0
    decay_mult: 0
  }
}
layer {
  name: "conv1_2/scale"
  type: "Scale"
  bottom: "conv1_2/bn"
  top: "conv1_2/bn"
  scale_param {
    filler {
      value: 1
    }
    bias_term: true
    bias_filler {
      value: 0
    }
  }
}
layer {
  name: "relu1_2"
  type: "ReLU"
  bottom: "conv1_2/bn"
  top: "conv1_2/bn"
}
layer {
  name: "conv1_2"
  type: "Convolution"
  bottom: "conv1_2/bn"
  top: "conv1_2"
  convolution_param {
    num_output: 32
    bias_term: false
    pad: 1
    kernel_size: 3
    stride: 1
    weight_filler {
      type: "msra"
    }
    bias_filler {
      type: "constant"
    }
    engine: CUDNN
  }
}
layer {
  name: "concat1_2"
  type: "Concat"
  bottom: "concat1_1"
  bottom: "conv1_2"
  top: "concat1_2"
  concat_param {
    axis: 1
  }
}
layer {
  name: "conv1_3/bn"
  type: "BatchNorm"
  bottom: "concat1_2"
  top: "conv1_3/bn"
  param {
    lr_mult: 0
    decay_mult: 0
  }
  param {
    lr_mult: 0
    decay_mult: 0
  }
  param {
    lr_mult: 0
    decay_mult: 0
  }
}
layer {
  name: "conv1_3/scale"
  type: "Scale"
  bottom: "conv1_3/bn"
  top: "conv1_3/bn"
  scale_param {
    filler {
      value: 1
    }
    bias_term: true
    bias_filler {
      value: 0
    }
  }
}
layer {
  name: "relu1_3"
  type: "ReLU"
  bottom: "conv1_3/bn"
  top: "conv1_3/bn"
}
layer {
  name: "conv1_3"
  type: "Convolution"
  bottom: "conv1_3/bn"
  top: "conv1_3"
  convolution_param {
    num_output: 32
    bias_term: false
    pad: 1
    kernel_size: 3
    stride: 1
    weight_filler {
      type: "msra"
    }
    bias_filler {
      type: "constant"
    }
    engine: CUDNN
  }
}
layer {
  name: "concat1_3"
  type: "Concat"
  bottom: "concat1_2"
  bottom: "conv1_3"
  top: "concat1_3"
  concat_param {
    axis: 1
  }
}
layer {
  name: "conv1_4/bn"
  type: "BatchNorm"
  bottom: "concat1_3"
  top: "conv1_4/bn"
  param {
    lr_mult: 0
    decay_mult: 0
  }
  param {
    lr_mult: 0
    decay_mult: 0
  }
  param {
    lr_mult: 0
    decay_mult: 0
  }
}
layer {
  name: "conv1_4/scale"
  type: "Scale"
  bottom: "conv1_4/bn"
  top: "conv1_4/bn"
  scale_param {
    filler {
      value: 1
    }
    bias_term: true
    bias_filler {
      value: 0
    }
  }
}
layer {
  name: "relu1_4"
  type: "ReLU"
  bottom: "conv1_4/bn"
  top: "conv1_4/bn"
}
layer {
  name: "conv1_4"
  type: "Convolution"
  bottom: "conv1_4/bn"
  top: "conv1_4"
  convolution_param {
    num_output: 32
    bias_term: false
    pad: 1
    kernel_size: 3
    stride: 1
    weight_filler {
      type: "msra"
    }
    bias_filler {
      type: "constant"
    }
    engine: CUDNN
  }
}
layer {
  name: "concat1_4"
  type: "Concat"
  bottom: "concat1_3"
  bottom: "conv1_4"
  top: "concat1_4"
  concat_param {
    axis: 1
  }
}
layer {
  name: "conv1_5/bn"
  type: "BatchNorm"
  bottom: "concat1_4"
  top: "conv1_5/bn"
  param {
    lr_mult: 0
    decay_mult: 0
  }
  param {
    lr_mult: 0
    decay_mult: 0
  }
  param {
    lr_mult: 0
    decay_mult: 0
  }
}
layer {
  name: "conv1_5/scale"
  type: "Scale"
  bottom: "conv1_5/bn"
  top: "conv1_5/bn"
  scale_param {
    filler {
      value: 1
    }
    bias_term: true
    bias_filler {
      value: 0
    }
  }
}
layer {
  name: "relu1_5"
  type: "ReLU"
  bottom: "conv1_5/bn"
  top: "conv1_5/bn"
}
layer {
  name: "conv1_5"
  type: "Convolution"
  bottom: "conv1_5/bn"
  top: "conv1_5"
  convolution_param {
    num_output: 32
    bias_term: false
    pad: 1
    kernel_size: 3
    stride: 1
    weight_filler {
      type: "msra"
    }
    bias_filler {
      type: "constant"
    }
    engine: CUDNN
  }
}
layer {
  name: "concat1_5"
  type: "Concat"
  bottom: "concat1_4"
  bottom: "conv1_5"
  top: "concat1_5"
  concat_param {
    axis: 1
  }
}
layer {
  name: "conv1_6/bn"
  type: "BatchNorm"
  bottom: "concat1_5"
  top: "conv1_6/bn"
  param {
    lr_mult: 0
    decay_mult: 0
  }
  param {
    lr_mult: 0
    decay_mult: 0
  }
  param {
    lr_mult: 0
    decay_mult: 0
  }
}
layer {
  name: "conv1_6/scale"
  type: "Scale"
  bottom: "conv1_6/bn"
  top: "conv1_6/bn"
  scale_param {
    filler {
      value: 1
    }
    bias_term: true
    bias_filler {
      value: 0
    }
  }
}
layer {
  name: "relu1_6"
  type: "ReLU"
  bottom: "conv1_6/bn"
  top: "conv1_6/bn"
}
layer {
  name: "conv1_6"
  type: "Convolution"
  bottom: "conv1_6/bn"
  top: "conv1_6"
  convolution_param {
    num_output: 32
    bias_term: false
    pad: 1
    kernel_size: 3
    stride: 1
    weight_filler {
      type: "msra"
    }
    bias_filler {
      type: "constant"
    }
    engine: CUDNN
  }
}
layer {
  name: "concat1_6"
  type: "Concat"
  bottom: "concat1_5"
  bottom: "conv1_6"
  top: "concat1_6"
  concat_param {
    axis: 1
  }
}
layer {
  name: "conv1_7/bn"
  type: "BatchNorm"
  bottom: "concat1_6"
  top: "conv1_7/bn"
  param {
    lr_mult: 0
    decay_mult: 0
  }
  param {
    lr_mult: 0
    decay_mult: 0
  }
  param {
    lr_mult: 0
    decay_mult: 0
  }
}
layer {
  name: "conv1_7/scale"
  type: "Scale"
  bottom: "conv1_7/bn"
  top: "conv1_7/bn"
  scale_param {
    filler {
      value: 1
    }
    bias_term: true
    bias_filler {
      value: 0
    }
  }
}
layer {
  name: "relu1_7"
  type: "ReLU"
  bottom: "conv1_7/bn"
  top: "conv1_7/bn"
}
layer {
  name: "conv1_7"
  type: "Convolution"
  bottom: "conv1_7/bn"
  top: "conv1_7"
  convolution_param {
    num_output: 32
    bias_term: false
    pad: 1
    kernel_size: 3
    stride: 1
    weight_filler {
      type: "msra"
    }
    bias_filler {
      type: "constant"
    }
    engine: CUDNN
  }
}
layer {
  name: "concat1_7"
  type: "Concat"
  bottom: "concat1_6"
  bottom: "conv1_7"
  top: "concat1_7"
  concat_param {
    axis: 1
  }
}
layer {
  name: "conv1_8/bn"
  type: "BatchNorm"
  bottom: "concat1_7"
  top: "conv1_8/bn"
  param {
    lr_mult: 0
    decay_mult: 0
  }
  param {
    lr_mult: 0
    decay_mult: 0
  }
  param {
    lr_mult: 0
    decay_mult: 0
  }
}
layer {
  name: "conv1_8/scale"
  type: "Scale"
  bottom: "conv1_8/bn"
  top: "conv1_8/bn"
  scale_param {
    filler {
      value: 1
    }
    bias_term: true
    bias_filler {
      value: 0
    }
  }
}
layer {
  name: "relu1_8"
  type: "ReLU"
  bottom: "conv1_8/bn"
  top: "conv1_8/bn"
}
layer {
  name: "conv1_8"
  type: "Convolution"
  bottom: "conv1_8/bn"
  top: "conv1_8"
  convolution_param {
    num_output: 32
    bias_term: false
    pad: 1
    kernel_size: 3
    stride: 1
    weight_filler {
      type: "msra"
    }
    bias_filler {
      type: "constant"
    }
    engine: CUDNN
  }
}
layer {
  name: "concat1_8"
  type: "Concat"
  bottom: "concat1_7"
  bottom: "conv1_8"
  top: "concat1_8"
  concat_param {
    axis: 1
  }
}
layer {
  name: "conv1_9/bn"
  type: "BatchNorm"
  bottom: "concat1_8"
  top: "conv1_9/bn"
  param {
    lr_mult: 0
    decay_mult: 0
  }
  param {
    lr_mult: 0
    decay_mult: 0
  }
  param {
    lr_mult: 0
    decay_mult: 0
  }
}
layer {
  name: "conv1_9/scale"
  type: "Scale"
  bottom: "conv1_9/bn"
  top: "conv1_9/bn"
  scale_param {
    filler {
      value: 1
    }
    bias_term: true
    bias_filler {
      value: 0
    }
  }
}
layer {
  name: "relu1_9"
  type: "ReLU"
  bottom: "conv1_9/bn"
  top: "conv1_9/bn"
}
layer {
  name: "conv1_9"
  type: "Convolution"
  bottom: "conv1_9/bn"
  top: "conv1_9"
  convolution_param {
    num_output: 32
    bias_term: false
    pad: 1
    kernel_size: 3
    stride: 1
    weight_filler {
      type: "msra"
    }
    bias_filler {
      type: "constant"
    }
    engine: CUDNN
  }
}
layer {
  name: "concat1_9"
  type: "Concat"
  bottom: "concat1_8"
  bottom: "conv1_9"
  top: "concat1_9"
  concat_param {
    axis: 1
  }
}
layer {
  name: "conv1_10/bn"
  type: "BatchNorm"
  bottom: "concat1_9"
  top: "conv1_10/bn"
  param {
    lr_mult: 0
    decay_mult: 0
  }
  param {
    lr_mult: 0
    decay_mult: 0
  }
  param {
    lr_mult: 0
    decay_mult: 0
  }
}
layer {
  name: "conv1_10/scale"
  type: "Scale"
  bottom: "conv1_10/bn"
  top: "conv1_10/bn"
  scale_param {
    filler {
      value: 1
    }
    bias_term: true
    bias_filler {
      value: 0
    }
  }
}
layer {
  name: "relu1_10"
  type: "ReLU"
  bottom: "conv1_10/bn"
  top: "conv1_10/bn"
}
layer {
  name: "conv1_10"
  type: "Convolution"
  bottom: "conv1_10/bn"
  top: "conv1_10"
  convolution_param {
    num_output: 32
    bias_term: false
    pad: 1
    kernel_size: 3
    stride: 1
    weight_filler {
      type: "msra"
    }
    bias_filler {
      type: "constant"
    }
    engine: CUDNN
  }
}
layer {
  name: "concat1_10"
  type: "Concat"
  bottom: "concat1_9"
  bottom: "conv1_10"
  top: "concat1_10"
  concat_param {
    axis: 1
  }
}
layer {
  name: "conv1_11/bn"
  type: "BatchNorm"
  bottom: "concat1_10"
  top: "conv1_11/bn"
  param {
    lr_mult: 0
    decay_mult: 0
  }
  param {
    lr_mult: 0
    decay_mult: 0
  }
  param {
    lr_mult: 0
    decay_mult: 0
  }
}
layer {
  name: "conv1_11/scale"
  type: "Scale"
  bottom: "conv1_11/bn"
  top: "conv1_11/bn"
  scale_param {
    filler {
      value: 1
    }
    bias_term: true
    bias_filler {
      value: 0
    }
  }
}
layer {
  name: "relu1_11"
  type: "ReLU"
  bottom: "conv1_11/bn"
  top: "conv1_11/bn"
}
layer {
  name: "conv1_11"
  type: "Convolution"
  bottom: "conv1_11/bn"
  top: "conv1_11"
  convolution_param {
    num_output: 32
    bias_term: false
    pad: 1
    kernel_size: 3
    stride: 1
    weight_filler {
      type: "msra"
    }
    bias_filler {
      type: "constant"
    }
    engine: CUDNN
  }
}
layer {
  name: "concat1_11"
  type: "Concat"
  bottom: "concat1_10"
  bottom: "conv1_11"
  top: "concat1_11"
  concat_param {
    axis: 1
  }
}
layer {
  name: "conv1_12/bn"
  type: "BatchNorm"
  bottom: "concat1_11"
  top: "conv1_12/bn"
  param {
    lr_mult: 0
    decay_mult: 0
  }
  param {
    lr_mult: 0
    decay_mult: 0
  }
  param {
    lr_mult: 0
    decay_mult: 0
  }
}
layer {
  name: "conv1_12/scale"
  type: "Scale"
  bottom: "conv1_12/bn"
  top: "conv1_12/bn"
  scale_param {
    filler {
      value: 1
    }
    bias_term: true
    bias_filler {
      value: 0
    }
  }
}
layer {
  name: "relu1_12"
  type: "ReLU"
  bottom: "conv1_12/bn"
  top: "conv1_12/bn"
}
layer {
  name: "conv1_12"
  type: "Convolution"
  bottom: "conv1_12/bn"
  top: "conv1_12"
  convolution_param {
    num_output: 32
    bias_term: false
    pad: 1
    kernel_size: 3
    stride: 1
    weight_filler {
      type: "msra"
    }
    bias_filler {
      type: "constant"
    }
    engine: CUDNN
  }
}
layer {
  name: "concat1_12"
  type: "Concat"
  bottom: "concat1_11"
  bottom: "conv1_12"
  top: "concat1_12"
  concat_param {
    axis: 1
  }
}
layer {
  name: "conv1_13/bn"
  type: "BatchNorm"
  bottom: "concat1_12"
  top: "conv1_13/bn"
  param {
    lr_mult: 0
    decay_mult: 0
  }
  param {
    lr_mult: 0
    decay_mult: 0
  }
  param {
    lr_mult: 0
    decay_mult: 0
  }
}
layer {
  name: "conv1_13/scale"
  type: "Scale"
  bottom: "conv1_13/bn"
  top: "conv1_13/bn"
  scale_param {
    filler {
      value: 1
    }
    bias_term: true
    bias_filler {
      value: 0
    }
  }
}
layer {
  name: "relu1_13"
  type: "ReLU"
  bottom: "conv1_13/bn"
  top: "conv1_13/bn"
}
layer {
  name: "conv1_13"
  type: "Convolution"
  bottom: "conv1_13/bn"
  top: "conv1_13"
  convolution_param {
    num_output: 32
    bias_term: false
    pad: 1
    kernel_size: 3
    stride: 1
    weight_filler {
      type: "msra"
    }
    bias_filler {
      type: "constant"
    }
    engine: CUDNN
  }
}
layer {
  name: "concat1_13"
  type: "Concat"
  bottom: "concat1_12"
  bottom: "conv1_13"
  top: "concat1_13"
  concat_param {
    axis: 1
  }
}
layer {
  name: "conv1_14/bn"
  type: "BatchNorm"
  bottom: "concat1_13"
  top: "conv1_14/bn"
  param {
    lr_mult: 0
    decay_mult: 0
  }
  param {
    lr_mult: 0
    decay_mult: 0
  }
  param {
    lr_mult: 0
    decay_mult: 0
  }
}
layer {
  name: "conv1_14/scale"
  type: "Scale"
  bottom: "conv1_14/bn"
  top: "conv1_14/bn"
  scale_param {
    filler {
      value: 1
    }
    bias_term: true
    bias_filler {
      value: 0
    }
  }
}
layer {
  name: "relu1_14"
  type: "ReLU"
  bottom: "conv1_14/bn"
  top: "conv1_14/bn"
}
layer {
  name: "conv1_14"
  type: "Convolution"
  bottom: "conv1_14/bn"
  top: "conv1_14"
  convolution_param {
    num_output: 32
    bias_term: false
    pad: 1
    kernel_size: 3
    stride: 1
    weight_filler {
      type: "msra"
    }
    bias_filler {
      type: "constant"
    }
    engine: CUDNN
  }
}
layer {
  name: "concat1_14"
  type: "Concat"
  bottom: "concat1_13"
  bottom: "conv1_14"
  top: "concat1_14"
  concat_param {
    axis: 1
  }
}
layer {
  name: "conv1_15/bn"
  type: "BatchNorm"
  bottom: "concat1_14"
  top: "conv1_15/bn"
  param {
    lr_mult: 0
    decay_mult: 0
  }
  param {
    lr_mult: 0
    decay_mult: 0
  }
  param {
    lr_mult: 0
    decay_mult: 0
  }
}
layer {
  name: "conv1_15/scale"
  type: "Scale"
  bottom: "conv1_15/bn"
  top: "conv1_15/bn"
  scale_param {
    filler {
      value: 1
    }
    bias_term: true
    bias_filler {
      value: 0
    }
  }
}
layer {
  name: "relu1_15"
  type: "ReLU"
  bottom: "conv1_15/bn"
  top: "conv1_15/bn"
}
layer {
  name: "conv1_15"
  type: "Convolution"
  bottom: "conv1_15/bn"
  top: "conv1_15"
  convolution_param {
    num_output: 32
    bias_term: false
    pad: 1
    kernel_size: 3
    stride: 1
    weight_filler {
      type: "msra"
    }
    bias_filler {
      type: "constant"
    }
    engine: CUDNN
  }
}
layer {
  name: "concat1_1
I1216 09:09:15.310595  4784 layer_factory.hpp:77] Creating layer word_images
I1216 09:09:15.310660  4784 db_lmdb.cpp:35] Opened lmdb /data/fwolf/min26/gw_cv1_nti500000_pul2-3-4-5_train_word_images_lmdb
I1216 09:09:15.310691  4784 net.cpp:84] Creating Layer word_images
I1216 09:09:15.310698  4784 net.cpp:380] word_images -> word_images
I1216 09:09:15.310706  4784 net.cpp:380] word_images -> label
I1216 09:09:15.311682  4784 data_layer.cpp:44] output data size: 1,1,108,244
I1216 09:09:15.315994  4784 net.cpp:122] Setting up word_images
I1216 09:09:15.316012  4784 net.cpp:129] Top shape: 1 1 108 244 (26352)
I1216 09:09:15.316016  4784 net.cpp:129] Top shape: 1 (1)
I1216 09:09:15.316020  4784 net.cpp:137] Memory required for data: 105412
I1216 09:09:15.316025  4784 layer_factory.hpp:77] Creating layer phocs
I1216 09:09:15.316081  4784 db_lmdb.cpp:35] Opened lmdb /data/fwolf/min26/gw_cv1_nti500000_pul2-3-4-5_train_phocs_lmdb
I1216 09:09:15.316109  4784 net.cpp:84] Creating Layer phocs
I1216 09:09:15.316115  4784 net.cpp:380] phocs -> phocs
I1216 09:09:15.316125  4784 net.cpp:380] phocs -> label_phocs
I1216 09:09:15.316447  4784 data_layer.cpp:44] output data size: 1,1,1,604
I1216 09:09:15.319445  4784 net.cpp:122] Setting up phocs
I1216 09:09:15.319466  4784 net.cpp:129] Top shape: 1 1 1 604 (604)
I1216 09:09:15.319470  4784 net.cpp:129] Top shape: 1 (1)
I1216 09:09:15.319476  4784 net.cpp:137] Memory required for data: 107832
I1216 09:09:15.319481  4784 layer_factory.hpp:77] Creating layer conv_init
I1216 09:09:15.319495  4784 net.cpp:84] Creating Layer conv_init
I1216 09:09:15.319499  4784 net.cpp:406] conv_init <- word_images
I1216 09:09:15.319507  4784 net.cpp:380] conv_init -> conv_init
I1216 09:09:15.808105  4784 net.cpp:122] Setting up conv_init
I1216 09:09:15.808143  4784 net.cpp:129] Top shape: 1 32 108 244 (843264)
I1216 09:09:15.808151  4784 net.cpp:137] Memory required for data: 3480888
I1216 09:09:15.808168  4784 layer_factory.hpp:77] Creating layer bn_init
I1216 09:09:15.808185  4784 net.cpp:84] Creating Layer bn_init
I1216 09:09:15.808192  4784 net.cpp:406] bn_init <- conv_init
I1216 09:09:15.808202  4784 net.cpp:380] bn_init -> bn_init
I1216 09:09:15.808737  4784 net.cpp:122] Setting up bn_init
I1216 09:09:15.808753  4784 net.cpp:129] Top shape: 1 32 108 244 (843264)
I1216 09:09:15.808758  4784 net.cpp:137] Memory required for data: 6853944
I1216 09:09:15.808773  4784 layer_factory.hpp:77] Creating layer scale_init
I1216 09:09:15.808786  4784 net.cpp:84] Creating Layer scale_init
I1216 09:09:15.808791  4784 net.cpp:406] scale_init <- bn_init
I1216 09:09:15.808799  4784 net.cpp:367] scale_init -> bn_init (in-place)
I1216 09:09:15.808881  4784 layer_factory.hpp:77] Creating layer scale_init
I1216 09:09:15.809188  4784 net.cpp:122] Setting up scale_init
I1216 09:09:15.809204  4784 net.cpp:129] Top shape: 1 32 108 244 (843264)
I1216 09:09:15.809211  4784 net.cpp:137] Memory required for data: 10227000
I1216 09:09:15.809222  4784 layer_factory.hpp:77] Creating layer relu_init
I1216 09:09:15.809232  4784 net.cpp:84] Creating Layer relu_init
I1216 09:09:15.809237  4784 net.cpp:406] relu_init <- bn_init
I1216 09:09:15.809245  4784 net.cpp:367] relu_init -> bn_init (in-place)
I1216 09:09:15.809697  4784 net.cpp:122] Setting up relu_init
I1216 09:09:15.809713  4784 net.cpp:129] Top shape: 1 32 108 244 (843264)
I1216 09:09:15.809720  4784 net.cpp:137] Memory required for data: 13600056
I1216 09:09:15.809725  4784 layer_factory.hpp:77] Creating layer pool_init
I1216 09:09:15.809736  4784 net.cpp:84] Creating Layer pool_init
I1216 09:09:15.809741  4784 net.cpp:406] pool_init <- bn_init
I1216 09:09:15.809748  4784 net.cpp:380] pool_init -> pool_init
I1216 09:09:15.809836  4784 net.cpp:122] Setting up pool_init
I1216 09:09:15.809850  4784 net.cpp:129] Top shape: 1 32 55 123 (216480)
I1216 09:09:15.809855  4784 net.cpp:137] Memory required for data: 14465976
I1216 09:09:15.809860  4784 layer_factory.hpp:77] Creating layer pool_init_pool_init_0_split
I1216 09:09:15.809868  4784 net.cpp:84] Creating Layer pool_init_pool_init_0_split
I1216 09:09:15.809872  4784 net.cpp:406] pool_init_pool_init_0_split <- pool_init
I1216 09:09:15.809880  4784 net.cpp:380] pool_init_pool_init_0_split -> pool_init_pool_init_0_split_0
I1216 09:09:15.809887  4784 net.cpp:380] pool_init_pool_init_0_split -> pool_init_pool_init_0_split_1
I1216 09:09:15.809965  4784 net.cpp:122] Setting up pool_init_pool_init_0_split
I1216 09:09:15.809978  4784 net.cpp:129] Top shape: 1 32 55 123 (216480)
I1216 09:09:15.809984  4784 net.cpp:129] Top shape: 1 32 55 123 (216480)
I1216 09:09:15.809989  4784 net.cpp:137] Memory required for data: 16197816
I1216 09:09:15.809994  4784 layer_factory.hpp:77] Creating layer conv0_0/bn
I1216 09:09:15.810003  4784 net.cpp:84] Creating Layer conv0_0/bn
I1216 09:09:15.810009  4784 net.cpp:406] conv0_0/bn <- pool_init_pool_init_0_split_0
I1216 09:09:15.810017  4784 net.cpp:380] conv0_0/bn -> conv0_0/bn
I1216 09:09:15.811228  4784 net.cpp:122] Setting up conv0_0/bn
I1216 09:09:15.811245  4784 net.cpp:129] Top shape: 1 32 55 123 (216480)
I1216 09:09:15.811252  4784 net.cpp:137] Memory required for data: 17063736
I1216 09:09:15.811266  4784 layer_factory.hpp:77] Creating layer conv0_0/scale
I1216 09:09:15.811278  4784 net.cpp:84] Creating Layer conv0_0/scale
I1216 09:09:15.811285  4784 net.cpp:406] conv0_0/scale <- conv0_0/bn
I1216 09:09:15.811292  4784 net.cpp:367] conv0_0/scale -> conv0_0/bn (in-place)
I1216 09:09:15.811388  4784 layer_factory.hpp:77] Creating layer conv0_0/scale
I1216 09:09:15.811674  4784 net.cpp:122] Setting up conv0_0/scale
I1216 09:09:15.811689  4784 net.cpp:129] Top shape: 1 32 55 123 (216480)
I1216 09:09:15.811695  4784 net.cpp:137] Memory required for data: 17929656
I1216 09:09:15.811704  4784 layer_factory.hpp:77] Creating layer relu0_0
I1216 09:09:15.811714  4784 net.cpp:84] Creating Layer relu0_0
I1216 09:09:15.811719  4784 net.cpp:406] relu0_0 <- conv0_0/bn
I1216 09:09:15.811727  4784 net.cpp:367] relu0_0 -> conv0_0/bn (in-place)
I1216 09:09:15.811990  4784 net.cpp:122] Setting up relu0_0
I1216 09:09:15.812005  4784 net.cpp:129] Top shape: 1 32 55 123 (216480)
I1216 09:09:15.812011  4784 net.cpp:137] Memory required for data: 18795576
I1216 09:09:15.812016  4784 layer_factory.hpp:77] Creating layer conv0_0
I1216 09:09:15.812031  4784 net.cpp:84] Creating Layer conv0_0
I1216 09:09:15.812036  4784 net.cpp:406] conv0_0 <- conv0_0/bn
I1216 09:09:15.812045  4784 net.cpp:380] conv0_0 -> conv0_0
I1216 09:09:15.814182  4784 net.cpp:122] Setting up conv0_0
I1216 09:09:15.814220  4784 net.cpp:129] Top shape: 1 32 55 123 (216480)
I1216 09:09:15.814229  4784 net.cpp:137] Memory required for data: 19661496
I1216 09:09:15.814241  4784 layer_factory.hpp:77] Creating layer concat0_0
I1216 09:09:15.814256  4784 net.cpp:84] Creating Layer concat0_0
I1216 09:09:15.814265  4784 net.cpp:406] concat0_0 <- pool_init_pool_init_0_split_1
I1216 09:09:15.814273  4784 net.cpp:406] concat0_0 <- conv0_0
I1216 09:09:15.814282  4784 net.cpp:380] concat0_0 -> concat0_0
I1216 09:09:15.814340  4784 net.cpp:122] Setting up concat0_0
I1216 09:09:15.814352  4784 net.cpp:129] Top shape: 1 64 55 123 (432960)
I1216 09:09:15.814357  4784 net.cpp:137] Memory required for data: 21393336
I1216 09:09:15.814362  4784 layer_factory.hpp:77] Creating layer concat0_0_concat0_0_0_split
I1216 09:09:15.814370  4784 net.cpp:84] Creating Layer concat0_0_concat0_0_0_split
I1216 09:09:15.814375  4784 net.cpp:406] concat0_0_concat0_0_0_split <- concat0_0
I1216 09:09:15.814383  4784 net.cpp:380] concat0_0_concat0_0_0_split -> concat0_0_concat0_0_0_split_0
I1216 09:09:15.814390  4784 net.cpp:380] concat0_0_concat0_0_0_split -> concat0_0_concat0_0_0_split_1
I1216 09:09:15.814471  4784 net.cpp:122] Setting up concat0_0_concat0_0_0_split
I1216 09:09:15.814482  4784 net.cpp:129] Top shape: 1 64 55 123 (432960)
I1216 09:09:15.814488  4784 net.cpp:129] Top shape: 1 64 55 123 (432960)
I1216 09:09:15.814492  4784 net.cpp:137] Memory required for data: 24857016
I1216 09:09:15.814497  4784 layer_factory.hpp:77] Creating layer conv0_1/bn
I1216 09:09:15.814505  4784 net.cpp:84] Creating Layer conv0_1/bn
I1216 09:09:15.814510  4784 net.cpp:406] conv0_1/bn <- concat0_0_concat0_0_0_split_0
I1216 09:09:15.814517  4784 net.cpp:380] conv0_1/bn -> conv0_1/bn
I1216 09:09:15.814985  4784 net.cpp:122] Setting up conv0_1/bn
I1216 09:09:15.814998  4784 net.cpp:129] Top shape: 1 64 55 123 (432960)
I1216 09:09:15.815006  4784 net.cpp:137] Memory required for data: 26588856
I1216 09:09:15.815017  4784 layer_factory.hpp:77] Creating layer conv0_1/scale
I1216 09:09:15.815028  4784 net.cpp:84] Creating Layer conv0_1/scale
I1216 09:09:15.815034  4784 net.cpp:406] conv0_1/scale <- conv0_1/bn
I1216 09:09:15.815042  4784 net.cpp:367] conv0_1/scale -> conv0_1/bn (in-place)
I1216 09:09:15.815127  4784 layer_factory.hpp:77] Creating layer conv0_1/scale
I1216 09:09:15.815410  4784 net.cpp:122] Setting up conv0_1/scale
I1216 09:09:15.815424  4784 net.cpp:129] Top shape: 1 64 55 123 (432960)
I1216 09:09:15.815431  4784 net.cpp:137] Memory required for data: 28320696
I1216 09:09:15.815444  4784 layer_factory.hpp:77] Creating layer relu0_1
I1216 09:09:15.815456  4784 net.cpp:84] Creating Layer relu0_1
I1216 09:09:15.815462  4784 net.cpp:406] relu0_1 <- conv0_1/bn
I1216 09:09:15.815469  4784 net.cpp:367] relu0_1 -> conv0_1/bn (in-place)
I1216 09:09:15.815958  4784 net.cpp:122] Setting up relu0_1
I1216 09:09:15.815973  4784 net.cpp:129] Top shape: 1 64 55 123 (432960)
I1216 09:09:15.815984  4784 net.cpp:137] Memory required for data: 30052536
I1216 09:09:15.815990  4784 layer_factory.hpp:77] Creating layer conv0_1
I1216 09:09:15.816004  4784 net.cpp:84] Creating Layer conv0_1
I1216 09:09:15.816011  4784 net.cpp:406] conv0_1 <- conv0_1/bn
I1216 09:09:15.816020  4784 net.cpp:380] conv0_1 -> conv0_1
I1216 09:09:15.818362  4784 net.cpp:122] Setting up conv0_1
I1216 09:09:15.818379  4784 net.cpp:129] Top shape: 1 32 55 123 (216480)
I1216 09:09:15.818385  4784 net.cpp:137] Memory required for data: 30918456
I1216 09:09:15.818394  4784 layer_factory.hpp:77] Creating layer concat0_1
I1216 09:09:15.818403  4784 net.cpp:84] Creating Layer concat0_1
I1216 09:09:15.818409  4784 net.cpp:406] concat0_1 <- concat0_0_concat0_0_0_split_1
I1216 09:09:15.818416  4784 net.cpp:406] concat0_1 <- conv0_1
I1216 09:09:15.818423  4784 net.cpp:380] concat0_1 -> concat0_1
I1216 09:09:15.818476  4784 net.cpp:122] Setting up concat0_1
I1216 09:09:15.818490  4784 net.cpp:129] Top shape: 1 96 55 123 (649440)
I1216 09:09:15.818495  4784 net.cpp:137] Memory required for data: 33516216
I1216 09:09:15.818500  4784 layer_factory.hpp:77] Creating layer concat0_1_concat0_1_0_split
I1216 09:09:15.818507  4784 net.cpp:84] Creating Layer concat0_1_concat0_1_0_split
I1216 09:09:15.818513  4784 net.cpp:406] concat0_1_concat0_1_0_split <- concat0_1
I1216 09:09:15.818521  4784 net.cpp:380] concat0_1_concat0_1_0_split -> concat0_1_concat0_1_0_split_0
I1216 09:09:15.818528  4784 net.cpp:380] concat0_1_concat0_1_0_split -> concat0_1_concat0_1_0_split_1
I1216 09:09:15.818608  4784 net.cpp:122] Setting up concat0_1_concat0_1_0_split
I1216 09:09:15.818619  4784 net.cpp:129] Top shape: 1 96 55 123 (649440)
I1216 09:09:15.818626  4784 net.cpp:129] Top shape: 1 96 55 123 (649440)
I1216 09:09:15.818631  4784 net.cpp:137] Memory required for data: 38711736
I1216 09:09:15.818636  4784 layer_factory.hpp:77] Creating layer conv0_2/bn
I1216 09:09:15.818645  4784 net.cpp:84] Creating Layer conv0_2/bn
I1216 09:09:15.818650  4784 net.cpp:406] conv0_2/bn <- concat0_1_concat0_1_0_split_0
I1216 09:09:15.818657  4784 net.cpp:380] conv0_2/bn -> conv0_2/bn
I1216 09:09:15.819170  4784 net.cpp:122] Setting up conv0_2/bn
I1216 09:09:15.819183  4784 net.cpp:129] Top shape: 1 96 55 123 (649440)
I1216 09:09:15.819188  4784 net.cpp:137] Memory required for data: 41309496
I1216 09:09:15.819198  4784 layer_factory.hpp:77] Creating layer conv0_2/scale
I1216 09:09:15.819207  4784 net.cpp:84] Creating Layer conv0_2/scale
I1216 09:09:15.819213  4784 net.cpp:406] conv0_2/scale <- conv0_2/bn
I1216 09:09:15.819221  4784 net.cpp:367] conv0_2/scale -> conv0_2/bn (in-place)
I1216 09:09:15.819304  4784 layer_factory.hpp:77] Creating layer conv0_2/scale
I1216 09:09:15.819583  4784 net.cpp:122] Setting up conv0_2/scale
I1216 09:09:15.819597  4784 net.cpp:129] Top shape: 1 96 55 123 (649440)
I1216 09:09:15.819602  4784 net.cpp:137] Memory required for data: 43907256
I1216 09:09:15.819610  4784 layer_factory.hpp:77] Creating layer relu0_2
I1216 09:09:15.819618  4784 net.cpp:84] Creating Layer relu0_2
I1216 09:09:15.819624  4784 net.cpp:406] relu0_2 <- conv0_2/bn
I1216 09:09:15.819631  4784 net.cpp:367] relu0_2 -> conv0_2/bn (in-place)
I1216 09:09:15.819876  4784 net.cpp:122] Setting up relu0_2
I1216 09:09:15.819890  4784 net.cpp:129] Top shape: 1 96 55 123 (649440)
I1216 09:09:15.819896  4784 net.cpp:137] Memory required for data: 46505016
I1216 09:09:15.819902  4784 layer_factory.hpp:77] Creating layer conv0_2
I1216 09:09:15.819914  4784 net.cpp:84] Creating Layer conv0_2
I1216 09:09:15.819921  4784 net.cpp:406] conv0_2 <- conv0_2/bn
I1216 09:09:15.819929  4784 net.cpp:380] conv0_2 -> conv0_2
I1216 09:09:15.822767  4784 net.cpp:122] Setting up conv0_2
I1216 09:09:15.822785  4784 net.cpp:129] Top shape: 1 32 55 123 (216480)
I1216 09:09:15.822791  4784 net.cpp:137] Memory required for data: 47370936
I1216 09:09:15.822799  4784 layer_factory.hpp:77] Creating layer concat0_2
I1216 09:09:15.822808  4784 net.cpp:84] Creating Layer concat0_2
I1216 09:09:15.822814  4784 net.cpp:406] concat0_2 <- concat0_1_concat0_1_0_split_1
I1216 09:09:15.822826  4784 net.cpp:406] concat0_2 <- conv0_2
I1216 09:09:15.822835  4784 net.cpp:380] concat0_2 -> concat0_2
I1216 09:09:15.822890  4784 net.cpp:122] Setting up concat0_2
I1216 09:09:15.822902  4784 net.cpp:129] Top shape: 1 128 55 123 (865920)
I1216 09:09:15.822907  4784 net.cpp:137] Memory required for data: 50834616
I1216 09:09:15.822912  4784 layer_factory.hpp:77] Creating layer concat0_2_concat0_2_0_split
I1216 09:09:15.822921  4784 net.cpp:84] Creating Layer concat0_2_concat0_2_0_split
I1216 09:09:15.822926  4784 net.cpp:406] concat0_2_concat0_2_0_split <- concat0_2
I1216 09:09:15.822933  4784 net.cpp:380] concat0_2_concat0_2_0_split -> concat0_2_concat0_2_0_split_0
I1216 09:09:15.822942  4784 net.cpp:380] concat0_2_concat0_2_0_split -> concat0_2_concat0_2_0_split_1
I1216 09:09:15.823026  4784 net.cpp:122] Setting up concat0_2_concat0_2_0_split
I1216 09:09:15.823037  4784 net.cpp:129] Top shape: 1 128 55 123 (865920)
I1216 09:09:15.823045  4784 net.cpp:129] Top shape: 1 128 55 123 (865920)
I1216 09:09:15.823050  4784 net.cpp:137] Memory required for data: 57761976
I1216 09:09:15.823055  4784 layer_factory.hpp:77] Creating layer conv0_3/bn
I1216 09:09:15.823062  4784 net.cpp:84] Creating Layer conv0_3/bn
I1216 09:09:15.823068  4784 net.cpp:406] conv0_3/bn <- concat0_2_concat0_2_0_split_0
I1216 09:09:15.823076  4784 net.cpp:380] conv0_3/bn -> conv0_3/bn
I1216 09:09:15.823566  4784 net.cpp:122] Setting up conv0_3/bn
I1216 09:09:15.823580  4784 net.cpp:129] Top shape: 1 128 55 123 (865920)
I1216 09:09:15.823585  4784 net.cpp:137] Memory required for data: 61225656
I1216 09:09:15.823596  4784 layer_factory.hpp:77] Creating layer conv0_3/scale
I1216 09:09:15.823606  4784 net.cpp:84] Creating Layer conv0_3/scale
I1216 09:09:15.823611  4784 net.cpp:406] conv0_3/scale <- conv0_3/bn
I1216 09:09:15.823619  4784 net.cpp:367] conv0_3/scale -> conv0_3/bn (in-place)
I1216 09:09:15.823701  4784 layer_factory.hpp:77] Creating layer conv0_3/scale
I1216 09:09:15.823971  4784 net.cpp:122] Setting up conv0_3/scale
I1216 09:09:15.823983  4784 net.cpp:129] Top shape: 1 128 55 123 (865920)
I1216 09:09:15.823989  4784 net.cpp:137] Memory required for data: 64689336
I1216 09:09:15.823997  4784 layer_factory.hpp:77] Creating layer relu0_3
I1216 09:09:15.824007  4784 net.cpp:84] Creating Layer relu0_3
I1216 09:09:15.824012  4784 net.cpp:406] relu0_3 <- conv0_3/bn
I1216 09:09:15.824019  4784 net.cpp:367] relu0_3 -> conv0_3/bn (in-place)
I1216 09:09:15.824477  4784 net.cpp:122] Setting up relu0_3
I1216 09:09:15.824492  4784 net.cpp:129] Top shape: 1 128 55 123 (865920)
I1216 09:09:15.824498  4784 net.cpp:137] Memory required for data: 68153016
I1216 09:09:15.824504  4784 layer_factory.hpp:77] Creating layer conv0_3
I1216 09:09:15.824517  4784 net.cpp:84] Creating Layer conv0_3
I1216 09:09:15.824522  4784 net.cpp:406] conv0_3 <- conv0_3/bn
I1216 09:09:15.824532  4784 net.cpp:380] conv0_3 -> conv0_3
I1216 09:09:15.827659  4784 net.cpp:122] Setting up conv0_3
I1216 09:09:15.827677  4784 net.cpp:129] Top shape: 1 32 55 123 (216480)
I1216 09:09:15.827684  4784 net.cpp:137] Memory required for data: 69018936
I1216 09:09:15.827693  4784 layer_factory.hpp:77] Creating layer concat0_3
I1216 09:09:15.827703  4784 net.cpp:84] Creating Layer concat0_3
I1216 09:09:15.827709  4784 net.cpp:406] concat0_3 <- concat0_2_concat0_2_0_split_1
I1216 09:09:15.827716  4784 net.cpp:406] concat0_3 <- conv0_3
I1216 09:09:15.827724  4784 net.cpp:380] concat0_3 -> concat0_3
I1216 09:09:15.827785  4784 net.cpp:122] Setting up concat0_3
I1216 09:09:15.827798  4784 net.cpp:129] Top shape: 1 160 55 123 (1082400)
I1216 09:09:15.827803  4784 net.cpp:137] Memory required for data: 73348536
I1216 09:09:15.827808  4784 layer_factory.hpp:77] Creating layer concat0_3_concat0_3_0_split
I1216 09:09:15.827816  4784 net.cpp:84] Creating Layer concat0_3_concat0_3_0_split
I1216 09:09:15.827821  4784 net.cpp:406] concat0_3_concat0_3_0_split <- concat0_3
I1216 09:09:15.827826  4784 net.cpp:380] concat0_3_concat0_3_0_split -> concat0_3_concat0_3_0_split_0
I1216 09:09:15.827839  4784 net.cpp:380] concat0_3_concat0_3_0_split -> concat0_3_concat0_3_0_split_1
I1216 09:09:15.827922  4784 net.cpp:122] Setting up concat0_3_concat0_3_0_split
I1216 09:09:15.827934  4784 net.cpp:129] Top shape: 1 160 55 123 (1082400)
I1216 09:09:15.827940  4784 net.cpp:129] Top shape: 1 160 55 123 (1082400)
I1216 09:09:15.827945  4784 net.cpp:137] Memory required for data: 82007736
I1216 09:09:15.827950  4784 layer_factory.hpp:77] Creating layer conv0_4/bn
I1216 09:09:15.827960  4784 net.cpp:84] Creating Layer conv0_4/bn
I1216 09:09:15.827966  4784 net.cpp:406] conv0_4/bn <- concat0_3_concat0_3_0_split_0
I1216 09:09:15.827975  4784 net.cpp:380] conv0_4/bn -> conv0_4/bn
I1216 09:09:15.828491  4784 net.cpp:122] Setting up conv0_4/bn
I1216 09:09:15.828505  4784 net.cpp:129] Top shape: 1 160 55 123 (1082400)
I1216 09:09:15.828510  4784 net.cpp:137] Memory required for data: 86337336
I1216 09:09:15.828524  4784 layer_factory.hpp:77] Creating layer conv0_4/scale
I1216 09:09:15.828536  4784 net.cpp:84] Creating Layer conv0_4/scale
I1216 09:09:15.828541  4784 net.cpp:406] conv0_4/scale <- conv0_4/bn
I1216 09:09:15.828549  4784 net.cpp:367] conv0_4/scale -> conv0_4/bn (in-place)
I1216 09:09:15.828632  4784 layer_factory.hpp:77] Creating layer conv0_4/scale
I1216 09:09:15.828913  4784 net.cpp:122] Setting up conv0_4/scale
I1216 09:09:15.828927  4784 net.cpp:129] Top shape: 1 160 55 123 (1082400)
I1216 09:09:15.828933  4784 net.cpp:137] Memory required for data: 90666936
I1216 09:09:15.828941  4784 layer_factory.hpp:77] Creating layer relu0_4
I1216 09:09:15.828949  4784 net.cpp:84] Creating Layer relu0_4
I1216 09:09:15.828955  4784 net.cpp:406] relu0_4 <- conv0_4/bn
I1216 09:09:15.828963  4784 net.cpp:367] relu0_4 -> conv0_4/bn (in-place)
I1216 09:09:15.829428  4784 net.cpp:122] Setting up relu0_4
I1216 09:09:15.829443  4784 net.cpp:129] Top shape: 1 160 55 123 (1082400)
I1216 09:09:15.829449  4784 net.cpp:137] Memory required for data: 94996536
I1216 09:09:15.829455  4784 layer_factory.hpp:77] Creating layer conv0_4
I1216 09:09:15.829468  4784 net.cpp:84] Creating Layer conv0_4
I1216 09:09:15.829474  4784 net.cpp:406] conv0_4 <- conv0_4/bn
I1216 09:09:15.829483  4784 net.cpp:380] conv0_4 -> conv0_4
I1216 09:09:15.833673  4784 net.cpp:122] Setting up conv0_4
I1216 09:09:15.833694  4784 net.cpp:129] Top shape: 1 32 55 123 (216480)
I1216 09:09:15.833701  4784 net.cpp:137] Memory required for data: 95862456
I1216 09:09:15.833710  4784 layer_factory.hpp:77] Creating layer concat0_4
I1216 09:09:15.833720  4784 net.cpp:84] Creating Layer concat0_4
I1216 09:09:15.833727  4784 net.cpp:406] concat0_4 <- concat0_3_concat0_3_0_split_1
I1216 09:09:15.833735  4784 net.cpp:406] concat0_4 <- conv0_4
I1216 09:09:15.833744  4784 net.cpp:380] concat0_4 -> concat0_4
I1216 09:09:15.833801  4784 net.cpp:122] Setting up concat0_4
I1216 09:09:15.833813  4784 net.cpp:129] Top shape: 1 192 55 123 (1298880)
I1216 09:09:15.833818  4784 net.cpp:137] Memory required for data: 101057976
I1216 09:09:15.833823  4784 layer_factory.hpp:77] Creating layer concat0_4_concat0_4_0_split
I1216 09:09:15.833832  4784 net.cpp:84] Creating Layer concat0_4_concat0_4_0_split
I1216 09:09:15.833837  4784 net.cpp:406] concat0_4_concat0_4_0_split <- concat0_4
I1216 09:09:15.833844  4784 net.cpp:380] concat0_4_concat0_4_0_split -> concat0_4_concat0_4_0_split_0
I1216 09:09:15.833856  4784 net.cpp:380] concat0_4_concat0_4_0_split -> concat0_4_concat0_4_0_split_1
I1216 09:09:15.833943  4784 net.cpp:122] Setting up concat0_4_concat0_4_0_split
I1216 09:09:15.833957  4784 net.cpp:129] Top shape: 1 192 55 123 (1298880)
I1216 09:09:15.833964  4784 net.cpp:129] Top shape: 1 192 55 123 (1298880)
I1216 09:09:15.833968  4784 net.cpp:137] Memory required for data: 111449016
I1216 09:09:15.833973  4784 layer_factory.hpp:77] Creating layer conv0_5/bn
I1216 09:09:15.833982  4784 net.cpp:84] Creating Layer conv0_5/bn
I1216 09:09:15.833987  4784 net.cpp:406] conv0_5/bn <- concat0_4_concat0_4_0_split_0
I1216 09:09:15.833995  4784 net.cpp:380] conv0_5/bn -> conv0_5/bn
I1216 09:09:15.834553  4784 net.cpp:122] Setting up conv0_5/bn
I1216 09:09:15.834568  4784 net.cpp:129] Top shape: 1 192 55 123 (1298880)
I1216 09:09:15.834574  4784 net.cpp:137] Memory required for data: 116644536
I1216 09:09:15.834586  4784 layer_factory.hpp:77] Creating layer conv0_5/scale
I1216 09:09:15.834597  4784 net.cpp:84] Creating Layer conv0_5/scale
I1216 09:09:15.834602  4784 net.cpp:406] conv0_5/scale <- conv0_5/bn
I1216 09:09:15.834610  4784 net.cpp:367] conv0_5/scale -> conv0_5/bn (in-place)
I1216 09:09:15.834702  4784 layer_factory.hpp:77] Creating layer conv0_5/scale
I1216 09:09:15.835005  4784 net.cpp:122] Setting up conv0_5/scale
I1216 09:09:15.835021  4784 net.cpp:129] Top shape: 1 192 55 123 (1298880)
I1216 09:09:15.835026  4784 net.cpp:137] Memory required for data: 121840056
I1216 09:09:15.835036  4784 layer_factory.hpp:77] Creating layer relu0_5
I1216 09:09:15.835045  4784 net.cpp:84] Creating Layer relu0_5
I1216 09:09:15.835052  4784 net.cpp:406] relu0_5 <- conv0_5/bn
I1216 09:09:15.835058  4784 net.cpp:367] relu0_5 -> conv0_5/bn (in-place)
I1216 09:09:15.835325  4784 net.cpp:122] Setting up relu0_5
I1216 09:09:15.835340  4784 net.cpp:129] Top shape: 1 192 55 123 (1298880)
I1216 09:09:15.835346  4784 net.cpp:137] Memory required for data: 127035576
I1216 09:09:15.835352  4784 layer_factory.hpp:77] Creating layer conv0_5
I1216 09:09:15.835366  4784 net.cpp:84] Creating Layer conv0_5
I1216 09:09:15.835371  4784 net.cpp:406] conv0_5 <- conv0_5/bn
I1216 09:09:15.835381  4784 net.cpp:380] conv0_5 -> conv0_5
I1216 09:09:15.839550  4784 net.cpp:122] Setting up conv0_5
I1216 09:09:15.839586  4784 net.cpp:129] Top shape: 1 32 55 123 (216480)
I1216 09:09:15.839593  4784 net.cpp:137] Memory required for data: 127901496
I1216 09:09:15.839607  4784 layer_factory.hpp:77] Creating layer concat0_5
I1216 09:09:15.839622  4784 net.cpp:84] Creating Layer concat0_5
I1216 09:09:15.839630  4784 net.cpp:406] concat0_5 <- concat0_4_concat0_4_0_split_1
I1216 09:09:15.839639  4784 net.cpp:406] concat0_5 <- conv0_5
I1216 09:09:15.839648  4784 net.cpp:380] concat0_5 -> concat0_5
I1216 09:09:15.839709  4784 net.cpp:122] Setting up concat0_5
I1216 09:09:15.839722  4784 net.cpp:129] Top shape: 1 224 55 123 (1515360)
I1216 09:09:15.839727  4784 net.cpp:137] Memory required for data: 133962936
I1216 09:09:15.839733  4784 layer_factory.hpp:77] Creating layer concat0_5_concat0_5_0_split
I1216 09:09:15.839741  4784 net.cpp:84] Creating Layer concat0_5_concat0_5_0_split
I1216 09:09:15.839756  4784 net.cpp:406] concat0_5_concat0_5_0_split <- concat0_5
I1216 09:09:15.839766  4784 net.cpp:380] concat0_5_concat0_5_0_split -> concat0_5_concat0_5_0_split_0
I1216 09:09:15.839774  4784 net.cpp:380] concat0_5_concat0_5_0_split -> concat0_5_concat0_5_0_split_1
I1216 09:09:15.839861  4784 net.cpp:122] Setting up concat0_5_concat0_5_0_split
I1216 09:09:15.839874  4784 net.cpp:129] Top shape: 1 224 55 123 (1515360)
I1216 09:09:15.839881  4784 net.cpp:129] Top shape: 1 224 55 123 (1515360)
I1216 09:09:15.839885  4784 net.cpp:137] Memory required for data: 146085816
I1216 09:09:15.839890  4784 layer_factory.hpp:77] Creating layer conv0_6/bn
I1216 09:09:15.839900  4784 net.cpp:84] Creating Layer conv0_6/bn
I1216 09:09:15.839905  4784 net.cpp:406] conv0_6/bn <- concat0_5_concat0_5_0_split_0
I1216 09:09:15.839913  4784 net.cpp:380] conv0_6/bn -> conv0_6/bn
I1216 09:09:15.840487  4784 net.cpp:122] Setting up conv0_6/bn
I1216 09:09:15.840502  4784 net.cpp:129] Top shape: 1 224 55 123 (1515360)
I1216 09:09:15.840508  4784 net.cpp:137] Memory required for data: 152147256
I1216 09:09:15.840521  4784 layer_factory.hpp:77] Creating layer conv0_6/scale
I1216 09:09:15.840533  4784 net.cpp:84] Creating Layer conv0_6/scale
I1216 09:09:15.840539  4784 net.cpp:406] conv0_6/scale <- conv0_6/bn
I1216 09:09:15.840548  4784 net.cpp:367] conv0_6/scale -> conv0_6/bn (in-place)
I1216 09:09:15.840639  4784 layer_factory.hpp:77] Creating layer conv0_6/scale
I1216 09:09:15.840950  4784 net.cpp:122] Setting up conv0_6/scale
I1216 09:09:15.840965  4784 net.cpp:129] Top shape: 1 224 55 123 (1515360)
I1216 09:09:15.840976  4784 net.cpp:137] Memory required for data: 158208696
I1216 09:09:15.840987  4784 layer_factory.hpp:77] Creating layer relu0_6
I1216 09:09:15.840997  4784 net.cpp:84] Creating Layer relu0_6
I1216 09:09:15.841003  4784 net.cpp:406] relu0_6 <- conv0_6/bn
I1216 09:09:15.841012  4784 net.cpp:367] relu0_6 -> conv0_6/bn (in-place)
I1216 09:09:15.841549  4784 net.cpp:122] Setting up relu0_6
I1216 09:09:15.841564  4784 net.cpp:129] Top shape: 1 224 55 123 (1515360)
I1216 09:09:15.841570  4784 net.cpp:137] Memory required for data: 164270136
I1216 09:09:15.841576  4784 layer_factory.hpp:77] Creating layer conv0_6
I1216 09:09:15.841590  4784 net.cpp:84] Creating Layer conv0_6
I1216 09:09:15.841598  4784 net.cpp:406] conv0_6 <- conv0_6/bn
I1216 09:09:15.841606  4784 net.cpp:380] conv0_6 -> conv0_6
I1216 09:09:15.846266  4784 net.cpp:122] Setting up conv0_6
I1216 09:09:15.846304  4784 net.cpp:129] Top shape: 1 32 55 123 (216480)
I1216 09:09:15.846312  4784 net.cpp:137] Memory required for data: 165136056
I1216 09:09:15.846324  4784 layer_factory.hpp:77] Creating layer concat0_6
I1216 09:09:15.846340  4784 net.cpp:84] Creating Layer concat0_6
I1216 09:09:15.846349  4784 net.cpp:406] concat0_6 <- concat0_5_concat0_5_0_split_1
I1216 09:09:15.846359  4784 net.cpp:406] concat0_6 <- conv0_6
I1216 09:09:15.846367  4784 net.cpp:380] concat0_6 -> concat0_6
I1216 09:09:15.846428  4784 net.cpp:122] Setting up concat0_6
I1216 09:09:15.846441  4784 net.cpp:129] Top shape: 1 256 55 123 (1731840)
I1216 09:09:15.846446  4784 net.cpp:137] Memory required for data: 172063416
I1216 09:09:15.846451  4784 layer_factory.hpp:77] Creating layer concat0_6_concat0_6_0_split
I1216 09:09:15.846459  4784 net.cpp:84] Creating Layer concat0_6_concat0_6_0_split
I1216 09:09:15.846464  4784 net.cpp:406] concat0_6_concat0_6_0_split <- concat0_6
I1216 09:09:15.846472  4784 net.cpp:380] concat0_6_concat0_6_0_split -> concat0_6_concat0_6_0_split_0
I1216 09:09:15.846482  4784 net.cpp:380] concat0_6_concat0_6_0_split -> concat0_6_concat0_6_0_split_1
I1216 09:09:15.846568  4784 net.cpp:122] Setting up concat0_6_concat0_6_0_split
I1216 09:09:15.846580  4784 net.cpp:129] Top shape: 1 256 55 123 (1731840)
I1216 09:09:15.846586  4784 net.cpp:129] Top shape: 1 256 55 123 (1731840)
I1216 09:09:15.846591  4784 net.cpp:137] Memory required for data: 185918136
I1216 09:09:15.846596  4784 layer_factory.hpp:77] Creating layer conv0_7/bn
I1216 09:09:15.846606  4784 net.cpp:84] Creating Layer conv0_7/bn
I1216 09:09:15.846611  4784 net.cpp:406] conv0_7/bn <- concat0_6_concat0_6_0_split_0
I1216 09:09:15.846619  4784 net.cpp:380] conv0_7/bn -> conv0_7/bn
I1216 09:09:15.847151  4784 net.cpp:122] Setting up conv0_7/bn
I1216 09:09:15.847163  4784 net.cpp:129] Top shape: 1 256 55 123 (1731840)
I1216 09:09:15.847168  4784 net.cpp:137] Memory required for data: 192845496
I1216 09:09:15.847180  4784 layer_factory.hpp:77] Creating layer conv0_7/scale
I1216 09:09:15.847193  4784 net.cpp:84] Creating Layer conv0_7/scale
I1216 09:09:15.847198  4784 net.cpp:406] conv0_7/scale <- conv0_7/bn
I1216 09:09:15.847206  4784 net.cpp:367] conv0_7/scale -> conv0_7/bn (in-place)
I1216 09:09:15.847295  4784 layer_factory.hpp:77] Creating layer conv0_7/scale
I1216 09:09:15.847573  4784 net.cpp:122] Setting up conv0_7/scale
I1216 09:09:15.847585  4784 net.cpp:129] Top shape: 1 256 55 123 (1731840)
I1216 09:09:15.847590  4784 net.cpp:137] Memory required for data: 199772856
I1216 09:09:15.847600  4784 layer_factory.hpp:77] Creating layer relu0_7
I1216 09:09:15.847609  4784 net.cpp:84] Creating Layer relu0_7
I1216 09:09:15.847615  4784 net.cpp:406] relu0_7 <- conv0_7/bn
I1216 09:09:15.847622  4784 net.cpp:367] relu0_7 -> conv0_7/bn (in-place)
I1216 09:09:15.847903  4784 net.cpp:122] Setting up relu0_7
I1216 09:09:15.847918  4784 net.cpp:129] Top shape: 1 256 55 123 (1731840)
I1216 09:09:15.847923  4784 net.cpp:137] Memory required for data: 206700216
I1216 09:09:15.847929  4784 layer_factory.hpp:77] Creating layer conv0_7
I1216 09:09:15.847944  4784 net.cpp:84] Creating Layer conv0_7
I1216 09:09:15.847957  4784 net.cpp:406] conv0_7 <- conv0_7/bn
I1216 09:09:15.847967  4784 net.cpp:380] conv0_7 -> conv0_7
I1216 09:09:15.853612  4784 net.cpp:122] Setting up conv0_7
I1216 09:09:15.853652  4784 net.cpp:129] Top shape: 1 32 55 123 (216480)
I1216 09:09:15.853659  4784 net.cpp:137] Memory required for data: 207566136
I1216 09:09:15.853672  4784 layer_factory.hpp:77] Creating layer concat0_7
I1216 09:09:15.853685  4784 net.cpp:84] Creating Layer concat0_7
I1216 09:09:15.853694  4784 net.cpp:406] concat0_7 <- concat0_6_concat0_6_0_split_1
I1216 09:09:15.853703  4784 net.cpp:406] concat0_7 <- conv0_7
I1216 09:09:15.853711  4784 net.cpp:380] concat0_7 -> concat0_7
I1216 09:09:15.853775  4784 net.cpp:122] Setting up concat0_7
I1216 09:09:15.853787  4784 net.cpp:129] Top shape: 1 288 55 123 (1948320)
I1216 09:09:15.853792  4784 net.cpp:137] Memory required for data: 215359416
I1216 09:09:15.853796  4784 layer_factory.hpp:77] Creating layer concat0_7_concat0_7_0_split
I1216 09:09:15.853806  4784 net.cpp:84] Creating Layer concat0_7_concat0_7_0_split
I1216 09:09:15.853811  4784 net.cpp:406] concat0_7_concat0_7_0_split <- concat0_7
I1216 09:09:15.853818  4784 net.cpp:380] concat0_7_concat0_7_0_split -> concat0_7_concat0_7_0_split_0
I1216 09:09:15.853827  4784 net.cpp:380] concat0_7_concat0_7_0_split -> concat0_7_concat0_7_0_split_1
I1216 09:09:15.853919  4784 net.cpp:122] Setting up concat0_7_concat0_7_0_split
I1216 09:09:15.853932  4784 net.cpp:129] Top shape: 1 288 55 123 (1948320)
I1216 09:09:15.853940  4784 net.cpp:129] Top shape: 1 288 55 123 (1948320)
I1216 09:09:15.853945  4784 net.cpp:137] Memory required for data: 230945976
I1216 09:09:15.853950  4784 layer_factory.hpp:77] Creating layer conv0_8/bn
I1216 09:09:15.853958  4784 net.cpp:84] Creating Layer conv0_8/bn
I1216 09:09:15.853965  4784 net.cpp:406] conv0_8/bn <- concat0_7_concat0_7_0_split_0
I1216 09:09:15.853972  4784 net.cpp:380] conv0_8/bn -> conv0_8/bn
I1216 09:09:15.854570  4784 net.cpp:122] Setting up conv0_8/bn
I1216 09:09:15.854586  4784 net.cpp:129] Top shape: 1 288 55 123 (1948320)
I1216 09:09:15.854593  4784 net.cpp:137] Memory required for data: 238739256
I1216 09:09:15.854604  4784 layer_factory.hpp:77] Creating layer conv0_8/scale
I1216 09:09:15.854614  4784 net.cpp:84] Creating Layer conv0_8/scale
I1216 09:09:15.854619  4784 net.cpp:406] conv0_8/scale <- conv0_8/bn
I1216 09:09:15.854627  4784 net.cpp:367] conv0_8/scale -> conv0_8/bn (in-place)
I1216 09:09:15.854724  4784 layer_factory.hpp:77] Creating layer conv0_8/scale
I1216 09:09:15.855018  4784 net.cpp:122] Setting up conv0_8/scale
I1216 09:09:15.855032  4784 net.cpp:129] Top shape: 1 288 55 123 (1948320)
I1216 09:09:15.855037  4784 net.cpp:137] Memory required for data: 246532536
I1216 09:09:15.855046  4784 layer_factory.hpp:77] Creating layer relu0_8
I1216 09:09:15.855056  4784 net.cpp:84] Creating Layer relu0_8
I1216 09:09:15.855062  4784 net.cpp:406] relu0_8 <- conv0_8/bn
I1216 09:09:15.855068  4784 net.cpp:367] relu0_8 -> conv0_8/bn (in-place)
I1216 09:09:15.855599  4784 net.cpp:122] Setting up relu0_8
I1216 09:09:15.855617  4784 net.cpp:129] Top shape: 1 288 55 123 (1948320)
I1216 09:09:15.855623  4784 net.cpp:137] Memory required for data: 254325816
I1216 09:09:15.855628  4784 layer_factory.hpp:77] Creating layer conv0_8
I1216 09:09:15.855643  4784 net.cpp:84] Creating Layer conv0_8
I1216 09:09:15.855649  4784 net.cpp:406] conv0_8 <- conv0_8/bn
I1216 09:09:15.855659  4784 net.cpp:380] conv0_8 -> conv0_8
I1216 09:09:15.860867  4784 net.cpp:122] Setting up conv0_8
I1216 09:09:15.860904  4784 net.cpp:129] Top shape: 1 32 55 123 (216480)
I1216 09:09:15.860911  4784 net.cpp:137] Memory required for data: 255191736
I1216 09:09:15.860924  4784 layer_factory.hpp:77] Creating layer concat0_8
I1216 09:09:15.860939  4784 net.cpp:84] Creating Layer concat0_8
I1216 09:09:15.860946  4784 net.cpp:406] concat0_8 <- concat0_7_concat0_7_0_split_1
I1216 09:09:15.860955  4784 net.cpp:406] concat0_8 <- conv0_8
I1216 09:09:15.860963  4784 net.cpp:380] concat0_8 -> concat0_8
I1216 09:09:15.861033  4784 net.cpp:122] Setting up concat0_8
I1216 09:09:15.861045  4784 net.cpp:129] Top shape: 1 320 55 123 (2164800)
I1216 09:09:15.861050  4784 net.cpp:137] Memory required for data: 263850936
I1216 09:09:15.861055  4784 layer_factory.hpp:77] Creating layer concat0_8_concat0_8_0_split
I1216 09:09:15.861063  4784 net.cpp:84] Creating Layer concat0_8_concat0_8_0_split
I1216 09:09:15.861068  4784 net.cpp:406] concat0_8_concat0_8_0_split <- concat0_8
I1216 09:09:15.861076  4784 net.cpp:380] concat0_8_concat0_8_0_split -> concat0_8_concat0_8_0_split_0
I1216 09:09:15.861085  4784 net.cpp:380] concat0_8_concat0_8_0_split -> concat0_8_concat0_8_0_split_1
I1216 09:09:15.861178  4784 net.cpp:122] Setting up concat0_8_concat0_8_0_split
I1216 09:09:15.861191  4784 net.cpp:129] Top shape: 1 320 55 123 (2164800)
I1216 09:09:15.861197  4784 net.cpp:129] Top shape: 1 320 55 123 (2164800)
I1216 09:09:15.861202  4784 net.cpp:137] Memory required for data: 281169336
I1216 09:09:15.861207  4784 layer_factory.hpp:77] Creating layer conv0_9/bn
I1216 09:09:15.861217  4784 net.cpp:84] Creating Layer conv0_9/bn
I1216 09:09:15.861223  4784 net.cpp:406] conv0_9/bn <- concat0_8_concat0_8_0_split_0
I1216 09:09:15.861230  4784 net.cpp:380] conv0_9/bn -> conv0_9/bn
I1216 09:09:15.861848  4784 net.cpp:122] Setting up conv0_9/bn
I1216 09:09:15.861863  4784 net.cpp:129] Top shape: 1 320 55 123 (2164800)
I1216 09:09:15.861870  4784 net.cpp:137] Memory required for data: 289828536
I1216 09:09:15.861881  4784 layer_factory.hpp:77] Creating layer conv0_9/scale
I1216 09:09:15.861892  4784 net.cpp:84] Creating Layer conv0_9/scale
I1216 09:09:15.861898  4784 net.cpp:406] conv0_9/scale <- conv0_9/bn
I1216 09:09:15.861907  4784 net.cpp:367] conv0_9/scale -> conv0_9/bn (in-place)
I1216 09:09:15.862004  4784 layer_factory.hpp:77] Creating layer conv0_9/scale
I1216 09:09:15.862318  4784 net.cpp:122] Setting up conv0_9/scale
I1216 09:09:15.862332  4784 net.cpp:129] Top shape: 1 320 55 123 (2164800)
I1216 09:09:15.862337  4784 net.cpp:137] Memory required for data: 298487736
I1216 09:09:15.862352  4784 layer_factory.hpp:77] Creating layer relu0_9
I1216 09:09:15.862365  4784 net.cpp:84] Creating Layer relu0_9
I1216 09:09:15.862370  4784 net.cpp:406] relu0_9 <- conv0_9/bn
I1216 09:09:15.862378  4784 net.cpp:367] relu0_9 -> conv0_9/bn (in-place)
I1216 09:09:15.862841  4784 net.cpp:122] Setting up relu0_9
I1216 09:09:15.862857  4784 net.cpp:129] Top shape: 1 320 55 123 (2164800)
I1216 09:09:15.862864  4784 net.cpp:137] Memory required for data: 307146936
I1216 09:09:15.862870  4784 layer_factory.hpp:77] Creating layer conv0_9
I1216 09:09:15.862884  4784 net.cpp:84] Creating Layer conv0_9
I1216 09:09:15.862891  4784 net.cpp:406] conv0_9 <- conv0_9/bn
I1216 09:09:15.862900  4784 net.cpp:380] conv0_9 -> conv0_9
I1216 09:09:15.868345  4784 net.cpp:122] Setting up conv0_9
I1216 09:09:15.868377  4784 net.cpp:129] Top shape: 1 32 55 123 (216480)
I1216 09:09:15.868386  4784 net.cpp:137] Memory required for data: 308012856
I1216 09:09:15.868397  4784 layer_factory.hpp:77] Creating layer concat0_9
I1216 09:09:15.868412  4784 net.cpp:84] Creating Layer concat0_9
I1216 09:09:15.868419  4784 net.cpp:406] concat0_9 <- concat0_8_concat0_8_0_split_1
I1216 09:09:15.868429  4784 net.cpp:406] concat0_9 <- conv0_9
I1216 09:09:15.868438  4784 net.cpp:380] concat0_9 -> concat0_9
I1216 09:09:15.868500  4784 net.cpp:122] Setting up concat0_9
I1216 09:09:15.868512  4784 net.cpp:129] Top shape: 1 352 55 123 (2381280)
I1216 09:09:15.868517  4784 net.cpp:137] Memory required for data: 317537976
I1216 09:09:15.868522  4784 layer_factory.hpp:77] Creating layer concat0_9_concat0_9_0_split
I1216 09:09:15.868530  4784 net.cpp:84] Creating Layer concat0_9_concat0_9_0_split
I1216 09:09:15.868535  4784 net.cpp:406] concat0_9_concat0_9_0_split <- concat0_9
I1216 09:09:15.868543  4784 net.cpp:380] concat0_9_concat0_9_0_split -> concat0_9_concat0_9_0_split_0
I1216 09:09:15.868553  4784 net.cpp:380] concat0_9_concat0_9_0_split -> concat0_9_concat0_9_0_split_1
I1216 09:09:15.868646  4784 net.cpp:122] Setting up concat0_9_concat0_9_0_split
I1216 09:09:15.868664  4784 net.cpp:129] Top shape: 1 352 55 123 (2381280)
I1216 09:09:15.868671  4784 net.cpp:129] Top shape: 1 352 55 123 (2381280)
I1216 09:09:15.868676  4784 net.cpp:137] Memory required for data: 336588216
I1216 09:09:15.868681  4784 layer_factory.hpp:77] Creating layer conv0_10/bn
I1216 09:09:15.868691  4784 net.cpp:84] Creating Layer conv0_10/bn
I1216 09:09:15.868697  4784 net.cpp:406] conv0_10/bn <- concat0_9_concat0_9_0_split_0
I1216 09:09:15.868705  4784 net.cpp:380] conv0_10/bn -> conv0_10/bn
I1216 09:09:15.869324  4784 net.cpp:122] Setting up conv0_10/bn
I1216 09:09:15.869340  4784 net.cpp:129] Top shape: 1 352 55 123 (2381280)
I1216 09:09:15.869346  4784 net.cpp:137] Memory required for data: 346113336
I1216 09:09:15.869359  4784 layer_factory.hpp:77] Creating layer conv0_10/scale
I1216 09:09:15.869370  4784 net.cpp:84] Creating Layer conv0_10/scale
I1216 09:09:15.869376  4784 net.cpp:406] conv0_10/scale <- conv0_10/bn
I1216 09:09:15.869384  4784 net.cpp:367] conv0_10/scale -> conv0_10/bn (in-place)
I1216 09:09:15.869483  4784 layer_factory.hpp:77] Creating layer conv0_10/scale
I1216 09:09:15.869804  4784 net.cpp:122] Setting up conv0_10/scale
I1216 09:09:15.869820  4784 net.cpp:129] Top shape: 1 352 55 123 (2381280)
I1216 09:09:15.869827  4784 net.cpp:137] Memory required for data: 355638456
I1216 09:09:15.869835  4784 layer_factory.hpp:77] Creating layer relu0_10
I1216 09:09:15.869845  4784 net.cpp:84] Creating Layer relu0_10
I1216 09:09:15.869850  4784 net.cpp:406] relu0_10 <- conv0_10/bn
I1216 09:09:15.869858  4784 net.cpp:367] relu0_10 -> conv0_10/bn (in-place)
I1216 09:09:15.870126  4784 net.cpp:122] Setting up relu0_10
I1216 09:09:15.870141  4784 net.cpp:129] Top shape: 1 352 55 123 (2381280)
I1216 09:09:15.870147  4784 net.cpp:137] Memory required for data: 365163576
I1216 09:09:15.870153  4784 layer_factory.hpp:77] Creating layer conv0_10
I1216 09:09:15.870167  4784 net.cpp:84] Creating Layer conv0_10
I1216 09:09:15.870172  4784 net.cpp:406] conv0_10 <- conv0_10/bn
I1216 09:09:15.870182  4784 net.cpp:380] conv0_10 -> conv0_10
I1216 09:09:15.876818  4784 net.cpp:122] Setting up conv0_10
I1216 09:09:15.876854  4784 net.cpp:129] Top shape: 1 32 55 123 (216480)
I1216 09:09:15.876862  4784 net.cpp:137] Memory required for data: 366029496
I1216 09:09:15.876873  4784 layer_factory.hpp:77] Creating layer concat0_10
I1216 09:09:15.876888  4784 net.cpp:84] Creating Layer concat0_10
I1216 09:09:15.876896  4784 net.cpp:406] concat0_10 <- concat0_9_concat0_9_0_split_1
I1216 09:09:15.876905  4784 net.cpp:406] concat0_10 <- conv0_10
I1216 09:09:15.876914  4784 net.cpp:380] concat0_10 -> concat0_10
I1216 09:09:15.876977  4784 net.cpp:122] Setting up concat0_10
I1216 09:09:15.876989  4784 net.cpp:129] Top shape: 1 384 55 123 (2597760)
I1216 09:09:15.876994  4784 net.cpp:137] Memory required for data: 376420536
I1216 09:09:15.876999  4784 layer_factory.hpp:77] Creating layer concat0_10_concat0_10_0_split
I1216 09:09:15.877008  4784 net.cpp:84] Creating Layer concat0_10_concat0_10_0_split
I1216 09:09:15.877013  4784 net.cpp:406] concat0_10_concat0_10_0_split <- concat0_10
I1216 09:09:15.877020  4784 net.cpp:380] concat0_10_concat0_10_0_split -> concat0_10_concat0_10_0_split_0
I1216 09:09:15.877030  4784 net.cpp:380] concat0_10_concat0_10_0_split -> concat0_10_concat0_10_0_split_1
I1216 09:09:15.877123  4784 net.cpp:122] Setting up concat0_10_concat0_10_0_split
I1216 09:09:15.877135  4784 net.cpp:129] Top shape: 1 384 55 123 (2597760)
I1216 09:09:15.877141  4784 net.cpp:129] Top shape: 1 384 55 123 (2597760)
I1216 09:09:15.877146  4784 net.cpp:137] Memory required for data: 397202616
I1216 09:09:15.877151  4784 layer_factory.hpp:77] Creating layer conv0_11/bn
I1216 09:09:15.877159  4784 net.cpp:84] Creating Layer conv0_11/bn
I1216 09:09:15.877166  4784 net.cpp:406] conv0_11/bn <- concat0_10_concat0_10_0_split_0
I1216 09:09:15.877173  4784 net.cpp:380] conv0_11/bn -> conv0_11/bn
I1216 09:09:15.877800  4784 net.cpp:122] Setting up conv0_11/bn
I1216 09:09:15.877821  4784 net.cpp:129] Top shape: 1 384 55 123 (2597760)
I1216 09:09:15.877828  4784 net.cpp:137] Memory required for data: 407593656
I1216 09:09:15.877840  4784 layer_factory.hpp:77] Creating layer conv0_11/scale
I1216 09:09:15.877852  4784 net.cpp:84] Creating Layer conv0_11/scale
I1216 09:09:15.877858  4784 net.cpp:406] conv0_11/scale <- conv0_11/bn
I1216 09:09:15.877866  4784 net.cpp:367] conv0_11/scale -> conv0_11/bn (in-place)
I1216 09:09:15.877956  4784 layer_factory.hpp:77] Creating layer conv0_11/scale
I1216 09:09:15.878269  4784 net.cpp:122] Setting up conv0_11/scale
I1216 09:09:15.878283  4784 net.cpp:129] Top shape: 1 384 55 123 (2597760)
I1216 09:09:15.878288  4784 net.cpp:137] Memory required for data: 417984696
I1216 09:09:15.878298  4784 layer_factory.hpp:77] Creating layer relu0_11
I1216 09:09:15.878307  4784 net.cpp:84] Creating Layer relu0_11
I1216 09:09:15.878314  4784 net.cpp:406] relu0_11 <- conv0_11/bn
I1216 09:09:15.878320  4784 net.cpp:367] relu0_11 -> conv0_11/bn (in-place)
I1216 09:09:15.878793  4784 net.cpp:122] Setting up relu0_11
I1216 09:09:15.878809  4784 net.cpp:129] Top shape: 1 384 55 123 (2597760)
I1216 09:09:15.878815  4784 net.cpp:137] Memory required for data: 428375736
I1216 09:09:15.878821  4784 layer_factory.hpp:77] Creating layer conv0_11
I1216 09:09:15.878835  4784 net.cpp:84] Creating Layer conv0_11
I1216 09:09:15.878841  4784 net.cpp:406] conv0_11 <- conv0_11/bn
I1216 09:09:15.878850  4784 net.cpp:380] conv0_11 -> conv0_11
I1216 09:09:15.884866  4784 net.cpp:122] Setting up conv0_11
I1216 09:09:15.884887  4784 net.cpp:129] Top shape: 1 32 55 123 (216480)
I1216 09:09:15.884893  4784 net.cpp:137] Memory required for data: 429241656
I1216 09:09:15.884902  4784 layer_factory.hpp:77] Creating layer concat0_11
I1216 09:09:15.884913  4784 net.cpp:84] Creating Layer concat0_11
I1216 09:09:15.884920  4784 net.cpp:406] concat0_11 <- concat0_10_concat0_10_0_split_1
I1216 09:09:15.884928  4784 net.cpp:406] concat0_11 <- conv0_11
I1216 09:09:15.884937  4784 net.cpp:380] concat0_11 -> concat0_11
I1216 09:09:15.884994  4784 net.cpp:122] Setting up concat0_11
I1216 09:09:15.885004  4784 net.cpp:129] Top shape: 1 416 55 123 (2814240)
I1216 09:09:15.885010  4784 net.cpp:137] Memory required for data: 440498616
I1216 09:09:15.885015  4784 layer_factory.hpp:77] Creating layer BatchNorm1
I1216 09:09:15.885025  4784 net.cpp:84] Creating Layer BatchNorm1
I1216 09:09:15.885030  4784 net.cpp:406] BatchNorm1 <- concat0_11
I1216 09:09:15.885038  4784 net.cpp:380] BatchNorm1 -> BatchNorm1
I1216 09:09:15.885603  4784 net.cpp:122] Setting up BatchNorm1
I1216 09:09:15.885615  4784 net.cpp:129] Top shape: 1 416 55 123 (2814240)
I1216 09:09:15.885622  4784 net.cpp:137] Memory required for data: 451755576
I1216 09:09:15.885633  4784 layer_factory.hpp:77] Creating layer Scale1
I1216 09:09:15.885643  4784 net.cpp:84] Creating Layer Scale1
I1216 09:09:15.885649  4784 net.cpp:406] Scale1 <- BatchNorm1
I1216 09:09:15.885658  4784 net.cpp:367] Scale1 -> BatchNorm1 (in-place)
I1216 09:09:15.885749  4784 layer_factory.hpp:77] Creating layer Scale1
I1216 09:09:15.886775  4784 net.cpp:122] Setting up Scale1
I1216 09:09:15.886791  4784 net.cpp:129] Top shape: 1 416 55 123 (2814240)
I1216 09:09:15.886797  4784 net.cpp:137] Memory required for data: 463012536
I1216 09:09:15.886807  4784 layer_factory.hpp:77] Creating layer ReLU1
I1216 09:09:15.886817  4784 net.cpp:84] Creating Layer ReLU1
I1216 09:09:15.886823  4784 net.cpp:406] ReLU1 <- BatchNorm1
I1216 09:09:15.886831  4784 net.cpp:367] ReLU1 -> BatchNorm1 (in-place)
I1216 09:09:15.887099  4784 net.cpp:122] Setting up ReLU1
I1216 09:09:15.887111  4784 net.cpp:129] Top shape: 1 416 55 123 (2814240)
I1216 09:09:15.887117  4784 net.cpp:137] Memory required for data: 474269496
I1216 09:09:15.887123  4784 layer_factory.hpp:77] Creating layer conv0_blk
I1216 09:09:15.887135  4784 net.cpp:84] Creating Layer conv0_blk
I1216 09:09:15.887142  4784 net.cpp:406] conv0_blk <- BatchNorm1
I1216 09:09:15.887151  4784 net.cpp:380] conv0_blk -> conv0_blk
I1216 09:09:15.895864  4784 net.cpp:122] Setting up conv0_blk
I1216 09:09:15.895887  4784 net.cpp:129] Top shape: 1 416 55 123 (2814240)
I1216 09:09:15.895894  4784 net.cpp:137] Memory required for data: 485526456
I1216 09:09:15.895902  4784 layer_factory.hpp:77] Creating layer pool0
I1216 09:09:15.895913  4784 net.cpp:84] Creating Layer pool0
I1216 09:09:15.895920  4784 net.cpp:406] pool0 <- conv0_blk
I1216 09:09:15.895928  4784 net.cpp:380] pool0 -> pool0
I1216 09:09:15.896414  4784 net.cpp:122] Setting up pool0
I1216 09:09:15.896427  4784 net.cpp:129] Top shape: 1 416 28 62 (722176)
I1216 09:09:15.896433  4784 net.cpp:137] Memory required for data: 488415160
I1216 09:09:15.896438  4784 layer_factory.hpp:77] Creating layer pool0_pool0_0_split
I1216 09:09:15.896446  4784 net.cpp:84] Creating Layer pool0_pool0_0_split
I1216 09:09:15.896452  4784 net.cpp:406] pool0_pool0_0_split <- pool0
I1216 09:09:15.896459  4784 net.cpp:380] pool0_pool0_0_split -> pool0_pool0_0_split_0
I1216 09:09:15.896468  4784 net.cpp:380] pool0_pool0_0_split -> pool0_pool0_0_split_1
I1216 09:09:15.896546  4784 net.cpp:122] Setting up pool0_pool0_0_split
I1216 09:09:15.896556  4784 net.cpp:129] Top shape: 1 416 28 62 (722176)
I1216 09:09:15.896562  4784 net.cpp:129] Top shape: 1 416 28 62 (722176)
I1216 09:09:15.896566  4784 net.cpp:137] Memory required for data: 494192568
I1216 09:09:15.896571  4784 layer_factory.hpp:77] Creating layer conv1_0/bn
I1216 09:09:15.896580  4784 net.cpp:84] Creating Layer conv1_0/bn
I1216 09:09:15.896585  4784 net.cpp:406] conv1_0/bn <- pool0_pool0_0_split_0
I1216 09:09:15.896592  4784 net.cpp:380] conv1_0/bn -> conv1_0/bn
I1216 09:09:15.897812  4784 net.cpp:122] Setting up conv1_0/bn
I1216 09:09:15.897831  4784 net.cpp:129] Top shape: 1 416 28 62 (722176)
I1216 09:09:15.897836  4784 net.cpp:137] Memory required for data: 497081272
I1216 09:09:15.897850  4784 layer_factory.hpp:77] Creating layer conv1_0/scale
I1216 09:09:15.897861  4784 net.cpp:84] Creating Layer conv1_0/scale
I1216 09:09:15.897867  4784 net.cpp:406] conv1_0/scale <- conv1_0/bn
I1216 09:09:15.897874  4784 net.cpp:367] conv1_0/scale -> conv1_0/bn (in-place)
I1216 09:09:15.897971  4784 layer_factory.hpp:77] Creating layer conv1_0/scale
I1216 09:09:15.898249  4784 net.cpp:122] Setting up conv1_0/scale
I1216 09:09:15.898260  4784 net.cpp:129] Top shape: 1 416 28 62 (722176)
I1216 09:09:15.898264  4784 net.cpp:137] Memory required for data: 499969976
I1216 09:09:15.898273  4784 layer_factory.hpp:77] Creating layer relu1_0
I1216 09:09:15.898281  4784 net.cpp:84] Creating Layer relu1_0
I1216 09:09:15.898286  4784 net.cpp:406] relu1_0 <- conv1_0/bn
I1216 09:09:15.898293  4784 net.cpp:367] relu1_0 -> conv1_0/bn (in-place)
I1216 09:09:15.898768  4784 net.cpp:122] Setting up relu1_0
I1216 09:09:15.898782  4784 net.cpp:129] Top shape: 1 416 28 62 (722176)
I1216 09:09:15.898787  4784 net.cpp:137] Memory required for data: 502858680
I1216 09:09:15.898792  4784 layer_factory.hpp:77] Creating layer conv1_0
I1216 09:09:15.898808  4784 net.cpp:84] Creating Layer conv1_0
I1216 09:09:15.898813  4784 net.cpp:406] conv1_0 <- conv1_0/bn
I1216 09:09:15.898821  4784 net.cpp:380] conv1_0 -> conv1_0
I1216 09:09:15.905941  4784 net.cpp:122] Setting up conv1_0
I1216 09:09:15.905972  4784 net.cpp:129] Top shape: 1 32 28 62 (55552)
I1216 09:09:15.905979  4784 net.cpp:137] Memory required for data: 503080888
I1216 09:09:15.905992  4784 layer_factory.hpp:77] Creating layer concat1_0
I1216 09:09:15.906004  4784 net.cpp:84] Creating Layer concat1_0
I1216 09:09:15.906013  4784 net.cpp:406] concat1_0 <- pool0_pool0_0_split_1
I1216 09:09:15.906023  4784 net.cpp:406] concat1_0 <- conv1_0
I1216 09:09:15.906033  4784 net.cpp:380] concat1_0 -> concat1_0
I1216 09:09:15.906095  4784 net.cpp:122] Setting up concat1_0
I1216 09:09:15.906107  4784 net.cpp:129] Top shape: 1 448 28 62 (777728)
I1216 09:09:15.906111  4784 net.cpp:137] Memory required for data: 506191800
I1216 09:09:15.906117  4784 layer_factory.hpp:77] Creating layer concat1_0_concat1_0_0_split
I1216 09:09:15.906126  4784 net.cpp:84] Creating Layer concat1_0_concat1_0_0_split
I1216 09:09:15.906136  4784 net.cpp:406] concat1_0_concat1_0_0_split <- concat1_0
I1216 09:09:15.906146  4784 net.cpp:380] concat1_0_concat1_0_0_split -> concat1_0_concat1_0_0_split_0
I1216 09:09:15.906155  4784 net.cpp:380] concat1_0_concat1_0_0_split -> concat1_0_concat1_0_0_split_1
I1216 09:09:15.906252  4784 net.cpp:122] Setting up concat1_0_concat1_0_0_split
I1216 09:09:15.906265  4784 net.cpp:129] Top shape: 1 448 28 62 (777728)
I1216 09:09:15.906272  4784 net.cpp:129] Top shape: 1 448 28 62 (777728)
I1216 09:09:15.906277  4784 net.cpp:137] Memory required for data: 512413624
I1216 09:09:15.906282  4784 layer_factory.hpp:77] Creating layer conv1_1/bn
I1216 09:09:15.906291  4784 net.cpp:84] Creating Layer conv1_1/bn
I1216 09:09:15.906297  4784 net.cpp:406] conv1_1/bn <- concat1_0_concat1_0_0_split_0
I1216 09:09:15.906308  4784 net.cpp:380] conv1_1/bn -> conv1_1/bn
I1216 09:09:15.906942  4784 net.cpp:122] Setting up conv1_1/bn
I1216 09:09:15.906955  4784 net.cpp:129] Top shape: 1 448 28 62 (777728)
I1216 09:09:15.906960  4784 net.cpp:137] Memory required for data: 515524536
I1216 09:09:15.906971  4784 layer_factory.hpp:77] Creating layer conv1_1/scale
I1216 09:09:15.906983  4784 net.cpp:84] Creating Layer conv1_1/scale
I1216 09:09:15.906989  4784 net.cpp:406] conv1_1/scale <- conv1_1/bn
I1216 09:09:15.906998  4784 net.cpp:367] conv1_1/scale -> conv1_1/bn (in-place)
I1216 09:09:15.907102  4784 layer_factory.hpp:77] Creating layer conv1_1/scale
I1216 09:09:15.907425  4784 net.cpp:122] Setting up conv1_1/scale
I1216 09:09:15.907438  4784 net.cpp:129] Top shape: 1 448 28 62 (777728)
I1216 09:09:15.907444  4784 net.cpp:137] Memory required for data: 518635448
I1216 09:09:15.907452  4784 layer_factory.hpp:77] Creating layer relu1_1
I1216 09:09:15.907461  4784 net.cpp:84] Creating Layer relu1_1
I1216 09:09:15.907466  4784 net.cpp:406] relu1_1 <- conv1_1/bn
I1216 09:09:15.907474  4784 net.cpp:367] relu1_1 -> conv1_1/bn (in-place)
I1216 09:09:15.907958  4784 net.cpp:122] Setting up relu1_1
I1216 09:09:15.907974  4784 net.cpp:129] Top shape: 1 448 28 62 (777728)
I1216 09:09:15.907979  4784 net.cpp:137] Memory required for data: 521746360
I1216 09:09:15.907984  4784 layer_factory.hpp:77] Creating layer conv1_1
I1216 09:09:15.907999  4784 net.cpp:84] Creating Layer conv1_1
I1216 09:09:15.908004  4784 net.cpp:406] conv1_1 <- conv1_1/bn
I1216 09:09:15.908012  4784 net.cpp:380] conv1_1 -> conv1_1
I1216 09:09:15.914800  4784 net.cpp:122] Setting up conv1_1
I1216 09:09:15.914824  4784 net.cpp:129] Top shape: 1 32 28 62 (55552)
I1216 09:09:15.914831  4784 net.cpp:137] Memory required for data: 521968568
I1216 09:09:15.914840  4784 layer_factory.hpp:77] Creating layer concat1_1
I1216 09:09:15.914850  4784 net.cpp:84] Creating Layer concat1_1
I1216 09:09:15.914858  4784 net.cpp:406] concat1_1 <- concat1_0_concat1_0_0_split_1
I1216 09:09:15.914865  4784 net.cpp:406] concat1_1 <- conv1_1
I1216 09:09:15.914873  4784 net.cpp:380] concat1_1 -> concat1_1
I1216 09:09:15.914939  4784 net.cpp:122] Setting up concat1_1
I1216 09:09:15.914950  4784 net.cpp:129] Top shape: 1 480 28 62 (833280)
I1216 09:09:15.914955  4784 net.cpp:137] Memory required for data: 525301688
I1216 09:09:15.914960  4784 layer_factory.hpp:77] Creating layer concat1_1_concat1_1_0_split
I1216 09:09:15.914968  4784 net.cpp:84] Creating Layer concat1_1_concat1_1_0_split
I1216 09:09:15.914974  4784 net.cpp:406] concat1_1_concat1_1_0_split <- concat1_1
I1216 09:09:15.914984  4784 net.cpp:380] concat1_1_concat1_1_0_split -> concat1_1_concat1_1_0_split_0
I1216 09:09:15.914994  4784 net.cpp:380] concat1_1_concat1_1_0_split -> concat1_1_concat1_1_0_split_1
I1216 09:09:15.915094  4784 net.cpp:122] Setting up concat1_1_concat1_1_0_split
I1216 09:09:15.915107  4784 net.cpp:129] Top shape: 1 480 28 62 (833280)
I1216 09:09:15.915113  4784 net.cpp:129] Top shape: 1 480 28 62 (833280)
I1216 09:09:15.915117  4784 net.cpp:137] Memory required for data: 531967928
I1216 09:09:15.915122  4784 layer_factory.hpp:77] Creating layer conv1_2/bn
I1216 09:09:15.915132  4784 net.cpp:84] Creating Layer conv1_2/bn
I1216 09:09:15.915141  4784 net.cpp:406] conv1_2/bn <- concat1_1_concat1_1_0_split_0
I1216 09:09:15.915154  4784 net.cpp:380] conv1_2/bn -> conv1_2/bn
I1216 09:09:15.915802  4784 net.cpp:122] Setting up conv1_2/bn
I1216 09:09:15.915815  4784 net.cpp:129] Top shape: 1 480 28 62 (833280)
I1216 09:09:15.915822  4784 net.cpp:137] Memory required for data: 535301048
I1216 09:09:15.915832  4784 layer_factory.hpp:77] Creating layer conv1_2/scale
I1216 09:09:15.915844  4784 net.cpp:84] Creating Layer conv1_2/scale
I1216 09:09:15.915851  4784 net.cpp:406] conv1_2/scale <- conv1_2/bn
I1216 09:09:15.915858  4784 net.cpp:367] conv1_2/scale -> conv1_2/bn (in-place)
I1216 09:09:15.915961  4784 layer_factory.hpp:77] Creating layer conv1_2/scale
I1216 09:09:15.916290  4784 net.cpp:122] Setting up conv1_2/scale
I1216 09:09:15.916304  4784 net.cpp:129] Top shape: 1 480 28 62 (833280)
I1216 09:09:15.916309  4784 net.cpp:137] Memory required for data: 538634168
I1216 09:09:15.916318  4784 layer_factory.hpp:77] Creating layer relu1_2
I1216 09:09:15.916327  4784 net.cpp:84] Creating Layer relu1_2
I1216 09:09:15.916332  4784 net.cpp:406] relu1_2 <- conv1_2/bn
I1216 09:09:15.916339  4784 net.cpp:367] relu1_2 -> conv1_2/bn (in-place)
I1216 09:09:15.916806  4784 net.cpp:122] Setting up relu1_2
I1216 09:09:15.916821  4784 net.cpp:129] Top shape: 1 480 28 62 (833280)
I1216 09:09:15.916826  4784 net.cpp:137] Memory required for data: 541967288
I1216 09:09:15.916831  4784 layer_factory.hpp:77] Creating layer conv1_2
I1216 09:09:15.916844  4784 net.cpp:84] Creating Layer conv1_2
I1216 09:09:15.916851  4784 net.cpp:406] conv1_2 <- conv1_2/bn
I1216 09:09:15.916859  4784 net.cpp:380] conv1_2 -> conv1_2
I1216 09:09:15.924654  4784 net.cpp:122] Setting up conv1_2
I1216 09:09:15.924677  4784 net.cpp:129] Top shape: 1 32 28 62 (55552)
I1216 09:09:15.924685  4784 net.cpp:137] Memory required for data: 542189496
I1216 09:09:15.924693  4784 layer_factory.hpp:77] Creating layer concat1_2
I1216 09:09:15.924703  4784 net.cpp:84] Creating Layer concat1_2
I1216 09:09:15.924710  4784 net.cpp:406] concat1_2 <- concat1_1_concat1_1_0_split_1
I1216 09:09:15.924717  4784 net.cpp:406] concat1_2 <- conv1_2
I1216 09:09:15.924727  4784 net.cpp:380] concat1_2 -> concat1_2
I1216 09:09:15.924793  4784 net.cpp:122] Setting up concat1_2
I1216 09:09:15.924804  4784 net.cpp:129] Top shape: 1 512 28 62 (888832)
I1216 09:09:15.924809  4784 net.cpp:137] Memory required for data: 545744824
I1216 09:09:15.924814  4784 layer_factory.hpp:77] Creating layer concat1_2_concat1_2_0_split
I1216 09:09:15.924823  4784 net.cpp:84] Creating Layer concat1_2_concat1_2_0_split
I1216 09:09:15.924827  4784 net.cpp:406] concat1_2_concat1_2_0_split <- concat1_2
I1216 09:09:15.924839  4784 net.cpp:380] concat1_2_concat1_2_0_split -> concat1_2_concat1_2_0_split_0
I1216 09:09:15.924849  4784 net.cpp:380] concat1_2_concat1_2_0_split -> concat1_2_concat1_2_0_split_1
I1216 09:09:15.924948  4784 net.cpp:122] Setting up concat1_2_concat1_2_0_split
I1216 09:09:15.924962  4784 net.cpp:129] Top shape: 1 512 28 62 (888832)
I1216 09:09:15.924969  4784 net.cpp:129] Top shape: 1 512 28 62 (888832)
I1216 09:09:15.924973  4784 net.cpp:137] Memory required for data: 552855480
I1216 09:09:15.924978  4784 layer_factory.hpp:77] Creating layer conv1_3/bn
I1216 09:09:15.924986  4784 net.cpp:84] Creating Layer conv1_3/bn
I1216 09:09:15.924993  4784 net.cpp:406] conv1_3/bn <- concat1_2_concat1_2_0_split_0
I1216 09:09:15.925002  4784 net.cpp:380] conv1_3/bn -> conv1_3/bn
I1216 09:09:15.925657  4784 net.cpp:122] Setting up conv1_3/bn
I1216 09:09:15.925671  4784 net.cpp:129] Top shape: 1 512 28 62 (888832)
I1216 09:09:15.925678  4784 net.cpp:137] Memory required for data: 556410808
I1216 09:09:15.925688  4784 layer_factory.hpp:77] Creating layer conv1_3/scale
I1216 09:09:15.925700  4784 net.cpp:84] Creating Layer conv1_3/scale
I1216 09:09:15.925707  4784 net.cpp:406] conv1_3/scale <- conv1_3/bn
I1216 09:09:15.925717  4784 net.cpp:367] conv1_3/scale -> conv1_3/bn (in-place)
I1216 09:09:15.925815  4784 layer_factory.hpp:77] Creating layer conv1_3/scale
I1216 09:09:15.926151  4784 net.cpp:122] Setting up conv1_3/scale
I1216 09:09:15.926167  4784 net.cpp:129] Top shape: 1 512 28 62 (888832)
I1216 09:09:15.926172  4784 net.cpp:137] Memory required for data: 559966136
I1216 09:09:15.926182  4784 layer_factory.hpp:77] Creating layer relu1_3
I1216 09:09:15.926190  4784 net.cpp:84] Creating Layer relu1_3
I1216 09:09:15.926196  4784 net.cpp:406] relu1_3 <- conv1_3/bn
I1216 09:09:15.926205  4784 net.cpp:367] relu1_3 -> conv1_3/bn (in-place)
I1216 09:09:15.926491  4784 net.cpp:122] Setting up relu1_3
I1216 09:09:15.926506  4784 net.cpp:129] Top shape: 1 512 28 62 (888832)
I1216 09:09:15.926512  4784 net.cpp:137] Memory required for data: 563521464
I1216 09:09:15.926517  4784 layer_factory.hpp:77] Creating layer conv1_3
I1216 09:09:15.926530  4784 net.cpp:84] Creating Layer conv1_3
I1216 09:09:15.926537  4784 net.cpp:406] conv1_3 <- conv1_3/bn
I1216 09:09:15.926548  4784 net.cpp:380] conv1_3 -> conv1_3
I1216 09:09:15.934957  4784 net.cpp:122] Setting up conv1_3
I1216 09:09:15.934991  4784 net.cpp:129] Top shape: 1 32 28 62 (55552)
I1216 09:09:15.934998  4784 net.cpp:137] Memory required for data: 563743672
I1216 09:09:15.935010  4784 layer_factory.hpp:77] Creating layer concat1_3
I1216 09:09:15.935026  4784 net.cpp:84] Creating Layer concat1_3
I1216 09:09:15.935035  4784 net.cpp:406] concat1_3 <- concat1_2_concat1_2_0_split_1
I1216 09:09:15.935045  4784 net.cpp:406] concat1_3 <- conv1_3
I1216 09:09:15.935055  4784 net.cpp:380] concat1_3 -> concat1_3
I1216 09:09:15.935123  4784 net.cpp:122] Setting up concat1_3
I1216 09:09:15.935134  4784 net.cpp:129] Top shape: 1 544 28 62 (944384)
I1216 09:09:15.935139  4784 net.cpp:137] Memory required for data: 567521208
I1216 09:09:15.935144  4784 layer_factory.hpp:77] Creating layer concat1_3_concat1_3_0_split
I1216 09:09:15.935153  4784 net.cpp:84] Creating Layer concat1_3_concat1_3_0_split
I1216 09:09:15.935158  4784 net.cpp:406] concat1_3_concat1_3_0_split <- concat1_3
I1216 09:09:15.935166  4784 net.cpp:380] concat1_3_concat1_3_0_split -> concat1_3_concat1_3_0_split_0
I1216 09:09:15.935175  4784 net.cpp:380] concat1_3_concat1_3_0_split -> concat1_3_concat1_3_0_split_1
I1216 09:09:15.935278  4784 net.cpp:122] Setting up concat1_3_concat1_3_0_split
I1216 09:09:15.935292  4784 net.cpp:129] Top shape: 1 544 28 62 (944384)
I1216 09:09:15.935299  4784 net.cpp:129] Top shape: 1 544 28 62 (944384)
I1216 09:09:15.935304  4784 net.cpp:137] Memory required for data: 575076280
I1216 09:09:15.935309  4784 layer_factory.hpp:77] Creating layer conv1_4/bn
I1216 09:09:15.935318  4784 net.cpp:84] Creating Layer conv1_4/bn
I1216 09:09:15.935324  4784 net.cpp:406] conv1_4/bn <- concat1_3_concat1_3_0_split_0
I1216 09:09:15.935334  4784 net.cpp:380] conv1_4/bn -> conv1_4/bn
I1216 09:09:15.936017  4784 net.cpp:122] Setting up conv1_4/bn
I1216 09:09:15.936031  4784 net.cpp:129] Top shape: 1 544 28 62 (944384)
I1216 09:09:15.936036  4784 net.cpp:137] Memory required for data: 578853816
I1216 09:09:15.936048  4784 layer_factory.hpp:77] Creating layer conv1_4/scale
I1216 09:09:15.936060  4784 net.cpp:84] Creating Layer conv1_4/scale
I1216 09:09:15.936066  4784 net.cpp:406] conv1_4/scale <- conv1_4/bn
I1216 09:09:15.936074  4784 net.cpp:367] conv1_4/scale -> conv1_4/bn (in-place)
I1216 09:09:15.936185  4784 layer_factory.hpp:77] Creating layer conv1_4/scale
I1216 09:09:15.936528  4784 net.cpp:122] Setting up conv1_4/scale
I1216 09:09:15.936542  4784 net.cpp:129] Top shape: 1 544 28 62 (944384)
I1216 09:09:15.936547  4784 net.cpp:137] Memory required for data: 582631352
I1216 09:09:15.936555  4784 layer_factory.hpp:77] Creating layer relu1_4
I1216 09:09:15.936566  4784 net.cpp:84] Creating Layer relu1_4
I1216 09:09:15.936573  4784 net.cpp:406] relu1_4 <- conv1_4/bn
I1216 09:09:15.936579  4784 net.cpp:367] relu1_4 -> conv1_4/bn (in-place)
I1216 09:09:15.937083  4784 net.cpp:122] Setting up relu1_4
I1216 09:09:15.937098  4784 net.cpp:129] Top shape: 1 544 28 62 (944384)
I1216 09:09:15.937103  4784 net.cpp:137] Memory required for data: 586408888
I1216 09:09:15.937111  4784 layer_factory.hpp:77] Creating layer conv1_4
I1216 09:09:15.937129  4784 net.cpp:84] Creating Layer conv1_4
I1216 09:09:15.937136  4784 net.cpp:406] conv1_4 <- conv1_4/bn
I1216 09:09:15.937145  4784 net.cpp:380] conv1_4 -> conv1_4
I1216 09:09:15.945665  4784 net.cpp:122] Setting up conv1_4
I1216 09:09:15.945690  4784 net.cpp:129] Top shape: 1 32 28 62 (55552)
I1216 09:09:15.945696  4784 net.cpp:137] Memory required for data: 586631096
I1216 09:09:15.945708  4784 layer_factory.hpp:77] Creating layer concat1_4
I1216 09:09:15.945719  4784 net.cpp:84] Creating Layer concat1_4
I1216 09:09:15.945726  4784 net.cpp:406] concat1_4 <- concat1_3_concat1_3_0_split_1
I1216 09:09:15.945735  4784 net.cpp:406] concat1_4 <- conv1_4
I1216 09:09:15.945745  4784 net.cpp:380] concat1_4 -> concat1_4
I1216 09:09:15.945814  4784 net.cpp:122] Setting up concat1_4
I1216 09:09:15.945827  4784 net.cpp:129] Top shape: 1 576 28 62 (999936)
I1216 09:09:15.945832  4784 net.cpp:137] Memory required for data: 590630840
I1216 09:09:15.945835  4784 layer_factory.hpp:77] Creating layer concat1_4_concat1_4_0_split
I1216 09:09:15.945843  4784 net.cpp:84] Creating Layer concat1_4_concat1_4_0_split
I1216 09:09:15.945849  4784 net.cpp:406] concat1_4_concat1_4_0_split <- concat1_4
I1216 09:09:15.945858  4784 net.cpp:380] concat1_4_concat1_4_0_split -> concat1_4_concat1_4_0_split_0
I1216 09:09:15.945868  4784 net.cpp:380] concat1_4_concat1_4_0_split -> concat1_4_concat1_4_0_split_1
I1216 09:09:15.945972  4784 net.cpp:122] Setting up concat1_4_concat1_4_0_split
I1216 09:09:15.945986  4784 net.cpp:129] Top shape: 1 576 28 62 (999936)
I1216 09:09:15.945992  4784 net.cpp:129] Top shape: 1 576 28 62 (999936)
I1216 09:09:15.945997  4784 net.cpp:137] Memory required for data: 598630328
I1216 09:09:15.946002  4784 layer_factory.hpp:77] Creating layer conv1_5/bn
I1216 09:09:15.946015  4784 net.cpp:84] Creating Layer conv1_5/bn
I1216 09:09:15.946023  4784 net.cpp:406] conv1_5/bn <- concat1_4_concat1_4_0_split_0
I1216 09:09:15.946032  4784 net.cpp:380] conv1_5/bn -> conv1_5/bn
I1216 09:09:15.946714  4784 net.cpp:122] Setting up conv1_5/bn
I1216 09:09:15.946729  4784 net.cpp:129] Top shape: 1 576 28 62 (999936)
I1216 09:09:15.946735  4784 net.cpp:137] Memory required for data: 602630072
I1216 09:09:15.946746  4784 layer_factory.hpp:77] Creating layer conv1_5/scale
I1216 09:09:15.946758  4784 net.cpp:84] Creating Layer conv1_5/scale
I1216 09:09:15.946763  4784 net.cpp:406] conv1_5/scale <- conv1_5/bn
I1216 09:09:15.946771  4784 net.cpp:367] conv1_5/scale -> conv1_5/bn (in-place)
I1216 09:09:15.946882  4784 layer_factory.hpp:77] Creating layer conv1_5/scale
I1216 09:09:15.947233  4784 net.cpp:122] Setting up conv1_5/scale
I1216 09:09:15.947248  4784 net.cpp:129] Top shape: 1 576 28 62 (999936)
I1216 09:09:15.947254  4784 net.cpp:137] Memory required for data: 606629816
I1216 09:09:15.947263  4784 layer_factory.hpp:77] Creating layer relu1_5
I1216 09:09:15.947273  4784 net.cpp:84] Creating Layer relu1_5
I1216 09:09:15.947279  4784 net.cpp:406] relu1_5 <- conv1_5/bn
I1216 09:09:15.947285  4784 net.cpp:367] relu1_5 -> conv1_5/bn (in-place)
I1216 09:09:15.947795  4784 net.cpp:122] Setting up relu1_5
I1216 09:09:15.947810  4784 net.cpp:129] Top shape: 1 576 28 62 (999936)
I1216 09:09:15.947816  4784 net.cpp:137] Memory required for data: 610629560
I1216 09:09:15.947821  4784 layer_factory.hpp:77] Creating layer conv1_5
I1216 09:09:15.947836  4784 net.cpp:84] Creating Layer conv1_5
I1216 09:09:15.947844  4784 net.cpp:406] conv1_5 <- conv1_5/bn
I1216 09:09:15.947854  4784 net.cpp:380] conv1_5 -> conv1_5
I1216 09:09:15.956735  4784 net.cpp:122] Setting up conv1_5
I1216 09:09:15.956760  4784 net.cpp:129] Top shape: 1 32 28 62 (55552)
I1216 09:09:15.956766  4784 net.cpp:137] Memory required for data: 610851768
I1216 09:09:15.956776  4784 layer_factory.hpp:77] Creating layer concat1_5
I1216 09:09:15.956789  4784 net.cpp:84] Creating Layer concat1_5
I1216 09:09:15.956796  4784 net.cpp:406] concat1_5 <- concat1_4_concat1_4_0_split_1
I1216 09:09:15.956809  4784 net.cpp:406] concat1_5 <- conv1_5
I1216 09:09:15.956818  4784 net.cpp:380] concat1_5 -> concat1_5
I1216 09:09:15.956887  4784 net.cpp:122] Setting up concat1_5
I1216 09:09:15.956899  4784 net.cpp:129] Top shape: 1 608 28 62 (1055488)
I1216 09:09:15.956904  4784 net.cpp:137] Memory required for data: 615073720
I1216 09:09:15.956909  4784 layer_factory.hpp:77] Creating layer concat1_5_concat1_5_0_split
I1216 09:09:15.956918  4784 net.cpp:84] Creating Layer concat1_5_concat1_5_0_split
I1216 09:09:15.956923  4784 net.cpp:406] concat1_5_concat1_5_0_split <- concat1_5
I1216 09:09:15.956931  4784 net.cpp:380] concat1_5_concat1_5_0_split -> concat1_5_concat1_5_0_split_0
I1216 09:09:15.956941  4784 net.cpp:380] concat1_5_concat1_5_0_split -> concat1_5_concat1_5_0_split_1
I1216 09:09:15.957046  4784 net.cpp:122] Setting up concat1_5_concat1_5_0_split
I1216 09:09:15.957058  4784 net.cpp:129] Top shape: 1 608 28 62 (1055488)
I1216 09:09:15.957064  4784 net.cpp:129] Top shape: 1 608 28 62 (1055488)
I1216 09:09:15.957069  4784 net.cpp:137] Memory required for data: 623517624
I1216 09:09:15.957074  4784 layer_factory.hpp:77] Creating layer conv1_6/bn
I1216 09:09:15.957084  4784 net.cpp:84] Creating Layer conv1_6/bn
I1216 09:09:15.957092  4784 net.cpp:406] conv1_6/bn <- concat1_5_concat1_5_0_split_0
I1216 09:09:15.957100  4784 net.cpp:380] conv1_6/bn -> conv1_6/bn
I1216 09:09:15.957799  4784 net.cpp:122] Setting up conv1_6/bn
I1216 09:09:15.957814  4784 net.cpp:129] Top shape: 1 608 28 62 (1055488)
I1216 09:09:15.957820  4784 net.cpp:137] Memory required for data: 627739576
I1216 09:09:15.957831  4784 layer_factory.hpp:77] Creating layer conv1_6/scale
I1216 09:09:15.957841  4784 net.cpp:84] Creating Layer conv1_6/scale
I1216 09:09:15.957847  4784 net.cpp:406] conv1_6/scale <- conv1_6/bn
I1216 09:09:15.957859  4784 net.cpp:367] conv1_6/scale -> conv1_6/bn (in-place)
I1216 09:09:15.957973  4784 layer_factory.hpp:77] Creating layer conv1_6/scale
I1216 09:09:15.958328  4784 net.cpp:122] Setting up conv1_6/scale
I1216 09:09:15.958343  4784 net.cpp:129] Top shape: 1 608 28 62 (1055488)
I1216 09:09:15.958349  4784 net.cpp:137] Memory required for data: 631961528
I1216 09:09:15.958359  4784 layer_factory.hpp:77] Creating layer relu1_6
I1216 09:09:15.958374  4784 net.cpp:84] Creating Layer relu1_6
I1216 09:09:15.958380  4784 net.cpp:406] relu1_6 <- conv1_6/bn
I1216 09:09:15.958387  4784 net.cpp:367] relu1_6 -> conv1_6/bn (in-place)
I1216 09:09:15.958683  4784 net.cpp:122] Setting up relu1_6
I1216 09:09:15.958700  4784 net.cpp:129] Top shape: 1 608 28 62 (1055488)
I1216 09:09:15.958706  4784 net.cpp:137] Memory required for data: 636183480
I1216 09:09:15.958711  4784 layer_factory.hpp:77] Creating layer conv1_6
I1216 09:09:15.958726  4784 net.cpp:84] Creating Layer conv1_6
I1216 09:09:15.958732  4784 net.cpp:406] conv1_6 <- conv1_6/bn
I1216 09:09:15.958742  4784 net.cpp:380] conv1_6 -> conv1_6
I1216 09:09:15.968338  4784 net.cpp:122] Setting up conv1_6
I1216 09:09:15.968374  4784 net.cpp:129] Top shape: 1 32 28 62 (55552)
I1216 09:09:15.968380  4784 net.cpp:137] Memory required for data: 636405688
I1216 09:09:15.968390  4784 layer_factory.hpp:77] Creating layer concat1_6
I1216 09:09:15.968403  4784 net.cpp:84] Creating Layer concat1_6
I1216 09:09:15.968411  4784 net.cpp:406] concat1_6 <- concat1_5_concat1_5_0_split_1
I1216 09:09:15.968420  4784 net.cpp:406] concat1_6 <- conv1_6
I1216 09:09:15.968427  4784 net.cpp:380] concat1_6 -> concat1_6
I1216 09:09:15.968497  4784 net.cpp:122] Setting up concat1_6
I1216 09:09:15.968508  4784 net.cpp:129] Top shape: 1 640 28 62 (1111040)
I1216 09:09:15.968513  4784 net.cpp:137] Memory required for data: 640849848
I1216 09:09:15.968518  4784 layer_factory.hpp:77] Creating layer concat1_6_concat1_6_0_split
I1216 09:09:15.968525  4784 net.cpp:84] Creating Layer concat1_6_concat1_6_0_split
I1216 09:09:15.968529  4784 net.cpp:406] concat1_6_concat1_6_0_split <- concat1_6
I1216 09:09:15.968536  4784 net.cpp:380] concat1_6_concat1_6_0_split -> concat1_6_concat1_6_0_split_0
I1216 09:09:15.968552  4784 net.cpp:380] concat1_6_concat1_6_0_split -> concat1_6_concat1_6_0_split_1
I1216 09:09:15.968657  4784 net.cpp:122] Setting up concat1_6_concat1_6_0_split
I1216 09:09:15.968670  4784 net.cpp:129] Top shape: 1 640 28 62 (1111040)
I1216 09:09:15.968677  4784 net.cpp:129] Top shape: 1 640 28 62 (1111040)
I1216 09:09:15.968680  4784 net.cpp:137] Memory required for data: 649738168
I1216 09:09:15.968685  4784 layer_factory.hpp:77] Creating layer conv1_7/bn
I1216 09:09:15.968693  4784 net.cpp:84] Creating Layer conv1_7/bn
I1216 09:09:15.968698  4784 net.cpp:406] conv1_7/bn <- concat1_6_concat1_6_0_split_0
I1216 09:09:15.968706  4784 net.cpp:380] conv1_7/bn -> conv1_7/bn
I1216 09:09:15.969350  4784 net.cpp:122] Setting up conv1_7/bn
I1216 09:09:15.969365  4784 net.cpp:129] Top shape: 1 640 28 62 (1111040)
I1216 09:09:15.969372  4784 net.cpp:137] Memory required for data: 654182328
I1216 09:09:15.969395  4784 layer_factory.hpp:77] Creating layer conv1_7/scale
I1216 09:09:15.969413  4784 net.cpp:84] Creating Layer conv1_7/scale
I1216 09:09:15.969419  4784 net.cpp:406] conv1_7/scale <- conv1_7/bn
I1216 09:09:15.969427  4784 net.cpp:367] conv1_7/scale -> conv1_7/bn (in-place)
I1216 09:09:15.969524  4784 layer_factory.hpp:77] Creating layer conv1_7/scale
I1216 09:09:15.969861  4784 net.cpp:122] Setting up conv1_7/scale
I1216 09:09:15.969875  4784 net.cpp:129] Top shape: 1 640 28 62 (1111040)
I1216 09:09:15.969880  4784 net.cpp:137] Memory required for data: 658626488
I1216 09:09:15.969890  4784 layer_factory.hpp:77] Creating layer relu1_7
I1216 09:09:15.969899  4784 net.cpp:84] Creating Layer relu1_7
I1216 09:09:15.969904  4784 net.cpp:406] relu1_7 <- conv1_7/bn
I1216 09:09:15.969911  4784 net.cpp:367] relu1_7 -> conv1_7/bn (in-place)
I1216 09:09:15.970402  4784 net.cpp:122] Setting up relu1_7
I1216 09:09:15.970417  4784 net.cpp:129] Top shape: 1 640 28 62 (1111040)
I1216 09:09:15.970422  4784 net.cpp:137] Memory required for data: 663070648
I1216 09:09:15.970427  4784 layer_factory.hpp:77] Creating layer conv1_7
I1216 09:09:15.970440  4784 net.cpp:84] Creating Layer conv1_7
I1216 09:09:15.970446  4784 net.cpp:406] conv1_7 <- conv1_7/bn
I1216 09:09:15.970455  4784 net.cpp:380] conv1_7 -> conv1_7
I1216 09:09:15.980144  4784 net.cpp:122] Setting up conv1_7
I1216 09:09:15.980175  4784 net.cpp:129] Top shape: 1 32 28 62 (55552)
I1216 09:09:15.980180  4784 net.cpp:137] Memory required for data: 663292856
I1216 09:09:15.980192  4784 layer_factory.hpp:77] Creating layer concat1_7
I1216 09:09:15.980204  4784 net.cpp:84] Creating Layer concat1_7
I1216 09:09:15.980211  4784 net.cpp:406] concat1_7 <- concat1_6_concat1_6_0_split_1
I1216 09:09:15.980219  4784 net.cpp:406] concat1_7 <- conv1_7
I1216 09:09:15.980231  4784 net.cpp:380] concat1_7 -> concat1_7
I1216 09:09:15.980301  4784 net.cpp:122] Setting up concat1_7
I1216 09:09:15.980312  4784 net.cpp:129] Top shape: 1 672 28 62 (1166592)
I1216 09:09:15.980317  4784 net.cpp:137] Memory required for data: 667959224
I1216 09:09:15.980322  4784 layer_factory.hpp:77] Creating layer concat1_7_concat1_7_0_split
I1216 09:09:15.980331  4784 net.cpp:84] Creating Layer concat1_7_concat1_7_0_split
I1216 09:09:15.980337  4784 net.cpp:406] concat1_7_concat1_7_0_split <- concat1_7
I1216 09:09:15.980345  4784 net.cpp:380] concat1_7_concat1_7_0_split -> concat1_7_concat1_7_0_split_0
I1216 09:09:15.980353  4784 net.cpp:380] concat1_7_concat1_7_0_split -> concat1_7_concat1_7_0_split_1
I1216 09:09:15.980459  4784 net.cpp:122] Setting up concat1_7_concat1_7_0_split
I1216 09:09:15.980473  4784 net.cpp:129] Top shape: 1 672 28 62 (1166592)
I1216 09:09:15.980479  4784 net.cpp:129] Top shape: 1 672 28 62 (1166592)
I1216 09:09:15.980484  4784 net.cpp:137] Memory required for data: 677291960
I1216 09:09:15.980489  4784 layer_factory.hpp:77] Creating layer conv1_8/bn
I1216 09:09:15.980499  4784 net.cpp:84] Creating Layer conv1_8/bn
I1216 09:09:15.980504  4784 net.cpp:406] conv1_8/bn <- concat1_7_concat1_7_0_split_0
I1216 09:09:15.980511  4784 net.cpp:380] conv1_8/bn -> conv1_8/bn
I1216 09:09:15.981159  4784 net.cpp:122] Setting up conv1_8/bn
I1216 09:09:15.981180  4784 net.cpp:129] Top shape: 1 672 28 62 (1166592)
I1216 09:09:15.981185  4784 net.cpp:137] Memory required for data: 681958328
I1216 09:09:15.981196  4784 layer_factory.hpp:77] Creating layer conv1_8/scale
I1216 09:09:15.981206  4784 net.cpp:84] Creating Layer conv1_8/scale
I1216 09:09:15.981212  4784 net.cpp:406] conv1_8/scale <- conv1_8/bn
I1216 09:09:15.981220  4784 net.cpp:367] conv1_8/scale -> conv1_8/bn (in-place)
I1216 09:09:15.981330  4784 layer_factory.hpp:77] Creating layer conv1_8/scale
I1216 09:09:15.981667  4784 net.cpp:122] Setting up conv1_8/scale
I1216 09:09:15.981680  4784 net.cpp:129] Top shape: 1 672 28 62 (1166592)
I1216 09:09:15.981685  4784 net.cpp:137] Memory required for data: 686624696
I1216 09:09:15.981694  4784 layer_factory.hpp:77] Creating layer relu1_8
I1216 09:09:15.981703  4784 net.cpp:84] Creating Layer relu1_8
I1216 09:09:15.981709  4784 net.cpp:406] relu1_8 <- conv1_8/bn
I1216 09:09:15.981715  4784 net.cpp:367] relu1_8 -> conv1_8/bn (in-place)
I1216 09:09:15.981986  4784 net.cpp:122] Setting up relu1_8
I1216 09:09:15.982000  4784 net.cpp:129] Top shape: 1 672 28 62 (1166592)
I1216 09:09:15.982005  4784 net.cpp:137] Memory required for data: 691291064
I1216 09:09:15.982012  4784 layer_factory.hpp:77] Creating layer conv1_8
I1216 09:09:15.982028  4784 net.cpp:84] Creating Layer conv1_8
I1216 09:09:15.982035  4784 net.cpp:406] conv1_8 <- conv1_8/bn
I1216 09:09:15.982044  4784 net.cpp:380] conv1_8 -> conv1_8
I1216 09:09:15.992172  4784 net.cpp:122] Setting up conv1_8
I1216 09:09:15.992207  4784 net.cpp:129] Top shape: 1 32 28 62 (55552)
I1216 09:09:15.992213  4784 net.cpp:137] Memory required for data: 691513272
I1216 09:09:15.992224  4784 layer_factory.hpp:77] Creating layer concat1_8
I1216 09:09:15.992240  4784 net.cpp:84] Creating Layer concat1_8
I1216 09:09:15.992249  4784 net.cpp:406] concat1_8 <- concat1_7_concat1_7_0_split_1
I1216 09:09:15.992259  4784 net.cpp:406] concat1_8 <- conv1_8
I1216 09:09:15.992266  4784 net.cpp:380] concat1_8 -> concat1_8
I1216 09:09:15.992336  4784 net.cpp:122] Setting up concat1_8
I1216 09:09:15.992347  4784 net.cpp:129] Top shape: 1 704 28 62 (1222144)
I1216 09:09:15.992352  4784 net.cpp:137] Memory required for data: 696401848
I1216 09:09:15.992357  4784 layer_factory.hpp:77] Creating layer concat1_8_concat1_8_0_split
I1216 09:09:15.992367  4784 net.cpp:84] Creating Layer concat1_8_concat1_8_0_split
I1216 09:09:15.992372  4784 net.cpp:406] concat1_8_concat1_8_0_split <- concat1_8
I1216 09:09:15.992379  4784 net.cpp:380] concat1_8_concat1_8_0_split -> concat1_8_concat1_8_0_split_0
I1216 09:09:15.992388  4784 net.cpp:380] concat1_8_concat1_8_0_split -> concat1_8_concat1_8_0_split_1
I1216 09:09:15.992489  4784 net.cpp:122] Setting up concat1_8_concat1_8_0_split
I1216 09:09:15.992501  4784 net.cpp:129] Top shape: 1 704 28 62 (1222144)
I1216 09:09:15.992507  4784 net.cpp:129] Top shape: 1 704 28 62 (1222144)
I1216 09:09:15.992512  4784 net.cpp:137] Memory required for data: 706179000
I1216 09:09:15.992517  4784 layer_factory.hpp:77] Creating layer conv1_9/bn
I1216 09:09:15.992527  4784 net.cpp:84] Creating Layer conv1_9/bn
I1216 09:09:15.992533  4784 net.cpp:406] conv1_9/bn <- concat1_8_concat1_8_0_split_0
I1216 09:09:15.992540  4784 net.cpp:380] conv1_9/bn -> conv1_9/bn
I1216 09:09:15.993232  4784 net.cpp:122] Setting up conv1_9/bn
I1216 09:09:15.993245  4784 net.cpp:129] Top shape: 1 704 28 62 (1222144)
I1216 09:09:15.993250  4784 net.cpp:137] Memory required for data: 711067576
I1216 09:09:15.993261  4784 layer_factory.hpp:77] Creating layer conv1_9/scale
I1216 09:09:15.993274  4784 net.cpp:84] Creating Layer conv1_9/scale
I1216 09:09:15.993279  4784 net.cpp:406] conv1_9/scale <- conv1_9/bn
I1216 09:09:15.993289  4784 net.cpp:367] conv1_9/scale -> conv1_9/bn (in-place)
I1216 09:09:15.993396  4784 layer_factory.hpp:77] Creating layer conv1_9/scale
I1216 09:09:15.993747  4784 net.cpp:122] Setting up conv1_9/scale
I1216 09:09:15.993762  4784 net.cpp:129] Top shape: 1 704 28 62 (1222144)
I1216 09:09:15.993772  4784 net.cpp:137] Memory required for data: 715956152
I1216 09:09:15.993782  4784 layer_factory.hpp:77] Creating layer relu1_9
I1216 09:09:15.993790  4784 net.cpp:84] Creating Layer relu1_9
I1216 09:09:15.993796  4784 net.cpp:406] relu1_9 <- conv1_9/bn
I1216 09:09:15.993803  4784 net.cpp:367] relu1_9 -> conv1_9/bn (in-place)
I1216 09:09:15.994503  4784 net.cpp:122] Setting up relu1_9
I1216 09:09:15.994519  4784 net.cpp:129] Top shape: 1 704 28 62 (1222144)
I1216 09:09:15.994524  4784 net.cpp:137] Memory required for data: 720844728
I1216 09:09:15.994529  4784 layer_factory.hpp:77] Creating layer conv1_9
I1216 09:09:15.994544  4784 net.cpp:84] Creating Layer conv1_9
I1216 09:09:15.994550  4784 net.cpp:406] conv1_9 <- conv1_9/bn
I1216 09:09:15.994560  4784 net.cpp:380] conv1_9 -> conv1_9
I1216 09:09:16.004902  4784 net.cpp:122] Setting up conv1_9
I1216 09:09:16.004936  4784 net.cpp:129] Top shape: 1 32 28 62 (55552)
I1216 09:09:16.004942  4784 net.cpp:137] Memory required for data: 721066936
I1216 09:09:16.004956  4784 layer_factory.hpp:77] Creating layer concat1_9
I1216 09:09:16.004969  4784 net.cpp:84] Creating Layer concat1_9
I1216 09:09:16.004977  4784 net.cpp:406] concat1_9 <- concat1_8_concat1_8_0_split_1
I1216 09:09:16.004987  4784 net.cpp:406] concat1_9 <- conv1_9
I1216 09:09:16.004998  4784 net.cpp:380] concat1_9 -> concat1_9
I1216 09:09:16.005069  4784 net.cpp:122] Setting up concat1_9
I1216 09:09:16.005079  4784 net.cpp:129] Top shape: 1 736 28 62 (1277696)
I1216 09:09:16.005084  4784 net.cpp:137] Memory required for data: 726177720
I1216 09:09:16.005089  4784 layer_factory.hpp:77] Creating layer concat1_9_concat1_9_0_split
I1216 09:09:16.005097  4784 net.cpp:84] Creating Layer concat1_9_concat1_9_0_split
I1216 09:09:16.005102  4784 net.cpp:406] concat1_9_concat1_9_0_split <- concat1_9
I1216 09:09:16.005110  4784 net.cpp:380] concat1_9_concat1_9_0_split -> concat1_9_concat1_9_0_split_0
I1216 09:09:16.005118  4784 net.cpp:380] concat1_9_concat1_9_0_split -> concat1_9_concat1_9_0_split_1
I1216 09:09:16.005228  4784 net.cpp:122] Setting up concat1_9_concat1_9_0_split
I1216 09:09:16.005239  4784 net.cpp:129] Top shape: 1 736 28 62 (1277696)
I1216 09:09:16.005245  4784 net.cpp:129] Top shape: 1 736 28 62 (1277696)
I1216 09:09:16.005249  4784 net.cpp:137] Memory required for data: 736399288
I1216 09:09:16.005254  4784 layer_factory.hpp:77] Creating layer conv1_10/bn
I1216 09:09:16.005264  4784 net.cpp:84] Creating Layer conv1_10/bn
I1216 09:09:16.005270  4784 net.cpp:406] conv1_10/bn <- concat1_9_concat1_9_0_split_0
I1216 09:09:16.005277  4784 net.cpp:380] conv1_10/bn -> conv1_10/bn
I1216 09:09:16.006006  4784 net.cpp:122] Setting up conv1_10/bn
I1216 09:09:16.006021  4784 net.cpp:129] Top shape: 1 736 28 62 (1277696)
I1216 09:09:16.006026  4784 net.cpp:137] Memory required for data: 741510072
I1216 09:09:16.006039  4784 layer_factory.hpp:77] Creating layer conv1_10/scale
I1216 09:09:16.006053  4784 net.cpp:84] Creating Layer conv1_10/scale
I1216 09:09:16.006059  4784 net.cpp:406] conv1_10/scale <- conv1_10/bn
I1216 09:09:16.006067  4784 net.cpp:367] conv1_10/scale -> conv1_10/bn (in-place)
I1216 09:09:16.006186  4784 layer_factory.hpp:77] Creating layer conv1_10/scale
I1216 09:09:16.006541  4784 net.cpp:122] Setting up conv1_10/scale
I1216 09:09:16.006556  4784 net.cpp:129] Top shape: 1 736 28 62 (1277696)
I1216 09:09:16.006562  4784 net.cpp:137] Memory required for data: 746620856
I1216 09:09:16.006572  4784 layer_factory.hpp:77] Creating layer relu1_10
I1216 09:09:16.006580  4784 net.cpp:84] Creating Layer relu1_10
I1216 09:09:16.006585  4784 net.cpp:406] relu1_10 <- conv1_10/bn
I1216 09:09:16.006592  4784 net.cpp:367] relu1_10 -> conv1_10/bn (in-place)
I1216 09:09:16.007117  4784 net.cpp:122] Setting up relu1_10
I1216 09:09:16.007133  4784 net.cpp:129] Top shape: 1 736 28 62 (1277696)
I1216 09:09:16.007138  4784 net.cpp:137] Memory required for data: 751731640
I1216 09:09:16.007143  4784 layer_factory.hpp:77] Creating layer conv1_10
I1216 09:09:16.007156  4784 net.cpp:84] Creating Layer conv1_10
I1216 09:09:16.007166  4784 net.cpp:406] conv1_10 <- conv1_10/bn
I1216 09:09:16.007174  4784 net.cpp:380] conv1_10 -> conv1_10
I1216 09:09:16.017999  4784 net.cpp:122] Setting up conv1_10
I1216 09:09:16.018033  4784 net.cpp:129] Top shape: 1 32 28 62 (55552)
I1216 09:09:16.018039  4784 net.cpp:137] Memory required for data: 751953848
I1216 09:09:16.018049  4784 layer_factory.hpp:77] Creating layer concat1_10
I1216 09:09:16.018064  4784 net.cpp:84] Creating Layer concat1_10
I1216 09:09:16.018071  4784 net.cpp:406] concat1_10 <- concat1_9_concat1_9_0_split_1
I1216 09:09:16.018079  4784 net.cpp:406] concat1_10 <- conv1_10
I1216 09:09:16.018090  4784 net.cpp:380] concat1_10 -> concat1_10
I1216 09:09:16.018160  4784 net.cpp:122] Setting up concat1_10
I1216 09:09:16.018172  4784 net.cpp:129] Top shape: 1 768 28 62 (1333248)
I1216 09:09:16.018177  4784 net.cpp:137] Memory required for data: 757286840
I1216 09:09:16.018182  4784 layer_factory.hpp:77] Creating layer concat1_10_concat1_10_0_split
I1216 09:09:16.018193  4784 net.cpp:84] Creating Layer concat1_10_concat1_10_0_split
I1216 09:09:16.018198  4784 net.cpp:406] concat1_10_concat1_10_0_split <- concat1_10
I1216 09:09:16.018204  4784 net.cpp:380] concat1_10_concat1_10_0_split -> concat1_10_concat1_10_0_split_0
I1216 09:09:16.018213  4784 net.cpp:380] concat1_10_concat1_10_0_split -> concat1_10_concat1_10_0_split_1
I1216 09:09:16.018324  4784 net.cpp:122] Setting up concat1_10_concat1_10_0_split
I1216 09:09:16.018337  4784 net.cpp:129] Top shape: 1 768 28 62 (1333248)
I1216 09:09:16.018342  4784 net.cpp:129] Top shape: 1 768 28 62 (1333248)
I1216 09:09:16.018347  4784 net.cpp:137] Memory required for data: 767952824
I1216 09:09:16.018352  4784 layer_factory.hpp:77] Creating layer conv1_11/bn
I1216 09:09:16.018362  4784 net.cpp:84] Creating Layer conv1_11/bn
I1216 09:09:16.018368  4784 net.cpp:406] conv1_11/bn <- concat1_10_concat1_10_0_split_0
I1216 09:09:16.018376  4784 net.cpp:380] conv1_11/bn -> conv1_11/bn
I1216 09:09:16.019085  4784 net.cpp:122] Setting up conv1_11/bn
I1216 09:09:16.019101  4784 net.cpp:129] Top shape: 1 768 28 62 (1333248)
I1216 09:09:16.019107  4784 net.cpp:137] Memory required for data: 773285816
I1216 09:09:16.019120  4784 layer_factory.hpp:77] Creating layer conv1_11/scale
I1216 09:09:16.019132  4784 net.cpp:84] Creating Layer conv1_11/scale
I1216 09:09:16.019138  4784 net.cpp:406] conv1_11/scale <- conv1_11/bn
I1216 09:09:16.019148  4784 net.cpp:367] conv1_11/scale -> conv1_11/bn (in-place)
I1216 09:09:16.019254  4784 layer_factory.hpp:77] Creating layer conv1_11/scale
I1216 09:09:16.019611  4784 net.cpp:122] Setting up conv1_11/scale
I1216 09:09:16.019626  4784 net.cpp:129] Top shape: 1 768 28 62 (1333248)
I1216 09:09:16.019631  4784 net.cpp:137] Memory required for data: 778618808
I1216 09:09:16.019640  4784 layer_factory.hpp:77] Creating layer relu1_11
I1216 09:09:16.019650  4784 net.cpp:84] Creating Layer relu1_11
I1216 09:09:16.019657  4784 net.cpp:406] relu1_11 <- conv1_11/bn
I1216 09:09:16.019664  4784 net.cpp:367] relu1_11 -> conv1_11/bn (in-place)
I1216 09:09:16.019968  4784 net.cpp:122] Setting up relu1_11
I1216 09:09:16.019984  4784 net.cpp:129] Top shape: 1 768 28 62 (1333248)
I1216 09:09:16.019990  4784 net.cpp:137] Memory required for data: 783951800
I1216 09:09:16.019996  4784 layer_factory.hpp:77] Creating layer conv1_11
I1216 09:09:16.020010  4784 net.cpp:84] Creating Layer conv1_11
I1216 09:09:16.020016  4784 net.cpp:406] conv1_11 <- conv1_11/bn
I1216 09:09:16.020026  4784 net.cpp:380] conv1_11 -> conv1_11
I1216 09:09:16.031419  4784 net.cpp:122] Setting up conv1_11
I1216 09:09:16.031457  4784 net.cpp:129] Top shape: 1 32 28 62 (55552)
I1216 09:09:16.031464  4784 net.cpp:137] Memory required for data: 784174008
I1216 09:09:16.031476  4784 layer_factory.hpp:77] Creating layer concat1_11
I1216 09:09:16.031491  4784 net.cpp:84] Creating Layer concat1_11
I1216 09:09:16.031499  4784 net.cpp:406] concat1_11 <- concat1_10_concat1_10_0_split_1
I1216 09:09:16.031508  4784 net.cpp:406] concat1_11 <- conv1_11
I1216 09:09:16.031517  4784 net.cpp:380] concat1_11 -> concat1_11
I1216 09:09:16.031594  4784 net.cpp:122] Setting up concat1_11
I1216 09:09:16.031606  4784 net.cpp:129] Top shape: 1 800 28 62 (1388800)
I1216 09:09:16.031611  4784 net.cpp:137] Memory required for data: 789729208
I1216 09:09:16.031616  4784 layer_factory.hpp:77] Creating layer concat1_11_concat1_11_0_split
I1216 09:09:16.031625  4784 net.cpp:84] Creating Layer concat1_11_concat1_11_0_split
I1216 09:09:16.031630  4784 net.cpp:406] concat1_11_concat1_11_0_split <- concat1_11
I1216 09:09:16.031637  4784 net.cpp:380] concat1_11_concat1_11_0_split -> concat1_11_concat1_11_0_split_0
I1216 09:09:16.031648  4784 net.cpp:380] concat1_11_concat1_11_0_split -> concat1_11_concat1_11_0_split_1
I1216 09:09:16.031766  4784 net.cpp:122] Setting up concat1_11_concat1_11_0_split
I1216 09:09:16.031780  4784 net.cpp:129] Top shape: 1 800 28 62 (1388800)
I1216 09:09:16.031785  4784 net.cpp:129] Top shape: 1 800 28 62 (1388800)
I1216 09:09:16.031790  4784 net.cpp:137] Memory required for data: 800839608
I1216 09:09:16.031793  4784 layer_factory.hpp:77] Creating layer conv1_12/bn
I1216 09:09:16.031800  4784 net.cpp:84] Creating Layer conv1_12/bn
I1216 09:09:16.031805  4784 net.cpp:406] conv1_12/bn <- concat1_11_concat1_11_0_split_0
I1216 09:09:16.031814  4784 net.cpp:380] conv1_12/bn -> conv1_12/bn
I1216 09:09:16.032552  4784 net.cpp:122] Setting up conv1_12/bn
I1216 09:09:16.032567  4784 net.cpp:129] Top shape: 1 800 28 62 (1388800)
I1216 09:09:16.032572  4784 net.cpp:137] Memory required for data: 806394808
I1216 09:09:16.032584  4784 layer_factory.hpp:77] Creating layer conv1_12/scale
I1216 09:09:16.032598  4784 net.cpp:84] Creating Layer conv1_12/scale
I1216 09:09:16.032604  4784 net.cpp:406] conv1_12/scale <- conv1_12/bn
I1216 09:09:16.032613  4784 net.cpp:367] conv1_12/scale -> conv1_12/bn (in-place)
I1216 09:09:16.032728  4784 layer_factory.hpp:77] Creating layer conv1_12/scale
I1216 09:09:16.033114  4784 net.cpp:122] Setting up conv1_12/scale
I1216 09:09:16.033128  4784 net.cpp:129] Top shape: 1 800 28 62 (1388800)
I1216 09:09:16.033134  4784 net.cpp:137] Memory required for data: 811950008
I1216 09:09:16.033143  4784 layer_factory.hpp:77] Creating layer relu1_12
I1216 09:09:16.033154  4784 net.cpp:84] Creating Layer relu1_12
I1216 09:09:16.033159  4784 net.cpp:406] relu1_12 <- conv1_12/bn
I1216 09:09:16.033166  4784 net.cpp:367] relu1_12 -> conv1_12/bn (in-place)
I1216 09:09:16.033689  4784 net.cpp:122] Setting up relu1_12
I1216 09:09:16.033704  4784 net.cpp:129] Top shape: 1 800 28 62 (1388800)
I1216 09:09:16.033710  4784 net.cpp:137] Memory required for data: 817505208
I1216 09:09:16.033715  4784 layer_factory.hpp:77] Creating layer conv1_12
I1216 09:09:16.033732  4784 net.cpp:84] Creating Layer conv1_12
I1216 09:09:16.033740  4784 net.cpp:406] conv1_12 <- conv1_12/bn
I1216 09:09:16.033749  4784 net.cpp:380] conv1_12 -> conv1_12
I1216 09:09:16.045280  4784 net.cpp:122] Setting up conv1_12
I1216 09:09:16.045315  4784 net.cpp:129] Top shape: 1 32 28 62 (55552)
I1216 09:09:16.045322  4784 net.cpp:137] Memory required for data: 817727416
I1216 09:09:16.045336  4784 layer_factory.hpp:77] Creating layer concat1_12
I1216 09:09:16.045351  4784 net.cpp:84] Creating Layer concat1_12
I1216 09:09:16.045358  4784 net.cpp:406] concat1_12 <- concat1_11_concat1_11_0_split_1
I1216 09:09:16.045367  4784 net.cpp:406] concat1_12 <- conv1_12
I1216 09:09:16.045378  4784 net.cpp:380] concat1_12 -> concat1_12
I1216 09:09:16.045451  4784 net.cpp:122] Setting up concat1_12
I1216 09:09:16.045464  4784 net.cpp:129] Top shape: 1 832 28 62 (1444352)
I1216 09:09:16.045469  4784 net.cpp:137] Memory required for data: 823504824
I1216 09:09:16.045473  4784 layer_factory.hpp:77] Creating layer concat1_12_concat1_12_0_split
I1216 09:09:16.045481  4784 net.cpp:84] Creating Layer concat1_12_concat1_12_0_split
I1216 09:09:16.045486  4784 net.cpp:406] concat1_12_concat1_12_0_split <- concat1_12
I1216 09:09:16.045495  4784 net.cpp:380] concat1_12_concat1_12_0_split -> concat1_12_concat1_12_0_split_0
I1216 09:09:16.045506  4784 net.cpp:380] concat1_12_concat1_12_0_split -> concat1_12_concat1_12_0_split_1
I1216 09:09:16.045627  4784 net.cpp:122] Setting up concat1_12_concat1_12_0_split
I1216 09:09:16.045639  4784 net.cpp:129] Top shape: 1 832 28 62 (1444352)
I1216 09:09:16.045646  4784 net.cpp:129] Top shape: 1 832 28 62 (1444352)
I1216 09:09:16.045650  4784 net.cpp:137] Memory required for data: 835059640
I1216 09:09:16.045655  4784 layer_factory.hpp:77] Creating layer conv1_13/bn
I1216 09:09:16.045666  4784 net.cpp:84] Creating Layer conv1_13/bn
I1216 09:09:16.045672  4784 net.cpp:406] conv1_13/bn <- concat1_12_concat1_12_0_split_0
I1216 09:09:16.045680  4784 net.cpp:380] conv1_13/bn -> conv1_13/bn
I1216 09:09:16.046454  4784 net.cpp:122] Setting up conv1_13/bn
I1216 09:09:16.046470  4784 net.cpp:129] Top shape: 1 832 28 62 (1444352)
I1216 09:09:16.046475  4784 net.cpp:137] Memory required for data: 840837048
I1216 09:09:16.046489  4784 layer_factory.hpp:77] Creating layer conv1_13/scale
I1216 09:09:16.046499  4784 net.cpp:84] Creating Layer conv1_13/scale
I1216 09:09:16.046505  4784 net.cpp:406] conv1_13/scale <- conv1_13/bn
I1216 09:09:16.046514  4784 net.cpp:367] conv1_13/scale -> conv1_13/bn (in-place)
I1216 09:09:16.046636  4784 layer_factory.hpp:77] Creating layer conv1_13/scale
I1216 09:09:16.047022  4784 net.cpp:122] Setting up conv1_13/scale
I1216 09:09:16.047036  4784 net.cpp:129] Top shape: 1 832 28 62 (1444352)
I1216 09:09:16.047042  4784 net.cpp:137] Memory required for data: 846614456
I1216 09:09:16.047051  4784 layer_factory.hpp:77] Creating layer relu1_13
I1216 09:09:16.047062  4784 net.cpp:84] Creating Layer relu1_13
I1216 09:09:16.047068  4784 net.cpp:406] relu1_13 <- conv1_13/bn
I1216 09:09:16.047076  4784 net.cpp:367] relu1_13 -> conv1_13/bn (in-place)
I1216 09:09:16.047397  4784 net.cpp:122] Setting up relu1_13
I1216 09:09:16.047411  4784 net.cpp:129] Top shape: 1 832 28 62 (1444352)
I1216 09:09:16.047417  4784 net.cpp:137] Memory required for data: 852391864
I1216 09:09:16.047423  4784 layer_factory.hpp:77] Creating layer conv1_13
I1216 09:09:16.047439  4784 net.cpp:84] Creating Layer conv1_13
I1216 09:09:16.047447  4784 net.cpp:406] conv1_13 <- conv1_13/bn
I1216 09:09:16.047457  4784 net.cpp:380] conv1_13 -> conv1_13
I1216 09:09:16.059706  4784 net.cpp:122] Setting up conv1_13
I1216 09:09:16.059756  4784 net.cpp:129] Top shape: 1 32 28 62 (55552)
I1216 09:09:16.059763  4784 net.cpp:137] Memory required for data: 852614072
I1216 09:09:16.059777  4784 layer_factory.hpp:77] Creating layer concat1_13
I1216 09:09:16.059792  4784 net.cpp:84] Creating Layer concat1_13
I1216 09:09:16.059801  4784 net.cpp:406] concat1_13 <- concat1_12_concat1_12_0_split_1
I1216 09:09:16.059811  4784 net.cpp:406] concat1_13 <- conv1_13
I1216 09:09:16.059821  4784 net.cpp:380] concat1_13 -> concat1_13
I1216 09:09:16.059900  4784 net.cpp:122] Setting up concat1_13
I1216 09:09:16.059911  4784 net.cpp:129] Top shape: 1 864 28 62 (1499904)
I1216 09:09:16.059916  4784 net.cpp:137] Memory required for data: 858613688
I1216 09:09:16.059921  4784 layer_factory.hpp:77] Creating layer concat1_13_concat1_13_0_split
I1216 09:09:16.059931  4784 net.cpp:84] Creating Layer concat1_13_concat1_13_0_split
I1216 09:09:16.059936  4784 net.cpp:406] concat1_13_concat1_13_0_split <- concat1_13
I1216 09:09:16.059944  4784 net.cpp:380] concat1_13_concat1_13_0_split -> concat1_13_concat1_13_0_split_0
I1216 09:09:16.059954  4784 net.cpp:380] concat1_13_concat1_13_0_split -> concat1_13_concat1_13_0_split_1
I1216 09:09:16.060071  4784 net.cpp:122] Setting up concat1_13_concat1_13_0_split
I1216 09:09:16.060084  4784 net.cpp:129] Top shape: 1 864 28 62 (1499904)
I1216 09:09:16.060092  4784 net.cpp:129] Top shape: 1 864 28 62 (1499904)
I1216 09:09:16.060096  4784 net.cpp:137] Memory required for data: 870612920
I1216 09:09:16.060101  4784 layer_factory.hpp:77] Creating layer conv1_14/bn
I1216 09:09:16.060120  4784 net.cpp:84] Creating Layer conv1_14/bn
I1216 09:09:16.060127  4784 net.cpp:406] conv1_14/bn <- concat1_13_concat1_13_0_split_0
I1216 09:09:16.060137  4784 net.cpp:380] conv1_14/bn -> conv1_14/bn
I1216 09:09:16.060931  4784 net.cpp:122] Setting up conv1_14/bn
I1216 09:09:16.060947  4784 net.cpp:129] Top shape: 1 864 28 62 (1499904)
I1216 09:09:16.060953  4784 net.cpp:137] Memory required for data: 876612536
I1216 09:09:16.060967  4784 layer_factory.hpp:77] Creating layer conv1_14/scale
I1216 09:09:16.060982  4784 net.cpp:84] Creating Layer conv1_14/scale
I1216 09:09:16.060988  4784 net.cpp:406] conv1_14/scale <- conv1_14/bn
I1216 09:09:16.060997  4784 net.cpp:367] conv1_14/scale -> conv1_14/bn (in-place)
I1216 09:09:16.061118  4784 layer_factory.hpp:77] Creating layer conv1_14/scale
I1216 09:09:16.061509  4784 net.cpp:122] Setting up conv1_14/scale
I1216 09:09:16.061523  4784 net.cpp:129] Top shape: 1 864 28 62 (1499904)
I1216 09:09:16.061529  4784 net.cpp:137] Memory required for data: 882612152
I1216 09:09:16.061539  4784 layer_factory.hpp:77] Creating layer relu1_14
I1216 09:09:16.061549  4784 net.cpp:84] Creating Layer relu1_14
I1216 09:09:16.061555  4784 net.cpp:406] relu1_14 <- conv1_14/bn
I1216 09:09:16.061563  4784 net.cpp:367] relu1_14 -> conv1_14/bn (in-place)
I1216 09:09:16.062207  4784 net.cpp:122] Setting up relu1_14
I1216 09:09:16.062225  4784 net.cpp:129] Top shape: 1 864 28 62 (1499904)
I1216 09:09:16.062232  4784 net.cpp:137] Memory required for data: 888611768
I1216 09:09:16.062237  4784 layer_factory.hpp:77] Creating layer conv1_14
I1216 09:09:16.062254  4784 net.cpp:84] Creating Layer conv1_14
I1216 09:09:16.062261  4784 net.cpp:406] conv1_14 <- conv1_14/bn
I1216 09:09:16.062270  4784 net.cpp:380] conv1_14 -> conv1_14
I1216 09:09:16.074718  4784 net.cpp:122] Setting up conv1_14
I1216 09:09:16.074756  4784 net.cpp:129] Top shape: 1 32 28 62 (55552)
I1216 09:09:16.074764  4784 net.cpp:137] Memory required for data: 888833976
I1216 09:09:16.074774  4784 layer_factory.hpp:77] Creating layer concat1_14
I1216 09:09:16.074787  4784 net.cpp:84] Creating Layer concat1_14
I1216 09:09:16.074795  4784 net.cpp:406] concat1_14 <- concat1_13_concat1_13_0_split_1
I1216 09:09:16.074805  4784 net.cpp:406] concat1_14 <- conv1_14
I1216 09:09:16.074813  4784 net.cpp:380] concat1_14 -> concat1_14
I1216 09:09:16.074888  4784 net.cpp:122] Setting up concat1_14
I1216 09:09:16.074900  4784 net.cpp:129] Top shape: 1 896 28 62 (1555456)
I1216 09:09:16.074905  4784 net.cpp:137] Memory required for data: 895055800
I1216 09:09:16.074911  4784 layer_factory.hpp:77] Creating layer concat1_14_concat1_14_0_split
I1216 09:09:16.074919  4784 net.cpp:84] Creating Layer concat1_14_concat1_14_0_split
I1216 09:09:16.074925  4784 net.cpp:406] concat1_14_concat1_14_0_split <- concat1_14
I1216 09:09:16.074934  4784 net.cpp:380] concat1_14_concat1_14_0_split -> concat1_14_concat1_14_0_split_0
I1216 09:09:16.074944  4784 net.cpp:380] concat1_14_concat1_14_0_split -> concat1_14_concat1_14_0_split_1
I1216 09:09:16.075060  4784 net.cpp:122] Setting up concat1_14_concat1_14_0_split
I1216 09:09:16.075073  4784 net.cpp:129] Top shape: 1 896 28 62 (1555456)
I1216 09:09:16.075080  4784 net.cpp:129] Top shape: 1 896 28 62 (1555456)
I1216 09:09:16.075084  4784 net.cpp:137] Memory required for data: 907499448
I1216 09:09:16.075089  4784 layer_factory.hpp:77] Creating layer conv1_15/bn
I1216 09:09:16.075098  4784 net.cpp:84] Creating Layer conv1_15/bn
I1216 09:09:16.075103  4784 net.cpp:406] conv1_15/bn <- concat1_14_concat1_14_0_split_0
I1216 09:09:16.075114  4784 net.cpp:380] conv1_15/bn -> conv1_15/bn
I1216 09:09:16.075888  4784 net.cpp:122] Setting up conv1_15/bn
I1216 09:09:16.075903  4784 net.cpp:129] Top shape: 1 896 28 62 (1555456)
I1216 09:09:16.075909  4784 net.cpp:137] Memory required for data: 913721272
I1216 09:09:16.075922  4784 layer_factory.hpp:77] Creating layer conv1_15/scale
I1216 09:09:16.075935  4784 net.cpp:84] Creating Layer conv1_15/scale
I1216 09:09:16.075942  4784 net.cpp:406] conv1_15/scale <- conv1_15/bn
I1216 09:09:16.075951  4784 net.cpp:367] conv1_15/scale -> conv1_15/bn (in-place)
I1216 09:09:16.076058  4784 layer_factory.hpp:77] Creating layer conv1_15/scale
I1216 09:09:16.076436  4784 net.cpp:122] Setting up conv1_15/scale
I1216 09:09:16.076454  4784 net.cpp:129] Top shape: 1 896 28 62 (1555456)
I1216 09:09:16.076459  4784 net.cpp:137] Memory required for data: 919943096
I1216 09:09:16.076469  4784 layer_factory.hpp:77] Creating layer relu1_15
I1216 09:09:16.076478  4784 net.cpp:84] Creating Layer relu1_15
I1216 09:09:16.076484  4784 net.cpp:406] relu1_15 <- conv1_15/bn
I1216 09:09:16.076493  4784 net.cpp:367] relu1_15 -> conv1_15/bn (in-place)
I1216 09:09:16.077023  4784 net.cpp:122] Setting up relu1_15
I1216 09:09:16.077039  4784 net.cpp:129] Top shape: 1 896 28 62 (1555456)
I1216 09:09:16.077045  4784 net.cpp:137] Memory required for data: 926164920
I1216 09:09:16.077050  4784 layer_factory.hpp:77] Creating layer conv1_15
I1216 09:09:16.077065  4784 net.cpp:84] Creating Layer conv1_15
I1216 09:09:16.077072  4784 net.cpp:406] conv1_15 <- conv1_15/bn
I1216 09:09:16.077083  4784 net.cpp:380] conv1_15 -> conv1_15
I1216 09:09:16.089823  4784 net.cpp:122] Setting up conv1_15
I1216 09:09:16.089860  4784 net.cpp:129] Top shape: 1 32 28 62 (55552)
I1216 09:09:16.089867  4784 net.cpp:137] Memory required for data: 926387128
I1216 09:09:16.089880  4784 layer_factory.hpp:77] Creating layer concat1_15
I1216 09:09:16.089895  4784 net.cpp:84] Creating Layer concat1_15
I1216 09:09:16.089903  4784 net.cpp:406] concat1_15 <- concat1_14_concat1_14_0_split_1
I1216 09:09:16.089912  4784 net.cpp:406] concat1_15 <- conv1_15
I1216 09:09:16.089922  4784 net.cpp:380] concat1_15 -> concat1_15
I1216 09:09:16.089999  4784 net.cpp:122] Setting up concat1_15
I1216 09:09:16.090011  4784 net.cpp:129] Top shape: 1 928 28 62 (1611008)
I1216 09:09:16.090018  4784 net.cpp:137] Memory required for data: 932831160
I1216 09:09:16.090021  4784 layer_factory.hpp:77] Creating layer concat1_15_concat1_15_0_split
I1216 09:09:16.090030  4784 net.cpp:84] Creating Layer concat1_15_concat1_15_0_split
I1216 09:09:16.090036  4784 net.cpp:406] concat1_15_concat1_15_0_split <- concat1_15
I1216 09:09:16.090045  4784 net.cpp:380] concat1_15_concat1_15_0_split -> concat1_15_concat1_15_0_split_0
I1216 09:09:16.090055  4784 net.cpp:380] concat1_15_concat1_15_0_split -> concat1_15_concat1_15_0_split_1
I1216 09:09:16.090173  4784 net.cpp:122] Setting up concat1_15_concat1_15_0_split
I1216 09:09:16.090184  4784 net.cpp:129] Top shape: 1 928 28 62 (1611008)
I1216 09:09:16.090190  4784 net.cpp:129] Top shape: 1 928 28 62 (1611008)
I1216 09:09:16.090195  4784 net.cpp:137] Memory required for data: 945719224
I1216 09:09:16.090200  4784 layer_factory.hpp:77] Creating layer conv1_16/bn
I1216 09:09:16.090210  4784 net.cpp:84] Creating Layer conv1_16/bn
I1216 09:09:16.090216  4784 net.cpp:406] conv1_16/bn <- concat1_15_concat1_15_0_split_0
I1216 09:09:16.090224  4784 net.cpp:380] conv1_16/bn -> conv1_16/bn
I1216 09:09:16.091001  4784 net.cpp:122] Setting up conv1_16/bn
I1216 09:09:16.091017  4784 net.cpp:129] Top shape: 1 928 28 62 (1611008)
I1216 09:09:16.091022  4784 net.cpp:137] Memory required for data: 952163256
I1216 09:09:16.091033  4784 layer_factory.hpp:77] Creating layer conv1_16/scale
I1216 09:09:16.091048  4784 net.cpp:84] Creating Layer conv1_16/scale
I1216 09:09:16.091054  4784 net.cpp:406] conv1_16/scale <- conv1_16/bn
I1216 09:09:16.091063  4784 net.cpp:367] conv1_16/scale -> conv1_16/bn (in-place)
I1216 09:09:16.091187  4784 layer_factory.hpp:77] Creating layer conv1_16/scale
I1216 09:09:16.091585  4784 net.cpp:122] Setting up conv1_16/scale
I1216 09:09:16.091599  4784 net.cpp:129] Top shape: 1 928 28 62 (1611008)
I1216 09:09:16.091605  4784 net.cpp:137] Memory required for data: 958607288
I1216 09:09:16.091615  4784 layer_factory.hpp:77] Creating layer relu1_16
I1216 09:09:16.091624  4784 net.cpp:84] Creating Layer relu1_16
I1216 09:09:16.091630  4784 net.cpp:406] relu1_16 <- conv1_16/bn
I1216 09:09:16.091637  4784 net.cpp:367] relu1_16 -> conv1_16/bn (in-place)
I1216 09:09:16.091943  4784 net.cpp:122] Setting up relu1_16
I1216 09:09:16.091958  4784 net.cpp:129] Top shape: 1 928 28 62 (1611008)
I1216 09:09:16.091964  4784 net.cpp:137] Memory required for data: 965051320
I1216 09:09:16.091974  4784 layer_factory.hpp:77] Creating layer conv1_16
I1216 09:09:16.091991  4784 net.cpp:84] Creating Layer conv1_16
I1216 09:09:16.091997  4784 net.cpp:406] conv1_16 <- conv1_16/bn
I1216 09:09:16.092007  4784 net.cpp:380] conv1_16 -> conv1_16
I1216 09:09:16.104979  4784 net.cpp:122] Setting up conv1_16
I1216 09:09:16.105010  4784 net.cpp:129] Top shape: 1 32 28 62 (55552)
I1216 09:09:16.105017  4784 net.cpp:137] Memory required for data: 965273528
I1216 09:09:16.105028  4784 layer_factory.hpp:77] Creating layer concat1_16
I1216 09:09:16.105039  4784 net.cpp:84] Creating Layer concat1_16
I1216 09:09:16.105048  4784 net.cpp:406] concat1_16 <- concat1_15_concat1_15_0_split_1
I1216 09:09:16.105057  4784 net.cpp:406] concat1_16 <- conv1_16
I1216 09:09:16.105067  4784 net.cpp:380] concat1_16 -> concat1_16
I1216 09:09:16.105141  4784 net.cpp:122] Setting up concat1_16
I1216 09:09:16.105154  4784 net.cpp:129] Top shape: 1 960 28 62 (1666560)
I1216 09:09:16.105159  4784 net.cpp:137] Memory required for data: 971939768
I1216 09:09:16.105163  4784 layer_factory.hpp:77] Creating layer concat1_16_concat1_16_0_split
I1216 09:09:16.105172  4784 net.cpp:84] Creating Layer concat1_16_concat1_16_0_split
I1216 09:09:16.105178  4784 net.cpp:406] concat1_16_concat1_16_0_split <- concat1_16
I1216 09:09:16.105185  4784 net.cpp:380] concat1_16_concat1_16_0_split -> concat1_16_concat1_16_0_split_0
I1216 09:09:16.105195  4784 net.cpp:380] concat1_16_concat1_16_0_split -> concat1_16_concat1_16_0_split_1
I1216 09:09:16.105309  4784 net.cpp:122] Setting up concat1_16_concat1_16_0_split
I1216 09:09:16.105321  4784 net.cpp:129] Top shape: 1 960 28 62 (1666560)
I1216 09:09:16.105327  4784 net.cpp:129] Top shape: 1 960 28 62 (1666560)
I1216 09:09:16.105332  4784 net.cpp:137] Memory required for data: 985272248
I1216 09:09:16.105337  4784 layer_factory.hpp:77] Creating layer conv1_17/bn
I1216 09:09:16.105350  4784 net.cpp:84] Creating Layer conv1_17/bn
I1216 09:09:16.105356  4784 net.cpp:406] conv1_17/bn <- concat1_16_concat1_16_0_split_0
I1216 09:09:16.105365  4784 net.cpp:380] conv1_17/bn -> conv1_17/bn
I1216 09:09:16.106166  4784 net.cpp:122] Setting up conv1_17/bn
I1216 09:09:16.106180  4784 net.cpp:129] Top shape: 1 960 28 62 (1666560)
I1216 09:09:16.106186  4784 net.cpp:137] Memory required for data: 991938488
I1216 09:09:16.106197  4784 layer_factory.hpp:77] Creating layer conv1_17/scale
I1216 09:09:16.106210  4784 net.cpp:84] Creating Layer conv1_17/scale
I1216 09:09:16.106217  4784 net.cpp:406] conv1_17/scale <- conv1_17/bn
I1216 09:09:16.106225  4784 net.cpp:367] conv1_17/scale -> conv1_17/bn (in-place)
I1216 09:09:16.106348  4784 layer_factory.hpp:77] Creating layer conv1_17/scale
I1216 09:09:16.106753  4784 net.cpp:122] Setting up conv1_17/scale
I1216 09:09:16.106767  4784 net.cpp:129] Top shape: 1 960 28 62 (1666560)
I1216 09:09:16.106773  4784 net.cpp:137] Memory required for data: 998604728
I1216 09:09:16.106782  4784 layer_factory.hpp:77] Creating layer relu1_17
I1216 09:09:16.106791  4784 net.cpp:84] Creating Layer relu1_17
I1216 09:09:16.106796  4784 net.cpp:406] relu1_17 <- conv1_17/bn
I1216 09:09:16.106803  4784 net.cpp:367] relu1_17 -> conv1_17/bn (in-place)
I1216 09:09:16.107547  4784 net.cpp:122] Setting up relu1_17
I1216 09:09:16.107563  4784 net.cpp:129] Top shape: 1 960 28 62 (1666560)
I1216 09:09:16.107569  4784 net.cpp:137] Memory required for data: 1005270968
I1216 09:09:16.107575  4784 layer_factory.hpp:77] Creating layer conv1_17
I1216 09:09:16.107590  4784 net.cpp:84] Creating Layer conv1_17
I1216 09:09:16.107597  4784 net.cpp:406] conv1_17 <- conv1_17/bn
I1216 09:09:16.107607  4784 net.cpp:380] conv1_17 -> conv1_17
I1216 09:09:16.121101  4784 net.cpp:122] Setting up conv1_17
I1216 09:09:16.121140  4784 net.cpp:129] Top shape: 1 32 28 62 (55552)
I1216 09:09:16.121148  4784 net.cpp:137] Memory required for data: 1005493176
I1216 09:09:16.121160  4784 layer_factory.hpp:77] Creating layer concat1_17
I1216 09:09:16.121174  4784 net.cpp:84] Creating Layer concat1_17
I1216 09:09:16.121182  4784 net.cpp:406] concat1_17 <- concat1_16_concat1_16_0_split_1
I1216 09:09:16.121196  4784 net.cpp:406] concat1_17 <- conv1_17
I1216 09:09:16.121208  4784 net.cpp:380] concat1_17 -> concat1_17
I1216 09:09:16.121285  4784 net.cpp:122] Setting up concat1_17
I1216 09:09:16.121297  4784 net.cpp:129] Top shape: 1 992 28 62 (1722112)
I1216 09:09:16.121302  4784 net.cpp:137] Memory required for data: 1012381624
I1216 09:09:16.121307  4784 layer_factory.hpp:77] Creating layer concat1_17_concat1_17_0_split
I1216 09:09:16.121317  4784 net.cpp:84] Creating Layer concat1_17_concat1_17_0_split
I1216 09:09:16.121322  4784 net.cpp:406] concat1_17_concat1_17_0_split <- concat1_17
I1216 09:09:16.121330  4784 net.cpp:380] concat1_17_concat1_17_0_split -> concat1_17_concat1_17_0_split_0
I1216 09:09:16.121340  4784 net.cpp:380] concat1_17_concat1_17_0_split -> concat1_17_concat1_17_0_split_1
I1216 09:09:16.121459  4784 net.cpp:122] Setting up concat1_17_concat1_17_0_split
I1216 09:09:16.121470  4784 net.cpp:129] Top shape: 1 992 28 62 (1722112)
I1216 09:09:16.121476  4784 net.cpp:129] Top shape: 1 992 28 62 (1722112)
I1216 09:09:16.121481  4784 net.cpp:137] Memory required for data: 1026158520
I1216 09:09:16.121485  4784 layer_factory.hpp:77] Creating layer conv1_18/bn
I1216 09:09:16.121496  4784 net.cpp:84] Creating Layer conv1_18/bn
I1216 09:09:16.121502  4784 net.cpp:406] conv1_18/bn <- concat1_17_concat1_17_0_split_0
I1216 09:09:16.121510  4784 net.cpp:380] conv1_18/bn -> conv1_18/bn
I1216 09:09:16.122324  4784 net.cpp:122] Setting up conv1_18/bn
I1216 09:09:16.122339  4784 net.cpp:129] Top shape: 1 992 28 62 (1722112)
I1216 09:09:16.122345  4784 net.cpp:137] Memory required for data: 1033046968
I1216 09:09:16.122356  4784 layer_factory.hpp:77] Creating layer conv1_18/scale
I1216 09:09:16.122370  4784 net.cpp:84] Creating Layer conv1_18/scale
I1216 09:09:16.122377  4784 net.cpp:406] conv1_18/scale <- conv1_18/bn
I1216 09:09:16.122385  4784 net.cpp:367] conv1_18/scale -> conv1_18/bn (in-place)
I1216 09:09:16.122509  4784 layer_factory.hpp:77] Creating layer conv1_18/scale
I1216 09:09:16.122918  4784 net.cpp:122] Setting up conv1_18/scale
I1216 09:09:16.122932  4784 net.cpp:129] Top shape: 1 992 28 62 (1722112)
I1216 09:09:16.122938  4784 net.cpp:137] Memory required for data: 1039935416
I1216 09:09:16.122947  4784 layer_factory.hpp:77] Creating layer relu1_18
I1216 09:09:16.122956  4784 net.cpp:84] Creating Layer relu1_18
I1216 09:09:16.122962  4784 net.cpp:406] relu1_18 <- conv1_18/bn
I1216 09:09:16.122969  4784 net.cpp:367] relu1_18 -> conv1_18/bn (in-place)
I1216 09:09:16.123278  4784 net.cpp:122] Setting up relu1_18
I1216 09:09:16.123292  4784 net.cpp:129] Top shape: 1 992 28 62 (1722112)
I1216 09:09:16.123298  4784 net.cpp:137] Memory required for data: 1046823864
I1216 09:09:16.123303  4784 layer_factory.hpp:77] Creating layer conv1_18
I1216 09:09:16.123319  4784 net.cpp:84] Creating Layer conv1_18
I1216 09:09:16.123327  4784 net.cpp:406] conv1_18 <- conv1_18/bn
I1216 09:09:16.123337  4784 net.cpp:380] conv1_18 -> conv1_18
I1216 09:09:16.136557  4784 net.cpp:122] Setting up conv1_18
I1216 09:09:16.136584  4784 net.cpp:129] Top shape: 1 32 28 62 (55552)
I1216 09:09:16.136587  4784 net.cpp:137] Memory required for data: 1047046072
I1216 09:09:16.136595  4784 layer_factory.hpp:77] Creating layer concat1_18
I1216 09:09:16.136603  4784 net.cpp:84] Creating Layer concat1_18
I1216 09:09:16.136608  4784 net.cpp:406] concat1_18 <- concat1_17_concat1_17_0_split_1
I1216 09:09:16.136615  4784 net.cpp:406] concat1_18 <- conv1_18
I1216 09:09:16.136620  4784 net.cpp:380] concat1_18 -> concat1_18
I1216 09:09:16.136669  4784 net.cpp:122] Setting up concat1_18
I1216 09:09:16.136675  4784 net.cpp:129] Top shape: 1 1024 28 62 (1777664)
I1216 09:09:16.136678  4784 net.cpp:137] Memory required for data: 1054156728
I1216 09:09:16.136682  4784 layer_factory.hpp:77] Creating layer concat1_18_concat1_18_0_split
I1216 09:09:16.136687  4784 net.cpp:84] Creating Layer concat1_18_concat1_18_0_split
I1216 09:09:16.136690  4784 net.cpp:406] concat1_18_concat1_18_0_split <- concat1_18
I1216 09:09:16.136698  4784 net.cpp:380] concat1_18_concat1_18_0_split -> concat1_18_concat1_18_0_split_0
I1216 09:09:16.136703  4784 net.cpp:380] concat1_18_concat1_18_0_split -> concat1_18_concat1_18_0_split_1
I1216 09:09:16.136770  4784 net.cpp:122] Setting up concat1_18_concat1_18_0_split
I1216 09:09:16.136776  4784 net.cpp:129] Top shape: 1 1024 28 62 (1777664)
I1216 09:09:16.136780  4784 net.cpp:129] Top shape: 1 1024 28 62 (1777664)
I1216 09:09:16.136782  4784 net.cpp:137] Memory required for data: 1068378040
I1216 09:09:16.136785  4784 layer_factory.hpp:77] Creating layer conv1_19/bn
I1216 09:09:16.136791  4784 net.cpp:84] Creating Layer conv1_19/bn
I1216 09:09:16.136795  4784 net.cpp:406] conv1_19/bn <- concat1_18_concat1_18_0_split_0
I1216 09:09:16.136801  4784 net.cpp:380] conv1_19/bn -> conv1_19/bn
I1216 09:09:16.137291  4784 net.cpp:122] Setting up conv1_19/bn
I1216 09:09:16.137301  4784 net.cpp:129] Top shape: 1 1024 28 62 (1777664)
I1216 09:09:16.137305  4784 net.cpp:137] Memory required for data: 1075488696
I1216 09:09:16.137312  4784 layer_factory.hpp:77] Creating layer conv1_19/scale
I1216 09:09:16.137320  4784 net.cpp:84] Creating Layer conv1_19/scale
I1216 09:09:16.137325  4784 net.cpp:406] conv1_19/scale <- conv1_19/bn
I1216 09:09:16.137328  4784 net.cpp:367] conv1_19/scale -> conv1_19/bn (in-place)
I1216 09:09:16.137398  4784 layer_factory.hpp:77] Creating layer conv1_19/scale
I1216 09:09:16.137614  4784 net.cpp:122] Setting up conv1_19/scale
I1216 09:09:16.137620  4784 net.cpp:129] Top shape: 1 1024 28 62 (1777664)
I1216 09:09:16.137624  4784 net.cpp:137] Memory required for data: 1082599352
I1216 09:09:16.137629  4784 layer_factory.hpp:77] Creating layer relu1_19
I1216 09:09:16.137634  4784 net.cpp:84] Creating Layer relu1_19
I1216 09:09:16.137639  4784 net.cpp:406] relu1_19 <- conv1_19/bn
I1216 09:09:16.137641  4784 net.cpp:367] relu1_19 -> conv1_19/bn (in-place)
I1216 09:09:16.138016  4784 net.cpp:122] Setting up relu1_19
I1216 09:09:16.138026  4784 net.cpp:129] Top shape: 1 1024 28 62 (1777664)
I1216 09:09:16.138029  4784 net.cpp:137] Memory required for data: 1089710008
I1216 09:09:16.138032  4784 layer_factory.hpp:77] Creating layer conv1_19
I1216 09:09:16.138043  4784 net.cpp:84] Creating Layer conv1_19
I1216 09:09:16.138046  4784 net.cpp:406] conv1_19 <- conv1_19/bn
I1216 09:09:16.138052  4784 net.cpp:380] conv1_19 -> conv1_19
I1216 09:09:16.147310  4784 net.cpp:122] Setting up conv1_19
I1216 09:09:16.147338  4784 net.cpp:129] Top shape: 1 32 28 62 (55552)
I1216 09:09:16.147341  4784 net.cpp:137] Memory required for data: 1089932216
I1216 09:09:16.147349  4784 layer_factory.hpp:77] Creating layer concat1_19
I1216 09:09:16.147361  4784 net.cpp:84] Creating Layer concat1_19
I1216 09:09:16.147367  4784 net.cpp:406] concat1_19 <- concat1_18_concat1_18_0_split_1
I1216 09:09:16.147372  4784 net.cpp:406] concat1_19 <- conv1_19
I1216 09:09:16.147377  4784 net.cpp:380] concat1_19 -> concat1_19
I1216 09:09:16.147430  4784 net.cpp:122] Setting up concat1_19
I1216 09:09:16.147436  4784 net.cpp:129] Top shape: 1 1056 28 62 (1833216)
I1216 09:09:16.147439  4784 net.cpp:137] Memory required for data: 1097265080
I1216 09:09:16.147441  4784 layer_factory.hpp:77] Creating layer concat1_19_concat1_19_0_split
I1216 09:09:16.147449  4784 net.cpp:84] Creating Layer concat1_19_concat1_19_0_split
I1216 09:09:16.147452  4784 net.cpp:406] concat1_19_concat1_19_0_split <- concat1_19
I1216 09:09:16.147457  4784 net.cpp:380] concat1_19_concat1_19_0_split -> concat1_19_concat1_19_0_split_0
I1216 09:09:16.147462  4784 net.cpp:380] concat1_19_concat1_19_0_split -> concat1_19_concat1_19_0_split_1
I1216 09:09:16.147532  4784 net.cpp:122] Setting up concat1_19_concat1_19_0_split
I1216 09:09:16.147537  4784 net.cpp:129] Top shape: 1 1056 28 62 (1833216)
I1216 09:09:16.147541  4784 net.cpp:129] Top shape: 1 1056 28 62 (1833216)
I1216 09:09:16.147543  4784 net.cpp:137] Memory required for data: 1111930808
I1216 09:09:16.147547  4784 layer_factory.hpp:77] Creating layer conv1_20/bn
I1216 09:09:16.147555  4784 net.cpp:84] Creating Layer conv1_20/bn
I1216 09:09:16.147562  4784 net.cpp:406] conv1_20/bn <- concat1_19_concat1_19_0_split_0
I1216 09:09:16.147568  4784 net.cpp:380] conv1_20/bn -> conv1_20/bn
I1216 09:09:16.148023  4784 net.cpp:122] Setting up conv1_20/bn
I1216 09:09:16.148031  4784 net.cpp:129] Top shape: 1 1056 28 62 (1833216)
I1216 09:09:16.148035  4784 net.cpp:137] Memory required for data: 1119263672
I1216 09:09:16.148041  4784 layer_factory.hpp:77] Creating layer conv1_20/scale
I1216 09:09:16.148048  4784 net.cpp:84] Creating Layer conv1_20/scale
I1216 09:09:16.148051  4784 net.cpp:406] conv1_20/scale <- conv1_20/bn
I1216 09:09:16.148057  4784 net.cpp:367] conv1_20/scale -> conv1_20/bn (in-place)
I1216 09:09:16.148133  4784 layer_factory.hpp:77] Creating layer conv1_20/scale
I1216 09:09:16.148355  4784 net.cpp:122] Setting up conv1_20/scale
I1216 09:09:16.148362  4784 net.cpp:129] Top shape: 1 1056 28 62 (1833216)
I1216 09:09:16.148365  4784 net.cpp:137] Memory required for data: 1126596536
I1216 09:09:16.148370  4784 layer_factory.hpp:77] Creating layer relu1_20
I1216 09:09:16.148375  4784 net.cpp:84] Creating Layer relu1_20
I1216 09:09:16.148378  4784 net.cpp:406] relu1_20 <- conv1_20/bn
I1216 09:09:16.148383  4784 net.cpp:367] relu1_20 -> conv1_20/bn (in-place)
I1216 09:09:16.148798  4784 net.cpp:122] Setting up relu1_20
I1216 09:09:16.148808  4784 net.cpp:129] Top shape: 1 1056 28 62 (1833216)
I1216 09:09:16.148811  4784 net.cpp:137] Memory required for data: 1133929400
I1216 09:09:16.148814  4784 layer_factory.hpp:77] Creating layer conv1_20
I1216 09:09:16.148824  4784 net.cpp:84] Creating Layer conv1_20
I1216 09:09:16.148828  4784 net.cpp:406] conv1_20 <- conv1_20/bn
I1216 09:09:16.148834  4784 net.cpp:380] conv1_20 -> conv1_20
I1216 09:09:16.158159  4784 net.cpp:122] Setting up conv1_20
I1216 09:09:16.158181  4784 net.cpp:129] Top shape: 1 32 28 62 (55552)
I1216 09:09:16.158185  4784 net.cpp:137] Memory required for data: 1134151608
I1216 09:09:16.158191  4784 layer_factory.hpp:77] Creating layer concat1_20
I1216 09:09:16.158200  4784 net.cpp:84] Creating Layer concat1_20
I1216 09:09:16.158205  4784 net.cpp:406] concat1_20 <- concat1_19_concat1_19_0_split_1
I1216 09:09:16.158211  4784 net.cpp:406] concat1_20 <- conv1_20
I1216 09:09:16.158215  4784 net.cpp:380] concat1_20 -> concat1_20
I1216 09:09:16.158267  4784 net.cpp:122] Setting up concat1_20
I1216 09:09:16.158273  4784 net.cpp:129] Top shape: 1 1088 28 62 (1888768)
I1216 09:09:16.158275  4784 net.cpp:137] Memory required for data: 1141706680
I1216 09:09:16.158278  4784 layer_factory.hpp:77] Creating layer concat1_20_concat1_20_0_split
I1216 09:09:16.158283  4784 net.cpp:84] Creating Layer concat1_20_concat1_20_0_split
I1216 09:09:16.158287  4784 net.cpp:406] concat1_20_concat1_20_0_split <- concat1_20
I1216 09:09:16.158291  4784 net.cpp:380] concat1_20_concat1_20_0_split -> concat1_20_concat1_20_0_split_0
I1216 09:09:16.158298  4784 net.cpp:380] concat1_20_concat1_20_0_split -> concat1_20_concat1_20_0_split_1
I1216 09:09:16.158365  4784 net.cpp:122] Setting up concat1_20_concat1_20_0_split
I1216 09:09:16.158370  4784 net.cpp:129] Top shape: 1 1088 28 62 (1888768)
I1216 09:09:16.158373  4784 net.cpp:129] Top shape: 1 1088 28 62 (1888768)
I1216 09:09:16.158375  4784 net.cpp:137] Memory required for data: 1156816824
I1216 09:09:16.158378  4784 layer_factory.hpp:77] Creating layer conv1_21/bn
I1216 09:09:16.158383  4784 net.cpp:84] Creating Layer conv1_21/bn
I1216 09:09:16.158386  4784 net.cpp:406] conv1_21/bn <- concat1_20_concat1_20_0_split_0
I1216 09:09:16.158391  4784 net.cpp:380] conv1_21/bn -> conv1_21/bn
I1216 09:09:16.158821  4784 net.cpp:122] Setting up conv1_21/bn
I1216 09:09:16.158828  4784 net.cpp:129] Top shape: 1 1088 28 62 (1888768)
I1216 09:09:16.158831  4784 net.cpp:137] Memory required for data: 1164371896
I1216 09:09:16.158838  4784 layer_factory.hpp:77] Creating layer conv1_21/scale
I1216 09:09:16.158845  4784 net.cpp:84] Creating Layer conv1_21/scale
…
I1216 09:09:18.249635  4784 net.cpp:406] concat1_10_concat1_10_0_split <- concat1_10
I1216 09:09:18.249639  4784 net.cpp:380] concat1_10_concat1_10_0_split -> concat1_10_concat1_10_0_split_0
I1216 09:09:18.249645  4784 net.cpp:380] concat1_10_concat1_10_0_split -> concat1_10_concat1_10_0_split_1
I1216 09:09:18.249698  4784 net.cpp:122] Setting up concat1_10_concat1_10_0_split
I1216 09:09:18.249706  4784 net.cpp:129] Top shape: 1 768 17 35 (456960)
I1216 09:09:18.249711  4784 net.cpp:129] Top shape: 1 768 17 35 (456960)
I1216 09:09:18.249712  4784 net.cpp:137] Memory required for data: 267564368
I1216 09:09:18.249714  4784 layer_factory.hpp:77] Creating layer conv1_11/bn
I1216 09:09:18.249719  4784 net.cpp:84] Creating Layer conv1_11/bn
I1216 09:09:18.249722  4784 net.cpp:406] conv1_11/bn <- concat1_10_concat1_10_0_split_0
I1216 09:09:18.249728  4784 net.cpp:380] conv1_11/bn -> conv1_11/bn
I1216 09:09:18.250114  4784 net.cpp:122] Setting up conv1_11/bn
I1216 09:09:18.250121  4784 net.cpp:129] Top shape: 1 768 17 35 (456960)
I1216 09:09:18.250124  4784 net.cpp:137] Memory required for data: 269392208
I1216 09:09:18.250130  4784 layer_factory.hpp:77] Creating layer conv1_11/scale
I1216 09:09:18.250138  4784 net.cpp:84] Creating Layer conv1_11/scale
I1216 09:09:18.250140  4784 net.cpp:406] conv1_11/scale <- conv1_11/bn
I1216 09:09:18.250145  4784 net.cpp:367] conv1_11/scale -> conv1_11/bn (in-place)
I1216 09:09:18.250228  4784 layer_factory.hpp:77] Creating layer conv1_11/scale
I1216 09:09:18.250453  4784 net.cpp:122] Setting up conv1_11/scale
I1216 09:09:18.250461  4784 net.cpp:129] Top shape: 1 768 17 35 (456960)
I1216 09:09:18.250463  4784 net.cpp:137] Memory required for data: 271220048
I1216 09:09:18.250468  4784 layer_factory.hpp:77] Creating layer relu1_11
I1216 09:09:18.250473  4784 net.cpp:84] Creating Layer relu1_11
I1216 09:09:18.250476  4784 net.cpp:406] relu1_11 <- conv1_11/bn
I1216 09:09:18.250480  4784 net.cpp:367] relu1_11 -> conv1_11/bn (in-place)
I1216 09:09:18.250885  4784 net.cpp:122] Setting up relu1_11
I1216 09:09:18.250895  4784 net.cpp:129] Top shape: 1 768 17 35 (456960)
I1216 09:09:18.250898  4784 net.cpp:137] Memory required for data: 273047888
I1216 09:09:18.250901  4784 layer_factory.hpp:77] Creating layer conv1_11
I1216 09:09:18.250910  4784 net.cpp:84] Creating Layer conv1_11
I1216 09:09:18.250913  4784 net.cpp:406] conv1_11 <- conv1_11/bn
I1216 09:09:18.250923  4784 net.cpp:380] conv1_11 -> conv1_11
I1216 09:09:18.258402  4784 net.cpp:122] Setting up conv1_11
I1216 09:09:18.258429  4784 net.cpp:129] Top shape: 1 32 17 35 (19040)
I1216 09:09:18.258431  4784 net.cpp:137] Memory required for data: 273124048
I1216 09:09:18.258438  4784 layer_factory.hpp:77] Creating layer concat1_11
I1216 09:09:18.258450  4784 net.cpp:84] Creating Layer concat1_11
I1216 09:09:18.258455  4784 net.cpp:406] concat1_11 <- concat1_10_concat1_10_0_split_1
I1216 09:09:18.258460  4784 net.cpp:406] concat1_11 <- conv1_11
I1216 09:09:18.258466  4784 net.cpp:380] concat1_11 -> concat1_11
I1216 09:09:18.258507  4784 net.cpp:122] Setting up concat1_11
I1216 09:09:18.258514  4784 net.cpp:129] Top shape: 1 800 17 35 (476000)
I1216 09:09:18.258517  4784 net.cpp:137] Memory required for data: 275028048
I1216 09:09:18.258519  4784 layer_factory.hpp:77] Creating layer concat1_11_concat1_11_0_split
I1216 09:09:18.258524  4784 net.cpp:84] Creating Layer concat1_11_concat1_11_0_split
I1216 09:09:18.258527  4784 net.cpp:406] concat1_11_concat1_11_0_split <- concat1_11
I1216 09:09:18.258532  4784 net.cpp:380] concat1_11_concat1_11_0_split -> concat1_11_concat1_11_0_split_0
I1216 09:09:18.258536  4784 net.cpp:380] concat1_11_concat1_11_0_split -> concat1_11_concat1_11_0_split_1
I1216 09:09:18.258589  4784 net.cpp:122] Setting up concat1_11_concat1_11_0_split
I1216 09:09:18.258594  4784 net.cpp:129] Top shape: 1 800 17 35 (476000)
I1216 09:09:18.258597  4784 net.cpp:129] Top shape: 1 800 17 35 (476000)
I1216 09:09:18.258599  4784 net.cpp:137] Memory required for data: 278836048
I1216 09:09:18.258602  4784 layer_factory.hpp:77] Creating layer conv1_12/bn
I1216 09:09:18.258607  4784 net.cpp:84] Creating Layer conv1_12/bn
I1216 09:09:18.258611  4784 net.cpp:406] conv1_12/bn <- concat1_11_concat1_11_0_split_0
I1216 09:09:18.258615  4784 net.cpp:380] conv1_12/bn -> conv1_12/bn
I1216 09:09:18.259037  4784 net.cpp:122] Setting up conv1_12/bn
I1216 09:09:18.259043  4784 net.cpp:129] Top shape: 1 800 17 35 (476000)
I1216 09:09:18.259047  4784 net.cpp:137] Memory required for data: 280740048
I1216 09:09:18.259052  4784 layer_factory.hpp:77] Creating layer conv1_12/scale
I1216 09:09:18.259059  4784 net.cpp:84] Creating Layer conv1_12/scale
I1216 09:09:18.259063  4784 net.cpp:406] conv1_12/scale <- conv1_12/bn
I1216 09:09:18.259068  4784 net.cpp:367] conv1_12/scale -> conv1_12/bn (in-place)
I1216 09:09:18.259150  4784 layer_factory.hpp:77] Creating layer conv1_12/scale
I1216 09:09:18.259398  4784 net.cpp:122] Setting up conv1_12/scale
I1216 09:09:18.259407  4784 net.cpp:129] Top shape: 1 800 17 35 (476000)
I1216 09:09:18.259409  4784 net.cpp:137] Memory required for data: 282644048
I1216 09:09:18.259414  4784 layer_factory.hpp:77] Creating layer relu1_12
I1216 09:09:18.259419  4784 net.cpp:84] Creating Layer relu1_12
I1216 09:09:18.259423  4784 net.cpp:406] relu1_12 <- conv1_12/bn
I1216 09:09:18.259426  4784 net.cpp:367] relu1_12 -> conv1_12/bn (in-place)
I1216 09:09:18.259645  4784 net.cpp:122] Setting up relu1_12
I1216 09:09:18.259654  4784 net.cpp:129] Top shape: 1 800 17 35 (476000)
I1216 09:09:18.259656  4784 net.cpp:137] Memory required for data: 284548048
I1216 09:09:18.259660  4784 layer_factory.hpp:77] Creating layer conv1_12
I1216 09:09:18.259670  4784 net.cpp:84] Creating Layer conv1_12
I1216 09:09:18.259672  4784 net.cpp:406] conv1_12 <- conv1_12/bn
I1216 09:09:18.259678  4784 net.cpp:380] conv1_12 -> conv1_12
I1216 09:09:18.267388  4784 net.cpp:122] Setting up conv1_12
I1216 09:09:18.267413  4784 net.cpp:129] Top shape: 1 32 17 35 (19040)
I1216 09:09:18.267416  4784 net.cpp:137] Memory required for data: 284624208
I1216 09:09:18.267424  4784 layer_factory.hpp:77] Creating layer concat1_12
I1216 09:09:18.267432  4784 net.cpp:84] Creating Layer concat1_12
I1216 09:09:18.267437  4784 net.cpp:406] concat1_12 <- concat1_11_concat1_11_0_split_1
I1216 09:09:18.267443  4784 net.cpp:406] concat1_12 <- conv1_12
I1216 09:09:18.267448  4784 net.cpp:380] concat1_12 -> concat1_12
I1216 09:09:18.267496  4784 net.cpp:122] Setting up concat1_12
I1216 09:09:18.267503  4784 net.cpp:129] Top shape: 1 832 17 35 (495040)
I1216 09:09:18.267504  4784 net.cpp:137] Memory required for data: 286604368
I1216 09:09:18.267508  4784 layer_factory.hpp:77] Creating layer concat1_12_concat1_12_0_split
I1216 09:09:18.267513  4784 net.cpp:84] Creating Layer concat1_12_concat1_12_0_split
I1216 09:09:18.267516  4784 net.cpp:406] concat1_12_concat1_12_0_split <- concat1_12
I1216 09:09:18.267520  4784 net.cpp:380] concat1_12_concat1_12_0_split -> concat1_12_concat1_12_0_split_0
I1216 09:09:18.267525  4784 net.cpp:380] concat1_12_concat1_12_0_split -> concat1_12_concat1_12_0_split_1
I1216 09:09:18.267578  4784 net.cpp:122] Setting up concat1_12_concat1_12_0_split
I1216 09:09:18.267585  4784 net.cpp:129] Top shape: 1 832 17 35 (495040)
I1216 09:09:18.267587  4784 net.cpp:129] Top shape: 1 832 17 35 (495040)
I1216 09:09:18.267590  4784 net.cpp:137] Memory required for data: 290564688
I1216 09:09:18.267592  4784 layer_factory.hpp:77] Creating layer conv1_13/bn
I1216 09:09:18.267597  4784 net.cpp:84] Creating Layer conv1_13/bn
I1216 09:09:18.267601  4784 net.cpp:406] conv1_13/bn <- concat1_12_concat1_12_0_split_0
I1216 09:09:18.267606  4784 net.cpp:380] conv1_13/bn -> conv1_13/bn
I1216 09:09:18.268043  4784 net.cpp:122] Setting up conv1_13/bn
I1216 09:09:18.268049  4784 net.cpp:129] Top shape: 1 832 17 35 (495040)
I1216 09:09:18.268052  4784 net.cpp:137] Memory required for data: 292544848
I1216 09:09:18.268059  4784 layer_factory.hpp:77] Creating layer conv1_13/scale
I1216 09:09:18.268066  4784 net.cpp:84] Creating Layer conv1_13/scale
I1216 09:09:18.268069  4784 net.cpp:406] conv1_13/scale <- conv1_13/bn
I1216 09:09:18.268074  4784 net.cpp:367] conv1_13/scale -> conv1_13/bn (in-place)
I1216 09:09:18.268157  4784 layer_factory.hpp:77] Creating layer conv1_13/scale
I1216 09:09:18.268410  4784 net.cpp:122] Setting up conv1_13/scale
I1216 09:09:18.268417  4784 net.cpp:129] Top shape: 1 832 17 35 (495040)
I1216 09:09:18.268420  4784 net.cpp:137] Memory required for data: 294525008
I1216 09:09:18.268425  4784 layer_factory.hpp:77] Creating layer relu1_13
I1216 09:09:18.268430  4784 net.cpp:84] Creating Layer relu1_13
I1216 09:09:18.268434  4784 net.cpp:406] relu1_13 <- conv1_13/bn
I1216 09:09:18.268438  4784 net.cpp:367] relu1_13 -> conv1_13/bn (in-place)
I1216 09:09:18.268839  4784 net.cpp:122] Setting up relu1_13
I1216 09:09:18.268849  4784 net.cpp:129] Top shape: 1 832 17 35 (495040)
I1216 09:09:18.268852  4784 net.cpp:137] Memory required for data: 296505168
I1216 09:09:18.268856  4784 layer_factory.hpp:77] Creating layer conv1_13
I1216 09:09:18.268865  4784 net.cpp:84] Creating Layer conv1_13
I1216 09:09:18.268868  4784 net.cpp:406] conv1_13 <- conv1_13/bn
I1216 09:09:18.268874  4784 net.cpp:380] conv1_13 -> conv1_13
I1216 09:09:18.277411  4784 net.cpp:122] Setting up conv1_13
I1216 09:09:18.277439  4784 net.cpp:129] Top shape: 1 32 17 35 (19040)
I1216 09:09:18.277443  4784 net.cpp:137] Memory required for data: 296581328
I1216 09:09:18.277452  4784 layer_factory.hpp:77] Creating layer concat1_13
I1216 09:09:18.277463  4784 net.cpp:84] Creating Layer concat1_13
I1216 09:09:18.277468  4784 net.cpp:406] concat1_13 <- concat1_12_concat1_12_0_split_1
I1216 09:09:18.277474  4784 net.cpp:406] concat1_13 <- conv1_13
I1216 09:09:18.277482  4784 net.cpp:380] concat1_13 -> concat1_13
I1216 09:09:18.277530  4784 net.cpp:122] Setting up concat1_13
I1216 09:09:18.277536  4784 net.cpp:129] Top shape: 1 864 17 35 (514080)
I1216 09:09:18.277539  4784 net.cpp:137] Memory required for data: 298637648
I1216 09:09:18.277541  4784 layer_factory.hpp:77] Creating layer concat1_13_concat1_13_0_split
I1216 09:09:18.277546  4784 net.cpp:84] Creating Layer concat1_13_concat1_13_0_split
I1216 09:09:18.277549  4784 net.cpp:406] concat1_13_concat1_13_0_split <- concat1_13
I1216 09:09:18.277554  4784 net.cpp:380] concat1_13_concat1_13_0_split -> concat1_13_concat1_13_0_split_0
I1216 09:09:18.277559  4784 net.cpp:380] concat1_13_concat1_13_0_split -> concat1_13_concat1_13_0_split_1
I1216 09:09:18.277623  4784 net.cpp:122] Setting up concat1_13_concat1_13_0_split
I1216 09:09:18.277629  4784 net.cpp:129] Top shape: 1 864 17 35 (514080)
I1216 09:09:18.277632  4784 net.cpp:129] Top shape: 1 864 17 35 (514080)
I1216 09:09:18.277634  4784 net.cpp:137] Memory required for data: 302750288
I1216 09:09:18.277637  4784 layer_factory.hpp:77] Creating layer conv1_14/bn
I1216 09:09:18.277643  4784 net.cpp:84] Creating Layer conv1_14/bn
I1216 09:09:18.277647  4784 net.cpp:406] conv1_14/bn <- concat1_13_concat1_13_0_split_0
I1216 09:09:18.277652  4784 net.cpp:380] conv1_14/bn -> conv1_14/bn
I1216 09:09:18.278082  4784 net.cpp:122] Setting up conv1_14/bn
I1216 09:09:18.278090  4784 net.cpp:129] Top shape: 1 864 17 35 (514080)
I1216 09:09:18.278091  4784 net.cpp:137] Memory required for data: 304806608
I1216 09:09:18.278098  4784 layer_factory.hpp:77] Creating layer conv1_14/scale
I1216 09:09:18.278106  4784 net.cpp:84] Creating Layer conv1_14/scale
I1216 09:09:18.278110  4784 net.cpp:406] conv1_14/scale <- conv1_14/bn
I1216 09:09:18.278115  4784 net.cpp:367] conv1_14/scale -> conv1_14/bn (in-place)
I1216 09:09:18.278198  4784 layer_factory.hpp:77] Creating layer conv1_14/scale
I1216 09:09:18.278455  4784 net.cpp:122] Setting up conv1_14/scale
I1216 09:09:18.278462  4784 net.cpp:129] Top shape: 1 864 17 35 (514080)
I1216 09:09:18.278465  4784 net.cpp:137] Memory required for data: 306862928
I1216 09:09:18.278470  4784 layer_factory.hpp:77] Creating layer relu1_14
I1216 09:09:18.278476  4784 net.cpp:84] Creating Layer relu1_14
I1216 09:09:18.278479  4784 net.cpp:406] relu1_14 <- conv1_14/bn
I1216 09:09:18.278483  4784 net.cpp:367] relu1_14 -> conv1_14/bn (in-place)
I1216 09:09:18.278952  4784 net.cpp:122] Setting up relu1_14
I1216 09:09:18.278962  4784 net.cpp:129] Top shape: 1 864 17 35 (514080)
I1216 09:09:18.278965  4784 net.cpp:137] Memory required for data: 308919248
I1216 09:09:18.278969  4784 layer_factory.hpp:77] Creating layer conv1_14
I1216 09:09:18.278980  4784 net.cpp:84] Creating Layer conv1_14
I1216 09:09:18.278983  4784 net.cpp:406] conv1_14 <- conv1_14/bn
I1216 09:09:18.278988  4784 net.cpp:380] conv1_14 -> conv1_14
I1216 09:09:18.287196  4784 net.cpp:122] Setting up conv1_14
I1216 09:09:18.287222  4784 net.cpp:129] Top shape: 1 32 17 35 (19040)
I1216 09:09:18.287226  4784 net.cpp:137] Memory required for data: 308995408
I1216 09:09:18.287233  4784 layer_factory.hpp:77] Creating layer concat1_14
I1216 09:09:18.287245  4784 net.cpp:84] Creating Layer concat1_14
I1216 09:09:18.287250  4784 net.cpp:406] concat1_14 <- concat1_13_concat1_13_0_split_1
I1216 09:09:18.287256  4784 net.cpp:406] concat1_14 <- conv1_14
I1216 09:09:18.287261  4784 net.cpp:380] concat1_14 -> concat1_14
I1216 09:09:18.287307  4784 net.cpp:122] Setting up concat1_14
I1216 09:09:18.287312  4784 net.cpp:129] Top shape: 1 896 17 35 (533120)
I1216 09:09:18.287315  4784 net.cpp:137] Memory required for data: 311127888
I1216 09:09:18.287317  4784 layer_factory.hpp:77] Creating layer concat1_14_concat1_14_0_split
I1216 09:09:18.287323  4784 net.cpp:84] Creating Layer concat1_14_concat1_14_0_split
I1216 09:09:18.287326  4784 net.cpp:406] concat1_14_concat1_14_0_split <- concat1_14
I1216 09:09:18.287331  4784 net.cpp:380] concat1_14_concat1_14_0_split -> concat1_14_concat1_14_0_split_0
I1216 09:09:18.287336  4784 net.cpp:380] concat1_14_concat1_14_0_split -> concat1_14_concat1_14_0_split_1
I1216 09:09:18.287391  4784 net.cpp:122] Setting up concat1_14_concat1_14_0_split
I1216 09:09:18.287397  4784 net.cpp:129] Top shape: 1 896 17 35 (533120)
I1216 09:09:18.287400  4784 net.cpp:129] Top shape: 1 896 17 35 (533120)
I1216 09:09:18.287403  4784 net.cpp:137] Memory required for data: 315392848
I1216 09:09:18.287405  4784 layer_factory.hpp:77] Creating layer conv1_15/bn
I1216 09:09:18.287411  4784 net.cpp:84] Creating Layer conv1_15/bn
I1216 09:09:18.287415  4784 net.cpp:406] conv1_15/bn <- concat1_14_concat1_14_0_split_0
I1216 09:09:18.287420  4784 net.cpp:380] conv1_15/bn -> conv1_15/bn
I1216 09:09:18.287828  4784 net.cpp:122] Setting up conv1_15/bn
I1216 09:09:18.287840  4784 net.cpp:129] Top shape: 1 896 17 35 (533120)
I1216 09:09:18.287843  4784 net.cpp:137] Memory required for data: 317525328
I1216 09:09:18.287849  4784 layer_factory.hpp:77] Creating layer conv1_15/scale
I1216 09:09:18.287858  4784 net.cpp:84] Creating Layer conv1_15/scale
I1216 09:09:18.287861  4784 net.cpp:406] conv1_15/scale <- conv1_15/bn
I1216 09:09:18.287866  4784 net.cpp:367] conv1_15/scale -> conv1_15/bn (in-place)
I1216 09:09:18.287951  4784 layer_factory.hpp:77] Creating layer conv1_15/scale
I1216 09:09:18.288184  4784 net.cpp:122] Setting up conv1_15/scale
I1216 09:09:18.288192  4784 net.cpp:129] Top shape: 1 896 17 35 (533120)
I1216 09:09:18.288193  4784 net.cpp:137] Memory required for data: 319657808
I1216 09:09:18.288198  4784 layer_factory.hpp:77] Creating layer relu1_15
I1216 09:09:18.288204  4784 net.cpp:84] Creating Layer relu1_15
I1216 09:09:18.288208  4784 net.cpp:406] relu1_15 <- conv1_15/bn
I1216 09:09:18.288211  4784 net.cpp:367] relu1_15 -> conv1_15/bn (in-place)
I1216 09:09:18.288429  4784 net.cpp:122] Setting up relu1_15
I1216 09:09:18.288437  4784 net.cpp:129] Top shape: 1 896 17 35 (533120)
I1216 09:09:18.288440  4784 net.cpp:137] Memory required for data: 321790288
I1216 09:09:18.288444  4784 layer_factory.hpp:77] Creating layer conv1_15
I1216 09:09:18.288452  4784 net.cpp:84] Creating Layer conv1_15
I1216 09:09:18.288455  4784 net.cpp:406] conv1_15 <- conv1_15/bn
I1216 09:09:18.288460  4784 net.cpp:380] conv1_15 -> conv1_15
I1216 09:09:18.296779  4784 net.cpp:122] Setting up conv1_15
I1216 09:09:18.296802  4784 net.cpp:129] Top shape: 1 32 17 35 (19040)
I1216 09:09:18.296805  4784 net.cpp:137] Memory required for data: 321866448
I1216 09:09:18.296811  4784 layer_factory.hpp:77] Creating layer concat1_15
I1216 09:09:18.296820  4784 net.cpp:84] Creating Layer concat1_15
I1216 09:09:18.296825  4784 net.cpp:406] concat1_15 <- concat1_14_concat1_14_0_split_1
I1216 09:09:18.296830  4784 net.cpp:406] concat1_15 <- conv1_15
I1216 09:09:18.296834  4784 net.cpp:380] concat1_15 -> concat1_15
I1216 09:09:18.296878  4784 net.cpp:122] Setting up concat1_15
I1216 09:09:18.296885  4784 net.cpp:129] Top shape: 1 928 17 35 (552160)
I1216 09:09:18.296887  4784 net.cpp:137] Memory required for data: 324075088
I1216 09:09:18.296890  4784 layer_factory.hpp:77] Creating layer concat1_15_concat1_15_0_split
I1216 09:09:18.296895  4784 net.cpp:84] Creating Layer concat1_15_concat1_15_0_split
I1216 09:09:18.296897  4784 net.cpp:406] concat1_15_concat1_15_0_split <- concat1_15
I1216 09:09:18.296902  4784 net.cpp:380] concat1_15_concat1_15_0_split -> concat1_15_concat1_15_0_split_0
I1216 09:09:18.296907  4784 net.cpp:380] concat1_15_concat1_15_0_split -> concat1_15_concat1_15_0_split_1
I1216 09:09:18.296962  4784 net.cpp:122] Setting up concat1_15_concat1_15_0_split
I1216 09:09:18.296968  4784 net.cpp:129] Top shape: 1 928 17 35 (552160)
I1216 09:09:18.296972  4784 net.cpp:129] Top shape: 1 928 17 35 (552160)
I1216 09:09:18.296973  4784 net.cpp:137] Memory required for data: 328492368
I1216 09:09:18.296977  4784 layer_factory.hpp:77] Creating layer conv1_16/bn
I1216 09:09:18.296982  4784 net.cpp:84] Creating Layer conv1_16/bn
I1216 09:09:18.296984  4784 net.cpp:406] conv1_16/bn <- concat1_15_concat1_15_0_split_0
I1216 09:09:18.296989  4784 net.cpp:380] conv1_16/bn -> conv1_16/bn
I1216 09:09:18.297420  4784 net.cpp:122] Setting up conv1_16/bn
I1216 09:09:18.297426  4784 net.cpp:129] Top shape: 1 928 17 35 (552160)
I1216 09:09:18.297428  4784 net.cpp:137] Memory required for data: 330701008
I1216 09:09:18.297436  4784 layer_factory.hpp:77] Creating layer conv1_16/scale
I1216 09:09:18.297443  4784 net.cpp:84] Creating Layer conv1_16/scale
I1216 09:09:18.297447  4784 net.cpp:406] conv1_16/scale <- conv1_16/bn
I1216 09:09:18.297451  4784 net.cpp:367] conv1_16/scale -> conv1_16/bn (in-place)
I1216 09:09:18.297535  4784 layer_factory.hpp:77] Creating layer conv1_16/scale
I1216 09:09:18.297791  4784 net.cpp:122] Setting up conv1_16/scale
I1216 09:09:18.297798  4784 net.cpp:129] Top shape: 1 928 17 35 (552160)
I1216 09:09:18.297804  4784 net.cpp:137] Memory required for data: 332909648
I1216 09:09:18.297809  4784 layer_factory.hpp:77] Creating layer relu1_16
I1216 09:09:18.297816  4784 net.cpp:84] Creating Layer relu1_16
I1216 09:09:18.297818  4784 net.cpp:406] relu1_16 <- conv1_16/bn
I1216 09:09:18.297822  4784 net.cpp:367] relu1_16 -> conv1_16/bn (in-place)
I1216 09:09:18.298229  4784 net.cpp:122] Setting up relu1_16
I1216 09:09:18.298239  4784 net.cpp:129] Top shape: 1 928 17 35 (552160)
I1216 09:09:18.298243  4784 net.cpp:137] Memory required for data: 335118288
I1216 09:09:18.298245  4784 layer_factory.hpp:77] Creating layer conv1_16
I1216 09:09:18.298255  4784 net.cpp:84] Creating Layer conv1_16
I1216 09:09:18.298259  4784 net.cpp:406] conv1_16 <- conv1_16/bn
I1216 09:09:18.298264  4784 net.cpp:380] conv1_16 -> conv1_16
I1216 09:09:18.306788  4784 net.cpp:122] Setting up conv1_16
I1216 09:09:18.306809  4784 net.cpp:129] Top shape: 1 32 17 35 (19040)
I1216 09:09:18.306813  4784 net.cpp:137] Memory required for data: 335194448
I1216 09:09:18.306820  4784 layer_factory.hpp:77] Creating layer concat1_16
I1216 09:09:18.306829  4784 net.cpp:84] Creating Layer concat1_16
I1216 09:09:18.306834  4784 net.cpp:406] concat1_16 <- concat1_15_concat1_15_0_split_1
I1216 09:09:18.306839  4784 net.cpp:406] concat1_16 <- conv1_16
I1216 09:09:18.306844  4784 net.cpp:380] concat1_16 -> concat1_16
I1216 09:09:18.306890  4784 net.cpp:122] Setting up concat1_16
I1216 09:09:18.306896  4784 net.cpp:129] Top shape: 1 960 17 35 (571200)
I1216 09:09:18.306900  4784 net.cpp:137] Memory required for data: 337479248
I1216 09:09:18.306901  4784 layer_factory.hpp:77] Creating layer concat1_16_concat1_16_0_split
I1216 09:09:18.306906  4784 net.cpp:84] Creating Layer concat1_16_concat1_16_0_split
I1216 09:09:18.306910  4784 net.cpp:406] concat1_16_concat1_16_0_split <- concat1_16
I1216 09:09:18.306913  4784 net.cpp:380] concat1_16_concat1_16_0_split -> concat1_16_concat1_16_0_split_0
I1216 09:09:18.306918  4784 net.cpp:380] concat1_16_concat1_16_0_split -> concat1_16_concat1_16_0_split_1
I1216 09:09:18.306977  4784 net.cpp:122] Setting up concat1_16_concat1_16_0_split
I1216 09:09:18.306983  4784 net.cpp:129] Top shape: 1 960 17 35 (571200)
I1216 09:09:18.306987  4784 net.cpp:129] Top shape: 1 960 17 35 (571200)
I1216 09:09:18.306988  4784 net.cpp:137] Memory required for data: 342048848
I1216 09:09:18.306991  4784 layer_factory.hpp:77] Creating layer conv1_17/bn
I1216 09:09:18.306998  4784 net.cpp:84] Creating Layer conv1_17/bn
I1216 09:09:18.307000  4784 net.cpp:406] conv1_17/bn <- concat1_16_concat1_16_0_split_0
I1216 09:09:18.307006  4784 net.cpp:380] conv1_17/bn -> conv1_17/bn
I1216 09:09:18.307459  4784 net.cpp:122] Setting up conv1_17/bn
I1216 09:09:18.307468  4784 net.cpp:129] Top shape: 1 960 17 35 (571200)
I1216 09:09:18.307471  4784 net.cpp:137] Memory required for data: 344333648
I1216 09:09:18.307478  4784 layer_factory.hpp:77] Creating layer conv1_17/scale
I1216 09:09:18.307487  4784 net.cpp:84] Creating Layer conv1_17/scale
I1216 09:09:18.307490  4784 net.cpp:406] conv1_17/scale <- conv1_17/bn
I1216 09:09:18.307497  4784 net.cpp:367] conv1_17/scale -> conv1_17/bn (in-place)
I1216 09:09:18.307582  4784 layer_factory.hpp:77] Creating layer conv1_17/scale
I1216 09:09:18.307852  4784 net.cpp:122] Setting up conv1_17/scale
I1216 09:09:18.307859  4784 net.cpp:129] Top shape: 1 960 17 35 (571200)
I1216 09:09:18.307862  4784 net.cpp:137] Memory required for data: 346618448
I1216 09:09:18.307868  4784 layer_factory.hpp:77] Creating layer relu1_17
I1216 09:09:18.307873  4784 net.cpp:84] Creating Layer relu1_17
I1216 09:09:18.307878  4784 net.cpp:406] relu1_17 <- conv1_17/bn
I1216 09:09:18.307880  4784 net.cpp:367] relu1_17 -> conv1_17/bn (in-place)
I1216 09:09:18.308145  4784 net.cpp:122] Setting up relu1_17
I1216 09:09:18.308153  4784 net.cpp:129] Top shape: 1 960 17 35 (571200)
I1216 09:09:18.308156  4784 net.cpp:137] Memory required for data: 348903248
I1216 09:09:18.308159  4784 layer_factory.hpp:77] Creating layer conv1_17
I1216 09:09:18.308172  4784 net.cpp:84] Creating Layer conv1_17
I1216 09:09:18.308176  4784 net.cpp:406] conv1_17 <- conv1_17/bn
I1216 09:09:18.308182  4784 net.cpp:380] conv1_17 -> conv1_17
I1216 09:09:18.317024  4784 net.cpp:122] Setting up conv1_17
I1216 09:09:18.317049  4784 net.cpp:129] Top shape: 1 32 17 35 (19040)
I1216 09:09:18.317054  4784 net.cpp:137] Memory required for data: 348979408
I1216 09:09:18.317060  4784 layer_factory.hpp:77] Creating layer concat1_17
I1216 09:09:18.317070  4784 net.cpp:84] Creating Layer concat1_17
I1216 09:09:18.317076  4784 net.cpp:406] concat1_17 <- concat1_16_concat1_16_0_split_1
I1216 09:09:18.317082  4784 net.cpp:406] concat1_17 <- conv1_17
I1216 09:09:18.317087  4784 net.cpp:380] concat1_17 -> concat1_17
I1216 09:09:18.317132  4784 net.cpp:122] Setting up concat1_17
I1216 09:09:18.317138  4784 net.cpp:129] Top shape: 1 992 17 35 (590240)
I1216 09:09:18.317140  4784 net.cpp:137] Memory required for data: 351340368
I1216 09:09:18.317143  4784 layer_factory.hpp:77] Creating layer concat1_17_concat1_17_0_split
I1216 09:09:18.317148  4784 net.cpp:84] Creating Layer concat1_17_concat1_17_0_split
I1216 09:09:18.317150  4784 net.cpp:406] concat1_17_concat1_17_0_split <- concat1_17
I1216 09:09:18.317155  4784 net.cpp:380] concat1_17_concat1_17_0_split -> concat1_17_concat1_17_0_split_0
I1216 09:09:18.317160  4784 net.cpp:380] concat1_17_concat1_17_0_split -> concat1_17_concat1_17_0_split_1
I1216 09:09:18.317216  4784 net.cpp:122] Setting up concat1_17_concat1_17_0_split
I1216 09:09:18.317221  4784 net.cpp:129] Top shape: 1 992 17 35 (590240)
I1216 09:09:18.317224  4784 net.cpp:129] Top shape: 1 992 17 35 (590240)
I1216 09:09:18.317227  4784 net.cpp:137] Memory required for data: 356062288
I1216 09:09:18.317229  4784 layer_factory.hpp:77] Creating layer conv1_18/bn
I1216 09:09:18.317235  4784 net.cpp:84] Creating Layer conv1_18/bn
I1216 09:09:18.317239  4784 net.cpp:406] conv1_18/bn <- concat1_17_concat1_17_0_split_0
I1216 09:09:18.317243  4784 net.cpp:380] conv1_18/bn -> conv1_18/bn
I1216 09:09:18.317680  4784 net.cpp:122] Setting up conv1_18/bn
I1216 09:09:18.317687  4784 net.cpp:129] Top shape: 1 992 17 35 (590240)
I1216 09:09:18.317689  4784 net.cpp:137] Memory required for data: 358423248
I1216 09:09:18.317695  4784 layer_factory.hpp:77] Creating layer conv1_18/scale
I1216 09:09:18.317701  4784 net.cpp:84] Creating Layer conv1_18/scale
I1216 09:09:18.317705  4784 net.cpp:406] conv1_18/scale <- conv1_18/bn
I1216 09:09:18.317710  4784 net.cpp:367] conv1_18/scale -> conv1_18/bn (in-place)
I1216 09:09:18.317796  4784 layer_factory.hpp:77] Creating layer conv1_18/scale
I1216 09:09:18.318054  4784 net.cpp:122] Setting up conv1_18/scale
I1216 09:09:18.318061  4784 net.cpp:129] Top shape: 1 992 17 35 (590240)
I1216 09:09:18.318064  4784 net.cpp:137] Memory required for data: 360784208
I1216 09:09:18.318069  4784 layer_factory.hpp:77] Creating layer relu1_18
I1216 09:09:18.318075  4784 net.cpp:84] Creating Layer relu1_18
I1216 09:09:18.318079  4784 net.cpp:406] relu1_18 <- conv1_18/bn
I1216 09:09:18.318084  4784 net.cpp:367] relu1_18 -> conv1_18/bn (in-place)
I1216 09:09:18.318482  4784 net.cpp:122] Setting up relu1_18
I1216 09:09:18.318492  4784 net.cpp:129] Top shape: 1 992 17 35 (590240)
I1216 09:09:18.318495  4784 net.cpp:137] Memory required for data: 363145168
I1216 09:09:18.318498  4784 layer_factory.hpp:77] Creating layer conv1_18
I1216 09:09:18.318508  4784 net.cpp:84] Creating Layer conv1_18
I1216 09:09:18.318512  4784 net.cpp:406] conv1_18 <- conv1_18/bn
I1216 09:09:18.318518  4784 net.cpp:380] conv1_18 -> conv1_18
I1216 09:09:18.331676  4784 net.cpp:122] Setting up conv1_18
I1216 09:09:18.331712  4784 net.cpp:129] Top shape: 1 32 17 35 (19040)
I1216 09:09:18.331717  4784 net.cpp:137] Memory required for data: 363221328
I1216 09:09:18.331729  4784 layer_factory.hpp:77] Creating layer concat1_18
I1216 09:09:18.331743  4784 net.cpp:84] Creating Layer concat1_18
I1216 09:09:18.331758  4784 net.cpp:406] concat1_18 <- concat1_17_concat1_17_0_split_1
I1216 09:09:18.331766  4784 net.cpp:406] concat1_18 <- conv1_18
I1216 09:09:18.331779  4784 net.cpp:380] concat1_18 -> concat1_18
I1216 09:09:18.331840  4784 net.cpp:122] Setting up concat1_18
I1216 09:09:18.331848  4784 net.cpp:129] Top shape: 1 1024 17 35 (609280)
I1216 09:09:18.331853  4784 net.cpp:137] Memory required for data: 365658448
I1216 09:09:18.331857  4784 layer_factory.hpp:77] Creating layer concat1_18_concat1_18_0_split
I1216 09:09:18.331866  4784 net.cpp:84] Creating Layer concat1_18_concat1_18_0_split
I1216 09:09:18.331871  4784 net.cpp:406] concat1_18_concat1_18_0_split <- concat1_18
I1216 09:09:18.331878  4784 net.cpp:380] concat1_18_concat1_18_0_split -> concat1_18_concat1_18_0_split_0
I1216 09:09:18.331887  4784 net.cpp:380] concat1_18_concat1_18_0_split -> concat1_18_concat1_18_0_split_1
I1216 09:09:18.331962  4784 net.cpp:122] Setting up concat1_18_concat1_18_0_split
I1216 09:09:18.331970  4784 net.cpp:129] Top shape: 1 1024 17 35 (609280)
I1216 09:09:18.331976  4784 net.cpp:129] Top shape: 1 1024 17 35 (609280)
I1216 09:09:18.331980  4784 net.cpp:137] Memory required for data: 370532688
I1216 09:09:18.331984  4784 layer_factory.hpp:77] Creating layer conv1_19/bn
I1216 09:09:18.331995  4784 net.cpp:84] Creating Layer conv1_19/bn
I1216 09:09:18.332000  4784 net.cpp:406] conv1_19/bn <- concat1_18_concat1_18_0_split_0
I1216 09:09:18.332007  4784 net.cpp:380] conv1_19/bn -> conv1_19/bn
I1216 09:09:18.332566  4784 net.cpp:122] Setting up conv1_19/bn
I1216 09:09:18.332576  4784 net.cpp:129] Top shape: 1 1024 17 35 (609280)
I1216 09:09:18.332581  4784 net.cpp:137] Memory required for data: 372969808
I1216 09:09:18.332592  4784 layer_factory.hpp:77] Creating layer conv1_19/scale
I1216 09:09:18.332602  4784 net.cpp:84] Creating Layer conv1_19/scale
I1216 09:09:18.332607  4784 net.cpp:406] conv1_19/scale <- conv1_19/bn
I1216 09:09:18.332615  4784 net.cpp:367] conv1_19/scale -> conv1_19/bn (in-place)
I1216 09:09:18.332726  4784 layer_factory.hpp:77] Creating layer conv1_19/scale
I1216 09:09:18.333048  4784 net.cpp:122] Setting up conv1_19/scale
I1216 09:09:18.333058  4784 net.cpp:129] Top shape: 1 1024 17 35 (609280)
I1216 09:09:18.333062  4784 net.cpp:137] Memory required for data: 375406928
I1216 09:09:18.333070  4784 layer_factory.hpp:77] Creating layer relu1_19
I1216 09:09:18.333078  4784 net.cpp:84] Creating Layer relu1_19
I1216 09:09:18.333083  4784 net.cpp:406] relu1_19 <- conv1_19/bn
I1216 09:09:18.333091  4784 net.cpp:367] relu1_19 -> conv1_19/bn (in-place)
I1216 09:09:18.333722  4784 net.cpp:122] Setting up relu1_19
I1216 09:09:18.333736  4784 net.cpp:129] Top shape: 1 1024 17 35 (609280)
I1216 09:09:18.333741  4784 net.cpp:137] Memory required for data: 377844048
I1216 09:09:18.333746  4784 layer_factory.hpp:77] Creating layer conv1_19
I1216 09:09:18.333760  4784 net.cpp:84] Creating Layer conv1_19
I1216 09:09:18.333766  4784 net.cpp:406] conv1_19 <- conv1_19/bn
I1216 09:09:18.333776  4784 net.cpp:380] conv1_19 -> conv1_19
I1216 09:09:18.344393  4784 net.cpp:122] Setting up conv1_19
I1216 09:09:18.344422  4784 net.cpp:129] Top shape: 1 32 17 35 (19040)
I1216 09:09:18.344425  4784 net.cpp:137] Memory required for data: 377920208
I1216 09:09:18.344434  4784 layer_factory.hpp:77] Creating layer concat1_19
I1216 09:09:18.344444  4784 net.cpp:84] Creating Layer concat1_19
I1216 09:09:18.344449  4784 net.cpp:406] concat1_19 <- concat1_18_concat1_18_0_split_1
I1216 09:09:18.344455  4784 net.cpp:406] concat1_19 <- conv1_19
I1216 09:09:18.344461  4784 net.cpp:380] concat1_19 -> concat1_19
I1216 09:09:18.344506  4784 net.cpp:122] Setting up concat1_19
I1216 09:09:18.344512  4784 net.cpp:129] Top shape: 1 1056 17 35 (628320)
I1216 09:09:18.344514  4784 net.cpp:137] Memory required for data: 380433488
I1216 09:09:18.344517  4784 layer_factory.hpp:77] Creating layer concat1_19_concat1_19_0_split
I1216 09:09:18.344523  4784 net.cpp:84] Creating Layer concat1_19_concat1_19_0_split
I1216 09:09:18.344527  4784 net.cpp:406] concat1_19_concat1_19_0_split <- concat1_19
I1216 09:09:18.344530  4784 net.cpp:380] concat1_19_concat1_19_0_split -> concat1_19_concat1_19_0_split_0
I1216 09:09:18.344539  4784 net.cpp:380] concat1_19_concat1_19_0_split -> concat1_19_concat1_19_0_split_1
I1216 09:09:18.344597  4784 net.cpp:122] Setting up concat1_19_concat1_19_0_split
I1216 09:09:18.344604  4784 net.cpp:129] Top shape: 1 1056 17 35 (628320)
I1216 09:09:18.344606  4784 net.cpp:129] Top shape: 1 1056 17 35 (628320)
I1216 09:09:18.344609  4784 net.cpp:137] Memory required for data: 385460048
I1216 09:09:18.344611  4784 layer_factory.hpp:77] Creating layer conv1_20/bn
I1216 09:09:18.344620  4784 net.cpp:84] Creating Layer conv1_20/bn
I1216 09:09:18.344624  4784 net.cpp:406] conv1_20/bn <- concat1_19_concat1_19_0_split_0
I1216 09:09:18.344630  4784 net.cpp:380] conv1_20/bn -> conv1_20/bn
I1216 09:09:18.345085  4784 net.cpp:122] Setting up conv1_20/bn
I1216 09:09:18.345093  4784 net.cpp:129] Top shape: 1 1056 17 35 (628320)
I1216 09:09:18.345095  4784 net.cpp:137] Memory required for data: 387973328
I1216 09:09:18.345103  4784 layer_factory.hpp:77] Creating layer conv1_20/scale
I1216 09:09:18.345110  4784 net.cpp:84] Creating Layer conv1_20/scale
I1216 09:09:18.345114  4784 net.cpp:406] conv1_20/scale <- conv1_20/bn
I1216 09:09:18.345118  4784 net.cpp:367] conv1_20/scale -> conv1_20/bn (in-place)
I1216 09:09:18.345198  4784 layer_factory.hpp:77] Creating layer conv1_20/scale
I1216 09:09:18.345463  4784 net.cpp:122] Setting up conv1_20/scale
I1216 09:09:18.345470  4784 net.cpp:129] Top shape: 1 1056 17 35 (628320)
I1216 09:09:18.345474  4784 net.cpp:137] Memory required for data: 390486608
I1216 09:09:18.345479  4784 layer_factory.hpp:77] Creating layer relu1_20
I1216 09:09:18.345484  4784 net.cpp:84] Creating Layer relu1_20
I1216 09:09:18.345486  4784 net.cpp:406] relu1_20 <- conv1_20/bn
I1216 09:09:18.345491  4784 net.cpp:367] relu1_20 -> conv1_20/bn (in-place)
I1216 09:09:18.345710  4784 net.cpp:122] Setting up relu1_20
I1216 09:09:18.345718  4784 net.cpp:129] Top shape: 1 1056 17 35 (628320)
I1216 09:09:18.345721  4784 net.cpp:137] Memory required for data: 392999888
I1216 09:09:18.345724  4784 layer_factory.hpp:77] Creating layer conv1_20
I1216 09:09:18.345733  4784 net.cpp:84] Creating Layer conv1_20
I1216 09:09:18.345736  4784 net.cpp:406] conv1_20 <- conv1_20/bn
I1216 09:09:18.345742  4784 net.cpp:380] conv1_20 -> conv1_20
I1216 09:09:18.355135  4784 net.cpp:122] Setting up conv1_20
I1216 09:09:18.355154  4784 net.cpp:129] Top shape: 1 32 17 35 (19040)
I1216 09:09:18.355159  4784 net.cpp:137] Memory required for data: 393076048
I1216 09:09:18.355165  4784 layer_factory.hpp:77] Creating layer concat1_20
I1216 09:09:18.355172  4784 net.cpp:84] Creating Layer concat1_20
I1216 09:09:18.355177  4784 net.cpp:406] concat1_20 <- concat1_19_concat1_19_0_split_1
I1216 09:09:18.355182  4784 net.cpp:406] concat1_20 <- conv1_20
I1216 09:09:18.355186  4784 net.cpp:380] concat1_20 -> concat1_20
I1216 09:09:18.355229  4784 net.cpp:122] Setting up concat1_20
I1216 09:09:18.355235  4784 net.cpp:129] Top shape: 1 1088 17 35 (647360)
I1216 09:09:18.355237  4784 net.cpp:137] Memory required for data: 395665488
I1216 09:09:18.355240  4784 layer_factory.hpp:77] Creating layer concat1_20_concat1_20_0_split
I1216 09:09:18.355247  4784 net.cpp:84] Creating Layer concat1_20_concat1_20_0_split
I1216 09:09:18.355249  4784 net.cpp:406] concat1_20_concat1_20_0_split <- concat1_20
I1216 09:09:18.355255  4784 net.cpp:380] concat1_20_concat1_20_0_split -> concat1_20_concat1_20_0_split_0
I1216 09:09:18.355260  4784 net.cpp:380] concat1_20_concat1_20_0_split -> concat1_20_concat1_20_0_split_1
I1216 09:09:18.355317  4784 net.cpp:122] Setting up concat1_20_concat1_20_0_split
I1216 09:09:18.355322  4784 net.cpp:129] Top shape: 1 1088 17 35 (647360)
I1216 09:09:18.355326  4784 net.cpp:129] Top shape: 1 1088 17 35 (647360)
I1216 09:09:18.355329  4784 net.cpp:137] Memory required for data: 400844368
I1216 09:09:18.355330  4784 layer_factory.hpp:77] Creating layer conv1_21/bn
I1216 09:09:18.355336  4784 net.cpp:84] Creating Layer conv1_21/bn
I1216 09:09:18.355340  4784 net.cpp:406] conv1_21/bn <- concat1_20_concat1_20_0_split_0
I1216 09:09:18.355348  4784 net.cpp:380] conv1_21/bn -> conv1_21/bn
I1216 09:09:18.355788  4784 net.cpp:122] Setting up conv1_21/bn
I1216 09:09:18.355796  4784 net.cpp:129] Top shape: 1 1088 17 35 (647360)
I1216 09:09:18.355799  4784 net.cpp:137] Memory required for data: 403433808
I1216 09:09:18.355805  4784 layer_factory.hpp:77] Creating layer conv1_21/scale
I1216 09:09:18.355813  4784 net.cpp:84] Creating Layer conv1_21/scale
I1216 09:09:18.355815  4784 net.cpp:406] conv1_21/scale <- conv1_21/bn
I1216 09:09:18.355821  4784 net.cpp:367] conv1_21/scale -> conv1_21/bn (in-place)
I1216 09:09:18.355901  4784 layer_factory.hpp:77] Creating layer conv1_21/scale
I1216 09:09:18.356161  4784 net.cpp:122] Setting up conv1_21/scale
I1216 09:09:18.356168  4784 net.cpp:129] Top shape: 1 1088 17 35 (647360)
I1216 09:09:18.356171  4784 net.cpp:137] Memory required for data: 406023248
I1216 09:09:18.356175  4784 layer_factory.hpp:77] Creating layer relu1_21
I1216 09:09:18.356181  4784 net.cpp:84] Creating Layer relu1_21
I1216 09:09:18.356184  4784 net.cpp:406] relu1_21 <- conv1_21/bn
I1216 09:09:18.356189  4784 net.cpp:367] relu1_21 -> conv1_21/bn (in-place)
I1216 09:09:18.356603  4784 net.cpp:122] Setting up relu1_21
I1216 09:09:18.356613  4784 net.cpp:129] Top shape: 1 1088 17 35 (647360)
I1216 09:09:18.356616  4784 net.cpp:137] Memory required for data: 408612688
I1216 09:09:18.356619  4784 layer_factory.hpp:77] Creating layer conv1_21
I1216 09:09:18.356629  4784 net.cpp:84] Creating Layer conv1_21
I1216 09:09:18.356633  4784 net.cpp:406] conv1_21 <- conv1_21/bn
I1216 09:09:18.356638  4784 net.cpp:380] conv1_21 -> conv1_21
I1216 09:09:18.366744  4784 net.cpp:122] Setting up conv1_21
I1216 09:09:18.366772  4784 net.cpp:129] Top shape: 1 32 17 35 (19040)
I1216 09:09:18.366776  4784 net.cpp:137] Memory required for data: 408688848
I1216 09:09:18.366785  4784 layer_factory.hpp:77] Creating layer concat1_21
I1216 09:09:18.366796  4784 net.cpp:84] Creating Layer concat1_21
I1216 09:09:18.366801  4784 net.cpp:406] concat1_21 <- concat1_20_concat1_20_0_split_1
I1216 09:09:18.366808  4784 net.cpp:406] concat1_21 <- conv1_21
I1216 09:09:18.366813  4784 net.cpp:380] concat1_21 -> concat1_21
I1216 09:09:18.366864  4784 net.cpp:122] Setting up concat1_21
I1216 09:09:18.366870  4784 net.cpp:129] Top shape: 1 1120 17 35 (666400)
I1216 09:09:18.366873  4784 net.cpp:137] Memory required for data: 411354448
I1216 09:09:18.366875  4784 layer_factory.hpp:77] Creating layer concat1_21_concat1_21_0_split
I1216 09:09:18.366881  4784 net.cpp:84] Creating Layer concat1_21_concat1_21_0_split
I1216 09:09:18.366884  4784 net.cpp:406] concat1_21_concat1_21_0_split <- concat1_21
I1216 09:09:18.366888  4784 net.cpp:380] concat1_21_concat1_21_0_split -> concat1_21_concat1_21_0_split_0
I1216 09:09:18.366894  4784 net.cpp:380] concat1_21_concat1_21_0_split -> concat1_21_concat1_21_0_split_1
I1216 09:09:18.366953  4784 net.cpp:122] Setting up concat1_21_concat1_21_0_split
I1216 09:09:18.366958  4784 net.cpp:129] Top shape: 1 1120 17 35 (666400)
I1216 09:09:18.366961  4784 net.cpp:129] Top shape: 1 1120 17 35 (666400)
I1216 09:09:18.366964  4784 net.cpp:137] Memory required for data: 416685648
I1216 09:09:18.366966  4784 layer_factory.hpp:77] Creating layer conv1_22/bn
I1216 09:09:18.366973  4784 net.cpp:84] Creating Layer conv1_22/bn
I1216 09:09:18.366976  4784 net.cpp:406] conv1_22/bn <- concat1_21_concat1_21_0_split_0
I1216 09:09:18.366981  4784 net.cpp:380] conv1_22/bn -> conv1_22/bn
I1216 09:09:18.367462  4784 net.cpp:122] Setting up conv1_22/bn
I1216 09:09:18.367471  4784 net.cpp:129] Top shape: 1 1120 17 35 (666400)
I1216 09:09:18.367475  4784 net.cpp:137] Memory required for data: 419351248
I1216 09:09:18.367481  4784 layer_factory.hpp:77] Creating layer conv1_22/scale
I1216 09:09:18.367491  4784 net.cpp:84] Creating Layer conv1_22/scale
I1216 09:09:18.367494  4784 net.cpp:406] conv1_22/scale <- conv1_22/bn
I1216 09:09:18.367498  4784 net.cpp:367] conv1_22/scale -> conv1_22/bn (in-place)
I1216 09:09:18.368201  4784 layer_factory.hpp:77] Creating layer conv1_22/scale
I1216 09:09:18.368490  4784 net.cpp:122] Setting up conv1_22/scale
I1216 09:09:18.368499  4784 net.cpp:129] Top shape: 1 1120 17 35 (666400)
I1216 09:09:18.368501  4784 net.cpp:137] Memory required for data: 422016848
I1216 09:09:18.368507  4784 layer_factory.hpp:77] Creating layer relu1_22
I1216 09:09:18.368513  4784 net.cpp:84] Creating Layer relu1_22
I1216 09:09:18.368517  4784 net.cpp:406] relu1_22 <- conv1_22/bn
I1216 09:09:18.368522  4784 net.cpp:367] relu1_22 -> conv1_22/bn (in-place)
I1216 09:09:18.368789  4784 net.cpp:122] Setting up relu1_22
I1216 09:09:18.368798  4784 net.cpp:129] Top shape: 1 1120 17 35 (666400)
I1216 09:09:18.368801  4784 net.cpp:137] Memory required for data: 424682448
I1216 09:09:18.368803  4784 layer_factory.hpp:77] Creating layer conv1_22
I1216 09:09:18.368813  4784 net.cpp:84] Creating Layer conv1_22
I1216 09:09:18.368818  4784 net.cpp:406] conv1_22 <- conv1_22/bn
I1216 09:09:18.368822  4784 net.cpp:380] conv1_22 -> conv1_22
I1216 09:09:18.378790  4784 net.cpp:122] Setting up conv1_22
I1216 09:09:18.378815  4784 net.cpp:129] Top shape: 1 32 17 35 (19040)
I1216 09:09:18.378818  4784 net.cpp:137] Memory required for data: 424758608
I1216 09:09:18.378826  4784 layer_factory.hpp:77] Creating layer concat1_22
I1216 09:09:18.378837  4784 net.cpp:84] Creating Layer concat1_22
I1216 09:09:18.378844  4784 net.cpp:406] concat1_22 <- concat1_21_concat1_21_0_split_1
I1216 09:09:18.378849  4784 net.cpp:406] concat1_22 <- conv1_22
I1216 09:09:18.378854  4784 net.cpp:380] concat1_22 -> concat1_22
I1216 09:09:18.378901  4784 net.cpp:122] Setting up concat1_22
I1216 09:09:18.378906  4784 net.cpp:129] Top shape: 1 1152 17 35 (685440)
I1216 09:09:18.378908  4784 net.cpp:137] Memory required for data: 427500368
I1216 09:09:18.378911  4784 layer_factory.hpp:77] Creating layer concat1_22_concat1_22_0_split
I1216 09:09:18.378916  4784 net.cpp:84] Creating Layer concat1_22_concat1_22_0_split
I1216 09:09:18.378919  4784 net.cpp:406] concat1_22_concat1_22_0_split <- concat1_22
I1216 09:09:18.378923  4784 net.cpp:380] concat1_22_concat1_22_0_split -> concat1_22_concat1_22_0_split_0
I1216 09:09:18.378928  4784 net.cpp:380] concat1_22_concat1_22_0_split -> concat1_22_concat1_22_0_split_1
I1216 09:09:18.378988  4784 net.cpp:122] Setting up concat1_22_concat1_22_0_split
I1216 09:09:18.378995  4784 net.cpp:129] Top shape: 1 1152 17 35 (685440)
I1216 09:09:18.378998  4784 net.cpp:129] Top shape: 1 1152 17 35 (685440)
I1216 09:09:18.379001  4784 net.cpp:137] Memory required for data: 432983888
I1216 09:09:18.379004  4784 layer_factory.hpp:77] Creating layer conv1_23/bn
I1216 09:09:18.379009  4784 net.cpp:84] Creating Layer conv1_23/bn
I1216 09:09:18.379011  4784 net.cpp:406] conv1_23/bn <- concat1_22_concat1_22_0_split_0
I1216 09:09:18.379017  4784 net.cpp:380] conv1_23/bn -> conv1_23/bn
I1216 09:09:18.379426  4784 net.cpp:122] Setting up conv1_23/bn
I1216 09:09:18.379433  4784 net.cpp:129] Top shape: 1 1152 17 35 (685440)
I1216 09:09:18.379436  4784 net.cpp:137] Memory required for data: 435725648
I1216 09:09:18.379442  4784 layer_factory.hpp:77] Creating layer conv1_23/scale
I1216 09:09:18.379451  4784 net.cpp:84] Creating Layer conv1_23/scale
I1216 09:09:18.379453  4784 net.cpp:406] conv1_23/scale <- conv1_23/bn
I1216 09:09:18.379457  4784 net.cpp:367] conv1_23/scale -> conv1_23/bn (in-place)
I1216 09:09:18.379513  4784 layer_factory.hpp:77] Creating layer conv1_23/scale
I1216 09:09:18.379745  4784 net.cpp:122] Setting up conv1_23/scale
I1216 09:09:18.379758  4784 net.cpp:129] Top shape: 1 1152 17 35 (685440)
I1216 09:09:18.379760  4784 net.cpp:137] Memory required for data: 438467408
I1216 09:09:18.379765  4784 layer_factory.hpp:77] Creating layer relu1_23
I1216 09:09:18.379771  4784 net.cpp:84] Creating Layer relu1_23
I1216 09:09:18.379775  4784 net.cpp:406] relu1_23 <- conv1_23/bn
I1216 09:09:18.379778  4784 net.cpp:367] relu1_23 -> conv1_23/bn (in-place)
I1216 09:09:18.380195  4784 net.cpp:122] Setting up relu1_23
I1216 09:09:18.380205  4784 net.cpp:129] Top shape: 1 1152 17 35 (685440)
I1216 09:09:18.380211  4784 net.cpp:137] Memory required for data: 441209168
I1216 09:09:18.380214  4784 layer_factory.hpp:77] Creating layer conv1_23
I1216 09:09:18.380224  4784 net.cpp:84] Creating Layer conv1_23
I1216 09:09:18.380228  4784 net.cpp:406] conv1_23 <- conv1_23/bn
I1216 09:09:18.380234  4784 net.cpp:380] conv1_23 -> conv1_23
I1216 09:09:18.390386  4784 net.cpp:122] Setting up conv1_23
I1216 09:09:18.390410  4784 net.cpp:129] Top shape: 1 32 17 35 (19040)
I1216 09:09:18.390413  4784 net.cpp:137] Memory required for data: 441285328
I1216 09:09:18.390420  4784 layer_factory.hpp:77] Creating layer concat1_23
I1216 09:09:18.390429  4784 net.cpp:84] Creating Layer concat1_23
I1216 09:09:18.390434  4784 net.cpp:406] concat1_23 <- concat1_22_concat1_22_0_split_1
I1216 09:09:18.390439  4784 net.cpp:406] concat1_23 <- conv1_23
I1216 09:09:18.390444  4784 net.cpp:380] concat1_23 -> concat1_23
I1216 09:09:18.390491  4784 net.cpp:122] Setting up concat1_23
I1216 09:09:18.390497  4784 net.cpp:129] Top shape: 1 1184 17 35 (704480)
I1216 09:09:18.390499  4784 net.cpp:137] Memory required for data: 444103248
I1216 09:09:18.390502  4784 layer_factory.hpp:77] Creating layer tpp5
I1216 09:09:18.390508  4784 net.cpp:84] Creating Layer tpp5
I1216 09:09:18.390511  4784 net.cpp:406] tpp5 <- concat1_23
I1216 09:09:18.390516  4784 net.cpp:380] tpp5 -> tpp5
I1216 09:09:18.391232  4784 net.cpp:122] Setting up tpp5
I1216 09:09:18.391239  4784 net.cpp:129] Top shape: 1 17760 (17760)
I1216 09:09:18.391242  4784 net.cpp:137] Memory required for data: 444174288
I1216 09:09:18.391245  4784 layer_factory.hpp:77] Creating layer reshape
I1216 09:09:18.391253  4784 net.cpp:84] Creating Layer reshape
I1216 09:09:18.391257  4784 net.cpp:406] reshape <- tpp5
I1216 09:09:18.391260  4784 net.cpp:380] reshape -> reshape
I1216 09:09:18.391302  4784 net.cpp:122] Setting up reshape
I1216 09:09:18.391309  4784 net.cpp:129] Top shape: 1 8880 2 1 (17760)
I1216 09:09:18.391311  4784 net.cpp:137] Memory required for data: 444245328
I1216 09:09:18.391314  4784 layer_factory.hpp:77] Creating layer premax
I1216 09:09:18.391320  4784 net.cpp:84] Creating Layer premax
I1216 09:09:18.391322  4784 net.cpp:406] premax <- reshape
I1216 09:09:18.391329  4784 net.cpp:380] premax -> premax
I1216 09:09:18.391513  4784 net.cpp:122] Setting up premax
I1216 09:09:18.391520  4784 net.cpp:129] Top shape: 1 8880 2 1 (17760)
I1216 09:09:18.391522  4784 net.cpp:137] Memory required for data: 444316368
I1216 09:09:18.391526  4784 layer_factory.hpp:77] Creating layer maxout
I1216 09:09:18.391533  4784 net.cpp:84] Creating Layer maxout
I1216 09:09:18.391536  4784 net.cpp:406] maxout <- premax
I1216 09:09:18.391541  4784 net.cpp:380] maxout -> maxout
I1216 09:09:18.391599  4784 net.cpp:122] Setting up maxout
I1216 09:09:18.391604  4784 net.cpp:129] Top shape: 1 8880 1 1 (8880)
I1216 09:09:18.391607  4784 net.cpp:137] Memory required for data: 444351888
I1216 09:09:18.391609  4784 layer_factory.hpp:77] Creating layer fc6_d
I1216 09:09:18.391615  4784 net.cpp:84] Creating Layer fc6_d
I1216 09:09:18.391618  4784 net.cpp:406] fc6_d <- maxout
I1216 09:09:18.391623  4784 net.cpp:380] fc6_d -> fc6_d
I1216 09:09:19.290146  4784 net.cpp:122] Setting up fc6_d
I1216 09:09:19.290174  4784 net.cpp:129] Top shape: 1 4096 (4096)
I1216 09:09:19.290176  4784 net.cpp:137] Memory required for data: 444368272
I1216 09:09:19.290184  4784 layer_factory.hpp:77] Creating layer relu6
I1216 09:09:19.290194  4784 net.cpp:84] Creating Layer relu6
I1216 09:09:19.290200  4784 net.cpp:406] relu6 <- fc6_d
I1216 09:09:19.290205  4784 net.cpp:367] relu6 -> fc6_d (in-place)
I1216 09:09:19.290832  4784 net.cpp:122] Setting up relu6
I1216 09:09:19.290841  4784 net.cpp:129] Top shape: 1 4096 (4096)
I1216 09:09:19.290844  4784 net.cpp:137] Memory required for data: 444384656
I1216 09:09:19.290848  4784 layer_factory.hpp:77] Creating layer fc7_d
I1216 09:09:19.290855  4784 net.cpp:84] Creating Layer fc7_d
I1216 09:09:19.290858  4784 net.cpp:406] fc7_d <- fc6_d
I1216 09:09:19.290863  4784 net.cpp:380] fc7_d -> fc7_d
I1216 09:09:19.704953  4784 net.cpp:122] Setting up fc7_d
I1216 09:09:19.704983  4784 net.cpp:129] Top shape: 1 4096 (4096)
I1216 09:09:19.704987  4784 net.cpp:137] Memory required for data: 444401040
I1216 09:09:19.704993  4784 layer_factory.hpp:77] Creating layer relu7
I1216 09:09:19.705003  4784 net.cpp:84] Creating Layer relu7
I1216 09:09:19.705008  4784 net.cpp:406] relu7 <- fc7_d
I1216 09:09:19.705014  4784 net.cpp:367] relu7 -> fc7_d (in-place)
I1216 09:09:19.705341  4784 net.cpp:122] Setting up relu7
I1216 09:09:19.705350  4784 net.cpp:129] Top shape: 1 4096 (4096)
I1216 09:09:19.705353  4784 net.cpp:137] Memory required for data: 444417424
I1216 09:09:19.705355  4784 layer_factory.hpp:77] Creating layer fc8_d
I1216 09:09:19.705363  4784 net.cpp:84] Creating Layer fc8_d
I1216 09:09:19.705368  4784 net.cpp:406] fc8_d <- fc7_d
I1216 09:09:19.705371  4784 net.cpp:380] fc8_d -> fc8_d
I1216 09:09:19.766991  4784 net.cpp:122] Setting up fc8_d
I1216 09:09:19.767019  4784 net.cpp:129] Top shape: 1 604 (604)
I1216 09:09:19.767021  4784 net.cpp:137] Memory required for data: 444419840
I1216 09:09:19.767030  4784 layer_factory.hpp:77] Creating layer fc8_d_fc8_d_0_split
I1216 09:09:19.767037  4784 net.cpp:84] Creating Layer fc8_d_fc8_d_0_split
I1216 09:09:19.767042  4784 net.cpp:406] fc8_d_fc8_d_0_split <- fc8_d
I1216 09:09:19.767051  4784 net.cpp:380] fc8_d_fc8_d_0_split -> fc8_d_fc8_d_0_split_0
I1216 09:09:19.767058  4784 net.cpp:380] fc8_d_fc8_d_0_split -> fc8_d_fc8_d_0_split_1
I1216 09:09:19.767120  4784 net.cpp:122] Setting up fc8_d_fc8_d_0_split
I1216 09:09:19.767127  4784 net.cpp:129] Top shape: 1 604 (604)
I1216 09:09:19.767129  4784 net.cpp:129] Top shape: 1 604 (604)
I1216 09:09:19.767132  4784 net.cpp:137] Memory required for data: 444424672
I1216 09:09:19.767134  4784 layer_factory.hpp:77] Creating layer sigmoid
I1216 09:09:19.767140  4784 net.cpp:84] Creating Layer sigmoid
I1216 09:09:19.767143  4784 net.cpp:406] sigmoid <- fc8_d_fc8_d_0_split_0
I1216 09:09:19.767148  4784 net.cpp:380] sigmoid -> sigmoid
I1216 09:09:19.767771  4784 net.cpp:122] Setting up sigmoid
I1216 09:09:19.767781  4784 net.cpp:129] Top shape: 1 604 (604)
I1216 09:09:19.767786  4784 net.cpp:137] Memory required for data: 444427088
I1216 09:09:19.767788  4784 layer_factory.hpp:77] Creating layer silence
I1216 09:09:19.767793  4784 net.cpp:84] Creating Layer silence
I1216 09:09:19.767796  4784 net.cpp:406] silence <- sigmoid
I1216 09:09:19.767801  4784 net.cpp:122] Setting up silence
I1216 09:09:19.767802  4784 net.cpp:137] Memory required for data: 444427088
…
