…
state {
  phase: TRAIN
}
layer {
  name: "word_images"
  type: "Data"
  top: "word_images"
  top: "label"
  transform_param {
    scale: -0.0039215689
    mean_value: 255
  }
  data_param {
    source: "/data/fwolf/min26/gw_cv1_nti500000_pul2-3-4-5_train_word_images_lmdb"
    batch_size: 1
    backend: LMDB
    prefetch: 20
  }
}
layer {
  name: "phocs"
  type: "Data"
  top: "phocs"
  top: "label_phocs"
  data_param {
    source: "/data/fwolf/min26/gw_cv1_nti500000_pul2-3-4-5_train_phocs_lmdb"
    batch_size: 1
    backend: LMDB
    prefetch: 20
  }
}
layer {
  name: "conv_init"
  type: "Convolution"
  bottom: "word_images"
  top: "conv_init"
  convolution_param {
    num_output: 32
    bias_term: false
    pad: 1
    kernel_size: 3
    stride: 1
    weight_filler {
      type: "msra"
    }
    bias_filler {
      type: "constant"
    }
    engine: CUDNN
  }
}
layer {
  name: "bn_init"
  type: "BatchNorm"
  bottom: "conv_init"
  top: "bn_init"
  param {
    lr_mult: 0
    decay_mult: 0
  }
  param {
    lr_mult: 0
    decay_mult: 0
  }
  param {
    lr_mult: 0
    decay_mult: 0
  }
  batch_norm_param {
    eps: 1e-05
  }
}
layer {
  name: "scale_init"
  type: "Scale"
  bottom: "bn_init"
  top: "bn_init"
  scale_param {
    filler {
      value: 1
    }
    bias_term: true
    bias_filler {
      value: 0
    }
  }
}
layer {
  name: "relu_init"
  type: "ReLU"
  bottom: "bn_init"
  top: "bn_init"
}
layer {
  name: "pool_init"
  type: "Pooling"
  bottom: "bn_init"
  top: "pool_init"
  pooling_param {
    pool: MAX
    kernel_size: 3
    stride: 2
    pad: 1
  }
}
layer {
  name: "conv0_0/bn"
  type: "BatchNorm"
  bottom: "pool_init"
  top: "conv0_0/bn"
  param {
    lr_mult: 0
    decay_mult: 0
  }
  param {
    lr_mult: 0
    decay_mult: 0
  }
  param {
    lr_mult: 0
    decay_mult: 0
  }
}
layer {
  name: "conv0_0/scale"
  type: "Scale"
  bottom: "conv0_0/bn"
  top: "conv0_0/bn"
  scale_param {
    filler {
      value: 1
    }
    bias_term: true
    bias_filler {
      value: 0
    }
  }
}
layer {
  name: "relu0_0"
  type: "ReLU"
  bottom: "conv0_0/bn"
  top: "conv0_0/bn"
}
layer {
  name: "conv0_0"
  type: "Convolution"
  bottom: "conv0_0/bn"
  top: "conv0_0"
  convolution_param {
    num_output: 32
    bias_term: false
    pad: 1
    kernel_size: 3
    stride: 1
    weight_filler {
      type: "msra"
    }
    bias_filler {
      type: "constant"
    }
    engine: CUDNN
  }
}
layer {
  name: "concat0_0"
  type: "Concat"
  bottom: "pool_init"
  bottom: "conv0_0"
  top: "concat0_0"
  concat_param {
    axis: 1
  }
}
layer {
  name: "conv0_1/bn"
  type: "BatchNorm"
  bottom: "concat0_0"
  top: "conv0_1/bn"
  param {
    lr_mult: 0
    decay_mult: 0
  }
  param {
    lr_mult: 0
    decay_mult: 0
  }
  param {
    lr_mult: 0
    decay_mult: 0
  }
}
layer {
  name: "conv0_1/scale"
  type: "Scale"
  bottom: "conv0_1/bn"
  top: "conv0_1/bn"
  scale_param {
    filler {
      value: 1
    }
    bias_term: true
    bias_filler {
      value: 0
    }
  }
}
layer {
  name: "relu0_1"
  type: "ReLU"
  bottom: "conv0_1/bn"
  top: "conv0_1/bn"
}
layer {
  name: "conv0_1"
  type: "Convolution"
  bottom: "conv0_1/bn"
  top: "conv0_1"
  convolution_param {
    num_output: 32
    bias_term: false
    pad: 1
    kernel_size: 3
    stride: 1
    weight_filler {
      type: "msra"
    }
    bias_filler {
      type: "constant"
    }
    engine: CUDNN
  }
}
layer {
  name: "concat0_1"
  type: "Concat"
  bottom: "concat0_0"
  bottom: "conv0_1"
  top: "concat0_1"
  concat_param {
    axis: 1
  }
}
layer {
  name: "conv0_2/bn"
  type: "BatchNorm"
  bottom: "concat0_1"
  top: "conv0_2/bn"
  param {
    lr_mult: 0
    decay_mult: 0
  }
  param {
    lr_mult: 0
    decay_mult: 0
  }
  param {
    lr_mult: 0
    decay_mult: 0
  }
}
layer {
  name: "conv0_2/scale"
  type: "Scale"
  bottom: "conv0_2/bn"
  top: "conv0_2/bn"
  scale_param {
    filler {
      value: 1
    }
    bias_term: true
    bias_filler {
      value: 0
    }
  }
}
layer {
  name: "relu0_2"
  type: "ReLU"
  bottom: "conv0_2/bn"
  top: "conv0_2/bn"
}
layer {
  name: "conv0_2"
  type: "Convolution"
  bottom: "conv0_2/bn"
  top: "conv0_2"
  convolution_param {
    num_output: 32
    bias_term: false
    pad: 1
    kernel_size: 3
    stride: 1
    weight_filler {
      type: "msra"
    }
    bias_filler {
      type: "constant"
    }
    engine: CUDNN
  }
}
layer {
  name: "concat0_2"
  type: "Concat"
  bottom: "concat0_1"
  bottom: "conv0_2"
  top: "concat0_2"
  concat_param {
    axis: 1
  }
}
layer {
  name: "conv0_3/bn"
  type: "BatchNorm"
  bottom: "concat0_2"
  top: "conv0_3/bn"
  param {
    lr_mult: 0
    decay_mult: 0
  }
  param {
    lr_mult: 0
    decay_mult: 0
  }
  param {
    lr_mult: 0
    decay_mult: 0
  }
}
layer {
  name: "conv0_3/scale"
  type: "Scale"
  bottom: "conv0_3/bn"
  top: "conv0_3/bn"
  scale_param {
    filler {
      value: 1
    }
    bias_term: true
    bias_filler {
      value: 0
    }
  }
}
layer {
  name: "relu0_3"
  type: "ReLU"
  bottom: "conv0_3/bn"
  top: "conv0_3/bn"
}
layer {
  name: "conv0_3"
  type: "Convolution"
  bottom: "conv0_3/bn"
  top: "conv0_3"
  convolution_param {
    num_output: 32
    bias_term: false
    pad: 1
    kernel_size: 3
    stride: 1
    weight_filler {
      type: "msra"
    }
    bias_filler {
      type: "constant"
    }
    engine: CUDNN
  }
}
layer {
  name: "concat0_3"
  type: "Concat"
  bottom: "concat0_2"
  bottom: "conv0_3"
  top: "concat0_3"
  concat_param {
    axis: 1
  }
}
layer {
  name: "conv0_4/bn"
  type: "BatchNorm"
  bottom: "concat0_3"
  top: "conv0_4/bn"
  param {
    lr_mult: 0
    decay_mult: 0
  }
  param {
    lr_mult: 0
    decay_mult: 0
  }
  param {
    lr_mult: 0
    decay_mult: 0
  }
}
layer {
  name: "conv0_4/scale"
  type: "Scale"
  bottom: "conv0_4/bn"
  top: "conv0_4/bn"
  scale_param {
    filler {
      value: 1
    }
    bias_term: true
    bias_filler {
      value: 0
    }
  }
}
layer {
  name: "relu0_4"
  type: "ReLU"
  bottom: "conv0_4/bn"
  top: "conv0_4/bn"
}
layer {
  name: "conv0_4"
  type: "Convolution"
  bottom: "conv0_4/bn"
  top: "conv0_4"
  convolution_param {
    num_output: 32
    bias_term: false
    pad: 1
    kernel_size: 3
    stride: 1
    weight_filler {
      type: "msra"
    }
    bias_filler {
      type: "constant"
    }
    engine: CUDNN
  }
}
layer {
  name: "concat0_4"
  type: "Concat"
  bottom: "concat0_3"
  bottom: "conv0_4"
  top: "concat0_4"
  concat_param {
    axis: 1
  }
}
layer {
  name: "conv0_5/bn"
  type: "BatchNorm"
  bottom: "concat0_4"
  top: "conv0_5/bn"
  param {
    lr_mult: 0
    decay_mult: 0
  }
  param {
    lr_mult: 0
    decay_mult: 0
  }
  param {
    lr_mult: 0
    decay_mult: 0
  }
}
layer {
  name: "conv0_5/scale"
  type: "Scale"
  bottom: "conv0_5/bn"
  top: "conv0_5/bn"
  scale_param {
    filler {
      value: 1
    }
    bias_term: true
    bias_filler {
      value: 0
    }
  }
}
layer {
  name: "relu0_5"
  type: "ReLU"
  bottom: "conv0_5/bn"
  top: "conv0_5/bn"
}
layer {
  name: "conv0_5"
  type: "Convolution"
  bottom: "conv0_5/bn"
  top: "conv0_5"
  convolution_param {
    num_output: 32
    bias_term: false
    pad: 1
    kernel_size: 3
    stride: 1
    weight_filler {
      type: "msra"
    }
    bias_filler {
      type: "constant"
    }
    engine: CUDNN
  }
}
layer {
  name: "concat0_5"
  type: "Concat"
  bottom: "concat0_4"
  bottom: "conv0_5"
  top: "concat0_5"
  concat_param {
    axis: 1
  }
}
layer {
  name: "BatchNorm1"
  type: "BatchNorm"
  bottom: "concat0_5"
  top: "BatchNorm1"
  param {
    lr_mult: 0
    decay_mult: 0
  }
  param {
    lr_mult: 0
    decay_mult: 0
  }
  param {
    lr_mult: 0
    decay_mult: 0
  }
}
layer {
  name: "Scale1"
  type: "Scale"
  bottom: "BatchNorm1"
  top: "BatchNorm1"
  scale_param {
    filler {
      value: 1
    }
    bias_term: true
    bias_filler {
      value: 0
    }
  }
}
layer {
  name: "ReLU1"
  type: "ReLU"
  bottom: "BatchNorm1"
  top: "BatchNorm1"
}
layer {
  name: "conv0_blk"
  type: "Convolution"
  bottom: "BatchNorm1"
  top: "conv0_blk"
  convolution_param {
    num_output: 224
    bias_term: false
    pad: 0
    kernel_size: 1
    stride: 1
    weight_filler {
      type: "msra"
    }
    bias_filler {
      type: "constant"
    }
    engine: CUDNN
  }
}
layer {
  name: "pool0"
  type: "Pooling"
  bottom: "conv0_blk"
  top: "pool0"
  pooling_param {
    pool: AVE
    kernel_size: 2
    stride: 2
  }
}
layer {
  name: "conv1_0/bn"
  type: "BatchNorm"
  bottom: "pool0"
  top: "conv1_0/bn"
  param {
    lr_mult: 0
    decay_mult: 0
  }
  param {
    lr_mult: 0
    decay_mult: 0
  }
  param {
    lr_mult: 0
    decay_mult: 0
  }
}
layer {
  name: "conv1_0/scale"
  type: "Scale"
  bottom: "conv1_0/bn"
  top: "conv1_0/bn"
  scale_param {
    filler {
      value: 1
    }
    bias_term: true
    bias_filler {
      value: 0
    }
  }
}
layer {
  name: "relu1_0"
  type: "ReLU"
  bottom: "conv1_0/bn"
  top: "conv1_0/bn"
}
layer {
  name: "conv1_0"
  type: "Convolution"
  bottom: "conv1_0/bn"
  top: "conv1_0"
  convolution_param {
    num_output: 32
    bias_term: false
    pad: 1
    kernel_size: 3
    stride: 1
    weight_filler {
      type: "msra"
    }
    bias_filler {
      type: "constant"
    }
    engine: CUDNN
  }
}
layer {
  name: "concat1_0"
  type: "Concat"
  bottom: "pool0"
  bottom: "conv1_0"
  top: "concat1_0"
  concat_param {
    axis: 1
  }
}
layer {
  name: "conv1_1/bn"
  type: "BatchNorm"
  bottom: "concat1_0"
  top: "conv1_1/bn"
  param {
    lr_mult: 0
    decay_mult: 0
  }
  param {
    lr_mult: 0
    decay_mult: 0
  }
  param {
    lr_mult: 0
    decay_mult: 0
  }
}
layer {
  name: "conv1_1/scale"
  type: "Scale"
  bottom: "conv1_1/bn"
  top: "conv1_1/bn"
  scale_param {
    filler {
      value: 1
    }
    bias_term: true
    bias_filler {
      value: 0
    }
  }
}
layer {
  name: "relu1_1"
  type: "ReLU"
  bottom: "conv1_1/bn"
  top: "conv1_1/bn"
}
layer {
  name: "conv1_1"
  type: "Convolution"
  bottom: "conv1_1/bn"
  top: "conv1_1"
  convolution_param {
    num_output: 32
    bias_term: false
    pad: 1
    kernel_size: 3
    stride: 1
    weight_filler {
      type: "msra"
    }
    bias_filler {
      type: "constant"
    }
    engine: CUDNN
  }
}
layer {
  name: "concat1_1"
  type: "Concat"
  bottom: "concat1_0"
  bottom: "conv1_1"
  top: "concat1_1"
  concat_param {
    axis: 1
  }
}
layer {
  name: "conv1_2/bn"
  type: "BatchNorm"
  bottom: "concat1_1"
  top: "conv1_2/bn"
  param {
    lr_mult: 0
    decay_mult: 0
  }
  param {
    lr_mult: 0
    decay_mult: 0
  }
  param {
    lr_mult: 0
    decay_mult: 0
  }
}
layer {
  name: "conv1_2/scale"
  type: "Scale"
  bottom: "conv1_2/bn"
  top: "conv1_2/bn"
  scale_param {
    filler {
      value: 1
    }
    bias_term: true
    bias_filler {
      value: 0
    }
  }
}
layer {
  name: "relu1_2"
  type: "ReLU"
  bottom: "conv1_2/bn"
  top: "conv1_2/bn"
}
layer {
  name: "conv1_2"
  type: "Convolution"
  bottom: "conv1_2/bn"
  top: "conv1_2"
  convolution_param {
    num_output: 32
    bias_term: false
    pad: 1
    kernel_size: 3
    stride: 1
    weight_filler {
      type: "msra"
    }
    bias_filler {
      type: "constant"
    }
    engine: CUDNN
  }
}
layer {
  name: "concat1_2"
  type: "Concat"
  bottom: "concat1_1"
  bottom: "conv1_2"
  top: "concat1_2"
  concat_param {
    axis: 1
  }
}
layer {
  name: "conv1_3/bn"
  type: "BatchNorm"
  bottom: "concat1_2"
  top: "conv1_3/bn"
  param {
    lr_mult: 0
    decay_mult: 0
  }
  param {
    lr_mult: 0
    decay_mult: 0
  }
  param {
    lr_mult: 0
    decay_mult: 0
  }
}
layer {
  name: "conv1_3/scale"
  type: "Scale"
  bottom: "conv1_3/bn"
  top: "conv1_3/bn"
  scale_param {
    filler {
      value: 1
    }
    bias_term: true
    bias_filler {
      value: 0
    }
  }
}
layer {
  name: "relu1_3"
  type: "ReLU"
  bottom: "conv1_3/bn"
  top: "conv1_3/bn"
}
layer {
  name: "conv1_3"
  type: "Convolution"
  bottom: "conv1_3/bn"
  top: "conv1_3"
  convolution_param {
    num_output: 32
    bias_term: false
    pad: 1
    kernel_size: 3
    stride: 1
    weight_filler {
      type: "msra"
    }
    bias_filler {
      type: "constant"
    }
    engine: CUDNN
  }
}
layer {
  name: "concat1_3"
  type: "Concat"
  bottom: "concat1_2"
  bottom: "conv1_3"
  top: "concat1_3"
  concat_param {
    axis: 1
  }
}
layer {
  name: "conv1_4/bn"
  type: "BatchNorm"
  bottom: "concat1_3"
  top: "conv1_4/bn"
  param {
    lr_mult: 0
    decay_mult: 0
  }
  param {
    lr_mult: 0
    decay_mult: 0
  }
  param {
    lr_mult: 0
    decay_mult: 0
  }
}
layer {
  name: "conv1_4/scale"
  type: "Scale"
  bottom: "conv1_4/bn"
  top: "conv1_4/bn"
  scale_param {
    filler {
      value: 1
    }
    bias_term: true
    bias_filler {
      value: 0
    }
  }
}
layer {
  name: "relu1_4"
  type: "ReLU"
  bottom: "conv1_4/bn"
  top: "conv1_4/bn"
}
layer {
  name: "conv1_4"
  type: "Convolution"
  bottom: "conv1_4/bn"
  top: "conv1_4"
  convolution_param {
    num_output: 32
    bias_term: false
    pad: 1
    kernel_size: 3
    stride: 1
    weight_filler {
      type: "msra"
    }
    bias_filler {
      type: "constant"
    }
    engine: CUDNN
  }
}
layer {
  name: "concat1_4"
  type: "Concat"
  bottom: "concat1_3"
  bottom: "conv1_4"
  top: "concat1_4"
  concat_param {
    axis: 1
  }
}
layer {
  name: "conv1_5/bn"
  type: "BatchNorm"
  bottom: "concat1_4"
  top: "conv1_5/bn"
  param {
    lr_mult: 0
    decay_mult: 0
  }
  param {
    lr_mult: 0
    decay_mult: 0
  }
  param {
    lr_mult: 0
    decay_mult: 0
  }
}
layer {
  name: "conv1_5/scale"
  type: "Scale"
  bottom: "conv1_5/bn"
  top: "conv1_5/bn"
  scale_param {
    filler {
      value: 1
    }
    bias_term: true
    bias_filler {
      value: 0
    }
  }
}
layer {
  name: "relu1_5"
  type: "ReLU"
  bottom: "conv1_5/bn"
  top: "conv1_5/bn"
}
layer {
  name: "conv1_5"
  type: "Convolution"
  bottom: "conv1_5/bn"
  top: "conv1_5"
  convolution_param {
    num_output: 32
    bias_term: false
    pad: 1
    kernel_size: 3
    stride: 1
    weight_filler {
      type: "msra"
    }
    bias_filler {
      type: "constant"
    }
    engine: CUDNN
  }
}
layer {
  name: "concat1_5"
  type: "Concat"
  bottom: "concat1_4"
  bottom: "conv1_5"
  top: "concat1_5"
  concat_param {
    axis: 1
  }
}
layer {
  name: "conv1_6/bn"
  type: "BatchNorm"
  bottom: "concat1_5"
  top: "conv1_6/bn"
  param {
    lr_mult: 0
    decay_mult: 0
  }
  param {
    lr_mult: 0
    decay_mult: 0
  }
  param {
    lr_mult: 0
    decay_mult: 0
  }
}
layer {
  name: "conv1_6/scale"
  type: "Scale"
  bottom: "conv1_6/bn"
  top: "conv1_6/bn"
  scale_param {
    filler {
      value: 1
    }
    bias_term: true
    bias_filler {
      value: 0
    }
  }
}
layer {
  name: "relu1_6"
  type: "ReLU"
  bottom: "conv1_6/bn"
  top: "conv1_6/bn"
}
layer {
  name: "conv1_6"
  type: "Convolution"
  bottom: "conv1_6/bn"
  top: "conv1_6"
  convolution_param {
    num_output: 32
    bias_term: false
    pad: 1
    kernel_size: 3
    stride: 1
    weight_filler {
      type: "msra"
    }
    bias_filler {
      type: "constant"
    }
    engine: CUDNN
  }
}
layer {
  name: "concat1_6"
  type: "Concat"
  bottom: "concat1_5"
  bottom: "conv1_6"
  top: "concat1_6"
  concat_param {
    axis: 1
  }
}
layer {
  name: "conv1_7/bn"
  type: "BatchNorm"
  bottom: "concat1_6"
  top: "conv1_7/bn"
  param {
    lr_mult: 0
    decay_mult: 0
  }
  param {
    lr_mult: 0
    decay_mult: 0
  }
  param {
    lr_mult: 0
    decay_mult: 0
  }
}
layer {
  name: "conv1_7/scale"
  type: "Scale"
  bottom: "conv1_7/bn"
  top: "conv1_7/bn"
  scale_param {
    filler {
      value: 1
    }
    bias_term: true
    bias_filler {
      value: 0
    }
  }
}
layer {
  name: "relu1_7"
  type: "ReLU"
  bottom: "conv1_7/bn"
  top: "conv1_7/bn"
}
layer {
  name: "conv1_7"
  type: "Convolution"
  bottom: "conv1_7/bn"
  top: "conv1_7"
  convolution_param {
    num_output: 32
    bias_term: false
    pad: 1
    kernel_size: 3
    stride: 1
    weight_filler {
      type: "msra"
    }
    bias_filler {
      type: "constant"
    }
    engine: CUDNN
  }
}
layer {
  name: "concat1_7"
  type: "Concat"
  bottom: "concat1_6"
  bottom: "conv1_7"
  top: "concat1_7"
  concat_param {
    axis: 1
  }
}
layer {
  name: "conv1_8/bn"
  type: "BatchNorm"
  bottom: "concat1_7"
  top: "conv1_8/bn"
  param {
    lr_mult: 0
    decay_mult: 0
  }
  param {
    lr_mult: 0
    decay_mult: 0
  }
  param {
    lr_mult: 0
    decay_mult: 0
  }
}
layer {
  name: "conv1_8/scale"
  type: "Scale"
  bottom: "conv1_8/bn"
  top: "conv1_8/bn"
  scale_param {
    filler {
      value: 1
    }
    bias_term: true
    bias_filler {
      value: 0
    }
  }
}
layer {
  name: "relu1_8"
  type: "ReLU"
  bottom: "conv1_8/bn"
  top: "conv1_8/bn"
}
layer {
  name: "conv1_8"
  type: "Convolution"
  bottom: "conv1_8/bn"
  top: "conv1_8"
  convolution_param {
    num_output: 32
    bias_term: false
    pad: 1
    kernel_size: 3
    stride: 1
    weight_filler {
      type: "msra"
    }
    bias_filler {
      type: "constant"
    }
    engine: CUDNN
  }
}
layer {
  name: "concat1_8"
  type: "Concat"
  bottom: "concat1_7"
  bottom: "conv1_8"
  top: "concat1_8"
  concat_param {
    axis: 1
  }
}
layer {
  name: "conv1_9/bn"
  type: "BatchNorm"
  bottom: "concat1_8"
  top: "conv1_9/bn"
  param {
    lr_mult: 0
    decay_mult: 0
  }
  param {
    lr_mult: 0
    decay_mult: 0
  }
  param {
    lr_mult: 0
    decay_mult: 0
  }
}
layer {
  name: "conv1_9/scale"
  type: "Scale"
  bottom: "conv1_9/bn"
  top: "conv1_9/bn"
  scale_param {
    filler {
      value: 1
    }
    bias_term: true
    bias_filler {
      value: 0
    }
  }
}
layer {
  name: "relu1_9"
  type: "ReLU"
  bottom: "conv1_9/bn"
  top: "conv1_9/bn"
}
layer {
  name: "conv1_9"
  type: "Convolution"
  bottom: "conv1_9/bn"
  top: "conv1_9"
  convolution_param {
    num_output: 32
    bias_term: false
    pad: 1
    kernel_size: 3
    stride: 1
    weight_filler {
      type: "msra"
    }
    bias_filler {
      type: "constant"
    }
    engine: CUDNN
  }
}
layer {
  name: "concat1_9"
  type: "Concat"
  bottom: "concat1_8"
  bottom: "conv1_9"
  top: "concat1_9"
  concat_param {
    axis: 1
  }
}
layer {
  name: "conv1_10/bn"
  type: "BatchNorm"
  bottom: "concat1_9"
  top: "conv1_10/bn"
  param {
    lr_mult: 0
    decay_mult: 0
  }
  param {
    lr_mult: 0
    decay_mult: 0
  }
  param {
    lr_mult: 0
    decay_mult: 0
  }
}
layer {
  name: "conv1_10/scale"
  type: "Scale"
  bottom: "conv1_10/bn"
  top: "conv1_10/bn"
  scale_param {
    filler {
      value: 1
    }
    bias_term: true
    bias_filler {
      value: 0
    }
  }
}
layer {
  name: "relu1_10"
  type: "ReLU"
  bottom: "conv1_10/bn"
  top: "conv1_10/bn"
}
layer {
  name: "conv1_10"
  type: "Convolution"
  bottom: "conv1_10/bn"
  top: "conv1_10"
  convolution_param {
    num_output: 32
    bias_term: false
    pad: 1
    kernel_size: 3
    stride: 1
    weight_filler {
      type: "msra"
    }
    bias_filler {
      type: "constant"
    }
    engine: CUDNN
  }
}
layer {
  name: "concat1_10"
  type: "Concat"
  bottom: "concat1_9"
  bottom: "conv1_10"
  top: "concat1_10"
  concat_param {
    axis: 1
  }
}
layer {
  name: "conv1_11/bn"
  type: "BatchNorm"
  bottom: "concat1_10"
  top: "conv1_11/bn"
  param {
    lr_mult: 0
    decay_mult: 0
  }
  param {
    lr_mult: 0
    decay_mult: 0
  }
  param {
    lr_mult: 0
    decay_mult: 0
  }
}
layer {
  name: "conv1_11/scale"
  type: "Scale"
  bottom: "conv1_11/bn"
  top: "conv1_11/bn"
  scale_param {
    filler {
      value: 1
    }
    bias_term: true
    bias_filler {
      value: 0
    }
  }
}
layer {
  name: "relu1_11"
  type: "ReLU"
  bottom: "conv1_11/bn"
  top: "conv1_11/bn"
}
layer {
  name: "conv1_11"
  type: "Convolution"
  bottom: "conv1_11/bn"
  top: "conv1_11"
  convolution_param {
    num_output: 32
    bias_term: false
    pad: 1
    kernel_size: 3
    stride: 1
    weight_filler {
      type: "msra"
    }
    bias_filler {
      type: "constant"
    }
    engine: CUDNN
  }
}
layer {
  name: "concat1_11"
  type: "Concat"
  bottom: "concat1_10"
  bottom: "conv1_11"
  top: "concat1_11"
  concat_param {
    axis: 1
  }
}
layer {
  name: "tpp5"
  type: "TPP"
  bottom: "concat1_11"
  top: "tpp5"
  tpp_param {
    pyramid_layer: 1
    pyramid_layer: 2
    pyramid_layer: 3
    pyramid_layer: 4
    pyramid_layer: 5
    pool: MAX
    engine: CUDNN
  }
}
layer {
  name: "fc6_d"
  type: "InnerProduct"
  bottom: "tpp5"
  top: "fc6_d"
  inner_product_param {
    num_output: 4096
    weight_filler {
      type: "msra"
    }
    bias_filler {
      type: "constant"
    }
  }
}
layer {
  name: "relu6"
  type: "ReLU"
  bottom: "fc6_d"
  top: "fc6_d"
}
layer {
  name: "drop6"
  type: "Dropout"
  bottom: "fc6_d"
  top: "fc6_d"
  include {
    phase: TRAIN
  }
  dropout_param {
    dropout_ratio: 0.5
  }
}
layer {
  name: "fc7_d"
  type: "InnerProduct"
  bottom: "fc6_d"
  top: "fc7_d"
  inner_product_param {
    num_output: 4096
    weight_filler {
      type: "msra"
    }
    bias_filler {
      type: "constant"
    }
  }
}
layer {
  name: "relu7"
  type: "ReLU"
  bottom: "fc7_d"
  top: "fc7_d"
}
layer {
  name: "drop7"
  type: "Dropout"
  bottom: "fc7_d"
  top: "fc7_d"
  include {
    phase: TRAIN
  }
  dropout_param {
    dropout_ratio: 0.5
  }
}
layer {
  name: "fc8_d"
  type: "InnerProduct"
  bottom: "fc7_d"
  top: "fc8_d"
  inner_product_param {
    num_output: 604
    weight_filler {
      type: "msra"
    }
    bias_filler {
      type: "constant"
    }
  }
}
layer {
  name: "loss"
  type: "SigmoidCrossEntropyLoss"
  bottom: "fc8_d"
  bottom: "phocs"
  top: "loss"
}
I1210 16:23:20.242858  9763 layer_factory.hpp:77] Creating layer word_images
I1210 16:23:20.242950  9763 db_lmdb.cpp:35] Opened lmdb /data/fwolf/min26/gw_cv1_nti500000_pul2-3-4-5_train_word_images_lmdb
I1210 16:23:20.242995  9763 net.cpp:84] Creating Layer word_images
I1210 16:23:20.243010  9763 net.cpp:380] word_images -> word_images
I1210 16:23:20.243029  9763 net.cpp:380] word_images -> label
I1210 16:23:20.251283  9763 data_layer.cpp:44] output data size: 1,1,72,422
I1210 16:23:20.256865  9763 net.cpp:122] Setting up word_images
I1210 16:23:20.256882  9763 net.cpp:129] Top shape: 1 1 72 422 (30384)
I1210 16:23:20.256888  9763 net.cpp:129] Top shape: 1 (1)
I1210 16:23:20.256892  9763 net.cpp:137] Memory required for data: 121540
I1210 16:23:20.256898  9763 layer_factory.hpp:77] Creating layer phocs
I1210 16:23:20.256953  9763 db_lmdb.cpp:35] Opened lmdb /data/fwolf/min26/gw_cv1_nti500000_pul2-3-4-5_train_phocs_lmdb
I1210 16:23:20.256988  9763 net.cpp:84] Creating Layer phocs
I1210 16:23:20.256995  9763 net.cpp:380] phocs -> phocs
I1210 16:23:20.257005  9763 net.cpp:380] phocs -> label_phocs
I1210 16:23:20.257433  9763 data_layer.cpp:44] output data size: 1,1,1,604
I1210 16:23:20.260273  9763 net.cpp:122] Setting up phocs
I1210 16:23:20.260290  9763 net.cpp:129] Top shape: 1 1 1 604 (604)
I1210 16:23:20.260295  9763 net.cpp:129] Top shape: 1 (1)
I1210 16:23:20.260299  9763 net.cpp:137] Memory required for data: 123960
I1210 16:23:20.260308  9763 layer_factory.hpp:77] Creating layer conv_init
I1210 16:23:20.260325  9763 net.cpp:84] Creating Layer conv_init
I1210 16:23:20.260330  9763 net.cpp:406] conv_init <- word_images
I1210 16:23:20.260339  9763 net.cpp:380] conv_init -> conv_init
I1210 16:23:21.383440  9763 net.cpp:122] Setting up conv_init
I1210 16:23:21.383482  9763 net.cpp:129] Top shape: 1 32 72 422 (972288)
I1210 16:23:21.383487  9763 net.cpp:137] Memory required for data: 4013112
I1210 16:23:21.383502  9763 layer_factory.hpp:77] Creating layer bn_init
I1210 16:23:21.383517  9763 net.cpp:84] Creating Layer bn_init
I1210 16:23:21.383522  9763 net.cpp:406] bn_init <- conv_init
I1210 16:23:21.383530  9763 net.cpp:380] bn_init -> bn_init
I1210 16:23:21.383942  9763 net.cpp:122] Setting up bn_init
I1210 16:23:21.383954  9763 net.cpp:129] Top shape: 1 32 72 422 (972288)
I1210 16:23:21.383957  9763 net.cpp:137] Memory required for data: 7902264
I1210 16:23:21.383970  9763 layer_factory.hpp:77] Creating layer scale_init
I1210 16:23:21.383982  9763 net.cpp:84] Creating Layer scale_init
I1210 16:23:21.383986  9763 net.cpp:406] scale_init <- bn_init
I1210 16:23:21.383992  9763 net.cpp:367] scale_init -> bn_init (in-place)
I1210 16:23:21.384058  9763 layer_factory.hpp:77] Creating layer scale_init
I1210 16:23:21.384299  9763 net.cpp:122] Setting up scale_init
I1210 16:23:21.384307  9763 net.cpp:129] Top shape: 1 32 72 422 (972288)
I1210 16:23:21.384311  9763 net.cpp:137] Memory required for data: 11791416
I1210 16:23:21.384320  9763 layer_factory.hpp:77] Creating layer relu_init
I1210 16:23:21.384328  9763 net.cpp:84] Creating Layer relu_init
I1210 16:23:21.384332  9763 net.cpp:406] relu_init <- bn_init
I1210 16:23:21.384338  9763 net.cpp:367] relu_init -> bn_init (in-place)
I1210 16:23:21.384802  9763 net.cpp:122] Setting up relu_init
I1210 16:23:21.384816  9763 net.cpp:129] Top shape: 1 32 72 422 (972288)
I1210 16:23:21.384821  9763 net.cpp:137] Memory required for data: 15680568
I1210 16:23:21.384825  9763 layer_factory.hpp:77] Creating layer pool_init
I1210 16:23:21.384835  9763 net.cpp:84] Creating Layer pool_init
I1210 16:23:21.384838  9763 net.cpp:406] pool_init <- bn_init
I1210 16:23:21.384845  9763 net.cpp:380] pool_init -> pool_init
I1210 16:23:21.384918  9763 net.cpp:122] Setting up pool_init
I1210 16:23:21.384927  9763 net.cpp:129] Top shape: 1 32 37 212 (251008)
I1210 16:23:21.384930  9763 net.cpp:137] Memory required for data: 16684600
I1210 16:23:21.384934  9763 layer_factory.hpp:77] Creating layer pool_init_pool_init_0_split
I1210 16:23:21.384941  9763 net.cpp:84] Creating Layer pool_init_pool_init_0_split
I1210 16:23:21.384945  9763 net.cpp:406] pool_init_pool_init_0_split <- pool_init
I1210 16:23:21.384951  9763 net.cpp:380] pool_init_pool_init_0_split -> pool_init_pool_init_0_split_0
I1210 16:23:21.384958  9763 net.cpp:380] pool_init_pool_init_0_split -> pool_init_pool_init_0_split_1
I1210 16:23:21.385015  9763 net.cpp:122] Setting up pool_init_pool_init_0_split
I1210 16:23:21.385022  9763 net.cpp:129] Top shape: 1 32 37 212 (251008)
I1210 16:23:21.385027  9763 net.cpp:129] Top shape: 1 32 37 212 (251008)
I1210 16:23:21.385031  9763 net.cpp:137] Memory required for data: 18692664
I1210 16:23:21.385035  9763 layer_factory.hpp:77] Creating layer conv0_0/bn
I1210 16:23:21.385043  9763 net.cpp:84] Creating Layer conv0_0/bn
I1210 16:23:21.385047  9763 net.cpp:406] conv0_0/bn <- pool_init_pool_init_0_split_0
I1210 16:23:21.385053  9763 net.cpp:380] conv0_0/bn -> conv0_0/bn
I1210 16:23:21.386219  9763 net.cpp:122] Setting up conv0_0/bn
I1210 16:23:21.386234  9763 net.cpp:129] Top shape: 1 32 37 212 (251008)
I1210 16:23:21.386240  9763 net.cpp:137] Memory required for data: 19696696
I1210 16:23:21.386253  9763 layer_factory.hpp:77] Creating layer conv0_0/scale
I1210 16:23:21.386262  9763 net.cpp:84] Creating Layer conv0_0/scale
I1210 16:23:21.386266  9763 net.cpp:406] conv0_0/scale <- conv0_0/bn
I1210 16:23:21.386273  9763 net.cpp:367] conv0_0/scale -> conv0_0/bn (in-place)
I1210 16:23:21.386340  9763 layer_factory.hpp:77] Creating layer conv0_0/scale
I1210 16:23:21.386554  9763 net.cpp:122] Setting up conv0_0/scale
I1210 16:23:21.386564  9763 net.cpp:129] Top shape: 1 32 37 212 (251008)
I1210 16:23:21.386567  9763 net.cpp:137] Memory required for data: 20700728
I1210 16:23:21.386575  9763 layer_factory.hpp:77] Creating layer relu0_0
I1210 16:23:21.386582  9763 net.cpp:84] Creating Layer relu0_0
I1210 16:23:21.386586  9763 net.cpp:406] relu0_0 <- conv0_0/bn
I1210 16:23:21.386592  9763 net.cpp:367] relu0_0 -> conv0_0/bn (in-place)
I1210 16:23:21.386821  9763 net.cpp:122] Setting up relu0_0
I1210 16:23:21.386831  9763 net.cpp:129] Top shape: 1 32 37 212 (251008)
I1210 16:23:21.386834  9763 net.cpp:137] Memory required for data: 21704760
I1210 16:23:21.386838  9763 layer_factory.hpp:77] Creating layer conv0_0
I1210 16:23:21.386850  9763 net.cpp:84] Creating Layer conv0_0
I1210 16:23:21.386855  9763 net.cpp:406] conv0_0 <- conv0_0/bn
I1210 16:23:21.386862  9763 net.cpp:380] conv0_0 -> conv0_0
I1210 16:23:21.388599  9763 net.cpp:122] Setting up conv0_0
I1210 16:23:21.388614  9763 net.cpp:129] Top shape: 1 32 37 212 (251008)
I1210 16:23:21.388618  9763 net.cpp:137] Memory required for data: 22708792
I1210 16:23:21.388625  9763 layer_factory.hpp:77] Creating layer concat0_0
I1210 16:23:21.388633  9763 net.cpp:84] Creating Layer concat0_0
I1210 16:23:21.388638  9763 net.cpp:406] concat0_0 <- pool_init_pool_init_0_split_1
I1210 16:23:21.388644  9763 net.cpp:406] concat0_0 <- conv0_0
I1210 16:23:21.388650  9763 net.cpp:380] concat0_0 -> concat0_0
I1210 16:23:21.388692  9763 net.cpp:122] Setting up concat0_0
I1210 16:23:21.388700  9763 net.cpp:129] Top shape: 1 64 37 212 (502016)
I1210 16:23:21.388703  9763 net.cpp:137] Memory required for data: 24716856
I1210 16:23:21.388707  9763 layer_factory.hpp:77] Creating layer concat0_0_concat0_0_0_split
I1210 16:23:21.388713  9763 net.cpp:84] Creating Layer concat0_0_concat0_0_0_split
I1210 16:23:21.388717  9763 net.cpp:406] concat0_0_concat0_0_0_split <- concat0_0
I1210 16:23:21.388723  9763 net.cpp:380] concat0_0_concat0_0_0_split -> concat0_0_concat0_0_0_split_0
I1210 16:23:21.388731  9763 net.cpp:380] concat0_0_concat0_0_0_split -> concat0_0_concat0_0_0_split_1
I1210 16:23:21.388787  9763 net.cpp:122] Setting up concat0_0_concat0_0_0_split
I1210 16:23:21.388793  9763 net.cpp:129] Top shape: 1 64 37 212 (502016)
I1210 16:23:21.388798  9763 net.cpp:129] Top shape: 1 64 37 212 (502016)
I1210 16:23:21.388803  9763 net.cpp:137] Memory required for data: 28732984
I1210 16:23:21.388806  9763 layer_factory.hpp:77] Creating layer conv0_1/bn
I1210 16:23:21.388813  9763 net.cpp:84] Creating Layer conv0_1/bn
I1210 16:23:21.388818  9763 net.cpp:406] conv0_1/bn <- concat0_0_concat0_0_0_split_0
I1210 16:23:21.388823  9763 net.cpp:380] conv0_1/bn -> conv0_1/bn
I1210 16:23:21.389173  9763 net.cpp:122] Setting up conv0_1/bn
I1210 16:23:21.389181  9763 net.cpp:129] Top shape: 1 64 37 212 (502016)
I1210 16:23:21.389185  9763 net.cpp:137] Memory required for data: 30741048
I1210 16:23:21.389194  9763 layer_factory.hpp:77] Creating layer conv0_1/scale
I1210 16:23:21.389202  9763 net.cpp:84] Creating Layer conv0_1/scale
I1210 16:23:21.389207  9763 net.cpp:406] conv0_1/scale <- conv0_1/bn
I1210 16:23:21.389214  9763 net.cpp:367] conv0_1/scale -> conv0_1/bn (in-place)
I1210 16:23:21.389274  9763 layer_factory.hpp:77] Creating layer conv0_1/scale
I1210 16:23:21.389477  9763 net.cpp:122] Setting up conv0_1/scale
I1210 16:23:21.389485  9763 net.cpp:129] Top shape: 1 64 37 212 (502016)
I1210 16:23:21.389489  9763 net.cpp:137] Memory required for data: 32749112
I1210 16:23:21.389499  9763 layer_factory.hpp:77] Creating layer relu0_1
I1210 16:23:21.389508  9763 net.cpp:84] Creating Layer relu0_1
I1210 16:23:21.389513  9763 net.cpp:406] relu0_1 <- conv0_1/bn
I1210 16:23:21.389518  9763 net.cpp:367] relu0_1 -> conv0_1/bn (in-place)
I1210 16:23:21.389916  9763 net.cpp:122] Setting up relu0_1
I1210 16:23:21.389930  9763 net.cpp:129] Top shape: 1 64 37 212 (502016)
I1210 16:23:21.389933  9763 net.cpp:137] Memory required for data: 34757176
I1210 16:23:21.389942  9763 layer_factory.hpp:77] Creating layer conv0_1
I1210 16:23:21.389955  9763 net.cpp:84] Creating Layer conv0_1
I1210 16:23:21.389960  9763 net.cpp:406] conv0_1 <- conv0_1/bn
I1210 16:23:21.389966  9763 net.cpp:380] conv0_1 -> conv0_1
I1210 16:23:21.392189  9763 net.cpp:122] Setting up conv0_1
I1210 16:23:21.392204  9763 net.cpp:129] Top shape: 1 32 37 212 (251008)
I1210 16:23:21.392210  9763 net.cpp:137] Memory required for data: 35761208
I1210 16:23:21.392216  9763 layer_factory.hpp:77] Creating layer concat0_1
I1210 16:23:21.392225  9763 net.cpp:84] Creating Layer concat0_1
I1210 16:23:21.392230  9763 net.cpp:406] concat0_1 <- concat0_0_concat0_0_0_split_1
I1210 16:23:21.392235  9763 net.cpp:406] concat0_1 <- conv0_1
I1210 16:23:21.392241  9763 net.cpp:380] concat0_1 -> concat0_1
I1210 16:23:21.392288  9763 net.cpp:122] Setting up concat0_1
I1210 16:23:21.392297  9763 net.cpp:129] Top shape: 1 96 37 212 (753024)
I1210 16:23:21.392300  9763 net.cpp:137] Memory required for data: 38773304
I1210 16:23:21.392304  9763 layer_factory.hpp:77] Creating layer concat0_1_concat0_1_0_split
I1210 16:23:21.392312  9763 net.cpp:84] Creating Layer concat0_1_concat0_1_0_split
I1210 16:23:21.392315  9763 net.cpp:406] concat0_1_concat0_1_0_split <- concat0_1
I1210 16:23:21.392321  9763 net.cpp:380] concat0_1_concat0_1_0_split -> concat0_1_concat0_1_0_split_0
I1210 16:23:21.392328  9763 net.cpp:380] concat0_1_concat0_1_0_split -> concat0_1_concat0_1_0_split_1
I1210 16:23:21.392385  9763 net.cpp:122] Setting up concat0_1_concat0_1_0_split
I1210 16:23:21.392392  9763 net.cpp:129] Top shape: 1 96 37 212 (753024)
I1210 16:23:21.392397  9763 net.cpp:129] Top shape: 1 96 37 212 (753024)
I1210 16:23:21.392401  9763 net.cpp:137] Memory required for data: 44797496
I1210 16:23:21.392405  9763 layer_factory.hpp:77] Creating layer conv0_2/bn
I1210 16:23:21.392412  9763 net.cpp:84] Creating Layer conv0_2/bn
I1210 16:23:21.392416  9763 net.cpp:406] conv0_2/bn <- concat0_1_concat0_1_0_split_0
I1210 16:23:21.392422  9763 net.cpp:380] conv0_2/bn -> conv0_2/bn
I1210 16:23:21.392797  9763 net.cpp:122] Setting up conv0_2/bn
I1210 16:23:21.392807  9763 net.cpp:129] Top shape: 1 96 37 212 (753024)
I1210 16:23:21.392810  9763 net.cpp:137] Memory required for data: 47809592
I1210 16:23:21.392819  9763 layer_factory.hpp:77] Creating layer conv0_2/scale
I1210 16:23:21.392828  9763 net.cpp:84] Creating Layer conv0_2/scale
I1210 16:23:21.392832  9763 net.cpp:406] conv0_2/scale <- conv0_2/bn
I1210 16:23:21.392838  9763 net.cpp:367] conv0_2/scale -> conv0_2/bn (in-place)
I1210 16:23:21.392902  9763 layer_factory.hpp:77] Creating layer conv0_2/scale
I1210 16:23:21.393110  9763 net.cpp:122] Setting up conv0_2/scale
I1210 16:23:21.393118  9763 net.cpp:129] Top shape: 1 96 37 212 (753024)
I1210 16:23:21.393122  9763 net.cpp:137] Memory required for data: 50821688
I1210 16:23:21.393129  9763 layer_factory.hpp:77] Creating layer relu0_2
I1210 16:23:21.393136  9763 net.cpp:84] Creating Layer relu0_2
I1210 16:23:21.393141  9763 net.cpp:406] relu0_2 <- conv0_2/bn
I1210 16:23:21.393146  9763 net.cpp:367] relu0_2 -> conv0_2/bn (in-place)
I1210 16:23:21.393359  9763 net.cpp:122] Setting up relu0_2
I1210 16:23:21.393369  9763 net.cpp:129] Top shape: 1 96 37 212 (753024)
I1210 16:23:21.393373  9763 net.cpp:137] Memory required for data: 53833784
I1210 16:23:21.393378  9763 layer_factory.hpp:77] Creating layer conv0_2
I1210 16:23:21.393388  9763 net.cpp:84] Creating Layer conv0_2
I1210 16:23:21.393393  9763 net.cpp:406] conv0_2 <- conv0_2/bn
I1210 16:23:21.393399  9763 net.cpp:380] conv0_2 -> conv0_2
I1210 16:23:21.395764  9763 net.cpp:122] Setting up conv0_2
I1210 16:23:21.395777  9763 net.cpp:129] Top shape: 1 32 37 212 (251008)
I1210 16:23:21.395782  9763 net.cpp:137] Memory required for data: 54837816
I1210 16:23:21.395789  9763 layer_factory.hpp:77] Creating layer concat0_2
I1210 16:23:21.395797  9763 net.cpp:84] Creating Layer concat0_2
I1210 16:23:21.395802  9763 net.cpp:406] concat0_2 <- concat0_1_concat0_1_0_split_1
I1210 16:23:21.395813  9763 net.cpp:406] concat0_2 <- conv0_2
I1210 16:23:21.395819  9763 net.cpp:380] concat0_2 -> concat0_2
I1210 16:23:21.395862  9763 net.cpp:122] Setting up concat0_2
I1210 16:23:21.395869  9763 net.cpp:129] Top shape: 1 128 37 212 (1004032)
I1210 16:23:21.395874  9763 net.cpp:137] Memory required for data: 58853944
I1210 16:23:21.395877  9763 layer_factory.hpp:77] Creating layer concat0_2_concat0_2_0_split
I1210 16:23:21.395884  9763 net.cpp:84] Creating Layer concat0_2_concat0_2_0_split
I1210 16:23:21.395889  9763 net.cpp:406] concat0_2_concat0_2_0_split <- concat0_2
I1210 16:23:21.395894  9763 net.cpp:380] concat0_2_concat0_2_0_split -> concat0_2_concat0_2_0_split_0
I1210 16:23:21.395900  9763 net.cpp:380] concat0_2_concat0_2_0_split -> concat0_2_concat0_2_0_split_1
I1210 16:23:21.395957  9763 net.cpp:122] Setting up concat0_2_concat0_2_0_split
I1210 16:23:21.395964  9763 net.cpp:129] Top shape: 1 128 37 212 (1004032)
I1210 16:23:21.395969  9763 net.cpp:129] Top shape: 1 128 37 212 (1004032)
I1210 16:23:21.395973  9763 net.cpp:137] Memory required for data: 66886200
I1210 16:23:21.395977  9763 layer_factory.hpp:77] Creating layer conv0_3/bn
I1210 16:23:21.395984  9763 net.cpp:84] Creating Layer conv0_3/bn
I1210 16:23:21.395988  9763 net.cpp:406] conv0_3/bn <- concat0_2_concat0_2_0_split_0
I1210 16:23:21.395994  9763 net.cpp:380] conv0_3/bn -> conv0_3/bn
I1210 16:23:21.396342  9763 net.cpp:122] Setting up conv0_3/bn
I1210 16:23:21.396351  9763 net.cpp:129] Top shape: 1 128 37 212 (1004032)
I1210 16:23:21.396355  9763 net.cpp:137] Memory required for data: 70902328
I1210 16:23:21.396364  9763 layer_factory.hpp:77] Creating layer conv0_3/scale
I1210 16:23:21.396371  9763 net.cpp:84] Creating Layer conv0_3/scale
I1210 16:23:21.396376  9763 net.cpp:406] conv0_3/scale <- conv0_3/bn
I1210 16:23:21.396381  9763 net.cpp:367] conv0_3/scale -> conv0_3/bn (in-place)
I1210 16:23:21.396441  9763 layer_factory.hpp:77] Creating layer conv0_3/scale
I1210 16:23:21.396633  9763 net.cpp:122] Setting up conv0_3/scale
I1210 16:23:21.396642  9763 net.cpp:129] Top shape: 1 128 37 212 (1004032)
I1210 16:23:21.396646  9763 net.cpp:137] Memory required for data: 74918456
I1210 16:23:21.396653  9763 layer_factory.hpp:77] Creating layer relu0_3
I1210 16:23:21.396661  9763 net.cpp:84] Creating Layer relu0_3
I1210 16:23:21.396664  9763 net.cpp:406] relu0_3 <- conv0_3/bn
I1210 16:23:21.396669  9763 net.cpp:367] relu0_3 -> conv0_3/bn (in-place)
I1210 16:23:21.397069  9763 net.cpp:122] Setting up relu0_3
I1210 16:23:21.397081  9763 net.cpp:129] Top shape: 1 128 37 212 (1004032)
I1210 16:23:21.397086  9763 net.cpp:137] Memory required for data: 78934584
I1210 16:23:21.397090  9763 layer_factory.hpp:77] Creating layer conv0_3
I1210 16:23:21.397101  9763 net.cpp:84] Creating Layer conv0_3
I1210 16:23:21.397105  9763 net.cpp:406] conv0_3 <- conv0_3/bn
I1210 16:23:21.397112  9763 net.cpp:380] conv0_3 -> conv0_3
I1210 16:23:21.400725  9763 net.cpp:122] Setting up conv0_3
I1210 16:23:21.400740  9763 net.cpp:129] Top shape: 1 32 37 212 (251008)
I1210 16:23:21.400745  9763 net.cpp:137] Memory required for data: 79938616
I1210 16:23:21.400753  9763 layer_factory.hpp:77] Creating layer concat0_3
I1210 16:23:21.400759  9763 net.cpp:84] Creating Layer concat0_3
I1210 16:23:21.400764  9763 net.cpp:406] concat0_3 <- concat0_2_concat0_2_0_split_1
I1210 16:23:21.400770  9763 net.cpp:406] concat0_3 <- conv0_3
I1210 16:23:21.400776  9763 net.cpp:380] concat0_3 -> concat0_3
I1210 16:23:21.400825  9763 net.cpp:122] Setting up concat0_3
I1210 16:23:21.400832  9763 net.cpp:129] Top shape: 1 160 37 212 (1255040)
I1210 16:23:21.400836  9763 net.cpp:137] Memory required for data: 84958776
I1210 16:23:21.400840  9763 layer_factory.hpp:77] Creating layer concat0_3_concat0_3_0_split
I1210 16:23:21.400846  9763 net.cpp:84] Creating Layer concat0_3_concat0_3_0_split
I1210 16:23:21.400851  9763 net.cpp:406] concat0_3_concat0_3_0_split <- concat0_3
I1210 16:23:21.400856  9763 net.cpp:380] concat0_3_concat0_3_0_split -> concat0_3_concat0_3_0_split_0
I1210 16:23:21.400864  9763 net.cpp:380] concat0_3_concat0_3_0_split -> concat0_3_concat0_3_0_split_1
I1210 16:23:21.400930  9763 net.cpp:122] Setting up concat0_3_concat0_3_0_split
I1210 16:23:21.400938  9763 net.cpp:129] Top shape: 1 160 37 212 (1255040)
I1210 16:23:21.400943  9763 net.cpp:129] Top shape: 1 160 37 212 (1255040)
I1210 16:23:21.400946  9763 net.cpp:137] Memory required for data: 94999096
I1210 16:23:21.400950  9763 layer_factory.hpp:77] Creating layer conv0_4/bn
I1210 16:23:21.400960  9763 net.cpp:84] Creating Layer conv0_4/bn
I1210 16:23:21.400964  9763 net.cpp:406] conv0_4/bn <- concat0_3_concat0_3_0_split_0
I1210 16:23:21.400970  9763 net.cpp:380] conv0_4/bn -> conv0_4/bn
I1210 16:23:21.401356  9763 net.cpp:122] Setting up conv0_4/bn
I1210 16:23:21.401365  9763 net.cpp:129] Top shape: 1 160 37 212 (1255040)
I1210 16:23:21.401368  9763 net.cpp:137] Memory required for data: 100019256
I1210 16:23:21.401382  9763 layer_factory.hpp:77] Creating layer conv0_4/scale
I1210 16:23:21.401391  9763 net.cpp:84] Creating Layer conv0_4/scale
I1210 16:23:21.401396  9763 net.cpp:406] conv0_4/scale <- conv0_4/bn
I1210 16:23:21.401401  9763 net.cpp:367] conv0_4/scale -> conv0_4/bn (in-place)
I1210 16:23:21.401470  9763 layer_factory.hpp:77] Creating layer conv0_4/scale
I1210 16:23:21.401696  9763 net.cpp:122] Setting up conv0_4/scale
I1210 16:23:21.401705  9763 net.cpp:129] Top shape: 1 160 37 212 (1255040)
I1210 16:23:21.401708  9763 net.cpp:137] Memory required for data: 105039416
I1210 16:23:21.401715  9763 layer_factory.hpp:77] Creating layer relu0_4
I1210 16:23:21.401724  9763 net.cpp:84] Creating Layer relu0_4
I1210 16:23:21.401728  9763 net.cpp:406] relu0_4 <- conv0_4/bn
I1210 16:23:21.401734  9763 net.cpp:367] relu0_4 -> conv0_4/bn (in-place)
I1210 16:23:21.402150  9763 net.cpp:122] Setting up relu0_4
I1210 16:23:21.402163  9763 net.cpp:129] Top shape: 1 160 37 212 (1255040)
I1210 16:23:21.402168  9763 net.cpp:137] Memory required for data: 110059576
I1210 16:23:21.402171  9763 layer_factory.hpp:77] Creating layer conv0_4
I1210 16:23:21.402184  9763 net.cpp:84] Creating Layer conv0_4
I1210 16:23:21.402189  9763 net.cpp:406] conv0_4 <- conv0_4/bn
I1210 16:23:21.402196  9763 net.cpp:380] conv0_4 -> conv0_4
I1210 16:23:21.405458  9763 net.cpp:122] Setting up conv0_4
I1210 16:23:21.405473  9763 net.cpp:129] Top shape: 1 32 37 212 (251008)
I1210 16:23:21.405478  9763 net.cpp:137] Memory required for data: 111063608
I1210 16:23:21.405485  9763 layer_factory.hpp:77] Creating layer concat0_4
I1210 16:23:21.405493  9763 net.cpp:84] Creating Layer concat0_4
I1210 16:23:21.405498  9763 net.cpp:406] concat0_4 <- concat0_3_concat0_3_0_split_1
I1210 16:23:21.405503  9763 net.cpp:406] concat0_4 <- conv0_4
I1210 16:23:21.405510  9763 net.cpp:380] concat0_4 -> concat0_4
I1210 16:23:21.405558  9763 net.cpp:122] Setting up concat0_4
I1210 16:23:21.405565  9763 net.cpp:129] Top shape: 1 192 37 212 (1506048)
I1210 16:23:21.405570  9763 net.cpp:137] Memory required for data: 117087800
I1210 16:23:21.405573  9763 layer_factory.hpp:77] Creating layer concat0_4_concat0_4_0_split
I1210 16:23:21.405580  9763 net.cpp:84] Creating Layer concat0_4_concat0_4_0_split
I1210 16:23:21.405585  9763 net.cpp:406] concat0_4_concat0_4_0_split <- concat0_4
I1210 16:23:21.405591  9763 net.cpp:380] concat0_4_concat0_4_0_split -> concat0_4_concat0_4_0_split_0
I1210 16:23:21.405598  9763 net.cpp:380] concat0_4_concat0_4_0_split -> concat0_4_concat0_4_0_split_1
I1210 16:23:21.405663  9763 net.cpp:122] Setting up concat0_4_concat0_4_0_split
I1210 16:23:21.405676  9763 net.cpp:129] Top shape: 1 192 37 212 (1506048)
I1210 16:23:21.405681  9763 net.cpp:129] Top shape: 1 192 37 212 (1506048)
I1210 16:23:21.405685  9763 net.cpp:137] Memory required for data: 129136184
I1210 16:23:21.405689  9763 layer_factory.hpp:77] Creating layer conv0_5/bn
I1210 16:23:21.405695  9763 net.cpp:84] Creating Layer conv0_5/bn
I1210 16:23:21.405699  9763 net.cpp:406] conv0_5/bn <- concat0_4_concat0_4_0_split_0
I1210 16:23:21.405706  9763 net.cpp:380] conv0_5/bn -> conv0_5/bn
I1210 16:23:21.406105  9763 net.cpp:122] Setting up conv0_5/bn
I1210 16:23:21.406116  9763 net.cpp:129] Top shape: 1 192 37 212 (1506048)
I1210 16:23:21.406119  9763 net.cpp:137] Memory required for data: 135160376
I1210 16:23:21.406129  9763 layer_factory.hpp:77] Creating layer conv0_5/scale
I1210 16:23:21.406138  9763 net.cpp:84] Creating Layer conv0_5/scale
I1210 16:23:21.406142  9763 net.cpp:406] conv0_5/scale <- conv0_5/bn
I1210 16:23:21.406150  9763 net.cpp:367] conv0_5/scale -> conv0_5/bn (in-place)
I1210 16:23:21.406217  9763 layer_factory.hpp:77] Creating layer conv0_5/scale
I1210 16:23:21.406437  9763 net.cpp:122] Setting up conv0_5/scale
I1210 16:23:21.406446  9763 net.cpp:129] Top shape: 1 192 37 212 (1506048)
I1210 16:23:21.406450  9763 net.cpp:137] Memory required for data: 141184568
I1210 16:23:21.406457  9763 layer_factory.hpp:77] Creating layer relu0_5
I1210 16:23:21.406464  9763 net.cpp:84] Creating Layer relu0_5
I1210 16:23:21.406468  9763 net.cpp:406] relu0_5 <- conv0_5/bn
I1210 16:23:21.406473  9763 net.cpp:367] relu0_5 -> conv0_5/bn (in-place)
I1210 16:23:21.406709  9763 net.cpp:122] Setting up relu0_5
I1210 16:23:21.406719  9763 net.cpp:129] Top shape: 1 192 37 212 (1506048)
I1210 16:23:21.406723  9763 net.cpp:137] Memory required for data: 147208760
I1210 16:23:21.406728  9763 layer_factory.hpp:77] Creating layer conv0_5
I1210 16:23:21.406743  9763 net.cpp:84] Creating Layer conv0_5
I1210 16:23:21.406747  9763 net.cpp:406] conv0_5 <- conv0_5/bn
I1210 16:23:21.406754  9763 net.cpp:380] conv0_5 -> conv0_5
I1210 16:23:21.410339  9763 net.cpp:122] Setting up conv0_5
I1210 16:23:21.410352  9763 net.cpp:129] Top shape: 1 32 37 212 (251008)
I1210 16:23:21.410356  9763 net.cpp:137] Memory required for data: 148212792
I1210 16:23:21.410363  9763 layer_factory.hpp:77] Creating layer concat0_5
I1210 16:23:21.410372  9763 net.cpp:84] Creating Layer concat0_5
I1210 16:23:21.410377  9763 net.cpp:406] concat0_5 <- concat0_4_concat0_4_0_split_1
I1210 16:23:21.410382  9763 net.cpp:406] concat0_5 <- conv0_5
I1210 16:23:21.410388  9763 net.cpp:380] concat0_5 -> concat0_5
I1210 16:23:21.410436  9763 net.cpp:122] Setting up concat0_5
I1210 16:23:21.410444  9763 net.cpp:129] Top shape: 1 224 37 212 (1757056)
I1210 16:23:21.410449  9763 net.cpp:137] Memory required for data: 155241016
I1210 16:23:21.410452  9763 layer_factory.hpp:77] Creating layer BatchNorm1
I1210 16:23:21.410459  9763 net.cpp:84] Creating Layer BatchNorm1
I1210 16:23:21.410464  9763 net.cpp:406] BatchNorm1 <- concat0_5
I1210 16:23:21.410470  9763 net.cpp:380] BatchNorm1 -> BatchNorm1
I1210 16:23:21.410867  9763 net.cpp:122] Setting up BatchNorm1
I1210 16:23:21.410876  9763 net.cpp:129] Top shape: 1 224 37 212 (1757056)
I1210 16:23:21.410881  9763 net.cpp:137] Memory required for data: 162269240
I1210 16:23:21.410888  9763 layer_factory.hpp:77] Creating layer Scale1
I1210 16:23:21.410897  9763 net.cpp:84] Creating Layer Scale1
I1210 16:23:21.410900  9763 net.cpp:406] Scale1 <- BatchNorm1
I1210 16:23:21.410907  9763 net.cpp:367] Scale1 -> BatchNorm1 (in-place)
I1210 16:23:21.410974  9763 layer_factory.hpp:77] Creating layer Scale1
I1210 16:23:21.411198  9763 net.cpp:122] Setting up Scale1
I1210 16:23:21.411206  9763 net.cpp:129] Top shape: 1 224 37 212 (1757056)
I1210 16:23:21.411211  9763 net.cpp:137] Memory required for data: 169297464
I1210 16:23:21.411217  9763 layer_factory.hpp:77] Creating layer ReLU1
I1210 16:23:21.411226  9763 net.cpp:84] Creating Layer ReLU1
I1210 16:23:21.411229  9763 net.cpp:406] ReLU1 <- BatchNorm1
I1210 16:23:21.411234  9763 net.cpp:367] ReLU1 -> BatchNorm1 (in-place)
I1210 16:23:21.411648  9763 net.cpp:122] Setting up ReLU1
I1210 16:23:21.411661  9763 net.cpp:129] Top shape: 1 224 37 212 (1757056)
I1210 16:23:21.411665  9763 net.cpp:137] Memory required for data: 176325688
I1210 16:23:21.411669  9763 layer_factory.hpp:77] Creating layer conv0_blk
I1210 16:23:21.411684  9763 net.cpp:84] Creating Layer conv0_blk
I1210 16:23:21.411689  9763 net.cpp:406] conv0_blk <- BatchNorm1
I1210 16:23:21.411696  9763 net.cpp:380] conv0_blk -> conv0_blk
I1210 16:23:21.415096  9763 net.cpp:122] Setting up conv0_blk
I1210 16:23:21.415110  9763 net.cpp:129] Top shape: 1 224 37 212 (1757056)
I1210 16:23:21.415115  9763 net.cpp:137] Memory required for data: 183353912
I1210 16:23:21.415122  9763 layer_factory.hpp:77] Creating layer pool0
I1210 16:23:21.415132  9763 net.cpp:84] Creating Layer pool0
I1210 16:23:21.415136  9763 net.cpp:406] pool0 <- conv0_blk
I1210 16:23:21.415143  9763 net.cpp:380] pool0 -> pool0
I1210 16:23:21.415397  9763 net.cpp:122] Setting up pool0
I1210 16:23:21.415408  9763 net.cpp:129] Top shape: 1 224 19 106 (451136)
I1210 16:23:21.415412  9763 net.cpp:137] Memory required for data: 185158456
I1210 16:23:21.415417  9763 layer_factory.hpp:77] Creating layer pool0_pool0_0_split
I1210 16:23:21.415423  9763 net.cpp:84] Creating Layer pool0_pool0_0_split
I1210 16:23:21.415427  9763 net.cpp:406] pool0_pool0_0_split <- pool0
I1210 16:23:21.415433  9763 net.cpp:380] pool0_pool0_0_split -> pool0_pool0_0_split_0
I1210 16:23:21.415441  9763 net.cpp:380] pool0_pool0_0_split -> pool0_pool0_0_split_1
I1210 16:23:21.415508  9763 net.cpp:122] Setting up pool0_pool0_0_split
I1210 16:23:21.415514  9763 net.cpp:129] Top shape: 1 224 19 106 (451136)
I1210 16:23:21.415519  9763 net.cpp:129] Top shape: 1 224 19 106 (451136)
I1210 16:23:21.415522  9763 net.cpp:137] Memory required for data: 188767544
I1210 16:23:21.415526  9763 layer_factory.hpp:77] Creating layer conv1_0/bn
I1210 16:23:21.415537  9763 net.cpp:84] Creating Layer conv1_0/bn
I1210 16:23:21.415541  9763 net.cpp:406] conv1_0/bn <- pool0_pool0_0_split_0
I1210 16:23:21.415547  9763 net.cpp:380] conv1_0/bn -> conv1_0/bn
I1210 16:23:21.416713  9763 net.cpp:122] Setting up conv1_0/bn
I1210 16:23:21.416728  9763 net.cpp:129] Top shape: 1 224 19 106 (451136)
I1210 16:23:21.416731  9763 net.cpp:137] Memory required for data: 190572088
I1210 16:23:21.416741  9763 layer_factory.hpp:77] Creating layer conv1_0/scale
I1210 16:23:21.416749  9763 net.cpp:84] Creating Layer conv1_0/scale
I1210 16:23:21.416754  9763 net.cpp:406] conv1_0/scale <- conv1_0/bn
I1210 16:23:21.416764  9763 net.cpp:367] conv1_0/scale -> conv1_0/bn (in-place)
I1210 16:23:21.416837  9763 layer_factory.hpp:77] Creating layer conv1_0/scale
I1210 16:23:21.417063  9763 net.cpp:122] Setting up conv1_0/scale
I1210 16:23:21.417073  9763 net.cpp:129] Top shape: 1 224 19 106 (451136)
I1210 16:23:21.417076  9763 net.cpp:137] Memory required for data: 192376632
I1210 16:23:21.417083  9763 layer_factory.hpp:77] Creating layer relu1_0
I1210 16:23:21.417091  9763 net.cpp:84] Creating Layer relu1_0
I1210 16:23:21.417095  9763 net.cpp:406] relu1_0 <- conv1_0/bn
I1210 16:23:21.417100  9763 net.cpp:367] relu1_0 -> conv1_0/bn (in-place)
I1210 16:23:21.417516  9763 net.cpp:122] Setting up relu1_0
I1210 16:23:21.417528  9763 net.cpp:129] Top shape: 1 224 19 106 (451136)
I1210 16:23:21.417532  9763 net.cpp:137] Memory required for data: 194181176
I1210 16:23:21.417537  9763 layer_factory.hpp:77] Creating layer conv1_0
I1210 16:23:21.417549  9763 net.cpp:84] Creating Layer conv1_0
I1210 16:23:21.417553  9763 net.cpp:406] conv1_0 <- conv1_0/bn
I1210 16:23:21.417562  9763 net.cpp:380] conv1_0 -> conv1_0
I1210 16:23:21.421514  9763 net.cpp:122] Setting up conv1_0
I1210 16:23:21.421531  9763 net.cpp:129] Top shape: 1 32 19 106 (64448)
I1210 16:23:21.421536  9763 net.cpp:137] Memory required for data: 194438968
I1210 16:23:21.421543  9763 layer_factory.hpp:77] Creating layer concat1_0
I1210 16:23:21.421552  9763 net.cpp:84] Creating Layer concat1_0
I1210 16:23:21.421557  9763 net.cpp:406] concat1_0 <- pool0_pool0_0_split_1
I1210 16:23:21.421564  9763 net.cpp:406] concat1_0 <- conv1_0
I1210 16:23:21.421571  9763 net.cpp:380] concat1_0 -> concat1_0
I1210 16:23:21.421622  9763 net.cpp:122] Setting up concat1_0
I1210 16:23:21.421628  9763 net.cpp:129] Top shape: 1 256 19 106 (515584)
I1210 16:23:21.421633  9763 net.cpp:137] Memory required for data: 196501304
I1210 16:23:21.421636  9763 layer_factory.hpp:77] Creating layer concat1_0_concat1_0_0_split
I1210 16:23:21.421648  9763 net.cpp:84] Creating Layer concat1_0_concat1_0_0_split
I1210 16:23:21.421655  9763 net.cpp:406] concat1_0_concat1_0_0_split <- concat1_0
I1210 16:23:21.421661  9763 net.cpp:380] concat1_0_concat1_0_0_split -> concat1_0_concat1_0_0_split_0
I1210 16:23:21.421667  9763 net.cpp:380] concat1_0_concat1_0_0_split -> concat1_0_concat1_0_0_split_1
I1210 16:23:21.421736  9763 net.cpp:122] Setting up concat1_0_concat1_0_0_split
I1210 16:23:21.421743  9763 net.cpp:129] Top shape: 1 256 19 106 (515584)
I1210 16:23:21.421749  9763 net.cpp:129] Top shape: 1 256 19 106 (515584)
I1210 16:23:21.421752  9763 net.cpp:137] Memory required for data: 200625976
I1210 16:23:21.421756  9763 layer_factory.hpp:77] Creating layer conv1_1/bn
I1210 16:23:21.421764  9763 net.cpp:84] Creating Layer conv1_1/bn
I1210 16:23:21.421768  9763 net.cpp:406] conv1_1/bn <- concat1_0_concat1_0_0_split_0
I1210 16:23:21.421774  9763 net.cpp:380] conv1_1/bn -> conv1_1/bn
I1210 16:23:21.422171  9763 net.cpp:122] Setting up conv1_1/bn
I1210 16:23:21.422179  9763 net.cpp:129] Top shape: 1 256 19 106 (515584)
I1210 16:23:21.422183  9763 net.cpp:137] Memory required for data: 202688312
I1210 16:23:21.422193  9763 layer_factory.hpp:77] Creating layer conv1_1/scale
I1210 16:23:21.422204  9763 net.cpp:84] Creating Layer conv1_1/scale
I1210 16:23:21.422207  9763 net.cpp:406] conv1_1/scale <- conv1_1/bn
I1210 16:23:21.422214  9763 net.cpp:367] conv1_1/scale -> conv1_1/bn (in-place)
I1210 16:23:21.422282  9763 layer_factory.hpp:77] Creating layer conv1_1/scale
I1210 16:23:21.422489  9763 net.cpp:122] Setting up conv1_1/scale
I1210 16:23:21.422498  9763 net.cpp:129] Top shape: 1 256 19 106 (515584)
I1210 16:23:21.422502  9763 net.cpp:137] Memory required for data: 204750648
I1210 16:23:21.422508  9763 layer_factory.hpp:77] Creating layer relu1_1
I1210 16:23:21.422515  9763 net.cpp:84] Creating Layer relu1_1
I1210 16:23:21.422520  9763 net.cpp:406] relu1_1 <- conv1_1/bn
I1210 16:23:21.422526  9763 net.cpp:367] relu1_1 -> conv1_1/bn (in-place)
I1210 16:23:21.422952  9763 net.cpp:122] Setting up relu1_1
I1210 16:23:21.422965  9763 net.cpp:129] Top shape: 1 256 19 106 (515584)
I1210 16:23:21.422968  9763 net.cpp:137] Memory required for data: 206812984
I1210 16:23:21.422973  9763 layer_factory.hpp:77] Creating layer conv1_1
I1210 16:23:21.422986  9763 net.cpp:84] Creating Layer conv1_1
I1210 16:23:21.422991  9763 net.cpp:406] conv1_1 <- conv1_1/bn
I1210 16:23:21.422997  9763 net.cpp:380] conv1_1 -> conv1_1
I1210 16:23:21.427294  9763 net.cpp:122] Setting up conv1_1
I1210 16:23:21.427309  9763 net.cpp:129] Top shape: 1 32 19 106 (64448)
I1210 16:23:21.427314  9763 net.cpp:137] Memory required for data: 207070776
I1210 16:23:21.427320  9763 layer_factory.hpp:77] Creating layer concat1_1
I1210 16:23:21.427327  9763 net.cpp:84] Creating Layer concat1_1
I1210 16:23:21.427332  9763 net.cpp:406] concat1_1 <- concat1_0_concat1_0_0_split_1
I1210 16:23:21.427337  9763 net.cpp:406] concat1_1 <- conv1_1
I1210 16:23:21.427343  9763 net.cpp:380] concat1_1 -> concat1_1
I1210 16:23:21.427394  9763 net.cpp:122] Setting up concat1_1
I1210 16:23:21.427402  9763 net.cpp:129] Top shape: 1 288 19 106 (580032)
I1210 16:23:21.427405  9763 net.cpp:137] Memory required for data: 209390904
I1210 16:23:21.427409  9763 layer_factory.hpp:77] Creating layer concat1_1_concat1_1_0_split
I1210 16:23:21.427415  9763 net.cpp:84] Creating Layer concat1_1_concat1_1_0_split
I1210 16:23:21.427419  9763 net.cpp:406] concat1_1_concat1_1_0_split <- concat1_1
I1210 16:23:21.427424  9763 net.cpp:380] concat1_1_concat1_1_0_split -> concat1_1_concat1_1_0_split_0
I1210 16:23:21.427433  9763 net.cpp:380] concat1_1_concat1_1_0_split -> concat1_1_concat1_1_0_split_1
I1210 16:23:21.427500  9763 net.cpp:122] Setting up concat1_1_concat1_1_0_split
I1210 16:23:21.427507  9763 net.cpp:129] Top shape: 1 288 19 106 (580032)
I1210 16:23:21.427513  9763 net.cpp:129] Top shape: 1 288 19 106 (580032)
I1210 16:23:21.427516  9763 net.cpp:137] Memory required for data: 214031160
I1210 16:23:21.427520  9763 layer_factory.hpp:77] Creating layer conv1_2/bn
I1210 16:23:21.427531  9763 net.cpp:84] Creating Layer conv1_2/bn
I1210 16:23:21.427534  9763 net.cpp:406] conv1_2/bn <- concat1_1_concat1_1_0_split_0
I1210 16:23:21.427541  9763 net.cpp:380] conv1_2/bn -> conv1_2/bn
I1210 16:23:21.427969  9763 net.cpp:122] Setting up conv1_2/bn
I1210 16:23:21.427979  9763 net.cpp:129] Top shape: 1 288 19 106 (580032)
I1210 16:23:21.427983  9763 net.cpp:137] Memory required for data: 216351288
I1210 16:23:21.427991  9763 layer_factory.hpp:77] Creating layer conv1_2/scale
I1210 16:23:21.428000  9763 net.cpp:84] Creating Layer conv1_2/scale
I1210 16:23:21.428005  9763 net.cpp:406] conv1_2/scale <- conv1_2/bn
I1210 16:23:21.428015  9763 net.cpp:367] conv1_2/scale -> conv1_2/bn (in-place)
I1210 16:23:21.428091  9763 layer_factory.hpp:77] Creating layer conv1_2/scale
I1210 16:23:21.428319  9763 net.cpp:122] Setting up conv1_2/scale
I1210 16:23:21.428328  9763 net.cpp:129] Top shape: 1 288 19 106 (580032)
I1210 16:23:21.428333  9763 net.cpp:137] Memory required for data: 218671416
I1210 16:23:21.428345  9763 layer_factory.hpp:77] Creating layer relu1_2
I1210 16:23:21.428352  9763 net.cpp:84] Creating Layer relu1_2
I1210 16:23:21.428356  9763 net.cpp:406] relu1_2 <- conv1_2/bn
I1210 16:23:21.428362  9763 net.cpp:367] relu1_2 -> conv1_2/bn (in-place)
I1210 16:23:21.428596  9763 net.cpp:122] Setting up relu1_2
I1210 16:23:21.428606  9763 net.cpp:129] Top shape: 1 288 19 106 (580032)
I1210 16:23:21.428611  9763 net.cpp:137] Memory required for data: 220991544
I1210 16:23:21.428614  9763 layer_factory.hpp:77] Creating layer conv1_2
I1210 16:23:21.428629  9763 net.cpp:84] Creating Layer conv1_2
I1210 16:23:21.428634  9763 net.cpp:406] conv1_2 <- conv1_2/bn
I1210 16:23:21.428642  9763 net.cpp:380] conv1_2 -> conv1_2
I1210 16:23:21.433259  9763 net.cpp:122] Setting up conv1_2
I1210 16:23:21.433274  9763 net.cpp:129] Top shape: 1 32 19 106 (64448)
I1210 16:23:21.433279  9763 net.cpp:137] Memory required for data: 221249336
I1210 16:23:21.433286  9763 layer_factory.hpp:77] Creating layer concat1_2
I1210 16:23:21.433296  9763 net.cpp:84] Creating Layer concat1_2
I1210 16:23:21.433301  9763 net.cpp:406] concat1_2 <- concat1_1_concat1_1_0_split_1
I1210 16:23:21.433307  9763 net.cpp:406] concat1_2 <- conv1_2
I1210 16:23:21.433313  9763 net.cpp:380] concat1_2 -> concat1_2
I1210 16:23:21.433367  9763 net.cpp:122] Setting up concat1_2
I1210 16:23:21.433374  9763 net.cpp:129] Top shape: 1 320 19 106 (644480)
I1210 16:23:21.433377  9763 net.cpp:137] Memory required for data: 223827256
I1210 16:23:21.433382  9763 layer_factory.hpp:77] Creating layer concat1_2_concat1_2_0_split
I1210 16:23:21.433389  9763 net.cpp:84] Creating Layer concat1_2_concat1_2_0_split
I1210 16:23:21.433393  9763 net.cpp:406] concat1_2_concat1_2_0_split <- concat1_2
I1210 16:23:21.433398  9763 net.cpp:380] concat1_2_concat1_2_0_split -> concat1_2_concat1_2_0_split_0
I1210 16:23:21.433405  9763 net.cpp:380] concat1_2_concat1_2_0_split -> concat1_2_concat1_2_0_split_1
I1210 16:23:21.433473  9763 net.cpp:122] Setting up concat1_2_concat1_2_0_split
I1210 16:23:21.433480  9763 net.cpp:129] Top shape: 1 320 19 106 (644480)
I1210 16:23:21.433485  9763 net.cpp:129] Top shape: 1 320 19 106 (644480)
I1210 16:23:21.433490  9763 net.cpp:137] Memory required for data: 228983096
I1210 16:23:21.433493  9763 layer_factory.hpp:77] Creating layer conv1_3/bn
I1210 16:23:21.433501  9763 net.cpp:84] Creating Layer conv1_3/bn
I1210 16:23:21.433504  9763 net.cpp:406] conv1_3/bn <- concat1_2_concat1_2_0_split_0
I1210 16:23:21.433511  9763 net.cpp:380] conv1_3/bn -> conv1_3/bn
I1210 16:23:21.433933  9763 net.cpp:122] Setting up conv1_3/bn
I1210 16:23:21.433943  9763 net.cpp:129] Top shape: 1 320 19 106 (644480)
I1210 16:23:21.433946  9763 net.cpp:137] Memory required for data: 231561016
I1210 16:23:21.433954  9763 layer_factory.hpp:77] Creating layer conv1_3/scale
I1210 16:23:21.433964  9763 net.cpp:84] Creating Layer conv1_3/scale
I1210 16:23:21.433967  9763 net.cpp:406] conv1_3/scale <- conv1_3/bn
I1210 16:23:21.433974  9763 net.cpp:367] conv1_3/scale -> conv1_3/bn (in-place)
I1210 16:23:21.434053  9763 layer_factory.hpp:77] Creating layer conv1_3/scale
I1210 16:23:21.434285  9763 net.cpp:122] Setting up conv1_3/scale
I1210 16:23:21.434294  9763 net.cpp:129] Top shape: 1 320 19 106 (644480)
I1210 16:23:21.434298  9763 net.cpp:137] Memory required for data: 234138936
I1210 16:23:21.434305  9763 layer_factory.hpp:77] Creating layer relu1_3
I1210 16:23:21.434312  9763 net.cpp:84] Creating Layer relu1_3
I1210 16:23:21.434316  9763 net.cpp:406] relu1_3 <- conv1_3/bn
I1210 16:23:21.434321  9763 net.cpp:367] relu1_3 -> conv1_3/bn (in-place)
I1210 16:23:21.434751  9763 net.cpp:122] Setting up relu1_3
I1210 16:23:21.434762  9763 net.cpp:129] Top shape: 1 320 19 106 (644480)
I1210 16:23:21.434767  9763 net.cpp:137] Memory required for data: 236716856
I1210 16:23:21.434772  9763 layer_factory.hpp:77] Creating layer conv1_3
I1210 16:23:21.434783  9763 net.cpp:84] Creating Layer conv1_3
I1210 16:23:21.434787  9763 net.cpp:406] conv1_3 <- conv1_3/bn
I1210 16:23:21.434797  9763 net.cpp:380] conv1_3 -> conv1_3
I1210 16:23:21.440659  9763 net.cpp:122] Setting up conv1_3
I1210 16:23:21.440690  9763 net.cpp:129] Top shape: 1 32 19 106 (64448)
I1210 16:23:21.440696  9763 net.cpp:137] Memory required for data: 236974648
I1210 16:23:21.440706  9763 layer_factory.hpp:77] Creating layer concat1_3
I1210 16:23:21.440717  9763 net.cpp:84] Creating Layer concat1_3
I1210 16:23:21.440724  9763 net.cpp:406] concat1_3 <- concat1_2_concat1_2_0_split_1
I1210 16:23:21.440733  9763 net.cpp:406] concat1_3 <- conv1_3
I1210 16:23:21.440740  9763 net.cpp:380] concat1_3 -> concat1_3
I1210 16:23:21.440798  9763 net.cpp:122] Setting up concat1_3
I1210 16:23:21.440805  9763 net.cpp:129] Top shape: 1 352 19 106 (708928)
I1210 16:23:21.440809  9763 net.cpp:137] Memory required for data: 239810360
I1210 16:23:21.440812  9763 layer_factory.hpp:77] Creating layer concat1_3_concat1_3_0_split
I1210 16:23:21.440821  9763 net.cpp:84] Creating Layer concat1_3_concat1_3_0_split
I1210 16:23:21.440825  9763 net.cpp:406] concat1_3_concat1_3_0_split <- concat1_3
I1210 16:23:21.440831  9763 net.cpp:380] concat1_3_concat1_3_0_split -> concat1_3_concat1_3_0_split_0
I1210 16:23:21.440838  9763 net.cpp:380] concat1_3_concat1_3_0_split -> concat1_3_concat1_3_0_split_1
I1210 16:23:21.440907  9763 net.cpp:122] Setting up concat1_3_concat1_3_0_split
I1210 16:23:21.440914  9763 net.cpp:129] Top shape: 1 352 19 106 (708928)
I1210 16:23:21.440919  9763 net.cpp:129] Top shape: 1 352 19 106 (708928)
I1210 16:23:21.440923  9763 net.cpp:137] Memory required for data: 245481784
I1210 16:23:21.440927  9763 layer_factory.hpp:77] Creating layer conv1_4/bn
I1210 16:23:21.440935  9763 net.cpp:84] Creating Layer conv1_4/bn
I1210 16:23:21.440939  9763 net.cpp:406] conv1_4/bn <- concat1_3_concat1_3_0_split_0
I1210 16:23:21.440945  9763 net.cpp:380] conv1_4/bn -> conv1_4/bn
I1210 16:23:21.441408  9763 net.cpp:122] Setting up conv1_4/bn
I1210 16:23:21.441417  9763 net.cpp:129] Top shape: 1 352 19 106 (708928)
I1210 16:23:21.441421  9763 net.cpp:137] Memory required for data: 248317496
I1210 16:23:21.441431  9763 layer_factory.hpp:77] Creating layer conv1_4/scale
I1210 16:23:21.441442  9763 net.cpp:84] Creating Layer conv1_4/scale
I1210 16:23:21.441447  9763 net.cpp:406] conv1_4/scale <- conv1_4/bn
I1210 16:23:21.441452  9763 net.cpp:367] conv1_4/scale -> conv1_4/bn (in-place)
I1210 16:23:21.441534  9763 layer_factory.hpp:77] Creating layer conv1_4/scale
I1210 16:23:21.441771  9763 net.cpp:122] Setting up conv1_4/scale
I1210 16:23:21.441778  9763 net.cpp:129] Top shape: 1 352 19 106 (708928)
I1210 16:23:21.441782  9763 net.cpp:137] Memory required for data: 251153208
I1210 16:23:21.441789  9763 layer_factory.hpp:77] Creating layer relu1_4
I1210 16:23:21.441797  9763 net.cpp:84] Creating Layer relu1_4
I1210 16:23:21.441802  9763 net.cpp:406] relu1_4 <- conv1_4/bn
I1210 16:23:21.441807  9763 net.cpp:367] relu1_4 -> conv1_4/bn (in-place)
I1210 16:23:21.442045  9763 net.cpp:122] Setting up relu1_4
I1210 16:23:21.442056  9763 net.cpp:129] Top shape: 1 352 19 106 (708928)
I1210 16:23:21.442065  9763 net.cpp:137] Memory required for data: 253988920
I1210 16:23:21.442068  9763 layer_factory.hpp:77] Creating layer conv1_4
I1210 16:23:21.442081  9763 net.cpp:84] Creating Layer conv1_4
I1210 16:23:21.442085  9763 net.cpp:406] conv1_4 <- conv1_4/bn
I1210 16:23:21.442093  9763 net.cpp:380] conv1_4 -> conv1_4
I1210 16:23:21.447408  9763 net.cpp:122] Setting up conv1_4
I1210 16:23:21.447422  9763 net.cpp:129] Top shape: 1 32 19 106 (64448)
I1210 16:23:21.447427  9763 net.cpp:137] Memory required for data: 254246712
I1210 16:23:21.447433  9763 layer_factory.hpp:77] Creating layer concat1_4
I1210 16:23:21.447441  9763 net.cpp:84] Creating Layer concat1_4
I1210 16:23:21.447446  9763 net.cpp:406] concat1_4 <- concat1_3_concat1_3_0_split_1
I1210 16:23:21.447453  9763 net.cpp:406] concat1_4 <- conv1_4
I1210 16:23:21.447459  9763 net.cpp:380] concat1_4 -> concat1_4
I1210 16:23:21.447513  9763 net.cpp:122] Setting up concat1_4
I1210 16:23:21.447522  9763 net.cpp:129] Top shape: 1 384 19 106 (773376)
I1210 16:23:21.447526  9763 net.cpp:137] Memory required for data: 257340216
I1210 16:23:21.447530  9763 layer_factory.hpp:77] Creating layer concat1_4_concat1_4_0_split
I1210 16:23:21.447537  9763 net.cpp:84] Creating Layer concat1_4_concat1_4_0_split
I1210 16:23:21.447541  9763 net.cpp:406] concat1_4_concat1_4_0_split <- concat1_4
I1210 16:23:21.447547  9763 net.cpp:380] concat1_4_concat1_4_0_split -> concat1_4_concat1_4_0_split_0
I1210 16:23:21.447554  9763 net.cpp:380] concat1_4_concat1_4_0_split -> concat1_4_concat1_4_0_split_1
I1210 16:23:21.447623  9763 net.cpp:122] Setting up concat1_4_concat1_4_0_split
I1210 16:23:21.447631  9763 net.cpp:129] Top shape: 1 384 19 106 (773376)
I1210 16:23:21.447636  9763 net.cpp:129] Top shape: 1 384 19 106 (773376)
I1210 16:23:21.447640  9763 net.cpp:137] Memory required for data: 263527224
I1210 16:23:21.447643  9763 layer_factory.hpp:77] Creating layer conv1_5/bn
I1210 16:23:21.447651  9763 net.cpp:84] Creating Layer conv1_5/bn
I1210 16:23:21.447655  9763 net.cpp:406] conv1_5/bn <- concat1_4_concat1_4_0_split_0
I1210 16:23:21.447661  9763 net.cpp:380] conv1_5/bn -> conv1_5/bn
I1210 16:23:21.448086  9763 net.cpp:122] Setting up conv1_5/bn
I1210 16:23:21.448097  9763 net.cpp:129] Top shape: 1 384 19 106 (773376)
I1210 16:23:21.448101  9763 net.cpp:137] Memory required for data: 266620728
I1210 16:23:21.448110  9763 layer_factory.hpp:77] Creating layer conv1_5/scale
I1210 16:23:21.448118  9763 net.cpp:84] Creating Layer conv1_5/scale
I1210 16:23:21.448123  9763 net.cpp:406] conv1_5/scale <- conv1_5/bn
I1210 16:23:21.448130  9763 net.cpp:367] conv1_5/scale -> conv1_5/bn (in-place)
I1210 16:23:21.448200  9763 layer_factory.hpp:77] Creating layer conv1_5/scale
I1210 16:23:21.448426  9763 net.cpp:122] Setting up conv1_5/scale
I1210 16:23:21.448434  9763 net.cpp:129] Top shape: 1 384 19 106 (773376)
I1210 16:23:21.448437  9763 net.cpp:137] Memory required for data: 269714232
I1210 16:23:21.448444  9763 layer_factory.hpp:77] Creating layer relu1_5
I1210 16:23:21.448451  9763 net.cpp:84] Creating Layer relu1_5
I1210 16:23:21.448457  9763 net.cpp:406] relu1_5 <- conv1_5/bn
I1210 16:23:21.448462  9763 net.cpp:367] relu1_5 -> conv1_5/bn (in-place)
I1210 16:23:21.448904  9763 net.cpp:122] Setting up relu1_5
I1210 16:23:21.448916  9763 net.cpp:129] Top shape: 1 384 19 106 (773376)
I1210 16:23:21.448920  9763 net.cpp:137] Memory required for data: 272807736
I1210 16:23:21.448925  9763 layer_factory.hpp:77] Creating layer conv1_5
I1210 16:23:21.448936  9763 net.cpp:84] Creating Layer conv1_5
I1210 16:23:21.448940  9763 net.cpp:406] conv1_5 <- conv1_5/bn
I1210 16:23:21.448949  9763 net.cpp:380] conv1_5 -> conv1_5
I1210 16:23:21.455678  9763 net.cpp:122] Setting up conv1_5
I1210 16:23:21.455713  9763 net.cpp:129] Top shape: 1 32 19 106 (64448)
I1210 16:23:21.455718  9763 net.cpp:137] Memory required for data: 273065528
I1210 16:23:21.455729  9763 layer_factory.hpp:77] Creating layer concat1_5
I1210 16:23:21.455744  9763 net.cpp:84] Creating Layer concat1_5
I1210 16:23:21.455755  9763 net.cpp:406] concat1_5 <- concat1_4_concat1_4_0_split_1
I1210 16:23:21.455768  9763 net.cpp:406] concat1_5 <- conv1_5
I1210 16:23:21.455775  9763 net.cpp:380] concat1_5 -> concat1_5
I1210 16:23:21.455835  9763 net.cpp:122] Setting up concat1_5
I1210 16:23:21.455843  9763 net.cpp:129] Top shape: 1 416 19 106 (837824)
I1210 16:23:21.455847  9763 net.cpp:137] Memory required for data: 276416824
I1210 16:23:21.455850  9763 layer_factory.hpp:77] Creating layer concat1_5_concat1_5_0_split
I1210 16:23:21.455857  9763 net.cpp:84] Creating Layer concat1_5_concat1_5_0_split
I1210 16:23:21.455862  9763 net.cpp:406] concat1_5_concat1_5_0_split <- concat1_5
I1210 16:23:21.455868  9763 net.cpp:380] concat1_5_concat1_5_0_split -> concat1_5_concat1_5_0_split_0
I1210 16:23:21.455874  9763 net.cpp:380] concat1_5_concat1_5_0_split -> concat1_5_concat1_5_0_split_1
I1210 16:23:21.455945  9763 net.cpp:122] Setting up concat1_5_concat1_5_0_split
I1210 16:23:21.455953  9763 net.cpp:129] Top shape: 1 416 19 106 (837824)
I1210 16:23:21.455958  9763 net.cpp:129] Top shape: 1 416 19 106 (837824)
I1210 16:23:21.455962  9763 net.cpp:137] Memory required for data: 283119416
I1210 16:23:21.455966  9763 layer_factory.hpp:77] Creating layer conv1_6/bn
I1210 16:23:21.455973  9763 net.cpp:84] Creating Layer conv1_6/bn
I1210 16:23:21.455978  9763 net.cpp:406] conv1_6/bn <- concat1_5_concat1_5_0_split_0
I1210 16:23:21.455986  9763 net.cpp:380] conv1_6/bn -> conv1_6/bn
I1210 16:23:21.456434  9763 net.cpp:122] Setting up conv1_6/bn
I1210 16:23:21.456442  9763 net.cpp:129] Top shape: 1 416 19 106 (837824)
I1210 16:23:21.456446  9763 net.cpp:137] Memory required for data: 286470712
I1210 16:23:21.456455  9763 layer_factory.hpp:77] Creating layer conv1_6/scale
I1210 16:23:21.456466  9763 net.cpp:84] Creating Layer conv1_6/scale
I1210 16:23:21.456470  9763 net.cpp:406] conv1_6/scale <- conv1_6/bn
I1210 16:23:21.456476  9763 net.cpp:367] conv1_6/scale -> conv1_6/bn (in-place)
I1210 16:23:21.456557  9763 layer_factory.hpp:77] Creating layer conv1_6/scale
I1210 16:23:21.456797  9763 net.cpp:122] Setting up conv1_6/scale
I1210 16:23:21.456806  9763 net.cpp:129] Top shape: 1 416 19 106 (837824)
I1210 16:23:21.456809  9763 net.cpp:137] Memory required for data: 289822008
I1210 16:23:21.456817  9763 layer_factory.hpp:77] Creating layer relu1_6
I1210 16:23:21.456830  9763 net.cpp:84] Creating Layer relu1_6
I1210 16:23:21.456833  9763 net.cpp:406] relu1_6 <- conv1_6/bn
I1210 16:23:21.456840  9763 net.cpp:367] relu1_6 -> conv1_6/bn (in-place)
I1210 16:23:21.457276  9763 net.cpp:122] Setting up relu1_6
I1210 16:23:21.457289  9763 net.cpp:129] Top shape: 1 416 19 106 (837824)
I1210 16:23:21.457293  9763 net.cpp:137] Memory required for data: 293173304
I1210 16:23:21.457298  9763 layer_factory.hpp:77] Creating layer conv1_6
I1210 16:23:21.457312  9763 net.cpp:84] Creating Layer conv1_6
I1210 16:23:21.457316  9763 net.cpp:406] conv1_6 <- conv1_6/bn
I1210 16:23:21.457324  9763 net.cpp:380] conv1_6 -> conv1_6
I1210 16:23:21.462210  9763 net.cpp:122] Setting up conv1_6
I1210 16:23:21.462227  9763 net.cpp:129] Top shape: 1 32 19 106 (64448)
I1210 16:23:21.462230  9763 net.cpp:137] Memory required for data: 293431096
I1210 16:23:21.462236  9763 layer_factory.hpp:77] Creating layer concat1_6
I1210 16:23:21.462244  9763 net.cpp:84] Creating Layer concat1_6
I1210 16:23:21.462249  9763 net.cpp:406] concat1_6 <- concat1_5_concat1_5_0_split_1
I1210 16:23:21.462252  9763 net.cpp:406] concat1_6 <- conv1_6
I1210 16:23:21.462257  9763 net.cpp:380] concat1_6 -> concat1_6
I1210 16:23:21.462298  9763 net.cpp:122] Setting up concat1_6
I1210 16:23:21.462304  9763 net.cpp:129] Top shape: 1 448 19 106 (902272)
I1210 16:23:21.462306  9763 net.cpp:137] Memory required for data: 297040184
I1210 16:23:21.462308  9763 layer_factory.hpp:77] Creating layer concat1_6_concat1_6_0_split
I1210 16:23:21.462314  9763 net.cpp:84] Creating Layer concat1_6_concat1_6_0_split
I1210 16:23:21.462317  9763 net.cpp:406] concat1_6_concat1_6_0_split <- concat1_6
I1210 16:23:21.462321  9763 net.cpp:380] concat1_6_concat1_6_0_split -> concat1_6_concat1_6_0_split_0
I1210 16:23:21.462330  9763 net.cpp:380] concat1_6_concat1_6_0_split -> concat1_6_concat1_6_0_split_1
I1210 16:23:21.462383  9763 net.cpp:122] Setting up concat1_6_concat1_6_0_split
I1210 16:23:21.462388  9763 net.cpp:129] Top shape: 1 448 19 106 (902272)
I1210 16:23:21.462391  9763 net.cpp:129] Top shape: 1 448 19 106 (902272)
I1210 16:23:21.462393  9763 net.cpp:137] Memory required for data: 304258360
I1210 16:23:21.462395  9763 layer_factory.hpp:77] Creating layer conv1_7/bn
I1210 16:23:21.462401  9763 net.cpp:84] Creating Layer conv1_7/bn
I1210 16:23:21.462404  9763 net.cpp:406] conv1_7/bn <- concat1_6_concat1_6_0_split_0
I1210 16:23:21.462409  9763 net.cpp:380] conv1_7/bn -> conv1_7/bn
I1210 16:23:21.462749  9763 net.cpp:122] Setting up conv1_7/bn
I1210 16:23:21.462755  9763 net.cpp:129] Top shape: 1 448 19 106 (902272)
I1210 16:23:21.462759  9763 net.cpp:137] Memory required for data: 307867448
I1210 16:23:21.462764  9763 layer_factory.hpp:77] Creating layer conv1_7/scale
I1210 16:23:21.462770  9763 net.cpp:84] Creating Layer conv1_7/scale
I1210 16:23:21.462774  9763 net.cpp:406] conv1_7/scale <- conv1_7/bn
I1210 16:23:21.462779  9763 net.cpp:367] conv1_7/scale -> conv1_7/bn (in-place)
I1210 16:23:21.462839  9763 layer_factory.hpp:77] Creating layer conv1_7/scale
I1210 16:23:21.463023  9763 net.cpp:122] Setting up conv1_7/scale
I1210 16:23:21.463030  9763 net.cpp:129] Top shape: 1 448 19 106 (902272)
I1210 16:23:21.463032  9763 net.cpp:137] Memory required for data: 311476536
I1210 16:23:21.463037  9763 layer_factory.hpp:77] Creating layer relu1_7
I1210 16:23:21.463043  9763 net.cpp:84] Creating Layer relu1_7
I1210 16:23:21.463047  9763 net.cpp:406] relu1_7 <- conv1_7/bn
I1210 16:23:21.463050  9763 net.cpp:367] relu1_7 -> conv1_7/bn (in-place)
I1210 16:23:21.463388  9763 net.cpp:122] Setting up relu1_7
I1210 16:23:21.463397  9763 net.cpp:129] Top shape: 1 448 19 106 (902272)
I1210 16:23:21.463400  9763 net.cpp:137] Memory required for data: 315085624
I1210 16:23:21.463403  9763 layer_factory.hpp:77] Creating layer conv1_7
I1210 16:23:21.463413  9763 net.cpp:84] Creating Layer conv1_7
I1210 16:23:21.463418  9763 net.cpp:406] conv1_7 <- conv1_7/bn
I1210 16:23:21.463423  9763 net.cpp:380] conv1_7 -> conv1_7
I1210 16:23:21.469698  9763 net.cpp:122] Setting up conv1_7
I1210 16:23:21.469714  9763 net.cpp:129] Top shape: 1 32 19 106 (64448)
I1210 16:23:21.469719  9763 net.cpp:137] Memory required for data: 315343416
I1210 16:23:21.469727  9763 layer_factory.hpp:77] Creating layer concat1_7
I1210 16:23:21.469735  9763 net.cpp:84] Creating Layer concat1_7
I1210 16:23:21.469740  9763 net.cpp:406] concat1_7 <- concat1_6_concat1_6_0_split_1
I1210 16:23:21.469746  9763 net.cpp:406] concat1_7 <- conv1_7
I1210 16:23:21.469753  9763 net.cpp:380] concat1_7 -> concat1_7
I1210 16:23:21.469806  9763 net.cpp:122] Setting up concat1_7
I1210 16:23:21.469815  9763 net.cpp:129] Top shape: 1 480 19 106 (966720)
I1210 16:23:21.469818  9763 net.cpp:137] Memory required for data: 319210296
I1210 16:23:21.469821  9763 layer_factory.hpp:77] Creating layer concat1_7_concat1_7_0_split
I1210 16:23:21.469828  9763 net.cpp:84] Creating Layer concat1_7_concat1_7_0_split
I1210 16:23:21.469832  9763 net.cpp:406] concat1_7_concat1_7_0_split <- concat1_7
I1210 16:23:21.469840  9763 net.cpp:380] concat1_7_concat1_7_0_split -> concat1_7_concat1_7_0_split_0
I1210 16:23:21.469846  9763 net.cpp:380] concat1_7_concat1_7_0_split -> concat1_7_concat1_7_0_split_1
I1210 16:23:21.469916  9763 net.cpp:122] Setting up concat1_7_concat1_7_0_split
I1210 16:23:21.469925  9763 net.cpp:129] Top shape: 1 480 19 106 (966720)
I1210 16:23:21.469930  9763 net.cpp:129] Top shape: 1 480 19 106 (966720)
I1210 16:23:21.469934  9763 net.cpp:137] Memory required for data: 326944056
I1210 16:23:21.469938  9763 layer_factory.hpp:77] Creating layer conv1_8/bn
I1210 16:23:21.469946  9763 net.cpp:84] Creating Layer conv1_8/bn
I1210 16:23:21.469950  9763 net.cpp:406] conv1_8/bn <- concat1_7_concat1_7_0_split_0
I1210 16:23:21.469957  9763 net.cpp:380] conv1_8/bn -> conv1_8/bn
I1210 16:23:21.470412  9763 net.cpp:122] Setting up conv1_8/bn
I1210 16:23:21.470422  9763 net.cpp:129] Top shape: 1 480 19 106 (966720)
I1210 16:23:21.470425  9763 net.cpp:137] Memory required for data: 330810936
I1210 16:23:21.470434  9763 layer_factory.hpp:77] Creating layer conv1_8/scale
I1210 16:23:21.470441  9763 net.cpp:84] Creating Layer conv1_8/scale
I1210 16:23:21.470446  9763 net.cpp:406] conv1_8/scale <- conv1_8/bn
I1210 16:23:21.470453  9763 net.cpp:367] conv1_8/scale -> conv1_8/bn (in-place)
I1210 16:23:21.470535  9763 layer_factory.hpp:77] Creating layer conv1_8/scale
I1210 16:23:21.470775  9763 net.cpp:122] Setting up conv1_8/scale
I1210 16:23:21.470784  9763 net.cpp:129] Top shape: 1 480 19 106 (966720)
I1210 16:23:21.470788  9763 net.cpp:137] Memory required for data: 334677816
I1210 16:23:21.470795  9763 layer_factory.hpp:77] Creating layer relu1_8
I1210 16:23:21.470803  9763 net.cpp:84] Creating Layer relu1_8
I1210 16:23:21.470806  9763 net.cpp:406] relu1_8 <- conv1_8/bn
I1210 16:23:21.470813  9763 net.cpp:367] relu1_8 -> conv1_8/bn (in-place)
I1210 16:23:21.471242  9763 net.cpp:122] Setting up relu1_8
I1210 16:23:21.471254  9763 net.cpp:129] Top shape: 1 480 19 106 (966720)
I1210 16:23:21.471258  9763 net.cpp:137] Memory required for data: 338544696
I1210 16:23:21.471263  9763 layer_factory.hpp:77] Creating layer conv1_8
I1210 16:23:21.471276  9763 net.cpp:84] Creating Layer conv1_8
I1210 16:23:21.471280  9763 net.cpp:406] conv1_8 <- conv1_8/bn
I1210 16:23:21.471288  9763 net.cpp:380] conv1_8 -> conv1_8
I1210 16:23:21.478904  9763 net.cpp:122] Setting up conv1_8
I1210 16:23:21.478937  9763 net.cpp:129] Top shape: 1 32 19 106 (64448)
I1210 16:23:21.478942  9763 net.cpp:137] Memory required for data: 338802488
I1210 16:23:21.478953  9763 layer_factory.hpp:77] Creating layer concat1_8
I1210 16:23:21.478967  9763 net.cpp:84] Creating Layer concat1_8
I1210 16:23:21.478974  9763 net.cpp:406] concat1_8 <- concat1_7_concat1_7_0_split_1
I1210 16:23:21.478982  9763 net.cpp:406] concat1_8 <- conv1_8
I1210 16:23:21.478991  9763 net.cpp:380] concat1_8 -> concat1_8
I1210 16:23:21.479048  9763 net.cpp:122] Setting up concat1_8
I1210 16:23:21.479056  9763 net.cpp:129] Top shape: 1 512 19 106 (1031168)
I1210 16:23:21.479060  9763 net.cpp:137] Memory required for data: 342927160
I1210 16:23:21.479064  9763 layer_factory.hpp:77] Creating layer concat1_8_concat1_8_0_split
I1210 16:23:21.479070  9763 net.cpp:84] Creating Layer concat1_8_concat1_8_0_split
I1210 16:23:21.479074  9763 net.cpp:406] concat1_8_concat1_8_0_split <- concat1_8
I1210 16:23:21.479081  9763 net.cpp:380] concat1_8_concat1_8_0_split -> concat1_8_concat1_8_0_split_0
I1210 16:23:21.479089  9763 net.cpp:380] concat1_8_concat1_8_0_split -> concat1_8_concat1_8_0_split_1
I1210 16:23:21.479161  9763 net.cpp:122] Setting up concat1_8_concat1_8_0_split
I1210 16:23:21.479168  9763 net.cpp:129] Top shape: 1 512 19 106 (1031168)
I1210 16:23:21.479173  9763 net.cpp:129] Top shape: 1 512 19 106 (1031168)
I1210 16:23:21.479176  9763 net.cpp:137] Memory required for data: 351176504
I1210 16:23:21.479180  9763 layer_factory.hpp:77] Creating layer conv1_9/bn
I1210 16:23:21.479189  9763 net.cpp:84] Creating Layer conv1_9/bn
I1210 16:23:21.479193  9763 net.cpp:406] conv1_9/bn <- concat1_8_concat1_8_0_split_0
I1210 16:23:21.479200  9763 net.cpp:380] conv1_9/bn -> conv1_9/bn
I1210 16:23:21.479665  9763 net.cpp:122] Setting up conv1_9/bn
I1210 16:23:21.479673  9763 net.cpp:129] Top shape: 1 512 19 106 (1031168)
I1210 16:23:21.479677  9763 net.cpp:137] Memory required for data: 355301176
I1210 16:23:21.479688  9763 layer_factory.hpp:77] Creating layer conv1_9/scale
I1210 16:23:21.479697  9763 net.cpp:84] Creating Layer conv1_9/scale
I1210 16:23:21.479702  9763 net.cpp:406] conv1_9/scale <- conv1_9/bn
I1210 16:23:21.479707  9763 net.cpp:367] conv1_9/scale -> conv1_9/bn (in-place)
I1210 16:23:21.479791  9763 layer_factory.hpp:77] Creating layer conv1_9/scale
I1210 16:23:21.480032  9763 net.cpp:122] Setting up conv1_9/scale
I1210 16:23:21.480042  9763 net.cpp:129] Top shape: 1 512 19 106 (1031168)
I1210 16:23:21.480051  9763 net.cpp:137] Memory required for data: 359425848
I1210 16:23:21.480059  9763 layer_factory.hpp:77] Creating layer relu1_9
I1210 16:23:21.480067  9763 net.cpp:84] Creating Layer relu1_9
I1210 16:23:21.480072  9763 net.cpp:406] relu1_9 <- conv1_9/bn
I1210 16:23:21.480077  9763 net.cpp:367] relu1_9 -> conv1_9/bn (in-place)
I1210 16:23:21.480340  9763 net.cpp:122] Setting up relu1_9
I1210 16:23:21.480350  9763 net.cpp:129] Top shape: 1 512 19 106 (1031168)
I1210 16:23:21.480353  9763 net.cpp:137] Memory required for data: 363550520
I1210 16:23:21.480357  9763 layer_factory.hpp:77] Creating layer conv1_9
I1210 16:23:21.480370  9763 net.cpp:84] Creating Layer conv1_9
I1210 16:23:21.480374  9763 net.cpp:406] conv1_9 <- conv1_9/bn
I1210 16:23:21.480382  9763 net.cpp:380] conv1_9 -> conv1_9
I1210 16:23:21.488497  9763 net.cpp:122] Setting up conv1_9
I1210 16:23:21.488529  9763 net.cpp:129] Top shape: 1 32 19 106 (64448)
I1210 16:23:21.488534  9763 net.cpp:137] Memory required for data: 363808312
I1210 16:23:21.488544  9763 layer_factory.hpp:77] Creating layer concat1_9
I1210 16:23:21.488555  9763 net.cpp:84] Creating Layer concat1_9
I1210 16:23:21.488562  9763 net.cpp:406] concat1_9 <- concat1_8_concat1_8_0_split_1
I1210 16:23:21.488570  9763 net.cpp:406] concat1_9 <- conv1_9
I1210 16:23:21.488577  9763 net.cpp:380] concat1_9 -> concat1_9
I1210 16:23:21.488634  9763 net.cpp:122] Setting up concat1_9
I1210 16:23:21.488641  9763 net.cpp:129] Top shape: 1 544 19 106 (1095616)
I1210 16:23:21.488646  9763 net.cpp:137] Memory required for data: 368190776
I1210 16:23:21.488649  9763 layer_factory.hpp:77] Creating layer concat1_9_concat1_9_0_split
I1210 16:23:21.488658  9763 net.cpp:84] Creating Layer concat1_9_concat1_9_0_split
I1210 16:23:21.488662  9763 net.cpp:406] concat1_9_concat1_9_0_split <- concat1_9
I1210 16:23:21.488668  9763 net.cpp:380] concat1_9_concat1_9_0_split -> concat1_9_concat1_9_0_split_0
I1210 16:23:21.488675  9763 net.cpp:380] concat1_9_concat1_9_0_split -> concat1_9_concat1_9_0_split_1
I1210 16:23:21.488749  9763 net.cpp:122] Setting up concat1_9_concat1_9_0_split
I1210 16:23:21.488756  9763 net.cpp:129] Top shape: 1 544 19 106 (1095616)
I1210 16:23:21.488762  9763 net.cpp:129] Top shape: 1 544 19 106 (1095616)
I1210 16:23:21.488765  9763 net.cpp:137] Memory required for data: 376955704
I1210 16:23:21.488770  9763 layer_factory.hpp:77] Creating layer conv1_10/bn
I1210 16:23:21.488777  9763 net.cpp:84] Creating Layer conv1_10/bn
I1210 16:23:21.488782  9763 net.cpp:406] conv1_10/bn <- concat1_9_concat1_9_0_split_0
I1210 16:23:21.488790  9763 net.cpp:380] conv1_10/bn -> conv1_10/bn
I1210 16:23:21.489249  9763 net.cpp:122] Setting up conv1_10/bn
I1210 16:23:21.489257  9763 net.cpp:129] Top shape: 1 544 19 106 (1095616)
I1210 16:23:21.489261  9763 net.cpp:137] Memory required for data: 381338168
I1210 16:23:21.489270  9763 layer_factory.hpp:77] Creating layer conv1_10/scale
I1210 16:23:21.489281  9763 net.cpp:84] Creating Layer conv1_10/scale
I1210 16:23:21.489286  9763 net.cpp:406] conv1_10/scale <- conv1_10/bn
I1210 16:23:21.489292  9763 net.cpp:367] conv1_10/scale -> conv1_10/bn (in-place)
I1210 16:23:21.489374  9763 layer_factory.hpp:77] Creating layer conv1_10/scale
I1210 16:23:21.489619  9763 net.cpp:122] Setting up conv1_10/scale
I1210 16:23:21.489629  9763 net.cpp:129] Top shape: 1 544 19 106 (1095616)
I1210 16:23:21.489632  9763 net.cpp:137] Memory required for data: 385720632
I1210 16:23:21.489639  9763 layer_factory.hpp:77] Creating layer relu1_10
I1210 16:23:21.489646  9763 net.cpp:84] Creating Layer relu1_10
I1210 16:23:21.489651  9763 net.cpp:406] relu1_10 <- conv1_10/bn
I1210 16:23:21.489656  9763 net.cpp:367] relu1_10 -> conv1_10/bn (in-place)
I1210 16:23:21.490097  9763 net.cpp:122] Setting up relu1_10
I1210 16:23:21.490109  9763 net.cpp:129] Top shape: 1 544 19 106 (1095616)
I1210 16:23:21.490115  9763 net.cpp:137] Memory required for data: 390103096
I1210 16:23:21.490119  9763 layer_factory.hpp:77] Creating layer conv1_10
I1210 16:23:21.490135  9763 net.cpp:84] Creating Layer conv1_10
I1210 16:23:21.490140  9763 net.cpp:406] conv1_10 <- conv1_10/bn
I1210 16:23:21.490149  9763 net.cpp:380] conv1_10 -> conv1_10
I1210 16:23:21.498199  9763 net.cpp:122] Setting up conv1_10
I1210 16:23:21.498215  9763 net.cpp:129] Top shape: 1 32 19 106 (64448)
I1210 16:23:21.498220  9763 net.cpp:137] Memory required for data: 390360888
I1210 16:23:21.498227  9763 layer_factory.hpp:77] Creating layer concat1_10
I1210 16:23:21.498235  9763 net.cpp:84] Creating Layer concat1_10
I1210 16:23:21.498240  9763 net.cpp:406] concat1_10 <- concat1_9_concat1_9_0_split_1
I1210 16:23:21.498246  9763 net.cpp:406] concat1_10 <- conv1_10
I1210 16:23:21.498252  9763 net.cpp:380] concat1_10 -> concat1_10
I1210 16:23:21.498311  9763 net.cpp:122] Setting up concat1_10
I1210 16:23:21.498319  9763 net.cpp:129] Top shape: 1 576 19 106 (1160064)
I1210 16:23:21.498323  9763 net.cpp:137] Memory required for data: 395001144
I1210 16:23:21.498327  9763 layer_factory.hpp:77] Creating layer concat1_10_concat1_10_0_split
I1210 16:23:21.498333  9763 net.cpp:84] Creating Layer concat1_10_concat1_10_0_split
I1210 16:23:21.498338  9763 net.cpp:406] concat1_10_concat1_10_0_split <- concat1_10
I1210 16:23:21.498343  9763 net.cpp:380] concat1_10_concat1_10_0_split -> concat1_10_concat1_10_0_split_0
I1210 16:23:21.498353  9763 net.cpp:380] concat1_10_concat1_10_0_split -> concat1_10_concat1_10_0_split_1
I1210 16:23:21.498427  9763 net.cpp:122] Setting up concat1_10_concat1_10_0_split
I1210 16:23:21.498440  9763 net.cpp:129] Top shape: 1 576 19 106 (1160064)
I1210 16:23:21.498445  9763 net.cpp:129] Top shape: 1 576 19 106 (1160064)
I1210 16:23:21.498447  9763 net.cpp:137] Memory required for data: 404281656
I1210 16:23:21.498451  9763 layer_factory.hpp:77] Creating layer conv1_11/bn
I1210 16:23:21.498458  9763 net.cpp:84] Creating Layer conv1_11/bn
I1210 16:23:21.498462  9763 net.cpp:406] conv1_11/bn <- concat1_10_concat1_10_0_split_0
I1210 16:23:21.498469  9763 net.cpp:380] conv1_11/bn -> conv1_11/bn
I1210 16:23:21.498920  9763 net.cpp:122] Setting up conv1_11/bn
I1210 16:23:21.498929  9763 net.cpp:129] Top shape: 1 576 19 106 (1160064)
I1210 16:23:21.498932  9763 net.cpp:137] Memory required for data: 408921912
I1210 16:23:21.498942  9763 layer_factory.hpp:77] Creating layer conv1_11/scale
I1210 16:23:21.498952  9763 net.cpp:84] Creating Layer conv1_11/scale
I1210 16:23:21.498956  9763 net.cpp:406] conv1_11/scale <- conv1_11/bn
I1210 16:23:21.498963  9763 net.cpp:367] conv1_11/scale -> conv1_11/bn (in-place)
I1210 16:23:21.499044  9763 layer_factory.hpp:77] Creating layer conv1_11/scale
I1210 16:23:21.499295  9763 net.cpp:122] Setting up conv1_11/scale
I1210 16:23:21.499305  9763 net.cpp:129] Top shape: 1 576 19 106 (1160064)
I1210 16:23:21.499308  9763 net.cpp:137] Memory required for data: 413562168
I1210 16:23:21.499316  9763 layer_factory.hpp:77] Creating layer relu1_11
I1210 16:23:21.499322  9763 net.cpp:84] Creating Layer relu1_11
I1210 16:23:21.499327  9763 net.cpp:406] relu1_11 <- conv1_11/bn
I1210 16:23:21.499332  9763 net.cpp:367] relu1_11 -> conv1_11/bn (in-place)
I1210 16:23:21.499791  9763 net.cpp:122] Setting up relu1_11
I1210 16:23:21.499804  9763 net.cpp:129] Top shape: 1 576 19 106 (1160064)
I1210 16:23:21.499809  9763 net.cpp:137] Memory required for data: 418202424
I1210 16:23:21.499812  9763 layer_factory.hpp:77] Creating layer conv1_11
I1210 16:23:21.499825  9763 net.cpp:84] Creating Layer conv1_11
I1210 16:23:21.499828  9763 net.cpp:406] conv1_11 <- conv1_11/bn
I1210 16:23:21.499837  9763 net.cpp:380] conv1_11 -> conv1_11
I1210 16:23:21.508162  9763 net.cpp:122] Setting up conv1_11
I1210 16:23:21.508177  9763 net.cpp:129] Top shape: 1 32 19 106 (64448)
I1210 16:23:21.508180  9763 net.cpp:137] Memory required for data: 418460216
I1210 16:23:21.508188  9763 layer_factory.hpp:77] Creating layer concat1_11
I1210 16:23:21.508196  9763 net.cpp:84] Creating Layer concat1_11
I1210 16:23:21.508201  9763 net.cpp:406] concat1_11 <- concat1_10_concat1_10_0_split_1
I1210 16:23:21.508208  9763 net.cpp:406] concat1_11 <- conv1_11
I1210 16:23:21.508218  9763 net.cpp:380] concat1_11 -> concat1_11
I1210 16:23:21.508272  9763 net.cpp:122] Setting up concat1_11
I1210 16:23:21.508280  9763 net.cpp:129] Top shape: 1 608 19 106 (1224512)
I1210 16:23:21.508283  9763 net.cpp:137] Memory required for data: 423358264
I1210 16:23:21.508287  9763 layer_factory.hpp:77] Creating layer tpp5
I1210 16:23:21.508294  9763 net.cpp:84] Creating Layer tpp5
I1210 16:23:21.508298  9763 net.cpp:406] tpp5 <- concat1_11
I1210 16:23:21.508306  9763 net.cpp:380] tpp5 -> tpp5
I1210 16:23:21.509217  9763 net.cpp:122] Setting up tpp5
I1210 16:23:21.509227  9763 net.cpp:129] Top shape: 1 9120 (9120)
I1210 16:23:21.509232  9763 net.cpp:137] Memory required for data: 423394744
I1210 16:23:21.509236  9763 layer_factory.hpp:77] Creating layer fc6_d
I1210 16:23:21.509245  9763 net.cpp:84] Creating Layer fc6_d
I1210 16:23:21.509249  9763 net.cpp:406] fc6_d <- tpp5
I1210 16:23:21.509256  9763 net.cpp:380] fc6_d -> fc6_d
I1210 16:23:22.951159  9763 net.cpp:122] Setting up fc6_d
I1210 16:23:22.951194  9763 net.cpp:129] Top shape: 1 4096 (4096)
I1210 16:23:22.951198  9763 net.cpp:137] Memory required for data: 423411128
I1210 16:23:22.951210  9763 layer_factory.hpp:77] Creating layer relu6
I1210 16:23:22.951221  9763 net.cpp:84] Creating Layer relu6
I1210 16:23:22.951227  9763 net.cpp:406] relu6 <- fc6_d
I1210 16:23:22.951234  9763 net.cpp:367] relu6 -> fc6_d (in-place)
I1210 16:23:22.951540  9763 net.cpp:122] Setting up relu6
I1210 16:23:22.951551  9763 net.cpp:129] Top shape: 1 4096 (4096)
I1210 16:23:22.951555  9763 net.cpp:137] Memory required for data: 423427512
I1210 16:23:22.951560  9763 layer_factory.hpp:77] Creating layer drop6
I1210 16:23:22.951570  9763 net.cpp:84] Creating Layer drop6
I1210 16:23:22.951575  9763 net.cpp:406] drop6 <- fc6_d
I1210 16:23:22.951580  9763 net.cpp:367] drop6 -> fc6_d (in-place)
I1210 16:23:22.951630  9763 net.cpp:122] Setting up drop6
I1210 16:23:22.951643  9763 net.cpp:129] Top shape: 1 4096 (4096)
I1210 16:23:22.951647  9763 net.cpp:137] Memory required for data: 423443896
I1210 16:23:22.951650  9763 layer_factory.hpp:77] Creating layer fc7_d
I1210 16:23:22.951659  9763 net.cpp:84] Creating Layer fc7_d
I1210 16:23:22.951663  9763 net.cpp:406] fc7_d <- fc6_d
I1210 16:23:22.951669  9763 net.cpp:380] fc7_d -> fc7_d
I1210 16:23:23.854063  9763 net.cpp:122] Setting up fc7_d
I1210 16:23:23.854100  9763 net.cpp:129] Top shape: 1 4096 (4096)
I1210 16:23:23.854104  9763 net.cpp:137] Memory required for data: 423460280
I1210 16:23:23.854116  9763 layer_factory.hpp:77] Creating layer relu7
I1210 16:23:23.854128  9763 net.cpp:84] Creating Layer relu7
I1210 16:23:23.854135  9763 net.cpp:406] relu7 <- fc7_d
I1210 16:23:23.854142  9763 net.cpp:367] relu7 -> fc7_d (in-place)
I1210 16:23:23.854781  9763 net.cpp:122] Setting up relu7
I1210 16:23:23.854799  9763 net.cpp:129] Top shape: 1 4096 (4096)
I1210 16:23:23.854802  9763 net.cpp:137] Memory required for data: 423476664
I1210 16:23:23.854807  9763 layer_factory.hpp:77] Creating layer drop7
I1210 16:23:23.854818  9763 net.cpp:84] Creating Layer drop7
I1210 16:23:23.854823  9763 net.cpp:406] drop7 <- fc7_d
I1210 16:23:23.854831  9763 net.cpp:367] drop7 -> fc7_d (in-place)
I1210 16:23:23.854893  9763 net.cpp:122] Setting up drop7
I1210 16:23:23.854900  9763 net.cpp:129] Top shape: 1 4096 (4096)
I1210 16:23:23.854904  9763 net.cpp:137] Memory required for data: 423493048
I1210 16:23:23.854908  9763 layer_factory.hpp:77] Creating layer fc8_d
I1210 16:23:23.854918  9763 net.cpp:84] Creating Layer fc8_d
I1210 16:23:23.854923  9763 net.cpp:406] fc8_d <- fc7_d
I1210 16:23:23.854928  9763 net.cpp:380] fc8_d -> fc8_d
I1210 16:23:23.945641  9763 net.cpp:122] Setting up fc8_d
I1210 16:23:23.945677  9763 net.cpp:129] Top shape: 1 604 (604)
I1210 16:23:23.945680  9763 net.cpp:137] Memory required for data: 423495464
I1210 16:23:23.945691  9763 layer_factory.hpp:77] Creating layer loss
I1210 16:23:23.945708  9763 net.cpp:84] Creating Layer loss
I1210 16:23:23.945714  9763 net.cpp:406] loss <- fc8_d
I1210 16:23:23.945727  9763 net.cpp:406] loss <- phocs
I1210 16:23:23.945734  9763 net.cpp:380] loss -> loss
I1210 16:23:23.945823  9763 net.cpp:122] Setting up loss
…
state {
  phase: TEST
}
layer {
  name: "word_images"
  type: "Data"
  top: "word_images"
  top: "label"
  transform_param {
    scale: -0.0039215689
    mean_value: 255
  }
  data_param {
    source: "/data/fwolf/min26/gw_cv1_nti500000_pul2-3-4-5_test_word_images_lmdb"
    batch_size: 1
    backend: LMDB
    prefetch: 20
  }
}
layer {
  name: "phocs"
  type: "Data"
  top: "phocs"
  top: "label_phocs"
  data_param {
    source: "/data/fwolf/min26/gw_cv1_nti500000_pul2-3-4-5_test_phocs_lmdb"
    batch_size: 1
    backend: LMDB
    prefetch: 20
  }
}
layer {
  name: "conv_init"
  type: "Convolution"
  bottom: "word_images"
  top: "conv_init"
  convolution_param {
    num_output: 32
    bias_term: false
    pad: 1
    kernel_size: 3
    stride: 1
    weight_filler {
      type: "msra"
    }
    bias_filler {
      type: "constant"
    }
    engine: CUDNN
  }
}
layer {
  name: "bn_init"
  type: "BatchNorm"
  bottom: "conv_init"
  top: "bn_init"
  param {
    lr_mult: 0
    decay_mult: 0
  }
  param {
    lr_mult: 0
    decay_mult: 0
  }
  param {
    lr_mult: 0
    decay_mult: 0
  }
  batch_norm_param {
    eps: 1e-05
  }
}
layer {
  name: "scale_init"
  type: "Scale"
  bottom: "bn_init"
  top: "bn_init"
  scale_param {
    filler {
      value: 1
    }
    bias_term: true
    bias_filler {
      value: 0
    }
  }
}
layer {
  name: "relu_init"
  type: "ReLU"
  bottom: "bn_init"
  top: "bn_init"
}
layer {
  name: "pool_init"
  type: "Pooling"
  bottom: "bn_init"
  top: "pool_init"
  pooling_param {
    pool: MAX
    kernel_size: 3
    stride: 2
    pad: 1
  }
}
layer {
  name: "conv0_0/bn"
  type: "BatchNorm"
  bottom: "pool_init"
  top: "conv0_0/bn"
  param {
    lr_mult: 0
    decay_mult: 0
  }
  param {
    lr_mult: 0
    decay_mult: 0
  }
  param {
    lr_mult: 0
    decay_mult: 0
  }
}
layer {
  name: "conv0_0/scale"
  type: "Scale"
  bottom: "conv0_0/bn"
  top: "conv0_0/bn"
  scale_param {
    filler {
      value: 1
    }
    bias_term: true
    bias_filler {
      value: 0
    }
  }
}
layer {
  name: "relu0_0"
  type: "ReLU"
  bottom: "conv0_0/bn"
  top: "conv0_0/bn"
}
layer {
  name: "conv0_0"
  type: "Convolution"
  bottom: "conv0_0/bn"
  top: "conv0_0"
  convolution_param {
    num_output: 32
    bias_term: false
    pad: 1
    kernel_size: 3
    stride: 1
    weight_filler {
      type: "msra"
    }
    bias_filler {
      type: "constant"
    }
    engine: CUDNN
  }
}
layer {
  name: "concat0_0"
  type: "Concat"
  bottom: "pool_init"
  bottom: "conv0_0"
  top: "concat0_0"
  concat_param {
    axis: 1
  }
}
layer {
  name: "conv0_1/bn"
  type: "BatchNorm"
  bottom: "concat0_0"
  top: "conv0_1/bn"
  param {
    lr_mult: 0
    decay_mult: 0
  }
  param {
    lr_mult: 0
    decay_mult: 0
  }
  param {
    lr_mult: 0
    decay_mult: 0
  }
}
layer {
  name: "conv0_1/scale"
  type: "Scale"
  bottom: "conv0_1/bn"
  top: "conv0_1/bn"
  scale_param {
    filler {
      value: 1
    }
    bias_term: true
    bias_filler {
      value: 0
    }
  }
}
layer {
  name: "relu0_1"
  type: "ReLU"
  bottom: "conv0_1/bn"
  top: "conv0_1/bn"
}
layer {
  name: "conv0_1"
  type: "Convolution"
  bottom: "conv0_1/bn"
  top: "conv0_1"
  convolution_param {
    num_output: 32
    bias_term: false
    pad: 1
    kernel_size: 3
    stride: 1
    weight_filler {
      type: "msra"
    }
    bias_filler {
      type: "constant"
    }
    engine: CUDNN
  }
}
layer {
  name: "concat0_1"
  type: "Concat"
  bottom: "concat0_0"
  bottom: "conv0_1"
  top: "concat0_1"
  concat_param {
    axis: 1
  }
}
layer {
  name: "conv0_2/bn"
  type: "BatchNorm"
  bottom: "concat0_1"
  top: "conv0_2/bn"
  param {
    lr_mult: 0
    decay_mult: 0
  }
  param {
    lr_mult: 0
    decay_mult: 0
  }
  param {
    lr_mult: 0
    decay_mult: 0
  }
}
layer {
  name: "conv0_2/scale"
  type: "Scale"
  bottom: "conv0_2/bn"
  top: "conv0_2/bn"
  scale_param {
    filler {
      value: 1
    }
    bias_term: true
    bias_filler {
      value: 0
    }
  }
}
layer {
  name: "relu0_2"
  type: "ReLU"
  bottom: "conv0_2/bn"
  top: "conv0_2/bn"
}
layer {
  name: "conv0_2"
  type: "Convolution"
  bottom: "conv0_2/bn"
  top: "conv0_2"
  convolution_param {
    num_output: 32
    bias_term: false
    pad: 1
    kernel_size: 3
    stride: 1
    weight_filler {
      type: "msra"
    }
    bias_filler {
      type: "constant"
    }
    engine: CUDNN
  }
}
layer {
  name: "concat0_2"
  type: "Concat"
  bottom: "concat0_1"
  bottom: "conv0_2"
  top: "concat0_2"
  concat_param {
    axis: 1
  }
}
layer {
  name: "conv0_3/bn"
  type: "BatchNorm"
  bottom: "concat0_2"
  top: "conv0_3/bn"
  param {
    lr_mult: 0
    decay_mult: 0
  }
  param {
    lr_mult: 0
    decay_mult: 0
  }
  param {
    lr_mult: 0
    decay_mult: 0
  }
}
layer {
  name: "conv0_3/scale"
  type: "Scale"
  bottom: "conv0_3/bn"
  top: "conv0_3/bn"
  scale_param {
    filler {
      value: 1
    }
    bias_term: true
    bias_filler {
      value: 0
    }
  }
}
layer {
  name: "relu0_3"
  type: "ReLU"
  bottom: "conv0_3/bn"
  top: "conv0_3/bn"
}
layer {
  name: "conv0_3"
  type: "Convolution"
  bottom: "conv0_3/bn"
  top: "conv0_3"
  convolution_param {
    num_output: 32
    bias_term: false
    pad: 1
    kernel_size: 3
    stride: 1
    weight_filler {
      type: "msra"
    }
    bias_filler {
      type: "constant"
    }
    engine: CUDNN
  }
}
layer {
  name: "concat0_3"
  type: "Concat"
  bottom: "concat0_2"
  bottom: "conv0_3"
  top: "concat0_3"
  concat_param {
    axis: 1
  }
}
layer {
  name: "conv0_4/bn"
  type: "BatchNorm"
  bottom: "concat0_3"
  top: "conv0_4/bn"
  param {
    lr_mult: 0
    decay_mult: 0
  }
  param {
    lr_mult: 0
    decay_mult: 0
  }
  param {
    lr_mult: 0
    decay_mult: 0
  }
}
layer {
  name: "conv0_4/scale"
  type: "Scale"
  bottom: "conv0_4/bn"
  top: "conv0_4/bn"
  scale_param {
    filler {
      value: 1
    }
    bias_term: true
    bias_filler {
      value: 0
    }
  }
}
layer {
  name: "relu0_4"
  type: "ReLU"
  bottom: "conv0_4/bn"
  top: "conv0_4/bn"
}
layer {
  name: "conv0_4"
  type: "Convolution"
  bottom: "conv0_4/bn"
  top: "conv0_4"
  convolution_param {
    num_output: 32
    bias_term: false
    pad: 1
    kernel_size: 3
    stride: 1
    weight_filler {
      type: "msra"
    }
    bias_filler {
      type: "constant"
    }
    engine: CUDNN
  }
}
layer {
  name: "concat0_4"
  type: "Concat"
  bottom: "concat0_3"
  bottom: "conv0_4"
  top: "concat0_4"
  concat_param {
    axis: 1
  }
}
layer {
  name: "conv0_5/bn"
  type: "BatchNorm"
  bottom: "concat0_4"
  top: "conv0_5/bn"
  param {
    lr_mult: 0
    decay_mult: 0
  }
  param {
    lr_mult: 0
    decay_mult: 0
  }
  param {
    lr_mult: 0
    decay_mult: 0
  }
}
layer {
  name: "conv0_5/scale"
  type: "Scale"
  bottom: "conv0_5/bn"
  top: "conv0_5/bn"
  scale_param {
    filler {
      value: 1
    }
    bias_term: true
    bias_filler {
      value: 0
    }
  }
}
layer {
  name: "relu0_5"
  type: "ReLU"
  bottom: "conv0_5/bn"
  top: "conv0_5/bn"
}
layer {
  name: "conv0_5"
  type: "Convolution"
  bottom: "conv0_5/bn"
  top: "conv0_5"
  convolution_param {
    num_output: 32
    bias_term: false
    pad: 1
    kernel_size: 3
    stride: 1
    weight_filler {
      type: "msra"
    }
    bias_filler {
      type: "constant"
    }
    engine: CUDNN
  }
}
layer {
  name: "concat0_5"
  type: "Concat"
  bottom: "concat0_4"
  bottom: "conv0_5"
  top: "concat0_5"
  concat_param {
    axis: 1
  }
}
layer {
  name: "BatchNorm1"
  type: "BatchNorm"
  bottom: "concat0_5"
  top: "BatchNorm1"
  param {
    lr_mult: 0
    decay_mult: 0
  }
  param {
    lr_mult: 0
    decay_mult: 0
  }
  param {
    lr_mult: 0
    decay_mult: 0
  }
}
layer {
  name: "Scale1"
  type: "Scale"
  bottom: "BatchNorm1"
  top: "BatchNorm1"
  scale_param {
    filler {
      value: 1
    }
    bias_term: true
    bias_filler {
      value: 0
    }
  }
}
layer {
  name: "ReLU1"
  type: "ReLU"
  bottom: "BatchNorm1"
  top: "BatchNorm1"
}
layer {
  name: "conv0_blk"
  type: "Convolution"
  bottom: "BatchNorm1"
  top: "conv0_blk"
  convolution_param {
    num_output: 224
    bias_term: false
    pad: 0
    kernel_size: 1
    stride: 1
    weight_filler {
      type: "msra"
    }
    bias_filler {
      type: "constant"
    }
    engine: CUDNN
  }
}
layer {
  name: "pool0"
  type: "Pooling"
  bottom: "conv0_blk"
  top: "pool0"
  pooling_param {
    pool: AVE
    kernel_size: 2
    stride: 2
  }
}
layer {
  name: "conv1_0/bn"
  type: "BatchNorm"
  bottom: "pool0"
  top: "conv1_0/bn"
  param {
    lr_mult: 0
    decay_mult: 0
  }
  param {
    lr_mult: 0
    decay_mult: 0
  }
  param {
    lr_mult: 0
    decay_mult: 0
  }
}
layer {
  name: "conv1_0/scale"
  type: "Scale"
  bottom: "conv1_0/bn"
  top: "conv1_0/bn"
  scale_param {
    filler {
      value: 1
    }
    bias_term: true
    bias_filler {
      value: 0
    }
  }
}
layer {
  name: "relu1_0"
  type: "ReLU"
  bottom: "conv1_0/bn"
  top: "conv1_0/bn"
}
layer {
  name: "conv1_0"
  type: "Convolution"
  bottom: "conv1_0/bn"
  top: "conv1_0"
  convolution_param {
    num_output: 32
    bias_term: false
    pad: 1
    kernel_size: 3
    stride: 1
    weight_filler {
      type: "msra"
    }
    bias_filler {
      type: "constant"
    }
    engine: CUDNN
  }
}
layer {
  name: "concat1_0"
  type: "Concat"
  bottom: "pool0"
  bottom: "conv1_0"
  top: "concat1_0"
  concat_param {
    axis: 1
  }
}
layer {
  name: "conv1_1/bn"
  type: "BatchNorm"
  bottom: "concat1_0"
  top: "conv1_1/bn"
  param {
    lr_mult: 0
    decay_mult: 0
  }
  param {
    lr_mult: 0
    decay_mult: 0
  }
  param {
    lr_mult: 0
    decay_mult: 0
  }
}
layer {
  name: "conv1_1/scale"
  type: "Scale"
  bottom: "conv1_1/bn"
  top: "conv1_1/bn"
  scale_param {
    filler {
      value: 1
    }
    bias_term: true
    bias_filler {
      value: 0
    }
  }
}
layer {
  name: "relu1_1"
  type: "ReLU"
  bottom: "conv1_1/bn"
  top: "conv1_1/bn"
}
layer {
  name: "conv1_1"
  type: "Convolution"
  bottom: "conv1_1/bn"
  top: "conv1_1"
  convolution_param {
    num_output: 32
    bias_term: false
    pad: 1
    kernel_size: 3
    stride: 1
    weight_filler {
      type: "msra"
    }
    bias_filler {
      type: "constant"
    }
    engine: CUDNN
  }
}
layer {
  name: "concat1_1"
  type: "Concat"
  bottom: "concat1_0"
  bottom: "conv1_1"
  top: "concat1_1"
  concat_param {
    axis: 1
  }
}
layer {
  name: "conv1_2/bn"
  type: "BatchNorm"
  bottom: "concat1_1"
  top: "conv1_2/bn"
  param {
    lr_mult: 0
    decay_mult: 0
  }
  param {
    lr_mult: 0
    decay_mult: 0
  }
  param {
    lr_mult: 0
    decay_mult: 0
  }
}
layer {
  name: "conv1_2/scale"
  type: "Scale"
  bottom: "conv1_2/bn"
  top: "conv1_2/bn"
  scale_param {
    filler {
      value: 1
    }
    bias_term: true
    bias_filler {
      value: 0
    }
  }
}
layer {
  name: "relu1_2"
  type: "ReLU"
  bottom: "conv1_2/bn"
  top: "conv1_2/bn"
}
layer {
  name: "conv1_2"
  type: "Convolution"
  bottom: "conv1_2/bn"
  top: "conv1_2"
  convolution_param {
    num_output: 32
    bias_term: false
    pad: 1
    kernel_size: 3
    stride: 1
    weight_filler {
      type: "msra"
    }
    bias_filler {
      type: "constant"
    }
    engine: CUDNN
  }
}
layer {
  name: "concat1_2"
  type: "Concat"
  bottom: "concat1_1"
  bottom: "conv1_2"
  top: "concat1_2"
  concat_param {
    axis: 1
  }
}
layer {
  name: "conv1_3/bn"
  type: "BatchNorm"
  bottom: "concat1_2"
  top: "conv1_3/bn"
  param {
    lr_mult: 0
    decay_mult: 0
  }
  param {
    lr_mult: 0
    decay_mult: 0
  }
  param {
    lr_mult: 0
    decay_mult: 0
  }
}
layer {
  name: "conv1_3/scale"
  type: "Scale"
  bottom: "conv1_3/bn"
  top: "conv1_3/bn"
  scale_param {
    filler {
      value: 1
    }
    bias_term: true
    bias_filler {
      value: 0
    }
  }
}
layer {
  name: "relu1_3"
  type: "ReLU"
  bottom: "conv1_3/bn"
  top: "conv1_3/bn"
}
layer {
  name: "conv1_3"
  type: "Convolution"
  bottom: "conv1_3/bn"
  top: "conv1_3"
  convolution_param {
    num_output: 32
    bias_term: false
    pad: 1
    kernel_size: 3
    stride: 1
    weight_filler {
      type: "msra"
    }
    bias_filler {
      type: "constant"
    }
    engine: CUDNN
  }
}
layer {
  name: "concat1_3"
  type: "Concat"
  bottom: "concat1_2"
  bottom: "conv1_3"
  top: "concat1_3"
  concat_param {
    axis: 1
  }
}
layer {
  name: "conv1_4/bn"
  type: "BatchNorm"
  bottom: "concat1_3"
  top: "conv1_4/bn"
  param {
    lr_mult: 0
    decay_mult: 0
  }
  param {
    lr_mult: 0
    decay_mult: 0
  }
  param {
    lr_mult: 0
    decay_mult: 0
  }
}
layer {
  name: "conv1_4/scale"
  type: "Scale"
  bottom: "conv1_4/bn"
  top: "conv1_4/bn"
  scale_param {
    filler {
      value: 1
    }
    bias_term: true
    bias_filler {
      value: 0
    }
  }
}
layer {
  name: "relu1_4"
  type: "ReLU"
  bottom: "conv1_4/bn"
  top: "conv1_4/bn"
}
layer {
  name: "conv1_4"
  type: "Convolution"
  bottom: "conv1_4/bn"
  top: "conv1_4"
  convolution_param {
    num_output: 32
    bias_term: false
    pad: 1
    kernel_size: 3
    stride: 1
    weight_filler {
      type: "msra"
    }
    bias_filler {
      type: "constant"
    }
    engine: CUDNN
  }
}
layer {
  name: "concat1_4"
  type: "Concat"
  bottom: "concat1_3"
  bottom: "conv1_4"
  top: "concat1_4"
  concat_param {
    axis: 1
  }
}
layer {
  name: "conv1_5/bn"
  type: "BatchNorm"
  bottom: "concat1_4"
  top: "conv1_5/bn"
  param {
    lr_mult: 0
    decay_mult: 0
  }
  param {
    lr_mult: 0
    decay_mult: 0
  }
  param {
    lr_mult: 0
    decay_mult: 0
  }
}
layer {
  name: "conv1_5/scale"
  type: "Scale"
  bottom: "conv1_5/bn"
  top: "conv1_5/bn"
  scale_param {
    filler {
      value: 1
    }
    bias_term: true
    bias_filler {
      value: 0
    }
  }
}
layer {
  name: "relu1_5"
  type: "ReLU"
  bottom: "conv1_5/bn"
  top: "conv1_5/bn"
}
layer {
  name: "conv1_5"
  type: "Convolution"
  bottom: "conv1_5/bn"
  top: "conv1_5"
  convolution_param {
    num_output: 32
    bias_term: false
    pad: 1
    kernel_size: 3
    stride: 1
    weight_filler {
      type: "msra"
    }
    bias_filler {
      type: "constant"
    }
    engine: CUDNN
  }
}
layer {
  name: "concat1_5"
  type: "Concat"
  bottom: "concat1_4"
  bottom: "conv1_5"
  top: "concat1_5"
  concat_param {
    axis: 1
  }
}
layer {
  name: "conv1_6/bn"
  type: "BatchNorm"
  bottom: "concat1_5"
  top: "conv1_6/bn"
  param {
    lr_mult: 0
    decay_mult: 0
  }
  param {
    lr_mult: 0
    decay_mult: 0
  }
  param {
    lr_mult: 0
    decay_mult: 0
  }
}
layer {
  name: "conv1_6/scale"
  type: "Scale"
  bottom: "conv1_6/bn"
  top: "conv1_6/bn"
  scale_param {
    filler {
      value: 1
    }
    bias_term: true
    bias_filler {
      value: 0
    }
  }
}
layer {
  name: "relu1_6"
  type: "ReLU"
  bottom: "conv1_6/bn"
  top: "conv1_6/bn"
}
layer {
  name: "conv1_6"
  type: "Convolution"
  bottom: "conv1_6/bn"
  top: "conv1_6"
  convolution_param {
    num_output: 32
    bias_term: false
    pad: 1
    kernel_size: 3
    stride: 1
    weight_filler {
      type: "msra"
    }
    bias_filler {
      type: "constant"
    }
    engine: CUDNN
  }
}
layer {
  name: "concat1_6"
  type: "Concat"
  bottom: "concat1_5"
  bottom: "conv1_6"
  top: "concat1_6"
  concat_param {
    axis: 1
  }
}
layer {
  name: "conv1_7/bn"
  type: "BatchNorm"
  bottom: "concat1_6"
  top: "conv1_7/bn"
  param {
    lr_mult: 0
    decay_mult: 0
  }
  param {
    lr_mult: 0
    decay_mult: 0
  }
  param {
    lr_mult: 0
    decay_mult: 0
  }
}
layer {
  name: "conv1_7/scale"
  type: "Scale"
  bottom: "conv1_7/bn"
  top: "conv1_7/bn"
  scale_param {
    filler {
      value: 1
    }
    bias_term: true
    bias_filler {
      value: 0
    }
  }
}
layer {
  name: "relu1_7"
  type: "ReLU"
  bottom: "conv1_7/bn"
  top: "conv1_7/bn"
}
layer {
  name: "conv1_7"
  type: "Convolution"
  bottom: "conv1_7/bn"
  top: "conv1_7"
  convolution_param {
    num_output: 32
    bias_term: false
    pad: 1
    kernel_size: 3
    stride: 1
    weight_filler {
      type: "msra"
    }
    bias_filler {
      type: "constant"
    }
    engine: CUDNN
  }
}
layer {
  name: "concat1_7"
  type: "Concat"
  bottom: "concat1_6"
  bottom: "conv1_7"
  top: "concat1_7"
  concat_param {
    axis: 1
  }
}
layer {
  name: "conv1_8/bn"
  type: "BatchNorm"
  bottom: "concat1_7"
  top: "conv1_8/bn"
  param {
    lr_mult: 0
    decay_mult: 0
  }
  param {
    lr_mult: 0
    decay_mult: 0
  }
  param {
    lr_mult: 0
    decay_mult: 0
  }
}
layer {
  name: "conv1_8/scale"
  type: "Scale"
  bottom: "conv1_8/bn"
  top: "conv1_8/bn"
  scale_param {
    filler {
      value: 1
    }
    bias_term: true
    bias_filler {
      value: 0
    }
  }
}
layer {
  name: "relu1_8"
  type: "ReLU"
  bottom: "conv1_8/bn"
  top: "conv1_8/bn"
}
layer {
  name: "conv1_8"
  type: "Convolution"
  bottom: "conv1_8/bn"
  top: "conv1_8"
  convolution_param {
    num_output: 32
    bias_term: false
    pad: 1
    kernel_size: 3
    stride: 1
    weight_filler {
      type: "msra"
    }
    bias_filler {
      type: "constant"
    }
    engine: CUDNN
  }
}
layer {
  name: "concat1_8"
  type: "Concat"
  bottom: "concat1_7"
  bottom: "conv1_8"
  top: "concat1_8"
  concat_param {
    axis: 1
  }
}
layer {
  name: "conv1_9/bn"
  type: "BatchNorm"
  bottom: "concat1_8"
  top: "conv1_9/bn"
  param {
    lr_mult: 0
    decay_mult: 0
  }
  param {
    lr_mult: 0
    decay_mult: 0
  }
  param {
    lr_mult: 0
    decay_mult: 0
  }
}
layer {
  name: "conv1_9/scale"
  type: "Scale"
  bottom: "conv1_9/bn"
  top: "conv1_9/bn"
  scale_param {
    filler {
      value: 1
    }
    bias_term: true
    bias_filler {
      value: 0
    }
  }
}
layer {
  name: "relu1_9"
  type: "ReLU"
  bottom: "conv1_9/bn"
  top: "conv1_9/bn"
}
layer {
  name: "conv1_9"
  type: "Convolution"
  bottom: "conv1_9/bn"
  top: "conv1_9"
  convolution_param {
    num_output: 32
    bias_term: false
    pad: 1
    kernel_size: 3
    stride: 1
    weight_filler {
      type: "msra"
    }
    bias_filler {
      type: "constant"
    }
    engine: CUDNN
  }
}
layer {
  name: "concat1_9"
  type: "Concat"
  bottom: "concat1_8"
  bottom: "conv1_9"
  top: "concat1_9"
  concat_param {
    axis: 1
  }
}
layer {
  name: "conv1_10/bn"
  type: "BatchNorm"
  bottom: "concat1_9"
  top: "conv1_10/bn"
  param {
    lr_mult: 0
    decay_mult: 0
  }
  param {
    lr_mult: 0
    decay_mult: 0
  }
  param {
    lr_mult: 0
    decay_mult: 0
  }
}
layer {
  name: "conv1_10/scale"
  type: "Scale"
  bottom: "conv1_10/bn"
  top: "conv1_10/bn"
  scale_param {
    filler {
      value: 1
    }
    bias_term: true
    bias_filler {
      value: 0
    }
  }
}
layer {
  name: "relu1_10"
  type: "ReLU"
  bottom: "conv1_10/bn"
  top: "conv1_10/bn"
}
layer {
  name: "conv1_10"
  type: "Convolution"
  bottom: "conv1_10/bn"
  top: "conv1_10"
  convolution_param {
    num_output: 32
    bias_term: false
    pad: 1
    kernel_size: 3
    stride: 1
    weight_filler {
      type: "msra"
    }
    bias_filler {
      type: "constant"
    }
    engine: CUDNN
  }
}
layer {
  name: "concat1_10"
  type: "Concat"
  bottom: "concat1_9"
  bottom: "conv1_10"
  top: "concat1_10"
  concat_param {
    axis: 1
  }
}
layer {
  name: "conv1_11/bn"
  type: "BatchNorm"
  bottom: "concat1_10"
  top: "conv1_11/bn"
  param {
    lr_mult: 0
    decay_mult: 0
  }
  param {
    lr_mult: 0
    decay_mult: 0
  }
  param {
    lr_mult: 0
    decay_mult: 0
  }
}
layer {
  name: "conv1_11/scale"
  type: "Scale"
  bottom: "conv1_11/bn"
  top: "conv1_11/bn"
  scale_param {
    filler {
      value: 1
    }
    bias_term: true
    bias_filler {
      value: 0
    }
  }
}
layer {
  name: "relu1_11"
  type: "ReLU"
  bottom: "conv1_11/bn"
  top: "conv1_11/bn"
}
layer {
  name: "conv1_11"
  type: "Convolution"
  bottom: "conv1_11/bn"
  top: "conv1_11"
  convolution_param {
    num_output: 32
    bias_term: false
    pad: 1
    kernel_size: 3
    stride: 1
    weight_filler {
      type: "msra"
    }
    bias_filler {
      type: "constant"
    }
    engine: CUDNN
  }
}
layer {
  name: "concat1_11"
  type: "Concat"
  bottom: "concat1_10"
  bottom: "conv1_11"
  top: "concat1_11"
  concat_param {
    axis: 1
  }
}
layer {
  name: "tpp5"
  type: "TPP"
  bottom: "concat1_11"
  top: "tpp5"
  tpp_param {
    pyramid_layer: 1
    pyramid_layer: 2
    pyramid_layer: 3
    pyramid_layer: 4
    pyramid_layer: 5
    pool: MAX
    engine: CUDNN
  }
}
layer {
  name: "fc6_d"
  type: "InnerProduct"
  bottom: "tpp5"
  top: "fc6_d"
  inner_product_param {
    num_output: 4096
    weight_filler {
      type: "msra"
    }
    bias_filler {
      type: "constant"
    }
  }
}
layer {
  name: "relu6"
  type: "ReLU"
  bottom: "fc6_d"
  top: "fc6_d"
}
layer {
  name: "fc7_d"
  type: "InnerProduct"
  bottom: "fc6_d"
  top: "fc7_d"
  inner_product_param {
    num_output: 4096
    weight_filler {
      type: "msra"
    }
    bias_filler {
      type: "constant"
    }
  }
}
layer {
  name: "relu7"
  type: "ReLU"
  bottom: "fc7_d"
  top: "fc7_d"
}
layer {
  name: "fc8_d"
  type: "InnerProduct"
  bottom: "fc7_d"
  top: "fc8_d"
  inner_product_param {
    num_output: 604
    weight_filler {
      type: "msra"
    }
    bias_filler {
      type: "constant"
    }
  }
}
layer {
  name: "sigmoid"
  type: "Sigmoid"
  bottom: "fc8_d"
  top: "sigmoid"
  include {
    phase: TEST
  }
}
layer {
  name: "silence"
  type: "Silence"
  bottom: "sigmoid"
  include {
    phase: TEST
  }
}
layer {
  name: "loss"
  type: "SigmoidCrossEntropyLoss"
  bottom: "fc8_d"
  bottom: "phocs"
  top: "loss"
}
I1210 16:23:23.951397  9763 layer_factory.hpp:77] Creating layer word_images
I1210 16:23:23.951476  9763 db_lmdb.cpp:35] Opened lmdb /data/fwolf/min26/gw_cv1_nti500000_pul2-3-4-5_test_word_images_lmdb
I1210 16:23:23.951505  9763 net.cpp:84] Creating Layer word_images
I1210 16:23:23.951514  9763 net.cpp:380] word_images -> word_images
I1210 16:23:23.951524  9763 net.cpp:380] word_images -> label
I1210 16:23:23.991858  9763 data_layer.cpp:44] output data size: 1,1,66,139
I1210 16:23:24.015007  9763 net.cpp:122] Setting up word_images
I1210 16:23:24.015044  9763 net.cpp:129] Top shape: 1 1 66 139 (9174)
I1210 16:23:24.015050  9763 net.cpp:129] Top shape: 1 (1)
I1210 16:23:24.015054  9763 net.cpp:137] Memory required for data: 36700
I1210 16:23:24.015063  9763 layer_factory.hpp:77] Creating layer phocs
I1210 16:23:24.015141  9763 db_lmdb.cpp:35] Opened lmdb /data/fwolf/min26/gw_cv1_nti500000_pul2-3-4-5_test_phocs_lmdb
I1210 16:23:24.015173  9763 net.cpp:84] Creating Layer phocs
I1210 16:23:24.015182  9763 net.cpp:380] phocs -> phocs
I1210 16:23:24.015197  9763 net.cpp:380] phocs -> label_phocs
I1210 16:23:24.015882  9763 data_layer.cpp:44] output data size: 1,1,1,604
I1210 16:23:24.020979  9763 net.cpp:122] Setting up phocs
I1210 16:23:24.021009  9763 net.cpp:129] Top shape: 1 1 1 604 (604)
I1210 16:23:24.021015  9763 net.cpp:129] Top shape: 1 (1)
I1210 16:23:24.021018  9763 net.cpp:137] Memory required for data: 39120
I1210 16:23:24.021025  9763 layer_factory.hpp:77] Creating layer conv_init
I1210 16:23:24.021045  9763 net.cpp:84] Creating Layer conv_init
I1210 16:23:24.021050  9763 net.cpp:406] conv_init <- word_images
I1210 16:23:24.021062  9763 net.cpp:380] conv_init -> conv_init
I1210 16:23:24.024227  9763 net.cpp:122] Setting up conv_init
I1210 16:23:24.024247  9763 net.cpp:129] Top shape: 1 32 66 139 (293568)
I1210 16:23:24.024250  9763 net.cpp:137] Memory required for data: 1213392
I1210 16:23:24.024260  9763 layer_factory.hpp:77] Creating layer bn_init
I1210 16:23:24.024268  9763 net.cpp:84] Creating Layer bn_init
I1210 16:23:24.024271  9763 net.cpp:406] bn_init <- conv_init
I1210 16:23:24.024277  9763 net.cpp:380] bn_init -> bn_init
I1210 16:23:24.024899  9763 net.cpp:122] Setting up bn_init
I1210 16:23:24.024906  9763 net.cpp:129] Top shape: 1 32 66 139 (293568)
I1210 16:23:24.024909  9763 net.cpp:137] Memory required for data: 2387664
I1210 16:23:24.024917  9763 layer_factory.hpp:77] Creating layer scale_init
I1210 16:23:24.024926  9763 net.cpp:84] Creating Layer scale_init
I1210 16:23:24.024930  9763 net.cpp:406] scale_init <- bn_init
I1210 16:23:24.024933  9763 net.cpp:367] scale_init -> bn_init (in-place)
I1210 16:23:24.025013  9763 layer_factory.hpp:77] Creating layer scale_init
I1210 16:23:24.025264  9763 net.cpp:122] Setting up scale_init
I1210 16:23:24.025270  9763 net.cpp:129] Top shape: 1 32 66 139 (293568)
I1210 16:23:24.025274  9763 net.cpp:137] Memory required for data: 3561936
I1210 16:23:24.025280  9763 layer_factory.hpp:77] Creating layer relu_init
I1210 16:23:24.025286  9763 net.cpp:84] Creating Layer relu_init
I1210 16:23:24.025290  9763 net.cpp:406] relu_init <- bn_init
I1210 16:23:24.025293  9763 net.cpp:367] relu_init -> bn_init (in-place)
I1210 16:23:24.025519  9763 net.cpp:122] Setting up relu_init
I1210 16:23:24.025528  9763 net.cpp:129] Top shape: 1 32 66 139 (293568)
I1210 16:23:24.025534  9763 net.cpp:137] Memory required for data: 4736208
I1210 16:23:24.025537  9763 layer_factory.hpp:77] Creating layer pool_init
I1210 16:23:24.025543  9763 net.cpp:84] Creating Layer pool_init
I1210 16:23:24.025545  9763 net.cpp:406] pool_init <- bn_init
I1210 16:23:24.025550  9763 net.cpp:380] pool_init -> pool_init
I1210 16:23:24.025624  9763 net.cpp:122] Setting up pool_init
I1210 16:23:24.025629  9763 net.cpp:129] Top shape: 1 32 34 70 (76160)
I1210 16:23:24.025631  9763 net.cpp:137] Memory required for data: 5040848
I1210 16:23:24.025634  9763 layer_factory.hpp:77] Creating layer pool_init_pool_init_0_split
I1210 16:23:24.025638  9763 net.cpp:84] Creating Layer pool_init_pool_init_0_split
I1210 16:23:24.025640  9763 net.cpp:406] pool_init_pool_init_0_split <- pool_init
I1210 16:23:24.025645  9763 net.cpp:380] pool_init_pool_init_0_split -> pool_init_pool_init_0_split_0
I1210 16:23:24.025650  9763 net.cpp:380] pool_init_pool_init_0_split -> pool_init_pool_init_0_split_1
I1210 16:23:24.025710  9763 net.cpp:122] Setting up pool_init_pool_init_0_split
I1210 16:23:24.025715  9763 net.cpp:129] Top shape: 1 32 34 70 (76160)
I1210 16:23:24.025719  9763 net.cpp:129] Top shape: 1 32 34 70 (76160)
I1210 16:23:24.025722  9763 net.cpp:137] Memory required for data: 5650128
I1210 16:23:24.025723  9763 layer_factory.hpp:77] Creating layer conv0_0/bn
I1210 16:23:24.025729  9763 net.cpp:84] Creating Layer conv0_0/bn
I1210 16:23:24.025732  9763 net.cpp:406] conv0_0/bn <- pool_init_pool_init_0_split_0
I1210 16:23:24.025737  9763 net.cpp:380] conv0_0/bn -> conv0_0/bn
I1210 16:23:24.026079  9763 net.cpp:122] Setting up conv0_0/bn
I1210 16:23:24.026085  9763 net.cpp:129] Top shape: 1 32 34 70 (76160)
I1210 16:23:24.026087  9763 net.cpp:137] Memory required for data: 5954768
I1210 16:23:24.026095  9763 layer_factory.hpp:77] Creating layer conv0_0/scale
I1210 16:23:24.026100  9763 net.cpp:84] Creating Layer conv0_0/scale
I1210 16:23:24.026103  9763 net.cpp:406] conv0_0/scale <- conv0_0/bn
I1210 16:23:24.026108  9763 net.cpp:367] conv0_0/scale -> conv0_0/bn (in-place)
I1210 16:23:24.026170  9763 layer_factory.hpp:77] Creating layer conv0_0/scale
I1210 16:23:24.026376  9763 net.cpp:122] Setting up conv0_0/scale
I1210 16:23:24.026381  9763 net.cpp:129] Top shape: 1 32 34 70 (76160)
I1210 16:23:24.026384  9763 net.cpp:137] Memory required for data: 6259408
I1210 16:23:24.026388  9763 layer_factory.hpp:77] Creating layer relu0_0
I1210 16:23:24.026393  9763 net.cpp:84] Creating Layer relu0_0
I1210 16:23:24.026396  9763 net.cpp:406] relu0_0 <- conv0_0/bn
I1210 16:23:24.026399  9763 net.cpp:367] relu0_0 -> conv0_0/bn (in-place)
I1210 16:23:24.026759  9763 net.cpp:122] Setting up relu0_0
I1210 16:23:24.026769  9763 net.cpp:129] Top shape: 1 32 34 70 (76160)
I1210 16:23:24.026772  9763 net.cpp:137] Memory required for data: 6564048
I1210 16:23:24.026774  9763 layer_factory.hpp:77] Creating layer conv0_0
I1210 16:23:24.026784  9763 net.cpp:84] Creating Layer conv0_0
I1210 16:23:24.026787  9763 net.cpp:406] conv0_0 <- conv0_0/bn
I1210 16:23:24.026793  9763 net.cpp:380] conv0_0 -> conv0_0
I1210 16:23:24.028599  9763 net.cpp:122] Setting up conv0_0
I1210 16:23:24.028615  9763 net.cpp:129] Top shape: 1 32 34 70 (76160)
I1210 16:23:24.028620  9763 net.cpp:137] Memory required for data: 6868688
I1210 16:23:24.028626  9763 layer_factory.hpp:77] Creating layer concat0_0
I1210 16:23:24.028635  9763 net.cpp:84] Creating Layer concat0_0
I1210 16:23:24.028640  9763 net.cpp:406] concat0_0 <- pool_init_pool_init_0_split_1
I1210 16:23:24.028645  9763 net.cpp:406] concat0_0 <- conv0_0
I1210 16:23:24.028650  9763 net.cpp:380] concat0_0 -> concat0_0
I1210 16:23:24.028704  9763 net.cpp:122] Setting up concat0_0
I1210 16:23:24.028713  9763 net.cpp:129] Top shape: 1 64 34 70 (152320)
I1210 16:23:24.028717  9763 net.cpp:137] Memory required for data: 7477968
I1210 16:23:24.028720  9763 layer_factory.hpp:77] Creating layer concat0_0_concat0_0_0_split
I1210 16:23:24.028726  9763 net.cpp:84] Creating Layer concat0_0_concat0_0_0_split
I1210 16:23:24.028734  9763 net.cpp:406] concat0_0_concat0_0_0_split <- concat0_0
I1210 16:23:24.028740  9763 net.cpp:380] concat0_0_concat0_0_0_split -> concat0_0_concat0_0_0_split_0
I1210 16:23:24.028748  9763 net.cpp:380] concat0_0_concat0_0_0_split -> concat0_0_concat0_0_0_split_1
I1210 16:23:24.028826  9763 net.cpp:122] Setting up concat0_0_concat0_0_0_split
I1210 16:23:24.028834  9763 net.cpp:129] Top shape: 1 64 34 70 (152320)
I1210 16:23:24.028839  9763 net.cpp:129] Top shape: 1 64 34 70 (152320)
I1210 16:23:24.028843  9763 net.cpp:137] Memory required for data: 8696528
I1210 16:23:24.028847  9763 layer_factory.hpp:77] Creating layer conv0_1/bn
I1210 16:23:24.028853  9763 net.cpp:84] Creating Layer conv0_1/bn
I1210 16:23:24.028857  9763 net.cpp:406] conv0_1/bn <- concat0_0_concat0_0_0_split_0
I1210 16:23:24.028864  9763 net.cpp:380] conv0_1/bn -> conv0_1/bn
I1210 16:23:24.029333  9763 net.cpp:122] Setting up conv0_1/bn
I1210 16:23:24.029342  9763 net.cpp:129] Top shape: 1 64 34 70 (152320)
I1210 16:23:24.029346  9763 net.cpp:137] Memory required for data: 9305808
I1210 16:23:24.029356  9763 layer_factory.hpp:77] Creating layer conv0_1/scale
I1210 16:23:24.029363  9763 net.cpp:84] Creating Layer conv0_1/scale
I1210 16:23:24.029368  9763 net.cpp:406] conv0_1/scale <- conv0_1/bn
I1210 16:23:24.029376  9763 net.cpp:367] conv0_1/scale -> conv0_1/bn (in-place)
I1210 16:23:24.029458  9763 layer_factory.hpp:77] Creating layer conv0_1/scale
I1210 16:23:24.029717  9763 net.cpp:122] Setting up conv0_1/scale
I1210 16:23:24.029726  9763 net.cpp:129] Top shape: 1 64 34 70 (152320)
I1210 16:23:24.029731  9763 net.cpp:137] Memory required for data: 9915088
I1210 16:23:24.029741  9763 layer_factory.hpp:77] Creating layer relu0_1
I1210 16:23:24.029747  9763 net.cpp:84] Creating Layer relu0_1
I1210 16:23:24.029752  9763 net.cpp:406] relu0_1 <- conv0_1/bn
I1210 16:23:24.029759  9763 net.cpp:367] relu0_1 -> conv0_1/bn (in-place)
I1210 16:23:24.030194  9763 net.cpp:122] Setting up relu0_1
I1210 16:23:24.030207  9763 net.cpp:129] Top shape: 1 64 34 70 (152320)
I1210 16:23:24.030211  9763 net.cpp:137] Memory required for data: 10524368
I1210 16:23:24.030215  9763 layer_factory.hpp:77] Creating layer conv0_1
I1210 16:23:24.030226  9763 net.cpp:84] Creating Layer conv0_1
I1210 16:23:24.030231  9763 net.cpp:406] conv0_1 <- conv0_1/bn
I1210 16:23:24.030239  9763 net.cpp:380] conv0_1 -> conv0_1
I1210 16:23:24.032670  9763 net.cpp:122] Setting up conv0_1
I1210 16:23:24.032683  9763 net.cpp:129] Top shape: 1 32 34 70 (76160)
I1210 16:23:24.032688  9763 net.cpp:137] Memory required for data: 10829008
I1210 16:23:24.032694  9763 layer_factory.hpp:77] Creating layer concat0_1
I1210 16:23:24.032702  9763 net.cpp:84] Creating Layer concat0_1
I1210 16:23:24.032707  9763 net.cpp:406] concat0_1 <- concat0_0_concat0_0_0_split_1
I1210 16:23:24.032712  9763 net.cpp:406] concat0_1 <- conv0_1
I1210 16:23:24.032719  9763 net.cpp:380] concat0_1 -> concat0_1
I1210 16:23:24.032776  9763 net.cpp:122] Setting up concat0_1
I1210 16:23:24.032784  9763 net.cpp:129] Top shape: 1 96 34 70 (228480)
I1210 16:23:24.032788  9763 net.cpp:137] Memory required for data: 11742928
I1210 16:23:24.032793  9763 layer_factory.hpp:77] Creating layer concat0_1_concat0_1_0_split
I1210 16:23:24.032799  9763 net.cpp:84] Creating Layer concat0_1_concat0_1_0_split
I1210 16:23:24.032804  9763 net.cpp:406] concat0_1_concat0_1_0_split <- concat0_1
I1210 16:23:24.032809  9763 net.cpp:380] concat0_1_concat0_1_0_split -> concat0_1_concat0_1_0_split_0
I1210 16:23:24.032816  9763 net.cpp:380] concat0_1_concat0_1_0_split -> concat0_1_concat0_1_0_split_1
I1210 16:23:24.032897  9763 net.cpp:122] Setting up concat0_1_concat0_1_0_split
I1210 16:23:24.032907  9763 net.cpp:129] Top shape: 1 96 34 70 (228480)
I1210 16:23:24.032912  9763 net.cpp:129] Top shape: 1 96 34 70 (228480)
I1210 16:23:24.032915  9763 net.cpp:137] Memory required for data: 13570768
I1210 16:23:24.032919  9763 layer_factory.hpp:77] Creating layer conv0_2/bn
I1210 16:23:24.032927  9763 net.cpp:84] Creating Layer conv0_2/bn
I1210 16:23:24.032933  9763 net.cpp:406] conv0_2/bn <- concat0_1_concat0_1_0_split_0
I1210 16:23:24.032939  9763 net.cpp:380] conv0_2/bn -> conv0_2/bn
I1210 16:23:24.033416  9763 net.cpp:122] Setting up conv0_2/bn
I1210 16:23:24.033426  9763 net.cpp:129] Top shape: 1 96 34 70 (228480)
I1210 16:23:24.033429  9763 net.cpp:137] Memory required for data: 14484688
I1210 16:23:24.033438  9763 layer_factory.hpp:77] Creating layer conv0_2/scale
I1210 16:23:24.033447  9763 net.cpp:84] Creating Layer conv0_2/scale
I1210 16:23:24.033452  9763 net.cpp:406] conv0_2/scale <- conv0_2/bn
I1210 16:23:24.033457  9763 net.cpp:367] conv0_2/scale -> conv0_2/bn (in-place)
I1210 16:23:24.033540  9763 layer_factory.hpp:77] Creating layer conv0_2/scale
I1210 16:23:24.033805  9763 net.cpp:122] Setting up conv0_2/scale
I1210 16:23:24.033813  9763 net.cpp:129] Top shape: 1 96 34 70 (228480)
I1210 16:23:24.033818  9763 net.cpp:137] Memory required for data: 15398608
I1210 16:23:24.033824  9763 layer_factory.hpp:77] Creating layer relu0_2
I1210 16:23:24.033831  9763 net.cpp:84] Creating Layer relu0_2
I1210 16:23:24.033835  9763 net.cpp:406] relu0_2 <- conv0_2/bn
I1210 16:23:24.033841  9763 net.cpp:367] relu0_2 -> conv0_2/bn (in-place)
I1210 16:23:24.034085  9763 net.cpp:122] Setting up relu0_2
I1210 16:23:24.034095  9763 net.cpp:129] Top shape: 1 96 34 70 (228480)
I1210 16:23:24.034098  9763 net.cpp:137] Memory required for data: 16312528
I1210 16:23:24.034102  9763 layer_factory.hpp:77] Creating layer conv0_2
I1210 16:23:24.034113  9763 net.cpp:84] Creating Layer conv0_2
I1210 16:23:24.034118  9763 net.cpp:406] conv0_2 <- conv0_2/bn
I1210 16:23:24.034126  9763 net.cpp:380] conv0_2 -> conv0_2
I1210 16:23:24.036710  9763 net.cpp:122] Setting up conv0_2
I1210 16:23:24.036725  9763 net.cpp:129] Top shape: 1 32 34 70 (76160)
I1210 16:23:24.036729  9763 net.cpp:137] Memory required for data: 16617168
I1210 16:23:24.036736  9763 layer_factory.hpp:77] Creating layer concat0_2
I1210 16:23:24.036746  9763 net.cpp:84] Creating Layer concat0_2
I1210 16:23:24.036751  9763 net.cpp:406] concat0_2 <- concat0_1_concat0_1_0_split_1
I1210 16:23:24.036756  9763 net.cpp:406] concat0_2 <- conv0_2
I1210 16:23:24.036763  9763 net.cpp:380] concat0_2 -> concat0_2
I1210 16:23:24.036815  9763 net.cpp:122] Setting up concat0_2
I1210 16:23:24.036825  9763 net.cpp:129] Top shape: 1 128 34 70 (304640)
I1210 16:23:24.036828  9763 net.cpp:137] Memory required for data: 17835728
I1210 16:23:24.036833  9763 layer_factory.hpp:77] Creating layer concat0_2_concat0_2_0_split
I1210 16:23:24.036839  9763 net.cpp:84] Creating Layer concat0_2_concat0_2_0_split
I1210 16:23:24.036844  9763 net.cpp:406] concat0_2_concat0_2_0_split <- concat0_2
I1210 16:23:24.036849  9763 net.cpp:380] concat0_2_concat0_2_0_split -> concat0_2_concat0_2_0_split_0
I1210 16:23:24.036855  9763 net.cpp:380] concat0_2_concat0_2_0_split -> concat0_2_concat0_2_0_split_1
I1210 16:23:24.036933  9763 net.cpp:122] Setting up concat0_2_concat0_2_0_split
I1210 16:23:24.036942  9763 net.cpp:129] Top shape: 1 128 34 70 (304640)
I1210 16:23:24.036947  9763 net.cpp:129] Top shape: 1 128 34 70 (304640)
I1210 16:23:24.036950  9763 net.cpp:137] Memory required for data: 20272848
I1210 16:23:24.036954  9763 layer_factory.hpp:77] Creating layer conv0_3/bn
I1210 16:23:24.036962  9763 net.cpp:84] Creating Layer conv0_3/bn
I1210 16:23:24.036967  9763 net.cpp:406] conv0_3/bn <- concat0_2_concat0_2_0_split_0
I1210 16:23:24.036973  9763 net.cpp:380] conv0_3/bn -> conv0_3/bn
I1210 16:23:24.037441  9763 net.cpp:122] Setting up conv0_3/bn
I1210 16:23:24.037449  9763 net.cpp:129] Top shape: 1 128 34 70 (304640)
I1210 16:23:24.037453  9763 net.cpp:137] Memory required for data: 21491408
I1210 16:23:24.037463  9763 layer_factory.hpp:77] Creating layer conv0_3/scale
I1210 16:23:24.037472  9763 net.cpp:84] Creating Layer conv0_3/scale
I1210 16:23:24.037477  9763 net.cpp:406] conv0_3/scale <- conv0_3/bn
I1210 16:23:24.037482  9763 net.cpp:367] conv0_3/scale -> conv0_3/bn (in-place)
I1210 16:23:24.037562  9763 layer_factory.hpp:77] Creating layer conv0_3/scale
I1210 16:23:24.037820  9763 net.cpp:122] Setting up conv0_3/scale
I1210 16:23:24.037829  9763 net.cpp:129] Top shape: 1 128 34 70 (304640)
I1210 16:23:24.037833  9763 net.cpp:137] Memory required for data: 22709968
I1210 16:23:24.037840  9763 layer_factory.hpp:77] Creating layer relu0_3
I1210 16:23:24.037847  9763 net.cpp:84] Creating Layer relu0_3
I1210 16:23:24.037853  9763 net.cpp:406] relu0_3 <- conv0_3/bn
I1210 16:23:24.037863  9763 net.cpp:367] relu0_3 -> conv0_3/bn (in-place)
I1210 16:23:24.038316  9763 net.cpp:122] Setting up relu0_3
I1210 16:23:24.038328  9763 net.cpp:129] Top shape: 1 128 34 70 (304640)
I1210 16:23:24.038332  9763 net.cpp:137] Memory required for data: 23928528
I1210 16:23:24.038337  9763 layer_factory.hpp:77] Creating layer conv0_3
I1210 16:23:24.038349  9763 net.cpp:84] Creating Layer conv0_3
I1210 16:23:24.038353  9763 net.cpp:406] conv0_3 <- conv0_3/bn
I1210 16:23:24.038362  9763 net.cpp:380] conv0_3 -> conv0_3
I1210 16:23:24.041716  9763 net.cpp:122] Setting up conv0_3
I1210 16:23:24.041750  9763 net.cpp:129] Top shape: 1 32 34 70 (76160)
I1210 16:23:24.041755  9763 net.cpp:137] Memory required for data: 24233168
I1210 16:23:24.041765  9763 layer_factory.hpp:77] Creating layer concat0_3
I1210 16:23:24.041779  9763 net.cpp:84] Creating Layer concat0_3
I1210 16:23:24.041786  9763 net.cpp:406] concat0_3 <- concat0_2_concat0_2_0_split_1
I1210 16:23:24.041793  9763 net.cpp:406] concat0_3 <- conv0_3
I1210 16:23:24.041800  9763 net.cpp:380] concat0_3 -> concat0_3
I1210 16:23:24.041865  9763 net.cpp:122] Setting up concat0_3
I1210 16:23:24.041873  9763 net.cpp:129] Top shape: 1 160 34 70 (380800)
I1210 16:23:24.041877  9763 net.cpp:137] Memory required for data: 25756368
I1210 16:23:24.041882  9763 layer_factory.hpp:77] Creating layer concat0_3_concat0_3_0_split
I1210 16:23:24.041888  9763 net.cpp:84] Creating Layer concat0_3_concat0_3_0_split
I1210 16:23:24.041893  9763 net.cpp:406] concat0_3_concat0_3_0_split <- concat0_3
I1210 16:23:24.041898  9763 net.cpp:380] concat0_3_concat0_3_0_split -> concat0_3_concat0_3_0_split_0
I1210 16:23:24.041904  9763 net.cpp:380] concat0_3_concat0_3_0_split -> concat0_3_concat0_3_0_split_1
I1210 16:23:24.041988  9763 net.cpp:122] Setting up concat0_3_concat0_3_0_split
I1210 16:23:24.041997  9763 net.cpp:129] Top shape: 1 160 34 70 (380800)
I1210 16:23:24.042003  9763 net.cpp:129] Top shape: 1 160 34 70 (380800)
I1210 16:23:24.042006  9763 net.cpp:137] Memory required for data: 28802768
I1210 16:23:24.042011  9763 layer_factory.hpp:77] Creating layer conv0_4/bn
I1210 16:23:24.042019  9763 net.cpp:84] Creating Layer conv0_4/bn
I1210 16:23:24.042024  9763 net.cpp:406] conv0_4/bn <- concat0_3_concat0_3_0_split_0
I1210 16:23:24.042032  9763 net.cpp:380] conv0_4/bn -> conv0_4/bn
I1210 16:23:24.042563  9763 net.cpp:122] Setting up conv0_4/bn
I1210 16:23:24.042572  9763 net.cpp:129] Top shape: 1 160 34 70 (380800)
I1210 16:23:24.042577  9763 net.cpp:137] Memory required for data: 30325968
I1210 16:23:24.042592  9763 layer_factory.hpp:77] Creating layer conv0_4/scale
I1210 16:23:24.042601  9763 net.cpp:84] Creating Layer conv0_4/scale
I1210 16:23:24.042606  9763 net.cpp:406] conv0_4/scale <- conv0_4/bn
I1210 16:23:24.042614  9763 net.cpp:367] conv0_4/scale -> conv0_4/bn (in-place)
I1210 16:23:24.042703  9763 layer_factory.hpp:77] Creating layer conv0_4/scale
I1210 16:23:24.042982  9763 net.cpp:122] Setting up conv0_4/scale
I1210 16:23:24.042991  9763 net.cpp:129] Top shape: 1 160 34 70 (380800)
I1210 16:23:24.042995  9763 net.cpp:137] Memory required for data: 31849168
I1210 16:23:24.043004  9763 layer_factory.hpp:77] Creating layer relu0_4
I1210 16:23:24.043012  9763 net.cpp:84] Creating Layer relu0_4
I1210 16:23:24.043016  9763 net.cpp:406] relu0_4 <- conv0_4/bn
I1210 16:23:24.043022  9763 net.cpp:367] relu0_4 -> conv0_4/bn (in-place)
I1210 16:23:24.043336  9763 net.cpp:122] Setting up relu0_4
I1210 16:23:24.043347  9763 net.cpp:129] Top shape: 1 160 34 70 (380800)
I1210 16:23:24.043351  9763 net.cpp:137] Memory required for data: 33372368
I1210 16:23:24.043362  9763 layer_factory.hpp:77] Creating layer conv0_4
I1210 16:23:24.043375  9763 net.cpp:84] Creating Layer conv0_4
I1210 16:23:24.043378  9763 net.cpp:406] conv0_4 <- conv0_4/bn
I1210 16:23:24.043385  9763 net.cpp:380] conv0_4 -> conv0_4
I1210 16:23:24.046967  9763 net.cpp:122] Setting up conv0_4
I1210 16:23:24.046984  9763 net.cpp:129] Top shape: 1 32 34 70 (76160)
I1210 16:23:24.046989  9763 net.cpp:137] Memory required for data: 33677008
I1210 16:23:24.046998  9763 layer_factory.hpp:77] Creating layer concat0_4
I1210 16:23:24.047008  9763 net.cpp:84] Creating Layer concat0_4
I1210 16:23:24.047013  9763 net.cpp:406] concat0_4 <- concat0_3_concat0_3_0_split_1
I1210 16:23:24.047019  9763 net.cpp:406] concat0_4 <- conv0_4
I1210 16:23:24.047025  9763 net.cpp:380] concat0_4 -> concat0_4
I1210 16:23:24.047085  9763 net.cpp:122] Setting up concat0_4
I1210 16:23:24.047093  9763 net.cpp:129] Top shape: 1 192 34 70 (456960)
I1210 16:23:24.047096  9763 net.cpp:137] Memory required for data: 35504848
I1210 16:23:24.047101  9763 layer_factory.hpp:77] Creating layer concat0_4_concat0_4_0_split
I1210 16:23:24.047109  9763 net.cpp:84] Creating Layer concat0_4_concat0_4_0_split
I1210 16:23:24.047113  9763 net.cpp:406] concat0_4_concat0_4_0_split <- concat0_4
I1210 16:23:24.047118  9763 net.cpp:380] concat0_4_concat0_4_0_split -> concat0_4_concat0_4_0_split_0
I1210 16:23:24.047128  9763 net.cpp:380] concat0_4_concat0_4_0_split -> concat0_4_concat0_4_0_split_1
I1210 16:23:24.047210  9763 net.cpp:122] Setting up concat0_4_concat0_4_0_split
I1210 16:23:24.047219  9763 net.cpp:129] Top shape: 1 192 34 70 (456960)
I1210 16:23:24.047224  9763 net.cpp:129] Top shape: 1 192 34 70 (456960)
I1210 16:23:24.047228  9763 net.cpp:137] Memory required for data: 39160528
I1210 16:23:24.047232  9763 layer_factory.hpp:77] Creating layer conv0_5/bn
I1210 16:23:24.047241  9763 net.cpp:84] Creating Layer conv0_5/bn
I1210 16:23:24.047245  9763 net.cpp:406] conv0_5/bn <- concat0_4_concat0_4_0_split_0
I1210 16:23:24.047251  9763 net.cpp:380] conv0_5/bn -> conv0_5/bn
I1210 16:23:24.047785  9763 net.cpp:122] Setting up conv0_5/bn
I1210 16:23:24.047796  9763 net.cpp:129] Top shape: 1 192 34 70 (456960)
I1210 16:23:24.047799  9763 net.cpp:137] Memory required for data: 40988368
I1210 16:23:24.047809  9763 layer_factory.hpp:77] Creating layer conv0_5/scale
I1210 16:23:24.047818  9763 net.cpp:84] Creating Layer conv0_5/scale
I1210 16:23:24.047823  9763 net.cpp:406] conv0_5/scale <- conv0_5/bn
I1210 16:23:24.047834  9763 net.cpp:367] conv0_5/scale -> conv0_5/bn (in-place)
I1210 16:23:24.047924  9763 layer_factory.hpp:77] Creating layer conv0_5/scale
I1210 16:23:24.048198  9763 net.cpp:122] Setting up conv0_5/scale
I1210 16:23:24.048208  9763 net.cpp:129] Top shape: 1 192 34 70 (456960)
I1210 16:23:24.048211  9763 net.cpp:137] Memory required for data: 42816208
I1210 16:23:24.048219  9763 layer_factory.hpp:77] Creating layer relu0_5
I1210 16:23:24.048228  9763 net.cpp:84] Creating Layer relu0_5
I1210 16:23:24.048233  9763 net.cpp:406] relu0_5 <- conv0_5/bn
I1210 16:23:24.048238  9763 net.cpp:367] relu0_5 -> conv0_5/bn (in-place)
I1210 16:23:24.048684  9763 net.cpp:122] Setting up relu0_5
I1210 16:23:24.048696  9763 net.cpp:129] Top shape: 1 192 34 70 (456960)
I1210 16:23:24.048702  9763 net.cpp:137] Memory required for data: 44644048
I1210 16:23:24.048705  9763 layer_factory.hpp:77] Creating layer conv0_5
I1210 16:23:24.048719  9763 net.cpp:84] Creating Layer conv0_5
I1210 16:23:24.048724  9763 net.cpp:406] conv0_5 <- conv0_5/bn
I1210 16:23:24.048732  9763 net.cpp:380] conv0_5 -> conv0_5
I1210 16:23:24.053498  9763 net.cpp:122] Setting up conv0_5
I1210 16:23:24.053515  9763 net.cpp:129] Top shape: 1 32 34 70 (76160)
I1210 16:23:24.053519  9763 net.cpp:137] Memory required for data: 44948688
I1210 16:23:24.053527  9763 layer_factory.hpp:77] Creating layer concat0_5
I1210 16:23:24.053535  9763 net.cpp:84] Creating Layer concat0_5
I1210 16:23:24.053540  9763 net.cpp:406] concat0_5 <- concat0_4_concat0_4_0_split_1
I1210 16:23:24.053546  9763 net.cpp:406] concat0_5 <- conv0_5
I1210 16:23:24.053558  9763 net.cpp:380] concat0_5 -> concat0_5
I1210 16:23:24.053618  9763 net.cpp:122] Setting up concat0_5
I1210 16:23:24.053627  9763 net.cpp:129] Top shape: 1 224 34 70 (533120)
I1210 16:23:24.053630  9763 net.cpp:137] Memory required for data: 47081168
I1210 16:23:24.053634  9763 layer_factory.hpp:77] Creating layer BatchNorm1
I1210 16:23:24.053642  9763 net.cpp:84] Creating Layer BatchNorm1
I1210 16:23:24.053647  9763 net.cpp:406] BatchNorm1 <- concat0_5
I1210 16:23:24.053653  9763 net.cpp:380] BatchNorm1 -> BatchNorm1
I1210 16:23:24.054169  9763 net.cpp:122] Setting up BatchNorm1
I1210 16:23:24.054178  9763 net.cpp:129] Top shape: 1 224 34 70 (533120)
I1210 16:23:24.054183  9763 net.cpp:137] Memory required for data: 49213648
I1210 16:23:24.054191  9763 layer_factory.hpp:77] Creating layer Scale1
I1210 16:23:24.054201  9763 net.cpp:84] Creating Layer Scale1
I1210 16:23:24.054205  9763 net.cpp:406] Scale1 <- BatchNorm1
I1210 16:23:24.054211  9763 net.cpp:367] Scale1 -> BatchNorm1 (in-place)
I1210 16:23:24.054296  9763 layer_factory.hpp:77] Creating layer Scale1
I1210 16:23:24.054575  9763 net.cpp:122] Setting up Scale1
I1210 16:23:24.054584  9763 net.cpp:129] Top shape: 1 224 34 70 (533120)
I1210 16:23:24.054587  9763 net.cpp:137] Memory required for data: 51346128
I1210 16:23:24.054595  9763 layer_factory.hpp:77] Creating layer ReLU1
I1210 16:23:24.054602  9763 net.cpp:84] Creating Layer ReLU1
I1210 16:23:24.054606  9763 net.cpp:406] ReLU1 <- BatchNorm1
I1210 16:23:24.054611  9763 net.cpp:367] ReLU1 -> BatchNorm1 (in-place)
I1210 16:23:24.055068  9763 net.cpp:122] Setting up ReLU1
I1210 16:23:24.055081  9763 net.cpp:129] Top shape: 1 224 34 70 (533120)
I1210 16:23:24.055085  9763 net.cpp:137] Memory required for data: 53478608
I1210 16:23:24.055090  9763 layer_factory.hpp:77] Creating layer conv0_blk
I1210 16:23:24.055100  9763 net.cpp:84] Creating Layer conv0_blk
I1210 16:23:24.055104  9763 net.cpp:406] conv0_blk <- BatchNorm1
I1210 16:23:24.055114  9763 net.cpp:380] conv0_blk -> conv0_blk
I1210 16:23:24.058507  9763 net.cpp:122] Setting up conv0_blk
I1210 16:23:24.058521  9763 net.cpp:129] Top shape: 1 224 34 70 (533120)
I1210 16:23:24.058526  9763 net.cpp:137] Memory required for data: 55611088
I1210 16:23:24.058532  9763 layer_factory.hpp:77] Creating layer pool0
I1210 16:23:24.058542  9763 net.cpp:84] Creating Layer pool0
I1210 16:23:24.058547  9763 net.cpp:406] pool0 <- conv0_blk
I1210 16:23:24.058554  9763 net.cpp:380] pool0 -> pool0
I1210 16:23:24.058841  9763 net.cpp:122] Setting up pool0
I1210 16:23:24.058852  9763 net.cpp:129] Top shape: 1 224 17 35 (133280)
I1210 16:23:24.058856  9763 net.cpp:137] Memory required for data: 56144208
I1210 16:23:24.058861  9763 layer_factory.hpp:77] Creating layer pool0_pool0_0_split
I1210 16:23:24.058868  9763 net.cpp:84] Creating Layer pool0_pool0_0_split
I1210 16:23:24.058872  9763 net.cpp:406] pool0_pool0_0_split <- pool0
I1210 16:23:24.058879  9763 net.cpp:380] pool0_pool0_0_split -> pool0_pool0_0_split_0
I1210 16:23:24.058887  9763 net.cpp:380] pool0_pool0_0_split -> pool0_pool0_0_split_1
I1210 16:23:24.058974  9763 net.cpp:122] Setting up pool0_pool0_0_split
I1210 16:23:24.058981  9763 net.cpp:129] Top shape: 1 224 17 35 (133280)
I1210 16:23:24.058986  9763 net.cpp:129] Top shape: 1 224 17 35 (133280)
I1210 16:23:24.058990  9763 net.cpp:137] Memory required for data: 57210448
I1210 16:23:24.058993  9763 layer_factory.hpp:77] Creating layer conv1_0/bn
I1210 16:23:24.059000  9763 net.cpp:84] Creating Layer conv1_0/bn
I1210 16:23:24.059005  9763 net.cpp:406] conv1_0/bn <- pool0_pool0_0_split_0
I1210 16:23:24.059012  9763 net.cpp:380] conv1_0/bn -> conv1_0/bn
I1210 16:23:24.059530  9763 net.cpp:122] Setting up conv1_0/bn
I1210 16:23:24.059538  9763 net.cpp:129] Top shape: 1 224 17 35 (133280)
I1210 16:23:24.059542  9763 net.cpp:137] Memory required for data: 57743568
I1210 16:23:24.059551  9763 layer_factory.hpp:77] Creating layer conv1_0/scale
I1210 16:23:24.059561  9763 net.cpp:84] Creating Layer conv1_0/scale
I1210 16:23:24.059567  9763 net.cpp:406] conv1_0/scale <- conv1_0/bn
I1210 16:23:24.059573  9763 net.cpp:367] conv1_0/scale -> conv1_0/bn (in-place)
I1210 16:23:24.059659  9763 layer_factory.hpp:77] Creating layer conv1_0/scale
I1210 16:23:24.059955  9763 net.cpp:122] Setting up conv1_0/scale
I1210 16:23:24.059967  9763 net.cpp:129] Top shape: 1 224 17 35 (133280)
I1210 16:23:24.059970  9763 net.cpp:137] Memory required for data: 58276688
I1210 16:23:24.059978  9763 layer_factory.hpp:77] Creating layer relu1_0
I1210 16:23:24.059985  9763 net.cpp:84] Creating Layer relu1_0
I1210 16:23:24.059990  9763 net.cpp:406] relu1_0 <- conv1_0/bn
I1210 16:23:24.059995  9763 net.cpp:367] relu1_0 -> conv1_0/bn (in-place)
I1210 16:23:24.060451  9763 net.cpp:122] Setting up relu1_0
I1210 16:23:24.060463  9763 net.cpp:129] Top shape: 1 224 17 35 (133280)
I1210 16:23:24.060467  9763 net.cpp:137] Memory required for data: 58809808
I1210 16:23:24.060472  9763 layer_factory.hpp:77] Creating layer conv1_0
I1210 16:23:24.060484  9763 net.cpp:84] Creating Layer conv1_0
I1210 16:23:24.060488  9763 net.cpp:406] conv1_0 <- conv1_0/bn
I1210 16:23:24.060497  9763 net.cpp:380] conv1_0 -> conv1_0
I1210 16:23:24.064604  9763 net.cpp:122] Setting up conv1_0
I1210 16:23:24.064618  9763 net.cpp:129] Top shape: 1 32 17 35 (19040)
I1210 16:23:24.064622  9763 net.cpp:137] Memory required for data: 58885968
I1210 16:23:24.064630  9763 layer_factory.hpp:77] Creating layer concat1_0
I1210 16:23:24.064637  9763 net.cpp:84] Creating Layer concat1_0
I1210 16:23:24.064642  9763 net.cpp:406] concat1_0 <- pool0_pool0_0_split_1
I1210 16:23:24.064648  9763 net.cpp:406] concat1_0 <- conv1_0
I1210 16:23:24.064656  9763 net.cpp:380] concat1_0 -> concat1_0
I1210 16:23:24.064714  9763 net.cpp:122] Setting up concat1_0
I1210 16:23:24.064723  9763 net.cpp:129] Top shape: 1 256 17 35 (152320)
I1210 16:23:24.064725  9763 net.cpp:137] Memory required for data: 59495248
I1210 16:23:24.064729  9763 layer_factory.hpp:77] Creating layer concat1_0_concat1_0_0_split
I1210 16:23:24.064736  9763 net.cpp:84] Creating Layer concat1_0_concat1_0_0_split
I1210 16:23:24.064740  9763 net.cpp:406] concat1_0_concat1_0_0_split <- concat1_0
I1210 16:23:24.064748  9763 net.cpp:380] concat1_0_concat1_0_0_split -> concat1_0_concat1_0_0_split_0
I1210 16:23:24.064754  9763 net.cpp:380] concat1_0_concat1_0_0_split -> concat1_0_concat1_0_0_split_1
I1210 16:23:24.064839  9763 net.cpp:122] Setting up concat1_0_concat1_0_0_split
I1210 16:23:24.064847  9763 net.cpp:129] Top shape: 1 256 17 35 (152320)
I1210 16:23:24.064852  9763 net.cpp:129] Top shape: 1 256 17 35 (152320)
I1210 16:23:24.064857  9763 net.cpp:137] Memory required for data: 60713808
I1210 16:23:24.064860  9763 layer_factory.hpp:77] Creating layer conv1_1/bn
I1210 16:23:24.064869  9763 net.cpp:84] Creating Layer conv1_1/bn
I1210 16:23:24.064874  9763 net.cpp:406] conv1_1/bn <- concat1_0_concat1_0_0_split_0
I1210 16:23:24.064882  9763 net.cpp:380] conv1_1/bn -> conv1_1/bn
I1210 16:23:24.065368  9763 net.cpp:122] Setting up conv1_1/bn
I1210 16:23:24.065377  9763 net.cpp:129] Top shape: 1 256 17 35 (152320)
I1210 16:23:24.065382  9763 net.cpp:137] Memory required for data: 61323088
I1210 16:23:24.065390  9763 layer_factory.hpp:77] Creating layer conv1_1/scale
I1210 16:23:24.065399  9763 net.cpp:84] Creating Layer conv1_1/scale
I1210 16:23:24.065403  9763 net.cpp:406] conv1_1/scale <- conv1_1/bn
I1210 16:23:24.065409  9763 net.cpp:367] conv1_1/scale -> conv1_1/bn (in-place)
I1210 16:23:24.065495  9763 layer_factory.hpp:77] Creating layer conv1_1/scale
I1210 16:23:24.065762  9763 net.cpp:122] Setting up conv1_1/scale
I1210 16:23:24.065769  9763 net.cpp:129] Top shape: 1 256 17 35 (152320)
I1210 16:23:24.065773  9763 net.cpp:137] Memory required for data: 61932368
I1210 16:23:24.065780  9763 layer_factory.hpp:77] Creating layer relu1_1
I1210 16:23:24.065788  9763 net.cpp:84] Creating Layer relu1_1
I1210 16:23:24.065791  9763 net.cpp:406] relu1_1 <- conv1_1/bn
I1210 16:23:24.065796  9763 net.cpp:367] relu1_1 -> conv1_1/bn (in-place)
I1210 16:23:24.066046  9763 net.cpp:122] Setting up relu1_1
I1210 16:23:24.066061  9763 net.cpp:129] Top shape: 1 256 17 35 (152320)
I1210 16:23:24.066064  9763 net.cpp:137] Memory required for data: 62541648
I1210 16:23:24.066068  9763 layer_factory.hpp:77] Creating layer conv1_1
I1210 16:23:24.066079  9763 net.cpp:84] Creating Layer conv1_1
I1210 16:23:24.066084  9763 net.cpp:406] conv1_1 <- conv1_1/bn
I1210 16:23:24.066092  9763 net.cpp:380] conv1_1 -> conv1_1
I1210 16:23:24.070519  9763 net.cpp:122] Setting up conv1_1
I1210 16:23:24.070533  9763 net.cpp:129] Top shape: 1 32 17 35 (19040)
I1210 16:23:24.070538  9763 net.cpp:137] Memory required for data: 62617808
I1210 16:23:24.070544  9763 layer_factory.hpp:77] Creating layer concat1_1
I1210 16:23:24.070554  9763 net.cpp:84] Creating Layer concat1_1
I1210 16:23:24.070559  9763 net.cpp:406] concat1_1 <- concat1_0_concat1_0_0_split_1
I1210 16:23:24.070564  9763 net.cpp:406] concat1_1 <- conv1_1
I1210 16:23:24.070570  9763 net.cpp:380] concat1_1 -> concat1_1
I1210 16:23:24.070632  9763 net.cpp:122] Setting up concat1_1
I1210 16:23:24.070641  9763 net.cpp:129] Top shape: 1 288 17 35 (171360)
I1210 16:23:24.070644  9763 net.cpp:137] Memory required for data: 63303248
I1210 16:23:24.070648  9763 layer_factory.hpp:77] Creating layer concat1_1_concat1_1_0_split
I1210 16:23:24.070654  9763 net.cpp:84] Creating Layer concat1_1_concat1_1_0_split
I1210 16:23:24.070658  9763 net.cpp:406] concat1_1_concat1_1_0_split <- concat1_1
I1210 16:23:24.070664  9763 net.cpp:380] concat1_1_concat1_1_0_split -> concat1_1_concat1_1_0_split_0
I1210 16:23:24.070672  9763 net.cpp:380] concat1_1_concat1_1_0_split -> concat1_1_concat1_1_0_split_1
I1210 16:23:24.070755  9763 net.cpp:122] Setting up concat1_1_concat1_1_0_split
I1210 16:23:24.070765  9763 net.cpp:129] Top shape: 1 288 17 35 (171360)
I1210 16:23:24.070770  9763 net.cpp:129] Top shape: 1 288 17 35 (171360)
I1210 16:23:24.070773  9763 net.cpp:137] Memory required for data: 64674128
I1210 16:23:24.070777  9763 layer_factory.hpp:77] Creating layer conv1_2/bn
I1210 16:23:24.070783  9763 net.cpp:84] Creating Layer conv1_2/bn
I1210 16:23:24.070787  9763 net.cpp:406] conv1_2/bn <- concat1_1_concat1_1_0_split_0
I1210 16:23:24.070796  9763 net.cpp:380] conv1_2/bn -> conv1_2/bn
I1210 16:23:24.071311  9763 net.cpp:122] Setting up conv1_2/bn
I1210 16:23:24.071321  9763 net.cpp:129] Top shape: 1 288 17 35 (171360)
I1210 16:23:24.071324  9763 net.cpp:137] Memory required for data: 65359568
I1210 16:23:24.071332  9763 layer_factory.hpp:77] Creating layer conv1_2/scale
I1210 16:23:24.071341  9763 net.cpp:84] Creating Layer conv1_2/scale
I1210 16:23:24.071346  9763 net.cpp:406] conv1_2/scale <- conv1_2/bn
I1210 16:23:24.071353  9763 net.cpp:367] conv1_2/scale -> conv1_2/bn (in-place)
I1210 16:23:24.071442  9763 layer_factory.hpp:77] Creating layer conv1_2/scale
I1210 16:23:24.071727  9763 net.cpp:122] Setting up conv1_2/scale
I1210 16:23:24.071736  9763 net.cpp:129] Top shape: 1 288 17 35 (171360)
I1210 16:23:24.071740  9763 net.cpp:137] Memory required for data: 66045008
I1210 16:23:24.071759  9763 layer_factory.hpp:77] Creating layer relu1_2
I1210 16:23:24.071768  9763 net.cpp:84] Creating Layer relu1_2
I1210 16:23:24.071772  9763 net.cpp:406] relu1_2 <- conv1_2/bn
I1210 16:23:24.071779  9763 net.cpp:367] relu1_2 -> conv1_2/bn (in-place)
I1210 16:23:24.072222  9763 net.cpp:122] Setting up relu1_2
I1210 16:23:24.072235  9763 net.cpp:129] Top shape: 1 288 17 35 (171360)
I1210 16:23:24.072239  9763 net.cpp:137] Memory required for data: 66730448
I1210 16:23:24.072243  9763 layer_factory.hpp:77] Creating layer conv1_2
I1210 16:23:24.072258  9763 net.cpp:84] Creating Layer conv1_2
I1210 16:23:24.072263  9763 net.cpp:406] conv1_2 <- conv1_2/bn
I1210 16:23:24.072271  9763 net.cpp:380] conv1_2 -> conv1_2
I1210 16:23:24.077105  9763 net.cpp:122] Setting up conv1_2
I1210 16:23:24.077123  9763 net.cpp:129] Top shape: 1 32 17 35 (19040)
I1210 16:23:24.077127  9763 net.cpp:137] Memory required for data: 66806608
I1210 16:23:24.077136  9763 layer_factory.hpp:77] Creating layer concat1_2
I1210 16:23:24.077147  9763 net.cpp:84] Creating Layer concat1_2
I1210 16:23:24.077153  9763 net.cpp:406] concat1_2 <- concat1_1_concat1_1_0_split_1
I1210 16:23:24.077159  9763 net.cpp:406] concat1_2 <- conv1_2
I1210 16:23:24.077165  9763 net.cpp:380] concat1_2 -> concat1_2
I1210 16:23:24.077226  9763 net.cpp:122] Setting up concat1_2
I1210 16:23:24.077234  9763 net.cpp:129] Top shape: 1 320 17 35 (190400)
I1210 16:23:24.077239  9763 net.cpp:137] Memory required for data: 67568208
I1210 16:23:24.077242  9763 layer_factory.hpp:77] Creating layer concat1_2_concat1_2_0_split
I1210 16:23:24.077249  9763 net.cpp:84] Creating Layer concat1_2_concat1_2_0_split
I1210 16:23:24.077252  9763 net.cpp:406] concat1_2_concat1_2_0_split <- concat1_2
I1210 16:23:24.077260  9763 net.cpp:380] concat1_2_concat1_2_0_split -> concat1_2_concat1_2_0_split_0
I1210 16:23:24.077267  9763 net.cpp:380] concat1_2_concat1_2_0_split -> concat1_2_concat1_2_0_split_1
I1210 16:23:24.077353  9763 net.cpp:122] Setting up concat1_2_concat1_2_0_split
I1210 16:23:24.077361  9763 net.cpp:129] Top shape: 1 320 17 35 (190400)
I1210 16:23:24.077368  9763 net.cpp:129] Top shape: 1 320 17 35 (190400)
I1210 16:23:24.077370  9763 net.cpp:137] Memory required for data: 69091408
I1210 16:23:24.077374  9763 layer_factory.hpp:77] Creating layer conv1_3/bn
I1210 16:23:24.077381  9763 net.cpp:84] Creating Layer conv1_3/bn
I1210 16:23:24.077385  9763 net.cpp:406] conv1_3/bn <- concat1_2_concat1_2_0_split_0
I1210 16:23:24.077394  9763 net.cpp:380] conv1_3/bn -> conv1_3/bn
I1210 16:23:24.077925  9763 net.cpp:122] Setting up conv1_3/bn
I1210 16:23:24.077934  9763 net.cpp:129] Top shape: 1 320 17 35 (190400)
I1210 16:23:24.077939  9763 net.cpp:137] Memory required for data: 69853008
I1210 16:23:24.077947  9763 layer_factory.hpp:77] Creating layer conv1_3/scale
I1210 16:23:24.077956  9763 net.cpp:84] Creating Layer conv1_3/scale
I1210 16:23:24.077961  9763 net.cpp:406] conv1_3/scale <- conv1_3/bn
I1210 16:23:24.077966  9763 net.cpp:367] conv1_3/scale -> conv1_3/bn (in-place)
I1210 16:23:24.078058  9763 layer_factory.hpp:77] Creating layer conv1_3/scale
I1210 16:23:24.078346  9763 net.cpp:122] Setting up conv1_3/scale
I1210 16:23:24.078356  9763 net.cpp:129] Top shape: 1 320 17 35 (190400)
I1210 16:23:24.078359  9763 net.cpp:137] Memory required for data: 70614608
I1210 16:23:24.078367  9763 layer_factory.hpp:77] Creating layer relu1_3
I1210 16:23:24.078373  9763 net.cpp:84] Creating Layer relu1_3
I1210 16:23:24.078378  9763 net.cpp:406] relu1_3 <- conv1_3/bn
I1210 16:23:24.078383  9763 net.cpp:367] relu1_3 -> conv1_3/bn (in-place)
I1210 16:23:24.078845  9763 net.cpp:122] Setting up relu1_3
I1210 16:23:24.078858  9763 net.cpp:129] Top shape: 1 320 17 35 (190400)
I1210 16:23:24.078862  9763 net.cpp:137] Memory required for data: 71376208
I1210 16:23:24.078867  9763 layer_factory.hpp:77] Creating layer conv1_3
I1210 16:23:24.078879  9763 net.cpp:84] Creating Layer conv1_3
I1210 16:23:24.078883  9763 net.cpp:406] conv1_3 <- conv1_3/bn
I1210 16:23:24.078891  9763 net.cpp:380] conv1_3 -> conv1_3
I1210 16:23:24.084033  9763 net.cpp:122] Setting up conv1_3
I1210 16:23:24.084048  9763 net.cpp:129] Top shape: 1 32 17 35 (19040)
I1210 16:23:24.084051  9763 net.cpp:137] Memory required for data: 71452368
I1210 16:23:24.084059  9763 layer_factory.hpp:77] Creating layer concat1_3
I1210 16:23:24.084066  9763 net.cpp:84] Creating Layer concat1_3
I1210 16:23:24.084071  9763 net.cpp:406] concat1_3 <- concat1_2_concat1_2_0_split_1
I1210 16:23:24.084077  9763 net.cpp:406] concat1_3 <- conv1_3
I1210 16:23:24.084084  9763 net.cpp:380] concat1_3 -> concat1_3
I1210 16:23:24.084143  9763 net.cpp:122] Setting up concat1_3
I1210 16:23:24.084151  9763 net.cpp:129] Top shape: 1 352 17 35 (209440)
I1210 16:23:24.084156  9763 net.cpp:137] Memory required for data: 72290128
I1210 16:23:24.084159  9763 layer_factory.hpp:77] Creating layer concat1_3_concat1_3_0_split
I1210 16:23:24.084166  9763 net.cpp:84] Creating Layer concat1_3_concat1_3_0_split
I1210 16:23:24.084169  9763 net.cpp:406] concat1_3_concat1_3_0_split <- concat1_3
I1210 16:23:24.084180  9763 net.cpp:380] concat1_3_concat1_3_0_split -> concat1_3_concat1_3_0_split_0
I1210 16:23:24.084187  9763 net.cpp:380] concat1_3_concat1_3_0_split -> concat1_3_concat1_3_0_split_1
I1210 16:23:24.084275  9763 net.cpp:122] Setting up concat1_3_concat1_3_0_split
I1210 16:23:24.084281  9763 net.cpp:129] Top shape: 1 352 17 35 (209440)
I1210 16:23:24.084287  9763 net.cpp:129] Top shape: 1 352 17 35 (209440)
I1210 16:23:24.084290  9763 net.cpp:137] Memory required for data: 73965648
I1210 16:23:24.084295  9763 layer_factory.hpp:77] Creating layer conv1_4/bn
I1210 16:23:24.084301  9763 net.cpp:84] Creating Layer conv1_4/bn
I1210 16:23:24.084306  9763 net.cpp:406] conv1_4/bn <- concat1_3_concat1_3_0_split_0
I1210 16:23:24.084312  9763 net.cpp:380] conv1_4/bn -> conv1_4/bn
I1210 16:23:24.084846  9763 net.cpp:122] Setting up conv1_4/bn
I1210 16:23:24.084854  9763 net.cpp:129] Top shape: 1 352 17 35 (209440)
I1210 16:23:24.084858  9763 net.cpp:137] Memory required for data: 74803408
I1210 16:23:24.084867  9763 layer_factory.hpp:77] Creating layer conv1_4/scale
I1210 16:23:24.084877  9763 net.cpp:84] Creating Layer conv1_4/scale
I1210 16:23:24.084882  9763 net.cpp:406] conv1_4/scale <- conv1_4/bn
I1210 16:23:24.084887  9763 net.cpp:367] conv1_4/scale -> conv1_4/bn (in-place)
I1210 16:23:24.084978  9763 layer_factory.hpp:77] Creating layer conv1_4/scale
I1210 16:23:24.085269  9763 net.cpp:122] Setting up conv1_4/scale
I1210 16:23:24.085280  9763 net.cpp:129] Top shape: 1 352 17 35 (209440)
I1210 16:23:24.085284  9763 net.cpp:137] Memory required for data: 75641168
I1210 16:23:24.085291  9763 layer_factory.hpp:77] Creating layer relu1_4
I1210 16:23:24.085299  9763 net.cpp:84] Creating Layer relu1_4
I1210 16:23:24.085302  9763 net.cpp:406] relu1_4 <- conv1_4/bn
I1210 16:23:24.085307  9763 net.cpp:367] relu1_4 -> conv1_4/bn (in-place)
I1210 16:23:24.085561  9763 net.cpp:122] Setting up relu1_4
I1210 16:23:24.085572  9763 net.cpp:129] Top shape: 1 352 17 35 (209440)
I1210 16:23:24.085575  9763 net.cpp:137] Memory required for data: 76478928
I1210 16:23:24.085579  9763 layer_factory.hpp:77] Creating layer conv1_4
I1210 16:23:24.085590  9763 net.cpp:84] Creating Layer conv1_4
I1210 16:23:24.085595  9763 net.cpp:406] conv1_4 <- conv1_4/bn
I1210 16:23:24.085602  9763 net.cpp:380] conv1_4 -> conv1_4
I1210 16:23:24.091156  9763 net.cpp:122] Setting up conv1_4
I1210 16:23:24.091171  9763 net.cpp:129] Top shape: 1 32 17 35 (19040)
I1210 16:23:24.091176  9763 net.cpp:137] Memory required for data: 76555088
I1210 16:23:24.091181  9763 layer_factory.hpp:77] Creating layer concat1_4
I1210 16:23:24.091189  9763 net.cpp:84] Creating Layer concat1_4
I1210 16:23:24.091194  9763 net.cpp:406] concat1_4 <- concat1_3_concat1_3_0_split_1
I1210 16:23:24.091200  9763 net.cpp:406] concat1_4 <- conv1_4
I1210 16:23:24.091207  9763 net.cpp:380] concat1_4 -> concat1_4
I1210 16:23:24.091274  9763 net.cpp:122] Setting up concat1_4
I1210 16:23:24.091282  9763 net.cpp:129] Top shape: 1 384 17 35 (228480)
I1210 16:23:24.091286  9763 net.cpp:137] Memory required for data: 77469008
I1210 16:23:24.091290  9763 layer_factory.hpp:77] Creating layer concat1_4_concat1_4_0_split
I1210 16:23:24.091296  9763 net.cpp:84] Creating Layer concat1_4_concat1_4_0_split
I1210 16:23:24.091300  9763 net.cpp:406] concat1_4_concat1_4_0_split <- concat1_4
I1210 16:23:24.091310  9763 net.cpp:380] concat1_4_concat1_4_0_split -> concat1_4_concat1_4_0_split_0
I1210 16:23:24.091316  9763 net.cpp:380] concat1_4_concat1_4_0_split -> concat1_4_concat1_4_0_split_1
I1210 16:23:24.091403  9763 net.cpp:122] Setting up concat1_4_concat1_4_0_split
I1210 16:23:24.091413  9763 net.cpp:129] Top shape: 1 384 17 35 (228480)
I1210 16:23:24.091418  9763 net.cpp:129] Top shape: 1 384 17 35 (228480)
I1210 16:23:24.091420  9763 net.cpp:137] Memory required for data: 79296848
I1210 16:23:24.091424  9763 layer_factory.hpp:77] Creating layer conv1_5/bn
I1210 16:23:24.091431  9763 net.cpp:84] Creating Layer conv1_5/bn
I1210 16:23:24.091435  9763 net.cpp:406] conv1_5/bn <- concat1_4_concat1_4_0_split_0
I1210 16:23:24.091449  9763 net.cpp:380] conv1_5/bn -> conv1_5/bn
I1210 16:23:24.091971  9763 net.cpp:122] Setting up conv1_5/bn
I1210 16:23:24.091981  9763 net.cpp:129] Top shape: 1 384 17 35 (228480)
I1210 16:23:24.091985  9763 net.cpp:137] Memory required for data: 80210768
I1210 16:23:24.091995  9763 layer_factory.hpp:77] Creating layer conv1_5/scale
I1210 16:23:24.092002  9763 net.cpp:84] Creating Layer conv1_5/scale
I1210 16:23:24.092007  9763 net.cpp:406] conv1_5/scale <- conv1_5/bn
I1210 16:23:24.092015  9763 net.cpp:367] conv1_5/scale -> conv1_5/bn (in-place)
I1210 16:23:24.092113  9763 layer_factory.hpp:77] Creating layer conv1_5/scale
I1210 16:23:24.092384  9763 net.cpp:122] Setting up conv1_5/scale
I1210 16:23:24.092393  9763 net.cpp:129] Top shape: 1 384 17 35 (228480)
I1210 16:23:24.092397  9763 net.cpp:137] Memory required for data: 81124688
I1210 16:23:24.092404  9763 layer_factory.hpp:77] Creating layer relu1_5
I1210 16:23:24.092411  9763 net.cpp:84] Creating Layer relu1_5
I1210 16:23:24.092417  9763 net.cpp:406] relu1_5 <- conv1_5/bn
I1210 16:23:24.092422  9763 net.cpp:367] relu1_5 -> conv1_5/bn (in-place)
I1210 16:23:24.092937  9763 net.cpp:122] Setting up relu1_5
I1210 16:23:24.092952  9763 net.cpp:129] Top shape: 1 384 17 35 (228480)
I1210 16:23:24.092955  9763 net.cpp:137] Memory required for data: 82038608
I1210 16:23:24.092960  9763 layer_factory.hpp:77] Creating layer conv1_5
I1210 16:23:24.092972  9763 net.cpp:84] Creating Layer conv1_5
I1210 16:23:24.092978  9763 net.cpp:406] conv1_5 <- conv1_5/bn
I1210 16:23:24.092984  9763 net.cpp:380] conv1_5 -> conv1_5
I1210 16:23:24.098994  9763 net.cpp:122] Setting up conv1_5
I1210 16:23:24.099022  9763 net.cpp:129] Top shape: 1 32 17 35 (19040)
I1210 16:23:24.099026  9763 net.cpp:137] Memory required for data: 82114768
I1210 16:23:24.099036  9763 layer_factory.hpp:77] Creating layer concat1_5
I1210 16:23:24.099047  9763 net.cpp:84] Creating Layer concat1_5
I1210 16:23:24.099053  9763 net.cpp:406] concat1_5 <- concat1_4_concat1_4_0_split_1
I1210 16:23:24.099061  9763 net.cpp:406] concat1_5 <- conv1_5
I1210 16:23:24.099067  9763 net.cpp:380] concat1_5 -> concat1_5
I1210 16:23:24.099131  9763 net.cpp:122] Setting up concat1_5
I1210 16:23:24.099139  9763 net.cpp:129] Top shape: 1 416 17 35 (247520)
I1210 16:23:24.099143  9763 net.cpp:137] Memory required for data: 83104848
I1210 16:23:24.099148  9763 layer_factory.hpp:77] Creating layer concat1_5_concat1_5_0_split
I1210 16:23:24.099154  9763 net.cpp:84] Creating Layer concat1_5_concat1_5_0_split
I1210 16:23:24.099159  9763 net.cpp:406] concat1_5_concat1_5_0_split <- concat1_5
I1210 16:23:24.099165  9763 net.cpp:380] concat1_5_concat1_5_0_split -> concat1_5_concat1_5_0_split_0
I1210 16:23:24.099172  9763 net.cpp:380] concat1_5_concat1_5_0_split -> concat1_5_concat1_5_0_split_1
I1210 16:23:24.099261  9763 net.cpp:122] Setting up concat1_5_concat1_5_0_split
I1210 16:23:24.099268  9763 net.cpp:129] Top shape: 1 416 17 35 (247520)
I1210 16:23:24.099273  9763 net.cpp:129] Top shape: 1 416 17 35 (247520)
I1210 16:23:24.099277  9763 net.cpp:137] Memory required for data: 85085008
I1210 16:23:24.099282  9763 layer_factory.hpp:77] Creating layer conv1_6/bn
I1210 16:23:24.099288  9763 net.cpp:84] Creating Layer conv1_6/bn
I1210 16:23:24.099292  9763 net.cpp:406] conv1_6/bn <- concat1_5_concat1_5_0_split_0
I1210 16:23:24.099300  9763 net.cpp:380] conv1_6/bn -> conv1_6/bn
I1210 16:23:24.099872  9763 net.cpp:122] Setting up conv1_6/bn
I1210 16:23:24.099882  9763 net.cpp:129] Top shape: 1 416 17 35 (247520)
I1210 16:23:24.099885  9763 net.cpp:137] Memory required for data: 86075088
I1210 16:23:24.099895  9763 layer_factory.hpp:77] Creating layer conv1_6/scale
I1210 16:23:24.099905  9763 net.cpp:84] Creating Layer conv1_6/scale
I1210 16:23:24.099910  9763 net.cpp:406] conv1_6/scale <- conv1_6/bn
I1210 16:23:24.099915  9763 net.cpp:367] conv1_6/scale -> conv1_6/bn (in-place)
I1210 16:23:24.100008  9763 layer_factory.hpp:77] Creating layer conv1_6/scale
I1210 16:23:24.100302  9763 net.cpp:122] Setting up conv1_6/scale
I1210 16:23:24.100318  9763 net.cpp:129] Top shape: 1 416 17 35 (247520)
I1210 16:23:24.100322  9763 net.cpp:137] Memory required for data: 87065168
I1210 16:23:24.100329  9763 layer_factory.hpp:77] Creating layer relu1_6
I1210 16:23:24.100337  9763 net.cpp:84] Creating Layer relu1_6
I1210 16:23:24.100342  9763 net.cpp:406] relu1_6 <- conv1_6/bn
I1210 16:23:24.100347  9763 net.cpp:367] relu1_6 -> conv1_6/bn (in-place)
I1210 16:23:24.100797  9763 net.cpp:122] Setting up relu1_6
I1210 16:23:24.100811  9763 net.cpp:129] Top shape: 1 416 17 35 (247520)
I1210 16:23:24.100814  9763 net.cpp:137] Memory required for data: 88055248
I1210 16:23:24.100819  9763 layer_factory.hpp:77] Creating layer conv1_6
I1210 16:23:24.100832  9763 net.cpp:84] Creating Layer conv1_6
I1210 16:23:24.100836  9763 net.cpp:406] conv1_6 <- conv1_6/bn
I1210 16:23:24.100843  9763 net.cpp:380] conv1_6 -> conv1_6
I1210 16:23:24.107720  9763 net.cpp:122] Setting up conv1_6
I1210 16:23:24.107738  9763 net.cpp:129] Top shape: 1 32 17 35 (19040)
I1210 16:23:24.107743  9763 net.cpp:137] Memory required for data: 88131408
I1210 16:23:24.107754  9763 layer_factory.hpp:77] Creating layer concat1_6
I1210 16:23:24.107764  9763 net.cpp:84] Creating Layer concat1_6
I1210 16:23:24.107769  9763 net.cpp:406] concat1_6 <- concat1_5_concat1_5_0_split_1
I1210 16:23:24.107775  9763 net.cpp:406] concat1_6 <- conv1_6
I1210 16:23:24.107781  9763 net.cpp:380] concat1_6 -> concat1_6
I1210 16:23:24.107844  9763 net.cpp:122] Setting up concat1_6
I1210 16:23:24.107853  9763 net.cpp:129] Top shape: 1 448 17 35 (266560)
I1210 16:23:24.107856  9763 net.cpp:137] Memory required for data: 89197648
I1210 16:23:24.107861  9763 layer_factory.hpp:77] Creating layer concat1_6_concat1_6_0_split
I1210 16:23:24.107867  9763 net.cpp:84] Creating Layer concat1_6_concat1_6_0_split
I1210 16:23:24.107872  9763 net.cpp:406] concat1_6_concat1_6_0_split <- concat1_6
I1210 16:23:24.107878  9763 net.cpp:380] concat1_6_concat1_6_0_split -> concat1_6_concat1_6_0_split_0
I1210 16:23:24.107885  9763 net.cpp:380] concat1_6_concat1_6_0_split -> concat1_6_concat1_6_0_split_1
I1210 16:23:24.107976  9763 net.cpp:122] Setting up concat1_6_concat1_6_0_split
I1210 16:23:24.107985  9763 net.cpp:129] Top shape: 1 448 17 35 (266560)
I1210 16:23:24.107990  9763 net.cpp:129] Top shape: 1 448 17 35 (266560)
I1210 16:23:24.107993  9763 net.cpp:137] Memory required for data: 91330128
I1210 16:23:24.107997  9763 layer_factory.hpp:77] Creating layer conv1_7/bn
I1210 16:23:24.108003  9763 net.cpp:84] Creating Layer conv1_7/bn
I1210 16:23:24.108008  9763 net.cpp:406] conv1_7/bn <- concat1_6_concat1_6_0_split_0
I1210 16:23:24.108016  9763 net.cpp:380] conv1_7/bn -> conv1_7/bn
I1210 16:23:24.108572  9763 net.cpp:122] Setting up conv1_7/bn
I1210 16:23:24.108580  9763 net.cpp:129] Top shape: 1 448 17 35 (266560)
I1210 16:23:24.108584  9763 net.cpp:137] Memory required for data: 92396368
I1210 16:23:24.108593  9763 layer_factory.hpp:77] Creating layer conv1_7/scale
I1210 16:23:24.108603  9763 net.cpp:84] Creating Layer conv1_7/scale
I1210 16:23:24.108608  9763 net.cpp:406] conv1_7/scale <- conv1_7/bn
I1210 16:23:24.108614  9763 net.cpp:367] conv1_7/scale -> conv1_7/bn (in-place)
I1210 16:23:24.108707  9763 layer_factory.hpp:77] Creating layer conv1_7/scale
I1210 16:23:24.109000  9763 net.cpp:122] Setting up conv1_7/scale
I1210 16:23:24.109011  9763 net.cpp:129] Top shape: 1 448 17 35 (266560)
I1210 16:23:24.109014  9763 net.cpp:137] Memory required for data: 93462608
I1210 16:23:24.109022  9763 layer_factory.hpp:77] Creating layer relu1_7
I1210 16:23:24.109030  9763 net.cpp:84] Creating Layer relu1_7
I1210 16:23:24.109033  9763 net.cpp:406] relu1_7 <- conv1_7/bn
I1210 16:23:24.109038  9763 net.cpp:367] relu1_7 -> conv1_7/bn (in-place)
I1210 16:23:24.109498  9763 net.cpp:122] Setting up relu1_7
I1210 16:23:24.109513  9763 net.cpp:129] Top shape: 1 448 17 35 (266560)
I1210 16:23:24.109517  9763 net.cpp:137] Memory required for data: 94528848
I1210 16:23:24.109521  9763 layer_factory.hpp:77] Creating layer conv1_7
I1210 16:23:24.109540  9763 net.cpp:84] Creating Layer conv1_7
I1210 16:23:24.109545  9763 net.cpp:406] conv1_7 <- conv1_7/bn
I1210 16:23:24.109553  9763 net.cpp:380] conv1_7 -> conv1_7
I1210 16:23:24.116374  9763 net.cpp:122] Setting up conv1_7
I1210 16:23:24.116408  9763 net.cpp:129] Top shape: 1 32 17 35 (19040)
I1210 16:23:24.116412  9763 net.cpp:137] Memory required for data: 94605008
I1210 16:23:24.116422  9763 layer_factory.hpp:77] Creating layer concat1_7
I1210 16:23:24.116436  9763 net.cpp:84] Creating Layer concat1_7
I1210 16:23:24.116441  9763 net.cpp:406] concat1_7 <- concat1_6_concat1_6_0_split_1
I1210 16:23:24.116449  9763 net.cpp:406] concat1_7 <- conv1_7
I1210 16:23:24.116456  9763 net.cpp:380] concat1_7 -> concat1_7
I1210 16:23:24.116521  9763 net.cpp:122] Setting up concat1_7
I1210 16:23:24.116529  9763 net.cpp:129] Top shape: 1 480 17 35 (285600)
I1210 16:23:24.116533  9763 net.cpp:137] Memory required for data: 95747408
I1210 16:23:24.116538  9763 layer_factory.hpp:77] Creating layer concat1_7_concat1_7_0_split
I1210 16:23:24.116544  9763 net.cpp:84] Creating Layer concat1_7_concat1_7_0_split
I1210 16:23:24.116549  9763 net.cpp:406] concat1_7_concat1_7_0_split <- concat1_7
I1210 16:23:24.116555  9763 net.cpp:380] concat1_7_concat1_7_0_split -> concat1_7_concat1_7_0_split_0
I1210 16:23:24.116562  9763 net.cpp:380] concat1_7_concat1_7_0_split -> concat1_7_concat1_7_0_split_1
I1210 16:23:24.116641  9763 net.cpp:122] Setting up concat1_7_concat1_7_0_split
I1210 16:23:24.116647  9763 net.cpp:129] Top shape: 1 480 17 35 (285600)
I1210 16:23:24.116650  9763 net.cpp:129] Top shape: 1 480 17 35 (285600)
I1210 16:23:24.116652  9763 net.cpp:137] Memory required for data: 98032208
I1210 16:23:24.116654  9763 layer_factory.hpp:77] Creating layer conv1_8/bn
I1210 16:23:24.116659  9763 net.cpp:84] Creating Layer conv1_8/bn
I1210 16:23:24.116662  9763 net.cpp:406] conv1_8/bn <- concat1_7_concat1_7_0_split_0
I1210 16:23:24.116667  9763 net.cpp:380] conv1_8/bn -> conv1_8/bn
I1210 16:23:24.117096  9763 net.cpp:122] Setting up conv1_8/bn
I1210 16:23:24.117103  9763 net.cpp:129] Top shape: 1 480 17 35 (285600)
I1210 16:23:24.117105  9763 net.cpp:137] Memory required for data: 99174608
I1210 16:23:24.117111  9763 layer_factory.hpp:77] Creating layer conv1_8/scale
I1210 16:23:24.117120  9763 net.cpp:84] Creating Layer conv1_8/scale
I1210 16:23:24.117122  9763 net.cpp:406] conv1_8/scale <- conv1_8/bn
I1210 16:23:24.117125  9763 net.cpp:367] conv1_8/scale -> conv1_8/bn (in-place)
I1210 16:23:24.117200  9763 layer_factory.hpp:77] Creating layer conv1_8/scale
I1210 16:23:24.117426  9763 net.cpp:122] Setting up conv1_8/scale
I1210 16:23:24.117434  9763 net.cpp:129] Top shape: 1 480 17 35 (285600)
I1210 16:23:24.117435  9763 net.cpp:137] Memory required for data: 100317008
I1210 16:23:24.117440  9763 layer_factory.hpp:77] Creating layer relu1_8
I1210 16:23:24.117446  9763 net.cpp:84] Creating Layer relu1_8
I1210 16:23:24.117449  9763 net.cpp:406] relu1_8 <- conv1_8/bn
I1210 16:23:24.117452  9763 net.cpp:367] relu1_8 -> conv1_8/bn (in-place)
I1210 16:23:24.117825  9763 net.cpp:122] Setting up relu1_8
I1210 16:23:24.117835  9763 net.cpp:129] Top shape: 1 480 17 35 (285600)
I1210 16:23:24.117838  9763 net.cpp:137] Memory required for data: 101459408
I1210 16:23:24.117841  9763 layer_factory.hpp:77] Creating layer conv1_8
I1210 16:23:24.117851  9763 net.cpp:84] Creating Layer conv1_8
I1210 16:23:24.117853  9763 net.cpp:406] conv1_8 <- conv1_8/bn
I1210 16:23:24.117859  9763 net.cpp:380] conv1_8 -> conv1_8
I1210 16:23:24.123886  9763 net.cpp:122] Setting up conv1_8
I1210 16:23:24.123905  9763 net.cpp:129] Top shape: 1 32 17 35 (19040)
I1210 16:23:24.123911  9763 net.cpp:137] Memory required for data: 101535568
I1210 16:23:24.123919  9763 layer_factory.hpp:77] Creating layer concat1_8
I1210 16:23:24.123929  9763 net.cpp:84] Creating Layer concat1_8
I1210 16:23:24.123934  9763 net.cpp:406] concat1_8 <- concat1_7_concat1_7_0_split_1
I1210 16:23:24.123939  9763 net.cpp:406] concat1_8 <- conv1_8
I1210 16:23:24.123945  9763 net.cpp:380] concat1_8 -> concat1_8
I1210 16:23:24.124013  9763 net.cpp:122] Setting up concat1_8
I1210 16:23:24.124022  9763 net.cpp:129] Top shape: 1 512 17 35 (304640)
I1210 16:23:24.124025  9763 net.cpp:137] Memory required for data: 102754128
I1210 16:23:24.124029  9763 layer_factory.hpp:77] Creating layer concat1_8_concat1_8_0_split
I1210 16:23:24.124037  9763 net.cpp:84] Creating Layer concat1_8_concat1_8_0_split
I1210 16:23:24.124040  9763 net.cpp:406] concat1_8_concat1_8_0_split <- concat1_8
I1210 16:23:24.124047  9763 net.cpp:380] concat1_8_concat1_8_0_split -> concat1_8_concat1_8_0_split_0
I1210 16:23:24.124053  9763 net.cpp:380] concat1_8_concat1_8_0_split -> concat1_8_concat1_8_0_split_1
I1210 16:23:24.124143  9763 net.cpp:122] Setting up concat1_8_concat1_8_0_split
I1210 16:23:24.124153  9763 net.cpp:129] Top shape: 1 512 17 35 (304640)
I1210 16:23:24.124158  9763 net.cpp:129] Top shape: 1 512 17 35 (304640)
I1210 16:23:24.124162  9763 net.cpp:137] Memory required for data: 105191248
I1210 16:23:24.124166  9763 layer_factory.hpp:77] Creating layer conv1_9/bn
I1210 16:23:24.124173  9763 net.cpp:84] Creating Layer conv1_9/bn
I1210 16:23:24.124178  9763 net.cpp:406] conv1_9/bn <- concat1_8_concat1_8_0_split_0
I1210 16:23:24.124186  9763 net.cpp:380] conv1_9/bn -> conv1_9/bn
I1210 16:23:24.124709  9763 net.cpp:122] Setting up conv1_9/bn
I1210 16:23:24.124721  9763 net.cpp:129] Top shape: 1 512 17 35 (304640)
I1210 16:23:24.124724  9763 net.cpp:137] Memory required for data: 106409808
I1210 16:23:24.124733  9763 layer_factory.hpp:77] Creating layer conv1_9/scale
I1210 16:23:24.124742  9763 net.cpp:84] Creating Layer conv1_9/scale
I1210 16:23:24.124747  9763 net.cpp:406] conv1_9/scale <- conv1_9/bn
I1210 16:23:24.124753  9763 net.cpp:367] conv1_9/scale -> conv1_9/bn (in-place)
I1210 16:23:24.124850  9763 layer_factory.hpp:77] Creating layer conv1_9/scale
I1210 16:23:24.125125  9763 net.cpp:122] Setting up conv1_9/scale
I1210 16:23:24.125134  9763 net.cpp:129] Top shape: 1 512 17 35 (304640)
I1210 16:23:24.125138  9763 net.cpp:137] Memory required for data: 107628368
I1210 16:23:24.125146  9763 layer_factory.hpp:77] Creating layer relu1_9
I1210 16:23:24.125154  9763 net.cpp:84] Creating Layer relu1_9
I1210 16:23:24.125157  9763 net.cpp:406] relu1_9 <- conv1_9/bn
I1210 16:23:24.125162  9763 net.cpp:367] relu1_9 -> conv1_9/bn (in-place)
I1210 16:23:24.125419  9763 net.cpp:122] Setting up relu1_9
I1210 16:23:24.125429  9763 net.cpp:129] Top shape: 1 512 17 35 (304640)
I1210 16:23:24.125433  9763 net.cpp:137] Memory required for data: 108846928
I1210 16:23:24.125437  9763 layer_factory.hpp:77] Creating layer conv1_9
I1210 16:23:24.125450  9763 net.cpp:84] Creating Layer conv1_9
I1210 16:23:24.125455  9763 net.cpp:406] conv1_9 <- conv1_9/bn
I1210 16:23:24.125461  9763 net.cpp:380] conv1_9 -> conv1_9
I1210 16:23:24.133647  9763 net.cpp:122] Setting up conv1_9
I1210 16:23:24.133682  9763 net.cpp:129] Top shape: 1 32 17 35 (19040)
I1210 16:23:24.133687  9763 net.cpp:137] Memory required for data: 108923088
I1210 16:23:24.133697  9763 layer_factory.hpp:77] Creating layer concat1_9
I1210 16:23:24.133710  9763 net.cpp:84] Creating Layer concat1_9
I1210 16:23:24.133716  9763 net.cpp:406] concat1_9 <- concat1_8_concat1_8_0_split_1
I1210 16:23:24.133724  9763 net.cpp:406] concat1_9 <- conv1_9
I1210 16:23:24.133733  9763 net.cpp:380] concat1_9 -> concat1_9
I1210 16:23:24.133801  9763 net.cpp:122] Setting up concat1_9
I1210 16:23:24.133810  9763 net.cpp:129] Top shape: 1 544 17 35 (323680)
I1210 16:23:24.133815  9763 net.cpp:137] Memory required for data: 110217808
I1210 16:23:24.133818  9763 layer_factory.hpp:77] Creating layer concat1_9_concat1_9_0_split
I1210 16:23:24.133826  9763 net.cpp:84] Creating Layer concat1_9_concat1_9_0_split
I1210 16:23:24.133831  9763 net.cpp:406] concat1_9_concat1_9_0_split <- concat1_9
I1210 16:23:24.133836  9763 net.cpp:380] concat1_9_concat1_9_0_split -> concat1_9_concat1_9_0_split_0
I1210 16:23:24.133843  9763 net.cpp:380] concat1_9_concat1_9_0_split -> concat1_9_concat1_9_0_split_1
I1210 16:23:24.133939  9763 net.cpp:122] Setting up concat1_9_concat1_9_0_split
I1210 16:23:24.133951  9763 net.cpp:129] Top shape: 1 544 17 35 (323680)
I1210 16:23:24.133956  9763 net.cpp:129] Top shape: 1 544 17 35 (323680)
I1210 16:23:24.133960  9763 net.cpp:137] Memory required for data: 112807248
I1210 16:23:24.133965  9763 layer_factory.hpp:77] Creating layer conv1_10/bn
I1210 16:23:24.133972  9763 net.cpp:84] Creating Layer conv1_10/bn
I1210 16:23:24.133977  9763 net.cpp:406] conv1_10/bn <- concat1_9_concat1_9_0_split_0
I1210 16:23:24.133983  9763 net.cpp:380] conv1_10/bn -> conv1_10/bn
I1210 16:23:24.134573  9763 net.cpp:122] Setting up conv1_10/bn
I1210 16:23:24.134583  9763 net.cpp:129] Top shape: 1 544 17 35 (323680)
I1210 16:23:24.134588  9763 net.cpp:137] Memory required for data: 114101968
I1210 16:23:24.134598  9763 layer_factory.hpp:77] Creating layer conv1_10/scale
I1210 16:23:24.134609  9763 net.cpp:84] Creating Layer conv1_10/scale
I1210 16:23:24.134613  9763 net.cpp:406] conv1_10/scale <- conv1_10/bn
I1210 16:23:24.134619  9763 net.cpp:367] conv1_10/scale -> conv1_10/bn (in-place)
I1210 16:23:24.134723  9763 layer_factory.hpp:77] Creating layer conv1_10/scale
I1210 16:23:24.135033  9763 net.cpp:122] Setting up conv1_10/scale
I1210 16:23:24.135042  9763 net.cpp:129] Top shape: 1 544 17 35 (323680)
I1210 16:23:24.135046  9763 net.cpp:137] Memory required for data: 115396688
I1210 16:23:24.135054  9763 layer_factory.hpp:77] Creating layer relu1_10
I1210 16:23:24.135062  9763 net.cpp:84] Creating Layer relu1_10
I1210 16:23:24.135067  9763 net.cpp:406] relu1_10 <- conv1_10/bn
I1210 16:23:24.135073  9763 net.cpp:367] relu1_10 -> conv1_10/bn (in-place)
I1210 16:23:24.135640  9763 net.cpp:122] Setting up relu1_10
I1210 16:23:24.135654  9763 net.cpp:129] Top shape: 1 544 17 35 (323680)
I1210 16:23:24.135658  9763 net.cpp:137] Memory required for data: 116691408
I1210 16:23:24.135663  9763 layer_factory.hpp:77] Creating layer conv1_10
I1210 16:23:24.135680  9763 net.cpp:84] Creating Layer conv1_10
I1210 16:23:24.135685  9763 net.cpp:406] conv1_10 <- conv1_10/bn
I1210 16:23:24.135694  9763 net.cpp:380] conv1_10 -> conv1_10
I1210 16:23:24.144330  9763 net.cpp:122] Setting up conv1_10
I1210 16:23:24.144364  9763 net.cpp:129] Top shape: 1 32 17 35 (19040)
I1210 16:23:24.144368  9763 net.cpp:137] Memory required for data: 116767568
I1210 16:23:24.144379  9763 layer_factory.hpp:77] Creating layer concat1_10
I1210 16:23:24.144393  9763 net.cpp:84] Creating Layer concat1_10
I1210 16:23:24.144400  9763 net.cpp:406] concat1_10 <- concat1_9_concat1_9_0_split_1
I1210 16:23:24.144408  9763 net.cpp:406] concat1_10 <- conv1_10
I1210 16:23:24.144418  9763 net.cpp:380] concat1_10 -> concat1_10
I1210 16:23:24.144484  9763 net.cpp:122] Setting up concat1_10
I1210 16:23:24.144492  9763 net.cpp:129] Top shape: 1 576 17 35 (342720)
I1210 16:23:24.144496  9763 net.cpp:137] Memory required for data: 118138448
I1210 16:23:24.144500  9763 layer_factory.hpp:77] Creating layer concat1_10_concat1_10_0_split
I1210 16:23:24.144506  9763 net.cpp:84] Creating Layer concat1_10_concat1_10_0_split
I1210 16:23:24.144510  9763 net.cpp:406] concat1_10_concat1_10_0_split <- concat1_10
I1210 16:23:24.144517  9763 net.cpp:380] concat1_10_concat1_10_0_split -> concat1_10_concat1_10_0_split_0
I1210 16:23:24.144526  9763 net.cpp:380] concat1_10_concat1_10_0_split -> concat1_10_concat1_10_0_split_1
I1210 16:23:24.144614  9763 net.cpp:122] Setting up concat1_10_concat1_10_0_split
I1210 16:23:24.144623  9763 net.cpp:129] Top shape: 1 576 17 35 (342720)
I1210 16:23:24.144628  9763 net.cpp:129] Top shape: 1 576 17 35 (342720)
I1210 16:23:24.144631  9763 net.cpp:137] Memory required for data: 120880208
I1210 16:23:24.144635  9763 layer_factory.hpp:77] Creating layer conv1_11/bn
I1210 16:23:24.144644  9763 net.cpp:84] Creating Layer conv1_11/bn
I1210 16:23:24.144649  9763 net.cpp:406] conv1_11/bn <- concat1_10_concat1_10_0_split_0
I1210 16:23:24.144655  9763 net.cpp:380] conv1_11/bn -> conv1_11/bn
I1210 16:23:24.145248  9763 net.cpp:122] Setting up conv1_11/bn
I1210 16:23:24.145257  9763 net.cpp:129] Top shape: 1 576 17 35 (342720)
I1210 16:23:24.145267  9763 net.cpp:137] Memory required for data: 122251088
I1210 16:23:24.145277  9763 layer_factory.hpp:77] Creating layer conv1_11/scale
I1210 16:23:24.145287  9763 net.cpp:84] Creating Layer conv1_11/scale
I1210 16:23:24.145292  9763 net.cpp:406] conv1_11/scale <- conv1_11/bn
I1210 16:23:24.145298  9763 net.cpp:367] conv1_11/scale -> conv1_11/bn (in-place)
I1210 16:23:24.145401  9763 layer_factory.hpp:77] Creating layer conv1_11/scale
I1210 16:23:24.145717  9763 net.cpp:122] Setting up conv1_11/scale
I1210 16:23:24.145726  9763 net.cpp:129] Top shape: 1 576 17 35 (342720)
I1210 16:23:24.145730  9763 net.cpp:137] Memory required for data: 123621968
I1210 16:23:24.145738  9763 layer_factory.hpp:77] Creating layer relu1_11
I1210 16:23:24.145746  9763 net.cpp:84] Creating Layer relu1_11
I1210 16:23:24.145751  9763 net.cpp:406] relu1_11 <- conv1_11/bn
I1210 16:23:24.145757  9763 net.cpp:367] relu1_11 -> conv1_11/bn (in-place)
I1210 16:23:24.146021  9763 net.cpp:122] Setting up relu1_11
I1210 16:23:24.146033  9763 net.cpp:129] Top shape: 1 576 17 35 (342720)
I1210 16:23:24.146036  9763 net.cpp:137] Memory required for data: 124992848
I1210 16:23:24.146040  9763 layer_factory.hpp:77] Creating layer conv1_11
I1210 16:23:24.146052  9763 net.cpp:84] Creating Layer conv1_11
I1210 16:23:24.146056  9763 net.cpp:406] conv1_11 <- conv1_11/bn
I1210 16:23:24.146064  9763 net.cpp:380] conv1_11 -> conv1_11
I1210 16:23:24.166323  9763 net.cpp:122] Setting up conv1_11
I1210 16:23:24.166342  9763 net.cpp:129] Top shape: 1 32 17 35 (19040)
I1210 16:23:24.166345  9763 net.cpp:137] Memory required for data: 125069008
I1210 16:23:24.166352  9763 layer_factory.hpp:77] Creating layer concat1_11
I1210 16:23:24.166362  9763 net.cpp:84] Creating Layer concat1_11
I1210 16:23:24.166366  9763 net.cpp:406] concat1_11 <- concat1_10_concat1_10_0_split_1
I1210 16:23:24.166373  9763 net.cpp:406] concat1_11 <- conv1_11
I1210 16:23:24.166378  9763 net.cpp:380] concat1_11 -> concat1_11
I1210 16:23:24.166443  9763 net.cpp:122] Setting up concat1_11
I1210 16:23:24.166452  9763 net.cpp:129] Top shape: 1 608 17 35 (361760)
I1210 16:23:24.166456  9763 net.cpp:137] Memory required for data: 126516048
I1210 16:23:24.166460  9763 layer_factory.hpp:77] Creating layer tpp5
I1210 16:23:24.166467  9763 net.cpp:84] Creating Layer tpp5
I1210 16:23:24.166471  9763 net.cpp:406] tpp5 <- concat1_11
I1210 16:23:24.166479  9763 net.cpp:380] tpp5 -> tpp5
I1210 16:23:24.167610  9763 net.cpp:122] Setting up tpp5
I1210 16:23:24.167623  9763 net.cpp:129] Top shape: 1 9120 (9120)
I1210 16:23:24.167626  9763 net.cpp:137] Memory required for data: 126552528
I1210 16:23:24.167630  9763 layer_factory.hpp:77] Creating layer fc6_d
I1210 16:23:24.167640  9763 net.cpp:84] Creating Layer fc6_d
I1210 16:23:24.167644  9763 net.cpp:406] fc6_d <- tpp5
I1210 16:23:24.167651  9763 net.cpp:380] fc6_d -> fc6_d
I1210 16:23:25.625962  9763 net.cpp:122] Setting up fc6_d
I1210 16:23:25.626003  9763 net.cpp:129] Top shape: 1 4096 (4096)
I1210 16:23:25.626008  9763 net.cpp:137] Memory required for data: 126568912
I1210 16:23:25.626020  9763 layer_factory.hpp:77] Creating layer relu6
I1210 16:23:25.626032  9763 net.cpp:84] Creating Layer relu6
I1210 16:23:25.626039  9763 net.cpp:406] relu6 <- fc6_d
I1210 16:23:25.626047  9763 net.cpp:367] relu6 -> fc6_d (in-place)
I1210 16:23:25.626678  9763 net.cpp:122] Setting up relu6
I1210 16:23:25.626691  9763 net.cpp:129] Top shape: 1 4096 (4096)
I1210 16:23:25.626695  9763 net.cpp:137] Memory required for data: 126585296
I1210 16:23:25.626700  9763 layer_factory.hpp:77] Creating layer fc7_d
I1210 16:23:25.626709  9763 net.cpp:84] Creating Layer fc7_d
I1210 16:23:25.626713  9763 net.cpp:406] fc7_d <- fc6_d
I1210 16:23:25.626722  9763 net.cpp:380] fc7_d -> fc7_d
I1210 16:23:26.351341  9763 net.cpp:122] Setting up fc7_d
I1210 16:23:26.351375  9763 net.cpp:129] Top shape: 1 4096 (4096)
I1210 16:23:26.351379  9763 net.cpp:137] Memory required for data: 126601680
I1210 16:23:26.351390  9763 layer_factory.hpp:77] Creating layer relu7
I1210 16:23:26.351408  9763 net.cpp:84] Creating Layer relu7
I1210 16:23:26.351414  9763 net.cpp:406] relu7 <- fc7_d
I1210 16:23:26.351423  9763 net.cpp:367] relu7 -> fc7_d (in-place)
I1210 16:23:26.385460  9763 net.cpp:122] Setting up relu7
I1210 16:23:26.385493  9763 net.cpp:129] Top shape: 1 4096 (4096)
I1210 16:23:26.385498  9763 net.cpp:137] Memory required for data: 126618064
I1210 16:23:26.385504  9763 layer_factory.hpp:77] Creating layer fc8_d
I1210 16:23:26.385516  9763 net.cpp:84] Creating Layer fc8_d
I1210 16:23:26.385522  9763 net.cpp:406] fc8_d <- fc7_d
I1210 16:23:26.385535  9763 net.cpp:380] fc8_d -> fc8_d
I1210 16:23:26.509390  9763 net.cpp:122] Setting up fc8_d
I1210 16:23:26.509425  9763 net.cpp:129] Top shape: 1 604 (604)
I1210 16:23:26.509430  9763 net.cpp:137] Memory required for data: 126620480
I1210 16:23:26.509441  9763 layer_factory.hpp:77] Creating layer fc8_d_fc8_d_0_split
I1210 16:23:26.509452  9763 net.cpp:84] Creating Layer fc8_d_fc8_d_0_split
I1210 16:23:26.509459  9763 net.cpp:406] fc8_d_fc8_d_0_split <- fc8_d
I1210 16:23:26.509469  9763 net.cpp:380] fc8_d_fc8_d_0_split -> fc8_d_fc8_d_0_split_0
I1210 16:23:26.509479  9763 net.cpp:380] fc8_d_fc8_d_0_split -> fc8_d_fc8_d_0_split_1
I1210 16:23:26.509567  9763 net.cpp:122] Setting up fc8_d_fc8_d_0_split
I1210 16:23:26.509577  9763 net.cpp:129] Top shape: 1 604 (604)
I1210 16:23:26.509582  9763 net.cpp:129] Top shape: 1 604 (604)
I1210 16:23:26.509585  9763 net.cpp:137] Memory required for data: 126625312
I1210 16:23:26.509589  9763 layer_factory.hpp:77] Creating layer sigmoid
I1210 16:23:26.509598  9763 net.cpp:84] Creating Layer sigmoid
I1210 16:23:26.509601  9763 net.cpp:406] sigmoid <- fc8_d_fc8_d_0_split_0
I1210 16:23:26.509609  9763 net.cpp:380] sigmoid -> sigmoid
I1210 16:23:26.509974  9763 net.cpp:122] Setting up sigmoid
I1210 16:23:26.509984  9763 net.cpp:129] Top shape: 1 604 (604)
I1210 16:23:26.509989  9763 net.cpp:137] Memory required for data: 126627728
I1210 16:23:26.509992  9763 layer_factory.hpp:77] Creating layer silence
I1210 16:23:26.510004  9763 net.cpp:84] Creating Layer silence
I1210 16:23:26.510010  9763 net.cpp:406] silence <- sigmoid
I1210 16:23:26.510015  9763 net.cpp:122] Setting up silence
I1210 16:23:26.510018  9763 net.cpp:137] Memory required for data: 126627728
…
