…
state {
  phase: TRAIN
}
layer {
  name: "word_images"
  type: "Data"
  top: "word_images"
  top: "label"
  transform_param {
    scale: -0.0039215689
    mean_value: 255
  }
  data_param {
    source: "/data/fwolf/min26/gw_cv1_nti500000_pul2-3-4-5_train_word_images_lmdb"
    batch_size: 1
    backend: LMDB
    prefetch: 20
  }
}
layer {
  name: "phocs"
  type: "Data"
  top: "phocs"
  top: "label_phocs"
  data_param {
    source: "/data/fwolf/min26/gw_cv1_nti500000_pul2-3-4-5_train_phocs_lmdb"
    batch_size: 1
    backend: LMDB
    prefetch: 20
  }
}
layer {
  name: "conv_init"
  type: "Convolution"
  bottom: "word_images"
  top: "conv_init"
  convolution_param {
    num_output: 32
    bias_term: false
    pad: 1
    kernel_size: 3
    stride: 1
    weight_filler {
      type: "msra"
    }
    bias_filler {
      type: "constant"
    }
    engine: CUDNN
  }
}
layer {
  name: "bn_init"
  type: "BatchNorm"
  bottom: "conv_init"
  top: "bn_init"
  param {
    lr_mult: 0
    decay_mult: 0
  }
  param {
    lr_mult: 0
    decay_mult: 0
  }
  param {
    lr_mult: 0
    decay_mult: 0
  }
  batch_norm_param {
    eps: 1e-05
  }
}
layer {
  name: "scale_init"
  type: "Scale"
  bottom: "bn_init"
  top: "bn_init"
  scale_param {
    filler {
      value: 1
    }
    bias_term: true
    bias_filler {
      value: 0
    }
  }
}
layer {
  name: "relu_init"
  type: "ReLU"
  bottom: "bn_init"
  top: "bn_init"
}
layer {
  name: "pool_init"
  type: "Pooling"
  bottom: "bn_init"
  top: "pool_init"
  pooling_param {
    pool: MAX
    kernel_size: 3
    stride: 2
    pad: 1
  }
}
layer {
  name: "conv0_0/bn"
  type: "BatchNorm"
  bottom: "pool_init"
  top: "conv0_0/bn"
  param {
    lr_mult: 0
    decay_mult: 0
  }
  param {
    lr_mult: 0
    decay_mult: 0
  }
  param {
    lr_mult: 0
    decay_mult: 0
  }
}
layer {
  name: "conv0_0/scale"
  type: "Scale"
  bottom: "conv0_0/bn"
  top: "conv0_0/bn"
  scale_param {
    filler {
      value: 1
    }
    bias_term: true
    bias_filler {
      value: 0
    }
  }
}
layer {
  name: "relu0_0"
  type: "ReLU"
  bottom: "conv0_0/bn"
  top: "conv0_0/bn"
}
layer {
  name: "conv0_0"
  type: "Convolution"
  bottom: "conv0_0/bn"
  top: "conv0_0"
  convolution_param {
    num_output: 32
    bias_term: false
    pad: 1
    kernel_size: 3
    stride: 1
    weight_filler {
      type: "msra"
    }
    bias_filler {
      type: "constant"
    }
    engine: CUDNN
  }
}
layer {
  name: "concat0_0"
  type: "Concat"
  bottom: "pool_init"
  bottom: "conv0_0"
  top: "concat0_0"
  concat_param {
    axis: 1
  }
}
layer {
  name: "conv0_1/bn"
  type: "BatchNorm"
  bottom: "concat0_0"
  top: "conv0_1/bn"
  param {
    lr_mult: 0
    decay_mult: 0
  }
  param {
    lr_mult: 0
    decay_mult: 0
  }
  param {
    lr_mult: 0
    decay_mult: 0
  }
}
layer {
  name: "conv0_1/scale"
  type: "Scale"
  bottom: "conv0_1/bn"
  top: "conv0_1/bn"
  scale_param {
    filler {
      value: 1
    }
    bias_term: true
    bias_filler {
      value: 0
    }
  }
}
layer {
  name: "relu0_1"
  type: "ReLU"
  bottom: "conv0_1/bn"
  top: "conv0_1/bn"
}
layer {
  name: "conv0_1"
  type: "Convolution"
  bottom: "conv0_1/bn"
  top: "conv0_1"
  convolution_param {
    num_output: 32
    bias_term: false
    pad: 1
    kernel_size: 3
    stride: 1
    weight_filler {
      type: "msra"
    }
    bias_filler {
      type: "constant"
    }
    engine: CUDNN
  }
}
layer {
  name: "concat0_1"
  type: "Concat"
  bottom: "concat0_0"
  bottom: "conv0_1"
  top: "concat0_1"
  concat_param {
    axis: 1
  }
}
layer {
  name: "conv0_2/bn"
  type: "BatchNorm"
  bottom: "concat0_1"
  top: "conv0_2/bn"
  param {
    lr_mult: 0
    decay_mult: 0
  }
  param {
    lr_mult: 0
    decay_mult: 0
  }
  param {
    lr_mult: 0
    decay_mult: 0
  }
}
layer {
  name: "conv0_2/scale"
  type: "Scale"
  bottom: "conv0_2/bn"
  top: "conv0_2/bn"
  scale_param {
    filler {
      value: 1
    }
    bias_term: true
    bias_filler {
      value: 0
    }
  }
}
layer {
  name: "relu0_2"
  type: "ReLU"
  bottom: "conv0_2/bn"
  top: "conv0_2/bn"
}
layer {
  name: "conv0_2"
  type: "Convolution"
  bottom: "conv0_2/bn"
  top: "conv0_2"
  convolution_param {
    num_output: 32
    bias_term: false
    pad: 1
    kernel_size: 3
    stride: 1
    weight_filler {
      type: "msra"
    }
    bias_filler {
      type: "constant"
    }
    engine: CUDNN
  }
}
layer {
  name: "concat0_2"
  type: "Concat"
  bottom: "concat0_1"
  bottom: "conv0_2"
  top: "concat0_2"
  concat_param {
    axis: 1
  }
}
layer {
  name: "conv0_3/bn"
  type: "BatchNorm"
  bottom: "concat0_2"
  top: "conv0_3/bn"
  param {
    lr_mult: 0
    decay_mult: 0
  }
  param {
    lr_mult: 0
    decay_mult: 0
  }
  param {
    lr_mult: 0
    decay_mult: 0
  }
}
layer {
  name: "conv0_3/scale"
  type: "Scale"
  bottom: "conv0_3/bn"
  top: "conv0_3/bn"
  scale_param {
    filler {
      value: 1
    }
    bias_term: true
    bias_filler {
      value: 0
    }
  }
}
layer {
  name: "relu0_3"
  type: "ReLU"
  bottom: "conv0_3/bn"
  top: "conv0_3/bn"
}
layer {
  name: "conv0_3"
  type: "Convolution"
  bottom: "conv0_3/bn"
  top: "conv0_3"
  convolution_param {
    num_output: 32
    bias_term: false
    pad: 1
    kernel_size: 3
    stride: 1
    weight_filler {
      type: "msra"
    }
    bias_filler {
      type: "constant"
    }
    engine: CUDNN
  }
}
layer {
  name: "concat0_3"
  type: "Concat"
  bottom: "concat0_2"
  bottom: "conv0_3"
  top: "concat0_3"
  concat_param {
    axis: 1
  }
}
layer {
  name: "conv0_4/bn"
  type: "BatchNorm"
  bottom: "concat0_3"
  top: "conv0_4/bn"
  param {
    lr_mult: 0
    decay_mult: 0
  }
  param {
    lr_mult: 0
    decay_mult: 0
  }
  param {
    lr_mult: 0
    decay_mult: 0
  }
}
layer {
  name: "conv0_4/scale"
  type: "Scale"
  bottom: "conv0_4/bn"
  top: "conv0_4/bn"
  scale_param {
    filler {
      value: 1
    }
    bias_term: true
    bias_filler {
      value: 0
    }
  }
}
layer {
  name: "relu0_4"
  type: "ReLU"
  bottom: "conv0_4/bn"
  top: "conv0_4/bn"
}
layer {
  name: "conv0_4"
  type: "Convolution"
  bottom: "conv0_4/bn"
  top: "conv0_4"
  convolution_param {
    num_output: 32
    bias_term: false
    pad: 1
    kernel_size: 3
    stride: 1
    weight_filler {
      type: "msra"
    }
    bias_filler {
      type: "constant"
    }
    engine: CUDNN
  }
}
layer {
  name: "concat0_4"
  type: "Concat"
  bottom: "concat0_3"
  bottom: "conv0_4"
  top: "concat0_4"
  concat_param {
    axis: 1
  }
}
layer {
  name: "conv0_5/bn"
  type: "BatchNorm"
  bottom: "concat0_4"
  top: "conv0_5/bn"
  param {
    lr_mult: 0
    decay_mult: 0
  }
  param {
    lr_mult: 0
    decay_mult: 0
  }
  param {
    lr_mult: 0
    decay_mult: 0
  }
}
layer {
  name: "conv0_5/scale"
  type: "Scale"
  bottom: "conv0_5/bn"
  top: "conv0_5/bn"
  scale_param {
    filler {
      value: 1
    }
    bias_term: true
    bias_filler {
      value: 0
    }
  }
}
layer {
  name: "relu0_5"
  type: "ReLU"
  bottom: "conv0_5/bn"
  top: "conv0_5/bn"
}
layer {
  name: "conv0_5"
  type: "Convolution"
  bottom: "conv0_5/bn"
  top: "conv0_5"
  convolution_param {
    num_output: 32
    bias_term: false
    pad: 1
    kernel_size: 3
    stride: 1
    weight_filler {
      type: "msra"
    }
    bias_filler {
      type: "constant"
    }
    engine: CUDNN
  }
}
layer {
  name: "concat0_5"
  type: "Concat"
  bottom: "concat0_4"
  bottom: "conv0_5"
  top: "concat0_5"
  concat_param {
    axis: 1
  }
}
layer {
  name: "BatchNorm1"
  type: "BatchNorm"
  bottom: "concat0_5"
  top: "BatchNorm1"
  param {
    lr_mult: 0
    decay_mult: 0
  }
  param {
    lr_mult: 0
    decay_mult: 0
  }
  param {
    lr_mult: 0
    decay_mult: 0
  }
}
layer {
  name: "Scale1"
  type: "Scale"
  bottom: "BatchNorm1"
  top: "BatchNorm1"
  scale_param {
    filler {
      value: 1
    }
    bias_term: true
    bias_filler {
      value: 0
    }
  }
}
layer {
  name: "ReLU1"
  type: "ReLU"
  bottom: "BatchNorm1"
  top: "BatchNorm1"
}
layer {
  name: "conv0_blk"
  type: "Convolution"
  bottom: "BatchNorm1"
  top: "conv0_blk"
  convolution_param {
    num_output: 224
    bias_term: false
    pad: 0
    kernel_size: 1
    stride: 1
    weight_filler {
      type: "msra"
    }
    bias_filler {
      type: "constant"
    }
    engine: CUDNN
  }
}
layer {
  name: "pool0"
  type: "Pooling"
  bottom: "conv0_blk"
  top: "pool0"
  pooling_param {
    pool: AVE
    kernel_size: 2
    stride: 2
  }
}
layer {
  name: "conv1_0/bn"
  type: "BatchNorm"
  bottom: "pool0"
  top: "conv1_0/bn"
  param {
    lr_mult: 0
    decay_mult: 0
  }
  param {
    lr_mult: 0
    decay_mult: 0
  }
  param {
    lr_mult: 0
    decay_mult: 0
  }
}
layer {
  name: "conv1_0/scale"
  type: "Scale"
  bottom: "conv1_0/bn"
  top: "conv1_0/bn"
  scale_param {
    filler {
      value: 1
    }
    bias_term: true
    bias_filler {
      value: 0
    }
  }
}
layer {
  name: "relu1_0"
  type: "ReLU"
  bottom: "conv1_0/bn"
  top: "conv1_0/bn"
}
layer {
  name: "conv1_0"
  type: "Convolution"
  bottom: "conv1_0/bn"
  top: "conv1_0"
  convolution_param {
    num_output: 32
    bias_term: false
    pad: 1
    kernel_size: 3
    stride: 1
    weight_filler {
      type: "msra"
    }
    bias_filler {
      type: "constant"
    }
    engine: CUDNN
  }
}
layer {
  name: "concat1_0"
  type: "Concat"
  bottom: "pool0"
  bottom: "conv1_0"
  top: "concat1_0"
  concat_param {
    axis: 1
  }
}
layer {
  name: "conv1_1/bn"
  type: "BatchNorm"
  bottom: "concat1_0"
  top: "conv1_1/bn"
  param {
    lr_mult: 0
    decay_mult: 0
  }
  param {
    lr_mult: 0
    decay_mult: 0
  }
  param {
    lr_mult: 0
    decay_mult: 0
  }
}
layer {
  name: "conv1_1/scale"
  type: "Scale"
  bottom: "conv1_1/bn"
  top: "conv1_1/bn"
  scale_param {
    filler {
      value: 1
    }
    bias_term: true
    bias_filler {
      value: 0
    }
  }
}
layer {
  name: "relu1_1"
  type: "ReLU"
  bottom: "conv1_1/bn"
  top: "conv1_1/bn"
}
layer {
  name: "conv1_1"
  type: "Convolution"
  bottom: "conv1_1/bn"
  top: "conv1_1"
  convolution_param {
    num_output: 32
    bias_term: false
    pad: 1
    kernel_size: 3
    stride: 1
    weight_filler {
      type: "msra"
    }
    bias_filler {
      type: "constant"
    }
    engine: CUDNN
  }
}
layer {
  name: "concat1_1"
  type: "Concat"
  bottom: "concat1_0"
  bottom: "conv1_1"
  top: "concat1_1"
  concat_param {
    axis: 1
  }
}
layer {
  name: "conv1_2/bn"
  type: "BatchNorm"
  bottom: "concat1_1"
  top: "conv1_2/bn"
  param {
    lr_mult: 0
    decay_mult: 0
  }
  param {
    lr_mult: 0
    decay_mult: 0
  }
  param {
    lr_mult: 0
    decay_mult: 0
  }
}
layer {
  name: "conv1_2/scale"
  type: "Scale"
  bottom: "conv1_2/bn"
  top: "conv1_2/bn"
  scale_param {
    filler {
      value: 1
    }
    bias_term: true
    bias_filler {
      value: 0
    }
  }
}
layer {
  name: "relu1_2"
  type: "ReLU"
  bottom: "conv1_2/bn"
  top: "conv1_2/bn"
}
layer {
  name: "conv1_2"
  type: "Convolution"
  bottom: "conv1_2/bn"
  top: "conv1_2"
  convolution_param {
    num_output: 32
    bias_term: false
    pad: 1
    kernel_size: 3
    stride: 1
    weight_filler {
      type: "msra"
    }
    bias_filler {
      type: "constant"
    }
    engine: CUDNN
  }
}
layer {
  name: "concat1_2"
  type: "Concat"
  bottom: "concat1_1"
  bottom: "conv1_2"
  top: "concat1_2"
  concat_param {
    axis: 1
  }
}
layer {
  name: "conv1_3/bn"
  type: "BatchNorm"
  bottom: "concat1_2"
  top: "conv1_3/bn"
  param {
    lr_mult: 0
    decay_mult: 0
  }
  param {
    lr_mult: 0
    decay_mult: 0
  }
  param {
    lr_mult: 0
    decay_mult: 0
  }
}
layer {
  name: "conv1_3/scale"
  type: "Scale"
  bottom: "conv1_3/bn"
  top: "conv1_3/bn"
  scale_param {
    filler {
      value: 1
    }
    bias_term: true
    bias_filler {
      value: 0
    }
  }
}
layer {
  name: "relu1_3"
  type: "ReLU"
  bottom: "conv1_3/bn"
  top: "conv1_3/bn"
}
layer {
  name: "conv1_3"
  type: "Convolution"
  bottom: "conv1_3/bn"
  top: "conv1_3"
  convolution_param {
    num_output: 32
    bias_term: false
    pad: 1
    kernel_size: 3
    stride: 1
    weight_filler {
      type: "msra"
    }
    bias_filler {
      type: "constant"
    }
    engine: CUDNN
  }
}
layer {
  name: "concat1_3"
  type: "Concat"
  bottom: "concat1_2"
  bottom: "conv1_3"
  top: "concat1_3"
  concat_param {
    axis: 1
  }
}
layer {
  name: "conv1_4/bn"
  type: "BatchNorm"
  bottom: "concat1_3"
  top: "conv1_4/bn"
  param {
    lr_mult: 0
    decay_mult: 0
  }
  param {
    lr_mult: 0
    decay_mult: 0
  }
  param {
    lr_mult: 0
    decay_mult: 0
  }
}
layer {
  name: "conv1_4/scale"
  type: "Scale"
  bottom: "conv1_4/bn"
  top: "conv1_4/bn"
  scale_param {
    filler {
      value: 1
    }
    bias_term: true
    bias_filler {
      value: 0
    }
  }
}
layer {
  name: "relu1_4"
  type: "ReLU"
  bottom: "conv1_4/bn"
  top: "conv1_4/bn"
}
layer {
  name: "conv1_4"
  type: "Convolution"
  bottom: "conv1_4/bn"
  top: "conv1_4"
  convolution_param {
    num_output: 32
    bias_term: false
    pad: 1
    kernel_size: 3
    stride: 1
    weight_filler {
      type: "msra"
    }
    bias_filler {
      type: "constant"
    }
    engine: CUDNN
  }
}
layer {
  name: "concat1_4"
  type: "Concat"
  bottom: "concat1_3"
  bottom: "conv1_4"
  top: "concat1_4"
  concat_param {
    axis: 1
  }
}
layer {
  name: "conv1_5/bn"
  type: "BatchNorm"
  bottom: "concat1_4"
  top: "conv1_5/bn"
  param {
    lr_mult: 0
    decay_mult: 0
  }
  param {
    lr_mult: 0
    decay_mult: 0
  }
  param {
    lr_mult: 0
    decay_mult: 0
  }
}
layer {
  name: "conv1_5/scale"
  type: "Scale"
  bottom: "conv1_5/bn"
  top: "conv1_5/bn"
  scale_param {
    filler {
      value: 1
    }
    bias_term: true
    bias_filler {
      value: 0
    }
  }
}
layer {
  name: "relu1_5"
  type: "ReLU"
  bottom: "conv1_5/bn"
  top: "conv1_5/bn"
}
layer {
  name: "conv1_5"
  type: "Convolution"
  bottom: "conv1_5/bn"
  top: "conv1_5"
  convolution_param {
    num_output: 32
    bias_term: false
    pad: 1
    kernel_size: 3
    stride: 1
    weight_filler {
      type: "msra"
    }
    bias_filler {
      type: "constant"
    }
    engine: CUDNN
  }
}
layer {
  name: "concat1_5"
  type: "Concat"
  bottom: "concat1_4"
  bottom: "conv1_5"
  top: "concat1_5"
  concat_param {
    axis: 1
  }
}
layer {
  name: "conv1_6/bn"
  type: "BatchNorm"
  bottom: "concat1_5"
  top: "conv1_6/bn"
  param {
    lr_mult: 0
    decay_mult: 0
  }
  param {
    lr_mult: 0
    decay_mult: 0
  }
  param {
    lr_mult: 0
    decay_mult: 0
  }
}
layer {
  name: "conv1_6/scale"
  type: "Scale"
  bottom: "conv1_6/bn"
  top: "conv1_6/bn"
  scale_param {
    filler {
      value: 1
    }
    bias_term: true
    bias_filler {
      value: 0
    }
  }
}
layer {
  name: "relu1_6"
  type: "ReLU"
  bottom: "conv1_6/bn"
  top: "conv1_6/bn"
}
layer {
  name: "conv1_6"
  type: "Convolution"
  bottom: "conv1_6/bn"
  top: "conv1_6"
  convolution_param {
    num_output: 32
    bias_term: false
    pad: 1
    kernel_size: 3
    stride: 1
    weight_filler {
      type: "msra"
    }
    bias_filler {
      type: "constant"
    }
    engine: CUDNN
  }
}
layer {
  name: "concat1_6"
  type: "Concat"
  bottom: "concat1_5"
  bottom: "conv1_6"
  top: "concat1_6"
  concat_param {
    axis: 1
  }
}
layer {
  name: "conv1_7/bn"
  type: "BatchNorm"
  bottom: "concat1_6"
  top: "conv1_7/bn"
  param {
    lr_mult: 0
    decay_mult: 0
  }
  param {
    lr_mult: 0
    decay_mult: 0
  }
  param {
    lr_mult: 0
    decay_mult: 0
  }
}
layer {
  name: "conv1_7/scale"
  type: "Scale"
  bottom: "conv1_7/bn"
  top: "conv1_7/bn"
  scale_param {
    filler {
      value: 1
    }
    bias_term: true
    bias_filler {
      value: 0
    }
  }
}
layer {
  name: "relu1_7"
  type: "ReLU"
  bottom: "conv1_7/bn"
  top: "conv1_7/bn"
}
layer {
  name: "conv1_7"
  type: "Convolution"
  bottom: "conv1_7/bn"
  top: "conv1_7"
  convolution_param {
    num_output: 32
    bias_term: false
    pad: 1
    kernel_size: 3
    stride: 1
    weight_filler {
      type: "msra"
    }
    bias_filler {
      type: "constant"
    }
    engine: CUDNN
  }
}
layer {
  name: "concat1_7"
  type: "Concat"
  bottom: "concat1_6"
  bottom: "conv1_7"
  top: "concat1_7"
  concat_param {
    axis: 1
  }
}
layer {
  name: "conv1_8/bn"
  type: "BatchNorm"
  bottom: "concat1_7"
  top: "conv1_8/bn"
  param {
    lr_mult: 0
    decay_mult: 0
  }
  param {
    lr_mult: 0
    decay_mult: 0
  }
  param {
    lr_mult: 0
    decay_mult: 0
  }
}
layer {
  name: "conv1_8/scale"
  type: "Scale"
  bottom: "conv1_8/bn"
  top: "conv1_8/bn"
  scale_param {
    filler {
      value: 1
    }
    bias_term: true
    bias_filler {
      value: 0
    }
  }
}
layer {
  name: "relu1_8"
  type: "ReLU"
  bottom: "conv1_8/bn"
  top: "conv1_8/bn"
}
layer {
  name: "conv1_8"
  type: "Convolution"
  bottom: "conv1_8/bn"
  top: "conv1_8"
  convolution_param {
    num_output: 32
    bias_term: false
    pad: 1
    kernel_size: 3
    stride: 1
    weight_filler {
      type: "msra"
    }
    bias_filler {
      type: "constant"
    }
    engine: CUDNN
  }
}
layer {
  name: "concat1_8"
  type: "Concat"
  bottom: "concat1_7"
  bottom: "conv1_8"
  top: "concat1_8"
  concat_param {
    axis: 1
  }
}
layer {
  name: "conv1_9/bn"
  type: "BatchNorm"
  bottom: "concat1_8"
  top: "conv1_9/bn"
  param {
    lr_mult: 0
    decay_mult: 0
  }
  param {
    lr_mult: 0
    decay_mult: 0
  }
  param {
    lr_mult: 0
    decay_mult: 0
  }
}
layer {
  name: "conv1_9/scale"
  type: "Scale"
  bottom: "conv1_9/bn"
  top: "conv1_9/bn"
  scale_param {
    filler {
      value: 1
    }
    bias_term: true
    bias_filler {
      value: 0
    }
  }
}
layer {
  name: "relu1_9"
  type: "ReLU"
  bottom: "conv1_9/bn"
  top: "conv1_9/bn"
}
layer {
  name: "conv1_9"
  type: "Convolution"
  bottom: "conv1_9/bn"
  top: "conv1_9"
  convolution_param {
    num_output: 32
    bias_term: false
    pad: 1
    kernel_size: 3
    stride: 1
    weight_filler {
      type: "msra"
    }
    bias_filler {
      type: "constant"
    }
    engine: CUDNN
  }
}
layer {
  name: "concat1_9"
  type: "Concat"
  bottom: "concat1_8"
  bottom: "conv1_9"
  top: "concat1_9"
  concat_param {
    axis: 1
  }
}
layer {
  name: "conv1_10/bn"
  type: "BatchNorm"
  bottom: "concat1_9"
  top: "conv1_10/bn"
  param {
    lr_mult: 0
    decay_mult: 0
  }
  param {
    lr_mult: 0
    decay_mult: 0
  }
  param {
    lr_mult: 0
    decay_mult: 0
  }
}
layer {
  name: "conv1_10/scale"
  type: "Scale"
  bottom: "conv1_10/bn"
  top: "conv1_10/bn"
  scale_param {
    filler {
      value: 1
    }
    bias_term: true
    bias_filler {
      value: 0
    }
  }
}
layer {
  name: "relu1_10"
  type: "ReLU"
  bottom: "conv1_10/bn"
  top: "conv1_10/bn"
}
layer {
  name: "conv1_10"
  type: "Convolution"
  bottom: "conv1_10/bn"
  top: "conv1_10"
  convolution_param {
    num_output: 32
    bias_term: false
    pad: 1
    kernel_size: 3
    stride: 1
    weight_filler {
      type: "msra"
    }
    bias_filler {
      type: "constant"
    }
    engine: CUDNN
  }
}
layer {
  name: "concat1_10"
  type: "Concat"
  bottom: "concat1_9"
  bottom: "conv1_10"
  top: "concat1_10"
  concat_param {
    axis: 1
  }
}
layer {
  name: "conv1_11/bn"
  type: "BatchNorm"
  bottom: "concat1_10"
  top: "conv1_11/bn"
  param {
    lr_mult: 0
    decay_mult: 0
  }
  param {
    lr_mult: 0
    decay_mult: 0
  }
  param {
    lr_mult: 0
    decay_mult: 0
  }
}
layer {
  name: "conv1_11/scale"
  type: "Scale"
  bottom: "conv1_11/bn"
  top: "conv1_11/bn"
  scale_param {
    filler {
      value: 1
    }
    bias_term: true
    bias_filler {
      value: 0
    }
  }
}
layer {
  name: "relu1_11"
  type: "ReLU"
  bottom: "conv1_11/bn"
  top: "conv1_11/bn"
}
layer {
  name: "conv1_11"
  type: "Convolution"
  bottom: "conv1_11/bn"
  top: "conv1_11"
  convolution_param {
    num_output: 32
    bias_term: false
    pad: 1
    kernel_size: 3
    stride: 1
    weight_filler {
      type: "msra"
    }
    bias_filler {
      type: "constant"
    }
    engine: CUDNN
  }
}
layer {
  name: "concat1_11"
  type: "Concat"
  bottom: "concat1_10"
  bottom: "conv1_11"
  top: "concat1_11"
  concat_param {
    axis: 1
  }
}
layer {
  name: "tpp5"
  type: "TPP"
  bottom: "concat1_11"
  top: "tpp5"
  tpp_param {
    pyramid_layer: 1
    pyramid_layer: 2
    pyramid_layer: 3
    pyramid_layer: 4
    pyramid_layer: 5
    pool: MAX
    engine: CUDNN
  }
}
layer {
  name: "reshape"
  type: "Reshape"
  bottom: "tpp5"
  top: "reshape"
  reshape_param {
    shape {
      dim: 1
      dim: 4560
      dim: 2
      dim: 1
    }
  }
}
layer {
  name: "premax"
  type: "Scale"
  bottom: "reshape"
  top: "premax"
  param {
    lr_mult: 0
    decay_mult: 0
  }
  scale_param {
    num_axes: 3
    filler {
      value: 1
    }
    bias_term: false
    bias_filler {
      value: 0
    }
  }
}
layer {
  name: "maxout"
  type: "Pooling"
  bottom: "premax"
  top: "maxout"
  pooling_param {
    pool: MAX
    global_pooling: true
  }
}
layer {
  name: "fc6_d"
  type: "InnerProduct"
  bottom: "maxout"
  top: "fc6_d"
  inner_product_param {
    num_output: 4096
    weight_filler {
      type: "msra"
    }
    bias_filler {
      type: "constant"
    }
  }
}
layer {
  name: "relu6"
  type: "ReLU"
  bottom: "fc6_d"
  top: "fc6_d"
}
layer {
  name: "drop6"
  type: "Dropout"
  bottom: "fc6_d"
  top: "fc6_d"
  include {
    phase: TRAIN
  }
  dropout_param {
    dropout_ratio: 0.5
  }
}
layer {
  name: "fc7_d"
  type: "InnerProduct"
  bottom: "fc6_d"
  top: "fc7_d"
  inner_product_param {
    num_output: 4096
    weight_filler {
      type: "msra"
    }
    bias_filler {
      type: "constant"
    }
  }
}
layer {
  name: "relu7"
  type: "ReLU"
  bottom: "fc7_d"
  top: "fc7_d"
}
layer {
  name: "drop7"
  type: "Dropout"
  bottom: "fc7_d"
  top: "fc7_d"
  include {
    phase: TRAIN
  }
  dropout_param {
    dropout_ratio: 0.5
  }
}
layer {
  name: "fc8_d"
  type: "InnerProduct"
  bottom: "fc7_d"
  top: "fc8_d"
  inner_product_param {
    num_output: 604
    weight_filler {
      type: "msra"
    }
    bias_filler {
      type: "constant"
    }
  }
}
layer {
  name: "loss"
  type: "SigmoidCrossEntropyLoss"
  bottom: "fc8_d"
  bottom: "phocs"
  top: "loss"
}
I1215 18:08:04.800411 13151 layer_factory.hpp:77] Creating layer word_images
I1215 18:08:04.800503 13151 db_lmdb.cpp:35] Opened lmdb /data/fwolf/min26/gw_cv1_nti500000_pul2-3-4-5_train_word_images_lmdb
I1215 18:08:04.800544 13151 net.cpp:84] Creating Layer word_images
I1215 18:08:04.800551 13151 net.cpp:380] word_images -> word_images
I1215 18:08:04.800566 13151 net.cpp:380] word_images -> label
I1215 18:08:04.801872 13151 data_layer.cpp:44] output data size: 1,1,108,244
I1215 18:08:04.807801 13151 net.cpp:122] Setting up word_images
I1215 18:08:04.807835 13151 net.cpp:129] Top shape: 1 1 108 244 (26352)
I1215 18:08:04.807842 13151 net.cpp:129] Top shape: 1 (1)
I1215 18:08:04.807847 13151 net.cpp:137] Memory required for data: 105412
I1215 18:08:04.807854 13151 layer_factory.hpp:77] Creating layer phocs
I1215 18:08:04.807934 13151 db_lmdb.cpp:35] Opened lmdb /data/fwolf/min26/gw_cv1_nti500000_pul2-3-4-5_train_phocs_lmdb
I1215 18:08:04.807973 13151 net.cpp:84] Creating Layer phocs
I1215 18:08:04.807981 13151 net.cpp:380] phocs -> phocs
I1215 18:08:04.807996 13151 net.cpp:380] phocs -> label_phocs
I1215 18:08:04.808493 13151 data_layer.cpp:44] output data size: 1,1,1,604
I1215 18:08:04.812511 13151 net.cpp:122] Setting up phocs
I1215 18:08:04.812551 13151 net.cpp:129] Top shape: 1 1 1 604 (604)
I1215 18:08:04.812557 13151 net.cpp:129] Top shape: 1 (1)
I1215 18:08:04.812561 13151 net.cpp:137] Memory required for data: 107832
I1215 18:08:04.812568 13151 layer_factory.hpp:77] Creating layer conv_init
I1215 18:08:04.812588 13151 net.cpp:84] Creating Layer conv_init
I1215 18:08:04.812593 13151 net.cpp:406] conv_init <- word_images
I1215 18:08:04.812604 13151 net.cpp:380] conv_init -> conv_init
I1215 18:08:06.763336 13151 net.cpp:122] Setting up conv_init
I1215 18:08:06.763376 13151 net.cpp:129] Top shape: 1 32 108 244 (843264)
I1215 18:08:06.763382 13151 net.cpp:137] Memory required for data: 3480888
I1215 18:08:06.763396 13151 layer_factory.hpp:77] Creating layer bn_init
I1215 18:08:06.763412 13151 net.cpp:84] Creating Layer bn_init
I1215 18:08:06.763418 13151 net.cpp:406] bn_init <- conv_init
I1215 18:08:06.763427 13151 net.cpp:380] bn_init -> bn_init
I1215 18:08:06.816855 13151 net.cpp:122] Setting up bn_init
I1215 18:08:06.816895 13151 net.cpp:129] Top shape: 1 32 108 244 (843264)
I1215 18:08:06.816900 13151 net.cpp:137] Memory required for data: 6853944
I1215 18:08:06.816921 13151 layer_factory.hpp:77] Creating layer scale_init
I1215 18:08:06.816939 13151 net.cpp:84] Creating Layer scale_init
I1215 18:08:06.816944 13151 net.cpp:406] scale_init <- bn_init
I1215 18:08:06.816953 13151 net.cpp:367] scale_init -> bn_init (in-place)
I1215 18:08:06.817037 13151 layer_factory.hpp:77] Creating layer scale_init
I1215 18:08:06.817560 13151 net.cpp:122] Setting up scale_init
I1215 18:08:06.817574 13151 net.cpp:129] Top shape: 1 32 108 244 (843264)
I1215 18:08:06.817579 13151 net.cpp:137] Memory required for data: 10227000
I1215 18:08:06.817589 13151 layer_factory.hpp:77] Creating layer relu_init
I1215 18:08:06.817597 13151 net.cpp:84] Creating Layer relu_init
I1215 18:08:06.817602 13151 net.cpp:406] relu_init <- bn_init
I1215 18:08:06.817610 13151 net.cpp:367] relu_init -> bn_init (in-place)
I1215 18:08:06.818157 13151 net.cpp:122] Setting up relu_init
I1215 18:08:06.818172 13151 net.cpp:129] Top shape: 1 32 108 244 (843264)
I1215 18:08:06.818177 13151 net.cpp:137] Memory required for data: 13600056
I1215 18:08:06.818182 13151 layer_factory.hpp:77] Creating layer pool_init
I1215 18:08:06.818190 13151 net.cpp:84] Creating Layer pool_init
I1215 18:08:06.818194 13151 net.cpp:406] pool_init <- bn_init
I1215 18:08:06.818202 13151 net.cpp:380] pool_init -> pool_init
I1215 18:08:06.818279 13151 net.cpp:122] Setting up pool_init
I1215 18:08:06.818289 13151 net.cpp:129] Top shape: 1 32 55 123 (216480)
I1215 18:08:06.818292 13151 net.cpp:137] Memory required for data: 14465976
I1215 18:08:06.818296 13151 layer_factory.hpp:77] Creating layer pool_init_pool_init_0_split
I1215 18:08:06.818303 13151 net.cpp:84] Creating Layer pool_init_pool_init_0_split
I1215 18:08:06.818307 13151 net.cpp:406] pool_init_pool_init_0_split <- pool_init
I1215 18:08:06.818313 13151 net.cpp:380] pool_init_pool_init_0_split -> pool_init_pool_init_0_split_0
I1215 18:08:06.818320 13151 net.cpp:380] pool_init_pool_init_0_split -> pool_init_pool_init_0_split_1
I1215 18:08:06.818377 13151 net.cpp:122] Setting up pool_init_pool_init_0_split
I1215 18:08:06.818384 13151 net.cpp:129] Top shape: 1 32 55 123 (216480)
I1215 18:08:06.818389 13151 net.cpp:129] Top shape: 1 32 55 123 (216480)
I1215 18:08:06.818393 13151 net.cpp:137] Memory required for data: 16197816
I1215 18:08:06.818397 13151 layer_factory.hpp:77] Creating layer conv0_0/bn
I1215 18:08:06.818406 13151 net.cpp:84] Creating Layer conv0_0/bn
I1215 18:08:06.818410 13151 net.cpp:406] conv0_0/bn <- pool_init_pool_init_0_split_0
I1215 18:08:06.818416 13151 net.cpp:380] conv0_0/bn -> conv0_0/bn
I1215 18:08:06.819521 13151 net.cpp:122] Setting up conv0_0/bn
I1215 18:08:06.819542 13151 net.cpp:129] Top shape: 1 32 55 123 (216480)
I1215 18:08:06.819546 13151 net.cpp:137] Memory required for data: 17063736
I1215 18:08:06.819562 13151 layer_factory.hpp:77] Creating layer conv0_0/scale
I1215 18:08:06.819573 13151 net.cpp:84] Creating Layer conv0_0/scale
I1215 18:08:06.819578 13151 net.cpp:406] conv0_0/scale <- conv0_0/bn
I1215 18:08:06.819586 13151 net.cpp:367] conv0_0/scale -> conv0_0/bn (in-place)
I1215 18:08:06.819656 13151 layer_factory.hpp:77] Creating layer conv0_0/scale
I1215 18:08:06.820163 13151 net.cpp:122] Setting up conv0_0/scale
I1215 18:08:06.820174 13151 net.cpp:129] Top shape: 1 32 55 123 (216480)
I1215 18:08:06.820176 13151 net.cpp:137] Memory required for data: 17929656
I1215 18:08:06.820183 13151 layer_factory.hpp:77] Creating layer relu0_0
I1215 18:08:06.820188 13151 net.cpp:84] Creating Layer relu0_0
I1215 18:08:06.820192 13151 net.cpp:406] relu0_0 <- conv0_0/bn
I1215 18:08:06.820196 13151 net.cpp:367] relu0_0 -> conv0_0/bn (in-place)
I1215 18:08:06.820396 13151 net.cpp:122] Setting up relu0_0
I1215 18:08:06.820405 13151 net.cpp:129] Top shape: 1 32 55 123 (216480)
I1215 18:08:06.820406 13151 net.cpp:137] Memory required for data: 18795576
I1215 18:08:06.820410 13151 layer_factory.hpp:77] Creating layer conv0_0
I1215 18:08:06.820418 13151 net.cpp:84] Creating Layer conv0_0
I1215 18:08:06.820422 13151 net.cpp:406] conv0_0 <- conv0_0/bn
I1215 18:08:06.820426 13151 net.cpp:380] conv0_0 -> conv0_0
I1215 18:08:06.821768 13151 net.cpp:122] Setting up conv0_0
I1215 18:08:06.821781 13151 net.cpp:129] Top shape: 1 32 55 123 (216480)
I1215 18:08:06.821785 13151 net.cpp:137] Memory required for data: 19661496
I1215 18:08:06.821790 13151 layer_factory.hpp:77] Creating layer concat0_0
I1215 18:08:06.821796 13151 net.cpp:84] Creating Layer concat0_0
I1215 18:08:06.821801 13151 net.cpp:406] concat0_0 <- pool_init_pool_init_0_split_1
I1215 18:08:06.821805 13151 net.cpp:406] concat0_0 <- conv0_0
I1215 18:08:06.821810 13151 net.cpp:380] concat0_0 -> concat0_0
I1215 18:08:06.821841 13151 net.cpp:122] Setting up concat0_0
I1215 18:08:06.821846 13151 net.cpp:129] Top shape: 1 64 55 123 (432960)
I1215 18:08:06.821849 13151 net.cpp:137] Memory required for data: 21393336
I1215 18:08:06.821851 13151 layer_factory.hpp:77] Creating layer concat0_0_concat0_0_0_split
I1215 18:08:06.821856 13151 net.cpp:84] Creating Layer concat0_0_concat0_0_0_split
I1215 18:08:06.821859 13151 net.cpp:406] concat0_0_concat0_0_0_split <- concat0_0
I1215 18:08:06.821863 13151 net.cpp:380] concat0_0_concat0_0_0_split -> concat0_0_concat0_0_0_split_0
I1215 18:08:06.821867 13151 net.cpp:380] concat0_0_concat0_0_0_split -> concat0_0_concat0_0_0_split_1
I1215 18:08:06.821910 13151 net.cpp:122] Setting up concat0_0_concat0_0_0_split
I1215 18:08:06.821915 13151 net.cpp:129] Top shape: 1 64 55 123 (432960)
I1215 18:08:06.821918 13151 net.cpp:129] Top shape: 1 64 55 123 (432960)
I1215 18:08:06.821920 13151 net.cpp:137] Memory required for data: 24857016
I1215 18:08:06.821923 13151 layer_factory.hpp:77] Creating layer conv0_1/bn
I1215 18:08:06.821928 13151 net.cpp:84] Creating Layer conv0_1/bn
I1215 18:08:06.821930 13151 net.cpp:406] conv0_1/bn <- concat0_0_concat0_0_0_split_0
I1215 18:08:06.821934 13151 net.cpp:380] conv0_1/bn -> conv0_1/bn
I1215 18:08:06.822191 13151 net.cpp:122] Setting up conv0_1/bn
I1215 18:08:06.822197 13151 net.cpp:129] Top shape: 1 64 55 123 (432960)
I1215 18:08:06.822201 13151 net.cpp:137] Memory required for data: 26588856
I1215 18:08:06.822206 13151 layer_factory.hpp:77] Creating layer conv0_1/scale
I1215 18:08:06.822212 13151 net.cpp:84] Creating Layer conv0_1/scale
I1215 18:08:06.822216 13151 net.cpp:406] conv0_1/scale <- conv0_1/bn
I1215 18:08:06.822218 13151 net.cpp:367] conv0_1/scale -> conv0_1/bn (in-place)
I1215 18:08:06.822268 13151 layer_factory.hpp:77] Creating layer conv0_1/scale
I1215 18:08:06.822425 13151 net.cpp:122] Setting up conv0_1/scale
I1215 18:08:06.822432 13151 net.cpp:129] Top shape: 1 64 55 123 (432960)
I1215 18:08:06.822440 13151 net.cpp:137] Memory required for data: 28320696
I1215 18:08:06.822448 13151 layer_factory.hpp:77] Creating layer relu0_1
I1215 18:08:06.822455 13151 net.cpp:84] Creating Layer relu0_1
I1215 18:08:06.822458 13151 net.cpp:406] relu0_1 <- conv0_1/bn
I1215 18:08:06.822463 13151 net.cpp:367] relu0_1 -> conv0_1/bn (in-place)
I1215 18:08:06.823788 13151 net.cpp:122] Setting up relu0_1
I1215 18:08:06.823803 13151 net.cpp:129] Top shape: 1 64 55 123 (432960)
I1215 18:08:06.823807 13151 net.cpp:137] Memory required for data: 30052536
I1215 18:08:06.823809 13151 layer_factory.hpp:77] Creating layer conv0_1
I1215 18:08:06.823820 13151 net.cpp:84] Creating Layer conv0_1
I1215 18:08:06.823823 13151 net.cpp:406] conv0_1 <- conv0_1/bn
I1215 18:08:06.823829 13151 net.cpp:380] conv0_1 -> conv0_1
I1215 18:08:06.825556 13151 net.cpp:122] Setting up conv0_1
I1215 18:08:06.825573 13151 net.cpp:129] Top shape: 1 32 55 123 (216480)
I1215 18:08:06.825577 13151 net.cpp:137] Memory required for data: 30918456
I1215 18:08:06.825583 13151 layer_factory.hpp:77] Creating layer concat0_1
I1215 18:08:06.825590 13151 net.cpp:84] Creating Layer concat0_1
I1215 18:08:06.825595 13151 net.cpp:406] concat0_1 <- concat0_0_concat0_0_0_split_1
I1215 18:08:06.825599 13151 net.cpp:406] concat0_1 <- conv0_1
I1215 18:08:06.825603 13151 net.cpp:380] concat0_1 -> concat0_1
I1215 18:08:06.825641 13151 net.cpp:122] Setting up concat0_1
I1215 18:08:06.825647 13151 net.cpp:129] Top shape: 1 96 55 123 (649440)
I1215 18:08:06.825650 13151 net.cpp:137] Memory required for data: 33516216
I1215 18:08:06.825654 13151 layer_factory.hpp:77] Creating layer concat0_1_concat0_1_0_split
I1215 18:08:06.825659 13151 net.cpp:84] Creating Layer concat0_1_concat0_1_0_split
I1215 18:08:06.825661 13151 net.cpp:406] concat0_1_concat0_1_0_split <- concat0_1
I1215 18:08:06.825665 13151 net.cpp:380] concat0_1_concat0_1_0_split -> concat0_1_concat0_1_0_split_0
I1215 18:08:06.825670 13151 net.cpp:380] concat0_1_concat0_1_0_split -> concat0_1_concat0_1_0_split_1
I1215 18:08:06.825713 13151 net.cpp:122] Setting up concat0_1_concat0_1_0_split
I1215 18:08:06.825718 13151 net.cpp:129] Top shape: 1 96 55 123 (649440)
I1215 18:08:06.825721 13151 net.cpp:129] Top shape: 1 96 55 123 (649440)
I1215 18:08:06.825724 13151 net.cpp:137] Memory required for data: 38711736
I1215 18:08:06.825726 13151 layer_factory.hpp:77] Creating layer conv0_2/bn
I1215 18:08:06.825731 13151 net.cpp:84] Creating Layer conv0_2/bn
I1215 18:08:06.825734 13151 net.cpp:406] conv0_2/bn <- concat0_1_concat0_1_0_split_0
I1215 18:08:06.825738 13151 net.cpp:380] conv0_2/bn -> conv0_2/bn
I1215 18:08:06.826025 13151 net.cpp:122] Setting up conv0_2/bn
I1215 18:08:06.826031 13151 net.cpp:129] Top shape: 1 96 55 123 (649440)
I1215 18:08:06.826033 13151 net.cpp:137] Memory required for data: 41309496
I1215 18:08:06.826040 13151 layer_factory.hpp:77] Creating layer conv0_2/scale
I1215 18:08:06.826046 13151 net.cpp:84] Creating Layer conv0_2/scale
I1215 18:08:06.826050 13151 net.cpp:406] conv0_2/scale <- conv0_2/bn
I1215 18:08:06.826053 13151 net.cpp:367] conv0_2/scale -> conv0_2/bn (in-place)
I1215 18:08:06.826102 13151 layer_factory.hpp:77] Creating layer conv0_2/scale
I1215 18:08:06.826259 13151 net.cpp:122] Setting up conv0_2/scale
I1215 18:08:06.826267 13151 net.cpp:129] Top shape: 1 96 55 123 (649440)
I1215 18:08:06.826268 13151 net.cpp:137] Memory required for data: 43907256
I1215 18:08:06.826273 13151 layer_factory.hpp:77] Creating layer relu0_2
I1215 18:08:06.826278 13151 net.cpp:84] Creating Layer relu0_2
I1215 18:08:06.826282 13151 net.cpp:406] relu0_2 <- conv0_2/bn
I1215 18:08:06.826285 13151 net.cpp:367] relu0_2 -> conv0_2/bn (in-place)
I1215 18:08:06.826447 13151 net.cpp:122] Setting up relu0_2
I1215 18:08:06.826453 13151 net.cpp:129] Top shape: 1 96 55 123 (649440)
I1215 18:08:06.826457 13151 net.cpp:137] Memory required for data: 46505016
I1215 18:08:06.826458 13151 layer_factory.hpp:77] Creating layer conv0_2
I1215 18:08:06.826467 13151 net.cpp:84] Creating Layer conv0_2
I1215 18:08:06.826470 13151 net.cpp:406] conv0_2 <- conv0_2/bn
I1215 18:08:06.826478 13151 net.cpp:380] conv0_2 -> conv0_2
I1215 18:08:06.828415 13151 net.cpp:122] Setting up conv0_2
I1215 18:08:06.828429 13151 net.cpp:129] Top shape: 1 32 55 123 (216480)
I1215 18:08:06.828433 13151 net.cpp:137] Memory required for data: 47370936
I1215 18:08:06.828438 13151 layer_factory.hpp:77] Creating layer concat0_2
I1215 18:08:06.828444 13151 net.cpp:84] Creating Layer concat0_2
I1215 18:08:06.828449 13151 net.cpp:406] concat0_2 <- concat0_1_concat0_1_0_split_1
I1215 18:08:06.828454 13151 net.cpp:406] concat0_2 <- conv0_2
I1215 18:08:06.828457 13151 net.cpp:380] concat0_2 -> concat0_2
I1215 18:08:06.828493 13151 net.cpp:122] Setting up concat0_2
I1215 18:08:06.828500 13151 net.cpp:129] Top shape: 1 128 55 123 (865920)
I1215 18:08:06.828501 13151 net.cpp:137] Memory required for data: 50834616
I1215 18:08:06.828505 13151 layer_factory.hpp:77] Creating layer concat0_2_concat0_2_0_split
I1215 18:08:06.828508 13151 net.cpp:84] Creating Layer concat0_2_concat0_2_0_split
I1215 18:08:06.828511 13151 net.cpp:406] concat0_2_concat0_2_0_split <- concat0_2
I1215 18:08:06.828516 13151 net.cpp:380] concat0_2_concat0_2_0_split -> concat0_2_concat0_2_0_split_0
I1215 18:08:06.828521 13151 net.cpp:380] concat0_2_concat0_2_0_split -> concat0_2_concat0_2_0_split_1
I1215 18:08:06.828564 13151 net.cpp:122] Setting up concat0_2_concat0_2_0_split
I1215 18:08:06.828568 13151 net.cpp:129] Top shape: 1 128 55 123 (865920)
I1215 18:08:06.828572 13151 net.cpp:129] Top shape: 1 128 55 123 (865920)
I1215 18:08:06.828574 13151 net.cpp:137] Memory required for data: 57761976
I1215 18:08:06.828577 13151 layer_factory.hpp:77] Creating layer conv0_3/bn
I1215 18:08:06.828582 13151 net.cpp:84] Creating Layer conv0_3/bn
I1215 18:08:06.828584 13151 net.cpp:406] conv0_3/bn <- concat0_2_concat0_2_0_split_0
I1215 18:08:06.828588 13151 net.cpp:380] conv0_3/bn -> conv0_3/bn
I1215 18:08:06.828845 13151 net.cpp:122] Setting up conv0_3/bn
I1215 18:08:06.828851 13151 net.cpp:129] Top shape: 1 128 55 123 (865920)
I1215 18:08:06.828853 13151 net.cpp:137] Memory required for data: 61225656
I1215 18:08:06.828860 13151 layer_factory.hpp:77] Creating layer conv0_3/scale
I1215 18:08:06.828866 13151 net.cpp:84] Creating Layer conv0_3/scale
I1215 18:08:06.828868 13151 net.cpp:406] conv0_3/scale <- conv0_3/bn
I1215 18:08:06.828872 13151 net.cpp:367] conv0_3/scale -> conv0_3/bn (in-place)
I1215 18:08:06.828917 13151 layer_factory.hpp:77] Creating layer conv0_3/scale
I1215 18:08:06.829061 13151 net.cpp:122] Setting up conv0_3/scale
I1215 18:08:06.829067 13151 net.cpp:129] Top shape: 1 128 55 123 (865920)
I1215 18:08:06.829071 13151 net.cpp:137] Memory required for data: 64689336
I1215 18:08:06.829074 13151 layer_factory.hpp:77] Creating layer relu0_3
I1215 18:08:06.829079 13151 net.cpp:84] Creating Layer relu0_3
I1215 18:08:06.829082 13151 net.cpp:406] relu0_3 <- conv0_3/bn
I1215 18:08:06.829087 13151 net.cpp:367] relu0_3 -> conv0_3/bn (in-place)
I1215 18:08:06.829412 13151 net.cpp:122] Setting up relu0_3
I1215 18:08:06.829421 13151 net.cpp:129] Top shape: 1 128 55 123 (865920)
I1215 18:08:06.829424 13151 net.cpp:137] Memory required for data: 68153016
I1215 18:08:06.829427 13151 layer_factory.hpp:77] Creating layer conv0_3
I1215 18:08:06.829437 13151 net.cpp:84] Creating Layer conv0_3
I1215 18:08:06.829439 13151 net.cpp:406] conv0_3 <- conv0_3/bn
I1215 18:08:06.829444 13151 net.cpp:380] conv0_3 -> conv0_3
I1215 18:08:06.832317 13151 net.cpp:122] Setting up conv0_3
I1215 18:08:06.832341 13151 net.cpp:129] Top shape: 1 32 55 123 (216480)
I1215 18:08:06.832346 13151 net.cpp:137] Memory required for data: 69018936
I1215 18:08:06.832355 13151 layer_factory.hpp:77] Creating layer concat0_3
I1215 18:08:06.832365 13151 net.cpp:84] Creating Layer concat0_3
I1215 18:08:06.832370 13151 net.cpp:406] concat0_3 <- concat0_2_concat0_2_0_split_1
I1215 18:08:06.832377 13151 net.cpp:406] concat0_3 <- conv0_3
I1215 18:08:06.832384 13151 net.cpp:380] concat0_3 -> concat0_3
I1215 18:08:06.832439 13151 net.cpp:122] Setting up concat0_3
I1215 18:08:06.832454 13151 net.cpp:129] Top shape: 1 160 55 123 (1082400)
I1215 18:08:06.832459 13151 net.cpp:137] Memory required for data: 73348536
I1215 18:08:06.832464 13151 layer_factory.hpp:77] Creating layer concat0_3_concat0_3_0_split
I1215 18:08:06.832473 13151 net.cpp:84] Creating Layer concat0_3_concat0_3_0_split
I1215 18:08:06.832478 13151 net.cpp:406] concat0_3_concat0_3_0_split <- concat0_3
I1215 18:08:06.832484 13151 net.cpp:380] concat0_3_concat0_3_0_split -> concat0_3_concat0_3_0_split_0
I1215 18:08:06.832491 13151 net.cpp:380] concat0_3_concat0_3_0_split -> concat0_3_concat0_3_0_split_1
I1215 18:08:06.832572 13151 net.cpp:122] Setting up concat0_3_concat0_3_0_split
I1215 18:08:06.832583 13151 net.cpp:129] Top shape: 1 160 55 123 (1082400)
I1215 18:08:06.832590 13151 net.cpp:129] Top shape: 1 160 55 123 (1082400)
I1215 18:08:06.832594 13151 net.cpp:137] Memory required for data: 82007736
I1215 18:08:06.832599 13151 layer_factory.hpp:77] Creating layer conv0_4/bn
I1215 18:08:06.832610 13151 net.cpp:84] Creating Layer conv0_4/bn
I1215 18:08:06.832617 13151 net.cpp:406] conv0_4/bn <- concat0_3_concat0_3_0_split_0
I1215 18:08:06.832624 13151 net.cpp:380] conv0_4/bn -> conv0_4/bn
I1215 18:08:06.833148 13151 net.cpp:122] Setting up conv0_4/bn
I1215 18:08:06.833159 13151 net.cpp:129] Top shape: 1 160 55 123 (1082400)
I1215 18:08:06.833163 13151 net.cpp:137] Memory required for data: 86337336
I1215 18:08:06.833178 13151 layer_factory.hpp:77] Creating layer conv0_4/scale
I1215 18:08:06.833189 13151 net.cpp:84] Creating Layer conv0_4/scale
I1215 18:08:06.833194 13151 net.cpp:406] conv0_4/scale <- conv0_4/bn
I1215 18:08:06.833200 13151 net.cpp:367] conv0_4/scale -> conv0_4/bn (in-place)
I1215 18:08:06.833282 13151 layer_factory.hpp:77] Creating layer conv0_4/scale
I1215 18:08:06.833565 13151 net.cpp:122] Setting up conv0_4/scale
I1215 18:08:06.833576 13151 net.cpp:129] Top shape: 1 160 55 123 (1082400)
I1215 18:08:06.833582 13151 net.cpp:137] Memory required for data: 90666936
I1215 18:08:06.833591 13151 layer_factory.hpp:77] Creating layer relu0_4
I1215 18:08:06.833600 13151 net.cpp:84] Creating Layer relu0_4
I1215 18:08:06.833606 13151 net.cpp:406] relu0_4 <- conv0_4/bn
I1215 18:08:06.833611 13151 net.cpp:367] relu0_4 -> conv0_4/bn (in-place)
I1215 18:08:06.834080 13151 net.cpp:122] Setting up relu0_4
I1215 18:08:06.834095 13151 net.cpp:129] Top shape: 1 160 55 123 (1082400)
I1215 18:08:06.834101 13151 net.cpp:137] Memory required for data: 94996536
I1215 18:08:06.834106 13151 layer_factory.hpp:77] Creating layer conv0_4
I1215 18:08:06.834120 13151 net.cpp:84] Creating Layer conv0_4
I1215 18:08:06.834126 13151 net.cpp:406] conv0_4 <- conv0_4/bn
I1215 18:08:06.834136 13151 net.cpp:380] conv0_4 -> conv0_4
I1215 18:08:06.839926 13151 net.cpp:122] Setting up conv0_4
I1215 18:08:06.839957 13151 net.cpp:129] Top shape: 1 32 55 123 (216480)
I1215 18:08:06.839963 13151 net.cpp:137] Memory required for data: 95862456
I1215 18:08:06.839973 13151 layer_factory.hpp:77] Creating layer concat0_4
I1215 18:08:06.839987 13151 net.cpp:84] Creating Layer concat0_4
I1215 18:08:06.839993 13151 net.cpp:406] concat0_4 <- concat0_3_concat0_3_0_split_1
I1215 18:08:06.840001 13151 net.cpp:406] concat0_4 <- conv0_4
I1215 18:08:06.840009 13151 net.cpp:380] concat0_4 -> concat0_4
I1215 18:08:06.840068 13151 net.cpp:122] Setting up concat0_4
I1215 18:08:06.840080 13151 net.cpp:129] Top shape: 1 192 55 123 (1298880)
I1215 18:08:06.840083 13151 net.cpp:137] Memory required for data: 101057976
I1215 18:08:06.840088 13151 layer_factory.hpp:77] Creating layer concat0_4_concat0_4_0_split
I1215 18:08:06.840095 13151 net.cpp:84] Creating Layer concat0_4_concat0_4_0_split
I1215 18:08:06.840101 13151 net.cpp:406] concat0_4_concat0_4_0_split <- concat0_4
I1215 18:08:06.840108 13151 net.cpp:380] concat0_4_concat0_4_0_split -> concat0_4_concat0_4_0_split_0
I1215 18:08:06.840119 13151 net.cpp:380] concat0_4_concat0_4_0_split -> concat0_4_concat0_4_0_split_1
I1215 18:08:06.840199 13151 net.cpp:122] Setting up concat0_4_concat0_4_0_split
I1215 18:08:06.840216 13151 net.cpp:129] Top shape: 1 192 55 123 (1298880)
I1215 18:08:06.840222 13151 net.cpp:129] Top shape: 1 192 55 123 (1298880)
I1215 18:08:06.840226 13151 net.cpp:137] Memory required for data: 111449016
I1215 18:08:06.840231 13151 layer_factory.hpp:77] Creating layer conv0_5/bn
I1215 18:08:06.840240 13151 net.cpp:84] Creating Layer conv0_5/bn
I1215 18:08:06.840245 13151 net.cpp:406] conv0_5/bn <- concat0_4_concat0_4_0_split_0
I1215 18:08:06.840252 13151 net.cpp:380] conv0_5/bn -> conv0_5/bn
I1215 18:08:06.840721 13151 net.cpp:122] Setting up conv0_5/bn
I1215 18:08:06.840736 13151 net.cpp:129] Top shape: 1 192 55 123 (1298880)
I1215 18:08:06.840741 13151 net.cpp:137] Memory required for data: 116644536
I1215 18:08:06.840751 13151 layer_factory.hpp:77] Creating layer conv0_5/scale
I1215 18:08:06.840762 13151 net.cpp:84] Creating Layer conv0_5/scale
I1215 18:08:06.840768 13151 net.cpp:406] conv0_5/scale <- conv0_5/bn
I1215 18:08:06.840775 13151 net.cpp:367] conv0_5/scale -> conv0_5/bn (in-place)
I1215 18:08:06.840858 13151 layer_factory.hpp:77] Creating layer conv0_5/scale
I1215 18:08:06.841120 13151 net.cpp:122] Setting up conv0_5/scale
I1215 18:08:06.841133 13151 net.cpp:129] Top shape: 1 192 55 123 (1298880)
I1215 18:08:06.841137 13151 net.cpp:137] Memory required for data: 121840056
I1215 18:08:06.841145 13151 layer_factory.hpp:77] Creating layer relu0_5
I1215 18:08:06.841153 13151 net.cpp:84] Creating Layer relu0_5
I1215 18:08:06.841158 13151 net.cpp:406] relu0_5 <- conv0_5/bn
I1215 18:08:06.841164 13151 net.cpp:367] relu0_5 -> conv0_5/bn (in-place)
I1215 18:08:06.841473 13151 net.cpp:122] Setting up relu0_5
I1215 18:08:06.841490 13151 net.cpp:129] Top shape: 1 192 55 123 (1298880)
I1215 18:08:06.841495 13151 net.cpp:137] Memory required for data: 127035576
I1215 18:08:06.841500 13151 layer_factory.hpp:77] Creating layer conv0_5
I1215 18:08:06.841514 13151 net.cpp:84] Creating Layer conv0_5
I1215 18:08:06.841521 13151 net.cpp:406] conv0_5 <- conv0_5/bn
I1215 18:08:06.841529 13151 net.cpp:380] conv0_5 -> conv0_5
I1215 18:08:06.845777 13151 net.cpp:122] Setting up conv0_5
I1215 18:08:06.845813 13151 net.cpp:129] Top shape: 1 32 55 123 (216480)
I1215 18:08:06.845818 13151 net.cpp:137] Memory required for data: 127901496
I1215 18:08:06.845830 13151 layer_factory.hpp:77] Creating layer concat0_5
I1215 18:08:06.845844 13151 net.cpp:84] Creating Layer concat0_5
I1215 18:08:06.845851 13151 net.cpp:406] concat0_5 <- concat0_4_concat0_4_0_split_1
I1215 18:08:06.845860 13151 net.cpp:406] concat0_5 <- conv0_5
I1215 18:08:06.845868 13151 net.cpp:380] concat0_5 -> concat0_5
I1215 18:08:06.845942 13151 net.cpp:122] Setting up concat0_5
I1215 18:08:06.845958 13151 net.cpp:129] Top shape: 1 224 55 123 (1515360)
I1215 18:08:06.845964 13151 net.cpp:137] Memory required for data: 133962936
I1215 18:08:06.845973 13151 layer_factory.hpp:77] Creating layer BatchNorm1
I1215 18:08:06.845986 13151 net.cpp:84] Creating Layer BatchNorm1
I1215 18:08:06.845993 13151 net.cpp:406] BatchNorm1 <- concat0_5
I1215 18:08:06.846005 13151 net.cpp:380] BatchNorm1 -> BatchNorm1
I1215 18:08:06.846536 13151 net.cpp:122] Setting up BatchNorm1
I1215 18:08:06.846552 13151 net.cpp:129] Top shape: 1 224 55 123 (1515360)
I1215 18:08:06.846557 13151 net.cpp:137] Memory required for data: 140024376
I1215 18:08:06.846570 13151 layer_factory.hpp:77] Creating layer Scale1
I1215 18:08:06.846581 13151 net.cpp:84] Creating Layer Scale1
I1215 18:08:06.846586 13151 net.cpp:406] Scale1 <- BatchNorm1
I1215 18:08:06.846593 13151 net.cpp:367] Scale1 -> BatchNorm1 (in-place)
I1215 18:08:06.846683 13151 layer_factory.hpp:77] Creating layer Scale1
I1215 18:08:06.846882 13151 net.cpp:122] Setting up Scale1
I1215 18:08:06.846890 13151 net.cpp:129] Top shape: 1 224 55 123 (1515360)
I1215 18:08:06.846894 13151 net.cpp:137] Memory required for data: 146085816
I1215 18:08:06.846899 13151 layer_factory.hpp:77] Creating layer ReLU1
I1215 18:08:06.846905 13151 net.cpp:84] Creating Layer ReLU1
I1215 18:08:06.846909 13151 net.cpp:406] ReLU1 <- BatchNorm1
I1215 18:08:06.846912 13151 net.cpp:367] ReLU1 -> BatchNorm1 (in-place)
I1215 18:08:06.847498 13151 net.cpp:122] Setting up ReLU1
I1215 18:08:06.847514 13151 net.cpp:129] Top shape: 1 224 55 123 (1515360)
I1215 18:08:06.847519 13151 net.cpp:137] Memory required for data: 152147256
I1215 18:08:06.847524 13151 layer_factory.hpp:77] Creating layer conv0_blk
I1215 18:08:06.847537 13151 net.cpp:84] Creating Layer conv0_blk
I1215 18:08:06.847543 13151 net.cpp:406] conv0_blk <- BatchNorm1
I1215 18:08:06.847553 13151 net.cpp:380] conv0_blk -> conv0_blk
I1215 18:08:06.851480 13151 net.cpp:122] Setting up conv0_blk
I1215 18:08:06.851514 13151 net.cpp:129] Top shape: 1 224 55 123 (1515360)
I1215 18:08:06.851521 13151 net.cpp:137] Memory required for data: 158208696
I1215 18:08:06.851531 13151 layer_factory.hpp:77] Creating layer pool0
I1215 18:08:06.851544 13151 net.cpp:84] Creating Layer pool0
I1215 18:08:06.851552 13151 net.cpp:406] pool0 <- conv0_blk
I1215 18:08:06.851560 13151 net.cpp:380] pool0 -> pool0
I1215 18:08:06.851842 13151 net.cpp:122] Setting up pool0
I1215 18:08:06.851855 13151 net.cpp:129] Top shape: 1 224 28 62 (388864)
I1215 18:08:06.851858 13151 net.cpp:137] Memory required for data: 159764152
I1215 18:08:06.851863 13151 layer_factory.hpp:77] Creating layer pool0_pool0_0_split
I1215 18:08:06.851871 13151 net.cpp:84] Creating Layer pool0_pool0_0_split
I1215 18:08:06.851876 13151 net.cpp:406] pool0_pool0_0_split <- pool0
I1215 18:08:06.851882 13151 net.cpp:380] pool0_pool0_0_split -> pool0_pool0_0_split_0
I1215 18:08:06.851891 13151 net.cpp:380] pool0_pool0_0_split -> pool0_pool0_0_split_1
I1215 18:08:06.851958 13151 net.cpp:122] Setting up pool0_pool0_0_split
I1215 18:08:06.851966 13151 net.cpp:129] Top shape: 1 224 28 62 (388864)
I1215 18:08:06.851972 13151 net.cpp:129] Top shape: 1 224 28 62 (388864)
I1215 18:08:06.851976 13151 net.cpp:137] Memory required for data: 162875064
I1215 18:08:06.851980 13151 layer_factory.hpp:77] Creating layer conv1_0/bn
I1215 18:08:06.851989 13151 net.cpp:84] Creating Layer conv1_0/bn
I1215 18:08:06.851994 13151 net.cpp:406] conv1_0/bn <- pool0_pool0_0_split_0
I1215 18:08:06.852000 13151 net.cpp:380] conv1_0/bn -> conv1_0/bn
I1215 18:08:06.853231 13151 net.cpp:122] Setting up conv1_0/bn
I1215 18:08:06.853247 13151 net.cpp:129] Top shape: 1 224 28 62 (388864)
I1215 18:08:06.853252 13151 net.cpp:137] Memory required for data: 164430520
I1215 18:08:06.853265 13151 layer_factory.hpp:77] Creating layer conv1_0/scale
I1215 18:08:06.853276 13151 net.cpp:84] Creating Layer conv1_0/scale
I1215 18:08:06.853281 13151 net.cpp:406] conv1_0/scale <- conv1_0/bn
I1215 18:08:06.853286 13151 net.cpp:367] conv1_0/scale -> conv1_0/bn (in-place)
I1215 18:08:06.853363 13151 layer_factory.hpp:77] Creating layer conv1_0/scale
I1215 18:08:06.853605 13151 net.cpp:122] Setting up conv1_0/scale
I1215 18:08:06.853615 13151 net.cpp:129] Top shape: 1 224 28 62 (388864)
I1215 18:08:06.853621 13151 net.cpp:137] Memory required for data: 165985976
I1215 18:08:06.853628 13151 layer_factory.hpp:77] Creating layer relu1_0
I1215 18:08:06.853636 13151 net.cpp:84] Creating Layer relu1_0
I1215 18:08:06.853641 13151 net.cpp:406] relu1_0 <- conv1_0/bn
I1215 18:08:06.853646 13151 net.cpp:367] relu1_0 -> conv1_0/bn (in-place)
I1215 18:08:06.854092 13151 net.cpp:122] Setting up relu1_0
I1215 18:08:06.854105 13151 net.cpp:129] Top shape: 1 224 28 62 (388864)
I1215 18:08:06.854110 13151 net.cpp:137] Memory required for data: 167541432
I1215 18:08:06.854115 13151 layer_factory.hpp:77] Creating layer conv1_0
I1215 18:08:06.854127 13151 net.cpp:84] Creating Layer conv1_0
I1215 18:08:06.854132 13151 net.cpp:406] conv1_0 <- conv1_0/bn
I1215 18:08:06.854140 13151 net.cpp:380] conv1_0 -> conv1_0
I1215 18:08:06.858450 13151 net.cpp:122] Setting up conv1_0
I1215 18:08:06.858477 13151 net.cpp:129] Top shape: 1 32 28 62 (55552)
I1215 18:08:06.858482 13151 net.cpp:137] Memory required for data: 167763640
I1215 18:08:06.858492 13151 layer_factory.hpp:77] Creating layer concat1_0
I1215 18:08:06.858505 13151 net.cpp:84] Creating Layer concat1_0
I1215 18:08:06.858510 13151 net.cpp:406] concat1_0 <- pool0_pool0_0_split_1
I1215 18:08:06.858522 13151 net.cpp:406] concat1_0 <- conv1_0
I1215 18:08:06.858530 13151 net.cpp:380] concat1_0 -> concat1_0
I1215 18:08:06.858583 13151 net.cpp:122] Setting up concat1_0
I1215 18:08:06.858592 13151 net.cpp:129] Top shape: 1 256 28 62 (444416)
I1215 18:08:06.858595 13151 net.cpp:137] Memory required for data: 169541304
I1215 18:08:06.858600 13151 layer_factory.hpp:77] Creating layer concat1_0_concat1_0_0_split
I1215 18:08:06.858608 13151 net.cpp:84] Creating Layer concat1_0_concat1_0_0_split
I1215 18:08:06.858613 13151 net.cpp:406] concat1_0_concat1_0_0_split <- concat1_0
I1215 18:08:06.858618 13151 net.cpp:380] concat1_0_concat1_0_0_split -> concat1_0_concat1_0_0_split_0
I1215 18:08:06.858626 13151 net.cpp:380] concat1_0_concat1_0_0_split -> concat1_0_concat1_0_0_split_1
I1215 18:08:06.858695 13151 net.cpp:122] Setting up concat1_0_concat1_0_0_split
I1215 18:08:06.858702 13151 net.cpp:129] Top shape: 1 256 28 62 (444416)
I1215 18:08:06.858708 13151 net.cpp:129] Top shape: 1 256 28 62 (444416)
I1215 18:08:06.858711 13151 net.cpp:137] Memory required for data: 173096632
I1215 18:08:06.858716 13151 layer_factory.hpp:77] Creating layer conv1_1/bn
I1215 18:08:06.858724 13151 net.cpp:84] Creating Layer conv1_1/bn
I1215 18:08:06.858728 13151 net.cpp:406] conv1_1/bn <- concat1_0_concat1_0_0_split_0
I1215 18:08:06.858736 13151 net.cpp:380] conv1_1/bn -> conv1_1/bn
I1215 18:08:06.859153 13151 net.cpp:122] Setting up conv1_1/bn
I1215 18:08:06.859161 13151 net.cpp:129] Top shape: 1 256 28 62 (444416)
I1215 18:08:06.859166 13151 net.cpp:137] Memory required for data: 174874296
I1215 18:08:06.859175 13151 layer_factory.hpp:77] Creating layer conv1_1/scale
I1215 18:08:06.859185 13151 net.cpp:84] Creating Layer conv1_1/scale
I1215 18:08:06.859190 13151 net.cpp:406] conv1_1/scale <- conv1_1/bn
I1215 18:08:06.859196 13151 net.cpp:367] conv1_1/scale -> conv1_1/bn (in-place)
I1215 18:08:06.859269 13151 layer_factory.hpp:77] Creating layer conv1_1/scale
I1215 18:08:06.859486 13151 net.cpp:122] Setting up conv1_1/scale
I1215 18:08:06.859495 13151 net.cpp:129] Top shape: 1 256 28 62 (444416)
I1215 18:08:06.859500 13151 net.cpp:137] Memory required for data: 176651960
I1215 18:08:06.859508 13151 layer_factory.hpp:77] Creating layer relu1_1
I1215 18:08:06.859515 13151 net.cpp:84] Creating Layer relu1_1
I1215 18:08:06.859519 13151 net.cpp:406] relu1_1 <- conv1_1/bn
I1215 18:08:06.859525 13151 net.cpp:367] relu1_1 -> conv1_1/bn (in-place)
I1215 18:08:06.859977 13151 net.cpp:122] Setting up relu1_1
I1215 18:08:06.859990 13151 net.cpp:129] Top shape: 1 256 28 62 (444416)
I1215 18:08:06.859994 13151 net.cpp:137] Memory required for data: 178429624
I1215 18:08:06.859999 13151 layer_factory.hpp:77] Creating layer conv1_1
I1215 18:08:06.860013 13151 net.cpp:84] Creating Layer conv1_1
I1215 18:08:06.860018 13151 net.cpp:406] conv1_1 <- conv1_1/bn
I1215 18:08:06.860024 13151 net.cpp:380] conv1_1 -> conv1_1
I1215 18:08:06.865658 13151 net.cpp:122] Setting up conv1_1
I1215 18:08:06.865697 13151 net.cpp:129] Top shape: 1 32 28 62 (55552)
I1215 18:08:06.865703 13151 net.cpp:137] Memory required for data: 178651832
I1215 18:08:06.865715 13151 layer_factory.hpp:77] Creating layer concat1_1
I1215 18:08:06.865731 13151 net.cpp:84] Creating Layer concat1_1
I1215 18:08:06.865738 13151 net.cpp:406] concat1_1 <- concat1_0_concat1_0_0_split_1
I1215 18:08:06.865748 13151 net.cpp:406] concat1_1 <- conv1_1
I1215 18:08:06.865756 13151 net.cpp:380] concat1_1 -> concat1_1
I1215 18:08:06.865846 13151 net.cpp:122] Setting up concat1_1
I1215 18:08:06.865857 13151 net.cpp:129] Top shape: 1 288 28 62 (499968)
I1215 18:08:06.865861 13151 net.cpp:137] Memory required for data: 180651704
I1215 18:08:06.865866 13151 layer_factory.hpp:77] Creating layer concat1_1_concat1_1_0_split
I1215 18:08:06.865875 13151 net.cpp:84] Creating Layer concat1_1_concat1_1_0_split
I1215 18:08:06.865880 13151 net.cpp:406] concat1_1_concat1_1_0_split <- concat1_1
I1215 18:08:06.865886 13151 net.cpp:380] concat1_1_concat1_1_0_split -> concat1_1_concat1_1_0_split_0
I1215 18:08:06.865901 13151 net.cpp:380] concat1_1_concat1_1_0_split -> concat1_1_concat1_1_0_split_1
I1215 18:08:06.865978 13151 net.cpp:122] Setting up concat1_1_concat1_1_0_split
I1215 18:08:06.865988 13151 net.cpp:129] Top shape: 1 288 28 62 (499968)
I1215 18:08:06.865993 13151 net.cpp:129] Top shape: 1 288 28 62 (499968)
I1215 18:08:06.865998 13151 net.cpp:137] Memory required for data: 184651448
I1215 18:08:06.866001 13151 layer_factory.hpp:77] Creating layer conv1_2/bn
I1215 18:08:06.866010 13151 net.cpp:84] Creating Layer conv1_2/bn
I1215 18:08:06.866015 13151 net.cpp:406] conv1_2/bn <- concat1_1_concat1_1_0_split_0
I1215 18:08:06.866022 13151 net.cpp:380] conv1_2/bn -> conv1_2/bn
I1215 18:08:06.866502 13151 net.cpp:122] Setting up conv1_2/bn
I1215 18:08:06.866523 13151 net.cpp:129] Top shape: 1 288 28 62 (499968)
I1215 18:08:06.866528 13151 net.cpp:137] Memory required for data: 186651320
I1215 18:08:06.866541 13151 layer_factory.hpp:77] Creating layer conv1_2/scale
I1215 18:08:06.866554 13151 net.cpp:84] Creating Layer conv1_2/scale
I1215 18:08:06.866559 13151 net.cpp:406] conv1_2/scale <- conv1_2/bn
I1215 18:08:06.866567 13151 net.cpp:367] conv1_2/scale -> conv1_2/bn (in-place)
I1215 18:08:06.866657 13151 layer_factory.hpp:77] Creating layer conv1_2/scale
I1215 18:08:06.866899 13151 net.cpp:122] Setting up conv1_2/scale
I1215 18:08:06.866909 13151 net.cpp:129] Top shape: 1 288 28 62 (499968)
I1215 18:08:06.866914 13151 net.cpp:137] Memory required for data: 188651192
I1215 18:08:06.866930 13151 layer_factory.hpp:77] Creating layer relu1_2
I1215 18:08:06.866937 13151 net.cpp:84] Creating Layer relu1_2
I1215 18:08:06.866942 13151 net.cpp:406] relu1_2 <- conv1_2/bn
I1215 18:08:06.866948 13151 net.cpp:367] relu1_2 -> conv1_2/bn (in-place)
I1215 18:08:06.867242 13151 net.cpp:122] Setting up relu1_2
I1215 18:08:06.867255 13151 net.cpp:129] Top shape: 1 288 28 62 (499968)
I1215 18:08:06.867260 13151 net.cpp:137] Memory required for data: 190651064
I1215 18:08:06.867265 13151 layer_factory.hpp:77] Creating layer conv1_2
I1215 18:08:06.867282 13151 net.cpp:84] Creating Layer conv1_2
I1215 18:08:06.867287 13151 net.cpp:406] conv1_2 <- conv1_2/bn
I1215 18:08:06.867295 13151 net.cpp:380] conv1_2 -> conv1_2
I1215 18:08:06.872304 13151 net.cpp:122] Setting up conv1_2
I1215 18:08:06.872339 13151 net.cpp:129] Top shape: 1 32 28 62 (55552)
I1215 18:08:06.872344 13151 net.cpp:137] Memory required for data: 190873272
I1215 18:08:06.872355 13151 layer_factory.hpp:77] Creating layer concat1_2
I1215 18:08:06.872368 13151 net.cpp:84] Creating Layer concat1_2
I1215 18:08:06.872375 13151 net.cpp:406] concat1_2 <- concat1_1_concat1_1_0_split_1
I1215 18:08:06.872383 13151 net.cpp:406] concat1_2 <- conv1_2
I1215 18:08:06.872390 13151 net.cpp:380] concat1_2 -> concat1_2
I1215 18:08:06.872447 13151 net.cpp:122] Setting up concat1_2
I1215 18:08:06.872455 13151 net.cpp:129] Top shape: 1 320 28 62 (555520)
I1215 18:08:06.872459 13151 net.cpp:137] Memory required for data: 193095352
I1215 18:08:06.872463 13151 layer_factory.hpp:77] Creating layer concat1_2_concat1_2_0_split
I1215 18:08:06.872470 13151 net.cpp:84] Creating Layer concat1_2_concat1_2_0_split
I1215 18:08:06.872475 13151 net.cpp:406] concat1_2_concat1_2_0_split <- concat1_2
I1215 18:08:06.872481 13151 net.cpp:380] concat1_2_concat1_2_0_split -> concat1_2_concat1_2_0_split_0
I1215 18:08:06.872489 13151 net.cpp:380] concat1_2_concat1_2_0_split -> concat1_2_concat1_2_0_split_1
I1215 18:08:06.872560 13151 net.cpp:122] Setting up concat1_2_concat1_2_0_split
I1215 18:08:06.872568 13151 net.cpp:129] Top shape: 1 320 28 62 (555520)
I1215 18:08:06.872573 13151 net.cpp:129] Top shape: 1 320 28 62 (555520)
I1215 18:08:06.872577 13151 net.cpp:137] Memory required for data: 197539512
I1215 18:08:06.872582 13151 layer_factory.hpp:77] Creating layer conv1_3/bn
I1215 18:08:06.872589 13151 net.cpp:84] Creating Layer conv1_3/bn
I1215 18:08:06.872594 13151 net.cpp:406] conv1_3/bn <- concat1_2_concat1_2_0_split_0
I1215 18:08:06.872601 13151 net.cpp:380] conv1_3/bn -> conv1_3/bn
I1215 18:08:06.873108 13151 net.cpp:122] Setting up conv1_3/bn
I1215 18:08:06.873122 13151 net.cpp:129] Top shape: 1 320 28 62 (555520)
I1215 18:08:06.873128 13151 net.cpp:137] Memory required for data: 199761592
I1215 18:08:06.873139 13151 layer_factory.hpp:77] Creating layer conv1_3/scale
I1215 18:08:06.873150 13151 net.cpp:84] Creating Layer conv1_3/scale
I1215 18:08:06.873157 13151 net.cpp:406] conv1_3/scale <- conv1_3/bn
I1215 18:08:06.873163 13151 net.cpp:367] conv1_3/scale -> conv1_3/bn (in-place)
I1215 18:08:06.873258 13151 layer_factory.hpp:77] Creating layer conv1_3/scale
I1215 18:08:06.873513 13151 net.cpp:122] Setting up conv1_3/scale
I1215 18:08:06.873524 13151 net.cpp:129] Top shape: 1 320 28 62 (555520)
I1215 18:08:06.873528 13151 net.cpp:137] Memory required for data: 201983672
I1215 18:08:06.873536 13151 layer_factory.hpp:77] Creating layer relu1_3
I1215 18:08:06.873544 13151 net.cpp:84] Creating Layer relu1_3
I1215 18:08:06.873549 13151 net.cpp:406] relu1_3 <- conv1_3/bn
I1215 18:08:06.873555 13151 net.cpp:367] relu1_3 -> conv1_3/bn (in-place)
I1215 18:08:06.874035 13151 net.cpp:122] Setting up relu1_3
I1215 18:08:06.874048 13151 net.cpp:129] Top shape: 1 320 28 62 (555520)
I1215 18:08:06.874053 13151 net.cpp:137] Memory required for data: 204205752
I1215 18:08:06.874058 13151 layer_factory.hpp:77] Creating layer conv1_3
I1215 18:08:06.874070 13151 net.cpp:84] Creating Layer conv1_3
I1215 18:08:06.874076 13151 net.cpp:406] conv1_3 <- conv1_3/bn
I1215 18:08:06.874083 13151 net.cpp:380] conv1_3 -> conv1_3
I1215 18:08:06.879942 13151 net.cpp:122] Setting up conv1_3
I1215 18:08:06.888193 13151 net.cpp:129] Top shape: 1 32 28 62 (55552)
I1215 18:08:06.888218 13151 net.cpp:137] Memory required for data: 204427960
I1215 18:08:06.888231 13151 layer_factory.hpp:77] Creating layer concat1_3
I1215 18:08:06.888245 13151 net.cpp:84] Creating Layer concat1_3
I1215 18:08:06.888253 13151 net.cpp:406] concat1_3 <- concat1_2_concat1_2_0_split_1
I1215 18:08:06.888262 13151 net.cpp:406] concat1_3 <- conv1_3
I1215 18:08:06.888269 13151 net.cpp:380] concat1_3 -> concat1_3
I1215 18:08:06.888407 13151 net.cpp:122] Setting up concat1_3
I1215 18:08:06.888415 13151 net.cpp:129] Top shape: 1 352 28 62 (611072)
I1215 18:08:06.888419 13151 net.cpp:137] Memory required for data: 206872248
I1215 18:08:06.888424 13151 layer_factory.hpp:77] Creating layer concat1_3_concat1_3_0_split
I1215 18:08:06.888432 13151 net.cpp:84] Creating Layer concat1_3_concat1_3_0_split
I1215 18:08:06.888437 13151 net.cpp:406] concat1_3_concat1_3_0_split <- concat1_3
I1215 18:08:06.888443 13151 net.cpp:380] concat1_3_concat1_3_0_split -> concat1_3_concat1_3_0_split_0
I1215 18:08:06.888451 13151 net.cpp:380] concat1_3_concat1_3_0_split -> concat1_3_concat1_3_0_split_1
I1215 18:08:06.888532 13151 net.cpp:122] Setting up concat1_3_concat1_3_0_split
I1215 18:08:06.888540 13151 net.cpp:129] Top shape: 1 352 28 62 (611072)
I1215 18:08:06.888545 13151 net.cpp:129] Top shape: 1 352 28 62 (611072)
I1215 18:08:06.888550 13151 net.cpp:137] Memory required for data: 211760824
I1215 18:08:06.888555 13151 layer_factory.hpp:77] Creating layer conv1_4/bn
I1215 18:08:06.888562 13151 net.cpp:84] Creating Layer conv1_4/bn
I1215 18:08:06.888567 13151 net.cpp:406] conv1_4/bn <- concat1_3_concat1_3_0_split_0
I1215 18:08:06.888573 13151 net.cpp:380] conv1_4/bn -> conv1_4/bn
I1215 18:08:06.889065 13151 net.cpp:122] Setting up conv1_4/bn
I1215 18:08:06.889078 13151 net.cpp:129] Top shape: 1 352 28 62 (611072)
I1215 18:08:06.889082 13151 net.cpp:137] Memory required for data: 214205112
I1215 18:08:06.889093 13151 layer_factory.hpp:77] Creating layer conv1_4/scale
I1215 18:08:06.889103 13151 net.cpp:84] Creating Layer conv1_4/scale
I1215 18:08:06.889108 13151 net.cpp:406] conv1_4/scale <- conv1_4/bn
I1215 18:08:06.889116 13151 net.cpp:367] conv1_4/scale -> conv1_4/bn (in-place)
I1215 18:08:06.889194 13151 layer_factory.hpp:77] Creating layer conv1_4/scale
I1215 18:08:06.889425 13151 net.cpp:122] Setting up conv1_4/scale
I1215 18:08:06.889434 13151 net.cpp:129] Top shape: 1 352 28 62 (611072)
I1215 18:08:06.889446 13151 net.cpp:137] Memory required for data: 216649400
I1215 18:08:06.889454 13151 layer_factory.hpp:77] Creating layer relu1_4
I1215 18:08:06.889461 13151 net.cpp:84] Creating Layer relu1_4
I1215 18:08:06.889467 13151 net.cpp:406] relu1_4 <- conv1_4/bn
I1215 18:08:06.889472 13151 net.cpp:367] relu1_4 -> conv1_4/bn (in-place)
I1215 18:08:06.889755 13151 net.cpp:122] Setting up relu1_4
I1215 18:08:06.889765 13151 net.cpp:129] Top shape: 1 352 28 62 (611072)
I1215 18:08:06.889770 13151 net.cpp:137] Memory required for data: 219093688
I1215 18:08:06.889775 13151 layer_factory.hpp:77] Creating layer conv1_4
I1215 18:08:06.889786 13151 net.cpp:84] Creating Layer conv1_4
I1215 18:08:06.889791 13151 net.cpp:406] conv1_4 <- conv1_4/bn
I1215 18:08:06.889798 13151 net.cpp:380] conv1_4 -> conv1_4
I1215 18:08:06.955505 13151 net.cpp:122] Setting up conv1_4
I1215 18:08:06.955539 13151 net.cpp:129] Top shape: 1 32 28 62 (55552)
I1215 18:08:06.955543 13151 net.cpp:137] Memory required for data: 219315896
I1215 18:08:06.955554 13151 layer_factory.hpp:77] Creating layer concat1_4
I1215 18:08:06.955567 13151 net.cpp:84] Creating Layer concat1_4
I1215 18:08:06.955574 13151 net.cpp:406] concat1_4 <- concat1_3_concat1_3_0_split_1
I1215 18:08:06.955582 13151 net.cpp:406] concat1_4 <- conv1_4
I1215 18:08:06.955590 13151 net.cpp:380] concat1_4 -> concat1_4
I1215 18:08:06.955646 13151 net.cpp:122] Setting up concat1_4
I1215 18:08:06.955654 13151 net.cpp:129] Top shape: 1 384 28 62 (666624)
I1215 18:08:06.955658 13151 net.cpp:137] Memory required for data: 221982392
I1215 18:08:06.955662 13151 layer_factory.hpp:77] Creating layer concat1_4_concat1_4_0_split
I1215 18:08:06.955669 13151 net.cpp:84] Creating Layer concat1_4_concat1_4_0_split
I1215 18:08:06.955674 13151 net.cpp:406] concat1_4_concat1_4_0_split <- concat1_4
I1215 18:08:06.955680 13151 net.cpp:380] concat1_4_concat1_4_0_split -> concat1_4_concat1_4_0_split_0
I1215 18:08:06.955687 13151 net.cpp:380] concat1_4_concat1_4_0_split -> concat1_4_concat1_4_0_split_1
I1215 18:08:06.961426 13151 net.cpp:122] Setting up concat1_4_concat1_4_0_split
I1215 18:08:06.961454 13151 net.cpp:129] Top shape: 1 384 28 62 (666624)
I1215 18:08:06.961460 13151 net.cpp:129] Top shape: 1 384 28 62 (666624)
I1215 18:08:06.961464 13151 net.cpp:137] Memory required for data: 227315384
I1215 18:08:06.961470 13151 layer_factory.hpp:77] Creating layer conv1_5/bn
I1215 18:08:06.961483 13151 net.cpp:84] Creating Layer conv1_5/bn
I1215 18:08:06.961488 13151 net.cpp:406] conv1_5/bn <- concat1_4_concat1_4_0_split_0
I1215 18:08:06.961498 13151 net.cpp:380] conv1_5/bn -> conv1_5/bn
I1215 18:08:06.962011 13151 net.cpp:122] Setting up conv1_5/bn
I1215 18:08:06.962024 13151 net.cpp:129] Top shape: 1 384 28 62 (666624)
I1215 18:08:06.962028 13151 net.cpp:137] Memory required for data: 229981880
I1215 18:08:06.962040 13151 layer_factory.hpp:77] Creating layer conv1_5/scale
I1215 18:08:06.962050 13151 net.cpp:84] Creating Layer conv1_5/scale
I1215 18:08:06.962086 13151 net.cpp:406] conv1_5/scale <- conv1_5/bn
I1215 18:08:06.962093 13151 net.cpp:367] conv1_5/scale -> conv1_5/bn (in-place)
I1215 18:08:06.962172 13151 layer_factory.hpp:77] Creating layer conv1_5/scale
I1215 18:08:06.962395 13151 net.cpp:122] Setting up conv1_5/scale
I1215 18:08:06.962406 13151 net.cpp:129] Top shape: 1 384 28 62 (666624)
I1215 18:08:06.962410 13151 net.cpp:137] Memory required for data: 232648376
I1215 18:08:06.962419 13151 layer_factory.hpp:77] Creating layer relu1_5
I1215 18:08:06.962426 13151 net.cpp:84] Creating Layer relu1_5
I1215 18:08:06.962430 13151 net.cpp:406] relu1_5 <- conv1_5/bn
I1215 18:08:06.962436 13151 net.cpp:367] relu1_5 -> conv1_5/bn (in-place)
I1215 18:08:06.963065 13151 net.cpp:122] Setting up relu1_5
I1215 18:08:06.963080 13151 net.cpp:129] Top shape: 1 384 28 62 (666624)
I1215 18:08:06.963085 13151 net.cpp:137] Memory required for data: 235314872
I1215 18:08:06.963089 13151 layer_factory.hpp:77] Creating layer conv1_5
I1215 18:08:06.963102 13151 net.cpp:84] Creating Layer conv1_5
I1215 18:08:06.963107 13151 net.cpp:406] conv1_5 <- conv1_5/bn
I1215 18:08:06.963120 13151 net.cpp:380] conv1_5 -> conv1_5
I1215 18:08:06.969158 13151 net.cpp:122] Setting up conv1_5
I1215 18:08:06.969194 13151 net.cpp:129] Top shape: 1 32 28 62 (55552)
I1215 18:08:06.969198 13151 net.cpp:137] Memory required for data: 235537080
I1215 18:08:06.969209 13151 layer_factory.hpp:77] Creating layer concat1_5
I1215 18:08:06.969221 13151 net.cpp:84] Creating Layer concat1_5
I1215 18:08:06.969230 13151 net.cpp:406] concat1_5 <- concat1_4_concat1_4_0_split_1
I1215 18:08:06.969238 13151 net.cpp:406] concat1_5 <- conv1_5
I1215 18:08:06.969245 13151 net.cpp:380] concat1_5 -> concat1_5
I1215 18:08:06.969303 13151 net.cpp:122] Setting up concat1_5
I1215 18:08:06.969311 13151 net.cpp:129] Top shape: 1 416 28 62 (722176)
I1215 18:08:06.969316 13151 net.cpp:137] Memory required for data: 238425784
I1215 18:08:06.969319 13151 layer_factory.hpp:77] Creating layer concat1_5_concat1_5_0_split
I1215 18:08:06.969327 13151 net.cpp:84] Creating Layer concat1_5_concat1_5_0_split
I1215 18:08:06.969332 13151 net.cpp:406] concat1_5_concat1_5_0_split <- concat1_5
I1215 18:08:06.969338 13151 net.cpp:380] concat1_5_concat1_5_0_split -> concat1_5_concat1_5_0_split_0
I1215 18:08:06.969347 13151 net.cpp:380] concat1_5_concat1_5_0_split -> concat1_5_concat1_5_0_split_1
I1215 18:08:06.969424 13151 net.cpp:122] Setting up concat1_5_concat1_5_0_split
I1215 18:08:06.969432 13151 net.cpp:129] Top shape: 1 416 28 62 (722176)
I1215 18:08:06.969439 13151 net.cpp:129] Top shape: 1 416 28 62 (722176)
I1215 18:08:06.969442 13151 net.cpp:137] Memory required for data: 244203192
I1215 18:08:06.969446 13151 layer_factory.hpp:77] Creating layer conv1_6/bn
I1215 18:08:06.969455 13151 net.cpp:84] Creating Layer conv1_6/bn
I1215 18:08:06.969460 13151 net.cpp:406] conv1_6/bn <- concat1_5_concat1_5_0_split_0
I1215 18:08:06.969466 13151 net.cpp:380] conv1_6/bn -> conv1_6/bn
I1215 18:08:06.969964 13151 net.cpp:122] Setting up conv1_6/bn
I1215 18:08:06.969974 13151 net.cpp:129] Top shape: 1 416 28 62 (722176)
I1215 18:08:06.969977 13151 net.cpp:137] Memory required for data: 247091896
I1215 18:08:06.969987 13151 layer_factory.hpp:77] Creating layer conv1_6/scale
I1215 18:08:06.969996 13151 net.cpp:84] Creating Layer conv1_6/scale
I1215 18:08:06.970001 13151 net.cpp:406] conv1_6/scale <- conv1_6/bn
I1215 18:08:06.970008 13151 net.cpp:367] conv1_6/scale -> conv1_6/bn (in-place)
I1215 18:08:06.970095 13151 layer_factory.hpp:77] Creating layer conv1_6/scale
I1215 18:08:06.970356 13151 net.cpp:122] Setting up conv1_6/scale
I1215 18:08:06.970366 13151 net.cpp:129] Top shape: 1 416 28 62 (722176)
I1215 18:08:06.970371 13151 net.cpp:137] Memory required for data: 249980600
I1215 18:08:06.970377 13151 layer_factory.hpp:77] Creating layer relu1_6
I1215 18:08:06.970387 13151 net.cpp:84] Creating Layer relu1_6
I1215 18:08:06.970391 13151 net.cpp:406] relu1_6 <- conv1_6/bn
I1215 18:08:06.970397 13151 net.cpp:367] relu1_6 -> conv1_6/bn (in-place)
I1215 18:08:06.970867 13151 net.cpp:122] Setting up relu1_6
I1215 18:08:06.970881 13151 net.cpp:129] Top shape: 1 416 28 62 (722176)
I1215 18:08:06.970885 13151 net.cpp:137] Memory required for data: 252869304
I1215 18:08:06.970890 13151 layer_factory.hpp:77] Creating layer conv1_6
I1215 18:08:06.970904 13151 net.cpp:84] Creating Layer conv1_6
I1215 18:08:06.970909 13151 net.cpp:406] conv1_6 <- conv1_6/bn
I1215 18:08:06.970922 13151 net.cpp:380] conv1_6 -> conv1_6
I1215 18:08:06.990471 13151 net.cpp:122] Setting up conv1_6
I1215 18:08:06.990509 13151 net.cpp:129] Top shape: 1 32 28 62 (55552)
I1215 18:08:06.990514 13151 net.cpp:137] Memory required for data: 253091512
I1215 18:08:06.990525 13151 layer_factory.hpp:77] Creating layer concat1_6
I1215 18:08:06.990537 13151 net.cpp:84] Creating Layer concat1_6
I1215 18:08:06.990543 13151 net.cpp:406] concat1_6 <- concat1_5_concat1_5_0_split_1
I1215 18:08:06.990551 13151 net.cpp:406] concat1_6 <- conv1_6
I1215 18:08:06.990561 13151 net.cpp:380] concat1_6 -> concat1_6
I1215 18:08:06.990619 13151 net.cpp:122] Setting up concat1_6
I1215 18:08:06.990633 13151 net.cpp:129] Top shape: 1 448 28 62 (777728)
I1215 18:08:06.990638 13151 net.cpp:137] Memory required for data: 256202424
I1215 18:08:06.990641 13151 layer_factory.hpp:77] Creating layer concat1_6_concat1_6_0_split
I1215 18:08:06.990650 13151 net.cpp:84] Creating Layer concat1_6_concat1_6_0_split
I1215 18:08:06.990655 13151 net.cpp:406] concat1_6_concat1_6_0_split <- concat1_6
I1215 18:08:06.990661 13151 net.cpp:380] concat1_6_concat1_6_0_split -> concat1_6_concat1_6_0_split_0
I1215 18:08:06.990669 13151 net.cpp:380] concat1_6_concat1_6_0_split -> concat1_6_concat1_6_0_split_1
I1215 18:08:06.990746 13151 net.cpp:122] Setting up concat1_6_concat1_6_0_split
I1215 18:08:06.990754 13151 net.cpp:129] Top shape: 1 448 28 62 (777728)
I1215 18:08:06.990759 13151 net.cpp:129] Top shape: 1 448 28 62 (777728)
I1215 18:08:06.990763 13151 net.cpp:137] Memory required for data: 262424248
I1215 18:08:06.990767 13151 layer_factory.hpp:77] Creating layer conv1_7/bn
I1215 18:08:06.990777 13151 net.cpp:84] Creating Layer conv1_7/bn
I1215 18:08:06.990782 13151 net.cpp:406] conv1_7/bn <- concat1_6_concat1_6_0_split_0
I1215 18:08:06.990788 13151 net.cpp:380] conv1_7/bn -> conv1_7/bn
I1215 18:08:06.991295 13151 net.cpp:122] Setting up conv1_7/bn
I1215 18:08:06.991305 13151 net.cpp:129] Top shape: 1 448 28 62 (777728)
I1215 18:08:06.991309 13151 net.cpp:137] Memory required for data: 265535160
I1215 18:08:06.991318 13151 layer_factory.hpp:77] Creating layer conv1_7/scale
I1215 18:08:06.991329 13151 net.cpp:84] Creating Layer conv1_7/scale
I1215 18:08:06.991334 13151 net.cpp:406] conv1_7/scale <- conv1_7/bn
I1215 18:08:06.991340 13151 net.cpp:367] conv1_7/scale -> conv1_7/bn (in-place)
I1215 18:08:06.991426 13151 layer_factory.hpp:77] Creating layer conv1_7/scale
I1215 18:08:06.991806 13151 net.cpp:122] Setting up conv1_7/scale
I1215 18:08:06.991819 13151 net.cpp:129] Top shape: 1 448 28 62 (777728)
I1215 18:08:06.991823 13151 net.cpp:137] Memory required for data: 268646072
I1215 18:08:06.991832 13151 layer_factory.hpp:77] Creating layer relu1_7
I1215 18:08:06.991839 13151 net.cpp:84] Creating Layer relu1_7
I1215 18:08:06.991844 13151 net.cpp:406] relu1_7 <- conv1_7/bn
I1215 18:08:06.991850 13151 net.cpp:367] relu1_7 -> conv1_7/bn (in-place)
I1215 18:08:06.992314 13151 net.cpp:122] Setting up relu1_7
I1215 18:08:06.992327 13151 net.cpp:129] Top shape: 1 448 28 62 (777728)
I1215 18:08:06.992331 13151 net.cpp:137] Memory required for data: 271756984
I1215 18:08:06.992336 13151 layer_factory.hpp:77] Creating layer conv1_7
I1215 18:08:06.992349 13151 net.cpp:84] Creating Layer conv1_7
I1215 18:08:06.992355 13151 net.cpp:406] conv1_7 <- conv1_7/bn
I1215 18:08:06.992363 13151 net.cpp:380] conv1_7 -> conv1_7
I1215 18:08:07.029494 13151 net.cpp:122] Setting up conv1_7
I1215 18:08:07.029531 13151 net.cpp:129] Top shape: 1 32 28 62 (55552)
I1215 18:08:07.029539 13151 net.cpp:137] Memory required for data: 271979192
I1215 18:08:07.029553 13151 layer_factory.hpp:77] Creating layer concat1_7
I1215 18:08:07.029570 13151 net.cpp:84] Creating Layer concat1_7
I1215 18:08:07.029579 13151 net.cpp:406] concat1_7 <- concat1_6_concat1_6_0_split_1
I1215 18:08:07.029588 13151 net.cpp:406] concat1_7 <- conv1_7
I1215 18:08:07.029597 13151 net.cpp:380] concat1_7 -> concat1_7
I1215 18:08:07.029664 13151 net.cpp:122] Setting up concat1_7
I1215 18:08:07.029676 13151 net.cpp:129] Top shape: 1 480 28 62 (833280)
I1215 18:08:07.029680 13151 net.cpp:137] Memory required for data: 275312312
I1215 18:08:07.029685 13151 layer_factory.hpp:77] Creating layer concat1_7_concat1_7_0_split
I1215 18:08:07.029695 13151 net.cpp:84] Creating Layer concat1_7_concat1_7_0_split
I1215 18:08:07.029700 13151 net.cpp:406] concat1_7_concat1_7_0_split <- concat1_7
I1215 18:08:07.029707 13151 net.cpp:380] concat1_7_concat1_7_0_split -> concat1_7_concat1_7_0_split_0
I1215 18:08:07.029716 13151 net.cpp:380] concat1_7_concat1_7_0_split -> concat1_7_concat1_7_0_split_1
I1215 18:08:07.029803 13151 net.cpp:122] Setting up concat1_7_concat1_7_0_split
I1215 18:08:07.029811 13151 net.cpp:129] Top shape: 1 480 28 62 (833280)
I1215 18:08:07.029821 13151 net.cpp:129] Top shape: 1 480 28 62 (833280)
I1215 18:08:07.029826 13151 net.cpp:137] Memory required for data: 281978552
I1215 18:08:07.029830 13151 layer_factory.hpp:77] Creating layer conv1_8/bn
I1215 18:08:07.029839 13151 net.cpp:84] Creating Layer conv1_8/bn
I1215 18:08:07.029844 13151 net.cpp:406] conv1_8/bn <- concat1_7_concat1_7_0_split_0
I1215 18:08:07.029852 13151 net.cpp:380] conv1_8/bn -> conv1_8/bn
I1215 18:08:07.030388 13151 net.cpp:122] Setting up conv1_8/bn
I1215 18:08:07.030400 13151 net.cpp:129] Top shape: 1 480 28 62 (833280)
I1215 18:08:07.030405 13151 net.cpp:137] Memory required for data: 285311672
I1215 18:08:07.030417 13151 layer_factory.hpp:77] Creating layer conv1_8/scale
I1215 18:08:07.030427 13151 net.cpp:84] Creating Layer conv1_8/scale
I1215 18:08:07.030432 13151 net.cpp:406] conv1_8/scale <- conv1_8/bn
I1215 18:08:07.030439 13151 net.cpp:367] conv1_8/scale -> conv1_8/bn (in-place)
I1215 18:08:07.030532 13151 layer_factory.hpp:77] Creating layer conv1_8/scale
I1215 18:08:07.030804 13151 net.cpp:122] Setting up conv1_8/scale
I1215 18:08:07.030814 13151 net.cpp:129] Top shape: 1 480 28 62 (833280)
I1215 18:08:07.030818 13151 net.cpp:137] Memory required for data: 288644792
I1215 18:08:07.030827 13151 layer_factory.hpp:77] Creating layer relu1_8
I1215 18:08:07.030834 13151 net.cpp:84] Creating Layer relu1_8
I1215 18:08:07.030838 13151 net.cpp:406] relu1_8 <- conv1_8/bn
I1215 18:08:07.030845 13151 net.cpp:367] relu1_8 -> conv1_8/bn (in-place)
I1215 18:08:07.031476 13151 net.cpp:122] Setting up relu1_8
I1215 18:08:07.031502 13151 net.cpp:129] Top shape: 1 480 28 62 (833280)
I1215 18:08:07.031507 13151 net.cpp:137] Memory required for data: 291977912
I1215 18:08:07.031512 13151 layer_factory.hpp:77] Creating layer conv1_8
I1215 18:08:07.031533 13151 net.cpp:84] Creating Layer conv1_8
I1215 18:08:07.031540 13151 net.cpp:406] conv1_8 <- conv1_8/bn
I1215 18:08:07.031550 13151 net.cpp:380] conv1_8 -> conv1_8
I1215 18:08:07.084108 13151 net.cpp:122] Setting up conv1_8
I1215 18:08:07.084141 13151 net.cpp:129] Top shape: 1 32 28 62 (55552)
I1215 18:08:07.084146 13151 net.cpp:137] Memory required for data: 292200120
I1215 18:08:07.084157 13151 layer_factory.hpp:77] Creating layer concat1_8
I1215 18:08:07.084172 13151 net.cpp:84] Creating Layer concat1_8
I1215 18:08:07.084179 13151 net.cpp:406] concat1_8 <- concat1_7_concat1_7_0_split_1
I1215 18:08:07.084187 13151 net.cpp:406] concat1_8 <- conv1_8
I1215 18:08:07.084194 13151 net.cpp:380] concat1_8 -> concat1_8
I1215 18:08:07.084255 13151 net.cpp:122] Setting up concat1_8
I1215 18:08:07.084264 13151 net.cpp:129] Top shape: 1 512 28 62 (888832)
I1215 18:08:07.084269 13151 net.cpp:137] Memory required for data: 295755448
I1215 18:08:07.084272 13151 layer_factory.hpp:77] Creating layer concat1_8_concat1_8_0_split
I1215 18:08:07.084281 13151 net.cpp:84] Creating Layer concat1_8_concat1_8_0_split
I1215 18:08:07.084286 13151 net.cpp:406] concat1_8_concat1_8_0_split <- concat1_8
I1215 18:08:07.084292 13151 net.cpp:380] concat1_8_concat1_8_0_split -> concat1_8_concat1_8_0_split_0
I1215 18:08:07.084301 13151 net.cpp:380] concat1_8_concat1_8_0_split -> concat1_8_concat1_8_0_split_1
I1215 18:08:07.084378 13151 net.cpp:122] Setting up concat1_8_concat1_8_0_split
I1215 18:08:07.084388 13151 net.cpp:129] Top shape: 1 512 28 62 (888832)
I1215 18:08:07.084393 13151 net.cpp:129] Top shape: 1 512 28 62 (888832)
I1215 18:08:07.084396 13151 net.cpp:137] Memory required for data: 302866104
I1215 18:08:07.084400 13151 layer_factory.hpp:77] Creating layer conv1_9/bn
I1215 18:08:07.084409 13151 net.cpp:84] Creating Layer conv1_9/bn
I1215 18:08:07.084414 13151 net.cpp:406] conv1_9/bn <- concat1_8_concat1_8_0_split_0
I1215 18:08:07.084421 13151 net.cpp:380] conv1_9/bn -> conv1_9/bn
I1215 18:08:07.084936 13151 net.cpp:122] Setting up conv1_9/bn
I1215 18:08:07.084950 13151 net.cpp:129] Top shape: 1 512 28 62 (888832)
I1215 18:08:07.084954 13151 net.cpp:137] Memory required for data: 306421432
I1215 18:08:07.084974 13151 layer_factory.hpp:77] Creating layer conv1_9/scale
I1215 18:08:07.084987 13151 net.cpp:84] Creating Layer conv1_9/scale
I1215 18:08:07.084995 13151 net.cpp:406] conv1_9/scale <- conv1_9/bn
I1215 18:08:07.085001 13151 net.cpp:367] conv1_9/scale -> conv1_9/bn (in-place)
I1215 18:08:07.085098 13151 layer_factory.hpp:77] Creating layer conv1_9/scale
I1215 18:08:07.085405 13151 net.cpp:122] Setting up conv1_9/scale
I1215 18:08:07.085419 13151 net.cpp:129] Top shape: 1 512 28 62 (888832)
I1215 18:08:07.085424 13151 net.cpp:137] Memory required for data: 309976760
I1215 18:08:07.085433 13151 layer_factory.hpp:77] Creating layer relu1_9
I1215 18:08:07.085445 13151 net.cpp:84] Creating Layer relu1_9
I1215 18:08:07.085451 13151 net.cpp:406] relu1_9 <- conv1_9/bn
I1215 18:08:07.085458 13151 net.cpp:367] relu1_9 -> conv1_9/bn (in-place)
I1215 18:08:07.085784 13151 net.cpp:122] Setting up relu1_9
I1215 18:08:07.085799 13151 net.cpp:129] Top shape: 1 512 28 62 (888832)
I1215 18:08:07.085805 13151 net.cpp:137] Memory required for data: 313532088
I1215 18:08:07.085810 13151 layer_factory.hpp:77] Creating layer conv1_9
I1215 18:08:07.085826 13151 net.cpp:84] Creating Layer conv1_9
I1215 18:08:07.085834 13151 net.cpp:406] conv1_9 <- conv1_9/bn
I1215 18:08:07.085842 13151 net.cpp:380] conv1_9 -> conv1_9
I1215 18:08:07.094375 13151 net.cpp:122] Setting up conv1_9
I1215 18:08:07.094418 13151 net.cpp:129] Top shape: 1 32 28 62 (55552)
I1215 18:08:07.094424 13151 net.cpp:137] Memory required for data: 313754296
I1215 18:08:07.094436 13151 layer_factory.hpp:77] Creating layer concat1_9
I1215 18:08:07.094451 13151 net.cpp:84] Creating Layer concat1_9
I1215 18:08:07.094460 13151 net.cpp:406] concat1_9 <- concat1_8_concat1_8_0_split_1
I1215 18:08:07.094470 13151 net.cpp:406] concat1_9 <- conv1_9
I1215 18:08:07.094480 13151 net.cpp:380] concat1_9 -> concat1_9
I1215 18:08:07.094554 13151 net.cpp:122] Setting up concat1_9
I1215 18:08:07.094564 13151 net.cpp:129] Top shape: 1 544 28 62 (944384)
I1215 18:08:07.094568 13151 net.cpp:137] Memory required for data: 317531832
I1215 18:08:07.094573 13151 layer_factory.hpp:77] Creating layer concat1_9_concat1_9_0_split
I1215 18:08:07.094581 13151 net.cpp:84] Creating Layer concat1_9_concat1_9_0_split
I1215 18:08:07.094586 13151 net.cpp:406] concat1_9_concat1_9_0_split <- concat1_9
I1215 18:08:07.094595 13151 net.cpp:380] concat1_9_concat1_9_0_split -> concat1_9_concat1_9_0_split_0
I1215 18:08:07.094604 13151 net.cpp:380] concat1_9_concat1_9_0_split -> concat1_9_concat1_9_0_split_1
I1215 18:08:07.094696 13151 net.cpp:122] Setting up concat1_9_concat1_9_0_split
I1215 18:08:07.094707 13151 net.cpp:129] Top shape: 1 544 28 62 (944384)
I1215 18:08:07.094712 13151 net.cpp:129] Top shape: 1 544 28 62 (944384)
I1215 18:08:07.094717 13151 net.cpp:137] Memory required for data: 325086904
I1215 18:08:07.094720 13151 layer_factory.hpp:77] Creating layer conv1_10/bn
I1215 18:08:07.094729 13151 net.cpp:84] Creating Layer conv1_10/bn
I1215 18:08:07.094734 13151 net.cpp:406] conv1_10/bn <- concat1_9_concat1_9_0_split_0
I1215 18:08:07.094741 13151 net.cpp:380] conv1_10/bn -> conv1_10/bn
I1215 18:08:07.095304 13151 net.cpp:122] Setting up conv1_10/bn
I1215 18:08:07.095319 13151 net.cpp:129] Top shape: 1 544 28 62 (944384)
I1215 18:08:07.095324 13151 net.cpp:137] Memory required for data: 328864440
I1215 18:08:07.095336 13151 layer_factory.hpp:77] Creating layer conv1_10/scale
I1215 18:08:07.095348 13151 net.cpp:84] Creating Layer conv1_10/scale
I1215 18:08:07.095355 13151 net.cpp:406] conv1_10/scale <- conv1_10/bn
I1215 18:08:07.095363 13151 net.cpp:367] conv1_10/scale -> conv1_10/bn (in-place)
I1215 18:08:07.095464 13151 layer_factory.hpp:77] Creating layer conv1_10/scale
I1215 18:08:07.095783 13151 net.cpp:122] Setting up conv1_10/scale
I1215 18:08:07.095798 13151 net.cpp:129] Top shape: 1 544 28 62 (944384)
I1215 18:08:07.095801 13151 net.cpp:137] Memory required for data: 332641976
I1215 18:08:07.095811 13151 layer_factory.hpp:77] Creating layer relu1_10
I1215 18:08:07.095820 13151 net.cpp:84] Creating Layer relu1_10
I1215 18:08:07.095831 13151 net.cpp:406] relu1_10 <- conv1_10/bn
I1215 18:08:07.095839 13151 net.cpp:367] relu1_10 -> conv1_10/bn (in-place)
I1215 18:08:07.096503 13151 net.cpp:122] Setting up relu1_10
I1215 18:08:07.096526 13151 net.cpp:129] Top shape: 1 544 28 62 (944384)
I1215 18:08:07.096530 13151 net.cpp:137] Memory required for data: 336419512
I1215 18:08:07.096536 13151 layer_factory.hpp:77] Creating layer conv1_10
I1215 18:08:07.096554 13151 net.cpp:84] Creating Layer conv1_10
I1215 18:08:07.096561 13151 net.cpp:406] conv1_10 <- conv1_10/bn
I1215 18:08:07.096570 13151 net.cpp:380] conv1_10 -> conv1_10
I1215 18:08:07.195363 13151 net.cpp:122] Setting up conv1_10
I1215 18:08:07.195399 13151 net.cpp:129] Top shape: 1 32 28 62 (55552)
I1215 18:08:07.195405 13151 net.cpp:137] Memory required for data: 336641720
I1215 18:08:07.195416 13151 layer_factory.hpp:77] Creating layer concat1_10
I1215 18:08:07.195431 13151 net.cpp:84] Creating Layer concat1_10
I1215 18:08:07.195439 13151 net.cpp:406] concat1_10 <- concat1_9_concat1_9_0_split_1
I1215 18:08:07.195448 13151 net.cpp:406] concat1_10 <- conv1_10
I1215 18:08:07.195456 13151 net.cpp:380] concat1_10 -> concat1_10
I1215 18:08:07.195523 13151 net.cpp:122] Setting up concat1_10
I1215 18:08:07.195534 13151 net.cpp:129] Top shape: 1 576 28 62 (999936)
I1215 18:08:07.195538 13151 net.cpp:137] Memory required for data: 340641464
I1215 18:08:07.195544 13151 layer_factory.hpp:77] Creating layer concat1_10_concat1_10_0_split
I1215 18:08:07.195550 13151 net.cpp:84] Creating Layer concat1_10_concat1_10_0_split
I1215 18:08:07.195555 13151 net.cpp:406] concat1_10_concat1_10_0_split <- concat1_10
I1215 18:08:07.195561 13151 net.cpp:380] concat1_10_concat1_10_0_split -> concat1_10_concat1_10_0_split_0
I1215 18:08:07.195569 13151 net.cpp:380] concat1_10_concat1_10_0_split -> concat1_10_concat1_10_0_split_1
I1215 18:08:07.195657 13151 net.cpp:122] Setting up concat1_10_concat1_10_0_split
I1215 18:08:07.195667 13151 net.cpp:129] Top shape: 1 576 28 62 (999936)
I1215 18:08:07.195672 13151 net.cpp:129] Top shape: 1 576 28 62 (999936)
I1215 18:08:07.195677 13151 net.cpp:137] Memory required for data: 348640952
I1215 18:08:07.195680 13151 layer_factory.hpp:77] Creating layer conv1_11/bn
I1215 18:08:07.195693 13151 net.cpp:84] Creating Layer conv1_11/bn
I1215 18:08:07.195698 13151 net.cpp:406] conv1_11/bn <- concat1_10_concat1_10_0_split_0
I1215 18:08:07.195704 13151 net.cpp:380] conv1_11/bn -> conv1_11/bn
I1215 18:08:07.196307 13151 net.cpp:122] Setting up conv1_11/bn
I1215 18:08:07.196323 13151 net.cpp:129] Top shape: 1 576 28 62 (999936)
I1215 18:08:07.196327 13151 net.cpp:137] Memory required for data: 352640696
I1215 18:08:07.196338 13151 layer_factory.hpp:77] Creating layer conv1_11/scale
I1215 18:08:07.196352 13151 net.cpp:84] Creating Layer conv1_11/scale
I1215 18:08:07.196357 13151 net.cpp:406] conv1_11/scale <- conv1_11/bn
I1215 18:08:07.196364 13151 net.cpp:367] conv1_11/scale -> conv1_11/bn (in-place)
I1215 18:08:07.196465 13151 layer_factory.hpp:77] Creating layer conv1_11/scale
I1215 18:08:07.196772 13151 net.cpp:122] Setting up conv1_11/scale
I1215 18:08:07.196784 13151 net.cpp:129] Top shape: 1 576 28 62 (999936)
I1215 18:08:07.196787 13151 net.cpp:137] Memory required for data: 356640440
I1215 18:08:07.196795 13151 layer_factory.hpp:77] Creating layer relu1_11
I1215 18:08:07.196804 13151 net.cpp:84] Creating Layer relu1_11
I1215 18:08:07.196808 13151 net.cpp:406] relu1_11 <- conv1_11/bn
I1215 18:08:07.196815 13151 net.cpp:367] relu1_11 -> conv1_11/bn (in-place)
I1215 18:08:07.197394 13151 net.cpp:122] Setting up relu1_11
I1215 18:08:07.197408 13151 net.cpp:129] Top shape: 1 576 28 62 (999936)
I1215 18:08:07.197413 13151 net.cpp:137] Memory required for data: 360640184
I1215 18:08:07.197418 13151 layer_factory.hpp:77] Creating layer conv1_11
I1215 18:08:07.197433 13151 net.cpp:84] Creating Layer conv1_11
I1215 18:08:07.197439 13151 net.cpp:406] conv1_11 <- conv1_11/bn
I1215 18:08:07.197449 13151 net.cpp:380] conv1_11 -> conv1_11
I1215 18:08:07.206409 13151 net.cpp:122] Setting up conv1_11
I1215 18:08:07.206451 13151 net.cpp:129] Top shape: 1 32 28 62 (55552)
I1215 18:08:07.206457 13151 net.cpp:137] Memory required for data: 360862392
I1215 18:08:07.206468 13151 layer_factory.hpp:77] Creating layer concat1_11
I1215 18:08:07.206483 13151 net.cpp:84] Creating Layer concat1_11
I1215 18:08:07.206490 13151 net.cpp:406] concat1_11 <- concat1_10_concat1_10_0_split_1
I1215 18:08:07.206498 13151 net.cpp:406] concat1_11 <- conv1_11
I1215 18:08:07.206506 13151 net.cpp:380] concat1_11 -> concat1_11
I1215 18:08:07.206570 13151 net.cpp:122] Setting up concat1_11
I1215 18:08:07.206579 13151 net.cpp:129] Top shape: 1 608 28 62 (1055488)
I1215 18:08:07.206583 13151 net.cpp:137] Memory required for data: 365084344
I1215 18:08:07.206588 13151 layer_factory.hpp:77] Creating layer tpp5
I1215 18:08:07.206598 13151 net.cpp:84] Creating Layer tpp5
I1215 18:08:07.206604 13151 net.cpp:406] tpp5 <- concat1_11
I1215 18:08:07.206610 13151 net.cpp:380] tpp5 -> tpp5
I1215 18:08:07.207706 13151 net.cpp:122] Setting up tpp5
I1215 18:08:07.207720 13151 net.cpp:129] Top shape: 1 9120 (9120)
I1215 18:08:07.207725 13151 net.cpp:137] Memory required for data: 365120824
I1215 18:08:07.207728 13151 layer_factory.hpp:77] Creating layer reshape
I1215 18:08:07.207738 13151 net.cpp:84] Creating Layer reshape
I1215 18:08:07.207743 13151 net.cpp:406] reshape <- tpp5
I1215 18:08:07.207757 13151 net.cpp:380] reshape -> reshape
I1215 18:08:07.207815 13151 net.cpp:122] Setting up reshape
I1215 18:08:07.207824 13151 net.cpp:129] Top shape: 1 4560 2 1 (9120)
I1215 18:08:07.207828 13151 net.cpp:137] Memory required for data: 365157304
I1215 18:08:07.207834 13151 layer_factory.hpp:77] Creating layer premax
I1215 18:08:07.207844 13151 net.cpp:84] Creating Layer premax
I1215 18:08:07.207849 13151 net.cpp:406] premax <- reshape
I1215 18:08:07.207855 13151 net.cpp:380] premax -> premax
I1215 18:08:07.208112 13151 net.cpp:122] Setting up premax
I1215 18:08:07.208123 13151 net.cpp:129] Top shape: 1 4560 2 1 (9120)
I1215 18:08:07.208127 13151 net.cpp:137] Memory required for data: 365193784
I1215 18:08:07.208133 13151 layer_factory.hpp:77] Creating layer maxout
I1215 18:08:07.208144 13151 net.cpp:84] Creating Layer maxout
I1215 18:08:07.208149 13151 net.cpp:406] maxout <- premax
I1215 18:08:07.208155 13151 net.cpp:380] maxout -> maxout
I1215 18:08:07.208240 13151 net.cpp:122] Setting up maxout
I1215 18:08:07.208248 13151 net.cpp:129] Top shape: 1 4560 1 1 (4560)
I1215 18:08:07.208252 13151 net.cpp:137] Memory required for data: 365212024
I1215 18:08:07.208256 13151 layer_factory.hpp:77] Creating layer fc6_d
I1215 18:08:07.208266 13151 net.cpp:84] Creating Layer fc6_d
I1215 18:08:07.208269 13151 net.cpp:406] fc6_d <- maxout
I1215 18:08:07.208276 13151 net.cpp:380] fc6_d -> fc6_d
I1215 18:08:10.536772 13151 net.cpp:122] Setting up fc6_d
I1215 18:08:10.536804 13151 net.cpp:129] Top shape: 1 4096 (4096)
I1215 18:08:10.536808 13151 net.cpp:137] Memory required for data: 365228408
I1215 18:08:10.536818 13151 layer_factory.hpp:77] Creating layer relu6
I1215 18:08:10.536826 13151 net.cpp:84] Creating Layer relu6
I1215 18:08:10.536830 13151 net.cpp:406] relu6 <- fc6_d
I1215 18:08:10.536836 13151 net.cpp:367] relu6 -> fc6_d (in-place)
I1215 18:08:10.537104 13151 net.cpp:122] Setting up relu6
I1215 18:08:10.537113 13151 net.cpp:129] Top shape: 1 4096 (4096)
I1215 18:08:10.537117 13151 net.cpp:137] Memory required for data: 365244792
I1215 18:08:10.537119 13151 layer_factory.hpp:77] Creating layer drop6
I1215 18:08:10.537127 13151 net.cpp:84] Creating Layer drop6
I1215 18:08:10.537130 13151 net.cpp:406] drop6 <- fc6_d
I1215 18:08:10.537135 13151 net.cpp:367] drop6 -> fc6_d (in-place)
I1215 18:08:10.537181 13151 net.cpp:122] Setting up drop6
I1215 18:08:10.537186 13151 net.cpp:129] Top shape: 1 4096 (4096)
I1215 18:08:10.537189 13151 net.cpp:137] Memory required for data: 365261176
I1215 18:08:10.537191 13151 layer_factory.hpp:77] Creating layer fc7_d
I1215 18:08:10.537199 13151 net.cpp:84] Creating Layer fc7_d
I1215 18:08:10.537201 13151 net.cpp:406] fc7_d <- fc6_d
I1215 18:08:10.537210 13151 net.cpp:380] fc7_d -> fc7_d
I1215 18:08:13.404686 13151 net.cpp:122] Setting up fc7_d
I1215 18:08:13.404721 13151 net.cpp:129] Top shape: 1 4096 (4096)
I1215 18:08:13.404726 13151 net.cpp:137] Memory required for data: 365277560
I1215 18:08:13.404738 13151 layer_factory.hpp:77] Creating layer relu7
I1215 18:08:13.404755 13151 net.cpp:84] Creating Layer relu7
I1215 18:08:13.404762 13151 net.cpp:406] relu7 <- fc7_d
I1215 18:08:13.404770 13151 net.cpp:367] relu7 -> fc7_d (in-place)
I1215 18:08:13.405422 13151 net.cpp:122] Setting up relu7
I1215 18:08:13.405437 13151 net.cpp:129] Top shape: 1 4096 (4096)
I1215 18:08:13.405442 13151 net.cpp:137] Memory required for data: 365293944
I1215 18:08:13.405447 13151 layer_factory.hpp:77] Creating layer drop7
I1215 18:08:13.405460 13151 net.cpp:84] Creating Layer drop7
I1215 18:08:13.405465 13151 net.cpp:406] drop7 <- fc7_d
I1215 18:08:13.405472 13151 net.cpp:367] drop7 -> fc7_d (in-place)
I1215 18:08:13.405534 13151 net.cpp:122] Setting up drop7
I1215 18:08:13.405541 13151 net.cpp:129] Top shape: 1 4096 (4096)
I1215 18:08:13.405545 13151 net.cpp:137] Memory required for data: 365310328
I1215 18:08:13.405550 13151 layer_factory.hpp:77] Creating layer fc8_d
I1215 18:08:13.405560 13151 net.cpp:84] Creating Layer fc8_d
I1215 18:08:13.405565 13151 net.cpp:406] fc8_d <- fc7_d
I1215 18:08:13.405573 13151 net.cpp:380] fc8_d -> fc8_d
I1215 18:08:13.905091 13151 net.cpp:122] Setting up fc8_d
I1215 18:08:13.905133 13151 net.cpp:129] Top shape: 1 604 (604)
I1215 18:08:13.905138 13151 net.cpp:137] Memory required for data: 365312744
I1215 18:08:13.905149 13151 layer_factory.hpp:77] Creating layer loss
I1215 18:08:13.905164 13151 net.cpp:84] Creating Layer loss
I1215 18:08:13.905171 13151 net.cpp:406] loss <- fc8_d
I1215 18:08:13.905180 13151 net.cpp:406] loss <- phocs
I1215 18:08:13.905189 13151 net.cpp:380] loss -> loss
I1215 18:08:13.905297 13151 net.cpp:122] Setting up loss
…
state {
  phase: TEST
}
layer {
  name: "word_images"
  type: "Data"
  top: "word_images"
  top: "label"
  transform_param {
    scale: -0.0039215689
    mean_value: 255
  }
  data_param {
    source: "/data/fwolf/min26/gw_cv1_nti500000_pul2-3-4-5_test_word_images_lmdb"
    batch_size: 1
    backend: LMDB
    prefetch: 20
  }
}
layer {
  name: "phocs"
  type: "Data"
  top: "phocs"
  top: "label_phocs"
  data_param {
    source: "/data/fwolf/min26/gw_cv1_nti500000_pul2-3-4-5_test_phocs_lmdb"
    batch_size: 1
    backend: LMDB
    prefetch: 20
  }
}
layer {
  name: "conv_init"
  type: "Convolution"
  bottom: "word_images"
  top: "conv_init"
  convolution_param {
    num_output: 32
    bias_term: false
    pad: 1
    kernel_size: 3
    stride: 1
    weight_filler {
      type: "msra"
    }
    bias_filler {
      type: "constant"
    }
    engine: CUDNN
  }
}
layer {
  name: "bn_init"
  type: "BatchNorm"
  bottom: "conv_init"
  top: "bn_init"
  param {
    lr_mult: 0
    decay_mult: 0
  }
  param {
    lr_mult: 0
    decay_mult: 0
  }
  param {
    lr_mult: 0
    decay_mult: 0
  }
  batch_norm_param {
    eps: 1e-05
  }
}
layer {
  name: "scale_init"
  type: "Scale"
  bottom: "bn_init"
  top: "bn_init"
  scale_param {
    filler {
      value: 1
    }
    bias_term: true
    bias_filler {
      value: 0
    }
  }
}
layer {
  name: "relu_init"
  type: "ReLU"
  bottom: "bn_init"
  top: "bn_init"
}
layer {
  name: "pool_init"
  type: "Pooling"
  bottom: "bn_init"
  top: "pool_init"
  pooling_param {
    pool: MAX
    kernel_size: 3
    stride: 2
    pad: 1
  }
}
layer {
  name: "conv0_0/bn"
  type: "BatchNorm"
  bottom: "pool_init"
  top: "conv0_0/bn"
  param {
    lr_mult: 0
    decay_mult: 0
  }
  param {
    lr_mult: 0
    decay_mult: 0
  }
  param {
    lr_mult: 0
    decay_mult: 0
  }
}
layer {
  name: "conv0_0/scale"
  type: "Scale"
  bottom: "conv0_0/bn"
  top: "conv0_0/bn"
  scale_param {
    filler {
      value: 1
    }
    bias_term: true
    bias_filler {
      value: 0
    }
  }
}
layer {
  name: "relu0_0"
  type: "ReLU"
  bottom: "conv0_0/bn"
  top: "conv0_0/bn"
}
layer {
  name: "conv0_0"
  type: "Convolution"
  bottom: "conv0_0/bn"
  top: "conv0_0"
  convolution_param {
    num_output: 32
    bias_term: false
    pad: 1
    kernel_size: 3
    stride: 1
    weight_filler {
      type: "msra"
    }
    bias_filler {
      type: "constant"
    }
    engine: CUDNN
  }
}
layer {
  name: "concat0_0"
  type: "Concat"
  bottom: "pool_init"
  bottom: "conv0_0"
  top: "concat0_0"
  concat_param {
    axis: 1
  }
}
layer {
  name: "conv0_1/bn"
  type: "BatchNorm"
  bottom: "concat0_0"
  top: "conv0_1/bn"
  param {
    lr_mult: 0
    decay_mult: 0
  }
  param {
    lr_mult: 0
    decay_mult: 0
  }
  param {
    lr_mult: 0
    decay_mult: 0
  }
}
layer {
  name: "conv0_1/scale"
  type: "Scale"
  bottom: "conv0_1/bn"
  top: "conv0_1/bn"
  scale_param {
    filler {
      value: 1
    }
    bias_term: true
    bias_filler {
      value: 0
    }
  }
}
layer {
  name: "relu0_1"
  type: "ReLU"
  bottom: "conv0_1/bn"
  top: "conv0_1/bn"
}
layer {
  name: "conv0_1"
  type: "Convolution"
  bottom: "conv0_1/bn"
  top: "conv0_1"
  convolution_param {
    num_output: 32
    bias_term: false
    pad: 1
    kernel_size: 3
    stride: 1
    weight_filler {
      type: "msra"
    }
    bias_filler {
      type: "constant"
    }
    engine: CUDNN
  }
}
layer {
  name: "concat0_1"
  type: "Concat"
  bottom: "concat0_0"
  bottom: "conv0_1"
  top: "concat0_1"
  concat_param {
    axis: 1
  }
}
layer {
  name: "conv0_2/bn"
  type: "BatchNorm"
  bottom: "concat0_1"
  top: "conv0_2/bn"
  param {
    lr_mult: 0
    decay_mult: 0
  }
  param {
    lr_mult: 0
    decay_mult: 0
  }
  param {
    lr_mult: 0
    decay_mult: 0
  }
}
layer {
  name: "conv0_2/scale"
  type: "Scale"
  bottom: "conv0_2/bn"
  top: "conv0_2/bn"
  scale_param {
    filler {
      value: 1
    }
    bias_term: true
    bias_filler {
      value: 0
    }
  }
}
layer {
  name: "relu0_2"
  type: "ReLU"
  bottom: "conv0_2/bn"
  top: "conv0_2/bn"
}
layer {
  name: "conv0_2"
  type: "Convolution"
  bottom: "conv0_2/bn"
  top: "conv0_2"
  convolution_param {
    num_output: 32
    bias_term: false
    pad: 1
    kernel_size: 3
    stride: 1
    weight_filler {
      type: "msra"
    }
    bias_filler {
      type: "constant"
    }
    engine: CUDNN
  }
}
layer {
  name: "concat0_2"
  type: "Concat"
  bottom: "concat0_1"
  bottom: "conv0_2"
  top: "concat0_2"
  concat_param {
    axis: 1
  }
}
layer {
  name: "conv0_3/bn"
  type: "BatchNorm"
  bottom: "concat0_2"
  top: "conv0_3/bn"
  param {
    lr_mult: 0
    decay_mult: 0
  }
  param {
    lr_mult: 0
    decay_mult: 0
  }
  param {
    lr_mult: 0
    decay_mult: 0
  }
}
layer {
  name: "conv0_3/scale"
  type: "Scale"
  bottom: "conv0_3/bn"
  top: "conv0_3/bn"
  scale_param {
    filler {
      value: 1
    }
    bias_term: true
    bias_filler {
      value: 0
    }
  }
}
layer {
  name: "relu0_3"
  type: "ReLU"
  bottom: "conv0_3/bn"
  top: "conv0_3/bn"
}
layer {
  name: "conv0_3"
  type: "Convolution"
  bottom: "conv0_3/bn"
  top: "conv0_3"
  convolution_param {
    num_output: 32
    bias_term: false
    pad: 1
    kernel_size: 3
    stride: 1
    weight_filler {
      type: "msra"
    }
    bias_filler {
      type: "constant"
    }
    engine: CUDNN
  }
}
layer {
  name: "concat0_3"
  type: "Concat"
  bottom: "concat0_2"
  bottom: "conv0_3"
  top: "concat0_3"
  concat_param {
    axis: 1
  }
}
layer {
  name: "conv0_4/bn"
  type: "BatchNorm"
  bottom: "concat0_3"
  top: "conv0_4/bn"
  param {
    lr_mult: 0
    decay_mult: 0
  }
  param {
    lr_mult: 0
    decay_mult: 0
  }
  param {
    lr_mult: 0
    decay_mult: 0
  }
}
layer {
  name: "conv0_4/scale"
  type: "Scale"
  bottom: "conv0_4/bn"
  top: "conv0_4/bn"
  scale_param {
    filler {
      value: 1
    }
    bias_term: true
    bias_filler {
      value: 0
    }
  }
}
layer {
  name: "relu0_4"
  type: "ReLU"
  bottom: "conv0_4/bn"
  top: "conv0_4/bn"
}
layer {
  name: "conv0_4"
  type: "Convolution"
  bottom: "conv0_4/bn"
  top: "conv0_4"
  convolution_param {
    num_output: 32
    bias_term: false
    pad: 1
    kernel_size: 3
    stride: 1
    weight_filler {
      type: "msra"
    }
    bias_filler {
      type: "constant"
    }
    engine: CUDNN
  }
}
layer {
  name: "concat0_4"
  type: "Concat"
  bottom: "concat0_3"
  bottom: "conv0_4"
  top: "concat0_4"
  concat_param {
    axis: 1
  }
}
layer {
  name: "conv0_5/bn"
  type: "BatchNorm"
  bottom: "concat0_4"
  top: "conv0_5/bn"
  param {
    lr_mult: 0
    decay_mult: 0
  }
  param {
    lr_mult: 0
    decay_mult: 0
  }
  param {
    lr_mult: 0
    decay_mult: 0
  }
}
layer {
  name: "conv0_5/scale"
  type: "Scale"
  bottom: "conv0_5/bn"
  top: "conv0_5/bn"
  scale_param {
    filler {
      value: 1
    }
    bias_term: true
    bias_filler {
      value: 0
    }
  }
}
layer {
  name: "relu0_5"
  type: "ReLU"
  bottom: "conv0_5/bn"
  top: "conv0_5/bn"
}
layer {
  name: "conv0_5"
  type: "Convolution"
  bottom: "conv0_5/bn"
  top: "conv0_5"
  convolution_param {
    num_output: 32
    bias_term: false
    pad: 1
    kernel_size: 3
    stride: 1
    weight_filler {
      type: "msra"
    }
    bias_filler {
      type: "constant"
    }
    engine: CUDNN
  }
}
layer {
  name: "concat0_5"
  type: "Concat"
  bottom: "concat0_4"
  bottom: "conv0_5"
  top: "concat0_5"
  concat_param {
    axis: 1
  }
}
layer {
  name: "BatchNorm1"
  type: "BatchNorm"
  bottom: "concat0_5"
  top: "BatchNorm1"
  param {
    lr_mult: 0
    decay_mult: 0
  }
  param {
    lr_mult: 0
    decay_mult: 0
  }
  param {
    lr_mult: 0
    decay_mult: 0
  }
}
layer {
  name: "Scale1"
  type: "Scale"
  bottom: "BatchNorm1"
  top: "BatchNorm1"
  scale_param {
    filler {
      value: 1
    }
    bias_term: true
    bias_filler {
      value: 0
    }
  }
}
layer {
  name: "ReLU1"
  type: "ReLU"
  bottom: "BatchNorm1"
  top: "BatchNorm1"
}
layer {
  name: "conv0_blk"
  type: "Convolution"
  bottom: "BatchNorm1"
  top: "conv0_blk"
  convolution_param {
    num_output: 224
    bias_term: false
    pad: 0
    kernel_size: 1
    stride: 1
    weight_filler {
      type: "msra"
    }
    bias_filler {
      type: "constant"
    }
    engine: CUDNN
  }
}
layer {
  name: "pool0"
  type: "Pooling"
  bottom: "conv0_blk"
  top: "pool0"
  pooling_param {
    pool: AVE
    kernel_size: 2
    stride: 2
  }
}
layer {
  name: "conv1_0/bn"
  type: "BatchNorm"
  bottom: "pool0"
  top: "conv1_0/bn"
  param {
    lr_mult: 0
    decay_mult: 0
  }
  param {
    lr_mult: 0
    decay_mult: 0
  }
  param {
    lr_mult: 0
    decay_mult: 0
  }
}
layer {
  name: "conv1_0/scale"
  type: "Scale"
  bottom: "conv1_0/bn"
  top: "conv1_0/bn"
  scale_param {
    filler {
      value: 1
    }
    bias_term: true
    bias_filler {
      value: 0
    }
  }
}
layer {
  name: "relu1_0"
  type: "ReLU"
  bottom: "conv1_0/bn"
  top: "conv1_0/bn"
}
layer {
  name: "conv1_0"
  type: "Convolution"
  bottom: "conv1_0/bn"
  top: "conv1_0"
  convolution_param {
    num_output: 32
    bias_term: false
    pad: 1
    kernel_size: 3
    stride: 1
    weight_filler {
      type: "msra"
    }
    bias_filler {
      type: "constant"
    }
    engine: CUDNN
  }
}
layer {
  name: "concat1_0"
  type: "Concat"
  bottom: "pool0"
  bottom: "conv1_0"
  top: "concat1_0"
  concat_param {
    axis: 1
  }
}
layer {
  name: "conv1_1/bn"
  type: "BatchNorm"
  bottom: "concat1_0"
  top: "conv1_1/bn"
  param {
    lr_mult: 0
    decay_mult: 0
  }
  param {
    lr_mult: 0
    decay_mult: 0
  }
  param {
    lr_mult: 0
    decay_mult: 0
  }
}
layer {
  name: "conv1_1/scale"
  type: "Scale"
  bottom: "conv1_1/bn"
  top: "conv1_1/bn"
  scale_param {
    filler {
      value: 1
    }
    bias_term: true
    bias_filler {
      value: 0
    }
  }
}
layer {
  name: "relu1_1"
  type: "ReLU"
  bottom: "conv1_1/bn"
  top: "conv1_1/bn"
}
layer {
  name: "conv1_1"
  type: "Convolution"
  bottom: "conv1_1/bn"
  top: "conv1_1"
  convolution_param {
    num_output: 32
    bias_term: false
    pad: 1
    kernel_size: 3
    stride: 1
    weight_filler {
      type: "msra"
    }
    bias_filler {
      type: "constant"
    }
    engine: CUDNN
  }
}
layer {
  name: "concat1_1"
  type: "Concat"
  bottom: "concat1_0"
  bottom: "conv1_1"
  top: "concat1_1"
  concat_param {
    axis: 1
  }
}
layer {
  name: "conv1_2/bn"
  type: "BatchNorm"
  bottom: "concat1_1"
  top: "conv1_2/bn"
  param {
    lr_mult: 0
    decay_mult: 0
  }
  param {
    lr_mult: 0
    decay_mult: 0
  }
  param {
    lr_mult: 0
    decay_mult: 0
  }
}
layer {
  name: "conv1_2/scale"
  type: "Scale"
  bottom: "conv1_2/bn"
  top: "conv1_2/bn"
  scale_param {
    filler {
      value: 1
    }
    bias_term: true
    bias_filler {
      value: 0
    }
  }
}
layer {
  name: "relu1_2"
  type: "ReLU"
  bottom: "conv1_2/bn"
  top: "conv1_2/bn"
}
layer {
  name: "conv1_2"
  type: "Convolution"
  bottom: "conv1_2/bn"
  top: "conv1_2"
  convolution_param {
    num_output: 32
    bias_term: false
    pad: 1
    kernel_size: 3
    stride: 1
    weight_filler {
      type: "msra"
    }
    bias_filler {
      type: "constant"
    }
    engine: CUDNN
  }
}
layer {
  name: "concat1_2"
  type: "Concat"
  bottom: "concat1_1"
  bottom: "conv1_2"
  top: "concat1_2"
  concat_param {
    axis: 1
  }
}
layer {
  name: "conv1_3/bn"
  type: "BatchNorm"
  bottom: "concat1_2"
  top: "conv1_3/bn"
  param {
    lr_mult: 0
    decay_mult: 0
  }
  param {
    lr_mult: 0
    decay_mult: 0
  }
  param {
    lr_mult: 0
    decay_mult: 0
  }
}
layer {
  name: "conv1_3/scale"
  type: "Scale"
  bottom: "conv1_3/bn"
  top: "conv1_3/bn"
  scale_param {
    filler {
      value: 1
    }
    bias_term: true
    bias_filler {
      value: 0
    }
  }
}
layer {
  name: "relu1_3"
  type: "ReLU"
  bottom: "conv1_3/bn"
  top: "conv1_3/bn"
}
layer {
  name: "conv1_3"
  type: "Convolution"
  bottom: "conv1_3/bn"
  top: "conv1_3"
  convolution_param {
    num_output: 32
    bias_term: false
    pad: 1
    kernel_size: 3
    stride: 1
    weight_filler {
      type: "msra"
    }
    bias_filler {
      type: "constant"
    }
    engine: CUDNN
  }
}
layer {
  name: "concat1_3"
  type: "Concat"
  bottom: "concat1_2"
  bottom: "conv1_3"
  top: "concat1_3"
  concat_param {
    axis: 1
  }
}
layer {
  name: "conv1_4/bn"
  type: "BatchNorm"
  bottom: "concat1_3"
  top: "conv1_4/bn"
  param {
    lr_mult: 0
    decay_mult: 0
  }
  param {
    lr_mult: 0
    decay_mult: 0
  }
  param {
    lr_mult: 0
    decay_mult: 0
  }
}
layer {
  name: "conv1_4/scale"
  type: "Scale"
  bottom: "conv1_4/bn"
  top: "conv1_4/bn"
  scale_param {
    filler {
      value: 1
    }
    bias_term: true
    bias_filler {
      value: 0
    }
  }
}
layer {
  name: "relu1_4"
  type: "ReLU"
  bottom: "conv1_4/bn"
  top: "conv1_4/bn"
}
layer {
  name: "conv1_4"
  type: "Convolution"
  bottom: "conv1_4/bn"
  top: "conv1_4"
  convolution_param {
    num_output: 32
    bias_term: false
    pad: 1
    kernel_size: 3
    stride: 1
    weight_filler {
      type: "msra"
    }
    bias_filler {
      type: "constant"
    }
    engine: CUDNN
  }
}
layer {
  name: "concat1_4"
  type: "Concat"
  bottom: "concat1_3"
  bottom: "conv1_4"
  top: "concat1_4"
  concat_param {
    axis: 1
  }
}
layer {
  name: "conv1_5/bn"
  type: "BatchNorm"
  bottom: "concat1_4"
  top: "conv1_5/bn"
  param {
    lr_mult: 0
    decay_mult: 0
  }
  param {
    lr_mult: 0
    decay_mult: 0
  }
  param {
    lr_mult: 0
    decay_mult: 0
  }
}
layer {
  name: "conv1_5/scale"
  type: "Scale"
  bottom: "conv1_5/bn"
  top: "conv1_5/bn"
  scale_param {
    filler {
      value: 1
    }
    bias_term: true
    bias_filler {
      value: 0
    }
  }
}
layer {
  name: "relu1_5"
  type: "ReLU"
  bottom: "conv1_5/bn"
  top: "conv1_5/bn"
}
layer {
  name: "conv1_5"
  type: "Convolution"
  bottom: "conv1_5/bn"
  top: "conv1_5"
  convolution_param {
    num_output: 32
    bias_term: false
    pad: 1
    kernel_size: 3
    stride: 1
    weight_filler {
      type: "msra"
    }
    bias_filler {
      type: "constant"
    }
    engine: CUDNN
  }
}
layer {
  name: "concat1_5"
  type: "Concat"
  bottom: "concat1_4"
  bottom: "conv1_5"
  top: "concat1_5"
  concat_param {
    axis: 1
  }
}
layer {
  name: "conv1_6/bn"
  type: "BatchNorm"
  bottom: "concat1_5"
  top: "conv1_6/bn"
  param {
    lr_mult: 0
    decay_mult: 0
  }
  param {
    lr_mult: 0
    decay_mult: 0
  }
  param {
    lr_mult: 0
    decay_mult: 0
  }
}
layer {
  name: "conv1_6/scale"
  type: "Scale"
  bottom: "conv1_6/bn"
  top: "conv1_6/bn"
  scale_param {
    filler {
      value: 1
    }
    bias_term: true
    bias_filler {
      value: 0
    }
  }
}
layer {
  name: "relu1_6"
  type: "ReLU"
  bottom: "conv1_6/bn"
  top: "conv1_6/bn"
}
layer {
  name: "conv1_6"
  type: "Convolution"
  bottom: "conv1_6/bn"
  top: "conv1_6"
  convolution_param {
    num_output: 32
    bias_term: false
    pad: 1
    kernel_size: 3
    stride: 1
    weight_filler {
      type: "msra"
    }
    bias_filler {
      type: "constant"
    }
    engine: CUDNN
  }
}
layer {
  name: "concat1_6"
  type: "Concat"
  bottom: "concat1_5"
  bottom: "conv1_6"
  top: "concat1_6"
  concat_param {
    axis: 1
  }
}
layer {
  name: "conv1_7/bn"
  type: "BatchNorm"
  bottom: "concat1_6"
  top: "conv1_7/bn"
  param {
    lr_mult: 0
    decay_mult: 0
  }
  param {
    lr_mult: 0
    decay_mult: 0
  }
  param {
    lr_mult: 0
    decay_mult: 0
  }
}
layer {
  name: "conv1_7/scale"
  type: "Scale"
  bottom: "conv1_7/bn"
  top: "conv1_7/bn"
  scale_param {
    filler {
      value: 1
    }
    bias_term: true
    bias_filler {
      value: 0
    }
  }
}
layer {
  name: "relu1_7"
  type: "ReLU"
  bottom: "conv1_7/bn"
  top: "conv1_7/bn"
}
layer {
  name: "conv1_7"
  type: "Convolution"
  bottom: "conv1_7/bn"
  top: "conv1_7"
  convolution_param {
    num_output: 32
    bias_term: false
    pad: 1
    kernel_size: 3
    stride: 1
    weight_filler {
      type: "msra"
    }
    bias_filler {
      type: "constant"
    }
    engine: CUDNN
  }
}
layer {
  name: "concat1_7"
  type: "Concat"
  bottom: "concat1_6"
  bottom: "conv1_7"
  top: "concat1_7"
  concat_param {
    axis: 1
  }
}
layer {
  name: "conv1_8/bn"
  type: "BatchNorm"
  bottom: "concat1_7"
  top: "conv1_8/bn"
  param {
    lr_mult: 0
    decay_mult: 0
  }
  param {
    lr_mult: 0
    decay_mult: 0
  }
  param {
    lr_mult: 0
    decay_mult: 0
  }
}
layer {
  name: "conv1_8/scale"
  type: "Scale"
  bottom: "conv1_8/bn"
  top: "conv1_8/bn"
  scale_param {
    filler {
      value: 1
    }
    bias_term: true
    bias_filler {
      value: 0
    }
  }
}
layer {
  name: "relu1_8"
  type: "ReLU"
  bottom: "conv1_8/bn"
  top: "conv1_8/bn"
}
layer {
  name: "conv1_8"
  type: "Convolution"
  bottom: "conv1_8/bn"
  top: "conv1_8"
  convolution_param {
    num_output: 32
    bias_term: false
    pad: 1
    kernel_size: 3
    stride: 1
    weight_filler {
      type: "msra"
    }
    bias_filler {
      type: "constant"
    }
    engine: CUDNN
  }
}
layer {
  name: "concat1_8"
  type: "Concat"
  bottom: "concat1_7"
  bottom: "conv1_8"
  top: "concat1_8"
  concat_param {
    axis: 1
  }
}
layer {
  name: "conv1_9/bn"
  type: "BatchNorm"
  bottom: "concat1_8"
  top: "conv1_9/bn"
  param {
    lr_mult: 0
    decay_mult: 0
  }
  param {
    lr_mult: 0
    decay_mult: 0
  }
  param {
    lr_mult: 0
    decay_mult: 0
  }
}
layer {
  name: "conv1_9/scale"
  type: "Scale"
  bottom: "conv1_9/bn"
  top: "conv1_9/bn"
  scale_param {
    filler {
      value: 1
    }
    bias_term: true
    bias_filler {
      value: 0
    }
  }
}
layer {
  name: "relu1_9"
  type: "ReLU"
  bottom: "conv1_9/bn"
  top: "conv1_9/bn"
}
layer {
  name: "conv1_9"
  type: "Convolution"
  bottom: "conv1_9/bn"
  top: "conv1_9"
  convolution_param {
    num_output: 32
    bias_term: false
    pad: 1
    kernel_size: 3
    stride: 1
    weight_filler {
      type: "msra"
    }
    bias_filler {
      type: "constant"
    }
    engine: CUDNN
  }
}
layer {
  name: "concat1_9"
  type: "Concat"
  bottom: "concat1_8"
  bottom: "conv1_9"
  top: "concat1_9"
  concat_param {
    axis: 1
  }
}
layer {
  name: "conv1_10/bn"
  type: "BatchNorm"
  bottom: "concat1_9"
  top: "conv1_10/bn"
  param {
    lr_mult: 0
    decay_mult: 0
  }
  param {
    lr_mult: 0
    decay_mult: 0
  }
  param {
    lr_mult: 0
    decay_mult: 0
  }
}
layer {
  name: "conv1_10/scale"
  type: "Scale"
  bottom: "conv1_10/bn"
  top: "conv1_10/bn"
  scale_param {
    filler {
      value: 1
    }
    bias_term: true
    bias_filler {
      value: 0
    }
  }
}
layer {
  name: "relu1_10"
  type: "ReLU"
  bottom: "conv1_10/bn"
  top: "conv1_10/bn"
}
layer {
  name: "conv1_10"
  type: "Convolution"
  bottom: "conv1_10/bn"
  top: "conv1_10"
  convolution_param {
    num_output: 32
    bias_term: false
    pad: 1
    kernel_size: 3
    stride: 1
    weight_filler {
      type: "msra"
    }
    bias_filler {
      type: "constant"
    }
    engine: CUDNN
  }
}
layer {
  name: "concat1_10"
  type: "Concat"
  bottom: "concat1_9"
  bottom: "conv1_10"
  top: "concat1_10"
  concat_param {
    axis: 1
  }
}
layer {
  name: "conv1_11/bn"
  type: "BatchNorm"
  bottom: "concat1_10"
  top: "conv1_11/bn"
  param {
    lr_mult: 0
    decay_mult: 0
  }
  param {
    lr_mult: 0
    decay_mult: 0
  }
  param {
    lr_mult: 0
    decay_mult: 0
  }
}
layer {
  name: "conv1_11/scale"
  type: "Scale"
  bottom: "conv1_11/bn"
  top: "conv1_11/bn"
  scale_param {
    filler {
      value: 1
    }
    bias_term: true
    bias_filler {
      value: 0
    }
  }
}
layer {
  name: "relu1_11"
  type: "ReLU"
  bottom: "conv1_11/bn"
  top: "conv1_11/bn"
}
layer {
  name: "conv1_11"
  type: "Convolution"
  bottom: "conv1_11/bn"
  top: "conv1_11"
  convolution_param {
    num_output: 32
    bias_term: false
    pad: 1
    kernel_size: 3
    stride: 1
    weight_filler {
      type: "msra"
    }
    bias_filler {
      type: "constant"
    }
    engine: CUDNN
  }
}
layer {
  name: "concat1_11"
  type: "Concat"
  bottom: "concat1_10"
  bottom: "conv1_11"
  top: "concat1_11"
  concat_param {
    axis: 1
  }
}
layer {
  name: "tpp5"
  type: "TPP"
  bottom: "concat1_11"
  top: "tpp5"
  tpp_param {
    pyramid_layer: 1
    pyramid_layer: 2
    pyramid_layer: 3
    pyramid_layer: 4
    pyramid_layer: 5
    pool: MAX
    engine: CUDNN
  }
}
layer {
  name: "reshape"
  type: "Reshape"
  bottom: "tpp5"
  top: "reshape"
  reshape_param {
    shape {
      dim: 1
      dim: 4560
      dim: 2
      dim: 1
    }
  }
}
layer {
  name: "premax"
  type: "Scale"
  bottom: "reshape"
  top: "premax"
  param {
    lr_mult: 0
    decay_mult: 0
  }
  scale_param {
    num_axes: 3
    filler {
      value: 1
    }
    bias_term: false
    bias_filler {
      value: 0
    }
  }
}
layer {
  name: "maxout"
  type: "Pooling"
  bottom: "premax"
  top: "maxout"
  pooling_param {
    pool: MAX
    global_pooling: true
  }
}
layer {
  name: "fc6_d"
  type: "InnerProduct"
  bottom: "maxout"
  top: "fc6_d"
  inner_product_param {
    num_output: 4096
    weight_filler {
      type: "msra"
    }
    bias_filler {
      type: "constant"
    }
  }
}
layer {
  name: "relu6"
  type: "ReLU"
  bottom: "fc6_d"
  top: "fc6_d"
}
layer {
  name: "fc7_d"
  type: "InnerProduct"
  bottom: "fc6_d"
  top: "fc7_d"
  inner_product_param {
    num_output: 4096
    weight_filler {
      type: "msra"
    }
    bias_filler {
      type: "constant"
    }
  }
}
layer {
  name: "relu7"
  type: "ReLU"
  bottom: "fc7_d"
  top: "fc7_d"
}
layer {
  name: "fc8_d"
  type: "InnerProduct"
  bottom: "fc7_d"
  top: "fc8_d"
  inner_product_param {
    num_output: 604
    weight_filler {
      type: "msra"
    }
    bias_filler {
      type: "constant"
    }
  }
}
layer {
  name: "sigmoid"
  type: "Sigmoid"
  bottom: "fc8_d"
  top: "sigmoid"
  include {
    phase: TEST
  }
}
layer {
  name: "silence"
  type: "Silence"
  bottom: "sigmoid"
  include {
    phase: TEST
  }
}
layer {
  name: "loss"
  type: "SigmoidCrossEntropyLoss"
  bottom: "fc8_d"
  bottom: "phocs"
  top: "loss"
}
I1215 18:08:13.911707 13151 layer_factory.hpp:77] Creating layer word_images
I1215 18:08:13.913252 13151 db_lmdb.cpp:35] Opened lmdb /data/fwolf/min26/gw_cv1_nti500000_pul2-3-4-5_test_word_images_lmdb
I1215 18:08:13.913297 13151 net.cpp:84] Creating Layer word_images
I1215 18:08:13.913311 13151 net.cpp:380] word_images -> word_images
I1215 18:08:13.913329 13151 net.cpp:380] word_images -> label
I1215 18:08:13.914135 13151 data_layer.cpp:44] output data size: 1,1,66,139
I1215 18:08:13.923719 13151 net.cpp:122] Setting up word_images
I1215 18:08:13.923810 13151 net.cpp:129] Top shape: 1 1 66 139 (9174)
I1215 18:08:13.923818 13151 net.cpp:129] Top shape: 1 (1)
I1215 18:08:13.923821 13151 net.cpp:137] Memory required for data: 36700
I1215 18:08:13.923830 13151 layer_factory.hpp:77] Creating layer phocs
I1215 18:08:13.923929 13151 db_lmdb.cpp:35] Opened lmdb /data/fwolf/min26/gw_cv1_nti500000_pul2-3-4-5_test_phocs_lmdb
I1215 18:08:13.923962 13151 net.cpp:84] Creating Layer phocs
I1215 18:08:13.923970 13151 net.cpp:380] phocs -> phocs
I1215 18:08:13.923983 13151 net.cpp:380] phocs -> label_phocs
I1215 18:08:13.924693 13151 data_layer.cpp:44] output data size: 1,1,1,604
I1215 18:08:13.933398 13151 net.cpp:122] Setting up phocs
I1215 18:08:13.933436 13151 net.cpp:129] Top shape: 1 1 1 604 (604)
I1215 18:08:13.933442 13151 net.cpp:129] Top shape: 1 (1)
I1215 18:08:13.933445 13151 net.cpp:137] Memory required for data: 39120
I1215 18:08:13.933454 13151 layer_factory.hpp:77] Creating layer conv_init
I1215 18:08:13.933475 13151 net.cpp:84] Creating Layer conv_init
I1215 18:08:13.933480 13151 net.cpp:406] conv_init <- word_images
I1215 18:08:13.933491 13151 net.cpp:380] conv_init -> conv_init
I1215 18:08:13.935643 13151 net.cpp:122] Setting up conv_init
I1215 18:08:13.935679 13151 net.cpp:129] Top shape: 1 32 66 139 (293568)
I1215 18:08:13.935683 13151 net.cpp:137] Memory required for data: 1213392
I1215 18:08:13.935698 13151 layer_factory.hpp:77] Creating layer bn_init
I1215 18:08:13.935714 13151 net.cpp:84] Creating Layer bn_init
I1215 18:08:13.935719 13151 net.cpp:406] bn_init <- conv_init
I1215 18:08:13.935726 13151 net.cpp:380] bn_init -> bn_init
I1215 18:08:13.936319 13151 net.cpp:122] Setting up bn_init
I1215 18:08:13.936334 13151 net.cpp:129] Top shape: 1 32 66 139 (293568)
I1215 18:08:13.936338 13151 net.cpp:137] Memory required for data: 2387664
I1215 18:08:13.936353 13151 layer_factory.hpp:77] Creating layer scale_init
I1215 18:08:13.936365 13151 net.cpp:84] Creating Layer scale_init
I1215 18:08:13.936370 13151 net.cpp:406] scale_init <- bn_init
I1215 18:08:13.936378 13151 net.cpp:367] scale_init -> bn_init (in-place)
I1215 18:08:13.936471 13151 layer_factory.hpp:77] Creating layer scale_init
I1215 18:08:13.936766 13151 net.cpp:122] Setting up scale_init
I1215 18:08:13.936775 13151 net.cpp:129] Top shape: 1 32 66 139 (293568)
I1215 18:08:13.936779 13151 net.cpp:137] Memory required for data: 3561936
I1215 18:08:13.936787 13151 layer_factory.hpp:77] Creating layer relu_init
I1215 18:08:13.936795 13151 net.cpp:84] Creating Layer relu_init
I1215 18:08:13.936800 13151 net.cpp:406] relu_init <- bn_init
I1215 18:08:13.936805 13151 net.cpp:367] relu_init -> bn_init (in-place)
I1215 18:08:13.937077 13151 net.cpp:122] Setting up relu_init
I1215 18:08:13.937086 13151 net.cpp:129] Top shape: 1 32 66 139 (293568)
I1215 18:08:13.937090 13151 net.cpp:137] Memory required for data: 4736208
I1215 18:08:13.937094 13151 layer_factory.hpp:77] Creating layer pool_init
I1215 18:08:13.937103 13151 net.cpp:84] Creating Layer pool_init
I1215 18:08:13.937108 13151 net.cpp:406] pool_init <- bn_init
I1215 18:08:13.937115 13151 net.cpp:380] pool_init -> pool_init
I1215 18:08:13.937209 13151 net.cpp:122] Setting up pool_init
I1215 18:08:13.937217 13151 net.cpp:129] Top shape: 1 32 34 70 (76160)
I1215 18:08:13.937222 13151 net.cpp:137] Memory required for data: 5040848
I1215 18:08:13.937224 13151 layer_factory.hpp:77] Creating layer pool_init_pool_init_0_split
I1215 18:08:13.937238 13151 net.cpp:84] Creating Layer pool_init_pool_init_0_split
I1215 18:08:13.937242 13151 net.cpp:406] pool_init_pool_init_0_split <- pool_init
I1215 18:08:13.937248 13151 net.cpp:380] pool_init_pool_init_0_split -> pool_init_pool_init_0_split_0
I1215 18:08:13.937256 13151 net.cpp:380] pool_init_pool_init_0_split -> pool_init_pool_init_0_split_1
I1215 18:08:13.937340 13151 net.cpp:122] Setting up pool_init_pool_init_0_split
I1215 18:08:13.937347 13151 net.cpp:129] Top shape: 1 32 34 70 (76160)
I1215 18:08:13.937352 13151 net.cpp:129] Top shape: 1 32 34 70 (76160)
I1215 18:08:13.937356 13151 net.cpp:137] Memory required for data: 5650128
I1215 18:08:13.937361 13151 layer_factory.hpp:77] Creating layer conv0_0/bn
I1215 18:08:13.937368 13151 net.cpp:84] Creating Layer conv0_0/bn
I1215 18:08:13.937373 13151 net.cpp:406] conv0_0/bn <- pool_init_pool_init_0_split_0
I1215 18:08:13.937386 13151 net.cpp:380] conv0_0/bn -> conv0_0/bn
I1215 18:08:13.937887 13151 net.cpp:122] Setting up conv0_0/bn
I1215 18:08:13.937897 13151 net.cpp:129] Top shape: 1 32 34 70 (76160)
I1215 18:08:13.937901 13151 net.cpp:137] Memory required for data: 5954768
I1215 18:08:13.937911 13151 layer_factory.hpp:77] Creating layer conv0_0/scale
I1215 18:08:13.937919 13151 net.cpp:84] Creating Layer conv0_0/scale
I1215 18:08:13.937923 13151 net.cpp:406] conv0_0/scale <- conv0_0/bn
I1215 18:08:13.937930 13151 net.cpp:367] conv0_0/scale -> conv0_0/bn (in-place)
I1215 18:08:13.938016 13151 layer_factory.hpp:77] Creating layer conv0_0/scale
I1215 18:08:14.060372 13151 net.cpp:122] Setting up conv0_0/scale
I1215 18:08:14.060408 13151 net.cpp:129] Top shape: 1 32 34 70 (76160)
I1215 18:08:14.060413 13151 net.cpp:137] Memory required for data: 6259408
I1215 18:08:14.060425 13151 layer_factory.hpp:77] Creating layer relu0_0
I1215 18:08:14.060436 13151 net.cpp:84] Creating Layer relu0_0
I1215 18:08:14.060441 13151 net.cpp:406] relu0_0 <- conv0_0/bn
I1215 18:08:14.060447 13151 net.cpp:367] relu0_0 -> conv0_0/bn (in-place)
I1215 18:08:14.061051 13151 net.cpp:122] Setting up relu0_0
I1215 18:08:14.061064 13151 net.cpp:129] Top shape: 1 32 34 70 (76160)
I1215 18:08:14.061069 13151 net.cpp:137] Memory required for data: 6564048
I1215 18:08:14.061074 13151 layer_factory.hpp:77] Creating layer conv0_0
I1215 18:08:14.061087 13151 net.cpp:84] Creating Layer conv0_0
I1215 18:08:14.061091 13151 net.cpp:406] conv0_0 <- conv0_0/bn
I1215 18:08:14.061100 13151 net.cpp:380] conv0_0 -> conv0_0
I1215 18:08:14.063202 13151 net.cpp:122] Setting up conv0_0
I1215 18:08:14.063220 13151 net.cpp:129] Top shape: 1 32 34 70 (76160)
I1215 18:08:14.063225 13151 net.cpp:137] Memory required for data: 6868688
I1215 18:08:14.063231 13151 layer_factory.hpp:77] Creating layer concat0_0
I1215 18:08:14.063241 13151 net.cpp:84] Creating Layer concat0_0
I1215 18:08:14.063246 13151 net.cpp:406] concat0_0 <- pool_init_pool_init_0_split_1
I1215 18:08:14.063252 13151 net.cpp:406] concat0_0 <- conv0_0
I1215 18:08:14.063259 13151 net.cpp:380] concat0_0 -> concat0_0
I1215 18:08:14.063318 13151 net.cpp:122] Setting up concat0_0
I1215 18:08:14.063326 13151 net.cpp:129] Top shape: 1 64 34 70 (152320)
I1215 18:08:14.063330 13151 net.cpp:137] Memory required for data: 7477968
I1215 18:08:14.063334 13151 layer_factory.hpp:77] Creating layer concat0_0_concat0_0_0_split
I1215 18:08:14.063341 13151 net.cpp:84] Creating Layer concat0_0_concat0_0_0_split
I1215 18:08:14.063345 13151 net.cpp:406] concat0_0_concat0_0_0_split <- concat0_0
I1215 18:08:14.063354 13151 net.cpp:380] concat0_0_concat0_0_0_split -> concat0_0_concat0_0_0_split_0
I1215 18:08:14.063360 13151 net.cpp:380] concat0_0_concat0_0_0_split -> concat0_0_concat0_0_0_split_1
I1215 18:08:14.063449 13151 net.cpp:122] Setting up concat0_0_concat0_0_0_split
I1215 18:08:14.063458 13151 net.cpp:129] Top shape: 1 64 34 70 (152320)
I1215 18:08:14.063463 13151 net.cpp:129] Top shape: 1 64 34 70 (152320)
I1215 18:08:14.063467 13151 net.cpp:137] Memory required for data: 8696528
I1215 18:08:14.063470 13151 layer_factory.hpp:77] Creating layer conv0_1/bn
I1215 18:08:14.063478 13151 net.cpp:84] Creating Layer conv0_1/bn
I1215 18:08:14.063482 13151 net.cpp:406] conv0_1/bn <- concat0_0_concat0_0_0_split_0
I1215 18:08:14.063488 13151 net.cpp:380] conv0_1/bn -> conv0_1/bn
I1215 18:08:14.064200 13151 net.cpp:122] Setting up conv0_1/bn
I1215 18:08:14.064214 13151 net.cpp:129] Top shape: 1 64 34 70 (152320)
I1215 18:08:14.064219 13151 net.cpp:137] Memory required for data: 9305808
I1215 18:08:14.064229 13151 layer_factory.hpp:77] Creating layer conv0_1/scale
I1215 18:08:14.064240 13151 net.cpp:84] Creating Layer conv0_1/scale
I1215 18:08:14.064245 13151 net.cpp:406] conv0_1/scale <- conv0_1/bn
I1215 18:08:14.064252 13151 net.cpp:367] conv0_1/scale -> conv0_1/bn (in-place)
I1215 18:08:14.064358 13151 layer_factory.hpp:77] Creating layer conv0_1/scale
I1215 18:08:14.064684 13151 net.cpp:122] Setting up conv0_1/scale
I1215 18:08:14.064703 13151 net.cpp:129] Top shape: 1 64 34 70 (152320)
I1215 18:08:14.064708 13151 net.cpp:137] Memory required for data: 9915088
I1215 18:08:14.064721 13151 layer_factory.hpp:77] Creating layer relu0_1
I1215 18:08:14.064733 13151 net.cpp:84] Creating Layer relu0_1
I1215 18:08:14.064738 13151 net.cpp:406] relu0_1 <- conv0_1/bn
I1215 18:08:14.064744 13151 net.cpp:367] relu0_1 -> conv0_1/bn (in-place)
I1215 18:08:14.065241 13151 net.cpp:122] Setting up relu0_1
I1215 18:08:14.065256 13151 net.cpp:129] Top shape: 1 64 34 70 (152320)
I1215 18:08:14.065261 13151 net.cpp:137] Memory required for data: 10524368
I1215 18:08:14.065265 13151 layer_factory.hpp:77] Creating layer conv0_1
I1215 18:08:14.065281 13151 net.cpp:84] Creating Layer conv0_1
I1215 18:08:14.065287 13151 net.cpp:406] conv0_1 <- conv0_1/bn
I1215 18:08:14.065294 13151 net.cpp:380] conv0_1 -> conv0_1
I1215 18:08:14.068115 13151 net.cpp:122] Setting up conv0_1
I1215 18:08:14.068151 13151 net.cpp:129] Top shape: 1 32 34 70 (76160)
I1215 18:08:14.068161 13151 net.cpp:137] Memory required for data: 10829008
I1215 18:08:14.068174 13151 layer_factory.hpp:77] Creating layer concat0_1
I1215 18:08:14.068194 13151 net.cpp:84] Creating Layer concat0_1
I1215 18:08:14.068205 13151 net.cpp:406] concat0_1 <- concat0_0_concat0_0_0_split_1
I1215 18:08:14.068215 13151 net.cpp:406] concat0_1 <- conv0_1
I1215 18:08:14.068228 13151 net.cpp:380] concat0_1 -> concat0_1
I1215 18:08:14.068317 13151 net.cpp:122] Setting up concat0_1
I1215 18:08:14.068331 13151 net.cpp:129] Top shape: 1 96 34 70 (228480)
I1215 18:08:14.068339 13151 net.cpp:137] Memory required for data: 11742928
I1215 18:08:14.068346 13151 layer_factory.hpp:77] Creating layer concat0_1_concat0_1_0_split
I1215 18:08:14.068357 13151 net.cpp:84] Creating Layer concat0_1_concat0_1_0_split
I1215 18:08:14.068366 13151 net.cpp:406] concat0_1_concat0_1_0_split <- concat0_1
I1215 18:08:14.068377 13151 net.cpp:380] concat0_1_concat0_1_0_split -> concat0_1_concat0_1_0_split_0
I1215 18:08:14.068392 13151 net.cpp:380] concat0_1_concat0_1_0_split -> concat0_1_concat0_1_0_split_1
I1215 18:08:14.068498 13151 net.cpp:122] Setting up concat0_1_concat0_1_0_split
I1215 18:08:14.068508 13151 net.cpp:129] Top shape: 1 96 34 70 (228480)
I1215 18:08:14.068513 13151 net.cpp:129] Top shape: 1 96 34 70 (228480)
I1215 18:08:14.068517 13151 net.cpp:137] Memory required for data: 13570768
I1215 18:08:14.068521 13151 layer_factory.hpp:77] Creating layer conv0_2/bn
I1215 18:08:14.068531 13151 net.cpp:84] Creating Layer conv0_2/bn
I1215 18:08:14.068536 13151 net.cpp:406] conv0_2/bn <- concat0_1_concat0_1_0_split_0
I1215 18:08:14.068542 13151 net.cpp:380] conv0_2/bn -> conv0_2/bn
I1215 18:08:14.069128 13151 net.cpp:122] Setting up conv0_2/bn
I1215 18:08:14.069139 13151 net.cpp:129] Top shape: 1 96 34 70 (228480)
I1215 18:08:14.069144 13151 net.cpp:137] Memory required for data: 14484688
I1215 18:08:14.069154 13151 layer_factory.hpp:77] Creating layer conv0_2/scale
I1215 18:08:14.069164 13151 net.cpp:84] Creating Layer conv0_2/scale
I1215 18:08:14.069169 13151 net.cpp:406] conv0_2/scale <- conv0_2/bn
I1215 18:08:14.069176 13151 net.cpp:367] conv0_2/scale -> conv0_2/bn (in-place)
I1215 18:08:14.069270 13151 layer_factory.hpp:77] Creating layer conv0_2/scale
I1215 18:08:14.069571 13151 net.cpp:122] Setting up conv0_2/scale
I1215 18:08:14.069581 13151 net.cpp:129] Top shape: 1 96 34 70 (228480)
I1215 18:08:14.069586 13151 net.cpp:137] Memory required for data: 15398608
I1215 18:08:14.069592 13151 layer_factory.hpp:77] Creating layer relu0_2
I1215 18:08:14.069602 13151 net.cpp:84] Creating Layer relu0_2
I1215 18:08:14.069607 13151 net.cpp:406] relu0_2 <- conv0_2/bn
I1215 18:08:14.069612 13151 net.cpp:367] relu0_2 -> conv0_2/bn (in-place)
I1215 18:08:14.069892 13151 net.cpp:122] Setting up relu0_2
I1215 18:08:14.069903 13151 net.cpp:129] Top shape: 1 96 34 70 (228480)
I1215 18:08:14.069907 13151 net.cpp:137] Memory required for data: 16312528
I1215 18:08:14.069911 13151 layer_factory.hpp:77] Creating layer conv0_2
I1215 18:08:14.069924 13151 net.cpp:84] Creating Layer conv0_2
I1215 18:08:14.069933 13151 net.cpp:406] conv0_2 <- conv0_2/bn
I1215 18:08:14.069942 13151 net.cpp:380] conv0_2 -> conv0_2
I1215 18:08:14.073400 13151 net.cpp:122] Setting up conv0_2
I1215 18:08:14.073428 13151 net.cpp:129] Top shape: 1 32 34 70 (76160)
I1215 18:08:14.073433 13151 net.cpp:137] Memory required for data: 16617168
I1215 18:08:14.073443 13151 layer_factory.hpp:77] Creating layer concat0_2
I1215 18:08:14.073457 13151 net.cpp:84] Creating Layer concat0_2
I1215 18:08:14.073463 13151 net.cpp:406] concat0_2 <- concat0_1_concat0_1_0_split_1
I1215 18:08:14.073470 13151 net.cpp:406] concat0_2 <- conv0_2
I1215 18:08:14.073480 13151 net.cpp:380] concat0_2 -> concat0_2
I1215 18:08:14.073544 13151 net.cpp:122] Setting up concat0_2
I1215 18:08:14.073554 13151 net.cpp:129] Top shape: 1 128 34 70 (304640)
I1215 18:08:14.073557 13151 net.cpp:137] Memory required for data: 17835728
I1215 18:08:14.073561 13151 layer_factory.hpp:77] Creating layer concat0_2_concat0_2_0_split
I1215 18:08:14.073568 13151 net.cpp:84] Creating Layer concat0_2_concat0_2_0_split
I1215 18:08:14.073572 13151 net.cpp:406] concat0_2_concat0_2_0_split <- concat0_2
I1215 18:08:14.073580 13151 net.cpp:380] concat0_2_concat0_2_0_split -> concat0_2_concat0_2_0_split_0
I1215 18:08:14.073588 13151 net.cpp:380] concat0_2_concat0_2_0_split -> concat0_2_concat0_2_0_split_1
I1215 18:08:14.073676 13151 net.cpp:122] Setting up concat0_2_concat0_2_0_split
I1215 18:08:14.073684 13151 net.cpp:129] Top shape: 1 128 34 70 (304640)
I1215 18:08:14.073690 13151 net.cpp:129] Top shape: 1 128 34 70 (304640)
I1215 18:08:14.073694 13151 net.cpp:137] Memory required for data: 20272848
I1215 18:08:14.073698 13151 layer_factory.hpp:77] Creating layer conv0_3/bn
I1215 18:08:14.073707 13151 net.cpp:84] Creating Layer conv0_3/bn
I1215 18:08:14.073711 13151 net.cpp:406] conv0_3/bn <- concat0_2_concat0_2_0_split_0
I1215 18:08:14.073719 13151 net.cpp:380] conv0_3/bn -> conv0_3/bn
I1215 18:08:14.074312 13151 net.cpp:122] Setting up conv0_3/bn
I1215 18:08:14.074326 13151 net.cpp:129] Top shape: 1 128 34 70 (304640)
I1215 18:08:14.074332 13151 net.cpp:137] Memory required for data: 21491408
I1215 18:08:14.074343 13151 layer_factory.hpp:77] Creating layer conv0_3/scale
I1215 18:08:14.074357 13151 net.cpp:84] Creating Layer conv0_3/scale
I1215 18:08:14.074363 13151 net.cpp:406] conv0_3/scale <- conv0_3/bn
I1215 18:08:14.074371 13151 net.cpp:367] conv0_3/scale -> conv0_3/bn (in-place)
I1215 18:08:14.074482 13151 layer_factory.hpp:77] Creating layer conv0_3/scale
I1215 18:08:14.074764 13151 net.cpp:122] Setting up conv0_3/scale
I1215 18:08:14.074774 13151 net.cpp:129] Top shape: 1 128 34 70 (304640)
I1215 18:08:14.074779 13151 net.cpp:137] Memory required for data: 22709968
I1215 18:08:14.074786 13151 layer_factory.hpp:77] Creating layer relu0_3
I1215 18:08:14.074793 13151 net.cpp:84] Creating Layer relu0_3
I1215 18:08:14.074798 13151 net.cpp:406] relu0_3 <- conv0_3/bn
I1215 18:08:14.074805 13151 net.cpp:367] relu0_3 -> conv0_3/bn (in-place)
I1215 18:08:14.075350 13151 net.cpp:122] Setting up relu0_3
I1215 18:08:14.075362 13151 net.cpp:129] Top shape: 1 128 34 70 (304640)
I1215 18:08:14.075367 13151 net.cpp:137] Memory required for data: 23928528
I1215 18:08:14.075371 13151 layer_factory.hpp:77] Creating layer conv0_3
I1215 18:08:14.075386 13151 net.cpp:84] Creating Layer conv0_3
I1215 18:08:14.075390 13151 net.cpp:406] conv0_3 <- conv0_3/bn
I1215 18:08:14.075399 13151 net.cpp:380] conv0_3 -> conv0_3
I1215 18:08:14.079203 13151 net.cpp:122] Setting up conv0_3
I1215 18:08:14.079224 13151 net.cpp:129] Top shape: 1 32 34 70 (76160)
I1215 18:08:14.079229 13151 net.cpp:137] Memory required for data: 24233168
I1215 18:08:14.079237 13151 layer_factory.hpp:77] Creating layer concat0_3
I1215 18:08:14.079247 13151 net.cpp:84] Creating Layer concat0_3
I1215 18:08:14.079253 13151 net.cpp:406] concat0_3 <- concat0_2_concat0_2_0_split_1
I1215 18:08:14.079259 13151 net.cpp:406] concat0_3 <- conv0_3
I1215 18:08:14.079267 13151 net.cpp:380] concat0_3 -> concat0_3
I1215 18:08:14.079332 13151 net.cpp:122] Setting up concat0_3
I1215 18:08:14.079341 13151 net.cpp:129] Top shape: 1 160 34 70 (380800)
I1215 18:08:14.079345 13151 net.cpp:137] Memory required for data: 25756368
I1215 18:08:14.079349 13151 layer_factory.hpp:77] Creating layer concat0_3_concat0_3_0_split
I1215 18:08:14.079356 13151 net.cpp:84] Creating Layer concat0_3_concat0_3_0_split
I1215 18:08:14.079361 13151 net.cpp:406] concat0_3_concat0_3_0_split <- concat0_3
I1215 18:08:14.079368 13151 net.cpp:380] concat0_3_concat0_3_0_split -> concat0_3_concat0_3_0_split_0
I1215 18:08:14.079375 13151 net.cpp:380] concat0_3_concat0_3_0_split -> concat0_3_concat0_3_0_split_1
I1215 18:08:14.079465 13151 net.cpp:122] Setting up concat0_3_concat0_3_0_split
I1215 18:08:14.079473 13151 net.cpp:129] Top shape: 1 160 34 70 (380800)
I1215 18:08:14.079479 13151 net.cpp:129] Top shape: 1 160 34 70 (380800)
I1215 18:08:14.079483 13151 net.cpp:137] Memory required for data: 28802768
I1215 18:08:14.079486 13151 layer_factory.hpp:77] Creating layer conv0_4/bn
I1215 18:08:14.079497 13151 net.cpp:84] Creating Layer conv0_4/bn
I1215 18:08:14.079502 13151 net.cpp:406] conv0_4/bn <- concat0_3_concat0_3_0_split_0
I1215 18:08:14.079510 13151 net.cpp:380] conv0_4/bn -> conv0_4/bn
I1215 18:08:14.080088 13151 net.cpp:122] Setting up conv0_4/bn
I1215 18:08:14.080099 13151 net.cpp:129] Top shape: 1 160 34 70 (380800)
I1215 18:08:14.080104 13151 net.cpp:137] Memory required for data: 30325968
I1215 18:08:14.080118 13151 layer_factory.hpp:77] Creating layer conv0_4/scale
I1215 18:08:14.080129 13151 net.cpp:84] Creating Layer conv0_4/scale
I1215 18:08:14.080134 13151 net.cpp:406] conv0_4/scale <- conv0_4/bn
I1215 18:08:14.080142 13151 net.cpp:367] conv0_4/scale -> conv0_4/bn (in-place)
I1215 18:08:14.080232 13151 layer_factory.hpp:77] Creating layer conv0_4/scale
I1215 18:08:14.080529 13151 net.cpp:122] Setting up conv0_4/scale
I1215 18:08:14.080541 13151 net.cpp:129] Top shape: 1 160 34 70 (380800)
I1215 18:08:14.080546 13151 net.cpp:137] Memory required for data: 31849168
I1215 18:08:14.080554 13151 layer_factory.hpp:77] Creating layer relu0_4
I1215 18:08:14.080560 13151 net.cpp:84] Creating Layer relu0_4
I1215 18:08:14.080565 13151 net.cpp:406] relu0_4 <- conv0_4/bn
I1215 18:08:14.080570 13151 net.cpp:367] relu0_4 -> conv0_4/bn (in-place)
I1215 18:08:14.080880 13151 net.cpp:122] Setting up relu0_4
I1215 18:08:14.080893 13151 net.cpp:129] Top shape: 1 160 34 70 (380800)
I1215 18:08:14.080896 13151 net.cpp:137] Memory required for data: 33372368
I1215 18:08:14.080901 13151 layer_factory.hpp:77] Creating layer conv0_4
I1215 18:08:14.080912 13151 net.cpp:84] Creating Layer conv0_4
I1215 18:08:14.080917 13151 net.cpp:406] conv0_4 <- conv0_4/bn
I1215 18:08:14.080924 13151 net.cpp:380] conv0_4 -> conv0_4
I1215 18:08:14.084996 13151 net.cpp:122] Setting up conv0_4
I1215 18:08:14.085026 13151 net.cpp:129] Top shape: 1 32 34 70 (76160)
I1215 18:08:14.085031 13151 net.cpp:137] Memory required for data: 33677008
I1215 18:08:14.085041 13151 layer_factory.hpp:77] Creating layer concat0_4
I1215 18:08:14.085052 13151 net.cpp:84] Creating Layer concat0_4
I1215 18:08:14.085059 13151 net.cpp:406] concat0_4 <- concat0_3_concat0_3_0_split_1
I1215 18:08:14.085067 13151 net.cpp:406] concat0_4 <- conv0_4
I1215 18:08:14.085074 13151 net.cpp:380] concat0_4 -> concat0_4
I1215 18:08:14.085139 13151 net.cpp:122] Setting up concat0_4
I1215 18:08:14.085149 13151 net.cpp:129] Top shape: 1 192 34 70 (456960)
I1215 18:08:14.085152 13151 net.cpp:137] Memory required for data: 35504848
I1215 18:08:14.085156 13151 layer_factory.hpp:77] Creating layer concat0_4_concat0_4_0_split
I1215 18:08:14.085163 13151 net.cpp:84] Creating Layer concat0_4_concat0_4_0_split
I1215 18:08:14.085167 13151 net.cpp:406] concat0_4_concat0_4_0_split <- concat0_4
I1215 18:08:14.085173 13151 net.cpp:380] concat0_4_concat0_4_0_split -> concat0_4_concat0_4_0_split_0
I1215 18:08:14.085184 13151 net.cpp:380] concat0_4_concat0_4_0_split -> concat0_4_concat0_4_0_split_1
I1215 18:08:14.085274 13151 net.cpp:122] Setting up concat0_4_concat0_4_0_split
I1215 18:08:14.085289 13151 net.cpp:129] Top shape: 1 192 34 70 (456960)
I1215 18:08:14.085294 13151 net.cpp:129] Top shape: 1 192 34 70 (456960)
I1215 18:08:14.085299 13151 net.cpp:137] Memory required for data: 39160528
I1215 18:08:14.085302 13151 layer_factory.hpp:77] Creating layer conv0_5/bn
I1215 18:08:14.085310 13151 net.cpp:84] Creating Layer conv0_5/bn
I1215 18:08:14.085315 13151 net.cpp:406] conv0_5/bn <- concat0_4_concat0_4_0_split_0
I1215 18:08:14.085322 13151 net.cpp:380] conv0_5/bn -> conv0_5/bn
I1215 18:08:14.085897 13151 net.cpp:122] Setting up conv0_5/bn
I1215 18:08:14.085906 13151 net.cpp:129] Top shape: 1 192 34 70 (456960)
I1215 18:08:14.085911 13151 net.cpp:137] Memory required for data: 40988368
I1215 18:08:14.085921 13151 layer_factory.hpp:77] Creating layer conv0_5/scale
I1215 18:08:14.085932 13151 net.cpp:84] Creating Layer conv0_5/scale
I1215 18:08:14.085935 13151 net.cpp:406] conv0_5/scale <- conv0_5/bn
I1215 18:08:14.085942 13151 net.cpp:367] conv0_5/scale -> conv0_5/bn (in-place)
I1215 18:08:14.086035 13151 layer_factory.hpp:77] Creating layer conv0_5/scale
I1215 18:08:14.086340 13151 net.cpp:122] Setting up conv0_5/scale
I1215 18:08:14.086350 13151 net.cpp:129] Top shape: 1 192 34 70 (456960)
I1215 18:08:14.086354 13151 net.cpp:137] Memory required for data: 42816208
I1215 18:08:14.086362 13151 layer_factory.hpp:77] Creating layer relu0_5
I1215 18:08:14.086370 13151 net.cpp:84] Creating Layer relu0_5
I1215 18:08:14.086374 13151 net.cpp:406] relu0_5 <- conv0_5/bn
I1215 18:08:14.086380 13151 net.cpp:367] relu0_5 -> conv0_5/bn (in-place)
I1215 18:08:14.086855 13151 net.cpp:122] Setting up relu0_5
I1215 18:08:14.086869 13151 net.cpp:129] Top shape: 1 192 34 70 (456960)
I1215 18:08:14.086874 13151 net.cpp:137] Memory required for data: 44644048
I1215 18:08:14.086877 13151 layer_factory.hpp:77] Creating layer conv0_5
I1215 18:08:14.086892 13151 net.cpp:84] Creating Layer conv0_5
I1215 18:08:14.086897 13151 net.cpp:406] conv0_5 <- conv0_5/bn
I1215 18:08:14.086906 13151 net.cpp:380] conv0_5 -> conv0_5
I1215 18:08:14.092139 13151 net.cpp:122] Setting up conv0_5
I1215 18:08:14.092183 13151 net.cpp:129] Top shape: 1 32 34 70 (76160)
I1215 18:08:14.092192 13151 net.cpp:137] Memory required for data: 44948688
I1215 18:08:14.092209 13151 layer_factory.hpp:77] Creating layer concat0_5
I1215 18:08:14.092229 13151 net.cpp:84] Creating Layer concat0_5
I1215 18:08:14.092241 13151 net.cpp:406] concat0_5 <- concat0_4_concat0_4_0_split_1
I1215 18:08:14.092253 13151 net.cpp:406] concat0_5 <- conv0_5
I1215 18:08:14.092267 13151 net.cpp:380] concat0_5 -> concat0_5
I1215 18:08:14.092380 13151 net.cpp:122] Setting up concat0_5
I1215 18:08:14.092393 13151 net.cpp:129] Top shape: 1 224 34 70 (533120)
I1215 18:08:14.092399 13151 net.cpp:137] Memory required for data: 47081168
I1215 18:08:14.092406 13151 layer_factory.hpp:77] Creating layer BatchNorm1
I1215 18:08:14.092420 13151 net.cpp:84] Creating Layer BatchNorm1
I1215 18:08:14.092428 13151 net.cpp:406] BatchNorm1 <- concat0_5
I1215 18:08:14.092437 13151 net.cpp:380] BatchNorm1 -> BatchNorm1
I1215 18:08:14.093422 13151 net.cpp:122] Setting up BatchNorm1
I1215 18:08:14.093453 13151 net.cpp:129] Top shape: 1 224 34 70 (533120)
I1215 18:08:14.093461 13151 net.cpp:137] Memory required for data: 49213648
I1215 18:08:14.093477 13151 layer_factory.hpp:77] Creating layer Scale1
I1215 18:08:14.093495 13151 net.cpp:84] Creating Layer Scale1
I1215 18:08:14.093504 13151 net.cpp:406] Scale1 <- BatchNorm1
I1215 18:08:14.093511 13151 net.cpp:367] Scale1 -> BatchNorm1 (in-place)
I1215 18:08:14.093618 13151 layer_factory.hpp:77] Creating layer Scale1
I1215 18:08:14.093956 13151 net.cpp:122] Setting up Scale1
I1215 18:08:14.093966 13151 net.cpp:129] Top shape: 1 224 34 70 (533120)
I1215 18:08:14.093971 13151 net.cpp:137] Memory required for data: 51346128
I1215 18:08:14.093977 13151 layer_factory.hpp:77] Creating layer ReLU1
I1215 18:08:14.093984 13151 net.cpp:84] Creating Layer ReLU1
I1215 18:08:14.093989 13151 net.cpp:406] ReLU1 <- BatchNorm1
I1215 18:08:14.093994 13151 net.cpp:367] ReLU1 -> BatchNorm1 (in-place)
I1215 18:08:14.094641 13151 net.cpp:122] Setting up ReLU1
I1215 18:08:14.094656 13151 net.cpp:129] Top shape: 1 224 34 70 (533120)
I1215 18:08:14.094660 13151 net.cpp:137] Memory required for data: 53478608
I1215 18:08:14.094666 13151 layer_factory.hpp:77] Creating layer conv0_blk
I1215 18:08:14.094678 13151 net.cpp:84] Creating Layer conv0_blk
I1215 18:08:14.094683 13151 net.cpp:406] conv0_blk <- BatchNorm1
I1215 18:08:14.094691 13151 net.cpp:380] conv0_blk -> conv0_blk
I1215 18:08:14.107347 13151 net.cpp:122] Setting up conv0_blk
I1215 18:08:14.107378 13151 net.cpp:129] Top shape: 1 224 34 70 (533120)
I1215 18:08:14.107381 13151 net.cpp:137] Memory required for data: 55611088
I1215 18:08:14.107390 13151 layer_factory.hpp:77] Creating layer pool0
I1215 18:08:14.107403 13151 net.cpp:84] Creating Layer pool0
I1215 18:08:14.107409 13151 net.cpp:406] pool0 <- conv0_blk
I1215 18:08:14.107419 13151 net.cpp:380] pool0 -> pool0
I1215 18:08:14.107733 13151 net.cpp:122] Setting up pool0
I1215 18:08:14.107743 13151 net.cpp:129] Top shape: 1 224 17 35 (133280)
I1215 18:08:14.107753 13151 net.cpp:137] Memory required for data: 56144208
I1215 18:08:14.107758 13151 layer_factory.hpp:77] Creating layer pool0_pool0_0_split
I1215 18:08:14.107767 13151 net.cpp:84] Creating Layer pool0_pool0_0_split
I1215 18:08:14.107771 13151 net.cpp:406] pool0_pool0_0_split <- pool0
I1215 18:08:14.107779 13151 net.cpp:380] pool0_pool0_0_split -> pool0_pool0_0_split_0
I1215 18:08:14.107789 13151 net.cpp:380] pool0_pool0_0_split -> pool0_pool0_0_split_1
I1215 18:08:14.107880 13151 net.cpp:122] Setting up pool0_pool0_0_split
I1215 18:08:14.107889 13151 net.cpp:129] Top shape: 1 224 17 35 (133280)
I1215 18:08:14.107895 13151 net.cpp:129] Top shape: 1 224 17 35 (133280)
I1215 18:08:14.107898 13151 net.cpp:137] Memory required for data: 57210448
I1215 18:08:14.107903 13151 layer_factory.hpp:77] Creating layer conv1_0/bn
I1215 18:08:14.107913 13151 net.cpp:84] Creating Layer conv1_0/bn
I1215 18:08:14.107918 13151 net.cpp:406] conv1_0/bn <- pool0_pool0_0_split_0
I1215 18:08:14.107926 13151 net.cpp:380] conv1_0/bn -> conv1_0/bn
I1215 18:08:14.108507 13151 net.cpp:122] Setting up conv1_0/bn
I1215 18:08:14.108520 13151 net.cpp:129] Top shape: 1 224 17 35 (133280)
I1215 18:08:14.108525 13151 net.cpp:137] Memory required for data: 57743568
I1215 18:08:14.108534 13151 layer_factory.hpp:77] Creating layer conv1_0/scale
I1215 18:08:14.108543 13151 net.cpp:84] Creating Layer conv1_0/scale
I1215 18:08:14.108547 13151 net.cpp:406] conv1_0/scale <- conv1_0/bn
I1215 18:08:14.108556 13151 net.cpp:367] conv1_0/scale -> conv1_0/bn (in-place)
I1215 18:08:14.108654 13151 layer_factory.hpp:77] Creating layer conv1_0/scale
I1215 18:08:14.108991 13151 net.cpp:122] Setting up conv1_0/scale
I1215 18:08:14.109004 13151 net.cpp:129] Top shape: 1 224 17 35 (133280)
I1215 18:08:14.109009 13151 net.cpp:137] Memory required for data: 58276688
I1215 18:08:14.109016 13151 layer_factory.hpp:77] Creating layer relu1_0
I1215 18:08:14.109024 13151 net.cpp:84] Creating Layer relu1_0
I1215 18:08:14.109027 13151 net.cpp:406] relu1_0 <- conv1_0/bn
I1215 18:08:14.109035 13151 net.cpp:367] relu1_0 -> conv1_0/bn (in-place)
I1215 18:08:14.109742 13151 net.cpp:122] Setting up relu1_0
I1215 18:08:14.109766 13151 net.cpp:129] Top shape: 1 224 17 35 (133280)
I1215 18:08:14.109773 13151 net.cpp:137] Memory required for data: 58809808
I1215 18:08:14.109781 13151 layer_factory.hpp:77] Creating layer conv1_0
I1215 18:08:14.109799 13151 net.cpp:84] Creating Layer conv1_0
I1215 18:08:14.109809 13151 net.cpp:406] conv1_0 <- conv1_0/bn
I1215 18:08:14.109823 13151 net.cpp:380] conv1_0 -> conv1_0
I1215 18:08:14.115336 13151 net.cpp:122] Setting up conv1_0
I1215 18:08:14.115375 13151 net.cpp:129] Top shape: 1 32 17 35 (19040)
I1215 18:08:14.115382 13151 net.cpp:137] Memory required for data: 58885968
I1215 18:08:14.115397 13151 layer_factory.hpp:77] Creating layer concat1_0
I1215 18:08:14.115414 13151 net.cpp:84] Creating Layer concat1_0
I1215 18:08:14.115423 13151 net.cpp:406] concat1_0 <- pool0_pool0_0_split_1
I1215 18:08:14.115439 13151 net.cpp:406] concat1_0 <- conv1_0
I1215 18:08:14.115453 13151 net.cpp:380] concat1_0 -> concat1_0
I1215 18:08:14.115558 13151 net.cpp:122] Setting up concat1_0
I1215 18:08:14.115571 13151 net.cpp:129] Top shape: 1 256 17 35 (152320)
I1215 18:08:14.115576 13151 net.cpp:137] Memory required for data: 59495248
I1215 18:08:14.115581 13151 layer_factory.hpp:77] Creating layer concat1_0_concat1_0_0_split
I1215 18:08:14.115592 13151 net.cpp:84] Creating Layer concat1_0_concat1_0_0_split
I1215 18:08:14.115598 13151 net.cpp:406] concat1_0_concat1_0_0_split <- concat1_0
I1215 18:08:14.115607 13151 net.cpp:380] concat1_0_concat1_0_0_split -> concat1_0_concat1_0_0_split_0
I1215 18:08:14.115617 13151 net.cpp:380] concat1_0_concat1_0_0_split -> concat1_0_concat1_0_0_split_1
I1215 18:08:14.115742 13151 net.cpp:122] Setting up concat1_0_concat1_0_0_split
I1215 18:08:14.115767 13151 net.cpp:129] Top shape: 1 256 17 35 (152320)
I1215 18:08:14.115774 13151 net.cpp:129] Top shape: 1 256 17 35 (152320)
I1215 18:08:14.115779 13151 net.cpp:137] Memory required for data: 60713808
I1215 18:08:14.115784 13151 layer_factory.hpp:77] Creating layer conv1_1/bn
I1215 18:08:14.115795 13151 net.cpp:84] Creating Layer conv1_1/bn
I1215 18:08:14.115802 13151 net.cpp:406] conv1_1/bn <- concat1_0_concat1_0_0_split_0
I1215 18:08:14.115810 13151 net.cpp:380] conv1_1/bn -> conv1_1/bn
I1215 18:08:14.116433 13151 net.cpp:122] Setting up conv1_1/bn
I1215 18:08:14.116443 13151 net.cpp:129] Top shape: 1 256 17 35 (152320)
I1215 18:08:14.116446 13151 net.cpp:137] Memory required for data: 61323088
I1215 18:08:14.116457 13151 layer_factory.hpp:77] Creating layer conv1_1/scale
I1215 18:08:14.116467 13151 net.cpp:84] Creating Layer conv1_1/scale
I1215 18:08:14.116472 13151 net.cpp:406] conv1_1/scale <- conv1_1/bn
I1215 18:08:14.116478 13151 net.cpp:367] conv1_1/scale -> conv1_1/bn (in-place)
I1215 18:08:14.116571 13151 layer_factory.hpp:77] Creating layer conv1_1/scale
I1215 18:08:14.116868 13151 net.cpp:122] Setting up conv1_1/scale
I1215 18:08:14.116878 13151 net.cpp:129] Top shape: 1 256 17 35 (152320)
I1215 18:08:14.116881 13151 net.cpp:137] Memory required for data: 61932368
I1215 18:08:14.116888 13151 layer_factory.hpp:77] Creating layer relu1_1
I1215 18:08:14.116895 13151 net.cpp:84] Creating Layer relu1_1
I1215 18:08:14.116899 13151 net.cpp:406] relu1_1 <- conv1_1/bn
I1215 18:08:14.116905 13151 net.cpp:367] relu1_1 -> conv1_1/bn (in-place)
I1215 18:08:14.117233 13151 net.cpp:122] Setting up relu1_1
I1215 18:08:14.117242 13151 net.cpp:129] Top shape: 1 256 17 35 (152320)
I1215 18:08:14.117246 13151 net.cpp:137] Memory required for data: 62541648
I1215 18:08:14.117250 13151 layer_factory.hpp:77] Creating layer conv1_1
I1215 18:08:14.117264 13151 net.cpp:84] Creating Layer conv1_1
I1215 18:08:14.117269 13151 net.cpp:406] conv1_1 <- conv1_1/bn
I1215 18:08:14.117276 13151 net.cpp:380] conv1_1 -> conv1_1
I1215 18:08:14.122241 13151 net.cpp:122] Setting up conv1_1
I1215 18:08:14.122267 13151 net.cpp:129] Top shape: 1 32 17 35 (19040)
I1215 18:08:14.122270 13151 net.cpp:137] Memory required for data: 62617808
I1215 18:08:14.122278 13151 layer_factory.hpp:77] Creating layer concat1_1
I1215 18:08:14.122289 13151 net.cpp:84] Creating Layer concat1_1
I1215 18:08:14.122295 13151 net.cpp:406] concat1_1 <- concat1_0_concat1_0_0_split_1
I1215 18:08:14.122301 13151 net.cpp:406] concat1_1 <- conv1_1
I1215 18:08:14.122308 13151 net.cpp:380] concat1_1 -> concat1_1
I1215 18:08:14.122370 13151 net.cpp:122] Setting up concat1_1
I1215 18:08:14.122378 13151 net.cpp:129] Top shape: 1 288 17 35 (171360)
I1215 18:08:14.122381 13151 net.cpp:137] Memory required for data: 63303248
I1215 18:08:14.122385 13151 layer_factory.hpp:77] Creating layer concat1_1_concat1_1_0_split
I1215 18:08:14.122392 13151 net.cpp:84] Creating Layer concat1_1_concat1_1_0_split
I1215 18:08:14.122396 13151 net.cpp:406] concat1_1_concat1_1_0_split <- concat1_1
I1215 18:08:14.122404 13151 net.cpp:380] concat1_1_concat1_1_0_split -> concat1_1_concat1_1_0_split_0
I1215 18:08:14.122416 13151 net.cpp:380] concat1_1_concat1_1_0_split -> concat1_1_concat1_1_0_split_1
I1215 18:08:14.122508 13151 net.cpp:122] Setting up concat1_1_concat1_1_0_split
I1215 18:08:14.122515 13151 net.cpp:129] Top shape: 1 288 17 35 (171360)
I1215 18:08:14.122520 13151 net.cpp:129] Top shape: 1 288 17 35 (171360)
I1215 18:08:14.122524 13151 net.cpp:137] Memory required for data: 64674128
I1215 18:08:14.122527 13151 layer_factory.hpp:77] Creating layer conv1_2/bn
I1215 18:08:14.122536 13151 net.cpp:84] Creating Layer conv1_2/bn
I1215 18:08:14.122540 13151 net.cpp:406] conv1_2/bn <- concat1_1_concat1_1_0_split_0
I1215 18:08:14.122547 13151 net.cpp:380] conv1_2/bn -> conv1_2/bn
I1215 18:08:14.123144 13151 net.cpp:122] Setting up conv1_2/bn
I1215 18:08:14.123155 13151 net.cpp:129] Top shape: 1 288 17 35 (171360)
I1215 18:08:14.123159 13151 net.cpp:137] Memory required for data: 65359568
I1215 18:08:14.123168 13151 layer_factory.hpp:77] Creating layer conv1_2/scale
I1215 18:08:14.123178 13151 net.cpp:84] Creating Layer conv1_2/scale
I1215 18:08:14.123181 13151 net.cpp:406] conv1_2/scale <- conv1_2/bn
I1215 18:08:14.123194 13151 net.cpp:367] conv1_2/scale -> conv1_2/bn (in-place)
I1215 18:08:14.123294 13151 layer_factory.hpp:77] Creating layer conv1_2/scale
I1215 18:08:14.123611 13151 net.cpp:122] Setting up conv1_2/scale
I1215 18:08:14.123620 13151 net.cpp:129] Top shape: 1 288 17 35 (171360)
I1215 18:08:14.123623 13151 net.cpp:137] Memory required for data: 66045008
I1215 18:08:14.123638 13151 layer_factory.hpp:77] Creating layer relu1_2
I1215 18:08:14.123646 13151 net.cpp:84] Creating Layer relu1_2
I1215 18:08:14.123651 13151 net.cpp:406] relu1_2 <- conv1_2/bn
I1215 18:08:14.123656 13151 net.cpp:367] relu1_2 -> conv1_2/bn (in-place)
I1215 18:08:14.124145 13151 net.cpp:122] Setting up relu1_2
I1215 18:08:14.124159 13151 net.cpp:129] Top shape: 1 288 17 35 (171360)
I1215 18:08:14.124163 13151 net.cpp:137] Memory required for data: 66730448
I1215 18:08:14.124167 13151 layer_factory.hpp:77] Creating layer conv1_2
I1215 18:08:14.124184 13151 net.cpp:84] Creating Layer conv1_2
I1215 18:08:14.124189 13151 net.cpp:406] conv1_2 <- conv1_2/bn
I1215 18:08:14.124197 13151 net.cpp:380] conv1_2 -> conv1_2
I1215 18:08:14.178057 13151 net.cpp:122] Setting up conv1_2
I1215 18:08:14.178089 13151 net.cpp:129] Top shape: 1 32 17 35 (19040)
I1215 18:08:14.178093 13151 net.cpp:137] Memory required for data: 66806608
I1215 18:08:14.178107 13151 layer_factory.hpp:77] Creating layer concat1_2
I1215 18:08:14.178120 13151 net.cpp:84] Creating Layer concat1_2
I1215 18:08:14.178128 13151 net.cpp:406] concat1_2 <- concat1_1_concat1_1_0_split_1
I1215 18:08:14.178134 13151 net.cpp:406] concat1_2 <- conv1_2
I1215 18:08:14.178143 13151 net.cpp:380] concat1_2 -> concat1_2
I1215 18:08:14.178215 13151 net.cpp:122] Setting up concat1_2
I1215 18:08:14.178222 13151 net.cpp:129] Top shape: 1 320 17 35 (190400)
I1215 18:08:14.178226 13151 net.cpp:137] Memory required for data: 67568208
I1215 18:08:14.178231 13151 layer_factory.hpp:77] Creating layer concat1_2_concat1_2_0_split
I1215 18:08:14.178237 13151 net.cpp:84] Creating Layer concat1_2_concat1_2_0_split
I1215 18:08:14.178243 13151 net.cpp:406] concat1_2_concat1_2_0_split <- concat1_2
I1215 18:08:14.178249 13151 net.cpp:380] concat1_2_concat1_2_0_split -> concat1_2_concat1_2_0_split_0
I1215 18:08:14.178256 13151 net.cpp:380] concat1_2_concat1_2_0_split -> concat1_2_concat1_2_0_split_1
I1215 18:08:14.178342 13151 net.cpp:122] Setting up concat1_2_concat1_2_0_split
I1215 18:08:14.178351 13151 net.cpp:129] Top shape: 1 320 17 35 (190400)
I1215 18:08:14.178356 13151 net.cpp:129] Top shape: 1 320 17 35 (190400)
I1215 18:08:14.178360 13151 net.cpp:137] Memory required for data: 69091408
I1215 18:08:14.178364 13151 layer_factory.hpp:77] Creating layer conv1_3/bn
I1215 18:08:14.178372 13151 net.cpp:84] Creating Layer conv1_3/bn
I1215 18:08:14.178376 13151 net.cpp:406] conv1_3/bn <- concat1_2_concat1_2_0_split_0
I1215 18:08:14.178383 13151 net.cpp:380] conv1_3/bn -> conv1_3/bn
I1215 18:08:14.178973 13151 net.cpp:122] Setting up conv1_3/bn
I1215 18:08:14.178984 13151 net.cpp:129] Top shape: 1 320 17 35 (190400)
I1215 18:08:14.178988 13151 net.cpp:137] Memory required for data: 69853008
I1215 18:08:14.178999 13151 layer_factory.hpp:77] Creating layer conv1_3/scale
I1215 18:08:14.179009 13151 net.cpp:84] Creating Layer conv1_3/scale
I1215 18:08:14.179014 13151 net.cpp:406] conv1_3/scale <- conv1_3/bn
I1215 18:08:14.179021 13151 net.cpp:367] conv1_3/scale -> conv1_3/bn (in-place)
I1215 18:08:14.179118 13151 layer_factory.hpp:77] Creating layer conv1_3/scale
I1215 18:08:14.179411 13151 net.cpp:122] Setting up conv1_3/scale
I1215 18:08:14.179420 13151 net.cpp:129] Top shape: 1 320 17 35 (190400)
I1215 18:08:14.179425 13151 net.cpp:137] Memory required for data: 70614608
I1215 18:08:14.179431 13151 layer_factory.hpp:77] Creating layer relu1_3
I1215 18:08:14.179440 13151 net.cpp:84] Creating Layer relu1_3
I1215 18:08:14.179445 13151 net.cpp:406] relu1_3 <- conv1_3/bn
I1215 18:08:14.179450 13151 net.cpp:367] relu1_3 -> conv1_3/bn (in-place)
I1215 18:08:14.221074 13151 net.cpp:122] Setting up relu1_3
I1215 18:08:14.221107 13151 net.cpp:129] Top shape: 1 320 17 35 (190400)
I1215 18:08:14.221112 13151 net.cpp:137] Memory required for data: 71376208
I1215 18:08:14.221119 13151 layer_factory.hpp:77] Creating layer conv1_3
I1215 18:08:14.221141 13151 net.cpp:84] Creating Layer conv1_3
I1215 18:08:14.221148 13151 net.cpp:406] conv1_3 <- conv1_3/bn
I1215 18:08:14.221158 13151 net.cpp:380] conv1_3 -> conv1_3
I1215 18:08:14.277930 13151 net.cpp:122] Setting up conv1_3
I1215 18:08:14.277962 13151 net.cpp:129] Top shape: 1 32 17 35 (19040)
I1215 18:08:14.277967 13151 net.cpp:137] Memory required for data: 71452368
I1215 18:08:14.277977 13151 layer_factory.hpp:77] Creating layer concat1_3
I1215 18:08:14.277990 13151 net.cpp:84] Creating Layer concat1_3
I1215 18:08:14.277997 13151 net.cpp:406] concat1_3 <- concat1_2_concat1_2_0_split_1
I1215 18:08:14.278004 13151 net.cpp:406] concat1_3 <- conv1_3
I1215 18:08:14.278012 13151 net.cpp:380] concat1_3 -> concat1_3
I1215 18:08:14.278077 13151 net.cpp:122] Setting up concat1_3
I1215 18:08:14.278085 13151 net.cpp:129] Top shape: 1 352 17 35 (209440)
I1215 18:08:14.278090 13151 net.cpp:137] Memory required for data: 72290128
I1215 18:08:14.278092 13151 layer_factory.hpp:77] Creating layer concat1_3_concat1_3_0_split
I1215 18:08:14.278100 13151 net.cpp:84] Creating Layer concat1_3_concat1_3_0_split
I1215 18:08:14.278103 13151 net.cpp:406] concat1_3_concat1_3_0_split <- concat1_3
I1215 18:08:14.278110 13151 net.cpp:380] concat1_3_concat1_3_0_split -> concat1_3_concat1_3_0_split_0
I1215 18:08:14.278117 13151 net.cpp:380] concat1_3_concat1_3_0_split -> concat1_3_concat1_3_0_split_1
I1215 18:08:14.278210 13151 net.cpp:122] Setting up concat1_3_concat1_3_0_split
I1215 18:08:14.278218 13151 net.cpp:129] Top shape: 1 352 17 35 (209440)
I1215 18:08:14.278223 13151 net.cpp:129] Top shape: 1 352 17 35 (209440)
I1215 18:08:14.278226 13151 net.cpp:137] Memory required for data: 73965648
I1215 18:08:14.278229 13151 layer_factory.hpp:77] Creating layer conv1_4/bn
I1215 18:08:14.278239 13151 net.cpp:84] Creating Layer conv1_4/bn
I1215 18:08:14.278242 13151 net.cpp:406] conv1_4/bn <- concat1_3_concat1_3_0_split_0
I1215 18:08:14.278249 13151 net.cpp:380] conv1_4/bn -> conv1_4/bn
I1215 18:08:14.278856 13151 net.cpp:122] Setting up conv1_4/bn
I1215 18:08:14.278867 13151 net.cpp:129] Top shape: 1 352 17 35 (209440)
I1215 18:08:14.278869 13151 net.cpp:137] Memory required for data: 74803408
I1215 18:08:14.278879 13151 layer_factory.hpp:77] Creating layer conv1_4/scale
I1215 18:08:14.278889 13151 net.cpp:84] Creating Layer conv1_4/scale
I1215 18:08:14.278894 13151 net.cpp:406] conv1_4/scale <- conv1_4/bn
I1215 18:08:14.278899 13151 net.cpp:367] conv1_4/scale -> conv1_4/bn (in-place)
I1215 18:08:14.279002 13151 layer_factory.hpp:77] Creating layer conv1_4/scale
I1215 18:08:14.279319 13151 net.cpp:122] Setting up conv1_4/scale
I1215 18:08:14.279328 13151 net.cpp:129] Top shape: 1 352 17 35 (209440)
I1215 18:08:14.279337 13151 net.cpp:137] Memory required for data: 75641168
I1215 18:08:14.279345 13151 layer_factory.hpp:77] Creating layer relu1_4
I1215 18:08:14.279353 13151 net.cpp:84] Creating Layer relu1_4
I1215 18:08:14.279358 13151 net.cpp:406] relu1_4 <- conv1_4/bn
I1215 18:08:14.279363 13151 net.cpp:367] relu1_4 -> conv1_4/bn (in-place)
I1215 18:08:14.279664 13151 net.cpp:122] Setting up relu1_4
I1215 18:08:14.279675 13151 net.cpp:129] Top shape: 1 352 17 35 (209440)
I1215 18:08:14.279678 13151 net.cpp:137] Memory required for data: 76478928
I1215 18:08:14.279682 13151 layer_factory.hpp:77] Creating layer conv1_4
I1215 18:08:14.279696 13151 net.cpp:84] Creating Layer conv1_4
I1215 18:08:14.279701 13151 net.cpp:406] conv1_4 <- conv1_4/bn
I1215 18:08:14.279708 13151 net.cpp:380] conv1_4 -> conv1_4
I1215 18:08:14.313725 13151 net.cpp:122] Setting up conv1_4
I1215 18:08:14.313761 13151 net.cpp:129] Top shape: 1 32 17 35 (19040)
I1215 18:08:14.313766 13151 net.cpp:137] Memory required for data: 76555088
I1215 18:08:14.313776 13151 layer_factory.hpp:77] Creating layer concat1_4
I1215 18:08:14.313791 13151 net.cpp:84] Creating Layer concat1_4
I1215 18:08:14.313798 13151 net.cpp:406] concat1_4 <- concat1_3_concat1_3_0_split_1
I1215 18:08:14.313807 13151 net.cpp:406] concat1_4 <- conv1_4
I1215 18:08:14.313814 13151 net.cpp:380] concat1_4 -> concat1_4
I1215 18:08:14.313884 13151 net.cpp:122] Setting up concat1_4
I1215 18:08:14.313894 13151 net.cpp:129] Top shape: 1 384 17 35 (228480)
I1215 18:08:14.313899 13151 net.cpp:137] Memory required for data: 77469008
I1215 18:08:14.313904 13151 layer_factory.hpp:77] Creating layer concat1_4_concat1_4_0_split
I1215 18:08:14.313910 13151 net.cpp:84] Creating Layer concat1_4_concat1_4_0_split
I1215 18:08:14.313915 13151 net.cpp:406] concat1_4_concat1_4_0_split <- concat1_4
I1215 18:08:14.313920 13151 net.cpp:380] concat1_4_concat1_4_0_split -> concat1_4_concat1_4_0_split_0
I1215 18:08:14.313928 13151 net.cpp:380] concat1_4_concat1_4_0_split -> concat1_4_concat1_4_0_split_1
I1215 18:08:14.314016 13151 net.cpp:122] Setting up concat1_4_concat1_4_0_split
I1215 18:08:14.314024 13151 net.cpp:129] Top shape: 1 384 17 35 (228480)
I1215 18:08:14.314029 13151 net.cpp:129] Top shape: 1 384 17 35 (228480)
I1215 18:08:14.314033 13151 net.cpp:137] Memory required for data: 79296848
I1215 18:08:14.314038 13151 layer_factory.hpp:77] Creating layer conv1_5/bn
I1215 18:08:14.314046 13151 net.cpp:84] Creating Layer conv1_5/bn
I1215 18:08:14.314050 13151 net.cpp:406] conv1_5/bn <- concat1_4_concat1_4_0_split_0
I1215 18:08:14.314057 13151 net.cpp:380] conv1_5/bn -> conv1_5/bn
I1215 18:08:14.314586 13151 net.cpp:122] Setting up conv1_5/bn
I1215 18:08:14.314595 13151 net.cpp:129] Top shape: 1 384 17 35 (228480)
I1215 18:08:14.314600 13151 net.cpp:137] Memory required for data: 80210768
I1215 18:08:14.314610 13151 layer_factory.hpp:77] Creating layer conv1_5/scale
I1215 18:08:14.314620 13151 net.cpp:84] Creating Layer conv1_5/scale
I1215 18:08:14.314625 13151 net.cpp:406] conv1_5/scale <- conv1_5/bn
I1215 18:08:14.314630 13151 net.cpp:367] conv1_5/scale -> conv1_5/bn (in-place)
I1215 18:08:14.314728 13151 layer_factory.hpp:77] Creating layer conv1_5/scale
I1215 18:08:14.315006 13151 net.cpp:122] Setting up conv1_5/scale
I1215 18:08:14.315017 13151 net.cpp:129] Top shape: 1 384 17 35 (228480)
I1215 18:08:14.315021 13151 net.cpp:137] Memory required for data: 81124688
I1215 18:08:14.315029 13151 layer_factory.hpp:77] Creating layer relu1_5
I1215 18:08:14.315037 13151 net.cpp:84] Creating Layer relu1_5
I1215 18:08:14.315042 13151 net.cpp:406] relu1_5 <- conv1_5/bn
I1215 18:08:14.315048 13151 net.cpp:367] relu1_5 -> conv1_5/bn (in-place)
I1215 18:08:14.315557 13151 net.cpp:122] Setting up relu1_5
I1215 18:08:14.315570 13151 net.cpp:129] Top shape: 1 384 17 35 (228480)
I1215 18:08:14.315574 13151 net.cpp:137] Memory required for data: 82038608
I1215 18:08:14.315579 13151 layer_factory.hpp:77] Creating layer conv1_5
I1215 18:08:14.315593 13151 net.cpp:84] Creating Layer conv1_5
I1215 18:08:14.315598 13151 net.cpp:406] conv1_5 <- conv1_5/bn
I1215 18:08:14.315613 13151 net.cpp:380] conv1_5 -> conv1_5
I1215 18:08:14.350922 13151 net.cpp:122] Setting up conv1_5
I1215 18:08:14.350953 13151 net.cpp:129] Top shape: 1 32 17 35 (19040)
I1215 18:08:14.350960 13151 net.cpp:137] Memory required for data: 82114768
I1215 18:08:14.350970 13151 layer_factory.hpp:77] Creating layer concat1_5
I1215 18:08:14.350985 13151 net.cpp:84] Creating Layer concat1_5
I1215 18:08:14.350991 13151 net.cpp:406] concat1_5 <- concat1_4_concat1_4_0_split_1
I1215 18:08:14.350999 13151 net.cpp:406] concat1_5 <- conv1_5
I1215 18:08:14.351006 13151 net.cpp:380] concat1_5 -> concat1_5
I1215 18:08:14.351078 13151 net.cpp:122] Setting up concat1_5
I1215 18:08:14.351089 13151 net.cpp:129] Top shape: 1 416 17 35 (247520)
I1215 18:08:14.351092 13151 net.cpp:137] Memory required for data: 83104848
I1215 18:08:14.351096 13151 layer_factory.hpp:77] Creating layer concat1_5_concat1_5_0_split
I1215 18:08:14.351104 13151 net.cpp:84] Creating Layer concat1_5_concat1_5_0_split
I1215 18:08:14.351109 13151 net.cpp:406] concat1_5_concat1_5_0_split <- concat1_5
I1215 18:08:14.351114 13151 net.cpp:380] concat1_5_concat1_5_0_split -> concat1_5_concat1_5_0_split_0
I1215 18:08:14.351121 13151 net.cpp:380] concat1_5_concat1_5_0_split -> concat1_5_concat1_5_0_split_1
I1215 18:08:14.351212 13151 net.cpp:122] Setting up concat1_5_concat1_5_0_split
I1215 18:08:14.351220 13151 net.cpp:129] Top shape: 1 416 17 35 (247520)
I1215 18:08:14.351225 13151 net.cpp:129] Top shape: 1 416 17 35 (247520)
I1215 18:08:14.351229 13151 net.cpp:137] Memory required for data: 85085008
I1215 18:08:14.351233 13151 layer_factory.hpp:77] Creating layer conv1_6/bn
I1215 18:08:14.351241 13151 net.cpp:84] Creating Layer conv1_6/bn
I1215 18:08:14.351246 13151 net.cpp:406] conv1_6/bn <- concat1_5_concat1_5_0_split_0
I1215 18:08:14.351253 13151 net.cpp:380] conv1_6/bn -> conv1_6/bn
I1215 18:08:14.425770 13151 net.cpp:122] Setting up conv1_6/bn
I1215 18:08:14.425807 13151 net.cpp:129] Top shape: 1 416 17 35 (247520)
I1215 18:08:14.425812 13151 net.cpp:137] Memory required for data: 86075088
I1215 18:08:14.425829 13151 layer_factory.hpp:77] Creating layer conv1_6/scale
I1215 18:08:14.425844 13151 net.cpp:84] Creating Layer conv1_6/scale
I1215 18:08:14.425851 13151 net.cpp:406] conv1_6/scale <- conv1_6/bn
I1215 18:08:14.425860 13151 net.cpp:367] conv1_6/scale -> conv1_6/bn (in-place)
I1215 18:08:14.425978 13151 layer_factory.hpp:77] Creating layer conv1_6/scale
I1215 18:08:14.426304 13151 net.cpp:122] Setting up conv1_6/scale
I1215 18:08:14.426316 13151 net.cpp:129] Top shape: 1 416 17 35 (247520)
I1215 18:08:14.426319 13151 net.cpp:137] Memory required for data: 87065168
I1215 18:08:14.426327 13151 layer_factory.hpp:77] Creating layer relu1_6
I1215 18:08:14.426334 13151 net.cpp:84] Creating Layer relu1_6
I1215 18:08:14.426339 13151 net.cpp:406] relu1_6 <- conv1_6/bn
I1215 18:08:14.426344 13151 net.cpp:367] relu1_6 -> conv1_6/bn (in-place)
I1215 18:08:14.426968 13151 net.cpp:122] Setting up relu1_6
I1215 18:08:14.426982 13151 net.cpp:129] Top shape: 1 416 17 35 (247520)
I1215 18:08:14.426987 13151 net.cpp:137] Memory required for data: 88055248
I1215 18:08:14.426991 13151 layer_factory.hpp:77] Creating layer conv1_6
I1215 18:08:14.427006 13151 net.cpp:84] Creating Layer conv1_6
I1215 18:08:14.427012 13151 net.cpp:406] conv1_6 <- conv1_6/bn
I1215 18:08:14.427024 13151 net.cpp:380] conv1_6 -> conv1_6
I1215 18:08:14.626595 13151 net.cpp:122] Setting up conv1_6
I1215 18:08:14.626627 13151 net.cpp:129] Top shape: 1 32 17 35 (19040)
I1215 18:08:14.626632 13151 net.cpp:137] Memory required for data: 88131408
I1215 18:08:14.626642 13151 layer_factory.hpp:77] Creating layer concat1_6
I1215 18:08:14.626655 13151 net.cpp:84] Creating Layer concat1_6
I1215 18:08:14.626662 13151 net.cpp:406] concat1_6 <- concat1_5_concat1_5_0_split_1
I1215 18:08:14.626670 13151 net.cpp:406] concat1_6 <- conv1_6
I1215 18:08:14.626677 13151 net.cpp:380] concat1_6 -> concat1_6
I1215 18:08:14.626744 13151 net.cpp:122] Setting up concat1_6
I1215 18:08:14.626754 13151 net.cpp:129] Top shape: 1 448 17 35 (266560)
I1215 18:08:14.626760 13151 net.cpp:137] Memory required for data: 89197648
I1215 18:08:14.626765 13151 layer_factory.hpp:77] Creating layer concat1_6_concat1_6_0_split
I1215 18:08:14.626771 13151 net.cpp:84] Creating Layer concat1_6_concat1_6_0_split
I1215 18:08:14.626775 13151 net.cpp:406] concat1_6_concat1_6_0_split <- concat1_6
I1215 18:08:14.626781 13151 net.cpp:380] concat1_6_concat1_6_0_split -> concat1_6_concat1_6_0_split_0
I1215 18:08:14.626790 13151 net.cpp:380] concat1_6_concat1_6_0_split -> concat1_6_concat1_6_0_split_1
I1215 18:08:14.626880 13151 net.cpp:122] Setting up concat1_6_concat1_6_0_split
I1215 18:08:14.626888 13151 net.cpp:129] Top shape: 1 448 17 35 (266560)
I1215 18:08:14.626893 13151 net.cpp:129] Top shape: 1 448 17 35 (266560)
I1215 18:08:14.626898 13151 net.cpp:137] Memory required for data: 91330128
I1215 18:08:14.626901 13151 layer_factory.hpp:77] Creating layer conv1_7/bn
I1215 18:08:14.626909 13151 net.cpp:84] Creating Layer conv1_7/bn
I1215 18:08:14.626914 13151 net.cpp:406] conv1_7/bn <- concat1_6_concat1_6_0_split_0
I1215 18:08:14.626920 13151 net.cpp:380] conv1_7/bn -> conv1_7/bn
I1215 18:08:14.627522 13151 net.cpp:122] Setting up conv1_7/bn
I1215 18:08:14.627532 13151 net.cpp:129] Top shape: 1 448 17 35 (266560)
I1215 18:08:14.627537 13151 net.cpp:137] Memory required for data: 92396368
I1215 18:08:14.627547 13151 layer_factory.hpp:77] Creating layer conv1_7/scale
I1215 18:08:14.627557 13151 net.cpp:84] Creating Layer conv1_7/scale
I1215 18:08:14.627562 13151 net.cpp:406] conv1_7/scale <- conv1_7/bn
I1215 18:08:14.627569 13151 net.cpp:367] conv1_7/scale -> conv1_7/bn (in-place)
I1215 18:08:14.627670 13151 layer_factory.hpp:77] Creating layer conv1_7/scale
I1215 18:08:14.655596 13151 net.cpp:122] Setting up conv1_7/scale
I1215 18:08:14.667789 13151 net.cpp:129] Top shape: 1 448 17 35 (266560)
I1215 18:08:14.667819 13151 net.cpp:137] Memory required for data: 93462608
I1215 18:08:14.667836 13151 layer_factory.hpp:77] Creating layer relu1_7
I1215 18:08:14.667850 13151 net.cpp:84] Creating Layer relu1_7
I1215 18:08:14.667860 13151 net.cpp:406] relu1_7 <- conv1_7/bn
I1215 18:08:14.667867 13151 net.cpp:367] relu1_7 -> conv1_7/bn (in-place)
I1215 18:08:14.668614 13151 net.cpp:122] Setting up relu1_7
I1215 18:08:14.668632 13151 net.cpp:129] Top shape: 1 448 17 35 (266560)
I1215 18:08:14.668637 13151 net.cpp:137] Memory required for data: 94528848
I1215 18:08:14.668642 13151 layer_factory.hpp:77] Creating layer conv1_7
I1215 18:08:14.668658 13151 net.cpp:84] Creating Layer conv1_7
I1215 18:08:14.668663 13151 net.cpp:406] conv1_7 <- conv1_7/bn
I1215 18:08:14.668673 13151 net.cpp:380] conv1_7 -> conv1_7
I1215 18:08:14.724838 13151 net.cpp:122] Setting up conv1_7
I1215 18:08:14.724872 13151 net.cpp:129] Top shape: 1 32 17 35 (19040)
I1215 18:08:14.724877 13151 net.cpp:137] Memory required for data: 94605008
I1215 18:08:14.724889 13151 layer_factory.hpp:77] Creating layer concat1_7
I1215 18:08:14.724902 13151 net.cpp:84] Creating Layer concat1_7
I1215 18:08:14.724910 13151 net.cpp:406] concat1_7 <- concat1_6_concat1_6_0_split_1
I1215 18:08:14.724920 13151 net.cpp:406] concat1_7 <- conv1_7
I1215 18:08:14.724926 13151 net.cpp:380] concat1_7 -> concat1_7
I1215 18:08:14.725026 13151 net.cpp:122] Setting up concat1_7
I1215 18:08:14.725035 13151 net.cpp:129] Top shape: 1 480 17 35 (285600)
I1215 18:08:14.725039 13151 net.cpp:137] Memory required for data: 95747408
I1215 18:08:14.725044 13151 layer_factory.hpp:77] Creating layer concat1_7_concat1_7_0_split
I1215 18:08:14.725051 13151 net.cpp:84] Creating Layer concat1_7_concat1_7_0_split
I1215 18:08:14.725055 13151 net.cpp:406] concat1_7_concat1_7_0_split <- concat1_7
I1215 18:08:14.725061 13151 net.cpp:380] concat1_7_concat1_7_0_split -> concat1_7_concat1_7_0_split_0
I1215 18:08:14.725069 13151 net.cpp:380] concat1_7_concat1_7_0_split -> concat1_7_concat1_7_0_split_1
I1215 18:08:14.725162 13151 net.cpp:122] Setting up concat1_7_concat1_7_0_split
I1215 18:08:14.725172 13151 net.cpp:129] Top shape: 1 480 17 35 (285600)
I1215 18:08:14.725180 13151 net.cpp:129] Top shape: 1 480 17 35 (285600)
I1215 18:08:14.725185 13151 net.cpp:137] Memory required for data: 98032208
I1215 18:08:14.725189 13151 layer_factory.hpp:77] Creating layer conv1_8/bn
I1215 18:08:14.725198 13151 net.cpp:84] Creating Layer conv1_8/bn
I1215 18:08:14.725203 13151 net.cpp:406] conv1_8/bn <- concat1_7_concat1_7_0_split_0
I1215 18:08:14.725208 13151 net.cpp:380] conv1_8/bn -> conv1_8/bn
I1215 18:08:14.725801 13151 net.cpp:122] Setting up conv1_8/bn
I1215 18:08:14.725811 13151 net.cpp:129] Top shape: 1 480 17 35 (285600)
I1215 18:08:14.725814 13151 net.cpp:137] Memory required for data: 99174608
I1215 18:08:14.725826 13151 layer_factory.hpp:77] Creating layer conv1_8/scale
I1215 18:08:14.725836 13151 net.cpp:84] Creating Layer conv1_8/scale
I1215 18:08:14.725841 13151 net.cpp:406] conv1_8/scale <- conv1_8/bn
I1215 18:08:14.725847 13151 net.cpp:367] conv1_8/scale -> conv1_8/bn (in-place)
I1215 18:08:14.725946 13151 layer_factory.hpp:77] Creating layer conv1_8/scale
I1215 18:08:14.726259 13151 net.cpp:122] Setting up conv1_8/scale
I1215 18:08:14.726269 13151 net.cpp:129] Top shape: 1 480 17 35 (285600)
I1215 18:08:14.726274 13151 net.cpp:137] Memory required for data: 100317008
I1215 18:08:14.726280 13151 layer_factory.hpp:77] Creating layer relu1_8
I1215 18:08:14.726289 13151 net.cpp:84] Creating Layer relu1_8
I1215 18:08:14.726292 13151 net.cpp:406] relu1_8 <- conv1_8/bn
I1215 18:08:14.726299 13151 net.cpp:367] relu1_8 -> conv1_8/bn (in-place)
I1215 18:08:14.726867 13151 net.cpp:122] Setting up relu1_8
I1215 18:08:14.726881 13151 net.cpp:129] Top shape: 1 480 17 35 (285600)
I1215 18:08:14.726886 13151 net.cpp:137] Memory required for data: 101459408
I1215 18:08:14.726889 13151 layer_factory.hpp:77] Creating layer conv1_8
I1215 18:08:14.726905 13151 net.cpp:84] Creating Layer conv1_8
I1215 18:08:14.726910 13151 net.cpp:406] conv1_8 <- conv1_8/bn
I1215 18:08:14.726918 13151 net.cpp:380] conv1_8 -> conv1_8
I1215 18:08:14.734848 13151 net.cpp:122] Setting up conv1_8
I1215 18:08:14.734880 13151 net.cpp:129] Top shape: 1 32 17 35 (19040)
I1215 18:08:14.734885 13151 net.cpp:137] Memory required for data: 101535568
I1215 18:08:14.734895 13151 layer_factory.hpp:77] Creating layer concat1_8
I1215 18:08:14.734908 13151 net.cpp:84] Creating Layer concat1_8
I1215 18:08:14.734915 13151 net.cpp:406] concat1_8 <- concat1_7_concat1_7_0_split_1
I1215 18:08:14.734923 13151 net.cpp:406] concat1_8 <- conv1_8
I1215 18:08:14.734932 13151 net.cpp:380] concat1_8 -> concat1_8
I1215 18:08:14.734997 13151 net.cpp:122] Setting up concat1_8
I1215 18:08:14.735007 13151 net.cpp:129] Top shape: 1 512 17 35 (304640)
I1215 18:08:14.735010 13151 net.cpp:137] Memory required for data: 102754128
I1215 18:08:14.735013 13151 layer_factory.hpp:77] Creating layer concat1_8_concat1_8_0_split
I1215 18:08:14.735020 13151 net.cpp:84] Creating Layer concat1_8_concat1_8_0_split
I1215 18:08:14.735024 13151 net.cpp:406] concat1_8_concat1_8_0_split <- concat1_8
I1215 18:08:14.735033 13151 net.cpp:380] concat1_8_concat1_8_0_split -> concat1_8_concat1_8_0_split_0
I1215 18:08:14.735039 13151 net.cpp:380] concat1_8_concat1_8_0_split -> concat1_8_concat1_8_0_split_1
I1215 18:08:14.735131 13151 net.cpp:122] Setting up concat1_8_concat1_8_0_split
I1215 18:08:14.735139 13151 net.cpp:129] Top shape: 1 512 17 35 (304640)
I1215 18:08:14.735144 13151 net.cpp:129] Top shape: 1 512 17 35 (304640)
I1215 18:08:14.735148 13151 net.cpp:137] Memory required for data: 105191248
I1215 18:08:14.735152 13151 layer_factory.hpp:77] Creating layer conv1_9/bn
I1215 18:08:14.735160 13151 net.cpp:84] Creating Layer conv1_9/bn
I1215 18:08:14.735164 13151 net.cpp:406] conv1_9/bn <- concat1_8_concat1_8_0_split_0
I1215 18:08:14.735170 13151 net.cpp:380] conv1_9/bn -> conv1_9/bn
I1215 18:08:14.735740 13151 net.cpp:122] Setting up conv1_9/bn
I1215 18:08:14.735762 13151 net.cpp:129] Top shape: 1 512 17 35 (304640)
I1215 18:08:14.735766 13151 net.cpp:137] Memory required for data: 106409808
I1215 18:08:14.735776 13151 layer_factory.hpp:77] Creating layer conv1_9/scale
I1215 18:08:14.735792 13151 net.cpp:84] Creating Layer conv1_9/scale
I1215 18:08:14.735797 13151 net.cpp:406] conv1_9/scale <- conv1_9/bn
I1215 18:08:14.735805 13151 net.cpp:367] conv1_9/scale -> conv1_9/bn (in-place)
I1215 18:08:14.735908 13151 layer_factory.hpp:77] Creating layer conv1_9/scale
I1215 18:08:14.736202 13151 net.cpp:122] Setting up conv1_9/scale
I1215 18:08:14.736212 13151 net.cpp:129] Top shape: 1 512 17 35 (304640)
I1215 18:08:14.736215 13151 net.cpp:137] Memory required for data: 107628368
I1215 18:08:14.736222 13151 layer_factory.hpp:77] Creating layer relu1_9
I1215 18:08:14.736230 13151 net.cpp:84] Creating Layer relu1_9
I1215 18:08:14.736235 13151 net.cpp:406] relu1_9 <- conv1_9/bn
I1215 18:08:14.736240 13151 net.cpp:367] relu1_9 -> conv1_9/bn (in-place)
I1215 18:08:14.736506 13151 net.cpp:122] Setting up relu1_9
I1215 18:08:14.736517 13151 net.cpp:129] Top shape: 1 512 17 35 (304640)
I1215 18:08:14.736521 13151 net.cpp:137] Memory required for data: 108846928
I1215 18:08:14.736526 13151 layer_factory.hpp:77] Creating layer conv1_9
I1215 18:08:14.736538 13151 net.cpp:84] Creating Layer conv1_9
I1215 18:08:14.736543 13151 net.cpp:406] conv1_9 <- conv1_9/bn
I1215 18:08:14.736552 13151 net.cpp:380] conv1_9 -> conv1_9
I1215 18:08:14.822219 13151 net.cpp:122] Setting up conv1_9
I1215 18:08:14.822252 13151 net.cpp:129] Top shape: 1 32 17 35 (19040)
I1215 18:08:14.822257 13151 net.cpp:137] Memory required for data: 108923088
I1215 18:08:14.822268 13151 layer_factory.hpp:77] Creating layer concat1_9
I1215 18:08:14.822281 13151 net.cpp:84] Creating Layer concat1_9
I1215 18:08:14.822288 13151 net.cpp:406] concat1_9 <- concat1_8_concat1_8_0_split_1
I1215 18:08:14.822295 13151 net.cpp:406] concat1_9 <- conv1_9
I1215 18:08:14.822302 13151 net.cpp:380] concat1_9 -> concat1_9
I1215 18:08:14.822368 13151 net.cpp:122] Setting up concat1_9
I1215 18:08:14.822376 13151 net.cpp:129] Top shape: 1 544 17 35 (323680)
I1215 18:08:14.822381 13151 net.cpp:137] Memory required for data: 110217808
I1215 18:08:14.822384 13151 layer_factory.hpp:77] Creating layer concat1_9_concat1_9_0_split
I1215 18:08:14.822392 13151 net.cpp:84] Creating Layer concat1_9_concat1_9_0_split
I1215 18:08:14.822397 13151 net.cpp:406] concat1_9_concat1_9_0_split <- concat1_9
I1215 18:08:14.822403 13151 net.cpp:380] concat1_9_concat1_9_0_split -> concat1_9_concat1_9_0_split_0
I1215 18:08:14.822410 13151 net.cpp:380] concat1_9_concat1_9_0_split -> concat1_9_concat1_9_0_split_1
I1215 18:08:14.822499 13151 net.cpp:122] Setting up concat1_9_concat1_9_0_split
I1215 18:08:14.822507 13151 net.cpp:129] Top shape: 1 544 17 35 (323680)
I1215 18:08:14.822513 13151 net.cpp:129] Top shape: 1 544 17 35 (323680)
I1215 18:08:14.822517 13151 net.cpp:137] Memory required for data: 112807248
I1215 18:08:14.822520 13151 layer_factory.hpp:77] Creating layer conv1_10/bn
I1215 18:08:14.822530 13151 net.cpp:84] Creating Layer conv1_10/bn
I1215 18:08:14.822535 13151 net.cpp:406] conv1_10/bn <- concat1_9_concat1_9_0_split_0
I1215 18:08:14.822541 13151 net.cpp:380] conv1_10/bn -> conv1_10/bn
I1215 18:08:14.823125 13151 net.cpp:122] Setting up conv1_10/bn
I1215 18:08:14.823135 13151 net.cpp:129] Top shape: 1 544 17 35 (323680)
I1215 18:08:14.823140 13151 net.cpp:137] Memory required for data: 114101968
I1215 18:08:14.823151 13151 layer_factory.hpp:77] Creating layer conv1_10/scale
I1215 18:08:14.823160 13151 net.cpp:84] Creating Layer conv1_10/scale
I1215 18:08:14.823165 13151 net.cpp:406] conv1_10/scale <- conv1_10/bn
I1215 18:08:14.823171 13151 net.cpp:367] conv1_10/scale -> conv1_10/bn (in-place)
I1215 18:08:14.823271 13151 layer_factory.hpp:77] Creating layer conv1_10/scale
I1215 18:08:14.823588 13151 net.cpp:122] Setting up conv1_10/scale
I1215 18:08:14.823598 13151 net.cpp:129] Top shape: 1 544 17 35 (323680)
I1215 18:08:14.823602 13151 net.cpp:137] Memory required for data: 115396688
I1215 18:08:14.823609 13151 layer_factory.hpp:77] Creating layer relu1_10
I1215 18:08:14.823617 13151 net.cpp:84] Creating Layer relu1_10
I1215 18:08:14.823621 13151 net.cpp:406] relu1_10 <- conv1_10/bn
I1215 18:08:14.823633 13151 net.cpp:367] relu1_10 -> conv1_10/bn (in-place)
I1215 18:08:14.846056 13151 net.cpp:122] Setting up relu1_10
I1215 18:08:14.846094 13151 net.cpp:129] Top shape: 1 544 17 35 (323680)
I1215 18:08:14.846101 13151 net.cpp:137] Memory required for data: 116691408
I1215 18:08:14.846109 13151 layer_factory.hpp:77] Creating layer conv1_10
I1215 18:08:14.846132 13151 net.cpp:84] Creating Layer conv1_10
I1215 18:08:14.846143 13151 net.cpp:406] conv1_10 <- conv1_10/bn
I1215 18:08:14.846155 13151 net.cpp:380] conv1_10 -> conv1_10
I1215 18:08:14.861210 13151 net.cpp:122] Setting up conv1_10
I1215 18:08:14.861249 13151 net.cpp:129] Top shape: 1 32 17 35 (19040)
I1215 18:08:14.861256 13151 net.cpp:137] Memory required for data: 116767568
I1215 18:08:14.861269 13151 layer_factory.hpp:77] Creating layer concat1_10
I1215 18:08:14.861282 13151 net.cpp:84] Creating Layer concat1_10
I1215 18:08:14.861290 13151 net.cpp:406] concat1_10 <- concat1_9_concat1_9_0_split_1
I1215 18:08:14.861299 13151 net.cpp:406] concat1_10 <- conv1_10
I1215 18:08:14.861310 13151 net.cpp:380] concat1_10 -> concat1_10
I1215 18:08:14.861403 13151 net.cpp:122] Setting up concat1_10
I1215 18:08:14.861413 13151 net.cpp:129] Top shape: 1 576 17 35 (342720)
I1215 18:08:14.861418 13151 net.cpp:137] Memory required for data: 118138448
I1215 18:08:14.861423 13151 layer_factory.hpp:77] Creating layer concat1_10_concat1_10_0_split
I1215 18:08:14.861429 13151 net.cpp:84] Creating Layer concat1_10_concat1_10_0_split
I1215 18:08:14.861434 13151 net.cpp:406] concat1_10_concat1_10_0_split <- concat1_10
I1215 18:08:14.861443 13151 net.cpp:380] concat1_10_concat1_10_0_split -> concat1_10_concat1_10_0_split_0
I1215 18:08:14.861450 13151 net.cpp:380] concat1_10_concat1_10_0_split -> concat1_10_concat1_10_0_split_1
I1215 18:08:14.861562 13151 net.cpp:122] Setting up concat1_10_concat1_10_0_split
I1215 18:08:14.861570 13151 net.cpp:129] Top shape: 1 576 17 35 (342720)
I1215 18:08:14.861577 13151 net.cpp:129] Top shape: 1 576 17 35 (342720)
I1215 18:08:14.861580 13151 net.cpp:137] Memory required for data: 120880208
I1215 18:08:14.861584 13151 layer_factory.hpp:77] Creating layer conv1_11/bn
I1215 18:08:14.861593 13151 net.cpp:84] Creating Layer conv1_11/bn
I1215 18:08:14.861598 13151 net.cpp:406] conv1_11/bn <- concat1_10_concat1_10_0_split_0
I1215 18:08:14.861605 13151 net.cpp:380] conv1_11/bn -> conv1_11/bn
I1215 18:08:14.862325 13151 net.cpp:122] Setting up conv1_11/bn
I1215 18:08:14.862346 13151 net.cpp:129] Top shape: 1 576 17 35 (342720)
I1215 18:08:14.862351 13151 net.cpp:137] Memory required for data: 122251088
I1215 18:08:14.862365 13151 layer_factory.hpp:77] Creating layer conv1_11/scale
I1215 18:08:14.862378 13151 net.cpp:84] Creating Layer conv1_11/scale
I1215 18:08:14.862385 13151 net.cpp:406] conv1_11/scale <- conv1_11/bn
I1215 18:08:14.862391 13151 net.cpp:367] conv1_11/scale -> conv1_11/bn (in-place)
I1215 18:08:14.862516 13151 layer_factory.hpp:77] Creating layer conv1_11/scale
I1215 18:08:14.862895 13151 net.cpp:122] Setting up conv1_11/scale
I1215 18:08:14.862906 13151 net.cpp:129] Top shape: 1 576 17 35 (342720)
I1215 18:08:14.862910 13151 net.cpp:137] Memory required for data: 123621968
I1215 18:08:14.862918 13151 layer_factory.hpp:77] Creating layer relu1_11
I1215 18:08:14.862926 13151 net.cpp:84] Creating Layer relu1_11
I1215 18:08:14.862931 13151 net.cpp:406] relu1_11 <- conv1_11/bn
I1215 18:08:14.862937 13151 net.cpp:367] relu1_11 -> conv1_11/bn (in-place)
I1215 18:08:14.863370 13151 net.cpp:122] Setting up relu1_11
I1215 18:08:14.863386 13151 net.cpp:129] Top shape: 1 576 17 35 (342720)
I1215 18:08:14.863391 13151 net.cpp:137] Memory required for data: 124992848
I1215 18:08:14.863395 13151 layer_factory.hpp:77] Creating layer conv1_11
I1215 18:08:14.863410 13151 net.cpp:84] Creating Layer conv1_11
I1215 18:08:14.863416 13151 net.cpp:406] conv1_11 <- conv1_11/bn
I1215 18:08:14.863425 13151 net.cpp:380] conv1_11 -> conv1_11
I1215 18:08:14.881325 13151 net.cpp:122] Setting up conv1_11
I1215 18:08:14.881362 13151 net.cpp:129] Top shape: 1 32 17 35 (19040)
I1215 18:08:14.881374 13151 net.cpp:137] Memory required for data: 125069008
I1215 18:08:14.881386 13151 layer_factory.hpp:77] Creating layer concat1_11
I1215 18:08:14.881403 13151 net.cpp:84] Creating Layer concat1_11
I1215 18:08:14.881412 13151 net.cpp:406] concat1_11 <- concat1_10_concat1_10_0_split_1
I1215 18:08:14.881419 13151 net.cpp:406] concat1_11 <- conv1_11
I1215 18:08:14.881428 13151 net.cpp:380] concat1_11 -> concat1_11
I1215 18:08:14.881531 13151 net.cpp:122] Setting up concat1_11
I1215 18:08:14.881541 13151 net.cpp:129] Top shape: 1 608 17 35 (361760)
I1215 18:08:14.881546 13151 net.cpp:137] Memory required for data: 126516048
I1215 18:08:14.881549 13151 layer_factory.hpp:77] Creating layer tpp5
I1215 18:08:14.881561 13151 net.cpp:84] Creating Layer tpp5
I1215 18:08:14.881566 13151 net.cpp:406] tpp5 <- concat1_11
I1215 18:08:14.881572 13151 net.cpp:380] tpp5 -> tpp5
I1215 18:08:14.882932 13151 net.cpp:122] Setting up tpp5
I1215 18:08:14.882962 13151 net.cpp:129] Top shape: 1 9120 (9120)
I1215 18:08:14.882967 13151 net.cpp:137] Memory required for data: 126552528
I1215 18:08:14.882972 13151 layer_factory.hpp:77] Creating layer reshape
I1215 18:08:14.882983 13151 net.cpp:84] Creating Layer reshape
I1215 18:08:14.882989 13151 net.cpp:406] reshape <- tpp5
I1215 18:08:14.882998 13151 net.cpp:380] reshape -> reshape
I1215 18:08:14.883072 13151 net.cpp:122] Setting up reshape
I1215 18:08:14.883082 13151 net.cpp:129] Top shape: 1 4560 2 1 (9120)
I1215 18:08:14.883086 13151 net.cpp:137] Memory required for data: 126589008
I1215 18:08:14.883090 13151 layer_factory.hpp:77] Creating layer premax
I1215 18:08:14.883100 13151 net.cpp:84] Creating Layer premax
I1215 18:08:14.883105 13151 net.cpp:406] premax <- reshape
I1215 18:08:14.883112 13151 net.cpp:380] premax -> premax
I1215 18:08:14.883427 13151 net.cpp:122] Setting up premax
I1215 18:08:14.883438 13151 net.cpp:129] Top shape: 1 4560 2 1 (9120)
I1215 18:08:14.883442 13151 net.cpp:137] Memory required for data: 126625488
I1215 18:08:14.883450 13151 layer_factory.hpp:77] Creating layer maxout
I1215 18:08:14.883460 13151 net.cpp:84] Creating Layer maxout
I1215 18:08:14.883464 13151 net.cpp:406] maxout <- premax
I1215 18:08:14.883471 13151 net.cpp:380] maxout -> maxout
I1215 18:08:14.883574 13151 net.cpp:122] Setting up maxout
I1215 18:08:14.883582 13151 net.cpp:129] Top shape: 1 4560 1 1 (4560)
I1215 18:08:14.883586 13151 net.cpp:137] Memory required for data: 126643728
I1215 18:08:14.883590 13151 layer_factory.hpp:77] Creating layer fc6_d
I1215 18:08:14.883599 13151 net.cpp:84] Creating Layer fc6_d
I1215 18:08:14.883604 13151 net.cpp:406] fc6_d <- maxout
I1215 18:08:14.883610 13151 net.cpp:380] fc6_d -> fc6_d
I1215 18:08:19.696499 13151 net.cpp:122] Setting up fc6_d
I1215 18:08:19.696533 13151 net.cpp:129] Top shape: 1 4096 (4096)
I1215 18:08:19.696539 13151 net.cpp:137] Memory required for data: 126660112
I1215 18:08:19.696552 13151 layer_factory.hpp:77] Creating layer relu6
I1215 18:08:19.696563 13151 net.cpp:84] Creating Layer relu6
I1215 18:08:19.696570 13151 net.cpp:406] relu6 <- fc6_d
I1215 18:08:19.696578 13151 net.cpp:367] relu6 -> fc6_d (in-place)
I1215 18:08:19.697337 13151 net.cpp:122] Setting up relu6
I1215 18:08:19.697355 13151 net.cpp:129] Top shape: 1 4096 (4096)
I1215 18:08:19.697361 13151 net.cpp:137] Memory required for data: 126676496
I1215 18:08:19.697366 13151 layer_factory.hpp:77] Creating layer fc7_d
I1215 18:08:19.697377 13151 net.cpp:84] Creating Layer fc7_d
I1215 18:08:19.697382 13151 net.cpp:406] fc7_d <- fc6_d
I1215 18:08:19.697389 13151 net.cpp:380] fc7_d -> fc7_d
I1215 18:08:24.591482 13151 net.cpp:122] Setting up fc7_d
I1215 18:08:24.591522 13151 net.cpp:129] Top shape: 1 4096 (4096)
I1215 18:08:24.591527 13151 net.cpp:137] Memory required for data: 126692880
I1215 18:08:24.591539 13151 layer_factory.hpp:77] Creating layer relu7
I1215 18:08:24.591553 13151 net.cpp:84] Creating Layer relu7
I1215 18:08:24.591560 13151 net.cpp:406] relu7 <- fc7_d
I1215 18:08:24.591568 13151 net.cpp:367] relu7 -> fc7_d (in-place)
I1215 18:08:24.631541 13151 net.cpp:122] Setting up relu7
I1215 18:08:24.631574 13151 net.cpp:129] Top shape: 1 4096 (4096)
I1215 18:08:24.631580 13151 net.cpp:137] Memory required for data: 126709264
I1215 18:08:24.631587 13151 layer_factory.hpp:77] Creating layer fc8_d
I1215 18:08:24.631608 13151 net.cpp:84] Creating Layer fc8_d
I1215 18:08:24.631615 13151 net.cpp:406] fc8_d <- fc7_d
I1215 18:08:24.631625 13151 net.cpp:380] fc8_d -> fc8_d
I1215 18:08:25.782986 13151 net.cpp:122] Setting up fc8_d
I1215 18:08:25.783026 13151 net.cpp:129] Top shape: 1 604 (604)
I1215 18:08:25.783031 13151 net.cpp:137] Memory required for data: 126711680
I1215 18:08:25.783044 13151 layer_factory.hpp:77] Creating layer fc8_d_fc8_d_0_split
I1215 18:08:25.783056 13151 net.cpp:84] Creating Layer fc8_d_fc8_d_0_split
I1215 18:08:25.783062 13151 net.cpp:406] fc8_d_fc8_d_0_split <- fc8_d
I1215 18:08:25.783071 13151 net.cpp:380] fc8_d_fc8_d_0_split -> fc8_d_fc8_d_0_split_0
I1215 18:08:25.783082 13151 net.cpp:380] fc8_d_fc8_d_0_split -> fc8_d_fc8_d_0_split_1
I1215 18:08:25.783177 13151 net.cpp:122] Setting up fc8_d_fc8_d_0_split
I1215 18:08:25.783186 13151 net.cpp:129] Top shape: 1 604 (604)
I1215 18:08:25.783191 13151 net.cpp:129] Top shape: 1 604 (604)
I1215 18:08:25.783195 13151 net.cpp:137] Memory required for data: 126716512
I1215 18:08:25.783200 13151 layer_factory.hpp:77] Creating layer sigmoid
I1215 18:08:25.783210 13151 net.cpp:84] Creating Layer sigmoid
I1215 18:08:25.783215 13151 net.cpp:406] sigmoid <- fc8_d_fc8_d_0_split_0
I1215 18:08:25.783222 13151 net.cpp:380] sigmoid -> sigmoid
I1215 18:08:25.783610 13151 net.cpp:122] Setting up sigmoid
I1215 18:08:25.783623 13151 net.cpp:129] Top shape: 1 604 (604)
I1215 18:08:25.783627 13151 net.cpp:137] Memory required for data: 126718928
I1215 18:08:25.783632 13151 layer_factory.hpp:77] Creating layer silence
I1215 18:08:25.783639 13151 net.cpp:84] Creating Layer silence
I1215 18:08:25.783644 13151 net.cpp:406] silence <- sigmoid
I1215 18:08:25.783649 13151 net.cpp:122] Setting up silence
I1215 18:08:25.783653 13151 net.cpp:137] Memory required for data: 126718928
…
