…
state {
  phase: TRAIN
}
layer {
  name: "word_images"
  type: "Data"
  top: "word_images"
  top: "label"
  transform_param {
    scale: -0.0039215689
    mean_value: 255
  }
  data_param {
    source: "/data/fwolf/min26/gw_cv1_nti500000_pul2-3-4-5_train_word_images_lmdb"
    batch_size: 1
    backend: LMDB
    prefetch: 20
  }
}
layer {
  name: "phocs"
  type: "Data"
  top: "phocs"
  top: "label_phocs"
  data_param {
    source: "/data/fwolf/min26/gw_cv1_nti500000_pul2-3-4-5_train_phocs_lmdb"
    batch_size: 1
    backend: LMDB
    prefetch: 20
  }
}
layer {
  name: "conv_init"
  type: "Convolution"
  bottom: "word_images"
  top: "conv_init"
  convolution_param {
    num_output: 32
    bias_term: false
    pad: 1
    kernel_size: 3
    stride: 1
    weight_filler {
      type: "msra"
    }
    bias_filler {
      type: "constant"
    }
    engine: CUDNN
  }
}
layer {
  name: "bn_init"
  type: "BatchNorm"
  bottom: "conv_init"
  top: "bn_init"
  param {
    lr_mult: 0
    decay_mult: 0
  }
  param {
    lr_mult: 0
    decay_mult: 0
  }
  param {
    lr_mult: 0
    decay_mult: 0
  }
  batch_norm_param {
    eps: 1e-05
  }
}
layer {
  name: "scale_init"
  type: "Scale"
  bottom: "bn_init"
  top: "bn_init"
  scale_param {
    filler {
      value: 1
    }
    bias_term: true
    bias_filler {
      value: 0
    }
  }
}
layer {
  name: "relu_init"
  type: "ReLU"
  bottom: "bn_init"
  top: "bn_init"
}
layer {
  name: "pool_init"
  type: "Pooling"
  bottom: "bn_init"
  top: "pool_init"
  pooling_param {
    pool: MAX
    kernel_size: 3
    stride: 2
    pad: 1
  }
}
layer {
  name: "conv0_0/bn"
  type: "BatchNorm"
  bottom: "pool_init"
  top: "conv0_0/bn"
  param {
    lr_mult: 0
    decay_mult: 0
  }
  param {
    lr_mult: 0
    decay_mult: 0
  }
  param {
    lr_mult: 0
    decay_mult: 0
  }
}
layer {
  name: "conv0_0/scale"
  type: "Scale"
  bottom: "conv0_0/bn"
  top: "conv0_0/bn"
  scale_param {
    filler {
      value: 1
    }
    bias_term: true
    bias_filler {
      value: 0
    }
  }
}
layer {
  name: "relu0_0"
  type: "ReLU"
  bottom: "conv0_0/bn"
  top: "conv0_0/bn"
}
layer {
  name: "conv0_0"
  type: "Convolution"
  bottom: "conv0_0/bn"
  top: "conv0_0"
  convolution_param {
    num_output: 32
    bias_term: false
    pad: 1
    kernel_size: 3
    stride: 1
    weight_filler {
      type: "msra"
    }
    bias_filler {
      type: "constant"
    }
    engine: CUDNN
  }
}
layer {
  name: "concat0_0"
  type: "Concat"
  bottom: "pool_init"
  bottom: "conv0_0"
  top: "concat0_0"
  concat_param {
    axis: 1
  }
}
layer {
  name: "conv0_1/bn"
  type: "BatchNorm"
  bottom: "concat0_0"
  top: "conv0_1/bn"
  param {
    lr_mult: 0
    decay_mult: 0
  }
  param {
    lr_mult: 0
    decay_mult: 0
  }
  param {
    lr_mult: 0
    decay_mult: 0
  }
}
layer {
  name: "conv0_1/scale"
  type: "Scale"
  bottom: "conv0_1/bn"
  top: "conv0_1/bn"
  scale_param {
    filler {
      value: 1
    }
    bias_term: true
    bias_filler {
      value: 0
    }
  }
}
layer {
  name: "relu0_1"
  type: "ReLU"
  bottom: "conv0_1/bn"
  top: "conv0_1/bn"
}
layer {
  name: "conv0_1"
  type: "Convolution"
  bottom: "conv0_1/bn"
  top: "conv0_1"
  convolution_param {
    num_output: 32
    bias_term: false
    pad: 1
    kernel_size: 3
    stride: 1
    weight_filler {
      type: "msra"
    }
    bias_filler {
      type: "constant"
    }
    engine: CUDNN
  }
}
layer {
  name: "concat0_1"
  type: "Concat"
  bottom: "concat0_0"
  bottom: "conv0_1"
  top: "concat0_1"
  concat_param {
    axis: 1
  }
}
layer {
  name: "conv0_2/bn"
  type: "BatchNorm"
  bottom: "concat0_1"
  top: "conv0_2/bn"
  param {
    lr_mult: 0
    decay_mult: 0
  }
  param {
    lr_mult: 0
    decay_mult: 0
  }
  param {
    lr_mult: 0
    decay_mult: 0
  }
}
layer {
  name: "conv0_2/scale"
  type: "Scale"
  bottom: "conv0_2/bn"
  top: "conv0_2/bn"
  scale_param {
    filler {
      value: 1
    }
    bias_term: true
    bias_filler {
      value: 0
    }
  }
}
layer {
  name: "relu0_2"
  type: "ReLU"
  bottom: "conv0_2/bn"
  top: "conv0_2/bn"
}
layer {
  name: "conv0_2"
  type: "Convolution"
  bottom: "conv0_2/bn"
  top: "conv0_2"
  convolution_param {
    num_output: 32
    bias_term: false
    pad: 1
    kernel_size: 3
    stride: 1
    weight_filler {
      type: "msra"
    }
    bias_filler {
      type: "constant"
    }
    engine: CUDNN
  }
}
layer {
  name: "concat0_2"
  type: "Concat"
  bottom: "concat0_1"
  bottom: "conv0_2"
  top: "concat0_2"
  concat_param {
    axis: 1
  }
}
layer {
  name: "conv0_3/bn"
  type: "BatchNorm"
  bottom: "concat0_2"
  top: "conv0_3/bn"
  param {
    lr_mult: 0
    decay_mult: 0
  }
  param {
    lr_mult: 0
    decay_mult: 0
  }
  param {
    lr_mult: 0
    decay_mult: 0
  }
}
layer {
  name: "conv0_3/scale"
  type: "Scale"
  bottom: "conv0_3/bn"
  top: "conv0_3/bn"
  scale_param {
    filler {
      value: 1
    }
    bias_term: true
    bias_filler {
      value: 0
    }
  }
}
layer {
  name: "relu0_3"
  type: "ReLU"
  bottom: "conv0_3/bn"
  top: "conv0_3/bn"
}
layer {
  name: "conv0_3"
  type: "Convolution"
  bottom: "conv0_3/bn"
  top: "conv0_3"
  convolution_param {
    num_output: 32
    bias_term: false
    pad: 1
    kernel_size: 3
    stride: 1
    weight_filler {
      type: "msra"
    }
    bias_filler {
      type: "constant"
    }
    engine: CUDNN
  }
}
layer {
  name: "concat0_3"
  type: "Concat"
  bottom: "concat0_2"
  bottom: "conv0_3"
  top: "concat0_3"
  concat_param {
    axis: 1
  }
}
layer {
  name: "conv0_4/bn"
  type: "BatchNorm"
  bottom: "concat0_3"
  top: "conv0_4/bn"
  param {
    lr_mult: 0
    decay_mult: 0
  }
  param {
    lr_mult: 0
    decay_mult: 0
  }
  param {
    lr_mult: 0
    decay_mult: 0
  }
}
layer {
  name: "conv0_4/scale"
  type: "Scale"
  bottom: "conv0_4/bn"
  top: "conv0_4/bn"
  scale_param {
    filler {
      value: 1
    }
    bias_term: true
    bias_filler {
      value: 0
    }
  }
}
layer {
  name: "relu0_4"
  type: "ReLU"
  bottom: "conv0_4/bn"
  top: "conv0_4/bn"
}
layer {
  name: "conv0_4"
  type: "Convolution"
  bottom: "conv0_4/bn"
  top: "conv0_4"
  convolution_param {
    num_output: 32
    bias_term: false
    pad: 1
    kernel_size: 3
    stride: 1
    weight_filler {
      type: "msra"
    }
    bias_filler {
      type: "constant"
    }
    engine: CUDNN
  }
}
layer {
  name: "concat0_4"
  type: "Concat"
  bottom: "concat0_3"
  bottom: "conv0_4"
  top: "concat0_4"
  concat_param {
    axis: 1
  }
}
layer {
  name: "conv0_5/bn"
  type: "BatchNorm"
  bottom: "concat0_4"
  top: "conv0_5/bn"
  param {
    lr_mult: 0
    decay_mult: 0
  }
  param {
    lr_mult: 0
    decay_mult: 0
  }
  param {
    lr_mult: 0
    decay_mult: 0
  }
}
layer {
  name: "conv0_5/scale"
  type: "Scale"
  bottom: "conv0_5/bn"
  top: "conv0_5/bn"
  scale_param {
    filler {
      value: 1
    }
    bias_term: true
    bias_filler {
      value: 0
    }
  }
}
layer {
  name: "relu0_5"
  type: "ReLU"
  bottom: "conv0_5/bn"
  top: "conv0_5/bn"
}
layer {
  name: "conv0_5"
  type: "Convolution"
  bottom: "conv0_5/bn"
  top: "conv0_5"
  convolution_param {
    num_output: 32
    bias_term: false
    pad: 1
    kernel_size: 3
    stride: 1
    weight_filler {
      type: "msra"
    }
    bias_filler {
      type: "constant"
    }
    engine: CUDNN
  }
}
layer {
  name: "concat0_5"
  type: "Concat"
  bottom: "concat0_4"
  bottom: "conv0_5"
  top: "concat0_5"
  concat_param {
    axis: 1
  }
}
layer {
  name: "conv0_6/bn"
  type: "BatchNorm"
  bottom: "concat0_5"
  top: "conv0_6/bn"
  param {
    lr_mult: 0
    decay_mult: 0
  }
  param {
    lr_mult: 0
    decay_mult: 0
  }
  param {
    lr_mult: 0
    decay_mult: 0
  }
}
layer {
  name: "conv0_6/scale"
  type: "Scale"
  bottom: "conv0_6/bn"
  top: "conv0_6/bn"
  scale_param {
    filler {
      value: 1
    }
    bias_term: true
    bias_filler {
      value: 0
    }
  }
}
layer {
  name: "relu0_6"
  type: "ReLU"
  bottom: "conv0_6/bn"
  top: "conv0_6/bn"
}
layer {
  name: "conv0_6"
  type: "Convolution"
  bottom: "conv0_6/bn"
  top: "conv0_6"
  convolution_param {
    num_output: 32
    bias_term: false
    pad: 1
    kernel_size: 3
    stride: 1
    weight_filler {
      type: "msra"
    }
    bias_filler {
      type: "constant"
    }
    engine: CUDNN
  }
}
layer {
  name: "concat0_6"
  type: "Concat"
  bottom: "concat0_5"
  bottom: "conv0_6"
  top: "concat0_6"
  concat_param {
    axis: 1
  }
}
layer {
  name: "conv0_7/bn"
  type: "BatchNorm"
  bottom: "concat0_6"
  top: "conv0_7/bn"
  param {
    lr_mult: 0
    decay_mult: 0
  }
  param {
    lr_mult: 0
    decay_mult: 0
  }
  param {
    lr_mult: 0
    decay_mult: 0
  }
}
layer {
  name: "conv0_7/scale"
  type: "Scale"
  bottom: "conv0_7/bn"
  top: "conv0_7/bn"
  scale_param {
    filler {
      value: 1
    }
    bias_term: true
    bias_filler {
      value: 0
    }
  }
}
layer {
  name: "relu0_7"
  type: "ReLU"
  bottom: "conv0_7/bn"
  top: "conv0_7/bn"
}
layer {
  name: "conv0_7"
  type: "Convolution"
  bottom: "conv0_7/bn"
  top: "conv0_7"
  convolution_param {
    num_output: 32
    bias_term: false
    pad: 1
    kernel_size: 3
    stride: 1
    weight_filler {
      type: "msra"
    }
    bias_filler {
      type: "constant"
    }
    engine: CUDNN
  }
}
layer {
  name: "concat0_7"
  type: "Concat"
  bottom: "concat0_6"
  bottom: "conv0_7"
  top: "concat0_7"
  concat_param {
    axis: 1
  }
}
layer {
  name: "conv0_8/bn"
  type: "BatchNorm"
  bottom: "concat0_7"
  top: "conv0_8/bn"
  param {
    lr_mult: 0
    decay_mult: 0
  }
  param {
    lr_mult: 0
    decay_mult: 0
  }
  param {
    lr_mult: 0
    decay_mult: 0
  }
}
layer {
  name: "conv0_8/scale"
  type: "Scale"
  bottom: "conv0_8/bn"
  top: "conv0_8/bn"
  scale_param {
    filler {
      value: 1
    }
    bias_term: true
    bias_filler {
      value: 0
    }
  }
}
layer {
  name: "relu0_8"
  type: "ReLU"
  bottom: "conv0_8/bn"
  top: "conv0_8/bn"
}
layer {
  name: "conv0_8"
  type: "Convolution"
  bottom: "conv0_8/bn"
  top: "conv0_8"
  convolution_param {
    num_output: 32
    bias_term: false
    pad: 1
    kernel_size: 3
    stride: 1
    weight_filler {
      type: "msra"
    }
    bias_filler {
      type: "constant"
    }
    engine: CUDNN
  }
}
layer {
  name: "concat0_8"
  type: "Concat"
  bottom: "concat0_7"
  bottom: "conv0_8"
  top: "concat0_8"
  concat_param {
    axis: 1
  }
}
layer {
  name: "conv0_9/bn"
  type: "BatchNorm"
  bottom: "concat0_8"
  top: "conv0_9/bn"
  param {
    lr_mult: 0
    decay_mult: 0
  }
  param {
    lr_mult: 0
    decay_mult: 0
  }
  param {
    lr_mult: 0
    decay_mult: 0
  }
}
layer {
  name: "conv0_9/scale"
  type: "Scale"
  bottom: "conv0_9/bn"
  top: "conv0_9/bn"
  scale_param {
    filler {
      value: 1
    }
    bias_term: true
    bias_filler {
      value: 0
    }
  }
}
layer {
  name: "relu0_9"
  type: "ReLU"
  bottom: "conv0_9/bn"
  top: "conv0_9/bn"
}
layer {
  name: "conv0_9"
  type: "Convolution"
  bottom: "conv0_9/bn"
  top: "conv0_9"
  convolution_param {
    num_output: 32
    bias_term: false
    pad: 1
    kernel_size: 3
    stride: 1
    weight_filler {
      type: "msra"
    }
    bias_filler {
      type: "constant"
    }
    engine: CUDNN
  }
}
layer {
  name: "concat0_9"
  type: "Concat"
  bottom: "concat0_8"
  bottom: "conv0_9"
  top: "concat0_9"
  concat_param {
    axis: 1
  }
}
layer {
  name: "conv0_10/bn"
  type: "BatchNorm"
  bottom: "concat0_9"
  top: "conv0_10/bn"
  param {
    lr_mult: 0
    decay_mult: 0
  }
  param {
    lr_mult: 0
    decay_mult: 0
  }
  param {
    lr_mult: 0
    decay_mult: 0
  }
}
layer {
  name: "conv0_10/scale"
  type: "Scale"
  bottom: "conv0_10/bn"
  top: "conv0_10/bn"
  scale_param {
    filler {
      value: 1
    }
    bias_term: true
    bias_filler {
      value: 0
    }
  }
}
layer {
  name: "relu0_10"
  type: "ReLU"
  bottom: "conv0_10/bn"
  top: "conv0_10/bn"
}
layer {
  name: "conv0_10"
  type: "Convolution"
  bottom: "conv0_10/bn"
  top: "conv0_10"
  convolution_param {
    num_output: 32
    bias_term: false
    pad: 1
    kernel_size: 3
    stride: 1
    weight_filler {
      type: "msra"
    }
    bias_filler {
      type: "constant"
    }
    engine: CUDNN
  }
}
layer {
  name: "concat0_10"
  type: "Concat"
  bottom: "concat0_9"
  bottom: "conv0_10"
  top: "concat0_10"
  concat_param {
    axis: 1
  }
}
layer {
  name: "conv0_11/bn"
  type: "BatchNorm"
  bottom: "concat0_10"
  top: "conv0_11/bn"
  param {
    lr_mult: 0
    decay_mult: 0
  }
  param {
    lr_mult: 0
    decay_mult: 0
  }
  param {
    lr_mult: 0
    decay_mult: 0
  }
}
layer {
  name: "conv0_11/scale"
  type: "Scale"
  bottom: "conv0_11/bn"
  top: "conv0_11/bn"
  scale_param {
    filler {
      value: 1
    }
    bias_term: true
    bias_filler {
      value: 0
    }
  }
}
layer {
  name: "relu0_11"
  type: "ReLU"
  bottom: "conv0_11/bn"
  top: "conv0_11/bn"
}
layer {
  name: "conv0_11"
  type: "Convolution"
  bottom: "conv0_11/bn"
  top: "conv0_11"
  convolution_param {
    num_output: 32
    bias_term: false
    pad: 1
    kernel_size: 3
    stride: 1
    weight_filler {
      type: "msra"
    }
    bias_filler {
      type: "constant"
    }
    engine: CUDNN
  }
}
layer {
  name: "concat0_11"
  type: "Concat"
  bottom: "concat0_10"
  bottom: "conv0_11"
  top: "concat0_11"
  concat_param {
    axis: 1
  }
}
layer {
  name: "BatchNorm1"
  type: "BatchNorm"
  bottom: "concat0_11"
  top: "BatchNorm1"
  param {
    lr_mult: 0
    decay_mult: 0
  }
  param {
    lr_mult: 0
    decay_mult: 0
  }
  param {
    lr_mult: 0
    decay_mult: 0
  }
}
layer {
  name: "Scale1"
  type: "Scale"
  bottom: "BatchNorm1"
  top: "BatchNorm1"
  scale_param {
    filler {
      value: 1
    }
    bias_term: true
    bias_filler {
      value: 0
    }
  }
}
layer {
  name: "ReLU1"
  type: "ReLU"
  bottom: "BatchNorm1"
  top: "BatchNorm1"
}
layer {
  name: "conv0_blk"
  type: "Convolution"
  bottom: "BatchNorm1"
  top: "conv0_blk"
  convolution_param {
    num_output: 416
    bias_term: false
    pad: 0
    kernel_size: 1
    stride: 1
    weight_filler {
      type: "msra"
    }
    bias_filler {
      type: "constant"
    }
    engine: CUDNN
  }
}
layer {
  name: "pool0"
  type: "Pooling"
  bottom: "conv0_blk"
  top: "pool0"
  pooling_param {
    pool: AVE
    kernel_size: 2
    stride: 2
  }
}
layer {
  name: "conv1_0/bn"
  type: "BatchNorm"
  bottom: "pool0"
  top: "conv1_0/bn"
  param {
    lr_mult: 0
    decay_mult: 0
  }
  param {
    lr_mult: 0
    decay_mult: 0
  }
  param {
    lr_mult: 0
    decay_mult: 0
  }
}
layer {
  name: "conv1_0/scale"
  type: "Scale"
  bottom: "conv1_0/bn"
  top: "conv1_0/bn"
  scale_param {
    filler {
      value: 1
    }
    bias_term: true
    bias_filler {
      value: 0
    }
  }
}
layer {
  name: "relu1_0"
  type: "ReLU"
  bottom: "conv1_0/bn"
  top: "conv1_0/bn"
}
layer {
  name: "conv1_0"
  type: "Convolution"
  bottom: "conv1_0/bn"
  top: "conv1_0"
  convolution_param {
    num_output: 32
    bias_term: false
    pad: 1
    kernel_size: 3
    stride: 1
    weight_filler {
      type: "msra"
    }
    bias_filler {
      type: "constant"
    }
    engine: CUDNN
  }
}
layer {
  name: "concat1_0"
  type: "Concat"
  bottom: "pool0"
  bottom: "conv1_0"
  top: "concat1_0"
  concat_param {
    axis: 1
  }
}
layer {
  name: "conv1_1/bn"
  type: "BatchNorm"
  bottom: "concat1_0"
  top: "conv1_1/bn"
  param {
    lr_mult: 0
    decay_mult: 0
  }
  param {
    lr_mult: 0
    decay_mult: 0
  }
  param {
    lr_mult: 0
    decay_mult: 0
  }
}
layer {
  name: "conv1_1/scale"
  type: "Scale"
  bottom: "conv1_1/bn"
  top: "conv1_1/bn"
  scale_param {
    filler {
      value: 1
    }
    bias_term: true
    bias_filler {
      value: 0
    }
  }
}
layer {
  name: "relu1_1"
  type: "ReLU"
  bottom: "conv1_1/bn"
  top: "conv1_1/bn"
}
layer {
  name: "conv1_1"
  type: "Convolution"
  bottom: "conv1_1/bn"
  top: "conv1_1"
  convolution_param {
    num_output: 32
    bias_term: false
    pad: 1
    kernel_size: 3
    stride: 1
    weight_filler {
      type: "msra"
    }
    bias_filler {
      type: "constant"
    }
    engine: CUDNN
  }
}
layer {
  name: "concat1_1"
  type: "Concat"
  bottom: "concat1_0"
  bottom: "conv1_1"
  top: "concat1_1"
  concat_param {
    axis: 1
  }
}
layer {
  name: "conv1_2/bn"
  type: "BatchNorm"
  bottom: "concat1_1"
  top: "conv1_2/bn"
  param {
    lr_mult: 0
    decay_mult: 0
  }
  param {
    lr_mult: 0
    decay_mult: 0
  }
  param {
    lr_mult: 0
    decay_mult: 0
  }
}
layer {
  name: "conv1_2/scale"
  type: "Scale"
  bottom: "conv1_2/bn"
  top: "conv1_2/bn"
  scale_param {
    filler {
      value: 1
    }
    bias_term: true
    bias_filler {
      value: 0
    }
  }
}
layer {
  name: "relu1_2"
  type: "ReLU"
  bottom: "conv1_2/bn"
  top: "conv1_2/bn"
}
layer {
  name: "conv1_2"
  type: "Convolution"
  bottom: "conv1_2/bn"
  top: "conv1_2"
  convolution_param {
    num_output: 32
    bias_term: false
    pad: 1
    kernel_size: 3
    stride: 1
    weight_filler {
      type: "msra"
    }
    bias_filler {
      type: "constant"
    }
    engine: CUDNN
  }
}
layer {
  name: "concat1_2"
  type: "Concat"
  bottom: "concat1_1"
  bottom: "conv1_2"
  top: "concat1_2"
  concat_param {
    axis: 1
  }
}
layer {
  name: "conv1_3/bn"
  type: "BatchNorm"
  bottom: "concat1_2"
  top: "conv1_3/bn"
  param {
    lr_mult: 0
    decay_mult: 0
  }
  param {
    lr_mult: 0
    decay_mult: 0
  }
  param {
    lr_mult: 0
    decay_mult: 0
  }
}
layer {
  name: "conv1_3/scale"
  type: "Scale"
  bottom: "conv1_3/bn"
  top: "conv1_3/bn"
  scale_param {
    filler {
      value: 1
    }
    bias_term: true
    bias_filler {
      value: 0
    }
  }
}
layer {
  name: "relu1_3"
  type: "ReLU"
  bottom: "conv1_3/bn"
  top: "conv1_3/bn"
}
layer {
  name: "conv1_3"
  type: "Convolution"
  bottom: "conv1_3/bn"
  top: "conv1_3"
  convolution_param {
    num_output: 32
    bias_term: false
    pad: 1
    kernel_size: 3
    stride: 1
    weight_filler {
      type: "msra"
    }
    bias_filler {
      type: "constant"
    }
    engine: CUDNN
  }
}
layer {
  name: "concat1_3"
  type: "Concat"
  bottom: "concat1_2"
  bottom: "conv1_3"
  top: "concat1_3"
  concat_param {
    axis: 1
  }
}
layer {
  name: "conv1_4/bn"
  type: "BatchNorm"
  bottom: "concat1_3"
  top: "conv1_4/bn"
  param {
    lr_mult: 0
    decay_mult: 0
  }
  param {
    lr_mult: 0
    decay_mult: 0
  }
  param {
    lr_mult: 0
    decay_mult: 0
  }
}
layer {
  name: "conv1_4/scale"
  type: "Scale"
  bottom: "conv1_4/bn"
  top: "conv1_4/bn"
  scale_param {
    filler {
      value: 1
    }
    bias_term: true
    bias_filler {
      value: 0
    }
  }
}
layer {
  name: "relu1_4"
  type: "ReLU"
  bottom: "conv1_4/bn"
  top: "conv1_4/bn"
}
layer {
  name: "conv1_4"
  type: "Convolution"
  bottom: "conv1_4/bn"
  top: "conv1_4"
  convolution_param {
    num_output: 32
    bias_term: false
    pad: 1
    kernel_size: 3
    stride: 1
    weight_filler {
      type: "msra"
    }
    bias_filler {
      type: "constant"
    }
    engine: CUDNN
  }
}
layer {
  name: "concat1_4"
  type: "Concat"
  bottom: "concat1_3"
  bottom: "conv1_4"
  top: "concat1_4"
  concat_param {
    axis: 1
  }
}
layer {
  name: "conv1_5/bn"
  type: "BatchNorm"
  bottom: "concat1_4"
  top: "conv1_5/bn"
  param {
    lr_mult: 0
    decay_mult: 0
  }
  param {
    lr_mult: 0
    decay_mult: 0
  }
  param {
    lr_mult: 0
    decay_mult: 0
  }
}
layer {
  name: "conv1_5/scale"
  type: "Scale"
  bottom: "conv1_5/bn"
  top: "conv1_5/bn"
  scale_param {
    filler {
      value: 1
    }
    bias_term: true
    bias_filler {
      value: 0
    }
  }
}
layer {
  name: "relu1_5"
  type: "ReLU"
  bottom: "conv1_5/bn"
  top: "conv1_5/bn"
}
layer {
  name: "conv1_5"
  type: "Convolution"
  bottom: "conv1_5/bn"
  top: "conv1_5"
  convolution_param {
    num_output: 32
    bias_term: false
    pad: 1
    kernel_size: 3
    stride: 1
    weight_filler {
      type: "msra"
    }
    bias_filler {
      type: "constant"
    }
    engine: CUDNN
  }
}
layer {
  name: "concat1_5"
  type: "Concat"
  bottom: "concat1_4"
  bottom: "conv1_5"
  top: "concat1_5"
  concat_param {
    axis: 1
  }
}
layer {
  name: "conv1_6/bn"
  type: "BatchNorm"
  bottom: "concat1_5"
  top: "conv1_6/bn"
  param {
    lr_mult: 0
    decay_mult: 0
  }
  param {
    lr_mult: 0
    decay_mult: 0
  }
  param {
    lr_mult: 0
    decay_mult: 0
  }
}
layer {
  name: "conv1_6/scale"
  type: "Scale"
  bottom: "conv1_6/bn"
  top: "conv1_6/bn"
  scale_param {
    filler {
      value: 1
    }
    bias_term: true
    bias_filler {
      value: 0
    }
  }
}
layer {
  name: "relu1_6"
  type: "ReLU"
  bottom: "conv1_6/bn"
  top: "conv1_6/bn"
}
layer {
  name: "conv1_6"
  type: "Convolution"
  bottom: "conv1_6/bn"
  top: "conv1_6"
  convolution_param {
    num_output: 32
    bias_term: false
    pad: 1
    kernel_size: 3
    stride: 1
    weight_filler {
      type: "msra"
    }
    bias_filler {
      type: "constant"
    }
    engine: CUDNN
  }
}
layer {
  name: "concat1_6"
  type: "Concat"
  bottom: "concat1_5"
  bottom: "conv1_6"
  top: "concat1_6"
  concat_param {
    axis: 1
  }
}
layer {
  name: "conv1_7/bn"
  type: "BatchNorm"
  bottom: "concat1_6"
  top: "conv1_7/bn"
  param {
    lr_mult: 0
    decay_mult: 0
  }
  param {
    lr_mult: 0
    decay_mult: 0
  }
  param {
    lr_mult: 0
    decay_mult: 0
  }
}
layer {
  name: "conv1_7/scale"
  type: "Scale"
  bottom: "conv1_7/bn"
  top: "conv1_7/bn"
  scale_param {
    filler {
      value: 1
    }
    bias_term: true
    bias_filler {
      value: 0
    }
  }
}
layer {
  name: "relu1_7"
  type: "ReLU"
  bottom: "conv1_7/bn"
  top: "conv1_7/bn"
}
layer {
  name: "conv1_7"
  type: "Convolution"
  bottom: "conv1_7/bn"
  top: "conv1_7"
  convolution_param {
    num_output: 32
    bias_term: false
    pad: 1
    kernel_size: 3
    stride: 1
    weight_filler {
      type: "msra"
    }
    bias_filler {
      type: "constant"
    }
    engine: CUDNN
  }
}
layer {
  name: "concat1_7"
  type: "Concat"
  bottom: "concat1_6"
  bottom: "conv1_7"
  top: "concat1_7"
  concat_param {
    axis: 1
  }
}
layer {
  name: "conv1_8/bn"
  type: "BatchNorm"
  bottom: "concat1_7"
  top: "conv1_8/bn"
  param {
    lr_mult: 0
    decay_mult: 0
  }
  param {
    lr_mult: 0
    decay_mult: 0
  }
  param {
    lr_mult: 0
    decay_mult: 0
  }
}
layer {
  name: "conv1_8/scale"
  type: "Scale"
  bottom: "conv1_8/bn"
  top: "conv1_8/bn"
  scale_param {
    filler {
      value: 1
    }
    bias_term: true
    bias_filler {
      value: 0
    }
  }
}
layer {
  name: "relu1_8"
  type: "ReLU"
  bottom: "conv1_8/bn"
  top: "conv1_8/bn"
}
layer {
  name: "conv1_8"
  type: "Convolution"
  bottom: "conv1_8/bn"
  top: "conv1_8"
  convolution_param {
    num_output: 32
    bias_term: false
    pad: 1
    kernel_size: 3
    stride: 1
    weight_filler {
      type: "msra"
    }
    bias_filler {
      type: "constant"
    }
    engine: CUDNN
  }
}
layer {
  name: "concat1_8"
  type: "Concat"
  bottom: "concat1_7"
  bottom: "conv1_8"
  top: "concat1_8"
  concat_param {
    axis: 1
  }
}
layer {
  name: "conv1_9/bn"
  type: "BatchNorm"
  bottom: "concat1_8"
  top: "conv1_9/bn"
  param {
    lr_mult: 0
    decay_mult: 0
  }
  param {
    lr_mult: 0
    decay_mult: 0
  }
  param {
    lr_mult: 0
    decay_mult: 0
  }
}
layer {
  name: "conv1_9/scale"
  type: "Scale"
  bottom: "conv1_9/bn"
  top: "conv1_9/bn"
  scale_param {
    filler {
      value: 1
    }
    bias_term: true
    bias_filler {
      value: 0
    }
  }
}
layer {
  name: "relu1_9"
  type: "ReLU"
  bottom: "conv1_9/bn"
  top: "conv1_9/bn"
}
layer {
  name: "conv1_9"
  type: "Convolution"
  bottom: "conv1_9/bn"
  top: "conv1_9"
  convolution_param {
    num_output: 32
    bias_term: false
    pad: 1
    kernel_size: 3
    stride: 1
    weight_filler {
      type: "msra"
    }
    bias_filler {
      type: "constant"
    }
    engine: CUDNN
  }
}
layer {
  name: "concat1_9"
  type: "Concat"
  bottom: "concat1_8"
  bottom: "conv1_9"
  top: "concat1_9"
  concat_param {
    axis: 1
  }
}
layer {
  name: "conv1_10/bn"
  type: "BatchNorm"
  bottom: "concat1_9"
  top: "conv1_10/bn"
  param {
    lr_mult: 0
    decay_mult: 0
  }
  param {
    lr_mult: 0
    decay_mult: 0
  }
  param {
    lr_mult: 0
    decay_mult: 0
  }
}
layer {
  name: "conv1_10/scale"
  type: "Scale"
  bottom: "conv1_10/bn"
  top: "conv1_10/bn"
  scale_param {
    filler {
      value: 1
    }
    bias_term: true
    bias_filler {
      value: 0
    }
  }
}
layer {
  name: "relu1_10"
  type: "ReLU"
  bottom: "conv1_10/bn"
  top: "conv1_10/bn"
}
layer {
  name: "conv1_10"
  type: "Convolution"
  bottom: "conv1_10/bn"
  top: "conv1_10"
  convolution_param {
    num_output: 32
    bias_term: false
    pad: 1
    kernel_size: 3
    stride: 1
    weight_filler {
      type: "msra"
    }
    bias_filler {
      type: "constant"
    }
    engine: CUDNN
  }
}
layer {
  name: "concat1_10"
  type: "Concat"
  bottom: "concat1_9"
  bottom: "conv1_10"
  top: "concat1_10"
  concat_param {
    axis: 1
  }
}
layer {
  name: "conv1_11/bn"
  type: "BatchNorm"
  bottom: "concat1_10"
  top: "conv1_11/bn"
  param {
    lr_mult: 0
    decay_mult: 0
  }
  param {
    lr_mult: 0
    decay_mult: 0
  }
  param {
    lr_mult: 0
    decay_mult: 0
  }
}
layer {
  name: "conv1_11/scale"
  type: "Scale"
  bottom: "conv1_11/bn"
  top: "conv1_11/bn"
  scale_param {
    filler {
      value: 1
    }
    bias_term: true
    bias_filler {
      value: 0
    }
  }
}
layer {
  name: "relu1_11"
  type: "ReLU"
  bottom: "conv1_11/bn"
  top: "conv1_11/bn"
}
layer {
  name: "conv1_11"
  type: "Convolution"
  bottom: "conv1_11/bn"
  top: "conv1_11"
  convolution_param {
    num_output: 32
    bias_term: false
    pad: 1
    kernel_size: 3
    stride: 1
    weight_filler {
      type: "msra"
    }
    bias_filler {
      type: "constant"
    }
    engine: CUDNN
  }
}
layer {
  name: "concat1_11"
  type: "Concat"
  bottom: "concat1_10"
  bottom: "conv1_11"
  top: "concat1_11"
  concat_param {
    axis: 1
  }
}
layer {
  name: "conv1_12/bn"
  type: "BatchNorm"
  bottom: "concat1_11"
  top: "conv1_12/bn"
  param {
    lr_mult: 0
    decay_mult: 0
  }
  param {
    lr_mult: 0
    decay_mult: 0
  }
  param {
    lr_mult: 0
    decay_mult: 0
  }
}
layer {
  name: "conv1_12/scale"
  type: "Scale"
  bottom: "conv1_12/bn"
  top: "conv1_12/bn"
  scale_param {
    filler {
      value: 1
    }
    bias_term: true
    bias_filler {
      value: 0
    }
  }
}
layer {
  name: "relu1_12"
  type: "ReLU"
  bottom: "conv1_12/bn"
  top: "conv1_12/bn"
}
layer {
  name: "conv1_12"
  type: "Convolution"
  bottom: "conv1_12/bn"
  top: "conv1_12"
  convolution_param {
    num_output: 32
    bias_term: false
    pad: 1
    kernel_size: 3
    stride: 1
    weight_filler {
      type: "msra"
    }
    bias_filler {
      type: "constant"
    }
    engine: CUDNN
  }
}
layer {
  name: "concat1_12"
  type: "Concat"
  bottom: "concat1_11"
  bottom: "conv1_12"
  top: "concat1_12"
  concat_param {
    axis: 1
  }
}
layer {
  name: "conv1_13/bn"
  type: "BatchNorm"
  bottom: "concat1_12"
  top: "conv1_13/bn"
  param {
    lr_mult: 0
    decay_mult: 0
  }
  param {
    lr_mult: 0
    decay_mult: 0
  }
  param {
    lr_mult: 0
    decay_mult: 0
  }
}
layer {
  name: "conv1_13/scale"
  type: "Scale"
  bottom: "conv1_13/bn"
  top: "conv1_13/bn"
  scale_param {
    filler {
      value: 1
    }
    bias_term: true
    bias_filler {
      value: 0
    }
  }
}
layer {
  name: "relu1_13"
  type: "ReLU"
  bottom: "conv1_13/bn"
  top: "conv1_13/bn"
}
layer {
  name: "conv1_13"
  type: "Convolution"
  bottom: "conv1_13/bn"
  top: "conv1_13"
  convolution_param {
    num_output: 32
    bias_term: false
    pad: 1
    kernel_size: 3
    stride: 1
    weight_filler {
      type: "msra"
    }
    bias_filler {
      type: "constant"
    }
    engine: CUDNN
  }
}
layer {
  name: "concat1_13"
  type: "Concat"
  bottom: "concat1_12"
  bottom: "conv1_13"
  top: "concat1_13"
  concat_param {
    axis: 1
  }
}
layer {
  name: "conv1_14/bn"
  type: "BatchNorm"
  bottom: "concat1_13"
  top: "conv1_14/bn"
  param {
    lr_mult: 0
    decay_mult: 0
  }
  param {
    lr_mult: 0
    decay_mult: 0
  }
  param {
    lr_mult: 0
    decay_mult: 0
  }
}
layer {
  name: "conv1_14/scale"
  type: "Scale"
  bottom: "conv1_14/bn"
  top: "conv1_14/bn"
  scale_param {
    filler {
      value: 1
    }
    bias_term: true
    bias_filler {
      value: 0
    }
  }
}
layer {
  name: "relu1_14"
  type: "ReLU"
  bottom: "conv1_14/bn"
  top: "conv1_14/bn"
}
layer {
  name: "conv1_14"
  type: "Convolution"
  bottom: "conv1_14/bn"
  top: "conv1_14"
  convolution_param {
    num_output: 32
    bias_term: false
    pad: 1
    kernel_size: 3
    stride: 1
    weight_filler {
      type: "msra"
    }
    bias_filler {
      type: "constant"
    }
    engine: CUDNN
  }
}
layer {
  name: "concat1_14"
  type: "Concat"
  bottom: "concat1_13"
  bottom: "conv1_14"
  top: "concat1_14"
  concat_param {
    axis: 1
  }
}
layer {
  name: "conv1_15/bn"
  type: "BatchNorm"
  bottom: "concat1_14"
  top: "conv1_15/bn"
  param {
    lr_mult: 0
    decay_mult: 0
  }
  param {
    lr_mult: 0
    decay_mult: 0
  }
  param {
    lr_mult: 0
    decay_mult: 0
  }
}
layer {
  name: "conv1_15/scale"
  type: "Scale"
  bottom: "conv1_15/bn"
  top: "conv1_15/bn"
  scale_param {
    filler {
      value: 1
    }
    bias_term: true
    bias_filler {
      value: 0
    }
  }
}
layer {
  name: "relu1_15"
  type: "ReLU"
  bottom: "conv1_15/bn"
  top: "conv1_15/bn"
}
layer {
  name: "conv1_15"
  type: "Convolution"
  bottom: "conv1_15/bn"
  top: "conv1_15"
  convolution_param {
    num_output: 32
    bias_term: false
    pad: 1
    kernel_size: 3
    stride: 1
    weight_filler {
      type: "msra"
    }
    bias_filler {
      type: "constant"
    }
    engine: CUDNN
  }
}
layer {
  name: "concat1_1
I1220 10:21:48.921306  7551 layer_factory.hpp:77] Creating layer word_images
I1220 10:21:48.921397  7551 db_lmdb.cpp:35] Opened lmdb /data/fwolf/min26/gw_cv1_nti500000_pul2-3-4-5_train_word_images_lmdb
I1220 10:21:48.921424  7551 net.cpp:84] Creating Layer word_images
I1220 10:21:48.921430  7551 net.cpp:380] word_images -> word_images
I1220 10:21:48.921440  7551 net.cpp:380] word_images -> label
I1220 10:21:48.922473  7551 data_layer.cpp:44] output data size: 1,1,108,244
I1220 10:21:48.954113  7551 net.cpp:122] Setting up word_images
I1220 10:21:48.954149  7551 net.cpp:129] Top shape: 1 1 108 244 (26352)
I1220 10:21:48.954155  7551 net.cpp:129] Top shape: 1 (1)
I1220 10:21:48.954160  7551 net.cpp:137] Memory required for data: 105412
I1220 10:21:48.954169  7551 layer_factory.hpp:77] Creating layer phocs
I1220 10:21:48.954255  7551 db_lmdb.cpp:35] Opened lmdb /data/fwolf/min26/gw_cv1_nti500000_pul2-3-4-5_train_phocs_lmdb
I1220 10:21:48.954282  7551 net.cpp:84] Creating Layer phocs
I1220 10:21:48.954288  7551 net.cpp:380] phocs -> phocs
I1220 10:21:48.954303  7551 net.cpp:380] phocs -> label_phocs
I1220 10:21:48.954774  7551 data_layer.cpp:44] output data size: 1,1,1,604
I1220 10:21:49.001163  7551 net.cpp:122] Setting up phocs
I1220 10:21:49.001196  7551 net.cpp:129] Top shape: 1 1 1 604 (604)
I1220 10:21:49.001207  7551 net.cpp:129] Top shape: 1 (1)
I1220 10:21:49.001212  7551 net.cpp:137] Memory required for data: 107832
I1220 10:21:49.001219  7551 layer_factory.hpp:77] Creating layer conv_init
I1220 10:21:49.001240  7551 net.cpp:84] Creating Layer conv_init
I1220 10:21:49.001245  7551 net.cpp:406] conv_init <- word_images
I1220 10:21:49.001257  7551 net.cpp:380] conv_init -> conv_init
I1220 10:21:49.565413  7551 net.cpp:122] Setting up conv_init
I1220 10:21:49.565444  7551 net.cpp:129] Top shape: 1 32 108 244 (843264)
I1220 10:21:49.565448  7551 net.cpp:137] Memory required for data: 3480888
I1220 10:21:49.565459  7551 layer_factory.hpp:77] Creating layer bn_init
I1220 10:21:49.565469  7551 net.cpp:84] Creating Layer bn_init
I1220 10:21:49.565474  7551 net.cpp:406] bn_init <- conv_init
I1220 10:21:49.565479  7551 net.cpp:380] bn_init -> bn_init
I1220 10:21:49.565790  7551 net.cpp:122] Setting up bn_init
I1220 10:21:49.565796  7551 net.cpp:129] Top shape: 1 32 108 244 (843264)
I1220 10:21:49.565799  7551 net.cpp:137] Memory required for data: 6853944
I1220 10:21:49.565809  7551 layer_factory.hpp:77] Creating layer scale_init
I1220 10:21:49.565816  7551 net.cpp:84] Creating Layer scale_init
I1220 10:21:49.565819  7551 net.cpp:406] scale_init <- bn_init
I1220 10:21:49.565824  7551 net.cpp:367] scale_init -> bn_init (in-place)
I1220 10:21:49.565874  7551 layer_factory.hpp:77] Creating layer scale_init
I1220 10:21:49.566059  7551 net.cpp:122] Setting up scale_init
I1220 10:21:49.566066  7551 net.cpp:129] Top shape: 1 32 108 244 (843264)
I1220 10:21:49.566068  7551 net.cpp:137] Memory required for data: 10227000
I1220 10:21:49.566074  7551 layer_factory.hpp:77] Creating layer relu_init
I1220 10:21:49.566079  7551 net.cpp:84] Creating Layer relu_init
I1220 10:21:49.566082  7551 net.cpp:406] relu_init <- bn_init
I1220 10:21:49.566087  7551 net.cpp:367] relu_init -> bn_init (in-place)
I1220 10:21:49.567271  7551 net.cpp:122] Setting up relu_init
I1220 10:21:49.567286  7551 net.cpp:129] Top shape: 1 32 108 244 (843264)
I1220 10:21:49.567289  7551 net.cpp:137] Memory required for data: 13600056
I1220 10:21:49.567292  7551 layer_factory.hpp:77] Creating layer pool_init
I1220 10:21:49.567299  7551 net.cpp:84] Creating Layer pool_init
I1220 10:21:49.567302  7551 net.cpp:406] pool_init <- bn_init
I1220 10:21:49.567307  7551 net.cpp:380] pool_init -> pool_init
I1220 10:21:49.567379  7551 net.cpp:122] Setting up pool_init
I1220 10:21:49.567384  7551 net.cpp:129] Top shape: 1 32 55 123 (216480)
I1220 10:21:49.567387  7551 net.cpp:137] Memory required for data: 14465976
I1220 10:21:49.567389  7551 layer_factory.hpp:77] Creating layer pool_init_pool_init_0_split
I1220 10:21:49.567394  7551 net.cpp:84] Creating Layer pool_init_pool_init_0_split
I1220 10:21:49.567397  7551 net.cpp:406] pool_init_pool_init_0_split <- pool_init
I1220 10:21:49.567401  7551 net.cpp:380] pool_init_pool_init_0_split -> pool_init_pool_init_0_split_0
I1220 10:21:49.567406  7551 net.cpp:380] pool_init_pool_init_0_split -> pool_init_pool_init_0_split_1
I1220 10:21:49.567448  7551 net.cpp:122] Setting up pool_init_pool_init_0_split
I1220 10:21:49.567453  7551 net.cpp:129] Top shape: 1 32 55 123 (216480)
I1220 10:21:49.567456  7551 net.cpp:129] Top shape: 1 32 55 123 (216480)
I1220 10:21:49.567458  7551 net.cpp:137] Memory required for data: 16197816
I1220 10:21:49.567461  7551 layer_factory.hpp:77] Creating layer conv0_0/bn
I1220 10:21:49.567466  7551 net.cpp:84] Creating Layer conv0_0/bn
I1220 10:21:49.567469  7551 net.cpp:406] conv0_0/bn <- pool_init_pool_init_0_split_0
I1220 10:21:49.567473  7551 net.cpp:380] conv0_0/bn -> conv0_0/bn
I1220 10:21:49.568437  7551 net.cpp:122] Setting up conv0_0/bn
I1220 10:21:49.568450  7551 net.cpp:129] Top shape: 1 32 55 123 (216480)
I1220 10:21:49.568454  7551 net.cpp:137] Memory required for data: 17063736
I1220 10:21:49.568464  7551 layer_factory.hpp:77] Creating layer conv0_0/scale
I1220 10:21:49.568472  7551 net.cpp:84] Creating Layer conv0_0/scale
I1220 10:21:49.568475  7551 net.cpp:406] conv0_0/scale <- conv0_0/bn
I1220 10:21:49.568485  7551 net.cpp:367] conv0_0/scale -> conv0_0/bn (in-place)
I1220 10:21:49.568538  7551 layer_factory.hpp:77] Creating layer conv0_0/scale
I1220 10:21:49.568701  7551 net.cpp:122] Setting up conv0_0/scale
I1220 10:21:49.568708  7551 net.cpp:129] Top shape: 1 32 55 123 (216480)
I1220 10:21:49.568711  7551 net.cpp:137] Memory required for data: 17929656
I1220 10:21:49.568716  7551 layer_factory.hpp:77] Creating layer relu0_0
I1220 10:21:49.568722  7551 net.cpp:84] Creating Layer relu0_0
I1220 10:21:49.568724  7551 net.cpp:406] relu0_0 <- conv0_0/bn
I1220 10:21:49.568727  7551 net.cpp:367] relu0_0 -> conv0_0/bn (in-place)
I1220 10:21:49.568918  7551 net.cpp:122] Setting up relu0_0
I1220 10:21:49.568928  7551 net.cpp:129] Top shape: 1 32 55 123 (216480)
I1220 10:21:49.568929  7551 net.cpp:137] Memory required for data: 18795576
I1220 10:21:49.568933  7551 layer_factory.hpp:77] Creating layer conv0_0
I1220 10:21:49.568941  7551 net.cpp:84] Creating Layer conv0_0
I1220 10:21:49.568944  7551 net.cpp:406] conv0_0 <- conv0_0/bn
I1220 10:21:49.568949  7551 net.cpp:380] conv0_0 -> conv0_0
I1220 10:21:49.572232  7551 net.cpp:122] Setting up conv0_0
I1220 10:21:49.572263  7551 net.cpp:129] Top shape: 1 32 55 123 (216480)
I1220 10:21:49.572266  7551 net.cpp:137] Memory required for data: 19661496
I1220 10:21:49.572276  7551 layer_factory.hpp:77] Creating layer concat0_0
I1220 10:21:49.572288  7551 net.cpp:84] Creating Layer concat0_0
I1220 10:21:49.572293  7551 net.cpp:406] concat0_0 <- pool_init_pool_init_0_split_1
I1220 10:21:49.572300  7551 net.cpp:406] concat0_0 <- conv0_0
I1220 10:21:49.572307  7551 net.cpp:380] concat0_0 -> concat0_0
I1220 10:21:49.572352  7551 net.cpp:122] Setting up concat0_0
I1220 10:21:49.572360  7551 net.cpp:129] Top shape: 1 64 55 123 (432960)
I1220 10:21:49.572365  7551 net.cpp:137] Memory required for data: 21393336
I1220 10:21:49.572368  7551 layer_factory.hpp:77] Creating layer concat0_0_concat0_0_0_split
I1220 10:21:49.572376  7551 net.cpp:84] Creating Layer concat0_0_concat0_0_0_split
I1220 10:21:49.572379  7551 net.cpp:406] concat0_0_concat0_0_0_split <- concat0_0
I1220 10:21:49.572386  7551 net.cpp:380] concat0_0_concat0_0_0_split -> concat0_0_concat0_0_0_split_0
I1220 10:21:49.572392  7551 net.cpp:380] concat0_0_concat0_0_0_split -> concat0_0_concat0_0_0_split_1
I1220 10:21:49.572450  7551 net.cpp:122] Setting up concat0_0_concat0_0_0_split
I1220 10:21:49.572458  7551 net.cpp:129] Top shape: 1 64 55 123 (432960)
I1220 10:21:49.572463  7551 net.cpp:129] Top shape: 1 64 55 123 (432960)
I1220 10:21:49.572466  7551 net.cpp:137] Memory required for data: 24857016
I1220 10:21:49.572470  7551 layer_factory.hpp:77] Creating layer conv0_1/bn
I1220 10:21:49.572479  7551 net.cpp:84] Creating Layer conv0_1/bn
I1220 10:21:49.572482  7551 net.cpp:406] conv0_1/bn <- concat0_0_concat0_0_0_split_0
I1220 10:21:49.572489  7551 net.cpp:380] conv0_1/bn -> conv0_1/bn
I1220 10:21:49.572856  7551 net.cpp:122] Setting up conv0_1/bn
I1220 10:21:49.572865  7551 net.cpp:129] Top shape: 1 64 55 123 (432960)
I1220 10:21:49.572870  7551 net.cpp:137] Memory required for data: 26588856
I1220 10:21:49.572878  7551 layer_factory.hpp:77] Creating layer conv0_1/scale
I1220 10:21:49.572887  7551 net.cpp:84] Creating Layer conv0_1/scale
I1220 10:21:49.572892  7551 net.cpp:406] conv0_1/scale <- conv0_1/bn
I1220 10:21:49.572898  7551 net.cpp:367] conv0_1/scale -> conv0_1/bn (in-place)
I1220 10:21:49.572963  7551 layer_factory.hpp:77] Creating layer conv0_1/scale
I1220 10:21:49.573179  7551 net.cpp:122] Setting up conv0_1/scale
I1220 10:21:49.573189  7551 net.cpp:129] Top shape: 1 64 55 123 (432960)
I1220 10:21:49.573192  7551 net.cpp:137] Memory required for data: 28320696
I1220 10:21:49.573204  7551 layer_factory.hpp:77] Creating layer relu0_1
I1220 10:21:49.573212  7551 net.cpp:84] Creating Layer relu0_1
I1220 10:21:49.573216  7551 net.cpp:406] relu0_1 <- conv0_1/bn
I1220 10:21:49.573222  7551 net.cpp:367] relu0_1 -> conv0_1/bn (in-place)
I1220 10:21:49.573701  7551 net.cpp:122] Setting up relu0_1
I1220 10:21:49.573720  7551 net.cpp:129] Top shape: 1 64 55 123 (432960)
I1220 10:21:49.573725  7551 net.cpp:137] Memory required for data: 30052536
I1220 10:21:49.573729  7551 layer_factory.hpp:77] Creating layer conv0_1
I1220 10:21:49.573742  7551 net.cpp:84] Creating Layer conv0_1
I1220 10:21:49.573747  7551 net.cpp:406] conv0_1 <- conv0_1/bn
I1220 10:21:49.573755  7551 net.cpp:380] conv0_1 -> conv0_1
I1220 10:21:49.576961  7551 net.cpp:122] Setting up conv0_1
I1220 10:21:49.576985  7551 net.cpp:129] Top shape: 1 32 55 123 (216480)
I1220 10:21:49.576989  7551 net.cpp:137] Memory required for data: 30918456
I1220 10:21:49.576998  7551 layer_factory.hpp:77] Creating layer concat0_1
I1220 10:21:49.577008  7551 net.cpp:84] Creating Layer concat0_1
I1220 10:21:49.577013  7551 net.cpp:406] concat0_1 <- concat0_0_concat0_0_0_split_1
I1220 10:21:49.577020  7551 net.cpp:406] concat0_1 <- conv0_1
I1220 10:21:49.577026  7551 net.cpp:380] concat0_1 -> concat0_1
I1220 10:21:49.577072  7551 net.cpp:122] Setting up concat0_1
I1220 10:21:49.577080  7551 net.cpp:129] Top shape: 1 96 55 123 (649440)
I1220 10:21:49.577085  7551 net.cpp:137] Memory required for data: 33516216
I1220 10:21:49.577090  7551 layer_factory.hpp:77] Creating layer concat0_1_concat0_1_0_split
I1220 10:21:49.577096  7551 net.cpp:84] Creating Layer concat0_1_concat0_1_0_split
I1220 10:21:49.577100  7551 net.cpp:406] concat0_1_concat0_1_0_split <- concat0_1
I1220 10:21:49.577106  7551 net.cpp:380] concat0_1_concat0_1_0_split -> concat0_1_concat0_1_0_split_0
I1220 10:21:49.577113  7551 net.cpp:380] concat0_1_concat0_1_0_split -> concat0_1_concat0_1_0_split_1
I1220 10:21:49.577172  7551 net.cpp:122] Setting up concat0_1_concat0_1_0_split
I1220 10:21:49.577179  7551 net.cpp:129] Top shape: 1 96 55 123 (649440)
I1220 10:21:49.577185  7551 net.cpp:129] Top shape: 1 96 55 123 (649440)
I1220 10:21:49.577189  7551 net.cpp:137] Memory required for data: 38711736
I1220 10:21:49.577193  7551 layer_factory.hpp:77] Creating layer conv0_2/bn
I1220 10:21:49.577200  7551 net.cpp:84] Creating Layer conv0_2/bn
I1220 10:21:49.577205  7551 net.cpp:406] conv0_2/bn <- concat0_1_concat0_1_0_split_0
I1220 10:21:49.577211  7551 net.cpp:380] conv0_2/bn -> conv0_2/bn
I1220 10:21:49.577621  7551 net.cpp:122] Setting up conv0_2/bn
I1220 10:21:49.577630  7551 net.cpp:129] Top shape: 1 96 55 123 (649440)
I1220 10:21:49.577635  7551 net.cpp:137] Memory required for data: 41309496
I1220 10:21:49.577644  7551 layer_factory.hpp:77] Creating layer conv0_2/scale
I1220 10:21:49.577653  7551 net.cpp:84] Creating Layer conv0_2/scale
I1220 10:21:49.577658  7551 net.cpp:406] conv0_2/scale <- conv0_2/bn
I1220 10:21:49.577664  7551 net.cpp:367] conv0_2/scale -> conv0_2/bn (in-place)
I1220 10:21:49.577731  7551 layer_factory.hpp:77] Creating layer conv0_2/scale
I1220 10:21:49.577965  7551 net.cpp:122] Setting up conv0_2/scale
I1220 10:21:49.577975  7551 net.cpp:129] Top shape: 1 96 55 123 (649440)
I1220 10:21:49.577978  7551 net.cpp:137] Memory required for data: 43907256
I1220 10:21:49.577986  7551 layer_factory.hpp:77] Creating layer relu0_2
I1220 10:21:49.577992  7551 net.cpp:84] Creating Layer relu0_2
I1220 10:21:49.577997  7551 net.cpp:406] relu0_2 <- conv0_2/bn
I1220 10:21:49.578002  7551 net.cpp:367] relu0_2 -> conv0_2/bn (in-place)
I1220 10:21:49.578241  7551 net.cpp:122] Setting up relu0_2
I1220 10:21:49.578251  7551 net.cpp:129] Top shape: 1 96 55 123 (649440)
I1220 10:21:49.578255  7551 net.cpp:137] Memory required for data: 46505016
I1220 10:21:49.578259  7551 layer_factory.hpp:77] Creating layer conv0_2
I1220 10:21:49.578274  7551 net.cpp:84] Creating Layer conv0_2
I1220 10:21:49.578279  7551 net.cpp:406] conv0_2 <- conv0_2/bn
I1220 10:21:49.578285  7551 net.cpp:380] conv0_2 -> conv0_2
I1220 10:21:49.581282  7551 net.cpp:122] Setting up conv0_2
I1220 10:21:49.581320  7551 net.cpp:129] Top shape: 1 32 55 123 (216480)
I1220 10:21:49.581324  7551 net.cpp:137] Memory required for data: 47370936
I1220 10:21:49.581336  7551 layer_factory.hpp:77] Creating layer concat0_2
I1220 10:21:49.581353  7551 net.cpp:84] Creating Layer concat0_2
I1220 10:21:49.581359  7551 net.cpp:406] concat0_2 <- concat0_1_concat0_1_0_split_1
I1220 10:21:49.581367  7551 net.cpp:406] concat0_2 <- conv0_2
I1220 10:21:49.581375  7551 net.cpp:380] concat0_2 -> concat0_2
I1220 10:21:49.581430  7551 net.cpp:122] Setting up concat0_2
I1220 10:21:49.581439  7551 net.cpp:129] Top shape: 1 128 55 123 (865920)
I1220 10:21:49.581442  7551 net.cpp:137] Memory required for data: 50834616
I1220 10:21:49.581446  7551 layer_factory.hpp:77] Creating layer concat0_2_concat0_2_0_split
I1220 10:21:49.581454  7551 net.cpp:84] Creating Layer concat0_2_concat0_2_0_split
I1220 10:21:49.581459  7551 net.cpp:406] concat0_2_concat0_2_0_split <- concat0_2
I1220 10:21:49.581465  7551 net.cpp:380] concat0_2_concat0_2_0_split -> concat0_2_concat0_2_0_split_0
I1220 10:21:49.581471  7551 net.cpp:380] concat0_2_concat0_2_0_split -> concat0_2_concat0_2_0_split_1
I1220 10:21:49.581539  7551 net.cpp:122] Setting up concat0_2_concat0_2_0_split
I1220 10:21:49.581547  7551 net.cpp:129] Top shape: 1 128 55 123 (865920)
I1220 10:21:49.581552  7551 net.cpp:129] Top shape: 1 128 55 123 (865920)
I1220 10:21:49.581557  7551 net.cpp:137] Memory required for data: 57761976
I1220 10:21:49.581560  7551 layer_factory.hpp:77] Creating layer conv0_3/bn
I1220 10:21:49.581568  7551 net.cpp:84] Creating Layer conv0_3/bn
I1220 10:21:49.581573  7551 net.cpp:406] conv0_3/bn <- concat0_2_concat0_2_0_split_0
I1220 10:21:49.581579  7551 net.cpp:380] conv0_3/bn -> conv0_3/bn
I1220 10:21:49.581982  7551 net.cpp:122] Setting up conv0_3/bn
I1220 10:21:49.581991  7551 net.cpp:129] Top shape: 1 128 55 123 (865920)
I1220 10:21:49.581995  7551 net.cpp:137] Memory required for data: 61225656
I1220 10:21:49.582006  7551 layer_factory.hpp:77] Creating layer conv0_3/scale
I1220 10:21:49.582017  7551 net.cpp:84] Creating Layer conv0_3/scale
I1220 10:21:49.582022  7551 net.cpp:406] conv0_3/scale <- conv0_3/bn
I1220 10:21:49.582028  7551 net.cpp:367] conv0_3/scale -> conv0_3/bn (in-place)
I1220 10:21:49.582096  7551 layer_factory.hpp:77] Creating layer conv0_3/scale
I1220 10:21:49.582312  7551 net.cpp:122] Setting up conv0_3/scale
I1220 10:21:49.582321  7551 net.cpp:129] Top shape: 1 128 55 123 (865920)
I1220 10:21:49.582325  7551 net.cpp:137] Memory required for data: 64689336
I1220 10:21:49.582332  7551 layer_factory.hpp:77] Creating layer relu0_3
I1220 10:21:49.582340  7551 net.cpp:84] Creating Layer relu0_3
I1220 10:21:49.582345  7551 net.cpp:406] relu0_3 <- conv0_3/bn
I1220 10:21:49.582351  7551 net.cpp:367] relu0_3 -> conv0_3/bn (in-place)
I1220 10:21:49.582949  7551 net.cpp:122] Setting up relu0_3
I1220 10:21:49.582965  7551 net.cpp:129] Top shape: 1 128 55 123 (865920)
I1220 10:21:49.582969  7551 net.cpp:137] Memory required for data: 68153016
I1220 10:21:49.582974  7551 layer_factory.hpp:77] Creating layer conv0_3
I1220 10:21:49.582988  7551 net.cpp:84] Creating Layer conv0_3
I1220 10:21:49.582993  7551 net.cpp:406] conv0_3 <- conv0_3/bn
I1220 10:21:49.583001  7551 net.cpp:380] conv0_3 -> conv0_3
I1220 10:21:49.589329  7551 net.cpp:122] Setting up conv0_3
I1220 10:21:49.589363  7551 net.cpp:129] Top shape: 1 32 55 123 (216480)
I1220 10:21:49.589368  7551 net.cpp:137] Memory required for data: 69018936
I1220 10:21:49.589380  7551 layer_factory.hpp:77] Creating layer concat0_3
I1220 10:21:49.589393  7551 net.cpp:84] Creating Layer concat0_3
I1220 10:21:49.589401  7551 net.cpp:406] concat0_3 <- concat0_2_concat0_2_0_split_1
I1220 10:21:49.589409  7551 net.cpp:406] concat0_3 <- conv0_3
I1220 10:21:49.589416  7551 net.cpp:380] concat0_3 -> concat0_3
I1220 10:21:49.589473  7551 net.cpp:122] Setting up concat0_3
I1220 10:21:49.589481  7551 net.cpp:129] Top shape: 1 160 55 123 (1082400)
I1220 10:21:49.589484  7551 net.cpp:137] Memory required for data: 73348536
I1220 10:21:49.589488  7551 layer_factory.hpp:77] Creating layer concat0_3_concat0_3_0_split
I1220 10:21:49.589498  7551 net.cpp:84] Creating Layer concat0_3_concat0_3_0_split
I1220 10:21:49.589501  7551 net.cpp:406] concat0_3_concat0_3_0_split <- concat0_3
I1220 10:21:49.589512  7551 net.cpp:380] concat0_3_concat0_3_0_split -> concat0_3_concat0_3_0_split_0
I1220 10:21:49.589519  7551 net.cpp:380] concat0_3_concat0_3_0_split -> concat0_3_concat0_3_0_split_1
I1220 10:21:49.589587  7551 net.cpp:122] Setting up concat0_3_concat0_3_0_split
I1220 10:21:49.589594  7551 net.cpp:129] Top shape: 1 160 55 123 (1082400)
I1220 10:21:49.589601  7551 net.cpp:129] Top shape: 1 160 55 123 (1082400)
I1220 10:21:49.589603  7551 net.cpp:137] Memory required for data: 82007736
I1220 10:21:49.589607  7551 layer_factory.hpp:77] Creating layer conv0_4/bn
I1220 10:21:49.589618  7551 net.cpp:84] Creating Layer conv0_4/bn
I1220 10:21:49.589623  7551 net.cpp:406] conv0_4/bn <- concat0_3_concat0_3_0_split_0
I1220 10:21:49.589630  7551 net.cpp:380] conv0_4/bn -> conv0_4/bn
I1220 10:21:49.590054  7551 net.cpp:122] Setting up conv0_4/bn
I1220 10:21:49.590064  7551 net.cpp:129] Top shape: 1 160 55 123 (1082400)
I1220 10:21:49.590067  7551 net.cpp:137] Memory required for data: 86337336
I1220 10:21:49.590083  7551 layer_factory.hpp:77] Creating layer conv0_4/scale
I1220 10:21:49.590093  7551 net.cpp:84] Creating Layer conv0_4/scale
I1220 10:21:49.590098  7551 net.cpp:406] conv0_4/scale <- conv0_4/bn
I1220 10:21:49.590104  7551 net.cpp:367] conv0_4/scale -> conv0_4/bn (in-place)
I1220 10:21:49.590175  7551 layer_factory.hpp:77] Creating layer conv0_4/scale
I1220 10:21:49.590404  7551 net.cpp:122] Setting up conv0_4/scale
I1220 10:21:49.590411  7551 net.cpp:129] Top shape: 1 160 55 123 (1082400)
I1220 10:21:49.590415  7551 net.cpp:137] Memory required for data: 90666936
I1220 10:21:49.590422  7551 layer_factory.hpp:77] Creating layer relu0_4
I1220 10:21:49.590430  7551 net.cpp:84] Creating Layer relu0_4
I1220 10:21:49.590435  7551 net.cpp:406] relu0_4 <- conv0_4/bn
I1220 10:21:49.590441  7551 net.cpp:367] relu0_4 -> conv0_4/bn (in-place)
I1220 10:21:49.591024  7551 net.cpp:122] Setting up relu0_4
I1220 10:21:49.591039  7551 net.cpp:129] Top shape: 1 160 55 123 (1082400)
I1220 10:21:49.591043  7551 net.cpp:137] Memory required for data: 94996536
I1220 10:21:49.591048  7551 layer_factory.hpp:77] Creating layer conv0_4
I1220 10:21:49.591063  7551 net.cpp:84] Creating Layer conv0_4
I1220 10:21:49.591068  7551 net.cpp:406] conv0_4 <- conv0_4/bn
I1220 10:21:49.591076  7551 net.cpp:380] conv0_4 -> conv0_4
I1220 10:21:49.597522  7551 net.cpp:122] Setting up conv0_4
I1220 10:21:49.597556  7551 net.cpp:129] Top shape: 1 32 55 123 (216480)
I1220 10:21:49.597561  7551 net.cpp:137] Memory required for data: 95862456
I1220 10:21:49.597573  7551 layer_factory.hpp:77] Creating layer concat0_4
I1220 10:21:49.597585  7551 net.cpp:84] Creating Layer concat0_4
I1220 10:21:49.597591  7551 net.cpp:406] concat0_4 <- concat0_3_concat0_3_0_split_1
I1220 10:21:49.597600  7551 net.cpp:406] concat0_4 <- conv0_4
I1220 10:21:49.597607  7551 net.cpp:380] concat0_4 -> concat0_4
I1220 10:21:49.597662  7551 net.cpp:122] Setting up concat0_4
I1220 10:21:49.597671  7551 net.cpp:129] Top shape: 1 192 55 123 (1298880)
I1220 10:21:49.597673  7551 net.cpp:137] Memory required for data: 101057976
I1220 10:21:49.597677  7551 layer_factory.hpp:77] Creating layer concat0_4_concat0_4_0_split
I1220 10:21:49.597685  7551 net.cpp:84] Creating Layer concat0_4_concat0_4_0_split
I1220 10:21:49.597690  7551 net.cpp:406] concat0_4_concat0_4_0_split <- concat0_4
I1220 10:21:49.597697  7551 net.cpp:380] concat0_4_concat0_4_0_split -> concat0_4_concat0_4_0_split_0
I1220 10:21:49.597707  7551 net.cpp:380] concat0_4_concat0_4_0_split -> concat0_4_concat0_4_0_split_1
I1220 10:21:49.597771  7551 net.cpp:122] Setting up concat0_4_concat0_4_0_split
I1220 10:21:49.597780  7551 net.cpp:129] Top shape: 1 192 55 123 (1298880)
I1220 10:21:49.597786  7551 net.cpp:129] Top shape: 1 192 55 123 (1298880)
I1220 10:21:49.597790  7551 net.cpp:137] Memory required for data: 111449016
I1220 10:21:49.597793  7551 layer_factory.hpp:77] Creating layer conv0_5/bn
I1220 10:21:49.597802  7551 net.cpp:84] Creating Layer conv0_5/bn
I1220 10:21:49.597806  7551 net.cpp:406] conv0_5/bn <- concat0_4_concat0_4_0_split_0
I1220 10:21:49.597817  7551 net.cpp:380] conv0_5/bn -> conv0_5/bn
I1220 10:21:49.598248  7551 net.cpp:122] Setting up conv0_5/bn
I1220 10:21:49.598258  7551 net.cpp:129] Top shape: 1 192 55 123 (1298880)
I1220 10:21:49.598261  7551 net.cpp:137] Memory required for data: 116644536
I1220 10:21:49.598271  7551 layer_factory.hpp:77] Creating layer conv0_5/scale
I1220 10:21:49.598280  7551 net.cpp:84] Creating Layer conv0_5/scale
I1220 10:21:49.598285  7551 net.cpp:406] conv0_5/scale <- conv0_5/bn
I1220 10:21:49.598292  7551 net.cpp:367] conv0_5/scale -> conv0_5/bn (in-place)
I1220 10:21:49.598366  7551 layer_factory.hpp:77] Creating layer conv0_5/scale
I1220 10:21:49.598608  7551 net.cpp:122] Setting up conv0_5/scale
I1220 10:21:49.598618  7551 net.cpp:129] Top shape: 1 192 55 123 (1298880)
I1220 10:21:49.598621  7551 net.cpp:137] Memory required for data: 121840056
I1220 10:21:49.598628  7551 layer_factory.hpp:77] Creating layer relu0_5
I1220 10:21:49.598639  7551 net.cpp:84] Creating Layer relu0_5
I1220 10:21:49.598642  7551 net.cpp:406] relu0_5 <- conv0_5/bn
I1220 10:21:49.598649  7551 net.cpp:367] relu0_5 -> conv0_5/bn (in-place)
I1220 10:21:49.598906  7551 net.cpp:122] Setting up relu0_5
I1220 10:21:49.598917  7551 net.cpp:129] Top shape: 1 192 55 123 (1298880)
I1220 10:21:49.598922  7551 net.cpp:137] Memory required for data: 127035576
I1220 10:21:49.598925  7551 layer_factory.hpp:77] Creating layer conv0_5
I1220 10:21:49.598938  7551 net.cpp:84] Creating Layer conv0_5
I1220 10:21:49.598943  7551 net.cpp:406] conv0_5 <- conv0_5/bn
I1220 10:21:49.598950  7551 net.cpp:380] conv0_5 -> conv0_5
I1220 10:21:49.604517  7551 net.cpp:122] Setting up conv0_5
I1220 10:21:49.604552  7551 net.cpp:129] Top shape: 1 32 55 123 (216480)
I1220 10:21:49.604557  7551 net.cpp:137] Memory required for data: 127901496
I1220 10:21:49.604568  7551 layer_factory.hpp:77] Creating layer concat0_5
I1220 10:21:49.604580  7551 net.cpp:84] Creating Layer concat0_5
I1220 10:21:49.604588  7551 net.cpp:406] concat0_5 <- concat0_4_concat0_4_0_split_1
I1220 10:21:49.604595  7551 net.cpp:406] concat0_5 <- conv0_5
I1220 10:21:49.604604  7551 net.cpp:380] concat0_5 -> concat0_5
I1220 10:21:49.604658  7551 net.cpp:122] Setting up concat0_5
I1220 10:21:49.604666  7551 net.cpp:129] Top shape: 1 224 55 123 (1515360)
I1220 10:21:49.604671  7551 net.cpp:137] Memory required for data: 133962936
I1220 10:21:49.604674  7551 layer_factory.hpp:77] Creating layer concat0_5_concat0_5_0_split
I1220 10:21:49.604681  7551 net.cpp:84] Creating Layer concat0_5_concat0_5_0_split
I1220 10:21:49.604686  7551 net.cpp:406] concat0_5_concat0_5_0_split <- concat0_5
I1220 10:21:49.604692  7551 net.cpp:380] concat0_5_concat0_5_0_split -> concat0_5_concat0_5_0_split_0
I1220 10:21:49.604699  7551 net.cpp:380] concat0_5_concat0_5_0_split -> concat0_5_concat0_5_0_split_1
I1220 10:21:49.604768  7551 net.cpp:122] Setting up concat0_5_concat0_5_0_split
I1220 10:21:49.604775  7551 net.cpp:129] Top shape: 1 224 55 123 (1515360)
I1220 10:21:49.604780  7551 net.cpp:129] Top shape: 1 224 55 123 (1515360)
I1220 10:21:49.604784  7551 net.cpp:137] Memory required for data: 146085816
I1220 10:21:49.604789  7551 layer_factory.hpp:77] Creating layer conv0_6/bn
I1220 10:21:49.604796  7551 net.cpp:84] Creating Layer conv0_6/bn
I1220 10:21:49.604800  7551 net.cpp:406] conv0_6/bn <- concat0_5_concat0_5_0_split_0
I1220 10:21:49.604807  7551 net.cpp:380] conv0_6/bn -> conv0_6/bn
I1220 10:21:49.605244  7551 net.cpp:122] Setting up conv0_6/bn
I1220 10:21:49.605254  7551 net.cpp:129] Top shape: 1 224 55 123 (1515360)
I1220 10:21:49.605258  7551 net.cpp:137] Memory required for data: 152147256
I1220 10:21:49.605268  7551 layer_factory.hpp:77] Creating layer conv0_6/scale
I1220 10:21:49.605278  7551 net.cpp:84] Creating Layer conv0_6/scale
I1220 10:21:49.605283  7551 net.cpp:406] conv0_6/scale <- conv0_6/bn
I1220 10:21:49.605289  7551 net.cpp:367] conv0_6/scale -> conv0_6/bn (in-place)
I1220 10:21:49.605361  7551 layer_factory.hpp:77] Creating layer conv0_6/scale
I1220 10:21:49.605607  7551 net.cpp:122] Setting up conv0_6/scale
I1220 10:21:49.605615  7551 net.cpp:129] Top shape: 1 224 55 123 (1515360)
I1220 10:21:49.605619  7551 net.cpp:137] Memory required for data: 158208696
I1220 10:21:49.605626  7551 layer_factory.hpp:77] Creating layer relu0_6
I1220 10:21:49.605634  7551 net.cpp:84] Creating Layer relu0_6
I1220 10:21:49.605638  7551 net.cpp:406] relu0_6 <- conv0_6/bn
I1220 10:21:49.605644  7551 net.cpp:367] relu0_6 -> conv0_6/bn (in-place)
I1220 10:21:49.606154  7551 net.cpp:122] Setting up relu0_6
I1220 10:21:49.606168  7551 net.cpp:129] Top shape: 1 224 55 123 (1515360)
I1220 10:21:49.606171  7551 net.cpp:137] Memory required for data: 164270136
I1220 10:21:49.606176  7551 layer_factory.hpp:77] Creating layer conv0_6
I1220 10:21:49.606189  7551 net.cpp:84] Creating Layer conv0_6
I1220 10:21:49.606194  7551 net.cpp:406] conv0_6 <- conv0_6/bn
I1220 10:21:49.606204  7551 net.cpp:380] conv0_6 -> conv0_6
I1220 10:21:49.611451  7551 net.cpp:122] Setting up conv0_6
I1220 10:21:49.611486  7551 net.cpp:129] Top shape: 1 32 55 123 (216480)
I1220 10:21:49.611491  7551 net.cpp:137] Memory required for data: 165136056
I1220 10:21:49.611503  7551 layer_factory.hpp:77] Creating layer concat0_6
I1220 10:21:49.611515  7551 net.cpp:84] Creating Layer concat0_6
I1220 10:21:49.611522  7551 net.cpp:406] concat0_6 <- concat0_5_concat0_5_0_split_1
I1220 10:21:49.611531  7551 net.cpp:406] concat0_6 <- conv0_6
I1220 10:21:49.611538  7551 net.cpp:380] concat0_6 -> concat0_6
I1220 10:21:49.611591  7551 net.cpp:122] Setting up concat0_6
I1220 10:21:49.611599  7551 net.cpp:129] Top shape: 1 256 55 123 (1731840)
I1220 10:21:49.611603  7551 net.cpp:137] Memory required for data: 172063416
I1220 10:21:49.611608  7551 layer_factory.hpp:77] Creating layer concat0_6_concat0_6_0_split
I1220 10:21:49.611613  7551 net.cpp:84] Creating Layer concat0_6_concat0_6_0_split
I1220 10:21:49.611618  7551 net.cpp:406] concat0_6_concat0_6_0_split <- concat0_6
I1220 10:21:49.611626  7551 net.cpp:380] concat0_6_concat0_6_0_split -> concat0_6_concat0_6_0_split_0
I1220 10:21:49.611634  7551 net.cpp:380] concat0_6_concat0_6_0_split -> concat0_6_concat0_6_0_split_1
I1220 10:21:49.611701  7551 net.cpp:122] Setting up concat0_6_concat0_6_0_split
I1220 10:21:49.611709  7551 net.cpp:129] Top shape: 1 256 55 123 (1731840)
I1220 10:21:49.611714  7551 net.cpp:129] Top shape: 1 256 55 123 (1731840)
I1220 10:21:49.611718  7551 net.cpp:137] Memory required for data: 185918136
I1220 10:21:49.611722  7551 layer_factory.hpp:77] Creating layer conv0_7/bn
I1220 10:21:49.611732  7551 net.cpp:84] Creating Layer conv0_7/bn
I1220 10:21:49.611735  7551 net.cpp:406] conv0_7/bn <- concat0_6_concat0_6_0_split_0
I1220 10:21:49.611742  7551 net.cpp:380] conv0_7/bn -> conv0_7/bn
I1220 10:21:49.612185  7551 net.cpp:122] Setting up conv0_7/bn
I1220 10:21:49.612195  7551 net.cpp:129] Top shape: 1 256 55 123 (1731840)
I1220 10:21:49.612200  7551 net.cpp:137] Memory required for data: 192845496
I1220 10:21:49.612210  7551 layer_factory.hpp:77] Creating layer conv0_7/scale
I1220 10:21:49.612221  7551 net.cpp:84] Creating Layer conv0_7/scale
I1220 10:21:49.612226  7551 net.cpp:406] conv0_7/scale <- conv0_7/bn
I1220 10:21:49.612231  7551 net.cpp:367] conv0_7/scale -> conv0_7/bn (in-place)
I1220 10:21:49.612304  7551 layer_factory.hpp:77] Creating layer conv0_7/scale
I1220 10:21:49.612525  7551 net.cpp:122] Setting up conv0_7/scale
I1220 10:21:49.612534  7551 net.cpp:129] Top shape: 1 256 55 123 (1731840)
I1220 10:21:49.612538  7551 net.cpp:137] Memory required for data: 199772856
I1220 10:21:49.612545  7551 layer_factory.hpp:77] Creating layer relu0_7
I1220 10:21:49.612555  7551 net.cpp:84] Creating Layer relu0_7
I1220 10:21:49.612558  7551 net.cpp:406] relu0_7 <- conv0_7/bn
I1220 10:21:49.612565  7551 net.cpp:367] relu0_7 -> conv0_7/bn (in-place)
I1220 10:21:49.612804  7551 net.cpp:122] Setting up relu0_7
I1220 10:21:49.612815  7551 net.cpp:129] Top shape: 1 256 55 123 (1731840)
I1220 10:21:49.612820  7551 net.cpp:137] Memory required for data: 206700216
I1220 10:21:49.612828  7551 layer_factory.hpp:77] Creating layer conv0_7
I1220 10:21:49.612841  7551 net.cpp:84] Creating Layer conv0_7
I1220 10:21:49.612845  7551 net.cpp:406] conv0_7 <- conv0_7/bn
I1220 10:21:49.612853  7551 net.cpp:380] conv0_7 -> conv0_7
I1220 10:21:49.619647  7551 net.cpp:122] Setting up conv0_7
I1220 10:21:49.619683  7551 net.cpp:129] Top shape: 1 32 55 123 (216480)
I1220 10:21:49.619688  7551 net.cpp:137] Memory required for data: 207566136
I1220 10:21:49.619699  7551 layer_factory.hpp:77] Creating layer concat0_7
I1220 10:21:49.619712  7551 net.cpp:84] Creating Layer concat0_7
I1220 10:21:49.619719  7551 net.cpp:406] concat0_7 <- concat0_6_concat0_6_0_split_1
I1220 10:21:49.619726  7551 net.cpp:406] concat0_7 <- conv0_7
I1220 10:21:49.619735  7551 net.cpp:380] concat0_7 -> concat0_7
I1220 10:21:49.619796  7551 net.cpp:122] Setting up concat0_7
I1220 10:21:49.619804  7551 net.cpp:129] Top shape: 1 288 55 123 (1948320)
I1220 10:21:49.619808  7551 net.cpp:137] Memory required for data: 215359416
I1220 10:21:49.619812  7551 layer_factory.hpp:77] Creating layer concat0_7_concat0_7_0_split
I1220 10:21:49.619819  7551 net.cpp:84] Creating Layer concat0_7_concat0_7_0_split
I1220 10:21:49.619823  7551 net.cpp:406] concat0_7_concat0_7_0_split <- concat0_7
I1220 10:21:49.619832  7551 net.cpp:380] concat0_7_concat0_7_0_split -> concat0_7_concat0_7_0_split_0
I1220 10:21:49.619839  7551 net.cpp:380] concat0_7_concat0_7_0_split -> concat0_7_concat0_7_0_split_1
I1220 10:21:49.619910  7551 net.cpp:122] Setting up concat0_7_concat0_7_0_split
I1220 10:21:49.619916  7551 net.cpp:129] Top shape: 1 288 55 123 (1948320)
I1220 10:21:49.619922  7551 net.cpp:129] Top shape: 1 288 55 123 (1948320)
I1220 10:21:49.619925  7551 net.cpp:137] Memory required for data: 230945976
I1220 10:21:49.619930  7551 layer_factory.hpp:77] Creating layer conv0_8/bn
I1220 10:21:49.619938  7551 net.cpp:84] Creating Layer conv0_8/bn
I1220 10:21:49.619942  7551 net.cpp:406] conv0_8/bn <- concat0_7_concat0_7_0_split_0
I1220 10:21:49.619949  7551 net.cpp:380] conv0_8/bn -> conv0_8/bn
I1220 10:21:49.620411  7551 net.cpp:122] Setting up conv0_8/bn
I1220 10:21:49.620419  7551 net.cpp:129] Top shape: 1 288 55 123 (1948320)
I1220 10:21:49.620424  7551 net.cpp:137] Memory required for data: 238739256
I1220 10:21:49.620434  7551 layer_factory.hpp:77] Creating layer conv0_8/scale
I1220 10:21:49.620443  7551 net.cpp:84] Creating Layer conv0_8/scale
I1220 10:21:49.620448  7551 net.cpp:406] conv0_8/scale <- conv0_8/bn
I1220 10:21:49.620455  7551 net.cpp:367] conv0_8/scale -> conv0_8/bn (in-place)
I1220 10:21:49.620533  7551 layer_factory.hpp:77] Creating layer conv0_8/scale
I1220 10:21:49.620779  7551 net.cpp:122] Setting up conv0_8/scale
I1220 10:21:49.620787  7551 net.cpp:129] Top shape: 1 288 55 123 (1948320)
I1220 10:21:49.620791  7551 net.cpp:137] Memory required for data: 246532536
I1220 10:21:49.620798  7551 layer_factory.hpp:77] Creating layer relu0_8
I1220 10:21:49.620806  7551 net.cpp:84] Creating Layer relu0_8
I1220 10:21:49.620810  7551 net.cpp:406] relu0_8 <- conv0_8/bn
I1220 10:21:49.620816  7551 net.cpp:367] relu0_8 -> conv0_8/bn (in-place)
I1220 10:21:49.621304  7551 net.cpp:122] Setting up relu0_8
I1220 10:21:49.621317  7551 net.cpp:129] Top shape: 1 288 55 123 (1948320)
I1220 10:21:49.621322  7551 net.cpp:137] Memory required for data: 254325816
I1220 10:21:49.621326  7551 layer_factory.hpp:77] Creating layer conv0_8
I1220 10:21:49.621340  7551 net.cpp:84] Creating Layer conv0_8
I1220 10:21:49.621345  7551 net.cpp:406] conv0_8 <- conv0_8/bn
I1220 10:21:49.621352  7551 net.cpp:380] conv0_8 -> conv0_8
I1220 10:21:49.628742  7551 net.cpp:122] Setting up conv0_8
I1220 10:21:49.628778  7551 net.cpp:129] Top shape: 1 32 55 123 (216480)
I1220 10:21:49.628782  7551 net.cpp:137] Memory required for data: 255191736
I1220 10:21:49.628794  7551 layer_factory.hpp:77] Creating layer concat0_8
I1220 10:21:49.628808  7551 net.cpp:84] Creating Layer concat0_8
I1220 10:21:49.628814  7551 net.cpp:406] concat0_8 <- concat0_7_concat0_7_0_split_1
I1220 10:21:49.628823  7551 net.cpp:406] concat0_8 <- conv0_8
I1220 10:21:49.628835  7551 net.cpp:380] concat0_8 -> concat0_8
I1220 10:21:49.628897  7551 net.cpp:122] Setting up concat0_8
I1220 10:21:49.628906  7551 net.cpp:129] Top shape: 1 320 55 123 (2164800)
I1220 10:21:49.628909  7551 net.cpp:137] Memory required for data: 263850936
I1220 10:21:49.628913  7551 layer_factory.hpp:77] Creating layer concat0_8_concat0_8_0_split
I1220 10:21:49.628921  7551 net.cpp:84] Creating Layer concat0_8_concat0_8_0_split
I1220 10:21:49.628924  7551 net.cpp:406] concat0_8_concat0_8_0_split <- concat0_8
I1220 10:21:49.628931  7551 net.cpp:380] concat0_8_concat0_8_0_split -> concat0_8_concat0_8_0_split_0
I1220 10:21:49.628938  7551 net.cpp:380] concat0_8_concat0_8_0_split -> concat0_8_concat0_8_0_split_1
I1220 10:21:49.629010  7551 net.cpp:122] Setting up concat0_8_concat0_8_0_split
I1220 10:21:49.629017  7551 net.cpp:129] Top shape: 1 320 55 123 (2164800)
I1220 10:21:49.629022  7551 net.cpp:129] Top shape: 1 320 55 123 (2164800)
I1220 10:21:49.629026  7551 net.cpp:137] Memory required for data: 281169336
I1220 10:21:49.629030  7551 layer_factory.hpp:77] Creating layer conv0_9/bn
I1220 10:21:49.629037  7551 net.cpp:84] Creating Layer conv0_9/bn
I1220 10:21:49.629042  7551 net.cpp:406] conv0_9/bn <- concat0_8_concat0_8_0_split_0
I1220 10:21:49.629050  7551 net.cpp:380] conv0_9/bn -> conv0_9/bn
I1220 10:21:49.629523  7551 net.cpp:122] Setting up conv0_9/bn
I1220 10:21:49.629532  7551 net.cpp:129] Top shape: 1 320 55 123 (2164800)
I1220 10:21:49.629536  7551 net.cpp:137] Memory required for data: 289828536
I1220 10:21:49.629546  7551 layer_factory.hpp:77] Creating layer conv0_9/scale
I1220 10:21:49.629556  7551 net.cpp:84] Creating Layer conv0_9/scale
I1220 10:21:49.629561  7551 net.cpp:406] conv0_9/scale <- conv0_9/bn
I1220 10:21:49.629567  7551 net.cpp:367] conv0_9/scale -> conv0_9/bn (in-place)
I1220 10:21:49.629647  7551 layer_factory.hpp:77] Creating layer conv0_9/scale
I1220 10:21:49.629899  7551 net.cpp:122] Setting up conv0_9/scale
I1220 10:21:49.629909  7551 net.cpp:129] Top shape: 1 320 55 123 (2164800)
I1220 10:21:49.629912  7551 net.cpp:137] Memory required for data: 298487736
I1220 10:21:49.629927  7551 layer_factory.hpp:77] Creating layer relu0_9
I1220 10:21:49.629938  7551 net.cpp:84] Creating Layer relu0_9
I1220 10:21:49.629943  7551 net.cpp:406] relu0_9 <- conv0_9/bn
I1220 10:21:49.629950  7551 net.cpp:367] relu0_9 -> conv0_9/bn (in-place)
I1220 10:21:49.630513  7551 net.cpp:122] Setting up relu0_9
I1220 10:21:49.630527  7551 net.cpp:129] Top shape: 1 320 55 123 (2164800)
I1220 10:21:49.630530  7551 net.cpp:137] Memory required for data: 307146936
I1220 10:21:49.630537  7551 layer_factory.hpp:77] Creating layer conv0_9
I1220 10:21:49.630549  7551 net.cpp:84] Creating Layer conv0_9
I1220 10:21:49.630554  7551 net.cpp:406] conv0_9 <- conv0_9/bn
I1220 10:21:49.630564  7551 net.cpp:380] conv0_9 -> conv0_9
I1220 10:21:49.635953  7551 net.cpp:122] Setting up conv0_9
I1220 10:21:49.635987  7551 net.cpp:129] Top shape: 1 32 55 123 (216480)
I1220 10:21:49.635992  7551 net.cpp:137] Memory required for data: 308012856
I1220 10:21:49.636003  7551 layer_factory.hpp:77] Creating layer concat0_9
I1220 10:21:49.636018  7551 net.cpp:84] Creating Layer concat0_9
I1220 10:21:49.636024  7551 net.cpp:406] concat0_9 <- concat0_8_concat0_8_0_split_1
I1220 10:21:49.636032  7551 net.cpp:406] concat0_9 <- conv0_9
I1220 10:21:49.636039  7551 net.cpp:380] concat0_9 -> concat0_9
I1220 10:21:49.636096  7551 net.cpp:122] Setting up concat0_9
I1220 10:21:49.636103  7551 net.cpp:129] Top shape: 1 352 55 123 (2381280)
I1220 10:21:49.636107  7551 net.cpp:137] Memory required for data: 317537976
I1220 10:21:49.636111  7551 layer_factory.hpp:77] Creating layer concat0_9_concat0_9_0_split
I1220 10:21:49.636121  7551 net.cpp:84] Creating Layer concat0_9_concat0_9_0_split
I1220 10:21:49.636124  7551 net.cpp:406] concat0_9_concat0_9_0_split <- concat0_9
I1220 10:21:49.636131  7551 net.cpp:380] concat0_9_concat0_9_0_split -> concat0_9_concat0_9_0_split_0
I1220 10:21:49.636138  7551 net.cpp:380] concat0_9_concat0_9_0_split -> concat0_9_concat0_9_0_split_1
I1220 10:21:49.636212  7551 net.cpp:122] Setting up concat0_9_concat0_9_0_split
I1220 10:21:49.636219  7551 net.cpp:129] Top shape: 1 352 55 123 (2381280)
I1220 10:21:49.636225  7551 net.cpp:129] Top shape: 1 352 55 123 (2381280)
I1220 10:21:49.636229  7551 net.cpp:137] Memory required for data: 336588216
I1220 10:21:49.636234  7551 layer_factory.hpp:77] Creating layer conv0_10/bn
I1220 10:21:49.636241  7551 net.cpp:84] Creating Layer conv0_10/bn
I1220 10:21:49.636246  7551 net.cpp:406] conv0_10/bn <- concat0_9_concat0_9_0_split_0
I1220 10:21:49.636253  7551 net.cpp:380] conv0_10/bn -> conv0_10/bn
I1220 10:21:49.636732  7551 net.cpp:122] Setting up conv0_10/bn
I1220 10:21:49.636741  7551 net.cpp:129] Top shape: 1 352 55 123 (2381280)
I1220 10:21:49.636745  7551 net.cpp:137] Memory required for data: 346113336
I1220 10:21:49.636756  7551 layer_factory.hpp:77] Creating layer conv0_10/scale
I1220 10:21:49.636766  7551 net.cpp:84] Creating Layer conv0_10/scale
I1220 10:21:49.636770  7551 net.cpp:406] conv0_10/scale <- conv0_10/bn
I1220 10:21:49.636776  7551 net.cpp:367] conv0_10/scale -> conv0_10/bn (in-place)
I1220 10:21:49.636857  7551 layer_factory.hpp:77] Creating layer conv0_10/scale
I1220 10:21:49.637112  7551 net.cpp:122] Setting up conv0_10/scale
I1220 10:21:49.637121  7551 net.cpp:129] Top shape: 1 352 55 123 (2381280)
I1220 10:21:49.637125  7551 net.cpp:137] Memory required for data: 355638456
I1220 10:21:49.637132  7551 layer_factory.hpp:77] Creating layer relu0_10
I1220 10:21:49.637140  7551 net.cpp:84] Creating Layer relu0_10
I1220 10:21:49.637145  7551 net.cpp:406] relu0_10 <- conv0_10/bn
I1220 10:21:49.637151  7551 net.cpp:367] relu0_10 -> conv0_10/bn (in-place)
I1220 10:21:49.637390  7551 net.cpp:122] Setting up relu0_10
I1220 10:21:49.637400  7551 net.cpp:129] Top shape: 1 352 55 123 (2381280)
I1220 10:21:49.637404  7551 net.cpp:137] Memory required for data: 365163576
I1220 10:21:49.637408  7551 layer_factory.hpp:77] Creating layer conv0_10
I1220 10:21:49.637420  7551 net.cpp:84] Creating Layer conv0_10
I1220 10:21:49.637425  7551 net.cpp:406] conv0_10 <- conv0_10/bn
I1220 10:21:49.637434  7551 net.cpp:380] conv0_10 -> conv0_10
I1220 10:21:49.644659  7551 net.cpp:122] Setting up conv0_10
I1220 10:21:49.644696  7551 net.cpp:129] Top shape: 1 32 55 123 (216480)
I1220 10:21:49.644701  7551 net.cpp:137] Memory required for data: 366029496
I1220 10:21:49.644713  7551 layer_factory.hpp:77] Creating layer concat0_10
I1220 10:21:49.644728  7551 net.cpp:84] Creating Layer concat0_10
I1220 10:21:49.644737  7551 net.cpp:406] concat0_10 <- concat0_9_concat0_9_0_split_1
I1220 10:21:49.644745  7551 net.cpp:406] concat0_10 <- conv0_10
I1220 10:21:49.644752  7551 net.cpp:380] concat0_10 -> concat0_10
I1220 10:21:49.644815  7551 net.cpp:122] Setting up concat0_10
I1220 10:21:49.644827  7551 net.cpp:129] Top shape: 1 384 55 123 (2597760)
I1220 10:21:49.644831  7551 net.cpp:137] Memory required for data: 376420536
I1220 10:21:49.644835  7551 layer_factory.hpp:77] Creating layer concat0_10_concat0_10_0_split
I1220 10:21:49.644842  7551 net.cpp:84] Creating Layer concat0_10_concat0_10_0_split
I1220 10:21:49.644846  7551 net.cpp:406] concat0_10_concat0_10_0_split <- concat0_10
I1220 10:21:49.644852  7551 net.cpp:380] concat0_10_concat0_10_0_split -> concat0_10_concat0_10_0_split_0
I1220 10:21:49.644860  7551 net.cpp:380] concat0_10_concat0_10_0_split -> concat0_10_concat0_10_0_split_1
I1220 10:21:49.644932  7551 net.cpp:122] Setting up concat0_10_concat0_10_0_split
I1220 10:21:49.644940  7551 net.cpp:129] Top shape: 1 384 55 123 (2597760)
I1220 10:21:49.644945  7551 net.cpp:129] Top shape: 1 384 55 123 (2597760)
I1220 10:21:49.644949  7551 net.cpp:137] Memory required for data: 397202616
I1220 10:21:49.644953  7551 layer_factory.hpp:77] Creating layer conv0_11/bn
I1220 10:21:49.644965  7551 net.cpp:84] Creating Layer conv0_11/bn
I1220 10:21:49.644969  7551 net.cpp:406] conv0_11/bn <- concat0_10_concat0_10_0_split_0
I1220 10:21:49.644975  7551 net.cpp:380] conv0_11/bn -> conv0_11/bn
I1220 10:21:49.645470  7551 net.cpp:122] Setting up conv0_11/bn
I1220 10:21:49.645481  7551 net.cpp:129] Top shape: 1 384 55 123 (2597760)
I1220 10:21:49.645486  7551 net.cpp:137] Memory required for data: 407593656
I1220 10:21:49.645498  7551 layer_factory.hpp:77] Creating layer conv0_11/scale
I1220 10:21:49.645507  7551 net.cpp:84] Creating Layer conv0_11/scale
I1220 10:21:49.645512  7551 net.cpp:406] conv0_11/scale <- conv0_11/bn
I1220 10:21:49.645519  7551 net.cpp:367] conv0_11/scale -> conv0_11/bn (in-place)
I1220 10:21:49.645591  7551 layer_factory.hpp:77] Creating layer conv0_11/scale
I1220 10:21:49.645834  7551 net.cpp:122] Setting up conv0_11/scale
I1220 10:21:49.645843  7551 net.cpp:129] Top shape: 1 384 55 123 (2597760)
I1220 10:21:49.645848  7551 net.cpp:137] Memory required for data: 417984696
I1220 10:21:49.645855  7551 layer_factory.hpp:77] Creating layer relu0_11
I1220 10:21:49.645864  7551 net.cpp:84] Creating Layer relu0_11
I1220 10:21:49.645869  7551 net.cpp:406] relu0_11 <- conv0_11/bn
I1220 10:21:49.645874  7551 net.cpp:367] relu0_11 -> conv0_11/bn (in-place)
I1220 10:21:49.646471  7551 net.cpp:122] Setting up relu0_11
I1220 10:21:49.646484  7551 net.cpp:129] Top shape: 1 384 55 123 (2597760)
I1220 10:21:49.646489  7551 net.cpp:137] Memory required for data: 428375736
I1220 10:21:49.646493  7551 layer_factory.hpp:77] Creating layer conv0_11
I1220 10:21:49.646510  7551 net.cpp:84] Creating Layer conv0_11
I1220 10:21:49.646515  7551 net.cpp:406] conv0_11 <- conv0_11/bn
I1220 10:21:49.646523  7551 net.cpp:380] conv0_11 -> conv0_11
I1220 10:21:49.653497  7551 net.cpp:122] Setting up conv0_11
I1220 10:21:49.653524  7551 net.cpp:129] Top shape: 1 32 55 123 (216480)
I1220 10:21:49.653528  7551 net.cpp:137] Memory required for data: 429241656
I1220 10:21:49.653537  7551 layer_factory.hpp:77] Creating layer concat0_11
I1220 10:21:49.653548  7551 net.cpp:84] Creating Layer concat0_11
I1220 10:21:49.653554  7551 net.cpp:406] concat0_11 <- concat0_10_concat0_10_0_split_1
I1220 10:21:49.653559  7551 net.cpp:406] concat0_11 <- conv0_11
I1220 10:21:49.653565  7551 net.cpp:380] concat0_11 -> concat0_11
I1220 10:21:49.653609  7551 net.cpp:122] Setting up concat0_11
I1220 10:21:49.653615  7551 net.cpp:129] Top shape: 1 416 55 123 (2814240)
I1220 10:21:49.653617  7551 net.cpp:137] Memory required for data: 440498616
I1220 10:21:49.653620  7551 layer_factory.hpp:77] Creating layer BatchNorm1
I1220 10:21:49.653626  7551 net.cpp:84] Creating Layer BatchNorm1
I1220 10:21:49.653630  7551 net.cpp:406] BatchNorm1 <- concat0_11
I1220 10:21:49.653633  7551 net.cpp:380] BatchNorm1 -> BatchNorm1
I1220 10:21:49.653981  7551 net.cpp:122] Setting up BatchNorm1
I1220 10:21:49.653988  7551 net.cpp:129] Top shape: 1 416 55 123 (2814240)
I1220 10:21:49.653990  7551 net.cpp:137] Memory required for data: 451755576
I1220 10:21:49.653996  7551 layer_factory.hpp:77] Creating layer Scale1
I1220 10:21:49.654003  7551 net.cpp:84] Creating Layer Scale1
I1220 10:21:49.654006  7551 net.cpp:406] Scale1 <- BatchNorm1
I1220 10:21:49.654011  7551 net.cpp:367] Scale1 -> BatchNorm1 (in-place)
I1220 10:21:49.654074  7551 layer_factory.hpp:77] Creating layer Scale1
I1220 10:21:49.654891  7551 net.cpp:122] Setting up Scale1
I1220 10:21:49.654901  7551 net.cpp:129] Top shape: 1 416 55 123 (2814240)
I1220 10:21:49.654903  7551 net.cpp:137] Memory required for data: 463012536
I1220 10:21:49.654909  7551 layer_factory.hpp:77] Creating layer ReLU1
I1220 10:21:49.654916  7551 net.cpp:84] Creating Layer ReLU1
I1220 10:21:49.654918  7551 net.cpp:406] ReLU1 <- BatchNorm1
I1220 10:21:49.654922  7551 net.cpp:367] ReLU1 -> BatchNorm1 (in-place)
I1220 10:21:49.655123  7551 net.cpp:122] Setting up ReLU1
I1220 10:21:49.655130  7551 net.cpp:129] Top shape: 1 416 55 123 (2814240)
I1220 10:21:49.655133  7551 net.cpp:137] Memory required for data: 474269496
I1220 10:21:49.655135  7551 layer_factory.hpp:77] Creating layer conv0_blk
I1220 10:21:49.655144  7551 net.cpp:84] Creating Layer conv0_blk
I1220 10:21:49.655148  7551 net.cpp:406] conv0_blk <- BatchNorm1
I1220 10:21:49.655156  7551 net.cpp:380] conv0_blk -> conv0_blk
I1220 10:21:49.662551  7551 net.cpp:122] Setting up conv0_blk
I1220 10:21:49.662578  7551 net.cpp:129] Top shape: 1 416 55 123 (2814240)
I1220 10:21:49.662581  7551 net.cpp:137] Memory required for data: 485526456
I1220 10:21:49.662590  7551 layer_factory.hpp:77] Creating layer pool0
I1220 10:21:49.662600  7551 net.cpp:84] Creating Layer pool0
I1220 10:21:49.662605  7551 net.cpp:406] pool0 <- conv0_blk
I1220 10:21:49.662612  7551 net.cpp:380] pool0 -> pool0
I1220 10:21:49.664013  7551 net.cpp:122] Setting up pool0
I1220 10:21:49.664026  7551 net.cpp:129] Top shape: 1 416 28 62 (722176)
I1220 10:21:49.664027  7551 net.cpp:137] Memory required for data: 488415160
I1220 10:21:49.664031  7551 layer_factory.hpp:77] Creating layer pool0_pool0_0_split
I1220 10:21:49.664036  7551 net.cpp:84] Creating Layer pool0_pool0_0_split
I1220 10:21:49.664041  7551 net.cpp:406] pool0_pool0_0_split <- pool0
I1220 10:21:49.664044  7551 net.cpp:380] pool0_pool0_0_split -> pool0_pool0_0_split_0
I1220 10:21:49.664049  7551 net.cpp:380] pool0_pool0_0_split -> pool0_pool0_0_split_1
I1220 10:21:49.664113  7551 net.cpp:122] Setting up pool0_pool0_0_split
I1220 10:21:49.664119  7551 net.cpp:129] Top shape: 1 416 28 62 (722176)
I1220 10:21:49.664121  7551 net.cpp:129] Top shape: 1 416 28 62 (722176)
I1220 10:21:49.664124  7551 net.cpp:137] Memory required for data: 494192568
I1220 10:21:49.664126  7551 layer_factory.hpp:77] Creating layer conv1_0/bn
I1220 10:21:49.664131  7551 net.cpp:84] Creating Layer conv1_0/bn
I1220 10:21:49.664134  7551 net.cpp:406] conv1_0/bn <- pool0_pool0_0_split_0
I1220 10:21:49.664139  7551 net.cpp:380] conv1_0/bn -> conv1_0/bn
I1220 10:21:49.665120  7551 net.cpp:122] Setting up conv1_0/bn
I1220 10:21:49.665132  7551 net.cpp:129] Top shape: 1 416 28 62 (722176)
I1220 10:21:49.665134  7551 net.cpp:137] Memory required for data: 497081272
I1220 10:21:49.665141  7551 layer_factory.hpp:77] Creating layer conv1_0/scale
I1220 10:21:49.665148  7551 net.cpp:84] Creating Layer conv1_0/scale
I1220 10:21:49.665151  7551 net.cpp:406] conv1_0/scale <- conv1_0/bn
I1220 10:21:49.665158  7551 net.cpp:367] conv1_0/scale -> conv1_0/bn (in-place)
I1220 10:21:49.665225  7551 layer_factory.hpp:77] Creating layer conv1_0/scale
I1220 10:21:49.665417  7551 net.cpp:122] Setting up conv1_0/scale
I1220 10:21:49.665423  7551 net.cpp:129] Top shape: 1 416 28 62 (722176)
I1220 10:21:49.665426  7551 net.cpp:137] Memory required for data: 499969976
I1220 10:21:49.665431  7551 layer_factory.hpp:77] Creating layer relu1_0
I1220 10:21:49.665437  7551 net.cpp:84] Creating Layer relu1_0
I1220 10:21:49.665439  7551 net.cpp:406] relu1_0 <- conv1_0/bn
I1220 10:21:49.665443  7551 net.cpp:367] relu1_0 -> conv1_0/bn (in-place)
I1220 10:21:49.665844  7551 net.cpp:122] Setting up relu1_0
I1220 10:21:49.665853  7551 net.cpp:129] Top shape: 1 416 28 62 (722176)
I1220 10:21:49.665856  7551 net.cpp:137] Memory required for data: 502858680
I1220 10:21:49.665859  7551 layer_factory.hpp:77] Creating layer conv1_0
I1220 10:21:49.665869  7551 net.cpp:84] Creating Layer conv1_0
I1220 10:21:49.665874  7551 net.cpp:406] conv1_0 <- conv1_0/bn
I1220 10:21:49.665879  7551 net.cpp:380] conv1_0 -> conv1_0
I1220 10:21:49.672396  7551 net.cpp:122] Setting up conv1_0
I1220 10:21:49.672427  7551 net.cpp:129] Top shape: 1 32 28 62 (55552)
I1220 10:21:49.672430  7551 net.cpp:137] Memory required for data: 503080888
I1220 10:21:49.672439  7551 layer_factory.hpp:77] Creating layer concat1_0
I1220 10:21:49.672451  7551 net.cpp:84] Creating Layer concat1_0
I1220 10:21:49.672456  7551 net.cpp:406] concat1_0 <- pool0_pool0_0_split_1
I1220 10:21:49.672461  7551 net.cpp:406] concat1_0 <- conv1_0
I1220 10:21:49.672467  7551 net.cpp:380] concat1_0 -> concat1_0
I1220 10:21:49.672514  7551 net.cpp:122] Setting up concat1_0
I1220 10:21:49.672519  7551 net.cpp:129] Top shape: 1 448 28 62 (777728)
I1220 10:21:49.672523  7551 net.cpp:137] Memory required for data: 506191800
I1220 10:21:49.672524  7551 layer_factory.hpp:77] Creating layer concat1_0_concat1_0_0_split
I1220 10:21:49.672534  7551 net.cpp:84] Creating Layer concat1_0_concat1_0_0_split
I1220 10:21:49.672536  7551 net.cpp:406] concat1_0_concat1_0_0_split <- concat1_0
I1220 10:21:49.672541  7551 net.cpp:380] concat1_0_concat1_0_0_split -> concat1_0_concat1_0_0_split_0
I1220 10:21:49.672546  7551 net.cpp:380] concat1_0_concat1_0_0_split -> concat1_0_concat1_0_0_split_1
I1220 10:21:49.672605  7551 net.cpp:122] Setting up concat1_0_concat1_0_0_split
I1220 10:21:49.672610  7551 net.cpp:129] Top shape: 1 448 28 62 (777728)
I1220 10:21:49.672612  7551 net.cpp:129] Top shape: 1 448 28 62 (777728)
I1220 10:21:49.672616  7551 net.cpp:137] Memory required for data: 512413624
I1220 10:21:49.672617  7551 layer_factory.hpp:77] Creating layer conv1_1/bn
I1220 10:21:49.672623  7551 net.cpp:84] Creating Layer conv1_1/bn
I1220 10:21:49.672626  7551 net.cpp:406] conv1_1/bn <- concat1_0_concat1_0_0_split_0
I1220 10:21:49.672631  7551 net.cpp:380] conv1_1/bn -> conv1_1/bn
I1220 10:21:49.672991  7551 net.cpp:122] Setting up conv1_1/bn
I1220 10:21:49.672997  7551 net.cpp:129] Top shape: 1 448 28 62 (777728)
I1220 10:21:49.673000  7551 net.cpp:137] Memory required for data: 515524536
I1220 10:21:49.673007  7551 layer_factory.hpp:77] Creating layer conv1_1/scale
I1220 10:21:49.673013  7551 net.cpp:84] Creating Layer conv1_1/scale
I1220 10:21:49.673017  7551 net.cpp:406] conv1_1/scale <- conv1_1/bn
I1220 10:21:49.673022  7551 net.cpp:367] conv1_1/scale -> conv1_1/bn (in-place)
I1220 10:21:49.673086  7551 layer_factory.hpp:77] Creating layer conv1_1/scale
I1220 10:21:49.673274  7551 net.cpp:122] Setting up conv1_1/scale
I1220 10:21:49.673280  7551 net.cpp:129] Top shape: 1 448 28 62 (777728)
I1220 10:21:49.673282  7551 net.cpp:137] Memory required for data: 518635448
I1220 10:21:49.673287  7551 layer_factory.hpp:77] Creating layer relu1_1
I1220 10:21:49.673292  7551 net.cpp:84] Creating Layer relu1_1
I1220 10:21:49.673295  7551 net.cpp:406] relu1_1 <- conv1_1/bn
I1220 10:21:49.673300  7551 net.cpp:367] relu1_1 -> conv1_1/bn (in-place)
I1220 10:21:49.673877  7551 net.cpp:122] Setting up relu1_1
I1220 10:21:49.673887  7551 net.cpp:129] Top shape: 1 448 28 62 (777728)
I1220 10:21:49.673889  7551 net.cpp:137] Memory required for data: 521746360
I1220 10:21:49.673892  7551 layer_factory.hpp:77] Creating layer conv1_1
I1220 10:21:49.673905  7551 net.cpp:84] Creating Layer conv1_1
I1220 10:21:49.673908  7551 net.cpp:406] conv1_1 <- conv1_1/bn
I1220 10:21:49.673913  7551 net.cpp:380] conv1_1 -> conv1_1
I1220 10:21:49.680462  7551 net.cpp:122] Setting up conv1_1
I1220 10:21:49.680490  7551 net.cpp:129] Top shape: 1 32 28 62 (55552)
I1220 10:21:49.680493  7551 net.cpp:137] Memory required for data: 521968568
I1220 10:21:49.680502  7551 layer_factory.hpp:77] Creating layer concat1_1
I1220 10:21:49.680511  7551 net.cpp:84] Creating Layer concat1_1
I1220 10:21:49.680517  7551 net.cpp:406] concat1_1 <- concat1_0_concat1_0_0_split_1
I1220 10:21:49.680523  7551 net.cpp:406] concat1_1 <- conv1_1
I1220 10:21:49.680528  7551 net.cpp:380] concat1_1 -> concat1_1
I1220 10:21:49.680577  7551 net.cpp:122] Setting up concat1_1
I1220 10:21:49.680583  7551 net.cpp:129] Top shape: 1 480 28 62 (833280)
I1220 10:21:49.680585  7551 net.cpp:137] Memory required for data: 525301688
I1220 10:21:49.680588  7551 layer_factory.hpp:77] Creating layer concat1_1_concat1_1_0_split
I1220 10:21:49.680593  7551 net.cpp:84] Creating Layer concat1_1_concat1_1_0_split
I1220 10:21:49.680595  7551 net.cpp:406] concat1_1_concat1_1_0_split <- concat1_1
I1220 10:21:49.680600  7551 net.cpp:380] concat1_1_concat1_1_0_split -> concat1_1_concat1_1_0_split_0
I1220 10:21:49.680605  7551 net.cpp:380] concat1_1_concat1_1_0_split -> concat1_1_concat1_1_0_split_1
I1220 10:21:49.680660  7551 net.cpp:122] Setting up concat1_1_concat1_1_0_split
I1220 10:21:49.680665  7551 net.cpp:129] Top shape: 1 480 28 62 (833280)
I1220 10:21:49.680670  7551 net.cpp:129] Top shape: 1 480 28 62 (833280)
I1220 10:21:49.680671  7551 net.cpp:137] Memory required for data: 531967928
I1220 10:21:49.680678  7551 layer_factory.hpp:77] Creating layer conv1_2/bn
I1220 10:21:49.680685  7551 net.cpp:84] Creating Layer conv1_2/bn
I1220 10:21:49.680687  7551 net.cpp:406] conv1_2/bn <- concat1_1_concat1_1_0_split_0
I1220 10:21:49.680691  7551 net.cpp:380] conv1_2/bn -> conv1_2/bn
I1220 10:21:49.681063  7551 net.cpp:122] Setting up conv1_2/bn
I1220 10:21:49.681071  7551 net.cpp:129] Top shape: 1 480 28 62 (833280)
I1220 10:21:49.681072  7551 net.cpp:137] Memory required for data: 535301048
I1220 10:21:49.681079  7551 layer_factory.hpp:77] Creating layer conv1_2/scale
I1220 10:21:49.681087  7551 net.cpp:84] Creating Layer conv1_2/scale
I1220 10:21:49.681089  7551 net.cpp:406] conv1_2/scale <- conv1_2/bn
I1220 10:21:49.681094  7551 net.cpp:367] conv1_2/scale -> conv1_2/bn (in-place)
I1220 10:21:49.681164  7551 layer_factory.hpp:77] Creating layer conv1_2/scale
I1220 10:21:49.681416  7551 net.cpp:122] Setting up conv1_2/scale
I1220 10:21:49.681426  7551 net.cpp:129] Top shape: 1 480 28 62 (833280)
I1220 10:21:49.681429  7551 net.cpp:137] Memory required for data: 538634168
I1220 10:21:49.681437  7551 layer_factory.hpp:77] Creating layer relu1_2
I1220 10:21:49.681445  7551 net.cpp:84] Creating Layer relu1_2
I1220 10:21:49.681449  7551 net.cpp:406] relu1_2 <- conv1_2/bn
I1220 10:21:49.681455  7551 net.cpp:367] relu1_2 -> conv1_2/bn (in-place)
I1220 10:21:49.682047  7551 net.cpp:122] Setting up relu1_2
I1220 10:21:49.682061  7551 net.cpp:129] Top shape: 1 480 28 62 (833280)
I1220 10:21:49.682066  7551 net.cpp:137] Memory required for data: 541967288
I1220 10:21:49.682070  7551 layer_factory.hpp:77] Creating layer conv1_2
I1220 10:21:49.682086  7551 net.cpp:84] Creating Layer conv1_2
I1220 10:21:49.682091  7551 net.cpp:406] conv1_2 <- conv1_2/bn
I1220 10:21:49.682098  7551 net.cpp:380] conv1_2 -> conv1_2
I1220 10:21:49.691087  7551 net.cpp:122] Setting up conv1_2
I1220 10:21:49.691123  7551 net.cpp:129] Top shape: 1 32 28 62 (55552)
I1220 10:21:49.691128  7551 net.cpp:137] Memory required for data: 542189496
I1220 10:21:49.691139  7551 layer_factory.hpp:77] Creating layer concat1_2
I1220 10:21:49.691154  7551 net.cpp:84] Creating Layer concat1_2
I1220 10:21:49.691160  7551 net.cpp:406] concat1_2 <- concat1_1_concat1_1_0_split_1
I1220 10:21:49.691169  7551 net.cpp:406] concat1_2 <- conv1_2
I1220 10:21:49.691177  7551 net.cpp:380] concat1_2 -> concat1_2
I1220 10:21:49.691237  7551 net.cpp:122] Setting up concat1_2
I1220 10:21:49.691246  7551 net.cpp:129] Top shape: 1 512 28 62 (888832)
I1220 10:21:49.691249  7551 net.cpp:137] Memory required for data: 545744824
I1220 10:21:49.691253  7551 layer_factory.hpp:77] Creating layer concat1_2_concat1_2_0_split
I1220 10:21:49.691262  7551 net.cpp:84] Creating Layer concat1_2_concat1_2_0_split
I1220 10:21:49.691265  7551 net.cpp:406] concat1_2_concat1_2_0_split <- concat1_2
I1220 10:21:49.691272  7551 net.cpp:380] concat1_2_concat1_2_0_split -> concat1_2_concat1_2_0_split_0
I1220 10:21:49.691280  7551 net.cpp:380] concat1_2_concat1_2_0_split -> concat1_2_concat1_2_0_split_1
I1220 10:21:49.691354  7551 net.cpp:122] Setting up concat1_2_concat1_2_0_split
I1220 10:21:49.691362  7551 net.cpp:129] Top shape: 1 512 28 62 (888832)
I1220 10:21:49.691367  7551 net.cpp:129] Top shape: 1 512 28 62 (888832)
I1220 10:21:49.691371  7551 net.cpp:137] Memory required for data: 552855480
I1220 10:21:49.691375  7551 layer_factory.hpp:77] Creating layer conv1_3/bn
I1220 10:21:49.691385  7551 net.cpp:84] Creating Layer conv1_3/bn
I1220 10:21:49.691388  7551 net.cpp:406] conv1_3/bn <- concat1_2_concat1_2_0_split_0
I1220 10:21:49.691395  7551 net.cpp:380] conv1_3/bn -> conv1_3/bn
I1220 10:21:49.691896  7551 net.cpp:122] Setting up conv1_3/bn
I1220 10:21:49.691906  7551 net.cpp:129] Top shape: 1 512 28 62 (888832)
I1220 10:21:49.691910  7551 net.cpp:137] Memory required for data: 556410808
I1220 10:21:49.691922  7551 layer_factory.hpp:77] Creating layer conv1_3/scale
I1220 10:21:49.691932  7551 net.cpp:84] Creating Layer conv1_3/scale
I1220 10:21:49.691936  7551 net.cpp:406] conv1_3/scale <- conv1_3/bn
I1220 10:21:49.691948  7551 net.cpp:367] conv1_3/scale -> conv1_3/bn (in-place)
I1220 10:21:49.692025  7551 layer_factory.hpp:77] Creating layer conv1_3/scale
I1220 10:21:49.692268  7551 net.cpp:122] Setting up conv1_3/scale
I1220 10:21:49.692277  7551 net.cpp:129] Top shape: 1 512 28 62 (888832)
I1220 10:21:49.692281  7551 net.cpp:137] Memory required for data: 559966136
I1220 10:21:49.692289  7551 layer_factory.hpp:77] Creating layer relu1_3
I1220 10:21:49.692296  7551 net.cpp:84] Creating Layer relu1_3
I1220 10:21:49.692301  7551 net.cpp:406] relu1_3 <- conv1_3/bn
I1220 10:21:49.692307  7551 net.cpp:367] relu1_3 -> conv1_3/bn (in-place)
I1220 10:21:49.692595  7551 net.cpp:122] Setting up relu1_3
I1220 10:21:49.692605  7551 net.cpp:129] Top shape: 1 512 28 62 (888832)
I1220 10:21:49.692610  7551 net.cpp:137] Memory required for data: 563521464
I1220 10:21:49.692613  7551 layer_factory.hpp:77] Creating layer conv1_3
I1220 10:21:49.692626  7551 net.cpp:84] Creating Layer conv1_3
I1220 10:21:49.692631  7551 net.cpp:406] conv1_3 <- conv1_3/bn
I1220 10:21:49.692641  7551 net.cpp:380] conv1_3 -> conv1_3
I1220 10:21:49.702383  7551 net.cpp:122] Setting up conv1_3
I1220 10:21:49.702419  7551 net.cpp:129] Top shape: 1 32 28 62 (55552)
I1220 10:21:49.702424  7551 net.cpp:137] Memory required for data: 563743672
I1220 10:21:49.702435  7551 layer_factory.hpp:77] Creating layer concat1_3
I1220 10:21:49.702450  7551 net.cpp:84] Creating Layer concat1_3
I1220 10:21:49.702456  7551 net.cpp:406] concat1_3 <- concat1_2_concat1_2_0_split_1
I1220 10:21:49.702466  7551 net.cpp:406] concat1_3 <- conv1_3
I1220 10:21:49.702472  7551 net.cpp:380] concat1_3 -> concat1_3
I1220 10:21:49.702529  7551 net.cpp:122] Setting up concat1_3
I1220 10:21:49.702538  7551 net.cpp:129] Top shape: 1 544 28 62 (944384)
I1220 10:21:49.702541  7551 net.cpp:137] Memory required for data: 567521208
I1220 10:21:49.702545  7551 layer_factory.hpp:77] Creating layer concat1_3_concat1_3_0_split
I1220 10:21:49.702554  7551 net.cpp:84] Creating Layer concat1_3_concat1_3_0_split
I1220 10:21:49.702559  7551 net.cpp:406] concat1_3_concat1_3_0_split <- concat1_3
I1220 10:21:49.702565  7551 net.cpp:380] concat1_3_concat1_3_0_split -> concat1_3_concat1_3_0_split_0
I1220 10:21:49.702576  7551 net.cpp:380] concat1_3_concat1_3_0_split -> concat1_3_concat1_3_0_split_1
I1220 10:21:49.702651  7551 net.cpp:122] Setting up concat1_3_concat1_3_0_split
I1220 10:21:49.702657  7551 net.cpp:129] Top shape: 1 544 28 62 (944384)
I1220 10:21:49.702663  7551 net.cpp:129] Top shape: 1 544 28 62 (944384)
I1220 10:21:49.702666  7551 net.cpp:137] Memory required for data: 575076280
I1220 10:21:49.702670  7551 layer_factory.hpp:77] Creating layer conv1_4/bn
I1220 10:21:49.702679  7551 net.cpp:84] Creating Layer conv1_4/bn
I1220 10:21:49.702683  7551 net.cpp:406] conv1_4/bn <- concat1_3_concat1_3_0_split_0
I1220 10:21:49.702692  7551 net.cpp:380] conv1_4/bn -> conv1_4/bn
I1220 10:21:49.703176  7551 net.cpp:122] Setting up conv1_4/bn
I1220 10:21:49.703184  7551 net.cpp:129] Top shape: 1 544 28 62 (944384)
I1220 10:21:49.703188  7551 net.cpp:137] Memory required for data: 578853816
I1220 10:21:49.703197  7551 layer_factory.hpp:77] Creating layer conv1_4/scale
I1220 10:21:49.703207  7551 net.cpp:84] Creating Layer conv1_4/scale
I1220 10:21:49.703212  7551 net.cpp:406] conv1_4/scale <- conv1_4/bn
I1220 10:21:49.703218  7551 net.cpp:367] conv1_4/scale -> conv1_4/bn (in-place)
I1220 10:21:49.703305  7551 layer_factory.hpp:77] Creating layer conv1_4/scale
I1220 10:21:49.703562  7551 net.cpp:122] Setting up conv1_4/scale
I1220 10:21:49.703570  7551 net.cpp:129] Top shape: 1 544 28 62 (944384)
I1220 10:21:49.703574  7551 net.cpp:137] Memory required for data: 582631352
I1220 10:21:49.703583  7551 layer_factory.hpp:77] Creating layer relu1_4
I1220 10:21:49.703589  7551 net.cpp:84] Creating Layer relu1_4
I1220 10:21:49.703593  7551 net.cpp:406] relu1_4 <- conv1_4/bn
I1220 10:21:49.703599  7551 net.cpp:367] relu1_4 -> conv1_4/bn (in-place)
I1220 10:21:49.704118  7551 net.cpp:122] Setting up relu1_4
I1220 10:21:49.704133  7551 net.cpp:129] Top shape: 1 544 28 62 (944384)
I1220 10:21:49.704144  7551 net.cpp:137] Memory required for data: 586408888
I1220 10:21:49.704149  7551 layer_factory.hpp:77] Creating layer conv1_4
I1220 10:21:49.704161  7551 net.cpp:84] Creating Layer conv1_4
I1220 10:21:49.704166  7551 net.cpp:406] conv1_4 <- conv1_4/bn
I1220 10:21:49.704174  7551 net.cpp:380] conv1_4 -> conv1_4
I1220 10:21:49.713459  7551 net.cpp:122] Setting up conv1_4
I1220 10:21:49.713495  7551 net.cpp:129] Top shape: 1 32 28 62 (55552)
I1220 10:21:49.713500  7551 net.cpp:137] Memory required for data: 586631096
I1220 10:21:49.713511  7551 layer_factory.hpp:77] Creating layer concat1_4
I1220 10:21:49.713524  7551 net.cpp:84] Creating Layer concat1_4
I1220 10:21:49.713531  7551 net.cpp:406] concat1_4 <- concat1_3_concat1_3_0_split_1
I1220 10:21:49.713541  7551 net.cpp:406] concat1_4 <- conv1_4
I1220 10:21:49.713547  7551 net.cpp:380] concat1_4 -> concat1_4
I1220 10:21:49.713608  7551 net.cpp:122] Setting up concat1_4
I1220 10:21:49.713616  7551 net.cpp:129] Top shape: 1 576 28 62 (999936)
I1220 10:21:49.713620  7551 net.cpp:137] Memory required for data: 590630840
I1220 10:21:49.713624  7551 layer_factory.hpp:77] Creating layer concat1_4_concat1_4_0_split
I1220 10:21:49.713631  7551 net.cpp:84] Creating Layer concat1_4_concat1_4_0_split
I1220 10:21:49.713635  7551 net.cpp:406] concat1_4_concat1_4_0_split <- concat1_4
I1220 10:21:49.713644  7551 net.cpp:380] concat1_4_concat1_4_0_split -> concat1_4_concat1_4_0_split_0
I1220 10:21:49.713650  7551 net.cpp:380] concat1_4_concat1_4_0_split -> concat1_4_concat1_4_0_split_1
I1220 10:21:49.713726  7551 net.cpp:122] Setting up concat1_4_concat1_4_0_split
I1220 10:21:49.713734  7551 net.cpp:129] Top shape: 1 576 28 62 (999936)
I1220 10:21:49.713740  7551 net.cpp:129] Top shape: 1 576 28 62 (999936)
I1220 10:21:49.713744  7551 net.cpp:137] Memory required for data: 598630328
I1220 10:21:49.713747  7551 layer_factory.hpp:77] Creating layer conv1_5/bn
I1220 10:21:49.713755  7551 net.cpp:84] Creating Layer conv1_5/bn
I1220 10:21:49.713759  7551 net.cpp:406] conv1_5/bn <- concat1_4_concat1_4_0_split_0
I1220 10:21:49.713768  7551 net.cpp:380] conv1_5/bn -> conv1_5/bn
I1220 10:21:49.714272  7551 net.cpp:122] Setting up conv1_5/bn
I1220 10:21:49.714280  7551 net.cpp:129] Top shape: 1 576 28 62 (999936)
I1220 10:21:49.714284  7551 net.cpp:137] Memory required for data: 602630072
I1220 10:21:49.714296  7551 layer_factory.hpp:77] Creating layer conv1_5/scale
I1220 10:21:49.714305  7551 net.cpp:84] Creating Layer conv1_5/scale
I1220 10:21:49.714311  7551 net.cpp:406] conv1_5/scale <- conv1_5/bn
I1220 10:21:49.714318  7551 net.cpp:367] conv1_5/scale -> conv1_5/bn (in-place)
I1220 10:21:49.714404  7551 layer_factory.hpp:77] Creating layer conv1_5/scale
I1220 10:21:49.714663  7551 net.cpp:122] Setting up conv1_5/scale
I1220 10:21:49.714671  7551 net.cpp:129] Top shape: 1 576 28 62 (999936)
I1220 10:21:49.714675  7551 net.cpp:137] Memory required for data: 606629816
I1220 10:21:49.714684  7551 layer_factory.hpp:77] Creating layer relu1_5
I1220 10:21:49.714690  7551 net.cpp:84] Creating Layer relu1_5
I1220 10:21:49.714694  7551 net.cpp:406] relu1_5 <- conv1_5/bn
I1220 10:21:49.714700  7551 net.cpp:367] relu1_5 -> conv1_5/bn (in-place)
I1220 10:21:49.715229  7551 net.cpp:122] Setting up relu1_5
I1220 10:21:49.715242  7551 net.cpp:129] Top shape: 1 576 28 62 (999936)
I1220 10:21:49.715246  7551 net.cpp:137] Memory required for data: 610629560
I1220 10:21:49.715251  7551 layer_factory.hpp:77] Creating layer conv1_5
I1220 10:21:49.715265  7551 net.cpp:84] Creating Layer conv1_5
I1220 10:21:49.715270  7551 net.cpp:406] conv1_5 <- conv1_5/bn
I1220 10:21:49.715276  7551 net.cpp:380] conv1_5 -> conv1_5
I1220 10:21:49.725759  7551 net.cpp:122] Setting up conv1_5
I1220 10:21:49.725795  7551 net.cpp:129] Top shape: 1 32 28 62 (55552)
I1220 10:21:49.725800  7551 net.cpp:137] Memory required for data: 610851768
I1220 10:21:49.725811  7551 layer_factory.hpp:77] Creating layer concat1_5
I1220 10:21:49.725823  7551 net.cpp:84] Creating Layer concat1_5
I1220 10:21:49.725836  7551 net.cpp:406] concat1_5 <- concat1_4_concat1_4_0_split_1
I1220 10:21:49.725844  7551 net.cpp:406] concat1_5 <- conv1_5
I1220 10:21:49.725852  7551 net.cpp:380] concat1_5 -> concat1_5
I1220 10:21:49.725914  7551 net.cpp:122] Setting up concat1_5
I1220 10:21:49.725921  7551 net.cpp:129] Top shape: 1 608 28 62 (1055488)
I1220 10:21:49.725925  7551 net.cpp:137] Memory required for data: 615073720
I1220 10:21:49.725929  7551 layer_factory.hpp:77] Creating layer concat1_5_concat1_5_0_split
I1220 10:21:49.725936  7551 net.cpp:84] Creating Layer concat1_5_concat1_5_0_split
I1220 10:21:49.725940  7551 net.cpp:406] concat1_5_concat1_5_0_split <- concat1_5
I1220 10:21:49.725946  7551 net.cpp:380] concat1_5_concat1_5_0_split -> concat1_5_concat1_5_0_split_0
I1220 10:21:49.725955  7551 net.cpp:380] concat1_5_concat1_5_0_split -> concat1_5_concat1_5_0_split_1
I1220 10:21:49.726030  7551 net.cpp:122] Setting up concat1_5_concat1_5_0_split
I1220 10:21:49.726039  7551 net.cpp:129] Top shape: 1 608 28 62 (1055488)
I1220 10:21:49.726045  7551 net.cpp:129] Top shape: 1 608 28 62 (1055488)
I1220 10:21:49.726049  7551 net.cpp:137] Memory required for data: 623517624
I1220 10:21:49.726053  7551 layer_factory.hpp:77] Creating layer conv1_6/bn
I1220 10:21:49.726060  7551 net.cpp:84] Creating Layer conv1_6/bn
I1220 10:21:49.726064  7551 net.cpp:406] conv1_6/bn <- concat1_5_concat1_5_0_split_0
I1220 10:21:49.726073  7551 net.cpp:380] conv1_6/bn -> conv1_6/bn
I1220 10:21:49.726589  7551 net.cpp:122] Setting up conv1_6/bn
I1220 10:21:49.726599  7551 net.cpp:129] Top shape: 1 608 28 62 (1055488)
I1220 10:21:49.726603  7551 net.cpp:137] Memory required for data: 627739576
I1220 10:21:49.726614  7551 layer_factory.hpp:77] Creating layer conv1_6/scale
I1220 10:21:49.726627  7551 net.cpp:84] Creating Layer conv1_6/scale
I1220 10:21:49.726632  7551 net.cpp:406] conv1_6/scale <- conv1_6/bn
I1220 10:21:49.726640  7551 net.cpp:367] conv1_6/scale -> conv1_6/bn (in-place)
I1220 10:21:49.726729  7551 layer_factory.hpp:77] Creating layer conv1_6/scale
I1220 10:21:49.726991  7551 net.cpp:122] Setting up conv1_6/scale
I1220 10:21:49.727000  7551 net.cpp:129] Top shape: 1 608 28 62 (1055488)
I1220 10:21:49.727005  7551 net.cpp:137] Memory required for data: 631961528
I1220 10:21:49.727011  7551 layer_factory.hpp:77] Creating layer relu1_6
I1220 10:21:49.727020  7551 net.cpp:84] Creating Layer relu1_6
I1220 10:21:49.727023  7551 net.cpp:406] relu1_6 <- conv1_6/bn
I1220 10:21:49.727030  7551 net.cpp:367] relu1_6 -> conv1_6/bn (in-place)
I1220 10:21:49.727318  7551 net.cpp:122] Setting up relu1_6
I1220 10:21:49.727329  7551 net.cpp:129] Top shape: 1 608 28 62 (1055488)
I1220 10:21:49.727332  7551 net.cpp:137] Memory required for data: 636183480
I1220 10:21:49.727336  7551 layer_factory.hpp:77] Creating layer conv1_6
I1220 10:21:49.727350  7551 net.cpp:84] Creating Layer conv1_6
I1220 10:21:49.727355  7551 net.cpp:406] conv1_6 <- conv1_6/bn
I1220 10:21:49.727362  7551 net.cpp:380] conv1_6 -> conv1_6
I1220 10:21:49.737278  7551 net.cpp:122] Setting up conv1_6
I1220 10:21:49.737313  7551 net.cpp:129] Top shape: 1 32 28 62 (55552)
I1220 10:21:49.737318  7551 net.cpp:137] Memory required for data: 636405688
I1220 10:21:49.737329  7551 layer_factory.hpp:77] Creating layer concat1_6
I1220 10:21:49.737344  7551 net.cpp:84] Creating Layer concat1_6
I1220 10:21:49.737350  7551 net.cpp:406] concat1_6 <- concat1_5_concat1_5_0_split_1
I1220 10:21:49.737360  7551 net.cpp:406] concat1_6 <- conv1_6
I1220 10:21:49.737366  7551 net.cpp:380] concat1_6 -> concat1_6
I1220 10:21:49.737426  7551 net.cpp:122] Setting up concat1_6
I1220 10:21:49.737434  7551 net.cpp:129] Top shape: 1 640 28 62 (1111040)
I1220 10:21:49.737438  7551 net.cpp:137] Memory required for data: 640849848
I1220 10:21:49.737442  7551 layer_factory.hpp:77] Creating layer concat1_6_concat1_6_0_split
I1220 10:21:49.737452  7551 net.cpp:84] Creating Layer concat1_6_concat1_6_0_split
I1220 10:21:49.737455  7551 net.cpp:406] concat1_6_concat1_6_0_split <- concat1_6
I1220 10:21:49.737462  7551 net.cpp:380] concat1_6_concat1_6_0_split -> concat1_6_concat1_6_0_split_0
I1220 10:21:49.737475  7551 net.cpp:380] concat1_6_concat1_6_0_split -> concat1_6_concat1_6_0_split_1
I1220 10:21:49.737555  7551 net.cpp:122] Setting up concat1_6_concat1_6_0_split
I1220 10:21:49.737563  7551 net.cpp:129] Top shape: 1 640 28 62 (1111040)
I1220 10:21:49.737568  7551 net.cpp:129] Top shape: 1 640 28 62 (1111040)
I1220 10:21:49.737572  7551 net.cpp:137] Memory required for data: 649738168
I1220 10:21:49.737576  7551 layer_factory.hpp:77] Creating layer conv1_7/bn
I1220 10:21:49.737588  7551 net.cpp:84] Creating Layer conv1_7/bn
I1220 10:21:49.737593  7551 net.cpp:406] conv1_7/bn <- concat1_6_concat1_6_0_split_0
I1220 10:21:49.737601  7551 net.cpp:380] conv1_7/bn -> conv1_7/bn
I1220 10:21:49.738116  7551 net.cpp:122] Setting up conv1_7/bn
I1220 10:21:49.738127  7551 net.cpp:129] Top shape: 1 640 28 62 (1111040)
I1220 10:21:49.738131  7551 net.cpp:137] Memory required for data: 654182328
I1220 10:21:49.738153  7551 layer_factory.hpp:77] Creating layer conv1_7/scale
I1220 10:21:49.738170  7551 net.cpp:84] Creating Layer conv1_7/scale
I1220 10:21:49.738175  7551 net.cpp:406] conv1_7/scale <- conv1_7/bn
I1220 10:21:49.738183  7551 net.cpp:367] conv1_7/scale -> conv1_7/bn (in-place)
I1220 10:21:49.738265  7551 layer_factory.hpp:77] Creating layer conv1_7/scale
I1220 10:21:49.738518  7551 net.cpp:122] Setting up conv1_7/scale
I1220 10:21:49.738528  7551 net.cpp:129] Top shape: 1 640 28 62 (1111040)
I1220 10:21:49.738531  7551 net.cpp:137] Memory required for data: 658626488
I1220 10:21:49.738539  7551 layer_factory.hpp:77] Creating layer relu1_7
I1220 10:21:49.738546  7551 net.cpp:84] Creating Layer relu1_7
I1220 10:21:49.738551  7551 net.cpp:406] relu1_7 <- conv1_7/bn
I1220 10:21:49.738556  7551 net.cpp:367] relu1_7 -> conv1_7/bn (in-place)
I1220 10:21:49.739126  7551 net.cpp:122] Setting up relu1_7
I1220 10:21:49.739140  7551 net.cpp:129] Top shape: 1 640 28 62 (1111040)
I1220 10:21:49.739145  7551 net.cpp:137] Memory required for data: 663070648
I1220 10:21:49.739148  7551 layer_factory.hpp:77] Creating layer conv1_7
I1220 10:21:49.739166  7551 net.cpp:84] Creating Layer conv1_7
I1220 10:21:49.739171  7551 net.cpp:406] conv1_7 <- conv1_7/bn
I1220 10:21:49.739181  7551 net.cpp:380] conv1_7 -> conv1_7
I1220 10:21:49.749503  7551 net.cpp:122] Setting up conv1_7
I1220 10:21:49.749538  7551 net.cpp:129] Top shape: 1 32 28 62 (55552)
I1220 10:21:49.749542  7551 net.cpp:137] Memory required for data: 663292856
I1220 10:21:49.749554  7551 layer_factory.hpp:77] Creating layer concat1_7
I1220 10:21:49.749567  7551 net.cpp:84] Creating Layer concat1_7
I1220 10:21:49.749573  7551 net.cpp:406] concat1_7 <- concat1_6_concat1_6_0_split_1
I1220 10:21:49.749583  7551 net.cpp:406] concat1_7 <- conv1_7
I1220 10:21:49.749591  7551 net.cpp:380] concat1_7 -> concat1_7
I1220 10:21:49.749655  7551 net.cpp:122] Setting up concat1_7
I1220 10:21:49.749662  7551 net.cpp:129] Top shape: 1 672 28 62 (1166592)
I1220 10:21:49.749666  7551 net.cpp:137] Memory required for data: 667959224
I1220 10:21:49.749670  7551 layer_factory.hpp:77] Creating layer concat1_7_concat1_7_0_split
I1220 10:21:49.749677  7551 net.cpp:84] Creating Layer concat1_7_concat1_7_0_split
I1220 10:21:49.749681  7551 net.cpp:406] concat1_7_concat1_7_0_split <- concat1_7
I1220 10:21:49.749688  7551 net.cpp:380] concat1_7_concat1_7_0_split -> concat1_7_concat1_7_0_split_0
I1220 10:21:49.749696  7551 net.cpp:380] concat1_7_concat1_7_0_split -> concat1_7_concat1_7_0_split_1
I1220 10:21:49.749774  7551 net.cpp:122] Setting up concat1_7_concat1_7_0_split
I1220 10:21:49.749783  7551 net.cpp:129] Top shape: 1 672 28 62 (1166592)
I1220 10:21:49.749788  7551 net.cpp:129] Top shape: 1 672 28 62 (1166592)
I1220 10:21:49.749791  7551 net.cpp:137] Memory required for data: 677291960
I1220 10:21:49.749795  7551 layer_factory.hpp:77] Creating layer conv1_8/bn
I1220 10:21:49.749804  7551 net.cpp:84] Creating Layer conv1_8/bn
I1220 10:21:49.749809  7551 net.cpp:406] conv1_8/bn <- concat1_7_concat1_7_0_split_0
I1220 10:21:49.749819  7551 net.cpp:380] conv1_8/bn -> conv1_8/bn
I1220 10:21:49.750322  7551 net.cpp:122] Setting up conv1_8/bn
I1220 10:21:49.750331  7551 net.cpp:129] Top shape: 1 672 28 62 (1166592)
I1220 10:21:49.750335  7551 net.cpp:137] Memory required for data: 681958328
I1220 10:21:49.750345  7551 layer_factory.hpp:77] Creating layer conv1_8/scale
I1220 10:21:49.750356  7551 net.cpp:84] Creating Layer conv1_8/scale
I1220 10:21:49.750361  7551 net.cpp:406] conv1_8/scale <- conv1_8/bn
I1220 10:21:49.750370  7551 net.cpp:367] conv1_8/scale -> conv1_8/bn (in-place)
I1220 10:21:49.750457  7551 layer_factory.hpp:77] Creating layer conv1_8/scale
I1220 10:21:49.750723  7551 net.cpp:122] Setting up conv1_8/scale
I1220 10:21:49.750732  7551 net.cpp:129] Top shape: 1 672 28 62 (1166592)
I1220 10:21:49.750736  7551 net.cpp:137] Memory required for data: 686624696
I1220 10:21:49.750743  7551 layer_factory.hpp:77] Creating layer relu1_8
I1220 10:21:49.750751  7551 net.cpp:84] Creating Layer relu1_8
I1220 10:21:49.750756  7551 net.cpp:406] relu1_8 <- conv1_8/bn
I1220 10:21:49.750761  7551 net.cpp:367] relu1_8 -> conv1_8/bn (in-place)
I1220 10:21:49.751044  7551 net.cpp:122] Setting up relu1_8
I1220 10:21:49.751054  7551 net.cpp:129] Top shape: 1 672 28 62 (1166592)
I1220 10:21:49.751057  7551 net.cpp:137] Memory required for data: 691291064
I1220 10:21:49.751062  7551 layer_factory.hpp:77] Creating layer conv1_8
I1220 10:21:49.751076  7551 net.cpp:84] Creating Layer conv1_8
I1220 10:21:49.751080  7551 net.cpp:406] conv1_8 <- conv1_8/bn
I1220 10:21:49.751088  7551 net.cpp:380] conv1_8 -> conv1_8
I1220 10:21:49.762718  7551 net.cpp:122] Setting up conv1_8
I1220 10:21:49.762748  7551 net.cpp:129] Top shape: 1 32 28 62 (55552)
I1220 10:21:49.762753  7551 net.cpp:137] Memory required for data: 691513272
I1220 10:21:49.762760  7551 layer_factory.hpp:77] Creating layer concat1_8
I1220 10:21:49.762773  7551 net.cpp:84] Creating Layer concat1_8
I1220 10:21:49.762778  7551 net.cpp:406] concat1_8 <- concat1_7_concat1_7_0_split_1
I1220 10:21:49.762784  7551 net.cpp:406] concat1_8 <- conv1_8
I1220 10:21:49.762791  7551 net.cpp:380] concat1_8 -> concat1_8
I1220 10:21:49.762846  7551 net.cpp:122] Setting up concat1_8
I1220 10:21:49.762852  7551 net.cpp:129] Top shape: 1 704 28 62 (1222144)
I1220 10:21:49.762856  7551 net.cpp:137] Memory required for data: 696401848
I1220 10:21:49.762857  7551 layer_factory.hpp:77] Creating layer concat1_8_concat1_8_0_split
I1220 10:21:49.762866  7551 net.cpp:84] Creating Layer concat1_8_concat1_8_0_split
I1220 10:21:49.762869  7551 net.cpp:406] concat1_8_concat1_8_0_split <- concat1_8
I1220 10:21:49.762873  7551 net.cpp:380] concat1_8_concat1_8_0_split -> concat1_8_concat1_8_0_split_0
I1220 10:21:49.762878  7551 net.cpp:380] concat1_8_concat1_8_0_split -> concat1_8_concat1_8_0_split_1
I1220 10:21:49.762938  7551 net.cpp:122] Setting up concat1_8_concat1_8_0_split
I1220 10:21:49.762943  7551 net.cpp:129] Top shape: 1 704 28 62 (1222144)
I1220 10:21:49.762946  7551 net.cpp:129] Top shape: 1 704 28 62 (1222144)
I1220 10:21:49.762948  7551 net.cpp:137] Memory required for data: 706179000
I1220 10:21:49.762951  7551 layer_factory.hpp:77] Creating layer conv1_9/bn
I1220 10:21:49.762958  7551 net.cpp:84] Creating Layer conv1_9/bn
I1220 10:21:49.762959  7551 net.cpp:406] conv1_9/bn <- concat1_8_concat1_8_0_split_0
I1220 10:21:49.762964  7551 net.cpp:380] conv1_9/bn -> conv1_9/bn
I1220 10:21:49.763361  7551 net.cpp:122] Setting up conv1_9/bn
I1220 10:21:49.763367  7551 net.cpp:129] Top shape: 1 704 28 62 (1222144)
I1220 10:21:49.763370  7551 net.cpp:137] Memory required for data: 711067576
I1220 10:21:49.763377  7551 layer_factory.hpp:77] Creating layer conv1_9/scale
I1220 10:21:49.763386  7551 net.cpp:84] Creating Layer conv1_9/scale
I1220 10:21:49.763388  7551 net.cpp:406] conv1_9/scale <- conv1_9/bn
I1220 10:21:49.763392  7551 net.cpp:367] conv1_9/scale -> conv1_9/bn (in-place)
I1220 10:21:49.763461  7551 layer_factory.hpp:77] Creating layer conv1_9/scale
I1220 10:21:49.763661  7551 net.cpp:122] Setting up conv1_9/scale
I1220 10:21:49.763671  7551 net.cpp:129] Top shape: 1 704 28 62 (1222144)
I1220 10:21:49.763674  7551 net.cpp:137] Memory required for data: 715956152
I1220 10:21:49.763679  7551 layer_factory.hpp:77] Creating layer relu1_9
I1220 10:21:49.763684  7551 net.cpp:84] Creating Layer relu1_9
I1220 10:21:49.763686  7551 net.cpp:406] relu1_9 <- conv1_9/bn
I1220 10:21:49.763690  7551 net.cpp:367] relu1_9 -> conv1_9/bn (in-place)
I1220 10:21:49.764341  7551 net.cpp:122] Setting up relu1_9
I1220 10:21:49.764353  7551 net.cpp:129] Top shape: 1 704 28 62 (1222144)
I1220 10:21:49.764354  7551 net.cpp:137] Memory required for data: 720844728
I1220 10:21:49.764358  7551 layer_factory.hpp:77] Creating layer conv1_9
I1220 10:21:49.764367  7551 net.cpp:84] Creating Layer conv1_9
I1220 10:21:49.764370  7551 net.cpp:406] conv1_9 <- conv1_9/bn
I1220 10:21:49.764376  7551 net.cpp:380] conv1_9 -> conv1_9
I1220 10:21:49.772526  7551 net.cpp:122] Setting up conv1_9
I1220 10:21:49.772553  7551 net.cpp:129] Top shape: 1 32 28 62 (55552)
I1220 10:21:49.772557  7551 net.cpp:137] Memory required for data: 721066936
I1220 10:21:49.772564  7551 layer_factory.hpp:77] Creating layer concat1_9
I1220 10:21:49.772574  7551 net.cpp:84] Creating Layer concat1_9
I1220 10:21:49.772583  7551 net.cpp:406] concat1_9 <- concat1_8_concat1_8_0_split_1
I1220 10:21:49.772588  7551 net.cpp:406] concat1_9 <- conv1_9
I1220 10:21:49.772593  7551 net.cpp:380] concat1_9 -> concat1_9
I1220 10:21:49.772641  7551 net.cpp:122] Setting up concat1_9
I1220 10:21:49.772647  7551 net.cpp:129] Top shape: 1 736 28 62 (1277696)
I1220 10:21:49.772650  7551 net.cpp:137] Memory required for data: 726177720
I1220 10:21:49.772652  7551 layer_factory.hpp:77] Creating layer concat1_9_concat1_9_0_split
I1220 10:21:49.772658  7551 net.cpp:84] Creating Layer concat1_9_concat1_9_0_split
I1220 10:21:49.772661  7551 net.cpp:406] concat1_9_concat1_9_0_split <- concat1_9
I1220 10:21:49.772665  7551 net.cpp:380] concat1_9_concat1_9_0_split -> concat1_9_concat1_9_0_split_0
I1220 10:21:49.772670  7551 net.cpp:380] concat1_9_concat1_9_0_split -> concat1_9_concat1_9_0_split_1
I1220 10:21:49.772735  7551 net.cpp:122] Setting up concat1_9_concat1_9_0_split
I1220 10:21:49.772740  7551 net.cpp:129] Top shape: 1 736 28 62 (1277696)
I1220 10:21:49.772744  7551 net.cpp:129] Top shape: 1 736 28 62 (1277696)
I1220 10:21:49.772747  7551 net.cpp:137] Memory required for data: 736399288
I1220 10:21:49.772748  7551 layer_factory.hpp:77] Creating layer conv1_10/bn
I1220 10:21:49.772754  7551 net.cpp:84] Creating Layer conv1_10/bn
I1220 10:21:49.772758  7551 net.cpp:406] conv1_10/bn <- concat1_9_concat1_9_0_split_0
I1220 10:21:49.772761  7551 net.cpp:380] conv1_10/bn -> conv1_10/bn
I1220 10:21:49.773324  7551 net.cpp:122] Setting up conv1_10/bn
I1220 10:21:49.773335  7551 net.cpp:129] Top shape: 1 736 28 62 (1277696)
I1220 10:21:49.773339  7551 net.cpp:137] Memory required for data: 741510072
I1220 10:21:49.773350  7551 layer_factory.hpp:77] Creating layer conv1_10/scale
I1220 10:21:49.773361  7551 net.cpp:84] Creating Layer conv1_10/scale
I1220 10:21:49.773366  7551 net.cpp:406] conv1_10/scale <- conv1_10/bn
I1220 10:21:49.773372  7551 net.cpp:367] conv1_10/scale -> conv1_10/bn (in-place)
I1220 10:21:49.773465  7551 layer_factory.hpp:77] Creating layer conv1_10/scale
I1220 10:21:49.773738  7551 net.cpp:122] Setting up conv1_10/scale
I1220 10:21:49.773748  7551 net.cpp:129] Top shape: 1 736 28 62 (1277696)
I1220 10:21:49.773752  7551 net.cpp:137] Memory required for data: 746620856
I1220 10:21:49.773759  7551 layer_factory.hpp:77] Creating layer relu1_10
I1220 10:21:49.773767  7551 net.cpp:84] Creating Layer relu1_10
I1220 10:21:49.773772  7551 net.cpp:406] relu1_10 <- conv1_10/bn
I1220 10:21:49.773777  7551 net.cpp:367] relu1_10 -> conv1_10/bn (in-place)
I1220 10:21:49.774428  7551 net.cpp:122] Setting up relu1_10
I1220 10:21:49.774442  7551 net.cpp:129] Top shape: 1 736 28 62 (1277696)
I1220 10:21:49.774446  7551 net.cpp:137] Memory required for data: 751731640
I1220 10:21:49.774451  7551 layer_factory.hpp:77] Creating layer conv1_10
I1220 10:21:49.774471  7551 net.cpp:84] Creating Layer conv1_10
I1220 10:21:49.774477  7551 net.cpp:406] conv1_10 <- conv1_10/bn
I1220 10:21:49.774483  7551 net.cpp:380] conv1_10 -> conv1_10
I1220 10:21:49.786695  7551 net.cpp:122] Setting up conv1_10
I1220 10:21:49.786731  7551 net.cpp:129] Top shape: 1 32 28 62 (55552)
I1220 10:21:49.786736  7551 net.cpp:137] Memory required for data: 751953848
I1220 10:21:49.786747  7551 layer_factory.hpp:77] Creating layer concat1_10
I1220 10:21:49.786762  7551 net.cpp:84] Creating Layer concat1_10
I1220 10:21:49.786770  7551 net.cpp:406] concat1_10 <- concat1_9_concat1_9_0_split_1
I1220 10:21:49.786778  7551 net.cpp:406] concat1_10 <- conv1_10
I1220 10:21:49.786785  7551 net.cpp:380] concat1_10 -> concat1_10
I1220 10:21:49.786849  7551 net.cpp:122] Setting up concat1_10
I1220 10:21:49.786857  7551 net.cpp:129] Top shape: 1 768 28 62 (1333248)
I1220 10:21:49.786860  7551 net.cpp:137] Memory required for data: 757286840
I1220 10:21:49.786864  7551 layer_factory.hpp:77] Creating layer concat1_10_concat1_10_0_split
I1220 10:21:49.786875  7551 net.cpp:84] Creating Layer concat1_10_concat1_10_0_split
I1220 10:21:49.786880  7551 net.cpp:406] concat1_10_concat1_10_0_split <- concat1_10
I1220 10:21:49.786885  7551 net.cpp:380] concat1_10_concat1_10_0_split -> concat1_10_concat1_10_0_split_0
I1220 10:21:49.786892  7551 net.cpp:380] concat1_10_concat1_10_0_split -> concat1_10_concat1_10_0_split_1
I1220 10:21:49.786974  7551 net.cpp:122] Setting up concat1_10_concat1_10_0_split
I1220 10:21:49.786983  7551 net.cpp:129] Top shape: 1 768 28 62 (1333248)
I1220 10:21:49.786988  7551 net.cpp:129] Top shape: 1 768 28 62 (1333248)
I1220 10:21:49.786991  7551 net.cpp:137] Memory required for data: 767952824
I1220 10:21:49.786995  7551 layer_factory.hpp:77] Creating layer conv1_11/bn
I1220 10:21:49.787004  7551 net.cpp:84] Creating Layer conv1_11/bn
I1220 10:21:49.787009  7551 net.cpp:406] conv1_11/bn <- concat1_10_concat1_10_0_split_0
I1220 10:21:49.787014  7551 net.cpp:380] conv1_11/bn -> conv1_11/bn
I1220 10:21:49.787551  7551 net.cpp:122] Setting up conv1_11/bn
I1220 10:21:49.787561  7551 net.cpp:129] Top shape: 1 768 28 62 (1333248)
I1220 10:21:49.787565  7551 net.cpp:137] Memory required for data: 773285816
I1220 10:21:49.787575  7551 layer_factory.hpp:77] Creating layer conv1_11/scale
I1220 10:21:49.787586  7551 net.cpp:84] Creating Layer conv1_11/scale
I1220 10:21:49.787591  7551 net.cpp:406] conv1_11/scale <- conv1_11/bn
I1220 10:21:49.787600  7551 net.cpp:367] conv1_11/scale -> conv1_11/bn (in-place)
I1220 10:21:49.787683  7551 layer_factory.hpp:77] Creating layer conv1_11/scale
I1220 10:21:49.787961  7551 net.cpp:122] Setting up conv1_11/scale
I1220 10:21:49.787971  7551 net.cpp:129] Top shape: 1 768 28 62 (1333248)
I1220 10:21:49.787974  7551 net.cpp:137] Memory required for data: 778618808
I1220 10:21:49.787982  7551 layer_factory.hpp:77] Creating layer relu1_11
I1220 10:21:49.787991  7551 net.cpp:84] Creating Layer relu1_11
I1220 10:21:49.787994  7551 net.cpp:406] relu1_11 <- conv1_11/bn
I1220 10:21:49.788000  7551 net.cpp:367] relu1_11 -> conv1_11/bn (in-place)
I1220 10:21:49.788312  7551 net.cpp:122] Setting up relu1_11
I1220 10:21:49.788323  7551 net.cpp:129] Top shape: 1 768 28 62 (1333248)
I1220 10:21:49.788327  7551 net.cpp:137] Memory required for data: 783951800
I1220 10:21:49.788331  7551 layer_factory.hpp:77] Creating layer conv1_11
I1220 10:21:49.788347  7551 net.cpp:84] Creating Layer conv1_11
I1220 10:21:49.788352  7551 net.cpp:406] conv1_11 <- conv1_11/bn
I1220 10:21:49.788358  7551 net.cpp:380] conv1_11 -> conv1_11
I1220 10:21:49.800367  7551 net.cpp:122] Setting up conv1_11
I1220 10:21:49.800402  7551 net.cpp:129] Top shape: 1 32 28 62 (55552)
I1220 10:21:49.800407  7551 net.cpp:137] Memory required for data: 784174008
I1220 10:21:49.800418  7551 layer_factory.hpp:77] Creating layer concat1_11
I1220 10:21:49.800433  7551 net.cpp:84] Creating Layer concat1_11
I1220 10:21:49.800441  7551 net.cpp:406] concat1_11 <- concat1_10_concat1_10_0_split_1
I1220 10:21:49.800453  7551 net.cpp:406] concat1_11 <- conv1_11
I1220 10:21:49.800462  7551 net.cpp:380] concat1_11 -> concat1_11
I1220 10:21:49.800523  7551 net.cpp:122] Setting up concat1_11
I1220 10:21:49.800532  7551 net.cpp:129] Top shape: 1 800 28 62 (1388800)
I1220 10:21:49.800536  7551 net.cpp:137] Memory required for data: 789729208
I1220 10:21:49.800540  7551 layer_factory.hpp:77] Creating layer concat1_11_concat1_11_0_split
I1220 10:21:49.800547  7551 net.cpp:84] Creating Layer concat1_11_concat1_11_0_split
I1220 10:21:49.800551  7551 net.cpp:406] concat1_11_concat1_11_0_split <- concat1_11
I1220 10:21:49.800559  7551 net.cpp:380] concat1_11_concat1_11_0_split -> concat1_11_concat1_11_0_split_0
I1220 10:21:49.800565  7551 net.cpp:380] concat1_11_concat1_11_0_split -> concat1_11_concat1_11_0_split_1
I1220 10:21:49.800647  7551 net.cpp:122] Setting up concat1_11_concat1_11_0_split
I1220 10:21:49.800654  7551 net.cpp:129] Top shape: 1 800 28 62 (1388800)
I1220 10:21:49.800659  7551 net.cpp:129] Top shape: 1 800 28 62 (1388800)
I1220 10:21:49.800663  7551 net.cpp:137] Memory required for data: 800839608
I1220 10:21:49.800668  7551 layer_factory.hpp:77] Creating layer conv1_12/bn
I1220 10:21:49.800676  7551 net.cpp:84] Creating Layer conv1_12/bn
I1220 10:21:49.800681  7551 net.cpp:406] conv1_12/bn <- concat1_11_concat1_11_0_split_0
I1220 10:21:49.800688  7551 net.cpp:380] conv1_12/bn -> conv1_12/bn
I1220 10:21:49.801225  7551 net.cpp:122] Setting up conv1_12/bn
I1220 10:21:49.801234  7551 net.cpp:129] Top shape: 1 800 28 62 (1388800)
I1220 10:21:49.801239  7551 net.cpp:137] Memory required for data: 806394808
I1220 10:21:49.801249  7551 layer_factory.hpp:77] Creating layer conv1_12/scale
I1220 10:21:49.801259  7551 net.cpp:84] Creating Layer conv1_12/scale
I1220 10:21:49.801265  7551 net.cpp:406] conv1_12/scale <- conv1_12/bn
I1220 10:21:49.801270  7551 net.cpp:367] conv1_12/scale -> conv1_12/bn (in-place)
I1220 10:21:49.801364  7551 layer_factory.hpp:77] Creating layer conv1_12/scale
I1220 10:21:49.801648  7551 net.cpp:122] Setting up conv1_12/scale
I1220 10:21:49.801657  7551 net.cpp:129] Top shape: 1 800 28 62 (1388800)
I1220 10:21:49.801661  7551 net.cpp:137] Memory required for data: 811950008
I1220 10:21:49.801668  7551 layer_factory.hpp:77] Creating layer relu1_12
I1220 10:21:49.801676  7551 net.cpp:84] Creating Layer relu1_12
I1220 10:21:49.801681  7551 net.cpp:406] relu1_12 <- conv1_12/bn
I1220 10:21:49.801686  7551 net.cpp:367] relu1_12 -> conv1_12/bn (in-place)
I1220 10:21:49.802253  7551 net.cpp:122] Setting up relu1_12
I1220 10:21:49.802264  7551 net.cpp:129] Top shape: 1 800 28 62 (1388800)
I1220 10:21:49.802269  7551 net.cpp:137] Memory required for data: 817505208
I1220 10:21:49.802273  7551 layer_factory.hpp:77] Creating layer conv1_12
I1220 10:21:49.802287  7551 net.cpp:84] Creating Layer conv1_12
I1220 10:21:49.802292  7551 net.cpp:406] conv1_12 <- conv1_12/bn
I1220 10:21:49.802300  7551 net.cpp:380] conv1_12 -> conv1_12
I1220 10:21:49.815484  7551 net.cpp:122] Setting up conv1_12
I1220 10:21:49.815520  7551 net.cpp:129] Top shape: 1 32 28 62 (55552)
I1220 10:21:49.815524  7551 net.cpp:137] Memory required for data: 817727416
I1220 10:21:49.815536  7551 layer_factory.hpp:77] Creating layer concat1_12
I1220 10:21:49.815551  7551 net.cpp:84] Creating Layer concat1_12
I1220 10:21:49.815557  7551 net.cpp:406] concat1_12 <- concat1_11_concat1_11_0_split_1
I1220 10:21:49.815567  7551 net.cpp:406] concat1_12 <- conv1_12
I1220 10:21:49.815574  7551 net.cpp:380] concat1_12 -> concat1_12
I1220 10:21:49.815641  7551 net.cpp:122] Setting up concat1_12
I1220 10:21:49.815650  7551 net.cpp:129] Top shape: 1 832 28 62 (1444352)
I1220 10:21:49.815654  7551 net.cpp:137] Memory required for data: 823504824
I1220 10:21:49.815657  7551 layer_factory.hpp:77] Creating layer concat1_12_concat1_12_0_split
I1220 10:21:49.815665  7551 net.cpp:84] Creating Layer concat1_12_concat1_12_0_split
I1220 10:21:49.815670  7551 net.cpp:406] concat1_12_concat1_12_0_split <- concat1_12
I1220 10:21:49.815676  7551 net.cpp:380] concat1_12_concat1_12_0_split -> concat1_12_concat1_12_0_split_0
I1220 10:21:49.815688  7551 net.cpp:380] concat1_12_concat1_12_0_split -> concat1_12_concat1_12_0_split_1
I1220 10:21:49.815783  7551 net.cpp:122] Setting up concat1_12_concat1_12_0_split
I1220 10:21:49.815791  7551 net.cpp:129] Top shape: 1 832 28 62 (1444352)
I1220 10:21:49.815796  7551 net.cpp:129] Top shape: 1 832 28 62 (1444352)
I1220 10:21:49.815800  7551 net.cpp:137] Memory required for data: 835059640
I1220 10:21:49.815804  7551 layer_factory.hpp:77] Creating layer conv1_13/bn
I1220 10:21:49.815812  7551 net.cpp:84] Creating Layer conv1_13/bn
I1220 10:21:49.815816  7551 net.cpp:406] conv1_13/bn <- concat1_12_concat1_12_0_split_0
I1220 10:21:49.815832  7551 net.cpp:380] conv1_13/bn -> conv1_13/bn
I1220 10:21:49.816383  7551 net.cpp:122] Setting up conv1_13/bn
I1220 10:21:49.816395  7551 net.cpp:129] Top shape: 1 832 28 62 (1444352)
I1220 10:21:49.816398  7551 net.cpp:137] Memory required for data: 840837048
I1220 10:21:49.816408  7551 layer_factory.hpp:77] Creating layer conv1_13/scale
I1220 10:21:49.816419  7551 net.cpp:84] Creating Layer conv1_13/scale
I1220 10:21:49.816423  7551 net.cpp:406] conv1_13/scale <- conv1_13/bn
I1220 10:21:49.816431  7551 net.cpp:367] conv1_13/scale -> conv1_13/bn (in-place)
I1220 10:21:49.816522  7551 layer_factory.hpp:77] Creating layer conv1_13/scale
I1220 10:21:49.816803  7551 net.cpp:122] Setting up conv1_13/scale
I1220 10:21:49.816813  7551 net.cpp:129] Top shape: 1 832 28 62 (1444352)
I1220 10:21:49.816817  7551 net.cpp:137] Memory required for data: 846614456
I1220 10:21:49.816824  7551 layer_factory.hpp:77] Creating layer relu1_13
I1220 10:21:49.816831  7551 net.cpp:84] Creating Layer relu1_13
I1220 10:21:49.816835  7551 net.cpp:406] relu1_13 <- conv1_13/bn
I1220 10:21:49.816841  7551 net.cpp:367] relu1_13 -> conv1_13/bn (in-place)
I1220 10:21:49.817142  7551 net.cpp:122] Setting up relu1_13
I1220 10:21:49.817152  7551 net.cpp:129] Top shape: 1 832 28 62 (1444352)
I1220 10:21:49.817157  7551 net.cpp:137] Memory required for data: 852391864
I1220 10:21:49.817162  7551 layer_factory.hpp:77] Creating layer conv1_13
I1220 10:21:49.817173  7551 net.cpp:84] Creating Layer conv1_13
I1220 10:21:49.817178  7551 net.cpp:406] conv1_13 <- conv1_13/bn
I1220 10:21:49.817185  7551 net.cpp:380] conv1_13 -> conv1_13
I1220 10:21:49.851922  7551 net.cpp:122] Setting up conv1_13
I1220 10:21:49.851958  7551 net.cpp:129] Top shape: 1 32 28 62 (55552)
I1220 10:21:49.851963  7551 net.cpp:137] Memory required for data: 852614072
I1220 10:21:49.851974  7551 layer_factory.hpp:77] Creating layer concat1_13
I1220 10:21:49.851986  7551 net.cpp:84] Creating Layer concat1_13
I1220 10:21:49.851994  7551 net.cpp:406] concat1_13 <- concat1_12_concat1_12_0_split_1
I1220 10:21:49.852002  7551 net.cpp:406] concat1_13 <- conv1_13
I1220 10:21:49.852012  7551 net.cpp:380] concat1_13 -> concat1_13
I1220 10:21:49.852074  7551 net.cpp:122] Setting up concat1_13
I1220 10:21:49.852083  7551 net.cpp:129] Top shape: 1 864 28 62 (1499904)
I1220 10:21:49.852087  7551 net.cpp:137] Memory required for data: 858613688
I1220 10:21:49.852092  7551 layer_factory.hpp:77] Creating layer concat1_13_concat1_13_0_split
I1220 10:21:49.852098  7551 net.cpp:84] Creating Layer concat1_13_concat1_13_0_split
I1220 10:21:49.852103  7551 net.cpp:406] concat1_13_concat1_13_0_split <- concat1_13
I1220 10:21:49.852109  7551 net.cpp:380] concat1_13_concat1_13_0_split -> concat1_13_concat1_13_0_split_0
I1220 10:21:49.852116  7551 net.cpp:380] concat1_13_concat1_13_0_split -> concat1_13_concat1_13_0_split_1
I1220 10:21:49.852200  7551 net.cpp:122] Setting up concat1_13_concat1_13_0_split
I1220 10:21:49.852207  7551 net.cpp:129] Top shape: 1 864 28 62 (1499904)
I1220 10:21:49.852212  7551 net.cpp:129] Top shape: 1 864 28 62 (1499904)
I1220 10:21:49.852216  7551 net.cpp:137] Memory required for data: 870612920
I1220 10:21:49.852221  7551 layer_factory.hpp:77] Creating layer conv1_14/bn
I1220 10:21:49.852228  7551 net.cpp:84] Creating Layer conv1_14/bn
I1220 10:21:49.852233  7551 net.cpp:406] conv1_14/bn <- concat1_13_concat1_13_0_split_0
I1220 10:21:49.852244  7551 net.cpp:380] conv1_14/bn -> conv1_14/bn
I1220 10:21:49.852793  7551 net.cpp:122] Setting up conv1_14/bn
I1220 10:21:49.852803  7551 net.cpp:129] Top shape: 1 864 28 62 (1499904)
I1220 10:21:49.852807  7551 net.cpp:137] Memory required for data: 876612536
I1220 10:21:49.852816  7551 layer_factory.hpp:77] Creating layer conv1_14/scale
I1220 10:21:49.852828  7551 net.cpp:84] Creating Layer conv1_14/scale
I1220 10:21:49.852833  7551 net.cpp:406] conv1_14/scale <- conv1_14/bn
I1220 10:21:49.852838  7551 net.cpp:367] conv1_14/scale -> conv1_14/bn (in-place)
I1220 10:21:49.852936  7551 layer_factory.hpp:77] Creating layer conv1_14/scale
I1220 10:21:49.853217  7551 net.cpp:122] Setting up conv1_14/scale
I1220 10:21:49.853226  7551 net.cpp:129] Top shape: 1 864 28 62 (1499904)
I1220 10:21:49.853230  7551 net.cpp:137] Memory required for data: 882612152
I1220 10:21:49.853238  7551 layer_factory.hpp:77] Creating layer relu1_14
I1220 10:21:49.853246  7551 net.cpp:84] Creating Layer relu1_14
I1220 10:21:49.853251  7551 net.cpp:406] relu1_14 <- conv1_14/bn
I1220 10:21:49.853256  7551 net.cpp:367] relu1_14 -> conv1_14/bn (in-place)
I1220 10:21:49.853843  7551 net.cpp:122] Setting up relu1_14
I1220 10:21:49.853857  7551 net.cpp:129] Top shape: 1 864 28 62 (1499904)
I1220 10:21:49.853862  7551 net.cpp:137] Memory required for data: 888611768
I1220 10:21:49.853865  7551 layer_factory.hpp:77] Creating layer conv1_14
I1220 10:21:49.853880  7551 net.cpp:84] Creating Layer conv1_14
I1220 10:21:49.853885  7551 net.cpp:406] conv1_14 <- conv1_14/bn
I1220 10:21:49.853893  7551 net.cpp:380] conv1_14 -> conv1_14
I1220 10:21:49.864102  7551 net.cpp:122] Setting up conv1_14
I1220 10:21:49.864130  7551 net.cpp:129] Top shape: 1 32 28 62 (55552)
I1220 10:21:49.864133  7551 net.cpp:137] Memory required for data: 888833976
I1220 10:21:49.864143  7551 layer_factory.hpp:77] Creating layer concat1_14
I1220 10:21:49.864152  7551 net.cpp:84] Creating Layer concat1_14
I1220 10:21:49.864157  7551 net.cpp:406] concat1_14 <- concat1_13_concat1_13_0_split_1
I1220 10:21:49.864163  7551 net.cpp:406] concat1_14 <- conv1_14
I1220 10:21:49.864171  7551 net.cpp:380] concat1_14 -> concat1_14
I1220 10:21:49.864223  7551 net.cpp:122] Setting up concat1_14
I1220 10:21:49.864228  7551 net.cpp:129] Top shape: 1 896 28 62 (1555456)
I1220 10:21:49.864231  7551 net.cpp:137] Memory required for data: 895055800
I1220 10:21:49.864233  7551 layer_factory.hpp:77] Creating layer concat1_14_concat1_14_0_split
I1220 10:21:49.864238  7551 net.cpp:84] Creating Layer concat1_14_concat1_14_0_split
I1220 10:21:49.864241  7551 net.cpp:406] concat1_14_concat1_14_0_split <- concat1_14
I1220 10:21:49.864246  7551 net.cpp:380] concat1_14_concat1_14_0_split -> concat1_14_concat1_14_0_split_0
I1220 10:21:49.864251  7551 net.cpp:380] concat1_14_concat1_14_0_split -> concat1_14_concat1_14_0_split_1
I1220 10:21:49.864313  7551 net.cpp:122] Setting up concat1_14_concat1_14_0_split
I1220 10:21:49.864320  7551 net.cpp:129] Top shape: 1 896 28 62 (1555456)
I1220 10:21:49.864322  7551 net.cpp:129] Top shape: 1 896 28 62 (1555456)
I1220 10:21:49.864325  7551 net.cpp:137] Memory required for data: 907499448
I1220 10:21:49.864327  7551 layer_factory.hpp:77] Creating layer conv1_15/bn
I1220 10:21:49.864332  7551 net.cpp:84] Creating Layer conv1_15/bn
I1220 10:21:49.864336  7551 net.cpp:406] conv1_15/bn <- concat1_14_concat1_14_0_split_0
I1220 10:21:49.864341  7551 net.cpp:380] conv1_15/bn -> conv1_15/bn
I1220 10:21:49.864745  7551 net.cpp:122] Setting up conv1_15/bn
I1220 10:21:49.864753  7551 net.cpp:129] Top shape: 1 896 28 62 (1555456)
I1220 10:21:49.864754  7551 net.cpp:137] Memory required for data: 913721272
I1220 10:21:49.864761  7551 layer_factory.hpp:77] Creating layer conv1_15/scale
I1220 10:21:49.864770  7551 net.cpp:84] Creating Layer conv1_15/scale
I1220 10:21:49.864773  7551 net.cpp:406] conv1_15/scale <- conv1_15/bn
I1220 10:21:49.864778  7551 net.cpp:367] conv1_15/scale -> conv1_15/bn (in-place)
I1220 10:21:49.864845  7551 layer_factory.hpp:77] Creating layer conv1_15/scale
I1220 10:21:49.865049  7551 net.cpp:122] Setting up conv1_15/scale
I1220 10:21:49.865056  7551 net.cpp:129] Top shape: 1 896 28 62 (1555456)
I1220 10:21:49.865059  7551 net.cpp:137] Memory required for data: 919943096
I1220 10:21:49.865064  7551 layer_factory.hpp:77] Creating layer relu1_15
I1220 10:21:49.865069  7551 net.cpp:84] Creating Layer relu1_15
I1220 10:21:49.865072  7551 net.cpp:406] relu1_15 <- conv1_15/bn
I1220 10:21:49.865077  7551 net.cpp:367] relu1_15 -> conv1_15/bn (in-place)
I1220 10:21:49.865553  7551 net.cpp:122] Setting up relu1_15
I1220 10:21:49.865563  7551 net.cpp:129] Top shape: 1 896 28 62 (1555456)
I1220 10:21:49.865566  7551 net.cpp:137] Memory required for data: 926164920
I1220 10:21:49.865569  7551 layer_factory.hpp:77] Creating layer conv1_15
I1220 10:21:49.865579  7551 net.cpp:84] Creating Layer conv1_15
I1220 10:21:49.865582  7551 net.cpp:406] conv1_15 <- conv1_15/bn
I1220 10:21:49.865588  7551 net.cpp:380] conv1_15 -> conv1_15
I1220 10:21:49.877629  7551 net.cpp:122] Setting up conv1_15
I1220 10:21:49.877663  7551 net.cpp:129] Top shape: 1 32 28 62 (55552)
I1220 10:21:49.877668  7551 net.cpp:137] Memory required for data: 926387128
I1220 10:21:49.877679  7551 layer_factory.hpp:77] Creating layer concat1_15
I1220 10:21:49.877692  7551 net.cpp:84] Creating Layer concat1_15
I1220 10:21:49.877701  7551 net.cpp:406] concat1_15 <- concat1_14_concat1_14_0_split_1
I1220 10:21:49.877710  7551 net.cpp:406] concat1_15 <- conv1_15
I1220 10:21:49.877717  7551 net.cpp:380] concat1_15 -> concat1_15
I1220 10:21:49.877781  7551 net.cpp:122] Setting up concat1_15
I1220 10:21:49.877790  7551 net.cpp:129] Top shape: 1 928 28 62 (1611008)
I1220 10:21:49.877794  7551 net.cpp:137] Memory required for data: 932831160
I1220 10:21:49.877799  7551 layer_factory.hpp:77] Creating layer concat1_15_concat1_15_0_split
I1220 10:21:49.877809  7551 net.cpp:84] Creating Layer concat1_15_concat1_15_0_split
I1220 10:21:49.877812  7551 net.cpp:406] concat1_15_concat1_15_0_split <- concat1_15
I1220 10:21:49.877818  7551 net.cpp:380] concat1_15_concat1_15_0_split -> concat1_15_concat1_15_0_split_0
I1220 10:21:49.877826  7551 net.cpp:380] concat1_15_concat1_15_0_split -> concat1_15_concat1_15_0_split_1
I1220 10:21:49.877912  7551 net.cpp:122] Setting up concat1_15_concat1_15_0_split
I1220 10:21:49.877920  7551 net.cpp:129] Top shape: 1 928 28 62 (1611008)
I1220 10:21:49.877925  7551 net.cpp:129] Top shape: 1 928 28 62 (1611008)
I1220 10:21:49.877929  7551 net.cpp:137] Memory required for data: 945719224
I1220 10:21:49.877933  7551 layer_factory.hpp:77] Creating layer conv1_16/bn
I1220 10:21:49.877943  7551 net.cpp:84] Creating Layer conv1_16/bn
I1220 10:21:49.877946  7551 net.cpp:406] conv1_16/bn <- concat1_15_concat1_15_0_split_0
I1220 10:21:49.877954  7551 net.cpp:380] conv1_16/bn -> conv1_16/bn
I1220 10:21:49.878531  7551 net.cpp:122] Setting up conv1_16/bn
I1220 10:21:49.878541  7551 net.cpp:129] Top shape: 1 928 28 62 (1611008)
I1220 10:21:49.878545  7551 net.cpp:137] Memory required for data: 952163256
I1220 10:21:49.878556  7551 layer_factory.hpp:77] Creating layer conv1_16/scale
I1220 10:21:49.878566  7551 net.cpp:84] Creating Layer conv1_16/scale
I1220 10:21:49.878571  7551 net.cpp:406] conv1_16/scale <- conv1_16/bn
I1220 10:21:49.878579  7551 net.cpp:367] conv1_16/scale -> conv1_16/bn (in-place)
I1220 10:21:49.878677  7551 layer_factory.hpp:77] Creating layer conv1_16/scale
I1220 10:21:49.878976  7551 net.cpp:122] Setting up conv1_16/scale
I1220 10:21:49.878986  7551 net.cpp:129] Top shape: 1 928 28 62 (1611008)
I1220 10:21:49.878990  7551 net.cpp:137] Memory required for data: 958607288
I1220 10:21:49.878998  7551 layer_factory.hpp:77] Creating layer relu1_16
I1220 10:21:49.879006  7551 net.cpp:84] Creating Layer relu1_16
I1220 10:21:49.879011  7551 net.cpp:406] relu1_16 <- conv1_16/bn
I1220 10:21:49.879017  7551 net.cpp:367] relu1_16 -> conv1_16/bn (in-place)
I1220 10:21:49.879321  7551 net.cpp:122] Setting up relu1_16
I1220 10:21:49.879333  7551 net.cpp:129] Top shape: 1 928 28 62 (1611008)
I1220 10:21:49.879343  7551 net.cpp:137] Memory required for data: 965051320
I1220 10:21:49.879348  7551 layer_factory.hpp:77] Creating layer conv1_16
I1220 10:21:49.879360  7551 net.cpp:84] Creating Layer conv1_16
I1220 10:21:49.879365  7551 net.cpp:406] conv1_16 <- conv1_16/bn
I1220 10:21:49.879374  7551 net.cpp:380] conv1_16 -> conv1_16
I1220 10:21:49.893316  7551 net.cpp:122] Setting up conv1_16
I1220 10:21:49.893352  7551 net.cpp:129] Top shape: 1 32 28 62 (55552)
I1220 10:21:49.893357  7551 net.cpp:137] Memory required for data: 965273528
I1220 10:21:49.893369  7551 layer_factory.hpp:77] Creating layer concat1_16
I1220 10:21:49.893383  7551 net.cpp:84] Creating Layer concat1_16
I1220 10:21:49.893391  7551 net.cpp:406] concat1_16 <- concat1_15_concat1_15_0_split_1
I1220 10:21:49.893400  7551 net.cpp:406] concat1_16 <- conv1_16
I1220 10:21:49.893407  7551 net.cpp:380] concat1_16 -> concat1_16
I1220 10:21:49.893472  7551 net.cpp:122] Setting up concat1_16
I1220 10:21:49.893481  7551 net.cpp:129] Top shape: 1 960 28 62 (1666560)
I1220 10:21:49.893484  7551 net.cpp:137] Memory required for data: 971939768
I1220 10:21:49.893488  7551 layer_factory.hpp:77] Creating layer concat1_16_concat1_16_0_split
I1220 10:21:49.893496  7551 net.cpp:84] Creating Layer concat1_16_concat1_16_0_split
I1220 10:21:49.893501  7551 net.cpp:406] concat1_16_concat1_16_0_split <- concat1_16
I1220 10:21:49.893507  7551 net.cpp:380] concat1_16_concat1_16_0_split -> concat1_16_concat1_16_0_split_0
I1220 10:21:49.893514  7551 net.cpp:380] concat1_16_concat1_16_0_split -> concat1_16_concat1_16_0_split_1
I1220 10:21:49.893600  7551 net.cpp:122] Setting up concat1_16_concat1_16_0_split
I1220 10:21:49.893609  7551 net.cpp:129] Top shape: 1 960 28 62 (1666560)
I1220 10:21:49.893615  7551 net.cpp:129] Top shape: 1 960 28 62 (1666560)
I1220 10:21:49.893617  7551 net.cpp:137] Memory required for data: 985272248
I1220 10:21:49.893621  7551 layer_factory.hpp:77] Creating layer conv1_17/bn
I1220 10:21:49.893630  7551 net.cpp:84] Creating Layer conv1_17/bn
I1220 10:21:49.893635  7551 net.cpp:406] conv1_17/bn <- concat1_16_concat1_16_0_split_0
I1220 10:21:49.893641  7551 net.cpp:380] conv1_17/bn -> conv1_17/bn
I1220 10:21:49.894230  7551 net.cpp:122] Setting up conv1_17/bn
I1220 10:21:49.894239  7551 net.cpp:129] Top shape: 1 960 28 62 (1666560)
I1220 10:21:49.894243  7551 net.cpp:137] Memory required for data: 991938488
I1220 10:21:49.894253  7551 layer_factory.hpp:77] Creating layer conv1_17/scale
I1220 10:21:49.894264  7551 net.cpp:84] Creating Layer conv1_17/scale
I1220 10:21:49.894269  7551 net.cpp:406] conv1_17/scale <- conv1_17/bn
I1220 10:21:49.894275  7551 net.cpp:367] conv1_17/scale -> conv1_17/bn (in-place)
I1220 10:21:49.894373  7551 layer_factory.hpp:77] Creating layer conv1_17/scale
I1220 10:21:49.894670  7551 net.cpp:122] Setting up conv1_17/scale
I1220 10:21:49.894678  7551 net.cpp:129] Top shape: 1 960 28 62 (1666560)
I1220 10:21:49.894682  7551 net.cpp:137] Memory required for data: 998604728
I1220 10:21:49.894690  7551 layer_factory.hpp:77] Creating layer relu1_17
I1220 10:21:49.894697  7551 net.cpp:84] Creating Layer relu1_17
I1220 10:21:49.894701  7551 net.cpp:406] relu1_17 <- conv1_17/bn
I1220 10:21:49.894707  7551 net.cpp:367] relu1_17 -> conv1_17/bn (in-place)
I1220 10:21:49.895532  7551 net.cpp:122] Setting up relu1_17
I1220 10:21:49.895546  7551 net.cpp:129] Top shape: 1 960 28 62 (1666560)
I1220 10:21:49.895550  7551 net.cpp:137] Memory required for data: 1005270968
I1220 10:21:49.895555  7551 layer_factory.hpp:77] Creating layer conv1_17
I1220 10:21:49.895568  7551 net.cpp:84] Creating Layer conv1_17
I1220 10:21:49.895573  7551 net.cpp:406] conv1_17 <- conv1_17/bn
I1220 10:21:49.895582  7551 net.cpp:380] conv1_17 -> conv1_17
I1220 10:21:49.909098  7551 net.cpp:122] Setting up conv1_17
I1220 10:21:49.909132  7551 net.cpp:129] Top shape: 1 32 28 62 (55552)
I1220 10:21:49.909137  7551 net.cpp:137] Memory required for data: 1005493176
I1220 10:21:49.909148  7551 layer_factory.hpp:77] Creating layer concat1_17
I1220 10:21:49.909165  7551 net.cpp:84] Creating Layer concat1_17
I1220 10:21:49.909173  7551 net.cpp:406] concat1_17 <- concat1_16_concat1_16_0_split_1
I1220 10:21:49.909181  7551 net.cpp:406] concat1_17 <- conv1_17
I1220 10:21:49.909191  7551 net.cpp:380] concat1_17 -> concat1_17
I1220 10:21:49.909258  7551 net.cpp:122] Setting up concat1_17
I1220 10:21:49.909266  7551 net.cpp:129] Top shape: 1 992 28 62 (1722112)
I1220 10:21:49.909271  7551 net.cpp:137] Memory required for data: 1012381624
I1220 10:21:49.909274  7551 layer_factory.hpp:77] Creating layer concat1_17_concat1_17_0_split
I1220 10:21:49.909281  7551 net.cpp:84] Creating Layer concat1_17_concat1_17_0_split
I1220 10:21:49.909286  7551 net.cpp:406] concat1_17_concat1_17_0_split <- concat1_17
I1220 10:21:49.909293  7551 net.cpp:380] concat1_17_concat1_17_0_split -> concat1_17_concat1_17_0_split_0
I1220 10:21:49.909301  7551 net.cpp:380] concat1_17_concat1_17_0_split -> concat1_17_concat1_17_0_split_1
I1220 10:21:49.909392  7551 net.cpp:122] Setting up concat1_17_concat1_17_0_split
I1220 10:21:49.909400  7551 net.cpp:129] Top shape: 1 992 28 62 (1722112)
I1220 10:21:49.909405  7551 net.cpp:129] Top shape: 1 992 28 62 (1722112)
I1220 10:21:49.909409  7551 net.cpp:137] Memory required for data: 1026158520
I1220 10:21:49.909413  7551 layer_factory.hpp:77] Creating layer conv1_18/bn
I1220 10:21:49.909422  7551 net.cpp:84] Creating Layer conv1_18/bn
I1220 10:21:49.909426  7551 net.cpp:406] conv1_18/bn <- concat1_17_concat1_17_0_split_0
I1220 10:21:49.909433  7551 net.cpp:380] conv1_18/bn -> conv1_18/bn
I1220 10:21:49.910020  7551 net.cpp:122] Setting up conv1_18/bn
I1220 10:21:49.910029  7551 net.cpp:129] Top shape: 1 992 28 62 (1722112)
I1220 10:21:49.910033  7551 net.cpp:137] Memory required for data: 1033046968
I1220 10:21:49.910043  7551 layer_factory.hpp:77] Creating layer conv1_18/scale
I1220 10:21:49.910054  7551 net.cpp:84] Creating Layer conv1_18/scale
I1220 10:21:49.910059  7551 net.cpp:406] conv1_18/scale <- conv1_18/bn
I1220 10:21:49.910065  7551 net.cpp:367] conv1_18/scale -> conv1_18/bn (in-place)
I1220 10:21:49.910162  7551 layer_factory.hpp:77] Creating layer conv1_18/scale
I1220 10:21:49.910466  7551 net.cpp:122] Setting up conv1_18/scale
I1220 10:21:49.910476  7551 net.cpp:129] Top shape: 1 992 28 62 (1722112)
I1220 10:21:49.910480  7551 net.cpp:137] Memory required for data: 1039935416
I1220 10:21:49.910487  7551 layer_factory.hpp:77] Creating layer relu1_18
I1220 10:21:49.910495  7551 net.cpp:84] Creating Layer relu1_18
I1220 10:21:49.910501  7551 net.cpp:406] relu1_18 <- conv1_18/bn
I1220 10:21:49.910506  7551 net.cpp:367] relu1_18 -> conv1_18/bn (in-place)
I1220 10:21:49.910775  7551 net.cpp:122] Setting up relu1_18
I1220 10:21:49.910786  7551 net.cpp:129] Top shape: 1 992 28 62 (1722112)
I1220 10:21:49.910790  7551 net.cpp:137] Memory required for data: 1046823864
I1220 10:21:49.910794  7551 layer_factory.hpp:77] Creating layer conv1_18
I1220 10:21:49.910807  7551 net.cpp:84] Creating Layer conv1_18
I1220 10:21:49.910811  7551 net.cpp:406] conv1_18 <- conv1_18/bn
I1220 10:21:49.910820  7551 net.cpp:380] conv1_18 -> conv1_18
I1220 10:21:49.925748  7551 net.cpp:122] Setting up conv1_18
I1220 10:21:49.925787  7551 net.cpp:129] Top shape: 1 32 28 62 (55552)
I1220 10:21:49.925791  7551 net.cpp:137] Memory required for data: 1047046072
I1220 10:21:49.925803  7551 layer_factory.hpp:77] Creating layer concat1_18
I1220 10:21:49.925818  7551 net.cpp:84] Creating Layer concat1_18
I1220 10:21:49.925827  7551 net.cpp:406] concat1_18 <- concat1_17_concat1_17_0_split_1
I1220 10:21:49.925835  7551 net.cpp:406] concat1_18 <- conv1_18
I1220 10:21:49.925843  7551 net.cpp:380] concat1_18 -> concat1_18
I1220 10:21:49.925915  7551 net.cpp:122] Setting up concat1_18
I1220 10:21:49.925922  7551 net.cpp:129] Top shape: 1 1024 28 62 (1777664)
I1220 10:21:49.925926  7551 net.cpp:137] Memory required for data: 1054156728
I1220 10:21:49.925930  7551 layer_factory.hpp:77] Creating layer concat1_18_concat1_18_0_split
I1220 10:21:49.925938  7551 net.cpp:84] Creating Layer concat1_18_concat1_18_0_split
I1220 10:21:49.925947  7551 net.cpp:406] concat1_18_concat1_18_0_split <- concat1_18
I1220 10:21:49.925954  7551 net.cpp:380] concat1_18_concat1_18_0_split -> concat1_18_concat1_18_0_split_0
I1220 10:21:49.925961  7551 net.cpp:380] concat1_18_concat1_18_0_split -> concat1_18_concat1_18_0_split_1
I1220 10:21:49.926053  7551 net.cpp:122] Setting up concat1_18_concat1_18_0_split
I1220 10:21:49.926060  7551 net.cpp:129] Top shape: 1 1024 28 62 (1777664)
I1220 10:21:49.926066  7551 net.cpp:129] Top shape: 1 1024 28 62 (1777664)
I1220 10:21:49.926069  7551 net.cpp:137] Memory required for data: 1068378040
I1220 10:21:49.926074  7551 layer_factory.hpp:77] Creating layer conv1_19/bn
I1220 10:21:49.926084  7551 net.cpp:84] Creating Layer conv1_19/bn
I1220 10:21:49.926087  7551 net.cpp:406] conv1_19/bn <- concat1_18_concat1_18_0_split_0
I1220 10:21:49.926095  7551 net.cpp:380] conv1_19/bn -> conv1_19/bn
I1220 10:21:49.926687  7551 net.cpp:122] Setting up conv1_19/bn
I1220 10:21:49.926695  7551 net.cpp:129] Top shape: 1 1024 28 62 (1777664)
I1220 10:21:49.926699  7551 net.cpp:137] Memory required for data: 1075488696
I1220 10:21:49.926710  7551 layer_factory.hpp:77] Creating layer conv1_19/scale
I1220 10:21:49.926719  7551 net.cpp:84] Creating Layer conv1_19/scale
I1220 10:21:49.926724  7551 net.cpp:406] conv1_19/scale <- conv1_19/bn
I1220 10:21:49.926733  7551 net.cpp:367] conv1_19/scale -> conv1_19/bn (in-place)
I1220 10:21:49.926826  7551 layer_factory.hpp:77] Creating layer conv1_19/scale
I1220 10:21:49.927117  7551 net.cpp:122] Setting up conv1_19/scale
I1220 10:21:49.927126  7551 net.cpp:129] Top shape: 1 1024 28 62 (1777664)
I1220 10:21:49.927130  7551 net.cpp:137] Memory required for data: 1082599352
I1220 10:21:49.927137  7551 layer_factory.hpp:77] Creating layer relu1_19
I1220 10:21:49.927145  7551 net.cpp:84] Creating Layer relu1_19
I1220 10:21:49.927150  7551 net.cpp:406] relu1_19 <- conv1_19/bn
I1220 10:21:49.927155  7551 net.cpp:367] relu1_19 -> conv1_19/bn (in-place)
I1220 10:21:49.927801  7551 net.cpp:122] Setting up relu1_19
I1220 10:21:49.927815  7551 net.cpp:129] Top shape: 1 1024 28 62 (1777664)
I1220 10:21:49.927819  7551 net.cpp:137] Memory required for data: 1089710008
I1220 10:21:49.927824  7551 layer_factory.hpp:77] Creating layer conv1_19
I1220 10:21:49.927839  7551 net.cpp:84] Creating Layer conv1_19
I1220 10:21:49.927844  7551 net.cpp:406] conv1_19 <- conv1_19/bn
I1220 10:21:49.927853  7551 net.cpp:380] conv1_19 -> conv1_19
I1220 10:21:49.943635  7551 net.cpp:122] Setting up conv1_19
I1220 10:21:49.943672  7551 net.cpp:129] Top shape: 1 32 28 62 (55552)
I1220 10:21:49.943677  7551 net.cpp:137] Memory required for data: 1089932216
I1220 10:21:49.943688  7551 layer_factory.hpp:77] Creating layer concat1_19
I1220 10:21:49.943701  7551 net.cpp:84] Creating Layer concat1_19
I1220 10:21:49.943709  7551 net.cpp:406] concat1_19 <- concat1_18_concat1_18_0_split_1
I1220 10:21:49.943717  7551 net.cpp:406] concat1_19 <- conv1_19
I1220 10:21:49.943724  7551 net.cpp:380] concat1_19 -> concat1_19
I1220 10:21:49.943801  7551 net.cpp:122] Setting up concat1_19
I1220 10:21:49.943810  7551 net.cpp:129] Top shape: 1 1056 28 62 (1833216)
I1220 10:21:49.943814  7551 net.cpp:137] Memory required for data: 1097265080
I1220 10:21:49.943819  7551 layer_factory.hpp:77] Creating layer concat1_19_concat1_19_0_split
I1220 10:21:49.943826  7551 net.cpp:84] Creating Layer concat1_19_concat1_19_0_split
I1220 10:21:49.943830  7551 net.cpp:406] concat1_19_concat1_19_0_split <- concat1_19
I1220 10:21:49.943836  7551 net.cpp:380] concat1_19_concat1_19_0_split -> concat1_19_concat1_19_0_split_0
I1220 10:21:49.943845  7551 net.cpp:380] concat1_19_concat1_19_0_split -> concat1_19_concat1_19_0_split_1
I1220 10:21:49.943936  7551 net.cpp:122] Setting up concat1_19_concat1_19_0_split
I1220 10:21:49.943946  7551 net.cpp:129] Top shape: 1 1056 28 62 (1833216)
I1220 10:21:49.943953  7551 net.cpp:129] Top shape: 1 1056 28 62 (1833216)
I1220 10:21:49.943955  7551 net.cpp:137] Memory required for data: 1111930808
I1220 10:21:49.943959  7551 layer_factory.hpp:77] Creating layer conv1_20/bn
I1220 10:21:49.943971  7551 net.cpp:84] Creating Layer conv1_20/bn
I1220 10:21:49.943976  7551 net.cpp:406] conv1_20/bn <- concat1_19_concat1_19_0_split_0
I1220 10:21:49.943992  7551 net.cpp:380] conv1_20/bn -> conv1_20/bn
I1220 10:21:49.944576  7551 net.cpp:122] Setting up conv1_20/bn
I1220 10:21:49.944586  7551 net.cpp:129] Top shape: 1 1056 28 62 (1833216)
I1220 10:21:49.944591  7551 net.cpp:137] Memory required for data: 1119263672
I1220 10:21:49.944600  7551 layer_factory.hpp:77] Creating layer conv1_20/scale
I1220 10:21:49.944612  7551 net.cpp:84] Creating Layer conv1_20/scale
I1220 10:21:49.944617  7551 net.cpp:406] conv1_20/scale <- conv1_20/bn
I1220 10:21:49.944624  7551 net.cpp:367] conv1_20/scale -> conv1_20/bn (in-place)
I1220 10:21:49.944717  7551 layer_factory.hpp:77] Creating layer conv1_20/scale
I1220 10:21:49.945019  7551 net.cpp:122] Setting up conv1_20/scale
I1220 10:21:49.945029  7551 net.cpp:129] Top shape: 1 1056 28 62 (1833216)
I1220 10:21:49.945031  7551 net.cpp:137] Memory required for data: 1126596536
I1220 10:21:49.945039  7551 layer_factory.hpp:77] Creating layer relu1_20
I1220 10:21:49.945047  7551 net.cpp:84] Creating Layer relu1_20
I1220 10:21:49.945051  7551 net.cpp:406] relu1_20 <- conv1_20/bn
I1220 10:21:49.945057  7551 net.cpp:367] relu1_20 -> conv1_20/bn (in-place)
I1220 10:21:49.945678  7551 net.cpp:122] Setting up relu1_20
I1220 10:21:49.945691  7551 net.cpp:129] Top shape: 1 1056 28 62 (1833216)
I1220 10:21:49.945696  7551 net.cpp:137] Memory required for data: 1133929400
I1220 10:21:49.945701  7551 layer_factory.hpp:77] Creating layer conv1_20
I1220 10:21:49.945714  7551 net.cpp:84] Creating Layer conv1_20
I1220 10:21:49.945719  7551 net.cpp:406] conv1_20 <- conv1_20/bn
I1220 10:21:49.945729  7551 net.cpp:380] conv1_20 -> conv1_20
I1220 10:21:49.957552  7551 net.cpp:122] Setting up conv1_20
I1220 10:21:49.957579  7551 net.cpp:129] Top shape: 1 32 28 62 (55552)
I1220 10:21:49.957582  7551 net.cpp:137] Memory required for data: 1134151608
I1220 10:21:49.957589  7551 layer_factory.hpp:77] Creating layer concat1_20
I1220 10:21:49.957600  7551 net.cpp:84] Creating Layer concat1_20
I1220 10:21:49.957607  7551 net.cpp:406] concat1_20 <- concat1_19_concat1_19_0_split_1
I1220 10:21:49.957612  7551 net.cpp:406] concat1_20 <- conv1_20
I1220 10:21:49.957617  7551 net.cpp:380] concat1_20 -> concat1_20
I1220 10:21:49.957667  7551 net.cpp:122] Setting up concat1_20
I1220 10:21:49.957674  7551 net.cpp:129] Top shape: 1 1088 28 62 (1888768)
I1220 10:21:49.957675  7551 net.cpp:137] Memory required for data: 1141706680
I1220 10:21:49.957679  7551 layer_factory.hpp:77] Creating layer concat1_20_concat1_20_0_split
I1220 10:21:49.957684  7551 net.cpp:84] Creating Layer concat1_20_concat1_20_0_split
I1220 10:21:49.957686  7551 net.cpp:406] concat1_20_concat1_20_0_split <- concat1_20
I1220 10:21:49.957691  7551 net.cpp:380] concat1_20_concat1_20_0_split -> concat1_20_concat1_20_0_split_0
I1220 10:21:49.957696  7551 net.cpp:380] concat1_20_concat1_20_0_split -> concat1_20_concat1_20_0_split_1
I1220 10:21:49.957763  7551 net.cpp:122] Setting up concat1_20_concat1_20_0_split
I1220 10:21:49.957768  7551 net.cpp:129] Top shape: 1 1088 28 62 (1888768)
I1220 10:21:49.957772  7551 net.cpp:129] Top shape: 1 1088 28 62 (1888768)
I1220 10:21:49.957774  7551 net.cpp:137] Memory required for data: 1156816824
I1220 10:21:49.957777  7551 layer_factory.hpp:77] Creating layer conv1_21/bn
I1220 10:21:49.957782  7551 net.cpp:84] Creating Layer conv1_21/bn
I1220 10:21:49.957785  7551 net.cpp:406] conv1_21/bn <- concat1_20_concat1_20_0_split_0
I1220 10:21:49.957790  7551 net.cpp:380] conv1_21/bn -> conv1_21/bn
I1220 10:21:49.958221  7551 net.cpp:122] Setting up conv1_21/bn
I1220 10:21:49.958228  7551 net.cpp:129] Top shape: 1 1088 28 62 (1888768)
I1220 10:21:49.958230  7551 net.cpp:137] Memory required for data: 1164371896
I1220 10:21:49.958236  7551 layer_factory.hpp:77] Creating layer conv1_21/scale
I1220 10:21:49.958243  7551 net.cpp:84] Creating Layer conv1_21/scale
…
I1220 10:21:51.122478  7551 net.cpp:129] Top shape: 1 736 17 35 (437920)
I1220 10:21:51.122481  7551 net.cpp:137] Memory required for data: 262004688
I1220 10:21:51.122484  7551 layer_factory.hpp:77] Creating layer conv1_10
I1220 10:21:51.122494  7551 net.cpp:84] Creating Layer conv1_10
I1220 10:21:51.122498  7551 net.cpp:406] conv1_10 <- conv1_10/bn
I1220 10:21:51.122503  7551 net.cpp:380] conv1_10 -> conv1_10
I1220 10:21:51.155009  7551 net.cpp:122] Setting up conv1_10
I1220 10:21:51.155046  7551 net.cpp:129] Top shape: 1 32 17 35 (19040)
I1220 10:21:51.155050  7551 net.cpp:137] Memory required for data: 262080848
I1220 10:21:51.155061  7551 layer_factory.hpp:77] Creating layer concat1_10
I1220 10:21:51.155074  7551 net.cpp:84] Creating Layer concat1_10
I1220 10:21:51.155083  7551 net.cpp:406] concat1_10 <- concat1_9_concat1_9_0_split_1
I1220 10:21:51.155092  7551 net.cpp:406] concat1_10 <- conv1_10
I1220 10:21:51.155098  7551 net.cpp:380] concat1_10 -> concat1_10
I1220 10:21:51.155153  7551 net.cpp:122] Setting up concat1_10
I1220 10:21:51.155160  7551 net.cpp:129] Top shape: 1 768 17 35 (456960)
I1220 10:21:51.155164  7551 net.cpp:137] Memory required for data: 263908688
I1220 10:21:51.155174  7551 layer_factory.hpp:77] Creating layer concat1_10_concat1_10_0_split
I1220 10:21:51.155182  7551 net.cpp:84] Creating Layer concat1_10_concat1_10_0_split
I1220 10:21:51.155186  7551 net.cpp:406] concat1_10_concat1_10_0_split <- concat1_10
I1220 10:21:51.155192  7551 net.cpp:380] concat1_10_concat1_10_0_split -> concat1_10_concat1_10_0_split_0
I1220 10:21:51.155200  7551 net.cpp:380] concat1_10_concat1_10_0_split -> concat1_10_concat1_10_0_split_1
I1220 10:21:51.155267  7551 net.cpp:122] Setting up concat1_10_concat1_10_0_split
I1220 10:21:51.155274  7551 net.cpp:129] Top shape: 1 768 17 35 (456960)
I1220 10:21:51.155280  7551 net.cpp:129] Top shape: 1 768 17 35 (456960)
I1220 10:21:51.155284  7551 net.cpp:137] Memory required for data: 267564368
I1220 10:21:51.155288  7551 layer_factory.hpp:77] Creating layer conv1_11/bn
I1220 10:21:51.155297  7551 net.cpp:84] Creating Layer conv1_11/bn
I1220 10:21:51.155300  7551 net.cpp:406] conv1_11/bn <- concat1_10_concat1_10_0_split_0
I1220 10:21:51.155308  7551 net.cpp:380] conv1_11/bn -> conv1_11/bn
I1220 10:21:51.155838  7551 net.cpp:122] Setting up conv1_11/bn
I1220 10:21:51.155849  7551 net.cpp:129] Top shape: 1 768 17 35 (456960)
I1220 10:21:51.155853  7551 net.cpp:137] Memory required for data: 269392208
I1220 10:21:51.155865  7551 layer_factory.hpp:77] Creating layer conv1_11/scale
I1220 10:21:51.155875  7551 net.cpp:84] Creating Layer conv1_11/scale
I1220 10:21:51.155880  7551 net.cpp:406] conv1_11/scale <- conv1_11/bn
I1220 10:21:51.155886  7551 net.cpp:367] conv1_11/scale -> conv1_11/bn (in-place)
I1220 10:21:51.155994  7551 layer_factory.hpp:77] Creating layer conv1_11/scale
I1220 10:21:51.156304  7551 net.cpp:122] Setting up conv1_11/scale
I1220 10:21:51.156316  7551 net.cpp:129] Top shape: 1 768 17 35 (456960)
I1220 10:21:51.156319  7551 net.cpp:137] Memory required for data: 271220048
I1220 10:21:51.156327  7551 layer_factory.hpp:77] Creating layer relu1_11
I1220 10:21:51.156334  7551 net.cpp:84] Creating Layer relu1_11
I1220 10:21:51.156339  7551 net.cpp:406] relu1_11 <- conv1_11/bn
I1220 10:21:51.156345  7551 net.cpp:367] relu1_11 -> conv1_11/bn (in-place)
I1220 10:21:51.156651  7551 net.cpp:122] Setting up relu1_11
I1220 10:21:51.156661  7551 net.cpp:129] Top shape: 1 768 17 35 (456960)
I1220 10:21:51.156666  7551 net.cpp:137] Memory required for data: 273047888
I1220 10:21:51.156669  7551 layer_factory.hpp:77] Creating layer conv1_11
I1220 10:21:51.156683  7551 net.cpp:84] Creating Layer conv1_11
I1220 10:21:51.156688  7551 net.cpp:406] conv1_11 <- conv1_11/bn
I1220 10:21:51.156697  7551 net.cpp:380] conv1_11 -> conv1_11
I1220 10:21:51.177101  7551 net.cpp:122] Setting up conv1_11
I1220 10:21:51.177139  7551 net.cpp:129] Top shape: 1 32 17 35 (19040)
I1220 10:21:51.177144  7551 net.cpp:137] Memory required for data: 273124048
I1220 10:21:51.177155  7551 layer_factory.hpp:77] Creating layer concat1_11
I1220 10:21:51.177165  7551 net.cpp:84] Creating Layer concat1_11
I1220 10:21:51.177173  7551 net.cpp:406] concat1_11 <- concat1_10_concat1_10_0_split_1
I1220 10:21:51.177181  7551 net.cpp:406] concat1_11 <- conv1_11
I1220 10:21:51.177191  7551 net.cpp:380] concat1_11 -> concat1_11
I1220 10:21:51.177245  7551 net.cpp:122] Setting up concat1_11
I1220 10:21:51.177254  7551 net.cpp:129] Top shape: 1 800 17 35 (476000)
I1220 10:21:51.177258  7551 net.cpp:137] Memory required for data: 275028048
I1220 10:21:51.177263  7551 layer_factory.hpp:77] Creating layer concat1_11_concat1_11_0_split
I1220 10:21:51.177268  7551 net.cpp:84] Creating Layer concat1_11_concat1_11_0_split
I1220 10:21:51.177273  7551 net.cpp:406] concat1_11_concat1_11_0_split <- concat1_11
I1220 10:21:51.177280  7551 net.cpp:380] concat1_11_concat1_11_0_split -> concat1_11_concat1_11_0_split_0
I1220 10:21:51.177287  7551 net.cpp:380] concat1_11_concat1_11_0_split -> concat1_11_concat1_11_0_split_1
I1220 10:21:51.177359  7551 net.cpp:122] Setting up concat1_11_concat1_11_0_split
I1220 10:21:51.177366  7551 net.cpp:129] Top shape: 1 800 17 35 (476000)
I1220 10:21:51.177372  7551 net.cpp:129] Top shape: 1 800 17 35 (476000)
I1220 10:21:51.177381  7551 net.cpp:137] Memory required for data: 278836048
I1220 10:21:51.177384  7551 layer_factory.hpp:77] Creating layer conv1_12/bn
I1220 10:21:51.177392  7551 net.cpp:84] Creating Layer conv1_12/bn
I1220 10:21:51.177397  7551 net.cpp:406] conv1_12/bn <- concat1_11_concat1_11_0_split_0
I1220 10:21:51.177403  7551 net.cpp:380] conv1_12/bn -> conv1_12/bn
I1220 10:21:51.177961  7551 net.cpp:122] Setting up conv1_12/bn
I1220 10:21:51.177970  7551 net.cpp:129] Top shape: 1 800 17 35 (476000)
I1220 10:21:51.177974  7551 net.cpp:137] Memory required for data: 280740048
I1220 10:21:51.177983  7551 layer_factory.hpp:77] Creating layer conv1_12/scale
I1220 10:21:51.177994  7551 net.cpp:84] Creating Layer conv1_12/scale
I1220 10:21:51.177999  7551 net.cpp:406] conv1_12/scale <- conv1_12/bn
I1220 10:21:51.178005  7551 net.cpp:367] conv1_12/scale -> conv1_12/bn (in-place)
I1220 10:21:51.178108  7551 layer_factory.hpp:77] Creating layer conv1_12/scale
I1220 10:21:51.178434  7551 net.cpp:122] Setting up conv1_12/scale
I1220 10:21:51.178443  7551 net.cpp:129] Top shape: 1 800 17 35 (476000)
I1220 10:21:51.178447  7551 net.cpp:137] Memory required for data: 282644048
I1220 10:21:51.178454  7551 layer_factory.hpp:77] Creating layer relu1_12
I1220 10:21:51.178462  7551 net.cpp:84] Creating Layer relu1_12
I1220 10:21:51.178467  7551 net.cpp:406] relu1_12 <- conv1_12/bn
I1220 10:21:51.178472  7551 net.cpp:367] relu1_12 -> conv1_12/bn (in-place)
I1220 10:21:51.179085  7551 net.cpp:122] Setting up relu1_12
I1220 10:21:51.179098  7551 net.cpp:129] Top shape: 1 800 17 35 (476000)
I1220 10:21:51.179102  7551 net.cpp:137] Memory required for data: 284548048
I1220 10:21:51.179107  7551 layer_factory.hpp:77] Creating layer conv1_12
I1220 10:21:51.179121  7551 net.cpp:84] Creating Layer conv1_12
I1220 10:21:51.179126  7551 net.cpp:406] conv1_12 <- conv1_12/bn
I1220 10:21:51.179133  7551 net.cpp:380] conv1_12 -> conv1_12
I1220 10:21:51.191267  7551 net.cpp:122] Setting up conv1_12
I1220 10:21:51.191301  7551 net.cpp:129] Top shape: 1 32 17 35 (19040)
I1220 10:21:51.191306  7551 net.cpp:137] Memory required for data: 284624208
I1220 10:21:51.191316  7551 layer_factory.hpp:77] Creating layer concat1_12
I1220 10:21:51.191329  7551 net.cpp:84] Creating Layer concat1_12
I1220 10:21:51.191337  7551 net.cpp:406] concat1_12 <- concat1_11_concat1_11_0_split_1
I1220 10:21:51.191345  7551 net.cpp:406] concat1_12 <- conv1_12
I1220 10:21:51.191352  7551 net.cpp:380] concat1_12 -> concat1_12
I1220 10:21:51.191409  7551 net.cpp:122] Setting up concat1_12
I1220 10:21:51.191417  7551 net.cpp:129] Top shape: 1 832 17 35 (495040)
I1220 10:21:51.191421  7551 net.cpp:137] Memory required for data: 286604368
I1220 10:21:51.191426  7551 layer_factory.hpp:77] Creating layer concat1_12_concat1_12_0_split
I1220 10:21:51.191432  7551 net.cpp:84] Creating Layer concat1_12_concat1_12_0_split
I1220 10:21:51.191437  7551 net.cpp:406] concat1_12_concat1_12_0_split <- concat1_12
I1220 10:21:51.191444  7551 net.cpp:380] concat1_12_concat1_12_0_split -> concat1_12_concat1_12_0_split_0
I1220 10:21:51.191452  7551 net.cpp:380] concat1_12_concat1_12_0_split -> concat1_12_concat1_12_0_split_1
I1220 10:21:51.191525  7551 net.cpp:122] Setting up concat1_12_concat1_12_0_split
I1220 10:21:51.191534  7551 net.cpp:129] Top shape: 1 832 17 35 (495040)
I1220 10:21:51.191539  7551 net.cpp:129] Top shape: 1 832 17 35 (495040)
I1220 10:21:51.191542  7551 net.cpp:137] Memory required for data: 290564688
I1220 10:21:51.191546  7551 layer_factory.hpp:77] Creating layer conv1_13/bn
I1220 10:21:51.191553  7551 net.cpp:84] Creating Layer conv1_13/bn
I1220 10:21:51.191558  7551 net.cpp:406] conv1_13/bn <- concat1_12_concat1_12_0_split_0
I1220 10:21:51.191565  7551 net.cpp:380] conv1_13/bn -> conv1_13/bn
I1220 10:21:51.192148  7551 net.cpp:122] Setting up conv1_13/bn
I1220 10:21:51.192158  7551 net.cpp:129] Top shape: 1 832 17 35 (495040)
I1220 10:21:51.192162  7551 net.cpp:137] Memory required for data: 292544848
I1220 10:21:51.192173  7551 layer_factory.hpp:77] Creating layer conv1_13/scale
I1220 10:21:51.192188  7551 net.cpp:84] Creating Layer conv1_13/scale
I1220 10:21:51.192193  7551 net.cpp:406] conv1_13/scale <- conv1_13/bn
I1220 10:21:51.192199  7551 net.cpp:367] conv1_13/scale -> conv1_13/bn (in-place)
I1220 10:21:51.192307  7551 layer_factory.hpp:77] Creating layer conv1_13/scale
I1220 10:21:51.192633  7551 net.cpp:122] Setting up conv1_13/scale
I1220 10:21:51.192644  7551 net.cpp:129] Top shape: 1 832 17 35 (495040)
I1220 10:21:51.192648  7551 net.cpp:137] Memory required for data: 294525008
I1220 10:21:51.192656  7551 layer_factory.hpp:77] Creating layer relu1_13
I1220 10:21:51.192662  7551 net.cpp:84] Creating Layer relu1_13
I1220 10:21:51.192667  7551 net.cpp:406] relu1_13 <- conv1_13/bn
I1220 10:21:51.192673  7551 net.cpp:367] relu1_13 -> conv1_13/bn (in-place)
I1220 10:21:51.193292  7551 net.cpp:122] Setting up relu1_13
I1220 10:21:51.193306  7551 net.cpp:129] Top shape: 1 832 17 35 (495040)
I1220 10:21:51.193311  7551 net.cpp:137] Memory required for data: 296505168
I1220 10:21:51.193315  7551 layer_factory.hpp:77] Creating layer conv1_13
I1220 10:21:51.193331  7551 net.cpp:84] Creating Layer conv1_13
I1220 10:21:51.193336  7551 net.cpp:406] conv1_13 <- conv1_13/bn
I1220 10:21:51.193343  7551 net.cpp:380] conv1_13 -> conv1_13
I1220 10:21:51.207669  7551 net.cpp:122] Setting up conv1_13
I1220 10:21:51.207698  7551 net.cpp:129] Top shape: 1 32 17 35 (19040)
I1220 10:21:51.207701  7551 net.cpp:137] Memory required for data: 296581328
I1220 10:21:51.207710  7551 layer_factory.hpp:77] Creating layer concat1_13
I1220 10:21:51.207721  7551 net.cpp:84] Creating Layer concat1_13
I1220 10:21:51.207726  7551 net.cpp:406] concat1_13 <- concat1_12_concat1_12_0_split_1
I1220 10:21:51.207733  7551 net.cpp:406] concat1_13 <- conv1_13
I1220 10:21:51.207737  7551 net.cpp:380] concat1_13 -> concat1_13
I1220 10:21:51.207793  7551 net.cpp:122] Setting up concat1_13
I1220 10:21:51.207800  7551 net.cpp:129] Top shape: 1 864 17 35 (514080)
I1220 10:21:51.207803  7551 net.cpp:137] Memory required for data: 298637648
I1220 10:21:51.207805  7551 layer_factory.hpp:77] Creating layer concat1_13_concat1_13_0_split
I1220 10:21:51.207811  7551 net.cpp:84] Creating Layer concat1_13_concat1_13_0_split
I1220 10:21:51.207814  7551 net.cpp:406] concat1_13_concat1_13_0_split <- concat1_13
I1220 10:21:51.207818  7551 net.cpp:380] concat1_13_concat1_13_0_split -> concat1_13_concat1_13_0_split_0
I1220 10:21:51.207824  7551 net.cpp:380] concat1_13_concat1_13_0_split -> concat1_13_concat1_13_0_split_1
I1220 10:21:51.207885  7551 net.cpp:122] Setting up concat1_13_concat1_13_0_split
I1220 10:21:51.207890  7551 net.cpp:129] Top shape: 1 864 17 35 (514080)
I1220 10:21:51.207893  7551 net.cpp:129] Top shape: 1 864 17 35 (514080)
I1220 10:21:51.207895  7551 net.cpp:137] Memory required for data: 302750288
I1220 10:21:51.207898  7551 layer_factory.hpp:77] Creating layer conv1_14/bn
I1220 10:21:51.207904  7551 net.cpp:84] Creating Layer conv1_14/bn
I1220 10:21:51.207907  7551 net.cpp:406] conv1_14/bn <- concat1_13_concat1_13_0_split_0
I1220 10:21:51.207912  7551 net.cpp:380] conv1_14/bn -> conv1_14/bn
I1220 10:21:51.208348  7551 net.cpp:122] Setting up conv1_14/bn
I1220 10:21:51.208356  7551 net.cpp:129] Top shape: 1 864 17 35 (514080)
I1220 10:21:51.208359  7551 net.cpp:137] Memory required for data: 304806608
I1220 10:21:51.208364  7551 layer_factory.hpp:77] Creating layer conv1_14/scale
I1220 10:21:51.208372  7551 net.cpp:84] Creating Layer conv1_14/scale
I1220 10:21:51.208375  7551 net.cpp:406] conv1_14/scale <- conv1_14/bn
I1220 10:21:51.208380  7551 net.cpp:367] conv1_14/scale -> conv1_14/bn (in-place)
I1220 10:21:51.208464  7551 layer_factory.hpp:77] Creating layer conv1_14/scale
I1220 10:21:51.208726  7551 net.cpp:122] Setting up conv1_14/scale
I1220 10:21:51.208734  7551 net.cpp:129] Top shape: 1 864 17 35 (514080)
I1220 10:21:51.208736  7551 net.cpp:137] Memory required for data: 306862928
I1220 10:21:51.208740  7551 layer_factory.hpp:77] Creating layer relu1_14
I1220 10:21:51.208746  7551 net.cpp:84] Creating Layer relu1_14
I1220 10:21:51.208752  7551 net.cpp:406] relu1_14 <- conv1_14/bn
I1220 10:21:51.208756  7551 net.cpp:367] relu1_14 -> conv1_14/bn (in-place)
I1220 10:21:51.208990  7551 net.cpp:122] Setting up relu1_14
I1220 10:21:51.208999  7551 net.cpp:129] Top shape: 1 864 17 35 (514080)
I1220 10:21:51.209002  7551 net.cpp:137] Memory required for data: 308919248
I1220 10:21:51.209004  7551 layer_factory.hpp:77] Creating layer conv1_14
I1220 10:21:51.209012  7551 net.cpp:84] Creating Layer conv1_14
I1220 10:21:51.209015  7551 net.cpp:406] conv1_14 <- conv1_14/bn
I1220 10:21:51.209022  7551 net.cpp:380] conv1_14 -> conv1_14
I1220 10:21:51.219326  7551 net.cpp:122] Setting up conv1_14
I1220 10:21:51.219357  7551 net.cpp:129] Top shape: 1 32 17 35 (19040)
I1220 10:21:51.219359  7551 net.cpp:137] Memory required for data: 308995408
I1220 10:21:51.219367  7551 layer_factory.hpp:77] Creating layer concat1_14
I1220 10:21:51.219379  7551 net.cpp:84] Creating Layer concat1_14
I1220 10:21:51.219385  7551 net.cpp:406] concat1_14 <- concat1_13_concat1_13_0_split_1
I1220 10:21:51.219393  7551 net.cpp:406] concat1_14 <- conv1_14
I1220 10:21:51.219398  7551 net.cpp:380] concat1_14 -> concat1_14
I1220 10:21:51.219450  7551 net.cpp:122] Setting up concat1_14
I1220 10:21:51.219458  7551 net.cpp:129] Top shape: 1 896 17 35 (533120)
I1220 10:21:51.219460  7551 net.cpp:137] Memory required for data: 311127888
I1220 10:21:51.219463  7551 layer_factory.hpp:77] Creating layer concat1_14_concat1_14_0_split
I1220 10:21:51.219468  7551 net.cpp:84] Creating Layer concat1_14_concat1_14_0_split
I1220 10:21:51.219471  7551 net.cpp:406] concat1_14_concat1_14_0_split <- concat1_14
I1220 10:21:51.219475  7551 net.cpp:380] concat1_14_concat1_14_0_split -> concat1_14_concat1_14_0_split_0
I1220 10:21:51.219480  7551 net.cpp:380] concat1_14_concat1_14_0_split -> concat1_14_concat1_14_0_split_1
I1220 10:21:51.219537  7551 net.cpp:122] Setting up concat1_14_concat1_14_0_split
I1220 10:21:51.219543  7551 net.cpp:129] Top shape: 1 896 17 35 (533120)
I1220 10:21:51.219547  7551 net.cpp:129] Top shape: 1 896 17 35 (533120)
I1220 10:21:51.219549  7551 net.cpp:137] Memory required for data: 315392848
I1220 10:21:51.219552  7551 layer_factory.hpp:77] Creating layer conv1_15/bn
I1220 10:21:51.219558  7551 net.cpp:84] Creating Layer conv1_15/bn
I1220 10:21:51.219560  7551 net.cpp:406] conv1_15/bn <- concat1_14_concat1_14_0_split_0
I1220 10:21:51.219565  7551 net.cpp:380] conv1_15/bn -> conv1_15/bn
I1220 10:21:51.220002  7551 net.cpp:122] Setting up conv1_15/bn
I1220 10:21:51.220012  7551 net.cpp:129] Top shape: 1 896 17 35 (533120)
I1220 10:21:51.220016  7551 net.cpp:137] Memory required for data: 317525328
I1220 10:21:51.220021  7551 layer_factory.hpp:77] Creating layer conv1_15/scale
I1220 10:21:51.220029  7551 net.cpp:84] Creating Layer conv1_15/scale
I1220 10:21:51.220032  7551 net.cpp:406] conv1_15/scale <- conv1_15/bn
I1220 10:21:51.220038  7551 net.cpp:367] conv1_15/scale -> conv1_15/bn (in-place)
I1220 10:21:51.220127  7551 layer_factory.hpp:77] Creating layer conv1_15/scale
I1220 10:21:51.220366  7551 net.cpp:122] Setting up conv1_15/scale
I1220 10:21:51.220371  7551 net.cpp:129] Top shape: 1 896 17 35 (533120)
I1220 10:21:51.220374  7551 net.cpp:137] Memory required for data: 319657808
I1220 10:21:51.220379  7551 layer_factory.hpp:77] Creating layer relu1_15
I1220 10:21:51.220384  7551 net.cpp:84] Creating Layer relu1_15
I1220 10:21:51.220387  7551 net.cpp:406] relu1_15 <- conv1_15/bn
I1220 10:21:51.220391  7551 net.cpp:367] relu1_15 -> conv1_15/bn (in-place)
I1220 10:21:51.221060  7551 net.cpp:122] Setting up relu1_15
I1220 10:21:51.221074  7551 net.cpp:129] Top shape: 1 896 17 35 (533120)
I1220 10:21:51.221077  7551 net.cpp:137] Memory required for data: 321790288
I1220 10:21:51.221081  7551 layer_factory.hpp:77] Creating layer conv1_15
I1220 10:21:51.221091  7551 net.cpp:84] Creating Layer conv1_15
I1220 10:21:51.221096  7551 net.cpp:406] conv1_15 <- conv1_15/bn
I1220 10:21:51.221101  7551 net.cpp:380] conv1_15 -> conv1_15
I1220 10:21:51.231492  7551 net.cpp:122] Setting up conv1_15
I1220 10:21:51.231524  7551 net.cpp:129] Top shape: 1 32 17 35 (19040)
I1220 10:21:51.231528  7551 net.cpp:137] Memory required for data: 321866448
I1220 10:21:51.231535  7551 layer_factory.hpp:77] Creating layer concat1_15
I1220 10:21:51.231545  7551 net.cpp:84] Creating Layer concat1_15
I1220 10:21:51.231551  7551 net.cpp:406] concat1_15 <- concat1_14_concat1_14_0_split_1
I1220 10:21:51.231556  7551 net.cpp:406] concat1_15 <- conv1_15
I1220 10:21:51.231562  7551 net.cpp:380] concat1_15 -> concat1_15
I1220 10:21:51.231607  7551 net.cpp:122] Setting up concat1_15
I1220 10:21:51.231614  7551 net.cpp:129] Top shape: 1 928 17 35 (552160)
I1220 10:21:51.231616  7551 net.cpp:137] Memory required for data: 324075088
I1220 10:21:51.231619  7551 layer_factory.hpp:77] Creating layer concat1_15_concat1_15_0_split
I1220 10:21:51.231624  7551 net.cpp:84] Creating Layer concat1_15_concat1_15_0_split
I1220 10:21:51.231627  7551 net.cpp:406] concat1_15_concat1_15_0_split <- concat1_15
I1220 10:21:51.231631  7551 net.cpp:380] concat1_15_concat1_15_0_split -> concat1_15_concat1_15_0_split_0
I1220 10:21:51.231636  7551 net.cpp:380] concat1_15_concat1_15_0_split -> concat1_15_concat1_15_0_split_1
I1220 10:21:51.231693  7551 net.cpp:122] Setting up concat1_15_concat1_15_0_split
I1220 10:21:51.231698  7551 net.cpp:129] Top shape: 1 928 17 35 (552160)
I1220 10:21:51.231700  7551 net.cpp:129] Top shape: 1 928 17 35 (552160)
I1220 10:21:51.231703  7551 net.cpp:137] Memory required for data: 328492368
I1220 10:21:51.231705  7551 layer_factory.hpp:77] Creating layer conv1_16/bn
I1220 10:21:51.231711  7551 net.cpp:84] Creating Layer conv1_16/bn
I1220 10:21:51.231714  7551 net.cpp:406] conv1_16/bn <- concat1_15_concat1_15_0_split_0
I1220 10:21:51.231719  7551 net.cpp:380] conv1_16/bn -> conv1_16/bn
I1220 10:21:51.232187  7551 net.cpp:122] Setting up conv1_16/bn
I1220 10:21:51.232195  7551 net.cpp:129] Top shape: 1 928 17 35 (552160)
I1220 10:21:51.232197  7551 net.cpp:137] Memory required for data: 330701008
I1220 10:21:51.232204  7551 layer_factory.hpp:77] Creating layer conv1_16/scale
I1220 10:21:51.232213  7551 net.cpp:84] Creating Layer conv1_16/scale
I1220 10:21:51.232215  7551 net.cpp:406] conv1_16/scale <- conv1_16/bn
I1220 10:21:51.232220  7551 net.cpp:367] conv1_16/scale -> conv1_16/bn (in-place)
I1220 10:21:51.232306  7551 layer_factory.hpp:77] Creating layer conv1_16/scale
I1220 10:21:51.232569  7551 net.cpp:122] Setting up conv1_16/scale
I1220 10:21:51.232575  7551 net.cpp:129] Top shape: 1 928 17 35 (552160)
I1220 10:21:51.232578  7551 net.cpp:137] Memory required for data: 332909648
I1220 10:21:51.232583  7551 layer_factory.hpp:77] Creating layer relu1_16
I1220 10:21:51.232589  7551 net.cpp:84] Creating Layer relu1_16
I1220 10:21:51.232590  7551 net.cpp:406] relu1_16 <- conv1_16/bn
I1220 10:21:51.232594  7551 net.cpp:367] relu1_16 -> conv1_16/bn (in-place)
I1220 10:21:51.232831  7551 net.cpp:122] Setting up relu1_16
I1220 10:21:51.232839  7551 net.cpp:129] Top shape: 1 928 17 35 (552160)
I1220 10:21:51.232842  7551 net.cpp:137] Memory required for data: 335118288
I1220 10:21:51.232846  7551 layer_factory.hpp:77] Creating layer conv1_16
I1220 10:21:51.232856  7551 net.cpp:84] Creating Layer conv1_16
I1220 10:21:51.232858  7551 net.cpp:406] conv1_16 <- conv1_16/bn
I1220 10:21:51.232863  7551 net.cpp:380] conv1_16 -> conv1_16
I1220 10:21:51.242393  7551 net.cpp:122] Setting up conv1_16
I1220 10:21:51.242421  7551 net.cpp:129] Top shape: 1 32 17 35 (19040)
I1220 10:21:51.242424  7551 net.cpp:137] Memory required for data: 335194448
I1220 10:21:51.242432  7551 layer_factory.hpp:77] Creating layer concat1_16
I1220 10:21:51.242442  7551 net.cpp:84] Creating Layer concat1_16
I1220 10:21:51.242447  7551 net.cpp:406] concat1_16 <- concat1_15_concat1_15_0_split_1
I1220 10:21:51.242453  7551 net.cpp:406] concat1_16 <- conv1_16
I1220 10:21:51.242460  7551 net.cpp:380] concat1_16 -> concat1_16
I1220 10:21:51.242504  7551 net.cpp:122] Setting up concat1_16
I1220 10:21:51.242509  7551 net.cpp:129] Top shape: 1 960 17 35 (571200)
I1220 10:21:51.242516  7551 net.cpp:137] Memory required for data: 337479248
I1220 10:21:51.242518  7551 layer_factory.hpp:77] Creating layer concat1_16_concat1_16_0_split
I1220 10:21:51.242524  7551 net.cpp:84] Creating Layer concat1_16_concat1_16_0_split
I1220 10:21:51.242527  7551 net.cpp:406] concat1_16_concat1_16_0_split <- concat1_16
I1220 10:21:51.242530  7551 net.cpp:380] concat1_16_concat1_16_0_split -> concat1_16_concat1_16_0_split_0
I1220 10:21:51.242535  7551 net.cpp:380] concat1_16_concat1_16_0_split -> concat1_16_concat1_16_0_split_1
I1220 10:21:51.242591  7551 net.cpp:122] Setting up concat1_16_concat1_16_0_split
I1220 10:21:51.242596  7551 net.cpp:129] Top shape: 1 960 17 35 (571200)
I1220 10:21:51.242599  7551 net.cpp:129] Top shape: 1 960 17 35 (571200)
I1220 10:21:51.242602  7551 net.cpp:137] Memory required for data: 342048848
I1220 10:21:51.242604  7551 layer_factory.hpp:77] Creating layer conv1_17/bn
I1220 10:21:51.242615  7551 net.cpp:84] Creating Layer conv1_17/bn
I1220 10:21:51.242619  7551 net.cpp:406] conv1_17/bn <- concat1_16_concat1_16_0_split_0
I1220 10:21:51.242622  7551 net.cpp:380] conv1_17/bn -> conv1_17/bn
I1220 10:21:51.243075  7551 net.cpp:122] Setting up conv1_17/bn
I1220 10:21:51.243083  7551 net.cpp:129] Top shape: 1 960 17 35 (571200)
I1220 10:21:51.243086  7551 net.cpp:137] Memory required for data: 344333648
I1220 10:21:51.243093  7551 layer_factory.hpp:77] Creating layer conv1_17/scale
I1220 10:21:51.243101  7551 net.cpp:84] Creating Layer conv1_17/scale
I1220 10:21:51.243104  7551 net.cpp:406] conv1_17/scale <- conv1_17/bn
I1220 10:21:51.243108  7551 net.cpp:367] conv1_17/scale -> conv1_17/bn (in-place)
I1220 10:21:51.243194  7551 layer_factory.hpp:77] Creating layer conv1_17/scale
I1220 10:21:51.243458  7551 net.cpp:122] Setting up conv1_17/scale
I1220 10:21:51.243465  7551 net.cpp:129] Top shape: 1 960 17 35 (571200)
I1220 10:21:51.243468  7551 net.cpp:137] Memory required for data: 346618448
I1220 10:21:51.243472  7551 layer_factory.hpp:77] Creating layer relu1_17
I1220 10:21:51.243477  7551 net.cpp:84] Creating Layer relu1_17
I1220 10:21:51.243480  7551 net.cpp:406] relu1_17 <- conv1_17/bn
I1220 10:21:51.243484  7551 net.cpp:367] relu1_17 -> conv1_17/bn (in-place)
I1220 10:21:51.244073  7551 net.cpp:122] Setting up relu1_17
I1220 10:21:51.244084  7551 net.cpp:129] Top shape: 1 960 17 35 (571200)
I1220 10:21:51.244087  7551 net.cpp:137] Memory required for data: 348903248
I1220 10:21:51.244091  7551 layer_factory.hpp:77] Creating layer conv1_17
I1220 10:21:51.244101  7551 net.cpp:84] Creating Layer conv1_17
I1220 10:21:51.244104  7551 net.cpp:406] conv1_17 <- conv1_17/bn
I1220 10:21:51.244110  7551 net.cpp:380] conv1_17 -> conv1_17
I1220 10:21:51.253484  7551 net.cpp:122] Setting up conv1_17
I1220 10:21:51.253513  7551 net.cpp:129] Top shape: 1 32 17 35 (19040)
I1220 10:21:51.253516  7551 net.cpp:137] Memory required for data: 348979408
I1220 10:21:51.253525  7551 layer_factory.hpp:77] Creating layer concat1_17
I1220 10:21:51.253535  7551 net.cpp:84] Creating Layer concat1_17
I1220 10:21:51.253540  7551 net.cpp:406] concat1_17 <- concat1_16_concat1_16_0_split_1
I1220 10:21:51.253546  7551 net.cpp:406] concat1_17 <- conv1_17
I1220 10:21:51.253551  7551 net.cpp:380] concat1_17 -> concat1_17
I1220 10:21:51.253597  7551 net.cpp:122] Setting up concat1_17
I1220 10:21:51.253602  7551 net.cpp:129] Top shape: 1 992 17 35 (590240)
I1220 10:21:51.253605  7551 net.cpp:137] Memory required for data: 351340368
I1220 10:21:51.253607  7551 layer_factory.hpp:77] Creating layer concat1_17_concat1_17_0_split
I1220 10:21:51.253612  7551 net.cpp:84] Creating Layer concat1_17_concat1_17_0_split
I1220 10:21:51.253615  7551 net.cpp:406] concat1_17_concat1_17_0_split <- concat1_17
I1220 10:21:51.253620  7551 net.cpp:380] concat1_17_concat1_17_0_split -> concat1_17_concat1_17_0_split_0
I1220 10:21:51.253625  7551 net.cpp:380] concat1_17_concat1_17_0_split -> concat1_17_concat1_17_0_split_1
I1220 10:21:51.253681  7551 net.cpp:122] Setting up concat1_17_concat1_17_0_split
I1220 10:21:51.253690  7551 net.cpp:129] Top shape: 1 992 17 35 (590240)
I1220 10:21:51.253695  7551 net.cpp:129] Top shape: 1 992 17 35 (590240)
I1220 10:21:51.253696  7551 net.cpp:137] Memory required for data: 356062288
I1220 10:21:51.253698  7551 layer_factory.hpp:77] Creating layer conv1_18/bn
I1220 10:21:51.253705  7551 net.cpp:84] Creating Layer conv1_18/bn
I1220 10:21:51.253707  7551 net.cpp:406] conv1_18/bn <- concat1_17_concat1_17_0_split_0
I1220 10:21:51.253712  7551 net.cpp:380] conv1_18/bn -> conv1_18/bn
I1220 10:21:51.254170  7551 net.cpp:122] Setting up conv1_18/bn
I1220 10:21:51.254178  7551 net.cpp:129] Top shape: 1 992 17 35 (590240)
I1220 10:21:51.254180  7551 net.cpp:137] Memory required for data: 358423248
I1220 10:21:51.254186  7551 layer_factory.hpp:77] Creating layer conv1_18/scale
I1220 10:21:51.254195  7551 net.cpp:84] Creating Layer conv1_18/scale
I1220 10:21:51.254199  7551 net.cpp:406] conv1_18/scale <- conv1_18/bn
I1220 10:21:51.254202  7551 net.cpp:367] conv1_18/scale -> conv1_18/bn (in-place)
I1220 10:21:51.254289  7551 layer_factory.hpp:77] Creating layer conv1_18/scale
I1220 10:21:51.254552  7551 net.cpp:122] Setting up conv1_18/scale
I1220 10:21:51.254559  7551 net.cpp:129] Top shape: 1 992 17 35 (590240)
I1220 10:21:51.254561  7551 net.cpp:137] Memory required for data: 360784208
I1220 10:21:51.254566  7551 layer_factory.hpp:77] Creating layer relu1_18
I1220 10:21:51.254571  7551 net.cpp:84] Creating Layer relu1_18
I1220 10:21:51.254575  7551 net.cpp:406] relu1_18 <- conv1_18/bn
I1220 10:21:51.254578  7551 net.cpp:367] relu1_18 -> conv1_18/bn (in-place)
I1220 10:21:51.255132  7551 net.cpp:122] Setting up relu1_18
I1220 10:21:51.255146  7551 net.cpp:129] Top shape: 1 992 17 35 (590240)
I1220 10:21:51.255147  7551 net.cpp:137] Memory required for data: 363145168
I1220 10:21:51.255151  7551 layer_factory.hpp:77] Creating layer conv1_18
I1220 10:21:51.255161  7551 net.cpp:84] Creating Layer conv1_18
I1220 10:21:51.255164  7551 net.cpp:406] conv1_18 <- conv1_18/bn
I1220 10:21:51.255169  7551 net.cpp:380] conv1_18 -> conv1_18
I1220 10:21:51.269222  7551 net.cpp:122] Setting up conv1_18
I1220 10:21:51.269260  7551 net.cpp:129] Top shape: 1 32 17 35 (19040)
I1220 10:21:51.269265  7551 net.cpp:137] Memory required for data: 363221328
I1220 10:21:51.269275  7551 layer_factory.hpp:77] Creating layer concat1_18
I1220 10:21:51.269289  7551 net.cpp:84] Creating Layer concat1_18
I1220 10:21:51.269296  7551 net.cpp:406] concat1_18 <- concat1_17_concat1_17_0_split_1
I1220 10:21:51.269305  7551 net.cpp:406] concat1_18 <- conv1_18
I1220 10:21:51.269315  7551 net.cpp:380] concat1_18 -> concat1_18
I1220 10:21:51.269376  7551 net.cpp:122] Setting up concat1_18
I1220 10:21:51.269384  7551 net.cpp:129] Top shape: 1 1024 17 35 (609280)
I1220 10:21:51.269388  7551 net.cpp:137] Memory required for data: 365658448
I1220 10:21:51.269392  7551 layer_factory.hpp:77] Creating layer concat1_18_concat1_18_0_split
I1220 10:21:51.269399  7551 net.cpp:84] Creating Layer concat1_18_concat1_18_0_split
I1220 10:21:51.269403  7551 net.cpp:406] concat1_18_concat1_18_0_split <- concat1_18
I1220 10:21:51.269414  7551 net.cpp:380] concat1_18_concat1_18_0_split -> concat1_18_concat1_18_0_split_0
I1220 10:21:51.269421  7551 net.cpp:380] concat1_18_concat1_18_0_split -> concat1_18_concat1_18_0_split_1
I1220 10:21:51.269500  7551 net.cpp:122] Setting up concat1_18_concat1_18_0_split
I1220 10:21:51.269507  7551 net.cpp:129] Top shape: 1 1024 17 35 (609280)
I1220 10:21:51.272099  7551 net.cpp:129] Top shape: 1 1024 17 35 (609280)
I1220 10:21:51.272110  7551 net.cpp:137] Memory required for data: 370532688
I1220 10:21:51.272116  7551 layer_factory.hpp:77] Creating layer conv1_19/bn
I1220 10:21:51.272132  7551 net.cpp:84] Creating Layer conv1_19/bn
I1220 10:21:51.272140  7551 net.cpp:406] conv1_19/bn <- concat1_18_concat1_18_0_split_0
I1220 10:21:51.272150  7551 net.cpp:380] conv1_19/bn -> conv1_19/bn
I1220 10:21:51.272876  7551 net.cpp:122] Setting up conv1_19/bn
I1220 10:21:51.272888  7551 net.cpp:129] Top shape: 1 1024 17 35 (609280)
I1220 10:21:51.272897  7551 net.cpp:137] Memory required for data: 372969808
I1220 10:21:51.272908  7551 layer_factory.hpp:77] Creating layer conv1_19/scale
I1220 10:21:51.272922  7551 net.cpp:84] Creating Layer conv1_19/scale
I1220 10:21:51.272925  7551 net.cpp:406] conv1_19/scale <- conv1_19/bn
I1220 10:21:51.272933  7551 net.cpp:367] conv1_19/scale -> conv1_19/bn (in-place)
I1220 10:21:51.273046  7551 layer_factory.hpp:77] Creating layer conv1_19/scale
I1220 10:21:51.273391  7551 net.cpp:122] Setting up conv1_19/scale
I1220 10:21:51.273401  7551 net.cpp:129] Top shape: 1 1024 17 35 (609280)
I1220 10:21:51.273404  7551 net.cpp:137] Memory required for data: 375406928
I1220 10:21:51.273412  7551 layer_factory.hpp:77] Creating layer relu1_19
I1220 10:21:51.273421  7551 net.cpp:84] Creating Layer relu1_19
I1220 10:21:51.273424  7551 net.cpp:406] relu1_19 <- conv1_19/bn
I1220 10:21:51.273430  7551 net.cpp:367] relu1_19 -> conv1_19/bn (in-place)
I1220 10:21:51.273939  7551 net.cpp:122] Setting up relu1_19
I1220 10:21:51.274667  7551 net.cpp:129] Top shape: 1 1024 17 35 (609280)
I1220 10:21:51.275288  7551 net.cpp:137] Memory required for data: 377844048
I1220 10:21:51.275295  7551 layer_factory.hpp:77] Creating layer conv1_19
I1220 10:21:51.275657  7551 net.cpp:84] Creating Layer conv1_19
I1220 10:21:51.276172  7551 net.cpp:406] conv1_19 <- conv1_19/bn
I1220 10:21:51.276531  7551 net.cpp:380] conv1_19 -> conv1_19
I1220 10:21:51.294412  7551 net.cpp:122] Setting up conv1_19
I1220 10:21:51.294448  7551 net.cpp:129] Top shape: 1 32 17 35 (19040)
I1220 10:21:51.294452  7551 net.cpp:137] Memory required for data: 377920208
I1220 10:21:51.294463  7551 layer_factory.hpp:77] Creating layer concat1_19
I1220 10:21:51.294476  7551 net.cpp:84] Creating Layer concat1_19
I1220 10:21:51.294483  7551 net.cpp:406] concat1_19 <- concat1_18_concat1_18_0_split_1
I1220 10:21:51.294492  7551 net.cpp:406] concat1_19 <- conv1_19
I1220 10:21:51.294499  7551 net.cpp:380] concat1_19 -> concat1_19
I1220 10:21:51.294559  7551 net.cpp:122] Setting up concat1_19
I1220 10:21:51.294569  7551 net.cpp:129] Top shape: 1 1056 17 35 (628320)
I1220 10:21:51.294572  7551 net.cpp:137] Memory required for data: 380433488
I1220 10:21:51.294576  7551 layer_factory.hpp:77] Creating layer concat1_19_concat1_19_0_split
I1220 10:21:51.294584  7551 net.cpp:84] Creating Layer concat1_19_concat1_19_0_split
I1220 10:21:51.294589  7551 net.cpp:406] concat1_19_concat1_19_0_split <- concat1_19
I1220 10:21:51.294595  7551 net.cpp:380] concat1_19_concat1_19_0_split -> concat1_19_concat1_19_0_split_0
I1220 10:21:51.294602  7551 net.cpp:380] concat1_19_concat1_19_0_split -> concat1_19_concat1_19_0_split_1
I1220 10:21:51.294678  7551 net.cpp:122] Setting up concat1_19_concat1_19_0_split
I1220 10:21:51.294687  7551 net.cpp:129] Top shape: 1 1056 17 35 (628320)
I1220 10:21:51.294692  7551 net.cpp:129] Top shape: 1 1056 17 35 (628320)
I1220 10:21:51.294695  7551 net.cpp:137] Memory required for data: 385460048
I1220 10:21:51.294699  7551 layer_factory.hpp:77] Creating layer conv1_20/bn
I1220 10:21:51.294708  7551 net.cpp:84] Creating Layer conv1_20/bn
I1220 10:21:51.294713  7551 net.cpp:406] conv1_20/bn <- concat1_19_concat1_19_0_split_0
I1220 10:21:51.294719  7551 net.cpp:380] conv1_20/bn -> conv1_20/bn
I1220 10:21:51.295321  7551 net.cpp:122] Setting up conv1_20/bn
I1220 10:21:51.295331  7551 net.cpp:129] Top shape: 1 1056 17 35 (628320)
I1220 10:21:51.295336  7551 net.cpp:137] Memory required for data: 387973328
I1220 10:21:51.295346  7551 layer_factory.hpp:77] Creating layer conv1_20/scale
I1220 10:21:51.295356  7551 net.cpp:84] Creating Layer conv1_20/scale
I1220 10:21:51.295361  7551 net.cpp:406] conv1_20/scale <- conv1_20/bn
I1220 10:21:51.295367  7551 net.cpp:367] conv1_20/scale -> conv1_20/bn (in-place)
I1220 10:21:51.295467  7551 layer_factory.hpp:77] Creating layer conv1_20/scale
I1220 10:21:51.295812  7551 net.cpp:122] Setting up conv1_20/scale
I1220 10:21:51.295822  7551 net.cpp:129] Top shape: 1 1056 17 35 (628320)
I1220 10:21:51.295826  7551 net.cpp:137] Memory required for data: 390486608
I1220 10:21:51.295840  7551 layer_factory.hpp:77] Creating layer relu1_20
I1220 10:21:51.295847  7551 net.cpp:84] Creating Layer relu1_20
I1220 10:21:51.295851  7551 net.cpp:406] relu1_20 <- conv1_20/bn
I1220 10:21:51.295857  7551 net.cpp:367] relu1_20 -> conv1_20/bn (in-place)
I1220 10:21:51.296533  7551 net.cpp:122] Setting up relu1_20
I1220 10:21:51.296547  7551 net.cpp:129] Top shape: 1 1056 17 35 (628320)
I1220 10:21:51.296551  7551 net.cpp:137] Memory required for data: 392999888
I1220 10:21:51.296556  7551 layer_factory.hpp:77] Creating layer conv1_20
I1220 10:21:51.296571  7551 net.cpp:84] Creating Layer conv1_20
I1220 10:21:51.296576  7551 net.cpp:406] conv1_20 <- conv1_20/bn
I1220 10:21:51.296583  7551 net.cpp:380] conv1_20 -> conv1_20
I1220 10:21:51.311703  7551 net.cpp:122] Setting up conv1_20
I1220 10:21:51.311739  7551 net.cpp:129] Top shape: 1 32 17 35 (19040)
I1220 10:21:51.311744  7551 net.cpp:137] Memory required for data: 393076048
I1220 10:21:51.311760  7551 layer_factory.hpp:77] Creating layer concat1_20
I1220 10:21:51.311772  7551 net.cpp:84] Creating Layer concat1_20
I1220 10:21:51.311780  7551 net.cpp:406] concat1_20 <- concat1_19_concat1_19_0_split_1
I1220 10:21:51.311789  7551 net.cpp:406] concat1_20 <- conv1_20
I1220 10:21:51.311796  7551 net.cpp:380] concat1_20 -> concat1_20
I1220 10:21:51.311854  7551 net.cpp:122] Setting up concat1_20
I1220 10:21:51.311862  7551 net.cpp:129] Top shape: 1 1088 17 35 (647360)
I1220 10:21:51.311866  7551 net.cpp:137] Memory required for data: 395665488
I1220 10:21:51.311870  7551 layer_factory.hpp:77] Creating layer concat1_20_concat1_20_0_split
I1220 10:21:51.311879  7551 net.cpp:84] Creating Layer concat1_20_concat1_20_0_split
I1220 10:21:51.311883  7551 net.cpp:406] concat1_20_concat1_20_0_split <- concat1_20
I1220 10:21:51.311889  7551 net.cpp:380] concat1_20_concat1_20_0_split -> concat1_20_concat1_20_0_split_0
I1220 10:21:51.311897  7551 net.cpp:380] concat1_20_concat1_20_0_split -> concat1_20_concat1_20_0_split_1
I1220 10:21:51.311974  7551 net.cpp:122] Setting up concat1_20_concat1_20_0_split
I1220 10:21:51.311981  7551 net.cpp:129] Top shape: 1 1088 17 35 (647360)
I1220 10:21:51.311986  7551 net.cpp:129] Top shape: 1 1088 17 35 (647360)
I1220 10:21:51.311990  7551 net.cpp:137] Memory required for data: 400844368
I1220 10:21:51.311995  7551 layer_factory.hpp:77] Creating layer conv1_21/bn
I1220 10:21:51.312003  7551 net.cpp:84] Creating Layer conv1_21/bn
I1220 10:21:51.312007  7551 net.cpp:406] conv1_21/bn <- concat1_20_concat1_20_0_split_0
I1220 10:21:51.312013  7551 net.cpp:380] conv1_21/bn -> conv1_21/bn
I1220 10:21:51.312604  7551 net.cpp:122] Setting up conv1_21/bn
I1220 10:21:51.312614  7551 net.cpp:129] Top shape: 1 1088 17 35 (647360)
I1220 10:21:51.312618  7551 net.cpp:137] Memory required for data: 403433808
I1220 10:21:51.312628  7551 layer_factory.hpp:77] Creating layer conv1_21/scale
I1220 10:21:51.312638  7551 net.cpp:84] Creating Layer conv1_21/scale
I1220 10:21:51.312644  7551 net.cpp:406] conv1_21/scale <- conv1_21/bn
I1220 10:21:51.312650  7551 net.cpp:367] conv1_21/scale -> conv1_21/bn (in-place)
I1220 10:21:51.312753  7551 layer_factory.hpp:77] Creating layer conv1_21/scale
I1220 10:21:51.313096  7551 net.cpp:122] Setting up conv1_21/scale
I1220 10:21:51.313104  7551 net.cpp:129] Top shape: 1 1088 17 35 (647360)
I1220 10:21:51.313108  7551 net.cpp:137] Memory required for data: 406023248
I1220 10:21:51.313117  7551 layer_factory.hpp:77] Creating layer relu1_21
I1220 10:21:51.313123  7551 net.cpp:84] Creating Layer relu1_21
I1220 10:21:51.313127  7551 net.cpp:406] relu1_21 <- conv1_21/bn
I1220 10:21:51.313133  7551 net.cpp:367] relu1_21 -> conv1_21/bn (in-place)
I1220 10:21:51.313449  7551 net.cpp:122] Setting up relu1_21
I1220 10:21:51.313460  7551 net.cpp:129] Top shape: 1 1088 17 35 (647360)
I1220 10:21:51.313464  7551 net.cpp:137] Memory required for data: 408612688
I1220 10:21:51.313468  7551 layer_factory.hpp:77] Creating layer conv1_21
I1220 10:21:51.313482  7551 net.cpp:84] Creating Layer conv1_21
I1220 10:21:51.313490  7551 net.cpp:406] conv1_21 <- conv1_21/bn
I1220 10:21:51.313499  7551 net.cpp:380] conv1_21 -> conv1_21
I1220 10:21:51.329228  7551 net.cpp:122] Setting up conv1_21
I1220 10:21:51.329263  7551 net.cpp:129] Top shape: 1 32 17 35 (19040)
I1220 10:21:51.329268  7551 net.cpp:137] Memory required for data: 408688848
I1220 10:21:51.329279  7551 layer_factory.hpp:77] Creating layer concat1_21
I1220 10:21:51.329290  7551 net.cpp:84] Creating Layer concat1_21
I1220 10:21:51.329298  7551 net.cpp:406] concat1_21 <- concat1_20_concat1_20_0_split_1
I1220 10:21:51.329306  7551 net.cpp:406] concat1_21 <- conv1_21
I1220 10:21:51.329314  7551 net.cpp:380] concat1_21 -> concat1_21
I1220 10:21:51.329371  7551 net.cpp:122] Setting up concat1_21
I1220 10:21:51.329380  7551 net.cpp:129] Top shape: 1 1120 17 35 (666400)
I1220 10:21:51.329383  7551 net.cpp:137] Memory required for data: 411354448
I1220 10:21:51.329387  7551 layer_factory.hpp:77] Creating layer concat1_21_concat1_21_0_split
I1220 10:21:51.329393  7551 net.cpp:84] Creating Layer concat1_21_concat1_21_0_split
I1220 10:21:51.329398  7551 net.cpp:406] concat1_21_concat1_21_0_split <- concat1_21
I1220 10:21:51.329406  7551 net.cpp:380] concat1_21_concat1_21_0_split -> concat1_21_concat1_21_0_split_0
I1220 10:21:51.329412  7551 net.cpp:380] concat1_21_concat1_21_0_split -> concat1_21_concat1_21_0_split_1
I1220 10:21:51.329489  7551 net.cpp:122] Setting up concat1_21_concat1_21_0_split
I1220 10:21:51.329497  7551 net.cpp:129] Top shape: 1 1120 17 35 (666400)
I1220 10:21:51.329504  7551 net.cpp:129] Top shape: 1 1120 17 35 (666400)
I1220 10:21:51.329507  7551 net.cpp:137] Memory required for data: 416685648
I1220 10:21:51.329510  7551 layer_factory.hpp:77] Creating layer conv1_22/bn
I1220 10:21:51.329519  7551 net.cpp:84] Creating Layer conv1_22/bn
I1220 10:21:51.329524  7551 net.cpp:406] conv1_22/bn <- concat1_21_concat1_21_0_split_0
I1220 10:21:51.329530  7551 net.cpp:380] conv1_22/bn -> conv1_22/bn
I1220 10:21:51.330134  7551 net.cpp:122] Setting up conv1_22/bn
I1220 10:21:51.330143  7551 net.cpp:129] Top shape: 1 1120 17 35 (666400)
I1220 10:21:51.330147  7551 net.cpp:137] Memory required for data: 419351248
I1220 10:21:51.330157  7551 layer_factory.hpp:77] Creating layer conv1_22/scale
I1220 10:21:51.330168  7551 net.cpp:84] Creating Layer conv1_22/scale
I1220 10:21:51.330173  7551 net.cpp:406] conv1_22/scale <- conv1_22/bn
I1220 10:21:51.330179  7551 net.cpp:367] conv1_22/scale -> conv1_22/bn (in-place)
I1220 10:21:51.331034  7551 layer_factory.hpp:77] Creating layer conv1_22/scale
I1220 10:21:51.331385  7551 net.cpp:122] Setting up conv1_22/scale
I1220 10:21:51.331395  7551 net.cpp:129] Top shape: 1 1120 17 35 (666400)
I1220 10:21:51.331399  7551 net.cpp:137] Memory required for data: 422016848
I1220 10:21:51.331408  7551 layer_factory.hpp:77] Creating layer relu1_22
I1220 10:21:51.331414  7551 net.cpp:84] Creating Layer relu1_22
I1220 10:21:51.331419  7551 net.cpp:406] relu1_22 <- conv1_22/bn
I1220 10:21:51.331426  7551 net.cpp:367] relu1_22 -> conv1_22/bn (in-place)
I1220 10:21:51.332087  7551 net.cpp:122] Setting up relu1_22
I1220 10:21:51.332098  7551 net.cpp:129] Top shape: 1 1120 17 35 (666400)
I1220 10:21:51.332103  7551 net.cpp:137] Memory required for data: 424682448
I1220 10:21:51.332108  7551 layer_factory.hpp:77] Creating layer conv1_22
I1220 10:21:51.332121  7551 net.cpp:84] Creating Layer conv1_22
I1220 10:21:51.332126  7551 net.cpp:406] conv1_22 <- conv1_22/bn
I1220 10:21:51.332134  7551 net.cpp:380] conv1_22 -> conv1_22
I1220 10:21:51.347198  7551 net.cpp:122] Setting up conv1_22
I1220 10:21:51.347229  7551 net.cpp:129] Top shape: 1 32 17 35 (19040)
I1220 10:21:51.347231  7551 net.cpp:137] Memory required for data: 424758608
I1220 10:21:51.347239  7551 layer_factory.hpp:77] Creating layer concat1_22
I1220 10:21:51.347249  7551 net.cpp:84] Creating Layer concat1_22
I1220 10:21:51.347254  7551 net.cpp:406] concat1_22 <- concat1_21_concat1_21_0_split_1
I1220 10:21:51.347260  7551 net.cpp:406] concat1_22 <- conv1_22
I1220 10:21:51.347266  7551 net.cpp:380] concat1_22 -> concat1_22
I1220 10:21:51.347316  7551 net.cpp:122] Setting up concat1_22
I1220 10:21:51.347322  7551 net.cpp:129] Top shape: 1 1152 17 35 (685440)
I1220 10:21:51.347324  7551 net.cpp:137] Memory required for data: 427500368
I1220 10:21:51.347326  7551 layer_factory.hpp:77] Creating layer concat1_22_concat1_22_0_split
I1220 10:21:51.347332  7551 net.cpp:84] Creating Layer concat1_22_concat1_22_0_split
I1220 10:21:51.347335  7551 net.cpp:406] concat1_22_concat1_22_0_split <- concat1_22
I1220 10:21:51.347339  7551 net.cpp:380] concat1_22_concat1_22_0_split -> concat1_22_concat1_22_0_split_0
I1220 10:21:51.347344  7551 net.cpp:380] concat1_22_concat1_22_0_split -> concat1_22_concat1_22_0_split_1
I1220 10:21:51.347407  7551 net.cpp:122] Setting up concat1_22_concat1_22_0_split
I1220 10:21:51.347412  7551 net.cpp:129] Top shape: 1 1152 17 35 (685440)
I1220 10:21:51.347415  7551 net.cpp:129] Top shape: 1 1152 17 35 (685440)
I1220 10:21:51.347419  7551 net.cpp:137] Memory required for data: 432983888
I1220 10:21:51.347420  7551 layer_factory.hpp:77] Creating layer conv1_23/bn
I1220 10:21:51.347429  7551 net.cpp:84] Creating Layer conv1_23/bn
I1220 10:21:51.347432  7551 net.cpp:406] conv1_23/bn <- concat1_22_concat1_22_0_split_0
I1220 10:21:51.347436  7551 net.cpp:380] conv1_23/bn -> conv1_23/bn
I1220 10:21:51.347860  7551 net.cpp:122] Setting up conv1_23/bn
I1220 10:21:51.347868  7551 net.cpp:129] Top shape: 1 1152 17 35 (685440)
I1220 10:21:51.347872  7551 net.cpp:137] Memory required for data: 435725648
I1220 10:21:51.347877  7551 layer_factory.hpp:77] Creating layer conv1_23/scale
I1220 10:21:51.347885  7551 net.cpp:84] Creating Layer conv1_23/scale
I1220 10:21:51.347888  7551 net.cpp:406] conv1_23/scale <- conv1_23/bn
I1220 10:21:51.347893  7551 net.cpp:367] conv1_23/scale -> conv1_23/bn (in-place)
I1220 10:21:51.347949  7551 layer_factory.hpp:77] Creating layer conv1_23/scale
I1220 10:21:51.348186  7551 net.cpp:122] Setting up conv1_23/scale
I1220 10:21:51.348192  7551 net.cpp:129] Top shape: 1 1152 17 35 (685440)
I1220 10:21:51.348194  7551 net.cpp:137] Memory required for data: 438467408
I1220 10:21:51.348198  7551 layer_factory.hpp:77] Creating layer relu1_23
I1220 10:21:51.348204  7551 net.cpp:84] Creating Layer relu1_23
I1220 10:21:51.348207  7551 net.cpp:406] relu1_23 <- conv1_23/bn
I1220 10:21:51.348211  7551 net.cpp:367] relu1_23 -> conv1_23/bn (in-place)
I1220 10:21:51.348696  7551 net.cpp:122] Setting up relu1_23
I1220 10:21:51.348706  7551 net.cpp:129] Top shape: 1 1152 17 35 (685440)
I1220 10:21:51.348709  7551 net.cpp:137] Memory required for data: 441209168
I1220 10:21:51.348712  7551 layer_factory.hpp:77] Creating layer conv1_23
I1220 10:21:51.348721  7551 net.cpp:84] Creating Layer conv1_23
I1220 10:21:51.348726  7551 net.cpp:406] conv1_23 <- conv1_23/bn
I1220 10:21:51.348731  7551 net.cpp:380] conv1_23 -> conv1_23
I1220 10:21:51.360774  7551 net.cpp:122] Setting up conv1_23
I1220 10:21:51.360805  7551 net.cpp:129] Top shape: 1 32 17 35 (19040)
I1220 10:21:51.360808  7551 net.cpp:137] Memory required for data: 441285328
I1220 10:21:51.360816  7551 layer_factory.hpp:77] Creating layer concat1_23
I1220 10:21:51.360828  7551 net.cpp:84] Creating Layer concat1_23
I1220 10:21:51.360834  7551 net.cpp:406] concat1_23 <- concat1_22_concat1_22_0_split_1
I1220 10:21:51.360841  7551 net.cpp:406] concat1_23 <- conv1_23
I1220 10:21:51.360846  7551 net.cpp:380] concat1_23 -> concat1_23
I1220 10:21:51.360894  7551 net.cpp:122] Setting up concat1_23
I1220 10:21:51.360901  7551 net.cpp:129] Top shape: 1 1184 17 35 (704480)
I1220 10:21:51.360903  7551 net.cpp:137] Memory required for data: 444103248
I1220 10:21:51.360906  7551 layer_factory.hpp:77] Creating layer gp
I1220 10:21:51.360911  7551 net.cpp:84] Creating Layer gp
I1220 10:21:51.360914  7551 net.cpp:406] gp <- concat1_23
I1220 10:21:51.360919  7551 net.cpp:380] gp -> gp
I1220 10:21:51.361534  7551 net.cpp:122] Setting up gp
I1220 10:21:51.361544  7551 net.cpp:129] Top shape: 1 1184 1 1 (1184)
I1220 10:21:51.361547  7551 net.cpp:137] Memory required for data: 444107984
I1220 10:21:51.361554  7551 layer_factory.hpp:77] Creating layer fc6_d
I1220 10:21:51.361563  7551 net.cpp:84] Creating Layer fc6_d
I1220 10:21:51.361567  7551 net.cpp:406] fc6_d <- gp
I1220 10:21:51.361572  7551 net.cpp:380] fc6_d -> fc6_d
I1220 10:21:51.538945  7551 net.cpp:122] Setting up fc6_d
I1220 10:21:51.538985  7551 net.cpp:129] Top shape: 1 4096 (4096)
I1220 10:21:51.538990  7551 net.cpp:137] Memory required for data: 444124368
I1220 10:21:51.539001  7551 layer_factory.hpp:77] Creating layer relu6
I1220 10:21:51.539013  7551 net.cpp:84] Creating Layer relu6
I1220 10:21:51.539021  7551 net.cpp:406] relu6 <- fc6_d
I1220 10:21:51.539027  7551 net.cpp:367] relu6 -> fc6_d (in-place)
I1220 10:21:51.539863  7551 net.cpp:122] Setting up relu6
I1220 10:21:51.539877  7551 net.cpp:129] Top shape: 1 4096 (4096)
I1220 10:21:51.539881  7551 net.cpp:137] Memory required for data: 444140752
I1220 10:21:51.539886  7551 layer_factory.hpp:77] Creating layer fc7_d
I1220 10:21:51.539896  7551 net.cpp:84] Creating Layer fc7_d
I1220 10:21:51.539901  7551 net.cpp:406] fc7_d <- fc6_d
I1220 10:21:51.539908  7551 net.cpp:380] fc7_d -> fc7_d
I1220 10:21:52.099648  7551 net.cpp:122] Setting up fc7_d
I1220 10:21:52.099684  7551 net.cpp:129] Top shape: 1 4096 (4096)
I1220 10:21:52.099689  7551 net.cpp:137] Memory required for data: 444157136
I1220 10:21:52.099701  7551 layer_factory.hpp:77] Creating layer relu7
I1220 10:21:52.099715  7551 net.cpp:84] Creating Layer relu7
I1220 10:21:52.099722  7551 net.cpp:406] relu7 <- fc7_d
I1220 10:21:52.099730  7551 net.cpp:367] relu7 -> fc7_d (in-place)
I1220 10:21:52.100180  7551 net.cpp:122] Setting up relu7
I1220 10:21:52.100191  7551 net.cpp:129] Top shape: 1 4096 (4096)
I1220 10:21:52.100196  7551 net.cpp:137] Memory required for data: 444173520
I1220 10:21:52.100200  7551 layer_factory.hpp:77] Creating layer fc8_d
I1220 10:21:52.100209  7551 net.cpp:84] Creating Layer fc8_d
I1220 10:21:52.100214  7551 net.cpp:406] fc8_d <- fc7_d
I1220 10:21:52.100222  7551 net.cpp:380] fc8_d -> fc8_d
I1220 10:21:52.176089  7551 net.cpp:122] Setting up fc8_d
I1220 10:21:52.176120  7551 net.cpp:129] Top shape: 1 604 (604)
I1220 10:21:52.176123  7551 net.cpp:137] Memory required for data: 444175936
I1220 10:21:52.176131  7551 layer_factory.hpp:77] Creating layer fc8_d_fc8_d_0_split
I1220 10:21:52.176139  7551 net.cpp:84] Creating Layer fc8_d_fc8_d_0_split
I1220 10:21:52.176144  7551 net.cpp:406] fc8_d_fc8_d_0_split <- fc8_d
I1220 10:21:52.176153  7551 net.cpp:380] fc8_d_fc8_d_0_split -> fc8_d_fc8_d_0_split_0
I1220 10:21:52.176160  7551 net.cpp:380] fc8_d_fc8_d_0_split -> fc8_d_fc8_d_0_split_1
I1220 10:21:52.176224  7551 net.cpp:122] Setting up fc8_d_fc8_d_0_split
I1220 10:21:52.176229  7551 net.cpp:129] Top shape: 1 604 (604)
I1220 10:21:52.176234  7551 net.cpp:129] Top shape: 1 604 (604)
I1220 10:21:52.176235  7551 net.cpp:137] Memory required for data: 444180768
I1220 10:21:52.176237  7551 layer_factory.hpp:77] Creating layer sigmoid
I1220 10:21:52.176244  7551 net.cpp:84] Creating Layer sigmoid
I1220 10:21:52.176247  7551 net.cpp:406] sigmoid <- fc8_d_fc8_d_0_split_0
I1220 10:21:52.176252  7551 net.cpp:380] sigmoid -> sigmoid
I1220 10:21:52.176936  7551 net.cpp:122] Setting up sigmoid
I1220 10:21:52.176949  7551 net.cpp:129] Top shape: 1 604 (604)
I1220 10:21:52.176951  7551 net.cpp:137] Memory required for data: 444183184
I1220 10:21:52.176954  7551 layer_factory.hpp:77] Creating layer silence
I1220 10:21:52.176959  7551 net.cpp:84] Creating Layer silence
I1220 10:21:52.176962  7551 net.cpp:406] silence <- sigmoid
I1220 10:21:52.176966  7551 net.cpp:122] Setting up silence
I1220 10:21:52.176968  7551 net.cpp:137] Memory required for data: 444183184
…
