…
  phase: TRAIN
}
layer {
  name: "word_images"
  type: "Data"
  top: "word_images"
  top: "label"
  transform_param {
    scale: -0.0039215689
    mean_value: 255
  }
  data_param {
    source: "/data/fwolf/iam_50000/iam-db_nti500000_pul2-3-4-5_train_word_images_lmdb"
    batch_size: 1
    backend: LMDB
    prefetch: 20
  }
}
layer {
  name: "phocs"
  type: "Data"
  top: "phocs"
  top: "label_phocs"
  data_param {
    source: "/data/fwolf/iam_50000/iam-db_nti500000_pul2-3-4-5_train_phocs_lmdb"
    batch_size: 1
    backend: LMDB
    prefetch: 20
  }
}
layer {
  name: "conv_init"
  type: "Convolution"
  bottom: "word_images"
  top: "conv_init"
  convolution_param {
    num_output: 64
    bias_term: false
    pad: 3
    kernel_size: 7
    stride: 2
    weight_filler {
      type: "msra"
    }
    bias_filler {
      type: "constant"
    }
    engine: CUDNN
  }
}
layer {
  name: "bn_init"
  type: "BatchNorm"
  bottom: "conv_init"
  top: "bn_init"
  param {
    lr_mult: 0
    decay_mult: 0
  }
  param {
    lr_mult: 0
    decay_mult: 0
  }
  param {
    lr_mult: 0
    decay_mult: 0
  }
  batch_norm_param {
    eps: 1e-05
  }
}
layer {
  name: "scale_init"
  type: "Scale"
  bottom: "bn_init"
  top: "bn_init"
  scale_param {
    filler {
      value: 1
    }
    bias_term: true
    bias_filler {
      value: 0
    }
  }
}
layer {
  name: "relu_init"
  type: "ReLU"
  bottom: "bn_init"
  top: "bn_init"
}
layer {
  name: "pool_init"
  type: "Pooling"
  bottom: "bn_init"
  top: "pool_init"
  pooling_param {
    pool: MAX
    kernel_size: 3
    stride: 2
    pad: 1
  }
}
layer {
  name: "conv0_0/x1/bn"
  type: "BatchNorm"
  bottom: "pool_init"
  top: "conv0_0/x1/bn"
  param {
    lr_mult: 0
    decay_mult: 0
  }
  param {
    lr_mult: 0
    decay_mult: 0
  }
  param {
    lr_mult: 0
    decay_mult: 0
  }
}
layer {
  name: "conv0_0/x1/scale"
  type: "Scale"
  bottom: "conv0_0/x1/bn"
  top: "conv0_0/x1/bn"
  scale_param {
    filler {
      value: 1
    }
    bias_term: true
    bias_filler {
      value: 0
    }
  }
}
layer {
  name: "relu0_0/x1"
  type: "ReLU"
  bottom: "conv0_0/x1/bn"
  top: "conv0_0/x1/bn"
}
layer {
  name: "conv0_0/x1"
  type: "Convolution"
  bottom: "conv0_0/x1/bn"
  top: "conv0_0/x1"
  convolution_param {
    num_output: 128
    bias_term: false
    pad: 0
    kernel_size: 1
    stride: 1
    weight_filler {
      type: "msra"
    }
    bias_filler {
      type: "constant"
    }
    engine: CUDNN
  }
}
layer {
  name: "conv0_0/x2/bn"
  type: "BatchNorm"
  bottom: "conv0_0/x1"
  top: "conv0_0/x2/bn"
  param {
    lr_mult: 0
    decay_mult: 0
  }
  param {
    lr_mult: 0
    decay_mult: 0
  }
  param {
    lr_mult: 0
    decay_mult: 0
  }
}
layer {
  name: "conv0_0/x2/scale"
  type: "Scale"
  bottom: "conv0_0/x2/bn"
  top: "conv0_0/x2/bn"
  scale_param {
    filler {
      value: 1
    }
    bias_term: true
    bias_filler {
      value: 0
    }
  }
}
layer {
  name: "relu0_0/x2"
  type: "ReLU"
  bottom: "conv0_0/x2/bn"
  top: "conv0_0/x2/bn"
}
layer {
  name: "conv0_0/x2"
  type: "Convolution"
  bottom: "conv0_0/x2/bn"
  top: "conv0_0/x2"
  convolution_param {
    num_output: 32
    bias_term: false
    pad: 1
    kernel_size: 3
    stride: 1
    weight_filler {
      type: "msra"
    }
    bias_filler {
      type: "constant"
    }
    engine: CUDNN
  }
}
layer {
  name: "concat0_0"
  type: "Concat"
  bottom: "pool_init"
  bottom: "conv0_0/x2"
  top: "concat0_0"
  concat_param {
    axis: 1
  }
}
layer {
  name: "conv0_1/x1/bn"
  type: "BatchNorm"
  bottom: "concat0_0"
  top: "conv0_1/x1/bn"
  param {
    lr_mult: 0
    decay_mult: 0
  }
  param {
    lr_mult: 0
    decay_mult: 0
  }
  param {
    lr_mult: 0
    decay_mult: 0
  }
}
layer {
  name: "conv0_1/x1/scale"
  type: "Scale"
  bottom: "conv0_1/x1/bn"
  top: "conv0_1/x1/bn"
  scale_param {
    filler {
      value: 1
    }
    bias_term: true
    bias_filler {
      value: 0
    }
  }
}
layer {
  name: "relu0_1/x1"
  type: "ReLU"
  bottom: "conv0_1/x1/bn"
  top: "conv0_1/x1/bn"
}
layer {
  name: "conv0_1/x1"
  type: "Convolution"
  bottom: "conv0_1/x1/bn"
  top: "conv0_1/x1"
  convolution_param {
    num_output: 128
    bias_term: false
    pad: 0
    kernel_size: 1
    stride: 1
    weight_filler {
      type: "msra"
    }
    bias_filler {
      type: "constant"
    }
    engine: CUDNN
  }
}
layer {
  name: "conv0_1/x2/bn"
  type: "BatchNorm"
  bottom: "conv0_1/x1"
  top: "conv0_1/x2/bn"
  param {
    lr_mult: 0
    decay_mult: 0
  }
  param {
    lr_mult: 0
    decay_mult: 0
  }
  param {
    lr_mult: 0
    decay_mult: 0
  }
}
layer {
  name: "conv0_1/x2/scale"
  type: "Scale"
  bottom: "conv0_1/x2/bn"
  top: "conv0_1/x2/bn"
  scale_param {
    filler {
      value: 1
    }
    bias_term: true
    bias_filler {
      value: 0
    }
  }
}
layer {
  name: "relu0_1/x2"
  type: "ReLU"
  bottom: "conv0_1/x2/bn"
  top: "conv0_1/x2/bn"
}
layer {
  name: "conv0_1/x2"
  type: "Convolution"
  bottom: "conv0_1/x2/bn"
  top: "conv0_1/x2"
  convolution_param {
    num_output: 32
    bias_term: false
    pad: 1
    kernel_size: 3
    stride: 1
    weight_filler {
      type: "msra"
    }
    bias_filler {
      type: "constant"
    }
    engine: CUDNN
  }
}
layer {
  name: "concat0_1"
  type: "Concat"
  bottom: "concat0_0"
  bottom: "conv0_1/x2"
  top: "concat0_1"
  concat_param {
    axis: 1
  }
}
layer {
  name: "conv0_2/x1/bn"
  type: "BatchNorm"
  bottom: "concat0_1"
  top: "conv0_2/x1/bn"
  param {
    lr_mult: 0
    decay_mult: 0
  }
  param {
    lr_mult: 0
    decay_mult: 0
  }
  param {
    lr_mult: 0
    decay_mult: 0
  }
}
layer {
  name: "conv0_2/x1/scale"
  type: "Scale"
  bottom: "conv0_2/x1/bn"
  top: "conv0_2/x1/bn"
  scale_param {
    filler {
      value: 1
    }
    bias_term: true
    bias_filler {
      value: 0
    }
  }
}
layer {
  name: "relu0_2/x1"
  type: "ReLU"
  bottom: "conv0_2/x1/bn"
  top: "conv0_2/x1/bn"
}
layer {
  name: "conv0_2/x1"
  type: "Convolution"
  bottom: "conv0_2/x1/bn"
  top: "conv0_2/x1"
  convolution_param {
    num_output: 128
    bias_term: false
    pad: 0
    kernel_size: 1
    stride: 1
    weight_filler {
      type: "msra"
    }
    bias_filler {
      type: "constant"
    }
    engine: CUDNN
  }
}
layer {
  name: "conv0_2/x2/bn"
  type: "BatchNorm"
  bottom: "conv0_2/x1"
  top: "conv0_2/x2/bn"
  param {
    lr_mult: 0
    decay_mult: 0
  }
  param {
    lr_mult: 0
    decay_mult: 0
  }
  param {
    lr_mult: 0
    decay_mult: 0
  }
}
layer {
  name: "conv0_2/x2/scale"
  type: "Scale"
  bottom: "conv0_2/x2/bn"
  top: "conv0_2/x2/bn"
  scale_param {
    filler {
      value: 1
    }
    bias_term: true
    bias_filler {
      value: 0
    }
  }
}
layer {
  name: "relu0_2/x2"
  type: "ReLU"
  bottom: "conv0_2/x2/bn"
  top: "conv0_2/x2/bn"
}
layer {
  name: "conv0_2/x2"
  type: "Convolution"
  bottom: "conv0_2/x2/bn"
  top: "conv0_2/x2"
  convolution_param {
    num_output: 32
    bias_term: false
    pad: 1
    kernel_size: 3
    stride: 1
    weight_filler {
      type: "msra"
    }
    bias_filler {
      type: "constant"
    }
    engine: CUDNN
  }
}
layer {
  name: "concat0_2"
  type: "Concat"
  bottom: "concat0_1"
  bottom: "conv0_2/x2"
  top: "concat0_2"
  concat_param {
    axis: 1
  }
}
layer {
  name: "conv0_3/x1/bn"
  type: "BatchNorm"
  bottom: "concat0_2"
  top: "conv0_3/x1/bn"
  param {
    lr_mult: 0
    decay_mult: 0
  }
  param {
    lr_mult: 0
    decay_mult: 0
  }
  param {
    lr_mult: 0
    decay_mult: 0
  }
}
layer {
  name: "conv0_3/x1/scale"
  type: "Scale"
  bottom: "conv0_3/x1/bn"
  top: "conv0_3/x1/bn"
  scale_param {
    filler {
      value: 1
    }
    bias_term: true
    bias_filler {
      value: 0
    }
  }
}
layer {
  name: "relu0_3/x1"
  type: "ReLU"
  bottom: "conv0_3/x1/bn"
  top: "conv0_3/x1/bn"
}
layer {
  name: "conv0_3/x1"
  type: "Convolution"
  bottom: "conv0_3/x1/bn"
  top: "conv0_3/x1"
  convolution_param {
    num_output: 128
    bias_term: false
    pad: 0
    kernel_size: 1
    stride: 1
    weight_filler {
      type: "msra"
    }
    bias_filler {
      type: "constant"
    }
    engine: CUDNN
  }
}
layer {
  name: "conv0_3/x2/bn"
  type: "BatchNorm"
  bottom: "conv0_3/x1"
  top: "conv0_3/x2/bn"
  param {
    lr_mult: 0
    decay_mult: 0
  }
  param {
    lr_mult: 0
    decay_mult: 0
  }
  param {
    lr_mult: 0
    decay_mult: 0
  }
}
layer {
  name: "conv0_3/x2/scale"
  type: "Scale"
  bottom: "conv0_3/x2/bn"
  top: "conv0_3/x2/bn"
  scale_param {
    filler {
      value: 1
    }
    bias_term: true
    bias_filler {
      value: 0
    }
  }
}
layer {
  name: "relu0_3/x2"
  type: "ReLU"
  bottom: "conv0_3/x2/bn"
  top: "conv0_3/x2/bn"
}
layer {
  name: "conv0_3/x2"
  type: "Convolution"
  bottom: "conv0_3/x2/bn"
  top: "conv0_3/x2"
  convolution_param {
    num_output: 32
    bias_term: false
    pad: 1
    kernel_size: 3
    stride: 1
    weight_filler {
      type: "msra"
    }
    bias_filler {
      type: "constant"
    }
    engine: CUDNN
  }
}
layer {
  name: "concat0_3"
  type: "Concat"
  bottom: "concat0_2"
  bottom: "conv0_3/x2"
  top: "concat0_3"
  concat_param {
    axis: 1
  }
}
layer {
  name: "conv0_4/x1/bn"
  type: "BatchNorm"
  bottom: "concat0_3"
  top: "conv0_4/x1/bn"
  param {
    lr_mult: 0
    decay_mult: 0
  }
  param {
    lr_mult: 0
    decay_mult: 0
  }
  param {
    lr_mult: 0
    decay_mult: 0
  }
}
layer {
  name: "conv0_4/x1/scale"
  type: "Scale"
  bottom: "conv0_4/x1/bn"
  top: "conv0_4/x1/bn"
  scale_param {
    filler {
      value: 1
    }
    bias_term: true
    bias_filler {
      value: 0
    }
  }
}
layer {
  name: "relu0_4/x1"
  type: "ReLU"
  bottom: "conv0_4/x1/bn"
  top: "conv0_4/x1/bn"
}
layer {
  name: "conv0_4/x1"
  type: "Convolution"
  bottom: "conv0_4/x1/bn"
  top: "conv0_4/x1"
  convolution_param {
    num_output: 128
    bias_term: false
    pad: 0
    kernel_size: 1
    stride: 1
    weight_filler {
      type: "msra"
    }
    bias_filler {
      type: "constant"
    }
    engine: CUDNN
  }
}
layer {
  name: "conv0_4/x2/bn"
  type: "BatchNorm"
  bottom: "conv0_4/x1"
  top: "conv0_4/x2/bn"
  param {
    lr_mult: 0
    decay_mult: 0
  }
  param {
    lr_mult: 0
    decay_mult: 0
  }
  param {
    lr_mult: 0
    decay_mult: 0
  }
}
layer {
  name: "conv0_4/x2/scale"
  type: "Scale"
  bottom: "conv0_4/x2/bn"
  top: "conv0_4/x2/bn"
  scale_param {
    filler {
      value: 1
    }
    bias_term: true
    bias_filler {
      value: 0
    }
  }
}
layer {
  name: "relu0_4/x2"
  type: "ReLU"
  bottom: "conv0_4/x2/bn"
  top: "conv0_4/x2/bn"
}
layer {
  name: "conv0_4/x2"
  type: "Convolution"
  bottom: "conv0_4/x2/bn"
  top: "conv0_4/x2"
  convolution_param {
    num_output: 32
    bias_term: false
    pad: 1
    kernel_size: 3
    stride: 1
    weight_filler {
      type: "msra"
    }
    bias_filler {
      type: "constant"
    }
    engine: CUDNN
  }
}
layer {
  name: "concat0_4"
  type: "Concat"
  bottom: "concat0_3"
  bottom: "conv0_4/x2"
  top: "concat0_4"
  concat_param {
    axis: 1
  }
}
layer {
  name: "conv0_5/x1/bn"
  type: "BatchNorm"
  bottom: "concat0_4"
  top: "conv0_5/x1/bn"
  param {
    lr_mult: 0
    decay_mult: 0
  }
  param {
    lr_mult: 0
    decay_mult: 0
  }
  param {
    lr_mult: 0
    decay_mult: 0
  }
}
layer {
  name: "conv0_5/x1/scale"
  type: "Scale"
  bottom: "conv0_5/x1/bn"
  top: "conv0_5/x1/bn"
  scale_param {
    filler {
      value: 1
    }
    bias_term: true
    bias_filler {
      value: 0
    }
  }
}
layer {
  name: "relu0_5/x1"
  type: "ReLU"
  bottom: "conv0_5/x1/bn"
  top: "conv0_5/x1/bn"
}
layer {
  name: "conv0_5/x1"
  type: "Convolution"
  bottom: "conv0_5/x1/bn"
  top: "conv0_5/x1"
  convolution_param {
    num_output: 128
    bias_term: false
    pad: 0
    kernel_size: 1
    stride: 1
    weight_filler {
      type: "msra"
    }
    bias_filler {
      type: "constant"
    }
    engine: CUDNN
  }
}
layer {
  name: "conv0_5/x2/bn"
  type: "BatchNorm"
  bottom: "conv0_5/x1"
  top: "conv0_5/x2/bn"
  param {
    lr_mult: 0
    decay_mult: 0
  }
  param {
    lr_mult: 0
    decay_mult: 0
  }
  param {
    lr_mult: 0
    decay_mult: 0
  }
}
layer {
  name: "conv0_5/x2/scale"
  type: "Scale"
  bottom: "conv0_5/x2/bn"
  top: "conv0_5/x2/bn"
  scale_param {
    filler {
      value: 1
    }
    bias_term: true
    bias_filler {
      value: 0
    }
  }
}
layer {
  name: "relu0_5/x2"
  type: "ReLU"
  bottom: "conv0_5/x2/bn"
  top: "conv0_5/x2/bn"
}
layer {
  name: "conv0_5/x2"
  type: "Convolution"
  bottom: "conv0_5/x2/bn"
  top: "conv0_5/x2"
  convolution_param {
    num_output: 32
    bias_term: false
    pad: 1
    kernel_size: 3
    stride: 1
    weight_filler {
      type: "msra"
    }
    bias_filler {
      type: "constant"
    }
    engine: CUDNN
  }
}
layer {
  name: "concat0_5"
  type: "Concat"
  bottom: "concat0_4"
  bottom: "conv0_5/x2"
  top: "concat0_5"
  concat_param {
    axis: 1
  }
}
layer {
  name: "BatchNorm1"
  type: "BatchNorm"
  bottom: "concat0_5"
  top: "BatchNorm1"
  param {
    lr_mult: 0
    decay_mult: 0
  }
  param {
    lr_mult: 0
    decay_mult: 0
  }
  param {
    lr_mult: 0
    decay_mult: 0
  }
}
layer {
  name: "Scale1"
  type: "Scale"
  bottom: "BatchNorm1"
  top: "BatchNorm1"
  scale_param {
    filler {
      value: 1
    }
    bias_term: true
    bias_filler {
      value: 0
    }
  }
}
layer {
  name: "ReLU1"
  type: "ReLU"
  bottom: "BatchNorm1"
  top: "BatchNorm1"
}
layer {
  name: "conv0_blk"
  type: "Convolution"
  bottom: "BatchNorm1"
  top: "conv0_blk"
  convolution_param {
    num_output: 128
    bias_term: false
    pad: 0
    kernel_size: 1
    stride: 1
    weight_filler {
      type: "msra"
    }
    bias_filler {
      type: "constant"
    }
    engine: CUDNN
  }
}
layer {
  name: "pool0"
  type: "Pooling"
  bottom: "conv0_blk"
  top: "pool0"
  pooling_param {
    pool: AVE
    kernel_size: 2
    stride: 2
  }
}
layer {
  name: "conv1_0/x1/bn"
  type: "BatchNorm"
  bottom: "pool0"
  top: "conv1_0/x1/bn"
  param {
    lr_mult: 0
    decay_mult: 0
  }
  param {
    lr_mult: 0
    decay_mult: 0
  }
  param {
    lr_mult: 0
    decay_mult: 0
  }
}
layer {
  name: "conv1_0/x1/scale"
  type: "Scale"
  bottom: "conv1_0/x1/bn"
  top: "conv1_0/x1/bn"
  scale_param {
    filler {
      value: 1
    }
    bias_term: true
    bias_filler {
      value: 0
    }
  }
}
layer {
  name: "relu1_0/x1"
  type: "ReLU"
  bottom: "conv1_0/x1/bn"
  top: "conv1_0/x1/bn"
}
layer {
  name: "conv1_0/x1"
  type: "Convolution"
  bottom: "conv1_0/x1/bn"
  top: "conv1_0/x1"
  convolution_param {
    num_output: 128
    bias_term: false
    pad: 0
    kernel_size: 1
    stride: 1
    weight_filler {
      type: "msra"
    }
    bias_filler {
      type: "constant"
    }
    engine: CUDNN
  }
}
layer {
  name: "conv1_0/x2/bn"
  type: "BatchNorm"
  bottom: "conv1_0/x1"
  top: "conv1_0/x2/bn"
  param {
    lr_mult: 0
    decay_mult: 0
  }
  param {
    lr_mult: 0
    decay_mult: 0
  }
  param {
    lr_mult: 0
    decay_mult: 0
  }
}
layer {
  name: "conv1_0/x2/scale"
  type: "Scale"
  bottom: "conv1_0/x2/bn"
  top: "conv1_0/x2/bn"
  scale_param {
    filler {
      value: 1
    }
    bias_term: true
    bias_filler {
      value: 0
    }
  }
}
layer {
  name: "relu1_0/x2"
  type: "ReLU"
  bottom: "conv1_0/x2/bn"
  top: "conv1_0/x2/bn"
}
layer {
  name: "conv1_0/x2"
  type: "Convolution"
  bottom: "conv1_0/x2/bn"
  top: "conv1_0/x2"
  convolution_param {
    num_output: 32
    bias_term: false
    pad: 1
    kernel_size: 3
    stride: 1
    weight_filler {
      type: "msra"
    }
    bias_filler {
      type: "constant"
    }
    engine: CUDNN
  }
}
layer {
  name: "concat1_0"
  type: "Concat"
  bottom: "pool0"
  bottom: "conv1_0/x2"
  top: "concat1_0"
  concat_param {
    axis: 1
  }
}
layer {
  name: "conv1_1/x1/bn"
  type: "BatchNorm"
  bottom: "concat1_0"
  top: "conv1_1/x1/bn"
  param {
    lr_mult: 0
    decay_mult: 0
  }
  param {
    lr_mult: 0
    decay_mult: 0
  }
  param {
    lr_mult: 0
    decay_mult: 0
  }
}
layer {
  name: "conv1_1/x1/scale"
  type: "Scale"
  bottom: "conv1_1/x1/bn"
  top: "conv1_1/x1/bn"
  scale_param {
    filler {
      value: 1
    }
    bias_term: true
    bias_filler {
      value: 0
    }
  }
}
layer {
  name: "relu1_1/x1"
  type: "ReLU"
  bottom: "conv1_1/x1/bn"
  top: "conv1_1/x1/bn"
}
layer {
  name: "conv1_1/x1"
  type: "Convolution"
  bottom: "conv1_1/x1/bn"
  top: "conv1_1/x1"
  convolution_param {
    num_output: 128
    bias_term: false
    pad: 0
    kernel_size: 1
    stride: 1
    weight_filler {
      type: "msra"
    }
    bias_filler {
      type: "constant"
    }
    engine: CUDNN
  }
}
layer {
  name: "conv1_1/x2/bn"
  type: "BatchNorm"
  bottom: "conv1_1/x1"
  top: "conv1_1/x2/bn"
  param {
    lr_mult: 0
    decay_mult: 0
  }
  param {
    lr_mult: 0
    decay_mult: 0
  }
  param {
    lr_mult: 0
    decay_mult: 0
  }
}
layer {
  name: "conv1_1/x2/scale"
  type: "Scale"
  bottom: "conv1_1/x2/bn"
  top: "conv1_1/x2/bn"
  scale_param {
    filler {
      value: 1
    }
    bias_term: true
    bias_filler {
      value: 0
    }
  }
}
layer {
  name: "relu1_1/x2"
  type: "ReLU"
  bottom: "conv1_1/x2/bn"
  top: "conv1_1/x2/bn"
}
layer {
  name: "conv1_1/x2"
  type: "Convolution"
  bottom: "conv1_1/x2/bn"
  top: "conv1_1/x2"
  convolution_param {
    num_output: 32
    bias_term: false
    pad: 1
    kernel_size: 3
    stride: 1
    weight_filler {
      type: "msra"
    }
    bias_filler {
      type: "constant"
    }
    engine: CUDNN
  }
}
layer {
  name: "concat1_1"
  type: "Concat"
  bottom: "concat1_0"
  bottom: "conv1_1/x2"
  top: "concat1_1"
  concat_param {
    axis: 1
  }
}
layer {
  name: "conv1_2/x1/bn"
  type: "BatchNorm"
  bottom: "concat1_1"
  top: "conv1_2/x1/bn"
  param {
    lr_mult: 0
    decay_mult: 0
  }
  param {
    lr_mult: 0
    decay_mult: 0
  }
  param {
    lr_mult: 0
    decay_mult: 0
  }
}
layer {
  name: "conv1_2/x1/scale"
  type: "Scale"
  bottom: "conv1_2/x1/bn"
  top: "conv1_2/x1/bn"
  scale_param {
    filler {
      value: 1
    }
    bias_term: true
    bias_filler {
      value: 0
    }
  }
}
layer {
  name: "relu1_2/x1"
  type: "ReLU"
  bottom: "conv1_2/x1/bn"
  top: "conv1_2/x1/bn"
}
layer {
  name: "conv1_2/x1"
  type: "Convolution"
  bottom: "conv1_2/x1/bn"
  top: "conv1_2/x1"
  convolution_param {
    num_output: 128
    bias_term: false
    pad: 0
    kernel_size: 1
    stride: 1
    weight_filler {
      type: "msra"
    }
    bias_filler {
      type: "constant"
    }
    engine: CUDNN
  }
}
layer {
  name: "conv1_2/x2/bn"
  type: "BatchNorm"
  bottom: "conv1_2/x1"
  top: "conv1_2/x2/bn"
  param {
    lr_mult: 0
    decay_mult: 0
  }
  param {
    lr_mult: 0
    decay_mult: 0
  }
  param {
    lr_mult: 0
    decay_mult: 0
  }
}
layer {
  name: "conv1_2/x2/scale"
  type: "Scale"
  bottom: "conv1_2/x2/bn"
  top: "conv1_2/x2/bn"
  scale_param {
    filler {
      value: 1
    }
    bias_term: true
    bias_filler {
      value: 0
    }
  }
}
layer {
  name: "relu1_2/x2"
  type: "ReLU"
  bottom: "conv1_2/x2/bn"
  top: "conv1_2/x2/bn"
}
layer {
  name: "conv1_2/x2"
  type: "Convolution"
  bottom: "conv1_2/x2/bn"
  top: "conv1_2/x2"
  convolution_param {
    num_output: 32
    bias_term: false
    pad: 1
    kernel_size: 3
    stride: 1
    weight_filler {
      type: "msra"
    }
    bias_filler {
      type: "constant"
    }
    engine: CUDNN
  }
}
layer {
  name: "concat1_2"
  type: "Concat"
  bottom: "concat1_1"
  bottom: "conv1_2/x2"
  top: "concat1_2"
  concat_param {
    axis: 1
  }
}
layer {
  name: "conv1_3/x1/bn"
  type: "BatchNorm"
  bottom: "concat1_2"
  top: "conv1_3/x1/bn"
  param {
    lr_mult: 0
    decay_mult: 0
  }
  param {
    lr_mult: 0
    decay_mult: 0
  }
  param {
    lr_mult: 0
    decay_mult: 0
  }
}
layer {
  name: "conv1_3/x1/scale"
  type: "Scale"
  bottom: "conv1_3/x1/bn"
  top: "conv1_3/x1/bn"
  scale_param {
    filler {
      value: 1
    }
    bias_term: true
    bias_filler {
      value: 0
    }
  }
}
layer {
  name: "relu1_3/x1"
  type: "ReLU"
  bottom: "conv1_3/x1/bn"
  top: "conv1_3/x1/bn"
}
layer {
  name: "conv1_3/x1"
  type: "Convolution"
  bottom: "conv1_3/x1/bn"
  top: "conv1_3/x1"
  convolution_param {
    num_output: 128
    bias_term: false
    pad: 0
    kernel_size: 1
    stride: 1
    weight_filler {
      type: "msra"
    }
    bias_filler {
      type: "constant"
    }
    engine: CUDNN
  }
}
layer {
  name: "conv1_3/x2/bn"
  type: "BatchNorm"
  bottom: "conv1_3/x1"
  top: "conv1_3/x2/bn"
  param {
    lr_mult: 0
    decay_mult: 0
  }
  param {
    lr_mult: 0
    decay_mult: 0
  }
  param {
    lr_mult: 0
    decay_mult: 0
  }
}
layer {
  name: "conv1_3/x2/scale"
  type: "Scale"
  bottom: "conv1_3/x2/bn"
  top: "conv1_3/x2/bn"
  scale_param {
    filler {
      value: 1
    }
    bias_term: true
    bias_filler {
      value: 0
    }
  }
}
layer {
  name: "relu1_3/x2"
  type: "ReLU"
  bottom: "conv1_3/x2/bn"
  top: "conv1_3/x2/bn"
}
layer {
  name: "conv1_3/x2"
  type: "Convolution"
  bottom: "conv1_3/x2/bn"
  top: "conv1_3/x2"
  convolution_param {
    num_output: 32
    bias_term: false
    pad: 1
    kernel_size: 3
    stride: 1
    weight_filler {
      type: "msra"
    }
    bias_filler {
      type: "constant"
    }
    engine: CUDNN
  }
}
layer {
  name: "concat1_3"
  type: "Concat"
  bottom: "concat1_2"
  bottom: "conv1_3/x2"
  top: "concat1_3"
  concat_param {
    axis: 1
  }
}
layer {
  name: "conv1_4/x1/bn"
  type: "BatchNorm"
  bottom: "concat1_3"
  top: "conv1_4/x1/bn"
  param {
    lr_mult: 0
    decay_mult: 0
  }
  param {
    lr_mult: 0
    decay_mult: 0
  }
  param {
    lr_mult: 0
    decay_mult: 0
  }
}
layer {
  name: "conv1_4/x1/scale"
  type: "Scale"
  bottom: "conv1_4/x1/bn"
  top: "conv1_4/x1/bn"
  scale_param {
    filler {
      value: 1
    }
    bias_term: true
    bias_filler {
      value: 0
    }
  }
}
layer {
  name: "relu1_4/x1"
  type: "ReLU"
  bottom: "conv1_4/x1/bn"
  top: "conv1_4/x1/bn"
}
layer {
  name: "conv1_4/x1"
  type: "Convolution"
  bottom: "conv1_4/x1/bn"
  top: "conv1_4/x1"
  convolution_param {
    num_output: 128
    bias_term: false
    pad: 0
    kernel_size: 1
    stride: 1
    weight_filler {
      type: "msra"
    }
    bias_filler {
      type: "constant"
    }
    engine: CUDNN
  }
}
layer {
  name: "conv1_4/x2/bn"
  type: "BatchNorm"
  bottom: "conv1_4/x1"
  top: "conv1_4/x2/bn"
  param {
    lr_mult: 0
    decay_mult: 0
  }
  param {
    lr_mult: 0
    decay_mult: 0
  }
  param {
    lr_mult: 0
    decay_mult: 0
  }
}
layer {
  name: "conv1_4/x2/scale"
  type: "Scale"
  bottom: "conv1_4/x2/bn"
  top: "conv1_4/x2/bn"
  scale_param {
    filler {
      value: 1
    }
    bias_term: true
    bias_filler {
      value: 0
    }
  }
}
layer {
  name: "relu1_4/x2"
  type: "ReLU"
  bottom: "conv1_4/x2/bn"
  top: "conv1_4/x2/bn"
}
layer {
  name: "conv1_4/x2"
  type: "Convolution"
  bottom: "conv1_4/x2/bn"
  top: "conv1_4/x2"
  convolution_param {
    num_output: 32
    bias_term: false
    pad: 1
    kernel_size: 3
    stride: 1
    weight_filler {
      type: "msra"
    }
    bias_filler {
      type: "constant"
    }
    engine: CUDNN
  }
}
layer {
  name: "concat1_4"
  type: "Concat"
  bottom: "concat1_3"
  bottom: "conv1_4/x2"
  top: "concat1_4"
  concat_param {
    axis: 1
  }
}
layer {
  name: "conv1_5/x1/bn"
  type: "BatchNorm"
  bottom: "concat1_4"
  top: "conv1_5/x1/bn"
  param {
    lr_mult: 0
    decay_mult: 0
  }
  param {
    lr_mult: 0
    decay_mult: 0
  }
  param {
    lr_mult: 0
    decay_mult: 0
  }
}
layer {
  name: "conv1_5/x1/scale"
  type: "Scale"
  bottom: "conv1_5/x1/bn"
  top: "conv1_5/x1/bn"
  scale_param {
    filler {
      value: 1
    }
    bias_term: true
    bias_filler {
      value: 0
    }
  }
}
layer {
  name: "relu1_5/x1"
  type: "ReLU"
  bottom: "conv1_5/x1/bn"
  top: "conv1_5/x1/bn"
}
layer {
  name: "conv1_5/x1"
  type: "Convolution"
  bottom: "conv1_5/x1/bn"
  top: "conv1_5/x1"
  convolution_param {
    num_output: 128
    bias_term: false
    pad: 0
    kernel_size: 1
    stride: 1
    weight_filler {
      type: "msra"
    }
    bias_filler {
      type: "constant"
    }
    engine: CUDNN
  }
}
layer {
  name: "conv1_5/x2/bn"
  type: "BatchNorm"
  bottom: "conv1_5/x1"
  top: "conv1_5/x2/bn"
  param {
    lr_mult: 0
    decay_mult: 0
  }
  param {
    lr_mult: 0
    decay_mult: 0
  }
  param {
    lr_mult: 0
    decay_mult: 0
  }
}
layer {
  name: "conv1_5/x2/scale"
  type: "Scale"
  bottom: "conv1_5/x2/bn"
  top: "conv1_5/x2/bn"
  scale_param {
    filler {
      value: 1
    }
    bias_term: true
    bias_filler {
      value: 0
    }
  }
}
layer {
  name: "relu1_5/x2"
  type: "ReLU"
  bottom: "conv1_5/x2/bn"
  top: "conv1_5/x2/bn"
}
layer {
  name: "conv1_5/x2"
  type: "Convolution"
  bottom: "conv1_5/x2/bn"
  top: "conv1_5/x2"
  convolution_param {
    num_output: 32
    bias_term: false
    pad: 1
    kernel_size: 3
    stride: 1
    weight_filler {
      type: "msra"
    }
    bias_filler {
      type: "constant"
    }
    engine: CUDNN
  }
}
layer {
  name: "concat1_5"
  type: "Concat"
  bottom: "concat1_4"
  bottom: "conv1_5/x2"
  top: "concat1_5"
  concat_param {
    axis: 1
  }
}
layer {
  name: "conv1_6/x1/bn"
  type: "BatchNorm"
  bottom: "concat1_5"
  top: "conv1_6/x1/bn"
  param {
    lr_mult: 0
    decay_mult: 0
  }
  param {
    lr_mult: 0
    decay_mult: 0
  }
  param {
    lr_mult: 0
    decay_mult: 0
  }
}
layer {
  name: "conv1_6/x1/scale"
  type: "Scale"
  bottom: "conv1_6/x1/bn"
  top: "conv1_6/x1/bn"
  scale_param {
    filler {
      value: 1
    }
    bias_term: true
    bias_filler {
      value: 0
    }
  }
}
layer {
  name: "relu1_6/x1"
  type: "ReLU"
  bottom: "conv1_6/x1/bn"
  top: "conv1_6/x1/bn"
}
layer {
  name: "conv1_6/x1"
  type: "Convolution"
  bottom: "conv1_6/x1/bn"
  top: "conv1_6/x1"
  convolution_param {
    num_output: 128
    bias_term: false
    pad: 0
    kernel_size: 1
    stride: 1
    weight_filler {
      type: "msra"
    }
    bias_filler {
      type: "constant"
    }
    engine: CUDNN
  }
}
layer {
  name: "conv1_6/x2/bn"
  type: "BatchNorm"
  bottom: "conv1_6/x1"
  top: "conv1_6/x2/bn"
  param {
    lr_mult: 0
    decay_mult: 0
  }
  param {
    lr_mult: 0
    decay_mult: 0
  }
  param {
    lr_mult: 0
    decay_mult: 0
  }
}
layer {
  name: "conv1_6/x2/scale"
  type: "Scale"
  bottom: "conv1_6/x2/bn"
  top: "conv1_6/x2/bn"
  scale_param {
    filler {
      value: 1
    }
    bias_term: true
    bias_filler {
      value: 0
    }
  }
}
layer {
  name: "relu1_6/x2"
  type: "ReLU"
  bottom: "conv1_6/x2/bn"
  top: "conv1_6/x2/bn"
}
layer {
  name: "conv1_6/x2"
  type: "Convolution"
  bottom: "conv1_6/x2/bn"
  top: "conv1_6/x2"
  convolution_param {
    num_output: 32
    bias_term: false
    pad: 1
    kernel_size: 3
    stride: 1
    weight_filler {
      type: "msra"
    }
    bias_filler {
      type: "constant"
    }
    engine: CUDNN
  }
}
layer {
  name: "concat1_6"
  type: "Concat"
  bottom: "concat1_5"
  bottom: "conv1_6/x2"
  top: "concat1_6"
  concat_param {
    axis: 1
  }
}
layer {
  name: "conv1_7/x1/bn"
  type: "BatchNorm"
  bottom: "concat1_6"
  top: "conv1_7/x1/bn"
  param {
    lr_mult: 0
    decay_mult: 0
  }
  param {
    lr_mult: 0
    decay_mult: 0
  }
  param {
    lr_mult: 0
    decay_mult: 0
  }
}
layer {
  name: "conv1_7/x1/scale"
  type: "Scale"
  bottom: "conv1_7/x1/bn"
  top: "conv1_7/x1/bn"
  scale_param {
    filler {
      value: 1
    }
    bias_term: true
    bias_filler {
      value: 0
    }
  }
}
layer {
  name: "relu1_7/x1"
  type: "ReLU"
  bottom: "conv1_7/x1/bn"
  top: "conv1_7/x1/bn"
}
layer {
  name: "conv1_7/x1"
  type: "Convolution"
  bottom: "conv1_7/x1/bn"
  top: "conv1_7/x1"
  convolution_param {
    num_output: 128
    bias_term: false
    pad: 0
    kernel_size: 1
    stride: 1
    weight_filler {
      type: "msra"
    }
    bias_filler {
      type: "constant"
    }
    engine: CUDNN
  }
}
layer {
  name: "conv1_7/x2/bn"
  type: "BatchNorm"
  bottom: "conv1_7/x1"
  top: "conv1_7/x2/bn"
  param {
    lr_mult: 0
    decay_mult: 0
  }
  param {
    lr_mult: 0
    decay_mult: 0
  }
  param {
    lr_mult: 0
    decay_mult: 0
  }
}
layer {
  name: "conv1_7/x2/scale"
  type: "Scale"
  bottom: "conv1_7/x2/bn"
  top: "conv1_7/x2/bn"
  scale_param {
    filler {
      value: 1
    }
    bias_term: true
    bias_filler {
      value: 0
    }
  }
}
layer {
  name: "relu1_7/x2"
  type: "ReLU"
  bottom: "conv1_7/x2/bn"
  top: "conv1_7/x2/bn"
}
layer {
  name: "conv1_7/x2"
  type: "Convolution"
  bottom: "conv1_7/x2/bn"
  top: "conv1_7/x2"
  convolution_param {
    num_output: 32
    bias_term: false
    pad: 1
    kernel_size: 3
    stride: 1
    weight_filler {
      type: "msra"
    }
    bias_filler {
      type: "constant"
    }
    engine: CUDNN
  }
}
layer {
  name: "concat1_7"
  type: "Concat"
  bottom: "concat1_6"
  bottom: "conv1_7/x2"
  top: "concat1_7"
  concat_param {
    axis: 1
  }
}
layer {
  name: "conv1_8/x1/bn"
  type: "BatchNorm"
  bottom: "concat1_7"
  top: "conv1_8/x1/bn"
  param {
    lr_mult: 0
    decay_mult: 0
  }
  param {
    lr_mult: 0
    decay_mult: 0
  }
  param {
    lr_mult: 0
    decay_mult: 0
  }
}
layer {
  name: "conv1_8/x1/scale"
  type: "Scale"
  bottom: "conv1_8/x1/bn"
  top: "conv1_8/x1/bn"
  scale_param {
    filler {
      value: 1
    }
    bias_term: true
    bias_filler {
      value: 0
    }
  }
}
layer {
  name: "relu1_8/x1"
  type: "ReLU"
  bottom: "conv1_8/x1/bn"
  top: "conv1_8/x1/bn"
}
layer {
  name: "conv1_8/x1"
  type: "Convolution"
  bottom: "conv1_8/x1/bn"
  top: "conv1_8/x1"
  convolution_param {
    num_output: 128
    bias_term: false
    pad: 0
    kernel_size: 1
    stride: 1
    weight_filler {
      type: "msra"
    }
    bias_filler {
      type: "constant"
    }
    engine: CUDNN
  }
}
layer {
  name: "conv1_8/x2/bn"
  type: "BatchNorm"
  bottom: "conv1_8/x1"
  top: "conv1_8/x2/bn"
  param {
I0226 09:30:29.686758 11774 layer_factory.hpp:77] Creating layer word_images
I0226 09:30:30.122303 11774 db_lmdb.cpp:35] Opened lmdb /data/fwolf/iam_50000/iam-db_nti500000_pul2-3-4-5_train_word_images_lmdb
I0226 09:30:30.177335 11774 net.cpp:84] Creating Layer word_images
I0226 09:30:30.177358 11774 net.cpp:380] word_images -> word_images
I0226 09:30:30.177372 11774 net.cpp:380] word_images -> label
I0226 09:30:30.190222 11774 data_layer.cpp:44] output data size: 1,1,145,197
I0226 09:30:30.201154 11774 net.cpp:122] Setting up word_images
I0226 09:30:30.201184 11774 net.cpp:129] Top shape: 1 1 145 197 (28565)
I0226 09:30:30.201192 11774 net.cpp:129] Top shape: 1 (1)
I0226 09:30:30.201197 11774 net.cpp:137] Memory required for data: 114264
I0226 09:30:30.201211 11774 layer_factory.hpp:77] Creating layer phocs
I0226 09:30:30.320621 11774 db_lmdb.cpp:35] Opened lmdb /data/fwolf/iam_50000/iam-db_nti500000_pul2-3-4-5_train_phocs_lmdb
I0226 09:30:30.405779 11774 net.cpp:84] Creating Layer phocs
I0226 09:30:30.405813 11774 net.cpp:380] phocs -> phocs
I0226 09:30:30.405827 11774 net.cpp:380] phocs -> label_phocs
I0226 09:30:30.406375 11774 data_layer.cpp:44] output data size: 1,1,1,618
I0226 09:30:30.412113 11774 net.cpp:122] Setting up phocs
I0226 09:30:30.412139 11774 net.cpp:129] Top shape: 1 1 1 618 (618)
I0226 09:30:30.412147 11774 net.cpp:129] Top shape: 1 (1)
I0226 09:30:30.412151 11774 net.cpp:137] Memory required for data: 116740
I0226 09:30:30.412158 11774 layer_factory.hpp:77] Creating layer conv_init
I0226 09:30:30.412181 11774 net.cpp:84] Creating Layer conv_init
I0226 09:30:30.412187 11774 net.cpp:406] conv_init <- word_images
I0226 09:30:30.412200 11774 net.cpp:380] conv_init -> conv_init
I0226 09:30:31.232570 11774 net.cpp:122] Setting up conv_init
I0226 09:30:31.232621 11774 net.cpp:129] Top shape: 1 64 73 99 (462528)
I0226 09:30:31.232640 11774 net.cpp:137] Memory required for data: 1966852
I0226 09:30:31.232659 11774 layer_factory.hpp:77] Creating layer bn_init
I0226 09:30:31.232677 11774 net.cpp:84] Creating Layer bn_init
I0226 09:30:31.232686 11774 net.cpp:406] bn_init <- conv_init
I0226 09:30:31.232697 11774 net.cpp:380] bn_init -> bn_init
I0226 09:30:31.235007 11774 net.cpp:122] Setting up bn_init
I0226 09:30:31.235030 11774 net.cpp:129] Top shape: 1 64 73 99 (462528)
I0226 09:30:31.235036 11774 net.cpp:137] Memory required for data: 3816964
I0226 09:30:31.235057 11774 layer_factory.hpp:77] Creating layer scale_init
I0226 09:30:31.235074 11774 net.cpp:84] Creating Layer scale_init
I0226 09:30:31.235080 11774 net.cpp:406] scale_init <- bn_init
I0226 09:30:31.235090 11774 net.cpp:367] scale_init -> bn_init (in-place)
I0226 09:30:31.235158 11774 layer_factory.hpp:77] Creating layer scale_init
I0226 09:30:31.235347 11774 net.cpp:122] Setting up scale_init
I0226 09:30:31.235357 11774 net.cpp:129] Top shape: 1 64 73 99 (462528)
I0226 09:30:31.235363 11774 net.cpp:137] Memory required for data: 5667076
I0226 09:30:31.235374 11774 layer_factory.hpp:77] Creating layer relu_init
I0226 09:30:31.235385 11774 net.cpp:84] Creating Layer relu_init
I0226 09:30:31.235390 11774 net.cpp:406] relu_init <- bn_init
I0226 09:30:31.235399 11774 net.cpp:367] relu_init -> bn_init (in-place)
I0226 09:30:31.236882 11774 net.cpp:122] Setting up relu_init
I0226 09:30:31.236902 11774 net.cpp:129] Top shape: 1 64 73 99 (462528)
I0226 09:30:31.236908 11774 net.cpp:137] Memory required for data: 7517188
I0226 09:30:31.236914 11774 layer_factory.hpp:77] Creating layer pool_init
I0226 09:30:31.236927 11774 net.cpp:84] Creating Layer pool_init
I0226 09:30:31.236932 11774 net.cpp:406] pool_init <- bn_init
I0226 09:30:31.236940 11774 net.cpp:380] pool_init -> pool_init
I0226 09:30:31.237013 11774 net.cpp:122] Setting up pool_init
I0226 09:30:31.237023 11774 net.cpp:129] Top shape: 1 64 37 50 (118400)
I0226 09:30:31.237028 11774 net.cpp:137] Memory required for data: 7990788
I0226 09:30:31.237033 11774 layer_factory.hpp:77] Creating layer pool_init_pool_init_0_split
I0226 09:30:31.237041 11774 net.cpp:84] Creating Layer pool_init_pool_init_0_split
I0226 09:30:31.237047 11774 net.cpp:406] pool_init_pool_init_0_split <- pool_init
I0226 09:30:31.237056 11774 net.cpp:380] pool_init_pool_init_0_split -> pool_init_pool_init_0_split_0
I0226 09:30:31.237066 11774 net.cpp:380] pool_init_pool_init_0_split -> pool_init_pool_init_0_split_1
I0226 09:30:31.237120 11774 net.cpp:122] Setting up pool_init_pool_init_0_split
I0226 09:30:31.237128 11774 net.cpp:129] Top shape: 1 64 37 50 (118400)
I0226 09:30:31.237135 11774 net.cpp:129] Top shape: 1 64 37 50 (118400)
I0226 09:30:31.237140 11774 net.cpp:137] Memory required for data: 8937988
I0226 09:30:31.237151 11774 layer_factory.hpp:77] Creating layer conv0_0/x1/bn
I0226 09:30:31.237162 11774 net.cpp:84] Creating Layer conv0_0/x1/bn
I0226 09:30:31.237172 11774 net.cpp:406] conv0_0/x1/bn <- pool_init_pool_init_0_split_0
I0226 09:30:31.237181 11774 net.cpp:380] conv0_0/x1/bn -> conv0_0/x1/bn
I0226 09:30:31.237519 11774 net.cpp:122] Setting up conv0_0/x1/bn
I0226 09:30:31.237529 11774 net.cpp:129] Top shape: 1 64 37 50 (118400)
I0226 09:30:31.237534 11774 net.cpp:137] Memory required for data: 9411588
I0226 09:30:31.237550 11774 layer_factory.hpp:77] Creating layer conv0_0/x1/scale
I0226 09:30:31.237560 11774 net.cpp:84] Creating Layer conv0_0/x1/scale
I0226 09:30:31.237565 11774 net.cpp:406] conv0_0/x1/scale <- conv0_0/x1/bn
I0226 09:30:31.237573 11774 net.cpp:367] conv0_0/x1/scale -> conv0_0/x1/bn (in-place)
I0226 09:30:31.237632 11774 layer_factory.hpp:77] Creating layer conv0_0/x1/scale
I0226 09:30:31.237817 11774 net.cpp:122] Setting up conv0_0/x1/scale
I0226 09:30:31.237826 11774 net.cpp:129] Top shape: 1 64 37 50 (118400)
I0226 09:30:31.237831 11774 net.cpp:137] Memory required for data: 9885188
I0226 09:30:31.237841 11774 layer_factory.hpp:77] Creating layer relu0_0/x1
I0226 09:30:31.237849 11774 net.cpp:84] Creating Layer relu0_0/x1
I0226 09:30:31.237854 11774 net.cpp:406] relu0_0/x1 <- conv0_0/x1/bn
I0226 09:30:31.237862 11774 net.cpp:367] relu0_0/x1 -> conv0_0/x1/bn (in-place)
I0226 09:30:31.238167 11774 net.cpp:122] Setting up relu0_0/x1
I0226 09:30:31.238178 11774 net.cpp:129] Top shape: 1 64 37 50 (118400)
I0226 09:30:31.238183 11774 net.cpp:137] Memory required for data: 10358788
I0226 09:30:31.238188 11774 layer_factory.hpp:77] Creating layer conv0_0/x1
I0226 09:30:31.238204 11774 net.cpp:84] Creating Layer conv0_0/x1
I0226 09:30:31.238210 11774 net.cpp:406] conv0_0/x1 <- conv0_0/x1/bn
I0226 09:30:31.238219 11774 net.cpp:380] conv0_0/x1 -> conv0_0/x1
I0226 09:30:31.241082 11774 net.cpp:122] Setting up conv0_0/x1
I0226 09:30:31.241103 11774 net.cpp:129] Top shape: 1 128 37 50 (236800)
I0226 09:30:31.241109 11774 net.cpp:137] Memory required for data: 11305988
I0226 09:30:31.241119 11774 layer_factory.hpp:77] Creating layer conv0_0/x2/bn
I0226 09:30:31.241130 11774 net.cpp:84] Creating Layer conv0_0/x2/bn
I0226 09:30:31.241137 11774 net.cpp:406] conv0_0/x2/bn <- conv0_0/x1
I0226 09:30:31.241147 11774 net.cpp:380] conv0_0/x2/bn -> conv0_0/x2/bn
I0226 09:30:31.241482 11774 net.cpp:122] Setting up conv0_0/x2/bn
I0226 09:30:31.241492 11774 net.cpp:129] Top shape: 1 128 37 50 (236800)
I0226 09:30:31.241497 11774 net.cpp:137] Memory required for data: 12253188
I0226 09:30:31.241508 11774 layer_factory.hpp:77] Creating layer conv0_0/x2/scale
I0226 09:30:31.241521 11774 net.cpp:84] Creating Layer conv0_0/x2/scale
I0226 09:30:31.241528 11774 net.cpp:406] conv0_0/x2/scale <- conv0_0/x2/bn
I0226 09:30:31.241535 11774 net.cpp:367] conv0_0/x2/scale -> conv0_0/x2/bn (in-place)
I0226 09:30:31.241600 11774 layer_factory.hpp:77] Creating layer conv0_0/x2/scale
I0226 09:30:31.241787 11774 net.cpp:122] Setting up conv0_0/x2/scale
I0226 09:30:31.241797 11774 net.cpp:129] Top shape: 1 128 37 50 (236800)
I0226 09:30:31.241802 11774 net.cpp:137] Memory required for data: 13200388
I0226 09:30:31.241816 11774 layer_factory.hpp:77] Creating layer relu0_0/x2
I0226 09:30:31.241824 11774 net.cpp:84] Creating Layer relu0_0/x2
I0226 09:30:31.241829 11774 net.cpp:406] relu0_0/x2 <- conv0_0/x2/bn
I0226 09:30:31.241837 11774 net.cpp:367] relu0_0/x2 -> conv0_0/x2/bn (in-place)
I0226 09:30:31.242177 11774 net.cpp:122] Setting up relu0_0/x2
I0226 09:30:31.242188 11774 net.cpp:129] Top shape: 1 128 37 50 (236800)
I0226 09:30:31.242193 11774 net.cpp:137] Memory required for data: 14147588
I0226 09:30:31.242198 11774 layer_factory.hpp:77] Creating layer conv0_0/x2
I0226 09:30:31.242218 11774 net.cpp:84] Creating Layer conv0_0/x2
I0226 09:30:31.242223 11774 net.cpp:406] conv0_0/x2 <- conv0_0/x2/bn
I0226 09:30:31.242233 11774 net.cpp:380] conv0_0/x2 -> conv0_0/x2
I0226 09:30:31.247586 11774 net.cpp:122] Setting up conv0_0/x2
I0226 09:30:31.247606 11774 net.cpp:129] Top shape: 1 32 37 50 (59200)
I0226 09:30:31.247611 11774 net.cpp:137] Memory required for data: 14384388
I0226 09:30:31.247624 11774 layer_factory.hpp:77] Creating layer concat0_0
I0226 09:30:31.247640 11774 net.cpp:84] Creating Layer concat0_0
I0226 09:30:31.247647 11774 net.cpp:406] concat0_0 <- pool_init_pool_init_0_split_1
I0226 09:30:31.247653 11774 net.cpp:406] concat0_0 <- conv0_0/x2
I0226 09:30:31.247661 11774 net.cpp:380] concat0_0 -> concat0_0
I0226 09:30:31.247710 11774 net.cpp:122] Setting up concat0_0
I0226 09:30:31.247720 11774 net.cpp:129] Top shape: 1 96 37 50 (177600)
I0226 09:30:31.247723 11774 net.cpp:137] Memory required for data: 15094788
I0226 09:30:31.247728 11774 layer_factory.hpp:77] Creating layer concat0_0_concat0_0_0_split
I0226 09:30:31.247735 11774 net.cpp:84] Creating Layer concat0_0_concat0_0_0_split
I0226 09:30:31.247740 11774 net.cpp:406] concat0_0_concat0_0_0_split <- concat0_0
I0226 09:30:31.247750 11774 net.cpp:380] concat0_0_concat0_0_0_split -> concat0_0_concat0_0_0_split_0
I0226 09:30:31.247758 11774 net.cpp:380] concat0_0_concat0_0_0_split -> concat0_0_concat0_0_0_split_1
I0226 09:30:31.247812 11774 net.cpp:122] Setting up concat0_0_concat0_0_0_split
I0226 09:30:31.247820 11774 net.cpp:129] Top shape: 1 96 37 50 (177600)
I0226 09:30:31.247826 11774 net.cpp:129] Top shape: 1 96 37 50 (177600)
I0226 09:30:31.247830 11774 net.cpp:137] Memory required for data: 16515588
I0226 09:30:31.247835 11774 layer_factory.hpp:77] Creating layer conv0_1/x1/bn
I0226 09:30:31.247845 11774 net.cpp:84] Creating Layer conv0_1/x1/bn
I0226 09:30:31.247850 11774 net.cpp:406] conv0_1/x1/bn <- concat0_0_concat0_0_0_split_0
I0226 09:30:31.247860 11774 net.cpp:380] conv0_1/x1/bn -> conv0_1/x1/bn
I0226 09:30:31.248200 11774 net.cpp:122] Setting up conv0_1/x1/bn
I0226 09:30:31.248209 11774 net.cpp:129] Top shape: 1 96 37 50 (177600)
I0226 09:30:31.248214 11774 net.cpp:137] Memory required for data: 17225988
I0226 09:30:31.248225 11774 layer_factory.hpp:77] Creating layer conv0_1/x1/scale
I0226 09:30:31.248234 11774 net.cpp:84] Creating Layer conv0_1/x1/scale
I0226 09:30:31.248240 11774 net.cpp:406] conv0_1/x1/scale <- conv0_1/x1/bn
I0226 09:30:31.248253 11774 net.cpp:367] conv0_1/x1/scale -> conv0_1/x1/bn (in-place)
I0226 09:30:31.248317 11774 layer_factory.hpp:77] Creating layer conv0_1/x1/scale
I0226 09:30:31.248504 11774 net.cpp:122] Setting up conv0_1/x1/scale
I0226 09:30:31.248513 11774 net.cpp:129] Top shape: 1 96 37 50 (177600)
I0226 09:30:31.248518 11774 net.cpp:137] Memory required for data: 17936388
I0226 09:30:31.248528 11774 layer_factory.hpp:77] Creating layer relu0_1/x1
I0226 09:30:31.248535 11774 net.cpp:84] Creating Layer relu0_1/x1
I0226 09:30:31.248540 11774 net.cpp:406] relu0_1/x1 <- conv0_1/x1/bn
I0226 09:30:31.248554 11774 net.cpp:367] relu0_1/x1 -> conv0_1/x1/bn (in-place)
I0226 09:30:31.249991 11774 net.cpp:122] Setting up relu0_1/x1
I0226 09:30:31.250010 11774 net.cpp:129] Top shape: 1 96 37 50 (177600)
I0226 09:30:31.250015 11774 net.cpp:137] Memory required for data: 18646788
I0226 09:30:31.250020 11774 layer_factory.hpp:77] Creating layer conv0_1/x1
I0226 09:30:31.250041 11774 net.cpp:84] Creating Layer conv0_1/x1
I0226 09:30:31.250046 11774 net.cpp:406] conv0_1/x1 <- conv0_1/x1/bn
I0226 09:30:31.250056 11774 net.cpp:380] conv0_1/x1 -> conv0_1/x1
I0226 09:30:31.252998 11774 net.cpp:122] Setting up conv0_1/x1
I0226 09:30:31.253018 11774 net.cpp:129] Top shape: 1 128 37 50 (236800)
I0226 09:30:31.253024 11774 net.cpp:137] Memory required for data: 19593988
I0226 09:30:31.253032 11774 layer_factory.hpp:77] Creating layer conv0_1/x2/bn
I0226 09:30:31.253046 11774 net.cpp:84] Creating Layer conv0_1/x2/bn
I0226 09:30:31.253052 11774 net.cpp:406] conv0_1/x2/bn <- conv0_1/x1
I0226 09:30:31.253063 11774 net.cpp:380] conv0_1/x2/bn -> conv0_1/x2/bn
I0226 09:30:31.253392 11774 net.cpp:122] Setting up conv0_1/x2/bn
I0226 09:30:31.253401 11774 net.cpp:129] Top shape: 1 128 37 50 (236800)
I0226 09:30:31.253407 11774 net.cpp:137] Memory required for data: 20541188
I0226 09:30:31.253417 11774 layer_factory.hpp:77] Creating layer conv0_1/x2/scale
I0226 09:30:31.253427 11774 net.cpp:84] Creating Layer conv0_1/x2/scale
I0226 09:30:31.253437 11774 net.cpp:406] conv0_1/x2/scale <- conv0_1/x2/bn
I0226 09:30:31.253444 11774 net.cpp:367] conv0_1/x2/scale -> conv0_1/x2/bn (in-place)
I0226 09:30:31.253505 11774 layer_factory.hpp:77] Creating layer conv0_1/x2/scale
I0226 09:30:31.253693 11774 net.cpp:122] Setting up conv0_1/x2/scale
I0226 09:30:31.253703 11774 net.cpp:129] Top shape: 1 128 37 50 (236800)
I0226 09:30:31.253707 11774 net.cpp:137] Memory required for data: 21488388
I0226 09:30:31.253717 11774 layer_factory.hpp:77] Creating layer relu0_1/x2
I0226 09:30:31.253726 11774 net.cpp:84] Creating Layer relu0_1/x2
I0226 09:30:31.253731 11774 net.cpp:406] relu0_1/x2 <- conv0_1/x2/bn
I0226 09:30:31.253741 11774 net.cpp:367] relu0_1/x2 -> conv0_1/x2/bn (in-place)
I0226 09:30:31.254055 11774 net.cpp:122] Setting up relu0_1/x2
I0226 09:30:31.254068 11774 net.cpp:129] Top shape: 1 128 37 50 (236800)
I0226 09:30:31.254073 11774 net.cpp:137] Memory required for data: 22435588
I0226 09:30:31.254078 11774 layer_factory.hpp:77] Creating layer conv0_1/x2
I0226 09:30:31.254096 11774 net.cpp:84] Creating Layer conv0_1/x2
I0226 09:30:31.254102 11774 net.cpp:406] conv0_1/x2 <- conv0_1/x2/bn
I0226 09:30:31.254110 11774 net.cpp:380] conv0_1/x2 -> conv0_1/x2
I0226 09:30:31.258112 11774 net.cpp:122] Setting up conv0_1/x2
I0226 09:30:31.258131 11774 net.cpp:129] Top shape: 1 32 37 50 (59200)
I0226 09:30:31.258136 11774 net.cpp:137] Memory required for data: 22672388
I0226 09:30:31.258146 11774 layer_factory.hpp:77] Creating layer concat0_1
I0226 09:30:31.258158 11774 net.cpp:84] Creating Layer concat0_1
I0226 09:30:31.258163 11774 net.cpp:406] concat0_1 <- concat0_0_concat0_0_0_split_1
I0226 09:30:31.258170 11774 net.cpp:406] concat0_1 <- conv0_1/x2
I0226 09:30:31.258178 11774 net.cpp:380] concat0_1 -> concat0_1
I0226 09:30:31.258219 11774 net.cpp:122] Setting up concat0_1
I0226 09:30:31.258227 11774 net.cpp:129] Top shape: 1 128 37 50 (236800)
I0226 09:30:31.258231 11774 net.cpp:137] Memory required for data: 23619588
I0226 09:30:31.258235 11774 layer_factory.hpp:77] Creating layer concat0_1_concat0_1_0_split
I0226 09:30:31.258242 11774 net.cpp:84] Creating Layer concat0_1_concat0_1_0_split
I0226 09:30:31.258247 11774 net.cpp:406] concat0_1_concat0_1_0_split <- concat0_1
I0226 09:30:31.258256 11774 net.cpp:380] concat0_1_concat0_1_0_split -> concat0_1_concat0_1_0_split_0
I0226 09:30:31.258265 11774 net.cpp:380] concat0_1_concat0_1_0_split -> concat0_1_concat0_1_0_split_1
I0226 09:30:31.258314 11774 net.cpp:122] Setting up concat0_1_concat0_1_0_split
I0226 09:30:31.258322 11774 net.cpp:129] Top shape: 1 128 37 50 (236800)
I0226 09:30:31.258327 11774 net.cpp:129] Top shape: 1 128 37 50 (236800)
I0226 09:30:31.258332 11774 net.cpp:137] Memory required for data: 25513988
I0226 09:30:31.258337 11774 layer_factory.hpp:77] Creating layer conv0_2/x1/bn
I0226 09:30:31.258345 11774 net.cpp:84] Creating Layer conv0_2/x1/bn
I0226 09:30:31.258350 11774 net.cpp:406] conv0_2/x1/bn <- concat0_1_concat0_1_0_split_0
I0226 09:30:31.258359 11774 net.cpp:380] conv0_2/x1/bn -> conv0_2/x1/bn
I0226 09:30:31.258661 11774 net.cpp:122] Setting up conv0_2/x1/bn
I0226 09:30:31.258669 11774 net.cpp:129] Top shape: 1 128 37 50 (236800)
I0226 09:30:31.258673 11774 net.cpp:137] Memory required for data: 26461188
I0226 09:30:31.258687 11774 layer_factory.hpp:77] Creating layer conv0_2/x1/scale
I0226 09:30:31.258697 11774 net.cpp:84] Creating Layer conv0_2/x1/scale
I0226 09:30:31.258702 11774 net.cpp:406] conv0_2/x1/scale <- conv0_2/x1/bn
I0226 09:30:31.258710 11774 net.cpp:367] conv0_2/x1/scale -> conv0_2/x1/bn (in-place)
I0226 09:30:31.258771 11774 layer_factory.hpp:77] Creating layer conv0_2/x1/scale
I0226 09:30:31.258947 11774 net.cpp:122] Setting up conv0_2/x1/scale
I0226 09:30:31.258956 11774 net.cpp:129] Top shape: 1 128 37 50 (236800)
I0226 09:30:31.258961 11774 net.cpp:137] Memory required for data: 27408388
I0226 09:30:31.258970 11774 layer_factory.hpp:77] Creating layer relu0_2/x1
I0226 09:30:31.258977 11774 net.cpp:84] Creating Layer relu0_2/x1
I0226 09:30:31.258986 11774 net.cpp:406] relu0_2/x1 <- conv0_2/x1/bn
I0226 09:30:31.258993 11774 net.cpp:367] relu0_2/x1 -> conv0_2/x1/bn (in-place)
I0226 09:30:31.259294 11774 net.cpp:122] Setting up relu0_2/x1
I0226 09:30:31.259305 11774 net.cpp:129] Top shape: 1 128 37 50 (236800)
I0226 09:30:31.259310 11774 net.cpp:137] Memory required for data: 28355588
I0226 09:30:31.259315 11774 layer_factory.hpp:77] Creating layer conv0_2/x1
I0226 09:30:31.259328 11774 net.cpp:84] Creating Layer conv0_2/x1
I0226 09:30:31.259335 11774 net.cpp:406] conv0_2/x1 <- conv0_2/x1/bn
I0226 09:30:31.259344 11774 net.cpp:380] conv0_2/x1 -> conv0_2/x1
I0226 09:30:31.262297 11774 net.cpp:122] Setting up conv0_2/x1
I0226 09:30:31.262315 11774 net.cpp:129] Top shape: 1 128 37 50 (236800)
I0226 09:30:31.262320 11774 net.cpp:137] Memory required for data: 29302788
I0226 09:30:31.262329 11774 layer_factory.hpp:77] Creating layer conv0_2/x2/bn
I0226 09:30:31.262342 11774 net.cpp:84] Creating Layer conv0_2/x2/bn
I0226 09:30:31.262348 11774 net.cpp:406] conv0_2/x2/bn <- conv0_2/x1
I0226 09:30:31.262361 11774 net.cpp:380] conv0_2/x2/bn -> conv0_2/x2/bn
I0226 09:30:31.262679 11774 net.cpp:122] Setting up conv0_2/x2/bn
I0226 09:30:31.262688 11774 net.cpp:129] Top shape: 1 128 37 50 (236800)
I0226 09:30:31.262692 11774 net.cpp:137] Memory required for data: 30249988
I0226 09:30:31.262702 11774 layer_factory.hpp:77] Creating layer conv0_2/x2/scale
I0226 09:30:31.262712 11774 net.cpp:84] Creating Layer conv0_2/x2/scale
I0226 09:30:31.262717 11774 net.cpp:406] conv0_2/x2/scale <- conv0_2/x2/bn
I0226 09:30:31.262727 11774 net.cpp:367] conv0_2/x2/scale -> conv0_2/x2/bn (in-place)
I0226 09:30:31.262782 11774 layer_factory.hpp:77] Creating layer conv0_2/x2/scale
I0226 09:30:31.262959 11774 net.cpp:122] Setting up conv0_2/x2/scale
I0226 09:30:31.262967 11774 net.cpp:129] Top shape: 1 128 37 50 (236800)
I0226 09:30:31.262971 11774 net.cpp:137] Memory required for data: 31197188
I0226 09:30:31.262979 11774 layer_factory.hpp:77] Creating layer relu0_2/x2
I0226 09:30:31.262987 11774 net.cpp:84] Creating Layer relu0_2/x2
I0226 09:30:31.262992 11774 net.cpp:406] relu0_2/x2 <- conv0_2/x2/bn
I0226 09:30:31.262998 11774 net.cpp:367] relu0_2/x2 -> conv0_2/x2/bn (in-place)
I0226 09:30:31.264333 11774 net.cpp:122] Setting up relu0_2/x2
I0226 09:30:31.264350 11774 net.cpp:129] Top shape: 1 128 37 50 (236800)
I0226 09:30:31.264355 11774 net.cpp:137] Memory required for data: 32144388
I0226 09:30:31.264361 11774 layer_factory.hpp:77] Creating layer conv0_2/x2
I0226 09:30:31.264376 11774 net.cpp:84] Creating Layer conv0_2/x2
I0226 09:30:31.264382 11774 net.cpp:406] conv0_2/x2 <- conv0_2/x2/bn
I0226 09:30:31.264394 11774 net.cpp:380] conv0_2/x2 -> conv0_2/x2
I0226 09:30:31.269287 11774 net.cpp:122] Setting up conv0_2/x2
I0226 09:30:31.269305 11774 net.cpp:129] Top shape: 1 32 37 50 (59200)
I0226 09:30:31.269312 11774 net.cpp:137] Memory required for data: 32381188
I0226 09:30:31.269320 11774 layer_factory.hpp:77] Creating layer concat0_2
I0226 09:30:31.269330 11774 net.cpp:84] Creating Layer concat0_2
I0226 09:30:31.269336 11774 net.cpp:406] concat0_2 <- concat0_1_concat0_1_0_split_1
I0226 09:30:31.269342 11774 net.cpp:406] concat0_2 <- conv0_2/x2
I0226 09:30:31.269349 11774 net.cpp:380] concat0_2 -> concat0_2
I0226 09:30:31.269397 11774 net.cpp:122] Setting up concat0_2
I0226 09:30:31.269404 11774 net.cpp:129] Top shape: 1 160 37 50 (296000)
I0226 09:30:31.269408 11774 net.cpp:137] Memory required for data: 33565188
I0226 09:30:31.269412 11774 layer_factory.hpp:77] Creating layer concat0_2_concat0_2_0_split
I0226 09:30:31.269418 11774 net.cpp:84] Creating Layer concat0_2_concat0_2_0_split
I0226 09:30:31.269423 11774 net.cpp:406] concat0_2_concat0_2_0_split <- concat0_2
I0226 09:30:31.269433 11774 net.cpp:380] concat0_2_concat0_2_0_split -> concat0_2_concat0_2_0_split_0
I0226 09:30:31.269439 11774 net.cpp:380] concat0_2_concat0_2_0_split -> concat0_2_concat0_2_0_split_1
I0226 09:30:31.269492 11774 net.cpp:122] Setting up concat0_2_concat0_2_0_split
I0226 09:30:31.269500 11774 net.cpp:129] Top shape: 1 160 37 50 (296000)
I0226 09:30:31.269510 11774 net.cpp:129] Top shape: 1 160 37 50 (296000)
I0226 09:30:31.269513 11774 net.cpp:137] Memory required for data: 35933188
I0226 09:30:31.269518 11774 layer_factory.hpp:77] Creating layer conv0_3/x1/bn
I0226 09:30:31.269526 11774 net.cpp:84] Creating Layer conv0_3/x1/bn
I0226 09:30:31.269531 11774 net.cpp:406] conv0_3/x1/bn <- concat0_2_concat0_2_0_split_0
I0226 09:30:31.269542 11774 net.cpp:380] conv0_3/x1/bn -> conv0_3/x1/bn
I0226 09:30:31.269847 11774 net.cpp:122] Setting up conv0_3/x1/bn
I0226 09:30:31.269856 11774 net.cpp:129] Top shape: 1 160 37 50 (296000)
I0226 09:30:31.269860 11774 net.cpp:137] Memory required for data: 37117188
I0226 09:30:31.269870 11774 layer_factory.hpp:77] Creating layer conv0_3/x1/scale
I0226 09:30:31.269881 11774 net.cpp:84] Creating Layer conv0_3/x1/scale
I0226 09:30:31.269886 11774 net.cpp:406] conv0_3/x1/scale <- conv0_3/x1/bn
I0226 09:30:31.269893 11774 net.cpp:367] conv0_3/x1/scale -> conv0_3/x1/bn (in-place)
I0226 09:30:31.269946 11774 layer_factory.hpp:77] Creating layer conv0_3/x1/scale
I0226 09:30:31.270124 11774 net.cpp:122] Setting up conv0_3/x1/scale
I0226 09:30:31.270133 11774 net.cpp:129] Top shape: 1 160 37 50 (296000)
I0226 09:30:31.270136 11774 net.cpp:137] Memory required for data: 38301188
I0226 09:30:31.270144 11774 layer_factory.hpp:77] Creating layer relu0_3/x1
I0226 09:30:31.270151 11774 net.cpp:84] Creating Layer relu0_3/x1
I0226 09:30:31.270156 11774 net.cpp:406] relu0_3/x1 <- conv0_3/x1/bn
I0226 09:30:31.270164 11774 net.cpp:367] relu0_3/x1 -> conv0_3/x1/bn (in-place)
I0226 09:30:31.270448 11774 net.cpp:122] Setting up relu0_3/x1
I0226 09:30:31.270459 11774 net.cpp:129] Top shape: 1 160 37 50 (296000)
I0226 09:30:31.270463 11774 net.cpp:137] Memory required for data: 39485188
I0226 09:30:31.270467 11774 layer_factory.hpp:77] Creating layer conv0_3/x1
I0226 09:30:31.270485 11774 net.cpp:84] Creating Layer conv0_3/x1
I0226 09:30:31.270490 11774 net.cpp:406] conv0_3/x1 <- conv0_3/x1/bn
I0226 09:30:31.270499 11774 net.cpp:380] conv0_3/x1 -> conv0_3/x1
I0226 09:30:31.273524 11774 net.cpp:122] Setting up conv0_3/x1
I0226 09:30:31.273541 11774 net.cpp:129] Top shape: 1 128 37 50 (236800)
I0226 09:30:31.273546 11774 net.cpp:137] Memory required for data: 40432388
I0226 09:30:31.273555 11774 layer_factory.hpp:77] Creating layer conv0_3/x2/bn
I0226 09:30:31.273568 11774 net.cpp:84] Creating Layer conv0_3/x2/bn
I0226 09:30:31.273573 11774 net.cpp:406] conv0_3/x2/bn <- conv0_3/x1
I0226 09:30:31.273581 11774 net.cpp:380] conv0_3/x2/bn -> conv0_3/x2/bn
I0226 09:30:31.273891 11774 net.cpp:122] Setting up conv0_3/x2/bn
I0226 09:30:31.273900 11774 net.cpp:129] Top shape: 1 128 37 50 (236800)
I0226 09:30:31.273905 11774 net.cpp:137] Memory required for data: 41379588
I0226 09:30:31.273914 11774 layer_factory.hpp:77] Creating layer conv0_3/x2/scale
I0226 09:30:31.273923 11774 net.cpp:84] Creating Layer conv0_3/x2/scale
I0226 09:30:31.273928 11774 net.cpp:406] conv0_3/x2/scale <- conv0_3/x2/bn
I0226 09:30:31.273936 11774 net.cpp:367] conv0_3/x2/scale -> conv0_3/x2/bn (in-place)
I0226 09:30:31.273993 11774 layer_factory.hpp:77] Creating layer conv0_3/x2/scale
I0226 09:30:31.274158 11774 net.cpp:122] Setting up conv0_3/x2/scale
I0226 09:30:31.274168 11774 net.cpp:129] Top shape: 1 128 37 50 (236800)
I0226 09:30:31.274173 11774 net.cpp:137] Memory required for data: 42326788
I0226 09:30:31.274180 11774 layer_factory.hpp:77] Creating layer relu0_3/x2
I0226 09:30:31.274188 11774 net.cpp:84] Creating Layer relu0_3/x2
I0226 09:30:31.274193 11774 net.cpp:406] relu0_3/x2 <- conv0_3/x2/bn
I0226 09:30:31.274199 11774 net.cpp:367] relu0_3/x2 -> conv0_3/x2/bn (in-place)
I0226 09:30:31.274488 11774 net.cpp:122] Setting up relu0_3/x2
I0226 09:30:31.274498 11774 net.cpp:129] Top shape: 1 128 37 50 (236800)
I0226 09:30:31.274502 11774 net.cpp:137] Memory required for data: 43273988
I0226 09:30:31.274507 11774 layer_factory.hpp:77] Creating layer conv0_3/x2
I0226 09:30:31.274523 11774 net.cpp:84] Creating Layer conv0_3/x2
I0226 09:30:31.274534 11774 net.cpp:406] conv0_3/x2 <- conv0_3/x2/bn
I0226 09:30:31.274543 11774 net.cpp:380] conv0_3/x2 -> conv0_3/x2
I0226 09:30:31.278203 11774 net.cpp:122] Setting up conv0_3/x2
I0226 09:30:31.278241 11774 net.cpp:129] Top shape: 1 32 37 50 (59200)
I0226 09:30:31.278246 11774 net.cpp:137] Memory required for data: 43510788
I0226 09:30:31.278257 11774 layer_factory.hpp:77] Creating layer concat0_3
I0226 09:30:31.278270 11774 net.cpp:84] Creating Layer concat0_3
I0226 09:30:31.278276 11774 net.cpp:406] concat0_3 <- concat0_2_concat0_2_0_split_1
I0226 09:30:31.278286 11774 net.cpp:406] concat0_3 <- conv0_3/x2
I0226 09:30:31.278293 11774 net.cpp:380] concat0_3 -> concat0_3
I0226 09:30:31.278331 11774 net.cpp:122] Setting up concat0_3
I0226 09:30:31.278337 11774 net.cpp:129] Top shape: 1 192 37 50 (355200)
I0226 09:30:31.278340 11774 net.cpp:137] Memory required for data: 44931588
I0226 09:30:31.278343 11774 layer_factory.hpp:77] Creating layer concat0_3_concat0_3_0_split
I0226 09:30:31.278358 11774 net.cpp:84] Creating Layer concat0_3_concat0_3_0_split
I0226 09:30:31.278362 11774 net.cpp:406] concat0_3_concat0_3_0_split <- concat0_3
I0226 09:30:31.278368 11774 net.cpp:380] concat0_3_concat0_3_0_split -> concat0_3_concat0_3_0_split_0
I0226 09:30:31.278378 11774 net.cpp:380] concat0_3_concat0_3_0_split -> concat0_3_concat0_3_0_split_1
I0226 09:30:31.278421 11774 net.cpp:122] Setting up concat0_3_concat0_3_0_split
I0226 09:30:31.278427 11774 net.cpp:129] Top shape: 1 192 37 50 (355200)
I0226 09:30:31.278432 11774 net.cpp:129] Top shape: 1 192 37 50 (355200)
I0226 09:30:31.278435 11774 net.cpp:137] Memory required for data: 47773188
I0226 09:30:31.278439 11774 layer_factory.hpp:77] Creating layer conv0_4/x1/bn
I0226 09:30:31.278448 11774 net.cpp:84] Creating Layer conv0_4/x1/bn
I0226 09:30:31.278452 11774 net.cpp:406] conv0_4/x1/bn <- concat0_3_concat0_3_0_split_0
I0226 09:30:31.278457 11774 net.cpp:380] conv0_4/x1/bn -> conv0_4/x1/bn
I0226 09:30:31.278726 11774 net.cpp:122] Setting up conv0_4/x1/bn
I0226 09:30:31.278734 11774 net.cpp:129] Top shape: 1 192 37 50 (355200)
I0226 09:30:31.278738 11774 net.cpp:137] Memory required for data: 49193988
I0226 09:30:31.278748 11774 layer_factory.hpp:77] Creating layer conv0_4/x1/scale
I0226 09:30:31.278759 11774 net.cpp:84] Creating Layer conv0_4/x1/scale
I0226 09:30:31.278762 11774 net.cpp:406] conv0_4/x1/scale <- conv0_4/x1/bn
I0226 09:30:31.278769 11774 net.cpp:367] conv0_4/x1/scale -> conv0_4/x1/bn (in-place)
I0226 09:30:31.278820 11774 layer_factory.hpp:77] Creating layer conv0_4/x1/scale
I0226 09:30:31.278973 11774 net.cpp:122] Setting up conv0_4/x1/scale
I0226 09:30:31.278981 11774 net.cpp:129] Top shape: 1 192 37 50 (355200)
I0226 09:30:31.278985 11774 net.cpp:137] Memory required for data: 50614788
I0226 09:30:31.278992 11774 layer_factory.hpp:77] Creating layer relu0_4/x1
I0226 09:30:31.279002 11774 net.cpp:84] Creating Layer relu0_4/x1
I0226 09:30:31.279006 11774 net.cpp:406] relu0_4/x1 <- conv0_4/x1/bn
I0226 09:30:31.279011 11774 net.cpp:367] relu0_4/x1 -> conv0_4/x1/bn (in-place)
I0226 09:30:31.279249 11774 net.cpp:122] Setting up relu0_4/x1
I0226 09:30:31.279258 11774 net.cpp:129] Top shape: 1 192 37 50 (355200)
I0226 09:30:31.279261 11774 net.cpp:137] Memory required for data: 52035588
I0226 09:30:31.279265 11774 layer_factory.hpp:77] Creating layer conv0_4/x1
I0226 09:30:31.279280 11774 net.cpp:84] Creating Layer conv0_4/x1
I0226 09:30:31.279284 11774 net.cpp:406] conv0_4/x1 <- conv0_4/x1/bn
I0226 09:30:31.279294 11774 net.cpp:380] conv0_4/x1 -> conv0_4/x1
I0226 09:30:31.282060 11774 net.cpp:122] Setting up conv0_4/x1
I0226 09:30:31.282076 11774 net.cpp:129] Top shape: 1 128 37 50 (236800)
I0226 09:30:31.282080 11774 net.cpp:137] Memory required for data: 52982788
I0226 09:30:31.282088 11774 layer_factory.hpp:77] Creating layer conv0_4/x2/bn
I0226 09:30:31.282104 11774 net.cpp:84] Creating Layer conv0_4/x2/bn
I0226 09:30:31.282109 11774 net.cpp:406] conv0_4/x2/bn <- conv0_4/x1
I0226 09:30:31.282115 11774 net.cpp:380] conv0_4/x2/bn -> conv0_4/x2/bn
I0226 09:30:31.282371 11774 net.cpp:122] Setting up conv0_4/x2/bn
I0226 09:30:31.282384 11774 net.cpp:129] Top shape: 1 128 37 50 (236800)
I0226 09:30:31.282388 11774 net.cpp:137] Memory required for data: 53929988
I0226 09:30:31.282397 11774 layer_factory.hpp:77] Creating layer conv0_4/x2/scale
I0226 09:30:31.282407 11774 net.cpp:84] Creating Layer conv0_4/x2/scale
I0226 09:30:31.282413 11774 net.cpp:406] conv0_4/x2/scale <- conv0_4/x2/bn
I0226 09:30:31.282418 11774 net.cpp:367] conv0_4/x2/scale -> conv0_4/x2/bn (in-place)
I0226 09:30:31.282464 11774 layer_factory.hpp:77] Creating layer conv0_4/x2/scale
I0226 09:30:31.282603 11774 net.cpp:122] Setting up conv0_4/x2/scale
I0226 09:30:31.282610 11774 net.cpp:129] Top shape: 1 128 37 50 (236800)
I0226 09:30:31.282614 11774 net.cpp:137] Memory required for data: 54877188
I0226 09:30:31.282630 11774 layer_factory.hpp:77] Creating layer relu0_4/x2
I0226 09:30:31.282637 11774 net.cpp:84] Creating Layer relu0_4/x2
I0226 09:30:31.282641 11774 net.cpp:406] relu0_4/x2 <- conv0_4/x2/bn
I0226 09:30:31.282649 11774 net.cpp:367] relu0_4/x2 -> conv0_4/x2/bn (in-place)
I0226 09:30:31.283731 11774 net.cpp:122] Setting up relu0_4/x2
I0226 09:30:31.283746 11774 net.cpp:129] Top shape: 1 128 37 50 (236800)
I0226 09:30:31.283749 11774 net.cpp:137] Memory required for data: 55824388
I0226 09:30:31.283753 11774 layer_factory.hpp:77] Creating layer conv0_4/x2
I0226 09:30:31.283769 11774 net.cpp:84] Creating Layer conv0_4/x2
I0226 09:30:31.283773 11774 net.cpp:406] conv0_4/x2 <- conv0_4/x2/bn
I0226 09:30:31.283782 11774 net.cpp:380] conv0_4/x2 -> conv0_4/x2
I0226 09:30:31.287706 11774 net.cpp:122] Setting up conv0_4/x2
I0226 09:30:31.287721 11774 net.cpp:129] Top shape: 1 32 37 50 (59200)
I0226 09:30:31.287725 11774 net.cpp:137] Memory required for data: 56061188
I0226 09:30:31.287732 11774 layer_factory.hpp:77] Creating layer concat0_4
I0226 09:30:31.287740 11774 net.cpp:84] Creating Layer concat0_4
I0226 09:30:31.287745 11774 net.cpp:406] concat0_4 <- concat0_3_concat0_3_0_split_1
I0226 09:30:31.287751 11774 net.cpp:406] concat0_4 <- conv0_4/x2
I0226 09:30:31.287757 11774 net.cpp:380] concat0_4 -> concat0_4
I0226 09:30:31.287797 11774 net.cpp:122] Setting up concat0_4
I0226 09:30:31.287804 11774 net.cpp:129] Top shape: 1 224 37 50 (414400)
I0226 09:30:31.287807 11774 net.cpp:137] Memory required for data: 57718788
I0226 09:30:31.287811 11774 layer_factory.hpp:77] Creating layer concat0_4_concat0_4_0_split
I0226 09:30:31.287819 11774 net.cpp:84] Creating Layer concat0_4_concat0_4_0_split
I0226 09:30:31.287822 11774 net.cpp:406] concat0_4_concat0_4_0_split <- concat0_4
I0226 09:30:31.287828 11774 net.cpp:380] concat0_4_concat0_4_0_split -> concat0_4_concat0_4_0_split_0
I0226 09:30:31.287834 11774 net.cpp:380] concat0_4_concat0_4_0_split -> concat0_4_concat0_4_0_split_1
I0226 09:30:31.287881 11774 net.cpp:122] Setting up concat0_4_concat0_4_0_split
I0226 09:30:31.287888 11774 net.cpp:129] Top shape: 1 224 37 50 (414400)
I0226 09:30:31.287891 11774 net.cpp:129] Top shape: 1 224 37 50 (414400)
I0226 09:30:31.287894 11774 net.cpp:137] Memory required for data: 61033988
I0226 09:30:31.287899 11774 layer_factory.hpp:77] Creating layer conv0_5/x1/bn
I0226 09:30:31.287907 11774 net.cpp:84] Creating Layer conv0_5/x1/bn
I0226 09:30:31.287911 11774 net.cpp:406] conv0_5/x1/bn <- concat0_4_concat0_4_0_split_0
I0226 09:30:31.287917 11774 net.cpp:380] conv0_5/x1/bn -> conv0_5/x1/bn
I0226 09:30:31.288180 11774 net.cpp:122] Setting up conv0_5/x1/bn
I0226 09:30:31.288187 11774 net.cpp:129] Top shape: 1 224 37 50 (414400)
I0226 09:30:31.288190 11774 net.cpp:137] Memory required for data: 62691588
I0226 09:30:31.288198 11774 layer_factory.hpp:77] Creating layer conv0_5/x1/scale
I0226 09:30:31.288208 11774 net.cpp:84] Creating Layer conv0_5/x1/scale
I0226 09:30:31.288211 11774 net.cpp:406] conv0_5/x1/scale <- conv0_5/x1/bn
I0226 09:30:31.288218 11774 net.cpp:367] conv0_5/x1/scale -> conv0_5/x1/bn (in-place)
I0226 09:30:31.288264 11774 layer_factory.hpp:77] Creating layer conv0_5/x1/scale
I0226 09:30:31.288414 11774 net.cpp:122] Setting up conv0_5/x1/scale
I0226 09:30:31.288427 11774 net.cpp:129] Top shape: 1 224 37 50 (414400)
I0226 09:30:31.288430 11774 net.cpp:137] Memory required for data: 64349188
I0226 09:30:31.288437 11774 layer_factory.hpp:77] Creating layer relu0_5/x1
I0226 09:30:31.288444 11774 net.cpp:84] Creating Layer relu0_5/x1
I0226 09:30:31.288449 11774 net.cpp:406] relu0_5/x1 <- conv0_5/x1/bn
I0226 09:30:31.288453 11774 net.cpp:367] relu0_5/x1 -> conv0_5/x1/bn (in-place)
I0226 09:30:31.288709 11774 net.cpp:122] Setting up relu0_5/x1
I0226 09:30:31.288718 11774 net.cpp:129] Top shape: 1 224 37 50 (414400)
I0226 09:30:31.288722 11774 net.cpp:137] Memory required for data: 66006788
I0226 09:30:31.288727 11774 layer_factory.hpp:77] Creating layer conv0_5/x1
I0226 09:30:31.288741 11774 net.cpp:84] Creating Layer conv0_5/x1
I0226 09:30:31.288746 11774 net.cpp:406] conv0_5/x1 <- conv0_5/x1/bn
I0226 09:30:31.288753 11774 net.cpp:380] conv0_5/x1 -> conv0_5/x1
I0226 09:30:31.291548 11774 net.cpp:122] Setting up conv0_5/x1
I0226 09:30:31.291563 11774 net.cpp:129] Top shape: 1 128 37 50 (236800)
I0226 09:30:31.291566 11774 net.cpp:137] Memory required for data: 66953988
I0226 09:30:31.291574 11774 layer_factory.hpp:77] Creating layer conv0_5/x2/bn
I0226 09:30:31.291584 11774 net.cpp:84] Creating Layer conv0_5/x2/bn
I0226 09:30:31.291589 11774 net.cpp:406] conv0_5/x2/bn <- conv0_5/x1
I0226 09:30:31.291597 11774 net.cpp:380] conv0_5/x2/bn -> conv0_5/x2/bn
I0226 09:30:31.291857 11774 net.cpp:122] Setting up conv0_5/x2/bn
I0226 09:30:31.291864 11774 net.cpp:129] Top shape: 1 128 37 50 (236800)
I0226 09:30:31.291868 11774 net.cpp:137] Memory required for data: 67901188
I0226 09:30:31.291877 11774 layer_factory.hpp:77] Creating layer conv0_5/x2/scale
I0226 09:30:31.291884 11774 net.cpp:84] Creating Layer conv0_5/x2/scale
I0226 09:30:31.291888 11774 net.cpp:406] conv0_5/x2/scale <- conv0_5/x2/bn
I0226 09:30:31.291894 11774 net.cpp:367] conv0_5/x2/scale -> conv0_5/x2/bn (in-place)
I0226 09:30:31.291944 11774 layer_factory.hpp:77] Creating layer conv0_5/x2/scale
I0226 09:30:31.292085 11774 net.cpp:122] Setting up conv0_5/x2/scale
I0226 09:30:31.292094 11774 net.cpp:129] Top shape: 1 128 37 50 (236800)
I0226 09:30:31.292098 11774 net.cpp:137] Memory required for data: 68848388
I0226 09:30:31.292104 11774 layer_factory.hpp:77] Creating layer relu0_5/x2
I0226 09:30:31.292115 11774 net.cpp:84] Creating Layer relu0_5/x2
I0226 09:30:31.292119 11774 net.cpp:406] relu0_5/x2 <- conv0_5/x2/bn
I0226 09:30:31.292125 11774 net.cpp:367] relu0_5/x2 -> conv0_5/x2/bn (in-place)
I0226 09:30:31.292368 11774 net.cpp:122] Setting up relu0_5/x2
I0226 09:30:31.292377 11774 net.cpp:129] Top shape: 1 128 37 50 (236800)
I0226 09:30:31.292381 11774 net.cpp:137] Memory required for data: 69795588
I0226 09:30:31.292385 11774 layer_factory.hpp:77] Creating layer conv0_5/x2
I0226 09:30:31.292398 11774 net.cpp:84] Creating Layer conv0_5/x2
I0226 09:30:31.292402 11774 net.cpp:406] conv0_5/x2 <- conv0_5/x2/bn
I0226 09:30:31.292412 11774 net.cpp:380] conv0_5/x2 -> conv0_5/x2
I0226 09:30:31.295503 11774 net.cpp:122] Setting up conv0_5/x2
I0226 09:30:31.295521 11774 net.cpp:129] Top shape: 1 32 37 50 (59200)
I0226 09:30:31.295524 11774 net.cpp:137] Memory required for data: 70032388
I0226 09:30:31.295531 11774 layer_factory.hpp:77] Creating layer concat0_5
I0226 09:30:31.295539 11774 net.cpp:84] Creating Layer concat0_5
I0226 09:30:31.295544 11774 net.cpp:406] concat0_5 <- concat0_4_concat0_4_0_split_1
I0226 09:30:31.295550 11774 net.cpp:406] concat0_5 <- conv0_5/x2
I0226 09:30:31.295557 11774 net.cpp:380] concat0_5 -> concat0_5
I0226 09:30:31.295591 11774 net.cpp:122] Setting up concat0_5
I0226 09:30:31.295598 11774 net.cpp:129] Top shape: 1 256 37 50 (473600)
I0226 09:30:31.295601 11774 net.cpp:137] Memory required for data: 71926788
I0226 09:30:31.295604 11774 layer_factory.hpp:77] Creating layer BatchNorm1
I0226 09:30:31.295614 11774 net.cpp:84] Creating Layer BatchNorm1
I0226 09:30:31.295617 11774 net.cpp:406] BatchNorm1 <- concat0_5
I0226 09:30:31.295622 11774 net.cpp:380] BatchNorm1 -> BatchNorm1
I0226 09:30:31.295882 11774 net.cpp:122] Setting up BatchNorm1
I0226 09:30:31.295891 11774 net.cpp:129] Top shape: 1 256 37 50 (473600)
I0226 09:30:31.295893 11774 net.cpp:137] Memory required for data: 73821188
I0226 09:30:31.295902 11774 layer_factory.hpp:77] Creating layer Scale1
I0226 09:30:31.295909 11774 net.cpp:84] Creating Layer Scale1
I0226 09:30:31.295913 11774 net.cpp:406] Scale1 <- BatchNorm1
I0226 09:30:31.295924 11774 net.cpp:367] Scale1 -> BatchNorm1 (in-place)
I0226 09:30:31.295971 11774 layer_factory.hpp:77] Creating layer Scale1
I0226 09:30:31.296111 11774 net.cpp:122] Setting up Scale1
I0226 09:30:31.296120 11774 net.cpp:129] Top shape: 1 256 37 50 (473600)
I0226 09:30:31.296124 11774 net.cpp:137] Memory required for data: 75715588
I0226 09:30:31.296131 11774 layer_factory.hpp:77] Creating layer ReLU1
I0226 09:30:31.296138 11774 net.cpp:84] Creating Layer ReLU1
I0226 09:30:31.296141 11774 net.cpp:406] ReLU1 <- BatchNorm1
I0226 09:30:31.296146 11774 net.cpp:367] ReLU1 -> BatchNorm1 (in-place)
I0226 09:30:31.297228 11774 net.cpp:122] Setting up ReLU1
I0226 09:30:31.297242 11774 net.cpp:129] Top shape: 1 256 37 50 (473600)
I0226 09:30:31.297246 11774 net.cpp:137] Memory required for data: 77609988
I0226 09:30:31.297250 11774 layer_factory.hpp:77] Creating layer conv0_blk
I0226 09:30:31.297264 11774 net.cpp:84] Creating Layer conv0_blk
I0226 09:30:31.297278 11774 net.cpp:406] conv0_blk <- BatchNorm1
I0226 09:30:31.297286 11774 net.cpp:380] conv0_blk -> conv0_blk
I0226 09:30:31.302666 11774 net.cpp:122] Setting up conv0_blk
I0226 09:30:31.302681 11774 net.cpp:129] Top shape: 1 128 37 50 (236800)
I0226 09:30:31.302686 11774 net.cpp:137] Memory required for data: 78557188
I0226 09:30:31.302692 11774 layer_factory.hpp:77] Creating layer pool0
I0226 09:30:31.302703 11774 net.cpp:84] Creating Layer pool0
I0226 09:30:31.302708 11774 net.cpp:406] pool0 <- conv0_blk
I0226 09:30:31.302716 11774 net.cpp:380] pool0 -> pool0
I0226 09:30:31.302992 11774 net.cpp:122] Setting up pool0
I0226 09:30:31.303001 11774 net.cpp:129] Top shape: 1 128 19 25 (60800)
I0226 09:30:31.303005 11774 net.cpp:137] Memory required for data: 78800388
I0226 09:30:31.303009 11774 layer_factory.hpp:77] Creating layer pool0_pool0_0_split
I0226 09:30:31.303015 11774 net.cpp:84] Creating Layer pool0_pool0_0_split
I0226 09:30:31.303020 11774 net.cpp:406] pool0_pool0_0_split <- pool0
I0226 09:30:31.303027 11774 net.cpp:380] pool0_pool0_0_split -> pool0_pool0_0_split_0
I0226 09:30:31.303035 11774 net.cpp:380] pool0_pool0_0_split -> pool0_pool0_0_split_1
I0226 09:30:31.303081 11774 net.cpp:122] Setting up pool0_pool0_0_split
I0226 09:30:31.303088 11774 net.cpp:129] Top shape: 1 128 19 25 (60800)
I0226 09:30:31.303093 11774 net.cpp:129] Top shape: 1 128 19 25 (60800)
I0226 09:30:31.303097 11774 net.cpp:137] Memory required for data: 79286788
I0226 09:30:31.303099 11774 layer_factory.hpp:77] Creating layer conv1_0/x1/bn
I0226 09:30:31.303107 11774 net.cpp:84] Creating Layer conv1_0/x1/bn
I0226 09:30:31.303110 11774 net.cpp:406] conv1_0/x1/bn <- pool0_pool0_0_split_0
I0226 09:30:31.303120 11774 net.cpp:380] conv1_0/x1/bn -> conv1_0/x1/bn
I0226 09:30:31.303382 11774 net.cpp:122] Setting up conv1_0/x1/bn
I0226 09:30:31.303390 11774 net.cpp:129] Top shape: 1 128 19 25 (60800)
I0226 09:30:31.303392 11774 net.cpp:137] Memory required for data: 79529988
I0226 09:30:31.303401 11774 layer_factory.hpp:77] Creating layer conv1_0/x1/scale
I0226 09:30:31.303411 11774 net.cpp:84] Creating Layer conv1_0/x1/scale
I0226 09:30:31.303416 11774 net.cpp:406] conv1_0/x1/scale <- conv1_0/x1/bn
I0226 09:30:31.303421 11774 net.cpp:367] conv1_0/x1/scale -> conv1_0/x1/bn (in-place)
I0226 09:30:31.303467 11774 layer_factory.hpp:77] Creating layer conv1_0/x1/scale
I0226 09:30:31.303609 11774 net.cpp:122] Setting up conv1_0/x1/scale
I0226 09:30:31.303617 11774 net.cpp:129] Top shape: 1 128 19 25 (60800)
I0226 09:30:31.303619 11774 net.cpp:137] Memory required for data: 79773188
I0226 09:30:31.303627 11774 layer_factory.hpp:77] Creating layer relu1_0/x1
I0226 09:30:31.303632 11774 net.cpp:84] Creating Layer relu1_0/x1
I0226 09:30:31.303640 11774 net.cpp:406] relu1_0/x1 <- conv1_0/x1/bn
I0226 09:30:31.303645 11774 net.cpp:367] relu1_0/x1 -> conv1_0/x1/bn (in-place)
I0226 09:30:31.303879 11774 net.cpp:122] Setting up relu1_0/x1
I0226 09:30:31.303889 11774 net.cpp:129] Top shape: 1 128 19 25 (60800)
I0226 09:30:31.303891 11774 net.cpp:137] Memory required for data: 80016388
I0226 09:30:31.303895 11774 layer_factory.hpp:77] Creating layer conv1_0/x1
I0226 09:30:31.303907 11774 net.cpp:84] Creating Layer conv1_0/x1
I0226 09:30:31.303912 11774 net.cpp:406] conv1_0/x1 <- conv1_0/x1/bn
I0226 09:30:31.303920 11774 net.cpp:380] conv1_0/x1 -> conv1_0/x1
I0226 09:30:31.307169 11774 net.cpp:122] Setting up conv1_0/x1
I0226 09:30:31.307184 11774 net.cpp:129] Top shape: 1 128 19 25 (60800)
I0226 09:30:31.307188 11774 net.cpp:137] Memory required for data: 80259588
I0226 09:30:31.307195 11774 layer_factory.hpp:77] Creating layer conv1_0/x2/bn
I0226 09:30:31.307206 11774 net.cpp:84] Creating Layer conv1_0/x2/bn
I0226 09:30:31.307211 11774 net.cpp:406] conv1_0/x2/bn <- conv1_0/x1
I0226 09:30:31.307219 11774 net.cpp:380] conv1_0/x2/bn -> conv1_0/x2/bn
I0226 09:30:31.307487 11774 net.cpp:122] Setting up conv1_0/x2/bn
I0226 09:30:31.307495 11774 net.cpp:129] Top shape: 1 128 19 25 (60800)
I0226 09:30:31.307498 11774 net.cpp:137] Memory required for data: 80502788
I0226 09:30:31.307507 11774 layer_factory.hpp:77] Creating layer conv1_0/x2/scale
I0226 09:30:31.307515 11774 net.cpp:84] Creating Layer conv1_0/x2/scale
I0226 09:30:31.307519 11774 net.cpp:406] conv1_0/x2/scale <- conv1_0/x2/bn
I0226 09:30:31.307525 11774 net.cpp:367] conv1_0/x2/scale -> conv1_0/x2/bn (in-place)
I0226 09:30:31.307574 11774 layer_factory.hpp:77] Creating layer conv1_0/x2/scale
I0226 09:30:31.307714 11774 net.cpp:122] Setting up conv1_0/x2/scale
I0226 09:30:31.307721 11774 net.cpp:129] Top shape: 1 128 19 25 (60800)
I0226 09:30:31.307725 11774 net.cpp:137] Memory required for data: 80745988
I0226 09:30:31.307731 11774 layer_factory.hpp:77] Creating layer relu1_0/x2
I0226 09:30:31.307740 11774 net.cpp:84] Creating Layer relu1_0/x2
I0226 09:30:31.307744 11774 net.cpp:406] relu1_0/x2 <- conv1_0/x2/bn
I0226 09:30:31.307749 11774 net.cpp:367] relu1_0/x2 -> conv1_0/x2/bn (in-place)
I0226 09:30:31.308831 11774 net.cpp:122] Setting up relu1_0/x2
I0226 09:30:31.308846 11774 net.cpp:129] Top shape: 1 128 19 25 (60800)
I0226 09:30:31.308850 11774 net.cpp:137] Memory required for data: 80989188
I0226 09:30:31.308854 11774 layer_factory.hpp:77] Creating layer conv1_0/x2
I0226 09:30:31.308867 11774 net.cpp:84] Creating Layer conv1_0/x2
I0226 09:30:31.308872 11774 net.cpp:406] conv1_0/x2 <- conv1_0/x2/bn
I0226 09:30:31.308879 11774 net.cpp:380] conv1_0/x2 -> conv1_0/x2
I0226 09:30:31.312772 11774 net.cpp:122] Setting up conv1_0/x2
I0226 09:30:31.312786 11774 net.cpp:129] Top shape: 1 32 19 25 (15200)
I0226 09:30:31.312790 11774 net.cpp:137] Memory required for data: 81049988
I0226 09:30:31.312798 11774 layer_factory.hpp:77] Creating layer concat1_0
I0226 09:30:31.312805 11774 net.cpp:84] Creating Layer concat1_0
I0226 09:30:31.312810 11774 net.cpp:406] concat1_0 <- pool0_pool0_0_split_1
I0226 09:30:31.312816 11774 net.cpp:406] concat1_0 <- conv1_0/x2
I0226 09:30:31.312825 11774 net.cpp:380] concat1_0 -> concat1_0
I0226 09:30:31.312866 11774 net.cpp:122] Setting up concat1_0
I0226 09:30:31.312872 11774 net.cpp:129] Top shape: 1 160 19 25 (76000)
I0226 09:30:31.312875 11774 net.cpp:137] Memory required for data: 81353988
I0226 09:30:31.312880 11774 layer_factory.hpp:77] Creating layer concat1_0_concat1_0_0_split
I0226 09:30:31.312885 11774 net.cpp:84] Creating Layer concat1_0_concat1_0_0_split
I0226 09:30:31.312889 11774 net.cpp:406] concat1_0_concat1_0_0_split <- concat1_0
I0226 09:30:31.312896 11774 net.cpp:380] concat1_0_concat1_0_0_split -> concat1_0_concat1_0_0_split_0
I0226 09:30:31.312904 11774 net.cpp:380] concat1_0_concat1_0_0_split -> concat1_0_concat1_0_0_split_1
I0226 09:30:31.312950 11774 net.cpp:122] Setting up concat1_0_concat1_0_0_split
I0226 09:30:31.312960 11774 net.cpp:129] Top shape: 1 160 19 25 (76000)
I0226 09:30:31.312965 11774 net.cpp:129] Top shape: 1 160 19 25 (76000)
I0226 09:30:31.312968 11774 net.cpp:137] Memory required for data: 81961988
I0226 09:30:31.312973 11774 layer_factory.hpp:77] Creating layer conv1_1/x1/bn
I0226 09:30:31.312981 11774 net.cpp:84] Creating Layer conv1_1/x1/bn
I0226 09:30:31.312985 11774 net.cpp:406] conv1_1/x1/bn <- concat1_0_concat1_0_0_split_0
I0226 09:30:31.312994 11774 net.cpp:380] conv1_1/x1/bn -> conv1_1/x1/bn
I0226 09:30:31.313261 11774 net.cpp:122] Setting up conv1_1/x1/bn
I0226 09:30:31.313267 11774 net.cpp:129] Top shape: 1 160 19 25 (76000)
I0226 09:30:31.313271 11774 net.cpp:137] Memory required for data: 82265988
I0226 09:30:31.313278 11774 layer_factory.hpp:77] Creating layer conv1_1/x1/scale
I0226 09:30:31.313287 11774 net.cpp:84] Creating Layer conv1_1/x1/scale
I0226 09:30:31.313290 11774 net.cpp:406] conv1_1/x1/scale <- conv1_1/x1/bn
I0226 09:30:31.313297 11774 net.cpp:367] conv1_1/x1/scale -> conv1_1/x1/bn (in-place)
I0226 09:30:31.313347 11774 layer_factory.hpp:77] Creating layer conv1_1/x1/scale
I0226 09:30:31.313503 11774 net.cpp:122] Setting up conv1_1/x1/scale
I0226 09:30:31.313511 11774 net.cpp:129] Top shape: 1 160 19 25 (76000)
I0226 09:30:31.313514 11774 net.cpp:137] Memory required for data: 82569988
I0226 09:30:31.313521 11774 layer_factory.hpp:77] Creating layer relu1_1/x1
I0226 09:30:31.313527 11774 net.cpp:84] Creating Layer relu1_1/x1
I0226 09:30:31.313531 11774 net.cpp:406] relu1_1/x1 <- conv1_1/x1/bn
I0226 09:30:31.313536 11774 net.cpp:367] relu1_1/x1 -> conv1_1/x1/bn (in-place)
I0226 09:30:31.313783 11774 net.cpp:122] Setting up relu1_1/x1
I0226 09:30:31.313792 11774 net.cpp:129] Top shape: 1 160 19 25 (76000)
I0226 09:30:31.313796 11774 net.cpp:137] Memory required for data: 82873988
I0226 09:30:31.313799 11774 layer_factory.hpp:77] Creating layer conv1_1/x1
I0226 09:30:31.313812 11774 net.cpp:84] Creating Layer conv1_1/x1
I0226 09:30:31.313817 11774 net.cpp:406] conv1_1/x1 <- conv1_1/x1/bn
I0226 09:30:31.313825 11774 net.cpp:380] conv1_1/x1 -> conv1_1/x1
I0226 09:30:31.316339 11774 net.cpp:122] Setting up conv1_1/x1
I0226 09:30:31.316355 11774 net.cpp:129] Top shape: 1 128 19 25 (60800)
I0226 09:30:31.316359 11774 net.cpp:137] Memory required for data: 83117188
I0226 09:30:31.316366 11774 layer_factory.hpp:77] Creating layer conv1_1/x2/bn
I0226 09:30:31.316375 11774 net.cpp:84] Creating Layer conv1_1/x2/bn
I0226 09:30:31.316380 11774 net.cpp:406] conv1_1/x2/bn <- conv1_1/x1
I0226 09:30:31.316388 11774 net.cpp:380] conv1_1/x2/bn -> conv1_1/x2/bn
I0226 09:30:31.316664 11774 net.cpp:122] Setting up conv1_1/x2/bn
I0226 09:30:31.316673 11774 net.cpp:129] Top shape: 1 128 19 25 (60800)
I0226 09:30:31.316675 11774 net.cpp:137] Memory required for data: 83360388
I0226 09:30:31.316684 11774 layer_factory.hpp:77] Creating layer conv1_1/x2/scale
I0226 09:30:31.316694 11774 net.cpp:84] Creating Layer conv1_1/x2/scale
I0226 09:30:31.316699 11774 net.cpp:406] conv1_1/x2/scale <- conv1_1/x2/bn
I0226 09:30:31.316704 11774 net.cpp:367] conv1_1/x2/scale -> conv1_1/x2/bn (in-place)
I0226 09:30:31.316752 11774 layer_factory.hpp:77] Creating layer conv1_1/x2/scale
I0226 09:30:31.316896 11774 net.cpp:122] Setting up conv1_1/x2/scale
I0226 09:30:31.316903 11774 net.cpp:129] Top shape: 1 128 19 25 (60800)
I0226 09:30:31.316907 11774 net.cpp:137] Memory required for data: 83603588
I0226 09:30:31.316913 11774 layer_factory.hpp:77] Creating layer relu1_1/x2
I0226 09:30:31.316920 11774 net.cpp:84] Creating Layer relu1_1/x2
I0226 09:30:31.316925 11774 net.cpp:406] relu1_1/x2 <- conv1_1/x2/bn
I0226 09:30:31.316931 11774 net.cpp:367] relu1_1/x2 -> conv1_1/x2/bn (in-place)
I0226 09:30:31.317171 11774 net.cpp:122] Setting up relu1_1/x2
I0226 09:30:31.317180 11774 net.cpp:129] Top shape: 1 128 19 25 (60800)
I0226 09:30:31.317184 11774 net.cpp:137] Memory required for data: 83846788
I0226 09:30:31.317188 11774 layer_factory.hpp:77] Creating layer conv1_1/x2
I0226 09:30:31.317203 11774 net.cpp:84] Creating Layer conv1_1/x2
I0226 09:30:31.317210 11774 net.cpp:406] conv1_1/x2 <- conv1_1/x2/bn
I0226 09:30:31.317217 11774 net.cpp:380] conv1_1/x2 -> conv1_1/x2
I0226 09:30:31.320240 11774 net.cpp:122] Setting up conv1_1/x2
I0226 09:30:31.320256 11774 net.cpp:129] Top shape: 1 32 19 25 (15200)
I0226 09:30:31.320261 11774 net.cpp:137] Memory required for data: 83907588
I0226 09:30:31.320267 11774 layer_factory.hpp:77] Creating layer concat1_1
I0226 09:30:31.320276 11774 net.cpp:84] Creating Layer concat1_1
I0226 09:30:31.320281 11774 net.cpp:406] concat1_1 <- concat1_0_concat1_0_0_split_1
I0226 09:30:31.320286 11774 net.cpp:406] concat1_1 <- conv1_1/x2
I0226 09:30:31.320293 11774 net.cpp:380] concat1_1 -> concat1_1
I0226 09:30:31.320329 11774 net.cpp:122] Setting up concat1_1
I0226 09:30:31.320336 11774 net.cpp:129] Top shape: 1 192 19 25 (91200)
I0226 09:30:31.320339 11774 net.cpp:137] Memory required for data: 84272388
I0226 09:30:31.320343 11774 layer_factory.hpp:77] Creating layer concat1_1_concat1_1_0_split
I0226 09:30:31.320349 11774 net.cpp:84] Creating Layer concat1_1_concat1_1_0_split
I0226 09:30:31.320353 11774 net.cpp:406] concat1_1_concat1_1_0_split <- concat1_1
I0226 09:30:31.320358 11774 net.cpp:380] concat1_1_concat1_1_0_split -> concat1_1_concat1_1_0_split_0
I0226 09:30:31.320365 11774 net.cpp:380] concat1_1_concat1_1_0_split -> concat1_1_concat1_1_0_split_1
I0226 09:30:31.320410 11774 net.cpp:122] Setting up concat1_1_concat1_1_0_split
I0226 09:30:31.320416 11774 net.cpp:129] Top shape: 1 192 19 25 (91200)
I0226 09:30:31.320421 11774 net.cpp:129] Top shape: 1 192 19 25 (91200)
I0226 09:30:31.320425 11774 net.cpp:137] Memory required for data: 85001988
I0226 09:30:31.320428 11774 layer_factory.hpp:77] Creating layer conv1_2/x1/bn
I0226 09:30:31.320436 11774 net.cpp:84] Creating Layer conv1_2/x1/bn
I0226 09:30:31.320441 11774 net.cpp:406] conv1_2/x1/bn <- concat1_1_concat1_1_0_split_0
I0226 09:30:31.320449 11774 net.cpp:380] conv1_2/x1/bn -> conv1_2/x1/bn
I0226 09:30:31.320716 11774 net.cpp:122] Setting up conv1_2/x1/bn
I0226 09:30:31.320724 11774 net.cpp:129] Top shape: 1 192 19 25 (91200)
I0226 09:30:31.320726 11774 net.cpp:137] Memory required for data: 85366788
I0226 09:30:31.320735 11774 layer_factory.hpp:77] Creating layer conv1_2/x1/scale
I0226 09:30:31.320744 11774 net.cpp:84] Creating Layer conv1_2/x1/scale
I0226 09:30:31.320747 11774 net.cpp:406] conv1_2/x1/scale <- conv1_2/x1/bn
I0226 09:30:31.320753 11774 net.cpp:367] conv1_2/x1/scale -> conv1_2/x1/bn (in-place)
I0226 09:30:31.320801 11774 layer_factory.hpp:77] Creating layer conv1_2/x1/scale
I0226 09:30:31.320960 11774 net.cpp:122] Setting up conv1_2/x1/scale
I0226 09:30:31.320966 11774 net.cpp:129] Top shape: 1 192 19 25 (91200)
I0226 09:30:31.320969 11774 net.cpp:137] Memory required for data: 85731588
I0226 09:30:31.320976 11774 layer_factory.hpp:77] Creating layer relu1_2/x1
I0226 09:30:31.320983 11774 net.cpp:84] Creating Layer relu1_2/x1
I0226 09:30:31.320987 11774 net.cpp:406] relu1_2/x1 <- conv1_2/x1/bn
I0226 09:30:31.320992 11774 net.cpp:367] relu1_2/x1 -> conv1_2/x1/bn (in-place)
I0226 09:30:31.321231 11774 net.cpp:122] Setting up relu1_2/x1
I0226 09:30:31.321240 11774 net.cpp:129] Top shape: 1 192 19 25 (91200)
I0226 09:30:31.321244 11774 net.cpp:137] Memory required for data: 86096388
I0226 09:30:31.321247 11774 layer_factory.hpp:77] Creating layer conv1_2/x1
I0226 09:30:31.321260 11774 net.cpp:84] Creating Layer conv1_2/x1
I0226 09:30:31.321265 11774 net.cpp:406] conv1_2/x1 <- conv1_2/x1/bn
I0226 09:30:31.321274 11774 net.cpp:380] conv1_2/x1 -> conv1_2/x1
I0226 09:30:31.323714 11774 net.cpp:122] Setting up conv1_2/x1
I0226 09:30:31.323727 11774 net.cpp:129] Top shape: 1 128 19 25 (60800)
I0226 09:30:31.323731 11774 net.cpp:137] Memory required for data: 86339588
I0226 09:30:31.323737 11774 layer_factory.hpp:77] Creating layer conv1_2/x2/bn
I0226 09:30:31.323747 11774 net.cpp:84] Creating Layer conv1_2/x2/bn
I0226 09:30:31.323751 11774 net.cpp:406] conv1_2/x2/bn <- conv1_2/x1
I0226 09:30:31.323757 11774 net.cpp:380] conv1_2/x2/bn -> conv1_2/x2/bn
I0226 09:30:31.324002 11774 net.cpp:122] Setting up conv1_2/x2/bn
I0226 09:30:31.324009 11774 net.cpp:129] Top shape: 1 128 19 25 (60800)
I0226 09:30:31.324012 11774 net.cpp:137] Memory required for data: 86582788
I0226 09:30:31.324019 11774 layer_factory.hpp:77] Creating layer conv1_2/x2/scale
I0226 09:30:31.324028 11774 net.cpp:84] Creating Layer conv1_2/x2/scale
I0226 09:30:31.324031 11774 net.cpp:406] conv1_2/x2/scale <- conv1_2/x2/bn
I0226 09:30:31.324038 11774 net.cpp:367] conv1_2/x2/scale -> conv1_2/x2/bn (in-place)
I0226 09:30:31.324081 11774 layer_factory.hpp:77] Creating layer conv1_2/x2/scale
I0226 09:30:31.324210 11774 net.cpp:122] Setting up conv1_2/x2/scale
I0226 09:30:31.324218 11774 net.cpp:129] Top shape: 1 128 19 25 (60800)
I0226 09:30:31.324219 11774 net.cpp:137] Memory required for data: 86825988
I0226 09:30:31.324225 11774 layer_factory.hpp:77] Creating layer relu1_2/x2
I0226 09:30:31.324231 11774 net.cpp:84] Creating Layer relu1_2/x2
I0226 09:30:31.324235 11774 net.cpp:406] relu1_2/x2 <- conv1_2/x2/bn
I0226 09:30:31.324239 11774 net.cpp:367] relu1_2/x2 -> conv1_2/x2/bn (in-place)
I0226 09:30:31.325212 11774 net.cpp:122] Setting up relu1_2/x2
I0226 09:30:31.325224 11774 net.cpp:129] Top shape: 1 128 19 25 (60800)
I0226 09:30:31.325228 11774 net.cpp:137] Memory required for data: 87069188
I0226 09:30:31.325232 11774 layer_factory.hpp:77] Creating layer conv1_2/x2
I0226 09:30:31.325243 11774 net.cpp:84] Creating Layer conv1_2/x2
I0226 09:30:31.325248 11774 net.cpp:406] conv1_2/x2 <- conv1_2/x2/bn
I0226 09:30:31.325256 11774 net.cpp:380] conv1_2/x2 -> conv1_2/x2
I0226 09:30:31.328743 11774 net.cpp:122] Setting up conv1_2/x2
I0226 09:30:31.328758 11774 net.cpp:129] Top shape: 1 32 19 25 (15200)
I0226 09:30:31.328761 11774 net.cpp:137] Memory required for data: 87129988
I0226 09:30:31.328768 11774 layer_factory.hpp:77] Creating layer concat1_2
I0226 09:30:31.328775 11774 net.cpp:84] Creating Layer concat1_2
I0226 09:30:31.328779 11774 net.cpp:406] concat1_2 <- concat1_1_concat1_1_0_split_1
I0226 09:30:31.328786 11774 net.cpp:406] concat1_2 <- conv1_2/x2
I0226 09:30:31.328793 11774 net.cpp:380] concat1_2 -> concat1_2
I0226 09:30:31.328827 11774 net.cpp:122] Setting up concat1_2
I0226 09:30:31.328833 11774 net.cpp:129] Top shape: 1 224 19 25 (106400)
I0226 09:30:31.328836 11774 net.cpp:137] Memory required for data: 87555588
I0226 09:30:31.328840 11774 layer_factory.hpp:77] Creating layer concat1_2_concat1_2_0_split
I0226 09:30:31.328847 11774 net.cpp:84] Creating Layer concat1_2_concat1_2_0_split
I0226 09:30:31.328850 11774 net.cpp:406] concat1_2_concat1_2_0_split <- concat1_2
I0226 09:30:31.328855 11774 net.cpp:380] concat1_2_concat1_2_0_split -> concat1_2_concat1_2_0_split_0
I0226 09:30:31.328863 11774 net.cpp:380] concat1_2_concat1_2_0_split -> concat1_2_concat1_2_0_split_1
I0226 09:30:31.328903 11774 net.cpp:122] Setting up concat1_2_concat1_2_0_split
I0226 09:30:31.328909 11774 net.cpp:129] Top shape: 1 224 19 25 (106400)
I0226 09:30:31.328913 11774 net.cpp:129] Top shape: 1 224 19 25 (106400)
I0226 09:30:31.328917 11774 net.cpp:137] Memory required for data: 88406788
I0226 09:30:31.328919 11774 layer_factory.hpp:77] Creating layer conv1_3/x1/bn
I0226 09:30:31.328927 11774 net.cpp:84] Creating Layer conv1_3/x1/bn
I0226 09:30:31.328930 11774 net.cpp:406] conv1_3/x1/bn <- concat1_2_concat1_2_0_split_0
I0226 09:30:31.328935 11774 net.cpp:380] conv1_3/x1/bn -> conv1_3/x1/bn
I0226 09:30:31.329174 11774 net.cpp:122] Setting up conv1_3/x1/bn
I0226 09:30:31.329180 11774 net.cpp:129] Top shape: 1 224 19 25 (106400)
I0226 09:30:31.329183 11774 net.cpp:137] Memory required for data: 88832388
I0226 09:30:31.329190 11774 layer_factory.hpp:77] Creating layer conv1_3/x1/scale
I0226 09:30:31.329200 11774 net.cpp:84] Creating Layer conv1_3/x1/scale
I0226 09:30:31.329203 11774 net.cpp:406] conv1_3/x1/scale <- conv1_3/x1/bn
I0226 09:30:31.329210 11774 net.cpp:367] conv1_3/x1/scale -> conv1_3/x1/bn (in-place)
I0226 09:30:31.329252 11774 layer_factory.hpp:77] Creating layer conv1_3/x1/scale
I0226 09:30:31.329394 11774 net.cpp:122] Setting up conv1_3/x1/scale
I0226 09:30:31.329406 11774 net.cpp:129] Top shape: 1 224 19 25 (106400)
I0226 09:30:31.329408 11774 net.cpp:137] Memory required for data: 89257988
I0226 09:30:31.329416 11774 layer_factory.hpp:77] Creating layer relu1_3/x1
I0226 09:30:31.329423 11774 net.cpp:84] Creating Layer relu1_3/x1
I0226 09:30:31.329427 11774 net.cpp:406] relu1_3/x1 <- conv1_3/x1/bn
I0226 09:30:31.329432 11774 net.cpp:367] relu1_3/x1 -> conv1_3/x1/bn (in-place)
I0226 09:30:31.329649 11774 net.cpp:122] Setting up relu1_3/x1
I0226 09:30:31.329658 11774 net.cpp:129] Top shape: 1 224 19 25 (106400)
I0226 09:30:31.329660 11774 net.cpp:137] Memory required for data: 89683588
I0226 09:30:31.329665 11774 layer_factory.hpp:77] Creating layer conv1_3/x1
I0226 09:30:31.329676 11774 net.cpp:84] Creating Layer conv1_3/x1
I0226 09:30:31.329680 11774 net.cpp:406] conv1_3/x1 <- conv1_3/x1/bn
I0226 09:30:31.329689 11774 net.cpp:380] conv1_3/x1 -> conv1_3/x1
I0226 09:30:31.332168 11774 net.cpp:122] Setting up conv1_3/x1
I0226 09:30:31.332181 11774 net.cpp:129] Top shape: 1 128 19 25 (60800)
I0226 09:30:31.332185 11774 net.cpp:137] Memory required for data: 89926788
I0226 09:30:31.332191 11774 layer_factory.hpp:77] Creating layer conv1_3/x2/bn
I0226 09:30:31.332201 11774 net.cpp:84] Creating Layer conv1_3/x2/bn
I0226 09:30:31.332206 11774 net.cpp:406] conv1_3/x2/bn <- conv1_3/x1
I0226 09:30:31.332213 11774 net.cpp:380] conv1_3/x2/bn -> conv1_3/x2/bn
I0226 09:30:31.332448 11774 net.cpp:122] Setting up conv1_3/x2/bn
I0226 09:30:31.332455 11774 net.cpp:129] Top shape: 1 128 19 25 (60800)
I0226 09:30:31.332458 11774 net.cpp:137] Memory required for data: 90169988
I0226 09:30:31.332475 11774 layer_factory.hpp:77] Creating layer conv1_3/x2/scale
I0226 09:30:31.332485 11774 net.cpp:84] Creating Layer conv1_3/x2/scale
I0226 09:30:31.332489 11774 net.cpp:406] conv1_3/x2/scale <- conv1_3/x2/bn
I0226 09:30:31.332494 11774 net.cpp:367] conv1_3/x2/scale -> conv1_3/x2/bn (in-place)
I0226 09:30:31.332537 11774 layer_factory.hpp:77] Creating layer conv1_3/x2/scale
I0226 09:30:31.332674 11774 net.cpp:122] Setting up conv1_3/x2/scale
I0226 09:30:31.332680 11774 net.cpp:129] Top shape: 1 128 19 25 (60800)
I0226 09:30:31.332684 11774 net.cpp:137] Memory required for data: 90413188
I0226 09:30:31.332690 11774 layer_factory.hpp:77] Creating layer relu1_3/x2
I0226 09:30:31.332696 11774 net.cpp:84] Creating Layer relu1_3/x2
I0226 09:30:31.332700 11774 net.cpp:406] relu1_3/x2 <- conv1_3/x2/bn
I0226 09:30:31.332706 11774 net.cpp:367] relu1_3/x2 -> conv1_3/x2/bn (in-place)
I0226 09:30:31.332921 11774 net.cpp:122] Setting up relu1_3/x2
I0226 09:30:31.332931 11774 net.cpp:129] Top shape: 1 128 19 25 (60800)
I0226 09:30:31.332933 11774 net.cpp:137] Memory required for data: 90656388
I0226 09:30:31.332937 11774 layer_factory.hpp:77] Creating layer conv1_3/x2
I0226 09:30:31.332948 11774 net.cpp:84] Creating Layer conv1_3/x2
I0226 09:30:31.332952 11774 net.cpp:406] conv1_3/x2 <- conv1_3/x2/bn
I0226 09:30:31.332960 11774 net.cpp:380] conv1_3/x2 -> conv1_3/x2
I0226 09:30:31.335656 11774 net.cpp:122] Setting up conv1_3/x2
I0226 09:30:31.335670 11774 net.cpp:129] Top shape: 1 32 19 25 (15200)
I0226 09:30:31.335674 11774 net.cpp:137] Memory required for data: 90717188
I0226 09:30:31.335680 11774 layer_factory.hpp:77] Creating layer concat1_3
I0226 09:30:31.335688 11774 net.cpp:84] Creating Layer concat1_3
I0226 09:30:31.335693 11774 net.cpp:406] concat1_3 <- concat1_2_concat1_2_0_split_1
I0226 09:30:31.335698 11774 net.cpp:406] concat1_3 <- conv1_3/x2
I0226 09:30:31.335703 11774 net.cpp:380] concat1_3 -> concat1_3
I0226 09:30:31.335736 11774 net.cpp:122] Setting up concat1_3
I0226 09:30:31.335742 11774 net.cpp:129] Top shape: 1 256 19 25 (121600)
I0226 09:30:31.335746 11774 net.cpp:137] Memory required for data: 91203588
I0226 09:30:31.335749 11774 layer_factory.hpp:77] Creating layer concat1_3_concat1_3_0_split
I0226 09:30:31.335754 11774 net.cpp:84] Creating Layer concat1_3_concat1_3_0_split
I0226 09:30:31.335757 11774 net.cpp:406] concat1_3_concat1_3_0_split <- concat1_3
I0226 09:30:31.335768 11774 net.cpp:380] concat1_3_concat1_3_0_split -> concat1_3_concat1_3_0_split_0
I0226 09:30:31.335774 11774 net.cpp:380] concat1_3_concat1_3_0_split -> concat1_3_concat1_3_0_split_1
I0226 09:30:31.335814 11774 net.cpp:122] Setting up concat1_3_concat1_3_0_split
I0226 09:30:31.335822 11774 net.cpp:129] Top shape: 1 256 19 25 (121600)
I0226 09:30:31.335826 11774 net.cpp:129] Top shape: 1 256 19 25 (121600)
I0226 09:30:31.335829 11774 net.cpp:137] Memory required for data: 92176388
I0226 09:30:31.335832 11774 layer_factory.hpp:77] Creating layer conv1_4/x1/bn
I0226 09:30:31.335837 11774 net.cpp:84] Creating Layer conv1_4/x1/bn
I0226 09:30:31.335841 11774 net.cpp:406] conv1_4/x1/bn <- concat1_3_concat1_3_0_split_0
I0226 09:30:31.335849 11774 net.cpp:380] conv1_4/x1/bn -> conv1_4/x1/bn
I0226 09:30:31.336074 11774 net.cpp:122] Setting up conv1_4/x1/bn
I0226 09:30:31.336081 11774 net.cpp:129] Top shape: 1 256 19 25 (121600)
I0226 09:30:31.336083 11774 net.cpp:137] Memory required for data: 92662788
I0226 09:30:31.336091 11774 layer_factory.hpp:77] Creating layer conv1_4/x1/scale
I0226 09:30:31.336102 11774 net.cpp:84] Creating Layer conv1_4/x1/scale
I0226 09:30:31.336105 11774 net.cpp:406] conv1_4/x1/scale <- conv1_4/x1/bn
I0226 09:30:31.336110 11774 net.cpp:367] conv1_4/x1/scale -> conv1_4/x1/bn (in-place)
I0226 09:30:31.336153 11774 layer_factory.hpp:77] Creating layer conv1_4/x1/scale
I0226 09:30:31.336283 11774 net.cpp:122] Setting up conv1_4/x1/scale
I0226 09:30:31.336290 11774 net.cpp:129] Top shape: 1 256 19 25 (121600)
I0226 09:30:31.336293 11774 net.cpp:137] Memory required for data: 93149188
I0226 09:30:31.336298 11774 layer_factory.hpp:77] Creating layer relu1_4/x1
I0226 09:30:31.336304 11774 net.cpp:84] Creating Layer relu1_4/x1
I0226 09:30:31.336308 11774 net.cpp:406] relu1_4/x1 <- conv1_4/x1/bn
I0226 09:30:31.336313 11774 net.cpp:367] relu1_4/x1 -> conv1_4/x1/bn (in-place)
I0226 09:30:31.337287 11774 net.cpp:122] Setting up relu1_4/x1
I0226 09:30:31.337299 11774 net.cpp:129] Top shape: 1 256 19 25 (121600)
I0226 09:30:31.337303 11774 net.cpp:137] Memory required for data: 93635588
I0226 09:30:31.337307 11774 layer_factory.hpp:77] Creating layer conv1_4/x1
I0226 09:30:31.337319 11774 net.cpp:84] Creating Layer conv1_4/x1
I0226 09:30:31.337324 11774 net.cpp:406] conv1_4/x1 <- conv1_4/x1/bn
I0226 09:30:31.337332 11774 net.cpp:380] conv1_4/x1 -> conv1_4/x1
I0226 09:30:31.339939 11774 net.cpp:122] Setting up conv1_4/x1
I0226 09:30:31.339953 11774 net.cpp:129] Top shape: 1 128 19 25 (60800)
I0226 09:30:31.339956 11774 net.cpp:137] Memory required for data: 93878788
I0226 09:30:31.339962 11774 layer_factory.hpp:77] Creating layer conv1_4/x2/bn
I0226 09:30:31.339972 11774 net.cpp:84] Creating Layer conv1_4/x2/bn
I0226 09:30:31.339977 11774 net.cpp:406] conv1_4/x2/bn <- conv1_4/x1
I0226 09:30:31.339984 11774 net.cpp:380] conv1_4/x2/bn -> conv1_4/x2/bn
I0226 09:30:31.340229 11774 net.cpp:122] Setting up conv1_4/x2/bn
I0226 09:30:31.340235 11774 net.cpp:129] Top shape: 1 128 19 25 (60800)
I0226 09:30:31.340239 11774 net.cpp:137] Memory required for data: 94121988
I0226 09:30:31.340245 11774 layer_factory.hpp:77] Creating layer conv1_4/x2/scale
I0226 09:30:31.340252 11774 net.cpp:84] Creating Layer conv1_4/x2/scale
I0226 09:30:31.340256 11774 net.cpp:406] conv1_4/x2/scale <- conv1_4/x2/bn
I0226 09:30:31.340261 11774 net.cpp:367] conv1_4/x2/scale -> conv1_4/x2/bn (in-place)
I0226 09:30:31.340307 11774 layer_factory.hpp:77] Creating layer conv1_4/x2/scale
I0226 09:30:31.340435 11774 net.cpp:122] Setting up conv1_4/x2/scale
I0226 09:30:31.340441 11774 net.cpp:129] Top shape: 1 128 19 25 (60800)
I0226 09:30:31.340445 11774 net.cpp:137] Memory required for data: 94365188
I0226 09:30:31.340450 11774 layer_factory.hpp:77] Creating layer relu1_4/x2
I0226 09:30:31.340458 11774 net.cpp:84] Creating Layer relu1_4/x2
I0226 09:30:31.340461 11774 net.cpp:406] relu1_4/x2 <- conv1_4/x2/bn
I0226 09:30:31.340466 11774 net.cpp:367] relu1_4/x2 -> conv1_4/x2/bn (in-place)
I0226 09:30:31.340687 11774 net.cpp:122] Setting up relu1_4/x2
I0226 09:30:31.340699 11774 net.cpp:129] Top shape: 1 128 19 25 (60800)
I0226 09:30:31.340703 11774 net.cpp:137] Memory required for data: 94608388
I0226 09:30:31.340706 11774 layer_factory.hpp:77] Creating layer conv1_4/x2
I0226 09:30:31.340718 11774 net.cpp:84] Creating Layer conv1_4/x2
I0226 09:30:31.340723 11774 net.cpp:406] conv1_4/x2 <- conv1_4/x2/bn
I0226 09:30:31.340730 11774 net.cpp:380] conv1_4/x2 -> conv1_4/x2
I0226 09:30:31.344235 11774 net.cpp:122] Setting up conv1_4/x2
I0226 09:30:31.344249 11774 net.cpp:129] Top shape: 1 32 19 25 (15200)
I0226 09:30:31.344254 11774 net.cpp:137] Memory required for data: 94669188
I0226 09:30:31.344259 11774 layer_factory.hpp:77] Creating layer concat1_4
I0226 09:30:31.344269 11774 net.cpp:84] Creating Layer concat1_4
I0226 09:30:31.344274 11774 net.cpp:406] concat1_4 <- concat1_3_concat1_3_0_split_1
I0226 09:30:31.344278 11774 net.cpp:406] concat1_4 <- conv1_4/x2
I0226 09:30:31.344283 11774 net.cpp:380] concat1_4 -> concat1_4
I0226 09:30:31.344321 11774 net.cpp:122] Setting up concat1_4
I0226 09:30:31.344327 11774 net.cpp:129] Top shape: 1 288 19 25 (136800)
I0226 09:30:31.344331 11774 net.cpp:137] Memory required for data: 95216388
I0226 09:30:31.344333 11774 layer_factory.hpp:77] Creating layer concat1_4_concat1_4_0_split
I0226 09:30:31.344339 11774 net.cpp:84] Creating Layer concat1_4_concat1_4_0_split
I0226 09:30:31.344342 11774 net.cpp:406] concat1_4_concat1_4_0_split <- concat1_4
I0226 09:30:31.344349 11774 net.cpp:380] concat1_4_concat1_4_0_split -> concat1_4_concat1_4_0_split_0
I0226 09:30:31.344355 11774 net.cpp:380] concat1_4_concat1_4_0_split -> concat1_4_concat1_4_0_split_1
I0226 09:30:31.344396 11774 net.cpp:122] Setting up concat1_4_concat1_4_0_split
I0226 09:30:31.344401 11774 net.cpp:129] Top shape: 1 288 19 25 (136800)
I0226 09:30:31.344408 11774 net.cpp:129] Top shape: 1 288 19 25 (136800)
I0226 09:30:31.344410 11774 net.cpp:137] Memory required for data: 96310788
I0226 09:30:31.344413 11774 layer_factory.hpp:77] Creating layer conv1_5/x1/bn
I0226 09:30:31.344419 11774 net.cpp:84] Creating Layer conv1_5/x1/bn
I0226 09:30:31.344422 11774 net.cpp:406] conv1_5/x1/bn <- concat1_4_concat1_4_0_split_0
I0226 09:30:31.344429 11774 net.cpp:380] conv1_5/x1/bn -> conv1_5/x1/bn
I0226 09:30:31.344686 11774 net.cpp:122] Setting up conv1_5/x1/bn
I0226 09:30:31.344694 11774 net.cpp:129] Top shape: 1 288 19 25 (136800)
I0226 09:30:31.344696 11774 net.cpp:137] Memory required for data: 96857988
I0226 09:30:31.344704 11774 layer_factory.hpp:77] Creating layer conv1_5/x1/scale
I0226 09:30:31.344714 11774 net.cpp:84] Creating Layer conv1_5/x1/scale
I0226 09:30:31.344718 11774 net.cpp:406] conv1_5/x1/scale <- conv1_5/x1/bn
I0226 09:30:31.344723 11774 net.cpp:367] conv1_5/x1/scale -> conv1_5/x1/bn (in-place)
I0226 09:30:31.344769 11774 layer_factory.hpp:77] Creating layer conv1_5/x1/scale
I0226 09:30:31.344913 11774 net.cpp:122] Setting up conv1_5/x1/scale
I0226 09:30:31.344920 11774 net.cpp:129] Top shape: 1 288 19 25 (136800)
I0226 09:30:31.344923 11774 net.cpp:137] Memory required for data: 97405188
I0226 09:30:31.344930 11774 layer_factory.hpp:77] Creating layer relu1_5/x1
I0226 09:30:31.344935 11774 net.cpp:84] Creating Layer relu1_5/x1
I0226 09:30:31.344939 11774 net.cpp:406] relu1_5/x1 <- conv1_5/x1/bn
I0226 09:30:31.344946 11774 net.cpp:367] relu1_5/x1 -> conv1_5/x1/bn (in-place)
I0226 09:30:31.345167 11774 net.cpp:122] Setting up relu1_5/x1
I0226 09:30:31.345175 11774 net.cpp:129] Top shape: 1 288 19 25 (136800)
I0226 09:30:31.345178 11774 net.cpp:137] Memory required for data: 97952388
I0226 09:30:31.345182 11774 layer_factory.hpp:77] Creating layer conv1_5/x1
I0226 09:30:31.345193 11774 net.cpp:84] Creating Layer conv1_5/x1
I0226 09:30:31.345197 11774 net.cpp:406] conv1_5/x1 <- conv1_5/x1/bn
I0226 09:30:31.345206 11774 net.cpp:380] conv1_5/x1 -> conv1_5/x1
I0226 09:30:31.347928 11774 net.cpp:122] Setting up conv1_5/x1
I0226 09:30:31.347941 11774 net.cpp:129] Top shape: 1 128 19 25 (60800)
I0226 09:30:31.347945 11774 net.cpp:137] Memory required for data: 98195588
I0226 09:30:31.347956 11774 layer_factory.hpp:77] Creating layer conv1_5/x2/bn
I0226 09:30:31.347966 11774 net.cpp:84] Creating Layer conv1_5/x2/bn
I0226 09:30:31.347972 11774 net.cpp:406] conv1_5/x2/bn <- conv1_5/x1
I0226 09:30:31.347978 11774 net.cpp:380] conv1_5/x2/bn -> conv1_5/x2/bn
I0226 09:30:31.348222 11774 net.cpp:122] Setting up conv1_5/x2/bn
I0226 09:30:31.348229 11774 net.cpp:129] Top shape: 1 128 19 25 (60800)
I0226 09:30:31.348232 11774 net.cpp:137] Memory required for data: 98438788
I0226 09:30:31.348239 11774 layer_factory.hpp:77] Creating layer conv1_5/x2/scale
I0226 09:30:31.348253 11774 net.cpp:84] Creating Layer conv1_5/x2/scale
I0226 09:30:31.348258 11774 net.cpp:406] conv1_5/x2/scale <- conv1_5/x2/bn
I0226 09:30:31.348263 11774 net.cpp:367] conv1_5/x2/scale -> conv1_5/x2/bn (in-place)
I0226 09:30:31.348306 11774 layer_factory.hpp:77] Creating layer conv1_5/x2/scale
I0226 09:30:31.348438 11774 net.cpp:122] Setting up conv1_5/x2/scale
I0226 09:30:31.348444 11774 net.cpp:129] Top shape: 1 128 19 25 (60800)
I0226 09:30:31.348448 11774 net.cpp:137] Memory required for data: 98681988
I0226 09:30:31.348453 11774 layer_factory.hpp:77] Creating layer relu1_5/x2
I0226 09:30:31.348461 11774 net.cpp:84] Creating Layer relu1_5/x2
I0226 09:30:31.348465 11774 net.cpp:406] relu1_5/x2 <- conv1_5/x2/bn
I0226 09:30:31.348469 11774 net.cpp:367] relu1_5/x2 -> conv1_5/x2/bn (in-place)
I0226 09:30:31.349462 11774 net.cpp:122] Setting up relu1_5/x2
I0226 09:30:31.349475 11774 net.cpp:129] Top shape: 1 128 19 25 (60800)
I0226 09:30:31.349479 11774 net.cpp:137] Memory required for data: 98925188
I0226 09:30:31.349483 11774 layer_factory.hpp:77] Creating layer conv1_5/x2
I0226 09:30:31.349496 11774 net.cpp:84] Creating Layer conv1_5/x2
I0226 09:30:31.349501 11774 net.cpp:406] conv1_5/x2 <- conv1_5/x2/bn
I0226 09:30:31.349509 11774 net.cpp:380] conv1_5/x2 -> conv1_5/x2
I0226 09:30:31.352247 11774 net.cpp:122] Setting up conv1_5/x2
I0226 09:30:31.352263 11774 net.cpp:129] Top shape: 1 32 19 25 (15200)
I0226 09:30:31.352267 11774 net.cpp:137] Memory required for data: 98985988
I0226 09:30:31.352273 11774 layer_factory.hpp:77] Creating layer concat1_5
I0226 09:30:31.352280 11774 net.cpp:84] Creating Layer concat1_5
I0226 09:30:31.352285 11774 net.cpp:406] concat1_5 <- concat1_4_concat1_4_0_split_1
I0226 09:30:31.352290 11774 net.cpp:406] concat1_5 <- conv1_5/x2
I0226 09:30:31.352298 11774 net.cpp:380] concat1_5 -> concat1_5
I0226 09:30:31.352329 11774 net.cpp:122] Setting up concat1_5
I0226 09:30:31.352335 11774 net.cpp:129] Top shape: 1 320 19 25 (152000)
I0226 09:30:31.352339 11774 net.cpp:137] Memory required for data: 99593988
I0226 09:30:31.352342 11774 layer_factory.hpp:77] Creating layer concat1_5_concat1_5_0_split
I0226 09:30:31.352349 11774 net.cpp:84] Creating Layer concat1_5_concat1_5_0_split
I0226 09:30:31.352354 11774 net.cpp:406] concat1_5_concat1_5_0_split <- concat1_5
I0226 09:30:31.352358 11774 net.cpp:380] concat1_5_concat1_5_0_split -> concat1_5_concat1_5_0_split_0
I0226 09:30:31.352365 11774 net.cpp:380] concat1_5_concat1_5_0_split -> concat1_5_concat1_5_0_split_1
I0226 09:30:31.352406 11774 net.cpp:122] Setting up concat1_5_concat1_5_0_split
I0226 09:30:31.352411 11774 net.cpp:129] Top shape: 1 320 19 25 (152000)
I0226 09:30:31.352416 11774 net.cpp:129] Top shape: 1 320 19 25 (152000)
I0226 09:30:31.352418 11774 net.cpp:137] Memory required for data: 100809988
I0226 09:30:31.352421 11774 layer_factory.hpp:77] Creating layer conv1_6/x1/bn
I0226 09:30:31.352430 11774 net.cpp:84] Creating Layer conv1_6/x1/bn
I0226 09:30:31.352433 11774 net.cpp:406] conv1_6/x1/bn <- concat1_5_concat1_5_0_split_0
I0226 09:30:31.352438 11774 net.cpp:380] conv1_6/x1/bn -> conv1_6/x1/bn
I0226 09:30:31.352695 11774 net.cpp:122] Setting up conv1_6/x1/bn
I0226 09:30:31.352704 11774 net.cpp:129] Top shape: 1 320 19 25 (152000)
I0226 09:30:31.352706 11774 net.cpp:137] Memory required for data: 101417988
I0226 09:30:31.352713 11774 layer_factory.hpp:77] Creating layer conv1_6/x1/scale
I0226 09:30:31.352723 11774 net.cpp:84] Creating Layer conv1_6/x1/scale
I0226 09:30:31.352731 11774 net.cpp:406] conv1_6/x1/scale <- conv1_6/x1/bn
I0226 09:30:31.352736 11774 net.cpp:367] conv1_6/x1/scale -> conv1_6/x1/bn (in-place)
I0226 09:30:31.352787 11774 layer_factory.hpp:77] Creating layer conv1_6/x1/scale
I0226 09:30:31.352926 11774 net.cpp:122] Setting up conv1_6/x1/scale
I0226 09:30:31.352931 11774 net.cpp:129] Top shape: 1 320 19 25 (152000)
I0226 09:30:31.352936 11774 net.cpp:137] Memory required for data: 102025988
I0226 09:30:31.352941 11774 layer_factory.hpp:77] Creating layer relu1_6/x1
I0226 09:30:31.352949 11774 net.cpp:84] Creating Layer relu1_6/x1
I0226 09:30:31.352952 11774 net.cpp:406] relu1_6/x1 <- conv1_6/x1/bn
I0226 09:30:31.352957 11774 net.cpp:367] relu1_6/x1 -> conv1_6/x1/bn (in-place)
I0226 09:30:31.353178 11774 net.cpp:122] Setting up relu1_6/x1
I0226 09:30:31.353188 11774 net.cpp:129] Top shape: 1 320 19 25 (152000)
I0226 09:30:31.353190 11774 net.cpp:137] Memory required for data: 102633988
I0226 09:30:31.353193 11774 layer_factory.hpp:77] Creating layer conv1_6/x1
I0226 09:30:31.353206 11774 net.cpp:84] Creating Layer conv1_6/x1
I0226 09:30:31.353210 11774 net.cpp:406] conv1_6/x1 <- conv1_6/x1/bn
I0226 09:30:31.353216 11774 net.cpp:380] conv1_6/x1 -> conv1_6/x1
I0226 09:30:31.356045 11774 net.cpp:122] Setting up conv1_6/x1
I0226 09:30:31.356060 11774 net.cpp:129] Top shape: 1 128 19 25 (60800)
I0226 09:30:31.356062 11774 net.cpp:137] Memory required for data: 102877188
I0226 09:30:31.356068 11774 layer_factory.hpp:77] Creating layer conv1_6/x2/bn
I0226 09:30:31.356078 11774 net.cpp:84] Creating Layer conv1_6/x2/bn
I0226 09:30:31.356082 11774 net.cpp:406] conv1_6/x2/bn <- conv1_6/x1
I0226 09:30:31.356088 11774 net.cpp:380] conv1_6/x2/bn -> conv1_6/x2/bn
I0226 09:30:31.356333 11774 net.cpp:122] Setting up conv1_6/x2/bn
I0226 09:30:31.356339 11774 net.cpp:129] Top shape: 1 128 19 25 (60800)
I0226 09:30:31.356343 11774 net.cpp:137] Memory required for data: 103120388
I0226 09:30:31.356349 11774 layer_factory.hpp:77] Creating layer conv1_6/x2/scale
I0226 09:30:31.356359 11774 net.cpp:84] Creating Layer conv1_6/x2/scale
I0226 09:30:31.356364 11774 net.cpp:406] conv1_6/x2/scale <- conv1_6/x2/bn
I0226 09:30:31.356369 11774 net.cpp:367] conv1_6/x2/scale -> conv1_6/x2/bn (in-place)
I0226 09:30:31.356411 11774 layer_factory.hpp:77] Creating layer conv1_6/x2/scale
I0226 09:30:31.356546 11774 net.cpp:122] Setting up conv1_6/x2/scale
I0226 09:30:31.356554 11774 net.cpp:129] Top shape: 1 128 19 25 (60800)
I0226 09:30:31.356556 11774 net.cpp:137] Memory required for data: 103363588
I0226 09:30:31.356562 11774 layer_factory.hpp:77] Creating layer relu1_6/x2
I0226 09:30:31.356568 11774 net.cpp:84] Creating Layer relu1_6/x2
I0226 09:30:31.356572 11774 net.cpp:406] relu1_6/x2 <- conv1_6/x2/bn
I0226 09:30:31.356578 11774 net.cpp:367] relu1_6/x2 -> conv1_6/x2/bn (in-place)
I0226 09:30:31.356804 11774 net.cpp:122] Setting up relu1_6/x2
I0226 09:30:31.356814 11774 net.cpp:129] Top shape: 1 128 19 25 (60800)
I0226 09:30:31.356818 11774 net.cpp:137] Memory required for data: 103606788
I0226 09:30:31.356822 11774 layer_factory.hpp:77] Creating layer conv1_6/x2
I0226 09:30:31.356833 11774 net.cpp:84] Creating Layer conv1_6/x2
I0226 09:30:31.356837 11774 net.cpp:406] conv1_6/x2 <- conv1_6/x2/bn
I0226 09:30:31.356843 11774 net.cpp:380] conv1_6/x2 -> conv1_6/x2
I0226 09:30:31.360371 11774 net.cpp:122] Setting up conv1_6/x2
I0226 09:30:31.360385 11774 net.cpp:129] Top shape: 1 32 19 25 (15200)
I0226 09:30:31.360388 11774 net.cpp:137] Memory required for data: 103667588
I0226 09:30:31.360396 11774 layer_factory.hpp:77] Creating layer concat1_6
I0226 09:30:31.360404 11774 net.cpp:84] Creating Layer concat1_6
I0226 09:30:31.360409 11774 net.cpp:406] concat1_6 <- concat1_5_concat1_5_0_split_1
I0226 09:30:31.360414 11774 net.cpp:406] concat1_6 <- conv1_6/x2
I0226 09:30:31.360421 11774 net.cpp:380] concat1_6 -> concat1_6
I0226 09:30:31.360456 11774 net.cpp:122] Setting up concat1_6
I0226 09:30:31.360462 11774 net.cpp:129] Top shape: 1 352 19 25 (167200)
I0226 09:30:31.360469 11774 net.cpp:137] Memory required for data: 104336388
I0226 09:30:31.360473 11774 layer_factory.hpp:77] Creating layer concat1_6_concat1_6_0_split
I0226 09:30:31.360481 11774 net.cpp:84] Creating Layer concat1_6_concat1_6_0_split
I0226 09:30:31.360486 11774 net.cpp:406] concat1_6_concat1_6_0_split <- concat1_6
I0226 09:30:31.360491 11774 net.cpp:380] concat1_6_concat1_6_0_split -> concat1_6_concat1_6_0_split_0
I0226 09:30:31.360496 11774 net.cpp:380] concat1_6_concat1_6_0_split -> concat1_6_concat1_6_0_split_1
I0226 09:30:31.360540 11774 net.cpp:122] Setting up concat1_6_concat1_6_0_split
I0226 09:30:31.360545 11774 net.cpp:129] Top shape: 1 352 19 25 (167200)
I0226 09:30:31.360549 11774 net.cpp:129] Top shape: 1 352 19 25 (167200)
I0226 09:30:31.360553 11774 net.cpp:137] Memory required for data: 105673988
I0226 09:30:31.360556 11774 layer_factory.hpp:77] Creating layer conv1_7/x1/bn
I0226 09:30:31.360564 11774 net.cpp:84] Creating Layer conv1_7/x1/bn
I0226 09:30:31.360569 11774 net.cpp:406] conv1_7/x1/bn <- concat1_6_concat1_6_0_split_0
I0226 09:30:31.360574 11774 net.cpp:380] conv1_7/x1/bn -> conv1_7/x1/bn
I0226 09:30:31.360836 11774 net.cpp:122] Setting up conv1_7/x1/bn
I0226 09:30:31.360842 11774 net.cpp:129] Top shape: 1 352 19 25 (167200)
I0226 09:30:31.360846 11774 net.cpp:137] Memory required for data: 106342788
I0226 09:30:31.360852 11774 layer_factory.hpp:77] Creating layer conv1_7/x1/scale
I0226 09:30:31.360862 11774 net.cpp:84] Creating Layer conv1_7/x1/scale
I0226 09:30:31.360867 11774 net.cpp:406] conv1_7/x1/scale <- conv1_7/x1/bn
I0226 09:30:31.360872 11774 net.cpp:367] conv1_7/x1/scale -> conv1_7/x1/bn (in-place)
I0226 09:30:31.360925 11774 layer_factory.hpp:77] Creating layer conv1_7/x1/scale
I0226 09:30:31.361068 11774 net.cpp:122] Setting up conv1_7/x1/scale
I0226 09:30:31.361075 11774 net.cpp:129] Top shape: 1 352 19 25 (167200)
I0226 09:30:31.361078 11774 net.cpp:137] Memory required for data: 107011588
I0226 09:30:31.361084 11774 layer_factory.hpp:77] Creating layer relu1_7/x1
I0226 09:30:31.361093 11774 net.cpp:84] Creating Layer relu1_7/x1
I0226 09:30:31.361096 11774 net.cpp:406] relu1_7/x1 <- conv1_7/x1/bn
I0226 09:30:31.361100 11774 net.cpp:367] relu1_7/x1 -> conv1_7/x1/bn (in-place)
I0226 09:30:31.361330 11774 net.cpp:122] Setting up relu1_7/x1
I0226 09:30:31.361337 11774 net.cpp:129] Top shape: 1 352 19 25 (167200)
I0226 09:30:31.361340 11774 net.cpp:137] Memory required for data: 107680388
I0226 09:30:31.361344 11774 layer_factory.hpp:77] Creating layer conv1_7/x1
I0226 09:30:31.361356 11774 net.cpp:84] Creating Layer conv1_7/x1
I0226 09:30:31.361361 11774 net.cpp:406] conv1_7/x1 <- conv1_7/x1/bn
I0226 09:30:31.361366 11774 net.cpp:380] conv1_7/x1 -> conv1_7/x1
I0226 09:30:31.365146 11774 net.cpp:122] Setting up conv1_7/x1
I0226 09:30:31.365160 11774 net.cpp:129] Top shape: 1 128 19 25 (60800)
I0226 09:30:31.365164 11774 net.cpp:137] Memory required for data: 107923588
I0226 09:30:31.365170 11774 layer_factory.hpp:77] Creating layer conv1_7/x2/bn
I0226 09:30:31.365180 11774 net.cpp:84] Creating Layer conv1_7/x2/bn
I0226 09:30:31.365185 11774 net.cpp:406] conv1_7/x2/bn <- conv1_7/x1
I0226 09:30:31.365191 11774 net.cpp:380] conv1_7/x2/bn -> conv1_7/x2/bn
I0226 09:30:31.365438 11774 net.cpp:122] Setting up conv1_7/x2/bn
I0226 09:30:31.365445 11774 net.cpp:129] Top shape: 1 128 19 25 (60800)
I0226 09:30:31.365448 11774 net.cpp:137] Memory required for data: 108166788
I0226 09:30:31.365455 11774 layer_factory.hpp:77] Creating layer conv1_7/x2/scale
I0226 09:30:31.365463 11774 net.cpp:84] Creating Layer conv1_7/x2/scale
I0226 09:30:31.365468 11774 net.cpp:406] conv1_7/x2/scale <- conv1_7/x2/bn
I0226 09:30:31.365473 11774 net.cpp:367] conv1_7/x2/scale -> conv1_7/x2/bn (in-place)
I0226 09:30:31.365517 11774 layer_factory.hpp:77] Creating layer conv1_7/x2/scale
I0226 09:30:31.365651 11774 net.cpp:122] Setting up conv1_7/x2/scale
I0226 09:30:31.365661 11774 net.cpp:129] Top shape: 1 128 19 25 (60800)
I0226 09:30:31.365664 11774 net.cpp:137] Memory required for data: 108409988
I0226 09:30:31.365674 11774 layer_factory.hpp:77] Creating layer relu1_7/x2
I0226 09:30:31.365680 11774 net.cpp:84] Creating Layer relu1_7/x2
I0226 09:30:31.365684 11774 net.cpp:406] relu1_7/x2 <- conv1_7/x2/bn
I0226 09:30:31.365689 11774 net.cpp:367] relu1_7/x2 -> conv1_7/x2/bn (in-place)
I0226 09:30:31.366667 11774 net.cpp:122] Setting up relu1_7/x2
I0226 09:30:31.366679 11774 net.cpp:129] Top shape: 1 128 19 25 (60800)
I0226 09:30:31.366683 11774 net.cpp:137] Memory required for data: 108653188
I0226 09:30:31.366686 11774 layer_factory.hpp:77] Creating layer conv1_7/x2
I0226 09:30:31.366698 11774 net.cpp:84] Creating Layer conv1_7/x2
I0226 09:30:31.366703 11774 net.cpp:406] conv1_7/x2 <- conv1_7/x2/bn
I0226 09:30:31.366709 11774 net.cpp:380] conv1_7/x2 -> conv1_7/x2
I0226 09:30:31.370913 11774 net.cpp:122] Setting up conv1_7/x2
I0226 09:30:31.370929 11774 net.cpp:129] Top shape: 1 32 19 25 (15200)
I0226 09:30:31.370931 11774 net.cpp:137] Memory required for data: 108713988
I0226 09:30:31.370937 11774 layer_factory.hpp:77] Creating layer concat1_7
I0226 09:30:31.370945 11774 net.cpp:84] Creating Layer concat1_7
I0226 09:30:31.370949 11774 net.cpp:406] concat1_7 <- concat1_6_concat1_6_0_split_1
I0226 09:30:31.370957 11774 net.cpp:406] concat1_7 <- conv1_7/x2
I0226 09:30:31.370964 11774 net.cpp:380] concat1_7 -> concat1_7
I0226 09:30:31.370996 11774 net.cpp:122] Setting up concat1_7
I0226 09:30:31.371002 11774 net.cpp:129] Top shape: 1 384 19 25 (182400)
I0226 09:30:31.371006 11774 net.cpp:137] Memory required for data: 109443588
I0226 09:30:31.371009 11774 layer_factory.hpp:77] Creating layer concat1_7_concat1_7_0_split
I0226 09:30:31.371016 11774 net.cpp:84] Creating Layer concat1_7_concat1_7_0_split
I0226 09:30:31.371021 11774 net.cpp:406] concat1_7_concat1_7_0_split <- concat1_7
I0226 09:30:31.371026 11774 net.cpp:380] concat1_7_concat1_7_0_split -> concat1_7_concat1_7_0_split_0
I0226 09:30:31.371038 11774 net.cpp:380] concat1_7_concat1_7_0_split -> concat1_7_concat1_7_0_split_1
I0226 09:30:31.371080 11774 net.cpp:122] Setting up concat1_7_concat1_7_0_split
I0226 09:30:31.371085 11774 net.cpp:129] Top shape: 1 384 19 25 (182400)
I0226 09:30:31.371089 11774 net.cpp:129] Top shape: 1 384 19 25 (182400)
I0226 09:30:31.371093 11774 net.cpp:137] Memory required for data: 110902788
I0226 09:30:31.371095 11774 layer_factory.hpp:77] Creating layer conv1_8/x1/bn
I0226 09:30:31.371104 11774 net.cpp:84] Creating Layer conv1_8/x1/bn
I0226 09:30:31.371107 11774 net.cpp:406] conv1_8/x1/bn <- concat1_7_concat1_7_0_split_0
I0226 09:30:31.371111 11774 net.cpp:380] conv1_8/x1/bn -> conv1_8/x1/bn
I0226 09:30:31.371359 11774 net.cpp:122] Setting up conv1_8/x1/bn
I0226 09:30:31.371366 11774 net.cpp:129] Top shape: 1 384 19 25 (182400)
I0226 09:30:31.371369 11774 net.cpp:137] Memory required for data: 111632388
I0226 09:30:31.371376 11774 layer_factory.hpp:77] Creating layer conv1_8/x1/scale
I0226 09:30:31.371383 11774 net.cpp:84] Creating Layer conv1_8/x1/scale
I0226 09:30:31.371387 11774 net.cpp:406] conv1_8/x1/scale <- conv1_8/x1/bn
I0226 09:30:31.371394 11774 net.cpp:367] conv1_8/x1/scale -> conv1_8/x1/bn (in-place)
I0226 09:30:31.371443 11774 layer_factory.hpp:77] Creating layer conv1_8/x1/scale
I0226 09:30:31.371578 11774 net.cpp:122] Setting up conv1_8/x1/scale
I0226 09:30:31.371587 11774 net.cpp:129] Top shape: 1 384 19 25 (182400)
I0226 09:30:31.371590 11774 net.cpp:137] Memory required for data: 112361988
I0226 09:30:31.371596 11774 layer_factory.hpp:77] Creating layer relu1_8/x1
I0226 09:30:31.371603 11774 net.cpp:84] Creating Layer relu1_8/x1
I0226 09:30:31.371605 11774 net.cpp:406] relu1_8/x1 <- conv1_8/x1/bn
I0226 09:30:31.371610 11774 net.cpp:367] relu1_8/x1 -> conv1_8/x1/bn (in-place)
I0226 09:30:31.371835 11774 net.cpp:122] Setting up relu1_8/x1
I0226 09:30:31.371845 11774 net.cpp:129] Top shape: 1 384 19 25 (182400)
I0226 09:30:31.371847 11774 net.cpp:137] Memory required for data: 113091588
I0226 09:30:31.371851 11774 layer_factory.hpp:77] Creating layer conv1_8/x1
I0226 09:30:31.371862 11774 net.cpp:84] Creating Layer conv1_8/x1
I0226 09:30:31.371870 11774 net.cpp:406] conv1_8/x1 <- conv1_8/x1/bn
I0226 09:30:31.371876 11774 net.cpp:380] conv1_8/x1 -> conv1_8/x1
I0226 09:30:31.374963 11774 net.cpp:122] Setting up conv1_8/x1
I0226 09:30:31.374976 11774 net.cpp:129] Top shape: 1 128 19 25 (60800)
I0226 09:30:31.374980 11774 net.cpp:137] Memory required for data: 113334788
I0226 09:30:31.374986 11774 layer_factory.hpp:77] Creating layer conv1_8/x2/bn
I0226 09:30:31.374996 11774 net.cpp:84] Creating Layer conv1_8/x2/bn
I0226 09:30:31.375000 11774 net.cpp:406] conv1_8/x2/bn <- conv1_8/x1
I0226 09:30:31.375006 11774 net.cpp:380] conv1_8/x2/bn -> conv1_8/x2/bn
I0226 09:30:31.375267 11774 net.cpp:122] Setting up conv1_8/x2/bn
I0226 09:30:31.375273 11774 net.cpp:129] Top shape: 1 128 19 25 (60800)
I0226 09:30:31.375277 11774 net.cpp:137] Memory required for data: 113577988
I0226 09:30:31.375283 11774 layer_factory.hpp:77] Creating layer conv1_8/x2/scale
I0226 09:30:31.375291 11774 net.cpp:84] Creating Layer conv1_8/x2/scale
I0226 09:30:31.375294 11774 net.cpp:406] conv1_8/x2/scale <- conv1_8/x2/bn
I0226 09:30:31.375301 11774 net.cpp:367] conv1_8/x2/scale -> conv1_8/x2/bn (in-place)
I0226 09:30:31.375347 11774 layer_factory.hpp:77] Creating layer conv1_8/x2/scale
I0226 09:30:31.375483 11774 net.cpp:122] Setting up conv1_8/x2/scale
I0226 09:30:31.375491 11774 net.cpp:129] Top shape: 1 128 19 25 (60800)
I0226 09:30:31.375494 11774 net.cpp:137] Memory required for data: 113821188
I0226 09:30:31.375500 11774 layer_factory.hpp:77] Creating layer relu1_8/x2
I0226 09:30:31.375506 11774 net.cpp:84] Creating Layer relu1_8/x2
I0226 09:30:31.375510 11774 net.cpp:406] relu1_8/x2 <- conv1_8/x2/bn
I0226 09:30:31.375514 11774 net.cpp:367] relu1_8/x2 -> conv1_8/x2/bn (in-place)
I0226 09:30:31.375731 11774 net.cpp:122] Setting up relu1_8/x2
I0226 09:30:31.375739 11774 net.cpp:129] Top shape: 1 128 19 25 (60800)
I0226 09:30:31.375742 11774 net.cpp:137] Memory required for data: 114064388
I0226 09:30:31.375746 11774 layer_factory.hpp:77] Creating layer conv1_8/x2
I0226 09:30:31.375759 11774 net.cpp:84] Creating Layer conv1_8/x2
I0226 09:30:31.375763 11774 net.cpp:406] conv1_8/x2 <- conv1_8/x2/bn
I0226 09:30:31.375769 11774 net.cpp:380] conv1_8/x2 -> conv1_8/x2
I0226 09:30:31.379297 11774 net.cpp:122] Setting up conv1_8/x2
I0226 09:30:31.379310 11774 net.cpp:129] Top shape: 1 32 19 25 (15200)
I0226 09:30:31.379314 11774 net.cpp:137] Memory required for data: 114125188
I0226 09:30:31.379320 11774 layer_factory.hpp:77] Creating layer concat1_8
I0226 09:30:31.379328 11774 net.cpp:84] Creating Layer concat1_8
I0226 09:30:31.379333 11774 net.cpp:406] concat1_8 <- concat1_7_concat1_7_0_split_1
I0226 09:30:31.379338 11774 net.cpp:406] concat1_8 <- conv1_8/x2
I0226 09:30:31.379345 11774 net.cpp:380] concat1_8 -> concat1_8
I0226 09:30:31.379381 11774 net.cpp:122] Setting up concat1_8
I0226 09:30:31.379390 11774 net.cpp:129] Top shape: 1 416 19 25 (197600)
I0226 09:30:31.379393 11774 net.cpp:137] Memory required for data: 114915588
I0226 09:30:31.379396 11774 layer_factory.hpp:77] Creating layer concat1_8_concat1_8_0_split
I0226 09:30:31.379402 11774 net.cpp:84] Creating Layer concat1_8_concat1_8_0_split
I0226 09:30:31.379405 11774 net.cpp:406] concat1_8_concat1_8_0_split <- concat1_8
I0226 09:30:31.379410 11774 net.cpp:380] concat1_8_concat1_8_0_split -> concat1_8_concat1_8_0_split_0
I0226 09:30:31.379416 11774 net.cpp:380] concat1_8_concat1_8_0_split -> concat1_8_concat1_8_0_split_1
I0226 09:30:31.379465 11774 net.cpp:122] Setting up concat1_8_concat1_8_0_split
I0226 09:30:31.379472 11774 net.cpp:129] Top shape: 1 416 19 25 (197600)
I0226 09:30:31.379475 11774 net.cpp:129] Top shape: 1 416 19 25 (197600)
I0226 09:30:31.379477 11774 net.cpp:137] Memory required for data: 116496388
I0226 09:30:31.379482 11774 layer_factory.hpp:77] Creating layer conv1_9/x1/bn
I0226 09:30:31.379489 11774 net.cpp:84] Creating Layer conv1_9/x1/bn
I0226 09:30:31.379492 11774 net.cpp:406] conv1_9/x1/bn <- concat1_8_concat1_8_0_split_0
I0226 09:30:31.379498 11774 net.cpp:380] conv1_9/x1/bn -> conv1_9/x1/bn
I0226 09:30:31.379765 11774 net.cpp:122] Setting up conv1_9/x1/bn
I0226 09:30:31.379772 11774 net.cpp:129] Top shape: 1 416 19 25 (197600)
I0226 09:30:31.379776 11774 net.cpp:137] Memory required for data: 117286788
I0226 09:30:31.379783 11774 layer_factory.hpp:77] Creating layer conv1_9/x1/scale
I0226 09:30:31.379791 11774 net.cpp:84] Creating Layer conv1_9/x1/scale
I0226 09:30:31.379794 11774 net.cpp:406] conv1_9/x1/scale <- conv1_9/x1/bn
I0226 09:30:31.379799 11774 net.cpp:367] conv1_9/x1/scale -> conv1_9/x1/bn (in-place)
I0226 09:30:31.379851 11774 layer_factory.hpp:77] Creating layer conv1_9/x1/scale
I0226 09:30:31.379997 11774 net.cpp:122] Setting up conv1_9/x1/scale
I0226 09:30:31.380004 11774 net.cpp:129] Top shape: 1 416 19 25 (197600)
I0226 09:30:31.380007 11774 net.cpp:137] Memory required for data: 118077188
I0226 09:30:31.380013 11774 layer_factory.hpp:77] Creating layer relu1_9/x1
I0226 09:30:31.380019 11774 net.cpp:84] Creating Layer relu1_9/x1
I0226 09:30:31.380023 11774 net.cpp:406] relu1_9/x1 <- conv1_9/x1/bn
I0226 09:30:31.380028 11774 net.cpp:367] relu1_9/x1 -> conv1_9/x1/bn (in-place)
I0226 09:30:31.381017 11774 net.cpp:122] Setting up relu1_9/x1
I0226 09:30:31.381029 11774 net.cpp:129] Top shape: 1 416 19 25 (197600)
I0226 09:30:31.381033 11774 net.cpp:137] Memory required for data: 118867588
I0226 09:30:31.381037 11774 layer_factory.hpp:77] Creating layer conv1_9/x1
I0226 09:30:31.381048 11774 net.cpp:84] Creating Layer conv1_9/x1
I0226 09:30:31.381053 11774 net.cpp:406] conv1_9/x1 <- conv1_9/x1/bn
I0226 09:30:31.381062 11774 net.cpp:380] conv1_9/x1 -> conv1_9/x1
I0226 09:30:31.384246 11774 net.cpp:122] Setting up conv1_9/x1
I0226 09:30:31.384260 11774 net.cpp:129] Top shape: 1 128 19 25 (60800)
I0226 09:30:31.384263 11774 net.cpp:137] Memory required for data: 119110788
I0226 09:30:31.384269 11774 layer_factory.hpp:77] Creating layer conv1_9/x2/bn
I0226 09:30:31.384279 11774 net.cpp:84] Creating Layer conv1_9/x2/bn
I0226 09:30:31.384284 11774 net.cpp:406] conv1_9/x2/bn <- conv1_9/x1
I0226 09:30:31.384295 11774 net.cpp:380] conv1_9/x2/bn -> conv1_9/x2/bn
I0226 09:30:31.384557 11774 net.cpp:122] Setting up conv1_9/x2/bn
I0226 09:30:31.384563 11774 net.cpp:129] Top shape: 1 128 19 25 (60800)
I0226 09:30:31.384567 11774 net.cpp:137] Memory required for data: 119353988
I0226 09:30:31.384573 11774 layer_factory.hpp:77] Creating layer conv1_9/x2/scale
I0226 09:30:31.384580 11774 net.cpp:84] Creating Layer conv1_9/x2/scale
I0226 09:30:31.384584 11774 net.cpp:406] conv1_9/x2/scale <- conv1_9/x2/bn
I0226 09:30:31.384589 11774 net.cpp:367] conv1_9/x2/scale -> conv1_9/x2/bn (in-place)
I0226 09:30:31.384651 11774 layer_factory.hpp:77] Creating layer conv1_9/x2/scale
I0226 09:30:31.384789 11774 net.cpp:122] Setting up conv1_9/x2/scale
I0226 09:30:31.384796 11774 net.cpp:129] Top shape: 1 128 19 25 (60800)
I0226 09:30:31.384799 11774 net.cpp:137] Memory required for data: 119597188
I0226 09:30:31.384805 11774 layer_factory.hpp:77] Creating layer relu1_9/x2
I0226 09:30:31.384814 11774 net.cpp:84] Creating Layer relu1_9/x2
I0226 09:30:31.384817 11774 net.cpp:406] relu1_9/x2 <- conv1_9/x2/bn
I0226 09:30:31.384821 11774 net.cpp:367] relu1_9/x2 -> conv1_9/x2/bn (in-place)
I0226 09:30:31.385047 11774 net.cpp:122] Setting up relu1_9/x2
I0226 09:30:31.385057 11774 net.cpp:129] Top shape: 1 128 19 25 (60800)
I0226 09:30:31.385061 11774 net.cpp:137] Memory required for data: 119840388
I0226 09:30:31.385063 11774 layer_factory.hpp:77] Creating layer conv1_9/x2
I0226 09:30:31.385076 11774 net.cpp:84] Creating Layer conv1_9/x2
I0226 09:30:31.385079 11774 net.cpp:406] conv1_9/x2 <- conv1_9/x2/bn
I0226 09:30:31.385085 11774 net.cpp:380] conv1_9/x2 -> conv1_9/x2
I0226 09:30:31.387816 11774 net.cpp:122] Setting up conv1_9/x2
I0226 09:30:31.387830 11774 net.cpp:129] Top shape: 1 32 19 25 (15200)
I0226 09:30:31.387833 11774 net.cpp:137] Memory required for data: 119901188
I0226 09:30:31.387840 11774 layer_factory.hpp:77] Creating layer concat1_9
I0226 09:30:31.387848 11774 net.cpp:84] Creating Layer concat1_9
I0226 09:30:31.387852 11774 net.cpp:406] concat1_9 <- concat1_8_concat1_8_0_split_1
I0226 09:30:31.387861 11774 net.cpp:406] concat1_9 <- conv1_9/x2
I0226 09:30:31.387869 11774 net.cpp:380] concat1_9 -> concat1_9
I0226 09:30:31.387904 11774 net.cpp:122] Setting up concat1_9
I0226 09:30:31.387912 11774 net.cpp:129] Top shape: 1 448 19 25 (212800)
I0226 09:30:31.387915 11774 net.cpp:137] Memory required for data: 120752388
I0226 09:30:31.387918 11774 layer_factory.hpp:77] Creating layer concat1_9_concat1_9_0_split
I0226 09:30:31.387923 11774 net.cpp:84] Creating Layer concat1_9_concat1_9_0_split
I0226 09:30:31.387928 11774 net.cpp:406] concat1_9_concat1_9_0_split <- concat1_9
I0226 09:30:31.387933 11774 net.cpp:380] concat1_9_concat1_9_0_split -> concat1_9_concat1_9_0_split_0
I0226 09:30:31.387938 11774 net.cpp:380] concat1_9_concat1_9_0_split -> concat1_9_concat1_9_0_split_1
I0226 09:30:31.387986 11774 net.cpp:122] Setting up concat1_9_concat1_9_0_split
I0226 09:30:31.387992 11774 net.cpp:129] Top shape: 1 448 19 25 (212800)
I0226 09:30:31.387996 11774 net.cpp:129] Top shape: 1 448 19 25 (212800)
I0226 09:30:31.388000 11774 net.cpp:137] Memory required for data: 122454788
I0226 09:30:31.388002 11774 layer_factory.hpp:77] Creating layer conv1_10/x1/bn
I0226 09:30:31.388010 11774 net.cpp:84] Creating Layer conv1_10/x1/bn
I0226 09:30:31.388013 11774 net.cpp:406] conv1_10/x1/bn <- concat1_9_concat1_9_0_split_0
I0226 09:30:31.388020 11774 net.cpp:380] conv1_10/x1/bn -> conv1_10/x1/bn
I0226 09:30:31.388281 11774 net.cpp:122] Setting up conv1_10/x1/bn
I0226 09:30:31.388288 11774 net.cpp:129] Top shape: 1 448 19 25 (212800)
I0226 09:30:31.388291 11774 net.cpp:137] Memory required for data: 123305988
I0226 09:30:31.388299 11774 layer_factory.hpp:77] Creating layer conv1_10/x1/scale
I0226 09:30:31.388306 11774 net.cpp:84] Creating Layer conv1_10/x1/scale
I0226 09:30:31.388310 11774 net.cpp:406] conv1_10/x1/scale <- conv1_10/x1/bn
I0226 09:30:31.388315 11774 net.cpp:367] conv1_10/x1/scale -> conv1_10/x1/bn (in-place)
I0226 09:30:31.388366 11774 layer_factory.hpp:77] Creating layer conv1_10/x1/scale
I0226 09:30:31.388512 11774 net.cpp:122] Setting up conv1_10/x1/scale
I0226 09:30:31.388520 11774 net.cpp:129] Top shape: 1 448 19 25 (212800)
I0226 09:30:31.388522 11774 net.cpp:137] Memory required for data: 124157188
I0226 09:30:31.388528 11774 layer_factory.hpp:77] Creating layer relu1_10/x1
I0226 09:30:31.388535 11774 net.cpp:84] Creating Layer relu1_10/x1
I0226 09:30:31.388538 11774 net.cpp:406] relu1_10/x1 <- conv1_10/x1/bn
I0226 09:30:31.388542 11774 net.cpp:367] relu1_10/x1 -> conv1_10/x1/bn (in-place)
I0226 09:30:31.388772 11774 net.cpp:122] Setting up relu1_10/x1
I0226 09:30:31.388780 11774 net.cpp:129] Top shape: 1 448 19 25 (212800)
I0226 09:30:31.388784 11774 net.cpp:137] Memory required for data: 125008388
I0226 09:30:31.388787 11774 layer_factory.hpp:77] Creating layer conv1_10/x1
I0226 09:30:31.388799 11774 net.cpp:84] Creating Layer conv1_10/x1
I0226 09:30:31.388803 11774 net.cpp:406] conv1_10/x1 <- conv1_10/x1/bn
I0226 09:30:31.388809 11774 net.cpp:380] conv1_10/x1 -> conv1_10/x1
I0226 09:30:31.392117 11774 net.cpp:122] Setting up conv1_10/x1
I0226 09:30:31.392132 11774 net.cpp:129] Top shape: 1 128 19 25 (60800)
I0226 09:30:31.392134 11774 net.cpp:137] Memory required for data: 125251588
I0226 09:30:31.392140 11774 layer_factory.hpp:77] Creating layer conv1_10/x2/bn
I0226 09:30:31.392150 11774 net.cpp:84] Creating Layer conv1_10/x2/bn
I0226 09:30:31.392154 11774 net.cpp:406] conv1_10/x2/bn <- conv1_10/x1
I0226 09:30:31.392160 11774 net.cpp:380] conv1_10/x2/bn -> conv1_10/x2/bn
I0226 09:30:31.392423 11774 net.cpp:122] Setting up conv1_10/x2/bn
I0226 09:30:31.392431 11774 net.cpp:129] Top shape: 1 128 19 25 (60800)
I0226 09:30:31.392433 11774 net.cpp:137] Memory required for data: 125494788
I0226 09:30:31.392441 11774 layer_factory.hpp:77] Creating layer conv1_10/x2/scale
I0226 09:30:31.392448 11774 net.cpp:84] Creating Layer conv1_10/x2/scale
I0226 09:30:31.392452 11774 net.cpp:406] conv1_10/x2/scale <- conv1_10/x2/bn
I0226 09:30:31.392459 11774 net.cpp:367] conv1_10/x2/scale -> conv1_10/x2/bn (in-place)
I0226 09:30:31.392509 11774 layer_factory.hpp:77] Creating layer conv1_10/x2/scale
I0226 09:30:31.392660 11774 net.cpp:122] Setting up conv1_10/x2/scale
I0226 09:30:31.392670 11774 net.cpp:129] Top shape: 1 128 19 25 (60800)
I0226 09:30:31.392673 11774 net.cpp:137] Memory required for data: 125737988
I0226 09:30:31.392679 11774 layer_factory.hpp:77] Creating layer relu1_10/x2
I0226 09:30:31.392686 11774 net.cpp:84] Creating Layer relu1_10/x2
I0226 09:30:31.392690 11774 net.cpp:406] relu1_10/x2 <- conv1_10/x2/bn
I0226 09:30:31.392694 11774 net.cpp:367] relu1_10/x2 -> conv1_10/x2/bn (in-place)
I0226 09:30:31.393682 11774 net.cpp:122] Setting up relu1_10/x2
I0226 09:30:31.393694 11774 net.cpp:129] Top shape: 1 128 19 25 (60800)
I0226 09:30:31.393697 11774 net.cpp:137] Memory required for data: 125981188
I0226 09:30:31.393702 11774 layer_factory.hpp:77] Creating layer conv1_10/x2
I0226 09:30:31.393713 11774 net.cpp:84] Creating Layer conv1_10/x2
I0226 09:30:31.393718 11774 net.cpp:406] conv1_10/x2 <- conv1_10/x2/bn
I0226 09:30:31.393724 11774 net.cpp:380] conv1_10/x2 -> conv1_10/x2
I0226 09:30:31.397264 11774 net.cpp:122] Setting up conv1_10/x2
I0226 09:30:31.397279 11774 net.cpp:129] Top shape: 1 32 19 25 (15200)
I0226 09:30:31.397282 11774 net.cpp:137] Memory required for data: 126041988
I0226 09:30:31.397289 11774 layer_factory.hpp:77] Creating layer concat1_10
I0226 09:30:31.397296 11774 net.cpp:84] Creating Layer concat1_10
I0226 09:30:31.397300 11774 net.cpp:406] concat1_10 <- concat1_9_concat1_9_0_split_1
I0226 09:30:31.397305 11774 net.cpp:406] concat1_10 <- conv1_10/x2
I0226 09:30:31.397313 11774 net.cpp:380] concat1_10 -> concat1_10
I0226 09:30:31.397362 11774 net.cpp:122] Setting up concat1_10
I0226 09:30:31.397369 11774 net.cpp:129] Top shape: 1 480 19 25 (228000)
I0226 09:30:31.397372 11774 net.cpp:137] Memory required for data: 126953988
I0226 09:30:31.397377 11774 layer_factory.hpp:77] Creating layer concat1_10_concat1_10_0_split
I0226 09:30:31.397383 11774 net.cpp:84] Creating Layer concat1_10_concat1_10_0_split
I0226 09:30:31.397387 11774 net.cpp:406] concat1_10_concat1_10_0_split <- concat1_10
I0226 09:30:31.397392 11774 net.cpp:380] concat1_10_concat1_10_0_split -> concat1_10_concat1_10_0_split_0
I0226 09:30:31.397398 11774 net.cpp:380] concat1_10_concat1_10_0_split -> concat1_10_concat1_10_0_split_1
I0226 09:30:31.397445 11774 net.cpp:122] Setting up concat1_10_concat1_10_0_split
I0226 09:30:31.397450 11774 net.cpp:129] Top shape: 1 480 19 25 (228000)
I0226 09:30:31.397454 11774 net.cpp:129] Top shape: 1 480 19 25 (228000)
I0226 09:30:31.397457 11774 net.cpp:137] Memory required for data: 128777988
I0226 09:30:31.397460 11774 layer_factory.hpp:77] Creating layer conv1_11/x1/bn
I0226 09:30:31.397469 11774 net.cpp:84] Creating Layer conv1_11/x1/bn
I0226 09:30:31.397472 11774 net.cpp:406] conv1_11/x1/bn <- concat1_10_concat1_10_0_split_0
I0226 09:30:31.397477 11774 net.cpp:380] conv1_11/x1/bn -> conv1_11/x1/bn
I0226 09:30:31.397742 11774 net.cpp:122] Setting up conv1_11/x1/bn
I0226 09:30:31.397749 11774 net.cpp:129] Top shape: 1 480 19 25 (228000)
I0226 09:30:31.397753 11774 net.cpp:137] Memory required for data: 129689988
I0226 09:30:31.397759 11774 layer_factory.hpp:77] Creating layer conv1_11/x1/scale
I0226 09:30:31.397766 11774 net.cpp:84] Creating Layer conv1_11/x1/scale
I0226 09:30:31.397770 11774 net.cpp:406] conv1_11/x1/scale <- conv1_11/x1/bn
I0226 09:30:31.397776 11774 net.cpp:367] conv1_11/x1/scale -> conv1_11/x1/bn (in-place)
I0226 09:30:31.397830 11774 layer_factory.hpp:77] Creating layer conv1_11/x1/scale
I0226 09:30:31.397976 11774 net.cpp:122] Setting up conv1_11/x1/scale
I0226 09:30:31.397982 11774 net.cpp:129] Top shape: 1 480 19 25 (228000)
I0226 09:30:31.397986 11774 net.cpp:137] Memory required for data: 130601988
I0226 09:30:31.397992 11774 layer_factory.hpp:77] Creating layer relu1_11/x1
I0226 09:30:31.398000 11774 net.cpp:84] Creating Layer relu1_11/x1
I0226 09:30:31.398003 11774 net.cpp:406] relu1_11/x1 <- conv1_11/x1/bn
I0226 09:30:31.398012 11774 net.cpp:367] relu1_11/x1 -> conv1_11/x1/bn (in-place)
I0226 09:30:31.398241 11774 net.cpp:122] Setting up relu1_11/x1
I0226 09:30:31.398250 11774 net.cpp:129] Top shape: 1 480 19 25 (228000)
I0226 09:30:31.398254 11774 net.cpp:137] Memory required for data: 131513988
I0226 09:30:31.398257 11774 layer_factory.hpp:77] Creating layer conv1_11/x1
I0226 09:30:31.398269 11774 net.cpp:84] Creating Layer conv1_11/x1
I0226 09:30:31.398274 11774 net.cpp:406] conv1_11/x1 <- conv1_11/x1/bn
I0226 09:30:31.398280 11774 net.cpp:380] conv1_11/x1 -> conv1_11/x1
I0226 09:30:31.401754 11774 net.cpp:122] Setting up conv1_11/x1
I0226 09:30:31.401768 11774 net.cpp:129] Top shape: 1 128 19 25 (60800)
I0226 09:30:31.401772 11774 net.cpp:137] Memory required for data: 131757188
I0226 09:30:31.401778 11774 layer_factory.hpp:77] Creating layer conv1_11/x2/bn
I0226 09:30:31.401787 11774 net.cpp:84] Creating Layer conv1_11/x2/bn
I0226 09:30:31.401790 11774 net.cpp:406] conv1_11/x2/bn <- conv1_11/x1
I0226 09:30:31.401798 11774 net.cpp:380] conv1_11/x2/bn -> conv1_11/x2/bn
I0226 09:30:31.402060 11774 net.cpp:122] Setting up conv1_11/x2/bn
I0226 09:30:31.402066 11774 net.cpp:129] Top shape: 1 128 19 25 (60800)
I0226 09:30:31.402070 11774 net.cpp:137] Memory required for data: 132000388
I0226 09:30:31.402076 11774 layer_factory.hpp:77] Creating layer conv1_11/x2/scale
I0226 09:30:31.402086 11774 net.cpp:84] Creating Layer conv1_11/x2/scale
I0226 09:30:31.402089 11774 net.cpp:406] conv1_11/x2/scale <- conv1_11/x2/bn
I0226 09:30:31.402094 11774 net.cpp:367] conv1_11/x2/scale -> conv1_11/x2/bn (in-place)
I0226 09:30:31.402140 11774 layer_factory.hpp:77] Creating layer conv1_11/x2/scale
I0226 09:30:31.402281 11774 net.cpp:122] Setting up conv1_11/x2/scale
I0226 09:30:31.402288 11774 net.cpp:129] Top shape: 1 128 19 25 (60800)
I0226 09:30:31.402292 11774 net.cpp:137] Memory required for data: 132243588
I0226 09:30:31.402297 11774 layer_factory.hpp:77] Creating layer relu1_11/x2
I0226 09:30:31.402303 11774 net.cpp:84] Creating Layer relu1_11/x2
I0226 09:30:31.402307 11774 net.cpp:406] relu1_11/x2 <- conv1_11/x2/bn
I0226 09:30:31.402315 11774 net.cpp:367] relu1_11/x2 -> conv1_11/x2/bn (in-place)
I0226 09:30:31.402534 11774 net.cpp:122] Setting up relu1_11/x2
I0226 09:30:31.402542 11774 net.cpp:129] Top shape: 1 128 19 25 (60800)
I0226 09:30:31.402546 11774 net.cpp:137] Memory required for data: 132486788
I0226 09:30:31.402549 11774 layer_factory.hpp:77] Creating layer conv1_11/x2
I0226 09:30:31.402559 11774 net.cpp:84] Creating Layer conv1_11/x2
I0226 09:30:31.402562 11774 net.cpp:406] conv1_11/x2 <- conv1_11/x2/bn
I0226 09:30:31.402570 11774 net.cpp:380] conv1_11/x2 -> conv1_11/x2
I0226 09:30:31.405359 11774 net.cpp:122] Setting up conv1_11/x2
I0226 09:30:31.405375 11774 net.cpp:129] Top shape: 1 32 19 25 (15200)
I0226 09:30:31.405377 11774 net.cpp:137] Memory required for data: 132547588
I0226 09:30:31.405385 11774 layer_factory.hpp:77] Creating layer concat1_11
I0226 09:30:31.405391 11774 net.cpp:84] Creating Layer concat1_11
I0226 09:30:31.405396 11774 net.cpp:406] concat1_11 <- concat1_10_concat1_10_0_split_1
I0226 09:30:31.405401 11774 net.cpp:406] concat1_11 <- conv1_11/x2
I0226 09:30:31.405406 11774 net.cpp:380] concat1_11 -> concat1_11
I0226 09:30:31.405443 11774 net.cpp:122] Setting up concat1_11
I0226 09:30:31.405449 11774 net.cpp:129] Top shape: 1 512 19 25 (243200)
I0226 09:30:31.405452 11774 net.cpp:137] Memory required for data: 133520388
I0226 09:30:31.405455 11774 layer_factory.hpp:77] Creating layer BatchNorm2
I0226 09:30:31.405467 11774 net.cpp:84] Creating Layer BatchNorm2
I0226 09:30:31.405470 11774 net.cpp:406] BatchNorm2 <- concat1_11
I0226 09:30:31.405475 11774 net.cpp:380] BatchNorm2 -> BatchNorm2
I0226 09:30:31.405737 11774 net.cpp:122] Setting up BatchNorm2
I0226 09:30:31.405745 11774 net.cpp:129] Top shape: 1 512 19 25 (243200)
I0226 09:30:31.405747 11774 net.cpp:137] Memory required for data: 134493188
I0226 09:30:31.405755 11774 layer_factory.hpp:77] Creating layer Scale2
I0226 09:30:31.405762 11774 net.cpp:84] Creating Layer Scale2
I0226 09:30:31.405769 11774 net.cpp:406] Scale2 <- BatchNorm2
I0226 09:30:31.405776 11774 net.cpp:367] Scale2 -> BatchNorm2 (in-place)
I0226 09:30:31.405827 11774 layer_factory.hpp:77] Creating layer Scale2
I0226 09:30:31.405966 11774 net.cpp:122] Setting up Scale2
I0226 09:30:31.405973 11774 net.cpp:129] Top shape: 1 512 19 25 (243200)
I0226 09:30:31.405977 11774 net.cpp:137] Memory required for data: 135465988
I0226 09:30:31.405982 11774 layer_factory.hpp:77] Creating layer ReLU2
I0226 09:30:31.405989 11774 net.cpp:84] Creating Layer ReLU2
I0226 09:30:31.405992 11774 net.cpp:406] ReLU2 <- BatchNorm2
I0226 09:30:31.405997 11774 net.cpp:367] ReLU2 -> BatchNorm2 (in-place)
I0226 09:30:31.406220 11774 net.cpp:122] Setting up ReLU2
I0226 09:30:31.406229 11774 net.cpp:129] Top shape: 1 512 19 25 (243200)
I0226 09:30:31.406232 11774 net.cpp:137] Memory required for data: 136438788
I0226 09:30:31.406235 11774 layer_factory.hpp:77] Creating layer conv1_blk
I0226 09:30:31.406249 11774 net.cpp:84] Creating Layer conv1_blk
I0226 09:30:31.406252 11774 net.cpp:406] conv1_blk <- BatchNorm2
I0226 09:30:31.406258 11774 net.cpp:380] conv1_blk -> conv1_blk
I0226 09:30:31.413116 11774 net.cpp:122] Setting up conv1_blk
I0226 09:30:31.413130 11774 net.cpp:129] Top shape: 1 256 19 25 (121600)
I0226 09:30:31.413134 11774 net.cpp:137] Memory required for data: 136925188
I0226 09:30:31.413141 11774 layer_factory.hpp:77] Creating layer pool1
I0226 09:30:31.413151 11774 net.cpp:84] Creating Layer pool1
I0226 09:30:31.413154 11774 net.cpp:406] pool1 <- conv1_blk
I0226 09:30:31.413161 11774 net.cpp:380] pool1 -> pool1
I0226 09:30:31.414177 11774 net.cpp:122] Setting up pool1
I0226 09:30:31.414191 11774 net.cpp:129] Top shape: 1 256 10 13 (33280)
I0226 09:30:31.414193 11774 net.cpp:137] Memory required for data: 137058308
I0226 09:30:31.414197 11774 layer_factory.hpp:77] Creating layer pool1_pool1_0_split
I0226 09:30:31.414204 11774 net.cpp:84] Creating Layer pool1_pool1_0_split
I0226 09:30:31.414208 11774 net.cpp:406] pool1_pool1_0_split <- pool1
I0226 09:30:31.414214 11774 net.cpp:380] pool1_pool1_0_split -> pool1_pool1_0_split_0
I0226 09:30:31.414223 11774 net.cpp:380] pool1_pool1_0_split -> pool1_pool1_0_split_1
I0226 09:30:31.414273 11774 net.cpp:122] Setting up pool1_pool1_0_split
I0226 09:30:31.414278 11774 net.cpp:129] Top shape: 1 256 10 13 (33280)
I0226 09:30:31.414281 11774 net.cpp:129] Top shape: 1 256 10 13 (33280)
I0226 09:30:31.414284 11774 net.cpp:137] Memory required for data: 137324548
I0226 09:30:31.414288 11774 layer_factory.hpp:77] Creating layer conv2_0/x1/bn
I0226 09:30:31.414295 11774 net.cpp:84] Creating Layer conv2_0/x1/bn
I0226 09:30:31.414299 11774 net.cpp:406] conv2_0/x1/bn <- pool1_pool1_0_split_0
I0226 09:30:31.414306 11774 net.cpp:380] conv2_0/x1/bn -> conv2_0/x1/bn
I0226 09:30:31.414556 11774 net.cpp:122] Setting up conv2_0/x1/bn
I0226 09:30:31.414563 11774 net.cpp:129] Top shape: 1 256 10 13 (33280)
I0226 09:30:31.414566 11774 net.cpp:137] Memory required for data: 137457668
I0226 09:30:31.414574 11774 layer_factory.hpp:77] Creating layer conv2_0/x1/scale
I0226 09:30:31.414582 11774 net.cpp:84] Creating Layer conv2_0/x1/scale
I0226 09:30:31.414585 11774 net.cpp:406] conv2_0/x1/scale <- conv2_0/x1/bn
I0226 09:30:31.414589 11774 net.cpp:367] conv2_0/x1/scale -> conv2_0/x1/bn (in-place)
I0226 09:30:31.414638 11774 layer_factory.hpp:77] Creating layer conv2_0/x1/scale
I0226 09:30:31.414768 11774 net.cpp:122] Setting up conv2_0/x1/scale
I0226 09:30:31.414774 11774 net.cpp:129] Top shape: 1 256 10 13 (33280)
I0226 09:30:31.414777 11774 net.cpp:137] Memory required for data: 137590788
I0226 09:30:31.414783 11774 layer_factory.hpp:77] Creating layer relu2_0/x1
I0226 09:30:31.414791 11774 net.cpp:84] Creating Layer relu2_0/x1
I0226 09:30:31.414795 11774 net.cpp:406] relu2_0/x1 <- conv2_0/x1/bn
I0226 09:30:31.414799 11774 net.cpp:367] relu2_0/x1 -> conv2_0/x1/bn (in-place)
I0226 09:30:31.415019 11774 net.cpp:122] Setting up relu2_0/x1
I0226 09:30:31.415027 11774 net.cpp:129] Top shape: 1 256 10 13 (33280)
I0226 09:30:31.415035 11774 net.cpp:137] Memory required for data: 137723908
I0226 09:30:31.415038 11774 layer_factory.hpp:77] Creating layer conv2_0/x1
I0226 09:30:31.415050 11774 net.cpp:84] Creating Layer conv2_0/x1
I0226 09:30:31.415053 11774 net.cpp:406] conv2_0/x1 <- conv2_0/x1/bn
I0226 09:30:31.415061 11774 net.cpp:380] conv2_0/x1 -> conv2_0/x1
I0226 09:30:31.417711 11774 net.cpp:122] Setting up conv2_0/x1
I0226 09:30:31.417726 11774 net.cpp:129] Top shape: 1 128 10 13 (16640)
I0226 09:30:31.417728 11774 net.cpp:137] Memory required for data: 137790468
I0226 09:30:31.417735 11774 layer_factory.hpp:77] Creating layer conv2_0/x2/bn
I0226 09:30:31.417744 11774 net.cpp:84] Creating Layer conv2_0/x2/bn
I0226 09:30:31.417749 11774 net.cpp:406] conv2_0/x2/bn <- conv2_0/x1
I0226 09:30:31.417755 11774 net.cpp:380] conv2_0/x2/bn -> conv2_0/x2/bn
I0226 09:30:31.418018 11774 net.cpp:122] Setting up conv2_0/x2/bn
I0226 09:30:31.418025 11774 net.cpp:129] Top shape: 1 128 10 13 (16640)
I0226 09:30:31.418028 11774 net.cpp:137] Memory required for data: 137857028
I0226 09:30:31.418035 11774 layer_factory.hpp:77] Creating layer conv2_0/x2/scale
I0226 09:30:31.418045 11774 net.cpp:84] Creating Layer conv2_0/x2/scale
I0226 09:30:31.418048 11774 net.cpp:406] conv2_0/x2/scale <- conv2_0/x2/bn
I0226 09:30:31.418053 11774 net.cpp:367] conv2_0/x2/scale -> conv2_0/x2/bn (in-place)
I0226 09:30:31.418099 11774 layer_factory.hpp:77] Creating layer conv2_0/x2/scale
I0226 09:30:31.418231 11774 net.cpp:122] Setting up conv2_0/x2/scale
I0226 09:30:31.418237 11774 net.cpp:129] Top shape: 1 128 10 13 (16640)
I0226 09:30:31.418241 11774 net.cpp:137] Memory required for data: 137923588
I0226 09:30:31.418246 11774 layer_factory.hpp:77] Creating layer relu2_0/x2
I0226 09:30:31.418254 11774 net.cpp:84] Creating Layer relu2_0/x2
I0226 09:30:31.418257 11774 net.cpp:406] relu2_0/x2 <- conv2_0/x2/bn
I0226 09:30:31.418262 11774 net.cpp:367] relu2_0/x2 -> conv2_0/x2/bn (in-place)
I0226 09:30:31.418479 11774 net.cpp:122] Setting up relu2_0/x2
I0226 09:30:31.418488 11774 net.cpp:129] Top shape: 1 128 10 13 (16640)
I0226 09:30:31.418491 11774 net.cpp:137] Memory required for data: 137990148
I0226 09:30:31.418494 11774 layer_factory.hpp:77] Creating layer conv2_0/x2
I0226 09:30:31.418506 11774 net.cpp:84] Creating Layer conv2_0/x2
I0226 09:30:31.418510 11774 net.cpp:406] conv2_0/x2 <- conv2_0/x2/bn
I0226 09:30:31.418516 11774 net.cpp:380] conv2_0/x2 -> conv2_0/x2
I0226 09:30:31.422124 11774 net.cpp:122] Setting up conv2_0/x2
I0226 09:30:31.422138 11774 net.cpp:129] Top shape: 1 32 10 13 (4160)
I0226 09:30:31.422142 11774 net.cpp:137] Memory required for data: 138006788
I0226 09:30:31.422148 11774 layer_factory.hpp:77] Creating layer concat2_0
I0226 09:30:31.422157 11774 net.cpp:84] Creating Layer concat2_0
I0226 09:30:31.422160 11774 net.cpp:406] concat2_0 <- pool1_pool1_0_split_1
I0226 09:30:31.422165 11774 net.cpp:406] concat2_0 <- conv2_0/x2
I0226 09:30:31.422173 11774 net.cpp:380] concat2_0 -> concat2_0
I0226 09:30:31.422210 11774 net.cpp:122] Setting up concat2_0
I0226 09:30:31.422216 11774 net.cpp:129] Top shape: 1 288 10 13 (37440)
I0226 09:30:31.422219 11774 net.cpp:137] Memory required for data: 138156548
I0226 09:30:31.422222 11774 layer_factory.hpp:77] Creating layer concat2_0_concat2_0_0_split
I0226 09:30:31.422230 11774 net.cpp:84] Creating Layer concat2_0_concat2_0_0_split
I0226 09:30:31.422235 11774 net.cpp:406] concat2_0_concat2_0_0_split <- concat2_0
I0226 09:30:31.422240 11774 net.cpp:380] concat2_0_concat2_0_0_split -> concat2_0_concat2_0_0_split_0
I0226 09:30:31.422247 11774 net.cpp:380] concat2_0_concat2_0_0_split -> concat2_0_concat2_0_0_split_1
I0226 09:30:31.422292 11774 net.cpp:122] Setting up concat2_0_concat2_0_0_split
I0226 09:30:31.422298 11774 net.cpp:129] Top shape: 1 288 10 13 (37440)
I0226 09:30:31.422302 11774 net.cpp:129] Top shape: 1 288 10 13 (37440)
I0226 09:30:31.422305 11774 net.cpp:137] Memory required for data: 138456068
I0226 09:30:31.422308 11774 layer_factory.hpp:77] Creating layer conv2_1/x1/bn
I0226 09:30:31.422320 11774 net.cpp:84] Creating Layer conv2_1/x1/bn
I0226 09:30:31.422324 11774 net.cpp:406] conv2_1/x1/bn <- concat2_0_concat2_0_0_split_0
I0226 09:30:31.422329 11774 net.cpp:380] conv2_1/x1/bn -> conv2_1/x1/bn
I0226 09:30:31.422602 11774 net.cpp:122] Setting up conv2_1/x1/bn
I0226 09:30:31.422610 11774 net.cpp:129] Top shape: 1 288 10 13 (37440)
I0226 09:30:31.422613 11774 net.cpp:137] Memory required for data: 138605828
I0226 09:30:31.422621 11774 layer_factory.hpp:77] Creating layer conv2_1/x1/scale
I0226 09:30:31.422629 11774 net.cpp:84] Creating Layer conv2_1/x1/scale
I0226 09:30:31.422633 11774 net.cpp:406] conv2_1/x1/scale <- conv2_1/x1/bn
I0226 09:30:31.422638 11774 net.cpp:367] conv2_1/x1/scale -> conv2_1/x1/bn (in-place)
I0226 09:30:31.422693 11774 layer_factory.hpp:77] Creating layer conv2_1/x1/scale
I0226 09:30:31.422839 11774 net.cpp:122] Setting up conv2_1/x1/scale
I0226 09:30:31.422845 11774 net.cpp:129] Top shape: 1 288 10 13 (37440)
I0226 09:30:31.422848 11774 net.cpp:137] Memory required for data: 138755588
I0226 09:30:31.422854 11774 layer_factory.hpp:77] Creating layer relu2_1/x1
I0226 09:30:31.422863 11774 net.cpp:84] Creating Layer relu2_1/x1
I0226 09:30:31.422866 11774 net.cpp:406] relu2_1/x1 <- conv2_1/x1/bn
I0226 09:30:31.422871 11774 net.cpp:367] relu2_1/x1 -> conv2_1/x1/bn (in-place)
I0226 09:30:31.423862 11774 net.cpp:122] Setting up relu2_1/x1
I0226 09:30:31.423876 11774 net.cpp:129] Top shape: 1 288 10 13 (37440)
I0226 09:30:31.423878 11774 net.cpp:137] Memory required for data: 138905348
I0226 09:30:31.423882 11774 layer_factory.hpp:77] Creating layer conv2_1/x1
I0226 09:30:31.423894 11774 net.cpp:84] Creating Layer conv2_1/x1
I0226 09:30:31.423898 11774 net.cpp:406] conv2_1/x1 <- conv2_1/x1/bn
I0226 09:30:31.423905 11774 net.cpp:380] conv2_1/x1 -> conv2_1/x1
I0226 09:30:31.426677 11774 net.cpp:122] Setting up conv2_1/x1
I0226 09:30:31.426692 11774 net.cpp:129] Top shape: 1 128 10 13 (16640)
I0226 09:30:31.426697 11774 net.cpp:137] Memory required for data: 138971908
I0226 09:30:31.426702 11774 layer_factory.hpp:77] Creating layer conv2_1/x2/bn
I0226 09:30:31.426710 11774 net.cpp:84] Creating Layer conv2_1/x2/bn
I0226 09:30:31.426714 11774 net.cpp:406] conv2_1/x2/bn <- conv2_1/x1
I0226 09:30:31.426723 11774 net.cpp:380] conv2_1/x2/bn -> conv2_1/x2/bn
I0226 09:30:31.426987 11774 net.cpp:122] Setting up conv2_1/x2/bn
I0226 09:30:31.426995 11774 net.cpp:129] Top shape: 1 128 10 13 (16640)
I0226 09:30:31.426996 11774 net.cpp:137] Memory required for data: 139038468
I0226 09:30:31.427004 11774 layer_factory.hpp:77] Creating layer conv2_1/x2/scale
I0226 09:30:31.427011 11774 net.cpp:84] Creating Layer conv2_1/x2/scale
I0226 09:30:31.427016 11774 net.cpp:406] conv2_1/x2/scale <- conv2_1/x2/bn
I0226 09:30:31.427022 11774 net.cpp:367] conv2_1/x2/scale -> conv2_1/x2/bn (in-place)
I0226 09:30:31.427068 11774 layer_factory.hpp:77] Creating layer conv2_1/x2/scale
I0226 09:30:31.427202 11774 net.cpp:122] Setting up conv2_1/x2/scale
I0226 09:30:31.427208 11774 net.cpp:129] Top shape: 1 128 10 13 (16640)
I0226 09:30:31.427211 11774 net.cpp:137] Memory required for data: 139105028
I0226 09:30:31.427233 11774 layer_factory.hpp:77] Creating layer relu2_1/x2
I0226 09:30:31.427240 11774 net.cpp:84] Creating Layer relu2_1/x2
I0226 09:30:31.427244 11774 net.cpp:406] relu2_1/x2 <- conv2_1/x2/bn
I0226 09:30:31.427248 11774 net.cpp:367] relu2_1/x2 -> conv2_1/x2/bn (in-place)
I0226 09:30:31.427474 11774 net.cpp:122] Setting up relu2_1/x2
I0226 09:30:31.427481 11774 net.cpp:129] Top shape: 1 128 10 13 (16640)
I0226 09:30:31.427484 11774 net.cpp:137] Memory required for data: 139171588
I0226 09:30:31.427489 11774 layer_factory.hpp:77] Creating layer conv2_1/x2
I0226 09:30:31.427500 11774 net.cpp:84] Creating Layer conv2_1/x2
I0226 09:30:31.427503 11774 net.cpp:406] conv2_1/x2 <- conv2_1/x2/bn
I0226 09:30:31.427511 11774 net.cpp:380] conv2_1/x2 -> conv2_1/x2
I0226 09:30:31.431793 11774 net.cpp:122] Setting up conv2_1/x2
I0226 09:30:31.431808 11774 net.cpp:129] Top shape: 1 32 10 13 (4160)
I0226 09:30:31.431812 11774 net.cpp:137] Memory required for data: 139188228
I0226 09:30:31.431821 11774 layer_factory.hpp:77] Creating layer concat2_1
I0226 09:30:31.431831 11774 net.cpp:84] Creating Layer concat2_1
I0226 09:30:31.431836 11774 net.cpp:406] concat2_1 <- concat2_0_concat2_0_0_split_1
I0226 09:30:31.431841 11774 net.cpp:406] concat2_1 <- conv2_1/x2
I0226 09:30:31.431848 11774 net.cpp:380] concat2_1 -> concat2_1
I0226 09:30:31.431884 11774 net.cpp:122] Setting up concat2_1
I0226 09:30:31.431890 11774 net.cpp:129] Top shape: 1 320 10 13 (41600)
…
I0226 09:30:33.396008 11774 net.cpp:129] Top shape: 1 128 3 3 (1152)
I0226 09:30:33.396011 11774 net.cpp:137] Memory required for data: 57810272
I0226 09:30:33.396015 11774 layer_factory.hpp:77] Creating layer conv3_7/x2
I0226 09:30:33.396028 11774 net.cpp:84] Creating Layer conv3_7/x2
I0226 09:30:33.396033 11774 net.cpp:406] conv3_7/x2 <- conv3_7/x2/bn
I0226 09:30:33.396039 11774 net.cpp:380] conv3_7/x2 -> conv3_7/x2
I0226 09:30:33.399425 11774 net.cpp:122] Setting up conv3_7/x2
I0226 09:30:33.399441 11774 net.cpp:129] Top shape: 1 32 3 3 (288)
I0226 09:30:33.399444 11774 net.cpp:137] Memory required for data: 57811424
I0226 09:30:33.399451 11774 layer_factory.hpp:77] Creating layer concat3_7
I0226 09:30:33.399459 11774 net.cpp:84] Creating Layer concat3_7
I0226 09:30:33.399466 11774 net.cpp:406] concat3_7 <- concat3_6_concat3_6_0_split_1
I0226 09:30:33.399471 11774 net.cpp:406] concat3_7 <- conv3_7/x2
I0226 09:30:33.399479 11774 net.cpp:380] concat3_7 -> concat3_7
I0226 09:30:33.399514 11774 net.cpp:122] Setting up concat3_7
I0226 09:30:33.399520 11774 net.cpp:129] Top shape: 1 768 3 3 (6912)
I0226 09:30:33.399524 11774 net.cpp:137] Memory required for data: 57839072
I0226 09:30:33.399528 11774 layer_factory.hpp:77] Creating layer concat3_7_concat3_7_0_split
I0226 09:30:33.399536 11774 net.cpp:84] Creating Layer concat3_7_concat3_7_0_split
I0226 09:30:33.399540 11774 net.cpp:406] concat3_7_concat3_7_0_split <- concat3_7
I0226 09:30:33.399546 11774 net.cpp:380] concat3_7_concat3_7_0_split -> concat3_7_concat3_7_0_split_0
I0226 09:30:33.399554 11774 net.cpp:380] concat3_7_concat3_7_0_split -> concat3_7_concat3_7_0_split_1
I0226 09:30:33.399601 11774 net.cpp:122] Setting up concat3_7_concat3_7_0_split
I0226 09:30:33.399607 11774 net.cpp:129] Top shape: 1 768 3 3 (6912)
I0226 09:30:33.399611 11774 net.cpp:129] Top shape: 1 768 3 3 (6912)
I0226 09:30:33.399615 11774 net.cpp:137] Memory required for data: 57894368
I0226 09:30:33.399618 11774 layer_factory.hpp:77] Creating layer conv3_8/x1/bn
I0226 09:30:33.399626 11774 net.cpp:84] Creating Layer conv3_8/x1/bn
I0226 09:30:33.399631 11774 net.cpp:406] conv3_8/x1/bn <- concat3_7_concat3_7_0_split_0
I0226 09:30:33.399636 11774 net.cpp:380] conv3_8/x1/bn -> conv3_8/x1/bn
I0226 09:30:33.399963 11774 net.cpp:122] Setting up conv3_8/x1/bn
I0226 09:30:33.399971 11774 net.cpp:129] Top shape: 1 768 3 3 (6912)
I0226 09:30:33.399974 11774 net.cpp:137] Memory required for data: 57922016
I0226 09:30:33.399983 11774 layer_factory.hpp:77] Creating layer conv3_8/x1/scale
I0226 09:30:33.399993 11774 net.cpp:84] Creating Layer conv3_8/x1/scale
I0226 09:30:33.399998 11774 net.cpp:406] conv3_8/x1/scale <- conv3_8/x1/bn
I0226 09:30:33.400003 11774 net.cpp:367] conv3_8/x1/scale -> conv3_8/x1/bn (in-place)
I0226 09:30:33.400077 11774 layer_factory.hpp:77] Creating layer conv3_8/x1/scale
I0226 09:30:33.400257 11774 net.cpp:122] Setting up conv3_8/x1/scale
I0226 09:30:33.400265 11774 net.cpp:129] Top shape: 1 768 3 3 (6912)
I0226 09:30:33.400269 11774 net.cpp:137] Memory required for data: 57949664
I0226 09:30:33.400275 11774 layer_factory.hpp:77] Creating layer relu3_8/x1
I0226 09:30:33.400285 11774 net.cpp:84] Creating Layer relu3_8/x1
I0226 09:30:33.400288 11774 net.cpp:406] relu3_8/x1 <- conv3_8/x1/bn
I0226 09:30:33.400293 11774 net.cpp:367] relu3_8/x1 -> conv3_8/x1/bn (in-place)
I0226 09:30:33.401554 11774 net.cpp:122] Setting up relu3_8/x1
I0226 09:30:33.401569 11774 net.cpp:129] Top shape: 1 768 3 3 (6912)
I0226 09:30:33.401573 11774 net.cpp:137] Memory required for data: 57977312
I0226 09:30:33.401577 11774 layer_factory.hpp:77] Creating layer conv3_8/x1
I0226 09:30:33.401595 11774 net.cpp:84] Creating Layer conv3_8/x1
I0226 09:30:33.401600 11774 net.cpp:406] conv3_8/x1 <- conv3_8/x1/bn
I0226 09:30:33.401608 11774 net.cpp:380] conv3_8/x1 -> conv3_8/x1
I0226 09:30:33.407009 11774 net.cpp:122] Setting up conv3_8/x1
I0226 09:30:33.407028 11774 net.cpp:129] Top shape: 1 128 3 3 (1152)
I0226 09:30:33.407032 11774 net.cpp:137] Memory required for data: 57981920
I0226 09:30:33.407039 11774 layer_factory.hpp:77] Creating layer conv3_8/x2/bn
I0226 09:30:33.407050 11774 net.cpp:84] Creating Layer conv3_8/x2/bn
I0226 09:30:33.407055 11774 net.cpp:406] conv3_8/x2/bn <- conv3_8/x1
I0226 09:30:33.407063 11774 net.cpp:380] conv3_8/x2/bn -> conv3_8/x2/bn
I0226 09:30:33.407340 11774 net.cpp:122] Setting up conv3_8/x2/bn
I0226 09:30:33.407346 11774 net.cpp:129] Top shape: 1 128 3 3 (1152)
I0226 09:30:33.407351 11774 net.cpp:137] Memory required for data: 57986528
I0226 09:30:33.407358 11774 layer_factory.hpp:77] Creating layer conv3_8/x2/scale
I0226 09:30:33.407366 11774 net.cpp:84] Creating Layer conv3_8/x2/scale
I0226 09:30:33.407371 11774 net.cpp:406] conv3_8/x2/scale <- conv3_8/x2/bn
I0226 09:30:33.407378 11774 net.cpp:367] conv3_8/x2/scale -> conv3_8/x2/bn (in-place)
I0226 09:30:33.407426 11774 layer_factory.hpp:77] Creating layer conv3_8/x2/scale
I0226 09:30:33.407565 11774 net.cpp:122] Setting up conv3_8/x2/scale
I0226 09:30:33.407574 11774 net.cpp:129] Top shape: 1 128 3 3 (1152)
I0226 09:30:33.407578 11774 net.cpp:137] Memory required for data: 57991136
I0226 09:30:33.407585 11774 layer_factory.hpp:77] Creating layer relu3_8/x2
I0226 09:30:33.407591 11774 net.cpp:84] Creating Layer relu3_8/x2
I0226 09:30:33.407595 11774 net.cpp:406] relu3_8/x2 <- conv3_8/x2/bn
I0226 09:30:33.407600 11774 net.cpp:367] relu3_8/x2 -> conv3_8/x2/bn (in-place)
I0226 09:30:33.407917 11774 net.cpp:122] Setting up relu3_8/x2
I0226 09:30:33.407927 11774 net.cpp:129] Top shape: 1 128 3 3 (1152)
I0226 09:30:33.407932 11774 net.cpp:137] Memory required for data: 57995744
I0226 09:30:33.407935 11774 layer_factory.hpp:77] Creating layer conv3_8/x2
I0226 09:30:33.407949 11774 net.cpp:84] Creating Layer conv3_8/x2
I0226 09:30:33.407954 11774 net.cpp:406] conv3_8/x2 <- conv3_8/x2/bn
I0226 09:30:33.407961 11774 net.cpp:380] conv3_8/x2 -> conv3_8/x2
I0226 09:30:33.412318 11774 net.cpp:122] Setting up conv3_8/x2
I0226 09:30:33.412334 11774 net.cpp:129] Top shape: 1 32 3 3 (288)
I0226 09:30:33.412338 11774 net.cpp:137] Memory required for data: 57996896
I0226 09:30:33.412345 11774 layer_factory.hpp:77] Creating layer concat3_8
I0226 09:30:33.412354 11774 net.cpp:84] Creating Layer concat3_8
I0226 09:30:33.412359 11774 net.cpp:406] concat3_8 <- concat3_7_concat3_7_0_split_1
I0226 09:30:33.412365 11774 net.cpp:406] concat3_8 <- conv3_8/x2
I0226 09:30:33.412374 11774 net.cpp:380] concat3_8 -> concat3_8
I0226 09:30:33.412413 11774 net.cpp:122] Setting up concat3_8
I0226 09:30:33.412422 11774 net.cpp:129] Top shape: 1 800 3 3 (7200)
I0226 09:30:33.412425 11774 net.cpp:137] Memory required for data: 58025696
I0226 09:30:33.412430 11774 layer_factory.hpp:77] Creating layer concat3_8_concat3_8_0_split
I0226 09:30:33.412436 11774 net.cpp:84] Creating Layer concat3_8_concat3_8_0_split
I0226 09:30:33.412439 11774 net.cpp:406] concat3_8_concat3_8_0_split <- concat3_8
I0226 09:30:33.412446 11774 net.cpp:380] concat3_8_concat3_8_0_split -> concat3_8_concat3_8_0_split_0
I0226 09:30:33.412452 11774 net.cpp:380] concat3_8_concat3_8_0_split -> concat3_8_concat3_8_0_split_1
I0226 09:30:33.412503 11774 net.cpp:122] Setting up concat3_8_concat3_8_0_split
I0226 09:30:33.412508 11774 net.cpp:129] Top shape: 1 800 3 3 (7200)
I0226 09:30:33.412513 11774 net.cpp:129] Top shape: 1 800 3 3 (7200)
I0226 09:30:33.412516 11774 net.cpp:137] Memory required for data: 58083296
I0226 09:30:33.412519 11774 layer_factory.hpp:77] Creating layer conv3_9/x1/bn
I0226 09:30:33.412528 11774 net.cpp:84] Creating Layer conv3_9/x1/bn
I0226 09:30:33.412533 11774 net.cpp:406] conv3_9/x1/bn <- concat3_8_concat3_8_0_split_0
I0226 09:30:33.412537 11774 net.cpp:380] conv3_9/x1/bn -> conv3_9/x1/bn
I0226 09:30:33.412889 11774 net.cpp:122] Setting up conv3_9/x1/bn
I0226 09:30:33.412896 11774 net.cpp:129] Top shape: 1 800 3 3 (7200)
I0226 09:30:33.412900 11774 net.cpp:137] Memory required for data: 58112096
I0226 09:30:33.412909 11774 layer_factory.hpp:77] Creating layer conv3_9/x1/scale
I0226 09:30:33.412921 11774 net.cpp:84] Creating Layer conv3_9/x1/scale
I0226 09:30:33.412926 11774 net.cpp:406] conv3_9/x1/scale <- conv3_9/x1/bn
I0226 09:30:33.412932 11774 net.cpp:367] conv3_9/x1/scale -> conv3_9/x1/bn (in-place)
I0226 09:30:33.413022 11774 layer_factory.hpp:77] Creating layer conv3_9/x1/scale
I0226 09:30:33.413211 11774 net.cpp:122] Setting up conv3_9/x1/scale
I0226 09:30:33.413219 11774 net.cpp:129] Top shape: 1 800 3 3 (7200)
I0226 09:30:33.413223 11774 net.cpp:137] Memory required for data: 58140896
I0226 09:30:33.413230 11774 layer_factory.hpp:77] Creating layer relu3_9/x1
I0226 09:30:33.413239 11774 net.cpp:84] Creating Layer relu3_9/x1
I0226 09:30:33.413244 11774 net.cpp:406] relu3_9/x1 <- conv3_9/x1/bn
I0226 09:30:33.413249 11774 net.cpp:367] relu3_9/x1 -> conv3_9/x1/bn (in-place)
I0226 09:30:33.413575 11774 net.cpp:122] Setting up relu3_9/x1
I0226 09:30:33.413584 11774 net.cpp:129] Top shape: 1 800 3 3 (7200)
I0226 09:30:33.413589 11774 net.cpp:137] Memory required for data: 58169696
I0226 09:30:33.413592 11774 layer_factory.hpp:77] Creating layer conv3_9/x1
I0226 09:30:33.413611 11774 net.cpp:84] Creating Layer conv3_9/x1
I0226 09:30:33.413616 11774 net.cpp:406] conv3_9/x1 <- conv3_9/x1/bn
I0226 09:30:33.413624 11774 net.cpp:380] conv3_9/x1 -> conv3_9/x1
I0226 09:30:33.420773 11774 net.cpp:122] Setting up conv3_9/x1
I0226 09:30:33.420789 11774 net.cpp:129] Top shape: 1 128 3 3 (1152)
I0226 09:30:33.420794 11774 net.cpp:137] Memory required for data: 58174304
I0226 09:30:33.420800 11774 layer_factory.hpp:77] Creating layer conv3_9/x2/bn
I0226 09:30:33.420810 11774 net.cpp:84] Creating Layer conv3_9/x2/bn
I0226 09:30:33.420815 11774 net.cpp:406] conv3_9/x2/bn <- conv3_9/x1
I0226 09:30:33.420825 11774 net.cpp:380] conv3_9/x2/bn -> conv3_9/x2/bn
I0226 09:30:33.421110 11774 net.cpp:122] Setting up conv3_9/x2/bn
I0226 09:30:33.421118 11774 net.cpp:129] Top shape: 1 128 3 3 (1152)
I0226 09:30:33.421121 11774 net.cpp:137] Memory required for data: 58178912
I0226 09:30:33.421129 11774 layer_factory.hpp:77] Creating layer conv3_9/x2/scale
I0226 09:30:33.421138 11774 net.cpp:84] Creating Layer conv3_9/x2/scale
I0226 09:30:33.421142 11774 net.cpp:406] conv3_9/x2/scale <- conv3_9/x2/bn
I0226 09:30:33.421147 11774 net.cpp:367] conv3_9/x2/scale -> conv3_9/x2/bn (in-place)
I0226 09:30:33.421198 11774 layer_factory.hpp:77] Creating layer conv3_9/x2/scale
I0226 09:30:33.421339 11774 net.cpp:122] Setting up conv3_9/x2/scale
I0226 09:30:33.421346 11774 net.cpp:129] Top shape: 1 128 3 3 (1152)
I0226 09:30:33.421350 11774 net.cpp:137] Memory required for data: 58183520
I0226 09:30:33.421356 11774 layer_factory.hpp:77] Creating layer relu3_9/x2
I0226 09:30:33.421367 11774 net.cpp:84] Creating Layer relu3_9/x2
I0226 09:30:33.421371 11774 net.cpp:406] relu3_9/x2 <- conv3_9/x2/bn
I0226 09:30:33.421377 11774 net.cpp:367] relu3_9/x2 -> conv3_9/x2/bn (in-place)
I0226 09:30:33.422631 11774 net.cpp:122] Setting up relu3_9/x2
I0226 09:30:33.422646 11774 net.cpp:129] Top shape: 1 128 3 3 (1152)
I0226 09:30:33.422650 11774 net.cpp:137] Memory required for data: 58188128
I0226 09:30:33.422654 11774 layer_factory.hpp:77] Creating layer conv3_9/x2
I0226 09:30:33.422670 11774 net.cpp:84] Creating Layer conv3_9/x2
I0226 09:30:33.422675 11774 net.cpp:406] conv3_9/x2 <- conv3_9/x2/bn
I0226 09:30:33.422683 11774 net.cpp:380] conv3_9/x2 -> conv3_9/x2
I0226 09:30:33.426041 11774 net.cpp:122] Setting up conv3_9/x2
I0226 09:30:33.426057 11774 net.cpp:129] Top shape: 1 32 3 3 (288)
I0226 09:30:33.426061 11774 net.cpp:137] Memory required for data: 58189280
I0226 09:30:33.426067 11774 layer_factory.hpp:77] Creating layer concat3_9
I0226 09:30:33.426076 11774 net.cpp:84] Creating Layer concat3_9
I0226 09:30:33.426081 11774 net.cpp:406] concat3_9 <- concat3_8_concat3_8_0_split_1
I0226 09:30:33.426089 11774 net.cpp:406] concat3_9 <- conv3_9/x2
I0226 09:30:33.426097 11774 net.cpp:380] concat3_9 -> concat3_9
I0226 09:30:33.426132 11774 net.cpp:122] Setting up concat3_9
I0226 09:30:33.426139 11774 net.cpp:129] Top shape: 1 832 3 3 (7488)
I0226 09:30:33.426146 11774 net.cpp:137] Memory required for data: 58219232
I0226 09:30:33.426151 11774 layer_factory.hpp:77] Creating layer concat3_9_concat3_9_0_split
I0226 09:30:33.426159 11774 net.cpp:84] Creating Layer concat3_9_concat3_9_0_split
I0226 09:30:33.426163 11774 net.cpp:406] concat3_9_concat3_9_0_split <- concat3_9
I0226 09:30:33.426169 11774 net.cpp:380] concat3_9_concat3_9_0_split -> concat3_9_concat3_9_0_split_0
I0226 09:30:33.426178 11774 net.cpp:380] concat3_9_concat3_9_0_split -> concat3_9_concat3_9_0_split_1
I0226 09:30:33.426228 11774 net.cpp:122] Setting up concat3_9_concat3_9_0_split
I0226 09:30:33.426234 11774 net.cpp:129] Top shape: 1 832 3 3 (7488)
I0226 09:30:33.426237 11774 net.cpp:129] Top shape: 1 832 3 3 (7488)
I0226 09:30:33.426241 11774 net.cpp:137] Memory required for data: 58279136
I0226 09:30:33.426244 11774 layer_factory.hpp:77] Creating layer conv3_10/x1/bn
I0226 09:30:33.426254 11774 net.cpp:84] Creating Layer conv3_10/x1/bn
I0226 09:30:33.426257 11774 net.cpp:406] conv3_10/x1/bn <- concat3_9_concat3_9_0_split_0
I0226 09:30:33.426264 11774 net.cpp:380] conv3_10/x1/bn -> conv3_10/x1/bn
I0226 09:30:33.426610 11774 net.cpp:122] Setting up conv3_10/x1/bn
I0226 09:30:33.426618 11774 net.cpp:129] Top shape: 1 832 3 3 (7488)
I0226 09:30:33.426621 11774 net.cpp:137] Memory required for data: 58309088
I0226 09:30:33.426630 11774 layer_factory.hpp:77] Creating layer conv3_10/x1/scale
I0226 09:30:33.426641 11774 net.cpp:84] Creating Layer conv3_10/x1/scale
I0226 09:30:33.426645 11774 net.cpp:406] conv3_10/x1/scale <- conv3_10/x1/bn
I0226 09:30:33.426651 11774 net.cpp:367] conv3_10/x1/scale -> conv3_10/x1/bn (in-place)
I0226 09:30:33.426736 11774 layer_factory.hpp:77] Creating layer conv3_10/x1/scale
I0226 09:30:33.426928 11774 net.cpp:122] Setting up conv3_10/x1/scale
I0226 09:30:33.426935 11774 net.cpp:129] Top shape: 1 832 3 3 (7488)
I0226 09:30:33.426939 11774 net.cpp:137] Memory required for data: 58339040
I0226 09:30:33.426946 11774 layer_factory.hpp:77] Creating layer relu3_10/x1
I0226 09:30:33.426955 11774 net.cpp:84] Creating Layer relu3_10/x1
I0226 09:30:33.426960 11774 net.cpp:406] relu3_10/x1 <- conv3_10/x1/bn
I0226 09:30:33.426964 11774 net.cpp:367] relu3_10/x1 -> conv3_10/x1/bn (in-place)
I0226 09:30:33.427279 11774 net.cpp:122] Setting up relu3_10/x1
I0226 09:30:33.427289 11774 net.cpp:129] Top shape: 1 832 3 3 (7488)
I0226 09:30:33.427294 11774 net.cpp:137] Memory required for data: 58368992
I0226 09:30:33.427297 11774 layer_factory.hpp:77] Creating layer conv3_10/x1
I0226 09:30:33.427309 11774 net.cpp:84] Creating Layer conv3_10/x1
I0226 09:30:33.427314 11774 net.cpp:406] conv3_10/x1 <- conv3_10/x1/bn
I0226 09:30:33.427323 11774 net.cpp:380] conv3_10/x1 -> conv3_10/x1
I0226 09:30:33.432996 11774 net.cpp:122] Setting up conv3_10/x1
I0226 09:30:33.433012 11774 net.cpp:129] Top shape: 1 128 3 3 (1152)
I0226 09:30:33.433017 11774 net.cpp:137] Memory required for data: 58373600
I0226 09:30:33.433030 11774 layer_factory.hpp:77] Creating layer conv3_10/x2/bn
I0226 09:30:33.433042 11774 net.cpp:84] Creating Layer conv3_10/x2/bn
I0226 09:30:33.433046 11774 net.cpp:406] conv3_10/x2/bn <- conv3_10/x1
I0226 09:30:33.433053 11774 net.cpp:380] conv3_10/x2/bn -> conv3_10/x2/bn
I0226 09:30:33.433331 11774 net.cpp:122] Setting up conv3_10/x2/bn
I0226 09:30:33.433339 11774 net.cpp:129] Top shape: 1 128 3 3 (1152)
I0226 09:30:33.433342 11774 net.cpp:137] Memory required for data: 58378208
I0226 09:30:33.433351 11774 layer_factory.hpp:77] Creating layer conv3_10/x2/scale
I0226 09:30:33.433364 11774 net.cpp:84] Creating Layer conv3_10/x2/scale
I0226 09:30:33.433369 11774 net.cpp:406] conv3_10/x2/scale <- conv3_10/x2/bn
I0226 09:30:33.433374 11774 net.cpp:367] conv3_10/x2/scale -> conv3_10/x2/bn (in-place)
I0226 09:30:33.433423 11774 layer_factory.hpp:77] Creating layer conv3_10/x2/scale
I0226 09:30:33.433564 11774 net.cpp:122] Setting up conv3_10/x2/scale
I0226 09:30:33.433571 11774 net.cpp:129] Top shape: 1 128 3 3 (1152)
I0226 09:30:33.433575 11774 net.cpp:137] Memory required for data: 58382816
I0226 09:30:33.433585 11774 layer_factory.hpp:77] Creating layer relu3_10/x2
I0226 09:30:33.433594 11774 net.cpp:84] Creating Layer relu3_10/x2
I0226 09:30:33.433599 11774 net.cpp:406] relu3_10/x2 <- conv3_10/x2/bn
I0226 09:30:33.433604 11774 net.cpp:367] relu3_10/x2 -> conv3_10/x2/bn (in-place)
I0226 09:30:33.433912 11774 net.cpp:122] Setting up relu3_10/x2
I0226 09:30:33.433923 11774 net.cpp:129] Top shape: 1 128 3 3 (1152)
I0226 09:30:33.433926 11774 net.cpp:137] Memory required for data: 58387424
I0226 09:30:33.433930 11774 layer_factory.hpp:77] Creating layer conv3_10/x2
I0226 09:30:33.433941 11774 net.cpp:84] Creating Layer conv3_10/x2
I0226 09:30:33.433945 11774 net.cpp:406] conv3_10/x2 <- conv3_10/x2/bn
I0226 09:30:33.433954 11774 net.cpp:380] conv3_10/x2 -> conv3_10/x2
I0226 09:30:33.441076 11774 net.cpp:122] Setting up conv3_10/x2
I0226 09:30:33.441093 11774 net.cpp:129] Top shape: 1 32 3 3 (288)
I0226 09:30:33.441097 11774 net.cpp:137] Memory required for data: 58388576
I0226 09:30:33.441104 11774 layer_factory.hpp:77] Creating layer concat3_10
I0226 09:30:33.441115 11774 net.cpp:84] Creating Layer concat3_10
I0226 09:30:33.441121 11774 net.cpp:406] concat3_10 <- concat3_9_concat3_9_0_split_1
I0226 09:30:33.441128 11774 net.cpp:406] concat3_10 <- conv3_10/x2
I0226 09:30:33.441134 11774 net.cpp:380] concat3_10 -> concat3_10
I0226 09:30:33.441174 11774 net.cpp:122] Setting up concat3_10
I0226 09:30:33.441181 11774 net.cpp:129] Top shape: 1 864 3 3 (7776)
I0226 09:30:33.441184 11774 net.cpp:137] Memory required for data: 58419680
I0226 09:30:33.441188 11774 layer_factory.hpp:77] Creating layer concat3_10_concat3_10_0_split
I0226 09:30:33.441197 11774 net.cpp:84] Creating Layer concat3_10_concat3_10_0_split
I0226 09:30:33.441202 11774 net.cpp:406] concat3_10_concat3_10_0_split <- concat3_10
I0226 09:30:33.441210 11774 net.cpp:380] concat3_10_concat3_10_0_split -> concat3_10_concat3_10_0_split_0
I0226 09:30:33.441216 11774 net.cpp:380] concat3_10_concat3_10_0_split -> concat3_10_concat3_10_0_split_1
I0226 09:30:33.441265 11774 net.cpp:122] Setting up concat3_10_concat3_10_0_split
I0226 09:30:33.441272 11774 net.cpp:129] Top shape: 1 864 3 3 (7776)
I0226 09:30:33.441275 11774 net.cpp:129] Top shape: 1 864 3 3 (7776)
I0226 09:30:33.441279 11774 net.cpp:137] Memory required for data: 58481888
I0226 09:30:33.441282 11774 layer_factory.hpp:77] Creating layer conv3_11/x1/bn
I0226 09:30:33.441292 11774 net.cpp:84] Creating Layer conv3_11/x1/bn
I0226 09:30:33.441295 11774 net.cpp:406] conv3_11/x1/bn <- concat3_10_concat3_10_0_split_0
I0226 09:30:33.441301 11774 net.cpp:380] conv3_11/x1/bn -> conv3_11/x1/bn
I0226 09:30:33.441653 11774 net.cpp:122] Setting up conv3_11/x1/bn
I0226 09:30:33.441661 11774 net.cpp:129] Top shape: 1 864 3 3 (7776)
I0226 09:30:33.441665 11774 net.cpp:137] Memory required for data: 58512992
I0226 09:30:33.441673 11774 layer_factory.hpp:77] Creating layer conv3_11/x1/scale
I0226 09:30:33.441684 11774 net.cpp:84] Creating Layer conv3_11/x1/scale
I0226 09:30:33.441689 11774 net.cpp:406] conv3_11/x1/scale <- conv3_11/x1/bn
I0226 09:30:33.441696 11774 net.cpp:367] conv3_11/x1/scale -> conv3_11/x1/bn (in-place)
I0226 09:30:33.441781 11774 layer_factory.hpp:77] Creating layer conv3_11/x1/scale
I0226 09:30:33.441977 11774 net.cpp:122] Setting up conv3_11/x1/scale
I0226 09:30:33.441984 11774 net.cpp:129] Top shape: 1 864 3 3 (7776)
I0226 09:30:33.441988 11774 net.cpp:137] Memory required for data: 58544096
I0226 09:30:33.441994 11774 layer_factory.hpp:77] Creating layer relu3_11/x1
I0226 09:30:33.442001 11774 net.cpp:84] Creating Layer relu3_11/x1
I0226 09:30:33.442005 11774 net.cpp:406] relu3_11/x1 <- conv3_11/x1/bn
I0226 09:30:33.442013 11774 net.cpp:367] relu3_11/x1 -> conv3_11/x1/bn (in-place)
I0226 09:30:33.443274 11774 net.cpp:122] Setting up relu3_11/x1
I0226 09:30:33.443289 11774 net.cpp:129] Top shape: 1 864 3 3 (7776)
I0226 09:30:33.443292 11774 net.cpp:137] Memory required for data: 58575200
I0226 09:30:33.443296 11774 layer_factory.hpp:77] Creating layer conv3_11/x1
I0226 09:30:33.443315 11774 net.cpp:84] Creating Layer conv3_11/x1
I0226 09:30:33.443320 11774 net.cpp:406] conv3_11/x1 <- conv3_11/x1/bn
I0226 09:30:33.443330 11774 net.cpp:380] conv3_11/x1 -> conv3_11/x1
I0226 09:30:33.449128 11774 net.cpp:122] Setting up conv3_11/x1
I0226 09:30:33.449144 11774 net.cpp:129] Top shape: 1 128 3 3 (1152)
I0226 09:30:33.449148 11774 net.cpp:137] Memory required for data: 58579808
I0226 09:30:33.449156 11774 layer_factory.hpp:77] Creating layer conv3_11/x2/bn
I0226 09:30:33.449165 11774 net.cpp:84] Creating Layer conv3_11/x2/bn
I0226 09:30:33.449170 11774 net.cpp:406] conv3_11/x2/bn <- conv3_11/x1
I0226 09:30:33.449177 11774 net.cpp:380] conv3_11/x2/bn -> conv3_11/x2/bn
I0226 09:30:33.449458 11774 net.cpp:122] Setting up conv3_11/x2/bn
I0226 09:30:33.449466 11774 net.cpp:129] Top shape: 1 128 3 3 (1152)
I0226 09:30:33.449470 11774 net.cpp:137] Memory required for data: 58584416
I0226 09:30:33.449477 11774 layer_factory.hpp:77] Creating layer conv3_11/x2/scale
I0226 09:30:33.449486 11774 net.cpp:84] Creating Layer conv3_11/x2/scale
I0226 09:30:33.449489 11774 net.cpp:406] conv3_11/x2/scale <- conv3_11/x2/bn
I0226 09:30:33.449497 11774 net.cpp:367] conv3_11/x2/scale -> conv3_11/x2/bn (in-place)
I0226 09:30:33.449546 11774 layer_factory.hpp:77] Creating layer conv3_11/x2/scale
I0226 09:30:33.449692 11774 net.cpp:122] Setting up conv3_11/x2/scale
I0226 09:30:33.449699 11774 net.cpp:129] Top shape: 1 128 3 3 (1152)
I0226 09:30:33.449703 11774 net.cpp:137] Memory required for data: 58589024
I0226 09:30:33.449709 11774 layer_factory.hpp:77] Creating layer relu3_11/x2
I0226 09:30:33.449717 11774 net.cpp:84] Creating Layer relu3_11/x2
I0226 09:30:33.449720 11774 net.cpp:406] relu3_11/x2 <- conv3_11/x2/bn
I0226 09:30:33.449725 11774 net.cpp:367] relu3_11/x2 -> conv3_11/x2/bn (in-place)
I0226 09:30:33.450048 11774 net.cpp:122] Setting up relu3_11/x2
I0226 09:30:33.450057 11774 net.cpp:129] Top shape: 1 128 3 3 (1152)
I0226 09:30:33.450062 11774 net.cpp:137] Memory required for data: 58593632
I0226 09:30:33.450065 11774 layer_factory.hpp:77] Creating layer conv3_11/x2
I0226 09:30:33.450078 11774 net.cpp:84] Creating Layer conv3_11/x2
I0226 09:30:33.450083 11774 net.cpp:406] conv3_11/x2 <- conv3_11/x2/bn
I0226 09:30:33.450090 11774 net.cpp:380] conv3_11/x2 -> conv3_11/x2
I0226 09:30:33.453462 11774 net.cpp:122] Setting up conv3_11/x2
I0226 09:30:33.453480 11774 net.cpp:129] Top shape: 1 32 3 3 (288)
I0226 09:30:33.453483 11774 net.cpp:137] Memory required for data: 58594784
I0226 09:30:33.453490 11774 layer_factory.hpp:77] Creating layer concat3_11
I0226 09:30:33.453498 11774 net.cpp:84] Creating Layer concat3_11
I0226 09:30:33.453503 11774 net.cpp:406] concat3_11 <- concat3_10_concat3_10_0_split_1
I0226 09:30:33.453510 11774 net.cpp:406] concat3_11 <- conv3_11/x2
I0226 09:30:33.453519 11774 net.cpp:380] concat3_11 -> concat3_11
I0226 09:30:33.453555 11774 net.cpp:122] Setting up concat3_11
I0226 09:30:33.453562 11774 net.cpp:129] Top shape: 1 896 3 3 (8064)
I0226 09:30:33.453565 11774 net.cpp:137] Memory required for data: 58627040
I0226 09:30:33.453568 11774 layer_factory.hpp:77] Creating layer concat3_11_concat3_11_0_split
I0226 09:30:33.453577 11774 net.cpp:84] Creating Layer concat3_11_concat3_11_0_split
I0226 09:30:33.453582 11774 net.cpp:406] concat3_11_concat3_11_0_split <- concat3_11
I0226 09:30:33.453586 11774 net.cpp:380] concat3_11_concat3_11_0_split -> concat3_11_concat3_11_0_split_0
I0226 09:30:33.453593 11774 net.cpp:380] concat3_11_concat3_11_0_split -> concat3_11_concat3_11_0_split_1
I0226 09:30:33.453644 11774 net.cpp:122] Setting up concat3_11_concat3_11_0_split
I0226 09:30:33.453650 11774 net.cpp:129] Top shape: 1 896 3 3 (8064)
I0226 09:30:33.453655 11774 net.cpp:129] Top shape: 1 896 3 3 (8064)
I0226 09:30:33.453658 11774 net.cpp:137] Memory required for data: 58691552
I0226 09:30:33.453661 11774 layer_factory.hpp:77] Creating layer conv3_12/x1/bn
I0226 09:30:33.453670 11774 net.cpp:84] Creating Layer conv3_12/x1/bn
I0226 09:30:33.453675 11774 net.cpp:406] conv3_12/x1/bn <- concat3_11_concat3_11_0_split_0
I0226 09:30:33.453685 11774 net.cpp:380] conv3_12/x1/bn -> conv3_12/x1/bn
I0226 09:30:33.454020 11774 net.cpp:122] Setting up conv3_12/x1/bn
I0226 09:30:33.454028 11774 net.cpp:129] Top shape: 1 896 3 3 (8064)
I0226 09:30:33.454031 11774 net.cpp:137] Memory required for data: 58723808
I0226 09:30:33.454041 11774 layer_factory.hpp:77] Creating layer conv3_12/x1/scale
I0226 09:30:33.454049 11774 net.cpp:84] Creating Layer conv3_12/x1/scale
I0226 09:30:33.454053 11774 net.cpp:406] conv3_12/x1/scale <- conv3_12/x1/bn
I0226 09:30:33.454061 11774 net.cpp:367] conv3_12/x1/scale -> conv3_12/x1/bn (in-place)
I0226 09:30:33.454138 11774 layer_factory.hpp:77] Creating layer conv3_12/x1/scale
I0226 09:30:33.454324 11774 net.cpp:122] Setting up conv3_12/x1/scale
I0226 09:30:33.454331 11774 net.cpp:129] Top shape: 1 896 3 3 (8064)
I0226 09:30:33.454334 11774 net.cpp:137] Memory required for data: 58756064
I0226 09:30:33.454341 11774 layer_factory.hpp:77] Creating layer relu3_12/x1
I0226 09:30:33.454349 11774 net.cpp:84] Creating Layer relu3_12/x1
I0226 09:30:33.454352 11774 net.cpp:406] relu3_12/x1 <- conv3_12/x1/bn
I0226 09:30:33.454357 11774 net.cpp:367] relu3_12/x1 -> conv3_12/x1/bn (in-place)
I0226 09:30:33.454680 11774 net.cpp:122] Setting up relu3_12/x1
I0226 09:30:33.454690 11774 net.cpp:129] Top shape: 1 896 3 3 (8064)
I0226 09:30:33.454694 11774 net.cpp:137] Memory required for data: 58788320
I0226 09:30:33.454699 11774 layer_factory.hpp:77] Creating layer conv3_12/x1
I0226 09:30:33.454710 11774 net.cpp:84] Creating Layer conv3_12/x1
I0226 09:30:33.454715 11774 net.cpp:406] conv3_12/x1 <- conv3_12/x1/bn
I0226 09:30:33.454723 11774 net.cpp:380] conv3_12/x1 -> conv3_12/x1
I0226 09:30:33.460664 11774 net.cpp:122] Setting up conv3_12/x1
I0226 09:30:33.460680 11774 net.cpp:129] Top shape: 1 128 3 3 (1152)
I0226 09:30:33.460683 11774 net.cpp:137] Memory required for data: 58792928
I0226 09:30:33.460690 11774 layer_factory.hpp:77] Creating layer conv3_12/x2/bn
I0226 09:30:33.460701 11774 net.cpp:84] Creating Layer conv3_12/x2/bn
I0226 09:30:33.460706 11774 net.cpp:406] conv3_12/x2/bn <- conv3_12/x1
I0226 09:30:33.460713 11774 net.cpp:380] conv3_12/x2/bn -> conv3_12/x2/bn
I0226 09:30:33.460999 11774 net.cpp:122] Setting up conv3_12/x2/bn
I0226 09:30:33.461006 11774 net.cpp:129] Top shape: 1 128 3 3 (1152)
I0226 09:30:33.461009 11774 net.cpp:137] Memory required for data: 58797536
I0226 09:30:33.461017 11774 layer_factory.hpp:77] Creating layer conv3_12/x2/scale
I0226 09:30:33.461025 11774 net.cpp:84] Creating Layer conv3_12/x2/scale
I0226 09:30:33.461030 11774 net.cpp:406] conv3_12/x2/scale <- conv3_12/x2/bn
I0226 09:30:33.461038 11774 net.cpp:367] conv3_12/x2/scale -> conv3_12/x2/bn (in-place)
I0226 09:30:33.461087 11774 layer_factory.hpp:77] Creating layer conv3_12/x2/scale
I0226 09:30:33.461228 11774 net.cpp:122] Setting up conv3_12/x2/scale
I0226 09:30:33.461237 11774 net.cpp:129] Top shape: 1 128 3 3 (1152)
I0226 09:30:33.461241 11774 net.cpp:137] Memory required for data: 58802144
I0226 09:30:33.461247 11774 layer_factory.hpp:77] Creating layer relu3_12/x2
I0226 09:30:33.461254 11774 net.cpp:84] Creating Layer relu3_12/x2
I0226 09:30:33.461258 11774 net.cpp:406] relu3_12/x2 <- conv3_12/x2/bn
I0226 09:30:33.461263 11774 net.cpp:367] relu3_12/x2 -> conv3_12/x2/bn (in-place)
I0226 09:30:33.461586 11774 net.cpp:122] Setting up relu3_12/x2
I0226 09:30:33.461596 11774 net.cpp:129] Top shape: 1 128 3 3 (1152)
I0226 09:30:33.461599 11774 net.cpp:137] Memory required for data: 58806752
I0226 09:30:33.461603 11774 layer_factory.hpp:77] Creating layer conv3_12/x2
I0226 09:30:33.461616 11774 net.cpp:84] Creating Layer conv3_12/x2
I0226 09:30:33.461621 11774 net.cpp:406] conv3_12/x2 <- conv3_12/x2/bn
I0226 09:30:33.461627 11774 net.cpp:380] conv3_12/x2 -> conv3_12/x2
I0226 09:30:33.465987 11774 net.cpp:122] Setting up conv3_12/x2
I0226 09:30:33.466003 11774 net.cpp:129] Top shape: 1 32 3 3 (288)
I0226 09:30:33.466008 11774 net.cpp:137] Memory required for data: 58807904
I0226 09:30:33.466014 11774 layer_factory.hpp:77] Creating layer concat3_12
I0226 09:30:33.466027 11774 net.cpp:84] Creating Layer concat3_12
I0226 09:30:33.466032 11774 net.cpp:406] concat3_12 <- concat3_11_concat3_11_0_split_1
I0226 09:30:33.466039 11774 net.cpp:406] concat3_12 <- conv3_12/x2
I0226 09:30:33.466048 11774 net.cpp:380] concat3_12 -> concat3_12
I0226 09:30:33.466090 11774 net.cpp:122] Setting up concat3_12
I0226 09:30:33.466097 11774 net.cpp:129] Top shape: 1 928 3 3 (8352)
I0226 09:30:33.466100 11774 net.cpp:137] Memory required for data: 58841312
I0226 09:30:33.466104 11774 layer_factory.hpp:77] Creating layer concat3_12_concat3_12_0_split
I0226 09:30:33.466109 11774 net.cpp:84] Creating Layer concat3_12_concat3_12_0_split
I0226 09:30:33.466114 11774 net.cpp:406] concat3_12_concat3_12_0_split <- concat3_12
I0226 09:30:33.466200 11774 net.cpp:380] concat3_12_concat3_12_0_split -> concat3_12_concat3_12_0_split_0
I0226 09:30:33.466209 11774 net.cpp:380] concat3_12_concat3_12_0_split -> concat3_12_concat3_12_0_split_1
I0226 09:30:33.466264 11774 net.cpp:122] Setting up concat3_12_concat3_12_0_split
I0226 09:30:33.466271 11774 net.cpp:129] Top shape: 1 928 3 3 (8352)
I0226 09:30:33.466276 11774 net.cpp:129] Top shape: 1 928 3 3 (8352)
I0226 09:30:33.466279 11774 net.cpp:137] Memory required for data: 58908128
I0226 09:30:33.466284 11774 layer_factory.hpp:77] Creating layer conv3_13/x1/bn
I0226 09:30:33.466292 11774 net.cpp:84] Creating Layer conv3_13/x1/bn
I0226 09:30:33.466296 11774 net.cpp:406] conv3_13/x1/bn <- concat3_12_concat3_12_0_split_0
I0226 09:30:33.466305 11774 net.cpp:380] conv3_13/x1/bn -> conv3_13/x1/bn
I0226 09:30:33.466684 11774 net.cpp:122] Setting up conv3_13/x1/bn
I0226 09:30:33.466693 11774 net.cpp:129] Top shape: 1 928 3 3 (8352)
I0226 09:30:33.466697 11774 net.cpp:137] Memory required for data: 58941536
I0226 09:30:33.466706 11774 layer_factory.hpp:77] Creating layer conv3_13/x1/scale
I0226 09:30:33.466714 11774 net.cpp:84] Creating Layer conv3_13/x1/scale
I0226 09:30:33.466719 11774 net.cpp:406] conv3_13/x1/scale <- conv3_13/x1/bn
I0226 09:30:33.466725 11774 net.cpp:367] conv3_13/x1/scale -> conv3_13/x1/bn (in-place)
I0226 09:30:33.466814 11774 layer_factory.hpp:77] Creating layer conv3_13/x1/scale
I0226 09:30:33.467010 11774 net.cpp:122] Setting up conv3_13/x1/scale
I0226 09:30:33.467020 11774 net.cpp:129] Top shape: 1 928 3 3 (8352)
I0226 09:30:33.467023 11774 net.cpp:137] Memory required for data: 58974944
I0226 09:30:33.467031 11774 layer_factory.hpp:77] Creating layer relu3_13/x1
I0226 09:30:33.467036 11774 net.cpp:84] Creating Layer relu3_13/x1
I0226 09:30:33.467041 11774 net.cpp:406] relu3_13/x1 <- conv3_13/x1/bn
I0226 09:30:33.467046 11774 net.cpp:367] relu3_13/x1 -> conv3_13/x1/bn (in-place)
I0226 09:30:33.468308 11774 net.cpp:122] Setting up relu3_13/x1
I0226 09:30:33.468323 11774 net.cpp:129] Top shape: 1 928 3 3 (8352)
I0226 09:30:33.468327 11774 net.cpp:137] Memory required for data: 59008352
I0226 09:30:33.468331 11774 layer_factory.hpp:77] Creating layer conv3_13/x1
I0226 09:30:33.468344 11774 net.cpp:84] Creating Layer conv3_13/x1
I0226 09:30:33.468349 11774 net.cpp:406] conv3_13/x1 <- conv3_13/x1/bn
I0226 09:30:33.468358 11774 net.cpp:380] conv3_13/x1 -> conv3_13/x1
I0226 09:30:33.476030 11774 net.cpp:122] Setting up conv3_13/x1
I0226 09:30:33.476048 11774 net.cpp:129] Top shape: 1 128 3 3 (1152)
I0226 09:30:33.476052 11774 net.cpp:137] Memory required for data: 59012960
I0226 09:30:33.476059 11774 layer_factory.hpp:77] Creating layer conv3_13/x2/bn
I0226 09:30:33.476068 11774 net.cpp:84] Creating Layer conv3_13/x2/bn
I0226 09:30:33.476073 11774 net.cpp:406] conv3_13/x2/bn <- conv3_13/x1
I0226 09:30:33.476083 11774 net.cpp:380] conv3_13/x2/bn -> conv3_13/x2/bn
I0226 09:30:33.476369 11774 net.cpp:122] Setting up conv3_13/x2/bn
I0226 09:30:33.476378 11774 net.cpp:129] Top shape: 1 128 3 3 (1152)
I0226 09:30:33.476382 11774 net.cpp:137] Memory required for data: 59017568
I0226 09:30:33.476390 11774 layer_factory.hpp:77] Creating layer conv3_13/x2/scale
I0226 09:30:33.476400 11774 net.cpp:84] Creating Layer conv3_13/x2/scale
I0226 09:30:33.476409 11774 net.cpp:406] conv3_13/x2/scale <- conv3_13/x2/bn
I0226 09:30:33.476415 11774 net.cpp:367] conv3_13/x2/scale -> conv3_13/x2/bn (in-place)
I0226 09:30:33.476465 11774 layer_factory.hpp:77] Creating layer conv3_13/x2/scale
I0226 09:30:33.476610 11774 net.cpp:122] Setting up conv3_13/x2/scale
I0226 09:30:33.476617 11774 net.cpp:129] Top shape: 1 128 3 3 (1152)
I0226 09:30:33.476621 11774 net.cpp:137] Memory required for data: 59022176
I0226 09:30:33.476634 11774 layer_factory.hpp:77] Creating layer relu3_13/x2
I0226 09:30:33.476641 11774 net.cpp:84] Creating Layer relu3_13/x2
I0226 09:30:33.476645 11774 net.cpp:406] relu3_13/x2 <- conv3_13/x2/bn
I0226 09:30:33.476650 11774 net.cpp:367] relu3_13/x2 -> conv3_13/x2/bn (in-place)
I0226 09:30:33.476981 11774 net.cpp:122] Setting up relu3_13/x2
I0226 09:30:33.476994 11774 net.cpp:129] Top shape: 1 128 3 3 (1152)
I0226 09:30:33.476997 11774 net.cpp:137] Memory required for data: 59026784
I0226 09:30:33.477001 11774 layer_factory.hpp:77] Creating layer conv3_13/x2
I0226 09:30:33.477013 11774 net.cpp:84] Creating Layer conv3_13/x2
I0226 09:30:33.477018 11774 net.cpp:406] conv3_13/x2 <- conv3_13/x2/bn
I0226 09:30:33.477025 11774 net.cpp:380] conv3_13/x2 -> conv3_13/x2
I0226 09:30:33.480437 11774 net.cpp:122] Setting up conv3_13/x2
I0226 09:30:33.480453 11774 net.cpp:129] Top shape: 1 32 3 3 (288)
I0226 09:30:33.480456 11774 net.cpp:137] Memory required for data: 59027936
I0226 09:30:33.480463 11774 layer_factory.hpp:77] Creating layer concat3_13
I0226 09:30:33.480473 11774 net.cpp:84] Creating Layer concat3_13
I0226 09:30:33.480479 11774 net.cpp:406] concat3_13 <- concat3_12_concat3_12_0_split_1
I0226 09:30:33.480485 11774 net.cpp:406] concat3_13 <- conv3_13/x2
I0226 09:30:33.480491 11774 net.cpp:380] concat3_13 -> concat3_13
I0226 09:30:33.480527 11774 net.cpp:122] Setting up concat3_13
I0226 09:30:33.480533 11774 net.cpp:129] Top shape: 1 960 3 3 (8640)
I0226 09:30:33.480537 11774 net.cpp:137] Memory required for data: 59062496
I0226 09:30:33.480540 11774 layer_factory.hpp:77] Creating layer concat3_13_concat3_13_0_split
I0226 09:30:33.480549 11774 net.cpp:84] Creating Layer concat3_13_concat3_13_0_split
I0226 09:30:33.480553 11774 net.cpp:406] concat3_13_concat3_13_0_split <- concat3_13
I0226 09:30:33.480561 11774 net.cpp:380] concat3_13_concat3_13_0_split -> concat3_13_concat3_13_0_split_0
I0226 09:30:33.480568 11774 net.cpp:380] concat3_13_concat3_13_0_split -> concat3_13_concat3_13_0_split_1
I0226 09:30:33.480615 11774 net.cpp:122] Setting up concat3_13_concat3_13_0_split
I0226 09:30:33.480621 11774 net.cpp:129] Top shape: 1 960 3 3 (8640)
I0226 09:30:33.480625 11774 net.cpp:129] Top shape: 1 960 3 3 (8640)
I0226 09:30:33.480639 11774 net.cpp:137] Memory required for data: 59131616
I0226 09:30:33.480643 11774 layer_factory.hpp:77] Creating layer conv3_14/x1/bn
I0226 09:30:33.480653 11774 net.cpp:84] Creating Layer conv3_14/x1/bn
I0226 09:30:33.480656 11774 net.cpp:406] conv3_14/x1/bn <- concat3_13_concat3_13_0_split_0
I0226 09:30:33.480662 11774 net.cpp:380] conv3_14/x1/bn -> conv3_14/x1/bn
I0226 09:30:33.481014 11774 net.cpp:122] Setting up conv3_14/x1/bn
I0226 09:30:33.481024 11774 net.cpp:129] Top shape: 1 960 3 3 (8640)
I0226 09:30:33.481026 11774 net.cpp:137] Memory required for data: 59166176
I0226 09:30:33.481035 11774 layer_factory.hpp:77] Creating layer conv3_14/x1/scale
I0226 09:30:33.481045 11774 net.cpp:84] Creating Layer conv3_14/x1/scale
I0226 09:30:33.481050 11774 net.cpp:406] conv3_14/x1/scale <- conv3_14/x1/bn
I0226 09:30:33.481057 11774 net.cpp:367] conv3_14/x1/scale -> conv3_14/x1/bn (in-place)
I0226 09:30:33.481142 11774 layer_factory.hpp:77] Creating layer conv3_14/x1/scale
I0226 09:30:33.481339 11774 net.cpp:122] Setting up conv3_14/x1/scale
I0226 09:30:33.481348 11774 net.cpp:129] Top shape: 1 960 3 3 (8640)
I0226 09:30:33.481350 11774 net.cpp:137] Memory required for data: 59200736
I0226 09:30:33.481357 11774 layer_factory.hpp:77] Creating layer relu3_14/x1
I0226 09:30:33.481364 11774 net.cpp:84] Creating Layer relu3_14/x1
I0226 09:30:33.481372 11774 net.cpp:406] relu3_14/x1 <- conv3_14/x1/bn
I0226 09:30:33.481380 11774 net.cpp:367] relu3_14/x1 -> conv3_14/x1/bn (in-place)
I0226 09:30:33.481701 11774 net.cpp:122] Setting up relu3_14/x1
I0226 09:30:33.481711 11774 net.cpp:129] Top shape: 1 960 3 3 (8640)
I0226 09:30:33.481714 11774 net.cpp:137] Memory required for data: 59235296
I0226 09:30:33.481719 11774 layer_factory.hpp:77] Creating layer conv3_14/x1
I0226 09:30:33.481731 11774 net.cpp:84] Creating Layer conv3_14/x1
I0226 09:30:33.481736 11774 net.cpp:406] conv3_14/x1 <- conv3_14/x1/bn
I0226 09:30:33.481745 11774 net.cpp:380] conv3_14/x1 -> conv3_14/x1
I0226 09:30:33.487967 11774 net.cpp:122] Setting up conv3_14/x1
I0226 09:30:33.487982 11774 net.cpp:129] Top shape: 1 128 3 3 (1152)
I0226 09:30:33.487987 11774 net.cpp:137] Memory required for data: 59239904
I0226 09:30:33.487993 11774 layer_factory.hpp:77] Creating layer conv3_14/x2/bn
I0226 09:30:33.488003 11774 net.cpp:84] Creating Layer conv3_14/x2/bn
I0226 09:30:33.488008 11774 net.cpp:406] conv3_14/x2/bn <- conv3_14/x1
I0226 09:30:33.488018 11774 net.cpp:380] conv3_14/x2/bn -> conv3_14/x2/bn
I0226 09:30:33.488304 11774 net.cpp:122] Setting up conv3_14/x2/bn
I0226 09:30:33.488312 11774 net.cpp:129] Top shape: 1 128 3 3 (1152)
I0226 09:30:33.488315 11774 net.cpp:137] Memory required for data: 59244512
I0226 09:30:33.488327 11774 layer_factory.hpp:77] Creating layer conv3_14/x2/scale
I0226 09:30:33.488334 11774 net.cpp:84] Creating Layer conv3_14/x2/scale
I0226 09:30:33.488338 11774 net.cpp:406] conv3_14/x2/scale <- conv3_14/x2/bn
I0226 09:30:33.488344 11774 net.cpp:367] conv3_14/x2/scale -> conv3_14/x2/bn (in-place)
I0226 09:30:33.488396 11774 layer_factory.hpp:77] Creating layer conv3_14/x2/scale
I0226 09:30:33.488539 11774 net.cpp:122] Setting up conv3_14/x2/scale
I0226 09:30:33.488548 11774 net.cpp:129] Top shape: 1 128 3 3 (1152)
I0226 09:30:33.488550 11774 net.cpp:137] Memory required for data: 59249120
I0226 09:30:33.488557 11774 layer_factory.hpp:77] Creating layer relu3_14/x2
I0226 09:30:33.488565 11774 net.cpp:84] Creating Layer relu3_14/x2
I0226 09:30:33.488570 11774 net.cpp:406] relu3_14/x2 <- conv3_14/x2/bn
I0226 09:30:33.488575 11774 net.cpp:367] relu3_14/x2 -> conv3_14/x2/bn (in-place)
I0226 09:30:33.489850 11774 net.cpp:122] Setting up relu3_14/x2
I0226 09:30:33.489866 11774 net.cpp:129] Top shape: 1 128 3 3 (1152)
I0226 09:30:33.489869 11774 net.cpp:137] Memory required for data: 59253728
I0226 09:30:33.489873 11774 layer_factory.hpp:77] Creating layer conv3_14/x2
I0226 09:30:33.489886 11774 net.cpp:84] Creating Layer conv3_14/x2
I0226 09:30:33.489892 11774 net.cpp:406] conv3_14/x2 <- conv3_14/x2/bn
I0226 09:30:33.489899 11774 net.cpp:380] conv3_14/x2 -> conv3_14/x2
I0226 09:30:33.494315 11774 net.cpp:122] Setting up conv3_14/x2
I0226 09:30:33.494331 11774 net.cpp:129] Top shape: 1 32 3 3 (288)
I0226 09:30:33.494335 11774 net.cpp:137] Memory required for data: 59254880
I0226 09:30:33.494341 11774 layer_factory.hpp:77] Creating layer concat3_14
I0226 09:30:33.494350 11774 net.cpp:84] Creating Layer concat3_14
I0226 09:30:33.494355 11774 net.cpp:406] concat3_14 <- concat3_13_concat3_13_0_split_1
I0226 09:30:33.494361 11774 net.cpp:406] concat3_14 <- conv3_14/x2
I0226 09:30:33.494370 11774 net.cpp:380] concat3_14 -> concat3_14
I0226 09:30:33.494415 11774 net.cpp:122] Setting up concat3_14
I0226 09:30:33.494421 11774 net.cpp:129] Top shape: 1 992 3 3 (8928)
I0226 09:30:33.494424 11774 net.cpp:137] Memory required for data: 59290592
I0226 09:30:33.494427 11774 layer_factory.hpp:77] Creating layer concat3_14_concat3_14_0_split
I0226 09:30:33.494433 11774 net.cpp:84] Creating Layer concat3_14_concat3_14_0_split
I0226 09:30:33.494437 11774 net.cpp:406] concat3_14_concat3_14_0_split <- concat3_14
I0226 09:30:33.494443 11774 net.cpp:380] concat3_14_concat3_14_0_split -> concat3_14_concat3_14_0_split_0
I0226 09:30:33.494449 11774 net.cpp:380] concat3_14_concat3_14_0_split -> concat3_14_concat3_14_0_split_1
I0226 09:30:33.494510 11774 net.cpp:122] Setting up concat3_14_concat3_14_0_split
I0226 09:30:33.494520 11774 net.cpp:129] Top shape: 1 992 3 3 (8928)
I0226 09:30:33.494525 11774 net.cpp:129] Top shape: 1 992 3 3 (8928)
I0226 09:30:33.494529 11774 net.cpp:137] Memory required for data: 59362016
I0226 09:30:33.494532 11774 layer_factory.hpp:77] Creating layer conv3_15/x1/bn
I0226 09:30:33.494541 11774 net.cpp:84] Creating Layer conv3_15/x1/bn
I0226 09:30:33.494545 11774 net.cpp:406] conv3_15/x1/bn <- concat3_14_concat3_14_0_split_0
I0226 09:30:33.494557 11774 net.cpp:380] conv3_15/x1/bn -> conv3_15/x1/bn
I0226 09:30:33.494915 11774 net.cpp:122] Setting up conv3_15/x1/bn
I0226 09:30:33.494925 11774 net.cpp:129] Top shape: 1 992 3 3 (8928)
I0226 09:30:33.494927 11774 net.cpp:137] Memory required for data: 59397728
I0226 09:30:33.494936 11774 layer_factory.hpp:77] Creating layer conv3_15/x1/scale
I0226 09:30:33.494946 11774 net.cpp:84] Creating Layer conv3_15/x1/scale
I0226 09:30:33.494949 11774 net.cpp:406] conv3_15/x1/scale <- conv3_15/x1/bn
I0226 09:30:33.494956 11774 net.cpp:367] conv3_15/x1/scale -> conv3_15/x1/bn (in-place)
I0226 09:30:33.495044 11774 layer_factory.hpp:77] Creating layer conv3_15/x1/scale
I0226 09:30:33.495244 11774 net.cpp:122] Setting up conv3_15/x1/scale
I0226 09:30:33.495252 11774 net.cpp:129] Top shape: 1 992 3 3 (8928)
I0226 09:30:33.495256 11774 net.cpp:137] Memory required for data: 59433440
I0226 09:30:33.495262 11774 layer_factory.hpp:77] Creating layer relu3_15/x1
I0226 09:30:33.495270 11774 net.cpp:84] Creating Layer relu3_15/x1
I0226 09:30:33.495275 11774 net.cpp:406] relu3_15/x1 <- conv3_15/x1/bn
I0226 09:30:33.495280 11774 net.cpp:367] relu3_15/x1 -> conv3_15/x1/bn (in-place)
I0226 09:30:33.495607 11774 net.cpp:122] Setting up relu3_15/x1
I0226 09:30:33.495617 11774 net.cpp:129] Top shape: 1 992 3 3 (8928)
I0226 09:30:33.495621 11774 net.cpp:137] Memory required for data: 59469152
I0226 09:30:33.495625 11774 layer_factory.hpp:77] Creating layer conv3_15/x1
I0226 09:30:33.495637 11774 net.cpp:84] Creating Layer conv3_15/x1
I0226 09:30:33.495642 11774 net.cpp:406] conv3_15/x1 <- conv3_15/x1/bn
I0226 09:30:33.495652 11774 net.cpp:380] conv3_15/x1 -> conv3_15/x1
I0226 09:30:33.502030 11774 net.cpp:122] Setting up conv3_15/x1
I0226 09:30:33.502046 11774 net.cpp:129] Top shape: 1 128 3 3 (1152)
I0226 09:30:33.502050 11774 net.cpp:137] Memory required for data: 59473760
I0226 09:30:33.502058 11774 layer_factory.hpp:77] Creating layer conv3_15/x2/bn
I0226 09:30:33.502069 11774 net.cpp:84] Creating Layer conv3_15/x2/bn
I0226 09:30:33.502075 11774 net.cpp:406] conv3_15/x2/bn <- conv3_15/x1
I0226 09:30:33.502082 11774 net.cpp:380] conv3_15/x2/bn -> conv3_15/x2/bn
I0226 09:30:33.502373 11774 net.cpp:122] Setting up conv3_15/x2/bn
I0226 09:30:33.502382 11774 net.cpp:129] Top shape: 1 128 3 3 (1152)
I0226 09:30:33.502384 11774 net.cpp:137] Memory required for data: 59478368
I0226 09:30:33.502393 11774 layer_factory.hpp:77] Creating layer conv3_15/x2/scale
I0226 09:30:33.502400 11774 net.cpp:84] Creating Layer conv3_15/x2/scale
I0226 09:30:33.502404 11774 net.cpp:406] conv3_15/x2/scale <- conv3_15/x2/bn
I0226 09:30:33.502413 11774 net.cpp:367] conv3_15/x2/scale -> conv3_15/x2/bn (in-place)
I0226 09:30:33.502465 11774 layer_factory.hpp:77] Creating layer conv3_15/x2/scale
I0226 09:30:33.502620 11774 net.cpp:122] Setting up conv3_15/x2/scale
I0226 09:30:33.502627 11774 net.cpp:129] Top shape: 1 128 3 3 (1152)
I0226 09:30:33.502630 11774 net.cpp:137] Memory required for data: 59482976
I0226 09:30:33.502637 11774 layer_factory.hpp:77] Creating layer relu3_15/x2
I0226 09:30:33.502643 11774 net.cpp:84] Creating Layer relu3_15/x2
I0226 09:30:33.502647 11774 net.cpp:406] relu3_15/x2 <- conv3_15/x2/bn
I0226 09:30:33.502652 11774 net.cpp:367] relu3_15/x2 -> conv3_15/x2/bn (in-place)
I0226 09:30:33.502977 11774 net.cpp:122] Setting up relu3_15/x2
I0226 09:30:33.502987 11774 net.cpp:129] Top shape: 1 128 3 3 (1152)
I0226 09:30:33.502991 11774 net.cpp:137] Memory required for data: 59487584
I0226 09:30:33.502995 11774 layer_factory.hpp:77] Creating layer conv3_15/x2
I0226 09:30:33.503011 11774 net.cpp:84] Creating Layer conv3_15/x2
I0226 09:30:33.503017 11774 net.cpp:406] conv3_15/x2 <- conv3_15/x2/bn
I0226 09:30:33.503024 11774 net.cpp:380] conv3_15/x2 -> conv3_15/x2
I0226 09:30:33.506441 11774 net.cpp:122] Setting up conv3_15/x2
I0226 09:30:33.506456 11774 net.cpp:129] Top shape: 1 32 3 3 (288)
I0226 09:30:33.506460 11774 net.cpp:137] Memory required for data: 59488736
I0226 09:30:33.506467 11774 layer_factory.hpp:77] Creating layer concat3_15
I0226 09:30:33.506476 11774 net.cpp:84] Creating Layer concat3_15
I0226 09:30:33.506481 11774 net.cpp:406] concat3_15 <- concat3_14_concat3_14_0_split_1
I0226 09:30:33.506487 11774 net.cpp:406] concat3_15 <- conv3_15/x2
I0226 09:30:33.506495 11774 net.cpp:380] concat3_15 -> concat3_15
I0226 09:30:33.506532 11774 net.cpp:122] Setting up concat3_15
I0226 09:30:33.506539 11774 net.cpp:129] Top shape: 1 1024 3 3 (9216)
I0226 09:30:33.506542 11774 net.cpp:137] Memory required for data: 59525600
I0226 09:30:33.506546 11774 layer_factory.hpp:77] Creating layer gp
I0226 09:30:33.506556 11774 net.cpp:84] Creating Layer gp
I0226 09:30:33.506561 11774 net.cpp:406] gp <- concat3_15
I0226 09:30:33.506567 11774 net.cpp:380] gp -> gp
I0226 09:30:33.507863 11774 net.cpp:122] Setting up gp
I0226 09:30:33.507879 11774 net.cpp:129] Top shape: 1 1024 1 1 (1024)
I0226 09:30:33.507882 11774 net.cpp:137] Memory required for data: 59529696
I0226 09:30:33.507886 11774 layer_factory.hpp:77] Creating layer fc6_d
I0226 09:30:33.507896 11774 net.cpp:84] Creating Layer fc6_d
I0226 09:30:33.507901 11774 net.cpp:406] fc6_d <- gp
I0226 09:30:33.507910 11774 net.cpp:380] fc6_d -> fc6_d
I0226 09:30:33.652804 11774 net.cpp:122] Setting up fc6_d
I0226 09:30:33.652854 11774 net.cpp:129] Top shape: 1 4096 (4096)
I0226 09:30:33.652858 11774 net.cpp:137] Memory required for data: 59546080
I0226 09:30:33.652870 11774 layer_factory.hpp:77] Creating layer relu6
I0226 09:30:33.652882 11774 net.cpp:84] Creating Layer relu6
I0226 09:30:33.652891 11774 net.cpp:406] relu6 <- fc6_d
I0226 09:30:33.652901 11774 net.cpp:367] relu6 -> fc6_d (in-place)
I0226 09:30:33.653357 11774 net.cpp:122] Setting up relu6
I0226 09:30:33.653367 11774 net.cpp:129] Top shape: 1 4096 (4096)
I0226 09:30:33.653370 11774 net.cpp:137] Memory required for data: 59562464
I0226 09:30:33.653374 11774 layer_factory.hpp:77] Creating layer fc7_d
I0226 09:30:33.653386 11774 net.cpp:84] Creating Layer fc7_d
I0226 09:30:33.653391 11774 net.cpp:406] fc7_d <- fc6_d
I0226 09:30:33.653398 11774 net.cpp:380] fc7_d -> fc7_d
I0226 09:30:34.190814 11774 net.cpp:122] Setting up fc7_d
I0226 09:30:34.190858 11774 net.cpp:129] Top shape: 1 4096 (4096)
I0226 09:30:34.190862 11774 net.cpp:137] Memory required for data: 59578848
I0226 09:30:34.190873 11774 layer_factory.hpp:77] Creating layer relu7
I0226 09:30:34.190887 11774 net.cpp:84] Creating Layer relu7
I0226 09:30:34.190896 11774 net.cpp:406] relu7 <- fc7_d
I0226 09:30:34.190903 11774 net.cpp:367] relu7 -> fc7_d (in-place)
I0226 09:30:34.191330 11774 net.cpp:122] Setting up relu7
I0226 09:30:34.191339 11774 net.cpp:129] Top shape: 1 4096 (4096)
I0226 09:30:34.191342 11774 net.cpp:137] Memory required for data: 59595232
I0226 09:30:34.191346 11774 layer_factory.hpp:77] Creating layer fc8_d
I0226 09:30:34.191355 11774 net.cpp:84] Creating Layer fc8_d
I0226 09:30:34.191359 11774 net.cpp:406] fc8_d <- fc7_d
I0226 09:30:34.191367 11774 net.cpp:380] fc8_d -> fc8_d
I0226 09:30:34.269043 11774 net.cpp:122] Setting up fc8_d
I0226 09:30:34.269076 11774 net.cpp:129] Top shape: 1 618 (618)
I0226 09:30:34.269081 11774 net.cpp:137] Memory required for data: 59597704
I0226 09:30:34.269091 11774 layer_factory.hpp:77] Creating layer fc8_d_fc8_d_0_split
I0226 09:30:34.269103 11774 net.cpp:84] Creating Layer fc8_d_fc8_d_0_split
I0226 09:30:34.269109 11774 net.cpp:406] fc8_d_fc8_d_0_split <- fc8_d
I0226 09:30:34.269116 11774 net.cpp:380] fc8_d_fc8_d_0_split -> fc8_d_fc8_d_0_split_0
I0226 09:30:34.269125 11774 net.cpp:380] fc8_d_fc8_d_0_split -> fc8_d_fc8_d_0_split_1
I0226 09:30:34.269173 11774 net.cpp:122] Setting up fc8_d_fc8_d_0_split
I0226 09:30:34.269186 11774 net.cpp:129] Top shape: 1 618 (618)
I0226 09:30:34.269191 11774 net.cpp:129] Top shape: 1 618 (618)
I0226 09:30:34.269193 11774 net.cpp:137] Memory required for data: 59602648
I0226 09:30:34.269197 11774 layer_factory.hpp:77] Creating layer sigmoid
I0226 09:30:34.269206 11774 net.cpp:84] Creating Layer sigmoid
I0226 09:30:34.269209 11774 net.cpp:406] sigmoid <- fc8_d_fc8_d_0_split_0
I0226 09:30:34.269217 11774 net.cpp:380] sigmoid -> sigmoid
I0226 09:30:34.269646 11774 net.cpp:122] Setting up sigmoid
I0226 09:30:34.269655 11774 net.cpp:129] Top shape: 1 618 (618)
I0226 09:30:34.269659 11774 net.cpp:137] Memory required for data: 59605120
I0226 09:30:34.269662 11774 layer_factory.hpp:77] Creating layer silence
I0226 09:30:34.269675 11774 net.cpp:84] Creating Layer silence
I0226 09:30:34.269680 11774 net.cpp:406] silence <- sigmoid
I0226 09:30:34.269685 11774 net.cpp:122] Setting up silence
I0226 09:30:34.269687 11774 net.cpp:137] Memory required for data: 59605120
…
