…
  phase: TRAIN
}
layer {
  name: "word_images"
  type: "Data"
  top: "word_images"
  top: "label"
  transform_param {
    scale: -0.0039215689
    mean_value: 255
  }
  data_param {
    source: "/data/fwolf/iam_15000/iam-db_nti500000_pul2-3-4-5_train_word_images_lmdb"
    batch_size: 1
    backend: LMDB
    prefetch: 20
  }
}
layer {
  name: "phocs"
  type: "Data"
  top: "phocs"
  top: "label_phocs"
  data_param {
    source: "/data/fwolf/iam_15000/iam-db_nti500000_pul2-3-4-5_train_phocs_lmdb"
    batch_size: 1
    backend: LMDB
    prefetch: 20
  }
}
layer {
  name: "conv_init"
  type: "Convolution"
  bottom: "word_images"
  top: "conv_init"
  convolution_param {
    num_output: 32
    bias_term: false
    pad: 1
    kernel_size: 3
    stride: 1
    weight_filler {
      type: "msra"
    }
    bias_filler {
      type: "constant"
    }
    engine: CUDNN
  }
}
layer {
  name: "relu_init"
  type: "ReLU"
  bottom: "conv_init"
  top: "conv_init"
}
layer {
  name: "pool_init"
  type: "Pooling"
  bottom: "conv_init"
  top: "pool_init"
  pooling_param {
    pool: MAX
    kernel_size: 3
    stride: 2
    pad: 1
  }
}
layer {
  name: "conv0_0"
  type: "Convolution"
  bottom: "pool_init"
  top: "conv0_0"
  convolution_param {
    num_output: 12
    bias_term: false
    pad: 1
    kernel_size: 3
    stride: 1
    weight_filler {
      type: "msra"
    }
    bias_filler {
      type: "constant"
    }
    engine: CUDNN
  }
}
layer {
  name: "relu0_0"
  type: "ReLU"
  bottom: "conv0_0"
  top: "conv0_0"
}
layer {
  name: "concat0_0"
  type: "Concat"
  bottom: "pool_init"
  bottom: "conv0_0"
  top: "concat0_0"
  concat_param {
    axis: 1
  }
}
layer {
  name: "conv0_1"
  type: "Convolution"
  bottom: "concat0_0"
  top: "conv0_1"
  convolution_param {
    num_output: 12
    bias_term: false
    pad: 1
    kernel_size: 3
    stride: 1
    weight_filler {
      type: "msra"
    }
    bias_filler {
      type: "constant"
    }
    engine: CUDNN
  }
}
layer {
  name: "relu0_1"
  type: "ReLU"
  bottom: "conv0_1"
  top: "conv0_1"
}
layer {
  name: "concat0_1"
  type: "Concat"
  bottom: "concat0_0"
  bottom: "conv0_1"
  top: "concat0_1"
  concat_param {
    axis: 1
  }
}
layer {
  name: "conv0_2"
  type: "Convolution"
  bottom: "concat0_1"
  top: "conv0_2"
  convolution_param {
    num_output: 12
    bias_term: false
    pad: 1
    kernel_size: 3
    stride: 1
    weight_filler {
      type: "msra"
    }
    bias_filler {
      type: "constant"
    }
    engine: CUDNN
  }
}
layer {
  name: "relu0_2"
  type: "ReLU"
  bottom: "conv0_2"
  top: "conv0_2"
}
layer {
  name: "concat0_2"
  type: "Concat"
  bottom: "concat0_1"
  bottom: "conv0_2"
  top: "concat0_2"
  concat_param {
    axis: 1
  }
}
layer {
  name: "conv0_3"
  type: "Convolution"
  bottom: "concat0_2"
  top: "conv0_3"
  convolution_param {
    num_output: 12
    bias_term: false
    pad: 1
    kernel_size: 3
    stride: 1
    weight_filler {
      type: "msra"
    }
    bias_filler {
      type: "constant"
    }
    engine: CUDNN
  }
}
layer {
  name: "relu0_3"
  type: "ReLU"
  bottom: "conv0_3"
  top: "conv0_3"
}
layer {
  name: "concat0_3"
  type: "Concat"
  bottom: "concat0_2"
  bottom: "conv0_3"
  top: "concat0_3"
  concat_param {
    axis: 1
  }
}
layer {
  name: "conv0_4"
  type: "Convolution"
  bottom: "concat0_3"
  top: "conv0_4"
  convolution_param {
    num_output: 12
    bias_term: false
    pad: 1
    kernel_size: 3
    stride: 1
    weight_filler {
      type: "msra"
    }
    bias_filler {
      type: "constant"
    }
    engine: CUDNN
  }
}
layer {
  name: "relu0_4"
  type: "ReLU"
  bottom: "conv0_4"
  top: "conv0_4"
}
layer {
  name: "concat0_4"
  type: "Concat"
  bottom: "concat0_3"
  bottom: "conv0_4"
  top: "concat0_4"
  concat_param {
    axis: 1
  }
}
layer {
  name: "conv0_blk"
  type: "Convolution"
  bottom: "concat0_4"
  top: "conv0_blk"
  convolution_param {
    num_output: 92
    bias_term: false
    pad: 0
    kernel_size: 1
    stride: 1
    weight_filler {
      type: "msra"
    }
    bias_filler {
      type: "constant"
    }
    engine: CUDNN
  }
}
layer {
  name: "pool0"
  type: "Pooling"
  bottom: "conv0_blk"
  top: "pool0"
  pooling_param {
    pool: AVE
    kernel_size: 2
    stride: 2
  }
}
layer {
  name: "conv1_0"
  type: "Convolution"
  bottom: "pool0"
  top: "conv1_0"
  convolution_param {
    num_output: 12
    bias_term: false
    pad: 1
    kernel_size: 3
    stride: 1
    weight_filler {
      type: "msra"
    }
    bias_filler {
      type: "constant"
    }
    engine: CUDNN
  }
}
layer {
  name: "relu1_0"
  type: "ReLU"
  bottom: "conv1_0"
  top: "conv1_0"
}
layer {
  name: "concat1_0"
  type: "Concat"
  bottom: "pool0"
  bottom: "conv1_0"
  top: "concat1_0"
  concat_param {
    axis: 1
  }
}
layer {
  name: "conv1_1"
  type: "Convolution"
  bottom: "concat1_0"
  top: "conv1_1"
  convolution_param {
    num_output: 12
    bias_term: false
    pad: 1
    kernel_size: 3
    stride: 1
    weight_filler {
      type: "msra"
    }
    bias_filler {
      type: "constant"
    }
    engine: CUDNN
  }
}
layer {
  name: "relu1_1"
  type: "ReLU"
  bottom: "conv1_1"
  top: "conv1_1"
}
layer {
  name: "concat1_1"
  type: "Concat"
  bottom: "concat1_0"
  bottom: "conv1_1"
  top: "concat1_1"
  concat_param {
    axis: 1
  }
}
layer {
  name: "conv1_2"
  type: "Convolution"
  bottom: "concat1_1"
  top: "conv1_2"
  convolution_param {
    num_output: 12
    bias_term: false
    pad: 1
    kernel_size: 3
    stride: 1
    weight_filler {
      type: "msra"
    }
    bias_filler {
      type: "constant"
    }
    engine: CUDNN
  }
}
layer {
  name: "relu1_2"
  type: "ReLU"
  bottom: "conv1_2"
  top: "conv1_2"
}
layer {
  name: "concat1_2"
  type: "Concat"
  bottom: "concat1_1"
  bottom: "conv1_2"
  top: "concat1_2"
  concat_param {
    axis: 1
  }
}
layer {
  name: "conv1_3"
  type: "Convolution"
  bottom: "concat1_2"
  top: "conv1_3"
  convolution_param {
    num_output: 12
    bias_term: false
    pad: 1
    kernel_size: 3
    stride: 1
    weight_filler {
      type: "msra"
    }
    bias_filler {
      type: "constant"
    }
    engine: CUDNN
  }
}
layer {
  name: "relu1_3"
  type: "ReLU"
  bottom: "conv1_3"
  top: "conv1_3"
}
layer {
  name: "concat1_3"
  type: "Concat"
  bottom: "concat1_2"
  bottom: "conv1_3"
  top: "concat1_3"
  concat_param {
    axis: 1
  }
}
layer {
  name: "conv1_4"
  type: "Convolution"
  bottom: "concat1_3"
  top: "conv1_4"
  convolution_param {
    num_output: 12
    bias_term: false
    pad: 1
    kernel_size: 3
    stride: 1
    weight_filler {
      type: "msra"
    }
    bias_filler {
      type: "constant"
    }
    engine: CUDNN
  }
}
layer {
  name: "relu1_4"
  type: "ReLU"
  bottom: "conv1_4"
  top: "conv1_4"
}
layer {
  name: "concat1_4"
  type: "Concat"
  bottom: "concat1_3"
  bottom: "conv1_4"
  top: "concat1_4"
  concat_param {
    axis: 1
  }
}
layer {
  name: "conv1_5"
  type: "Convolution"
  bottom: "concat1_4"
  top: "conv1_5"
  convolution_param {
    num_output: 12
    bias_term: false
    pad: 1
    kernel_size: 3
    stride: 1
    weight_filler {
      type: "msra"
    }
    bias_filler {
      type: "constant"
    }
    engine: CUDNN
  }
}
layer {
  name: "relu1_5"
  type: "ReLU"
  bottom: "conv1_5"
  top: "conv1_5"
}
layer {
  name: "concat1_5"
  type: "Concat"
  bottom: "concat1_4"
  bottom: "conv1_5"
  top: "concat1_5"
  concat_param {
    axis: 1
  }
}
layer {
  name: "conv1_6"
  type: "Convolution"
  bottom: "concat1_5"
  top: "conv1_6"
  convolution_param {
    num_output: 12
    bias_term: false
    pad: 1
    kernel_size: 3
    stride: 1
    weight_filler {
      type: "msra"
    }
    bias_filler {
      type: "constant"
    }
    engine: CUDNN
  }
}
layer {
  name: "relu1_6"
  type: "ReLU"
  bottom: "conv1_6"
  top: "conv1_6"
}
layer {
  name: "concat1_6"
  type: "Concat"
  bottom: "concat1_5"
  bottom: "conv1_6"
  top: "concat1_6"
  concat_param {
    axis: 1
  }
}
layer {
  name: "conv1_7"
  type: "Convolution"
  bottom: "concat1_6"
  top: "conv1_7"
  convolution_param {
    num_output: 12
    bias_term: false
    pad: 1
    kernel_size: 3
    stride: 1
    weight_filler {
      type: "msra"
    }
    bias_filler {
      type: "constant"
    }
    engine: CUDNN
  }
}
layer {
  name: "relu1_7"
  type: "ReLU"
  bottom: "conv1_7"
  top: "conv1_7"
}
layer {
  name: "concat1_7"
  type: "Concat"
  bottom: "concat1_6"
  bottom: "conv1_7"
  top: "concat1_7"
  concat_param {
    axis: 1
  }
}
layer {
  name: "conv1_8"
  type: "Convolution"
  bottom: "concat1_7"
  top: "conv1_8"
  convolution_param {
    num_output: 12
    bias_term: false
    pad: 1
    kernel_size: 3
    stride: 1
    weight_filler {
      type: "msra"
    }
    bias_filler {
      type: "constant"
    }
    engine: CUDNN
  }
}
layer {
  name: "relu1_8"
  type: "ReLU"
  bottom: "conv1_8"
  top: "conv1_8"
}
layer {
  name: "concat1_8"
  type: "Concat"
  bottom: "concat1_7"
  bottom: "conv1_8"
  top: "concat1_8"
  concat_param {
    axis: 1
  }
}
layer {
  name: "conv1_9"
  type: "Convolution"
  bottom: "concat1_8"
  top: "conv1_9"
  convolution_param {
    num_output: 12
    bias_term: false
    pad: 1
    kernel_size: 3
    stride: 1
    weight_filler {
      type: "msra"
    }
    bias_filler {
      type: "constant"
    }
    engine: CUDNN
  }
}
layer {
  name: "relu1_9"
  type: "ReLU"
  bottom: "conv1_9"
  top: "conv1_9"
}
layer {
  name: "concat1_9"
  type: "Concat"
  bottom: "concat1_8"
  bottom: "conv1_9"
  top: "concat1_9"
  concat_param {
    axis: 1
  }
}
layer {
  name: "tpp5"
  type: "TPP"
  bottom: "concat1_9"
  top: "tpp5"
  tpp_param {
    pyramid_layer: 1
    pyramid_layer: 2
    pyramid_layer: 3
    pyramid_layer: 4
    pyramid_layer: 5
    pool: MAX
    engine: CUDNN
  }
}
layer {
  name: "fc6_d"
  type: "InnerProduct"
  bottom: "tpp5"
  top: "fc6_d"
  inner_product_param {
    num_output: 4096
    weight_filler {
      type: "msra"
    }
    bias_filler {
      type: "constant"
    }
  }
}
layer {
  name: "relu6"
  type: "ReLU"
  bottom: "fc6_d"
  top: "fc6_d"
}
layer {
  name: "drop6"
  type: "Dropout"
  bottom: "fc6_d"
  top: "fc6_d"
  include {
    phase: TRAIN
  }
  dropout_param {
    dropout_ratio: 0.5
  }
}
layer {
  name: "fc7_d"
  type: "InnerProduct"
  bottom: "fc6_d"
  top: "fc7_d"
  inner_product_param {
    num_output: 4096
    weight_filler {
      type: "msra"
    }
    bias_filler {
      type: "constant"
    }
  }
}
layer {
  name: "relu7"
  type: "ReLU"
  bottom: "fc7_d"
  top: "fc7_d"
}
layer {
  name: "drop7"
  type: "Dropout"
  bottom: "fc7_d"
  top: "fc7_d"
  include {
    phase: TRAIN
  }
  dropout_param {
    dropout_ratio: 0.5
  }
}
layer {
  name: "fc8_d"
  type: "InnerProduct"
  bottom: "fc7_d"
  top: "fc8_d"
  inner_product_param {
    num_output: 618
    weight_filler {
      type: "msra"
    }
    bias_filler {
      type: "constant"
    }
  }
}
layer {
  name: "loss"
  type: "SigmoidCrossEntropyLoss"
  bottom: "fc8_d"
  bottom: "phocs"
  top: "loss"
}
I0126 12:06:19.098887  9652 layer_factory.hpp:77] Creating layer word_images
I0126 12:06:19.146144  9652 db_lmdb.cpp:35] Opened lmdb /data/fwolf/iam_15000/iam-db_nti500000_pul2-3-4-5_train_word_images_lmdb
I0126 12:06:19.157019  9652 net.cpp:84] Creating Layer word_images
I0126 12:06:19.157040  9652 net.cpp:380] word_images -> word_images
I0126 12:06:19.157057  9652 net.cpp:380] word_images -> label
I0126 12:06:19.164896  9652 data_layer.cpp:44] output data size: 1,1,85,176
I0126 12:06:19.177793  9652 net.cpp:122] Setting up word_images
I0126 12:06:19.177826  9652 net.cpp:129] Top shape: 1 1 85 176 (14960)
I0126 12:06:19.177834  9652 net.cpp:129] Top shape: 1 (1)
I0126 12:06:19.177837  9652 net.cpp:137] Memory required for data: 59844
I0126 12:06:19.177845  9652 layer_factory.hpp:77] Creating layer phocs
I0126 12:06:19.204279  9652 db_lmdb.cpp:35] Opened lmdb /data/fwolf/iam_15000/iam-db_nti500000_pul2-3-4-5_train_phocs_lmdb
I0126 12:06:19.289080  9652 net.cpp:84] Creating Layer phocs
I0126 12:06:19.289124  9652 net.cpp:380] phocs -> phocs
I0126 12:06:19.289144  9652 net.cpp:380] phocs -> label_phocs
I0126 12:06:19.289646  9652 data_layer.cpp:44] output data size: 1,1,1,618
I0126 12:06:19.311472  9652 net.cpp:122] Setting up phocs
I0126 12:06:19.311513  9652 net.cpp:129] Top shape: 1 1 1 618 (618)
I0126 12:06:19.311520  9652 net.cpp:129] Top shape: 1 (1)
I0126 12:06:19.311524  9652 net.cpp:137] Memory required for data: 62320
I0126 12:06:19.311532  9652 layer_factory.hpp:77] Creating layer conv_init
I0126 12:06:19.311553  9652 net.cpp:84] Creating Layer conv_init
I0126 12:06:19.311558  9652 net.cpp:406] conv_init <- word_images
I0126 12:06:19.311571  9652 net.cpp:380] conv_init -> conv_init
I0126 12:06:21.441540  9652 net.cpp:122] Setting up conv_init
I0126 12:06:21.441583  9652 net.cpp:129] Top shape: 1 32 85 176 (478720)
I0126 12:06:21.441589  9652 net.cpp:137] Memory required for data: 1977200
I0126 12:06:21.441606  9652 layer_factory.hpp:77] Creating layer relu_init
I0126 12:06:21.441619  9652 net.cpp:84] Creating Layer relu_init
I0126 12:06:21.441625  9652 net.cpp:406] relu_init <- conv_init
I0126 12:06:21.441632  9652 net.cpp:367] relu_init -> conv_init (in-place)
I0126 12:06:21.441879  9652 net.cpp:122] Setting up relu_init
I0126 12:06:21.441999  9652 net.cpp:129] Top shape: 1 32 85 176 (478720)
I0126 12:06:21.442006  9652 net.cpp:137] Memory required for data: 3892080
I0126 12:06:21.442013  9652 layer_factory.hpp:77] Creating layer pool_init
I0126 12:06:21.442023  9652 net.cpp:84] Creating Layer pool_init
I0126 12:06:21.442028  9652 net.cpp:406] pool_init <- conv_init
I0126 12:06:21.442034  9652 net.cpp:380] pool_init -> pool_init
I0126 12:06:21.442124  9652 net.cpp:122] Setting up pool_init
I0126 12:06:21.442133  9652 net.cpp:129] Top shape: 1 32 43 89 (122464)
I0126 12:06:21.442137  9652 net.cpp:137] Memory required for data: 4381936
I0126 12:06:21.442142  9652 layer_factory.hpp:77] Creating layer pool_init_pool_init_0_split
I0126 12:06:21.442149  9652 net.cpp:84] Creating Layer pool_init_pool_init_0_split
I0126 12:06:21.442153  9652 net.cpp:406] pool_init_pool_init_0_split <- pool_init
I0126 12:06:21.442159  9652 net.cpp:380] pool_init_pool_init_0_split -> pool_init_pool_init_0_split_0
I0126 12:06:21.442167  9652 net.cpp:380] pool_init_pool_init_0_split -> pool_init_pool_init_0_split_1
I0126 12:06:21.442222  9652 net.cpp:122] Setting up pool_init_pool_init_0_split
I0126 12:06:21.442230  9652 net.cpp:129] Top shape: 1 32 43 89 (122464)
I0126 12:06:21.442236  9652 net.cpp:129] Top shape: 1 32 43 89 (122464)
I0126 12:06:21.442240  9652 net.cpp:137] Memory required for data: 5361648
I0126 12:06:21.442245  9652 layer_factory.hpp:77] Creating layer conv0_0
I0126 12:06:21.442257  9652 net.cpp:84] Creating Layer conv0_0
I0126 12:06:21.442262  9652 net.cpp:406] conv0_0 <- pool_init_pool_init_0_split_0
I0126 12:06:21.442268  9652 net.cpp:380] conv0_0 -> conv0_0
I0126 12:06:21.446924  9652 net.cpp:122] Setting up conv0_0
I0126 12:06:21.446966  9652 net.cpp:129] Top shape: 1 12 43 89 (45924)
I0126 12:06:21.446972  9652 net.cpp:137] Memory required for data: 5545344
I0126 12:06:21.446987  9652 layer_factory.hpp:77] Creating layer relu0_0
I0126 12:06:21.447000  9652 net.cpp:84] Creating Layer relu0_0
I0126 12:06:21.447006  9652 net.cpp:406] relu0_0 <- conv0_0
I0126 12:06:21.447015  9652 net.cpp:367] relu0_0 -> conv0_0 (in-place)
I0126 12:06:21.447660  9652 net.cpp:122] Setting up relu0_0
I0126 12:06:21.447679  9652 net.cpp:129] Top shape: 1 12 43 89 (45924)
I0126 12:06:21.447684  9652 net.cpp:137] Memory required for data: 5729040
I0126 12:06:21.447688  9652 layer_factory.hpp:77] Creating layer concat0_0
I0126 12:06:21.447700  9652 net.cpp:84] Creating Layer concat0_0
I0126 12:06:21.447705  9652 net.cpp:406] concat0_0 <- pool_init_pool_init_0_split_1
I0126 12:06:21.447711  9652 net.cpp:406] concat0_0 <- conv0_0
I0126 12:06:21.447717  9652 net.cpp:380] concat0_0 -> concat0_0
I0126 12:06:21.447796  9652 net.cpp:122] Setting up concat0_0
I0126 12:06:21.447806  9652 net.cpp:129] Top shape: 1 44 43 89 (168388)
I0126 12:06:21.447810  9652 net.cpp:137] Memory required for data: 6402592
I0126 12:06:21.447815  9652 layer_factory.hpp:77] Creating layer concat0_0_concat0_0_0_split
I0126 12:06:21.447823  9652 net.cpp:84] Creating Layer concat0_0_concat0_0_0_split
I0126 12:06:21.447826  9652 net.cpp:406] concat0_0_concat0_0_0_split <- concat0_0
I0126 12:06:21.447834  9652 net.cpp:380] concat0_0_concat0_0_0_split -> concat0_0_concat0_0_0_split_0
I0126 12:06:21.447840  9652 net.cpp:380] concat0_0_concat0_0_0_split -> concat0_0_concat0_0_0_split_1
I0126 12:06:21.447902  9652 net.cpp:122] Setting up concat0_0_concat0_0_0_split
I0126 12:06:21.447911  9652 net.cpp:129] Top shape: 1 44 43 89 (168388)
I0126 12:06:21.447916  9652 net.cpp:129] Top shape: 1 44 43 89 (168388)
I0126 12:06:21.447921  9652 net.cpp:137] Memory required for data: 7749696
I0126 12:06:21.447924  9652 layer_factory.hpp:77] Creating layer conv0_1
I0126 12:06:21.447938  9652 net.cpp:84] Creating Layer conv0_1
I0126 12:06:21.447942  9652 net.cpp:406] conv0_1 <- concat0_0_concat0_0_0_split_0
I0126 12:06:21.447949  9652 net.cpp:380] conv0_1 -> conv0_1
I0126 12:06:21.451143  9652 net.cpp:122] Setting up conv0_1
I0126 12:06:21.451182  9652 net.cpp:129] Top shape: 1 12 43 89 (45924)
I0126 12:06:21.451187  9652 net.cpp:137] Memory required for data: 7933392
I0126 12:06:21.451201  9652 layer_factory.hpp:77] Creating layer relu0_1
I0126 12:06:21.451215  9652 net.cpp:84] Creating Layer relu0_1
I0126 12:06:21.451220  9652 net.cpp:406] relu0_1 <- conv0_1
I0126 12:06:21.451228  9652 net.cpp:367] relu0_1 -> conv0_1 (in-place)
I0126 12:06:21.452096  9652 net.cpp:122] Setting up relu0_1
I0126 12:06:21.452111  9652 net.cpp:129] Top shape: 1 12 43 89 (45924)
I0126 12:06:21.452114  9652 net.cpp:137] Memory required for data: 8117088
I0126 12:06:21.452119  9652 layer_factory.hpp:77] Creating layer concat0_1
I0126 12:06:21.452129  9652 net.cpp:84] Creating Layer concat0_1
I0126 12:06:21.452136  9652 net.cpp:406] concat0_1 <- concat0_0_concat0_0_0_split_1
I0126 12:06:21.452142  9652 net.cpp:406] concat0_1 <- conv0_1
I0126 12:06:21.452147  9652 net.cpp:380] concat0_1 -> concat0_1
I0126 12:06:21.452200  9652 net.cpp:122] Setting up concat0_1
I0126 12:06:21.452208  9652 net.cpp:129] Top shape: 1 56 43 89 (214312)
I0126 12:06:21.452214  9652 net.cpp:137] Memory required for data: 8974336
I0126 12:06:21.452217  9652 layer_factory.hpp:77] Creating layer concat0_1_concat0_1_0_split
I0126 12:06:21.452224  9652 net.cpp:84] Creating Layer concat0_1_concat0_1_0_split
I0126 12:06:21.452229  9652 net.cpp:406] concat0_1_concat0_1_0_split <- concat0_1
I0126 12:06:21.452235  9652 net.cpp:380] concat0_1_concat0_1_0_split -> concat0_1_concat0_1_0_split_0
I0126 12:06:21.452242  9652 net.cpp:380] concat0_1_concat0_1_0_split -> concat0_1_concat0_1_0_split_1
I0126 12:06:21.452301  9652 net.cpp:122] Setting up concat0_1_concat0_1_0_split
I0126 12:06:21.452308  9652 net.cpp:129] Top shape: 1 56 43 89 (214312)
I0126 12:06:21.452319  9652 net.cpp:129] Top shape: 1 56 43 89 (214312)
I0126 12:06:21.452323  9652 net.cpp:137] Memory required for data: 10688832
I0126 12:06:21.452327  9652 layer_factory.hpp:77] Creating layer conv0_2
I0126 12:06:21.452340  9652 net.cpp:84] Creating Layer conv0_2
I0126 12:06:21.452345  9652 net.cpp:406] conv0_2 <- concat0_1_concat0_1_0_split_0
I0126 12:06:21.452353  9652 net.cpp:380] conv0_2 -> conv0_2
I0126 12:06:21.455760  9652 net.cpp:122] Setting up conv0_2
I0126 12:06:21.455796  9652 net.cpp:129] Top shape: 1 12 43 89 (45924)
I0126 12:06:21.455801  9652 net.cpp:137] Memory required for data: 10872528
I0126 12:06:21.455812  9652 layer_factory.hpp:77] Creating layer relu0_2
I0126 12:06:21.455823  9652 net.cpp:84] Creating Layer relu0_2
I0126 12:06:21.455829  9652 net.cpp:406] relu0_2 <- conv0_2
I0126 12:06:21.455838  9652 net.cpp:367] relu0_2 -> conv0_2 (in-place)
I0126 12:06:21.456710  9652 net.cpp:122] Setting up relu0_2
I0126 12:06:21.456728  9652 net.cpp:129] Top shape: 1 12 43 89 (45924)
I0126 12:06:21.456732  9652 net.cpp:137] Memory required for data: 11056224
I0126 12:06:21.456737  9652 layer_factory.hpp:77] Creating layer concat0_2
I0126 12:06:21.456749  9652 net.cpp:84] Creating Layer concat0_2
I0126 12:06:21.456754  9652 net.cpp:406] concat0_2 <- concat0_1_concat0_1_0_split_1
I0126 12:06:21.456760  9652 net.cpp:406] concat0_2 <- conv0_2
I0126 12:06:21.456766  9652 net.cpp:380] concat0_2 -> concat0_2
I0126 12:06:21.456832  9652 net.cpp:122] Setting up concat0_2
I0126 12:06:21.456840  9652 net.cpp:129] Top shape: 1 68 43 89 (260236)
I0126 12:06:21.456845  9652 net.cpp:137] Memory required for data: 12097168
I0126 12:06:21.456849  9652 layer_factory.hpp:77] Creating layer concat0_2_concat0_2_0_split
I0126 12:06:21.456856  9652 net.cpp:84] Creating Layer concat0_2_concat0_2_0_split
I0126 12:06:21.456861  9652 net.cpp:406] concat0_2_concat0_2_0_split <- concat0_2
I0126 12:06:21.456867  9652 net.cpp:380] concat0_2_concat0_2_0_split -> concat0_2_concat0_2_0_split_0
I0126 12:06:21.456874  9652 net.cpp:380] concat0_2_concat0_2_0_split -> concat0_2_concat0_2_0_split_1
I0126 12:06:21.456934  9652 net.cpp:122] Setting up concat0_2_concat0_2_0_split
I0126 12:06:21.456943  9652 net.cpp:129] Top shape: 1 68 43 89 (260236)
I0126 12:06:21.456948  9652 net.cpp:129] Top shape: 1 68 43 89 (260236)
I0126 12:06:21.456951  9652 net.cpp:137] Memory required for data: 14179056
I0126 12:06:21.456956  9652 layer_factory.hpp:77] Creating layer conv0_3
I0126 12:06:21.456969  9652 net.cpp:84] Creating Layer conv0_3
I0126 12:06:21.456974  9652 net.cpp:406] conv0_3 <- concat0_2_concat0_2_0_split_0
I0126 12:06:21.456980  9652 net.cpp:380] conv0_3 -> conv0_3
I0126 12:06:21.460880  9652 net.cpp:122] Setting up conv0_3
I0126 12:06:21.460914  9652 net.cpp:129] Top shape: 1 12 43 89 (45924)
I0126 12:06:21.460919  9652 net.cpp:137] Memory required for data: 14362752
I0126 12:06:21.460934  9652 layer_factory.hpp:77] Creating layer relu0_3
I0126 12:06:21.460947  9652 net.cpp:84] Creating Layer relu0_3
I0126 12:06:21.460952  9652 net.cpp:406] relu0_3 <- conv0_3
I0126 12:06:21.460960  9652 net.cpp:367] relu0_3 -> conv0_3 (in-place)
I0126 12:06:21.461593  9652 net.cpp:122] Setting up relu0_3
I0126 12:06:21.461607  9652 net.cpp:129] Top shape: 1 12 43 89 (45924)
I0126 12:06:21.461611  9652 net.cpp:137] Memory required for data: 14546448
I0126 12:06:21.461616  9652 layer_factory.hpp:77] Creating layer concat0_3
I0126 12:06:21.461625  9652 net.cpp:84] Creating Layer concat0_3
I0126 12:06:21.461630  9652 net.cpp:406] concat0_3 <- concat0_2_concat0_2_0_split_1
I0126 12:06:21.461637  9652 net.cpp:406] concat0_3 <- conv0_3
I0126 12:06:21.461644  9652 net.cpp:380] concat0_3 -> concat0_3
I0126 12:06:21.461710  9652 net.cpp:122] Setting up concat0_3
I0126 12:06:21.461719  9652 net.cpp:129] Top shape: 1 80 43 89 (306160)
I0126 12:06:21.461722  9652 net.cpp:137] Memory required for data: 15771088
I0126 12:06:21.461726  9652 layer_factory.hpp:77] Creating layer concat0_3_concat0_3_0_split
I0126 12:06:21.461735  9652 net.cpp:84] Creating Layer concat0_3_concat0_3_0_split
I0126 12:06:21.461745  9652 net.cpp:406] concat0_3_concat0_3_0_split <- concat0_3
I0126 12:06:21.461751  9652 net.cpp:380] concat0_3_concat0_3_0_split -> concat0_3_concat0_3_0_split_0
I0126 12:06:21.461758  9652 net.cpp:380] concat0_3_concat0_3_0_split -> concat0_3_concat0_3_0_split_1
I0126 12:06:21.461825  9652 net.cpp:122] Setting up concat0_3_concat0_3_0_split
I0126 12:06:21.461833  9652 net.cpp:129] Top shape: 1 80 43 89 (306160)
I0126 12:06:21.461838  9652 net.cpp:129] Top shape: 1 80 43 89 (306160)
I0126 12:06:21.461843  9652 net.cpp:137] Memory required for data: 18220368
I0126 12:06:21.461846  9652 layer_factory.hpp:77] Creating layer conv0_4
I0126 12:06:21.461861  9652 net.cpp:84] Creating Layer conv0_4
I0126 12:06:21.461866  9652 net.cpp:406] conv0_4 <- concat0_3_concat0_3_0_split_0
I0126 12:06:21.461874  9652 net.cpp:380] conv0_4 -> conv0_4
I0126 12:06:21.465505  9652 net.cpp:122] Setting up conv0_4
I0126 12:06:21.465543  9652 net.cpp:129] Top shape: 1 12 43 89 (45924)
I0126 12:06:21.465548  9652 net.cpp:137] Memory required for data: 18404064
I0126 12:06:21.465559  9652 layer_factory.hpp:77] Creating layer relu0_4
I0126 12:06:21.465571  9652 net.cpp:84] Creating Layer relu0_4
I0126 12:06:21.465577  9652 net.cpp:406] relu0_4 <- conv0_4
I0126 12:06:21.465585  9652 net.cpp:367] relu0_4 -> conv0_4 (in-place)
I0126 12:06:21.466275  9652 net.cpp:122] Setting up relu0_4
I0126 12:06:21.466295  9652 net.cpp:129] Top shape: 1 12 43 89 (45924)
I0126 12:06:21.466300  9652 net.cpp:137] Memory required for data: 18587760
I0126 12:06:21.466305  9652 layer_factory.hpp:77] Creating layer concat0_4
I0126 12:06:21.466316  9652 net.cpp:84] Creating Layer concat0_4
I0126 12:06:21.466323  9652 net.cpp:406] concat0_4 <- concat0_3_concat0_3_0_split_1
I0126 12:06:21.466331  9652 net.cpp:406] concat0_4 <- conv0_4
I0126 12:06:21.466341  9652 net.cpp:380] concat0_4 -> concat0_4
I0126 12:06:21.466403  9652 net.cpp:122] Setting up concat0_4
I0126 12:06:21.466413  9652 net.cpp:129] Top shape: 1 92 43 89 (352084)
I0126 12:06:21.466416  9652 net.cpp:137] Memory required for data: 19996096
I0126 12:06:21.466420  9652 layer_factory.hpp:77] Creating layer conv0_blk
I0126 12:06:21.466436  9652 net.cpp:84] Creating Layer conv0_blk
I0126 12:06:21.466440  9652 net.cpp:406] conv0_blk <- concat0_4
I0126 12:06:21.466447  9652 net.cpp:380] conv0_blk -> conv0_blk
I0126 12:06:21.470391  9652 net.cpp:122] Setting up conv0_blk
I0126 12:06:21.470430  9652 net.cpp:129] Top shape: 1 92 43 89 (352084)
I0126 12:06:21.470435  9652 net.cpp:137] Memory required for data: 21404432
I0126 12:06:21.470446  9652 layer_factory.hpp:77] Creating layer pool0
I0126 12:06:21.470460  9652 net.cpp:84] Creating Layer pool0
I0126 12:06:21.470466  9652 net.cpp:406] pool0 <- conv0_blk
I0126 12:06:21.470476  9652 net.cpp:380] pool0 -> pool0
I0126 12:06:21.472113  9652 net.cpp:122] Setting up pool0
I0126 12:06:21.472157  9652 net.cpp:129] Top shape: 1 92 22 45 (91080)
I0126 12:06:21.472162  9652 net.cpp:137] Memory required for data: 21768752
I0126 12:06:21.472169  9652 layer_factory.hpp:77] Creating layer pool0_pool0_0_split
I0126 12:06:21.472188  9652 net.cpp:84] Creating Layer pool0_pool0_0_split
I0126 12:06:21.472195  9652 net.cpp:406] pool0_pool0_0_split <- pool0
I0126 12:06:21.472204  9652 net.cpp:380] pool0_pool0_0_split -> pool0_pool0_0_split_0
I0126 12:06:21.472215  9652 net.cpp:380] pool0_pool0_0_split -> pool0_pool0_0_split_1
I0126 12:06:21.472306  9652 net.cpp:122] Setting up pool0_pool0_0_split
I0126 12:06:21.472316  9652 net.cpp:129] Top shape: 1 92 22 45 (91080)
I0126 12:06:21.472322  9652 net.cpp:129] Top shape: 1 92 22 45 (91080)
I0126 12:06:21.472326  9652 net.cpp:137] Memory required for data: 22497392
I0126 12:06:21.472331  9652 layer_factory.hpp:77] Creating layer conv1_0
I0126 12:06:21.472347  9652 net.cpp:84] Creating Layer conv1_0
I0126 12:06:21.472352  9652 net.cpp:406] conv1_0 <- pool0_pool0_0_split_0
I0126 12:06:21.472360  9652 net.cpp:380] conv1_0 -> conv1_0
I0126 12:06:21.475339  9652 net.cpp:122] Setting up conv1_0
I0126 12:06:21.475381  9652 net.cpp:129] Top shape: 1 12 22 45 (11880)
I0126 12:06:21.475388  9652 net.cpp:137] Memory required for data: 22544912
I0126 12:06:21.475399  9652 layer_factory.hpp:77] Creating layer relu1_0
I0126 12:06:21.475414  9652 net.cpp:84] Creating Layer relu1_0
I0126 12:06:21.475420  9652 net.cpp:406] relu1_0 <- conv1_0
I0126 12:06:21.475428  9652 net.cpp:367] relu1_0 -> conv1_0 (in-place)
I0126 12:06:21.476059  9652 net.cpp:122] Setting up relu1_0
I0126 12:06:21.476076  9652 net.cpp:129] Top shape: 1 12 22 45 (11880)
I0126 12:06:21.476081  9652 net.cpp:137] Memory required for data: 22592432
I0126 12:06:21.476085  9652 layer_factory.hpp:77] Creating layer concat1_0
I0126 12:06:21.476095  9652 net.cpp:84] Creating Layer concat1_0
I0126 12:06:21.476100  9652 net.cpp:406] concat1_0 <- pool0_pool0_0_split_1
I0126 12:06:21.476106  9652 net.cpp:406] concat1_0 <- conv1_0
I0126 12:06:21.476114  9652 net.cpp:380] concat1_0 -> concat1_0
I0126 12:06:21.476177  9652 net.cpp:122] Setting up concat1_0
I0126 12:06:21.476186  9652 net.cpp:129] Top shape: 1 104 22 45 (102960)
I0126 12:06:21.476191  9652 net.cpp:137] Memory required for data: 23004272
I0126 12:06:21.476194  9652 layer_factory.hpp:77] Creating layer concat1_0_concat1_0_0_split
I0126 12:06:21.476202  9652 net.cpp:84] Creating Layer concat1_0_concat1_0_0_split
I0126 12:06:21.476205  9652 net.cpp:406] concat1_0_concat1_0_0_split <- concat1_0
I0126 12:06:21.476212  9652 net.cpp:380] concat1_0_concat1_0_0_split -> concat1_0_concat1_0_0_split_0
I0126 12:06:21.476222  9652 net.cpp:380] concat1_0_concat1_0_0_split -> concat1_0_concat1_0_0_split_1
I0126 12:06:21.476383  9652 net.cpp:122] Setting up concat1_0_concat1_0_0_split
I0126 12:06:21.476395  9652 net.cpp:129] Top shape: 1 104 22 45 (102960)
I0126 12:06:21.476400  9652 net.cpp:129] Top shape: 1 104 22 45 (102960)
I0126 12:06:21.476404  9652 net.cpp:137] Memory required for data: 23827952
I0126 12:06:21.476409  9652 layer_factory.hpp:77] Creating layer conv1_1
I0126 12:06:21.476428  9652 net.cpp:84] Creating Layer conv1_1
I0126 12:06:21.476433  9652 net.cpp:406] conv1_1 <- concat1_0_concat1_0_0_split_0
I0126 12:06:21.476439  9652 net.cpp:380] conv1_1 -> conv1_1
I0126 12:06:21.480090  9652 net.cpp:122] Setting up conv1_1
I0126 12:06:21.480125  9652 net.cpp:129] Top shape: 1 12 22 45 (11880)
I0126 12:06:21.480130  9652 net.cpp:137] Memory required for data: 23875472
I0126 12:06:21.480144  9652 layer_factory.hpp:77] Creating layer relu1_1
I0126 12:06:21.480159  9652 net.cpp:84] Creating Layer relu1_1
I0126 12:06:21.480165  9652 net.cpp:406] relu1_1 <- conv1_1
I0126 12:06:21.480171  9652 net.cpp:367] relu1_1 -> conv1_1 (in-place)
I0126 12:06:21.480406  9652 net.cpp:122] Setting up relu1_1
I0126 12:06:21.480417  9652 net.cpp:129] Top shape: 1 12 22 45 (11880)
I0126 12:06:21.480420  9652 net.cpp:137] Memory required for data: 23922992
I0126 12:06:21.480424  9652 layer_factory.hpp:77] Creating layer concat1_1
I0126 12:06:21.480435  9652 net.cpp:84] Creating Layer concat1_1
I0126 12:06:21.480442  9652 net.cpp:406] concat1_1 <- concat1_0_concat1_0_0_split_1
I0126 12:06:21.480448  9652 net.cpp:406] concat1_1 <- conv1_1
I0126 12:06:21.480454  9652 net.cpp:380] concat1_1 -> concat1_1
I0126 12:06:21.480507  9652 net.cpp:122] Setting up concat1_1
I0126 12:06:21.480515  9652 net.cpp:129] Top shape: 1 116 22 45 (114840)
I0126 12:06:21.480520  9652 net.cpp:137] Memory required for data: 24382352
I0126 12:06:21.480523  9652 layer_factory.hpp:77] Creating layer concat1_1_concat1_1_0_split
I0126 12:06:21.480530  9652 net.cpp:84] Creating Layer concat1_1_concat1_1_0_split
I0126 12:06:21.480535  9652 net.cpp:406] concat1_1_concat1_1_0_split <- concat1_1
I0126 12:06:21.480541  9652 net.cpp:380] concat1_1_concat1_1_0_split -> concat1_1_concat1_1_0_split_0
I0126 12:06:21.480548  9652 net.cpp:380] concat1_1_concat1_1_0_split -> concat1_1_concat1_1_0_split_1
I0126 12:06:21.480613  9652 net.cpp:122] Setting up concat1_1_concat1_1_0_split
I0126 12:06:21.480621  9652 net.cpp:129] Top shape: 1 116 22 45 (114840)
I0126 12:06:21.480626  9652 net.cpp:129] Top shape: 1 116 22 45 (114840)
I0126 12:06:21.480635  9652 net.cpp:137] Memory required for data: 25301072
I0126 12:06:21.480639  9652 layer_factory.hpp:77] Creating layer conv1_2
I0126 12:06:21.480655  9652 net.cpp:84] Creating Layer conv1_2
I0126 12:06:21.480660  9652 net.cpp:406] conv1_2 <- concat1_1_concat1_1_0_split_0
I0126 12:06:21.480667  9652 net.cpp:380] conv1_2 -> conv1_2
I0126 12:06:21.483917  9652 net.cpp:122] Setting up conv1_2
I0126 12:06:21.483959  9652 net.cpp:129] Top shape: 1 12 22 45 (11880)
I0126 12:06:21.483964  9652 net.cpp:137] Memory required for data: 25348592
I0126 12:06:21.483976  9652 layer_factory.hpp:77] Creating layer relu1_2
I0126 12:06:21.483992  9652 net.cpp:84] Creating Layer relu1_2
I0126 12:06:21.483999  9652 net.cpp:406] relu1_2 <- conv1_2
I0126 12:06:21.484007  9652 net.cpp:367] relu1_2 -> conv1_2 (in-place)
I0126 12:06:21.484757  9652 net.cpp:122] Setting up relu1_2
I0126 12:06:21.484787  9652 net.cpp:129] Top shape: 1 12 22 45 (11880)
I0126 12:06:21.484791  9652 net.cpp:137] Memory required for data: 25396112
I0126 12:06:21.484798  9652 layer_factory.hpp:77] Creating layer concat1_2
I0126 12:06:21.484810  9652 net.cpp:84] Creating Layer concat1_2
I0126 12:06:21.484817  9652 net.cpp:406] concat1_2 <- concat1_1_concat1_1_0_split_1
I0126 12:06:21.484825  9652 net.cpp:406] concat1_2 <- conv1_2
I0126 12:06:21.484833  9652 net.cpp:380] concat1_2 -> concat1_2
I0126 12:06:21.484923  9652 net.cpp:122] Setting up concat1_2
I0126 12:06:21.484932  9652 net.cpp:129] Top shape: 1 128 22 45 (126720)
I0126 12:06:21.484936  9652 net.cpp:137] Memory required for data: 25902992
I0126 12:06:21.484941  9652 layer_factory.hpp:77] Creating layer concat1_2_concat1_2_0_split
I0126 12:06:21.484947  9652 net.cpp:84] Creating Layer concat1_2_concat1_2_0_split
I0126 12:06:21.484952  9652 net.cpp:406] concat1_2_concat1_2_0_split <- concat1_2
I0126 12:06:21.484958  9652 net.cpp:380] concat1_2_concat1_2_0_split -> concat1_2_concat1_2_0_split_0
I0126 12:06:21.484966  9652 net.cpp:380] concat1_2_concat1_2_0_split -> concat1_2_concat1_2_0_split_1
I0126 12:06:21.485039  9652 net.cpp:122] Setting up concat1_2_concat1_2_0_split
I0126 12:06:21.485049  9652 net.cpp:129] Top shape: 1 128 22 45 (126720)
I0126 12:06:21.485054  9652 net.cpp:129] Top shape: 1 128 22 45 (126720)
I0126 12:06:21.485057  9652 net.cpp:137] Memory required for data: 26916752
I0126 12:06:21.485061  9652 layer_factory.hpp:77] Creating layer conv1_3
I0126 12:06:21.485075  9652 net.cpp:84] Creating Layer conv1_3
I0126 12:06:21.485080  9652 net.cpp:406] conv1_3 <- concat1_2_concat1_2_0_split_0
I0126 12:06:21.485087  9652 net.cpp:380] conv1_3 -> conv1_3
I0126 12:06:21.488450  9652 net.cpp:122] Setting up conv1_3
I0126 12:06:21.488489  9652 net.cpp:129] Top shape: 1 12 22 45 (11880)
I0126 12:06:21.488494  9652 net.cpp:137] Memory required for data: 26964272
I0126 12:06:21.488505  9652 layer_factory.hpp:77] Creating layer relu1_3
I0126 12:06:21.488521  9652 net.cpp:84] Creating Layer relu1_3
I0126 12:06:21.488528  9652 net.cpp:406] relu1_3 <- conv1_3
I0126 12:06:21.488536  9652 net.cpp:367] relu1_3 -> conv1_3 (in-place)
I0126 12:06:21.488806  9652 net.cpp:122] Setting up relu1_3
I0126 12:06:21.488816  9652 net.cpp:129] Top shape: 1 12 22 45 (11880)
I0126 12:06:21.488821  9652 net.cpp:137] Memory required for data: 27011792
I0126 12:06:21.488826  9652 layer_factory.hpp:77] Creating layer concat1_3
I0126 12:06:21.488833  9652 net.cpp:84] Creating Layer concat1_3
I0126 12:06:21.488839  9652 net.cpp:406] concat1_3 <- concat1_2_concat1_2_0_split_1
I0126 12:06:21.488845  9652 net.cpp:406] concat1_3 <- conv1_3
I0126 12:06:21.488852  9652 net.cpp:380] concat1_3 -> concat1_3
I0126 12:06:21.488914  9652 net.cpp:122] Setting up concat1_3
I0126 12:06:21.488922  9652 net.cpp:129] Top shape: 1 140 22 45 (138600)
I0126 12:06:21.488926  9652 net.cpp:137] Memory required for data: 27566192
I0126 12:06:21.488930  9652 layer_factory.hpp:77] Creating layer concat1_3_concat1_3_0_split
I0126 12:06:21.488937  9652 net.cpp:84] Creating Layer concat1_3_concat1_3_0_split
I0126 12:06:21.488946  9652 net.cpp:406] concat1_3_concat1_3_0_split <- concat1_3
I0126 12:06:21.488953  9652 net.cpp:380] concat1_3_concat1_3_0_split -> concat1_3_concat1_3_0_split_0
I0126 12:06:21.488961  9652 net.cpp:380] concat1_3_concat1_3_0_split -> concat1_3_concat1_3_0_split_1
I0126 12:06:21.489032  9652 net.cpp:122] Setting up concat1_3_concat1_3_0_split
I0126 12:06:21.489040  9652 net.cpp:129] Top shape: 1 140 22 45 (138600)
I0126 12:06:21.489045  9652 net.cpp:129] Top shape: 1 140 22 45 (138600)
I0126 12:06:21.489048  9652 net.cpp:137] Memory required for data: 28674992
I0126 12:06:21.489053  9652 layer_factory.hpp:77] Creating layer conv1_4
I0126 12:06:21.489066  9652 net.cpp:84] Creating Layer conv1_4
I0126 12:06:21.489071  9652 net.cpp:406] conv1_4 <- concat1_3_concat1_3_0_split_0
I0126 12:06:21.489078  9652 net.cpp:380] conv1_4 -> conv1_4
I0126 12:06:21.492619  9652 net.cpp:122] Setting up conv1_4
I0126 12:06:21.492635  9652 net.cpp:129] Top shape: 1 12 22 45 (11880)
I0126 12:06:21.492638  9652 net.cpp:137] Memory required for data: 28722512
I0126 12:06:21.492647  9652 layer_factory.hpp:77] Creating layer relu1_4
I0126 12:06:21.492655  9652 net.cpp:84] Creating Layer relu1_4
I0126 12:06:21.492660  9652 net.cpp:406] relu1_4 <- conv1_4
I0126 12:06:21.492668  9652 net.cpp:367] relu1_4 -> conv1_4 (in-place)
I0126 12:06:21.493574  9652 net.cpp:122] Setting up relu1_4
I0126 12:06:21.493590  9652 net.cpp:129] Top shape: 1 12 22 45 (11880)
I0126 12:06:21.493595  9652 net.cpp:137] Memory required for data: 28770032
I0126 12:06:21.493600  9652 layer_factory.hpp:77] Creating layer concat1_4
I0126 12:06:21.493609  9652 net.cpp:84] Creating Layer concat1_4
I0126 12:06:21.493614  9652 net.cpp:406] concat1_4 <- concat1_3_concat1_3_0_split_1
I0126 12:06:21.493620  9652 net.cpp:406] concat1_4 <- conv1_4
I0126 12:06:21.493628  9652 net.cpp:380] concat1_4 -> concat1_4
I0126 12:06:21.493683  9652 net.cpp:122] Setting up concat1_4
I0126 12:06:21.493691  9652 net.cpp:129] Top shape: 1 152 22 45 (150480)
I0126 12:06:21.493695  9652 net.cpp:137] Memory required for data: 29371952
I0126 12:06:21.493700  9652 layer_factory.hpp:77] Creating layer concat1_4_concat1_4_0_split
I0126 12:06:21.493706  9652 net.cpp:84] Creating Layer concat1_4_concat1_4_0_split
I0126 12:06:21.493710  9652 net.cpp:406] concat1_4_concat1_4_0_split <- concat1_4
I0126 12:06:21.493718  9652 net.cpp:380] concat1_4_concat1_4_0_split -> concat1_4_concat1_4_0_split_0
I0126 12:06:21.493726  9652 net.cpp:380] concat1_4_concat1_4_0_split -> concat1_4_concat1_4_0_split_1
I0126 12:06:21.493793  9652 net.cpp:122] Setting up concat1_4_concat1_4_0_split
I0126 12:06:21.493800  9652 net.cpp:129] Top shape: 1 152 22 45 (150480)
I0126 12:06:21.493806  9652 net.cpp:129] Top shape: 1 152 22 45 (150480)
I0126 12:06:21.493810  9652 net.cpp:137] Memory required for data: 30575792
I0126 12:06:21.493814  9652 layer_factory.hpp:77] Creating layer conv1_5
I0126 12:06:21.493827  9652 net.cpp:84] Creating Layer conv1_5
I0126 12:06:21.493831  9652 net.cpp:406] conv1_5 <- concat1_4_concat1_4_0_split_0
I0126 12:06:21.493840  9652 net.cpp:380] conv1_5 -> conv1_5
I0126 12:06:21.498663  9652 net.cpp:122] Setting up conv1_5
I0126 12:06:21.498688  9652 net.cpp:129] Top shape: 1 12 22 45 (11880)
I0126 12:06:21.498692  9652 net.cpp:137] Memory required for data: 30623312
I0126 12:06:21.498703  9652 layer_factory.hpp:77] Creating layer relu1_5
I0126 12:06:21.498713  9652 net.cpp:84] Creating Layer relu1_5
I0126 12:06:21.498718  9652 net.cpp:406] relu1_5 <- conv1_5
I0126 12:06:21.498725  9652 net.cpp:367] relu1_5 -> conv1_5 (in-place)
I0126 12:06:21.499366  9652 net.cpp:122] Setting up relu1_5
I0126 12:06:21.499382  9652 net.cpp:129] Top shape: 1 12 22 45 (11880)
I0126 12:06:21.499387  9652 net.cpp:137] Memory required for data: 30670832
I0126 12:06:21.499390  9652 layer_factory.hpp:77] Creating layer concat1_5
I0126 12:06:21.499402  9652 net.cpp:84] Creating Layer concat1_5
I0126 12:06:21.499406  9652 net.cpp:406] concat1_5 <- concat1_4_concat1_4_0_split_1
I0126 12:06:21.499413  9652 net.cpp:406] concat1_5 <- conv1_5
I0126 12:06:21.499425  9652 net.cpp:380] concat1_5 -> concat1_5
I0126 12:06:21.499480  9652 net.cpp:122] Setting up concat1_5
I0126 12:06:21.499487  9652 net.cpp:129] Top shape: 1 164 22 45 (162360)
I0126 12:06:21.499491  9652 net.cpp:137] Memory required for data: 31320272
I0126 12:06:21.499495  9652 layer_factory.hpp:77] Creating layer concat1_5_concat1_5_0_split
I0126 12:06:21.499505  9652 net.cpp:84] Creating Layer concat1_5_concat1_5_0_split
I0126 12:06:21.499511  9652 net.cpp:406] concat1_5_concat1_5_0_split <- concat1_5
I0126 12:06:21.499516  9652 net.cpp:380] concat1_5_concat1_5_0_split -> concat1_5_concat1_5_0_split_0
I0126 12:06:21.499524  9652 net.cpp:380] concat1_5_concat1_5_0_split -> concat1_5_concat1_5_0_split_1
I0126 12:06:21.499593  9652 net.cpp:122] Setting up concat1_5_concat1_5_0_split
I0126 12:06:21.499600  9652 net.cpp:129] Top shape: 1 164 22 45 (162360)
I0126 12:06:21.499605  9652 net.cpp:129] Top shape: 1 164 22 45 (162360)
I0126 12:06:21.499609  9652 net.cpp:137] Memory required for data: 32619152
I0126 12:06:21.499614  9652 layer_factory.hpp:77] Creating layer conv1_6
I0126 12:06:21.499629  9652 net.cpp:84] Creating Layer conv1_6
I0126 12:06:21.499634  9652 net.cpp:406] conv1_6 <- concat1_5_concat1_5_0_split_0
I0126 12:06:21.499640  9652 net.cpp:380] conv1_6 -> conv1_6
I0126 12:06:21.503971  9652 net.cpp:122] Setting up conv1_6
I0126 12:06:21.504010  9652 net.cpp:129] Top shape: 1 12 22 45 (11880)
I0126 12:06:21.504015  9652 net.cpp:137] Memory required for data: 32666672
I0126 12:06:21.504027  9652 layer_factory.hpp:77] Creating layer relu1_6
I0126 12:06:21.504040  9652 net.cpp:84] Creating Layer relu1_6
I0126 12:06:21.504047  9652 net.cpp:406] relu1_6 <- conv1_6
I0126 12:06:21.504056  9652 net.cpp:367] relu1_6 -> conv1_6 (in-place)
I0126 12:06:21.504343  9652 net.cpp:122] Setting up relu1_6
I0126 12:06:21.504360  9652 net.cpp:129] Top shape: 1 12 22 45 (11880)
I0126 12:06:21.504365  9652 net.cpp:137] Memory required for data: 32714192
I0126 12:06:21.504370  9652 layer_factory.hpp:77] Creating layer concat1_6
I0126 12:06:21.504384  9652 net.cpp:84] Creating Layer concat1_6
I0126 12:06:21.504390  9652 net.cpp:406] concat1_6 <- concat1_5_concat1_5_0_split_1
I0126 12:06:21.504398  9652 net.cpp:406] concat1_6 <- conv1_6
I0126 12:06:21.504405  9652 net.cpp:380] concat1_6 -> concat1_6
I0126 12:06:21.504483  9652 net.cpp:122] Setting up concat1_6
I0126 12:06:21.504493  9652 net.cpp:129] Top shape: 1 176 22 45 (174240)
I0126 12:06:21.504498  9652 net.cpp:137] Memory required for data: 33411152
I0126 12:06:21.504501  9652 layer_factory.hpp:77] Creating layer concat1_6_concat1_6_0_split
I0126 12:06:21.504508  9652 net.cpp:84] Creating Layer concat1_6_concat1_6_0_split
I0126 12:06:21.504513  9652 net.cpp:406] concat1_6_concat1_6_0_split <- concat1_6
I0126 12:06:21.504519  9652 net.cpp:380] concat1_6_concat1_6_0_split -> concat1_6_concat1_6_0_split_0
I0126 12:06:21.504526  9652 net.cpp:380] concat1_6_concat1_6_0_split -> concat1_6_concat1_6_0_split_1
I0126 12:06:21.504601  9652 net.cpp:122] Setting up concat1_6_concat1_6_0_split
I0126 12:06:21.504609  9652 net.cpp:129] Top shape: 1 176 22 45 (174240)
I0126 12:06:21.504616  9652 net.cpp:129] Top shape: 1 176 22 45 (174240)
I0126 12:06:21.504619  9652 net.cpp:137] Memory required for data: 34805072
I0126 12:06:21.504623  9652 layer_factory.hpp:77] Creating layer conv1_7
I0126 12:06:21.504638  9652 net.cpp:84] Creating Layer conv1_7
I0126 12:06:21.504643  9652 net.cpp:406] conv1_7 <- concat1_6_concat1_6_0_split_0
I0126 12:06:21.504652  9652 net.cpp:380] conv1_7 -> conv1_7
I0126 12:06:21.508222  9652 net.cpp:122] Setting up conv1_7
I0126 12:06:21.508261  9652 net.cpp:129] Top shape: 1 12 22 45 (11880)
I0126 12:06:21.508266  9652 net.cpp:137] Memory required for data: 34852592
I0126 12:06:21.508280  9652 layer_factory.hpp:77] Creating layer relu1_7
I0126 12:06:21.508294  9652 net.cpp:84] Creating Layer relu1_7
I0126 12:06:21.508301  9652 net.cpp:406] relu1_7 <- conv1_7
I0126 12:06:21.508311  9652 net.cpp:367] relu1_7 -> conv1_7 (in-place)
I0126 12:06:21.509124  9652 net.cpp:122] Setting up relu1_7
I0126 12:06:21.509155  9652 net.cpp:129] Top shape: 1 12 22 45 (11880)
I0126 12:06:21.509160  9652 net.cpp:137] Memory required for data: 34900112
I0126 12:06:21.509167  9652 layer_factory.hpp:77] Creating layer concat1_7
I0126 12:06:21.509179  9652 net.cpp:84] Creating Layer concat1_7
I0126 12:06:21.509186  9652 net.cpp:406] concat1_7 <- concat1_6_concat1_6_0_split_1
I0126 12:06:21.509193  9652 net.cpp:406] concat1_7 <- conv1_7
I0126 12:06:21.509202  9652 net.cpp:380] concat1_7 -> concat1_7
I0126 12:06:21.509295  9652 net.cpp:122] Setting up concat1_7
I0126 12:06:21.509305  9652 net.cpp:129] Top shape: 1 188 22 45 (186120)
I0126 12:06:21.509308  9652 net.cpp:137] Memory required for data: 35644592
I0126 12:06:21.509317  9652 layer_factory.hpp:77] Creating layer concat1_7_concat1_7_0_split
I0126 12:06:21.509326  9652 net.cpp:84] Creating Layer concat1_7_concat1_7_0_split
I0126 12:06:21.509330  9652 net.cpp:406] concat1_7_concat1_7_0_split <- concat1_7
I0126 12:06:21.509336  9652 net.cpp:380] concat1_7_concat1_7_0_split -> concat1_7_concat1_7_0_split_0
I0126 12:06:21.509344  9652 net.cpp:380] concat1_7_concat1_7_0_split -> concat1_7_concat1_7_0_split_1
I0126 12:06:21.509423  9652 net.cpp:122] Setting up concat1_7_concat1_7_0_split
I0126 12:06:21.509430  9652 net.cpp:129] Top shape: 1 188 22 45 (186120)
I0126 12:06:21.509435  9652 net.cpp:129] Top shape: 1 188 22 45 (186120)
I0126 12:06:21.509439  9652 net.cpp:137] Memory required for data: 37133552
I0126 12:06:21.509443  9652 layer_factory.hpp:77] Creating layer conv1_8
I0126 12:06:21.509459  9652 net.cpp:84] Creating Layer conv1_8
I0126 12:06:21.509464  9652 net.cpp:406] conv1_8 <- concat1_7_concat1_7_0_split_0
I0126 12:06:21.509471  9652 net.cpp:380] conv1_8 -> conv1_8
I0126 12:06:21.512815  9652 net.cpp:122] Setting up conv1_8
I0126 12:06:21.512850  9652 net.cpp:129] Top shape: 1 12 22 45 (11880)
I0126 12:06:21.512854  9652 net.cpp:137] Memory required for data: 37181072
I0126 12:06:21.512866  9652 layer_factory.hpp:77] Creating layer relu1_8
I0126 12:06:21.512879  9652 net.cpp:84] Creating Layer relu1_8
I0126 12:06:21.512887  9652 net.cpp:406] relu1_8 <- conv1_8
I0126 12:06:21.512894  9652 net.cpp:367] relu1_8 -> conv1_8 (in-place)
I0126 12:06:21.513140  9652 net.cpp:122] Setting up relu1_8
I0126 12:06:21.513150  9652 net.cpp:129] Top shape: 1 12 22 45 (11880)
I0126 12:06:21.513155  9652 net.cpp:137] Memory required for data: 37228592
I0126 12:06:21.513159  9652 layer_factory.hpp:77] Creating layer concat1_8
I0126 12:06:21.513170  9652 net.cpp:84] Creating Layer concat1_8
I0126 12:06:21.513175  9652 net.cpp:406] concat1_8 <- concat1_7_concat1_7_0_split_1
I0126 12:06:21.513180  9652 net.cpp:406] concat1_8 <- conv1_8
I0126 12:06:21.513186  9652 net.cpp:380] concat1_8 -> concat1_8
I0126 12:06:21.513237  9652 net.cpp:122] Setting up concat1_8
I0126 12:06:21.513245  9652 net.cpp:129] Top shape: 1 200 22 45 (198000)
I0126 12:06:21.513249  9652 net.cpp:137] Memory required for data: 38020592
I0126 12:06:21.513253  9652 layer_factory.hpp:77] Creating layer concat1_8_concat1_8_0_split
I0126 12:06:21.513262  9652 net.cpp:84] Creating Layer concat1_8_concat1_8_0_split
I0126 12:06:21.513267  9652 net.cpp:406] concat1_8_concat1_8_0_split <- concat1_8
I0126 12:06:21.513273  9652 net.cpp:380] concat1_8_concat1_8_0_split -> concat1_8_concat1_8_0_split_0
I0126 12:06:21.513283  9652 net.cpp:380] concat1_8_concat1_8_0_split -> concat1_8_concat1_8_0_split_1
I0126 12:06:21.513353  9652 net.cpp:122] Setting up concat1_8_concat1_8_0_split
I0126 12:06:21.513363  9652 net.cpp:129] Top shape: 1 200 22 45 (198000)
I0126 12:06:21.513370  9652 net.cpp:129] Top shape: 1 200 22 45 (198000)
I0126 12:06:21.513373  9652 net.cpp:137] Memory required for data: 39604592
I0126 12:06:21.513377  9652 layer_factory.hpp:77] Creating layer conv1_9
I0126 12:06:21.513393  9652 net.cpp:84] Creating Layer conv1_9
I0126 12:06:21.513399  9652 net.cpp:406] conv1_9 <- concat1_8_concat1_8_0_split_0
I0126 12:06:21.513406  9652 net.cpp:380] conv1_9 -> conv1_9
I0126 12:06:21.595762  9652 net.cpp:122] Setting up conv1_9
I0126 12:06:21.595801  9652 net.cpp:129] Top shape: 1 12 22 45 (11880)
I0126 12:06:21.595805  9652 net.cpp:137] Memory required for data: 39652112
I0126 12:06:21.595821  9652 layer_factory.hpp:77] Creating layer relu1_9
I0126 12:06:21.595834  9652 net.cpp:84] Creating Layer relu1_9
I0126 12:06:21.595840  9652 net.cpp:406] relu1_9 <- conv1_9
I0126 12:06:21.595845  9652 net.cpp:367] relu1_9 -> conv1_9 (in-place)
I0126 12:06:21.596567  9652 net.cpp:122] Setting up relu1_9
I0126 12:06:21.596590  9652 net.cpp:129] Top shape: 1 12 22 45 (11880)
I0126 12:06:21.596595  9652 net.cpp:137] Memory required for data: 39699632
I0126 12:06:21.596598  9652 layer_factory.hpp:77] Creating layer concat1_9
I0126 12:06:21.596609  9652 net.cpp:84] Creating Layer concat1_9
I0126 12:06:21.596614  9652 net.cpp:406] concat1_9 <- concat1_8_concat1_8_0_split_1
I0126 12:06:21.596619  9652 net.cpp:406] concat1_9 <- conv1_9
I0126 12:06:21.596624  9652 net.cpp:380] concat1_9 -> concat1_9
I0126 12:06:21.596704  9652 net.cpp:122] Setting up concat1_9
I0126 12:06:21.596711  9652 net.cpp:129] Top shape: 1 212 22 45 (209880)
I0126 12:06:21.596714  9652 net.cpp:137] Memory required for data: 40539152
I0126 12:06:21.596716  9652 layer_factory.hpp:77] Creating layer tpp5
I0126 12:06:21.596724  9652 net.cpp:84] Creating Layer tpp5
I0126 12:06:21.596725  9652 net.cpp:406] tpp5 <- concat1_9
I0126 12:06:21.596730  9652 net.cpp:380] tpp5 -> tpp5
I0126 12:06:21.597429  9652 net.cpp:122] Setting up tpp5
I0126 12:06:21.597441  9652 net.cpp:129] Top shape: 1 3180 (3180)
I0126 12:06:21.597445  9652 net.cpp:137] Memory required for data: 40551872
I0126 12:06:21.597447  9652 layer_factory.hpp:77] Creating layer fc6_d
I0126 12:06:21.597455  9652 net.cpp:84] Creating Layer fc6_d
I0126 12:06:21.597460  9652 net.cpp:406] fc6_d <- tpp5
I0126 12:06:21.597465  9652 net.cpp:380] fc6_d -> fc6_d
I0126 12:06:22.886219  9652 net.cpp:122] Setting up fc6_d
I0126 12:06:22.886256  9652 net.cpp:129] Top shape: 1 4096 (4096)
I0126 12:06:22.886261  9652 net.cpp:137] Memory required for data: 40568256
I0126 12:06:22.886273  9652 layer_factory.hpp:77] Creating layer relu6
I0126 12:06:22.886286  9652 net.cpp:84] Creating Layer relu6
I0126 12:06:22.886291  9652 net.cpp:406] relu6 <- fc6_d
I0126 12:06:22.886299  9652 net.cpp:367] relu6 -> fc6_d (in-place)
I0126 12:06:22.888310  9652 net.cpp:122] Setting up relu6
I0126 12:06:22.888325  9652 net.cpp:129] Top shape: 1 4096 (4096)
I0126 12:06:22.888330  9652 net.cpp:137] Memory required for data: 40584640
I0126 12:06:22.888335  9652 layer_factory.hpp:77] Creating layer drop6
I0126 12:06:22.888347  9652 net.cpp:84] Creating Layer drop6
I0126 12:06:22.888352  9652 net.cpp:406] drop6 <- fc6_d
I0126 12:06:22.888358  9652 net.cpp:367] drop6 -> fc6_d (in-place)
I0126 12:06:22.888419  9652 net.cpp:122] Setting up drop6
I0126 12:06:22.888427  9652 net.cpp:129] Top shape: 1 4096 (4096)
I0126 12:06:22.888432  9652 net.cpp:137] Memory required for data: 40601024
I0126 12:06:22.888437  9652 layer_factory.hpp:77] Creating layer fc7_d
I0126 12:06:22.888445  9652 net.cpp:84] Creating Layer fc7_d
I0126 12:06:22.888449  9652 net.cpp:406] fc7_d <- fc6_d
I0126 12:06:22.888458  9652 net.cpp:380] fc7_d -> fc7_d
I0126 12:06:24.357933  9652 net.cpp:122] Setting up fc7_d
I0126 12:06:24.357972  9652 net.cpp:129] Top shape: 1 4096 (4096)
I0126 12:06:24.357977  9652 net.cpp:137] Memory required for data: 40617408
I0126 12:06:24.357990  9652 layer_factory.hpp:77] Creating layer relu7
I0126 12:06:24.358001  9652 net.cpp:84] Creating Layer relu7
I0126 12:06:24.358007  9652 net.cpp:406] relu7 <- fc7_d
I0126 12:06:24.358016  9652 net.cpp:367] relu7 -> fc7_d (in-place)
I0126 12:06:24.358322  9652 net.cpp:122] Setting up relu7
I0126 12:06:24.358333  9652 net.cpp:129] Top shape: 1 4096 (4096)
I0126 12:06:24.358337  9652 net.cpp:137] Memory required for data: 40633792
I0126 12:06:24.358342  9652 layer_factory.hpp:77] Creating layer drop7
I0126 12:06:24.358353  9652 net.cpp:84] Creating Layer drop7
I0126 12:06:24.358362  9652 net.cpp:406] drop7 <- fc7_d
I0126 12:06:24.358371  9652 net.cpp:367] drop7 -> fc7_d (in-place)
I0126 12:06:24.358423  9652 net.cpp:122] Setting up drop7
I0126 12:06:24.358431  9652 net.cpp:129] Top shape: 1 4096 (4096)
I0126 12:06:24.358436  9652 net.cpp:137] Memory required for data: 40650176
I0126 12:06:24.358440  9652 layer_factory.hpp:77] Creating layer fc8_d
I0126 12:06:24.358450  9652 net.cpp:84] Creating Layer fc8_d
I0126 12:06:24.358454  9652 net.cpp:406] fc8_d <- fc7_d
I0126 12:06:24.358460  9652 net.cpp:380] fc8_d -> fc8_d
I0126 12:06:24.626880  9652 net.cpp:122] Setting up fc8_d
I0126 12:06:24.626917  9652 net.cpp:129] Top shape: 1 618 (618)
I0126 12:06:24.626922  9652 net.cpp:137] Memory required for data: 40652648
I0126 12:06:24.626935  9652 layer_factory.hpp:77] Creating layer loss
I0126 12:06:24.626946  9652 net.cpp:84] Creating Layer loss
I0126 12:06:24.626953  9652 net.cpp:406] loss <- fc8_d
I0126 12:06:24.626960  9652 net.cpp:406] loss <- phocs
I0126 12:06:24.626966  9652 net.cpp:380] loss -> loss
I0126 12:06:24.627045  9652 net.cpp:122] Setting up loss
…
  phase: TEST
}
layer {
  name: "word_images"
  type: "Data"
  top: "word_images"
  top: "label"
  transform_param {
    scale: -0.0039215689
    mean_value: 255
  }
  data_param {
    source: "/data/fwolf/iam_15000/iam-db_nti500000_pul2-3-4-5_test_word_images_lmdb"
    batch_size: 1
    backend: LMDB
    prefetch: 20
  }
}
layer {
  name: "phocs"
  type: "Data"
  top: "phocs"
  top: "label_phocs"
  data_param {
    source: "/data/fwolf/iam_15000/iam-db_nti500000_pul2-3-4-5_test_phocs_lmdb"
    batch_size: 1
    backend: LMDB
    prefetch: 20
  }
}
layer {
  name: "conv_init"
  type: "Convolution"
  bottom: "word_images"
  top: "conv_init"
  convolution_param {
    num_output: 32
    bias_term: false
    pad: 1
    kernel_size: 3
    stride: 1
    weight_filler {
      type: "msra"
    }
    bias_filler {
      type: "constant"
    }
    engine: CUDNN
  }
}
layer {
  name: "relu_init"
  type: "ReLU"
  bottom: "conv_init"
  top: "conv_init"
}
layer {
  name: "pool_init"
  type: "Pooling"
  bottom: "conv_init"
  top: "pool_init"
  pooling_param {
    pool: MAX
    kernel_size: 3
    stride: 2
    pad: 1
  }
}
layer {
  name: "conv0_0"
  type: "Convolution"
  bottom: "pool_init"
  top: "conv0_0"
  convolution_param {
    num_output: 12
    bias_term: false
    pad: 1
    kernel_size: 3
    stride: 1
    weight_filler {
      type: "msra"
    }
    bias_filler {
      type: "constant"
    }
    engine: CUDNN
  }
}
layer {
  name: "relu0_0"
  type: "ReLU"
  bottom: "conv0_0"
  top: "conv0_0"
}
layer {
  name: "concat0_0"
  type: "Concat"
  bottom: "pool_init"
  bottom: "conv0_0"
  top: "concat0_0"
  concat_param {
    axis: 1
  }
}
layer {
  name: "conv0_1"
  type: "Convolution"
  bottom: "concat0_0"
  top: "conv0_1"
  convolution_param {
    num_output: 12
    bias_term: false
    pad: 1
    kernel_size: 3
    stride: 1
    weight_filler {
      type: "msra"
    }
    bias_filler {
      type: "constant"
    }
    engine: CUDNN
  }
}
layer {
  name: "relu0_1"
  type: "ReLU"
  bottom: "conv0_1"
  top: "conv0_1"
}
layer {
  name: "concat0_1"
  type: "Concat"
  bottom: "concat0_0"
  bottom: "conv0_1"
  top: "concat0_1"
  concat_param {
    axis: 1
  }
}
layer {
  name: "conv0_2"
  type: "Convolution"
  bottom: "concat0_1"
  top: "conv0_2"
  convolution_param {
    num_output: 12
    bias_term: false
    pad: 1
    kernel_size: 3
    stride: 1
    weight_filler {
      type: "msra"
    }
    bias_filler {
      type: "constant"
    }
    engine: CUDNN
  }
}
layer {
  name: "relu0_2"
  type: "ReLU"
  bottom: "conv0_2"
  top: "conv0_2"
}
layer {
  name: "concat0_2"
  type: "Concat"
  bottom: "concat0_1"
  bottom: "conv0_2"
  top: "concat0_2"
  concat_param {
    axis: 1
  }
}
layer {
  name: "conv0_3"
  type: "Convolution"
  bottom: "concat0_2"
  top: "conv0_3"
  convolution_param {
    num_output: 12
    bias_term: false
    pad: 1
    kernel_size: 3
    stride: 1
    weight_filler {
      type: "msra"
    }
    bias_filler {
      type: "constant"
    }
    engine: CUDNN
  }
}
layer {
  name: "relu0_3"
  type: "ReLU"
  bottom: "conv0_3"
  top: "conv0_3"
}
layer {
  name: "concat0_3"
  type: "Concat"
  bottom: "concat0_2"
  bottom: "conv0_3"
  top: "concat0_3"
  concat_param {
    axis: 1
  }
}
layer {
  name: "conv0_4"
  type: "Convolution"
  bottom: "concat0_3"
  top: "conv0_4"
  convolution_param {
    num_output: 12
    bias_term: false
    pad: 1
    kernel_size: 3
    stride: 1
    weight_filler {
      type: "msra"
    }
    bias_filler {
      type: "constant"
    }
    engine: CUDNN
  }
}
layer {
  name: "relu0_4"
  type: "ReLU"
  bottom: "conv0_4"
  top: "conv0_4"
}
layer {
  name: "concat0_4"
  type: "Concat"
  bottom: "concat0_3"
  bottom: "conv0_4"
  top: "concat0_4"
  concat_param {
    axis: 1
  }
}
layer {
  name: "conv0_blk"
  type: "Convolution"
  bottom: "concat0_4"
  top: "conv0_blk"
  convolution_param {
    num_output: 92
    bias_term: false
    pad: 0
    kernel_size: 1
    stride: 1
    weight_filler {
      type: "msra"
    }
    bias_filler {
      type: "constant"
    }
    engine: CUDNN
  }
}
layer {
  name: "pool0"
  type: "Pooling"
  bottom: "conv0_blk"
  top: "pool0"
  pooling_param {
    pool: AVE
    kernel_size: 2
    stride: 2
  }
}
layer {
  name: "conv1_0"
  type: "Convolution"
  bottom: "pool0"
  top: "conv1_0"
  convolution_param {
    num_output: 12
    bias_term: false
    pad: 1
    kernel_size: 3
    stride: 1
    weight_filler {
      type: "msra"
    }
    bias_filler {
      type: "constant"
    }
    engine: CUDNN
  }
}
layer {
  name: "relu1_0"
  type: "ReLU"
  bottom: "conv1_0"
  top: "conv1_0"
}
layer {
  name: "concat1_0"
  type: "Concat"
  bottom: "pool0"
  bottom: "conv1_0"
  top: "concat1_0"
  concat_param {
    axis: 1
  }
}
layer {
  name: "conv1_1"
  type: "Convolution"
  bottom: "concat1_0"
  top: "conv1_1"
  convolution_param {
    num_output: 12
    bias_term: false
    pad: 1
    kernel_size: 3
    stride: 1
    weight_filler {
      type: "msra"
    }
    bias_filler {
      type: "constant"
    }
    engine: CUDNN
  }
}
layer {
  name: "relu1_1"
  type: "ReLU"
  bottom: "conv1_1"
  top: "conv1_1"
}
layer {
  name: "concat1_1"
  type: "Concat"
  bottom: "concat1_0"
  bottom: "conv1_1"
  top: "concat1_1"
  concat_param {
    axis: 1
  }
}
layer {
  name: "conv1_2"
  type: "Convolution"
  bottom: "concat1_1"
  top: "conv1_2"
  convolution_param {
    num_output: 12
    bias_term: false
    pad: 1
    kernel_size: 3
    stride: 1
    weight_filler {
      type: "msra"
    }
    bias_filler {
      type: "constant"
    }
    engine: CUDNN
  }
}
layer {
  name: "relu1_2"
  type: "ReLU"
  bottom: "conv1_2"
  top: "conv1_2"
}
layer {
  name: "concat1_2"
  type: "Concat"
  bottom: "concat1_1"
  bottom: "conv1_2"
  top: "concat1_2"
  concat_param {
    axis: 1
  }
}
layer {
  name: "conv1_3"
  type: "Convolution"
  bottom: "concat1_2"
  top: "conv1_3"
  convolution_param {
    num_output: 12
    bias_term: false
    pad: 1
    kernel_size: 3
    stride: 1
    weight_filler {
      type: "msra"
    }
    bias_filler {
      type: "constant"
    }
    engine: CUDNN
  }
}
layer {
  name: "relu1_3"
  type: "ReLU"
  bottom: "conv1_3"
  top: "conv1_3"
}
layer {
  name: "concat1_3"
  type: "Concat"
  bottom: "concat1_2"
  bottom: "conv1_3"
  top: "concat1_3"
  concat_param {
    axis: 1
  }
}
layer {
  name: "conv1_4"
  type: "Convolution"
  bottom: "concat1_3"
  top: "conv1_4"
  convolution_param {
    num_output: 12
    bias_term: false
    pad: 1
    kernel_size: 3
    stride: 1
    weight_filler {
      type: "msra"
    }
    bias_filler {
      type: "constant"
    }
    engine: CUDNN
  }
}
layer {
  name: "relu1_4"
  type: "ReLU"
  bottom: "conv1_4"
  top: "conv1_4"
}
layer {
  name: "concat1_4"
  type: "Concat"
  bottom: "concat1_3"
  bottom: "conv1_4"
  top: "concat1_4"
  concat_param {
    axis: 1
  }
}
layer {
  name: "conv1_5"
  type: "Convolution"
  bottom: "concat1_4"
  top: "conv1_5"
  convolution_param {
    num_output: 12
    bias_term: false
    pad: 1
    kernel_size: 3
    stride: 1
    weight_filler {
      type: "msra"
    }
    bias_filler {
      type: "constant"
    }
    engine: CUDNN
  }
}
layer {
  name: "relu1_5"
  type: "ReLU"
  bottom: "conv1_5"
  top: "conv1_5"
}
layer {
  name: "concat1_5"
  type: "Concat"
  bottom: "concat1_4"
  bottom: "conv1_5"
  top: "concat1_5"
  concat_param {
    axis: 1
  }
}
layer {
  name: "conv1_6"
  type: "Convolution"
  bottom: "concat1_5"
  top: "conv1_6"
  convolution_param {
    num_output: 12
    bias_term: false
    pad: 1
    kernel_size: 3
    stride: 1
    weight_filler {
      type: "msra"
    }
    bias_filler {
      type: "constant"
    }
    engine: CUDNN
  }
}
layer {
  name: "relu1_6"
  type: "ReLU"
  bottom: "conv1_6"
  top: "conv1_6"
}
layer {
  name: "concat1_6"
  type: "Concat"
  bottom: "concat1_5"
  bottom: "conv1_6"
  top: "concat1_6"
  concat_param {
    axis: 1
  }
}
layer {
  name: "conv1_7"
  type: "Convolution"
  bottom: "concat1_6"
  top: "conv1_7"
  convolution_param {
    num_output: 12
    bias_term: false
    pad: 1
    kernel_size: 3
    stride: 1
    weight_filler {
      type: "msra"
    }
    bias_filler {
      type: "constant"
    }
    engine: CUDNN
  }
}
layer {
  name: "relu1_7"
  type: "ReLU"
  bottom: "conv1_7"
  top: "conv1_7"
}
layer {
  name: "concat1_7"
  type: "Concat"
  bottom: "concat1_6"
  bottom: "conv1_7"
  top: "concat1_7"
  concat_param {
    axis: 1
  }
}
layer {
  name: "conv1_8"
  type: "Convolution"
  bottom: "concat1_7"
  top: "conv1_8"
  convolution_param {
    num_output: 12
    bias_term: false
    pad: 1
    kernel_size: 3
    stride: 1
    weight_filler {
      type: "msra"
    }
    bias_filler {
      type: "constant"
    }
    engine: CUDNN
  }
}
layer {
  name: "relu1_8"
  type: "ReLU"
  bottom: "conv1_8"
  top: "conv1_8"
}
layer {
  name: "concat1_8"
  type: "Concat"
  bottom: "concat1_7"
  bottom: "conv1_8"
  top: "concat1_8"
  concat_param {
    axis: 1
  }
}
layer {
  name: "conv1_9"
  type: "Convolution"
  bottom: "concat1_8"
  top: "conv1_9"
  convolution_param {
    num_output: 12
    bias_term: false
    pad: 1
    kernel_size: 3
    stride: 1
    weight_filler {
      type: "msra"
    }
    bias_filler {
      type: "constant"
    }
    engine: CUDNN
  }
}
layer {
  name: "relu1_9"
  type: "ReLU"
  bottom: "conv1_9"
  top: "conv1_9"
}
layer {
  name: "concat1_9"
  type: "Concat"
  bottom: "concat1_8"
  bottom: "conv1_9"
  top: "concat1_9"
  concat_param {
    axis: 1
  }
}
layer {
  name: "tpp5"
  type: "TPP"
  bottom: "concat1_9"
  top: "tpp5"
  tpp_param {
    pyramid_layer: 1
    pyramid_layer: 2
    pyramid_layer: 3
    pyramid_layer: 4
    pyramid_layer: 5
    pool: MAX
    engine: CUDNN
  }
}
layer {
  name: "fc6_d"
  type: "InnerProduct"
  bottom: "tpp5"
  top: "fc6_d"
  inner_product_param {
    num_output: 4096
    weight_filler {
      type: "msra"
    }
    bias_filler {
      type: "constant"
    }
  }
}
layer {
  name: "relu6"
  type: "ReLU"
  bottom: "fc6_d"
  top: "fc6_d"
}
layer {
  name: "fc7_d"
  type: "InnerProduct"
  bottom: "fc6_d"
  top: "fc7_d"
  inner_product_param {
    num_output: 4096
    weight_filler {
      type: "msra"
    }
    bias_filler {
      type: "constant"
    }
  }
}
layer {
  name: "relu7"
  type: "ReLU"
  bottom: "fc7_d"
  top: "fc7_d"
}
layer {
  name: "fc8_d"
  type: "InnerProduct"
  bottom: "fc7_d"
  top: "fc8_d"
  inner_product_param {
    num_output: 618
    weight_filler {
      type: "msra"
    }
    bias_filler {
      type: "constant"
    }
  }
}
layer {
  name: "sigmoid"
  type: "Sigmoid"
  bottom: "fc8_d"
  top: "sigmoid"
  include {
    phase: TEST
  }
}
layer {
  name: "silence"
  type: "Silence"
  bottom: "sigmoid"
  include {
    phase: TEST
  }
}
layer {
  name: "loss"
  type: "SigmoidCrossEntropyLoss"
  bottom: "fc8_d"
  bottom: "phocs"
  top: "loss"
}
I0126 12:06:24.637949  9652 layer_factory.hpp:77] Creating layer word_images
I0126 12:06:24.710863  9652 db_lmdb.cpp:35] Opened lmdb /data/fwolf/iam_15000/iam-db_nti500000_pul2-3-4-5_test_word_images_lmdb
I0126 12:06:24.782773  9652 net.cpp:84] Creating Layer word_images
I0126 12:06:24.782816  9652 net.cpp:380] word_images -> word_images
I0126 12:06:24.782835  9652 net.cpp:380] word_images -> label
I0126 12:06:24.783591  9652 data_layer.cpp:44] output data size: 1,1,90,94
I0126 12:06:24.802623  9652 net.cpp:122] Setting up word_images
I0126 12:06:24.802664  9652 net.cpp:129] Top shape: 1 1 90 94 (8460)
I0126 12:06:24.802671  9652 net.cpp:129] Top shape: 1 (1)
I0126 12:06:24.802675  9652 net.cpp:137] Memory required for data: 33844
I0126 12:06:24.802683  9652 layer_factory.hpp:77] Creating layer phocs
I0126 12:06:24.823870  9652 db_lmdb.cpp:35] Opened lmdb /data/fwolf/iam_15000/iam-db_nti500000_pul2-3-4-5_test_phocs_lmdb
I0126 12:06:24.850018  9652 net.cpp:84] Creating Layer phocs
I0126 12:06:24.850054  9652 net.cpp:380] phocs -> phocs
I0126 12:06:24.850069  9652 net.cpp:380] phocs -> label_phocs
I0126 12:06:24.850811  9652 data_layer.cpp:44] output data size: 1,1,1,618
I0126 12:06:24.923439  9652 net.cpp:122] Setting up phocs
I0126 12:06:24.923477  9652 net.cpp:129] Top shape: 1 1 1 618 (618)
I0126 12:06:24.923491  9652 net.cpp:129] Top shape: 1 (1)
I0126 12:06:24.923496  9652 net.cpp:137] Memory required for data: 36320
I0126 12:06:24.923503  9652 layer_factory.hpp:77] Creating layer conv_init
I0126 12:06:24.923526  9652 net.cpp:84] Creating Layer conv_init
I0126 12:06:24.923530  9652 net.cpp:406] conv_init <- word_images
I0126 12:06:24.923545  9652 net.cpp:380] conv_init -> conv_init
I0126 12:06:24.925746  9652 net.cpp:122] Setting up conv_init
I0126 12:06:24.925763  9652 net.cpp:129] Top shape: 1 32 90 94 (270720)
I0126 12:06:24.925767  9652 net.cpp:137] Memory required for data: 1119200
I0126 12:06:24.925778  9652 layer_factory.hpp:77] Creating layer relu_init
I0126 12:06:24.925788  9652 net.cpp:84] Creating Layer relu_init
I0126 12:06:24.925792  9652 net.cpp:406] relu_init <- conv_init
I0126 12:06:24.925799  9652 net.cpp:367] relu_init -> conv_init (in-place)
I0126 12:06:24.926429  9652 net.cpp:122] Setting up relu_init
I0126 12:06:24.926441  9652 net.cpp:129] Top shape: 1 32 90 94 (270720)
I0126 12:06:24.926445  9652 net.cpp:137] Memory required for data: 2202080
I0126 12:06:24.926450  9652 layer_factory.hpp:77] Creating layer pool_init
I0126 12:06:24.926460  9652 net.cpp:84] Creating Layer pool_init
I0126 12:06:24.926463  9652 net.cpp:406] pool_init <- conv_init
I0126 12:06:24.926471  9652 net.cpp:380] pool_init -> pool_init
I0126 12:06:24.926560  9652 net.cpp:122] Setting up pool_init
I0126 12:06:24.926569  9652 net.cpp:129] Top shape: 1 32 46 48 (70656)
I0126 12:06:24.926573  9652 net.cpp:137] Memory required for data: 2484704
I0126 12:06:24.926578  9652 layer_factory.hpp:77] Creating layer pool_init_pool_init_0_split
I0126 12:06:24.926584  9652 net.cpp:84] Creating Layer pool_init_pool_init_0_split
I0126 12:06:24.926589  9652 net.cpp:406] pool_init_pool_init_0_split <- pool_init
I0126 12:06:24.926594  9652 net.cpp:380] pool_init_pool_init_0_split -> pool_init_pool_init_0_split_0
I0126 12:06:24.926602  9652 net.cpp:380] pool_init_pool_init_0_split -> pool_init_pool_init_0_split_1
I0126 12:06:24.926673  9652 net.cpp:122] Setting up pool_init_pool_init_0_split
I0126 12:06:24.926681  9652 net.cpp:129] Top shape: 1 32 46 48 (70656)
I0126 12:06:24.926687  9652 net.cpp:129] Top shape: 1 32 46 48 (70656)
I0126 12:06:24.926692  9652 net.cpp:137] Memory required for data: 3049952
I0126 12:06:24.926695  9652 layer_factory.hpp:77] Creating layer conv0_0
I0126 12:06:24.926707  9652 net.cpp:84] Creating Layer conv0_0
I0126 12:06:24.926712  9652 net.cpp:406] conv0_0 <- pool_init_pool_init_0_split_0
I0126 12:06:24.926717  9652 net.cpp:380] conv0_0 -> conv0_0
I0126 12:06:24.952662  9652 net.cpp:122] Setting up conv0_0
I0126 12:06:24.952705  9652 net.cpp:129] Top shape: 1 12 46 48 (26496)
I0126 12:06:24.952713  9652 net.cpp:137] Memory required for data: 3155936
I0126 12:06:24.952729  9652 layer_factory.hpp:77] Creating layer relu0_0
I0126 12:06:24.952749  9652 net.cpp:84] Creating Layer relu0_0
I0126 12:06:24.952756  9652 net.cpp:406] relu0_0 <- conv0_0
I0126 12:06:24.952766  9652 net.cpp:367] relu0_0 -> conv0_0 (in-place)
I0126 12:06:24.953794  9652 net.cpp:122] Setting up relu0_0
I0126 12:06:24.953815  9652 net.cpp:129] Top shape: 1 12 46 48 (26496)
I0126 12:06:24.953822  9652 net.cpp:137] Memory required for data: 3261920
I0126 12:06:24.953829  9652 layer_factory.hpp:77] Creating layer concat0_0
I0126 12:06:24.953845  9652 net.cpp:84] Creating Layer concat0_0
I0126 12:06:24.953851  9652 net.cpp:406] concat0_0 <- pool_init_pool_init_0_split_1
I0126 12:06:24.953860  9652 net.cpp:406] concat0_0 <- conv0_0
I0126 12:06:24.953867  9652 net.cpp:380] concat0_0 -> concat0_0
I0126 12:06:24.953953  9652 net.cpp:122] Setting up concat0_0
I0126 12:06:24.953966  9652 net.cpp:129] Top shape: 1 44 46 48 (97152)
I0126 12:06:24.953971  9652 net.cpp:137] Memory required for data: 3650528
I0126 12:06:24.953976  9652 layer_factory.hpp:77] Creating layer concat0_0_concat0_0_0_split
I0126 12:06:24.953984  9652 net.cpp:84] Creating Layer concat0_0_concat0_0_0_split
I0126 12:06:24.953989  9652 net.cpp:406] concat0_0_concat0_0_0_split <- concat0_0
I0126 12:06:24.954004  9652 net.cpp:380] concat0_0_concat0_0_0_split -> concat0_0_concat0_0_0_split_0
I0126 12:06:24.954013  9652 net.cpp:380] concat0_0_concat0_0_0_split -> concat0_0_concat0_0_0_split_1
I0126 12:06:24.954123  9652 net.cpp:122] Setting up concat0_0_concat0_0_0_split
I0126 12:06:24.954136  9652 net.cpp:129] Top shape: 1 44 46 48 (97152)
I0126 12:06:24.954144  9652 net.cpp:129] Top shape: 1 44 46 48 (97152)
I0126 12:06:24.954147  9652 net.cpp:137] Memory required for data: 4427744
I0126 12:06:24.954152  9652 layer_factory.hpp:77] Creating layer conv0_1
I0126 12:06:24.954170  9652 net.cpp:84] Creating Layer conv0_1
I0126 12:06:24.954177  9652 net.cpp:406] conv0_1 <- concat0_0_concat0_0_0_split_0
I0126 12:06:24.954185  9652 net.cpp:380] conv0_1 -> conv0_1
I0126 12:06:24.958022  9652 net.cpp:122] Setting up conv0_1
I0126 12:06:24.958062  9652 net.cpp:129] Top shape: 1 12 46 48 (26496)
I0126 12:06:24.958068  9652 net.cpp:137] Memory required for data: 4533728
I0126 12:06:24.958082  9652 layer_factory.hpp:77] Creating layer relu0_1
I0126 12:06:24.958096  9652 net.cpp:84] Creating Layer relu0_1
I0126 12:06:24.958102  9652 net.cpp:406] relu0_1 <- conv0_1
I0126 12:06:24.958112  9652 net.cpp:367] relu0_1 -> conv0_1 (in-place)
I0126 12:06:24.959061  9652 net.cpp:122] Setting up relu0_1
I0126 12:06:24.959071  9652 net.cpp:129] Top shape: 1 12 46 48 (26496)
I0126 12:06:24.959076  9652 net.cpp:137] Memory required for data: 4639712
I0126 12:06:24.959081  9652 layer_factory.hpp:77] Creating layer concat0_1
I0126 12:06:24.959091  9652 net.cpp:84] Creating Layer concat0_1
I0126 12:06:24.959096  9652 net.cpp:406] concat0_1 <- concat0_0_concat0_0_0_split_1
I0126 12:06:24.959101  9652 net.cpp:406] concat0_1 <- conv0_1
I0126 12:06:24.959107  9652 net.cpp:380] concat0_1 -> concat0_1
I0126 12:06:24.959177  9652 net.cpp:122] Setting up concat0_1
I0126 12:06:24.959185  9652 net.cpp:129] Top shape: 1 56 46 48 (123648)
I0126 12:06:24.959189  9652 net.cpp:137] Memory required for data: 5134304
I0126 12:06:24.959194  9652 layer_factory.hpp:77] Creating layer concat0_1_concat0_1_0_split
I0126 12:06:24.959201  9652 net.cpp:84] Creating Layer concat0_1_concat0_1_0_split
I0126 12:06:24.959205  9652 net.cpp:406] concat0_1_concat0_1_0_split <- concat0_1
I0126 12:06:24.959213  9652 net.cpp:380] concat0_1_concat0_1_0_split -> concat0_1_concat0_1_0_split_0
I0126 12:06:24.959220  9652 net.cpp:380] concat0_1_concat0_1_0_split -> concat0_1_concat0_1_0_split_1
I0126 12:06:24.959300  9652 net.cpp:122] Setting up concat0_1_concat0_1_0_split
I0126 12:06:24.959308  9652 net.cpp:129] Top shape: 1 56 46 48 (123648)
I0126 12:06:24.959314  9652 net.cpp:129] Top shape: 1 56 46 48 (123648)
I0126 12:06:24.959318  9652 net.cpp:137] Memory required for data: 6123488
I0126 12:06:24.959322  9652 layer_factory.hpp:77] Creating layer conv0_2
I0126 12:06:24.959339  9652 net.cpp:84] Creating Layer conv0_2
I0126 12:06:24.959343  9652 net.cpp:406] conv0_2 <- concat0_1_concat0_1_0_split_0
I0126 12:06:24.959350  9652 net.cpp:380] conv0_2 -> conv0_2
I0126 12:06:24.966492  9652 net.cpp:122] Setting up conv0_2
I0126 12:06:24.966518  9652 net.cpp:129] Top shape: 1 12 46 48 (26496)
I0126 12:06:24.966523  9652 net.cpp:137] Memory required for data: 6229472
I0126 12:06:24.966532  9652 layer_factory.hpp:77] Creating layer relu0_2
I0126 12:06:24.966542  9652 net.cpp:84] Creating Layer relu0_2
I0126 12:06:24.966548  9652 net.cpp:406] relu0_2 <- conv0_2
I0126 12:06:24.966557  9652 net.cpp:367] relu0_2 -> conv0_2 (in-place)
I0126 12:06:24.967216  9652 net.cpp:122] Setting up relu0_2
I0126 12:06:24.967228  9652 net.cpp:129] Top shape: 1 12 46 48 (26496)
I0126 12:06:24.967233  9652 net.cpp:137] Memory required for data: 6335456
I0126 12:06:24.967237  9652 layer_factory.hpp:77] Creating layer concat0_2
I0126 12:06:24.967252  9652 net.cpp:84] Creating Layer concat0_2
I0126 12:06:24.967258  9652 net.cpp:406] concat0_2 <- concat0_1_concat0_1_0_split_1
I0126 12:06:24.967264  9652 net.cpp:406] concat0_2 <- conv0_2
I0126 12:06:24.967270  9652 net.cpp:380] concat0_2 -> concat0_2
I0126 12:06:24.967334  9652 net.cpp:122] Setting up concat0_2
I0126 12:06:24.967342  9652 net.cpp:129] Top shape: 1 68 46 48 (150144)
I0126 12:06:24.967346  9652 net.cpp:137] Memory required for data: 6936032
I0126 12:06:24.967350  9652 layer_factory.hpp:77] Creating layer concat0_2_concat0_2_0_split
I0126 12:06:24.967357  9652 net.cpp:84] Creating Layer concat0_2_concat0_2_0_split
I0126 12:06:24.967362  9652 net.cpp:406] concat0_2_concat0_2_0_split <- concat0_2
I0126 12:06:24.967368  9652 net.cpp:380] concat0_2_concat0_2_0_split -> concat0_2_concat0_2_0_split_0
I0126 12:06:24.967375  9652 net.cpp:380] concat0_2_concat0_2_0_split -> concat0_2_concat0_2_0_split_1
I0126 12:06:24.967456  9652 net.cpp:122] Setting up concat0_2_concat0_2_0_split
I0126 12:06:24.967466  9652 net.cpp:129] Top shape: 1 68 46 48 (150144)
I0126 12:06:24.967471  9652 net.cpp:129] Top shape: 1 68 46 48 (150144)
I0126 12:06:24.967475  9652 net.cpp:137] Memory required for data: 8137184
I0126 12:06:24.967480  9652 layer_factory.hpp:77] Creating layer conv0_3
I0126 12:06:24.967492  9652 net.cpp:84] Creating Layer conv0_3
I0126 12:06:24.967496  9652 net.cpp:406] conv0_3 <- concat0_2_concat0_2_0_split_0
I0126 12:06:24.967506  9652 net.cpp:380] conv0_3 -> conv0_3
I0126 12:06:24.970877  9652 net.cpp:122] Setting up conv0_3
I0126 12:06:24.970892  9652 net.cpp:129] Top shape: 1 12 46 48 (26496)
I0126 12:06:24.970897  9652 net.cpp:137] Memory required for data: 8243168
I0126 12:06:24.970907  9652 layer_factory.hpp:77] Creating layer relu0_3
I0126 12:06:24.970917  9652 net.cpp:84] Creating Layer relu0_3
I0126 12:06:24.970922  9652 net.cpp:406] relu0_3 <- conv0_3
I0126 12:06:24.970928  9652 net.cpp:367] relu0_3 -> conv0_3 (in-place)
I0126 12:06:24.972712  9652 net.cpp:122] Setting up relu0_3
I0126 12:06:24.972725  9652 net.cpp:129] Top shape: 1 12 46 48 (26496)
I0126 12:06:24.972729  9652 net.cpp:137] Memory required for data: 8349152
I0126 12:06:24.972734  9652 layer_factory.hpp:77] Creating layer concat0_3
I0126 12:06:24.972743  9652 net.cpp:84] Creating Layer concat0_3
I0126 12:06:24.972748  9652 net.cpp:406] concat0_3 <- concat0_2_concat0_2_0_split_1
I0126 12:06:24.972754  9652 net.cpp:406] concat0_3 <- conv0_3
I0126 12:06:24.972760  9652 net.cpp:380] concat0_3 -> concat0_3
I0126 12:06:24.972818  9652 net.cpp:122] Setting up concat0_3
I0126 12:06:24.972827  9652 net.cpp:129] Top shape: 1 80 46 48 (176640)
I0126 12:06:24.972831  9652 net.cpp:137] Memory required for data: 9055712
I0126 12:06:24.972836  9652 layer_factory.hpp:77] Creating layer concat0_3_concat0_3_0_split
I0126 12:06:24.972842  9652 net.cpp:84] Creating Layer concat0_3_concat0_3_0_split
I0126 12:06:24.972846  9652 net.cpp:406] concat0_3_concat0_3_0_split <- concat0_3
I0126 12:06:24.972854  9652 net.cpp:380] concat0_3_concat0_3_0_split -> concat0_3_concat0_3_0_split_0
I0126 12:06:24.972862  9652 net.cpp:380] concat0_3_concat0_3_0_split -> concat0_3_concat0_3_0_split_1
I0126 12:06:24.972944  9652 net.cpp:122] Setting up concat0_3_concat0_3_0_split
I0126 12:06:24.972951  9652 net.cpp:129] Top shape: 1 80 46 48 (176640)
I0126 12:06:24.972957  9652 net.cpp:129] Top shape: 1 80 46 48 (176640)
I0126 12:06:24.972961  9652 net.cpp:137] Memory required for data: 10468832
I0126 12:06:24.972965  9652 layer_factory.hpp:77] Creating layer conv0_4
I0126 12:06:24.972980  9652 net.cpp:84] Creating Layer conv0_4
I0126 12:06:24.972985  9652 net.cpp:406] conv0_4 <- concat0_3_concat0_3_0_split_0
I0126 12:06:24.972992  9652 net.cpp:380] conv0_4 -> conv0_4
I0126 12:06:24.976907  9652 net.cpp:122] Setting up conv0_4
I0126 12:06:24.976922  9652 net.cpp:129] Top shape: 1 12 46 48 (26496)
I0126 12:06:24.976927  9652 net.cpp:137] Memory required for data: 10574816
I0126 12:06:24.976934  9652 layer_factory.hpp:77] Creating layer relu0_4
I0126 12:06:24.976944  9652 net.cpp:84] Creating Layer relu0_4
I0126 12:06:24.976949  9652 net.cpp:406] relu0_4 <- conv0_4
I0126 12:06:24.976955  9652 net.cpp:367] relu0_4 -> conv0_4 (in-place)
I0126 12:06:24.977599  9652 net.cpp:122] Setting up relu0_4
I0126 12:06:24.977614  9652 net.cpp:129] Top shape: 1 12 46 48 (26496)
I0126 12:06:24.977623  9652 net.cpp:137] Memory required for data: 10680800
I0126 12:06:24.977628  9652 layer_factory.hpp:77] Creating layer concat0_4
I0126 12:06:24.977636  9652 net.cpp:84] Creating Layer concat0_4
I0126 12:06:24.977641  9652 net.cpp:406] concat0_4 <- concat0_3_concat0_3_0_split_1
I0126 12:06:24.977648  9652 net.cpp:406] concat0_4 <- conv0_4
I0126 12:06:24.977653  9652 net.cpp:380] concat0_4 -> concat0_4
I0126 12:06:24.977710  9652 net.cpp:122] Setting up concat0_4
I0126 12:06:24.977720  9652 net.cpp:129] Top shape: 1 92 46 48 (203136)
I0126 12:06:24.977723  9652 net.cpp:137] Memory required for data: 11493344
I0126 12:06:24.977727  9652 layer_factory.hpp:77] Creating layer conv0_blk
I0126 12:06:24.977740  9652 net.cpp:84] Creating Layer conv0_blk
I0126 12:06:24.977744  9652 net.cpp:406] conv0_blk <- concat0_4
I0126 12:06:24.977751  9652 net.cpp:380] conv0_blk -> conv0_blk
I0126 12:06:24.981128  9652 net.cpp:122] Setting up conv0_blk
I0126 12:06:24.981143  9652 net.cpp:129] Top shape: 1 92 46 48 (203136)
I0126 12:06:24.981148  9652 net.cpp:137] Memory required for data: 12305888
I0126 12:06:24.981155  9652 layer_factory.hpp:77] Creating layer pool0
I0126 12:06:24.981165  9652 net.cpp:84] Creating Layer pool0
I0126 12:06:24.981170  9652 net.cpp:406] pool0 <- conv0_blk
I0126 12:06:24.981178  9652 net.cpp:380] pool0 -> pool0
I0126 12:06:24.982132  9652 net.cpp:122] Setting up pool0
I0126 12:06:24.982147  9652 net.cpp:129] Top shape: 1 92 23 24 (50784)
I0126 12:06:24.982151  9652 net.cpp:137] Memory required for data: 12509024
I0126 12:06:24.982156  9652 layer_factory.hpp:77] Creating layer pool0_pool0_0_split
I0126 12:06:24.982163  9652 net.cpp:84] Creating Layer pool0_pool0_0_split
I0126 12:06:24.982168  9652 net.cpp:406] pool0_pool0_0_split <- pool0
I0126 12:06:24.982174  9652 net.cpp:380] pool0_pool0_0_split -> pool0_pool0_0_split_0
I0126 12:06:24.982182  9652 net.cpp:380] pool0_pool0_0_split -> pool0_pool0_0_split_1
I0126 12:06:24.982265  9652 net.cpp:122] Setting up pool0_pool0_0_split
I0126 12:06:24.982275  9652 net.cpp:129] Top shape: 1 92 23 24 (50784)
I0126 12:06:24.982281  9652 net.cpp:129] Top shape: 1 92 23 24 (50784)
I0126 12:06:24.982285  9652 net.cpp:137] Memory required for data: 12915296
I0126 12:06:24.982290  9652 layer_factory.hpp:77] Creating layer conv1_0
I0126 12:06:24.982300  9652 net.cpp:84] Creating Layer conv1_0
I0126 12:06:24.982306  9652 net.cpp:406] conv1_0 <- pool0_pool0_0_split_0
I0126 12:06:24.982313  9652 net.cpp:380] conv1_0 -> conv1_0
I0126 12:06:24.986331  9652 net.cpp:122] Setting up conv1_0
I0126 12:06:24.986346  9652 net.cpp:129] Top shape: 1 12 23 24 (6624)
I0126 12:06:24.986351  9652 net.cpp:137] Memory required for data: 12941792
I0126 12:06:24.986358  9652 layer_factory.hpp:77] Creating layer relu1_0
I0126 12:06:24.986366  9652 net.cpp:84] Creating Layer relu1_0
I0126 12:06:24.986371  9652 net.cpp:406] relu1_0 <- conv1_0
I0126 12:06:24.986380  9652 net.cpp:367] relu1_0 -> conv1_0 (in-place)
I0126 12:06:24.987048  9652 net.cpp:122] Setting up relu1_0
I0126 12:06:24.987061  9652 net.cpp:129] Top shape: 1 12 23 24 (6624)
I0126 12:06:24.987066  9652 net.cpp:137] Memory required for data: 12968288
I0126 12:06:24.987071  9652 layer_factory.hpp:77] Creating layer concat1_0
I0126 12:06:24.987079  9652 net.cpp:84] Creating Layer concat1_0
I0126 12:06:24.987084  9652 net.cpp:406] concat1_0 <- pool0_pool0_0_split_1
I0126 12:06:24.987090  9652 net.cpp:406] concat1_0 <- conv1_0
I0126 12:06:24.987097  9652 net.cpp:380] concat1_0 -> concat1_0
I0126 12:06:24.987159  9652 net.cpp:122] Setting up concat1_0
I0126 12:06:24.987167  9652 net.cpp:129] Top shape: 1 104 23 24 (57408)
I0126 12:06:24.987171  9652 net.cpp:137] Memory required for data: 13197920
I0126 12:06:24.987175  9652 layer_factory.hpp:77] Creating layer concat1_0_concat1_0_0_split
I0126 12:06:24.987182  9652 net.cpp:84] Creating Layer concat1_0_concat1_0_0_split
I0126 12:06:24.987187  9652 net.cpp:406] concat1_0_concat1_0_0_split <- concat1_0
I0126 12:06:24.987193  9652 net.cpp:380] concat1_0_concat1_0_0_split -> concat1_0_concat1_0_0_split_0
I0126 12:06:24.987210  9652 net.cpp:380] concat1_0_concat1_0_0_split -> concat1_0_concat1_0_0_split_1
I0126 12:06:24.987298  9652 net.cpp:122] Setting up concat1_0_concat1_0_0_split
I0126 12:06:24.987308  9652 net.cpp:129] Top shape: 1 104 23 24 (57408)
I0126 12:06:24.987313  9652 net.cpp:129] Top shape: 1 104 23 24 (57408)
I0126 12:06:24.987316  9652 net.cpp:137] Memory required for data: 13657184
I0126 12:06:24.987321  9652 layer_factory.hpp:77] Creating layer conv1_1
I0126 12:06:24.987337  9652 net.cpp:84] Creating Layer conv1_1
I0126 12:06:24.987341  9652 net.cpp:406] conv1_1 <- concat1_0_concat1_0_0_split_0
I0126 12:06:24.987349  9652 net.cpp:380] conv1_1 -> conv1_1
I0126 12:06:24.992396  9652 net.cpp:122] Setting up conv1_1
I0126 12:06:24.992439  9652 net.cpp:129] Top shape: 1 12 23 24 (6624)
I0126 12:06:24.992444  9652 net.cpp:137] Memory required for data: 13683680
I0126 12:06:24.992460  9652 layer_factory.hpp:77] Creating layer relu1_1
I0126 12:06:24.992475  9652 net.cpp:84] Creating Layer relu1_1
I0126 12:06:24.992482  9652 net.cpp:406] relu1_1 <- conv1_1
I0126 12:06:24.992491  9652 net.cpp:367] relu1_1 -> conv1_1 (in-place)
I0126 12:06:24.993402  9652 net.cpp:122] Setting up relu1_1
I0126 12:06:24.993434  9652 net.cpp:129] Top shape: 1 12 23 24 (6624)
I0126 12:06:24.993441  9652 net.cpp:137] Memory required for data: 13710176
I0126 12:06:24.993448  9652 layer_factory.hpp:77] Creating layer concat1_1
I0126 12:06:24.993460  9652 net.cpp:84] Creating Layer concat1_1
I0126 12:06:24.993468  9652 net.cpp:406] concat1_1 <- concat1_0_concat1_0_0_split_1
I0126 12:06:24.993476  9652 net.cpp:406] concat1_1 <- conv1_1
I0126 12:06:24.993482  9652 net.cpp:380] concat1_1 -> concat1_1
I0126 12:06:24.993587  9652 net.cpp:122] Setting up concat1_1
I0126 12:06:24.993597  9652 net.cpp:129] Top shape: 1 116 23 24 (64032)
I0126 12:06:24.993600  9652 net.cpp:137] Memory required for data: 13966304
I0126 12:06:24.993604  9652 layer_factory.hpp:77] Creating layer concat1_1_concat1_1_0_split
I0126 12:06:24.993613  9652 net.cpp:84] Creating Layer concat1_1_concat1_1_0_split
I0126 12:06:24.993616  9652 net.cpp:406] concat1_1_concat1_1_0_split <- concat1_1
I0126 12:06:24.993623  9652 net.cpp:380] concat1_1_concat1_1_0_split -> concat1_1_concat1_1_0_split_0
I0126 12:06:24.993630  9652 net.cpp:380] concat1_1_concat1_1_0_split -> concat1_1_concat1_1_0_split_1
I0126 12:06:24.994750  9652 net.cpp:122] Setting up concat1_1_concat1_1_0_split
I0126 12:06:24.994777  9652 net.cpp:129] Top shape: 1 116 23 24 (64032)
I0126 12:06:24.994783  9652 net.cpp:129] Top shape: 1 116 23 24 (64032)
I0126 12:06:24.994787  9652 net.cpp:137] Memory required for data: 14478560
I0126 12:06:24.994793  9652 layer_factory.hpp:77] Creating layer conv1_2
I0126 12:06:24.994810  9652 net.cpp:84] Creating Layer conv1_2
I0126 12:06:24.994817  9652 net.cpp:406] conv1_2 <- concat1_1_concat1_1_0_split_0
I0126 12:06:24.994827  9652 net.cpp:380] conv1_2 -> conv1_2
I0126 12:06:24.998651  9652 net.cpp:122] Setting up conv1_2
I0126 12:06:24.998688  9652 net.cpp:129] Top shape: 1 12 23 24 (6624)
I0126 12:06:24.998695  9652 net.cpp:137] Memory required for data: 14505056
I0126 12:06:24.998706  9652 layer_factory.hpp:77] Creating layer relu1_2
I0126 12:06:24.998721  9652 net.cpp:84] Creating Layer relu1_2
I0126 12:06:24.998728  9652 net.cpp:406] relu1_2 <- conv1_2
I0126 12:06:24.998735  9652 net.cpp:367] relu1_2 -> conv1_2 (in-place)
I0126 12:06:24.999032  9652 net.cpp:122] Setting up relu1_2
I0126 12:06:24.999045  9652 net.cpp:129] Top shape: 1 12 23 24 (6624)
I0126 12:06:24.999049  9652 net.cpp:137] Memory required for data: 14531552
I0126 12:06:24.999054  9652 layer_factory.hpp:77] Creating layer concat1_2
I0126 12:06:24.999063  9652 net.cpp:84] Creating Layer concat1_2
I0126 12:06:24.999068  9652 net.cpp:406] concat1_2 <- concat1_1_concat1_1_0_split_1
I0126 12:06:24.999074  9652 net.cpp:406] concat1_2 <- conv1_2
I0126 12:06:24.999080  9652 net.cpp:380] concat1_2 -> concat1_2
I0126 12:06:24.999146  9652 net.cpp:122] Setting up concat1_2
I0126 12:06:24.999161  9652 net.cpp:129] Top shape: 1 128 23 24 (70656)
I0126 12:06:24.999164  9652 net.cpp:137] Memory required for data: 14814176
I0126 12:06:24.999168  9652 layer_factory.hpp:77] Creating layer concat1_2_concat1_2_0_split
I0126 12:06:24.999176  9652 net.cpp:84] Creating Layer concat1_2_concat1_2_0_split
I0126 12:06:24.999179  9652 net.cpp:406] concat1_2_concat1_2_0_split <- concat1_2
I0126 12:06:24.999186  9652 net.cpp:380] concat1_2_concat1_2_0_split -> concat1_2_concat1_2_0_split_0
I0126 12:06:24.999194  9652 net.cpp:380] concat1_2_concat1_2_0_split -> concat1_2_concat1_2_0_split_1
I0126 12:06:24.999284  9652 net.cpp:122] Setting up concat1_2_concat1_2_0_split
I0126 12:06:24.999294  9652 net.cpp:129] Top shape: 1 128 23 24 (70656)
I0126 12:06:24.999300  9652 net.cpp:129] Top shape: 1 128 23 24 (70656)
I0126 12:06:24.999303  9652 net.cpp:137] Memory required for data: 15379424
I0126 12:06:24.999307  9652 layer_factory.hpp:77] Creating layer conv1_3
I0126 12:06:24.999321  9652 net.cpp:84] Creating Layer conv1_3
I0126 12:06:24.999325  9652 net.cpp:406] conv1_3 <- concat1_2_concat1_2_0_split_0
I0126 12:06:24.999333  9652 net.cpp:380] conv1_3 -> conv1_3
I0126 12:06:25.001895  9652 net.cpp:122] Setting up conv1_3
I0126 12:06:25.001917  9652 net.cpp:129] Top shape: 1 12 23 24 (6624)
I0126 12:06:25.001920  9652 net.cpp:137] Memory required for data: 15405920
I0126 12:06:25.001926  9652 layer_factory.hpp:77] Creating layer relu1_3
I0126 12:06:25.001937  9652 net.cpp:84] Creating Layer relu1_3
I0126 12:06:25.001942  9652 net.cpp:406] relu1_3 <- conv1_3
I0126 12:06:25.001947  9652 net.cpp:367] relu1_3 -> conv1_3 (in-place)
I0126 12:06:25.002400  9652 net.cpp:122] Setting up relu1_3
I0126 12:06:25.002409  9652 net.cpp:129] Top shape: 1 12 23 24 (6624)
I0126 12:06:25.002413  9652 net.cpp:137] Memory required for data: 15432416
I0126 12:06:25.002415  9652 layer_factory.hpp:77] Creating layer concat1_3
I0126 12:06:25.002423  9652 net.cpp:84] Creating Layer concat1_3
I0126 12:06:25.002426  9652 net.cpp:406] concat1_3 <- concat1_2_concat1_2_0_split_1
I0126 12:06:25.002430  9652 net.cpp:406] concat1_3 <- conv1_3
I0126 12:06:25.002434  9652 net.cpp:380] concat1_3 -> concat1_3
I0126 12:06:25.002480  9652 net.cpp:122] Setting up concat1_3
I0126 12:06:25.002485  9652 net.cpp:129] Top shape: 1 140 23 24 (77280)
I0126 12:06:25.002487  9652 net.cpp:137] Memory required for data: 15741536
I0126 12:06:25.002490  9652 layer_factory.hpp:77] Creating layer concat1_3_concat1_3_0_split
I0126 12:06:25.002495  9652 net.cpp:84] Creating Layer concat1_3_concat1_3_0_split
I0126 12:06:25.002497  9652 net.cpp:406] concat1_3_concat1_3_0_split <- concat1_3
I0126 12:06:25.002502  9652 net.cpp:380] concat1_3_concat1_3_0_split -> concat1_3_concat1_3_0_split_0
I0126 12:06:25.002507  9652 net.cpp:380] concat1_3_concat1_3_0_split -> concat1_3_concat1_3_0_split_1
I0126 12:06:25.002565  9652 net.cpp:122] Setting up concat1_3_concat1_3_0_split
I0126 12:06:25.002571  9652 net.cpp:129] Top shape: 1 140 23 24 (77280)
I0126 12:06:25.002574  9652 net.cpp:129] Top shape: 1 140 23 24 (77280)
I0126 12:06:25.002576  9652 net.cpp:137] Memory required for data: 16359776
I0126 12:06:25.002579  9652 layer_factory.hpp:77] Creating layer conv1_4
I0126 12:06:25.002589  9652 net.cpp:84] Creating Layer conv1_4
I0126 12:06:25.002593  9652 net.cpp:406] conv1_4 <- concat1_3_concat1_3_0_split_0
I0126 12:06:25.002598  9652 net.cpp:380] conv1_4 -> conv1_4
I0126 12:06:25.016124  9652 net.cpp:122] Setting up conv1_4
I0126 12:06:25.016162  9652 net.cpp:129] Top shape: 1 12 23 24 (6624)
I0126 12:06:25.016167  9652 net.cpp:137] Memory required for data: 16386272
I0126 12:06:25.016178  9652 layer_factory.hpp:77] Creating layer relu1_4
I0126 12:06:25.016191  9652 net.cpp:84] Creating Layer relu1_4
I0126 12:06:25.016197  9652 net.cpp:406] relu1_4 <- conv1_4
I0126 12:06:25.016207  9652 net.cpp:367] relu1_4 -> conv1_4 (in-place)
I0126 12:06:25.016913  9652 net.cpp:122] Setting up relu1_4
I0126 12:06:25.016927  9652 net.cpp:129] Top shape: 1 12 23 24 (6624)
I0126 12:06:25.016938  9652 net.cpp:137] Memory required for data: 16412768
I0126 12:06:25.016943  9652 layer_factory.hpp:77] Creating layer concat1_4
I0126 12:06:25.016952  9652 net.cpp:84] Creating Layer concat1_4
I0126 12:06:25.016957  9652 net.cpp:406] concat1_4 <- concat1_3_concat1_3_0_split_1
I0126 12:06:25.016963  9652 net.cpp:406] concat1_4 <- conv1_4
I0126 12:06:25.016971  9652 net.cpp:380] concat1_4 -> concat1_4
I0126 12:06:25.017051  9652 net.cpp:122] Setting up concat1_4
I0126 12:06:25.017060  9652 net.cpp:129] Top shape: 1 152 23 24 (83904)
I0126 12:06:25.017063  9652 net.cpp:137] Memory required for data: 16748384
I0126 12:06:25.017067  9652 layer_factory.hpp:77] Creating layer concat1_4_concat1_4_0_split
I0126 12:06:25.017076  9652 net.cpp:84] Creating Layer concat1_4_concat1_4_0_split
I0126 12:06:25.017079  9652 net.cpp:406] concat1_4_concat1_4_0_split <- concat1_4
I0126 12:06:25.017087  9652 net.cpp:380] concat1_4_concat1_4_0_split -> concat1_4_concat1_4_0_split_0
I0126 12:06:25.017094  9652 net.cpp:380] concat1_4_concat1_4_0_split -> concat1_4_concat1_4_0_split_1
I0126 12:06:25.017180  9652 net.cpp:122] Setting up concat1_4_concat1_4_0_split
I0126 12:06:25.017189  9652 net.cpp:129] Top shape: 1 152 23 24 (83904)
I0126 12:06:25.017194  9652 net.cpp:129] Top shape: 1 152 23 24 (83904)
I0126 12:06:25.017199  9652 net.cpp:137] Memory required for data: 17419616
I0126 12:06:25.017202  9652 layer_factory.hpp:77] Creating layer conv1_5
I0126 12:06:25.017217  9652 net.cpp:84] Creating Layer conv1_5
I0126 12:06:25.017221  9652 net.cpp:406] conv1_5 <- concat1_4_concat1_4_0_split_0
I0126 12:06:25.017230  9652 net.cpp:380] conv1_5 -> conv1_5
I0126 12:06:25.027231  9652 net.cpp:122] Setting up conv1_5
I0126 12:06:25.027268  9652 net.cpp:129] Top shape: 1 12 23 24 (6624)
I0126 12:06:25.027273  9652 net.cpp:137] Memory required for data: 17446112
I0126 12:06:25.027290  9652 layer_factory.hpp:77] Creating layer relu1_5
I0126 12:06:25.027303  9652 net.cpp:84] Creating Layer relu1_5
I0126 12:06:25.027310  9652 net.cpp:406] relu1_5 <- conv1_5
I0126 12:06:25.027320  9652 net.cpp:367] relu1_5 -> conv1_5 (in-place)
I0126 12:06:25.027586  9652 net.cpp:122] Setting up relu1_5
I0126 12:06:25.027597  9652 net.cpp:129] Top shape: 1 12 23 24 (6624)
I0126 12:06:25.027601  9652 net.cpp:137] Memory required for data: 17472608
I0126 12:06:25.027606  9652 layer_factory.hpp:77] Creating layer concat1_5
I0126 12:06:25.027614  9652 net.cpp:84] Creating Layer concat1_5
I0126 12:06:25.027621  9652 net.cpp:406] concat1_5 <- concat1_4_concat1_4_0_split_1
I0126 12:06:25.027626  9652 net.cpp:406] concat1_5 <- conv1_5
I0126 12:06:25.027633  9652 net.cpp:380] concat1_5 -> concat1_5
I0126 12:06:25.027693  9652 net.cpp:122] Setting up concat1_5
I0126 12:06:25.027700  9652 net.cpp:129] Top shape: 1 164 23 24 (90528)
I0126 12:06:25.027704  9652 net.cpp:137] Memory required for data: 17834720
I0126 12:06:25.027709  9652 layer_factory.hpp:77] Creating layer concat1_5_concat1_5_0_split
I0126 12:06:25.027717  9652 net.cpp:84] Creating Layer concat1_5_concat1_5_0_split
I0126 12:06:25.027721  9652 net.cpp:406] concat1_5_concat1_5_0_split <- concat1_5
I0126 12:06:25.027727  9652 net.cpp:380] concat1_5_concat1_5_0_split -> concat1_5_concat1_5_0_split_0
I0126 12:06:25.027734  9652 net.cpp:380] concat1_5_concat1_5_0_split -> concat1_5_concat1_5_0_split_1
I0126 12:06:25.027829  9652 net.cpp:122] Setting up concat1_5_concat1_5_0_split
I0126 12:06:25.027838  9652 net.cpp:129] Top shape: 1 164 23 24 (90528)
I0126 12:06:25.027844  9652 net.cpp:129] Top shape: 1 164 23 24 (90528)
I0126 12:06:25.027848  9652 net.cpp:137] Memory required for data: 18558944
I0126 12:06:25.027853  9652 layer_factory.hpp:77] Creating layer conv1_6
I0126 12:06:25.027866  9652 net.cpp:84] Creating Layer conv1_6
I0126 12:06:25.027870  9652 net.cpp:406] conv1_6 <- concat1_5_concat1_5_0_split_0
I0126 12:06:25.027879  9652 net.cpp:380] conv1_6 -> conv1_6
I0126 12:06:25.035872  9652 net.cpp:122] Setting up conv1_6
I0126 12:06:25.035907  9652 net.cpp:129] Top shape: 1 12 23 24 (6624)
I0126 12:06:25.035912  9652 net.cpp:137] Memory required for data: 18585440
I0126 12:06:25.035928  9652 layer_factory.hpp:77] Creating layer relu1_6
I0126 12:06:25.035940  9652 net.cpp:84] Creating Layer relu1_6
I0126 12:06:25.035948  9652 net.cpp:406] relu1_6 <- conv1_6
I0126 12:06:25.035957  9652 net.cpp:367] relu1_6 -> conv1_6 (in-place)
I0126 12:06:25.036716  9652 net.cpp:122] Setting up relu1_6
I0126 12:06:25.036729  9652 net.cpp:129] Top shape: 1 12 23 24 (6624)
I0126 12:06:25.036733  9652 net.cpp:137] Memory required for data: 18611936
I0126 12:06:25.036738  9652 layer_factory.hpp:77] Creating layer concat1_6
I0126 12:06:25.036747  9652 net.cpp:84] Creating Layer concat1_6
I0126 12:06:25.036752  9652 net.cpp:406] concat1_6 <- concat1_5_concat1_5_0_split_1
I0126 12:06:25.036758  9652 net.cpp:406] concat1_6 <- conv1_6
I0126 12:06:25.036767  9652 net.cpp:380] concat1_6 -> concat1_6
I0126 12:06:25.036855  9652 net.cpp:122] Setting up concat1_6
I0126 12:06:25.036864  9652 net.cpp:129] Top shape: 1 176 23 24 (97152)
I0126 12:06:25.036869  9652 net.cpp:137] Memory required for data: 19000544
I0126 12:06:25.036872  9652 layer_factory.hpp:77] Creating layer concat1_6_concat1_6_0_split
I0126 12:06:25.036880  9652 net.cpp:84] Creating Layer concat1_6_concat1_6_0_split
I0126 12:06:25.036885  9652 net.cpp:406] concat1_6_concat1_6_0_split <- concat1_6
I0126 12:06:25.036891  9652 net.cpp:380] concat1_6_concat1_6_0_split -> concat1_6_concat1_6_0_split_0
I0126 12:06:25.036898  9652 net.cpp:380] concat1_6_concat1_6_0_split -> concat1_6_concat1_6_0_split_1
I0126 12:06:25.036984  9652 net.cpp:122] Setting up concat1_6_concat1_6_0_split
I0126 12:06:25.036993  9652 net.cpp:129] Top shape: 1 176 23 24 (97152)
I0126 12:06:25.036998  9652 net.cpp:129] Top shape: 1 176 23 24 (97152)
I0126 12:06:25.037003  9652 net.cpp:137] Memory required for data: 19777760
I0126 12:06:25.037006  9652 layer_factory.hpp:77] Creating layer conv1_7
I0126 12:06:25.037020  9652 net.cpp:84] Creating Layer conv1_7
I0126 12:06:25.037025  9652 net.cpp:406] conv1_7 <- concat1_6_concat1_6_0_split_0
I0126 12:06:25.037034  9652 net.cpp:380] conv1_7 -> conv1_7
I0126 12:06:25.048629  9652 net.cpp:122] Setting up conv1_7
I0126 12:06:25.048662  9652 net.cpp:129] Top shape: 1 12 23 24 (6624)
I0126 12:06:25.048667  9652 net.cpp:137] Memory required for data: 19804256
I0126 12:06:25.048677  9652 layer_factory.hpp:77] Creating layer relu1_7
I0126 12:06:25.048689  9652 net.cpp:84] Creating Layer relu1_7
I0126 12:06:25.048696  9652 net.cpp:406] relu1_7 <- conv1_7
I0126 12:06:25.048703  9652 net.cpp:367] relu1_7 -> conv1_7 (in-place)
I0126 12:06:25.048990  9652 net.cpp:122] Setting up relu1_7
I0126 12:06:25.049001  9652 net.cpp:129] Top shape: 1 12 23 24 (6624)
I0126 12:06:25.049005  9652 net.cpp:137] Memory required for data: 19830752
I0126 12:06:25.049010  9652 layer_factory.hpp:77] Creating layer concat1_7
I0126 12:06:25.049019  9652 net.cpp:84] Creating Layer concat1_7
I0126 12:06:25.049026  9652 net.cpp:406] concat1_7 <- concat1_6_concat1_6_0_split_1
I0126 12:06:25.049031  9652 net.cpp:406] concat1_7 <- conv1_7
I0126 12:06:25.049037  9652 net.cpp:380] concat1_7 -> concat1_7
I0126 12:06:25.049096  9652 net.cpp:122] Setting up concat1_7
I0126 12:06:25.049105  9652 net.cpp:129] Top shape: 1 188 23 24 (103776)
I0126 12:06:25.049109  9652 net.cpp:137] Memory required for data: 20245856
I0126 12:06:25.049113  9652 layer_factory.hpp:77] Creating layer concat1_7_concat1_7_0_split
I0126 12:06:25.049121  9652 net.cpp:84] Creating Layer concat1_7_concat1_7_0_split
I0126 12:06:25.049125  9652 net.cpp:406] concat1_7_concat1_7_0_split <- concat1_7
I0126 12:06:25.049131  9652 net.cpp:380] concat1_7_concat1_7_0_split -> concat1_7_concat1_7_0_split_0
I0126 12:06:25.049139  9652 net.cpp:380] concat1_7_concat1_7_0_split -> concat1_7_concat1_7_0_split_1
I0126 12:06:25.049230  9652 net.cpp:122] Setting up concat1_7_concat1_7_0_split
I0126 12:06:25.049242  9652 net.cpp:129] Top shape: 1 188 23 24 (103776)
I0126 12:06:25.049247  9652 net.cpp:129] Top shape: 1 188 23 24 (103776)
I0126 12:06:25.049250  9652 net.cpp:137] Memory required for data: 21076064
I0126 12:06:25.049259  9652 layer_factory.hpp:77] Creating layer conv1_8
I0126 12:06:25.049273  9652 net.cpp:84] Creating Layer conv1_8
I0126 12:06:25.049278  9652 net.cpp:406] conv1_8 <- concat1_7_concat1_7_0_split_0
I0126 12:06:25.049288  9652 net.cpp:380] conv1_8 -> conv1_8
I0126 12:06:25.053735  9652 net.cpp:122] Setting up conv1_8
I0126 12:06:25.053750  9652 net.cpp:129] Top shape: 1 12 23 24 (6624)
I0126 12:06:25.053755  9652 net.cpp:137] Memory required for data: 21102560
I0126 12:06:25.053762  9652 layer_factory.hpp:77] Creating layer relu1_8
I0126 12:06:25.053771  9652 net.cpp:84] Creating Layer relu1_8
I0126 12:06:25.053776  9652 net.cpp:406] relu1_8 <- conv1_8
I0126 12:06:25.053781  9652 net.cpp:367] relu1_8 -> conv1_8 (in-place)
I0126 12:06:25.054491  9652 net.cpp:122] Setting up relu1_8
I0126 12:06:25.054505  9652 net.cpp:129] Top shape: 1 12 23 24 (6624)
I0126 12:06:25.054510  9652 net.cpp:137] Memory required for data: 21129056
I0126 12:06:25.054515  9652 layer_factory.hpp:77] Creating layer concat1_8
I0126 12:06:25.054523  9652 net.cpp:84] Creating Layer concat1_8
I0126 12:06:25.054528  9652 net.cpp:406] concat1_8 <- concat1_7_concat1_7_0_split_1
I0126 12:06:25.054534  9652 net.cpp:406] concat1_8 <- conv1_8
I0126 12:06:25.054540  9652 net.cpp:380] concat1_8 -> concat1_8
I0126 12:06:25.054602  9652 net.cpp:122] Setting up concat1_8
I0126 12:06:25.054611  9652 net.cpp:129] Top shape: 1 200 23 24 (110400)
I0126 12:06:25.054615  9652 net.cpp:137] Memory required for data: 21570656
I0126 12:06:25.054620  9652 layer_factory.hpp:77] Creating layer concat1_8_concat1_8_0_split
I0126 12:06:25.054626  9652 net.cpp:84] Creating Layer concat1_8_concat1_8_0_split
I0126 12:06:25.054630  9652 net.cpp:406] concat1_8_concat1_8_0_split <- concat1_8
I0126 12:06:25.054638  9652 net.cpp:380] concat1_8_concat1_8_0_split -> concat1_8_concat1_8_0_split_0
I0126 12:06:25.054649  9652 net.cpp:380] concat1_8_concat1_8_0_split -> concat1_8_concat1_8_0_split_1
I0126 12:06:25.054736  9652 net.cpp:122] Setting up concat1_8_concat1_8_0_split
I0126 12:06:25.054746  9652 net.cpp:129] Top shape: 1 200 23 24 (110400)
I0126 12:06:25.054752  9652 net.cpp:129] Top shape: 1 200 23 24 (110400)
I0126 12:06:25.054755  9652 net.cpp:137] Memory required for data: 22453856
I0126 12:06:25.054760  9652 layer_factory.hpp:77] Creating layer conv1_9
I0126 12:06:25.054776  9652 net.cpp:84] Creating Layer conv1_9
I0126 12:06:25.054782  9652 net.cpp:406] conv1_9 <- concat1_8_concat1_8_0_split_0
I0126 12:06:25.054790  9652 net.cpp:380] conv1_9 -> conv1_9
I0126 12:06:25.062746  9652 net.cpp:122] Setting up conv1_9
I0126 12:06:25.062783  9652 net.cpp:129] Top shape: 1 12 23 24 (6624)
I0126 12:06:25.062788  9652 net.cpp:137] Memory required for data: 22480352
I0126 12:06:25.062805  9652 layer_factory.hpp:77] Creating layer relu1_9
I0126 12:06:25.062819  9652 net.cpp:84] Creating Layer relu1_9
I0126 12:06:25.062825  9652 net.cpp:406] relu1_9 <- conv1_9
I0126 12:06:25.062832  9652 net.cpp:367] relu1_9 -> conv1_9 (in-place)
I0126 12:06:25.076650  9652 net.cpp:122] Setting up relu1_9
I0126 12:06:25.076691  9652 net.cpp:129] Top shape: 1 12 23 24 (6624)
I0126 12:06:25.076696  9652 net.cpp:137] Memory required for data: 22506848
I0126 12:06:25.076704  9652 layer_factory.hpp:77] Creating layer concat1_9
I0126 12:06:25.076719  9652 net.cpp:84] Creating Layer concat1_9
I0126 12:06:25.076725  9652 net.cpp:406] concat1_9 <- concat1_8_concat1_8_0_split_1
I0126 12:06:25.076735  9652 net.cpp:406] concat1_9 <- conv1_9
I0126 12:06:25.076743  9652 net.cpp:380] concat1_9 -> concat1_9
I0126 12:06:25.076859  9652 net.cpp:122] Setting up concat1_9
I0126 12:06:25.076869  9652 net.cpp:129] Top shape: 1 212 23 24 (117024)
I0126 12:06:25.076872  9652 net.cpp:137] Memory required for data: 22974944
I0126 12:06:25.076876  9652 layer_factory.hpp:77] Creating layer tpp5
I0126 12:06:25.076886  9652 net.cpp:84] Creating Layer tpp5
I0126 12:06:25.076890  9652 net.cpp:406] tpp5 <- concat1_9
I0126 12:06:25.076896  9652 net.cpp:380] tpp5 -> tpp5
I0126 12:06:25.077989  9652 net.cpp:122] Setting up tpp5
I0126 12:06:25.078025  9652 net.cpp:129] Top shape: 1 3180 (3180)
I0126 12:06:25.078030  9652 net.cpp:137] Memory required for data: 22987664
I0126 12:06:25.078037  9652 layer_factory.hpp:77] Creating layer fc6_d
I0126 12:06:25.078049  9652 net.cpp:84] Creating Layer fc6_d
I0126 12:06:25.078055  9652 net.cpp:406] fc6_d <- tpp5
I0126 12:06:25.078066  9652 net.cpp:380] fc6_d -> fc6_d
I0126 12:06:26.443276  9652 net.cpp:122] Setting up fc6_d
I0126 12:06:26.443317  9652 net.cpp:129] Top shape: 1 4096 (4096)
I0126 12:06:26.443322  9652 net.cpp:137] Memory required for data: 23004048
I0126 12:06:26.443336  9652 layer_factory.hpp:77] Creating layer relu6
I0126 12:06:26.443349  9652 net.cpp:84] Creating Layer relu6
I0126 12:06:26.443356  9652 net.cpp:406] relu6 <- fc6_d
I0126 12:06:26.443364  9652 net.cpp:367] relu6 -> fc6_d (in-place)
I0126 12:06:26.443701  9652 net.cpp:122] Setting up relu6
I0126 12:06:26.443712  9652 net.cpp:129] Top shape: 1 4096 (4096)
I0126 12:06:26.443717  9652 net.cpp:137] Memory required for data: 23020432
I0126 12:06:26.443722  9652 layer_factory.hpp:77] Creating layer fc7_d
I0126 12:06:26.443732  9652 net.cpp:84] Creating Layer fc7_d
I0126 12:06:26.443737  9652 net.cpp:406] fc7_d <- fc6_d
I0126 12:06:26.443745  9652 net.cpp:380] fc7_d -> fc7_d
I0126 12:06:27.946154  9652 net.cpp:122] Setting up fc7_d
I0126 12:06:27.946200  9652 net.cpp:129] Top shape: 1 4096 (4096)
I0126 12:06:27.946205  9652 net.cpp:137] Memory required for data: 23036816
I0126 12:06:27.946218  9652 layer_factory.hpp:77] Creating layer relu7
I0126 12:06:27.946231  9652 net.cpp:84] Creating Layer relu7
I0126 12:06:27.946239  9652 net.cpp:406] relu7 <- fc7_d
I0126 12:06:27.946249  9652 net.cpp:367] relu7 -> fc7_d (in-place)
I0126 12:06:27.947166  9652 net.cpp:122] Setting up relu7
I0126 12:06:27.947192  9652 net.cpp:129] Top shape: 1 4096 (4096)
I0126 12:06:27.947197  9652 net.cpp:137] Memory required for data: 23053200
I0126 12:06:27.947203  9652 layer_factory.hpp:77] Creating layer fc8_d
I0126 12:06:27.947216  9652 net.cpp:84] Creating Layer fc8_d
I0126 12:06:27.947222  9652 net.cpp:406] fc8_d <- fc7_d
I0126 12:06:27.947230  9652 net.cpp:380] fc8_d -> fc8_d
I0126 12:06:28.350543  9652 net.cpp:122] Setting up fc8_d
I0126 12:06:28.350589  9652 net.cpp:129] Top shape: 1 618 (618)
I0126 12:06:28.350597  9652 net.cpp:137] Memory required for data: 23055672
I0126 12:06:28.350613  9652 layer_factory.hpp:77] Creating layer fc8_d_fc8_d_0_split
I0126 12:06:28.350639  9652 net.cpp:84] Creating Layer fc8_d_fc8_d_0_split
I0126 12:06:28.350649  9652 net.cpp:406] fc8_d_fc8_d_0_split <- fc8_d
I0126 12:06:28.350661  9652 net.cpp:380] fc8_d_fc8_d_0_split -> fc8_d_fc8_d_0_split_0
I0126 12:06:28.350674  9652 net.cpp:380] fc8_d_fc8_d_0_split -> fc8_d_fc8_d_0_split_1
I0126 12:06:28.350783  9652 net.cpp:122] Setting up fc8_d_fc8_d_0_split
I0126 12:06:28.350793  9652 net.cpp:129] Top shape: 1 618 (618)
I0126 12:06:28.350800  9652 net.cpp:129] Top shape: 1 618 (618)
I0126 12:06:28.350806  9652 net.cpp:137] Memory required for data: 23060616
I0126 12:06:28.350811  9652 layer_factory.hpp:77] Creating layer sigmoid
I0126 12:06:28.350823  9652 net.cpp:84] Creating Layer sigmoid
I0126 12:06:28.350831  9652 net.cpp:406] sigmoid <- fc8_d_fc8_d_0_split_0
I0126 12:06:28.350839  9652 net.cpp:380] sigmoid -> sigmoid
I0126 12:06:28.351263  9652 net.cpp:122] Setting up sigmoid
I0126 12:06:28.351275  9652 net.cpp:129] Top shape: 1 618 (618)
I0126 12:06:28.351280  9652 net.cpp:137] Memory required for data: 23063088
I0126 12:06:28.351286  9652 layer_factory.hpp:77] Creating layer silence
I0126 12:06:28.351297  9652 net.cpp:84] Creating Layer silence
I0126 12:06:28.351303  9652 net.cpp:406] silence <- sigmoid
I0126 12:06:28.351310  9652 net.cpp:122] Setting up silence
I0126 12:06:28.351315  9652 net.cpp:137] Memory required for data: 23063088
…
