…
  phase: TRAIN
}
layer {
  name: "word_images"
  type: "Data"
  top: "word_images"
  top: "label"
  transform_param {
    scale: -0.0039215689
    mean_value: 255
  }
  data_param {
    source: "/data/fwolf/iam_50000/iam-db_nti500000_pul2-3-4-5_train_word_images_lmdb"
    batch_size: 1
    backend: LMDB
    prefetch: 20
  }
}
layer {
  name: "phocs"
  type: "Data"
  top: "phocs"
  top: "label_phocs"
  data_param {
    source: "/data/fwolf/iam_50000/iam-db_nti500000_pul2-3-4-5_train_phocs_lmdb"
    batch_size: 1
    backend: LMDB
    prefetch: 20
  }
}
layer {
  name: "conv_init"
  type: "Convolution"
  bottom: "word_images"
  top: "conv_init"
  convolution_param {
    num_output: 64
    bias_term: false
    pad: 3
    kernel_size: 7
    stride: 2
    weight_filler {
      type: "msra"
    }
    bias_filler {
      type: "constant"
    }
    engine: CUDNN
  }
}
layer {
  name: "bn_init"
  type: "BatchNorm"
  bottom: "conv_init"
  top: "bn_init"
  param {
    lr_mult: 0
    decay_mult: 0
  }
  param {
    lr_mult: 0
    decay_mult: 0
  }
  param {
    lr_mult: 0
    decay_mult: 0
  }
  batch_norm_param {
    eps: 1e-05
  }
}
layer {
  name: "scale_init"
  type: "Scale"
  bottom: "bn_init"
  top: "bn_init"
  scale_param {
    filler {
      value: 1
    }
    bias_term: true
    bias_filler {
      value: 0
    }
  }
}
layer {
  name: "relu_init"
  type: "ReLU"
  bottom: "bn_init"
  top: "bn_init"
}
layer {
  name: "pool_init"
  type: "Pooling"
  bottom: "bn_init"
  top: "pool_init"
  pooling_param {
    pool: MAX
    kernel_size: 3
    stride: 2
    pad: 1
  }
}
layer {
  name: "conv0_0/bn"
  type: "BatchNorm"
  bottom: "pool_init"
  top: "conv0_0/bn"
  param {
    lr_mult: 0
    decay_mult: 0
  }
  param {
    lr_mult: 0
    decay_mult: 0
  }
  param {
    lr_mult: 0
    decay_mult: 0
  }
}
layer {
  name: "conv0_0/scale"
  type: "Scale"
  bottom: "conv0_0/bn"
  top: "conv0_0/bn"
  scale_param {
    filler {
      value: 1
    }
    bias_term: true
    bias_filler {
      value: 0
    }
  }
}
layer {
  name: "relu0_0"
  type: "ReLU"
  bottom: "conv0_0/bn"
  top: "conv0_0/bn"
}
layer {
  name: "conv0_0"
  type: "Convolution"
  bottom: "conv0_0/bn"
  top: "conv0_0"
  convolution_param {
    num_output: 32
    bias_term: false
    pad: 1
    kernel_size: 3
    stride: 1
    weight_filler {
      type: "msra"
    }
    bias_filler {
      type: "constant"
    }
    engine: CUDNN
  }
}
layer {
  name: "concat0_0"
  type: "Concat"
  bottom: "pool_init"
  bottom: "conv0_0"
  top: "concat0_0"
  concat_param {
    axis: 1
  }
}
layer {
  name: "conv0_1/bn"
  type: "BatchNorm"
  bottom: "concat0_0"
  top: "conv0_1/bn"
  param {
    lr_mult: 0
    decay_mult: 0
  }
  param {
    lr_mult: 0
    decay_mult: 0
  }
  param {
    lr_mult: 0
    decay_mult: 0
  }
}
layer {
  name: "conv0_1/scale"
  type: "Scale"
  bottom: "conv0_1/bn"
  top: "conv0_1/bn"
  scale_param {
    filler {
      value: 1
    }
    bias_term: true
    bias_filler {
      value: 0
    }
  }
}
layer {
  name: "relu0_1"
  type: "ReLU"
  bottom: "conv0_1/bn"
  top: "conv0_1/bn"
}
layer {
  name: "conv0_1"
  type: "Convolution"
  bottom: "conv0_1/bn"
  top: "conv0_1"
  convolution_param {
    num_output: 32
    bias_term: false
    pad: 1
    kernel_size: 3
    stride: 1
    weight_filler {
      type: "msra"
    }
    bias_filler {
      type: "constant"
    }
    engine: CUDNN
  }
}
layer {
  name: "concat0_1"
  type: "Concat"
  bottom: "concat0_0"
  bottom: "conv0_1"
  top: "concat0_1"
  concat_param {
    axis: 1
  }
}
layer {
  name: "conv0_2/bn"
  type: "BatchNorm"
  bottom: "concat0_1"
  top: "conv0_2/bn"
  param {
    lr_mult: 0
    decay_mult: 0
  }
  param {
    lr_mult: 0
    decay_mult: 0
  }
  param {
    lr_mult: 0
    decay_mult: 0
  }
}
layer {
  name: "conv0_2/scale"
  type: "Scale"
  bottom: "conv0_2/bn"
  top: "conv0_2/bn"
  scale_param {
    filler {
      value: 1
    }
    bias_term: true
    bias_filler {
      value: 0
    }
  }
}
layer {
  name: "relu0_2"
  type: "ReLU"
  bottom: "conv0_2/bn"
  top: "conv0_2/bn"
}
layer {
  name: "conv0_2"
  type: "Convolution"
  bottom: "conv0_2/bn"
  top: "conv0_2"
  convolution_param {
    num_output: 32
    bias_term: false
    pad: 1
    kernel_size: 3
    stride: 1
    weight_filler {
      type: "msra"
    }
    bias_filler {
      type: "constant"
    }
    engine: CUDNN
  }
}
layer {
  name: "concat0_2"
  type: "Concat"
  bottom: "concat0_1"
  bottom: "conv0_2"
  top: "concat0_2"
  concat_param {
    axis: 1
  }
}
layer {
  name: "conv0_3/bn"
  type: "BatchNorm"
  bottom: "concat0_2"
  top: "conv0_3/bn"
  param {
    lr_mult: 0
    decay_mult: 0
  }
  param {
    lr_mult: 0
    decay_mult: 0
  }
  param {
    lr_mult: 0
    decay_mult: 0
  }
}
layer {
  name: "conv0_3/scale"
  type: "Scale"
  bottom: "conv0_3/bn"
  top: "conv0_3/bn"
  scale_param {
    filler {
      value: 1
    }
    bias_term: true
    bias_filler {
      value: 0
    }
  }
}
layer {
  name: "relu0_3"
  type: "ReLU"
  bottom: "conv0_3/bn"
  top: "conv0_3/bn"
}
layer {
  name: "conv0_3"
  type: "Convolution"
  bottom: "conv0_3/bn"
  top: "conv0_3"
  convolution_param {
    num_output: 32
    bias_term: false
    pad: 1
    kernel_size: 3
    stride: 1
    weight_filler {
      type: "msra"
    }
    bias_filler {
      type: "constant"
    }
    engine: CUDNN
  }
}
layer {
  name: "concat0_3"
  type: "Concat"
  bottom: "concat0_2"
  bottom: "conv0_3"
  top: "concat0_3"
  concat_param {
    axis: 1
  }
}
layer {
  name: "conv0_4/bn"
  type: "BatchNorm"
  bottom: "concat0_3"
  top: "conv0_4/bn"
  param {
    lr_mult: 0
    decay_mult: 0
  }
  param {
    lr_mult: 0
    decay_mult: 0
  }
  param {
    lr_mult: 0
    decay_mult: 0
  }
}
layer {
  name: "conv0_4/scale"
  type: "Scale"
  bottom: "conv0_4/bn"
  top: "conv0_4/bn"
  scale_param {
    filler {
      value: 1
    }
    bias_term: true
    bias_filler {
      value: 0
    }
  }
}
layer {
  name: "relu0_4"
  type: "ReLU"
  bottom: "conv0_4/bn"
  top: "conv0_4/bn"
}
layer {
  name: "conv0_4"
  type: "Convolution"
  bottom: "conv0_4/bn"
  top: "conv0_4"
  convolution_param {
    num_output: 32
    bias_term: false
    pad: 1
    kernel_size: 3
    stride: 1
    weight_filler {
      type: "msra"
    }
    bias_filler {
      type: "constant"
    }
    engine: CUDNN
  }
}
layer {
  name: "concat0_4"
  type: "Concat"
  bottom: "concat0_3"
  bottom: "conv0_4"
  top: "concat0_4"
  concat_param {
    axis: 1
  }
}
layer {
  name: "conv0_5/bn"
  type: "BatchNorm"
  bottom: "concat0_4"
  top: "conv0_5/bn"
  param {
    lr_mult: 0
    decay_mult: 0
  }
  param {
    lr_mult: 0
    decay_mult: 0
  }
  param {
    lr_mult: 0
    decay_mult: 0
  }
}
layer {
  name: "conv0_5/scale"
  type: "Scale"
  bottom: "conv0_5/bn"
  top: "conv0_5/bn"
  scale_param {
    filler {
      value: 1
    }
    bias_term: true
    bias_filler {
      value: 0
    }
  }
}
layer {
  name: "relu0_5"
  type: "ReLU"
  bottom: "conv0_5/bn"
  top: "conv0_5/bn"
}
layer {
  name: "conv0_5"
  type: "Convolution"
  bottom: "conv0_5/bn"
  top: "conv0_5"
  convolution_param {
    num_output: 32
    bias_term: false
    pad: 1
    kernel_size: 3
    stride: 1
    weight_filler {
      type: "msra"
    }
    bias_filler {
      type: "constant"
    }
    engine: CUDNN
  }
}
layer {
  name: "concat0_5"
  type: "Concat"
  bottom: "concat0_4"
  bottom: "conv0_5"
  top: "concat0_5"
  concat_param {
    axis: 1
  }
}
layer {
  name: "BatchNorm1"
  type: "BatchNorm"
  bottom: "concat0_5"
  top: "BatchNorm1"
  param {
    lr_mult: 0
    decay_mult: 0
  }
  param {
    lr_mult: 0
    decay_mult: 0
  }
  param {
    lr_mult: 0
    decay_mult: 0
  }
}
layer {
  name: "Scale1"
  type: "Scale"
  bottom: "BatchNorm1"
  top: "BatchNorm1"
  scale_param {
    filler {
      value: 1
    }
    bias_term: true
    bias_filler {
      value: 0
    }
  }
}
layer {
  name: "ReLU1"
  type: "ReLU"
  bottom: "BatchNorm1"
  top: "BatchNorm1"
}
layer {
  name: "conv0_blk"
  type: "Convolution"
  bottom: "BatchNorm1"
  top: "conv0_blk"
  convolution_param {
    num_output: 128
    bias_term: false
    pad: 0
    kernel_size: 1
    stride: 1
    weight_filler {
      type: "msra"
    }
    bias_filler {
      type: "constant"
    }
    engine: CUDNN
  }
}
layer {
  name: "pool0"
  type: "Pooling"
  bottom: "conv0_blk"
  top: "pool0"
  pooling_param {
    pool: AVE
    kernel_size: 2
    stride: 2
  }
}
layer {
  name: "conv1_0/bn"
  type: "BatchNorm"
  bottom: "pool0"
  top: "conv1_0/bn"
  param {
    lr_mult: 0
    decay_mult: 0
  }
  param {
    lr_mult: 0
    decay_mult: 0
  }
  param {
    lr_mult: 0
    decay_mult: 0
  }
}
layer {
  name: "conv1_0/scale"
  type: "Scale"
  bottom: "conv1_0/bn"
  top: "conv1_0/bn"
  scale_param {
    filler {
      value: 1
    }
    bias_term: true
    bias_filler {
      value: 0
    }
  }
}
layer {
  name: "relu1_0"
  type: "ReLU"
  bottom: "conv1_0/bn"
  top: "conv1_0/bn"
}
layer {
  name: "conv1_0"
  type: "Convolution"
  bottom: "conv1_0/bn"
  top: "conv1_0"
  convolution_param {
    num_output: 32
    bias_term: false
    pad: 1
    kernel_size: 3
    stride: 1
    weight_filler {
      type: "msra"
    }
    bias_filler {
      type: "constant"
    }
    engine: CUDNN
  }
}
layer {
  name: "concat1_0"
  type: "Concat"
  bottom: "pool0"
  bottom: "conv1_0"
  top: "concat1_0"
  concat_param {
    axis: 1
  }
}
layer {
  name: "conv1_1/bn"
  type: "BatchNorm"
  bottom: "concat1_0"
  top: "conv1_1/bn"
  param {
    lr_mult: 0
    decay_mult: 0
  }
  param {
    lr_mult: 0
    decay_mult: 0
  }
  param {
    lr_mult: 0
    decay_mult: 0
  }
}
layer {
  name: "conv1_1/scale"
  type: "Scale"
  bottom: "conv1_1/bn"
  top: "conv1_1/bn"
  scale_param {
    filler {
      value: 1
    }
    bias_term: true
    bias_filler {
      value: 0
    }
  }
}
layer {
  name: "relu1_1"
  type: "ReLU"
  bottom: "conv1_1/bn"
  top: "conv1_1/bn"
}
layer {
  name: "conv1_1"
  type: "Convolution"
  bottom: "conv1_1/bn"
  top: "conv1_1"
  convolution_param {
    num_output: 32
    bias_term: false
    pad: 1
    kernel_size: 3
    stride: 1
    weight_filler {
      type: "msra"
    }
    bias_filler {
      type: "constant"
    }
    engine: CUDNN
  }
}
layer {
  name: "concat1_1"
  type: "Concat"
  bottom: "concat1_0"
  bottom: "conv1_1"
  top: "concat1_1"
  concat_param {
    axis: 1
  }
}
layer {
  name: "conv1_2/bn"
  type: "BatchNorm"
  bottom: "concat1_1"
  top: "conv1_2/bn"
  param {
    lr_mult: 0
    decay_mult: 0
  }
  param {
    lr_mult: 0
    decay_mult: 0
  }
  param {
    lr_mult: 0
    decay_mult: 0
  }
}
layer {
  name: "conv1_2/scale"
  type: "Scale"
  bottom: "conv1_2/bn"
  top: "conv1_2/bn"
  scale_param {
    filler {
      value: 1
    }
    bias_term: true
    bias_filler {
      value: 0
    }
  }
}
layer {
  name: "relu1_2"
  type: "ReLU"
  bottom: "conv1_2/bn"
  top: "conv1_2/bn"
}
layer {
  name: "conv1_2"
  type: "Convolution"
  bottom: "conv1_2/bn"
  top: "conv1_2"
  convolution_param {
    num_output: 32
    bias_term: false
    pad: 1
    kernel_size: 3
    stride: 1
    weight_filler {
      type: "msra"
    }
    bias_filler {
      type: "constant"
    }
    engine: CUDNN
  }
}
layer {
  name: "concat1_2"
  type: "Concat"
  bottom: "concat1_1"
  bottom: "conv1_2"
  top: "concat1_2"
  concat_param {
    axis: 1
  }
}
layer {
  name: "conv1_3/bn"
  type: "BatchNorm"
  bottom: "concat1_2"
  top: "conv1_3/bn"
  param {
    lr_mult: 0
    decay_mult: 0
  }
  param {
    lr_mult: 0
    decay_mult: 0
  }
  param {
    lr_mult: 0
    decay_mult: 0
  }
}
layer {
  name: "conv1_3/scale"
  type: "Scale"
  bottom: "conv1_3/bn"
  top: "conv1_3/bn"
  scale_param {
    filler {
      value: 1
    }
    bias_term: true
    bias_filler {
      value: 0
    }
  }
}
layer {
  name: "relu1_3"
  type: "ReLU"
  bottom: "conv1_3/bn"
  top: "conv1_3/bn"
}
layer {
  name: "conv1_3"
  type: "Convolution"
  bottom: "conv1_3/bn"
  top: "conv1_3"
  convolution_param {
    num_output: 32
    bias_term: false
    pad: 1
    kernel_size: 3
    stride: 1
    weight_filler {
      type: "msra"
    }
    bias_filler {
      type: "constant"
    }
    engine: CUDNN
  }
}
layer {
  name: "concat1_3"
  type: "Concat"
  bottom: "concat1_2"
  bottom: "conv1_3"
  top: "concat1_3"
  concat_param {
    axis: 1
  }
}
layer {
  name: "conv1_4/bn"
  type: "BatchNorm"
  bottom: "concat1_3"
  top: "conv1_4/bn"
  param {
    lr_mult: 0
    decay_mult: 0
  }
  param {
    lr_mult: 0
    decay_mult: 0
  }
  param {
    lr_mult: 0
    decay_mult: 0
  }
}
layer {
  name: "conv1_4/scale"
  type: "Scale"
  bottom: "conv1_4/bn"
  top: "conv1_4/bn"
  scale_param {
    filler {
      value: 1
    }
    bias_term: true
    bias_filler {
      value: 0
    }
  }
}
layer {
  name: "relu1_4"
  type: "ReLU"
  bottom: "conv1_4/bn"
  top: "conv1_4/bn"
}
layer {
  name: "conv1_4"
  type: "Convolution"
  bottom: "conv1_4/bn"
  top: "conv1_4"
  convolution_param {
    num_output: 32
    bias_term: false
    pad: 1
    kernel_size: 3
    stride: 1
    weight_filler {
      type: "msra"
    }
    bias_filler {
      type: "constant"
    }
    engine: CUDNN
  }
}
layer {
  name: "concat1_4"
  type: "Concat"
  bottom: "concat1_3"
  bottom: "conv1_4"
  top: "concat1_4"
  concat_param {
    axis: 1
  }
}
layer {
  name: "conv1_5/bn"
  type: "BatchNorm"
  bottom: "concat1_4"
  top: "conv1_5/bn"
  param {
    lr_mult: 0
    decay_mult: 0
  }
  param {
    lr_mult: 0
    decay_mult: 0
  }
  param {
    lr_mult: 0
    decay_mult: 0
  }
}
layer {
  name: "conv1_5/scale"
  type: "Scale"
  bottom: "conv1_5/bn"
  top: "conv1_5/bn"
  scale_param {
    filler {
      value: 1
    }
    bias_term: true
    bias_filler {
      value: 0
    }
  }
}
layer {
  name: "relu1_5"
  type: "ReLU"
  bottom: "conv1_5/bn"
  top: "conv1_5/bn"
}
layer {
  name: "conv1_5"
  type: "Convolution"
  bottom: "conv1_5/bn"
  top: "conv1_5"
  convolution_param {
    num_output: 32
    bias_term: false
    pad: 1
    kernel_size: 3
    stride: 1
    weight_filler {
      type: "msra"
    }
    bias_filler {
      type: "constant"
    }
    engine: CUDNN
  }
}
layer {
  name: "concat1_5"
  type: "Concat"
  bottom: "concat1_4"
  bottom: "conv1_5"
  top: "concat1_5"
  concat_param {
    axis: 1
  }
}
layer {
  name: "conv1_6/bn"
  type: "BatchNorm"
  bottom: "concat1_5"
  top: "conv1_6/bn"
  param {
    lr_mult: 0
    decay_mult: 0
  }
  param {
    lr_mult: 0
    decay_mult: 0
  }
  param {
    lr_mult: 0
    decay_mult: 0
  }
}
layer {
  name: "conv1_6/scale"
  type: "Scale"
  bottom: "conv1_6/bn"
  top: "conv1_6/bn"
  scale_param {
    filler {
      value: 1
    }
    bias_term: true
    bias_filler {
      value: 0
    }
  }
}
layer {
  name: "relu1_6"
  type: "ReLU"
  bottom: "conv1_6/bn"
  top: "conv1_6/bn"
}
layer {
  name: "conv1_6"
  type: "Convolution"
  bottom: "conv1_6/bn"
  top: "conv1_6"
  convolution_param {
    num_output: 32
    bias_term: false
    pad: 1
    kernel_size: 3
    stride: 1
    weight_filler {
      type: "msra"
    }
    bias_filler {
      type: "constant"
    }
    engine: CUDNN
  }
}
layer {
  name: "concat1_6"
  type: "Concat"
  bottom: "concat1_5"
  bottom: "conv1_6"
  top: "concat1_6"
  concat_param {
    axis: 1
  }
}
layer {
  name: "conv1_7/bn"
  type: "BatchNorm"
  bottom: "concat1_6"
  top: "conv1_7/bn"
  param {
    lr_mult: 0
    decay_mult: 0
  }
  param {
    lr_mult: 0
    decay_mult: 0
  }
  param {
    lr_mult: 0
    decay_mult: 0
  }
}
layer {
  name: "conv1_7/scale"
  type: "Scale"
  bottom: "conv1_7/bn"
  top: "conv1_7/bn"
  scale_param {
    filler {
      value: 1
    }
    bias_term: true
    bias_filler {
      value: 0
    }
  }
}
layer {
  name: "relu1_7"
  type: "ReLU"
  bottom: "conv1_7/bn"
  top: "conv1_7/bn"
}
layer {
  name: "conv1_7"
  type: "Convolution"
  bottom: "conv1_7/bn"
  top: "conv1_7"
  convolution_param {
    num_output: 32
    bias_term: false
    pad: 1
    kernel_size: 3
    stride: 1
    weight_filler {
      type: "msra"
    }
    bias_filler {
      type: "constant"
    }
    engine: CUDNN
  }
}
layer {
  name: "concat1_7"
  type: "Concat"
  bottom: "concat1_6"
  bottom: "conv1_7"
  top: "concat1_7"
  concat_param {
    axis: 1
  }
}
layer {
  name: "conv1_8/bn"
  type: "BatchNorm"
  bottom: "concat1_7"
  top: "conv1_8/bn"
  param {
    lr_mult: 0
    decay_mult: 0
  }
  param {
    lr_mult: 0
    decay_mult: 0
  }
  param {
    lr_mult: 0
    decay_mult: 0
  }
}
layer {
  name: "conv1_8/scale"
  type: "Scale"
  bottom: "conv1_8/bn"
  top: "conv1_8/bn"
  scale_param {
    filler {
      value: 1
    }
    bias_term: true
    bias_filler {
      value: 0
    }
  }
}
layer {
  name: "relu1_8"
  type: "ReLU"
  bottom: "conv1_8/bn"
  top: "conv1_8/bn"
}
layer {
  name: "conv1_8"
  type: "Convolution"
  bottom: "conv1_8/bn"
  top: "conv1_8"
  convolution_param {
    num_output: 32
    bias_term: false
    pad: 1
    kernel_size: 3
    stride: 1
    weight_filler {
      type: "msra"
    }
    bias_filler {
      type: "constant"
    }
    engine: CUDNN
  }
}
layer {
  name: "concat1_8"
  type: "Concat"
  bottom: "concat1_7"
  bottom: "conv1_8"
  top: "concat1_8"
  concat_param {
    axis: 1
  }
}
layer {
  name: "conv1_9/bn"
  type: "BatchNorm"
  bottom: "concat1_8"
  top: "conv1_9/bn"
  param {
    lr_mult: 0
    decay_mult: 0
  }
  param {
    lr_mult: 0
    decay_mult: 0
  }
  param {
    lr_mult: 0
    decay_mult: 0
  }
}
layer {
  name: "conv1_9/scale"
  type: "Scale"
  bottom: "conv1_9/bn"
  top: "conv1_9/bn"
  scale_param {
    filler {
      value: 1
    }
    bias_term: true
    bias_filler {
      value: 0
    }
  }
}
layer {
  name: "relu1_9"
  type: "ReLU"
  bottom: "conv1_9/bn"
  top: "conv1_9/bn"
}
layer {
  name: "conv1_9"
  type: "Convolution"
  bottom: "conv1_9/bn"
  top: "conv1_9"
  convolution_param {
    num_output: 32
    bias_term: false
    pad: 1
    kernel_size: 3
    stride: 1
    weight_filler {
      type: "msra"
    }
    bias_filler {
      type: "constant"
    }
    engine: CUDNN
  }
}
layer {
  name: "concat1_9"
  type: "Concat"
  bottom: "concat1_8"
  bottom: "conv1_9"
  top: "concat1_9"
  concat_param {
    axis: 1
  }
}
layer {
  name: "conv1_10/bn"
  type: "BatchNorm"
  bottom: "concat1_9"
  top: "conv1_10/bn"
  param {
    lr_mult: 0
    decay_mult: 0
  }
  param {
    lr_mult: 0
    decay_mult: 0
  }
  param {
    lr_mult: 0
    decay_mult: 0
  }
}
layer {
  name: "conv1_10/scale"
  type: "Scale"
  bottom: "conv1_10/bn"
  top: "conv1_10/bn"
  scale_param {
    filler {
      value: 1
    }
    bias_term: true
    bias_filler {
      value: 0
    }
  }
}
layer {
  name: "relu1_10"
  type: "ReLU"
  bottom: "conv1_10/bn"
  top: "conv1_10/bn"
}
layer {
  name: "conv1_10"
  type: "Convolution"
  bottom: "conv1_10/bn"
  top: "conv1_10"
  convolution_param {
    num_output: 32
    bias_term: false
    pad: 1
    kernel_size: 3
    stride: 1
    weight_filler {
      type: "msra"
    }
    bias_filler {
      type: "constant"
    }
    engine: CUDNN
  }
}
layer {
  name: "concat1_10"
  type: "Concat"
  bottom: "concat1_9"
  bottom: "conv1_10"
  top: "concat1_10"
  concat_param {
    axis: 1
  }
}
layer {
  name: "conv1_11/bn"
  type: "BatchNorm"
  bottom: "concat1_10"
  top: "conv1_11/bn"
  param {
    lr_mult: 0
    decay_mult: 0
  }
  param {
    lr_mult: 0
    decay_mult: 0
  }
  param {
    lr_mult: 0
    decay_mult: 0
  }
}
layer {
  name: "conv1_11/scale"
  type: "Scale"
  bottom: "conv1_11/bn"
  top: "conv1_11/bn"
  scale_param {
    filler {
      value: 1
    }
    bias_term: true
    bias_filler {
      value: 0
    }
  }
}
layer {
  name: "relu1_11"
  type: "ReLU"
  bottom: "conv1_11/bn"
  top: "conv1_11/bn"
}
layer {
  name: "conv1_11"
  type: "Convolution"
  bottom: "conv1_11/bn"
  top: "conv1_11"
  convolution_param {
    num_output: 32
    bias_term: false
    pad: 1
    kernel_size: 3
    stride: 1
    weight_filler {
      type: "msra"
    }
    bias_filler {
      type: "constant"
    }
    engine: CUDNN
  }
}
layer {
  name: "concat1_11"
  type: "Concat"
  bottom: "concat1_10"
  bottom: "conv1_11"
  top: "concat1_11"
  concat_param {
    axis: 1
  }
}
layer {
  name: "BatchNorm2"
  type: "BatchNorm"
  bottom: "concat1_11"
  top: "BatchNorm2"
  param {
    lr_mult: 0
    decay_mult: 0
  }
  param {
    lr_mult: 0
    decay_mult: 0
  }
  param {
    lr_mult: 0
    decay_mult: 0
  }
}
layer {
  name: "Scale2"
  type: "Scale"
  bottom: "BatchNorm2"
  top: "BatchNorm2"
  scale_param {
    filler {
      value: 1
    }
    bias_term: true
    bias_filler {
      value: 0
    }
  }
}
layer {
  name: "ReLU2"
  type: "ReLU"
  bottom: "BatchNorm2"
  top: "BatchNorm2"
}
layer {
  name: "conv1_blk"
  type: "Convolution"
  bottom: "BatchNorm2"
  top: "conv1_blk"
  convolution_param {
    num_output: 256
    bias_term: false
    pad: 0
    kernel_size: 1
    stride: 1
    weight_filler {
      type: "msra"
    }
    bias_filler {
      type: "constant"
    }
    engine: CUDNN
  }
}
layer {
  name: "pool1"
  type: "Pooling"
  bottom: "conv1_blk"
  top: "pool1"
  pooling_param {
    pool: AVE
    kernel_size: 2
    stride: 2
  }
}
layer {
  name: "conv2_0/bn"
  type: "BatchNorm"
  bottom: "pool1"
  top: "conv2_0/bn"
  param {
    lr_mult: 0
    decay_mult: 0
  }
  param {
    lr_mult: 0
    decay_mult: 0
  }
  param {
    lr_mult: 0
    decay_mult: 0
  }
}
layer {
  name: "conv2_0/scale"
  type: "Scale"
  bottom: "conv2_0/bn"
  top: "conv2_0/bn"
  scale_param {
    filler {
      value: 1
    }
    bias_term: true
    bias_filler {
      value: 0
    }
  }
}
layer {
  name: "relu2_0"
  type: "ReLU"
  bottom: "conv2_0/bn"
  top: "conv2_0/bn"
}
layer {
  name: "conv2_0"
  type: "Convolution"
  bottom: "conv2_0/bn"
  top: "conv2_0"
  convolution_param {
    num_output: 32
    bias_term: false
    pad: 1
    kernel_size: 3
    stride: 1
    weight_filler {
      type: "msra"
    }
    bias_filler {
      type: "constant"
    }
    engine: CUDNN
  }
}
layer {
  name: "concat2_0"
  type: "Concat"
  bottom: "pool1"
  bottom: "conv2_0"
  top: "concat2_0"
  concat_param {
    axis: 1
  }
}
layer {
  name: "conv2_1/bn"
  type: "BatchNorm"
  bottom: "concat2_0"
  top: "conv2_1/bn"
  param {
    lr_mult: 0
    decay_mult: 0
  }
  param {
    lr_mult: 0
    decay_mult: 0
  }
  param {
    lr_mult: 0
    decay_mult: 0
  }
}
layer {
  name: "conv2_1/scale"
  type: "Scale"
  bottom: "conv2_1/bn"
  top: "conv2_1/bn"
  scale_param {
    filler {
      value: 1
    }
    bias_term: true
    bias_filler {
      value: 0
    }
  }
}
layer {
  name: "relu2_1"
  type: "ReLU"
  bottom: "conv2_1/bn"
  top: "conv2_1/bn"
}
layer {
  name: "conv2_1"
  type: "Convolution"
  bottom: "conv2_1/bn"
  top: "conv2_1"
  convolution_param {
    num_output: 32
    bias_term: false
    pad: 1
    kernel_size: 3
    stride: 1
    weight_filler {
      type: "msra"
    }
    bias_filler {
      type: "constant"
    }
    engine: CUDNN
  }
}
layer {
  name: "concat2_1"
  type: "Concat"
  bottom: "concat2_0"
  bottom: "conv2_1"
  top: "concat2_1"
  concat_param {
    axis: 1
  }
}
layer {
  name: "conv2_2/bn"
  type: "BatchNorm"
  bottom: "concat2_1"
  top: "conv2_2/bn"
  param {
    lr_mult: 0
    decay_mult: 0
  }
  param {
    lr_mult: 0
    decay_mult: 0
  }
  param {
    lr_mult: 0
    decay_mult: 0
  }
}
layer {
  name: "conv2_2/scale"
  type: "Scale"
  bottom: "conv2_2/bn"
  top: "conv2_2/bn"
  scale_param {
    filler {
      value: 1
    }
    bias_term: true
    bias_filler {
      value: 0
    }
  }
}
layer {
  name: "relu2_2"
  type: "ReLU"
  bottom: "conv2_2/bn"
  top: "conv2_2/bn"
}
layer {
  name: "conv2_2"
  type: "Convolution"
  bottom: "conv2_2/bn"
  top: "conv2_2"
  convolution_param {
    num_output: 32
    bias_term: false
    pad: 1
    kernel_size: 3
    stride: 1
    weight_filler {
      type: "msra"
    }
    bias_filler {
      type: "constant"
    }
    engine: CUDNN
  }
}
layer {
  name: "concat2_2"
  type: "Concat"
  bottom: "concat2_1"
  bottom: "conv2_2"
  top: "concat2_2"
  concat_param {
    axis: 1
  }
}
layer {
  name: "conv2_3/bn"
  type: "BatchNorm"
  bottom: "concat2_2"
  top: "conv2_3/bn"
  param {
    lr_mult: 0
    decay_mult: 0
  }
  param {
    lr_mult: 0
    decay_mult: 0
  }
  param {
    lr_mult: 0
    decay_mult: 0
  }
}
layer {
  name: "conv2_3/scale"
  type: "Scale"
  bottom: "conv2_3/bn"
  top: "conv2_3/bn"
  scale_param {
    filler {
      value: 1
    }
    bias_term: true
    bias_filler {
      value: 0
    }
  }
}
layer {
  name: "relu2_3"
  type: "ReLU"
  bottom: "conv2_3/bn"
  top: "conv2_3/bn"
}
layer {
  name: "conv2_3"
  type: "Convolution"
  bottom: "conv2_3/bn"
  top: "conv2_3"
  convolution_param {
    num_output: 32
    bias_term: false
    pad: 1
    kernel_size: 3
    stride: 1
    weight_filler {
      type: "msra"
    }
    bias_filler {
      type: "constant"
    }
    engine: CUDNN
  }
}
layer {
  name: "concat2_3"
  type: "Concat"
  bottom: "concat2_2"
  bottom: "conv2_3"
  top: "concat2_3"
  concat_param {
    axis: 1
  }
}
layer {
  name: "conv2_4/bn"
  type: "BatchNorm"
  bottom: "concat2_3"
  top: "conv2_4/bn"
  param {
    lr_mult: 0
    decay_mult: 0
  }
  param {
    lr_mult: 0
    decay_mult: 0
  }
  param {
    lr_mult: 0
    decay_mult: 0
  }
}
layer {
  name: "conv2_4/scale"
  type: "Scale"
  bottom: "conv2_4/bn"
  top: "conv2_4/bn"
  scale_param {
    filler {
      value: 1
    }
    bias_term: true
    bias_filler {
      value: 0
    }
  }
}
layer {
  name: "relu2_4"
  type: "ReLU"
  bottom: "conv2_4/bn"
  top: "conv2_4/bn"
}
layer {
  name: "conv2_4"
  type: "Convolution"
  bottom: "conv2_4/bn"
  top: "conv2_4"
  convolution_param {
    num_output: 32
    bias_term: false
    pad: 1
    kernel_size: 3
    stride: 1
    weight_filler {
      type: "msra"
    }
    bias_filler {
      type: "constant"
    }
    engine: CUDNN
  }
}
layer {
  name: "concat2_4"
  type: "Concat"
  bottom: "concat2_3"
  bottom: "conv2_4"
  top: "concat2_4"
  concat_param {
    axis: 1
  }
}
layer {
  name: "conv2_5/bn"
  type: "BatchNorm"
  bottom: "concat2_4"
  top: "conv2_5/bn"
  param {
    lr_mult: 0
    decay_mult: 0
  }
  param {
    lr_mult: 0
    decay_mult: 0
  }
  param {
    lr_mult: 0
    decay_mult: 0
  }
}
layer {
  name: "conv2_5/scale"
  type: "Scale"
  bottom: "conv2_5/bn"
  top: "conv2_5/bn"
  scale_param {
    filler {
      value: 1
    }
    bias_term: true
    bias_filler {
      value: 0
    }
  }
}
layer {
  name: "relu2_5"
  type: "ReLU"
  bottom: "conv2_5/bn"
  top: "conv2_5/bn"
}
layer {
  name: "conv2_5"
  type: "Convolution"
  bottom: "conv2_5/bn"
  top: "conv2_5"
  convolution_param {
    num_output: 32
    bias_term: false
    pad: 1
    kernel_size: 3
    stride: 1
    weight_filler {
      type: "msra"
    }
    bias_filler {
      type: "constant"
    }
    engine: CUDNN
  }
}
layer {
  name: "concat2_5"
  type: "Concat"
  bottom: "concat2_4"
  bottom: "conv2_5"
  top: "concat2_5"
  concat_param {
    axis: 1
  }
}
layer {
  name: "conv2_6/bn"
  type: "BatchNorm"
  bottom: "concat2_5"
  top: "conv2_6/bn"
  param {
    lr_mult: 0
    decay_mult: 0
  }
  param {
    lr_mult: 0
    decay_mult: 0
  }
  param {
    lr_mult: 0
    decay_mult: 0
  }
}
layer {
  name: "conv2_6/scale"
  type: "Scale"
  bottom: "conv2_6/bn"
  top: "conv2_6/bn"
  scale_param {
    filler {
      value: 1
    }
    bias_term: true
    bias_filler {
      value: 0
    }
  }
}
layer {
  name: "relu2_6"
  type: "ReLU"
  bottom: "conv2_6/bn"
  top: "conv2_6/bn"
}
layer {
  name: "conv2_6"
  type: "Convolution"
  bottom: "conv2_6/bn"
  top: "conv2_6"
  convolution_param {
    num_output: 32
    bias_term: false
    pad: 1
    kernel_size: 3
    stride: 1
    weight_filler {
      type: "msra"
    }
    bias_filler {
      type: "constant"
    }
    engine: CUDNN
  }
}
layer {
  name: "concat2_6"
  type: "Concat"
  bottom: "concat2_5"
  bottom: "conv2_6"
  top: "concat2_6"
  concat_param {
    axis: 1
  }
}
layer {
  name: "conv2_7/bn"
  type: "BatchNorm"
  bottom: "concat2_6"
  top: "conv2_7/bn"
  param {
    lr_mult: 0
    decay_mult: 0
  }
  param {
    lr_mult: 0
    decay_mult: 0
  }
  param {
    lr_mult: 0
    decay_mult: 0
  }
}
layer {
  name: "conv2_7/scale"
  type: "Scale"
  bottom: "conv2_7/bn"
  top: "conv2_7/bn"
  scale_param {
    filler {
      value: 1
    }
    bias_term: true
    bias_filler {
      value: 0
    }
  }
}
layer {
  name: "relu2_7"
  type: "ReLU"
  bottom: "conv2_7/bn"
  top: "conv2_7/bn"
}
layer {
  name: "conv2_7"
  type: "Convolution"
  bottom: "conv2_7/bn"
  top: "conv2_7"
  convolution_param {
    num_output: 32
    bias_term: false
    pad: 1
    kernel_size: 3
    stride: 1
    weight_filler {
      type: "msra"
    }
    bias_filler {
      type: "constant"
    }
    engine: CUDNN
  }
}
layer {
  name: "concat2_7"
  type: "Concat"
  bottom: "concat2_6"
  bottom: "conv2_7"
  top: "concat2_7"
  concat_param {
    axis: 1
  }
}
layer {
  name: "conv2_8/bn"
  type: "BatchNorm"
  bottom: "concat2_7"
  top: "conv2_8/bn"
  param {
    lr_mult: 0
    decay_mult: 0
  }
  param {
    lr_mult: 0
    decay_mult: 0
  }
  param {
    lr_mult: 0
    decay_mult: 0
  }
}
layer {
  name: "conv2_8/scale"
  type: "Scale"
  bottom: "conv2_8/bn"
  top: "conv2_8/bn"
  scale_param {
    filler {
      value: 1
    }
    bias_term: true
    bias_filler {
      value: 0
    }
  }
}
layer {
  name: "relu2_8"
  type: "ReLU"
  bottom: "conv2_8/bn"
  top: "conv2_8/bn"
}
layer {
  name: "conv2_8"
  type: "Convolution"
  bottom: "conv2_8/bn"
  top: "conv2_8"
  convolution_param {
    num_output: 32
    bias_term: false
    pad: 1
    kernel_size: 3
    stride: 1
    weight_filler {
      type: "msra"
    }
    bias_filler {
      type: "constant"
    }
    engine: CUDNN
  }
}
layer {
  name: "concat2_8"
  type: "Concat"
  bottom: "concat2_7"
  bottom: "conv2_8"
  top: "concat2_8"
  con
I0226 14:48:24.351025  8074 layer_factory.hpp:77] Creating layer word_images
I0226 14:48:24.351111  8074 db_lmdb.cpp:35] Opened lmdb /data/fwolf/iam_50000/iam-db_nti500000_pul2-3-4-5_train_word_images_lmdb
I0226 14:48:24.351142  8074 net.cpp:84] Creating Layer word_images
I0226 14:48:24.351150  8074 net.cpp:380] word_images -> word_images
I0226 14:48:24.351162  8074 net.cpp:380] word_images -> label
I0226 14:48:24.352969  8074 data_layer.cpp:44] output data size: 1,1,145,197
I0226 14:48:24.360113  8074 net.cpp:122] Setting up word_images
I0226 14:48:24.360142  8074 net.cpp:129] Top shape: 1 1 145 197 (28565)
I0226 14:48:24.360147  8074 net.cpp:129] Top shape: 1 (1)
I0226 14:48:24.360152  8074 net.cpp:137] Memory required for data: 114264
I0226 14:48:24.360160  8074 layer_factory.hpp:77] Creating layer phocs
I0226 14:48:24.360262  8074 db_lmdb.cpp:35] Opened lmdb /data/fwolf/iam_50000/iam-db_nti500000_pul2-3-4-5_train_phocs_lmdb
I0226 14:48:24.360289  8074 net.cpp:84] Creating Layer phocs
I0226 14:48:24.360298  8074 net.cpp:380] phocs -> phocs
I0226 14:48:24.360307  8074 net.cpp:380] phocs -> label_phocs
I0226 14:48:24.360658  8074 data_layer.cpp:44] output data size: 1,1,1,618
I0226 14:48:24.365097  8074 net.cpp:122] Setting up phocs
I0226 14:48:24.365113  8074 net.cpp:129] Top shape: 1 1 1 618 (618)
I0226 14:48:24.365118  8074 net.cpp:129] Top shape: 1 (1)
I0226 14:48:24.365123  8074 net.cpp:137] Memory required for data: 116740
I0226 14:48:24.365126  8074 layer_factory.hpp:77] Creating layer conv_init
I0226 14:48:24.365151  8074 net.cpp:84] Creating Layer conv_init
I0226 14:48:24.365156  8074 net.cpp:406] conv_init <- word_images
I0226 14:48:24.365170  8074 net.cpp:380] conv_init -> conv_init
I0226 14:48:25.060998  8074 net.cpp:122] Setting up conv_init
I0226 14:48:25.061033  8074 net.cpp:129] Top shape: 1 64 73 99 (462528)
I0226 14:48:25.061038  8074 net.cpp:137] Memory required for data: 1966852
I0226 14:48:25.061050  8074 layer_factory.hpp:77] Creating layer bn_init
I0226 14:48:25.061062  8074 net.cpp:84] Creating Layer bn_init
I0226 14:48:25.061067  8074 net.cpp:406] bn_init <- conv_init
I0226 14:48:25.061074  8074 net.cpp:380] bn_init -> bn_init
I0226 14:48:25.062674  8074 net.cpp:122] Setting up bn_init
I0226 14:48:25.062688  8074 net.cpp:129] Top shape: 1 64 73 99 (462528)
I0226 14:48:25.062692  8074 net.cpp:137] Memory required for data: 3816964
I0226 14:48:25.062705  8074 layer_factory.hpp:77] Creating layer scale_init
I0226 14:48:25.062716  8074 net.cpp:84] Creating Layer scale_init
I0226 14:48:25.062721  8074 net.cpp:406] scale_init <- bn_init
I0226 14:48:25.062726  8074 net.cpp:367] scale_init -> bn_init (in-place)
I0226 14:48:25.062770  8074 layer_factory.hpp:77] Creating layer scale_init
I0226 14:48:25.062888  8074 net.cpp:122] Setting up scale_init
I0226 14:48:25.062896  8074 net.cpp:129] Top shape: 1 64 73 99 (462528)
I0226 14:48:25.062899  8074 net.cpp:137] Memory required for data: 5667076
I0226 14:48:25.062906  8074 layer_factory.hpp:77] Creating layer relu_init
I0226 14:48:25.062913  8074 net.cpp:84] Creating Layer relu_init
I0226 14:48:25.062916  8074 net.cpp:406] relu_init <- bn_init
I0226 14:48:25.062922  8074 net.cpp:367] relu_init -> bn_init (in-place)
I0226 14:48:25.063899  8074 net.cpp:122] Setting up relu_init
I0226 14:48:25.063912  8074 net.cpp:129] Top shape: 1 64 73 99 (462528)
I0226 14:48:25.063916  8074 net.cpp:137] Memory required for data: 7517188
I0226 14:48:25.063920  8074 layer_factory.hpp:77] Creating layer pool_init
I0226 14:48:25.063928  8074 net.cpp:84] Creating Layer pool_init
I0226 14:48:25.063932  8074 net.cpp:406] pool_init <- bn_init
I0226 14:48:25.063938  8074 net.cpp:380] pool_init -> pool_init
I0226 14:48:25.063984  8074 net.cpp:122] Setting up pool_init
I0226 14:48:25.063989  8074 net.cpp:129] Top shape: 1 64 37 50 (118400)
I0226 14:48:25.063993  8074 net.cpp:137] Memory required for data: 7990788
I0226 14:48:25.063997  8074 layer_factory.hpp:77] Creating layer pool_init_pool_init_0_split
I0226 14:48:25.064002  8074 net.cpp:84] Creating Layer pool_init_pool_init_0_split
I0226 14:48:25.064005  8074 net.cpp:406] pool_init_pool_init_0_split <- pool_init
I0226 14:48:25.064010  8074 net.cpp:380] pool_init_pool_init_0_split -> pool_init_pool_init_0_split_0
I0226 14:48:25.064018  8074 net.cpp:380] pool_init_pool_init_0_split -> pool_init_pool_init_0_split_1
I0226 14:48:25.064052  8074 net.cpp:122] Setting up pool_init_pool_init_0_split
I0226 14:48:25.064057  8074 net.cpp:129] Top shape: 1 64 37 50 (118400)
I0226 14:48:25.064061  8074 net.cpp:129] Top shape: 1 64 37 50 (118400)
I0226 14:48:25.064064  8074 net.cpp:137] Memory required for data: 8937988
I0226 14:48:25.064069  8074 layer_factory.hpp:77] Creating layer conv0_0/bn
I0226 14:48:25.064074  8074 net.cpp:84] Creating Layer conv0_0/bn
I0226 14:48:25.064082  8074 net.cpp:406] conv0_0/bn <- pool_init_pool_init_0_split_0
I0226 14:48:25.064088  8074 net.cpp:380] conv0_0/bn -> conv0_0/bn
I0226 14:48:25.064293  8074 net.cpp:122] Setting up conv0_0/bn
I0226 14:48:25.064299  8074 net.cpp:129] Top shape: 1 64 37 50 (118400)
I0226 14:48:25.064302  8074 net.cpp:137] Memory required for data: 9411588
I0226 14:48:25.064312  8074 layer_factory.hpp:77] Creating layer conv0_0/scale
I0226 14:48:25.064319  8074 net.cpp:84] Creating Layer conv0_0/scale
I0226 14:48:25.064323  8074 net.cpp:406] conv0_0/scale <- conv0_0/bn
I0226 14:48:25.064328  8074 net.cpp:367] conv0_0/scale -> conv0_0/bn (in-place)
I0226 14:48:25.064365  8074 layer_factory.hpp:77] Creating layer conv0_0/scale
I0226 14:48:25.064481  8074 net.cpp:122] Setting up conv0_0/scale
I0226 14:48:25.064488  8074 net.cpp:129] Top shape: 1 64 37 50 (118400)
I0226 14:48:25.064491  8074 net.cpp:137] Memory required for data: 9885188
I0226 14:48:25.064497  8074 layer_factory.hpp:77] Creating layer relu0_0
I0226 14:48:25.064502  8074 net.cpp:84] Creating Layer relu0_0
I0226 14:48:25.064507  8074 net.cpp:406] relu0_0 <- conv0_0/bn
I0226 14:48:25.064510  8074 net.cpp:367] relu0_0 -> conv0_0/bn (in-place)
I0226 14:48:25.064707  8074 net.cpp:122] Setting up relu0_0
I0226 14:48:25.064719  8074 net.cpp:129] Top shape: 1 64 37 50 (118400)
I0226 14:48:25.064723  8074 net.cpp:137] Memory required for data: 10358788
I0226 14:48:25.064726  8074 layer_factory.hpp:77] Creating layer conv0_0
I0226 14:48:25.064738  8074 net.cpp:84] Creating Layer conv0_0
I0226 14:48:25.064741  8074 net.cpp:406] conv0_0 <- conv0_0/bn
I0226 14:48:25.064746  8074 net.cpp:380] conv0_0 -> conv0_0
I0226 14:48:25.067664  8074 net.cpp:122] Setting up conv0_0
I0226 14:48:25.067677  8074 net.cpp:129] Top shape: 1 32 37 50 (59200)
I0226 14:48:25.067682  8074 net.cpp:137] Memory required for data: 10595588
I0226 14:48:25.067687  8074 layer_factory.hpp:77] Creating layer concat0_0
I0226 14:48:25.067695  8074 net.cpp:84] Creating Layer concat0_0
I0226 14:48:25.067699  8074 net.cpp:406] concat0_0 <- pool_init_pool_init_0_split_1
I0226 14:48:25.067705  8074 net.cpp:406] concat0_0 <- conv0_0
I0226 14:48:25.067710  8074 net.cpp:380] concat0_0 -> concat0_0
I0226 14:48:25.067741  8074 net.cpp:122] Setting up concat0_0
I0226 14:48:25.067747  8074 net.cpp:129] Top shape: 1 96 37 50 (177600)
I0226 14:48:25.067750  8074 net.cpp:137] Memory required for data: 11305988
I0226 14:48:25.067754  8074 layer_factory.hpp:77] Creating layer concat0_0_concat0_0_0_split
I0226 14:48:25.067759  8074 net.cpp:84] Creating Layer concat0_0_concat0_0_0_split
I0226 14:48:25.067762  8074 net.cpp:406] concat0_0_concat0_0_0_split <- concat0_0
I0226 14:48:25.067767  8074 net.cpp:380] concat0_0_concat0_0_0_split -> concat0_0_concat0_0_0_split_0
I0226 14:48:25.067773  8074 net.cpp:380] concat0_0_concat0_0_0_split -> concat0_0_concat0_0_0_split_1
I0226 14:48:25.067808  8074 net.cpp:122] Setting up concat0_0_concat0_0_0_split
I0226 14:48:25.067813  8074 net.cpp:129] Top shape: 1 96 37 50 (177600)
I0226 14:48:25.067817  8074 net.cpp:129] Top shape: 1 96 37 50 (177600)
I0226 14:48:25.067821  8074 net.cpp:137] Memory required for data: 12726788
I0226 14:48:25.067823  8074 layer_factory.hpp:77] Creating layer conv0_1/bn
I0226 14:48:25.067829  8074 net.cpp:84] Creating Layer conv0_1/bn
I0226 14:48:25.067833  8074 net.cpp:406] conv0_1/bn <- concat0_0_concat0_0_0_split_0
I0226 14:48:25.067837  8074 net.cpp:380] conv0_1/bn -> conv0_1/bn
I0226 14:48:25.068053  8074 net.cpp:122] Setting up conv0_1/bn
I0226 14:48:25.068058  8074 net.cpp:129] Top shape: 1 96 37 50 (177600)
I0226 14:48:25.068061  8074 net.cpp:137] Memory required for data: 13437188
I0226 14:48:25.068069  8074 layer_factory.hpp:77] Creating layer conv0_1/scale
I0226 14:48:25.068075  8074 net.cpp:84] Creating Layer conv0_1/scale
I0226 14:48:25.068079  8074 net.cpp:406] conv0_1/scale <- conv0_1/bn
I0226 14:48:25.068084  8074 net.cpp:367] conv0_1/scale -> conv0_1/bn (in-place)
I0226 14:48:25.068121  8074 layer_factory.hpp:77] Creating layer conv0_1/scale
I0226 14:48:25.068244  8074 net.cpp:122] Setting up conv0_1/scale
I0226 14:48:25.068251  8074 net.cpp:129] Top shape: 1 96 37 50 (177600)
I0226 14:48:25.068255  8074 net.cpp:137] Memory required for data: 14147588
I0226 14:48:25.068264  8074 layer_factory.hpp:77] Creating layer relu0_1
I0226 14:48:25.068270  8074 net.cpp:84] Creating Layer relu0_1
I0226 14:48:25.068274  8074 net.cpp:406] relu0_1 <- conv0_1/bn
I0226 14:48:25.068279  8074 net.cpp:367] relu0_1 -> conv0_1/bn (in-place)
I0226 14:48:25.068473  8074 net.cpp:122] Setting up relu0_1
I0226 14:48:25.068481  8074 net.cpp:129] Top shape: 1 96 37 50 (177600)
I0226 14:48:25.068485  8074 net.cpp:137] Memory required for data: 14857988
I0226 14:48:25.068488  8074 layer_factory.hpp:77] Creating layer conv0_1
I0226 14:48:25.068498  8074 net.cpp:84] Creating Layer conv0_1
I0226 14:48:25.068502  8074 net.cpp:406] conv0_1 <- conv0_1/bn
I0226 14:48:25.068507  8074 net.cpp:380] conv0_1 -> conv0_1
I0226 14:48:25.070883  8074 net.cpp:122] Setting up conv0_1
I0226 14:48:25.070896  8074 net.cpp:129] Top shape: 1 32 37 50 (59200)
I0226 14:48:25.070900  8074 net.cpp:137] Memory required for data: 15094788
I0226 14:48:25.070906  8074 layer_factory.hpp:77] Creating layer concat0_1
I0226 14:48:25.070914  8074 net.cpp:84] Creating Layer concat0_1
I0226 14:48:25.070917  8074 net.cpp:406] concat0_1 <- concat0_0_concat0_0_0_split_1
I0226 14:48:25.070922  8074 net.cpp:406] concat0_1 <- conv0_1
I0226 14:48:25.070927  8074 net.cpp:380] concat0_1 -> concat0_1
I0226 14:48:25.070958  8074 net.cpp:122] Setting up concat0_1
I0226 14:48:25.070964  8074 net.cpp:129] Top shape: 1 128 37 50 (236800)
I0226 14:48:25.070967  8074 net.cpp:137] Memory required for data: 16041988
I0226 14:48:25.070971  8074 layer_factory.hpp:77] Creating layer concat0_1_concat0_1_0_split
I0226 14:48:25.070976  8074 net.cpp:84] Creating Layer concat0_1_concat0_1_0_split
I0226 14:48:25.070979  8074 net.cpp:406] concat0_1_concat0_1_0_split <- concat0_1
I0226 14:48:25.070984  8074 net.cpp:380] concat0_1_concat0_1_0_split -> concat0_1_concat0_1_0_split_0
I0226 14:48:25.070991  8074 net.cpp:380] concat0_1_concat0_1_0_split -> concat0_1_concat0_1_0_split_1
I0226 14:48:25.071024  8074 net.cpp:122] Setting up concat0_1_concat0_1_0_split
I0226 14:48:25.071030  8074 net.cpp:129] Top shape: 1 128 37 50 (236800)
I0226 14:48:25.071034  8074 net.cpp:129] Top shape: 1 128 37 50 (236800)
I0226 14:48:25.071038  8074 net.cpp:137] Memory required for data: 17936388
I0226 14:48:25.071040  8074 layer_factory.hpp:77] Creating layer conv0_2/bn
I0226 14:48:25.071046  8074 net.cpp:84] Creating Layer conv0_2/bn
I0226 14:48:25.071050  8074 net.cpp:406] conv0_2/bn <- concat0_1_concat0_1_0_split_0
I0226 14:48:25.071054  8074 net.cpp:380] conv0_2/bn -> conv0_2/bn
I0226 14:48:25.071254  8074 net.cpp:122] Setting up conv0_2/bn
I0226 14:48:25.071259  8074 net.cpp:129] Top shape: 1 128 37 50 (236800)
I0226 14:48:25.071262  8074 net.cpp:137] Memory required for data: 18883588
I0226 14:48:25.071269  8074 layer_factory.hpp:77] Creating layer conv0_2/scale
I0226 14:48:25.071276  8074 net.cpp:84] Creating Layer conv0_2/scale
I0226 14:48:25.071280  8074 net.cpp:406] conv0_2/scale <- conv0_2/bn
I0226 14:48:25.071285  8074 net.cpp:367] conv0_2/scale -> conv0_2/bn (in-place)
I0226 14:48:25.071322  8074 layer_factory.hpp:77] Creating layer conv0_2/scale
I0226 14:48:25.071432  8074 net.cpp:122] Setting up conv0_2/scale
I0226 14:48:25.071439  8074 net.cpp:129] Top shape: 1 128 37 50 (236800)
I0226 14:48:25.071441  8074 net.cpp:137] Memory required for data: 19830788
I0226 14:48:25.071447  8074 layer_factory.hpp:77] Creating layer relu0_2
I0226 14:48:25.071454  8074 net.cpp:84] Creating Layer relu0_2
I0226 14:48:25.071457  8074 net.cpp:406] relu0_2 <- conv0_2/bn
I0226 14:48:25.071461  8074 net.cpp:367] relu0_2 -> conv0_2/bn (in-place)
I0226 14:48:25.072443  8074 net.cpp:122] Setting up relu0_2
I0226 14:48:25.072456  8074 net.cpp:129] Top shape: 1 128 37 50 (236800)
I0226 14:48:25.072460  8074 net.cpp:137] Memory required for data: 20777988
I0226 14:48:25.072468  8074 layer_factory.hpp:77] Creating layer conv0_2
I0226 14:48:25.072477  8074 net.cpp:84] Creating Layer conv0_2
I0226 14:48:25.072481  8074 net.cpp:406] conv0_2 <- conv0_2/bn
I0226 14:48:25.072487  8074 net.cpp:380] conv0_2 -> conv0_2
I0226 14:48:25.075127  8074 net.cpp:122] Setting up conv0_2
I0226 14:48:25.075141  8074 net.cpp:129] Top shape: 1 32 37 50 (59200)
I0226 14:48:25.075145  8074 net.cpp:137] Memory required for data: 21014788
I0226 14:48:25.075151  8074 layer_factory.hpp:77] Creating layer concat0_2
I0226 14:48:25.075160  8074 net.cpp:84] Creating Layer concat0_2
I0226 14:48:25.075163  8074 net.cpp:406] concat0_2 <- concat0_1_concat0_1_0_split_1
I0226 14:48:25.075168  8074 net.cpp:406] concat0_2 <- conv0_2
I0226 14:48:25.075173  8074 net.cpp:380] concat0_2 -> concat0_2
I0226 14:48:25.075201  8074 net.cpp:122] Setting up concat0_2
I0226 14:48:25.075207  8074 net.cpp:129] Top shape: 1 160 37 50 (296000)
I0226 14:48:25.075211  8074 net.cpp:137] Memory required for data: 22198788
I0226 14:48:25.075214  8074 layer_factory.hpp:77] Creating layer concat0_2_concat0_2_0_split
I0226 14:48:25.075219  8074 net.cpp:84] Creating Layer concat0_2_concat0_2_0_split
I0226 14:48:25.075222  8074 net.cpp:406] concat0_2_concat0_2_0_split <- concat0_2
I0226 14:48:25.075227  8074 net.cpp:380] concat0_2_concat0_2_0_split -> concat0_2_concat0_2_0_split_0
I0226 14:48:25.075234  8074 net.cpp:380] concat0_2_concat0_2_0_split -> concat0_2_concat0_2_0_split_1
I0226 14:48:25.075268  8074 net.cpp:122] Setting up concat0_2_concat0_2_0_split
I0226 14:48:25.075273  8074 net.cpp:129] Top shape: 1 160 37 50 (296000)
I0226 14:48:25.075278  8074 net.cpp:129] Top shape: 1 160 37 50 (296000)
I0226 14:48:25.075280  8074 net.cpp:137] Memory required for data: 24566788
I0226 14:48:25.075284  8074 layer_factory.hpp:77] Creating layer conv0_3/bn
I0226 14:48:25.075289  8074 net.cpp:84] Creating Layer conv0_3/bn
I0226 14:48:25.075292  8074 net.cpp:406] conv0_3/bn <- concat0_2_concat0_2_0_split_0
I0226 14:48:25.075297  8074 net.cpp:380] conv0_3/bn -> conv0_3/bn
I0226 14:48:25.075506  8074 net.cpp:122] Setting up conv0_3/bn
I0226 14:48:25.075512  8074 net.cpp:129] Top shape: 1 160 37 50 (296000)
I0226 14:48:25.075515  8074 net.cpp:137] Memory required for data: 25750788
I0226 14:48:25.075523  8074 layer_factory.hpp:77] Creating layer conv0_3/scale
I0226 14:48:25.075529  8074 net.cpp:84] Creating Layer conv0_3/scale
I0226 14:48:25.075533  8074 net.cpp:406] conv0_3/scale <- conv0_3/bn
I0226 14:48:25.075538  8074 net.cpp:367] conv0_3/scale -> conv0_3/bn (in-place)
I0226 14:48:25.075574  8074 layer_factory.hpp:77] Creating layer conv0_3/scale
I0226 14:48:25.075692  8074 net.cpp:122] Setting up conv0_3/scale
I0226 14:48:25.075698  8074 net.cpp:129] Top shape: 1 160 37 50 (296000)
I0226 14:48:25.075701  8074 net.cpp:137] Memory required for data: 26934788
I0226 14:48:25.075707  8074 layer_factory.hpp:77] Creating layer relu0_3
I0226 14:48:25.075713  8074 net.cpp:84] Creating Layer relu0_3
I0226 14:48:25.075716  8074 net.cpp:406] relu0_3 <- conv0_3/bn
I0226 14:48:25.075721  8074 net.cpp:367] relu0_3 -> conv0_3/bn (in-place)
I0226 14:48:25.075917  8074 net.cpp:122] Setting up relu0_3
I0226 14:48:25.075927  8074 net.cpp:129] Top shape: 1 160 37 50 (296000)
I0226 14:48:25.075929  8074 net.cpp:137] Memory required for data: 28118788
I0226 14:48:25.075932  8074 layer_factory.hpp:77] Creating layer conv0_3
I0226 14:48:25.075942  8074 net.cpp:84] Creating Layer conv0_3
I0226 14:48:25.075945  8074 net.cpp:406] conv0_3 <- conv0_3/bn
I0226 14:48:25.075951  8074 net.cpp:380] conv0_3 -> conv0_3
I0226 14:48:25.079664  8074 net.cpp:122] Setting up conv0_3
I0226 14:48:25.079679  8074 net.cpp:129] Top shape: 1 32 37 50 (59200)
I0226 14:48:25.079682  8074 net.cpp:137] Memory required for data: 28355588
I0226 14:48:25.079689  8074 layer_factory.hpp:77] Creating layer concat0_3
I0226 14:48:25.079695  8074 net.cpp:84] Creating Layer concat0_3
I0226 14:48:25.079700  8074 net.cpp:406] concat0_3 <- concat0_2_concat0_2_0_split_1
I0226 14:48:25.079705  8074 net.cpp:406] concat0_3 <- conv0_3
I0226 14:48:25.079713  8074 net.cpp:380] concat0_3 -> concat0_3
I0226 14:48:25.079747  8074 net.cpp:122] Setting up concat0_3
I0226 14:48:25.079753  8074 net.cpp:129] Top shape: 1 192 37 50 (355200)
I0226 14:48:25.079756  8074 net.cpp:137] Memory required for data: 29776388
I0226 14:48:25.079759  8074 layer_factory.hpp:77] Creating layer concat0_3_concat0_3_0_split
I0226 14:48:25.079764  8074 net.cpp:84] Creating Layer concat0_3_concat0_3_0_split
I0226 14:48:25.079768  8074 net.cpp:406] concat0_3_concat0_3_0_split <- concat0_3
I0226 14:48:25.079773  8074 net.cpp:380] concat0_3_concat0_3_0_split -> concat0_3_concat0_3_0_split_0
I0226 14:48:25.079779  8074 net.cpp:380] concat0_3_concat0_3_0_split -> concat0_3_concat0_3_0_split_1
I0226 14:48:25.079814  8074 net.cpp:122] Setting up concat0_3_concat0_3_0_split
I0226 14:48:25.079819  8074 net.cpp:129] Top shape: 1 192 37 50 (355200)
I0226 14:48:25.079823  8074 net.cpp:129] Top shape: 1 192 37 50 (355200)
I0226 14:48:25.079826  8074 net.cpp:137] Memory required for data: 32617988
I0226 14:48:25.079829  8074 layer_factory.hpp:77] Creating layer conv0_4/bn
I0226 14:48:25.079836  8074 net.cpp:84] Creating Layer conv0_4/bn
I0226 14:48:25.079840  8074 net.cpp:406] conv0_4/bn <- concat0_3_concat0_3_0_split_0
I0226 14:48:25.079845  8074 net.cpp:380] conv0_4/bn -> conv0_4/bn
I0226 14:48:25.080050  8074 net.cpp:122] Setting up conv0_4/bn
I0226 14:48:25.080057  8074 net.cpp:129] Top shape: 1 192 37 50 (355200)
I0226 14:48:25.080060  8074 net.cpp:137] Memory required for data: 34038788
I0226 14:48:25.080070  8074 layer_factory.hpp:77] Creating layer conv0_4/scale
I0226 14:48:25.080077  8074 net.cpp:84] Creating Layer conv0_4/scale
I0226 14:48:25.080081  8074 net.cpp:406] conv0_4/scale <- conv0_4/bn
I0226 14:48:25.080086  8074 net.cpp:367] conv0_4/scale -> conv0_4/bn (in-place)
I0226 14:48:25.080123  8074 layer_factory.hpp:77] Creating layer conv0_4/scale
I0226 14:48:25.080242  8074 net.cpp:122] Setting up conv0_4/scale
I0226 14:48:25.080248  8074 net.cpp:129] Top shape: 1 192 37 50 (355200)
I0226 14:48:25.080252  8074 net.cpp:137] Memory required for data: 35459588
I0226 14:48:25.080257  8074 layer_factory.hpp:77] Creating layer relu0_4
I0226 14:48:25.080263  8074 net.cpp:84] Creating Layer relu0_4
I0226 14:48:25.080267  8074 net.cpp:406] relu0_4 <- conv0_4/bn
I0226 14:48:25.080271  8074 net.cpp:367] relu0_4 -> conv0_4/bn (in-place)
I0226 14:48:25.080476  8074 net.cpp:122] Setting up relu0_4
I0226 14:48:25.080484  8074 net.cpp:129] Top shape: 1 192 37 50 (355200)
I0226 14:48:25.080487  8074 net.cpp:137] Memory required for data: 36880388
I0226 14:48:25.080492  8074 layer_factory.hpp:77] Creating layer conv0_4
I0226 14:48:25.080502  8074 net.cpp:84] Creating Layer conv0_4
I0226 14:48:25.080505  8074 net.cpp:406] conv0_4 <- conv0_4/bn
I0226 14:48:25.080510  8074 net.cpp:380] conv0_4 -> conv0_4
I0226 14:48:25.084507  8074 net.cpp:122] Setting up conv0_4
I0226 14:48:25.084522  8074 net.cpp:129] Top shape: 1 32 37 50 (59200)
I0226 14:48:25.084527  8074 net.cpp:137] Memory required for data: 37117188
I0226 14:48:25.084532  8074 layer_factory.hpp:77] Creating layer concat0_4
I0226 14:48:25.084539  8074 net.cpp:84] Creating Layer concat0_4
I0226 14:48:25.084544  8074 net.cpp:406] concat0_4 <- concat0_3_concat0_3_0_split_1
I0226 14:48:25.084549  8074 net.cpp:406] concat0_4 <- conv0_4
I0226 14:48:25.084554  8074 net.cpp:380] concat0_4 -> concat0_4
I0226 14:48:25.084587  8074 net.cpp:122] Setting up concat0_4
I0226 14:48:25.084594  8074 net.cpp:129] Top shape: 1 224 37 50 (414400)
I0226 14:48:25.084597  8074 net.cpp:137] Memory required for data: 38774788
I0226 14:48:25.084600  8074 layer_factory.hpp:77] Creating layer concat0_4_concat0_4_0_split
I0226 14:48:25.084605  8074 net.cpp:84] Creating Layer concat0_4_concat0_4_0_split
I0226 14:48:25.084609  8074 net.cpp:406] concat0_4_concat0_4_0_split <- concat0_4
I0226 14:48:25.084614  8074 net.cpp:380] concat0_4_concat0_4_0_split -> concat0_4_concat0_4_0_split_0
I0226 14:48:25.084621  8074 net.cpp:380] concat0_4_concat0_4_0_split -> concat0_4_concat0_4_0_split_1
I0226 14:48:25.084671  8074 net.cpp:122] Setting up concat0_4_concat0_4_0_split
I0226 14:48:25.084677  8074 net.cpp:129] Top shape: 1 224 37 50 (414400)
I0226 14:48:25.084681  8074 net.cpp:129] Top shape: 1 224 37 50 (414400)
I0226 14:48:25.084684  8074 net.cpp:137] Memory required for data: 42089988
I0226 14:48:25.084687  8074 layer_factory.hpp:77] Creating layer conv0_5/bn
I0226 14:48:25.084694  8074 net.cpp:84] Creating Layer conv0_5/bn
I0226 14:48:25.084698  8074 net.cpp:406] conv0_5/bn <- concat0_4_concat0_4_0_split_0
I0226 14:48:25.084703  8074 net.cpp:380] conv0_5/bn -> conv0_5/bn
I0226 14:48:25.084915  8074 net.cpp:122] Setting up conv0_5/bn
I0226 14:48:25.084923  8074 net.cpp:129] Top shape: 1 224 37 50 (414400)
I0226 14:48:25.084925  8074 net.cpp:137] Memory required for data: 43747588
I0226 14:48:25.084933  8074 layer_factory.hpp:77] Creating layer conv0_5/scale
I0226 14:48:25.084940  8074 net.cpp:84] Creating Layer conv0_5/scale
I0226 14:48:25.084944  8074 net.cpp:406] conv0_5/scale <- conv0_5/bn
I0226 14:48:25.084949  8074 net.cpp:367] conv0_5/scale -> conv0_5/bn (in-place)
I0226 14:48:25.084986  8074 layer_factory.hpp:77] Creating layer conv0_5/scale
I0226 14:48:25.085108  8074 net.cpp:122] Setting up conv0_5/scale
I0226 14:48:25.085114  8074 net.cpp:129] Top shape: 1 224 37 50 (414400)
I0226 14:48:25.085117  8074 net.cpp:137] Memory required for data: 45405188
I0226 14:48:25.085124  8074 layer_factory.hpp:77] Creating layer relu0_5
I0226 14:48:25.085129  8074 net.cpp:84] Creating Layer relu0_5
I0226 14:48:25.085132  8074 net.cpp:406] relu0_5 <- conv0_5/bn
I0226 14:48:25.085137  8074 net.cpp:367] relu0_5 -> conv0_5/bn (in-place)
I0226 14:48:25.086114  8074 net.cpp:122] Setting up relu0_5
I0226 14:48:25.086127  8074 net.cpp:129] Top shape: 1 224 37 50 (414400)
I0226 14:48:25.086132  8074 net.cpp:137] Memory required for data: 47062788
I0226 14:48:25.086135  8074 layer_factory.hpp:77] Creating layer conv0_5
I0226 14:48:25.086145  8074 net.cpp:84] Creating Layer conv0_5
I0226 14:48:25.086149  8074 net.cpp:406] conv0_5 <- conv0_5/bn
I0226 14:48:25.086156  8074 net.cpp:380] conv0_5 -> conv0_5
I0226 14:48:25.090452  8074 net.cpp:122] Setting up conv0_5
I0226 14:48:25.090466  8074 net.cpp:129] Top shape: 1 32 37 50 (59200)
I0226 14:48:25.090471  8074 net.cpp:137] Memory required for data: 47299588
I0226 14:48:25.090477  8074 layer_factory.hpp:77] Creating layer concat0_5
I0226 14:48:25.090484  8074 net.cpp:84] Creating Layer concat0_5
I0226 14:48:25.090490  8074 net.cpp:406] concat0_5 <- concat0_4_concat0_4_0_split_1
I0226 14:48:25.090495  8074 net.cpp:406] concat0_5 <- conv0_5
I0226 14:48:25.090500  8074 net.cpp:380] concat0_5 -> concat0_5
I0226 14:48:25.090534  8074 net.cpp:122] Setting up concat0_5
I0226 14:48:25.090540  8074 net.cpp:129] Top shape: 1 256 37 50 (473600)
I0226 14:48:25.090543  8074 net.cpp:137] Memory required for data: 49193988
I0226 14:48:25.090546  8074 layer_factory.hpp:77] Creating layer BatchNorm1
I0226 14:48:25.090553  8074 net.cpp:84] Creating Layer BatchNorm1
I0226 14:48:25.090557  8074 net.cpp:406] BatchNorm1 <- concat0_5
I0226 14:48:25.090562  8074 net.cpp:380] BatchNorm1 -> BatchNorm1
I0226 14:48:25.090772  8074 net.cpp:122] Setting up BatchNorm1
I0226 14:48:25.090778  8074 net.cpp:129] Top shape: 1 256 37 50 (473600)
I0226 14:48:25.090781  8074 net.cpp:137] Memory required for data: 51088388
I0226 14:48:25.090790  8074 layer_factory.hpp:77] Creating layer Scale1
I0226 14:48:25.090796  8074 net.cpp:84] Creating Layer Scale1
I0226 14:48:25.090801  8074 net.cpp:406] Scale1 <- BatchNorm1
I0226 14:48:25.090806  8074 net.cpp:367] Scale1 -> BatchNorm1 (in-place)
I0226 14:48:25.090843  8074 layer_factory.hpp:77] Creating layer Scale1
I0226 14:48:25.090956  8074 net.cpp:122] Setting up Scale1
I0226 14:48:25.090962  8074 net.cpp:129] Top shape: 1 256 37 50 (473600)
I0226 14:48:25.090966  8074 net.cpp:137] Memory required for data: 52982788
I0226 14:48:25.090971  8074 layer_factory.hpp:77] Creating layer ReLU1
I0226 14:48:25.090977  8074 net.cpp:84] Creating Layer ReLU1
I0226 14:48:25.090984  8074 net.cpp:406] ReLU1 <- BatchNorm1
I0226 14:48:25.090989  8074 net.cpp:367] ReLU1 -> BatchNorm1 (in-place)
I0226 14:48:25.091192  8074 net.cpp:122] Setting up ReLU1
I0226 14:48:25.091200  8074 net.cpp:129] Top shape: 1 256 37 50 (473600)
I0226 14:48:25.091203  8074 net.cpp:137] Memory required for data: 54877188
I0226 14:48:25.091207  8074 layer_factory.hpp:77] Creating layer conv0_blk
I0226 14:48:25.091217  8074 net.cpp:84] Creating Layer conv0_blk
I0226 14:48:25.091222  8074 net.cpp:406] conv0_blk <- BatchNorm1
I0226 14:48:25.091228  8074 net.cpp:380] conv0_blk -> conv0_blk
I0226 14:48:25.093796  8074 net.cpp:122] Setting up conv0_blk
I0226 14:48:25.093811  8074 net.cpp:129] Top shape: 1 128 37 50 (236800)
I0226 14:48:25.093814  8074 net.cpp:137] Memory required for data: 55824388
I0226 14:48:25.093821  8074 layer_factory.hpp:77] Creating layer pool0
I0226 14:48:25.093828  8074 net.cpp:84] Creating Layer pool0
I0226 14:48:25.093832  8074 net.cpp:406] pool0 <- conv0_blk
I0226 14:48:25.093838  8074 net.cpp:380] pool0 -> pool0
I0226 14:48:25.094061  8074 net.cpp:122] Setting up pool0
I0226 14:48:25.094069  8074 net.cpp:129] Top shape: 1 128 19 25 (60800)
I0226 14:48:25.094074  8074 net.cpp:137] Memory required for data: 56067588
I0226 14:48:25.094076  8074 layer_factory.hpp:77] Creating layer pool0_pool0_0_split
I0226 14:48:25.094082  8074 net.cpp:84] Creating Layer pool0_pool0_0_split
I0226 14:48:25.094086  8074 net.cpp:406] pool0_pool0_0_split <- pool0
I0226 14:48:25.094092  8074 net.cpp:380] pool0_pool0_0_split -> pool0_pool0_0_split_0
I0226 14:48:25.094099  8074 net.cpp:380] pool0_pool0_0_split -> pool0_pool0_0_split_1
I0226 14:48:25.094136  8074 net.cpp:122] Setting up pool0_pool0_0_split
I0226 14:48:25.094142  8074 net.cpp:129] Top shape: 1 128 19 25 (60800)
I0226 14:48:25.094146  8074 net.cpp:129] Top shape: 1 128 19 25 (60800)
I0226 14:48:25.094149  8074 net.cpp:137] Memory required for data: 56553988
I0226 14:48:25.094152  8074 layer_factory.hpp:77] Creating layer conv1_0/bn
I0226 14:48:25.094158  8074 net.cpp:84] Creating Layer conv1_0/bn
I0226 14:48:25.094162  8074 net.cpp:406] conv1_0/bn <- pool0_pool0_0_split_0
I0226 14:48:25.094167  8074 net.cpp:380] conv1_0/bn -> conv1_0/bn
I0226 14:48:25.094374  8074 net.cpp:122] Setting up conv1_0/bn
I0226 14:48:25.094380  8074 net.cpp:129] Top shape: 1 128 19 25 (60800)
I0226 14:48:25.094383  8074 net.cpp:137] Memory required for data: 56797188
I0226 14:48:25.094391  8074 layer_factory.hpp:77] Creating layer conv1_0/scale
I0226 14:48:25.094398  8074 net.cpp:84] Creating Layer conv1_0/scale
I0226 14:48:25.094403  8074 net.cpp:406] conv1_0/scale <- conv1_0/bn
I0226 14:48:25.094408  8074 net.cpp:367] conv1_0/scale -> conv1_0/bn (in-place)
I0226 14:48:25.094445  8074 layer_factory.hpp:77] Creating layer conv1_0/scale
I0226 14:48:25.094559  8074 net.cpp:122] Setting up conv1_0/scale
I0226 14:48:25.094565  8074 net.cpp:129] Top shape: 1 128 19 25 (60800)
I0226 14:48:25.094568  8074 net.cpp:137] Memory required for data: 57040388
I0226 14:48:25.094574  8074 layer_factory.hpp:77] Creating layer relu1_0
I0226 14:48:25.094580  8074 net.cpp:84] Creating Layer relu1_0
I0226 14:48:25.094583  8074 net.cpp:406] relu1_0 <- conv1_0/bn
I0226 14:48:25.094588  8074 net.cpp:367] relu1_0 -> conv1_0/bn (in-place)
I0226 14:48:25.094781  8074 net.cpp:122] Setting up relu1_0
I0226 14:48:25.094789  8074 net.cpp:129] Top shape: 1 128 19 25 (60800)
I0226 14:48:25.094792  8074 net.cpp:137] Memory required for data: 57283588
I0226 14:48:25.094796  8074 layer_factory.hpp:77] Creating layer conv1_0
I0226 14:48:25.094805  8074 net.cpp:84] Creating Layer conv1_0
I0226 14:48:25.094810  8074 net.cpp:406] conv1_0 <- conv1_0/bn
I0226 14:48:25.094815  8074 net.cpp:380] conv1_0 -> conv1_0
I0226 14:48:25.098778  8074 net.cpp:122] Setting up conv1_0
I0226 14:48:25.098793  8074 net.cpp:129] Top shape: 1 32 19 25 (15200)
I0226 14:48:25.098796  8074 net.cpp:137] Memory required for data: 57344388
I0226 14:48:25.098803  8074 layer_factory.hpp:77] Creating layer concat1_0
I0226 14:48:25.098810  8074 net.cpp:84] Creating Layer concat1_0
I0226 14:48:25.098817  8074 net.cpp:406] concat1_0 <- pool0_pool0_0_split_1
I0226 14:48:25.098824  8074 net.cpp:406] concat1_0 <- conv1_0
I0226 14:48:25.098829  8074 net.cpp:380] concat1_0 -> concat1_0
I0226 14:48:25.098860  8074 net.cpp:122] Setting up concat1_0
I0226 14:48:25.098865  8074 net.cpp:129] Top shape: 1 160 19 25 (76000)
I0226 14:48:25.098868  8074 net.cpp:137] Memory required for data: 57648388
I0226 14:48:25.098872  8074 layer_factory.hpp:77] Creating layer concat1_0_concat1_0_0_split
I0226 14:48:25.098877  8074 net.cpp:84] Creating Layer concat1_0_concat1_0_0_split
I0226 14:48:25.098881  8074 net.cpp:406] concat1_0_concat1_0_0_split <- concat1_0
I0226 14:48:25.098886  8074 net.cpp:380] concat1_0_concat1_0_0_split -> concat1_0_concat1_0_0_split_0
I0226 14:48:25.098892  8074 net.cpp:380] concat1_0_concat1_0_0_split -> concat1_0_concat1_0_0_split_1
I0226 14:48:25.098929  8074 net.cpp:122] Setting up concat1_0_concat1_0_0_split
I0226 14:48:25.098934  8074 net.cpp:129] Top shape: 1 160 19 25 (76000)
I0226 14:48:25.098938  8074 net.cpp:129] Top shape: 1 160 19 25 (76000)
I0226 14:48:25.098942  8074 net.cpp:137] Memory required for data: 58256388
I0226 14:48:25.098944  8074 layer_factory.hpp:77] Creating layer conv1_1/bn
I0226 14:48:25.098950  8074 net.cpp:84] Creating Layer conv1_1/bn
I0226 14:48:25.098954  8074 net.cpp:406] conv1_1/bn <- concat1_0_concat1_0_0_split_0
I0226 14:48:25.098959  8074 net.cpp:380] conv1_1/bn -> conv1_1/bn
I0226 14:48:25.099177  8074 net.cpp:122] Setting up conv1_1/bn
I0226 14:48:25.099184  8074 net.cpp:129] Top shape: 1 160 19 25 (76000)
I0226 14:48:25.099186  8074 net.cpp:137] Memory required for data: 58560388
I0226 14:48:25.099195  8074 layer_factory.hpp:77] Creating layer conv1_1/scale
I0226 14:48:25.099201  8074 net.cpp:84] Creating Layer conv1_1/scale
I0226 14:48:25.099205  8074 net.cpp:406] conv1_1/scale <- conv1_1/bn
I0226 14:48:25.099210  8074 net.cpp:367] conv1_1/scale -> conv1_1/bn (in-place)
I0226 14:48:25.099251  8074 layer_factory.hpp:77] Creating layer conv1_1/scale
I0226 14:48:25.099370  8074 net.cpp:122] Setting up conv1_1/scale
I0226 14:48:25.099377  8074 net.cpp:129] Top shape: 1 160 19 25 (76000)
I0226 14:48:25.099380  8074 net.cpp:137] Memory required for data: 58864388
I0226 14:48:25.099386  8074 layer_factory.hpp:77] Creating layer relu1_1
I0226 14:48:25.099392  8074 net.cpp:84] Creating Layer relu1_1
I0226 14:48:25.099395  8074 net.cpp:406] relu1_1 <- conv1_1/bn
I0226 14:48:25.099400  8074 net.cpp:367] relu1_1 -> conv1_1/bn (in-place)
I0226 14:48:25.100379  8074 net.cpp:122] Setting up relu1_1
I0226 14:48:25.100392  8074 net.cpp:129] Top shape: 1 160 19 25 (76000)
I0226 14:48:25.100395  8074 net.cpp:137] Memory required for data: 59168388
I0226 14:48:25.100399  8074 layer_factory.hpp:77] Creating layer conv1_1
I0226 14:48:25.100410  8074 net.cpp:84] Creating Layer conv1_1
I0226 14:48:25.100414  8074 net.cpp:406] conv1_1 <- conv1_1/bn
I0226 14:48:25.100421  8074 net.cpp:380] conv1_1 -> conv1_1
I0226 14:48:25.103339  8074 net.cpp:122] Setting up conv1_1
I0226 14:48:25.103353  8074 net.cpp:129] Top shape: 1 32 19 25 (15200)
I0226 14:48:25.103358  8074 net.cpp:137] Memory required for data: 59229188
I0226 14:48:25.103363  8074 layer_factory.hpp:77] Creating layer concat1_1
I0226 14:48:25.103370  8074 net.cpp:84] Creating Layer concat1_1
I0226 14:48:25.103374  8074 net.cpp:406] concat1_1 <- concat1_0_concat1_0_0_split_1
I0226 14:48:25.103380  8074 net.cpp:406] concat1_1 <- conv1_1
I0226 14:48:25.103385  8074 net.cpp:380] concat1_1 -> concat1_1
I0226 14:48:25.103415  8074 net.cpp:122] Setting up concat1_1
I0226 14:48:25.103421  8074 net.cpp:129] Top shape: 1 192 19 25 (91200)
I0226 14:48:25.103425  8074 net.cpp:137] Memory required for data: 59593988
I0226 14:48:25.103427  8074 layer_factory.hpp:77] Creating layer concat1_1_concat1_1_0_split
I0226 14:48:25.103433  8074 net.cpp:84] Creating Layer concat1_1_concat1_1_0_split
I0226 14:48:25.103436  8074 net.cpp:406] concat1_1_concat1_1_0_split <- concat1_1
I0226 14:48:25.103441  8074 net.cpp:380] concat1_1_concat1_1_0_split -> concat1_1_concat1_1_0_split_0
I0226 14:48:25.103451  8074 net.cpp:380] concat1_1_concat1_1_0_split -> concat1_1_concat1_1_0_split_1
I0226 14:48:25.103488  8074 net.cpp:122] Setting up concat1_1_concat1_1_0_split
I0226 14:48:25.103493  8074 net.cpp:129] Top shape: 1 192 19 25 (91200)
I0226 14:48:25.103497  8074 net.cpp:129] Top shape: 1 192 19 25 (91200)
I0226 14:48:25.103500  8074 net.cpp:137] Memory required for data: 60323588
I0226 14:48:25.103503  8074 layer_factory.hpp:77] Creating layer conv1_2/bn
I0226 14:48:25.103510  8074 net.cpp:84] Creating Layer conv1_2/bn
I0226 14:48:25.103513  8074 net.cpp:406] conv1_2/bn <- concat1_1_concat1_1_0_split_0
I0226 14:48:25.103519  8074 net.cpp:380] conv1_2/bn -> conv1_2/bn
I0226 14:48:25.103737  8074 net.cpp:122] Setting up conv1_2/bn
I0226 14:48:25.103744  8074 net.cpp:129] Top shape: 1 192 19 25 (91200)
I0226 14:48:25.103746  8074 net.cpp:137] Memory required for data: 60688388
I0226 14:48:25.103754  8074 layer_factory.hpp:77] Creating layer conv1_2/scale
I0226 14:48:25.103760  8074 net.cpp:84] Creating Layer conv1_2/scale
I0226 14:48:25.103765  8074 net.cpp:406] conv1_2/scale <- conv1_2/bn
I0226 14:48:25.103770  8074 net.cpp:367] conv1_2/scale -> conv1_2/bn (in-place)
I0226 14:48:25.103808  8074 layer_factory.hpp:77] Creating layer conv1_2/scale
I0226 14:48:25.103929  8074 net.cpp:122] Setting up conv1_2/scale
I0226 14:48:25.103935  8074 net.cpp:129] Top shape: 1 192 19 25 (91200)
I0226 14:48:25.103938  8074 net.cpp:137] Memory required for data: 61053188
I0226 14:48:25.103950  8074 layer_factory.hpp:77] Creating layer relu1_2
I0226 14:48:25.103955  8074 net.cpp:84] Creating Layer relu1_2
I0226 14:48:25.103960  8074 net.cpp:406] relu1_2 <- conv1_2/bn
I0226 14:48:25.103963  8074 net.cpp:367] relu1_2 -> conv1_2/bn (in-place)
I0226 14:48:25.104163  8074 net.cpp:122] Setting up relu1_2
I0226 14:48:25.104171  8074 net.cpp:129] Top shape: 1 192 19 25 (91200)
I0226 14:48:25.104176  8074 net.cpp:137] Memory required for data: 61417988
I0226 14:48:25.104178  8074 layer_factory.hpp:77] Creating layer conv1_2
I0226 14:48:25.104190  8074 net.cpp:84] Creating Layer conv1_2
I0226 14:48:25.104194  8074 net.cpp:406] conv1_2 <- conv1_2/bn
I0226 14:48:25.104200  8074 net.cpp:380] conv1_2 -> conv1_2
I0226 14:48:25.108209  8074 net.cpp:122] Setting up conv1_2
I0226 14:48:25.108223  8074 net.cpp:129] Top shape: 1 32 19 25 (15200)
I0226 14:48:25.108227  8074 net.cpp:137] Memory required for data: 61478788
I0226 14:48:25.108235  8074 layer_factory.hpp:77] Creating layer concat1_2
I0226 14:48:25.108242  8074 net.cpp:84] Creating Layer concat1_2
I0226 14:48:25.108247  8074 net.cpp:406] concat1_2 <- concat1_1_concat1_1_0_split_1
I0226 14:48:25.108253  8074 net.cpp:406] concat1_2 <- conv1_2
I0226 14:48:25.108258  8074 net.cpp:380] concat1_2 -> concat1_2
I0226 14:48:25.108291  8074 net.cpp:122] Setting up concat1_2
I0226 14:48:25.108297  8074 net.cpp:129] Top shape: 1 224 19 25 (106400)
I0226 14:48:25.108300  8074 net.cpp:137] Memory required for data: 61904388
I0226 14:48:25.108304  8074 layer_factory.hpp:77] Creating layer concat1_2_concat1_2_0_split
I0226 14:48:25.108309  8074 net.cpp:84] Creating Layer concat1_2_concat1_2_0_split
I0226 14:48:25.108314  8074 net.cpp:406] concat1_2_concat1_2_0_split <- concat1_2
I0226 14:48:25.108319  8074 net.cpp:380] concat1_2_concat1_2_0_split -> concat1_2_concat1_2_0_split_0
I0226 14:48:25.108325  8074 net.cpp:380] concat1_2_concat1_2_0_split -> concat1_2_concat1_2_0_split_1
I0226 14:48:25.108362  8074 net.cpp:122] Setting up concat1_2_concat1_2_0_split
I0226 14:48:25.108367  8074 net.cpp:129] Top shape: 1 224 19 25 (106400)
I0226 14:48:25.108371  8074 net.cpp:129] Top shape: 1 224 19 25 (106400)
I0226 14:48:25.108374  8074 net.cpp:137] Memory required for data: 62755588
I0226 14:48:25.108377  8074 layer_factory.hpp:77] Creating layer conv1_3/bn
I0226 14:48:25.108383  8074 net.cpp:84] Creating Layer conv1_3/bn
I0226 14:48:25.108387  8074 net.cpp:406] conv1_3/bn <- concat1_2_concat1_2_0_split_0
I0226 14:48:25.108392  8074 net.cpp:380] conv1_3/bn -> conv1_3/bn
I0226 14:48:25.108618  8074 net.cpp:122] Setting up conv1_3/bn
I0226 14:48:25.108625  8074 net.cpp:129] Top shape: 1 224 19 25 (106400)
I0226 14:48:25.108635  8074 net.cpp:137] Memory required for data: 63181188
I0226 14:48:25.108642  8074 layer_factory.hpp:77] Creating layer conv1_3/scale
I0226 14:48:25.108649  8074 net.cpp:84] Creating Layer conv1_3/scale
I0226 14:48:25.108654  8074 net.cpp:406] conv1_3/scale <- conv1_3/bn
I0226 14:48:25.108669  8074 net.cpp:367] conv1_3/scale -> conv1_3/bn (in-place)
I0226 14:48:25.108708  8074 layer_factory.hpp:77] Creating layer conv1_3/scale
I0226 14:48:25.108830  8074 net.cpp:122] Setting up conv1_3/scale
I0226 14:48:25.108836  8074 net.cpp:129] Top shape: 1 224 19 25 (106400)
I0226 14:48:25.108840  8074 net.cpp:137] Memory required for data: 63606788
I0226 14:48:25.108845  8074 layer_factory.hpp:77] Creating layer relu1_3
I0226 14:48:25.108851  8074 net.cpp:84] Creating Layer relu1_3
I0226 14:48:25.108855  8074 net.cpp:406] relu1_3 <- conv1_3/bn
I0226 14:48:25.108860  8074 net.cpp:367] relu1_3 -> conv1_3/bn (in-place)
I0226 14:48:25.109071  8074 net.cpp:122] Setting up relu1_3
I0226 14:48:25.109078  8074 net.cpp:129] Top shape: 1 224 19 25 (106400)
I0226 14:48:25.109082  8074 net.cpp:137] Memory required for data: 64032388
I0226 14:48:25.109086  8074 layer_factory.hpp:77] Creating layer conv1_3
I0226 14:48:25.109096  8074 net.cpp:84] Creating Layer conv1_3
I0226 14:48:25.109099  8074 net.cpp:406] conv1_3 <- conv1_3/bn
I0226 14:48:25.109105  8074 net.cpp:380] conv1_3 -> conv1_3
I0226 14:48:25.113409  8074 net.cpp:122] Setting up conv1_3
I0226 14:48:25.113422  8074 net.cpp:129] Top shape: 1 32 19 25 (15200)
I0226 14:48:25.113425  8074 net.cpp:137] Memory required for data: 64093188
I0226 14:48:25.113432  8074 layer_factory.hpp:77] Creating layer concat1_3
I0226 14:48:25.113440  8074 net.cpp:84] Creating Layer concat1_3
I0226 14:48:25.113445  8074 net.cpp:406] concat1_3 <- concat1_2_concat1_2_0_split_1
I0226 14:48:25.113450  8074 net.cpp:406] concat1_3 <- conv1_3
I0226 14:48:25.113456  8074 net.cpp:380] concat1_3 -> concat1_3
I0226 14:48:25.113490  8074 net.cpp:122] Setting up concat1_3
I0226 14:48:25.113497  8074 net.cpp:129] Top shape: 1 256 19 25 (121600)
I0226 14:48:25.113499  8074 net.cpp:137] Memory required for data: 64579588
I0226 14:48:25.113503  8074 layer_factory.hpp:77] Creating layer concat1_3_concat1_3_0_split
I0226 14:48:25.113508  8074 net.cpp:84] Creating Layer concat1_3_concat1_3_0_split
I0226 14:48:25.113512  8074 net.cpp:406] concat1_3_concat1_3_0_split <- concat1_3
I0226 14:48:25.113517  8074 net.cpp:380] concat1_3_concat1_3_0_split -> concat1_3_concat1_3_0_split_0
I0226 14:48:25.113524  8074 net.cpp:380] concat1_3_concat1_3_0_split -> concat1_3_concat1_3_0_split_1
I0226 14:48:25.113564  8074 net.cpp:122] Setting up concat1_3_concat1_3_0_split
I0226 14:48:25.113569  8074 net.cpp:129] Top shape: 1 256 19 25 (121600)
I0226 14:48:25.113574  8074 net.cpp:129] Top shape: 1 256 19 25 (121600)
I0226 14:48:25.113575  8074 net.cpp:137] Memory required for data: 65552388
I0226 14:48:25.113579  8074 layer_factory.hpp:77] Creating layer conv1_4/bn
I0226 14:48:25.113584  8074 net.cpp:84] Creating Layer conv1_4/bn
I0226 14:48:25.113589  8074 net.cpp:406] conv1_4/bn <- concat1_3_concat1_3_0_split_0
I0226 14:48:25.113595  8074 net.cpp:380] conv1_4/bn -> conv1_4/bn
I0226 14:48:25.113809  8074 net.cpp:122] Setting up conv1_4/bn
I0226 14:48:25.113816  8074 net.cpp:129] Top shape: 1 256 19 25 (121600)
I0226 14:48:25.113818  8074 net.cpp:137] Memory required for data: 66038788
I0226 14:48:25.113826  8074 layer_factory.hpp:77] Creating layer conv1_4/scale
I0226 14:48:25.113832  8074 net.cpp:84] Creating Layer conv1_4/scale
I0226 14:48:25.113837  8074 net.cpp:406] conv1_4/scale <- conv1_4/bn
I0226 14:48:25.113842  8074 net.cpp:367] conv1_4/scale -> conv1_4/bn (in-place)
I0226 14:48:25.113881  8074 layer_factory.hpp:77] Creating layer conv1_4/scale
I0226 14:48:25.114001  8074 net.cpp:122] Setting up conv1_4/scale
I0226 14:48:25.114007  8074 net.cpp:129] Top shape: 1 256 19 25 (121600)
I0226 14:48:25.114013  8074 net.cpp:137] Memory required for data: 66525188
I0226 14:48:25.114019  8074 layer_factory.hpp:77] Creating layer relu1_4
I0226 14:48:25.114027  8074 net.cpp:84] Creating Layer relu1_4
I0226 14:48:25.114030  8074 net.cpp:406] relu1_4 <- conv1_4/bn
I0226 14:48:25.114035  8074 net.cpp:367] relu1_4 -> conv1_4/bn (in-place)
I0226 14:48:25.115025  8074 net.cpp:122] Setting up relu1_4
I0226 14:48:25.115038  8074 net.cpp:129] Top shape: 1 256 19 25 (121600)
I0226 14:48:25.115041  8074 net.cpp:137] Memory required for data: 67011588
I0226 14:48:25.115046  8074 layer_factory.hpp:77] Creating layer conv1_4
I0226 14:48:25.115056  8074 net.cpp:84] Creating Layer conv1_4
I0226 14:48:25.115061  8074 net.cpp:406] conv1_4 <- conv1_4/bn
I0226 14:48:25.115067  8074 net.cpp:380] conv1_4 -> conv1_4
I0226 14:48:25.120990  8074 net.cpp:122] Setting up conv1_4
I0226 14:48:25.121004  8074 net.cpp:129] Top shape: 1 32 19 25 (15200)
I0226 14:48:25.121008  8074 net.cpp:137] Memory required for data: 67072388
I0226 14:48:25.121014  8074 layer_factory.hpp:77] Creating layer concat1_4
I0226 14:48:25.121024  8074 net.cpp:84] Creating Layer concat1_4
I0226 14:48:25.121028  8074 net.cpp:406] concat1_4 <- concat1_3_concat1_3_0_split_1
I0226 14:48:25.121034  8074 net.cpp:406] concat1_4 <- conv1_4
I0226 14:48:25.121039  8074 net.cpp:380] concat1_4 -> concat1_4
I0226 14:48:25.121083  8074 net.cpp:122] Setting up concat1_4
I0226 14:48:25.121090  8074 net.cpp:129] Top shape: 1 288 19 25 (136800)
I0226 14:48:25.121093  8074 net.cpp:137] Memory required for data: 67619588
I0226 14:48:25.121098  8074 layer_factory.hpp:77] Creating layer concat1_4_concat1_4_0_split
I0226 14:48:25.121103  8074 net.cpp:84] Creating Layer concat1_4_concat1_4_0_split
I0226 14:48:25.121106  8074 net.cpp:406] concat1_4_concat1_4_0_split <- concat1_4
I0226 14:48:25.121114  8074 net.cpp:380] concat1_4_concat1_4_0_split -> concat1_4_concat1_4_0_split_0
I0226 14:48:25.121119  8074 net.cpp:380] concat1_4_concat1_4_0_split -> concat1_4_concat1_4_0_split_1
I0226 14:48:25.121160  8074 net.cpp:122] Setting up concat1_4_concat1_4_0_split
I0226 14:48:25.121168  8074 net.cpp:129] Top shape: 1 288 19 25 (136800)
I0226 14:48:25.121172  8074 net.cpp:129] Top shape: 1 288 19 25 (136800)
I0226 14:48:25.121176  8074 net.cpp:137] Memory required for data: 68713988
I0226 14:48:25.121178  8074 layer_factory.hpp:77] Creating layer conv1_5/bn
I0226 14:48:25.121184  8074 net.cpp:84] Creating Layer conv1_5/bn
I0226 14:48:25.121187  8074 net.cpp:406] conv1_5/bn <- concat1_4_concat1_4_0_split_0
I0226 14:48:25.121194  8074 net.cpp:380] conv1_5/bn -> conv1_5/bn
I0226 14:48:25.121434  8074 net.cpp:122] Setting up conv1_5/bn
I0226 14:48:25.121441  8074 net.cpp:129] Top shape: 1 288 19 25 (136800)
I0226 14:48:25.121444  8074 net.cpp:137] Memory required for data: 69261188
I0226 14:48:25.121451  8074 layer_factory.hpp:77] Creating layer conv1_5/scale
I0226 14:48:25.121460  8074 net.cpp:84] Creating Layer conv1_5/scale
I0226 14:48:25.121464  8074 net.cpp:406] conv1_5/scale <- conv1_5/bn
I0226 14:48:25.121469  8074 net.cpp:367] conv1_5/scale -> conv1_5/bn (in-place)
I0226 14:48:25.121515  8074 layer_factory.hpp:77] Creating layer conv1_5/scale
I0226 14:48:25.121649  8074 net.cpp:122] Setting up conv1_5/scale
I0226 14:48:25.121656  8074 net.cpp:129] Top shape: 1 288 19 25 (136800)
I0226 14:48:25.121659  8074 net.cpp:137] Memory required for data: 69808388
I0226 14:48:25.121665  8074 layer_factory.hpp:77] Creating layer relu1_5
I0226 14:48:25.121670  8074 net.cpp:84] Creating Layer relu1_5
I0226 14:48:25.121675  8074 net.cpp:406] relu1_5 <- conv1_5/bn
I0226 14:48:25.121680  8074 net.cpp:367] relu1_5 -> conv1_5/bn (in-place)
I0226 14:48:25.121896  8074 net.cpp:122] Setting up relu1_5
I0226 14:48:25.121904  8074 net.cpp:129] Top shape: 1 288 19 25 (136800)
I0226 14:48:25.121908  8074 net.cpp:137] Memory required for data: 70355588
I0226 14:48:25.121912  8074 layer_factory.hpp:77] Creating layer conv1_5
I0226 14:48:25.121922  8074 net.cpp:84] Creating Layer conv1_5
I0226 14:48:25.121932  8074 net.cpp:406] conv1_5 <- conv1_5/bn
I0226 14:48:25.121937  8074 net.cpp:380] conv1_5 -> conv1_5
I0226 14:48:25.126818  8074 net.cpp:122] Setting up conv1_5
I0226 14:48:25.126837  8074 net.cpp:129] Top shape: 1 32 19 25 (15200)
I0226 14:48:25.126840  8074 net.cpp:137] Memory required for data: 70416388
I0226 14:48:25.126847  8074 layer_factory.hpp:77] Creating layer concat1_5
I0226 14:48:25.126854  8074 net.cpp:84] Creating Layer concat1_5
I0226 14:48:25.126858  8074 net.cpp:406] concat1_5 <- concat1_4_concat1_4_0_split_1
I0226 14:48:25.126863  8074 net.cpp:406] concat1_5 <- conv1_5
I0226 14:48:25.126869  8074 net.cpp:380] concat1_5 -> concat1_5
I0226 14:48:25.126905  8074 net.cpp:122] Setting up concat1_5
I0226 14:48:25.126911  8074 net.cpp:129] Top shape: 1 320 19 25 (152000)
I0226 14:48:25.126914  8074 net.cpp:137] Memory required for data: 71024388
I0226 14:48:25.126917  8074 layer_factory.hpp:77] Creating layer concat1_5_concat1_5_0_split
I0226 14:48:25.126922  8074 net.cpp:84] Creating Layer concat1_5_concat1_5_0_split
I0226 14:48:25.126929  8074 net.cpp:406] concat1_5_concat1_5_0_split <- concat1_5
I0226 14:48:25.126932  8074 net.cpp:380] concat1_5_concat1_5_0_split -> concat1_5_concat1_5_0_split_0
I0226 14:48:25.126938  8074 net.cpp:380] concat1_5_concat1_5_0_split -> concat1_5_concat1_5_0_split_1
I0226 14:48:25.126979  8074 net.cpp:122] Setting up concat1_5_concat1_5_0_split
I0226 14:48:25.126986  8074 net.cpp:129] Top shape: 1 320 19 25 (152000)
I0226 14:48:25.126989  8074 net.cpp:129] Top shape: 1 320 19 25 (152000)
I0226 14:48:25.126992  8074 net.cpp:137] Memory required for data: 72240388
I0226 14:48:25.126996  8074 layer_factory.hpp:77] Creating layer conv1_6/bn
I0226 14:48:25.127001  8074 net.cpp:84] Creating Layer conv1_6/bn
I0226 14:48:25.127004  8074 net.cpp:406] conv1_6/bn <- concat1_5_concat1_5_0_split_0
I0226 14:48:25.127010  8074 net.cpp:380] conv1_6/bn -> conv1_6/bn
I0226 14:48:25.127248  8074 net.cpp:122] Setting up conv1_6/bn
I0226 14:48:25.127254  8074 net.cpp:129] Top shape: 1 320 19 25 (152000)
I0226 14:48:25.127256  8074 net.cpp:137] Memory required for data: 72848388
I0226 14:48:25.127264  8074 layer_factory.hpp:77] Creating layer conv1_6/scale
I0226 14:48:25.127272  8074 net.cpp:84] Creating Layer conv1_6/scale
I0226 14:48:25.127276  8074 net.cpp:406] conv1_6/scale <- conv1_6/bn
I0226 14:48:25.127281  8074 net.cpp:367] conv1_6/scale -> conv1_6/bn (in-place)
I0226 14:48:25.127329  8074 layer_factory.hpp:77] Creating layer conv1_6/scale
I0226 14:48:25.127465  8074 net.cpp:122] Setting up conv1_6/scale
I0226 14:48:25.127471  8074 net.cpp:129] Top shape: 1 320 19 25 (152000)
I0226 14:48:25.127475  8074 net.cpp:137] Memory required for data: 73456388
I0226 14:48:25.127480  8074 layer_factory.hpp:77] Creating layer relu1_6
I0226 14:48:25.127485  8074 net.cpp:84] Creating Layer relu1_6
I0226 14:48:25.127491  8074 net.cpp:406] relu1_6 <- conv1_6/bn
I0226 14:48:25.127496  8074 net.cpp:367] relu1_6 -> conv1_6/bn (in-place)
I0226 14:48:25.127717  8074 net.cpp:122] Setting up relu1_6
I0226 14:48:25.127727  8074 net.cpp:129] Top shape: 1 320 19 25 (152000)
I0226 14:48:25.127729  8074 net.cpp:137] Memory required for data: 74064388
I0226 14:48:25.127732  8074 layer_factory.hpp:77] Creating layer conv1_6
I0226 14:48:25.127744  8074 net.cpp:84] Creating Layer conv1_6
I0226 14:48:25.127748  8074 net.cpp:406] conv1_6 <- conv1_6/bn
I0226 14:48:25.127754  8074 net.cpp:380] conv1_6 -> conv1_6
I0226 14:48:25.133769  8074 net.cpp:122] Setting up conv1_6
I0226 14:48:25.133785  8074 net.cpp:129] Top shape: 1 32 19 25 (15200)
I0226 14:48:25.133787  8074 net.cpp:137] Memory required for data: 74125188
I0226 14:48:25.133795  8074 layer_factory.hpp:77] Creating layer concat1_6
I0226 14:48:25.133801  8074 net.cpp:84] Creating Layer concat1_6
I0226 14:48:25.133806  8074 net.cpp:406] concat1_6 <- concat1_5_concat1_5_0_split_1
I0226 14:48:25.133811  8074 net.cpp:406] concat1_6 <- conv1_6
I0226 14:48:25.133818  8074 net.cpp:380] concat1_6 -> concat1_6
I0226 14:48:25.133853  8074 net.cpp:122] Setting up concat1_6
I0226 14:48:25.133862  8074 net.cpp:129] Top shape: 1 352 19 25 (167200)
I0226 14:48:25.133865  8074 net.cpp:137] Memory required for data: 74793988
I0226 14:48:25.133869  8074 layer_factory.hpp:77] Creating layer concat1_6_concat1_6_0_split
I0226 14:48:25.133877  8074 net.cpp:84] Creating Layer concat1_6_concat1_6_0_split
I0226 14:48:25.133880  8074 net.cpp:406] concat1_6_concat1_6_0_split <- concat1_6
I0226 14:48:25.133885  8074 net.cpp:380] concat1_6_concat1_6_0_split -> concat1_6_concat1_6_0_split_0
I0226 14:48:25.133891  8074 net.cpp:380] concat1_6_concat1_6_0_split -> concat1_6_concat1_6_0_split_1
I0226 14:48:25.133934  8074 net.cpp:122] Setting up concat1_6_concat1_6_0_split
I0226 14:48:25.133940  8074 net.cpp:129] Top shape: 1 352 19 25 (167200)
I0226 14:48:25.133944  8074 net.cpp:129] Top shape: 1 352 19 25 (167200)
I0226 14:48:25.133947  8074 net.cpp:137] Memory required for data: 76131588
I0226 14:48:25.133950  8074 layer_factory.hpp:77] Creating layer conv1_7/bn
I0226 14:48:25.133957  8074 net.cpp:84] Creating Layer conv1_7/bn
I0226 14:48:25.133961  8074 net.cpp:406] conv1_7/bn <- concat1_6_concat1_6_0_split_0
I0226 14:48:25.133965  8074 net.cpp:380] conv1_7/bn -> conv1_7/bn
I0226 14:48:25.134207  8074 net.cpp:122] Setting up conv1_7/bn
I0226 14:48:25.134212  8074 net.cpp:129] Top shape: 1 352 19 25 (167200)
I0226 14:48:25.134215  8074 net.cpp:137] Memory required for data: 76800388
I0226 14:48:25.134222  8074 layer_factory.hpp:77] Creating layer conv1_7/scale
I0226 14:48:25.134232  8074 net.cpp:84] Creating Layer conv1_7/scale
I0226 14:48:25.134235  8074 net.cpp:406] conv1_7/scale <- conv1_7/bn
I0226 14:48:25.134240  8074 net.cpp:367] conv1_7/scale -> conv1_7/bn (in-place)
I0226 14:48:25.134289  8074 layer_factory.hpp:77] Creating layer conv1_7/scale
I0226 14:48:25.134423  8074 net.cpp:122] Setting up conv1_7/scale
I0226 14:48:25.134429  8074 net.cpp:129] Top shape: 1 352 19 25 (167200)
I0226 14:48:25.134431  8074 net.cpp:137] Memory required for data: 77469188
I0226 14:48:25.134438  8074 layer_factory.hpp:77] Creating layer relu1_7
I0226 14:48:25.134449  8074 net.cpp:84] Creating Layer relu1_7
I0226 14:48:25.134452  8074 net.cpp:406] relu1_7 <- conv1_7/bn
I0226 14:48:25.134456  8074 net.cpp:367] relu1_7 -> conv1_7/bn (in-place)
I0226 14:48:25.135458  8074 net.cpp:122] Setting up relu1_7
I0226 14:48:25.135471  8074 net.cpp:129] Top shape: 1 352 19 25 (167200)
I0226 14:48:25.135474  8074 net.cpp:137] Memory required for data: 78137988
I0226 14:48:25.135478  8074 layer_factory.hpp:77] Creating layer conv1_7
I0226 14:48:25.135491  8074 net.cpp:84] Creating Layer conv1_7
I0226 14:48:25.135495  8074 net.cpp:406] conv1_7 <- conv1_7/bn
I0226 14:48:25.135502  8074 net.cpp:380] conv1_7 -> conv1_7
I0226 14:48:25.140909  8074 net.cpp:122] Setting up conv1_7
I0226 14:48:25.140923  8074 net.cpp:129] Top shape: 1 32 19 25 (15200)
I0226 14:48:25.140928  8074 net.cpp:137] Memory required for data: 78198788
I0226 14:48:25.140933  8074 layer_factory.hpp:77] Creating layer concat1_7
I0226 14:48:25.140941  8074 net.cpp:84] Creating Layer concat1_7
I0226 14:48:25.140945  8074 net.cpp:406] concat1_7 <- concat1_6_concat1_6_0_split_1
I0226 14:48:25.140950  8074 net.cpp:406] concat1_7 <- conv1_7
I0226 14:48:25.140959  8074 net.cpp:380] concat1_7 -> concat1_7
I0226 14:48:25.140993  8074 net.cpp:122] Setting up concat1_7
I0226 14:48:25.141001  8074 net.cpp:129] Top shape: 1 384 19 25 (182400)
I0226 14:48:25.141005  8074 net.cpp:137] Memory required for data: 78928388
I0226 14:48:25.141007  8074 layer_factory.hpp:77] Creating layer concat1_7_concat1_7_0_split
I0226 14:48:25.141013  8074 net.cpp:84] Creating Layer concat1_7_concat1_7_0_split
I0226 14:48:25.141016  8074 net.cpp:406] concat1_7_concat1_7_0_split <- concat1_7
I0226 14:48:25.141021  8074 net.cpp:380] concat1_7_concat1_7_0_split -> concat1_7_concat1_7_0_split_0
I0226 14:48:25.141027  8074 net.cpp:380] concat1_7_concat1_7_0_split -> concat1_7_concat1_7_0_split_1
I0226 14:48:25.141070  8074 net.cpp:122] Setting up concat1_7_concat1_7_0_split
I0226 14:48:25.141079  8074 net.cpp:129] Top shape: 1 384 19 25 (182400)
I0226 14:48:25.141083  8074 net.cpp:129] Top shape: 1 384 19 25 (182400)
I0226 14:48:25.141086  8074 net.cpp:137] Memory required for data: 80387588
I0226 14:48:25.141095  8074 layer_factory.hpp:77] Creating layer conv1_8/bn
I0226 14:48:25.141103  8074 net.cpp:84] Creating Layer conv1_8/bn
I0226 14:48:25.141106  8074 net.cpp:406] conv1_8/bn <- concat1_7_concat1_7_0_split_0
I0226 14:48:25.141111  8074 net.cpp:380] conv1_8/bn -> conv1_8/bn
I0226 14:48:25.141345  8074 net.cpp:122] Setting up conv1_8/bn
I0226 14:48:25.141350  8074 net.cpp:129] Top shape: 1 384 19 25 (182400)
I0226 14:48:25.141353  8074 net.cpp:137] Memory required for data: 81117188
I0226 14:48:25.141361  8074 layer_factory.hpp:77] Creating layer conv1_8/scale
I0226 14:48:25.141369  8074 net.cpp:84] Creating Layer conv1_8/scale
I0226 14:48:25.141373  8074 net.cpp:406] conv1_8/scale <- conv1_8/bn
I0226 14:48:25.141378  8074 net.cpp:367] conv1_8/scale -> conv1_8/bn (in-place)
I0226 14:48:25.141425  8074 layer_factory.hpp:77] Creating layer conv1_8/scale
I0226 14:48:25.141552  8074 net.cpp:122] Setting up conv1_8/scale
I0226 14:48:25.141558  8074 net.cpp:129] Top shape: 1 384 19 25 (182400)
I0226 14:48:25.141561  8074 net.cpp:137] Memory required for data: 81846788
I0226 14:48:25.141567  8074 layer_factory.hpp:77] Creating layer relu1_8
I0226 14:48:25.141575  8074 net.cpp:84] Creating Layer relu1_8
I0226 14:48:25.141578  8074 net.cpp:406] relu1_8 <- conv1_8/bn
I0226 14:48:25.141583  8074 net.cpp:367] relu1_8 -> conv1_8/bn (in-place)
I0226 14:48:25.141804  8074 net.cpp:122] Setting up relu1_8
I0226 14:48:25.141813  8074 net.cpp:129] Top shape: 1 384 19 25 (182400)
I0226 14:48:25.141816  8074 net.cpp:137] Memory required for data: 82576388
I0226 14:48:25.141819  8074 layer_factory.hpp:77] Creating layer conv1_8
I0226 14:48:25.141830  8074 net.cpp:84] Creating Layer conv1_8
I0226 14:48:25.141834  8074 net.cpp:406] conv1_8 <- conv1_8/bn
I0226 14:48:25.141839  8074 net.cpp:380] conv1_8 -> conv1_8
I0226 14:48:25.147529  8074 net.cpp:122] Setting up conv1_8
I0226 14:48:25.147543  8074 net.cpp:129] Top shape: 1 32 19 25 (15200)
I0226 14:48:25.147547  8074 net.cpp:137] Memory required for data: 82637188
I0226 14:48:25.147553  8074 layer_factory.hpp:77] Creating layer concat1_8
I0226 14:48:25.147562  8074 net.cpp:84] Creating Layer concat1_8
I0226 14:48:25.147567  8074 net.cpp:406] concat1_8 <- concat1_7_concat1_7_0_split_1
I0226 14:48:25.147572  8074 net.cpp:406] concat1_8 <- conv1_8
I0226 14:48:25.147578  8074 net.cpp:380] concat1_8 -> concat1_8
I0226 14:48:25.147614  8074 net.cpp:122] Setting up concat1_8
I0226 14:48:25.147620  8074 net.cpp:129] Top shape: 1 416 19 25 (197600)
I0226 14:48:25.147624  8074 net.cpp:137] Memory required for data: 83427588
I0226 14:48:25.147626  8074 layer_factory.hpp:77] Creating layer concat1_8_concat1_8_0_split
I0226 14:48:25.147632  8074 net.cpp:84] Creating Layer concat1_8_concat1_8_0_split
I0226 14:48:25.147635  8074 net.cpp:406] concat1_8_concat1_8_0_split <- concat1_8
I0226 14:48:25.147642  8074 net.cpp:380] concat1_8_concat1_8_0_split -> concat1_8_concat1_8_0_split_0
I0226 14:48:25.147649  8074 net.cpp:380] concat1_8_concat1_8_0_split -> concat1_8_concat1_8_0_split_1
I0226 14:48:25.147689  8074 net.cpp:122] Setting up concat1_8_concat1_8_0_split
I0226 14:48:25.147696  8074 net.cpp:129] Top shape: 1 416 19 25 (197600)
I0226 14:48:25.147701  8074 net.cpp:129] Top shape: 1 416 19 25 (197600)
I0226 14:48:25.147703  8074 net.cpp:137] Memory required for data: 85008388
I0226 14:48:25.147706  8074 layer_factory.hpp:77] Creating layer conv1_9/bn
I0226 14:48:25.147712  8074 net.cpp:84] Creating Layer conv1_9/bn
I0226 14:48:25.147716  8074 net.cpp:406] conv1_9/bn <- concat1_8_concat1_8_0_split_0
I0226 14:48:25.147722  8074 net.cpp:380] conv1_9/bn -> conv1_9/bn
I0226 14:48:25.147967  8074 net.cpp:122] Setting up conv1_9/bn
I0226 14:48:25.147974  8074 net.cpp:129] Top shape: 1 416 19 25 (197600)
I0226 14:48:25.147977  8074 net.cpp:137] Memory required for data: 85798788
I0226 14:48:25.147987  8074 layer_factory.hpp:77] Creating layer conv1_9/scale
I0226 14:48:25.147996  8074 net.cpp:84] Creating Layer conv1_9/scale
I0226 14:48:25.148000  8074 net.cpp:406] conv1_9/scale <- conv1_9/bn
I0226 14:48:25.148005  8074 net.cpp:367] conv1_9/scale -> conv1_9/bn (in-place)
I0226 14:48:25.148052  8074 layer_factory.hpp:77] Creating layer conv1_9/scale
I0226 14:48:25.148188  8074 net.cpp:122] Setting up conv1_9/scale
I0226 14:48:25.148196  8074 net.cpp:129] Top shape: 1 416 19 25 (197600)
I0226 14:48:25.148200  8074 net.cpp:137] Memory required for data: 86589188
I0226 14:48:25.148205  8074 layer_factory.hpp:77] Creating layer relu1_9
I0226 14:48:25.148211  8074 net.cpp:84] Creating Layer relu1_9
I0226 14:48:25.148214  8074 net.cpp:406] relu1_9 <- conv1_9/bn
I0226 14:48:25.148221  8074 net.cpp:367] relu1_9 -> conv1_9/bn (in-place)
I0226 14:48:25.148449  8074 net.cpp:122] Setting up relu1_9
I0226 14:48:25.148458  8074 net.cpp:129] Top shape: 1 416 19 25 (197600)
I0226 14:48:25.148461  8074 net.cpp:137] Memory required for data: 87379588
I0226 14:48:25.148464  8074 layer_factory.hpp:77] Creating layer conv1_9
I0226 14:48:25.148476  8074 net.cpp:84] Creating Layer conv1_9
I0226 14:48:25.148480  8074 net.cpp:406] conv1_9 <- conv1_9/bn
I0226 14:48:25.148488  8074 net.cpp:380] conv1_9 -> conv1_9
I0226 14:48:25.155804  8074 net.cpp:122] Setting up conv1_9
I0226 14:48:25.155818  8074 net.cpp:129] Top shape: 1 32 19 25 (15200)
I0226 14:48:25.155822  8074 net.cpp:137] Memory required for data: 87440388
I0226 14:48:25.155830  8074 layer_factory.hpp:77] Creating layer concat1_9
I0226 14:48:25.155838  8074 net.cpp:84] Creating Layer concat1_9
I0226 14:48:25.155841  8074 net.cpp:406] concat1_9 <- concat1_8_concat1_8_0_split_1
I0226 14:48:25.155848  8074 net.cpp:406] concat1_9 <- conv1_9
I0226 14:48:25.155854  8074 net.cpp:380] concat1_9 -> concat1_9
I0226 14:48:25.155890  8074 net.cpp:122] Setting up concat1_9
I0226 14:48:25.155896  8074 net.cpp:129] Top shape: 1 448 19 25 (212800)
I0226 14:48:25.155900  8074 net.cpp:137] Memory required for data: 88291588
I0226 14:48:25.155902  8074 layer_factory.hpp:77] Creating layer concat1_9_concat1_9_0_split
I0226 14:48:25.155908  8074 net.cpp:84] Creating Layer concat1_9_concat1_9_0_split
I0226 14:48:25.155911  8074 net.cpp:406] concat1_9_concat1_9_0_split <- concat1_9
I0226 14:48:25.155918  8074 net.cpp:380] concat1_9_concat1_9_0_split -> concat1_9_concat1_9_0_split_0
I0226 14:48:25.155925  8074 net.cpp:380] concat1_9_concat1_9_0_split -> concat1_9_concat1_9_0_split_1
I0226 14:48:25.155972  8074 net.cpp:122] Setting up concat1_9_concat1_9_0_split
I0226 14:48:25.155977  8074 net.cpp:129] Top shape: 1 448 19 25 (212800)
I0226 14:48:25.155980  8074 net.cpp:129] Top shape: 1 448 19 25 (212800)
I0226 14:48:25.155983  8074 net.cpp:137] Memory required for data: 89993988
I0226 14:48:25.155987  8074 layer_factory.hpp:77] Creating layer conv1_10/bn
I0226 14:48:25.155994  8074 net.cpp:84] Creating Layer conv1_10/bn
I0226 14:48:25.155998  8074 net.cpp:406] conv1_10/bn <- concat1_9_concat1_9_0_split_0
I0226 14:48:25.156003  8074 net.cpp:380] conv1_10/bn -> conv1_10/bn
I0226 14:48:25.156250  8074 net.cpp:122] Setting up conv1_10/bn
I0226 14:48:25.156256  8074 net.cpp:129] Top shape: 1 448 19 25 (212800)
I0226 14:48:25.156258  8074 net.cpp:137] Memory required for data: 90845188
I0226 14:48:25.156266  8074 layer_factory.hpp:77] Creating layer conv1_10/scale
I0226 14:48:25.156273  8074 net.cpp:84] Creating Layer conv1_10/scale
I0226 14:48:25.156276  8074 net.cpp:406] conv1_10/scale <- conv1_10/bn
I0226 14:48:25.156283  8074 net.cpp:367] conv1_10/scale -> conv1_10/bn (in-place)
I0226 14:48:25.156333  8074 layer_factory.hpp:77] Creating layer conv1_10/scale
I0226 14:48:25.156471  8074 net.cpp:122] Setting up conv1_10/scale
I0226 14:48:25.156477  8074 net.cpp:129] Top shape: 1 448 19 25 (212800)
I0226 14:48:25.156481  8074 net.cpp:137] Memory required for data: 91696388
I0226 14:48:25.156486  8074 layer_factory.hpp:77] Creating layer relu1_10
I0226 14:48:25.156492  8074 net.cpp:84] Creating Layer relu1_10
I0226 14:48:25.156498  8074 net.cpp:406] relu1_10 <- conv1_10/bn
I0226 14:48:25.156505  8074 net.cpp:367] relu1_10 -> conv1_10/bn (in-place)
I0226 14:48:25.156738  8074 net.cpp:122] Setting up relu1_10
I0226 14:48:25.156749  8074 net.cpp:129] Top shape: 1 448 19 25 (212800)
I0226 14:48:25.156751  8074 net.cpp:137] Memory required for data: 92547588
I0226 14:48:25.156755  8074 layer_factory.hpp:77] Creating layer conv1_10
I0226 14:48:25.156766  8074 net.cpp:84] Creating Layer conv1_10
I0226 14:48:25.156770  8074 net.cpp:406] conv1_10 <- conv1_10/bn
I0226 14:48:25.156776  8074 net.cpp:380] conv1_10 -> conv1_10
I0226 14:48:25.163002  8074 net.cpp:122] Setting up conv1_10
I0226 14:48:25.163015  8074 net.cpp:129] Top shape: 1 32 19 25 (15200)
I0226 14:48:25.163018  8074 net.cpp:137] Memory required for data: 92608388
I0226 14:48:25.163027  8074 layer_factory.hpp:77] Creating layer concat1_10
I0226 14:48:25.163034  8074 net.cpp:84] Creating Layer concat1_10
I0226 14:48:25.163038  8074 net.cpp:406] concat1_10 <- concat1_9_concat1_9_0_split_1
I0226 14:48:25.163044  8074 net.cpp:406] concat1_10 <- conv1_10
I0226 14:48:25.163051  8074 net.cpp:380] concat1_10 -> concat1_10
I0226 14:48:25.163087  8074 net.cpp:122] Setting up concat1_10
I0226 14:48:25.163094  8074 net.cpp:129] Top shape: 1 480 19 25 (228000)
I0226 14:48:25.163096  8074 net.cpp:137] Memory required for data: 93520388
I0226 14:48:25.163100  8074 layer_factory.hpp:77] Creating layer concat1_10_concat1_10_0_split
I0226 14:48:25.163106  8074 net.cpp:84] Creating Layer concat1_10_concat1_10_0_split
I0226 14:48:25.163110  8074 net.cpp:406] concat1_10_concat1_10_0_split <- concat1_10
I0226 14:48:25.163115  8074 net.cpp:380] concat1_10_concat1_10_0_split -> concat1_10_concat1_10_0_split_0
I0226 14:48:25.163121  8074 net.cpp:380] concat1_10_concat1_10_0_split -> concat1_10_concat1_10_0_split_1
I0226 14:48:25.163164  8074 net.cpp:122] Setting up concat1_10_concat1_10_0_split
I0226 14:48:25.163170  8074 net.cpp:129] Top shape: 1 480 19 25 (228000)
I0226 14:48:25.163174  8074 net.cpp:129] Top shape: 1 480 19 25 (228000)
I0226 14:48:25.163177  8074 net.cpp:137] Memory required for data: 95344388
I0226 14:48:25.163180  8074 layer_factory.hpp:77] Creating layer conv1_11/bn
I0226 14:48:25.163192  8074 net.cpp:84] Creating Layer conv1_11/bn
I0226 14:48:25.163194  8074 net.cpp:406] conv1_11/bn <- concat1_10_concat1_10_0_split_0
I0226 14:48:25.163199  8074 net.cpp:380] conv1_11/bn -> conv1_11/bn
I0226 14:48:25.163449  8074 net.cpp:122] Setting up conv1_11/bn
I0226 14:48:25.163455  8074 net.cpp:129] Top shape: 1 480 19 25 (228000)
I0226 14:48:25.163457  8074 net.cpp:137] Memory required for data: 96256388
I0226 14:48:25.163465  8074 layer_factory.hpp:77] Creating layer conv1_11/scale
I0226 14:48:25.163473  8074 net.cpp:84] Creating Layer conv1_11/scale
I0226 14:48:25.163477  8074 net.cpp:406] conv1_11/scale <- conv1_11/bn
I0226 14:48:25.163482  8074 net.cpp:367] conv1_11/scale -> conv1_11/bn (in-place)
I0226 14:48:25.163532  8074 layer_factory.hpp:77] Creating layer conv1_11/scale
I0226 14:48:25.163674  8074 net.cpp:122] Setting up conv1_11/scale
I0226 14:48:25.163681  8074 net.cpp:129] Top shape: 1 480 19 25 (228000)
I0226 14:48:25.163683  8074 net.cpp:137] Memory required for data: 97168388
I0226 14:48:25.163689  8074 layer_factory.hpp:77] Creating layer relu1_11
I0226 14:48:25.163697  8074 net.cpp:84] Creating Layer relu1_11
I0226 14:48:25.163700  8074 net.cpp:406] relu1_11 <- conv1_11/bn
I0226 14:48:25.163705  8074 net.cpp:367] relu1_11 -> conv1_11/bn (in-place)
I0226 14:48:25.164722  8074 net.cpp:122] Setting up relu1_11
I0226 14:48:25.164736  8074 net.cpp:129] Top shape: 1 480 19 25 (228000)
I0226 14:48:25.164738  8074 net.cpp:137] Memory required for data: 98080388
I0226 14:48:25.164742  8074 layer_factory.hpp:77] Creating layer conv1_11
I0226 14:48:25.164757  8074 net.cpp:84] Creating Layer conv1_11
I0226 14:48:25.164760  8074 net.cpp:406] conv1_11 <- conv1_11/bn
I0226 14:48:25.164767  8074 net.cpp:380] conv1_11 -> conv1_11
I0226 14:48:25.171258  8074 net.cpp:122] Setting up conv1_11
I0226 14:48:25.171275  8074 net.cpp:129] Top shape: 1 32 19 25 (15200)
I0226 14:48:25.171279  8074 net.cpp:137] Memory required for data: 98141188
I0226 14:48:25.171285  8074 layer_factory.hpp:77] Creating layer concat1_11
I0226 14:48:25.171293  8074 net.cpp:84] Creating Layer concat1_11
I0226 14:48:25.171298  8074 net.cpp:406] concat1_11 <- concat1_10_concat1_10_0_split_1
I0226 14:48:25.171303  8074 net.cpp:406] concat1_11 <- conv1_11
I0226 14:48:25.171310  8074 net.cpp:380] concat1_11 -> concat1_11
I0226 14:48:25.171346  8074 net.cpp:122] Setting up concat1_11
I0226 14:48:25.171355  8074 net.cpp:129] Top shape: 1 512 19 25 (243200)
I0226 14:48:25.171357  8074 net.cpp:137] Memory required for data: 99113988
I0226 14:48:25.171360  8074 layer_factory.hpp:77] Creating layer BatchNorm2
I0226 14:48:25.171366  8074 net.cpp:84] Creating Layer BatchNorm2
I0226 14:48:25.171370  8074 net.cpp:406] BatchNorm2 <- concat1_11
I0226 14:48:25.171380  8074 net.cpp:380] BatchNorm2 -> BatchNorm2
I0226 14:48:25.171622  8074 net.cpp:122] Setting up BatchNorm2
I0226 14:48:25.171629  8074 net.cpp:129] Top shape: 1 512 19 25 (243200)
I0226 14:48:25.171633  8074 net.cpp:137] Memory required for data: 100086788
I0226 14:48:25.171640  8074 layer_factory.hpp:77] Creating layer Scale2
I0226 14:48:25.171648  8074 net.cpp:84] Creating Layer Scale2
I0226 14:48:25.171653  8074 net.cpp:406] Scale2 <- BatchNorm2
I0226 14:48:25.171658  8074 net.cpp:367] Scale2 -> BatchNorm2 (in-place)
I0226 14:48:25.171705  8074 layer_factory.hpp:77] Creating layer Scale2
I0226 14:48:25.171838  8074 net.cpp:122] Setting up Scale2
I0226 14:48:25.171845  8074 net.cpp:129] Top shape: 1 512 19 25 (243200)
I0226 14:48:25.171849  8074 net.cpp:137] Memory required for data: 101059588
I0226 14:48:25.171854  8074 layer_factory.hpp:77] Creating layer ReLU2
I0226 14:48:25.171859  8074 net.cpp:84] Creating Layer ReLU2
I0226 14:48:25.171864  8074 net.cpp:406] ReLU2 <- BatchNorm2
I0226 14:48:25.171867  8074 net.cpp:367] ReLU2 -> BatchNorm2 (in-place)
I0226 14:48:25.172089  8074 net.cpp:122] Setting up ReLU2
I0226 14:48:25.172097  8074 net.cpp:129] Top shape: 1 512 19 25 (243200)
I0226 14:48:25.172101  8074 net.cpp:137] Memory required for data: 102032388
I0226 14:48:25.172104  8074 layer_factory.hpp:77] Creating layer conv1_blk
I0226 14:48:25.172116  8074 net.cpp:84] Creating Layer conv1_blk
I0226 14:48:25.172119  8074 net.cpp:406] conv1_blk <- BatchNorm2
I0226 14:48:25.172127  8074 net.cpp:380] conv1_blk -> conv1_blk
I0226 14:48:25.178445  8074 net.cpp:122] Setting up conv1_blk
I0226 14:48:25.178459  8074 net.cpp:129] Top shape: 1 256 19 25 (121600)
I0226 14:48:25.178463  8074 net.cpp:137] Memory required for data: 102518788
I0226 14:48:25.178469  8074 layer_factory.hpp:77] Creating layer pool1
I0226 14:48:25.178479  8074 net.cpp:84] Creating Layer pool1
I0226 14:48:25.178484  8074 net.cpp:406] pool1 <- conv1_blk
I0226 14:48:25.178490  8074 net.cpp:380] pool1 -> pool1
I0226 14:48:25.178751  8074 net.cpp:122] Setting up pool1
I0226 14:48:25.178761  8074 net.cpp:129] Top shape: 1 256 10 13 (33280)
I0226 14:48:25.178763  8074 net.cpp:137] Memory required for data: 102651908
I0226 14:48:25.178766  8074 layer_factory.hpp:77] Creating layer pool1_pool1_0_split
I0226 14:48:25.178772  8074 net.cpp:84] Creating Layer pool1_pool1_0_split
I0226 14:48:25.178776  8074 net.cpp:406] pool1_pool1_0_split <- pool1
I0226 14:48:25.178782  8074 net.cpp:380] pool1_pool1_0_split -> pool1_pool1_0_split_0
I0226 14:48:25.178789  8074 net.cpp:380] pool1_pool1_0_split -> pool1_pool1_0_split_1
I0226 14:48:25.178834  8074 net.cpp:122] Setting up pool1_pool1_0_split
I0226 14:48:25.178843  8074 net.cpp:129] Top shape: 1 256 10 13 (33280)
I0226 14:48:25.178846  8074 net.cpp:129] Top shape: 1 256 10 13 (33280)
I0226 14:48:25.178849  8074 net.cpp:137] Memory required for data: 102918148
I0226 14:48:25.178853  8074 layer_factory.hpp:77] Creating layer conv2_0/bn
I0226 14:48:25.178858  8074 net.cpp:84] Creating Layer conv2_0/bn
I0226 14:48:25.178861  8074 net.cpp:406] conv2_0/bn <- pool1_pool1_0_split_0
I0226 14:48:25.178871  8074 net.cpp:380] conv2_0/bn -> conv2_0/bn
I0226 14:48:25.179105  8074 net.cpp:122] Setting up conv2_0/bn
I0226 14:48:25.179111  8074 net.cpp:129] Top shape: 1 256 10 13 (33280)
I0226 14:48:25.179114  8074 net.cpp:137] Memory required for data: 103051268
I0226 14:48:25.179131  8074 layer_factory.hpp:77] Creating layer conv2_0/scale
I0226 14:48:25.179141  8074 net.cpp:84] Creating Layer conv2_0/scale
I0226 14:48:25.179144  8074 net.cpp:406] conv2_0/scale <- conv2_0/bn
I0226 14:48:25.179149  8074 net.cpp:367] conv2_0/scale -> conv2_0/bn (in-place)
I0226 14:48:25.179195  8074 layer_factory.hpp:77] Creating layer conv2_0/scale
I0226 14:48:25.179319  8074 net.cpp:122] Setting up conv2_0/scale
I0226 14:48:25.179327  8074 net.cpp:129] Top shape: 1 256 10 13 (33280)
I0226 14:48:25.179329  8074 net.cpp:137] Memory required for data: 103184388
I0226 14:48:25.179335  8074 layer_factory.hpp:77] Creating layer relu2_0
I0226 14:48:25.179347  8074 net.cpp:84] Creating Layer relu2_0
I0226 14:48:25.179350  8074 net.cpp:406] relu2_0 <- conv2_0/bn
I0226 14:48:25.179354  8074 net.cpp:367] relu2_0 -> conv2_0/bn (in-place)
I0226 14:48:25.180366  8074 net.cpp:122] Setting up relu2_0
I0226 14:48:25.180379  8074 net.cpp:129] Top shape: 1 256 10 13 (33280)
I0226 14:48:25.180383  8074 net.cpp:137] Memory required for data: 103317508
I0226 14:48:25.180387  8074 layer_factory.hpp:77] Creating layer conv2_0
I0226 14:48:25.180398  8074 net.cpp:84] Creating Layer conv2_0
I0226 14:48:25.180403  8074 net.cpp:406] conv2_0 <- conv2_0/bn
I0226 14:48:25.180411  8074 net.cpp:380] conv2_0 -> conv2_0
I0226 14:48:25.185590  8074 net.cpp:122] Setting up conv2_0
I0226 14:48:25.185606  8074 net.cpp:129] Top shape: 1 32 10 13 (4160)
I0226 14:48:25.185608  8074 net.cpp:137] Memory required for data: 103334148
I0226 14:48:25.185614  8074 layer_factory.hpp:77] Creating layer concat2_0
I0226 14:48:25.185624  8074 net.cpp:84] Creating Layer concat2_0
I0226 14:48:25.185628  8074 net.cpp:406] concat2_0 <- pool1_pool1_0_split_1
I0226 14:48:25.185633  8074 net.cpp:406] concat2_0 <- conv2_0
I0226 14:48:25.185639  8074 net.cpp:380] concat2_0 -> concat2_0
I0226 14:48:25.185674  8074 net.cpp:122] Setting up concat2_0
I0226 14:48:25.185680  8074 net.cpp:129] Top shape: 1 288 10 13 (37440)
I0226 14:48:25.185683  8074 net.cpp:137] Memory required for data: 103483908
I0226 14:48:25.185686  8074 layer_factory.hpp:77] Creating layer concat2_0_concat2_0_0_split
I0226 14:48:25.185691  8074 net.cpp:84] Creating Layer concat2_0_concat2_0_0_split
I0226 14:48:25.185695  8074 net.cpp:406] concat2_0_concat2_0_0_split <- concat2_0
I0226 14:48:25.185701  8074 net.cpp:380] concat2_0_concat2_0_0_split -> concat2_0_concat2_0_0_split_0
I0226 14:48:25.185708  8074 net.cpp:380] concat2_0_concat2_0_0_split -> concat2_0_concat2_0_0_split_1
I0226 14:48:25.185750  8074 net.cpp:122] Setting up concat2_0_concat2_0_0_split
I0226 14:48:25.185755  8074 net.cpp:129] Top shape: 1 288 10 13 (37440)
I0226 14:48:25.185760  8074 net.cpp:129] Top shape: 1 288 10 13 (37440)
I0226 14:48:25.185762  8074 net.cpp:137] Memory required for data: 103783428
I0226 14:48:25.185765  8074 layer_factory.hpp:77] Creating layer conv2_1/bn
I0226 14:48:25.185777  8074 net.cpp:84] Creating Layer conv2_1/bn
I0226 14:48:25.185781  8074 net.cpp:406] conv2_1/bn <- concat2_0_concat2_0_0_split_0
I0226 14:48:25.185788  8074 net.cpp:380] conv2_1/bn -> conv2_1/bn
I0226 14:48:25.186036  8074 net.cpp:122] Setting up conv2_1/bn
I0226 14:48:25.186043  8074 net.cpp:129] Top shape: 1 288 10 13 (37440)
I0226 14:48:25.186046  8074 net.cpp:137] Memory required for data: 103933188
I0226 14:48:25.186053  8074 layer_factory.hpp:77] Creating layer conv2_1/scale
I0226 14:48:25.186060  8074 net.cpp:84] Creating Layer conv2_1/scale
I0226 14:48:25.186064  8074 net.cpp:406] conv2_1/scale <- conv2_1/bn
I0226 14:48:25.186070  8074 net.cpp:367] conv2_1/scale -> conv2_1/bn (in-place)
I0226 14:48:25.186120  8074 layer_factory.hpp:77] Creating layer conv2_1/scale
I0226 14:48:25.186257  8074 net.cpp:122] Setting up conv2_1/scale
I0226 14:48:25.186264  8074 net.cpp:129] Top shape: 1 288 10 13 (37440)
I0226 14:48:25.186270  8074 net.cpp:137] Memory required for data: 104082948
I0226 14:48:25.186276  8074 layer_factory.hpp:77] Creating layer relu2_1
I0226 14:48:25.186282  8074 net.cpp:84] Creating Layer relu2_1
I0226 14:48:25.186286  8074 net.cpp:406] relu2_1 <- conv2_1/bn
I0226 14:48:25.186293  8074 net.cpp:367] relu2_1 -> conv2_1/bn (in-place)
I0226 14:48:25.186508  8074 net.cpp:122] Setting up relu2_1
I0226 14:48:25.186517  8074 net.cpp:129] Top shape: 1 288 10 13 (37440)
I0226 14:48:25.186519  8074 net.cpp:137] Memory required for data: 104232708
I0226 14:48:25.186523  8074 layer_factory.hpp:77] Creating layer conv2_1
I0226 14:48:25.186533  8074 net.cpp:84] Creating Layer conv2_1
I0226 14:48:25.186537  8074 net.cpp:406] conv2_1 <- conv2_1/bn
I0226 14:48:25.186545  8074 net.cpp:380] conv2_1 -> conv2_1
I0226 14:48:25.190645  8074 net.cpp:122] Setting up conv2_1
I0226 14:48:25.190660  8074 net.cpp:129] Top shape: 1 32 10 13 (4160)
I0226 14:48:25.190663  8074 net.cpp:137] Memory required for data: 104249348
I0226 14:48:25.190670  8074 layer_factory.hpp:77] Creating layer concat2_1
I0226 14:48:25.190680  8074 net.cpp:84] Creating Layer concat2_1
I0226 14:48:25.190683  8074 net.cpp:406] concat2_1 <- concat2_0_concat2_0_0_split_1
I0226 14:48:25.190690  8074 net.cpp:406] concat2_1 <- conv2_1
I0226 14:48:25.190695  8074 net.cpp:380] concat2_1 -> concat2_1
I0226 14:48:25.190728  8074 net.cpp:122] Setting up concat2_1
I0226 14:48:25.190734  8074 net.cpp:129] Top shape: 1 320 10 13 (41600)
I0226 14:48:25.190737  8074 net.cpp:137] Memory required for data: 104415748
I0226 14:48:25.190740  8074 layer_factory.hpp:77] Creating layer concat2_1_concat2_1_0_split
I0226 14:48:25.190747  8074 net.cpp:84] Creating Layer concat2_1_concat2_1_0_split
I0226 14:48:25.190749  8074 net.cpp:406] concat2_1_concat2_1_0_split <- concat2_1
I0226 14:48:25.190757  8074 net.cpp:380] concat2_1_concat2_1_0_split -> concat2_1_concat2_1_0_split_0
I0226 14:48:25.190762  8074 net.cpp:380] concat2_1_concat2_1_0_split -> concat2_1_concat2_1_0_split_1
I0226 14:48:25.190807  8074 net.cpp:122] Setting up concat2_1_concat2_1_0_split
I0226 14:48:25.190814  8074 net.cpp:129] Top shape: 1 320 10 13 (41600)
I0226 14:48:25.190819  8074 net.cpp:129] Top shape: 1 320 10 13 (41600)
I0226 14:48:25.190821  8074 net.cpp:137] Memory required for data: 104748548
I0226 14:48:25.190824  8074 layer_factory.hpp:77] Creating layer conv2_2/bn
I0226 14:48:25.190830  8074 net.cpp:84] Creating Layer conv2_2/bn
I0226 14:48:25.190834  8074 net.cpp:406] conv2_2/bn <- concat2_1_concat2_1_0_split_0
I0226 14:48:25.190842  8074 net.cpp:380] conv2_2/bn -> conv2_2/bn
I0226 14:48:25.191092  8074 net.cpp:122] Setting up conv2_2/bn
I0226 14:48:25.191098  8074 net.cpp:129] Top shape: 1 320 10 13 (41600)
I0226 14:48:25.191102  8074 net.cpp:137] Memory required for data: 104914948
I0226 14:48:25.191109  8074 layer_factory.hpp:77] Creating layer conv2_2/scale
I0226 14:48:25.191118  8074 net.cpp:84] Creating Layer conv2_2/scale
I0226 14:48:25.191121  8074 net.cpp:406] conv2_2/scale <- conv2_2/bn
I0226 14:48:25.191126  8074 net.cpp:367] conv2_2/scale -> conv2_2/bn (in-place)
I0226 14:48:25.191174  8074 layer_factory.hpp:77] Creating layer conv2_2/scale
I0226 14:48:25.191315  8074 net.cpp:122] Setting up conv2_2/scale
I0226 14:48:25.191323  8074 net.cpp:129] Top shape: 1 320 10 13 (41600)
I0226 14:48:25.191326  8074 net.cpp:137] Memory required for data: 105081348
I0226 14:48:25.191332  8074 layer_factory.hpp:77] Creating layer relu2_2
I0226 14:48:25.191339  8074 net.cpp:84] Creating Layer relu2_2
I0226 14:48:25.191342  8074 net.cpp:406] relu2_2 <- conv2_2/bn
I0226 14:48:25.191349  8074 net.cpp:367] relu2_2 -> conv2_2/bn (in-place)
I0226 14:48:25.191563  8074 net.cpp:122] Setting up relu2_2
I0226 14:48:25.191571  8074 net.cpp:129] Top shape: 1 320 10 13 (41600)
I0226 14:48:25.191576  8074 net.cpp:137] Memory required for data: 105247748
I0226 14:48:25.191578  8074 layer_factory.hpp:77] Creating layer conv2_2
I0226 14:48:25.191589  8074 net.cpp:84] Creating Layer conv2_2
I0226 14:48:25.191596  8074 net.cpp:406] conv2_2 <- conv2_2/bn
I0226 14:48:25.191604  8074 net.cpp:380] conv2_2 -> conv2_2
I0226 14:48:25.195958  8074 net.cpp:122] Setting up conv2_2
I0226 14:48:25.195971  8074 net.cpp:129] Top shape: 1 32 10 13 (4160)
I0226 14:48:25.195976  8074 net.cpp:137] Memory required for data: 105264388
I0226 14:48:25.195981  8074 layer_factory.hpp:77] Creating layer concat2_2
I0226 14:48:25.195991  8074 net.cpp:84] Creating Layer concat2_2
I0226 14:48:25.195996  8074 net.cpp:406] concat2_2 <- concat2_1_concat2_1_0_split_1
I0226 14:48:25.196000  8074 net.cpp:406] concat2_2 <- conv2_2
I0226 14:48:25.196005  8074 net.cpp:380] concat2_2 -> concat2_2
I0226 14:48:25.196043  8074 net.cpp:122] Setting up concat2_2
I0226 14:48:25.196049  8074 net.cpp:129] Top shape: 1 352 10 13 (45760)
I0226 14:48:25.196053  8074 net.cpp:137] Memory required for data: 105447428
I0226 14:48:25.196055  8074 layer_factory.hpp:77] Creating layer concat2_2_concat2_2_0_split
I0226 14:48:25.196060  8074 net.cpp:84] Creating Layer concat2_2_concat2_2_0_split
I0226 14:48:25.196064  8074 net.cpp:406] concat2_2_concat2_2_0_split <- concat2_2
I0226 14:48:25.196070  8074 net.cpp:380] concat2_2_concat2_2_0_split -> concat2_2_concat2_2_0_split_0
I0226 14:48:25.196077  8074 net.cpp:380] concat2_2_concat2_2_0_split -> concat2_2_concat2_2_0_split_1
I0226 14:48:25.196120  8074 net.cpp:122] Setting up concat2_2_concat2_2_0_split
I0226 14:48:25.196125  8074 net.cpp:129] Top shape: 1 352 10 13 (45760)
I0226 14:48:25.196128  8074 net.cpp:129] Top shape: 1 352 10 13 (45760)
I0226 14:48:25.196131  8074 net.cpp:137] Memory required for data: 105813508
I0226 14:48:25.196135  8074 layer_factory.hpp:77] Creating layer conv2_3/bn
I0226 14:48:25.196141  8074 net.cpp:84] Creating Layer conv2_3/bn
I0226 14:48:25.196146  8074 net.cpp:406] conv2_3/bn <- concat2_2_concat2_2_0_split_0
I0226 14:48:25.196151  8074 net.cpp:380] conv2_3/bn -> conv2_3/bn
I0226 14:48:25.196399  8074 net.cpp:122] Setting up conv2_3/bn
I0226 14:48:25.196405  8074 net.cpp:129] Top shape: 1 352 10 13 (45760)
I0226 14:48:25.196408  8074 net.cpp:137] Memory required for data: 105996548
I0226 14:48:25.196415  8074 layer_factory.hpp:77] Creating layer conv2_3/scale
I0226 14:48:25.196422  8074 net.cpp:84] Creating Layer conv2_3/scale
I0226 14:48:25.196426  8074 net.cpp:406] conv2_3/scale <- conv2_3/bn
I0226 14:48:25.196434  8074 net.cpp:367] conv2_3/scale -> conv2_3/bn (in-place)
I0226 14:48:25.196481  8074 layer_factory.hpp:77] Creating layer conv2_3/scale
I0226 14:48:25.196619  8074 net.cpp:122] Setting up conv2_3/scale
I0226 14:48:25.196626  8074 net.cpp:129] Top shape: 1 352 10 13 (45760)
I0226 14:48:25.196635  8074 net.cpp:137] Memory required for data: 106179588
I0226 14:48:25.196641  8074 layer_factory.hpp:77] Creating layer relu2_3
I0226 14:48:25.196647  8074 net.cpp:84] Creating Layer relu2_3
I0226 14:48:25.196651  8074 net.cpp:406] relu2_3 <- conv2_3/bn
I0226 14:48:25.196660  8074 net.cpp:367] relu2_3 -> conv2_3/bn (in-place)
I0226 14:48:25.197677  8074 net.cpp:122] Setting up relu2_3
I0226 14:48:25.197690  8074 net.cpp:129] Top shape: 1 352 10 13 (45760)
I0226 14:48:25.197693  8074 net.cpp:137] Memory required for data: 106362628
I0226 14:48:25.197697  8074 layer_factory.hpp:77] Creating layer conv2_3
I0226 14:48:25.197708  8074 net.cpp:84] Creating Layer conv2_3
I0226 14:48:25.197712  8074 net.cpp:406] conv2_3 <- conv2_3/bn
I0226 14:48:25.197721  8074 net.cpp:380] conv2_3 -> conv2_3
I0226 14:48:25.203164  8074 net.cpp:122] Setting up conv2_3
I0226 14:48:25.203178  8074 net.cpp:129] Top shape: 1 32 10 13 (4160)
I0226 14:48:25.203181  8074 net.cpp:137] Memory required for data: 106379268
I0226 14:48:25.203188  8074 layer_factory.hpp:77] Creating layer concat2_3
I0226 14:48:25.203200  8074 net.cpp:84] Creating Layer concat2_3
I0226 14:48:25.203204  8074 net.cpp:406] concat2_3 <- concat2_2_concat2_2_0_split_1
I0226 14:48:25.203210  8074 net.cpp:406] concat2_3 <- conv2_3
I0226 14:48:25.203215  8074 net.cpp:380] concat2_3 -> concat2_3
I0226 14:48:25.203254  8074 net.cpp:122] Setting up concat2_3
I0226 14:48:25.203263  8074 net.cpp:129] Top shape: 1 384 10 13 (49920)
I0226 14:48:25.203266  8074 net.cpp:137] Memory required for data: 106578948
I0226 14:48:25.203270  8074 layer_factory.hpp:77] Creating layer concat2_3_concat2_3_0_split
I0226 14:48:25.203275  8074 net.cpp:84] Creating Layer concat2_3_concat2_3_0_split
I0226 14:48:25.203279  8074 net.cpp:406] concat2_3_concat2_3_0_split <- concat2_3
I0226 14:48:25.203285  8074 net.cpp:380] concat2_3_concat2_3_0_split -> concat2_3_concat2_3_0_split_0
I0226 14:48:25.203291  8074 net.cpp:380] concat2_3_concat2_3_0_split -> concat2_3_concat2_3_0_split_1
I0226 14:48:25.203335  8074 net.cpp:122] Setting up concat2_3_concat2_3_0_split
I0226 14:48:25.203342  8074 net.cpp:129] Top shape: 1 384 10 13 (49920)
I0226 14:48:25.203346  8074 net.cpp:129] Top shape: 1 384 10 13 (49920)
I0226 14:48:25.203348  8074 net.cpp:137] Memory required for data: 106978308
I0226 14:48:25.203352  8074 layer_factory.hpp:77] Creating layer conv2_4/bn
I0226 14:48:25.203358  8074 net.cpp:84] Creating Layer conv2_4/bn
I0226 14:48:25.203361  8074 net.cpp:406] conv2_4/bn <- concat2_3_concat2_3_0_split_0
I0226 14:48:25.203368  8074 net.cpp:380] conv2_4/bn -> conv2_4/bn
I0226 14:48:25.203615  8074 net.cpp:122] Setting up conv2_4/bn
I0226 14:48:25.203621  8074 net.cpp:129] Top shape: 1 384 10 13 (49920)
I0226 14:48:25.203624  8074 net.cpp:137] Memory required for data: 107177988
I0226 14:48:25.203632  8074 layer_factory.hpp:77] Creating layer conv2_4/scale
I0226 14:48:25.203640  8074 net.cpp:84] Creating Layer conv2_4/scale
I0226 14:48:25.203644  8074 net.cpp:406] conv2_4/scale <- conv2_4/bn
I0226 14:48:25.203649  8074 net.cpp:367] conv2_4/scale -> conv2_4/bn (in-place)
I0226 14:48:25.203693  8074 layer_factory.hpp:77] Creating layer conv2_4/scale
I0226 14:48:25.203825  8074 net.cpp:122] Setting up conv2_4/scale
I0226 14:48:25.203832  8074 net.cpp:129] Top shape: 1 384 10 13 (49920)
I0226 14:48:25.203835  8074 net.cpp:137] Memory required for data: 107377668
I0226 14:48:25.203841  8074 layer_factory.hpp:77] Creating layer relu2_4
I0226 14:48:25.203846  8074 net.cpp:84] Creating Layer relu2_4
I0226 14:48:25.203850  8074 net.cpp:406] relu2_4 <- conv2_4/bn
I0226 14:48:25.203857  8074 net.cpp:367] relu2_4 -> conv2_4/bn (in-place)
I0226 14:48:25.204077  8074 net.cpp:122] Setting up relu2_4
I0226 14:48:25.204087  8074 net.cpp:129] Top shape: 1 384 10 13 (49920)
I0226 14:48:25.204089  8074 net.cpp:137] Memory required for data: 107577348
I0226 14:48:25.204093  8074 layer_factory.hpp:77] Creating layer conv2_4
I0226 14:48:25.204102  8074 net.cpp:84] Creating Layer conv2_4
I0226 14:48:25.204105  8074 net.cpp:406] conv2_4 <- conv2_4/bn
I0226 14:48:25.204113  8074 net.cpp:380] conv2_4 -> conv2_4
I0226 14:48:25.209887  8074 net.cpp:122] Setting up conv2_4
I0226 14:48:25.209902  8074 net.cpp:129] Top shape: 1 32 10 13 (4160)
I0226 14:48:25.209904  8074 net.cpp:137] Memory required for data: 107593988
I0226 14:48:25.209911  8074 layer_factory.hpp:77] Creating layer concat2_4
I0226 14:48:25.209918  8074 net.cpp:84] Creating Layer concat2_4
I0226 14:48:25.209923  8074 net.cpp:406] concat2_4 <- concat2_3_concat2_3_0_split_1
I0226 14:48:25.209928  8074 net.cpp:406] concat2_4 <- conv2_4
I0226 14:48:25.209935  8074 net.cpp:380] concat2_4 -> concat2_4
I0226 14:48:25.209973  8074 net.cpp:122] Setting up concat2_4
I0226 14:48:25.209980  8074 net.cpp:129] Top shape: 1 416 10 13 (54080)
I0226 14:48:25.209982  8074 net.cpp:137] Memory required for data: 107810308
I0226 14:48:25.209985  8074 layer_factory.hpp:77] Creating layer concat2_4_concat2_4_0_split
I0226 14:48:25.209993  8074 net.cpp:84] Creating Layer concat2_4_concat2_4_0_split
I0226 14:48:25.209996  8074 net.cpp:406] concat2_4_concat2_4_0_split <- concat2_4
I0226 14:48:25.210001  8074 net.cpp:380] concat2_4_concat2_4_0_split -> concat2_4_concat2_4_0_split_0
I0226 14:48:25.210013  8074 net.cpp:380] concat2_4_concat2_4_0_split -> concat2_4_concat2_4_0_split_1
I0226 14:48:25.210059  8074 net.cpp:122] Setting up concat2_4_concat2_4_0_split
I0226 14:48:25.210070  8074 net.cpp:129] Top shape: 1 416 10 13 (54080)
I0226 14:48:25.210074  8074 net.cpp:129] Top shape: 1 416 10 13 (54080)
I0226 14:48:25.210078  8074 net.cpp:137] Memory required for data: 108242948
I0226 14:48:25.210081  8074 layer_factory.hpp:77] Creating layer conv2_5/bn
I0226 14:48:25.210089  8074 net.cpp:84] Creating Layer conv2_5/bn
I0226 14:48:25.210093  8074 net.cpp:406] conv2_5/bn <- concat2_4_concat2_4_0_split_0
I0226 14:48:25.210098  8074 net.cpp:380] conv2_5/bn -> conv2_5/bn
I0226 14:48:25.210343  8074 net.cpp:122] Setting up conv2_5/bn
I0226 14:48:25.210350  8074 net.cpp:129] Top shape: 1 416 10 13 (54080)
I0226 14:48:25.210352  8074 net.cpp:137] Memory required for data: 108459268
I0226 14:48:25.210360  8074 layer_factory.hpp:77] Creating layer conv2_5/scale
I0226 14:48:25.210366  8074 net.cpp:84] Creating Layer conv2_5/scale
I0226 14:48:25.210371  8074 net.cpp:406] conv2_5/scale <- conv2_5/bn
I0226 14:48:25.210377  8074 net.cpp:367] conv2_5/scale -> conv2_5/bn (in-place)
I0226 14:48:25.210427  8074 layer_factory.hpp:77] Creating layer conv2_5/scale
I0226 14:48:25.210568  8074 net.cpp:122] Setting up conv2_5/scale
I0226 14:48:25.210575  8074 net.cpp:129] Top shape: 1 416 10 13 (54080)
I0226 14:48:25.210578  8074 net.cpp:137] Memory required for data: 108675588
I0226 14:48:25.210584  8074 layer_factory.hpp:77] Creating layer relu2_5
I0226 14:48:25.210589  8074 net.cpp:84] Creating Layer relu2_5
I0226 14:48:25.210593  8074 net.cpp:406] relu2_5 <- conv2_5/bn
I0226 14:48:25.210599  8074 net.cpp:367] relu2_5 -> conv2_5/bn (in-place)
I0226 14:48:25.210834  8074 net.cpp:122] Setting up relu2_5
I0226 14:48:25.210842  8074 net.cpp:129] Top shape: 1 416 10 13 (54080)
I0226 14:48:25.210845  8074 net.cpp:137] Memory required for data: 108891908
I0226 14:48:25.210850  8074 layer_factory.hpp:77] Creating layer conv2_5
I0226 14:48:25.210861  8074 net.cpp:84] Creating Layer conv2_5
I0226 14:48:25.210865  8074 net.cpp:406] conv2_5 <- conv2_5/bn
I0226 14:48:25.210872  8074 net.cpp:380] conv2_5 -> conv2_5
I0226 14:48:25.218209  8074 net.cpp:122] Setting up conv2_5
I0226 14:48:25.218224  8074 net.cpp:129] Top shape: 1 32 10 13 (4160)
I0226 14:48:25.218227  8074 net.cpp:137] Memory required for data: 108908548
I0226 14:48:25.218233  8074 layer_factory.hpp:77] Creating layer concat2_5
I0226 14:48:25.218241  8074 net.cpp:84] Creating Layer concat2_5
I0226 14:48:25.218245  8074 net.cpp:406] concat2_5 <- concat2_4_concat2_4_0_split_1
I0226 14:48:25.218251  8074 net.cpp:406] concat2_5 <- conv2_5
I0226 14:48:25.218261  8074 net.cpp:380] concat2_5 -> concat2_5
I0226 14:48:25.218299  8074 net.cpp:122] Setting up concat2_5
I0226 14:48:25.218307  8074 net.cpp:129] Top shape: 1 448 10 13 (58240)
I0226 14:48:25.218310  8074 net.cpp:137] Memory required for data: 109141508
I0226 14:48:25.218313  8074 layer_factory.hpp:77] Creating layer concat2_5_concat2_5_0_split
I0226 14:48:25.218318  8074 net.cpp:84] Creating Layer concat2_5_concat2_5_0_split
I0226 14:48:25.218322  8074 net.cpp:406] concat2_5_concat2_5_0_split <- concat2_5
I0226 14:48:25.218327  8074 net.cpp:380] concat2_5_concat2_5_0_split -> concat2_5_concat2_5_0_split_0
I0226 14:48:25.218333  8074 net.cpp:380] concat2_5_concat2_5_0_split -> concat2_5_concat2_5_0_split_1
I0226 14:48:25.218384  8074 net.cpp:122] Setting up concat2_5_concat2_5_0_split
I0226 14:48:25.218389  8074 net.cpp:129] Top shape: 1 448 10 13 (58240)
I0226 14:48:25.218392  8074 net.cpp:129] Top shape: 1 448 10 13 (58240)
I0226 14:48:25.218395  8074 net.cpp:137] Memory required for data: 109607428
I0226 14:48:25.218399  8074 layer_factory.hpp:77] Creating layer conv2_6/bn
I0226 14:48:25.218406  8074 net.cpp:84] Creating Layer conv2_6/bn
I0226 14:48:25.218410  8074 net.cpp:406] conv2_6/bn <- concat2_5_concat2_5_0_split_0
I0226 14:48:25.218415  8074 net.cpp:380] conv2_6/bn -> conv2_6/bn
I0226 14:48:25.218672  8074 net.cpp:122] Setting up conv2_6/bn
I0226 14:48:25.218678  8074 net.cpp:129] Top shape: 1 448 10 13 (58240)
I0226 14:48:25.218681  8074 net.cpp:137] Memory required for data: 109840388
I0226 14:48:25.218693  8074 layer_factory.hpp:77] Creating layer conv2_6/scale
I0226 14:48:25.218699  8074 net.cpp:84] Creating Layer conv2_6/scale
I0226 14:48:25.218703  8074 net.cpp:406] conv2_6/scale <- conv2_6/bn
I0226 14:48:25.218708  8074 net.cpp:367] conv2_6/scale -> conv2_6/bn (in-place)
I0226 14:48:25.218760  8074 layer_factory.hpp:77] Creating layer conv2_6/scale
I0226 14:48:25.218901  8074 net.cpp:122] Setting up conv2_6/scale
I0226 14:48:25.218909  8074 net.cpp:129] Top shape: 1 448 10 13 (58240)
I0226 14:48:25.218912  8074 net.cpp:137] Memory required for data: 110073348
I0226 14:48:25.218917  8074 layer_factory.hpp:77] Creating layer relu2_6
I0226 14:48:25.218924  8074 net.cpp:84] Creating Layer relu2_6
I0226 14:48:25.218927  8074 net.cpp:406] relu2_6 <- conv2_6/bn
I0226 14:48:25.218931  8074 net.cpp:367] relu2_6 -> conv2_6/bn (in-place)
I0226 14:48:25.219163  8074 net.cpp:122] Setting up relu2_6
I0226 14:48:25.219173  8074 net.cpp:129] Top shape: 1 448 10 13 (58240)
I0226 14:48:25.219177  8074 net.cpp:137] Memory required for data: 110306308
I0226 14:48:25.219179  8074 layer_factory.hpp:77] Creating layer conv2_6
I0226 14:48:25.219192  8074 net.cpp:84] Creating Layer conv2_6
I0226 14:48:25.219194  8074 net.cpp:406] conv2_6 <- conv2_6/bn
I0226 14:48:25.219200  8074 net.cpp:380] conv2_6 -> conv2_6
I0226 14:48:25.225493  8074 net.cpp:122] Setting up conv2_6
I0226 14:48:25.225507  8074 net.cpp:129] Top shape: 1 32 10 13 (4160)
I0226 14:48:25.225512  8074 net.cpp:137] Memory required for data: 110322948
I0226 14:48:25.225517  8074 layer_factory.hpp:77] Creating layer concat2_6
I0226 14:48:25.225524  8074 net.cpp:84] Creating Layer concat2_6
I0226 14:48:25.225529  8074 net.cpp:406] concat2_6 <- concat2_5_concat2_5_0_split_1
I0226 14:48:25.225534  8074 net.cpp:406] concat2_6 <- conv2_6
I0226 14:48:25.225544  8074 net.cpp:380] concat2_6 -> concat2_6
I0226 14:48:25.225584  8074 net.cpp:122] Setting up concat2_6
I0226 14:48:25.225591  8074 net.cpp:129] Top shape: 1 480 10 13 (62400)
I0226 14:48:25.225594  8074 net.cpp:137] Memory required for data: 110572548
I0226 14:48:25.225597  8074 layer_factory.hpp:77] Creating layer concat2_6_concat2_6_0_split
I0226 14:48:25.225602  8074 net.cpp:84] Creating Layer concat2_6_concat2_6_0_split
I0226 14:48:25.225606  8074 net.cpp:406] concat2_6_concat2_6_0_split <- concat2_6
I0226 14:48:25.225611  8074 net.cpp:380] concat2_6_concat2_6_0_split -> concat2_6_concat2_6_0_split_0
I0226 14:48:25.225617  8074 net.cpp:380] concat2_6_concat2_6_0_split -> concat2_6_concat2_6_0_split_1
I0226 14:48:25.225663  8074 net.cpp:122] Setting up concat2_6_concat2_6_0_split
I0226 14:48:25.225668  8074 net.cpp:129] Top shape: 1 480 10 13 (62400)
I0226 14:48:25.225672  8074 net.cpp:129] Top shape: 1 480 10 13 (62400)
I0226 14:48:25.225675  8074 net.cpp:137] Memory required for data: 111071748
I0226 14:48:25.225678  8074 layer_factory.hpp:77] Creating layer conv2_7/bn
I0226 14:48:25.225685  8074 net.cpp:84] Creating Layer conv2_7/bn
I0226 14:48:25.225689  8074 net.cpp:406] conv2_7/bn <- concat2_6_concat2_6_0_split_0
I0226 14:48:25.225697  8074 net.cpp:380] conv2_7/bn -> conv2_7/bn
I0226 14:48:25.225955  8074 net.cpp:122] Setting up conv2_7/bn
I0226 14:48:25.225961  8074 net.cpp:129] Top shape: 1 480 10 13 (62400)
I0226 14:48:25.225965  8074 net.cpp:137] Memory required for data: 111321348
I0226 14:48:25.225971  8074 layer_factory.hpp:77] Creating layer conv2_7/scale
I0226 14:48:25.225978  8074 net.cpp:84] Creating Layer conv2_7/scale
I0226 14:48:25.225982  8074 net.cpp:406] conv2_7/scale <- conv2_7/bn
I0226 14:48:25.225987  8074 net.cpp:367] conv2_7/scale -> conv2_7/bn (in-place)
I0226 14:48:25.226039  8074 layer_factory.hpp:77] Creating layer conv2_7/scale
I0226 14:48:25.226192  8074 net.cpp:122] Setting up conv2_7/scale
I0226 14:48:25.226199  8074 net.cpp:129] Top shape: 1 480 10 13 (62400)
I0226 14:48:25.226202  8074 net.cpp:137] Memory required for data: 111570948
I0226 14:48:25.226208  8074 layer_factory.hpp:77] Creating layer relu2_7
I0226 14:48:25.226213  8074 net.cpp:84] Creating Layer relu2_7
I0226 14:48:25.226219  8074 net.cpp:406] relu2_7 <- conv2_7/bn
I0226 14:48:25.226224  8074 net.cpp:367] relu2_7 -> conv2_7/bn (in-place)
I0226 14:48:25.227236  8074 net.cpp:122] Setting up relu2_7
I0226 14:48:25.227249  8074 net.cpp:129] Top shape: 1 480 10 13 (62400)
I0226 14:48:25.227252  8074 net.cpp:137] Memory required for data: 111820548
I0226 14:48:25.227257  8074 layer_factory.hpp:77] Creating layer conv2_7
I0226 14:48:25.227268  8074 net.cpp:84] Creating Layer conv2_7
I0226 14:48:25.227272  8074 net.cpp:406] conv2_7 <- conv2_7/bn
I0226 14:48:25.227280  8074 net.cpp:380] conv2_7 -> conv2_7
I0226 14:48:25.233841  8074 net.cpp:122] Setting up conv2_7
I0226 14:48:25.233856  8074 net.cpp:129] Top shape: 1 32 10 13 (4160)
I0226 14:48:25.233860  8074 net.cpp:137] Memory required for data: 111837188
I0226 14:48:25.233866  8074 layer_factory.hpp:77] Creating layer concat2_7
I0226 14:48:25.233876  8074 net.cpp:84] Creating Layer concat2_7
I0226 14:48:25.233880  8074 net.cpp:406] concat2_7 <- concat2_6_concat2_6_0_split_1
I0226 14:48:25.233886  8074 net.cpp:406] concat2_7 <- conv2_7
I0226 14:48:25.233891  8074 net.cpp:380] concat2_7 -> concat2_7
I0226 14:48:25.233929  8074 net.cpp:122] Setting up concat2_7
I0226 14:48:25.233935  8074 net.cpp:129] Top shape: 1 512 10 13 (66560)
I0226 14:48:25.233938  8074 net.cpp:137] Memory required for data: 112103428
I0226 14:48:25.233942  8074 layer_factory.hpp:77] Creating layer concat2_7_concat2_7_0_split
I0226 14:48:25.233949  8074 net.cpp:84] Creating Layer concat2_7_concat2_7_0_split
I0226 14:48:25.233952  8074 net.cpp:406] concat2_7_concat2_7_0_split <- concat2_7
I0226 14:48:25.233959  8074 net.cpp:380] concat2_7_concat2_7_0_split -> concat2_7_concat2_7_0_split_0
I0226 14:48:25.233965  8074 net.cpp:380] concat2_7_concat2_7_0_split -> concat2_7_concat2_7_0_split_1
I0226 14:48:25.234010  8074 net.cpp:122] Setting up concat2_7_concat2_7_0_split
I0226 14:48:25.234015  8074 net.cpp:129] Top shape: 1 512 10 13 (66560)
I0226 14:48:25.234019  8074 net.cpp:129] Top shape: 1 512 10 13 (66560)
I0226 14:48:25.234022  8074 net.cpp:137] Memory required for data: 112635908
I0226 14:48:25.234025  8074 layer_factory.hpp:77] Creating layer conv2_8/bn
I0226 14:48:25.234033  8074 net.cpp:84] Creating Layer conv2_8/bn
I0226 14:48:25.234036  8074 net.cpp:406] conv2_8/bn <- concat2_7_concat2_7_0_split_0
I0226 14:48:25.234041  8074 net.cpp:380] conv2_8/bn -> conv2_8/bn
I0226 14:48:25.234295  8074 net.cpp:122] Setting up conv2_8/bn
I0226 14:48:25.234302  8074 net.cpp:129] Top shape: 1 512 10 13 (66560)
I0226 14:48:25.234304  8074 net.cpp:137] Memory required for data: 112902148
I0226 14:48:25.234313  8074 layer_factory.hpp:77] Creating layer conv2_8/scale
I0226 14:48:25.234321  8074 net.cpp:84] Creating Layer conv2_8/scale
I0226 14:48:25.234325  8074 net.cpp:406] conv2_8/scale <- conv2_8/bn
I0226 14:48:25.234330  8074 net.cpp:367] conv2_8/scale -> conv2_8/bn (in-place)
I0226 14:48:25.234375  8074 layer_factory.hpp:77] Creating layer conv2_8/scale
I0226 14:48:25.234515  8074 net.cpp:122] Setting up conv2_8/scale
I0226 14:48:25.234522  8074 net.cpp:129] Top shape: 1 512 10 13 (66560)
I0226 14:48:25.234525  8074 net.cpp:137] Memory required for data: 113168388
I0226 14:48:25.234531  8074 layer_factory.hpp:77] Creating layer relu2_8
I0226 14:48:25.234537  8074 net.cpp:84] Creating Layer relu2_8
I0226 14:48:25.234540  8074 net.cpp:406] relu2_8 <- conv2_8/bn
I0226 14:48:25.234547  8074 net.cpp:367] relu2_8 -> conv2_8/bn (in-place)
I0226 14:48:25.234776  8074 net.cpp:122] Setting up relu2_8
I0226 14:48:25.234786  8074 net.cpp:129] Top shape: 1 512 10 13 (66560)
I0226 14:48:25.234788  8074 net.cpp:137] Memory required for data: 113434628
I0226 14:48:25.234792  8074 layer_factory.hpp:77] Creating layer conv2_8
I0226 14:48:25.234803  8074 net.cpp:84] Creating Layer conv2_8
I0226 14:48:25.234807  8074 net.cpp:406] conv2_8 <- conv2_8/bn
I0226 14:48:25.234814  8074 net.cpp:380] conv2_8 -> conv2_8
I0226 14:48:25.242993  8074 net.cpp:122] Setting up conv2_8
I0226 14:48:25.243007  8074 net.cpp:129] Top shape: 1 32 10 13 (4160)
I0226 14:48:25.243014  8074 net.cpp:137] Memory required for data: 113451268
I0226 14:48:25.243021  8074 layer_factory.hpp:77] Creating layer concat2_8
I0226 14:48:25.243029  8074 net.cpp:84] Creating Layer concat2_8
I0226 14:48:25.243033  8074 net.cpp:406] concat2_8 <- concat2_7_concat2_7_0_split_1
I0226 14:48:25.243039  8074 net.cpp:406] concat2_8 <- conv2_8
I0226 14:48:25.243044  8074 net.cpp:380] concat2_8 -> concat2_8
I0226 14:48:25.243085  8074 net.cpp:122] Setting up concat2_8
I0226 14:48:25.243091  8074 net.cpp:129] Top shape: 1 544 10 13 (70720)
I0226 14:48:25.243094  8074 net.cpp:137] Memory required for data: 113734148
I0226 14:48:25.243098  8074 layer_factory.hpp:77] Creating layer concat2_8_concat2_8_0_split
I0226 14:48:25.243105  8074 net.cpp:84] Creating Layer concat2_8_concat2_8_0_split
I0226 14:48:25.243108  8074 net.cpp:406] concat2_8_concat2_8_0_split <- concat2_8
I0226 14:48:25.243113  8074 net.cpp:380] concat2_8_concat2_8_0_split -> concat2_8_concat2_8_0_split_0
I0226 14:48:25.243119  8074 net.cpp:380] concat2_8_concat2_8_0_split -> concat2_8_concat2_8_0_split_1
I0226 14:48:25.243166  8074 net.cpp:122] Setting up concat2_8_concat2_8_0_split
I0226 14:48:25.243172  8074 net.cpp:129] Top shape: 1 544 10 13 (70720)
I0226 14:48:25.243176  8074 net.cpp:129] Top shape: 1 544 10 13 (70720)
I0226 14:48:25.243180  8074 net.cpp:137] Memory required for data: 114299908
I0226 14:48:25.243182  8074 layer_factory.hpp:77] Creating layer conv2_9/bn
I0226 14:48:25.243187  8074 net.cpp:84] Creating Layer conv2_9/bn
I0226 14:48:25.243191  8074 net.cpp:406] conv2_9/bn <- concat2_8_concat2_8_0_split_0
I0226 14:48:25.243197  8074 net.cpp:380] conv2_9/bn -> conv2_9/bn
I0226 14:48:25.243453  8074 net.cpp:122] Setting up conv2_9/bn
I0226 14:48:25.243460  8074 net.cpp:129] Top shape: 1 544 10 13 (70720)
I0226 14:48:25.243463  8074 net.cpp:137] Memory required for data: 114582788
I0226 14:48:25.243470  8074 layer_factory.hpp:77] Creating layer conv2_9/scale
I0226 14:48:25.243481  8074 net.cpp:84] Creating Layer conv2_9/scale
I0226 14:48:25.243485  8074 net.cpp:406] conv2_9/scale <- conv2_9/bn
I0226 14:48:25.243490  8074 net.cpp:367] conv2_9/scale -> conv2_9/bn (in-place)
I0226 14:48:25.243541  8074 layer_factory.hpp:77] Creating layer conv2_9/scale
I0226 14:48:25.243687  8074 net.cpp:122] Setting up conv2_9/scale
I0226 14:48:25.243695  8074 net.cpp:129] Top shape: 1 544 10 13 (70720)
I0226 14:48:25.243697  8074 net.cpp:137] Memory required for data: 114865668
I0226 14:48:25.243703  8074 layer_factory.hpp:77] Creating layer relu2_9
I0226 14:48:25.243708  8074 net.cpp:84] Creating Layer relu2_9
I0226 14:48:25.243712  8074 net.cpp:406] relu2_9 <- conv2_9/bn
I0226 14:48:25.243718  8074 net.cpp:367] relu2_9 -> conv2_9/bn (in-place)
I0226 14:48:25.243948  8074 net.cpp:122] Setting up relu2_9
I0226 14:48:25.243957  8074 net.cpp:129] Top shape: 1 544 10 13 (70720)
I0226 14:48:25.243959  8074 net.cpp:137] Memory required for data: 115148548
I0226 14:48:25.243963  8074 layer_factory.hpp:77] Creating layer conv2_9
I0226 14:48:25.243973  8074 net.cpp:84] Creating Layer conv2_9
I0226 14:48:25.243978  8074 net.cpp:406] conv2_9 <- conv2_9/bn
I0226 14:48:25.243986  8074 net.cpp:380] conv2_9 -> conv2_9
I0226 14:48:25.251940  8074 net.cpp:122] Setting up conv2_9
I0226 14:48:25.251955  8074 net.cpp:129] Top shape: 1 32 10 13 (4160)
I0226 14:48:25.251957  8074 net.cpp:137] Memory required for data: 115165188
I0226 14:48:25.251965  8074 layer_factory.hpp:77] Creating layer concat2_9
I0226 14:48:25.251973  8074 net.cpp:84] Creating Layer concat2_9
I0226 14:48:25.251978  8074 net.cpp:406] concat2_9 <- concat2_8_concat2_8_0_split_1
I0226 14:48:25.251983  8074 net.cpp:406] concat2_9 <- conv2_9
I0226 14:48:25.251988  8074 net.cpp:380] concat2_9 -> concat2_9
I0226 14:48:25.252029  8074 net.cpp:122] Setting up concat2_9
I0226 14:48:25.252037  8074 net.cpp:129] Top shape: 1 576 10 13 (74880)
I0226 14:48:25.252039  8074 net.cpp:137] Memory required for data: 115464708
I0226 14:48:25.252043  8074 layer_factory.hpp:77] Creating layer concat2_9_concat2_9_0_split
I0226 14:48:25.252051  8074 net.cpp:84] Creating Layer concat2_9_concat2_9_0_split
I0226 14:48:25.252055  8074 net.cpp:406] concat2_9_concat2_9_0_split <- concat2_9
I0226 14:48:25.252063  8074 net.cpp:380] concat2_9_concat2_9_0_split -> concat2_9_concat2_9_0_split_0
I0226 14:48:25.252069  8074 net.cpp:380] concat2_9_concat2_9_0_split -> concat2_9_concat2_9_0_split_1
I0226 14:48:25.252116  8074 net.cpp:122] Setting up concat2_9_concat2_9_0_split
I0226 14:48:25.252121  8074 net.cpp:129] Top shape: 1 576 10 13 (74880)
I0226 14:48:25.252125  8074 net.cpp:129] Top shape: 1 576 10 13 (74880)
I0226 14:48:25.252128  8074 net.cpp:137] Memory required for data: 116063748
I0226 14:48:25.252131  8074 layer_factory.hpp:77] Creating layer conv2_10/bn
I0226 14:48:25.252140  8074 net.cpp:84] Creating Layer conv2_10/bn
I0226 14:48:25.252143  8074 net.cpp:406] conv2_10/bn <- concat2_9_concat2_9_0_split_0
I0226 14:48:25.252151  8074 net.cpp:380] conv2_10/bn -> conv2_10/bn
I0226 14:48:25.252439  8074 net.cpp:122] Setting up conv2_10/bn
I0226 14:48:25.252447  8074 net.cpp:129] Top shape: 1 576 10 13 (74880)
I0226 14:48:25.252450  8074 net.cpp:137] Memory required for data: 116363268
I0226 14:48:25.252457  8074 layer_factory.hpp:77] Creating layer conv2_10/scale
I0226 14:48:25.252465  8074 net.cpp:84] Creating Layer conv2_10/scale
I0226 14:48:25.252470  8074 net.cpp:406] conv2_10/scale <- conv2_10/bn
I0226 14:48:25.252475  8074 net.cpp:367] conv2_10/scale -> conv2_10/bn (in-place)
I0226 14:48:25.252528  8074 layer_factory.hpp:77] Creating layer conv2_10/scale
I0226 14:48:25.252679  8074 net.cpp:122] Setting up conv2_10/scale
I0226 14:48:25.252687  8074 net.cpp:129] Top shape: 1 576 10 13 (74880)
I0226 14:48:25.252691  8074 net.cpp:137] Memory required for data: 116662788
I0226 14:48:25.252696  8074 layer_factory.hpp:77] Creating layer relu2_10
I0226 14:48:25.252702  8074 net.cpp:84] Creating Layer relu2_10
I0226 14:48:25.252705  8074 net.cpp:406] relu2_10 <- conv2_10/bn
I0226 14:48:25.252712  8074 net.cpp:367] relu2_10 -> conv2_10/bn (in-place)
I0226 14:48:25.253752  8074 net.cpp:122] Setting up relu2_10
I0226 14:48:25.253765  8074 net.cpp:129] Top shape: 1 576 10 13 (74880)
I0226 14:48:25.253769  8074 net.cpp:137] Memory required for data: 116962308
I0226 14:48:25.253773  8074 layer_factory.hpp:77] Creating layer conv2_10
I0226 14:48:25.253787  8074 net.cpp:84] Creating Layer conv2_10
I0226 14:48:25.253790  8074 net.cpp:406] conv2_10 <- conv2_10/bn
I0226 14:48:25.253796  8074 net.cpp:380] conv2_10 -> conv2_10
I0226 14:48:25.261154  8074 net.cpp:122] Setting up conv2_10
I0226 14:48:25.261170  8074 net.cpp:129] Top shape: 1 32 10 13 (4160)
I0226 14:48:25.261174  8074 net.cpp:137] Memory required for data: 116978948
I0226 14:48:25.261180  8074 layer_factory.hpp:77] Creating layer concat2_10
I0226 14:48:25.261188  8074 net.cpp:84] Creating Layer concat2_10
I0226 14:48:25.261193  8074 net.cpp:406] concat2_10 <- concat2_9_concat2_9_0_split_1
I0226 14:48:25.261198  8074 net.cpp:406] concat2_10 <- conv2_10
I0226 14:48:25.261204  8074 net.cpp:380] concat2_10 -> concat2_10
I0226 14:48:25.261245  8074 net.cpp:122] Setting up concat2_10
I0226 14:48:25.261251  8074 net.cpp:129] Top shape: 1 608 10 13 (79040)
I0226 14:48:25.261255  8074 net.cpp:137] Memory required for data: 117295108
I0226 14:48:25.261257  8074 layer_factory.hpp:77] Creating layer concat2_10_concat2_10_0_split
I0226 14:48:25.261265  8074 net.cpp:84] Creating Layer concat2_10_concat2_10_0_split
I0226 14:48:25.261268  8074 net.cpp:406] concat2_10_concat2_10_0_split <- concat2_10
I0226 14:48:25.261273  8074 net.cpp:380] concat2_10_concat2_10_0_split -> concat2_10_concat2_10_0_split_0
I0226 14:48:25.261279  8074 net.cpp:380] concat2_10_concat2_10_0_split -> concat2_10_concat2_10_0_split_1
I0226 14:48:25.261327  8074 net.cpp:122] Setting up concat2_10_concat2_10_0_split
I0226 14:48:25.261332  8074 net.cpp:129] Top shape: 1 608 10 13 (79040)
I0226 14:48:25.261335  8074 net.cpp:129] Top shape: 1 608 10 13 (79040)
I0226 14:48:25.261338  8074 net.cpp:137] Memory required for data: 117927428
I0226 14:48:25.261345  8074 layer_factory.hpp:77] Creating layer conv2_11/bn
I0226 14:48:25.261351  8074 net.cpp:84] Creating Layer conv2_11/bn
I0226 14:48:25.261355  8074 net.cpp:406] conv2_11/bn <- concat2_10_concat2_10_0_split_0
I0226 14:48:25.261363  8074 net.cpp:380] conv2_11/bn -> conv2_11/bn
I0226 14:48:25.261631  8074 net.cpp:122] Setting up conv2_11/bn
I0226 14:48:25.261637  8074 net.cpp:129] Top shape: 1 608 10 13 (79040)
I0226 14:48:25.261641  8074 net.cpp:137] Memory required for data: 118243588
I0226 14:48:25.261648  8074 layer_factory.hpp:77] Creating layer conv2_11/scale
I0226 14:48:25.261654  8074 net.cpp:84] Creating Layer conv2_11/scale
I0226 14:48:25.261658  8074 net.cpp:406] conv2_11/scale <- conv2_11/bn
I0226 14:48:25.261663  8074 net.cpp:367] conv2_11/scale -> conv2_11/bn (in-place)
I0226 14:48:25.261716  8074 layer_factory.hpp:77] Creating layer conv2_11/scale
I0226 14:48:25.261860  8074 net.cpp:122] Setting up conv2_11/scale
I0226 14:48:25.261868  8074 net.cpp:129] Top shape: 1 608 10 13 (79040)
I0226 14:48:25.261870  8074 net.cpp:137] Memory required for data: 118559748
I0226 14:48:25.261875  8074 layer_factory.hpp:77] Creating layer relu2_11
I0226 14:48:25.261883  8074 net.cpp:84] Creating Layer relu2_11
I0226 14:48:25.261888  8074 net.cpp:406] relu2_11 <- conv2_11/bn
I0226 14:48:25.261891  8074 net.cpp:367] relu2_11 -> conv2_11/bn (in-place)
I0226 14:48:25.262123  8074 net.cpp:122] Setting up relu2_11
I0226 14:48:25.262131  8074 net.cpp:129] Top shape: 1 608 10 13 (79040)
I0226 14:48:25.262135  8074 net.cpp:137] Memory required for data: 118875908
I0226 14:48:25.262138  8074 layer_factory.hpp:77] Creating layer conv2_11
I0226 14:48:25.262151  8074 net.cpp:84] Creating Layer conv2_11
I0226 14:48:25.262156  8074 net.cpp:406] conv2_11 <- conv2_11/bn
I0226 14:48:25.262161  8074 net.cpp:380] conv2_11 -> conv2_11
I0226 14:48:25.271117  8074 net.cpp:122] Setting up conv2_11
I0226 14:48:25.271132  8074 net.cpp:129] Top shape: 1 32 10 13 (4160)
I0226 14:48:25.271136  8074 net.cpp:137] Memory required for data: 118892548
I0226 14:48:25.271142  8074 layer_factory.hpp:77] Creating layer concat2_11
I0226 14:48:25.271149  8074 net.cpp:84] Creating Layer concat2_11
I0226 14:48:25.271153  8074 net.cpp:406] concat2_11 <- concat2_10_concat2_10_0_split_1
I0226 14:48:25.271158  8074 net.cpp:406] concat2_11 <- conv2_11
I0226 14:48:25.271167  8074 net.cpp:380] concat2_11 -> concat2_11
I0226 14:48:25.271205  8074 net.cpp:122] Setting up concat2_11
I0226 14:48:25.271212  8074 net.cpp:129] Top shape: 1 640 10 13 (83200)
I0226 14:48:25.271215  8074 net.cpp:137] Memory required for data: 119225348
I0226 14:48:25.271219  8074 layer_factory.hpp:77] Creating layer concat2_11_concat2_11_0_split
I0226 14:48:25.271225  8074 net.cpp:84] Creating Layer concat2_11_concat2_11_0_split
I0226 14:48:25.271229  8074 net.cpp:406] concat2_11_concat2_11_0_split <- concat2_11
I0226 14:48:25.271234  8074 net.cpp:380] concat2_11_concat2_11_0_split -> concat2_11_concat2_11_0_split_0
I0226 14:48:25.271241  8074 net.cpp:380] concat2_11_concat2_11_0_split -> concat2_11_concat2_11_0_split_1
I0226 14:48:25.271289  8074 net.cpp:122] Setting up concat2_11_concat2_11_0_split
I0226 14:48:25.271296  8074 net.cpp:129] Top shape: 1 640 10 13 (83200)
I0226 14:48:25.271299  8074 net.cpp:129] Top shape: 1 640 10 13 (83200)
I0226 14:48:25.271302  8074 net.cpp:137] Memory required for data: 119890948
I0226 14:48:25.271306  8074 layer_factory.hpp:77] Creating layer conv2_12/bn
I0226 14:48:25.271313  8074 net.cpp:84] Creating Layer conv2_12/bn
I0226 14:48:25.271317  8074 net.cpp:406] conv2_12/bn <- concat2_11_concat2_11_0_split_0
I0226 14:48:25.271322  8074 net.cpp:380] conv2_12/bn -> conv2_12/bn
I0226 14:48:25.271580  8074 net.cpp:122] Setting up conv2_12/bn
I0226 14:48:25.271587  8074 net.cpp:129] Top shape: 1 640 10 13 (83200)
I0226 14:48:25.271590  8074 net.cpp:137] Memory required for data: 120223748
I0226 14:48:25.271598  8074 layer_factory.hpp:77] Creating layer conv2_12/scale
I0226 14:48:25.271605  8074 net.cpp:84] Creating Layer conv2_12/scale
I0226 14:48:25.271611  8074 net.cpp:406] conv2_12/scale <- conv2_12/bn
I0226 14:48:25.271618  8074 net.cpp:367] conv2_12/scale -> conv2_12/bn (in-place)
I0226 14:48:25.271667  8074 layer_factory.hpp:77] Creating layer conv2_12/scale
I0226 14:48:25.271807  8074 net.cpp:122] Setting up conv2_12/scale
I0226 14:48:25.271814  8074 net.cpp:129] Top shape: 1 640 10 13 (83200)
I0226 14:48:25.271817  8074 net.cpp:137] Memory required for data: 120556548
I0226 14:48:25.271823  8074 layer_factory.hpp:77] Creating layer relu2_12
I0226 14:48:25.271829  8074 net.cpp:84] Creating Layer relu2_12
I0226 14:48:25.271832  8074 net.cpp:406] relu2_12 <- conv2_12/bn
I0226 14:48:25.271837  8074 net.cpp:367] relu2_12 -> conv2_12/bn (in-place)
I0226 14:48:25.272076  8074 net.cpp:122] Setting up relu2_12
I0226 14:48:25.272084  8074 net.cpp:129] Top shape: 1 640 10 13 (83200)
I0226 14:48:25.272087  8074 net.cpp:137] Memory required for data: 120889348
I0226 14:48:25.272090  8074 layer_factory.hpp:77] Creating layer conv2_12
I0226 14:48:25.272101  8074 net.cpp:84] Creating Layer conv2_12
I0226 14:48:25.272105  8074 net.cpp:406] conv2_12 <- conv2_12/bn
I0226 14:48:25.272114  8074 net.cpp:380] conv2_12 -> conv2_12
I0226 14:48:25.279997  8074 net.cpp:122] Setting up conv2_12
I0226 14:48:25.280011  8074 net.cpp:129] Top shape: 1 32 10 13 (4160)
I0226 14:48:25.280015  8074 net.cpp:137] Memory required for data: 120905988
I0226 14:48:25.280021  8074 layer_factory.hpp:77] Creating layer concat2_12
I0226 14:48:25.280031  8074 net.cpp:84] Creating Layer concat2_12
I0226 14:48:25.280035  8074 net.cpp:406] concat2_12 <- concat2_11_concat2_11_0_split_1
I0226 14:48:25.280041  8074 net.cpp:406] concat2_12 <- conv2_12
I0226 14:48:25.280046  8074 net.cpp:380] concat2_12 -> concat2_12
I0226 14:48:25.280086  8074 net.cpp:122] Setting up concat2_12
I0226 14:48:25.280093  8074 net.cpp:129] Top shape: 1 672 10 13 (87360)
I0226 14:48:25.280097  8074 net.cpp:137] Memory required for data: 121255428
I0226 14:48:25.280099  8074 layer_factory.hpp:77] Creating layer concat2_12_concat2_12_0_split
I0226 14:48:25.280104  8074 net.cpp:84] Creating Layer concat2_12_concat2_12_0_split
I0226 14:48:25.280108  8074 net.cpp:406] concat2_12_concat2_12_0_split <- concat2_12
I0226 14:48:25.280115  8074 net.cpp:380] concat2_12_concat2_12_0_split -> concat2_12_concat2_12_0_split_0
I0226 14:48:25.280122  8074 net.cpp:380] concat2_12_concat2_12_0_split -> concat2_12_concat2_12_0_split_1
I0226 14:48:25.280166  8074 net.cpp:122] Setting up concat2_12_concat2_12_0_split
I0226 14:48:25.280172  8074 net.cpp:129] Top shape: 1 672 10 13 (87360)
I0226 14:48:25.280176  8074 net.cpp:129] Top shape: 1 672 10 13 (87360)
I0226 14:48:25.280179  8074 net.cpp:137] Memory required for data: 121954308
I0226 14:48:25.280182  8074 layer_factory.hpp:77] Creating layer conv2_13/bn
I0226 14:48:25.280191  8074 net.cpp:84] Creating Layer conv2_13/bn
I0226 14:48:25.280195  8074 net.cpp:406] conv2_13/bn <- concat2_12_concat2_12_0_split_0
I0226 14:48:25.280200  8074 net.cpp:380] conv2_13/bn -> conv2_13/bn
I0226 14:48:25.280458  8074 net.cpp:122] Setting up conv2_13/bn
I0226 14:48:25.280465  8074 net.cpp:129] Top shape: 1 672 10 13 (87360)
I0226 14:48:25.280468  8074 net.cpp:137] Memory required for data: 122303748
I0226 14:48:25.280477  8074 layer_factory.hpp:77] Creating layer conv2_13/scale
I0226 14:48:25.280483  8074 net.cpp:84] Creating Layer conv2_13/scale
I0226 14:48:25.280486  8074 net.cpp:406] conv2_13/scale <- conv2_13/bn
I0226 14:48:25.280493  8074 net.cpp:367] conv2_13/scale -> conv2_13/bn (in-place)
I0226 14:48:25.280545  8074 layer_factory.hpp:77] Creating layer conv2_13/scale
I0226 14:48:25.280701  8074 net.cpp:122] Setting up conv2_13/scale
I0226 14:48:25.280709  8074 net.cpp:129] Top shape: 1 672 10 13 (87360)
I0226 14:48:25.280711  8074 net.cpp:137] Memory required for data: 122653188
I0226 14:48:25.280719  8074 layer_factory.hpp:77] Creating layer relu2_13
I0226 14:48:25.280725  8074 net.cpp:84] Creating Layer relu2_13
I0226 14:48:25.280727  8074 net.cpp:406] relu2_13 <- conv2_13/bn
I0226 14:48:25.280735  8074 net.cpp:367] relu2_13 -> conv2_13/bn (in-place)
I0226 14:48:25.281778  8074 net.cpp:122] Setting up relu2_13
I0226 14:48:25.281791  8074 net.cpp:129] Top shape: 1 672 10 13 (87360)
I0226 14:48:25.281795  8074 net.cpp:137] Memory required for data: 123002628
I0226 14:48:25.281800  8074 layer_factory.hpp:77] Creating layer conv2_13
I0226 14:48:25.281810  8074 net.cpp:84] Creating Layer conv2_13
I0226 14:48:25.281816  8074 net.cpp:406] conv2_13 <- conv2_13/bn
I0226 14:48:25.281823  8074 net.cpp:380] conv2_13 -> conv2_13
I0226 14:48:25.291314  8074 net.cpp:122] Setting up conv2_13
I0226 14:48:25.291329  8074 net.cpp:129] Top shape: 1 32 10 13 (4160)
I0226 14:48:25.291333  8074 net.cpp:137] Memory required for data: 123019268
I0226 14:48:25.291342  8074 layer_factory.hpp:77] Creating layer concat2_13
I0226 14:48:25.291348  8074 net.cpp:84] Creating Layer concat2_13
I0226 14:48:25.291353  8074 net.cpp:406] concat2_13 <- concat2_12_concat2_12_0_split_1
I0226 14:48:25.291358  8074 net.cpp:406] concat2_13 <- conv2_13
I0226 14:48:25.291366  8074 net.cpp:380] concat2_13 -> concat2_13
I0226 14:48:25.291405  8074 net.cpp:122] Setting up concat2_13
I0226 14:48:25.291411  8074 net.cpp:129] Top shape: 1 704 10 13 (91520)
I0226 14:48:25.291414  8074 net.cpp:137] Memory required for data: 123385348
I0226 14:48:25.291417  8074 layer_factory.hpp:77] Creating layer concat2_13_concat2_13_0_split
I0226 14:48:25.291424  8074 net.cpp:84] Creating Layer concat2_13_concat2_13_0_split
I0226 14:48:25.291426  8074 net.cpp:406] concat2_13_concat2_13_0_split <- concat2_13
I0226 14:48:25.291434  8074 net.cpp:380] concat2_13_concat2_13_0_split -> concat2_13_concat2_13_0_split_0
I0226 14:48:25.291440  8074 net.cpp:380] concat2_13_concat2_13_0_split -> concat2_13_concat2_13_0_split_1
I0226 14:48:25.291488  8074 net.cpp:122] Setting up concat2_13_concat2_13_0_split
I0226 14:48:25.291494  8074 net.cpp:129] Top shape: 1 704 10 13 (91520)
I0226 14:48:25.291498  8074 net.cpp:129] Top shape: 1 704 10 13 (91520)
I0226 14:48:25.291501  8074 net.cpp:137] Memory required for data: 124117508
I0226 14:48:25.291504  8074 layer_factory.hpp:77] Creating layer conv2_14/bn
I0226 14:48:25.291512  8074 net.cpp:84] Creating Layer conv2_14/bn
I0226 14:48:25.291515  8074 net.cpp:406] conv2_14/bn <- concat2_13_concat2_13_0_split_0
I0226 14:48:25.291520  8074 net.cpp:380] conv2_14/bn -> conv2_14/bn
I0226 14:48:25.291787  8074 net.cpp:122] Setting up conv2_14/bn
I0226 14:48:25.291795  8074 net.cpp:129] Top shape: 1 704 10 13 (91520)
I0226 14:48:25.291797  8074 net.cpp:137] Memory required for data: 124483588
I0226 14:48:25.291805  8074 layer_factory.hpp:77] Creating layer conv2_14/scale
I0226 14:48:25.291811  8074 net.cpp:84] Creating Layer conv2_14/scale
I0226 14:48:25.291815  8074 net.cpp:406] conv2_14/scale <- conv2_14/bn
I0226 14:48:25.291821  8074 net.cpp:367] conv2_14/scale -> conv2_14/bn (in-place)
I0226 14:48:25.291879  8074 layer_factory.hpp:77] Creating layer conv2_14/scale
I0226 14:48:25.292031  8074 net.cpp:122] Setting up conv2_14/scale
I0226 14:48:25.292037  8074 net.cpp:129] Top shape: 1 704 10 13 (91520)
I0226 14:48:25.292039  8074 net.cpp:137] Memory required for data: 124849668
I0226 14:48:25.292045  8074 layer_factory.hpp:77] Creating layer relu2_14
I0226 14:48:25.292052  8074 net.cpp:84] Creating Layer relu2_14
I0226 14:48:25.292054  8074 net.cpp:406] relu2_14 <- conv2_14/bn
I0226 14:48:25.292060  8074 net.cpp:367] relu2_14 -> conv2_14/bn (in-place)
I0226 14:48:25.292291  8074 net.cpp:122] Setting up relu2_14
I0226 14:48:25.292300  8074 net.cpp:129] Top shape: 1 704 10 13 (91520)
I0226 14:48:25.292304  8074 net.cpp:137] Memory required for data: 125215748
I0226 14:48:25.292307  8074 layer_factory.hpp:77] Creating layer conv2_14
I0226 14:48:25.292318  8074 net.cpp:84] Creating Layer conv2_14
I0226 14:48:25.292322  8074 net.cpp:406] conv2_14 <- conv2_14/bn
I0226 14:48:25.292328  8074 net.cpp:380] conv2_14 -> conv2_14
I0226 14:48:25.300774  8074 net.cpp:122] Setting up conv2_14
I0226 14:48:25.300791  8074 net.cpp:129] Top shape: 1 32 10 13 (4160)
I0226 14:48:25.300794  8074 net.cpp:137] Memory required for data: 125232388
I0226 14:48:25.300803  8074 layer_factory.hpp:77] Creating layer concat2_14
I0226 14:48:25.300810  8074 net.cpp:84] Creating Layer concat2_14
I0226 14:48:25.300815  8074 net.cpp:406] concat2_14 <- concat2_13_concat2_13_0_split_1
I0226 14:48:25.300820  8074 net.cpp:406] concat2_14 <- conv2_14
I0226 14:48:25.300828  8074 net.cpp:380] concat2_14 -> concat2_14
I0226 14:48:25.300869  8074 net.cpp:122] Setting up concat2_14
I0226 14:48:25.300875  8074 net.cpp:129] Top shape: 1 736 10 13 (95680)
…
I0226 14:48:26.823599  8074 net.cpp:137] Memory required for data: 44798432
I0226 14:48:26.823606  8074 layer_factory.hpp:77] Creating layer conv3_2/scale
I0226 14:48:26.823612  8074 net.cpp:84] Creating Layer conv3_2/scale
I0226 14:48:26.823616  8074 net.cpp:406] conv3_2/scale <- conv3_2/bn
I0226 14:48:26.823621  8074 net.cpp:367] conv3_2/scale -> conv3_2/bn (in-place)
I0226 14:48:26.823685  8074 layer_factory.hpp:77] Creating layer conv3_2/scale
I0226 14:48:26.823839  8074 net.cpp:122] Setting up conv3_2/scale
I0226 14:48:26.823848  8074 net.cpp:129] Top shape: 1 576 3 3 (5184)
I0226 14:48:26.823851  8074 net.cpp:137] Memory required for data: 44819168
I0226 14:48:26.823860  8074 layer_factory.hpp:77] Creating layer relu3_2
I0226 14:48:26.823866  8074 net.cpp:84] Creating Layer relu3_2
I0226 14:48:26.823870  8074 net.cpp:406] relu3_2 <- conv3_2/bn
I0226 14:48:26.823874  8074 net.cpp:367] relu3_2 -> conv3_2/bn (in-place)
I0226 14:48:26.825052  8074 net.cpp:122] Setting up relu3_2
I0226 14:48:26.825065  8074 net.cpp:129] Top shape: 1 576 3 3 (5184)
I0226 14:48:26.825068  8074 net.cpp:137] Memory required for data: 44839904
I0226 14:48:26.825073  8074 layer_factory.hpp:77] Creating layer conv3_2
I0226 14:48:26.825083  8074 net.cpp:84] Creating Layer conv3_2
I0226 14:48:26.825088  8074 net.cpp:406] conv3_2 <- conv3_2/bn
I0226 14:48:26.825094  8074 net.cpp:380] conv3_2 -> conv3_2
I0226 14:48:26.832725  8074 net.cpp:122] Setting up conv3_2
I0226 14:48:26.832739  8074 net.cpp:129] Top shape: 1 32 3 3 (288)
I0226 14:48:26.832742  8074 net.cpp:137] Memory required for data: 44841056
I0226 14:48:26.832749  8074 layer_factory.hpp:77] Creating layer concat3_2
I0226 14:48:26.832756  8074 net.cpp:84] Creating Layer concat3_2
I0226 14:48:26.832762  8074 net.cpp:406] concat3_2 <- concat3_1_concat3_1_0_split_1
I0226 14:48:26.832767  8074 net.cpp:406] concat3_2 <- conv3_2
I0226 14:48:26.832773  8074 net.cpp:380] concat3_2 -> concat3_2
I0226 14:48:26.832808  8074 net.cpp:122] Setting up concat3_2
I0226 14:48:26.832814  8074 net.cpp:129] Top shape: 1 608 3 3 (5472)
I0226 14:48:26.832818  8074 net.cpp:137] Memory required for data: 44862944
I0226 14:48:26.832820  8074 layer_factory.hpp:77] Creating layer concat3_2_concat3_2_0_split
I0226 14:48:26.832828  8074 net.cpp:84] Creating Layer concat3_2_concat3_2_0_split
I0226 14:48:26.832831  8074 net.cpp:406] concat3_2_concat3_2_0_split <- concat3_2
I0226 14:48:26.832836  8074 net.cpp:380] concat3_2_concat3_2_0_split -> concat3_2_concat3_2_0_split_0
I0226 14:48:26.832844  8074 net.cpp:380] concat3_2_concat3_2_0_split -> concat3_2_concat3_2_0_split_1
I0226 14:48:26.832885  8074 net.cpp:122] Setting up concat3_2_concat3_2_0_split
I0226 14:48:26.832890  8074 net.cpp:129] Top shape: 1 608 3 3 (5472)
I0226 14:48:26.832895  8074 net.cpp:129] Top shape: 1 608 3 3 (5472)
I0226 14:48:26.832897  8074 net.cpp:137] Memory required for data: 44906720
I0226 14:48:26.832901  8074 layer_factory.hpp:77] Creating layer conv3_3/bn
I0226 14:48:26.832907  8074 net.cpp:84] Creating Layer conv3_3/bn
I0226 14:48:26.832911  8074 net.cpp:406] conv3_3/bn <- concat3_2_concat3_2_0_split_0
I0226 14:48:26.832916  8074 net.cpp:380] conv3_3/bn -> conv3_3/bn
I0226 14:48:26.833201  8074 net.cpp:122] Setting up conv3_3/bn
I0226 14:48:26.833209  8074 net.cpp:129] Top shape: 1 608 3 3 (5472)
I0226 14:48:26.833212  8074 net.cpp:137] Memory required for data: 44928608
I0226 14:48:26.833220  8074 layer_factory.hpp:77] Creating layer conv3_3/scale
I0226 14:48:26.833228  8074 net.cpp:84] Creating Layer conv3_3/scale
I0226 14:48:26.833232  8074 net.cpp:406] conv3_3/scale <- conv3_3/bn
I0226 14:48:26.833237  8074 net.cpp:367] conv3_3/scale -> conv3_3/bn (in-place)
I0226 14:48:26.833307  8074 layer_factory.hpp:77] Creating layer conv3_3/scale
I0226 14:48:26.833468  8074 net.cpp:122] Setting up conv3_3/scale
I0226 14:48:26.833475  8074 net.cpp:129] Top shape: 1 608 3 3 (5472)
I0226 14:48:26.833478  8074 net.cpp:137] Memory required for data: 44950496
I0226 14:48:26.833483  8074 layer_factory.hpp:77] Creating layer relu3_3
I0226 14:48:26.833492  8074 net.cpp:84] Creating Layer relu3_3
I0226 14:48:26.833495  8074 net.cpp:406] relu3_3 <- conv3_3/bn
I0226 14:48:26.833499  8074 net.cpp:367] relu3_3 -> conv3_3/bn (in-place)
I0226 14:48:26.833780  8074 net.cpp:122] Setting up relu3_3
I0226 14:48:26.833787  8074 net.cpp:129] Top shape: 1 608 3 3 (5472)
I0226 14:48:26.833791  8074 net.cpp:137] Memory required for data: 44972384
I0226 14:48:26.833794  8074 layer_factory.hpp:77] Creating layer conv3_3
I0226 14:48:26.833806  8074 net.cpp:84] Creating Layer conv3_3
I0226 14:48:26.833809  8074 net.cpp:406] conv3_3 <- conv3_3/bn
I0226 14:48:26.833817  8074 net.cpp:380] conv3_3 -> conv3_3
I0226 14:48:26.843098  8074 net.cpp:122] Setting up conv3_3
I0226 14:48:26.843116  8074 net.cpp:129] Top shape: 1 32 3 3 (288)
I0226 14:48:26.843120  8074 net.cpp:137] Memory required for data: 44973536
I0226 14:48:26.843127  8074 layer_factory.hpp:77] Creating layer concat3_3
I0226 14:48:26.843135  8074 net.cpp:84] Creating Layer concat3_3
I0226 14:48:26.843140  8074 net.cpp:406] concat3_3 <- concat3_2_concat3_2_0_split_1
I0226 14:48:26.843147  8074 net.cpp:406] concat3_3 <- conv3_3
I0226 14:48:26.843152  8074 net.cpp:380] concat3_3 -> concat3_3
I0226 14:48:26.843189  8074 net.cpp:122] Setting up concat3_3
I0226 14:48:26.843195  8074 net.cpp:129] Top shape: 1 640 3 3 (5760)
I0226 14:48:26.843199  8074 net.cpp:137] Memory required for data: 44996576
I0226 14:48:26.843201  8074 layer_factory.hpp:77] Creating layer concat3_3_concat3_3_0_split
I0226 14:48:26.843207  8074 net.cpp:84] Creating Layer concat3_3_concat3_3_0_split
I0226 14:48:26.843210  8074 net.cpp:406] concat3_3_concat3_3_0_split <- concat3_3
I0226 14:48:26.843217  8074 net.cpp:380] concat3_3_concat3_3_0_split -> concat3_3_concat3_3_0_split_0
I0226 14:48:26.843224  8074 net.cpp:380] concat3_3_concat3_3_0_split -> concat3_3_concat3_3_0_split_1
I0226 14:48:26.843269  8074 net.cpp:122] Setting up concat3_3_concat3_3_0_split
I0226 14:48:26.843276  8074 net.cpp:129] Top shape: 1 640 3 3 (5760)
I0226 14:48:26.843279  8074 net.cpp:129] Top shape: 1 640 3 3 (5760)
I0226 14:48:26.843282  8074 net.cpp:137] Memory required for data: 45042656
I0226 14:48:26.843286  8074 layer_factory.hpp:77] Creating layer conv3_4/bn
I0226 14:48:26.843293  8074 net.cpp:84] Creating Layer conv3_4/bn
I0226 14:48:26.843297  8074 net.cpp:406] conv3_4/bn <- concat3_3_concat3_3_0_split_0
I0226 14:48:26.843303  8074 net.cpp:380] conv3_4/bn -> conv3_4/bn
I0226 14:48:26.843583  8074 net.cpp:122] Setting up conv3_4/bn
I0226 14:48:26.843590  8074 net.cpp:129] Top shape: 1 640 3 3 (5760)
I0226 14:48:26.843593  8074 net.cpp:137] Memory required for data: 45065696
I0226 14:48:26.843601  8074 layer_factory.hpp:77] Creating layer conv3_4/scale
I0226 14:48:26.843607  8074 net.cpp:84] Creating Layer conv3_4/scale
I0226 14:48:26.843611  8074 net.cpp:406] conv3_4/scale <- conv3_4/bn
I0226 14:48:26.843616  8074 net.cpp:367] conv3_4/scale -> conv3_4/bn (in-place)
I0226 14:48:26.843679  8074 layer_factory.hpp:77] Creating layer conv3_4/scale
I0226 14:48:26.843832  8074 net.cpp:122] Setting up conv3_4/scale
I0226 14:48:26.843838  8074 net.cpp:129] Top shape: 1 640 3 3 (5760)
I0226 14:48:26.843842  8074 net.cpp:137] Memory required for data: 45088736
I0226 14:48:26.843847  8074 layer_factory.hpp:77] Creating layer relu3_4
I0226 14:48:26.843853  8074 net.cpp:84] Creating Layer relu3_4
I0226 14:48:26.843858  8074 net.cpp:406] relu3_4 <- conv3_4/bn
I0226 14:48:26.843863  8074 net.cpp:367] relu3_4 -> conv3_4/bn (in-place)
I0226 14:48:26.844142  8074 net.cpp:122] Setting up relu3_4
I0226 14:48:26.844151  8074 net.cpp:129] Top shape: 1 640 3 3 (5760)
I0226 14:48:26.844154  8074 net.cpp:137] Memory required for data: 45111776
I0226 14:48:26.844158  8074 layer_factory.hpp:77] Creating layer conv3_4
I0226 14:48:26.844172  8074 net.cpp:84] Creating Layer conv3_4
I0226 14:48:26.844175  8074 net.cpp:406] conv3_4 <- conv3_4/bn
I0226 14:48:26.844182  8074 net.cpp:380] conv3_4 -> conv3_4
I0226 14:48:26.852404  8074 net.cpp:122] Setting up conv3_4
I0226 14:48:26.852421  8074 net.cpp:129] Top shape: 1 32 3 3 (288)
I0226 14:48:26.852424  8074 net.cpp:137] Memory required for data: 45112928
I0226 14:48:26.852430  8074 layer_factory.hpp:77] Creating layer concat3_4
I0226 14:48:26.852437  8074 net.cpp:84] Creating Layer concat3_4
I0226 14:48:26.852442  8074 net.cpp:406] concat3_4 <- concat3_3_concat3_3_0_split_1
I0226 14:48:26.852447  8074 net.cpp:406] concat3_4 <- conv3_4
I0226 14:48:26.852453  8074 net.cpp:380] concat3_4 -> concat3_4
I0226 14:48:26.852493  8074 net.cpp:122] Setting up concat3_4
I0226 14:48:26.852499  8074 net.cpp:129] Top shape: 1 672 3 3 (6048)
I0226 14:48:26.852501  8074 net.cpp:137] Memory required for data: 45137120
I0226 14:48:26.852507  8074 layer_factory.hpp:77] Creating layer concat3_4_concat3_4_0_split
I0226 14:48:26.852517  8074 net.cpp:84] Creating Layer concat3_4_concat3_4_0_split
I0226 14:48:26.852521  8074 net.cpp:406] concat3_4_concat3_4_0_split <- concat3_4
I0226 14:48:26.852526  8074 net.cpp:380] concat3_4_concat3_4_0_split -> concat3_4_concat3_4_0_split_0
I0226 14:48:26.852532  8074 net.cpp:380] concat3_4_concat3_4_0_split -> concat3_4_concat3_4_0_split_1
I0226 14:48:26.852576  8074 net.cpp:122] Setting up concat3_4_concat3_4_0_split
I0226 14:48:26.852582  8074 net.cpp:129] Top shape: 1 672 3 3 (6048)
I0226 14:48:26.852586  8074 net.cpp:129] Top shape: 1 672 3 3 (6048)
I0226 14:48:26.852589  8074 net.cpp:137] Memory required for data: 45185504
I0226 14:48:26.852592  8074 layer_factory.hpp:77] Creating layer conv3_5/bn
I0226 14:48:26.852598  8074 net.cpp:84] Creating Layer conv3_5/bn
I0226 14:48:26.852602  8074 net.cpp:406] conv3_5/bn <- concat3_4_concat3_4_0_split_0
I0226 14:48:26.852608  8074 net.cpp:380] conv3_5/bn -> conv3_5/bn
I0226 14:48:26.852902  8074 net.cpp:122] Setting up conv3_5/bn
I0226 14:48:26.852910  8074 net.cpp:129] Top shape: 1 672 3 3 (6048)
I0226 14:48:26.852913  8074 net.cpp:137] Memory required for data: 45209696
I0226 14:48:26.852931  8074 layer_factory.hpp:77] Creating layer conv3_5/scale
I0226 14:48:26.852939  8074 net.cpp:84] Creating Layer conv3_5/scale
I0226 14:48:26.852943  8074 net.cpp:406] conv3_5/scale <- conv3_5/bn
I0226 14:48:26.852948  8074 net.cpp:367] conv3_5/scale -> conv3_5/bn (in-place)
I0226 14:48:26.853018  8074 layer_factory.hpp:77] Creating layer conv3_5/scale
I0226 14:48:26.853179  8074 net.cpp:122] Setting up conv3_5/scale
I0226 14:48:26.853186  8074 net.cpp:129] Top shape: 1 672 3 3 (6048)
I0226 14:48:26.853189  8074 net.cpp:137] Memory required for data: 45233888
I0226 14:48:26.853196  8074 layer_factory.hpp:77] Creating layer relu3_5
I0226 14:48:26.853201  8074 net.cpp:84] Creating Layer relu3_5
I0226 14:48:26.853205  8074 net.cpp:406] relu3_5 <- conv3_5/bn
I0226 14:48:26.853211  8074 net.cpp:367] relu3_5 -> conv3_5/bn (in-place)
I0226 14:48:26.853494  8074 net.cpp:122] Setting up relu3_5
I0226 14:48:26.853503  8074 net.cpp:129] Top shape: 1 672 3 3 (6048)
I0226 14:48:26.853507  8074 net.cpp:137] Memory required for data: 45258080
I0226 14:48:26.853510  8074 layer_factory.hpp:77] Creating layer conv3_5
I0226 14:48:26.853520  8074 net.cpp:84] Creating Layer conv3_5
I0226 14:48:26.853524  8074 net.cpp:406] conv3_5 <- conv3_5/bn
I0226 14:48:26.853533  8074 net.cpp:380] conv3_5 -> conv3_5
I0226 14:48:26.863299  8074 net.cpp:122] Setting up conv3_5
I0226 14:48:26.863314  8074 net.cpp:129] Top shape: 1 32 3 3 (288)
I0226 14:48:26.863318  8074 net.cpp:137] Memory required for data: 45259232
I0226 14:48:26.863327  8074 layer_factory.hpp:77] Creating layer concat3_5
I0226 14:48:26.863334  8074 net.cpp:84] Creating Layer concat3_5
I0226 14:48:26.863339  8074 net.cpp:406] concat3_5 <- concat3_4_concat3_4_0_split_1
I0226 14:48:26.863344  8074 net.cpp:406] concat3_5 <- conv3_5
I0226 14:48:26.863351  8074 net.cpp:380] concat3_5 -> concat3_5
I0226 14:48:26.863390  8074 net.cpp:122] Setting up concat3_5
I0226 14:48:26.863396  8074 net.cpp:129] Top shape: 1 704 3 3 (6336)
I0226 14:48:26.863399  8074 net.cpp:137] Memory required for data: 45284576
I0226 14:48:26.863402  8074 layer_factory.hpp:77] Creating layer concat3_5_concat3_5_0_split
I0226 14:48:26.863409  8074 net.cpp:84] Creating Layer concat3_5_concat3_5_0_split
I0226 14:48:26.863414  8074 net.cpp:406] concat3_5_concat3_5_0_split <- concat3_5
I0226 14:48:26.863418  8074 net.cpp:380] concat3_5_concat3_5_0_split -> concat3_5_concat3_5_0_split_0
I0226 14:48:26.863436  8074 net.cpp:380] concat3_5_concat3_5_0_split -> concat3_5_concat3_5_0_split_1
I0226 14:48:26.863481  8074 net.cpp:122] Setting up concat3_5_concat3_5_0_split
I0226 14:48:26.863488  8074 net.cpp:129] Top shape: 1 704 3 3 (6336)
I0226 14:48:26.863492  8074 net.cpp:129] Top shape: 1 704 3 3 (6336)
I0226 14:48:26.863495  8074 net.cpp:137] Memory required for data: 45335264
I0226 14:48:26.863502  8074 layer_factory.hpp:77] Creating layer conv3_6/bn
I0226 14:48:26.863510  8074 net.cpp:84] Creating Layer conv3_6/bn
I0226 14:48:26.863514  8074 net.cpp:406] conv3_6/bn <- concat3_5_concat3_5_0_split_0
I0226 14:48:26.863521  8074 net.cpp:380] conv3_6/bn -> conv3_6/bn
I0226 14:48:26.863809  8074 net.cpp:122] Setting up conv3_6/bn
I0226 14:48:26.863817  8074 net.cpp:129] Top shape: 1 704 3 3 (6336)
I0226 14:48:26.863821  8074 net.cpp:137] Memory required for data: 45360608
I0226 14:48:26.863827  8074 layer_factory.hpp:77] Creating layer conv3_6/scale
I0226 14:48:26.863834  8074 net.cpp:84] Creating Layer conv3_6/scale
I0226 14:48:26.863838  8074 net.cpp:406] conv3_6/scale <- conv3_6/bn
I0226 14:48:26.863845  8074 net.cpp:367] conv3_6/scale -> conv3_6/bn (in-place)
I0226 14:48:26.863912  8074 layer_factory.hpp:77] Creating layer conv3_6/scale
I0226 14:48:26.864078  8074 net.cpp:122] Setting up conv3_6/scale
I0226 14:48:26.864085  8074 net.cpp:129] Top shape: 1 704 3 3 (6336)
I0226 14:48:26.864089  8074 net.cpp:137] Memory required for data: 45385952
I0226 14:48:26.864094  8074 layer_factory.hpp:77] Creating layer relu3_6
I0226 14:48:26.864100  8074 net.cpp:84] Creating Layer relu3_6
I0226 14:48:26.864104  8074 net.cpp:406] relu3_6 <- conv3_6/bn
I0226 14:48:26.864110  8074 net.cpp:367] relu3_6 -> conv3_6/bn (in-place)
I0226 14:48:26.865283  8074 net.cpp:122] Setting up relu3_6
I0226 14:48:26.865296  8074 net.cpp:129] Top shape: 1 704 3 3 (6336)
I0226 14:48:26.865299  8074 net.cpp:137] Memory required for data: 45411296
I0226 14:48:26.865304  8074 layer_factory.hpp:77] Creating layer conv3_6
I0226 14:48:26.865315  8074 net.cpp:84] Creating Layer conv3_6
I0226 14:48:26.865320  8074 net.cpp:406] conv3_6 <- conv3_6/bn
I0226 14:48:26.865329  8074 net.cpp:380] conv3_6 -> conv3_6
I0226 14:48:26.873977  8074 net.cpp:122] Setting up conv3_6
I0226 14:48:26.873991  8074 net.cpp:129] Top shape: 1 32 3 3 (288)
I0226 14:48:26.873996  8074 net.cpp:137] Memory required for data: 45412448
I0226 14:48:26.874002  8074 layer_factory.hpp:77] Creating layer concat3_6
I0226 14:48:26.874009  8074 net.cpp:84] Creating Layer concat3_6
I0226 14:48:26.874014  8074 net.cpp:406] concat3_6 <- concat3_5_concat3_5_0_split_1
I0226 14:48:26.874019  8074 net.cpp:406] concat3_6 <- conv3_6
I0226 14:48:26.874025  8074 net.cpp:380] concat3_6 -> concat3_6
I0226 14:48:26.874063  8074 net.cpp:122] Setting up concat3_6
I0226 14:48:26.874069  8074 net.cpp:129] Top shape: 1 736 3 3 (6624)
I0226 14:48:26.874073  8074 net.cpp:137] Memory required for data: 45438944
I0226 14:48:26.874075  8074 layer_factory.hpp:77] Creating layer concat3_6_concat3_6_0_split
I0226 14:48:26.874083  8074 net.cpp:84] Creating Layer concat3_6_concat3_6_0_split
I0226 14:48:26.874085  8074 net.cpp:406] concat3_6_concat3_6_0_split <- concat3_6
I0226 14:48:26.874090  8074 net.cpp:380] concat3_6_concat3_6_0_split -> concat3_6_concat3_6_0_split_0
I0226 14:48:26.874096  8074 net.cpp:380] concat3_6_concat3_6_0_split -> concat3_6_concat3_6_0_split_1
I0226 14:48:26.874141  8074 net.cpp:122] Setting up concat3_6_concat3_6_0_split
I0226 14:48:26.874146  8074 net.cpp:129] Top shape: 1 736 3 3 (6624)
I0226 14:48:26.874150  8074 net.cpp:129] Top shape: 1 736 3 3 (6624)
I0226 14:48:26.874153  8074 net.cpp:137] Memory required for data: 45491936
I0226 14:48:26.874156  8074 layer_factory.hpp:77] Creating layer conv3_7/bn
I0226 14:48:26.874164  8074 net.cpp:84] Creating Layer conv3_7/bn
I0226 14:48:26.874167  8074 net.cpp:406] conv3_7/bn <- concat3_6_concat3_6_0_split_0
I0226 14:48:26.874172  8074 net.cpp:380] conv3_7/bn -> conv3_7/bn
I0226 14:48:26.874466  8074 net.cpp:122] Setting up conv3_7/bn
I0226 14:48:26.874475  8074 net.cpp:129] Top shape: 1 736 3 3 (6624)
I0226 14:48:26.874477  8074 net.cpp:137] Memory required for data: 45518432
I0226 14:48:26.874485  8074 layer_factory.hpp:77] Creating layer conv3_7/scale
I0226 14:48:26.874492  8074 net.cpp:84] Creating Layer conv3_7/scale
I0226 14:48:26.874496  8074 net.cpp:406] conv3_7/scale <- conv3_7/bn
I0226 14:48:26.874500  8074 net.cpp:367] conv3_7/scale -> conv3_7/bn (in-place)
I0226 14:48:26.874579  8074 layer_factory.hpp:77] Creating layer conv3_7/scale
I0226 14:48:26.874742  8074 net.cpp:122] Setting up conv3_7/scale
I0226 14:48:26.874750  8074 net.cpp:129] Top shape: 1 736 3 3 (6624)
I0226 14:48:26.874753  8074 net.cpp:137] Memory required for data: 45544928
I0226 14:48:26.874759  8074 layer_factory.hpp:77] Creating layer relu3_7
I0226 14:48:26.874766  8074 net.cpp:84] Creating Layer relu3_7
I0226 14:48:26.874770  8074 net.cpp:406] relu3_7 <- conv3_7/bn
I0226 14:48:26.874774  8074 net.cpp:367] relu3_7 -> conv3_7/bn (in-place)
I0226 14:48:26.875054  8074 net.cpp:122] Setting up relu3_7
I0226 14:48:26.875063  8074 net.cpp:129] Top shape: 1 736 3 3 (6624)
I0226 14:48:26.875066  8074 net.cpp:137] Memory required for data: 45571424
I0226 14:48:26.875071  8074 layer_factory.hpp:77] Creating layer conv3_7
I0226 14:48:26.875083  8074 net.cpp:84] Creating Layer conv3_7
I0226 14:48:26.875087  8074 net.cpp:406] conv3_7 <- conv3_7/bn
I0226 14:48:26.875093  8074 net.cpp:380] conv3_7 -> conv3_7
I0226 14:48:26.885375  8074 net.cpp:122] Setting up conv3_7
I0226 14:48:26.885390  8074 net.cpp:129] Top shape: 1 32 3 3 (288)
I0226 14:48:26.885392  8074 net.cpp:137] Memory required for data: 45572576
I0226 14:48:26.885398  8074 layer_factory.hpp:77] Creating layer concat3_7
I0226 14:48:26.885408  8074 net.cpp:84] Creating Layer concat3_7
I0226 14:48:26.885412  8074 net.cpp:406] concat3_7 <- concat3_6_concat3_6_0_split_1
I0226 14:48:26.885417  8074 net.cpp:406] concat3_7 <- conv3_7
I0226 14:48:26.885423  8074 net.cpp:380] concat3_7 -> concat3_7
I0226 14:48:26.885458  8074 net.cpp:122] Setting up concat3_7
I0226 14:48:26.885464  8074 net.cpp:129] Top shape: 1 768 3 3 (6912)
I0226 14:48:26.885468  8074 net.cpp:137] Memory required for data: 45600224
I0226 14:48:26.885470  8074 layer_factory.hpp:77] Creating layer concat3_7_concat3_7_0_split
I0226 14:48:26.885478  8074 net.cpp:84] Creating Layer concat3_7_concat3_7_0_split
I0226 14:48:26.885481  8074 net.cpp:406] concat3_7_concat3_7_0_split <- concat3_7
I0226 14:48:26.885488  8074 net.cpp:380] concat3_7_concat3_7_0_split -> concat3_7_concat3_7_0_split_0
I0226 14:48:26.885493  8074 net.cpp:380] concat3_7_concat3_7_0_split -> concat3_7_concat3_7_0_split_1
I0226 14:48:26.885535  8074 net.cpp:122] Setting up concat3_7_concat3_7_0_split
I0226 14:48:26.885540  8074 net.cpp:129] Top shape: 1 768 3 3 (6912)
I0226 14:48:26.885543  8074 net.cpp:129] Top shape: 1 768 3 3 (6912)
I0226 14:48:26.885546  8074 net.cpp:137] Memory required for data: 45655520
I0226 14:48:26.885550  8074 layer_factory.hpp:77] Creating layer conv3_8/bn
I0226 14:48:26.885556  8074 net.cpp:84] Creating Layer conv3_8/bn
I0226 14:48:26.885560  8074 net.cpp:406] conv3_8/bn <- concat3_7_concat3_7_0_split_0
I0226 14:48:26.885565  8074 net.cpp:380] conv3_8/bn -> conv3_8/bn
I0226 14:48:26.885840  8074 net.cpp:122] Setting up conv3_8/bn
I0226 14:48:26.885848  8074 net.cpp:129] Top shape: 1 768 3 3 (6912)
I0226 14:48:26.885850  8074 net.cpp:137] Memory required for data: 45683168
I0226 14:48:26.885857  8074 layer_factory.hpp:77] Creating layer conv3_8/scale
I0226 14:48:26.885866  8074 net.cpp:84] Creating Layer conv3_8/scale
I0226 14:48:26.885870  8074 net.cpp:406] conv3_8/scale <- conv3_8/bn
I0226 14:48:26.885874  8074 net.cpp:367] conv3_8/scale -> conv3_8/bn (in-place)
I0226 14:48:26.885933  8074 layer_factory.hpp:77] Creating layer conv3_8/scale
I0226 14:48:26.886087  8074 net.cpp:122] Setting up conv3_8/scale
I0226 14:48:26.886096  8074 net.cpp:129] Top shape: 1 768 3 3 (6912)
I0226 14:48:26.886098  8074 net.cpp:137] Memory required for data: 45710816
I0226 14:48:26.886103  8074 layer_factory.hpp:77] Creating layer relu3_8
I0226 14:48:26.886109  8074 net.cpp:84] Creating Layer relu3_8
I0226 14:48:26.886113  8074 net.cpp:406] relu3_8 <- conv3_8/bn
I0226 14:48:26.886119  8074 net.cpp:367] relu3_8 -> conv3_8/bn (in-place)
I0226 14:48:26.886389  8074 net.cpp:122] Setting up relu3_8
I0226 14:48:26.886399  8074 net.cpp:129] Top shape: 1 768 3 3 (6912)
I0226 14:48:26.886401  8074 net.cpp:137] Memory required for data: 45738464
I0226 14:48:26.886410  8074 layer_factory.hpp:77] Creating layer conv3_8
I0226 14:48:26.886421  8074 net.cpp:84] Creating Layer conv3_8
I0226 14:48:26.886425  8074 net.cpp:406] conv3_8 <- conv3_8/bn
I0226 14:48:26.886432  8074 net.cpp:380] conv3_8 -> conv3_8
I0226 14:48:26.895364  8074 net.cpp:122] Setting up conv3_8
I0226 14:48:26.895377  8074 net.cpp:129] Top shape: 1 32 3 3 (288)
I0226 14:48:26.895380  8074 net.cpp:137] Memory required for data: 45739616
I0226 14:48:26.895387  8074 layer_factory.hpp:77] Creating layer concat3_8
I0226 14:48:26.895396  8074 net.cpp:84] Creating Layer concat3_8
I0226 14:48:26.895401  8074 net.cpp:406] concat3_8 <- concat3_7_concat3_7_0_split_1
I0226 14:48:26.895406  8074 net.cpp:406] concat3_8 <- conv3_8
I0226 14:48:26.895411  8074 net.cpp:380] concat3_8 -> concat3_8
I0226 14:48:26.895448  8074 net.cpp:122] Setting up concat3_8
I0226 14:48:26.895454  8074 net.cpp:129] Top shape: 1 800 3 3 (7200)
I0226 14:48:26.895457  8074 net.cpp:137] Memory required for data: 45768416
I0226 14:48:26.895460  8074 layer_factory.hpp:77] Creating layer concat3_8_concat3_8_0_split
I0226 14:48:26.895465  8074 net.cpp:84] Creating Layer concat3_8_concat3_8_0_split
I0226 14:48:26.895468  8074 net.cpp:406] concat3_8_concat3_8_0_split <- concat3_8
I0226 14:48:26.895475  8074 net.cpp:380] concat3_8_concat3_8_0_split -> concat3_8_concat3_8_0_split_0
I0226 14:48:26.895481  8074 net.cpp:380] concat3_8_concat3_8_0_split -> concat3_8_concat3_8_0_split_1
I0226 14:48:26.895524  8074 net.cpp:122] Setting up concat3_8_concat3_8_0_split
I0226 14:48:26.895529  8074 net.cpp:129] Top shape: 1 800 3 3 (7200)
I0226 14:48:26.895532  8074 net.cpp:129] Top shape: 1 800 3 3 (7200)
I0226 14:48:26.895535  8074 net.cpp:137] Memory required for data: 45826016
I0226 14:48:26.895539  8074 layer_factory.hpp:77] Creating layer conv3_9/bn
I0226 14:48:26.895545  8074 net.cpp:84] Creating Layer conv3_9/bn
I0226 14:48:26.895550  8074 net.cpp:406] conv3_9/bn <- concat3_8_concat3_8_0_split_0
I0226 14:48:26.895555  8074 net.cpp:380] conv3_9/bn -> conv3_9/bn
I0226 14:48:26.895830  8074 net.cpp:122] Setting up conv3_9/bn
I0226 14:48:26.895838  8074 net.cpp:129] Top shape: 1 800 3 3 (7200)
I0226 14:48:26.895840  8074 net.cpp:137] Memory required for data: 45854816
I0226 14:48:26.895848  8074 layer_factory.hpp:77] Creating layer conv3_9/scale
I0226 14:48:26.895854  8074 net.cpp:84] Creating Layer conv3_9/scale
I0226 14:48:26.895859  8074 net.cpp:406] conv3_9/scale <- conv3_9/bn
I0226 14:48:26.895864  8074 net.cpp:367] conv3_9/scale -> conv3_9/bn (in-place)
I0226 14:48:26.895931  8074 layer_factory.hpp:77] Creating layer conv3_9/scale
I0226 14:48:26.896091  8074 net.cpp:122] Setting up conv3_9/scale
I0226 14:48:26.896098  8074 net.cpp:129] Top shape: 1 800 3 3 (7200)
I0226 14:48:26.896101  8074 net.cpp:137] Memory required for data: 45883616
I0226 14:48:26.896107  8074 layer_factory.hpp:77] Creating layer relu3_9
I0226 14:48:26.896112  8074 net.cpp:84] Creating Layer relu3_9
I0226 14:48:26.896116  8074 net.cpp:406] relu3_9 <- conv3_9/bn
I0226 14:48:26.896121  8074 net.cpp:367] relu3_9 -> conv3_9/bn (in-place)
I0226 14:48:26.897313  8074 net.cpp:122] Setting up relu3_9
I0226 14:48:26.897326  8074 net.cpp:129] Top shape: 1 800 3 3 (7200)
I0226 14:48:26.897330  8074 net.cpp:137] Memory required for data: 45912416
I0226 14:48:26.897334  8074 layer_factory.hpp:77] Creating layer conv3_9
I0226 14:48:26.897346  8074 net.cpp:84] Creating Layer conv3_9
I0226 14:48:26.897349  8074 net.cpp:406] conv3_9 <- conv3_9/bn
I0226 14:48:26.897357  8074 net.cpp:380] conv3_9 -> conv3_9
I0226 14:48:26.908174  8074 net.cpp:122] Setting up conv3_9
I0226 14:48:26.908188  8074 net.cpp:129] Top shape: 1 32 3 3 (288)
I0226 14:48:26.908192  8074 net.cpp:137] Memory required for data: 45913568
I0226 14:48:26.908198  8074 layer_factory.hpp:77] Creating layer concat3_9
I0226 14:48:26.908207  8074 net.cpp:84] Creating Layer concat3_9
I0226 14:48:26.908212  8074 net.cpp:406] concat3_9 <- concat3_8_concat3_8_0_split_1
I0226 14:48:26.908217  8074 net.cpp:406] concat3_9 <- conv3_9
I0226 14:48:26.908226  8074 net.cpp:380] concat3_9 -> concat3_9
I0226 14:48:26.908264  8074 net.cpp:122] Setting up concat3_9
I0226 14:48:26.908270  8074 net.cpp:129] Top shape: 1 832 3 3 (7488)
I0226 14:48:26.908273  8074 net.cpp:137] Memory required for data: 45943520
I0226 14:48:26.908277  8074 layer_factory.hpp:77] Creating layer concat3_9_concat3_9_0_split
I0226 14:48:26.908282  8074 net.cpp:84] Creating Layer concat3_9_concat3_9_0_split
I0226 14:48:26.908285  8074 net.cpp:406] concat3_9_concat3_9_0_split <- concat3_9
I0226 14:48:26.908291  8074 net.cpp:380] concat3_9_concat3_9_0_split -> concat3_9_concat3_9_0_split_0
I0226 14:48:26.908298  8074 net.cpp:380] concat3_9_concat3_9_0_split -> concat3_9_concat3_9_0_split_1
I0226 14:48:26.908344  8074 net.cpp:122] Setting up concat3_9_concat3_9_0_split
I0226 14:48:26.908349  8074 net.cpp:129] Top shape: 1 832 3 3 (7488)
I0226 14:48:26.908352  8074 net.cpp:129] Top shape: 1 832 3 3 (7488)
I0226 14:48:26.908355  8074 net.cpp:137] Memory required for data: 46003424
I0226 14:48:26.908358  8074 layer_factory.hpp:77] Creating layer conv3_10/bn
I0226 14:48:26.908365  8074 net.cpp:84] Creating Layer conv3_10/bn
I0226 14:48:26.908370  8074 net.cpp:406] conv3_10/bn <- concat3_9_concat3_9_0_split_0
I0226 14:48:26.908376  8074 net.cpp:380] conv3_10/bn -> conv3_10/bn
I0226 14:48:26.908689  8074 net.cpp:122] Setting up conv3_10/bn
I0226 14:48:26.908697  8074 net.cpp:129] Top shape: 1 832 3 3 (7488)
I0226 14:48:26.908700  8074 net.cpp:137] Memory required for data: 46033376
I0226 14:48:26.908709  8074 layer_factory.hpp:77] Creating layer conv3_10/scale
I0226 14:48:26.908715  8074 net.cpp:84] Creating Layer conv3_10/scale
I0226 14:48:26.908720  8074 net.cpp:406] conv3_10/scale <- conv3_10/bn
I0226 14:48:26.908725  8074 net.cpp:367] conv3_10/scale -> conv3_10/bn (in-place)
I0226 14:48:26.908797  8074 layer_factory.hpp:77] Creating layer conv3_10/scale
I0226 14:48:26.908967  8074 net.cpp:122] Setting up conv3_10/scale
I0226 14:48:26.908973  8074 net.cpp:129] Top shape: 1 832 3 3 (7488)
I0226 14:48:26.908977  8074 net.cpp:137] Memory required for data: 46063328
I0226 14:48:26.908982  8074 layer_factory.hpp:77] Creating layer relu3_10
I0226 14:48:26.908988  8074 net.cpp:84] Creating Layer relu3_10
I0226 14:48:26.908991  8074 net.cpp:406] relu3_10 <- conv3_10/bn
I0226 14:48:26.908998  8074 net.cpp:367] relu3_10 -> conv3_10/bn (in-place)
I0226 14:48:26.909282  8074 net.cpp:122] Setting up relu3_10
I0226 14:48:26.909292  8074 net.cpp:129] Top shape: 1 832 3 3 (7488)
I0226 14:48:26.909296  8074 net.cpp:137] Memory required for data: 46093280
I0226 14:48:26.909299  8074 layer_factory.hpp:77] Creating layer conv3_10
I0226 14:48:26.909309  8074 net.cpp:84] Creating Layer conv3_10
I0226 14:48:26.909313  8074 net.cpp:406] conv3_10 <- conv3_10/bn
I0226 14:48:26.909322  8074 net.cpp:380] conv3_10 -> conv3_10
I0226 14:48:26.918985  8074 net.cpp:122] Setting up conv3_10
I0226 14:48:26.918998  8074 net.cpp:129] Top shape: 1 32 3 3 (288)
I0226 14:48:26.919003  8074 net.cpp:137] Memory required for data: 46094432
I0226 14:48:26.919010  8074 layer_factory.hpp:77] Creating layer concat3_10
I0226 14:48:26.919018  8074 net.cpp:84] Creating Layer concat3_10
I0226 14:48:26.919023  8074 net.cpp:406] concat3_10 <- concat3_9_concat3_9_0_split_1
I0226 14:48:26.919028  8074 net.cpp:406] concat3_10 <- conv3_10
I0226 14:48:26.919034  8074 net.cpp:380] concat3_10 -> concat3_10
I0226 14:48:26.919070  8074 net.cpp:122] Setting up concat3_10
I0226 14:48:26.919076  8074 net.cpp:129] Top shape: 1 864 3 3 (7776)
I0226 14:48:26.919080  8074 net.cpp:137] Memory required for data: 46125536
I0226 14:48:26.919082  8074 layer_factory.hpp:77] Creating layer concat3_10_concat3_10_0_split
I0226 14:48:26.919087  8074 net.cpp:84] Creating Layer concat3_10_concat3_10_0_split
I0226 14:48:26.919091  8074 net.cpp:406] concat3_10_concat3_10_0_split <- concat3_10
I0226 14:48:26.919101  8074 net.cpp:380] concat3_10_concat3_10_0_split -> concat3_10_concat3_10_0_split_0
I0226 14:48:26.919107  8074 net.cpp:380] concat3_10_concat3_10_0_split -> concat3_10_concat3_10_0_split_1
I0226 14:48:26.919157  8074 net.cpp:122] Setting up concat3_10_concat3_10_0_split
I0226 14:48:26.919162  8074 net.cpp:129] Top shape: 1 864 3 3 (7776)
I0226 14:48:26.919165  8074 net.cpp:129] Top shape: 1 864 3 3 (7776)
I0226 14:48:26.919168  8074 net.cpp:137] Memory required for data: 46187744
I0226 14:48:26.919172  8074 layer_factory.hpp:77] Creating layer conv3_11/bn
I0226 14:48:26.919178  8074 net.cpp:84] Creating Layer conv3_11/bn
I0226 14:48:26.919183  8074 net.cpp:406] conv3_11/bn <- concat3_10_concat3_10_0_split_0
I0226 14:48:26.919188  8074 net.cpp:380] conv3_11/bn -> conv3_11/bn
I0226 14:48:26.919495  8074 net.cpp:122] Setting up conv3_11/bn
I0226 14:48:26.919502  8074 net.cpp:129] Top shape: 1 864 3 3 (7776)
I0226 14:48:26.919505  8074 net.cpp:137] Memory required for data: 46218848
I0226 14:48:26.919513  8074 layer_factory.hpp:77] Creating layer conv3_11/scale
I0226 14:48:26.919520  8074 net.cpp:84] Creating Layer conv3_11/scale
I0226 14:48:26.919524  8074 net.cpp:406] conv3_11/scale <- conv3_11/bn
I0226 14:48:26.919530  8074 net.cpp:367] conv3_11/scale -> conv3_11/bn (in-place)
I0226 14:48:26.919602  8074 layer_factory.hpp:77] Creating layer conv3_11/scale
I0226 14:48:26.919783  8074 net.cpp:122] Setting up conv3_11/scale
I0226 14:48:26.919790  8074 net.cpp:129] Top shape: 1 864 3 3 (7776)
I0226 14:48:26.919793  8074 net.cpp:137] Memory required for data: 46249952
I0226 14:48:26.919800  8074 layer_factory.hpp:77] Creating layer relu3_11
I0226 14:48:26.919806  8074 net.cpp:84] Creating Layer relu3_11
I0226 14:48:26.919808  8074 net.cpp:406] relu3_11 <- conv3_11/bn
I0226 14:48:26.919814  8074 net.cpp:367] relu3_11 -> conv3_11/bn (in-place)
I0226 14:48:26.920086  8074 net.cpp:122] Setting up relu3_11
I0226 14:48:26.920096  8074 net.cpp:129] Top shape: 1 864 3 3 (7776)
I0226 14:48:26.920099  8074 net.cpp:137] Memory required for data: 46281056
I0226 14:48:26.920104  8074 layer_factory.hpp:77] Creating layer conv3_11
I0226 14:48:26.920114  8074 net.cpp:84] Creating Layer conv3_11
I0226 14:48:26.920119  8074 net.cpp:406] conv3_11 <- conv3_11/bn
I0226 14:48:26.920125  8074 net.cpp:380] conv3_11 -> conv3_11
I0226 14:48:26.931565  8074 net.cpp:122] Setting up conv3_11
I0226 14:48:26.931579  8074 net.cpp:129] Top shape: 1 32 3 3 (288)
I0226 14:48:26.931583  8074 net.cpp:137] Memory required for data: 46282208
I0226 14:48:26.931589  8074 layer_factory.hpp:77] Creating layer concat3_11
I0226 14:48:26.931597  8074 net.cpp:84] Creating Layer concat3_11
I0226 14:48:26.931602  8074 net.cpp:406] concat3_11 <- concat3_10_concat3_10_0_split_1
I0226 14:48:26.931607  8074 net.cpp:406] concat3_11 <- conv3_11
I0226 14:48:26.931612  8074 net.cpp:380] concat3_11 -> concat3_11
I0226 14:48:26.931653  8074 net.cpp:122] Setting up concat3_11
I0226 14:48:26.931658  8074 net.cpp:129] Top shape: 1 896 3 3 (8064)
I0226 14:48:26.931661  8074 net.cpp:137] Memory required for data: 46314464
I0226 14:48:26.931664  8074 layer_factory.hpp:77] Creating layer concat3_11_concat3_11_0_split
I0226 14:48:26.931671  8074 net.cpp:84] Creating Layer concat3_11_concat3_11_0_split
I0226 14:48:26.931674  8074 net.cpp:406] concat3_11_concat3_11_0_split <- concat3_11
I0226 14:48:26.931679  8074 net.cpp:380] concat3_11_concat3_11_0_split -> concat3_11_concat3_11_0_split_0
I0226 14:48:26.931686  8074 net.cpp:380] concat3_11_concat3_11_0_split -> concat3_11_concat3_11_0_split_1
I0226 14:48:26.931735  8074 net.cpp:122] Setting up concat3_11_concat3_11_0_split
I0226 14:48:26.931740  8074 net.cpp:129] Top shape: 1 896 3 3 (8064)
I0226 14:48:26.931744  8074 net.cpp:129] Top shape: 1 896 3 3 (8064)
I0226 14:48:26.931747  8074 net.cpp:137] Memory required for data: 46378976
I0226 14:48:26.931751  8074 layer_factory.hpp:77] Creating layer conv3_12/bn
I0226 14:48:26.931758  8074 net.cpp:84] Creating Layer conv3_12/bn
I0226 14:48:26.931761  8074 net.cpp:406] conv3_12/bn <- concat3_11_concat3_11_0_split_0
I0226 14:48:26.931767  8074 net.cpp:380] conv3_12/bn -> conv3_12/bn
I0226 14:48:26.932062  8074 net.cpp:122] Setting up conv3_12/bn
I0226 14:48:26.932073  8074 net.cpp:129] Top shape: 1 896 3 3 (8064)
I0226 14:48:26.932076  8074 net.cpp:137] Memory required for data: 46411232
I0226 14:48:26.932083  8074 layer_factory.hpp:77] Creating layer conv3_12/scale
I0226 14:48:26.932092  8074 net.cpp:84] Creating Layer conv3_12/scale
I0226 14:48:26.932096  8074 net.cpp:406] conv3_12/scale <- conv3_12/bn
I0226 14:48:26.932101  8074 net.cpp:367] conv3_12/scale -> conv3_12/bn (in-place)
I0226 14:48:26.932165  8074 layer_factory.hpp:77] Creating layer conv3_12/scale
I0226 14:48:26.932329  8074 net.cpp:122] Setting up conv3_12/scale
I0226 14:48:26.932337  8074 net.cpp:129] Top shape: 1 896 3 3 (8064)
I0226 14:48:26.932340  8074 net.cpp:137] Memory required for data: 46443488
I0226 14:48:26.932346  8074 layer_factory.hpp:77] Creating layer relu3_12
I0226 14:48:26.932353  8074 net.cpp:84] Creating Layer relu3_12
I0226 14:48:26.932358  8074 net.cpp:406] relu3_12 <- conv3_12/bn
I0226 14:48:26.932361  8074 net.cpp:367] relu3_12 -> conv3_12/bn (in-place)
I0226 14:48:26.934469  8074 net.cpp:122] Setting up relu3_12
I0226 14:48:26.934484  8074 net.cpp:129] Top shape: 1 896 3 3 (8064)
I0226 14:48:26.934486  8074 net.cpp:137] Memory required for data: 46475744
I0226 14:48:26.934490  8074 layer_factory.hpp:77] Creating layer conv3_12
I0226 14:48:26.934502  8074 net.cpp:84] Creating Layer conv3_12
I0226 14:48:26.934507  8074 net.cpp:406] conv3_12 <- conv3_12/bn
I0226 14:48:26.934515  8074 net.cpp:380] conv3_12 -> conv3_12
I0226 14:48:26.944795  8074 net.cpp:122] Setting up conv3_12
I0226 14:48:26.944810  8074 net.cpp:129] Top shape: 1 32 3 3 (288)
I0226 14:48:26.944813  8074 net.cpp:137] Memory required for data: 46476896
I0226 14:48:26.944820  8074 layer_factory.hpp:77] Creating layer concat3_12
I0226 14:48:26.944829  8074 net.cpp:84] Creating Layer concat3_12
I0226 14:48:26.944834  8074 net.cpp:406] concat3_12 <- concat3_11_concat3_11_0_split_1
I0226 14:48:26.944839  8074 net.cpp:406] concat3_12 <- conv3_12
I0226 14:48:26.944845  8074 net.cpp:380] concat3_12 -> concat3_12
I0226 14:48:26.944885  8074 net.cpp:122] Setting up concat3_12
I0226 14:48:26.944890  8074 net.cpp:129] Top shape: 1 928 3 3 (8352)
I0226 14:48:26.944893  8074 net.cpp:137] Memory required for data: 46510304
I0226 14:48:26.944896  8074 layer_factory.hpp:77] Creating layer concat3_12_concat3_12_0_split
I0226 14:48:26.944901  8074 net.cpp:84] Creating Layer concat3_12_concat3_12_0_split
I0226 14:48:26.944905  8074 net.cpp:406] concat3_12_concat3_12_0_split <- concat3_12
I0226 14:48:26.944912  8074 net.cpp:380] concat3_12_concat3_12_0_split -> concat3_12_concat3_12_0_split_0
I0226 14:48:26.944918  8074 net.cpp:380] concat3_12_concat3_12_0_split -> concat3_12_concat3_12_0_split_1
I0226 14:48:26.944963  8074 net.cpp:122] Setting up concat3_12_concat3_12_0_split
I0226 14:48:26.944970  8074 net.cpp:129] Top shape: 1 928 3 3 (8352)
I0226 14:48:26.944974  8074 net.cpp:129] Top shape: 1 928 3 3 (8352)
I0226 14:48:26.944977  8074 net.cpp:137] Memory required for data: 46577120
I0226 14:48:26.944980  8074 layer_factory.hpp:77] Creating layer conv3_13/bn
I0226 14:48:26.944986  8074 net.cpp:84] Creating Layer conv3_13/bn
I0226 14:48:26.944990  8074 net.cpp:406] conv3_13/bn <- concat3_12_concat3_12_0_split_0
I0226 14:48:26.944998  8074 net.cpp:380] conv3_13/bn -> conv3_13/bn
I0226 14:48:26.945305  8074 net.cpp:122] Setting up conv3_13/bn
I0226 14:48:26.945312  8074 net.cpp:129] Top shape: 1 928 3 3 (8352)
I0226 14:48:26.945317  8074 net.cpp:137] Memory required for data: 46610528
I0226 14:48:26.945323  8074 layer_factory.hpp:77] Creating layer conv3_13/scale
I0226 14:48:26.945333  8074 net.cpp:84] Creating Layer conv3_13/scale
I0226 14:48:26.945336  8074 net.cpp:406] conv3_13/scale <- conv3_13/bn
I0226 14:48:26.945341  8074 net.cpp:367] conv3_13/scale -> conv3_13/bn (in-place)
I0226 14:48:26.945415  8074 layer_factory.hpp:77] Creating layer conv3_13/scale
I0226 14:48:26.945586  8074 net.cpp:122] Setting up conv3_13/scale
I0226 14:48:26.945593  8074 net.cpp:129] Top shape: 1 928 3 3 (8352)
I0226 14:48:26.945600  8074 net.cpp:137] Memory required for data: 46643936
I0226 14:48:26.945606  8074 layer_factory.hpp:77] Creating layer relu3_13
I0226 14:48:26.945613  8074 net.cpp:84] Creating Layer relu3_13
I0226 14:48:26.945617  8074 net.cpp:406] relu3_13 <- conv3_13/bn
I0226 14:48:26.945622  8074 net.cpp:367] relu3_13 -> conv3_13/bn (in-place)
I0226 14:48:26.945904  8074 net.cpp:122] Setting up relu3_13
I0226 14:48:26.945911  8074 net.cpp:129] Top shape: 1 928 3 3 (8352)
I0226 14:48:26.945914  8074 net.cpp:137] Memory required for data: 46677344
I0226 14:48:26.945919  8074 layer_factory.hpp:77] Creating layer conv3_13
I0226 14:48:26.945928  8074 net.cpp:84] Creating Layer conv3_13
I0226 14:48:26.945933  8074 net.cpp:406] conv3_13 <- conv3_13/bn
I0226 14:48:26.945941  8074 net.cpp:380] conv3_13 -> conv3_13
I0226 14:48:26.957857  8074 net.cpp:122] Setting up conv3_13
I0226 14:48:26.957872  8074 net.cpp:129] Top shape: 1 32 3 3 (288)
I0226 14:48:26.957875  8074 net.cpp:137] Memory required for data: 46678496
I0226 14:48:26.957882  8074 layer_factory.hpp:77] Creating layer concat3_13
I0226 14:48:26.957891  8074 net.cpp:84] Creating Layer concat3_13
I0226 14:48:26.957896  8074 net.cpp:406] concat3_13 <- concat3_12_concat3_12_0_split_1
I0226 14:48:26.957901  8074 net.cpp:406] concat3_13 <- conv3_13
I0226 14:48:26.957907  8074 net.cpp:380] concat3_13 -> concat3_13
I0226 14:48:26.957947  8074 net.cpp:122] Setting up concat3_13
I0226 14:48:26.957954  8074 net.cpp:129] Top shape: 1 960 3 3 (8640)
I0226 14:48:26.957957  8074 net.cpp:137] Memory required for data: 46713056
I0226 14:48:26.957960  8074 layer_factory.hpp:77] Creating layer concat3_13_concat3_13_0_split
I0226 14:48:26.957965  8074 net.cpp:84] Creating Layer concat3_13_concat3_13_0_split
I0226 14:48:26.957969  8074 net.cpp:406] concat3_13_concat3_13_0_split <- concat3_13
I0226 14:48:26.957976  8074 net.cpp:380] concat3_13_concat3_13_0_split -> concat3_13_concat3_13_0_split_0
I0226 14:48:26.957983  8074 net.cpp:380] concat3_13_concat3_13_0_split -> concat3_13_concat3_13_0_split_1
I0226 14:48:26.958029  8074 net.cpp:122] Setting up concat3_13_concat3_13_0_split
I0226 14:48:26.958034  8074 net.cpp:129] Top shape: 1 960 3 3 (8640)
I0226 14:48:26.958037  8074 net.cpp:129] Top shape: 1 960 3 3 (8640)
I0226 14:48:26.958040  8074 net.cpp:137] Memory required for data: 46782176
I0226 14:48:26.958043  8074 layer_factory.hpp:77] Creating layer conv3_14/bn
I0226 14:48:26.958051  8074 net.cpp:84] Creating Layer conv3_14/bn
I0226 14:48:26.958055  8074 net.cpp:406] conv3_14/bn <- concat3_13_concat3_13_0_split_0
I0226 14:48:26.958061  8074 net.cpp:380] conv3_14/bn -> conv3_14/bn
I0226 14:48:26.958365  8074 net.cpp:122] Setting up conv3_14/bn
I0226 14:48:26.958374  8074 net.cpp:129] Top shape: 1 960 3 3 (8640)
I0226 14:48:26.958376  8074 net.cpp:137] Memory required for data: 46816736
I0226 14:48:26.958384  8074 layer_factory.hpp:77] Creating layer conv3_14/scale
I0226 14:48:26.958390  8074 net.cpp:84] Creating Layer conv3_14/scale
I0226 14:48:26.958395  8074 net.cpp:406] conv3_14/scale <- conv3_14/bn
I0226 14:48:26.958401  8074 net.cpp:367] conv3_14/scale -> conv3_14/bn (in-place)
I0226 14:48:26.958473  8074 layer_factory.hpp:77] Creating layer conv3_14/scale
I0226 14:48:26.958650  8074 net.cpp:122] Setting up conv3_14/scale
I0226 14:48:26.958657  8074 net.cpp:129] Top shape: 1 960 3 3 (8640)
I0226 14:48:26.958660  8074 net.cpp:137] Memory required for data: 46851296
I0226 14:48:26.958667  8074 layer_factory.hpp:77] Creating layer relu3_14
I0226 14:48:26.958673  8074 net.cpp:84] Creating Layer relu3_14
I0226 14:48:26.958676  8074 net.cpp:406] relu3_14 <- conv3_14/bn
I0226 14:48:26.958683  8074 net.cpp:367] relu3_14 -> conv3_14/bn (in-place)
I0226 14:48:26.958966  8074 net.cpp:122] Setting up relu3_14
I0226 14:48:26.958974  8074 net.cpp:129] Top shape: 1 960 3 3 (8640)
I0226 14:48:26.958977  8074 net.cpp:137] Memory required for data: 46885856
I0226 14:48:26.958981  8074 layer_factory.hpp:77] Creating layer conv3_14
I0226 14:48:26.958994  8074 net.cpp:84] Creating Layer conv3_14
I0226 14:48:26.959002  8074 net.cpp:406] conv3_14 <- conv3_14/bn
I0226 14:48:26.959010  8074 net.cpp:380] conv3_14 -> conv3_14
I0226 14:48:26.971233  8074 net.cpp:122] Setting up conv3_14
I0226 14:48:26.971248  8074 net.cpp:129] Top shape: 1 32 3 3 (288)
I0226 14:48:26.971251  8074 net.cpp:137] Memory required for data: 46887008
I0226 14:48:26.971258  8074 layer_factory.hpp:77] Creating layer concat3_14
I0226 14:48:26.971266  8074 net.cpp:84] Creating Layer concat3_14
I0226 14:48:26.971271  8074 net.cpp:406] concat3_14 <- concat3_13_concat3_13_0_split_1
I0226 14:48:26.971276  8074 net.cpp:406] concat3_14 <- conv3_14
I0226 14:48:26.971283  8074 net.cpp:380] concat3_14 -> concat3_14
I0226 14:48:26.971323  8074 net.cpp:122] Setting up concat3_14
I0226 14:48:26.971329  8074 net.cpp:129] Top shape: 1 992 3 3 (8928)
I0226 14:48:26.971333  8074 net.cpp:137] Memory required for data: 46922720
I0226 14:48:26.971336  8074 layer_factory.hpp:77] Creating layer concat3_14_concat3_14_0_split
I0226 14:48:26.971341  8074 net.cpp:84] Creating Layer concat3_14_concat3_14_0_split
I0226 14:48:26.971344  8074 net.cpp:406] concat3_14_concat3_14_0_split <- concat3_14
I0226 14:48:26.971349  8074 net.cpp:380] concat3_14_concat3_14_0_split -> concat3_14_concat3_14_0_split_0
I0226 14:48:26.971355  8074 net.cpp:380] concat3_14_concat3_14_0_split -> concat3_14_concat3_14_0_split_1
I0226 14:48:26.971402  8074 net.cpp:122] Setting up concat3_14_concat3_14_0_split
I0226 14:48:26.971408  8074 net.cpp:129] Top shape: 1 992 3 3 (8928)
I0226 14:48:26.971412  8074 net.cpp:129] Top shape: 1 992 3 3 (8928)
I0226 14:48:26.971415  8074 net.cpp:137] Memory required for data: 46994144
I0226 14:48:26.971418  8074 layer_factory.hpp:77] Creating layer conv3_15/bn
I0226 14:48:26.971426  8074 net.cpp:84] Creating Layer conv3_15/bn
I0226 14:48:26.971429  8074 net.cpp:406] conv3_15/bn <- concat3_14_concat3_14_0_split_0
I0226 14:48:26.971436  8074 net.cpp:380] conv3_15/bn -> conv3_15/bn
I0226 14:48:26.971745  8074 net.cpp:122] Setting up conv3_15/bn
I0226 14:48:26.971751  8074 net.cpp:129] Top shape: 1 992 3 3 (8928)
I0226 14:48:26.971755  8074 net.cpp:137] Memory required for data: 47029856
I0226 14:48:26.971762  8074 layer_factory.hpp:77] Creating layer conv3_15/scale
I0226 14:48:26.971770  8074 net.cpp:84] Creating Layer conv3_15/scale
I0226 14:48:26.971773  8074 net.cpp:406] conv3_15/scale <- conv3_15/bn
I0226 14:48:26.971778  8074 net.cpp:367] conv3_15/scale -> conv3_15/bn (in-place)
I0226 14:48:26.971850  8074 layer_factory.hpp:77] Creating layer conv3_15/scale
I0226 14:48:26.972025  8074 net.cpp:122] Setting up conv3_15/scale
I0226 14:48:26.972033  8074 net.cpp:129] Top shape: 1 992 3 3 (8928)
I0226 14:48:26.972036  8074 net.cpp:137] Memory required for data: 47065568
I0226 14:48:26.972041  8074 layer_factory.hpp:77] Creating layer relu3_15
I0226 14:48:26.972048  8074 net.cpp:84] Creating Layer relu3_15
I0226 14:48:26.972051  8074 net.cpp:406] relu3_15 <- conv3_15/bn
I0226 14:48:26.972055  8074 net.cpp:367] relu3_15 -> conv3_15/bn (in-place)
I0226 14:48:26.972345  8074 net.cpp:122] Setting up relu3_15
I0226 14:48:26.972354  8074 net.cpp:129] Top shape: 1 992 3 3 (8928)
I0226 14:48:26.972357  8074 net.cpp:137] Memory required for data: 47101280
I0226 14:48:26.972362  8074 layer_factory.hpp:77] Creating layer conv3_15
I0226 14:48:26.972374  8074 net.cpp:84] Creating Layer conv3_15
I0226 14:48:26.972378  8074 net.cpp:406] conv3_15 <- conv3_15/bn
I0226 14:48:26.972384  8074 net.cpp:380] conv3_15 -> conv3_15
I0226 14:48:26.984836  8074 net.cpp:122] Setting up conv3_15
I0226 14:48:26.984850  8074 net.cpp:129] Top shape: 1 32 3 3 (288)
I0226 14:48:26.984856  8074 net.cpp:137] Memory required for data: 47102432
I0226 14:48:26.984863  8074 layer_factory.hpp:77] Creating layer concat3_15
I0226 14:48:26.984870  8074 net.cpp:84] Creating Layer concat3_15
I0226 14:48:26.984875  8074 net.cpp:406] concat3_15 <- concat3_14_concat3_14_0_split_1
I0226 14:48:26.984880  8074 net.cpp:406] concat3_15 <- conv3_15
I0226 14:48:26.984886  8074 net.cpp:380] concat3_15 -> concat3_15
I0226 14:48:26.984932  8074 net.cpp:122] Setting up concat3_15
I0226 14:48:26.984939  8074 net.cpp:129] Top shape: 1 1024 3 3 (9216)
I0226 14:48:26.984942  8074 net.cpp:137] Memory required for data: 47139296
I0226 14:48:26.984946  8074 layer_factory.hpp:77] Creating layer gp
I0226 14:48:26.984954  8074 net.cpp:84] Creating Layer gp
I0226 14:48:26.984958  8074 net.cpp:406] gp <- concat3_15
I0226 14:48:26.984963  8074 net.cpp:380] gp -> gp
I0226 14:48:26.986171  8074 net.cpp:122] Setting up gp
I0226 14:48:26.986183  8074 net.cpp:129] Top shape: 1 1024 1 1 (1024)
I0226 14:48:26.986186  8074 net.cpp:137] Memory required for data: 47143392
I0226 14:48:26.986191  8074 layer_factory.hpp:77] Creating layer fc6_d
I0226 14:48:26.986202  8074 net.cpp:84] Creating Layer fc6_d
I0226 14:48:26.986205  8074 net.cpp:406] fc6_d <- gp
I0226 14:48:26.986213  8074 net.cpp:380] fc6_d -> fc6_d
I0226 14:48:27.113164  8074 net.cpp:122] Setting up fc6_d
I0226 14:48:27.113193  8074 net.cpp:129] Top shape: 1 4096 (4096)
I0226 14:48:27.113196  8074 net.cpp:137] Memory required for data: 47159776
I0226 14:48:27.113206  8074 layer_factory.hpp:77] Creating layer relu6
I0226 14:48:27.113216  8074 net.cpp:84] Creating Layer relu6
I0226 14:48:27.113222  8074 net.cpp:406] relu6 <- fc6_d
I0226 14:48:27.113229  8074 net.cpp:367] relu6 -> fc6_d (in-place)
I0226 14:48:27.113593  8074 net.cpp:122] Setting up relu6
I0226 14:48:27.113603  8074 net.cpp:129] Top shape: 1 4096 (4096)
I0226 14:48:27.113607  8074 net.cpp:137] Memory required for data: 47176160
I0226 14:48:27.113611  8074 layer_factory.hpp:77] Creating layer fc7_d
I0226 14:48:27.113620  8074 net.cpp:84] Creating Layer fc7_d
I0226 14:48:27.113622  8074 net.cpp:406] fc7_d <- fc6_d
I0226 14:48:27.113628  8074 net.cpp:380] fc7_d -> fc7_d
I0226 14:48:27.626190  8074 net.cpp:122] Setting up fc7_d
I0226 14:48:27.626226  8074 net.cpp:129] Top shape: 1 4096 (4096)
I0226 14:48:27.626230  8074 net.cpp:137] Memory required for data: 47192544
I0226 14:48:27.626240  8074 layer_factory.hpp:77] Creating layer relu7
I0226 14:48:27.626250  8074 net.cpp:84] Creating Layer relu7
I0226 14:48:27.626256  8074 net.cpp:406] relu7 <- fc7_d
I0226 14:48:27.626266  8074 net.cpp:367] relu7 -> fc7_d (in-place)
I0226 14:48:27.626653  8074 net.cpp:122] Setting up relu7
I0226 14:48:27.626662  8074 net.cpp:129] Top shape: 1 4096 (4096)
I0226 14:48:27.626667  8074 net.cpp:137] Memory required for data: 47208928
I0226 14:48:27.626670  8074 layer_factory.hpp:77] Creating layer fc8_d
I0226 14:48:27.626680  8074 net.cpp:84] Creating Layer fc8_d
I0226 14:48:27.626684  8074 net.cpp:406] fc8_d <- fc7_d
I0226 14:48:27.626690  8074 net.cpp:380] fc8_d -> fc8_d
I0226 14:48:27.703845  8074 net.cpp:122] Setting up fc8_d
I0226 14:48:27.703861  8074 net.cpp:129] Top shape: 1 618 (618)
I0226 14:48:27.703864  8074 net.cpp:137] Memory required for data: 47211400
I0226 14:48:27.703872  8074 layer_factory.hpp:77] Creating layer fc8_d_fc8_d_0_split
I0226 14:48:27.703879  8074 net.cpp:84] Creating Layer fc8_d_fc8_d_0_split
I0226 14:48:27.703884  8074 net.cpp:406] fc8_d_fc8_d_0_split <- fc8_d
I0226 14:48:27.703891  8074 net.cpp:380] fc8_d_fc8_d_0_split -> fc8_d_fc8_d_0_split_0
I0226 14:48:27.703900  8074 net.cpp:380] fc8_d_fc8_d_0_split -> fc8_d_fc8_d_0_split_1
I0226 14:48:27.703948  8074 net.cpp:122] Setting up fc8_d_fc8_d_0_split
I0226 14:48:27.703954  8074 net.cpp:129] Top shape: 1 618 (618)
I0226 14:48:27.703958  8074 net.cpp:129] Top shape: 1 618 (618)
I0226 14:48:27.703961  8074 net.cpp:137] Memory required for data: 47216344
I0226 14:48:27.703964  8074 layer_factory.hpp:77] Creating layer sigmoid
I0226 14:48:27.703975  8074 net.cpp:84] Creating Layer sigmoid
I0226 14:48:27.703979  8074 net.cpp:406] sigmoid <- fc8_d_fc8_d_0_split_0
I0226 14:48:27.703985  8074 net.cpp:380] sigmoid -> sigmoid
I0226 14:48:27.705296  8074 net.cpp:122] Setting up sigmoid
I0226 14:48:27.705310  8074 net.cpp:129] Top shape: 1 618 (618)
I0226 14:48:27.705313  8074 net.cpp:137] Memory required for data: 47218816
I0226 14:48:27.705318  8074 layer_factory.hpp:77] Creating layer silence
I0226 14:48:27.705330  8074 net.cpp:84] Creating Layer silence
I0226 14:48:27.705334  8074 net.cpp:406] silence <- sigmoid
I0226 14:48:27.705339  8074 net.cpp:122] Setting up silence
I0226 14:48:27.705343  8074 net.cpp:137] Memory required for data: 47218816
…
