…
  phase: TRAIN
}
layer {
  name: "word_images"
  type: "Data"
  top: "word_images"
  top: "label"
  transform_param {
    scale: -0.0039215689
    mean_value: 255
  }
  data_param {
    source: "/data/fwolf/iam_50000/iam-db_nti500000_pul2-3-4-5_train_word_images_lmdb"
    batch_size: 1
    backend: LMDB
    prefetch: 20
  }
}
layer {
  name: "phocs"
  type: "Data"
  top: "phocs"
  top: "label_phocs"
  data_param {
    source: "/data/fwolf/iam_50000/iam-db_nti500000_pul2-3-4-5_train_phocs_lmdb"
    batch_size: 1
    backend: LMDB
    prefetch: 20
  }
}
layer {
  name: "conv_init"
  type: "Convolution"
  bottom: "word_images"
  top: "conv_init"
  convolution_param {
    num_output: 32
    bias_term: false
    pad: 1
    kernel_size: 3
    stride: 1
    weight_filler {
      type: "msra"
    }
    bias_filler {
      type: "constant"
    }
    engine: CUDNN
  }
}
layer {
  name: "conv0_0/bn"
  type: "BatchNorm"
  bottom: "conv_init"
  top: "conv0_0/bn"
  param {
    lr_mult: 0
    decay_mult: 0
  }
  param {
    lr_mult: 0
    decay_mult: 0
  }
  param {
    lr_mult: 0
    decay_mult: 0
  }
}
layer {
  name: "conv0_0/scale"
  type: "Scale"
  bottom: "conv0_0/bn"
  top: "conv0_0/bn"
  scale_param {
    filler {
      value: 1
    }
    bias_term: true
    bias_filler {
      value: 0
    }
  }
}
layer {
  name: "relu0_0"
  type: "ReLU"
  bottom: "conv0_0/bn"
  top: "conv0_0/bn"
}
layer {
  name: "conv0_0"
  type: "Convolution"
  bottom: "conv0_0/bn"
  top: "conv0_0"
  convolution_param {
    num_output: 12
    bias_term: false
    pad: 1
    kernel_size: 3
    stride: 1
    weight_filler {
      type: "msra"
    }
    bias_filler {
      type: "constant"
    }
    engine: CUDNN
  }
}
layer {
  name: "concat0_0"
  type: "Concat"
  bottom: "conv_init"
  bottom: "conv0_0"
  top: "concat0_0"
  concat_param {
    axis: 1
  }
}
layer {
  name: "conv0_1/bn"
  type: "BatchNorm"
  bottom: "concat0_0"
  top: "conv0_1/bn"
  param {
    lr_mult: 0
    decay_mult: 0
  }
  param {
    lr_mult: 0
    decay_mult: 0
  }
  param {
    lr_mult: 0
    decay_mult: 0
  }
}
layer {
  name: "conv0_1/scale"
  type: "Scale"
  bottom: "conv0_1/bn"
  top: "conv0_1/bn"
  scale_param {
    filler {
      value: 1
    }
    bias_term: true
    bias_filler {
      value: 0
    }
  }
}
layer {
  name: "relu0_1"
  type: "ReLU"
  bottom: "conv0_1/bn"
  top: "conv0_1/bn"
}
layer {
  name: "conv0_1"
  type: "Convolution"
  bottom: "conv0_1/bn"
  top: "conv0_1"
  convolution_param {
    num_output: 12
    bias_term: false
    pad: 1
    kernel_size: 3
    stride: 1
    weight_filler {
      type: "msra"
    }
    bias_filler {
      type: "constant"
    }
    engine: CUDNN
  }
}
layer {
  name: "concat0_1"
  type: "Concat"
  bottom: "concat0_0"
  bottom: "conv0_1"
  top: "concat0_1"
  concat_param {
    axis: 1
  }
}
layer {
  name: "conv0_2/bn"
  type: "BatchNorm"
  bottom: "concat0_1"
  top: "conv0_2/bn"
  param {
    lr_mult: 0
    decay_mult: 0
  }
  param {
    lr_mult: 0
    decay_mult: 0
  }
  param {
    lr_mult: 0
    decay_mult: 0
  }
}
layer {
  name: "conv0_2/scale"
  type: "Scale"
  bottom: "conv0_2/bn"
  top: "conv0_2/bn"
  scale_param {
    filler {
      value: 1
    }
    bias_term: true
    bias_filler {
      value: 0
    }
  }
}
layer {
  name: "relu0_2"
  type: "ReLU"
  bottom: "conv0_2/bn"
  top: "conv0_2/bn"
}
layer {
  name: "conv0_2"
  type: "Convolution"
  bottom: "conv0_2/bn"
  top: "conv0_2"
  convolution_param {
    num_output: 12
    bias_term: false
    pad: 1
    kernel_size: 3
    stride: 1
    weight_filler {
      type: "msra"
    }
    bias_filler {
      type: "constant"
    }
    engine: CUDNN
  }
}
layer {
  name: "concat0_2"
  type: "Concat"
  bottom: "concat0_1"
  bottom: "conv0_2"
  top: "concat0_2"
  concat_param {
    axis: 1
  }
}
layer {
  name: "conv0_3/bn"
  type: "BatchNorm"
  bottom: "concat0_2"
  top: "conv0_3/bn"
  param {
    lr_mult: 0
    decay_mult: 0
  }
  param {
    lr_mult: 0
    decay_mult: 0
  }
  param {
    lr_mult: 0
    decay_mult: 0
  }
}
layer {
  name: "conv0_3/scale"
  type: "Scale"
  bottom: "conv0_3/bn"
  top: "conv0_3/bn"
  scale_param {
    filler {
      value: 1
    }
    bias_term: true
    bias_filler {
      value: 0
    }
  }
}
layer {
  name: "relu0_3"
  type: "ReLU"
  bottom: "conv0_3/bn"
  top: "conv0_3/bn"
}
layer {
  name: "conv0_3"
  type: "Convolution"
  bottom: "conv0_3/bn"
  top: "conv0_3"
  convolution_param {
    num_output: 12
    bias_term: false
    pad: 1
    kernel_size: 3
    stride: 1
    weight_filler {
      type: "msra"
    }
    bias_filler {
      type: "constant"
    }
    engine: CUDNN
  }
}
layer {
  name: "concat0_3"
  type: "Concat"
  bottom: "concat0_2"
  bottom: "conv0_3"
  top: "concat0_3"
  concat_param {
    axis: 1
  }
}
layer {
  name: "conv0_4/bn"
  type: "BatchNorm"
  bottom: "concat0_3"
  top: "conv0_4/bn"
  param {
    lr_mult: 0
    decay_mult: 0
  }
  param {
    lr_mult: 0
    decay_mult: 0
  }
  param {
    lr_mult: 0
    decay_mult: 0
  }
}
layer {
  name: "conv0_4/scale"
  type: "Scale"
  bottom: "conv0_4/bn"
  top: "conv0_4/bn"
  scale_param {
    filler {
      value: 1
    }
    bias_term: true
    bias_filler {
      value: 0
    }
  }
}
layer {
  name: "relu0_4"
  type: "ReLU"
  bottom: "conv0_4/bn"
  top: "conv0_4/bn"
}
layer {
  name: "conv0_4"
  type: "Convolution"
  bottom: "conv0_4/bn"
  top: "conv0_4"
  convolution_param {
    num_output: 12
    bias_term: false
    pad: 1
    kernel_size: 3
    stride: 1
    weight_filler {
      type: "msra"
    }
    bias_filler {
      type: "constant"
    }
    engine: CUDNN
  }
}
layer {
  name: "concat0_4"
  type: "Concat"
  bottom: "concat0_3"
  bottom: "conv0_4"
  top: "concat0_4"
  concat_param {
    axis: 1
  }
}
layer {
  name: "BatchNorm1"
  type: "BatchNorm"
  bottom: "concat0_4"
  top: "BatchNorm1"
  param {
    lr_mult: 0
    decay_mult: 0
  }
  param {
    lr_mult: 0
    decay_mult: 0
  }
  param {
    lr_mult: 0
    decay_mult: 0
  }
}
layer {
  name: "Scale1"
  type: "Scale"
  bottom: "BatchNorm1"
  top: "BatchNorm1"
  scale_param {
    filler {
      value: 1
    }
    bias_term: true
    bias_filler {
      value: 0
    }
  }
}
layer {
  name: "ReLU1"
  type: "ReLU"
  bottom: "BatchNorm1"
  top: "BatchNorm1"
}
layer {
  name: "conv0_blk"
  type: "Convolution"
  bottom: "BatchNorm1"
  top: "conv0_blk"
  convolution_param {
    num_output: 46
    bias_term: false
    pad: 0
    kernel_size: 1
    stride: 1
    weight_filler {
      type: "msra"
    }
    bias_filler {
      type: "constant"
    }
    engine: CUDNN
  }
}
layer {
  name: "pool0"
  type: "Pooling"
  bottom: "conv0_blk"
  top: "pool0"
  pooling_param {
    pool: AVE
    kernel_size: 2
    stride: 2
  }
}
layer {
  name: "conv1_0/bn"
  type: "BatchNorm"
  bottom: "pool0"
  top: "conv1_0/bn"
  param {
    lr_mult: 0
    decay_mult: 0
  }
  param {
    lr_mult: 0
    decay_mult: 0
  }
  param {
    lr_mult: 0
    decay_mult: 0
  }
}
layer {
  name: "conv1_0/scale"
  type: "Scale"
  bottom: "conv1_0/bn"
  top: "conv1_0/bn"
  scale_param {
    filler {
      value: 1
    }
    bias_term: true
    bias_filler {
      value: 0
    }
  }
}
layer {
  name: "relu1_0"
  type: "ReLU"
  bottom: "conv1_0/bn"
  top: "conv1_0/bn"
}
layer {
  name: "conv1_0"
  type: "Convolution"
  bottom: "conv1_0/bn"
  top: "conv1_0"
  convolution_param {
    num_output: 12
    bias_term: false
    pad: 1
    kernel_size: 3
    stride: 1
    weight_filler {
      type: "msra"
    }
    bias_filler {
      type: "constant"
    }
    engine: CUDNN
  }
}
layer {
  name: "concat1_0"
  type: "Concat"
  bottom: "pool0"
  bottom: "conv1_0"
  top: "concat1_0"
  concat_param {
    axis: 1
  }
}
layer {
  name: "conv1_1/bn"
  type: "BatchNorm"
  bottom: "concat1_0"
  top: "conv1_1/bn"
  param {
    lr_mult: 0
    decay_mult: 0
  }
  param {
    lr_mult: 0
    decay_mult: 0
  }
  param {
    lr_mult: 0
    decay_mult: 0
  }
}
layer {
  name: "conv1_1/scale"
  type: "Scale"
  bottom: "conv1_1/bn"
  top: "conv1_1/bn"
  scale_param {
    filler {
      value: 1
    }
    bias_term: true
    bias_filler {
      value: 0
    }
  }
}
layer {
  name: "relu1_1"
  type: "ReLU"
  bottom: "conv1_1/bn"
  top: "conv1_1/bn"
}
layer {
  name: "conv1_1"
  type: "Convolution"
  bottom: "conv1_1/bn"
  top: "conv1_1"
  convolution_param {
    num_output: 12
    bias_term: false
    pad: 1
    kernel_size: 3
    stride: 1
    weight_filler {
      type: "msra"
    }
    bias_filler {
      type: "constant"
    }
    engine: CUDNN
  }
}
layer {
  name: "concat1_1"
  type: "Concat"
  bottom: "concat1_0"
  bottom: "conv1_1"
  top: "concat1_1"
  concat_param {
    axis: 1
  }
}
layer {
  name: "conv1_2/bn"
  type: "BatchNorm"
  bottom: "concat1_1"
  top: "conv1_2/bn"
  param {
    lr_mult: 0
    decay_mult: 0
  }
  param {
    lr_mult: 0
    decay_mult: 0
  }
  param {
    lr_mult: 0
    decay_mult: 0
  }
}
layer {
  name: "conv1_2/scale"
  type: "Scale"
  bottom: "conv1_2/bn"
  top: "conv1_2/bn"
  scale_param {
    filler {
      value: 1
    }
    bias_term: true
    bias_filler {
      value: 0
    }
  }
}
layer {
  name: "relu1_2"
  type: "ReLU"
  bottom: "conv1_2/bn"
  top: "conv1_2/bn"
}
layer {
  name: "conv1_2"
  type: "Convolution"
  bottom: "conv1_2/bn"
  top: "conv1_2"
  convolution_param {
    num_output: 12
    bias_term: false
    pad: 1
    kernel_size: 3
    stride: 1
    weight_filler {
      type: "msra"
    }
    bias_filler {
      type: "constant"
    }
    engine: CUDNN
  }
}
layer {
  name: "concat1_2"
  type: "Concat"
  bottom: "concat1_1"
  bottom: "conv1_2"
  top: "concat1_2"
  concat_param {
    axis: 1
  }
}
layer {
  name: "conv1_3/bn"
  type: "BatchNorm"
  bottom: "concat1_2"
  top: "conv1_3/bn"
  param {
    lr_mult: 0
    decay_mult: 0
  }
  param {
    lr_mult: 0
    decay_mult: 0
  }
  param {
    lr_mult: 0
    decay_mult: 0
  }
}
layer {
  name: "conv1_3/scale"
  type: "Scale"
  bottom: "conv1_3/bn"
  top: "conv1_3/bn"
  scale_param {
    filler {
      value: 1
    }
    bias_term: true
    bias_filler {
      value: 0
    }
  }
}
layer {
  name: "relu1_3"
  type: "ReLU"
  bottom: "conv1_3/bn"
  top: "conv1_3/bn"
}
layer {
  name: "conv1_3"
  type: "Convolution"
  bottom: "conv1_3/bn"
  top: "conv1_3"
  convolution_param {
    num_output: 12
    bias_term: false
    pad: 1
    kernel_size: 3
    stride: 1
    weight_filler {
      type: "msra"
    }
    bias_filler {
      type: "constant"
    }
    engine: CUDNN
  }
}
layer {
  name: "concat1_3"
  type: "Concat"
  bottom: "concat1_2"
  bottom: "conv1_3"
  top: "concat1_3"
  concat_param {
    axis: 1
  }
}
layer {
  name: "conv1_4/bn"
  type: "BatchNorm"
  bottom: "concat1_3"
  top: "conv1_4/bn"
  param {
    lr_mult: 0
    decay_mult: 0
  }
  param {
    lr_mult: 0
    decay_mult: 0
  }
  param {
    lr_mult: 0
    decay_mult: 0
  }
}
layer {
  name: "conv1_4/scale"
  type: "Scale"
  bottom: "conv1_4/bn"
  top: "conv1_4/bn"
  scale_param {
    filler {
      value: 1
    }
    bias_term: true
    bias_filler {
      value: 0
    }
  }
}
layer {
  name: "relu1_4"
  type: "ReLU"
  bottom: "conv1_4/bn"
  top: "conv1_4/bn"
}
layer {
  name: "conv1_4"
  type: "Convolution"
  bottom: "conv1_4/bn"
  top: "conv1_4"
  convolution_param {
    num_output: 12
    bias_term: false
    pad: 1
    kernel_size: 3
    stride: 1
    weight_filler {
      type: "msra"
    }
    bias_filler {
      type: "constant"
    }
    engine: CUDNN
  }
}
layer {
  name: "concat1_4"
  type: "Concat"
  bottom: "concat1_3"
  bottom: "conv1_4"
  top: "concat1_4"
  concat_param {
    axis: 1
  }
}
layer {
  name: "BatchNorm2"
  type: "BatchNorm"
  bottom: "concat1_4"
  top: "BatchNorm2"
  param {
    lr_mult: 0
    decay_mult: 0
  }
  param {
    lr_mult: 0
    decay_mult: 0
  }
  param {
    lr_mult: 0
    decay_mult: 0
  }
}
layer {
  name: "Scale2"
  type: "Scale"
  bottom: "BatchNorm2"
  top: "BatchNorm2"
  scale_param {
    filler {
      value: 1
    }
    bias_term: true
    bias_filler {
      value: 0
    }
  }
}
layer {
  name: "ReLU2"
  type: "ReLU"
  bottom: "BatchNorm2"
  top: "BatchNorm2"
}
layer {
  name: "conv1_blk"
  type: "Convolution"
  bottom: "BatchNorm2"
  top: "conv1_blk"
  convolution_param {
    num_output: 53
    bias_term: false
    pad: 0
    kernel_size: 1
    stride: 1
    weight_filler {
      type: "msra"
    }
    bias_filler {
      type: "constant"
    }
    engine: CUDNN
  }
}
layer {
  name: "pool1"
  type: "Pooling"
  bottom: "conv1_blk"
  top: "pool1"
  pooling_param {
    pool: AVE
    kernel_size: 2
    stride: 2
  }
}
layer {
  name: "conv2_0/bn"
  type: "BatchNorm"
  bottom: "pool1"
  top: "conv2_0/bn"
  param {
    lr_mult: 0
    decay_mult: 0
  }
  param {
    lr_mult: 0
    decay_mult: 0
  }
  param {
    lr_mult: 0
    decay_mult: 0
  }
}
layer {
  name: "conv2_0/scale"
  type: "Scale"
  bottom: "conv2_0/bn"
  top: "conv2_0/bn"
  scale_param {
    filler {
      value: 1
    }
    bias_term: true
    bias_filler {
      value: 0
    }
  }
}
layer {
  name: "relu2_0"
  type: "ReLU"
  bottom: "conv2_0/bn"
  top: "conv2_0/bn"
}
layer {
  name: "conv2_0"
  type: "Convolution"
  bottom: "conv2_0/bn"
  top: "conv2_0"
  convolution_param {
    num_output: 12
    bias_term: false
    pad: 1
    kernel_size: 3
    stride: 1
    weight_filler {
      type: "msra"
    }
    bias_filler {
      type: "constant"
    }
    engine: CUDNN
  }
}
layer {
  name: "concat2_0"
  type: "Concat"
  bottom: "pool1"
  bottom: "conv2_0"
  top: "concat2_0"
  concat_param {
    axis: 1
  }
}
layer {
  name: "conv2_1/bn"
  type: "BatchNorm"
  bottom: "concat2_0"
  top: "conv2_1/bn"
  param {
    lr_mult: 0
    decay_mult: 0
  }
  param {
    lr_mult: 0
    decay_mult: 0
  }
  param {
    lr_mult: 0
    decay_mult: 0
  }
}
layer {
  name: "conv2_1/scale"
  type: "Scale"
  bottom: "conv2_1/bn"
  top: "conv2_1/bn"
  scale_param {
    filler {
      value: 1
    }
    bias_term: true
    bias_filler {
      value: 0
    }
  }
}
layer {
  name: "relu2_1"
  type: "ReLU"
  bottom: "conv2_1/bn"
  top: "conv2_1/bn"
}
layer {
  name: "conv2_1"
  type: "Convolution"
  bottom: "conv2_1/bn"
  top: "conv2_1"
  convolution_param {
    num_output: 12
    bias_term: false
    pad: 1
    kernel_size: 3
    stride: 1
    weight_filler {
      type: "msra"
    }
    bias_filler {
      type: "constant"
    }
    engine: CUDNN
  }
}
layer {
  name: "concat2_1"
  type: "Concat"
  bottom: "concat2_0"
  bottom: "conv2_1"
  top: "concat2_1"
  concat_param {
    axis: 1
  }
}
layer {
  name: "conv2_2/bn"
  type: "BatchNorm"
  bottom: "concat2_1"
  top: "conv2_2/bn"
  param {
    lr_mult: 0
    decay_mult: 0
  }
  param {
    lr_mult: 0
    decay_mult: 0
  }
  param {
    lr_mult: 0
    decay_mult: 0
  }
}
layer {
  name: "conv2_2/scale"
  type: "Scale"
  bottom: "conv2_2/bn"
  top: "conv2_2/bn"
  scale_param {
    filler {
      value: 1
    }
    bias_term: true
    bias_filler {
      value: 0
    }
  }
}
layer {
  name: "relu2_2"
  type: "ReLU"
  bottom: "conv2_2/bn"
  top: "conv2_2/bn"
}
layer {
  name: "conv2_2"
  type: "Convolution"
  bottom: "conv2_2/bn"
  top: "conv2_2"
  convolution_param {
    num_output: 12
    bias_term: false
    pad: 1
    kernel_size: 3
    stride: 1
    weight_filler {
      type: "msra"
    }
    bias_filler {
      type: "constant"
    }
    engine: CUDNN
  }
}
layer {
  name: "concat2_2"
  type: "Concat"
  bottom: "concat2_1"
  bottom: "conv2_2"
  top: "concat2_2"
  concat_param {
    axis: 1
  }
}
layer {
  name: "conv2_3/bn"
  type: "BatchNorm"
  bottom: "concat2_2"
  top: "conv2_3/bn"
  param {
    lr_mult: 0
    decay_mult: 0
  }
  param {
    lr_mult: 0
    decay_mult: 0
  }
  param {
    lr_mult: 0
    decay_mult: 0
  }
}
layer {
  name: "conv2_3/scale"
  type: "Scale"
  bottom: "conv2_3/bn"
  top: "conv2_3/bn"
  scale_param {
    filler {
      value: 1
    }
    bias_term: true
    bias_filler {
      value: 0
    }
  }
}
layer {
  name: "relu2_3"
  type: "ReLU"
  bottom: "conv2_3/bn"
  top: "conv2_3/bn"
}
layer {
  name: "conv2_3"
  type: "Convolution"
  bottom: "conv2_3/bn"
  top: "conv2_3"
  convolution_param {
    num_output: 12
    bias_term: false
    pad: 1
    kernel_size: 3
    stride: 1
    weight_filler {
      type: "msra"
    }
    bias_filler {
      type: "constant"
    }
    engine: CUDNN
  }
}
layer {
  name: "concat2_3"
  type: "Concat"
  bottom: "concat2_2"
  bottom: "conv2_3"
  top: "concat2_3"
  concat_param {
    axis: 1
  }
}
layer {
  name: "conv2_4/bn"
  type: "BatchNorm"
  bottom: "concat2_3"
  top: "conv2_4/bn"
  param {
    lr_mult: 0
    decay_mult: 0
  }
  param {
    lr_mult: 0
    decay_mult: 0
  }
  param {
    lr_mult: 0
    decay_mult: 0
  }
}
layer {
  name: "conv2_4/scale"
  type: "Scale"
  bottom: "conv2_4/bn"
  top: "conv2_4/bn"
  scale_param {
    filler {
      value: 1
    }
    bias_term: true
    bias_filler {
      value: 0
    }
  }
}
layer {
  name: "relu2_4"
  type: "ReLU"
  bottom: "conv2_4/bn"
  top: "conv2_4/bn"
}
layer {
  name: "conv2_4"
  type: "Convolution"
  bottom: "conv2_4/bn"
  top: "conv2_4"
  convolution_param {
    num_output: 12
    bias_term: false
    pad: 1
    kernel_size: 3
    stride: 1
    weight_filler {
      type: "msra"
    }
    bias_filler {
      type: "constant"
    }
    engine: CUDNN
  }
}
layer {
  name: "concat2_4"
  type: "Concat"
  bottom: "concat2_3"
  bottom: "conv2_4"
  top: "concat2_4"
  concat_param {
    axis: 1
  }
}
layer {
  name: "conv2_5/bn"
  type: "BatchNorm"
  bottom: "concat2_4"
  top: "conv2_5/bn"
  param {
    lr_mult: 0
    decay_mult: 0
  }
  param {
    lr_mult: 0
    decay_mult: 0
  }
  param {
    lr_mult: 0
    decay_mult: 0
  }
}
layer {
  name: "conv2_5/scale"
  type: "Scale"
  bottom: "conv2_5/bn"
  top: "conv2_5/bn"
  scale_param {
    filler {
      value: 1
    }
    bias_term: true
    bias_filler {
      value: 0
    }
  }
}
layer {
  name: "relu2_5"
  type: "ReLU"
  bottom: "conv2_5/bn"
  top: "conv2_5/bn"
}
layer {
  name: "conv2_5"
  type: "Convolution"
  bottom: "conv2_5/bn"
  top: "conv2_5"
  convolution_param {
    num_output: 12
    bias_term: false
    pad: 1
    kernel_size: 3
    stride: 1
    weight_filler {
      type: "msra"
    }
    bias_filler {
      type: "constant"
    }
    engine: CUDNN
  }
}
layer {
  name: "concat2_5"
  type: "Concat"
  bottom: "concat2_4"
  bottom: "conv2_5"
  top: "concat2_5"
  concat_param {
    axis: 1
  }
}
layer {
  name: "conv2_6/bn"
  type: "BatchNorm"
  bottom: "concat2_5"
  top: "conv2_6/bn"
  param {
    lr_mult: 0
    decay_mult: 0
  }
  param {
    lr_mult: 0
    decay_mult: 0
  }
  param {
    lr_mult: 0
    decay_mult: 0
  }
}
layer {
  name: "conv2_6/scale"
  type: "Scale"
  bottom: "conv2_6/bn"
  top: "conv2_6/bn"
  scale_param {
    filler {
      value: 1
    }
    bias_term: true
    bias_filler {
      value: 0
    }
  }
}
layer {
  name: "relu2_6"
  type: "ReLU"
  bottom: "conv2_6/bn"
  top: "conv2_6/bn"
}
layer {
  name: "conv2_6"
  type: "Convolution"
  bottom: "conv2_6/bn"
  top: "conv2_6"
  convolution_param {
    num_output: 12
    bias_term: false
    pad: 1
    kernel_size: 3
    stride: 1
    weight_filler {
      type: "msra"
    }
    bias_filler {
      type: "constant"
    }
    engine: CUDNN
  }
}
layer {
  name: "concat2_6"
  type: "Concat"
  bottom: "concat2_5"
  bottom: "conv2_6"
  top: "concat2_6"
  concat_param {
    axis: 1
  }
}
layer {
  name: "conv2_7/bn"
  type: "BatchNorm"
  bottom: "concat2_6"
  top: "conv2_7/bn"
  param {
    lr_mult: 0
    decay_mult: 0
  }
  param {
    lr_mult: 0
    decay_mult: 0
  }
  param {
    lr_mult: 0
    decay_mult: 0
  }
}
layer {
  name: "conv2_7/scale"
  type: "Scale"
  bottom: "conv2_7/bn"
  top: "conv2_7/bn"
  scale_param {
    filler {
      value: 1
    }
    bias_term: true
    bias_filler {
      value: 0
    }
  }
}
layer {
  name: "relu2_7"
  type: "ReLU"
  bottom: "conv2_7/bn"
  top: "conv2_7/bn"
}
layer {
  name: "conv2_7"
  type: "Convolution"
  bottom: "conv2_7/bn"
  top: "conv2_7"
  convolution_param {
    num_output: 12
    bias_term: false
    pad: 1
    kernel_size: 3
    stride: 1
    weight_filler {
      type: "msra"
    }
    bias_filler {
      type: "constant"
    }
    engine: CUDNN
  }
}
layer {
  name: "concat2_7"
  type: "Concat"
  bottom: "concat2_6"
  bottom: "conv2_7"
  top: "concat2_7"
  concat_param {
    axis: 1
  }
}
layer {
  name: "conv2_8/bn"
  type: "BatchNorm"
  bottom: "concat2_7"
  top: "conv2_8/bn"
  param {
    lr_mult: 0
    decay_mult: 0
  }
  param {
    lr_mult: 0
    decay_mult: 0
  }
  param {
    lr_mult: 0
    decay_mult: 0
  }
}
layer {
  name: "conv2_8/scale"
  type: "Scale"
  bottom: "conv2_8/bn"
  top: "conv2_8/bn"
  scale_param {
    filler {
      value: 1
    }
    bias_term: true
    bias_filler {
      value: 0
    }
  }
}
layer {
  name: "relu2_8"
  type: "ReLU"
  bottom: "conv2_8/bn"
  top: "conv2_8/bn"
}
layer {
  name: "conv2_8"
  type: "Convolution"
  bottom: "conv2_8/bn"
  top: "conv2_8"
  convolution_param {
    num_output: 12
    bias_term: false
    pad: 1
    kernel_size: 3
    stride: 1
    weight_filler {
      type: "msra"
    }
    bias_filler {
      type: "constant"
    }
    engine: CUDNN
  }
}
layer {
  name: "concat2_8"
  type: "Concat"
  bottom: "concat2_7"
  bottom: "conv2_8"
  top: "concat2_8"
  concat_param {
    axis: 1
  }
}
layer {
  name: "conv2_9/bn"
  type: "BatchNorm"
  bottom: "concat2_8"
  top: "conv2_9/bn"
  param {
    lr_mult: 0
    decay_mult: 0
  }
  param {
    lr_mult: 0
    decay_mult: 0
  }
  param {
    lr_mult: 0
    decay_mult: 0
  }
}
layer {
  name: "conv2_9/scale"
  type: "Scale"
  bottom: "conv2_9/bn"
  top: "conv2_9/bn"
  scale_param {
    filler {
      value: 1
    }
    bias_term: true
    bias_filler {
      value: 0
    }
  }
}
layer {
  name: "relu2_9"
  type: "ReLU"
  bottom: "conv2_9/bn"
  top: "conv2_9/bn"
}
layer {
  name: "conv2_9"
  type: "Convolution"
  bottom: "conv2_9/bn"
  top: "conv2_9"
  convolution_param {
    num_output: 12
    bias_term: false
    pad: 1
    kernel_size: 3
    stride: 1
    weight_filler {
      type: "msra"
    }
    bias_filler {
      type: "constant"
    }
    engine: CUDNN
  }
}
layer {
  name: "concat2_9"
  type: "Concat"
  bottom: "concat2_8"
  bottom: "conv2_9"
  top: "concat2_9"
  concat_param {
    axis: 1
  }
}
layer {
  name: "tpp5"
  type: "TPP"
  bottom: "concat2_9"
  top: "tpp5"
  tpp_param {
    pyramid_layer: 1
    pyramid_layer: 2
    pyramid_layer: 3
    pyramid_layer: 4
    pyramid_layer: 5
    pool: MAX
    engine: CUDNN
  }
}
layer {
  name: "fc6_d"
  type: "InnerProduct"
  bottom: "tpp5"
  top: "fc6_d"
  inner_product_param {
    num_output: 4096
    weight_filler {
      type: "msra"
    }
    bias_filler {
      type: "constant"
    }
  }
}
layer {
  name: "relu6"
  type: "ReLU"
  bottom: "fc6_d"
  top: "fc6_d"
}
layer {
  name: "drop6"
  type: "Dropout"
  bottom: "fc6_d"
  top: "fc6_d"
  include {
    phase: TRAIN
  }
  dropout_param {
    dropout_ratio: 0.5
  }
}
layer {
  name: "fc7_d"
  type: "InnerProduct"
  bottom: "fc6_d"
  top: "fc7_d"
  inner_product_param {
    num_output: 4096
    weight_filler {
      type: "msra"
    }
    bias_filler {
      type: "constant"
    }
  }
}
layer {
  name: "relu7"
  type: "ReLU"
  bottom: "fc7_d"
  top: "fc7_d"
}
layer {
  name: "drop7"
  type: "Dropout"
  bottom: "fc7_d"
  top: "fc7_d"
  include {
    phase: TRAIN
  }
  dropout_param {
    dropout_ratio: 0.5
  }
}
layer {
  name: "fc8_d"
  type: "InnerProduct"
  bottom: "fc7_d"
  top: "fc8_d"
  inner_product_param {
    num_output: 618
    weight_filler {
      type: "msra"
    }
    bias_filler {
      type: "constant"
    }
  }
}
layer {
  name: "loss"
  type: "SigmoidCrossEntropyLoss"
  bottom: "fc8_d"
  bottom: "phocs"
  top: "loss"
}
I0301 08:12:55.428534  5308 layer_factory.hpp:77] Creating layer word_images
I0301 08:12:55.444988  5308 db_lmdb.cpp:35] Opened lmdb /data/fwolf/iam_50000/iam-db_nti500000_pul2-3-4-5_train_word_images_lmdb
I0301 08:12:55.464221  5308 net.cpp:84] Creating Layer word_images
I0301 08:12:55.464249  5308 net.cpp:380] word_images -> word_images
I0301 08:12:55.464275  5308 net.cpp:380] word_images -> label
I0301 08:12:55.471971  5308 data_layer.cpp:44] output data size: 1,1,167,206
I0301 08:12:55.480100  5308 net.cpp:122] Setting up word_images
I0301 08:12:55.480129  5308 net.cpp:129] Top shape: 1 1 167 206 (34402)
I0301 08:12:55.480140  5308 net.cpp:129] Top shape: 1 (1)
I0301 08:12:55.480147  5308 net.cpp:137] Memory required for data: 137612
I0301 08:12:55.480155  5308 layer_factory.hpp:77] Creating layer phocs
I0301 08:12:55.480357  5308 db_lmdb.cpp:35] Opened lmdb /data/fwolf/iam_50000/iam-db_nti500000_pul2-3-4-5_train_phocs_lmdb
I0301 08:12:55.582571  5308 net.cpp:84] Creating Layer phocs
I0301 08:12:55.582602  5308 net.cpp:380] phocs -> phocs
I0301 08:12:55.582620  5308 net.cpp:380] phocs -> label_phocs
I0301 08:12:55.583132  5308 data_layer.cpp:44] output data size: 1,1,1,618
I0301 08:12:55.587517  5308 net.cpp:122] Setting up phocs
I0301 08:12:55.587544  5308 net.cpp:129] Top shape: 1 1 1 618 (618)
I0301 08:12:55.587554  5308 net.cpp:129] Top shape: 1 (1)
I0301 08:12:55.587561  5308 net.cpp:137] Memory required for data: 140088
I0301 08:12:55.587569  5308 layer_factory.hpp:77] Creating layer conv_init
I0301 08:12:55.587594  5308 net.cpp:84] Creating Layer conv_init
I0301 08:12:55.587601  5308 net.cpp:406] conv_init <- word_images
I0301 08:12:55.587616  5308 net.cpp:380] conv_init -> conv_init
I0301 08:12:56.209830  5308 net.cpp:122] Setting up conv_init
I0301 08:12:56.209861  5308 net.cpp:129] Top shape: 1 32 167 206 (1100864)
I0301 08:12:56.209866  5308 net.cpp:137] Memory required for data: 4543544
I0301 08:12:56.209877  5308 layer_factory.hpp:77] Creating layer conv_init_conv_init_0_split
I0301 08:12:56.209888  5308 net.cpp:84] Creating Layer conv_init_conv_init_0_split
I0301 08:12:56.209892  5308 net.cpp:406] conv_init_conv_init_0_split <- conv_init
I0301 08:12:56.209898  5308 net.cpp:380] conv_init_conv_init_0_split -> conv_init_conv_init_0_split_0
I0301 08:12:56.209908  5308 net.cpp:380] conv_init_conv_init_0_split -> conv_init_conv_init_0_split_1
I0301 08:12:56.209946  5308 net.cpp:122] Setting up conv_init_conv_init_0_split
I0301 08:12:56.209952  5308 net.cpp:129] Top shape: 1 32 167 206 (1100864)
I0301 08:12:56.209956  5308 net.cpp:129] Top shape: 1 32 167 206 (1100864)
I0301 08:12:56.209959  5308 net.cpp:137] Memory required for data: 13350456
I0301 08:12:56.209962  5308 layer_factory.hpp:77] Creating layer conv0_0/bn
I0301 08:12:56.209973  5308 net.cpp:84] Creating Layer conv0_0/bn
I0301 08:12:56.209976  5308 net.cpp:406] conv0_0/bn <- conv_init_conv_init_0_split_0
I0301 08:12:56.209981  5308 net.cpp:380] conv0_0/bn -> conv0_0/bn
I0301 08:12:56.210196  5308 net.cpp:122] Setting up conv0_0/bn
I0301 08:12:56.210202  5308 net.cpp:129] Top shape: 1 32 167 206 (1100864)
I0301 08:12:56.210206  5308 net.cpp:137] Memory required for data: 17753912
I0301 08:12:56.210216  5308 layer_factory.hpp:77] Creating layer conv0_0/scale
I0301 08:12:56.210223  5308 net.cpp:84] Creating Layer conv0_0/scale
I0301 08:12:56.210227  5308 net.cpp:406] conv0_0/scale <- conv0_0/bn
I0301 08:12:56.210232  5308 net.cpp:367] conv0_0/scale -> conv0_0/bn (in-place)
I0301 08:12:56.210270  5308 layer_factory.hpp:77] Creating layer conv0_0/scale
I0301 08:12:56.210420  5308 net.cpp:122] Setting up conv0_0/scale
I0301 08:12:56.210427  5308 net.cpp:129] Top shape: 1 32 167 206 (1100864)
I0301 08:12:56.210430  5308 net.cpp:137] Memory required for data: 22157368
I0301 08:12:56.210438  5308 layer_factory.hpp:77] Creating layer relu0_0
I0301 08:12:56.210444  5308 net.cpp:84] Creating Layer relu0_0
I0301 08:12:56.210448  5308 net.cpp:406] relu0_0 <- conv0_0/bn
I0301 08:12:56.210451  5308 net.cpp:367] relu0_0 -> conv0_0/bn (in-place)
I0301 08:12:56.210898  5308 net.cpp:122] Setting up relu0_0
I0301 08:12:56.210911  5308 net.cpp:129] Top shape: 1 32 167 206 (1100864)
I0301 08:12:56.210916  5308 net.cpp:137] Memory required for data: 26560824
I0301 08:12:56.210919  5308 layer_factory.hpp:77] Creating layer conv0_0
I0301 08:12:56.210929  5308 net.cpp:84] Creating Layer conv0_0
I0301 08:12:56.210933  5308 net.cpp:406] conv0_0 <- conv0_0/bn
I0301 08:12:56.210939  5308 net.cpp:380] conv0_0 -> conv0_0
I0301 08:12:56.212915  5308 net.cpp:122] Setting up conv0_0
I0301 08:12:56.212930  5308 net.cpp:129] Top shape: 1 12 167 206 (412824)
I0301 08:12:56.212934  5308 net.cpp:137] Memory required for data: 28212120
I0301 08:12:56.212940  5308 layer_factory.hpp:77] Creating layer concat0_0
I0301 08:12:56.212949  5308 net.cpp:84] Creating Layer concat0_0
I0301 08:12:56.212952  5308 net.cpp:406] concat0_0 <- conv_init_conv_init_0_split_1
I0301 08:12:56.212957  5308 net.cpp:406] concat0_0 <- conv0_0
I0301 08:12:56.212961  5308 net.cpp:380] concat0_0 -> concat0_0
I0301 08:12:56.212987  5308 net.cpp:122] Setting up concat0_0
I0301 08:12:56.212993  5308 net.cpp:129] Top shape: 1 44 167 206 (1513688)
I0301 08:12:56.212996  5308 net.cpp:137] Memory required for data: 34266872
I0301 08:12:56.212999  5308 layer_factory.hpp:77] Creating layer concat0_0_concat0_0_0_split
I0301 08:12:56.213004  5308 net.cpp:84] Creating Layer concat0_0_concat0_0_0_split
I0301 08:12:56.213008  5308 net.cpp:406] concat0_0_concat0_0_0_split <- concat0_0
I0301 08:12:56.213012  5308 net.cpp:380] concat0_0_concat0_0_0_split -> concat0_0_concat0_0_0_split_0
I0301 08:12:56.213018  5308 net.cpp:380] concat0_0_concat0_0_0_split -> concat0_0_concat0_0_0_split_1
I0301 08:12:56.213048  5308 net.cpp:122] Setting up concat0_0_concat0_0_0_split
I0301 08:12:56.213053  5308 net.cpp:129] Top shape: 1 44 167 206 (1513688)
I0301 08:12:56.213057  5308 net.cpp:129] Top shape: 1 44 167 206 (1513688)
I0301 08:12:56.213060  5308 net.cpp:137] Memory required for data: 46376376
I0301 08:12:56.213063  5308 layer_factory.hpp:77] Creating layer conv0_1/bn
I0301 08:12:56.213069  5308 net.cpp:84] Creating Layer conv0_1/bn
I0301 08:12:56.213073  5308 net.cpp:406] conv0_1/bn <- concat0_0_concat0_0_0_split_0
I0301 08:12:56.213078  5308 net.cpp:380] conv0_1/bn -> conv0_1/bn
I0301 08:12:56.213294  5308 net.cpp:122] Setting up conv0_1/bn
I0301 08:12:56.213299  5308 net.cpp:129] Top shape: 1 44 167 206 (1513688)
I0301 08:12:56.213304  5308 net.cpp:137] Memory required for data: 52431128
I0301 08:12:56.213312  5308 layer_factory.hpp:77] Creating layer conv0_1/scale
I0301 08:12:56.213320  5308 net.cpp:84] Creating Layer conv0_1/scale
I0301 08:12:56.213322  5308 net.cpp:406] conv0_1/scale <- conv0_1/bn
I0301 08:12:56.213327  5308 net.cpp:367] conv0_1/scale -> conv0_1/bn (in-place)
I0301 08:12:56.213369  5308 layer_factory.hpp:77] Creating layer conv0_1/scale
I0301 08:12:56.213526  5308 net.cpp:122] Setting up conv0_1/scale
I0301 08:12:56.213532  5308 net.cpp:129] Top shape: 1 44 167 206 (1513688)
I0301 08:12:56.213536  5308 net.cpp:137] Memory required for data: 58485880
I0301 08:12:56.213541  5308 layer_factory.hpp:77] Creating layer relu0_1
I0301 08:12:56.213547  5308 net.cpp:84] Creating Layer relu0_1
I0301 08:12:56.213551  5308 net.cpp:406] relu0_1 <- conv0_1/bn
I0301 08:12:56.213555  5308 net.cpp:367] relu0_1 -> conv0_1/bn (in-place)
I0301 08:12:56.213737  5308 net.cpp:122] Setting up relu0_1
I0301 08:12:56.213747  5308 net.cpp:129] Top shape: 1 44 167 206 (1513688)
I0301 08:12:56.213749  5308 net.cpp:137] Memory required for data: 64540632
I0301 08:12:56.213752  5308 layer_factory.hpp:77] Creating layer conv0_1
I0301 08:12:56.213762  5308 net.cpp:84] Creating Layer conv0_1
I0301 08:12:56.213764  5308 net.cpp:406] conv0_1 <- conv0_1/bn
I0301 08:12:56.213770  5308 net.cpp:380] conv0_1 -> conv0_1
I0301 08:12:56.215741  5308 net.cpp:122] Setting up conv0_1
I0301 08:12:56.215755  5308 net.cpp:129] Top shape: 1 12 167 206 (412824)
I0301 08:12:56.215759  5308 net.cpp:137] Memory required for data: 66191928
I0301 08:12:56.215764  5308 layer_factory.hpp:77] Creating layer concat0_1
I0301 08:12:56.215771  5308 net.cpp:84] Creating Layer concat0_1
I0301 08:12:56.215775  5308 net.cpp:406] concat0_1 <- concat0_0_concat0_0_0_split_1
I0301 08:12:56.215780  5308 net.cpp:406] concat0_1 <- conv0_1
I0301 08:12:56.215785  5308 net.cpp:380] concat0_1 -> concat0_1
I0301 08:12:56.215811  5308 net.cpp:122] Setting up concat0_1
I0301 08:12:56.215817  5308 net.cpp:129] Top shape: 1 56 167 206 (1926512)
I0301 08:12:56.215821  5308 net.cpp:137] Memory required for data: 73897976
I0301 08:12:56.215823  5308 layer_factory.hpp:77] Creating layer concat0_1_concat0_1_0_split
I0301 08:12:56.215828  5308 net.cpp:84] Creating Layer concat0_1_concat0_1_0_split
I0301 08:12:56.215831  5308 net.cpp:406] concat0_1_concat0_1_0_split <- concat0_1
I0301 08:12:56.215837  5308 net.cpp:380] concat0_1_concat0_1_0_split -> concat0_1_concat0_1_0_split_0
I0301 08:12:56.215842  5308 net.cpp:380] concat0_1_concat0_1_0_split -> concat0_1_concat0_1_0_split_1
I0301 08:12:56.215874  5308 net.cpp:122] Setting up concat0_1_concat0_1_0_split
I0301 08:12:56.215879  5308 net.cpp:129] Top shape: 1 56 167 206 (1926512)
I0301 08:12:56.215883  5308 net.cpp:129] Top shape: 1 56 167 206 (1926512)
I0301 08:12:56.215886  5308 net.cpp:137] Memory required for data: 89310072
I0301 08:12:56.215889  5308 layer_factory.hpp:77] Creating layer conv0_2/bn
I0301 08:12:56.215895  5308 net.cpp:84] Creating Layer conv0_2/bn
I0301 08:12:56.215899  5308 net.cpp:406] conv0_2/bn <- concat0_1_concat0_1_0_split_0
I0301 08:12:56.215904  5308 net.cpp:380] conv0_2/bn -> conv0_2/bn
I0301 08:12:56.216121  5308 net.cpp:122] Setting up conv0_2/bn
I0301 08:12:56.216128  5308 net.cpp:129] Top shape: 1 56 167 206 (1926512)
I0301 08:12:56.216132  5308 net.cpp:137] Memory required for data: 97016120
I0301 08:12:56.216140  5308 layer_factory.hpp:77] Creating layer conv0_2/scale
I0301 08:12:56.216145  5308 net.cpp:84] Creating Layer conv0_2/scale
I0301 08:12:56.216150  5308 net.cpp:406] conv0_2/scale <- conv0_2/bn
I0301 08:12:56.216153  5308 net.cpp:367] conv0_2/scale -> conv0_2/bn (in-place)
I0301 08:12:56.216190  5308 layer_factory.hpp:77] Creating layer conv0_2/scale
I0301 08:12:56.216344  5308 net.cpp:122] Setting up conv0_2/scale
I0301 08:12:56.216351  5308 net.cpp:129] Top shape: 1 56 167 206 (1926512)
I0301 08:12:56.216354  5308 net.cpp:137] Memory required for data: 104722168
I0301 08:12:56.216362  5308 layer_factory.hpp:77] Creating layer relu0_2
I0301 08:12:56.216367  5308 net.cpp:84] Creating Layer relu0_2
I0301 08:12:56.216372  5308 net.cpp:406] relu0_2 <- conv0_2/bn
I0301 08:12:56.216375  5308 net.cpp:367] relu0_2 -> conv0_2/bn (in-place)
I0301 08:12:56.216558  5308 net.cpp:122] Setting up relu0_2
I0301 08:12:56.216567  5308 net.cpp:129] Top shape: 1 56 167 206 (1926512)
I0301 08:12:56.216572  5308 net.cpp:137] Memory required for data: 112428216
I0301 08:12:56.216576  5308 layer_factory.hpp:77] Creating layer conv0_2
I0301 08:12:56.216585  5308 net.cpp:84] Creating Layer conv0_2
I0301 08:12:56.216588  5308 net.cpp:406] conv0_2 <- conv0_2/bn
I0301 08:12:56.216594  5308 net.cpp:380] conv0_2 -> conv0_2
I0301 08:12:56.217787  5308 net.cpp:122] Setting up conv0_2
I0301 08:12:56.217800  5308 net.cpp:129] Top shape: 1 12 167 206 (412824)
I0301 08:12:56.217804  5308 net.cpp:137] Memory required for data: 114079512
I0301 08:12:56.217810  5308 layer_factory.hpp:77] Creating layer concat0_2
I0301 08:12:56.217816  5308 net.cpp:84] Creating Layer concat0_2
I0301 08:12:56.217820  5308 net.cpp:406] concat0_2 <- concat0_1_concat0_1_0_split_1
I0301 08:12:56.217825  5308 net.cpp:406] concat0_2 <- conv0_2
I0301 08:12:56.217830  5308 net.cpp:380] concat0_2 -> concat0_2
I0301 08:12:56.217856  5308 net.cpp:122] Setting up concat0_2
I0301 08:12:56.217862  5308 net.cpp:129] Top shape: 1 68 167 206 (2339336)
I0301 08:12:56.217865  5308 net.cpp:137] Memory required for data: 123436856
I0301 08:12:56.217869  5308 layer_factory.hpp:77] Creating layer concat0_2_concat0_2_0_split
I0301 08:12:56.217874  5308 net.cpp:84] Creating Layer concat0_2_concat0_2_0_split
I0301 08:12:56.217876  5308 net.cpp:406] concat0_2_concat0_2_0_split <- concat0_2
I0301 08:12:56.217881  5308 net.cpp:380] concat0_2_concat0_2_0_split -> concat0_2_concat0_2_0_split_0
I0301 08:12:56.217887  5308 net.cpp:380] concat0_2_concat0_2_0_split -> concat0_2_concat0_2_0_split_1
I0301 08:12:56.217919  5308 net.cpp:122] Setting up concat0_2_concat0_2_0_split
I0301 08:12:56.217924  5308 net.cpp:129] Top shape: 1 68 167 206 (2339336)
I0301 08:12:56.217928  5308 net.cpp:129] Top shape: 1 68 167 206 (2339336)
I0301 08:12:56.217931  5308 net.cpp:137] Memory required for data: 142151544
I0301 08:12:56.217933  5308 layer_factory.hpp:77] Creating layer conv0_3/bn
I0301 08:12:56.217939  5308 net.cpp:84] Creating Layer conv0_3/bn
I0301 08:12:56.217942  5308 net.cpp:406] conv0_3/bn <- concat0_2_concat0_2_0_split_0
I0301 08:12:56.217947  5308 net.cpp:380] conv0_3/bn -> conv0_3/bn
I0301 08:12:56.218981  5308 net.cpp:122] Setting up conv0_3/bn
I0301 08:12:56.218994  5308 net.cpp:129] Top shape: 1 68 167 206 (2339336)
I0301 08:12:56.218998  5308 net.cpp:137] Memory required for data: 151508888
I0301 08:12:56.219007  5308 layer_factory.hpp:77] Creating layer conv0_3/scale
I0301 08:12:56.219013  5308 net.cpp:84] Creating Layer conv0_3/scale
I0301 08:12:56.219017  5308 net.cpp:406] conv0_3/scale <- conv0_3/bn
I0301 08:12:56.219022  5308 net.cpp:367] conv0_3/scale -> conv0_3/bn (in-place)
I0301 08:12:56.219063  5308 layer_factory.hpp:77] Creating layer conv0_3/scale
I0301 08:12:56.219202  5308 net.cpp:122] Setting up conv0_3/scale
I0301 08:12:56.219208  5308 net.cpp:129] Top shape: 1 68 167 206 (2339336)
I0301 08:12:56.219213  5308 net.cpp:137] Memory required for data: 160866232
I0301 08:12:56.219218  5308 layer_factory.hpp:77] Creating layer relu0_3
I0301 08:12:56.219223  5308 net.cpp:84] Creating Layer relu0_3
I0301 08:12:56.219228  5308 net.cpp:406] relu0_3 <- conv0_3/bn
I0301 08:12:56.219231  5308 net.cpp:367] relu0_3 -> conv0_3/bn (in-place)
I0301 08:12:56.219689  5308 net.cpp:122] Setting up relu0_3
I0301 08:12:56.219702  5308 net.cpp:129] Top shape: 1 68 167 206 (2339336)
I0301 08:12:56.219707  5308 net.cpp:137] Memory required for data: 170223576
I0301 08:12:56.219709  5308 layer_factory.hpp:77] Creating layer conv0_3
I0301 08:12:56.219719  5308 net.cpp:84] Creating Layer conv0_3
I0301 08:12:56.219723  5308 net.cpp:406] conv0_3 <- conv0_3/bn
I0301 08:12:56.219729  5308 net.cpp:380] conv0_3 -> conv0_3
I0301 08:12:56.220969  5308 net.cpp:122] Setting up conv0_3
I0301 08:12:56.220983  5308 net.cpp:129] Top shape: 1 12 167 206 (412824)
I0301 08:12:56.220986  5308 net.cpp:137] Memory required for data: 171874872
I0301 08:12:56.220993  5308 layer_factory.hpp:77] Creating layer concat0_3
I0301 08:12:56.220999  5308 net.cpp:84] Creating Layer concat0_3
I0301 08:12:56.221005  5308 net.cpp:406] concat0_3 <- concat0_2_concat0_2_0_split_1
I0301 08:12:56.221010  5308 net.cpp:406] concat0_3 <- conv0_3
I0301 08:12:56.221015  5308 net.cpp:380] concat0_3 -> concat0_3
I0301 08:12:56.221042  5308 net.cpp:122] Setting up concat0_3
I0301 08:12:56.221048  5308 net.cpp:129] Top shape: 1 80 167 206 (2752160)
I0301 08:12:56.221051  5308 net.cpp:137] Memory required for data: 182883512
I0301 08:12:56.221055  5308 layer_factory.hpp:77] Creating layer concat0_3_concat0_3_0_split
I0301 08:12:56.221060  5308 net.cpp:84] Creating Layer concat0_3_concat0_3_0_split
I0301 08:12:56.221062  5308 net.cpp:406] concat0_3_concat0_3_0_split <- concat0_3
I0301 08:12:56.221067  5308 net.cpp:380] concat0_3_concat0_3_0_split -> concat0_3_concat0_3_0_split_0
I0301 08:12:56.221072  5308 net.cpp:380] concat0_3_concat0_3_0_split -> concat0_3_concat0_3_0_split_1
I0301 08:12:56.221107  5308 net.cpp:122] Setting up concat0_3_concat0_3_0_split
I0301 08:12:56.221112  5308 net.cpp:129] Top shape: 1 80 167 206 (2752160)
I0301 08:12:56.221117  5308 net.cpp:129] Top shape: 1 80 167 206 (2752160)
I0301 08:12:56.221119  5308 net.cpp:137] Memory required for data: 204900792
I0301 08:12:56.221122  5308 layer_factory.hpp:77] Creating layer conv0_4/bn
I0301 08:12:56.221128  5308 net.cpp:84] Creating Layer conv0_4/bn
I0301 08:12:56.221132  5308 net.cpp:406] conv0_4/bn <- concat0_3_concat0_3_0_split_0
I0301 08:12:56.221137  5308 net.cpp:380] conv0_4/bn -> conv0_4/bn
I0301 08:12:56.221361  5308 net.cpp:122] Setting up conv0_4/bn
I0301 08:12:56.221369  5308 net.cpp:129] Top shape: 1 80 167 206 (2752160)
I0301 08:12:56.221371  5308 net.cpp:137] Memory required for data: 215909432
I0301 08:12:56.221379  5308 layer_factory.hpp:77] Creating layer conv0_4/scale
I0301 08:12:56.221387  5308 net.cpp:84] Creating Layer conv0_4/scale
I0301 08:12:56.221391  5308 net.cpp:406] conv0_4/scale <- conv0_4/bn
I0301 08:12:56.221396  5308 net.cpp:367] conv0_4/scale -> conv0_4/bn (in-place)
I0301 08:12:56.221436  5308 layer_factory.hpp:77] Creating layer conv0_4/scale
I0301 08:12:56.221581  5308 net.cpp:122] Setting up conv0_4/scale
I0301 08:12:56.221588  5308 net.cpp:129] Top shape: 1 80 167 206 (2752160)
I0301 08:12:56.221591  5308 net.cpp:137] Memory required for data: 226918072
I0301 08:12:56.221596  5308 layer_factory.hpp:77] Creating layer relu0_4
I0301 08:12:56.221603  5308 net.cpp:84] Creating Layer relu0_4
I0301 08:12:56.221607  5308 net.cpp:406] relu0_4 <- conv0_4/bn
I0301 08:12:56.221611  5308 net.cpp:367] relu0_4 -> conv0_4/bn (in-place)
I0301 08:12:56.221803  5308 net.cpp:122] Setting up relu0_4
I0301 08:12:56.221812  5308 net.cpp:129] Top shape: 1 80 167 206 (2752160)
I0301 08:12:56.221815  5308 net.cpp:137] Memory required for data: 237926712
I0301 08:12:56.221818  5308 layer_factory.hpp:77] Creating layer conv0_4
I0301 08:12:56.221828  5308 net.cpp:84] Creating Layer conv0_4
I0301 08:12:56.221832  5308 net.cpp:406] conv0_4 <- conv0_4/bn
I0301 08:12:56.221837  5308 net.cpp:380] conv0_4 -> conv0_4
I0301 08:12:56.223407  5308 net.cpp:122] Setting up conv0_4
I0301 08:12:56.223419  5308 net.cpp:129] Top shape: 1 12 167 206 (412824)
I0301 08:12:56.223423  5308 net.cpp:137] Memory required for data: 239578008
I0301 08:12:56.223428  5308 layer_factory.hpp:77] Creating layer concat0_4
I0301 08:12:56.223438  5308 net.cpp:84] Creating Layer concat0_4
I0301 08:12:56.223441  5308 net.cpp:406] concat0_4 <- concat0_3_concat0_3_0_split_1
I0301 08:12:56.223446  5308 net.cpp:406] concat0_4 <- conv0_4
I0301 08:12:56.223451  5308 net.cpp:380] concat0_4 -> concat0_4
I0301 08:12:56.223484  5308 net.cpp:122] Setting up concat0_4
I0301 08:12:56.223495  5308 net.cpp:129] Top shape: 1 92 167 206 (3164984)
I0301 08:12:56.223500  5308 net.cpp:137] Memory required for data: 252237944
I0301 08:12:56.223502  5308 layer_factory.hpp:77] Creating layer BatchNorm1
I0301 08:12:56.223510  5308 net.cpp:84] Creating Layer BatchNorm1
I0301 08:12:56.223512  5308 net.cpp:406] BatchNorm1 <- concat0_4
I0301 08:12:56.223517  5308 net.cpp:380] BatchNorm1 -> BatchNorm1
I0301 08:12:56.223750  5308 net.cpp:122] Setting up BatchNorm1
I0301 08:12:56.223757  5308 net.cpp:129] Top shape: 1 92 167 206 (3164984)
I0301 08:12:56.223760  5308 net.cpp:137] Memory required for data: 264897880
I0301 08:12:56.223773  5308 layer_factory.hpp:77] Creating layer Scale1
I0301 08:12:56.223779  5308 net.cpp:84] Creating Layer Scale1
I0301 08:12:56.223783  5308 net.cpp:406] Scale1 <- BatchNorm1
I0301 08:12:56.223788  5308 net.cpp:367] Scale1 -> BatchNorm1 (in-place)
I0301 08:12:56.223829  5308 layer_factory.hpp:77] Creating layer Scale1
I0301 08:12:56.223973  5308 net.cpp:122] Setting up Scale1
I0301 08:12:56.223992  5308 net.cpp:129] Top shape: 1 92 167 206 (3164984)
I0301 08:12:56.223995  5308 net.cpp:137] Memory required for data: 277557816
I0301 08:12:56.224000  5308 layer_factory.hpp:77] Creating layer ReLU1
I0301 08:12:56.224006  5308 net.cpp:84] Creating Layer ReLU1
I0301 08:12:56.224009  5308 net.cpp:406] ReLU1 <- BatchNorm1
I0301 08:12:56.224014  5308 net.cpp:367] ReLU1 -> BatchNorm1 (in-place)
I0301 08:12:56.224207  5308 net.cpp:122] Setting up ReLU1
I0301 08:12:56.224215  5308 net.cpp:129] Top shape: 1 92 167 206 (3164984)
I0301 08:12:56.224220  5308 net.cpp:137] Memory required for data: 290217752
I0301 08:12:56.224222  5308 layer_factory.hpp:77] Creating layer conv0_blk
I0301 08:12:56.224231  5308 net.cpp:84] Creating Layer conv0_blk
I0301 08:12:56.224236  5308 net.cpp:406] conv0_blk <- BatchNorm1
I0301 08:12:56.224241  5308 net.cpp:380] conv0_blk -> conv0_blk
I0301 08:12:56.225399  5308 net.cpp:122] Setting up conv0_blk
I0301 08:12:56.225411  5308 net.cpp:129] Top shape: 1 46 167 206 (1582492)
I0301 08:12:56.225416  5308 net.cpp:137] Memory required for data: 296547720
I0301 08:12:56.225422  5308 layer_factory.hpp:77] Creating layer pool0
I0301 08:12:56.225428  5308 net.cpp:84] Creating Layer pool0
I0301 08:12:56.225432  5308 net.cpp:406] pool0 <- conv0_blk
I0301 08:12:56.225438  5308 net.cpp:380] pool0 -> pool0
I0301 08:12:56.225908  5308 net.cpp:122] Setting up pool0
I0301 08:12:56.225920  5308 net.cpp:129] Top shape: 1 46 84 103 (397992)
I0301 08:12:56.225924  5308 net.cpp:137] Memory required for data: 298139688
I0301 08:12:56.225926  5308 layer_factory.hpp:77] Creating layer pool0_pool0_0_split
I0301 08:12:56.225932  5308 net.cpp:84] Creating Layer pool0_pool0_0_split
I0301 08:12:56.225935  5308 net.cpp:406] pool0_pool0_0_split <- pool0
I0301 08:12:56.225942  5308 net.cpp:380] pool0_pool0_0_split -> pool0_pool0_0_split_0
I0301 08:12:56.225950  5308 net.cpp:380] pool0_pool0_0_split -> pool0_pool0_0_split_1
I0301 08:12:56.225986  5308 net.cpp:122] Setting up pool0_pool0_0_split
I0301 08:12:56.225991  5308 net.cpp:129] Top shape: 1 46 84 103 (397992)
I0301 08:12:56.225996  5308 net.cpp:129] Top shape: 1 46 84 103 (397992)
I0301 08:12:56.225997  5308 net.cpp:137] Memory required for data: 301323624
I0301 08:12:56.226001  5308 layer_factory.hpp:77] Creating layer conv1_0/bn
I0301 08:12:56.226006  5308 net.cpp:84] Creating Layer conv1_0/bn
I0301 08:12:56.226008  5308 net.cpp:406] conv1_0/bn <- pool0_pool0_0_split_0
I0301 08:12:56.226014  5308 net.cpp:380] conv1_0/bn -> conv1_0/bn
I0301 08:12:56.226219  5308 net.cpp:122] Setting up conv1_0/bn
I0301 08:12:56.226225  5308 net.cpp:129] Top shape: 1 46 84 103 (397992)
I0301 08:12:56.226228  5308 net.cpp:137] Memory required for data: 302915592
I0301 08:12:56.226235  5308 layer_factory.hpp:77] Creating layer conv1_0/scale
I0301 08:12:56.226243  5308 net.cpp:84] Creating Layer conv1_0/scale
I0301 08:12:56.226246  5308 net.cpp:406] conv1_0/scale <- conv1_0/bn
I0301 08:12:56.226250  5308 net.cpp:367] conv1_0/scale -> conv1_0/bn (in-place)
I0301 08:12:56.226289  5308 layer_factory.hpp:77] Creating layer conv1_0/scale
I0301 08:12:56.226414  5308 net.cpp:122] Setting up conv1_0/scale
I0301 08:12:56.226420  5308 net.cpp:129] Top shape: 1 46 84 103 (397992)
I0301 08:12:56.226423  5308 net.cpp:137] Memory required for data: 304507560
I0301 08:12:56.226428  5308 layer_factory.hpp:77] Creating layer relu1_0
I0301 08:12:56.226434  5308 net.cpp:84] Creating Layer relu1_0
I0301 08:12:56.226440  5308 net.cpp:406] relu1_0 <- conv1_0/bn
I0301 08:12:56.226446  5308 net.cpp:367] relu1_0 -> conv1_0/bn (in-place)
I0301 08:12:56.226634  5308 net.cpp:122] Setting up relu1_0
I0301 08:12:56.226641  5308 net.cpp:129] Top shape: 1 46 84 103 (397992)
I0301 08:12:56.226644  5308 net.cpp:137] Memory required for data: 306099528
I0301 08:12:56.226649  5308 layer_factory.hpp:77] Creating layer conv1_0
I0301 08:12:56.226660  5308 net.cpp:84] Creating Layer conv1_0
I0301 08:12:56.226663  5308 net.cpp:406] conv1_0 <- conv1_0/bn
I0301 08:12:56.226668  5308 net.cpp:380] conv1_0 -> conv1_0
I0301 08:12:56.227854  5308 net.cpp:122] Setting up conv1_0
I0301 08:12:56.227865  5308 net.cpp:129] Top shape: 1 12 84 103 (103824)
I0301 08:12:56.227869  5308 net.cpp:137] Memory required for data: 306514824
I0301 08:12:56.227874  5308 layer_factory.hpp:77] Creating layer concat1_0
I0301 08:12:56.227882  5308 net.cpp:84] Creating Layer concat1_0
I0301 08:12:56.227886  5308 net.cpp:406] concat1_0 <- pool0_pool0_0_split_1
I0301 08:12:56.227890  5308 net.cpp:406] concat1_0 <- conv1_0
I0301 08:12:56.227895  5308 net.cpp:380] concat1_0 -> concat1_0
I0301 08:12:56.227923  5308 net.cpp:122] Setting up concat1_0
I0301 08:12:56.227928  5308 net.cpp:129] Top shape: 1 58 84 103 (501816)
I0301 08:12:56.227931  5308 net.cpp:137] Memory required for data: 308522088
I0301 08:12:56.227934  5308 layer_factory.hpp:77] Creating layer concat1_0_concat1_0_0_split
I0301 08:12:56.227939  5308 net.cpp:84] Creating Layer concat1_0_concat1_0_0_split
I0301 08:12:56.227942  5308 net.cpp:406] concat1_0_concat1_0_0_split <- concat1_0
I0301 08:12:56.227948  5308 net.cpp:380] concat1_0_concat1_0_0_split -> concat1_0_concat1_0_0_split_0
I0301 08:12:56.227953  5308 net.cpp:380] concat1_0_concat1_0_0_split -> concat1_0_concat1_0_0_split_1
I0301 08:12:56.227986  5308 net.cpp:122] Setting up concat1_0_concat1_0_0_split
I0301 08:12:56.227991  5308 net.cpp:129] Top shape: 1 58 84 103 (501816)
I0301 08:12:56.227995  5308 net.cpp:129] Top shape: 1 58 84 103 (501816)
I0301 08:12:56.227998  5308 net.cpp:137] Memory required for data: 312536616
I0301 08:12:56.228000  5308 layer_factory.hpp:77] Creating layer conv1_1/bn
I0301 08:12:56.228006  5308 net.cpp:84] Creating Layer conv1_1/bn
I0301 08:12:56.228010  5308 net.cpp:406] conv1_1/bn <- concat1_0_concat1_0_0_split_0
I0301 08:12:56.228015  5308 net.cpp:380] conv1_1/bn -> conv1_1/bn
I0301 08:12:56.228227  5308 net.cpp:122] Setting up conv1_1/bn
I0301 08:12:56.228233  5308 net.cpp:129] Top shape: 1 58 84 103 (501816)
I0301 08:12:56.228235  5308 net.cpp:137] Memory required for data: 314543880
I0301 08:12:56.228242  5308 layer_factory.hpp:77] Creating layer conv1_1/scale
I0301 08:12:56.228250  5308 net.cpp:84] Creating Layer conv1_1/scale
I0301 08:12:56.228253  5308 net.cpp:406] conv1_1/scale <- conv1_1/bn
I0301 08:12:56.228257  5308 net.cpp:367] conv1_1/scale -> conv1_1/bn (in-place)
I0301 08:12:56.228296  5308 layer_factory.hpp:77] Creating layer conv1_1/scale
I0301 08:12:56.228420  5308 net.cpp:122] Setting up conv1_1/scale
I0301 08:12:56.228425  5308 net.cpp:129] Top shape: 1 58 84 103 (501816)
I0301 08:12:56.228428  5308 net.cpp:137] Memory required for data: 316551144
I0301 08:12:56.228435  5308 layer_factory.hpp:77] Creating layer relu1_1
I0301 08:12:56.228440  5308 net.cpp:84] Creating Layer relu1_1
I0301 08:12:56.228442  5308 net.cpp:406] relu1_1 <- conv1_1/bn
I0301 08:12:56.228447  5308 net.cpp:367] relu1_1 -> conv1_1/bn (in-place)
I0301 08:12:56.228636  5308 net.cpp:122] Setting up relu1_1
I0301 08:12:56.228644  5308 net.cpp:129] Top shape: 1 58 84 103 (501816)
I0301 08:12:56.228647  5308 net.cpp:137] Memory required for data: 318558408
I0301 08:12:56.228651  5308 layer_factory.hpp:77] Creating layer conv1_1
I0301 08:12:56.228662  5308 net.cpp:84] Creating Layer conv1_1
I0301 08:12:56.228665  5308 net.cpp:406] conv1_1 <- conv1_1/bn
I0301 08:12:56.228672  5308 net.cpp:380] conv1_1 -> conv1_1
I0301 08:12:56.229882  5308 net.cpp:122] Setting up conv1_1
I0301 08:12:56.229894  5308 net.cpp:129] Top shape: 1 12 84 103 (103824)
I0301 08:12:56.229900  5308 net.cpp:137] Memory required for data: 318973704
I0301 08:12:56.229905  5308 layer_factory.hpp:77] Creating layer concat1_1
I0301 08:12:56.229913  5308 net.cpp:84] Creating Layer concat1_1
I0301 08:12:56.229918  5308 net.cpp:406] concat1_1 <- concat1_0_concat1_0_0_split_1
I0301 08:12:56.229923  5308 net.cpp:406] concat1_1 <- conv1_1
I0301 08:12:56.229928  5308 net.cpp:380] concat1_1 -> concat1_1
I0301 08:12:56.229954  5308 net.cpp:122] Setting up concat1_1
I0301 08:12:56.229959  5308 net.cpp:129] Top shape: 1 70 84 103 (605640)
I0301 08:12:56.229962  5308 net.cpp:137] Memory required for data: 321396264
I0301 08:12:56.229965  5308 layer_factory.hpp:77] Creating layer concat1_1_concat1_1_0_split
I0301 08:12:56.229969  5308 net.cpp:84] Creating Layer concat1_1_concat1_1_0_split
I0301 08:12:56.229972  5308 net.cpp:406] concat1_1_concat1_1_0_split <- concat1_1
I0301 08:12:56.229979  5308 net.cpp:380] concat1_1_concat1_1_0_split -> concat1_1_concat1_1_0_split_0
I0301 08:12:56.229984  5308 net.cpp:380] concat1_1_concat1_1_0_split -> concat1_1_concat1_1_0_split_1
I0301 08:12:56.230016  5308 net.cpp:122] Setting up concat1_1_concat1_1_0_split
I0301 08:12:56.230021  5308 net.cpp:129] Top shape: 1 70 84 103 (605640)
I0301 08:12:56.230026  5308 net.cpp:129] Top shape: 1 70 84 103 (605640)
I0301 08:12:56.230027  5308 net.cpp:137] Memory required for data: 326241384
I0301 08:12:56.230031  5308 layer_factory.hpp:77] Creating layer conv1_2/bn
I0301 08:12:56.230037  5308 net.cpp:84] Creating Layer conv1_2/bn
I0301 08:12:56.230041  5308 net.cpp:406] conv1_2/bn <- concat1_1_concat1_1_0_split_0
I0301 08:12:56.230046  5308 net.cpp:380] conv1_2/bn -> conv1_2/bn
I0301 08:12:56.230248  5308 net.cpp:122] Setting up conv1_2/bn
I0301 08:12:56.230255  5308 net.cpp:129] Top shape: 1 70 84 103 (605640)
I0301 08:12:56.230257  5308 net.cpp:137] Memory required for data: 328663944
I0301 08:12:56.230264  5308 layer_factory.hpp:77] Creating layer conv1_2/scale
I0301 08:12:56.230270  5308 net.cpp:84] Creating Layer conv1_2/scale
I0301 08:12:56.230273  5308 net.cpp:406] conv1_2/scale <- conv1_2/bn
I0301 08:12:56.230279  5308 net.cpp:367] conv1_2/scale -> conv1_2/bn (in-place)
I0301 08:12:56.230317  5308 layer_factory.hpp:77] Creating layer conv1_2/scale
I0301 08:12:56.230442  5308 net.cpp:122] Setting up conv1_2/scale
I0301 08:12:56.230448  5308 net.cpp:129] Top shape: 1 70 84 103 (605640)
I0301 08:12:56.230450  5308 net.cpp:137] Memory required for data: 331086504
I0301 08:12:56.230455  5308 layer_factory.hpp:77] Creating layer relu1_2
I0301 08:12:56.230461  5308 net.cpp:84] Creating Layer relu1_2
I0301 08:12:56.230464  5308 net.cpp:406] relu1_2 <- conv1_2/bn
I0301 08:12:56.230469  5308 net.cpp:367] relu1_2 -> conv1_2/bn (in-place)
I0301 08:12:56.230656  5308 net.cpp:122] Setting up relu1_2
I0301 08:12:56.230664  5308 net.cpp:129] Top shape: 1 70 84 103 (605640)
I0301 08:12:56.230667  5308 net.cpp:137] Memory required for data: 333509064
I0301 08:12:56.230670  5308 layer_factory.hpp:77] Creating layer conv1_2
I0301 08:12:56.230681  5308 net.cpp:84] Creating Layer conv1_2
I0301 08:12:56.230685  5308 net.cpp:406] conv1_2 <- conv1_2/bn
I0301 08:12:56.230691  5308 net.cpp:380] conv1_2 -> conv1_2
I0301 08:12:56.232185  5308 net.cpp:122] Setting up conv1_2
I0301 08:12:56.232198  5308 net.cpp:129] Top shape: 1 12 84 103 (103824)
I0301 08:12:56.232201  5308 net.cpp:137] Memory required for data: 333924360
I0301 08:12:56.232208  5308 layer_factory.hpp:77] Creating layer concat1_2
I0301 08:12:56.232215  5308 net.cpp:84] Creating Layer concat1_2
I0301 08:12:56.232218  5308 net.cpp:406] concat1_2 <- concat1_1_concat1_1_0_split_1
I0301 08:12:56.232223  5308 net.cpp:406] concat1_2 <- conv1_2
I0301 08:12:56.232229  5308 net.cpp:380] concat1_2 -> concat1_2
I0301 08:12:56.232259  5308 net.cpp:122] Setting up concat1_2
I0301 08:12:56.232265  5308 net.cpp:129] Top shape: 1 82 84 103 (709464)
I0301 08:12:56.232267  5308 net.cpp:137] Memory required for data: 336762216
I0301 08:12:56.232270  5308 layer_factory.hpp:77] Creating layer concat1_2_concat1_2_0_split
I0301 08:12:56.232280  5308 net.cpp:84] Creating Layer concat1_2_concat1_2_0_split
I0301 08:12:56.232282  5308 net.cpp:406] concat1_2_concat1_2_0_split <- concat1_2
I0301 08:12:56.232287  5308 net.cpp:380] concat1_2_concat1_2_0_split -> concat1_2_concat1_2_0_split_0
I0301 08:12:56.232292  5308 net.cpp:380] concat1_2_concat1_2_0_split -> concat1_2_concat1_2_0_split_1
I0301 08:12:56.232328  5308 net.cpp:122] Setting up concat1_2_concat1_2_0_split
I0301 08:12:56.232333  5308 net.cpp:129] Top shape: 1 82 84 103 (709464)
I0301 08:12:56.232336  5308 net.cpp:129] Top shape: 1 82 84 103 (709464)
I0301 08:12:56.232339  5308 net.cpp:137] Memory required for data: 342437928
I0301 08:12:56.232342  5308 layer_factory.hpp:77] Creating layer conv1_3/bn
I0301 08:12:56.232348  5308 net.cpp:84] Creating Layer conv1_3/bn
I0301 08:12:56.232352  5308 net.cpp:406] conv1_3/bn <- concat1_2_concat1_2_0_split_0
I0301 08:12:56.232357  5308 net.cpp:380] conv1_3/bn -> conv1_3/bn
I0301 08:12:56.232556  5308 net.cpp:122] Setting up conv1_3/bn
I0301 08:12:56.232563  5308 net.cpp:129] Top shape: 1 82 84 103 (709464)
I0301 08:12:56.232565  5308 net.cpp:137] Memory required for data: 345275784
I0301 08:12:56.232571  5308 layer_factory.hpp:77] Creating layer conv1_3/scale
I0301 08:12:56.232579  5308 net.cpp:84] Creating Layer conv1_3/scale
I0301 08:12:56.232583  5308 net.cpp:406] conv1_3/scale <- conv1_3/bn
I0301 08:12:56.232587  5308 net.cpp:367] conv1_3/scale -> conv1_3/bn (in-place)
I0301 08:12:56.232626  5308 layer_factory.hpp:77] Creating layer conv1_3/scale
I0301 08:12:56.232746  5308 net.cpp:122] Setting up conv1_3/scale
I0301 08:12:56.232753  5308 net.cpp:129] Top shape: 1 82 84 103 (709464)
I0301 08:12:56.232755  5308 net.cpp:137] Memory required for data: 348113640
I0301 08:12:56.232761  5308 layer_factory.hpp:77] Creating layer relu1_3
I0301 08:12:56.232767  5308 net.cpp:84] Creating Layer relu1_3
I0301 08:12:56.232770  5308 net.cpp:406] relu1_3 <- conv1_3/bn
I0301 08:12:56.232774  5308 net.cpp:367] relu1_3 -> conv1_3/bn (in-place)
I0301 08:12:56.233242  5308 net.cpp:122] Setting up relu1_3
I0301 08:12:56.233253  5308 net.cpp:129] Top shape: 1 82 84 103 (709464)
I0301 08:12:56.233256  5308 net.cpp:137] Memory required for data: 350951496
I0301 08:12:56.233260  5308 layer_factory.hpp:77] Creating layer conv1_3
I0301 08:12:56.233271  5308 net.cpp:84] Creating Layer conv1_3
I0301 08:12:56.233275  5308 net.cpp:406] conv1_3 <- conv1_3/bn
I0301 08:12:56.233281  5308 net.cpp:380] conv1_3 -> conv1_3
I0301 08:12:56.234573  5308 net.cpp:122] Setting up conv1_3
I0301 08:12:56.234586  5308 net.cpp:129] Top shape: 1 12 84 103 (103824)
I0301 08:12:56.234589  5308 net.cpp:137] Memory required for data: 351366792
I0301 08:12:56.234596  5308 layer_factory.hpp:77] Creating layer concat1_3
I0301 08:12:56.234601  5308 net.cpp:84] Creating Layer concat1_3
I0301 08:12:56.234606  5308 net.cpp:406] concat1_3 <- concat1_2_concat1_2_0_split_1
I0301 08:12:56.234611  5308 net.cpp:406] concat1_3 <- conv1_3
I0301 08:12:56.234616  5308 net.cpp:380] concat1_3 -> concat1_3
I0301 08:12:56.234643  5308 net.cpp:122] Setting up concat1_3
I0301 08:12:56.234648  5308 net.cpp:129] Top shape: 1 94 84 103 (813288)
I0301 08:12:56.234652  5308 net.cpp:137] Memory required for data: 354619944
I0301 08:12:56.234654  5308 layer_factory.hpp:77] Creating layer concat1_3_concat1_3_0_split
I0301 08:12:56.234660  5308 net.cpp:84] Creating Layer concat1_3_concat1_3_0_split
I0301 08:12:56.234664  5308 net.cpp:406] concat1_3_concat1_3_0_split <- concat1_3
I0301 08:12:56.234668  5308 net.cpp:380] concat1_3_concat1_3_0_split -> concat1_3_concat1_3_0_split_0
I0301 08:12:56.234674  5308 net.cpp:380] concat1_3_concat1_3_0_split -> concat1_3_concat1_3_0_split_1
I0301 08:12:56.234709  5308 net.cpp:122] Setting up concat1_3_concat1_3_0_split
I0301 08:12:56.234714  5308 net.cpp:129] Top shape: 1 94 84 103 (813288)
I0301 08:12:56.234717  5308 net.cpp:129] Top shape: 1 94 84 103 (813288)
I0301 08:12:56.234720  5308 net.cpp:137] Memory required for data: 361126248
I0301 08:12:56.234724  5308 layer_factory.hpp:77] Creating layer conv1_4/bn
I0301 08:12:56.234731  5308 net.cpp:84] Creating Layer conv1_4/bn
I0301 08:12:56.234735  5308 net.cpp:406] conv1_4/bn <- concat1_3_concat1_3_0_split_0
I0301 08:12:56.234740  5308 net.cpp:380] conv1_4/bn -> conv1_4/bn
I0301 08:12:56.234946  5308 net.cpp:122] Setting up conv1_4/bn
I0301 08:12:56.234951  5308 net.cpp:129] Top shape: 1 94 84 103 (813288)
I0301 08:12:56.234954  5308 net.cpp:137] Memory required for data: 364379400
I0301 08:12:56.234961  5308 layer_factory.hpp:77] Creating layer conv1_4/scale
I0301 08:12:56.234971  5308 net.cpp:84] Creating Layer conv1_4/scale
I0301 08:12:56.234974  5308 net.cpp:406] conv1_4/scale <- conv1_4/bn
I0301 08:12:56.234979  5308 net.cpp:367] conv1_4/scale -> conv1_4/bn (in-place)
I0301 08:12:56.235018  5308 layer_factory.hpp:77] Creating layer conv1_4/scale
I0301 08:12:56.235141  5308 net.cpp:122] Setting up conv1_4/scale
I0301 08:12:56.235148  5308 net.cpp:129] Top shape: 1 94 84 103 (813288)
I0301 08:12:56.235150  5308 net.cpp:137] Memory required for data: 367632552
I0301 08:12:56.235162  5308 layer_factory.hpp:77] Creating layer relu1_4
I0301 08:12:56.235167  5308 net.cpp:84] Creating Layer relu1_4
I0301 08:12:56.235170  5308 net.cpp:406] relu1_4 <- conv1_4/bn
I0301 08:12:56.235174  5308 net.cpp:367] relu1_4 -> conv1_4/bn (in-place)
I0301 08:12:56.235371  5308 net.cpp:122] Setting up relu1_4
I0301 08:12:56.235379  5308 net.cpp:129] Top shape: 1 94 84 103 (813288)
I0301 08:12:56.235383  5308 net.cpp:137] Memory required for data: 370885704
I0301 08:12:56.235386  5308 layer_factory.hpp:77] Creating layer conv1_4
I0301 08:12:56.235396  5308 net.cpp:84] Creating Layer conv1_4
I0301 08:12:56.235400  5308 net.cpp:406] conv1_4 <- conv1_4/bn
I0301 08:12:56.235405  5308 net.cpp:380] conv1_4 -> conv1_4
I0301 08:12:56.236737  5308 net.cpp:122] Setting up conv1_4
I0301 08:12:56.236749  5308 net.cpp:129] Top shape: 1 12 84 103 (103824)
I0301 08:12:56.236753  5308 net.cpp:137] Memory required for data: 371301000
I0301 08:12:56.236758  5308 layer_factory.hpp:77] Creating layer concat1_4
I0301 08:12:56.236766  5308 net.cpp:84] Creating Layer concat1_4
I0301 08:12:56.236770  5308 net.cpp:406] concat1_4 <- concat1_3_concat1_3_0_split_1
I0301 08:12:56.236774  5308 net.cpp:406] concat1_4 <- conv1_4
I0301 08:12:56.236780  5308 net.cpp:380] concat1_4 -> concat1_4
I0301 08:12:56.236806  5308 net.cpp:122] Setting up concat1_4
I0301 08:12:56.236811  5308 net.cpp:129] Top shape: 1 106 84 103 (917112)
I0301 08:12:56.236814  5308 net.cpp:137] Memory required for data: 374969448
I0301 08:12:56.236817  5308 layer_factory.hpp:77] Creating layer BatchNorm2
I0301 08:12:56.236824  5308 net.cpp:84] Creating Layer BatchNorm2
I0301 08:12:56.236827  5308 net.cpp:406] BatchNorm2 <- concat1_4
I0301 08:12:56.236832  5308 net.cpp:380] BatchNorm2 -> BatchNorm2
I0301 08:12:56.237036  5308 net.cpp:122] Setting up BatchNorm2
I0301 08:12:56.237042  5308 net.cpp:129] Top shape: 1 106 84 103 (917112)
I0301 08:12:56.237046  5308 net.cpp:137] Memory required for data: 378637896
I0301 08:12:56.237051  5308 layer_factory.hpp:77] Creating layer Scale2
I0301 08:12:56.237057  5308 net.cpp:84] Creating Layer Scale2
I0301 08:12:56.237061  5308 net.cpp:406] Scale2 <- BatchNorm2
I0301 08:12:56.237066  5308 net.cpp:367] Scale2 -> BatchNorm2 (in-place)
I0301 08:12:56.237102  5308 layer_factory.hpp:77] Creating layer Scale2
I0301 08:12:56.237222  5308 net.cpp:122] Setting up Scale2
I0301 08:12:56.237228  5308 net.cpp:129] Top shape: 1 106 84 103 (917112)
I0301 08:12:56.237231  5308 net.cpp:137] Memory required for data: 382306344
I0301 08:12:56.237236  5308 layer_factory.hpp:77] Creating layer ReLU2
I0301 08:12:56.237241  5308 net.cpp:84] Creating Layer ReLU2
I0301 08:12:56.237244  5308 net.cpp:406] ReLU2 <- BatchNorm2
I0301 08:12:56.237248  5308 net.cpp:367] ReLU2 -> BatchNorm2 (in-place)
I0301 08:12:56.237435  5308 net.cpp:122] Setting up ReLU2
I0301 08:12:56.237442  5308 net.cpp:129] Top shape: 1 106 84 103 (917112)
I0301 08:12:56.237445  5308 net.cpp:137] Memory required for data: 385974792
I0301 08:12:56.237452  5308 layer_factory.hpp:77] Creating layer conv1_blk
I0301 08:12:56.237460  5308 net.cpp:84] Creating Layer conv1_blk
I0301 08:12:56.237463  5308 net.cpp:406] conv1_blk <- BatchNorm2
I0301 08:12:56.237470  5308 net.cpp:380] conv1_blk -> conv1_blk
I0301 08:12:56.238664  5308 net.cpp:122] Setting up conv1_blk
I0301 08:12:56.238677  5308 net.cpp:129] Top shape: 1 53 84 103 (458556)
I0301 08:12:56.238679  5308 net.cpp:137] Memory required for data: 387809016
I0301 08:12:56.238684  5308 layer_factory.hpp:77] Creating layer pool1
I0301 08:12:56.238692  5308 net.cpp:84] Creating Layer pool1
I0301 08:12:56.238696  5308 net.cpp:406] pool1 <- conv1_blk
I0301 08:12:56.238701  5308 net.cpp:380] pool1 -> pool1
I0301 08:12:56.239161  5308 net.cpp:122] Setting up pool1
I0301 08:12:56.239173  5308 net.cpp:129] Top shape: 1 53 42 52 (115752)
I0301 08:12:56.239176  5308 net.cpp:137] Memory required for data: 388272024
I0301 08:12:56.239181  5308 layer_factory.hpp:77] Creating layer pool1_pool1_0_split
I0301 08:12:56.239186  5308 net.cpp:84] Creating Layer pool1_pool1_0_split
I0301 08:12:56.239189  5308 net.cpp:406] pool1_pool1_0_split <- pool1
I0301 08:12:56.239195  5308 net.cpp:380] pool1_pool1_0_split -> pool1_pool1_0_split_0
I0301 08:12:56.239202  5308 net.cpp:380] pool1_pool1_0_split -> pool1_pool1_0_split_1
I0301 08:12:56.239236  5308 net.cpp:122] Setting up pool1_pool1_0_split
I0301 08:12:56.239245  5308 net.cpp:129] Top shape: 1 53 42 52 (115752)
I0301 08:12:56.239248  5308 net.cpp:129] Top shape: 1 53 42 52 (115752)
I0301 08:12:56.239251  5308 net.cpp:137] Memory required for data: 389198040
I0301 08:12:56.239254  5308 layer_factory.hpp:77] Creating layer conv2_0/bn
I0301 08:12:56.239259  5308 net.cpp:84] Creating Layer conv2_0/bn
I0301 08:12:56.239262  5308 net.cpp:406] conv2_0/bn <- pool1_pool1_0_split_0
I0301 08:12:56.239267  5308 net.cpp:380] conv2_0/bn -> conv2_0/bn
I0301 08:12:56.239466  5308 net.cpp:122] Setting up conv2_0/bn
I0301 08:12:56.239471  5308 net.cpp:129] Top shape: 1 53 42 52 (115752)
I0301 08:12:56.239475  5308 net.cpp:137] Memory required for data: 389661048
I0301 08:12:56.239481  5308 layer_factory.hpp:77] Creating layer conv2_0/scale
I0301 08:12:56.239492  5308 net.cpp:84] Creating Layer conv2_0/scale
I0301 08:12:56.239496  5308 net.cpp:406] conv2_0/scale <- conv2_0/bn
I0301 08:12:56.239501  5308 net.cpp:367] conv2_0/scale -> conv2_0/bn (in-place)
I0301 08:12:56.239539  5308 layer_factory.hpp:77] Creating layer conv2_0/scale
I0301 08:12:56.239652  5308 net.cpp:122] Setting up conv2_0/scale
I0301 08:12:56.239658  5308 net.cpp:129] Top shape: 1 53 42 52 (115752)
I0301 08:12:56.239660  5308 net.cpp:137] Memory required for data: 390124056
I0301 08:12:56.239666  5308 layer_factory.hpp:77] Creating layer relu2_0
I0301 08:12:56.239672  5308 net.cpp:84] Creating Layer relu2_0
I0301 08:12:56.239675  5308 net.cpp:406] relu2_0 <- conv2_0/bn
I0301 08:12:56.239679  5308 net.cpp:367] relu2_0 -> conv2_0/bn (in-place)
I0301 08:12:56.239866  5308 net.cpp:122] Setting up relu2_0
I0301 08:12:56.239873  5308 net.cpp:129] Top shape: 1 53 42 52 (115752)
I0301 08:12:56.239876  5308 net.cpp:137] Memory required for data: 390587064
I0301 08:12:56.239879  5308 layer_factory.hpp:77] Creating layer conv2_0
I0301 08:12:56.239887  5308 net.cpp:84] Creating Layer conv2_0
I0301 08:12:56.239892  5308 net.cpp:406] conv2_0 <- conv2_0/bn
I0301 08:12:56.239897  5308 net.cpp:380] conv2_0 -> conv2_0
I0301 08:12:56.241083  5308 net.cpp:122] Setting up conv2_0
I0301 08:12:56.241096  5308 net.cpp:129] Top shape: 1 12 42 52 (26208)
I0301 08:12:56.241099  5308 net.cpp:137] Memory required for data: 390691896
I0301 08:12:56.241104  5308 layer_factory.hpp:77] Creating layer concat2_0
I0301 08:12:56.241111  5308 net.cpp:84] Creating Layer concat2_0
I0301 08:12:56.241117  5308 net.cpp:406] concat2_0 <- pool1_pool1_0_split_1
I0301 08:12:56.241122  5308 net.cpp:406] concat2_0 <- conv2_0
I0301 08:12:56.241127  5308 net.cpp:380] concat2_0 -> concat2_0
I0301 08:12:56.241152  5308 net.cpp:122] Setting up concat2_0
I0301 08:12:56.241158  5308 net.cpp:129] Top shape: 1 65 42 52 (141960)
I0301 08:12:56.241163  5308 net.cpp:137] Memory required for data: 391259736
I0301 08:12:56.241165  5308 layer_factory.hpp:77] Creating layer concat2_0_concat2_0_0_split
I0301 08:12:56.241173  5308 net.cpp:84] Creating Layer concat2_0_concat2_0_0_split
I0301 08:12:56.241176  5308 net.cpp:406] concat2_0_concat2_0_0_split <- concat2_0
I0301 08:12:56.241181  5308 net.cpp:380] concat2_0_concat2_0_0_split -> concat2_0_concat2_0_0_split_0
I0301 08:12:56.241188  5308 net.cpp:380] concat2_0_concat2_0_0_split -> concat2_0_concat2_0_0_split_1
I0301 08:12:56.241220  5308 net.cpp:122] Setting up concat2_0_concat2_0_0_split
I0301 08:12:56.241225  5308 net.cpp:129] Top shape: 1 65 42 52 (141960)
I0301 08:12:56.241230  5308 net.cpp:129] Top shape: 1 65 42 52 (141960)
I0301 08:12:56.241232  5308 net.cpp:137] Memory required for data: 392395416
I0301 08:12:56.241235  5308 layer_factory.hpp:77] Creating layer conv2_1/bn
I0301 08:12:56.241240  5308 net.cpp:84] Creating Layer conv2_1/bn
I0301 08:12:56.241243  5308 net.cpp:406] conv2_1/bn <- concat2_0_concat2_0_0_split_0
I0301 08:12:56.241248  5308 net.cpp:380] conv2_1/bn -> conv2_1/bn
I0301 08:12:56.241447  5308 net.cpp:122] Setting up conv2_1/bn
I0301 08:12:56.241453  5308 net.cpp:129] Top shape: 1 65 42 52 (141960)
I0301 08:12:56.241456  5308 net.cpp:137] Memory required for data: 392963256
I0301 08:12:56.241462  5308 layer_factory.hpp:77] Creating layer conv2_1/scale
I0301 08:12:56.241470  5308 net.cpp:84] Creating Layer conv2_1/scale
I0301 08:12:56.241473  5308 net.cpp:406] conv2_1/scale <- conv2_1/bn
I0301 08:12:56.241479  5308 net.cpp:367] conv2_1/scale -> conv2_1/bn (in-place)
I0301 08:12:56.241516  5308 layer_factory.hpp:77] Creating layer conv2_1/scale
I0301 08:12:56.241631  5308 net.cpp:122] Setting up conv2_1/scale
I0301 08:12:56.241637  5308 net.cpp:129] Top shape: 1 65 42 52 (141960)
I0301 08:12:56.241641  5308 net.cpp:137] Memory required for data: 393531096
I0301 08:12:56.241645  5308 layer_factory.hpp:77] Creating layer relu2_1
I0301 08:12:56.241652  5308 net.cpp:84] Creating Layer relu2_1
I0301 08:12:56.241654  5308 net.cpp:406] relu2_1 <- conv2_1/bn
I0301 08:12:56.241658  5308 net.cpp:367] relu2_1 -> conv2_1/bn (in-place)
I0301 08:12:56.241845  5308 net.cpp:122] Setting up relu2_1
I0301 08:12:56.241853  5308 net.cpp:129] Top shape: 1 65 42 52 (141960)
I0301 08:12:56.241856  5308 net.cpp:137] Memory required for data: 394098936
I0301 08:12:56.241859  5308 layer_factory.hpp:77] Creating layer conv2_1
I0301 08:12:56.241868  5308 net.cpp:84] Creating Layer conv2_1
I0301 08:12:56.241871  5308 net.cpp:406] conv2_1 <- conv2_1/bn
I0301 08:12:56.241878  5308 net.cpp:380] conv2_1 -> conv2_1
I0301 08:12:56.243319  5308 net.cpp:122] Setting up conv2_1
I0301 08:12:56.243331  5308 net.cpp:129] Top shape: 1 12 42 52 (26208)
I0301 08:12:56.243335  5308 net.cpp:137] Memory required for data: 394203768
I0301 08:12:56.243340  5308 layer_factory.hpp:77] Creating layer concat2_1
I0301 08:12:56.243348  5308 net.cpp:84] Creating Layer concat2_1
I0301 08:12:56.243352  5308 net.cpp:406] concat2_1 <- concat2_0_concat2_0_0_split_1
I0301 08:12:56.243356  5308 net.cpp:406] concat2_1 <- conv2_1
I0301 08:12:56.243361  5308 net.cpp:380] concat2_1 -> concat2_1
I0301 08:12:56.243394  5308 net.cpp:122] Setting up concat2_1
I0301 08:12:56.243400  5308 net.cpp:129] Top shape: 1 77 42 52 (168168)
I0301 08:12:56.243403  5308 net.cpp:137] Memory required for data: 394876440
I0301 08:12:56.243407  5308 layer_factory.hpp:77] Creating layer concat2_1_concat2_1_0_split
I0301 08:12:56.243412  5308 net.cpp:84] Creating Layer concat2_1_concat2_1_0_split
I0301 08:12:56.243414  5308 net.cpp:406] concat2_1_concat2_1_0_split <- concat2_1
I0301 08:12:56.243419  5308 net.cpp:380] concat2_1_concat2_1_0_split -> concat2_1_concat2_1_0_split_0
I0301 08:12:56.243425  5308 net.cpp:380] concat2_1_concat2_1_0_split -> concat2_1_concat2_1_0_split_1
I0301 08:12:56.243460  5308 net.cpp:122] Setting up concat2_1_concat2_1_0_split
I0301 08:12:56.243466  5308 net.cpp:129] Top shape: 1 77 42 52 (168168)
I0301 08:12:56.243472  5308 net.cpp:129] Top shape: 1 77 42 52 (168168)
I0301 08:12:56.243475  5308 net.cpp:137] Memory required for data: 396221784
I0301 08:12:56.243477  5308 layer_factory.hpp:77] Creating layer conv2_2/bn
I0301 08:12:56.243484  5308 net.cpp:84] Creating Layer conv2_2/bn
I0301 08:12:56.243487  5308 net.cpp:406] conv2_2/bn <- concat2_1_concat2_1_0_split_0
I0301 08:12:56.243497  5308 net.cpp:380] conv2_2/bn -> conv2_2/bn
I0301 08:12:56.243702  5308 net.cpp:122] Setting up conv2_2/bn
I0301 08:12:56.243708  5308 net.cpp:129] Top shape: 1 77 42 52 (168168)
I0301 08:12:56.243710  5308 net.cpp:137] Memory required for data: 396894456
I0301 08:12:56.243717  5308 layer_factory.hpp:77] Creating layer conv2_2/scale
I0301 08:12:56.243724  5308 net.cpp:84] Creating Layer conv2_2/scale
I0301 08:12:56.243728  5308 net.cpp:406] conv2_2/scale <- conv2_2/bn
I0301 08:12:56.243732  5308 net.cpp:367] conv2_2/scale -> conv2_2/bn (in-place)
I0301 08:12:56.243770  5308 layer_factory.hpp:77] Creating layer conv2_2/scale
I0301 08:12:56.243885  5308 net.cpp:122] Setting up conv2_2/scale
I0301 08:12:56.243891  5308 net.cpp:129] Top shape: 1 77 42 52 (168168)
I0301 08:12:56.243894  5308 net.cpp:137] Memory required for data: 397567128
I0301 08:12:56.243899  5308 layer_factory.hpp:77] Creating layer relu2_2
I0301 08:12:56.243904  5308 net.cpp:84] Creating Layer relu2_2
I0301 08:12:56.243907  5308 net.cpp:406] relu2_2 <- conv2_2/bn
I0301 08:12:56.243912  5308 net.cpp:367] relu2_2 -> conv2_2/bn (in-place)
I0301 08:12:56.244577  5308 net.cpp:122] Setting up relu2_2
I0301 08:12:56.244590  5308 net.cpp:129] Top shape: 1 77 42 52 (168168)
I0301 08:12:56.244592  5308 net.cpp:137] Memory required for data: 398239800
I0301 08:12:56.244596  5308 layer_factory.hpp:77] Creating layer conv2_2
I0301 08:12:56.244606  5308 net.cpp:84] Creating Layer conv2_2
I0301 08:12:56.244609  5308 net.cpp:406] conv2_2 <- conv2_2/bn
I0301 08:12:56.244616  5308 net.cpp:380] conv2_2 -> conv2_2
I0301 08:12:56.245899  5308 net.cpp:122] Setting up conv2_2
I0301 08:12:56.245911  5308 net.cpp:129] Top shape: 1 12 42 52 (26208)
I0301 08:12:56.245915  5308 net.cpp:137] Memory required for data: 398344632
I0301 08:12:56.245920  5308 layer_factory.hpp:77] Creating layer concat2_2
I0301 08:12:56.245928  5308 net.cpp:84] Creating Layer concat2_2
I0301 08:12:56.245931  5308 net.cpp:406] concat2_2 <- concat2_1_concat2_1_0_split_1
I0301 08:12:56.245936  5308 net.cpp:406] concat2_2 <- conv2_2
I0301 08:12:56.245941  5308 net.cpp:380] concat2_2 -> concat2_2
I0301 08:12:56.245968  5308 net.cpp:122] Setting up concat2_2
I0301 08:12:56.245973  5308 net.cpp:129] Top shape: 1 89 42 52 (194376)
I0301 08:12:56.245976  5308 net.cpp:137] Memory required for data: 399122136
I0301 08:12:56.245980  5308 layer_factory.hpp:77] Creating layer concat2_2_concat2_2_0_split
I0301 08:12:56.245983  5308 net.cpp:84] Creating Layer concat2_2_concat2_2_0_split
I0301 08:12:56.245986  5308 net.cpp:406] concat2_2_concat2_2_0_split <- concat2_2
I0301 08:12:56.245992  5308 net.cpp:380] concat2_2_concat2_2_0_split -> concat2_2_concat2_2_0_split_0
I0301 08:12:56.245998  5308 net.cpp:380] concat2_2_concat2_2_0_split -> concat2_2_concat2_2_0_split_1
I0301 08:12:56.246031  5308 net.cpp:122] Setting up concat2_2_concat2_2_0_split
I0301 08:12:56.246035  5308 net.cpp:129] Top shape: 1 89 42 52 (194376)
I0301 08:12:56.246039  5308 net.cpp:129] Top shape: 1 89 42 52 (194376)
I0301 08:12:56.246042  5308 net.cpp:137] Memory required for data: 400677144
I0301 08:12:56.246044  5308 layer_factory.hpp:77] Creating layer conv2_3/bn
I0301 08:12:56.246052  5308 net.cpp:84] Creating Layer conv2_3/bn
I0301 08:12:56.246054  5308 net.cpp:406] conv2_3/bn <- concat2_2_concat2_2_0_split_0
I0301 08:12:56.246059  5308 net.cpp:380] conv2_3/bn -> conv2_3/bn
I0301 08:12:56.246263  5308 net.cpp:122] Setting up conv2_3/bn
I0301 08:12:56.246268  5308 net.cpp:129] Top shape: 1 89 42 52 (194376)
I0301 08:12:56.246271  5308 net.cpp:137] Memory required for data: 401454648
I0301 08:12:56.246279  5308 layer_factory.hpp:77] Creating layer conv2_3/scale
I0301 08:12:56.246286  5308 net.cpp:84] Creating Layer conv2_3/scale
I0301 08:12:56.246290  5308 net.cpp:406] conv2_3/scale <- conv2_3/bn
I0301 08:12:56.246295  5308 net.cpp:367] conv2_3/scale -> conv2_3/bn (in-place)
I0301 08:12:56.246335  5308 layer_factory.hpp:77] Creating layer conv2_3/scale
I0301 08:12:56.246448  5308 net.cpp:122] Setting up conv2_3/scale
I0301 08:12:56.246454  5308 net.cpp:129] Top shape: 1 89 42 52 (194376)
I0301 08:12:56.246457  5308 net.cpp:137] Memory required for data: 402232152
I0301 08:12:56.246462  5308 layer_factory.hpp:77] Creating layer relu2_3
I0301 08:12:56.246467  5308 net.cpp:84] Creating Layer relu2_3
I0301 08:12:56.246470  5308 net.cpp:406] relu2_3 <- conv2_3/bn
I0301 08:12:56.246476  5308 net.cpp:367] relu2_3 -> conv2_3/bn (in-place)
I0301 08:12:56.246665  5308 net.cpp:122] Setting up relu2_3
I0301 08:12:56.246673  5308 net.cpp:129] Top shape: 1 89 42 52 (194376)
I0301 08:12:56.246676  5308 net.cpp:137] Memory required for data: 403009656
I0301 08:12:56.246680  5308 layer_factory.hpp:77] Creating layer conv2_3
I0301 08:12:56.246688  5308 net.cpp:84] Creating Layer conv2_3
I0301 08:12:56.246691  5308 net.cpp:406] conv2_3 <- conv2_3/bn
I0301 08:12:56.246696  5308 net.cpp:380] conv2_3 -> conv2_3
I0301 08:12:56.247992  5308 net.cpp:122] Setting up conv2_3
I0301 08:12:56.248003  5308 net.cpp:129] Top shape: 1 12 42 52 (26208)
I0301 08:12:56.248006  5308 net.cpp:137] Memory required for data: 403114488
I0301 08:12:56.248013  5308 layer_factory.hpp:77] Creating layer concat2_3
I0301 08:12:56.248018  5308 net.cpp:84] Creating Layer concat2_3
I0301 08:12:56.248021  5308 net.cpp:406] concat2_3 <- concat2_2_concat2_2_0_split_1
I0301 08:12:56.248026  5308 net.cpp:406] concat2_3 <- conv2_3
I0301 08:12:56.248033  5308 net.cpp:380] concat2_3 -> concat2_3
I0301 08:12:56.248060  5308 net.cpp:122] Setting up concat2_3
I0301 08:12:56.248066  5308 net.cpp:129] Top shape: 1 101 42 52 (220584)
I0301 08:12:56.248069  5308 net.cpp:137] Memory required for data: 403996824
I0301 08:12:56.248071  5308 layer_factory.hpp:77] Creating layer concat2_3_concat2_3_0_split
I0301 08:12:56.248075  5308 net.cpp:84] Creating Layer concat2_3_concat2_3_0_split
I0301 08:12:56.248078  5308 net.cpp:406] concat2_3_concat2_3_0_split <- concat2_3
I0301 08:12:56.248082  5308 net.cpp:380] concat2_3_concat2_3_0_split -> concat2_3_concat2_3_0_split_0
I0301 08:12:56.248090  5308 net.cpp:380] concat2_3_concat2_3_0_split -> concat2_3_concat2_3_0_split_1
I0301 08:12:56.248122  5308 net.cpp:122] Setting up concat2_3_concat2_3_0_split
I0301 08:12:56.248127  5308 net.cpp:129] Top shape: 1 101 42 52 (220584)
I0301 08:12:56.248131  5308 net.cpp:129] Top shape: 1 101 42 52 (220584)
I0301 08:12:56.248133  5308 net.cpp:137] Memory required for data: 405761496
I0301 08:12:56.248136  5308 layer_factory.hpp:77] Creating layer conv2_4/bn
I0301 08:12:56.248142  5308 net.cpp:84] Creating Layer conv2_4/bn
I0301 08:12:56.248144  5308 net.cpp:406] conv2_4/bn <- concat2_3_concat2_3_0_split_0
I0301 08:12:56.248149  5308 net.cpp:380] conv2_4/bn -> conv2_4/bn
I0301 08:12:56.248348  5308 net.cpp:122] Setting up conv2_4/bn
I0301 08:12:56.248354  5308 net.cpp:129] Top shape: 1 101 42 52 (220584)
I0301 08:12:56.248356  5308 net.cpp:137] Memory required for data: 406643832
I0301 08:12:56.248363  5308 layer_factory.hpp:77] Creating layer conv2_4/scale
I0301 08:12:56.248369  5308 net.cpp:84] Creating Layer conv2_4/scale
I0301 08:12:56.248373  5308 net.cpp:406] conv2_4/scale <- conv2_4/bn
I0301 08:12:56.248376  5308 net.cpp:367] conv2_4/scale -> conv2_4/bn (in-place)
I0301 08:12:56.248414  5308 layer_factory.hpp:77] Creating layer conv2_4/scale
I0301 08:12:56.248528  5308 net.cpp:122] Setting up conv2_4/scale
I0301 08:12:56.248534  5308 net.cpp:129] Top shape: 1 101 42 52 (220584)
I0301 08:12:56.248538  5308 net.cpp:137] Memory required for data: 407526168
I0301 08:12:56.248543  5308 layer_factory.hpp:77] Creating layer relu2_4
I0301 08:12:56.248548  5308 net.cpp:84] Creating Layer relu2_4
I0301 08:12:56.248550  5308 net.cpp:406] relu2_4 <- conv2_4/bn
I0301 08:12:56.248556  5308 net.cpp:367] relu2_4 -> conv2_4/bn (in-place)
I0301 08:12:56.248736  5308 net.cpp:122] Setting up relu2_4
I0301 08:12:56.248744  5308 net.cpp:129] Top shape: 1 101 42 52 (220584)
I0301 08:12:56.248747  5308 net.cpp:137] Memory required for data: 408408504
I0301 08:12:56.248750  5308 layer_factory.hpp:77] Creating layer conv2_4
I0301 08:12:56.248759  5308 net.cpp:84] Creating Layer conv2_4
I0301 08:12:56.248762  5308 net.cpp:406] conv2_4 <- conv2_4/bn
I0301 08:12:56.248767  5308 net.cpp:380] conv2_4 -> conv2_4
I0301 08:12:56.250272  5308 net.cpp:122] Setting up conv2_4
I0301 08:12:56.250283  5308 net.cpp:129] Top shape: 1 12 42 52 (26208)
I0301 08:12:56.250286  5308 net.cpp:137] Memory required for data: 408513336
I0301 08:12:56.250293  5308 layer_factory.hpp:77] Creating layer concat2_4
I0301 08:12:56.250299  5308 net.cpp:84] Creating Layer concat2_4
I0301 08:12:56.250303  5308 net.cpp:406] concat2_4 <- concat2_3_concat2_3_0_split_1
I0301 08:12:56.250308  5308 net.cpp:406] concat2_4 <- conv2_4
I0301 08:12:56.250313  5308 net.cpp:380] concat2_4 -> concat2_4
I0301 08:12:56.250342  5308 net.cpp:122] Setting up concat2_4
I0301 08:12:56.250347  5308 net.cpp:129] Top shape: 1 113 42 52 (246792)
I0301 08:12:56.250350  5308 net.cpp:137] Memory required for data: 409500504
I0301 08:12:56.250353  5308 layer_factory.hpp:77] Creating layer concat2_4_concat2_4_0_split
I0301 08:12:56.250357  5308 net.cpp:84] Creating Layer concat2_4_concat2_4_0_split
I0301 08:12:56.250360  5308 net.cpp:406] concat2_4_concat2_4_0_split <- concat2_4
I0301 08:12:56.250365  5308 net.cpp:380] concat2_4_concat2_4_0_split -> concat2_4_concat2_4_0_split_0
I0301 08:12:56.250371  5308 net.cpp:380] concat2_4_concat2_4_0_split -> concat2_4_concat2_4_0_split_1
I0301 08:12:56.250404  5308 net.cpp:122] Setting up concat2_4_concat2_4_0_split
I0301 08:12:56.250409  5308 net.cpp:129] Top shape: 1 113 42 52 (246792)
I0301 08:12:56.250413  5308 net.cpp:129] Top shape: 1 113 42 52 (246792)
I0301 08:12:56.250416  5308 net.cpp:137] Memory required for data: 411474840
I0301 08:12:56.250418  5308 layer_factory.hpp:77] Creating layer conv2_5/bn
I0301 08:12:56.250424  5308 net.cpp:84] Creating Layer conv2_5/bn
I0301 08:12:56.250427  5308 net.cpp:406] conv2_5/bn <- concat2_4_concat2_4_0_split_0
I0301 08:12:56.250432  5308 net.cpp:380] conv2_5/bn -> conv2_5/bn
I0301 08:12:56.250627  5308 net.cpp:122] Setting up conv2_5/bn
I0301 08:12:56.250633  5308 net.cpp:129] Top shape: 1 113 42 52 (246792)
I0301 08:12:56.250636  5308 net.cpp:137] Memory required for data: 412462008
I0301 08:12:56.250643  5308 layer_factory.hpp:77] Creating layer conv2_5/scale
I0301 08:12:56.250648  5308 net.cpp:84] Creating Layer conv2_5/scale
I0301 08:12:56.250651  5308 net.cpp:406] conv2_5/scale <- conv2_5/bn
I0301 08:12:56.250656  5308 net.cpp:367] conv2_5/scale -> conv2_5/bn (in-place)
I0301 08:12:56.250694  5308 layer_factory.hpp:77] Creating layer conv2_5/scale
I0301 08:12:56.250807  5308 net.cpp:122] Setting up conv2_5/scale
I0301 08:12:56.250813  5308 net.cpp:129] Top shape: 1 113 42 52 (246792)
I0301 08:12:56.250814  5308 net.cpp:137] Memory required for data: 413449176
I0301 08:12:56.250819  5308 layer_factory.hpp:77] Creating layer relu2_5
I0301 08:12:56.250824  5308 net.cpp:84] Creating Layer relu2_5
I0301 08:12:56.250828  5308 net.cpp:406] relu2_5 <- conv2_5/bn
I0301 08:12:56.250833  5308 net.cpp:367] relu2_5 -> conv2_5/bn (in-place)
I0301 08:12:56.251015  5308 net.cpp:122] Setting up relu2_5
I0301 08:12:56.251024  5308 net.cpp:129] Top shape: 1 113 42 52 (246792)
I0301 08:12:56.251027  5308 net.cpp:137] Memory required for data: 414436344
I0301 08:12:56.251030  5308 layer_factory.hpp:77] Creating layer conv2_5
I0301 08:12:56.251039  5308 net.cpp:84] Creating Layer conv2_5
I0301 08:12:56.251041  5308 net.cpp:406] conv2_5 <- conv2_5/bn
I0301 08:12:56.251049  5308 net.cpp:380] conv2_5 -> conv2_5
I0301 08:12:56.252373  5308 net.cpp:122] Setting up conv2_5
I0301 08:12:56.252385  5308 net.cpp:129] Top shape: 1 12 42 52 (26208)
I0301 08:12:56.252388  5308 net.cpp:137] Memory required for data: 414541176
I0301 08:12:56.252396  5308 layer_factory.hpp:77] Creating layer concat2_5
I0301 08:12:56.252403  5308 net.cpp:84] Creating Layer concat2_5
I0301 08:12:56.252406  5308 net.cpp:406] concat2_5 <- concat2_4_concat2_4_0_split_1
I0301 08:12:56.252410  5308 net.cpp:406] concat2_5 <- conv2_5
I0301 08:12:56.252415  5308 net.cpp:380] concat2_5 -> concat2_5
I0301 08:12:56.252444  5308 net.cpp:122] Setting up concat2_5
I0301 08:12:56.252449  5308 net.cpp:129] Top shape: 1 125 42 52 (273000)
I0301 08:12:56.252451  5308 net.cpp:137] Memory required for data: 415633176
I0301 08:12:56.252454  5308 layer_factory.hpp:77] Creating layer concat2_5_concat2_5_0_split
I0301 08:12:56.252460  5308 net.cpp:84] Creating Layer concat2_5_concat2_5_0_split
I0301 08:12:56.252462  5308 net.cpp:406] concat2_5_concat2_5_0_split <- concat2_5
I0301 08:12:56.252466  5308 net.cpp:380] concat2_5_concat2_5_0_split -> concat2_5_concat2_5_0_split_0
I0301 08:12:56.252471  5308 net.cpp:380] concat2_5_concat2_5_0_split -> concat2_5_concat2_5_0_split_1
I0301 08:12:56.252504  5308 net.cpp:122] Setting up concat2_5_concat2_5_0_split
I0301 08:12:56.252509  5308 net.cpp:129] Top shape: 1 125 42 52 (273000)
I0301 08:12:56.252513  5308 net.cpp:129] Top shape: 1 125 42 52 (273000)
I0301 08:12:56.252516  5308 net.cpp:137] Memory required for data: 417817176
I0301 08:12:56.252518  5308 layer_factory.hpp:77] Creating layer conv2_6/bn
I0301 08:12:56.252523  5308 net.cpp:84] Creating Layer conv2_6/bn
I0301 08:12:56.252526  5308 net.cpp:406] conv2_6/bn <- concat2_5_concat2_5_0_split_0
I0301 08:12:56.252532  5308 net.cpp:380] conv2_6/bn -> conv2_6/bn
I0301 08:12:56.252727  5308 net.cpp:122] Setting up conv2_6/bn
I0301 08:12:56.252732  5308 net.cpp:129] Top shape: 1 125 42 52 (273000)
I0301 08:12:56.252735  5308 net.cpp:137] Memory required for data: 418909176
I0301 08:12:56.252741  5308 layer_factory.hpp:77] Creating layer conv2_6/scale
I0301 08:12:56.252748  5308 net.cpp:84] Creating Layer conv2_6/scale
I0301 08:12:56.252750  5308 net.cpp:406] conv2_6/scale <- conv2_6/bn
I0301 08:12:56.252754  5308 net.cpp:367] conv2_6/scale -> conv2_6/bn (in-place)
I0301 08:12:56.252792  5308 layer_factory.hpp:77] Creating layer conv2_6/scale
I0301 08:12:56.252904  5308 net.cpp:122] Setting up conv2_6/scale
I0301 08:12:56.252910  5308 net.cpp:129] Top shape: 1 125 42 52 (273000)
I0301 08:12:56.252913  5308 net.cpp:137] Memory required for data: 420001176
I0301 08:12:56.252918  5308 layer_factory.hpp:77] Creating layer relu2_6
I0301 08:12:56.252924  5308 net.cpp:84] Creating Layer relu2_6
I0301 08:12:56.252928  5308 net.cpp:406] relu2_6 <- conv2_6/bn
I0301 08:12:56.252931  5308 net.cpp:367] relu2_6 -> conv2_6/bn (in-place)
I0301 08:12:56.253360  5308 net.cpp:122] Setting up relu2_6
I0301 08:12:56.253371  5308 net.cpp:129] Top shape: 1 125 42 52 (273000)
I0301 08:12:56.253374  5308 net.cpp:137] Memory required for data: 421093176
I0301 08:12:56.253378  5308 layer_factory.hpp:77] Creating layer conv2_6
I0301 08:12:56.253387  5308 net.cpp:84] Creating Layer conv2_6
I0301 08:12:56.253391  5308 net.cpp:406] conv2_6 <- conv2_6/bn
I0301 08:12:56.253397  5308 net.cpp:380] conv2_6 -> conv2_6
I0301 08:12:56.254987  5308 net.cpp:122] Setting up conv2_6
I0301 08:12:56.254999  5308 net.cpp:129] Top shape: 1 12 42 52 (26208)
I0301 08:12:56.255003  5308 net.cpp:137] Memory required for data: 421198008
I0301 08:12:56.255008  5308 layer_factory.hpp:77] Creating layer concat2_6
I0301 08:12:56.255015  5308 net.cpp:84] Creating Layer concat2_6
I0301 08:12:56.255019  5308 net.cpp:406] concat2_6 <- concat2_5_concat2_5_0_split_1
I0301 08:12:56.255024  5308 net.cpp:406] concat2_6 <- conv2_6
I0301 08:12:56.255028  5308 net.cpp:380] concat2_6 -> concat2_6
I0301 08:12:56.255059  5308 net.cpp:122] Setting up concat2_6
I0301 08:12:56.255064  5308 net.cpp:129] Top shape: 1 137 42 52 (299208)
I0301 08:12:56.255066  5308 net.cpp:137] Memory required for data: 422394840
I0301 08:12:56.255069  5308 layer_factory.hpp:77] Creating layer concat2_6_concat2_6_0_split
I0301 08:12:56.255075  5308 net.cpp:84] Creating Layer concat2_6_concat2_6_0_split
I0301 08:12:56.255080  5308 net.cpp:406] concat2_6_concat2_6_0_split <- concat2_6
I0301 08:12:56.255086  5308 net.cpp:380] concat2_6_concat2_6_0_split -> concat2_6_concat2_6_0_split_0
I0301 08:12:56.255091  5308 net.cpp:380] concat2_6_concat2_6_0_split -> concat2_6_concat2_6_0_split_1
I0301 08:12:56.255128  5308 net.cpp:122] Setting up concat2_6_concat2_6_0_split
I0301 08:12:56.255133  5308 net.cpp:129] Top shape: 1 137 42 52 (299208)
I0301 08:12:56.255136  5308 net.cpp:129] Top shape: 1 137 42 52 (299208)
I0301 08:12:56.255139  5308 net.cpp:137] Memory required for data: 424788504
I0301 08:12:56.255142  5308 layer_factory.hpp:77] Creating layer conv2_7/bn
I0301 08:12:56.255148  5308 net.cpp:84] Creating Layer conv2_7/bn
I0301 08:12:56.255151  5308 net.cpp:406] conv2_7/bn <- concat2_6_concat2_6_0_split_0
I0301 08:12:56.255156  5308 net.cpp:380] conv2_7/bn -> conv2_7/bn
I0301 08:12:56.255352  5308 net.cpp:122] Setting up conv2_7/bn
I0301 08:12:56.255358  5308 net.cpp:129] Top shape: 1 137 42 52 (299208)
I0301 08:12:56.255360  5308 net.cpp:137] Memory required for data: 425985336
I0301 08:12:56.255367  5308 layer_factory.hpp:77] Creating layer conv2_7/scale
I0301 08:12:56.255373  5308 net.cpp:84] Creating Layer conv2_7/scale
I0301 08:12:56.255376  5308 net.cpp:406] conv2_7/scale <- conv2_7/bn
I0301 08:12:56.255381  5308 net.cpp:367] conv2_7/scale -> conv2_7/bn (in-place)
I0301 08:12:56.255419  5308 layer_factory.hpp:77] Creating layer conv2_7/scale
I0301 08:12:56.255540  5308 net.cpp:122] Setting up conv2_7/scale
I0301 08:12:56.255548  5308 net.cpp:129] Top shape: 1 137 42 52 (299208)
I0301 08:12:56.255549  5308 net.cpp:137] Memory required for data: 427182168
I0301 08:12:56.255554  5308 layer_factory.hpp:77] Creating layer relu2_7
I0301 08:12:56.255559  5308 net.cpp:84] Creating Layer relu2_7
I0301 08:12:56.255563  5308 net.cpp:406] relu2_7 <- conv2_7/bn
I0301 08:12:56.255568  5308 net.cpp:367] relu2_7 -> conv2_7/bn (in-place)
I0301 08:12:56.255751  5308 net.cpp:122] Setting up relu2_7
I0301 08:12:56.255759  5308 net.cpp:129] Top shape: 1 137 42 52 (299208)
I0301 08:12:56.255762  5308 net.cpp:137] Memory required for data: 428379000
I0301 08:12:56.255765  5308 layer_factory.hpp:77] Creating layer conv2_7
I0301 08:12:56.255774  5308 net.cpp:84] Creating Layer conv2_7
I0301 08:12:56.255777  5308 net.cpp:406] conv2_7 <- conv2_7/bn
I0301 08:12:56.255784  5308 net.cpp:380] conv2_7 -> conv2_7
I0301 08:12:56.257207  5308 net.cpp:122] Setting up conv2_7
I0301 08:12:56.257220  5308 net.cpp:129] Top shape: 1 12 42 52 (26208)
I0301 08:12:56.257222  5308 net.cpp:137] Memory required for data: 428483832
I0301 08:12:56.257227  5308 layer_factory.hpp:77] Creating layer concat2_7
I0301 08:12:56.257235  5308 net.cpp:84] Creating Layer concat2_7
I0301 08:12:56.257238  5308 net.cpp:406] concat2_7 <- concat2_6_concat2_6_0_split_1
I0301 08:12:56.257243  5308 net.cpp:406] concat2_7 <- conv2_7
I0301 08:12:56.257247  5308 net.cpp:380] concat2_7 -> concat2_7
I0301 08:12:56.257275  5308 net.cpp:122] Setting up concat2_7
I0301 08:12:56.257280  5308 net.cpp:129] Top shape: 1 149 42 52 (325416)
I0301 08:12:56.257283  5308 net.cpp:137] Memory required for data: 429785496
I0301 08:12:56.257287  5308 layer_factory.hpp:77] Creating layer concat2_7_concat2_7_0_split
I0301 08:12:56.257290  5308 net.cpp:84] Creating Layer concat2_7_concat2_7_0_split
I0301 08:12:56.257293  5308 net.cpp:406] concat2_7_concat2_7_0_split <- concat2_7
I0301 08:12:56.257299  5308 net.cpp:380] concat2_7_concat2_7_0_split -> concat2_7_concat2_7_0_split_0
I0301 08:12:56.257304  5308 net.cpp:380] concat2_7_concat2_7_0_split -> concat2_7_concat2_7_0_split_1
I0301 08:12:56.257338  5308 net.cpp:122] Setting up concat2_7_concat2_7_0_split
I0301 08:12:56.257342  5308 net.cpp:129] Top shape: 1 149 42 52 (325416)
I0301 08:12:56.257345  5308 net.cpp:129] Top shape: 1 149 42 52 (325416)
I0301 08:12:56.257349  5308 net.cpp:137] Memory required for data: 432388824
I0301 08:12:56.257350  5308 layer_factory.hpp:77] Creating layer conv2_8/bn
I0301 08:12:56.257359  5308 net.cpp:84] Creating Layer conv2_8/bn
I0301 08:12:56.257362  5308 net.cpp:406] conv2_8/bn <- concat2_7_concat2_7_0_split_0
I0301 08:12:56.257367  5308 net.cpp:380] conv2_8/bn -> conv2_8/bn
I0301 08:12:56.257567  5308 net.cpp:122] Setting up conv2_8/bn
I0301 08:12:56.257573  5308 net.cpp:129] Top shape: 1 149 42 52 (325416)
I0301 08:12:56.257576  5308 net.cpp:137] Memory required for data: 433690488
I0301 08:12:56.257582  5308 layer_factory.hpp:77] Creating layer conv2_8/scale
I0301 08:12:56.257588  5308 net.cpp:84] Creating Layer conv2_8/scale
I0301 08:12:56.257591  5308 net.cpp:406] conv2_8/scale <- conv2_8/bn
I0301 08:12:56.257596  5308 net.cpp:367] conv2_8/scale -> conv2_8/bn (in-place)
I0301 08:12:56.257634  5308 layer_factory.hpp:77] Creating layer conv2_8/scale
I0301 08:12:56.257748  5308 net.cpp:122] Setting up conv2_8/scale
I0301 08:12:56.257755  5308 net.cpp:129] Top shape: 1 149 42 52 (325416)
I0301 08:12:56.257756  5308 net.cpp:137] Memory required for data: 434992152
I0301 08:12:56.257761  5308 layer_factory.hpp:77] Creating layer relu2_8
I0301 08:12:56.257766  5308 net.cpp:84] Creating Layer relu2_8
I0301 08:12:56.257769  5308 net.cpp:406] relu2_8 <- conv2_8/bn
I0301 08:12:56.257774  5308 net.cpp:367] relu2_8 -> conv2_8/bn (in-place)
I0301 08:12:56.257954  5308 net.cpp:122] Setting up relu2_8
I0301 08:12:56.257962  5308 net.cpp:129] Top shape: 1 149 42 52 (325416)
I0301 08:12:56.257966  5308 net.cpp:137] Memory required for data: 436293816
I0301 08:12:56.257968  5308 layer_factory.hpp:77] Creating layer conv2_8
I0301 08:12:56.257977  5308 net.cpp:84] Creating Layer conv2_8
I0301 08:12:56.257980  5308 net.cpp:406] conv2_8 <- conv2_8/bn
I0301 08:12:56.257987  5308 net.cpp:380] conv2_8 -> conv2_8
I0301 08:12:56.259680  5308 net.cpp:122] Setting up conv2_8
I0301 08:12:56.259692  5308 net.cpp:129] Top shape: 1 12 42 52 (26208)
I0301 08:12:56.259696  5308 net.cpp:137] Memory required for data: 436398648
I0301 08:12:56.259701  5308 layer_factory.hpp:77] Creating layer concat2_8
I0301 08:12:56.259717  5308 net.cpp:84] Creating Layer concat2_8
I0301 08:12:56.259721  5308 net.cpp:406] concat2_8 <- concat2_7_concat2_7_0_split_1
I0301 08:12:56.259726  5308 net.cpp:406] concat2_8 <- conv2_8
I0301 08:12:56.259732  5308 net.cpp:380] concat2_8 -> concat2_8
I0301 08:12:56.259760  5308 net.cpp:122] Setting up concat2_8
I0301 08:12:56.259765  5308 net.cpp:129] Top shape: 1 161 42 52 (351624)
I0301 08:12:56.259768  5308 net.cpp:137] Memory required for data: 437805144
I0301 08:12:56.259770  5308 layer_factory.hpp:77] Creating layer concat2_8_concat2_8_0_split
I0301 08:12:56.259776  5308 net.cpp:84] Creating Layer concat2_8_concat2_8_0_split
I0301 08:12:56.259779  5308 net.cpp:406] concat2_8_concat2_8_0_split <- concat2_8
I0301 08:12:56.259783  5308 net.cpp:380] concat2_8_concat2_8_0_split -> concat2_8_concat2_8_0_split_0
I0301 08:12:56.259788  5308 net.cpp:380] concat2_8_concat2_8_0_split -> concat2_8_concat2_8_0_split_1
I0301 08:12:56.259822  5308 net.cpp:122] Setting up concat2_8_concat2_8_0_split
I0301 08:12:56.259827  5308 net.cpp:129] Top shape: 1 161 42 52 (351624)
I0301 08:12:56.259830  5308 net.cpp:129] Top shape: 1 161 42 52 (351624)
I0301 08:12:56.259833  5308 net.cpp:137] Memory required for data: 440618136
I0301 08:12:56.259835  5308 layer_factory.hpp:77] Creating layer conv2_9/bn
I0301 08:12:56.259845  5308 net.cpp:84] Creating Layer conv2_9/bn
I0301 08:12:56.259848  5308 net.cpp:406] conv2_9/bn <- concat2_8_concat2_8_0_split_0
I0301 08:12:56.259852  5308 net.cpp:380] conv2_9/bn -> conv2_9/bn
I0301 08:12:56.260044  5308 net.cpp:122] Setting up conv2_9/bn
I0301 08:12:56.260051  5308 net.cpp:129] Top shape: 1 161 42 52 (351624)
I0301 08:12:56.260052  5308 net.cpp:137] Memory required for data: 442024632
I0301 08:12:56.260069  5308 layer_factory.hpp:77] Creating layer conv2_9/scale
I0301 08:12:56.260076  5308 net.cpp:84] Creating Layer conv2_9/scale
I0301 08:12:56.260078  5308 net.cpp:406] conv2_9/scale <- conv2_9/bn
I0301 08:12:56.260083  5308 net.cpp:367] conv2_9/scale -> conv2_9/bn (in-place)
I0301 08:12:56.260125  5308 layer_factory.hpp:77] Creating layer conv2_9/scale
I0301 08:12:56.260237  5308 net.cpp:122] Setting up conv2_9/scale
I0301 08:12:56.260243  5308 net.cpp:129] Top shape: 1 161 42 52 (351624)
I0301 08:12:56.260246  5308 net.cpp:137] Memory required for data: 443431128
I0301 08:12:56.260251  5308 layer_factory.hpp:77] Creating layer relu2_9
I0301 08:12:56.260255  5308 net.cpp:84] Creating Layer relu2_9
I0301 08:12:56.260258  5308 net.cpp:406] relu2_9 <- conv2_9/bn
I0301 08:12:56.260262  5308 net.cpp:367] relu2_9 -> conv2_9/bn (in-place)
I0301 08:12:56.260685  5308 net.cpp:122] Setting up relu2_9
I0301 08:12:56.260697  5308 net.cpp:129] Top shape: 1 161 42 52 (351624)
I0301 08:12:56.260700  5308 net.cpp:137] Memory required for data: 444837624
I0301 08:12:56.260704  5308 layer_factory.hpp:77] Creating layer conv2_9
I0301 08:12:56.260712  5308 net.cpp:84] Creating Layer conv2_9
I0301 08:12:56.260716  5308 net.cpp:406] conv2_9 <- conv2_9/bn
I0301 08:12:56.260722  5308 net.cpp:380] conv2_9 -> conv2_9
I0301 08:12:56.262145  5308 net.cpp:122] Setting up conv2_9
I0301 08:12:56.262156  5308 net.cpp:129] Top shape: 1 12 42 52 (26208)
I0301 08:12:56.262159  5308 net.cpp:137] Memory required for data: 444942456
I0301 08:12:56.262164  5308 layer_factory.hpp:77] Creating layer concat2_9
I0301 08:12:56.262171  5308 net.cpp:84] Creating Layer concat2_9
I0301 08:12:56.262174  5308 net.cpp:406] concat2_9 <- concat2_8_concat2_8_0_split_1
I0301 08:12:56.262179  5308 net.cpp:406] concat2_9 <- conv2_9
I0301 08:12:56.262184  5308 net.cpp:380] concat2_9 -> concat2_9
I0301 08:12:56.262210  5308 net.cpp:122] Setting up concat2_9
I0301 08:12:56.262217  5308 net.cpp:129] Top shape: 1 173 42 52 (377832)
I0301 08:12:56.262219  5308 net.cpp:137] Memory required for data: 446453784
I0301 08:12:56.262223  5308 layer_factory.hpp:77] Creating layer tpp5
I0301 08:12:56.262228  5308 net.cpp:84] Creating Layer tpp5
I0301 08:12:56.262230  5308 net.cpp:406] tpp5 <- concat2_9
I0301 08:12:56.262234  5308 net.cpp:380] tpp5 -> tpp5
I0301 08:12:56.262635  5308 net.cpp:122] Setting up tpp5
I0301 08:12:56.262643  5308 net.cpp:129] Top shape: 1 2595 (2595)
I0301 08:12:56.262646  5308 net.cpp:137] Memory required for data: 446464164
I0301 08:12:56.262650  5308 layer_factory.hpp:77] Creating layer fc6_d
I0301 08:12:56.262655  5308 net.cpp:84] Creating Layer fc6_d
I0301 08:12:56.262658  5308 net.cpp:406] fc6_d <- tpp5
I0301 08:12:56.262666  5308 net.cpp:380] fc6_d -> fc6_d
I0301 08:12:56.530966  5308 net.cpp:122] Setting up fc6_d
I0301 08:12:56.530995  5308 net.cpp:129] Top shape: 1 4096 (4096)
I0301 08:12:56.530998  5308 net.cpp:137] Memory required for data: 446480548
I0301 08:12:56.531006  5308 layer_factory.hpp:77] Creating layer relu6
I0301 08:12:56.531016  5308 net.cpp:84] Creating Layer relu6
I0301 08:12:56.531020  5308 net.cpp:406] relu6 <- fc6_d
I0301 08:12:56.531026  5308 net.cpp:367] relu6 -> fc6_d (in-place)
I0301 08:12:56.531251  5308 net.cpp:122] Setting up relu6
I0301 08:12:56.531258  5308 net.cpp:129] Top shape: 1 4096 (4096)
I0301 08:12:56.531261  5308 net.cpp:137] Memory required for data: 446496932
I0301 08:12:56.531263  5308 layer_factory.hpp:77] Creating layer drop6
I0301 08:12:56.531271  5308 net.cpp:84] Creating Layer drop6
I0301 08:12:56.531275  5308 net.cpp:406] drop6 <- fc6_d
I0301 08:12:56.531278  5308 net.cpp:367] drop6 -> fc6_d (in-place)
I0301 08:12:56.531304  5308 net.cpp:122] Setting up drop6
I0301 08:12:56.531309  5308 net.cpp:129] Top shape: 1 4096 (4096)
I0301 08:12:56.531311  5308 net.cpp:137] Memory required for data: 446513316
I0301 08:12:56.531313  5308 layer_factory.hpp:77] Creating layer fc7_d
I0301 08:12:56.531319  5308 net.cpp:84] Creating Layer fc7_d
I0301 08:12:56.531322  5308 net.cpp:406] fc7_d <- fc6_d
I0301 08:12:56.531327  5308 net.cpp:380] fc7_d -> fc7_d
I0301 08:12:56.952301  5308 net.cpp:122] Setting up fc7_d
I0301 08:12:56.952332  5308 net.cpp:129] Top shape: 1 4096 (4096)
I0301 08:12:56.952334  5308 net.cpp:137] Memory required for data: 446529700
I0301 08:12:56.952342  5308 layer_factory.hpp:77] Creating layer relu7
I0301 08:12:56.952355  5308 net.cpp:84] Creating Layer relu7
I0301 08:12:56.952360  5308 net.cpp:406] relu7 <- fc7_d
I0301 08:12:56.952365  5308 net.cpp:367] relu7 -> fc7_d (in-place)
I0301 08:12:56.952599  5308 net.cpp:122] Setting up relu7
I0301 08:12:56.952605  5308 net.cpp:129] Top shape: 1 4096 (4096)
I0301 08:12:56.952608  5308 net.cpp:137] Memory required for data: 446546084
I0301 08:12:56.952611  5308 layer_factory.hpp:77] Creating layer drop7
I0301 08:12:56.952618  5308 net.cpp:84] Creating Layer drop7
I0301 08:12:56.952620  5308 net.cpp:406] drop7 <- fc7_d
I0301 08:12:56.952625  5308 net.cpp:367] drop7 -> fc7_d (in-place)
I0301 08:12:56.952651  5308 net.cpp:122] Setting up drop7
I0301 08:12:56.952656  5308 net.cpp:129] Top shape: 1 4096 (4096)
I0301 08:12:56.952658  5308 net.cpp:137] Memory required for data: 446562468
I0301 08:12:56.952661  5308 layer_factory.hpp:77] Creating layer fc8_d
I0301 08:12:56.952666  5308 net.cpp:84] Creating Layer fc8_d
I0301 08:12:56.952669  5308 net.cpp:406] fc8_d <- fc7_d
I0301 08:12:56.952673  5308 net.cpp:380] fc8_d -> fc8_d
I0301 08:12:57.016130  5308 net.cpp:122] Setting up fc8_d
I0301 08:12:57.016149  5308 net.cpp:129] Top shape: 1 618 (618)
I0301 08:12:57.016151  5308 net.cpp:137] Memory required for data: 446564940
I0301 08:12:57.016158  5308 layer_factory.hpp:77] Creating layer loss
I0301 08:12:57.016167  5308 net.cpp:84] Creating Layer loss
I0301 08:12:57.016171  5308 net.cpp:406] loss <- fc8_d
I0301 08:12:57.016175  5308 net.cpp:406] loss <- phocs
I0301 08:12:57.016180  5308 net.cpp:380] loss -> loss
I0301 08:12:57.016222  5308 net.cpp:122] Setting up loss
…
  phase: TEST
}
layer {
  name: "word_images"
  type: "Data"
  top: "word_images"
  top: "label"
  transform_param {
    scale: -0.0039215689
    mean_value: 255
  }
  data_param {
    source: "/data/fwolf/iam_50000/iam-db_nti500000_pul2-3-4-5_test_word_images_lmdb"
    batch_size: 1
    backend: LMDB
    prefetch: 20
  }
}
layer {
  name: "phocs"
  type: "Data"
  top: "phocs"
  top: "label_phocs"
  data_param {
    source: "/data/fwolf/iam_50000/iam-db_nti500000_pul2-3-4-5_test_phocs_lmdb"
    batch_size: 1
    backend: LMDB
    prefetch: 20
  }
}
layer {
  name: "conv_init"
  type: "Convolution"
  bottom: "word_images"
  top: "conv_init"
  convolution_param {
    num_output: 32
    bias_term: false
    pad: 1
    kernel_size: 3
    stride: 1
    weight_filler {
      type: "msra"
    }
    bias_filler {
      type: "constant"
    }
    engine: CUDNN
  }
}
layer {
  name: "conv0_0/bn"
  type: "BatchNorm"
  bottom: "conv_init"
  top: "conv0_0/bn"
  param {
    lr_mult: 0
    decay_mult: 0
  }
  param {
    lr_mult: 0
    decay_mult: 0
  }
  param {
    lr_mult: 0
    decay_mult: 0
  }
}
layer {
  name: "conv0_0/scale"
  type: "Scale"
  bottom: "conv0_0/bn"
  top: "conv0_0/bn"
  scale_param {
    filler {
      value: 1
    }
    bias_term: true
    bias_filler {
      value: 0
    }
  }
}
layer {
  name: "relu0_0"
  type: "ReLU"
  bottom: "conv0_0/bn"
  top: "conv0_0/bn"
}
layer {
  name: "conv0_0"
  type: "Convolution"
  bottom: "conv0_0/bn"
  top: "conv0_0"
  convolution_param {
    num_output: 12
    bias_term: false
    pad: 1
    kernel_size: 3
    stride: 1
    weight_filler {
      type: "msra"
    }
    bias_filler {
      type: "constant"
    }
    engine: CUDNN
  }
}
layer {
  name: "concat0_0"
  type: "Concat"
  bottom: "conv_init"
  bottom: "conv0_0"
  top: "concat0_0"
  concat_param {
    axis: 1
  }
}
layer {
  name: "conv0_1/bn"
  type: "BatchNorm"
  bottom: "concat0_0"
  top: "conv0_1/bn"
  param {
    lr_mult: 0
    decay_mult: 0
  }
  param {
    lr_mult: 0
    decay_mult: 0
  }
  param {
    lr_mult: 0
    decay_mult: 0
  }
}
layer {
  name: "conv0_1/scale"
  type: "Scale"
  bottom: "conv0_1/bn"
  top: "conv0_1/bn"
  scale_param {
    filler {
      value: 1
    }
    bias_term: true
    bias_filler {
      value: 0
    }
  }
}
layer {
  name: "relu0_1"
  type: "ReLU"
  bottom: "conv0_1/bn"
  top: "conv0_1/bn"
}
layer {
  name: "conv0_1"
  type: "Convolution"
  bottom: "conv0_1/bn"
  top: "conv0_1"
  convolution_param {
    num_output: 12
    bias_term: false
    pad: 1
    kernel_size: 3
    stride: 1
    weight_filler {
      type: "msra"
    }
    bias_filler {
      type: "constant"
    }
    engine: CUDNN
  }
}
layer {
  name: "concat0_1"
  type: "Concat"
  bottom: "concat0_0"
  bottom: "conv0_1"
  top: "concat0_1"
  concat_param {
    axis: 1
  }
}
layer {
  name: "conv0_2/bn"
  type: "BatchNorm"
  bottom: "concat0_1"
  top: "conv0_2/bn"
  param {
    lr_mult: 0
    decay_mult: 0
  }
  param {
    lr_mult: 0
    decay_mult: 0
  }
  param {
    lr_mult: 0
    decay_mult: 0
  }
}
layer {
  name: "conv0_2/scale"
  type: "Scale"
  bottom: "conv0_2/bn"
  top: "conv0_2/bn"
  scale_param {
    filler {
      value: 1
    }
    bias_term: true
    bias_filler {
      value: 0
    }
  }
}
layer {
  name: "relu0_2"
  type: "ReLU"
  bottom: "conv0_2/bn"
  top: "conv0_2/bn"
}
layer {
  name: "conv0_2"
  type: "Convolution"
  bottom: "conv0_2/bn"
  top: "conv0_2"
  convolution_param {
    num_output: 12
    bias_term: false
    pad: 1
    kernel_size: 3
    stride: 1
    weight_filler {
      type: "msra"
    }
    bias_filler {
      type: "constant"
    }
    engine: CUDNN
  }
}
layer {
  name: "concat0_2"
  type: "Concat"
  bottom: "concat0_1"
  bottom: "conv0_2"
  top: "concat0_2"
  concat_param {
    axis: 1
  }
}
layer {
  name: "conv0_3/bn"
  type: "BatchNorm"
  bottom: "concat0_2"
  top: "conv0_3/bn"
  param {
    lr_mult: 0
    decay_mult: 0
  }
  param {
    lr_mult: 0
    decay_mult: 0
  }
  param {
    lr_mult: 0
    decay_mult: 0
  }
}
layer {
  name: "conv0_3/scale"
  type: "Scale"
  bottom: "conv0_3/bn"
  top: "conv0_3/bn"
  scale_param {
    filler {
      value: 1
    }
    bias_term: true
    bias_filler {
      value: 0
    }
  }
}
layer {
  name: "relu0_3"
  type: "ReLU"
  bottom: "conv0_3/bn"
  top: "conv0_3/bn"
}
layer {
  name: "conv0_3"
  type: "Convolution"
  bottom: "conv0_3/bn"
  top: "conv0_3"
  convolution_param {
    num_output: 12
    bias_term: false
    pad: 1
    kernel_size: 3
    stride: 1
    weight_filler {
      type: "msra"
    }
    bias_filler {
      type: "constant"
    }
    engine: CUDNN
  }
}
layer {
  name: "concat0_3"
  type: "Concat"
  bottom: "concat0_2"
  bottom: "conv0_3"
  top: "concat0_3"
  concat_param {
    axis: 1
  }
}
layer {
  name: "conv0_4/bn"
  type: "BatchNorm"
  bottom: "concat0_3"
  top: "conv0_4/bn"
  param {
    lr_mult: 0
    decay_mult: 0
  }
  param {
    lr_mult: 0
    decay_mult: 0
  }
  param {
    lr_mult: 0
    decay_mult: 0
  }
}
layer {
  name: "conv0_4/scale"
  type: "Scale"
  bottom: "conv0_4/bn"
  top: "conv0_4/bn"
  scale_param {
    filler {
      value: 1
    }
    bias_term: true
    bias_filler {
      value: 0
    }
  }
}
layer {
  name: "relu0_4"
  type: "ReLU"
  bottom: "conv0_4/bn"
  top: "conv0_4/bn"
}
layer {
  name: "conv0_4"
  type: "Convolution"
  bottom: "conv0_4/bn"
  top: "conv0_4"
  convolution_param {
    num_output: 12
    bias_term: false
    pad: 1
    kernel_size: 3
    stride: 1
    weight_filler {
      type: "msra"
    }
    bias_filler {
      type: "constant"
    }
    engine: CUDNN
  }
}
layer {
  name: "concat0_4"
  type: "Concat"
  bottom: "concat0_3"
  bottom: "conv0_4"
  top: "concat0_4"
  concat_param {
    axis: 1
  }
}
layer {
  name: "BatchNorm1"
  type: "BatchNorm"
  bottom: "concat0_4"
  top: "BatchNorm1"
  param {
    lr_mult: 0
    decay_mult: 0
  }
  param {
    lr_mult: 0
    decay_mult: 0
  }
  param {
    lr_mult: 0
    decay_mult: 0
  }
}
layer {
  name: "Scale1"
  type: "Scale"
  bottom: "BatchNorm1"
  top: "BatchNorm1"
  scale_param {
    filler {
      value: 1
    }
    bias_term: true
    bias_filler {
      value: 0
    }
  }
}
layer {
  name: "ReLU1"
  type: "ReLU"
  bottom: "BatchNorm1"
  top: "BatchNorm1"
}
layer {
  name: "conv0_blk"
  type: "Convolution"
  bottom: "BatchNorm1"
  top: "conv0_blk"
  convolution_param {
    num_output: 46
    bias_term: false
    pad: 0
    kernel_size: 1
    stride: 1
    weight_filler {
      type: "msra"
    }
    bias_filler {
      type: "constant"
    }
    engine: CUDNN
  }
}
layer {
  name: "pool0"
  type: "Pooling"
  bottom: "conv0_blk"
  top: "pool0"
  pooling_param {
    pool: AVE
    kernel_size: 2
    stride: 2
  }
}
layer {
  name: "conv1_0/bn"
  type: "BatchNorm"
  bottom: "pool0"
  top: "conv1_0/bn"
  param {
    lr_mult: 0
    decay_mult: 0
  }
  param {
    lr_mult: 0
    decay_mult: 0
  }
  param {
    lr_mult: 0
    decay_mult: 0
  }
}
layer {
  name: "conv1_0/scale"
  type: "Scale"
  bottom: "conv1_0/bn"
  top: "conv1_0/bn"
  scale_param {
    filler {
      value: 1
    }
    bias_term: true
    bias_filler {
      value: 0
    }
  }
}
layer {
  name: "relu1_0"
  type: "ReLU"
  bottom: "conv1_0/bn"
  top: "conv1_0/bn"
}
layer {
  name: "conv1_0"
  type: "Convolution"
  bottom: "conv1_0/bn"
  top: "conv1_0"
  convolution_param {
    num_output: 12
    bias_term: false
    pad: 1
    kernel_size: 3
    stride: 1
    weight_filler {
      type: "msra"
    }
    bias_filler {
      type: "constant"
    }
    engine: CUDNN
  }
}
layer {
  name: "concat1_0"
  type: "Concat"
  bottom: "pool0"
  bottom: "conv1_0"
  top: "concat1_0"
  concat_param {
    axis: 1
  }
}
layer {
  name: "conv1_1/bn"
  type: "BatchNorm"
  bottom: "concat1_0"
  top: "conv1_1/bn"
  param {
    lr_mult: 0
    decay_mult: 0
  }
  param {
    lr_mult: 0
    decay_mult: 0
  }
  param {
    lr_mult: 0
    decay_mult: 0
  }
}
layer {
  name: "conv1_1/scale"
  type: "Scale"
  bottom: "conv1_1/bn"
  top: "conv1_1/bn"
  scale_param {
    filler {
      value: 1
    }
    bias_term: true
    bias_filler {
      value: 0
    }
  }
}
layer {
  name: "relu1_1"
  type: "ReLU"
  bottom: "conv1_1/bn"
  top: "conv1_1/bn"
}
layer {
  name: "conv1_1"
  type: "Convolution"
  bottom: "conv1_1/bn"
  top: "conv1_1"
  convolution_param {
    num_output: 12
    bias_term: false
    pad: 1
    kernel_size: 3
    stride: 1
    weight_filler {
      type: "msra"
    }
    bias_filler {
      type: "constant"
    }
    engine: CUDNN
  }
}
layer {
  name: "concat1_1"
  type: "Concat"
  bottom: "concat1_0"
  bottom: "conv1_1"
  top: "concat1_1"
  concat_param {
    axis: 1
  }
}
layer {
  name: "conv1_2/bn"
  type: "BatchNorm"
  bottom: "concat1_1"
  top: "conv1_2/bn"
  param {
    lr_mult: 0
    decay_mult: 0
  }
  param {
    lr_mult: 0
    decay_mult: 0
  }
  param {
    lr_mult: 0
    decay_mult: 0
  }
}
layer {
  name: "conv1_2/scale"
  type: "Scale"
  bottom: "conv1_2/bn"
  top: "conv1_2/bn"
  scale_param {
    filler {
      value: 1
    }
    bias_term: true
    bias_filler {
      value: 0
    }
  }
}
layer {
  name: "relu1_2"
  type: "ReLU"
  bottom: "conv1_2/bn"
  top: "conv1_2/bn"
}
layer {
  name: "conv1_2"
  type: "Convolution"
  bottom: "conv1_2/bn"
  top: "conv1_2"
  convolution_param {
    num_output: 12
    bias_term: false
    pad: 1
    kernel_size: 3
    stride: 1
    weight_filler {
      type: "msra"
    }
    bias_filler {
      type: "constant"
    }
    engine: CUDNN
  }
}
layer {
  name: "concat1_2"
  type: "Concat"
  bottom: "concat1_1"
  bottom: "conv1_2"
  top: "concat1_2"
  concat_param {
    axis: 1
  }
}
layer {
  name: "conv1_3/bn"
  type: "BatchNorm"
  bottom: "concat1_2"
  top: "conv1_3/bn"
  param {
    lr_mult: 0
    decay_mult: 0
  }
  param {
    lr_mult: 0
    decay_mult: 0
  }
  param {
    lr_mult: 0
    decay_mult: 0
  }
}
layer {
  name: "conv1_3/scale"
  type: "Scale"
  bottom: "conv1_3/bn"
  top: "conv1_3/bn"
  scale_param {
    filler {
      value: 1
    }
    bias_term: true
    bias_filler {
      value: 0
    }
  }
}
layer {
  name: "relu1_3"
  type: "ReLU"
  bottom: "conv1_3/bn"
  top: "conv1_3/bn"
}
layer {
  name: "conv1_3"
  type: "Convolution"
  bottom: "conv1_3/bn"
  top: "conv1_3"
  convolution_param {
    num_output: 12
    bias_term: false
    pad: 1
    kernel_size: 3
    stride: 1
    weight_filler {
      type: "msra"
    }
    bias_filler {
      type: "constant"
    }
    engine: CUDNN
  }
}
layer {
  name: "concat1_3"
  type: "Concat"
  bottom: "concat1_2"
  bottom: "conv1_3"
  top: "concat1_3"
  concat_param {
    axis: 1
  }
}
layer {
  name: "conv1_4/bn"
  type: "BatchNorm"
  bottom: "concat1_3"
  top: "conv1_4/bn"
  param {
    lr_mult: 0
    decay_mult: 0
  }
  param {
    lr_mult: 0
    decay_mult: 0
  }
  param {
    lr_mult: 0
    decay_mult: 0
  }
}
layer {
  name: "conv1_4/scale"
  type: "Scale"
  bottom: "conv1_4/bn"
  top: "conv1_4/bn"
  scale_param {
    filler {
      value: 1
    }
    bias_term: true
    bias_filler {
      value: 0
    }
  }
}
layer {
  name: "relu1_4"
  type: "ReLU"
  bottom: "conv1_4/bn"
  top: "conv1_4/bn"
}
layer {
  name: "conv1_4"
  type: "Convolution"
  bottom: "conv1_4/bn"
  top: "conv1_4"
  convolution_param {
    num_output: 12
    bias_term: false
    pad: 1
    kernel_size: 3
    stride: 1
    weight_filler {
      type: "msra"
    }
    bias_filler {
      type: "constant"
    }
    engine: CUDNN
  }
}
layer {
  name: "concat1_4"
  type: "Concat"
  bottom: "concat1_3"
  bottom: "conv1_4"
  top: "concat1_4"
  concat_param {
    axis: 1
  }
}
layer {
  name: "BatchNorm2"
  type: "BatchNorm"
  bottom: "concat1_4"
  top: "BatchNorm2"
  param {
    lr_mult: 0
    decay_mult: 0
  }
  param {
    lr_mult: 0
    decay_mult: 0
  }
  param {
    lr_mult: 0
    decay_mult: 0
  }
}
layer {
  name: "Scale2"
  type: "Scale"
  bottom: "BatchNorm2"
  top: "BatchNorm2"
  scale_param {
    filler {
      value: 1
    }
    bias_term: true
    bias_filler {
      value: 0
    }
  }
}
layer {
  name: "ReLU2"
  type: "ReLU"
  bottom: "BatchNorm2"
  top: "BatchNorm2"
}
layer {
  name: "conv1_blk"
  type: "Convolution"
  bottom: "BatchNorm2"
  top: "conv1_blk"
  convolution_param {
    num_output: 53
    bias_term: false
    pad: 0
    kernel_size: 1
    stride: 1
    weight_filler {
      type: "msra"
    }
    bias_filler {
      type: "constant"
    }
    engine: CUDNN
  }
}
layer {
  name: "pool1"
  type: "Pooling"
  bottom: "conv1_blk"
  top: "pool1"
  pooling_param {
    pool: AVE
    kernel_size: 2
    stride: 2
  }
}
layer {
  name: "conv2_0/bn"
  type: "BatchNorm"
  bottom: "pool1"
  top: "conv2_0/bn"
  param {
    lr_mult: 0
    decay_mult: 0
  }
  param {
    lr_mult: 0
    decay_mult: 0
  }
  param {
    lr_mult: 0
    decay_mult: 0
  }
}
layer {
  name: "conv2_0/scale"
  type: "Scale"
  bottom: "conv2_0/bn"
  top: "conv2_0/bn"
  scale_param {
    filler {
      value: 1
    }
    bias_term: true
    bias_filler {
      value: 0
    }
  }
}
layer {
  name: "relu2_0"
  type: "ReLU"
  bottom: "conv2_0/bn"
  top: "conv2_0/bn"
}
layer {
  name: "conv2_0"
  type: "Convolution"
  bottom: "conv2_0/bn"
  top: "conv2_0"
  convolution_param {
    num_output: 12
    bias_term: false
    pad: 1
    kernel_size: 3
    stride: 1
    weight_filler {
      type: "msra"
    }
    bias_filler {
      type: "constant"
    }
    engine: CUDNN
  }
}
layer {
  name: "concat2_0"
  type: "Concat"
  bottom: "pool1"
  bottom: "conv2_0"
  top: "concat2_0"
  concat_param {
    axis: 1
  }
}
layer {
  name: "conv2_1/bn"
  type: "BatchNorm"
  bottom: "concat2_0"
  top: "conv2_1/bn"
  param {
    lr_mult: 0
    decay_mult: 0
  }
  param {
    lr_mult: 0
    decay_mult: 0
  }
  param {
    lr_mult: 0
    decay_mult: 0
  }
}
layer {
  name: "conv2_1/scale"
  type: "Scale"
  bottom: "conv2_1/bn"
  top: "conv2_1/bn"
  scale_param {
    filler {
      value: 1
    }
    bias_term: true
    bias_filler {
      value: 0
    }
  }
}
layer {
  name: "relu2_1"
  type: "ReLU"
  bottom: "conv2_1/bn"
  top: "conv2_1/bn"
}
layer {
  name: "conv2_1"
  type: "Convolution"
  bottom: "conv2_1/bn"
  top: "conv2_1"
  convolution_param {
    num_output: 12
    bias_term: false
    pad: 1
    kernel_size: 3
    stride: 1
    weight_filler {
      type: "msra"
    }
    bias_filler {
      type: "constant"
    }
    engine: CUDNN
  }
}
layer {
  name: "concat2_1"
  type: "Concat"
  bottom: "concat2_0"
  bottom: "conv2_1"
  top: "concat2_1"
  concat_param {
    axis: 1
  }
}
layer {
  name: "conv2_2/bn"
  type: "BatchNorm"
  bottom: "concat2_1"
  top: "conv2_2/bn"
  param {
    lr_mult: 0
    decay_mult: 0
  }
  param {
    lr_mult: 0
    decay_mult: 0
  }
  param {
    lr_mult: 0
    decay_mult: 0
  }
}
layer {
  name: "conv2_2/scale"
  type: "Scale"
  bottom: "conv2_2/bn"
  top: "conv2_2/bn"
  scale_param {
    filler {
      value: 1
    }
    bias_term: true
    bias_filler {
      value: 0
    }
  }
}
layer {
  name: "relu2_2"
  type: "ReLU"
  bottom: "conv2_2/bn"
  top: "conv2_2/bn"
}
layer {
  name: "conv2_2"
  type: "Convolution"
  bottom: "conv2_2/bn"
  top: "conv2_2"
  convolution_param {
    num_output: 12
    bias_term: false
    pad: 1
    kernel_size: 3
    stride: 1
    weight_filler {
      type: "msra"
    }
    bias_filler {
      type: "constant"
    }
    engine: CUDNN
  }
}
layer {
  name: "concat2_2"
  type: "Concat"
  bottom: "concat2_1"
  bottom: "conv2_2"
  top: "concat2_2"
  concat_param {
    axis: 1
  }
}
layer {
  name: "conv2_3/bn"
  type: "BatchNorm"
  bottom: "concat2_2"
  top: "conv2_3/bn"
  param {
    lr_mult: 0
    decay_mult: 0
  }
  param {
    lr_mult: 0
    decay_mult: 0
  }
  param {
    lr_mult: 0
    decay_mult: 0
  }
}
layer {
  name: "conv2_3/scale"
  type: "Scale"
  bottom: "conv2_3/bn"
  top: "conv2_3/bn"
  scale_param {
    filler {
      value: 1
    }
    bias_term: true
    bias_filler {
      value: 0
    }
  }
}
layer {
  name: "relu2_3"
  type: "ReLU"
  bottom: "conv2_3/bn"
  top: "conv2_3/bn"
}
layer {
  name: "conv2_3"
  type: "Convolution"
  bottom: "conv2_3/bn"
  top: "conv2_3"
  convolution_param {
    num_output: 12
    bias_term: false
    pad: 1
    kernel_size: 3
    stride: 1
    weight_filler {
      type: "msra"
    }
    bias_filler {
      type: "constant"
    }
    engine: CUDNN
  }
}
layer {
  name: "concat2_3"
  type: "Concat"
  bottom: "concat2_2"
  bottom: "conv2_3"
  top: "concat2_3"
  concat_param {
    axis: 1
  }
}
layer {
  name: "conv2_4/bn"
  type: "BatchNorm"
  bottom: "concat2_3"
  top: "conv2_4/bn"
  param {
    lr_mult: 0
    decay_mult: 0
  }
  param {
    lr_mult: 0
    decay_mult: 0
  }
  param {
    lr_mult: 0
    decay_mult: 0
  }
}
layer {
  name: "conv2_4/scale"
  type: "Scale"
  bottom: "conv2_4/bn"
  top: "conv2_4/bn"
  scale_param {
    filler {
      value: 1
    }
    bias_term: true
    bias_filler {
      value: 0
    }
  }
}
layer {
  name: "relu2_4"
  type: "ReLU"
  bottom: "conv2_4/bn"
  top: "conv2_4/bn"
}
layer {
  name: "conv2_4"
  type: "Convolution"
  bottom: "conv2_4/bn"
  top: "conv2_4"
  convolution_param {
    num_output: 12
    bias_term: false
    pad: 1
    kernel_size: 3
    stride: 1
    weight_filler {
      type: "msra"
    }
    bias_filler {
      type: "constant"
    }
    engine: CUDNN
  }
}
layer {
  name: "concat2_4"
  type: "Concat"
  bottom: "concat2_3"
  bottom: "conv2_4"
  top: "concat2_4"
  concat_param {
    axis: 1
  }
}
layer {
  name: "conv2_5/bn"
  type: "BatchNorm"
  bottom: "concat2_4"
  top: "conv2_5/bn"
  param {
    lr_mult: 0
    decay_mult: 0
  }
  param {
    lr_mult: 0
    decay_mult: 0
  }
  param {
    lr_mult: 0
    decay_mult: 0
  }
}
layer {
  name: "conv2_5/scale"
  type: "Scale"
  bottom: "conv2_5/bn"
  top: "conv2_5/bn"
  scale_param {
    filler {
      value: 1
    }
    bias_term: true
    bias_filler {
      value: 0
    }
  }
}
layer {
  name: "relu2_5"
  type: "ReLU"
  bottom: "conv2_5/bn"
  top: "conv2_5/bn"
}
layer {
  name: "conv2_5"
  type: "Convolution"
  bottom: "conv2_5/bn"
  top: "conv2_5"
  convolution_param {
    num_output: 12
    bias_term: false
    pad: 1
    kernel_size: 3
    stride: 1
    weight_filler {
      type: "msra"
    }
    bias_filler {
      type: "constant"
    }
    engine: CUDNN
  }
}
layer {
  name: "concat2_5"
  type: "Concat"
  bottom: "concat2_4"
  bottom: "conv2_5"
  top: "concat2_5"
  concat_param {
    axis: 1
  }
}
layer {
  name: "conv2_6/bn"
  type: "BatchNorm"
  bottom: "concat2_5"
  top: "conv2_6/bn"
  param {
    lr_mult: 0
    decay_mult: 0
  }
  param {
    lr_mult: 0
    decay_mult: 0
  }
  param {
    lr_mult: 0
    decay_mult: 0
  }
}
layer {
  name: "conv2_6/scale"
  type: "Scale"
  bottom: "conv2_6/bn"
  top: "conv2_6/bn"
  scale_param {
    filler {
      value: 1
    }
    bias_term: true
    bias_filler {
      value: 0
    }
  }
}
layer {
  name: "relu2_6"
  type: "ReLU"
  bottom: "conv2_6/bn"
  top: "conv2_6/bn"
}
layer {
  name: "conv2_6"
  type: "Convolution"
  bottom: "conv2_6/bn"
  top: "conv2_6"
  convolution_param {
    num_output: 12
    bias_term: false
    pad: 1
    kernel_size: 3
    stride: 1
    weight_filler {
      type: "msra"
    }
    bias_filler {
      type: "constant"
    }
    engine: CUDNN
  }
}
layer {
  name: "concat2_6"
  type: "Concat"
  bottom: "concat2_5"
  bottom: "conv2_6"
  top: "concat2_6"
  concat_param {
    axis: 1
  }
}
layer {
  name: "conv2_7/bn"
  type: "BatchNorm"
  bottom: "concat2_6"
  top: "conv2_7/bn"
  param {
    lr_mult: 0
    decay_mult: 0
  }
  param {
    lr_mult: 0
    decay_mult: 0
  }
  param {
    lr_mult: 0
    decay_mult: 0
  }
}
layer {
  name: "conv2_7/scale"
  type: "Scale"
  bottom: "conv2_7/bn"
  top: "conv2_7/bn"
  scale_param {
    filler {
      value: 1
    }
    bias_term: true
    bias_filler {
      value: 0
    }
  }
}
layer {
  name: "relu2_7"
  type: "ReLU"
  bottom: "conv2_7/bn"
  top: "conv2_7/bn"
}
layer {
  name: "conv2_7"
  type: "Convolution"
  bottom: "conv2_7/bn"
  top: "conv2_7"
  convolution_param {
    num_output: 12
    bias_term: false
    pad: 1
    kernel_size: 3
    stride: 1
    weight_filler {
      type: "msra"
    }
    bias_filler {
      type: "constant"
    }
    engine: CUDNN
  }
}
layer {
  name: "concat2_7"
  type: "Concat"
  bottom: "concat2_6"
  bottom: "conv2_7"
  top: "concat2_7"
  concat_param {
    axis: 1
  }
}
layer {
  name: "conv2_8/bn"
  type: "BatchNorm"
  bottom: "concat2_7"
  top: "conv2_8/bn"
  param {
    lr_mult: 0
    decay_mult: 0
  }
  param {
    lr_mult: 0
    decay_mult: 0
  }
  param {
    lr_mult: 0
    decay_mult: 0
  }
}
layer {
  name: "conv2_8/scale"
  type: "Scale"
  bottom: "conv2_8/bn"
  top: "conv2_8/bn"
  scale_param {
    filler {
      value: 1
    }
    bias_term: true
    bias_filler {
      value: 0
    }
  }
}
layer {
  name: "relu2_8"
  type: "ReLU"
  bottom: "conv2_8/bn"
  top: "conv2_8/bn"
}
layer {
  name: "conv2_8"
  type: "Convolution"
  bottom: "conv2_8/bn"
  top: "conv2_8"
  convolution_param {
    num_output: 12
    bias_term: false
    pad: 1
    kernel_size: 3
    stride: 1
    weight_filler {
      type: "msra"
    }
    bias_filler {
      type: "constant"
    }
    engine: CUDNN
  }
}
layer {
  name: "concat2_8"
  type: "Concat"
  bottom: "concat2_7"
  bottom: "conv2_8"
  top: "concat2_8"
  concat_param {
    axis: 1
  }
}
layer {
  name: "conv2_9/bn"
  type: "BatchNorm"
  bottom: "concat2_8"
  top: "conv2_9/bn"
  param {
    lr_mult: 0
    decay_mult: 0
  }
  param {
    lr_mult: 0
    decay_mult: 0
  }
  param {
    lr_mult: 0
    decay_mult: 0
  }
}
layer {
  name: "conv2_9/scale"
  type: "Scale"
  bottom: "conv2_9/bn"
  top: "conv2_9/bn"
  scale_param {
    filler {
      value: 1
    }
    bias_term: true
    bias_filler {
      value: 0
    }
  }
}
layer {
  name: "relu2_9"
  type: "ReLU"
  bottom: "conv2_9/bn"
  top: "conv2_9/bn"
}
layer {
  name: "conv2_9"
  type: "Convolution"
  bottom: "conv2_9/bn"
  top: "conv2_9"
  convolution_param {
    num_output: 12
    bias_term: false
    pad: 1
    kernel_size: 3
    stride: 1
    weight_filler {
      type: "msra"
    }
    bias_filler {
      type: "constant"
    }
    engine: CUDNN
  }
}
layer {
  name: "concat2_9"
  type: "Concat"
  bottom: "concat2_8"
  bottom: "conv2_9"
  top: "concat2_9"
  concat_param {
    axis: 1
  }
}
layer {
  name: "tpp5"
  type: "TPP"
  bottom: "concat2_9"
  top: "tpp5"
  tpp_param {
    pyramid_layer: 1
    pyramid_layer: 2
    pyramid_layer: 3
    pyramid_layer: 4
    pyramid_layer: 5
    pool: MAX
    engine: CUDNN
  }
}
layer {
  name: "fc6_d"
  type: "InnerProduct"
  bottom: "tpp5"
  top: "fc6_d"
  inner_product_param {
    num_output: 4096
    weight_filler {
      type: "msra"
    }
    bias_filler {
      type: "constant"
    }
  }
}
layer {
  name: "relu6"
  type: "ReLU"
  bottom: "fc6_d"
  top: "fc6_d"
}
layer {
  name: "fc7_d"
  type: "InnerProduct"
  bottom: "fc6_d"
  top: "fc7_d"
  inner_product_param {
    num_output: 4096
    weight_filler {
      type: "msra"
    }
    bias_filler {
      type: "constant"
    }
  }
}
layer {
  name: "relu7"
  type: "ReLU"
  bottom: "fc7_d"
  top: "fc7_d"
}
layer {
  name: "fc8_d"
  type: "InnerProduct"
  bottom: "fc7_d"
  top: "fc8_d"
  inner_product_param {
    num_output: 618
    weight_filler {
      type: "msra"
    }
    bias_filler {
      type: "constant"
    }
  }
}
layer {
  name: "sigmoid"
  type: "Sigmoid"
  bottom: "fc8_d"
  top: "sigmoid"
  include {
    phase: TEST
  }
}
layer {
  name: "silence"
  type: "Silence"
  bottom: "sigmoid"
  include {
    phase: TEST
  }
}
layer {
  name: "loss"
  type: "SigmoidCrossEntropyLoss"
  bottom: "fc8_d"
  bottom: "phocs"
  top: "loss"
}
I0301 08:12:57.024457  5308 layer_factory.hpp:77] Creating layer word_images
I0301 08:12:57.046350  5308 db_lmdb.cpp:35] Opened lmdb /data/fwolf/iam_50000/iam-db_nti500000_pul2-3-4-5_test_word_images_lmdb
I0301 08:12:57.057590  5308 net.cpp:84] Creating Layer word_images
I0301 08:12:57.057615  5308 net.cpp:380] word_images -> word_images
I0301 08:12:57.057629  5308 net.cpp:380] word_images -> label
I0301 08:12:57.058243  5308 data_layer.cpp:44] output data size: 1,1,90,94
I0301 08:12:57.061573  5308 net.cpp:122] Setting up word_images
I0301 08:12:57.061597  5308 net.cpp:129] Top shape: 1 1 90 94 (8460)
I0301 08:12:57.061607  5308 net.cpp:129] Top shape: 1 (1)
I0301 08:12:57.061614  5308 net.cpp:137] Memory required for data: 33844
I0301 08:12:57.061622  5308 layer_factory.hpp:77] Creating layer phocs
I0301 08:12:57.061913  5308 db_lmdb.cpp:35] Opened lmdb /data/fwolf/iam_50000/iam-db_nti500000_pul2-3-4-5_test_phocs_lmdb
I0301 08:12:57.061944  5308 net.cpp:84] Creating Layer phocs
I0301 08:12:57.061957  5308 net.cpp:380] phocs -> phocs
I0301 08:12:57.061974  5308 net.cpp:380] phocs -> label_phocs
I0301 08:12:57.062795  5308 data_layer.cpp:44] output data size: 1,1,1,618
I0301 08:12:57.068516  5308 net.cpp:122] Setting up phocs
I0301 08:12:57.068539  5308 net.cpp:129] Top shape: 1 1 1 618 (618)
I0301 08:12:57.068549  5308 net.cpp:129] Top shape: 1 (1)
I0301 08:12:57.068555  5308 net.cpp:137] Memory required for data: 36320
I0301 08:12:57.068563  5308 layer_factory.hpp:77] Creating layer conv_init
I0301 08:12:57.068583  5308 net.cpp:84] Creating Layer conv_init
I0301 08:12:57.068591  5308 net.cpp:406] conv_init <- word_images
I0301 08:12:57.068608  5308 net.cpp:380] conv_init -> conv_init
I0301 08:12:57.071943  5308 net.cpp:122] Setting up conv_init
I0301 08:12:57.071967  5308 net.cpp:129] Top shape: 1 32 90 94 (270720)
I0301 08:12:57.071975  5308 net.cpp:137] Memory required for data: 1119200
I0301 08:12:57.071988  5308 layer_factory.hpp:77] Creating layer conv_init_conv_init_0_split
I0301 08:12:57.072001  5308 net.cpp:84] Creating Layer conv_init_conv_init_0_split
I0301 08:12:57.072007  5308 net.cpp:406] conv_init_conv_init_0_split <- conv_init
I0301 08:12:57.072019  5308 net.cpp:380] conv_init_conv_init_0_split -> conv_init_conv_init_0_split_0
I0301 08:12:57.072032  5308 net.cpp:380] conv_init_conv_init_0_split -> conv_init_conv_init_0_split_1
I0301 08:12:57.072124  5308 net.cpp:122] Setting up conv_init_conv_init_0_split
I0301 08:12:57.072134  5308 net.cpp:129] Top shape: 1 32 90 94 (270720)
I0301 08:12:57.072141  5308 net.cpp:129] Top shape: 1 32 90 94 (270720)
I0301 08:12:57.072147  5308 net.cpp:137] Memory required for data: 3284960
I0301 08:12:57.072158  5308 layer_factory.hpp:77] Creating layer conv0_0/bn
I0301 08:12:57.072172  5308 net.cpp:84] Creating Layer conv0_0/bn
I0301 08:12:57.072180  5308 net.cpp:406] conv0_0/bn <- conv_init_conv_init_0_split_0
I0301 08:12:57.072190  5308 net.cpp:380] conv0_0/bn -> conv0_0/bn
I0301 08:12:57.072681  5308 net.cpp:122] Setting up conv0_0/bn
I0301 08:12:57.072693  5308 net.cpp:129] Top shape: 1 32 90 94 (270720)
I0301 08:12:57.072700  5308 net.cpp:137] Memory required for data: 4367840
I0301 08:12:57.072718  5308 layer_factory.hpp:77] Creating layer conv0_0/scale
I0301 08:12:57.072731  5308 net.cpp:84] Creating Layer conv0_0/scale
I0301 08:12:57.072737  5308 net.cpp:406] conv0_0/scale <- conv0_0/bn
I0301 08:12:57.072748  5308 net.cpp:367] conv0_0/scale -> conv0_0/bn (in-place)
I0301 08:12:57.072854  5308 layer_factory.hpp:77] Creating layer conv0_0/scale
I0301 08:12:57.073151  5308 net.cpp:122] Setting up conv0_0/scale
I0301 08:12:57.073165  5308 net.cpp:129] Top shape: 1 32 90 94 (270720)
I0301 08:12:57.073171  5308 net.cpp:137] Memory required for data: 5450720
I0301 08:12:57.073185  5308 layer_factory.hpp:77] Creating layer relu0_0
I0301 08:12:57.073196  5308 net.cpp:84] Creating Layer relu0_0
I0301 08:12:57.073204  5308 net.cpp:406] relu0_0 <- conv0_0/bn
I0301 08:12:57.073213  5308 net.cpp:367] relu0_0 -> conv0_0/bn (in-place)
I0301 08:12:57.074215  5308 net.cpp:122] Setting up relu0_0
I0301 08:12:57.074240  5308 net.cpp:129] Top shape: 1 32 90 94 (270720)
I0301 08:12:57.074247  5308 net.cpp:137] Memory required for data: 6533600
I0301 08:12:57.074254  5308 layer_factory.hpp:77] Creating layer conv0_0
I0301 08:12:57.074272  5308 net.cpp:84] Creating Layer conv0_0
I0301 08:12:57.074280  5308 net.cpp:406] conv0_0 <- conv0_0/bn
I0301 08:12:57.074295  5308 net.cpp:380] conv0_0 -> conv0_0
I0301 08:12:57.076872  5308 net.cpp:122] Setting up conv0_0
I0301 08:12:57.076898  5308 net.cpp:129] Top shape: 1 12 90 94 (101520)
I0301 08:12:57.076905  5308 net.cpp:137] Memory required for data: 6939680
I0301 08:12:57.076915  5308 layer_factory.hpp:77] Creating layer concat0_0
I0301 08:12:57.076931  5308 net.cpp:84] Creating Layer concat0_0
I0301 08:12:57.076938  5308 net.cpp:406] concat0_0 <- conv_init_conv_init_0_split_1
I0301 08:12:57.076947  5308 net.cpp:406] concat0_0 <- conv0_0
I0301 08:12:57.076957  5308 net.cpp:380] concat0_0 -> concat0_0
I0301 08:12:57.077014  5308 net.cpp:122] Setting up concat0_0
I0301 08:12:57.077024  5308 net.cpp:129] Top shape: 1 44 90 94 (372240)
I0301 08:12:57.077030  5308 net.cpp:137] Memory required for data: 8428640
I0301 08:12:57.077036  5308 layer_factory.hpp:77] Creating layer concat0_0_concat0_0_0_split
I0301 08:12:57.077045  5308 net.cpp:84] Creating Layer concat0_0_concat0_0_0_split
I0301 08:12:57.077051  5308 net.cpp:406] concat0_0_concat0_0_0_split <- concat0_0
I0301 08:12:57.077064  5308 net.cpp:380] concat0_0_concat0_0_0_split -> concat0_0_concat0_0_0_split_0
I0301 08:12:57.077075  5308 net.cpp:380] concat0_0_concat0_0_0_split -> concat0_0_concat0_0_0_split_1
I0301 08:12:57.077147  5308 net.cpp:122] Setting up concat0_0_concat0_0_0_split
I0301 08:12:57.077157  5308 net.cpp:129] Top shape: 1 44 90 94 (372240)
I0301 08:12:57.077163  5308 net.cpp:129] Top shape: 1 44 90 94 (372240)
I0301 08:12:57.077169  5308 net.cpp:137] Memory required for data: 11406560
I0301 08:12:57.077175  5308 layer_factory.hpp:77] Creating layer conv0_1/bn
I0301 08:12:57.077186  5308 net.cpp:84] Creating Layer conv0_1/bn
I0301 08:12:57.077193  5308 net.cpp:406] conv0_1/bn <- concat0_0_concat0_0_0_split_0
I0301 08:12:57.077204  5308 net.cpp:380] conv0_1/bn -> conv0_1/bn
I0301 08:12:57.077669  5308 net.cpp:122] Setting up conv0_1/bn
I0301 08:12:57.077680  5308 net.cpp:129] Top shape: 1 44 90 94 (372240)
I0301 08:12:57.077687  5308 net.cpp:137] Memory required for data: 12895520
I0301 08:12:57.077704  5308 layer_factory.hpp:77] Creating layer conv0_1/scale
I0301 08:12:57.077715  5308 net.cpp:84] Creating Layer conv0_1/scale
I0301 08:12:57.077723  5308 net.cpp:406] conv0_1/scale <- conv0_1/bn
I0301 08:12:57.077739  5308 net.cpp:367] conv0_1/scale -> conv0_1/bn (in-place)
I0301 08:12:57.077826  5308 layer_factory.hpp:77] Creating layer conv0_1/scale
I0301 08:12:57.078091  5308 net.cpp:122] Setting up conv0_1/scale
I0301 08:12:57.078104  5308 net.cpp:129] Top shape: 1 44 90 94 (372240)
I0301 08:12:57.078110  5308 net.cpp:137] Memory required for data: 14384480
I0301 08:12:57.078121  5308 layer_factory.hpp:77] Creating layer relu0_1
I0301 08:12:57.078132  5308 net.cpp:84] Creating Layer relu0_1
I0301 08:12:57.078140  5308 net.cpp:406] relu0_1 <- conv0_1/bn
I0301 08:12:57.078147  5308 net.cpp:367] relu0_1 -> conv0_1/bn (in-place)
I0301 08:12:57.078531  5308 net.cpp:122] Setting up relu0_1
I0301 08:12:57.078547  5308 net.cpp:129] Top shape: 1 44 90 94 (372240)
I0301 08:12:57.078553  5308 net.cpp:137] Memory required for data: 15873440
I0301 08:12:57.078560  5308 layer_factory.hpp:77] Creating layer conv0_1
I0301 08:12:57.078577  5308 net.cpp:84] Creating Layer conv0_1
I0301 08:12:57.078583  5308 net.cpp:406] conv0_1 <- conv0_1/bn
I0301 08:12:57.078594  5308 net.cpp:380] conv0_1 -> conv0_1
I0301 08:12:57.081079  5308 net.cpp:122] Setting up conv0_1
I0301 08:12:57.081102  5308 net.cpp:129] Top shape: 1 12 90 94 (101520)
I0301 08:12:57.081110  5308 net.cpp:137] Memory required for data: 16279520
I0301 08:12:57.081120  5308 layer_factory.hpp:77] Creating layer concat0_1
I0301 08:12:57.081132  5308 net.cpp:84] Creating Layer concat0_1
I0301 08:12:57.081140  5308 net.cpp:406] concat0_1 <- concat0_0_concat0_0_0_split_1
I0301 08:12:57.081148  5308 net.cpp:406] concat0_1 <- conv0_1
I0301 08:12:57.081162  5308 net.cpp:380] concat0_1 -> concat0_1
I0301 08:12:57.081218  5308 net.cpp:122] Setting up concat0_1
I0301 08:12:57.081229  5308 net.cpp:129] Top shape: 1 56 90 94 (473760)
I0301 08:12:57.081235  5308 net.cpp:137] Memory required for data: 18174560
I0301 08:12:57.081241  5308 layer_factory.hpp:77] Creating layer concat0_1_concat0_1_0_split
I0301 08:12:57.081250  5308 net.cpp:84] Creating Layer concat0_1_concat0_1_0_split
I0301 08:12:57.081256  5308 net.cpp:406] concat0_1_concat0_1_0_split <- concat0_1
I0301 08:12:57.081265  5308 net.cpp:380] concat0_1_concat0_1_0_split -> concat0_1_concat0_1_0_split_0
I0301 08:12:57.081276  5308 net.cpp:380] concat0_1_concat0_1_0_split -> concat0_1_concat0_1_0_split_1
I0301 08:12:57.081356  5308 net.cpp:122] Setting up concat0_1_concat0_1_0_split
I0301 08:12:57.081365  5308 net.cpp:129] Top shape: 1 56 90 94 (473760)
I0301 08:12:57.081374  5308 net.cpp:129] Top shape: 1 56 90 94 (473760)
I0301 08:12:57.081379  5308 net.cpp:137] Memory required for data: 21964640
I0301 08:12:57.081385  5308 layer_factory.hpp:77] Creating layer conv0_2/bn
I0301 08:12:57.081398  5308 net.cpp:84] Creating Layer conv0_2/bn
I0301 08:12:57.081405  5308 net.cpp:406] conv0_2/bn <- concat0_1_concat0_1_0_split_0
I0301 08:12:57.081416  5308 net.cpp:380] conv0_2/bn -> conv0_2/bn
I0301 08:12:57.081878  5308 net.cpp:122] Setting up conv0_2/bn
I0301 08:12:57.081890  5308 net.cpp:129] Top shape: 1 56 90 94 (473760)
I0301 08:12:57.081897  5308 net.cpp:137] Memory required for data: 23859680
I0301 08:12:57.081909  5308 layer_factory.hpp:77] Creating layer conv0_2/scale
I0301 08:12:57.081920  5308 net.cpp:84] Creating Layer conv0_2/scale
I0301 08:12:57.081928  5308 net.cpp:406] conv0_2/scale <- conv0_2/bn
I0301 08:12:57.081938  5308 net.cpp:367] conv0_2/scale -> conv0_2/bn (in-place)
I0301 08:12:57.082029  5308 layer_factory.hpp:77] Creating layer conv0_2/scale
I0301 08:12:57.083689  5308 net.cpp:122] Setting up conv0_2/scale
I0301 08:12:57.083711  5308 net.cpp:129] Top shape: 1 56 90 94 (473760)
I0301 08:12:57.083719  5308 net.cpp:137] Memory required for data: 25754720
I0301 08:12:57.083736  5308 layer_factory.hpp:77] Creating layer relu0_2
I0301 08:12:57.083748  5308 net.cpp:84] Creating Layer relu0_2
I0301 08:12:57.083755  5308 net.cpp:406] relu0_2 <- conv0_2/bn
I0301 08:12:57.083765  5308 net.cpp:367] relu0_2 -> conv0_2/bn (in-place)
I0301 08:12:57.084136  5308 net.cpp:122] Setting up relu0_2
I0301 08:12:57.084151  5308 net.cpp:129] Top shape: 1 56 90 94 (473760)
I0301 08:12:57.084161  5308 net.cpp:137] Memory required for data: 27649760
I0301 08:12:57.084167  5308 layer_factory.hpp:77] Creating layer conv0_2
I0301 08:12:57.084185  5308 net.cpp:84] Creating Layer conv0_2
I0301 08:12:57.084192  5308 net.cpp:406] conv0_2 <- conv0_2/bn
I0301 08:12:57.084203  5308 net.cpp:380] conv0_2 -> conv0_2
I0301 08:12:57.087029  5308 net.cpp:122] Setting up conv0_2
I0301 08:12:57.087054  5308 net.cpp:129] Top shape: 1 12 90 94 (101520)
I0301 08:12:57.087059  5308 net.cpp:137] Memory required for data: 28055840
I0301 08:12:57.087069  5308 layer_factory.hpp:77] Creating layer concat0_2
I0301 08:12:57.087081  5308 net.cpp:84] Creating Layer concat0_2
I0301 08:12:57.087088  5308 net.cpp:406] concat0_2 <- concat0_1_concat0_1_0_split_1
I0301 08:12:57.087100  5308 net.cpp:406] concat0_2 <- conv0_2
I0301 08:12:57.087108  5308 net.cpp:380] concat0_2 -> concat0_2
I0301 08:12:57.087162  5308 net.cpp:122] Setting up concat0_2
I0301 08:12:57.087172  5308 net.cpp:129] Top shape: 1 68 90 94 (575280)
I0301 08:12:57.087177  5308 net.cpp:137] Memory required for data: 30356960
I0301 08:12:57.087183  5308 layer_factory.hpp:77] Creating layer concat0_2_concat0_2_0_split
I0301 08:12:57.087191  5308 net.cpp:84] Creating Layer concat0_2_concat0_2_0_split
I0301 08:12:57.087198  5308 net.cpp:406] concat0_2_concat0_2_0_split <- concat0_2
I0301 08:12:57.087205  5308 net.cpp:380] concat0_2_concat0_2_0_split -> concat0_2_concat0_2_0_split_0
I0301 08:12:57.087222  5308 net.cpp:380] concat0_2_concat0_2_0_split -> concat0_2_concat0_2_0_split_1
I0301 08:12:57.087291  5308 net.cpp:122] Setting up concat0_2_concat0_2_0_split
I0301 08:12:57.087301  5308 net.cpp:129] Top shape: 1 68 90 94 (575280)
I0301 08:12:57.087308  5308 net.cpp:129] Top shape: 1 68 90 94 (575280)
I0301 08:12:57.087313  5308 net.cpp:137] Memory required for data: 34959200
I0301 08:12:57.087318  5308 layer_factory.hpp:77] Creating layer conv0_3/bn
I0301 08:12:57.087328  5308 net.cpp:84] Creating Layer conv0_3/bn
I0301 08:12:57.087334  5308 net.cpp:406] conv0_3/bn <- concat0_2_concat0_2_0_split_0
I0301 08:12:57.087345  5308 net.cpp:380] conv0_3/bn -> conv0_3/bn
I0301 08:12:57.087791  5308 net.cpp:122] Setting up conv0_3/bn
I0301 08:12:57.087805  5308 net.cpp:129] Top shape: 1 68 90 94 (575280)
I0301 08:12:57.087810  5308 net.cpp:137] Memory required for data: 37260320
I0301 08:12:57.087822  5308 layer_factory.hpp:77] Creating layer conv0_3/scale
I0301 08:12:57.087833  5308 net.cpp:84] Creating Layer conv0_3/scale
I0301 08:12:57.087839  5308 net.cpp:406] conv0_3/scale <- conv0_3/bn
I0301 08:12:57.087848  5308 net.cpp:367] conv0_3/scale -> conv0_3/bn (in-place)
I0301 08:12:57.087925  5308 layer_factory.hpp:77] Creating layer conv0_3/scale
I0301 08:12:57.088176  5308 net.cpp:122] Setting up conv0_3/scale
I0301 08:12:57.088187  5308 net.cpp:129] Top shape: 1 68 90 94 (575280)
I0301 08:12:57.088193  5308 net.cpp:137] Memory required for data: 39561440
I0301 08:12:57.088203  5308 layer_factory.hpp:77] Creating layer relu0_3
I0301 08:12:57.088212  5308 net.cpp:84] Creating Layer relu0_3
I0301 08:12:57.088218  5308 net.cpp:406] relu0_3 <- conv0_3/bn
I0301 08:12:57.088225  5308 net.cpp:367] relu0_3 -> conv0_3/bn (in-place)
I0301 08:12:57.088605  5308 net.cpp:122] Setting up relu0_3
I0301 08:12:57.088619  5308 net.cpp:129] Top shape: 1 68 90 94 (575280)
I0301 08:12:57.088625  5308 net.cpp:137] Memory required for data: 41862560
I0301 08:12:57.088631  5308 layer_factory.hpp:77] Creating layer conv0_3
I0301 08:12:57.088647  5308 net.cpp:84] Creating Layer conv0_3
I0301 08:12:57.088654  5308 net.cpp:406] conv0_3 <- conv0_3/bn
I0301 08:12:57.088665  5308 net.cpp:380] conv0_3 -> conv0_3
I0301 08:12:57.091051  5308 net.cpp:122] Setting up conv0_3
I0301 08:12:57.091074  5308 net.cpp:129] Top shape: 1 12 90 94 (101520)
I0301 08:12:57.091081  5308 net.cpp:137] Memory required for data: 42268640
I0301 08:12:57.091091  5308 layer_factory.hpp:77] Creating layer concat0_3
I0301 08:12:57.091102  5308 net.cpp:84] Creating Layer concat0_3
I0301 08:12:57.091114  5308 net.cpp:406] concat0_3 <- concat0_2_concat0_2_0_split_1
I0301 08:12:57.091123  5308 net.cpp:406] concat0_3 <- conv0_3
I0301 08:12:57.091132  5308 net.cpp:380] concat0_3 -> concat0_3
I0301 08:12:57.091187  5308 net.cpp:122] Setting up concat0_3
I0301 08:12:57.091197  5308 net.cpp:129] Top shape: 1 80 90 94 (676800)
I0301 08:12:57.091202  5308 net.cpp:137] Memory required for data: 44975840
I0301 08:12:57.091207  5308 layer_factory.hpp:77] Creating layer concat0_3_concat0_3_0_split
I0301 08:12:57.091217  5308 net.cpp:84] Creating Layer concat0_3_concat0_3_0_split
I0301 08:12:57.091223  5308 net.cpp:406] concat0_3_concat0_3_0_split <- concat0_3
I0301 08:12:57.091231  5308 net.cpp:380] concat0_3_concat0_3_0_split -> concat0_3_concat0_3_0_split_0
I0301 08:12:57.091243  5308 net.cpp:380] concat0_3_concat0_3_0_split -> concat0_3_concat0_3_0_split_1
I0301 08:12:57.091312  5308 net.cpp:122] Setting up concat0_3_concat0_3_0_split
I0301 08:12:57.091321  5308 net.cpp:129] Top shape: 1 80 90 94 (676800)
I0301 08:12:57.091329  5308 net.cpp:129] Top shape: 1 80 90 94 (676800)
I0301 08:12:57.091334  5308 net.cpp:137] Memory required for data: 50390240
I0301 08:12:57.091339  5308 layer_factory.hpp:77] Creating layer conv0_4/bn
I0301 08:12:57.091348  5308 net.cpp:84] Creating Layer conv0_4/bn
I0301 08:12:57.091354  5308 net.cpp:406] conv0_4/bn <- concat0_3_concat0_3_0_split_0
I0301 08:12:57.091364  5308 net.cpp:380] conv0_4/bn -> conv0_4/bn
I0301 08:12:57.091820  5308 net.cpp:122] Setting up conv0_4/bn
I0301 08:12:57.091833  5308 net.cpp:129] Top shape: 1 80 90 94 (676800)
I0301 08:12:57.091838  5308 net.cpp:137] Memory required for data: 53097440
I0301 08:12:57.091851  5308 layer_factory.hpp:77] Creating layer conv0_4/scale
I0301 08:12:57.091862  5308 net.cpp:84] Creating Layer conv0_4/scale
I0301 08:12:57.091869  5308 net.cpp:406] conv0_4/scale <- conv0_4/bn
I0301 08:12:57.091878  5308 net.cpp:367] conv0_4/scale -> conv0_4/bn (in-place)
I0301 08:12:57.091956  5308 layer_factory.hpp:77] Creating layer conv0_4/scale
I0301 08:12:57.092200  5308 net.cpp:122] Setting up conv0_4/scale
I0301 08:12:57.092212  5308 net.cpp:129] Top shape: 1 80 90 94 (676800)
I0301 08:12:57.092218  5308 net.cpp:137] Memory required for data: 55804640
I0301 08:12:57.092228  5308 layer_factory.hpp:77] Creating layer relu0_4
I0301 08:12:57.092239  5308 net.cpp:84] Creating Layer relu0_4
I0301 08:12:57.092245  5308 net.cpp:406] relu0_4 <- conv0_4/bn
I0301 08:12:57.092252  5308 net.cpp:367] relu0_4 -> conv0_4/bn (in-place)
I0301 08:12:57.093066  5308 net.cpp:122] Setting up relu0_4
I0301 08:12:57.093088  5308 net.cpp:129] Top shape: 1 80 90 94 (676800)
I0301 08:12:57.093094  5308 net.cpp:137] Memory required for data: 58511840
I0301 08:12:57.093101  5308 layer_factory.hpp:77] Creating layer conv0_4
I0301 08:12:57.093118  5308 net.cpp:84] Creating Layer conv0_4
I0301 08:12:57.093125  5308 net.cpp:406] conv0_4 <- conv0_4/bn
I0301 08:12:57.093138  5308 net.cpp:380] conv0_4 -> conv0_4
I0301 08:12:57.096037  5308 net.cpp:122] Setting up conv0_4
I0301 08:12:57.096060  5308 net.cpp:129] Top shape: 1 12 90 94 (101520)
I0301 08:12:57.096065  5308 net.cpp:137] Memory required for data: 58917920
I0301 08:12:57.096076  5308 layer_factory.hpp:77] Creating layer concat0_4
I0301 08:12:57.096089  5308 net.cpp:84] Creating Layer concat0_4
I0301 08:12:57.096096  5308 net.cpp:406] concat0_4 <- concat0_3_concat0_3_0_split_1
I0301 08:12:57.096104  5308 net.cpp:406] concat0_4 <- conv0_4
I0301 08:12:57.096113  5308 net.cpp:380] concat0_4 -> concat0_4
I0301 08:12:57.096171  5308 net.cpp:122] Setting up concat0_4
I0301 08:12:57.096181  5308 net.cpp:129] Top shape: 1 92 90 94 (778320)
I0301 08:12:57.096186  5308 net.cpp:137] Memory required for data: 62031200
I0301 08:12:57.096191  5308 layer_factory.hpp:77] Creating layer BatchNorm1
I0301 08:12:57.096201  5308 net.cpp:84] Creating Layer BatchNorm1
I0301 08:12:57.096207  5308 net.cpp:406] BatchNorm1 <- concat0_4
I0301 08:12:57.096215  5308 net.cpp:380] BatchNorm1 -> BatchNorm1
I0301 08:12:57.096628  5308 net.cpp:122] Setting up BatchNorm1
I0301 08:12:57.096643  5308 net.cpp:129] Top shape: 1 92 90 94 (778320)
I0301 08:12:57.096648  5308 net.cpp:137] Memory required for data: 65144480
I0301 08:12:57.096666  5308 layer_factory.hpp:77] Creating layer Scale1
I0301 08:12:57.096679  5308 net.cpp:84] Creating Layer Scale1
I0301 08:12:57.096685  5308 net.cpp:406] Scale1 <- BatchNorm1
I0301 08:12:57.096693  5308 net.cpp:367] Scale1 -> BatchNorm1 (in-place)
I0301 08:12:57.096771  5308 layer_factory.hpp:77] Creating layer Scale1
I0301 08:12:57.097007  5308 net.cpp:122] Setting up Scale1
I0301 08:12:57.097018  5308 net.cpp:129] Top shape: 1 92 90 94 (778320)
I0301 08:12:57.097023  5308 net.cpp:137] Memory required for data: 68257760
I0301 08:12:57.097033  5308 layer_factory.hpp:77] Creating layer ReLU1
I0301 08:12:57.097043  5308 net.cpp:84] Creating Layer ReLU1
I0301 08:12:57.097048  5308 net.cpp:406] ReLU1 <- BatchNorm1
I0301 08:12:57.097055  5308 net.cpp:367] ReLU1 -> BatchNorm1 (in-place)
I0301 08:12:57.097424  5308 net.cpp:122] Setting up ReLU1
I0301 08:12:57.097437  5308 net.cpp:129] Top shape: 1 92 90 94 (778320)
I0301 08:12:57.097442  5308 net.cpp:137] Memory required for data: 71371040
I0301 08:12:57.097448  5308 layer_factory.hpp:77] Creating layer conv0_blk
I0301 08:12:57.097465  5308 net.cpp:84] Creating Layer conv0_blk
I0301 08:12:57.097471  5308 net.cpp:406] conv0_blk <- BatchNorm1
I0301 08:12:57.097481  5308 net.cpp:380] conv0_blk -> conv0_blk
I0301 08:12:57.099598  5308 net.cpp:122] Setting up conv0_blk
I0301 08:12:57.099619  5308 net.cpp:129] Top shape: 1 46 90 94 (389160)
I0301 08:12:57.099625  5308 net.cpp:137] Memory required for data: 72927680
I0301 08:12:57.099635  5308 layer_factory.hpp:77] Creating layer pool0
I0301 08:12:57.099647  5308 net.cpp:84] Creating Layer pool0
I0301 08:12:57.099655  5308 net.cpp:406] pool0 <- conv0_blk
I0301 08:12:57.099664  5308 net.cpp:380] pool0 -> pool0
I0301 08:12:57.100044  5308 net.cpp:122] Setting up pool0
I0301 08:12:57.100059  5308 net.cpp:129] Top shape: 1 46 45 47 (97290)
I0301 08:12:57.100064  5308 net.cpp:137] Memory required for data: 73316840
I0301 08:12:57.100069  5308 layer_factory.hpp:77] Creating layer pool0_pool0_0_split
I0301 08:12:57.100077  5308 net.cpp:84] Creating Layer pool0_pool0_0_split
I0301 08:12:57.100083  5308 net.cpp:406] pool0_pool0_0_split <- pool0
I0301 08:12:57.100096  5308 net.cpp:380] pool0_pool0_0_split -> pool0_pool0_0_split_0
I0301 08:12:57.100106  5308 net.cpp:380] pool0_pool0_0_split -> pool0_pool0_0_split_1
I0301 08:12:57.100175  5308 net.cpp:122] Setting up pool0_pool0_0_split
I0301 08:12:57.100184  5308 net.cpp:129] Top shape: 1 46 45 47 (97290)
I0301 08:12:57.100191  5308 net.cpp:129] Top shape: 1 46 45 47 (97290)
I0301 08:12:57.100196  5308 net.cpp:137] Memory required for data: 74095160
I0301 08:12:57.100201  5308 layer_factory.hpp:77] Creating layer conv1_0/bn
I0301 08:12:57.100211  5308 net.cpp:84] Creating Layer conv1_0/bn
I0301 08:12:57.100216  5308 net.cpp:406] conv1_0/bn <- pool0_pool0_0_split_0
I0301 08:12:57.100226  5308 net.cpp:380] conv1_0/bn -> conv1_0/bn
I0301 08:12:57.100636  5308 net.cpp:122] Setting up conv1_0/bn
I0301 08:12:57.100647  5308 net.cpp:129] Top shape: 1 46 45 47 (97290)
I0301 08:12:57.100652  5308 net.cpp:137] Memory required for data: 74484320
I0301 08:12:57.100664  5308 layer_factory.hpp:77] Creating layer conv1_0/scale
I0301 08:12:57.100674  5308 net.cpp:84] Creating Layer conv1_0/scale
I0301 08:12:57.100680  5308 net.cpp:406] conv1_0/scale <- conv1_0/bn
I0301 08:12:57.100688  5308 net.cpp:367] conv1_0/scale -> conv1_0/bn (in-place)
I0301 08:12:57.100764  5308 layer_factory.hpp:77] Creating layer conv1_0/scale
I0301 08:12:57.100997  5308 net.cpp:122] Setting up conv1_0/scale
I0301 08:12:57.101008  5308 net.cpp:129] Top shape: 1 46 45 47 (97290)
I0301 08:12:57.101013  5308 net.cpp:137] Memory required for data: 74873480
I0301 08:12:57.101022  5308 layer_factory.hpp:77] Creating layer relu1_0
I0301 08:12:57.101032  5308 net.cpp:84] Creating Layer relu1_0
I0301 08:12:57.101037  5308 net.cpp:406] relu1_0 <- conv1_0/bn
I0301 08:12:57.101047  5308 net.cpp:367] relu1_0 -> conv1_0/bn (in-place)
I0301 08:12:57.101832  5308 net.cpp:122] Setting up relu1_0
I0301 08:12:57.101852  5308 net.cpp:129] Top shape: 1 46 45 47 (97290)
I0301 08:12:57.101858  5308 net.cpp:137] Memory required for data: 75262640
I0301 08:12:57.101864  5308 layer_factory.hpp:77] Creating layer conv1_0
I0301 08:12:57.101881  5308 net.cpp:84] Creating Layer conv1_0
I0301 08:12:57.101888  5308 net.cpp:406] conv1_0 <- conv1_0/bn
I0301 08:12:57.101900  5308 net.cpp:380] conv1_0 -> conv1_0
I0301 08:12:57.104046  5308 net.cpp:122] Setting up conv1_0
I0301 08:12:57.104068  5308 net.cpp:129] Top shape: 1 12 45 47 (25380)
I0301 08:12:57.104074  5308 net.cpp:137] Memory required for data: 75364160
I0301 08:12:57.104082  5308 layer_factory.hpp:77] Creating layer concat1_0
I0301 08:12:57.104095  5308 net.cpp:84] Creating Layer concat1_0
I0301 08:12:57.104101  5308 net.cpp:406] concat1_0 <- pool0_pool0_0_split_1
I0301 08:12:57.104110  5308 net.cpp:406] concat1_0 <- conv1_0
I0301 08:12:57.104118  5308 net.cpp:380] concat1_0 -> concat1_0
…
I0301 08:12:57.107945  5308 net.cpp:406] concat1_1_concat1_1_0_split <- concat1_1
I0301 08:12:57.107954  5308 net.cpp:380] concat1_1_concat1_1_0_split -> concat1_1_concat1_1_0_split_0
I0301 08:12:57.107964  5308 net.cpp:380] concat1_1_concat1_1_0_split -> concat1_1_concat1_1_0_split_1
I0301 08:12:57.108027  5308 net.cpp:122] Setting up concat1_1_concat1_1_0_split
I0301 08:12:57.108036  5308 net.cpp:129] Top shape: 1 70 45 47 (148050)
I0301 08:12:57.108042  5308 net.cpp:129] Top shape: 1 70 45 47 (148050)
I0301 08:12:57.108047  5308 net.cpp:137] Memory required for data: 80186360
I0301 08:12:57.108050  5308 layer_factory.hpp:77] Creating layer conv1_2/bn
I0301 08:12:57.108058  5308 net.cpp:84] Creating Layer conv1_2/bn
I0301 08:12:57.108064  5308 net.cpp:406] conv1_2/bn <- concat1_1_concat1_1_0_split_0
I0301 08:12:57.108073  5308 net.cpp:380] conv1_2/bn -> conv1_2/bn
I0301 08:12:57.108456  5308 net.cpp:122] Setting up conv1_2/bn
I0301 08:12:57.108465  5308 net.cpp:129] Top shape: 1 70 45 47 (148050)
I0301 08:12:57.108470  5308 net.cpp:137] Memory required for data: 80778560
I0301 08:12:57.108481  5308 layer_factory.hpp:77] Creating layer conv1_2/scale
I0301 08:12:57.108492  5308 net.cpp:84] Creating Layer conv1_2/scale
I0301 08:12:57.108499  5308 net.cpp:406] conv1_2/scale <- conv1_2/bn
I0301 08:12:57.108506  5308 net.cpp:367] conv1_2/scale -> conv1_2/bn (in-place)
I0301 08:12:57.108572  5308 layer_factory.hpp:77] Creating layer conv1_2/scale
I0301 08:12:57.108788  5308 net.cpp:122] Setting up conv1_2/scale
I0301 08:12:57.108798  5308 net.cpp:129] Top shape: 1 70 45 47 (148050)
I0301 08:12:57.108803  5308 net.cpp:137] Memory required for data: 81370760
I0301 08:12:57.108811  5308 layer_factory.hpp:77] Creating layer relu1_2
I0301 08:12:57.108819  5308 net.cpp:84] Creating Layer relu1_2
I0301 08:12:57.108825  5308 net.cpp:406] relu1_2 <- conv1_2/bn
I0301 08:12:57.108834  5308 net.cpp:367] relu1_2 -> conv1_2/bn (in-place)
I0301 08:12:57.109161  5308 net.cpp:122] Setting up relu1_2
I0301 08:12:57.109174  5308 net.cpp:129] Top shape: 1 70 45 47 (148050)
I0301 08:12:57.109179  5308 net.cpp:137] Memory required for data: 81962960
I0301 08:12:57.109184  5308 layer_factory.hpp:77] Creating layer conv1_2
I0301 08:12:57.109200  5308 net.cpp:84] Creating Layer conv1_2
I0301 08:12:57.109206  5308 net.cpp:406] conv1_2 <- conv1_2/bn
I0301 08:12:57.109215  5308 net.cpp:380] conv1_2 -> conv1_2
I0301 08:12:57.111361  5308 net.cpp:122] Setting up conv1_2
I0301 08:12:57.111380  5308 net.cpp:129] Top shape: 1 12 45 47 (25380)
I0301 08:12:57.111387  5308 net.cpp:137] Memory required for data: 82064480
I0301 08:12:57.111394  5308 layer_factory.hpp:77] Creating layer concat1_2
I0301 08:12:57.111407  5308 net.cpp:84] Creating Layer concat1_2
I0301 08:12:57.111413  5308 net.cpp:406] concat1_2 <- concat1_1_concat1_1_0_split_1
I0301 08:12:57.111421  5308 net.cpp:406] concat1_2 <- conv1_2
I0301 08:12:57.111430  5308 net.cpp:380] concat1_2 -> concat1_2
I0301 08:12:57.111479  5308 net.cpp:122] Setting up concat1_2
I0301 08:12:57.111487  5308 net.cpp:129] Top shape: 1 82 45 47 (173430)
I0301 08:12:57.111500  5308 net.cpp:137] Memory required for data: 82758200
I0301 08:12:57.111506  5308 layer_factory.hpp:77] Creating layer concat1_2_concat1_2_0_split
I0301 08:12:57.111515  5308 net.cpp:84] Creating Layer concat1_2_concat1_2_0_split
I0301 08:12:57.111523  5308 net.cpp:406] concat1_2_concat1_2_0_split <- concat1_2
I0301 08:12:57.111533  5308 net.cpp:380] concat1_2_concat1_2_0_split -> concat1_2_concat1_2_0_split_0
I0301 08:12:57.111543  5308 net.cpp:380] concat1_2_concat1_2_0_split -> concat1_2_concat1_2_0_split_1
I0301 08:12:57.111610  5308 net.cpp:122] Setting up concat1_2_concat1_2_0_split
I0301 08:12:57.111618  5308 net.cpp:129] Top shape: 1 82 45 47 (173430)
I0301 08:12:57.111625  5308 net.cpp:129] Top shape: 1 82 45 47 (173430)
I0301 08:12:57.111629  5308 net.cpp:137] Memory required for data: 84145640
I0301 08:12:57.111634  5308 layer_factory.hpp:77] Creating layer conv1_3/bn
I0301 08:12:57.111644  5308 net.cpp:84] Creating Layer conv1_3/bn
I0301 08:12:57.111649  5308 net.cpp:406] conv1_3/bn <- concat1_2_concat1_2_0_split_0
I0301 08:12:57.111656  5308 net.cpp:380] conv1_3/bn -> conv1_3/bn
I0301 08:12:57.112046  5308 net.cpp:122] Setting up conv1_3/bn
I0301 08:12:57.112056  5308 net.cpp:129] Top shape: 1 82 45 47 (173430)
I0301 08:12:57.112061  5308 net.cpp:137] Memory required for data: 84839360
I0301 08:12:57.112071  5308 layer_factory.hpp:77] Creating layer conv1_3/scale
I0301 08:12:57.112082  5308 net.cpp:84] Creating Layer conv1_3/scale
I0301 08:12:57.112087  5308 net.cpp:406] conv1_3/scale <- conv1_3/bn
I0301 08:12:57.112095  5308 net.cpp:367] conv1_3/scale -> conv1_3/bn (in-place)
I0301 08:12:57.112167  5308 layer_factory.hpp:77] Creating layer conv1_3/scale
I0301 08:12:57.112380  5308 net.cpp:122] Setting up conv1_3/scale
I0301 08:12:57.112390  5308 net.cpp:129] Top shape: 1 82 45 47 (173430)
I0301 08:12:57.112395  5308 net.cpp:137] Memory required for data: 85533080
I0301 08:12:57.112402  5308 layer_factory.hpp:77] Creating layer relu1_3
I0301 08:12:57.112411  5308 net.cpp:84] Creating Layer relu1_3
I0301 08:12:57.112416  5308 net.cpp:406] relu1_3 <- conv1_3/bn
I0301 08:12:57.112424  5308 net.cpp:367] relu1_3 -> conv1_3/bn (in-place)
I0301 08:12:57.113163  5308 net.cpp:122] Setting up relu1_3
I0301 08:12:57.113183  5308 net.cpp:129] Top shape: 1 82 45 47 (173430)
I0301 08:12:57.113188  5308 net.cpp:137] Memory required for data: 86226800
I0301 08:12:57.113193  5308 layer_factory.hpp:77] Creating layer conv1_3
I0301 08:12:57.113210  5308 net.cpp:84] Creating Layer conv1_3
I0301 08:12:57.113217  5308 net.cpp:406] conv1_3 <- conv1_3/bn
I0301 08:12:57.113226  5308 net.cpp:380] conv1_3 -> conv1_3
I0301 08:12:57.115837  5308 net.cpp:122] Setting up conv1_3
I0301 08:12:57.115857  5308 net.cpp:129] Top shape: 1 12 45 47 (25380)
I0301 08:12:57.115864  5308 net.cpp:137] Memory required for data: 86328320
I0301 08:12:57.115872  5308 layer_factory.hpp:77] Creating layer concat1_3
I0301 08:12:57.115882  5308 net.cpp:84] Creating Layer concat1_3
I0301 08:12:57.115888  5308 net.cpp:406] concat1_3 <- concat1_2_concat1_2_0_split_1
I0301 08:12:57.115896  5308 net.cpp:406] concat1_3 <- conv1_3
I0301 08:12:57.115906  5308 net.cpp:380] concat1_3 -> concat1_3
I0301 08:12:57.115962  5308 net.cpp:122] Setting up concat1_3
I0301 08:12:57.115972  5308 net.cpp:129] Top shape: 1 94 45 47 (198810)
I0301 08:12:57.115977  5308 net.cpp:137] Memory required for data: 87123560
I0301 08:12:57.115981  5308 layer_factory.hpp:77] Creating layer concat1_3_concat1_3_0_split
I0301 08:12:57.115988  5308 net.cpp:84] Creating Layer concat1_3_concat1_3_0_split
I0301 08:12:57.115994  5308 net.cpp:406] concat1_3_concat1_3_0_split <- concat1_3
I0301 08:12:57.116001  5308 net.cpp:380] concat1_3_concat1_3_0_split -> concat1_3_concat1_3_0_split_0
I0301 08:12:57.116010  5308 net.cpp:380] concat1_3_concat1_3_0_split -> concat1_3_concat1_3_0_split_1
I0301 08:12:57.116080  5308 net.cpp:122] Setting up concat1_3_concat1_3_0_split
I0301 08:12:57.116088  5308 net.cpp:129] Top shape: 1 94 45 47 (198810)
I0301 08:12:57.116094  5308 net.cpp:129] Top shape: 1 94 45 47 (198810)
I0301 08:12:57.116099  5308 net.cpp:137] Memory required for data: 88714040
I0301 08:12:57.116103  5308 layer_factory.hpp:77] Creating layer conv1_4/bn
I0301 08:12:57.116112  5308 net.cpp:84] Creating Layer conv1_4/bn
I0301 08:12:57.116122  5308 net.cpp:406] conv1_4/bn <- concat1_3_concat1_3_0_split_0
I0301 08:12:57.116132  5308 net.cpp:380] conv1_4/bn -> conv1_4/bn
I0301 08:12:57.116518  5308 net.cpp:122] Setting up conv1_4/bn
I0301 08:12:57.116528  5308 net.cpp:129] Top shape: 1 94 45 47 (198810)
I0301 08:12:57.116533  5308 net.cpp:137] Memory required for data: 89509280
I0301 08:12:57.116544  5308 layer_factory.hpp:77] Creating layer conv1_4/scale
I0301 08:12:57.116557  5308 net.cpp:84] Creating Layer conv1_4/scale
I0301 08:12:57.116564  5308 net.cpp:406] conv1_4/scale <- conv1_4/bn
I0301 08:12:57.116571  5308 net.cpp:367] conv1_4/scale -> conv1_4/bn (in-place)
I0301 08:12:57.116643  5308 layer_factory.hpp:77] Creating layer conv1_4/scale
I0301 08:12:57.116859  5308 net.cpp:122] Setting up conv1_4/scale
I0301 08:12:57.116869  5308 net.cpp:129] Top shape: 1 94 45 47 (198810)
I0301 08:12:57.116873  5308 net.cpp:137] Memory required for data: 90304520
I0301 08:12:57.116892  5308 layer_factory.hpp:77] Creating layer relu1_4
I0301 08:12:57.116904  5308 net.cpp:84] Creating Layer relu1_4
I0301 08:12:57.116909  5308 net.cpp:406] relu1_4 <- conv1_4/bn
I0301 08:12:57.116916  5308 net.cpp:367] relu1_4 -> conv1_4/bn (in-place)
I0301 08:12:57.117251  5308 net.cpp:122] Setting up relu1_4
I0301 08:12:57.117267  5308 net.cpp:129] Top shape: 1 94 45 47 (198810)
I0301 08:12:57.117272  5308 net.cpp:137] Memory required for data: 91099760
I0301 08:12:57.117277  5308 layer_factory.hpp:77] Creating layer conv1_4
I0301 08:12:57.117292  5308 net.cpp:84] Creating Layer conv1_4
I0301 08:12:57.117298  5308 net.cpp:406] conv1_4 <- conv1_4/bn
I0301 08:12:57.117308  5308 net.cpp:380] conv1_4 -> conv1_4
I0301 08:12:57.119630  5308 net.cpp:122] Setting up conv1_4
I0301 08:12:57.119650  5308 net.cpp:129] Top shape: 1 12 45 47 (25380)
I0301 08:12:57.119657  5308 net.cpp:137] Memory required for data: 91201280
I0301 08:12:57.119664  5308 layer_factory.hpp:77] Creating layer concat1_4
I0301 08:12:57.119675  5308 net.cpp:84] Creating Layer concat1_4
I0301 08:12:57.119681  5308 net.cpp:406] concat1_4 <- concat1_3_concat1_3_0_split_1
I0301 08:12:57.119689  5308 net.cpp:406] concat1_4 <- conv1_4
I0301 08:12:57.119699  5308 net.cpp:380] concat1_4 -> concat1_4
I0301 08:12:57.119747  5308 net.cpp:122] Setting up concat1_4
I0301 08:12:57.119755  5308 net.cpp:129] Top shape: 1 106 45 47 (224190)
I0301 08:12:57.119760  5308 net.cpp:137] Memory required for data: 92098040
I0301 08:12:57.119765  5308 layer_factory.hpp:77] Creating layer BatchNorm2
I0301 08:12:57.119774  5308 net.cpp:84] Creating Layer BatchNorm2
I0301 08:12:57.119779  5308 net.cpp:406] BatchNorm2 <- concat1_4
I0301 08:12:57.119799  5308 net.cpp:380] BatchNorm2 -> BatchNorm2
I0301 08:12:57.120174  5308 net.cpp:122] Setting up BatchNorm2
I0301 08:12:57.120184  5308 net.cpp:129] Top shape: 1 106 45 47 (224190)
I0301 08:12:57.120188  5308 net.cpp:137] Memory required for data: 92994800
I0301 08:12:57.120198  5308 layer_factory.hpp:77] Creating layer Scale2
I0301 08:12:57.120210  5308 net.cpp:84] Creating Layer Scale2
I0301 08:12:57.120215  5308 net.cpp:406] Scale2 <- BatchNorm2
I0301 08:12:57.120223  5308 net.cpp:367] Scale2 -> BatchNorm2 (in-place)
I0301 08:12:57.120287  5308 layer_factory.hpp:77] Creating layer Scale2
I0301 08:12:57.120496  5308 net.cpp:122] Setting up Scale2
I0301 08:12:57.120504  5308 net.cpp:129] Top shape: 1 106 45 47 (224190)
I0301 08:12:57.120509  5308 net.cpp:137] Memory required for data: 93891560
I0301 08:12:57.120517  5308 layer_factory.hpp:77] Creating layer ReLU2
I0301 08:12:57.120524  5308 net.cpp:84] Creating Layer ReLU2
I0301 08:12:57.120529  5308 net.cpp:406] ReLU2 <- BatchNorm2
I0301 08:12:57.120537  5308 net.cpp:367] ReLU2 -> BatchNorm2 (in-place)
I0301 08:12:57.120841  5308 net.cpp:122] Setting up ReLU2
I0301 08:12:57.120852  5308 net.cpp:129] Top shape: 1 106 45 47 (224190)
I0301 08:12:57.120857  5308 net.cpp:137] Memory required for data: 94788320
I0301 08:12:57.120862  5308 layer_factory.hpp:77] Creating layer conv1_blk
I0301 08:12:57.120877  5308 net.cpp:84] Creating Layer conv1_blk
I0301 08:12:57.120887  5308 net.cpp:406] conv1_blk <- BatchNorm2
I0301 08:12:57.120898  5308 net.cpp:380] conv1_blk -> conv1_blk
I0301 08:12:57.122826  5308 net.cpp:122] Setting up conv1_blk
I0301 08:12:57.122845  5308 net.cpp:129] Top shape: 1 53 45 47 (112095)
I0301 08:12:57.122850  5308 net.cpp:137] Memory required for data: 95236700
I0301 08:12:57.122859  5308 layer_factory.hpp:77] Creating layer pool1
I0301 08:12:57.122871  5308 net.cpp:84] Creating Layer pool1
I0301 08:12:57.122877  5308 net.cpp:406] pool1 <- conv1_blk
I0301 08:12:57.122886  5308 net.cpp:380] pool1 -> pool1
I0301 08:12:57.123219  5308 net.cpp:122] Setting up pool1
I0301 08:12:57.123232  5308 net.cpp:129] Top shape: 1 53 23 24 (29256)
I0301 08:12:57.123237  5308 net.cpp:137] Memory required for data: 95353724
I0301 08:12:57.123241  5308 layer_factory.hpp:77] Creating layer pool1_pool1_0_split
I0301 08:12:57.123251  5308 net.cpp:84] Creating Layer pool1_pool1_0_split
I0301 08:12:57.123256  5308 net.cpp:406] pool1_pool1_0_split <- pool1
I0301 08:12:57.123265  5308 net.cpp:380] pool1_pool1_0_split -> pool1_pool1_0_split_0
I0301 08:12:57.123273  5308 net.cpp:380] pool1_pool1_0_split -> pool1_pool1_0_split_1
I0301 08:12:57.123337  5308 net.cpp:122] Setting up pool1_pool1_0_split
I0301 08:12:57.123344  5308 net.cpp:129] Top shape: 1 53 23 24 (29256)
I0301 08:12:57.123350  5308 net.cpp:129] Top shape: 1 53 23 24 (29256)
I0301 08:12:57.123354  5308 net.cpp:137] Memory required for data: 95587772
I0301 08:12:57.123358  5308 layer_factory.hpp:77] Creating layer conv2_0/bn
I0301 08:12:57.123366  5308 net.cpp:84] Creating Layer conv2_0/bn
I0301 08:12:57.123371  5308 net.cpp:406] conv2_0/bn <- pool1_pool1_0_split_0
I0301 08:12:57.123383  5308 net.cpp:380] conv2_0/bn -> conv2_0/bn
I0301 08:12:57.123772  5308 net.cpp:122] Setting up conv2_0/bn
I0301 08:12:57.123782  5308 net.cpp:129] Top shape: 1 53 23 24 (29256)
I0301 08:12:57.123787  5308 net.cpp:137] Memory required for data: 95704796
I0301 08:12:57.123797  5308 layer_factory.hpp:77] Creating layer conv2_0/scale
I0301 08:12:57.123806  5308 net.cpp:84] Creating Layer conv2_0/scale
I0301 08:12:57.123811  5308 net.cpp:406] conv2_0/scale <- conv2_0/bn
I0301 08:12:57.123818  5308 net.cpp:367] conv2_0/scale -> conv2_0/bn (in-place)
I0301 08:12:57.123889  5308 layer_factory.hpp:77] Creating layer conv2_0/scale
I0301 08:12:57.124104  5308 net.cpp:122] Setting up conv2_0/scale
I0301 08:12:57.124114  5308 net.cpp:129] Top shape: 1 53 23 24 (29256)
I0301 08:12:57.124119  5308 net.cpp:137] Memory required for data: 95821820
I0301 08:12:57.124127  5308 layer_factory.hpp:77] Creating layer relu2_0
I0301 08:12:57.124136  5308 net.cpp:84] Creating Layer relu2_0
I0301 08:12:57.124141  5308 net.cpp:406] relu2_0 <- conv2_0/bn
I0301 08:12:57.124147  5308 net.cpp:367] relu2_0 -> conv2_0/bn (in-place)
I0301 08:12:57.124835  5308 net.cpp:122] Setting up relu2_0
I0301 08:12:57.124855  5308 net.cpp:129] Top shape: 1 53 23 24 (29256)
I0301 08:12:57.124861  5308 net.cpp:137] Memory required for data: 95938844
I0301 08:12:57.124866  5308 layer_factory.hpp:77] Creating layer conv2_0
I0301 08:12:57.124879  5308 net.cpp:84] Creating Layer conv2_0
I0301 08:12:57.124886  5308 net.cpp:406] conv2_0 <- conv2_0/bn
I0301 08:12:57.124897  5308 net.cpp:380] conv2_0 -> conv2_0
I0301 08:12:57.126852  5308 net.cpp:122] Setting up conv2_0
I0301 08:12:57.126871  5308 net.cpp:129] Top shape: 1 12 23 24 (6624)
I0301 08:12:57.126876  5308 net.cpp:137] Memory required for data: 95965340
I0301 08:12:57.126884  5308 layer_factory.hpp:77] Creating layer concat2_0
I0301 08:12:57.126895  5308 net.cpp:84] Creating Layer concat2_0
I0301 08:12:57.126901  5308 net.cpp:406] concat2_0 <- pool1_pool1_0_split_1
I0301 08:12:57.126909  5308 net.cpp:406] concat2_0 <- conv2_0
I0301 08:12:57.126916  5308 net.cpp:380] concat2_0 -> concat2_0
I0301 08:12:57.126965  5308 net.cpp:122] Setting up concat2_0
I0301 08:12:57.126973  5308 net.cpp:129] Top shape: 1 65 23 24 (35880)
I0301 08:12:57.126977  5308 net.cpp:137] Memory required for data: 96108860
I0301 08:12:57.126981  5308 layer_factory.hpp:77] Creating layer concat2_0_concat2_0_0_split
I0301 08:12:57.126993  5308 net.cpp:84] Creating Layer concat2_0_concat2_0_0_split
I0301 08:12:57.126998  5308 net.cpp:406] concat2_0_concat2_0_0_split <- concat2_0
I0301 08:12:57.127007  5308 net.cpp:380] concat2_0_concat2_0_0_split -> concat2_0_concat2_0_0_split_0
I0301 08:12:57.127017  5308 net.cpp:380] concat2_0_concat2_0_0_split -> concat2_0_concat2_0_0_split_1
I0301 08:12:57.127077  5308 net.cpp:122] Setting up concat2_0_concat2_0_0_split
I0301 08:12:57.127085  5308 net.cpp:129] Top shape: 1 65 23 24 (35880)
I0301 08:12:57.127091  5308 net.cpp:129] Top shape: 1 65 23 24 (35880)
I0301 08:12:57.127095  5308 net.cpp:137] Memory required for data: 96395900
I0301 08:12:57.127099  5308 layer_factory.hpp:77] Creating layer conv2_1/bn
I0301 08:12:57.127108  5308 net.cpp:84] Creating Layer conv2_1/bn
I0301 08:12:57.127115  5308 net.cpp:406] conv2_1/bn <- concat2_0_concat2_0_0_split_0
I0301 08:12:57.127121  5308 net.cpp:380] conv2_1/bn -> conv2_1/bn
I0301 08:12:57.127495  5308 net.cpp:122] Setting up conv2_1/bn
I0301 08:12:57.127506  5308 net.cpp:129] Top shape: 1 65 23 24 (35880)
I0301 08:12:57.127509  5308 net.cpp:137] Memory required for data: 96539420
I0301 08:12:57.127521  5308 layer_factory.hpp:77] Creating layer conv2_1/scale
I0301 08:12:57.127529  5308 net.cpp:84] Creating Layer conv2_1/scale
I0301 08:12:57.127534  5308 net.cpp:406] conv2_1/scale <- conv2_1/bn
I0301 08:12:57.127547  5308 net.cpp:367] conv2_1/scale -> conv2_1/bn (in-place)
I0301 08:12:57.127615  5308 layer_factory.hpp:77] Creating layer conv2_1/scale
I0301 08:12:57.127822  5308 net.cpp:122] Setting up conv2_1/scale
I0301 08:12:57.127831  5308 net.cpp:129] Top shape: 1 65 23 24 (35880)
I0301 08:12:57.127835  5308 net.cpp:137] Memory required for data: 96682940
I0301 08:12:57.127843  5308 layer_factory.hpp:77] Creating layer relu2_1
I0301 08:12:57.127851  5308 net.cpp:84] Creating Layer relu2_1
I0301 08:12:57.127856  5308 net.cpp:406] relu2_1 <- conv2_1/bn
I0301 08:12:57.127864  5308 net.cpp:367] relu2_1 -> conv2_1/bn (in-place)
I0301 08:12:57.128163  5308 net.cpp:122] Setting up relu2_1
I0301 08:12:57.128176  5308 net.cpp:129] Top shape: 1 65 23 24 (35880)
I0301 08:12:57.128181  5308 net.cpp:137] Memory required for data: 96826460
I0301 08:12:57.128186  5308 layer_factory.hpp:77] Creating layer conv2_1
I0301 08:12:57.128199  5308 net.cpp:84] Creating Layer conv2_1
I0301 08:12:57.128206  5308 net.cpp:406] conv2_1 <- conv2_1/bn
I0301 08:12:57.128213  5308 net.cpp:380] conv2_1 -> conv2_1
I0301 08:12:57.130209  5308 net.cpp:122] Setting up conv2_1
I0301 08:12:57.130228  5308 net.cpp:129] Top shape: 1 12 23 24 (6624)
I0301 08:12:57.130234  5308 net.cpp:137] Memory required for data: 96852956
I0301 08:12:57.130242  5308 layer_factory.hpp:77] Creating layer concat2_1
I0301 08:12:57.130251  5308 net.cpp:84] Creating Layer concat2_1
I0301 08:12:57.130257  5308 net.cpp:406] concat2_1 <- concat2_0_concat2_0_0_split_1
I0301 08:12:57.130267  5308 net.cpp:406] concat2_1 <- conv2_1
I0301 08:12:57.130275  5308 net.cpp:380] concat2_1 -> concat2_1
I0301 08:12:57.130321  5308 net.cpp:122] Setting up concat2_1
I0301 08:12:57.130329  5308 net.cpp:129] Top shape: 1 77 23 24 (42504)
I0301 08:12:57.130334  5308 net.cpp:137] Memory required for data: 97022972
I0301 08:12:57.130338  5308 layer_factory.hpp:77] Creating layer concat2_1_concat2_1_0_split
I0301 08:12:57.130345  5308 net.cpp:84] Creating Layer concat2_1_concat2_1_0_split
I0301 08:12:57.130350  5308 net.cpp:406] concat2_1_concat2_1_0_split <- concat2_1
I0301 08:12:57.130357  5308 net.cpp:380] concat2_1_concat2_1_0_split -> concat2_1_concat2_1_0_split_0
I0301 08:12:57.130368  5308 net.cpp:380] concat2_1_concat2_1_0_split -> concat2_1_concat2_1_0_split_1
I0301 08:12:57.130426  5308 net.cpp:122] Setting up concat2_1_concat2_1_0_split
I0301 08:12:57.130434  5308 net.cpp:129] Top shape: 1 77 23 24 (42504)
I0301 08:12:57.130440  5308 net.cpp:129] Top shape: 1 77 23 24 (42504)
I0301 08:12:57.130445  5308 net.cpp:137] Memory required for data: 97363004
I0301 08:12:57.130453  5308 layer_factory.hpp:77] Creating layer conv2_2/bn
I0301 08:12:57.130462  5308 net.cpp:84] Creating Layer conv2_2/bn
I0301 08:12:57.130467  5308 net.cpp:406] conv2_2/bn <- concat2_1_concat2_1_0_split_0
I0301 08:12:57.130477  5308 net.cpp:380] conv2_2/bn -> conv2_2/bn
I0301 08:12:57.130847  5308 net.cpp:122] Setting up conv2_2/bn
I0301 08:12:57.130856  5308 net.cpp:129] Top shape: 1 77 23 24 (42504)
I0301 08:12:57.130861  5308 net.cpp:137] Memory required for data: 97533020
I0301 08:12:57.130872  5308 layer_factory.hpp:77] Creating layer conv2_2/scale
I0301 08:12:57.130880  5308 net.cpp:84] Creating Layer conv2_2/scale
I0301 08:12:57.130885  5308 net.cpp:406] conv2_2/scale <- conv2_2/bn
I0301 08:12:57.130893  5308 net.cpp:367] conv2_2/scale -> conv2_2/bn (in-place)
I0301 08:12:57.130959  5308 layer_factory.hpp:77] Creating layer conv2_2/scale
I0301 08:12:57.131165  5308 net.cpp:122] Setting up conv2_2/scale
I0301 08:12:57.131175  5308 net.cpp:129] Top shape: 1 77 23 24 (42504)
I0301 08:12:57.131178  5308 net.cpp:137] Memory required for data: 97703036
I0301 08:12:57.131187  5308 layer_factory.hpp:77] Creating layer relu2_2
I0301 08:12:57.131196  5308 net.cpp:84] Creating Layer relu2_2
I0301 08:12:57.131201  5308 net.cpp:406] relu2_2 <- conv2_2/bn
I0301 08:12:57.131206  5308 net.cpp:367] relu2_2 -> conv2_2/bn (in-place)
I0301 08:12:57.131523  5308 net.cpp:122] Setting up relu2_2
I0301 08:12:57.131536  5308 net.cpp:129] Top shape: 1 77 23 24 (42504)
I0301 08:12:57.131541  5308 net.cpp:137] Memory required for data: 97873052
I0301 08:12:57.131546  5308 layer_factory.hpp:77] Creating layer conv2_2
I0301 08:12:57.131561  5308 net.cpp:84] Creating Layer conv2_2
I0301 08:12:57.131567  5308 net.cpp:406] conv2_2 <- conv2_2/bn
I0301 08:12:57.131575  5308 net.cpp:380] conv2_2 -> conv2_2
I0301 08:12:57.133903  5308 net.cpp:122] Setting up conv2_2
I0301 08:12:57.133920  5308 net.cpp:129] Top shape: 1 12 23 24 (6624)
I0301 08:12:57.133926  5308 net.cpp:137] Memory required for data: 97899548
I0301 08:12:57.133934  5308 layer_factory.hpp:77] Creating layer concat2_2
I0301 08:12:57.133945  5308 net.cpp:84] Creating Layer concat2_2
I0301 08:12:57.133951  5308 net.cpp:406] concat2_2 <- concat2_1_concat2_1_0_split_1
I0301 08:12:57.133958  5308 net.cpp:406] concat2_2 <- conv2_2
I0301 08:12:57.133966  5308 net.cpp:380] concat2_2 -> concat2_2
I0301 08:12:57.134017  5308 net.cpp:122] Setting up concat2_2
I0301 08:12:57.134027  5308 net.cpp:129] Top shape: 1 89 23 24 (49128)
I0301 08:12:57.134030  5308 net.cpp:137] Memory required for data: 98096060
I0301 08:12:57.134034  5308 layer_factory.hpp:77] Creating layer concat2_2_concat2_2_0_split
I0301 08:12:57.134042  5308 net.cpp:84] Creating Layer concat2_2_concat2_2_0_split
I0301 08:12:57.134047  5308 net.cpp:406] concat2_2_concat2_2_0_split <- concat2_2
I0301 08:12:57.134054  5308 net.cpp:380] concat2_2_concat2_2_0_split -> concat2_2_concat2_2_0_split_0
I0301 08:12:57.134063  5308 net.cpp:380] concat2_2_concat2_2_0_split -> concat2_2_concat2_2_0_split_1
I0301 08:12:57.134121  5308 net.cpp:122] Setting up concat2_2_concat2_2_0_split
I0301 08:12:57.134129  5308 net.cpp:129] Top shape: 1 89 23 24 (49128)
I0301 08:12:57.134133  5308 net.cpp:129] Top shape: 1 89 23 24 (49128)
I0301 08:12:57.134137  5308 net.cpp:137] Memory required for data: 98489084
I0301 08:12:57.134141  5308 layer_factory.hpp:77] Creating layer conv2_3/bn
I0301 08:12:57.134150  5308 net.cpp:84] Creating Layer conv2_3/bn
I0301 08:12:57.134156  5308 net.cpp:406] conv2_3/bn <- concat2_2_concat2_2_0_split_0
I0301 08:12:57.134163  5308 net.cpp:380] conv2_3/bn -> conv2_3/bn
I0301 08:12:57.134508  5308 net.cpp:122] Setting up conv2_3/bn
I0301 08:12:57.134516  5308 net.cpp:129] Top shape: 1 89 23 24 (49128)
I0301 08:12:57.134521  5308 net.cpp:137] Memory required for data: 98685596
I0301 08:12:57.134531  5308 layer_factory.hpp:77] Creating layer conv2_3/scale
I0301 08:12:57.134539  5308 net.cpp:84] Creating Layer conv2_3/scale
I0301 08:12:57.134544  5308 net.cpp:406] conv2_3/scale <- conv2_3/bn
I0301 08:12:57.134552  5308 net.cpp:367] conv2_3/scale -> conv2_3/bn (in-place)
I0301 08:12:57.134619  5308 layer_factory.hpp:77] Creating layer conv2_3/scale
I0301 08:12:57.134812  5308 net.cpp:122] Setting up conv2_3/scale
I0301 08:12:57.134821  5308 net.cpp:129] Top shape: 1 89 23 24 (49128)
I0301 08:12:57.134826  5308 net.cpp:137] Memory required for data: 98882108
I0301 08:12:57.134835  5308 layer_factory.hpp:77] Creating layer relu2_3
I0301 08:12:57.134841  5308 net.cpp:84] Creating Layer relu2_3
I0301 08:12:57.134846  5308 net.cpp:406] relu2_3 <- conv2_3/bn
I0301 08:12:57.134855  5308 net.cpp:367] relu2_3 -> conv2_3/bn (in-place)
I0301 08:12:57.135538  5308 net.cpp:122] Setting up relu2_3
I0301 08:12:57.135556  5308 net.cpp:129] Top shape: 1 89 23 24 (49128)
I0301 08:12:57.135561  5308 net.cpp:137] Memory required for data: 99078620
I0301 08:12:57.135566  5308 layer_factory.hpp:77] Creating layer conv2_3
I0301 08:12:57.135582  5308 net.cpp:84] Creating Layer conv2_3
I0301 08:12:57.135588  5308 net.cpp:406] conv2_3 <- conv2_3/bn
I0301 08:12:57.135597  5308 net.cpp:380] conv2_3 -> conv2_3
I0301 08:12:57.137624  5308 net.cpp:122] Setting up conv2_3
I0301 08:12:57.137641  5308 net.cpp:129] Top shape: 1 12 23 24 (6624)
I0301 08:12:57.137646  5308 net.cpp:137] Memory required for data: 99105116
I0301 08:12:57.137655  5308 layer_factory.hpp:77] Creating layer concat2_3
I0301 08:12:57.137665  5308 net.cpp:84] Creating Layer concat2_3
I0301 08:12:57.137671  5308 net.cpp:406] concat2_3 <- concat2_2_concat2_2_0_split_1
I0301 08:12:57.137678  5308 net.cpp:406] concat2_3 <- conv2_3
I0301 08:12:57.137686  5308 net.cpp:380] concat2_3 -> concat2_3
I0301 08:12:57.137729  5308 net.cpp:122] Setting up concat2_3
I0301 08:12:57.137738  5308 net.cpp:129] Top shape: 1 101 23 24 (55752)
I0301 08:12:57.137742  5308 net.cpp:137] Memory required for data: 99328124
I0301 08:12:57.137747  5308 layer_factory.hpp:77] Creating layer concat2_3_concat2_3_0_split
I0301 08:12:57.137755  5308 net.cpp:84] Creating Layer concat2_3_concat2_3_0_split
I0301 08:12:57.137760  5308 net.cpp:406] concat2_3_concat2_3_0_split <- concat2_3
I0301 08:12:57.137766  5308 net.cpp:380] concat2_3_concat2_3_0_split -> concat2_3_concat2_3_0_split_0
I0301 08:12:57.137774  5308 net.cpp:380] concat2_3_concat2_3_0_split -> concat2_3_concat2_3_0_split_1
I0301 08:12:57.137833  5308 net.cpp:122] Setting up concat2_3_concat2_3_0_split
I0301 08:12:57.137841  5308 net.cpp:129] Top shape: 1 101 23 24 (55752)
I0301 08:12:57.137847  5308 net.cpp:129] Top shape: 1 101 23 24 (55752)
I0301 08:12:57.137851  5308 net.cpp:137] Memory required for data: 99774140
I0301 08:12:57.137856  5308 layer_factory.hpp:77] Creating layer conv2_4/bn
I0301 08:12:57.137863  5308 net.cpp:84] Creating Layer conv2_4/bn
I0301 08:12:57.137868  5308 net.cpp:406] conv2_4/bn <- concat2_3_concat2_3_0_split_0
I0301 08:12:57.137876  5308 net.cpp:380] conv2_4/bn -> conv2_4/bn
I0301 08:12:57.138226  5308 net.cpp:122] Setting up conv2_4/bn
I0301 08:12:57.138233  5308 net.cpp:129] Top shape: 1 101 23 24 (55752)
I0301 08:12:57.138238  5308 net.cpp:137] Memory required for data: 99997148
I0301 08:12:57.138247  5308 layer_factory.hpp:77] Creating layer conv2_4/scale
I0301 08:12:57.138257  5308 net.cpp:84] Creating Layer conv2_4/scale
I0301 08:12:57.138263  5308 net.cpp:406] conv2_4/scale <- conv2_4/bn
I0301 08:12:57.138269  5308 net.cpp:367] conv2_4/scale -> conv2_4/bn (in-place)
I0301 08:12:57.138334  5308 layer_factory.hpp:77] Creating layer conv2_4/scale
I0301 08:12:57.138528  5308 net.cpp:122] Setting up conv2_4/scale
I0301 08:12:57.138537  5308 net.cpp:129] Top shape: 1 101 23 24 (55752)
I0301 08:12:57.138541  5308 net.cpp:137] Memory required for data: 100220156
I0301 08:12:57.138550  5308 layer_factory.hpp:77] Creating layer relu2_4
I0301 08:12:57.138559  5308 net.cpp:84] Creating Layer relu2_4
I0301 08:12:57.138564  5308 net.cpp:406] relu2_4 <- conv2_4/bn
I0301 08:12:57.138571  5308 net.cpp:367] relu2_4 -> conv2_4/bn (in-place)
I0301 08:12:57.138862  5308 net.cpp:122] Setting up relu2_4
I0301 08:12:57.138875  5308 net.cpp:129] Top shape: 1 101 23 24 (55752)
I0301 08:12:57.138882  5308 net.cpp:137] Memory required for data: 100443164
I0301 08:12:57.138887  5308 layer_factory.hpp:77] Creating layer conv2_4
I0301 08:12:57.138900  5308 net.cpp:84] Creating Layer conv2_4
I0301 08:12:57.138906  5308 net.cpp:406] conv2_4 <- conv2_4/bn
I0301 08:12:57.138914  5308 net.cpp:380] conv2_4 -> conv2_4
I0301 08:12:57.141012  5308 net.cpp:122] Setting up conv2_4
I0301 08:12:57.141031  5308 net.cpp:129] Top shape: 1 12 23 24 (6624)
I0301 08:12:57.141036  5308 net.cpp:137] Memory required for data: 100469660
I0301 08:12:57.141043  5308 layer_factory.hpp:77] Creating layer concat2_4
I0301 08:12:57.141052  5308 net.cpp:84] Creating Layer concat2_4
I0301 08:12:57.141057  5308 net.cpp:406] concat2_4 <- concat2_3_concat2_3_0_split_1
I0301 08:12:57.141064  5308 net.cpp:406] concat2_4 <- conv2_4
I0301 08:12:57.141073  5308 net.cpp:380] concat2_4 -> concat2_4
I0301 08:12:57.141118  5308 net.cpp:122] Setting up concat2_4
I0301 08:12:57.141127  5308 net.cpp:129] Top shape: 1 113 23 24 (62376)
I0301 08:12:57.141131  5308 net.cpp:137] Memory required for data: 100719164
I0301 08:12:57.141135  5308 layer_factory.hpp:77] Creating layer concat2_4_concat2_4_0_split
I0301 08:12:57.141142  5308 net.cpp:84] Creating Layer concat2_4_concat2_4_0_split
I0301 08:12:57.141147  5308 net.cpp:406] concat2_4_concat2_4_0_split <- concat2_4
I0301 08:12:57.141153  5308 net.cpp:380] concat2_4_concat2_4_0_split -> concat2_4_concat2_4_0_split_0
I0301 08:12:57.141161  5308 net.cpp:380] concat2_4_concat2_4_0_split -> concat2_4_concat2_4_0_split_1
I0301 08:12:57.141221  5308 net.cpp:122] Setting up concat2_4_concat2_4_0_split
I0301 08:12:57.141228  5308 net.cpp:129] Top shape: 1 113 23 24 (62376)
I0301 08:12:57.141233  5308 net.cpp:129] Top shape: 1 113 23 24 (62376)
I0301 08:12:57.141237  5308 net.cpp:137] Memory required for data: 101218172
I0301 08:12:57.141242  5308 layer_factory.hpp:77] Creating layer conv2_5/bn
I0301 08:12:57.141252  5308 net.cpp:84] Creating Layer conv2_5/bn
I0301 08:12:57.141258  5308 net.cpp:406] conv2_5/bn <- concat2_4_concat2_4_0_split_0
I0301 08:12:57.141264  5308 net.cpp:380] conv2_5/bn -> conv2_5/bn
I0301 08:12:57.141615  5308 net.cpp:122] Setting up conv2_5/bn
I0301 08:12:57.141624  5308 net.cpp:129] Top shape: 1 113 23 24 (62376)
I0301 08:12:57.141628  5308 net.cpp:137] Memory required for data: 101467676
I0301 08:12:57.141638  5308 layer_factory.hpp:77] Creating layer conv2_5/scale
I0301 08:12:57.141646  5308 net.cpp:84] Creating Layer conv2_5/scale
I0301 08:12:57.141651  5308 net.cpp:406] conv2_5/scale <- conv2_5/bn
I0301 08:12:57.141659  5308 net.cpp:367] conv2_5/scale -> conv2_5/bn (in-place)
I0301 08:12:57.141722  5308 layer_factory.hpp:77] Creating layer conv2_5/scale
I0301 08:12:57.141919  5308 net.cpp:122] Setting up conv2_5/scale
I0301 08:12:57.141927  5308 net.cpp:129] Top shape: 1 113 23 24 (62376)
I0301 08:12:57.141932  5308 net.cpp:137] Memory required for data: 101717180
I0301 08:12:57.141940  5308 layer_factory.hpp:77] Creating layer relu2_5
I0301 08:12:57.141947  5308 net.cpp:84] Creating Layer relu2_5
I0301 08:12:57.141952  5308 net.cpp:406] relu2_5 <- conv2_5/bn
I0301 08:12:57.141958  5308 net.cpp:367] relu2_5 -> conv2_5/bn (in-place)
I0301 08:12:57.142246  5308 net.cpp:122] Setting up relu2_5
I0301 08:12:57.142257  5308 net.cpp:129] Top shape: 1 113 23 24 (62376)
I0301 08:12:57.142261  5308 net.cpp:137] Memory required for data: 101966684
I0301 08:12:57.142266  5308 layer_factory.hpp:77] Creating layer conv2_5
I0301 08:12:57.142279  5308 net.cpp:84] Creating Layer conv2_5
I0301 08:12:57.142284  5308 net.cpp:406] conv2_5 <- conv2_5/bn
I0301 08:12:57.142292  5308 net.cpp:380] conv2_5 -> conv2_5
I0301 08:12:57.145099  5308 net.cpp:122] Setting up conv2_5
I0301 08:12:57.145117  5308 net.cpp:129] Top shape: 1 12 23 24 (6624)
I0301 08:12:57.145123  5308 net.cpp:137] Memory required for data: 101993180
I0301 08:12:57.145130  5308 layer_factory.hpp:77] Creating layer concat2_5
I0301 08:12:57.145139  5308 net.cpp:84] Creating Layer concat2_5
I0301 08:12:57.145144  5308 net.cpp:406] concat2_5 <- concat2_4_concat2_4_0_split_1
I0301 08:12:57.145154  5308 net.cpp:406] concat2_5 <- conv2_5
I0301 08:12:57.145162  5308 net.cpp:380] concat2_5 -> concat2_5
I0301 08:12:57.145210  5308 net.cpp:122] Setting up concat2_5
I0301 08:12:57.145220  5308 net.cpp:129] Top shape: 1 125 23 24 (69000)
I0301 08:12:57.145223  5308 net.cpp:137] Memory required for data: 102269180
I0301 08:12:57.145227  5308 layer_factory.hpp:77] Creating layer concat2_5_concat2_5_0_split
I0301 08:12:57.145237  5308 net.cpp:84] Creating Layer concat2_5_concat2_5_0_split
I0301 08:12:57.145242  5308 net.cpp:406] concat2_5_concat2_5_0_split <- concat2_5
I0301 08:12:57.145248  5308 net.cpp:380] concat2_5_concat2_5_0_split -> concat2_5_concat2_5_0_split_0
I0301 08:12:57.145256  5308 net.cpp:380] concat2_5_concat2_5_0_split -> concat2_5_concat2_5_0_split_1
I0301 08:12:57.145316  5308 net.cpp:122] Setting up concat2_5_concat2_5_0_split
I0301 08:12:57.145323  5308 net.cpp:129] Top shape: 1 125 23 24 (69000)
I0301 08:12:57.145329  5308 net.cpp:129] Top shape: 1 125 23 24 (69000)
I0301 08:12:57.145332  5308 net.cpp:137] Memory required for data: 102821180
I0301 08:12:57.145337  5308 layer_factory.hpp:77] Creating layer conv2_6/bn
I0301 08:12:57.145344  5308 net.cpp:84] Creating Layer conv2_6/bn
I0301 08:12:57.145349  5308 net.cpp:406] conv2_6/bn <- concat2_5_concat2_5_0_split_0
I0301 08:12:57.145356  5308 net.cpp:380] conv2_6/bn -> conv2_6/bn
I0301 08:12:57.145692  5308 net.cpp:122] Setting up conv2_6/bn
I0301 08:12:57.145700  5308 net.cpp:129] Top shape: 1 125 23 24 (69000)
I0301 08:12:57.145704  5308 net.cpp:137] Memory required for data: 103097180
I0301 08:12:57.145715  5308 layer_factory.hpp:77] Creating layer conv2_6/scale
I0301 08:12:57.145723  5308 net.cpp:84] Creating Layer conv2_6/scale
I0301 08:12:57.145727  5308 net.cpp:406] conv2_6/scale <- conv2_6/bn
I0301 08:12:57.145735  5308 net.cpp:367] conv2_6/scale -> conv2_6/bn (in-place)
I0301 08:12:57.145797  5308 layer_factory.hpp:77] Creating layer conv2_6/scale
I0301 08:12:57.145984  5308 net.cpp:122] Setting up conv2_6/scale
I0301 08:12:57.145992  5308 net.cpp:129] Top shape: 1 125 23 24 (69000)
I0301 08:12:57.145997  5308 net.cpp:137] Memory required for data: 103373180
I0301 08:12:57.146004  5308 layer_factory.hpp:77] Creating layer relu2_6
I0301 08:12:57.146013  5308 net.cpp:84] Creating Layer relu2_6
I0301 08:12:57.146018  5308 net.cpp:406] relu2_6 <- conv2_6/bn
I0301 08:12:57.146023  5308 net.cpp:367] relu2_6 -> conv2_6/bn (in-place)
I0301 08:12:57.146670  5308 net.cpp:122] Setting up relu2_6
I0301 08:12:57.146688  5308 net.cpp:129] Top shape: 1 125 23 24 (69000)
I0301 08:12:57.146693  5308 net.cpp:137] Memory required for data: 103649180
I0301 08:12:57.146698  5308 layer_factory.hpp:77] Creating layer conv2_6
I0301 08:12:57.146710  5308 net.cpp:84] Creating Layer conv2_6
I0301 08:12:57.146715  5308 net.cpp:406] conv2_6 <- conv2_6/bn
I0301 08:12:57.146725  5308 net.cpp:380] conv2_6 -> conv2_6
I0301 08:12:57.148823  5308 net.cpp:122] Setting up conv2_6
I0301 08:12:57.148839  5308 net.cpp:129] Top shape: 1 12 23 24 (6624)
I0301 08:12:57.148844  5308 net.cpp:137] Memory required for data: 103675676
I0301 08:12:57.148851  5308 layer_factory.hpp:77] Creating layer concat2_6
I0301 08:12:57.148860  5308 net.cpp:84] Creating Layer concat2_6
I0301 08:12:57.148866  5308 net.cpp:406] concat2_6 <- concat2_5_concat2_5_0_split_1
I0301 08:12:57.148874  5308 net.cpp:406] concat2_6 <- conv2_6
I0301 08:12:57.148880  5308 net.cpp:380] concat2_6 -> concat2_6
I0301 08:12:57.148926  5308 net.cpp:122] Setting up concat2_6
I0301 08:12:57.148933  5308 net.cpp:129] Top shape: 1 137 23 24 (75624)
I0301 08:12:57.148937  5308 net.cpp:137] Memory required for data: 103978172
I0301 08:12:57.148941  5308 layer_factory.hpp:77] Creating layer concat2_6_concat2_6_0_split
I0301 08:12:57.148949  5308 net.cpp:84] Creating Layer concat2_6_concat2_6_0_split
I0301 08:12:57.148953  5308 net.cpp:406] concat2_6_concat2_6_0_split <- concat2_6
I0301 08:12:57.148959  5308 net.cpp:380] concat2_6_concat2_6_0_split -> concat2_6_concat2_6_0_split_0
I0301 08:12:57.148972  5308 net.cpp:380] concat2_6_concat2_6_0_split -> concat2_6_concat2_6_0_split_1
I0301 08:12:57.149029  5308 net.cpp:122] Setting up concat2_6_concat2_6_0_split
I0301 08:12:57.149036  5308 net.cpp:129] Top shape: 1 137 23 24 (75624)
I0301 08:12:57.149041  5308 net.cpp:129] Top shape: 1 137 23 24 (75624)
I0301 08:12:57.149045  5308 net.cpp:137] Memory required for data: 104583164
I0301 08:12:57.149049  5308 layer_factory.hpp:77] Creating layer conv2_7/bn
I0301 08:12:57.149060  5308 net.cpp:84] Creating Layer conv2_7/bn
I0301 08:12:57.149063  5308 net.cpp:406] conv2_7/bn <- concat2_6_concat2_6_0_split_0
I0301 08:12:57.149070  5308 net.cpp:380] conv2_7/bn -> conv2_7/bn
I0301 08:12:57.149416  5308 net.cpp:122] Setting up conv2_7/bn
I0301 08:12:57.149425  5308 net.cpp:129] Top shape: 1 137 23 24 (75624)
I0301 08:12:57.149430  5308 net.cpp:137] Memory required for data: 104885660
I0301 08:12:57.149438  5308 layer_factory.hpp:77] Creating layer conv2_7/scale
I0301 08:12:57.149446  5308 net.cpp:84] Creating Layer conv2_7/scale
I0301 08:12:57.149451  5308 net.cpp:406] conv2_7/scale <- conv2_7/bn
I0301 08:12:57.149458  5308 net.cpp:367] conv2_7/scale -> conv2_7/bn (in-place)
I0301 08:12:57.149520  5308 layer_factory.hpp:77] Creating layer conv2_7/scale
I0301 08:12:57.149708  5308 net.cpp:122] Setting up conv2_7/scale
I0301 08:12:57.149718  5308 net.cpp:129] Top shape: 1 137 23 24 (75624)
I0301 08:12:57.149722  5308 net.cpp:137] Memory required for data: 105188156
I0301 08:12:57.149729  5308 layer_factory.hpp:77] Creating layer relu2_7
I0301 08:12:57.149736  5308 net.cpp:84] Creating Layer relu2_7
I0301 08:12:57.149741  5308 net.cpp:406] relu2_7 <- conv2_7/bn
I0301 08:12:57.149747  5308 net.cpp:367] relu2_7 -> conv2_7/bn (in-place)
I0301 08:12:57.150019  5308 net.cpp:122] Setting up relu2_7
I0301 08:12:57.150030  5308 net.cpp:129] Top shape: 1 137 23 24 (75624)
I0301 08:12:57.150034  5308 net.cpp:137] Memory required for data: 105490652
I0301 08:12:57.150038  5308 layer_factory.hpp:77] Creating layer conv2_7
I0301 08:12:57.150053  5308 net.cpp:84] Creating Layer conv2_7
I0301 08:12:57.150058  5308 net.cpp:406] conv2_7 <- conv2_7/bn
I0301 08:12:57.150065  5308 net.cpp:380] conv2_7 -> conv2_7
I0301 08:12:57.152572  5308 net.cpp:122] Setting up conv2_7
I0301 08:12:57.152590  5308 net.cpp:129] Top shape: 1 12 23 24 (6624)
I0301 08:12:57.152595  5308 net.cpp:137] Memory required for data: 105517148
I0301 08:12:57.152602  5308 layer_factory.hpp:77] Creating layer concat2_7
I0301 08:12:57.152611  5308 net.cpp:84] Creating Layer concat2_7
I0301 08:12:57.152617  5308 net.cpp:406] concat2_7 <- concat2_6_concat2_6_0_split_1
I0301 08:12:57.152623  5308 net.cpp:406] concat2_7 <- conv2_7
I0301 08:12:57.152632  5308 net.cpp:380] concat2_7 -> concat2_7
I0301 08:12:57.152683  5308 net.cpp:122] Setting up concat2_7
I0301 08:12:57.152691  5308 net.cpp:129] Top shape: 1 149 23 24 (82248)
I0301 08:12:57.152694  5308 net.cpp:137] Memory required for data: 105846140
I0301 08:12:57.152699  5308 layer_factory.hpp:77] Creating layer concat2_7_concat2_7_0_split
I0301 08:12:57.152705  5308 net.cpp:84] Creating Layer concat2_7_concat2_7_0_split
I0301 08:12:57.152709  5308 net.cpp:406] concat2_7_concat2_7_0_split <- concat2_7
I0301 08:12:57.152716  5308 net.cpp:380] concat2_7_concat2_7_0_split -> concat2_7_concat2_7_0_split_0
I0301 08:12:57.152726  5308 net.cpp:380] concat2_7_concat2_7_0_split -> concat2_7_concat2_7_0_split_1
I0301 08:12:57.152782  5308 net.cpp:122] Setting up concat2_7_concat2_7_0_split
I0301 08:12:57.152789  5308 net.cpp:129] Top shape: 1 149 23 24 (82248)
I0301 08:12:57.152794  5308 net.cpp:129] Top shape: 1 149 23 24 (82248)
I0301 08:12:57.152798  5308 net.cpp:137] Memory required for data: 106504124
I0301 08:12:57.152802  5308 layer_factory.hpp:77] Creating layer conv2_8/bn
I0301 08:12:57.152811  5308 net.cpp:84] Creating Layer conv2_8/bn
I0301 08:12:57.152815  5308 net.cpp:406] conv2_8/bn <- concat2_7_concat2_7_0_split_0
I0301 08:12:57.152823  5308 net.cpp:380] conv2_8/bn -> conv2_8/bn
I0301 08:12:57.153167  5308 net.cpp:122] Setting up conv2_8/bn
I0301 08:12:57.153175  5308 net.cpp:129] Top shape: 1 149 23 24 (82248)
I0301 08:12:57.153179  5308 net.cpp:137] Memory required for data: 106833116
I0301 08:12:57.153188  5308 layer_factory.hpp:77] Creating layer conv2_8/scale
I0301 08:12:57.153197  5308 net.cpp:84] Creating Layer conv2_8/scale
I0301 08:12:57.153201  5308 net.cpp:406] conv2_8/scale <- conv2_8/bn
I0301 08:12:57.153208  5308 net.cpp:367] conv2_8/scale -> conv2_8/bn (in-place)
I0301 08:12:57.153270  5308 layer_factory.hpp:77] Creating layer conv2_8/scale
I0301 08:12:57.153467  5308 net.cpp:122] Setting up conv2_8/scale
I0301 08:12:57.153476  5308 net.cpp:129] Top shape: 1 149 23 24 (82248)
I0301 08:12:57.153481  5308 net.cpp:137] Memory required for data: 107162108
I0301 08:12:57.153487  5308 layer_factory.hpp:77] Creating layer relu2_8
I0301 08:12:57.153496  5308 net.cpp:84] Creating Layer relu2_8
I0301 08:12:57.153501  5308 net.cpp:406] relu2_8 <- conv2_8/bn
I0301 08:12:57.153506  5308 net.cpp:367] relu2_8 -> conv2_8/bn (in-place)
I0301 08:12:57.153794  5308 net.cpp:122] Setting up relu2_8
I0301 08:12:57.153805  5308 net.cpp:129] Top shape: 1 149 23 24 (82248)
I0301 08:12:57.153808  5308 net.cpp:137] Memory required for data: 107491100
I0301 08:12:57.153812  5308 layer_factory.hpp:77] Creating layer conv2_8
I0301 08:12:57.153825  5308 net.cpp:84] Creating Layer conv2_8
I0301 08:12:57.153831  5308 net.cpp:406] conv2_8 <- conv2_8/bn
I0301 08:12:57.153841  5308 net.cpp:380] conv2_8 -> conv2_8
I0301 08:12:57.156080  5308 net.cpp:122] Setting up conv2_8
I0301 08:12:57.156096  5308 net.cpp:129] Top shape: 1 12 23 24 (6624)
I0301 08:12:57.156100  5308 net.cpp:137] Memory required for data: 107517596
I0301 08:12:57.156108  5308 layer_factory.hpp:77] Creating layer concat2_8
I0301 08:12:57.156118  5308 net.cpp:84] Creating Layer concat2_8
I0301 08:12:57.156123  5308 net.cpp:406] concat2_8 <- concat2_7_concat2_7_0_split_1
I0301 08:12:57.156129  5308 net.cpp:406] concat2_8 <- conv2_8
I0301 08:12:57.156136  5308 net.cpp:380] concat2_8 -> concat2_8
I0301 08:12:57.156179  5308 net.cpp:122] Setting up concat2_8
I0301 08:12:57.156188  5308 net.cpp:129] Top shape: 1 161 23 24 (88872)
I0301 08:12:57.156190  5308 net.cpp:137] Memory required for data: 107873084
I0301 08:12:57.156194  5308 layer_factory.hpp:77] Creating layer concat2_8_concat2_8_0_split
I0301 08:12:57.156200  5308 net.cpp:84] Creating Layer concat2_8_concat2_8_0_split
I0301 08:12:57.156205  5308 net.cpp:406] concat2_8_concat2_8_0_split <- concat2_8
I0301 08:12:57.156213  5308 net.cpp:380] concat2_8_concat2_8_0_split -> concat2_8_concat2_8_0_split_0
I0301 08:12:57.156220  5308 net.cpp:380] concat2_8_concat2_8_0_split -> concat2_8_concat2_8_0_split_1
I0301 08:12:57.156273  5308 net.cpp:122] Setting up concat2_8_concat2_8_0_split
I0301 08:12:57.156282  5308 net.cpp:129] Top shape: 1 161 23 24 (88872)
I0301 08:12:57.156287  5308 net.cpp:129] Top shape: 1 161 23 24 (88872)
I0301 08:12:57.156291  5308 net.cpp:137] Memory required for data: 108584060
I0301 08:12:57.156294  5308 layer_factory.hpp:77] Creating layer conv2_9/bn
I0301 08:12:57.156306  5308 net.cpp:84] Creating Layer conv2_9/bn
I0301 08:12:57.156311  5308 net.cpp:406] conv2_9/bn <- concat2_8_concat2_8_0_split_0
I0301 08:12:57.156317  5308 net.cpp:380] conv2_9/bn -> conv2_9/bn
I0301 08:12:57.156637  5308 net.cpp:122] Setting up conv2_9/bn
I0301 08:12:57.156646  5308 net.cpp:129] Top shape: 1 161 23 24 (88872)
I0301 08:12:57.156648  5308 net.cpp:137] Memory required for data: 108939548
I0301 08:12:57.156668  5308 layer_factory.hpp:77] Creating layer conv2_9/scale
I0301 08:12:57.156677  5308 net.cpp:84] Creating Layer conv2_9/scale
I0301 08:12:57.156682  5308 net.cpp:406] conv2_9/scale <- conv2_9/bn
I0301 08:12:57.156692  5308 net.cpp:367] conv2_9/scale -> conv2_9/bn (in-place)
I0301 08:12:57.156749  5308 layer_factory.hpp:77] Creating layer conv2_9/scale
I0301 08:12:57.156929  5308 net.cpp:122] Setting up conv2_9/scale
I0301 08:12:57.156936  5308 net.cpp:129] Top shape: 1 161 23 24 (88872)
I0301 08:12:57.156944  5308 net.cpp:137] Memory required for data: 109295036
I0301 08:12:57.156951  5308 layer_factory.hpp:77] Creating layer relu2_9
I0301 08:12:57.156958  5308 net.cpp:84] Creating Layer relu2_9
I0301 08:12:57.156962  5308 net.cpp:406] relu2_9 <- conv2_9/bn
I0301 08:12:57.156972  5308 net.cpp:367] relu2_9 -> conv2_9/bn (in-place)
I0301 08:12:57.157229  5308 net.cpp:122] Setting up relu2_9
I0301 08:12:57.157240  5308 net.cpp:129] Top shape: 1 161 23 24 (88872)
I0301 08:12:57.157244  5308 net.cpp:137] Memory required for data: 109650524
I0301 08:12:57.157248  5308 layer_factory.hpp:77] Creating layer conv2_9
I0301 08:12:57.157261  5308 net.cpp:84] Creating Layer conv2_9
I0301 08:12:57.157266  5308 net.cpp:406] conv2_9 <- conv2_9/bn
I0301 08:12:57.157276  5308 net.cpp:380] conv2_9 -> conv2_9
I0301 08:12:57.159757  5308 net.cpp:122] Setting up conv2_9
I0301 08:12:57.159773  5308 net.cpp:129] Top shape: 1 12 23 24 (6624)
I0301 08:12:57.159778  5308 net.cpp:137] Memory required for data: 109677020
I0301 08:12:57.159785  5308 layer_factory.hpp:77] Creating layer concat2_9
I0301 08:12:57.159795  5308 net.cpp:84] Creating Layer concat2_9
I0301 08:12:57.159801  5308 net.cpp:406] concat2_9 <- concat2_8_concat2_8_0_split_1
I0301 08:12:57.159807  5308 net.cpp:406] concat2_9 <- conv2_9
I0301 08:12:57.159813  5308 net.cpp:380] concat2_9 -> concat2_9
I0301 08:12:57.159860  5308 net.cpp:122] Setting up concat2_9
I0301 08:12:57.159868  5308 net.cpp:129] Top shape: 1 173 23 24 (95496)
I0301 08:12:57.159871  5308 net.cpp:137] Memory required for data: 110059004
I0301 08:12:57.159874  5308 layer_factory.hpp:77] Creating layer tpp5
I0301 08:12:57.159884  5308 net.cpp:84] Creating Layer tpp5
I0301 08:12:57.159888  5308 net.cpp:406] tpp5 <- concat2_9
I0301 08:12:57.159895  5308 net.cpp:380] tpp5 -> tpp5
I0301 08:12:57.160552  5308 net.cpp:122] Setting up tpp5
I0301 08:12:57.160563  5308 net.cpp:129] Top shape: 1 2595 (2595)
I0301 08:12:57.160567  5308 net.cpp:137] Memory required for data: 110069384
I0301 08:12:57.160573  5308 layer_factory.hpp:77] Creating layer fc6_d
I0301 08:12:57.160580  5308 net.cpp:84] Creating Layer fc6_d
I0301 08:12:57.160585  5308 net.cpp:406] fc6_d <- tpp5
I0301 08:12:57.160593  5308 net.cpp:380] fc6_d -> fc6_d
I0301 08:12:57.457078  5308 net.cpp:122] Setting up fc6_d
I0301 08:12:57.457106  5308 net.cpp:129] Top shape: 1 4096 (4096)
I0301 08:12:57.457109  5308 net.cpp:137] Memory required for data: 110085768
I0301 08:12:57.457118  5308 layer_factory.hpp:77] Creating layer relu6
I0301 08:12:57.457128  5308 net.cpp:84] Creating Layer relu6
I0301 08:12:57.457132  5308 net.cpp:406] relu6 <- fc6_d
I0301 08:12:57.457139  5308 net.cpp:367] relu6 -> fc6_d (in-place)
I0301 08:12:57.457726  5308 net.cpp:122] Setting up relu6
I0301 08:12:57.457736  5308 net.cpp:129] Top shape: 1 4096 (4096)
I0301 08:12:57.457738  5308 net.cpp:137] Memory required for data: 110102152
I0301 08:12:57.457741  5308 layer_factory.hpp:77] Creating layer fc7_d
I0301 08:12:57.457749  5308 net.cpp:84] Creating Layer fc7_d
I0301 08:12:57.457752  5308 net.cpp:406] fc7_d <- fc6_d
I0301 08:12:57.457757  5308 net.cpp:380] fc7_d -> fc7_d
I0301 08:12:57.879508  5308 net.cpp:122] Setting up fc7_d
I0301 08:12:57.879539  5308 net.cpp:129] Top shape: 1 4096 (4096)
I0301 08:12:57.879541  5308 net.cpp:137] Memory required for data: 110118536
I0301 08:12:57.879550  5308 layer_factory.hpp:77] Creating layer relu7
I0301 08:12:57.879560  5308 net.cpp:84] Creating Layer relu7
I0301 08:12:57.879565  5308 net.cpp:406] relu7 <- fc7_d
I0301 08:12:57.879570  5308 net.cpp:367] relu7 -> fc7_d (in-place)
I0301 08:12:57.879812  5308 net.cpp:122] Setting up relu7
I0301 08:12:57.879819  5308 net.cpp:129] Top shape: 1 4096 (4096)
I0301 08:12:57.879822  5308 net.cpp:137] Memory required for data: 110134920
I0301 08:12:57.879825  5308 layer_factory.hpp:77] Creating layer fc8_d
I0301 08:12:57.879832  5308 net.cpp:84] Creating Layer fc8_d
I0301 08:12:57.879833  5308 net.cpp:406] fc8_d <- fc7_d
I0301 08:12:57.879838  5308 net.cpp:380] fc8_d -> fc8_d
I0301 08:12:57.943451  5308 net.cpp:122] Setting up fc8_d
I0301 08:12:57.943470  5308 net.cpp:129] Top shape: 1 618 (618)
I0301 08:12:57.943473  5308 net.cpp:137] Memory required for data: 110137392
I0301 08:12:57.943480  5308 layer_factory.hpp:77] Creating layer fc8_d_fc8_d_0_split
I0301 08:12:57.943485  5308 net.cpp:84] Creating Layer fc8_d_fc8_d_0_split
I0301 08:12:57.943491  5308 net.cpp:406] fc8_d_fc8_d_0_split <- fc8_d
I0301 08:12:57.943496  5308 net.cpp:380] fc8_d_fc8_d_0_split -> fc8_d_fc8_d_0_split_0
I0301 08:12:57.943503  5308 net.cpp:380] fc8_d_fc8_d_0_split -> fc8_d_fc8_d_0_split_1
I0301 08:12:57.943543  5308 net.cpp:122] Setting up fc8_d_fc8_d_0_split
I0301 08:12:57.943548  5308 net.cpp:129] Top shape: 1 618 (618)
I0301 08:12:57.943552  5308 net.cpp:129] Top shape: 1 618 (618)
I0301 08:12:57.943554  5308 net.cpp:137] Memory required for data: 110142336
I0301 08:12:57.943557  5308 layer_factory.hpp:77] Creating layer sigmoid
I0301 08:12:57.943562  5308 net.cpp:84] Creating Layer sigmoid
I0301 08:12:57.943565  5308 net.cpp:406] sigmoid <- fc8_d_fc8_d_0_split_0
I0301 08:12:57.943570  5308 net.cpp:380] sigmoid -> sigmoid
I0301 08:12:57.943795  5308 net.cpp:122] Setting up sigmoid
I0301 08:12:57.943802  5308 net.cpp:129] Top shape: 1 618 (618)
I0301 08:12:57.943805  5308 net.cpp:137] Memory required for data: 110144808
I0301 08:12:57.943807  5308 layer_factory.hpp:77] Creating layer silence
I0301 08:12:57.943814  5308 net.cpp:84] Creating Layer silence
I0301 08:12:57.943817  5308 net.cpp:406] silence <- sigmoid
I0301 08:12:57.943820  5308 net.cpp:122] Setting up silence
I0301 08:12:57.943822  5308 net.cpp:137] Memory required for data: 110144808
…
