…
state {
  phase: TRAIN
}
layer {
  name: "word_images"
  type: "Data"
  top: "word_images"
  top: "label"
  transform_param {
    scale: -0.0039215689
    mean_value: 255
  }
  data_param {
    source: "/data/fwolf/iam/iam-db_nti500000_pul2-3-4-5_train_word_images_lmdb"
    batch_size: 1
    backend: LMDB
    prefetch: 20
  }
}
layer {
  name: "phocs"
  type: "Data"
  top: "phocs"
  top: "label_phocs"
  data_param {
    source: "/data/fwolf/iam/iam-db_nti500000_pul2-3-4-5_train_phocs_lmdb"
    batch_size: 1
    backend: LMDB
    prefetch: 20
  }
}
layer {
  name: "conv_init"
  type: "Convolution"
  bottom: "word_images"
  top: "conv_init"
  convolution_param {
    num_output: 32
    bias_term: false
    pad: 1
    kernel_size: 3
    stride: 1
    weight_filler {
      type: "msra"
    }
    bias_filler {
      type: "constant"
    }
    engine: CUDNN
  }
}
layer {
  name: "bn_init"
  type: "BatchNorm"
  bottom: "conv_init"
  top: "bn_init"
  param {
    lr_mult: 0
    decay_mult: 0
  }
  param {
    lr_mult: 0
    decay_mult: 0
  }
  param {
    lr_mult: 0
    decay_mult: 0
  }
  batch_norm_param {
    eps: 1e-05
  }
}
layer {
  name: "scale_init"
  type: "Scale"
  bottom: "bn_init"
  top: "bn_init"
  scale_param {
    filler {
      value: 1
    }
    bias_term: true
    bias_filler {
      value: 0
    }
  }
}
layer {
  name: "relu_init"
  type: "ReLU"
  bottom: "bn_init"
  top: "bn_init"
}
layer {
  name: "pool_init"
  type: "Pooling"
  bottom: "bn_init"
  top: "pool_init"
  pooling_param {
    pool: MAX
    kernel_size: 3
    stride: 2
    pad: 1
  }
}
layer {
  name: "conv0_0/bn"
  type: "BatchNorm"
  bottom: "pool_init"
  top: "conv0_0/bn"
  param {
    lr_mult: 0
    decay_mult: 0
  }
  param {
    lr_mult: 0
    decay_mult: 0
  }
  param {
    lr_mult: 0
    decay_mult: 0
  }
}
layer {
  name: "conv0_0/scale"
  type: "Scale"
  bottom: "conv0_0/bn"
  top: "conv0_0/bn"
  scale_param {
    filler {
      value: 1
    }
    bias_term: true
    bias_filler {
      value: 0
    }
  }
}
layer {
  name: "relu0_0"
  type: "ReLU"
  bottom: "conv0_0/bn"
  top: "conv0_0/bn"
}
layer {
  name: "conv0_0"
  type: "Convolution"
  bottom: "conv0_0/bn"
  top: "conv0_0"
  convolution_param {
    num_output: 32
    bias_term: false
    pad: 1
    kernel_size: 3
    stride: 1
    weight_filler {
      type: "msra"
    }
    bias_filler {
      type: "constant"
    }
    engine: CUDNN
  }
}
layer {
  name: "concat0_0"
  type: "Concat"
  bottom: "pool_init"
  bottom: "conv0_0"
  top: "concat0_0"
  concat_param {
    axis: 1
  }
}
layer {
  name: "conv0_1/bn"
  type: "BatchNorm"
  bottom: "concat0_0"
  top: "conv0_1/bn"
  param {
    lr_mult: 0
    decay_mult: 0
  }
  param {
    lr_mult: 0
    decay_mult: 0
  }
  param {
    lr_mult: 0
    decay_mult: 0
  }
}
layer {
  name: "conv0_1/scale"
  type: "Scale"
  bottom: "conv0_1/bn"
  top: "conv0_1/bn"
  scale_param {
    filler {
      value: 1
    }
    bias_term: true
    bias_filler {
      value: 0
    }
  }
}
layer {
  name: "relu0_1"
  type: "ReLU"
  bottom: "conv0_1/bn"
  top: "conv0_1/bn"
}
layer {
  name: "conv0_1"
  type: "Convolution"
  bottom: "conv0_1/bn"
  top: "conv0_1"
  convolution_param {
    num_output: 32
    bias_term: false
    pad: 1
    kernel_size: 3
    stride: 1
    weight_filler {
      type: "msra"
    }
    bias_filler {
      type: "constant"
    }
    engine: CUDNN
  }
}
layer {
  name: "concat0_1"
  type: "Concat"
  bottom: "concat0_0"
  bottom: "conv0_1"
  top: "concat0_1"
  concat_param {
    axis: 1
  }
}
layer {
  name: "conv0_2/bn"
  type: "BatchNorm"
  bottom: "concat0_1"
  top: "conv0_2/bn"
  param {
    lr_mult: 0
    decay_mult: 0
  }
  param {
    lr_mult: 0
    decay_mult: 0
  }
  param {
    lr_mult: 0
    decay_mult: 0
  }
}
layer {
  name: "conv0_2/scale"
  type: "Scale"
  bottom: "conv0_2/bn"
  top: "conv0_2/bn"
  scale_param {
    filler {
      value: 1
    }
    bias_term: true
    bias_filler {
      value: 0
    }
  }
}
layer {
  name: "relu0_2"
  type: "ReLU"
  bottom: "conv0_2/bn"
  top: "conv0_2/bn"
}
layer {
  name: "conv0_2"
  type: "Convolution"
  bottom: "conv0_2/bn"
  top: "conv0_2"
  convolution_param {
    num_output: 32
    bias_term: false
    pad: 1
    kernel_size: 3
    stride: 1
    weight_filler {
      type: "msra"
    }
    bias_filler {
      type: "constant"
    }
    engine: CUDNN
  }
}
layer {
  name: "concat0_2"
  type: "Concat"
  bottom: "concat0_1"
  bottom: "conv0_2"
  top: "concat0_2"
  concat_param {
    axis: 1
  }
}
layer {
  name: "conv0_3/bn"
  type: "BatchNorm"
  bottom: "concat0_2"
  top: "conv0_3/bn"
  param {
    lr_mult: 0
    decay_mult: 0
  }
  param {
    lr_mult: 0
    decay_mult: 0
  }
  param {
    lr_mult: 0
    decay_mult: 0
  }
}
layer {
  name: "conv0_3/scale"
  type: "Scale"
  bottom: "conv0_3/bn"
  top: "conv0_3/bn"
  scale_param {
    filler {
      value: 1
    }
    bias_term: true
    bias_filler {
      value: 0
    }
  }
}
layer {
  name: "relu0_3"
  type: "ReLU"
  bottom: "conv0_3/bn"
  top: "conv0_3/bn"
}
layer {
  name: "conv0_3"
  type: "Convolution"
  bottom: "conv0_3/bn"
  top: "conv0_3"
  convolution_param {
    num_output: 32
    bias_term: false
    pad: 1
    kernel_size: 3
    stride: 1
    weight_filler {
      type: "msra"
    }
    bias_filler {
      type: "constant"
    }
    engine: CUDNN
  }
}
layer {
  name: "concat0_3"
  type: "Concat"
  bottom: "concat0_2"
  bottom: "conv0_3"
  top: "concat0_3"
  concat_param {
    axis: 1
  }
}
layer {
  name: "conv0_4/bn"
  type: "BatchNorm"
  bottom: "concat0_3"
  top: "conv0_4/bn"
  param {
    lr_mult: 0
    decay_mult: 0
  }
  param {
    lr_mult: 0
    decay_mult: 0
  }
  param {
    lr_mult: 0
    decay_mult: 0
  }
}
layer {
  name: "conv0_4/scale"
  type: "Scale"
  bottom: "conv0_4/bn"
  top: "conv0_4/bn"
  scale_param {
    filler {
      value: 1
    }
    bias_term: true
    bias_filler {
      value: 0
    }
  }
}
layer {
  name: "relu0_4"
  type: "ReLU"
  bottom: "conv0_4/bn"
  top: "conv0_4/bn"
}
layer {
  name: "conv0_4"
  type: "Convolution"
  bottom: "conv0_4/bn"
  top: "conv0_4"
  convolution_param {
    num_output: 32
    bias_term: false
    pad: 1
    kernel_size: 3
    stride: 1
    weight_filler {
      type: "msra"
    }
    bias_filler {
      type: "constant"
    }
    engine: CUDNN
  }
}
layer {
  name: "concat0_4"
  type: "Concat"
  bottom: "concat0_3"
  bottom: "conv0_4"
  top: "concat0_4"
  concat_param {
    axis: 1
  }
}
layer {
  name: "conv0_5/bn"
  type: "BatchNorm"
  bottom: "concat0_4"
  top: "conv0_5/bn"
  param {
    lr_mult: 0
    decay_mult: 0
  }
  param {
    lr_mult: 0
    decay_mult: 0
  }
  param {
    lr_mult: 0
    decay_mult: 0
  }
}
layer {
  name: "conv0_5/scale"
  type: "Scale"
  bottom: "conv0_5/bn"
  top: "conv0_5/bn"
  scale_param {
    filler {
      value: 1
    }
    bias_term: true
    bias_filler {
      value: 0
    }
  }
}
layer {
  name: "relu0_5"
  type: "ReLU"
  bottom: "conv0_5/bn"
  top: "conv0_5/bn"
}
layer {
  name: "conv0_5"
  type: "Convolution"
  bottom: "conv0_5/bn"
  top: "conv0_5"
  convolution_param {
    num_output: 32
    bias_term: false
    pad: 1
    kernel_size: 3
    stride: 1
    weight_filler {
      type: "msra"
    }
    bias_filler {
      type: "constant"
    }
    engine: CUDNN
  }
}
layer {
  name: "concat0_5"
  type: "Concat"
  bottom: "concat0_4"
  bottom: "conv0_5"
  top: "concat0_5"
  concat_param {
    axis: 1
  }
}
layer {
  name: "BatchNorm1"
  type: "BatchNorm"
  bottom: "concat0_5"
  top: "BatchNorm1"
  param {
    lr_mult: 0
    decay_mult: 0
  }
  param {
    lr_mult: 0
    decay_mult: 0
  }
  param {
    lr_mult: 0
    decay_mult: 0
  }
}
layer {
  name: "Scale1"
  type: "Scale"
  bottom: "BatchNorm1"
  top: "BatchNorm1"
  scale_param {
    filler {
      value: 1
    }
    bias_term: true
    bias_filler {
      value: 0
    }
  }
}
layer {
  name: "ReLU1"
  type: "ReLU"
  bottom: "BatchNorm1"
  top: "BatchNorm1"
}
layer {
  name: "conv0_blk"
  type: "Convolution"
  bottom: "BatchNorm1"
  top: "conv0_blk"
  convolution_param {
    num_output: 224
    bias_term: false
    pad: 0
    kernel_size: 1
    stride: 1
    weight_filler {
      type: "msra"
    }
    bias_filler {
      type: "constant"
    }
    engine: CUDNN
  }
}
layer {
  name: "pool0"
  type: "Pooling"
  bottom: "conv0_blk"
  top: "pool0"
  pooling_param {
    pool: AVE
    kernel_size: 2
    stride: 2
  }
}
layer {
  name: "conv1_0/bn"
  type: "BatchNorm"
  bottom: "pool0"
  top: "conv1_0/bn"
  param {
    lr_mult: 0
    decay_mult: 0
  }
  param {
    lr_mult: 0
    decay_mult: 0
  }
  param {
    lr_mult: 0
    decay_mult: 0
  }
}
layer {
  name: "conv1_0/scale"
  type: "Scale"
  bottom: "conv1_0/bn"
  top: "conv1_0/bn"
  scale_param {
    filler {
      value: 1
    }
    bias_term: true
    bias_filler {
      value: 0
    }
  }
}
layer {
  name: "relu1_0"
  type: "ReLU"
  bottom: "conv1_0/bn"
  top: "conv1_0/bn"
}
layer {
  name: "conv1_0"
  type: "Convolution"
  bottom: "conv1_0/bn"
  top: "conv1_0"
  convolution_param {
    num_output: 32
    bias_term: false
    pad: 1
    kernel_size: 3
    stride: 1
    weight_filler {
      type: "msra"
    }
    bias_filler {
      type: "constant"
    }
    engine: CUDNN
  }
}
layer {
  name: "concat1_0"
  type: "Concat"
  bottom: "pool0"
  bottom: "conv1_0"
  top: "concat1_0"
  concat_param {
    axis: 1
  }
}
layer {
  name: "conv1_1/bn"
  type: "BatchNorm"
  bottom: "concat1_0"
  top: "conv1_1/bn"
  param {
    lr_mult: 0
    decay_mult: 0
  }
  param {
    lr_mult: 0
    decay_mult: 0
  }
  param {
    lr_mult: 0
    decay_mult: 0
  }
}
layer {
  name: "conv1_1/scale"
  type: "Scale"
  bottom: "conv1_1/bn"
  top: "conv1_1/bn"
  scale_param {
    filler {
      value: 1
    }
    bias_term: true
    bias_filler {
      value: 0
    }
  }
}
layer {
  name: "relu1_1"
  type: "ReLU"
  bottom: "conv1_1/bn"
  top: "conv1_1/bn"
}
layer {
  name: "conv1_1"
  type: "Convolution"
  bottom: "conv1_1/bn"
  top: "conv1_1"
  convolution_param {
    num_output: 32
    bias_term: false
    pad: 1
    kernel_size: 3
    stride: 1
    weight_filler {
      type: "msra"
    }
    bias_filler {
      type: "constant"
    }
    engine: CUDNN
  }
}
layer {
  name: "concat1_1"
  type: "Concat"
  bottom: "concat1_0"
  bottom: "conv1_1"
  top: "concat1_1"
  concat_param {
    axis: 1
  }
}
layer {
  name: "conv1_2/bn"
  type: "BatchNorm"
  bottom: "concat1_1"
  top: "conv1_2/bn"
  param {
    lr_mult: 0
    decay_mult: 0
  }
  param {
    lr_mult: 0
    decay_mult: 0
  }
  param {
    lr_mult: 0
    decay_mult: 0
  }
}
layer {
  name: "conv1_2/scale"
  type: "Scale"
  bottom: "conv1_2/bn"
  top: "conv1_2/bn"
  scale_param {
    filler {
      value: 1
    }
    bias_term: true
    bias_filler {
      value: 0
    }
  }
}
layer {
  name: "relu1_2"
  type: "ReLU"
  bottom: "conv1_2/bn"
  top: "conv1_2/bn"
}
layer {
  name: "conv1_2"
  type: "Convolution"
  bottom: "conv1_2/bn"
  top: "conv1_2"
  convolution_param {
    num_output: 32
    bias_term: false
    pad: 1
    kernel_size: 3
    stride: 1
    weight_filler {
      type: "msra"
    }
    bias_filler {
      type: "constant"
    }
    engine: CUDNN
  }
}
layer {
  name: "concat1_2"
  type: "Concat"
  bottom: "concat1_1"
  bottom: "conv1_2"
  top: "concat1_2"
  concat_param {
    axis: 1
  }
}
layer {
  name: "conv1_3/bn"
  type: "BatchNorm"
  bottom: "concat1_2"
  top: "conv1_3/bn"
  param {
    lr_mult: 0
    decay_mult: 0
  }
  param {
    lr_mult: 0
    decay_mult: 0
  }
  param {
    lr_mult: 0
    decay_mult: 0
  }
}
layer {
  name: "conv1_3/scale"
  type: "Scale"
  bottom: "conv1_3/bn"
  top: "conv1_3/bn"
  scale_param {
    filler {
      value: 1
    }
    bias_term: true
    bias_filler {
      value: 0
    }
  }
}
layer {
  name: "relu1_3"
  type: "ReLU"
  bottom: "conv1_3/bn"
  top: "conv1_3/bn"
}
layer {
  name: "conv1_3"
  type: "Convolution"
  bottom: "conv1_3/bn"
  top: "conv1_3"
  convolution_param {
    num_output: 32
    bias_term: false
    pad: 1
    kernel_size: 3
    stride: 1
    weight_filler {
      type: "msra"
    }
    bias_filler {
      type: "constant"
    }
    engine: CUDNN
  }
}
layer {
  name: "concat1_3"
  type: "Concat"
  bottom: "concat1_2"
  bottom: "conv1_3"
  top: "concat1_3"
  concat_param {
    axis: 1
  }
}
layer {
  name: "conv1_4/bn"
  type: "BatchNorm"
  bottom: "concat1_3"
  top: "conv1_4/bn"
  param {
    lr_mult: 0
    decay_mult: 0
  }
  param {
    lr_mult: 0
    decay_mult: 0
  }
  param {
    lr_mult: 0
    decay_mult: 0
  }
}
layer {
  name: "conv1_4/scale"
  type: "Scale"
  bottom: "conv1_4/bn"
  top: "conv1_4/bn"
  scale_param {
    filler {
      value: 1
    }
    bias_term: true
    bias_filler {
      value: 0
    }
  }
}
layer {
  name: "relu1_4"
  type: "ReLU"
  bottom: "conv1_4/bn"
  top: "conv1_4/bn"
}
layer {
  name: "conv1_4"
  type: "Convolution"
  bottom: "conv1_4/bn"
  top: "conv1_4"
  convolution_param {
    num_output: 32
    bias_term: false
    pad: 1
    kernel_size: 3
    stride: 1
    weight_filler {
      type: "msra"
    }
    bias_filler {
      type: "constant"
    }
    engine: CUDNN
  }
}
layer {
  name: "concat1_4"
  type: "Concat"
  bottom: "concat1_3"
  bottom: "conv1_4"
  top: "concat1_4"
  concat_param {
    axis: 1
  }
}
layer {
  name: "conv1_5/bn"
  type: "BatchNorm"
  bottom: "concat1_4"
  top: "conv1_5/bn"
  param {
    lr_mult: 0
    decay_mult: 0
  }
  param {
    lr_mult: 0
    decay_mult: 0
  }
  param {
    lr_mult: 0
    decay_mult: 0
  }
}
layer {
  name: "conv1_5/scale"
  type: "Scale"
  bottom: "conv1_5/bn"
  top: "conv1_5/bn"
  scale_param {
    filler {
      value: 1
    }
    bias_term: true
    bias_filler {
      value: 0
    }
  }
}
layer {
  name: "relu1_5"
  type: "ReLU"
  bottom: "conv1_5/bn"
  top: "conv1_5/bn"
}
layer {
  name: "conv1_5"
  type: "Convolution"
  bottom: "conv1_5/bn"
  top: "conv1_5"
  convolution_param {
    num_output: 32
    bias_term: false
    pad: 1
    kernel_size: 3
    stride: 1
    weight_filler {
      type: "msra"
    }
    bias_filler {
      type: "constant"
    }
    engine: CUDNN
  }
}
layer {
  name: "concat1_5"
  type: "Concat"
  bottom: "concat1_4"
  bottom: "conv1_5"
  top: "concat1_5"
  concat_param {
    axis: 1
  }
}
layer {
  name: "conv1_6/bn"
  type: "BatchNorm"
  bottom: "concat1_5"
  top: "conv1_6/bn"
  param {
    lr_mult: 0
    decay_mult: 0
  }
  param {
    lr_mult: 0
    decay_mult: 0
  }
  param {
    lr_mult: 0
    decay_mult: 0
  }
}
layer {
  name: "conv1_6/scale"
  type: "Scale"
  bottom: "conv1_6/bn"
  top: "conv1_6/bn"
  scale_param {
    filler {
      value: 1
    }
    bias_term: true
    bias_filler {
      value: 0
    }
  }
}
layer {
  name: "relu1_6"
  type: "ReLU"
  bottom: "conv1_6/bn"
  top: "conv1_6/bn"
}
layer {
  name: "conv1_6"
  type: "Convolution"
  bottom: "conv1_6/bn"
  top: "conv1_6"
  convolution_param {
    num_output: 32
    bias_term: false
    pad: 1
    kernel_size: 3
    stride: 1
    weight_filler {
      type: "msra"
    }
    bias_filler {
      type: "constant"
    }
    engine: CUDNN
  }
}
layer {
  name: "concat1_6"
  type: "Concat"
  bottom: "concat1_5"
  bottom: "conv1_6"
  top: "concat1_6"
  concat_param {
    axis: 1
  }
}
layer {
  name: "conv1_7/bn"
  type: "BatchNorm"
  bottom: "concat1_6"
  top: "conv1_7/bn"
  param {
    lr_mult: 0
    decay_mult: 0
  }
  param {
    lr_mult: 0
    decay_mult: 0
  }
  param {
    lr_mult: 0
    decay_mult: 0
  }
}
layer {
  name: "conv1_7/scale"
  type: "Scale"
  bottom: "conv1_7/bn"
  top: "conv1_7/bn"
  scale_param {
    filler {
      value: 1
    }
    bias_term: true
    bias_filler {
      value: 0
    }
  }
}
layer {
  name: "relu1_7"
  type: "ReLU"
  bottom: "conv1_7/bn"
  top: "conv1_7/bn"
}
layer {
  name: "conv1_7"
  type: "Convolution"
  bottom: "conv1_7/bn"
  top: "conv1_7"
  convolution_param {
    num_output: 32
    bias_term: false
    pad: 1
    kernel_size: 3
    stride: 1
    weight_filler {
      type: "msra"
    }
    bias_filler {
      type: "constant"
    }
    engine: CUDNN
  }
}
layer {
  name: "concat1_7"
  type: "Concat"
  bottom: "concat1_6"
  bottom: "conv1_7"
  top: "concat1_7"
  concat_param {
    axis: 1
  }
}
layer {
  name: "conv1_8/bn"
  type: "BatchNorm"
  bottom: "concat1_7"
  top: "conv1_8/bn"
  param {
    lr_mult: 0
    decay_mult: 0
  }
  param {
    lr_mult: 0
    decay_mult: 0
  }
  param {
    lr_mult: 0
    decay_mult: 0
  }
}
layer {
  name: "conv1_8/scale"
  type: "Scale"
  bottom: "conv1_8/bn"
  top: "conv1_8/bn"
  scale_param {
    filler {
      value: 1
    }
    bias_term: true
    bias_filler {
      value: 0
    }
  }
}
layer {
  name: "relu1_8"
  type: "ReLU"
  bottom: "conv1_8/bn"
  top: "conv1_8/bn"
}
layer {
  name: "conv1_8"
  type: "Convolution"
  bottom: "conv1_8/bn"
  top: "conv1_8"
  convolution_param {
    num_output: 32
    bias_term: false
    pad: 1
    kernel_size: 3
    stride: 1
    weight_filler {
      type: "msra"
    }
    bias_filler {
      type: "constant"
    }
    engine: CUDNN
  }
}
layer {
  name: "concat1_8"
  type: "Concat"
  bottom: "concat1_7"
  bottom: "conv1_8"
  top: "concat1_8"
  concat_param {
    axis: 1
  }
}
layer {
  name: "conv1_9/bn"
  type: "BatchNorm"
  bottom: "concat1_8"
  top: "conv1_9/bn"
  param {
    lr_mult: 0
    decay_mult: 0
  }
  param {
    lr_mult: 0
    decay_mult: 0
  }
  param {
    lr_mult: 0
    decay_mult: 0
  }
}
layer {
  name: "conv1_9/scale"
  type: "Scale"
  bottom: "conv1_9/bn"
  top: "conv1_9/bn"
  scale_param {
    filler {
      value: 1
    }
    bias_term: true
    bias_filler {
      value: 0
    }
  }
}
layer {
  name: "relu1_9"
  type: "ReLU"
  bottom: "conv1_9/bn"
  top: "conv1_9/bn"
}
layer {
  name: "conv1_9"
  type: "Convolution"
  bottom: "conv1_9/bn"
  top: "conv1_9"
  convolution_param {
    num_output: 32
    bias_term: false
    pad: 1
    kernel_size: 3
    stride: 1
    weight_filler {
      type: "msra"
    }
    bias_filler {
      type: "constant"
    }
    engine: CUDNN
  }
}
layer {
  name: "concat1_9"
  type: "Concat"
  bottom: "concat1_8"
  bottom: "conv1_9"
  top: "concat1_9"
  concat_param {
    axis: 1
  }
}
layer {
  name: "conv1_10/bn"
  type: "BatchNorm"
  bottom: "concat1_9"
  top: "conv1_10/bn"
  param {
    lr_mult: 0
    decay_mult: 0
  }
  param {
    lr_mult: 0
    decay_mult: 0
  }
  param {
    lr_mult: 0
    decay_mult: 0
  }
}
layer {
  name: "conv1_10/scale"
  type: "Scale"
  bottom: "conv1_10/bn"
  top: "conv1_10/bn"
  scale_param {
    filler {
      value: 1
    }
    bias_term: true
    bias_filler {
      value: 0
    }
  }
}
layer {
  name: "relu1_10"
  type: "ReLU"
  bottom: "conv1_10/bn"
  top: "conv1_10/bn"
}
layer {
  name: "conv1_10"
  type: "Convolution"
  bottom: "conv1_10/bn"
  top: "conv1_10"
  convolution_param {
    num_output: 32
    bias_term: false
    pad: 1
    kernel_size: 3
    stride: 1
    weight_filler {
      type: "msra"
    }
    bias_filler {
      type: "constant"
    }
    engine: CUDNN
  }
}
layer {
  name: "concat1_10"
  type: "Concat"
  bottom: "concat1_9"
  bottom: "conv1_10"
  top: "concat1_10"
  concat_param {
    axis: 1
  }
}
layer {
  name: "conv1_11/bn"
  type: "BatchNorm"
  bottom: "concat1_10"
  top: "conv1_11/bn"
  param {
    lr_mult: 0
    decay_mult: 0
  }
  param {
    lr_mult: 0
    decay_mult: 0
  }
  param {
    lr_mult: 0
    decay_mult: 0
  }
}
layer {
  name: "conv1_11/scale"
  type: "Scale"
  bottom: "conv1_11/bn"
  top: "conv1_11/bn"
  scale_param {
    filler {
      value: 1
    }
    bias_term: true
    bias_filler {
      value: 0
    }
  }
}
layer {
  name: "relu1_11"
  type: "ReLU"
  bottom: "conv1_11/bn"
  top: "conv1_11/bn"
}
layer {
  name: "conv1_11"
  type: "Convolution"
  bottom: "conv1_11/bn"
  top: "conv1_11"
  convolution_param {
    num_output: 32
    bias_term: false
    pad: 1
    kernel_size: 3
    stride: 1
    weight_filler {
      type: "msra"
    }
    bias_filler {
      type: "constant"
    }
    engine: CUDNN
  }
}
layer {
  name: "concat1_11"
  type: "Concat"
  bottom: "concat1_10"
  bottom: "conv1_11"
  top: "concat1_11"
  concat_param {
    axis: 1
  }
}
layer {
  name: "tpp5"
  type: "TPP"
  bottom: "concat1_11"
  top: "tpp5"
  tpp_param {
    pyramid_layer: 1
    pyramid_layer: 2
    pyramid_layer: 3
    pyramid_layer: 4
    pyramid_layer: 5
    pool: MAX
    engine: CUDNN
  }
}
layer {
  name: "fc6_d"
  type: "InnerProduct"
  bottom: "tpp5"
  top: "fc6_d"
  inner_product_param {
    num_output: 4096
    weight_filler {
      type: "msra"
    }
    bias_filler {
      type: "constant"
    }
  }
}
layer {
  name: "relu6"
  type: "ReLU"
  bottom: "fc6_d"
  top: "fc6_d"
}
layer {
  name: "drop6"
  type: "Dropout"
  bottom: "fc6_d"
  top: "fc6_d"
  include {
    phase: TRAIN
  }
  dropout_param {
    dropout_ratio: 0.5
  }
}
layer {
  name: "fc7_d"
  type: "InnerProduct"
  bottom: "fc6_d"
  top: "fc7_d"
  inner_product_param {
    num_output: 4096
    weight_filler {
      type: "msra"
    }
    bias_filler {
      type: "constant"
    }
  }
}
layer {
  name: "relu7"
  type: "ReLU"
  bottom: "fc7_d"
  top: "fc7_d"
}
layer {
  name: "drop7"
  type: "Dropout"
  bottom: "fc7_d"
  top: "fc7_d"
  include {
    phase: TRAIN
  }
  dropout_param {
    dropout_ratio: 0.5
  }
}
layer {
  name: "fc8_d"
  type: "InnerProduct"
  bottom: "fc7_d"
  top: "fc8_d"
  inner_product_param {
    num_output: 618
    weight_filler {
      type: "msra"
    }
    bias_filler {
      type: "constant"
    }
  }
}
layer {
  name: "loss"
  type: "SigmoidCrossEntropyLoss"
  bottom: "fc8_d"
  bottom: "phocs"
  top: "loss"
}
I1219 20:01:28.106549  8306 layer_factory.hpp:77] Creating layer word_images
I1219 20:01:28.106667  8306 db_lmdb.cpp:35] Opened lmdb /data/fwolf/iam/iam-db_nti500000_pul2-3-4-5_train_word_images_lmdb
I1219 20:01:28.106704  8306 net.cpp:84] Creating Layer word_images
I1219 20:01:28.106714  8306 net.cpp:380] word_images -> word_images
I1219 20:01:28.106730  8306 net.cpp:380] word_images -> label
I1219 20:01:28.205272  8306 data_layer.cpp:44] output data size: 1,1,127,433
I1219 20:01:28.371768  8306 net.cpp:122] Setting up word_images
I1219 20:01:28.371819  8306 net.cpp:129] Top shape: 1 1 127 433 (54991)
I1219 20:01:28.371832  8306 net.cpp:129] Top shape: 1 (1)
I1219 20:01:28.371841  8306 net.cpp:137] Memory required for data: 219968
I1219 20:01:28.371851  8306 layer_factory.hpp:77] Creating layer phocs
I1219 20:01:28.371968  8306 db_lmdb.cpp:35] Opened lmdb /data/fwolf/iam/iam-db_nti500000_pul2-3-4-5_train_phocs_lmdb
I1219 20:01:28.372002  8306 net.cpp:84] Creating Layer phocs
I1219 20:01:28.372014  8306 net.cpp:380] phocs -> phocs
I1219 20:01:28.372030  8306 net.cpp:380] phocs -> label_phocs
I1219 20:01:28.372532  8306 data_layer.cpp:44] output data size: 1,1,1,618
I1219 20:01:28.448253  8306 net.cpp:122] Setting up phocs
I1219 20:01:28.448300  8306 net.cpp:129] Top shape: 1 1 1 618 (618)
I1219 20:01:28.448312  8306 net.cpp:129] Top shape: 1 (1)
I1219 20:01:28.448319  8306 net.cpp:137] Memory required for data: 222444
I1219 20:01:28.448331  8306 layer_factory.hpp:77] Creating layer conv_init
I1219 20:01:28.448360  8306 net.cpp:84] Creating Layer conv_init
I1219 20:01:28.448371  8306 net.cpp:406] conv_init <- word_images
I1219 20:01:28.448386  8306 net.cpp:380] conv_init -> conv_init
I1219 20:01:33.321215  8306 net.cpp:122] Setting up conv_init
I1219 20:01:33.321255  8306 net.cpp:129] Top shape: 1 32 127 433 (1759712)
I1219 20:01:33.321261  8306 net.cpp:137] Memory required for data: 7261292
I1219 20:01:33.321279  8306 layer_factory.hpp:77] Creating layer bn_init
I1219 20:01:33.321293  8306 net.cpp:84] Creating Layer bn_init
I1219 20:01:33.321300  8306 net.cpp:406] bn_init <- conv_init
I1219 20:01:33.321308  8306 net.cpp:380] bn_init -> bn_init
I1219 20:01:33.322638  8306 net.cpp:122] Setting up bn_init
I1219 20:01:33.322684  8306 net.cpp:129] Top shape: 1 32 127 433 (1759712)
I1219 20:01:33.322690  8306 net.cpp:137] Memory required for data: 14300140
I1219 20:01:33.322713  8306 layer_factory.hpp:77] Creating layer scale_init
I1219 20:01:33.322733  8306 net.cpp:84] Creating Layer scale_init
I1219 20:01:33.322739  8306 net.cpp:406] scale_init <- bn_init
I1219 20:01:33.322749  8306 net.cpp:367] scale_init -> bn_init (in-place)
I1219 20:01:33.322835  8306 layer_factory.hpp:77] Creating layer scale_init
I1219 20:01:33.323144  8306 net.cpp:122] Setting up scale_init
I1219 20:01:33.323155  8306 net.cpp:129] Top shape: 1 32 127 433 (1759712)
I1219 20:01:33.323160  8306 net.cpp:137] Memory required for data: 21338988
I1219 20:01:33.323170  8306 layer_factory.hpp:77] Creating layer relu_init
I1219 20:01:33.323179  8306 net.cpp:84] Creating Layer relu_init
I1219 20:01:33.323184  8306 net.cpp:406] relu_init <- bn_init
I1219 20:01:33.323191  8306 net.cpp:367] relu_init -> bn_init (in-place)
I1219 20:01:33.323482  8306 net.cpp:122] Setting up relu_init
I1219 20:01:33.323493  8306 net.cpp:129] Top shape: 1 32 127 433 (1759712)
I1219 20:01:33.323498  8306 net.cpp:137] Memory required for data: 28377836
I1219 20:01:33.323503  8306 layer_factory.hpp:77] Creating layer pool_init
I1219 20:01:33.323513  8306 net.cpp:84] Creating Layer pool_init
I1219 20:01:33.323518  8306 net.cpp:406] pool_init <- bn_init
I1219 20:01:33.323524  8306 net.cpp:380] pool_init -> pool_init
I1219 20:01:33.323602  8306 net.cpp:122] Setting up pool_init
I1219 20:01:33.323611  8306 net.cpp:129] Top shape: 1 32 64 217 (444416)
I1219 20:01:33.323616  8306 net.cpp:137] Memory required for data: 30155500
I1219 20:01:33.323621  8306 layer_factory.hpp:77] Creating layer pool_init_pool_init_0_split
I1219 20:01:33.323627  8306 net.cpp:84] Creating Layer pool_init_pool_init_0_split
I1219 20:01:33.323632  8306 net.cpp:406] pool_init_pool_init_0_split <- pool_init
I1219 20:01:33.323639  8306 net.cpp:380] pool_init_pool_init_0_split -> pool_init_pool_init_0_split_0
I1219 20:01:33.323647  8306 net.cpp:380] pool_init_pool_init_0_split -> pool_init_pool_init_0_split_1
I1219 20:01:33.323705  8306 net.cpp:122] Setting up pool_init_pool_init_0_split
I1219 20:01:33.323714  8306 net.cpp:129] Top shape: 1 32 64 217 (444416)
I1219 20:01:33.323720  8306 net.cpp:129] Top shape: 1 32 64 217 (444416)
I1219 20:01:33.323725  8306 net.cpp:137] Memory required for data: 33710828
I1219 20:01:33.323729  8306 layer_factory.hpp:77] Creating layer conv0_0/bn
I1219 20:01:33.323740  8306 net.cpp:84] Creating Layer conv0_0/bn
I1219 20:01:33.323745  8306 net.cpp:406] conv0_0/bn <- pool_init_pool_init_0_split_0
I1219 20:01:33.411823  8306 net.cpp:380] conv0_0/bn -> conv0_0/bn
I1219 20:01:33.449504  8306 net.cpp:122] Setting up conv0_0/bn
I1219 20:01:33.449542  8306 net.cpp:129] Top shape: 1 32 64 217 (444416)
I1219 20:01:33.449548  8306 net.cpp:137] Memory required for data: 35488492
I1219 20:01:33.449568  8306 layer_factory.hpp:77] Creating layer conv0_0/scale
I1219 20:01:33.449584  8306 net.cpp:84] Creating Layer conv0_0/scale
I1219 20:01:33.449589  8306 net.cpp:406] conv0_0/scale <- conv0_0/bn
I1219 20:01:33.449599  8306 net.cpp:367] conv0_0/scale -> conv0_0/bn (in-place)
I1219 20:01:33.449679  8306 layer_factory.hpp:77] Creating layer conv0_0/scale
I1219 20:01:33.449946  8306 net.cpp:122] Setting up conv0_0/scale
I1219 20:01:33.449956  8306 net.cpp:129] Top shape: 1 32 64 217 (444416)
I1219 20:01:33.449961  8306 net.cpp:137] Memory required for data: 37266156
I1219 20:01:33.449970  8306 layer_factory.hpp:77] Creating layer relu0_0
I1219 20:01:33.449977  8306 net.cpp:84] Creating Layer relu0_0
I1219 20:01:33.449982  8306 net.cpp:406] relu0_0 <- conv0_0/bn
I1219 20:01:33.449988  8306 net.cpp:367] relu0_0 -> conv0_0/bn (in-place)
I1219 20:01:33.450656  8306 net.cpp:122] Setting up relu0_0
I1219 20:01:33.450670  8306 net.cpp:129] Top shape: 1 32 64 217 (444416)
I1219 20:01:33.450675  8306 net.cpp:137] Memory required for data: 39043820
I1219 20:01:33.450680  8306 layer_factory.hpp:77] Creating layer conv0_0
I1219 20:01:33.450695  8306 net.cpp:84] Creating Layer conv0_0
I1219 20:01:33.450700  8306 net.cpp:406] conv0_0 <- conv0_0/bn
I1219 20:01:33.450708  8306 net.cpp:380] conv0_0 -> conv0_0
I1219 20:01:33.574282  8306 net.cpp:122] Setting up conv0_0
I1219 20:01:33.574316  8306 net.cpp:129] Top shape: 1 32 64 217 (444416)
I1219 20:01:33.574321  8306 net.cpp:137] Memory required for data: 40821484
I1219 20:01:33.574333  8306 layer_factory.hpp:77] Creating layer concat0_0
I1219 20:01:33.574347  8306 net.cpp:84] Creating Layer concat0_0
I1219 20:01:33.574354  8306 net.cpp:406] concat0_0 <- pool_init_pool_init_0_split_1
I1219 20:01:33.574362  8306 net.cpp:406] concat0_0 <- conv0_0
I1219 20:01:33.574369  8306 net.cpp:380] concat0_0 -> concat0_0
I1219 20:01:33.574424  8306 net.cpp:122] Setting up concat0_0
I1219 20:01:33.574431  8306 net.cpp:129] Top shape: 1 64 64 217 (888832)
I1219 20:01:33.574436  8306 net.cpp:137] Memory required for data: 44376812
I1219 20:01:33.574440  8306 layer_factory.hpp:77] Creating layer concat0_0_concat0_0_0_split
I1219 20:01:33.574448  8306 net.cpp:84] Creating Layer concat0_0_concat0_0_0_split
I1219 20:01:33.574452  8306 net.cpp:406] concat0_0_concat0_0_0_split <- concat0_0
I1219 20:01:33.574458  8306 net.cpp:380] concat0_0_concat0_0_0_split -> concat0_0_concat0_0_0_split_0
I1219 20:01:33.574467  8306 net.cpp:380] concat0_0_concat0_0_0_split -> concat0_0_concat0_0_0_split_1
I1219 20:01:33.574532  8306 net.cpp:122] Setting up concat0_0_concat0_0_0_split
I1219 20:01:33.574542  8306 net.cpp:129] Top shape: 1 64 64 217 (888832)
I1219 20:01:33.574548  8306 net.cpp:129] Top shape: 1 64 64 217 (888832)
I1219 20:01:33.574553  8306 net.cpp:137] Memory required for data: 51487468
I1219 20:01:33.574556  8306 layer_factory.hpp:77] Creating layer conv0_1/bn
I1219 20:01:33.574564  8306 net.cpp:84] Creating Layer conv0_1/bn
I1219 20:01:33.574568  8306 net.cpp:406] conv0_1/bn <- concat0_0_concat0_0_0_split_0
I1219 20:01:33.574576  8306 net.cpp:380] conv0_1/bn -> conv0_1/bn
I1219 20:01:33.574970  8306 net.cpp:122] Setting up conv0_1/bn
I1219 20:01:33.574980  8306 net.cpp:129] Top shape: 1 64 64 217 (888832)
I1219 20:01:33.574985  8306 net.cpp:137] Memory required for data: 55042796
I1219 20:01:33.574995  8306 layer_factory.hpp:77] Creating layer conv0_1/scale
I1219 20:01:33.575006  8306 net.cpp:84] Creating Layer conv0_1/scale
I1219 20:01:33.575012  8306 net.cpp:406] conv0_1/scale <- conv0_1/bn
I1219 20:01:33.575018  8306 net.cpp:367] conv0_1/scale -> conv0_1/bn (in-place)
I1219 20:01:33.575091  8306 layer_factory.hpp:77] Creating layer conv0_1/scale
I1219 20:01:33.575321  8306 net.cpp:122] Setting up conv0_1/scale
I1219 20:01:33.575336  8306 net.cpp:129] Top shape: 1 64 64 217 (888832)
I1219 20:01:33.575340  8306 net.cpp:137] Memory required for data: 58598124
I1219 20:01:33.575352  8306 layer_factory.hpp:77] Creating layer relu0_1
I1219 20:01:33.575361  8306 net.cpp:84] Creating Layer relu0_1
I1219 20:01:33.575366  8306 net.cpp:406] relu0_1 <- conv0_1/bn
I1219 20:01:33.575372  8306 net.cpp:367] relu0_1 -> conv0_1/bn (in-place)
I1219 20:01:33.575971  8306 net.cpp:122] Setting up relu0_1
I1219 20:01:33.575985  8306 net.cpp:129] Top shape: 1 64 64 217 (888832)
I1219 20:01:33.575990  8306 net.cpp:137] Memory required for data: 62153452
I1219 20:01:33.575995  8306 layer_factory.hpp:77] Creating layer conv0_1
I1219 20:01:33.576011  8306 net.cpp:84] Creating Layer conv0_1
I1219 20:01:33.576016  8306 net.cpp:406] conv0_1 <- conv0_1/bn
I1219 20:01:33.576025  8306 net.cpp:380] conv0_1 -> conv0_1
I1219 20:01:33.579526  8306 net.cpp:122] Setting up conv0_1
I1219 20:01:33.579555  8306 net.cpp:129] Top shape: 1 32 64 217 (444416)
I1219 20:01:33.579560  8306 net.cpp:137] Memory required for data: 63931116
I1219 20:01:33.579569  8306 layer_factory.hpp:77] Creating layer concat0_1
I1219 20:01:33.579581  8306 net.cpp:84] Creating Layer concat0_1
I1219 20:01:33.579587  8306 net.cpp:406] concat0_1 <- concat0_0_concat0_0_0_split_1
I1219 20:01:33.579596  8306 net.cpp:406] concat0_1 <- conv0_1
I1219 20:01:33.579602  8306 net.cpp:380] concat0_1 -> concat0_1
I1219 20:01:33.579656  8306 net.cpp:122] Setting up concat0_1
I1219 20:01:33.579665  8306 net.cpp:129] Top shape: 1 96 64 217 (1333248)
I1219 20:01:33.579669  8306 net.cpp:137] Memory required for data: 69264108
I1219 20:01:33.579674  8306 layer_factory.hpp:77] Creating layer concat0_1_concat0_1_0_split
I1219 20:01:33.579684  8306 net.cpp:84] Creating Layer concat0_1_concat0_1_0_split
I1219 20:01:33.579687  8306 net.cpp:406] concat0_1_concat0_1_0_split <- concat0_1
I1219 20:01:33.579696  8306 net.cpp:380] concat0_1_concat0_1_0_split -> concat0_1_concat0_1_0_split_0
I1219 20:01:33.579704  8306 net.cpp:380] concat0_1_concat0_1_0_split -> concat0_1_concat0_1_0_split_1
I1219 20:01:33.667896  8306 net.cpp:122] Setting up concat0_1_concat0_1_0_split
I1219 20:01:33.667937  8306 net.cpp:129] Top shape: 1 96 64 217 (1333248)
I1219 20:01:33.667944  8306 net.cpp:129] Top shape: 1 96 64 217 (1333248)
I1219 20:01:33.667949  8306 net.cpp:137] Memory required for data: 79930092
I1219 20:01:33.667958  8306 layer_factory.hpp:77] Creating layer conv0_2/bn
I1219 20:01:33.667974  8306 net.cpp:84] Creating Layer conv0_2/bn
I1219 20:01:33.667981  8306 net.cpp:406] conv0_2/bn <- concat0_1_concat0_1_0_split_0
I1219 20:01:33.667994  8306 net.cpp:380] conv0_2/bn -> conv0_2/bn
I1219 20:01:33.668506  8306 net.cpp:122] Setting up conv0_2/bn
I1219 20:01:33.668522  8306 net.cpp:129] Top shape: 1 96 64 217 (1333248)
I1219 20:01:33.668527  8306 net.cpp:137] Memory required for data: 85263084
I1219 20:01:33.668541  8306 layer_factory.hpp:77] Creating layer conv0_2/scale
I1219 20:01:33.668552  8306 net.cpp:84] Creating Layer conv0_2/scale
I1219 20:01:33.668558  8306 net.cpp:406] conv0_2/scale <- conv0_2/bn
I1219 20:01:33.668567  8306 net.cpp:367] conv0_2/scale -> conv0_2/bn (in-place)
I1219 20:01:33.668655  8306 layer_factory.hpp:77] Creating layer conv0_2/scale
I1219 20:01:33.668926  8306 net.cpp:122] Setting up conv0_2/scale
I1219 20:01:33.668939  8306 net.cpp:129] Top shape: 1 96 64 217 (1333248)
I1219 20:01:33.668943  8306 net.cpp:137] Memory required for data: 90596076
I1219 20:01:33.668953  8306 layer_factory.hpp:77] Creating layer relu0_2
I1219 20:01:33.668962  8306 net.cpp:84] Creating Layer relu0_2
I1219 20:01:33.668967  8306 net.cpp:406] relu0_2 <- conv0_2/bn
I1219 20:01:33.668977  8306 net.cpp:367] relu0_2 -> conv0_2/bn (in-place)
I1219 20:01:33.669302  8306 net.cpp:122] Setting up relu0_2
I1219 20:01:33.669319  8306 net.cpp:129] Top shape: 1 96 64 217 (1333248)
I1219 20:01:33.669324  8306 net.cpp:137] Memory required for data: 95929068
I1219 20:01:33.669329  8306 layer_factory.hpp:77] Creating layer conv0_2
I1219 20:01:33.669345  8306 net.cpp:84] Creating Layer conv0_2
I1219 20:01:33.669356  8306 net.cpp:406] conv0_2 <- conv0_2/bn
I1219 20:01:33.669364  8306 net.cpp:380] conv0_2 -> conv0_2
I1219 20:01:33.676472  8306 net.cpp:122] Setting up conv0_2
I1219 20:01:33.676512  8306 net.cpp:129] Top shape: 1 32 64 217 (444416)
I1219 20:01:33.676518  8306 net.cpp:137] Memory required for data: 97706732
I1219 20:01:33.676532  8306 layer_factory.hpp:77] Creating layer concat0_2
I1219 20:01:33.676548  8306 net.cpp:84] Creating Layer concat0_2
I1219 20:01:33.676555  8306 net.cpp:406] concat0_2 <- concat0_1_concat0_1_0_split_1
I1219 20:01:33.676564  8306 net.cpp:406] concat0_2 <- conv0_2
I1219 20:01:33.676573  8306 net.cpp:380] concat0_2 -> concat0_2
I1219 20:01:33.676627  8306 net.cpp:122] Setting up concat0_2
I1219 20:01:33.676635  8306 net.cpp:129] Top shape: 1 128 64 217 (1777664)
I1219 20:01:33.676640  8306 net.cpp:137] Memory required for data: 104817388
I1219 20:01:33.676645  8306 layer_factory.hpp:77] Creating layer concat0_2_concat0_2_0_split
I1219 20:01:33.676651  8306 net.cpp:84] Creating Layer concat0_2_concat0_2_0_split
I1219 20:01:33.676656  8306 net.cpp:406] concat0_2_concat0_2_0_split <- concat0_2
I1219 20:01:33.676667  8306 net.cpp:380] concat0_2_concat0_2_0_split -> concat0_2_concat0_2_0_split_0
I1219 20:01:33.676676  8306 net.cpp:380] concat0_2_concat0_2_0_split -> concat0_2_concat0_2_0_split_1
I1219 20:01:33.676741  8306 net.cpp:122] Setting up concat0_2_concat0_2_0_split
I1219 20:01:33.676750  8306 net.cpp:129] Top shape: 1 128 64 217 (1777664)
I1219 20:01:33.676756  8306 net.cpp:129] Top shape: 1 128 64 217 (1777664)
I1219 20:01:33.676760  8306 net.cpp:137] Memory required for data: 119038700
I1219 20:01:33.676765  8306 layer_factory.hpp:77] Creating layer conv0_3/bn
I1219 20:01:33.676774  8306 net.cpp:84] Creating Layer conv0_3/bn
I1219 20:01:33.676779  8306 net.cpp:406] conv0_3/bn <- concat0_2_concat0_2_0_split_0
I1219 20:01:33.676786  8306 net.cpp:380] conv0_3/bn -> conv0_3/bn
I1219 20:01:33.677219  8306 net.cpp:122] Setting up conv0_3/bn
I1219 20:01:33.677233  8306 net.cpp:129] Top shape: 1 128 64 217 (1777664)
I1219 20:01:33.677238  8306 net.cpp:137] Memory required for data: 126149356
I1219 20:01:33.677251  8306 layer_factory.hpp:77] Creating layer conv0_3/scale
I1219 20:01:33.677265  8306 net.cpp:84] Creating Layer conv0_3/scale
I1219 20:01:33.677270  8306 net.cpp:406] conv0_3/scale <- conv0_3/bn
I1219 20:01:33.677278  8306 net.cpp:367] conv0_3/scale -> conv0_3/bn (in-place)
I1219 20:01:33.677354  8306 layer_factory.hpp:77] Creating layer conv0_3/scale
I1219 20:01:33.677585  8306 net.cpp:122] Setting up conv0_3/scale
I1219 20:01:33.677597  8306 net.cpp:129] Top shape: 1 128 64 217 (1777664)
I1219 20:01:33.677601  8306 net.cpp:137] Memory required for data: 133260012
I1219 20:01:33.677609  8306 layer_factory.hpp:77] Creating layer relu0_3
I1219 20:01:33.677620  8306 net.cpp:84] Creating Layer relu0_3
I1219 20:01:33.677625  8306 net.cpp:406] relu0_3 <- conv0_3/bn
I1219 20:01:33.677633  8306 net.cpp:367] relu0_3 -> conv0_3/bn (in-place)
I1219 20:01:33.678396  8306 net.cpp:122] Setting up relu0_3
I1219 20:01:33.678419  8306 net.cpp:129] Top shape: 1 128 64 217 (1777664)
I1219 20:01:33.678424  8306 net.cpp:137] Memory required for data: 140370668
I1219 20:01:33.678431  8306 layer_factory.hpp:77] Creating layer conv0_3
I1219 20:01:33.678452  8306 net.cpp:84] Creating Layer conv0_3
I1219 20:01:33.678458  8306 net.cpp:406] conv0_3 <- conv0_3/bn
I1219 20:01:33.678467  8306 net.cpp:380] conv0_3 -> conv0_3
I1219 20:01:33.726532  8306 net.cpp:122] Setting up conv0_3
I1219 20:01:33.726574  8306 net.cpp:129] Top shape: 1 32 64 217 (444416)
I1219 20:01:33.726580  8306 net.cpp:137] Memory required for data: 142148332
I1219 20:01:33.726593  8306 layer_factory.hpp:77] Creating layer concat0_3
I1219 20:01:33.726608  8306 net.cpp:84] Creating Layer concat0_3
I1219 20:01:33.726614  8306 net.cpp:406] concat0_3 <- concat0_2_concat0_2_0_split_1
I1219 20:01:33.726622  8306 net.cpp:406] concat0_3 <- conv0_3
I1219 20:01:33.726632  8306 net.cpp:380] concat0_3 -> concat0_3
I1219 20:01:33.726753  8306 net.cpp:122] Setting up concat0_3
I1219 20:01:33.726763  8306 net.cpp:129] Top shape: 1 160 64 217 (2222080)
I1219 20:01:33.726766  8306 net.cpp:137] Memory required for data: 151036652
I1219 20:01:33.726771  8306 layer_factory.hpp:77] Creating layer concat0_3_concat0_3_0_split
I1219 20:01:33.726779  8306 net.cpp:84] Creating Layer concat0_3_concat0_3_0_split
I1219 20:01:33.726784  8306 net.cpp:406] concat0_3_concat0_3_0_split <- concat0_3
I1219 20:01:33.726794  8306 net.cpp:380] concat0_3_concat0_3_0_split -> concat0_3_concat0_3_0_split_0
I1219 20:01:33.726802  8306 net.cpp:380] concat0_3_concat0_3_0_split -> concat0_3_concat0_3_0_split_1
I1219 20:01:33.726877  8306 net.cpp:122] Setting up concat0_3_concat0_3_0_split
I1219 20:01:33.726886  8306 net.cpp:129] Top shape: 1 160 64 217 (2222080)
I1219 20:01:33.726891  8306 net.cpp:129] Top shape: 1 160 64 217 (2222080)
I1219 20:01:33.726896  8306 net.cpp:137] Memory required for data: 168813292
I1219 20:01:33.726900  8306 layer_factory.hpp:77] Creating layer conv0_4/bn
I1219 20:01:33.726912  8306 net.cpp:84] Creating Layer conv0_4/bn
I1219 20:01:33.726917  8306 net.cpp:406] conv0_4/bn <- concat0_3_concat0_3_0_split_0
I1219 20:01:33.726923  8306 net.cpp:380] conv0_4/bn -> conv0_4/bn
I1219 20:01:33.727368  8306 net.cpp:122] Setting up conv0_4/bn
I1219 20:01:33.727380  8306 net.cpp:129] Top shape: 1 160 64 217 (2222080)
I1219 20:01:33.727385  8306 net.cpp:137] Memory required for data: 177701612
I1219 20:01:33.727401  8306 layer_factory.hpp:77] Creating layer conv0_4/scale
I1219 20:01:33.727414  8306 net.cpp:84] Creating Layer conv0_4/scale
I1219 20:01:33.727419  8306 net.cpp:406] conv0_4/scale <- conv0_4/bn
I1219 20:01:33.727427  8306 net.cpp:367] conv0_4/scale -> conv0_4/bn (in-place)
I1219 20:01:33.727502  8306 layer_factory.hpp:77] Creating layer conv0_4/scale
I1219 20:01:33.727742  8306 net.cpp:122] Setting up conv0_4/scale
I1219 20:01:33.751755  8306 net.cpp:129] Top shape: 1 160 64 217 (2222080)
I1219 20:01:33.751766  8306 net.cpp:137] Memory required for data: 186589932
I1219 20:01:33.751780  8306 layer_factory.hpp:77] Creating layer relu0_4
I1219 20:01:33.751791  8306 net.cpp:84] Creating Layer relu0_4
I1219 20:01:33.751798  8306 net.cpp:406] relu0_4 <- conv0_4/bn
I1219 20:01:33.751807  8306 net.cpp:367] relu0_4 -> conv0_4/bn (in-place)
I1219 20:01:33.752152  8306 net.cpp:122] Setting up relu0_4
I1219 20:01:33.752164  8306 net.cpp:129] Top shape: 1 160 64 217 (2222080)
I1219 20:01:33.752169  8306 net.cpp:137] Memory required for data: 195478252
I1219 20:01:33.752174  8306 layer_factory.hpp:77] Creating layer conv0_4
I1219 20:01:33.752190  8306 net.cpp:84] Creating Layer conv0_4
I1219 20:01:33.752195  8306 net.cpp:406] conv0_4 <- conv0_4/bn
I1219 20:01:33.752204  8306 net.cpp:380] conv0_4 -> conv0_4
I1219 20:01:33.778728  8306 net.cpp:122] Setting up conv0_4
I1219 20:01:33.778764  8306 net.cpp:129] Top shape: 1 32 64 217 (444416)
I1219 20:01:33.778769  8306 net.cpp:137] Memory required for data: 197255916
I1219 20:01:33.778781  8306 layer_factory.hpp:77] Creating layer concat0_4
I1219 20:01:33.778796  8306 net.cpp:84] Creating Layer concat0_4
I1219 20:01:33.778803  8306 net.cpp:406] concat0_4 <- concat0_3_concat0_3_0_split_1
I1219 20:01:33.778812  8306 net.cpp:406] concat0_4 <- conv0_4
I1219 20:01:33.778820  8306 net.cpp:380] concat0_4 -> concat0_4
I1219 20:01:33.778877  8306 net.cpp:122] Setting up concat0_4
I1219 20:01:33.778887  8306 net.cpp:129] Top shape: 1 192 64 217 (2666496)
I1219 20:01:33.778892  8306 net.cpp:137] Memory required for data: 207921900
I1219 20:01:33.778897  8306 layer_factory.hpp:77] Creating layer concat0_4_concat0_4_0_split
I1219 20:01:33.778904  8306 net.cpp:84] Creating Layer concat0_4_concat0_4_0_split
I1219 20:01:33.778909  8306 net.cpp:406] concat0_4_concat0_4_0_split <- concat0_4
I1219 20:01:33.778915  8306 net.cpp:380] concat0_4_concat0_4_0_split -> concat0_4_concat0_4_0_split_0
I1219 20:01:33.778926  8306 net.cpp:380] concat0_4_concat0_4_0_split -> concat0_4_concat0_4_0_split_1
I1219 20:01:33.779001  8306 net.cpp:122] Setting up concat0_4_concat0_4_0_split
I1219 20:01:33.779016  8306 net.cpp:129] Top shape: 1 192 64 217 (2666496)
I1219 20:01:33.779021  8306 net.cpp:129] Top shape: 1 192 64 217 (2666496)
I1219 20:01:33.779026  8306 net.cpp:137] Memory required for data: 229253868
I1219 20:01:33.779031  8306 layer_factory.hpp:77] Creating layer conv0_5/bn
I1219 20:01:33.779038  8306 net.cpp:84] Creating Layer conv0_5/bn
I1219 20:01:33.779043  8306 net.cpp:406] conv0_5/bn <- concat0_4_concat0_4_0_split_0
I1219 20:01:33.779052  8306 net.cpp:380] conv0_5/bn -> conv0_5/bn
I1219 20:01:33.779479  8306 net.cpp:122] Setting up conv0_5/bn
I1219 20:01:33.779489  8306 net.cpp:129] Top shape: 1 192 64 217 (2666496)
I1219 20:01:33.779494  8306 net.cpp:137] Memory required for data: 239919852
I1219 20:01:33.779505  8306 layer_factory.hpp:77] Creating layer conv0_5/scale
I1219 20:01:33.779516  8306 net.cpp:84] Creating Layer conv0_5/scale
I1219 20:01:33.779521  8306 net.cpp:406] conv0_5/scale <- conv0_5/bn
I1219 20:01:33.779528  8306 net.cpp:367] conv0_5/scale -> conv0_5/bn (in-place)
I1219 20:01:33.779601  8306 layer_factory.hpp:77] Creating layer conv0_5/scale
I1219 20:01:33.788015  8306 net.cpp:122] Setting up conv0_5/scale
I1219 20:01:33.788053  8306 net.cpp:129] Top shape: 1 192 64 217 (2666496)
I1219 20:01:33.788058  8306 net.cpp:137] Memory required for data: 250585836
I1219 20:01:33.788071  8306 layer_factory.hpp:77] Creating layer relu0_5
I1219 20:01:33.788085  8306 net.cpp:84] Creating Layer relu0_5
I1219 20:01:33.788094  8306 net.cpp:406] relu0_5 <- conv0_5/bn
I1219 20:01:33.788101  8306 net.cpp:367] relu0_5 -> conv0_5/bn (in-place)
I1219 20:01:33.788835  8306 net.cpp:122] Setting up relu0_5
I1219 20:01:33.788849  8306 net.cpp:129] Top shape: 1 192 64 217 (2666496)
I1219 20:01:33.788854  8306 net.cpp:137] Memory required for data: 261251820
I1219 20:01:33.788859  8306 layer_factory.hpp:77] Creating layer conv0_5
I1219 20:01:33.788875  8306 net.cpp:84] Creating Layer conv0_5
I1219 20:01:33.788880  8306 net.cpp:406] conv0_5 <- conv0_5/bn
I1219 20:01:33.788889  8306 net.cpp:380] conv0_5 -> conv0_5
I1219 20:01:33.807587  8306 net.cpp:122] Setting up conv0_5
I1219 20:01:33.807626  8306 net.cpp:129] Top shape: 1 32 64 217 (444416)
I1219 20:01:33.807631  8306 net.cpp:137] Memory required for data: 263029484
I1219 20:01:33.807642  8306 layer_factory.hpp:77] Creating layer concat0_5
I1219 20:01:33.807657  8306 net.cpp:84] Creating Layer concat0_5
I1219 20:01:33.807664  8306 net.cpp:406] concat0_5 <- concat0_4_concat0_4_0_split_1
I1219 20:01:33.807673  8306 net.cpp:406] concat0_5 <- conv0_5
I1219 20:01:33.807680  8306 net.cpp:380] concat0_5 -> concat0_5
I1219 20:01:33.807741  8306 net.cpp:122] Setting up concat0_5
I1219 20:01:33.807760  8306 net.cpp:129] Top shape: 1 224 64 217 (3110912)
I1219 20:01:33.807763  8306 net.cpp:137] Memory required for data: 275473132
I1219 20:01:33.807768  8306 layer_factory.hpp:77] Creating layer BatchNorm1
I1219 20:01:33.807777  8306 net.cpp:84] Creating Layer BatchNorm1
I1219 20:01:33.807781  8306 net.cpp:406] BatchNorm1 <- concat0_5
I1219 20:01:33.807790  8306 net.cpp:380] BatchNorm1 -> BatchNorm1
I1219 20:01:33.815953  8306 net.cpp:122] Setting up BatchNorm1
I1219 20:01:33.815991  8306 net.cpp:129] Top shape: 1 224 64 217 (3110912)
I1219 20:01:33.815996  8306 net.cpp:137] Memory required for data: 287916780
I1219 20:01:33.816012  8306 layer_factory.hpp:77] Creating layer Scale1
I1219 20:01:33.816030  8306 net.cpp:84] Creating Layer Scale1
I1219 20:01:33.816036  8306 net.cpp:406] Scale1 <- BatchNorm1
I1219 20:01:33.816046  8306 net.cpp:367] Scale1 -> BatchNorm1 (in-place)
I1219 20:01:33.816133  8306 layer_factory.hpp:77] Creating layer Scale1
I1219 20:01:33.816431  8306 net.cpp:122] Setting up Scale1
I1219 20:01:33.816440  8306 net.cpp:129] Top shape: 1 224 64 217 (3110912)
I1219 20:01:33.816444  8306 net.cpp:137] Memory required for data: 300360428
I1219 20:01:33.816453  8306 layer_factory.hpp:77] Creating layer ReLU1
I1219 20:01:33.816462  8306 net.cpp:84] Creating Layer ReLU1
I1219 20:01:33.816471  8306 net.cpp:406] ReLU1 <- BatchNorm1
I1219 20:01:33.816478  8306 net.cpp:367] ReLU1 -> BatchNorm1 (in-place)
I1219 20:01:33.817220  8306 net.cpp:122] Setting up ReLU1
I1219 20:01:33.817240  8306 net.cpp:129] Top shape: 1 224 64 217 (3110912)
I1219 20:01:33.817245  8306 net.cpp:137] Memory required for data: 312804076
I1219 20:01:33.817251  8306 layer_factory.hpp:77] Creating layer conv0_blk
I1219 20:01:33.817270  8306 net.cpp:84] Creating Layer conv0_blk
I1219 20:01:33.817276  8306 net.cpp:406] conv0_blk <- BatchNorm1
I1219 20:01:33.817286  8306 net.cpp:380] conv0_blk -> conv0_blk
I1219 20:01:33.822357  8306 net.cpp:122] Setting up conv0_blk
I1219 20:01:33.822392  8306 net.cpp:129] Top shape: 1 224 64 217 (3110912)
I1219 20:01:33.822397  8306 net.cpp:137] Memory required for data: 325247724
I1219 20:01:33.822409  8306 layer_factory.hpp:77] Creating layer pool0
I1219 20:01:33.822424  8306 net.cpp:84] Creating Layer pool0
I1219 20:01:33.822432  8306 net.cpp:406] pool0 <- conv0_blk
I1219 20:01:33.822441  8306 net.cpp:380] pool0 -> pool0
I1219 20:01:33.824548  8306 net.cpp:122] Setting up pool0
I1219 20:01:33.824584  8306 net.cpp:129] Top shape: 1 224 32 109 (781312)
I1219 20:01:33.824589  8306 net.cpp:137] Memory required for data: 328372972
I1219 20:01:33.824597  8306 layer_factory.hpp:77] Creating layer pool0_pool0_0_split
I1219 20:01:33.824609  8306 net.cpp:84] Creating Layer pool0_pool0_0_split
I1219 20:01:33.824615  8306 net.cpp:406] pool0_pool0_0_split <- pool0
I1219 20:01:33.824627  8306 net.cpp:380] pool0_pool0_0_split -> pool0_pool0_0_split_0
I1219 20:01:33.824638  8306 net.cpp:380] pool0_pool0_0_split -> pool0_pool0_0_split_1
I1219 20:01:33.824725  8306 net.cpp:122] Setting up pool0_pool0_0_split
I1219 20:01:33.824733  8306 net.cpp:129] Top shape: 1 224 32 109 (781312)
I1219 20:01:33.824739  8306 net.cpp:129] Top shape: 1 224 32 109 (781312)
I1219 20:01:33.824744  8306 net.cpp:137] Memory required for data: 334623468
I1219 20:01:33.824748  8306 layer_factory.hpp:77] Creating layer conv1_0/bn
I1219 20:01:33.824756  8306 net.cpp:84] Creating Layer conv1_0/bn
I1219 20:01:33.824761  8306 net.cpp:406] conv1_0/bn <- pool0_pool0_0_split_0
I1219 20:01:33.824779  8306 net.cpp:380] conv1_0/bn -> conv1_0/bn
I1219 20:01:33.891667  8306 net.cpp:122] Setting up conv1_0/bn
I1219 20:01:33.891706  8306 net.cpp:129] Top shape: 1 224 32 109 (781312)
I1219 20:01:33.891711  8306 net.cpp:137] Memory required for data: 337748716
I1219 20:01:33.891729  8306 layer_factory.hpp:77] Creating layer conv1_0/scale
I1219 20:01:33.891746  8306 net.cpp:84] Creating Layer conv1_0/scale
I1219 20:01:33.891762  8306 net.cpp:406] conv1_0/scale <- conv1_0/bn
I1219 20:01:33.891772  8306 net.cpp:367] conv1_0/scale -> conv1_0/bn (in-place)
I1219 20:01:33.891860  8306 layer_factory.hpp:77] Creating layer conv1_0/scale
I1219 20:01:33.892132  8306 net.cpp:122] Setting up conv1_0/scale
I1219 20:01:33.892145  8306 net.cpp:129] Top shape: 1 224 32 109 (781312)
I1219 20:01:33.892150  8306 net.cpp:137] Memory required for data: 340873964
I1219 20:01:33.892159  8306 layer_factory.hpp:77] Creating layer relu1_0
I1219 20:01:33.892168  8306 net.cpp:84] Creating Layer relu1_0
I1219 20:01:33.892174  8306 net.cpp:406] relu1_0 <- conv1_0/bn
I1219 20:01:33.892179  8306 net.cpp:367] relu1_0 -> conv1_0/bn (in-place)
I1219 20:01:33.892874  8306 net.cpp:122] Setting up relu1_0
I1219 20:01:33.892889  8306 net.cpp:129] Top shape: 1 224 32 109 (781312)
I1219 20:01:33.892894  8306 net.cpp:137] Memory required for data: 343999212
I1219 20:01:33.892899  8306 layer_factory.hpp:77] Creating layer conv1_0
I1219 20:01:33.892915  8306 net.cpp:84] Creating Layer conv1_0
I1219 20:01:33.892920  8306 net.cpp:406] conv1_0 <- conv1_0/bn
I1219 20:01:33.892928  8306 net.cpp:380] conv1_0 -> conv1_0
I1219 20:01:34.051545  8306 net.cpp:122] Setting up conv1_0
I1219 20:01:34.051585  8306 net.cpp:129] Top shape: 1 32 32 109 (111616)
I1219 20:01:34.051591  8306 net.cpp:137] Memory required for data: 344445676
I1219 20:01:34.051604  8306 layer_factory.hpp:77] Creating layer concat1_0
I1219 20:01:34.051622  8306 net.cpp:84] Creating Layer concat1_0
I1219 20:01:34.051630  8306 net.cpp:406] concat1_0 <- pool0_pool0_0_split_1
I1219 20:01:34.051638  8306 net.cpp:406] concat1_0 <- conv1_0
I1219 20:01:34.051646  8306 net.cpp:380] concat1_0 -> concat1_0
I1219 20:01:34.051707  8306 net.cpp:122] Setting up concat1_0
I1219 20:01:34.051715  8306 net.cpp:129] Top shape: 1 256 32 109 (892928)
I1219 20:01:34.051719  8306 net.cpp:137] Memory required for data: 348017388
I1219 20:01:34.051724  8306 layer_factory.hpp:77] Creating layer concat1_0_concat1_0_0_split
I1219 20:01:34.051731  8306 net.cpp:84] Creating Layer concat1_0_concat1_0_0_split
I1219 20:01:34.051736  8306 net.cpp:406] concat1_0_concat1_0_0_split <- concat1_0
I1219 20:01:34.051743  8306 net.cpp:380] concat1_0_concat1_0_0_split -> concat1_0_concat1_0_0_split_0
I1219 20:01:34.059351  8306 net.cpp:380] concat1_0_concat1_0_0_split -> concat1_0_concat1_0_0_split_1
I1219 20:01:34.059535  8306 net.cpp:122] Setting up concat1_0_concat1_0_0_split
I1219 20:01:34.059551  8306 net.cpp:129] Top shape: 1 256 32 109 (892928)
I1219 20:01:34.059556  8306 net.cpp:129] Top shape: 1 256 32 109 (892928)
I1219 20:01:34.059561  8306 net.cpp:137] Memory required for data: 355160812
I1219 20:01:34.059566  8306 layer_factory.hpp:77] Creating layer conv1_1/bn
I1219 20:01:34.059576  8306 net.cpp:84] Creating Layer conv1_1/bn
I1219 20:01:34.059581  8306 net.cpp:406] conv1_1/bn <- concat1_0_concat1_0_0_split_0
I1219 20:01:34.059592  8306 net.cpp:380] conv1_1/bn -> conv1_1/bn
I1219 20:01:34.060048  8306 net.cpp:122] Setting up conv1_1/bn
I1219 20:01:34.060060  8306 net.cpp:129] Top shape: 1 256 32 109 (892928)
I1219 20:01:34.060065  8306 net.cpp:137] Memory required for data: 358732524
I1219 20:01:34.060077  8306 layer_factory.hpp:77] Creating layer conv1_1/scale
I1219 20:01:34.060088  8306 net.cpp:84] Creating Layer conv1_1/scale
I1219 20:01:34.060093  8306 net.cpp:406] conv1_1/scale <- conv1_1/bn
I1219 20:01:34.060102  8306 net.cpp:367] conv1_1/scale -> conv1_1/bn (in-place)
I1219 20:01:34.060183  8306 layer_factory.hpp:77] Creating layer conv1_1/scale
I1219 20:01:34.060408  8306 net.cpp:122] Setting up conv1_1/scale
I1219 20:01:34.060417  8306 net.cpp:129] Top shape: 1 256 32 109 (892928)
I1219 20:01:34.060422  8306 net.cpp:137] Memory required for data: 362304236
I1219 20:01:34.060431  8306 layer_factory.hpp:77] Creating layer relu1_1
I1219 20:01:34.060439  8306 net.cpp:84] Creating Layer relu1_1
I1219 20:01:34.060444  8306 net.cpp:406] relu1_1 <- conv1_1/bn
I1219 20:01:34.060451  8306 net.cpp:367] relu1_1 -> conv1_1/bn (in-place)
I1219 20:01:34.060757  8306 net.cpp:122] Setting up relu1_1
I1219 20:01:34.060770  8306 net.cpp:129] Top shape: 1 256 32 109 (892928)
I1219 20:01:34.060773  8306 net.cpp:137] Memory required for data: 365875948
I1219 20:01:34.060778  8306 layer_factory.hpp:77] Creating layer conv1_1
I1219 20:01:34.060792  8306 net.cpp:84] Creating Layer conv1_1
I1219 20:01:34.060799  8306 net.cpp:406] conv1_1 <- conv1_1/bn
I1219 20:01:34.060807  8306 net.cpp:380] conv1_1 -> conv1_1
I1219 20:01:34.071238  8306 net.cpp:122] Setting up conv1_1
I1219 20:01:34.071280  8306 net.cpp:129] Top shape: 1 32 32 109 (111616)
I1219 20:01:34.071285  8306 net.cpp:137] Memory required for data: 366322412
I1219 20:01:34.071301  8306 layer_factory.hpp:77] Creating layer concat1_1
I1219 20:01:34.071316  8306 net.cpp:84] Creating Layer concat1_1
I1219 20:01:34.071322  8306 net.cpp:406] concat1_1 <- concat1_0_concat1_0_0_split_1
I1219 20:01:34.071332  8306 net.cpp:406] concat1_1 <- conv1_1
I1219 20:01:34.071346  8306 net.cpp:380] concat1_1 -> concat1_1
I1219 20:01:34.071446  8306 net.cpp:122] Setting up concat1_1
I1219 20:01:34.071456  8306 net.cpp:129] Top shape: 1 288 32 109 (1004544)
I1219 20:01:34.071460  8306 net.cpp:137] Memory required for data: 370340588
I1219 20:01:34.071465  8306 layer_factory.hpp:77] Creating layer concat1_1_concat1_1_0_split
I1219 20:01:34.071473  8306 net.cpp:84] Creating Layer concat1_1_concat1_1_0_split
I1219 20:01:34.071478  8306 net.cpp:406] concat1_1_concat1_1_0_split <- concat1_1
I1219 20:01:34.071492  8306 net.cpp:380] concat1_1_concat1_1_0_split -> concat1_1_concat1_1_0_split_0
I1219 20:01:34.071501  8306 net.cpp:380] concat1_1_concat1_1_0_split -> concat1_1_concat1_1_0_split_1
I1219 20:01:34.071588  8306 net.cpp:122] Setting up concat1_1_concat1_1_0_split
I1219 20:01:34.071597  8306 net.cpp:129] Top shape: 1 288 32 109 (1004544)
I1219 20:01:34.071604  8306 net.cpp:129] Top shape: 1 288 32 109 (1004544)
I1219 20:01:34.071607  8306 net.cpp:137] Memory required for data: 378376940
I1219 20:01:34.071612  8306 layer_factory.hpp:77] Creating layer conv1_2/bn
I1219 20:01:34.071624  8306 net.cpp:84] Creating Layer conv1_2/bn
I1219 20:01:34.071630  8306 net.cpp:406] conv1_2/bn <- concat1_1_concat1_1_0_split_0
I1219 20:01:34.071637  8306 net.cpp:380] conv1_2/bn -> conv1_2/bn
I1219 20:01:34.072170  8306 net.cpp:122] Setting up conv1_2/bn
I1219 20:01:34.072193  8306 net.cpp:129] Top shape: 1 288 32 109 (1004544)
I1219 20:01:34.072198  8306 net.cpp:137] Memory required for data: 382395116
I1219 20:01:34.072212  8306 layer_factory.hpp:77] Creating layer conv1_2/scale
I1219 20:01:34.072227  8306 net.cpp:84] Creating Layer conv1_2/scale
I1219 20:01:34.072232  8306 net.cpp:406] conv1_2/scale <- conv1_2/bn
I1219 20:01:34.072242  8306 net.cpp:367] conv1_2/scale -> conv1_2/bn (in-place)
I1219 20:01:34.072341  8306 layer_factory.hpp:77] Creating layer conv1_2/scale
I1219 20:01:34.072616  8306 net.cpp:122] Setting up conv1_2/scale
I1219 20:01:34.072628  8306 net.cpp:129] Top shape: 1 288 32 109 (1004544)
I1219 20:01:34.072633  8306 net.cpp:137] Memory required for data: 386413292
I1219 20:01:34.072652  8306 layer_factory.hpp:77] Creating layer relu1_2
I1219 20:01:34.072662  8306 net.cpp:84] Creating Layer relu1_2
I1219 20:01:34.072667  8306 net.cpp:406] relu1_2 <- conv1_2/bn
I1219 20:01:34.072674  8306 net.cpp:367] relu1_2 -> conv1_2/bn (in-place)
I1219 20:01:34.073606  8306 net.cpp:122] Setting up relu1_2
I1219 20:01:34.073635  8306 net.cpp:129] Top shape: 1 288 32 109 (1004544)
I1219 20:01:34.073640  8306 net.cpp:137] Memory required for data: 390431468
I1219 20:01:34.073647  8306 layer_factory.hpp:77] Creating layer conv1_2
I1219 20:01:34.073671  8306 net.cpp:84] Creating Layer conv1_2
I1219 20:01:34.073678  8306 net.cpp:406] conv1_2 <- conv1_2/bn
I1219 20:01:34.073688  8306 net.cpp:380] conv1_2 -> conv1_2
I1219 20:01:34.081938  8306 net.cpp:122] Setting up conv1_2
I1219 20:01:34.081979  8306 net.cpp:129] Top shape: 1 32 32 109 (111616)
I1219 20:01:34.081984  8306 net.cpp:137] Memory required for data: 390877932
I1219 20:01:34.081997  8306 layer_factory.hpp:77] Creating layer concat1_2
I1219 20:01:34.082011  8306 net.cpp:84] Creating Layer concat1_2
I1219 20:01:34.082020  8306 net.cpp:406] concat1_2 <- concat1_1_concat1_1_0_split_1
I1219 20:01:34.082029  8306 net.cpp:406] concat1_2 <- conv1_2
I1219 20:01:34.082037  8306 net.cpp:380] concat1_2 -> concat1_2
I1219 20:01:34.082104  8306 net.cpp:122] Setting up concat1_2
I1219 20:01:34.082113  8306 net.cpp:129] Top shape: 1 320 32 109 (1116160)
I1219 20:01:34.082118  8306 net.cpp:137] Memory required for data: 395342572
I1219 20:01:34.082123  8306 layer_factory.hpp:77] Creating layer concat1_2_concat1_2_0_split
I1219 20:01:34.082131  8306 net.cpp:84] Creating Layer concat1_2_concat1_2_0_split
I1219 20:01:34.082136  8306 net.cpp:406] concat1_2_concat1_2_0_split <- concat1_2
I1219 20:01:34.082142  8306 net.cpp:380] concat1_2_concat1_2_0_split -> concat1_2_concat1_2_0_split_0
I1219 20:01:34.082150  8306 net.cpp:380] concat1_2_concat1_2_0_split -> concat1_2_concat1_2_0_split_1
I1219 20:01:34.082223  8306 net.cpp:122] Setting up concat1_2_concat1_2_0_split
I1219 20:01:34.082232  8306 net.cpp:129] Top shape: 1 320 32 109 (1116160)
I1219 20:01:34.082237  8306 net.cpp:129] Top shape: 1 320 32 109 (1116160)
I1219 20:01:34.082242  8306 net.cpp:137] Memory required for data: 404271852
I1219 20:01:34.082247  8306 layer_factory.hpp:77] Creating layer conv1_3/bn
I1219 20:01:34.082257  8306 net.cpp:84] Creating Layer conv1_3/bn
I1219 20:01:34.082262  8306 net.cpp:406] conv1_3/bn <- concat1_2_concat1_2_0_split_0
I1219 20:01:34.082273  8306 net.cpp:380] conv1_3/bn -> conv1_3/bn
I1219 20:01:34.082782  8306 net.cpp:122] Setting up conv1_3/bn
I1219 20:01:34.082794  8306 net.cpp:129] Top shape: 1 320 32 109 (1116160)
I1219 20:01:34.082798  8306 net.cpp:137] Memory required for data: 408736492
I1219 20:01:34.082810  8306 layer_factory.hpp:77] Creating layer conv1_3/scale
I1219 20:01:34.082823  8306 net.cpp:84] Creating Layer conv1_3/scale
I1219 20:01:34.082828  8306 net.cpp:406] conv1_3/scale <- conv1_3/bn
I1219 20:01:34.082835  8306 net.cpp:367] conv1_3/scale -> conv1_3/bn (in-place)
I1219 20:01:34.082923  8306 layer_factory.hpp:77] Creating layer conv1_3/scale
I1219 20:01:34.083174  8306 net.cpp:122] Setting up conv1_3/scale
I1219 20:01:34.083184  8306 net.cpp:129] Top shape: 1 320 32 109 (1116160)
I1219 20:01:34.083189  8306 net.cpp:137] Memory required for data: 413201132
I1219 20:01:34.083197  8306 layer_factory.hpp:77] Creating layer relu1_3
I1219 20:01:34.083205  8306 net.cpp:84] Creating Layer relu1_3
I1219 20:01:34.083210  8306 net.cpp:406] relu1_3 <- conv1_3/bn
I1219 20:01:34.083216  8306 net.cpp:367] relu1_3 -> conv1_3/bn (in-place)
I1219 20:01:34.083986  8306 net.cpp:122] Setting up relu1_3
I1219 20:01:34.084007  8306 net.cpp:129] Top shape: 1 320 32 109 (1116160)
I1219 20:01:34.084010  8306 net.cpp:137] Memory required for data: 417665772
I1219 20:01:34.084017  8306 layer_factory.hpp:77] Creating layer conv1_3
I1219 20:01:34.084033  8306 net.cpp:84] Creating Layer conv1_3
I1219 20:01:34.084038  8306 net.cpp:406] conv1_3 <- conv1_3/bn
I1219 20:01:34.084048  8306 net.cpp:380] conv1_3 -> conv1_3
I1219 20:01:34.090492  8306 net.cpp:122] Setting up conv1_3
I1219 20:01:34.090529  8306 net.cpp:129] Top shape: 1 32 32 109 (111616)
I1219 20:01:34.090534  8306 net.cpp:137] Memory required for data: 418112236
I1219 20:01:34.090548  8306 layer_factory.hpp:77] Creating layer concat1_3
I1219 20:01:34.090562  8306 net.cpp:84] Creating Layer concat1_3
I1219 20:01:34.090570  8306 net.cpp:406] concat1_3 <- concat1_2_concat1_2_0_split_1
I1219 20:01:34.090581  8306 net.cpp:406] concat1_3 <- conv1_3
I1219 20:01:34.090590  8306 net.cpp:380] concat1_3 -> concat1_3
I1219 20:01:34.090662  8306 net.cpp:122] Setting up concat1_3
I1219 20:01:34.090670  8306 net.cpp:129] Top shape: 1 352 32 109 (1227776)
I1219 20:01:34.090675  8306 net.cpp:137] Memory required for data: 423023340
I1219 20:01:34.090679  8306 layer_factory.hpp:77] Creating layer concat1_3_concat1_3_0_split
I1219 20:01:34.090688  8306 net.cpp:84] Creating Layer concat1_3_concat1_3_0_split
I1219 20:01:34.090693  8306 net.cpp:406] concat1_3_concat1_3_0_split <- concat1_3
I1219 20:01:34.090700  8306 net.cpp:380] concat1_3_concat1_3_0_split -> concat1_3_concat1_3_0_split_0
I1219 20:01:34.090708  8306 net.cpp:380] concat1_3_concat1_3_0_split -> concat1_3_concat1_3_0_split_1
I1219 20:01:34.090782  8306 net.cpp:122] Setting up concat1_3_concat1_3_0_split
I1219 20:01:34.090791  8306 net.cpp:129] Top shape: 1 352 32 109 (1227776)
I1219 20:01:34.090797  8306 net.cpp:129] Top shape: 1 352 32 109 (1227776)
I1219 20:01:34.090801  8306 net.cpp:137] Memory required for data: 432845548
I1219 20:01:34.090806  8306 layer_factory.hpp:77] Creating layer conv1_4/bn
I1219 20:01:34.090816  8306 net.cpp:84] Creating Layer conv1_4/bn
I1219 20:01:34.090821  8306 net.cpp:406] conv1_4/bn <- concat1_3_concat1_3_0_split_0
I1219 20:01:34.090827  8306 net.cpp:380] conv1_4/bn -> conv1_4/bn
I1219 20:01:34.091336  8306 net.cpp:122] Setting up conv1_4/bn
I1219 20:01:34.091346  8306 net.cpp:129] Top shape: 1 352 32 109 (1227776)
I1219 20:01:34.091351  8306 net.cpp:137] Memory required for data: 437756652
I1219 20:01:34.091363  8306 layer_factory.hpp:77] Creating layer conv1_4/scale
I1219 20:01:34.091377  8306 net.cpp:84] Creating Layer conv1_4/scale
I1219 20:01:34.091382  8306 net.cpp:406] conv1_4/scale <- conv1_4/bn
I1219 20:01:34.091387  8306 net.cpp:367] conv1_4/scale -> conv1_4/bn (in-place)
I1219 20:01:34.091477  8306 layer_factory.hpp:77] Creating layer conv1_4/scale
I1219 20:01:34.091735  8306 net.cpp:122] Setting up conv1_4/scale
I1219 20:01:34.091754  8306 net.cpp:129] Top shape: 1 352 32 109 (1227776)
I1219 20:01:34.091759  8306 net.cpp:137] Memory required for data: 442667756
I1219 20:01:34.091768  8306 layer_factory.hpp:77] Creating layer relu1_4
I1219 20:01:34.091776  8306 net.cpp:84] Creating Layer relu1_4
I1219 20:01:34.091783  8306 net.cpp:406] relu1_4 <- conv1_4/bn
I1219 20:01:34.091790  8306 net.cpp:367] relu1_4 -> conv1_4/bn (in-place)
I1219 20:01:34.092206  8306 net.cpp:122] Setting up relu1_4
I1219 20:01:34.092219  8306 net.cpp:129] Top shape: 1 352 32 109 (1227776)
I1219 20:01:34.092224  8306 net.cpp:137] Memory required for data: 447578860
I1219 20:01:34.092229  8306 layer_factory.hpp:77] Creating layer conv1_4
I1219 20:01:34.092244  8306 net.cpp:84] Creating Layer conv1_4
I1219 20:01:34.092250  8306 net.cpp:406] conv1_4 <- conv1_4/bn
I1219 20:01:34.092259  8306 net.cpp:380] conv1_4 -> conv1_4
I1219 20:01:34.100257  8306 net.cpp:122] Setting up conv1_4
I1219 20:01:34.100303  8306 net.cpp:129] Top shape: 1 32 32 109 (111616)
I1219 20:01:34.100308  8306 net.cpp:137] Memory required for data: 448025324
I1219 20:01:34.100323  8306 layer_factory.hpp:77] Creating layer concat1_4
I1219 20:01:34.100340  8306 net.cpp:84] Creating Layer concat1_4
I1219 20:01:34.100348  8306 net.cpp:406] concat1_4 <- concat1_3_concat1_3_0_split_1
I1219 20:01:34.100359  8306 net.cpp:406] concat1_4 <- conv1_4
I1219 20:01:34.100368  8306 net.cpp:380] concat1_4 -> concat1_4
I1219 20:01:34.100497  8306 net.cpp:122] Setting up concat1_4
I1219 20:01:34.100509  8306 net.cpp:129] Top shape: 1 384 32 109 (1339392)
I1219 20:01:34.100514  8306 net.cpp:137] Memory required for data: 453382892
I1219 20:01:34.100519  8306 layer_factory.hpp:77] Creating layer concat1_4_concat1_4_0_split
I1219 20:01:34.100530  8306 net.cpp:84] Creating Layer concat1_4_concat1_4_0_split
I1219 20:01:34.100535  8306 net.cpp:406] concat1_4_concat1_4_0_split <- concat1_4
I1219 20:01:34.100543  8306 net.cpp:380] concat1_4_concat1_4_0_split -> concat1_4_concat1_4_0_split_0
I1219 20:01:34.100551  8306 net.cpp:380] concat1_4_concat1_4_0_split -> concat1_4_concat1_4_0_split_1
I1219 20:01:34.100638  8306 net.cpp:122] Setting up concat1_4_concat1_4_0_split
I1219 20:01:34.100647  8306 net.cpp:129] Top shape: 1 384 32 109 (1339392)
I1219 20:01:34.100653  8306 net.cpp:129] Top shape: 1 384 32 109 (1339392)
I1219 20:01:34.100658  8306 net.cpp:137] Memory required for data: 464098028
I1219 20:01:34.100663  8306 layer_factory.hpp:77] Creating layer conv1_5/bn
I1219 20:01:34.100672  8306 net.cpp:84] Creating Layer conv1_5/bn
I1219 20:01:34.100678  8306 net.cpp:406] conv1_5/bn <- concat1_4_concat1_4_0_split_0
I1219 20:01:34.100685  8306 net.cpp:380] conv1_5/bn -> conv1_5/bn
I1219 20:01:34.125331  8306 net.cpp:122] Setting up conv1_5/bn
I1219 20:01:34.125367  8306 net.cpp:129] Top shape: 1 384 32 109 (1339392)
I1219 20:01:34.125372  8306 net.cpp:137] Memory required for data: 469455596
I1219 20:01:34.125387  8306 layer_factory.hpp:77] Creating layer conv1_5/scale
I1219 20:01:34.125402  8306 net.cpp:84] Creating Layer conv1_5/scale
I1219 20:01:34.125409  8306 net.cpp:406] conv1_5/scale <- conv1_5/bn
I1219 20:01:34.125421  8306 net.cpp:367] conv1_5/scale -> conv1_5/bn (in-place)
I1219 20:01:34.125509  8306 layer_factory.hpp:77] Creating layer conv1_5/scale
I1219 20:01:34.125757  8306 net.cpp:122] Setting up conv1_5/scale
I1219 20:01:34.125767  8306 net.cpp:129] Top shape: 1 384 32 109 (1339392)
I1219 20:01:34.125772  8306 net.cpp:137] Memory required for data: 474813164
I1219 20:01:34.125780  8306 layer_factory.hpp:77] Creating layer relu1_5
I1219 20:01:34.125788  8306 net.cpp:84] Creating Layer relu1_5
I1219 20:01:34.125793  8306 net.cpp:406] relu1_5 <- conv1_5/bn
I1219 20:01:34.125799  8306 net.cpp:367] relu1_5 -> conv1_5/bn (in-place)
I1219 20:01:34.126525  8306 net.cpp:122] Setting up relu1_5
I1219 20:01:34.126539  8306 net.cpp:129] Top shape: 1 384 32 109 (1339392)
I1219 20:01:34.126544  8306 net.cpp:137] Memory required for data: 480170732
I1219 20:01:34.126554  8306 layer_factory.hpp:77] Creating layer conv1_5
I1219 20:01:34.126569  8306 net.cpp:84] Creating Layer conv1_5
I1219 20:01:34.126574  8306 net.cpp:406] conv1_5 <- conv1_5/bn
I1219 20:01:34.126585  8306 net.cpp:380] conv1_5 -> conv1_5
I1219 20:01:34.312572  8306 net.cpp:122] Setting up conv1_5
I1219 20:01:34.312608  8306 net.cpp:129] Top shape: 1 32 32 109 (111616)
I1219 20:01:34.312614  8306 net.cpp:137] Memory required for data: 480617196
I1219 20:01:34.312628  8306 layer_factory.hpp:77] Creating layer concat1_5
I1219 20:01:34.312644  8306 net.cpp:84] Creating Layer concat1_5
I1219 20:01:34.312652  8306 net.cpp:406] concat1_5 <- concat1_4_concat1_4_0_split_1
I1219 20:01:34.312661  8306 net.cpp:406] concat1_5 <- conv1_5
I1219 20:01:34.312669  8306 net.cpp:380] concat1_5 -> concat1_5
I1219 20:01:34.312736  8306 net.cpp:122] Setting up concat1_5
I1219 20:01:34.312746  8306 net.cpp:129] Top shape: 1 416 32 109 (1451008)
I1219 20:01:34.312749  8306 net.cpp:137] Memory required for data: 486421228
I1219 20:01:34.312754  8306 layer_factory.hpp:77] Creating layer concat1_5_concat1_5_0_split
I1219 20:01:34.312762  8306 net.cpp:84] Creating Layer concat1_5_concat1_5_0_split
I1219 20:01:34.312767  8306 net.cpp:406] concat1_5_concat1_5_0_split <- concat1_5
I1219 20:01:34.312774  8306 net.cpp:380] concat1_5_concat1_5_0_split -> concat1_5_concat1_5_0_split_0
I1219 20:01:34.312783  8306 net.cpp:380] concat1_5_concat1_5_0_split -> concat1_5_concat1_5_0_split_1
I1219 20:01:34.312856  8306 net.cpp:122] Setting up concat1_5_concat1_5_0_split
I1219 20:01:34.312866  8306 net.cpp:129] Top shape: 1 416 32 109 (1451008)
I1219 20:01:34.312872  8306 net.cpp:129] Top shape: 1 416 32 109 (1451008)
I1219 20:01:34.312876  8306 net.cpp:137] Memory required for data: 498029292
I1219 20:01:34.312881  8306 layer_factory.hpp:77] Creating layer conv1_6/bn
I1219 20:01:34.312889  8306 net.cpp:84] Creating Layer conv1_6/bn
I1219 20:01:34.312894  8306 net.cpp:406] conv1_6/bn <- concat1_5_concat1_5_0_split_0
I1219 20:01:34.312902  8306 net.cpp:380] conv1_6/bn -> conv1_6/bn
I1219 20:01:34.313374  8306 net.cpp:122] Setting up conv1_6/bn
I1219 20:01:34.313385  8306 net.cpp:129] Top shape: 1 416 32 109 (1451008)
I1219 20:01:34.313390  8306 net.cpp:137] Memory required for data: 503833324
I1219 20:01:34.313400  8306 layer_factory.hpp:77] Creating layer conv1_6/scale
I1219 20:01:34.313411  8306 net.cpp:84] Creating Layer conv1_6/scale
I1219 20:01:34.313417  8306 net.cpp:406] conv1_6/scale <- conv1_6/bn
I1219 20:01:34.313423  8306 net.cpp:367] conv1_6/scale -> conv1_6/bn (in-place)
I1219 20:01:34.313509  8306 layer_factory.hpp:77] Creating layer conv1_6/scale
I1219 20:01:34.313763  8306 net.cpp:122] Setting up conv1_6/scale
I1219 20:01:34.313774  8306 net.cpp:129] Top shape: 1 416 32 109 (1451008)
I1219 20:01:34.313779  8306 net.cpp:137] Memory required for data: 509637356
I1219 20:01:34.313787  8306 layer_factory.hpp:77] Creating layer relu1_6
I1219 20:01:34.313799  8306 net.cpp:84] Creating Layer relu1_6
I1219 20:01:34.313804  8306 net.cpp:406] relu1_6 <- conv1_6/bn
I1219 20:01:34.313810  8306 net.cpp:367] relu1_6 -> conv1_6/bn (in-place)
I1219 20:01:34.314054  8306 net.cpp:122] Setting up relu1_6
I1219 20:01:34.314066  8306 net.cpp:129] Top shape: 1 416 32 109 (1451008)
I1219 20:01:34.314070  8306 net.cpp:137] Memory required for data: 515441388
I1219 20:01:34.314075  8306 layer_factory.hpp:77] Creating layer conv1_6
I1219 20:01:34.314090  8306 net.cpp:84] Creating Layer conv1_6
I1219 20:01:34.314095  8306 net.cpp:406] conv1_6 <- conv1_6/bn
I1219 20:01:34.314103  8306 net.cpp:380] conv1_6 -> conv1_6
I1219 20:01:34.550541  8306 net.cpp:122] Setting up conv1_6
I1219 20:01:34.550581  8306 net.cpp:129] Top shape: 1 32 32 109 (111616)
I1219 20:01:34.550587  8306 net.cpp:137] Memory required for data: 515887852
I1219 20:01:34.550599  8306 layer_factory.hpp:77] Creating layer concat1_6
I1219 20:01:34.550613  8306 net.cpp:84] Creating Layer concat1_6
I1219 20:01:34.550621  8306 net.cpp:406] concat1_6 <- concat1_5_concat1_5_0_split_1
I1219 20:01:34.550631  8306 net.cpp:406] concat1_6 <- conv1_6
I1219 20:01:34.550644  8306 net.cpp:380] concat1_6 -> concat1_6
I1219 20:01:34.550707  8306 net.cpp:122] Setting up concat1_6
I1219 20:01:34.550716  8306 net.cpp:129] Top shape: 1 448 32 109 (1562624)
I1219 20:01:34.550721  8306 net.cpp:137] Memory required for data: 522138348
I1219 20:01:34.550725  8306 layer_factory.hpp:77] Creating layer concat1_6_concat1_6_0_split
I1219 20:01:34.550734  8306 net.cpp:84] Creating Layer concat1_6_concat1_6_0_split
I1219 20:01:34.550739  8306 net.cpp:406] concat1_6_concat1_6_0_split <- concat1_6
I1219 20:01:34.550745  8306 net.cpp:380] concat1_6_concat1_6_0_split -> concat1_6_concat1_6_0_split_0
I1219 20:01:34.550755  8306 net.cpp:380] concat1_6_concat1_6_0_split -> concat1_6_concat1_6_0_split_1
I1219 20:01:34.550828  8306 net.cpp:122] Setting up concat1_6_concat1_6_0_split
I1219 20:01:34.550837  8306 net.cpp:129] Top shape: 1 448 32 109 (1562624)
I1219 20:01:34.550843  8306 net.cpp:129] Top shape: 1 448 32 109 (1562624)
I1219 20:01:34.550848  8306 net.cpp:137] Memory required for data: 534639340
I1219 20:01:34.550853  8306 layer_factory.hpp:77] Creating layer conv1_7/bn
I1219 20:01:34.550860  8306 net.cpp:84] Creating Layer conv1_7/bn
I1219 20:01:34.550865  8306 net.cpp:406] conv1_7/bn <- concat1_6_concat1_6_0_split_0
I1219 20:01:34.550880  8306 net.cpp:380] conv1_7/bn -> conv1_7/bn
I1219 20:01:34.551371  8306 net.cpp:122] Setting up conv1_7/bn
I1219 20:01:34.551381  8306 net.cpp:129] Top shape: 1 448 32 109 (1562624)
I1219 20:01:34.551386  8306 net.cpp:137] Memory required for data: 540889836
I1219 20:01:34.551398  8306 layer_factory.hpp:77] Creating layer conv1_7/scale
I1219 20:01:34.551409  8306 net.cpp:84] Creating Layer conv1_7/scale
I1219 20:01:34.551414  8306 net.cpp:406] conv1_7/scale <- conv1_7/bn
I1219 20:01:34.551421  8306 net.cpp:367] conv1_7/scale -> conv1_7/bn (in-place)
I1219 20:01:34.551509  8306 layer_factory.hpp:77] Creating layer conv1_7/scale
I1219 20:01:34.580252  8306 net.cpp:122] Setting up conv1_7/scale
I1219 20:01:34.580283  8306 net.cpp:129] Top shape: 1 448 32 109 (1562624)
I1219 20:01:34.580288  8306 net.cpp:137] Memory required for data: 547140332
I1219 20:01:34.580302  8306 layer_factory.hpp:77] Creating layer relu1_7
I1219 20:01:34.580314  8306 net.cpp:84] Creating Layer relu1_7
I1219 20:01:34.580322  8306 net.cpp:406] relu1_7 <- conv1_7/bn
I1219 20:01:34.580330  8306 net.cpp:367] relu1_7 -> conv1_7/bn (in-place)
I1219 20:01:34.581400  8306 net.cpp:122] Setting up relu1_7
I1219 20:01:34.581418  8306 net.cpp:129] Top shape: 1 448 32 109 (1562624)
I1219 20:01:34.581423  8306 net.cpp:137] Memory required for data: 553390828
I1219 20:01:34.581429  8306 layer_factory.hpp:77] Creating layer conv1_7
I1219 20:01:34.581446  8306 net.cpp:84] Creating Layer conv1_7
I1219 20:01:34.581451  8306 net.cpp:406] conv1_7 <- conv1_7/bn
I1219 20:01:34.581460  8306 net.cpp:380] conv1_7 -> conv1_7
I1219 20:01:34.659131  8306 net.cpp:122] Setting up conv1_7
I1219 20:01:34.659168  8306 net.cpp:129] Top shape: 1 32 32 109 (111616)
I1219 20:01:34.659173  8306 net.cpp:137] Memory required for data: 553837292
I1219 20:01:34.659184  8306 layer_factory.hpp:77] Creating layer concat1_7
I1219 20:01:34.659200  8306 net.cpp:84] Creating Layer concat1_7
I1219 20:01:34.659209  8306 net.cpp:406] concat1_7 <- concat1_6_concat1_6_0_split_1
I1219 20:01:34.659216  8306 net.cpp:406] concat1_7 <- conv1_7
I1219 20:01:34.659224  8306 net.cpp:380] concat1_7 -> concat1_7
I1219 20:01:34.659287  8306 net.cpp:122] Setting up concat1_7
I1219 20:01:34.659296  8306 net.cpp:129] Top shape: 1 480 32 109 (1674240)
I1219 20:01:34.659301  8306 net.cpp:137] Memory required for data: 560534252
I1219 20:01:34.659306  8306 layer_factory.hpp:77] Creating layer concat1_7_concat1_7_0_split
I1219 20:01:34.659313  8306 net.cpp:84] Creating Layer concat1_7_concat1_7_0_split
I1219 20:01:34.659318  8306 net.cpp:406] concat1_7_concat1_7_0_split <- concat1_7
I1219 20:01:34.659327  8306 net.cpp:380] concat1_7_concat1_7_0_split -> concat1_7_concat1_7_0_split_0
I1219 20:01:34.659334  8306 net.cpp:380] concat1_7_concat1_7_0_split -> concat1_7_concat1_7_0_split_1
I1219 20:01:34.659413  8306 net.cpp:122] Setting up concat1_7_concat1_7_0_split
I1219 20:01:34.659422  8306 net.cpp:129] Top shape: 1 480 32 109 (1674240)
I1219 20:01:34.659428  8306 net.cpp:129] Top shape: 1 480 32 109 (1674240)
I1219 20:01:34.659433  8306 net.cpp:137] Memory required for data: 573928172
I1219 20:01:34.659437  8306 layer_factory.hpp:77] Creating layer conv1_8/bn
I1219 20:01:34.659446  8306 net.cpp:84] Creating Layer conv1_8/bn
I1219 20:01:34.659451  8306 net.cpp:406] conv1_8/bn <- concat1_7_concat1_7_0_split_0
I1219 20:01:34.659459  8306 net.cpp:380] conv1_8/bn -> conv1_8/bn
I1219 20:01:34.714278  8306 net.cpp:122] Setting up conv1_8/bn
I1219 20:01:34.714316  8306 net.cpp:129] Top shape: 1 480 32 109 (1674240)
I1219 20:01:34.714323  8306 net.cpp:137] Memory required for data: 580625132
I1219 20:01:34.714339  8306 layer_factory.hpp:77] Creating layer conv1_8/scale
I1219 20:01:34.714354  8306 net.cpp:84] Creating Layer conv1_8/scale
I1219 20:01:34.714360  8306 net.cpp:406] conv1_8/scale <- conv1_8/bn
I1219 20:01:34.714371  8306 net.cpp:367] conv1_8/scale -> conv1_8/bn (in-place)
I1219 20:01:34.714491  8306 layer_factory.hpp:77] Creating layer conv1_8/scale
I1219 20:01:34.714766  8306 net.cpp:122] Setting up conv1_8/scale
I1219 20:01:34.714777  8306 net.cpp:129] Top shape: 1 480 32 109 (1674240)
I1219 20:01:34.714782  8306 net.cpp:137] Memory required for data: 587322092
I1219 20:01:34.714792  8306 layer_factory.hpp:77] Creating layer relu1_8
I1219 20:01:34.714802  8306 net.cpp:84] Creating Layer relu1_8
I1219 20:01:34.714808  8306 net.cpp:406] relu1_8 <- conv1_8/bn
I1219 20:01:34.714814  8306 net.cpp:367] relu1_8 -> conv1_8/bn (in-place)
I1219 20:01:34.715618  8306 net.cpp:122] Setting up relu1_8
I1219 20:01:34.715646  8306 net.cpp:129] Top shape: 1 480 32 109 (1674240)
I1219 20:01:34.715651  8306 net.cpp:137] Memory required for data: 594019052
I1219 20:01:34.715657  8306 layer_factory.hpp:77] Creating layer conv1_8
I1219 20:01:34.715677  8306 net.cpp:84] Creating Layer conv1_8
I1219 20:01:34.715683  8306 net.cpp:406] conv1_8 <- conv1_8/bn
I1219 20:01:34.715693  8306 net.cpp:380] conv1_8 -> conv1_8
I1219 20:01:34.931689  8306 net.cpp:122] Setting up conv1_8
I1219 20:01:34.931735  8306 net.cpp:129] Top shape: 1 32 32 109 (111616)
I1219 20:01:34.931740  8306 net.cpp:137] Memory required for data: 594465516
I1219 20:01:34.931776  8306 layer_factory.hpp:77] Creating layer concat1_8
I1219 20:01:34.931793  8306 net.cpp:84] Creating Layer concat1_8
I1219 20:01:34.931802  8306 net.cpp:406] concat1_8 <- concat1_7_concat1_7_0_split_1
I1219 20:01:34.931812  8306 net.cpp:406] concat1_8 <- conv1_8
I1219 20:01:34.931820  8306 net.cpp:380] concat1_8 -> concat1_8
I1219 20:01:34.931922  8306 net.cpp:122] Setting up concat1_8
I1219 20:01:34.931932  8306 net.cpp:129] Top shape: 1 512 32 109 (1785856)
I1219 20:01:34.931937  8306 net.cpp:137] Memory required for data: 601608940
I1219 20:01:34.931942  8306 layer_factory.hpp:77] Creating layer concat1_8_concat1_8_0_split
I1219 20:01:34.931951  8306 net.cpp:84] Creating Layer concat1_8_concat1_8_0_split
I1219 20:01:34.931954  8306 net.cpp:406] concat1_8_concat1_8_0_split <- concat1_8
I1219 20:01:34.931963  8306 net.cpp:380] concat1_8_concat1_8_0_split -> concat1_8_concat1_8_0_split_0
I1219 20:01:34.931972  8306 net.cpp:380] concat1_8_concat1_8_0_split -> concat1_8_concat1_8_0_split_1
I1219 20:01:34.932057  8306 net.cpp:122] Setting up concat1_8_concat1_8_0_split
I1219 20:01:34.932066  8306 net.cpp:129] Top shape: 1 512 32 109 (1785856)
I1219 20:01:34.932072  8306 net.cpp:129] Top shape: 1 512 32 109 (1785856)
I1219 20:01:34.932076  8306 net.cpp:137] Memory required for data: 615895788
I1219 20:01:34.932081  8306 layer_factory.hpp:77] Creating layer conv1_9/bn
I1219 20:01:34.932090  8306 net.cpp:84] Creating Layer conv1_9/bn
I1219 20:01:34.932098  8306 net.cpp:406] conv1_9/bn <- concat1_8_concat1_8_0_split_0
I1219 20:01:34.932106  8306 net.cpp:380] conv1_9/bn -> conv1_9/bn
I1219 20:01:34.932647  8306 net.cpp:122] Setting up conv1_9/bn
I1219 20:01:34.932677  8306 net.cpp:129] Top shape: 1 512 32 109 (1785856)
I1219 20:01:34.932682  8306 net.cpp:137] Memory required for data: 623039212
I1219 20:01:34.932696  8306 layer_factory.hpp:77] Creating layer conv1_9/scale
I1219 20:01:34.932711  8306 net.cpp:84] Creating Layer conv1_9/scale
I1219 20:01:34.932718  8306 net.cpp:406] conv1_9/scale <- conv1_9/bn
I1219 20:01:34.932726  8306 net.cpp:367] conv1_9/scale -> conv1_9/bn (in-place)
I1219 20:01:34.932827  8306 layer_factory.hpp:77] Creating layer conv1_9/scale
I1219 20:01:34.933112  8306 net.cpp:122] Setting up conv1_9/scale
I1219 20:01:34.933126  8306 net.cpp:129] Top shape: 1 512 32 109 (1785856)
I1219 20:01:34.933131  8306 net.cpp:137] Memory required for data: 630182636
I1219 20:01:34.933141  8306 layer_factory.hpp:77] Creating layer relu1_9
I1219 20:01:34.933151  8306 net.cpp:84] Creating Layer relu1_9
I1219 20:01:34.933156  8306 net.cpp:406] relu1_9 <- conv1_9/bn
I1219 20:01:34.933164  8306 net.cpp:367] relu1_9 -> conv1_9/bn (in-place)
I1219 20:01:34.933501  8306 net.cpp:122] Setting up relu1_9
I1219 20:01:34.933516  8306 net.cpp:129] Top shape: 1 512 32 109 (1785856)
I1219 20:01:34.933521  8306 net.cpp:137] Memory required for data: 637326060
I1219 20:01:34.933526  8306 layer_factory.hpp:77] Creating layer conv1_9
I1219 20:01:34.933544  8306 net.cpp:84] Creating Layer conv1_9
I1219 20:01:34.933552  8306 net.cpp:406] conv1_9 <- conv1_9/bn
I1219 20:01:34.933598  8306 net.cpp:380] conv1_9 -> conv1_9
I1219 20:01:34.942647  8306 net.cpp:122] Setting up conv1_9
I1219 20:01:34.942687  8306 net.cpp:129] Top shape: 1 32 32 109 (111616)
I1219 20:01:34.942692  8306 net.cpp:137] Memory required for data: 637772524
I1219 20:01:34.942705  8306 layer_factory.hpp:77] Creating layer concat1_9
I1219 20:01:34.942724  8306 net.cpp:84] Creating Layer concat1_9
I1219 20:01:34.942733  8306 net.cpp:406] concat1_9 <- concat1_8_concat1_8_0_split_1
I1219 20:01:34.942742  8306 net.cpp:406] concat1_9 <- conv1_9
I1219 20:01:34.942749  8306 net.cpp:380] concat1_9 -> concat1_9
I1219 20:01:34.942814  8306 net.cpp:122] Setting up concat1_9
I1219 20:01:34.942822  8306 net.cpp:129] Top shape: 1 544 32 109 (1897472)
I1219 20:01:34.942827  8306 net.cpp:137] Memory required for data: 645362412
I1219 20:01:34.942831  8306 layer_factory.hpp:77] Creating layer concat1_9_concat1_9_0_split
I1219 20:01:34.942842  8306 net.cpp:84] Creating Layer concat1_9_concat1_9_0_split
I1219 20:01:34.942847  8306 net.cpp:406] concat1_9_concat1_9_0_split <- concat1_9
I1219 20:01:34.942852  8306 net.cpp:380] concat1_9_concat1_9_0_split -> concat1_9_concat1_9_0_split_0
I1219 20:01:34.942860  8306 net.cpp:380] concat1_9_concat1_9_0_split -> concat1_9_concat1_9_0_split_1
I1219 20:01:34.942937  8306 net.cpp:122] Setting up concat1_9_concat1_9_0_split
I1219 20:01:34.942945  8306 net.cpp:129] Top shape: 1 544 32 109 (1897472)
I1219 20:01:34.942951  8306 net.cpp:129] Top shape: 1 544 32 109 (1897472)
I1219 20:01:34.942956  8306 net.cpp:137] Memory required for data: 660542188
I1219 20:01:34.942960  8306 layer_factory.hpp:77] Creating layer conv1_10/bn
I1219 20:01:34.942970  8306 net.cpp:84] Creating Layer conv1_10/bn
I1219 20:01:34.942975  8306 net.cpp:406] conv1_10/bn <- concat1_9_concat1_9_0_split_0
I1219 20:01:34.942983  8306 net.cpp:380] conv1_10/bn -> conv1_10/bn
I1219 20:01:34.943483  8306 net.cpp:122] Setting up conv1_10/bn
I1219 20:01:34.943495  8306 net.cpp:129] Top shape: 1 544 32 109 (1897472)
I1219 20:01:34.943500  8306 net.cpp:137] Memory required for data: 668132076
I1219 20:01:34.943511  8306 layer_factory.hpp:77] Creating layer conv1_10/scale
I1219 20:01:34.943523  8306 net.cpp:84] Creating Layer conv1_10/scale
I1219 20:01:34.943528  8306 net.cpp:406] conv1_10/scale <- conv1_10/bn
I1219 20:01:34.943534  8306 net.cpp:367] conv1_10/scale -> conv1_10/bn (in-place)
I1219 20:01:34.943622  8306 layer_factory.hpp:77] Creating layer conv1_10/scale
I1219 20:01:34.943922  8306 net.cpp:122] Setting up conv1_10/scale
I1219 20:01:34.943935  8306 net.cpp:129] Top shape: 1 544 32 109 (1897472)
I1219 20:01:34.943946  8306 net.cpp:137] Memory required for data: 675721964
I1219 20:01:34.943954  8306 layer_factory.hpp:77] Creating layer relu1_10
I1219 20:01:34.943964  8306 net.cpp:84] Creating Layer relu1_10
I1219 20:01:34.943974  8306 net.cpp:406] relu1_10 <- conv1_10/bn
I1219 20:01:34.943981  8306 net.cpp:367] relu1_10 -> conv1_10/bn (in-place)
I1219 20:01:34.944792  8306 net.cpp:122] Setting up relu1_10
I1219 20:01:34.944813  8306 net.cpp:129] Top shape: 1 544 32 109 (1897472)
I1219 20:01:34.944820  8306 net.cpp:137] Memory required for data: 683311852
I1219 20:01:34.944828  8306 layer_factory.hpp:77] Creating layer conv1_10
I1219 20:01:34.944844  8306 net.cpp:84] Creating Layer conv1_10
I1219 20:01:34.944851  8306 net.cpp:406] conv1_10 <- conv1_10/bn
I1219 20:01:34.944864  8306 net.cpp:380] conv1_10 -> conv1_10
I1219 20:01:34.954388  8306 net.cpp:122] Setting up conv1_10
I1219 20:01:34.954428  8306 net.cpp:129] Top shape: 1 32 32 109 (111616)
I1219 20:01:34.954434  8306 net.cpp:137] Memory required for data: 683758316
I1219 20:01:34.954447  8306 layer_factory.hpp:77] Creating layer concat1_10
I1219 20:01:34.954463  8306 net.cpp:84] Creating Layer concat1_10
I1219 20:01:34.954470  8306 net.cpp:406] concat1_10 <- concat1_9_concat1_9_0_split_1
I1219 20:01:34.954479  8306 net.cpp:406] concat1_10 <- conv1_10
I1219 20:01:34.954488  8306 net.cpp:380] concat1_10 -> concat1_10
I1219 20:01:34.954555  8306 net.cpp:122] Setting up concat1_10
I1219 20:01:34.954565  8306 net.cpp:129] Top shape: 1 576 32 109 (2009088)
I1219 20:01:34.954569  8306 net.cpp:137] Memory required for data: 691794668
I1219 20:01:34.954573  8306 layer_factory.hpp:77] Creating layer concat1_10_concat1_10_0_split
I1219 20:01:34.954582  8306 net.cpp:84] Creating Layer concat1_10_concat1_10_0_split
I1219 20:01:34.954587  8306 net.cpp:406] concat1_10_concat1_10_0_split <- concat1_10
I1219 20:01:34.954594  8306 net.cpp:380] concat1_10_concat1_10_0_split -> concat1_10_concat1_10_0_split_0
I1219 20:01:34.954603  8306 net.cpp:380] concat1_10_concat1_10_0_split -> concat1_10_concat1_10_0_split_1
I1219 20:01:34.954687  8306 net.cpp:122] Setting up concat1_10_concat1_10_0_split
I1219 20:01:34.954697  8306 net.cpp:129] Top shape: 1 576 32 109 (2009088)
I1219 20:01:34.954704  8306 net.cpp:129] Top shape: 1 576 32 109 (2009088)
I1219 20:01:34.954708  8306 net.cpp:137] Memory required for data: 707867372
I1219 20:01:34.954713  8306 layer_factory.hpp:77] Creating layer conv1_11/bn
I1219 20:01:34.954721  8306 net.cpp:84] Creating Layer conv1_11/bn
I1219 20:01:34.954726  8306 net.cpp:406] conv1_11/bn <- concat1_10_concat1_10_0_split_0
I1219 20:01:34.954737  8306 net.cpp:380] conv1_11/bn -> conv1_11/bn
I1219 20:01:34.955294  8306 net.cpp:122] Setting up conv1_11/bn
I1219 20:01:34.955307  8306 net.cpp:129] Top shape: 1 576 32 109 (2009088)
I1219 20:01:34.955310  8306 net.cpp:137] Memory required for data: 715903724
I1219 20:01:34.955322  8306 layer_factory.hpp:77] Creating layer conv1_11/scale
I1219 20:01:34.955334  8306 net.cpp:84] Creating Layer conv1_11/scale
I1219 20:01:34.955340  8306 net.cpp:406] conv1_11/scale <- conv1_11/bn
I1219 20:01:34.955348  8306 net.cpp:367] conv1_11/scale -> conv1_11/bn (in-place)
I1219 20:01:34.955444  8306 layer_factory.hpp:77] Creating layer conv1_11/scale
I1219 20:01:34.955734  8306 net.cpp:122] Setting up conv1_11/scale
I1219 20:01:34.955744  8306 net.cpp:129] Top shape: 1 576 32 109 (2009088)
I1219 20:01:34.955756  8306 net.cpp:137] Memory required for data: 723940076
I1219 20:01:34.955765  8306 layer_factory.hpp:77] Creating layer relu1_11
I1219 20:01:34.955772  8306 net.cpp:84] Creating Layer relu1_11
I1219 20:01:34.955777  8306 net.cpp:406] relu1_11 <- conv1_11/bn
I1219 20:01:34.955783  8306 net.cpp:367] relu1_11 -> conv1_11/bn (in-place)
I1219 20:01:34.956092  8306 net.cpp:122] Setting up relu1_11
I1219 20:01:34.956104  8306 net.cpp:129] Top shape: 1 576 32 109 (2009088)
I1219 20:01:34.956109  8306 net.cpp:137] Memory required for data: 731976428
I1219 20:01:34.956113  8306 layer_factory.hpp:77] Creating layer conv1_11
I1219 20:01:34.956135  8306 net.cpp:84] Creating Layer conv1_11
I1219 20:01:34.956140  8306 net.cpp:406] conv1_11 <- conv1_11/bn
I1219 20:01:34.956147  8306 net.cpp:380] conv1_11 -> conv1_11
I1219 20:01:35.043678  8306 net.cpp:122] Setting up conv1_11
I1219 20:01:35.043718  8306 net.cpp:129] Top shape: 1 32 32 109 (111616)
I1219 20:01:35.043725  8306 net.cpp:137] Memory required for data: 732422892
I1219 20:01:35.043737  8306 layer_factory.hpp:77] Creating layer concat1_11
I1219 20:01:35.043761  8306 net.cpp:84] Creating Layer concat1_11
I1219 20:01:35.043771  8306 net.cpp:406] concat1_11 <- concat1_10_concat1_10_0_split_1
I1219 20:01:35.043779  8306 net.cpp:406] concat1_11 <- conv1_11
I1219 20:01:35.043792  8306 net.cpp:380] concat1_11 -> concat1_11
I1219 20:01:35.043936  8306 net.cpp:122] Setting up concat1_11
I1219 20:01:35.043946  8306 net.cpp:129] Top shape: 1 608 32 109 (2120704)
I1219 20:01:35.043949  8306 net.cpp:137] Memory required for data: 740905708
I1219 20:01:35.043954  8306 layer_factory.hpp:77] Creating layer tpp5
I1219 20:01:35.043963  8306 net.cpp:84] Creating Layer tpp5
I1219 20:01:35.043968  8306 net.cpp:406] tpp5 <- concat1_11
I1219 20:01:35.043977  8306 net.cpp:380] tpp5 -> tpp5
I1219 20:01:35.044978  8306 net.cpp:122] Setting up tpp5
I1219 20:01:35.044999  8306 net.cpp:129] Top shape: 1 9120 (9120)
I1219 20:01:35.045004  8306 net.cpp:137] Memory required for data: 740942188
I1219 20:01:35.045011  8306 layer_factory.hpp:77] Creating layer fc6_d
I1219 20:01:35.045022  8306 net.cpp:84] Creating Layer fc6_d
I1219 20:01:35.045027  8306 net.cpp:406] fc6_d <- tpp5
I1219 20:01:35.045037  8306 net.cpp:380] fc6_d -> fc6_d
I1219 20:01:51.434134  8306 net.cpp:122] Setting up fc6_d
I1219 20:01:51.434177  8306 net.cpp:129] Top shape: 1 4096 (4096)
I1219 20:01:51.434183  8306 net.cpp:137] Memory required for data: 740958572
I1219 20:01:51.434196  8306 layer_factory.hpp:77] Creating layer relu6
I1219 20:01:51.434211  8306 net.cpp:84] Creating Layer relu6
I1219 20:01:51.434219  8306 net.cpp:406] relu6 <- fc6_d
I1219 20:01:51.434229  8306 net.cpp:367] relu6 -> fc6_d (in-place)
I1219 20:01:51.484146  8306 net.cpp:122] Setting up relu6
I1219 20:01:51.484184  8306 net.cpp:129] Top shape: 1 4096 (4096)
I1219 20:01:51.484189  8306 net.cpp:137] Memory required for data: 740974956
I1219 20:01:51.484197  8306 layer_factory.hpp:77] Creating layer drop6
I1219 20:01:51.484212  8306 net.cpp:84] Creating Layer drop6
I1219 20:01:51.484220  8306 net.cpp:406] drop6 <- fc6_d
I1219 20:01:51.484230  8306 net.cpp:367] drop6 -> fc6_d (in-place)
I1219 20:01:51.484333  8306 net.cpp:122] Setting up drop6
I1219 20:01:51.484341  8306 net.cpp:129] Top shape: 1 4096 (4096)
I1219 20:01:51.484345  8306 net.cpp:137] Memory required for data: 740991340
I1219 20:01:51.484350  8306 layer_factory.hpp:77] Creating layer fc7_d
I1219 20:01:51.484361  8306 net.cpp:84] Creating Layer fc7_d
I1219 20:01:51.484366  8306 net.cpp:406] fc7_d <- fc6_d
I1219 20:01:51.484374  8306 net.cpp:380] fc7_d -> fc7_d
I1219 20:01:58.172668  8306 net.cpp:122] Setting up fc7_d
I1219 20:01:58.172703  8306 net.cpp:129] Top shape: 1 4096 (4096)
I1219 20:01:58.172708  8306 net.cpp:137] Memory required for data: 741007724
I1219 20:01:58.172721  8306 layer_factory.hpp:77] Creating layer relu7
I1219 20:01:58.172734  8306 net.cpp:84] Creating Layer relu7
I1219 20:01:58.172740  8306 net.cpp:406] relu7 <- fc7_d
I1219 20:01:58.172749  8306 net.cpp:367] relu7 -> fc7_d (in-place)
I1219 20:01:58.173485  8306 net.cpp:122] Setting up relu7
I1219 20:01:58.173497  8306 net.cpp:129] Top shape: 1 4096 (4096)
I1219 20:01:58.173502  8306 net.cpp:137] Memory required for data: 741024108
I1219 20:01:58.173507  8306 layer_factory.hpp:77] Creating layer drop7
I1219 20:01:58.173517  8306 net.cpp:84] Creating Layer drop7
I1219 20:01:58.173524  8306 net.cpp:406] drop7 <- fc7_d
I1219 20:01:58.173532  8306 net.cpp:367] drop7 -> fc7_d (in-place)
I1219 20:01:58.173586  8306 net.cpp:122] Setting up drop7
I1219 20:01:58.173595  8306 net.cpp:129] Top shape: 1 4096 (4096)
I1219 20:01:58.173599  8306 net.cpp:137] Memory required for data: 741040492
I1219 20:01:58.173609  8306 layer_factory.hpp:77] Creating layer fc8_d
I1219 20:01:58.173620  8306 net.cpp:84] Creating Layer fc8_d
I1219 20:01:58.173625  8306 net.cpp:406] fc8_d <- fc7_d
I1219 20:01:58.173632  8306 net.cpp:380] fc8_d -> fc8_d
I1219 20:01:59.186213  8306 net.cpp:122] Setting up fc8_d
I1219 20:01:59.186251  8306 net.cpp:129] Top shape: 1 618 (618)
I1219 20:01:59.186256  8306 net.cpp:137] Memory required for data: 741042964
I1219 20:01:59.186269  8306 layer_factory.hpp:77] Creating layer loss
I1219 20:01:59.186287  8306 net.cpp:84] Creating Layer loss
I1219 20:01:59.186295  8306 net.cpp:406] loss <- fc8_d
I1219 20:01:59.186303  8306 net.cpp:406] loss <- phocs
I1219 20:01:59.186311  8306 net.cpp:380] loss -> loss
I1219 20:01:59.186404  8306 net.cpp:122] Setting up loss
…
state {
  phase: TEST
}
layer {
  name: "word_images"
  type: "Data"
  top: "word_images"
  top: "label"
  transform_param {
    scale: -0.0039215689
    mean_value: 255
  }
  data_param {
    source: "/data/fwolf/iam/iam-db_nti500000_pul2-3-4-5_test_word_images_lmdb"
    batch_size: 1
    backend: LMDB
    prefetch: 20
  }
}
layer {
  name: "phocs"
  type: "Data"
  top: "phocs"
  top: "label_phocs"
  data_param {
    source: "/data/fwolf/iam/iam-db_nti500000_pul2-3-4-5_test_phocs_lmdb"
    batch_size: 1
    backend: LMDB
    prefetch: 20
  }
}
layer {
  name: "conv_init"
  type: "Convolution"
  bottom: "word_images"
  top: "conv_init"
  convolution_param {
    num_output: 32
    bias_term: false
    pad: 1
    kernel_size: 3
    stride: 1
    weight_filler {
      type: "msra"
    }
    bias_filler {
      type: "constant"
    }
    engine: CUDNN
  }
}
layer {
  name: "bn_init"
  type: "BatchNorm"
  bottom: "conv_init"
  top: "bn_init"
  param {
    lr_mult: 0
    decay_mult: 0
  }
  param {
    lr_mult: 0
    decay_mult: 0
  }
  param {
    lr_mult: 0
    decay_mult: 0
  }
  batch_norm_param {
    eps: 1e-05
  }
}
layer {
  name: "scale_init"
  type: "Scale"
  bottom: "bn_init"
  top: "bn_init"
  scale_param {
    filler {
      value: 1
    }
    bias_term: true
    bias_filler {
      value: 0
    }
  }
}
layer {
  name: "relu_init"
  type: "ReLU"
  bottom: "bn_init"
  top: "bn_init"
}
layer {
  name: "pool_init"
  type: "Pooling"
  bottom: "bn_init"
  top: "pool_init"
  pooling_param {
    pool: MAX
    kernel_size: 3
    stride: 2
    pad: 1
  }
}
layer {
  name: "conv0_0/bn"
  type: "BatchNorm"
  bottom: "pool_init"
  top: "conv0_0/bn"
  param {
    lr_mult: 0
    decay_mult: 0
  }
  param {
    lr_mult: 0
    decay_mult: 0
  }
  param {
    lr_mult: 0
    decay_mult: 0
  }
}
layer {
  name: "conv0_0/scale"
  type: "Scale"
  bottom: "conv0_0/bn"
  top: "conv0_0/bn"
  scale_param {
    filler {
      value: 1
    }
    bias_term: true
    bias_filler {
      value: 0
    }
  }
}
layer {
  name: "relu0_0"
  type: "ReLU"
  bottom: "conv0_0/bn"
  top: "conv0_0/bn"
}
layer {
  name: "conv0_0"
  type: "Convolution"
  bottom: "conv0_0/bn"
  top: "conv0_0"
  convolution_param {
    num_output: 32
    bias_term: false
    pad: 1
    kernel_size: 3
    stride: 1
    weight_filler {
      type: "msra"
    }
    bias_filler {
      type: "constant"
    }
    engine: CUDNN
  }
}
layer {
  name: "concat0_0"
  type: "Concat"
  bottom: "pool_init"
  bottom: "conv0_0"
  top: "concat0_0"
  concat_param {
    axis: 1
  }
}
layer {
  name: "conv0_1/bn"
  type: "BatchNorm"
  bottom: "concat0_0"
  top: "conv0_1/bn"
  param {
    lr_mult: 0
    decay_mult: 0
  }
  param {
    lr_mult: 0
    decay_mult: 0
  }
  param {
    lr_mult: 0
    decay_mult: 0
  }
}
layer {
  name: "conv0_1/scale"
  type: "Scale"
  bottom: "conv0_1/bn"
  top: "conv0_1/bn"
  scale_param {
    filler {
      value: 1
    }
    bias_term: true
    bias_filler {
      value: 0
    }
  }
}
layer {
  name: "relu0_1"
  type: "ReLU"
  bottom: "conv0_1/bn"
  top: "conv0_1/bn"
}
layer {
  name: "conv0_1"
  type: "Convolution"
  bottom: "conv0_1/bn"
  top: "conv0_1"
  convolution_param {
    num_output: 32
    bias_term: false
    pad: 1
    kernel_size: 3
    stride: 1
    weight_filler {
      type: "msra"
    }
    bias_filler {
      type: "constant"
    }
    engine: CUDNN
  }
}
layer {
  name: "concat0_1"
  type: "Concat"
  bottom: "concat0_0"
  bottom: "conv0_1"
  top: "concat0_1"
  concat_param {
    axis: 1
  }
}
layer {
  name: "conv0_2/bn"
  type: "BatchNorm"
  bottom: "concat0_1"
  top: "conv0_2/bn"
  param {
    lr_mult: 0
    decay_mult: 0
  }
  param {
    lr_mult: 0
    decay_mult: 0
  }
  param {
    lr_mult: 0
    decay_mult: 0
  }
}
layer {
  name: "conv0_2/scale"
  type: "Scale"
  bottom: "conv0_2/bn"
  top: "conv0_2/bn"
  scale_param {
    filler {
      value: 1
    }
    bias_term: true
    bias_filler {
      value: 0
    }
  }
}
layer {
  name: "relu0_2"
  type: "ReLU"
  bottom: "conv0_2/bn"
  top: "conv0_2/bn"
}
layer {
  name: "conv0_2"
  type: "Convolution"
  bottom: "conv0_2/bn"
  top: "conv0_2"
  convolution_param {
    num_output: 32
    bias_term: false
    pad: 1
    kernel_size: 3
    stride: 1
    weight_filler {
      type: "msra"
    }
    bias_filler {
      type: "constant"
    }
    engine: CUDNN
  }
}
layer {
  name: "concat0_2"
  type: "Concat"
  bottom: "concat0_1"
  bottom: "conv0_2"
  top: "concat0_2"
  concat_param {
    axis: 1
  }
}
layer {
  name: "conv0_3/bn"
  type: "BatchNorm"
  bottom: "concat0_2"
  top: "conv0_3/bn"
  param {
    lr_mult: 0
    decay_mult: 0
  }
  param {
    lr_mult: 0
    decay_mult: 0
  }
  param {
    lr_mult: 0
    decay_mult: 0
  }
}
layer {
  name: "conv0_3/scale"
  type: "Scale"
  bottom: "conv0_3/bn"
  top: "conv0_3/bn"
  scale_param {
    filler {
      value: 1
    }
    bias_term: true
    bias_filler {
      value: 0
    }
  }
}
layer {
  name: "relu0_3"
  type: "ReLU"
  bottom: "conv0_3/bn"
  top: "conv0_3/bn"
}
layer {
  name: "conv0_3"
  type: "Convolution"
  bottom: "conv0_3/bn"
  top: "conv0_3"
  convolution_param {
    num_output: 32
    bias_term: false
    pad: 1
    kernel_size: 3
    stride: 1
    weight_filler {
      type: "msra"
    }
    bias_filler {
      type: "constant"
    }
    engine: CUDNN
  }
}
layer {
  name: "concat0_3"
  type: "Concat"
  bottom: "concat0_2"
  bottom: "conv0_3"
  top: "concat0_3"
  concat_param {
    axis: 1
  }
}
layer {
  name: "conv0_4/bn"
  type: "BatchNorm"
  bottom: "concat0_3"
  top: "conv0_4/bn"
  param {
    lr_mult: 0
    decay_mult: 0
  }
  param {
    lr_mult: 0
    decay_mult: 0
  }
  param {
    lr_mult: 0
    decay_mult: 0
  }
}
layer {
  name: "conv0_4/scale"
  type: "Scale"
  bottom: "conv0_4/bn"
  top: "conv0_4/bn"
  scale_param {
    filler {
      value: 1
    }
    bias_term: true
    bias_filler {
      value: 0
    }
  }
}
layer {
  name: "relu0_4"
  type: "ReLU"
  bottom: "conv0_4/bn"
  top: "conv0_4/bn"
}
layer {
  name: "conv0_4"
  type: "Convolution"
  bottom: "conv0_4/bn"
  top: "conv0_4"
  convolution_param {
    num_output: 32
    bias_term: false
    pad: 1
    kernel_size: 3
    stride: 1
    weight_filler {
      type: "msra"
    }
    bias_filler {
      type: "constant"
    }
    engine: CUDNN
  }
}
layer {
  name: "concat0_4"
  type: "Concat"
  bottom: "concat0_3"
  bottom: "conv0_4"
  top: "concat0_4"
  concat_param {
    axis: 1
  }
}
layer {
  name: "conv0_5/bn"
  type: "BatchNorm"
  bottom: "concat0_4"
  top: "conv0_5/bn"
  param {
    lr_mult: 0
    decay_mult: 0
  }
  param {
    lr_mult: 0
    decay_mult: 0
  }
  param {
    lr_mult: 0
    decay_mult: 0
  }
}
layer {
  name: "conv0_5/scale"
  type: "Scale"
  bottom: "conv0_5/bn"
  top: "conv0_5/bn"
  scale_param {
    filler {
      value: 1
    }
    bias_term: true
    bias_filler {
      value: 0
    }
  }
}
layer {
  name: "relu0_5"
  type: "ReLU"
  bottom: "conv0_5/bn"
  top: "conv0_5/bn"
}
layer {
  name: "conv0_5"
  type: "Convolution"
  bottom: "conv0_5/bn"
  top: "conv0_5"
  convolution_param {
    num_output: 32
    bias_term: false
    pad: 1
    kernel_size: 3
    stride: 1
    weight_filler {
      type: "msra"
    }
    bias_filler {
      type: "constant"
    }
    engine: CUDNN
  }
}
layer {
  name: "concat0_5"
  type: "Concat"
  bottom: "concat0_4"
  bottom: "conv0_5"
  top: "concat0_5"
  concat_param {
    axis: 1
  }
}
layer {
  name: "BatchNorm1"
  type: "BatchNorm"
  bottom: "concat0_5"
  top: "BatchNorm1"
  param {
    lr_mult: 0
    decay_mult: 0
  }
  param {
    lr_mult: 0
    decay_mult: 0
  }
  param {
    lr_mult: 0
    decay_mult: 0
  }
}
layer {
  name: "Scale1"
  type: "Scale"
  bottom: "BatchNorm1"
  top: "BatchNorm1"
  scale_param {
    filler {
      value: 1
    }
    bias_term: true
    bias_filler {
      value: 0
    }
  }
}
layer {
  name: "ReLU1"
  type: "ReLU"
  bottom: "BatchNorm1"
  top: "BatchNorm1"
}
layer {
  name: "conv0_blk"
  type: "Convolution"
  bottom: "BatchNorm1"
  top: "conv0_blk"
  convolution_param {
    num_output: 224
    bias_term: false
    pad: 0
    kernel_size: 1
    stride: 1
    weight_filler {
      type: "msra"
    }
    bias_filler {
      type: "constant"
    }
    engine: CUDNN
  }
}
layer {
  name: "pool0"
  type: "Pooling"
  bottom: "conv0_blk"
  top: "pool0"
  pooling_param {
    pool: AVE
    kernel_size: 2
    stride: 2
  }
}
layer {
  name: "conv1_0/bn"
  type: "BatchNorm"
  bottom: "pool0"
  top: "conv1_0/bn"
  param {
    lr_mult: 0
    decay_mult: 0
  }
  param {
    lr_mult: 0
    decay_mult: 0
  }
  param {
    lr_mult: 0
    decay_mult: 0
  }
}
layer {
  name: "conv1_0/scale"
  type: "Scale"
  bottom: "conv1_0/bn"
  top: "conv1_0/bn"
  scale_param {
    filler {
      value: 1
    }
    bias_term: true
    bias_filler {
      value: 0
    }
  }
}
layer {
  name: "relu1_0"
  type: "ReLU"
  bottom: "conv1_0/bn"
  top: "conv1_0/bn"
}
layer {
  name: "conv1_0"
  type: "Convolution"
  bottom: "conv1_0/bn"
  top: "conv1_0"
  convolution_param {
    num_output: 32
    bias_term: false
    pad: 1
    kernel_size: 3
    stride: 1
    weight_filler {
      type: "msra"
    }
    bias_filler {
      type: "constant"
    }
    engine: CUDNN
  }
}
layer {
  name: "concat1_0"
  type: "Concat"
  bottom: "pool0"
  bottom: "conv1_0"
  top: "concat1_0"
  concat_param {
    axis: 1
  }
}
layer {
  name: "conv1_1/bn"
  type: "BatchNorm"
  bottom: "concat1_0"
  top: "conv1_1/bn"
  param {
    lr_mult: 0
    decay_mult: 0
  }
  param {
    lr_mult: 0
    decay_mult: 0
  }
  param {
    lr_mult: 0
    decay_mult: 0
  }
}
layer {
  name: "conv1_1/scale"
  type: "Scale"
  bottom: "conv1_1/bn"
  top: "conv1_1/bn"
  scale_param {
    filler {
      value: 1
    }
    bias_term: true
    bias_filler {
      value: 0
    }
  }
}
layer {
  name: "relu1_1"
  type: "ReLU"
  bottom: "conv1_1/bn"
  top: "conv1_1/bn"
}
layer {
  name: "conv1_1"
  type: "Convolution"
  bottom: "conv1_1/bn"
  top: "conv1_1"
  convolution_param {
    num_output: 32
    bias_term: false
    pad: 1
    kernel_size: 3
    stride: 1
    weight_filler {
      type: "msra"
    }
    bias_filler {
      type: "constant"
    }
    engine: CUDNN
  }
}
layer {
  name: "concat1_1"
  type: "Concat"
  bottom: "concat1_0"
  bottom: "conv1_1"
  top: "concat1_1"
  concat_param {
    axis: 1
  }
}
layer {
  name: "conv1_2/bn"
  type: "BatchNorm"
  bottom: "concat1_1"
  top: "conv1_2/bn"
  param {
    lr_mult: 0
    decay_mult: 0
  }
  param {
    lr_mult: 0
    decay_mult: 0
  }
  param {
    lr_mult: 0
    decay_mult: 0
  }
}
layer {
  name: "conv1_2/scale"
  type: "Scale"
  bottom: "conv1_2/bn"
  top: "conv1_2/bn"
  scale_param {
    filler {
      value: 1
    }
    bias_term: true
    bias_filler {
      value: 0
    }
  }
}
layer {
  name: "relu1_2"
  type: "ReLU"
  bottom: "conv1_2/bn"
  top: "conv1_2/bn"
}
layer {
  name: "conv1_2"
  type: "Convolution"
  bottom: "conv1_2/bn"
  top: "conv1_2"
  convolution_param {
    num_output: 32
    bias_term: false
    pad: 1
    kernel_size: 3
    stride: 1
    weight_filler {
      type: "msra"
    }
    bias_filler {
      type: "constant"
    }
    engine: CUDNN
  }
}
layer {
  name: "concat1_2"
  type: "Concat"
  bottom: "concat1_1"
  bottom: "conv1_2"
  top: "concat1_2"
  concat_param {
    axis: 1
  }
}
layer {
  name: "conv1_3/bn"
  type: "BatchNorm"
  bottom: "concat1_2"
  top: "conv1_3/bn"
  param {
    lr_mult: 0
    decay_mult: 0
  }
  param {
    lr_mult: 0
    decay_mult: 0
  }
  param {
    lr_mult: 0
    decay_mult: 0
  }
}
layer {
  name: "conv1_3/scale"
  type: "Scale"
  bottom: "conv1_3/bn"
  top: "conv1_3/bn"
  scale_param {
    filler {
      value: 1
    }
    bias_term: true
    bias_filler {
      value: 0
    }
  }
}
layer {
  name: "relu1_3"
  type: "ReLU"
  bottom: "conv1_3/bn"
  top: "conv1_3/bn"
}
layer {
  name: "conv1_3"
  type: "Convolution"
  bottom: "conv1_3/bn"
  top: "conv1_3"
  convolution_param {
    num_output: 32
    bias_term: false
    pad: 1
    kernel_size: 3
    stride: 1
    weight_filler {
      type: "msra"
    }
    bias_filler {
      type: "constant"
    }
    engine: CUDNN
  }
}
layer {
  name: "concat1_3"
  type: "Concat"
  bottom: "concat1_2"
  bottom: "conv1_3"
  top: "concat1_3"
  concat_param {
    axis: 1
  }
}
layer {
  name: "conv1_4/bn"
  type: "BatchNorm"
  bottom: "concat1_3"
  top: "conv1_4/bn"
  param {
    lr_mult: 0
    decay_mult: 0
  }
  param {
    lr_mult: 0
    decay_mult: 0
  }
  param {
    lr_mult: 0
    decay_mult: 0
  }
}
layer {
  name: "conv1_4/scale"
  type: "Scale"
  bottom: "conv1_4/bn"
  top: "conv1_4/bn"
  scale_param {
    filler {
      value: 1
    }
    bias_term: true
    bias_filler {
      value: 0
    }
  }
}
layer {
  name: "relu1_4"
  type: "ReLU"
  bottom: "conv1_4/bn"
  top: "conv1_4/bn"
}
layer {
  name: "conv1_4"
  type: "Convolution"
  bottom: "conv1_4/bn"
  top: "conv1_4"
  convolution_param {
    num_output: 32
    bias_term: false
    pad: 1
    kernel_size: 3
    stride: 1
    weight_filler {
      type: "msra"
    }
    bias_filler {
      type: "constant"
    }
    engine: CUDNN
  }
}
layer {
  name: "concat1_4"
  type: "Concat"
  bottom: "concat1_3"
  bottom: "conv1_4"
  top: "concat1_4"
  concat_param {
    axis: 1
  }
}
layer {
  name: "conv1_5/bn"
  type: "BatchNorm"
  bottom: "concat1_4"
  top: "conv1_5/bn"
  param {
    lr_mult: 0
    decay_mult: 0
  }
  param {
    lr_mult: 0
    decay_mult: 0
  }
  param {
    lr_mult: 0
    decay_mult: 0
  }
}
layer {
  name: "conv1_5/scale"
  type: "Scale"
  bottom: "conv1_5/bn"
  top: "conv1_5/bn"
  scale_param {
    filler {
      value: 1
    }
    bias_term: true
    bias_filler {
      value: 0
    }
  }
}
layer {
  name: "relu1_5"
  type: "ReLU"
  bottom: "conv1_5/bn"
  top: "conv1_5/bn"
}
layer {
  name: "conv1_5"
  type: "Convolution"
  bottom: "conv1_5/bn"
  top: "conv1_5"
  convolution_param {
    num_output: 32
    bias_term: false
    pad: 1
    kernel_size: 3
    stride: 1
    weight_filler {
      type: "msra"
    }
    bias_filler {
      type: "constant"
    }
    engine: CUDNN
  }
}
layer {
  name: "concat1_5"
  type: "Concat"
  bottom: "concat1_4"
  bottom: "conv1_5"
  top: "concat1_5"
  concat_param {
    axis: 1
  }
}
layer {
  name: "conv1_6/bn"
  type: "BatchNorm"
  bottom: "concat1_5"
  top: "conv1_6/bn"
  param {
    lr_mult: 0
    decay_mult: 0
  }
  param {
    lr_mult: 0
    decay_mult: 0
  }
  param {
    lr_mult: 0
    decay_mult: 0
  }
}
layer {
  name: "conv1_6/scale"
  type: "Scale"
  bottom: "conv1_6/bn"
  top: "conv1_6/bn"
  scale_param {
    filler {
      value: 1
    }
    bias_term: true
    bias_filler {
      value: 0
    }
  }
}
layer {
  name: "relu1_6"
  type: "ReLU"
  bottom: "conv1_6/bn"
  top: "conv1_6/bn"
}
layer {
  name: "conv1_6"
  type: "Convolution"
  bottom: "conv1_6/bn"
  top: "conv1_6"
  convolution_param {
    num_output: 32
    bias_term: false
    pad: 1
    kernel_size: 3
    stride: 1
    weight_filler {
      type: "msra"
    }
    bias_filler {
      type: "constant"
    }
    engine: CUDNN
  }
}
layer {
  name: "concat1_6"
  type: "Concat"
  bottom: "concat1_5"
  bottom: "conv1_6"
  top: "concat1_6"
  concat_param {
    axis: 1
  }
}
layer {
  name: "conv1_7/bn"
  type: "BatchNorm"
  bottom: "concat1_6"
  top: "conv1_7/bn"
  param {
    lr_mult: 0
    decay_mult: 0
  }
  param {
    lr_mult: 0
    decay_mult: 0
  }
  param {
    lr_mult: 0
    decay_mult: 0
  }
}
layer {
  name: "conv1_7/scale"
  type: "Scale"
  bottom: "conv1_7/bn"
  top: "conv1_7/bn"
  scale_param {
    filler {
      value: 1
    }
    bias_term: true
    bias_filler {
      value: 0
    }
  }
}
layer {
  name: "relu1_7"
  type: "ReLU"
  bottom: "conv1_7/bn"
  top: "conv1_7/bn"
}
layer {
  name: "conv1_7"
  type: "Convolution"
  bottom: "conv1_7/bn"
  top: "conv1_7"
  convolution_param {
    num_output: 32
    bias_term: false
    pad: 1
    kernel_size: 3
    stride: 1
    weight_filler {
      type: "msra"
    }
    bias_filler {
      type: "constant"
    }
    engine: CUDNN
  }
}
layer {
  name: "concat1_7"
  type: "Concat"
  bottom: "concat1_6"
  bottom: "conv1_7"
  top: "concat1_7"
  concat_param {
    axis: 1
  }
}
layer {
  name: "conv1_8/bn"
  type: "BatchNorm"
  bottom: "concat1_7"
  top: "conv1_8/bn"
  param {
    lr_mult: 0
    decay_mult: 0
  }
  param {
    lr_mult: 0
    decay_mult: 0
  }
  param {
    lr_mult: 0
    decay_mult: 0
  }
}
layer {
  name: "conv1_8/scale"
  type: "Scale"
  bottom: "conv1_8/bn"
  top: "conv1_8/bn"
  scale_param {
    filler {
      value: 1
    }
    bias_term: true
    bias_filler {
      value: 0
    }
  }
}
layer {
  name: "relu1_8"
  type: "ReLU"
  bottom: "conv1_8/bn"
  top: "conv1_8/bn"
}
layer {
  name: "conv1_8"
  type: "Convolution"
  bottom: "conv1_8/bn"
  top: "conv1_8"
  convolution_param {
    num_output: 32
    bias_term: false
    pad: 1
    kernel_size: 3
    stride: 1
    weight_filler {
      type: "msra"
    }
    bias_filler {
      type: "constant"
    }
    engine: CUDNN
  }
}
layer {
  name: "concat1_8"
  type: "Concat"
  bottom: "concat1_7"
  bottom: "conv1_8"
  top: "concat1_8"
  concat_param {
    axis: 1
  }
}
layer {
  name: "conv1_9/bn"
  type: "BatchNorm"
  bottom: "concat1_8"
  top: "conv1_9/bn"
  param {
    lr_mult: 0
    decay_mult: 0
  }
  param {
    lr_mult: 0
    decay_mult: 0
  }
  param {
    lr_mult: 0
    decay_mult: 0
  }
}
layer {
  name: "conv1_9/scale"
  type: "Scale"
  bottom: "conv1_9/bn"
  top: "conv1_9/bn"
  scale_param {
    filler {
      value: 1
    }
    bias_term: true
    bias_filler {
      value: 0
    }
  }
}
layer {
  name: "relu1_9"
  type: "ReLU"
  bottom: "conv1_9/bn"
  top: "conv1_9/bn"
}
layer {
  name: "conv1_9"
  type: "Convolution"
  bottom: "conv1_9/bn"
  top: "conv1_9"
  convolution_param {
    num_output: 32
    bias_term: false
    pad: 1
    kernel_size: 3
    stride: 1
    weight_filler {
      type: "msra"
    }
    bias_filler {
      type: "constant"
    }
    engine: CUDNN
  }
}
layer {
  name: "concat1_9"
  type: "Concat"
  bottom: "concat1_8"
  bottom: "conv1_9"
  top: "concat1_9"
  concat_param {
    axis: 1
  }
}
layer {
  name: "conv1_10/bn"
  type: "BatchNorm"
  bottom: "concat1_9"
  top: "conv1_10/bn"
  param {
    lr_mult: 0
    decay_mult: 0
  }
  param {
    lr_mult: 0
    decay_mult: 0
  }
  param {
    lr_mult: 0
    decay_mult: 0
  }
}
layer {
  name: "conv1_10/scale"
  type: "Scale"
  bottom: "conv1_10/bn"
  top: "conv1_10/bn"
  scale_param {
    filler {
      value: 1
    }
    bias_term: true
    bias_filler {
      value: 0
    }
  }
}
layer {
  name: "relu1_10"
  type: "ReLU"
  bottom: "conv1_10/bn"
  top: "conv1_10/bn"
}
layer {
  name: "conv1_10"
  type: "Convolution"
  bottom: "conv1_10/bn"
  top: "conv1_10"
  convolution_param {
    num_output: 32
    bias_term: false
    pad: 1
    kernel_size: 3
    stride: 1
    weight_filler {
      type: "msra"
    }
    bias_filler {
      type: "constant"
    }
    engine: CUDNN
  }
}
layer {
  name: "concat1_10"
  type: "Concat"
  bottom: "concat1_9"
  bottom: "conv1_10"
  top: "concat1_10"
  concat_param {
    axis: 1
  }
}
layer {
  name: "conv1_11/bn"
  type: "BatchNorm"
  bottom: "concat1_10"
  top: "conv1_11/bn"
  param {
    lr_mult: 0
    decay_mult: 0
  }
  param {
    lr_mult: 0
    decay_mult: 0
  }
  param {
    lr_mult: 0
    decay_mult: 0
  }
}
layer {
  name: "conv1_11/scale"
  type: "Scale"
  bottom: "conv1_11/bn"
  top: "conv1_11/bn"
  scale_param {
    filler {
      value: 1
    }
    bias_term: true
    bias_filler {
      value: 0
    }
  }
}
layer {
  name: "relu1_11"
  type: "ReLU"
  bottom: "conv1_11/bn"
  top: "conv1_11/bn"
}
layer {
  name: "conv1_11"
  type: "Convolution"
  bottom: "conv1_11/bn"
  top: "conv1_11"
  convolution_param {
    num_output: 32
    bias_term: false
    pad: 1
    kernel_size: 3
    stride: 1
    weight_filler {
      type: "msra"
    }
    bias_filler {
      type: "constant"
    }
    engine: CUDNN
  }
}
layer {
  name: "concat1_11"
  type: "Concat"
  bottom: "concat1_10"
  bottom: "conv1_11"
  top: "concat1_11"
  concat_param {
    axis: 1
  }
}
layer {
  name: "tpp5"
  type: "TPP"
  bottom: "concat1_11"
  top: "tpp5"
  tpp_param {
    pyramid_layer: 1
    pyramid_layer: 2
    pyramid_layer: 3
    pyramid_layer: 4
    pyramid_layer: 5
    pool: MAX
    engine: CUDNN
  }
}
layer {
  name: "fc6_d"
  type: "InnerProduct"
  bottom: "tpp5"
  top: "fc6_d"
  inner_product_param {
    num_output: 4096
    weight_filler {
      type: "msra"
    }
    bias_filler {
      type: "constant"
    }
  }
}
layer {
  name: "relu6"
  type: "ReLU"
  bottom: "fc6_d"
  top: "fc6_d"
}
layer {
  name: "fc7_d"
  type: "InnerProduct"
  bottom: "fc6_d"
  top: "fc7_d"
  inner_product_param {
    num_output: 4096
    weight_filler {
      type: "msra"
    }
    bias_filler {
      type: "constant"
    }
  }
}
layer {
  name: "relu7"
  type: "ReLU"
  bottom: "fc7_d"
  top: "fc7_d"
}
layer {
  name: "fc8_d"
  type: "InnerProduct"
  bottom: "fc7_d"
  top: "fc8_d"
  inner_product_param {
    num_output: 618
    weight_filler {
      type: "msra"
    }
    bias_filler {
      type: "constant"
    }
  }
}
layer {
  name: "sigmoid"
  type: "Sigmoid"
  bottom: "fc8_d"
  top: "sigmoid"
  include {
    phase: TEST
  }
}
layer {
  name: "silence"
  type: "Silence"
  bottom: "sigmoid"
  include {
    phase: TEST
  }
}
layer {
  name: "loss"
  type: "SigmoidCrossEntropyLoss"
  bottom: "fc8_d"
  bottom: "phocs"
  top: "loss"
}
I1219 20:01:59.254451  8306 layer_factory.hpp:77] Creating layer word_images
I1219 20:01:59.254559  8306 db_lmdb.cpp:35] Opened lmdb /data/fwolf/iam/iam-db_nti500000_pul2-3-4-5_test_word_images_lmdb
I1219 20:01:59.277981  8306 net.cpp:84] Creating Layer word_images
I1219 20:01:59.278028  8306 net.cpp:380] word_images -> word_images
I1219 20:01:59.278046  8306 net.cpp:380] word_images -> label
I1219 20:01:59.278818  8306 data_layer.cpp:44] output data size: 1,1,90,94
I1219 20:01:59.467195  8306 net.cpp:122] Setting up word_images
I1219 20:01:59.467236  8306 net.cpp:129] Top shape: 1 1 90 94 (8460)
I1219 20:01:59.467243  8306 net.cpp:129] Top shape: 1 (1)
I1219 20:01:59.467247  8306 net.cpp:137] Memory required for data: 33844
I1219 20:01:59.467257  8306 layer_factory.hpp:77] Creating layer phocs
I1219 20:01:59.467353  8306 db_lmdb.cpp:35] Opened lmdb /data/fwolf/iam/iam-db_nti500000_pul2-3-4-5_test_phocs_lmdb
I1219 20:01:59.480760  8306 net.cpp:84] Creating Layer phocs
I1219 20:01:59.480803  8306 net.cpp:380] phocs -> phocs
I1219 20:01:59.480818  8306 net.cpp:380] phocs -> label_phocs
I1219 20:01:59.481582  8306 data_layer.cpp:44] output data size: 1,1,1,618
I1219 20:01:59.897292  8306 net.cpp:122] Setting up phocs
I1219 20:01:59.897334  8306 net.cpp:129] Top shape: 1 1 1 618 (618)
I1219 20:01:59.897341  8306 net.cpp:129] Top shape: 1 (1)
I1219 20:01:59.897346  8306 net.cpp:137] Memory required for data: 36320
I1219 20:01:59.897354  8306 layer_factory.hpp:77] Creating layer conv_init
I1219 20:01:59.897383  8306 net.cpp:84] Creating Layer conv_init
I1219 20:01:59.897389  8306 net.cpp:406] conv_init <- word_images
I1219 20:01:59.897403  8306 net.cpp:380] conv_init -> conv_init
I1219 20:01:59.937417  8306 net.cpp:122] Setting up conv_init
I1219 20:01:59.937453  8306 net.cpp:129] Top shape: 1 32 90 94 (270720)
I1219 20:01:59.937458  8306 net.cpp:137] Memory required for data: 1119200
I1219 20:01:59.937472  8306 layer_factory.hpp:77] Creating layer bn_init
I1219 20:01:59.937487  8306 net.cpp:84] Creating Layer bn_init
I1219 20:01:59.937494  8306 net.cpp:406] bn_init <- conv_init
I1219 20:01:59.937503  8306 net.cpp:380] bn_init -> bn_init
I1219 20:02:00.009582  8306 net.cpp:122] Setting up bn_init
I1219 20:02:00.009619  8306 net.cpp:129] Top shape: 1 32 90 94 (270720)
I1219 20:02:00.009624  8306 net.cpp:137] Memory required for data: 2202080
I1219 20:02:00.009645  8306 layer_factory.hpp:77] Creating layer scale_init
I1219 20:02:00.009665  8306 net.cpp:84] Creating Layer scale_init
I1219 20:02:00.009671  8306 net.cpp:406] scale_init <- bn_init
I1219 20:02:00.009680  8306 net.cpp:367] scale_init -> bn_init (in-place)
I1219 20:02:00.009776  8306 layer_factory.hpp:77] Creating layer scale_init
I1219 20:02:00.010087  8306 net.cpp:122] Setting up scale_init
I1219 20:02:00.010100  8306 net.cpp:129] Top shape: 1 32 90 94 (270720)
I1219 20:02:00.010104  8306 net.cpp:137] Memory required for data: 3284960
I1219 20:02:00.010116  8306 layer_factory.hpp:77] Creating layer relu_init
I1219 20:02:00.010125  8306 net.cpp:84] Creating Layer relu_init
I1219 20:02:00.010130  8306 net.cpp:406] relu_init <- bn_init
I1219 20:02:00.010138  8306 net.cpp:367] relu_init -> bn_init (in-place)
I1219 20:02:00.010463  8306 net.cpp:122] Setting up relu_init
I1219 20:02:00.010475  8306 net.cpp:129] Top shape: 1 32 90 94 (270720)
I1219 20:02:00.010480  8306 net.cpp:137] Memory required for data: 4367840
I1219 20:02:00.010486  8306 layer_factory.hpp:77] Creating layer pool_init
I1219 20:02:00.010496  8306 net.cpp:84] Creating Layer pool_init
I1219 20:02:00.010501  8306 net.cpp:406] pool_init <- bn_init
I1219 20:02:00.010509  8306 net.cpp:380] pool_init -> pool_init
I1219 20:02:00.010610  8306 net.cpp:122] Setting up pool_init
I1219 20:02:00.010620  8306 net.cpp:129] Top shape: 1 32 46 48 (70656)
I1219 20:02:00.010624  8306 net.cpp:137] Memory required for data: 4650464
I1219 20:02:00.010629  8306 layer_factory.hpp:77] Creating layer pool_init_pool_init_0_split
I1219 20:02:00.010637  8306 net.cpp:84] Creating Layer pool_init_pool_init_0_split
I1219 20:02:00.010643  8306 net.cpp:406] pool_init_pool_init_0_split <- pool_init
I1219 20:02:00.010650  8306 net.cpp:380] pool_init_pool_init_0_split -> pool_init_pool_init_0_split_0
I1219 20:02:00.010658  8306 net.cpp:380] pool_init_pool_init_0_split -> pool_init_pool_init_0_split_1
I1219 20:02:00.010737  8306 net.cpp:122] Setting up pool_init_pool_init_0_split
I1219 20:02:00.010746  8306 net.cpp:129] Top shape: 1 32 46 48 (70656)
I1219 20:02:00.010752  8306 net.cpp:129] Top shape: 1 32 46 48 (70656)
I1219 20:02:00.010756  8306 net.cpp:137] Memory required for data: 5215712
I1219 20:02:00.010761  8306 layer_factory.hpp:77] Creating layer conv0_0/bn
I1219 20:02:00.010772  8306 net.cpp:84] Creating Layer conv0_0/bn
I1219 20:02:00.010777  8306 net.cpp:406] conv0_0/bn <- pool_init_pool_init_0_split_0
I1219 20:02:00.010784  8306 net.cpp:380] conv0_0/bn -> conv0_0/bn
I1219 20:02:00.011273  8306 net.cpp:122] Setting up conv0_0/bn
I1219 20:02:00.011286  8306 net.cpp:129] Top shape: 1 32 46 48 (70656)
I1219 20:02:00.011291  8306 net.cpp:137] Memory required for data: 5498336
I1219 20:02:00.011304  8306 layer_factory.hpp:77] Creating layer conv0_0/scale
I1219 20:02:00.011315  8306 net.cpp:84] Creating Layer conv0_0/scale
I1219 20:02:00.011320  8306 net.cpp:406] conv0_0/scale <- conv0_0/bn
I1219 20:02:00.011329  8306 net.cpp:367] conv0_0/scale -> conv0_0/bn (in-place)
I1219 20:02:00.011422  8306 layer_factory.hpp:77] Creating layer conv0_0/scale
I1219 20:02:00.011713  8306 net.cpp:122] Setting up conv0_0/scale
I1219 20:02:00.011725  8306 net.cpp:129] Top shape: 1 32 46 48 (70656)
I1219 20:02:00.011730  8306 net.cpp:137] Memory required for data: 5780960
I1219 20:02:00.011740  8306 layer_factory.hpp:77] Creating layer relu0_0
I1219 20:02:00.055877  8306 net.cpp:84] Creating Layer relu0_0
I1219 20:02:00.055914  8306 net.cpp:406] relu0_0 <- conv0_0/bn
I1219 20:02:00.055927  8306 net.cpp:367] relu0_0 -> conv0_0/bn (in-place)
I1219 20:02:00.060585  8306 net.cpp:122] Setting up relu0_0
I1219 20:02:00.060621  8306 net.cpp:129] Top shape: 1 32 46 48 (70656)
I1219 20:02:00.060627  8306 net.cpp:137] Memory required for data: 6063584
I1219 20:02:00.060636  8306 layer_factory.hpp:77] Creating layer conv0_0
I1219 20:02:00.060657  8306 net.cpp:84] Creating Layer conv0_0
I1219 20:02:00.060662  8306 net.cpp:406] conv0_0 <- conv0_0/bn
I1219 20:02:00.060673  8306 net.cpp:380] conv0_0 -> conv0_0
I1219 20:02:00.102944  8306 net.cpp:122] Setting up conv0_0
I1219 20:02:00.102982  8306 net.cpp:129] Top shape: 1 32 46 48 (70656)
I1219 20:02:00.102988  8306 net.cpp:137] Memory required for data: 6346208
I1219 20:02:00.102999  8306 layer_factory.hpp:77] Creating layer concat0_0
I1219 20:02:00.103013  8306 net.cpp:84] Creating Layer concat0_0
I1219 20:02:00.103026  8306 net.cpp:406] concat0_0 <- pool_init_pool_init_0_split_1
I1219 20:02:00.103034  8306 net.cpp:406] concat0_0 <- conv0_0
I1219 20:02:00.103044  8306 net.cpp:380] concat0_0 -> concat0_0
I1219 20:02:00.103116  8306 net.cpp:122] Setting up concat0_0
I1219 20:02:00.103124  8306 net.cpp:129] Top shape: 1 64 46 48 (141312)
I1219 20:02:00.103128  8306 net.cpp:137] Memory required for data: 6911456
I1219 20:02:00.103133  8306 layer_factory.hpp:77] Creating layer concat0_0_concat0_0_0_split
I1219 20:02:00.103142  8306 net.cpp:84] Creating Layer concat0_0_concat0_0_0_split
I1219 20:02:00.103147  8306 net.cpp:406] concat0_0_concat0_0_0_split <- concat0_0
I1219 20:02:00.103154  8306 net.cpp:380] concat0_0_concat0_0_0_split -> concat0_0_concat0_0_0_split_0
I1219 20:02:00.103162  8306 net.cpp:380] concat0_0_concat0_0_0_split -> concat0_0_concat0_0_0_split_1
I1219 20:02:00.103252  8306 net.cpp:122] Setting up concat0_0_concat0_0_0_split
I1219 20:02:00.103262  8306 net.cpp:129] Top shape: 1 64 46 48 (141312)
I1219 20:02:00.103268  8306 net.cpp:129] Top shape: 1 64 46 48 (141312)
I1219 20:02:00.103272  8306 net.cpp:137] Memory required for data: 8041952
I1219 20:02:00.103277  8306 layer_factory.hpp:77] Creating layer conv0_1/bn
I1219 20:02:00.103286  8306 net.cpp:84] Creating Layer conv0_1/bn
I1219 20:02:00.103291  8306 net.cpp:406] conv0_1/bn <- concat0_0_concat0_0_0_split_0
I1219 20:02:00.103298  8306 net.cpp:380] conv0_1/bn -> conv0_1/bn
I1219 20:02:00.115716  8306 net.cpp:122] Setting up conv0_1/bn
I1219 20:02:00.115759  8306 net.cpp:129] Top shape: 1 64 46 48 (141312)
I1219 20:02:00.115766  8306 net.cpp:137] Memory required for data: 8607200
I1219 20:02:00.115782  8306 layer_factory.hpp:77] Creating layer conv0_1/scale
I1219 20:02:00.115798  8306 net.cpp:84] Creating Layer conv0_1/scale
I1219 20:02:00.115805  8306 net.cpp:406] conv0_1/scale <- conv0_1/bn
I1219 20:02:00.115814  8306 net.cpp:367] conv0_1/scale -> conv0_1/bn (in-place)
I1219 20:02:00.115927  8306 layer_factory.hpp:77] Creating layer conv0_1/scale
I1219 20:02:00.116251  8306 net.cpp:122] Setting up conv0_1/scale
I1219 20:02:00.116261  8306 net.cpp:129] Top shape: 1 64 46 48 (141312)
I1219 20:02:00.116266  8306 net.cpp:137] Memory required for data: 9172448
I1219 20:02:00.116279  8306 layer_factory.hpp:77] Creating layer relu0_1
I1219 20:02:00.116291  8306 net.cpp:84] Creating Layer relu0_1
I1219 20:02:00.116295  8306 net.cpp:406] relu0_1 <- conv0_1/bn
I1219 20:02:00.116302  8306 net.cpp:367] relu0_1 -> conv0_1/bn (in-place)
I1219 20:02:00.117079  8306 net.cpp:122] Setting up relu0_1
I1219 20:02:00.117094  8306 net.cpp:129] Top shape: 1 64 46 48 (141312)
I1219 20:02:00.117100  8306 net.cpp:137] Memory required for data: 9737696
I1219 20:02:00.117105  8306 layer_factory.hpp:77] Creating layer conv0_1
I1219 20:02:00.117123  8306 net.cpp:84] Creating Layer conv0_1
I1219 20:02:00.117130  8306 net.cpp:406] conv0_1 <- conv0_1/bn
I1219 20:02:00.117138  8306 net.cpp:380] conv0_1 -> conv0_1
I1219 20:02:00.120411  8306 net.cpp:122] Setting up conv0_1
I1219 20:02:00.120447  8306 net.cpp:129] Top shape: 1 32 46 48 (70656)
I1219 20:02:00.120453  8306 net.cpp:137] Memory required for data: 10020320
I1219 20:02:00.120465  8306 layer_factory.hpp:77] Creating layer concat0_1
I1219 20:02:00.120479  8306 net.cpp:84] Creating Layer concat0_1
I1219 20:02:00.120486  8306 net.cpp:406] concat0_1 <- concat0_0_concat0_0_0_split_1
I1219 20:02:00.120494  8306 net.cpp:406] concat0_1 <- conv0_1
I1219 20:02:00.120503  8306 net.cpp:380] concat0_1 -> concat0_1
I1219 20:02:00.120565  8306 net.cpp:122] Setting up concat0_1
I1219 20:02:00.120575  8306 net.cpp:129] Top shape: 1 96 46 48 (211968)
I1219 20:02:00.120580  8306 net.cpp:137] Memory required for data: 10868192
I1219 20:02:00.120585  8306 layer_factory.hpp:77] Creating layer concat0_1_concat0_1_0_split
I1219 20:02:00.120594  8306 net.cpp:84] Creating Layer concat0_1_concat0_1_0_split
I1219 20:02:00.120599  8306 net.cpp:406] concat0_1_concat0_1_0_split <- concat0_1
I1219 20:02:00.120606  8306 net.cpp:380] concat0_1_concat0_1_0_split -> concat0_1_concat0_1_0_split_0
I1219 20:02:00.120620  8306 net.cpp:380] concat0_1_concat0_1_0_split -> concat0_1_concat0_1_0_split_1
I1219 20:02:00.120709  8306 net.cpp:122] Setting up concat0_1_concat0_1_0_split
I1219 20:02:00.120719  8306 net.cpp:129] Top shape: 1 96 46 48 (211968)
I1219 20:02:00.120725  8306 net.cpp:129] Top shape: 1 96 46 48 (211968)
I1219 20:02:00.120729  8306 net.cpp:137] Memory required for data: 12563936
I1219 20:02:00.120734  8306 layer_factory.hpp:77] Creating layer conv0_2/bn
I1219 20:02:00.120744  8306 net.cpp:84] Creating Layer conv0_2/bn
I1219 20:02:00.120749  8306 net.cpp:406] conv0_2/bn <- concat0_1_concat0_1_0_split_0
I1219 20:02:00.120756  8306 net.cpp:380] conv0_2/bn -> conv0_2/bn
I1219 20:02:00.121333  8306 net.cpp:122] Setting up conv0_2/bn
I1219 20:02:00.121347  8306 net.cpp:129] Top shape: 1 96 46 48 (211968)
I1219 20:02:00.121352  8306 net.cpp:137] Memory required for data: 13411808
I1219 20:02:00.121364  8306 layer_factory.hpp:77] Creating layer conv0_2/scale
I1219 20:02:00.121376  8306 net.cpp:84] Creating Layer conv0_2/scale
I1219 20:02:00.121382  8306 net.cpp:406] conv0_2/scale <- conv0_2/bn
I1219 20:02:00.121389  8306 net.cpp:367] conv0_2/scale -> conv0_2/bn (in-place)
I1219 20:02:00.121491  8306 layer_factory.hpp:77] Creating layer conv0_2/scale
I1219 20:02:00.121806  8306 net.cpp:122] Setting up conv0_2/scale
I1219 20:02:00.121817  8306 net.cpp:129] Top shape: 1 96 46 48 (211968)
I1219 20:02:00.121822  8306 net.cpp:137] Memory required for data: 14259680
I1219 20:02:00.121831  8306 layer_factory.hpp:77] Creating layer relu0_2
I1219 20:02:00.121842  8306 net.cpp:84] Creating Layer relu0_2
I1219 20:02:00.121847  8306 net.cpp:406] relu0_2 <- conv0_2/bn
I1219 20:02:00.121855  8306 net.cpp:367] relu0_2 -> conv0_2/bn (in-place)
I1219 20:02:00.122174  8306 net.cpp:122] Setting up relu0_2
I1219 20:02:00.122187  8306 net.cpp:129] Top shape: 1 96 46 48 (211968)
I1219 20:02:00.122192  8306 net.cpp:137] Memory required for data: 15107552
I1219 20:02:00.122197  8306 layer_factory.hpp:77] Creating layer conv0_2
I1219 20:02:00.122215  8306 net.cpp:84] Creating Layer conv0_2
I1219 20:02:00.122220  8306 net.cpp:406] conv0_2 <- conv0_2/bn
I1219 20:02:00.122229  8306 net.cpp:380] conv0_2 -> conv0_2
I1219 20:02:00.127821  8306 net.cpp:122] Setting up conv0_2
I1219 20:02:00.127861  8306 net.cpp:129] Top shape: 1 32 46 48 (70656)
I1219 20:02:00.127866  8306 net.cpp:137] Memory required for data: 15390176
I1219 20:02:00.127879  8306 layer_factory.hpp:77] Creating layer concat0_2
I1219 20:02:00.127894  8306 net.cpp:84] Creating Layer concat0_2
I1219 20:02:00.127902  8306 net.cpp:406] concat0_2 <- concat0_1_concat0_1_0_split_1
I1219 20:02:00.127910  8306 net.cpp:406] concat0_2 <- conv0_2
I1219 20:02:00.127920  8306 net.cpp:380] concat0_2 -> concat0_2
I1219 20:02:00.128021  8306 net.cpp:122] Setting up concat0_2
I1219 20:02:00.128031  8306 net.cpp:129] Top shape: 1 128 46 48 (282624)
I1219 20:02:00.128036  8306 net.cpp:137] Memory required for data: 16520672
I1219 20:02:00.128041  8306 layer_factory.hpp:77] Creating layer concat0_2_concat0_2_0_split
I1219 20:02:00.128051  8306 net.cpp:84] Creating Layer concat0_2_concat0_2_0_split
I1219 20:02:00.128056  8306 net.cpp:406] concat0_2_concat0_2_0_split <- concat0_2
I1219 20:02:00.128062  8306 net.cpp:380] concat0_2_concat0_2_0_split -> concat0_2_concat0_2_0_split_0
I1219 20:02:00.128070  8306 net.cpp:380] concat0_2_concat0_2_0_split -> concat0_2_concat0_2_0_split_1
I1219 20:02:00.128168  8306 net.cpp:122] Setting up concat0_2_concat0_2_0_split
I1219 20:02:00.128177  8306 net.cpp:129] Top shape: 1 128 46 48 (282624)
I1219 20:02:00.128183  8306 net.cpp:129] Top shape: 1 128 46 48 (282624)
I1219 20:02:00.128188  8306 net.cpp:137] Memory required for data: 18781664
I1219 20:02:00.128193  8306 layer_factory.hpp:77] Creating layer conv0_3/bn
I1219 20:02:00.128203  8306 net.cpp:84] Creating Layer conv0_3/bn
I1219 20:02:00.128208  8306 net.cpp:406] conv0_3/bn <- concat0_2_concat0_2_0_split_0
I1219 20:02:00.128216  8306 net.cpp:380] conv0_3/bn -> conv0_3/bn
I1219 20:02:00.128782  8306 net.cpp:122] Setting up conv0_3/bn
I1219 20:02:00.128794  8306 net.cpp:129] Top shape: 1 128 46 48 (282624)
I1219 20:02:00.128799  8306 net.cpp:137] Memory required for data: 19912160
I1219 20:02:00.128811  8306 layer_factory.hpp:77] Creating layer conv0_3/scale
I1219 20:02:00.128824  8306 net.cpp:84] Creating Layer conv0_3/scale
I1219 20:02:00.128829  8306 net.cpp:406] conv0_3/scale <- conv0_3/bn
I1219 20:02:00.128836  8306 net.cpp:367] conv0_3/scale -> conv0_3/bn (in-place)
I1219 20:02:00.128932  8306 layer_factory.hpp:77] Creating layer conv0_3/scale
I1219 20:02:00.129217  8306 net.cpp:122] Setting up conv0_3/scale
I1219 20:02:00.129228  8306 net.cpp:129] Top shape: 1 128 46 48 (282624)
I1219 20:02:00.129233  8306 net.cpp:137] Memory required for data: 21042656
I1219 20:02:00.129241  8306 layer_factory.hpp:77] Creating layer relu0_3
I1219 20:02:00.129251  8306 net.cpp:84] Creating Layer relu0_3
I1219 20:02:00.129256  8306 net.cpp:406] relu0_3 <- conv0_3/bn
I1219 20:02:00.129266  8306 net.cpp:367] relu0_3 -> conv0_3/bn (in-place)
I1219 20:02:00.130069  8306 net.cpp:122] Setting up relu0_3
I1219 20:02:00.130085  8306 net.cpp:129] Top shape: 1 128 46 48 (282624)
I1219 20:02:00.130090  8306 net.cpp:137] Memory required for data: 22173152
I1219 20:02:00.130095  8306 layer_factory.hpp:77] Creating layer conv0_3
I1219 20:02:00.130111  8306 net.cpp:84] Creating Layer conv0_3
I1219 20:02:00.130117  8306 net.cpp:406] conv0_3 <- conv0_3/bn
I1219 20:02:00.130127  8306 net.cpp:380] conv0_3 -> conv0_3
I1219 20:02:00.222865  8306 net.cpp:122] Setting up conv0_3
I1219 20:02:00.222914  8306 net.cpp:129] Top shape: 1 32 46 48 (70656)
I1219 20:02:00.222920  8306 net.cpp:137] Memory required for data: 22455776
I1219 20:02:00.222936  8306 layer_factory.hpp:77] Creating layer concat0_3
I1219 20:02:00.222957  8306 net.cpp:84] Creating Layer concat0_3
I1219 20:02:00.222970  8306 net.cpp:406] concat0_3 <- concat0_2_concat0_2_0_split_1
I1219 20:02:00.222980  8306 net.cpp:406] concat0_3 <- conv0_3
I1219 20:02:00.222990  8306 net.cpp:380] concat0_3 -> concat0_3
I1219 20:02:00.223196  8306 net.cpp:122] Setting up concat0_3
I1219 20:02:00.223211  8306 net.cpp:129] Top shape: 1 160 46 48 (353280)
I1219 20:02:00.223214  8306 net.cpp:137] Memory required for data: 23868896
I1219 20:02:00.223219  8306 layer_factory.hpp:77] Creating layer concat0_3_concat0_3_0_split
I1219 20:02:00.223230  8306 net.cpp:84] Creating Layer concat0_3_concat0_3_0_split
I1219 20:02:00.223235  8306 net.cpp:406] concat0_3_concat0_3_0_split <- concat0_3
I1219 20:02:00.223242  8306 net.cpp:380] concat0_3_concat0_3_0_split -> concat0_3_concat0_3_0_split_0
I1219 20:02:00.223253  8306 net.cpp:380] concat0_3_concat0_3_0_split -> concat0_3_concat0_3_0_split_1
I1219 20:02:00.223357  8306 net.cpp:122] Setting up concat0_3_concat0_3_0_split
I1219 20:02:00.223366  8306 net.cpp:129] Top shape: 1 160 46 48 (353280)
I1219 20:02:00.223372  8306 net.cpp:129] Top shape: 1 160 46 48 (353280)
I1219 20:02:00.223376  8306 net.cpp:137] Memory required for data: 26695136
I1219 20:02:00.223381  8306 layer_factory.hpp:77] Creating layer conv0_4/bn
I1219 20:02:00.223395  8306 net.cpp:84] Creating Layer conv0_4/bn
I1219 20:02:00.223400  8306 net.cpp:406] conv0_4/bn <- concat0_3_concat0_3_0_split_0
I1219 20:02:00.223407  8306 net.cpp:380] conv0_4/bn -> conv0_4/bn
I1219 20:02:00.224002  8306 net.cpp:122] Setting up conv0_4/bn
I1219 20:02:00.224020  8306 net.cpp:129] Top shape: 1 160 46 48 (353280)
I1219 20:02:00.224025  8306 net.cpp:137] Memory required for data: 28108256
I1219 20:02:00.224045  8306 layer_factory.hpp:77] Creating layer conv0_4/scale
I1219 20:02:00.224057  8306 net.cpp:84] Creating Layer conv0_4/scale
I1219 20:02:00.224062  8306 net.cpp:406] conv0_4/scale <- conv0_4/bn
I1219 20:02:00.224071  8306 net.cpp:367] conv0_4/scale -> conv0_4/bn (in-place)
I1219 20:02:00.224195  8306 layer_factory.hpp:77] Creating layer conv0_4/scale
I1219 20:02:00.224486  8306 net.cpp:122] Setting up conv0_4/scale
I1219 20:02:00.224498  8306 net.cpp:129] Top shape: 1 160 46 48 (353280)
I1219 20:02:00.224506  8306 net.cpp:137] Memory required for data: 29521376
I1219 20:02:00.224515  8306 layer_factory.hpp:77] Creating layer relu0_4
I1219 20:02:00.224524  8306 net.cpp:84] Creating Layer relu0_4
I1219 20:02:00.224529  8306 net.cpp:406] relu0_4 <- conv0_4/bn
I1219 20:02:00.224535  8306 net.cpp:367] relu0_4 -> conv0_4/bn (in-place)
I1219 20:02:00.224907  8306 net.cpp:122] Setting up relu0_4
I1219 20:02:00.224920  8306 net.cpp:129] Top shape: 1 160 46 48 (353280)
I1219 20:02:00.224925  8306 net.cpp:137] Memory required for data: 30934496
I1219 20:02:00.224931  8306 layer_factory.hpp:77] Creating layer conv0_4
I1219 20:02:00.224943  8306 net.cpp:84] Creating Layer conv0_4
I1219 20:02:00.224949  8306 net.cpp:406] conv0_4 <- conv0_4/bn
I1219 20:02:00.224956  8306 net.cpp:380] conv0_4 -> conv0_4
I1219 20:02:00.237607  8306 net.cpp:122] Setting up conv0_4
I1219 20:02:00.237649  8306 net.cpp:129] Top shape: 1 32 46 48 (70656)
I1219 20:02:00.237654  8306 net.cpp:137] Memory required for data: 31217120
I1219 20:02:00.237668  8306 layer_factory.hpp:77] Creating layer concat0_4
I1219 20:02:00.237682  8306 net.cpp:84] Creating Layer concat0_4
I1219 20:02:00.237690  8306 net.cpp:406] concat0_4 <- concat0_3_concat0_3_0_split_1
I1219 20:02:00.237699  8306 net.cpp:406] concat0_4 <- conv0_4
I1219 20:02:00.237709  8306 net.cpp:380] concat0_4 -> concat0_4
I1219 20:02:00.237810  8306 net.cpp:122] Setting up concat0_4
I1219 20:02:00.237820  8306 net.cpp:129] Top shape: 1 192 46 48 (423936)
I1219 20:02:00.237824  8306 net.cpp:137] Memory required for data: 32912864
I1219 20:02:00.237829  8306 layer_factory.hpp:77] Creating layer concat0_4_concat0_4_0_split
I1219 20:02:00.237838  8306 net.cpp:84] Creating Layer concat0_4_concat0_4_0_split
I1219 20:02:00.237843  8306 net.cpp:406] concat0_4_concat0_4_0_split <- concat0_4
I1219 20:02:00.237849  8306 net.cpp:380] concat0_4_concat0_4_0_split -> concat0_4_concat0_4_0_split_0
I1219 20:02:00.237859  8306 net.cpp:380] concat0_4_concat0_4_0_split -> concat0_4_concat0_4_0_split_1
I1219 20:02:00.237957  8306 net.cpp:122] Setting up concat0_4_concat0_4_0_split
I1219 20:02:00.237967  8306 net.cpp:129] Top shape: 1 192 46 48 (423936)
I1219 20:02:00.237973  8306 net.cpp:129] Top shape: 1 192 46 48 (423936)
I1219 20:02:00.237977  8306 net.cpp:137] Memory required for data: 36304352
I1219 20:02:00.237982  8306 layer_factory.hpp:77] Creating layer conv0_5/bn
I1219 20:02:00.237990  8306 net.cpp:84] Creating Layer conv0_5/bn
I1219 20:02:00.237995  8306 net.cpp:406] conv0_5/bn <- concat0_4_concat0_4_0_split_0
I1219 20:02:00.238003  8306 net.cpp:380] conv0_5/bn -> conv0_5/bn
I1219 20:02:00.238608  8306 net.cpp:122] Setting up conv0_5/bn
I1219 20:02:00.238631  8306 net.cpp:129] Top shape: 1 192 46 48 (423936)
I1219 20:02:00.238636  8306 net.cpp:137] Memory required for data: 38000096
I1219 20:02:00.238651  8306 layer_factory.hpp:77] Creating layer conv0_5/scale
I1219 20:02:00.238664  8306 net.cpp:84] Creating Layer conv0_5/scale
I1219 20:02:00.238670  8306 net.cpp:406] conv0_5/scale <- conv0_5/bn
I1219 20:02:00.238679  8306 net.cpp:367] conv0_5/scale -> conv0_5/bn (in-place)
I1219 20:02:00.238775  8306 layer_factory.hpp:77] Creating layer conv0_5/scale
I1219 20:02:00.239117  8306 net.cpp:122] Setting up conv0_5/scale
I1219 20:02:00.239131  8306 net.cpp:129] Top shape: 1 192 46 48 (423936)
I1219 20:02:00.239136  8306 net.cpp:137] Memory required for data: 39695840
I1219 20:02:00.239146  8306 layer_factory.hpp:77] Creating layer relu0_5
I1219 20:02:00.239156  8306 net.cpp:84] Creating Layer relu0_5
I1219 20:02:00.239161  8306 net.cpp:406] relu0_5 <- conv0_5/bn
I1219 20:02:00.239167  8306 net.cpp:367] relu0_5 -> conv0_5/bn (in-place)
I1219 20:02:00.365181  8306 net.cpp:122] Setting up relu0_5
I1219 20:02:00.365222  8306 net.cpp:129] Top shape: 1 192 46 48 (423936)
I1219 20:02:00.365228  8306 net.cpp:137] Memory required for data: 41391584
I1219 20:02:00.365236  8306 layer_factory.hpp:77] Creating layer conv0_5
I1219 20:02:00.365258  8306 net.cpp:84] Creating Layer conv0_5
I1219 20:02:00.365270  8306 net.cpp:406] conv0_5 <- conv0_5/bn
I1219 20:02:00.365283  8306 net.cpp:380] conv0_5 -> conv0_5
I1219 20:02:00.417968  8306 net.cpp:122] Setting up conv0_5
I1219 20:02:00.418004  8306 net.cpp:129] Top shape: 1 32 46 48 (70656)
I1219 20:02:00.418009  8306 net.cpp:137] Memory required for data: 41674208
I1219 20:02:00.418021  8306 layer_factory.hpp:77] Creating layer concat0_5
I1219 20:02:00.418036  8306 net.cpp:84] Creating Layer concat0_5
I1219 20:02:00.418045  8306 net.cpp:406] concat0_5 <- concat0_4_concat0_4_0_split_1
I1219 20:02:00.418053  8306 net.cpp:406] concat0_5 <- conv0_5
I1219 20:02:00.418061  8306 net.cpp:380] concat0_5 -> concat0_5
I1219 20:02:00.418136  8306 net.cpp:122] Setting up concat0_5
I1219 20:02:00.418145  8306 net.cpp:129] Top shape: 1 224 46 48 (494592)
I1219 20:02:00.418149  8306 net.cpp:137] Memory required for data: 43652576
I1219 20:02:00.418154  8306 layer_factory.hpp:77] Creating layer BatchNorm1
I1219 20:02:00.418164  8306 net.cpp:84] Creating Layer BatchNorm1
I1219 20:02:00.418169  8306 net.cpp:406] BatchNorm1 <- concat0_5
I1219 20:02:00.418177  8306 net.cpp:380] BatchNorm1 -> BatchNorm1
I1219 20:02:00.418745  8306 net.cpp:122] Setting up BatchNorm1
I1219 20:02:00.418758  8306 net.cpp:129] Top shape: 1 224 46 48 (494592)
I1219 20:02:00.418762  8306 net.cpp:137] Memory required for data: 45630944
I1219 20:02:00.418774  8306 layer_factory.hpp:77] Creating layer Scale1
I1219 20:02:00.418786  8306 net.cpp:84] Creating Layer Scale1
I1219 20:02:00.418792  8306 net.cpp:406] Scale1 <- BatchNorm1
I1219 20:02:00.418799  8306 net.cpp:367] Scale1 -> BatchNorm1 (in-place)
I1219 20:02:00.418892  8306 layer_factory.hpp:77] Creating layer Scale1
I1219 20:02:00.419176  8306 net.cpp:122] Setting up Scale1
I1219 20:02:00.419188  8306 net.cpp:129] Top shape: 1 224 46 48 (494592)
I1219 20:02:00.419191  8306 net.cpp:137] Memory required for data: 47609312
I1219 20:02:00.419199  8306 layer_factory.hpp:77] Creating layer ReLU1
I1219 20:02:00.419209  8306 net.cpp:84] Creating Layer ReLU1
I1219 20:02:00.419214  8306 net.cpp:406] ReLU1 <- BatchNorm1
I1219 20:02:00.419220  8306 net.cpp:367] ReLU1 -> BatchNorm1 (in-place)
I1219 20:02:00.432340  8306 net.cpp:122] Setting up ReLU1
I1219 20:02:00.432375  8306 net.cpp:129] Top shape: 1 224 46 48 (494592)
I1219 20:02:00.432380  8306 net.cpp:137] Memory required for data: 49587680
I1219 20:02:00.432389  8306 layer_factory.hpp:77] Creating layer conv0_blk
I1219 20:02:00.432411  8306 net.cpp:84] Creating Layer conv0_blk
I1219 20:02:00.432418  8306 net.cpp:406] conv0_blk <- BatchNorm1
I1219 20:02:00.432431  8306 net.cpp:380] conv0_blk -> conv0_blk
I1219 20:02:00.437314  8306 net.cpp:122] Setting up conv0_blk
I1219 20:02:00.437353  8306 net.cpp:129] Top shape: 1 224 46 48 (494592)
I1219 20:02:00.437361  8306 net.cpp:137] Memory required for data: 51566048
I1219 20:02:00.437373  8306 layer_factory.hpp:77] Creating layer pool0
I1219 20:02:00.437388  8306 net.cpp:84] Creating Layer pool0
I1219 20:02:00.437396  8306 net.cpp:406] pool0 <- conv0_blk
I1219 20:02:00.437405  8306 net.cpp:380] pool0 -> pool0
I1219 20:02:00.437785  8306 net.cpp:122] Setting up pool0
I1219 20:02:00.437808  8306 net.cpp:129] Top shape: 1 224 23 24 (123648)
I1219 20:02:00.437813  8306 net.cpp:137] Memory required for data: 52060640
I1219 20:02:00.437819  8306 layer_factory.hpp:77] Creating layer pool0_pool0_0_split
I1219 20:02:00.437829  8306 net.cpp:84] Creating Layer pool0_pool0_0_split
I1219 20:02:00.437835  8306 net.cpp:406] pool0_pool0_0_split <- pool0
I1219 20:02:00.437844  8306 net.cpp:380] pool0_pool0_0_split -> pool0_pool0_0_split_0
I1219 20:02:00.437855  8306 net.cpp:380] pool0_pool0_0_split -> pool0_pool0_0_split_1
I1219 20:02:00.446135  8306 net.cpp:122] Setting up pool0_pool0_0_split
I1219 20:02:00.446173  8306 net.cpp:129] Top shape: 1 224 23 24 (123648)
I1219 20:02:00.446180  8306 net.cpp:129] Top shape: 1 224 23 24 (123648)
I1219 20:02:00.446184  8306 net.cpp:137] Memory required for data: 53049824
I1219 20:02:00.446192  8306 layer_factory.hpp:77] Creating layer conv1_0/bn
I1219 20:02:00.446214  8306 net.cpp:84] Creating Layer conv1_0/bn
I1219 20:02:00.446223  8306 net.cpp:406] conv1_0/bn <- pool0_pool0_0_split_0
I1219 20:02:00.446234  8306 net.cpp:380] conv1_0/bn -> conv1_0/bn
I1219 20:02:00.446818  8306 net.cpp:122] Setting up conv1_0/bn
I1219 20:02:00.446833  8306 net.cpp:129] Top shape: 1 224 23 24 (123648)
I1219 20:02:00.446838  8306 net.cpp:137] Memory required for data: 53544416
I1219 20:02:00.446851  8306 layer_factory.hpp:77] Creating layer conv1_0/scale
I1219 20:02:00.446862  8306 net.cpp:84] Creating Layer conv1_0/scale
I1219 20:02:00.446867  8306 net.cpp:406] conv1_0/scale <- conv1_0/bn
I1219 20:02:00.446877  8306 net.cpp:367] conv1_0/scale -> conv1_0/bn (in-place)
I1219 20:02:00.446974  8306 layer_factory.hpp:77] Creating layer conv1_0/scale
I1219 20:02:00.447278  8306 net.cpp:122] Setting up conv1_0/scale
I1219 20:02:00.447288  8306 net.cpp:129] Top shape: 1 224 23 24 (123648)
I1219 20:02:00.447293  8306 net.cpp:137] Memory required for data: 54039008
I1219 20:02:00.447301  8306 layer_factory.hpp:77] Creating layer relu1_0
I1219 20:02:00.447310  8306 net.cpp:84] Creating Layer relu1_0
I1219 20:02:00.447315  8306 net.cpp:406] relu1_0 <- conv1_0/bn
I1219 20:02:00.447324  8306 net.cpp:367] relu1_0 -> conv1_0/bn (in-place)
I1219 20:02:00.448180  8306 net.cpp:122] Setting up relu1_0
I1219 20:02:00.448213  8306 net.cpp:129] Top shape: 1 224 23 24 (123648)
I1219 20:02:00.448218  8306 net.cpp:137] Memory required for data: 54533600
I1219 20:02:00.448225  8306 layer_factory.hpp:77] Creating layer conv1_0
I1219 20:02:00.448247  8306 net.cpp:84] Creating Layer conv1_0
I1219 20:02:00.448254  8306 net.cpp:406] conv1_0 <- conv1_0/bn
I1219 20:02:00.448264  8306 net.cpp:380] conv1_0 -> conv1_0
I1219 20:02:00.622805  8306 net.cpp:122] Setting up conv1_0
I1219 20:02:00.622843  8306 net.cpp:129] Top shape: 1 32 23 24 (17664)
I1219 20:02:00.622850  8306 net.cpp:137] Memory required for data: 54604256
I1219 20:02:00.622864  8306 layer_factory.hpp:77] Creating layer concat1_0
I1219 20:02:00.622880  8306 net.cpp:84] Creating Layer concat1_0
I1219 20:02:00.622889  8306 net.cpp:406] concat1_0 <- pool0_pool0_0_split_1
I1219 20:02:00.622898  8306 net.cpp:406] concat1_0 <- conv1_0
I1219 20:02:00.622907  8306 net.cpp:380] concat1_0 -> concat1_0
I1219 20:02:00.623000  8306 net.cpp:122] Setting up concat1_0
I1219 20:02:00.623013  8306 net.cpp:129] Top shape: 1 256 23 24 (141312)
I1219 20:02:00.623018  8306 net.cpp:137] Memory required for data: 55169504
I1219 20:02:00.623023  8306 layer_factory.hpp:77] Creating layer concat1_0_concat1_0_0_split
I1219 20:02:00.623031  8306 net.cpp:84] Creating Layer concat1_0_concat1_0_0_split
I1219 20:02:00.623036  8306 net.cpp:406] concat1_0_concat1_0_0_split <- concat1_0
I1219 20:02:00.623045  8306 net.cpp:380] concat1_0_concat1_0_0_split -> concat1_0_concat1_0_0_split_0
I1219 20:02:00.623054  8306 net.cpp:380] concat1_0_concat1_0_0_split -> concat1_0_concat1_0_0_split_1
I1219 20:02:00.623157  8306 net.cpp:122] Setting up concat1_0_concat1_0_0_split
I1219 20:02:00.623167  8306 net.cpp:129] Top shape: 1 256 23 24 (141312)
I1219 20:02:00.623173  8306 net.cpp:129] Top shape: 1 256 23 24 (141312)
I1219 20:02:00.623178  8306 net.cpp:137] Memory required for data: 56300000
I1219 20:02:00.623183  8306 layer_factory.hpp:77] Creating layer conv1_1/bn
I1219 20:02:00.623194  8306 net.cpp:84] Creating Layer conv1_1/bn
I1219 20:02:00.623199  8306 net.cpp:406] conv1_1/bn <- concat1_0_concat1_0_0_split_0
I1219 20:02:00.623208  8306 net.cpp:380] conv1_1/bn -> conv1_1/bn
I1219 20:02:00.631963  8306 net.cpp:122] Setting up conv1_1/bn
I1219 20:02:00.632014  8306 net.cpp:129] Top shape: 1 256 23 24 (141312)
I1219 20:02:00.632021  8306 net.cpp:137] Memory required for data: 56865248
I1219 20:02:00.632047  8306 layer_factory.hpp:77] Creating layer conv1_1/scale
I1219 20:02:00.632071  8306 net.cpp:84] Creating Layer conv1_1/scale
I1219 20:02:00.632081  8306 net.cpp:406] conv1_1/scale <- conv1_1/bn
I1219 20:02:00.632094  8306 net.cpp:367] conv1_1/scale -> conv1_1/bn (in-place)
I1219 20:02:00.632264  8306 layer_factory.hpp:77] Creating layer conv1_1/scale
I1219 20:02:00.632671  8306 net.cpp:122] Setting up conv1_1/scale
I1219 20:02:00.632689  8306 net.cpp:129] Top shape: 1 256 23 24 (141312)
I1219 20:02:00.632694  8306 net.cpp:137] Memory required for data: 57430496
I1219 20:02:00.632706  8306 layer_factory.hpp:77] Creating layer relu1_1
I1219 20:02:00.632717  8306 net.cpp:84] Creating Layer relu1_1
I1219 20:02:00.632725  8306 net.cpp:406] relu1_1 <- conv1_1/bn
I1219 20:02:00.632735  8306 net.cpp:367] relu1_1 -> conv1_1/bn (in-place)
I1219 20:02:00.633118  8306 net.cpp:122] Setting up relu1_1
I1219 20:02:00.633138  8306 net.cpp:129] Top shape: 1 256 23 24 (141312)
I1219 20:02:00.633143  8306 net.cpp:137] Memory required for data: 57995744
I1219 20:02:00.633149  8306 layer_factory.hpp:77] Creating layer conv1_1
I1219 20:02:00.633168  8306 net.cpp:84] Creating Layer conv1_1
I1219 20:02:00.633175  8306 net.cpp:406] conv1_1 <- conv1_1/bn
I1219 20:02:00.633184  8306 net.cpp:380] conv1_1 -> conv1_1
I1219 20:02:00.639492  8306 net.cpp:122] Setting up conv1_1
I1219 20:02:00.639531  8306 net.cpp:129] Top shape: 1 32 23 24 (17664)
I1219 20:02:00.639536  8306 net.cpp:137] Memory required for data: 58066400
I1219 20:02:00.639549  8306 layer_factory.hpp:77] Creating layer concat1_1
I1219 20:02:00.639564  8306 net.cpp:84] Creating Layer concat1_1
I1219 20:02:00.639572  8306 net.cpp:406] concat1_1 <- concat1_0_concat1_0_0_split_1
I1219 20:02:00.639580  8306 net.cpp:406] concat1_1 <- conv1_1
I1219 20:02:00.639591  8306 net.cpp:380] concat1_1 -> concat1_1
I1219 20:02:00.639674  8306 net.cpp:122] Setting up concat1_1
I1219 20:02:00.639684  8306 net.cpp:129] Top shape: 1 288 23 24 (158976)
I1219 20:02:00.639688  8306 net.cpp:137] Memory required for data: 58702304
I1219 20:02:00.639693  8306 layer_factory.hpp:77] Creating layer concat1_1_concat1_1_0_split
I1219 20:02:00.639701  8306 net.cpp:84] Creating Layer concat1_1_concat1_1_0_split
I1219 20:02:00.639706  8306 net.cpp:406] concat1_1_concat1_1_0_split <- concat1_1
I1219 20:02:00.639714  8306 net.cpp:380] concat1_1_concat1_1_0_split -> concat1_1_concat1_1_0_split_0
I1219 20:02:00.639724  8306 net.cpp:380] concat1_1_concat1_1_0_split -> concat1_1_concat1_1_0_split_1
I1219 20:02:00.639843  8306 net.cpp:122] Setting up concat1_1_concat1_1_0_split
I1219 20:02:00.639854  8306 net.cpp:129] Top shape: 1 288 23 24 (158976)
I1219 20:02:00.639860  8306 net.cpp:129] Top shape: 1 288 23 24 (158976)
I1219 20:02:00.639864  8306 net.cpp:137] Memory required for data: 59974112
I1219 20:02:00.639869  8306 layer_factory.hpp:77] Creating layer conv1_2/bn
I1219 20:02:00.639880  8306 net.cpp:84] Creating Layer conv1_2/bn
I1219 20:02:00.639885  8306 net.cpp:406] conv1_2/bn <- concat1_1_concat1_1_0_split_0
I1219 20:02:00.639892  8306 net.cpp:380] conv1_2/bn -> conv1_2/bn
I1219 20:02:00.640580  8306 net.cpp:122] Setting up conv1_2/bn
I1219 20:02:00.640600  8306 net.cpp:129] Top shape: 1 288 23 24 (158976)
I1219 20:02:00.640605  8306 net.cpp:137] Memory required for data: 60610016
I1219 20:02:00.640619  8306 layer_factory.hpp:77] Creating layer conv1_2/scale
I1219 20:02:00.640631  8306 net.cpp:84] Creating Layer conv1_2/scale
I1219 20:02:00.640637  8306 net.cpp:406] conv1_2/scale <- conv1_2/bn
I1219 20:02:00.640645  8306 net.cpp:367] conv1_2/scale -> conv1_2/bn (in-place)
I1219 20:02:00.640753  8306 layer_factory.hpp:77] Creating layer conv1_2/scale
I1219 20:02:00.641119  8306 net.cpp:122] Setting up conv1_2/scale
I1219 20:02:00.641132  8306 net.cpp:129] Top shape: 1 288 23 24 (158976)
I1219 20:02:00.641139  8306 net.cpp:137] Memory required for data: 61245920
I1219 20:02:00.641158  8306 layer_factory.hpp:77] Creating layer relu1_2
I1219 20:02:00.641170  8306 net.cpp:84] Creating Layer relu1_2
I1219 20:02:00.641177  8306 net.cpp:406] relu1_2 <- conv1_2/bn
I1219 20:02:00.641186  8306 net.cpp:367] relu1_2 -> conv1_2/bn (in-place)
I1219 20:02:00.642009  8306 net.cpp:122] Setting up relu1_2
I1219 20:02:00.642029  8306 net.cpp:129] Top shape: 1 288 23 24 (158976)
I1219 20:02:00.642033  8306 net.cpp:137] Memory required for data: 61881824
I1219 20:02:00.642045  8306 layer_factory.hpp:77] Creating layer conv1_2
I1219 20:02:00.642066  8306 net.cpp:84] Creating Layer conv1_2
I1219 20:02:00.642072  8306 net.cpp:406] conv1_2 <- conv1_2/bn
I1219 20:02:00.642082  8306 net.cpp:380] conv1_2 -> conv1_2
I1219 20:02:00.648340  8306 net.cpp:122] Setting up conv1_2
I1219 20:02:00.648380  8306 net.cpp:129] Top shape: 1 32 23 24 (17664)
I1219 20:02:00.648385  8306 net.cpp:137] Memory required for data: 61952480
I1219 20:02:00.648398  8306 layer_factory.hpp:77] Creating layer concat1_2
I1219 20:02:00.648416  8306 net.cpp:84] Creating Layer concat1_2
I1219 20:02:00.648423  8306 net.cpp:406] concat1_2 <- concat1_1_concat1_1_0_split_1
I1219 20:02:00.648432  8306 net.cpp:406] concat1_2 <- conv1_2
I1219 20:02:00.648439  8306 net.cpp:380] concat1_2 -> concat1_2
I1219 20:02:00.648522  8306 net.cpp:122] Setting up concat1_2
I1219 20:02:00.648532  8306 net.cpp:129] Top shape: 1 320 23 24 (176640)
I1219 20:02:00.648536  8306 net.cpp:137] Memory required for data: 62659040
I1219 20:02:00.648541  8306 layer_factory.hpp:77] Creating layer concat1_2_concat1_2_0_split
I1219 20:02:00.648553  8306 net.cpp:84] Creating Layer concat1_2_concat1_2_0_split
I1219 20:02:00.648558  8306 net.cpp:406] concat1_2_concat1_2_0_split <- concat1_2
I1219 20:02:00.648567  8306 net.cpp:380] concat1_2_concat1_2_0_split -> concat1_2_concat1_2_0_split_0
I1219 20:02:00.648576  8306 net.cpp:380] concat1_2_concat1_2_0_split -> concat1_2_concat1_2_0_split_1
I1219 20:02:00.648674  8306 net.cpp:122] Setting up concat1_2_concat1_2_0_split
I1219 20:02:00.648682  8306 net.cpp:129] Top shape: 1 320 23 24 (176640)
I1219 20:02:00.648689  8306 net.cpp:129] Top shape: 1 320 23 24 (176640)
I1219 20:02:00.648694  8306 net.cpp:137] Memory required for data: 64072160
I1219 20:02:00.648699  8306 layer_factory.hpp:77] Creating layer conv1_3/bn
I1219 20:02:00.648716  8306 net.cpp:84] Creating Layer conv1_3/bn
I1219 20:02:00.648722  8306 net.cpp:406] conv1_3/bn <- concat1_2_concat1_2_0_split_0
I1219 20:02:00.648730  8306 net.cpp:380] conv1_3/bn -> conv1_3/bn
I1219 20:02:00.649358  8306 net.cpp:122] Setting up conv1_3/bn
I1219 20:02:00.649374  8306 net.cpp:129] Top shape: 1 320 23 24 (176640)
I1219 20:02:00.649379  8306 net.cpp:137] Memory required for data: 64778720
I1219 20:02:00.649391  8306 layer_factory.hpp:77] Creating layer conv1_3/scale
I1219 20:02:00.649402  8306 net.cpp:84] Creating Layer conv1_3/scale
I1219 20:02:00.649408  8306 net.cpp:406] conv1_3/scale <- conv1_3/bn
I1219 20:02:00.649418  8306 net.cpp:367] conv1_3/scale -> conv1_3/bn (in-place)
I1219 20:02:00.649528  8306 layer_factory.hpp:77] Creating layer conv1_3/scale
I1219 20:02:00.649897  8306 net.cpp:122] Setting up conv1_3/scale
I1219 20:02:00.649914  8306 net.cpp:129] Top shape: 1 320 23 24 (176640)
I1219 20:02:00.649919  8306 net.cpp:137] Memory required for data: 65485280
I1219 20:02:00.649930  8306 layer_factory.hpp:77] Creating layer relu1_3
I1219 20:02:00.649940  8306 net.cpp:84] Creating Layer relu1_3
I1219 20:02:00.649945  8306 net.cpp:406] relu1_3 <- conv1_3/bn
I1219 20:02:00.649953  8306 net.cpp:367] relu1_3 -> conv1_3/bn (in-place)
I1219 20:02:00.658910  8306 net.cpp:122] Setting up relu1_3
I1219 20:02:00.658953  8306 net.cpp:129] Top shape: 1 320 23 24 (176640)
I1219 20:02:00.658959  8306 net.cpp:137] Memory required for data: 66191840
I1219 20:02:00.658967  8306 layer_factory.hpp:77] Creating layer conv1_3
I1219 20:02:00.658989  8306 net.cpp:84] Creating Layer conv1_3
I1219 20:02:00.658998  8306 net.cpp:406] conv1_3 <- conv1_3/bn
I1219 20:02:00.659009  8306 net.cpp:380] conv1_3 -> conv1_3
I1219 20:02:00.718052  8306 net.cpp:122] Setting up conv1_3
I1219 20:02:00.718089  8306 net.cpp:129] Top shape: 1 32 23 24 (17664)
I1219 20:02:00.718094  8306 net.cpp:137] Memory required for data: 66262496
I1219 20:02:00.718106  8306 layer_factory.hpp:77] Creating layer concat1_3
I1219 20:02:00.718122  8306 net.cpp:84] Creating Layer concat1_3
I1219 20:02:00.718130  8306 net.cpp:406] concat1_3 <- concat1_2_concat1_2_0_split_1
I1219 20:02:00.718145  8306 net.cpp:406] concat1_3 <- conv1_3
I1219 20:02:00.718153  8306 net.cpp:380] concat1_3 -> concat1_3
I1219 20:02:00.718219  8306 net.cpp:122] Setting up concat1_3
I1219 20:02:00.718230  8306 net.cpp:129] Top shape: 1 352 23 24 (194304)
I1219 20:02:00.718233  8306 net.cpp:137] Memory required for data: 67039712
I1219 20:02:00.718238  8306 layer_factory.hpp:77] Creating layer concat1_3_concat1_3_0_split
I1219 20:02:00.718247  8306 net.cpp:84] Creating Layer concat1_3_concat1_3_0_split
I1219 20:02:00.718252  8306 net.cpp:406] concat1_3_concat1_3_0_split <- concat1_3
I1219 20:02:00.718260  8306 net.cpp:380] concat1_3_concat1_3_0_split -> concat1_3_concat1_3_0_split_0
I1219 20:02:00.718268  8306 net.cpp:380] concat1_3_concat1_3_0_split -> concat1_3_concat1_3_0_split_1
I1219 20:02:00.718354  8306 net.cpp:122] Setting up concat1_3_concat1_3_0_split
I1219 20:02:00.718364  8306 net.cpp:129] Top shape: 1 352 23 24 (194304)
I1219 20:02:00.718369  8306 net.cpp:129] Top shape: 1 352 23 24 (194304)
I1219 20:02:00.718374  8306 net.cpp:137] Memory required for data: 68594144
I1219 20:02:00.718379  8306 layer_factory.hpp:77] Creating layer conv1_4/bn
I1219 20:02:00.718387  8306 net.cpp:84] Creating Layer conv1_4/bn
I1219 20:02:00.718394  8306 net.cpp:406] conv1_4/bn <- concat1_3_concat1_3_0_split_0
I1219 20:02:00.718405  8306 net.cpp:380] conv1_4/bn -> conv1_4/bn
I1219 20:02:00.718966  8306 net.cpp:122] Setting up conv1_4/bn
I1219 20:02:00.718977  8306 net.cpp:129] Top shape: 1 352 23 24 (194304)
I1219 20:02:00.718982  8306 net.cpp:137] Memory required for data: 69371360
I1219 20:02:00.718993  8306 layer_factory.hpp:77] Creating layer conv1_4/scale
I1219 20:02:00.719003  8306 net.cpp:84] Creating Layer conv1_4/scale
I1219 20:02:00.719008  8306 net.cpp:406] conv1_4/scale <- conv1_4/bn
I1219 20:02:00.719017  8306 net.cpp:367] conv1_4/scale -> conv1_4/bn (in-place)
I1219 20:02:00.719113  8306 layer_factory.hpp:77] Creating layer conv1_4/scale
I1219 20:02:00.719411  8306 net.cpp:122] Setting up conv1_4/scale
I1219 20:02:00.719421  8306 net.cpp:129] Top shape: 1 352 23 24 (194304)
I1219 20:02:00.719425  8306 net.cpp:137] Memory required for data: 70148576
I1219 20:02:00.719434  8306 layer_factory.hpp:77] Creating layer relu1_4
I1219 20:02:00.719441  8306 net.cpp:84] Creating Layer relu1_4
I1219 20:02:00.719446  8306 net.cpp:406] relu1_4 <- conv1_4/bn
I1219 20:02:00.719458  8306 net.cpp:367] relu1_4 -> conv1_4/bn (in-place)
I1219 20:02:00.849385  8306 net.cpp:122] Setting up relu1_4
I1219 20:02:00.849431  8306 net.cpp:129] Top shape: 1 352 23 24 (194304)
I1219 20:02:00.849437  8306 net.cpp:137] Memory required for data: 70925792
I1219 20:02:00.849445  8306 layer_factory.hpp:77] Creating layer conv1_4
I1219 20:02:00.849467  8306 net.cpp:84] Creating Layer conv1_4
I1219 20:02:00.849476  8306 net.cpp:406] conv1_4 <- conv1_4/bn
I1219 20:02:00.849489  8306 net.cpp:380] conv1_4 -> conv1_4
I1219 20:02:01.031261  8306 net.cpp:122] Setting up conv1_4
I1219 20:02:01.031304  8306 net.cpp:129] Top shape: 1 32 23 24 (17664)
I1219 20:02:01.031311  8306 net.cpp:137] Memory required for data: 70996448
I1219 20:02:01.031323  8306 layer_factory.hpp:77] Creating layer concat1_4
I1219 20:02:01.031339  8306 net.cpp:84] Creating Layer concat1_4
I1219 20:02:01.031348  8306 net.cpp:406] concat1_4 <- concat1_3_concat1_3_0_split_1
I1219 20:02:01.031358  8306 net.cpp:406] concat1_4 <- conv1_4
I1219 20:02:01.031366  8306 net.cpp:380] concat1_4 -> concat1_4
I1219 20:02:01.031482  8306 net.cpp:122] Setting up concat1_4
I1219 20:02:01.031494  8306 net.cpp:129] Top shape: 1 384 23 24 (211968)
I1219 20:02:01.031502  8306 net.cpp:137] Memory required for data: 71844320
I1219 20:02:01.031508  8306 layer_factory.hpp:77] Creating layer concat1_4_concat1_4_0_split
I1219 20:02:01.031519  8306 net.cpp:84] Creating Layer concat1_4_concat1_4_0_split
I1219 20:02:01.031525  8306 net.cpp:406] concat1_4_concat1_4_0_split <- concat1_4
I1219 20:02:01.031533  8306 net.cpp:380] concat1_4_concat1_4_0_split -> concat1_4_concat1_4_0_split_0
I1219 20:02:01.031543  8306 net.cpp:380] concat1_4_concat1_4_0_split -> concat1_4_concat1_4_0_split_1
I1219 20:02:01.031677  8306 net.cpp:122] Setting up concat1_4_concat1_4_0_split
I1219 20:02:01.031688  8306 net.cpp:129] Top shape: 1 384 23 24 (211968)
I1219 20:02:01.031698  8306 net.cpp:129] Top shape: 1 384 23 24 (211968)
I1219 20:02:01.031703  8306 net.cpp:137] Memory required for data: 73540064
I1219 20:02:01.031708  8306 layer_factory.hpp:77] Creating layer conv1_5/bn
I1219 20:02:01.031720  8306 net.cpp:84] Creating Layer conv1_5/bn
I1219 20:02:01.031728  8306 net.cpp:406] conv1_5/bn <- concat1_4_concat1_4_0_split_0
I1219 20:02:01.031738  8306 net.cpp:380] conv1_5/bn -> conv1_5/bn
I1219 20:02:01.032537  8306 net.cpp:122] Setting up conv1_5/bn
I1219 20:02:01.032573  8306 net.cpp:129] Top shape: 1 384 23 24 (211968)
I1219 20:02:01.032579  8306 net.cpp:137] Memory required for data: 74387936
I1219 20:02:01.032595  8306 layer_factory.hpp:77] Creating layer conv1_5/scale
I1219 20:02:01.032613  8306 net.cpp:84] Creating Layer conv1_5/scale
I1219 20:02:01.032621  8306 net.cpp:406] conv1_5/scale <- conv1_5/bn
I1219 20:02:01.032631  8306 net.cpp:367] conv1_5/scale -> conv1_5/bn (in-place)
I1219 20:02:01.032752  8306 layer_factory.hpp:77] Creating layer conv1_5/scale
I1219 20:02:01.033067  8306 net.cpp:122] Setting up conv1_5/scale
I1219 20:02:01.033079  8306 net.cpp:129] Top shape: 1 384 23 24 (211968)
I1219 20:02:01.033084  8306 net.cpp:137] Memory required for data: 75235808
I1219 20:02:01.033094  8306 layer_factory.hpp:77] Creating layer relu1_5
I1219 20:02:01.033104  8306 net.cpp:84] Creating Layer relu1_5
I1219 20:02:01.033110  8306 net.cpp:406] relu1_5 <- conv1_5/bn
I1219 20:02:01.033120  8306 net.cpp:367] relu1_5 -> conv1_5/bn (in-place)
I1219 20:02:01.040143  8306 net.cpp:122] Setting up relu1_5
I1219 20:02:01.040182  8306 net.cpp:129] Top shape: 1 384 23 24 (211968)
I1219 20:02:01.040189  8306 net.cpp:137] Memory required for data: 76083680
I1219 20:02:01.040196  8306 layer_factory.hpp:77] Creating layer conv1_5
I1219 20:02:01.040222  8306 net.cpp:84] Creating Layer conv1_5
I1219 20:02:01.040230  8306 net.cpp:406] conv1_5 <- conv1_5/bn
I1219 20:02:01.040242  8306 net.cpp:380] conv1_5 -> conv1_5
I1219 20:02:01.057113  8306 net.cpp:122] Setting up conv1_5
I1219 20:02:01.057152  8306 net.cpp:129] Top shape: 1 32 23 24 (17664)
I1219 20:02:01.057158  8306 net.cpp:137] Memory required for data: 76154336
I1219 20:02:01.057169  8306 layer_factory.hpp:77] Creating layer concat1_5
I1219 20:02:01.057186  8306 net.cpp:84] Creating Layer concat1_5
I1219 20:02:01.057194  8306 net.cpp:406] concat1_5 <- concat1_4_concat1_4_0_split_1
I1219 20:02:01.057202  8306 net.cpp:406] concat1_5 <- conv1_5
I1219 20:02:01.057210  8306 net.cpp:380] concat1_5 -> concat1_5
I1219 20:02:01.057283  8306 net.cpp:122] Setting up concat1_5
I1219 20:02:01.057294  8306 net.cpp:129] Top shape: 1 416 23 24 (229632)
I1219 20:02:01.057299  8306 net.cpp:137] Memory required for data: 77072864
I1219 20:02:01.057304  8306 layer_factory.hpp:77] Creating layer concat1_5_concat1_5_0_split
I1219 20:02:01.057312  8306 net.cpp:84] Creating Layer concat1_5_concat1_5_0_split
I1219 20:02:01.057317  8306 net.cpp:406] concat1_5_concat1_5_0_split <- concat1_5
I1219 20:02:01.057323  8306 net.cpp:380] concat1_5_concat1_5_0_split -> concat1_5_concat1_5_0_split_0
I1219 20:02:01.057332  8306 net.cpp:380] concat1_5_concat1_5_0_split -> concat1_5_concat1_5_0_split_1
I1219 20:02:01.057428  8306 net.cpp:122] Setting up concat1_5_concat1_5_0_split
I1219 20:02:01.057438  8306 net.cpp:129] Top shape: 1 416 23 24 (229632)
I1219 20:02:01.057445  8306 net.cpp:129] Top shape: 1 416 23 24 (229632)
I1219 20:02:01.057449  8306 net.cpp:137] Memory required for data: 78909920
I1219 20:02:01.057454  8306 layer_factory.hpp:77] Creating layer conv1_6/bn
I1219 20:02:01.057463  8306 net.cpp:84] Creating Layer conv1_6/bn
I1219 20:02:01.057469  8306 net.cpp:406] conv1_6/bn <- concat1_5_concat1_5_0_split_0
I1219 20:02:01.057476  8306 net.cpp:380] conv1_6/bn -> conv1_6/bn
I1219 20:02:01.058070  8306 net.cpp:122] Setting up conv1_6/bn
I1219 20:02:01.058087  8306 net.cpp:129] Top shape: 1 416 23 24 (229632)
I1219 20:02:01.058092  8306 net.cpp:137] Memory required for data: 79828448
I1219 20:02:01.058104  8306 layer_factory.hpp:77] Creating layer conv1_6/scale
I1219 20:02:01.058116  8306 net.cpp:84] Creating Layer conv1_6/scale
I1219 20:02:01.058122  8306 net.cpp:406] conv1_6/scale <- conv1_6/bn
I1219 20:02:01.058130  8306 net.cpp:367] conv1_6/scale -> conv1_6/bn (in-place)
I1219 20:02:01.058233  8306 layer_factory.hpp:77] Creating layer conv1_6/scale
I1219 20:02:01.058542  8306 net.cpp:122] Setting up conv1_6/scale
I1219 20:02:01.058552  8306 net.cpp:129] Top shape: 1 416 23 24 (229632)
I1219 20:02:01.058557  8306 net.cpp:137] Memory required for data: 80746976
I1219 20:02:01.058564  8306 layer_factory.hpp:77] Creating layer relu1_6
I1219 20:02:01.058573  8306 net.cpp:84] Creating Layer relu1_6
I1219 20:02:01.058578  8306 net.cpp:406] relu1_6 <- conv1_6/bn
I1219 20:02:01.058584  8306 net.cpp:367] relu1_6 -> conv1_6/bn (in-place)
I1219 20:02:01.058903  8306 net.cpp:122] Setting up relu1_6
I1219 20:02:01.058915  8306 net.cpp:129] Top shape: 1 416 23 24 (229632)
I1219 20:02:01.058920  8306 net.cpp:137] Memory required for data: 81665504
I1219 20:02:01.058925  8306 layer_factory.hpp:77] Creating layer conv1_6
I1219 20:02:01.058939  8306 net.cpp:84] Creating Layer conv1_6
I1219 20:02:01.058946  8306 net.cpp:406] conv1_6 <- conv1_6/bn
I1219 20:02:01.058954  8306 net.cpp:380] conv1_6 -> conv1_6
I1219 20:02:01.075351  8306 net.cpp:122] Setting up conv1_6
I1219 20:02:01.075389  8306 net.cpp:129] Top shape: 1 32 23 24 (17664)
I1219 20:02:01.075395  8306 net.cpp:137] Memory required for data: 81736160
I1219 20:02:01.075407  8306 layer_factory.hpp:77] Creating layer concat1_6
I1219 20:02:01.075424  8306 net.cpp:84] Creating Layer concat1_6
I1219 20:02:01.075433  8306 net.cpp:406] concat1_6 <- concat1_5_concat1_5_0_split_1
I1219 20:02:01.075441  8306 net.cpp:406] concat1_6 <- conv1_6
I1219 20:02:01.075449  8306 net.cpp:380] concat1_6 -> concat1_6
I1219 20:02:01.075517  8306 net.cpp:122] Setting up concat1_6
I1219 20:02:01.075526  8306 net.cpp:129] Top shape: 1 448 23 24 (247296)
I1219 20:02:01.075531  8306 net.cpp:137] Memory required for data: 82725344
I1219 20:02:01.075536  8306 layer_factory.hpp:77] Creating layer concat1_6_concat1_6_0_split
I1219 20:02:01.075544  8306 net.cpp:84] Creating Layer concat1_6_concat1_6_0_split
I1219 20:02:01.075549  8306 net.cpp:406] concat1_6_concat1_6_0_split <- concat1_6
I1219 20:02:01.075556  8306 net.cpp:380] concat1_6_concat1_6_0_split -> concat1_6_concat1_6_0_split_0
I1219 20:02:01.075564  8306 net.cpp:380] concat1_6_concat1_6_0_split -> concat1_6_concat1_6_0_split_1
I1219 20:02:01.075654  8306 net.cpp:122] Setting up concat1_6_concat1_6_0_split
I1219 20:02:01.075662  8306 net.cpp:129] Top shape: 1 448 23 24 (247296)
I1219 20:02:01.075669  8306 net.cpp:129] Top shape: 1 448 23 24 (247296)
I1219 20:02:01.075672  8306 net.cpp:137] Memory required for data: 84703712
I1219 20:02:01.075677  8306 layer_factory.hpp:77] Creating layer conv1_7/bn
I1219 20:02:01.075687  8306 net.cpp:84] Creating Layer conv1_7/bn
I1219 20:02:01.075692  8306 net.cpp:406] conv1_7/bn <- concat1_6_concat1_6_0_split_0
I1219 20:02:01.075700  8306 net.cpp:380] conv1_7/bn -> conv1_7/bn
I1219 20:02:01.084594  8306 net.cpp:122] Setting up conv1_7/bn
I1219 20:02:01.084632  8306 net.cpp:129] Top shape: 1 448 23 24 (247296)
I1219 20:02:01.084638  8306 net.cpp:137] Memory required for data: 85692896
I1219 20:02:01.084656  8306 layer_factory.hpp:77] Creating layer conv1_7/scale
I1219 20:02:01.084672  8306 net.cpp:84] Creating Layer conv1_7/scale
I1219 20:02:01.084679  8306 net.cpp:406] conv1_7/scale <- conv1_7/bn
I1219 20:02:01.084689  8306 net.cpp:367] conv1_7/scale -> conv1_7/bn (in-place)
I1219 20:02:01.084808  8306 layer_factory.hpp:77] Creating layer conv1_7/scale
I1219 20:02:01.085214  8306 net.cpp:122] Setting up conv1_7/scale
I1219 20:02:01.085228  8306 net.cpp:129] Top shape: 1 448 23 24 (247296)
I1219 20:02:01.085233  8306 net.cpp:137] Memory required for data: 86682080
I1219 20:02:01.085248  8306 layer_factory.hpp:77] Creating layer relu1_7
I1219 20:02:01.085258  8306 net.cpp:84] Creating Layer relu1_7
I1219 20:02:01.085263  8306 net.cpp:406] relu1_7 <- conv1_7/bn
I1219 20:02:01.085273  8306 net.cpp:367] relu1_7 -> conv1_7/bn (in-place)
I1219 20:02:01.086226  8306 net.cpp:122] Setting up relu1_7
I1219 20:02:01.086246  8306 net.cpp:129] Top shape: 1 448 23 24 (247296)
I1219 20:02:01.086251  8306 net.cpp:137] Memory required for data: 87671264
I1219 20:02:01.086258  8306 layer_factory.hpp:77] Creating layer conv1_7
I1219 20:02:01.086274  8306 net.cpp:84] Creating Layer conv1_7
I1219 20:02:01.086282  8306 net.cpp:406] conv1_7 <- conv1_7/bn
I1219 20:02:01.086292  8306 net.cpp:380] conv1_7 -> conv1_7
I1219 20:02:01.133697  8306 net.cpp:122] Setting up conv1_7
I1219 20:02:01.133733  8306 net.cpp:129] Top shape: 1 32 23 24 (17664)
I1219 20:02:01.133738  8306 net.cpp:137] Memory required for data: 87741920
I1219 20:02:01.133751  8306 layer_factory.hpp:77] Creating layer concat1_7
I1219 20:02:01.133765  8306 net.cpp:84] Creating Layer concat1_7
I1219 20:02:01.133772  8306 net.cpp:406] concat1_7 <- concat1_6_concat1_6_0_split_1
I1219 20:02:01.133782  8306 net.cpp:406] concat1_7 <- conv1_7
I1219 20:02:01.133790  8306 net.cpp:380] concat1_7 -> concat1_7
I1219 20:02:01.133858  8306 net.cpp:122] Setting up concat1_7
I1219 20:02:01.133867  8306 net.cpp:129] Top shape: 1 480 23 24 (264960)
I1219 20:02:01.133872  8306 net.cpp:137] Memory required for data: 88801760
I1219 20:02:01.133877  8306 layer_factory.hpp:77] Creating layer concat1_7_concat1_7_0_split
I1219 20:02:01.133885  8306 net.cpp:84] Creating Layer concat1_7_concat1_7_0_split
I1219 20:02:01.133890  8306 net.cpp:406] concat1_7_concat1_7_0_split <- concat1_7
I1219 20:02:01.133898  8306 net.cpp:380] concat1_7_concat1_7_0_split -> concat1_7_concat1_7_0_split_0
I1219 20:02:01.133904  8306 net.cpp:380] concat1_7_concat1_7_0_split -> concat1_7_concat1_7_0_split_1
I1219 20:02:01.133997  8306 net.cpp:122] Setting up concat1_7_concat1_7_0_split
I1219 20:02:01.134006  8306 net.cpp:129] Top shape: 1 480 23 24 (264960)
I1219 20:02:01.134012  8306 net.cpp:129] Top shape: 1 480 23 24 (264960)
I1219 20:02:01.134016  8306 net.cpp:137] Memory required for data: 90921440
I1219 20:02:01.134021  8306 layer_factory.hpp:77] Creating layer conv1_8/bn
I1219 20:02:01.134030  8306 net.cpp:84] Creating Layer conv1_8/bn
I1219 20:02:01.134034  8306 net.cpp:406] conv1_8/bn <- concat1_7_concat1_7_0_split_0
I1219 20:02:01.134042  8306 net.cpp:380] conv1_8/bn -> conv1_8/bn
I1219 20:02:01.134640  8306 net.cpp:122] Setting up conv1_8/bn
I1219 20:02:01.134650  8306 net.cpp:129] Top shape: 1 480 23 24 (264960)
I1219 20:02:01.134654  8306 net.cpp:137] Memory required for data: 91981280
I1219 20:02:01.134665  8306 layer_factory.hpp:77] Creating layer conv1_8/scale
I1219 20:02:01.134677  8306 net.cpp:84] Creating Layer conv1_8/scale
I1219 20:02:01.134682  8306 net.cpp:406] conv1_8/scale <- conv1_8/bn
I1219 20:02:01.134690  8306 net.cpp:367] conv1_8/scale -> conv1_8/bn (in-place)
I1219 20:02:01.134800  8306 layer_factory.hpp:77] Creating layer conv1_8/scale
I1219 20:02:01.135123  8306 net.cpp:122] Setting up conv1_8/scale
I1219 20:02:01.135133  8306 net.cpp:129] Top shape: 1 480 23 24 (264960)
I1219 20:02:01.135138  8306 net.cpp:137] Memory required for data: 93041120
I1219 20:02:01.135144  8306 layer_factory.hpp:77] Creating layer relu1_8
I1219 20:02:01.135152  8306 net.cpp:84] Creating Layer relu1_8
I1219 20:02:01.135157  8306 net.cpp:406] relu1_8 <- conv1_8/bn
I1219 20:02:01.135165  8306 net.cpp:367] relu1_8 -> conv1_8/bn (in-place)
I1219 20:02:01.193442  8306 net.cpp:122] Setting up relu1_8
I1219 20:02:01.193480  8306 net.cpp:129] Top shape: 1 480 23 24 (264960)
I1219 20:02:01.193485  8306 net.cpp:137] Memory required for data: 94100960
I1219 20:02:01.193493  8306 layer_factory.hpp:77] Creating layer conv1_8
I1219 20:02:01.193516  8306 net.cpp:84] Creating Layer conv1_8
I1219 20:02:01.193523  8306 net.cpp:406] conv1_8 <- conv1_8/bn
I1219 20:02:01.193536  8306 net.cpp:380] conv1_8 -> conv1_8
I1219 20:02:01.245666  8306 net.cpp:122] Setting up conv1_8
I1219 20:02:01.245703  8306 net.cpp:129] Top shape: 1 32 23 24 (17664)
I1219 20:02:01.245709  8306 net.cpp:137] Memory required for data: 94171616
I1219 20:02:01.245723  8306 layer_factory.hpp:77] Creating layer concat1_8
I1219 20:02:01.245736  8306 net.cpp:84] Creating Layer concat1_8
I1219 20:02:01.245744  8306 net.cpp:406] concat1_8 <- concat1_7_concat1_7_0_split_1
I1219 20:02:01.245753  8306 net.cpp:406] concat1_8 <- conv1_8
I1219 20:02:01.245761  8306 net.cpp:380] concat1_8 -> concat1_8
I1219 20:02:01.245831  8306 net.cpp:122] Setting up concat1_8
I1219 20:02:01.245839  8306 net.cpp:129] Top shape: 1 512 23 24 (282624)
I1219 20:02:01.245843  8306 net.cpp:137] Memory required for data: 95302112
I1219 20:02:01.245848  8306 layer_factory.hpp:77] Creating layer concat1_8_concat1_8_0_split
I1219 20:02:01.245856  8306 net.cpp:84] Creating Layer concat1_8_concat1_8_0_split
I1219 20:02:01.245860  8306 net.cpp:406] concat1_8_concat1_8_0_split <- concat1_8
I1219 20:02:01.245869  8306 net.cpp:380] concat1_8_concat1_8_0_split -> concat1_8_concat1_8_0_split_0
I1219 20:02:01.245877  8306 net.cpp:380] concat1_8_concat1_8_0_split -> concat1_8_concat1_8_0_split_1
I1219 20:02:01.245973  8306 net.cpp:122] Setting up concat1_8_concat1_8_0_split
I1219 20:02:01.245982  8306 net.cpp:129] Top shape: 1 512 23 24 (282624)
I1219 20:02:01.245988  8306 net.cpp:129] Top shape: 1 512 23 24 (282624)
I1219 20:02:01.245992  8306 net.cpp:137] Memory required for data: 97563104
I1219 20:02:01.245996  8306 layer_factory.hpp:77] Creating layer conv1_9/bn
I1219 20:02:01.246012  8306 net.cpp:84] Creating Layer conv1_9/bn
I1219 20:02:01.246017  8306 net.cpp:406] conv1_9/bn <- concat1_8_concat1_8_0_split_0
I1219 20:02:01.246024  8306 net.cpp:380] conv1_9/bn -> conv1_9/bn
I1219 20:02:01.246618  8306 net.cpp:122] Setting up conv1_9/bn
I1219 20:02:01.246632  8306 net.cpp:129] Top shape: 1 512 23 24 (282624)
I1219 20:02:01.246637  8306 net.cpp:137] Memory required for data: 98693600
I1219 20:02:01.246650  8306 layer_factory.hpp:77] Creating layer conv1_9/scale
I1219 20:02:01.246662  8306 net.cpp:84] Creating Layer conv1_9/scale
I1219 20:02:01.246667  8306 net.cpp:406] conv1_9/scale <- conv1_9/bn
I1219 20:02:01.246675  8306 net.cpp:367] conv1_9/scale -> conv1_9/bn (in-place)
I1219 20:02:01.246800  8306 layer_factory.hpp:77] Creating layer conv1_9/scale
I1219 20:02:01.247145  8306 net.cpp:122] Setting up conv1_9/scale
I1219 20:02:01.247159  8306 net.cpp:129] Top shape: 1 512 23 24 (282624)
I1219 20:02:01.247164  8306 net.cpp:137] Memory required for data: 99824096
I1219 20:02:01.247172  8306 layer_factory.hpp:77] Creating layer relu1_9
I1219 20:02:01.247180  8306 net.cpp:84] Creating Layer relu1_9
I1219 20:02:01.247186  8306 net.cpp:406] relu1_9 <- conv1_9/bn
I1219 20:02:01.247193  8306 net.cpp:367] relu1_9 -> conv1_9/bn (in-place)
I1219 20:02:01.247534  8306 net.cpp:122] Setting up relu1_9
I1219 20:02:01.247547  8306 net.cpp:129] Top shape: 1 512 23 24 (282624)
I1219 20:02:01.247552  8306 net.cpp:137] Memory required for data: 100954592
I1219 20:02:01.247557  8306 layer_factory.hpp:77] Creating layer conv1_9
I1219 20:02:01.247573  8306 net.cpp:84] Creating Layer conv1_9
I1219 20:02:01.247579  8306 net.cpp:406] conv1_9 <- conv1_9/bn
I1219 20:02:01.247589  8306 net.cpp:380] conv1_9 -> conv1_9
I1219 20:02:01.460582  8306 net.cpp:122] Setting up conv1_9
I1219 20:02:01.460619  8306 net.cpp:129] Top shape: 1 32 23 24 (17664)
I1219 20:02:01.460625  8306 net.cpp:137] Memory required for data: 101025248
I1219 20:02:01.460638  8306 layer_factory.hpp:77] Creating layer concat1_9
I1219 20:02:01.460654  8306 net.cpp:84] Creating Layer concat1_9
I1219 20:02:01.460661  8306 net.cpp:406] concat1_9 <- concat1_8_concat1_8_0_split_1
I1219 20:02:01.460671  8306 net.cpp:406] concat1_9 <- conv1_9
I1219 20:02:01.460680  8306 net.cpp:380] concat1_9 -> concat1_9
I1219 20:02:01.460758  8306 net.cpp:122] Setting up concat1_9
I1219 20:02:01.460768  8306 net.cpp:129] Top shape: 1 544 23 24 (300288)
I1219 20:02:01.460777  8306 net.cpp:137] Memory required for data: 102226400
I1219 20:02:01.460783  8306 layer_factory.hpp:77] Creating layer concat1_9_concat1_9_0_split
I1219 20:02:01.460791  8306 net.cpp:84] Creating Layer concat1_9_concat1_9_0_split
I1219 20:02:01.460796  8306 net.cpp:406] concat1_9_concat1_9_0_split <- concat1_9
I1219 20:02:01.460803  8306 net.cpp:380] concat1_9_concat1_9_0_split -> concat1_9_concat1_9_0_split_0
I1219 20:02:01.460811  8306 net.cpp:380] concat1_9_concat1_9_0_split -> concat1_9_concat1_9_0_split_1
I1219 20:02:01.460906  8306 net.cpp:122] Setting up concat1_9_concat1_9_0_split
I1219 20:02:01.460917  8306 net.cpp:129] Top shape: 1 544 23 24 (300288)
I1219 20:02:01.460924  8306 net.cpp:129] Top shape: 1 544 23 24 (300288)
I1219 20:02:01.460928  8306 net.cpp:137] Memory required for data: 104628704
I1219 20:02:01.460933  8306 layer_factory.hpp:77] Creating layer conv1_10/bn
I1219 20:02:01.460942  8306 net.cpp:84] Creating Layer conv1_10/bn
I1219 20:02:01.460947  8306 net.cpp:406] conv1_10/bn <- concat1_9_concat1_9_0_split_0
I1219 20:02:01.460957  8306 net.cpp:380] conv1_10/bn -> conv1_10/bn
I1219 20:02:01.461575  8306 net.cpp:122] Setting up conv1_10/bn
I1219 20:02:01.461587  8306 net.cpp:129] Top shape: 1 544 23 24 (300288)
I1219 20:02:01.461592  8306 net.cpp:137] Memory required for data: 105829856
I1219 20:02:01.461606  8306 layer_factory.hpp:77] Creating layer conv1_10/scale
I1219 20:02:01.461617  8306 net.cpp:84] Creating Layer conv1_10/scale
I1219 20:02:01.461623  8306 net.cpp:406] conv1_10/scale <- conv1_10/bn
I1219 20:02:01.461632  8306 net.cpp:367] conv1_10/scale -> conv1_10/bn (in-place)
I1219 20:02:01.461738  8306 layer_factory.hpp:77] Creating layer conv1_10/scale
I1219 20:02:01.462069  8306 net.cpp:122] Setting up conv1_10/scale
I1219 20:02:01.462080  8306 net.cpp:129] Top shape: 1 544 23 24 (300288)
I1219 20:02:01.462085  8306 net.cpp:137] Memory required for data: 107031008
I1219 20:02:01.462093  8306 layer_factory.hpp:77] Creating layer relu1_10
I1219 20:02:01.462102  8306 net.cpp:84] Creating Layer relu1_10
I1219 20:02:01.462107  8306 net.cpp:406] relu1_10 <- conv1_10/bn
I1219 20:02:01.462113  8306 net.cpp:367] relu1_10 -> conv1_10/bn (in-place)
I1219 20:02:01.462937  8306 net.cpp:122] Setting up relu1_10
I1219 20:02:01.462958  8306 net.cpp:129] Top shape: 1 544 23 24 (300288)
I1219 20:02:01.462963  8306 net.cpp:137] Memory required for data: 108232160
I1219 20:02:01.462970  8306 layer_factory.hpp:77] Creating layer conv1_10
I1219 20:02:01.462987  8306 net.cpp:84] Creating Layer conv1_10
I1219 20:02:01.462994  8306 net.cpp:406] conv1_10 <- conv1_10/bn
I1219 20:02:01.463003  8306 net.cpp:380] conv1_10 -> conv1_10
I1219 20:02:01.537035  8306 net.cpp:122] Setting up conv1_10
I1219 20:02:01.537076  8306 net.cpp:129] Top shape: 1 32 23 24 (17664)
I1219 20:02:01.537082  8306 net.cpp:137] Memory required for data: 108302816
I1219 20:02:01.537094  8306 layer_factory.hpp:77] Creating layer concat1_10
I1219 20:02:01.537111  8306 net.cpp:84] Creating Layer concat1_10
I1219 20:02:01.537119  8306 net.cpp:406] concat1_10 <- concat1_9_concat1_9_0_split_1
I1219 20:02:01.537128  8306 net.cpp:406] concat1_10 <- conv1_10
I1219 20:02:01.537137  8306 net.cpp:380] concat1_10 -> concat1_10
I1219 20:02:01.537219  8306 net.cpp:122] Setting up concat1_10
I1219 20:02:01.537227  8306 net.cpp:129] Top shape: 1 576 23 24 (317952)
I1219 20:02:01.537232  8306 net.cpp:137] Memory required for data: 109574624
I1219 20:02:01.537237  8306 layer_factory.hpp:77] Creating layer concat1_10_concat1_10_0_split
I1219 20:02:01.537246  8306 net.cpp:84] Creating Layer concat1_10_concat1_10_0_split
I1219 20:02:01.537251  8306 net.cpp:406] concat1_10_concat1_10_0_split <- concat1_10
I1219 20:02:01.537258  8306 net.cpp:380] concat1_10_concat1_10_0_split -> concat1_10_concat1_10_0_split_0
I1219 20:02:01.537266  8306 net.cpp:380] concat1_10_concat1_10_0_split -> concat1_10_concat1_10_0_split_1
I1219 20:02:01.537367  8306 net.cpp:122] Setting up concat1_10_concat1_10_0_split
I1219 20:02:01.537376  8306 net.cpp:129] Top shape: 1 576 23 24 (317952)
I1219 20:02:01.537387  8306 net.cpp:129] Top shape: 1 576 23 24 (317952)
I1219 20:02:01.537392  8306 net.cpp:137] Memory required for data: 112118240
I1219 20:02:01.537397  8306 layer_factory.hpp:77] Creating layer conv1_11/bn
I1219 20:02:01.537408  8306 net.cpp:84] Creating Layer conv1_11/bn
I1219 20:02:01.537415  8306 net.cpp:406] conv1_11/bn <- concat1_10_concat1_10_0_split_0
I1219 20:02:01.537421  8306 net.cpp:380] conv1_11/bn -> conv1_11/bn
I1219 20:02:01.538133  8306 net.cpp:122] Setting up conv1_11/bn
I1219 20:02:01.538161  8306 net.cpp:129] Top shape: 1 576 23 24 (317952)
I1219 20:02:01.538167  8306 net.cpp:137] Memory required for data: 113390048
I1219 20:02:01.538183  8306 layer_factory.hpp:77] Creating layer conv1_11/scale
I1219 20:02:01.538200  8306 net.cpp:84] Creating Layer conv1_11/scale
I1219 20:02:01.538209  8306 net.cpp:406] conv1_11/scale <- conv1_11/bn
I1219 20:02:01.538218  8306 net.cpp:367] conv1_11/scale -> conv1_11/bn (in-place)
I1219 20:02:01.538364  8306 layer_factory.hpp:77] Creating layer conv1_11/scale
I1219 20:02:01.538835  8306 net.cpp:122] Setting up conv1_11/scale
I1219 20:02:01.538857  8306 net.cpp:129] Top shape: 1 576 23 24 (317952)
I1219 20:02:01.538864  8306 net.cpp:137] Memory required for data: 114661856
I1219 20:02:01.538875  8306 layer_factory.hpp:77] Creating layer relu1_11
I1219 20:02:01.538887  8306 net.cpp:84] Creating Layer relu1_11
I1219 20:02:01.538894  8306 net.cpp:406] relu1_11 <- conv1_11/bn
I1219 20:02:01.538902  8306 net.cpp:367] relu1_11 -> conv1_11/bn (in-place)
I1219 20:02:01.539285  8306 net.cpp:122] Setting up relu1_11
I1219 20:02:01.539302  8306 net.cpp:129] Top shape: 1 576 23 24 (317952)
I1219 20:02:01.539307  8306 net.cpp:137] Memory required for data: 115933664
I1219 20:02:01.539314  8306 layer_factory.hpp:77] Creating layer conv1_11
I1219 20:02:01.539331  8306 net.cpp:84] Creating Layer conv1_11
I1219 20:02:01.539337  8306 net.cpp:406] conv1_11 <- conv1_11/bn
I1219 20:02:01.539347  8306 net.cpp:380] conv1_11 -> conv1_11
I1219 20:02:01.552220  8306 net.cpp:122] Setting up conv1_11
I1219 20:02:01.552259  8306 net.cpp:129] Top shape: 1 32 23 24 (17664)
I1219 20:02:01.552264  8306 net.cpp:137] Memory required for data: 116004320
I1219 20:02:01.552276  8306 layer_factory.hpp:77] Creating layer concat1_11
I1219 20:02:01.552290  8306 net.cpp:84] Creating Layer concat1_11
I1219 20:02:01.552299  8306 net.cpp:406] concat1_11 <- concat1_10_concat1_10_0_split_1
I1219 20:02:01.552309  8306 net.cpp:406] concat1_11 <- conv1_11
I1219 20:02:01.552317  8306 net.cpp:380] concat1_11 -> concat1_11
I1219 20:02:01.552393  8306 net.cpp:122] Setting up concat1_11
I1219 20:02:01.552402  8306 net.cpp:129] Top shape: 1 608 23 24 (335616)
I1219 20:02:01.552407  8306 net.cpp:137] Memory required for data: 117346784
I1219 20:02:01.552412  8306 layer_factory.hpp:77] Creating layer tpp5
I1219 20:02:01.552422  8306 net.cpp:84] Creating Layer tpp5
I1219 20:02:01.552426  8306 net.cpp:406] tpp5 <- concat1_11
I1219 20:02:01.552435  8306 net.cpp:380] tpp5 -> tpp5
I1219 20:02:01.577955  8306 net.cpp:122] Setting up tpp5
I1219 20:02:01.577998  8306 net.cpp:129] Top shape: 1 9120 (9120)
I1219 20:02:01.578006  8306 net.cpp:137] Memory required for data: 117383264
I1219 20:02:01.578013  8306 layer_factory.hpp:77] Creating layer fc6_d
I1219 20:02:01.578027  8306 net.cpp:84] Creating Layer fc6_d
I1219 20:02:01.578035  8306 net.cpp:406] fc6_d <- tpp5
I1219 20:02:01.578052  8306 net.cpp:380] fc6_d -> fc6_d
I1219 20:02:15.507390  8306 net.cpp:122] Setting up fc6_d
I1219 20:02:15.507432  8306 net.cpp:129] Top shape: 1 4096 (4096)
I1219 20:02:15.507437  8306 net.cpp:137] Memory required for data: 117399648
I1219 20:02:15.507450  8306 layer_factory.hpp:77] Creating layer relu6
I1219 20:02:15.507465  8306 net.cpp:84] Creating Layer relu6
I1219 20:02:15.507472  8306 net.cpp:406] relu6 <- fc6_d
I1219 20:02:15.507481  8306 net.cpp:367] relu6 -> fc6_d (in-place)
I1219 20:02:15.547999  8306 net.cpp:122] Setting up relu6
I1219 20:02:15.548038  8306 net.cpp:129] Top shape: 1 4096 (4096)
I1219 20:02:15.548050  8306 net.cpp:137] Memory required for data: 117416032
I1219 20:02:15.548058  8306 layer_factory.hpp:77] Creating layer fc7_d
I1219 20:02:15.548076  8306 net.cpp:84] Creating Layer fc7_d
I1219 20:02:15.548084  8306 net.cpp:406] fc7_d <- fc6_d
I1219 20:02:15.548095  8306 net.cpp:380] fc7_d -> fc7_d
I1219 20:02:19.700731  8306 net.cpp:122] Setting up fc7_d
I1219 20:02:19.700772  8306 net.cpp:129] Top shape: 1 4096 (4096)
I1219 20:02:19.700776  8306 net.cpp:137] Memory required for data: 117432416
I1219 20:02:19.700788  8306 layer_factory.hpp:77] Creating layer relu7
I1219 20:02:19.700801  8306 net.cpp:84] Creating Layer relu7
I1219 20:02:19.700808  8306 net.cpp:406] relu7 <- fc7_d
I1219 20:02:19.700817  8306 net.cpp:367] relu7 -> fc7_d (in-place)
I1219 20:02:19.701638  8306 net.cpp:122] Setting up relu7
I1219 20:02:19.701652  8306 net.cpp:129] Top shape: 1 4096 (4096)
I1219 20:02:19.701656  8306 net.cpp:137] Memory required for data: 117448800
I1219 20:02:19.701661  8306 layer_factory.hpp:77] Creating layer fc8_d
I1219 20:02:19.701673  8306 net.cpp:84] Creating Layer fc8_d
I1219 20:02:19.701678  8306 net.cpp:406] fc8_d <- fc7_d
I1219 20:02:19.701685  8306 net.cpp:380] fc8_d -> fc8_d
I1219 20:02:20.509450  8306 net.cpp:122] Setting up fc8_d
I1219 20:02:20.509495  8306 net.cpp:129] Top shape: 1 618 (618)
I1219 20:02:20.509500  8306 net.cpp:137] Memory required for data: 117451272
I1219 20:02:20.509513  8306 layer_factory.hpp:77] Creating layer fc8_d_fc8_d_0_split
I1219 20:02:20.509527  8306 net.cpp:84] Creating Layer fc8_d_fc8_d_0_split
I1219 20:02:20.509534  8306 net.cpp:406] fc8_d_fc8_d_0_split <- fc8_d
I1219 20:02:20.509543  8306 net.cpp:380] fc8_d_fc8_d_0_split -> fc8_d_fc8_d_0_split_0
I1219 20:02:20.509554  8306 net.cpp:380] fc8_d_fc8_d_0_split -> fc8_d_fc8_d_0_split_1
I1219 20:02:20.509649  8306 net.cpp:122] Setting up fc8_d_fc8_d_0_split
I1219 20:02:20.509660  8306 net.cpp:129] Top shape: 1 618 (618)
I1219 20:02:20.509665  8306 net.cpp:129] Top shape: 1 618 (618)
I1219 20:02:20.509670  8306 net.cpp:137] Memory required for data: 117456216
I1219 20:02:20.509675  8306 layer_factory.hpp:77] Creating layer sigmoid
I1219 20:02:20.509685  8306 net.cpp:84] Creating Layer sigmoid
I1219 20:02:20.509690  8306 net.cpp:406] sigmoid <- fc8_d_fc8_d_0_split_0
I1219 20:02:20.509697  8306 net.cpp:380] sigmoid -> sigmoid
I1219 20:02:20.510093  8306 net.cpp:122] Setting up sigmoid
I1219 20:02:20.510107  8306 net.cpp:129] Top shape: 1 618 (618)
I1219 20:02:20.510113  8306 net.cpp:137] Memory required for data: 117458688
I1219 20:02:20.510118  8306 layer_factory.hpp:77] Creating layer silence
I1219 20:02:20.510133  8306 net.cpp:84] Creating Layer silence
I1219 20:02:20.510138  8306 net.cpp:406] silence <- sigmoid
I1219 20:02:20.510144  8306 net.cpp:122] Setting up silence
I1219 20:02:20.510149  8306 net.cpp:137] Memory required for data: 117458688
…
