…
state {
  phase: TRAIN
}
layer {
  name: "word_images"
  type: "Data"
  top: "word_images"
  top: "label"
  transform_param {
    scale: -0.0039215689
    mean_value: 255
  }
  data_param {
    source: "/data/fwolf/min26/gw_cv1_nti500000_pul2-3-4-5_train_word_images_lmdb"
    batch_size: 1
    backend: LMDB
    prefetch: 20
  }
}
layer {
  name: "phocs"
  type: "Data"
  top: "phocs"
  top: "label_phocs"
  data_param {
    source: "/data/fwolf/min26/gw_cv1_nti500000_pul2-3-4-5_train_phocs_lmdb"
    batch_size: 1
    backend: LMDB
    prefetch: 20
  }
}
layer {
  name: "conv1_1"
  type: "Convolution"
  bottom: "word_images"
  top: "conv1_1"
  convolution_param {
    num_output: 64
    pad: 1
    kernel_size: 3
    stride: 1
    weight_filler {
      type: "msra"
    }
    bias_filler {
      type: "constant"
    }
    engine: CUDNN
  }
}
layer {
  name: "relu1_1"
  type: "ReLU"
  bottom: "conv1_1"
  top: "conv1_1"
}
layer {
  name: "conv1_2"
  type: "Convolution"
  bottom: "conv1_1"
  top: "conv1_2"
  convolution_param {
    num_output: 64
    pad: 1
    kernel_size: 3
    stride: 1
    weight_filler {
      type: "msra"
    }
    bias_filler {
      type: "constant"
    }
    engine: CUDNN
  }
}
layer {
  name: "relu1_2"
  type: "ReLU"
  bottom: "conv1_2"
  top: "conv1_2"
}
layer {
  name: "pool1"
  type: "Pooling"
  bottom: "conv1_2"
  top: "pool1"
  pooling_param {
    pool: MAX
    kernel_size: 2
    stride: 2
  }
}
layer {
  name: "conv2_1"
  type: "Convolution"
  bottom: "pool1"
  top: "conv2_1"
  convolution_param {
    num_output: 128
    pad: 1
    kernel_size: 3
    stride: 1
    weight_filler {
      type: "msra"
    }
    bias_filler {
      type: "constant"
    }
    engine: CUDNN
  }
}
layer {
  name: "relu2_1"
  type: "ReLU"
  bottom: "conv2_1"
  top: "conv2_1"
}
layer {
  name: "conv2_2"
  type: "Convolution"
  bottom: "conv2_1"
  top: "conv2_2"
  convolution_param {
    num_output: 128
    pad: 1
    kernel_size: 3
    stride: 1
    weight_filler {
      type: "msra"
    }
    bias_filler {
      type: "constant"
    }
    engine: CUDNN
  }
}
layer {
  name: "relu2_2"
  type: "ReLU"
  bottom: "conv2_2"
  top: "conv2_2"
}
layer {
  name: "pool2"
  type: "Pooling"
  bottom: "conv2_2"
  top: "pool2"
  pooling_param {
    pool: MAX
    kernel_size: 2
    stride: 2
  }
}
layer {
  name: "conv3_1"
  type: "Convolution"
  bottom: "pool2"
  top: "conv3_1"
  convolution_param {
    num_output: 256
    pad: 1
    kernel_size: 3
    stride: 1
    weight_filler {
      type: "msra"
    }
    bias_filler {
      type: "constant"
    }
    engine: CUDNN
  }
}
layer {
  name: "relu3_1"
  type: "ReLU"
  bottom: "conv3_1"
  top: "conv3_1"
}
layer {
  name: "conv3_2"
  type: "Convolution"
  bottom: "conv3_1"
  top: "conv3_2"
  convolution_param {
    num_output: 256
    pad: 1
    kernel_size: 3
    stride: 1
    weight_filler {
      type: "msra"
    }
    bias_filler {
      type: "constant"
    }
    engine: CUDNN
  }
}
layer {
  name: "relu3_2"
  type: "ReLU"
  bottom: "conv3_2"
  top: "conv3_2"
}
layer {
  name: "conv3_3"
  type: "Convolution"
  bottom: "conv3_2"
  top: "conv3_3"
  convolution_param {
    num_output: 256
    pad: 1
    kernel_size: 3
    stride: 1
    weight_filler {
      type: "msra"
    }
    bias_filler {
      type: "constant"
    }
    engine: CUDNN
  }
}
layer {
  name: "relu3_3"
  type: "ReLU"
  bottom: "conv3_3"
  top: "conv3_3"
}
layer {
  name: "conv3_4"
  type: "Convolution"
  bottom: "conv3_3"
  top: "conv3_4"
  convolution_param {
    num_output: 256
    pad: 1
    kernel_size: 3
    stride: 1
    weight_filler {
      type: "msra"
    }
    bias_filler {
      type: "constant"
    }
    engine: CUDNN
  }
}
layer {
  name: "relu3_4"
  type: "ReLU"
  bottom: "conv3_4"
  top: "conv3_4"
}
layer {
  name: "conv3_5"
  type: "Convolution"
  bottom: "conv3_4"
  top: "conv3_5"
  convolution_param {
    num_output: 256
    pad: 1
    kernel_size: 3
    stride: 1
    weight_filler {
      type: "msra"
    }
    bias_filler {
      type: "constant"
    }
    engine: CUDNN
  }
}
layer {
  name: "relu3_5"
  type: "ReLU"
  bottom: "conv3_5"
  top: "conv3_5"
}
layer {
  name: "conv3_6"
  type: "Convolution"
  bottom: "conv3_5"
  top: "conv3_6"
  convolution_param {
    num_output: 256
    pad: 1
    kernel_size: 3
    stride: 1
    weight_filler {
      type: "msra"
    }
    bias_filler {
      type: "constant"
    }
    engine: CUDNN
  }
}
layer {
  name: "relu3_6"
  type: "ReLU"
  bottom: "conv3_6"
  top: "conv3_6"
}
layer {
  name: "conv4_1"
  type: "Convolution"
  bottom: "conv3_6"
  top: "conv4_1"
  convolution_param {
    num_output: 512
    pad: 1
    kernel_size: 3
    stride: 1
    weight_filler {
      type: "msra"
    }
    bias_filler {
      type: "constant"
    }
    engine: CUDNN
  }
}
layer {
  name: "relu4_1"
  type: "ReLU"
  bottom: "conv4_1"
  top: "conv4_1"
}
layer {
  name: "conv4_2"
  type: "Convolution"
  bottom: "conv4_1"
  top: "conv4_2"
  convolution_param {
    num_output: 512
    pad: 1
    kernel_size: 3
    stride: 1
    weight_filler {
      type: "msra"
    }
    bias_filler {
      type: "constant"
    }
    engine: CUDNN
  }
}
layer {
  name: "relu4_2"
  type: "ReLU"
  bottom: "conv4_2"
  top: "conv4_2"
}
layer {
  name: "conv4_3"
  type: "Convolution"
  bottom: "conv4_2"
  top: "conv4_3"
  convolution_param {
    num_output: 512
    pad: 1
    kernel_size: 3
    stride: 1
    weight_filler {
      type: "msra"
    }
    bias_filler {
      type: "constant"
    }
    engine: CUDNN
  }
}
layer {
  name: "relu4_3"
  type: "ReLU"
  bottom: "conv4_3"
  top: "conv4_3"
}
layer {
  name: "tpp5"
  type: "TPP"
  bottom: "conv4_3"
  top: "tpp5"
  tpp_param {
    pyramid_layer: 1
    pyramid_layer: 2
    pyramid_layer: 3
    pyramid_layer: 4
    pyramid_layer: 5
    pool: MAX
    engine: CUDNN
  }
}
layer {
  name: "reshape"
  type: "Reshape"
  bottom: "tpp5"
  top: "reshape"
  reshape_param {
    shape {
      dim: 1
      dim: 1920
      dim: 4
      dim: 1
    }
  }
}
layer {
  name: "premax"
  type: "Scale"
  bottom: "reshape"
  top: "premax"
  param {
    lr_mult: 0
    decay_mult: 0
  }
  scale_param {
    num_axes: 3
    filler {
      value: 1
    }
    bias_term: false
    bias_filler {
      value: 0
    }
  }
}
layer {
  name: "maxout"
  type: "Pooling"
  bottom: "premax"
  top: "maxout"
  pooling_param {
    pool: MAX
    global_pooling: true
  }
}
layer {
  name: "fc6"
  type: "InnerProduct"
  bottom: "maxout"
  top: "fc6"
  inner_product_param {
    num_output: 4096
    weight_filler {
      type: "msra"
    }
    bias_filler {
      type: "constant"
    }
  }
}
layer {
  name: "relu6"
  type: "ReLU"
  bottom: "fc6"
  top: "fc6"
}
layer {
  name: "drop6"
  type: "Dropout"
  bottom: "fc6"
  top: "fc6"
  include {
    phase: TRAIN
  }
  dropout_param {
    dropout_ratio: 0.5
  }
}
layer {
  name: "fc7"
  type: "InnerProduct"
  bottom: "fc6"
  top: "fc7"
  inner_product_param {
    num_output: 4096
    weight_filler {
      type: "msra"
    }
    bias_filler {
      type: "constant"
    }
  }
}
layer {
  name: "relu7"
  type: "ReLU"
  bottom: "fc7"
  top: "fc7"
}
layer {
  name: "drop7"
  type: "Dropout"
  bottom: "fc7"
  top: "fc7"
  include {
    phase: TRAIN
  }
  dropout_param {
    dropout_ratio: 0.5
  }
}
layer {
  name: "fc8"
  type: "InnerProduct"
  bottom: "fc7"
  top: "fc8"
  inner_product_param {
    num_output: 604
    weight_filler {
      type: "msra"
    }
    bias_filler {
      type: "constant"
    }
  }
}
layer {
  name: "loss"
  type: "SigmoidCrossEntropyLoss"
  bottom: "fc8"
  bottom: "phocs"
  top: "loss"
}
I1222 11:44:56.534945 24349 layer_factory.hpp:77] Creating layer word_images
I1222 11:44:56.535035 24349 db_lmdb.cpp:35] Opened lmdb /data/fwolf/min26/gw_cv1_nti500000_pul2-3-4-5_train_word_images_lmdb
I1222 11:44:56.535064 24349 net.cpp:84] Creating Layer word_images
I1222 11:44:56.535070 24349 net.cpp:380] word_images -> word_images
I1222 11:44:56.535086 24349 net.cpp:380] word_images -> label
I1222 11:44:56.536368 24349 data_layer.cpp:44] output data size: 1,1,108,244
I1222 11:44:56.541852 24349 net.cpp:122] Setting up word_images
I1222 11:44:56.541869 24349 net.cpp:129] Top shape: 1 1 108 244 (26352)
I1222 11:44:56.541875 24349 net.cpp:129] Top shape: 1 (1)
I1222 11:44:56.541879 24349 net.cpp:137] Memory required for data: 105412
I1222 11:44:56.541884 24349 layer_factory.hpp:77] Creating layer phocs
I1222 11:44:56.541944 24349 db_lmdb.cpp:35] Opened lmdb /data/fwolf/min26/gw_cv1_nti500000_pul2-3-4-5_train_phocs_lmdb
I1222 11:44:56.541965 24349 net.cpp:84] Creating Layer phocs
I1222 11:44:56.541972 24349 net.cpp:380] phocs -> phocs
I1222 11:44:56.541981 24349 net.cpp:380] phocs -> label_phocs
I1222 11:44:56.542407 24349 data_layer.cpp:44] output data size: 1,1,1,604
I1222 11:44:56.545948 24349 net.cpp:122] Setting up phocs
I1222 11:44:56.545966 24349 net.cpp:129] Top shape: 1 1 1 604 (604)
I1222 11:44:56.545972 24349 net.cpp:129] Top shape: 1 (1)
I1222 11:44:56.545977 24349 net.cpp:137] Memory required for data: 107832
I1222 11:44:56.545982 24349 layer_factory.hpp:77] Creating layer conv1_1
I1222 11:44:56.545994 24349 net.cpp:84] Creating Layer conv1_1
I1222 11:44:56.546000 24349 net.cpp:406] conv1_1 <- word_images
I1222 11:44:56.546008 24349 net.cpp:380] conv1_1 -> conv1_1
I1222 11:44:57.119048 24349 net.cpp:122] Setting up conv1_1
I1222 11:44:57.119087 24349 net.cpp:129] Top shape: 1 64 108 244 (1686528)
I1222 11:44:57.119092 24349 net.cpp:137] Memory required for data: 6853944
I1222 11:44:57.119109 24349 layer_factory.hpp:77] Creating layer relu1_1
I1222 11:44:57.119122 24349 net.cpp:84] Creating Layer relu1_1
I1222 11:44:57.119127 24349 net.cpp:406] relu1_1 <- conv1_1
I1222 11:44:57.119134 24349 net.cpp:367] relu1_1 -> conv1_1 (in-place)
I1222 11:44:57.120061 24349 net.cpp:122] Setting up relu1_1
I1222 11:44:57.120075 24349 net.cpp:129] Top shape: 1 64 108 244 (1686528)
I1222 11:44:57.120079 24349 net.cpp:137] Memory required for data: 13600056
I1222 11:44:57.120085 24349 layer_factory.hpp:77] Creating layer conv1_2
I1222 11:44:57.120100 24349 net.cpp:84] Creating Layer conv1_2
I1222 11:44:57.120105 24349 net.cpp:406] conv1_2 <- conv1_1
I1222 11:44:57.120111 24349 net.cpp:380] conv1_2 -> conv1_2
I1222 11:44:57.124218 24349 net.cpp:122] Setting up conv1_2
I1222 11:44:57.124233 24349 net.cpp:129] Top shape: 1 64 108 244 (1686528)
I1222 11:44:57.124238 24349 net.cpp:137] Memory required for data: 20346168
I1222 11:44:57.124248 24349 layer_factory.hpp:77] Creating layer relu1_2
I1222 11:44:57.124255 24349 net.cpp:84] Creating Layer relu1_2
I1222 11:44:57.124260 24349 net.cpp:406] relu1_2 <- conv1_2
I1222 11:44:57.124266 24349 net.cpp:367] relu1_2 -> conv1_2 (in-place)
I1222 11:44:57.124475 24349 net.cpp:122] Setting up relu1_2
I1222 11:44:57.124485 24349 net.cpp:129] Top shape: 1 64 108 244 (1686528)
I1222 11:44:57.124490 24349 net.cpp:137] Memory required for data: 27092280
I1222 11:44:57.124495 24349 layer_factory.hpp:77] Creating layer pool1
I1222 11:44:57.124502 24349 net.cpp:84] Creating Layer pool1
I1222 11:44:57.124506 24349 net.cpp:406] pool1 <- conv1_2
I1222 11:44:57.124517 24349 net.cpp:380] pool1 -> pool1
I1222 11:44:57.124588 24349 net.cpp:122] Setting up pool1
I1222 11:44:57.124595 24349 net.cpp:129] Top shape: 1 64 54 122 (421632)
I1222 11:44:57.124599 24349 net.cpp:137] Memory required for data: 28778808
I1222 11:44:57.124603 24349 layer_factory.hpp:77] Creating layer conv2_1
I1222 11:44:57.124613 24349 net.cpp:84] Creating Layer conv2_1
I1222 11:44:57.124617 24349 net.cpp:406] conv2_1 <- pool1
I1222 11:44:57.124624 24349 net.cpp:380] conv2_1 -> conv2_1
I1222 11:44:57.130347 24349 net.cpp:122] Setting up conv2_1
I1222 11:44:57.130367 24349 net.cpp:129] Top shape: 1 128 54 122 (843264)
I1222 11:44:57.130372 24349 net.cpp:137] Memory required for data: 32151864
I1222 11:44:57.130383 24349 layer_factory.hpp:77] Creating layer relu2_1
I1222 11:44:57.130393 24349 net.cpp:84] Creating Layer relu2_1
I1222 11:44:57.130398 24349 net.cpp:406] relu2_1 <- conv2_1
I1222 11:44:57.130404 24349 net.cpp:367] relu2_1 -> conv2_1 (in-place)
I1222 11:44:57.130807 24349 net.cpp:122] Setting up relu2_1
I1222 11:44:57.130820 24349 net.cpp:129] Top shape: 1 128 54 122 (843264)
I1222 11:44:57.130825 24349 net.cpp:137] Memory required for data: 35524920
I1222 11:44:57.130828 24349 layer_factory.hpp:77] Creating layer conv2_2
I1222 11:44:57.130841 24349 net.cpp:84] Creating Layer conv2_2
I1222 11:44:57.130844 24349 net.cpp:406] conv2_2 <- conv2_1
I1222 11:44:57.130852 24349 net.cpp:380] conv2_2 -> conv2_2
I1222 11:44:57.137954 24349 net.cpp:122] Setting up conv2_2
I1222 11:44:57.137986 24349 net.cpp:129] Top shape: 1 128 54 122 (843264)
I1222 11:44:57.137992 24349 net.cpp:137] Memory required for data: 38897976
I1222 11:44:57.138005 24349 layer_factory.hpp:77] Creating layer relu2_2
I1222 11:44:57.138015 24349 net.cpp:84] Creating Layer relu2_2
I1222 11:44:57.138021 24349 net.cpp:406] relu2_2 <- conv2_2
I1222 11:44:57.138029 24349 net.cpp:367] relu2_2 -> conv2_2 (in-place)
I1222 11:44:57.138248 24349 net.cpp:122] Setting up relu2_2
I1222 11:44:57.138258 24349 net.cpp:129] Top shape: 1 128 54 122 (843264)
I1222 11:44:57.138263 24349 net.cpp:137] Memory required for data: 42271032
I1222 11:44:57.138267 24349 layer_factory.hpp:77] Creating layer pool2
I1222 11:44:57.138275 24349 net.cpp:84] Creating Layer pool2
I1222 11:44:57.138279 24349 net.cpp:406] pool2 <- conv2_2
I1222 11:44:57.138285 24349 net.cpp:380] pool2 -> pool2
I1222 11:44:57.138365 24349 net.cpp:122] Setting up pool2
I1222 11:44:57.138371 24349 net.cpp:129] Top shape: 1 128 27 61 (210816)
I1222 11:44:57.138375 24349 net.cpp:137] Memory required for data: 43114296
I1222 11:44:57.138380 24349 layer_factory.hpp:77] Creating layer conv3_1
I1222 11:44:57.138391 24349 net.cpp:84] Creating Layer conv3_1
I1222 11:44:57.138396 24349 net.cpp:406] conv3_1 <- pool2
I1222 11:44:57.138402 24349 net.cpp:380] conv3_1 -> conv3_1
I1222 11:44:57.153470 24349 net.cpp:122] Setting up conv3_1
I1222 11:44:57.153498 24349 net.cpp:129] Top shape: 1 256 27 61 (421632)
I1222 11:44:57.153501 24349 net.cpp:137] Memory required for data: 44800824
I1222 11:44:57.153513 24349 layer_factory.hpp:77] Creating layer relu3_1
I1222 11:44:57.153523 24349 net.cpp:84] Creating Layer relu3_1
I1222 11:44:57.153527 24349 net.cpp:406] relu3_1 <- conv3_1
I1222 11:44:57.153532 24349 net.cpp:367] relu3_1 -> conv3_1 (in-place)
I1222 11:44:57.153867 24349 net.cpp:122] Setting up relu3_1
I1222 11:44:57.153877 24349 net.cpp:129] Top shape: 1 256 27 61 (421632)
I1222 11:44:57.153879 24349 net.cpp:137] Memory required for data: 46487352
I1222 11:44:57.153882 24349 layer_factory.hpp:77] Creating layer conv3_2
I1222 11:44:57.153892 24349 net.cpp:84] Creating Layer conv3_2
I1222 11:44:57.153895 24349 net.cpp:406] conv3_2 <- conv3_1
I1222 11:44:57.153900 24349 net.cpp:380] conv3_2 -> conv3_2
I1222 11:44:57.175695 24349 net.cpp:122] Setting up conv3_2
I1222 11:44:57.175731 24349 net.cpp:129] Top shape: 1 256 27 61 (421632)
I1222 11:44:57.175737 24349 net.cpp:137] Memory required for data: 48173880
I1222 11:44:57.175755 24349 layer_factory.hpp:77] Creating layer relu3_2
I1222 11:44:57.175770 24349 net.cpp:84] Creating Layer relu3_2
I1222 11:44:57.175781 24349 net.cpp:406] relu3_2 <- conv3_2
I1222 11:44:57.175791 24349 net.cpp:367] relu3_2 -> conv3_2 (in-place)
I1222 11:44:57.176376 24349 net.cpp:122] Setting up relu3_2
I1222 11:44:57.176393 24349 net.cpp:129] Top shape: 1 256 27 61 (421632)
I1222 11:44:57.176398 24349 net.cpp:137] Memory required for data: 49860408
I1222 11:44:57.176401 24349 layer_factory.hpp:77] Creating layer conv3_3
I1222 11:44:57.176419 24349 net.cpp:84] Creating Layer conv3_3
I1222 11:44:57.176424 24349 net.cpp:406] conv3_3 <- conv3_2
I1222 11:44:57.176431 24349 net.cpp:380] conv3_3 -> conv3_3
I1222 11:44:57.202721 24349 net.cpp:122] Setting up conv3_3
I1222 11:44:57.202754 24349 net.cpp:129] Top shape: 1 256 27 61 (421632)
I1222 11:44:57.202759 24349 net.cpp:137] Memory required for data: 51546936
I1222 11:44:57.202770 24349 layer_factory.hpp:77] Creating layer relu3_3
I1222 11:44:57.202781 24349 net.cpp:84] Creating Layer relu3_3
I1222 11:44:57.202787 24349 net.cpp:406] relu3_3 <- conv3_3
I1222 11:44:57.202796 24349 net.cpp:367] relu3_3 -> conv3_3 (in-place)
I1222 11:44:57.203917 24349 net.cpp:122] Setting up relu3_3
I1222 11:44:57.203927 24349 net.cpp:129] Top shape: 1 256 27 61 (421632)
I1222 11:44:57.203932 24349 net.cpp:137] Memory required for data: 53233464
I1222 11:44:57.203935 24349 layer_factory.hpp:77] Creating layer conv3_4
I1222 11:44:57.203948 24349 net.cpp:84] Creating Layer conv3_4
I1222 11:44:57.203953 24349 net.cpp:406] conv3_4 <- conv3_3
I1222 11:44:57.203959 24349 net.cpp:380] conv3_4 -> conv3_4
I1222 11:44:57.228339 24349 net.cpp:122] Setting up conv3_4
I1222 11:44:57.228373 24349 net.cpp:129] Top shape: 1 256 27 61 (421632)
I1222 11:44:57.228377 24349 net.cpp:137] Memory required for data: 54919992
I1222 11:44:57.228389 24349 layer_factory.hpp:77] Creating layer relu3_4
I1222 11:44:57.228400 24349 net.cpp:84] Creating Layer relu3_4
I1222 11:44:57.228407 24349 net.cpp:406] relu3_4 <- conv3_4
I1222 11:44:57.228415 24349 net.cpp:367] relu3_4 -> conv3_4 (in-place)
I1222 11:44:57.228827 24349 net.cpp:122] Setting up relu3_4
I1222 11:44:57.228840 24349 net.cpp:129] Top shape: 1 256 27 61 (421632)
I1222 11:44:57.228844 24349 net.cpp:137] Memory required for data: 56606520
I1222 11:44:57.228849 24349 layer_factory.hpp:77] Creating layer conv3_5
I1222 11:44:57.228863 24349 net.cpp:84] Creating Layer conv3_5
I1222 11:44:57.228866 24349 net.cpp:406] conv3_5 <- conv3_4
I1222 11:44:57.228874 24349 net.cpp:380] conv3_5 -> conv3_5
I1222 11:44:57.250547 24349 net.cpp:122] Setting up conv3_5
I1222 11:44:57.250576 24349 net.cpp:129] Top shape: 1 256 27 61 (421632)
I1222 11:44:57.250578 24349 net.cpp:137] Memory required for data: 58293048
I1222 11:44:57.250591 24349 layer_factory.hpp:77] Creating layer relu3_5
I1222 11:44:57.250598 24349 net.cpp:84] Creating Layer relu3_5
I1222 11:44:57.250603 24349 net.cpp:406] relu3_5 <- conv3_5
I1222 11:44:57.250608 24349 net.cpp:367] relu3_5 -> conv3_5 (in-place)
I1222 11:44:57.251556 24349 net.cpp:122] Setting up relu3_5
I1222 11:44:57.251564 24349 net.cpp:129] Top shape: 1 256 27 61 (421632)
I1222 11:44:57.251567 24349 net.cpp:137] Memory required for data: 59979576
I1222 11:44:57.251569 24349 layer_factory.hpp:77] Creating layer conv3_6
I1222 11:44:57.251579 24349 net.cpp:84] Creating Layer conv3_6
I1222 11:44:57.251583 24349 net.cpp:406] conv3_6 <- conv3_5
I1222 11:44:57.251587 24349 net.cpp:380] conv3_6 -> conv3_6
I1222 11:44:57.274065 24349 net.cpp:122] Setting up conv3_6
I1222 11:44:57.274099 24349 net.cpp:129] Top shape: 1 256 27 61 (421632)
I1222 11:44:57.274106 24349 net.cpp:137] Memory required for data: 61666104
I1222 11:44:57.274116 24349 layer_factory.hpp:77] Creating layer relu3_6
I1222 11:44:57.274129 24349 net.cpp:84] Creating Layer relu3_6
I1222 11:44:57.274135 24349 net.cpp:406] relu3_6 <- conv3_6
I1222 11:44:57.274144 24349 net.cpp:367] relu3_6 -> conv3_6 (in-place)
I1222 11:44:57.274658 24349 net.cpp:122] Setting up relu3_6
I1222 11:44:57.274672 24349 net.cpp:129] Top shape: 1 256 27 61 (421632)
I1222 11:44:57.274675 24349 net.cpp:137] Memory required for data: 63352632
I1222 11:44:57.274688 24349 layer_factory.hpp:77] Creating layer conv4_1
I1222 11:44:57.274700 24349 net.cpp:84] Creating Layer conv4_1
I1222 11:44:57.274705 24349 net.cpp:406] conv4_1 <- conv3_6
I1222 11:44:57.274713 24349 net.cpp:380] conv4_1 -> conv4_1
I1222 11:44:57.320848 24349 net.cpp:122] Setting up conv4_1
I1222 11:44:57.320879 24349 net.cpp:129] Top shape: 1 512 27 61 (843264)
I1222 11:44:57.320884 24349 net.cpp:137] Memory required for data: 66725688
I1222 11:44:57.320895 24349 layer_factory.hpp:77] Creating layer relu4_1
I1222 11:44:57.320906 24349 net.cpp:84] Creating Layer relu4_1
I1222 11:44:57.320912 24349 net.cpp:406] relu4_1 <- conv4_1
I1222 11:44:57.320920 24349 net.cpp:367] relu4_1 -> conv4_1 (in-place)
I1222 11:44:57.321319 24349 net.cpp:122] Setting up relu4_1
I1222 11:44:57.321332 24349 net.cpp:129] Top shape: 1 512 27 61 (843264)
I1222 11:44:57.321336 24349 net.cpp:137] Memory required for data: 70098744
I1222 11:44:57.321341 24349 layer_factory.hpp:77] Creating layer conv4_2
I1222 11:44:57.321353 24349 net.cpp:84] Creating Layer conv4_2
I1222 11:44:57.321358 24349 net.cpp:406] conv4_2 <- conv4_1
I1222 11:44:57.321365 24349 net.cpp:380] conv4_2 -> conv4_2
I1222 11:44:57.402369 24349 net.cpp:122] Setting up conv4_2
I1222 11:44:57.402403 24349 net.cpp:129] Top shape: 1 512 27 61 (843264)
I1222 11:44:57.402408 24349 net.cpp:137] Memory required for data: 73471800
I1222 11:44:57.402420 24349 layer_factory.hpp:77] Creating layer relu4_2
I1222 11:44:57.402432 24349 net.cpp:84] Creating Layer relu4_2
I1222 11:44:57.402438 24349 net.cpp:406] relu4_2 <- conv4_2
I1222 11:44:57.402446 24349 net.cpp:367] relu4_2 -> conv4_2 (in-place)
I1222 11:44:57.403133 24349 net.cpp:122] Setting up relu4_2
I1222 11:44:57.403143 24349 net.cpp:129] Top shape: 1 512 27 61 (843264)
I1222 11:44:57.403147 24349 net.cpp:137] Memory required for data: 76844856
I1222 11:44:57.403152 24349 layer_factory.hpp:77] Creating layer conv4_3
I1222 11:44:57.403164 24349 net.cpp:84] Creating Layer conv4_3
I1222 11:44:57.403168 24349 net.cpp:406] conv4_3 <- conv4_2
I1222 11:44:57.403175 24349 net.cpp:380] conv4_3 -> conv4_3
I1222 11:44:57.490869 24349 net.cpp:122] Setting up conv4_3
I1222 11:44:57.490902 24349 net.cpp:129] Top shape: 1 512 27 61 (843264)
I1222 11:44:57.490907 24349 net.cpp:137] Memory required for data: 80217912
I1222 11:44:57.490918 24349 layer_factory.hpp:77] Creating layer relu4_3
I1222 11:44:57.490928 24349 net.cpp:84] Creating Layer relu4_3
I1222 11:44:57.490934 24349 net.cpp:406] relu4_3 <- conv4_3
I1222 11:44:57.490942 24349 net.cpp:367] relu4_3 -> conv4_3 (in-place)
I1222 11:44:57.491367 24349 net.cpp:122] Setting up relu4_3
I1222 11:44:57.491379 24349 net.cpp:129] Top shape: 1 512 27 61 (843264)
I1222 11:44:57.491384 24349 net.cpp:137] Memory required for data: 83590968
I1222 11:44:57.491389 24349 layer_factory.hpp:77] Creating layer tpp5
I1222 11:44:57.491396 24349 net.cpp:84] Creating Layer tpp5
I1222 11:44:57.491401 24349 net.cpp:406] tpp5 <- conv4_3
I1222 11:44:57.491407 24349 net.cpp:380] tpp5 -> tpp5
I1222 11:44:57.492286 24349 net.cpp:122] Setting up tpp5
I1222 11:44:57.492298 24349 net.cpp:129] Top shape: 1 7680 (7680)
I1222 11:44:57.492303 24349 net.cpp:137] Memory required for data: 83621688
I1222 11:44:57.492307 24349 layer_factory.hpp:77] Creating layer reshape
I1222 11:44:57.492316 24349 net.cpp:84] Creating Layer reshape
I1222 11:44:57.492321 24349 net.cpp:406] reshape <- tpp5
I1222 11:44:57.492326 24349 net.cpp:380] reshape -> reshape
I1222 11:44:57.492372 24349 net.cpp:122] Setting up reshape
I1222 11:44:57.492380 24349 net.cpp:129] Top shape: 1 1920 4 1 (7680)
I1222 11:44:57.492384 24349 net.cpp:137] Memory required for data: 83652408
I1222 11:44:57.492388 24349 layer_factory.hpp:77] Creating layer premax
I1222 11:44:57.492398 24349 net.cpp:84] Creating Layer premax
I1222 11:44:57.492403 24349 net.cpp:406] premax <- reshape
I1222 11:44:57.492408 24349 net.cpp:380] premax -> premax
I1222 11:44:57.492599 24349 net.cpp:122] Setting up premax
I1222 11:44:57.492607 24349 net.cpp:129] Top shape: 1 1920 4 1 (7680)
I1222 11:44:57.492621 24349 net.cpp:137] Memory required for data: 83683128
I1222 11:44:57.492628 24349 layer_factory.hpp:77] Creating layer maxout
I1222 11:44:57.492635 24349 net.cpp:84] Creating Layer maxout
I1222 11:44:57.492640 24349 net.cpp:406] maxout <- premax
I1222 11:44:57.492645 24349 net.cpp:380] maxout -> maxout
I1222 11:44:57.492713 24349 net.cpp:122] Setting up maxout
I1222 11:44:57.492722 24349 net.cpp:129] Top shape: 1 1920 1 1 (1920)
I1222 11:44:57.492725 24349 net.cpp:137] Memory required for data: 83690808
I1222 11:44:57.492729 24349 layer_factory.hpp:77] Creating layer fc6
I1222 11:44:57.492738 24349 net.cpp:84] Creating Layer fc6
I1222 11:44:57.492741 24349 net.cpp:406] fc6 <- maxout
I1222 11:44:57.492748 24349 net.cpp:380] fc6 -> fc6
I1222 11:44:57.744916 24349 net.cpp:122] Setting up fc6
I1222 11:44:57.744952 24349 net.cpp:129] Top shape: 1 4096 (4096)
I1222 11:44:57.744957 24349 net.cpp:137] Memory required for data: 83707192
I1222 11:44:57.744969 24349 layer_factory.hpp:77] Creating layer relu6
I1222 11:44:57.744979 24349 net.cpp:84] Creating Layer relu6
I1222 11:44:57.744985 24349 net.cpp:406] relu6 <- fc6
I1222 11:44:57.744993 24349 net.cpp:367] relu6 -> fc6 (in-place)
I1222 11:44:57.745268 24349 net.cpp:122] Setting up relu6
I1222 11:44:57.745281 24349 net.cpp:129] Top shape: 1 4096 (4096)
I1222 11:44:57.745285 24349 net.cpp:137] Memory required for data: 83723576
I1222 11:44:57.745290 24349 layer_factory.hpp:77] Creating layer drop6
I1222 11:44:57.745301 24349 net.cpp:84] Creating Layer drop6
I1222 11:44:57.745304 24349 net.cpp:406] drop6 <- fc6
I1222 11:44:57.745311 24349 net.cpp:367] drop6 -> fc6 (in-place)
I1222 11:44:57.745359 24349 net.cpp:122] Setting up drop6
I1222 11:44:57.745367 24349 net.cpp:129] Top shape: 1 4096 (4096)
I1222 11:44:57.745370 24349 net.cpp:137] Memory required for data: 83739960
I1222 11:44:57.745374 24349 layer_factory.hpp:77] Creating layer fc7
I1222 11:44:57.745383 24349 net.cpp:84] Creating Layer fc7
I1222 11:44:57.745386 24349 net.cpp:406] fc7 <- fc6
I1222 11:44:57.745393 24349 net.cpp:380] fc7 -> fc7
I1222 11:44:58.256373 24349 net.cpp:122] Setting up fc7
I1222 11:44:58.256407 24349 net.cpp:129] Top shape: 1 4096 (4096)
I1222 11:44:58.256412 24349 net.cpp:137] Memory required for data: 83756344
I1222 11:44:58.256423 24349 layer_factory.hpp:77] Creating layer relu7
I1222 11:44:58.256436 24349 net.cpp:84] Creating Layer relu7
I1222 11:44:58.256441 24349 net.cpp:406] relu7 <- fc7
I1222 11:44:58.256449 24349 net.cpp:367] relu7 -> fc7 (in-place)
I1222 11:44:58.257025 24349 net.cpp:122] Setting up relu7
I1222 11:44:58.257037 24349 net.cpp:129] Top shape: 1 4096 (4096)
I1222 11:44:58.257042 24349 net.cpp:137] Memory required for data: 83772728
I1222 11:44:58.257046 24349 layer_factory.hpp:77] Creating layer drop7
I1222 11:44:58.257056 24349 net.cpp:84] Creating Layer drop7
I1222 11:44:58.257061 24349 net.cpp:406] drop7 <- fc7
I1222 11:44:58.257067 24349 net.cpp:367] drop7 -> fc7 (in-place)
I1222 11:44:58.257115 24349 net.cpp:122] Setting up drop7
I1222 11:44:58.257122 24349 net.cpp:129] Top shape: 1 4096 (4096)
I1222 11:44:58.257127 24349 net.cpp:137] Memory required for data: 83789112
I1222 11:44:58.257130 24349 layer_factory.hpp:77] Creating layer fc8
I1222 11:44:58.257138 24349 net.cpp:84] Creating Layer fc8
I1222 11:44:58.257143 24349 net.cpp:406] fc8 <- fc7
I1222 11:44:58.257148 24349 net.cpp:380] fc8 -> fc8
I1222 11:44:58.336956 24349 net.cpp:122] Setting up fc8
I1222 11:44:58.336983 24349 net.cpp:129] Top shape: 1 604 (604)
I1222 11:44:58.336987 24349 net.cpp:137] Memory required for data: 83791528
I1222 11:44:58.336997 24349 layer_factory.hpp:77] Creating layer loss
I1222 11:44:58.337007 24349 net.cpp:84] Creating Layer loss
I1222 11:44:58.337009 24349 net.cpp:406] loss <- fc8
I1222 11:44:58.337014 24349 net.cpp:406] loss <- phocs
I1222 11:44:58.337019 24349 net.cpp:380] loss -> loss
I1222 11:44:58.337077 24349 net.cpp:122] Setting up loss
…
state {
  phase: TEST
}
layer {
  name: "word_images"
  type: "Data"
  top: "word_images"
  top: "label"
  transform_param {
    scale: -0.0039215689
    mean_value: 255
  }
  data_param {
    source: "/data/fwolf/min26/gw_cv1_nti500000_pul2-3-4-5_test_word_images_lmdb"
    batch_size: 1
    backend: LMDB
    prefetch: 20
  }
}
layer {
  name: "phocs"
  type: "Data"
  top: "phocs"
  top: "label_phocs"
  data_param {
    source: "/data/fwolf/min26/gw_cv1_nti500000_pul2-3-4-5_test_phocs_lmdb"
    batch_size: 1
    backend: LMDB
    prefetch: 20
  }
}
layer {
  name: "conv1_1"
  type: "Convolution"
  bottom: "word_images"
  top: "conv1_1"
  convolution_param {
    num_output: 64
    pad: 1
    kernel_size: 3
    stride: 1
    weight_filler {
      type: "msra"
    }
    bias_filler {
      type: "constant"
    }
    engine: CUDNN
  }
}
layer {
  name: "relu1_1"
  type: "ReLU"
  bottom: "conv1_1"
  top: "conv1_1"
}
layer {
  name: "conv1_2"
  type: "Convolution"
  bottom: "conv1_1"
  top: "conv1_2"
  convolution_param {
    num_output: 64
    pad: 1
    kernel_size: 3
    stride: 1
    weight_filler {
      type: "msra"
    }
    bias_filler {
      type: "constant"
    }
    engine: CUDNN
  }
}
layer {
  name: "relu1_2"
  type: "ReLU"
  bottom: "conv1_2"
  top: "conv1_2"
}
layer {
  name: "pool1"
  type: "Pooling"
  bottom: "conv1_2"
  top: "pool1"
  pooling_param {
    pool: MAX
    kernel_size: 2
    stride: 2
  }
}
layer {
  name: "conv2_1"
  type: "Convolution"
  bottom: "pool1"
  top: "conv2_1"
  convolution_param {
    num_output: 128
    pad: 1
    kernel_size: 3
    stride: 1
    weight_filler {
      type: "msra"
    }
    bias_filler {
      type: "constant"
    }
    engine: CUDNN
  }
}
layer {
  name: "relu2_1"
  type: "ReLU"
  bottom: "conv2_1"
  top: "conv2_1"
}
layer {
  name: "conv2_2"
  type: "Convolution"
  bottom: "conv2_1"
  top: "conv2_2"
  convolution_param {
    num_output: 128
    pad: 1
    kernel_size: 3
    stride: 1
    weight_filler {
      type: "msra"
    }
    bias_filler {
      type: "constant"
    }
    engine: CUDNN
  }
}
layer {
  name: "relu2_2"
  type: "ReLU"
  bottom: "conv2_2"
  top: "conv2_2"
}
layer {
  name: "pool2"
  type: "Pooling"
  bottom: "conv2_2"
  top: "pool2"
  pooling_param {
    pool: MAX
    kernel_size: 2
    stride: 2
  }
}
layer {
  name: "conv3_1"
  type: "Convolution"
  bottom: "pool2"
  top: "conv3_1"
  convolution_param {
    num_output: 256
    pad: 1
    kernel_size: 3
    stride: 1
    weight_filler {
      type: "msra"
    }
    bias_filler {
      type: "constant"
    }
    engine: CUDNN
  }
}
layer {
  name: "relu3_1"
  type: "ReLU"
  bottom: "conv3_1"
  top: "conv3_1"
}
layer {
  name: "conv3_2"
  type: "Convolution"
  bottom: "conv3_1"
  top: "conv3_2"
  convolution_param {
    num_output: 256
    pad: 1
    kernel_size: 3
    stride: 1
    weight_filler {
      type: "msra"
    }
    bias_filler {
      type: "constant"
    }
    engine: CUDNN
  }
}
layer {
  name: "relu3_2"
  type: "ReLU"
  bottom: "conv3_2"
  top: "conv3_2"
}
layer {
  name: "conv3_3"
  type: "Convolution"
  bottom: "conv3_2"
  top: "conv3_3"
  convolution_param {
    num_output: 256
    pad: 1
    kernel_size: 3
    stride: 1
    weight_filler {
      type: "msra"
    }
    bias_filler {
      type: "constant"
    }
    engine: CUDNN
  }
}
layer {
  name: "relu3_3"
  type: "ReLU"
  bottom: "conv3_3"
  top: "conv3_3"
}
layer {
  name: "conv3_4"
  type: "Convolution"
  bottom: "conv3_3"
  top: "conv3_4"
  convolution_param {
    num_output: 256
    pad: 1
    kernel_size: 3
    stride: 1
    weight_filler {
      type: "msra"
    }
    bias_filler {
      type: "constant"
    }
    engine: CUDNN
  }
}
layer {
  name: "relu3_4"
  type: "ReLU"
  bottom: "conv3_4"
  top: "conv3_4"
}
layer {
  name: "conv3_5"
  type: "Convolution"
  bottom: "conv3_4"
  top: "conv3_5"
  convolution_param {
    num_output: 256
    pad: 1
    kernel_size: 3
    stride: 1
    weight_filler {
      type: "msra"
    }
    bias_filler {
      type: "constant"
    }
    engine: CUDNN
  }
}
layer {
  name: "relu3_5"
  type: "ReLU"
  bottom: "conv3_5"
  top: "conv3_5"
}
layer {
  name: "conv3_6"
  type: "Convolution"
  bottom: "conv3_5"
  top: "conv3_6"
  convolution_param {
    num_output: 256
    pad: 1
    kernel_size: 3
    stride: 1
    weight_filler {
      type: "msra"
    }
    bias_filler {
      type: "constant"
    }
    engine: CUDNN
  }
}
layer {
  name: "relu3_6"
  type: "ReLU"
  bottom: "conv3_6"
  top: "conv3_6"
}
layer {
  name: "conv4_1"
  type: "Convolution"
  bottom: "conv3_6"
  top: "conv4_1"
  convolution_param {
    num_output: 512
    pad: 1
    kernel_size: 3
    stride: 1
    weight_filler {
      type: "msra"
    }
    bias_filler {
      type: "constant"
    }
    engine: CUDNN
  }
}
layer {
  name: "relu4_1"
  type: "ReLU"
  bottom: "conv4_1"
  top: "conv4_1"
}
layer {
  name: "conv4_2"
  type: "Convolution"
  bottom: "conv4_1"
  top: "conv4_2"
  convolution_param {
    num_output: 512
    pad: 1
    kernel_size: 3
    stride: 1
    weight_filler {
      type: "msra"
    }
    bias_filler {
      type: "constant"
    }
    engine: CUDNN
  }
}
layer {
  name: "relu4_2"
  type: "ReLU"
  bottom: "conv4_2"
  top: "conv4_2"
}
layer {
  name: "conv4_3"
  type: "Convolution"
  bottom: "conv4_2"
  top: "conv4_3"
  convolution_param {
    num_output: 512
    pad: 1
    kernel_size: 3
    stride: 1
    weight_filler {
      type: "msra"
    }
    bias_filler {
      type: "constant"
    }
    engine: CUDNN
  }
}
layer {
  name: "relu4_3"
  type: "ReLU"
  bottom: "conv4_3"
  top: "conv4_3"
}
layer {
  name: "tpp5"
  type: "TPP"
  bottom: "conv4_3"
  top: "tpp5"
  tpp_param {
    pyramid_layer: 1
    pyramid_layer: 2
    pyramid_layer: 3
    pyramid_layer: 4
    pyramid_layer: 5
    pool: MAX
    engine: CUDNN
  }
}
layer {
  name: "reshape"
  type: "Reshape"
  bottom: "tpp5"
  top: "reshape"
  reshape_param {
    shape {
      dim: 1
      dim: 1920
      dim: 4
      dim: 1
    }
  }
}
layer {
  name: "premax"
  type: "Scale"
  bottom: "reshape"
  top: "premax"
  param {
    lr_mult: 0
    decay_mult: 0
  }
  scale_param {
    num_axes: 3
    filler {
      value: 1
    }
    bias_term: false
    bias_filler {
      value: 0
    }
  }
}
layer {
  name: "maxout"
  type: "Pooling"
  bottom: "premax"
  top: "maxout"
  pooling_param {
    pool: MAX
    global_pooling: true
  }
}
layer {
  name: "fc6"
  type: "InnerProduct"
  bottom: "maxout"
  top: "fc6"
  inner_product_param {
    num_output: 4096
    weight_filler {
      type: "msra"
    }
    bias_filler {
      type: "constant"
    }
  }
}
layer {
  name: "relu6"
  type: "ReLU"
  bottom: "fc6"
  top: "fc6"
}
layer {
  name: "fc7"
  type: "InnerProduct"
  bottom: "fc6"
  top: "fc7"
  inner_product_param {
    num_output: 4096
    weight_filler {
      type: "msra"
    }
    bias_filler {
      type: "constant"
    }
  }
}
layer {
  name: "relu7"
  type: "ReLU"
  bottom: "fc7"
  top: "fc7"
}
layer {
  name: "fc8"
  type: "InnerProduct"
  bottom: "fc7"
  top: "fc8"
  inner_product_param {
    num_output: 604
    weight_filler {
      type: "msra"
    }
    bias_filler {
      type: "constant"
    }
  }
}
layer {
  name: "sigmoid"
  type: "Sigmoid"
  bottom: "fc8"
  top: "sigmoid"
  include {
    phase: TEST
  }
}
layer {
  name: "silence"
  type: "Silence"
  bottom: "sigmoid"
  include {
    phase: TEST
  }
}
layer {
  name: "loss"
  type: "SigmoidCrossEntropyLoss"
  bottom: "fc8"
  bottom: "phocs"
  top: "loss"
}
I1222 11:44:58.338917 24349 layer_factory.hpp:77] Creating layer word_images
I1222 11:44:58.338991 24349 db_lmdb.cpp:35] Opened lmdb /data/fwolf/min26/gw_cv1_nti500000_pul2-3-4-5_test_word_images_lmdb
I1222 11:44:58.339005 24349 net.cpp:84] Creating Layer word_images
I1222 11:44:58.339010 24349 net.cpp:380] word_images -> word_images
I1222 11:44:58.339016 24349 net.cpp:380] word_images -> label
I1222 11:44:58.339421 24349 data_layer.cpp:44] output data size: 1,1,66,139
I1222 11:44:58.361412 24349 net.cpp:122] Setting up word_images
I1222 11:44:58.361449 24349 net.cpp:129] Top shape: 1 1 66 139 (9174)
I1222 11:44:58.361456 24349 net.cpp:129] Top shape: 1 (1)
I1222 11:44:58.361465 24349 net.cpp:137] Memory required for data: 36700
I1222 11:44:58.361474 24349 layer_factory.hpp:77] Creating layer phocs
I1222 11:44:58.361558 24349 db_lmdb.cpp:35] Opened lmdb /data/fwolf/min26/gw_cv1_nti500000_pul2-3-4-5_test_phocs_lmdb
I1222 11:44:58.361577 24349 net.cpp:84] Creating Layer phocs
I1222 11:44:58.361583 24349 net.cpp:380] phocs -> phocs
I1222 11:44:58.361596 24349 net.cpp:380] phocs -> label_phocs
I1222 11:44:58.362187 24349 data_layer.cpp:44] output data size: 1,1,1,604
I1222 11:44:58.376538 24349 net.cpp:122] Setting up phocs
I1222 11:44:58.376570 24349 net.cpp:129] Top shape: 1 1 1 604 (604)
I1222 11:44:58.376575 24349 net.cpp:129] Top shape: 1 (1)
I1222 11:44:58.376580 24349 net.cpp:137] Memory required for data: 39120
I1222 11:44:58.376586 24349 layer_factory.hpp:77] Creating layer conv1_1
I1222 11:44:58.376605 24349 net.cpp:84] Creating Layer conv1_1
I1222 11:44:58.376610 24349 net.cpp:406] conv1_1 <- word_images
I1222 11:44:58.376619 24349 net.cpp:380] conv1_1 -> conv1_1
I1222 11:44:58.379078 24349 net.cpp:122] Setting up conv1_1
I1222 11:44:58.379094 24349 net.cpp:129] Top shape: 1 64 66 139 (587136)
I1222 11:44:58.379098 24349 net.cpp:137] Memory required for data: 2387664
I1222 11:44:58.379112 24349 layer_factory.hpp:77] Creating layer relu1_1
I1222 11:44:58.379120 24349 net.cpp:84] Creating Layer relu1_1
I1222 11:44:58.379124 24349 net.cpp:406] relu1_1 <- conv1_1
I1222 11:44:58.379132 24349 net.cpp:367] relu1_1 -> conv1_1 (in-place)
I1222 11:44:58.379689 24349 net.cpp:122] Setting up relu1_1
I1222 11:44:58.379703 24349 net.cpp:129] Top shape: 1 64 66 139 (587136)
I1222 11:44:58.379706 24349 net.cpp:137] Memory required for data: 4736208
I1222 11:44:58.379711 24349 layer_factory.hpp:77] Creating layer conv1_2
I1222 11:44:58.379725 24349 net.cpp:84] Creating Layer conv1_2
I1222 11:44:58.379730 24349 net.cpp:406] conv1_2 <- conv1_1
I1222 11:44:58.379739 24349 net.cpp:380] conv1_2 -> conv1_2
I1222 11:44:58.383405 24349 net.cpp:122] Setting up conv1_2
I1222 11:44:58.383419 24349 net.cpp:129] Top shape: 1 64 66 139 (587136)
I1222 11:44:58.383424 24349 net.cpp:137] Memory required for data: 7084752
I1222 11:44:58.383433 24349 layer_factory.hpp:77] Creating layer relu1_2
I1222 11:44:58.383443 24349 net.cpp:84] Creating Layer relu1_2
I1222 11:44:58.383448 24349 net.cpp:406] relu1_2 <- conv1_2
I1222 11:44:58.383455 24349 net.cpp:367] relu1_2 -> conv1_2 (in-place)
I1222 11:44:58.383757 24349 net.cpp:122] Setting up relu1_2
I1222 11:44:58.383769 24349 net.cpp:129] Top shape: 1 64 66 139 (587136)
I1222 11:44:58.383772 24349 net.cpp:137] Memory required for data: 9433296
I1222 11:44:58.383777 24349 layer_factory.hpp:77] Creating layer pool1
I1222 11:44:58.383785 24349 net.cpp:84] Creating Layer pool1
I1222 11:44:58.383790 24349 net.cpp:406] pool1 <- conv1_2
I1222 11:44:58.383796 24349 net.cpp:380] pool1 -> pool1
I1222 11:44:58.383899 24349 net.cpp:122] Setting up pool1
I1222 11:44:58.383908 24349 net.cpp:129] Top shape: 1 64 33 70 (147840)
I1222 11:44:58.383911 24349 net.cpp:137] Memory required for data: 10024656
I1222 11:44:58.383916 24349 layer_factory.hpp:77] Creating layer conv2_1
I1222 11:44:58.383929 24349 net.cpp:84] Creating Layer conv2_1
I1222 11:44:58.383934 24349 net.cpp:406] conv2_1 <- pool1
I1222 11:44:58.383941 24349 net.cpp:380] conv2_1 -> conv2_1
I1222 11:44:58.389191 24349 net.cpp:122] Setting up conv2_1
I1222 11:44:58.389206 24349 net.cpp:129] Top shape: 1 128 33 70 (295680)
I1222 11:44:58.389210 24349 net.cpp:137] Memory required for data: 11207376
I1222 11:44:58.389221 24349 layer_factory.hpp:77] Creating layer relu2_1
I1222 11:44:58.389230 24349 net.cpp:84] Creating Layer relu2_1
I1222 11:44:58.389233 24349 net.cpp:406] relu2_1 <- conv2_1
I1222 11:44:58.389240 24349 net.cpp:367] relu2_1 -> conv2_1 (in-place)
I1222 11:44:58.389665 24349 net.cpp:122] Setting up relu2_1
I1222 11:44:58.389678 24349 net.cpp:129] Top shape: 1 128 33 70 (295680)
I1222 11:44:58.389683 24349 net.cpp:137] Memory required for data: 12390096
I1222 11:44:58.389686 24349 layer_factory.hpp:77] Creating layer conv2_2
I1222 11:44:58.389703 24349 net.cpp:84] Creating Layer conv2_2
I1222 11:44:58.389708 24349 net.cpp:406] conv2_2 <- conv2_1
I1222 11:44:58.389714 24349 net.cpp:380] conv2_2 -> conv2_2
I1222 11:44:58.396812 24349 net.cpp:122] Setting up conv2_2
I1222 11:44:58.396831 24349 net.cpp:129] Top shape: 1 128 33 70 (295680)
I1222 11:44:58.396836 24349 net.cpp:137] Memory required for data: 13572816
I1222 11:44:58.396844 24349 layer_factory.hpp:77] Creating layer relu2_2
I1222 11:44:58.396852 24349 net.cpp:84] Creating Layer relu2_2
I1222 11:44:58.396857 24349 net.cpp:406] relu2_2 <- conv2_2
I1222 11:44:58.396862 24349 net.cpp:367] relu2_2 -> conv2_2 (in-place)
I1222 11:44:58.397100 24349 net.cpp:122] Setting up relu2_2
I1222 11:44:58.397110 24349 net.cpp:129] Top shape: 1 128 33 70 (295680)
I1222 11:44:58.397114 24349 net.cpp:137] Memory required for data: 14755536
I1222 11:44:58.397119 24349 layer_factory.hpp:77] Creating layer pool2
I1222 11:44:58.397125 24349 net.cpp:84] Creating Layer pool2
I1222 11:44:58.397128 24349 net.cpp:406] pool2 <- conv2_2
I1222 11:44:58.397136 24349 net.cpp:380] pool2 -> pool2
I1222 11:44:58.397222 24349 net.cpp:122] Setting up pool2
I1222 11:44:58.397229 24349 net.cpp:129] Top shape: 1 128 17 35 (76160)
I1222 11:44:58.397233 24349 net.cpp:137] Memory required for data: 15060176
I1222 11:44:58.397236 24349 layer_factory.hpp:77] Creating layer conv3_1
I1222 11:44:58.397249 24349 net.cpp:84] Creating Layer conv3_1
I1222 11:44:58.397253 24349 net.cpp:406] conv3_1 <- pool2
I1222 11:44:58.397259 24349 net.cpp:380] conv3_1 -> conv3_1
I1222 11:44:58.410341 24349 net.cpp:122] Setting up conv3_1
I1222 11:44:58.410356 24349 net.cpp:129] Top shape: 1 256 17 35 (152320)
I1222 11:44:58.410360 24349 net.cpp:137] Memory required for data: 15669456
I1222 11:44:58.410370 24349 layer_factory.hpp:77] Creating layer relu3_1
I1222 11:44:58.410378 24349 net.cpp:84] Creating Layer relu3_1
I1222 11:44:58.410382 24349 net.cpp:406] relu3_1 <- conv3_1
I1222 11:44:58.410389 24349 net.cpp:367] relu3_1 -> conv3_1 (in-place)
I1222 11:44:58.410810 24349 net.cpp:122] Setting up relu3_1
I1222 11:44:58.410822 24349 net.cpp:129] Top shape: 1 256 17 35 (152320)
I1222 11:44:58.410827 24349 net.cpp:137] Memory required for data: 16278736
I1222 11:44:58.410831 24349 layer_factory.hpp:77] Creating layer conv3_2
I1222 11:44:58.410842 24349 net.cpp:84] Creating Layer conv3_2
I1222 11:44:58.410847 24349 net.cpp:406] conv3_2 <- conv3_1
I1222 11:44:58.410856 24349 net.cpp:380] conv3_2 -> conv3_2
I1222 11:44:58.436563 24349 net.cpp:122] Setting up conv3_2
I1222 11:44:58.436588 24349 net.cpp:129] Top shape: 1 256 17 35 (152320)
I1222 11:44:58.436590 24349 net.cpp:137] Memory required for data: 16888016
I1222 11:44:58.436599 24349 layer_factory.hpp:77] Creating layer relu3_2
I1222 11:44:58.436609 24349 net.cpp:84] Creating Layer relu3_2
I1222 11:44:58.436612 24349 net.cpp:406] relu3_2 <- conv3_2
I1222 11:44:58.436617 24349 net.cpp:367] relu3_2 -> conv3_2 (in-place)
I1222 11:44:58.437152 24349 net.cpp:122] Setting up relu3_2
I1222 11:44:58.437161 24349 net.cpp:129] Top shape: 1 256 17 35 (152320)
I1222 11:44:58.437165 24349 net.cpp:137] Memory required for data: 17497296
I1222 11:44:58.437167 24349 layer_factory.hpp:77] Creating layer conv3_3
I1222 11:44:58.437178 24349 net.cpp:84] Creating Layer conv3_3
I1222 11:44:58.437182 24349 net.cpp:406] conv3_3 <- conv3_2
I1222 11:44:58.437187 24349 net.cpp:380] conv3_3 -> conv3_3
I1222 11:44:58.455370 24349 net.cpp:122] Setting up conv3_3
I1222 11:44:58.455395 24349 net.cpp:129] Top shape: 1 256 17 35 (152320)
I1222 11:44:58.455399 24349 net.cpp:137] Memory required for data: 18106576
I1222 11:44:58.455407 24349 layer_factory.hpp:77] Creating layer relu3_3
I1222 11:44:58.455415 24349 net.cpp:84] Creating Layer relu3_3
I1222 11:44:58.455420 24349 net.cpp:406] relu3_3 <- conv3_3
I1222 11:44:58.455425 24349 net.cpp:367] relu3_3 -> conv3_3 (in-place)
I1222 11:44:58.456616 24349 net.cpp:122] Setting up relu3_3
I1222 11:44:58.456625 24349 net.cpp:129] Top shape: 1 256 17 35 (152320)
I1222 11:44:58.456632 24349 net.cpp:137] Memory required for data: 18715856
I1222 11:44:58.456635 24349 layer_factory.hpp:77] Creating layer conv3_4
I1222 11:44:58.456645 24349 net.cpp:84] Creating Layer conv3_4
I1222 11:44:58.456648 24349 net.cpp:406] conv3_4 <- conv3_3
I1222 11:44:58.456653 24349 net.cpp:380] conv3_4 -> conv3_4
I1222 11:44:58.474895 24349 net.cpp:122] Setting up conv3_4
I1222 11:44:58.474922 24349 net.cpp:129] Top shape: 1 256 17 35 (152320)
I1222 11:44:58.474925 24349 net.cpp:137] Memory required for data: 19325136
I1222 11:44:58.474936 24349 layer_factory.hpp:77] Creating layer relu3_4
I1222 11:44:58.474946 24349 net.cpp:84] Creating Layer relu3_4
I1222 11:44:58.474951 24349 net.cpp:406] relu3_4 <- conv3_4
I1222 11:44:58.474956 24349 net.cpp:367] relu3_4 -> conv3_4 (in-place)
I1222 11:44:58.475736 24349 net.cpp:122] Setting up relu3_4
I1222 11:44:58.475750 24349 net.cpp:129] Top shape: 1 256 17 35 (152320)
I1222 11:44:58.475754 24349 net.cpp:137] Memory required for data: 19934416
I1222 11:44:58.475757 24349 layer_factory.hpp:77] Creating layer conv3_5
I1222 11:44:58.475766 24349 net.cpp:84] Creating Layer conv3_5
I1222 11:44:58.475769 24349 net.cpp:406] conv3_5 <- conv3_4
I1222 11:44:58.475775 24349 net.cpp:380] conv3_5 -> conv3_5
I1222 11:44:58.500687 24349 net.cpp:122] Setting up conv3_5
I1222 11:44:58.500718 24349 net.cpp:129] Top shape: 1 256 17 35 (152320)
I1222 11:44:58.500723 24349 net.cpp:137] Memory required for data: 20543696
I1222 11:44:58.500739 24349 layer_factory.hpp:77] Creating layer relu3_5
I1222 11:44:58.500751 24349 net.cpp:84] Creating Layer relu3_5
I1222 11:44:58.500757 24349 net.cpp:406] relu3_5 <- conv3_5
I1222 11:44:58.500767 24349 net.cpp:367] relu3_5 -> conv3_5 (in-place)
I1222 11:44:58.501380 24349 net.cpp:122] Setting up relu3_5
I1222 11:44:58.501390 24349 net.cpp:129] Top shape: 1 256 17 35 (152320)
I1222 11:44:58.501394 24349 net.cpp:137] Memory required for data: 21152976
I1222 11:44:58.501399 24349 layer_factory.hpp:77] Creating layer conv3_6
I1222 11:44:58.501411 24349 net.cpp:84] Creating Layer conv3_6
I1222 11:44:58.501416 24349 net.cpp:406] conv3_6 <- conv3_5
I1222 11:44:58.501425 24349 net.cpp:380] conv3_6 -> conv3_6
I1222 11:44:58.525576 24349 net.cpp:122] Setting up conv3_6
I1222 11:44:58.525594 24349 net.cpp:129] Top shape: 1 256 17 35 (152320)
I1222 11:44:58.525599 24349 net.cpp:137] Memory required for data: 21762256
I1222 11:44:58.525609 24349 layer_factory.hpp:77] Creating layer relu3_6
I1222 11:44:58.525619 24349 net.cpp:84] Creating Layer relu3_6
I1222 11:44:58.525624 24349 net.cpp:406] relu3_6 <- conv3_6
I1222 11:44:58.525632 24349 net.cpp:367] relu3_6 -> conv3_6 (in-place)
I1222 11:44:58.526059 24349 net.cpp:122] Setting up relu3_6
I1222 11:44:58.526072 24349 net.cpp:129] Top shape: 1 256 17 35 (152320)
I1222 11:44:58.526075 24349 net.cpp:137] Memory required for data: 22371536
I1222 11:44:58.526079 24349 layer_factory.hpp:77] Creating layer conv4_1
I1222 11:44:58.526093 24349 net.cpp:84] Creating Layer conv4_1
I1222 11:44:58.526098 24349 net.cpp:406] conv4_1 <- conv3_6
I1222 11:44:58.526105 24349 net.cpp:380] conv4_1 -> conv4_1
I1222 11:44:58.569453 24349 net.cpp:122] Setting up conv4_1
I1222 11:44:58.569479 24349 net.cpp:129] Top shape: 1 512 17 35 (304640)
I1222 11:44:58.569483 24349 net.cpp:137] Memory required for data: 23590096
I1222 11:44:58.569490 24349 layer_factory.hpp:77] Creating layer relu4_1
I1222 11:44:58.569499 24349 net.cpp:84] Creating Layer relu4_1
I1222 11:44:58.569502 24349 net.cpp:406] relu4_1 <- conv4_1
I1222 11:44:58.569507 24349 net.cpp:367] relu4_1 -> conv4_1 (in-place)
I1222 11:44:58.570433 24349 net.cpp:122] Setting up relu4_1
I1222 11:44:58.570442 24349 net.cpp:129] Top shape: 1 512 17 35 (304640)
I1222 11:44:58.570446 24349 net.cpp:137] Memory required for data: 24808656
I1222 11:44:58.570448 24349 layer_factory.hpp:77] Creating layer conv4_2
I1222 11:44:58.570458 24349 net.cpp:84] Creating Layer conv4_2
I1222 11:44:58.570461 24349 net.cpp:406] conv4_2 <- conv4_1
I1222 11:44:58.570466 24349 net.cpp:380] conv4_2 -> conv4_2
I1222 11:44:58.650118 24349 net.cpp:122] Setting up conv4_2
I1222 11:44:58.650153 24349 net.cpp:129] Top shape: 1 512 17 35 (304640)
I1222 11:44:58.650158 24349 net.cpp:137] Memory required for data: 26027216
I1222 11:44:58.650169 24349 layer_factory.hpp:77] Creating layer relu4_2
I1222 11:44:58.650182 24349 net.cpp:84] Creating Layer relu4_2
I1222 11:44:58.650187 24349 net.cpp:406] relu4_2 <- conv4_2
I1222 11:44:58.650197 24349 net.cpp:367] relu4_2 -> conv4_2 (in-place)
I1222 11:44:58.650804 24349 net.cpp:122] Setting up relu4_2
I1222 11:44:58.650813 24349 net.cpp:129] Top shape: 1 512 17 35 (304640)
I1222 11:44:58.650818 24349 net.cpp:137] Memory required for data: 27245776
I1222 11:44:58.650822 24349 layer_factory.hpp:77] Creating layer conv4_3
I1222 11:44:58.650835 24349 net.cpp:84] Creating Layer conv4_3
I1222 11:44:58.650840 24349 net.cpp:406] conv4_3 <- conv4_2
I1222 11:44:58.650848 24349 net.cpp:380] conv4_3 -> conv4_3
I1222 11:44:58.730420 24349 net.cpp:122] Setting up conv4_3
I1222 11:44:58.730454 24349 net.cpp:129] Top shape: 1 512 17 35 (304640)
I1222 11:44:58.730459 24349 net.cpp:137] Memory required for data: 28464336
I1222 11:44:58.730469 24349 layer_factory.hpp:77] Creating layer relu4_3
I1222 11:44:58.730479 24349 net.cpp:84] Creating Layer relu4_3
I1222 11:44:58.730484 24349 net.cpp:406] relu4_3 <- conv4_3
I1222 11:44:58.730494 24349 net.cpp:367] relu4_3 -> conv4_3 (in-place)
I1222 11:44:58.730944 24349 net.cpp:122] Setting up relu4_3
I1222 11:44:58.730957 24349 net.cpp:129] Top shape: 1 512 17 35 (304640)
I1222 11:44:58.730960 24349 net.cpp:137] Memory required for data: 29682896
I1222 11:44:58.730965 24349 layer_factory.hpp:77] Creating layer tpp5
I1222 11:44:58.730974 24349 net.cpp:84] Creating Layer tpp5
I1222 11:44:58.730978 24349 net.cpp:406] tpp5 <- conv4_3
I1222 11:44:58.730985 24349 net.cpp:380] tpp5 -> tpp5
I1222 11:44:58.732013 24349 net.cpp:122] Setting up tpp5
I1222 11:44:58.732023 24349 net.cpp:129] Top shape: 1 7680 (7680)
I1222 11:44:58.732028 24349 net.cpp:137] Memory required for data: 29713616
I1222 11:44:58.732033 24349 layer_factory.hpp:77] Creating layer reshape
I1222 11:44:58.732041 24349 net.cpp:84] Creating Layer reshape
I1222 11:44:58.732045 24349 net.cpp:406] reshape <- tpp5
I1222 11:44:58.732053 24349 net.cpp:380] reshape -> reshape
I1222 11:44:58.732107 24349 net.cpp:122] Setting up reshape
I1222 11:44:58.732115 24349 net.cpp:129] Top shape: 1 1920 4 1 (7680)
I1222 11:44:58.732118 24349 net.cpp:137] Memory required for data: 29744336
I1222 11:44:58.732122 24349 layer_factory.hpp:77] Creating layer premax
I1222 11:44:58.732134 24349 net.cpp:84] Creating Layer premax
I1222 11:44:58.732139 24349 net.cpp:406] premax <- reshape
I1222 11:44:58.732151 24349 net.cpp:380] premax -> premax
I1222 11:44:58.732384 24349 net.cpp:122] Setting up premax
I1222 11:44:58.732393 24349 net.cpp:129] Top shape: 1 1920 4 1 (7680)
I1222 11:44:58.732398 24349 net.cpp:137] Memory required for data: 29775056
I1222 11:44:58.732403 24349 layer_factory.hpp:77] Creating layer maxout
I1222 11:44:58.732411 24349 net.cpp:84] Creating Layer maxout
I1222 11:44:58.732416 24349 net.cpp:406] maxout <- premax
I1222 11:44:58.732421 24349 net.cpp:380] maxout -> maxout
I1222 11:44:58.732499 24349 net.cpp:122] Setting up maxout
I1222 11:44:58.732506 24349 net.cpp:129] Top shape: 1 1920 1 1 (1920)
I1222 11:44:58.732511 24349 net.cpp:137] Memory required for data: 29782736
I1222 11:44:58.732514 24349 layer_factory.hpp:77] Creating layer fc6
I1222 11:44:58.732523 24349 net.cpp:84] Creating Layer fc6
I1222 11:44:58.732527 24349 net.cpp:406] fc6 <- maxout
I1222 11:44:58.732533 24349 net.cpp:380] fc6 -> fc6
I1222 11:44:58.982043 24349 net.cpp:122] Setting up fc6
I1222 11:44:58.982076 24349 net.cpp:129] Top shape: 1 4096 (4096)
I1222 11:44:58.982080 24349 net.cpp:137] Memory required for data: 29799120
I1222 11:44:58.982091 24349 layer_factory.hpp:77] Creating layer relu6
I1222 11:44:58.982103 24349 net.cpp:84] Creating Layer relu6
I1222 11:44:58.982110 24349 net.cpp:406] relu6 <- fc6
I1222 11:44:58.982116 24349 net.cpp:367] relu6 -> fc6 (in-place)
I1222 11:44:58.982419 24349 net.cpp:122] Setting up relu6
I1222 11:44:58.982429 24349 net.cpp:129] Top shape: 1 4096 (4096)
I1222 11:44:58.982434 24349 net.cpp:137] Memory required for data: 29815504
I1222 11:44:58.982437 24349 layer_factory.hpp:77] Creating layer fc7
I1222 11:44:58.982446 24349 net.cpp:84] Creating Layer fc7
I1222 11:44:58.982450 24349 net.cpp:406] fc7 <- fc6
I1222 11:44:58.982465 24349 net.cpp:380] fc7 -> fc7
I1222 11:44:59.489369 24349 net.cpp:122] Setting up fc7
I1222 11:44:59.489403 24349 net.cpp:129] Top shape: 1 4096 (4096)
I1222 11:44:59.489405 24349 net.cpp:137] Memory required for data: 29831888
I1222 11:44:59.489414 24349 layer_factory.hpp:77] Creating layer relu7
I1222 11:44:59.489424 24349 net.cpp:84] Creating Layer relu7
I1222 11:44:59.489428 24349 net.cpp:406] relu7 <- fc7
I1222 11:44:59.489434 24349 net.cpp:367] relu7 -> fc7 (in-place)
I1222 11:44:59.489960 24349 net.cpp:122] Setting up relu7
I1222 11:44:59.489971 24349 net.cpp:129] Top shape: 1 4096 (4096)
I1222 11:44:59.489974 24349 net.cpp:137] Memory required for data: 29848272
I1222 11:44:59.489976 24349 layer_factory.hpp:77] Creating layer fc8
I1222 11:44:59.489984 24349 net.cpp:84] Creating Layer fc8
I1222 11:44:59.489989 24349 net.cpp:406] fc8 <- fc7
I1222 11:44:59.489992 24349 net.cpp:380] fc8 -> fc8
I1222 11:44:59.578794 24349 net.cpp:122] Setting up fc8
I1222 11:44:59.578826 24349 net.cpp:129] Top shape: 1 604 (604)
I1222 11:44:59.578831 24349 net.cpp:137] Memory required for data: 29850688
I1222 11:44:59.578845 24349 layer_factory.hpp:77] Creating layer fc8_fc8_0_split
I1222 11:44:59.578860 24349 net.cpp:84] Creating Layer fc8_fc8_0_split
I1222 11:44:59.578866 24349 net.cpp:406] fc8_fc8_0_split <- fc8
I1222 11:44:59.578873 24349 net.cpp:380] fc8_fc8_0_split -> fc8_fc8_0_split_0
I1222 11:44:59.578883 24349 net.cpp:380] fc8_fc8_0_split -> fc8_fc8_0_split_1
I1222 11:44:59.578965 24349 net.cpp:122] Setting up fc8_fc8_0_split
I1222 11:44:59.578974 24349 net.cpp:129] Top shape: 1 604 (604)
I1222 11:44:59.578979 24349 net.cpp:129] Top shape: 1 604 (604)
I1222 11:44:59.578982 24349 net.cpp:137] Memory required for data: 29855520
I1222 11:44:59.578985 24349 layer_factory.hpp:77] Creating layer sigmoid
I1222 11:44:59.578994 24349 net.cpp:84] Creating Layer sigmoid
I1222 11:44:59.578999 24349 net.cpp:406] sigmoid <- fc8_fc8_0_split_0
I1222 11:44:59.579005 24349 net.cpp:380] sigmoid -> sigmoid
I1222 11:44:59.579839 24349 net.cpp:122] Setting up sigmoid
I1222 11:44:59.579851 24349 net.cpp:129] Top shape: 1 604 (604)
I1222 11:44:59.579856 24349 net.cpp:137] Memory required for data: 29857936
I1222 11:44:59.579860 24349 layer_factory.hpp:77] Creating layer silence
I1222 11:44:59.579867 24349 net.cpp:84] Creating Layer silence
I1222 11:44:59.579872 24349 net.cpp:406] silence <- sigmoid
I1222 11:44:59.579877 24349 net.cpp:122] Setting up silence
I1222 11:44:59.579880 24349 net.cpp:137] Memory required for data: 29857936
…
