…
state {
  phase: TRAIN
}
layer {
  name: "word_images"
  type: "Data"
  top: "word_images"
  top: "label"
  transform_param {
    scale: -0.0039215689
    mean_value: 255
  }
  data_param {
    source: "/data/fwolf/min26/gw_cv1_nti500000_pul2-3-4-5_train_word_images_lmdb"
    batch_size: 1
    backend: LMDB
    prefetch: 20
  }
}
layer {
  name: "phocs"
  type: "Data"
  top: "phocs"
  top: "label_phocs"
  data_param {
    source: "/data/fwolf/min26/gw_cv1_nti500000_pul2-3-4-5_train_phocs_lmdb"
    batch_size: 1
    backend: LMDB
    prefetch: 20
  }
}
layer {
  name: "conv1_1"
  type: "Convolution"
  bottom: "word_images"
  top: "conv1_1"
  convolution_param {
    num_output: 64
    pad: 1
    kernel_size: 3
    stride: 1
    weight_filler {
      type: "msra"
    }
    bias_filler {
      type: "constant"
    }
    engine: CUDNN
  }
}
layer {
  name: "relu1_1"
  type: "ReLU"
  bottom: "conv1_1"
  top: "conv1_1"
}
layer {
  name: "conv1_2"
  type: "Convolution"
  bottom: "conv1_1"
  top: "conv1_2"
  convolution_param {
    num_output: 64
    pad: 1
    kernel_size: 3
    stride: 1
    weight_filler {
      type: "msra"
    }
    bias_filler {
      type: "constant"
    }
    engine: CUDNN
  }
}
layer {
  name: "relu1_2"
  type: "ReLU"
  bottom: "conv1_2"
  top: "conv1_2"
}
layer {
  name: "pool1"
  type: "Pooling"
  bottom: "conv1_2"
  top: "pool1"
  pooling_param {
    pool: MAX
    kernel_size: 2
    stride: 2
  }
}
layer {
  name: "conv2_1"
  type: "Convolution"
  bottom: "pool1"
  top: "conv2_1"
  convolution_param {
    num_output: 128
    pad: 1
    kernel_size: 3
    stride: 1
    weight_filler {
      type: "msra"
    }
    bias_filler {
      type: "constant"
    }
    engine: CUDNN
  }
}
layer {
  name: "relu2_1"
  type: "ReLU"
  bottom: "conv2_1"
  top: "conv2_1"
}
layer {
  name: "conv2_2"
  type: "Convolution"
  bottom: "conv2_1"
  top: "conv2_2"
  convolution_param {
    num_output: 128
    pad: 1
    kernel_size: 3
    stride: 1
    weight_filler {
      type: "msra"
    }
    bias_filler {
      type: "constant"
    }
    engine: CUDNN
  }
}
layer {
  name: "relu2_2"
  type: "ReLU"
  bottom: "conv2_2"
  top: "conv2_2"
}
layer {
  name: "pool2"
  type: "Pooling"
  bottom: "conv2_2"
  top: "pool2"
  pooling_param {
    pool: MAX
    kernel_size: 2
    stride: 2
  }
}
layer {
  name: "conv3_1"
  type: "Convolution"
  bottom: "pool2"
  top: "conv3_1"
  convolution_param {
    num_output: 256
    pad: 1
    kernel_size: 3
    stride: 1
    weight_filler {
      type: "msra"
    }
    bias_filler {
      type: "constant"
    }
    engine: CUDNN
  }
}
layer {
  name: "relu3_1"
  type: "ReLU"
  bottom: "conv3_1"
  top: "conv3_1"
}
layer {
  name: "conv3_2"
  type: "Convolution"
  bottom: "conv3_1"
  top: "conv3_2"
  convolution_param {
    num_output: 256
    pad: 1
    kernel_size: 3
    stride: 1
    weight_filler {
      type: "msra"
    }
    bias_filler {
      type: "constant"
    }
    engine: CUDNN
  }
}
layer {
  name: "relu3_2"
  type: "ReLU"
  bottom: "conv3_2"
  top: "conv3_2"
}
layer {
  name: "conv3_3"
  type: "Convolution"
  bottom: "conv3_2"
  top: "conv3_3"
  convolution_param {
    num_output: 256
    pad: 1
    kernel_size: 3
    stride: 1
    weight_filler {
      type: "msra"
    }
    bias_filler {
      type: "constant"
    }
    engine: CUDNN
  }
}
layer {
  name: "relu3_3"
  type: "ReLU"
  bottom: "conv3_3"
  top: "conv3_3"
}
layer {
  name: "conv3_4"
  type: "Convolution"
  bottom: "conv3_3"
  top: "conv3_4"
  convolution_param {
    num_output: 256
    pad: 1
    kernel_size: 3
    stride: 1
    weight_filler {
      type: "msra"
    }
    bias_filler {
      type: "constant"
    }
    engine: CUDNN
  }
}
layer {
  name: "relu3_4"
  type: "ReLU"
  bottom: "conv3_4"
  top: "conv3_4"
}
layer {
  name: "conv3_5"
  type: "Convolution"
  bottom: "conv3_4"
  top: "conv3_5"
  convolution_param {
    num_output: 256
    pad: 1
    kernel_size: 3
    stride: 1
    weight_filler {
      type: "msra"
    }
    bias_filler {
      type: "constant"
    }
    engine: CUDNN
  }
}
layer {
  name: "relu3_5"
  type: "ReLU"
  bottom: "conv3_5"
  top: "conv3_5"
}
layer {
  name: "conv3_6"
  type: "Convolution"
  bottom: "conv3_5"
  top: "conv3_6"
  convolution_param {
    num_output: 256
    pad: 1
    kernel_size: 3
    stride: 1
    weight_filler {
      type: "msra"
    }
    bias_filler {
      type: "constant"
    }
    engine: CUDNN
  }
}
layer {
  name: "relu3_6"
  type: "ReLU"
  bottom: "conv3_6"
  top: "conv3_6"
}
layer {
  name: "conv4_1"
  type: "Convolution"
  bottom: "conv3_6"
  top: "conv4_1"
  convolution_param {
    num_output: 512
    pad: 1
    kernel_size: 3
    stride: 1
    weight_filler {
      type: "msra"
    }
    bias_filler {
      type: "constant"
    }
    engine: CUDNN
  }
}
layer {
  name: "relu4_1"
  type: "ReLU"
  bottom: "conv4_1"
  top: "conv4_1"
}
layer {
  name: "conv4_2"
  type: "Convolution"
  bottom: "conv4_1"
  top: "conv4_2"
  convolution_param {
    num_output: 512
    pad: 1
    kernel_size: 3
    stride: 1
    weight_filler {
      type: "msra"
    }
    bias_filler {
      type: "constant"
    }
    engine: CUDNN
  }
}
layer {
  name: "relu4_2"
  type: "ReLU"
  bottom: "conv4_2"
  top: "conv4_2"
}
layer {
  name: "conv4_3"
  type: "Convolution"
  bottom: "conv4_2"
  top: "conv4_3"
  convolution_param {
    num_output: 512
    pad: 1
    kernel_size: 3
    stride: 1
    weight_filler {
      type: "msra"
    }
    bias_filler {
      type: "constant"
    }
    engine: CUDNN
  }
}
layer {
  name: "relu4_3"
  type: "ReLU"
  bottom: "conv4_3"
  top: "conv4_3"
}
layer {
  name: "tpp5"
  type: "TPP"
  bottom: "conv4_3"
  top: "tpp5"
  tpp_param {
    pyramid_layer: 1
    pyramid_layer: 2
    pyramid_layer: 3
    pyramid_layer: 4
    pyramid_layer: 5
    pool: MAX
    engine: CUDNN
  }
}
layer {
  name: "reshape"
  type: "Reshape"
  bottom: "tpp5"
  top: "reshape"
  reshape_param {
    shape {
      dim: 1
      dim: 3840
      dim: 2
      dim: 1
    }
  }
}
layer {
  name: "premax"
  type: "Scale"
  bottom: "reshape"
  top: "premax"
  param {
    lr_mult: 0
    decay_mult: 0
  }
  scale_param {
    num_axes: 3
    filler {
      value: 1
    }
    bias_term: false
    bias_filler {
      value: 0
    }
  }
}
layer {
  name: "maxout"
  type: "Pooling"
  bottom: "premax"
  top: "maxout"
  pooling_param {
    pool: MAX
    global_pooling: true
  }
}
layer {
  name: "fc6"
  type: "InnerProduct"
  bottom: "maxout"
  top: "fc6"
  inner_product_param {
    num_output: 4096
    weight_filler {
      type: "msra"
    }
    bias_filler {
      type: "constant"
    }
  }
}
layer {
  name: "relu6"
  type: "ReLU"
  bottom: "fc6"
  top: "fc6"
}
layer {
  name: "drop6"
  type: "Dropout"
  bottom: "fc6"
  top: "fc6"
  include {
    phase: TRAIN
  }
  dropout_param {
    dropout_ratio: 0.5
  }
}
layer {
  name: "fc7"
  type: "InnerProduct"
  bottom: "fc6"
  top: "fc7"
  inner_product_param {
    num_output: 4096
    weight_filler {
      type: "msra"
    }
    bias_filler {
      type: "constant"
    }
  }
}
layer {
  name: "relu7"
  type: "ReLU"
  bottom: "fc7"
  top: "fc7"
}
layer {
  name: "drop7"
  type: "Dropout"
  bottom: "fc7"
  top: "fc7"
  include {
    phase: TRAIN
  }
  dropout_param {
    dropout_ratio: 0.5
  }
}
layer {
  name: "fc8"
  type: "InnerProduct"
  bottom: "fc7"
  top: "fc8"
  inner_product_param {
    num_output: 604
    weight_filler {
      type: "msra"
    }
    bias_filler {
      type: "constant"
    }
  }
}
layer {
  name: "loss"
  type: "SigmoidCrossEntropyLoss"
  bottom: "fc8"
  bottom: "phocs"
  top: "loss"
}
I1214 16:18:40.203969  6227 layer_factory.hpp:77] Creating layer word_images
I1214 16:18:40.204075  6227 db_lmdb.cpp:35] Opened lmdb /data/fwolf/min26/gw_cv1_nti500000_pul2-3-4-5_train_word_images_lmdb
I1214 16:18:40.204125  6227 net.cpp:84] Creating Layer word_images
I1214 16:18:40.204138  6227 net.cpp:380] word_images -> word_images
I1214 16:18:40.204152  6227 net.cpp:380] word_images -> label
I1214 16:18:40.205466  6227 data_layer.cpp:44] output data size: 1,1,108,244
I1214 16:18:40.211530  6227 net.cpp:122] Setting up word_images
I1214 16:18:40.211568  6227 net.cpp:129] Top shape: 1 1 108 244 (26352)
I1214 16:18:40.211575  6227 net.cpp:129] Top shape: 1 (1)
I1214 16:18:40.211580  6227 net.cpp:137] Memory required for data: 105412
I1214 16:18:40.211587  6227 layer_factory.hpp:77] Creating layer phocs
I1214 16:18:40.211660  6227 db_lmdb.cpp:35] Opened lmdb /data/fwolf/min26/gw_cv1_nti500000_pul2-3-4-5_train_phocs_lmdb
I1214 16:18:40.211694  6227 net.cpp:84] Creating Layer phocs
I1214 16:18:40.211702  6227 net.cpp:380] phocs -> phocs
I1214 16:18:40.211715  6227 net.cpp:380] phocs -> label_phocs
I1214 16:18:40.212205  6227 data_layer.cpp:44] output data size: 1,1,1,604
I1214 16:18:40.215286  6227 net.cpp:122] Setting up phocs
I1214 16:18:40.215322  6227 net.cpp:129] Top shape: 1 1 1 604 (604)
I1214 16:18:40.215327  6227 net.cpp:129] Top shape: 1 (1)
I1214 16:18:40.215332  6227 net.cpp:137] Memory required for data: 107832
I1214 16:18:40.215338  6227 layer_factory.hpp:77] Creating layer conv1_1
I1214 16:18:40.215361  6227 net.cpp:84] Creating Layer conv1_1
I1214 16:18:40.215366  6227 net.cpp:406] conv1_1 <- word_images
I1214 16:18:40.215378  6227 net.cpp:380] conv1_1 -> conv1_1
I1214 16:18:42.413807  6227 net.cpp:122] Setting up conv1_1
I1214 16:18:42.413849  6227 net.cpp:129] Top shape: 1 64 108 244 (1686528)
I1214 16:18:42.413856  6227 net.cpp:137] Memory required for data: 6853944
I1214 16:18:42.413874  6227 layer_factory.hpp:77] Creating layer relu1_1
I1214 16:18:42.413888  6227 net.cpp:84] Creating Layer relu1_1
I1214 16:18:42.413894  6227 net.cpp:406] relu1_1 <- conv1_1
I1214 16:18:42.413902  6227 net.cpp:367] relu1_1 -> conv1_1 (in-place)
I1214 16:18:42.414350  6227 net.cpp:122] Setting up relu1_1
I1214 16:18:42.414362  6227 net.cpp:129] Top shape: 1 64 108 244 (1686528)
I1214 16:18:42.414367  6227 net.cpp:137] Memory required for data: 13600056
I1214 16:18:42.414372  6227 layer_factory.hpp:77] Creating layer conv1_2
I1214 16:18:42.414388  6227 net.cpp:84] Creating Layer conv1_2
I1214 16:18:42.414393  6227 net.cpp:406] conv1_2 <- conv1_1
I1214 16:18:42.414400  6227 net.cpp:380] conv1_2 -> conv1_2
I1214 16:18:42.457866  6227 net.cpp:122] Setting up conv1_2
I1214 16:18:42.457906  6227 net.cpp:129] Top shape: 1 64 108 244 (1686528)
I1214 16:18:42.457911  6227 net.cpp:137] Memory required for data: 20346168
I1214 16:18:42.457927  6227 layer_factory.hpp:77] Creating layer relu1_2
I1214 16:18:42.457940  6227 net.cpp:84] Creating Layer relu1_2
I1214 16:18:42.457947  6227 net.cpp:406] relu1_2 <- conv1_2
I1214 16:18:42.457954  6227 net.cpp:367] relu1_2 -> conv1_2 (in-place)
I1214 16:18:42.458185  6227 net.cpp:122] Setting up relu1_2
I1214 16:18:42.458197  6227 net.cpp:129] Top shape: 1 64 108 244 (1686528)
I1214 16:18:42.458202  6227 net.cpp:137] Memory required for data: 27092280
I1214 16:18:42.458206  6227 layer_factory.hpp:77] Creating layer pool1
I1214 16:18:42.458215  6227 net.cpp:84] Creating Layer pool1
I1214 16:18:42.458220  6227 net.cpp:406] pool1 <- conv1_2
I1214 16:18:42.458226  6227 net.cpp:380] pool1 -> pool1
I1214 16:18:42.458336  6227 net.cpp:122] Setting up pool1
I1214 16:18:42.458346  6227 net.cpp:129] Top shape: 1 64 54 122 (421632)
I1214 16:18:42.458350  6227 net.cpp:137] Memory required for data: 28778808
I1214 16:18:42.458355  6227 layer_factory.hpp:77] Creating layer conv2_1
I1214 16:18:42.458369  6227 net.cpp:84] Creating Layer conv2_1
I1214 16:18:42.458374  6227 net.cpp:406] conv2_1 <- pool1
I1214 16:18:42.458380  6227 net.cpp:380] conv2_1 -> conv2_1
I1214 16:18:42.484988  6227 net.cpp:122] Setting up conv2_1
I1214 16:18:42.485029  6227 net.cpp:129] Top shape: 1 128 54 122 (843264)
I1214 16:18:42.485034  6227 net.cpp:137] Memory required for data: 32151864
I1214 16:18:42.485054  6227 layer_factory.hpp:77] Creating layer relu2_1
I1214 16:18:42.485069  6227 net.cpp:84] Creating Layer relu2_1
I1214 16:18:42.485075  6227 net.cpp:406] relu2_1 <- conv2_1
I1214 16:18:42.485083  6227 net.cpp:367] relu2_1 -> conv2_1 (in-place)
I1214 16:18:42.485558  6227 net.cpp:122] Setting up relu2_1
I1214 16:18:42.485572  6227 net.cpp:129] Top shape: 1 128 54 122 (843264)
I1214 16:18:42.485577  6227 net.cpp:137] Memory required for data: 35524920
I1214 16:18:42.485582  6227 layer_factory.hpp:77] Creating layer conv2_2
I1214 16:18:42.485599  6227 net.cpp:84] Creating Layer conv2_2
I1214 16:18:42.485602  6227 net.cpp:406] conv2_2 <- conv2_1
I1214 16:18:42.485610  6227 net.cpp:380] conv2_2 -> conv2_2
I1214 16:18:42.494205  6227 net.cpp:122] Setting up conv2_2
I1214 16:18:42.494246  6227 net.cpp:129] Top shape: 1 128 54 122 (843264)
I1214 16:18:42.494251  6227 net.cpp:137] Memory required for data: 38897976
I1214 16:18:42.494266  6227 layer_factory.hpp:77] Creating layer relu2_2
I1214 16:18:42.494279  6227 net.cpp:84] Creating Layer relu2_2
I1214 16:18:42.494285  6227 net.cpp:406] relu2_2 <- conv2_2
I1214 16:18:42.494294  6227 net.cpp:367] relu2_2 -> conv2_2 (in-place)
I1214 16:18:42.494568  6227 net.cpp:122] Setting up relu2_2
I1214 16:18:42.494580  6227 net.cpp:129] Top shape: 1 128 54 122 (843264)
I1214 16:18:42.494583  6227 net.cpp:137] Memory required for data: 42271032
I1214 16:18:42.494588  6227 layer_factory.hpp:77] Creating layer pool2
I1214 16:18:42.494596  6227 net.cpp:84] Creating Layer pool2
I1214 16:18:42.494601  6227 net.cpp:406] pool2 <- conv2_2
I1214 16:18:42.494607  6227 net.cpp:380] pool2 -> pool2
I1214 16:18:42.494724  6227 net.cpp:122] Setting up pool2
I1214 16:18:42.494731  6227 net.cpp:129] Top shape: 1 128 27 61 (210816)
I1214 16:18:42.494735  6227 net.cpp:137] Memory required for data: 43114296
I1214 16:18:42.494740  6227 layer_factory.hpp:77] Creating layer conv3_1
I1214 16:18:42.494755  6227 net.cpp:84] Creating Layer conv3_1
I1214 16:18:42.494758  6227 net.cpp:406] conv3_1 <- pool2
I1214 16:18:42.494765  6227 net.cpp:380] conv3_1 -> conv3_1
I1214 16:18:42.511214  6227 net.cpp:122] Setting up conv3_1
I1214 16:18:42.511252  6227 net.cpp:129] Top shape: 1 256 27 61 (421632)
I1214 16:18:42.511257  6227 net.cpp:137] Memory required for data: 44800824
I1214 16:18:42.511276  6227 layer_factory.hpp:77] Creating layer relu3_1
I1214 16:18:42.511288  6227 net.cpp:84] Creating Layer relu3_1
I1214 16:18:42.511294  6227 net.cpp:406] relu3_1 <- conv3_1
I1214 16:18:42.511302  6227 net.cpp:367] relu3_1 -> conv3_1 (in-place)
I1214 16:18:42.511783  6227 net.cpp:122] Setting up relu3_1
I1214 16:18:42.511801  6227 net.cpp:129] Top shape: 1 256 27 61 (421632)
I1214 16:18:42.511806  6227 net.cpp:137] Memory required for data: 46487352
I1214 16:18:42.511809  6227 layer_factory.hpp:77] Creating layer conv3_2
I1214 16:18:42.511826  6227 net.cpp:84] Creating Layer conv3_2
I1214 16:18:42.511831  6227 net.cpp:406] conv3_2 <- conv3_1
I1214 16:18:42.511838  6227 net.cpp:380] conv3_2 -> conv3_2
I1214 16:18:42.628095  6227 net.cpp:122] Setting up conv3_2
I1214 16:18:42.628140  6227 net.cpp:129] Top shape: 1 256 27 61 (421632)
I1214 16:18:42.628146  6227 net.cpp:137] Memory required for data: 48173880
I1214 16:18:42.628162  6227 layer_factory.hpp:77] Creating layer relu3_2
I1214 16:18:42.628180  6227 net.cpp:84] Creating Layer relu3_2
I1214 16:18:42.628192  6227 net.cpp:406] relu3_2 <- conv3_2
I1214 16:18:42.628201  6227 net.cpp:367] relu3_2 -> conv3_2 (in-place)
I1214 16:18:42.628775  6227 net.cpp:122] Setting up relu3_2
I1214 16:18:42.628800  6227 net.cpp:129] Top shape: 1 256 27 61 (421632)
I1214 16:18:42.628804  6227 net.cpp:137] Memory required for data: 49860408
I1214 16:18:42.628810  6227 layer_factory.hpp:77] Creating layer conv3_3
I1214 16:18:42.628831  6227 net.cpp:84] Creating Layer conv3_3
I1214 16:18:42.628837  6227 net.cpp:406] conv3_3 <- conv3_2
I1214 16:18:42.628845  6227 net.cpp:380] conv3_3 -> conv3_3
I1214 16:18:42.717715  6227 net.cpp:122] Setting up conv3_3
I1214 16:18:42.717754  6227 net.cpp:129] Top shape: 1 256 27 61 (421632)
I1214 16:18:42.717761  6227 net.cpp:137] Memory required for data: 51546936
I1214 16:18:42.717775  6227 layer_factory.hpp:77] Creating layer relu3_3
I1214 16:18:42.717790  6227 net.cpp:84] Creating Layer relu3_3
I1214 16:18:42.717795  6227 net.cpp:406] relu3_3 <- conv3_3
I1214 16:18:42.717805  6227 net.cpp:367] relu3_3 -> conv3_3 (in-place)
I1214 16:18:42.718051  6227 net.cpp:122] Setting up relu3_3
I1214 16:18:42.718061  6227 net.cpp:129] Top shape: 1 256 27 61 (421632)
I1214 16:18:42.718065  6227 net.cpp:137] Memory required for data: 53233464
I1214 16:18:42.718070  6227 layer_factory.hpp:77] Creating layer conv3_4
I1214 16:18:42.718085  6227 net.cpp:84] Creating Layer conv3_4
I1214 16:18:42.718088  6227 net.cpp:406] conv3_4 <- conv3_3
I1214 16:18:42.718096  6227 net.cpp:380] conv3_4 -> conv3_4
I1214 16:18:42.888775  6227 net.cpp:122] Setting up conv3_4
I1214 16:18:42.888815  6227 net.cpp:129] Top shape: 1 256 27 61 (421632)
I1214 16:18:42.888823  6227 net.cpp:137] Memory required for data: 54919992
I1214 16:18:42.888836  6227 layer_factory.hpp:77] Creating layer relu3_4
I1214 16:18:42.888850  6227 net.cpp:84] Creating Layer relu3_4
I1214 16:18:42.888856  6227 net.cpp:406] relu3_4 <- conv3_4
I1214 16:18:42.888864  6227 net.cpp:367] relu3_4 -> conv3_4 (in-place)
I1214 16:18:42.889389  6227 net.cpp:122] Setting up relu3_4
I1214 16:18:42.889405  6227 net.cpp:129] Top shape: 1 256 27 61 (421632)
I1214 16:18:42.889410  6227 net.cpp:137] Memory required for data: 56606520
I1214 16:18:42.889415  6227 layer_factory.hpp:77] Creating layer conv3_5
I1214 16:18:42.889430  6227 net.cpp:84] Creating Layer conv3_5
I1214 16:18:42.889436  6227 net.cpp:406] conv3_5 <- conv3_4
I1214 16:18:42.889444  6227 net.cpp:380] conv3_5 -> conv3_5
I1214 16:18:42.969244  6227 net.cpp:122] Setting up conv3_5
I1214 16:18:42.969287  6227 net.cpp:129] Top shape: 1 256 27 61 (421632)
I1214 16:18:42.969293  6227 net.cpp:137] Memory required for data: 58293048
I1214 16:18:42.969314  6227 layer_factory.hpp:77] Creating layer relu3_5
I1214 16:18:42.969329  6227 net.cpp:84] Creating Layer relu3_5
I1214 16:18:42.969336  6227 net.cpp:406] relu3_5 <- conv3_5
I1214 16:18:42.969347  6227 net.cpp:367] relu3_5 -> conv3_5 (in-place)
I1214 16:18:42.969647  6227 net.cpp:122] Setting up relu3_5
I1214 16:18:42.969663  6227 net.cpp:129] Top shape: 1 256 27 61 (421632)
I1214 16:18:42.969667  6227 net.cpp:137] Memory required for data: 59979576
I1214 16:18:42.969672  6227 layer_factory.hpp:77] Creating layer conv3_6
I1214 16:18:42.969699  6227 net.cpp:84] Creating Layer conv3_6
I1214 16:18:42.969704  6227 net.cpp:406] conv3_6 <- conv3_5
I1214 16:18:42.969714  6227 net.cpp:380] conv3_6 -> conv3_6
I1214 16:18:43.079306  6227 net.cpp:122] Setting up conv3_6
I1214 16:18:43.079347  6227 net.cpp:129] Top shape: 1 256 27 61 (421632)
I1214 16:18:43.079354  6227 net.cpp:137] Memory required for data: 61666104
I1214 16:18:43.079368  6227 layer_factory.hpp:77] Creating layer relu3_6
I1214 16:18:43.079382  6227 net.cpp:84] Creating Layer relu3_6
I1214 16:18:43.079390  6227 net.cpp:406] relu3_6 <- conv3_6
I1214 16:18:43.079401  6227 net.cpp:367] relu3_6 -> conv3_6 (in-place)
I1214 16:18:43.079988  6227 net.cpp:122] Setting up relu3_6
I1214 16:18:43.080004  6227 net.cpp:129] Top shape: 1 256 27 61 (421632)
I1214 16:18:43.080009  6227 net.cpp:137] Memory required for data: 63352632
I1214 16:18:43.080019  6227 layer_factory.hpp:77] Creating layer conv4_1
I1214 16:18:43.080039  6227 net.cpp:84] Creating Layer conv4_1
I1214 16:18:43.080044  6227 net.cpp:406] conv4_1 <- conv3_6
I1214 16:18:43.080051  6227 net.cpp:380] conv4_1 -> conv4_1
I1214 16:18:43.119890  6227 net.cpp:122] Setting up conv4_1
I1214 16:18:43.119925  6227 net.cpp:129] Top shape: 1 512 27 61 (843264)
I1214 16:18:43.119930  6227 net.cpp:137] Memory required for data: 66725688
I1214 16:18:43.119940  6227 layer_factory.hpp:77] Creating layer relu4_1
I1214 16:18:43.119951  6227 net.cpp:84] Creating Layer relu4_1
I1214 16:18:43.119956  6227 net.cpp:406] relu4_1 <- conv4_1
I1214 16:18:43.119961  6227 net.cpp:367] relu4_1 -> conv4_1 (in-place)
I1214 16:18:43.120424  6227 net.cpp:122] Setting up relu4_1
I1214 16:18:43.120445  6227 net.cpp:129] Top shape: 1 512 27 61 (843264)
I1214 16:18:43.120448  6227 net.cpp:137] Memory required for data: 70098744
I1214 16:18:43.120453  6227 layer_factory.hpp:77] Creating layer conv4_2
I1214 16:18:43.120467  6227 net.cpp:84] Creating Layer conv4_2
I1214 16:18:43.120471  6227 net.cpp:406] conv4_2 <- conv4_1
I1214 16:18:43.120479  6227 net.cpp:380] conv4_2 -> conv4_2
I1214 16:18:43.353677  6227 net.cpp:122] Setting up conv4_2
I1214 16:18:43.353720  6227 net.cpp:129] Top shape: 1 512 27 61 (843264)
I1214 16:18:43.353725  6227 net.cpp:137] Memory required for data: 73471800
I1214 16:18:43.353739  6227 layer_factory.hpp:77] Creating layer relu4_2
I1214 16:18:43.353754  6227 net.cpp:84] Creating Layer relu4_2
I1214 16:18:43.353760  6227 net.cpp:406] relu4_2 <- conv4_2
I1214 16:18:43.353768  6227 net.cpp:367] relu4_2 -> conv4_2 (in-place)
I1214 16:18:43.354037  6227 net.cpp:122] Setting up relu4_2
I1214 16:18:43.354049  6227 net.cpp:129] Top shape: 1 512 27 61 (843264)
I1214 16:18:43.354053  6227 net.cpp:137] Memory required for data: 76844856
I1214 16:18:43.354058  6227 layer_factory.hpp:77] Creating layer conv4_3
I1214 16:18:43.354074  6227 net.cpp:84] Creating Layer conv4_3
I1214 16:18:43.354079  6227 net.cpp:406] conv4_3 <- conv4_2
I1214 16:18:43.354086  6227 net.cpp:380] conv4_3 -> conv4_3
I1214 16:18:43.663785  6227 net.cpp:122] Setting up conv4_3
I1214 16:18:43.663826  6227 net.cpp:129] Top shape: 1 512 27 61 (843264)
I1214 16:18:43.663833  6227 net.cpp:137] Memory required for data: 80217912
I1214 16:18:43.663848  6227 layer_factory.hpp:77] Creating layer relu4_3
I1214 16:18:43.663864  6227 net.cpp:84] Creating Layer relu4_3
I1214 16:18:43.663872  6227 net.cpp:406] relu4_3 <- conv4_3
I1214 16:18:43.663879  6227 net.cpp:367] relu4_3 -> conv4_3 (in-place)
I1214 16:18:43.664463  6227 net.cpp:122] Setting up relu4_3
I1214 16:18:43.664482  6227 net.cpp:129] Top shape: 1 512 27 61 (843264)
I1214 16:18:43.664489  6227 net.cpp:137] Memory required for data: 83590968
I1214 16:18:43.664494  6227 layer_factory.hpp:77] Creating layer tpp5
I1214 16:18:43.664506  6227 net.cpp:84] Creating Layer tpp5
I1214 16:18:43.664511  6227 net.cpp:406] tpp5 <- conv4_3
I1214 16:18:43.664522  6227 net.cpp:380] tpp5 -> tpp5
I1214 16:18:43.665685  6227 net.cpp:122] Setting up tpp5
I1214 16:18:43.665704  6227 net.cpp:129] Top shape: 1 7680 (7680)
I1214 16:18:43.665709  6227 net.cpp:137] Memory required for data: 83621688
I1214 16:18:43.665714  6227 layer_factory.hpp:77] Creating layer reshape
I1214 16:18:43.665724  6227 net.cpp:84] Creating Layer reshape
I1214 16:18:43.665729  6227 net.cpp:406] reshape <- tpp5
I1214 16:18:43.665736  6227 net.cpp:380] reshape -> reshape
I1214 16:18:43.665791  6227 net.cpp:122] Setting up reshape
I1214 16:18:43.665801  6227 net.cpp:129] Top shape: 1 3840 2 1 (7680)
I1214 16:18:43.665804  6227 net.cpp:137] Memory required for data: 83652408
I1214 16:18:43.665808  6227 layer_factory.hpp:77] Creating layer premax
I1214 16:18:43.665822  6227 net.cpp:84] Creating Layer premax
I1214 16:18:43.665827  6227 net.cpp:406] premax <- reshape
I1214 16:18:43.665834  6227 net.cpp:380] premax -> premax
I1214 16:18:43.666097  6227 net.cpp:122] Setting up premax
I1214 16:18:43.666107  6227 net.cpp:129] Top shape: 1 3840 2 1 (7680)
I1214 16:18:43.666119  6227 net.cpp:137] Memory required for data: 83683128
I1214 16:18:43.666128  6227 layer_factory.hpp:77] Creating layer maxout
I1214 16:18:43.666139  6227 net.cpp:84] Creating Layer maxout
I1214 16:18:43.666144  6227 net.cpp:406] maxout <- premax
I1214 16:18:43.666151  6227 net.cpp:380] maxout -> maxout
I1214 16:18:43.666234  6227 net.cpp:122] Setting up maxout
I1214 16:18:43.666244  6227 net.cpp:129] Top shape: 1 3840 1 1 (3840)
I1214 16:18:43.666247  6227 net.cpp:137] Memory required for data: 83698488
I1214 16:18:43.666251  6227 layer_factory.hpp:77] Creating layer fc6
I1214 16:18:43.666260  6227 net.cpp:84] Creating Layer fc6
I1214 16:18:43.666265  6227 net.cpp:406] fc6 <- maxout
I1214 16:18:43.666273  6227 net.cpp:380] fc6 -> fc6
I1214 16:18:44.997134  6227 net.cpp:122] Setting up fc6
I1214 16:18:44.997176  6227 net.cpp:129] Top shape: 1 4096 (4096)
I1214 16:18:44.997181  6227 net.cpp:137] Memory required for data: 83714872
I1214 16:18:44.997195  6227 layer_factory.hpp:77] Creating layer relu6
I1214 16:18:44.997206  6227 net.cpp:84] Creating Layer relu6
I1214 16:18:44.997212  6227 net.cpp:406] relu6 <- fc6
I1214 16:18:44.997221  6227 net.cpp:367] relu6 -> fc6 (in-place)
I1214 16:18:44.997529  6227 net.cpp:122] Setting up relu6
I1214 16:18:44.997542  6227 net.cpp:129] Top shape: 1 4096 (4096)
I1214 16:18:44.997547  6227 net.cpp:137] Memory required for data: 83731256
I1214 16:18:44.997551  6227 layer_factory.hpp:77] Creating layer drop6
I1214 16:18:44.997561  6227 net.cpp:84] Creating Layer drop6
I1214 16:18:44.997565  6227 net.cpp:406] drop6 <- fc6
I1214 16:18:44.997572  6227 net.cpp:367] drop6 -> fc6 (in-place)
I1214 16:18:44.997630  6227 net.cpp:122] Setting up drop6
I1214 16:18:44.997637  6227 net.cpp:129] Top shape: 1 4096 (4096)
I1214 16:18:44.997642  6227 net.cpp:137] Memory required for data: 83747640
I1214 16:18:44.997645  6227 layer_factory.hpp:77] Creating layer fc7
I1214 16:18:44.997655  6227 net.cpp:84] Creating Layer fc7
I1214 16:18:44.997659  6227 net.cpp:406] fc7 <- fc6
I1214 16:18:44.997668  6227 net.cpp:380] fc7 -> fc7
I1214 16:18:46.384846  6227 net.cpp:122] Setting up fc7
I1214 16:18:46.384892  6227 net.cpp:129] Top shape: 1 4096 (4096)
I1214 16:18:46.384898  6227 net.cpp:137] Memory required for data: 83764024
I1214 16:18:46.384910  6227 layer_factory.hpp:77] Creating layer relu7
I1214 16:18:46.384924  6227 net.cpp:84] Creating Layer relu7
I1214 16:18:46.384930  6227 net.cpp:406] relu7 <- fc7
I1214 16:18:46.384939  6227 net.cpp:367] relu7 -> fc7 (in-place)
I1214 16:18:46.385767  6227 net.cpp:122] Setting up relu7
I1214 16:18:46.385818  6227 net.cpp:129] Top shape: 1 4096 (4096)
I1214 16:18:46.385828  6227 net.cpp:137] Memory required for data: 83780408
I1214 16:18:46.385840  6227 layer_factory.hpp:77] Creating layer drop7
I1214 16:18:46.385864  6227 net.cpp:84] Creating Layer drop7
I1214 16:18:46.385875  6227 net.cpp:406] drop7 <- fc7
I1214 16:18:46.385890  6227 net.cpp:367] drop7 -> fc7 (in-place)
I1214 16:18:46.386046  6227 net.cpp:122] Setting up drop7
I1214 16:18:46.386060  6227 net.cpp:129] Top shape: 1 4096 (4096)
I1214 16:18:46.386067  6227 net.cpp:137] Memory required for data: 83796792
I1214 16:18:46.386075  6227 layer_factory.hpp:77] Creating layer fc8
I1214 16:18:46.386090  6227 net.cpp:84] Creating Layer fc8
I1214 16:18:46.386097  6227 net.cpp:406] fc8 <- fc7
I1214 16:18:46.386111  6227 net.cpp:380] fc8 -> fc8
I1214 16:18:46.750720  6227 net.cpp:122] Setting up fc8
I1214 16:18:46.750761  6227 net.cpp:129] Top shape: 1 604 (604)
I1214 16:18:46.750766  6227 net.cpp:137] Memory required for data: 83799208
I1214 16:18:46.750783  6227 layer_factory.hpp:77] Creating layer loss
I1214 16:18:46.750798  6227 net.cpp:84] Creating Layer loss
I1214 16:18:46.750804  6227 net.cpp:406] loss <- fc8
I1214 16:18:46.750810  6227 net.cpp:406] loss <- phocs
I1214 16:18:46.750816  6227 net.cpp:380] loss -> loss
I1214 16:18:46.750901  6227 net.cpp:122] Setting up loss
…
state {
  phase: TEST
}
layer {
  name: "word_images"
  type: "Data"
  top: "word_images"
  top: "label"
  transform_param {
    scale: -0.0039215689
    mean_value: 255
  }
  data_param {
    source: "/data/fwolf/min26/gw_cv1_nti500000_pul2-3-4-5_test_word_images_lmdb"
    batch_size: 1
    backend: LMDB
    prefetch: 20
  }
}
layer {
  name: "phocs"
  type: "Data"
  top: "phocs"
  top: "label_phocs"
  data_param {
    source: "/data/fwolf/min26/gw_cv1_nti500000_pul2-3-4-5_test_phocs_lmdb"
    batch_size: 1
    backend: LMDB
    prefetch: 20
  }
}
layer {
  name: "conv1_1"
  type: "Convolution"
  bottom: "word_images"
  top: "conv1_1"
  convolution_param {
    num_output: 64
    pad: 1
    kernel_size: 3
    stride: 1
    weight_filler {
      type: "msra"
    }
    bias_filler {
      type: "constant"
    }
    engine: CUDNN
  }
}
layer {
  name: "relu1_1"
  type: "ReLU"
  bottom: "conv1_1"
  top: "conv1_1"
}
layer {
  name: "conv1_2"
  type: "Convolution"
  bottom: "conv1_1"
  top: "conv1_2"
  convolution_param {
    num_output: 64
    pad: 1
    kernel_size: 3
    stride: 1
    weight_filler {
      type: "msra"
    }
    bias_filler {
      type: "constant"
    }
    engine: CUDNN
  }
}
layer {
  name: "relu1_2"
  type: "ReLU"
  bottom: "conv1_2"
  top: "conv1_2"
}
layer {
  name: "pool1"
  type: "Pooling"
  bottom: "conv1_2"
  top: "pool1"
  pooling_param {
    pool: MAX
    kernel_size: 2
    stride: 2
  }
}
layer {
  name: "conv2_1"
  type: "Convolution"
  bottom: "pool1"
  top: "conv2_1"
  convolution_param {
    num_output: 128
    pad: 1
    kernel_size: 3
    stride: 1
    weight_filler {
      type: "msra"
    }
    bias_filler {
      type: "constant"
    }
    engine: CUDNN
  }
}
layer {
  name: "relu2_1"
  type: "ReLU"
  bottom: "conv2_1"
  top: "conv2_1"
}
layer {
  name: "conv2_2"
  type: "Convolution"
  bottom: "conv2_1"
  top: "conv2_2"
  convolution_param {
    num_output: 128
    pad: 1
    kernel_size: 3
    stride: 1
    weight_filler {
      type: "msra"
    }
    bias_filler {
      type: "constant"
    }
    engine: CUDNN
  }
}
layer {
  name: "relu2_2"
  type: "ReLU"
  bottom: "conv2_2"
  top: "conv2_2"
}
layer {
  name: "pool2"
  type: "Pooling"
  bottom: "conv2_2"
  top: "pool2"
  pooling_param {
    pool: MAX
    kernel_size: 2
    stride: 2
  }
}
layer {
  name: "conv3_1"
  type: "Convolution"
  bottom: "pool2"
  top: "conv3_1"
  convolution_param {
    num_output: 256
    pad: 1
    kernel_size: 3
    stride: 1
    weight_filler {
      type: "msra"
    }
    bias_filler {
      type: "constant"
    }
    engine: CUDNN
  }
}
layer {
  name: "relu3_1"
  type: "ReLU"
  bottom: "conv3_1"
  top: "conv3_1"
}
layer {
  name: "conv3_2"
  type: "Convolution"
  bottom: "conv3_1"
  top: "conv3_2"
  convolution_param {
    num_output: 256
    pad: 1
    kernel_size: 3
    stride: 1
    weight_filler {
      type: "msra"
    }
    bias_filler {
      type: "constant"
    }
    engine: CUDNN
  }
}
layer {
  name: "relu3_2"
  type: "ReLU"
  bottom: "conv3_2"
  top: "conv3_2"
}
layer {
  name: "conv3_3"
  type: "Convolution"
  bottom: "conv3_2"
  top: "conv3_3"
  convolution_param {
    num_output: 256
    pad: 1
    kernel_size: 3
    stride: 1
    weight_filler {
      type: "msra"
    }
    bias_filler {
      type: "constant"
    }
    engine: CUDNN
  }
}
layer {
  name: "relu3_3"
  type: "ReLU"
  bottom: "conv3_3"
  top: "conv3_3"
}
layer {
  name: "conv3_4"
  type: "Convolution"
  bottom: "conv3_3"
  top: "conv3_4"
  convolution_param {
    num_output: 256
    pad: 1
    kernel_size: 3
    stride: 1
    weight_filler {
      type: "msra"
    }
    bias_filler {
      type: "constant"
    }
    engine: CUDNN
  }
}
layer {
  name: "relu3_4"
  type: "ReLU"
  bottom: "conv3_4"
  top: "conv3_4"
}
layer {
  name: "conv3_5"
  type: "Convolution"
  bottom: "conv3_4"
  top: "conv3_5"
  convolution_param {
    num_output: 256
    pad: 1
    kernel_size: 3
    stride: 1
    weight_filler {
      type: "msra"
    }
    bias_filler {
      type: "constant"
    }
    engine: CUDNN
  }
}
layer {
  name: "relu3_5"
  type: "ReLU"
  bottom: "conv3_5"
  top: "conv3_5"
}
layer {
  name: "conv3_6"
  type: "Convolution"
  bottom: "conv3_5"
  top: "conv3_6"
  convolution_param {
    num_output: 256
    pad: 1
    kernel_size: 3
    stride: 1
    weight_filler {
      type: "msra"
    }
    bias_filler {
      type: "constant"
    }
    engine: CUDNN
  }
}
layer {
  name: "relu3_6"
  type: "ReLU"
  bottom: "conv3_6"
  top: "conv3_6"
}
layer {
  name: "conv4_1"
  type: "Convolution"
  bottom: "conv3_6"
  top: "conv4_1"
  convolution_param {
    num_output: 512
    pad: 1
    kernel_size: 3
    stride: 1
    weight_filler {
      type: "msra"
    }
    bias_filler {
      type: "constant"
    }
    engine: CUDNN
  }
}
layer {
  name: "relu4_1"
  type: "ReLU"
  bottom: "conv4_1"
  top: "conv4_1"
}
layer {
  name: "conv4_2"
  type: "Convolution"
  bottom: "conv4_1"
  top: "conv4_2"
  convolution_param {
    num_output: 512
    pad: 1
    kernel_size: 3
    stride: 1
    weight_filler {
      type: "msra"
    }
    bias_filler {
      type: "constant"
    }
    engine: CUDNN
  }
}
layer {
  name: "relu4_2"
  type: "ReLU"
  bottom: "conv4_2"
  top: "conv4_2"
}
layer {
  name: "conv4_3"
  type: "Convolution"
  bottom: "conv4_2"
  top: "conv4_3"
  convolution_param {
    num_output: 512
    pad: 1
    kernel_size: 3
    stride: 1
    weight_filler {
      type: "msra"
    }
    bias_filler {
      type: "constant"
    }
    engine: CUDNN
  }
}
layer {
  name: "relu4_3"
  type: "ReLU"
  bottom: "conv4_3"
  top: "conv4_3"
}
layer {
  name: "tpp5"
  type: "TPP"
  bottom: "conv4_3"
  top: "tpp5"
  tpp_param {
    pyramid_layer: 1
    pyramid_layer: 2
    pyramid_layer: 3
    pyramid_layer: 4
    pyramid_layer: 5
    pool: MAX
    engine: CUDNN
  }
}
layer {
  name: "reshape"
  type: "Reshape"
  bottom: "tpp5"
  top: "reshape"
  reshape_param {
    shape {
      dim: 1
      dim: 3840
      dim: 2
      dim: 1
    }
  }
}
layer {
  name: "premax"
  type: "Scale"
  bottom: "reshape"
  top: "premax"
  param {
    lr_mult: 0
    decay_mult: 0
  }
  scale_param {
    num_axes: 3
    filler {
      value: 1
    }
    bias_term: false
    bias_filler {
      value: 0
    }
  }
}
layer {
  name: "maxout"
  type: "Pooling"
  bottom: "premax"
  top: "maxout"
  pooling_param {
    pool: MAX
    global_pooling: true
  }
}
layer {
  name: "fc6"
  type: "InnerProduct"
  bottom: "maxout"
  top: "fc6"
  inner_product_param {
    num_output: 4096
    weight_filler {
      type: "msra"
    }
    bias_filler {
      type: "constant"
    }
  }
}
layer {
  name: "relu6"
  type: "ReLU"
  bottom: "fc6"
  top: "fc6"
}
layer {
  name: "fc7"
  type: "InnerProduct"
  bottom: "fc6"
  top: "fc7"
  inner_product_param {
    num_output: 4096
    weight_filler {
      type: "msra"
    }
    bias_filler {
      type: "constant"
    }
  }
}
layer {
  name: "relu7"
  type: "ReLU"
  bottom: "fc7"
  top: "fc7"
}
layer {
  name: "fc8"
  type: "InnerProduct"
  bottom: "fc7"
  top: "fc8"
  inner_product_param {
    num_output: 604
    weight_filler {
      type: "msra"
    }
    bias_filler {
      type: "constant"
    }
  }
}
layer {
  name: "sigmoid"
  type: "Sigmoid"
  bottom: "fc8"
  top: "sigmoid"
  include {
    phase: TEST
  }
}
layer {
  name: "silence"
  type: "Silence"
  bottom: "sigmoid"
  include {
    phase: TEST
  }
}
layer {
  name: "loss"
  type: "SigmoidCrossEntropyLoss"
  bottom: "fc8"
  bottom: "phocs"
  top: "loss"
}
I1214 16:18:46.753458  6227 layer_factory.hpp:77] Creating layer word_images
I1214 16:18:46.753551  6227 db_lmdb.cpp:35] Opened lmdb /data/fwolf/min26/gw_cv1_nti500000_pul2-3-4-5_test_word_images_lmdb
I1214 16:18:46.753585  6227 net.cpp:84] Creating Layer word_images
I1214 16:18:46.753594  6227 net.cpp:380] word_images -> word_images
I1214 16:18:46.753607  6227 net.cpp:380] word_images -> label
I1214 16:18:46.754369  6227 data_layer.cpp:44] output data size: 1,1,66,139
I1214 16:18:46.757566  6227 net.cpp:122] Setting up word_images
I1214 16:18:46.757606  6227 net.cpp:129] Top shape: 1 1 66 139 (9174)
I1214 16:18:46.757612  6227 net.cpp:129] Top shape: 1 (1)
I1214 16:18:46.757616  6227 net.cpp:137] Memory required for data: 36700
I1214 16:18:46.757630  6227 layer_factory.hpp:77] Creating layer phocs
I1214 16:18:46.757714  6227 db_lmdb.cpp:35] Opened lmdb /data/fwolf/min26/gw_cv1_nti500000_pul2-3-4-5_test_phocs_lmdb
I1214 16:18:46.757750  6227 net.cpp:84] Creating Layer phocs
I1214 16:18:46.757756  6227 net.cpp:380] phocs -> phocs
I1214 16:18:46.757769  6227 net.cpp:380] phocs -> label_phocs
I1214 16:18:46.758406  6227 data_layer.cpp:44] output data size: 1,1,1,604
I1214 16:18:46.762361  6227 net.cpp:122] Setting up phocs
I1214 16:18:46.762403  6227 net.cpp:129] Top shape: 1 1 1 604 (604)
I1214 16:18:46.762409  6227 net.cpp:129] Top shape: 1 (1)
I1214 16:18:46.762414  6227 net.cpp:137] Memory required for data: 39120
I1214 16:18:46.762421  6227 layer_factory.hpp:77] Creating layer conv1_1
I1214 16:18:46.762445  6227 net.cpp:84] Creating Layer conv1_1
I1214 16:18:46.762452  6227 net.cpp:406] conv1_1 <- word_images
I1214 16:18:46.762462  6227 net.cpp:380] conv1_1 -> conv1_1
I1214 16:18:46.799049  6227 net.cpp:122] Setting up conv1_1
I1214 16:18:46.799088  6227 net.cpp:129] Top shape: 1 64 66 139 (587136)
I1214 16:18:46.799093  6227 net.cpp:137] Memory required for data: 2387664
I1214 16:18:46.799110  6227 layer_factory.hpp:77] Creating layer relu1_1
I1214 16:18:46.799123  6227 net.cpp:84] Creating Layer relu1_1
I1214 16:18:46.799129  6227 net.cpp:406] relu1_1 <- conv1_1
I1214 16:18:46.799136  6227 net.cpp:367] relu1_1 -> conv1_1 (in-place)
I1214 16:18:46.799623  6227 net.cpp:122] Setting up relu1_1
I1214 16:18:46.799638  6227 net.cpp:129] Top shape: 1 64 66 139 (587136)
I1214 16:18:46.799641  6227 net.cpp:137] Memory required for data: 4736208
I1214 16:18:46.799645  6227 layer_factory.hpp:77] Creating layer conv1_2
I1214 16:18:46.799664  6227 net.cpp:84] Creating Layer conv1_2
I1214 16:18:46.799667  6227 net.cpp:406] conv1_2 <- conv1_1
I1214 16:18:46.799676  6227 net.cpp:380] conv1_2 -> conv1_2
I1214 16:18:46.803344  6227 net.cpp:122] Setting up conv1_2
I1214 16:18:46.803380  6227 net.cpp:129] Top shape: 1 64 66 139 (587136)
I1214 16:18:46.803385  6227 net.cpp:137] Memory required for data: 7084752
I1214 16:18:46.803402  6227 layer_factory.hpp:77] Creating layer relu1_2
I1214 16:18:46.803416  6227 net.cpp:84] Creating Layer relu1_2
I1214 16:18:46.803421  6227 net.cpp:406] relu1_2 <- conv1_2
I1214 16:18:46.803431  6227 net.cpp:367] relu1_2 -> conv1_2 (in-place)
I1214 16:18:46.803678  6227 net.cpp:122] Setting up relu1_2
I1214 16:18:46.803689  6227 net.cpp:129] Top shape: 1 64 66 139 (587136)
I1214 16:18:46.803692  6227 net.cpp:137] Memory required for data: 9433296
I1214 16:18:46.803696  6227 layer_factory.hpp:77] Creating layer pool1
I1214 16:18:46.803705  6227 net.cpp:84] Creating Layer pool1
I1214 16:18:46.803710  6227 net.cpp:406] pool1 <- conv1_2
I1214 16:18:46.803716  6227 net.cpp:380] pool1 -> pool1
I1214 16:18:46.803838  6227 net.cpp:122] Setting up pool1
I1214 16:18:46.803848  6227 net.cpp:129] Top shape: 1 64 33 70 (147840)
I1214 16:18:46.803853  6227 net.cpp:137] Memory required for data: 10024656
I1214 16:18:46.803856  6227 layer_factory.hpp:77] Creating layer conv2_1
I1214 16:18:46.803870  6227 net.cpp:84] Creating Layer conv2_1
I1214 16:18:46.803875  6227 net.cpp:406] conv2_1 <- pool1
I1214 16:18:46.803884  6227 net.cpp:380] conv2_1 -> conv2_1
I1214 16:18:46.817955  6227 net.cpp:122] Setting up conv2_1
I1214 16:18:46.817992  6227 net.cpp:129] Top shape: 1 128 33 70 (295680)
I1214 16:18:46.817997  6227 net.cpp:137] Memory required for data: 11207376
I1214 16:18:46.818013  6227 layer_factory.hpp:77] Creating layer relu2_1
I1214 16:18:46.818029  6227 net.cpp:84] Creating Layer relu2_1
I1214 16:18:46.818035  6227 net.cpp:406] relu2_1 <- conv2_1
I1214 16:18:46.818044  6227 net.cpp:367] relu2_1 -> conv2_1 (in-place)
I1214 16:18:46.818518  6227 net.cpp:122] Setting up relu2_1
I1214 16:18:46.818531  6227 net.cpp:129] Top shape: 1 128 33 70 (295680)
I1214 16:18:46.818536  6227 net.cpp:137] Memory required for data: 12390096
I1214 16:18:46.818541  6227 layer_factory.hpp:77] Creating layer conv2_2
I1214 16:18:46.818562  6227 net.cpp:84] Creating Layer conv2_2
I1214 16:18:46.818567  6227 net.cpp:406] conv2_2 <- conv2_1
I1214 16:18:46.818575  6227 net.cpp:380] conv2_2 -> conv2_2
I1214 16:18:46.826222  6227 net.cpp:122] Setting up conv2_2
I1214 16:18:46.826256  6227 net.cpp:129] Top shape: 1 128 33 70 (295680)
I1214 16:18:46.826261  6227 net.cpp:137] Memory required for data: 13572816
I1214 16:18:46.826273  6227 layer_factory.hpp:77] Creating layer relu2_2
I1214 16:18:46.826287  6227 net.cpp:84] Creating Layer relu2_2
I1214 16:18:46.826292  6227 net.cpp:406] relu2_2 <- conv2_2
I1214 16:18:46.826303  6227 net.cpp:367] relu2_2 -> conv2_2 (in-place)
I1214 16:18:46.826551  6227 net.cpp:122] Setting up relu2_2
I1214 16:18:46.826561  6227 net.cpp:129] Top shape: 1 128 33 70 (295680)
I1214 16:18:46.826566  6227 net.cpp:137] Memory required for data: 14755536
I1214 16:18:46.826570  6227 layer_factory.hpp:77] Creating layer pool2
I1214 16:18:46.826581  6227 net.cpp:84] Creating Layer pool2
I1214 16:18:46.826586  6227 net.cpp:406] pool2 <- conv2_2
I1214 16:18:46.826591  6227 net.cpp:380] pool2 -> pool2
I1214 16:18:46.826686  6227 net.cpp:122] Setting up pool2
I1214 16:18:46.826694  6227 net.cpp:129] Top shape: 1 128 17 35 (76160)
I1214 16:18:46.826699  6227 net.cpp:137] Memory required for data: 15060176
I1214 16:18:46.826702  6227 layer_factory.hpp:77] Creating layer conv3_1
I1214 16:18:46.826716  6227 net.cpp:84] Creating Layer conv3_1
I1214 16:18:46.826720  6227 net.cpp:406] conv3_1 <- pool2
I1214 16:18:46.826728  6227 net.cpp:380] conv3_1 -> conv3_1
I1214 16:18:46.840574  6227 net.cpp:122] Setting up conv3_1
I1214 16:18:46.840610  6227 net.cpp:129] Top shape: 1 256 17 35 (152320)
I1214 16:18:46.840615  6227 net.cpp:137] Memory required for data: 15669456
I1214 16:18:46.840631  6227 layer_factory.hpp:77] Creating layer relu3_1
I1214 16:18:46.840643  6227 net.cpp:84] Creating Layer relu3_1
I1214 16:18:46.840648  6227 net.cpp:406] relu3_1 <- conv3_1
I1214 16:18:46.840656  6227 net.cpp:367] relu3_1 -> conv3_1 (in-place)
I1214 16:18:46.841096  6227 net.cpp:122] Setting up relu3_1
I1214 16:18:46.841109  6227 net.cpp:129] Top shape: 1 256 17 35 (152320)
I1214 16:18:46.841114  6227 net.cpp:137] Memory required for data: 16278736
I1214 16:18:46.841118  6227 layer_factory.hpp:77] Creating layer conv3_2
I1214 16:18:46.841133  6227 net.cpp:84] Creating Layer conv3_2
I1214 16:18:46.841138  6227 net.cpp:406] conv3_2 <- conv3_1
I1214 16:18:46.841145  6227 net.cpp:380] conv3_2 -> conv3_2
I1214 16:18:46.873167  6227 net.cpp:122] Setting up conv3_2
I1214 16:18:46.873214  6227 net.cpp:129] Top shape: 1 256 17 35 (152320)
I1214 16:18:46.873224  6227 net.cpp:137] Memory required for data: 16888016
I1214 16:18:46.873239  6227 layer_factory.hpp:77] Creating layer relu3_2
I1214 16:18:46.873258  6227 net.cpp:84] Creating Layer relu3_2
I1214 16:18:46.873268  6227 net.cpp:406] relu3_2 <- conv3_2
I1214 16:18:46.873281  6227 net.cpp:367] relu3_2 -> conv3_2 (in-place)
I1214 16:18:46.873973  6227 net.cpp:122] Setting up relu3_2
I1214 16:18:46.873998  6227 net.cpp:129] Top shape: 1 256 17 35 (152320)
I1214 16:18:46.874004  6227 net.cpp:137] Memory required for data: 17497296
I1214 16:18:46.874011  6227 layer_factory.hpp:77] Creating layer conv3_3
I1214 16:18:46.874037  6227 net.cpp:84] Creating Layer conv3_3
I1214 16:18:46.874045  6227 net.cpp:406] conv3_3 <- conv3_2
I1214 16:18:46.874054  6227 net.cpp:380] conv3_3 -> conv3_3
I1214 16:18:46.901690  6227 net.cpp:122] Setting up conv3_3
I1214 16:18:46.901729  6227 net.cpp:129] Top shape: 1 256 17 35 (152320)
I1214 16:18:46.901734  6227 net.cpp:137] Memory required for data: 18106576
I1214 16:18:46.901748  6227 layer_factory.hpp:77] Creating layer relu3_3
I1214 16:18:46.901762  6227 net.cpp:84] Creating Layer relu3_3
I1214 16:18:46.901768  6227 net.cpp:406] relu3_3 <- conv3_3
I1214 16:18:46.901780  6227 net.cpp:367] relu3_3 -> conv3_3 (in-place)
I1214 16:18:46.902040  6227 net.cpp:122] Setting up relu3_3
I1214 16:18:46.902050  6227 net.cpp:129] Top shape: 1 256 17 35 (152320)
I1214 16:18:46.902053  6227 net.cpp:137] Memory required for data: 18715856
I1214 16:18:46.902062  6227 layer_factory.hpp:77] Creating layer conv3_4
I1214 16:18:46.902077  6227 net.cpp:84] Creating Layer conv3_4
I1214 16:18:46.902082  6227 net.cpp:406] conv3_4 <- conv3_3
I1214 16:18:46.902091  6227 net.cpp:380] conv3_4 -> conv3_4
I1214 16:18:46.928357  6227 net.cpp:122] Setting up conv3_4
I1214 16:18:46.928392  6227 net.cpp:129] Top shape: 1 256 17 35 (152320)
I1214 16:18:46.928398  6227 net.cpp:137] Memory required for data: 19325136
I1214 16:18:46.928412  6227 layer_factory.hpp:77] Creating layer relu3_4
I1214 16:18:46.928426  6227 net.cpp:84] Creating Layer relu3_4
I1214 16:18:46.928431  6227 net.cpp:406] relu3_4 <- conv3_4
I1214 16:18:46.928442  6227 net.cpp:367] relu3_4 -> conv3_4 (in-place)
I1214 16:18:46.928923  6227 net.cpp:122] Setting up relu3_4
I1214 16:18:46.928937  6227 net.cpp:129] Top shape: 1 256 17 35 (152320)
I1214 16:18:46.928941  6227 net.cpp:137] Memory required for data: 19934416
I1214 16:18:46.928946  6227 layer_factory.hpp:77] Creating layer conv3_5
I1214 16:18:46.928961  6227 net.cpp:84] Creating Layer conv3_5
I1214 16:18:46.928966  6227 net.cpp:406] conv3_5 <- conv3_4
I1214 16:18:46.928974  6227 net.cpp:380] conv3_5 -> conv3_5
I1214 16:18:46.954704  6227 net.cpp:122] Setting up conv3_5
I1214 16:18:46.954744  6227 net.cpp:129] Top shape: 1 256 17 35 (152320)
I1214 16:18:46.954749  6227 net.cpp:137] Memory required for data: 20543696
I1214 16:18:46.954766  6227 layer_factory.hpp:77] Creating layer relu3_5
I1214 16:18:46.954783  6227 net.cpp:84] Creating Layer relu3_5
I1214 16:18:46.954789  6227 net.cpp:406] relu3_5 <- conv3_5
I1214 16:18:46.954797  6227 net.cpp:367] relu3_5 -> conv3_5 (in-place)
I1214 16:18:46.955062  6227 net.cpp:122] Setting up relu3_5
I1214 16:18:46.955073  6227 net.cpp:129] Top shape: 1 256 17 35 (152320)
I1214 16:18:46.955077  6227 net.cpp:137] Memory required for data: 21152976
I1214 16:18:46.955081  6227 layer_factory.hpp:77] Creating layer conv3_6
I1214 16:18:46.955096  6227 net.cpp:84] Creating Layer conv3_6
I1214 16:18:46.955099  6227 net.cpp:406] conv3_6 <- conv3_5
I1214 16:18:46.955106  6227 net.cpp:380] conv3_6 -> conv3_6
I1214 16:18:46.981019  6227 net.cpp:122] Setting up conv3_6
I1214 16:18:46.981056  6227 net.cpp:129] Top shape: 1 256 17 35 (152320)
I1214 16:18:46.981061  6227 net.cpp:137] Memory required for data: 21762256
I1214 16:18:46.981075  6227 layer_factory.hpp:77] Creating layer relu3_6
I1214 16:18:46.981087  6227 net.cpp:84] Creating Layer relu3_6
I1214 16:18:46.981093  6227 net.cpp:406] relu3_6 <- conv3_6
I1214 16:18:46.981102  6227 net.cpp:367] relu3_6 -> conv3_6 (in-place)
I1214 16:18:46.981561  6227 net.cpp:122] Setting up relu3_6
I1214 16:18:46.981575  6227 net.cpp:129] Top shape: 1 256 17 35 (152320)
I1214 16:18:46.981580  6227 net.cpp:137] Memory required for data: 22371536
I1214 16:18:46.981583  6227 layer_factory.hpp:77] Creating layer conv4_1
I1214 16:18:46.981600  6227 net.cpp:84] Creating Layer conv4_1
I1214 16:18:46.981604  6227 net.cpp:406] conv4_1 <- conv3_6
I1214 16:18:46.981612  6227 net.cpp:380] conv4_1 -> conv4_1
I1214 16:18:47.094403  6227 net.cpp:122] Setting up conv4_1
I1214 16:18:47.094444  6227 net.cpp:129] Top shape: 1 512 17 35 (304640)
I1214 16:18:47.094449  6227 net.cpp:137] Memory required for data: 23590096
I1214 16:18:47.094463  6227 layer_factory.hpp:77] Creating layer relu4_1
I1214 16:18:47.094480  6227 net.cpp:84] Creating Layer relu4_1
I1214 16:18:47.094485  6227 net.cpp:406] relu4_1 <- conv4_1
I1214 16:18:47.094493  6227 net.cpp:367] relu4_1 -> conv4_1 (in-place)
I1214 16:18:47.095070  6227 net.cpp:122] Setting up relu4_1
I1214 16:18:47.095093  6227 net.cpp:129] Top shape: 1 512 17 35 (304640)
I1214 16:18:47.095098  6227 net.cpp:137] Memory required for data: 24808656
I1214 16:18:47.095103  6227 layer_factory.hpp:77] Creating layer conv4_2
I1214 16:18:47.095122  6227 net.cpp:84] Creating Layer conv4_2
I1214 16:18:47.095129  6227 net.cpp:406] conv4_2 <- conv4_1
I1214 16:18:47.095139  6227 net.cpp:380] conv4_2 -> conv4_2
I1214 16:18:47.276535  6227 net.cpp:122] Setting up conv4_2
I1214 16:18:47.276585  6227 net.cpp:129] Top shape: 1 512 17 35 (304640)
I1214 16:18:47.276590  6227 net.cpp:137] Memory required for data: 26027216
I1214 16:18:47.276605  6227 layer_factory.hpp:77] Creating layer relu4_2
I1214 16:18:47.276620  6227 net.cpp:84] Creating Layer relu4_2
I1214 16:18:47.276626  6227 net.cpp:406] relu4_2 <- conv4_2
I1214 16:18:47.276638  6227 net.cpp:367] relu4_2 -> conv4_2 (in-place)
I1214 16:18:47.277000  6227 net.cpp:122] Setting up relu4_2
I1214 16:18:47.277019  6227 net.cpp:129] Top shape: 1 512 17 35 (304640)
I1214 16:18:47.277022  6227 net.cpp:137] Memory required for data: 27245776
I1214 16:18:47.277027  6227 layer_factory.hpp:77] Creating layer conv4_3
I1214 16:18:47.277043  6227 net.cpp:84] Creating Layer conv4_3
I1214 16:18:47.277048  6227 net.cpp:406] conv4_3 <- conv4_2
I1214 16:18:47.277057  6227 net.cpp:380] conv4_3 -> conv4_3
I1214 16:18:47.483940  6227 net.cpp:122] Setting up conv4_3
I1214 16:18:47.483980  6227 net.cpp:129] Top shape: 1 512 17 35 (304640)
I1214 16:18:47.483985  6227 net.cpp:137] Memory required for data: 28464336
I1214 16:18:47.483999  6227 layer_factory.hpp:77] Creating layer relu4_3
I1214 16:18:47.484011  6227 net.cpp:84] Creating Layer relu4_3
I1214 16:18:47.484017  6227 net.cpp:406] relu4_3 <- conv4_3
I1214 16:18:47.484025  6227 net.cpp:367] relu4_3 -> conv4_3 (in-place)
I1214 16:18:47.484663  6227 net.cpp:122] Setting up relu4_3
I1214 16:18:47.484693  6227 net.cpp:129] Top shape: 1 512 17 35 (304640)
I1214 16:18:47.484696  6227 net.cpp:137] Memory required for data: 29682896
I1214 16:18:47.484702  6227 layer_factory.hpp:77] Creating layer tpp5
I1214 16:18:47.484714  6227 net.cpp:84] Creating Layer tpp5
I1214 16:18:47.484719  6227 net.cpp:406] tpp5 <- conv4_3
I1214 16:18:47.484730  6227 net.cpp:380] tpp5 -> tpp5
I1214 16:18:47.485852  6227 net.cpp:122] Setting up tpp5
I1214 16:18:47.485879  6227 net.cpp:129] Top shape: 1 7680 (7680)
I1214 16:18:47.485884  6227 net.cpp:137] Memory required for data: 29713616
I1214 16:18:47.485889  6227 layer_factory.hpp:77] Creating layer reshape
I1214 16:18:47.485901  6227 net.cpp:84] Creating Layer reshape
I1214 16:18:47.485908  6227 net.cpp:406] reshape <- tpp5
I1214 16:18:47.485915  6227 net.cpp:380] reshape -> reshape
I1214 16:18:47.485975  6227 net.cpp:122] Setting up reshape
I1214 16:18:47.485983  6227 net.cpp:129] Top shape: 1 3840 2 1 (7680)
I1214 16:18:47.485987  6227 net.cpp:137] Memory required for data: 29744336
I1214 16:18:47.485991  6227 layer_factory.hpp:77] Creating layer premax
I1214 16:18:47.486002  6227 net.cpp:84] Creating Layer premax
I1214 16:18:47.486007  6227 net.cpp:406] premax <- reshape
I1214 16:18:47.486016  6227 net.cpp:380] premax -> premax
I1214 16:18:47.486285  6227 net.cpp:122] Setting up premax
I1214 16:18:47.486295  6227 net.cpp:129] Top shape: 1 3840 2 1 (7680)
I1214 16:18:47.486299  6227 net.cpp:137] Memory required for data: 29775056
I1214 16:18:47.486306  6227 layer_factory.hpp:77] Creating layer maxout
I1214 16:18:47.486315  6227 net.cpp:84] Creating Layer maxout
I1214 16:18:47.486318  6227 net.cpp:406] maxout <- premax
I1214 16:18:47.486325  6227 net.cpp:380] maxout -> maxout
I1214 16:18:47.486405  6227 net.cpp:122] Setting up maxout
I1214 16:18:47.486414  6227 net.cpp:129] Top shape: 1 3840 1 1 (3840)
I1214 16:18:47.486418  6227 net.cpp:137] Memory required for data: 29790416
I1214 16:18:47.486423  6227 layer_factory.hpp:77] Creating layer fc6
I1214 16:18:47.486431  6227 net.cpp:84] Creating Layer fc6
I1214 16:18:47.486435  6227 net.cpp:406] fc6 <- maxout
I1214 16:18:47.486443  6227 net.cpp:380] fc6 -> fc6
I1214 16:18:48.997297  6227 net.cpp:122] Setting up fc6
I1214 16:18:48.997340  6227 net.cpp:129] Top shape: 1 4096 (4096)
I1214 16:18:48.997346  6227 net.cpp:137] Memory required for data: 29806800
I1214 16:18:48.997359  6227 layer_factory.hpp:77] Creating layer relu6
I1214 16:18:48.997373  6227 net.cpp:84] Creating Layer relu6
I1214 16:18:48.997380  6227 net.cpp:406] relu6 <- fc6
I1214 16:18:48.997398  6227 net.cpp:367] relu6 -> fc6 (in-place)
I1214 16:18:48.997756  6227 net.cpp:122] Setting up relu6
I1214 16:18:48.997772  6227 net.cpp:129] Top shape: 1 4096 (4096)
I1214 16:18:48.997777  6227 net.cpp:137] Memory required for data: 29823184
I1214 16:18:48.997782  6227 layer_factory.hpp:77] Creating layer fc7
I1214 16:18:48.997795  6227 net.cpp:84] Creating Layer fc7
I1214 16:18:48.997802  6227 net.cpp:406] fc7 <- fc6
I1214 16:18:48.997809  6227 net.cpp:380] fc7 -> fc7
I1214 16:18:51.197484  6227 net.cpp:122] Setting up fc7
I1214 16:18:51.197530  6227 net.cpp:129] Top shape: 1 4096 (4096)
I1214 16:18:51.197535  6227 net.cpp:137] Memory required for data: 29839568
I1214 16:18:51.197548  6227 layer_factory.hpp:77] Creating layer relu7
I1214 16:18:51.197561  6227 net.cpp:84] Creating Layer relu7
I1214 16:18:51.197566  6227 net.cpp:406] relu7 <- fc7
I1214 16:18:51.197576  6227 net.cpp:367] relu7 -> fc7 (in-place)
I1214 16:18:51.198236  6227 net.cpp:122] Setting up relu7
I1214 16:18:51.198258  6227 net.cpp:129] Top shape: 1 4096 (4096)
I1214 16:18:51.198262  6227 net.cpp:137] Memory required for data: 29855952
I1214 16:18:51.198268  6227 layer_factory.hpp:77] Creating layer fc8
I1214 16:18:51.198282  6227 net.cpp:84] Creating Layer fc8
I1214 16:18:51.198287  6227 net.cpp:406] fc8 <- fc7
I1214 16:18:51.198297  6227 net.cpp:380] fc8 -> fc8
I1214 16:18:51.463408  6227 net.cpp:122] Setting up fc8
I1214 16:18:51.463450  6227 net.cpp:129] Top shape: 1 604 (604)
I1214 16:18:51.463455  6227 net.cpp:137] Memory required for data: 29858368
I1214 16:18:51.463472  6227 layer_factory.hpp:77] Creating layer fc8_fc8_0_split
I1214 16:18:51.463485  6227 net.cpp:84] Creating Layer fc8_fc8_0_split
I1214 16:18:51.463491  6227 net.cpp:406] fc8_fc8_0_split <- fc8
I1214 16:18:51.463500  6227 net.cpp:380] fc8_fc8_0_split -> fc8_fc8_0_split_0
I1214 16:18:51.463512  6227 net.cpp:380] fc8_fc8_0_split -> fc8_fc8_0_split_1
I1214 16:18:51.463615  6227 net.cpp:122] Setting up fc8_fc8_0_split
I1214 16:18:51.463626  6227 net.cpp:129] Top shape: 1 604 (604)
I1214 16:18:51.463632  6227 net.cpp:129] Top shape: 1 604 (604)
I1214 16:18:51.463636  6227 net.cpp:137] Memory required for data: 29863200
I1214 16:18:51.463640  6227 layer_factory.hpp:77] Creating layer sigmoid
I1214 16:18:51.463649  6227 net.cpp:84] Creating Layer sigmoid
I1214 16:18:51.463654  6227 net.cpp:406] sigmoid <- fc8_fc8_0_split_0
I1214 16:18:51.463660  6227 net.cpp:380] sigmoid -> sigmoid
I1214 16:18:51.464664  6227 net.cpp:122] Setting up sigmoid
I1214 16:18:51.464697  6227 net.cpp:129] Top shape: 1 604 (604)
I1214 16:18:51.464702  6227 net.cpp:137] Memory required for data: 29865616
I1214 16:18:51.464709  6227 layer_factory.hpp:77] Creating layer silence
I1214 16:18:51.464725  6227 net.cpp:84] Creating Layer silence
I1214 16:18:51.464731  6227 net.cpp:406] silence <- sigmoid
I1214 16:18:51.464740  6227 net.cpp:122] Setting up silence
I1214 16:18:51.464742  6227 net.cpp:137] Memory required for data: 29865616
…
