…
state {
  phase: TRAIN
}
layer {
  name: "word_images"
  type: "Data"
  top: "word_images"
  top: "label"
  transform_param {
    scale: -0.0039215689
    mean_value: 255
  }
  data_param {
    source: "/data/fwolf/min26/gw_cv1_nti500000_pul2-3-4-5_train_word_images_lmdb"
    batch_size: 1
    backend: LMDB
    prefetch: 20
  }
}
layer {
  name: "phocs"
  type: "Data"
  top: "phocs"
  top: "label_phocs"
  data_param {
    source: "/data/fwolf/min26/gw_cv1_nti500000_pul2-3-4-5_train_phocs_lmdb"
    batch_size: 1
    backend: LMDB
    prefetch: 20
  }
}
layer {
  name: "conv1_1"
  type: "Convolution"
  bottom: "word_images"
  top: "conv1_1"
  convolution_param {
    num_output: 64
    pad: 1
    kernel_size: 3
    stride: 1
    weight_filler {
      type: "msra"
    }
    bias_filler {
      type: "constant"
    }
    engine: CUDNN
  }
}
layer {
  name: "relu1_1"
  type: "ReLU"
  bottom: "conv1_1"
  top: "conv1_1"
}
layer {
  name: "conv1_2"
  type: "Convolution"
  bottom: "conv1_1"
  top: "conv1_2"
  convolution_param {
    num_output: 64
    pad: 1
    kernel_size: 3
    stride: 1
    weight_filler {
      type: "msra"
    }
    bias_filler {
      type: "constant"
    }
    engine: CUDNN
  }
}
layer {
  name: "relu1_2"
  type: "ReLU"
  bottom: "conv1_2"
  top: "conv1_2"
}
layer {
  name: "pool1"
  type: "Pooling"
  bottom: "conv1_2"
  top: "pool1"
  pooling_param {
    pool: MAX
    kernel_size: 2
    stride: 2
  }
}
layer {
  name: "conv2_1"
  type: "Convolution"
  bottom: "pool1"
  top: "conv2_1"
  convolution_param {
    num_output: 128
    pad: 1
    kernel_size: 3
    stride: 1
    weight_filler {
      type: "msra"
    }
    bias_filler {
      type: "constant"
    }
    engine: CUDNN
  }
}
layer {
  name: "relu2_1"
  type: "ReLU"
  bottom: "conv2_1"
  top: "conv2_1"
}
layer {
  name: "conv2_2"
  type: "Convolution"
  bottom: "conv2_1"
  top: "conv2_2"
  convolution_param {
    num_output: 128
    pad: 1
    kernel_size: 3
    stride: 1
    weight_filler {
      type: "msra"
    }
    bias_filler {
      type: "constant"
    }
    engine: CUDNN
  }
}
layer {
  name: "relu2_2"
  type: "ReLU"
  bottom: "conv2_2"
  top: "conv2_2"
}
layer {
  name: "pool2"
  type: "Pooling"
  bottom: "conv2_2"
  top: "pool2"
  pooling_param {
    pool: MAX
    kernel_size: 2
    stride: 2
  }
}
layer {
  name: "conv3_1"
  type: "Convolution"
  bottom: "pool2"
  top: "conv3_1"
  convolution_param {
    num_output: 256
    pad: 1
    kernel_size: 3
    stride: 1
    weight_filler {
      type: "msra"
    }
    bias_filler {
      type: "constant"
    }
    engine: CUDNN
  }
}
layer {
  name: "relu3_1"
  type: "ReLU"
  bottom: "conv3_1"
  top: "conv3_1"
}
layer {
  name: "conv3_2"
  type: "Convolution"
  bottom: "conv3_1"
  top: "conv3_2"
  convolution_param {
    num_output: 256
    pad: 1
    kernel_size: 3
    stride: 1
    weight_filler {
      type: "msra"
    }
    bias_filler {
      type: "constant"
    }
    engine: CUDNN
  }
}
layer {
  name: "relu3_2"
  type: "ReLU"
  bottom: "conv3_2"
  top: "conv3_2"
}
layer {
  name: "conv3_3"
  type: "Convolution"
  bottom: "conv3_2"
  top: "conv3_3"
  convolution_param {
    num_output: 256
    pad: 1
    kernel_size: 3
    stride: 1
    weight_filler {
      type: "msra"
    }
    bias_filler {
      type: "constant"
    }
    engine: CUDNN
  }
}
layer {
  name: "relu3_3"
  type: "ReLU"
  bottom: "conv3_3"
  top: "conv3_3"
}
layer {
  name: "conv3_4"
  type: "Convolution"
  bottom: "conv3_3"
  top: "conv3_4"
  convolution_param {
    num_output: 256
    pad: 1
    kernel_size: 3
    stride: 1
    weight_filler {
      type: "msra"
    }
    bias_filler {
      type: "constant"
    }
    engine: CUDNN
  }
}
layer {
  name: "relu3_4"
  type: "ReLU"
  bottom: "conv3_4"
  top: "conv3_4"
}
layer {
  name: "conv3_5"
  type: "Convolution"
  bottom: "conv3_4"
  top: "conv3_5"
  convolution_param {
    num_output: 256
    pad: 1
    kernel_size: 3
    stride: 1
    weight_filler {
      type: "msra"
    }
    bias_filler {
      type: "constant"
    }
    engine: CUDNN
  }
}
layer {
  name: "relu3_5"
  type: "ReLU"
  bottom: "conv3_5"
  top: "conv3_5"
}
layer {
  name: "conv3_6"
  type: "Convolution"
  bottom: "conv3_5"
  top: "conv3_6"
  convolution_param {
    num_output: 256
    pad: 1
    kernel_size: 3
    stride: 1
    weight_filler {
      type: "msra"
    }
    bias_filler {
      type: "constant"
    }
    engine: CUDNN
  }
}
layer {
  name: "relu3_6"
  type: "ReLU"
  bottom: "conv3_6"
  top: "conv3_6"
}
layer {
  name: "conv4_1"
  type: "Convolution"
  bottom: "conv3_6"
  top: "conv4_1"
  convolution_param {
    num_output: 512
    pad: 1
    kernel_size: 3
    stride: 1
    weight_filler {
      type: "msra"
    }
    bias_filler {
      type: "constant"
    }
    engine: CUDNN
  }
}
layer {
  name: "relu4_1"
  type: "ReLU"
  bottom: "conv4_1"
  top: "conv4_1"
}
layer {
  name: "conv4_2"
  type: "Convolution"
  bottom: "conv4_1"
  top: "conv4_2"
  convolution_param {
    num_output: 512
    pad: 1
    kernel_size: 3
    stride: 1
    weight_filler {
      type: "msra"
    }
    bias_filler {
      type: "constant"
    }
    engine: CUDNN
  }
}
layer {
  name: "relu4_2"
  type: "ReLU"
  bottom: "conv4_2"
  top: "conv4_2"
}
layer {
  name: "conv4_3"
  type: "Convolution"
  bottom: "conv4_2"
  top: "conv4_3"
  convolution_param {
    num_output: 512
    pad: 1
    kernel_size: 3
    stride: 1
    weight_filler {
      type: "msra"
    }
    bias_filler {
      type: "constant"
    }
    engine: CUDNN
  }
}
layer {
  name: "relu4_3"
  type: "ReLU"
  bottom: "conv4_3"
  top: "conv4_3"
}
layer {
  name: "tpp5"
  type: "TPP"
  bottom: "conv4_3"
  top: "tpp5"
  tpp_param {
    pyramid_layer: 1
    pyramid_layer: 2
    pyramid_layer: 3
    pyramid_layer: 4
    pyramid_layer: 5
    pool: MAX
    engine: CUDNN
  }
}
layer {
  name: "reshape"
  type: "Reshape"
  bottom: "tpp5"
  top: "reshape"
  reshape_param {
    shape {
      dim: 1
      dim: 960
      dim: 8
      dim: 1
    }
  }
}
layer {
  name: "premax"
  type: "Scale"
  bottom: "reshape"
  top: "premax"
  param {
    lr_mult: 0
    decay_mult: 0
  }
  scale_param {
    num_axes: 3
    filler {
      value: 1
    }
    bias_term: false
    bias_filler {
      value: 0
    }
  }
}
layer {
  name: "maxout"
  type: "Pooling"
  bottom: "premax"
  top: "maxout"
  pooling_param {
    pool: MAX
    global_pooling: true
  }
}
layer {
  name: "fc6"
  type: "InnerProduct"
  bottom: "maxout"
  top: "fc6"
  inner_product_param {
    num_output: 4096
    weight_filler {
      type: "msra"
    }
    bias_filler {
      type: "constant"
    }
  }
}
layer {
  name: "relu6"
  type: "ReLU"
  bottom: "fc6"
  top: "fc6"
}
layer {
  name: "drop6"
  type: "Dropout"
  bottom: "fc6"
  top: "fc6"
  include {
    phase: TRAIN
  }
  dropout_param {
    dropout_ratio: 0.5
  }
}
layer {
  name: "fc7"
  type: "InnerProduct"
  bottom: "fc6"
  top: "fc7"
  inner_product_param {
    num_output: 4096
    weight_filler {
      type: "msra"
    }
    bias_filler {
      type: "constant"
    }
  }
}
layer {
  name: "relu7"
  type: "ReLU"
  bottom: "fc7"
  top: "fc7"
}
layer {
  name: "drop7"
  type: "Dropout"
  bottom: "fc7"
  top: "fc7"
  include {
    phase: TRAIN
  }
  dropout_param {
    dropout_ratio: 0.5
  }
}
layer {
  name: "fc8"
  type: "InnerProduct"
  bottom: "fc7"
  top: "fc8"
  inner_product_param {
    num_output: 604
    weight_filler {
      type: "msra"
    }
    bias_filler {
      type: "constant"
    }
  }
}
layer {
  name: "loss"
  type: "SigmoidCrossEntropyLoss"
  bottom: "fc8"
  bottom: "phocs"
  top: "loss"
}
I1226 16:31:52.638931 11413 layer_factory.hpp:77] Creating layer word_images
I1226 16:31:52.639045 11413 db_lmdb.cpp:35] Opened lmdb /data/fwolf/min26/gw_cv1_nti500000_pul2-3-4-5_train_word_images_lmdb
I1226 16:31:52.639089 11413 net.cpp:84] Creating Layer word_images
I1226 16:31:52.639101 11413 net.cpp:380] word_images -> word_images
I1226 16:31:52.639119 11413 net.cpp:380] word_images -> label
I1226 16:31:52.641036 11413 data_layer.cpp:44] output data size: 1,1,108,244
I1226 16:31:52.649418 11413 net.cpp:122] Setting up word_images
I1226 16:31:52.649446 11413 net.cpp:129] Top shape: 1 1 108 244 (26352)
I1226 16:31:52.649456 11413 net.cpp:129] Top shape: 1 (1)
I1226 16:31:52.649461 11413 net.cpp:137] Memory required for data: 105412
I1226 16:31:52.649469 11413 layer_factory.hpp:77] Creating layer phocs
I1226 16:31:52.649560 11413 db_lmdb.cpp:35] Opened lmdb /data/fwolf/min26/gw_cv1_nti500000_pul2-3-4-5_train_phocs_lmdb
I1226 16:31:52.649591 11413 net.cpp:84] Creating Layer phocs
I1226 16:31:52.649603 11413 net.cpp:380] phocs -> phocs
I1226 16:31:52.649619 11413 net.cpp:380] phocs -> label_phocs
I1226 16:31:52.650449 11413 data_layer.cpp:44] output data size: 1,1,1,604
I1226 16:31:52.655581 11413 net.cpp:122] Setting up phocs
I1226 16:31:52.655607 11413 net.cpp:129] Top shape: 1 1 1 604 (604)
I1226 16:31:52.655616 11413 net.cpp:129] Top shape: 1 (1)
I1226 16:31:52.655622 11413 net.cpp:137] Memory required for data: 107832
I1226 16:31:52.655630 11413 layer_factory.hpp:77] Creating layer conv1_1
I1226 16:31:52.655654 11413 net.cpp:84] Creating Layer conv1_1
I1226 16:31:52.655661 11413 net.cpp:406] conv1_1 <- word_images
I1226 16:31:52.655673 11413 net.cpp:380] conv1_1 -> conv1_1
I1226 16:31:53.153790 11413 net.cpp:122] Setting up conv1_1
I1226 16:31:53.153820 11413 net.cpp:129] Top shape: 1 64 108 244 (1686528)
I1226 16:31:53.153822 11413 net.cpp:137] Memory required for data: 6853944
I1226 16:31:53.153836 11413 layer_factory.hpp:77] Creating layer relu1_1
I1226 16:31:53.153844 11413 net.cpp:84] Creating Layer relu1_1
I1226 16:31:53.153847 11413 net.cpp:406] relu1_1 <- conv1_1
I1226 16:31:53.153852 11413 net.cpp:367] relu1_1 -> conv1_1 (in-place)
I1226 16:31:53.154170 11413 net.cpp:122] Setting up relu1_1
I1226 16:31:53.154180 11413 net.cpp:129] Top shape: 1 64 108 244 (1686528)
I1226 16:31:53.154182 11413 net.cpp:137] Memory required for data: 13600056
I1226 16:31:53.154186 11413 layer_factory.hpp:77] Creating layer conv1_2
I1226 16:31:53.154196 11413 net.cpp:84] Creating Layer conv1_2
I1226 16:31:53.154199 11413 net.cpp:406] conv1_2 <- conv1_1
I1226 16:31:53.154204 11413 net.cpp:380] conv1_2 -> conv1_2
I1226 16:31:53.156400 11413 net.cpp:122] Setting up conv1_2
I1226 16:31:53.156411 11413 net.cpp:129] Top shape: 1 64 108 244 (1686528)
I1226 16:31:53.156414 11413 net.cpp:137] Memory required for data: 20346168
I1226 16:31:53.156421 11413 layer_factory.hpp:77] Creating layer relu1_2
I1226 16:31:53.156427 11413 net.cpp:84] Creating Layer relu1_2
I1226 16:31:53.156430 11413 net.cpp:406] relu1_2 <- conv1_2
I1226 16:31:53.156435 11413 net.cpp:367] relu1_2 -> conv1_2 (in-place)
I1226 16:31:53.156594 11413 net.cpp:122] Setting up relu1_2
I1226 16:31:53.156601 11413 net.cpp:129] Top shape: 1 64 108 244 (1686528)
I1226 16:31:53.156603 11413 net.cpp:137] Memory required for data: 27092280
I1226 16:31:53.156606 11413 layer_factory.hpp:77] Creating layer pool1
I1226 16:31:53.156612 11413 net.cpp:84] Creating Layer pool1
I1226 16:31:53.156615 11413 net.cpp:406] pool1 <- conv1_2
I1226 16:31:53.156623 11413 net.cpp:380] pool1 -> pool1
I1226 16:31:53.156677 11413 net.cpp:122] Setting up pool1
I1226 16:31:53.156683 11413 net.cpp:129] Top shape: 1 64 54 122 (421632)
I1226 16:31:53.156685 11413 net.cpp:137] Memory required for data: 28778808
I1226 16:31:53.156688 11413 layer_factory.hpp:77] Creating layer conv2_1
I1226 16:31:53.156695 11413 net.cpp:84] Creating Layer conv2_1
I1226 16:31:53.156698 11413 net.cpp:406] conv2_1 <- pool1
I1226 16:31:53.156702 11413 net.cpp:380] conv2_1 -> conv2_1
I1226 16:31:53.160872 11413 net.cpp:122] Setting up conv2_1
I1226 16:31:53.160883 11413 net.cpp:129] Top shape: 1 128 54 122 (843264)
I1226 16:31:53.160887 11413 net.cpp:137] Memory required for data: 32151864
I1226 16:31:53.160894 11413 layer_factory.hpp:77] Creating layer relu2_1
I1226 16:31:53.160900 11413 net.cpp:84] Creating Layer relu2_1
I1226 16:31:53.160903 11413 net.cpp:406] relu2_1 <- conv2_1
I1226 16:31:53.160907 11413 net.cpp:367] relu2_1 -> conv2_1 (in-place)
I1226 16:31:53.161238 11413 net.cpp:122] Setting up relu2_1
I1226 16:31:53.161249 11413 net.cpp:129] Top shape: 1 128 54 122 (843264)
I1226 16:31:53.161252 11413 net.cpp:137] Memory required for data: 35524920
I1226 16:31:53.161255 11413 layer_factory.hpp:77] Creating layer conv2_2
I1226 16:31:53.161263 11413 net.cpp:84] Creating Layer conv2_2
I1226 16:31:53.161267 11413 net.cpp:406] conv2_2 <- conv2_1
I1226 16:31:53.161272 11413 net.cpp:380] conv2_2 -> conv2_2
I1226 16:31:53.166178 11413 net.cpp:122] Setting up conv2_2
I1226 16:31:53.166189 11413 net.cpp:129] Top shape: 1 128 54 122 (843264)
I1226 16:31:53.166193 11413 net.cpp:137] Memory required for data: 38897976
I1226 16:31:53.166198 11413 layer_factory.hpp:77] Creating layer relu2_2
I1226 16:31:53.166205 11413 net.cpp:84] Creating Layer relu2_2
I1226 16:31:53.166208 11413 net.cpp:406] relu2_2 <- conv2_2
I1226 16:31:53.166213 11413 net.cpp:367] relu2_2 -> conv2_2 (in-place)
I1226 16:31:53.166380 11413 net.cpp:122] Setting up relu2_2
I1226 16:31:53.166388 11413 net.cpp:129] Top shape: 1 128 54 122 (843264)
I1226 16:31:53.166389 11413 net.cpp:137] Memory required for data: 42271032
I1226 16:31:53.166393 11413 layer_factory.hpp:77] Creating layer pool2
I1226 16:31:53.166399 11413 net.cpp:84] Creating Layer pool2
I1226 16:31:53.166401 11413 net.cpp:406] pool2 <- conv2_2
I1226 16:31:53.166406 11413 net.cpp:380] pool2 -> pool2
I1226 16:31:53.166465 11413 net.cpp:122] Setting up pool2
I1226 16:31:53.166469 11413 net.cpp:129] Top shape: 1 128 27 61 (210816)
I1226 16:31:53.166472 11413 net.cpp:137] Memory required for data: 43114296
I1226 16:31:53.166474 11413 layer_factory.hpp:77] Creating layer conv3_1
I1226 16:31:53.166486 11413 net.cpp:84] Creating Layer conv3_1
I1226 16:31:53.166487 11413 net.cpp:406] conv3_1 <- pool2
I1226 16:31:53.166492 11413 net.cpp:380] conv3_1 -> conv3_1
I1226 16:31:53.176044 11413 net.cpp:122] Setting up conv3_1
I1226 16:31:53.176056 11413 net.cpp:129] Top shape: 1 256 27 61 (421632)
I1226 16:31:53.176059 11413 net.cpp:137] Memory required for data: 44800824
I1226 16:31:53.176067 11413 layer_factory.hpp:77] Creating layer relu3_1
I1226 16:31:53.176074 11413 net.cpp:84] Creating Layer relu3_1
I1226 16:31:53.176076 11413 net.cpp:406] relu3_1 <- conv3_1
I1226 16:31:53.176082 11413 net.cpp:367] relu3_1 -> conv3_1 (in-place)
I1226 16:31:53.176416 11413 net.cpp:122] Setting up relu3_1
I1226 16:31:53.176426 11413 net.cpp:129] Top shape: 1 256 27 61 (421632)
I1226 16:31:53.176429 11413 net.cpp:137] Memory required for data: 46487352
I1226 16:31:53.176432 11413 layer_factory.hpp:77] Creating layer conv3_2
I1226 16:31:53.176441 11413 net.cpp:84] Creating Layer conv3_2
I1226 16:31:53.176445 11413 net.cpp:406] conv3_2 <- conv3_1
I1226 16:31:53.176450 11413 net.cpp:380] conv3_2 -> conv3_2
I1226 16:31:53.192914 11413 net.cpp:122] Setting up conv3_2
I1226 16:31:53.192924 11413 net.cpp:129] Top shape: 1 256 27 61 (421632)
I1226 16:31:53.192927 11413 net.cpp:137] Memory required for data: 48173880
I1226 16:31:53.192934 11413 layer_factory.hpp:77] Creating layer relu3_2
I1226 16:31:53.192939 11413 net.cpp:84] Creating Layer relu3_2
I1226 16:31:53.192945 11413 net.cpp:406] relu3_2 <- conv3_2
I1226 16:31:53.192951 11413 net.cpp:367] relu3_2 -> conv3_2 (in-place)
I1226 16:31:53.193284 11413 net.cpp:122] Setting up relu3_2
I1226 16:31:53.193294 11413 net.cpp:129] Top shape: 1 256 27 61 (421632)
I1226 16:31:53.193296 11413 net.cpp:137] Memory required for data: 49860408
I1226 16:31:53.193300 11413 layer_factory.hpp:77] Creating layer conv3_3
I1226 16:31:53.193308 11413 net.cpp:84] Creating Layer conv3_3
I1226 16:31:53.193312 11413 net.cpp:406] conv3_3 <- conv3_2
I1226 16:31:53.193317 11413 net.cpp:380] conv3_3 -> conv3_3
I1226 16:31:53.209810 11413 net.cpp:122] Setting up conv3_3
I1226 16:31:53.209822 11413 net.cpp:129] Top shape: 1 256 27 61 (421632)
I1226 16:31:53.209825 11413 net.cpp:137] Memory required for data: 51546936
I1226 16:31:53.209833 11413 layer_factory.hpp:77] Creating layer relu3_3
I1226 16:31:53.209838 11413 net.cpp:84] Creating Layer relu3_3
I1226 16:31:53.209842 11413 net.cpp:406] relu3_3 <- conv3_3
I1226 16:31:53.209846 11413 net.cpp:367] relu3_3 -> conv3_3 (in-place)
I1226 16:31:53.210021 11413 net.cpp:122] Setting up relu3_3
I1226 16:31:53.210029 11413 net.cpp:129] Top shape: 1 256 27 61 (421632)
I1226 16:31:53.210032 11413 net.cpp:137] Memory required for data: 53233464
I1226 16:31:53.210036 11413 layer_factory.hpp:77] Creating layer conv3_4
I1226 16:31:53.210044 11413 net.cpp:84] Creating Layer conv3_4
I1226 16:31:53.210047 11413 net.cpp:406] conv3_4 <- conv3_3
I1226 16:31:53.210052 11413 net.cpp:380] conv3_4 -> conv3_4
I1226 16:31:53.226667 11413 net.cpp:122] Setting up conv3_4
I1226 16:31:53.226680 11413 net.cpp:129] Top shape: 1 256 27 61 (421632)
I1226 16:31:53.226682 11413 net.cpp:137] Memory required for data: 54919992
I1226 16:31:53.226687 11413 layer_factory.hpp:77] Creating layer relu3_4
I1226 16:31:53.226693 11413 net.cpp:84] Creating Layer relu3_4
I1226 16:31:53.226696 11413 net.cpp:406] relu3_4 <- conv3_4
I1226 16:31:53.226701 11413 net.cpp:367] relu3_4 -> conv3_4 (in-place)
I1226 16:31:53.227038 11413 net.cpp:122] Setting up relu3_4
I1226 16:31:53.227047 11413 net.cpp:129] Top shape: 1 256 27 61 (421632)
I1226 16:31:53.227051 11413 net.cpp:137] Memory required for data: 56606520
I1226 16:31:53.227053 11413 layer_factory.hpp:77] Creating layer conv3_5
I1226 16:31:53.227062 11413 net.cpp:84] Creating Layer conv3_5
I1226 16:31:53.227066 11413 net.cpp:406] conv3_5 <- conv3_4
I1226 16:31:53.227072 11413 net.cpp:380] conv3_5 -> conv3_5
I1226 16:31:53.243556 11413 net.cpp:122] Setting up conv3_5
I1226 16:31:53.243568 11413 net.cpp:129] Top shape: 1 256 27 61 (421632)
I1226 16:31:53.243571 11413 net.cpp:137] Memory required for data: 58293048
I1226 16:31:53.243582 11413 layer_factory.hpp:77] Creating layer relu3_5
I1226 16:31:53.243587 11413 net.cpp:84] Creating Layer relu3_5
I1226 16:31:53.243590 11413 net.cpp:406] relu3_5 <- conv3_5
I1226 16:31:53.243595 11413 net.cpp:367] relu3_5 -> conv3_5 (in-place)
I1226 16:31:53.243772 11413 net.cpp:122] Setting up relu3_5
I1226 16:31:53.243780 11413 net.cpp:129] Top shape: 1 256 27 61 (421632)
I1226 16:31:53.243783 11413 net.cpp:137] Memory required for data: 59979576
I1226 16:31:53.243787 11413 layer_factory.hpp:77] Creating layer conv3_6
I1226 16:31:53.243796 11413 net.cpp:84] Creating Layer conv3_6
I1226 16:31:53.243799 11413 net.cpp:406] conv3_6 <- conv3_5
I1226 16:31:53.243804 11413 net.cpp:380] conv3_6 -> conv3_6
I1226 16:31:53.260268 11413 net.cpp:122] Setting up conv3_6
I1226 16:31:53.260279 11413 net.cpp:129] Top shape: 1 256 27 61 (421632)
I1226 16:31:53.260283 11413 net.cpp:137] Memory required for data: 61666104
I1226 16:31:53.260289 11413 layer_factory.hpp:77] Creating layer relu3_6
I1226 16:31:53.260295 11413 net.cpp:84] Creating Layer relu3_6
I1226 16:31:53.260298 11413 net.cpp:406] relu3_6 <- conv3_6
I1226 16:31:53.260303 11413 net.cpp:367] relu3_6 -> conv3_6 (in-place)
I1226 16:31:53.260632 11413 net.cpp:122] Setting up relu3_6
I1226 16:31:53.260643 11413 net.cpp:129] Top shape: 1 256 27 61 (421632)
I1226 16:31:53.260644 11413 net.cpp:137] Memory required for data: 63352632
I1226 16:31:53.260651 11413 layer_factory.hpp:77] Creating layer conv4_1
I1226 16:31:53.260658 11413 net.cpp:84] Creating Layer conv4_1
I1226 16:31:53.260661 11413 net.cpp:406] conv4_1 <- conv3_6
I1226 16:31:53.260668 11413 net.cpp:380] conv4_1 -> conv4_1
I1226 16:31:53.291993 11413 net.cpp:122] Setting up conv4_1
I1226 16:31:53.292007 11413 net.cpp:129] Top shape: 1 512 27 61 (843264)
I1226 16:31:53.292011 11413 net.cpp:137] Memory required for data: 66725688
I1226 16:31:53.292016 11413 layer_factory.hpp:77] Creating layer relu4_1
I1226 16:31:53.292022 11413 net.cpp:84] Creating Layer relu4_1
I1226 16:31:53.292026 11413 net.cpp:406] relu4_1 <- conv4_1
I1226 16:31:53.292032 11413 net.cpp:367] relu4_1 -> conv4_1 (in-place)
I1226 16:31:53.292363 11413 net.cpp:122] Setting up relu4_1
I1226 16:31:53.292372 11413 net.cpp:129] Top shape: 1 512 27 61 (843264)
I1226 16:31:53.292376 11413 net.cpp:137] Memory required for data: 70098744
I1226 16:31:53.292378 11413 layer_factory.hpp:77] Creating layer conv4_2
I1226 16:31:53.292387 11413 net.cpp:84] Creating Layer conv4_2
I1226 16:31:53.292390 11413 net.cpp:406] conv4_2 <- conv4_1
I1226 16:31:53.292395 11413 net.cpp:380] conv4_2 -> conv4_2
I1226 16:31:53.353436 11413 net.cpp:122] Setting up conv4_2
I1226 16:31:53.353458 11413 net.cpp:129] Top shape: 1 512 27 61 (843264)
I1226 16:31:53.353461 11413 net.cpp:137] Memory required for data: 73471800
I1226 16:31:53.353468 11413 layer_factory.hpp:77] Creating layer relu4_2
I1226 16:31:53.353476 11413 net.cpp:84] Creating Layer relu4_2
I1226 16:31:53.353479 11413 net.cpp:406] relu4_2 <- conv4_2
I1226 16:31:53.353487 11413 net.cpp:367] relu4_2 -> conv4_2 (in-place)
I1226 16:31:53.353659 11413 net.cpp:122] Setting up relu4_2
I1226 16:31:53.353667 11413 net.cpp:129] Top shape: 1 512 27 61 (843264)
I1226 16:31:53.353670 11413 net.cpp:137] Memory required for data: 76844856
I1226 16:31:53.353672 11413 layer_factory.hpp:77] Creating layer conv4_3
I1226 16:31:53.353682 11413 net.cpp:84] Creating Layer conv4_3
I1226 16:31:53.353685 11413 net.cpp:406] conv4_3 <- conv4_2
I1226 16:31:53.353690 11413 net.cpp:380] conv4_3 -> conv4_3
I1226 16:31:53.414760 11413 net.cpp:122] Setting up conv4_3
I1226 16:31:53.414783 11413 net.cpp:129] Top shape: 1 512 27 61 (843264)
I1226 16:31:53.414786 11413 net.cpp:137] Memory required for data: 80217912
I1226 16:31:53.414793 11413 layer_factory.hpp:77] Creating layer relu4_3
I1226 16:31:53.414803 11413 net.cpp:84] Creating Layer relu4_3
I1226 16:31:53.414806 11413 net.cpp:406] relu4_3 <- conv4_3
I1226 16:31:53.414810 11413 net.cpp:367] relu4_3 -> conv4_3 (in-place)
I1226 16:31:53.415168 11413 net.cpp:122] Setting up relu4_3
I1226 16:31:53.415177 11413 net.cpp:129] Top shape: 1 512 27 61 (843264)
I1226 16:31:53.415180 11413 net.cpp:137] Memory required for data: 83590968
I1226 16:31:53.415184 11413 layer_factory.hpp:77] Creating layer tpp5
I1226 16:31:53.415189 11413 net.cpp:84] Creating Layer tpp5
I1226 16:31:53.415194 11413 net.cpp:406] tpp5 <- conv4_3
I1226 16:31:53.415199 11413 net.cpp:380] tpp5 -> tpp5
I1226 16:31:53.415863 11413 net.cpp:122] Setting up tpp5
I1226 16:31:53.415872 11413 net.cpp:129] Top shape: 1 7680 (7680)
I1226 16:31:53.415875 11413 net.cpp:137] Memory required for data: 83621688
I1226 16:31:53.415879 11413 layer_factory.hpp:77] Creating layer reshape
I1226 16:31:53.415884 11413 net.cpp:84] Creating Layer reshape
I1226 16:31:53.415887 11413 net.cpp:406] reshape <- tpp5
I1226 16:31:53.415891 11413 net.cpp:380] reshape -> reshape
I1226 16:31:53.415930 11413 net.cpp:122] Setting up reshape
I1226 16:31:53.415935 11413 net.cpp:129] Top shape: 1 960 8 1 (7680)
I1226 16:31:53.415936 11413 net.cpp:137] Memory required for data: 83652408
I1226 16:31:53.415940 11413 layer_factory.hpp:77] Creating layer premax
I1226 16:31:53.415948 11413 net.cpp:84] Creating Layer premax
I1226 16:31:53.415951 11413 net.cpp:406] premax <- reshape
I1226 16:31:53.415956 11413 net.cpp:380] premax -> premax
I1226 16:31:53.416111 11413 net.cpp:122] Setting up premax
I1226 16:31:53.416118 11413 net.cpp:129] Top shape: 1 960 8 1 (7680)
I1226 16:31:53.416124 11413 net.cpp:137] Memory required for data: 83683128
I1226 16:31:53.416128 11413 layer_factory.hpp:77] Creating layer maxout
I1226 16:31:53.416133 11413 net.cpp:84] Creating Layer maxout
I1226 16:31:53.416136 11413 net.cpp:406] maxout <- premax
I1226 16:31:53.416141 11413 net.cpp:380] maxout -> maxout
I1226 16:31:53.416194 11413 net.cpp:122] Setting up maxout
I1226 16:31:53.416199 11413 net.cpp:129] Top shape: 1 960 1 1 (960)
I1226 16:31:53.416201 11413 net.cpp:137] Memory required for data: 83686968
I1226 16:31:53.416204 11413 layer_factory.hpp:77] Creating layer fc6
I1226 16:31:53.416210 11413 net.cpp:84] Creating Layer fc6
I1226 16:31:53.416213 11413 net.cpp:406] fc6 <- maxout
I1226 16:31:53.416216 11413 net.cpp:380] fc6 -> fc6
I1226 16:31:53.515437 11413 net.cpp:122] Setting up fc6
I1226 16:31:53.515463 11413 net.cpp:129] Top shape: 1 4096 (4096)
I1226 16:31:53.515466 11413 net.cpp:137] Memory required for data: 83703352
I1226 16:31:53.515473 11413 layer_factory.hpp:77] Creating layer relu6
I1226 16:31:53.515480 11413 net.cpp:84] Creating Layer relu6
I1226 16:31:53.515485 11413 net.cpp:406] relu6 <- fc6
I1226 16:31:53.515489 11413 net.cpp:367] relu6 -> fc6 (in-place)
I1226 16:31:53.515702 11413 net.cpp:122] Setting up relu6
I1226 16:31:53.515710 11413 net.cpp:129] Top shape: 1 4096 (4096)
I1226 16:31:53.515713 11413 net.cpp:137] Memory required for data: 83719736
I1226 16:31:53.515715 11413 layer_factory.hpp:77] Creating layer drop6
I1226 16:31:53.515723 11413 net.cpp:84] Creating Layer drop6
I1226 16:31:53.515727 11413 net.cpp:406] drop6 <- fc6
I1226 16:31:53.515730 11413 net.cpp:367] drop6 -> fc6 (in-place)
I1226 16:31:53.515772 11413 net.cpp:122] Setting up drop6
I1226 16:31:53.515777 11413 net.cpp:129] Top shape: 1 4096 (4096)
I1226 16:31:53.515779 11413 net.cpp:137] Memory required for data: 83736120
I1226 16:31:53.515782 11413 layer_factory.hpp:77] Creating layer fc7
I1226 16:31:53.515789 11413 net.cpp:84] Creating Layer fc7
I1226 16:31:53.515792 11413 net.cpp:406] fc7 <- fc6
I1226 16:31:53.515797 11413 net.cpp:380] fc7 -> fc7
I1226 16:31:53.932293 11413 net.cpp:122] Setting up fc7
I1226 16:31:53.932318 11413 net.cpp:129] Top shape: 1 4096 (4096)
I1226 16:31:53.932322 11413 net.cpp:137] Memory required for data: 83752504
I1226 16:31:53.932329 11413 layer_factory.hpp:77] Creating layer relu7
I1226 16:31:53.932337 11413 net.cpp:84] Creating Layer relu7
I1226 16:31:53.932340 11413 net.cpp:406] relu7 <- fc7
I1226 16:31:53.932346 11413 net.cpp:367] relu7 -> fc7 (in-place)
I1226 16:31:53.932801 11413 net.cpp:122] Setting up relu7
I1226 16:31:53.932809 11413 net.cpp:129] Top shape: 1 4096 (4096)
I1226 16:31:53.932812 11413 net.cpp:137] Memory required for data: 83768888
I1226 16:31:53.932816 11413 layer_factory.hpp:77] Creating layer drop7
I1226 16:31:53.932823 11413 net.cpp:84] Creating Layer drop7
I1226 16:31:53.932826 11413 net.cpp:406] drop7 <- fc7
I1226 16:31:53.932831 11413 net.cpp:367] drop7 -> fc7 (in-place)
I1226 16:31:53.932870 11413 net.cpp:122] Setting up drop7
I1226 16:31:53.932875 11413 net.cpp:129] Top shape: 1 4096 (4096)
I1226 16:31:53.932878 11413 net.cpp:137] Memory required for data: 83785272
I1226 16:31:53.932880 11413 layer_factory.hpp:77] Creating layer fc8
I1226 16:31:53.932888 11413 net.cpp:84] Creating Layer fc8
I1226 16:31:53.932889 11413 net.cpp:406] fc8 <- fc7
I1226 16:31:53.932894 11413 net.cpp:380] fc8 -> fc8
I1226 16:31:53.993531 11413 net.cpp:122] Setting up fc8
I1226 16:31:53.993552 11413 net.cpp:129] Top shape: 1 604 (604)
I1226 16:31:53.993556 11413 net.cpp:137] Memory required for data: 83787688
I1226 16:31:53.993566 11413 layer_factory.hpp:77] Creating layer loss
I1226 16:31:53.993573 11413 net.cpp:84] Creating Layer loss
I1226 16:31:53.993577 11413 net.cpp:406] loss <- fc8
I1226 16:31:53.993582 11413 net.cpp:406] loss <- phocs
I1226 16:31:53.993585 11413 net.cpp:380] loss -> loss
I1226 16:31:53.993644 11413 net.cpp:122] Setting up loss
…
state {
  phase: TEST
}
layer {
  name: "word_images"
  type: "Data"
  top: "word_images"
  top: "label"
  transform_param {
    scale: -0.0039215689
    mean_value: 255
  }
  data_param {
    source: "/data/fwolf/min26/gw_cv1_nti500000_pul2-3-4-5_test_word_images_lmdb"
    batch_size: 1
    backend: LMDB
    prefetch: 20
  }
}
layer {
  name: "phocs"
  type: "Data"
  top: "phocs"
  top: "label_phocs"
  data_param {
    source: "/data/fwolf/min26/gw_cv1_nti500000_pul2-3-4-5_test_phocs_lmdb"
    batch_size: 1
    backend: LMDB
    prefetch: 20
  }
}
layer {
  name: "conv1_1"
  type: "Convolution"
  bottom: "word_images"
  top: "conv1_1"
  convolution_param {
    num_output: 64
    pad: 1
    kernel_size: 3
    stride: 1
    weight_filler {
      type: "msra"
    }
    bias_filler {
      type: "constant"
    }
    engine: CUDNN
  }
}
layer {
  name: "relu1_1"
  type: "ReLU"
  bottom: "conv1_1"
  top: "conv1_1"
}
layer {
  name: "conv1_2"
  type: "Convolution"
  bottom: "conv1_1"
  top: "conv1_2"
  convolution_param {
    num_output: 64
    pad: 1
    kernel_size: 3
    stride: 1
    weight_filler {
      type: "msra"
    }
    bias_filler {
      type: "constant"
    }
    engine: CUDNN
  }
}
layer {
  name: "relu1_2"
  type: "ReLU"
  bottom: "conv1_2"
  top: "conv1_2"
}
layer {
  name: "pool1"
  type: "Pooling"
  bottom: "conv1_2"
  top: "pool1"
  pooling_param {
    pool: MAX
    kernel_size: 2
    stride: 2
  }
}
layer {
  name: "conv2_1"
  type: "Convolution"
  bottom: "pool1"
  top: "conv2_1"
  convolution_param {
    num_output: 128
    pad: 1
    kernel_size: 3
    stride: 1
    weight_filler {
      type: "msra"
    }
    bias_filler {
      type: "constant"
    }
    engine: CUDNN
  }
}
layer {
  name: "relu2_1"
  type: "ReLU"
  bottom: "conv2_1"
  top: "conv2_1"
}
layer {
  name: "conv2_2"
  type: "Convolution"
  bottom: "conv2_1"
  top: "conv2_2"
  convolution_param {
    num_output: 128
    pad: 1
    kernel_size: 3
    stride: 1
    weight_filler {
      type: "msra"
    }
    bias_filler {
      type: "constant"
    }
    engine: CUDNN
  }
}
layer {
  name: "relu2_2"
  type: "ReLU"
  bottom: "conv2_2"
  top: "conv2_2"
}
layer {
  name: "pool2"
  type: "Pooling"
  bottom: "conv2_2"
  top: "pool2"
  pooling_param {
    pool: MAX
    kernel_size: 2
    stride: 2
  }
}
layer {
  name: "conv3_1"
  type: "Convolution"
  bottom: "pool2"
  top: "conv3_1"
  convolution_param {
    num_output: 256
    pad: 1
    kernel_size: 3
    stride: 1
    weight_filler {
      type: "msra"
    }
    bias_filler {
      type: "constant"
    }
    engine: CUDNN
  }
}
layer {
  name: "relu3_1"
  type: "ReLU"
  bottom: "conv3_1"
  top: "conv3_1"
}
layer {
  name: "conv3_2"
  type: "Convolution"
  bottom: "conv3_1"
  top: "conv3_2"
  convolution_param {
    num_output: 256
    pad: 1
    kernel_size: 3
    stride: 1
    weight_filler {
      type: "msra"
    }
    bias_filler {
      type: "constant"
    }
    engine: CUDNN
  }
}
layer {
  name: "relu3_2"
  type: "ReLU"
  bottom: "conv3_2"
  top: "conv3_2"
}
layer {
  name: "conv3_3"
  type: "Convolution"
  bottom: "conv3_2"
  top: "conv3_3"
  convolution_param {
    num_output: 256
    pad: 1
    kernel_size: 3
    stride: 1
    weight_filler {
      type: "msra"
    }
    bias_filler {
      type: "constant"
    }
    engine: CUDNN
  }
}
layer {
  name: "relu3_3"
  type: "ReLU"
  bottom: "conv3_3"
  top: "conv3_3"
}
layer {
  name: "conv3_4"
  type: "Convolution"
  bottom: "conv3_3"
  top: "conv3_4"
  convolution_param {
    num_output: 256
    pad: 1
    kernel_size: 3
    stride: 1
    weight_filler {
      type: "msra"
    }
    bias_filler {
      type: "constant"
    }
    engine: CUDNN
  }
}
layer {
  name: "relu3_4"
  type: "ReLU"
  bottom: "conv3_4"
  top: "conv3_4"
}
layer {
  name: "conv3_5"
  type: "Convolution"
  bottom: "conv3_4"
  top: "conv3_5"
  convolution_param {
    num_output: 256
    pad: 1
    kernel_size: 3
    stride: 1
    weight_filler {
      type: "msra"
    }
    bias_filler {
      type: "constant"
    }
    engine: CUDNN
  }
}
layer {
  name: "relu3_5"
  type: "ReLU"
  bottom: "conv3_5"
  top: "conv3_5"
}
layer {
  name: "conv3_6"
  type: "Convolution"
  bottom: "conv3_5"
  top: "conv3_6"
  convolution_param {
    num_output: 256
    pad: 1
    kernel_size: 3
    stride: 1
    weight_filler {
      type: "msra"
    }
    bias_filler {
      type: "constant"
    }
    engine: CUDNN
  }
}
layer {
  name: "relu3_6"
  type: "ReLU"
  bottom: "conv3_6"
  top: "conv3_6"
}
layer {
  name: "conv4_1"
  type: "Convolution"
  bottom: "conv3_6"
  top: "conv4_1"
  convolution_param {
    num_output: 512
    pad: 1
    kernel_size: 3
    stride: 1
    weight_filler {
      type: "msra"
    }
    bias_filler {
      type: "constant"
    }
    engine: CUDNN
  }
}
layer {
  name: "relu4_1"
  type: "ReLU"
  bottom: "conv4_1"
  top: "conv4_1"
}
layer {
  name: "conv4_2"
  type: "Convolution"
  bottom: "conv4_1"
  top: "conv4_2"
  convolution_param {
    num_output: 512
    pad: 1
    kernel_size: 3
    stride: 1
    weight_filler {
      type: "msra"
    }
    bias_filler {
      type: "constant"
    }
    engine: CUDNN
  }
}
layer {
  name: "relu4_2"
  type: "ReLU"
  bottom: "conv4_2"
  top: "conv4_2"
}
layer {
  name: "conv4_3"
  type: "Convolution"
  bottom: "conv4_2"
  top: "conv4_3"
  convolution_param {
    num_output: 512
    pad: 1
    kernel_size: 3
    stride: 1
    weight_filler {
      type: "msra"
    }
    bias_filler {
      type: "constant"
    }
    engine: CUDNN
  }
}
layer {
  name: "relu4_3"
  type: "ReLU"
  bottom: "conv4_3"
  top: "conv4_3"
}
layer {
  name: "tpp5"
  type: "TPP"
  bottom: "conv4_3"
  top: "tpp5"
  tpp_param {
    pyramid_layer: 1
    pyramid_layer: 2
    pyramid_layer: 3
    pyramid_layer: 4
    pyramid_layer: 5
    pool: MAX
    engine: CUDNN
  }
}
layer {
  name: "reshape"
  type: "Reshape"
  bottom: "tpp5"
  top: "reshape"
  reshape_param {
    shape {
      dim: 1
      dim: 960
      dim: 8
      dim: 1
    }
  }
}
layer {
  name: "premax"
  type: "Scale"
  bottom: "reshape"
  top: "premax"
  param {
    lr_mult: 0
    decay_mult: 0
  }
  scale_param {
    num_axes: 3
    filler {
      value: 1
    }
    bias_term: false
    bias_filler {
      value: 0
    }
  }
}
layer {
  name: "maxout"
  type: "Pooling"
  bottom: "premax"
  top: "maxout"
  pooling_param {
    pool: MAX
    global_pooling: true
  }
}
layer {
  name: "fc6"
  type: "InnerProduct"
  bottom: "maxout"
  top: "fc6"
  inner_product_param {
    num_output: 4096
    weight_filler {
      type: "msra"
    }
    bias_filler {
      type: "constant"
    }
  }
}
layer {
  name: "relu6"
  type: "ReLU"
  bottom: "fc6"
  top: "fc6"
}
layer {
  name: "fc7"
  type: "InnerProduct"
  bottom: "fc6"
  top: "fc7"
  inner_product_param {
    num_output: 4096
    weight_filler {
      type: "msra"
    }
    bias_filler {
      type: "constant"
    }
  }
}
layer {
  name: "relu7"
  type: "ReLU"
  bottom: "fc7"
  top: "fc7"
}
layer {
  name: "fc8"
  type: "InnerProduct"
  bottom: "fc7"
  top: "fc8"
  inner_product_param {
    num_output: 604
    weight_filler {
      type: "msra"
    }
    bias_filler {
      type: "constant"
    }
  }
}
layer {
  name: "sigmoid"
  type: "Sigmoid"
  bottom: "fc8"
  top: "sigmoid"
  include {
    phase: TEST
  }
}
layer {
  name: "silence"
  type: "Silence"
  bottom: "sigmoid"
  include {
    phase: TEST
  }
}
layer {
  name: "loss"
  type: "SigmoidCrossEntropyLoss"
  bottom: "fc8"
  bottom: "phocs"
  top: "loss"
}
I1226 16:31:53.996840 11413 layer_factory.hpp:77] Creating layer word_images
I1226 16:31:53.996951 11413 db_lmdb.cpp:35] Opened lmdb /data/fwolf/min26/gw_cv1_nti500000_pul2-3-4-5_test_word_images_lmdb
I1226 16:31:53.996978 11413 net.cpp:84] Creating Layer word_images
I1226 16:31:53.996989 11413 net.cpp:380] word_images -> word_images
I1226 16:31:53.997007 11413 net.cpp:380] word_images -> label
I1226 16:31:53.998121 11413 data_layer.cpp:44] output data size: 1,1,66,139
I1226 16:31:54.003185 11413 net.cpp:122] Setting up word_images
I1226 16:31:54.003212 11413 net.cpp:129] Top shape: 1 1 66 139 (9174)
I1226 16:31:54.003223 11413 net.cpp:129] Top shape: 1 (1)
I1226 16:31:54.003234 11413 net.cpp:137] Memory required for data: 36700
I1226 16:31:54.003243 11413 layer_factory.hpp:77] Creating layer phocs
I1226 16:31:54.003342 11413 db_lmdb.cpp:35] Opened lmdb /data/fwolf/min26/gw_cv1_nti500000_pul2-3-4-5_test_phocs_lmdb
I1226 16:31:54.003368 11413 net.cpp:84] Creating Layer phocs
I1226 16:31:54.003381 11413 net.cpp:380] phocs -> phocs
I1226 16:31:54.003398 11413 net.cpp:380] phocs -> label_phocs
I1226 16:31:54.004691 11413 data_layer.cpp:44] output data size: 1,1,1,604
I1226 16:31:54.011015 11413 net.cpp:122] Setting up phocs
I1226 16:31:54.011037 11413 net.cpp:129] Top shape: 1 1 1 604 (604)
I1226 16:31:54.011047 11413 net.cpp:129] Top shape: 1 (1)
I1226 16:31:54.011054 11413 net.cpp:137] Memory required for data: 39120
I1226 16:31:54.011060 11413 layer_factory.hpp:77] Creating layer conv1_1
I1226 16:31:54.011081 11413 net.cpp:84] Creating Layer conv1_1
I1226 16:31:54.011088 11413 net.cpp:406] conv1_1 <- word_images
I1226 16:31:54.011104 11413 net.cpp:380] conv1_1 -> conv1_1
I1226 16:31:54.014573 11413 net.cpp:122] Setting up conv1_1
I1226 16:31:54.014601 11413 net.cpp:129] Top shape: 1 64 66 139 (587136)
I1226 16:31:54.014611 11413 net.cpp:137] Memory required for data: 2387664
I1226 16:31:54.014631 11413 layer_factory.hpp:77] Creating layer relu1_1
I1226 16:31:54.014642 11413 net.cpp:84] Creating Layer relu1_1
I1226 16:31:54.014649 11413 net.cpp:406] relu1_1 <- conv1_1
I1226 16:31:54.014665 11413 net.cpp:367] relu1_1 -> conv1_1 (in-place)
I1226 16:31:54.015455 11413 net.cpp:122] Setting up relu1_1
I1226 16:31:54.015478 11413 net.cpp:129] Top shape: 1 64 66 139 (587136)
I1226 16:31:54.015486 11413 net.cpp:137] Memory required for data: 4736208
I1226 16:31:54.015493 11413 layer_factory.hpp:77] Creating layer conv1_2
I1226 16:31:54.015513 11413 net.cpp:84] Creating Layer conv1_2
I1226 16:31:54.015521 11413 net.cpp:406] conv1_2 <- conv1_1
I1226 16:31:54.015534 11413 net.cpp:380] conv1_2 -> conv1_2
I1226 16:31:54.021718 11413 net.cpp:122] Setting up conv1_2
I1226 16:31:54.021744 11413 net.cpp:129] Top shape: 1 64 66 139 (587136)
I1226 16:31:54.021751 11413 net.cpp:137] Memory required for data: 7084752
I1226 16:31:54.021769 11413 layer_factory.hpp:77] Creating layer relu1_2
I1226 16:31:54.021780 11413 net.cpp:84] Creating Layer relu1_2
I1226 16:31:54.021787 11413 net.cpp:406] relu1_2 <- conv1_2
I1226 16:31:54.021805 11413 net.cpp:367] relu1_2 -> conv1_2 (in-place)
I1226 16:31:54.022218 11413 net.cpp:122] Setting up relu1_2
I1226 16:31:54.022236 11413 net.cpp:129] Top shape: 1 64 66 139 (587136)
I1226 16:31:54.022243 11413 net.cpp:137] Memory required for data: 9433296
I1226 16:31:54.022250 11413 layer_factory.hpp:77] Creating layer pool1
I1226 16:31:54.022260 11413 net.cpp:84] Creating Layer pool1
I1226 16:31:54.022267 11413 net.cpp:406] pool1 <- conv1_2
I1226 16:31:54.022276 11413 net.cpp:380] pool1 -> pool1
I1226 16:31:54.022424 11413 net.cpp:122] Setting up pool1
I1226 16:31:54.022436 11413 net.cpp:129] Top shape: 1 64 33 70 (147840)
I1226 16:31:54.022444 11413 net.cpp:137] Memory required for data: 10024656
I1226 16:31:54.022449 11413 layer_factory.hpp:77] Creating layer conv2_1
I1226 16:31:54.022469 11413 net.cpp:84] Creating Layer conv2_1
I1226 16:31:54.022475 11413 net.cpp:406] conv2_1 <- pool1
I1226 16:31:54.022488 11413 net.cpp:380] conv2_1 -> conv2_1
I1226 16:31:54.030522 11413 net.cpp:122] Setting up conv2_1
I1226 16:31:54.030545 11413 net.cpp:129] Top shape: 1 128 33 70 (295680)
I1226 16:31:54.030552 11413 net.cpp:137] Memory required for data: 11207376
I1226 16:31:54.030568 11413 layer_factory.hpp:77] Creating layer relu2_1
I1226 16:31:54.030583 11413 net.cpp:84] Creating Layer relu2_1
I1226 16:31:54.030591 11413 net.cpp:406] relu2_1 <- conv2_1
I1226 16:31:54.030602 11413 net.cpp:367] relu2_1 -> conv2_1 (in-place)
I1226 16:31:54.031244 11413 net.cpp:122] Setting up relu2_1
I1226 16:31:54.031265 11413 net.cpp:129] Top shape: 1 128 33 70 (295680)
I1226 16:31:54.031272 11413 net.cpp:137] Memory required for data: 12390096
I1226 16:31:54.031280 11413 layer_factory.hpp:77] Creating layer conv2_2
I1226 16:31:54.031302 11413 net.cpp:84] Creating Layer conv2_2
I1226 16:31:54.031309 11413 net.cpp:406] conv2_2 <- conv2_1
I1226 16:31:54.031321 11413 net.cpp:380] conv2_2 -> conv2_2
I1226 16:31:54.042049 11413 net.cpp:122] Setting up conv2_2
I1226 16:31:54.042071 11413 net.cpp:129] Top shape: 1 128 33 70 (295680)
I1226 16:31:54.042078 11413 net.cpp:137] Memory required for data: 13572816
I1226 16:31:54.042089 11413 layer_factory.hpp:77] Creating layer relu2_2
I1226 16:31:54.042102 11413 net.cpp:84] Creating Layer relu2_2
I1226 16:31:54.042109 11413 net.cpp:406] relu2_2 <- conv2_2
I1226 16:31:54.042117 11413 net.cpp:367] relu2_2 -> conv2_2 (in-place)
I1226 16:31:54.042482 11413 net.cpp:122] Setting up relu2_2
I1226 16:31:54.042496 11413 net.cpp:129] Top shape: 1 128 33 70 (295680)
I1226 16:31:54.042502 11413 net.cpp:137] Memory required for data: 14755536
I1226 16:31:54.042508 11413 layer_factory.hpp:77] Creating layer pool2
I1226 16:31:54.042517 11413 net.cpp:84] Creating Layer pool2
I1226 16:31:54.042522 11413 net.cpp:406] pool2 <- conv2_2
I1226 16:31:54.042533 11413 net.cpp:380] pool2 -> pool2
I1226 16:31:54.042665 11413 net.cpp:122] Setting up pool2
I1226 16:31:54.042676 11413 net.cpp:129] Top shape: 1 128 17 35 (76160)
I1226 16:31:54.042681 11413 net.cpp:137] Memory required for data: 15060176
I1226 16:31:54.042687 11413 layer_factory.hpp:77] Creating layer conv3_1
I1226 16:31:54.042702 11413 net.cpp:84] Creating Layer conv3_1
I1226 16:31:54.042708 11413 net.cpp:406] conv3_1 <- pool2
I1226 16:31:54.042717 11413 net.cpp:380] conv3_1 -> conv3_1
I1226 16:31:54.060981 11413 net.cpp:122] Setting up conv3_1
I1226 16:31:54.061000 11413 net.cpp:129] Top shape: 1 256 17 35 (152320)
I1226 16:31:54.061007 11413 net.cpp:137] Memory required for data: 15669456
I1226 16:31:54.061020 11413 layer_factory.hpp:77] Creating layer relu3_1
I1226 16:31:54.061031 11413 net.cpp:84] Creating Layer relu3_1
I1226 16:31:54.061038 11413 net.cpp:406] relu3_1 <- conv3_1
I1226 16:31:54.061044 11413 net.cpp:367] relu3_1 -> conv3_1 (in-place)
I1226 16:31:54.061580 11413 net.cpp:122] Setting up relu3_1
I1226 16:31:54.061596 11413 net.cpp:129] Top shape: 1 256 17 35 (152320)
I1226 16:31:54.061601 11413 net.cpp:137] Memory required for data: 16278736
I1226 16:31:54.061607 11413 layer_factory.hpp:77] Creating layer conv3_2
I1226 16:31:54.061621 11413 net.cpp:84] Creating Layer conv3_2
I1226 16:31:54.061627 11413 net.cpp:406] conv3_2 <- conv3_1
I1226 16:31:54.061638 11413 net.cpp:380] conv3_2 -> conv3_2
I1226 16:31:54.091639 11413 net.cpp:122] Setting up conv3_2
I1226 16:31:54.091657 11413 net.cpp:129] Top shape: 1 256 17 35 (152320)
I1226 16:31:54.091662 11413 net.cpp:137] Memory required for data: 16888016
I1226 16:31:54.091675 11413 layer_factory.hpp:77] Creating layer relu3_2
I1226 16:31:54.091683 11413 net.cpp:84] Creating Layer relu3_2
I1226 16:31:54.091688 11413 net.cpp:406] relu3_2 <- conv3_2
I1226 16:31:54.091696 11413 net.cpp:367] relu3_2 -> conv3_2 (in-place)
I1226 16:31:54.092221 11413 net.cpp:122] Setting up relu3_2
I1226 16:31:54.092236 11413 net.cpp:129] Top shape: 1 256 17 35 (152320)
I1226 16:31:54.092242 11413 net.cpp:137] Memory required for data: 17497296
I1226 16:31:54.092247 11413 layer_factory.hpp:77] Creating layer conv3_3
I1226 16:31:54.092262 11413 net.cpp:84] Creating Layer conv3_3
I1226 16:31:54.092267 11413 net.cpp:406] conv3_3 <- conv3_2
I1226 16:31:54.092278 11413 net.cpp:380] conv3_3 -> conv3_3
I1226 16:31:54.118597 11413 net.cpp:122] Setting up conv3_3
I1226 16:31:54.118613 11413 net.cpp:129] Top shape: 1 256 17 35 (152320)
I1226 16:31:54.118618 11413 net.cpp:137] Memory required for data: 18106576
I1226 16:31:54.118626 11413 layer_factory.hpp:77] Creating layer relu3_3
I1226 16:31:54.118635 11413 net.cpp:84] Creating Layer relu3_3
I1226 16:31:54.118640 11413 net.cpp:406] relu3_3 <- conv3_3
I1226 16:31:54.118646 11413 net.cpp:367] relu3_3 -> conv3_3 (in-place)
I1226 16:31:54.118913 11413 net.cpp:122] Setting up relu3_3
I1226 16:31:54.118924 11413 net.cpp:129] Top shape: 1 256 17 35 (152320)
I1226 16:31:54.118932 11413 net.cpp:137] Memory required for data: 18715856
I1226 16:31:54.118937 11413 layer_factory.hpp:77] Creating layer conv3_4
I1226 16:31:54.118948 11413 net.cpp:84] Creating Layer conv3_4
I1226 16:31:54.118953 11413 net.cpp:406] conv3_4 <- conv3_3
I1226 16:31:54.118960 11413 net.cpp:380] conv3_4 -> conv3_4
I1226 16:31:54.142917 11413 net.cpp:122] Setting up conv3_4
I1226 16:31:54.142933 11413 net.cpp:129] Top shape: 1 256 17 35 (152320)
I1226 16:31:54.142937 11413 net.cpp:137] Memory required for data: 19325136
I1226 16:31:54.142946 11413 layer_factory.hpp:77] Creating layer relu3_4
I1226 16:31:54.142954 11413 net.cpp:84] Creating Layer relu3_4
I1226 16:31:54.142958 11413 net.cpp:406] relu3_4 <- conv3_4
I1226 16:31:54.142964 11413 net.cpp:367] relu3_4 -> conv3_4 (in-place)
I1226 16:31:54.143410 11413 net.cpp:122] Setting up relu3_4
I1226 16:31:54.143424 11413 net.cpp:129] Top shape: 1 256 17 35 (152320)
I1226 16:31:54.143427 11413 net.cpp:137] Memory required for data: 19934416
I1226 16:31:54.143431 11413 layer_factory.hpp:77] Creating layer conv3_5
I1226 16:31:54.143443 11413 net.cpp:84] Creating Layer conv3_5
I1226 16:31:54.143448 11413 net.cpp:406] conv3_5 <- conv3_4
I1226 16:31:54.143455 11413 net.cpp:380] conv3_5 -> conv3_5
I1226 16:31:54.165405 11413 net.cpp:122] Setting up conv3_5
I1226 16:31:54.165418 11413 net.cpp:129] Top shape: 1 256 17 35 (152320)
I1226 16:31:54.165422 11413 net.cpp:137] Memory required for data: 20543696
I1226 16:31:54.165434 11413 layer_factory.hpp:77] Creating layer relu3_5
I1226 16:31:54.165441 11413 net.cpp:84] Creating Layer relu3_5
I1226 16:31:54.165446 11413 net.cpp:406] relu3_5 <- conv3_5
I1226 16:31:54.165451 11413 net.cpp:367] relu3_5 -> conv3_5 (in-place)
I1226 16:31:54.165685 11413 net.cpp:122] Setting up relu3_5
I1226 16:31:54.165694 11413 net.cpp:129] Top shape: 1 256 17 35 (152320)
I1226 16:31:54.165697 11413 net.cpp:137] Memory required for data: 21152976
I1226 16:31:54.165701 11413 layer_factory.hpp:77] Creating layer conv3_6
I1226 16:31:54.165711 11413 net.cpp:84] Creating Layer conv3_6
I1226 16:31:54.165715 11413 net.cpp:406] conv3_6 <- conv3_5
I1226 16:31:54.165722 11413 net.cpp:380] conv3_6 -> conv3_6
I1226 16:31:54.186277 11413 net.cpp:122] Setting up conv3_6
I1226 16:31:54.186291 11413 net.cpp:129] Top shape: 1 256 17 35 (152320)
I1226 16:31:54.186295 11413 net.cpp:137] Memory required for data: 21762256
I1226 16:31:54.186302 11413 layer_factory.hpp:77] Creating layer relu3_6
I1226 16:31:54.186309 11413 net.cpp:84] Creating Layer relu3_6
I1226 16:31:54.186312 11413 net.cpp:406] relu3_6 <- conv3_6
I1226 16:31:54.186317 11413 net.cpp:367] relu3_6 -> conv3_6 (in-place)
I1226 16:31:54.186703 11413 net.cpp:122] Setting up relu3_6
I1226 16:31:54.186715 11413 net.cpp:129] Top shape: 1 256 17 35 (152320)
I1226 16:31:54.186719 11413 net.cpp:137] Memory required for data: 22371536
I1226 16:31:54.186722 11413 layer_factory.hpp:77] Creating layer conv4_1
I1226 16:31:54.186733 11413 net.cpp:84] Creating Layer conv4_1
I1226 16:31:54.186736 11413 net.cpp:406] conv4_1 <- conv3_6
I1226 16:31:54.186743 11413 net.cpp:380] conv4_1 -> conv4_1
I1226 16:31:54.222612 11413 net.cpp:122] Setting up conv4_1
I1226 16:31:54.222627 11413 net.cpp:129] Top shape: 1 512 17 35 (304640)
I1226 16:31:54.222631 11413 net.cpp:137] Memory required for data: 23590096
I1226 16:31:54.222638 11413 layer_factory.hpp:77] Creating layer relu4_1
I1226 16:31:54.222645 11413 net.cpp:84] Creating Layer relu4_1
I1226 16:31:54.222648 11413 net.cpp:406] relu4_1 <- conv4_1
I1226 16:31:54.222653 11413 net.cpp:367] relu4_1 -> conv4_1 (in-place)
I1226 16:31:54.223032 11413 net.cpp:122] Setting up relu4_1
I1226 16:31:54.223042 11413 net.cpp:129] Top shape: 1 512 17 35 (304640)
I1226 16:31:54.223045 11413 net.cpp:137] Memory required for data: 24808656
I1226 16:31:54.223049 11413 layer_factory.hpp:77] Creating layer conv4_2
I1226 16:31:54.223059 11413 net.cpp:84] Creating Layer conv4_2
I1226 16:31:54.223062 11413 net.cpp:406] conv4_2 <- conv4_1
I1226 16:31:54.223068 11413 net.cpp:380] conv4_2 -> conv4_2
I1226 16:31:54.285600 11413 net.cpp:122] Setting up conv4_2
I1226 16:31:54.285622 11413 net.cpp:129] Top shape: 1 512 17 35 (304640)
I1226 16:31:54.285626 11413 net.cpp:137] Memory required for data: 26027216
I1226 16:31:54.285634 11413 layer_factory.hpp:77] Creating layer relu4_2
I1226 16:31:54.285641 11413 net.cpp:84] Creating Layer relu4_2
I1226 16:31:54.285645 11413 net.cpp:406] relu4_2 <- conv4_2
I1226 16:31:54.285650 11413 net.cpp:367] relu4_2 -> conv4_2 (in-place)
I1226 16:31:54.285836 11413 net.cpp:122] Setting up relu4_2
I1226 16:31:54.285845 11413 net.cpp:129] Top shape: 1 512 17 35 (304640)
I1226 16:31:54.285846 11413 net.cpp:137] Memory required for data: 27245776
I1226 16:31:54.285851 11413 layer_factory.hpp:77] Creating layer conv4_3
I1226 16:31:54.285859 11413 net.cpp:84] Creating Layer conv4_3
I1226 16:31:54.285862 11413 net.cpp:406] conv4_3 <- conv4_2
I1226 16:31:54.285867 11413 net.cpp:380] conv4_3 -> conv4_3
I1226 16:31:54.346753 11413 net.cpp:122] Setting up conv4_3
I1226 16:31:54.346776 11413 net.cpp:129] Top shape: 1 512 17 35 (304640)
I1226 16:31:54.346781 11413 net.cpp:137] Memory required for data: 28464336
I1226 16:31:54.346787 11413 layer_factory.hpp:77] Creating layer relu4_3
I1226 16:31:54.346796 11413 net.cpp:84] Creating Layer relu4_3
I1226 16:31:54.346799 11413 net.cpp:406] relu4_3 <- conv4_3
I1226 16:31:54.346804 11413 net.cpp:367] relu4_3 -> conv4_3 (in-place)
I1226 16:31:54.347159 11413 net.cpp:122] Setting up relu4_3
I1226 16:31:54.347169 11413 net.cpp:129] Top shape: 1 512 17 35 (304640)
I1226 16:31:54.347172 11413 net.cpp:137] Memory required for data: 29682896
I1226 16:31:54.347174 11413 layer_factory.hpp:77] Creating layer tpp5
I1226 16:31:54.347182 11413 net.cpp:84] Creating Layer tpp5
I1226 16:31:54.347185 11413 net.cpp:406] tpp5 <- conv4_3
I1226 16:31:54.347190 11413 net.cpp:380] tpp5 -> tpp5
I1226 16:31:54.347941 11413 net.cpp:122] Setting up tpp5
I1226 16:31:54.347950 11413 net.cpp:129] Top shape: 1 7680 (7680)
I1226 16:31:54.347952 11413 net.cpp:137] Memory required for data: 29713616
I1226 16:31:54.347955 11413 layer_factory.hpp:77] Creating layer reshape
I1226 16:31:54.347962 11413 net.cpp:84] Creating Layer reshape
I1226 16:31:54.347965 11413 net.cpp:406] reshape <- tpp5
I1226 16:31:54.347970 11413 net.cpp:380] reshape -> reshape
I1226 16:31:54.348011 11413 net.cpp:122] Setting up reshape
I1226 16:31:54.348017 11413 net.cpp:129] Top shape: 1 960 8 1 (7680)
I1226 16:31:54.348019 11413 net.cpp:137] Memory required for data: 29744336
I1226 16:31:54.348021 11413 layer_factory.hpp:77] Creating layer premax
I1226 16:31:54.348031 11413 net.cpp:84] Creating Layer premax
I1226 16:31:54.348032 11413 net.cpp:406] premax <- reshape
I1226 16:31:54.348037 11413 net.cpp:380] premax -> premax
I1226 16:31:54.348213 11413 net.cpp:122] Setting up premax
I1226 16:31:54.348220 11413 net.cpp:129] Top shape: 1 960 8 1 (7680)
I1226 16:31:54.348223 11413 net.cpp:137] Memory required for data: 29775056
I1226 16:31:54.348227 11413 layer_factory.hpp:77] Creating layer maxout
I1226 16:31:54.348232 11413 net.cpp:84] Creating Layer maxout
I1226 16:31:54.348235 11413 net.cpp:406] maxout <- premax
I1226 16:31:54.348239 11413 net.cpp:380] maxout -> maxout
I1226 16:31:54.348299 11413 net.cpp:122] Setting up maxout
I1226 16:31:54.348304 11413 net.cpp:129] Top shape: 1 960 1 1 (960)
I1226 16:31:54.348306 11413 net.cpp:137] Memory required for data: 29778896
I1226 16:31:54.348309 11413 layer_factory.hpp:77] Creating layer fc6
I1226 16:31:54.348315 11413 net.cpp:84] Creating Layer fc6
I1226 16:31:54.348317 11413 net.cpp:406] fc6 <- maxout
I1226 16:31:54.348321 11413 net.cpp:380] fc6 -> fc6
I1226 16:31:54.447711 11413 net.cpp:122] Setting up fc6
I1226 16:31:54.447737 11413 net.cpp:129] Top shape: 1 4096 (4096)
I1226 16:31:54.447741 11413 net.cpp:137] Memory required for data: 29795280
I1226 16:31:54.447751 11413 layer_factory.hpp:77] Creating layer relu6
I1226 16:31:54.447760 11413 net.cpp:84] Creating Layer relu6
I1226 16:31:54.447763 11413 net.cpp:406] relu6 <- fc6
I1226 16:31:54.447769 11413 net.cpp:367] relu6 -> fc6 (in-place)
I1226 16:31:54.448007 11413 net.cpp:122] Setting up relu6
I1226 16:31:54.448015 11413 net.cpp:129] Top shape: 1 4096 (4096)
I1226 16:31:54.448019 11413 net.cpp:137] Memory required for data: 29811664
I1226 16:31:54.448021 11413 layer_factory.hpp:77] Creating layer fc7
I1226 16:31:54.448029 11413 net.cpp:84] Creating Layer fc7
I1226 16:31:54.448032 11413 net.cpp:406] fc7 <- fc6
I1226 16:31:54.448037 11413 net.cpp:380] fc7 -> fc7
I1226 16:31:54.870564 11413 net.cpp:122] Setting up fc7
I1226 16:31:54.870590 11413 net.cpp:129] Top shape: 1 4096 (4096)
I1226 16:31:54.870594 11413 net.cpp:137] Memory required for data: 29828048
I1226 16:31:54.870600 11413 layer_factory.hpp:77] Creating layer relu7
I1226 16:31:54.870609 11413 net.cpp:84] Creating Layer relu7
I1226 16:31:54.870612 11413 net.cpp:406] relu7 <- fc7
I1226 16:31:54.870617 11413 net.cpp:367] relu7 -> fc7 (in-place)
I1226 16:31:54.871093 11413 net.cpp:122] Setting up relu7
I1226 16:31:54.871104 11413 net.cpp:129] Top shape: 1 4096 (4096)
I1226 16:31:54.871107 11413 net.cpp:137] Memory required for data: 29844432
I1226 16:31:54.871110 11413 layer_factory.hpp:77] Creating layer fc8
I1226 16:31:54.871117 11413 net.cpp:84] Creating Layer fc8
I1226 16:31:54.871120 11413 net.cpp:406] fc8 <- fc7
I1226 16:31:54.871125 11413 net.cpp:380] fc8 -> fc8
I1226 16:31:54.933662 11413 net.cpp:122] Setting up fc8
I1226 16:31:54.933682 11413 net.cpp:129] Top shape: 1 604 (604)
I1226 16:31:54.933686 11413 net.cpp:137] Memory required for data: 29846848
I1226 16:31:54.933696 11413 layer_factory.hpp:77] Creating layer fc8_fc8_0_split
I1226 16:31:54.933702 11413 net.cpp:84] Creating Layer fc8_fc8_0_split
I1226 16:31:54.933706 11413 net.cpp:406] fc8_fc8_0_split <- fc8
I1226 16:31:54.933710 11413 net.cpp:380] fc8_fc8_0_split -> fc8_fc8_0_split_0
I1226 16:31:54.933717 11413 net.cpp:380] fc8_fc8_0_split -> fc8_fc8_0_split_1
I1226 16:31:54.933784 11413 net.cpp:122] Setting up fc8_fc8_0_split
I1226 16:31:54.933789 11413 net.cpp:129] Top shape: 1 604 (604)
I1226 16:31:54.933792 11413 net.cpp:129] Top shape: 1 604 (604)
I1226 16:31:54.933795 11413 net.cpp:137] Memory required for data: 29851680
I1226 16:31:54.933797 11413 layer_factory.hpp:77] Creating layer sigmoid
I1226 16:31:54.933804 11413 net.cpp:84] Creating Layer sigmoid
I1226 16:31:54.933806 11413 net.cpp:406] sigmoid <- fc8_fc8_0_split_0
I1226 16:31:54.933812 11413 net.cpp:380] sigmoid -> sigmoid
I1226 16:31:54.934434 11413 net.cpp:122] Setting up sigmoid
I1226 16:31:54.934444 11413 net.cpp:129] Top shape: 1 604 (604)
I1226 16:31:54.934448 11413 net.cpp:137] Memory required for data: 29854096
I1226 16:31:54.934450 11413 layer_factory.hpp:77] Creating layer silence
I1226 16:31:54.934455 11413 net.cpp:84] Creating Layer silence
I1226 16:31:54.934458 11413 net.cpp:406] silence <- sigmoid
I1226 16:31:54.934461 11413 net.cpp:122] Setting up silence
I1226 16:31:54.934464 11413 net.cpp:137] Memory required for data: 29854096
…
