…
state {
  phase: TRAIN
}
layer {
  name: "word_images"
  type: "Data"
  top: "word_images"
  top: "label"
  transform_param {
    scale: -0.0039215689
    mean_value: 255
  }
  data_param {
    source: "/data/fwolf/min26/gw_cv1_nti500000_pul2-3-4-5_train_word_images_lmdb"
    batch_size: 1
    backend: LMDB
    prefetch: 20
  }
}
layer {
  name: "phocs"
  type: "Data"
  top: "phocs"
  top: "label_phocs"
  data_param {
    source: "/data/fwolf/min26/gw_cv1_nti500000_pul2-3-4-5_train_phocs_lmdb"
    batch_size: 1
    backend: LMDB
    prefetch: 20
  }
}
layer {
  name: "conv_init"
  type: "Convolution"
  bottom: "word_images"
  top: "conv_init"
  convolution_param {
    num_output: 32
    bias_term: false
    pad: 1
    kernel_size: 3
    stride: 1
    weight_filler {
      type: "msra"
    }
    bias_filler {
      type: "constant"
    }
    engine: CUDNN
  }
}
layer {
  name: "bn_init"
  type: "BatchNorm"
  bottom: "conv_init"
  top: "bn_init"
  param {
    lr_mult: 0
    decay_mult: 0
  }
  param {
    lr_mult: 0
    decay_mult: 0
  }
  param {
    lr_mult: 0
    decay_mult: 0
  }
  batch_norm_param {
    eps: 1e-05
  }
}
layer {
  name: "scale_init"
  type: "Scale"
  bottom: "bn_init"
  top: "bn_init"
  scale_param {
    filler {
      value: 1
    }
    bias_term: true
    bias_filler {
      value: 0
    }
  }
}
layer {
  name: "relu_init"
  type: "ReLU"
  bottom: "bn_init"
  top: "bn_init"
}
layer {
  name: "pool_init"
  type: "Pooling"
  bottom: "bn_init"
  top: "pool_init"
  pooling_param {
    pool: MAX
    kernel_size: 3
    stride: 2
    pad: 1
  }
}
layer {
  name: "conv0_0/bn"
  type: "BatchNorm"
  bottom: "pool_init"
  top: "conv0_0/bn"
  param {
    lr_mult: 0
    decay_mult: 0
  }
  param {
    lr_mult: 0
    decay_mult: 0
  }
  param {
    lr_mult: 0
    decay_mult: 0
  }
}
layer {
  name: "conv0_0/scale"
  type: "Scale"
  bottom: "conv0_0/bn"
  top: "conv0_0/bn"
  scale_param {
    filler {
      value: 1
    }
    bias_term: true
    bias_filler {
      value: 0
    }
  }
}
layer {
  name: "relu0_0"
  type: "ReLU"
  bottom: "conv0_0/bn"
  top: "conv0_0/bn"
}
layer {
  name: "conv0_0"
  type: "Convolution"
  bottom: "conv0_0/bn"
  top: "conv0_0"
  convolution_param {
    num_output: 12
    bias_term: false
    pad: 1
    kernel_size: 3
    stride: 1
    weight_filler {
      type: "msra"
    }
    bias_filler {
      type: "constant"
    }
    engine: CUDNN
  }
}
layer {
  name: "concat0_0"
  type: "Concat"
  bottom: "pool_init"
  bottom: "conv0_0"
  top: "concat0_0"
  concat_param {
    axis: 1
  }
}
layer {
  name: "conv0_1/bn"
  type: "BatchNorm"
  bottom: "concat0_0"
  top: "conv0_1/bn"
  param {
    lr_mult: 0
    decay_mult: 0
  }
  param {
    lr_mult: 0
    decay_mult: 0
  }
  param {
    lr_mult: 0
    decay_mult: 0
  }
}
layer {
  name: "conv0_1/scale"
  type: "Scale"
  bottom: "conv0_1/bn"
  top: "conv0_1/bn"
  scale_param {
    filler {
      value: 1
    }
    bias_term: true
    bias_filler {
      value: 0
    }
  }
}
layer {
  name: "relu0_1"
  type: "ReLU"
  bottom: "conv0_1/bn"
  top: "conv0_1/bn"
}
layer {
  name: "conv0_1"
  type: "Convolution"
  bottom: "conv0_1/bn"
  top: "conv0_1"
  convolution_param {
    num_output: 12
    bias_term: false
    pad: 1
    kernel_size: 3
    stride: 1
    weight_filler {
      type: "msra"
    }
    bias_filler {
      type: "constant"
    }
    engine: CUDNN
  }
}
layer {
  name: "concat0_1"
  type: "Concat"
  bottom: "concat0_0"
  bottom: "conv0_1"
  top: "concat0_1"
  concat_param {
    axis: 1
  }
}
layer {
  name: "conv0_2/bn"
  type: "BatchNorm"
  bottom: "concat0_1"
  top: "conv0_2/bn"
  param {
    lr_mult: 0
    decay_mult: 0
  }
  param {
    lr_mult: 0
    decay_mult: 0
  }
  param {
    lr_mult: 0
    decay_mult: 0
  }
}
layer {
  name: "conv0_2/scale"
  type: "Scale"
  bottom: "conv0_2/bn"
  top: "conv0_2/bn"
  scale_param {
    filler {
      value: 1
    }
    bias_term: true
    bias_filler {
      value: 0
    }
  }
}
layer {
  name: "relu0_2"
  type: "ReLU"
  bottom: "conv0_2/bn"
  top: "conv0_2/bn"
}
layer {
  name: "conv0_2"
  type: "Convolution"
  bottom: "conv0_2/bn"
  top: "conv0_2"
  convolution_param {
    num_output: 12
    bias_term: false
    pad: 1
    kernel_size: 3
    stride: 1
    weight_filler {
      type: "msra"
    }
    bias_filler {
      type: "constant"
    }
    engine: CUDNN
  }
}
layer {
  name: "concat0_2"
  type: "Concat"
  bottom: "concat0_1"
  bottom: "conv0_2"
  top: "concat0_2"
  concat_param {
    axis: 1
  }
}
layer {
  name: "conv0_3/bn"
  type: "BatchNorm"
  bottom: "concat0_2"
  top: "conv0_3/bn"
  param {
    lr_mult: 0
    decay_mult: 0
  }
  param {
    lr_mult: 0
    decay_mult: 0
  }
  param {
    lr_mult: 0
    decay_mult: 0
  }
}
layer {
  name: "conv0_3/scale"
  type: "Scale"
  bottom: "conv0_3/bn"
  top: "conv0_3/bn"
  scale_param {
    filler {
      value: 1
    }
    bias_term: true
    bias_filler {
      value: 0
    }
  }
}
layer {
  name: "relu0_3"
  type: "ReLU"
  bottom: "conv0_3/bn"
  top: "conv0_3/bn"
}
layer {
  name: "conv0_3"
  type: "Convolution"
  bottom: "conv0_3/bn"
  top: "conv0_3"
  convolution_param {
    num_output: 12
    bias_term: false
    pad: 1
    kernel_size: 3
    stride: 1
    weight_filler {
      type: "msra"
    }
    bias_filler {
      type: "constant"
    }
    engine: CUDNN
  }
}
layer {
  name: "concat0_3"
  type: "Concat"
  bottom: "concat0_2"
  bottom: "conv0_3"
  top: "concat0_3"
  concat_param {
    axis: 1
  }
}
layer {
  name: "conv0_4/bn"
  type: "BatchNorm"
  bottom: "concat0_3"
  top: "conv0_4/bn"
  param {
    lr_mult: 0
    decay_mult: 0
  }
  param {
    lr_mult: 0
    decay_mult: 0
  }
  param {
    lr_mult: 0
    decay_mult: 0
  }
}
layer {
  name: "conv0_4/scale"
  type: "Scale"
  bottom: "conv0_4/bn"
  top: "conv0_4/bn"
  scale_param {
    filler {
      value: 1
    }
    bias_term: true
    bias_filler {
      value: 0
    }
  }
}
layer {
  name: "relu0_4"
  type: "ReLU"
  bottom: "conv0_4/bn"
  top: "conv0_4/bn"
}
layer {
  name: "conv0_4"
  type: "Convolution"
  bottom: "conv0_4/bn"
  top: "conv0_4"
  convolution_param {
    num_output: 12
    bias_term: false
    pad: 1
    kernel_size: 3
    stride: 1
    weight_filler {
      type: "msra"
    }
    bias_filler {
      type: "constant"
    }
    engine: CUDNN
  }
}
layer {
  name: "concat0_4"
  type: "Concat"
  bottom: "concat0_3"
  bottom: "conv0_4"
  top: "concat0_4"
  concat_param {
    axis: 1
  }
}
layer {
  name: "conv0_5/bn"
  type: "BatchNorm"
  bottom: "concat0_4"
  top: "conv0_5/bn"
  param {
    lr_mult: 0
    decay_mult: 0
  }
  param {
    lr_mult: 0
    decay_mult: 0
  }
  param {
    lr_mult: 0
    decay_mult: 0
  }
}
layer {
  name: "conv0_5/scale"
  type: "Scale"
  bottom: "conv0_5/bn"
  top: "conv0_5/bn"
  scale_param {
    filler {
      value: 1
    }
    bias_term: true
    bias_filler {
      value: 0
    }
  }
}
layer {
  name: "relu0_5"
  type: "ReLU"
  bottom: "conv0_5/bn"
  top: "conv0_5/bn"
}
layer {
  name: "conv0_5"
  type: "Convolution"
  bottom: "conv0_5/bn"
  top: "conv0_5"
  convolution_param {
    num_output: 12
    bias_term: false
    pad: 1
    kernel_size: 3
    stride: 1
    weight_filler {
      type: "msra"
    }
    bias_filler {
      type: "constant"
    }
    engine: CUDNN
  }
}
layer {
  name: "concat0_5"
  type: "Concat"
  bottom: "concat0_4"
  bottom: "conv0_5"
  top: "concat0_5"
  concat_param {
    axis: 1
  }
}
layer {
  name: "conv0_6/bn"
  type: "BatchNorm"
  bottom: "concat0_5"
  top: "conv0_6/bn"
  param {
    lr_mult: 0
    decay_mult: 0
  }
  param {
    lr_mult: 0
    decay_mult: 0
  }
  param {
    lr_mult: 0
    decay_mult: 0
  }
}
layer {
  name: "conv0_6/scale"
  type: "Scale"
  bottom: "conv0_6/bn"
  top: "conv0_6/bn"
  scale_param {
    filler {
      value: 1
    }
    bias_term: true
    bias_filler {
      value: 0
    }
  }
}
layer {
  name: "relu0_6"
  type: "ReLU"
  bottom: "conv0_6/bn"
  top: "conv0_6/bn"
}
layer {
  name: "conv0_6"
  type: "Convolution"
  bottom: "conv0_6/bn"
  top: "conv0_6"
  convolution_param {
    num_output: 12
    bias_term: false
    pad: 1
    kernel_size: 3
    stride: 1
    weight_filler {
      type: "msra"
    }
    bias_filler {
      type: "constant"
    }
    engine: CUDNN
  }
}
layer {
  name: "concat0_6"
  type: "Concat"
  bottom: "concat0_5"
  bottom: "conv0_6"
  top: "concat0_6"
  concat_param {
    axis: 1
  }
}
layer {
  name: "conv0_7/bn"
  type: "BatchNorm"
  bottom: "concat0_6"
  top: "conv0_7/bn"
  param {
    lr_mult: 0
    decay_mult: 0
  }
  param {
    lr_mult: 0
    decay_mult: 0
  }
  param {
    lr_mult: 0
    decay_mult: 0
  }
}
layer {
  name: "conv0_7/scale"
  type: "Scale"
  bottom: "conv0_7/bn"
  top: "conv0_7/bn"
  scale_param {
    filler {
      value: 1
    }
    bias_term: true
    bias_filler {
      value: 0
    }
  }
}
layer {
  name: "relu0_7"
  type: "ReLU"
  bottom: "conv0_7/bn"
  top: "conv0_7/bn"
}
layer {
  name: "conv0_7"
  type: "Convolution"
  bottom: "conv0_7/bn"
  top: "conv0_7"
  convolution_param {
    num_output: 12
    bias_term: false
    pad: 1
    kernel_size: 3
    stride: 1
    weight_filler {
      type: "msra"
    }
    bias_filler {
      type: "constant"
    }
    engine: CUDNN
  }
}
layer {
  name: "concat0_7"
  type: "Concat"
  bottom: "concat0_6"
  bottom: "conv0_7"
  top: "concat0_7"
  concat_param {
    axis: 1
  }
}
layer {
  name: "conv0_8/bn"
  type: "BatchNorm"
  bottom: "concat0_7"
  top: "conv0_8/bn"
  param {
    lr_mult: 0
    decay_mult: 0
  }
  param {
    lr_mult: 0
    decay_mult: 0
  }
  param {
    lr_mult: 0
    decay_mult: 0
  }
}
layer {
  name: "conv0_8/scale"
  type: "Scale"
  bottom: "conv0_8/bn"
  top: "conv0_8/bn"
  scale_param {
    filler {
      value: 1
    }
    bias_term: true
    bias_filler {
      value: 0
    }
  }
}
layer {
  name: "relu0_8"
  type: "ReLU"
  bottom: "conv0_8/bn"
  top: "conv0_8/bn"
}
layer {
  name: "conv0_8"
  type: "Convolution"
  bottom: "conv0_8/bn"
  top: "conv0_8"
  convolution_param {
    num_output: 12
    bias_term: false
    pad: 1
    kernel_size: 3
    stride: 1
    weight_filler {
      type: "msra"
    }
    bias_filler {
      type: "constant"
    }
    engine: CUDNN
  }
}
layer {
  name: "concat0_8"
  type: "Concat"
  bottom: "concat0_7"
  bottom: "conv0_8"
  top: "concat0_8"
  concat_param {
    axis: 1
  }
}
layer {
  name: "conv0_9/bn"
  type: "BatchNorm"
  bottom: "concat0_8"
  top: "conv0_9/bn"
  param {
    lr_mult: 0
    decay_mult: 0
  }
  param {
    lr_mult: 0
    decay_mult: 0
  }
  param {
    lr_mult: 0
    decay_mult: 0
  }
}
layer {
  name: "conv0_9/scale"
  type: "Scale"
  bottom: "conv0_9/bn"
  top: "conv0_9/bn"
  scale_param {
    filler {
      value: 1
    }
    bias_term: true
    bias_filler {
      value: 0
    }
  }
}
layer {
  name: "relu0_9"
  type: "ReLU"
  bottom: "conv0_9/bn"
  top: "conv0_9/bn"
}
layer {
  name: "conv0_9"
  type: "Convolution"
  bottom: "conv0_9/bn"
  top: "conv0_9"
  convolution_param {
    num_output: 12
    bias_term: false
    pad: 1
    kernel_size: 3
    stride: 1
    weight_filler {
      type: "msra"
    }
    bias_filler {
      type: "constant"
    }
    engine: CUDNN
  }
}
layer {
  name: "concat0_9"
  type: "Concat"
  bottom: "concat0_8"
  bottom: "conv0_9"
  top: "concat0_9"
  concat_param {
    axis: 1
  }
}
layer {
  name: "conv0_10/bn"
  type: "BatchNorm"
  bottom: "concat0_9"
  top: "conv0_10/bn"
  param {
    lr_mult: 0
    decay_mult: 0
  }
  param {
    lr_mult: 0
    decay_mult: 0
  }
  param {
    lr_mult: 0
    decay_mult: 0
  }
}
layer {
  name: "conv0_10/scale"
  type: "Scale"
  bottom: "conv0_10/bn"
  top: "conv0_10/bn"
  scale_param {
    filler {
      value: 1
    }
    bias_term: true
    bias_filler {
      value: 0
    }
  }
}
layer {
  name: "relu0_10"
  type: "ReLU"
  bottom: "conv0_10/bn"
  top: "conv0_10/bn"
}
layer {
  name: "conv0_10"
  type: "Convolution"
  bottom: "conv0_10/bn"
  top: "conv0_10"
  convolution_param {
    num_output: 12
    bias_term: false
    pad: 1
    kernel_size: 3
    stride: 1
    weight_filler {
      type: "msra"
    }
    bias_filler {
      type: "constant"
    }
    engine: CUDNN
  }
}
layer {
  name: "concat0_10"
  type: "Concat"
  bottom: "concat0_9"
  bottom: "conv0_10"
  top: "concat0_10"
  concat_param {
    axis: 1
  }
}
layer {
  name: "conv0_11/bn"
  type: "BatchNorm"
  bottom: "concat0_10"
  top: "conv0_11/bn"
  param {
    lr_mult: 0
    decay_mult: 0
  }
  param {
    lr_mult: 0
    decay_mult: 0
  }
  param {
    lr_mult: 0
    decay_mult: 0
  }
}
layer {
  name: "conv0_11/scale"
  type: "Scale"
  bottom: "conv0_11/bn"
  top: "conv0_11/bn"
  scale_param {
    filler {
      value: 1
    }
    bias_term: true
    bias_filler {
      value: 0
    }
  }
}
layer {
  name: "relu0_11"
  type: "ReLU"
  bottom: "conv0_11/bn"
  top: "conv0_11/bn"
}
layer {
  name: "conv0_11"
  type: "Convolution"
  bottom: "conv0_11/bn"
  top: "conv0_11"
  convolution_param {
    num_output: 12
    bias_term: false
    pad: 1
    kernel_size: 3
    stride: 1
    weight_filler {
      type: "msra"
    }
    bias_filler {
      type: "constant"
    }
    engine: CUDNN
  }
}
layer {
  name: "concat0_11"
  type: "Concat"
  bottom: "concat0_10"
  bottom: "conv0_11"
  top: "concat0_11"
  concat_param {
    axis: 1
  }
}
layer {
  name: "conv0_12/bn"
  type: "BatchNorm"
  bottom: "concat0_11"
  top: "conv0_12/bn"
  param {
    lr_mult: 0
    decay_mult: 0
  }
  param {
    lr_mult: 0
    decay_mult: 0
  }
  param {
    lr_mult: 0
    decay_mult: 0
  }
}
layer {
  name: "conv0_12/scale"
  type: "Scale"
  bottom: "conv0_12/bn"
  top: "conv0_12/bn"
  scale_param {
    filler {
      value: 1
    }
    bias_term: true
    bias_filler {
      value: 0
    }
  }
}
layer {
  name: "relu0_12"
  type: "ReLU"
  bottom: "conv0_12/bn"
  top: "conv0_12/bn"
}
layer {
  name: "conv0_12"
  type: "Convolution"
  bottom: "conv0_12/bn"
  top: "conv0_12"
  convolution_param {
    num_output: 12
    bias_term: false
    pad: 1
    kernel_size: 3
    stride: 1
    weight_filler {
      type: "msra"
    }
    bias_filler {
      type: "constant"
    }
    engine: CUDNN
  }
}
layer {
  name: "concat0_12"
  type: "Concat"
  bottom: "concat0_11"
  bottom: "conv0_12"
  top: "concat0_12"
  concat_param {
    axis: 1
  }
}
layer {
  name: "conv0_13/bn"
  type: "BatchNorm"
  bottom: "concat0_12"
  top: "conv0_13/bn"
  param {
    lr_mult: 0
    decay_mult: 0
  }
  param {
    lr_mult: 0
    decay_mult: 0
  }
  param {
    lr_mult: 0
    decay_mult: 0
  }
}
layer {
  name: "conv0_13/scale"
  type: "Scale"
  bottom: "conv0_13/bn"
  top: "conv0_13/bn"
  scale_param {
    filler {
      value: 1
    }
    bias_term: true
    bias_filler {
      value: 0
    }
  }
}
layer {
  name: "relu0_13"
  type: "ReLU"
  bottom: "conv0_13/bn"
  top: "conv0_13/bn"
}
layer {
  name: "conv0_13"
  type: "Convolution"
  bottom: "conv0_13/bn"
  top: "conv0_13"
  convolution_param {
    num_output: 12
    bias_term: false
    pad: 1
    kernel_size: 3
    stride: 1
    weight_filler {
      type: "msra"
    }
    bias_filler {
      type: "constant"
    }
    engine: CUDNN
  }
}
layer {
  name: "concat0_13"
  type: "Concat"
  bottom: "concat0_12"
  bottom: "conv0_13"
  top: "concat0_13"
  concat_param {
    axis: 1
  }
}
layer {
  name: "conv0_14/bn"
  type: "BatchNorm"
  bottom: "concat0_13"
  top: "conv0_14/bn"
  param {
    lr_mult: 0
    decay_mult: 0
  }
  param {
    lr_mult: 0
    decay_mult: 0
  }
  param {
    lr_mult: 0
    decay_mult: 0
  }
}
layer {
  name: "conv0_14/scale"
  type: "Scale"
  bottom: "conv0_14/bn"
  top: "conv0_14/bn"
  scale_param {
    filler {
      value: 1
    }
    bias_term: true
    bias_filler {
      value: 0
    }
  }
}
layer {
  name: "relu0_14"
  type: "ReLU"
  bottom: "conv0_14/bn"
  top: "conv0_14/bn"
}
layer {
  name: "conv0_14"
  type: "Convolution"
  bottom: "conv0_14/bn"
  top: "conv0_14"
  convolution_param {
    num_output: 12
    bias_term: false
    pad: 1
    kernel_size: 3
    stride: 1
    weight_filler {
      type: "msra"
    }
    bias_filler {
      type: "constant"
    }
    engine: CUDNN
  }
}
layer {
  name: "concat0_14"
  type: "Concat"
  bottom: "concat0_13"
  bottom: "conv0_14"
  top: "concat0_14"
  concat_param {
    axis: 1
  }
}
layer {
  name: "conv0_15/bn"
  type: "BatchNorm"
  bottom: "concat0_14"
  top: "conv0_15/bn"
  param {
    lr_mult: 0
    decay_mult: 0
  }
  param {
    lr_mult: 0
    decay_mult: 0
  }
  param {
    lr_mult: 0
    decay_mult: 0
  }
}
layer {
  name: "conv0_15/scale"
  type: "Scale"
  bottom: "conv0_15/bn"
  top: "conv0_15/bn"
  scale_param {
    filler {
      value: 1
    }
    bias_term: true
    bias_filler {
      value: 0
    }
  }
}
layer {
  name: "relu0_15"
  type: "ReLU"
  bottom: "conv0_15/bn"
  top: "conv0_15/bn"
}
layer {
  name: "conv0_15"
  type: "Convolution"
  bottom: "conv0_15/bn"
  top: "conv0_15"
  convolution_param {
    num_output: 12
    bias_term: false
    pad: 1
    kernel_size: 3
    stride: 1
    weight_filler {
      type: "msra"
    }
    bias_filler {
      type: "constant"
    }
    engine: CUDNN
  }
}
layer {
  name: "concat0_15"
  type: "Concat"
  bottom: "concat0_14"
  bottom: "conv0_15"
  top: "concat0_15"
  concat_param {
    axis: 1
  }
}
layer {
  name: "BatchNorm1"
  type: "BatchNorm"
  bottom: "concat0_15"
  top: "BatchNorm1"
  param {
    lr_mult: 0
    decay_mult: 0
  }
  param {
    lr_mult: 0
    decay_mult: 0
  }
  param {
    lr_mult: 0
    decay_mult: 0
  }
}
layer {
  name: "Scale1"
  type: "Scale"
  bottom: "BatchNorm1"
  top: "BatchNorm1"
  scale_param {
    filler {
      value: 1
    }
    bias_term: true
    bias_filler {
      value: 0
    }
  }
}
layer {
  name: "ReLU1"
  type: "ReLU"
  bottom: "BatchNorm1"
  top: "BatchNorm1"
}
layer {
  name: "conv0_blk"
  type: "Convolution"
  bottom: "BatchNorm1"
  top: "conv0_blk"
  convolution_param {
    num_output: 224
    bias_term: false
    pad: 0
    kernel_size: 1
    stride: 1
    weight_filler {
      type: "msra"
    }
    bias_filler {
      type: "constant"
    }
    engine: CUDNN
  }
}
layer {
  name: "pool0"
  type: "Pooling"
  bottom: "conv0_blk"
  top: "pool0"
  pooling_param {
    pool: AVE
    kernel_size: 2
    stride: 2
  }
}
layer {
  name: "conv1_0/bn"
  type: "BatchNorm"
  bottom: "pool0"
  top: "conv1_0/bn"
  param {
    lr_mult: 0
    decay_mult: 0
  }
  param {
    lr_mult: 0
    decay_mult: 0
  }
  param {
    lr_mult: 0
    decay_mult: 0
  }
}
layer {
  name: "conv1_0/scale"
  type: "Scale"
  bottom: "conv1_0/bn"
  top: "conv1_0/bn"
  scale_param {
    filler {
      value: 1
    }
    bias_term: true
    bias_filler {
      value: 0
    }
  }
}
layer {
  name: "relu1_0"
  type: "ReLU"
  bottom: "conv1_0/bn"
  top: "conv1_0/bn"
}
layer {
  name: "conv1_0"
  type: "Convolution"
  bottom: "conv1_0/bn"
  top: "conv1_0"
  convolution_param {
    num_output: 12
    bias_term: false
    pad: 1
    kernel_size: 3
    stride: 1
    weight_filler {
      type: "msra"
    }
    bias_filler {
      type: "constant"
    }
    engine: CUDNN
  }
}
layer {
  name: "concat1_0"
  type: "Concat"
  bottom: "pool0"
  bottom: "conv1_0"
  top: "concat1_0"
  concat_param {
    axis: 1
  }
}
layer {
  name: "conv1_1/bn"
  type: "BatchNorm"
  bottom: "concat1_0"
  top: "conv1_1/bn"
  param {
    lr_mult: 0
    decay_mult: 0
  }
  param {
    lr_mult: 0
    decay_mult: 0
  }
  param {
    lr_mult: 0
    decay_mult: 0
  }
}
layer {
  name: "conv1_1/scale"
  type: "Scale"
  bottom: "conv1_1/bn"
  top: "conv1_1/bn"
  scale_param {
    filler {
      value: 1
    }
    bias_term: true
    bias_filler {
      value: 0
    }
  }
}
layer {
  name: "relu1_1"
  type: "ReLU"
  bottom: "conv1_1/bn"
  top: "conv1_1/bn"
}
layer {
  name: "conv1_1"
  type: "Convolution"
  bottom: "conv1_1/bn"
  top: "conv1_1"
  convolution_param {
    num_output: 12
    bias_term: false
    pad: 1
    kernel_size: 3
    stride: 1
    weight_filler {
      type: "msra"
    }
    bias_filler {
      type: "constant"
    }
    engine: CUDNN
  }
}
layer {
  name: "concat1_1"
  type: "Concat"
  bottom: "concat1_0"
  bottom: "conv1_1"
  top: "concat1_1"
  concat_param {
    axis: 1
  }
}
layer {
  name: "conv1_2/bn"
  type: "BatchNorm"
  bottom: "concat1_1"
  top: "conv1_2/bn"
  param {
    lr_mult: 0
    decay_mult: 0
  }
  param {
    lr_mult: 0
    decay_mult: 0
  }
  param {
    lr_mult: 0
    decay_mult: 0
  }
}
layer {
  name: "conv1_2/scale"
  type: "Scale"
  bottom: "conv1_2/bn"
  top: "conv1_2/bn"
  scale_param {
    filler {
      value: 1
    }
    bias_term: true
    bias_filler {
      value: 0
    }
  }
}
layer {
  name: "relu1_2"
  type: "ReLU"
  bottom: "conv1_2/bn"
  top: "conv1_2/bn"
}
layer {
  name: "conv1_2"
  type: "Convolution"
  bottom: "conv1_2/bn"
  top: "conv1_2"
  convolution_param {
    num_output: 12
    bias_term: false
    pad: 1
    kernel_size: 3
    stride: 1
    weight_filler {
      type: "msra"
    }
    bias_filler {
      type: "constant"
    }
    engine: CUDNN
  }
}
layer {
  name: "concat1_2"
  type: "Concat"
  bottom: "concat1_1"
  bottom: "conv1_2"
  top: "concat1_2"
  concat_param {
    axis: 1
  }
}
layer {
  name: "conv1_3/bn"
  type: "BatchNorm"
  bottom: "concat1_2"
  top: "conv1_3/bn"
  param {
    lr_mult: 0
    decay_mult: 0
  }
  param {
    lr_mult: 0
    decay_mult: 0
  }
  param {
    lr_mult: 0
    decay_mult: 0
  }
}
layer {
  name: "conv1_3/scale"
  type: "Scale"
  bottom: "conv1_3/bn"
  top: "conv1_3/bn"
  scale_param {
    filler {
      value: 1
    }
    bias_term: true
    bias_filler {
      value: 0
    }
  }
}
layer {
  name: "relu1_3"
  type: "ReLU"
  bottom: "conv1_3/bn"
  top: "conv1_3/bn"
}
layer {
  name: "conv1_3"
  type: "Convolution"
  bottom: "conv1_3/bn"
  top: "conv1_3"
  convolution_param {
    num_output: 12
    bias_term: false
    pad: 1
    kernel_size: 3
    stride: 1
    weight_filler {
      type: "msra"
    }
    bias_filler {
      type: "constant"
    }
    engine: CUDNN
  }
}
layer {
  name: "concat1_3"
  type: "Concat"
  bottom: "concat1_2"
  bottom: "conv1_3"
  top: "concat1_3"
  concat_param {
    axis: 1
  }
}
layer {
  name: "conv1_4/bn"
  type: "BatchNorm"
  bottom: "concat1_3"
  top: "conv1_4/bn"
  param {
    lr_mult: 0
    decay_mult: 0
  }
  param {
    lr_mult: 0
    decay_mult: 0
  }
  param {
    lr_mult: 0
    decay_mult: 0
  }
}
layer {
  name: "conv1_4/scale"
  type: "Scale"
  bottom: "conv1_4/bn"
  top: "conv1_4/bn"
  scale_param {
    filler {
      value: 1
    }
    bias_term: true
    bias_filler {
      value: 0
    }
  }
}
layer {
  name: "relu1_4"
  type: "ReLU"
  bottom: "conv1_4/bn"
  top: "conv1_4/bn"
}
layer {
  name: "conv1_4"
  type: "Convolution"
  bottom: "conv1_4/bn"
  top: "conv1_4"
  convolution_param {
    num_output: 12
    bias_term: false
    pad: 1
    kernel_size: 3
    stride: 1
    weight_filler {
      type: "msra"
    }
    bias_filler {
      type: "constant"
    }
    engine: CUDNN
  }
}
layer {
  name: "concat1_4"
  type: "Concat"
  bottom: "concat1_3"
  bottom: "conv1_4"
  top: "concat1_4"
  concat_param {
    axis: 1
  }
}
layer {
  name: "conv1_5/bn"
  type: "BatchNorm"
  bottom: "concat1_4"
  top: "conv1_5/bn"
  param {
    lr_mult: 0
    decay_mult: 0
  }
  param {
    lr_mult: 0
    decay_mult: 0
  }
  param {
    lr_mult: 0
    decay_mult: 0
  }
}
layer {
  name: "conv1_5/scale"
  type: "Scale"
  bottom: "conv1_5/bn"
  top: "conv1_5/bn"
  scale_param {
    filler {
      value: 1
    }
    bias_term: true
    bias_filler {
      value: 0
    }
  }
}
layer {
  name: "relu1_5"
  type: "ReLU"
  bottom: "conv1_5/bn"
  top: "conv1_5/bn"
}
layer {
  name: "conv1_5"
  type: "Convolution"
  bottom: "conv1_5/bn"
  top: "conv1_5"
  convolution_param {
    num_output: 12
    bias_term: false
    pad: 1
    kernel_size: 3
    stride: 1
    weight_filler {
      type: "msra"
    }
    bias_filler {
      type: "constant"
    }
    engine: CUDNN
  }
}
layer {
  name: "concat1_5"
  type: "Concat"
  bottom: "concat1_4"
  bottom: "conv1_5"
  top: "concat1_5"
  concat_param {
    axis: 1
  }
}
layer {
  name: "conv1_6/bn"
  type: "BatchNorm"
  bottom: "concat1_5"
  top: "conv1_6/bn"
  param {
    lr_mult: 0
    decay_mult: 0
  }
  param {
    lr_mult: 0
    decay_mult: 0
  }
  param {
    lr_mult: 0
    decay_mult: 0
  }
}
layer {
  name: "conv1_6/scale"
  type: "Scale"
  bottom: "conv1_6/bn"
  top: "conv1_6/bn"
  scale_param {
    filler {
      value: 1
    }
    bias_term: true
    bias_filler {
      value: 0
    }
  }
}
layer {
  name: "relu1_6"
  type: "ReLU"
  bottom: "conv1_6/bn"
  top: "conv1_6/bn"
}
layer {
  name: "conv1_6"
  type: "Convolution"
  bottom: "conv1_6/bn"
  top: "conv1_6"
  convolution_param {
    num_output: 12
    bias_term: false
    pad: 1
    kernel_size: 3
    stride: 1
    weight_filler {
      type: "msra"
    }
    bias_filler {
      type: "constant"
    }
    engine: CUDNN
  }
}
layer {
  name: "concat1_6"
  type: "Concat"
  bottom: "concat1_5"
  bottom: "conv1_6"
  top: "concat1_6"
  concat_param {
    axis: 1
  }
}
layer {
  name: "conv1_7/bn"
  type: "BatchNorm"
  bottom: "concat1_6"
  top: "conv1_7/bn"
  param {
    lr_mult: 0
    decay_mult: 0
  }
  param {
    lr_mult: 0
    decay_mult: 0
  }
  param {
    lr_mult: 0
    decay_mult: 0
  }
}
layer {
  name: "conv1_7/scale"
  type: "Scale"
  bottom: "conv1_7/bn"
  top: "conv1_7/bn"
  scale_param {
    filler {
      value: 1
    }
    bias_term: true
    bias_filler {
      value: 0
    }
  }
}
layer {
  name: "relu1_7"
  type: "ReLU"
  bottom: "conv1_7/bn"
  top: "conv1_7/bn"
}
layer {
  name: "conv1_7"
  type: "Convolution"
  bottom: "conv1_7/bn"
  top: "conv1_7"
  convolution_param {
    num_output: 12
    bias_term: false
    pad: 1
    kernel_size: 3
    stride: 1
    weight_filler {
      type: "msra"
    }
    bias_filler {
      type: "constant"
    }
    engine: CUDNN
  }
}
layer {
  name: "concat1_7"
  type: "Concat"
  bottom: "concat1_6"
  bottom: "conv1_7"
  top: "concat1_7"
  concat_param {
    axis: 1
  }
}
layer {
  name: "conv1_8/bn"
  type: "BatchNorm"
  bottom: "concat1_7"
  top: "conv1_8/bn"
  param {
    lr_mult: 0
    decay_mult: 0
  }
  param {
    lr_mult: 0
    decay_mult: 0
  }
  param {
    lr_mult: 0
    decay_mult: 0
  }
}
layer {
  name: "conv1_8/scale"
  type: "Scale"
  bottom: "conv1_8/bn"
  top: "conv1_8/bn"
  scale_param {
    filler {
      value: 1
    }
    bias_term: true
    bias_filler {
      value: 0
    }
  }
}
layer {
  name: "relu1_8"
  type: "ReLU"
  bottom: "conv1_8/bn"
  top: "conv1_8/bn"
}
layer {
  name: "conv1_8"
  type: "Convolution"
  bottom: "conv1_8/bn"
  top: "conv1_8"
  convolution_param {
    num_output: 12
    bias_term: false
    pad: 1
    kernel_size: 3
    stride: 1
    weight_filler {
      type: "msra"
    }
    bias_filler {
      type: "constant"
    }
    engine: CUDNN
  }
}
layer {
  name: "concat1_8"
  type: "Concat"
  bottom: "concat1_7"
  bottom: "conv1_8"
  top: "concat1_8"
  concat_param {
    axis: 1
  }
}
layer {
  name: "conv1_9/bn"
  type: "BatchNorm"
  bottom: "concat1_8"
  top: "conv1_9/bn"
  param {
    lr_mult: 0
    decay_mult: 0
  }
  param {
    lr_mult: 0
    decay_mult: 0
  }
  param {
    lr_mult: 0
    decay_mult: 0
  }
}
layer {
  name: "conv1_9/scale"
  type: "Scale"
  bottom: "conv1_9/bn"
  top: "conv1_9/bn"
  scale_param {
    filler {
      value: 1
    }
    bias_term: true
    bias_filler {
      value: 0
    }
  }
}
layer {
  name: "relu1_9"
  type: "ReLU"
  bottom: "conv1_9/bn"
  top: "conv1_9/bn"
}
layer {
  name: "conv1_9"
  type: "Convolution"
  bottom: "conv1_9/bn"
  top: "conv1_9"
  convolution_param {
    num_output: 12
    bias_term: false
    pad: 1
    kernel_size: 3
    stride: 1
    weight_filler {
      type: "msra"
    }
    bias_filler {
      type: "constant"
    }
    engine: CUDNN
  }
}
layer {
  name: "concat1_9"
  type: "Concat"
  bottom: "concat1_8"
  bottom: "conv1_9"
  top: "concat1_9"
  concat_param {
    axis: 1
  }
}
layer {
  name: "conv1_10/bn"
  type: "BatchNorm"
  bottom: "concat1_9"
  top: "conv1_10/bn"
  param {
    lr_mult: 0
    decay_mult: 0
  }
  param {
    lr_mult: 0
    decay_mult: 0
  }
  param {
    lr_mult: 0
    decay_mult: 0
  }
}
layer {
  name: "conv1_10/scale"
  type: "Scale"
  bottom: "conv1_10/bn"
  top: "conv1_10/bn"
  scale_param {
    filler {
      value: 1
    }
    bias_term: true
    bias_filler {
      value: 0
    }
  }
}
layer {
  name: "relu1_10"
  type: "ReLU"
  bottom: "conv1_10/bn"
  top: "conv1_10/bn"
}
layer {
  name: "conv1_10"
  type: "Convolution"
  bottom: "conv1_10/bn"
  top: "conv1_10"
  convolution_param {
    num_output: 12
    bias_term: false
    pad: 1
    kernel_size: 3
    stride: 1
    weight_filler {
      type: "msra"
    }
    bias_filler {
      type: "constant"
    }
    engine: CUDNN
  }
}
layer {
  name: "concat1_10"
  type: "Concat"
  bottom: "concat1_9"
  bottom: "conv1_10"
  top: "concat1_10"
  concat_param {
    axis: 1
  }
}
layer {
  name: "conv1_11/bn"
  type: "BatchNorm"
  bottom: "concat1_10"
  top: "conv1_11/bn"
  param {
    lr_mult: 0
    decay_mult: 0
  }
  param {
    lr_mult: 0
    decay_mult: 0
  }
  param {
    lr_mult: 0
    decay_mult: 0
  }
}
layer {
  name: "conv1_11/scale"
  type: "Scale"
  bottom: "conv1_11/bn"
  top: "conv1_11/bn"
  scale_param {
    filler {
      value: 1
    }
    bias_term: true
    bias_filler {
      value: 0
    }
  }
}
layer {
  name: "relu1_11"
  type: "ReLU"
  bottom: "conv1_11/bn"
  top: "conv1_11/bn"
}
layer {
  name: "conv1_11"
  type: "Convolution"
  bottom: "conv1_11/bn"
  top: "conv1_11"
  convolution_param {
    num_output: 12
    bias_term: false
    pad: 1
    kernel_size: 3
    stride: 1
    weight_filler {
      type: "msra"
    }
    bias_filler {
      type: "constant"
    }
    engine: CUDNN
  }
}
layer {
  name: "concat1_1
I1205 15:16:57.687829  4225 layer_factory.hpp:77] Creating layer word_images
I1205 15:16:57.687909  4225 db_lmdb.cpp:35] Opened lmdb /data/fwolf/min26/gw_cv1_nti500000_pul2-3-4-5_train_word_images_lmdb
I1205 15:16:57.687947  4225 net.cpp:84] Creating Layer word_images
I1205 15:16:57.687954  4225 net.cpp:380] word_images -> word_images
I1205 15:16:57.687966  4225 net.cpp:380] word_images -> label
I1205 15:16:57.689257  4225 data_layer.cpp:44] output data size: 1,1,72,422
I1205 15:16:57.694665  4225 net.cpp:122] Setting up word_images
I1205 15:16:57.694685  4225 net.cpp:129] Top shape: 1 1 72 422 (30384)
I1205 15:16:57.694691  4225 net.cpp:129] Top shape: 1 (1)
I1205 15:16:57.694695  4225 net.cpp:137] Memory required for data: 121540
I1205 15:16:57.694701  4225 layer_factory.hpp:77] Creating layer phocs
I1205 15:16:57.694752  4225 db_lmdb.cpp:35] Opened lmdb /data/fwolf/min26/gw_cv1_nti500000_pul2-3-4-5_train_phocs_lmdb
I1205 15:16:57.694784  4225 net.cpp:84] Creating Layer phocs
I1205 15:16:57.694792  4225 net.cpp:380] phocs -> phocs
I1205 15:16:57.694803  4225 net.cpp:380] phocs -> label_phocs
I1205 15:16:57.695233  4225 data_layer.cpp:44] output data size: 1,1,1,604
I1205 15:16:57.698001  4225 net.cpp:122] Setting up phocs
I1205 15:16:57.698016  4225 net.cpp:129] Top shape: 1 1 1 604 (604)
I1205 15:16:57.698022  4225 net.cpp:129] Top shape: 1 (1)
I1205 15:16:57.698026  4225 net.cpp:137] Memory required for data: 123960
I1205 15:16:57.698034  4225 layer_factory.hpp:77] Creating layer conv_init
I1205 15:16:57.698048  4225 net.cpp:84] Creating Layer conv_init
I1205 15:16:57.698053  4225 net.cpp:406] conv_init <- word_images
I1205 15:16:57.698060  4225 net.cpp:380] conv_init -> conv_init
I1205 15:16:58.524684  4225 net.cpp:122] Setting up conv_init
I1205 15:16:58.524721  4225 net.cpp:129] Top shape: 1 32 72 422 (972288)
I1205 15:16:58.524726  4225 net.cpp:137] Memory required for data: 4013112
I1205 15:16:58.524741  4225 layer_factory.hpp:77] Creating layer bn_init
I1205 15:16:58.524755  4225 net.cpp:84] Creating Layer bn_init
I1205 15:16:58.524760  4225 net.cpp:406] bn_init <- conv_init
I1205 15:16:58.524768  4225 net.cpp:380] bn_init -> bn_init
I1205 15:16:58.525171  4225 net.cpp:122] Setting up bn_init
I1205 15:16:58.525182  4225 net.cpp:129] Top shape: 1 32 72 422 (972288)
I1205 15:16:58.525185  4225 net.cpp:137] Memory required for data: 7902264
I1205 15:16:58.525198  4225 layer_factory.hpp:77] Creating layer scale_init
I1205 15:16:58.525209  4225 net.cpp:84] Creating Layer scale_init
I1205 15:16:58.525213  4225 net.cpp:406] scale_init <- bn_init
I1205 15:16:58.525220  4225 net.cpp:367] scale_init -> bn_init (in-place)
I1205 15:16:58.525285  4225 layer_factory.hpp:77] Creating layer scale_init
I1205 15:16:58.525528  4225 net.cpp:122] Setting up scale_init
I1205 15:16:58.525537  4225 net.cpp:129] Top shape: 1 32 72 422 (972288)
I1205 15:16:58.525542  4225 net.cpp:137] Memory required for data: 11791416
I1205 15:16:58.525550  4225 layer_factory.hpp:77] Creating layer relu_init
I1205 15:16:58.525558  4225 net.cpp:84] Creating Layer relu_init
I1205 15:16:58.525563  4225 net.cpp:406] relu_init <- bn_init
I1205 15:16:58.525568  4225 net.cpp:367] relu_init -> bn_init (in-place)
I1205 15:16:58.525964  4225 net.cpp:122] Setting up relu_init
I1205 15:16:58.525976  4225 net.cpp:129] Top shape: 1 32 72 422 (972288)
I1205 15:16:58.525981  4225 net.cpp:137] Memory required for data: 15680568
I1205 15:16:58.525985  4225 layer_factory.hpp:77] Creating layer pool_init
I1205 15:16:58.525993  4225 net.cpp:84] Creating Layer pool_init
I1205 15:16:58.525998  4225 net.cpp:406] pool_init <- bn_init
I1205 15:16:58.526005  4225 net.cpp:380] pool_init -> pool_init
I1205 15:16:58.526075  4225 net.cpp:122] Setting up pool_init
I1205 15:16:58.526082  4225 net.cpp:129] Top shape: 1 32 37 212 (251008)
I1205 15:16:58.526087  4225 net.cpp:137] Memory required for data: 16684600
I1205 15:16:58.526090  4225 layer_factory.hpp:77] Creating layer pool_init_pool_init_0_split
I1205 15:16:58.526098  4225 net.cpp:84] Creating Layer pool_init_pool_init_0_split
I1205 15:16:58.526101  4225 net.cpp:406] pool_init_pool_init_0_split <- pool_init
I1205 15:16:58.526108  4225 net.cpp:380] pool_init_pool_init_0_split -> pool_init_pool_init_0_split_0
I1205 15:16:58.526114  4225 net.cpp:380] pool_init_pool_init_0_split -> pool_init_pool_init_0_split_1
I1205 15:16:58.526170  4225 net.cpp:122] Setting up pool_init_pool_init_0_split
I1205 15:16:58.526177  4225 net.cpp:129] Top shape: 1 32 37 212 (251008)
I1205 15:16:58.526183  4225 net.cpp:129] Top shape: 1 32 37 212 (251008)
I1205 15:16:58.526187  4225 net.cpp:137] Memory required for data: 18692664
I1205 15:16:58.526191  4225 layer_factory.hpp:77] Creating layer conv0_0/bn
I1205 15:16:58.526199  4225 net.cpp:84] Creating Layer conv0_0/bn
I1205 15:16:58.526203  4225 net.cpp:406] conv0_0/bn <- pool_init_pool_init_0_split_0
I1205 15:16:58.526209  4225 net.cpp:380] conv0_0/bn -> conv0_0/bn
I1205 15:16:58.527287  4225 net.cpp:122] Setting up conv0_0/bn
I1205 15:16:58.527300  4225 net.cpp:129] Top shape: 1 32 37 212 (251008)
I1205 15:16:58.527305  4225 net.cpp:137] Memory required for data: 19696696
I1205 15:16:58.527318  4225 layer_factory.hpp:77] Creating layer conv0_0/scale
I1205 15:16:58.527325  4225 net.cpp:84] Creating Layer conv0_0/scale
I1205 15:16:58.527330  4225 net.cpp:406] conv0_0/scale <- conv0_0/bn
I1205 15:16:58.527336  4225 net.cpp:367] conv0_0/scale -> conv0_0/bn (in-place)
I1205 15:16:58.527400  4225 layer_factory.hpp:77] Creating layer conv0_0/scale
I1205 15:16:58.527611  4225 net.cpp:122] Setting up conv0_0/scale
I1205 15:16:58.527619  4225 net.cpp:129] Top shape: 1 32 37 212 (251008)
I1205 15:16:58.527624  4225 net.cpp:137] Memory required for data: 20700728
I1205 15:16:58.527631  4225 layer_factory.hpp:77] Creating layer relu0_0
I1205 15:16:58.527638  4225 net.cpp:84] Creating Layer relu0_0
I1205 15:16:58.527642  4225 net.cpp:406] relu0_0 <- conv0_0/bn
I1205 15:16:58.527648  4225 net.cpp:367] relu0_0 -> conv0_0/bn (in-place)
I1205 15:16:58.527865  4225 net.cpp:122] Setting up relu0_0
I1205 15:16:58.527876  4225 net.cpp:129] Top shape: 1 32 37 212 (251008)
I1205 15:16:58.527880  4225 net.cpp:137] Memory required for data: 21704760
I1205 15:16:58.527884  4225 layer_factory.hpp:77] Creating layer conv0_0
I1205 15:16:58.527896  4225 net.cpp:84] Creating Layer conv0_0
I1205 15:16:58.527901  4225 net.cpp:406] conv0_0 <- conv0_0/bn
I1205 15:16:58.527909  4225 net.cpp:380] conv0_0 -> conv0_0
I1205 15:16:58.530035  4225 net.cpp:122] Setting up conv0_0
I1205 15:16:58.530048  4225 net.cpp:129] Top shape: 1 12 37 212 (94128)
I1205 15:16:58.530052  4225 net.cpp:137] Memory required for data: 22081272
I1205 15:16:58.530059  4225 layer_factory.hpp:77] Creating layer concat0_0
I1205 15:16:58.530067  4225 net.cpp:84] Creating Layer concat0_0
I1205 15:16:58.530072  4225 net.cpp:406] concat0_0 <- pool_init_pool_init_0_split_1
I1205 15:16:58.530077  4225 net.cpp:406] concat0_0 <- conv0_0
I1205 15:16:58.530083  4225 net.cpp:380] concat0_0 -> concat0_0
I1205 15:16:58.530125  4225 net.cpp:122] Setting up concat0_0
I1205 15:16:58.530133  4225 net.cpp:129] Top shape: 1 44 37 212 (345136)
I1205 15:16:58.530136  4225 net.cpp:137] Memory required for data: 23461816
I1205 15:16:58.530140  4225 layer_factory.hpp:77] Creating layer concat0_0_concat0_0_0_split
I1205 15:16:58.530146  4225 net.cpp:84] Creating Layer concat0_0_concat0_0_0_split
I1205 15:16:58.530150  4225 net.cpp:406] concat0_0_concat0_0_0_split <- concat0_0
I1205 15:16:58.530156  4225 net.cpp:380] concat0_0_concat0_0_0_split -> concat0_0_concat0_0_0_split_0
I1205 15:16:58.530164  4225 net.cpp:380] concat0_0_concat0_0_0_split -> concat0_0_concat0_0_0_split_1
I1205 15:16:58.530220  4225 net.cpp:122] Setting up concat0_0_concat0_0_0_split
I1205 15:16:58.530227  4225 net.cpp:129] Top shape: 1 44 37 212 (345136)
I1205 15:16:58.530232  4225 net.cpp:129] Top shape: 1 44 37 212 (345136)
I1205 15:16:58.530236  4225 net.cpp:137] Memory required for data: 26222904
I1205 15:16:58.530241  4225 layer_factory.hpp:77] Creating layer conv0_1/bn
I1205 15:16:58.530247  4225 net.cpp:84] Creating Layer conv0_1/bn
I1205 15:16:58.530251  4225 net.cpp:406] conv0_1/bn <- concat0_0_concat0_0_0_split_0
I1205 15:16:58.530257  4225 net.cpp:380] conv0_1/bn -> conv0_1/bn
I1205 15:16:58.530647  4225 net.cpp:122] Setting up conv0_1/bn
I1205 15:16:58.530655  4225 net.cpp:129] Top shape: 1 44 37 212 (345136)
I1205 15:16:58.530660  4225 net.cpp:137] Memory required for data: 27603448
I1205 15:16:58.530669  4225 layer_factory.hpp:77] Creating layer conv0_1/scale
I1205 15:16:58.530678  4225 net.cpp:84] Creating Layer conv0_1/scale
I1205 15:16:58.530683  4225 net.cpp:406] conv0_1/scale <- conv0_1/bn
I1205 15:16:58.530689  4225 net.cpp:367] conv0_1/scale -> conv0_1/bn (in-place)
I1205 15:16:58.530756  4225 layer_factory.hpp:77] Creating layer conv0_1/scale
I1205 15:16:58.530972  4225 net.cpp:122] Setting up conv0_1/scale
I1205 15:16:58.530982  4225 net.cpp:129] Top shape: 1 44 37 212 (345136)
I1205 15:16:58.530985  4225 net.cpp:137] Memory required for data: 28983992
I1205 15:16:58.530995  4225 layer_factory.hpp:77] Creating layer relu0_1
I1205 15:16:58.531002  4225 net.cpp:84] Creating Layer relu0_1
I1205 15:16:58.531006  4225 net.cpp:406] relu0_1 <- conv0_1/bn
I1205 15:16:58.531013  4225 net.cpp:367] relu0_1 -> conv0_1/bn (in-place)
I1205 15:16:58.531422  4225 net.cpp:122] Setting up relu0_1
I1205 15:16:58.531435  4225 net.cpp:129] Top shape: 1 44 37 212 (345136)
I1205 15:16:58.531440  4225 net.cpp:137] Memory required for data: 30364536
I1205 15:16:58.531446  4225 layer_factory.hpp:77] Creating layer conv0_1
I1205 15:16:58.531458  4225 net.cpp:84] Creating Layer conv0_1
I1205 15:16:58.531463  4225 net.cpp:406] conv0_1 <- conv0_1/bn
I1205 15:16:58.531471  4225 net.cpp:380] conv0_1 -> conv0_1
I1205 15:16:58.533237  4225 net.cpp:122] Setting up conv0_1
I1205 15:16:58.533251  4225 net.cpp:129] Top shape: 1 12 37 212 (94128)
I1205 15:16:58.533254  4225 net.cpp:137] Memory required for data: 30741048
I1205 15:16:58.533262  4225 layer_factory.hpp:77] Creating layer concat0_1
I1205 15:16:58.533270  4225 net.cpp:84] Creating Layer concat0_1
I1205 15:16:58.533274  4225 net.cpp:406] concat0_1 <- concat0_0_concat0_0_0_split_1
I1205 15:16:58.533280  4225 net.cpp:406] concat0_1 <- conv0_1
I1205 15:16:58.533287  4225 net.cpp:380] concat0_1 -> concat0_1
I1205 15:16:58.533335  4225 net.cpp:122] Setting up concat0_1
I1205 15:16:58.533344  4225 net.cpp:129] Top shape: 1 56 37 212 (439264)
I1205 15:16:58.533346  4225 net.cpp:137] Memory required for data: 32498104
I1205 15:16:58.533350  4225 layer_factory.hpp:77] Creating layer concat0_1_concat0_1_0_split
I1205 15:16:58.533356  4225 net.cpp:84] Creating Layer concat0_1_concat0_1_0_split
I1205 15:16:58.533360  4225 net.cpp:406] concat0_1_concat0_1_0_split <- concat0_1
I1205 15:16:58.533367  4225 net.cpp:380] concat0_1_concat0_1_0_split -> concat0_1_concat0_1_0_split_0
I1205 15:16:58.533375  4225 net.cpp:380] concat0_1_concat0_1_0_split -> concat0_1_concat0_1_0_split_1
I1205 15:16:58.533437  4225 net.cpp:122] Setting up concat0_1_concat0_1_0_split
I1205 15:16:58.533444  4225 net.cpp:129] Top shape: 1 56 37 212 (439264)
I1205 15:16:58.533449  4225 net.cpp:129] Top shape: 1 56 37 212 (439264)
I1205 15:16:58.533453  4225 net.cpp:137] Memory required for data: 36012216
I1205 15:16:58.533457  4225 layer_factory.hpp:77] Creating layer conv0_2/bn
I1205 15:16:58.533465  4225 net.cpp:84] Creating Layer conv0_2/bn
I1205 15:16:58.533469  4225 net.cpp:406] conv0_2/bn <- concat0_1_concat0_1_0_split_0
I1205 15:16:58.533475  4225 net.cpp:380] conv0_2/bn -> conv0_2/bn
I1205 15:16:58.533864  4225 net.cpp:122] Setting up conv0_2/bn
I1205 15:16:58.533872  4225 net.cpp:129] Top shape: 1 56 37 212 (439264)
I1205 15:16:58.533876  4225 net.cpp:137] Memory required for data: 37769272
I1205 15:16:58.533885  4225 layer_factory.hpp:77] Creating layer conv0_2/scale
I1205 15:16:58.533893  4225 net.cpp:84] Creating Layer conv0_2/scale
I1205 15:16:58.533898  4225 net.cpp:406] conv0_2/scale <- conv0_2/bn
I1205 15:16:58.533905  4225 net.cpp:367] conv0_2/scale -> conv0_2/bn (in-place)
I1205 15:16:58.533972  4225 layer_factory.hpp:77] Creating layer conv0_2/scale
I1205 15:16:58.534193  4225 net.cpp:122] Setting up conv0_2/scale
I1205 15:16:58.534201  4225 net.cpp:129] Top shape: 1 56 37 212 (439264)
I1205 15:16:58.534205  4225 net.cpp:137] Memory required for data: 39526328
I1205 15:16:58.534212  4225 layer_factory.hpp:77] Creating layer relu0_2
I1205 15:16:58.534224  4225 net.cpp:84] Creating Layer relu0_2
I1205 15:16:58.534227  4225 net.cpp:406] relu0_2 <- conv0_2/bn
I1205 15:16:58.534234  4225 net.cpp:367] relu0_2 -> conv0_2/bn (in-place)
I1205 15:16:58.534464  4225 net.cpp:122] Setting up relu0_2
I1205 15:16:58.534474  4225 net.cpp:129] Top shape: 1 56 37 212 (439264)
I1205 15:16:58.534479  4225 net.cpp:137] Memory required for data: 41283384
I1205 15:16:58.534483  4225 layer_factory.hpp:77] Creating layer conv0_2
I1205 15:16:58.534494  4225 net.cpp:84] Creating Layer conv0_2
I1205 15:16:58.534498  4225 net.cpp:406] conv0_2 <- conv0_2/bn
I1205 15:16:58.534507  4225 net.cpp:380] conv0_2 -> conv0_2
I1205 15:16:58.536149  4225 net.cpp:122] Setting up conv0_2
I1205 15:16:58.536164  4225 net.cpp:129] Top shape: 1 12 37 212 (94128)
I1205 15:16:58.536167  4225 net.cpp:137] Memory required for data: 41659896
I1205 15:16:58.536175  4225 layer_factory.hpp:77] Creating layer concat0_2
I1205 15:16:58.536181  4225 net.cpp:84] Creating Layer concat0_2
I1205 15:16:58.536186  4225 net.cpp:406] concat0_2 <- concat0_1_concat0_1_0_split_1
I1205 15:16:58.536191  4225 net.cpp:406] concat0_2 <- conv0_2
I1205 15:16:58.536201  4225 net.cpp:380] concat0_2 -> concat0_2
I1205 15:16:58.536245  4225 net.cpp:122] Setting up concat0_2
I1205 15:16:58.536253  4225 net.cpp:129] Top shape: 1 68 37 212 (533392)
I1205 15:16:58.536257  4225 net.cpp:137] Memory required for data: 43793464
I1205 15:16:58.536260  4225 layer_factory.hpp:77] Creating layer concat0_2_concat0_2_0_split
I1205 15:16:58.536267  4225 net.cpp:84] Creating Layer concat0_2_concat0_2_0_split
I1205 15:16:58.536270  4225 net.cpp:406] concat0_2_concat0_2_0_split <- concat0_2
I1205 15:16:58.536276  4225 net.cpp:380] concat0_2_concat0_2_0_split -> concat0_2_concat0_2_0_split_0
I1205 15:16:58.536284  4225 net.cpp:380] concat0_2_concat0_2_0_split -> concat0_2_concat0_2_0_split_1
I1205 15:16:58.536347  4225 net.cpp:122] Setting up concat0_2_concat0_2_0_split
I1205 15:16:58.536355  4225 net.cpp:129] Top shape: 1 68 37 212 (533392)
I1205 15:16:58.536360  4225 net.cpp:129] Top shape: 1 68 37 212 (533392)
I1205 15:16:58.536363  4225 net.cpp:137] Memory required for data: 48060600
I1205 15:16:58.536367  4225 layer_factory.hpp:77] Creating layer conv0_3/bn
I1205 15:16:58.536373  4225 net.cpp:84] Creating Layer conv0_3/bn
I1205 15:16:58.536377  4225 net.cpp:406] conv0_3/bn <- concat0_2_concat0_2_0_split_0
I1205 15:16:58.536384  4225 net.cpp:380] conv0_3/bn -> conv0_3/bn
I1205 15:16:58.536777  4225 net.cpp:122] Setting up conv0_3/bn
I1205 15:16:58.536784  4225 net.cpp:129] Top shape: 1 68 37 212 (533392)
I1205 15:16:58.536788  4225 net.cpp:137] Memory required for data: 50194168
I1205 15:16:58.536798  4225 layer_factory.hpp:77] Creating layer conv0_3/scale
I1205 15:16:58.536806  4225 net.cpp:84] Creating Layer conv0_3/scale
I1205 15:16:58.536810  4225 net.cpp:406] conv0_3/scale <- conv0_3/bn
I1205 15:16:58.536818  4225 net.cpp:367] conv0_3/scale -> conv0_3/bn (in-place)
I1205 15:16:58.536885  4225 layer_factory.hpp:77] Creating layer conv0_3/scale
I1205 15:16:58.537106  4225 net.cpp:122] Setting up conv0_3/scale
I1205 15:16:58.537114  4225 net.cpp:129] Top shape: 1 68 37 212 (533392)
I1205 15:16:58.537118  4225 net.cpp:137] Memory required for data: 52327736
I1205 15:16:58.537125  4225 layer_factory.hpp:77] Creating layer relu0_3
I1205 15:16:58.537132  4225 net.cpp:84] Creating Layer relu0_3
I1205 15:16:58.537137  4225 net.cpp:406] relu0_3 <- conv0_3/bn
I1205 15:16:58.537142  4225 net.cpp:367] relu0_3 -> conv0_3/bn (in-place)
I1205 15:16:58.537554  4225 net.cpp:122] Setting up relu0_3
I1205 15:16:58.537566  4225 net.cpp:129] Top shape: 1 68 37 212 (533392)
I1205 15:16:58.537570  4225 net.cpp:137] Memory required for data: 54461304
I1205 15:16:58.537575  4225 layer_factory.hpp:77] Creating layer conv0_3
I1205 15:16:58.537585  4225 net.cpp:84] Creating Layer conv0_3
I1205 15:16:58.537590  4225 net.cpp:406] conv0_3 <- conv0_3/bn
I1205 15:16:58.537598  4225 net.cpp:380] conv0_3 -> conv0_3
I1205 15:16:58.539466  4225 net.cpp:122] Setting up conv0_3
I1205 15:16:58.539479  4225 net.cpp:129] Top shape: 1 12 37 212 (94128)
I1205 15:16:58.539484  4225 net.cpp:137] Memory required for data: 54837816
I1205 15:16:58.539490  4225 layer_factory.hpp:77] Creating layer concat0_3
I1205 15:16:58.539499  4225 net.cpp:84] Creating Layer concat0_3
I1205 15:16:58.539503  4225 net.cpp:406] concat0_3 <- concat0_2_concat0_2_0_split_1
I1205 15:16:58.539508  4225 net.cpp:406] concat0_3 <- conv0_3
I1205 15:16:58.539516  4225 net.cpp:380] concat0_3 -> concat0_3
I1205 15:16:58.539563  4225 net.cpp:122] Setting up concat0_3
I1205 15:16:58.539571  4225 net.cpp:129] Top shape: 1 80 37 212 (627520)
I1205 15:16:58.539574  4225 net.cpp:137] Memory required for data: 57347896
I1205 15:16:58.539578  4225 layer_factory.hpp:77] Creating layer concat0_3_concat0_3_0_split
I1205 15:16:58.539585  4225 net.cpp:84] Creating Layer concat0_3_concat0_3_0_split
I1205 15:16:58.539589  4225 net.cpp:406] concat0_3_concat0_3_0_split <- concat0_3
I1205 15:16:58.539595  4225 net.cpp:380] concat0_3_concat0_3_0_split -> concat0_3_concat0_3_0_split_0
I1205 15:16:58.539602  4225 net.cpp:380] concat0_3_concat0_3_0_split -> concat0_3_concat0_3_0_split_1
I1205 15:16:58.539669  4225 net.cpp:122] Setting up concat0_3_concat0_3_0_split
I1205 15:16:58.539676  4225 net.cpp:129] Top shape: 1 80 37 212 (627520)
I1205 15:16:58.539682  4225 net.cpp:129] Top shape: 1 80 37 212 (627520)
I1205 15:16:58.539685  4225 net.cpp:137] Memory required for data: 62368056
I1205 15:16:58.539690  4225 layer_factory.hpp:77] Creating layer conv0_4/bn
I1205 15:16:58.539700  4225 net.cpp:84] Creating Layer conv0_4/bn
I1205 15:16:58.539703  4225 net.cpp:406] conv0_4/bn <- concat0_3_concat0_3_0_split_0
I1205 15:16:58.539710  4225 net.cpp:380] conv0_4/bn -> conv0_4/bn
I1205 15:16:58.540112  4225 net.cpp:122] Setting up conv0_4/bn
I1205 15:16:58.540122  4225 net.cpp:129] Top shape: 1 80 37 212 (627520)
I1205 15:16:58.540127  4225 net.cpp:137] Memory required for data: 64878136
I1205 15:16:58.540139  4225 layer_factory.hpp:77] Creating layer conv0_4/scale
I1205 15:16:58.540146  4225 net.cpp:84] Creating Layer conv0_4/scale
I1205 15:16:58.540151  4225 net.cpp:406] conv0_4/scale <- conv0_4/bn
I1205 15:16:58.540158  4225 net.cpp:367] conv0_4/scale -> conv0_4/bn (in-place)
I1205 15:16:58.540225  4225 layer_factory.hpp:77] Creating layer conv0_4/scale
I1205 15:16:58.540451  4225 net.cpp:122] Setting up conv0_4/scale
I1205 15:16:58.540459  4225 net.cpp:129] Top shape: 1 80 37 212 (627520)
I1205 15:16:58.540463  4225 net.cpp:137] Memory required for data: 67388216
I1205 15:16:58.540470  4225 layer_factory.hpp:77] Creating layer relu0_4
I1205 15:16:58.540477  4225 net.cpp:84] Creating Layer relu0_4
I1205 15:16:58.540480  4225 net.cpp:406] relu0_4 <- conv0_4/bn
I1205 15:16:58.540486  4225 net.cpp:367] relu0_4 -> conv0_4/bn (in-place)
I1205 15:16:58.540904  4225 net.cpp:122] Setting up relu0_4
I1205 15:16:58.540916  4225 net.cpp:129] Top shape: 1 80 37 212 (627520)
I1205 15:16:58.540920  4225 net.cpp:137] Memory required for data: 69898296
I1205 15:16:58.540925  4225 layer_factory.hpp:77] Creating layer conv0_4
I1205 15:16:58.540935  4225 net.cpp:84] Creating Layer conv0_4
I1205 15:16:58.540940  4225 net.cpp:406] conv0_4 <- conv0_4/bn
I1205 15:16:58.540948  4225 net.cpp:380] conv0_4 -> conv0_4
I1205 15:16:58.542682  4225 net.cpp:122] Setting up conv0_4
I1205 15:16:58.542695  4225 net.cpp:129] Top shape: 1 12 37 212 (94128)
I1205 15:16:58.542699  4225 net.cpp:137] Memory required for data: 70274808
I1205 15:16:58.542706  4225 layer_factory.hpp:77] Creating layer concat0_4
I1205 15:16:58.542713  4225 net.cpp:84] Creating Layer concat0_4
I1205 15:16:58.542718  4225 net.cpp:406] concat0_4 <- concat0_3_concat0_3_0_split_1
I1205 15:16:58.542724  4225 net.cpp:406] concat0_4 <- conv0_4
I1205 15:16:58.542732  4225 net.cpp:380] concat0_4 -> concat0_4
I1205 15:16:58.542778  4225 net.cpp:122] Setting up concat0_4
I1205 15:16:58.542785  4225 net.cpp:129] Top shape: 1 92 37 212 (721648)
I1205 15:16:58.542788  4225 net.cpp:137] Memory required for data: 73161400
I1205 15:16:58.542793  4225 layer_factory.hpp:77] Creating layer concat0_4_concat0_4_0_split
I1205 15:16:58.542799  4225 net.cpp:84] Creating Layer concat0_4_concat0_4_0_split
I1205 15:16:58.542804  4225 net.cpp:406] concat0_4_concat0_4_0_split <- concat0_4
I1205 15:16:58.542809  4225 net.cpp:380] concat0_4_concat0_4_0_split -> concat0_4_concat0_4_0_split_0
I1205 15:16:58.542817  4225 net.cpp:380] concat0_4_concat0_4_0_split -> concat0_4_concat0_4_0_split_1
I1205 15:16:58.542881  4225 net.cpp:122] Setting up concat0_4_concat0_4_0_split
I1205 15:16:58.542889  4225 net.cpp:129] Top shape: 1 92 37 212 (721648)
I1205 15:16:58.542894  4225 net.cpp:129] Top shape: 1 92 37 212 (721648)
I1205 15:16:58.542897  4225 net.cpp:137] Memory required for data: 78934584
I1205 15:16:58.542901  4225 layer_factory.hpp:77] Creating layer conv0_5/bn
I1205 15:16:58.542908  4225 net.cpp:84] Creating Layer conv0_5/bn
I1205 15:16:58.542912  4225 net.cpp:406] conv0_5/bn <- concat0_4_concat0_4_0_split_0
I1205 15:16:58.542922  4225 net.cpp:380] conv0_5/bn -> conv0_5/bn
I1205 15:16:58.543320  4225 net.cpp:122] Setting up conv0_5/bn
I1205 15:16:58.543329  4225 net.cpp:129] Top shape: 1 92 37 212 (721648)
I1205 15:16:58.543336  4225 net.cpp:137] Memory required for data: 81821176
I1205 15:16:58.543345  4225 layer_factory.hpp:77] Creating layer conv0_5/scale
I1205 15:16:58.543354  4225 net.cpp:84] Creating Layer conv0_5/scale
I1205 15:16:58.543359  4225 net.cpp:406] conv0_5/scale <- conv0_5/bn
I1205 15:16:58.543365  4225 net.cpp:367] conv0_5/scale -> conv0_5/bn (in-place)
I1205 15:16:58.543433  4225 layer_factory.hpp:77] Creating layer conv0_5/scale
I1205 15:16:58.543659  4225 net.cpp:122] Setting up conv0_5/scale
I1205 15:16:58.543668  4225 net.cpp:129] Top shape: 1 92 37 212 (721648)
I1205 15:16:58.543671  4225 net.cpp:137] Memory required for data: 84707768
I1205 15:16:58.543679  4225 layer_factory.hpp:77] Creating layer relu0_5
I1205 15:16:58.543686  4225 net.cpp:84] Creating Layer relu0_5
I1205 15:16:58.543690  4225 net.cpp:406] relu0_5 <- conv0_5/bn
I1205 15:16:58.543696  4225 net.cpp:367] relu0_5 -> conv0_5/bn (in-place)
I1205 15:16:58.543931  4225 net.cpp:122] Setting up relu0_5
I1205 15:16:58.543941  4225 net.cpp:129] Top shape: 1 92 37 212 (721648)
I1205 15:16:58.543946  4225 net.cpp:137] Memory required for data: 87594360
I1205 15:16:58.543949  4225 layer_factory.hpp:77] Creating layer conv0_5
I1205 15:16:58.543962  4225 net.cpp:84] Creating Layer conv0_5
I1205 15:16:58.543967  4225 net.cpp:406] conv0_5 <- conv0_5/bn
I1205 15:16:58.543973  4225 net.cpp:380] conv0_5 -> conv0_5
I1205 15:16:58.545943  4225 net.cpp:122] Setting up conv0_5
I1205 15:16:58.545956  4225 net.cpp:129] Top shape: 1 12 37 212 (94128)
I1205 15:16:58.545960  4225 net.cpp:137] Memory required for data: 87970872
I1205 15:16:58.545967  4225 layer_factory.hpp:77] Creating layer concat0_5
I1205 15:16:58.545975  4225 net.cpp:84] Creating Layer concat0_5
I1205 15:16:58.545980  4225 net.cpp:406] concat0_5 <- concat0_4_concat0_4_0_split_1
I1205 15:16:58.545986  4225 net.cpp:406] concat0_5 <- conv0_5
I1205 15:16:58.545992  4225 net.cpp:380] concat0_5 -> concat0_5
I1205 15:16:58.546041  4225 net.cpp:122] Setting up concat0_5
I1205 15:16:58.546047  4225 net.cpp:129] Top shape: 1 104 37 212 (815776)
I1205 15:16:58.546051  4225 net.cpp:137] Memory required for data: 91233976
I1205 15:16:58.546056  4225 layer_factory.hpp:77] Creating layer concat0_5_concat0_5_0_split
I1205 15:16:58.546062  4225 net.cpp:84] Creating Layer concat0_5_concat0_5_0_split
I1205 15:16:58.546066  4225 net.cpp:406] concat0_5_concat0_5_0_split <- concat0_5
I1205 15:16:58.546072  4225 net.cpp:380] concat0_5_concat0_5_0_split -> concat0_5_concat0_5_0_split_0
I1205 15:16:58.546079  4225 net.cpp:380] concat0_5_concat0_5_0_split -> concat0_5_concat0_5_0_split_1
I1205 15:16:58.546144  4225 net.cpp:122] Setting up concat0_5_concat0_5_0_split
I1205 15:16:58.546150  4225 net.cpp:129] Top shape: 1 104 37 212 (815776)
I1205 15:16:58.546155  4225 net.cpp:129] Top shape: 1 104 37 212 (815776)
I1205 15:16:58.546159  4225 net.cpp:137] Memory required for data: 97760184
I1205 15:16:58.546164  4225 layer_factory.hpp:77] Creating layer conv0_6/bn
I1205 15:16:58.546170  4225 net.cpp:84] Creating Layer conv0_6/bn
I1205 15:16:58.546175  4225 net.cpp:406] conv0_6/bn <- concat0_5_concat0_5_0_split_0
I1205 15:16:58.546180  4225 net.cpp:380] conv0_6/bn -> conv0_6/bn
I1205 15:16:58.546582  4225 net.cpp:122] Setting up conv0_6/bn
I1205 15:16:58.546591  4225 net.cpp:129] Top shape: 1 104 37 212 (815776)
I1205 15:16:58.546596  4225 net.cpp:137] Memory required for data: 101023288
I1205 15:16:58.546603  4225 layer_factory.hpp:77] Creating layer conv0_6/scale
I1205 15:16:58.546612  4225 net.cpp:84] Creating Layer conv0_6/scale
I1205 15:16:58.546617  4225 net.cpp:406] conv0_6/scale <- conv0_6/bn
I1205 15:16:58.546623  4225 net.cpp:367] conv0_6/scale -> conv0_6/bn (in-place)
I1205 15:16:58.546690  4225 layer_factory.hpp:77] Creating layer conv0_6/scale
I1205 15:16:58.546926  4225 net.cpp:122] Setting up conv0_6/scale
I1205 15:16:58.546936  4225 net.cpp:129] Top shape: 1 104 37 212 (815776)
I1205 15:16:58.546941  4225 net.cpp:137] Memory required for data: 104286392
I1205 15:16:58.546949  4225 layer_factory.hpp:77] Creating layer relu0_6
I1205 15:16:58.546957  4225 net.cpp:84] Creating Layer relu0_6
I1205 15:16:58.546962  4225 net.cpp:406] relu0_6 <- conv0_6/bn
I1205 15:16:58.546967  4225 net.cpp:367] relu0_6 -> conv0_6/bn (in-place)
I1205 15:16:58.547386  4225 net.cpp:122] Setting up relu0_6
I1205 15:16:58.547399  4225 net.cpp:129] Top shape: 1 104 37 212 (815776)
I1205 15:16:58.547402  4225 net.cpp:137] Memory required for data: 107549496
I1205 15:16:58.547407  4225 layer_factory.hpp:77] Creating layer conv0_6
I1205 15:16:58.547420  4225 net.cpp:84] Creating Layer conv0_6
I1205 15:16:58.547425  4225 net.cpp:406] conv0_6 <- conv0_6/bn
I1205 15:16:58.547431  4225 net.cpp:380] conv0_6 -> conv0_6
I1205 15:16:58.549746  4225 net.cpp:122] Setting up conv0_6
I1205 15:16:58.549760  4225 net.cpp:129] Top shape: 1 12 37 212 (94128)
I1205 15:16:58.549765  4225 net.cpp:137] Memory required for data: 107926008
I1205 15:16:58.549773  4225 layer_factory.hpp:77] Creating layer concat0_6
I1205 15:16:58.549782  4225 net.cpp:84] Creating Layer concat0_6
I1205 15:16:58.549785  4225 net.cpp:406] concat0_6 <- concat0_5_concat0_5_0_split_1
I1205 15:16:58.549791  4225 net.cpp:406] concat0_6 <- conv0_6
I1205 15:16:58.549799  4225 net.cpp:380] concat0_6 -> concat0_6
I1205 15:16:58.549851  4225 net.cpp:122] Setting up concat0_6
I1205 15:16:58.549859  4225 net.cpp:129] Top shape: 1 116 37 212 (909904)
I1205 15:16:58.549862  4225 net.cpp:137] Memory required for data: 111565624
I1205 15:16:58.549866  4225 layer_factory.hpp:77] Creating layer concat0_6_concat0_6_0_split
I1205 15:16:58.549872  4225 net.cpp:84] Creating Layer concat0_6_concat0_6_0_split
I1205 15:16:58.549876  4225 net.cpp:406] concat0_6_concat0_6_0_split <- concat0_6
I1205 15:16:58.549883  4225 net.cpp:380] concat0_6_concat0_6_0_split -> concat0_6_concat0_6_0_split_0
I1205 15:16:58.549890  4225 net.cpp:380] concat0_6_concat0_6_0_split -> concat0_6_concat0_6_0_split_1
I1205 15:16:58.549959  4225 net.cpp:122] Setting up concat0_6_concat0_6_0_split
I1205 15:16:58.549967  4225 net.cpp:129] Top shape: 1 116 37 212 (909904)
I1205 15:16:58.549971  4225 net.cpp:129] Top shape: 1 116 37 212 (909904)
I1205 15:16:58.549975  4225 net.cpp:137] Memory required for data: 118844856
I1205 15:16:58.549979  4225 layer_factory.hpp:77] Creating layer conv0_7/bn
I1205 15:16:58.549988  4225 net.cpp:84] Creating Layer conv0_7/bn
I1205 15:16:58.549991  4225 net.cpp:406] conv0_7/bn <- concat0_6_concat0_6_0_split_0
I1205 15:16:58.549998  4225 net.cpp:380] conv0_7/bn -> conv0_7/bn
I1205 15:16:58.550423  4225 net.cpp:122] Setting up conv0_7/bn
I1205 15:16:58.550433  4225 net.cpp:129] Top shape: 1 116 37 212 (909904)
I1205 15:16:58.550437  4225 net.cpp:137] Memory required for data: 122484472
I1205 15:16:58.550446  4225 layer_factory.hpp:77] Creating layer conv0_7/scale
I1205 15:16:58.550454  4225 net.cpp:84] Creating Layer conv0_7/scale
I1205 15:16:58.550458  4225 net.cpp:406] conv0_7/scale <- conv0_7/bn
I1205 15:16:58.550465  4225 net.cpp:367] conv0_7/scale -> conv0_7/bn (in-place)
I1205 15:16:58.550539  4225 layer_factory.hpp:77] Creating layer conv0_7/scale
I1205 15:16:58.550776  4225 net.cpp:122] Setting up conv0_7/scale
I1205 15:16:58.550786  4225 net.cpp:129] Top shape: 1 116 37 212 (909904)
I1205 15:16:58.550789  4225 net.cpp:137] Memory required for data: 126124088
I1205 15:16:58.550796  4225 layer_factory.hpp:77] Creating layer relu0_7
I1205 15:16:58.550804  4225 net.cpp:84] Creating Layer relu0_7
I1205 15:16:58.550809  4225 net.cpp:406] relu0_7 <- conv0_7/bn
I1205 15:16:58.550814  4225 net.cpp:367] relu0_7 -> conv0_7/bn (in-place)
I1205 15:16:58.551053  4225 net.cpp:122] Setting up relu0_7
I1205 15:16:58.551064  4225 net.cpp:129] Top shape: 1 116 37 212 (909904)
I1205 15:16:58.551069  4225 net.cpp:137] Memory required for data: 129763704
I1205 15:16:58.551072  4225 layer_factory.hpp:77] Creating layer conv0_7
I1205 15:16:58.551084  4225 net.cpp:84] Creating Layer conv0_7
I1205 15:16:58.551089  4225 net.cpp:406] conv0_7 <- conv0_7/bn
I1205 15:16:58.551095  4225 net.cpp:380] conv0_7 -> conv0_7
I1205 15:16:58.553218  4225 net.cpp:122] Setting up conv0_7
I1205 15:16:58.553234  4225 net.cpp:129] Top shape: 1 12 37 212 (94128)
I1205 15:16:58.553238  4225 net.cpp:137] Memory required for data: 130140216
I1205 15:16:58.553246  4225 layer_factory.hpp:77] Creating layer concat0_7
I1205 15:16:58.553254  4225 net.cpp:84] Creating Layer concat0_7
I1205 15:16:58.553259  4225 net.cpp:406] concat0_7 <- concat0_6_concat0_6_0_split_1
I1205 15:16:58.553266  4225 net.cpp:406] concat0_7 <- conv0_7
I1205 15:16:58.553272  4225 net.cpp:380] concat0_7 -> concat0_7
I1205 15:16:58.553323  4225 net.cpp:122] Setting up concat0_7
I1205 15:16:58.553330  4225 net.cpp:129] Top shape: 1 128 37 212 (1004032)
I1205 15:16:58.553333  4225 net.cpp:137] Memory required for data: 134156344
I1205 15:16:58.553337  4225 layer_factory.hpp:77] Creating layer concat0_7_concat0_7_0_split
I1205 15:16:58.553344  4225 net.cpp:84] Creating Layer concat0_7_concat0_7_0_split
I1205 15:16:58.553349  4225 net.cpp:406] concat0_7_concat0_7_0_split <- concat0_7
I1205 15:16:58.553355  4225 net.cpp:380] concat0_7_concat0_7_0_split -> concat0_7_concat0_7_0_split_0
I1205 15:16:58.553362  4225 net.cpp:380] concat0_7_concat0_7_0_split -> concat0_7_concat0_7_0_split_1
I1205 15:16:58.553428  4225 net.cpp:122] Setting up concat0_7_concat0_7_0_split
I1205 15:16:58.553436  4225 net.cpp:129] Top shape: 1 128 37 212 (1004032)
I1205 15:16:58.553442  4225 net.cpp:129] Top shape: 1 128 37 212 (1004032)
I1205 15:16:58.553445  4225 net.cpp:137] Memory required for data: 142188600
I1205 15:16:58.553449  4225 layer_factory.hpp:77] Creating layer conv0_8/bn
I1205 15:16:58.553457  4225 net.cpp:84] Creating Layer conv0_8/bn
I1205 15:16:58.553462  4225 net.cpp:406] conv0_8/bn <- concat0_7_concat0_7_0_split_0
I1205 15:16:58.553468  4225 net.cpp:380] conv0_8/bn -> conv0_8/bn
I1205 15:16:58.553866  4225 net.cpp:122] Setting up conv0_8/bn
I1205 15:16:58.553875  4225 net.cpp:129] Top shape: 1 128 37 212 (1004032)
I1205 15:16:58.553879  4225 net.cpp:137] Memory required for data: 146204728
I1205 15:16:58.553891  4225 layer_factory.hpp:77] Creating layer conv0_8/scale
I1205 15:16:58.553900  4225 net.cpp:84] Creating Layer conv0_8/scale
I1205 15:16:58.553903  4225 net.cpp:406] conv0_8/scale <- conv0_8/bn
I1205 15:16:58.553910  4225 net.cpp:367] conv0_8/scale -> conv0_8/bn (in-place)
I1205 15:16:58.553980  4225 layer_factory.hpp:77] Creating layer conv0_8/scale
I1205 15:16:58.554919  4225 net.cpp:122] Setting up conv0_8/scale
I1205 15:16:58.554930  4225 net.cpp:129] Top shape: 1 128 37 212 (1004032)
I1205 15:16:58.554934  4225 net.cpp:137] Memory required for data: 150220856
I1205 15:16:58.554942  4225 layer_factory.hpp:77] Creating layer relu0_8
I1205 15:16:58.554950  4225 net.cpp:84] Creating Layer relu0_8
I1205 15:16:58.554955  4225 net.cpp:406] relu0_8 <- conv0_8/bn
I1205 15:16:58.554961  4225 net.cpp:367] relu0_8 -> conv0_8/bn (in-place)
I1205 15:16:58.555387  4225 net.cpp:122] Setting up relu0_8
I1205 15:16:58.555400  4225 net.cpp:129] Top shape: 1 128 37 212 (1004032)
I1205 15:16:58.555404  4225 net.cpp:137] Memory required for data: 154236984
I1205 15:16:58.555408  4225 layer_factory.hpp:77] Creating layer conv0_8
I1205 15:16:58.555419  4225 net.cpp:84] Creating Layer conv0_8
I1205 15:16:58.555424  4225 net.cpp:406] conv0_8 <- conv0_8/bn
I1205 15:16:58.555433  4225 net.cpp:380] conv0_8 -> conv0_8
I1205 15:16:58.557562  4225 net.cpp:122] Setting up conv0_8
I1205 15:16:58.557575  4225 net.cpp:129] Top shape: 1 12 37 212 (94128)
I1205 15:16:58.557579  4225 net.cpp:137] Memory required for data: 154613496
I1205 15:16:58.557586  4225 layer_factory.hpp:77] Creating layer concat0_8
I1205 15:16:58.557595  4225 net.cpp:84] Creating Layer concat0_8
I1205 15:16:58.557600  4225 net.cpp:406] concat0_8 <- concat0_7_concat0_7_0_split_1
I1205 15:16:58.557606  4225 net.cpp:406] concat0_8 <- conv0_8
I1205 15:16:58.557612  4225 net.cpp:380] concat0_8 -> concat0_8
I1205 15:16:58.557663  4225 net.cpp:122] Setting up concat0_8
I1205 15:16:58.557672  4225 net.cpp:129] Top shape: 1 140 37 212 (1098160)
I1205 15:16:58.557677  4225 net.cpp:137] Memory required for data: 159006136
I1205 15:16:58.557682  4225 layer_factory.hpp:77] Creating layer concat0_8_concat0_8_0_split
I1205 15:16:58.557688  4225 net.cpp:84] Creating Layer concat0_8_concat0_8_0_split
I1205 15:16:58.557693  4225 net.cpp:406] concat0_8_concat0_8_0_split <- concat0_8
I1205 15:16:58.557699  4225 net.cpp:380] concat0_8_concat0_8_0_split -> concat0_8_concat0_8_0_split_0
I1205 15:16:58.557706  4225 net.cpp:380] concat0_8_concat0_8_0_split -> concat0_8_concat0_8_0_split_1
I1205 15:16:58.557773  4225 net.cpp:122] Setting up concat0_8_concat0_8_0_split
I1205 15:16:58.557780  4225 net.cpp:129] Top shape: 1 140 37 212 (1098160)
I1205 15:16:58.557785  4225 net.cpp:129] Top shape: 1 140 37 212 (1098160)
I1205 15:16:58.557790  4225 net.cpp:137] Memory required for data: 167791416
I1205 15:16:58.557793  4225 layer_factory.hpp:77] Creating layer conv0_9/bn
I1205 15:16:58.557801  4225 net.cpp:84] Creating Layer conv0_9/bn
I1205 15:16:58.557804  4225 net.cpp:406] conv0_9/bn <- concat0_8_concat0_8_0_split_0
I1205 15:16:58.557811  4225 net.cpp:380] conv0_9/bn -> conv0_9/bn
I1205 15:16:58.558214  4225 net.cpp:122] Setting up conv0_9/bn
I1205 15:16:58.558223  4225 net.cpp:129] Top shape: 1 140 37 212 (1098160)
I1205 15:16:58.558228  4225 net.cpp:137] Memory required for data: 172184056
I1205 15:16:58.558236  4225 layer_factory.hpp:77] Creating layer conv0_9/scale
I1205 15:16:58.558244  4225 net.cpp:84] Creating Layer conv0_9/scale
I1205 15:16:58.558248  4225 net.cpp:406] conv0_9/scale <- conv0_9/bn
I1205 15:16:58.558254  4225 net.cpp:367] conv0_9/scale -> conv0_9/bn (in-place)
I1205 15:16:58.558323  4225 layer_factory.hpp:77] Creating layer conv0_9/scale
I1205 15:16:58.558557  4225 net.cpp:122] Setting up conv0_9/scale
I1205 15:16:58.558567  4225 net.cpp:129] Top shape: 1 140 37 212 (1098160)
I1205 15:16:58.558570  4225 net.cpp:137] Memory required for data: 176576696
I1205 15:16:58.558584  4225 layer_factory.hpp:77] Creating layer relu0_9
I1205 15:16:58.558594  4225 net.cpp:84] Creating Layer relu0_9
I1205 15:16:58.558599  4225 net.cpp:406] relu0_9 <- conv0_9/bn
I1205 15:16:58.558606  4225 net.cpp:367] relu0_9 -> conv0_9/bn (in-place)
I1205 15:16:58.559026  4225 net.cpp:122] Setting up relu0_9
I1205 15:16:58.559038  4225 net.cpp:129] Top shape: 1 140 37 212 (1098160)
I1205 15:16:58.559042  4225 net.cpp:137] Memory required for data: 180969336
I1205 15:16:58.559047  4225 layer_factory.hpp:77] Creating layer conv0_9
I1205 15:16:58.559059  4225 net.cpp:84] Creating Layer conv0_9
I1205 15:16:58.559064  4225 net.cpp:406] conv0_9 <- conv0_9/bn
I1205 15:16:58.559072  4225 net.cpp:380] conv0_9 -> conv0_9
I1205 15:16:58.561319  4225 net.cpp:122] Setting up conv0_9
I1205 15:16:58.561333  4225 net.cpp:129] Top shape: 1 12 37 212 (94128)
I1205 15:16:58.561337  4225 net.cpp:137] Memory required for data: 181345848
I1205 15:16:58.561344  4225 layer_factory.hpp:77] Creating layer concat0_9
I1205 15:16:58.561352  4225 net.cpp:84] Creating Layer concat0_9
I1205 15:16:58.561358  4225 net.cpp:406] concat0_9 <- concat0_8_concat0_8_0_split_1
I1205 15:16:58.561364  4225 net.cpp:406] concat0_9 <- conv0_9
I1205 15:16:58.561370  4225 net.cpp:380] concat0_9 -> concat0_9
I1205 15:16:58.561422  4225 net.cpp:122] Setting up concat0_9
I1205 15:16:58.561429  4225 net.cpp:129] Top shape: 1 152 37 212 (1192288)
I1205 15:16:58.561434  4225 net.cpp:137] Memory required for data: 186115000
I1205 15:16:58.561437  4225 layer_factory.hpp:77] Creating layer concat0_9_concat0_9_0_split
I1205 15:16:58.561445  4225 net.cpp:84] Creating Layer concat0_9_concat0_9_0_split
I1205 15:16:58.561450  4225 net.cpp:406] concat0_9_concat0_9_0_split <- concat0_9
I1205 15:16:58.561455  4225 net.cpp:380] concat0_9_concat0_9_0_split -> concat0_9_concat0_9_0_split_0
I1205 15:16:58.561462  4225 net.cpp:380] concat0_9_concat0_9_0_split -> concat0_9_concat0_9_0_split_1
I1205 15:16:58.561530  4225 net.cpp:122] Setting up concat0_9_concat0_9_0_split
I1205 15:16:58.561537  4225 net.cpp:129] Top shape: 1 152 37 212 (1192288)
I1205 15:16:58.561545  4225 net.cpp:129] Top shape: 1 152 37 212 (1192288)
I1205 15:16:58.561549  4225 net.cpp:137] Memory required for data: 195653304
I1205 15:16:58.561553  4225 layer_factory.hpp:77] Creating layer conv0_10/bn
I1205 15:16:58.561561  4225 net.cpp:84] Creating Layer conv0_10/bn
I1205 15:16:58.561565  4225 net.cpp:406] conv0_10/bn <- concat0_9_concat0_9_0_split_0
I1205 15:16:58.561571  4225 net.cpp:380] conv0_10/bn -> conv0_10/bn
I1205 15:16:58.561995  4225 net.cpp:122] Setting up conv0_10/bn
I1205 15:16:58.562005  4225 net.cpp:129] Top shape: 1 152 37 212 (1192288)
I1205 15:16:58.562008  4225 net.cpp:137] Memory required for data: 200422456
I1205 15:16:58.562017  4225 layer_factory.hpp:77] Creating layer conv0_10/scale
I1205 15:16:58.562026  4225 net.cpp:84] Creating Layer conv0_10/scale
I1205 15:16:58.562031  4225 net.cpp:406] conv0_10/scale <- conv0_10/bn
I1205 15:16:58.562037  4225 net.cpp:367] conv0_10/scale -> conv0_10/bn (in-place)
I1205 15:16:58.562109  4225 layer_factory.hpp:77] Creating layer conv0_10/scale
I1205 15:16:58.562346  4225 net.cpp:122] Setting up conv0_10/scale
I1205 15:16:58.562355  4225 net.cpp:129] Top shape: 1 152 37 212 (1192288)
I1205 15:16:58.562360  4225 net.cpp:137] Memory required for data: 205191608
I1205 15:16:58.562367  4225 layer_factory.hpp:77] Creating layer relu0_10
I1205 15:16:58.562373  4225 net.cpp:84] Creating Layer relu0_10
I1205 15:16:58.562377  4225 net.cpp:406] relu0_10 <- conv0_10/bn
I1205 15:16:58.562383  4225 net.cpp:367] relu0_10 -> conv0_10/bn (in-place)
I1205 15:16:58.562618  4225 net.cpp:122] Setting up relu0_10
I1205 15:16:58.562628  4225 net.cpp:129] Top shape: 1 152 37 212 (1192288)
I1205 15:16:58.562633  4225 net.cpp:137] Memory required for data: 209960760
I1205 15:16:58.562636  4225 layer_factory.hpp:77] Creating layer conv0_10
I1205 15:16:58.562647  4225 net.cpp:84] Creating Layer conv0_10
I1205 15:16:58.562652  4225 net.cpp:406] conv0_10 <- conv0_10/bn
I1205 15:16:58.562660  4225 net.cpp:380] conv0_10 -> conv0_10
I1205 15:16:58.564918  4225 net.cpp:122] Setting up conv0_10
I1205 15:16:58.564932  4225 net.cpp:129] Top shape: 1 12 37 212 (94128)
I1205 15:16:58.564936  4225 net.cpp:137] Memory required for data: 210337272
I1205 15:16:58.564944  4225 layer_factory.hpp:77] Creating layer concat0_10
I1205 15:16:58.564950  4225 net.cpp:84] Creating Layer concat0_10
I1205 15:16:58.564955  4225 net.cpp:406] concat0_10 <- concat0_9_concat0_9_0_split_1
I1205 15:16:58.564961  4225 net.cpp:406] concat0_10 <- conv0_10
I1205 15:16:58.564970  4225 net.cpp:380] concat0_10 -> concat0_10
I1205 15:16:58.565019  4225 net.cpp:122] Setting up concat0_10
I1205 15:16:58.565026  4225 net.cpp:129] Top shape: 1 164 37 212 (1286416)
I1205 15:16:58.565030  4225 net.cpp:137] Memory required for data: 215482936
I1205 15:16:58.565034  4225 layer_factory.hpp:77] Creating layer concat0_10_concat0_10_0_split
I1205 15:16:58.565040  4225 net.cpp:84] Creating Layer concat0_10_concat0_10_0_split
I1205 15:16:58.565044  4225 net.cpp:406] concat0_10_concat0_10_0_split <- concat0_10
I1205 15:16:58.565052  4225 net.cpp:380] concat0_10_concat0_10_0_split -> concat0_10_concat0_10_0_split_0
I1205 15:16:58.565058  4225 net.cpp:380] concat0_10_concat0_10_0_split -> concat0_10_concat0_10_0_split_1
I1205 15:16:58.565126  4225 net.cpp:122] Setting up concat0_10_concat0_10_0_split
I1205 15:16:58.565134  4225 net.cpp:129] Top shape: 1 164 37 212 (1286416)
I1205 15:16:58.565138  4225 net.cpp:129] Top shape: 1 164 37 212 (1286416)
I1205 15:16:58.565142  4225 net.cpp:137] Memory required for data: 225774264
I1205 15:16:58.565146  4225 layer_factory.hpp:77] Creating layer conv0_11/bn
I1205 15:16:58.565153  4225 net.cpp:84] Creating Layer conv0_11/bn
I1205 15:16:58.565158  4225 net.cpp:406] conv0_11/bn <- concat0_10_concat0_10_0_split_0
I1205 15:16:58.565165  4225 net.cpp:380] conv0_11/bn -> conv0_11/bn
I1205 15:16:58.565587  4225 net.cpp:122] Setting up conv0_11/bn
I1205 15:16:58.565598  4225 net.cpp:129] Top shape: 1 164 37 212 (1286416)
I1205 15:16:58.565603  4225 net.cpp:137] Memory required for data: 230919928
I1205 15:16:58.565614  4225 layer_factory.hpp:77] Creating layer conv0_11/scale
I1205 15:16:58.565623  4225 net.cpp:84] Creating Layer conv0_11/scale
I1205 15:16:58.565627  4225 net.cpp:406] conv0_11/scale <- conv0_11/bn
I1205 15:16:58.565634  4225 net.cpp:367] conv0_11/scale -> conv0_11/bn (in-place)
I1205 15:16:58.565706  4225 layer_factory.hpp:77] Creating layer conv0_11/scale
I1205 15:16:58.565944  4225 net.cpp:122] Setting up conv0_11/scale
I1205 15:16:58.565953  4225 net.cpp:129] Top shape: 1 164 37 212 (1286416)
I1205 15:16:58.565958  4225 net.cpp:137] Memory required for data: 236065592
I1205 15:16:58.565964  4225 layer_factory.hpp:77] Creating layer relu0_11
I1205 15:16:58.565971  4225 net.cpp:84] Creating Layer relu0_11
I1205 15:16:58.565975  4225 net.cpp:406] relu0_11 <- conv0_11/bn
I1205 15:16:58.565981  4225 net.cpp:367] relu0_11 -> conv0_11/bn (in-place)
I1205 15:16:58.566411  4225 net.cpp:122] Setting up relu0_11
I1205 15:16:58.566424  4225 net.cpp:129] Top shape: 1 164 37 212 (1286416)
I1205 15:16:58.566429  4225 net.cpp:137] Memory required for data: 241211256
I1205 15:16:58.566433  4225 layer_factory.hpp:77] Creating layer conv0_11
I1205 15:16:58.566445  4225 net.cpp:84] Creating Layer conv0_11
I1205 15:16:58.566450  4225 net.cpp:406] conv0_11 <- conv0_11/bn
I1205 15:16:58.566458  4225 net.cpp:380] conv0_11 -> conv0_11
I1205 15:16:58.568895  4225 net.cpp:122] Setting up conv0_11
I1205 15:16:58.568917  4225 net.cpp:129] Top shape: 1 12 37 212 (94128)
I1205 15:16:58.568922  4225 net.cpp:137] Memory required for data: 241587768
I1205 15:16:58.568931  4225 layer_factory.hpp:77] Creating layer concat0_11
I1205 15:16:58.568943  4225 net.cpp:84] Creating Layer concat0_11
I1205 15:16:58.568948  4225 net.cpp:406] concat0_11 <- concat0_10_concat0_10_0_split_1
I1205 15:16:58.568954  4225 net.cpp:406] concat0_11 <- conv0_11
I1205 15:16:58.568961  4225 net.cpp:380] concat0_11 -> concat0_11
I1205 15:16:58.569013  4225 net.cpp:122] Setting up concat0_11
I1205 15:16:58.569021  4225 net.cpp:129] Top shape: 1 176 37 212 (1380544)
I1205 15:16:58.569025  4225 net.cpp:137] Memory required for data: 247109944
I1205 15:16:58.569030  4225 layer_factory.hpp:77] Creating layer concat0_11_concat0_11_0_split
I1205 15:16:58.569036  4225 net.cpp:84] Creating Layer concat0_11_concat0_11_0_split
I1205 15:16:58.569041  4225 net.cpp:406] concat0_11_concat0_11_0_split <- concat0_11
I1205 15:16:58.569046  4225 net.cpp:380] concat0_11_concat0_11_0_split -> concat0_11_concat0_11_0_split_0
I1205 15:16:58.569054  4225 net.cpp:380] concat0_11_concat0_11_0_split -> concat0_11_concat0_11_0_split_1
I1205 15:16:58.569123  4225 net.cpp:122] Setting up concat0_11_concat0_11_0_split
I1205 15:16:58.569130  4225 net.cpp:129] Top shape: 1 176 37 212 (1380544)
I1205 15:16:58.569135  4225 net.cpp:129] Top shape: 1 176 37 212 (1380544)
I1205 15:16:58.569139  4225 net.cpp:137] Memory required for data: 258154296
I1205 15:16:58.569144  4225 layer_factory.hpp:77] Creating layer conv0_12/bn
I1205 15:16:58.569154  4225 net.cpp:84] Creating Layer conv0_12/bn
I1205 15:16:58.569157  4225 net.cpp:406] conv0_12/bn <- concat0_11_concat0_11_0_split_0
I1205 15:16:58.569164  4225 net.cpp:380] conv0_12/bn -> conv0_12/bn
I1205 15:16:58.569599  4225 net.cpp:122] Setting up conv0_12/bn
I1205 15:16:58.569607  4225 net.cpp:129] Top shape: 1 176 37 212 (1380544)
I1205 15:16:58.569612  4225 net.cpp:137] Memory required for data: 263676472
I1205 15:16:58.569622  4225 layer_factory.hpp:77] Creating layer conv0_12/scale
I1205 15:16:58.569630  4225 net.cpp:84] Creating Layer conv0_12/scale
I1205 15:16:58.569634  4225 net.cpp:406] conv0_12/scale <- conv0_12/bn
I1205 15:16:58.569640  4225 net.cpp:367] conv0_12/scale -> conv0_12/bn (in-place)
I1205 15:16:58.569713  4225 layer_factory.hpp:77] Creating layer conv0_12/scale
I1205 15:16:58.569958  4225 net.cpp:122] Setting up conv0_12/scale
I1205 15:16:58.569967  4225 net.cpp:129] Top shape: 1 176 37 212 (1380544)
I1205 15:16:58.569972  4225 net.cpp:137] Memory required for data: 269198648
I1205 15:16:58.569978  4225 layer_factory.hpp:77] Creating layer relu0_12
I1205 15:16:58.569989  4225 net.cpp:84] Creating Layer relu0_12
I1205 15:16:58.569994  4225 net.cpp:406] relu0_12 <- conv0_12/bn
I1205 15:16:58.570000  4225 net.cpp:367] relu0_12 -> conv0_12/bn (in-place)
I1205 15:16:58.570245  4225 net.cpp:122] Setting up relu0_12
I1205 15:16:58.570256  4225 net.cpp:129] Top shape: 1 176 37 212 (1380544)
I1205 15:16:58.570261  4225 net.cpp:137] Memory required for data: 274720824
I1205 15:16:58.570264  4225 layer_factory.hpp:77] Creating layer conv0_12
I1205 15:16:58.570276  4225 net.cpp:84] Creating Layer conv0_12
I1205 15:16:58.570281  4225 net.cpp:406] conv0_12 <- conv0_12/bn
I1205 15:16:58.570289  4225 net.cpp:380] conv0_12 -> conv0_12
I1205 15:16:58.572716  4225 net.cpp:122] Setting up conv0_12
I1205 15:16:58.572743  4225 net.cpp:129] Top shape: 1 12 37 212 (94128)
I1205 15:16:58.572748  4225 net.cpp:137] Memory required for data: 275097336
I1205 15:16:58.572757  4225 layer_factory.hpp:77] Creating layer concat0_12
I1205 15:16:58.572767  4225 net.cpp:84] Creating Layer concat0_12
I1205 15:16:58.572774  4225 net.cpp:406] concat0_12 <- concat0_11_concat0_11_0_split_1
I1205 15:16:58.572782  4225 net.cpp:406] concat0_12 <- conv0_12
I1205 15:16:58.572789  4225 net.cpp:380] concat0_12 -> concat0_12
I1205 15:16:58.572844  4225 net.cpp:122] Setting up concat0_12
I1205 15:16:58.572850  4225 net.cpp:129] Top shape: 1 188 37 212 (1474672)
I1205 15:16:58.572854  4225 net.cpp:137] Memory required for data: 280996024
I1205 15:16:58.572859  4225 layer_factory.hpp:77] Creating layer concat0_12_concat0_12_0_split
I1205 15:16:58.572865  4225 net.cpp:84] Creating Layer concat0_12_concat0_12_0_split
I1205 15:16:58.572868  4225 net.cpp:406] concat0_12_concat0_12_0_split <- concat0_12
I1205 15:16:58.572876  4225 net.cpp:380] concat0_12_concat0_12_0_split -> concat0_12_concat0_12_0_split_0
I1205 15:16:58.572883  4225 net.cpp:380] concat0_12_concat0_12_0_split -> concat0_12_concat0_12_0_split_1
I1205 15:16:58.572952  4225 net.cpp:122] Setting up concat0_12_concat0_12_0_split
I1205 15:16:58.572960  4225 net.cpp:129] Top shape: 1 188 37 212 (1474672)
I1205 15:16:58.572965  4225 net.cpp:129] Top shape: 1 188 37 212 (1474672)
I1205 15:16:58.572969  4225 net.cpp:137] Memory required for data: 292793400
I1205 15:16:58.572973  4225 layer_factory.hpp:77] Creating layer conv0_13/bn
I1205 15:16:58.572981  4225 net.cpp:84] Creating Layer conv0_13/bn
I1205 15:16:58.572985  4225 net.cpp:406] conv0_13/bn <- concat0_12_concat0_12_0_split_0
I1205 15:16:58.572991  4225 net.cpp:380] conv0_13/bn -> conv0_13/bn
I1205 15:16:58.573431  4225 net.cpp:122] Setting up conv0_13/bn
I1205 15:16:58.573441  4225 net.cpp:129] Top shape: 1 188 37 212 (1474672)
I1205 15:16:58.573444  4225 net.cpp:137] Memory required for data: 298692088
I1205 15:16:58.573453  4225 layer_factory.hpp:77] Creating layer conv0_13/scale
I1205 15:16:58.573464  4225 net.cpp:84] Creating Layer conv0_13/scale
I1205 15:16:58.573468  4225 net.cpp:406] conv0_13/scale <- conv0_13/bn
I1205 15:16:58.573474  4225 net.cpp:367] conv0_13/scale -> conv0_13/bn (in-place)
I1205 15:16:58.573549  4225 layer_factory.hpp:77] Creating layer conv0_13/scale
I1205 15:16:58.573803  4225 net.cpp:122] Setting up conv0_13/scale
I1205 15:16:58.573812  4225 net.cpp:129] Top shape: 1 188 37 212 (1474672)
I1205 15:16:58.573817  4225 net.cpp:137] Memory required for data: 304590776
I1205 15:16:58.573823  4225 layer_factory.hpp:77] Creating layer relu0_13
I1205 15:16:58.573832  4225 net.cpp:84] Creating Layer relu0_13
I1205 15:16:58.573837  4225 net.cpp:406] relu0_13 <- conv0_13/bn
I1205 15:16:58.573842  4225 net.cpp:367] relu0_13 -> conv0_13/bn (in-place)
I1205 15:16:58.574297  4225 net.cpp:122] Setting up relu0_13
I1205 15:16:58.574309  4225 net.cpp:129] Top shape: 1 188 37 212 (1474672)
I1205 15:16:58.574314  4225 net.cpp:137] Memory required for data: 310489464
I1205 15:16:58.574318  4225 layer_factory.hpp:77] Creating layer conv0_13
I1205 15:16:58.574331  4225 net.cpp:84] Creating Layer conv0_13
I1205 15:16:58.574335  4225 net.cpp:406] conv0_13 <- conv0_13/bn
I1205 15:16:58.574347  4225 net.cpp:380] conv0_13 -> conv0_13
I1205 15:16:58.577433  4225 net.cpp:122] Setting up conv0_13
I1205 15:16:58.577447  4225 net.cpp:129] Top shape: 1 12 37 212 (94128)
I1205 15:16:58.577452  4225 net.cpp:137] Memory required for data: 310865976
I1205 15:16:58.577458  4225 layer_factory.hpp:77] Creating layer concat0_13
I1205 15:16:58.577466  4225 net.cpp:84] Creating Layer concat0_13
I1205 15:16:58.577472  4225 net.cpp:406] concat0_13 <- concat0_12_concat0_12_0_split_1
I1205 15:16:58.577477  4225 net.cpp:406] concat0_13 <- conv0_13
I1205 15:16:58.577486  4225 net.cpp:380] concat0_13 -> concat0_13
I1205 15:16:58.577538  4225 net.cpp:122] Setting up concat0_13
I1205 15:16:58.577545  4225 net.cpp:129] Top shape: 1 200 37 212 (1568800)
I1205 15:16:58.577548  4225 net.cpp:137] Memory required for data: 317141176
I1205 15:16:58.577553  4225 layer_factory.hpp:77] Creating layer concat0_13_concat0_13_0_split
I1205 15:16:58.577559  4225 net.cpp:84] Creating Layer concat0_13_concat0_13_0_split
I1205 15:16:58.577564  4225 net.cpp:406] concat0_13_concat0_13_0_split <- concat0_13
I1205 15:16:58.577570  4225 net.cpp:380] concat0_13_concat0_13_0_split -> concat0_13_concat0_13_0_split_0
I1205 15:16:58.577577  4225 net.cpp:380] concat0_13_concat0_13_0_split -> concat0_13_concat0_13_0_split_1
I1205 15:16:58.577649  4225 net.cpp:122] Setting up concat0_13_concat0_13_0_split
I1205 15:16:58.577656  4225 net.cpp:129] Top shape: 1 200 37 212 (1568800)
I1205 15:16:58.577661  4225 net.cpp:129] Top shape: 1 200 37 212 (1568800)
I1205 15:16:58.577666  4225 net.cpp:137] Memory required for data: 329691576
I1205 15:16:58.577669  4225 layer_factory.hpp:77] Creating layer conv0_14/bn
I1205 15:16:58.577677  4225 net.cpp:84] Creating Layer conv0_14/bn
I1205 15:16:58.577680  4225 net.cpp:406] conv0_14/bn <- concat0_13_concat0_13_0_split_0
I1205 15:16:58.577687  4225 net.cpp:380] conv0_14/bn -> conv0_14/bn
I1205 15:16:58.578125  4225 net.cpp:122] Setting up conv0_14/bn
I1205 15:16:58.578133  4225 net.cpp:129] Top shape: 1 200 37 212 (1568800)
I1205 15:16:58.578137  4225 net.cpp:137] Memory required for data: 335966776
I1205 15:16:58.578146  4225 layer_factory.hpp:77] Creating layer conv0_14/scale
I1205 15:16:58.578156  4225 net.cpp:84] Creating Layer conv0_14/scale
I1205 15:16:58.578161  4225 net.cpp:406] conv0_14/scale <- conv0_14/bn
I1205 15:16:58.578166  4225 net.cpp:367] conv0_14/scale -> conv0_14/bn (in-place)
I1205 15:16:58.578239  4225 layer_factory.hpp:77] Creating layer conv0_14/scale
I1205 15:16:58.578487  4225 net.cpp:122] Setting up conv0_14/scale
I1205 15:16:58.578496  4225 net.cpp:129] Top shape: 1 200 37 212 (1568800)
I1205 15:16:58.578500  4225 net.cpp:137] Memory required for data: 342241976
I1205 15:16:58.578507  4225 layer_factory.hpp:77] Creating layer relu0_14
I1205 15:16:58.578513  4225 net.cpp:84] Creating Layer relu0_14
I1205 15:16:58.578518  4225 net.cpp:406] relu0_14 <- conv0_14/bn
I1205 15:16:58.578523  4225 net.cpp:367] relu0_14 -> conv0_14/bn (in-place)
I1205 15:16:58.578943  4225 net.cpp:122] Setting up relu0_14
I1205 15:16:58.578955  4225 net.cpp:129] Top shape: 1 200 37 212 (1568800)
I1205 15:16:58.578959  4225 net.cpp:137] Memory required for data: 348517176
I1205 15:16:58.578963  4225 layer_factory.hpp:77] Creating layer conv0_14
I1205 15:16:58.578974  4225 net.cpp:84] Creating Layer conv0_14
I1205 15:16:58.578979  4225 net.cpp:406] conv0_14 <- conv0_14/bn
I1205 15:16:58.578989  4225 net.cpp:380] conv0_14 -> conv0_14
I1205 15:16:58.581641  4225 net.cpp:122] Setting up conv0_14
I1205 15:16:58.581657  4225 net.cpp:129] Top shape: 1 12 37 212 (94128)
I1205 15:16:58.581661  4225 net.cpp:137] Memory required for data: 348893688
I1205 15:16:58.581670  4225 layer_factory.hpp:77] Creating layer concat0_14
I1205 15:16:58.581678  4225 net.cpp:84] Creating Layer concat0_14
I1205 15:16:58.581683  4225 net.cpp:406] concat0_14 <- concat0_13_concat0_13_0_split_1
I1205 15:16:58.581689  4225 net.cpp:406] concat0_14 <- conv0_14
I1205 15:16:58.581696  4225 net.cpp:380] concat0_14 -> concat0_14
I1205 15:16:58.581749  4225 net.cpp:122] Setting up concat0_14
I1205 15:16:58.581761  4225 net.cpp:129] Top shape: 1 212 37 212 (1662928)
I1205 15:16:58.581765  4225 net.cpp:137] Memory required for data: 355545400
I1205 15:16:58.581769  4225 layer_factory.hpp:77] Creating layer concat0_14_concat0_14_0_split
I1205 15:16:58.581775  4225 net.cpp:84] Creating Layer concat0_14_concat0_14_0_split
I1205 15:16:58.581780  4225 net.cpp:406] concat0_14_concat0_14_0_split <- concat0_14
I1205 15:16:58.581785  4225 net.cpp:380] concat0_14_concat0_14_0_split -> concat0_14_concat0_14_0_split_0
I1205 15:16:58.581792  4225 net.cpp:380] concat0_14_concat0_14_0_split -> concat0_14_concat0_14_0_split_1
I1205 15:16:58.581864  4225 net.cpp:122] Setting up concat0_14_concat0_14_0_split
I1205 15:16:58.581872  4225 net.cpp:129] Top shape: 1 212 37 212 (1662928)
I1205 15:16:58.581878  4225 net.cpp:129] Top shape: 1 212 37 212 (1662928)
I1205 15:16:58.581882  4225 net.cpp:137] Memory required for data: 368848824
I1205 15:16:58.581887  4225 layer_factory.hpp:77] Creating layer conv0_15/bn
I1205 15:16:58.581892  4225 net.cpp:84] Creating Layer conv0_15/bn
I1205 15:16:58.581897  4225 net.cpp:406] conv0_15/bn <- concat0_14_concat0_14_0_split_0
I1205 15:16:58.581903  4225 net.cpp:380] conv0_15/bn -> conv0_15/bn
I1205 15:16:58.582362  4225 net.cpp:122] Setting up conv0_15/bn
I1205 15:16:58.582371  4225 net.cpp:129] Top shape: 1 212 37 212 (1662928)
I1205 15:16:58.582376  4225 net.cpp:137] Memory required for data: 375500536
I1205 15:16:58.582386  4225 layer_factory.hpp:77] Creating layer conv0_15/scale
I1205 15:16:58.582394  4225 net.cpp:84] Creating Layer conv0_15/scale
I1205 15:16:58.582398  4225 net.cpp:406] conv0_15/scale <- conv0_15/bn
I1205 15:16:58.582406  4225 net.cpp:367] conv0_15/scale -> conv0_15/bn (in-place)
I1205 15:16:58.582479  4225 layer_factory.hpp:77] Creating layer conv0_15/scale
I1205 15:16:58.582731  4225 net.cpp:122] Setting up conv0_15/scale
I1205 15:16:58.582739  4225 net.cpp:129] Top shape: 1 212 37 212 (1662928)
I1205 15:16:58.582743  4225 net.cpp:137] Memory required for data: 382152248
I1205 15:16:58.582751  4225 layer_factory.hpp:77] Creating layer relu0_15
I1205 15:16:58.582757  4225 net.cpp:84] Creating Layer relu0_15
I1205 15:16:58.582762  4225 net.cpp:406] relu0_15 <- conv0_15/bn
I1205 15:16:58.582767  4225 net.cpp:367] relu0_15 -> conv0_15/bn (in-place)
I1205 15:16:58.582967  4225 net.cpp:122] Setting up relu0_15
I1205 15:16:58.582974  4225 net.cpp:129] Top shape: 1 212 37 212 (1662928)
I1205 15:16:58.582978  4225 net.cpp:137] Memory required for data: 388803960
I1205 15:16:58.582980  4225 layer_factory.hpp:77] Creating layer conv0_15
I1205 15:16:58.582989  4225 net.cpp:84] Creating Layer conv0_15
I1205 15:16:58.582993  4225 net.cpp:406] conv0_15 <- conv0_15/bn
I1205 15:16:58.582998  4225 net.cpp:380] conv0_15 -> conv0_15
I1205 15:16:58.585048  4225 net.cpp:122] Setting up conv0_15
I1205 15:16:58.585074  4225 net.cpp:129] Top shape: 1 12 37 212 (94128)
I1205 15:16:58.585078  4225 net.cpp:137] Memory required for data: 389180472
I1205 15:16:58.585085  4225 layer_factory.hpp:77] Creating layer concat0_15
I1205 15:16:58.585094  4225 net.cpp:84] Creating Layer concat0_15
I1205 15:16:58.585100  4225 net.cpp:406] concat0_15 <- concat0_14_concat0_14_0_split_1
I1205 15:16:58.585105  4225 net.cpp:406] concat0_15 <- conv0_15
I1205 15:16:58.585110  4225 net.cpp:380] concat0_15 -> concat0_15
I1205 15:16:58.585157  4225 net.cpp:122] Setting up concat0_15
I1205 15:16:58.585163  4225 net.cpp:129] Top shape: 1 224 37 212 (1757056)
I1205 15:16:58.585165  4225 net.cpp:137] Memory required for data: 396208696
I1205 15:16:58.585168  4225 layer_factory.hpp:77] Creating layer BatchNorm1
I1205 15:16:58.585175  4225 net.cpp:84] Creating Layer BatchNorm1
I1205 15:16:58.585177  4225 net.cpp:406] BatchNorm1 <- concat0_15
I1205 15:16:58.585181  4225 net.cpp:380] BatchNorm1 -> BatchNorm1
I1205 15:16:58.585533  4225 net.cpp:122] Setting up BatchNorm1
I1205 15:16:58.585541  4225 net.cpp:129] Top shape: 1 224 37 212 (1757056)
I1205 15:16:58.585542  4225 net.cpp:137] Memory required for data: 403236920
I1205 15:16:58.585553  4225 layer_factory.hpp:77] Creating layer Scale1
I1205 15:16:58.585561  4225 net.cpp:84] Creating Layer Scale1
I1205 15:16:58.585564  4225 net.cpp:406] Scale1 <- BatchNorm1
I1205 15:16:58.585569  4225 net.cpp:367] Scale1 -> BatchNorm1 (in-place)
I1205 15:16:58.585628  4225 layer_factory.hpp:77] Creating layer Scale1
I1205 15:16:58.585820  4225 net.cpp:122] Setting up Scale1
I1205 15:16:58.585826  4225 net.cpp:129] Top shape: 1 224 37 212 (1757056)
I1205 15:16:58.585829  4225 net.cpp:137] Memory required for data: 410265144
I1205 15:16:58.585834  4225 layer_factory.hpp:77] Creating layer ReLU1
I1205 15:16:58.585839  4225 net.cpp:84] Creating Layer ReLU1
I1205 15:16:58.585841  4225 net.cpp:406] ReLU1 <- BatchNorm1
I1205 15:16:58.585845  4225 net.cpp:367] ReLU1 -> BatchNorm1 (in-place)
I1205 15:16:58.586271  4225 net.cpp:122] Setting up ReLU1
I1205 15:16:58.586282  4225 net.cpp:129] Top shape: 1 224 37 212 (1757056)
I1205 15:16:58.586285  4225 net.cpp:137] Memory required for data: 417293368
I1205 15:16:58.586288  4225 layer_factory.hpp:77] Creating layer conv0_blk
I1205 15:16:58.586298  4225 net.cpp:84] Creating Layer conv0_blk
I1205 15:16:58.586302  4225 net.cpp:406] conv0_blk <- BatchNorm1
I1205 15:16:58.586313  4225 net.cpp:380] conv0_blk -> conv0_blk
I1205 15:16:58.588795  4225 net.cpp:122] Setting up conv0_blk
I1205 15:16:58.588814  4225 net.cpp:129] Top shape: 1 224 37 212 (1757056)
I1205 15:16:58.588816  4225 net.cpp:137] Memory required for data: 424321592
I1205 15:16:58.588822  4225 layer_factory.hpp:77] Creating layer pool0
I1205 15:16:58.588830  4225 net.cpp:84] Creating Layer pool0
I1205 15:16:58.588835  4225 net.cpp:406] pool0 <- conv0_blk
I1205 15:16:58.588840  4225 net.cpp:380] pool0 -> pool0
I1205 15:16:58.589041  4225 net.cpp:122] Setting up pool0
I1205 15:16:58.589049  4225 net.cpp:129] Top shape: 1 224 19 106 (451136)
I1205 15:16:58.589051  4225 net.cpp:137] Memory required for data: 426126136
I1205 15:16:58.589054  4225 layer_factory.hpp:77] Creating layer pool0_pool0_0_split
I1205 15:16:58.589059  4225 net.cpp:84] Creating Layer pool0_pool0_0_split
I1205 15:16:58.589062  4225 net.cpp:406] pool0_pool0_0_split <- pool0
I1205 15:16:58.589067  4225 net.cpp:380] pool0_pool0_0_split -> pool0_pool0_0_split_0
I1205 15:16:58.589072  4225 net.cpp:380] pool0_pool0_0_split -> pool0_pool0_0_split_1
I1205 15:16:58.589130  4225 net.cpp:122] Setting up pool0_pool0_0_split
I1205 15:16:58.589135  4225 net.cpp:129] Top shape: 1 224 19 106 (451136)
I1205 15:16:58.589138  4225 net.cpp:129] Top shape: 1 224 19 106 (451136)
I1205 15:16:58.589140  4225 net.cpp:137] Memory required for data: 429735224
I1205 15:16:58.589143  4225 layer_factory.hpp:77] Creating layer conv1_0/bn
I1205 15:16:58.589148  4225 net.cpp:84] Creating Layer conv1_0/bn
I1205 15:16:58.589150  4225 net.cpp:406] conv1_0/bn <- pool0_pool0_0_split_0
I1205 15:16:58.589155  4225 net.cpp:380] conv1_0/bn -> conv1_0/bn
I1205 15:16:58.589479  4225 net.cpp:122] Setting up conv1_0/bn
I1205 15:16:58.589485  4225 net.cpp:129] Top shape: 1 224 19 106 (451136)
I1205 15:16:58.589488  4225 net.cpp:137] Memory required for data: 431539768
I1205 15:16:58.589493  4225 layer_factory.hpp:77] Creating layer conv1_0/scale
I1205 15:16:58.589501  4225 net.cpp:84] Creating Layer conv1_0/scale
I1205 15:16:58.589504  4225 net.cpp:406] conv1_0/scale <- conv1_0/bn
I1205 15:16:58.589509  4225 net.cpp:367] conv1_0/scale -> conv1_0/bn (in-place)
I1205 15:16:58.589566  4225 layer_factory.hpp:77] Creating layer conv1_0/scale
I1205 15:16:58.589752  4225 net.cpp:122] Setting up conv1_0/scale
I1205 15:16:58.589758  4225 net.cpp:129] Top shape: 1 224 19 106 (451136)
I1205 15:16:58.589761  4225 net.cpp:137] Memory required for data: 433344312
I1205 15:16:58.589766  4225 layer_factory.hpp:77] Creating layer relu1_0
I1205 15:16:58.589771  4225 net.cpp:84] Creating Layer relu1_0
I1205 15:16:58.589772  4225 net.cpp:406] relu1_0 <- conv1_0/bn
I1205 15:16:58.589776  4225 net.cpp:367] relu1_0 -> conv1_0/bn (in-place)
I1205 15:16:58.590123  4225 net.cpp:122] Setting up relu1_0
I1205 15:16:58.590137  4225 net.cpp:129] Top shape: 1 224 19 106 (451136)
I1205 15:16:58.590139  4225 net.cpp:137] Memory required for data: 435148856
I1205 15:16:58.590142  4225 layer_factory.hpp:77] Creating layer conv1_0
I1205 15:16:58.590152  4225 net.cpp:84] Creating Layer conv1_0
I1205 15:16:58.590155  4225 net.cpp:406] conv1_0 <- conv1_0/bn
I1205 15:16:58.590162  4225 net.cpp:380] conv1_0 -> conv1_0
I1205 15:16:58.592111  4225 net.cpp:122] Setting up conv1_0
I1205 15:16:58.592123  4225 net.cpp:129] Top shape: 1 12 19 106 (24168)
I1205 15:16:58.592126  4225 net.cpp:137] Memory required for data: 435245528
I1205 15:16:58.592131  4225 layer_factory.hpp:77] Creating layer concat1_0
I1205 15:16:58.592139  4225 net.cpp:84] Creating Layer concat1_0
I1205 15:16:58.592141  4225 net.cpp:406] concat1_0 <- pool0_pool0_0_split_1
I1205 15:16:58.592145  4225 net.cpp:406] concat1_0 <- conv1_0
I1205 15:16:58.592150  4225 net.cpp:380] concat1_0 -> concat1_0
I1205 15:16:58.592193  4225 net.cpp:122] Setting up concat1_0
I1205 15:16:58.592200  4225 net.cpp:129] Top shape: 1 236 19 106 (475304)
I1205 15:16:58.592202  4225 net.cpp:137] Memory required for data: 437146744
I1205 15:16:58.592205  4225 layer_factory.hpp:77] Creating layer concat1_0_concat1_0_0_split
I1205 15:16:58.592208  4225 net.cpp:84] Creating Layer concat1_0_concat1_0_0_split
I1205 15:16:58.592211  4225 net.cpp:406] concat1_0_concat1_0_0_split <- concat1_0
I1205 15:16:58.592216  4225 net.cpp:380] concat1_0_concat1_0_0_split -> concat1_0_concat1_0_0_split_0
I1205 15:16:58.592219  4225 net.cpp:380] concat1_0_concat1_0_0_split -> concat1_0_concat1_0_0_split_1
I1205 15:16:58.592274  4225 net.cpp:122] Setting up concat1_0_concat1_0_0_split
I1205 15:16:58.592279  4225 net.cpp:129] Top shape: 1 236 19 106 (475304)
I1205 15:16:58.592283  4225 net.cpp:129] Top shape: 1 236 19 106 (475304)
I1205 15:16:58.592285  4225 net.cpp:137] Memory required for data: 440949176
I1205 15:16:58.592288  4225 layer_factory.hpp:77] Creating layer conv1_1/bn
I1205 15:16:58.592293  4225 net.cpp:84] Creating Layer conv1_1/bn
I1205 15:16:58.592295  4225 net.cpp:406] conv1_1/bn <- concat1_0_concat1_0_0_split_0
I1205 15:16:58.592303  4225 net.cpp:380] conv1_1/bn -> conv1_1/bn
I1205 15:16:58.592633  4225 net.cpp:122] Setting up conv1_1/bn
I1205 15:16:58.592639  4225 net.cpp:129] Top shape: 1 236 19 106 (475304)
I1205 15:16:58.592643  4225 net.cpp:137] Memory required for data: 442850392
I1205 15:16:58.592648  4225 layer_factory.hpp:77] Creating layer conv1_1/scale
I1205 15:16:58.592655  4225 net.cpp:84] Creating Layer conv1_1/scale
I1205 15:16:58.592658  4225 net.cpp:406] conv1_1/scale <- conv1_1/bn
I1205 15:16:58.592664  4225 net.cpp:367] conv1_1/scale -> conv1_1/bn (in-place)
I1205 15:16:58.592718  4225 layer_factory.hpp:77] Creating layer conv1_1/scale
I1205 15:16:58.592901  4225 net.cpp:122] Setting up conv1_1/scale
I1205 15:16:58.592907  4225 net.cpp:129] Top shape: 1 236 19 106 (475304)
I1205 15:16:58.592909  4225 net.cpp:137] Memory required for data: 444751608
I1205 15:16:58.592914  4225 layer_factory.hpp:77] Creating layer relu1_1
I1205 15:16:58.592919  4225 net.cpp:84] Creating Layer relu1_1
I1205 15:16:58.592922  4225 net.cpp:406] relu1_1 <- conv1_1/bn
I1205 15:16:58.592926  4225 net.cpp:367] relu1_1 -> conv1_1/bn (in-place)
I1205 15:16:58.593281  4225 net.cpp:122] Setting up relu1_1
I1205 15:16:58.593291  4225 net.cpp:129] Top shape: 1 236 19 106 (475304)
I1205 15:16:58.593293  4225 net.cpp:137] Memory required for data: 446652824
I1205 15:16:58.593297  4225 layer_factory.hpp:77] Creating layer conv1_1
I1205 15:16:58.593307  4225 net.cpp:84] Creating Layer conv1_1
I1205 15:16:58.593309  4225 net.cpp:406] conv1_1 <- conv1_1/bn
I1205 15:16:58.593315  4225 net.cpp:380] conv1_1 -> conv1_1
I1205 15:16:58.595258  4225 net.cpp:122] Setting up conv1_1
I1205 15:16:58.595270  4225 net.cpp:129] Top shape: 1 12 19 106 (24168)
I1205 15:16:58.595273  4225 net.cpp:137] Memory required for data: 446749496
I1205 15:16:58.595278  4225 layer_factory.hpp:77] Creating layer concat1_1
I1205 15:16:58.595288  4225 net.cpp:84] Creating Layer concat1_1
I1205 15:16:58.595293  4225 net.cpp:406] concat1_1 <- concat1_0_concat1_0_0_split_1
I1205 15:16:58.595295  4225 net.cpp:406] concat1_1 <- conv1_1
I1205 15:16:58.595300  4225 net.cpp:380] concat1_1 -> concat1_1
I1205 15:16:58.595343  4225 net.cpp:122] Setting up concat1_1
I1205 15:16:58.595348  4225 net.cpp:129] Top shape: 1 248 19 106 (499472)
I1205 15:16:58.595350  4225 net.cpp:137] Memory required for data: 448747384
I1205 15:16:58.595353  4225 layer_factory.hpp:77] Creating layer concat1_1_concat1_1_0_split
I1205 15:16:58.595358  4225 net.cpp:84] Creating Layer concat1_1_concat1_1_0_split
I1205 15:16:58.595360  4225 net.cpp:406] concat1_1_concat1_1_0_split <- concat1_1
I1205 15:16:58.595365  4225 net.cpp:380] concat1_1_concat1_1_0_split -> concat1_1_concat1_1_0_split_0
I1205 15:16:58.595369  4225 net.cpp:380] concat1_1_concat1_1_0_split -> concat1_1_concat1_1_0_split_1
I1205 15:16:58.595425  4225 net.cpp:122] Setting up concat1_1_concat1_1_0_split
I1205 15:16:58.595432  4225 net.cpp:129] Top shape: 1 248 19 106 (499472)
I1205 15:16:58.595434  4225 net.cpp:129] Top shape: 1 248 19 106 (499472)
I1205 15:16:58.595437  4225 net.cpp:137] Memory required for data: 452743160
I1205 15:16:58.595438  4225 layer_factory.hpp:77] Creating layer conv1_2/bn
I1205 15:16:58.595443  4225 net.cpp:84] Creating Layer conv1_2/bn
I1205 15:16:58.595446  4225 net.cpp:406] conv1_2/bn <- concat1_1_concat1_1_0_split_0
I1205 15:16:58.595451  4225 net.cpp:380] conv1_2/bn -> conv1_2/bn
I1205 15:16:58.595784  4225 net.cpp:122] Setting up conv1_2/bn
I1205 15:16:58.595791  4225 net.cpp:129] Top shape: 1 248 19 106 (499472)
I1205 15:16:58.595793  4225 net.cpp:137] Memory required for data: 454741048
I1205 15:16:58.595799  4225 layer_factory.hpp:77] Creating layer conv1_2/scale
I1205 15:16:58.595806  4225 net.cpp:84] Creating Layer conv1_2/scale
I1205 15:16:58.595809  4225 net.cpp:406] conv1_2/scale <- conv1_2/bn
I1205 15:16:58.595813  4225 net.cpp:367] conv1_2/scale -> conv1_2/bn (in-place)
I1205 15:16:58.595870  4225 layer_factory.hpp:77] Creating layer conv1_2/scale
I1205 15:16:58.596050  4225 net.cpp:122] Setting up conv1_2/scale
I1205 15:16:58.596056  4225 net.cpp:129] Top shape: 1 248 19 106 (499472)
I1205 15:16:58.596058  4225 net.cpp:137] Memory required for data: 456738936
I1205 15:16:58.596063  4225 layer_factory.hpp:77] Creating layer relu1_2
I1205 15:16:58.596068  4225 net.cpp:84] Creating Layer relu1_2
I1205 15:16:58.596071  4225 net.cpp:406] relu1_2 <- conv1_2/bn
I1205 15:16:58.596074  4225 net.cpp:367] relu1_2 -> conv1_2/bn (in-place)
I1205 15:16:58.596257  4225 net.cpp:122] Setting up relu1_2
I1205 15:16:58.596264  4225 net.cpp:129] Top shape: 1 248 19 106 (499472)
I1205 15:16:58.596267  4225 net.cpp:137] Memory required for data: 458736824
I1205 15:16:58.596269  4225 layer_factory.hpp:77] Creating layer conv1_2
I1205 15:16:58.596280  4225 net.cpp:84] Creating Layer conv1_2
I1205 15:16:58.596283  4225 net.cpp:406] conv1_2 <- conv1_2/bn
I1205 15:16:58.596288  4225 net.cpp:380] conv1_2 -> conv1_2
I1205 15:16:58.598616  4225 net.cpp:122] Setting up conv1_2
I1205 15:16:58.598630  4225 net.cpp:129] Top shape: 1 12 19 106 (24168)
I1205 15:16:58.598635  4225 net.cpp:137] Memory required for data: 458833496
I1205 15:16:58.598641  4225 layer_factory.hpp:77] Creating layer concat1_2
I1205 15:16:58.598650  4225 net.cpp:84] Creating Layer concat1_2
I1205 15:16:58.598655  4225 net.cpp:406] concat1_2 <- concat1_1_concat1_1_0_split_1
I1205 15:16:58.598661  4225 net.cpp:406] concat1_2 <- conv1_2
I1205 15:16:58.598668  4225 net.cpp:380] concat1_2 -> concat1_2
I1205 15:16:58.598721  4225 net.cpp:122] Setting up concat1_2
I1205 15:16:58.598729  4225 net.cpp:129] Top shape: 1 260 19 106 (523640)
I1205 15:16:58.598733  4225 net.cpp:137] Memory required for data: 460928056
I1205 15:16:58.598737  4225 layer_factory.hpp:77] Creating layer concat1_2_concat1_2_0_split
I1205 15:16:58.598744  4225 net.cpp:84] Creating Layer concat1_2_concat1_2_0_split
I1205 15:16:58.598748  4225 net.cpp:406] concat1_2_concat1_2_0_split <- concat1_2
I1205 15:16:58.598758  4225 net.cpp:380] concat1_2_concat1_2_0_split -> concat1_2_concat1_2_0_split_0
I1205 15:16:58.598765  4225 net.cpp:380] concat1_2_concat1_2_0_split -> concat1_2_concat1_2_0_split_1
I1205 15:16:58.598840  4225 net.cpp:122] Setting up concat1_2_concat1_2_0_split
I1205 15:16:58.598848  4225 net.cpp:129] Top shape: 1 260 19 106 (523640)
I1205 15:16:58.598853  4225 net.cpp:129] Top shape: 1 260 19 106 (523640)
I1205 15:16:58.598857  4225 net.cpp:137] Memory required for data: 465117176
I1205 15:16:58.598861  4225 layer_factory.hpp:77] Creating layer conv1_3/bn
I1205 15:16:58.598870  4225 net.cpp:84] Creating Layer conv1_3/bn
I1205 15:16:58.598873  4225 net.cpp:406] conv1_3/bn <- concat1_2_concat1_2_0_split_0
I1205 15:16:58.598879  4225 net.cpp:380] conv1_3/bn -> conv1_3/bn
I1205 15:16:58.599352  4225 net.cpp:122] Setting up conv1_3/bn
I1205 15:16:58.599361  4225 net.cpp:129] Top shape: 1 260 19 106 (523640)
I1205 15:16:58.599365  4225 net.cpp:137] Memory required for data: 467211736
I1205 15:16:58.599385  4225 layer_factory.hpp:77] Creating layer conv1_3/scale
I1205 15:16:58.599400  4225 net.cpp:84] Creating Layer conv1_3/scale
I1205 15:16:58.599405  4225 net.cpp:406] conv1_3/scale <- conv1_3/bn
I1205 15:16:58.599411  4225 net.cpp:367] conv1_3/scale -> conv1_3/bn (in-place)
I1205 15:16:58.599493  4225 layer_factory.hpp:77] Creating layer conv1_3/scale
I1205 15:16:58.599758  4225 net.cpp:122] Setting up conv1_3/scale
I1205 15:16:58.599768  4225 net.cpp:129] Top shape: 1 260 19 106 (523640)
I1205 15:16:58.599771  4225 net.cpp:137] Memory required for data: 469306296
I1205 15:16:58.599781  4225 layer_factory.hpp:77] Creating layer relu1_3
I1205 15:16:58.599787  4225 net.cpp:84] Creating Layer relu1_3
I1205 15:16:58.599792  4225 net.cpp:406] relu1_3 <- conv1_3/bn
I1205 15:16:58.599798  4225 net.cpp:367] relu1_3 -> conv1_3/bn (in-place)
I1205 15:16:58.600247  4225 net.cpp:122] Setting up relu1_3
I1205 15:16:58.600260  4225 net.cpp:129] Top shape: 1 260 19 106 (523640)
I1205 15:16:58.600265  4225 net.cpp:137] Memory required for data: 471400856
I1205 15:16:58.600268  4225 layer_factory.hpp:77] Creating layer conv1_3
I1205 15:16:58.600281  4225 net.cpp:84] Creating Layer conv1_3
I1205 15:16:58.600286  4225 net.cpp:406] conv1_3 <- conv1_3/bn
I1205 15:16:58.600294  4225 net.cpp:380] conv1_3 -> conv1_3
I1205 15:16:58.603116  4225 net.cpp:122] Setting up conv1_3
I1205 15:16:58.603142  4225 net.cpp:129] Top shape: 1 12 19 106 (24168)
I1205 15:16:58.603147  4225 net.cpp:137] Memory required for data: 471497528
I1205 15:16:58.603157  4225 layer_factory.hpp:77] Creating layer concat1_3
I1205 15:16:58.603168  4225 net.cpp:84] Creating Layer concat1_3
I1205 15:16:58.603174  4225 net.cpp:406] concat1_3 <- concat1_2_concat1_2_0_split_1
I1205 15:16:58.603181  4225 net.cpp:406] concat1_3 <- conv1_3
I1205 15:16:58.603191  4225 net.cpp:380] concat1_3 -> concat1_3
I1205 15:16:58.603250  4225 net.cpp:122] Setting up concat1_3
I1205 15:16:58.603256  4225 net.cpp:129] Top shape: 1 272 19 106 (547808)
I1205 15:16:58.603260  4225 net.cpp:137] Memory required for data: 473688760
I1205 15:16:58.603265  4225 layer_factory.hpp:77] Creating layer concat1_3_concat1_3_0_split
I1205 15:16:58.603271  4225 net.cpp:84] Creating Layer concat1_3_concat1_3_0_split
I1205 15:16:58.603276  4225 net.cpp:406] concat1_3_concat1_3_0_split <- concat1_3
I1205 15:16:58.603282  4225 net.cpp:380] concat1_3_concat1_3_0_split -> concat1_3_concat1_3_0_split_0
I1205 15:16:58.603291  4225 net.cpp:380] concat1_3_concat1_3_0_split -> concat1_3_concat1_3_0_split_1
I1205 15:16:58.603368  4225 net.cpp:122] Setting up concat1_3_concat1_3_0_split
I1205 15:16:58.603374  4225 net.cpp:129] Top shape: 1 272 19 106 (547808)
I1205 15:16:58.603380  4225 net.cpp:129] Top shape: 1 272 19 106 (547808)
I1205 15:16:58.603384  4225 net.cpp:137] Memory required for data: 478071224
I1205 15:16:58.603387  4225 layer_factory.hpp:77] Creating layer conv1_4/bn
I1205 15:16:58.603396  4225 net.cpp:84] Creating Layer conv1_4/bn
I1205 15:16:58.603400  4225 net.cpp:406] conv1_4/bn <- concat1_3_concat1_3_0_split_0
I1205 15:16:58.603412  4225 net.cpp:380] conv1_4/bn -> conv1_4/bn
I1205 15:16:58.603919  4225 net.cpp:122] Setting up conv1_4/bn
I1205 15:16:58.603929  4225 net.cpp:129] Top shape: 1 272 19 106 (547808)
I1205 15:16:58.603932  4225 net.cpp:137] Memory required for data: 480262456
I1205 15:16:58.603942  4225 layer_factory.hpp:77] Creating layer conv1_4/scale
I1205 15:16:58.603951  4225 net.cpp:84] Creating Layer conv1_4/scale
I1205 15:16:58.603956  4225 net.cpp:406] conv1_4/scale <- conv1_4/bn
I1205 15:16:58.603963  4225 net.cpp:367] conv1_4/scale -> conv1_4/bn (in-place)
I1205 15:16:58.604050  4225 layer_factory.hpp:77] Creating layer conv1_4/scale
I1205 15:16:58.604310  4225 net.cpp:122] Setting up conv1_4/scale
I1205 15:16:58.604320  4225 net.cpp:129] Top shape: 1 272 19 106 (547808)
I1205 15:16:58.604323  4225 net.cpp:137] Memory required for data: 482453688
I1205 15:16:58.604331  4225 layer_factory.hpp:77] Creating layer relu1_4
I1205 15:16:58.604339  4225 net.cpp:84] Creating Layer relu1_4
I1205 15:16:58.604343  4225 net.cpp:406] relu1_4 <- conv1_4/bn
I1205 15:16:58.604349  4225 net.cpp:367] relu1_4 -> conv1_4/bn (in-place)
I1205 15:16:58.604627  4225 net.cpp:122] Setting up relu1_4
I1205 15:16:58.604638  4225 net.cpp:129] Top shape: 1 272 19 106 (547808)
I1205 15:16:58.604642  4225 net.cpp:137] Memory required for data: 484644920
I1205 15:16:58.604646  4225 layer_factory.hpp:77] Creating layer conv1_4
I1205 15:16:58.604658  4225 net.cpp:84] Creating Layer conv1_4
I1205 15:16:58.604663  4225 net.cpp:406] conv1_4 <- conv1_4/bn
I1205 15:16:58.604672  4225 net.cpp:380] conv1_4 -> conv1_4
I1205 15:16:58.607730  4225 net.cpp:122] Setting up conv1_4
I1205 15:16:58.607769  4225 net.cpp:129] Top shape: 1 12 19 106 (24168)
I1205 15:16:58.607774  4225 net.cpp:137] Memory required for data: 484741592
I1205 15:16:58.607784  4225 layer_factory.hpp:77] Creating layer concat1_4
I1205 15:16:58.607797  4225 net.cpp:84] Creating Layer concat1_4
I1205 15:16:58.607803  4225 net.cpp:406] concat1_4 <- concat1_3_concat1_3_0_split_1
I1205 15:16:58.607815  4225 net.cpp:406] concat1_4 <- conv1_4
I1205 15:16:58.607821  4225 net.cpp:380] concat1_4 -> concat1_4
I1205 15:16:58.607880  4225 net.cpp:122] Setting up concat1_4
I1205 15:16:58.607888  4225 net.cpp:129] Top shape: 1 284 19 106 (571976)
I1205 15:16:58.607892  4225 net.cpp:137] Memory required for data: 487029496
I1205 15:16:58.607897  4225 layer_factory.hpp:77] Creating layer concat1_4_concat1_4_0_split
I1205 15:16:58.607904  4225 net.cpp:84] Creating Layer concat1_4_concat1_4_0_split
I1205 15:16:58.607908  4225 net.cpp:406] concat1_4_concat1_4_0_split <- concat1_4
I1205 15:16:58.607914  4225 net.cpp:380] concat1_4_concat1_4_0_split -> concat1_4_concat1_4_0_split_0
I1205 15:16:58.607921  4225 net.cpp:380] concat1_4_concat1_4_0_split -> concat1_4_concat1_4_0_split_1
I1205 15:16:58.607998  4225 net.cpp:122] Setting up concat1_4_concat1_4_0_split
I1205 15:16:58.608006  4225 net.cpp:129] Top shape: 1 284 19 106 (571976)
I1205 15:16:58.608011  4225 net.cpp:129] Top shape: 1 284 19 106 (571976)
I1205 15:16:58.608016  4225 net.cpp:137] Memory required for data: 491605304
I1205 15:16:58.608019  4225 layer_factory.hpp:77] Creating layer conv1_5/bn
I1205 15:16:58.608027  4225 net.cpp:84] Creating Layer conv1_5/bn
I1205 15:16:58.608032  4225 net.cpp:406] conv1_5/bn <- concat1_4_concat1_4_0_split_0
I1205 15:16:58.608039  4225 net.cpp:380] conv1_5/bn -> conv1_5/bn
I1205 15:16:58.608536  4225 net.cpp:122] Setting up conv1_5/bn
I1205 15:16:58.608546  4225 net.cpp:129] Top shape: 1 284 19 106 (571976)
I1205 15:16:58.608549  4225 net.cpp:137] Memory required for data: 493893208
I1205 15:16:58.608561  4225 layer_factory.hpp:77] Creating layer conv1_5/scale
I1205 15:16:58.608569  4225 net.cpp:84] Creating Layer conv1_5/scale
I1205 15:16:58.608573  4225 net.cpp:406] conv1_5/scale <- conv1_5/bn
I1205 15:16:58.608579  4225 net.cpp:367] conv1_5/scale -> conv1_5/bn (in-place)
I1205 15:16:58.608666  4225 layer_factory.hpp:77] Creating layer conv1_5/scale
I1205 15:16:58.608934  4225 net.cpp:122] Setting up conv1_5/scale
I1205 15:16:58.608943  4225 net.cpp:129] Top shape: 1 284 19 106 (571976)
I1205 15:16:58.608947  4225 net.cpp:137] Memory required for data: 496181112
I1205 15:16:58.608954  4225 layer_factory.hpp:77] Creating layer relu1_5
I1205 15:16:58.608961  4225 net.cpp:84] Creating Layer relu1_5
I1205 15:16:58.608965  4225 net.cpp:406] relu1_5 <- conv1_5/bn
I1205 15:16:58.608973  4225 net.cpp:367] relu1_5 -> conv1_5/bn (in-place)
I1205 15:16:58.609603  4225 net.cpp:122] Setting up relu1_5
I1205 15:16:58.609616  4225 net.cpp:129] Top shape: 1 284 19 106 (571976)
I1205 15:16:58.609619  4225 net.cpp:137] Memory required for data: 498469016
I1205 15:16:58.609624  4225 layer_factory.hpp:77] Creating layer conv1_5
I1205 15:16:58.609637  4225 net.cpp:84] Creating Layer conv1_5
I1205 15:16:58.609642  4225 net.cpp:406] conv1_5 <- conv1_5/bn
I1205 15:16:58.609652  4225 net.cpp:380] conv1_5 -> conv1_5
I1205 15:16:58.613297  4225 net.cpp:122] Setting up conv1_5
I1205 15:16:58.613325  4225 net.cpp:129] Top shape: 1 12 19 106 (24168)
I1205 15:16:58.613330  4225 net.cpp:137] Memory required for data: 498565688
I1205 15:16:58.613339  4225 layer_factory.hpp:77] Creating layer concat1_5
I1205 15:16:58.613353  4225 net.cpp:84] Creating Layer concat1_5
I1205 15:16:58.613359  4225 net.cpp:406] concat1_5 <- concat1_4_concat1_4_0_split_1
I1205 15:16:58.613368  4225 net.cpp:406] concat1_5 <- conv1_5
I1205 15:16:58.613374  4225 net.cpp:380] concat1_5 -> concat1_5
I1205 15:16:58.613432  4225 net.cpp:122] Setting up concat1_5
I1205 15:16:58.613442  4225 net.cpp:129] Top shape: 1 296 19 106 (596144)
I1205 15:16:58.613446  4225 net.cpp:137] Memory required for data: 500950264
I1205 15:16:58.613451  4225 layer_factory.hpp:77] Creating layer concat1_5_concat1_5_0_split
I1205 15:16:58.613457  4225 net.cpp:84] Creating Layer concat1_5_concat1_5_0_split
I1205 15:16:58.613461  4225 net.cpp:406] concat1_5_concat1_5_0_split <- concat1_5
I1205 15:16:58.613467  4225 net.cpp:380] concat1_5_concat1_5_0_split -> concat1_5_concat1_5_0_split_0
I1205 15:16:58.613474  4225 net.cpp:380] concat1_5_concat1_5_0_split -> concat1_5_concat1_5_0_split_1
I1205 15:16:58.613554  4225 net.cpp:122] Setting up concat1_5_concat1_5_0_split
I1205 15:16:58.613560  4225 net.cpp:129] Top shape: 1 296 19 106 (596144)
I1205 15:16:58.613566  4225 net.cpp:129] Top shape: 1 296 19 106 (596144)
I1205 15:16:58.613569  4225 net.cpp:137] Memory required for data: 505719416
I1205 15:16:58.613574  4225 layer_factory.hpp:77] Creating layer conv1_6/bn
I1205 15:16:58.613581  4225 net.cpp:84] Creating Layer conv1_6/bn
I1205 15:16:58.613586  4225 net.cpp:406] conv1_6/bn <- concat1_5_concat1_5_0_split_0
I1205 15:16:58.613592  4225 net.cpp:380] conv1_6/bn -> conv1_6/bn
I1205 15:16:58.614122  4225 net.cpp:122] Setting up conv1_6/bn
I1205 15:16:58.614135  4225 net.cpp:129] Top shape: 1 296 19 106 (596144)
I1205 15:16:58.614140  4225 net.cpp:137] Memory required for data: 508103992
I1205 15:16:58.614151  4225 layer_factory.hpp:77] Creating layer conv1_6/scale
I1205 15:16:58.614162  4225 net.cpp:84] Creating Layer conv1_6/scale
I1205 15:16:58.614168  4225 net.cpp:406] conv1_6/scale <- conv1_6/bn
I1205 15:16:58.614176  4225 net.cpp:367] conv1_6/scale -> conv1_6/bn (in-place)
I1205 15:16:58.614280  4225 layer_factory.hpp:77] Creating layer conv1_6/scale
I1205 15:16:58.614549  4225 net.cpp:122] Setting up conv1_6/scale
I1205 15:16:58.614560  4225 net.cpp:129] Top shape: 1 296 19 106 (596144)
I1205 15:16:58.614564  4225 net.cpp:137] Memory required for data: 510488568
I1205 15:16:58.614572  4225 layer_factory.hpp:77] Creating layer relu1_6
I1205 15:16:58.614578  4225 net.cpp:84] Creating Layer relu1_6
I1205 15:16:58.614583  4225 net.cpp:406] relu1_6 <- conv1_6/bn
I1205 15:16:58.614589  4225 net.cpp:367] relu1_6 -> conv1_6/bn (in-place)
I1205 15:16:58.615061  4225 net.cpp:122] Setting up relu1_6
I1205 15:16:58.615074  4225 net.cpp:129] Top shape: 1 296 19 106 (596144)
I1205 15:16:58.615078  4225 net.cpp:137] Memory required for data: 512873144
I1205 15:16:58.615087  4225 layer_factory.hpp:77] Creating layer conv1_6
I1205 15:16:58.615100  4225 net.cpp:84] Creating Layer conv1_6
I1205 15:16:58.615104  4225 net.cpp:406] conv1_6 <- conv1_6/bn
I1205 15:16:58.615113  4225 net.cpp:380] conv1_6 -> conv1_6
I1205 15:16:58.618037  4225 net.cpp:122] Setting up conv1_6
I1205 15:16:58.618050  4225 net.cpp:129] Top shape: 1 12 19 106 (24168)
I1205 15:16:58.618055  4225 net.cpp:137] Memory required for data: 512969816
I1205 15:16:58.618062  4225 layer_factory.hpp:77] Creating layer concat1_6
I1205 15:16:58.618070  4225 net.cpp:84] Creating Layer concat1_6
I1205 15:16:58.618075  4225 net.cpp:406] concat1_6 <- concat1_5_concat1_5_0_split_1
I1205 15:16:58.618080  4225 net.cpp:406] concat1_6 <- conv1_6
I1205 15:16:58.618088  4225 net.cpp:380] concat1_6 -> concat1_6
I1205 15:16:58.618144  4225 net.cpp:122] Setting up concat1_6
I1205 15:16:58.618151  4225 net.cpp:129] Top shape: 1 308 19 106 (620312)
I1205 15:16:58.618155  4225 net.cpp:137] Memory required for data: 515451064
I1205 15:16:58.618160  4225 layer_factory.hpp:77] Creating layer concat1_6_concat1_6_0_split
I1205 15:16:58.618165  4225 net.cpp:84] Creating Layer concat1_6_concat1_6_0_split
I1205 15:16:58.618170  4225 net.cpp:406] concat1_6_concat1_6_0_split <- concat1_6
I1205 15:16:58.618176  4225 net.cpp:380] concat1_6_concat1_6_0_split -> concat1_6_concat1_6_0_split_0
I1205 15:16:58.618183  4225 net.cpp:380] concat1_6_concat1_6_0_split -> concat1_6_concat1_6_0_split_1
I1205 15:16:58.618260  4225 net.cpp:122] Setting up concat1_6_concat1_6_0_split
I1205 15:16:58.618268  4225 net.cpp:129] Top shape: 1 308 19 106 (620312)
I1205 15:16:58.618273  4225 net.cpp:129] Top shape: 1 308 19 106 (620312)
I1205 15:16:58.618278  4225 net.cpp:137] Memory required for data: 520413560
I1205 15:16:58.618281  4225 layer_factory.hpp:77] Creating layer conv1_7/bn
I1205 15:16:58.618289  4225 net.cpp:84] Creating Layer conv1_7/bn
I1205 15:16:58.618294  4225 net.cpp:406] conv1_7/bn <- concat1_6_concat1_6_0_split_0
I1205 15:16:58.618299  4225 net.cpp:380] conv1_7/bn -> conv1_7/bn
I1205 15:16:58.618777  4225 net.cpp:122] Setting up conv1_7/bn
I1205 15:16:58.618785  4225 net.cpp:129] Top shape: 1 308 19 106 (620312)
I1205 15:16:58.618789  4225 net.cpp:137] Memory required for data: 522894808
I1205 15:16:58.618798  4225 layer_factory.hpp:77] Creating layer conv1_7/scale
I1205 15:16:58.618808  4225 net.cpp:84] Creating Layer conv1_7/scale
I1205 15:16:58.618813  4225 net.cpp:406] conv1_7/scale <- conv1_7/bn
I1205 15:16:58.618818  4225 net.cpp:367] conv1_7/scale -> conv1_7/bn (in-place)
I1205 15:16:58.618901  4225 layer_factory.hpp:77] Creating layer conv1_7/scale
I1205 15:16:58.619168  4225 net.cpp:122] Setting up conv1_7/scale
I1205 15:16:58.619177  4225 net.cpp:129] Top shape: 1 308 19 106 (620312)
I1205 15:16:58.619181  4225 net.cpp:137] Memory required for data: 525376056
I1205 15:16:58.619189  4225 layer_factory.hpp:77] Creating layer relu1_7
I1205 15:16:58.619195  4225 net.cpp:84] Creating Layer relu1_7
I1205 15:16:58.619199  4225 net.cpp:406] relu1_7 <- conv1_7/bn
I1205 15:16:58.619205  4225 net.cpp:367] relu1_7 -> conv1_7/bn (in-place)
I1205 15:16:58.619451  4225 net.cpp:122] Setting up relu1_7
I1205 15:16:58.619460  4225 net.cpp:129] Top shape: 1 308 19 106 (620312)
I1205 15:16:58.619464  4225 net.cpp:137] Memory required for data: 527857304
I1205 15:16:58.619468  4225 layer_factory.hpp:77] Creating layer conv1_7
I1205 15:16:58.619479  4225 net.cpp:84] Creating Layer conv1_7
I1205 15:16:58.619484  4225 net.cpp:406] conv1_7 <- conv1_7/bn
I1205 15:16:58.619491  4225 net.cpp:380] conv1_7 -> conv1_7
I1205 15:16:58.622493  4225 net.cpp:122] Setting up conv1_7
I1205 15:16:58.622508  4225 net.cpp:129] Top shape: 1 12 19 106 (24168)
I1205 15:16:58.622511  4225 net.cpp:137] Memory required for data: 527953976
I1205 15:16:58.622519  4225 layer_factory.hpp:77] Creating layer concat1_7
I1205 15:16:58.622526  4225 net.cpp:84] Creating Layer concat1_7
I1205 15:16:58.622531  4225 net.cpp:406] concat1_7 <- concat1_6_concat1_6_0_split_1
I1205 15:16:58.622537  4225 net.cpp:406] concat1_7 <- conv1_7
I1205 15:16:58.622545  4225 net.cpp:380] concat1_7 -> concat1_7
I1205 15:16:58.622602  4225 net.cpp:122] Setting up concat1_7
I1205 15:16:58.622611  4225 net.cpp:129] Top shape: 1 320 19 106 (644480)
I1205 15:16:58.622614  4225 net.cpp:137] Memory required for data: 530531896
I1205 15:16:58.622618  4225 layer_factory.hpp:77] Creating layer concat1_7_concat1_7_0_split
I1205 15:16:58.622624  4225 net.cpp:84] Creating Layer concat1_7_concat1_7_0_split
I1205 15:16:58.622629  4225 net.cpp:406] concat1_7_concat1_7_0_split <- concat1_7
I1205 15:16:58.622634  4225 net.cpp:380] concat1_7_concat1_7_0_split -> concat1_7_concat1_7_0_split_0
I1205 15:16:58.622643  4225 net.cpp:380] concat1_7_concat1_7_0_split -> concat1_7_concat1_7_0_split_1
I1205 15:16:58.622723  4225 net.cpp:122] Setting up concat1_7_concat1_7_0_split
I1205 15:16:58.622731  4225 net.cpp:129] Top shape: 1 320 19 106 (644480)
I1205 15:16:58.622736  4225 net.cpp:129] Top shape: 1 320 19 106 (644480)
I1205 15:16:58.622740  4225 net.cpp:137] Memory required for data: 535687736
I1205 15:16:58.622745  4225 layer_factory.hpp:77] Creating layer conv1_8/bn
I1205 15:16:58.622750  4225 net.cpp:84] Creating Layer conv1_8/bn
I1205 15:16:58.622756  4225 net.cpp:406] conv1_8/bn <- concat1_7_concat1_7_0_split_0
I1205 15:16:58.622762  4225 net.cpp:380] conv1_8/bn -> conv1_8/bn
I1205 15:16:58.623241  4225 net.cpp:122] Setting up conv1_8/bn
I1205 15:16:58.623250  4225 net.cpp:129] Top shape: 1 320 19 106 (644480)
I1205 15:16:58.623255  4225 net.cpp:137] Memory required for data: 538265656
I1205 15:16:58.623263  4225 layer_factory.hpp:77] Creating layer conv1_8/scale
I1205 15:16:58.623271  4225 net.cpp:84] Creating Layer conv1_8/scale
I1205 15:16:58.623276  4225 net.cpp:406] conv1_8/scale <- conv1_8/bn
I1205 15:16:58.623283  4225 net.cpp:367] conv1_8/scale -> conv1_8/bn (in-place)
I1205 15:16:58.623369  4225 layer_factory.hpp:77] Creating layer conv1_8/scale
I1205 15:16:58.623637  4225 net.cpp:122] Setting up conv1_8/scale
I1205 15:16:58.623646  4225 net.cpp:129] Top shape: 1 320 19 106 (644480)
I1205 15:16:58.623649  4225 net.cpp:137] Memory required for data: 540843576
I1205 15:16:58.623657  4225 layer_factory.hpp:77] Creating layer relu1_8
I1205 15:16:58.623663  4225 net.cpp:84] Creating Layer relu1_8
I1205 15:16:58.623667  4225 net.cpp:406] relu1_8 <- conv1_8/bn
I1205 15:16:58.623673  4225 net.cpp:367] relu1_8 -> conv1_8/bn (in-place)
I1205 15:16:58.624156  4225 net.cpp:122] Setting up relu1_8
I1205 15:16:58.624171  4225 net.cpp:129] Top shape: 1 320 19 106 (644480)
I1205 15:16:58.624176  4225 net.cpp:137] Memory required for data: 543421496
I1205 15:16:58.624181  4225 layer_factory.hpp:77] Creating layer conv1_8
I1205 15:16:58.624191  4225 net.cpp:84] Creating Layer conv1_8
I1205 15:16:58.624195  4225 net.cpp:406] conv1_8 <- conv1_8/bn
I1205 15:16:58.624204  4225 net.cpp:380] conv1_8 -> conv1_8
I1205 15:16:58.627220  4225 net.cpp:122] Setting up conv1_8
I1205 15:16:58.627235  4225 net.cpp:129] Top shape: 1 12 19 106 (24168)
I1205 15:16:58.627239  4225 net.cpp:137] Memory required for data: 543518168
I1205 15:16:58.627246  4225 layer_factory.hpp:77] Creating layer concat1_8
I1205 15:16:58.627255  4225 net.cpp:84] Creating Layer concat1_8
I1205 15:16:58.627260  4225 net.cpp:406] concat1_8 <- concat1_7_concat1_7_0_split_1
I1205 15:16:58.627266  4225 net.cpp:406] concat1_8 <- conv1_8
I1205 15:16:58.627274  4225 net.cpp:380] concat1_8 -> concat1_8
I1205 15:16:58.627331  4225 net.cpp:122] Setting up concat1_8
I1205 15:16:58.627337  4225 net.cpp:129] Top shape: 1 332 19 106 (668648)
I1205 15:16:58.627341  4225 net.cpp:137] Memory required for data: 546192760
I1205 15:16:58.627346  4225 layer_factory.hpp:77] Creating layer concat1_8_concat1_8_0_split
I1205 15:16:58.627352  4225 net.cpp:84] Creating Layer concat1_8_concat1_8_0_split
I1205 15:16:58.627357  4225 net.cpp:406] concat1_8_concat1_8_0_split <- concat1_8
I1205 15:16:58.627363  4225 net.cpp:380] concat1_8_concat1_8_0_split -> concat1_8_concat1_8_0_split_0
I1205 15:16:58.627370  4225 net.cpp:380] concat1_8_concat1_8_0_split -> concat1_8_concat1_8_0_split_1
I1205 15:16:58.627454  4225 net.cpp:122] Setting up concat1_8_concat1_8_0_split
I1205 15:16:58.627461  4225 net.cpp:129] Top shape: 1 332 19 106 (668648)
I1205 15:16:58.627466  4225 net.cpp:129] Top shape: 1 332 19 106 (668648)
I1205 15:16:58.627470  4225 net.cpp:137] Memory required for data: 551541944
I1205 15:16:58.627475  4225 layer_factory.hpp:77] Creating layer conv1_9/bn
I1205 15:16:58.627482  4225 net.cpp:84] Creating Layer conv1_9/bn
I1205 15:16:58.627487  4225 net.cpp:406] conv1_9/bn <- concat1_8_concat1_8_0_split_0
I1205 15:16:58.627493  4225 net.cpp:380] conv1_9/bn -> conv1_9/bn
I1205 15:16:58.627997  4225 net.cpp:122] Setting up conv1_9/bn
I1205 15:16:58.628006  4225 net.cpp:129] Top shape: 1 332 19 106 (668648)
I1205 15:16:58.628010  4225 net.cpp:137] Memory required for data: 554216536
I1205 15:16:58.628020  4225 layer_factory.hpp:77] Creating layer conv1_9/scale
I1205 15:16:58.628029  4225 net.cpp:84] Creating Layer conv1_9/scale
I1205 15:16:58.628033  4225 net.cpp:406] conv1_9/scale <- conv1_9/bn
I1205 15:16:58.628039  4225 net.cpp:367] conv1_9/scale -> conv1_9/bn (in-place)
I1205 15:16:58.628125  4225 layer_factory.hpp:77] Creating layer conv1_9/scale
I1205 15:16:58.628404  4225 net.cpp:122] Setting up conv1_9/scale
I1205 15:16:58.628413  4225 net.cpp:129] Top shape: 1 332 19 106 (668648)
I1205 15:16:58.628417  4225 net.cpp:137] Memory required for data: 556891128
I1205 15:16:58.628424  4225 layer_factory.hpp:77] Creating layer relu1_9
I1205 15:16:58.628432  4225 net.cpp:84] Creating Layer relu1_9
I1205 15:16:58.628435  4225 net.cpp:406] relu1_9 <- conv1_9/bn
I1205 15:16:58.628442  4225 net.cpp:367] relu1_9 -> conv1_9/bn (in-place)
I1205 15:16:58.628684  4225 net.cpp:122] Setting up relu1_9
I1205 15:16:58.628695  4225 net.cpp:129] Top shape: 1 332 19 106 (668648)
I1205 15:16:58.628700  4225 net.cpp:137] Memory required for data: 559565720
I1205 15:16:58.628703  4225 layer_factory.hpp:77] Creating layer conv1_9
I1205 15:16:58.628715  4225 net.cpp:84] Creating Layer conv1_9
I1205 15:16:58.628718  4225 net.cpp:406] conv1_9 <- conv1_9/bn
I1205 15:16:58.628727  4225 net.cpp:380] conv1_9 -> conv1_9
I1205 15:16:58.631765  4225 net.cpp:122] Setting up conv1_9
I1205 15:16:58.631778  4225 net.cpp:129] Top shape: 1 12 19 106 (24168)
I1205 15:16:58.631783  4225 net.cpp:137] Memory required for data: 559662392
I1205 15:16:58.631789  4225 layer_factory.hpp:77] Creating layer concat1_9
I1205 15:16:58.631798  4225 net.cpp:84] Creating Layer concat1_9
I1205 15:16:58.631803  4225 net.cpp:406] concat1_9 <- concat1_8_concat1_8_0_split_1
I1205 15:16:58.631809  4225 net.cpp:406] concat1_9 <- conv1_9
I1205 15:16:58.631815  4225 net.cpp:380] concat1_9 -> concat1_9
I1205 15:16:58.631871  4225 net.cpp:122] Setting up concat1_9
I1205 15:16:58.631880  4225 net.cpp:129] Top shape: 1 344 19 106 (692816)
I1205 15:16:58.631883  4225 net.cpp:137] Memory required for data: 562433656
I1205 15:16:58.631887  4225 layer_factory.hpp:77] Creating layer concat1_9_concat1_9_0_split
I1205 15:16:58.631894  4225 net.cpp:84] Creating Layer concat1_9_concat1_9_0_split
I1205 15:16:58.631899  4225 net.cpp:406] concat1_9_concat1_9_0_split <- concat1_9
I1205 15:16:58.631906  4225 net.cpp:380] concat1_9_concat1_9_0_split -> concat1_9_concat1_9_0_split_0
I1205 15:16:58.631912  4225 net.cpp:380] concat1_9_concat1_9_0_split -> concat1_9_concat1_9_0_split_1
I1205 15:16:58.631992  4225 net.cpp:122] Setting up concat1_9_concat1_9_0_split
I1205 15:16:58.632000  4225 net.cpp:129] Top shape: 1 344 19 106 (692816)
I1205 15:16:58.632005  4225 net.cpp:129] Top shape: 1 344 19 106 (692816)
I1205 15:16:58.632009  4225 net.cpp:137] Memory required for data: 567976184
I1205 15:16:58.632014  4225 layer_factory.hpp:77] Creating layer conv1_10/bn
I1205 15:16:58.632021  4225 net.cpp:84] Creating Layer conv1_10/bn
I1205 15:16:58.632026  4225 net.cpp:406] conv1_10/bn <- concat1_9_concat1_9_0_split_0
I1205 15:16:58.632032  4225 net.cpp:380] conv1_10/bn -> conv1_10/bn
I1205 15:16:58.632539  4225 net.cpp:122] Setting up conv1_10/bn
I1205 15:16:58.632551  4225 net.cpp:129] Top shape: 1 344 19 106 (692816)
I1205 15:16:58.632555  4225 net.cpp:137] Memory required for data: 570747448
I1205 15:16:58.632565  4225 layer_factory.hpp:77] Creating layer conv1_10/scale
I1205 15:16:58.632573  4225 net.cpp:84] Creating Layer conv1_10/scale
I1205 15:16:58.632578  4225 net.cpp:406] conv1_10/scale <- conv1_10/bn
I1205 15:16:58.632585  4225 net.cpp:367] conv1_10/scale -> conv1_10/bn (in-place)
I1205 15:16:58.632673  4225 layer_factory.hpp:77] Creating layer conv1_10/scale
I1205 15:16:58.632952  4225 net.cpp:122] Setting up conv1_10/scale
I1205 15:16:58.632962  4225 net.cpp:129] Top shape: 1 344 19 106 (692816)
I1205 15:16:58.632966  4225 net.cpp:137] Memory required for data: 573518712
I1205 15:16:58.632974  4225 layer_factory.hpp:77] Creating layer relu1_10
I1205 15:16:58.632980  4225 net.cpp:84] Creating Layer relu1_10
I1205 15:16:58.632985  4225 net.cpp:406] relu1_10 <- conv1_10/bn
I1205 15:16:58.632990  4225 net.cpp:367] relu1_10 -> conv1_10/bn (in-place)
I1205 15:16:58.633435  4225 net.cpp:122] Setting up relu1_10
I1205 15:16:58.633446  4225 net.cpp:129] Top shape: 1 344 19 106 (692816)
I1205 15:16:58.633451  4225 net.cpp:137] Memory required for data: 576289976
I1205 15:16:58.633455  4225 layer_factory.hpp:77] Creating layer conv1_10
I1205 15:16:58.633467  4225 net.cpp:84] Creating Layer conv1_10
I1205 15:16:58.633472  4225 net.cpp:406] conv1_10 <- conv1_10/bn
I1205 15:16:58.633481  4225 net.cpp:380] conv1_10 -> conv1_10
I1205 15:16:58.636598  4225 net.cpp:122] Setting up conv1_10
I1205 15:16:58.636612  4225 net.cpp:129] Top shape: 1 12 19 106 (24168)
I1205 15:16:58.636616  4225 net.cpp:137] Memory required for data: 576386648
I1205 15:16:58.636623  4225 layer_factory.hpp:77] Creating layer concat1_10
I1205 15:16:58.636631  4225 net.cpp:84] Creating Layer concat1_10
I1205 15:16:58.636636  4225 net.cpp:406] concat1_10 <- concat1_9_concat1_9_0_split_1
I1205 15:16:58.636642  4225 net.cpp:406] concat1_10 <- conv1_10
I1205 15:16:58.636649  4225 net.cpp:380] concat1_10 -> concat1_10
I1205 15:16:58.636706  4225 net.cpp:122] Setting up concat1_10
I1205 15:16:58.636714  4225 net.cpp:129] Top shape: 1 356 19 106 (716984)
I1205 15:16:58.636718  4225 net.cpp:137] Memory required for data: 579254584
I1205 15:16:58.636723  4225 layer_factory.hpp:77] Creating layer concat1_10_concat1_10_0_split
I1205 15:16:58.636729  4225 net.cpp:84] Creating Layer concat1_10_concat1_10_0_split
I1205 15:16:58.636732  4225 net.cpp:406] concat1_10_concat1_10_0_split <- concat1_10
I1205 15:16:58.636739  4225 net.cpp:380] concat1_10_concat1_10_0_split -> concat1_10_concat1_10_0_split_0
I1205 15:16:58.636746  4225 net.cpp:380] concat1_10_concat1_10_0_split -> concat1_10_concat1_10_0_split_1
I1205 15:16:58.636827  4225 net.cpp:122] Setting up concat1_10_concat1_10_0_split
I1205 15:16:58.636835  4225 net.cpp:129] Top shape: 1 356 19 106 (716984)
I1205 15:16:58.636840  4225 net.cpp:129] Top shape: 1 356 19 106 (716984)
I1205 15:16:58.636844  4225 net.cpp:137] Memory required for data: 584990456
I1205 15:16:58.636848  4225 layer_factory.hpp:77] Creating layer conv1_11/bn
I1205 15:16:58.636854  4225 net.cpp:84] Creating Layer conv1_11/bn
I1205 15:16:58.636859  4225 net.cpp:406] conv1_11/bn <- concat1_10_concat1_10_0_split_0
I1205 15:16:58.636869  4225 net.cpp:380] conv1_11/bn -> conv1_11/bn
I1205 15:16:58.637382  4225 net.cpp:122] Setting up conv1_11/bn
I1205 15:16:58.637392  4225 net.cpp:129] Top shape: 1 356 19 106 (716984)
I1205 15:16:58.637396  4225 net.cpp:137] Memory required for data: 587858392
I1205 15:16:58.637406  4225 layer_factory.hpp:77] Creating layer conv1_11/scale
I1205 15:16:58.637414  4225 net.cpp:84] Creating Layer conv1_11/scale
I1205 15:16:58.637419  4225 net.cpp:406] conv1_11/scale <- conv1_11/bn
I1205 15:16:58.637425  4225 net.cpp:367] conv1_11/scale -> conv1_11/bn (in-place)
I1205 15:16:58.637514  4225 layer_factory.hpp:77] Creating layer conv1_11/scale
I1205 15:16:58.637792  4225 net.cpp:122] Setting up conv1_11/scale
I1205 15:16:58.637804  4225 net.cpp:129] Top shape: 1 356 19 106 (716984)
I1205 15:16:58.637810  4225 net.cpp:137] Memory required for data: 590726328
I1205 15:16:58.637818  4225 layer_factory.hpp:77] Creating layer relu1_11
I1205 15:16:58.637825  4225 net.cpp:84] Creating Layer relu1_11
I1205 15:16:58.637830  4225 net.cpp:406] relu1_11 <- conv1_11/bn
I1205 15:16:58.637835  4225 net.cpp:367] relu1_11 -> conv1_11/bn (in-place)
I1205 15:16:58.638299  4225 net.cpp:122] Setting up relu1_11
I1205 15:16:58.638312  4225 net.cpp:129] Top shape: 1 356 19 106 (716984)
I1205 15:16:58.638316  4225 net.cpp:137] Memory required for data: 593594264
I1205 15:16:58.638321  4225 layer_factory.hpp:77] Creating layer conv1_11
I1205 15:16:58.638332  4225 net.cpp:84] Creating Layer conv1_11
I1205 15:16:58.638337  4225 net.cpp:406] conv1_11 <- conv1_11/bn
I1205 15:16:58.638345  4225 net.cpp:380] conv1_11 -> conv1_11
I1205 15:16:58.641605  4225 net.cpp:122] Setting up conv1_11
I1205 15:16:58.641624  4225 net.cpp:129] Top shape: 1 12 19 106 (24168)
I1205 15:16:58.641629  4225 net.cpp:137] Memory required for data: 593690936
I1205 15:16:58.641638  4225 layer_factory.hpp:77] Creating layer concat1_11
I1205 15:16:58.641646  4225 net.cpp:84] Creating Layer concat1_11
I1205 15:16:58.641652  4225 net.cpp:406] concat1_11 <- concat1_10_concat1_10_0_split_1
I1205 15:16:58.641659  4225 net.cpp:406] concat1_11 <- conv1_11
I1205 15:16:58.641666  4225 net.cpp:380] concat1_11 -> concat1_11
I1205 15:16:58.641724  4225 net.cpp:122] Setting up concat1_11
I1205 15:16:58.641732  4225 net.cpp:129] Top shape: 1 368 19 106 (741152)
I1205 15:16:58.641736  4225 net.cpp:137] Memory required for data: 596655544
I1205 15:16:58.641741  4225 layer_factory.hpp:77] Creating layer concat1_11_concat1_11_0_split
I1205 15:16:58.641749  4225 net.cpp:84] Creating Layer concat1_11_concat1_11_0_split
I1205 15:16:58.641753  4225 net.cpp:406] concat1_11_concat1_11_0_split <- concat1_11
I1205 15:16:58.641759  4225 net.cpp:380] concat1_11_concat1_11_0_split -> concat1_11_concat1_11_0_split_0
I1205 15:16:58.641767  4225 net.cpp:380] concat1_11_concat1_11_0_split -> concat1_11_concat1_11_0_split_1
I1205 15:16:58.641849  4225 net.cpp:122] Setting up concat1_11_concat1_11_0_split
I1205 15:16:58.641856  4225 net.cpp:129] Top shape: 1 368 19 106 (741152)
I1205 15:16:58.641862  4225 net.cpp:129] Top shape: 1 368 19 106 (741152)
I1205 15:16:58.641865  4225 net.cpp:137] Memory required for data: 602584760
I1205 15:16:58.641870  4225 layer_factory.hpp:77] Creating layer conv1_12/bn
I1205 15:16:58.641878  4225 net.cpp:84] Creating Layer conv1_12/bn
I1205 15:16:58.641882  4225 net.cpp:406] conv1_12/bn <- concat1_11_concat1_11_0_split_0
I1205 15:16:58.641890  4225 net.cpp:380] conv1_12/bn -> conv1_12/bn
I1205 15:16:58.642416  4225 net.cpp:122] Setting up conv1_12/bn
I1205 15:16:58.642426  4225 net.cpp:129] Top shape: 1 368 19 106 (741152)
I1205 15:16:58.642429  4225 net.cpp:137] Memory required for data: 605549368
I1205 15:16:58.642439  4225 layer_factory.hpp:77] Creating layer conv1_12/scale
I1205 15:16:58.642448  4225 net.cpp:84] Creating Layer conv1_12/scale
I1205 15:16:58.642453  4225 net.cpp:406] conv1_12/scale <- conv1_12/bn
I1205 15:16:58.642459  4225 net.cpp:367] conv1_12/scale -> conv1_12/bn (in-place)
I1205 15:16:58.642550  4225 layer_factory.hpp:77] Creating layer conv1_12/scale
I1205 15:16:58.642835  4225 net.cpp:122] Setting up conv1_12/scale
I1205 15:16:58.642843  4225 net.cpp:129] Top shape: 1 368 19 106 (741152)
I1205 15:16:58.642848  4225 net.cpp:137] Memory required for data: 608513976
I1205 15:16:58.642855  4225 layer_factory.hpp:77] Creating layer relu1_12
I1205 15:16:58.642863  4225 net.cpp:84] Creating Layer relu1_12
I1205 15:16:58.642866  4225 net.cpp:406] relu1_12 <- conv1_12/bn
I1205 15:16:58.642874  4225 net.cpp:367] relu1_12 -> conv1_12/bn (in-place)
I1205 15:16:58.643136  4225 net.cpp:122] Setting up relu1_12
I1205 15:16:58.643146  4225 net.cpp:129] Top shape: 1 368 19 106 (741152)
I1205 15:16:58.643151  4225 net.cpp:137] Memory required for data: 611478584
I1205 15:16:58.643155  4225 layer_factory.hpp:77] Creating layer conv1_12
I1205 15:16:58.643172  4225 net.cpp:84] Creating Layer conv1_12
I1205 15:16:58.643177  4225 net.cpp:406] conv1_12 <- conv1_12/bn
I1205 15:16:58.643187  4225 net.cpp:380] conv1_12 -> conv1_12
I1205 15:16:58.647158  4225 net.cpp:122] Setting up conv1_12
I1205 15:16:58.647173  4225 net.cpp:129] Top shape: 1 12 19 106 (24168)
I1205 15:16:58.647177  4225 net.cpp:137] Memory required for data: 611575256
I1205 15:16:58.647184  4225 layer_factory.hpp:77] Creating layer concat1_12
I1205 15:16:58.647194  4225 net.cpp:84] Creating Layer concat1_12
I1205 15:16:58.647199  4225 net.cpp:406] concat1_12 <- concat1_11_concat1_11_0_split_1
I1205 15:16:58.647205  4225 net.cpp:406] concat1_12 <- conv1_12
I1205 15:16:58.647212  4225 net.cpp:380] concat1_12 -> concat1_12
I1205 15:16:58.647269  4225 net.cpp:122] Setting up concat1_12
I1205 15:16:58.647277  4225 net.cpp:129] Top shape: 1 380 19 106 (765320)
I1205 15:16:58.647281  4225 net.cpp:137] Memory required for data: 614636536
I1205 15:16:58.647285  4225 layer_factory.hpp:77] Creating layer concat1_12_concat1_12_0_split
I1205 15:16:58.647294  4225 net.cpp:84] Creating Layer concat1_12_concat1_12_0_split
I1205 15:16:58.647298  4225 net.cpp:406] concat1_12_concat1_12_0_split <- concat1_12
I1205 15:16:58.647305  4225 net.cpp:380] concat1_12_concat1_12_0_split -> concat1_12_concat1_12_0_split_0
I1205 15:16:58.647311  4225 net.cpp:380] concat1_12_concat1_12_0_split -> concat1_12_concat1_12_0_split_1
I1205 15:16:58.647393  4225 net.cpp:122] Setting up concat1_12_concat1_12_0_split
I1205 15:16:58.647402  4225 net.cpp:129] Top shape: 1 380 19 106 (765320)
I1205 15:16:58.647408  4225 net.cpp:129] Top shape: 1 380 19 106 (765320)
I1205 15:16:58.647410  4225 net.cpp:137] Memory required for data: 620759096
I1205 15:16:58.647414  4225 layer_factory.hpp:77] Creating layer conv1_13/bn
I1205 15:16:58.647423  4225 net.cpp:84] Creating Layer conv1_13/bn
I1205 15:16:58.647426  4225 net.cpp:406] conv1_13/bn <- concat1_12_concat1_12_0_split_0
I1205 15:16:58.647433  4225 net.cpp:380] conv1_13/bn -> conv1_13/bn
I1205 15:16:58.647963  4225 net.cpp:122] Setting up conv1_13/bn
I1205 15:16:58.647972  4225 net.cpp:129] Top shape: 1 380 19 106 (765320)
I1205 15:16:58.647976  4225 net.cpp:137] Memory required for data: 623820376
I1205 15:16:58.647985  4225 layer_factory.hpp:77] Creating layer conv1_13/scale
I1205 15:16:58.647995  4225 net.cpp:84] Creating Layer conv1_13/scale
I1205 15:16:58.648000  4225 net.cpp:406] conv1_13/scale <- conv1_13/bn
I1205 15:16:58.648006  4225 net.cpp:367] conv1_13/scale -> conv1_13/bn (in-place)
I1205 15:16:58.648095  4225 layer_factory.hpp:77] Creating layer conv1_13/scale
I1205 15:16:58.648381  4225 net.cpp:122] Setting up conv1_13/scale
I1205 15:16:58.648391  4225 net.cpp:129] Top shape: 1 380 19 106 (765320)
I1205 15:16:58.648394  4225 net.cpp:137] Memory required for data: 626881656
I1205 15:16:58.648402  4225 layer_factory.hpp:77] Creating layer relu1_13
I1205 15:16:58.648408  4225 net.cpp:84] Creating Layer relu1_13
I1205 15:16:58.648413  4225 net.cpp:406] relu1_13 <- conv1_13/bn
I1205 15:16:58.648418  4225 net.cpp:367] relu1_13 -> conv1_13/bn (in-place)
I1205 15:16:58.649060  4225 net.cpp:122] Setting up relu1_13
I1205 15:16:58.649072  4225 net.cpp:129] Top shape: 1 380 19 106 (765320)
I1205 15:16:58.649076  4225 net.cpp:137] Memory required for data: 629942936
I1205 15:16:58.649081  4225 layer_factory.hpp:77] Creating layer conv1_13
I1205 15:16:58.649092  4225 net.cpp:84] Creating Layer conv1_13
I1205 15:16:58.649097  4225 net.cpp:406] conv1_13 <- conv1_13/bn
I1205 15:16:58.649106  4225 net.cpp:380] conv1_13 -> conv1_13
I1205 15:16:58.652473  4225 net.cpp:122] Setting up conv1_13
I1205 15:16:58.652488  4225 net.cpp:129] Top shape: 1 12 19 106 (24168)
I1205 15:16:58.652493  4225 net.cpp:137] Memory required for data: 630039608
I1205 15:16:58.652501  4225 layer_factory.hpp:77] Creating layer concat1_13
I1205 15:16:58.652509  4225 net.cpp:84] Creating Layer concat1_13
I1205 15:16:58.652515  4225 net.cpp:406] concat1_13 <- concat1_12_concat1_12_0_split_1
I1205 15:16:58.652521  4225 net.cpp:406] concat1_13 <- conv1_13
I1205 15:16:58.652532  4225 net.cpp:380] concat1_13 -> concat1_13
I1205 15:16:58.652590  4225 net.cpp:122] Setting up concat1_13
I1205 15:16:58.652598  4225 net.cpp:129] Top shape: 1 392 19 106 (789488)
I1205 15:16:58.652602  4225 net.cpp:137] Memory required for data: 633197560
I1205 15:16:58.652606  4225 layer_factory.hpp:77] Creating layer concat1_13_concat1_13_0_split
I1205 15:16:58.652612  4225 net.cpp:84] Creating Layer concat1_13_concat1_13_0_split
I1205 15:16:58.652616  4225 net.cpp:406] concat1_13_concat1_13_0_split <- concat1_13
I1205 15:16:58.652624  4225 net.cpp:380] concat1_13_concat1_13_0_split -> concat1_13_concat1_13_0_split_0
I1205 15:16:58.652631  4225 net.cpp:380] concat1_13_concat1_13_0_split -> concat1_13_concat1_13_0_split_1
I1205 15:16:58.652712  4225 net.cpp:122] Setting up concat1_13_concat1_13_0_split
I1205 15:16:58.652720  4225 net.cpp:129] Top shape: 1 392 19 106 (789488)
I1205 15:16:58.652725  4225 net.cpp:129] Top shape: 1 392 19 106 (789488)
I1205 15:16:58.652729  4225 net.cpp:137] Memory required for data: 639513464
I1205 15:16:58.652734  4225 layer_factory.hpp:77] Creating layer conv1_14/bn
I1205 15:16:58.652743  4225 net.cpp:84] Creating Layer conv1_14/bn
I1205 15:16:58.652748  4225 net.cpp:406] conv1_14/bn <- concat1_13_concat1_13_0_split_0
I1205 15:16:58.652756  4225 net.cpp:380] conv1_14/bn -> conv1_14/bn
I1205 15:16:58.653273  4225 net.cpp:122] Setting up conv1_14/bn
I1205 15:16:58.653282  4225 net.cpp:129] Top shape: 1 392 19 106 (789488)
I1205 15:16:58.653286  4225 net.cpp:137] Memory required for data: 642671416
I1205 15:16:58.653295  4225 layer_factory.hpp:77] Creating layer conv1_14/scale
I1205 15:16:58.653303  4225 net.cpp:84] Creating Layer conv1_14/scale
I1205 15:16:58.653308  4225 net.cpp:406] conv1_14/scale <- conv1_14/bn
I1205 15:16:58.653316  4225 net.cpp:367] conv1_14/scale -> conv1_14/bn (in-place)
I1205 15:16:58.653405  4225 layer_factory.hpp:77] Creating layer conv1_14/scale
I1205 15:16:58.653692  4225 net.cpp:122] Setting up conv1_14/scale
I1205 15:16:58.653700  4225 net.cpp:129] Top shape: 1 392 19 106 (789488)
I1205 15:16:58.653704  4225 net.cpp:137] Memory required for data: 645829368
I1205 15:16:58.653712  4225 layer_factory.hpp:77] Creating layer relu1_14
I1205 15:16:58.653723  4225 net.cpp:84] Creating Layer relu1_14
I1205 15:16:58.653726  4225 net.cpp:406] relu1_14 <- conv1_14/bn
I1205 15:16:58.653733  4225 net.cpp:367] relu1_14 -> conv1_14/bn (in-place)
I1205 15:16:58.653982  4225 net.cpp:122] Setting up relu1_14
I1205 15:16:58.653992  4225 net.cpp:129] Top shape: 1 392 19 106 (789488)
I1205 15:16:58.653996  4225 net.cpp:137] Memory required for data: 648987320
I1205 15:16:58.654000  4225 layer_factory.hpp:77] Creating layer conv1_14
I1205 15:16:58.654011  4225 net.cpp:84] Creating Layer conv1_14
I1205 15:16:58.654016  4225 net.cpp:406] conv1_14 <- conv1_14/bn
I1205 15:16:58.654023  4225 net.cpp:380] conv1_14 -> conv1_14
I1205 15:16:58.657533  4225 net.cpp:122] Setting up conv1_14
I1205 15:16:58.657564  4225 net.cpp:129] Top shape: 1 12 19 106 (24168)
I1205 15:16:58.657569  4225 net.cpp:137] Memory required for data: 649083992
I1205 15:16:58.657579  4225 layer_factory.hpp:77] Creating layer concat1_14
I1205 15:16:58.657593  4225 net.cpp:84] Creating Layer concat1_14
I1205 15:16:58.657600  4225 net.cpp:406] concat1_14 <- concat1_13_concat1_13_0_split_1
I1205 15:16:58.657608  4225 net.cpp:406] concat1_14 <- conv1_14
I1205 15:16:58.657615  4225 net.cpp:380] concat1_14 -> concat1_14
I1205 15:16:58.657677  4225 net.cpp:122] Setting up concat1_14
I1205 15:16:58.657685  4225 net.cpp:129] Top shape: 1 404 19 106 (813656)
I1205 15:16:58.657690  4225 net.cpp:137] Memory required for data: 652338616
I1205 15:16:58.657693  4225 layer_factory.hpp:77] Creating layer concat1_14_concat1_14_0_split
I1205 15:16:58.657701  4225 net.cpp:84] Creating Layer concat1_14_concat1_14_0_split
I1205 15:16:58.657706  4225 net.cpp:406] concat1_14_concat1_14_0_split <- concat1_14
I1205 15:16:58.657713  4225 net.cpp:380] concat1_14_concat1_14_0_split -> concat1_14_concat1_14_0_split_0
I1205 15:16:58.657724  4225 net.cpp:380] concat1_14_concat1_14_0_split -> concat1_14_concat1_14_0_split_1
I1205 15:16:58.657809  4225 net.cpp:122] Setting up concat1_14_concat1_14_0_split
I1205 15:16:58.657816  4225 net.cpp:129] Top shape: 1 404 19 106 (813656)
I1205 15:16:58.657821  4225 net.cpp:129] Top shape: 1 404 19 106 (813656)
I1205 15:16:58.657825  4225 net.cpp:137] Memory required for data: 658847864
I1205 15:16:58.657829  4225 layer_factory.hpp:77] Creating layer conv1_15/bn
I1205 15:16:58.657838  4225 net.cpp:84] Creating Layer conv1_15/bn
I1205 15:16:58.657842  4225 net.cpp:406] conv1_15/bn <- concat1_14_concat1_14_0_split_0
I1205 15:16:58.657850  4225 net.cpp:380] conv1_15/bn -> conv1_15/bn
I1205 15:16:58.658392  4225 net.cpp:122] Setting up conv1_15/bn
I1205 15:16:58.658403  4225 net.cpp:129] Top shape: 1 404 19 106 (813656)
I1205 15:16:58.658406  4225 net.cpp:137] Memory required for data: 662102488
I1205 15:16:58.658416  4225 layer_factory.hpp:77] Creating layer conv1_15/scale
I1205 15:16:58.658426  4225 net.cpp:84] Creating Layer conv1_15/scale
I1205 15:16:58.658429  4225 net.cpp:406] conv1_15/scale <- conv1_15/bn
I1205 15:16:58.658437  4225 net.cpp:367] conv1_15/scale -> conv1_15/bn (in-place)
I1205 15:16:58.658530  4225 layer_factory.hpp:77] Creating layer conv1_15/scale
I1205 15:16:58.658843  4225 net.cpp:122] Setting up conv1_15/scale
I1205 15:16:58.658854  4225 net.cpp:129] Top shape: 1 404 19 106 (813656)
I1205 15:16:58.658857  4225 net.cpp:137] Memory required for data: 665357112
I1205 15:16:58.658865  4225 layer_factory.hpp:77] Creating layer relu1_15
I1205 15:16:58.658874  4225 net.cpp:84] Creating Layer relu1_15
I1205 15:16:58.658877  4225 net.cpp:406] relu1_15 <- conv1_15/bn
I1205 15:16:58.658885  4225 net.cpp:367] relu1_15 -> conv1_15/bn (in-place)
I1205 15:16:58.659359  4225 net.cpp:122] Setting up relu1_15
I1205 15:16:58.659373  4225 net.cpp:129] Top shape: 1 404 19 106 (813656)
I1205 15:16:58.659376  4225 net.cpp:137] Memory required for data: 668611736
I1205 15:16:58.659380  4225 layer_factory.hpp:77] Creating layer conv1_15
I1205 15:16:58.659394  4225 net.cpp:84] Creating Layer conv1_15
I1205 15:16:58.659399  4225 net.cpp:406] conv1_15 <- conv1_15/bn
I1205 15:16:58.659407  4225 net.cpp:380] conv1_15 -> conv1_15
I1205 15:16:58.663215  4225 net.cpp:122] Setting up conv1_15
I1205 15:16:58.663247  4225 net.cpp:129] Top shape: 1 12 19 106 (24168)
I1205 15:16:58.663251  4225 net.cpp:137] Memory required for data: 668708408
I1205 15:16:58.663262  4225 layer_factory.hpp:77] Creating layer concat1_15
I1205 15:16:58.663275  4225 net.cpp:84] Creating Layer concat1_15
I1205 15:16:58.663282  4225 net.cpp:406] concat1_15 <- concat1_14_concat1_14_0_split_1
I1205 15:16:58.663292  4225 net.cpp:406] concat1_15 <- conv1_15
I1205 15:16:58.663300  4225 net.cpp:380] concat1_15 -> concat1_15
I1205 15:16:58.663365  4225 net.cpp:122] Setting up concat1_15
I1205 15:16:58.663374  4225 net.cpp:129] Top shape: 1 416 19 106 (837824)
I1205 15:16:58.663378  4225 net.cpp:137] Memory required for data: 672059704
I1205 15:16:58.663383  4225 layer_factory.hpp:77] Creating layer concat1_15_concat1_15_0_split
I1205 15:16:58.663390  4225 net.cpp:84] Creating Layer concat1_15_concat1_15_0_split
I1205 15:16:58.663395  4225 net.cpp:406] concat1_15_concat1_15_0_split <- concat1_15
I1205 15:16:58.663401  4225 net.cpp:380] concat1_15_concat1_15_0_split -> concat1_15_concat1_15_0_split_0
I1205 15:16:58.663409  4225 net.cpp:380] concat1_15_concat1_15_0_split -> concat1_15_concat1_15_0_split_1
I1205 15:16:58.663499  4225 net.cpp:122] Setting up concat1_15_concat1_15_0_split
I1205 15:16:58.663507  4225 net.cpp:129] Top shape: 1 416 19 106 (837824)
I1205 15:16:58.663512  4225 net.cpp:129] Top shape: 1 416 19 106 (837824)
I1205 15:16:58.663516  4225 net.cpp:137] Memory required for data: 678762296
I1205 15:16:58.663520  4225 layer_factory.hpp:77] Creating layer conv1_16/bn
I1205 15:16:58.663529  4225 net.cpp:84] Creating Layer conv1_16/bn
I1205 15:16:58.663534  4225 net.cpp:406] conv1_16/bn <- concat1_15_concat1_15_0_split_0
I1205 15:16:58.663545  4225 net.cpp:380] conv1_16/bn -> conv1_16/bn
I1205 15:16:58.664165  4225 net.cpp:122] Setting up conv1_16/bn
I1205 15:16:58.664175  4225 net.cpp:129] Top shape: 1 416 19 106 (837824)
I1205 15:16:58.664180  4225 net.cpp:137] Memory required for data: 682113592
I1205 15:16:58.664188  4225 layer_factory.hpp:77] Creating layer conv1_16/scale
I1205 15:16:58.664199  4225 net.cpp:84] Creating Layer conv1_16/scale
I1205 15:16:58.664204  4225 net.cpp:406] conv1_16/scale <- conv1_16/bn
I1205 15:16:58.664211  4225 net.cpp:367] conv1_16/scale -> conv1_16/bn (in-place)
I1205 15:16:58.664312  4225 layer_factory.hpp:77] Creating layer conv1_16/scale
I1205 15:16:58.664633  4225 net.cpp:122] Setting up conv1_16/scale
I1205 15:16:58.664643  4225 net.cpp:129] Top shape: 1 416 19 106 (837824)
I1205 15:16:58.664646  4225 net.cpp:137] Memory required for data: 685464888
I1205 15:16:58.664654  4225 layer_factory.hpp:77] Creating layer relu1_16
I1205 15:16:58.664661  4225 net.cpp:84] Creating Layer relu1_16
I1205 15:16:58.664666  4225 net.cpp:406] relu1_16 <- conv1_16/bn
I1205 15:16:58.664672  4225 net.cpp:367] relu1_16 -> conv1_16/bn (in-place)
I1205 15:16:58.665155  4225 net.cpp:122] Setting up relu1_16
I1205 15:16:58.665168  4225 net.cpp:129] Top shape: 1 416 19 106 (837824)
I1205 15:16:58.665172  4225 net.cpp:137] Memory required for data: 688816184
I1205 15:16:58.665177  4225 layer_factory.hpp:77] Creating layer conv1_16
I1205 15:16:58.665190  4225 net.cpp:84] Creating Layer conv1_16
I1205 15:16:58.665195  4225 net.cpp:406] conv1_16 <- conv1_16/bn
I1205 15:16:58.665202  4225 net.cpp:380] conv1_16 -> conv1_16
I1205 15:16:58.668817  4225 net.cpp:122] Setting up conv1_16
I1205 15:16:58.668831  4225 net.cpp:129] Top shape: 1 12 19 106 (24168)
I1205 15:16:58.668836  4225 net.cpp:137] Memory required for data: 688912856
I1205 15:16:58.668843  4225 layer_factory.hpp:77] Creating layer concat1_16
I1205 15:16:58.668851  4225 net.cpp:84] Creating Layer concat1_16
I1205 15:16:58.668856  4225 net.cpp:406] concat1_16 <- concat1_15_concat1_15_0_split_1
I1205 15:16:58.668862  4225 net.cpp:406] concat1_16 <- conv1_16
I1205 15:16:58.668869  4225 net.cpp:380] concat1_16 -> concat1_16
I1205 15:16:58.668931  4225 net.cpp:122] Setting up concat1_16
I1205 15:16:58.668941  4225 net.cpp:129] Top shape: 1 428 19 106 (861992)
I1205 15:16:58.668943  4225 net.cpp:137] Memory required for data: 692360824
I1205 15:16:58.668948  4225 layer_factory.hpp:77] Creating layer concat1_16_concat1_16_0_split
I1205 15:16:58.668954  4225 net.cpp:84] Creating Layer concat1_16_concat1_16_0_split
I1205 15:16:58.668958  4225 net.cpp:406] concat1_16_concat1_16_0_split <- concat1_16
I1205 15:16:58.668967  4225 net.cpp:380] concat1_16_concat1_16_0_split -> concat1_16_concat1_16_0_split_0
I1205 15:16:58.668973  4225 net.cpp:380] concat1_16_concat1_16_0_split -> concat1_16_concat1_16_0_split_1
I1205 15:16:58.669064  4225 net.cpp:122] Setting up concat1_16_concat1_16_0_split
I1205 15:16:58.669071  4225 net.cpp:129] Top shape: 1 428 19 106 (861992)
I1205 15:16:58.669077  4225 net.cpp:129] Top shape: 1 428 19 106 (861992)
I1205 15:16:58.669081  4225 net.cpp:137] Memory required for data: 699256760
I1205 15:16:58.669085  4225 layer_factory.hpp:77] Creating layer conv1_17/bn
I1205 15:16:58.669092  4225 net.cpp:84] Creating Layer conv1_17/bn
I1205 15:16:58.669097  4225 net.cpp:406] conv1_17/bn <- concat1_16_concat1_16_0_split_0
I1205 15:16:58.669104  4225 net.cpp:380] conv1_17/bn -> conv1_17/bn
I1205 15:16:58.669682  4225 net.cpp:122] Setting up conv1_17/bn
I1205 15:16:58.669692  4225 net.cpp:129] Top shape: 1 428 19 106 (861992)
I1205 15:16:58.669695  4225 net.cpp:137] Memory required for data: 702704728
I1205 15:16:58.669704  4225 layer_factory.hpp:77] Creating layer conv1_17/scale
I1205 15:16:58.669713  4225 net.cpp:84] Creating Layer conv1_17/scale
…
I1205 15:17:01.122040  4225 net.cpp:122] Setting up relu1_18
I1205 15:17:01.122054  4225 net.cpp:129] Top shape: 1 440 17 35 (261800)
I1205 15:17:01.122059  4225 net.cpp:137] Memory required for data: 219317008
I1205 15:17:01.122063  4225 layer_factory.hpp:77] Creating layer conv1_18
I1205 15:17:01.122073  4225 net.cpp:84] Creating Layer conv1_18
I1205 15:17:01.122078  4225 net.cpp:406] conv1_18 <- conv1_18/bn
I1205 15:17:01.122087  4225 net.cpp:380] conv1_18 -> conv1_18
I1205 15:17:01.126066  4225 net.cpp:122] Setting up conv1_18
I1205 15:17:01.126096  4225 net.cpp:129] Top shape: 1 12 17 35 (7140)
I1205 15:17:01.126101  4225 net.cpp:137] Memory required for data: 219345568
I1205 15:17:01.126111  4225 layer_factory.hpp:77] Creating layer concat1_18
I1205 15:17:01.126123  4225 net.cpp:84] Creating Layer concat1_18
I1205 15:17:01.126132  4225 net.cpp:406] concat1_18 <- concat1_17_concat1_17_0_split_1
I1205 15:17:01.126138  4225 net.cpp:406] concat1_18 <- conv1_18
I1205 15:17:01.126145  4225 net.cpp:380] concat1_18 -> concat1_18
I1205 15:17:01.126205  4225 net.cpp:122] Setting up concat1_18
I1205 15:17:01.126214  4225 net.cpp:129] Top shape: 1 452 17 35 (268940)
I1205 15:17:01.126217  4225 net.cpp:137] Memory required for data: 220421328
I1205 15:17:01.126221  4225 layer_factory.hpp:77] Creating layer concat1_18_concat1_18_0_split
I1205 15:17:01.126230  4225 net.cpp:84] Creating Layer concat1_18_concat1_18_0_split
I1205 15:17:01.126233  4225 net.cpp:406] concat1_18_concat1_18_0_split <- concat1_18
I1205 15:17:01.126240  4225 net.cpp:380] concat1_18_concat1_18_0_split -> concat1_18_concat1_18_0_split_0
I1205 15:17:01.126247  4225 net.cpp:380] concat1_18_concat1_18_0_split -> concat1_18_concat1_18_0_split_1
I1205 15:17:01.126327  4225 net.cpp:122] Setting up concat1_18_concat1_18_0_split
I1205 15:17:01.126335  4225 net.cpp:129] Top shape: 1 452 17 35 (268940)
I1205 15:17:01.126340  4225 net.cpp:129] Top shape: 1 452 17 35 (268940)
I1205 15:17:01.126344  4225 net.cpp:137] Memory required for data: 222572848
I1205 15:17:01.126348  4225 layer_factory.hpp:77] Creating layer conv1_19/bn
I1205 15:17:01.126356  4225 net.cpp:84] Creating Layer conv1_19/bn
I1205 15:17:01.126360  4225 net.cpp:406] conv1_19/bn <- concat1_18_concat1_18_0_split_0
I1205 15:17:01.126368  4225 net.cpp:380] conv1_19/bn -> conv1_19/bn
I1205 15:17:01.126958  4225 net.cpp:122] Setting up conv1_19/bn
I1205 15:17:01.126969  4225 net.cpp:129] Top shape: 1 452 17 35 (268940)
I1205 15:17:01.126973  4225 net.cpp:137] Memory required for data: 223648608
I1205 15:17:01.126982  4225 layer_factory.hpp:77] Creating layer conv1_19/scale
I1205 15:17:01.126991  4225 net.cpp:84] Creating Layer conv1_19/scale
I1205 15:17:01.126994  4225 net.cpp:406] conv1_19/scale <- conv1_19/bn
I1205 15:17:01.127002  4225 net.cpp:367] conv1_19/scale -> conv1_19/bn (in-place)
I1205 15:17:01.127111  4225 layer_factory.hpp:77] Creating layer conv1_19/scale
I1205 15:17:01.127460  4225 net.cpp:122] Setting up conv1_19/scale
I1205 15:17:01.127470  4225 net.cpp:129] Top shape: 1 452 17 35 (268940)
I1205 15:17:01.127477  4225 net.cpp:137] Memory required for data: 224724368
I1205 15:17:01.127485  4225 layer_factory.hpp:77] Creating layer relu1_19
I1205 15:17:01.127492  4225 net.cpp:84] Creating Layer relu1_19
I1205 15:17:01.127496  4225 net.cpp:406] relu1_19 <- conv1_19/bn
I1205 15:17:01.127506  4225 net.cpp:367] relu1_19 -> conv1_19/bn (in-place)
I1205 15:17:01.127802  4225 net.cpp:122] Setting up relu1_19
I1205 15:17:01.127815  4225 net.cpp:129] Top shape: 1 452 17 35 (268940)
I1205 15:17:01.127818  4225 net.cpp:137] Memory required for data: 225800128
I1205 15:17:01.127822  4225 layer_factory.hpp:77] Creating layer conv1_19
I1205 15:17:01.127835  4225 net.cpp:84] Creating Layer conv1_19
I1205 15:17:01.127840  4225 net.cpp:406] conv1_19 <- conv1_19/bn
I1205 15:17:01.127846  4225 net.cpp:380] conv1_19 -> conv1_19
I1205 15:17:01.132614  4225 net.cpp:122] Setting up conv1_19
I1205 15:17:01.132648  4225 net.cpp:129] Top shape: 1 12 17 35 (7140)
I1205 15:17:01.132652  4225 net.cpp:137] Memory required for data: 225828688
I1205 15:17:01.132663  4225 layer_factory.hpp:77] Creating layer concat1_19
I1205 15:17:01.132674  4225 net.cpp:84] Creating Layer concat1_19
I1205 15:17:01.132683  4225 net.cpp:406] concat1_19 <- concat1_18_concat1_18_0_split_1
I1205 15:17:01.132689  4225 net.cpp:406] concat1_19 <- conv1_19
I1205 15:17:01.132696  4225 net.cpp:380] concat1_19 -> concat1_19
I1205 15:17:01.132762  4225 net.cpp:122] Setting up concat1_19
I1205 15:17:01.132771  4225 net.cpp:129] Top shape: 1 464 17 35 (276080)
I1205 15:17:01.132774  4225 net.cpp:137] Memory required for data: 226933008
I1205 15:17:01.132778  4225 layer_factory.hpp:77] Creating layer concat1_19_concat1_19_0_split
I1205 15:17:01.132784  4225 net.cpp:84] Creating Layer concat1_19_concat1_19_0_split
I1205 15:17:01.132788  4225 net.cpp:406] concat1_19_concat1_19_0_split <- concat1_19
I1205 15:17:01.132794  4225 net.cpp:380] concat1_19_concat1_19_0_split -> concat1_19_concat1_19_0_split_0
I1205 15:17:01.132803  4225 net.cpp:380] concat1_19_concat1_19_0_split -> concat1_19_concat1_19_0_split_1
I1205 15:17:01.132885  4225 net.cpp:122] Setting up concat1_19_concat1_19_0_split
I1205 15:17:01.132894  4225 net.cpp:129] Top shape: 1 464 17 35 (276080)
I1205 15:17:01.132899  4225 net.cpp:129] Top shape: 1 464 17 35 (276080)
I1205 15:17:01.132902  4225 net.cpp:137] Memory required for data: 229141648
I1205 15:17:01.132906  4225 layer_factory.hpp:77] Creating layer conv1_20/bn
I1205 15:17:01.132913  4225 net.cpp:84] Creating Layer conv1_20/bn
I1205 15:17:01.132918  4225 net.cpp:406] conv1_20/bn <- concat1_19_concat1_19_0_split_0
I1205 15:17:01.132925  4225 net.cpp:380] conv1_20/bn -> conv1_20/bn
I1205 15:17:01.133527  4225 net.cpp:122] Setting up conv1_20/bn
I1205 15:17:01.133535  4225 net.cpp:129] Top shape: 1 464 17 35 (276080)
I1205 15:17:01.133539  4225 net.cpp:137] Memory required for data: 230245968
I1205 15:17:01.133548  4225 layer_factory.hpp:77] Creating layer conv1_20/scale
I1205 15:17:01.133559  4225 net.cpp:84] Creating Layer conv1_20/scale
I1205 15:17:01.133564  4225 net.cpp:406] conv1_20/scale <- conv1_20/bn
I1205 15:17:01.133571  4225 net.cpp:367] conv1_20/scale -> conv1_20/bn (in-place)
I1205 15:17:01.133682  4225 layer_factory.hpp:77] Creating layer conv1_20/scale
I1205 15:17:01.134030  4225 net.cpp:122] Setting up conv1_20/scale
I1205 15:17:01.134039  4225 net.cpp:129] Top shape: 1 464 17 35 (276080)
I1205 15:17:01.134043  4225 net.cpp:137] Memory required for data: 231350288
I1205 15:17:01.134052  4225 layer_factory.hpp:77] Creating layer relu1_20
I1205 15:17:01.134058  4225 net.cpp:84] Creating Layer relu1_20
I1205 15:17:01.134063  4225 net.cpp:406] relu1_20 <- conv1_20/bn
I1205 15:17:01.134068  4225 net.cpp:367] relu1_20 -> conv1_20/bn (in-place)
I1205 15:17:01.134595  4225 net.cpp:122] Setting up relu1_20
I1205 15:17:01.134608  4225 net.cpp:129] Top shape: 1 464 17 35 (276080)
I1205 15:17:01.134613  4225 net.cpp:137] Memory required for data: 232454608
I1205 15:17:01.134618  4225 layer_factory.hpp:77] Creating layer conv1_20
I1205 15:17:01.134632  4225 net.cpp:84] Creating Layer conv1_20
I1205 15:17:01.134637  4225 net.cpp:406] conv1_20 <- conv1_20/bn
I1205 15:17:01.134646  4225 net.cpp:380] conv1_20 -> conv1_20
I1205 15:17:01.138478  4225 net.cpp:122] Setting up conv1_20
I1205 15:17:01.138492  4225 net.cpp:129] Top shape: 1 12 17 35 (7140)
I1205 15:17:01.138496  4225 net.cpp:137] Memory required for data: 232483168
I1205 15:17:01.138504  4225 layer_factory.hpp:77] Creating layer concat1_20
I1205 15:17:01.138511  4225 net.cpp:84] Creating Layer concat1_20
I1205 15:17:01.138516  4225 net.cpp:406] concat1_20 <- concat1_19_concat1_19_0_split_1
I1205 15:17:01.138521  4225 net.cpp:406] concat1_20 <- conv1_20
I1205 15:17:01.138530  4225 net.cpp:380] concat1_20 -> concat1_20
I1205 15:17:01.138586  4225 net.cpp:122] Setting up concat1_20
I1205 15:17:01.138594  4225 net.cpp:129] Top shape: 1 476 17 35 (283220)
I1205 15:17:01.138598  4225 net.cpp:137] Memory required for data: 233616048
I1205 15:17:01.138602  4225 layer_factory.hpp:77] Creating layer concat1_20_concat1_20_0_split
I1205 15:17:01.138609  4225 net.cpp:84] Creating Layer concat1_20_concat1_20_0_split
I1205 15:17:01.138614  4225 net.cpp:406] concat1_20_concat1_20_0_split <- concat1_20
I1205 15:17:01.138620  4225 net.cpp:380] concat1_20_concat1_20_0_split -> concat1_20_concat1_20_0_split_0
I1205 15:17:01.138628  4225 net.cpp:380] concat1_20_concat1_20_0_split -> concat1_20_concat1_20_0_split_1
I1205 15:17:01.138707  4225 net.cpp:122] Setting up concat1_20_concat1_20_0_split
I1205 15:17:01.138715  4225 net.cpp:129] Top shape: 1 476 17 35 (283220)
I1205 15:17:01.138720  4225 net.cpp:129] Top shape: 1 476 17 35 (283220)
I1205 15:17:01.138725  4225 net.cpp:137] Memory required for data: 235881808
I1205 15:17:01.138728  4225 layer_factory.hpp:77] Creating layer conv1_21/bn
I1205 15:17:01.138738  4225 net.cpp:84] Creating Layer conv1_21/bn
I1205 15:17:01.138743  4225 net.cpp:406] conv1_21/bn <- concat1_20_concat1_20_0_split_0
I1205 15:17:01.138751  4225 net.cpp:380] conv1_21/bn -> conv1_21/bn
I1205 15:17:01.139330  4225 net.cpp:122] Setting up conv1_21/bn
I1205 15:17:01.139339  4225 net.cpp:129] Top shape: 1 476 17 35 (283220)
I1205 15:17:01.139343  4225 net.cpp:137] Memory required for data: 237014688
I1205 15:17:01.139353  4225 layer_factory.hpp:77] Creating layer conv1_21/scale
I1205 15:17:01.139361  4225 net.cpp:84] Creating Layer conv1_21/scale
I1205 15:17:01.139365  4225 net.cpp:406] conv1_21/scale <- conv1_21/bn
I1205 15:17:01.139371  4225 net.cpp:367] conv1_21/scale -> conv1_21/bn (in-place)
I1205 15:17:01.139482  4225 layer_factory.hpp:77] Creating layer conv1_21/scale
I1205 15:17:01.139842  4225 net.cpp:122] Setting up conv1_21/scale
I1205 15:17:01.139853  4225 net.cpp:129] Top shape: 1 476 17 35 (283220)
I1205 15:17:01.139855  4225 net.cpp:137] Memory required for data: 238147568
I1205 15:17:01.139863  4225 layer_factory.hpp:77] Creating layer relu1_21
I1205 15:17:01.139870  4225 net.cpp:84] Creating Layer relu1_21
I1205 15:17:01.139874  4225 net.cpp:406] relu1_21 <- conv1_21/bn
I1205 15:17:01.139881  4225 net.cpp:367] relu1_21 -> conv1_21/bn (in-place)
I1205 15:17:01.140195  4225 net.cpp:122] Setting up relu1_21
I1205 15:17:01.140206  4225 net.cpp:129] Top shape: 1 476 17 35 (283220)
I1205 15:17:01.140210  4225 net.cpp:137] Memory required for data: 239280448
I1205 15:17:01.140214  4225 layer_factory.hpp:77] Creating layer conv1_21
I1205 15:17:01.140226  4225 net.cpp:84] Creating Layer conv1_21
I1205 15:17:01.140230  4225 net.cpp:406] conv1_21 <- conv1_21/bn
I1205 15:17:01.140239  4225 net.cpp:380] conv1_21 -> conv1_21
I1205 15:17:01.143447  4225 net.cpp:122] Setting up conv1_21
I1205 15:17:01.143478  4225 net.cpp:129] Top shape: 1 12 17 35 (7140)
I1205 15:17:01.143481  4225 net.cpp:137] Memory required for data: 239309008
I1205 15:17:01.143489  4225 layer_factory.hpp:77] Creating layer concat1_21
I1205 15:17:01.143501  4225 net.cpp:84] Creating Layer concat1_21
I1205 15:17:01.143507  4225 net.cpp:406] concat1_21 <- concat1_20_concat1_20_0_split_1
I1205 15:17:01.143512  4225 net.cpp:406] concat1_21 <- conv1_21
I1205 15:17:01.143522  4225 net.cpp:380] concat1_21 -> concat1_21
I1205 15:17:01.143575  4225 net.cpp:122] Setting up concat1_21
I1205 15:17:01.143581  4225 net.cpp:129] Top shape: 1 488 17 35 (290360)
I1205 15:17:01.143584  4225 net.cpp:137] Memory required for data: 240470448
I1205 15:17:01.143586  4225 layer_factory.hpp:77] Creating layer concat1_21_concat1_21_0_split
I1205 15:17:01.143590  4225 net.cpp:84] Creating Layer concat1_21_concat1_21_0_split
I1205 15:17:01.143594  4225 net.cpp:406] concat1_21_concat1_21_0_split <- concat1_21
I1205 15:17:01.143599  4225 net.cpp:380] concat1_21_concat1_21_0_split -> concat1_21_concat1_21_0_split_0
I1205 15:17:01.143604  4225 net.cpp:380] concat1_21_concat1_21_0_split -> concat1_21_concat1_21_0_split_1
I1205 15:17:01.143666  4225 net.cpp:122] Setting up concat1_21_concat1_21_0_split
I1205 15:17:01.143671  4225 net.cpp:129] Top shape: 1 488 17 35 (290360)
I1205 15:17:01.143674  4225 net.cpp:129] Top shape: 1 488 17 35 (290360)
I1205 15:17:01.143676  4225 net.cpp:137] Memory required for data: 242793328
I1205 15:17:01.143679  4225 layer_factory.hpp:77] Creating layer conv1_22/bn
I1205 15:17:01.143684  4225 net.cpp:84] Creating Layer conv1_22/bn
I1205 15:17:01.143687  4225 net.cpp:406] conv1_22/bn <- concat1_21_concat1_21_0_split_0
I1205 15:17:01.143692  4225 net.cpp:380] conv1_22/bn -> conv1_22/bn
I1205 15:17:01.144174  4225 net.cpp:122] Setting up conv1_22/bn
I1205 15:17:01.144181  4225 net.cpp:129] Top shape: 1 488 17 35 (290360)
I1205 15:17:01.144184  4225 net.cpp:137] Memory required for data: 243954768
I1205 15:17:01.144191  4225 layer_factory.hpp:77] Creating layer conv1_22/scale
I1205 15:17:01.144198  4225 net.cpp:84] Creating Layer conv1_22/scale
I1205 15:17:01.144202  4225 net.cpp:406] conv1_22/scale <- conv1_22/bn
I1205 15:17:01.144207  4225 net.cpp:367] conv1_22/scale -> conv1_22/bn (in-place)
I1205 15:17:01.144294  4225 layer_factory.hpp:77] Creating layer conv1_22/scale
I1205 15:17:01.144567  4225 net.cpp:122] Setting up conv1_22/scale
I1205 15:17:01.144572  4225 net.cpp:129] Top shape: 1 488 17 35 (290360)
I1205 15:17:01.144575  4225 net.cpp:137] Memory required for data: 245116208
I1205 15:17:01.144579  4225 layer_factory.hpp:77] Creating layer relu1_22
I1205 15:17:01.144585  4225 net.cpp:84] Creating Layer relu1_22
I1205 15:17:01.144588  4225 net.cpp:406] relu1_22 <- conv1_22/bn
I1205 15:17:01.144592  4225 net.cpp:367] relu1_22 -> conv1_22/bn (in-place)
I1205 15:17:01.145262  4225 net.cpp:122] Setting up relu1_22
I1205 15:17:01.145272  4225 net.cpp:129] Top shape: 1 488 17 35 (290360)
I1205 15:17:01.145273  4225 net.cpp:137] Memory required for data: 246277648
I1205 15:17:01.145277  4225 layer_factory.hpp:77] Creating layer conv1_22
I1205 15:17:01.145287  4225 net.cpp:84] Creating Layer conv1_22
I1205 15:17:01.145290  4225 net.cpp:406] conv1_22 <- conv1_22/bn
I1205 15:17:01.145295  4225 net.cpp:380] conv1_22 -> conv1_22
I1205 15:17:01.148211  4225 net.cpp:122] Setting up conv1_22
I1205 15:17:01.148226  4225 net.cpp:129] Top shape: 1 12 17 35 (7140)
I1205 15:17:01.148229  4225 net.cpp:137] Memory required for data: 246306208
I1205 15:17:01.148234  4225 layer_factory.hpp:77] Creating layer concat1_22
I1205 15:17:01.148243  4225 net.cpp:84] Creating Layer concat1_22
I1205 15:17:01.148247  4225 net.cpp:406] concat1_22 <- concat1_21_concat1_21_0_split_1
I1205 15:17:01.148252  4225 net.cpp:406] concat1_22 <- conv1_22
I1205 15:17:01.148257  4225 net.cpp:380] concat1_22 -> concat1_22
I1205 15:17:01.148303  4225 net.cpp:122] Setting up concat1_22
I1205 15:17:01.148309  4225 net.cpp:129] Top shape: 1 500 17 35 (297500)
I1205 15:17:01.148311  4225 net.cpp:137] Memory required for data: 247496208
I1205 15:17:01.148314  4225 layer_factory.hpp:77] Creating layer concat1_22_concat1_22_0_split
I1205 15:17:01.148319  4225 net.cpp:84] Creating Layer concat1_22_concat1_22_0_split
I1205 15:17:01.148321  4225 net.cpp:406] concat1_22_concat1_22_0_split <- concat1_22
I1205 15:17:01.148325  4225 net.cpp:380] concat1_22_concat1_22_0_split -> concat1_22_concat1_22_0_split_0
I1205 15:17:01.148334  4225 net.cpp:380] concat1_22_concat1_22_0_split -> concat1_22_concat1_22_0_split_1
I1205 15:17:01.148397  4225 net.cpp:122] Setting up concat1_22_concat1_22_0_split
I1205 15:17:01.148402  4225 net.cpp:129] Top shape: 1 500 17 35 (297500)
I1205 15:17:01.148406  4225 net.cpp:129] Top shape: 1 500 17 35 (297500)
I1205 15:17:01.148407  4225 net.cpp:137] Memory required for data: 249876208
I1205 15:17:01.148411  4225 layer_factory.hpp:77] Creating layer conv1_23/bn
I1205 15:17:01.148416  4225 net.cpp:84] Creating Layer conv1_23/bn
I1205 15:17:01.148419  4225 net.cpp:406] conv1_23/bn <- concat1_22_concat1_22_0_split_0
I1205 15:17:01.148423  4225 net.cpp:380] conv1_23/bn -> conv1_23/bn
I1205 15:17:01.148885  4225 net.cpp:122] Setting up conv1_23/bn
I1205 15:17:01.148890  4225 net.cpp:129] Top shape: 1 500 17 35 (297500)
I1205 15:17:01.148893  4225 net.cpp:137] Memory required for data: 251066208
I1205 15:17:01.148898  4225 layer_factory.hpp:77] Creating layer conv1_23/scale
I1205 15:17:01.148905  4225 net.cpp:84] Creating Layer conv1_23/scale
I1205 15:17:01.148910  4225 net.cpp:406] conv1_23/scale <- conv1_23/bn
I1205 15:17:01.148913  4225 net.cpp:367] conv1_23/scale -> conv1_23/bn (in-place)
I1205 15:17:01.149000  4225 layer_factory.hpp:77] Creating layer conv1_23/scale
I1205 15:17:01.149276  4225 net.cpp:122] Setting up conv1_23/scale
I1205 15:17:01.149283  4225 net.cpp:129] Top shape: 1 500 17 35 (297500)
I1205 15:17:01.149286  4225 net.cpp:137] Memory required for data: 252256208
I1205 15:17:01.149291  4225 layer_factory.hpp:77] Creating layer relu1_23
I1205 15:17:01.149296  4225 net.cpp:84] Creating Layer relu1_23
I1205 15:17:01.149298  4225 net.cpp:406] relu1_23 <- conv1_23/bn
I1205 15:17:01.149302  4225 net.cpp:367] relu1_23 -> conv1_23/bn (in-place)
I1205 15:17:01.149732  4225 net.cpp:122] Setting up relu1_23
I1205 15:17:01.149741  4225 net.cpp:129] Top shape: 1 500 17 35 (297500)
I1205 15:17:01.149744  4225 net.cpp:137] Memory required for data: 253446208
I1205 15:17:01.149747  4225 layer_factory.hpp:77] Creating layer conv1_23
I1205 15:17:01.149756  4225 net.cpp:84] Creating Layer conv1_23
I1205 15:17:01.149760  4225 net.cpp:406] conv1_23 <- conv1_23/bn
I1205 15:17:01.149766  4225 net.cpp:380] conv1_23 -> conv1_23
I1205 15:17:01.152681  4225 net.cpp:122] Setting up conv1_23
I1205 15:17:01.152695  4225 net.cpp:129] Top shape: 1 12 17 35 (7140)
I1205 15:17:01.152698  4225 net.cpp:137] Memory required for data: 253474768
I1205 15:17:01.152704  4225 layer_factory.hpp:77] Creating layer concat1_23
I1205 15:17:01.152710  4225 net.cpp:84] Creating Layer concat1_23
I1205 15:17:01.152714  4225 net.cpp:406] concat1_23 <- concat1_22_concat1_22_0_split_1
I1205 15:17:01.152719  4225 net.cpp:406] concat1_23 <- conv1_23
I1205 15:17:01.152724  4225 net.cpp:380] concat1_23 -> concat1_23
I1205 15:17:01.152771  4225 net.cpp:122] Setting up concat1_23
I1205 15:17:01.152776  4225 net.cpp:129] Top shape: 1 512 17 35 (304640)
I1205 15:17:01.152778  4225 net.cpp:137] Memory required for data: 254693328
I1205 15:17:01.152781  4225 layer_factory.hpp:77] Creating layer concat1_23_concat1_23_0_split
I1205 15:17:01.152786  4225 net.cpp:84] Creating Layer concat1_23_concat1_23_0_split
I1205 15:17:01.152788  4225 net.cpp:406] concat1_23_concat1_23_0_split <- concat1_23
I1205 15:17:01.152793  4225 net.cpp:380] concat1_23_concat1_23_0_split -> concat1_23_concat1_23_0_split_0
I1205 15:17:01.152798  4225 net.cpp:380] concat1_23_concat1_23_0_split -> concat1_23_concat1_23_0_split_1
I1205 15:17:01.152863  4225 net.cpp:122] Setting up concat1_23_concat1_23_0_split
I1205 15:17:01.152868  4225 net.cpp:129] Top shape: 1 512 17 35 (304640)
I1205 15:17:01.152870  4225 net.cpp:129] Top shape: 1 512 17 35 (304640)
I1205 15:17:01.152873  4225 net.cpp:137] Memory required for data: 257130448
I1205 15:17:01.152875  4225 layer_factory.hpp:77] Creating layer conv1_24/bn
I1205 15:17:01.152879  4225 net.cpp:84] Creating Layer conv1_24/bn
I1205 15:17:01.152882  4225 net.cpp:406] conv1_24/bn <- concat1_23_concat1_23_0_split_0
I1205 15:17:01.152891  4225 net.cpp:380] conv1_24/bn -> conv1_24/bn
I1205 15:17:01.153326  4225 net.cpp:122] Setting up conv1_24/bn
I1205 15:17:01.153333  4225 net.cpp:129] Top shape: 1 512 17 35 (304640)
I1205 15:17:01.153337  4225 net.cpp:137] Memory required for data: 258349008
I1205 15:17:01.153342  4225 layer_factory.hpp:77] Creating layer conv1_24/scale
I1205 15:17:01.153347  4225 net.cpp:84] Creating Layer conv1_24/scale
I1205 15:17:01.153350  4225 net.cpp:406] conv1_24/scale <- conv1_24/bn
I1205 15:17:01.153355  4225 net.cpp:367] conv1_24/scale -> conv1_24/bn (in-place)
I1205 15:17:01.153445  4225 layer_factory.hpp:77] Creating layer conv1_24/scale
I1205 15:17:01.153702  4225 net.cpp:122] Setting up conv1_24/scale
I1205 15:17:01.153709  4225 net.cpp:129] Top shape: 1 512 17 35 (304640)
I1205 15:17:01.153712  4225 net.cpp:137] Memory required for data: 259567568
I1205 15:17:01.153729  4225 layer_factory.hpp:77] Creating layer relu1_24
I1205 15:17:01.153734  4225 net.cpp:84] Creating Layer relu1_24
I1205 15:17:01.153738  4225 net.cpp:406] relu1_24 <- conv1_24/bn
I1205 15:17:01.153741  4225 net.cpp:367] relu1_24 -> conv1_24/bn (in-place)
I1205 15:17:01.153972  4225 net.cpp:122] Setting up relu1_24
I1205 15:17:01.153980  4225 net.cpp:129] Top shape: 1 512 17 35 (304640)
I1205 15:17:01.153982  4225 net.cpp:137] Memory required for data: 260786128
I1205 15:17:01.153985  4225 layer_factory.hpp:77] Creating layer conv1_24
I1205 15:17:01.154000  4225 net.cpp:84] Creating Layer conv1_24
I1205 15:17:01.154002  4225 net.cpp:406] conv1_24 <- conv1_24/bn
I1205 15:17:01.154007  4225 net.cpp:380] conv1_24 -> conv1_24
I1205 15:17:01.158871  4225 net.cpp:122] Setting up conv1_24
I1205 15:17:01.158906  4225 net.cpp:129] Top shape: 1 12 17 35 (7140)
I1205 15:17:01.158911  4225 net.cpp:137] Memory required for data: 260814688
I1205 15:17:01.158922  4225 layer_factory.hpp:77] Creating layer concat1_24
I1205 15:17:01.158936  4225 net.cpp:84] Creating Layer concat1_24
I1205 15:17:01.158943  4225 net.cpp:406] concat1_24 <- concat1_23_concat1_23_0_split_1
I1205 15:17:01.158952  4225 net.cpp:406] concat1_24 <- conv1_24
I1205 15:17:01.158960  4225 net.cpp:380] concat1_24 -> concat1_24
I1205 15:17:01.159025  4225 net.cpp:122] Setting up concat1_24
I1205 15:17:01.159034  4225 net.cpp:129] Top shape: 1 524 17 35 (311780)
I1205 15:17:01.159037  4225 net.cpp:137] Memory required for data: 262061808
I1205 15:17:01.159041  4225 layer_factory.hpp:77] Creating layer concat1_24_concat1_24_0_split
I1205 15:17:01.159049  4225 net.cpp:84] Creating Layer concat1_24_concat1_24_0_split
I1205 15:17:01.159054  4225 net.cpp:406] concat1_24_concat1_24_0_split <- concat1_24
I1205 15:17:01.159060  4225 net.cpp:380] concat1_24_concat1_24_0_split -> concat1_24_concat1_24_0_split_0
I1205 15:17:01.159067  4225 net.cpp:380] concat1_24_concat1_24_0_split -> concat1_24_concat1_24_0_split_1
I1205 15:17:01.159152  4225 net.cpp:122] Setting up concat1_24_concat1_24_0_split
I1205 15:17:01.159159  4225 net.cpp:129] Top shape: 1 524 17 35 (311780)
I1205 15:17:01.159164  4225 net.cpp:129] Top shape: 1 524 17 35 (311780)
I1205 15:17:01.159168  4225 net.cpp:137] Memory required for data: 264556048
I1205 15:17:01.159173  4225 layer_factory.hpp:77] Creating layer conv1_25/bn
I1205 15:17:01.159180  4225 net.cpp:84] Creating Layer conv1_25/bn
I1205 15:17:01.159185  4225 net.cpp:406] conv1_25/bn <- concat1_24_concat1_24_0_split_0
I1205 15:17:01.159191  4225 net.cpp:380] conv1_25/bn -> conv1_25/bn
I1205 15:17:01.159829  4225 net.cpp:122] Setting up conv1_25/bn
I1205 15:17:01.159839  4225 net.cpp:129] Top shape: 1 524 17 35 (311780)
I1205 15:17:01.159843  4225 net.cpp:137] Memory required for data: 265803168
I1205 15:17:01.159853  4225 layer_factory.hpp:77] Creating layer conv1_25/scale
I1205 15:17:01.159864  4225 net.cpp:84] Creating Layer conv1_25/scale
I1205 15:17:01.159869  4225 net.cpp:406] conv1_25/scale <- conv1_25/bn
I1205 15:17:01.159875  4225 net.cpp:367] conv1_25/scale -> conv1_25/bn (in-place)
I1205 15:17:01.159991  4225 layer_factory.hpp:77] Creating layer conv1_25/scale
I1205 15:17:01.160356  4225 net.cpp:122] Setting up conv1_25/scale
I1205 15:17:01.160367  4225 net.cpp:129] Top shape: 1 524 17 35 (311780)
I1205 15:17:01.160370  4225 net.cpp:137] Memory required for data: 267050288
I1205 15:17:01.160377  4225 layer_factory.hpp:77] Creating layer relu1_25
I1205 15:17:01.160385  4225 net.cpp:84] Creating Layer relu1_25
I1205 15:17:01.160389  4225 net.cpp:406] relu1_25 <- conv1_25/bn
I1205 15:17:01.160395  4225 net.cpp:367] relu1_25 -> conv1_25/bn (in-place)
I1205 15:17:01.161082  4225 net.cpp:122] Setting up relu1_25
I1205 15:17:01.161097  4225 net.cpp:129] Top shape: 1 524 17 35 (311780)
I1205 15:17:01.161100  4225 net.cpp:137] Memory required for data: 268297408
I1205 15:17:01.161105  4225 layer_factory.hpp:77] Creating layer conv1_25
I1205 15:17:01.161119  4225 net.cpp:84] Creating Layer conv1_25
I1205 15:17:01.161125  4225 net.cpp:406] conv1_25 <- conv1_25/bn
I1205 15:17:01.161132  4225 net.cpp:380] conv1_25 -> conv1_25
I1205 15:17:01.165490  4225 net.cpp:122] Setting up conv1_25
I1205 15:17:01.165521  4225 net.cpp:129] Top shape: 1 12 17 35 (7140)
I1205 15:17:01.165525  4225 net.cpp:137] Memory required for data: 268325968
I1205 15:17:01.165534  4225 layer_factory.hpp:77] Creating layer concat1_25
I1205 15:17:01.165547  4225 net.cpp:84] Creating Layer concat1_25
I1205 15:17:01.165555  4225 net.cpp:406] concat1_25 <- concat1_24_concat1_24_0_split_1
I1205 15:17:01.165563  4225 net.cpp:406] concat1_25 <- conv1_25
I1205 15:17:01.165570  4225 net.cpp:380] concat1_25 -> concat1_25
I1205 15:17:01.165632  4225 net.cpp:122] Setting up concat1_25
I1205 15:17:01.165639  4225 net.cpp:129] Top shape: 1 536 17 35 (318920)
I1205 15:17:01.165643  4225 net.cpp:137] Memory required for data: 269601648
I1205 15:17:01.165647  4225 layer_factory.hpp:77] Creating layer concat1_25_concat1_25_0_split
I1205 15:17:01.165655  4225 net.cpp:84] Creating Layer concat1_25_concat1_25_0_split
I1205 15:17:01.165659  4225 net.cpp:406] concat1_25_concat1_25_0_split <- concat1_25
I1205 15:17:01.165665  4225 net.cpp:380] concat1_25_concat1_25_0_split -> concat1_25_concat1_25_0_split_0
I1205 15:17:01.165673  4225 net.cpp:380] concat1_25_concat1_25_0_split -> concat1_25_concat1_25_0_split_1
I1205 15:17:01.165755  4225 net.cpp:122] Setting up concat1_25_concat1_25_0_split
I1205 15:17:01.165763  4225 net.cpp:129] Top shape: 1 536 17 35 (318920)
I1205 15:17:01.165768  4225 net.cpp:129] Top shape: 1 536 17 35 (318920)
I1205 15:17:01.165772  4225 net.cpp:137] Memory required for data: 272153008
I1205 15:17:01.165776  4225 layer_factory.hpp:77] Creating layer conv1_26/bn
I1205 15:17:01.165784  4225 net.cpp:84] Creating Layer conv1_26/bn
I1205 15:17:01.165789  4225 net.cpp:406] conv1_26/bn <- concat1_25_concat1_25_0_split_0
I1205 15:17:01.165796  4225 net.cpp:380] conv1_26/bn -> conv1_26/bn
I1205 15:17:01.166424  4225 net.cpp:122] Setting up conv1_26/bn
I1205 15:17:01.166432  4225 net.cpp:129] Top shape: 1 536 17 35 (318920)
I1205 15:17:01.166436  4225 net.cpp:137] Memory required for data: 273428688
I1205 15:17:01.166445  4225 layer_factory.hpp:77] Creating layer conv1_26/scale
I1205 15:17:01.166455  4225 net.cpp:84] Creating Layer conv1_26/scale
I1205 15:17:01.166460  4225 net.cpp:406] conv1_26/scale <- conv1_26/bn
I1205 15:17:01.166466  4225 net.cpp:367] conv1_26/scale -> conv1_26/bn (in-place)
I1205 15:17:01.166580  4225 layer_factory.hpp:77] Creating layer conv1_26/scale
I1205 15:17:01.166945  4225 net.cpp:122] Setting up conv1_26/scale
I1205 15:17:01.166956  4225 net.cpp:129] Top shape: 1 536 17 35 (318920)
I1205 15:17:01.166960  4225 net.cpp:137] Memory required for data: 274704368
I1205 15:17:01.166967  4225 layer_factory.hpp:77] Creating layer relu1_26
I1205 15:17:01.166975  4225 net.cpp:84] Creating Layer relu1_26
I1205 15:17:01.166980  4225 net.cpp:406] relu1_26 <- conv1_26/bn
I1205 15:17:01.166985  4225 net.cpp:367] relu1_26 -> conv1_26/bn (in-place)
I1205 15:17:01.167295  4225 net.cpp:122] Setting up relu1_26
I1205 15:17:01.167305  4225 net.cpp:129] Top shape: 1 536 17 35 (318920)
I1205 15:17:01.167309  4225 net.cpp:137] Memory required for data: 275980048
I1205 15:17:01.167318  4225 layer_factory.hpp:77] Creating layer conv1_26
I1205 15:17:01.167331  4225 net.cpp:84] Creating Layer conv1_26
I1205 15:17:01.167336  4225 net.cpp:406] conv1_26 <- conv1_26/bn
I1205 15:17:01.167346  4225 net.cpp:380] conv1_26 -> conv1_26
I1205 15:17:01.171707  4225 net.cpp:122] Setting up conv1_26
I1205 15:17:01.171733  4225 net.cpp:129] Top shape: 1 12 17 35 (7140)
I1205 15:17:01.171737  4225 net.cpp:137] Memory required for data: 276008608
I1205 15:17:01.171797  4225 layer_factory.hpp:77] Creating layer concat1_26
I1205 15:17:01.171810  4225 net.cpp:84] Creating Layer concat1_26
I1205 15:17:01.171818  4225 net.cpp:406] concat1_26 <- concat1_25_concat1_25_0_split_1
I1205 15:17:01.171824  4225 net.cpp:406] concat1_26 <- conv1_26
I1205 15:17:01.171834  4225 net.cpp:380] concat1_26 -> concat1_26
I1205 15:17:01.171900  4225 net.cpp:122] Setting up concat1_26
I1205 15:17:01.171907  4225 net.cpp:129] Top shape: 1 548 17 35 (326060)
I1205 15:17:01.171911  4225 net.cpp:137] Memory required for data: 277312848
I1205 15:17:01.171916  4225 layer_factory.hpp:77] Creating layer concat1_26_concat1_26_0_split
I1205 15:17:01.171922  4225 net.cpp:84] Creating Layer concat1_26_concat1_26_0_split
I1205 15:17:01.171927  4225 net.cpp:406] concat1_26_concat1_26_0_split <- concat1_26
I1205 15:17:01.171933  4225 net.cpp:380] concat1_26_concat1_26_0_split -> concat1_26_concat1_26_0_split_0
I1205 15:17:01.171941  4225 net.cpp:380] concat1_26_concat1_26_0_split -> concat1_26_concat1_26_0_split_1
I1205 15:17:01.172024  4225 net.cpp:122] Setting up concat1_26_concat1_26_0_split
I1205 15:17:01.172032  4225 net.cpp:129] Top shape: 1 548 17 35 (326060)
I1205 15:17:01.172037  4225 net.cpp:129] Top shape: 1 548 17 35 (326060)
I1205 15:17:01.172041  4225 net.cpp:137] Memory required for data: 279921328
I1205 15:17:01.172045  4225 layer_factory.hpp:77] Creating layer conv1_27/bn
I1205 15:17:01.172053  4225 net.cpp:84] Creating Layer conv1_27/bn
I1205 15:17:01.172057  4225 net.cpp:406] conv1_27/bn <- concat1_26_concat1_26_0_split_0
I1205 15:17:01.172065  4225 net.cpp:380] conv1_27/bn -> conv1_27/bn
I1205 15:17:01.172693  4225 net.cpp:122] Setting up conv1_27/bn
I1205 15:17:01.172703  4225 net.cpp:129] Top shape: 1 548 17 35 (326060)
I1205 15:17:01.172705  4225 net.cpp:137] Memory required for data: 281225568
I1205 15:17:01.172714  4225 layer_factory.hpp:77] Creating layer conv1_27/scale
I1205 15:17:01.172724  4225 net.cpp:84] Creating Layer conv1_27/scale
I1205 15:17:01.172729  4225 net.cpp:406] conv1_27/scale <- conv1_27/bn
I1205 15:17:01.172735  4225 net.cpp:367] conv1_27/scale -> conv1_27/bn (in-place)
I1205 15:17:01.172850  4225 layer_factory.hpp:77] Creating layer conv1_27/scale
I1205 15:17:01.173208  4225 net.cpp:122] Setting up conv1_27/scale
I1205 15:17:01.173218  4225 net.cpp:129] Top shape: 1 548 17 35 (326060)
I1205 15:17:01.173221  4225 net.cpp:137] Memory required for data: 282529808
I1205 15:17:01.173228  4225 layer_factory.hpp:77] Creating layer relu1_27
I1205 15:17:01.173236  4225 net.cpp:84] Creating Layer relu1_27
I1205 15:17:01.173241  4225 net.cpp:406] relu1_27 <- conv1_27/bn
I1205 15:17:01.173247  4225 net.cpp:367] relu1_27 -> conv1_27/bn (in-place)
I1205 15:17:01.173760  4225 net.cpp:122] Setting up relu1_27
I1205 15:17:01.173774  4225 net.cpp:129] Top shape: 1 548 17 35 (326060)
I1205 15:17:01.173777  4225 net.cpp:137] Memory required for data: 283834048
I1205 15:17:01.173782  4225 layer_factory.hpp:77] Creating layer conv1_27
I1205 15:17:01.173795  4225 net.cpp:84] Creating Layer conv1_27
I1205 15:17:01.173800  4225 net.cpp:406] conv1_27 <- conv1_27/bn
I1205 15:17:01.173807  4225 net.cpp:380] conv1_27 -> conv1_27
I1205 15:17:01.178072  4225 net.cpp:122] Setting up conv1_27
I1205 15:17:01.178086  4225 net.cpp:129] Top shape: 1 12 17 35 (7140)
I1205 15:17:01.178092  4225 net.cpp:137] Memory required for data: 283862608
I1205 15:17:01.178098  4225 layer_factory.hpp:77] Creating layer concat1_27
I1205 15:17:01.178107  4225 net.cpp:84] Creating Layer concat1_27
I1205 15:17:01.178112  4225 net.cpp:406] concat1_27 <- concat1_26_concat1_26_0_split_1
I1205 15:17:01.178122  4225 net.cpp:406] concat1_27 <- conv1_27
I1205 15:17:01.178128  4225 net.cpp:380] concat1_27 -> concat1_27
I1205 15:17:01.178189  4225 net.cpp:122] Setting up concat1_27
I1205 15:17:01.178196  4225 net.cpp:129] Top shape: 1 560 17 35 (333200)
I1205 15:17:01.178200  4225 net.cpp:137] Memory required for data: 285195408
I1205 15:17:01.178205  4225 layer_factory.hpp:77] Creating layer concat1_27_concat1_27_0_split
I1205 15:17:01.178210  4225 net.cpp:84] Creating Layer concat1_27_concat1_27_0_split
I1205 15:17:01.178215  4225 net.cpp:406] concat1_27_concat1_27_0_split <- concat1_27
I1205 15:17:01.178221  4225 net.cpp:380] concat1_27_concat1_27_0_split -> concat1_27_concat1_27_0_split_0
I1205 15:17:01.178230  4225 net.cpp:380] concat1_27_concat1_27_0_split -> concat1_27_concat1_27_0_split_1
I1205 15:17:01.178313  4225 net.cpp:122] Setting up concat1_27_concat1_27_0_split
I1205 15:17:01.178321  4225 net.cpp:129] Top shape: 1 560 17 35 (333200)
I1205 15:17:01.178326  4225 net.cpp:129] Top shape: 1 560 17 35 (333200)
I1205 15:17:01.178330  4225 net.cpp:137] Memory required for data: 287861008
I1205 15:17:01.178334  4225 layer_factory.hpp:77] Creating layer conv1_28/bn
I1205 15:17:01.178340  4225 net.cpp:84] Creating Layer conv1_28/bn
I1205 15:17:01.178344  4225 net.cpp:406] conv1_28/bn <- concat1_27_concat1_27_0_split_0
I1205 15:17:01.178355  4225 net.cpp:380] conv1_28/bn -> conv1_28/bn
I1205 15:17:01.178952  4225 net.cpp:122] Setting up conv1_28/bn
I1205 15:17:01.178962  4225 net.cpp:129] Top shape: 1 560 17 35 (333200)
I1205 15:17:01.178966  4225 net.cpp:137] Memory required for data: 289193808
I1205 15:17:01.178975  4225 layer_factory.hpp:77] Creating layer conv1_28/scale
I1205 15:17:01.178983  4225 net.cpp:84] Creating Layer conv1_28/scale
I1205 15:17:01.178988  4225 net.cpp:406] conv1_28/scale <- conv1_28/bn
I1205 15:17:01.178997  4225 net.cpp:367] conv1_28/scale -> conv1_28/bn (in-place)
I1205 15:17:01.179107  4225 layer_factory.hpp:77] Creating layer conv1_28/scale
I1205 15:17:01.179478  4225 net.cpp:122] Setting up conv1_28/scale
I1205 15:17:01.179489  4225 net.cpp:129] Top shape: 1 560 17 35 (333200)
I1205 15:17:01.179492  4225 net.cpp:137] Memory required for data: 290526608
I1205 15:17:01.179500  4225 layer_factory.hpp:77] Creating layer relu1_28
I1205 15:17:01.179507  4225 net.cpp:84] Creating Layer relu1_28
I1205 15:17:01.179512  4225 net.cpp:406] relu1_28 <- conv1_28/bn
I1205 15:17:01.179517  4225 net.cpp:367] relu1_28 -> conv1_28/bn (in-place)
I1205 15:17:01.180066  4225 net.cpp:122] Setting up relu1_28
I1205 15:17:01.180080  4225 net.cpp:129] Top shape: 1 560 17 35 (333200)
I1205 15:17:01.180084  4225 net.cpp:137] Memory required for data: 291859408
I1205 15:17:01.180088  4225 layer_factory.hpp:77] Creating layer conv1_28
I1205 15:17:01.180100  4225 net.cpp:84] Creating Layer conv1_28
I1205 15:17:01.180105  4225 net.cpp:406] conv1_28 <- conv1_28/bn
I1205 15:17:01.180114  4225 net.cpp:380] conv1_28 -> conv1_28
I1205 15:17:01.185039  4225 net.cpp:122] Setting up conv1_28
I1205 15:17:01.185053  4225 net.cpp:129] Top shape: 1 12 17 35 (7140)
I1205 15:17:01.185060  4225 net.cpp:137] Memory required for data: 291887968
I1205 15:17:01.185066  4225 layer_factory.hpp:77] Creating layer concat1_28
I1205 15:17:01.185075  4225 net.cpp:84] Creating Layer concat1_28
I1205 15:17:01.185081  4225 net.cpp:406] concat1_28 <- concat1_27_concat1_27_0_split_1
I1205 15:17:01.185086  4225 net.cpp:406] concat1_28 <- conv1_28
I1205 15:17:01.185092  4225 net.cpp:380] concat1_28 -> concat1_28
I1205 15:17:01.185156  4225 net.cpp:122] Setting up concat1_28
I1205 15:17:01.185164  4225 net.cpp:129] Top shape: 1 572 17 35 (340340)
I1205 15:17:01.185168  4225 net.cpp:137] Memory required for data: 293249328
I1205 15:17:01.185173  4225 layer_factory.hpp:77] Creating layer concat1_28_concat1_28_0_split
I1205 15:17:01.185178  4225 net.cpp:84] Creating Layer concat1_28_concat1_28_0_split
I1205 15:17:01.185184  4225 net.cpp:406] concat1_28_concat1_28_0_split <- concat1_28
I1205 15:17:01.185192  4225 net.cpp:380] concat1_28_concat1_28_0_split -> concat1_28_concat1_28_0_split_0
I1205 15:17:01.185199  4225 net.cpp:380] concat1_28_concat1_28_0_split -> concat1_28_concat1_28_0_split_1
I1205 15:17:01.185284  4225 net.cpp:122] Setting up concat1_28_concat1_28_0_split
I1205 15:17:01.185293  4225 net.cpp:129] Top shape: 1 572 17 35 (340340)
I1205 15:17:01.185299  4225 net.cpp:129] Top shape: 1 572 17 35 (340340)
I1205 15:17:01.185302  4225 net.cpp:137] Memory required for data: 295972048
I1205 15:17:01.185307  4225 layer_factory.hpp:77] Creating layer conv1_29/bn
I1205 15:17:01.185313  4225 net.cpp:84] Creating Layer conv1_29/bn
I1205 15:17:01.185318  4225 net.cpp:406] conv1_29/bn <- concat1_28_concat1_28_0_split_0
I1205 15:17:01.185325  4225 net.cpp:380] conv1_29/bn -> conv1_29/bn
I1205 15:17:01.185940  4225 net.cpp:122] Setting up conv1_29/bn
I1205 15:17:01.185950  4225 net.cpp:129] Top shape: 1 572 17 35 (340340)
I1205 15:17:01.185955  4225 net.cpp:137] Memory required for data: 297333408
I1205 15:17:01.185962  4225 layer_factory.hpp:77] Creating layer conv1_29/scale
I1205 15:17:01.185971  4225 net.cpp:84] Creating Layer conv1_29/scale
I1205 15:17:01.185976  4225 net.cpp:406] conv1_29/scale <- conv1_29/bn
I1205 15:17:01.185984  4225 net.cpp:367] conv1_29/scale -> conv1_29/bn (in-place)
I1205 15:17:01.186098  4225 layer_factory.hpp:77] Creating layer conv1_29/scale
I1205 15:17:01.186467  4225 net.cpp:122] Setting up conv1_29/scale
I1205 15:17:01.186477  4225 net.cpp:129] Top shape: 1 572 17 35 (340340)
I1205 15:17:01.186481  4225 net.cpp:137] Memory required for data: 298694768
I1205 15:17:01.186488  4225 layer_factory.hpp:77] Creating layer relu1_29
I1205 15:17:01.186494  4225 net.cpp:84] Creating Layer relu1_29
I1205 15:17:01.186499  4225 net.cpp:406] relu1_29 <- conv1_29/bn
I1205 15:17:01.186504  4225 net.cpp:367] relu1_29 -> conv1_29/bn (in-place)
I1205 15:17:01.186806  4225 net.cpp:122] Setting up relu1_29
I1205 15:17:01.186816  4225 net.cpp:129] Top shape: 1 572 17 35 (340340)
I1205 15:17:01.186820  4225 net.cpp:137] Memory required for data: 300056128
I1205 15:17:01.186825  4225 layer_factory.hpp:77] Creating layer conv1_29
I1205 15:17:01.186836  4225 net.cpp:84] Creating Layer conv1_29
I1205 15:17:01.186841  4225 net.cpp:406] conv1_29 <- conv1_29/bn
I1205 15:17:01.186849  4225 net.cpp:380] conv1_29 -> conv1_29
I1205 15:17:01.191145  4225 net.cpp:122] Setting up conv1_29
I1205 15:17:01.191164  4225 net.cpp:129] Top shape: 1 12 17 35 (7140)
I1205 15:17:01.191167  4225 net.cpp:137] Memory required for data: 300084688
I1205 15:17:01.191174  4225 layer_factory.hpp:77] Creating layer concat1_29
I1205 15:17:01.191184  4225 net.cpp:84] Creating Layer concat1_29
I1205 15:17:01.191190  4225 net.cpp:406] concat1_29 <- concat1_28_concat1_28_0_split_1
I1205 15:17:01.191196  4225 net.cpp:406] concat1_29 <- conv1_29
I1205 15:17:01.191205  4225 net.cpp:380] concat1_29 -> concat1_29
I1205 15:17:01.191265  4225 net.cpp:122] Setting up concat1_29
I1205 15:17:01.191273  4225 net.cpp:129] Top shape: 1 584 17 35 (347480)
I1205 15:17:01.191277  4225 net.cpp:137] Memory required for data: 301474608
I1205 15:17:01.191282  4225 layer_factory.hpp:77] Creating layer concat1_29_concat1_29_0_split
I1205 15:17:01.191287  4225 net.cpp:84] Creating Layer concat1_29_concat1_29_0_split
I1205 15:17:01.191292  4225 net.cpp:406] concat1_29_concat1_29_0_split <- concat1_29
I1205 15:17:01.191298  4225 net.cpp:380] concat1_29_concat1_29_0_split -> concat1_29_concat1_29_0_split_0
I1205 15:17:01.191305  4225 net.cpp:380] concat1_29_concat1_29_0_split -> concat1_29_concat1_29_0_split_1
I1205 15:17:01.191391  4225 net.cpp:122] Setting up concat1_29_concat1_29_0_split
I1205 15:17:01.191398  4225 net.cpp:129] Top shape: 1 584 17 35 (347480)
I1205 15:17:01.191404  4225 net.cpp:129] Top shape: 1 584 17 35 (347480)
I1205 15:17:01.191407  4225 net.cpp:137] Memory required for data: 304254448
I1205 15:17:01.191411  4225 layer_factory.hpp:77] Creating layer conv1_30/bn
I1205 15:17:01.191419  4225 net.cpp:84] Creating Layer conv1_30/bn
I1205 15:17:01.191429  4225 net.cpp:406] conv1_30/bn <- concat1_29_concat1_29_0_split_0
I1205 15:17:01.191437  4225 net.cpp:380] conv1_30/bn -> conv1_30/bn
I1205 15:17:01.192070  4225 net.cpp:122] Setting up conv1_30/bn
I1205 15:17:01.192081  4225 net.cpp:129] Top shape: 1 584 17 35 (347480)
I1205 15:17:01.192085  4225 net.cpp:137] Memory required for data: 305644368
I1205 15:17:01.192095  4225 layer_factory.hpp:77] Creating layer conv1_30/scale
I1205 15:17:01.192104  4225 net.cpp:84] Creating Layer conv1_30/scale
I1205 15:17:01.192108  4225 net.cpp:406] conv1_30/scale <- conv1_30/bn
I1205 15:17:01.192116  4225 net.cpp:367] conv1_30/scale -> conv1_30/bn (in-place)
I1205 15:17:01.192234  4225 layer_factory.hpp:77] Creating layer conv1_30/scale
I1205 15:17:01.192612  4225 net.cpp:122] Setting up conv1_30/scale
I1205 15:17:01.192623  4225 net.cpp:129] Top shape: 1 584 17 35 (347480)
I1205 15:17:01.192627  4225 net.cpp:137] Memory required for data: 307034288
I1205 15:17:01.192636  4225 layer_factory.hpp:77] Creating layer relu1_30
I1205 15:17:01.192643  4225 net.cpp:84] Creating Layer relu1_30
I1205 15:17:01.192648  4225 net.cpp:406] relu1_30 <- conv1_30/bn
I1205 15:17:01.192654  4225 net.cpp:367] relu1_30 -> conv1_30/bn (in-place)
I1205 15:17:01.193425  4225 net.cpp:122] Setting up relu1_30
I1205 15:17:01.193440  4225 net.cpp:129] Top shape: 1 584 17 35 (347480)
I1205 15:17:01.193444  4225 net.cpp:137] Memory required for data: 308424208
I1205 15:17:01.193449  4225 layer_factory.hpp:77] Creating layer conv1_30
I1205 15:17:01.193462  4225 net.cpp:84] Creating Layer conv1_30
I1205 15:17:01.193469  4225 net.cpp:406] conv1_30 <- conv1_30/bn
I1205 15:17:01.193475  4225 net.cpp:380] conv1_30 -> conv1_30
I1205 15:17:01.198243  4225 net.cpp:122] Setting up conv1_30
I1205 15:17:01.198277  4225 net.cpp:129] Top shape: 1 12 17 35 (7140)
I1205 15:17:01.198282  4225 net.cpp:137] Memory required for data: 308452768
I1205 15:17:01.198292  4225 layer_factory.hpp:77] Creating layer concat1_30
I1205 15:17:01.198304  4225 net.cpp:84] Creating Layer concat1_30
I1205 15:17:01.198312  4225 net.cpp:406] concat1_30 <- concat1_29_concat1_29_0_split_1
I1205 15:17:01.198321  4225 net.cpp:406] concat1_30 <- conv1_30
I1205 15:17:01.198329  4225 net.cpp:380] concat1_30 -> concat1_30
I1205 15:17:01.198393  4225 net.cpp:122] Setting up concat1_30
I1205 15:17:01.198401  4225 net.cpp:129] Top shape: 1 596 17 35 (354620)
I1205 15:17:01.198405  4225 net.cpp:137] Memory required for data: 309871248
I1205 15:17:01.198410  4225 layer_factory.hpp:77] Creating layer concat1_30_concat1_30_0_split
I1205 15:17:01.198417  4225 net.cpp:84] Creating Layer concat1_30_concat1_30_0_split
I1205 15:17:01.198421  4225 net.cpp:406] concat1_30_concat1_30_0_split <- concat1_30
I1205 15:17:01.198427  4225 net.cpp:380] concat1_30_concat1_30_0_split -> concat1_30_concat1_30_0_split_0
I1205 15:17:01.198434  4225 net.cpp:380] concat1_30_concat1_30_0_split -> concat1_30_concat1_30_0_split_1
I1205 15:17:01.198521  4225 net.cpp:122] Setting up concat1_30_concat1_30_0_split
I1205 15:17:01.198529  4225 net.cpp:129] Top shape: 1 596 17 35 (354620)
I1205 15:17:01.198534  4225 net.cpp:129] Top shape: 1 596 17 35 (354620)
I1205 15:17:01.198539  4225 net.cpp:137] Memory required for data: 312708208
I1205 15:17:01.198542  4225 layer_factory.hpp:77] Creating layer conv1_31/bn
I1205 15:17:01.198554  4225 net.cpp:84] Creating Layer conv1_31/bn
I1205 15:17:01.198559  4225 net.cpp:406] conv1_31/bn <- concat1_30_concat1_30_0_split_0
I1205 15:17:01.198565  4225 net.cpp:380] conv1_31/bn -> conv1_31/bn
I1205 15:17:01.199209  4225 net.cpp:122] Setting up conv1_31/bn
I1205 15:17:01.199218  4225 net.cpp:129] Top shape: 1 596 17 35 (354620)
I1205 15:17:01.199223  4225 net.cpp:137] Memory required for data: 314126688
I1205 15:17:01.199232  4225 layer_factory.hpp:77] Creating layer conv1_31/scale
I1205 15:17:01.199242  4225 net.cpp:84] Creating Layer conv1_31/scale
I1205 15:17:01.199246  4225 net.cpp:406] conv1_31/scale <- conv1_31/bn
I1205 15:17:01.199252  4225 net.cpp:367] conv1_31/scale -> conv1_31/bn (in-place)
I1205 15:17:01.199373  4225 layer_factory.hpp:77] Creating layer conv1_31/scale
I1205 15:17:01.199755  4225 net.cpp:122] Setting up conv1_31/scale
I1205 15:17:01.199765  4225 net.cpp:129] Top shape: 1 596 17 35 (354620)
I1205 15:17:01.199769  4225 net.cpp:137] Memory required for data: 315545168
I1205 15:17:01.199777  4225 layer_factory.hpp:77] Creating layer relu1_31
I1205 15:17:01.199785  4225 net.cpp:84] Creating Layer relu1_31
I1205 15:17:01.199790  4225 net.cpp:406] relu1_31 <- conv1_31/bn
I1205 15:17:01.199797  4225 net.cpp:367] relu1_31 -> conv1_31/bn (in-place)
I1205 15:17:01.200103  4225 net.cpp:122] Setting up relu1_31
I1205 15:17:01.200114  4225 net.cpp:129] Top shape: 1 596 17 35 (354620)
I1205 15:17:01.200117  4225 net.cpp:137] Memory required for data: 316963648
I1205 15:17:01.200121  4225 layer_factory.hpp:77] Creating layer conv1_31
I1205 15:17:01.200134  4225 net.cpp:84] Creating Layer conv1_31
I1205 15:17:01.200139  4225 net.cpp:406] conv1_31 <- conv1_31/bn
I1205 15:17:01.200147  4225 net.cpp:380] conv1_31 -> conv1_31
I1205 15:17:01.204586  4225 net.cpp:122] Setting up conv1_31
I1205 15:17:01.204601  4225 net.cpp:129] Top shape: 1 12 17 35 (7140)
I1205 15:17:01.204604  4225 net.cpp:137] Memory required for data: 316992208
I1205 15:17:01.204612  4225 layer_factory.hpp:77] Creating layer concat1_31
I1205 15:17:01.204618  4225 net.cpp:84] Creating Layer concat1_31
I1205 15:17:01.204624  4225 net.cpp:406] concat1_31 <- concat1_30_concat1_30_0_split_1
I1205 15:17:01.204629  4225 net.cpp:406] concat1_31 <- conv1_31
I1205 15:17:01.204638  4225 net.cpp:380] concat1_31 -> concat1_31
I1205 15:17:01.204699  4225 net.cpp:122] Setting up concat1_31
I1205 15:17:01.204706  4225 net.cpp:129] Top shape: 1 608 17 35 (361760)
I1205 15:17:01.204710  4225 net.cpp:137] Memory required for data: 318439248
I1205 15:17:01.204715  4225 layer_factory.hpp:77] Creating layer tpp5
I1205 15:17:01.204722  4225 net.cpp:84] Creating Layer tpp5
I1205 15:17:01.204726  4225 net.cpp:406] tpp5 <- concat1_31
I1205 15:17:01.204732  4225 net.cpp:380] tpp5 -> tpp5
I1205 15:17:01.205814  4225 net.cpp:122] Setting up tpp5
I1205 15:17:01.205824  4225 net.cpp:129] Top shape: 1 9120 (9120)
I1205 15:17:01.205828  4225 net.cpp:137] Memory required for data: 318475728
I1205 15:17:01.205832  4225 layer_factory.hpp:77] Creating layer fc6_d
I1205 15:17:01.205842  4225 net.cpp:84] Creating Layer fc6_d
I1205 15:17:01.205847  4225 net.cpp:406] fc6_d <- tpp5
I1205 15:17:01.205854  4225 net.cpp:380] fc6_d -> fc6_d
I1205 15:17:02.211455  4225 net.cpp:122] Setting up fc6_d
I1205 15:17:02.211486  4225 net.cpp:129] Top shape: 1 4096 (4096)
I1205 15:17:02.211489  4225 net.cpp:137] Memory required for data: 318492112
I1205 15:17:02.211498  4225 layer_factory.hpp:77] Creating layer relu6
I1205 15:17:02.211511  4225 net.cpp:84] Creating Layer relu6
I1205 15:17:02.211516  4225 net.cpp:406] relu6 <- fc6_d
I1205 15:17:02.211521  4225 net.cpp:367] relu6 -> fc6_d (in-place)
I1205 15:17:02.212173  4225 net.cpp:122] Setting up relu6
I1205 15:17:02.212183  4225 net.cpp:129] Top shape: 1 4096 (4096)
I1205 15:17:02.212186  4225 net.cpp:137] Memory required for data: 318508496
I1205 15:17:02.212189  4225 layer_factory.hpp:77] Creating layer fc7_d
I1205 15:17:02.212198  4225 net.cpp:84] Creating Layer fc7_d
I1205 15:17:02.212200  4225 net.cpp:406] fc7_d <- fc6_d
I1205 15:17:02.212206  4225 net.cpp:380] fc7_d -> fc7_d
I1205 15:17:02.624547  4225 net.cpp:122] Setting up fc7_d
I1205 15:17:02.624572  4225 net.cpp:129] Top shape: 1 4096 (4096)
I1205 15:17:02.624574  4225 net.cpp:137] Memory required for data: 318524880
I1205 15:17:02.624583  4225 layer_factory.hpp:77] Creating layer relu7
I1205 15:17:02.624591  4225 net.cpp:84] Creating Layer relu7
I1205 15:17:02.624595  4225 net.cpp:406] relu7 <- fc7_d
I1205 15:17:02.624601  4225 net.cpp:367] relu7 -> fc7_d (in-place)
I1205 15:17:02.625257  4225 net.cpp:122] Setting up relu7
I1205 15:17:02.625267  4225 net.cpp:129] Top shape: 1 4096 (4096)
I1205 15:17:02.625270  4225 net.cpp:137] Memory required for data: 318541264
I1205 15:17:02.625277  4225 layer_factory.hpp:77] Creating layer fc8_d
I1205 15:17:02.625285  4225 net.cpp:84] Creating Layer fc8_d
I1205 15:17:02.625288  4225 net.cpp:406] fc8_d <- fc7_d
I1205 15:17:02.625293  4225 net.cpp:380] fc8_d -> fc8_d
I1205 15:17:02.686401  4225 net.cpp:122] Setting up fc8_d
I1205 15:17:02.686425  4225 net.cpp:129] Top shape: 1 604 (604)
I1205 15:17:02.686427  4225 net.cpp:137] Memory required for data: 318543680
I1205 15:17:02.686435  4225 layer_factory.hpp:77] Creating layer fc8_d_fc8_d_0_split
I1205 15:17:02.686452  4225 net.cpp:84] Creating Layer fc8_d_fc8_d_0_split
I1205 15:17:02.686457  4225 net.cpp:406] fc8_d_fc8_d_0_split <- fc8_d
I1205 15:17:02.686463  4225 net.cpp:380] fc8_d_fc8_d_0_split -> fc8_d_fc8_d_0_split_0
I1205 15:17:02.686470  4225 net.cpp:380] fc8_d_fc8_d_0_split -> fc8_d_fc8_d_0_split_1
I1205 15:17:02.686542  4225 net.cpp:122] Setting up fc8_d_fc8_d_0_split
I1205 15:17:02.686547  4225 net.cpp:129] Top shape: 1 604 (604)
I1205 15:17:02.686550  4225 net.cpp:129] Top shape: 1 604 (604)
I1205 15:17:02.686553  4225 net.cpp:137] Memory required for data: 318548512
I1205 15:17:02.686554  4225 layer_factory.hpp:77] Creating layer sigmoid
I1205 15:17:02.686563  4225 net.cpp:84] Creating Layer sigmoid
I1205 15:17:02.686565  4225 net.cpp:406] sigmoid <- fc8_d_fc8_d_0_split_0
I1205 15:17:02.686569  4225 net.cpp:380] sigmoid -> sigmoid
I1205 15:17:02.686908  4225 net.cpp:122] Setting up sigmoid
I1205 15:17:02.686918  4225 net.cpp:129] Top shape: 1 604 (604)
I1205 15:17:02.686921  4225 net.cpp:137] Memory required for data: 318550928
I1205 15:17:02.686924  4225 layer_factory.hpp:77] Creating layer silence
I1205 15:17:02.686929  4225 net.cpp:84] Creating Layer silence
I1205 15:17:02.686933  4225 net.cpp:406] silence <- sigmoid
I1205 15:17:02.686936  4225 net.cpp:122] Setting up silence
I1205 15:17:02.686939  4225 net.cpp:137] Memory required for data: 318550928
…
