…
state {
  phase: TRAIN
}
layer {
  name: "word_images"
  type: "Data"
  top: "word_images"
  top: "label"
  transform_param {
    scale: -0.0039215689
    mean_value: 255
  }
  data_param {
    source: "/data/fwolf/min26/gw_cv1_nti500000_pul2-3-4-5_train_word_images_lmdb"
    batch_size: 1
    backend: LMDB
    prefetch: 20
  }
}
layer {
  name: "phocs"
  type: "Data"
  top: "phocs"
  top: "label_phocs"
  data_param {
    source: "/data/fwolf/min26/gw_cv1_nti500000_pul2-3-4-5_train_phocs_lmdb"
    batch_size: 1
    backend: LMDB
    prefetch: 20
  }
}
layer {
  name: "conv_init"
  type: "Convolution"
  bottom: "word_images"
  top: "conv_init"
  convolution_param {
    num_output: 32
    bias_term: false
    pad: 1
    kernel_size: 3
    stride: 1
    weight_filler {
      type: "msra"
    }
    bias_filler {
      type: "constant"
    }
    engine: CUDNN
  }
}
layer {
  name: "conv0_0/bn"
  type: "BatchNorm"
  bottom: "conv_init"
  top: "conv0_0/bn"
  param {
    lr_mult: 0
    decay_mult: 0
  }
  param {
    lr_mult: 0
    decay_mult: 0
  }
  param {
    lr_mult: 0
    decay_mult: 0
  }
}
layer {
  name: "conv0_0/scale"
  type: "Scale"
  bottom: "conv0_0/bn"
  top: "conv0_0/bn"
  scale_param {
    filler {
      value: 1
    }
    bias_term: true
    bias_filler {
      value: 0
    }
  }
}
layer {
  name: "relu0_0"
  type: "ReLU"
  bottom: "conv0_0/bn"
  top: "conv0_0/bn"
}
layer {
  name: "conv0_0"
  type: "Convolution"
  bottom: "conv0_0/bn"
  top: "conv0_0"
  convolution_param {
    num_output: 12
    bias_term: false
    pad: 1
    kernel_size: 3
    stride: 1
    weight_filler {
      type: "msra"
    }
    bias_filler {
      type: "constant"
    }
    engine: CUDNN
  }
}
layer {
  name: "concat0_0"
  type: "Concat"
  bottom: "conv_init"
  bottom: "conv0_0"
  top: "concat0_0"
  concat_param {
    axis: 1
  }
}
layer {
  name: "conv0_1/bn"
  type: "BatchNorm"
  bottom: "concat0_0"
  top: "conv0_1/bn"
  param {
    lr_mult: 0
    decay_mult: 0
  }
  param {
    lr_mult: 0
    decay_mult: 0
  }
  param {
    lr_mult: 0
    decay_mult: 0
  }
}
layer {
  name: "conv0_1/scale"
  type: "Scale"
  bottom: "conv0_1/bn"
  top: "conv0_1/bn"
  scale_param {
    filler {
      value: 1
    }
    bias_term: true
    bias_filler {
      value: 0
    }
  }
}
layer {
  name: "relu0_1"
  type: "ReLU"
  bottom: "conv0_1/bn"
  top: "conv0_1/bn"
}
layer {
  name: "conv0_1"
  type: "Convolution"
  bottom: "conv0_1/bn"
  top: "conv0_1"
  convolution_param {
    num_output: 12
    bias_term: false
    pad: 1
    kernel_size: 3
    stride: 1
    weight_filler {
      type: "msra"
    }
    bias_filler {
      type: "constant"
    }
    engine: CUDNN
  }
}
layer {
  name: "concat0_1"
  type: "Concat"
  bottom: "concat0_0"
  bottom: "conv0_1"
  top: "concat0_1"
  concat_param {
    axis: 1
  }
}
layer {
  name: "conv0_2/bn"
  type: "BatchNorm"
  bottom: "concat0_1"
  top: "conv0_2/bn"
  param {
    lr_mult: 0
    decay_mult: 0
  }
  param {
    lr_mult: 0
    decay_mult: 0
  }
  param {
    lr_mult: 0
    decay_mult: 0
  }
}
layer {
  name: "conv0_2/scale"
  type: "Scale"
  bottom: "conv0_2/bn"
  top: "conv0_2/bn"
  scale_param {
    filler {
      value: 1
    }
    bias_term: true
    bias_filler {
      value: 0
    }
  }
}
layer {
  name: "relu0_2"
  type: "ReLU"
  bottom: "conv0_2/bn"
  top: "conv0_2/bn"
}
layer {
  name: "conv0_2"
  type: "Convolution"
  bottom: "conv0_2/bn"
  top: "conv0_2"
  convolution_param {
    num_output: 12
    bias_term: false
    pad: 1
    kernel_size: 3
    stride: 1
    weight_filler {
      type: "msra"
    }
    bias_filler {
      type: "constant"
    }
    engine: CUDNN
  }
}
layer {
  name: "concat0_2"
  type: "Concat"
  bottom: "concat0_1"
  bottom: "conv0_2"
  top: "concat0_2"
  concat_param {
    axis: 1
  }
}
layer {
  name: "BatchNorm1"
  type: "BatchNorm"
  bottom: "concat0_2"
  top: "BatchNorm1"
  param {
    lr_mult: 0
    decay_mult: 0
  }
  param {
    lr_mult: 0
    decay_mult: 0
  }
  param {
    lr_mult: 0
    decay_mult: 0
  }
}
layer {
  name: "Scale1"
  type: "Scale"
  bottom: "BatchNorm1"
  top: "BatchNorm1"
  scale_param {
    filler {
      value: 1
    }
    bias_term: true
    bias_filler {
      value: 0
    }
  }
}
layer {
  name: "ReLU1"
  type: "ReLU"
  bottom: "BatchNorm1"
  top: "BatchNorm1"
}
layer {
  name: "conv0_blk"
  type: "Convolution"
  bottom: "BatchNorm1"
  top: "conv0_blk"
  convolution_param {
    num_output: 68
    bias_term: false
    pad: 0
    kernel_size: 1
    stride: 1
    weight_filler {
      type: "msra"
    }
    bias_filler {
      type: "constant"
    }
    engine: CUDNN
  }
}
layer {
  name: "pool0"
  type: "Pooling"
  bottom: "conv0_blk"
  top: "pool0"
  pooling_param {
    pool: AVE
    kernel_size: 2
    stride: 2
  }
}
layer {
  name: "conv1_0/bn"
  type: "BatchNorm"
  bottom: "pool0"
  top: "conv1_0/bn"
  param {
    lr_mult: 0
    decay_mult: 0
  }
  param {
    lr_mult: 0
    decay_mult: 0
  }
  param {
    lr_mult: 0
    decay_mult: 0
  }
}
layer {
  name: "conv1_0/scale"
  type: "Scale"
  bottom: "conv1_0/bn"
  top: "conv1_0/bn"
  scale_param {
    filler {
      value: 1
    }
    bias_term: true
    bias_filler {
      value: 0
    }
  }
}
layer {
  name: "relu1_0"
  type: "ReLU"
  bottom: "conv1_0/bn"
  top: "conv1_0/bn"
}
layer {
  name: "conv1_0"
  type: "Convolution"
  bottom: "conv1_0/bn"
  top: "conv1_0"
  convolution_param {
    num_output: 12
    bias_term: false
    pad: 1
    kernel_size: 3
    stride: 1
    weight_filler {
      type: "msra"
    }
    bias_filler {
      type: "constant"
    }
    engine: CUDNN
  }
}
layer {
  name: "concat1_0"
  type: "Concat"
  bottom: "pool0"
  bottom: "conv1_0"
  top: "concat1_0"
  concat_param {
    axis: 1
  }
}
layer {
  name: "conv1_1/bn"
  type: "BatchNorm"
  bottom: "concat1_0"
  top: "conv1_1/bn"
  param {
    lr_mult: 0
    decay_mult: 0
  }
  param {
    lr_mult: 0
    decay_mult: 0
  }
  param {
    lr_mult: 0
    decay_mult: 0
  }
}
layer {
  name: "conv1_1/scale"
  type: "Scale"
  bottom: "conv1_1/bn"
  top: "conv1_1/bn"
  scale_param {
    filler {
      value: 1
    }
    bias_term: true
    bias_filler {
      value: 0
    }
  }
}
layer {
  name: "relu1_1"
  type: "ReLU"
  bottom: "conv1_1/bn"
  top: "conv1_1/bn"
}
layer {
  name: "conv1_1"
  type: "Convolution"
  bottom: "conv1_1/bn"
  top: "conv1_1"
  convolution_param {
    num_output: 12
    bias_term: false
    pad: 1
    kernel_size: 3
    stride: 1
    weight_filler {
      type: "msra"
    }
    bias_filler {
      type: "constant"
    }
    engine: CUDNN
  }
}
layer {
  name: "concat1_1"
  type: "Concat"
  bottom: "concat1_0"
  bottom: "conv1_1"
  top: "concat1_1"
  concat_param {
    axis: 1
  }
}
layer {
  name: "conv1_2/bn"
  type: "BatchNorm"
  bottom: "concat1_1"
  top: "conv1_2/bn"
  param {
    lr_mult: 0
    decay_mult: 0
  }
  param {
    lr_mult: 0
    decay_mult: 0
  }
  param {
    lr_mult: 0
    decay_mult: 0
  }
}
layer {
  name: "conv1_2/scale"
  type: "Scale"
  bottom: "conv1_2/bn"
  top: "conv1_2/bn"
  scale_param {
    filler {
      value: 1
    }
    bias_term: true
    bias_filler {
      value: 0
    }
  }
}
layer {
  name: "relu1_2"
  type: "ReLU"
  bottom: "conv1_2/bn"
  top: "conv1_2/bn"
}
layer {
  name: "conv1_2"
  type: "Convolution"
  bottom: "conv1_2/bn"
  top: "conv1_2"
  convolution_param {
    num_output: 12
    bias_term: false
    pad: 1
    kernel_size: 3
    stride: 1
    weight_filler {
      type: "msra"
    }
    bias_filler {
      type: "constant"
    }
    engine: CUDNN
  }
}
layer {
  name: "concat1_2"
  type: "Concat"
  bottom: "concat1_1"
  bottom: "conv1_2"
  top: "concat1_2"
  concat_param {
    axis: 1
  }
}
layer {
  name: "conv1_3/bn"
  type: "BatchNorm"
  bottom: "concat1_2"
  top: "conv1_3/bn"
  param {
    lr_mult: 0
    decay_mult: 0
  }
  param {
    lr_mult: 0
    decay_mult: 0
  }
  param {
    lr_mult: 0
    decay_mult: 0
  }
}
layer {
  name: "conv1_3/scale"
  type: "Scale"
  bottom: "conv1_3/bn"
  top: "conv1_3/bn"
  scale_param {
    filler {
      value: 1
    }
    bias_term: true
    bias_filler {
      value: 0
    }
  }
}
layer {
  name: "relu1_3"
  type: "ReLU"
  bottom: "conv1_3/bn"
  top: "conv1_3/bn"
}
layer {
  name: "conv1_3"
  type: "Convolution"
  bottom: "conv1_3/bn"
  top: "conv1_3"
  convolution_param {
    num_output: 12
    bias_term: false
    pad: 1
    kernel_size: 3
    stride: 1
    weight_filler {
      type: "msra"
    }
    bias_filler {
      type: "constant"
    }
    engine: CUDNN
  }
}
layer {
  name: "concat1_3"
  type: "Concat"
  bottom: "concat1_2"
  bottom: "conv1_3"
  top: "concat1_3"
  concat_param {
    axis: 1
  }
}
layer {
  name: "conv1_4/bn"
  type: "BatchNorm"
  bottom: "concat1_3"
  top: "conv1_4/bn"
  param {
    lr_mult: 0
    decay_mult: 0
  }
  param {
    lr_mult: 0
    decay_mult: 0
  }
  param {
    lr_mult: 0
    decay_mult: 0
  }
}
layer {
  name: "conv1_4/scale"
  type: "Scale"
  bottom: "conv1_4/bn"
  top: "conv1_4/bn"
  scale_param {
    filler {
      value: 1
    }
    bias_term: true
    bias_filler {
      value: 0
    }
  }
}
layer {
  name: "relu1_4"
  type: "ReLU"
  bottom: "conv1_4/bn"
  top: "conv1_4/bn"
}
layer {
  name: "conv1_4"
  type: "Convolution"
  bottom: "conv1_4/bn"
  top: "conv1_4"
  convolution_param {
    num_output: 12
    bias_term: false
    pad: 1
    kernel_size: 3
    stride: 1
    weight_filler {
      type: "msra"
    }
    bias_filler {
      type: "constant"
    }
    engine: CUDNN
  }
}
layer {
  name: "concat1_4"
  type: "Concat"
  bottom: "concat1_3"
  bottom: "conv1_4"
  top: "concat1_4"
  concat_param {
    axis: 1
  }
}
layer {
  name: "BatchNorm2"
  type: "BatchNorm"
  bottom: "concat1_4"
  top: "BatchNorm2"
  param {
    lr_mult: 0
    decay_mult: 0
  }
  param {
    lr_mult: 0
    decay_mult: 0
  }
  param {
    lr_mult: 0
    decay_mult: 0
  }
}
layer {
  name: "Scale2"
  type: "Scale"
  bottom: "BatchNorm2"
  top: "BatchNorm2"
  scale_param {
    filler {
      value: 1
    }
    bias_term: true
    bias_filler {
      value: 0
    }
  }
}
layer {
  name: "ReLU2"
  type: "ReLU"
  bottom: "BatchNorm2"
  top: "BatchNorm2"
}
layer {
  name: "conv1_blk"
  type: "Convolution"
  bottom: "BatchNorm2"
  top: "conv1_blk"
  convolution_param {
    num_output: 128
    bias_term: false
    pad: 0
    kernel_size: 1
    stride: 1
    weight_filler {
      type: "msra"
    }
    bias_filler {
      type: "constant"
    }
    engine: CUDNN
  }
}
layer {
  name: "pool1"
  type: "Pooling"
  bottom: "conv1_blk"
  top: "pool1"
  pooling_param {
    pool: AVE
    kernel_size: 2
    stride: 2
  }
}
layer {
  name: "conv2_0/bn"
  type: "BatchNorm"
  bottom: "pool1"
  top: "conv2_0/bn"
  param {
    lr_mult: 0
    decay_mult: 0
  }
  param {
    lr_mult: 0
    decay_mult: 0
  }
  param {
    lr_mult: 0
    decay_mult: 0
  }
}
layer {
  name: "conv2_0/scale"
  type: "Scale"
  bottom: "conv2_0/bn"
  top: "conv2_0/bn"
  scale_param {
    filler {
      value: 1
    }
    bias_term: true
    bias_filler {
      value: 0
    }
  }
}
layer {
  name: "relu2_0"
  type: "ReLU"
  bottom: "conv2_0/bn"
  top: "conv2_0/bn"
}
layer {
  name: "conv2_0"
  type: "Convolution"
  bottom: "conv2_0/bn"
  top: "conv2_0"
  convolution_param {
    num_output: 12
    bias_term: false
    pad: 1
    kernel_size: 3
    stride: 1
    weight_filler {
      type: "msra"
    }
    bias_filler {
      type: "constant"
    }
    engine: CUDNN
  }
}
layer {
  name: "concat2_0"
  type: "Concat"
  bottom: "pool1"
  bottom: "conv2_0"
  top: "concat2_0"
  concat_param {
    axis: 1
  }
}
layer {
  name: "conv2_1/bn"
  type: "BatchNorm"
  bottom: "concat2_0"
  top: "conv2_1/bn"
  param {
    lr_mult: 0
    decay_mult: 0
  }
  param {
    lr_mult: 0
    decay_mult: 0
  }
  param {
    lr_mult: 0
    decay_mult: 0
  }
}
layer {
  name: "conv2_1/scale"
  type: "Scale"
  bottom: "conv2_1/bn"
  top: "conv2_1/bn"
  scale_param {
    filler {
      value: 1
    }
    bias_term: true
    bias_filler {
      value: 0
    }
  }
}
layer {
  name: "relu2_1"
  type: "ReLU"
  bottom: "conv2_1/bn"
  top: "conv2_1/bn"
}
layer {
  name: "conv2_1"
  type: "Convolution"
  bottom: "conv2_1/bn"
  top: "conv2_1"
  convolution_param {
    num_output: 12
    bias_term: false
    pad: 1
    kernel_size: 3
    stride: 1
    weight_filler {
      type: "msra"
    }
    bias_filler {
      type: "constant"
    }
    engine: CUDNN
  }
}
layer {
  name: "concat2_1"
  type: "Concat"
  bottom: "concat2_0"
  bottom: "conv2_1"
  top: "concat2_1"
  concat_param {
    axis: 1
  }
}
layer {
  name: "conv2_2/bn"
  type: "BatchNorm"
  bottom: "concat2_1"
  top: "conv2_2/bn"
  param {
    lr_mult: 0
    decay_mult: 0
  }
  param {
    lr_mult: 0
    decay_mult: 0
  }
  param {
    lr_mult: 0
    decay_mult: 0
  }
}
layer {
  name: "conv2_2/scale"
  type: "Scale"
  bottom: "conv2_2/bn"
  top: "conv2_2/bn"
  scale_param {
    filler {
      value: 1
    }
    bias_term: true
    bias_filler {
      value: 0
    }
  }
}
layer {
  name: "relu2_2"
  type: "ReLU"
  bottom: "conv2_2/bn"
  top: "conv2_2/bn"
}
layer {
  name: "conv2_2"
  type: "Convolution"
  bottom: "conv2_2/bn"
  top: "conv2_2"
  convolution_param {
    num_output: 12
    bias_term: false
    pad: 1
    kernel_size: 3
    stride: 1
    weight_filler {
      type: "msra"
    }
    bias_filler {
      type: "constant"
    }
    engine: CUDNN
  }
}
layer {
  name: "concat2_2"
  type: "Concat"
  bottom: "concat2_1"
  bottom: "conv2_2"
  top: "concat2_2"
  concat_param {
    axis: 1
  }
}
layer {
  name: "conv2_3/bn"
  type: "BatchNorm"
  bottom: "concat2_2"
  top: "conv2_3/bn"
  param {
    lr_mult: 0
    decay_mult: 0
  }
  param {
    lr_mult: 0
    decay_mult: 0
  }
  param {
    lr_mult: 0
    decay_mult: 0
  }
}
layer {
  name: "conv2_3/scale"
  type: "Scale"
  bottom: "conv2_3/bn"
  top: "conv2_3/bn"
  scale_param {
    filler {
      value: 1
    }
    bias_term: true
    bias_filler {
      value: 0
    }
  }
}
layer {
  name: "relu2_3"
  type: "ReLU"
  bottom: "conv2_3/bn"
  top: "conv2_3/bn"
}
layer {
  name: "conv2_3"
  type: "Convolution"
  bottom: "conv2_3/bn"
  top: "conv2_3"
  convolution_param {
    num_output: 12
    bias_term: false
    pad: 1
    kernel_size: 3
    stride: 1
    weight_filler {
      type: "msra"
    }
    bias_filler {
      type: "constant"
    }
    engine: CUDNN
  }
}
layer {
  name: "concat2_3"
  type: "Concat"
  bottom: "concat2_2"
  bottom: "conv2_3"
  top: "concat2_3"
  concat_param {
    axis: 1
  }
}
layer {
  name: "conv2_4/bn"
  type: "BatchNorm"
  bottom: "concat2_3"
  top: "conv2_4/bn"
  param {
    lr_mult: 0
    decay_mult: 0
  }
  param {
    lr_mult: 0
    decay_mult: 0
  }
  param {
    lr_mult: 0
    decay_mult: 0
  }
}
layer {
  name: "conv2_4/scale"
  type: "Scale"
  bottom: "conv2_4/bn"
  top: "conv2_4/bn"
  scale_param {
    filler {
      value: 1
    }
    bias_term: true
    bias_filler {
      value: 0
    }
  }
}
layer {
  name: "relu2_4"
  type: "ReLU"
  bottom: "conv2_4/bn"
  top: "conv2_4/bn"
}
layer {
  name: "conv2_4"
  type: "Convolution"
  bottom: "conv2_4/bn"
  top: "conv2_4"
  convolution_param {
    num_output: 12
    bias_term: false
    pad: 1
    kernel_size: 3
    stride: 1
    weight_filler {
      type: "msra"
    }
    bias_filler {
      type: "constant"
    }
    engine: CUDNN
  }
}
layer {
  name: "concat2_4"
  type: "Concat"
  bottom: "concat2_3"
  bottom: "conv2_4"
  top: "concat2_4"
  concat_param {
    axis: 1
  }
}
layer {
  name: "conv2_5/bn"
  type: "BatchNorm"
  bottom: "concat2_4"
  top: "conv2_5/bn"
  param {
    lr_mult: 0
    decay_mult: 0
  }
  param {
    lr_mult: 0
    decay_mult: 0
  }
  param {
    lr_mult: 0
    decay_mult: 0
  }
}
layer {
  name: "conv2_5/scale"
  type: "Scale"
  bottom: "conv2_5/bn"
  top: "conv2_5/bn"
  scale_param {
    filler {
      value: 1
    }
    bias_term: true
    bias_filler {
      value: 0
    }
  }
}
layer {
  name: "relu2_5"
  type: "ReLU"
  bottom: "conv2_5/bn"
  top: "conv2_5/bn"
}
layer {
  name: "conv2_5"
  type: "Convolution"
  bottom: "conv2_5/bn"
  top: "conv2_5"
  convolution_param {
    num_output: 12
    bias_term: false
    pad: 1
    kernel_size: 3
    stride: 1
    weight_filler {
      type: "msra"
    }
    bias_filler {
      type: "constant"
    }
    engine: CUDNN
  }
}
layer {
  name: "concat2_5"
  type: "Concat"
  bottom: "concat2_4"
  bottom: "conv2_5"
  top: "concat2_5"
  concat_param {
    axis: 1
  }
}
layer {
  name: "conv2_6/bn"
  type: "BatchNorm"
  bottom: "concat2_5"
  top: "conv2_6/bn"
  param {
    lr_mult: 0
    decay_mult: 0
  }
  param {
    lr_mult: 0
    decay_mult: 0
  }
  param {
    lr_mult: 0
    decay_mult: 0
  }
}
layer {
  name: "conv2_6/scale"
  type: "Scale"
  bottom: "conv2_6/bn"
  top: "conv2_6/bn"
  scale_param {
    filler {
      value: 1
    }
    bias_term: true
    bias_filler {
      value: 0
    }
  }
}
layer {
  name: "relu2_6"
  type: "ReLU"
  bottom: "conv2_6/bn"
  top: "conv2_6/bn"
}
layer {
  name: "conv2_6"
  type: "Convolution"
  bottom: "conv2_6/bn"
  top: "conv2_6"
  convolution_param {
    num_output: 12
    bias_term: false
    pad: 1
    kernel_size: 3
    stride: 1
    weight_filler {
      type: "msra"
    }
    bias_filler {
      type: "constant"
    }
    engine: CUDNN
  }
}
layer {
  name: "concat2_6"
  type: "Concat"
  bottom: "concat2_5"
  bottom: "conv2_6"
  top: "concat2_6"
  concat_param {
    axis: 1
  }
}
layer {
  name: "conv2_7/bn"
  type: "BatchNorm"
  bottom: "concat2_6"
  top: "conv2_7/bn"
  param {
    lr_mult: 0
    decay_mult: 0
  }
  param {
    lr_mult: 0
    decay_mult: 0
  }
  param {
    lr_mult: 0
    decay_mult: 0
  }
}
layer {
  name: "conv2_7/scale"
  type: "Scale"
  bottom: "conv2_7/bn"
  top: "conv2_7/bn"
  scale_param {
    filler {
      value: 1
    }
    bias_term: true
    bias_filler {
      value: 0
    }
  }
}
layer {
  name: "relu2_7"
  type: "ReLU"
  bottom: "conv2_7/bn"
  top: "conv2_7/bn"
}
layer {
  name: "conv2_7"
  type: "Convolution"
  bottom: "conv2_7/bn"
  top: "conv2_7"
  convolution_param {
    num_output: 12
    bias_term: false
    pad: 1
    kernel_size: 3
    stride: 1
    weight_filler {
      type: "msra"
    }
    bias_filler {
      type: "constant"
    }
    engine: CUDNN
  }
}
layer {
  name: "concat2_7"
  type: "Concat"
  bottom: "concat2_6"
  bottom: "conv2_7"
  top: "concat2_7"
  concat_param {
    axis: 1
  }
}
layer {
  name: "conv2_8/bn"
  type: "BatchNorm"
  bottom: "concat2_7"
  top: "conv2_8/bn"
  param {
    lr_mult: 0
    decay_mult: 0
  }
  param {
    lr_mult: 0
    decay_mult: 0
  }
  param {
    lr_mult: 0
    decay_mult: 0
  }
}
layer {
  name: "conv2_8/scale"
  type: "Scale"
  bottom: "conv2_8/bn"
  top: "conv2_8/bn"
  scale_param {
    filler {
      value: 1
    }
    bias_term: true
    bias_filler {
      value: 0
    }
  }
}
layer {
  name: "relu2_8"
  type: "ReLU"
  bottom: "conv2_8/bn"
  top: "conv2_8/bn"
}
layer {
  name: "conv2_8"
  type: "Convolution"
  bottom: "conv2_8/bn"
  top: "conv2_8"
  convolution_param {
    num_output: 12
    bias_term: false
    pad: 1
    kernel_size: 3
    stride: 1
    weight_filler {
      type: "msra"
    }
    bias_filler {
      type: "constant"
    }
    engine: CUDNN
  }
}
layer {
  name: "concat2_8"
  type: "Concat"
  bottom: "concat2_7"
  bottom: "conv2_8"
  top: "concat2_8"
  concat_param {
    axis: 1
  }
}
layer {
  name: "conv2_9/bn"
  type: "BatchNorm"
  bottom: "concat2_8"
  top: "conv2_9/bn"
  param {
    lr_mult: 0
    decay_mult: 0
  }
  param {
    lr_mult: 0
    decay_mult: 0
  }
  param {
    lr_mult: 0
    decay_mult: 0
  }
}
layer {
  name: "conv2_9/scale"
  type: "Scale"
  bottom: "conv2_9/bn"
  top: "conv2_9/bn"
  scale_param {
    filler {
      value: 1
    }
    bias_term: true
    bias_filler {
      value: 0
    }
  }
}
layer {
  name: "relu2_9"
  type: "ReLU"
  bottom: "conv2_9/bn"
  top: "conv2_9/bn"
}
layer {
  name: "conv2_9"
  type: "Convolution"
  bottom: "conv2_9/bn"
  top: "conv2_9"
  convolution_param {
    num_output: 12
    bias_term: false
    pad: 1
    kernel_size: 3
    stride: 1
    weight_filler {
      type: "msra"
    }
    bias_filler {
      type: "constant"
    }
    engine: CUDNN
  }
}
layer {
  name: "concat2_9"
  type: "Concat"
  bottom: "concat2_8"
  bottom: "conv2_9"
  top: "concat2_9"
  concat_param {
    axis: 1
  }
}
layer {
  name: "conv2_10/bn"
  type: "BatchNorm"
  bottom: "concat2_9"
  top: "conv2_10/bn"
  param {
    lr_mult: 0
    decay_mult: 0
  }
  param {
    lr_mult: 0
    decay_mult: 0
  }
  param {
    lr_mult: 0
    decay_mult: 0
  }
}
layer {
  name: "conv2_10/scale"
  type: "Scale"
  bottom: "conv2_10/bn"
  top: "conv2_10/bn"
  scale_param {
    filler {
      value: 1
    }
    bias_term: true
    bias_filler {
      value: 0
    }
  }
}
layer {
  name: "relu2_10"
  type: "ReLU"
  bottom: "conv2_10/bn"
  top: "conv2_10/bn"
}
layer {
  name: "conv2_10"
  type: "Convolution"
  bottom: "conv2_10/bn"
  top: "conv2_10"
  convolution_param {
    num_output: 12
    bias_term: false
    pad: 1
    kernel_size: 3
    stride: 1
    weight_filler {
      type: "msra"
    }
    bias_filler {
      type: "constant"
    }
    engine: CUDNN
  }
}
layer {
  name: "concat2_10"
  type: "Concat"
  bottom: "concat2_9"
  bottom: "conv2_10"
  top: "concat2_10"
  concat_param {
    axis: 1
  }
}
layer {
  name: "conv2_11/bn"
  type: "BatchNorm"
  bottom: "concat2_10"
  top: "conv2_11/bn"
  param {
    lr_mult: 0
    decay_mult: 0
  }
  param {
    lr_mult: 0
    decay_mult: 0
  }
  param {
    lr_mult: 0
    decay_mult: 0
  }
}
layer {
  name: "conv2_11/scale"
  type: "Scale"
  bottom: "conv2_11/bn"
  top: "conv2_11/bn"
  scale_param {
    filler {
      value: 1
    }
    bias_term: true
    bias_filler {
      value: 0
    }
  }
}
layer {
  name: "relu2_11"
  type: "ReLU"
  bottom: "conv2_11/bn"
  top: "conv2_11/bn"
}
layer {
  name: "conv2_11"
  type: "Convolution"
  bottom: "conv2_11/bn"
  top: "conv2_11"
  convolution_param {
    num_output: 12
    bias_term: false
    pad: 1
    kernel_size: 3
    stride: 1
    weight_filler {
      type: "msra"
    }
    bias_filler {
      type: "constant"
    }
    engine: CUDNN
  }
}
layer {
  name: "concat2_11"
  type: "Concat"
  bottom: "concat2_10"
  bottom: "conv2_11"
  top: "concat2_11"
  concat_param {
    axis: 1
  }
}
layer {
  name: "conv2_12/bn"
  type: "BatchNorm"
  bottom: "concat2_11"
  top: "conv2_12/bn"
  param {
    lr_mult: 0
    decay_mult: 0
  }
  param {
    lr_mult: 0
    decay_mult: 0
  }
  param {
    lr_mult: 0
    decay_mult: 0
  }
}
layer {
  name: "conv2_12/scale"
  type: "Scale"
  bottom: "conv2_12/bn"
  top: "conv2_12/bn"
  scale_param {
    filler {
      value: 1
    }
    bias_term: true
    bias_filler {
      value: 0
    }
  }
}
layer {
  name: "relu2_12"
  type: "ReLU"
  bottom: "conv2_12/bn"
  top: "conv2_12/bn"
}
layer {
  name: "conv2_12"
  type: "Convolution"
  bottom: "conv2_12/bn"
  top: "conv2_12"
  convolution_param {
    num_output: 12
    bias_term: false
    pad: 1
    kernel_size: 3
    stride: 1
    weight_filler {
      type: "msra"
    }
    bias_filler {
      type: "constant"
    }
    engine: CUDNN
  }
}
layer {
  name: "concat2_12"
  type: "Concat"
  bottom: "concat2_11"
  bottom: "conv2_12"
  top: "concat2_12"
  concat_param {
    axis: 1
  }
}
layer {
  name: "conv2_13/bn"
  type: "BatchNorm"
  bottom: "concat2_12"
  top: "conv2_13/bn"
  param {
    lr_mult: 0
    decay_mult: 0
  }
  param {
    lr_mult: 0
    decay_mult: 0
  }
  param {
    lr_mult: 0
    decay_mult: 0
  }
}
layer {
  name: "conv2_13/scale"
  type: "Scale"
  bottom: "conv2_13/bn"
  top: "conv2_13/bn"
  scale_param {
    filler {
      value: 1
    }
    bias_term: true
    bias_filler {
      value: 0
    }
  }
}
layer {
  name: "relu2_13"
  type: "ReLU"
  bottom: "conv2_13/bn"
  top: "conv2_13/bn"
}
layer {
  name: "conv2_13"
  type: "Convolution"
  bottom: "conv2_13/bn"
  top: "conv2_13"
  convolution_param {
    num_output: 12
    bias_term: false
    pad: 1
    kernel_size: 3
    stride: 1
    weight_filler {
      type: "msra"
    }
    bias_filler {
      type: "constant"
    }
    engine: CUDNN
  }
}
layer {
  name: "concat2_13"
  type: "Concat"
  bottom: "concat2_12"
  bottom: "conv2_13"
  top: "concat2_13"
  concat_param {
    axis: 1
  }
}
layer {
  name: "conv2_14/bn"
  type: "BatchNorm"
  bottom: "concat2_13"
  top: "conv2_14/bn"
  param {
    lr_mult: 0
    decay_mult: 0
  }
  param {
    lr_mult: 0
    decay_mult: 0
  }
  param {
    lr_mult: 0
    decay_mult: 0
  }
}
layer {
  name: "conv2_14/scale"
  type: "Scale"
  bottom: "conv2_14/bn"
  top: "conv2_14/bn"
  scale_param {
    filler {
      value: 1
    }
    bias_term: true
    bias_filler {
      value: 0
    }
  }
}
layer {
  name: "relu2_14"
  type: "ReLU"
  bottom: "conv2_14/bn"
  top: "conv2_14/bn"
}
layer {
  name: "conv2_14"
  type: "Convolution"
  bottom: "conv2_14/bn"
  top: "conv2_14"
  convolution_param {
    num_output: 12
    bias_term: false
    pad: 1
    kernel_size: 3
    stride: 1
    weight_filler {
      type: "msra"
    }
    bias_filler {
      type: "constant"
    }
    engine: CUDNN
  }
}
layer {
  name: "concat2_14"
  type: "Concat"
  bottom: "concat2_13"
  bottom: "conv2_14"
  top: "concat2_14"
  concat_param {
    axis: 1
  }
}
layer {
  name: "conv2_15/bn"
  type: "BatchNorm"
  bottom: "concat2_14"
  top: "conv2_15/bn"
  param {
    lr_mult: 0
    decay_mult: 0
  }
  param {
    lr_mult: 0
    decay_mult: 0
  }
  param {
    lr_mult: 0
    decay_mult: 0
  }
}
layer {
  name: "conv2_15/scale"
  type: "Scale"
  bottom: "conv2_15/bn"
  top: "conv2_15/bn"
  scale_param {
    filler {
      value: 1
    }
    bias_term: true
    bias_filler {
      value: 0
    }
  }
}
layer {
  name: "relu2_15"
  type: "ReLU"
  bottom: "conv2_15/bn"
  top: "conv2_15/bn"
}
layer {
  name: "conv2_15"
  type: "Convolution"
  bottom: "conv2_15/bn"
  top: "conv2_15"
  convolution_param {
    num_output: 12
    bias_term: false
    pad: 1
    kernel_size: 3
    stride: 1
    weight_filler {
      type: "msra"
    }
    bias_filler {
      type: "constant"
    }
    engine: CUDNN
  }
}
layer {
  name: "concat2_15"
  type: "Concat"
  bottom: "concat2_14"
  bottom: "conv2_15"
  top: "concat2_15"
  concat_param {
    axis: 1
  }
}
layer {
  name: "conv2_16/bn"
  type: "BatchNorm"
  bottom: "concat2_15"
  top: "conv2_16/bn"
  param {
    lr_mult: 0
    decay_mult: 0
  }
  param {
    lr_mult: 0
    decay_mult: 0
  }
  param {
    lr_mult: 0
    decay_mult: 0
  }
}
layer {
  name: "conv2_16/scale"
  type: "Scale"
  bottom: "conv2_16/bn"
  top: "conv2_16/bn"
  scale_param {
    filler {
      value: 1
    }
    bias_term: true
    bias_filler {
      value: 0
    }
  }
}
layer {
  name: "relu2_16"
  type: "ReLU"
  bottom: "conv2_16/bn"
  top: "conv2_16/bn"
}
layer {
  name: "conv2_16"
  type: "Convolution"
  bottom: "conv2_16/bn"
  top: "conv2_16"
  convolution_param {
    num_output: 12
    bias_term: false
    pad: 1
    kernel_size: 3
    stride: 1
    weight_filler {
      type: "msra"
    }
    bias_filler {
      type: "constant"
    }
    engine: CUDNN
  }
}
layer {
  name: "concat2_16"
  type: "Concat"
  bottom: "concat2_15"
  bottom: "conv2_16"
  top: "concat2_16"
  concat_param {
    axis: 1
  }
}
layer {
  name: "conv2_17/bn"
  type: "BatchNorm"
  bottom: "concat2_16"
  top: "conv2_17/bn"
  param {
    lr_mult: 0
    decay_mult: 0
  }
  param {
    lr_mult: 0
    decay_mult: 0
  }
  param {
    lr_mult: 0
    decay_mult: 0
  }
}
layer {
  name: "conv2_17/scale"
  type: "Scale"
  bottom: "conv2_17/bn"
  top: "conv2_17/bn"
  scale_param {
    filler {
      value: 1
    }
    bias_term: true
    bias_filler {
      value: 0
    }
  }
}
layer {
  name: "relu2_17"
  type: "ReLU"
  bottom: "conv2_17/bn"
  top: "conv2_17/bn"
}
layer {
  name: "conv2_17"
  type: "Convolution"
  bottom: "conv2_17/bn"
  top: "conv2_17"
  convolution_param {
    num_output: 12
    bias_term: false
    pad: 1
    kernel_size: 3
    stride: 1
    weight_filler {
      type: "msra"
    }
    bias_filler {
      type: "constant"
    }
    engine: CUDNN
  }
}
layer {
  name: "concat2_17"
  type: "Concat"
  bottom: "concat2_16"
  bottom: "conv2_17"
  top: "concat2_17"
  concat_param {
    axis: 1
  }
}
layer {
  name: "conv2_18/bn"
  type: "BatchNorm"
  bottom: "concat2_17"
  top: "conv2_18/bn"
  param {
    lr_mult: 0
    decay_mult: 0
  }
  param {
    lr_mult: 0
    decay_mult: 0
  }
  param {
    lr_mult: 0
    decay_mult: 0
  }
}
layer {
  name: "conv2_18/scale"
  type: "Scale"
  bottom: "conv2_18/bn"
  top: "conv2_18/bn"
  scale_param {
    filler {
      value: 1
    }
    bias_term: true
    bias_filler {
      value: 0
    }
  }
}
layer {
  name: "relu2_18"
  type: "ReLU"
  bottom: "conv2_18/bn"
  top: "conv2_18/bn"
}
layer {
  name: "conv2_18"
  type: "Convolution"
  bottom: "conv2_18/bn"
  top: "conv2_18"
  convolution_param {
    num_output: 12
    bias_term: false
    pad: 1
    kernel_size: 3
    stride: 1
    weight_filler {
      type: "msra"
    }
    bias_filler {
      type: "constant"
    }
    engine: CUDNN
  }
}
layer {
  name: "concat2_18"
  type: "Concat"
  bottom: "concat2_17"
  bottom: "conv2_18"
  top: "concat2_18"
  concat_param {
    axis: 1
  }
}
layer {
  name: "conv2_19/bn"
  type: "BatchNorm"
  bottom: "concat2_18"
  top: "conv2_19/bn"
  param {
    lr_mult: 0
    decay_mult: 0
  }
  param {
    lr_mult: 0
    decay_mult: 0
  }
  param {
    lr_mult: 0
    decay_mult: 0
  }
}
layer {
  name: "conv2_19/scale"
  type: "Scale"
  bottom: "conv2_19/bn"
  top: "conv2_19/bn"
  scale_param {
    filler {
      value: 1
    }
    bias_term: true
    bias_filler {
      value: 0
    }
  }
}
layer {
  name: "relu2_19"
  type: "ReLU"
  bottom: "conv2_19/bn"
  top: "conv2_19/bn"
}
layer {
  name: "conv2_19"
  type: "Convolution
I1207 20:50:32.105760 23331 layer_factory.hpp:77] Creating layer word_images
I1207 20:50:32.105854 23331 db_lmdb.cpp:35] Opened lmdb /data/fwolf/min26/gw_cv1_nti500000_pul2-3-4-5_train_word_images_lmdb
I1207 20:50:32.105892 23331 net.cpp:84] Creating Layer word_images
I1207 20:50:32.105901 23331 net.cpp:380] word_images -> word_images
I1207 20:50:32.105919 23331 net.cpp:380] word_images -> label
I1207 20:50:32.107151 23331 data_layer.cpp:44] output data size: 1,1,72,422
I1207 20:50:32.112573 23331 net.cpp:122] Setting up word_images
I1207 20:50:32.112607 23331 net.cpp:129] Top shape: 1 1 72 422 (30384)
I1207 20:50:32.112613 23331 net.cpp:129] Top shape: 1 (1)
I1207 20:50:32.112617 23331 net.cpp:137] Memory required for data: 121540
I1207 20:50:32.112624 23331 layer_factory.hpp:77] Creating layer phocs
I1207 20:50:32.112694 23331 db_lmdb.cpp:35] Opened lmdb /data/fwolf/min26/gw_cv1_nti500000_pul2-3-4-5_train_phocs_lmdb
I1207 20:50:32.112732 23331 net.cpp:84] Creating Layer phocs
I1207 20:50:32.112740 23331 net.cpp:380] phocs -> phocs
I1207 20:50:32.112753 23331 net.cpp:380] phocs -> label_phocs
I1207 20:50:32.113255 23331 data_layer.cpp:44] output data size: 1,1,1,604
I1207 20:50:32.161675 23331 net.cpp:122] Setting up phocs
I1207 20:50:32.161725 23331 net.cpp:129] Top shape: 1 1 1 604 (604)
I1207 20:50:32.161736 23331 net.cpp:129] Top shape: 1 (1)
I1207 20:50:32.161748 23331 net.cpp:137] Memory required for data: 123960
I1207 20:50:32.161758 23331 layer_factory.hpp:77] Creating layer conv_init
I1207 20:50:32.161789 23331 net.cpp:84] Creating Layer conv_init
I1207 20:50:32.161800 23331 net.cpp:406] conv_init <- word_images
I1207 20:50:32.161815 23331 net.cpp:380] conv_init -> conv_init
I1207 20:50:33.523156 23331 net.cpp:122] Setting up conv_init
I1207 20:50:33.523191 23331 net.cpp:129] Top shape: 1 32 72 422 (972288)
I1207 20:50:33.523196 23331 net.cpp:137] Memory required for data: 4013112
I1207 20:50:33.523211 23331 layer_factory.hpp:77] Creating layer conv_init_conv_init_0_split
I1207 20:50:33.523224 23331 net.cpp:84] Creating Layer conv_init_conv_init_0_split
I1207 20:50:33.523231 23331 net.cpp:406] conv_init_conv_init_0_split <- conv_init
I1207 20:50:33.523238 23331 net.cpp:380] conv_init_conv_init_0_split -> conv_init_conv_init_0_split_0
I1207 20:50:33.523250 23331 net.cpp:380] conv_init_conv_init_0_split -> conv_init_conv_init_0_split_1
I1207 20:50:33.523313 23331 net.cpp:122] Setting up conv_init_conv_init_0_split
I1207 20:50:33.523321 23331 net.cpp:129] Top shape: 1 32 72 422 (972288)
I1207 20:50:33.523327 23331 net.cpp:129] Top shape: 1 32 72 422 (972288)
I1207 20:50:33.523331 23331 net.cpp:137] Memory required for data: 11791416
I1207 20:50:33.523335 23331 layer_factory.hpp:77] Creating layer conv0_0/bn
I1207 20:50:33.523345 23331 net.cpp:84] Creating Layer conv0_0/bn
I1207 20:50:33.523350 23331 net.cpp:406] conv0_0/bn <- conv_init_conv_init_0_split_0
I1207 20:50:33.523356 23331 net.cpp:380] conv0_0/bn -> conv0_0/bn
I1207 20:50:33.523766 23331 net.cpp:122] Setting up conv0_0/bn
I1207 20:50:33.523777 23331 net.cpp:129] Top shape: 1 32 72 422 (972288)
I1207 20:50:33.523780 23331 net.cpp:137] Memory required for data: 15680568
I1207 20:50:33.523793 23331 layer_factory.hpp:77] Creating layer conv0_0/scale
I1207 20:50:33.523803 23331 net.cpp:84] Creating Layer conv0_0/scale
I1207 20:50:33.523808 23331 net.cpp:406] conv0_0/scale <- conv0_0/bn
I1207 20:50:33.523814 23331 net.cpp:367] conv0_0/scale -> conv0_0/bn (in-place)
I1207 20:50:33.523882 23331 layer_factory.hpp:77] Creating layer conv0_0/scale
I1207 20:50:33.524128 23331 net.cpp:122] Setting up conv0_0/scale
I1207 20:50:33.524137 23331 net.cpp:129] Top shape: 1 32 72 422 (972288)
I1207 20:50:33.524142 23331 net.cpp:137] Memory required for data: 19569720
I1207 20:50:33.524152 23331 layer_factory.hpp:77] Creating layer relu0_0
I1207 20:50:33.524159 23331 net.cpp:84] Creating Layer relu0_0
I1207 20:50:33.524163 23331 net.cpp:406] relu0_0 <- conv0_0/bn
I1207 20:50:33.524169 23331 net.cpp:367] relu0_0 -> conv0_0/bn (in-place)
I1207 20:50:33.524574 23331 net.cpp:122] Setting up relu0_0
I1207 20:50:33.524586 23331 net.cpp:129] Top shape: 1 32 72 422 (972288)
I1207 20:50:33.524591 23331 net.cpp:137] Memory required for data: 23458872
I1207 20:50:33.524595 23331 layer_factory.hpp:77] Creating layer conv0_0
I1207 20:50:33.524608 23331 net.cpp:84] Creating Layer conv0_0
I1207 20:50:33.524613 23331 net.cpp:406] conv0_0 <- conv0_0/bn
I1207 20:50:33.524621 23331 net.cpp:380] conv0_0 -> conv0_0
I1207 20:50:33.526826 23331 net.cpp:122] Setting up conv0_0
I1207 20:50:33.526844 23331 net.cpp:129] Top shape: 1 12 72 422 (364608)
I1207 20:50:33.526847 23331 net.cpp:137] Memory required for data: 24917304
I1207 20:50:33.526855 23331 layer_factory.hpp:77] Creating layer concat0_0
I1207 20:50:33.526865 23331 net.cpp:84] Creating Layer concat0_0
I1207 20:50:33.526870 23331 net.cpp:406] concat0_0 <- conv_init_conv_init_0_split_1
I1207 20:50:33.526875 23331 net.cpp:406] concat0_0 <- conv0_0
I1207 20:50:33.526882 23331 net.cpp:380] concat0_0 -> concat0_0
I1207 20:50:33.526923 23331 net.cpp:122] Setting up concat0_0
I1207 20:50:33.526932 23331 net.cpp:129] Top shape: 1 44 72 422 (1336896)
I1207 20:50:33.526935 23331 net.cpp:137] Memory required for data: 30264888
I1207 20:50:33.526939 23331 layer_factory.hpp:77] Creating layer concat0_0_concat0_0_0_split
I1207 20:50:33.526947 23331 net.cpp:84] Creating Layer concat0_0_concat0_0_0_split
I1207 20:50:33.526957 23331 net.cpp:406] concat0_0_concat0_0_0_split <- concat0_0
I1207 20:50:33.526963 23331 net.cpp:380] concat0_0_concat0_0_0_split -> concat0_0_concat0_0_0_split_0
I1207 20:50:33.526971 23331 net.cpp:380] concat0_0_concat0_0_0_split -> concat0_0_concat0_0_0_split_1
I1207 20:50:33.527030 23331 net.cpp:122] Setting up concat0_0_concat0_0_0_split
I1207 20:50:33.527038 23331 net.cpp:129] Top shape: 1 44 72 422 (1336896)
I1207 20:50:33.527043 23331 net.cpp:129] Top shape: 1 44 72 422 (1336896)
I1207 20:50:33.527047 23331 net.cpp:137] Memory required for data: 40960056
I1207 20:50:33.527051 23331 layer_factory.hpp:77] Creating layer conv0_1/bn
I1207 20:50:33.527058 23331 net.cpp:84] Creating Layer conv0_1/bn
I1207 20:50:33.527063 23331 net.cpp:406] conv0_1/bn <- concat0_0_concat0_0_0_split_0
I1207 20:50:33.527070 23331 net.cpp:380] conv0_1/bn -> conv0_1/bn
I1207 20:50:33.527469 23331 net.cpp:122] Setting up conv0_1/bn
I1207 20:50:33.527478 23331 net.cpp:129] Top shape: 1 44 72 422 (1336896)
I1207 20:50:33.527482 23331 net.cpp:137] Memory required for data: 46307640
I1207 20:50:33.527494 23331 layer_factory.hpp:77] Creating layer conv0_1/scale
I1207 20:50:33.527503 23331 net.cpp:84] Creating Layer conv0_1/scale
I1207 20:50:33.527508 23331 net.cpp:406] conv0_1/scale <- conv0_1/bn
I1207 20:50:33.527514 23331 net.cpp:367] conv0_1/scale -> conv0_1/bn (in-place)
I1207 20:50:33.527580 23331 layer_factory.hpp:77] Creating layer conv0_1/scale
I1207 20:50:33.528519 23331 net.cpp:122] Setting up conv0_1/scale
I1207 20:50:33.528532 23331 net.cpp:129] Top shape: 1 44 72 422 (1336896)
I1207 20:50:33.528537 23331 net.cpp:137] Memory required for data: 51655224
I1207 20:50:33.528545 23331 layer_factory.hpp:77] Creating layer relu0_1
I1207 20:50:33.528553 23331 net.cpp:84] Creating Layer relu0_1
I1207 20:50:33.528558 23331 net.cpp:406] relu0_1 <- conv0_1/bn
I1207 20:50:33.528565 23331 net.cpp:367] relu0_1 -> conv0_1/bn (in-place)
I1207 20:50:33.528777 23331 net.cpp:122] Setting up relu0_1
I1207 20:50:33.528787 23331 net.cpp:129] Top shape: 1 44 72 422 (1336896)
I1207 20:50:33.528791 23331 net.cpp:137] Memory required for data: 57002808
I1207 20:50:33.528796 23331 layer_factory.hpp:77] Creating layer conv0_1
I1207 20:50:33.528808 23331 net.cpp:84] Creating Layer conv0_1
I1207 20:50:33.528813 23331 net.cpp:406] conv0_1 <- conv0_1/bn
I1207 20:50:33.528820 23331 net.cpp:380] conv0_1 -> conv0_1
I1207 20:50:33.531271 23331 net.cpp:122] Setting up conv0_1
I1207 20:50:33.531296 23331 net.cpp:129] Top shape: 1 12 72 422 (364608)
I1207 20:50:33.531299 23331 net.cpp:137] Memory required for data: 58461240
I1207 20:50:33.531308 23331 layer_factory.hpp:77] Creating layer concat0_1
I1207 20:50:33.531318 23331 net.cpp:84] Creating Layer concat0_1
I1207 20:50:33.531323 23331 net.cpp:406] concat0_1 <- concat0_0_concat0_0_0_split_1
I1207 20:50:33.531332 23331 net.cpp:406] concat0_1 <- conv0_1
I1207 20:50:33.531338 23331 net.cpp:380] concat0_1 -> concat0_1
I1207 20:50:33.531386 23331 net.cpp:122] Setting up concat0_1
I1207 20:50:33.531394 23331 net.cpp:129] Top shape: 1 56 72 422 (1701504)
I1207 20:50:33.531399 23331 net.cpp:137] Memory required for data: 65267256
I1207 20:50:33.531402 23331 layer_factory.hpp:77] Creating layer concat0_1_concat0_1_0_split
I1207 20:50:33.531410 23331 net.cpp:84] Creating Layer concat0_1_concat0_1_0_split
I1207 20:50:33.531414 23331 net.cpp:406] concat0_1_concat0_1_0_split <- concat0_1
I1207 20:50:33.531420 23331 net.cpp:380] concat0_1_concat0_1_0_split -> concat0_1_concat0_1_0_split_0
I1207 20:50:33.531428 23331 net.cpp:380] concat0_1_concat0_1_0_split -> concat0_1_concat0_1_0_split_1
I1207 20:50:33.531497 23331 net.cpp:122] Setting up concat0_1_concat0_1_0_split
I1207 20:50:33.531504 23331 net.cpp:129] Top shape: 1 56 72 422 (1701504)
I1207 20:50:33.531510 23331 net.cpp:129] Top shape: 1 56 72 422 (1701504)
I1207 20:50:33.531514 23331 net.cpp:137] Memory required for data: 78879288
I1207 20:50:33.531518 23331 layer_factory.hpp:77] Creating layer conv0_2/bn
I1207 20:50:33.531530 23331 net.cpp:84] Creating Layer conv0_2/bn
I1207 20:50:33.531538 23331 net.cpp:406] conv0_2/bn <- concat0_1_concat0_1_0_split_0
I1207 20:50:33.531545 23331 net.cpp:380] conv0_2/bn -> conv0_2/bn
I1207 20:50:33.531981 23331 net.cpp:122] Setting up conv0_2/bn
I1207 20:50:33.531991 23331 net.cpp:129] Top shape: 1 56 72 422 (1701504)
I1207 20:50:33.531996 23331 net.cpp:137] Memory required for data: 85685304
I1207 20:50:33.532006 23331 layer_factory.hpp:77] Creating layer conv0_2/scale
I1207 20:50:33.532014 23331 net.cpp:84] Creating Layer conv0_2/scale
I1207 20:50:33.532018 23331 net.cpp:406] conv0_2/scale <- conv0_2/bn
I1207 20:50:33.532027 23331 net.cpp:367] conv0_2/scale -> conv0_2/bn (in-place)
I1207 20:50:33.532097 23331 layer_factory.hpp:77] Creating layer conv0_2/scale
I1207 20:50:33.532356 23331 net.cpp:122] Setting up conv0_2/scale
I1207 20:50:33.532364 23331 net.cpp:129] Top shape: 1 56 72 422 (1701504)
I1207 20:50:33.532368 23331 net.cpp:137] Memory required for data: 92491320
I1207 20:50:33.532380 23331 layer_factory.hpp:77] Creating layer relu0_2
I1207 20:50:33.532388 23331 net.cpp:84] Creating Layer relu0_2
I1207 20:50:33.532392 23331 net.cpp:406] relu0_2 <- conv0_2/bn
I1207 20:50:33.532398 23331 net.cpp:367] relu0_2 -> conv0_2/bn (in-place)
I1207 20:50:33.532831 23331 net.cpp:122] Setting up relu0_2
I1207 20:50:33.532843 23331 net.cpp:129] Top shape: 1 56 72 422 (1701504)
I1207 20:50:33.532847 23331 net.cpp:137] Memory required for data: 99297336
I1207 20:50:33.532852 23331 layer_factory.hpp:77] Creating layer conv0_2
I1207 20:50:33.532866 23331 net.cpp:84] Creating Layer conv0_2
I1207 20:50:33.532871 23331 net.cpp:406] conv0_2 <- conv0_2/bn
I1207 20:50:33.532879 23331 net.cpp:380] conv0_2 -> conv0_2
I1207 20:50:33.534538 23331 net.cpp:122] Setting up conv0_2
I1207 20:50:33.534552 23331 net.cpp:129] Top shape: 1 12 72 422 (364608)
I1207 20:50:33.534556 23331 net.cpp:137] Memory required for data: 100755768
I1207 20:50:33.534564 23331 layer_factory.hpp:77] Creating layer concat0_2
I1207 20:50:33.534572 23331 net.cpp:84] Creating Layer concat0_2
I1207 20:50:33.534577 23331 net.cpp:406] concat0_2 <- concat0_1_concat0_1_0_split_1
I1207 20:50:33.534584 23331 net.cpp:406] concat0_2 <- conv0_2
I1207 20:50:33.534591 23331 net.cpp:380] concat0_2 -> concat0_2
I1207 20:50:33.534636 23331 net.cpp:122] Setting up concat0_2
I1207 20:50:33.534643 23331 net.cpp:129] Top shape: 1 68 72 422 (2066112)
I1207 20:50:33.534647 23331 net.cpp:137] Memory required for data: 109020216
I1207 20:50:33.534651 23331 layer_factory.hpp:77] Creating layer BatchNorm1
I1207 20:50:33.534659 23331 net.cpp:84] Creating Layer BatchNorm1
I1207 20:50:33.534664 23331 net.cpp:406] BatchNorm1 <- concat0_2
I1207 20:50:33.534670 23331 net.cpp:380] BatchNorm1 -> BatchNorm1
I1207 20:50:33.535094 23331 net.cpp:122] Setting up BatchNorm1
I1207 20:50:33.535102 23331 net.cpp:129] Top shape: 1 68 72 422 (2066112)
I1207 20:50:33.535106 23331 net.cpp:137] Memory required for data: 117284664
I1207 20:50:33.535115 23331 layer_factory.hpp:77] Creating layer Scale1
I1207 20:50:33.535125 23331 net.cpp:84] Creating Layer Scale1
I1207 20:50:33.535128 23331 net.cpp:406] Scale1 <- BatchNorm1
I1207 20:50:33.535136 23331 net.cpp:367] Scale1 -> BatchNorm1 (in-place)
I1207 20:50:33.535207 23331 layer_factory.hpp:77] Creating layer Scale1
I1207 20:50:33.535464 23331 net.cpp:122] Setting up Scale1
I1207 20:50:33.535472 23331 net.cpp:129] Top shape: 1 68 72 422 (2066112)
I1207 20:50:33.535477 23331 net.cpp:137] Memory required for data: 125549112
I1207 20:50:33.535485 23331 layer_factory.hpp:77] Creating layer ReLU1
I1207 20:50:33.535492 23331 net.cpp:84] Creating Layer ReLU1
I1207 20:50:33.535497 23331 net.cpp:406] ReLU1 <- BatchNorm1
I1207 20:50:33.535503 23331 net.cpp:367] ReLU1 -> BatchNorm1 (in-place)
I1207 20:50:33.535724 23331 net.cpp:122] Setting up ReLU1
I1207 20:50:33.535734 23331 net.cpp:129] Top shape: 1 68 72 422 (2066112)
I1207 20:50:33.535738 23331 net.cpp:137] Memory required for data: 133813560
I1207 20:50:33.535743 23331 layer_factory.hpp:77] Creating layer conv0_blk
I1207 20:50:33.535760 23331 net.cpp:84] Creating Layer conv0_blk
I1207 20:50:33.535769 23331 net.cpp:406] conv0_blk <- BatchNorm1
I1207 20:50:33.535778 23331 net.cpp:380] conv0_blk -> conv0_blk
I1207 20:50:33.537600 23331 net.cpp:122] Setting up conv0_blk
I1207 20:50:33.537616 23331 net.cpp:129] Top shape: 1 68 72 422 (2066112)
I1207 20:50:33.537619 23331 net.cpp:137] Memory required for data: 142078008
I1207 20:50:33.537626 23331 layer_factory.hpp:77] Creating layer pool0
I1207 20:50:33.537636 23331 net.cpp:84] Creating Layer pool0
I1207 20:50:33.537642 23331 net.cpp:406] pool0 <- conv0_blk
I1207 20:50:33.537650 23331 net.cpp:380] pool0 -> pool0
I1207 20:50:33.538102 23331 net.cpp:122] Setting up pool0
I1207 20:50:33.538115 23331 net.cpp:129] Top shape: 1 68 36 211 (516528)
I1207 20:50:33.538120 23331 net.cpp:137] Memory required for data: 144144120
I1207 20:50:33.538123 23331 layer_factory.hpp:77] Creating layer pool0_pool0_0_split
I1207 20:50:33.538132 23331 net.cpp:84] Creating Layer pool0_pool0_0_split
I1207 20:50:33.538136 23331 net.cpp:406] pool0_pool0_0_split <- pool0
I1207 20:50:33.538143 23331 net.cpp:380] pool0_pool0_0_split -> pool0_pool0_0_split_0
I1207 20:50:33.538152 23331 net.cpp:380] pool0_pool0_0_split -> pool0_pool0_0_split_1
I1207 20:50:33.538220 23331 net.cpp:122] Setting up pool0_pool0_0_split
I1207 20:50:33.538228 23331 net.cpp:129] Top shape: 1 68 36 211 (516528)
I1207 20:50:33.538233 23331 net.cpp:129] Top shape: 1 68 36 211 (516528)
I1207 20:50:33.538236 23331 net.cpp:137] Memory required for data: 148276344
I1207 20:50:33.538240 23331 layer_factory.hpp:77] Creating layer conv1_0/bn
I1207 20:50:33.538249 23331 net.cpp:84] Creating Layer conv1_0/bn
I1207 20:50:33.538254 23331 net.cpp:406] conv1_0/bn <- pool0_pool0_0_split_0
I1207 20:50:33.538261 23331 net.cpp:380] conv1_0/bn -> conv1_0/bn
I1207 20:50:33.538673 23331 net.cpp:122] Setting up conv1_0/bn
I1207 20:50:33.538681 23331 net.cpp:129] Top shape: 1 68 36 211 (516528)
I1207 20:50:33.538686 23331 net.cpp:137] Memory required for data: 150342456
I1207 20:50:33.538697 23331 layer_factory.hpp:77] Creating layer conv1_0/scale
I1207 20:50:33.538705 23331 net.cpp:84] Creating Layer conv1_0/scale
I1207 20:50:33.538709 23331 net.cpp:406] conv1_0/scale <- conv1_0/bn
I1207 20:50:33.538717 23331 net.cpp:367] conv1_0/scale -> conv1_0/bn (in-place)
I1207 20:50:33.538786 23331 layer_factory.hpp:77] Creating layer conv1_0/scale
I1207 20:50:33.539023 23331 net.cpp:122] Setting up conv1_0/scale
I1207 20:50:33.539032 23331 net.cpp:129] Top shape: 1 68 36 211 (516528)
I1207 20:50:33.539036 23331 net.cpp:137] Memory required for data: 152408568
I1207 20:50:33.539043 23331 layer_factory.hpp:77] Creating layer relu1_0
I1207 20:50:33.539052 23331 net.cpp:84] Creating Layer relu1_0
I1207 20:50:33.539055 23331 net.cpp:406] relu1_0 <- conv1_0/bn
I1207 20:50:33.539064 23331 net.cpp:367] relu1_0 -> conv1_0/bn (in-place)
I1207 20:50:33.539479 23331 net.cpp:122] Setting up relu1_0
I1207 20:50:33.539492 23331 net.cpp:129] Top shape: 1 68 36 211 (516528)
I1207 20:50:33.539496 23331 net.cpp:137] Memory required for data: 154474680
I1207 20:50:33.539500 23331 layer_factory.hpp:77] Creating layer conv1_0
I1207 20:50:33.539513 23331 net.cpp:84] Creating Layer conv1_0
I1207 20:50:33.539518 23331 net.cpp:406] conv1_0 <- conv1_0/bn
I1207 20:50:33.539527 23331 net.cpp:380] conv1_0 -> conv1_0
I1207 20:50:33.541268 23331 net.cpp:122] Setting up conv1_0
I1207 20:50:33.541283 23331 net.cpp:129] Top shape: 1 12 36 211 (91152)
I1207 20:50:33.541287 23331 net.cpp:137] Memory required for data: 154839288
I1207 20:50:33.541294 23331 layer_factory.hpp:77] Creating layer concat1_0
I1207 20:50:33.541302 23331 net.cpp:84] Creating Layer concat1_0
I1207 20:50:33.541307 23331 net.cpp:406] concat1_0 <- pool0_pool0_0_split_1
I1207 20:50:33.541313 23331 net.cpp:406] concat1_0 <- conv1_0
I1207 20:50:33.541321 23331 net.cpp:380] concat1_0 -> concat1_0
I1207 20:50:33.541368 23331 net.cpp:122] Setting up concat1_0
I1207 20:50:33.541375 23331 net.cpp:129] Top shape: 1 80 36 211 (607680)
I1207 20:50:33.541379 23331 net.cpp:137] Memory required for data: 157270008
I1207 20:50:33.541388 23331 layer_factory.hpp:77] Creating layer concat1_0_concat1_0_0_split
I1207 20:50:33.541399 23331 net.cpp:84] Creating Layer concat1_0_concat1_0_0_split
I1207 20:50:33.541404 23331 net.cpp:406] concat1_0_concat1_0_0_split <- concat1_0
I1207 20:50:33.541410 23331 net.cpp:380] concat1_0_concat1_0_0_split -> concat1_0_concat1_0_0_split_0
I1207 20:50:33.541419 23331 net.cpp:380] concat1_0_concat1_0_0_split -> concat1_0_concat1_0_0_split_1
I1207 20:50:33.541483 23331 net.cpp:122] Setting up concat1_0_concat1_0_0_split
I1207 20:50:33.541491 23331 net.cpp:129] Top shape: 1 80 36 211 (607680)
I1207 20:50:33.541496 23331 net.cpp:129] Top shape: 1 80 36 211 (607680)
I1207 20:50:33.541501 23331 net.cpp:137] Memory required for data: 162131448
I1207 20:50:33.541504 23331 layer_factory.hpp:77] Creating layer conv1_1/bn
I1207 20:50:33.541512 23331 net.cpp:84] Creating Layer conv1_1/bn
I1207 20:50:33.541517 23331 net.cpp:406] conv1_1/bn <- concat1_0_concat1_0_0_split_0
I1207 20:50:33.541524 23331 net.cpp:380] conv1_1/bn -> conv1_1/bn
I1207 20:50:33.541941 23331 net.cpp:122] Setting up conv1_1/bn
I1207 20:50:33.541951 23331 net.cpp:129] Top shape: 1 80 36 211 (607680)
I1207 20:50:33.541955 23331 net.cpp:137] Memory required for data: 164562168
I1207 20:50:33.541970 23331 layer_factory.hpp:77] Creating layer conv1_1/scale
I1207 20:50:33.541980 23331 net.cpp:84] Creating Layer conv1_1/scale
I1207 20:50:33.541985 23331 net.cpp:406] conv1_1/scale <- conv1_1/bn
I1207 20:50:33.541991 23331 net.cpp:367] conv1_1/scale -> conv1_1/bn (in-place)
I1207 20:50:33.542060 23331 layer_factory.hpp:77] Creating layer conv1_1/scale
I1207 20:50:33.542299 23331 net.cpp:122] Setting up conv1_1/scale
I1207 20:50:33.542309 23331 net.cpp:129] Top shape: 1 80 36 211 (607680)
I1207 20:50:33.542313 23331 net.cpp:137] Memory required for data: 166992888
I1207 20:50:33.542320 23331 layer_factory.hpp:77] Creating layer relu1_1
I1207 20:50:33.542328 23331 net.cpp:84] Creating Layer relu1_1
I1207 20:50:33.542333 23331 net.cpp:406] relu1_1 <- conv1_1/bn
I1207 20:50:33.542340 23331 net.cpp:367] relu1_1 -> conv1_1/bn (in-place)
I1207 20:50:33.542582 23331 net.cpp:122] Setting up relu1_1
I1207 20:50:33.542593 23331 net.cpp:129] Top shape: 1 80 36 211 (607680)
I1207 20:50:33.542598 23331 net.cpp:137] Memory required for data: 169423608
I1207 20:50:33.542601 23331 layer_factory.hpp:77] Creating layer conv1_1
I1207 20:50:33.542616 23331 net.cpp:84] Creating Layer conv1_1
I1207 20:50:33.542620 23331 net.cpp:406] conv1_1 <- conv1_1/bn
I1207 20:50:33.542629 23331 net.cpp:380] conv1_1 -> conv1_1
I1207 20:50:33.544684 23331 net.cpp:122] Setting up conv1_1
I1207 20:50:33.544708 23331 net.cpp:129] Top shape: 1 12 36 211 (91152)
I1207 20:50:33.544713 23331 net.cpp:137] Memory required for data: 169788216
I1207 20:50:33.544720 23331 layer_factory.hpp:77] Creating layer concat1_1
I1207 20:50:33.544730 23331 net.cpp:84] Creating Layer concat1_1
I1207 20:50:33.544737 23331 net.cpp:406] concat1_1 <- concat1_0_concat1_0_0_split_1
I1207 20:50:33.544744 23331 net.cpp:406] concat1_1 <- conv1_1
I1207 20:50:33.544750 23331 net.cpp:380] concat1_1 -> concat1_1
I1207 20:50:33.544807 23331 net.cpp:122] Setting up concat1_1
I1207 20:50:33.544816 23331 net.cpp:129] Top shape: 1 92 36 211 (698832)
I1207 20:50:33.544819 23331 net.cpp:137] Memory required for data: 172583544
I1207 20:50:33.544823 23331 layer_factory.hpp:77] Creating layer concat1_1_concat1_1_0_split
I1207 20:50:33.544831 23331 net.cpp:84] Creating Layer concat1_1_concat1_1_0_split
I1207 20:50:33.544836 23331 net.cpp:406] concat1_1_concat1_1_0_split <- concat1_1
I1207 20:50:33.544842 23331 net.cpp:380] concat1_1_concat1_1_0_split -> concat1_1_concat1_1_0_split_0
I1207 20:50:33.544850 23331 net.cpp:380] concat1_1_concat1_1_0_split -> concat1_1_concat1_1_0_split_1
I1207 20:50:33.544919 23331 net.cpp:122] Setting up concat1_1_concat1_1_0_split
I1207 20:50:33.544927 23331 net.cpp:129] Top shape: 1 92 36 211 (698832)
I1207 20:50:33.544934 23331 net.cpp:129] Top shape: 1 92 36 211 (698832)
I1207 20:50:33.544944 23331 net.cpp:137] Memory required for data: 178174200
I1207 20:50:33.544947 23331 layer_factory.hpp:77] Creating layer conv1_2/bn
I1207 20:50:33.544955 23331 net.cpp:84] Creating Layer conv1_2/bn
I1207 20:50:33.544960 23331 net.cpp:406] conv1_2/bn <- concat1_1_concat1_1_0_split_0
I1207 20:50:33.544967 23331 net.cpp:380] conv1_2/bn -> conv1_2/bn
I1207 20:50:33.545409 23331 net.cpp:122] Setting up conv1_2/bn
I1207 20:50:33.545419 23331 net.cpp:129] Top shape: 1 92 36 211 (698832)
I1207 20:50:33.545424 23331 net.cpp:137] Memory required for data: 180969528
I1207 20:50:33.545434 23331 layer_factory.hpp:77] Creating layer conv1_2/scale
I1207 20:50:33.545445 23331 net.cpp:84] Creating Layer conv1_2/scale
I1207 20:50:33.545449 23331 net.cpp:406] conv1_2/scale <- conv1_2/bn
I1207 20:50:33.545457 23331 net.cpp:367] conv1_2/scale -> conv1_2/bn (in-place)
I1207 20:50:33.545532 23331 layer_factory.hpp:77] Creating layer conv1_2/scale
I1207 20:50:33.545774 23331 net.cpp:122] Setting up conv1_2/scale
I1207 20:50:33.545783 23331 net.cpp:129] Top shape: 1 92 36 211 (698832)
I1207 20:50:33.545788 23331 net.cpp:137] Memory required for data: 183764856
I1207 20:50:33.545794 23331 layer_factory.hpp:77] Creating layer relu1_2
I1207 20:50:33.545802 23331 net.cpp:84] Creating Layer relu1_2
I1207 20:50:33.545807 23331 net.cpp:406] relu1_2 <- conv1_2/bn
I1207 20:50:33.545812 23331 net.cpp:367] relu1_2 -> conv1_2/bn (in-place)
I1207 20:50:33.546313 23331 net.cpp:122] Setting up relu1_2
I1207 20:50:33.546326 23331 net.cpp:129] Top shape: 1 92 36 211 (698832)
I1207 20:50:33.546331 23331 net.cpp:137] Memory required for data: 186560184
I1207 20:50:33.546335 23331 layer_factory.hpp:77] Creating layer conv1_2
I1207 20:50:33.546351 23331 net.cpp:84] Creating Layer conv1_2
I1207 20:50:33.546356 23331 net.cpp:406] conv1_2 <- conv1_2/bn
I1207 20:50:33.546365 23331 net.cpp:380] conv1_2 -> conv1_2
I1207 20:50:33.548704 23331 net.cpp:122] Setting up conv1_2
I1207 20:50:33.548738 23331 net.cpp:129] Top shape: 1 12 36 211 (91152)
I1207 20:50:33.548743 23331 net.cpp:137] Memory required for data: 186924792
I1207 20:50:33.548753 23331 layer_factory.hpp:77] Creating layer concat1_2
I1207 20:50:33.548768 23331 net.cpp:84] Creating Layer concat1_2
I1207 20:50:33.548775 23331 net.cpp:406] concat1_2 <- concat1_1_concat1_1_0_split_1
I1207 20:50:33.548784 23331 net.cpp:406] concat1_2 <- conv1_2
I1207 20:50:33.548790 23331 net.cpp:380] concat1_2 -> concat1_2
I1207 20:50:33.548846 23331 net.cpp:122] Setting up concat1_2
I1207 20:50:33.548854 23331 net.cpp:129] Top shape: 1 104 36 211 (789984)
I1207 20:50:33.548858 23331 net.cpp:137] Memory required for data: 190084728
I1207 20:50:33.548862 23331 layer_factory.hpp:77] Creating layer concat1_2_concat1_2_0_split
I1207 20:50:33.548871 23331 net.cpp:84] Creating Layer concat1_2_concat1_2_0_split
I1207 20:50:33.548876 23331 net.cpp:406] concat1_2_concat1_2_0_split <- concat1_2
I1207 20:50:33.548882 23331 net.cpp:380] concat1_2_concat1_2_0_split -> concat1_2_concat1_2_0_split_0
I1207 20:50:33.548888 23331 net.cpp:380] concat1_2_concat1_2_0_split -> concat1_2_concat1_2_0_split_1
I1207 20:50:33.548957 23331 net.cpp:122] Setting up concat1_2_concat1_2_0_split
I1207 20:50:33.548965 23331 net.cpp:129] Top shape: 1 104 36 211 (789984)
I1207 20:50:33.548970 23331 net.cpp:129] Top shape: 1 104 36 211 (789984)
I1207 20:50:33.548974 23331 net.cpp:137] Memory required for data: 196404600
I1207 20:50:33.548979 23331 layer_factory.hpp:77] Creating layer conv1_3/bn
I1207 20:50:33.548986 23331 net.cpp:84] Creating Layer conv1_3/bn
I1207 20:50:33.548991 23331 net.cpp:406] conv1_3/bn <- concat1_2_concat1_2_0_split_0
I1207 20:50:33.548997 23331 net.cpp:380] conv1_3/bn -> conv1_3/bn
I1207 20:50:33.549468 23331 net.cpp:122] Setting up conv1_3/bn
I1207 20:50:33.549479 23331 net.cpp:129] Top shape: 1 104 36 211 (789984)
I1207 20:50:33.549482 23331 net.cpp:137] Memory required for data: 199564536
I1207 20:50:33.549494 23331 layer_factory.hpp:77] Creating layer conv1_3/scale
I1207 20:50:33.549504 23331 net.cpp:84] Creating Layer conv1_3/scale
I1207 20:50:33.549515 23331 net.cpp:406] conv1_3/scale <- conv1_3/bn
I1207 20:50:33.549521 23331 net.cpp:367] conv1_3/scale -> conv1_3/bn (in-place)
I1207 20:50:33.549598 23331 layer_factory.hpp:77] Creating layer conv1_3/scale
I1207 20:50:33.549841 23331 net.cpp:122] Setting up conv1_3/scale
I1207 20:50:33.549851 23331 net.cpp:129] Top shape: 1 104 36 211 (789984)
I1207 20:50:33.549855 23331 net.cpp:137] Memory required for data: 202724472
I1207 20:50:33.549863 23331 layer_factory.hpp:77] Creating layer relu1_3
I1207 20:50:33.549870 23331 net.cpp:84] Creating Layer relu1_3
I1207 20:50:33.549875 23331 net.cpp:406] relu1_3 <- conv1_3/bn
I1207 20:50:33.549880 23331 net.cpp:367] relu1_3 -> conv1_3/bn (in-place)
I1207 20:50:33.550137 23331 net.cpp:122] Setting up relu1_3
I1207 20:50:33.550146 23331 net.cpp:129] Top shape: 1 104 36 211 (789984)
I1207 20:50:33.550151 23331 net.cpp:137] Memory required for data: 205884408
I1207 20:50:33.550155 23331 layer_factory.hpp:77] Creating layer conv1_3
I1207 20:50:33.550169 23331 net.cpp:84] Creating Layer conv1_3
I1207 20:50:33.550174 23331 net.cpp:406] conv1_3 <- conv1_3/bn
I1207 20:50:33.550182 23331 net.cpp:380] conv1_3 -> conv1_3
I1207 20:50:33.552314 23331 net.cpp:122] Setting up conv1_3
I1207 20:50:33.552328 23331 net.cpp:129] Top shape: 1 12 36 211 (91152)
I1207 20:50:33.552333 23331 net.cpp:137] Memory required for data: 206249016
I1207 20:50:33.552340 23331 layer_factory.hpp:77] Creating layer concat1_3
I1207 20:50:33.552348 23331 net.cpp:84] Creating Layer concat1_3
I1207 20:50:33.552353 23331 net.cpp:406] concat1_3 <- concat1_2_concat1_2_0_split_1
I1207 20:50:33.552359 23331 net.cpp:406] concat1_3 <- conv1_3
I1207 20:50:33.552367 23331 net.cpp:380] concat1_3 -> concat1_3
I1207 20:50:33.552419 23331 net.cpp:122] Setting up concat1_3
I1207 20:50:33.552426 23331 net.cpp:129] Top shape: 1 116 36 211 (881136)
I1207 20:50:33.552430 23331 net.cpp:137] Memory required for data: 209773560
I1207 20:50:33.552434 23331 layer_factory.hpp:77] Creating layer concat1_3_concat1_3_0_split
I1207 20:50:33.552441 23331 net.cpp:84] Creating Layer concat1_3_concat1_3_0_split
I1207 20:50:33.552446 23331 net.cpp:406] concat1_3_concat1_3_0_split <- concat1_3
I1207 20:50:33.552453 23331 net.cpp:380] concat1_3_concat1_3_0_split -> concat1_3_concat1_3_0_split_0
I1207 20:50:33.552460 23331 net.cpp:380] concat1_3_concat1_3_0_split -> concat1_3_concat1_3_0_split_1
I1207 20:50:33.552531 23331 net.cpp:122] Setting up concat1_3_concat1_3_0_split
I1207 20:50:33.552537 23331 net.cpp:129] Top shape: 1 116 36 211 (881136)
I1207 20:50:33.552543 23331 net.cpp:129] Top shape: 1 116 36 211 (881136)
I1207 20:50:33.552547 23331 net.cpp:137] Memory required for data: 216822648
I1207 20:50:33.552551 23331 layer_factory.hpp:77] Creating layer conv1_4/bn
I1207 20:50:33.552559 23331 net.cpp:84] Creating Layer conv1_4/bn
I1207 20:50:33.552563 23331 net.cpp:406] conv1_4/bn <- concat1_3_concat1_3_0_split_0
I1207 20:50:33.552569 23331 net.cpp:380] conv1_4/bn -> conv1_4/bn
I1207 20:50:33.552997 23331 net.cpp:122] Setting up conv1_4/bn
I1207 20:50:33.553006 23331 net.cpp:129] Top shape: 1 116 36 211 (881136)
I1207 20:50:33.553010 23331 net.cpp:137] Memory required for data: 220347192
I1207 20:50:33.553020 23331 layer_factory.hpp:77] Creating layer conv1_4/scale
I1207 20:50:33.553030 23331 net.cpp:84] Creating Layer conv1_4/scale
I1207 20:50:33.553035 23331 net.cpp:406] conv1_4/scale <- conv1_4/bn
I1207 20:50:33.553040 23331 net.cpp:367] conv1_4/scale -> conv1_4/bn (in-place)
I1207 20:50:33.553115 23331 layer_factory.hpp:77] Creating layer conv1_4/scale
I1207 20:50:33.553357 23331 net.cpp:122] Setting up conv1_4/scale
I1207 20:50:33.553366 23331 net.cpp:129] Top shape: 1 116 36 211 (881136)
I1207 20:50:33.553370 23331 net.cpp:137] Memory required for data: 223871736
I1207 20:50:33.553377 23331 layer_factory.hpp:77] Creating layer relu1_4
I1207 20:50:33.553386 23331 net.cpp:84] Creating Layer relu1_4
I1207 20:50:33.553390 23331 net.cpp:406] relu1_4 <- conv1_4/bn
I1207 20:50:33.553396 23331 net.cpp:367] relu1_4 -> conv1_4/bn (in-place)
I1207 20:50:33.553827 23331 net.cpp:122] Setting up relu1_4
I1207 20:50:33.553839 23331 net.cpp:129] Top shape: 1 116 36 211 (881136)
I1207 20:50:33.553843 23331 net.cpp:137] Memory required for data: 227396280
I1207 20:50:33.553848 23331 layer_factory.hpp:77] Creating layer conv1_4
I1207 20:50:33.553861 23331 net.cpp:84] Creating Layer conv1_4
I1207 20:50:33.553867 23331 net.cpp:406] conv1_4 <- conv1_4/bn
I1207 20:50:33.553874 23331 net.cpp:380] conv1_4 -> conv1_4
I1207 20:50:33.556041 23331 net.cpp:122] Setting up conv1_4
I1207 20:50:33.556056 23331 net.cpp:129] Top shape: 1 12 36 211 (91152)
I1207 20:50:33.556062 23331 net.cpp:137] Memory required for data: 227760888
I1207 20:50:33.556069 23331 layer_factory.hpp:77] Creating layer concat1_4
I1207 20:50:33.556078 23331 net.cpp:84] Creating Layer concat1_4
I1207 20:50:33.556083 23331 net.cpp:406] concat1_4 <- concat1_3_concat1_3_0_split_1
I1207 20:50:33.556089 23331 net.cpp:406] concat1_4 <- conv1_4
I1207 20:50:33.556097 23331 net.cpp:380] concat1_4 -> concat1_4
I1207 20:50:33.556149 23331 net.cpp:122] Setting up concat1_4
I1207 20:50:33.556156 23331 net.cpp:129] Top shape: 1 128 36 211 (972288)
I1207 20:50:33.556160 23331 net.cpp:137] Memory required for data: 231650040
I1207 20:50:33.556164 23331 layer_factory.hpp:77] Creating layer BatchNorm2
I1207 20:50:33.556171 23331 net.cpp:84] Creating Layer BatchNorm2
I1207 20:50:33.556175 23331 net.cpp:406] BatchNorm2 <- concat1_4
I1207 20:50:33.556183 23331 net.cpp:380] BatchNorm2 -> BatchNorm2
I1207 20:50:33.556643 23331 net.cpp:122] Setting up BatchNorm2
I1207 20:50:33.556655 23331 net.cpp:129] Top shape: 1 128 36 211 (972288)
I1207 20:50:33.556659 23331 net.cpp:137] Memory required for data: 235539192
I1207 20:50:33.556669 23331 layer_factory.hpp:77] Creating layer Scale2
I1207 20:50:33.556679 23331 net.cpp:84] Creating Layer Scale2
I1207 20:50:33.556684 23331 net.cpp:406] Scale2 <- BatchNorm2
I1207 20:50:33.556692 23331 net.cpp:367] Scale2 -> BatchNorm2 (in-place)
I1207 20:50:33.556768 23331 layer_factory.hpp:77] Creating layer Scale2
I1207 20:50:33.556998 23331 net.cpp:122] Setting up Scale2
I1207 20:50:33.557008 23331 net.cpp:129] Top shape: 1 128 36 211 (972288)
I1207 20:50:33.557013 23331 net.cpp:137] Memory required for data: 239428344
I1207 20:50:33.557019 23331 layer_factory.hpp:77] Creating layer ReLU2
I1207 20:50:33.557027 23331 net.cpp:84] Creating Layer ReLU2
I1207 20:50:33.557032 23331 net.cpp:406] ReLU2 <- BatchNorm2
I1207 20:50:33.557037 23331 net.cpp:367] ReLU2 -> BatchNorm2 (in-place)
I1207 20:50:33.557516 23331 net.cpp:122] Setting up ReLU2
I1207 20:50:33.557533 23331 net.cpp:129] Top shape: 1 128 36 211 (972288)
I1207 20:50:33.557536 23331 net.cpp:137] Memory required for data: 243317496
I1207 20:50:33.557541 23331 layer_factory.hpp:77] Creating layer conv1_blk
I1207 20:50:33.557556 23331 net.cpp:84] Creating Layer conv1_blk
I1207 20:50:33.557562 23331 net.cpp:406] conv1_blk <- BatchNorm2
I1207 20:50:33.557570 23331 net.cpp:380] conv1_blk -> conv1_blk
I1207 20:50:33.559769 23331 net.cpp:122] Setting up conv1_blk
I1207 20:50:33.559790 23331 net.cpp:129] Top shape: 1 128 36 211 (972288)
I1207 20:50:33.559795 23331 net.cpp:137] Memory required for data: 247206648
I1207 20:50:33.559803 23331 layer_factory.hpp:77] Creating layer pool1
I1207 20:50:33.559815 23331 net.cpp:84] Creating Layer pool1
I1207 20:50:33.559820 23331 net.cpp:406] pool1 <- conv1_blk
I1207 20:50:33.559828 23331 net.cpp:380] pool1 -> pool1
I1207 20:50:33.560094 23331 net.cpp:122] Setting up pool1
I1207 20:50:33.560104 23331 net.cpp:129] Top shape: 1 128 18 106 (244224)
I1207 20:50:33.560108 23331 net.cpp:137] Memory required for data: 248183544
I1207 20:50:33.560112 23331 layer_factory.hpp:77] Creating layer pool1_pool1_0_split
I1207 20:50:33.560122 23331 net.cpp:84] Creating Layer pool1_pool1_0_split
I1207 20:50:33.560125 23331 net.cpp:406] pool1_pool1_0_split <- pool1
I1207 20:50:33.560132 23331 net.cpp:380] pool1_pool1_0_split -> pool1_pool1_0_split_0
I1207 20:50:33.560139 23331 net.cpp:380] pool1_pool1_0_split -> pool1_pool1_0_split_1
I1207 20:50:33.560219 23331 net.cpp:122] Setting up pool1_pool1_0_split
I1207 20:50:33.560226 23331 net.cpp:129] Top shape: 1 128 18 106 (244224)
I1207 20:50:33.560232 23331 net.cpp:129] Top shape: 1 128 18 106 (244224)
I1207 20:50:33.560235 23331 net.cpp:137] Memory required for data: 250137336
I1207 20:50:33.560240 23331 layer_factory.hpp:77] Creating layer conv2_0/bn
I1207 20:50:33.560248 23331 net.cpp:84] Creating Layer conv2_0/bn
I1207 20:50:33.560253 23331 net.cpp:406] conv2_0/bn <- pool1_pool1_0_split_0
I1207 20:50:33.560261 23331 net.cpp:380] conv2_0/bn -> conv2_0/bn
I1207 20:50:33.560673 23331 net.cpp:122] Setting up conv2_0/bn
I1207 20:50:33.560683 23331 net.cpp:129] Top shape: 1 128 18 106 (244224)
I1207 20:50:33.560686 23331 net.cpp:137] Memory required for data: 251114232
I1207 20:50:33.560696 23331 layer_factory.hpp:77] Creating layer conv2_0/scale
I1207 20:50:33.560705 23331 net.cpp:84] Creating Layer conv2_0/scale
I1207 20:50:33.560709 23331 net.cpp:406] conv2_0/scale <- conv2_0/bn
I1207 20:50:33.560717 23331 net.cpp:367] conv2_0/scale -> conv2_0/bn (in-place)
I1207 20:50:33.560794 23331 layer_factory.hpp:77] Creating layer conv2_0/scale
I1207 20:50:33.561027 23331 net.cpp:122] Setting up conv2_0/scale
I1207 20:50:33.561036 23331 net.cpp:129] Top shape: 1 128 18 106 (244224)
I1207 20:50:33.561040 23331 net.cpp:137] Memory required for data: 252091128
I1207 20:50:33.561056 23331 layer_factory.hpp:77] Creating layer relu2_0
I1207 20:50:33.561067 23331 net.cpp:84] Creating Layer relu2_0
I1207 20:50:33.561072 23331 net.cpp:406] relu2_0 <- conv2_0/bn
I1207 20:50:33.561079 23331 net.cpp:367] relu2_0 -> conv2_0/bn (in-place)
I1207 20:50:33.561517 23331 net.cpp:122] Setting up relu2_0
I1207 20:50:33.561529 23331 net.cpp:129] Top shape: 1 128 18 106 (244224)
I1207 20:50:33.561533 23331 net.cpp:137] Memory required for data: 253068024
I1207 20:50:33.561538 23331 layer_factory.hpp:77] Creating layer conv2_0
I1207 20:50:33.561553 23331 net.cpp:84] Creating Layer conv2_0
I1207 20:50:33.561558 23331 net.cpp:406] conv2_0 <- conv2_0/bn
I1207 20:50:33.561568 23331 net.cpp:380] conv2_0 -> conv2_0
I1207 20:50:33.563946 23331 net.cpp:122] Setting up conv2_0
I1207 20:50:33.563976 23331 net.cpp:129] Top shape: 1 12 18 106 (22896)
I1207 20:50:33.563980 23331 net.cpp:137] Memory required for data: 253159608
I1207 20:50:33.563989 23331 layer_factory.hpp:77] Creating layer concat2_0
I1207 20:50:33.564002 23331 net.cpp:84] Creating Layer concat2_0
I1207 20:50:33.564008 23331 net.cpp:406] concat2_0 <- pool1_pool1_0_split_1
I1207 20:50:33.564016 23331 net.cpp:406] concat2_0 <- conv2_0
I1207 20:50:33.564024 23331 net.cpp:380] concat2_0 -> concat2_0
I1207 20:50:33.564079 23331 net.cpp:122] Setting up concat2_0
I1207 20:50:33.564087 23331 net.cpp:129] Top shape: 1 140 18 106 (267120)
I1207 20:50:33.564091 23331 net.cpp:137] Memory required for data: 254228088
I1207 20:50:33.564095 23331 layer_factory.hpp:77] Creating layer concat2_0_concat2_0_0_split
I1207 20:50:33.564103 23331 net.cpp:84] Creating Layer concat2_0_concat2_0_0_split
I1207 20:50:33.564108 23331 net.cpp:406] concat2_0_concat2_0_0_split <- concat2_0
I1207 20:50:33.564115 23331 net.cpp:380] concat2_0_concat2_0_0_split -> concat2_0_concat2_0_0_split_0
I1207 20:50:33.564121 23331 net.cpp:380] concat2_0_concat2_0_0_split -> concat2_0_concat2_0_0_split_1
I1207 20:50:33.564194 23331 net.cpp:122] Setting up concat2_0_concat2_0_0_split
I1207 20:50:33.564203 23331 net.cpp:129] Top shape: 1 140 18 106 (267120)
I1207 20:50:33.564208 23331 net.cpp:129] Top shape: 1 140 18 106 (267120)
I1207 20:50:33.564211 23331 net.cpp:137] Memory required for data: 256365048
I1207 20:50:33.564215 23331 layer_factory.hpp:77] Creating layer conv2_1/bn
I1207 20:50:33.564224 23331 net.cpp:84] Creating Layer conv2_1/bn
I1207 20:50:33.564229 23331 net.cpp:406] conv2_1/bn <- concat2_0_concat2_0_0_split_0
I1207 20:50:33.564236 23331 net.cpp:380] conv2_1/bn -> conv2_1/bn
I1207 20:50:33.564678 23331 net.cpp:122] Setting up conv2_1/bn
I1207 20:50:33.564687 23331 net.cpp:129] Top shape: 1 140 18 106 (267120)
I1207 20:50:33.564697 23331 net.cpp:137] Memory required for data: 257433528
I1207 20:50:33.564705 23331 layer_factory.hpp:77] Creating layer conv2_1/scale
I1207 20:50:33.564715 23331 net.cpp:84] Creating Layer conv2_1/scale
I1207 20:50:33.564720 23331 net.cpp:406] conv2_1/scale <- conv2_1/bn
I1207 20:50:33.564726 23331 net.cpp:367] conv2_1/scale -> conv2_1/bn (in-place)
I1207 20:50:33.564802 23331 layer_factory.hpp:77] Creating layer conv2_1/scale
I1207 20:50:33.565042 23331 net.cpp:122] Setting up conv2_1/scale
I1207 20:50:33.565052 23331 net.cpp:129] Top shape: 1 140 18 106 (267120)
I1207 20:50:33.565055 23331 net.cpp:137] Memory required for data: 258502008
I1207 20:50:33.565062 23331 layer_factory.hpp:77] Creating layer relu2_1
I1207 20:50:33.565070 23331 net.cpp:84] Creating Layer relu2_1
I1207 20:50:33.565075 23331 net.cpp:406] relu2_1 <- conv2_1/bn
I1207 20:50:33.565083 23331 net.cpp:367] relu2_1 -> conv2_1/bn (in-place)
I1207 20:50:33.565322 23331 net.cpp:122] Setting up relu2_1
I1207 20:50:33.565333 23331 net.cpp:129] Top shape: 1 140 18 106 (267120)
I1207 20:50:33.565337 23331 net.cpp:137] Memory required for data: 259570488
I1207 20:50:33.565341 23331 layer_factory.hpp:77] Creating layer conv2_1
I1207 20:50:33.565356 23331 net.cpp:84] Creating Layer conv2_1
I1207 20:50:33.565361 23331 net.cpp:406] conv2_1 <- conv2_1/bn
I1207 20:50:33.565368 23331 net.cpp:380] conv2_1 -> conv2_1
I1207 20:50:33.567770 23331 net.cpp:122] Setting up conv2_1
I1207 20:50:33.567802 23331 net.cpp:129] Top shape: 1 12 18 106 (22896)
I1207 20:50:33.567807 23331 net.cpp:137] Memory required for data: 259662072
I1207 20:50:33.567817 23331 layer_factory.hpp:77] Creating layer concat2_1
I1207 20:50:33.567831 23331 net.cpp:84] Creating Layer concat2_1
I1207 20:50:33.567837 23331 net.cpp:406] concat2_1 <- concat2_0_concat2_0_0_split_1
I1207 20:50:33.567844 23331 net.cpp:406] concat2_1 <- conv2_1
I1207 20:50:33.567852 23331 net.cpp:380] concat2_1 -> concat2_1
I1207 20:50:33.567912 23331 net.cpp:122] Setting up concat2_1
I1207 20:50:33.567920 23331 net.cpp:129] Top shape: 1 152 18 106 (290016)
I1207 20:50:33.567924 23331 net.cpp:137] Memory required for data: 260822136
I1207 20:50:33.567927 23331 layer_factory.hpp:77] Creating layer concat2_1_concat2_1_0_split
I1207 20:50:33.567935 23331 net.cpp:84] Creating Layer concat2_1_concat2_1_0_split
I1207 20:50:33.567939 23331 net.cpp:406] concat2_1_concat2_1_0_split <- concat2_1
I1207 20:50:33.567945 23331 net.cpp:380] concat2_1_concat2_1_0_split -> concat2_1_concat2_1_0_split_0
I1207 20:50:33.567955 23331 net.cpp:380] concat2_1_concat2_1_0_split -> concat2_1_concat2_1_0_split_1
I1207 20:50:33.568025 23331 net.cpp:122] Setting up concat2_1_concat2_1_0_split
I1207 20:50:33.568037 23331 net.cpp:129] Top shape: 1 152 18 106 (290016)
I1207 20:50:33.568042 23331 net.cpp:129] Top shape: 1 152 18 106 (290016)
I1207 20:50:33.568045 23331 net.cpp:137] Memory required for data: 263142264
I1207 20:50:33.568049 23331 layer_factory.hpp:77] Creating layer conv2_2/bn
I1207 20:50:33.568056 23331 net.cpp:84] Creating Layer conv2_2/bn
I1207 20:50:33.568061 23331 net.cpp:406] conv2_2/bn <- concat2_1_concat2_1_0_split_0
I1207 20:50:33.568068 23331 net.cpp:380] conv2_2/bn -> conv2_2/bn
I1207 20:50:33.568518 23331 net.cpp:122] Setting up conv2_2/bn
I1207 20:50:33.568527 23331 net.cpp:129] Top shape: 1 152 18 106 (290016)
I1207 20:50:33.568531 23331 net.cpp:137] Memory required for data: 264302328
I1207 20:50:33.568542 23331 layer_factory.hpp:77] Creating layer conv2_2/scale
I1207 20:50:33.568552 23331 net.cpp:84] Creating Layer conv2_2/scale
I1207 20:50:33.568557 23331 net.cpp:406] conv2_2/scale <- conv2_2/bn
I1207 20:50:33.568564 23331 net.cpp:367] conv2_2/scale -> conv2_2/bn (in-place)
I1207 20:50:33.568641 23331 layer_factory.hpp:77] Creating layer conv2_2/scale
I1207 20:50:33.568884 23331 net.cpp:122] Setting up conv2_2/scale
I1207 20:50:33.568893 23331 net.cpp:129] Top shape: 1 152 18 106 (290016)
I1207 20:50:33.568897 23331 net.cpp:137] Memory required for data: 265462392
I1207 20:50:33.568905 23331 layer_factory.hpp:77] Creating layer relu2_2
I1207 20:50:33.568918 23331 net.cpp:84] Creating Layer relu2_2
I1207 20:50:33.568923 23331 net.cpp:406] relu2_2 <- conv2_2/bn
I1207 20:50:33.568928 23331 net.cpp:367] relu2_2 -> conv2_2/bn (in-place)
I1207 20:50:33.569402 23331 net.cpp:122] Setting up relu2_2
I1207 20:50:33.569416 23331 net.cpp:129] Top shape: 1 152 18 106 (290016)
I1207 20:50:33.569420 23331 net.cpp:137] Memory required for data: 266622456
I1207 20:50:33.569424 23331 layer_factory.hpp:77] Creating layer conv2_2
I1207 20:50:33.569438 23331 net.cpp:84] Creating Layer conv2_2
I1207 20:50:33.569444 23331 net.cpp:406] conv2_2 <- conv2_2/bn
I1207 20:50:33.569453 23331 net.cpp:380] conv2_2 -> conv2_2
I1207 20:50:33.571789 23331 net.cpp:122] Setting up conv2_2
I1207 20:50:33.571805 23331 net.cpp:129] Top shape: 1 12 18 106 (22896)
I1207 20:50:33.571810 23331 net.cpp:137] Memory required for data: 266714040
I1207 20:50:33.571817 23331 layer_factory.hpp:77] Creating layer concat2_2
I1207 20:50:33.571825 23331 net.cpp:84] Creating Layer concat2_2
I1207 20:50:33.571831 23331 net.cpp:406] concat2_2 <- concat2_1_concat2_1_0_split_1
I1207 20:50:33.571837 23331 net.cpp:406] concat2_2 <- conv2_2
I1207 20:50:33.571846 23331 net.cpp:380] concat2_2 -> concat2_2
I1207 20:50:33.571897 23331 net.cpp:122] Setting up concat2_2
I1207 20:50:33.571905 23331 net.cpp:129] Top shape: 1 164 18 106 (312912)
I1207 20:50:33.571909 23331 net.cpp:137] Memory required for data: 267965688
I1207 20:50:33.571913 23331 layer_factory.hpp:77] Creating layer concat2_2_concat2_2_0_split
I1207 20:50:33.571921 23331 net.cpp:84] Creating Layer concat2_2_concat2_2_0_split
I1207 20:50:33.571925 23331 net.cpp:406] concat2_2_concat2_2_0_split <- concat2_2
I1207 20:50:33.571933 23331 net.cpp:380] concat2_2_concat2_2_0_split -> concat2_2_concat2_2_0_split_0
I1207 20:50:33.571939 23331 net.cpp:380] concat2_2_concat2_2_0_split -> concat2_2_concat2_2_0_split_1
I1207 20:50:33.572010 23331 net.cpp:122] Setting up concat2_2_concat2_2_0_split
I1207 20:50:33.572018 23331 net.cpp:129] Top shape: 1 164 18 106 (312912)
I1207 20:50:33.572024 23331 net.cpp:129] Top shape: 1 164 18 106 (312912)
I1207 20:50:33.572028 23331 net.cpp:137] Memory required for data: 270468984
I1207 20:50:33.572031 23331 layer_factory.hpp:77] Creating layer conv2_3/bn
I1207 20:50:33.572041 23331 net.cpp:84] Creating Layer conv2_3/bn
I1207 20:50:33.572046 23331 net.cpp:406] conv2_3/bn <- concat2_2_concat2_2_0_split_0
I1207 20:50:33.572052 23331 net.cpp:380] conv2_3/bn -> conv2_3/bn
I1207 20:50:33.572496 23331 net.cpp:122] Setting up conv2_3/bn
I1207 20:50:33.572505 23331 net.cpp:129] Top shape: 1 164 18 106 (312912)
I1207 20:50:33.572510 23331 net.cpp:137] Memory required for data: 271720632
I1207 20:50:33.572518 23331 layer_factory.hpp:77] Creating layer conv2_3/scale
I1207 20:50:33.572528 23331 net.cpp:84] Creating Layer conv2_3/scale
I1207 20:50:33.572533 23331 net.cpp:406] conv2_3/scale <- conv2_3/bn
I1207 20:50:33.572540 23331 net.cpp:367] conv2_3/scale -> conv2_3/bn (in-place)
I1207 20:50:33.572615 23331 layer_factory.hpp:77] Creating layer conv2_3/scale
I1207 20:50:33.572857 23331 net.cpp:122] Setting up conv2_3/scale
I1207 20:50:33.572866 23331 net.cpp:129] Top shape: 1 164 18 106 (312912)
I1207 20:50:33.572870 23331 net.cpp:137] Memory required for data: 272972280
I1207 20:50:33.572877 23331 layer_factory.hpp:77] Creating layer relu2_3
I1207 20:50:33.572890 23331 net.cpp:84] Creating Layer relu2_3
I1207 20:50:33.572895 23331 net.cpp:406] relu2_3 <- conv2_3/bn
I1207 20:50:33.572899 23331 net.cpp:367] relu2_3 -> conv2_3/bn (in-place)
I1207 20:50:33.573333 23331 net.cpp:122] Setting up relu2_3
I1207 20:50:33.573345 23331 net.cpp:129] Top shape: 1 164 18 106 (312912)
I1207 20:50:33.573349 23331 net.cpp:137] Memory required for data: 274223928
I1207 20:50:33.573354 23331 layer_factory.hpp:77] Creating layer conv2_3
I1207 20:50:33.573366 23331 net.cpp:84] Creating Layer conv2_3
I1207 20:50:33.573372 23331 net.cpp:406] conv2_3 <- conv2_3/bn
I1207 20:50:33.573379 23331 net.cpp:380] conv2_3 -> conv2_3
I1207 20:50:33.575733 23331 net.cpp:122] Setting up conv2_3
I1207 20:50:33.575750 23331 net.cpp:129] Top shape: 1 12 18 106 (22896)
I1207 20:50:33.575755 23331 net.cpp:137] Memory required for data: 274315512
I1207 20:50:33.575763 23331 layer_factory.hpp:77] Creating layer concat2_3
I1207 20:50:33.575773 23331 net.cpp:84] Creating Layer concat2_3
I1207 20:50:33.575778 23331 net.cpp:406] concat2_3 <- concat2_2_concat2_2_0_split_1
I1207 20:50:33.575784 23331 net.cpp:406] concat2_3 <- conv2_3
I1207 20:50:33.575790 23331 net.cpp:380] concat2_3 -> concat2_3
I1207 20:50:33.575844 23331 net.cpp:122] Setting up concat2_3
I1207 20:50:33.575852 23331 net.cpp:129] Top shape: 1 176 18 106 (335808)
I1207 20:50:33.575856 23331 net.cpp:137] Memory required for data: 275658744
I1207 20:50:33.575860 23331 layer_factory.hpp:77] Creating layer concat2_3_concat2_3_0_split
I1207 20:50:33.575866 23331 net.cpp:84] Creating Layer concat2_3_concat2_3_0_split
I1207 20:50:33.575871 23331 net.cpp:406] concat2_3_concat2_3_0_split <- concat2_3
I1207 20:50:33.575877 23331 net.cpp:380] concat2_3_concat2_3_0_split -> concat2_3_concat2_3_0_split_0
I1207 20:50:33.575886 23331 net.cpp:380] concat2_3_concat2_3_0_split -> concat2_3_concat2_3_0_split_1
I1207 20:50:33.575958 23331 net.cpp:122] Setting up concat2_3_concat2_3_0_split
I1207 20:50:33.575966 23331 net.cpp:129] Top shape: 1 176 18 106 (335808)
I1207 20:50:33.575971 23331 net.cpp:129] Top shape: 1 176 18 106 (335808)
I1207 20:50:33.575975 23331 net.cpp:137] Memory required for data: 278345208
I1207 20:50:33.575979 23331 layer_factory.hpp:77] Creating layer conv2_4/bn
I1207 20:50:33.575987 23331 net.cpp:84] Creating Layer conv2_4/bn
I1207 20:50:33.575992 23331 net.cpp:406] conv2_4/bn <- concat2_3_concat2_3_0_split_0
I1207 20:50:33.575999 23331 net.cpp:380] conv2_4/bn -> conv2_4/bn
I1207 20:50:33.576450 23331 net.cpp:122] Setting up conv2_4/bn
I1207 20:50:33.576462 23331 net.cpp:129] Top shape: 1 176 18 106 (335808)
I1207 20:50:33.576467 23331 net.cpp:137] Memory required for data: 279688440
I1207 20:50:33.576476 23331 layer_factory.hpp:77] Creating layer conv2_4/scale
I1207 20:50:33.576486 23331 net.cpp:84] Creating Layer conv2_4/scale
I1207 20:50:33.576491 23331 net.cpp:406] conv2_4/scale <- conv2_4/bn
I1207 20:50:33.576499 23331 net.cpp:367] conv2_4/scale -> conv2_4/bn (in-place)
I1207 20:50:33.576573 23331 layer_factory.hpp:77] Creating layer conv2_4/scale
I1207 20:50:33.576815 23331 net.cpp:122] Setting up conv2_4/scale
I1207 20:50:33.576825 23331 net.cpp:129] Top shape: 1 176 18 106 (335808)
I1207 20:50:33.576829 23331 net.cpp:137] Memory required for data: 281031672
I1207 20:50:33.576836 23331 layer_factory.hpp:77] Creating layer relu2_4
I1207 20:50:33.576844 23331 net.cpp:84] Creating Layer relu2_4
I1207 20:50:33.576849 23331 net.cpp:406] relu2_4 <- conv2_4/bn
I1207 20:50:33.576854 23331 net.cpp:367] relu2_4 -> conv2_4/bn (in-place)
I1207 20:50:33.577317 23331 net.cpp:122] Setting up relu2_4
I1207 20:50:33.577330 23331 net.cpp:129] Top shape: 1 176 18 106 (335808)
I1207 20:50:33.577334 23331 net.cpp:137] Memory required for data: 282374904
I1207 20:50:33.577339 23331 layer_factory.hpp:77] Creating layer conv2_4
I1207 20:50:33.577353 23331 net.cpp:84] Creating Layer conv2_4
I1207 20:50:33.577358 23331 net.cpp:406] conv2_4 <- conv2_4/bn
I1207 20:50:33.577366 23331 net.cpp:380] conv2_4 -> conv2_4
I1207 20:50:33.580785 23331 net.cpp:122] Setting up conv2_4
I1207 20:50:33.580821 23331 net.cpp:129] Top shape: 1 12 18 106 (22896)
I1207 20:50:33.580827 23331 net.cpp:137] Memory required for data: 282466488
I1207 20:50:33.580838 23331 layer_factory.hpp:77] Creating layer concat2_4
I1207 20:50:33.580854 23331 net.cpp:84] Creating Layer concat2_4
I1207 20:50:33.580862 23331 net.cpp:406] concat2_4 <- concat2_3_concat2_3_0_split_1
I1207 20:50:33.580870 23331 net.cpp:406] concat2_4 <- conv2_4
I1207 20:50:33.580878 23331 net.cpp:380] concat2_4 -> concat2_4
I1207 20:50:33.580943 23331 net.cpp:122] Setting up concat2_4
I1207 20:50:33.580951 23331 net.cpp:129] Top shape: 1 188 18 106 (358704)
I1207 20:50:33.580955 23331 net.cpp:137] Memory required for data: 283901304
I1207 20:50:33.580965 23331 layer_factory.hpp:77] Creating layer concat2_4_concat2_4_0_split
I1207 20:50:33.580971 23331 net.cpp:84] Creating Layer concat2_4_concat2_4_0_split
I1207 20:50:33.580976 23331 net.cpp:406] concat2_4_concat2_4_0_split <- concat2_4
I1207 20:50:33.580982 23331 net.cpp:380] concat2_4_concat2_4_0_split -> concat2_4_concat2_4_0_split_0
I1207 20:50:33.580991 23331 net.cpp:380] concat2_4_concat2_4_0_split -> concat2_4_concat2_4_0_split_1
I1207 20:50:33.581066 23331 net.cpp:122] Setting up concat2_4_concat2_4_0_split
I1207 20:50:33.581076 23331 net.cpp:129] Top shape: 1 188 18 106 (358704)
I1207 20:50:33.581081 23331 net.cpp:129] Top shape: 1 188 18 106 (358704)
I1207 20:50:33.581085 23331 net.cpp:137] Memory required for data: 286770936
I1207 20:50:33.581089 23331 layer_factory.hpp:77] Creating layer conv2_5/bn
I1207 20:50:33.581097 23331 net.cpp:84] Creating Layer conv2_5/bn
I1207 20:50:33.581101 23331 net.cpp:406] conv2_5/bn <- concat2_4_concat2_4_0_split_0
I1207 20:50:33.581110 23331 net.cpp:380] conv2_5/bn -> conv2_5/bn
I1207 20:50:33.581586 23331 net.cpp:122] Setting up conv2_5/bn
I1207 20:50:33.581598 23331 net.cpp:129] Top shape: 1 188 18 106 (358704)
I1207 20:50:33.581601 23331 net.cpp:137] Memory required for data: 288205752
I1207 20:50:33.581614 23331 layer_factory.hpp:77] Creating layer conv2_5/scale
I1207 20:50:33.581624 23331 net.cpp:84] Creating Layer conv2_5/scale
I1207 20:50:33.581629 23331 net.cpp:406] conv2_5/scale <- conv2_5/bn
I1207 20:50:33.581637 23331 net.cpp:367] conv2_5/scale -> conv2_5/bn (in-place)
I1207 20:50:33.581717 23331 layer_factory.hpp:77] Creating layer conv2_5/scale
I1207 20:50:33.581967 23331 net.cpp:122] Setting up conv2_5/scale
I1207 20:50:33.581976 23331 net.cpp:129] Top shape: 1 188 18 106 (358704)
I1207 20:50:33.581980 23331 net.cpp:137] Memory required for data: 289640568
I1207 20:50:33.581989 23331 layer_factory.hpp:77] Creating layer relu2_5
I1207 20:50:33.581996 23331 net.cpp:84] Creating Layer relu2_5
I1207 20:50:33.582001 23331 net.cpp:406] relu2_5 <- conv2_5/bn
I1207 20:50:33.582006 23331 net.cpp:367] relu2_5 -> conv2_5/bn (in-place)
I1207 20:50:33.582587 23331 net.cpp:122] Setting up relu2_5
I1207 20:50:33.582600 23331 net.cpp:129] Top shape: 1 188 18 106 (358704)
I1207 20:50:33.582604 23331 net.cpp:137] Memory required for data: 291075384
I1207 20:50:33.582609 23331 layer_factory.hpp:77] Creating layer conv2_5
I1207 20:50:33.582623 23331 net.cpp:84] Creating Layer conv2_5
I1207 20:50:33.582628 23331 net.cpp:406] conv2_5 <- conv2_5/bn
I1207 20:50:33.582638 23331 net.cpp:380] conv2_5 -> conv2_5
I1207 20:50:33.585216 23331 net.cpp:122] Setting up conv2_5
I1207 20:50:33.585239 23331 net.cpp:129] Top shape: 1 12 18 106 (22896)
I1207 20:50:33.585244 23331 net.cpp:137] Memory required for data: 291166968
I1207 20:50:33.585253 23331 layer_factory.hpp:77] Creating layer concat2_5
I1207 20:50:33.585264 23331 net.cpp:84] Creating Layer concat2_5
I1207 20:50:33.585270 23331 net.cpp:406] concat2_5 <- concat2_4_concat2_4_0_split_1
I1207 20:50:33.585280 23331 net.cpp:406] concat2_5 <- conv2_5
I1207 20:50:33.585288 23331 net.cpp:380] concat2_5 -> concat2_5
I1207 20:50:33.585342 23331 net.cpp:122] Setting up concat2_5
I1207 20:50:33.585350 23331 net.cpp:129] Top shape: 1 200 18 106 (381600)
I1207 20:50:33.585355 23331 net.cpp:137] Memory required for data: 292693368
I1207 20:50:33.585357 23331 layer_factory.hpp:77] Creating layer concat2_5_concat2_5_0_split
I1207 20:50:33.585366 23331 net.cpp:84] Creating Layer concat2_5_concat2_5_0_split
I1207 20:50:33.585371 23331 net.cpp:406] concat2_5_concat2_5_0_split <- concat2_5
I1207 20:50:33.585376 23331 net.cpp:380] concat2_5_concat2_5_0_split -> concat2_5_concat2_5_0_split_0
I1207 20:50:33.585384 23331 net.cpp:380] concat2_5_concat2_5_0_split -> concat2_5_concat2_5_0_split_1
I1207 20:50:33.585456 23331 net.cpp:122] Setting up concat2_5_concat2_5_0_split
I1207 20:50:33.585463 23331 net.cpp:129] Top shape: 1 200 18 106 (381600)
I1207 20:50:33.585465 23331 net.cpp:129] Top shape: 1 200 18 106 (381600)
I1207 20:50:33.585471 23331 net.cpp:137] Memory required for data: 295746168
I1207 20:50:33.585474 23331 layer_factory.hpp:77] Creating layer conv2_6/bn
I1207 20:50:33.585480 23331 net.cpp:84] Creating Layer conv2_6/bn
I1207 20:50:33.585484 23331 net.cpp:406] conv2_6/bn <- concat2_5_concat2_5_0_split_0
I1207 20:50:33.585489 23331 net.cpp:380] conv2_6/bn -> conv2_6/bn
I1207 20:50:33.585834 23331 net.cpp:122] Setting up conv2_6/bn
I1207 20:50:33.585839 23331 net.cpp:129] Top shape: 1 200 18 106 (381600)
I1207 20:50:33.585842 23331 net.cpp:137] Memory required for data: 297272568
I1207 20:50:33.585849 23331 layer_factory.hpp:77] Creating layer conv2_6/scale
I1207 20:50:33.585856 23331 net.cpp:84] Creating Layer conv2_6/scale
I1207 20:50:33.585860 23331 net.cpp:406] conv2_6/scale <- conv2_6/bn
I1207 20:50:33.585863 23331 net.cpp:367] conv2_6/scale -> conv2_6/bn (in-place)
I1207 20:50:33.585922 23331 layer_factory.hpp:77] Creating layer conv2_6/scale
I1207 20:50:33.586109 23331 net.cpp:122] Setting up conv2_6/scale
I1207 20:50:33.586115 23331 net.cpp:129] Top shape: 1 200 18 106 (381600)
I1207 20:50:33.586117 23331 net.cpp:137] Memory required for data: 298798968
I1207 20:50:33.586122 23331 layer_factory.hpp:77] Creating layer relu2_6
I1207 20:50:33.586127 23331 net.cpp:84] Creating Layer relu2_6
I1207 20:50:33.586132 23331 net.cpp:406] relu2_6 <- conv2_6/bn
I1207 20:50:33.586136 23331 net.cpp:367] relu2_6 -> conv2_6/bn (in-place)
I1207 20:50:33.586326 23331 net.cpp:122] Setting up relu2_6
I1207 20:50:33.586334 23331 net.cpp:129] Top shape: 1 200 18 106 (381600)
I1207 20:50:33.586338 23331 net.cpp:137] Memory required for data: 300325368
I1207 20:50:33.586340 23331 layer_factory.hpp:77] Creating layer conv2_6
I1207 20:50:33.586350 23331 net.cpp:84] Creating Layer conv2_6
I1207 20:50:33.586354 23331 net.cpp:406] conv2_6 <- conv2_6/bn
I1207 20:50:33.586359 23331 net.cpp:380] conv2_6 -> conv2_6
I1207 20:50:33.588269 23331 net.cpp:122] Setting up conv2_6
I1207 20:50:33.588284 23331 net.cpp:129] Top shape: 1 12 18 106 (22896)
I1207 20:50:33.588286 23331 net.cpp:137] Memory required for data: 300416952
I1207 20:50:33.588291 23331 layer_factory.hpp:77] Creating layer concat2_6
I1207 20:50:33.588299 23331 net.cpp:84] Creating Layer concat2_6
I1207 20:50:33.588302 23331 net.cpp:406] concat2_6 <- concat2_5_concat2_5_0_split_1
I1207 20:50:33.588306 23331 net.cpp:406] concat2_6 <- conv2_6
I1207 20:50:33.588310 23331 net.cpp:380] concat2_6 -> concat2_6
I1207 20:50:33.588356 23331 net.cpp:122] Setting up concat2_6
I1207 20:50:33.588361 23331 net.cpp:129] Top shape: 1 212 18 106 (404496)
I1207 20:50:33.588363 23331 net.cpp:137] Memory required for data: 302034936
I1207 20:50:33.588366 23331 layer_factory.hpp:77] Creating layer concat2_6_concat2_6_0_split
I1207 20:50:33.588371 23331 net.cpp:84] Creating Layer concat2_6_concat2_6_0_split
I1207 20:50:33.588373 23331 net.cpp:406] concat2_6_concat2_6_0_split <- concat2_6
I1207 20:50:33.588378 23331 net.cpp:380] concat2_6_concat2_6_0_split -> concat2_6_concat2_6_0_split_0
I1207 20:50:33.588383 23331 net.cpp:380] concat2_6_concat2_6_0_split -> concat2_6_concat2_6_0_split_1
I1207 20:50:33.588440 23331 net.cpp:122] Setting up concat2_6_concat2_6_0_split
I1207 20:50:33.588445 23331 net.cpp:129] Top shape: 1 212 18 106 (404496)
I1207 20:50:33.588449 23331 net.cpp:129] Top shape: 1 212 18 106 (404496)
I1207 20:50:33.588451 23331 net.cpp:137] Memory required for data: 305270904
I1207 20:50:33.588454 23331 layer_factory.hpp:77] Creating layer conv2_7/bn
I1207 20:50:33.588459 23331 net.cpp:84] Creating Layer conv2_7/bn
I1207 20:50:33.588461 23331 net.cpp:406] conv2_7/bn <- concat2_6_concat2_6_0_split_0
I1207 20:50:33.588466 23331 net.cpp:380] conv2_7/bn -> conv2_7/bn
I1207 20:50:33.588817 23331 net.cpp:122] Setting up conv2_7/bn
I1207 20:50:33.588824 23331 net.cpp:129] Top shape: 1 212 18 106 (404496)
I1207 20:50:33.588826 23331 net.cpp:137] Memory required for data: 306888888
I1207 20:50:33.588832 23331 layer_factory.hpp:77] Creating layer conv2_7/scale
I1207 20:50:33.588840 23331 net.cpp:84] Creating Layer conv2_7/scale
I1207 20:50:33.588847 23331 net.cpp:406] conv2_7/scale <- conv2_7/bn
I1207 20:50:33.588851 23331 net.cpp:367] conv2_7/scale -> conv2_7/bn (in-place)
I1207 20:50:33.588910 23331 layer_factory.hpp:77] Creating layer conv2_7/scale
I1207 20:50:33.589095 23331 net.cpp:122] Setting up conv2_7/scale
I1207 20:50:33.589102 23331 net.cpp:129] Top shape: 1 212 18 106 (404496)
I1207 20:50:33.589105 23331 net.cpp:137] Memory required for data: 308506872
I1207 20:50:33.589110 23331 layer_factory.hpp:77] Creating layer relu2_7
I1207 20:50:33.589115 23331 net.cpp:84] Creating Layer relu2_7
I1207 20:50:33.589118 23331 net.cpp:406] relu2_7 <- conv2_7/bn
I1207 20:50:33.589121 23331 net.cpp:367] relu2_7 -> conv2_7/bn (in-place)
I1207 20:50:33.589476 23331 net.cpp:122] Setting up relu2_7
I1207 20:50:33.589488 23331 net.cpp:129] Top shape: 1 212 18 106 (404496)
I1207 20:50:33.589490 23331 net.cpp:137] Memory required for data: 310124856
I1207 20:50:33.589493 23331 layer_factory.hpp:77] Creating layer conv2_7
I1207 20:50:33.589504 23331 net.cpp:84] Creating Layer conv2_7
I1207 20:50:33.589507 23331 net.cpp:406] conv2_7 <- conv2_7/bn
I1207 20:50:33.589512 23331 net.cpp:380] conv2_7 -> conv2_7
I1207 20:50:33.591439 23331 net.cpp:122] Setting up conv2_7
I1207 20:50:33.591459 23331 net.cpp:129] Top shape: 1 12 18 106 (22896)
I1207 20:50:33.591464 23331 net.cpp:137] Memory required for data: 310216440
I1207 20:50:33.591471 23331 layer_factory.hpp:77] Creating layer concat2_7
I1207 20:50:33.591482 23331 net.cpp:84] Creating Layer concat2_7
I1207 20:50:33.591488 23331 net.cpp:406] concat2_7 <- concat2_6_concat2_6_0_split_1
I1207 20:50:33.591495 23331 net.cpp:406] concat2_7 <- conv2_7
I1207 20:50:33.591501 23331 net.cpp:380] concat2_7 -> concat2_7
I1207 20:50:33.591558 23331 net.cpp:122] Setting up concat2_7
I1207 20:50:33.591567 23331 net.cpp:129] Top shape: 1 224 18 106 (427392)
I1207 20:50:33.591570 23331 net.cpp:137] Memory required for data: 311926008
I1207 20:50:33.591574 23331 layer_factory.hpp:77] Creating layer concat2_7_concat2_7_0_split
I1207 20:50:33.591581 23331 net.cpp:84] Creating Layer concat2_7_concat2_7_0_split
I1207 20:50:33.591586 23331 net.cpp:406] concat2_7_concat2_7_0_split <- concat2_7
I1207 20:50:33.591593 23331 net.cpp:380] concat2_7_concat2_7_0_split -> concat2_7_concat2_7_0_split_0
I1207 20:50:33.591600 23331 net.cpp:380] concat2_7_concat2_7_0_split -> concat2_7_concat2_7_0_split_1
I1207 20:50:33.591676 23331 net.cpp:122] Setting up concat2_7_concat2_7_0_split
I1207 20:50:33.591684 23331 net.cpp:129] Top shape: 1 224 18 106 (427392)
I1207 20:50:33.591689 23331 net.cpp:129] Top shape: 1 224 18 106 (427392)
I1207 20:50:33.591693 23331 net.cpp:137] Memory required for data: 315345144
I1207 20:50:33.591697 23331 layer_factory.hpp:77] Creating layer conv2_8/bn
I1207 20:50:33.591706 23331 net.cpp:84] Creating Layer conv2_8/bn
I1207 20:50:33.591711 23331 net.cpp:406] conv2_8/bn <- concat2_7_concat2_7_0_split_0
I1207 20:50:33.591718 23331 net.cpp:380] conv2_8/bn -> conv2_8/bn
I1207 20:50:33.592197 23331 net.cpp:122] Setting up conv2_8/bn
I1207 20:50:33.592207 23331 net.cpp:129] Top shape: 1 224 18 106 (427392)
I1207 20:50:33.592211 23331 net.cpp:137] Memory required for data: 317054712
I1207 20:50:33.592221 23331 layer_factory.hpp:77] Creating layer conv2_8/scale
I1207 20:50:33.592231 23331 net.cpp:84] Creating Layer conv2_8/scale
I1207 20:50:33.592236 23331 net.cpp:406] conv2_8/scale <- conv2_8/bn
I1207 20:50:33.592242 23331 net.cpp:367] conv2_8/scale -> conv2_8/bn (in-place)
I1207 20:50:33.592320 23331 layer_factory.hpp:77] Creating layer conv2_8/scale
I1207 20:50:33.592576 23331 net.cpp:122] Setting up conv2_8/scale
I1207 20:50:33.592586 23331 net.cpp:129] Top shape: 1 224 18 106 (427392)
I1207 20:50:33.592589 23331 net.cpp:137] Memory required for data: 318764280
I1207 20:50:33.592597 23331 layer_factory.hpp:77] Creating layer relu2_8
I1207 20:50:33.592604 23331 net.cpp:84] Creating Layer relu2_8
I1207 20:50:33.592609 23331 net.cpp:406] relu2_8 <- conv2_8/bn
I1207 20:50:33.592617 23331 net.cpp:367] relu2_8 -> conv2_8/bn (in-place)
I1207 20:50:33.593075 23331 net.cpp:122] Setting up relu2_8
I1207 20:50:33.593087 23331 net.cpp:129] Top shape: 1 224 18 106 (427392)
I1207 20:50:33.593091 23331 net.cpp:137] Memory required for data: 320473848
I1207 20:50:33.593096 23331 layer_factory.hpp:77] Creating layer conv2_8
I1207 20:50:33.593109 23331 net.cpp:84] Creating Layer conv2_8
I1207 20:50:33.593114 23331 net.cpp:406] conv2_8 <- conv2_8/bn
I1207 20:50:33.593122 23331 net.cpp:380] conv2_8 -> conv2_8
I1207 20:50:33.595732 23331 net.cpp:122] Setting up conv2_8
I1207 20:50:33.595752 23331 net.cpp:129] Top shape: 1 12 18 106 (22896)
I1207 20:50:33.595757 23331 net.cpp:137] Memory required for data: 320565432
I1207 20:50:33.595764 23331 layer_factory.hpp:77] Creating layer concat2_8
I1207 20:50:33.595773 23331 net.cpp:84] Creating Layer concat2_8
I1207 20:50:33.595778 23331 net.cpp:406] concat2_8 <- concat2_7_concat2_7_0_split_1
I1207 20:50:33.595784 23331 net.cpp:406] concat2_8 <- conv2_8
I1207 20:50:33.595793 23331 net.cpp:380] concat2_8 -> concat2_8
I1207 20:50:33.595847 23331 net.cpp:122] Setting up concat2_8
I1207 20:50:33.595855 23331 net.cpp:129] Top shape: 1 236 18 106 (450288)
I1207 20:50:33.595860 23331 net.cpp:137] Memory required for data: 322366584
I1207 20:50:33.595863 23331 layer_factory.hpp:77] Creating layer concat2_8_concat2_8_0_split
I1207 20:50:33.595870 23331 net.cpp:84] Creating Layer concat2_8_concat2_8_0_split
I1207 20:50:33.595875 23331 net.cpp:406] concat2_8_concat2_8_0_split <- concat2_8
I1207 20:50:33.595881 23331 net.cpp:380] concat2_8_concat2_8_0_split -> concat2_8_concat2_8_0_split_0
I1207 20:50:33.595890 23331 net.cpp:380] concat2_8_concat2_8_0_split -> concat2_8_concat2_8_0_split_1
I1207 20:50:33.595966 23331 net.cpp:122] Setting up concat2_8_concat2_8_0_split
I1207 20:50:33.595974 23331 net.cpp:129] Top shape: 1 236 18 106 (450288)
I1207 20:50:33.595979 23331 net.cpp:129] Top shape: 1 236 18 106 (450288)
I1207 20:50:33.595983 23331 net.cpp:137] Memory required for data: 325968888
I1207 20:50:33.595988 23331 layer_factory.hpp:77] Creating layer conv2_9/bn
I1207 20:50:33.595996 23331 net.cpp:84] Creating Layer conv2_9/bn
I1207 20:50:33.596000 23331 net.cpp:406] conv2_9/bn <- concat2_8_concat2_8_0_split_0
I1207 20:50:33.596007 23331 net.cpp:380] conv2_9/bn -> conv2_9/bn
I1207 20:50:33.596473 23331 net.cpp:122] Setting up conv2_9/bn
I1207 20:50:33.596482 23331 net.cpp:129] Top shape: 1 236 18 106 (450288)
I1207 20:50:33.596485 23331 net.cpp:137] Memory required for data: 327770040
I1207 20:50:33.596494 23331 layer_factory.hpp:77] Creating layer conv2_9/scale
I1207 20:50:33.596504 23331 net.cpp:84] Creating Layer conv2_9/scale
I1207 20:50:33.596509 23331 net.cpp:406] conv2_9/scale <- conv2_9/bn
I1207 20:50:33.596515 23331 net.cpp:367] conv2_9/scale -> conv2_9/bn (in-place)
I1207 20:50:33.596596 23331 layer_factory.hpp:77] Creating layer conv2_9/scale
I1207 20:50:33.596849 23331 net.cpp:122] Setting up conv2_9/scale
I1207 20:50:33.596858 23331 net.cpp:129] Top shape: 1 236 18 106 (450288)
I1207 20:50:33.596863 23331 net.cpp:137] Memory required for data: 329571192
I1207 20:50:33.596870 23331 layer_factory.hpp:77] Creating layer relu2_9
I1207 20:50:33.596879 23331 net.cpp:84] Creating Layer relu2_9
I1207 20:50:33.596884 23331 net.cpp:406] relu2_9 <- conv2_9/bn
I1207 20:50:33.596889 23331 net.cpp:367] relu2_9 -> conv2_9/bn (in-place)
I1207 20:50:33.597133 23331 net.cpp:122] Setting up relu2_9
I1207 20:50:33.597143 23331 net.cpp:129] Top shape: 1 236 18 106 (450288)
I1207 20:50:33.597147 23331 net.cpp:137] Memory required for data: 331372344
I1207 20:50:33.597151 23331 layer_factory.hpp:77] Creating layer conv2_9
I1207 20:50:33.597164 23331 net.cpp:84] Creating Layer conv2_9
I1207 20:50:33.597169 23331 net.cpp:406] conv2_9 <- conv2_9/bn
I1207 20:50:33.597177 23331 net.cpp:380] conv2_9 -> conv2_9
I1207 20:50:33.600005 23331 net.cpp:122] Setting up conv2_9
I1207 20:50:33.600042 23331 net.cpp:129] Top shape: 1 12 18 106 (22896)
I1207 20:50:33.600047 23331 net.cpp:137] Memory required for data: 331463928
I1207 20:50:33.600062 23331 layer_factory.hpp:77] Creating layer concat2_9
I1207 20:50:33.600075 23331 net.cpp:84] Creating Layer concat2_9
I1207 20:50:33.600082 23331 net.cpp:406] concat2_9 <- concat2_8_concat2_8_0_split_1
I1207 20:50:33.600090 23331 net.cpp:406] concat2_9 <- conv2_9
I1207 20:50:33.600100 23331 net.cpp:380] concat2_9 -> concat2_9
I1207 20:50:33.600165 23331 net.cpp:122] Setting up concat2_9
I1207 20:50:33.600173 23331 net.cpp:129] Top shape: 1 248 18 106 (473184)
I1207 20:50:33.600178 23331 net.cpp:137] Memory required for data: 333356664
I1207 20:50:33.600181 23331 layer_factory.hpp:77] Creating layer concat2_9_concat2_9_0_split
I1207 20:50:33.600189 23331 net.cpp:84] Creating Layer concat2_9_concat2_9_0_split
I1207 20:50:33.600194 23331 net.cpp:406] concat2_9_concat2_9_0_split <- concat2_9
I1207 20:50:33.600200 23331 net.cpp:380] concat2_9_concat2_9_0_split -> concat2_9_concat2_9_0_split_0
I1207 20:50:33.600208 23331 net.cpp:380] concat2_9_concat2_9_0_split -> concat2_9_concat2_9_0_split_1
I1207 20:50:33.600288 23331 net.cpp:122] Setting up concat2_9_concat2_9_0_split
I1207 20:50:33.600296 23331 net.cpp:129] Top shape: 1 248 18 106 (473184)
I1207 20:50:33.600301 23331 net.cpp:129] Top shape: 1 248 18 106 (473184)
I1207 20:50:33.600306 23331 net.cpp:137] Memory required for data: 337142136
I1207 20:50:33.600309 23331 layer_factory.hpp:77] Creating layer conv2_10/bn
I1207 20:50:33.600318 23331 net.cpp:84] Creating Layer conv2_10/bn
I1207 20:50:33.600323 23331 net.cpp:406] conv2_10/bn <- concat2_9_concat2_9_0_split_0
I1207 20:50:33.600330 23331 net.cpp:380] conv2_10/bn -> conv2_10/bn
I1207 20:50:33.600832 23331 net.cpp:122] Setting up conv2_10/bn
I1207 20:50:33.600843 23331 net.cpp:129] Top shape: 1 248 18 106 (473184)
I1207 20:50:33.600847 23331 net.cpp:137] Memory required for data: 339034872
I1207 20:50:33.600857 23331 layer_factory.hpp:77] Creating layer conv2_10/scale
I1207 20:50:33.600869 23331 net.cpp:84] Creating Layer conv2_10/scale
I1207 20:50:33.600874 23331 net.cpp:406] conv2_10/scale <- conv2_10/bn
I1207 20:50:33.600880 23331 net.cpp:367] conv2_10/scale -> conv2_10/bn (in-place)
I1207 20:50:33.600965 23331 layer_factory.hpp:77] Creating layer conv2_10/scale
I1207 20:50:33.601230 23331 net.cpp:122] Setting up conv2_10/scale
I1207 20:50:33.601239 23331 net.cpp:129] Top shape: 1 248 18 106 (473184)
I1207 20:50:33.601243 23331 net.cpp:137] Memory required for data: 340927608
I1207 20:50:33.601251 23331 layer_factory.hpp:77] Creating layer relu2_10
I1207 20:50:33.601259 23331 net.cpp:84] Creating Layer relu2_10
I1207 20:50:33.601264 23331 net.cpp:406] relu2_10 <- conv2_10/bn
I1207 20:50:33.601269 23331 net.cpp:367] relu2_10 -> conv2_10/bn (in-place)
I1207 20:50:33.601835 23331 net.cpp:122] Setting up relu2_10
I1207 20:50:33.601850 23331 net.cpp:129] Top shape: 1 248 18 106 (473184)
I1207 20:50:33.601855 23331 net.cpp:137] Memory required for data: 342820344
I1207 20:50:33.601860 23331 layer_factory.hpp:77] Creating layer conv2_10
I1207 20:50:33.601874 23331 net.cpp:84] Creating Layer conv2_10
I1207 20:50:33.601879 23331 net.cpp:406] conv2_10 <- conv2_10/bn
I1207 20:50:33.601888 23331 net.cpp:380] conv2_10 -> conv2_10
I1207 20:50:33.604959 23331 net.cpp:122] Setting up conv2_10
I1207 20:50:33.604993 23331 net.cpp:129] Top shape: 1 12 18 106 (22896)
I1207 20:50:33.604998 23331 net.cpp:137] Memory required for data: 342911928
I1207 20:50:33.605010 23331 layer_factory.hpp:77] Creating layer concat2_10
I1207 20:50:33.605024 23331 net.cpp:84] Creating Layer concat2_10
I1207 20:50:33.605031 23331 net.cpp:406] concat2_10 <- concat2_9_concat2_9_0_split_1
I1207 20:50:33.605038 23331 net.cpp:406] concat2_10 <- conv2_10
I1207 20:50:33.605047 23331 net.cpp:380] concat2_10 -> concat2_10
I1207 20:50:33.605106 23331 net.cpp:122] Setting up concat2_10
I1207 20:50:33.605114 23331 net.cpp:129] Top shape: 1 260 18 106 (496080)
I1207 20:50:33.605118 23331 net.cpp:137] Memory required for data: 344896248
I1207 20:50:33.605123 23331 layer_factory.hpp:77] Creating layer concat2_10_concat2_10_0_split
I1207 20:50:33.605134 23331 net.cpp:84] Creating Layer concat2_10_concat2_10_0_split
I1207 20:50:33.605139 23331 net.cpp:406] concat2_10_concat2_10_0_split <- concat2_10
I1207 20:50:33.605146 23331 net.cpp:380] concat2_10_concat2_10_0_split -> concat2_10_concat2_10_0_split_0
I1207 20:50:33.605154 23331 net.cpp:380] concat2_10_concat2_10_0_split -> concat2_10_concat2_10_0_split_1
I1207 20:50:33.605232 23331 net.cpp:122] Setting up concat2_10_concat2_10_0_split
I1207 20:50:33.605240 23331 net.cpp:129] Top shape: 1 260 18 106 (496080)
I1207 20:50:33.605245 23331 net.cpp:129] Top shape: 1 260 18 106 (496080)
I1207 20:50:33.605249 23331 net.cpp:137] Memory required for data: 348864888
I1207 20:50:33.605253 23331 layer_factory.hpp:77] Creating layer conv2_11/bn
I1207 20:50:33.605271 23331 net.cpp:84] Creating Layer conv2_11/bn
I1207 20:50:33.605276 23331 net.cpp:406] conv2_11/bn <- concat2_10_concat2_10_0_split_0
I1207 20:50:33.605284 23331 net.cpp:380] conv2_11/bn -> conv2_11/bn
I1207 20:50:33.605800 23331 net.cpp:122] Setting up conv2_11/bn
I1207 20:50:33.605809 23331 net.cpp:129] Top shape: 1 260 18 106 (496080)
I1207 20:50:33.605813 23331 net.cpp:137] Memory required for data: 350849208
I1207 20:50:33.605836 23331 layer_factory.hpp:77] Creating layer conv2_11/scale
I1207 20:50:33.605845 23331 net.cpp:84] Creating Layer conv2_11/scale
I1207 20:50:33.605850 23331 net.cpp:406] conv2_11/scale <- conv2_11/bn
I1207 20:50:33.605857 23331 net.cpp:367] conv2_11/scale -> conv2_11/bn (in-place)
I1207 20:50:33.605945 23331 layer_factory.hpp:77] Creating layer conv2_11/scale
I1207 20:50:33.606214 23331 net.cpp:122] Setting up conv2_11/scale
I1207 20:50:33.606223 23331 net.cpp:129] Top shape: 1 260 18 106 (496080)
I1207 20:50:33.606227 23331 net.cpp:137] Memory required for data: 352833528
I1207 20:50:33.606235 23331 layer_factory.hpp:77] Creating layer relu2_11
I1207 20:50:33.606242 23331 net.cpp:84] Creating Layer relu2_11
I1207 20:50:33.606247 23331 net.cpp:406] relu2_11 <- conv2_11/bn
I1207 20:50:33.606253 23331 net.cpp:367] relu2_11 -> conv2_11/bn (in-place)
I1207 20:50:33.606511 23331 net.cpp:122] Setting up relu2_11
I1207 20:50:33.606521 23331 net.cpp:129] Top shape: 1 260 18 106 (496080)
I1207 20:50:33.606526 23331 net.cpp:137] Memory required for data: 354817848
I1207 20:50:33.606530 23331 layer_factory.hpp:77] Creating layer conv2_11
I1207 20:50:33.606545 23331 net.cpp:84] Creating Layer conv2_11
I1207 20:50:33.606550 23331 net.cpp:406] conv2_11 <- conv2_11/bn
I1207 20:50:33.606557 23331 net.cpp:380] conv2_11 -> conv2_11
I1207 20:50:33.609514 23331 net.cpp:122] Setting up conv2_11
I1207 20:50:33.609541 23331 net.cpp:129] Top shape: 1 12 18 106 (22896)
I1207 20:50:33.609546 23331 net.cpp:137] Memory required for data: 354909432
I1207 20:50:33.609555 23331 layer_factory.hpp:77] Creating layer concat2_11
I1207 20:50:33.609566 23331 net.cpp:84] Creating Layer concat2_11
I1207 20:50:33.609573 23331 net.cpp:406] concat2_11 <- concat2_10_concat2_10_0_split_1
I1207 20:50:33.609580 23331 net.cpp:406] concat2_11 <- conv2_11
I1207 20:50:33.609587 23331 net.cpp:380] concat2_11 -> concat2_11
I1207 20:50:33.609645 23331 net.cpp:122] Setting up concat2_11
I1207 20:50:33.609654 23331 net.cpp:129] Top shape: 1 272 18 106 (518976)
I1207 20:50:33.609658 23331 net.cpp:137] Memory required for data: 356985336
I1207 20:50:33.609663 23331 layer_factory.hpp:77] Creating layer concat2_11_concat2_11_0_split
I1207 20:50:33.609669 23331 net.cpp:84] Creating Layer concat2_11_concat2_11_0_split
I1207 20:50:33.609673 23331 net.cpp:406] concat2_11_concat2_11_0_split <- concat2_11
I1207 20:50:33.609679 23331 net.cpp:380] concat2_11_concat2_11_0_split -> concat2_11_concat2_11_0_split_0
I1207 20:50:33.609688 23331 net.cpp:380] concat2_11_concat2_11_0_split -> concat2_11_concat2_11_0_split_1
I1207 20:50:33.609766 23331 net.cpp:122] Setting up concat2_11_concat2_11_0_split
I1207 20:50:33.609774 23331 net.cpp:129] Top shape: 1 272 18 106 (518976)
I1207 20:50:33.609779 23331 net.cpp:129] Top shape: 1 272 18 106 (518976)
I1207 20:50:33.609783 23331 net.cpp:137] Memory required for data: 361137144
I1207 20:50:33.609792 23331 layer_factory.hpp:77] Creating layer conv2_12/bn
I1207 20:50:33.609802 23331 net.cpp:84] Creating Layer conv2_12/bn
I1207 20:50:33.609805 23331 net.cpp:406] conv2_12/bn <- concat2_11_concat2_11_0_split_0
I1207 20:50:33.609812 23331 net.cpp:380] conv2_12/bn -> conv2_12/bn
I1207 20:50:33.610327 23331 net.cpp:122] Setting up conv2_12/bn
I1207 20:50:33.610337 23331 net.cpp:129] Top shape: 1 272 18 106 (518976)
I1207 20:50:33.610340 23331 net.cpp:137] Memory required for data: 363213048
I1207 20:50:33.610350 23331 layer_factory.hpp:77] Creating layer conv2_12/scale
I1207 20:50:33.610360 23331 net.cpp:84] Creating Layer conv2_12/scale
I1207 20:50:33.610365 23331 net.cpp:406] conv2_12/scale <- conv2_12/bn
I1207 20:50:33.610373 23331 net.cpp:367] conv2_12/scale -> conv2_12/bn (in-place)
I1207 20:50:33.610460 23331 layer_factory.hpp:77] Creating layer conv2_12/scale
I1207 20:50:33.610733 23331 net.cpp:122] Setting up conv2_12/scale
I1207 20:50:33.610743 23331 net.cpp:129] Top shape: 1 272 18 106 (518976)
I1207 20:50:33.610747 23331 net.cpp:137] Memory required for data: 365288952
I1207 20:50:33.610755 23331 layer_factory.hpp:77] Creating layer relu2_12
I1207 20:50:33.610764 23331 net.cpp:84] Creating Layer relu2_12
I1207 20:50:33.610767 23331 net.cpp:406] relu2_12 <- conv2_12/bn
I1207 20:50:33.610774 23331 net.cpp:367] relu2_12 -> conv2_12/bn (in-place)
I1207 20:50:33.611503 23331 net.cpp:122] Setting up relu2_12
I1207 20:50:33.611522 23331 net.cpp:129] Top shape: 1 272 18 106 (518976)
I1207 20:50:33.611527 23331 net.cpp:137] Memory required for data: 367364856
I1207 20:50:33.611532 23331 layer_factory.hpp:77] Creating layer conv2_12
I1207 20:50:33.611548 23331 net.cpp:84] Creating Layer conv2_12
I1207 20:50:33.611553 23331 net.cpp:406] conv2_12 <- conv2_12/bn
I1207 20:50:33.611563 23331 net.cpp:380] conv2_12 -> conv2_12
I1207 20:50:33.614504 23331 net.cpp:122] Setting up conv2_12
I1207 20:50:33.614522 23331 net.cpp:129] Top shape: 1 12 18 106 (22896)
I1207 20:50:33.614526 23331 net.cpp:137] Memory required for data: 367456440
I1207 20:50:33.614537 23331 layer_factory.hpp:77] Creating layer concat2_12
I1207 20:50:33.614547 23331 net.cpp:84] Creating Layer concat2_12
I1207 20:50:33.614552 23331 net.cpp:406] concat2_12 <- concat2_11_concat2_11_0_split_1
I1207 20:50:33.614558 23331 net.cpp:406] concat2_12 <- conv2_12
I1207 20:50:33.614567 23331 net.cpp:380] concat2_12 -> concat2_12
I1207 20:50:33.614624 23331 net.cpp:122] Setting up concat2_12
I1207 20:50:33.614631 23331 net.cpp:129] Top shape: 1 284 18 106 (541872)
I1207 20:50:33.614635 23331 net.cpp:137] Memory required for data: 369623928
I1207 20:50:33.614639 23331 layer_factory.hpp:77] Creating layer concat2_12_concat2_12_0_split
I1207 20:50:33.614646 23331 net.cpp:84] Creating Layer concat2_12_concat2_12_0_split
I1207 20:50:33.614650 23331 net.cpp:406] concat2_12_concat2_12_0_split <- concat2_12
I1207 20:50:33.614658 23331 net.cpp:380] concat2_12_concat2_12_0_split -> concat2_12_concat2_12_0_split_0
I1207 20:50:33.614665 23331 net.cpp:380] concat2_12_concat2_12_0_split -> concat2_12_concat2_12_0_split_1
I1207 20:50:33.614744 23331 net.cpp:122] Setting up concat2_12_concat2_12_0_split
I1207 20:50:33.614753 23331 net.cpp:129] Top shape: 1 284 18 106 (541872)
I1207 20:50:33.614758 23331 net.cpp:129] Top shape: 1 284 18 106 (541872)
I1207 20:50:33.614761 23331 net.cpp:137] Memory required for data: 373958904
I1207 20:50:33.614765 23331 layer_factory.hpp:77] Creating layer conv2_13/bn
I1207 20:50:33.614773 23331 net.cpp:84] Creating Layer conv2_13/bn
I1207 20:50:33.614778 23331 net.cpp:406] conv2_13/bn <- concat2_12_concat2_12_0_split_0
I1207 20:50:33.614784 23331 net.cpp:380] conv2_13/bn -> conv2_13/bn
I1207 20:50:33.615298 23331 net.cpp:122] Setting up conv2_13/bn
I1207 20:50:33.615306 23331 net.cpp:129] Top shape: 1 284 18 106 (541872)
I1207 20:50:33.615310 23331 net.cpp:137] Memory required for data: 376126392
I1207 20:50:33.615319 23331 layer_factory.hpp:77] Creating layer conv2_13/scale
I1207 20:50:33.615329 23331 net.cpp:84] Creating Layer conv2_13/scale
I1207 20:50:33.615339 23331 net.cpp:406] conv2_13/scale <- conv2_13/bn
I1207 20:50:33.615345 23331 net.cpp:367] conv2_13/scale -> conv2_13/bn (in-place)
I1207 20:50:33.615435 23331 layer_factory.hpp:77] Creating layer conv2_13/scale
I1207 20:50:33.615703 23331 net.cpp:122] Setting up conv2_13/scale
I1207 20:50:33.615712 23331 net.cpp:129] Top shape: 1 284 18 106 (541872)
I1207 20:50:33.615716 23331 net.cpp:137] Memory required for data: 378293880
I1207 20:50:33.615725 23331 layer_factory.hpp:77] Creating layer relu2_13
I1207 20:50:33.615733 23331 net.cpp:84] Creating Layer relu2_13
I1207 20:50:33.615738 23331 net.cpp:406] relu2_13 <- conv2_13/bn
I1207 20:50:33.615743 23331 net.cpp:367] relu2_13 -> conv2_13/bn (in-place)
I1207 20:50:33.649720 23331 net.cpp:122] Setting up relu2_13
I1207 20:50:33.649754 23331 net.cpp:129] Top shape: 1 284 18 106 (541872)
I1207 20:50:33.649757 23331 net.cpp:137] Memory required for data: 380461368
I1207 20:50:33.649765 23331 layer_factory.hpp:77] Creating layer conv2_13
I1207 20:50:33.649785 23331 net.cpp:84] Creating Layer conv2_13
I1207 20:50:33.649791 23331 net.cpp:406] conv2_13 <- conv2_13/bn
I1207 20:50:33.649801 23331 net.cpp:380] conv2_13 -> conv2_13
I1207 20:50:33.673995 23331 net.cpp:122] Setting up conv2_13
I1207 20:50:33.674027 23331 net.cpp:129] Top shape: 1 12 18 106 (22896)
I1207 20:50:33.674031 23331 net.cpp:137] Memory required for data: 380552952
I1207 20:50:33.674039 23331 layer_factory.hpp:77] Creating layer concat2_13
I1207 20:50:33.674051 23331 net.cpp:84] Creating Layer concat2_13
I1207 20:50:33.674055 23331 net.cpp:406] concat2_13 <- concat2_12_concat2_12_0_split_1
I1207 20:50:33.674062 23331 net.cpp:406] concat2_13 <- conv2_13
I1207 20:50:33.674067 23331 net.cpp:380] concat2_13 -> concat2_13
I1207 20:50:33.674118 23331 net.cpp:122] Setting up concat2_13
I1207 20:50:33.674124 23331 net.cpp:129] Top shape: 1 296 18 106 (564768)
I1207 20:50:33.674126 23331 net.cpp:137] Memory required for data: 382812024
I1207 20:50:33.674129 23331 layer_factory.hpp:77] Creating layer concat2_13_concat2_13_0_split
I1207 20:50:33.674134 23331 net.cpp:84] Creating Layer concat2_13_concat2_13_0_split
I1207 20:50:33.674136 23331 net.cpp:406] concat2_13_concat2_13_0_split <- concat2_13
I1207 20:50:33.674142 23331 net.cpp:380] concat2_13_concat2_13_0_split -> concat2_13_concat2_13_0_split_0
I1207 20:50:33.674147 23331 net.cpp:380] concat2_13_concat2_13_0_split -> concat2_13_concat2_13_0_split_1
I1207 20:50:33.674208 23331 net.cpp:122] Setting up concat2_13_concat2_13_0_split
I1207 20:50:33.674214 23331 net.cpp:129] Top shape: 1 296 18 106 (564768)
I1207 20:50:33.674217 23331 net.cpp:129] Top shape: 1 296 18 106 (564768)
I1207 20:50:33.674219 23331 net.cpp:137] Memory required for data: 387330168
I1207 20:50:33.674222 23331 layer_factory.hpp:77] Creating layer conv2_14/bn
I1207 20:50:33.674227 23331 net.cpp:84] Creating Layer conv2_14/bn
I1207 20:50:33.674230 23331 net.cpp:406] conv2_14/bn <- concat2_13_concat2_13_0_split_0
I1207 20:50:33.674235 23331 net.cpp:380] conv2_14/bn -> conv2_14/bn
I1207 20:50:33.674633 23331 net.cpp:122] Setting up conv2_14/bn
I1207 20:50:33.674639 23331 net.cpp:129] Top shape: 1 296 18 106 (564768)
I1207 20:50:33.674643 23331 net.cpp:137] Memory required for data: 389589240
I1207 20:50:33.674649 23331 layer_factory.hpp:77] Creating layer conv2_14/scale
I1207 20:50:33.674656 23331 net.cpp:84] Creating Layer conv2_14/scale
I1207 20:50:33.674659 23331 net.cpp:406] conv2_14/scale <- conv2_14/bn
I1207 20:50:33.674664 23331 net.cpp:367] conv2_14/scale -> conv2_14/bn (in-place)
I1207 20:50:33.674732 23331 layer_factory.hpp:77] Creating layer conv2_14/scale
I1207 20:50:33.674932 23331 net.cpp:122] Setting up conv2_14/scale
I1207 20:50:33.674937 23331 net.cpp:129] Top shape: 1 296 18 106 (564768)
I1207 20:50:33.674939 23331 net.cpp:137] Memory required for data: 391848312
I1207 20:50:33.674944 23331 layer_factory.hpp:77] Creating layer relu2_14
I1207 20:50:33.674950 23331 net.cpp:84] Creating Layer relu2_14
I1207 20:50:33.674953 23331 net.cpp:406] relu2_14 <- conv2_14/bn
I1207 20:50:33.674967 23331 net.cpp:367] relu2_14 -> conv2_14/bn (in-place)
I1207 20:50:33.675171 23331 net.cpp:122] Setting up relu2_14
I1207 20:50:33.675179 23331 net.cpp:129] Top shape: 1 296 18 106 (564768)
I1207 20:50:33.675181 23331 net.cpp:137] Memory required for data: 394107384
I1207 20:50:33.675184 23331 layer_factory.hpp:77] Creating layer conv2_14
I1207 20:50:33.675194 23331 net.cpp:84] Creating Layer conv2_14
I1207 20:50:33.675197 23331 net.cpp:406] conv2_14 <- conv2_14/bn
I1207 20:50:33.675202 23331 net.cpp:380] conv2_14 -> conv2_14
I1207 20:50:33.678122 23331 net.cpp:122] Setting up conv2_14
I1207 20:50:33.678145 23331 net.cpp:129] Top shape: 1 12 18 106 (22896)
I1207 20:50:33.678149 23331 net.cpp:137] Memory required for data: 394198968
I1207 20:50:33.678156 23331 layer_factory.hpp:77] Creating layer concat2_14
I1207 20:50:33.678164 23331 net.cpp:84] Creating Layer concat2_14
I1207 20:50:33.678169 23331 net.cpp:406] concat2_14 <- concat2_13_concat2_13_0_split_1
I1207 20:50:33.678174 23331 net.cpp:406] concat2_14 <- conv2_14
I1207 20:50:33.678180 23331 net.cpp:380] concat2_14 -> concat2_14
I1207 20:50:33.678226 23331 net.cpp:122] Setting up concat2_14
I1207 20:50:33.678232 23331 net.cpp:129] Top shape: 1 308 18 106 (587664)
I1207 20:50:33.678234 23331 net.cpp:137] Memory required for data: 396549624
I1207 20:50:33.678236 23331 layer_factory.hpp:77] Creating layer concat2_14_concat2_14_0_split
I1207 20:50:33.678241 23331 net.cpp:84] Creating Layer concat2_14_concat2_14_0_split
I1207 20:50:33.678244 23331 net.cpp:406] concat2_14_concat2_14_0_split <- concat2_14
I1207 20:50:33.678249 23331 net.cpp:380] concat2_14_concat2_14_0_split -> concat2_14_concat2_14_0_split_0
I1207 20:50:33.678254 23331 net.cpp:380] concat2_14_concat2_14_0_split -> concat2_14_concat2_14_0_split_1
I1207 20:50:33.678315 23331 net.cpp:122] Setting up concat2_14_concat2_14_0_split
I1207 20:50:33.678321 23331 net.cpp:129] Top shape: 1 308 18 106 (587664)
I1207 20:50:33.678324 23331 net.cpp:129] Top shape: 1 308 18 106 (587664)
I1207 20:50:33.678326 23331 net.cpp:137] Memory required for data: 401250936
I1207 20:50:33.678329 23331 layer_factory.hpp:77] Creating layer conv2_15/bn
I1207 20:50:33.678335 23331 net.cpp:84] Creating Layer conv2_15/bn
I1207 20:50:33.678339 23331 net.cpp:406] conv2_15/bn <- concat2_14_concat2_14_0_split_0
I1207 20:50:33.678342 23331 net.cpp:380] conv2_15/bn -> conv2_15/bn
I1207 20:50:33.678735 23331 net.cpp:122] Setting up conv2_15/bn
I1207 20:50:33.678742 23331 net.cpp:129] Top shape: 1 308 18 106 (587664)
I1207 20:50:33.678745 23331 net.cpp:137] Memory required for data: 403601592
I1207 20:50:33.678750 23331 layer_factory.hpp:77] Creating layer conv2_15/scale
I1207 20:50:33.678757 23331 net.cpp:84] Creating Layer conv2_15/scale
I1207 20:50:33.678761 23331 net.cpp:406] conv2_15/scale <- conv2_15/bn
I1207 20:50:33.678766 23331 net.cpp:367] conv2_15/scale -> conv2_15/bn (in-place)
I1207 20:50:33.678836 23331 layer_factory.hpp:77] Creating layer conv2_15/scale
I1207 20:50:33.679042 23331 net.cpp:122] Setting up conv2_15/scale
I1207 20:50:33.679049 23331 net.cpp:129] Top shape: 1 308 18 106 (587664)
I1207 20:50:33.679051 23331 net.cpp:137] Memory required for data: 405952248
I1207 20:50:33.679055 23331 layer_factory.hpp:77] Creating layer relu2_15
I1207 20:50:33.679061 23331 net.cpp:84] Creating Layer relu2_15
I1207 20:50:33.679064 23331 net.cpp:406] relu2_15 <- conv2_15/bn
I1207 20:50:33.679069 23331 net.cpp:367] relu2_15 -> conv2_15/bn (in-place)
I1207 20:50:33.679436 23331 net.cpp:122] Setting up relu2_15
I1207 20:50:33.679445 23331 net.cpp:129] Top shape: 1 308 18 106 (587664)
I1207 20:50:33.679448 23331 net.cpp:137] Memory required for data: 408302904
I1207 20:50:33.679451 23331 layer_factory.hpp:77] Creating layer conv2_15
I1207 20:50:33.679462 23331 net.cpp:84] Creating Layer conv2_15
I1207 20:50:33.679466 23331 net.cpp:406] conv2_15 <- conv2_15/bn
I1207 20:50:33.679471 23331 net.cpp:380] conv2_15 -> conv2_15
I1207 20:50:33.681692 23331 net.cpp:122] Setting up conv2_15
I1207 20:50:33.681715 23331 net.cpp:129] Top shape: 1 12 18 106 (22896)
I1207 20:50:33.681718 23331 net.cpp:137] Memory required for data: 408394488
I1207 20:50:33.681723 23331 layer_factory.hpp:77] Creating layer concat2_15
I1207 20:50:33.681731 23331 net.cpp:84] Creating Layer concat2_15
I1207 20:50:33.681736 23331 net.cpp:406] concat2_15 <- concat2_14_concat2_14_0_split_1
I1207 20:50:33.681740 23331 net.cpp:406] concat2_15 <- conv2_15
I1207 20:50:33.681744 23331 net.cpp:380] concat2_15 -> concat2_15
I1207 20:50:33.681790 23331 net.cpp:122] Setting up concat2_15
I1207 20:50:33.681795 23331 net.cpp:129] Top shape: 1 320 18 106 (610560)
I1207 20:50:33.681797 23331 net.cpp:137] Memory required for data: 410836728
I1207 20:50:33.681800 23331 layer_factory.hpp:77] Creating layer concat2_15_concat2_15_0_split
I1207 20:50:33.681807 23331 net.cpp:84] Creating Layer concat2_15_concat2_15_0_split
I1207 20:50:33.681809 23331 net.cpp:406] concat2_15_concat2_15_0_split <- concat2_15
I1207 20:50:33.681813 23331 net.cpp:380] concat2_15_concat2_15_0_split -> concat2_15_concat2_15_0_split_0
I1207 20:50:33.681818 23331 net.cpp:380] concat2_15_concat2_15_0_split -> concat2_15_concat2_15_0_split_1
I1207 20:50:33.681879 23331 net.cpp:122] Setting up concat2_15_concat2_15_0_split
I1207 20:50:33.681884 23331 net.cpp:129] Top shape: 1 320 18 106 (610560)
I1207 20:50:33.681886 23331 net.cpp:129] Top shape: 1 320 18 106 (610560)
I1207 20:50:33.681888 23331 net.cpp:137] Memory required for data: 415721208
I1207 20:50:33.681891 23331 layer_factory.hpp:77] Creating layer conv2_16/bn
I1207 20:50:33.681896 23331 net.cpp:84] Creating Layer conv2_16/bn
I1207 20:50:33.681900 23331 net.cpp:406] conv2_16/bn <- concat2_15_concat2_15_0_split_0
I1207 20:50:33.681903 23331 net.cpp:380] conv2_16/bn -> conv2_16/bn
I1207 20:50:33.682293 23331 net.cpp:122] Setting up conv2_16/bn
I1207 20:50:33.682299 23331 net.cpp:129] Top shape: 1 320 18 106 (610560)
I1207 20:50:33.682302 23331 net.cpp:137] Memory required for data: 418163448
I1207 20:50:33.682308 23331 layer_factory.hpp:77] Creating layer conv2_16/scale
I1207 20:50:33.682317 23331 net.cpp:84] Creating Layer conv2_16/scale
I1207 20:50:33.682319 23331 net.cpp:406] conv2_16/scale <- conv2_16/bn
I1207 20:50:33.682323 23331 net.cpp:367] conv2_16/scale -> conv2_16/bn (in-place)
I1207 20:50:33.682392 23331 layer_factory.hpp:77] Creating layer conv2_16/scale
I1207 20:50:33.682600 23331 net.cpp:122] Setting up conv2_16/scale
I1207 20:50:33.682605 23331 net.cpp:129] Top shape: 1 320 18 106 (610560)
I1207 20:50:33.682608 23331 net.cpp:137] Memory required for data: 420605688
I1207 20:50:33.682612 23331 layer_factory.hpp:77] Creating layer relu2_16
I1207 20:50:33.682618 23331 net.cpp:84] Creating Layer relu2_16
I1207 20:50:33.682621 23331 net.cpp:406] relu2_16 <- conv2_16/bn
I1207 20:50:33.682624 23331 net.cpp:367] relu2_16 -> conv2_16/bn (in-place)
I1207 20:50:33.682821 23331 net.cpp:122] Setting up relu2_16
I1207 20:50:33.682828 23331 net.cpp:129] Top shape: 1 320 18 106 (610560)
I1207 20:50:33.682832 23331 net.cpp:137] Memory required for data: 423047928
I1207 20:50:33.682833 23331 layer_factory.hpp:77] Creating layer conv2_16
I1207 20:50:33.682843 23331 net.cpp:84] Creating Layer conv2_16
I1207 20:50:33.682847 23331 net.cpp:406] conv2_16 <- conv2_16/bn
I1207 20:50:33.682852 23331 net.cpp:380] conv2_16 -> conv2_16
I1207 20:50:33.693898 23331 net.cpp:122] Setting up conv2_16
I1207 20:50:33.693933 23331 net.cpp:129] Top shape: 1 12 18 106 (22896)
I1207 20:50:33.693938 23331 net.cpp:137] Memory required for data: 423139512
I1207 20:50:33.693949 23331 layer_factory.hpp:77] Creating layer concat2_16
I1207 20:50:33.693964 23331 net.cpp:84] Creating Layer concat2_16
I1207 20:50:33.693970 23331 net.cpp:406] concat2_16 <- concat2_15_concat2_15_0_split_1
I1207 20:50:33.693979 23331 net.cpp:406] concat2_16 <- conv2_16
I1207 20:50:33.693987 23331 net.cpp:380] concat2_16 -> concat2_16
I1207 20:50:33.694051 23331 net.cpp:122] Setting up concat2_16
I1207 20:50:33.694058 23331 net.cpp:129] Top shape: 1 332 18 106 (633456)
I1207 20:50:33.694062 23331 net.cpp:137] Memory required for data: 425673336
I1207 20:50:33.694072 23331 layer_factory.hpp:77] Creating layer concat2_16_concat2_16_0_split
I1207 20:50:33.694079 23331 net.cpp:84] Creating Layer concat2_16_concat2_16_0_split
I1207 20:50:33.694083 23331 net.cpp:406] concat2_16_concat2_16_0_split <- concat2_16
I1207 20:50:33.694092 23331 net.cpp:380] concat2_16_concat2_16_0_split -> concat2_16_concat2_16_0_split_0
I1207 20:50:33.694098 23331 net.cpp:380] concat2_16_concat2_16_0_split -> concat2_16_concat2_16_0_split_1
I1207 20:50:33.694181 23331 net.cpp:122] Setting up concat2_16_concat2_16_0_split
I1207 20:50:33.694190 23331 net.cpp:129] Top shape: 1 332 18 106 (633456)
I1207 20:50:33.694195 23331 net.cpp:129] Top shape: 1 332 18 106 (633456)
I1207 20:50:33.694200 23331 net.cpp:137] Memory required for data: 430740984
I1207 20:50:33.694203 23331 layer_factory.hpp:77] Creating layer conv2_17/bn
I1207 20:50:33.694212 23331 net.cpp:84] Creating Layer conv2_17/bn
I1207 20:50:33.694216 23331 net.cpp:406] conv2_17/bn <- concat2_16_concat2_16_0_split_0
I1207 20:50:33.694222 23331 net.cpp:380] conv2_17/bn -> conv2_17/bn
I1207 20:50:33.694768 23331 net.cpp:122] Setting up conv2_17/bn
I1207 20:50:33.694777 23331 net.cpp:129] Top shape: 1 332 18 106 (633456)
I1207 20:50:33.694782 23331 net.cpp:137] Memory required for data: 433274808
I1207 20:50:33.694792 23331 layer_factory.hpp:77] Creating layer conv2_17/scale
I1207 20:50:33.694800 23331 net.cpp:84] Creating Layer conv2_17/scale
I1207 20:50:33.694805 23331 net.cpp:406] conv2_17/scale <- conv2_17/bn
I1207 20:50:33.694813 23331 net.cpp:367] conv2_17/scale -> conv2_17/bn (in-place)
I1207 20:50:33.694905 23331 layer_factory.hpp:77] Creating layer conv2_17/scale
I1207 20:50:33.695184 23331 net.cpp:122] Setting up conv2_17/scale
I1207 20:50:33.695194 23331 net.cpp:129] Top shape: 1 332 18 106 (633456)
I1207 20:50:33.695199 23331 net.cpp:137] Memory required for data: 435808632
I1207 20:50:33.695205 23331 layer_factory.hpp:77] Creating layer relu2_17
I1207 20:50:33.695214 23331 net.cpp:84] Creating Layer relu2_17
I1207 20:50:33.695219 23331 net.cpp:406] relu2_17 <- conv2_17/bn
I1207 20:50:33.695225 23331 net.cpp:367] relu2_17 -> conv2_17/bn (in-place)
I1207 20:50:33.734098 23331 net.cpp:122] Setting up relu2_17
I1207 20:50:33.734133 23331 net.cpp:129] Top shape: 1 332 18 106 (633456)
I1207 20:50:33.734138 23331 net.cpp:137] Memory required for data: 438342456
I1207 20:50:33.734145 23331 layer_factory.hpp:77] Creating layer conv2_17
I1207 20:50:33.734166 23331 net.cpp:84] Creating Layer conv2_17
I1207 20:50:33.734174 23331 net.cpp:406] conv2_17 <- conv2_17/bn
I1207 20:50:33.734184 23331 net.cpp:380] conv2_17 -> conv2_17
I1207 20:50:33.737615 23331 net.cpp:122] Setting up conv2_17
I1207 20:50:33.737646 23331 net.cpp:129] Top shape: 1 12 18 106 (22896)
I1207 20:50:33.737650 23331 net.cpp:137] Memory required for data: 438434040
I1207 20:50:33.737661 23331 layer_factory.hpp:77] Creating layer concat2_17
I1207 20:50:33.737673 23331 net.cpp:84] Creating Layer concat2_17
I1207 20:50:33.737680 23331 net.cpp:406] concat2_17 <- concat2_16_concat2_16_0_split_1
I1207 20:50:33.737689 23331 net.cpp:406] concat2_17 <- conv2_17
I1207 20:50:33.737695 23331 net.cpp:380] concat2_17 -> concat2_17
I1207 20:50:33.737756 23331 net.cpp:122] Setting up concat2_17
I1207 20:50:33.737764 23331 net.cpp:129] Top shape: 1 344 18 106 (656352)
I1207 20:50:33.737768 23331 net.cpp:137] Memory required for data: 441059448
I1207 20:50:33.737771 23331 layer_factory.hpp:77] Creating layer concat2_17_concat2_17_0_split
I1207 20:50:33.737778 23331 net.cpp:84] Creating Layer concat2_17_concat2_17_0_split
I1207 20:50:33.737783 23331 net.cpp:406] concat2_17_concat2_17_0_split <- concat2_17
I1207 20:50:33.737790 23331 net.cpp:380] concat2_17_concat2_17_0_split -> concat2_17_concat2_17_0_split_0
I1207 20:50:33.737798 23331 net.cpp:380] concat2_17_concat2_17_0_split -> concat2_17_concat2_17_0_split_1
I1207 20:50:33.737880 23331 net.cpp:122] Setting up concat2_17_concat2_17_0_split
I1207 20:50:33.737888 23331 net.cpp:129] Top shape: 1 344 18 106 (656352)
I1207 20:50:33.737898 23331 net.cpp:129] Top shape: 1 344 18 106 (656352)
I1207 20:50:33.737902 23331 net.cpp:137] Memory required for data: 446310264
I1207 20:50:33.737906 23331 layer_factory.hpp:77] Creating layer conv2_18/bn
I1207 20:50:33.737915 23331 net.cpp:84] Creating Layer conv2_18/bn
I1207 20:50:33.737920 23331 net.cpp:406] conv2_18/bn <- concat2_17_concat2_17_0_split_0
I1207 20:50:33.737927 23331 net.cpp:380] conv2_18/bn -> conv2_18/bn
I1207 20:50:33.738476 23331 net.cpp:122] Setting up conv2_18/bn
I1207 20:50:33.738485 23331 net.cpp:129] Top shape: 1 344 18 106 (656352)
I1207 20:50:33.738489 23331 net.cpp:137] Memory required for data: 448935672
I1207 20:50:33.738498 23331 layer_factory.hpp:77] Creating layer conv2_18/scale
I1207 20:50:33.738507 23331 net.cpp:84] Creating Layer conv2_18/scale
I1207 20:50:33.738512 23331 net.cpp:406] conv2_18/scale <- conv2_18/bn
I1207 20:50:33.738519 23331 net.cpp:367] conv2_18/scale -> conv2_18/bn (in-place)
I1207 20:50:33.738612 23331 layer_factory.hpp:77] Creating layer conv2_18/scale
I1207 20:50:33.738899 23331 net.cpp:122] Setting up conv2_18/scale
I1207 20:50:33.738909 23331 net.cpp:129] Top shape: 1 344 18 106 (656352)
I1207 20:50:33.738914 23331 net.cpp:137] Memory required for data: 451561080
I1207 20:50:33.738920 23331 layer_factory.hpp:77] Creating layer relu2_18
I1207 20:50:33.738930 23331 net.cpp:84] Creating Layer relu2_18
I1207 20:50:33.738935 23331 net.cpp:406] relu2_18 <- conv2_18/bn
I1207 20:50:33.738940 23331 net.cpp:367] relu2_18 -> conv2_18/bn (in-place)
I1207 20:50:33.739393 23331 net.cpp:122] Setting up relu2_18
I1207 20:50:33.739406 23331 net.cpp:129] Top shape: 1 344 18 106 (656352)
I1207 20:50:33.739410 23331 net.cpp:137] Memory required for data: 454186488
I1207 20:50:33.739414 23331 layer_factory.hpp:77] Creating layer conv2_18
I1207 20:50:33.739428 23331 net.cpp:84] Creating Layer conv2_18
I1207 20:50:33.739434 23331 net.cpp:406] conv2_18 <- conv2_18/bn
I1207 20:50:33.739441 23331 net.cpp:380] conv2_18 -> conv2_18
I1207 20:50:33.768321 23331 net.cpp:122] Setting up conv2_18
I1207 20:50:33.768357 23331 net.cpp:129] Top shape: 1 12 18 106 (22896)
I1207 20:50:33.768362 23331 net.cpp:137] Memory required for data: 454278072
I1207 20:50:33.768373 23331 layer_factory.hpp:77] Creating layer concat2_18
I1207 20:50:33.768388 23331 net.cpp:84] Creating Layer concat2_18
I1207 20:50:33.768394 23331 net.cpp:406] concat2_18 <- concat2_17_concat2_17_0_split_1
I1207 20:50:33.768404 23331 net.cpp:406] concat2_18 <- conv2_18
I1207 20:50:33.768410 23331 net.cpp:380] concat2_18 -> concat2_18
I1207 20:50:33.768476 23331 net.cpp:122] Setting up concat2_18
I1207 20:50:33.768486 23331 net.cpp:129] Top shape: 1 356 18 106 (679248)
I1207 20:50:33.768489 23331 net.cpp:137] Memory required for data: 456995064
I1207 20:50:33.768493 23331 layer_factory.hpp:77] Creating layer concat2_18_concat2_18_0_split
I1207 20:50:33.768501 23331 net.cpp:84] Creating Layer concat2_18_concat2_18_0_split
I1207 20:50:33.768504 23331 net.cpp:406] concat2_18_concat2_18_0_split <- concat2_18
I1207 20:50:33.768510 23331 net.cpp:380] concat2_18_concat2_18_0_split -> concat2_18_concat2_18_0_split_0
I1207 20:50:33.768518 23331 net.cpp:380] concat2_18_concat2_18_0_split -> concat2_18_concat2_18_0_split_1
I1207 20:50:33.768604 23331 net.cpp:122] Setting up concat2_18_concat2_18_0_split
I1207 20:50:33.768611 23331 net.cpp:129] Top shape: 1 356 18 106 (679248)
I1207 20:50:33.768617 23331 net.cpp:129] Top shape: 1 356 18 106 (679248)
I1207 20:50:33.768621 23331 net.cpp:137] Memory required for data: 462429048
I1207 20:50:33.768625 23331 layer_factory.hpp:77] Creating layer conv2_19/bn
I1207 20:50:33.768635 23331 net.cpp:84] Creating Layer conv2_19/bn
I1207 20:50:33.768640 23331 net.cpp:406] conv2_19/bn <- concat2_18_concat2_18_0_split_0
I1207 20:50:33.768646 23331 net.cpp:380] conv2_19/bn -> conv2_19/bn
I1207 20:50:33.769208 23331 net.cpp:122] Setting up conv2_19/bn
I1207 20:50:33.769219 23331 net.cpp:129] Top shape: 1 356 18 106 (679248)
I1207 20:50:33.769223 23331 net.cpp:137] Memory required for data: 465146040
I1207 20:50:33.769238 23331 layer_factory.hpp:77] Creating layer conv2_19/scale
I1207 20:50:33.769249 23331 net.cpp:84] Creating Layer conv2_19/scale
I1207 20:50:33.769254 23331 net.cpp:406] conv2_19/scale <- conv2_19/bn
I1207 20:50:33.769263 23331 net.cpp:367] conv2_19/scale -> conv2_19/bn (in-place)
I1207 20:50:33.769354 23331 layer_factory.hpp:77] Creating layer conv2_19/scale
I1207 20:50:33.769634 23331 net.cpp:122] Setting up conv2_19/scale
I1207 20:50:33.769644 23331 net.cpp:129] Top shape: 1 356 18 106 (679248)
I1207 20:50:33.769647 23331 net.cpp:137] Memory required for data: 467863032
I1207 20:50:33.769655 23331 layer_factory.hpp:77] Creating layer relu2_19
I1207 20:50:33.769662 23331 net.cpp:84] Creating Layer relu2_19
I1207 20:50:33.769666 23331 net.cpp:406] relu2_19 <- conv2_19/bn
I1207 20:50:33.769672 23331 net.cpp:367] relu2_19 -> conv2_19/bn (in-place)
I1207 20:50:33.769974 23331 net.cpp:122] Setting up relu2_19
I1207 20:50:33.769985 23331 net.cpp:129] Top shape: 1 356 18 106 (679248)
I1207 20:50:33.769989 23331 net.cpp:137] Memory required for data: 470580024
I1207 20:50:33.769994 23331 layer_factory.hpp:77] Creating layer conv2_19
I1207 20:50:33.770007 23331 net.cpp:84] Creating Layer conv2_19
I1207 20:50:33.770012 23331 net.cpp:406] conv2_19 <- conv2_19/bn
I1207 20:50:33.770020 23331 net.cpp:380] conv2_19 -> conv2_19
I1207 20:50:33.773365 23331 net.cpp:122] Setting up conv2_19
I1207 20:50:33.773389 23331 net.cpp:129] Top shape: 1 12 18 106 (22896)
I1207 20:50:33.773392 23331 net.cpp:137] Memory required for data: 470671608
I1207 20:50:33.773401 23331 layer_factory.hpp:77] Creating layer concat2_19
I1207 20:50:33.773409 23331 net.cpp:84] Creating Layer concat2_19
I1207 20:50:33.773414 23331 net.cpp:406] concat2_19 <- concat2_18_concat2_18_0_split_1
I1207 20:50:33.773419 23331 net.cpp:406] concat2_19 <- conv2_19
I1207 20:50:33.773425 23331 net.cpp:380] concat2_19 -> concat2_19
I1207 20:50:33.773473 23331 net.cpp:122] Setting up concat2_19
I1207 20:50:33.773479 23331 net.cpp:129] Top shape: 1 368 18 106 (702144)
I1207 20:50:33.773481 23331 net.cpp:137] Memory required for data: 473480184
I1207 20:50:33.773483 23331 layer_factory.hpp:77] Creating layer concat2_19_concat2_19_0_split
I1207 20:50:33.773488 23331 net.cpp:84] Creating Layer concat2_19_concat2_19_0_split
I1207 20:50:33.773491 23331 net.cpp:406] concat2_19_concat2_19_0_split <- concat2_19
I1207 20:50:33.773496 23331 net.cpp:380] concat2_19_concat2_19_0_split -> concat2_19_concat2_19_0_split_0
I1207 20:50:33.773501 23331 net.cpp:380] concat2_19_concat2_19_0_split -> concat2_19_concat2_19_0_split_1
I1207 20:50:33.773563 23331 net.cpp:122] Setting up concat2_19_concat2_19_0_split
I1207 20:50:33.773569 23331 net.cpp:129] Top shape: 1 368 18 106 (702144)
I1207 20:50:33.773572 23331 net.cpp:129] Top shape: 1 368 18 106 (702144)
I1207 20:50:33.773574 23331 net.cpp:137] Memory required for data: 479097336
I1207 20:50:33.773577 23331 layer_factory.hpp:77] Creating layer conv2_20/bn
I1207 20:50:33.773584 23331 net.cpp:84] Creating Layer conv2_20/bn
I1207 20:50:33.773587 23331 net.cpp:406] conv2_20/bn <- concat2_19_concat2_19_0_split_0
I1207 20:50:33.773591 23331 net.cpp:380] conv2_20/bn -> conv2_20/bn
I1207 20:50:33.774000 23331 net.cpp:122] Setting up conv2_20/bn
I1207 20:50:33.774006 23331 net.cpp:129] Top shape: 1 368 18 106 (702144)
I1207 20:50:33.774009 23331 net.cpp:137] Memory required for data: 481905912
I1207 20:50:33.774015 23331 layer_factory.hpp:77] Creating layer conv2_20/scale
I1207 20:50:33.774022 23331 net.cpp:84] Creating Layer conv2_20/scale
I1207 20:50:33.774025 23331 net.cpp:406] conv2_20/scale <- conv2_20/bn
I1207 20:50:33.774030 23331 net.cpp:367] conv2_20/scale -> conv2_20/bn (in-place)
I1207 20:50:33.774101 23331 layer_factory.hpp:77] Creating layer conv2_20/scale
I1207 20:50:33.774314 23331 net.cpp:122] Setting up conv2_20/scale
I1207 20:50:33.774322 23331 net.cpp:129] Top shape: 1 368 18 106 (702144)
I1207 20:50:33.774323 23331 net.cpp:137] Memory required for data: 484714488
I1207 20:50:33.774333 23331 layer_factory.hpp:77] Creating layer relu2_20
I1207 20:50:33.774339 23331 net.cpp:84] Creating Layer relu2_20
I1207 20:50:33.774343 23331 net.cpp:406] relu2_20 <- conv2_20/bn
I1207 20:50:33.774345 23331 net.cpp:367] relu2_20 -> conv2_20/bn (in-place)
I1207 20:50:33.774878 23331 net.cpp:122] Setting up relu2_20
I1207 20:50:33.774888 23331 net.cpp:129] Top shape: 1 368 18 106 (702144)
I1207 20:50:33.774891 23331 net.cpp:137] Memory required for data: 487523064
I1207 20:50:33.774894 23331 layer_factory.hpp:77] Creating layer conv2_20
I1207 20:50:33.774904 23331 net.cpp:84] Creating Layer conv2_20
I1207 20:50:33.774907 23331 net.cpp:406] conv2_20 <- conv2_20/bn
I1207 20:50:33.774912 23331 net.cpp:380] conv2_20 -> conv2_20
I1207 20:50:33.777356 23331 net.cpp:122] Setting up conv2_20
I1207 20:50:33.777374 23331 net.cpp:129] Top shape: 1 12 18 106 (22896)
I1207 20:50:33.777377 23331 net.cpp:137] Memory required for data: 487614648
I1207 20:50:33.777384 23331 layer_factory.hpp:77] Creating layer concat2_20
I1207 20:50:33.777390 23331 net.cpp:84] Creating Layer concat2_20
I1207 20:50:33.777395 23331 net.cpp:406] concat2_20 <- concat2_19_concat2_19_0_split_1
I1207 20:50:33.777401 23331 net.cpp:406] concat2_20 <- conv2_20
I1207 20:50:33.777405 23331 net.cpp:380] concat2_20 -> concat2_20
I1207 20:50:33.777453 23331 net.cpp:122] Setting up concat2_20
I1207 20:50:33.777459 23331 net.cpp:129] Top shape: 1 380 18 106 (725040)
I1207 20:50:33.777462 23331 net.cpp:137] Memory required for data: 490514808
I1207 20:50:33.777464 23331 layer_factory.hpp:77] Creating layer concat2_20_concat2_20_0_split
I1207 20:50:33.777470 23331 net.cpp:84] Creating Layer concat2_20_concat2_20_0_split
I1207 20:50:33.777473 23331 net.cpp:406] concat2_20_concat2_20_0_split <- concat2_20
I1207 20:50:33.777477 23331 net.cpp:380] concat2_20_concat2_20_0_split -> concat2_20_concat2_20_0_split_0
I1207 20:50:33.777482 23331 net.cpp:380] concat2_20_concat2_20_0_split -> concat2_20_concat2_20_0_split_1
I1207 20:50:33.777546 23331 net.cpp:122] Setting up concat2_20_concat2_20_0_split
I1207 20:50:33.777551 23331 net.cpp:129] Top shape: 1 380 18 106 (725040)
I1207 20:50:33.777554 23331 net.cpp:129] Top shape: 1 380 18 106 (725040)
I1207 20:50:33.777556 23331 net.cpp:137] Memory required for data: 496315128
I1207 20:50:33.777559 23331 layer_factory.hpp:77] Creating layer conv2_21/bn
I1207 20:50:33.777565 23331 net.cpp:84] Creating Layer conv2_21/bn
I1207 20:50:33.777568 23331 net.cpp:406] conv2_21/bn <- concat2_20_concat2_20_0_split_0
I1207 20:50:33.777575 23331 net.cpp:380] conv2_21/bn -> conv2_21/bn
I1207 20:50:33.777976 23331 net.cpp:122] Setting up conv2_21/bn
I1207 20:50:33.777982 23331 net.cpp:129] Top shape: 1 380 18 106 (725040)
I1207 20:50:33.777984 23331 net.cpp:137] Memory required for data: 499215288
I1207 20:50:33.777990 23331 layer_factory.hpp:77] Creating layer conv2_21/scale
I1207 20:50:33.777998 23331 net.cpp:84] Creating Layer conv2_21/scale
I1207 20:50:33.778002 23331 net.cpp:406] conv2_21/scale <- conv2_21/bn
I1207 20:50:33.778005 23331 net.cpp:367] conv2_21/scale -> conv2_21/bn (in-place)
I1207 20:50:33.778075 23331 layer_factory.hpp:77] Creating layer conv2_21/scale
I1207 20:50:33.778291 23331 net.cpp:122] Setting up conv2_21/scale
I1207 20:50:33.778297 23331 net.cpp:129] Top shape: 1 380 18 106 (725040)
I1207 20:50:33.778301 23331 net.cpp:137] Memory required for data: 502115448
I1207 20:50:33.778306 23331 layer_factory.hpp:77] Creating layer relu2_21
I1207 20:50:33.778311 23331 net.cpp:84] Creating Layer relu2_21
I1207 20:50:33.778314 23331 net.cpp:406] relu2_21 <- conv2_21/bn
I1207 20:50:33.778318 23331 net.cpp:367] relu2_21 -> conv2_21/bn (in-place)
I1207 20:50:33.786706 23331 net.cpp:122] Setting up relu2_21
I1207 20:50:33.786736 23331 net.cpp:129] Top shape: 1 380 18 106 (725040)
I1207 20:50:33.786741 23331 net.cpp:137] Memory required for data: 505015608
I1207 20:50:33.786747 23331 layer_factory.hpp:77] Creating layer conv2_21
I1207 20:50:33.786767 23331 net.cpp:84] Creating Layer conv2_21
I1207 20:50:33.786773 23331 net.cpp:406] conv2_21 <- conv2_21/bn
I1207 20:50:33.786790 23331 net.cpp:380] conv2_21 -> conv2_21
I1207 20:50:33.791281 23331 net.cpp:122] Setting up conv2_21
I1207 20:50:33.791319 23331 net.cpp:129] Top shape: 1 12 18 106 (22896)
I1207 20:50:33.791324 23331 net.cpp:137] Memory required for data: 505107192
I1207 20:50:33.791337 23331 layer_factory.hpp:77] Creating layer concat2_21
I1207 20:50:33.791350 23331 net.cpp:84] Creating Layer concat2_21
I1207 20:50:33.791358 23331 net.cpp:406] concat2_21 <- concat2_20_concat2_20_0_split_1
I1207 20:50:33.791366 23331 net.cpp:406] concat2_21 <- conv2_21
I1207 20:50:33.791373 23331 net.cpp:380] concat2_21 -> concat2_21
I1207 20:50:33.791441 23331 net.cpp:122] Setting up concat2_21
I1207 20:50:33.791450 23331 net.cpp:129] Top shape: 1 392 18 106 (747936)
I1207 20:50:33.791453 23331 net.cpp:137] Memory required for data: 508098936
I1207 20:50:33.791457 23331 layer_factory.hpp:77] Creating layer concat2_21_concat2_21_0_split
I1207 20:50:33.791465 23331 net.cpp:84] Creating Layer concat2_21_concat2_21_0_split
I1207 20:50:33.791469 23331 net.cpp:406] concat2_21_concat2_21_0_split <- concat2_21
I1207 20:50:33.791477 23331 net.cpp:380] concat2_21_concat2_21_0_split -> concat2_21_concat2_21_0_split_0
I1207 20:50:33.791486 23331 net.cpp:380] concat2_21_concat2_21_0_split -> concat2_21_concat2_21_0_split_1
I1207 20:50:33.791573 23331 net.cpp:122] Setting up concat2_21_concat2_21_0_split
I1207 20:50:33.791580 23331 net.cpp:129] Top shape: 1 392 18 106 (747936)
I1207 20:50:33.791586 23331 net.cpp:129] Top shape: 1 392 18 106 (747936)
I1207 20:50:33.791590 23331 net.cpp:137] Memory required for data: 514082424
I1207 20:50:33.791594 23331 layer_factory.hpp:77] Creating layer conv2_22/bn
I1207 20:50:33.791601 23331 net.cpp:84] Creating Layer conv2_22/bn
I1207 20:50:33.791606 23331 net.cpp:406] conv2_22/bn <- concat2_21_concat2_21_0_split_0
I1207 20:50:33.791615 23331 net.cpp:380] conv2_22/bn -> conv2_22/bn
I1207 20:50:33.842391 23331 net.cpp:122] Setting up conv2_22/bn
I1207 20:50:33.842422 23331 net.cpp:129] Top shape: 1 392 18 106 (747936)
I1207 20:50:33.842427 23331 net.cpp:137] Memory required for data: 517074168
I1207 20:50:33.842442 23331 layer_factory.hpp:77] Creating layer conv2_22/scale
I1207 20:50:33.842454 23331 net.cpp:84] Creating Layer conv2_22/scale
I1207 20:50:33.842464 23331 net.cpp:406] conv2_22/scale <- conv2_22/bn
I1207 20:50:33.842473 23331 net.cpp:367] conv2_22/scale -> conv2_22/bn (in-place)
I1207 20:50:33.842571 23331 layer_factory.hpp:77] Creating layer conv2_22/scale
I1207 20:50:33.842875 23331 net.cpp:122] Setting up conv2_22/scale
I1207 20:50:33.842886 23331 net.cpp:129] Top shape: 1 392 18 106 (747936)
I1207 20:50:33.842890 23331 net.cpp:137] Memory required for data: 520065912
I1207 20:50:33.842898 23331 layer_factory.hpp:77] Creating layer relu2_22
I1207 20:50:33.842906 23331 net.cpp:84] Creating Layer relu2_22
I1207 20:50:33.842911 23331 net.cpp:406] relu2_22 <- conv2_22/bn
I1207 20:50:33.842917 23331 net.cpp:367] relu2_22 -> conv2_22/bn (in-place)
I1207 20:50:33.843549 23331 net.cpp:122] Setting up relu2_22
I1207 20:50:33.843564 23331 net.cpp:129] Top shape: 1 392 18 106 (747936)
I1207 20:50:33.843569 23331 net.cpp:137] Memory required for data: 523057656
I1207 20:50:33.843572 23331 layer_factory.hpp:77] Creating layer conv2_22
I1207 20:50:33.843588 23331 net.cpp:84] Creating Layer conv2_22
I1207 20:50:33.843593 23331 net.cpp:406] conv2_22 <- conv2_22/bn
I1207 20:50:33.843602 23331 net.cpp:380] conv2_22 -> conv2_22
I1207 20:50:33.847246 23331 net.cpp:122] Setting up conv2_22
I1207 20:50:33.847278 23331 net.cpp:129] Top shape: 1 12 18 106 (22896)
I1207 20:50:33.847282 23331 net.cpp:137] Memory required for data: 523149240
I1207 20:50:33.847292 23331 layer_factory.hpp:77] Creating layer concat2_22
I1207 20:50:33.847303 23331 net.cpp:84] Creating Layer concat2_22
I1207 20:50:33.847311 23331 net.cpp:406] concat2_22 <- concat2_21_concat2_21_0_split_1
I1207 20:50:33.847319 23331 net.cpp:406] concat2_22 <- conv2_22
I1207 20:50:33.847327 23331 net.cpp:380] concat2_22 -> concat2_22
I1207 20:50:33.847394 23331 net.cpp:122] Setting up concat2_22
I1207 20:50:33.847404 23331 net.cpp:129] Top shape: 1 404 18 106 (770832)
I1207 20:50:33.847407 23331 net.cpp:137] Memory required for data: 526232568
I1207 20:50:33.847411 23331 layer_factory.hpp:77] Creating layer concat2_22_concat2_22_0_split
I1207 20:50:33.847419 23331 net.cpp:84] Creating Layer concat2_22_concat2_22_0_split
I1207 20:50:33.847422 23331 net.cpp:406] concat2_22_concat2_22_0_split <- concat2_22
I1207 20:50:33.847430 23331 net.cpp:380] concat2_22_concat2_22_0_split -> concat2_22_concat2_22_0_split_0
I1207 20:50:33.847437 23331 net.cpp:380] concat2_22_concat2_22_0_split -> concat2_22_concat2_22_0_split_1
I1207 20:50:33.847522 23331 net.cpp:122] Setting up concat2_22_concat2_22_0_split
I1207 20:50:33.847530 23331 net.cpp:129] Top shape: 1 404 18 106 (770832)
I1207 20:50:33.847537 23331 net.cpp:129] Top shape: 1 404 18 106 (770832)
I1207 20:50:33.847539 23331 net.cpp:137] Memory required for data: 532399224
I1207 20:50:33.847543 23331 layer_factory.hpp:77] Creating layer conv2_23/bn
I1207 20:50:33.847555 23331 net.cpp:84] Creating Layer conv2_23/bn
I1207 20:50:33.847560 23331 net.cpp:406] conv2_23/bn <- concat2_22_concat2_22_0_split_0
I1207 20:50:33.847566 23331 net.cpp:380] conv2_23/bn -> conv2_23/bn
I1207 20:50:33.860332 23331 net.cpp:122] Setting up conv2_23/bn
I1207 20:50:33.860364 23331 net.cpp:129] Top shape: 1 404 18 106 (770832)
I1207 20:50:33.860369 23331 net.cpp:137] Memory required for data: 535482552
I1207 20:50:33.860383 23331 layer_factory.hpp:77] Creating layer conv2_23/scale
I1207 20:50:33.860399 23331 net.cpp:84] Creating Layer conv2_23/scale
I1207 20:50:33.860406 23331 net.cpp:406] conv2_23/scale <- conv2_23/bn
I1207 20:50:33.860414 23331 net.cpp:367] conv2_23/scale -> conv2_23/bn (in-place)
I1207 20:50:33.860518 23331 layer_factory.hpp:77] Creating layer conv2_23/scale
I1207 20:50:33.860811 23331 net.cpp:122] Setting up conv2_23/scale
I1207 20:50:33.860821 23331 net.cpp:129] Top shape: 1 404 18 106 (770832)
I1207 20:50:33.860824 23331 net.cpp:137] Memory required for data: 538565880
I1207 20:50:33.860832 23331 layer_factory.hpp:77] Creating layer relu2_23
I1207 20:50:33.860841 23331 net.cpp:84] Creating Layer relu2_23
I1207 20:50:33.860844 23331 net.cpp:406] relu2_23 <- conv2_23/bn
I1207 20:50:33.860851 23331 net.cpp:367] relu2_23 -> conv2_23/bn (in-place)
I1207 20:50:33.861512 23331 net.cpp:122] Setting up relu2_23
I1207 20:50:33.861534 23331 net.cpp:129] Top shape: 1 404 18 106 (770832)
I1207 20:50:33.861538 23331 net.cpp:137] Memory required for data: 541649208
I1207 20:50:33.861543 23331 layer_factory.hpp:77] Creating layer conv2_23
I1207 20:50:33.861559 23331 net.cpp:84] Creating Layer conv2_23
I1207 20:50:33.861565 23331 net.cpp:406] conv2_23 <- conv2_23/bn
I1207 20:50:33.861574 23331 net.cpp:380] conv2_23 -> conv2_23
I1207 20:50:33.865376 23331 net.cpp:122] Setting up conv2_23
I1207 20:50:33.865409 23331 net.cpp:129] Top shape: 1 12 18 106 (22896)
I1207 20:50:33.865414 23331 net.cpp:137] Memory required for data: 541740792
I1207 20:50:33.865424 23331 layer_factory.hpp:77] Creating layer concat2_23
I1207 20:50:33.865439 23331 net.cpp:84] Creating Layer concat2_23
I1207 20:50:33.865447 23331 net.cpp:406] concat2_23 <- concat2_22_concat2_22_0_split_1
I1207 20:50:33.865455 23331 net.cpp:406] concat2_23 <- conv2_23
I1207 20:50:33.865463 23331 net.cpp:380] concat2_23 -> concat2_23
I1207 20:50:33.865527 23331 net.cpp:122] Setting up concat2_23
I1207 20:50:33.865535 23331 net.cpp:129] Top shape: 1 416 18 106 (793728)
I1207 20:50:33.865540 23331 net.cpp:137] Memory required for data: 544915704
I1207 20:50:33.865543 23331 layer_factory.hpp:77] Creating layer concat2_23_concat2_23_0_split
I1207 20:50:33.865550 23331 net.cpp:84] Creating Layer concat2_23_concat2_23_0_split
I1207 20:50:33.865556 23331 net.cpp:406] concat2_23_concat2_23_0_split <- concat2_23
I1207 20:50:33.865562 23331 net.cpp:380] concat2_23_concat2_23_0_split -> concat2_23_concat2_23_0_split_0
I1207 20:50:33.865571 23331 net.cpp:380] concat2_23_concat2_23_0_split -> concat2_23_concat2_23_0_split_1
I1207 20:50:33.865658 23331 net.cpp:122] Setting up concat2_23_concat2_23_0_split
I1207 20:50:33.865667 23331 net.cpp:129] Top shape: 1 416 18 106 (793728)
I1207 20:50:33.865672 23331 net.cpp:129] Top shape: 1 416 18 106 (793728)
I1207 20:50:33.865676 23331 net.cpp:137] Memory required for data: 551265528
I1207 20:50:33.865680 23331 layer_factory.hpp:77] Creating layer conv2_24/bn
I1207 20:50:33.865689 23331 net.cpp:84] Creating Layer conv2_24/bn
I1207 20:50:33.865694 23331 net.cpp:406] conv2_24/bn <- concat2_23_concat2_23_0_split_0
I1207 20:50:33.865702 23331 net.cpp:380] conv2_24/bn -> conv2_24/bn
I1207 20:50:33.866257 23331 net.cpp:122] Setting up conv2_24/bn
I1207 20:50:33.866267 23331 net.cpp:129] Top shape: 1 416 18 106 (793728)
I1207 20:50:33.866271 23331 net.cpp:137] Memory required for data: 554440440
I1207 20:50:33.866281 23331 layer_factory.hpp:77] Creating layer conv2_24/scale
I1207 20:50:33.866291 23331 net.cpp:84] Creating Layer conv2_24/scale
I1207 20:50:33.866295 23331 net.cpp:406] conv2_24/scale <- conv2_24/bn
I1207 20:50:33.866302 23331 net.cpp:367] conv2_24/scale -> conv2_24/bn (in-place)
I1207 20:50:33.866399 23331 layer_factory.hpp:77] Creating layer conv2_24/scale
I1207 20:50:33.866689 23331 net.cpp:122] Setting up conv2_24/scale
I1207 20:50:33.866698 23331 net.cpp:129] Top shape: 1 416 18 106 (793728)
I1207 20:50:33.866703 23331 net.cpp:137] Memory required for data: 557615352
I1207 20:50:33.866709 23331 layer_factory.hpp:77] Creating layer relu2_24
I1207 20:50:33.866720 23331 net.cpp:84] Creating Layer relu2_24
I1207 20:50:33.866725 23331 net.cpp:406] relu2_24 <- conv2_24/bn
I1207 20:50:33.866730 23331 net.cpp:367] relu2_24 -> conv2_24/bn (in-place)
I1207 20:50:33.867007 23331 net.cpp:122] Setting up relu2_24
I1207 20:50:33.867018 23331 net.cpp:129] Top shape: 1 416 18 106 (793728)
I1207 20:50:33.867022 23331 net.cpp:137] Memory required for data: 560790264
I1207 20:50:33.867027 23331 layer_factory.hpp:77] Creating layer conv2_24
I1207 20:50:33.867040 23331 net.cpp:84] Creating Layer conv2_24
I1207 20:50:33.867045 23331 net.cpp:406] conv2_24 <- conv2_24/bn
I1207 20:50:33.867053 23331 net.cpp:380] conv2_24 -> conv2_24
I1207 20:50:33.869971 23331 net.cpp:122] Setting up conv2_24
I1207 20:50:33.870000 23331 net.cpp:129] Top shape: 1 12 18 106 (22896)
I1207 20:50:33.870004 23331 net.cpp:137] Memory required for data: 560881848
I1207 20:50:33.870012 23331 layer_factory.hpp:77] Creating layer concat2_24
I1207 20:50:33.870023 23331 net.cpp:84] Creating Layer concat2_24
I1207 20:50:33.870029 23331 net.cpp:406] concat2_24 <- concat2_23_concat2_23_0_split_1
I1207 20:50:33.870035 23331 net.cpp:406] concat2_24 <- conv2_24
I1207 20:50:33.870040 23331 net.cpp:380] concat2_24 -> concat2_24
I1207 20:50:33.870090 23331 net.cpp:122] Setting up concat2_24
I1207 20:50:33.870095 23331 net.cpp:129] Top shape: 1 428 18 106 (816624)
I1207 20:50:33.870098 23331 net.cpp:137] Memory required for data: 564148344
I1207 20:50:33.870100 23331 layer_factory.hpp:77] Creating layer concat2_24_concat2_24_0_split
I1207 20:50:33.870106 23331 net.cpp:84] Creating Layer concat2_24_concat2_24_0_split
I1207 20:50:33.870110 23331 net.cpp:406] concat2_24_concat2_24_0_split <- concat2_24
I1207 20:50:33.870113 23331 net.cpp:380] concat2_24_concat2_24_0_split -> concat2_24_concat2_24_0_split_0
I1207 20:50:33.870120 23331 net.cpp:380] concat2_24_concat2_24_0_split -> concat2_24_concat2_24_0_split_1
I1207 20:50:33.870185 23331 net.cpp:122] Setting up concat2_24_concat2_24_0_split
I1207 20:50:33.870190 23331 net.cpp:129] Top shape: 1 428 18 106 (816624)
I1207 20:50:33.870194 23331 net.cpp:129] Top shape: 1 428 18 106 (816624)
I1207 20:50:33.870196 23331 net.cpp:137] Memory required for data: 570681336
I1207 20:50:33.870198 23331 layer_factory.hpp:77] Creating layer conv2_25/bn
I1207 20:50:33.870205 23331 net.cpp:84] Creating Layer conv2_25/bn
…
I1207 20:50:35.872671 23331 net.cpp:122] Setting up relu2_18
I1207 20:50:35.872686 23331 net.cpp:129] Top shape: 1 344 17 35 (204680)
I1207 20:50:35.872690 23331 net.cpp:137] Memory required for data: 139416048
I1207 20:50:35.872695 23331 layer_factory.hpp:77] Creating layer conv2_18
I1207 20:50:35.872709 23331 net.cpp:84] Creating Layer conv2_18
I1207 20:50:35.872714 23331 net.cpp:406] conv2_18 <- conv2_18/bn
I1207 20:50:35.872722 23331 net.cpp:380] conv2_18 -> conv2_18
I1207 20:50:35.876266 23331 net.cpp:122] Setting up conv2_18
I1207 20:50:35.876283 23331 net.cpp:129] Top shape: 1 12 17 35 (7140)
I1207 20:50:35.876288 23331 net.cpp:137] Memory required for data: 139444608
I1207 20:50:35.876296 23331 layer_factory.hpp:77] Creating layer concat2_18
I1207 20:50:35.876304 23331 net.cpp:84] Creating Layer concat2_18
I1207 20:50:35.876310 23331 net.cpp:406] concat2_18 <- concat2_17_concat2_17_0_split_1
I1207 20:50:35.876317 23331 net.cpp:406] concat2_18 <- conv2_18
I1207 20:50:35.876324 23331 net.cpp:380] concat2_18 -> concat2_18
I1207 20:50:35.876382 23331 net.cpp:122] Setting up concat2_18
I1207 20:50:35.876391 23331 net.cpp:129] Top shape: 1 356 17 35 (211820)
I1207 20:50:35.876395 23331 net.cpp:137] Memory required for data: 140291888
I1207 20:50:35.876399 23331 layer_factory.hpp:77] Creating layer concat2_18_concat2_18_0_split
I1207 20:50:35.876405 23331 net.cpp:84] Creating Layer concat2_18_concat2_18_0_split
I1207 20:50:35.876410 23331 net.cpp:406] concat2_18_concat2_18_0_split <- concat2_18
I1207 20:50:35.876416 23331 net.cpp:380] concat2_18_concat2_18_0_split -> concat2_18_concat2_18_0_split_0
I1207 20:50:35.876425 23331 net.cpp:380] concat2_18_concat2_18_0_split -> concat2_18_concat2_18_0_split_1
I1207 20:50:35.876505 23331 net.cpp:122] Setting up concat2_18_concat2_18_0_split
I1207 20:50:35.876515 23331 net.cpp:129] Top shape: 1 356 17 35 (211820)
I1207 20:50:35.876520 23331 net.cpp:129] Top shape: 1 356 17 35 (211820)
I1207 20:50:35.876524 23331 net.cpp:137] Memory required for data: 141986448
I1207 20:50:35.876528 23331 layer_factory.hpp:77] Creating layer conv2_19/bn
I1207 20:50:35.876535 23331 net.cpp:84] Creating Layer conv2_19/bn
I1207 20:50:35.876540 23331 net.cpp:406] conv2_19/bn <- concat2_18_concat2_18_0_split_0
I1207 20:50:35.876549 23331 net.cpp:380] conv2_19/bn -> conv2_19/bn
I1207 20:50:35.877120 23331 net.cpp:122] Setting up conv2_19/bn
I1207 20:50:35.877130 23331 net.cpp:129] Top shape: 1 356 17 35 (211820)
I1207 20:50:35.877133 23331 net.cpp:137] Memory required for data: 142833728
I1207 20:50:35.877142 23331 layer_factory.hpp:77] Creating layer conv2_19/scale
I1207 20:50:35.877153 23331 net.cpp:84] Creating Layer conv2_19/scale
I1207 20:50:35.877158 23331 net.cpp:406] conv2_19/scale <- conv2_19/bn
I1207 20:50:35.877166 23331 net.cpp:367] conv2_19/scale -> conv2_19/bn (in-place)
I1207 20:50:35.877274 23331 layer_factory.hpp:77] Creating layer conv2_19/scale
I1207 20:50:35.877615 23331 net.cpp:122] Setting up conv2_19/scale
I1207 20:50:35.877624 23331 net.cpp:129] Top shape: 1 356 17 35 (211820)
I1207 20:50:35.877629 23331 net.cpp:137] Memory required for data: 143681008
I1207 20:50:35.877636 23331 layer_factory.hpp:77] Creating layer relu2_19
I1207 20:50:35.877643 23331 net.cpp:84] Creating Layer relu2_19
I1207 20:50:35.877648 23331 net.cpp:406] relu2_19 <- conv2_19/bn
I1207 20:50:35.877655 23331 net.cpp:367] relu2_19 -> conv2_19/bn (in-place)
I1207 20:50:35.878186 23331 net.cpp:122] Setting up relu2_19
I1207 20:50:35.878199 23331 net.cpp:129] Top shape: 1 356 17 35 (211820)
I1207 20:50:35.878203 23331 net.cpp:137] Memory required for data: 144528288
I1207 20:50:35.878211 23331 layer_factory.hpp:77] Creating layer conv2_19
I1207 20:50:35.878224 23331 net.cpp:84] Creating Layer conv2_19
I1207 20:50:35.878229 23331 net.cpp:406] conv2_19 <- conv2_19/bn
I1207 20:50:35.878238 23331 net.cpp:380] conv2_19 -> conv2_19
I1207 20:50:35.882050 23331 net.cpp:122] Setting up conv2_19
I1207 20:50:35.882081 23331 net.cpp:129] Top shape: 1 12 17 35 (7140)
I1207 20:50:35.882086 23331 net.cpp:137] Memory required for data: 144556848
I1207 20:50:35.882097 23331 layer_factory.hpp:77] Creating layer concat2_19
I1207 20:50:35.882108 23331 net.cpp:84] Creating Layer concat2_19
I1207 20:50:35.882115 23331 net.cpp:406] concat2_19 <- concat2_18_concat2_18_0_split_1
I1207 20:50:35.882123 23331 net.cpp:406] concat2_19 <- conv2_19
I1207 20:50:35.882131 23331 net.cpp:380] concat2_19 -> concat2_19
I1207 20:50:35.882189 23331 net.cpp:122] Setting up concat2_19
I1207 20:50:35.882196 23331 net.cpp:129] Top shape: 1 368 17 35 (218960)
I1207 20:50:35.882200 23331 net.cpp:137] Memory required for data: 145432688
I1207 20:50:35.882205 23331 layer_factory.hpp:77] Creating layer concat2_19_concat2_19_0_split
I1207 20:50:35.882211 23331 net.cpp:84] Creating Layer concat2_19_concat2_19_0_split
I1207 20:50:35.882215 23331 net.cpp:406] concat2_19_concat2_19_0_split <- concat2_19
I1207 20:50:35.882223 23331 net.cpp:380] concat2_19_concat2_19_0_split -> concat2_19_concat2_19_0_split_0
I1207 20:50:35.882231 23331 net.cpp:380] concat2_19_concat2_19_0_split -> concat2_19_concat2_19_0_split_1
I1207 20:50:35.882316 23331 net.cpp:122] Setting up concat2_19_concat2_19_0_split
I1207 20:50:35.882324 23331 net.cpp:129] Top shape: 1 368 17 35 (218960)
I1207 20:50:35.882330 23331 net.cpp:129] Top shape: 1 368 17 35 (218960)
I1207 20:50:35.882334 23331 net.cpp:137] Memory required for data: 147184368
I1207 20:50:35.882338 23331 layer_factory.hpp:77] Creating layer conv2_20/bn
I1207 20:50:35.882346 23331 net.cpp:84] Creating Layer conv2_20/bn
I1207 20:50:35.882351 23331 net.cpp:406] conv2_20/bn <- concat2_19_concat2_19_0_split_0
I1207 20:50:35.882359 23331 net.cpp:380] conv2_20/bn -> conv2_20/bn
I1207 20:50:35.882975 23331 net.cpp:122] Setting up conv2_20/bn
I1207 20:50:35.882988 23331 net.cpp:129] Top shape: 1 368 17 35 (218960)
I1207 20:50:35.882992 23331 net.cpp:137] Memory required for data: 148060208
I1207 20:50:35.883002 23331 layer_factory.hpp:77] Creating layer conv2_20/scale
I1207 20:50:35.883013 23331 net.cpp:84] Creating Layer conv2_20/scale
I1207 20:50:35.883018 23331 net.cpp:406] conv2_20/scale <- conv2_20/bn
I1207 20:50:35.883024 23331 net.cpp:367] conv2_20/scale -> conv2_20/bn (in-place)
I1207 20:50:35.883175 23331 layer_factory.hpp:77] Creating layer conv2_20/scale
I1207 20:50:35.883682 23331 net.cpp:122] Setting up conv2_20/scale
I1207 20:50:35.883697 23331 net.cpp:129] Top shape: 1 368 17 35 (218960)
I1207 20:50:35.883704 23331 net.cpp:137] Memory required for data: 148936048
I1207 20:50:35.883716 23331 layer_factory.hpp:77] Creating layer relu2_20
I1207 20:50:35.883731 23331 net.cpp:84] Creating Layer relu2_20
I1207 20:50:35.883741 23331 net.cpp:406] relu2_20 <- conv2_20/bn
I1207 20:50:35.883757 23331 net.cpp:367] relu2_20 -> conv2_20/bn (in-place)
I1207 20:50:35.884272 23331 net.cpp:122] Setting up relu2_20
I1207 20:50:35.884291 23331 net.cpp:129] Top shape: 1 368 17 35 (218960)
I1207 20:50:35.884299 23331 net.cpp:137] Memory required for data: 149811888
I1207 20:50:35.884306 23331 layer_factory.hpp:77] Creating layer conv2_20
I1207 20:50:35.884328 23331 net.cpp:84] Creating Layer conv2_20
I1207 20:50:35.884340 23331 net.cpp:406] conv2_20 <- conv2_20/bn
I1207 20:50:35.884356 23331 net.cpp:380] conv2_20 -> conv2_20
I1207 20:50:35.888183 23331 net.cpp:122] Setting up conv2_20
I1207 20:50:35.888221 23331 net.cpp:129] Top shape: 1 12 17 35 (7140)
I1207 20:50:35.888231 23331 net.cpp:137] Memory required for data: 149840448
I1207 20:50:35.888243 23331 layer_factory.hpp:77] Creating layer concat2_20
I1207 20:50:35.888263 23331 net.cpp:84] Creating Layer concat2_20
I1207 20:50:35.888274 23331 net.cpp:406] concat2_20 <- concat2_19_concat2_19_0_split_1
I1207 20:50:35.888293 23331 net.cpp:406] concat2_20 <- conv2_20
I1207 20:50:35.888305 23331 net.cpp:380] concat2_20 -> concat2_20
I1207 20:50:35.888386 23331 net.cpp:122] Setting up concat2_20
I1207 20:50:35.888397 23331 net.cpp:129] Top shape: 1 380 17 35 (226100)
I1207 20:50:35.888403 23331 net.cpp:137] Memory required for data: 150744848
I1207 20:50:35.888408 23331 layer_factory.hpp:77] Creating layer concat2_20_concat2_20_0_split
I1207 20:50:35.888418 23331 net.cpp:84] Creating Layer concat2_20_concat2_20_0_split
I1207 20:50:35.888424 23331 net.cpp:406] concat2_20_concat2_20_0_split <- concat2_20
I1207 20:50:35.888435 23331 net.cpp:380] concat2_20_concat2_20_0_split -> concat2_20_concat2_20_0_split_0
I1207 20:50:35.888447 23331 net.cpp:380] concat2_20_concat2_20_0_split -> concat2_20_concat2_20_0_split_1
I1207 20:50:35.888556 23331 net.cpp:122] Setting up concat2_20_concat2_20_0_split
I1207 20:50:35.888567 23331 net.cpp:129] Top shape: 1 380 17 35 (226100)
I1207 20:50:35.888576 23331 net.cpp:129] Top shape: 1 380 17 35 (226100)
I1207 20:50:35.888581 23331 net.cpp:137] Memory required for data: 152553648
I1207 20:50:35.888586 23331 layer_factory.hpp:77] Creating layer conv2_21/bn
I1207 20:50:35.888597 23331 net.cpp:84] Creating Layer conv2_21/bn
I1207 20:50:35.888604 23331 net.cpp:406] conv2_21/bn <- concat2_20_concat2_20_0_split_0
I1207 20:50:35.888615 23331 net.cpp:380] conv2_21/bn -> conv2_21/bn
I1207 20:50:35.889370 23331 net.cpp:122] Setting up conv2_21/bn
I1207 20:50:35.889384 23331 net.cpp:129] Top shape: 1 380 17 35 (226100)
I1207 20:50:35.889389 23331 net.cpp:137] Memory required for data: 153458048
I1207 20:50:35.889402 23331 layer_factory.hpp:77] Creating layer conv2_21/scale
I1207 20:50:35.889416 23331 net.cpp:84] Creating Layer conv2_21/scale
I1207 20:50:35.889425 23331 net.cpp:406] conv2_21/scale <- conv2_21/bn
I1207 20:50:35.889434 23331 net.cpp:367] conv2_21/scale -> conv2_21/bn (in-place)
I1207 20:50:35.889564 23331 layer_factory.hpp:77] Creating layer conv2_21/scale
I1207 20:50:35.889967 23331 net.cpp:122] Setting up conv2_21/scale
I1207 20:50:35.889981 23331 net.cpp:129] Top shape: 1 380 17 35 (226100)
I1207 20:50:35.889986 23331 net.cpp:137] Memory required for data: 154362448
I1207 20:50:35.889995 23331 layer_factory.hpp:77] Creating layer relu2_21
I1207 20:50:35.890007 23331 net.cpp:84] Creating Layer relu2_21
I1207 20:50:35.890013 23331 net.cpp:406] relu2_21 <- conv2_21/bn
I1207 20:50:35.890022 23331 net.cpp:367] relu2_21 -> conv2_21/bn (in-place)
I1207 20:50:35.890780 23331 net.cpp:122] Setting up relu2_21
I1207 20:50:35.890796 23331 net.cpp:129] Top shape: 1 380 17 35 (226100)
I1207 20:50:35.890802 23331 net.cpp:137] Memory required for data: 155266848
I1207 20:50:35.890808 23331 layer_factory.hpp:77] Creating layer conv2_21
I1207 20:50:35.890825 23331 net.cpp:84] Creating Layer conv2_21
I1207 20:50:35.890835 23331 net.cpp:406] conv2_21 <- conv2_21/bn
I1207 20:50:35.890844 23331 net.cpp:380] conv2_21 -> conv2_21
I1207 20:50:35.894697 23331 net.cpp:122] Setting up conv2_21
I1207 20:50:35.894719 23331 net.cpp:129] Top shape: 1 12 17 35 (7140)
I1207 20:50:35.894724 23331 net.cpp:137] Memory required for data: 155295408
I1207 20:50:35.894733 23331 layer_factory.hpp:77] Creating layer concat2_21
I1207 20:50:35.894744 23331 net.cpp:84] Creating Layer concat2_21
I1207 20:50:35.894752 23331 net.cpp:406] concat2_21 <- concat2_20_concat2_20_0_split_1
I1207 20:50:35.894760 23331 net.cpp:406] concat2_21 <- conv2_21
I1207 20:50:35.894767 23331 net.cpp:380] concat2_21 -> concat2_21
I1207 20:50:35.894825 23331 net.cpp:122] Setting up concat2_21
I1207 20:50:35.894834 23331 net.cpp:129] Top shape: 1 392 17 35 (233240)
I1207 20:50:35.894839 23331 net.cpp:137] Memory required for data: 156228368
I1207 20:50:35.894842 23331 layer_factory.hpp:77] Creating layer concat2_21_concat2_21_0_split
I1207 20:50:35.894850 23331 net.cpp:84] Creating Layer concat2_21_concat2_21_0_split
I1207 20:50:35.894855 23331 net.cpp:406] concat2_21_concat2_21_0_split <- concat2_21
I1207 20:50:35.894861 23331 net.cpp:380] concat2_21_concat2_21_0_split -> concat2_21_concat2_21_0_split_0
I1207 20:50:35.894875 23331 net.cpp:380] concat2_21_concat2_21_0_split -> concat2_21_concat2_21_0_split_1
I1207 20:50:35.894956 23331 net.cpp:122] Setting up concat2_21_concat2_21_0_split
I1207 20:50:35.894964 23331 net.cpp:129] Top shape: 1 392 17 35 (233240)
I1207 20:50:35.894970 23331 net.cpp:129] Top shape: 1 392 17 35 (233240)
I1207 20:50:35.894974 23331 net.cpp:137] Memory required for data: 158094288
I1207 20:50:35.894979 23331 layer_factory.hpp:77] Creating layer conv2_22/bn
I1207 20:50:35.894989 23331 net.cpp:84] Creating Layer conv2_22/bn
I1207 20:50:35.894994 23331 net.cpp:406] conv2_22/bn <- concat2_21_concat2_21_0_split_0
I1207 20:50:35.895000 23331 net.cpp:380] conv2_22/bn -> conv2_22/bn
I1207 20:50:35.895612 23331 net.cpp:122] Setting up conv2_22/bn
I1207 20:50:35.895622 23331 net.cpp:129] Top shape: 1 392 17 35 (233240)
I1207 20:50:35.895627 23331 net.cpp:137] Memory required for data: 159027248
I1207 20:50:35.895635 23331 layer_factory.hpp:77] Creating layer conv2_22/scale
I1207 20:50:35.895647 23331 net.cpp:84] Creating Layer conv2_22/scale
I1207 20:50:35.895651 23331 net.cpp:406] conv2_22/scale <- conv2_22/bn
I1207 20:50:35.895658 23331 net.cpp:367] conv2_22/scale -> conv2_22/bn (in-place)
I1207 20:50:35.895778 23331 layer_factory.hpp:77] Creating layer conv2_22/scale
I1207 20:50:35.896132 23331 net.cpp:122] Setting up conv2_22/scale
I1207 20:50:35.896142 23331 net.cpp:129] Top shape: 1 392 17 35 (233240)
I1207 20:50:35.896147 23331 net.cpp:137] Memory required for data: 159960208
I1207 20:50:35.896154 23331 layer_factory.hpp:77] Creating layer relu2_22
I1207 20:50:35.896162 23331 net.cpp:84] Creating Layer relu2_22
I1207 20:50:35.896167 23331 net.cpp:406] relu2_22 <- conv2_22/bn
I1207 20:50:35.896173 23331 net.cpp:367] relu2_22 -> conv2_22/bn (in-place)
I1207 20:50:35.896713 23331 net.cpp:122] Setting up relu2_22
I1207 20:50:35.896726 23331 net.cpp:129] Top shape: 1 392 17 35 (233240)
I1207 20:50:35.896730 23331 net.cpp:137] Memory required for data: 160893168
I1207 20:50:35.896735 23331 layer_factory.hpp:77] Creating layer conv2_22
I1207 20:50:35.896749 23331 net.cpp:84] Creating Layer conv2_22
I1207 20:50:35.896755 23331 net.cpp:406] conv2_22 <- conv2_22/bn
I1207 20:50:35.896764 23331 net.cpp:380] conv2_22 -> conv2_22
I1207 20:50:35.901918 23331 net.cpp:122] Setting up conv2_22
I1207 20:50:35.901968 23331 net.cpp:129] Top shape: 1 12 17 35 (7140)
I1207 20:50:35.901978 23331 net.cpp:137] Memory required for data: 160921728
I1207 20:50:35.901996 23331 layer_factory.hpp:77] Creating layer concat2_22
I1207 20:50:35.902016 23331 net.cpp:84] Creating Layer concat2_22
I1207 20:50:35.902030 23331 net.cpp:406] concat2_22 <- concat2_21_concat2_21_0_split_1
I1207 20:50:35.902043 23331 net.cpp:406] concat2_22 <- conv2_22
I1207 20:50:35.902061 23331 net.cpp:380] concat2_22 -> concat2_22
I1207 20:50:35.902163 23331 net.cpp:122] Setting up concat2_22
I1207 20:50:35.902176 23331 net.cpp:129] Top shape: 1 404 17 35 (240380)
I1207 20:50:35.902184 23331 net.cpp:137] Memory required for data: 161883248
I1207 20:50:35.902190 23331 layer_factory.hpp:77] Creating layer concat2_22_concat2_22_0_split
I1207 20:50:35.902199 23331 net.cpp:84] Creating Layer concat2_22_concat2_22_0_split
I1207 20:50:35.902204 23331 net.cpp:406] concat2_22_concat2_22_0_split <- concat2_22
I1207 20:50:35.902211 23331 net.cpp:380] concat2_22_concat2_22_0_split -> concat2_22_concat2_22_0_split_0
I1207 20:50:35.902220 23331 net.cpp:380] concat2_22_concat2_22_0_split -> concat2_22_concat2_22_0_split_1
I1207 20:50:35.902334 23331 net.cpp:122] Setting up concat2_22_concat2_22_0_split
I1207 20:50:35.902344 23331 net.cpp:129] Top shape: 1 404 17 35 (240380)
I1207 20:50:35.902351 23331 net.cpp:129] Top shape: 1 404 17 35 (240380)
I1207 20:50:35.902356 23331 net.cpp:137] Memory required for data: 163806288
I1207 20:50:35.902361 23331 layer_factory.hpp:77] Creating layer conv2_23/bn
I1207 20:50:35.902372 23331 net.cpp:84] Creating Layer conv2_23/bn
I1207 20:50:35.902379 23331 net.cpp:406] conv2_23/bn <- concat2_22_concat2_22_0_split_0
I1207 20:50:35.902393 23331 net.cpp:380] conv2_23/bn -> conv2_23/bn
I1207 20:50:35.903203 23331 net.cpp:122] Setting up conv2_23/bn
I1207 20:50:35.903220 23331 net.cpp:129] Top shape: 1 404 17 35 (240380)
I1207 20:50:35.903225 23331 net.cpp:137] Memory required for data: 164767808
I1207 20:50:35.903237 23331 layer_factory.hpp:77] Creating layer conv2_23/scale
I1207 20:50:35.903249 23331 net.cpp:84] Creating Layer conv2_23/scale
I1207 20:50:35.903254 23331 net.cpp:406] conv2_23/scale <- conv2_23/bn
I1207 20:50:35.903262 23331 net.cpp:367] conv2_23/scale -> conv2_23/bn (in-place)
I1207 20:50:35.903388 23331 layer_factory.hpp:77] Creating layer conv2_23/scale
I1207 20:50:35.903806 23331 net.cpp:122] Setting up conv2_23/scale
I1207 20:50:35.903820 23331 net.cpp:129] Top shape: 1 404 17 35 (240380)
I1207 20:50:35.903825 23331 net.cpp:137] Memory required for data: 165729328
I1207 20:50:35.903832 23331 layer_factory.hpp:77] Creating layer relu2_23
I1207 20:50:35.903842 23331 net.cpp:84] Creating Layer relu2_23
I1207 20:50:35.903847 23331 net.cpp:406] relu2_23 <- conv2_23/bn
I1207 20:50:35.903854 23331 net.cpp:367] relu2_23 -> conv2_23/bn (in-place)
I1207 20:50:35.904229 23331 net.cpp:122] Setting up relu2_23
I1207 20:50:35.904240 23331 net.cpp:129] Top shape: 1 404 17 35 (240380)
I1207 20:50:35.904245 23331 net.cpp:137] Memory required for data: 166690848
I1207 20:50:35.904249 23331 layer_factory.hpp:77] Creating layer conv2_23
I1207 20:50:35.904263 23331 net.cpp:84] Creating Layer conv2_23
I1207 20:50:35.904268 23331 net.cpp:406] conv2_23 <- conv2_23/bn
I1207 20:50:35.904278 23331 net.cpp:380] conv2_23 -> conv2_23
I1207 20:50:35.908357 23331 net.cpp:122] Setting up conv2_23
I1207 20:50:35.908390 23331 net.cpp:129] Top shape: 1 12 17 35 (7140)
I1207 20:50:35.908396 23331 net.cpp:137] Memory required for data: 166719408
I1207 20:50:35.908406 23331 layer_factory.hpp:77] Creating layer concat2_23
I1207 20:50:35.908418 23331 net.cpp:84] Creating Layer concat2_23
I1207 20:50:35.908427 23331 net.cpp:406] concat2_23 <- concat2_22_concat2_22_0_split_1
I1207 20:50:35.908434 23331 net.cpp:406] concat2_23 <- conv2_23
I1207 20:50:35.908443 23331 net.cpp:380] concat2_23 -> concat2_23
I1207 20:50:35.908504 23331 net.cpp:122] Setting up concat2_23
I1207 20:50:35.908512 23331 net.cpp:129] Top shape: 1 416 17 35 (247520)
I1207 20:50:35.908517 23331 net.cpp:137] Memory required for data: 167709488
I1207 20:50:35.908521 23331 layer_factory.hpp:77] Creating layer concat2_23_concat2_23_0_split
I1207 20:50:35.908529 23331 net.cpp:84] Creating Layer concat2_23_concat2_23_0_split
I1207 20:50:35.908532 23331 net.cpp:406] concat2_23_concat2_23_0_split <- concat2_23
I1207 20:50:35.908540 23331 net.cpp:380] concat2_23_concat2_23_0_split -> concat2_23_concat2_23_0_split_0
I1207 20:50:35.908548 23331 net.cpp:380] concat2_23_concat2_23_0_split -> concat2_23_concat2_23_0_split_1
I1207 20:50:35.908632 23331 net.cpp:122] Setting up concat2_23_concat2_23_0_split
I1207 20:50:35.908640 23331 net.cpp:129] Top shape: 1 416 17 35 (247520)
I1207 20:50:35.908645 23331 net.cpp:129] Top shape: 1 416 17 35 (247520)
I1207 20:50:35.908649 23331 net.cpp:137] Memory required for data: 169689648
I1207 20:50:35.908653 23331 layer_factory.hpp:77] Creating layer conv2_24/bn
I1207 20:50:35.908663 23331 net.cpp:84] Creating Layer conv2_24/bn
I1207 20:50:35.908668 23331 net.cpp:406] conv2_24/bn <- concat2_23_concat2_23_0_split_0
I1207 20:50:35.908674 23331 net.cpp:380] conv2_24/bn -> conv2_24/bn
I1207 20:50:35.909283 23331 net.cpp:122] Setting up conv2_24/bn
I1207 20:50:35.909293 23331 net.cpp:129] Top shape: 1 416 17 35 (247520)
I1207 20:50:35.909297 23331 net.cpp:137] Memory required for data: 170679728
I1207 20:50:35.909307 23331 layer_factory.hpp:77] Creating layer conv2_24/scale
I1207 20:50:35.909317 23331 net.cpp:84] Creating Layer conv2_24/scale
I1207 20:50:35.909323 23331 net.cpp:406] conv2_24/scale <- conv2_24/bn
I1207 20:50:35.909329 23331 net.cpp:367] conv2_24/scale -> conv2_24/bn (in-place)
I1207 20:50:35.909442 23331 layer_factory.hpp:77] Creating layer conv2_24/scale
I1207 20:50:35.909801 23331 net.cpp:122] Setting up conv2_24/scale
I1207 20:50:35.909811 23331 net.cpp:129] Top shape: 1 416 17 35 (247520)
I1207 20:50:35.909814 23331 net.cpp:137] Memory required for data: 171669808
I1207 20:50:35.909822 23331 layer_factory.hpp:77] Creating layer relu2_24
I1207 20:50:35.909832 23331 net.cpp:84] Creating Layer relu2_24
I1207 20:50:35.909837 23331 net.cpp:406] relu2_24 <- conv2_24/bn
I1207 20:50:35.909842 23331 net.cpp:367] relu2_24 -> conv2_24/bn (in-place)
I1207 20:50:35.910390 23331 net.cpp:122] Setting up relu2_24
I1207 20:50:35.910403 23331 net.cpp:129] Top shape: 1 416 17 35 (247520)
I1207 20:50:35.910408 23331 net.cpp:137] Memory required for data: 172659888
I1207 20:50:35.910413 23331 layer_factory.hpp:77] Creating layer conv2_24
I1207 20:50:35.910429 23331 net.cpp:84] Creating Layer conv2_24
I1207 20:50:35.910434 23331 net.cpp:406] conv2_24 <- conv2_24/bn
I1207 20:50:35.910441 23331 net.cpp:380] conv2_24 -> conv2_24
I1207 20:50:35.914381 23331 net.cpp:122] Setting up conv2_24
I1207 20:50:35.914407 23331 net.cpp:129] Top shape: 1 12 17 35 (7140)
I1207 20:50:35.914412 23331 net.cpp:137] Memory required for data: 172688448
I1207 20:50:35.914420 23331 layer_factory.hpp:77] Creating layer concat2_24
I1207 20:50:35.914433 23331 net.cpp:84] Creating Layer concat2_24
I1207 20:50:35.914441 23331 net.cpp:406] concat2_24 <- concat2_23_concat2_23_0_split_1
I1207 20:50:35.914450 23331 net.cpp:406] concat2_24 <- conv2_24
I1207 20:50:35.914461 23331 net.cpp:380] concat2_24 -> concat2_24
I1207 20:50:35.914535 23331 net.cpp:122] Setting up concat2_24
I1207 20:50:35.914546 23331 net.cpp:129] Top shape: 1 428 17 35 (254660)
I1207 20:50:35.914551 23331 net.cpp:137] Memory required for data: 173707088
I1207 20:50:35.914556 23331 layer_factory.hpp:77] Creating layer concat2_24_concat2_24_0_split
I1207 20:50:35.914566 23331 net.cpp:84] Creating Layer concat2_24_concat2_24_0_split
I1207 20:50:35.914572 23331 net.cpp:406] concat2_24_concat2_24_0_split <- concat2_24
I1207 20:50:35.914580 23331 net.cpp:380] concat2_24_concat2_24_0_split -> concat2_24_concat2_24_0_split_0
I1207 20:50:35.914590 23331 net.cpp:380] concat2_24_concat2_24_0_split -> concat2_24_concat2_24_0_split_1
I1207 20:50:35.914692 23331 net.cpp:122] Setting up concat2_24_concat2_24_0_split
I1207 20:50:35.914707 23331 net.cpp:129] Top shape: 1 428 17 35 (254660)
I1207 20:50:35.914716 23331 net.cpp:129] Top shape: 1 428 17 35 (254660)
I1207 20:50:35.914721 23331 net.cpp:137] Memory required for data: 175744368
I1207 20:50:35.914726 23331 layer_factory.hpp:77] Creating layer conv2_25/bn
I1207 20:50:35.914734 23331 net.cpp:84] Creating Layer conv2_25/bn
I1207 20:50:35.914742 23331 net.cpp:406] conv2_25/bn <- concat2_24_concat2_24_0_split_0
I1207 20:50:35.914752 23331 net.cpp:380] conv2_25/bn -> conv2_25/bn
I1207 20:50:35.915478 23331 net.cpp:122] Setting up conv2_25/bn
I1207 20:50:35.915493 23331 net.cpp:129] Top shape: 1 428 17 35 (254660)
I1207 20:50:35.915499 23331 net.cpp:137] Memory required for data: 176763008
I1207 20:50:35.915510 23331 layer_factory.hpp:77] Creating layer conv2_25/scale
I1207 20:50:35.915524 23331 net.cpp:84] Creating Layer conv2_25/scale
I1207 20:50:35.915530 23331 net.cpp:406] conv2_25/scale <- conv2_25/bn
I1207 20:50:35.915540 23331 net.cpp:367] conv2_25/scale -> conv2_25/bn (in-place)
I1207 20:50:35.915673 23331 layer_factory.hpp:77] Creating layer conv2_25/scale
I1207 20:50:35.916054 23331 net.cpp:122] Setting up conv2_25/scale
I1207 20:50:35.916065 23331 net.cpp:129] Top shape: 1 428 17 35 (254660)
I1207 20:50:35.916069 23331 net.cpp:137] Memory required for data: 177781648
I1207 20:50:35.916077 23331 layer_factory.hpp:77] Creating layer relu2_25
I1207 20:50:35.916085 23331 net.cpp:84] Creating Layer relu2_25
I1207 20:50:35.916090 23331 net.cpp:406] relu2_25 <- conv2_25/bn
I1207 20:50:35.916096 23331 net.cpp:367] relu2_25 -> conv2_25/bn (in-place)
I1207 20:50:35.916419 23331 net.cpp:122] Setting up relu2_25
I1207 20:50:35.916429 23331 net.cpp:129] Top shape: 1 428 17 35 (254660)
I1207 20:50:35.916438 23331 net.cpp:137] Memory required for data: 178800288
I1207 20:50:35.916442 23331 layer_factory.hpp:77] Creating layer conv2_25
I1207 20:50:35.916456 23331 net.cpp:84] Creating Layer conv2_25
I1207 20:50:35.916461 23331 net.cpp:406] conv2_25 <- conv2_25/bn
I1207 20:50:35.916469 23331 net.cpp:380] conv2_25 -> conv2_25
I1207 20:50:35.920395 23331 net.cpp:122] Setting up conv2_25
I1207 20:50:35.920415 23331 net.cpp:129] Top shape: 1 12 17 35 (7140)
I1207 20:50:35.920420 23331 net.cpp:137] Memory required for data: 178828848
I1207 20:50:35.920429 23331 layer_factory.hpp:77] Creating layer concat2_25
I1207 20:50:35.920439 23331 net.cpp:84] Creating Layer concat2_25
I1207 20:50:35.920445 23331 net.cpp:406] concat2_25 <- concat2_24_concat2_24_0_split_1
I1207 20:50:35.920452 23331 net.cpp:406] concat2_25 <- conv2_25
I1207 20:50:35.920460 23331 net.cpp:380] concat2_25 -> concat2_25
I1207 20:50:35.920518 23331 net.cpp:122] Setting up concat2_25
I1207 20:50:35.920527 23331 net.cpp:129] Top shape: 1 440 17 35 (261800)
I1207 20:50:35.920531 23331 net.cpp:137] Memory required for data: 179876048
I1207 20:50:35.920536 23331 layer_factory.hpp:77] Creating layer concat2_25_concat2_25_0_split
I1207 20:50:35.920542 23331 net.cpp:84] Creating Layer concat2_25_concat2_25_0_split
I1207 20:50:35.920547 23331 net.cpp:406] concat2_25_concat2_25_0_split <- concat2_25
I1207 20:50:35.920554 23331 net.cpp:380] concat2_25_concat2_25_0_split -> concat2_25_concat2_25_0_split_0
I1207 20:50:35.920562 23331 net.cpp:380] concat2_25_concat2_25_0_split -> concat2_25_concat2_25_0_split_1
I1207 20:50:35.920645 23331 net.cpp:122] Setting up concat2_25_concat2_25_0_split
I1207 20:50:35.920653 23331 net.cpp:129] Top shape: 1 440 17 35 (261800)
I1207 20:50:35.920660 23331 net.cpp:129] Top shape: 1 440 17 35 (261800)
I1207 20:50:35.920662 23331 net.cpp:137] Memory required for data: 181970448
I1207 20:50:35.920666 23331 layer_factory.hpp:77] Creating layer conv2_26/bn
I1207 20:50:35.920676 23331 net.cpp:84] Creating Layer conv2_26/bn
I1207 20:50:35.920682 23331 net.cpp:406] conv2_26/bn <- concat2_25_concat2_25_0_split_0
I1207 20:50:35.920689 23331 net.cpp:380] conv2_26/bn -> conv2_26/bn
I1207 20:50:35.921291 23331 net.cpp:122] Setting up conv2_26/bn
I1207 20:50:35.921301 23331 net.cpp:129] Top shape: 1 440 17 35 (261800)
I1207 20:50:35.921305 23331 net.cpp:137] Memory required for data: 183017648
I1207 20:50:35.921314 23331 layer_factory.hpp:77] Creating layer conv2_26/scale
I1207 20:50:35.921324 23331 net.cpp:84] Creating Layer conv2_26/scale
I1207 20:50:35.921329 23331 net.cpp:406] conv2_26/scale <- conv2_26/bn
I1207 20:50:35.921337 23331 net.cpp:367] conv2_26/scale -> conv2_26/bn (in-place)
I1207 20:50:35.921450 23331 layer_factory.hpp:77] Creating layer conv2_26/scale
I1207 20:50:35.921802 23331 net.cpp:122] Setting up conv2_26/scale
I1207 20:50:35.921813 23331 net.cpp:129] Top shape: 1 440 17 35 (261800)
I1207 20:50:35.921816 23331 net.cpp:137] Memory required for data: 184064848
I1207 20:50:35.921823 23331 layer_factory.hpp:77] Creating layer relu2_26
I1207 20:50:35.921833 23331 net.cpp:84] Creating Layer relu2_26
I1207 20:50:35.921838 23331 net.cpp:406] relu2_26 <- conv2_26/bn
I1207 20:50:35.921844 23331 net.cpp:367] relu2_26 -> conv2_26/bn (in-place)
I1207 20:50:35.922363 23331 net.cpp:122] Setting up relu2_26
I1207 20:50:35.922376 23331 net.cpp:129] Top shape: 1 440 17 35 (261800)
I1207 20:50:35.922381 23331 net.cpp:137] Memory required for data: 185112048
I1207 20:50:35.922385 23331 layer_factory.hpp:77] Creating layer conv2_26
I1207 20:50:35.922401 23331 net.cpp:84] Creating Layer conv2_26
I1207 20:50:35.922406 23331 net.cpp:406] conv2_26 <- conv2_26/bn
I1207 20:50:35.922415 23331 net.cpp:380] conv2_26 -> conv2_26
I1207 20:50:35.926370 23331 net.cpp:122] Setting up conv2_26
I1207 20:50:35.926389 23331 net.cpp:129] Top shape: 1 12 17 35 (7140)
I1207 20:50:35.926394 23331 net.cpp:137] Memory required for data: 185140608
I1207 20:50:35.926401 23331 layer_factory.hpp:77] Creating layer concat2_26
I1207 20:50:35.926412 23331 net.cpp:84] Creating Layer concat2_26
I1207 20:50:35.926424 23331 net.cpp:406] concat2_26 <- concat2_25_concat2_25_0_split_1
I1207 20:50:35.926431 23331 net.cpp:406] concat2_26 <- conv2_26
I1207 20:50:35.926439 23331 net.cpp:380] concat2_26 -> concat2_26
I1207 20:50:35.926502 23331 net.cpp:122] Setting up concat2_26
I1207 20:50:35.926512 23331 net.cpp:129] Top shape: 1 452 17 35 (268940)
I1207 20:50:35.926517 23331 net.cpp:137] Memory required for data: 186216368
I1207 20:50:35.926520 23331 layer_factory.hpp:77] Creating layer concat2_26_concat2_26_0_split
I1207 20:50:35.926527 23331 net.cpp:84] Creating Layer concat2_26_concat2_26_0_split
I1207 20:50:35.926532 23331 net.cpp:406] concat2_26_concat2_26_0_split <- concat2_26
I1207 20:50:35.926538 23331 net.cpp:380] concat2_26_concat2_26_0_split -> concat2_26_concat2_26_0_split_0
I1207 20:50:35.926547 23331 net.cpp:380] concat2_26_concat2_26_0_split -> concat2_26_concat2_26_0_split_1
I1207 20:50:35.926633 23331 net.cpp:122] Setting up concat2_26_concat2_26_0_split
I1207 20:50:35.926642 23331 net.cpp:129] Top shape: 1 452 17 35 (268940)
I1207 20:50:35.926647 23331 net.cpp:129] Top shape: 1 452 17 35 (268940)
I1207 20:50:35.926651 23331 net.cpp:137] Memory required for data: 188367888
I1207 20:50:35.926654 23331 layer_factory.hpp:77] Creating layer conv2_27/bn
I1207 20:50:35.926663 23331 net.cpp:84] Creating Layer conv2_27/bn
I1207 20:50:35.926668 23331 net.cpp:406] conv2_27/bn <- concat2_26_concat2_26_0_split_0
I1207 20:50:35.926676 23331 net.cpp:380] conv2_27/bn -> conv2_27/bn
I1207 20:50:35.927345 23331 net.cpp:122] Setting up conv2_27/bn
I1207 20:50:35.927357 23331 net.cpp:129] Top shape: 1 452 17 35 (268940)
I1207 20:50:35.927361 23331 net.cpp:137] Memory required for data: 189443648
I1207 20:50:35.927371 23331 layer_factory.hpp:77] Creating layer conv2_27/scale
I1207 20:50:35.927382 23331 net.cpp:84] Creating Layer conv2_27/scale
I1207 20:50:35.927387 23331 net.cpp:406] conv2_27/scale <- conv2_27/bn
I1207 20:50:35.927395 23331 net.cpp:367] conv2_27/scale -> conv2_27/bn (in-place)
I1207 20:50:35.927506 23331 layer_factory.hpp:77] Creating layer conv2_27/scale
I1207 20:50:35.927877 23331 net.cpp:122] Setting up conv2_27/scale
I1207 20:50:35.927887 23331 net.cpp:129] Top shape: 1 452 17 35 (268940)
I1207 20:50:35.927892 23331 net.cpp:137] Memory required for data: 190519408
I1207 20:50:35.927899 23331 layer_factory.hpp:77] Creating layer relu2_27
I1207 20:50:35.927907 23331 net.cpp:84] Creating Layer relu2_27
I1207 20:50:35.927912 23331 net.cpp:406] relu2_27 <- conv2_27/bn
I1207 20:50:35.927918 23331 net.cpp:367] relu2_27 -> conv2_27/bn (in-place)
I1207 20:50:35.928504 23331 net.cpp:122] Setting up relu2_27
I1207 20:50:35.928517 23331 net.cpp:129] Top shape: 1 452 17 35 (268940)
I1207 20:50:35.928521 23331 net.cpp:137] Memory required for data: 191595168
I1207 20:50:35.928526 23331 layer_factory.hpp:77] Creating layer conv2_27
I1207 20:50:35.928539 23331 net.cpp:84] Creating Layer conv2_27
I1207 20:50:35.928545 23331 net.cpp:406] conv2_27 <- conv2_27/bn
I1207 20:50:35.928555 23331 net.cpp:380] conv2_27 -> conv2_27
I1207 20:50:35.934077 23331 net.cpp:122] Setting up conv2_27
I1207 20:50:35.934111 23331 net.cpp:129] Top shape: 1 12 17 35 (7140)
I1207 20:50:35.934116 23331 net.cpp:137] Memory required for data: 191623728
I1207 20:50:35.934128 23331 layer_factory.hpp:77] Creating layer concat2_27
I1207 20:50:35.934141 23331 net.cpp:84] Creating Layer concat2_27
I1207 20:50:35.934149 23331 net.cpp:406] concat2_27 <- concat2_26_concat2_26_0_split_1
I1207 20:50:35.934157 23331 net.cpp:406] concat2_27 <- conv2_27
I1207 20:50:35.934166 23331 net.cpp:380] concat2_27 -> concat2_27
I1207 20:50:35.934231 23331 net.cpp:122] Setting up concat2_27
I1207 20:50:35.934239 23331 net.cpp:129] Top shape: 1 464 17 35 (276080)
I1207 20:50:35.934243 23331 net.cpp:137] Memory required for data: 192728048
I1207 20:50:35.934247 23331 layer_factory.hpp:77] Creating layer concat2_27_concat2_27_0_split
I1207 20:50:35.934254 23331 net.cpp:84] Creating Layer concat2_27_concat2_27_0_split
I1207 20:50:35.934264 23331 net.cpp:406] concat2_27_concat2_27_0_split <- concat2_27
I1207 20:50:35.934273 23331 net.cpp:380] concat2_27_concat2_27_0_split -> concat2_27_concat2_27_0_split_0
I1207 20:50:35.934281 23331 net.cpp:380] concat2_27_concat2_27_0_split -> concat2_27_concat2_27_0_split_1
I1207 20:50:35.934370 23331 net.cpp:122] Setting up concat2_27_concat2_27_0_split
I1207 20:50:35.934378 23331 net.cpp:129] Top shape: 1 464 17 35 (276080)
I1207 20:50:35.934384 23331 net.cpp:129] Top shape: 1 464 17 35 (276080)
I1207 20:50:35.934387 23331 net.cpp:137] Memory required for data: 194936688
I1207 20:50:35.934392 23331 layer_factory.hpp:77] Creating layer conv2_28/bn
I1207 20:50:35.934401 23331 net.cpp:84] Creating Layer conv2_28/bn
I1207 20:50:35.934406 23331 net.cpp:406] conv2_28/bn <- concat2_27_concat2_27_0_split_0
I1207 20:50:35.934412 23331 net.cpp:380] conv2_28/bn -> conv2_28/bn
I1207 20:50:35.935124 23331 net.cpp:122] Setting up conv2_28/bn
I1207 20:50:35.935137 23331 net.cpp:129] Top shape: 1 464 17 35 (276080)
I1207 20:50:35.935142 23331 net.cpp:137] Memory required for data: 196041008
I1207 20:50:35.935153 23331 layer_factory.hpp:77] Creating layer conv2_28/scale
I1207 20:50:35.935163 23331 net.cpp:84] Creating Layer conv2_28/scale
I1207 20:50:35.935169 23331 net.cpp:406] conv2_28/scale <- conv2_28/bn
I1207 20:50:35.935175 23331 net.cpp:367] conv2_28/scale -> conv2_28/bn (in-place)
I1207 20:50:35.935292 23331 layer_factory.hpp:77] Creating layer conv2_28/scale
I1207 20:50:35.935657 23331 net.cpp:122] Setting up conv2_28/scale
I1207 20:50:35.935667 23331 net.cpp:129] Top shape: 1 464 17 35 (276080)
I1207 20:50:35.935670 23331 net.cpp:137] Memory required for data: 197145328
I1207 20:50:35.935678 23331 layer_factory.hpp:77] Creating layer relu2_28
I1207 20:50:35.935685 23331 net.cpp:84] Creating Layer relu2_28
I1207 20:50:35.935690 23331 net.cpp:406] relu2_28 <- conv2_28/bn
I1207 20:50:35.935696 23331 net.cpp:367] relu2_28 -> conv2_28/bn (in-place)
I1207 20:50:35.936020 23331 net.cpp:122] Setting up relu2_28
I1207 20:50:35.936031 23331 net.cpp:129] Top shape: 1 464 17 35 (276080)
I1207 20:50:35.936036 23331 net.cpp:137] Memory required for data: 198249648
I1207 20:50:35.936040 23331 layer_factory.hpp:77] Creating layer conv2_28
I1207 20:50:35.936054 23331 net.cpp:84] Creating Layer conv2_28
I1207 20:50:35.936059 23331 net.cpp:406] conv2_28 <- conv2_28/bn
I1207 20:50:35.936069 23331 net.cpp:380] conv2_28 -> conv2_28
I1207 20:50:35.940179 23331 net.cpp:122] Setting up conv2_28
I1207 20:50:35.940203 23331 net.cpp:129] Top shape: 1 12 17 35 (7140)
I1207 20:50:35.940208 23331 net.cpp:137] Memory required for data: 198278208
I1207 20:50:35.940217 23331 layer_factory.hpp:77] Creating layer concat2_28
I1207 20:50:35.940227 23331 net.cpp:84] Creating Layer concat2_28
I1207 20:50:35.940234 23331 net.cpp:406] concat2_28 <- concat2_27_concat2_27_0_split_1
I1207 20:50:35.940241 23331 net.cpp:406] concat2_28 <- conv2_28
I1207 20:50:35.940248 23331 net.cpp:380] concat2_28 -> concat2_28
I1207 20:50:35.940310 23331 net.cpp:122] Setting up concat2_28
I1207 20:50:35.940318 23331 net.cpp:129] Top shape: 1 476 17 35 (283220)
I1207 20:50:35.940322 23331 net.cpp:137] Memory required for data: 199411088
I1207 20:50:35.940326 23331 layer_factory.hpp:77] Creating layer concat2_28_concat2_28_0_split
I1207 20:50:35.940333 23331 net.cpp:84] Creating Layer concat2_28_concat2_28_0_split
I1207 20:50:35.940338 23331 net.cpp:406] concat2_28_concat2_28_0_split <- concat2_28
I1207 20:50:35.940346 23331 net.cpp:380] concat2_28_concat2_28_0_split -> concat2_28_concat2_28_0_split_0
I1207 20:50:35.940353 23331 net.cpp:380] concat2_28_concat2_28_0_split -> concat2_28_concat2_28_0_split_1
I1207 20:50:35.940439 23331 net.cpp:122] Setting up concat2_28_concat2_28_0_split
I1207 20:50:35.940448 23331 net.cpp:129] Top shape: 1 476 17 35 (283220)
I1207 20:50:35.940452 23331 net.cpp:129] Top shape: 1 476 17 35 (283220)
I1207 20:50:35.940456 23331 net.cpp:137] Memory required for data: 201676848
I1207 20:50:35.940460 23331 layer_factory.hpp:77] Creating layer conv2_29/bn
I1207 20:50:35.940471 23331 net.cpp:84] Creating Layer conv2_29/bn
I1207 20:50:35.940477 23331 net.cpp:406] conv2_29/bn <- concat2_28_concat2_28_0_split_0
I1207 20:50:35.940486 23331 net.cpp:380] conv2_29/bn -> conv2_29/bn
I1207 20:50:35.941143 23331 net.cpp:122] Setting up conv2_29/bn
I1207 20:50:35.941156 23331 net.cpp:129] Top shape: 1 476 17 35 (283220)
I1207 20:50:35.941160 23331 net.cpp:137] Memory required for data: 202809728
I1207 20:50:35.941171 23331 layer_factory.hpp:77] Creating layer conv2_29/scale
I1207 20:50:35.941182 23331 net.cpp:84] Creating Layer conv2_29/scale
I1207 20:50:35.941189 23331 net.cpp:406] conv2_29/scale <- conv2_29/bn
I1207 20:50:35.941195 23331 net.cpp:367] conv2_29/scale -> conv2_29/bn (in-place)
I1207 20:50:35.941314 23331 layer_factory.hpp:77] Creating layer conv2_29/scale
I1207 20:50:35.941740 23331 net.cpp:122] Setting up conv2_29/scale
I1207 20:50:35.941756 23331 net.cpp:129] Top shape: 1 476 17 35 (283220)
I1207 20:50:35.941761 23331 net.cpp:137] Memory required for data: 203942608
I1207 20:50:35.941771 23331 layer_factory.hpp:77] Creating layer relu2_29
I1207 20:50:35.941779 23331 net.cpp:84] Creating Layer relu2_29
I1207 20:50:35.941785 23331 net.cpp:406] relu2_29 <- conv2_29/bn
I1207 20:50:35.941792 23331 net.cpp:367] relu2_29 -> conv2_29/bn (in-place)
I1207 20:50:35.942469 23331 net.cpp:122] Setting up relu2_29
I1207 20:50:35.942484 23331 net.cpp:129] Top shape: 1 476 17 35 (283220)
I1207 20:50:35.942489 23331 net.cpp:137] Memory required for data: 205075488
I1207 20:50:35.942493 23331 layer_factory.hpp:77] Creating layer conv2_29
I1207 20:50:35.942508 23331 net.cpp:84] Creating Layer conv2_29
I1207 20:50:35.942513 23331 net.cpp:406] conv2_29 <- conv2_29/bn
I1207 20:50:35.942522 23331 net.cpp:380] conv2_29 -> conv2_29
I1207 20:50:35.947209 23331 net.cpp:122] Setting up conv2_29
I1207 20:50:35.947247 23331 net.cpp:129] Top shape: 1 12 17 35 (7140)
I1207 20:50:35.947252 23331 net.cpp:137] Memory required for data: 205104048
I1207 20:50:35.947263 23331 layer_factory.hpp:77] Creating layer concat2_29
I1207 20:50:35.947278 23331 net.cpp:84] Creating Layer concat2_29
I1207 20:50:35.947286 23331 net.cpp:406] concat2_29 <- concat2_28_concat2_28_0_split_1
I1207 20:50:35.947294 23331 net.cpp:406] concat2_29 <- conv2_29
I1207 20:50:35.947301 23331 net.cpp:380] concat2_29 -> concat2_29
I1207 20:50:35.947362 23331 net.cpp:122] Setting up concat2_29
I1207 20:50:35.947371 23331 net.cpp:129] Top shape: 1 488 17 35 (290360)
I1207 20:50:35.947376 23331 net.cpp:137] Memory required for data: 206265488
I1207 20:50:35.947378 23331 layer_factory.hpp:77] Creating layer concat2_29_concat2_29_0_split
I1207 20:50:35.947387 23331 net.cpp:84] Creating Layer concat2_29_concat2_29_0_split
I1207 20:50:35.947391 23331 net.cpp:406] concat2_29_concat2_29_0_split <- concat2_29
I1207 20:50:35.947397 23331 net.cpp:380] concat2_29_concat2_29_0_split -> concat2_29_concat2_29_0_split_0
I1207 20:50:35.947404 23331 net.cpp:380] concat2_29_concat2_29_0_split -> concat2_29_concat2_29_0_split_1
I1207 20:50:35.947497 23331 net.cpp:122] Setting up concat2_29_concat2_29_0_split
I1207 20:50:35.947507 23331 net.cpp:129] Top shape: 1 488 17 35 (290360)
I1207 20:50:35.947513 23331 net.cpp:129] Top shape: 1 488 17 35 (290360)
I1207 20:50:35.947518 23331 net.cpp:137] Memory required for data: 208588368
I1207 20:50:35.947523 23331 layer_factory.hpp:77] Creating layer conv2_30/bn
I1207 20:50:35.947544 23331 net.cpp:84] Creating Layer conv2_30/bn
I1207 20:50:35.947554 23331 net.cpp:406] conv2_30/bn <- concat2_29_concat2_29_0_split_0
I1207 20:50:35.947567 23331 net.cpp:380] conv2_30/bn -> conv2_30/bn
I1207 20:50:35.948182 23331 net.cpp:122] Setting up conv2_30/bn
I1207 20:50:35.948192 23331 net.cpp:129] Top shape: 1 488 17 35 (290360)
I1207 20:50:35.948196 23331 net.cpp:137] Memory required for data: 209749808
I1207 20:50:35.948205 23331 layer_factory.hpp:77] Creating layer conv2_30/scale
I1207 20:50:35.948216 23331 net.cpp:84] Creating Layer conv2_30/scale
I1207 20:50:35.948221 23331 net.cpp:406] conv2_30/scale <- conv2_30/bn
I1207 20:50:35.948233 23331 net.cpp:367] conv2_30/scale -> conv2_30/bn (in-place)
I1207 20:50:35.948348 23331 layer_factory.hpp:77] Creating layer conv2_30/scale
I1207 20:50:35.948715 23331 net.cpp:122] Setting up conv2_30/scale
I1207 20:50:35.948725 23331 net.cpp:129] Top shape: 1 488 17 35 (290360)
I1207 20:50:35.948729 23331 net.cpp:137] Memory required for data: 210911248
I1207 20:50:35.948737 23331 layer_factory.hpp:77] Creating layer relu2_30
I1207 20:50:35.948745 23331 net.cpp:84] Creating Layer relu2_30
I1207 20:50:35.948750 23331 net.cpp:406] relu2_30 <- conv2_30/bn
I1207 20:50:35.948757 23331 net.cpp:367] relu2_30 -> conv2_30/bn (in-place)
I1207 20:50:35.949082 23331 net.cpp:122] Setting up relu2_30
I1207 20:50:35.949093 23331 net.cpp:129] Top shape: 1 488 17 35 (290360)
I1207 20:50:35.949097 23331 net.cpp:137] Memory required for data: 212072688
I1207 20:50:35.949101 23331 layer_factory.hpp:77] Creating layer conv2_30
I1207 20:50:35.949115 23331 net.cpp:84] Creating Layer conv2_30
I1207 20:50:35.949120 23331 net.cpp:406] conv2_30 <- conv2_30/bn
I1207 20:50:35.949128 23331 net.cpp:380] conv2_30 -> conv2_30
I1207 20:50:35.953954 23331 net.cpp:122] Setting up conv2_30
I1207 20:50:35.953995 23331 net.cpp:129] Top shape: 1 12 17 35 (7140)
I1207 20:50:35.954002 23331 net.cpp:137] Memory required for data: 212101248
I1207 20:50:35.954015 23331 layer_factory.hpp:77] Creating layer concat2_30
I1207 20:50:35.954031 23331 net.cpp:84] Creating Layer concat2_30
I1207 20:50:35.954042 23331 net.cpp:406] concat2_30 <- concat2_29_concat2_29_0_split_1
I1207 20:50:35.954052 23331 net.cpp:406] concat2_30 <- conv2_30
I1207 20:50:35.954063 23331 net.cpp:380] concat2_30 -> concat2_30
I1207 20:50:35.954134 23331 net.cpp:122] Setting up concat2_30
I1207 20:50:35.954144 23331 net.cpp:129] Top shape: 1 500 17 35 (297500)
I1207 20:50:35.954149 23331 net.cpp:137] Memory required for data: 213291248
I1207 20:50:35.954155 23331 layer_factory.hpp:77] Creating layer concat2_30_concat2_30_0_split
I1207 20:50:35.954164 23331 net.cpp:84] Creating Layer concat2_30_concat2_30_0_split
I1207 20:50:35.954169 23331 net.cpp:406] concat2_30_concat2_30_0_split <- concat2_30
I1207 20:50:35.954179 23331 net.cpp:380] concat2_30_concat2_30_0_split -> concat2_30_concat2_30_0_split_0
I1207 20:50:35.954188 23331 net.cpp:380] concat2_30_concat2_30_0_split -> concat2_30_concat2_30_0_split_1
I1207 20:50:35.954280 23331 net.cpp:122] Setting up concat2_30_concat2_30_0_split
I1207 20:50:35.954291 23331 net.cpp:129] Top shape: 1 500 17 35 (297500)
I1207 20:50:35.954296 23331 net.cpp:129] Top shape: 1 500 17 35 (297500)
I1207 20:50:35.954300 23331 net.cpp:137] Memory required for data: 215671248
I1207 20:50:35.954304 23331 layer_factory.hpp:77] Creating layer conv2_31/bn
I1207 20:50:35.954313 23331 net.cpp:84] Creating Layer conv2_31/bn
I1207 20:50:35.954319 23331 net.cpp:406] conv2_31/bn <- concat2_30_concat2_30_0_split_0
I1207 20:50:35.954324 23331 net.cpp:380] conv2_31/bn -> conv2_31/bn
I1207 20:50:35.954995 23331 net.cpp:122] Setting up conv2_31/bn
I1207 20:50:35.955008 23331 net.cpp:129] Top shape: 1 500 17 35 (297500)
I1207 20:50:35.955013 23331 net.cpp:137] Memory required for data: 216861248
I1207 20:50:35.955023 23331 layer_factory.hpp:77] Creating layer conv2_31/scale
I1207 20:50:35.955034 23331 net.cpp:84] Creating Layer conv2_31/scale
I1207 20:50:35.955039 23331 net.cpp:406] conv2_31/scale <- conv2_31/bn
I1207 20:50:35.955046 23331 net.cpp:367] conv2_31/scale -> conv2_31/bn (in-place)
I1207 20:50:35.955164 23331 layer_factory.hpp:77] Creating layer conv2_31/scale
I1207 20:50:35.955536 23331 net.cpp:122] Setting up conv2_31/scale
I1207 20:50:35.955546 23331 net.cpp:129] Top shape: 1 500 17 35 (297500)
I1207 20:50:35.955550 23331 net.cpp:137] Memory required for data: 218051248
I1207 20:50:35.955557 23331 layer_factory.hpp:77] Creating layer relu2_31
I1207 20:50:35.955565 23331 net.cpp:84] Creating Layer relu2_31
I1207 20:50:35.955570 23331 net.cpp:406] relu2_31 <- conv2_31/bn
I1207 20:50:35.955576 23331 net.cpp:367] relu2_31 -> conv2_31/bn (in-place)
I1207 20:50:35.956234 23331 net.cpp:122] Setting up relu2_31
I1207 20:50:35.956249 23331 net.cpp:129] Top shape: 1 500 17 35 (297500)
I1207 20:50:35.956254 23331 net.cpp:137] Memory required for data: 219241248
I1207 20:50:35.956259 23331 layer_factory.hpp:77] Creating layer conv2_31
I1207 20:50:35.956272 23331 net.cpp:84] Creating Layer conv2_31
I1207 20:50:35.956279 23331 net.cpp:406] conv2_31 <- conv2_31/bn
I1207 20:50:35.956287 23331 net.cpp:380] conv2_31 -> conv2_31
I1207 20:50:35.960759 23331 net.cpp:122] Setting up conv2_31
I1207 20:50:35.960793 23331 net.cpp:129] Top shape: 1 12 17 35 (7140)
I1207 20:50:35.960798 23331 net.cpp:137] Memory required for data: 219269808
I1207 20:50:35.960808 23331 layer_factory.hpp:77] Creating layer concat2_31
I1207 20:50:35.960820 23331 net.cpp:84] Creating Layer concat2_31
I1207 20:50:35.960829 23331 net.cpp:406] concat2_31 <- concat2_30_concat2_30_0_split_1
I1207 20:50:35.960836 23331 net.cpp:406] concat2_31 <- conv2_31
I1207 20:50:35.960845 23331 net.cpp:380] concat2_31 -> concat2_31
I1207 20:50:35.960912 23331 net.cpp:122] Setting up concat2_31
I1207 20:50:35.960922 23331 net.cpp:129] Top shape: 1 512 17 35 (304640)
I1207 20:50:35.960925 23331 net.cpp:137] Memory required for data: 220488368
I1207 20:50:35.960929 23331 layer_factory.hpp:77] Creating layer tpp5
I1207 20:50:35.960939 23331 net.cpp:84] Creating Layer tpp5
I1207 20:50:35.960944 23331 net.cpp:406] tpp5 <- concat2_31
I1207 20:50:35.960952 23331 net.cpp:380] tpp5 -> tpp5
I1207 20:50:35.962489 23331 net.cpp:122] Setting up tpp5
I1207 20:50:35.962508 23331 net.cpp:129] Top shape: 1 7680 (7680)
I1207 20:50:35.962514 23331 net.cpp:137] Memory required for data: 220519088
I1207 20:50:35.962519 23331 layer_factory.hpp:77] Creating layer fc6_d
I1207 20:50:35.962530 23331 net.cpp:84] Creating Layer fc6_d
I1207 20:50:35.962538 23331 net.cpp:406] fc6_d <- tpp5
I1207 20:50:35.962545 23331 net.cpp:380] fc6_d -> fc6_d
I1207 20:50:37.742174 23331 net.cpp:122] Setting up fc6_d
I1207 20:50:37.742213 23331 net.cpp:129] Top shape: 1 4096 (4096)
I1207 20:50:37.742218 23331 net.cpp:137] Memory required for data: 220535472
I1207 20:50:37.742230 23331 layer_factory.hpp:77] Creating layer relu6
I1207 20:50:37.742244 23331 net.cpp:84] Creating Layer relu6
I1207 20:50:37.742251 23331 net.cpp:406] relu6 <- fc6_d
I1207 20:50:37.742260 23331 net.cpp:367] relu6 -> fc6_d (in-place)
I1207 20:50:37.743044 23331 net.cpp:122] Setting up relu6
I1207 20:50:37.743059 23331 net.cpp:129] Top shape: 1 4096 (4096)
I1207 20:50:37.743064 23331 net.cpp:137] Memory required for data: 220551856
I1207 20:50:37.743069 23331 layer_factory.hpp:77] Creating layer fc7_d
I1207 20:50:37.743088 23331 net.cpp:84] Creating Layer fc7_d
I1207 20:50:37.743094 23331 net.cpp:406] fc7_d <- fc6_d
I1207 20:50:37.743103 23331 net.cpp:380] fc7_d -> fc7_d
I1207 20:50:38.480357 23331 net.cpp:122] Setting up fc7_d
I1207 20:50:38.480392 23331 net.cpp:129] Top shape: 1 4096 (4096)
I1207 20:50:38.480397 23331 net.cpp:137] Memory required for data: 220568240
I1207 20:50:38.480427 23331 layer_factory.hpp:77] Creating layer relu7
I1207 20:50:38.480439 23331 net.cpp:84] Creating Layer relu7
I1207 20:50:38.480446 23331 net.cpp:406] relu7 <- fc7_d
I1207 20:50:38.480454 23331 net.cpp:367] relu7 -> fc7_d (in-place)
I1207 20:50:38.480842 23331 net.cpp:122] Setting up relu7
I1207 20:50:38.480860 23331 net.cpp:129] Top shape: 1 4096 (4096)
I1207 20:50:38.480865 23331 net.cpp:137] Memory required for data: 220584624
I1207 20:50:38.480868 23331 layer_factory.hpp:77] Creating layer fc8_d
I1207 20:50:38.480880 23331 net.cpp:84] Creating Layer fc8_d
I1207 20:50:38.480885 23331 net.cpp:406] fc8_d <- fc7_d
I1207 20:50:38.480891 23331 net.cpp:380] fc8_d -> fc8_d
I1207 20:50:38.579792 23331 net.cpp:122] Setting up fc8_d
I1207 20:50:38.579831 23331 net.cpp:129] Top shape: 1 604 (604)
I1207 20:50:38.579838 23331 net.cpp:137] Memory required for data: 220587040
I1207 20:50:38.579849 23331 layer_factory.hpp:77] Creating layer fc8_d_fc8_d_0_split
I1207 20:50:38.579861 23331 net.cpp:84] Creating Layer fc8_d_fc8_d_0_split
I1207 20:50:38.579875 23331 net.cpp:406] fc8_d_fc8_d_0_split <- fc8_d
I1207 20:50:38.579886 23331 net.cpp:380] fc8_d_fc8_d_0_split -> fc8_d_fc8_d_0_split_0
I1207 20:50:38.579898 23331 net.cpp:380] fc8_d_fc8_d_0_split -> fc8_d_fc8_d_0_split_1
I1207 20:50:38.579984 23331 net.cpp:122] Setting up fc8_d_fc8_d_0_split
I1207 20:50:38.579993 23331 net.cpp:129] Top shape: 1 604 (604)
I1207 20:50:38.579998 23331 net.cpp:129] Top shape: 1 604 (604)
I1207 20:50:38.580003 23331 net.cpp:137] Memory required for data: 220591872
I1207 20:50:38.580006 23331 layer_factory.hpp:77] Creating layer sigmoid
I1207 20:50:38.580015 23331 net.cpp:84] Creating Layer sigmoid
I1207 20:50:38.580020 23331 net.cpp:406] sigmoid <- fc8_d_fc8_d_0_split_0
I1207 20:50:38.580029 23331 net.cpp:380] sigmoid -> sigmoid
I1207 20:50:38.580852 23331 net.cpp:122] Setting up sigmoid
I1207 20:50:38.580868 23331 net.cpp:129] Top shape: 1 604 (604)
I1207 20:50:38.580871 23331 net.cpp:137] Memory required for data: 220594288
I1207 20:50:38.580876 23331 layer_factory.hpp:77] Creating layer silence
I1207 20:50:38.580885 23331 net.cpp:84] Creating Layer silence
I1207 20:50:38.580890 23331 net.cpp:406] silence <- sigmoid
I1207 20:50:38.580896 23331 net.cpp:122] Setting up silence
I1207 20:50:38.580900 23331 net.cpp:137] Memory required for data: 220594288
…
