…
  phase: TRAIN
}
layer {
  name: "word_images"
  type: "Data"
  top: "word_images"
  top: "label"
  transform_param {
    scale: -0.0039215689
    mean_value: 255
  }
  data_param {
    source: "/data/fwolf/gw1_50000/gw_cv1_nti500000_pul2-3-4-5_train_word_images_lmdb"
    batch_size: 1
    backend: LMDB
    prefetch: 20
  }
}
layer {
  name: "phocs"
  type: "Data"
  top: "phocs"
  top: "label_phocs"
  data_param {
    source: "/data/fwolf/gw1_50000/gw_cv1_nti500000_pul2-3-4-5_train_phocs_lmdb"
    batch_size: 1
    backend: LMDB
    prefetch: 20
  }
}
layer {
  name: "conv_init"
  type: "Convolution"
  bottom: "word_images"
  top: "conv_init"
  convolution_param {
    num_output: 32
    bias_term: false
    pad: 1
    kernel_size: 3
    stride: 1
    weight_filler {
      type: "msra"
    }
    bias_filler {
      type: "constant"
    }
    engine: CUDNN
  }
}
layer {
  name: "bn_init"
  type: "BatchNorm"
  bottom: "conv_init"
  top: "bn_init"
  param {
    lr_mult: 0
    decay_mult: 0
  }
  param {
    lr_mult: 0
    decay_mult: 0
  }
  param {
    lr_mult: 0
    decay_mult: 0
  }
  batch_norm_param {
    eps: 1e-05
  }
}
layer {
  name: "scale_init"
  type: "Scale"
  bottom: "bn_init"
  top: "bn_init"
  scale_param {
    filler {
      value: 1
    }
    bias_term: true
    bias_filler {
      value: 0
    }
  }
}
layer {
  name: "relu_init"
  type: "ReLU"
  bottom: "bn_init"
  top: "bn_init"
}
layer {
  name: "pool_init"
  type: "Pooling"
  bottom: "bn_init"
  top: "pool_init"
  pooling_param {
    pool: MAX
    kernel_size: 3
    stride: 2
    pad: 1
  }
}
layer {
  name: "conv0_0/bn"
  type: "BatchNorm"
  bottom: "pool_init"
  top: "conv0_0/bn"
  param {
    lr_mult: 0
    decay_mult: 0
  }
  param {
    lr_mult: 0
    decay_mult: 0
  }
  param {
    lr_mult: 0
    decay_mult: 0
  }
}
layer {
  name: "conv0_0/scale"
  type: "Scale"
  bottom: "conv0_0/bn"
  top: "conv0_0/bn"
  scale_param {
    filler {
      value: 1
    }
    bias_term: true
    bias_filler {
      value: 0
    }
  }
}
layer {
  name: "relu0_0"
  type: "ReLU"
  bottom: "conv0_0/bn"
  top: "conv0_0/bn"
}
layer {
  name: "conv0_0"
  type: "Convolution"
  bottom: "conv0_0/bn"
  top: "conv0_0"
  convolution_param {
    num_output: 12
    bias_term: false
    pad: 1
    kernel_size: 3
    stride: 1
    weight_filler {
      type: "msra"
    }
    bias_filler {
      type: "constant"
    }
    engine: CUDNN
  }
}
layer {
  name: "concat0_0"
  type: "Concat"
  bottom: "pool_init"
  bottom: "conv0_0"
  top: "concat0_0"
  concat_param {
    axis: 1
  }
}
layer {
  name: "conv0_1/bn"
  type: "BatchNorm"
  bottom: "concat0_0"
  top: "conv0_1/bn"
  param {
    lr_mult: 0
    decay_mult: 0
  }
  param {
    lr_mult: 0
    decay_mult: 0
  }
  param {
    lr_mult: 0
    decay_mult: 0
  }
}
layer {
  name: "conv0_1/scale"
  type: "Scale"
  bottom: "conv0_1/bn"
  top: "conv0_1/bn"
  scale_param {
    filler {
      value: 1
    }
    bias_term: true
    bias_filler {
      value: 0
    }
  }
}
layer {
  name: "relu0_1"
  type: "ReLU"
  bottom: "conv0_1/bn"
  top: "conv0_1/bn"
}
layer {
  name: "conv0_1"
  type: "Convolution"
  bottom: "conv0_1/bn"
  top: "conv0_1"
  convolution_param {
    num_output: 12
    bias_term: false
    pad: 1
    kernel_size: 3
    stride: 1
    weight_filler {
      type: "msra"
    }
    bias_filler {
      type: "constant"
    }
    engine: CUDNN
  }
}
layer {
  name: "concat0_1"
  type: "Concat"
  bottom: "concat0_0"
  bottom: "conv0_1"
  top: "concat0_1"
  concat_param {
    axis: 1
  }
}
layer {
  name: "conv0_2/bn"
  type: "BatchNorm"
  bottom: "concat0_1"
  top: "conv0_2/bn"
  param {
    lr_mult: 0
    decay_mult: 0
  }
  param {
    lr_mult: 0
    decay_mult: 0
  }
  param {
    lr_mult: 0
    decay_mult: 0
  }
}
layer {
  name: "conv0_2/scale"
  type: "Scale"
  bottom: "conv0_2/bn"
  top: "conv0_2/bn"
  scale_param {
    filler {
      value: 1
    }
    bias_term: true
    bias_filler {
      value: 0
    }
  }
}
layer {
  name: "relu0_2"
  type: "ReLU"
  bottom: "conv0_2/bn"
  top: "conv0_2/bn"
}
layer {
  name: "conv0_2"
  type: "Convolution"
  bottom: "conv0_2/bn"
  top: "conv0_2"
  convolution_param {
    num_output: 12
    bias_term: false
    pad: 1
    kernel_size: 3
    stride: 1
    weight_filler {
      type: "msra"
    }
    bias_filler {
      type: "constant"
    }
    engine: CUDNN
  }
}
layer {
  name: "concat0_2"
  type: "Concat"
  bottom: "concat0_1"
  bottom: "conv0_2"
  top: "concat0_2"
  concat_param {
    axis: 1
  }
}
layer {
  name: "conv0_3/bn"
  type: "BatchNorm"
  bottom: "concat0_2"
  top: "conv0_3/bn"
  param {
    lr_mult: 0
    decay_mult: 0
  }
  param {
    lr_mult: 0
    decay_mult: 0
  }
  param {
    lr_mult: 0
    decay_mult: 0
  }
}
layer {
  name: "conv0_3/scale"
  type: "Scale"
  bottom: "conv0_3/bn"
  top: "conv0_3/bn"
  scale_param {
    filler {
      value: 1
    }
    bias_term: true
    bias_filler {
      value: 0
    }
  }
}
layer {
  name: "relu0_3"
  type: "ReLU"
  bottom: "conv0_3/bn"
  top: "conv0_3/bn"
}
layer {
  name: "conv0_3"
  type: "Convolution"
  bottom: "conv0_3/bn"
  top: "conv0_3"
  convolution_param {
    num_output: 12
    bias_term: false
    pad: 1
    kernel_size: 3
    stride: 1
    weight_filler {
      type: "msra"
    }
    bias_filler {
      type: "constant"
    }
    engine: CUDNN
  }
}
layer {
  name: "concat0_3"
  type: "Concat"
  bottom: "concat0_2"
  bottom: "conv0_3"
  top: "concat0_3"
  concat_param {
    axis: 1
  }
}
layer {
  name: "conv0_4/bn"
  type: "BatchNorm"
  bottom: "concat0_3"
  top: "conv0_4/bn"
  param {
    lr_mult: 0
    decay_mult: 0
  }
  param {
    lr_mult: 0
    decay_mult: 0
  }
  param {
    lr_mult: 0
    decay_mult: 0
  }
}
layer {
  name: "conv0_4/scale"
  type: "Scale"
  bottom: "conv0_4/bn"
  top: "conv0_4/bn"
  scale_param {
    filler {
      value: 1
    }
    bias_term: true
    bias_filler {
      value: 0
    }
  }
}
layer {
  name: "relu0_4"
  type: "ReLU"
  bottom: "conv0_4/bn"
  top: "conv0_4/bn"
}
layer {
  name: "conv0_4"
  type: "Convolution"
  bottom: "conv0_4/bn"
  top: "conv0_4"
  convolution_param {
    num_output: 12
    bias_term: false
    pad: 1
    kernel_size: 3
    stride: 1
    weight_filler {
      type: "msra"
    }
    bias_filler {
      type: "constant"
    }
    engine: CUDNN
  }
}
layer {
  name: "concat0_4"
  type: "Concat"
  bottom: "concat0_3"
  bottom: "conv0_4"
  top: "concat0_4"
  concat_param {
    axis: 1
  }
}
layer {
  name: "conv0_5/bn"
  type: "BatchNorm"
  bottom: "concat0_4"
  top: "conv0_5/bn"
  param {
    lr_mult: 0
    decay_mult: 0
  }
  param {
    lr_mult: 0
    decay_mult: 0
  }
  param {
    lr_mult: 0
    decay_mult: 0
  }
}
layer {
  name: "conv0_5/scale"
  type: "Scale"
  bottom: "conv0_5/bn"
  top: "conv0_5/bn"
  scale_param {
    filler {
      value: 1
    }
    bias_term: true
    bias_filler {
      value: 0
    }
  }
}
layer {
  name: "relu0_5"
  type: "ReLU"
  bottom: "conv0_5/bn"
  top: "conv0_5/bn"
}
layer {
  name: "conv0_5"
  type: "Convolution"
  bottom: "conv0_5/bn"
  top: "conv0_5"
  convolution_param {
    num_output: 12
    bias_term: false
    pad: 1
    kernel_size: 3
    stride: 1
    weight_filler {
      type: "msra"
    }
    bias_filler {
      type: "constant"
    }
    engine: CUDNN
  }
}
layer {
  name: "concat0_5"
  type: "Concat"
  bottom: "concat0_4"
  bottom: "conv0_5"
  top: "concat0_5"
  concat_param {
    axis: 1
  }
}
layer {
  name: "conv0_6/bn"
  type: "BatchNorm"
  bottom: "concat0_5"
  top: "conv0_6/bn"
  param {
    lr_mult: 0
    decay_mult: 0
  }
  param {
    lr_mult: 0
    decay_mult: 0
  }
  param {
    lr_mult: 0
    decay_mult: 0
  }
}
layer {
  name: "conv0_6/scale"
  type: "Scale"
  bottom: "conv0_6/bn"
  top: "conv0_6/bn"
  scale_param {
    filler {
      value: 1
    }
    bias_term: true
    bias_filler {
      value: 0
    }
  }
}
layer {
  name: "relu0_6"
  type: "ReLU"
  bottom: "conv0_6/bn"
  top: "conv0_6/bn"
}
layer {
  name: "conv0_6"
  type: "Convolution"
  bottom: "conv0_6/bn"
  top: "conv0_6"
  convolution_param {
    num_output: 12
    bias_term: false
    pad: 1
    kernel_size: 3
    stride: 1
    weight_filler {
      type: "msra"
    }
    bias_filler {
      type: "constant"
    }
    engine: CUDNN
  }
}
layer {
  name: "concat0_6"
  type: "Concat"
  bottom: "concat0_5"
  bottom: "conv0_6"
  top: "concat0_6"
  concat_param {
    axis: 1
  }
}
layer {
  name: "conv0_7/bn"
  type: "BatchNorm"
  bottom: "concat0_6"
  top: "conv0_7/bn"
  param {
    lr_mult: 0
    decay_mult: 0
  }
  param {
    lr_mult: 0
    decay_mult: 0
  }
  param {
    lr_mult: 0
    decay_mult: 0
  }
}
layer {
  name: "conv0_7/scale"
  type: "Scale"
  bottom: "conv0_7/bn"
  top: "conv0_7/bn"
  scale_param {
    filler {
      value: 1
    }
    bias_term: true
    bias_filler {
      value: 0
    }
  }
}
layer {
  name: "relu0_7"
  type: "ReLU"
  bottom: "conv0_7/bn"
  top: "conv0_7/bn"
}
layer {
  name: "conv0_7"
  type: "Convolution"
  bottom: "conv0_7/bn"
  top: "conv0_7"
  convolution_param {
    num_output: 12
    bias_term: false
    pad: 1
    kernel_size: 3
    stride: 1
    weight_filler {
      type: "msra"
    }
    bias_filler {
      type: "constant"
    }
    engine: CUDNN
  }
}
layer {
  name: "concat0_7"
  type: "Concat"
  bottom: "concat0_6"
  bottom: "conv0_7"
  top: "concat0_7"
  concat_param {
    axis: 1
  }
}
layer {
  name: "conv0_8/bn"
  type: "BatchNorm"
  bottom: "concat0_7"
  top: "conv0_8/bn"
  param {
    lr_mult: 0
    decay_mult: 0
  }
  param {
    lr_mult: 0
    decay_mult: 0
  }
  param {
    lr_mult: 0
    decay_mult: 0
  }
}
layer {
  name: "conv0_8/scale"
  type: "Scale"
  bottom: "conv0_8/bn"
  top: "conv0_8/bn"
  scale_param {
    filler {
      value: 1
    }
    bias_term: true
    bias_filler {
      value: 0
    }
  }
}
layer {
  name: "relu0_8"
  type: "ReLU"
  bottom: "conv0_8/bn"
  top: "conv0_8/bn"
}
layer {
  name: "conv0_8"
  type: "Convolution"
  bottom: "conv0_8/bn"
  top: "conv0_8"
  convolution_param {
    num_output: 12
    bias_term: false
    pad: 1
    kernel_size: 3
    stride: 1
    weight_filler {
      type: "msra"
    }
    bias_filler {
      type: "constant"
    }
    engine: CUDNN
  }
}
layer {
  name: "concat0_8"
  type: "Concat"
  bottom: "concat0_7"
  bottom: "conv0_8"
  top: "concat0_8"
  concat_param {
    axis: 1
  }
}
layer {
  name: "conv0_9/bn"
  type: "BatchNorm"
  bottom: "concat0_8"
  top: "conv0_9/bn"
  param {
    lr_mult: 0
    decay_mult: 0
  }
  param {
    lr_mult: 0
    decay_mult: 0
  }
  param {
    lr_mult: 0
    decay_mult: 0
  }
}
layer {
  name: "conv0_9/scale"
  type: "Scale"
  bottom: "conv0_9/bn"
  top: "conv0_9/bn"
  scale_param {
    filler {
      value: 1
    }
    bias_term: true
    bias_filler {
      value: 0
    }
  }
}
layer {
  name: "relu0_9"
  type: "ReLU"
  bottom: "conv0_9/bn"
  top: "conv0_9/bn"
}
layer {
  name: "conv0_9"
  type: "Convolution"
  bottom: "conv0_9/bn"
  top: "conv0_9"
  convolution_param {
    num_output: 12
    bias_term: false
    pad: 1
    kernel_size: 3
    stride: 1
    weight_filler {
      type: "msra"
    }
    bias_filler {
      type: "constant"
    }
    engine: CUDNN
  }
}
layer {
  name: "concat0_9"
  type: "Concat"
  bottom: "concat0_8"
  bottom: "conv0_9"
  top: "concat0_9"
  concat_param {
    axis: 1
  }
}
layer {
  name: "conv0_10/bn"
  type: "BatchNorm"
  bottom: "concat0_9"
  top: "conv0_10/bn"
  param {
    lr_mult: 0
    decay_mult: 0
  }
  param {
    lr_mult: 0
    decay_mult: 0
  }
  param {
    lr_mult: 0
    decay_mult: 0
  }
}
layer {
  name: "conv0_10/scale"
  type: "Scale"
  bottom: "conv0_10/bn"
  top: "conv0_10/bn"
  scale_param {
    filler {
      value: 1
    }
    bias_term: true
    bias_filler {
      value: 0
    }
  }
}
layer {
  name: "relu0_10"
  type: "ReLU"
  bottom: "conv0_10/bn"
  top: "conv0_10/bn"
}
layer {
  name: "conv0_10"
  type: "Convolution"
  bottom: "conv0_10/bn"
  top: "conv0_10"
  convolution_param {
    num_output: 12
    bias_term: false
    pad: 1
    kernel_size: 3
    stride: 1
    weight_filler {
      type: "msra"
    }
    bias_filler {
      type: "constant"
    }
    engine: CUDNN
  }
}
layer {
  name: "concat0_10"
  type: "Concat"
  bottom: "concat0_9"
  bottom: "conv0_10"
  top: "concat0_10"
  concat_param {
    axis: 1
  }
}
layer {
  name: "conv0_11/bn"
  type: "BatchNorm"
  bottom: "concat0_10"
  top: "conv0_11/bn"
  param {
    lr_mult: 0
    decay_mult: 0
  }
  param {
    lr_mult: 0
    decay_mult: 0
  }
  param {
    lr_mult: 0
    decay_mult: 0
  }
}
layer {
  name: "conv0_11/scale"
  type: "Scale"
  bottom: "conv0_11/bn"
  top: "conv0_11/bn"
  scale_param {
    filler {
      value: 1
    }
    bias_term: true
    bias_filler {
      value: 0
    }
  }
}
layer {
  name: "relu0_11"
  type: "ReLU"
  bottom: "conv0_11/bn"
  top: "conv0_11/bn"
}
layer {
  name: "conv0_11"
  type: "Convolution"
  bottom: "conv0_11/bn"
  top: "conv0_11"
  convolution_param {
    num_output: 12
    bias_term: false
    pad: 1
    kernel_size: 3
    stride: 1
    weight_filler {
      type: "msra"
    }
    bias_filler {
      type: "constant"
    }
    engine: CUDNN
  }
}
layer {
  name: "concat0_11"
  type: "Concat"
  bottom: "concat0_10"
  bottom: "conv0_11"
  top: "concat0_11"
  concat_param {
    axis: 1
  }
}
layer {
  name: "conv0_12/bn"
  type: "BatchNorm"
  bottom: "concat0_11"
  top: "conv0_12/bn"
  param {
    lr_mult: 0
    decay_mult: 0
  }
  param {
    lr_mult: 0
    decay_mult: 0
  }
  param {
    lr_mult: 0
    decay_mult: 0
  }
}
layer {
  name: "conv0_12/scale"
  type: "Scale"
  bottom: "conv0_12/bn"
  top: "conv0_12/bn"
  scale_param {
    filler {
      value: 1
    }
    bias_term: true
    bias_filler {
      value: 0
    }
  }
}
layer {
  name: "relu0_12"
  type: "ReLU"
  bottom: "conv0_12/bn"
  top: "conv0_12/bn"
}
layer {
  name: "conv0_12"
  type: "Convolution"
  bottom: "conv0_12/bn"
  top: "conv0_12"
  convolution_param {
    num_output: 12
    bias_term: false
    pad: 1
    kernel_size: 3
    stride: 1
    weight_filler {
      type: "msra"
    }
    bias_filler {
      type: "constant"
    }
    engine: CUDNN
  }
}
layer {
  name: "concat0_12"
  type: "Concat"
  bottom: "concat0_11"
  bottom: "conv0_12"
  top: "concat0_12"
  concat_param {
    axis: 1
  }
}
layer {
  name: "conv0_13/bn"
  type: "BatchNorm"
  bottom: "concat0_12"
  top: "conv0_13/bn"
  param {
    lr_mult: 0
    decay_mult: 0
  }
  param {
    lr_mult: 0
    decay_mult: 0
  }
  param {
    lr_mult: 0
    decay_mult: 0
  }
}
layer {
  name: "conv0_13/scale"
  type: "Scale"
  bottom: "conv0_13/bn"
  top: "conv0_13/bn"
  scale_param {
    filler {
      value: 1
    }
    bias_term: true
    bias_filler {
      value: 0
    }
  }
}
layer {
  name: "relu0_13"
  type: "ReLU"
  bottom: "conv0_13/bn"
  top: "conv0_13/bn"
}
layer {
  name: "conv0_13"
  type: "Convolution"
  bottom: "conv0_13/bn"
  top: "conv0_13"
  convolution_param {
    num_output: 12
    bias_term: false
    pad: 1
    kernel_size: 3
    stride: 1
    weight_filler {
      type: "msra"
    }
    bias_filler {
      type: "constant"
    }
    engine: CUDNN
  }
}
layer {
  name: "concat0_13"
  type: "Concat"
  bottom: "concat0_12"
  bottom: "conv0_13"
  top: "concat0_13"
  concat_param {
    axis: 1
  }
}
layer {
  name: "conv0_14/bn"
  type: "BatchNorm"
  bottom: "concat0_13"
  top: "conv0_14/bn"
  param {
    lr_mult: 0
    decay_mult: 0
  }
  param {
    lr_mult: 0
    decay_mult: 0
  }
  param {
    lr_mult: 0
    decay_mult: 0
  }
}
layer {
  name: "conv0_14/scale"
  type: "Scale"
  bottom: "conv0_14/bn"
  top: "conv0_14/bn"
  scale_param {
    filler {
      value: 1
    }
    bias_term: true
    bias_filler {
      value: 0
    }
  }
}
layer {
  name: "relu0_14"
  type: "ReLU"
  bottom: "conv0_14/bn"
  top: "conv0_14/bn"
}
layer {
  name: "conv0_14"
  type: "Convolution"
  bottom: "conv0_14/bn"
  top: "conv0_14"
  convolution_param {
    num_output: 12
    bias_term: false
    pad: 1
    kernel_size: 3
    stride: 1
    weight_filler {
      type: "msra"
    }
    bias_filler {
      type: "constant"
    }
    engine: CUDNN
  }
}
layer {
  name: "concat0_14"
  type: "Concat"
  bottom: "concat0_13"
  bottom: "conv0_14"
  top: "concat0_14"
  concat_param {
    axis: 1
  }
}
layer {
  name: "conv0_15/bn"
  type: "BatchNorm"
  bottom: "concat0_14"
  top: "conv0_15/bn"
  param {
    lr_mult: 0
    decay_mult: 0
  }
  param {
    lr_mult: 0
    decay_mult: 0
  }
  param {
    lr_mult: 0
    decay_mult: 0
  }
}
layer {
  name: "conv0_15/scale"
  type: "Scale"
  bottom: "conv0_15/bn"
  top: "conv0_15/bn"
  scale_param {
    filler {
      value: 1
    }
    bias_term: true
    bias_filler {
      value: 0
    }
  }
}
layer {
  name: "relu0_15"
  type: "ReLU"
  bottom: "conv0_15/bn"
  top: "conv0_15/bn"
}
layer {
  name: "conv0_15"
  type: "Convolution"
  bottom: "conv0_15/bn"
  top: "conv0_15"
  convolution_param {
    num_output: 12
    bias_term: false
    pad: 1
    kernel_size: 3
    stride: 1
    weight_filler {
      type: "msra"
    }
    bias_filler {
      type: "constant"
    }
    engine: CUDNN
  }
}
layer {
  name: "concat0_15"
  type: "Concat"
  bottom: "concat0_14"
  bottom: "conv0_15"
  top: "concat0_15"
  concat_param {
    axis: 1
  }
}
layer {
  name: "conv0_16/bn"
  type: "BatchNorm"
  bottom: "concat0_15"
  top: "conv0_16/bn"
  param {
    lr_mult: 0
    decay_mult: 0
  }
  param {
    lr_mult: 0
    decay_mult: 0
  }
  param {
    lr_mult: 0
    decay_mult: 0
  }
}
layer {
  name: "conv0_16/scale"
  type: "Scale"
  bottom: "conv0_16/bn"
  top: "conv0_16/bn"
  scale_param {
    filler {
      value: 1
    }
    bias_term: true
    bias_filler {
      value: 0
    }
  }
}
layer {
  name: "relu0_16"
  type: "ReLU"
  bottom: "conv0_16/bn"
  top: "conv0_16/bn"
}
layer {
  name: "conv0_16"
  type: "Convolution"
  bottom: "conv0_16/bn"
  top: "conv0_16"
  convolution_param {
    num_output: 12
    bias_term: false
    pad: 1
    kernel_size: 3
    stride: 1
    weight_filler {
      type: "msra"
    }
    bias_filler {
      type: "constant"
    }
    engine: CUDNN
  }
}
layer {
  name: "concat0_16"
  type: "Concat"
  bottom: "concat0_15"
  bottom: "conv0_16"
  top: "concat0_16"
  concat_param {
    axis: 1
  }
}
layer {
  name: "conv0_17/bn"
  type: "BatchNorm"
  bottom: "concat0_16"
  top: "conv0_17/bn"
  param {
    lr_mult: 0
    decay_mult: 0
  }
  param {
    lr_mult: 0
    decay_mult: 0
  }
  param {
    lr_mult: 0
    decay_mult: 0
  }
}
layer {
  name: "conv0_17/scale"
  type: "Scale"
  bottom: "conv0_17/bn"
  top: "conv0_17/bn"
  scale_param {
    filler {
      value: 1
    }
    bias_term: true
    bias_filler {
      value: 0
    }
  }
}
layer {
  name: "relu0_17"
  type: "ReLU"
  bottom: "conv0_17/bn"
  top: "conv0_17/bn"
}
layer {
  name: "conv0_17"
  type: "Convolution"
  bottom: "conv0_17/bn"
  top: "conv0_17"
  convolution_param {
    num_output: 12
    bias_term: false
    pad: 1
    kernel_size: 3
    stride: 1
    weight_filler {
      type: "msra"
    }
    bias_filler {
      type: "constant"
    }
    engine: CUDNN
  }
}
layer {
  name: "concat0_17"
  type: "Concat"
  bottom: "concat0_16"
  bottom: "conv0_17"
  top: "concat0_17"
  concat_param {
    axis: 1
  }
}
layer {
  name: "conv0_18/bn"
  type: "BatchNorm"
  bottom: "concat0_17"
  top: "conv0_18/bn"
  param {
    lr_mult: 0
    decay_mult: 0
  }
  param {
    lr_mult: 0
    decay_mult: 0
  }
  param {
    lr_mult: 0
    decay_mult: 0
  }
}
layer {
  name: "conv0_18/scale"
  type: "Scale"
  bottom: "conv0_18/bn"
  top: "conv0_18/bn"
  scale_param {
    filler {
      value: 1
    }
    bias_term: true
    bias_filler {
      value: 0
    }
  }
}
layer {
  name: "relu0_18"
  type: "ReLU"
  bottom: "conv0_18/bn"
  top: "conv0_18/bn"
}
layer {
  name: "conv0_18"
  type: "Convolution"
  bottom: "conv0_18/bn"
  top: "conv0_18"
  convolution_param {
    num_output: 12
    bias_term: false
    pad: 1
    kernel_size: 3
    stride: 1
    weight_filler {
      type: "msra"
    }
    bias_filler {
      type: "constant"
    }
    engine: CUDNN
  }
}
layer {
  name: "concat0_18"
  type: "Concat"
  bottom: "concat0_17"
  bottom: "conv0_18"
  top: "concat0_18"
  concat_param {
    axis: 1
  }
}
layer {
  name: "conv0_19/bn"
  type: "BatchNorm"
  bottom: "concat0_18"
  top: "conv0_19/bn"
  param {
    lr_mult: 0
    decay_mult: 0
  }
  param {
    lr_mult: 0
    decay_mult: 0
  }
  param {
    lr_mult: 0
    decay_mult: 0
  }
}
layer {
  name: "conv0_19/scale"
  type: "Scale"
  bottom: "conv0_19/bn"
  top: "conv0_19/bn"
  scale_param {
    filler {
      value: 1
    }
    bias_term: true
    bias_filler {
      value: 0
    }
  }
}
layer {
  name: "relu0_19"
  type: "ReLU"
  bottom: "conv0_19/bn"
  top: "conv0_19/bn"
}
layer {
  name: "conv0_19"
  type: "Convolution"
  bottom: "conv0_19/bn"
  top: "conv0_19"
  convolution_param {
    num_output: 12
    bias_term: false
    pad: 1
    kernel_size: 3
    stride: 1
    weight_filler {
      type: "msra"
    }
    bias_filler {
      type: "constant"
    }
    engine: CUDNN
  }
}
layer {
  name: "concat0_19"
  type: "Concat"
  bottom: "concat0_18"
  bottom: "conv0_19"
  top: "concat0_19"
  concat_param {
    axis: 1
  }
}
layer {
  name: "conv0_20/bn"
  type: "BatchNorm"
  bottom: "concat0_19"
  top: "conv0_20/bn"
  param {
    lr_mult: 0
    decay_mult: 0
  }
  param {
    lr_mult: 0
    decay_mult: 0
  }
  param {
    lr_mult: 0
    decay_mult: 0
  }
}
layer {
  name: "conv0_20/scale"
  type: "Scale"
  bottom: "conv0_20/bn"
  top: "conv0_20/bn"
  scale_param {
    filler {
      value: 1
    }
    bias_term: true
    bias_filler {
      value: 0
    }
  }
}
layer {
  name: "relu0_20"
  type: "ReLU"
  bottom: "conv0_20/bn"
  top: "conv0_20/bn"
}
layer {
  name: "conv0_20"
  type: "Convolution"
  bottom: "conv0_20/bn"
  top: "conv0_20"
  convolution_param {
    num_output: 12
    bias_term: false
    pad: 1
    kernel_size: 3
    stride: 1
    weight_filler {
      type: "msra"
    }
    bias_filler {
      type: "constant"
    }
    engine: CUDNN
  }
}
layer {
  name: "concat0_20"
  type: "Concat"
  bottom: "concat0_19"
  bottom: "conv0_20"
  top: "concat0_20"
  concat_param {
    axis: 1
  }
}
layer {
  name: "conv0_21/bn"
  type: "BatchNorm"
  bottom: "concat0_20"
  top: "conv0_21/bn"
  param {
    lr_mult: 0
    decay_mult: 0
  }
  param {
    lr_mult: 0
    decay_mult: 0
  }
  param {
    lr_mult: 0
    decay_mult: 0
  }
}
layer {
  name: "conv0_21/scale"
  type: "Scale"
  bottom: "conv0_21/bn"
  top: "conv0_21/bn"
  scale_param {
    filler {
      value: 1
    }
    bias_term: true
    bias_filler {
      value: 0
    }
  }
}
layer {
  name: "relu0_21"
  type: "ReLU"
  bottom: "conv0_21/bn"
  top: "conv0_21/bn"
}
layer {
  name: "conv0_21"
  type: "Convolution"
  bottom: "conv0_21/bn"
  top: "conv0_21"
  convolution_param {
    num_output: 12
    bias_term: false
    pad: 1
    kernel_size: 3
    stride: 1
    weight_filler {
      type: "msra"
    }
    bias_filler {
      type: "constant"
    }
    engine: CUDNN
  }
}
layer {
  name: "concat0_21"
  type: "Concat"
  bottom: "concat0_20"
  bottom: "conv0_21"
  top: "concat0_21"
  concat_param {
    axis: 1
  }
}
layer {
  name: "conv0_22/bn"
  type: "BatchNorm"
  bottom: "concat0_21"
  top: "conv0_22/bn"
  param {
    lr_mult: 0
    decay_mult: 0
  }
  param {
    lr_mult: 0
    decay_mult: 0
  }
  param {
    lr_mult: 0
    decay_mult: 0
  }
}
layer {
  name: "conv0_22/scale"
  type: "Scale"
  bottom: "conv0_22/bn"
  top: "conv0_22/bn"
  scale_param {
    filler {
      value: 1
    }
    bias_term: true
    bias_filler {
      value: 0
    }
  }
}
layer {
  name: "relu0_22"
  type: "ReLU"
  bottom: "conv0_22/bn"
  top: "conv0_22/bn"
}
layer {
  name: "conv0_22"
  type: "Convolution"
  bottom: "conv0_22/bn"
  top: "conv0_22"
  convolution_param {
    num_output: 12
    bias_term: false
    pad: 1
    kernel_size: 3
    stride: 1
    weight_filler {
      type: "msra"
    }
    bias_filler {
      type: "constant"
    }
    engine: CUDNN
  }
}
layer {
  name: "concat0_22"
  type: "Concat"
  bottom: "concat0_21"
  bottom: "conv0_22"
  top: "concat0_22"
  concat_param {
    axis: 1
  }
}
layer {
  name: "conv0_23/bn"
  type: "BatchNorm"
  bottom: "concat0_22"
  top: "conv0_23/bn"
  param {
    lr_mult: 0
    decay_mult: 0
  }
  param {
    lr_mult: 0
    decay_mult: 0
  }
  param {
    lr_mult: 0
    decay_mult: 0
  }
}
layer {
  name: "conv0_23/scale"
  type: "Scale"
  bottom: "conv0_23/bn"
  top: "conv0_23/bn"
  scale_param {
    filler {
      value: 1
    }
    bias_term: true
    bias_filler {
      value: 0
    }
  }
}
layer {
  name: "relu0_23"
  type: "ReLU"
  bottom: "conv0_23/bn"
  top: "conv0_23/bn"
}
layer {
  name: "conv0_23"
  type: "Convolution"
  bottom: "conv0_23/bn"
  top: "conv0_23"
  convolution_param {
    num_output: 12
    bias_term: false
    pad: 1
    kernel_size: 3
    stride: 1
    weight_filler {
      type: "msra"
    }
    bias_filler {
      type: "constant"
    }
    engine: CUDNN
  }
}
layer {
  name: "concat0_23"
  type: "Concat"
  bottom: "concat0_22"
  bottom: "conv0_23"
  top: "concat0_23"
  concat_param {
    axis: 1
  }
}
layer {
  name: "conv0_24/bn"
  type: "BatchNorm"
  bottom: "concat0_23"
  top: "conv0_24/bn"
  param {
    lr_mult: 0
    decay_mult: 0
  }
  param {
    lr_mult: 0
    decay_mult: 0
  }
  param {
    lr_mult: 0
    decay_mult: 0
  }
}
layer {
  name: "conv0_24/scale"
  type: "Scale"
  bottom: "conv0_24/bn"
  top: "conv0_24/bn"
  scale_param {
    filler {
      value: 1
    }
    bias_term: true
    bias_filler {
      value: 0
    }
  }
}
layer {
  name: "relu0_24"
  type: "ReLU"
  bottom: "conv0_24/bn"
  top: "conv0_24/bn"
}
layer {
  name: "conv0_24"
  type: "Convolution"
  bottom: "conv0_24/bn"
  top: "conv0_24"
  convolution_param {
    num_output: 12
    bias_term: false
    pad: 1
    kernel_size: 3
    stride: 1
    weight_filler {
      type: "msra"
    }
    bias_filler {
      type: "constant"
    }
    engine: CUDNN
  }
}
layer {
  name: "concat0_24"
  type: "Concat"
  bottom: "concat0_23"
  bottom: "conv0_24"
  top: "concat0_24"
  concat_param {
    axis: 1
  }
}
layer {
  name: "conv0_25/bn"
  type: "BatchNorm"
  bottom: "concat0_24"
  top: "conv0_25/bn"
  param {
    lr_mult: 0
    decay_mult: 0
  }
  param {
    lr_mult: 0
    decay_mult: 0
  }
  param {
    lr_mult: 0
    decay_mult: 0
  }
}
layer {
  name: "conv0_25/scale"
  type: "Scale"
  bottom: "conv0_25/bn"
  top: "conv0_25/bn"
  scale_param {
    filler {
      value: 1
    }
    bias_term: true
    bias_filler {
      value: 0
    }
  }
}
layer {
  name: "relu0_25"
  type: "ReLU"
  bottom: "conv0_25/bn"
  top: "conv0_25/bn"
}
layer {
  name: "conv0_25"
  type: "Convolution"
  bottom: "conv0_25/bn"
  top: "conv0_25"
  convolution_param {
    num_output: 12
    bias_term: false
    pad: 1
    kernel_size: 3
    stride: 1
    weight_filler {
      type: "msra"
    }
    bias_filler {
      type: "constant"
    }
    engine: CUDNN
  }
}
layer {
  name: "concat0_25"
  type: "Concat"
  bottom: "concat0_24"
  bottom: "conv0_25"
  top: "concat0_25"
  concat_param {
    axis: 1
  }
}
layer {
  name: "conv0_26/bn"
  type: "BatchNorm"
  bottom: "concat0_25"
  top: "conv0_26/bn"
  param {
    lr_mult: 0
    decay_mult: 0
  }
  param {
    lr_mult: 0
    decay_mult: 0
  }
  param {
    lr_mult: 0
    decay_mult: 0
  }
}
layer {
  name: "conv0_26/scale"
  type: "Scale"
  bottom: "conv0_26/bn"
  top: "conv0_26/bn"
  scale_param {
    filler {
      value: 1
    }
    bias_term: true
    bias_filler {
      value: 0
    }
  }
}
layer {
  name: "relu0_26"
  type: "ReLU"
  bottom: "conv0_26/bn"
  top: "conv0_26/bn"
}
layer {
  name: "conv0_26"
  type: "Convolution"
  bottom: "conv0_26/bn"
  top: "conv0_26"
  convolution_param {
    num_output: 12
    bias_term: false
    pad: 1
    kernel_size: 3
    stride: 1
    weight_filler {
      type: "msra"
    }
    bias_filler {
      type: "constant"
    }
    engine: CUDNN
  }
}
layer {
  name: "concat0_26"
  type: "Concat"
  bottom: "concat0_25"
  bottom: "conv0_26"
  top: "concat0_26"
  concat_param {
    axis: 1
  }
}
layer {
  name: "conv0_27/bn"
  type: "BatchNorm"
  bottom: "concat0_26"
  top: "conv0_27/bn"
  param {
    lr_mult: 0
    decay_mult: 0
  }
  param {
    lr_mult: 0
    decay_mult: 0
  }
  param {
    lr_mult: 0
    decay_mult: 0
  }
}
layer {
  name: "conv0_27/scale"
  type: "Scale"
  bottom: "conv0_27/bn"
  top: "conv0_27/bn"
  scale_param {
    filler {
      value: 1
    }
    bias_term: true
    bias_filler {
      value: 0
    }
  }
}
layer {
  name: "relu0_27"
  type: "ReLU"
  bottom: "conv0_27/bn"
  top: "conv0_27/bn"
}
layer {
  name: "conv0_27"
  type: "Convolution"
  bottom: "conv0_27/bn"
  top: "conv0_27"
  convolution_param {
    num_output: 12
    bias_term: false
    pad: 1
    kernel_size: 3
    stride: 1
    weight_filler {
      type: "msra"
    }
    bias_filler {
      type: "constant"
    }
    engine: CUDNN
  }
}
layer {
  name: "concat0_27"
  type: "Concat"
  bottom: "concat0_26"
  bottom: "conv0_27"
  top: "concat0_27"
  concat_param {
    axis: 1
  }
}
layer {
  name: "conv0_28/bn"
  type: "BatchNorm"
  bottom: "concat0_27"
  top: "conv0_28/bn"
  param {
    lr_mult: 0
    decay_mult: 0
  }
  param {
    lr_mult: 0
    decay_mult: 0
  }
  param {
    lr_mult: 0
    decay_mult: 0
  }
}
layer {
  name: "conv0_28/scale"
  type: "Scale"
  bottom: "conv0_28/bn"
  top: "conv0_28/bn"
  scale_param {
    filler {
      value: 1
    }
    bias_term: true
    bias_filler {
      value: 0
    }
  }
}
layer {
  name: "relu0_28"
  type: "ReLU"
  bottom: "conv0_28/bn"
  top: "conv0_28/bn"
}
layer {
  name: "conv0_28"
  type: "Convolution"
  bottom: "conv0_28/bn"
  top: "conv0_28"
  convolution_param {
    num_output: 12
    bias_term: fals
I0225 16:04:36.669973  9728 layer_factory.hpp:77] Creating layer word_images
I0225 16:04:36.670106  9728 db_lmdb.cpp:35] Opened lmdb /data/fwolf/gw1_50000/gw_cv1_nti500000_pul2-3-4-5_train_word_images_lmdb
I0225 16:04:36.670155  9728 net.cpp:84] Creating Layer word_images
I0225 16:04:36.670167  9728 net.cpp:380] word_images -> word_images
I0225 16:04:36.670186  9728 net.cpp:380] word_images -> label
I0225 16:04:36.673369  9728 data_layer.cpp:44] output data size: 1,1,51,147
I0225 16:04:36.679625  9728 net.cpp:122] Setting up word_images
I0225 16:04:36.679651  9728 net.cpp:129] Top shape: 1 1 51 147 (7497)
I0225 16:04:36.679659  9728 net.cpp:129] Top shape: 1 (1)
I0225 16:04:36.679666  9728 net.cpp:137] Memory required for data: 29992
I0225 16:04:36.679672  9728 layer_factory.hpp:77] Creating layer phocs
I0225 16:04:36.679771  9728 db_lmdb.cpp:35] Opened lmdb /data/fwolf/gw1_50000/gw_cv1_nti500000_pul2-3-4-5_train_phocs_lmdb
I0225 16:04:36.679816  9728 net.cpp:84] Creating Layer phocs
I0225 16:04:36.679827  9728 net.cpp:380] phocs -> phocs
I0225 16:04:36.679841  9728 net.cpp:380] phocs -> label_phocs
I0225 16:04:36.680513  9728 data_layer.cpp:44] output data size: 1,1,1,604
I0225 16:04:36.691870  9728 net.cpp:122] Setting up phocs
I0225 16:04:36.691900  9728 net.cpp:129] Top shape: 1 1 1 604 (604)
I0225 16:04:36.691907  9728 net.cpp:129] Top shape: 1 (1)
I0225 16:04:36.691912  9728 net.cpp:137] Memory required for data: 32412
I0225 16:04:36.691920  9728 layer_factory.hpp:77] Creating layer conv_init
I0225 16:04:36.691946  9728 net.cpp:84] Creating Layer conv_init
I0225 16:04:36.691956  9728 net.cpp:406] conv_init <- word_images
I0225 16:04:36.691970  9728 net.cpp:380] conv_init -> conv_init
I0225 16:04:37.309204  9728 net.cpp:122] Setting up conv_init
I0225 16:04:37.309242  9728 net.cpp:129] Top shape: 1 32 51 147 (239904)
I0225 16:04:37.309245  9728 net.cpp:137] Memory required for data: 992028
I0225 16:04:37.309260  9728 layer_factory.hpp:77] Creating layer bn_init
I0225 16:04:37.309275  9728 net.cpp:84] Creating Layer bn_init
I0225 16:04:37.309280  9728 net.cpp:406] bn_init <- conv_init
I0225 16:04:37.309288  9728 net.cpp:380] bn_init -> bn_init
I0225 16:04:37.309607  9728 net.cpp:122] Setting up bn_init
I0225 16:04:37.309614  9728 net.cpp:129] Top shape: 1 32 51 147 (239904)
I0225 16:04:37.309617  9728 net.cpp:137] Memory required for data: 1951644
I0225 16:04:37.309628  9728 layer_factory.hpp:77] Creating layer scale_init
I0225 16:04:37.309636  9728 net.cpp:84] Creating Layer scale_init
I0225 16:04:37.309640  9728 net.cpp:406] scale_init <- bn_init
I0225 16:04:37.309645  9728 net.cpp:367] scale_init -> bn_init (in-place)
I0225 16:04:37.309700  9728 layer_factory.hpp:77] Creating layer scale_init
I0225 16:04:37.309883  9728 net.cpp:122] Setting up scale_init
I0225 16:04:37.309890  9728 net.cpp:129] Top shape: 1 32 51 147 (239904)
I0225 16:04:37.309893  9728 net.cpp:137] Memory required for data: 2911260
I0225 16:04:37.309900  9728 layer_factory.hpp:77] Creating layer relu_init
I0225 16:04:37.309907  9728 net.cpp:84] Creating Layer relu_init
I0225 16:04:37.309911  9728 net.cpp:406] relu_init <- bn_init
I0225 16:04:37.309914  9728 net.cpp:367] relu_init -> bn_init (in-place)
I0225 16:04:37.311034  9728 net.cpp:122] Setting up relu_init
I0225 16:04:37.311046  9728 net.cpp:129] Top shape: 1 32 51 147 (239904)
I0225 16:04:37.311050  9728 net.cpp:137] Memory required for data: 3870876
I0225 16:04:37.311054  9728 layer_factory.hpp:77] Creating layer pool_init
I0225 16:04:37.311061  9728 net.cpp:84] Creating Layer pool_init
I0225 16:04:37.311065  9728 net.cpp:406] pool_init <- bn_init
I0225 16:04:37.311070  9728 net.cpp:380] pool_init -> pool_init
I0225 16:04:37.311132  9728 net.cpp:122] Setting up pool_init
I0225 16:04:37.311138  9728 net.cpp:129] Top shape: 1 32 26 74 (61568)
I0225 16:04:37.311141  9728 net.cpp:137] Memory required for data: 4117148
I0225 16:04:37.311144  9728 layer_factory.hpp:77] Creating layer pool_init_pool_init_0_split
I0225 16:04:37.311149  9728 net.cpp:84] Creating Layer pool_init_pool_init_0_split
I0225 16:04:37.311152  9728 net.cpp:406] pool_init_pool_init_0_split <- pool_init
I0225 16:04:37.311157  9728 net.cpp:380] pool_init_pool_init_0_split -> pool_init_pool_init_0_split_0
I0225 16:04:37.311162  9728 net.cpp:380] pool_init_pool_init_0_split -> pool_init_pool_init_0_split_1
I0225 16:04:37.311208  9728 net.cpp:122] Setting up pool_init_pool_init_0_split
I0225 16:04:37.311213  9728 net.cpp:129] Top shape: 1 32 26 74 (61568)
I0225 16:04:37.311218  9728 net.cpp:129] Top shape: 1 32 26 74 (61568)
I0225 16:04:37.311220  9728 net.cpp:137] Memory required for data: 4609692
I0225 16:04:37.311223  9728 layer_factory.hpp:77] Creating layer conv0_0/bn
I0225 16:04:37.311229  9728 net.cpp:84] Creating Layer conv0_0/bn
I0225 16:04:37.311233  9728 net.cpp:406] conv0_0/bn <- pool_init_pool_init_0_split_0
I0225 16:04:37.311242  9728 net.cpp:380] conv0_0/bn -> conv0_0/bn
I0225 16:04:37.313288  9728 net.cpp:122] Setting up conv0_0/bn
I0225 16:04:37.313302  9728 net.cpp:129] Top shape: 1 32 26 74 (61568)
I0225 16:04:37.313305  9728 net.cpp:137] Memory required for data: 4855964
I0225 16:04:37.313315  9728 layer_factory.hpp:77] Creating layer conv0_0/scale
I0225 16:04:37.313323  9728 net.cpp:84] Creating Layer conv0_0/scale
I0225 16:04:37.313325  9728 net.cpp:406] conv0_0/scale <- conv0_0/bn
I0225 16:04:37.313330  9728 net.cpp:367] conv0_0/scale -> conv0_0/bn (in-place)
I0225 16:04:37.313386  9728 layer_factory.hpp:77] Creating layer conv0_0/scale
I0225 16:04:37.313549  9728 net.cpp:122] Setting up conv0_0/scale
I0225 16:04:37.313556  9728 net.cpp:129] Top shape: 1 32 26 74 (61568)
I0225 16:04:37.313560  9728 net.cpp:137] Memory required for data: 5102236
I0225 16:04:37.313565  9728 layer_factory.hpp:77] Creating layer relu0_0
I0225 16:04:37.313570  9728 net.cpp:84] Creating Layer relu0_0
I0225 16:04:37.313572  9728 net.cpp:406] relu0_0 <- conv0_0/bn
I0225 16:04:37.313576  9728 net.cpp:367] relu0_0 -> conv0_0/bn (in-place)
I0225 16:04:37.313765  9728 net.cpp:122] Setting up relu0_0
I0225 16:04:37.313771  9728 net.cpp:129] Top shape: 1 32 26 74 (61568)
I0225 16:04:37.313774  9728 net.cpp:137] Memory required for data: 5348508
I0225 16:04:37.313778  9728 layer_factory.hpp:77] Creating layer conv0_0
I0225 16:04:37.313788  9728 net.cpp:84] Creating Layer conv0_0
I0225 16:04:37.313791  9728 net.cpp:406] conv0_0 <- conv0_0/bn
I0225 16:04:37.313796  9728 net.cpp:380] conv0_0 -> conv0_0
I0225 16:04:37.315583  9728 net.cpp:122] Setting up conv0_0
I0225 16:04:37.315598  9728 net.cpp:129] Top shape: 1 12 26 74 (23088)
I0225 16:04:37.315600  9728 net.cpp:137] Memory required for data: 5440860
I0225 16:04:37.315606  9728 layer_factory.hpp:77] Creating layer concat0_0
I0225 16:04:37.315613  9728 net.cpp:84] Creating Layer concat0_0
I0225 16:04:37.315618  9728 net.cpp:406] concat0_0 <- pool_init_pool_init_0_split_1
I0225 16:04:37.315621  9728 net.cpp:406] concat0_0 <- conv0_0
I0225 16:04:37.315626  9728 net.cpp:380] concat0_0 -> concat0_0
I0225 16:04:37.315661  9728 net.cpp:122] Setting up concat0_0
I0225 16:04:37.315667  9728 net.cpp:129] Top shape: 1 44 26 74 (84656)
I0225 16:04:37.315670  9728 net.cpp:137] Memory required for data: 5779484
I0225 16:04:37.315673  9728 layer_factory.hpp:77] Creating layer concat0_0_concat0_0_0_split
I0225 16:04:37.315677  9728 net.cpp:84] Creating Layer concat0_0_concat0_0_0_split
I0225 16:04:37.315680  9728 net.cpp:406] concat0_0_concat0_0_0_split <- concat0_0
I0225 16:04:37.315685  9728 net.cpp:380] concat0_0_concat0_0_0_split -> concat0_0_concat0_0_0_split_0
I0225 16:04:37.315690  9728 net.cpp:380] concat0_0_concat0_0_0_split -> concat0_0_concat0_0_0_split_1
I0225 16:04:37.315737  9728 net.cpp:122] Setting up concat0_0_concat0_0_0_split
I0225 16:04:37.315740  9728 net.cpp:129] Top shape: 1 44 26 74 (84656)
I0225 16:04:37.315744  9728 net.cpp:129] Top shape: 1 44 26 74 (84656)
I0225 16:04:37.315747  9728 net.cpp:137] Memory required for data: 6456732
I0225 16:04:37.315749  9728 layer_factory.hpp:77] Creating layer conv0_1/bn
I0225 16:04:37.315755  9728 net.cpp:84] Creating Layer conv0_1/bn
I0225 16:04:37.315758  9728 net.cpp:406] conv0_1/bn <- concat0_0_concat0_0_0_split_0
I0225 16:04:37.315763  9728 net.cpp:380] conv0_1/bn -> conv0_1/bn
I0225 16:04:37.316056  9728 net.cpp:122] Setting up conv0_1/bn
I0225 16:04:37.316061  9728 net.cpp:129] Top shape: 1 44 26 74 (84656)
I0225 16:04:37.316064  9728 net.cpp:137] Memory required for data: 6795356
I0225 16:04:37.316071  9728 layer_factory.hpp:77] Creating layer conv0_1/scale
I0225 16:04:37.316077  9728 net.cpp:84] Creating Layer conv0_1/scale
I0225 16:04:37.316081  9728 net.cpp:406] conv0_1/scale <- conv0_1/bn
I0225 16:04:37.316085  9728 net.cpp:367] conv0_1/scale -> conv0_1/bn (in-place)
I0225 16:04:37.316134  9728 layer_factory.hpp:77] Creating layer conv0_1/scale
I0225 16:04:37.316298  9728 net.cpp:122] Setting up conv0_1/scale
I0225 16:04:37.316308  9728 net.cpp:129] Top shape: 1 44 26 74 (84656)
I0225 16:04:37.316310  9728 net.cpp:137] Memory required for data: 7133980
I0225 16:04:37.316318  9728 layer_factory.hpp:77] Creating layer relu0_1
I0225 16:04:37.316324  9728 net.cpp:84] Creating Layer relu0_1
I0225 16:04:37.316328  9728 net.cpp:406] relu0_1 <- conv0_1/bn
I0225 16:04:37.316331  9728 net.cpp:367] relu0_1 -> conv0_1/bn (in-place)
I0225 16:04:37.316507  9728 net.cpp:122] Setting up relu0_1
I0225 16:04:37.316514  9728 net.cpp:129] Top shape: 1 44 26 74 (84656)
I0225 16:04:37.316517  9728 net.cpp:137] Memory required for data: 7472604
I0225 16:04:37.316520  9728 layer_factory.hpp:77] Creating layer conv0_1
I0225 16:04:37.316529  9728 net.cpp:84] Creating Layer conv0_1
I0225 16:04:37.316532  9728 net.cpp:406] conv0_1 <- conv0_1/bn
I0225 16:04:37.316537  9728 net.cpp:380] conv0_1 -> conv0_1
I0225 16:04:37.319370  9728 net.cpp:122] Setting up conv0_1
I0225 16:04:37.319382  9728 net.cpp:129] Top shape: 1 12 26 74 (23088)
I0225 16:04:37.319386  9728 net.cpp:137] Memory required for data: 7564956
I0225 16:04:37.319391  9728 layer_factory.hpp:77] Creating layer concat0_1
I0225 16:04:37.319397  9728 net.cpp:84] Creating Layer concat0_1
I0225 16:04:37.319401  9728 net.cpp:406] concat0_1 <- concat0_0_concat0_0_0_split_1
I0225 16:04:37.319406  9728 net.cpp:406] concat0_1 <- conv0_1
I0225 16:04:37.319411  9728 net.cpp:380] concat0_1 -> concat0_1
I0225 16:04:37.319452  9728 net.cpp:122] Setting up concat0_1
I0225 16:04:37.319458  9728 net.cpp:129] Top shape: 1 56 26 74 (107744)
I0225 16:04:37.319460  9728 net.cpp:137] Memory required for data: 7995932
I0225 16:04:37.319463  9728 layer_factory.hpp:77] Creating layer concat0_1_concat0_1_0_split
I0225 16:04:37.319468  9728 net.cpp:84] Creating Layer concat0_1_concat0_1_0_split
I0225 16:04:37.319471  9728 net.cpp:406] concat0_1_concat0_1_0_split <- concat0_1
I0225 16:04:37.319476  9728 net.cpp:380] concat0_1_concat0_1_0_split -> concat0_1_concat0_1_0_split_0
I0225 16:04:37.319483  9728 net.cpp:380] concat0_1_concat0_1_0_split -> concat0_1_concat0_1_0_split_1
I0225 16:04:37.319530  9728 net.cpp:122] Setting up concat0_1_concat0_1_0_split
I0225 16:04:37.319535  9728 net.cpp:129] Top shape: 1 56 26 74 (107744)
I0225 16:04:37.319538  9728 net.cpp:129] Top shape: 1 56 26 74 (107744)
I0225 16:04:37.319540  9728 net.cpp:137] Memory required for data: 8857884
I0225 16:04:37.319543  9728 layer_factory.hpp:77] Creating layer conv0_2/bn
I0225 16:04:37.319550  9728 net.cpp:84] Creating Layer conv0_2/bn
I0225 16:04:37.319552  9728 net.cpp:406] conv0_2/bn <- concat0_1_concat0_1_0_split_0
I0225 16:04:37.319556  9728 net.cpp:380] conv0_2/bn -> conv0_2/bn
I0225 16:04:37.319855  9728 net.cpp:122] Setting up conv0_2/bn
I0225 16:04:37.319861  9728 net.cpp:129] Top shape: 1 56 26 74 (107744)
I0225 16:04:37.319864  9728 net.cpp:137] Memory required for data: 9288860
I0225 16:04:37.319871  9728 layer_factory.hpp:77] Creating layer conv0_2/scale
I0225 16:04:37.319877  9728 net.cpp:84] Creating Layer conv0_2/scale
I0225 16:04:37.319881  9728 net.cpp:406] conv0_2/scale <- conv0_2/bn
I0225 16:04:37.319885  9728 net.cpp:367] conv0_2/scale -> conv0_2/bn (in-place)
I0225 16:04:37.319938  9728 layer_factory.hpp:77] Creating layer conv0_2/scale
I0225 16:04:37.320101  9728 net.cpp:122] Setting up conv0_2/scale
I0225 16:04:37.320107  9728 net.cpp:129] Top shape: 1 56 26 74 (107744)
I0225 16:04:37.320111  9728 net.cpp:137] Memory required for data: 9719836
I0225 16:04:37.320116  9728 layer_factory.hpp:77] Creating layer relu0_2
I0225 16:04:37.320121  9728 net.cpp:84] Creating Layer relu0_2
I0225 16:04:37.320124  9728 net.cpp:406] relu0_2 <- conv0_2/bn
I0225 16:04:37.320128  9728 net.cpp:367] relu0_2 -> conv0_2/bn (in-place)
I0225 16:04:37.321161  9728 net.cpp:122] Setting up relu0_2
I0225 16:04:37.321173  9728 net.cpp:129] Top shape: 1 56 26 74 (107744)
I0225 16:04:37.321177  9728 net.cpp:137] Memory required for data: 10150812
I0225 16:04:37.321180  9728 layer_factory.hpp:77] Creating layer conv0_2
I0225 16:04:37.321189  9728 net.cpp:84] Creating Layer conv0_2
I0225 16:04:37.321195  9728 net.cpp:406] conv0_2 <- conv0_2/bn
I0225 16:04:37.321202  9728 net.cpp:380] conv0_2 -> conv0_2
I0225 16:04:37.323012  9728 net.cpp:122] Setting up conv0_2
I0225 16:04:37.323025  9728 net.cpp:129] Top shape: 1 12 26 74 (23088)
I0225 16:04:37.323029  9728 net.cpp:137] Memory required for data: 10243164
I0225 16:04:37.323035  9728 layer_factory.hpp:77] Creating layer concat0_2
I0225 16:04:37.323040  9728 net.cpp:84] Creating Layer concat0_2
I0225 16:04:37.323045  9728 net.cpp:406] concat0_2 <- concat0_1_concat0_1_0_split_1
I0225 16:04:37.323050  9728 net.cpp:406] concat0_2 <- conv0_2
I0225 16:04:37.323053  9728 net.cpp:380] concat0_2 -> concat0_2
I0225 16:04:37.323088  9728 net.cpp:122] Setting up concat0_2
I0225 16:04:37.323094  9728 net.cpp:129] Top shape: 1 68 26 74 (130832)
I0225 16:04:37.323097  9728 net.cpp:137] Memory required for data: 10766492
I0225 16:04:37.323101  9728 layer_factory.hpp:77] Creating layer concat0_2_concat0_2_0_split
I0225 16:04:37.323104  9728 net.cpp:84] Creating Layer concat0_2_concat0_2_0_split
I0225 16:04:37.323107  9728 net.cpp:406] concat0_2_concat0_2_0_split <- concat0_2
I0225 16:04:37.323112  9728 net.cpp:380] concat0_2_concat0_2_0_split -> concat0_2_concat0_2_0_split_0
I0225 16:04:37.323117  9728 net.cpp:380] concat0_2_concat0_2_0_split -> concat0_2_concat0_2_0_split_1
I0225 16:04:37.323163  9728 net.cpp:122] Setting up concat0_2_concat0_2_0_split
I0225 16:04:37.323168  9728 net.cpp:129] Top shape: 1 68 26 74 (130832)
I0225 16:04:37.323171  9728 net.cpp:129] Top shape: 1 68 26 74 (130832)
I0225 16:04:37.323173  9728 net.cpp:137] Memory required for data: 11813148
I0225 16:04:37.323176  9728 layer_factory.hpp:77] Creating layer conv0_3/bn
I0225 16:04:37.323182  9728 net.cpp:84] Creating Layer conv0_3/bn
I0225 16:04:37.323185  9728 net.cpp:406] conv0_3/bn <- concat0_2_concat0_2_0_split_0
I0225 16:04:37.323189  9728 net.cpp:380] conv0_3/bn -> conv0_3/bn
I0225 16:04:37.323493  9728 net.cpp:122] Setting up conv0_3/bn
I0225 16:04:37.323499  9728 net.cpp:129] Top shape: 1 68 26 74 (130832)
I0225 16:04:37.323503  9728 net.cpp:137] Memory required for data: 12336476
I0225 16:04:37.323509  9728 layer_factory.hpp:77] Creating layer conv0_3/scale
I0225 16:04:37.323515  9728 net.cpp:84] Creating Layer conv0_3/scale
I0225 16:04:37.323518  9728 net.cpp:406] conv0_3/scale <- conv0_3/bn
I0225 16:04:37.323523  9728 net.cpp:367] conv0_3/scale -> conv0_3/bn (in-place)
I0225 16:04:37.323572  9728 layer_factory.hpp:77] Creating layer conv0_3/scale
I0225 16:04:37.323737  9728 net.cpp:122] Setting up conv0_3/scale
I0225 16:04:37.323745  9728 net.cpp:129] Top shape: 1 68 26 74 (130832)
I0225 16:04:37.323747  9728 net.cpp:137] Memory required for data: 12859804
I0225 16:04:37.323752  9728 layer_factory.hpp:77] Creating layer relu0_3
I0225 16:04:37.323757  9728 net.cpp:84] Creating Layer relu0_3
I0225 16:04:37.323761  9728 net.cpp:406] relu0_3 <- conv0_3/bn
I0225 16:04:37.323765  9728 net.cpp:367] relu0_3 -> conv0_3/bn (in-place)
I0225 16:04:37.323940  9728 net.cpp:122] Setting up relu0_3
I0225 16:04:37.323947  9728 net.cpp:129] Top shape: 1 68 26 74 (130832)
I0225 16:04:37.323951  9728 net.cpp:137] Memory required for data: 13383132
I0225 16:04:37.323953  9728 layer_factory.hpp:77] Creating layer conv0_3
I0225 16:04:37.323962  9728 net.cpp:84] Creating Layer conv0_3
I0225 16:04:37.323966  9728 net.cpp:406] conv0_3 <- conv0_3/bn
I0225 16:04:37.323971  9728 net.cpp:380] conv0_3 -> conv0_3
I0225 16:04:37.325876  9728 net.cpp:122] Setting up conv0_3
I0225 16:04:37.325889  9728 net.cpp:129] Top shape: 1 12 26 74 (23088)
I0225 16:04:37.325892  9728 net.cpp:137] Memory required for data: 13475484
I0225 16:04:37.325898  9728 layer_factory.hpp:77] Creating layer concat0_3
I0225 16:04:37.325904  9728 net.cpp:84] Creating Layer concat0_3
I0225 16:04:37.325908  9728 net.cpp:406] concat0_3 <- concat0_2_concat0_2_0_split_1
I0225 16:04:37.325913  9728 net.cpp:406] concat0_3 <- conv0_3
I0225 16:04:37.325917  9728 net.cpp:380] concat0_3 -> concat0_3
I0225 16:04:37.325956  9728 net.cpp:122] Setting up concat0_3
I0225 16:04:37.325963  9728 net.cpp:129] Top shape: 1 80 26 74 (153920)
I0225 16:04:37.325965  9728 net.cpp:137] Memory required for data: 14091164
I0225 16:04:37.325968  9728 layer_factory.hpp:77] Creating layer concat0_3_concat0_3_0_split
I0225 16:04:37.325973  9728 net.cpp:84] Creating Layer concat0_3_concat0_3_0_split
I0225 16:04:37.325976  9728 net.cpp:406] concat0_3_concat0_3_0_split <- concat0_3
I0225 16:04:37.325980  9728 net.cpp:380] concat0_3_concat0_3_0_split -> concat0_3_concat0_3_0_split_0
I0225 16:04:37.325985  9728 net.cpp:380] concat0_3_concat0_3_0_split -> concat0_3_concat0_3_0_split_1
I0225 16:04:37.326031  9728 net.cpp:122] Setting up concat0_3_concat0_3_0_split
I0225 16:04:37.326036  9728 net.cpp:129] Top shape: 1 80 26 74 (153920)
I0225 16:04:37.326040  9728 net.cpp:129] Top shape: 1 80 26 74 (153920)
I0225 16:04:37.326042  9728 net.cpp:137] Memory required for data: 15322524
I0225 16:04:37.326045  9728 layer_factory.hpp:77] Creating layer conv0_4/bn
I0225 16:04:37.326051  9728 net.cpp:84] Creating Layer conv0_4/bn
I0225 16:04:37.326055  9728 net.cpp:406] conv0_4/bn <- concat0_3_concat0_3_0_split_0
I0225 16:04:37.326061  9728 net.cpp:380] conv0_4/bn -> conv0_4/bn
I0225 16:04:37.326390  9728 net.cpp:122] Setting up conv0_4/bn
I0225 16:04:37.326395  9728 net.cpp:129] Top shape: 1 80 26 74 (153920)
I0225 16:04:37.326398  9728 net.cpp:137] Memory required for data: 15938204
I0225 16:04:37.326411  9728 layer_factory.hpp:77] Creating layer conv0_4/scale
I0225 16:04:37.326418  9728 net.cpp:84] Creating Layer conv0_4/scale
I0225 16:04:37.326422  9728 net.cpp:406] conv0_4/scale <- conv0_4/bn
I0225 16:04:37.326426  9728 net.cpp:367] conv0_4/scale -> conv0_4/bn (in-place)
I0225 16:04:37.326483  9728 layer_factory.hpp:77] Creating layer conv0_4/scale
I0225 16:04:37.326663  9728 net.cpp:122] Setting up conv0_4/scale
I0225 16:04:37.326670  9728 net.cpp:129] Top shape: 1 80 26 74 (153920)
I0225 16:04:37.326673  9728 net.cpp:137] Memory required for data: 16553884
I0225 16:04:37.326678  9728 layer_factory.hpp:77] Creating layer relu0_4
I0225 16:04:37.326683  9728 net.cpp:84] Creating Layer relu0_4
I0225 16:04:37.326687  9728 net.cpp:406] relu0_4 <- conv0_4/bn
I0225 16:04:37.326692  9728 net.cpp:367] relu0_4 -> conv0_4/bn (in-place)
I0225 16:04:37.326884  9728 net.cpp:122] Setting up relu0_4
I0225 16:04:37.326890  9728 net.cpp:129] Top shape: 1 80 26 74 (153920)
I0225 16:04:37.326894  9728 net.cpp:137] Memory required for data: 17169564
I0225 16:04:37.326896  9728 layer_factory.hpp:77] Creating layer conv0_4
I0225 16:04:37.326906  9728 net.cpp:84] Creating Layer conv0_4
I0225 16:04:37.326910  9728 net.cpp:406] conv0_4 <- conv0_4/bn
I0225 16:04:37.326917  9728 net.cpp:380] conv0_4 -> conv0_4
I0225 16:04:37.328892  9728 net.cpp:122] Setting up conv0_4
I0225 16:04:37.328905  9728 net.cpp:129] Top shape: 1 12 26 74 (23088)
I0225 16:04:37.328908  9728 net.cpp:137] Memory required for data: 17261916
I0225 16:04:37.328914  9728 layer_factory.hpp:77] Creating layer concat0_4
I0225 16:04:37.328922  9728 net.cpp:84] Creating Layer concat0_4
I0225 16:04:37.328927  9728 net.cpp:406] concat0_4 <- concat0_3_concat0_3_0_split_1
I0225 16:04:37.328930  9728 net.cpp:406] concat0_4 <- conv0_4
I0225 16:04:37.328935  9728 net.cpp:380] concat0_4 -> concat0_4
I0225 16:04:37.328972  9728 net.cpp:122] Setting up concat0_4
I0225 16:04:37.328979  9728 net.cpp:129] Top shape: 1 92 26 74 (177008)
I0225 16:04:37.328980  9728 net.cpp:137] Memory required for data: 17969948
I0225 16:04:37.328984  9728 layer_factory.hpp:77] Creating layer concat0_4_concat0_4_0_split
I0225 16:04:37.328989  9728 net.cpp:84] Creating Layer concat0_4_concat0_4_0_split
I0225 16:04:37.328992  9728 net.cpp:406] concat0_4_concat0_4_0_split <- concat0_4
I0225 16:04:37.328997  9728 net.cpp:380] concat0_4_concat0_4_0_split -> concat0_4_concat0_4_0_split_0
I0225 16:04:37.329005  9728 net.cpp:380] concat0_4_concat0_4_0_split -> concat0_4_concat0_4_0_split_1
I0225 16:04:37.329057  9728 net.cpp:122] Setting up concat0_4_concat0_4_0_split
I0225 16:04:37.329066  9728 net.cpp:129] Top shape: 1 92 26 74 (177008)
I0225 16:04:37.329069  9728 net.cpp:129] Top shape: 1 92 26 74 (177008)
I0225 16:04:37.329072  9728 net.cpp:137] Memory required for data: 19386012
I0225 16:04:37.329074  9728 layer_factory.hpp:77] Creating layer conv0_5/bn
I0225 16:04:37.329085  9728 net.cpp:84] Creating Layer conv0_5/bn
I0225 16:04:37.329088  9728 net.cpp:406] conv0_5/bn <- concat0_4_concat0_4_0_split_0
I0225 16:04:37.329093  9728 net.cpp:380] conv0_5/bn -> conv0_5/bn
I0225 16:04:37.329409  9728 net.cpp:122] Setting up conv0_5/bn
I0225 16:04:37.329416  9728 net.cpp:129] Top shape: 1 92 26 74 (177008)
I0225 16:04:37.329418  9728 net.cpp:137] Memory required for data: 20094044
I0225 16:04:37.329424  9728 layer_factory.hpp:77] Creating layer conv0_5/scale
I0225 16:04:37.329432  9728 net.cpp:84] Creating Layer conv0_5/scale
I0225 16:04:37.329434  9728 net.cpp:406] conv0_5/scale <- conv0_5/bn
I0225 16:04:37.329440  9728 net.cpp:367] conv0_5/scale -> conv0_5/bn (in-place)
I0225 16:04:37.329495  9728 layer_factory.hpp:77] Creating layer conv0_5/scale
I0225 16:04:37.329670  9728 net.cpp:122] Setting up conv0_5/scale
I0225 16:04:37.329677  9728 net.cpp:129] Top shape: 1 92 26 74 (177008)
I0225 16:04:37.329680  9728 net.cpp:137] Memory required for data: 20802076
I0225 16:04:37.329685  9728 layer_factory.hpp:77] Creating layer relu0_5
I0225 16:04:37.329692  9728 net.cpp:84] Creating Layer relu0_5
I0225 16:04:37.329695  9728 net.cpp:406] relu0_5 <- conv0_5/bn
I0225 16:04:37.329699  9728 net.cpp:367] relu0_5 -> conv0_5/bn (in-place)
I0225 16:04:37.330750  9728 net.cpp:122] Setting up relu0_5
I0225 16:04:37.330762  9728 net.cpp:129] Top shape: 1 92 26 74 (177008)
I0225 16:04:37.330765  9728 net.cpp:137] Memory required for data: 21510108
I0225 16:04:37.330770  9728 layer_factory.hpp:77] Creating layer conv0_5
I0225 16:04:37.330780  9728 net.cpp:84] Creating Layer conv0_5
I0225 16:04:37.330783  9728 net.cpp:406] conv0_5 <- conv0_5/bn
I0225 16:04:37.330790  9728 net.cpp:380] conv0_5 -> conv0_5
I0225 16:04:37.333700  9728 net.cpp:122] Setting up conv0_5
I0225 16:04:37.333714  9728 net.cpp:129] Top shape: 1 12 26 74 (23088)
I0225 16:04:37.333717  9728 net.cpp:137] Memory required for data: 21602460
I0225 16:04:37.333724  9728 layer_factory.hpp:77] Creating layer concat0_5
I0225 16:04:37.333729  9728 net.cpp:84] Creating Layer concat0_5
I0225 16:04:37.333735  9728 net.cpp:406] concat0_5 <- concat0_4_concat0_4_0_split_1
I0225 16:04:37.333740  9728 net.cpp:406] concat0_5 <- conv0_5
I0225 16:04:37.333745  9728 net.cpp:380] concat0_5 -> concat0_5
I0225 16:04:37.333787  9728 net.cpp:122] Setting up concat0_5
I0225 16:04:37.333793  9728 net.cpp:129] Top shape: 1 104 26 74 (200096)
I0225 16:04:37.333796  9728 net.cpp:137] Memory required for data: 22402844
I0225 16:04:37.333798  9728 layer_factory.hpp:77] Creating layer concat0_5_concat0_5_0_split
I0225 16:04:37.333806  9728 net.cpp:84] Creating Layer concat0_5_concat0_5_0_split
I0225 16:04:37.333808  9728 net.cpp:406] concat0_5_concat0_5_0_split <- concat0_5
I0225 16:04:37.333812  9728 net.cpp:380] concat0_5_concat0_5_0_split -> concat0_5_concat0_5_0_split_0
I0225 16:04:37.333817  9728 net.cpp:380] concat0_5_concat0_5_0_split -> concat0_5_concat0_5_0_split_1
I0225 16:04:37.333870  9728 net.cpp:122] Setting up concat0_5_concat0_5_0_split
I0225 16:04:37.333875  9728 net.cpp:129] Top shape: 1 104 26 74 (200096)
I0225 16:04:37.333879  9728 net.cpp:129] Top shape: 1 104 26 74 (200096)
I0225 16:04:37.333881  9728 net.cpp:137] Memory required for data: 24003612
I0225 16:04:37.333884  9728 layer_factory.hpp:77] Creating layer conv0_6/bn
I0225 16:04:37.333891  9728 net.cpp:84] Creating Layer conv0_6/bn
I0225 16:04:37.333894  9728 net.cpp:406] conv0_6/bn <- concat0_5_concat0_5_0_split_0
I0225 16:04:37.333899  9728 net.cpp:380] conv0_6/bn -> conv0_6/bn
I0225 16:04:37.334223  9728 net.cpp:122] Setting up conv0_6/bn
I0225 16:04:37.334229  9728 net.cpp:129] Top shape: 1 104 26 74 (200096)
I0225 16:04:37.334233  9728 net.cpp:137] Memory required for data: 24803996
I0225 16:04:37.334242  9728 layer_factory.hpp:77] Creating layer conv0_6/scale
I0225 16:04:37.334250  9728 net.cpp:84] Creating Layer conv0_6/scale
I0225 16:04:37.334254  9728 net.cpp:406] conv0_6/scale <- conv0_6/bn
I0225 16:04:37.334259  9728 net.cpp:367] conv0_6/scale -> conv0_6/bn (in-place)
I0225 16:04:37.334316  9728 layer_factory.hpp:77] Creating layer conv0_6/scale
I0225 16:04:37.334502  9728 net.cpp:122] Setting up conv0_6/scale
I0225 16:04:37.334509  9728 net.cpp:129] Top shape: 1 104 26 74 (200096)
I0225 16:04:37.334512  9728 net.cpp:137] Memory required for data: 25604380
I0225 16:04:37.334517  9728 layer_factory.hpp:77] Creating layer relu0_6
I0225 16:04:37.334523  9728 net.cpp:84] Creating Layer relu0_6
I0225 16:04:37.334527  9728 net.cpp:406] relu0_6 <- conv0_6/bn
I0225 16:04:37.334530  9728 net.cpp:367] relu0_6 -> conv0_6/bn (in-place)
I0225 16:04:37.334728  9728 net.cpp:122] Setting up relu0_6
I0225 16:04:37.334735  9728 net.cpp:129] Top shape: 1 104 26 74 (200096)
I0225 16:04:37.334738  9728 net.cpp:137] Memory required for data: 26404764
I0225 16:04:37.334741  9728 layer_factory.hpp:77] Creating layer conv0_6
I0225 16:04:37.334751  9728 net.cpp:84] Creating Layer conv0_6
I0225 16:04:37.334755  9728 net.cpp:406] conv0_6 <- conv0_6/bn
I0225 16:04:37.334761  9728 net.cpp:380] conv0_6 -> conv0_6
I0225 16:04:37.336839  9728 net.cpp:122] Setting up conv0_6
I0225 16:04:37.336854  9728 net.cpp:129] Top shape: 1 12 26 74 (23088)
I0225 16:04:37.336858  9728 net.cpp:137] Memory required for data: 26497116
I0225 16:04:37.336864  9728 layer_factory.hpp:77] Creating layer concat0_6
I0225 16:04:37.336870  9728 net.cpp:84] Creating Layer concat0_6
I0225 16:04:37.336874  9728 net.cpp:406] concat0_6 <- concat0_5_concat0_5_0_split_1
I0225 16:04:37.336880  9728 net.cpp:406] concat0_6 <- conv0_6
I0225 16:04:37.336885  9728 net.cpp:380] concat0_6 -> concat0_6
I0225 16:04:37.336926  9728 net.cpp:122] Setting up concat0_6
I0225 16:04:37.336932  9728 net.cpp:129] Top shape: 1 116 26 74 (223184)
I0225 16:04:37.336935  9728 net.cpp:137] Memory required for data: 27389852
I0225 16:04:37.336937  9728 layer_factory.hpp:77] Creating layer concat0_6_concat0_6_0_split
I0225 16:04:37.336942  9728 net.cpp:84] Creating Layer concat0_6_concat0_6_0_split
I0225 16:04:37.336946  9728 net.cpp:406] concat0_6_concat0_6_0_split <- concat0_6
I0225 16:04:37.336951  9728 net.cpp:380] concat0_6_concat0_6_0_split -> concat0_6_concat0_6_0_split_0
I0225 16:04:37.336957  9728 net.cpp:380] concat0_6_concat0_6_0_split -> concat0_6_concat0_6_0_split_1
I0225 16:04:37.337024  9728 net.cpp:122] Setting up concat0_6_concat0_6_0_split
I0225 16:04:37.337030  9728 net.cpp:129] Top shape: 1 116 26 74 (223184)
I0225 16:04:37.337034  9728 net.cpp:129] Top shape: 1 116 26 74 (223184)
I0225 16:04:37.337038  9728 net.cpp:137] Memory required for data: 29175324
I0225 16:04:37.337040  9728 layer_factory.hpp:77] Creating layer conv0_7/bn
I0225 16:04:37.337045  9728 net.cpp:84] Creating Layer conv0_7/bn
I0225 16:04:37.337049  9728 net.cpp:406] conv0_7/bn <- concat0_6_concat0_6_0_split_0
I0225 16:04:37.337059  9728 net.cpp:380] conv0_7/bn -> conv0_7/bn
I0225 16:04:37.337379  9728 net.cpp:122] Setting up conv0_7/bn
I0225 16:04:37.337386  9728 net.cpp:129] Top shape: 1 116 26 74 (223184)
I0225 16:04:37.337388  9728 net.cpp:137] Memory required for data: 30068060
I0225 16:04:37.337395  9728 layer_factory.hpp:77] Creating layer conv0_7/scale
I0225 16:04:37.337404  9728 net.cpp:84] Creating Layer conv0_7/scale
I0225 16:04:37.337406  9728 net.cpp:406] conv0_7/scale <- conv0_7/bn
I0225 16:04:37.337412  9728 net.cpp:367] conv0_7/scale -> conv0_7/bn (in-place)
I0225 16:04:37.337469  9728 layer_factory.hpp:77] Creating layer conv0_7/scale
I0225 16:04:37.337651  9728 net.cpp:122] Setting up conv0_7/scale
I0225 16:04:37.337658  9728 net.cpp:129] Top shape: 1 116 26 74 (223184)
I0225 16:04:37.337661  9728 net.cpp:137] Memory required for data: 30960796
I0225 16:04:37.337666  9728 layer_factory.hpp:77] Creating layer relu0_7
I0225 16:04:37.337671  9728 net.cpp:84] Creating Layer relu0_7
I0225 16:04:37.337677  9728 net.cpp:406] relu0_7 <- conv0_7/bn
I0225 16:04:37.337682  9728 net.cpp:367] relu0_7 -> conv0_7/bn (in-place)
I0225 16:04:37.337878  9728 net.cpp:122] Setting up relu0_7
I0225 16:04:37.337887  9728 net.cpp:129] Top shape: 1 116 26 74 (223184)
I0225 16:04:37.337888  9728 net.cpp:137] Memory required for data: 31853532
I0225 16:04:37.337893  9728 layer_factory.hpp:77] Creating layer conv0_7
I0225 16:04:37.337903  9728 net.cpp:84] Creating Layer conv0_7
I0225 16:04:37.337906  9728 net.cpp:406] conv0_7 <- conv0_7/bn
I0225 16:04:37.337913  9728 net.cpp:380] conv0_7 -> conv0_7
I0225 16:04:37.339980  9728 net.cpp:122] Setting up conv0_7
I0225 16:04:37.339995  9728 net.cpp:129] Top shape: 1 12 26 74 (23088)
I0225 16:04:37.339998  9728 net.cpp:137] Memory required for data: 31945884
I0225 16:04:37.340004  9728 layer_factory.hpp:77] Creating layer concat0_7
I0225 16:04:37.340010  9728 net.cpp:84] Creating Layer concat0_7
I0225 16:04:37.340014  9728 net.cpp:406] concat0_7 <- concat0_6_concat0_6_0_split_1
I0225 16:04:37.340019  9728 net.cpp:406] concat0_7 <- conv0_7
I0225 16:04:37.340023  9728 net.cpp:380] concat0_7 -> concat0_7
I0225 16:04:37.340064  9728 net.cpp:122] Setting up concat0_7
I0225 16:04:37.340068  9728 net.cpp:129] Top shape: 1 128 26 74 (246272)
I0225 16:04:37.340071  9728 net.cpp:137] Memory required for data: 32930972
I0225 16:04:37.340075  9728 layer_factory.hpp:77] Creating layer concat0_7_concat0_7_0_split
I0225 16:04:37.340080  9728 net.cpp:84] Creating Layer concat0_7_concat0_7_0_split
I0225 16:04:37.340082  9728 net.cpp:406] concat0_7_concat0_7_0_split <- concat0_7
I0225 16:04:37.340086  9728 net.cpp:380] concat0_7_concat0_7_0_split -> concat0_7_concat0_7_0_split_0
I0225 16:04:37.340093  9728 net.cpp:380] concat0_7_concat0_7_0_split -> concat0_7_concat0_7_0_split_1
I0225 16:04:37.340147  9728 net.cpp:122] Setting up concat0_7_concat0_7_0_split
I0225 16:04:37.340152  9728 net.cpp:129] Top shape: 1 128 26 74 (246272)
I0225 16:04:37.340157  9728 net.cpp:129] Top shape: 1 128 26 74 (246272)
I0225 16:04:37.340159  9728 net.cpp:137] Memory required for data: 34901148
I0225 16:04:37.340162  9728 layer_factory.hpp:77] Creating layer conv0_8/bn
I0225 16:04:37.340167  9728 net.cpp:84] Creating Layer conv0_8/bn
I0225 16:04:37.340170  9728 net.cpp:406] conv0_8/bn <- concat0_7_concat0_7_0_split_0
I0225 16:04:37.340176  9728 net.cpp:380] conv0_8/bn -> conv0_8/bn
I0225 16:04:37.340481  9728 net.cpp:122] Setting up conv0_8/bn
I0225 16:04:37.340487  9728 net.cpp:129] Top shape: 1 128 26 74 (246272)
I0225 16:04:37.340489  9728 net.cpp:137] Memory required for data: 35886236
I0225 16:04:37.340497  9728 layer_factory.hpp:77] Creating layer conv0_8/scale
I0225 16:04:37.340502  9728 net.cpp:84] Creating Layer conv0_8/scale
I0225 16:04:37.340505  9728 net.cpp:406] conv0_8/scale <- conv0_8/bn
I0225 16:04:37.340512  9728 net.cpp:367] conv0_8/scale -> conv0_8/bn (in-place)
I0225 16:04:37.340569  9728 layer_factory.hpp:77] Creating layer conv0_8/scale
I0225 16:04:37.340746  9728 net.cpp:122] Setting up conv0_8/scale
I0225 16:04:37.340754  9728 net.cpp:129] Top shape: 1 128 26 74 (246272)
I0225 16:04:37.340756  9728 net.cpp:137] Memory required for data: 36871324
I0225 16:04:37.340761  9728 layer_factory.hpp:77] Creating layer relu0_8
I0225 16:04:37.340766  9728 net.cpp:84] Creating Layer relu0_8
I0225 16:04:37.340770  9728 net.cpp:406] relu0_8 <- conv0_8/bn
I0225 16:04:37.340773  9728 net.cpp:367] relu0_8 -> conv0_8/bn (in-place)
I0225 16:04:37.340965  9728 net.cpp:122] Setting up relu0_8
I0225 16:04:37.340972  9728 net.cpp:129] Top shape: 1 128 26 74 (246272)
I0225 16:04:37.340975  9728 net.cpp:137] Memory required for data: 37856412
I0225 16:04:37.340978  9728 layer_factory.hpp:77] Creating layer conv0_8
I0225 16:04:37.340991  9728 net.cpp:84] Creating Layer conv0_8
I0225 16:04:37.340994  9728 net.cpp:406] conv0_8 <- conv0_8/bn
I0225 16:04:37.340999  9728 net.cpp:380] conv0_8 -> conv0_8
I0225 16:04:37.344004  9728 net.cpp:122] Setting up conv0_8
I0225 16:04:37.344017  9728 net.cpp:129] Top shape: 1 12 26 74 (23088)
I0225 16:04:37.344023  9728 net.cpp:137] Memory required for data: 37948764
I0225 16:04:37.344029  9728 layer_factory.hpp:77] Creating layer concat0_8
I0225 16:04:37.344035  9728 net.cpp:84] Creating Layer concat0_8
I0225 16:04:37.344039  9728 net.cpp:406] concat0_8 <- concat0_7_concat0_7_0_split_1
I0225 16:04:37.344044  9728 net.cpp:406] concat0_8 <- conv0_8
I0225 16:04:37.344050  9728 net.cpp:380] concat0_8 -> concat0_8
I0225 16:04:37.344094  9728 net.cpp:122] Setting up concat0_8
I0225 16:04:37.344100  9728 net.cpp:129] Top shape: 1 140 26 74 (269360)
I0225 16:04:37.344102  9728 net.cpp:137] Memory required for data: 39026204
I0225 16:04:37.344105  9728 layer_factory.hpp:77] Creating layer concat0_8_concat0_8_0_split
I0225 16:04:37.344112  9728 net.cpp:84] Creating Layer concat0_8_concat0_8_0_split
I0225 16:04:37.344115  9728 net.cpp:406] concat0_8_concat0_8_0_split <- concat0_8
I0225 16:04:37.344120  9728 net.cpp:380] concat0_8_concat0_8_0_split -> concat0_8_concat0_8_0_split_0
I0225 16:04:37.344125  9728 net.cpp:380] concat0_8_concat0_8_0_split -> concat0_8_concat0_8_0_split_1
I0225 16:04:37.344178  9728 net.cpp:122] Setting up concat0_8_concat0_8_0_split
I0225 16:04:37.344183  9728 net.cpp:129] Top shape: 1 140 26 74 (269360)
I0225 16:04:37.344187  9728 net.cpp:129] Top shape: 1 140 26 74 (269360)
I0225 16:04:37.344189  9728 net.cpp:137] Memory required for data: 41181084
I0225 16:04:37.344192  9728 layer_factory.hpp:77] Creating layer conv0_9/bn
I0225 16:04:37.344198  9728 net.cpp:84] Creating Layer conv0_9/bn
I0225 16:04:37.344202  9728 net.cpp:406] conv0_9/bn <- concat0_8_concat0_8_0_split_0
I0225 16:04:37.344207  9728 net.cpp:380] conv0_9/bn -> conv0_9/bn
I0225 16:04:37.344565  9728 net.cpp:122] Setting up conv0_9/bn
I0225 16:04:37.344573  9728 net.cpp:129] Top shape: 1 140 26 74 (269360)
I0225 16:04:37.344575  9728 net.cpp:137] Memory required for data: 42258524
I0225 16:04:37.344581  9728 layer_factory.hpp:77] Creating layer conv0_9/scale
I0225 16:04:37.344590  9728 net.cpp:84] Creating Layer conv0_9/scale
I0225 16:04:37.344594  9728 net.cpp:406] conv0_9/scale <- conv0_9/bn
I0225 16:04:37.344599  9728 net.cpp:367] conv0_9/scale -> conv0_9/bn (in-place)
I0225 16:04:37.344689  9728 layer_factory.hpp:77] Creating layer conv0_9/scale
I0225 16:04:37.344907  9728 net.cpp:122] Setting up conv0_9/scale
I0225 16:04:37.344914  9728 net.cpp:129] Top shape: 1 140 26 74 (269360)
I0225 16:04:37.344918  9728 net.cpp:137] Memory required for data: 43335964
I0225 16:04:37.344928  9728 layer_factory.hpp:77] Creating layer relu0_9
I0225 16:04:37.344938  9728 net.cpp:84] Creating Layer relu0_9
I0225 16:04:37.344941  9728 net.cpp:406] relu0_9 <- conv0_9/bn
I0225 16:04:37.344946  9728 net.cpp:367] relu0_9 -> conv0_9/bn (in-place)
I0225 16:04:37.345999  9728 net.cpp:122] Setting up relu0_9
I0225 16:04:37.346014  9728 net.cpp:129] Top shape: 1 140 26 74 (269360)
I0225 16:04:37.346016  9728 net.cpp:137] Memory required for data: 44413404
I0225 16:04:37.346020  9728 layer_factory.hpp:77] Creating layer conv0_9
I0225 16:04:37.346029  9728 net.cpp:84] Creating Layer conv0_9
I0225 16:04:37.346034  9728 net.cpp:406] conv0_9 <- conv0_9/bn
I0225 16:04:37.346041  9728 net.cpp:380] conv0_9 -> conv0_9
I0225 16:04:37.348186  9728 net.cpp:122] Setting up conv0_9
I0225 16:04:37.348199  9728 net.cpp:129] Top shape: 1 12 26 74 (23088)
I0225 16:04:37.348202  9728 net.cpp:137] Memory required for data: 44505756
I0225 16:04:37.348207  9728 layer_factory.hpp:77] Creating layer concat0_9
I0225 16:04:37.348214  9728 net.cpp:84] Creating Layer concat0_9
I0225 16:04:37.348218  9728 net.cpp:406] concat0_9 <- concat0_8_concat0_8_0_split_1
I0225 16:04:37.348222  9728 net.cpp:406] concat0_9 <- conv0_9
I0225 16:04:37.348230  9728 net.cpp:380] concat0_9 -> concat0_9
I0225 16:04:37.348268  9728 net.cpp:122] Setting up concat0_9
I0225 16:04:37.348274  9728 net.cpp:129] Top shape: 1 152 26 74 (292448)
I0225 16:04:37.348276  9728 net.cpp:137] Memory required for data: 45675548
I0225 16:04:37.348279  9728 layer_factory.hpp:77] Creating layer concat0_9_concat0_9_0_split
I0225 16:04:37.348287  9728 net.cpp:84] Creating Layer concat0_9_concat0_9_0_split
I0225 16:04:37.348291  9728 net.cpp:406] concat0_9_concat0_9_0_split <- concat0_9
I0225 16:04:37.348297  9728 net.cpp:380] concat0_9_concat0_9_0_split -> concat0_9_concat0_9_0_split_0
I0225 16:04:37.348302  9728 net.cpp:380] concat0_9_concat0_9_0_split -> concat0_9_concat0_9_0_split_1
I0225 16:04:37.348356  9728 net.cpp:122] Setting up concat0_9_concat0_9_0_split
I0225 16:04:37.348361  9728 net.cpp:129] Top shape: 1 152 26 74 (292448)
I0225 16:04:37.348364  9728 net.cpp:129] Top shape: 1 152 26 74 (292448)
I0225 16:04:37.348367  9728 net.cpp:137] Memory required for data: 48015132
I0225 16:04:37.348369  9728 layer_factory.hpp:77] Creating layer conv0_10/bn
I0225 16:04:37.348376  9728 net.cpp:84] Creating Layer conv0_10/bn
I0225 16:04:37.348379  9728 net.cpp:406] conv0_10/bn <- concat0_9_concat0_9_0_split_0
I0225 16:04:37.348384  9728 net.cpp:380] conv0_10/bn -> conv0_10/bn
I0225 16:04:37.348712  9728 net.cpp:122] Setting up conv0_10/bn
I0225 16:04:37.348718  9728 net.cpp:129] Top shape: 1 152 26 74 (292448)
I0225 16:04:37.348721  9728 net.cpp:137] Memory required for data: 49184924
I0225 16:04:37.348728  9728 layer_factory.hpp:77] Creating layer conv0_10/scale
I0225 16:04:37.348737  9728 net.cpp:84] Creating Layer conv0_10/scale
I0225 16:04:37.348739  9728 net.cpp:406] conv0_10/scale <- conv0_10/bn
I0225 16:04:37.348743  9728 net.cpp:367] conv0_10/scale -> conv0_10/bn (in-place)
I0225 16:04:37.348799  9728 layer_factory.hpp:77] Creating layer conv0_10/scale
I0225 16:04:37.348989  9728 net.cpp:122] Setting up conv0_10/scale
I0225 16:04:37.348995  9728 net.cpp:129] Top shape: 1 152 26 74 (292448)
I0225 16:04:37.348999  9728 net.cpp:137] Memory required for data: 50354716
I0225 16:04:37.349004  9728 layer_factory.hpp:77] Creating layer relu0_10
I0225 16:04:37.349009  9728 net.cpp:84] Creating Layer relu0_10
I0225 16:04:37.349011  9728 net.cpp:406] relu0_10 <- conv0_10/bn
I0225 16:04:37.349016  9728 net.cpp:367] relu0_10 -> conv0_10/bn (in-place)
I0225 16:04:37.349216  9728 net.cpp:122] Setting up relu0_10
I0225 16:04:37.349223  9728 net.cpp:129] Top shape: 1 152 26 74 (292448)
I0225 16:04:37.349226  9728 net.cpp:137] Memory required for data: 51524508
I0225 16:04:37.349229  9728 layer_factory.hpp:77] Creating layer conv0_10
I0225 16:04:37.349239  9728 net.cpp:84] Creating Layer conv0_10
I0225 16:04:37.349243  9728 net.cpp:406] conv0_10 <- conv0_10/bn
I0225 16:04:37.349251  9728 net.cpp:380] conv0_10 -> conv0_10
I0225 16:04:37.352324  9728 net.cpp:122] Setting up conv0_10
I0225 16:04:37.352336  9728 net.cpp:129] Top shape: 1 12 26 74 (23088)
I0225 16:04:37.352339  9728 net.cpp:137] Memory required for data: 51616860
I0225 16:04:37.352345  9728 layer_factory.hpp:77] Creating layer concat0_10
I0225 16:04:37.352354  9728 net.cpp:84] Creating Layer concat0_10
I0225 16:04:37.352357  9728 net.cpp:406] concat0_10 <- concat0_9_concat0_9_0_split_1
I0225 16:04:37.352361  9728 net.cpp:406] concat0_10 <- conv0_10
I0225 16:04:37.352366  9728 net.cpp:380] concat0_10 -> concat0_10
I0225 16:04:37.352409  9728 net.cpp:122] Setting up concat0_10
I0225 16:04:37.352417  9728 net.cpp:129] Top shape: 1 164 26 74 (315536)
I0225 16:04:37.352419  9728 net.cpp:137] Memory required for data: 52879004
I0225 16:04:37.352422  9728 layer_factory.hpp:77] Creating layer concat0_10_concat0_10_0_split
I0225 16:04:37.352427  9728 net.cpp:84] Creating Layer concat0_10_concat0_10_0_split
I0225 16:04:37.352430  9728 net.cpp:406] concat0_10_concat0_10_0_split <- concat0_10
I0225 16:04:37.352434  9728 net.cpp:380] concat0_10_concat0_10_0_split -> concat0_10_concat0_10_0_split_0
I0225 16:04:37.352439  9728 net.cpp:380] concat0_10_concat0_10_0_split -> concat0_10_concat0_10_0_split_1
I0225 16:04:37.352494  9728 net.cpp:122] Setting up concat0_10_concat0_10_0_split
I0225 16:04:37.352499  9728 net.cpp:129] Top shape: 1 164 26 74 (315536)
I0225 16:04:37.352501  9728 net.cpp:129] Top shape: 1 164 26 74 (315536)
I0225 16:04:37.352504  9728 net.cpp:137] Memory required for data: 55403292
I0225 16:04:37.352510  9728 layer_factory.hpp:77] Creating layer conv0_11/bn
I0225 16:04:37.352517  9728 net.cpp:84] Creating Layer conv0_11/bn
I0225 16:04:37.352520  9728 net.cpp:406] conv0_11/bn <- concat0_10_concat0_10_0_split_0
I0225 16:04:37.352526  9728 net.cpp:380] conv0_11/bn -> conv0_11/bn
I0225 16:04:37.352870  9728 net.cpp:122] Setting up conv0_11/bn
I0225 16:04:37.352877  9728 net.cpp:129] Top shape: 1 164 26 74 (315536)
I0225 16:04:37.352880  9728 net.cpp:137] Memory required for data: 56665436
I0225 16:04:37.352887  9728 layer_factory.hpp:77] Creating layer conv0_11/scale
I0225 16:04:37.352895  9728 net.cpp:84] Creating Layer conv0_11/scale
I0225 16:04:37.352898  9728 net.cpp:406] conv0_11/scale <- conv0_11/bn
I0225 16:04:37.352903  9728 net.cpp:367] conv0_11/scale -> conv0_11/bn (in-place)
I0225 16:04:37.352960  9728 layer_factory.hpp:77] Creating layer conv0_11/scale
I0225 16:04:37.353144  9728 net.cpp:122] Setting up conv0_11/scale
I0225 16:04:37.353152  9728 net.cpp:129] Top shape: 1 164 26 74 (315536)
I0225 16:04:37.353154  9728 net.cpp:137] Memory required for data: 57927580
I0225 16:04:37.353159  9728 layer_factory.hpp:77] Creating layer relu0_11
I0225 16:04:37.353164  9728 net.cpp:84] Creating Layer relu0_11
I0225 16:04:37.353168  9728 net.cpp:406] relu0_11 <- conv0_11/bn
I0225 16:04:37.353174  9728 net.cpp:367] relu0_11 -> conv0_11/bn (in-place)
I0225 16:04:37.354276  9728 net.cpp:122] Setting up relu0_11
I0225 16:04:37.354288  9728 net.cpp:129] Top shape: 1 164 26 74 (315536)
I0225 16:04:37.354292  9728 net.cpp:137] Memory required for data: 59189724
I0225 16:04:37.354295  9728 layer_factory.hpp:77] Creating layer conv0_11
I0225 16:04:37.354307  9728 net.cpp:84] Creating Layer conv0_11
I0225 16:04:37.354311  9728 net.cpp:406] conv0_11 <- conv0_11/bn
I0225 16:04:37.354318  9728 net.cpp:380] conv0_11 -> conv0_11
I0225 16:04:37.356544  9728 net.cpp:122] Setting up conv0_11
I0225 16:04:37.356559  9728 net.cpp:129] Top shape: 1 12 26 74 (23088)
I0225 16:04:37.356561  9728 net.cpp:137] Memory required for data: 59282076
I0225 16:04:37.356567  9728 layer_factory.hpp:77] Creating layer concat0_11
I0225 16:04:37.356573  9728 net.cpp:84] Creating Layer concat0_11
I0225 16:04:37.356577  9728 net.cpp:406] concat0_11 <- concat0_10_concat0_10_0_split_1
I0225 16:04:37.356582  9728 net.cpp:406] concat0_11 <- conv0_11
I0225 16:04:37.356586  9728 net.cpp:380] concat0_11 -> concat0_11
I0225 16:04:37.356639  9728 net.cpp:122] Setting up concat0_11
I0225 16:04:37.356647  9728 net.cpp:129] Top shape: 1 176 26 74 (338624)
I0225 16:04:37.356648  9728 net.cpp:137] Memory required for data: 60636572
I0225 16:04:37.356652  9728 layer_factory.hpp:77] Creating layer concat0_11_concat0_11_0_split
I0225 16:04:37.356657  9728 net.cpp:84] Creating Layer concat0_11_concat0_11_0_split
I0225 16:04:37.356660  9728 net.cpp:406] concat0_11_concat0_11_0_split <- concat0_11
I0225 16:04:37.356664  9728 net.cpp:380] concat0_11_concat0_11_0_split -> concat0_11_concat0_11_0_split_0
I0225 16:04:37.356672  9728 net.cpp:380] concat0_11_concat0_11_0_split -> concat0_11_concat0_11_0_split_1
I0225 16:04:37.356726  9728 net.cpp:122] Setting up concat0_11_concat0_11_0_split
I0225 16:04:37.356734  9728 net.cpp:129] Top shape: 1 176 26 74 (338624)
I0225 16:04:37.356737  9728 net.cpp:129] Top shape: 1 176 26 74 (338624)
I0225 16:04:37.356739  9728 net.cpp:137] Memory required for data: 63345564
I0225 16:04:37.356742  9728 layer_factory.hpp:77] Creating layer conv0_12/bn
I0225 16:04:37.356747  9728 net.cpp:84] Creating Layer conv0_12/bn
I0225 16:04:37.356750  9728 net.cpp:406] conv0_12/bn <- concat0_11_concat0_11_0_split_0
I0225 16:04:37.356757  9728 net.cpp:380] conv0_12/bn -> conv0_12/bn
I0225 16:04:37.357084  9728 net.cpp:122] Setting up conv0_12/bn
I0225 16:04:37.357089  9728 net.cpp:129] Top shape: 1 176 26 74 (338624)
I0225 16:04:37.357092  9728 net.cpp:137] Memory required for data: 64700060
I0225 16:04:37.357100  9728 layer_factory.hpp:77] Creating layer conv0_12/scale
I0225 16:04:37.357107  9728 net.cpp:84] Creating Layer conv0_12/scale
I0225 16:04:37.357115  9728 net.cpp:406] conv0_12/scale <- conv0_12/bn
I0225 16:04:37.357120  9728 net.cpp:367] conv0_12/scale -> conv0_12/bn (in-place)
I0225 16:04:37.357182  9728 layer_factory.hpp:77] Creating layer conv0_12/scale
I0225 16:04:37.357364  9728 net.cpp:122] Setting up conv0_12/scale
I0225 16:04:37.357372  9728 net.cpp:129] Top shape: 1 176 26 74 (338624)
I0225 16:04:37.357374  9728 net.cpp:137] Memory required for data: 66054556
I0225 16:04:37.357379  9728 layer_factory.hpp:77] Creating layer relu0_12
I0225 16:04:37.357384  9728 net.cpp:84] Creating Layer relu0_12
I0225 16:04:37.357388  9728 net.cpp:406] relu0_12 <- conv0_12/bn
I0225 16:04:37.357391  9728 net.cpp:367] relu0_12 -> conv0_12/bn (in-place)
I0225 16:04:37.358448  9728 net.cpp:122] Setting up relu0_12
I0225 16:04:37.358461  9728 net.cpp:129] Top shape: 1 176 26 74 (338624)
I0225 16:04:37.358465  9728 net.cpp:137] Memory required for data: 67409052
I0225 16:04:37.358469  9728 layer_factory.hpp:77] Creating layer conv0_12
I0225 16:04:37.358479  9728 net.cpp:84] Creating Layer conv0_12
I0225 16:04:37.358484  9728 net.cpp:406] conv0_12 <- conv0_12/bn
I0225 16:04:37.358489  9728 net.cpp:380] conv0_12 -> conv0_12
I0225 16:04:37.361629  9728 net.cpp:122] Setting up conv0_12
I0225 16:04:37.361642  9728 net.cpp:129] Top shape: 1 12 26 74 (23088)
I0225 16:04:37.361646  9728 net.cpp:137] Memory required for data: 67501404
I0225 16:04:37.361651  9728 layer_factory.hpp:77] Creating layer concat0_12
I0225 16:04:37.361660  9728 net.cpp:84] Creating Layer concat0_12
I0225 16:04:37.361663  9728 net.cpp:406] concat0_12 <- concat0_11_concat0_11_0_split_1
I0225 16:04:37.361667  9728 net.cpp:406] concat0_12 <- conv0_12
I0225 16:04:37.361672  9728 net.cpp:380] concat0_12 -> concat0_12
I0225 16:04:37.361718  9728 net.cpp:122] Setting up concat0_12
I0225 16:04:37.361723  9728 net.cpp:129] Top shape: 1 188 26 74 (361712)
I0225 16:04:37.361726  9728 net.cpp:137] Memory required for data: 68948252
I0225 16:04:37.361729  9728 layer_factory.hpp:77] Creating layer concat0_12_concat0_12_0_split
I0225 16:04:37.361734  9728 net.cpp:84] Creating Layer concat0_12_concat0_12_0_split
I0225 16:04:37.361737  9728 net.cpp:406] concat0_12_concat0_12_0_split <- concat0_12
I0225 16:04:37.361747  9728 net.cpp:380] concat0_12_concat0_12_0_split -> concat0_12_concat0_12_0_split_0
I0225 16:04:37.361752  9728 net.cpp:380] concat0_12_concat0_12_0_split -> concat0_12_concat0_12_0_split_1
I0225 16:04:37.361809  9728 net.cpp:122] Setting up concat0_12_concat0_12_0_split
I0225 16:04:37.361814  9728 net.cpp:129] Top shape: 1 188 26 74 (361712)
I0225 16:04:37.361819  9728 net.cpp:129] Top shape: 1 188 26 74 (361712)
I0225 16:04:37.361820  9728 net.cpp:137] Memory required for data: 71841948
I0225 16:04:37.361824  9728 layer_factory.hpp:77] Creating layer conv0_13/bn
I0225 16:04:37.361829  9728 net.cpp:84] Creating Layer conv0_13/bn
I0225 16:04:37.361831  9728 net.cpp:406] conv0_13/bn <- concat0_12_concat0_12_0_split_0
I0225 16:04:37.361837  9728 net.cpp:380] conv0_13/bn -> conv0_13/bn
I0225 16:04:37.362164  9728 net.cpp:122] Setting up conv0_13/bn
I0225 16:04:37.362170  9728 net.cpp:129] Top shape: 1 188 26 74 (361712)
I0225 16:04:37.362172  9728 net.cpp:137] Memory required for data: 73288796
I0225 16:04:37.362179  9728 layer_factory.hpp:77] Creating layer conv0_13/scale
I0225 16:04:37.362187  9728 net.cpp:84] Creating Layer conv0_13/scale
I0225 16:04:37.362190  9728 net.cpp:406] conv0_13/scale <- conv0_13/bn
I0225 16:04:37.362195  9728 net.cpp:367] conv0_13/scale -> conv0_13/bn (in-place)
I0225 16:04:37.362251  9728 layer_factory.hpp:77] Creating layer conv0_13/scale
I0225 16:04:37.362437  9728 net.cpp:122] Setting up conv0_13/scale
I0225 16:04:37.362445  9728 net.cpp:129] Top shape: 1 188 26 74 (361712)
I0225 16:04:37.362448  9728 net.cpp:137] Memory required for data: 74735644
I0225 16:04:37.362453  9728 layer_factory.hpp:77] Creating layer relu0_13
I0225 16:04:37.362458  9728 net.cpp:84] Creating Layer relu0_13
I0225 16:04:37.362462  9728 net.cpp:406] relu0_13 <- conv0_13/bn
I0225 16:04:37.362469  9728 net.cpp:367] relu0_13 -> conv0_13/bn (in-place)
I0225 16:04:37.362673  9728 net.cpp:122] Setting up relu0_13
I0225 16:04:37.362679  9728 net.cpp:129] Top shape: 1 188 26 74 (361712)
I0225 16:04:37.362682  9728 net.cpp:137] Memory required for data: 76182492
I0225 16:04:37.362685  9728 layer_factory.hpp:77] Creating layer conv0_13
I0225 16:04:37.362695  9728 net.cpp:84] Creating Layer conv0_13
I0225 16:04:37.362699  9728 net.cpp:406] conv0_13 <- conv0_13/bn
I0225 16:04:37.362704  9728 net.cpp:380] conv0_13 -> conv0_13
I0225 16:04:37.365906  9728 net.cpp:122] Setting up conv0_13
I0225 16:04:37.365918  9728 net.cpp:129] Top shape: 1 12 26 74 (23088)
I0225 16:04:37.365922  9728 net.cpp:137] Memory required for data: 76274844
I0225 16:04:37.365927  9728 layer_factory.hpp:77] Creating layer concat0_13
I0225 16:04:37.365934  9728 net.cpp:84] Creating Layer concat0_13
I0225 16:04:37.365938  9728 net.cpp:406] concat0_13 <- concat0_12_concat0_12_0_split_1
I0225 16:04:37.365944  9728 net.cpp:406] concat0_13 <- conv0_13
I0225 16:04:37.365949  9728 net.cpp:380] concat0_13 -> concat0_13
I0225 16:04:37.365993  9728 net.cpp:122] Setting up concat0_13
I0225 16:04:37.365999  9728 net.cpp:129] Top shape: 1 200 26 74 (384800)
I0225 16:04:37.366003  9728 net.cpp:137] Memory required for data: 77814044
I0225 16:04:37.366004  9728 layer_factory.hpp:77] Creating layer concat0_13_concat0_13_0_split
I0225 16:04:37.366011  9728 net.cpp:84] Creating Layer concat0_13_concat0_13_0_split
I0225 16:04:37.366014  9728 net.cpp:406] concat0_13_concat0_13_0_split <- concat0_13
I0225 16:04:37.366019  9728 net.cpp:380] concat0_13_concat0_13_0_split -> concat0_13_concat0_13_0_split_0
I0225 16:04:37.366024  9728 net.cpp:380] concat0_13_concat0_13_0_split -> concat0_13_concat0_13_0_split_1
I0225 16:04:37.366077  9728 net.cpp:122] Setting up concat0_13_concat0_13_0_split
I0225 16:04:37.366082  9728 net.cpp:129] Top shape: 1 200 26 74 (384800)
I0225 16:04:37.366086  9728 net.cpp:129] Top shape: 1 200 26 74 (384800)
I0225 16:04:37.366088  9728 net.cpp:137] Memory required for data: 80892444
I0225 16:04:37.366091  9728 layer_factory.hpp:77] Creating layer conv0_14/bn
I0225 16:04:37.366098  9728 net.cpp:84] Creating Layer conv0_14/bn
I0225 16:04:37.366101  9728 net.cpp:406] conv0_14/bn <- concat0_13_concat0_13_0_split_0
I0225 16:04:37.366106  9728 net.cpp:380] conv0_14/bn -> conv0_14/bn
I0225 16:04:37.366444  9728 net.cpp:122] Setting up conv0_14/bn
I0225 16:04:37.366451  9728 net.cpp:129] Top shape: 1 200 26 74 (384800)
I0225 16:04:37.366453  9728 net.cpp:137] Memory required for data: 82431644
I0225 16:04:37.366461  9728 layer_factory.hpp:77] Creating layer conv0_14/scale
I0225 16:04:37.366468  9728 net.cpp:84] Creating Layer conv0_14/scale
I0225 16:04:37.366472  9728 net.cpp:406] conv0_14/scale <- conv0_14/bn
I0225 16:04:37.366477  9728 net.cpp:367] conv0_14/scale -> conv0_14/bn (in-place)
I0225 16:04:37.366539  9728 layer_factory.hpp:77] Creating layer conv0_14/scale
I0225 16:04:37.366730  9728 net.cpp:122] Setting up conv0_14/scale
I0225 16:04:37.366736  9728 net.cpp:129] Top shape: 1 200 26 74 (384800)
I0225 16:04:37.366739  9728 net.cpp:137] Memory required for data: 83970844
I0225 16:04:37.366744  9728 layer_factory.hpp:77] Creating layer relu0_14
I0225 16:04:37.366750  9728 net.cpp:84] Creating Layer relu0_14
I0225 16:04:37.366753  9728 net.cpp:406] relu0_14 <- conv0_14/bn
I0225 16:04:37.366757  9728 net.cpp:367] relu0_14 -> conv0_14/bn (in-place)
I0225 16:04:37.366955  9728 net.cpp:122] Setting up relu0_14
I0225 16:04:37.366963  9728 net.cpp:129] Top shape: 1 200 26 74 (384800)
I0225 16:04:37.366966  9728 net.cpp:137] Memory required for data: 85510044
I0225 16:04:37.366969  9728 layer_factory.hpp:77] Creating layer conv0_14
I0225 16:04:37.366979  9728 net.cpp:84] Creating Layer conv0_14
I0225 16:04:37.366982  9728 net.cpp:406] conv0_14 <- conv0_14/bn
I0225 16:04:37.366989  9728 net.cpp:380] conv0_14 -> conv0_14
I0225 16:04:37.370196  9728 net.cpp:122] Setting up conv0_14
I0225 16:04:37.370209  9728 net.cpp:129] Top shape: 1 12 26 74 (23088)
I0225 16:04:37.370215  9728 net.cpp:137] Memory required for data: 85602396
I0225 16:04:37.370224  9728 layer_factory.hpp:77] Creating layer concat0_14
I0225 16:04:37.370230  9728 net.cpp:84] Creating Layer concat0_14
I0225 16:04:37.370234  9728 net.cpp:406] concat0_14 <- concat0_13_concat0_13_0_split_1
I0225 16:04:37.370239  9728 net.cpp:406] concat0_14 <- conv0_14
I0225 16:04:37.370245  9728 net.cpp:380] concat0_14 -> concat0_14
I0225 16:04:37.370290  9728 net.cpp:122] Setting up concat0_14
I0225 16:04:37.370296  9728 net.cpp:129] Top shape: 1 212 26 74 (407888)
I0225 16:04:37.370298  9728 net.cpp:137] Memory required for data: 87233948
I0225 16:04:37.370301  9728 layer_factory.hpp:77] Creating layer concat0_14_concat0_14_0_split
I0225 16:04:37.370306  9728 net.cpp:84] Creating Layer concat0_14_concat0_14_0_split
I0225 16:04:37.370309  9728 net.cpp:406] concat0_14_concat0_14_0_split <- concat0_14
I0225 16:04:37.370319  9728 net.cpp:380] concat0_14_concat0_14_0_split -> concat0_14_concat0_14_0_split_0
I0225 16:04:37.370324  9728 net.cpp:380] concat0_14_concat0_14_0_split -> concat0_14_concat0_14_0_split_1
I0225 16:04:37.370380  9728 net.cpp:122] Setting up concat0_14_concat0_14_0_split
I0225 16:04:37.370385  9728 net.cpp:129] Top shape: 1 212 26 74 (407888)
I0225 16:04:37.370388  9728 net.cpp:129] Top shape: 1 212 26 74 (407888)
I0225 16:04:37.370391  9728 net.cpp:137] Memory required for data: 90497052
I0225 16:04:37.370393  9728 layer_factory.hpp:77] Creating layer conv0_15/bn
I0225 16:04:37.370400  9728 net.cpp:84] Creating Layer conv0_15/bn
I0225 16:04:37.370405  9728 net.cpp:406] conv0_15/bn <- concat0_14_concat0_14_0_split_0
I0225 16:04:37.370409  9728 net.cpp:380] conv0_15/bn -> conv0_15/bn
I0225 16:04:37.370743  9728 net.cpp:122] Setting up conv0_15/bn
I0225 16:04:37.370749  9728 net.cpp:129] Top shape: 1 212 26 74 (407888)
I0225 16:04:37.370753  9728 net.cpp:137] Memory required for data: 92128604
I0225 16:04:37.370759  9728 layer_factory.hpp:77] Creating layer conv0_15/scale
I0225 16:04:37.370765  9728 net.cpp:84] Creating Layer conv0_15/scale
I0225 16:04:37.370769  9728 net.cpp:406] conv0_15/scale <- conv0_15/bn
I0225 16:04:37.370774  9728 net.cpp:367] conv0_15/scale -> conv0_15/bn (in-place)
I0225 16:04:37.370833  9728 layer_factory.hpp:77] Creating layer conv0_15/scale
I0225 16:04:37.371017  9728 net.cpp:122] Setting up conv0_15/scale
I0225 16:04:37.371024  9728 net.cpp:129] Top shape: 1 212 26 74 (407888)
I0225 16:04:37.371026  9728 net.cpp:137] Memory required for data: 93760156
I0225 16:04:37.371031  9728 layer_factory.hpp:77] Creating layer relu0_15
I0225 16:04:37.371039  9728 net.cpp:84] Creating Layer relu0_15
I0225 16:04:37.371042  9728 net.cpp:406] relu0_15 <- conv0_15/bn
I0225 16:04:37.371047  9728 net.cpp:367] relu0_15 -> conv0_15/bn (in-place)
I0225 16:04:37.372100  9728 net.cpp:122] Setting up relu0_15
I0225 16:04:37.372112  9728 net.cpp:129] Top shape: 1 212 26 74 (407888)
I0225 16:04:37.372115  9728 net.cpp:137] Memory required for data: 95391708
I0225 16:04:37.372118  9728 layer_factory.hpp:77] Creating layer conv0_15
I0225 16:04:37.372131  9728 net.cpp:84] Creating Layer conv0_15
I0225 16:04:37.372134  9728 net.cpp:406] conv0_15 <- conv0_15/bn
I0225 16:04:37.372141  9728 net.cpp:380] conv0_15 -> conv0_15
I0225 16:04:37.375452  9728 net.cpp:122] Setting up conv0_15
I0225 16:04:37.375465  9728 net.cpp:129] Top shape: 1 12 26 74 (23088)
I0225 16:04:37.375468  9728 net.cpp:137] Memory required for data: 95484060
I0225 16:04:37.375474  9728 layer_factory.hpp:77] Creating layer concat0_15
I0225 16:04:37.375480  9728 net.cpp:84] Creating Layer concat0_15
I0225 16:04:37.375484  9728 net.cpp:406] concat0_15 <- concat0_14_concat0_14_0_split_1
I0225 16:04:37.375489  9728 net.cpp:406] concat0_15 <- conv0_15
I0225 16:04:37.375495  9728 net.cpp:380] concat0_15 -> concat0_15
I0225 16:04:37.375541  9728 net.cpp:122] Setting up concat0_15
I0225 16:04:37.375547  9728 net.cpp:129] Top shape: 1 224 26 74 (430976)
I0225 16:04:37.375550  9728 net.cpp:137] Memory required for data: 97207964
I0225 16:04:37.375552  9728 layer_factory.hpp:77] Creating layer concat0_15_concat0_15_0_split
I0225 16:04:37.375562  9728 net.cpp:84] Creating Layer concat0_15_concat0_15_0_split
I0225 16:04:37.375566  9728 net.cpp:406] concat0_15_concat0_15_0_split <- concat0_15
I0225 16:04:37.375571  9728 net.cpp:380] concat0_15_concat0_15_0_split -> concat0_15_concat0_15_0_split_0
I0225 16:04:37.375576  9728 net.cpp:380] concat0_15_concat0_15_0_split -> concat0_15_concat0_15_0_split_1
I0225 16:04:37.375632  9728 net.cpp:122] Setting up concat0_15_concat0_15_0_split
I0225 16:04:37.375638  9728 net.cpp:129] Top shape: 1 224 26 74 (430976)
I0225 16:04:37.375640  9728 net.cpp:129] Top shape: 1 224 26 74 (430976)
I0225 16:04:37.375643  9728 net.cpp:137] Memory required for data: 100655772
I0225 16:04:37.375645  9728 layer_factory.hpp:77] Creating layer conv0_16/bn
I0225 16:04:37.375653  9728 net.cpp:84] Creating Layer conv0_16/bn
I0225 16:04:37.375655  9728 net.cpp:406] conv0_16/bn <- concat0_15_concat0_15_0_split_0
I0225 16:04:37.375660  9728 net.cpp:380] conv0_16/bn -> conv0_16/bn
I0225 16:04:37.375991  9728 net.cpp:122] Setting up conv0_16/bn
I0225 16:04:37.375998  9728 net.cpp:129] Top shape: 1 224 26 74 (430976)
I0225 16:04:37.376000  9728 net.cpp:137] Memory required for data: 102379676
I0225 16:04:37.376008  9728 layer_factory.hpp:77] Creating layer conv0_16/scale
I0225 16:04:37.376015  9728 net.cpp:84] Creating Layer conv0_16/scale
I0225 16:04:37.376019  9728 net.cpp:406] conv0_16/scale <- conv0_16/bn
I0225 16:04:37.376024  9728 net.cpp:367] conv0_16/scale -> conv0_16/bn (in-place)
I0225 16:04:37.376085  9728 layer_factory.hpp:77] Creating layer conv0_16/scale
I0225 16:04:37.376271  9728 net.cpp:122] Setting up conv0_16/scale
I0225 16:04:37.376278  9728 net.cpp:129] Top shape: 1 224 26 74 (430976)
I0225 16:04:37.376281  9728 net.cpp:137] Memory required for data: 104103580
I0225 16:04:37.376286  9728 layer_factory.hpp:77] Creating layer relu0_16
I0225 16:04:37.376293  9728 net.cpp:84] Creating Layer relu0_16
I0225 16:04:37.376296  9728 net.cpp:406] relu0_16 <- conv0_16/bn
I0225 16:04:37.376301  9728 net.cpp:367] relu0_16 -> conv0_16/bn (in-place)
I0225 16:04:37.376499  9728 net.cpp:122] Setting up relu0_16
I0225 16:04:37.376507  9728 net.cpp:129] Top shape: 1 224 26 74 (430976)
I0225 16:04:37.376510  9728 net.cpp:137] Memory required for data: 105827484
I0225 16:04:37.376513  9728 layer_factory.hpp:77] Creating layer conv0_16
I0225 16:04:37.376523  9728 net.cpp:84] Creating Layer conv0_16
I0225 16:04:37.376528  9728 net.cpp:406] conv0_16 <- conv0_16/bn
I0225 16:04:37.376534  9728 net.cpp:380] conv0_16 -> conv0_16
I0225 16:04:37.379889  9728 net.cpp:122] Setting up conv0_16
I0225 16:04:37.379904  9728 net.cpp:129] Top shape: 1 12 26 74 (23088)
I0225 16:04:37.379906  9728 net.cpp:137] Memory required for data: 105919836
I0225 16:04:37.379912  9728 layer_factory.hpp:77] Creating layer concat0_16
I0225 16:04:37.379920  9728 net.cpp:84] Creating Layer concat0_16
I0225 16:04:37.379923  9728 net.cpp:406] concat0_16 <- concat0_15_concat0_15_0_split_1
I0225 16:04:37.379930  9728 net.cpp:406] concat0_16 <- conv0_16
I0225 16:04:37.379935  9728 net.cpp:380] concat0_16 -> concat0_16
I0225 16:04:37.379978  9728 net.cpp:122] Setting up concat0_16
I0225 16:04:37.379984  9728 net.cpp:129] Top shape: 1 236 26 74 (454064)
I0225 16:04:37.379987  9728 net.cpp:137] Memory required for data: 107736092
I0225 16:04:37.379990  9728 layer_factory.hpp:77] Creating layer concat0_16_concat0_16_0_split
I0225 16:04:37.379997  9728 net.cpp:84] Creating Layer concat0_16_concat0_16_0_split
I0225 16:04:37.379999  9728 net.cpp:406] concat0_16_concat0_16_0_split <- concat0_16
I0225 16:04:37.380003  9728 net.cpp:380] concat0_16_concat0_16_0_split -> concat0_16_concat0_16_0_split_0
I0225 16:04:37.380009  9728 net.cpp:380] concat0_16_concat0_16_0_split -> concat0_16_concat0_16_0_split_1
I0225 16:04:37.380069  9728 net.cpp:122] Setting up concat0_16_concat0_16_0_split
I0225 16:04:37.380074  9728 net.cpp:129] Top shape: 1 236 26 74 (454064)
I0225 16:04:37.380077  9728 net.cpp:129] Top shape: 1 236 26 74 (454064)
I0225 16:04:37.380084  9728 net.cpp:137] Memory required for data: 111368604
I0225 16:04:37.380086  9728 layer_factory.hpp:77] Creating layer conv0_17/bn
I0225 16:04:37.380093  9728 net.cpp:84] Creating Layer conv0_17/bn
I0225 16:04:37.380096  9728 net.cpp:406] conv0_17/bn <- concat0_16_concat0_16_0_split_0
I0225 16:04:37.380102  9728 net.cpp:380] conv0_17/bn -> conv0_17/bn
I0225 16:04:37.380432  9728 net.cpp:122] Setting up conv0_17/bn
I0225 16:04:37.380439  9728 net.cpp:129] Top shape: 1 236 26 74 (454064)
I0225 16:04:37.380442  9728 net.cpp:137] Memory required for data: 113184860
I0225 16:04:37.380450  9728 layer_factory.hpp:77] Creating layer conv0_17/scale
I0225 16:04:37.380457  9728 net.cpp:84] Creating Layer conv0_17/scale
I0225 16:04:37.380460  9728 net.cpp:406] conv0_17/scale <- conv0_17/bn
I0225 16:04:37.380465  9728 net.cpp:367] conv0_17/scale -> conv0_17/bn (in-place)
I0225 16:04:37.380522  9728 layer_factory.hpp:77] Creating layer conv0_17/scale
I0225 16:04:37.380724  9728 net.cpp:122] Setting up conv0_17/scale
I0225 16:04:37.380731  9728 net.cpp:129] Top shape: 1 236 26 74 (454064)
I0225 16:04:37.380734  9728 net.cpp:137] Memory required for data: 115001116
I0225 16:04:37.380740  9728 layer_factory.hpp:77] Creating layer relu0_17
I0225 16:04:37.380745  9728 net.cpp:84] Creating Layer relu0_17
I0225 16:04:37.380748  9728 net.cpp:406] relu0_17 <- conv0_17/bn
I0225 16:04:37.380755  9728 net.cpp:367] relu0_17 -> conv0_17/bn (in-place)
I0225 16:04:37.380959  9728 net.cpp:122] Setting up relu0_17
I0225 16:04:37.380965  9728 net.cpp:129] Top shape: 1 236 26 74 (454064)
I0225 16:04:37.380969  9728 net.cpp:137] Memory required for data: 116817372
I0225 16:04:37.380971  9728 layer_factory.hpp:77] Creating layer conv0_17
I0225 16:04:37.380985  9728 net.cpp:84] Creating Layer conv0_17
I0225 16:04:37.380988  9728 net.cpp:406] conv0_17 <- conv0_17/bn
I0225 16:04:37.380995  9728 net.cpp:380] conv0_17 -> conv0_17
I0225 16:04:37.384321  9728 net.cpp:122] Setting up conv0_17
I0225 16:04:37.384335  9728 net.cpp:129] Top shape: 1 12 26 74 (23088)
I0225 16:04:37.384337  9728 net.cpp:137] Memory required for data: 116909724
I0225 16:04:37.384343  9728 layer_factory.hpp:77] Creating layer concat0_17
I0225 16:04:37.384351  9728 net.cpp:84] Creating Layer concat0_17
I0225 16:04:37.384354  9728 net.cpp:406] concat0_17 <- concat0_16_concat0_16_0_split_1
I0225 16:04:37.384361  9728 net.cpp:406] concat0_17 <- conv0_17
I0225 16:04:37.384366  9728 net.cpp:380] concat0_17 -> concat0_17
I0225 16:04:37.384412  9728 net.cpp:122] Setting up concat0_17
I0225 16:04:37.384416  9728 net.cpp:129] Top shape: 1 248 26 74 (477152)
I0225 16:04:37.384419  9728 net.cpp:137] Memory required for data: 118818332
I0225 16:04:37.384423  9728 layer_factory.hpp:77] Creating layer concat0_17_concat0_17_0_split
I0225 16:04:37.384428  9728 net.cpp:84] Creating Layer concat0_17_concat0_17_0_split
I0225 16:04:37.384431  9728 net.cpp:406] concat0_17_concat0_17_0_split <- concat0_17
I0225 16:04:37.384435  9728 net.cpp:380] concat0_17_concat0_17_0_split -> concat0_17_concat0_17_0_split_0
I0225 16:04:37.384441  9728 net.cpp:380] concat0_17_concat0_17_0_split -> concat0_17_concat0_17_0_split_1
I0225 16:04:37.384496  9728 net.cpp:122] Setting up concat0_17_concat0_17_0_split
I0225 16:04:37.384501  9728 net.cpp:129] Top shape: 1 248 26 74 (477152)
I0225 16:04:37.384505  9728 net.cpp:129] Top shape: 1 248 26 74 (477152)
I0225 16:04:37.384507  9728 net.cpp:137] Memory required for data: 122635548
I0225 16:04:37.384510  9728 layer_factory.hpp:77] Creating layer conv0_18/bn
I0225 16:04:37.384517  9728 net.cpp:84] Creating Layer conv0_18/bn
I0225 16:04:37.384521  9728 net.cpp:406] conv0_18/bn <- concat0_17_concat0_17_0_split_0
I0225 16:04:37.384526  9728 net.cpp:380] conv0_18/bn -> conv0_18/bn
I0225 16:04:37.384920  9728 net.cpp:122] Setting up conv0_18/bn
I0225 16:04:37.384927  9728 net.cpp:129] Top shape: 1 248 26 74 (477152)
I0225 16:04:37.384930  9728 net.cpp:137] Memory required for data: 124544156
I0225 16:04:37.384938  9728 layer_factory.hpp:77] Creating layer conv0_18/scale
I0225 16:04:37.384949  9728 net.cpp:84] Creating Layer conv0_18/scale
I0225 16:04:37.384953  9728 net.cpp:406] conv0_18/scale <- conv0_18/bn
I0225 16:04:37.384973  9728 net.cpp:367] conv0_18/scale -> conv0_18/bn (in-place)
I0225 16:04:37.385036  9728 layer_factory.hpp:77] Creating layer conv0_18/scale
I0225 16:04:37.385226  9728 net.cpp:122] Setting up conv0_18/scale
I0225 16:04:37.385231  9728 net.cpp:129] Top shape: 1 248 26 74 (477152)
I0225 16:04:37.385234  9728 net.cpp:137] Memory required for data: 126452764
I0225 16:04:37.385239  9728 layer_factory.hpp:77] Creating layer relu0_18
I0225 16:04:37.385246  9728 net.cpp:84] Creating Layer relu0_18
I0225 16:04:37.385248  9728 net.cpp:406] relu0_18 <- conv0_18/bn
I0225 16:04:37.385252  9728 net.cpp:367] relu0_18 -> conv0_18/bn (in-place)
I0225 16:04:37.385457  9728 net.cpp:122] Setting up relu0_18
I0225 16:04:37.385463  9728 net.cpp:129] Top shape: 1 248 26 74 (477152)
I0225 16:04:37.385466  9728 net.cpp:137] Memory required for data: 128361372
I0225 16:04:37.385469  9728 layer_factory.hpp:77] Creating layer conv0_18
I0225 16:04:37.385479  9728 net.cpp:84] Creating Layer conv0_18
I0225 16:04:37.385483  9728 net.cpp:406] conv0_18 <- conv0_18/bn
I0225 16:04:37.385490  9728 net.cpp:380] conv0_18 -> conv0_18
I0225 16:04:37.389247  9728 net.cpp:122] Setting up conv0_18
I0225 16:04:37.389294  9728 net.cpp:129] Top shape: 1 12 26 74 (23088)
I0225 16:04:37.389303  9728 net.cpp:137] Memory required for data: 128453724
I0225 16:04:37.389318  9728 layer_factory.hpp:77] Creating layer concat0_18
I0225 16:04:37.389339  9728 net.cpp:84] Creating Layer concat0_18
I0225 16:04:37.389351  9728 net.cpp:406] concat0_18 <- concat0_17_concat0_17_0_split_1
I0225 16:04:37.389364  9728 net.cpp:406] concat0_18 <- conv0_18
I0225 16:04:37.389376  9728 net.cpp:380] concat0_18 -> concat0_18
I0225 16:04:37.389538  9728 net.cpp:122] Setting up concat0_18
I0225 16:04:37.389549  9728 net.cpp:129] Top shape: 1 260 26 74 (500240)
I0225 16:04:37.389555  9728 net.cpp:137] Memory required for data: 130454684
I0225 16:04:37.389562  9728 layer_factory.hpp:77] Creating layer concat0_18_concat0_18_0_split
I0225 16:04:37.389576  9728 net.cpp:84] Creating Layer concat0_18_concat0_18_0_split
I0225 16:04:37.389585  9728 net.cpp:406] concat0_18_concat0_18_0_split <- concat0_18
I0225 16:04:37.389595  9728 net.cpp:380] concat0_18_concat0_18_0_split -> concat0_18_concat0_18_0_split_0
I0225 16:04:37.389611  9728 net.cpp:380] concat0_18_concat0_18_0_split -> concat0_18_concat0_18_0_split_1
I0225 16:04:37.389744  9728 net.cpp:122] Setting up concat0_18_concat0_18_0_split
I0225 16:04:37.389755  9728 net.cpp:129] Top shape: 1 260 26 74 (500240)
I0225 16:04:37.389763  9728 net.cpp:129] Top shape: 1 260 26 74 (500240)
I0225 16:04:37.389770  9728 net.cpp:137] Memory required for data: 134456604
I0225 16:04:37.389775  9728 layer_factory.hpp:77] Creating layer conv0_19/bn
I0225 16:04:37.389793  9728 net.cpp:84] Creating Layer conv0_19/bn
I0225 16:04:37.389801  9728 net.cpp:406] conv0_19/bn <- concat0_18_concat0_18_0_split_0
I0225 16:04:37.389813  9728 net.cpp:380] conv0_19/bn -> conv0_19/bn
I0225 16:04:37.390664  9728 net.cpp:122] Setting up conv0_19/bn
I0225 16:04:37.390678  9728 net.cpp:129] Top shape: 1 260 26 74 (500240)
I0225 16:04:37.390688  9728 net.cpp:137] Memory required for data: 136457564
I0225 16:04:37.390705  9728 layer_factory.hpp:77] Creating layer conv0_19/scale
I0225 16:04:37.390720  9728 net.cpp:84] Creating Layer conv0_19/scale
I0225 16:04:37.390728  9728 net.cpp:406] conv0_19/scale <- conv0_19/bn
I0225 16:04:37.390741  9728 net.cpp:367] conv0_19/scale -> conv0_19/bn (in-place)
I0225 16:04:37.390882  9728 layer_factory.hpp:77] Creating layer conv0_19/scale
I0225 16:04:37.391329  9728 net.cpp:122] Setting up conv0_19/scale
I0225 16:04:37.391342  9728 net.cpp:129] Top shape: 1 260 26 74 (500240)
I0225 16:04:37.391350  9728 net.cpp:137] Memory required for data: 138458524
I0225 16:04:37.391361  9728 layer_factory.hpp:77] Creating layer relu0_19
I0225 16:04:37.391373  9728 net.cpp:84] Creating Layer relu0_19
I0225 16:04:37.391389  9728 net.cpp:406] relu0_19 <- conv0_19/bn
I0225 16:04:37.391402  9728 net.cpp:367] relu0_19 -> conv0_19/bn (in-place)
I0225 16:04:37.393810  9728 net.cpp:122] Setting up relu0_19
I0225 16:04:37.393836  9728 net.cpp:129] Top shape: 1 260 26 74 (500240)
I0225 16:04:37.393843  9728 net.cpp:137] Memory required for data: 140459484
I0225 16:04:37.393851  9728 layer_factory.hpp:77] Creating layer conv0_19
I0225 16:04:37.393877  9728 net.cpp:84] Creating Layer conv0_19
I0225 16:04:37.393887  9728 net.cpp:406] conv0_19 <- conv0_19/bn
I0225 16:04:37.393901  9728 net.cpp:380] conv0_19 -> conv0_19
I0225 16:04:37.404083  9728 net.cpp:122] Setting up conv0_19
I0225 16:04:37.404110  9728 net.cpp:129] Top shape: 1 12 26 74 (23088)
I0225 16:04:37.404119  9728 net.cpp:137] Memory required for data: 140551836
I0225 16:04:37.404131  9728 layer_factory.hpp:77] Creating layer concat0_19
I0225 16:04:37.404148  9728 net.cpp:84] Creating Layer concat0_19
I0225 16:04:37.404157  9728 net.cpp:406] concat0_19 <- concat0_18_concat0_18_0_split_1
I0225 16:04:37.404168  9728 net.cpp:406] concat0_19 <- conv0_19
I0225 16:04:37.404181  9728 net.cpp:380] concat0_19 -> concat0_19
I0225 16:04:37.404276  9728 net.cpp:122] Setting up concat0_19
I0225 16:04:37.404287  9728 net.cpp:129] Top shape: 1 272 26 74 (523328)
I0225 16:04:37.404294  9728 net.cpp:137] Memory required for data: 142645148
I0225 16:04:37.404300  9728 layer_factory.hpp:77] Creating layer concat0_19_concat0_19_0_split
I0225 16:04:37.404314  9728 net.cpp:84] Creating Layer concat0_19_concat0_19_0_split
I0225 16:04:37.404321  9728 net.cpp:406] concat0_19_concat0_19_0_split <- concat0_19
I0225 16:04:37.404331  9728 net.cpp:380] concat0_19_concat0_19_0_split -> concat0_19_concat0_19_0_split_0
I0225 16:04:37.404347  9728 net.cpp:380] concat0_19_concat0_19_0_split -> concat0_19_concat0_19_0_split_1
I0225 16:04:37.404469  9728 net.cpp:122] Setting up concat0_19_concat0_19_0_split
I0225 16:04:37.404480  9728 net.cpp:129] Top shape: 1 272 26 74 (523328)
I0225 16:04:37.404489  9728 net.cpp:129] Top shape: 1 272 26 74 (523328)
I0225 16:04:37.404495  9728 net.cpp:137] Memory required for data: 146831772
I0225 16:04:37.404501  9728 layer_factory.hpp:77] Creating layer conv0_20/bn
I0225 16:04:37.404523  9728 net.cpp:84] Creating Layer conv0_20/bn
I0225 16:04:37.404532  9728 net.cpp:406] conv0_20/bn <- concat0_19_concat0_19_0_split_0
I0225 16:04:37.404543  9728 net.cpp:380] conv0_20/bn -> conv0_20/bn
I0225 16:04:37.405359  9728 net.cpp:122] Setting up conv0_20/bn
I0225 16:04:37.405371  9728 net.cpp:129] Top shape: 1 272 26 74 (523328)
I0225 16:04:37.405377  9728 net.cpp:137] Memory required for data: 148925084
I0225 16:04:37.405419  9728 layer_factory.hpp:77] Creating layer conv0_20/scale
I0225 16:04:37.405433  9728 net.cpp:84] Creating Layer conv0_20/scale
I0225 16:04:37.405441  9728 net.cpp:406] conv0_20/scale <- conv0_20/bn
I0225 16:04:37.405452  9728 net.cpp:367] conv0_20/scale -> conv0_20/bn (in-place)
I0225 16:04:37.405582  9728 layer_factory.hpp:77] Creating layer conv0_20/scale
I0225 16:04:37.405997  9728 net.cpp:122] Setting up conv0_20/scale
I0225 16:04:37.406009  9728 net.cpp:129] Top shape: 1 272 26 74 (523328)
I0225 16:04:37.406015  9728 net.cpp:137] Memory required for data: 151018396
I0225 16:04:37.406026  9728 layer_factory.hpp:77] Creating layer relu0_20
I0225 16:04:37.406038  9728 net.cpp:84] Creating Layer relu0_20
I0225 16:04:37.406044  9728 net.cpp:406] relu0_20 <- conv0_20/bn
I0225 16:04:37.406054  9728 net.cpp:367] relu0_20 -> conv0_20/bn (in-place)
I0225 16:04:37.406476  9728 net.cpp:122] Setting up relu0_20
I0225 16:04:37.406489  9728 net.cpp:129] Top shape: 1 272 26 74 (523328)
I0225 16:04:37.406496  9728 net.cpp:137] Memory required for data: 153111708
I0225 16:04:37.406502  9728 layer_factory.hpp:77] Creating layer conv0_20
I0225 16:04:37.406524  9728 net.cpp:84] Creating Layer conv0_20
I0225 16:04:37.406533  9728 net.cpp:406] conv0_20 <- conv0_20/bn
I0225 16:04:37.406543  9728 net.cpp:380] conv0_20 -> conv0_20
I0225 16:04:37.413640  9728 net.cpp:122] Setting up conv0_20
I0225 16:04:37.413671  9728 net.cpp:129] Top shape: 1 12 26 74 (23088)
I0225 16:04:37.413677  9728 net.cpp:137] Memory required for data: 153204060
I0225 16:04:37.413692  9728 layer_factory.hpp:77] Creating layer concat0_20
I0225 16:04:37.413707  9728 net.cpp:84] Creating Layer concat0_20
I0225 16:04:37.413714  9728 net.cpp:406] concat0_20 <- concat0_19_concat0_19_0_split_1
I0225 16:04:37.413724  9728 net.cpp:406] concat0_20 <- conv0_20
I0225 16:04:37.413743  9728 net.cpp:380] concat0_20 -> concat0_20
I0225 16:04:37.413830  9728 net.cpp:122] Setting up concat0_20
I0225 16:04:37.413841  9728 net.cpp:129] Top shape: 1 284 26 74 (546416)
I0225 16:04:37.413847  9728 net.cpp:137] Memory required for data: 155389724
I0225 16:04:37.413853  9728 layer_factory.hpp:77] Creating layer concat0_20_concat0_20_0_split
I0225 16:04:37.413862  9728 net.cpp:84] Creating Layer concat0_20_concat0_20_0_split
I0225 16:04:37.413869  9728 net.cpp:406] concat0_20_concat0_20_0_split <- concat0_20
I0225 16:04:37.413880  9728 net.cpp:380] concat0_20_concat0_20_0_split -> concat0_20_concat0_20_0_split_0
I0225 16:04:37.413892  9728 net.cpp:380] concat0_20_concat0_20_0_split -> concat0_20_concat0_20_0_split_1
I0225 16:04:37.414007  9728 net.cpp:122] Setting up concat0_20_concat0_20_0_split
I0225 16:04:37.414017  9728 net.cpp:129] Top shape: 1 284 26 74 (546416)
I0225 16:04:37.414026  9728 net.cpp:129] Top shape: 1 284 26 74 (546416)
I0225 16:04:37.414031  9728 net.cpp:137] Memory required for data: 159761052
I0225 16:04:37.414037  9728 layer_factory.hpp:77] Creating layer conv0_21/bn
I0225 16:04:37.414050  9728 net.cpp:84] Creating Layer conv0_21/bn
I0225 16:04:37.414057  9728 net.cpp:406] conv0_21/bn <- concat0_20_concat0_20_0_split_0
I0225 16:04:37.414067  9728 net.cpp:380] conv0_21/bn -> conv0_21/bn
I0225 16:04:37.414813  9728 net.cpp:122] Setting up conv0_21/bn
I0225 16:04:37.414825  9728 net.cpp:129] Top shape: 1 284 26 74 (546416)
I0225 16:04:37.414831  9728 net.cpp:137] Memory required for data: 161946716
I0225 16:04:37.414844  9728 layer_factory.hpp:77] Creating layer conv0_21/scale
I0225 16:04:37.414857  9728 net.cpp:84] Creating Layer conv0_21/scale
I0225 16:04:37.414865  9728 net.cpp:406] conv0_21/scale <- conv0_21/bn
I0225 16:04:37.414877  9728 net.cpp:367] conv0_21/scale -> conv0_21/bn (in-place)
I0225 16:04:37.415012  9728 layer_factory.hpp:77] Creating layer conv0_21/scale
I0225 16:04:37.415418  9728 net.cpp:122] Setting up conv0_21/scale
I0225 16:04:37.415431  9728 net.cpp:129] Top shape: 1 284 26 74 (546416)
I0225 16:04:37.415437  9728 net.cpp:137] Memory required for data: 164132380
I0225 16:04:37.415448  9728 layer_factory.hpp:77] Creating layer relu0_21
I0225 16:04:37.415463  9728 net.cpp:84] Creating Layer relu0_21
I0225 16:04:37.415470  9728 net.cpp:406] relu0_21 <- conv0_21/bn
I0225 16:04:37.415479  9728 net.cpp:367] relu0_21 -> conv0_21/bn (in-place)
I0225 16:04:37.415913  9728 net.cpp:122] Setting up relu0_21
I0225 16:04:37.415928  9728 net.cpp:129] Top shape: 1 284 26 74 (546416)
I0225 16:04:37.415935  9728 net.cpp:137] Memory required for data: 166318044
I0225 16:04:37.415940  9728 layer_factory.hpp:77] Creating layer conv0_21
I0225 16:04:37.415961  9728 net.cpp:84] Creating Layer conv0_21
I0225 16:04:37.415968  9728 net.cpp:406] conv0_21 <- conv0_21/bn
I0225 16:04:37.415982  9728 net.cpp:380] conv0_21 -> conv0_21
I0225 16:04:37.422695  9728 net.cpp:122] Setting up conv0_21
I0225 16:04:37.422719  9728 net.cpp:129] Top shape: 1 12 26 74 (23088)
I0225 16:04:37.422725  9728 net.cpp:137] Memory required for data: 166410396
I0225 16:04:37.422736  9728 layer_factory.hpp:77] Creating layer concat0_21
I0225 16:04:37.422749  9728 net.cpp:84] Creating Layer concat0_21
I0225 16:04:37.422756  9728 net.cpp:406] concat0_21 <- concat0_20_concat0_20_0_split_1
I0225 16:04:37.422765  9728 net.cpp:406] concat0_21 <- conv0_21
I0225 16:04:37.422778  9728 net.cpp:380] concat0_21 -> concat0_21
I0225 16:04:37.422863  9728 net.cpp:122] Setting up concat0_21
I0225 16:04:37.422873  9728 net.cpp:129] Top shape: 1 296 26 74 (569504)
I0225 16:04:37.422883  9728 net.cpp:137] Memory required for data: 168688412
I0225 16:04:37.422889  9728 layer_factory.hpp:77] Creating layer concat0_21_concat0_21_0_split
I0225 16:04:37.422899  9728 net.cpp:84] Creating Layer concat0_21_concat0_21_0_split
I0225 16:04:37.422905  9728 net.cpp:406] concat0_21_concat0_21_0_split <- concat0_21
I0225 16:04:37.422916  9728 net.cpp:380] concat0_21_concat0_21_0_split -> concat0_21_concat0_21_0_split_0
I0225 16:04:37.422926  9728 net.cpp:380] concat0_21_concat0_21_0_split -> concat0_21_concat0_21_0_split_1
I0225 16:04:37.423036  9728 net.cpp:122] Setting up concat0_21_concat0_21_0_split
I0225 16:04:37.423046  9728 net.cpp:129] Top shape: 1 296 26 74 (569504)
I0225 16:04:37.423053  9728 net.cpp:129] Top shape: 1 296 26 74 (569504)
I0225 16:04:37.423058  9728 net.cpp:137] Memory required for data: 173244444
I0225 16:04:37.423064  9728 layer_factory.hpp:77] Creating layer conv0_22/bn
I0225 16:04:37.423076  9728 net.cpp:84] Creating Layer conv0_22/bn
I0225 16:04:37.423084  9728 net.cpp:406] conv0_22/bn <- concat0_21_concat0_21_0_split_0
I0225 16:04:37.423092  9728 net.cpp:380] conv0_22/bn -> conv0_22/bn
I0225 16:04:37.423801  9728 net.cpp:122] Setting up conv0_22/bn
I0225 16:04:37.423812  9728 net.cpp:129] Top shape: 1 296 26 74 (569504)
I0225 16:04:37.423818  9728 net.cpp:137] Memory required for data: 175522460
I0225 16:04:37.423832  9728 layer_factory.hpp:77] Creating layer conv0_22/scale
I0225 16:04:37.423846  9728 net.cpp:84] Creating Layer conv0_22/scale
I0225 16:04:37.423853  9728 net.cpp:406] conv0_22/scale <- conv0_22/bn
I0225 16:04:37.423862  9728 net.cpp:367] conv0_22/scale -> conv0_22/bn (in-place)
I0225 16:04:37.423988  9728 layer_factory.hpp:77] Creating layer conv0_22/scale
I0225 16:04:37.424376  9728 net.cpp:122] Setting up conv0_22/scale
I0225 16:04:37.424388  9728 net.cpp:129] Top shape: 1 296 26 74 (569504)
I0225 16:04:37.424394  9728 net.cpp:137] Memory required for data: 177800476
I0225 16:04:37.424403  9728 layer_factory.hpp:77] Creating layer relu0_22
I0225 16:04:37.424413  9728 net.cpp:84] Creating Layer relu0_22
I0225 16:04:37.424420  9728 net.cpp:406] relu0_22 <- conv0_22/bn
I0225 16:04:37.424428  9728 net.cpp:367] relu0_22 -> conv0_22/bn (in-place)
I0225 16:04:37.426406  9728 net.cpp:122] Setting up relu0_22
I0225 16:04:37.426427  9728 net.cpp:129] Top shape: 1 296 26 74 (569504)
I0225 16:04:37.426434  9728 net.cpp:137] Memory required for data: 180078492
I0225 16:04:37.426440  9728 layer_factory.hpp:77] Creating layer conv0_22
I0225 16:04:37.426461  9728 net.cpp:84] Creating Layer conv0_22
I0225 16:04:37.426470  9728 net.cpp:406] conv0_22 <- conv0_22/bn
I0225 16:04:37.426484  9728 net.cpp:380] conv0_22 -> conv0_22
I0225 16:04:37.432982  9728 net.cpp:122] Setting up conv0_22
I0225 16:04:37.433004  9728 net.cpp:129] Top shape: 1 12 26 74 (23088)
I0225 16:04:37.433012  9728 net.cpp:137] Memory required for data: 180170844
I0225 16:04:37.433022  9728 layer_factory.hpp:77] Creating layer concat0_22
I0225 16:04:37.433037  9728 net.cpp:84] Creating Layer concat0_22
I0225 16:04:37.433043  9728 net.cpp:406] concat0_22 <- concat0_21_concat0_21_0_split_1
I0225 16:04:37.433051  9728 net.cpp:406] concat0_22 <- conv0_22
I0225 16:04:37.433063  9728 net.cpp:380] concat0_22 -> concat0_22
I0225 16:04:37.433148  9728 net.cpp:122] Setting up concat0_22
I0225 16:04:37.433157  9728 net.cpp:129] Top shape: 1 308 26 74 (592592)
I0225 16:04:37.433162  9728 net.cpp:137] Memory required for data: 182541212
I0225 16:04:37.433168  9728 layer_factory.hpp:77] Creating layer concat0_22_concat0_22_0_split
I0225 16:04:37.433177  9728 net.cpp:84] Creating Layer concat0_22_concat0_22_0_split
I0225 16:04:37.433182  9728 net.cpp:406] concat0_22_concat0_22_0_split <- concat0_22
I0225 16:04:37.433193  9728 net.cpp:380] concat0_22_concat0_22_0_split -> concat0_22_concat0_22_0_split_0
I0225 16:04:37.433203  9728 net.cpp:380] concat0_22_concat0_22_0_split -> concat0_22_concat0_22_0_split_1
I0225 16:04:37.433305  9728 net.cpp:122] Setting up concat0_22_concat0_22_0_split
I0225 16:04:37.433318  9728 net.cpp:129] Top shape: 1 308 26 74 (592592)
I0225 16:04:37.433326  9728 net.cpp:129] Top shape: 1 308 26 74 (592592)
I0225 16:04:37.433331  9728 net.cpp:137] Memory required for data: 187281948
I0225 16:04:37.433336  9728 layer_factory.hpp:77] Creating layer conv0_23/bn
I0225 16:04:37.433347  9728 net.cpp:84] Creating Layer conv0_23/bn
I0225 16:04:37.433353  9728 net.cpp:406] conv0_23/bn <- concat0_22_concat0_22_0_split_0
I0225 16:04:37.433364  9728 net.cpp:380] conv0_23/bn -> conv0_23/bn
I0225 16:04:37.434023  9728 net.cpp:122] Setting up conv0_23/bn
I0225 16:04:37.434034  9728 net.cpp:129] Top shape: 1 308 26 74 (592592)
I0225 16:04:37.434039  9728 net.cpp:137] Memory required for data: 189652316
I0225 16:04:37.434051  9728 layer_factory.hpp:77] Creating layer conv0_23/scale
I0225 16:04:37.434063  9728 net.cpp:84] Creating Layer conv0_23/scale
I0225 16:04:37.434069  9728 net.cpp:406] conv0_23/scale <- conv0_23/bn
I0225 16:04:37.434082  9728 net.cpp:367] conv0_23/scale -> conv0_23/bn (in-place)
I0225 16:04:37.434198  9728 layer_factory.hpp:77] Creating layer conv0_23/scale
I0225 16:04:37.434564  9728 net.cpp:122] Setting up conv0_23/scale
I0225 16:04:37.434576  9728 net.cpp:129] Top shape: 1 308 26 74 (592592)
I0225 16:04:37.434581  9728 net.cpp:137] Memory required for data: 192022684
I0225 16:04:37.434592  9728 layer_factory.hpp:77] Creating layer relu0_23
I0225 16:04:37.434604  9728 net.cpp:84] Creating Layer relu0_23
I0225 16:04:37.434610  9728 net.cpp:406] relu0_23 <- conv0_23/bn
I0225 16:04:37.434618  9728 net.cpp:367] relu0_23 -> conv0_23/bn (in-place)
I0225 16:04:37.435003  9728 net.cpp:122] Setting up relu0_23
I0225 16:04:37.435017  9728 net.cpp:129] Top shape: 1 308 26 74 (592592)
I0225 16:04:37.435022  9728 net.cpp:137] Memory required for data: 194393052
I0225 16:04:37.435029  9728 layer_factory.hpp:77] Creating layer conv0_23
I0225 16:04:37.435046  9728 net.cpp:84] Creating Layer conv0_23
I0225 16:04:37.435053  9728 net.cpp:406] conv0_23 <- conv0_23/bn
I0225 16:04:37.435066  9728 net.cpp:380] conv0_23 -> conv0_23
I0225 16:04:37.441459  9728 net.cpp:122] Setting up conv0_23
I0225 16:04:37.441480  9728 net.cpp:129] Top shape: 1 12 26 74 (23088)
I0225 16:04:37.441486  9728 net.cpp:137] Memory required for data: 194485404
I0225 16:04:37.441496  9728 layer_factory.hpp:77] Creating layer concat0_23
I0225 16:04:37.441507  9728 net.cpp:84] Creating Layer concat0_23
I0225 16:04:37.441514  9728 net.cpp:406] concat0_23 <- concat0_22_concat0_22_0_split_1
I0225 16:04:37.441522  9728 net.cpp:406] concat0_23 <- conv0_23
I0225 16:04:37.441534  9728 net.cpp:380] concat0_23 -> concat0_23
I0225 16:04:37.441612  9728 net.cpp:122] Setting up concat0_23
I0225 16:04:37.441620  9728 net.cpp:129] Top shape: 1 320 26 74 (615680)
I0225 16:04:37.441625  9728 net.cpp:137] Memory required for data: 196948124
I0225 16:04:37.441630  9728 layer_factory.hpp:77] Creating layer concat0_23_concat0_23_0_split
I0225 16:04:37.441638  9728 net.cpp:84] Creating Layer concat0_23_concat0_23_0_split
I0225 16:04:37.441644  9728 net.cpp:406] concat0_23_concat0_23_0_split <- concat0_23
I0225 16:04:37.441654  9728 net.cpp:380] concat0_23_concat0_23_0_split -> concat0_23_concat0_23_0_split_0
I0225 16:04:37.441664  9728 net.cpp:380] concat0_23_concat0_23_0_split -> concat0_23_concat0_23_0_split_1
I0225 16:04:37.441771  9728 net.cpp:122] Setting up concat0_23_concat0_23_0_split
I0225 16:04:37.441782  9728 net.cpp:129] Top shape: 1 320 26 74 (615680)
I0225 16:04:37.441800  9728 net.cpp:129] Top shape: 1 320 26 74 (615680)
I0225 16:04:37.441805  9728 net.cpp:137] Memory required for data: 201873564
I0225 16:04:37.441810  9728 layer_factory.hpp:77] Creating layer conv0_24/bn
I0225 16:04:37.441819  9728 net.cpp:84] Creating Layer conv0_24/bn
I0225 16:04:37.441825  9728 net.cpp:406] conv0_24/bn <- concat0_23_concat0_23_0_split_0
I0225 16:04:37.441836  9728 net.cpp:380] conv0_24/bn -> conv0_24/bn
I0225 16:04:37.442466  9728 net.cpp:122] Setting up conv0_24/bn
I0225 16:04:37.442476  9728 net.cpp:129] Top shape: 1 320 26 74 (615680)
I0225 16:04:37.442481  9728 net.cpp:137] Memory required for data: 204336284
I0225 16:04:37.442502  9728 layer_factory.hpp:77] Creating layer conv0_24/scale
I0225 16:04:37.442515  9728 net.cpp:84] Creating Layer conv0_24/scale
I0225 16:04:37.442522  9728 net.cpp:406] conv0_24/scale <- conv0_24/bn
I0225 16:04:37.442529  9728 net.cpp:367] conv0_24/scale -> conv0_24/bn (in-place)
I0225 16:04:37.442642  9728 layer_factory.hpp:77] Creating layer conv0_24/scale
I0225 16:04:37.442992  9728 net.cpp:122] Setting up conv0_24/scale
I0225 16:04:37.443007  9728 net.cpp:129] Top shape: 1 320 26 74 (615680)
I0225 16:04:37.443012  9728 net.cpp:137] Memory required for data: 206799004
I0225 16:04:37.443022  9728 layer_factory.hpp:77] Creating layer relu0_24
I0225 16:04:37.443030  9728 net.cpp:84] Creating Layer relu0_24
I0225 16:04:37.443037  9728 net.cpp:406] relu0_24 <- conv0_24/bn
I0225 16:04:37.443043  9728 net.cpp:367] relu0_24 -> conv0_24/bn (in-place)
I0225 16:04:37.443408  9728 net.cpp:122] Setting up relu0_24
I0225 16:04:37.443420  9728 net.cpp:129] Top shape: 1 320 26 74 (615680)
I0225 16:04:37.443425  9728 net.cpp:137] Memory required for data: 209261724
I0225 16:04:37.443430  9728 layer_factory.hpp:77] Creating layer conv0_24
I0225 16:04:37.443449  9728 net.cpp:84] Creating Layer conv0_24
I0225 16:04:37.443456  9728 net.cpp:406] conv0_24 <- conv0_24/bn
I0225 16:04:37.443465  9728 net.cpp:380] conv0_24 -> conv0_24
I0225 16:04:37.449584  9728 net.cpp:122] Setting up conv0_24
I0225 16:04:37.449605  9728 net.cpp:129] Top shape: 1 12 26 74 (23088)
I0225 16:04:37.449611  9728 net.cpp:137] Memory required for data: 209354076
I0225 16:04:37.449621  9728 layer_factory.hpp:77] Creating layer concat0_24
I0225 16:04:37.449632  9728 net.cpp:84] Creating Layer concat0_24
I0225 16:04:37.449638  9728 net.cpp:406] concat0_24 <- concat0_23_concat0_23_0_split_1
I0225 16:04:37.449647  9728 net.cpp:406] concat0_24 <- conv0_24
I0225 16:04:37.449659  9728 net.cpp:380] concat0_24 -> concat0_24
I0225 16:04:37.449738  9728 net.cpp:122] Setting up concat0_24
I0225 16:04:37.449746  9728 net.cpp:129] Top shape: 1 332 26 74 (638768)
I0225 16:04:37.449751  9728 net.cpp:137] Memory required for data: 211909148
I0225 16:04:37.449756  9728 layer_factory.hpp:77] Creating layer concat0_24_concat0_24_0_split
I0225 16:04:37.449767  9728 net.cpp:84] Creating Layer concat0_24_concat0_24_0_split
I0225 16:04:37.449772  9728 net.cpp:406] concat0_24_concat0_24_0_split <- concat0_24
I0225 16:04:37.449780  9728 net.cpp:380] concat0_24_concat0_24_0_split -> concat0_24_concat0_24_0_split_0
I0225 16:04:37.449790  9728 net.cpp:380] concat0_24_concat0_24_0_split -> concat0_24_concat0_24_0_split_1
I0225 16:04:37.449887  9728 net.cpp:122] Setting up concat0_24_concat0_24_0_split
I0225 16:04:37.449896  9728 net.cpp:129] Top shape: 1 332 26 74 (638768)
I0225 16:04:37.449903  9728 net.cpp:129] Top shape: 1 332 26 74 (638768)
I0225 16:04:37.449908  9728 net.cpp:137] Memory required for data: 217019292
I0225 16:04:37.449913  9728 layer_factory.hpp:77] Creating layer conv0_25/bn
I0225 16:04:37.449924  9728 net.cpp:84] Creating Layer conv0_25/bn
I0225 16:04:37.449929  9728 net.cpp:406] conv0_25/bn <- concat0_24_concat0_24_0_split_0
I0225 16:04:37.449937  9728 net.cpp:380] conv0_25/bn -> conv0_25/bn
I0225 16:04:37.450592  9728 net.cpp:122] Setting up conv0_25/bn
I0225 16:04:37.450603  9728 net.cpp:129] Top shape: 1 332 26 74 (638768)
I0225 16:04:37.450608  9728 net.cpp:137] Memory required for data: 219574364
I0225 16:04:37.450620  9728 layer_factory.hpp:77] Creating layer conv0_25/scale
I0225 16:04:37.450634  9728 net.cpp:84] Creating Layer conv0_25/scale
I0225 16:04:37.450639  9728 net.cpp:406] conv0_25/scale <- conv0_25/bn
I0225 16:04:37.450647  9728 net.cpp:367] conv0_25/scale -> conv0_25/bn (in-place)
I0225 16:04:37.450764  9728 layer_factory.hpp:77] Creating layer conv0_25/scale
I0225 16:04:37.451125  9728 net.cpp:122] Setting up conv0_25/scale
I0225 16:04:37.451138  9728 net.cpp:129] Top shape: 1 332 26 74 (638768)
I0225 16:04:37.451141  9728 net.cpp:137] Memory required for data: 222129436
I0225 16:04:37.451155  9728 layer_factory.hpp:77] Creating layer relu0_25
I0225 16:04:37.451165  9728 net.cpp:84] Creating Layer relu0_25
I0225 16:04:37.451170  9728 net.cpp:406] relu0_25 <- conv0_25/bn
I0225 16:04:37.451179  9728 net.cpp:367] relu0_25 -> conv0_25/bn (in-place)
I0225 16:04:37.452960  9728 net.cpp:122] Setting up relu0_25
I0225 16:04:37.452978  9728 net.cpp:129] Top shape: 1 332 26 74 (638768)
I0225 16:04:37.452985  9728 net.cpp:137] Memory required for data: 224684508
I0225 16:04:37.452991  9728 layer_factory.hpp:77] Creating layer conv0_25
I0225 16:04:37.453007  9728 net.cpp:84] Creating Layer conv0_25
I0225 16:04:37.453013  9728 net.cpp:406] conv0_25 <- conv0_25/bn
I0225 16:04:37.453027  9728 net.cpp:380] conv0_25 -> conv0_25
I0225 16:04:37.458801  9728 net.cpp:122] Setting up conv0_25
I0225 16:04:37.458822  9728 net.cpp:129] Top shape: 1 12 26 74 (23088)
I0225 16:04:37.458827  9728 net.cpp:137] Memory required for data: 224776860
I0225 16:04:37.458839  9728 layer_factory.hpp:77] Creating layer concat0_25
I0225 16:04:37.458850  9728 net.cpp:84] Creating Layer concat0_25
I0225 16:04:37.458856  9728 net.cpp:406] concat0_25 <- concat0_24_concat0_24_0_split_1
I0225 16:04:37.458864  9728 net.cpp:406] concat0_25 <- conv0_25
I0225 16:04:37.458875  9728 net.cpp:380] concat0_25 -> concat0_25
I0225 16:04:37.458948  9728 net.cpp:122] Setting up concat0_25
I0225 16:04:37.458957  9728 net.cpp:129] Top shape: 1 344 26 74 (661856)
I0225 16:04:37.458962  9728 net.cpp:137] Memory required for data: 227424284
I0225 16:04:37.458966  9728 layer_factory.hpp:77] Creating layer concat0_25_concat0_25_0_split
I0225 16:04:37.458976  9728 net.cpp:84] Creating Layer concat0_25_concat0_25_0_split
I0225 16:04:37.458981  9728 net.cpp:406] concat0_25_concat0_25_0_split <- concat0_25
I0225 16:04:37.458990  9728 net.cpp:380] concat0_25_concat0_25_0_split -> concat0_25_concat0_25_0_split_0
I0225 16:04:37.458999  9728 net.cpp:380] concat0_25_concat0_25_0_split -> concat0_25_concat0_25_0_split_1
I0225 16:04:37.459095  9728 net.cpp:122] Setting up concat0_25_concat0_25_0_split
I0225 16:04:37.459102  9728 net.cpp:129] Top shape: 1 344 26 74 (661856)
I0225 16:04:37.459108  9728 net.cpp:129] Top shape: 1 344 26 74 (661856)
I0225 16:04:37.459112  9728 net.cpp:137] Memory required for data: 232719132
I0225 16:04:37.459117  9728 layer_factory.hpp:77] Creating layer conv0_26/bn
I0225 16:04:37.459128  9728 net.cpp:84] Creating Layer conv0_26/bn
I0225 16:04:37.459134  9728 net.cpp:406] conv0_26/bn <- concat0_25_concat0_25_0_split_0
I0225 16:04:37.459141  9728 net.cpp:380] conv0_26/bn -> conv0_26/bn
I0225 16:04:37.459765  9728 net.cpp:122] Setting up conv0_26/bn
I0225 16:04:37.459776  9728 net.cpp:129] Top shape: 1 344 26 74 (661856)
I0225 16:04:37.459781  9728 net.cpp:137] Memory required for data: 235366556
I0225 16:04:37.459792  9728 layer_factory.hpp:77] Creating layer conv0_26/scale
I0225 16:04:37.459802  9728 net.cpp:84] Creating Layer conv0_26/scale
I0225 16:04:37.459808  9728 net.cpp:406] conv0_26/scale <- conv0_26/bn
I0225 16:04:37.459818  9728 net.cpp:367] conv0_26/scale -> conv0_26/bn (in-place)
I0225 16:04:37.459928  9728 layer_factory.hpp:77] Creating layer conv0_26/scale
I0225 16:04:37.460264  9728 net.cpp:122] Setting up conv0_26/scale
I0225 16:04:37.460274  9728 net.cpp:129] Top shape: 1 344 26 74 (661856)
I0225 16:04:37.460279  9728 net.cpp:137] Memory required for data: 238013980
I0225 16:04:37.460288  9728 layer_factory.hpp:77] Creating layer relu0_26
I0225 16:04:37.460299  9728 net.cpp:84] Creating Layer relu0_26
I0225 16:04:37.460304  9728 net.cpp:406] relu0_26 <- conv0_26/bn
I0225 16:04:37.460311  9728 net.cpp:367] relu0_26 -> conv0_26/bn (in-place)
I0225 16:04:37.460657  9728 net.cpp:122] Setting up relu0_26
I0225 16:04:37.460670  9728 net.cpp:129] Top shape: 1 344 26 74 (661856)
I0225 16:04:37.460675  9728 net.cpp:137] Memory required for data: 240661404
I0225 16:04:37.460680  9728 layer_factory.hpp:77] Creating layer conv0_26
I0225 16:04:37.460696  9728 net.cpp:84] Creating Layer conv0_26
I0225 16:04:37.460703  9728 net.cpp:406] conv0_26 <- conv0_26/bn
I0225 16:04:37.460719  9728 net.cpp:380] conv0_26 -> conv0_26
I0225 16:04:37.466548  9728 net.cpp:122] Setting up conv0_26
I0225 16:04:37.466567  9728 net.cpp:129] Top shape: 1 12 26 74 (23088)
I0225 16:04:37.466572  9728 net.cpp:137] Memory required for data: 240753756
I0225 16:04:37.466581  9728 layer_factory.hpp:77] Creating layer concat0_26
I0225 16:04:37.466591  9728 net.cpp:84] Creating Layer concat0_26
I0225 16:04:37.466598  9728 net.cpp:406] concat0_26 <- concat0_25_concat0_25_0_split_1
I0225 16:04:37.466605  9728 net.cpp:406] concat0_26 <- conv0_26
I0225 16:04:37.466612  9728 net.cpp:380] concat0_26 -> concat0_26
I0225 16:04:37.466684  9728 net.cpp:122] Setting up concat0_26
I0225 16:04:37.466693  9728 net.cpp:129] Top shape: 1 356 26 74 (684944)
I0225 16:04:37.466697  9728 net.cpp:137] Memory required for data: 243493532
I0225 16:04:37.466702  9728 layer_factory.hpp:77] Creating layer concat0_26_concat0_26_0_split
I0225 16:04:37.466711  9728 net.cpp:84] Creating Layer concat0_26_concat0_26_0_split
I0225 16:04:37.466715  9728 net.cpp:406] concat0_26_concat0_26_0_split <- concat0_26
I0225 16:04:37.466724  9728 net.cpp:380] concat0_26_concat0_26_0_split -> concat0_26_concat0_26_0_split_0
I0225 16:04:37.466733  9728 net.cpp:380] concat0_26_concat0_26_0_split -> concat0_26_concat0_26_0_split_1
I0225 16:04:37.466825  9728 net.cpp:122] Setting up concat0_26_concat0_26_0_split
I0225 16:04:37.466832  9728 net.cpp:129] Top shape: 1 356 26 74 (684944)
I0225 16:04:37.466837  9728 net.cpp:129] Top shape: 1 356 26 74 (684944)
I0225 16:04:37.466842  9728 net.cpp:137] Memory required for data: 248973084
I0225 16:04:37.466846  9728 layer_factory.hpp:77] Creating layer conv0_27/bn
I0225 16:04:37.466855  9728 net.cpp:84] Creating Layer conv0_27/bn
I0225 16:04:37.466859  9728 net.cpp:406] conv0_27/bn <- concat0_26_concat0_26_0_split_0
I0225 16:04:37.466868  9728 net.cpp:380] conv0_27/bn -> conv0_27/bn
I0225 16:04:37.467448  9728 net.cpp:122] Setting up conv0_27/bn
I0225 16:04:37.467458  9728 net.cpp:129] Top shape: 1 356 26 74 (684944)
I0225 16:04:37.467463  9728 net.cpp:137] Memory required for data: 251712860
I0225 16:04:37.467473  9728 layer_factory.hpp:77] Creating layer conv0_27/scale
I0225 16:04:37.467485  9728 net.cpp:84] Creating Layer conv0_27/scale
I0225 16:04:37.467490  9728 net.cpp:406] conv0_27/scale <- conv0_27/bn
I0225 16:04:37.467497  9728 net.cpp:367] conv0_27/scale -> conv0_27/bn (in-place)
I0225 16:04:37.467598  9728 layer_factory.hpp:77] Creating layer conv0_27/scale
I0225 16:04:37.467917  9728 net.cpp:122] Setting up conv0_27/scale
I0225 16:04:37.467931  9728 net.cpp:129] Top shape: 1 356 26 74 (684944)
I0225 16:04:37.467934  9728 net.cpp:137] Memory required for data: 254452636
I0225 16:04:37.467943  9728 layer_factory.hpp:77] Creating layer relu0_27
I0225 16:04:37.467952  9728 net.cpp:84] Creating Layer relu0_27
I0225 16:04:37.467957  9728 net.cpp:406] relu0_27 <- conv0_27/bn
I0225 16:04:37.467963  9728 net.cpp:367] relu0_27 -> conv0_27/bn (in-place)
I0225 16:04:37.469629  9728 net.cpp:122] Setting up relu0_27
I0225 16:04:37.469646  9728 net.cpp:129] Top shape: 1 356 26 74 (684944)
I0225 16:04:37.469651  9728 net.cpp:137] Memory required for data: 257192412
I0225 16:04:37.469657  9728 layer_factory.hpp:77] Creating layer conv0_27
I0225 16:04:37.469674  9728 net.cpp:84] Creating Layer conv0_27
I0225 16:04:37.469681  9728 net.cpp:406] conv0_27 <- conv0_27/bn
I0225 16:04:37.469692  9728 net.cpp:380] conv0_27 -> conv0_27
I0225 16:04:37.475361  9728 net.cpp:122] Setting up conv0_27
I0225 16:04:37.475380  9728 net.cpp:129] Top shape: 1 12 26 74 (23088)
I0225 16:04:37.475386  9728 net.cpp:137] Memory required for data: 257284764
I0225 16:04:37.475394  9728 layer_factory.hpp:77] Creating layer concat0_27
I0225 16:04:37.475405  9728 net.cpp:84] Creating Layer concat0_27
I0225 16:04:37.475411  9728 net.cpp:406] concat0_27 <- concat0_26_concat0_26_0_split_1
I0225 16:04:37.475421  9728 net.cpp:406] concat0_27 <- conv0_27
I0225 16:04:37.475430  9728 net.cpp:380] concat0_27 -> concat0_27
I0225 16:04:37.475503  9728 net.cpp:122] Setting up concat0_27
I0225 16:04:37.475512  9728 net.cpp:129] Top shape: 1 368 26 74 (708032)
I0225 16:04:37.475517  9728 net.cpp:137] Memory required for data: 260116892
I0225 16:04:37.475520  9728 layer_factory.hpp:77] Creating layer concat0_27_concat0_27_0_split
I0225 16:04:37.475530  9728 net.cpp:84] Creating Layer concat0_27_concat0_27_0_split
I0225 16:04:37.475535  9728 net.cpp:406] concat0_27_concat0_27_0_split <- concat0_27
I0225 16:04:37.475543  9728 net.cpp:380] concat0_27_concat0_27_0_split -> concat0_27_concat0_27_0_split_0
I0225 16:04:37.475550  9728 net.cpp:380] concat0_27_concat0_27_0_split -> concat0_27_concat0_27_0_split_1
I0225 16:04:37.475642  9728 net.cpp:122] Setting up concat0_27_concat0_27_0_split
I0225 16:04:37.475649  9728 net.cpp:129] Top shape: 1 368 26 74 (708032)
I0225 16:04:37.475656  9728 net.cpp:129] Top shape: 1 368 26 74 (708032)
I0225 16:04:37.475659  9728 net.cpp:137] Memory required for data: 265781148
I0225 16:04:37.475664  9728 layer_factory.hpp:77] Creating layer conv0_28/bn
I0225 16:04:37.475674  9728 net.cpp:84] Creating Layer conv0_28/bn
I0225 16:04:37.475679  9728 net.cpp:406] conv0_28/bn <- concat0_27_concat0_27_0_split_0
I0225 16:04:37.475693  9728 net.cpp:380] conv0_28/bn -> conv0_28/bn
I0225 16:04:37.476263  9728 net.cpp:122] Setting up conv0_28/bn
I0225 16:04:37.476272  9728 net.cpp:129] Top shape: 1 368 26 74 (708032)
I0225 16:04:37.476276  9728 net.cpp:137] Memory required for data: 268613276
I0225 16:04:37.476287  9728 layer_factory.hpp:77] Creating layer conv0_28/scale
I0225 16:04:37.476299  9728 net.cpp:84] Creating Layer conv0_28/scale
I0225 16:04:37.476305  9728 net.cpp:406] conv0_28/scale <- conv0_28/bn
I0225 16:04:37.476311  9728 net.cpp:367] conv0_28/scale -> conv0_28/bn (in-place)
I0225 16:04:37.476415  9728 layer_factory.hpp:77] Creating layer conv0_28/scale
I0225 16:04:37.476747  9728 net.cpp:122] Setting up conv0_28/scale
I0225 16:04:37.476758  9728 net.cpp:129] Top shape: 1 368 26 74 (708032)
I0225 16:04:37.476763  9728 net.cpp:137] Memory required for data: 271445404
I0225 16:04:37.476771  9728 layer_factory.hpp:77] Creating layer relu0_28
I0225 16:04:37.476779  9728 net.cpp:84] Creating Layer relu0_28
I0225 16:04:37.476799  9728 net.cpp:406] relu0_28 <- conv0_28/bn
I0225 16:04:37.476809  9728 net.cpp:367] relu0_28 -> conv0_28/bn (in-place)
I0225 16:04:37.477109  9728 net.cpp:122] Setting up relu0_28
I0225 16:04:37.477120  9728 net.cpp:129] Top shape: 1 368 26 74 (708032)
I0225 16:04:37.477124  9728 net.cpp:137] Memory required for data: 274277532
I0225 16:04:37.477129  9728 layer_factory.hpp:77] Creating layer conv0_28
I0225 16:04:37.477144  9728 net.cpp:84] Creating Layer conv0_28
I0225 16:04:37.477149  9728 net.cpp:406] conv0_28 <- conv0_28/bn
I0225 16:04:37.477159  9728 net.cpp:380] conv0_28 -> conv0_28
I0225 16:04:37.482551  9728 net.cpp:122] Setting up conv0_28
I0225 16:04:37.482573  9728 net.cpp:129] Top shape: 1 12 26 74 (23088)
I0225 16:04:37.482578  9728 net.cpp:137] Memory required for data: 274369884
I0225 16:04:37.482585  9728 layer_factory.hpp:77] Creating layer concat0_28
I0225 16:04:37.482595  9728 net.cpp:84] Creating Layer concat0_28
I0225 16:04:37.482601  9728 net.cpp:406] concat0_28 <- concat0_27_concat0_27_0_split_1
I0225 16:04:37.482609  9728 net.cpp:406] concat0_28 <- conv0_28
I0225 16:04:37.482615  9728 net.cpp:380] concat0_28 -> concat0_28
I0225 16:04:37.482684  9728 net.cpp:122] Setting up concat0_28
I0225 16:04:37.482692  9728 net.cpp:129] Top shape: 1 380 26 74 (731120)
I0225 16:04:37.482697  9728 net.cpp:137] Memory required for data: 277294364
I0225 16:04:37.482702  9728 layer_factory.hpp:77] Creating layer concat0_28_concat0_28_0_split
I0225 16:04:37.482708  9728 net.cpp:84] Creating Layer concat0_28_concat0_28_0_split
I0225 16:04:37.482713  9728 net.cpp:406] concat0_28_concat0_28_0_split <- concat0_28
I0225 16:04:37.482719  9728 net.cpp:380] concat0_28_concat0_28_0_split -> concat0_28_concat0_28_0_split_0
I0225 16:04:37.482729  9728 net.cpp:380] concat0_28_concat0_28_0_split -> concat0_28_concat0_28_0_split_1
I0225 16:04:37.482820  9728 net.cpp:122] Setting up concat0_28_concat0_28_0_split
I0225 16:04:37.482831  9728 net.cpp:129] Top shape: 1 380 26 74 (731120)
I0225 16:04:37.482836  9728 net.cpp:129] Top shape: 1 380 26 74 (731120)
I0225 16:04:37.482839  9728 net.cpp:137] Memory required for data: 283143324
I0225 16:04:37.482844  9728 layer_factory.hpp:77] Creating layer conv0_29/bn
I0225 16:04:37.482852  9728 net.cpp:84] Creating Layer conv0_29/bn
I0225 16:04:37.482856  9728 net.cpp:406] conv0_29/bn <- concat0_28_concat0_28_0_split_0
I0225 16:04:37.482866  9728 net.cpp:380] conv0_29/bn -> conv0_29/bn
I0225 16:04:37.483422  9728 net.cpp:122] Setting up conv0_29/bn
I0225 16:04:37.483430  9728 net.cpp:129] Top shape: 1 380 26 74 (731120)
I0225 16:04:37.483434  9728 net.cpp:137] Memory required for data: 286067804
I0225 16:04:37.483448  9728 layer_factory.hpp:77] Creating layer conv0_29/scale
I0225 16:04:37.483456  9728 net.cpp:84] Creating Layer conv0_29/scale
I0225 16:04:37.483461  9728 net.cpp:406] conv0_29/scale <- conv0_29/bn
I0225 16:04:37.483470  9728 net.cpp:367] conv0_29/scale -> conv0_29/bn (in-place)
I0225 16:04:37.483567  9728 layer_factory.hpp:77] Creating layer conv0_29/scale
I0225 16:04:37.483875  9728 net.cpp:122] Setting up conv0_29/scale
I0225 16:04:37.483886  9728 net.cpp:129] Top shape: 1 380 26 74 (731120)
I0225 16:04:37.483889  9728 net.cpp:137] Memory required for data: 288992284
I0225 16:04:37.483897  9728 layer_factory.hpp:77] Creating layer relu0_29
I0225 16:04:37.483906  9728 net.cpp:84] Creating Layer relu0_29
I0225 16:04:37.483911  9728 net.cpp:406] relu0_29 <- conv0_29/bn
I0225 16:04:37.483917  9728 net.cpp:367] relu0_29 -> conv0_29/bn (in-place)
I0225 16:04:37.485431  9728 net.cpp:122] Setting up relu0_29
I0225 16:04:37.485450  9728 net.cpp:129] Top shape: 1 380 26 74 (731120)
I0225 16:04:37.485455  9728 net.cpp:137] Memory required for data: 291916764
I0225 16:04:37.485461  9728 layer_factory.hpp:77] Creating layer conv0_29
I0225 16:04:37.485476  9728 net.cpp:84] Creating Layer conv0_29
I0225 16:04:37.485482  9728 net.cpp:406] conv0_29 <- conv0_29/bn
I0225 16:04:37.485492  9728 net.cpp:380] conv0_29 -> conv0_29
I0225 16:04:37.490847  9728 net.cpp:122] Setting up conv0_29
I0225 16:04:37.490869  9728 net.cpp:129] Top shape: 1 12 26 74 (23088)
I0225 16:04:37.490875  9728 net.cpp:137] Memory required for data: 292009116
I0225 16:04:37.490886  9728 layer_factory.hpp:77] Creating layer concat0_29
I0225 16:04:37.490900  9728 net.cpp:84] Creating Layer concat0_29
I0225 16:04:37.490907  9728 net.cpp:406] concat0_29 <- concat0_28_concat0_28_0_split_1
I0225 16:04:37.490916  9728 net.cpp:406] concat0_29 <- conv0_29
I0225 16:04:37.490929  9728 net.cpp:380] concat0_29 -> concat0_29
I0225 16:04:37.491010  9728 net.cpp:122] Setting up concat0_29
I0225 16:04:37.491022  9728 net.cpp:129] Top shape: 1 392 26 74 (754208)
I0225 16:04:37.491029  9728 net.cpp:137] Memory required for data: 295025948
I0225 16:04:37.491034  9728 layer_factory.hpp:77] Creating layer BatchNorm1
I0225 16:04:37.491048  9728 net.cpp:84] Creating Layer BatchNorm1
I0225 16:04:37.491055  9728 net.cpp:406] BatchNorm1 <- concat0_29
I0225 16:04:37.491065  9728 net.cpp:380] BatchNorm1 -> BatchNorm1
I0225 16:04:37.491628  9728 net.cpp:122] Setting up BatchNorm1
I0225 16:04:37.491637  9728 net.cpp:129] Top shape: 1 392 26 74 (754208)
I0225 16:04:37.491641  9728 net.cpp:137] Memory required for data: 298042780
I0225 16:04:37.491652  9728 layer_factory.hpp:77] Creating layer Scale1
I0225 16:04:37.491662  9728 net.cpp:84] Creating Layer Scale1
I0225 16:04:37.491667  9728 net.cpp:406] Scale1 <- BatchNorm1
I0225 16:04:37.491673  9728 net.cpp:367] Scale1 -> BatchNorm1 (in-place)
I0225 16:04:37.491768  9728 layer_factory.hpp:77] Creating layer Scale1
I0225 16:04:37.492084  9728 net.cpp:122] Setting up Scale1
I0225 16:04:37.492094  9728 net.cpp:129] Top shape: 1 392 26 74 (754208)
I0225 16:04:37.492097  9728 net.cpp:137] Memory required for data: 301059612
I0225 16:04:37.492105  9728 layer_factory.hpp:77] Creating layer ReLU1
I0225 16:04:37.492111  9728 net.cpp:84] Creating Layer ReLU1
I0225 16:04:37.492120  9728 net.cpp:406] ReLU1 <- BatchNorm1
I0225 16:04:37.492126  9728 net.cpp:367] ReLU1 -> BatchNorm1 (in-place)
I0225 16:04:37.492421  9728 net.cpp:122] Setting up ReLU1
I0225 16:04:37.492431  9728 net.cpp:129] Top shape: 1 392 26 74 (754208)
I0225 16:04:37.492435  9728 net.cpp:137] Memory required for data: 304076444
I0225 16:04:37.492440  9728 layer_factory.hpp:77] Creating layer conv0_blk
I0225 16:04:37.492455  9728 net.cpp:84] Creating Layer conv0_blk
I0225 16:04:37.492460  9728 net.cpp:406] conv0_blk <- BatchNorm1
I0225 16:04:37.492473  9728 net.cpp:380] conv0_blk -> conv0_blk
I0225 16:04:37.499716  9728 net.cpp:122] Setting up conv0_blk
I0225 16:04:37.499733  9728 net.cpp:129] Top shape: 1 196 26 74 (377104)
I0225 16:04:37.499738  9728 net.cpp:137] Memory required for data: 305584860
I0225 16:04:37.499745  9728 layer_factory.hpp:77] Creating layer pool0
I0225 16:04:37.499758  9728 net.cpp:84] Creating Layer pool0
I0225 16:04:37.499763  9728 net.cpp:406] pool0 <- conv0_blk
I0225 16:04:37.499770  9728 net.cpp:380] pool0 -> pool0
I0225 16:04:37.500105  9728 net.cpp:122] Setting up pool0
I0225 16:04:37.500115  9728 net.cpp:129] Top shape: 1 196 13 37 (94276)
I0225 16:04:37.500120  9728 net.cpp:137] Memory required for data: 305961964
I0225 16:04:37.500124  9728 layer_factory.hpp:77] Creating layer pool0_pool0_0_split
I0225 16:04:37.500134  9728 net.cpp:84] Creating Layer pool0_pool0_0_split
I0225 16:04:37.500139  9728 net.cpp:406] pool0_pool0_0_split <- pool0
I0225 16:04:37.500145  9728 net.cpp:380] pool0_pool0_0_split -> pool0_pool0_0_split_0
I0225 16:04:37.500154  9728 net.cpp:380] pool0_pool0_0_split -> pool0_pool0_0_split_1
I0225 16:04:37.500238  9728 net.cpp:122] Setting up pool0_pool0_0_split
I0225 16:04:37.500246  9728 net.cpp:129] Top shape: 1 196 13 37 (94276)
I0225 16:04:37.500250  9728 net.cpp:129] Top shape: 1 196 13 37 (94276)
I0225 16:04:37.500254  9728 net.cpp:137] Memory required for data: 306716172
I0225 16:04:37.500258  9728 layer_factory.hpp:77] Creating layer conv1_0/bn
I0225 16:04:37.500268  9728 net.cpp:84] Creating Layer conv1_0/bn
I0225 16:04:37.500273  9728 net.cpp:406] conv1_0/bn <- pool0_pool0_0_split_0
I0225 16:04:37.500279  9728 net.cpp:380] conv1_0/bn -> conv1_0/bn
I0225 16:04:37.500838  9728 net.cpp:122] Setting up conv1_0/bn
I0225 16:04:37.500846  9728 net.cpp:129] Top shape: 1 196 13 37 (94276)
I0225 16:04:37.500850  9728 net.cpp:137] Memory required for data: 307093276
I0225 16:04:37.500859  9728 layer_factory.hpp:77] Creating layer conv1_0/scale
I0225 16:04:37.500870  9728 net.cpp:84] Creating Layer conv1_0/scale
I0225 16:04:37.500875  9728 net.cpp:406] conv1_0/scale <- conv1_0/bn
I0225 16:04:37.500881  9728 net.cpp:367] conv1_0/scale -> conv1_0/bn (in-place)
I0225 16:04:37.500967  9728 layer_factory.hpp:77] Creating layer conv1_0/scale
I0225 16:04:37.501250  9728 net.cpp:122] Setting up conv1_0/scale
I0225 16:04:37.501258  9728 net.cpp:129] Top shape: 1 196 13 37 (94276)
I0225 16:04:37.501262  9728 net.cpp:137] Memory required for data: 307470380
I0225 16:04:37.501269  9728 layer_factory.hpp:77] Creating layer relu1_0
I0225 16:04:37.501276  9728 net.cpp:84] Creating Layer relu1_0
I0225 16:04:37.501281  9728 net.cpp:406] relu1_0 <- conv1_0/bn
I0225 16:04:37.501286  9728 net.cpp:367] relu1_0 -> conv1_0/bn (in-place)
I0225 16:04:37.502673  9728 net.cpp:122] Setting up relu1_0
I0225 16:04:37.502688  9728 net.cpp:129] Top shape: 1 196 13 37 (94276)
I0225 16:04:37.502692  9728 net.cpp:137] Memory required for data: 307847484
I0225 16:04:37.502697  9728 layer_factory.hpp:77] Creating layer conv1_0
I0225 16:04:37.502722  9728 net.cpp:84] Creating Layer conv1_0
I0225 16:04:37.502727  9728 net.cpp:406] conv1_0 <- conv1_0/bn
I0225 16:04:37.502737  9728 net.cpp:380] conv1_0 -> conv1_0
I0225 16:04:37.505858  9728 net.cpp:122] Setting up conv1_0
I0225 16:04:37.505875  9728 net.cpp:129] Top shape: 1 12 13 37 (5772)
I0225 16:04:37.505879  9728 net.cpp:137] Memory required for data: 307870572
I0225 16:04:37.505887  9728 layer_factory.hpp:77] Creating layer concat1_0
I0225 16:04:37.505901  9728 net.cpp:84] Creating Layer concat1_0
I0225 16:04:37.505906  9728 net.cpp:406] concat1_0 <- pool0_pool0_0_split_1
I0225 16:04:37.505913  9728 net.cpp:406] concat1_0 <- conv1_0
I0225 16:04:37.505920  9728 net.cpp:380] concat1_0 -> concat1_0
I0225 16:04:37.505975  9728 net.cpp:122] Setting up concat1_0
I0225 16:04:37.505982  9728 net.cpp:129] Top shape: 1 208 13 37 (100048)
I0225 16:04:37.505986  9728 net.cpp:137] Memory required for data: 308270764
I0225 16:04:37.505990  9728 layer_factory.hpp:77] Creating layer concat1_0_concat1_0_0_split
I0225 16:04:37.506000  9728 net.cpp:84] Creating Layer concat1_0_concat1_0_0_split
I0225 16:04:37.506005  9728 net.cpp:406] concat1_0_concat1_0_0_split <- concat1_0
I0225 16:04:37.506012  9728 net.cpp:380] concat1_0_concat1_0_0_split -> concat1_0_concat1_0_0_split_0
I0225 16:04:37.506019  9728 net.cpp:380] concat1_0_concat1_0_0_split -> concat1_0_concat1_0_0_split_1
I0225 16:04:37.506096  9728 net.cpp:122] Setting up concat1_0_concat1_0_0_split
I0225 16:04:37.506103  9728 net.cpp:129] Top shape: 1 208 13 37 (100048)
I0225 16:04:37.506108  9728 net.cpp:129] Top shape: 1 208 13 37 (100048)
I0225 16:04:37.506111  9728 net.cpp:137] Memory required for data: 309071148
I0225 16:04:37.506115  9728 layer_factory.hpp:77] Creating layer conv1_1/bn
I0225 16:04:37.506124  9728 net.cpp:84] Creating Layer conv1_1/bn
I0225 16:04:37.506129  9728 net.cpp:406] conv1_1/bn <- concat1_0_concat1_0_0_split_0
I0225 16:04:37.506137  9728 net.cpp:380] conv1_1/bn -> conv1_1/bn
I0225 16:04:37.506628  9728 net.cpp:122] Setting up conv1_1/bn
I0225 16:04:37.506639  9728 net.cpp:129] Top shape: 1 208 13 37 (100048)
I0225 16:04:37.506644  9728 net.cpp:137] Memory required for data: 309471340
I0225 16:04:37.506654  9728 layer_factory.hpp:77] Creating layer conv1_1/scale
I0225 16:04:37.506661  9728 net.cpp:84] Creating Layer conv1_1/scale
I0225 16:04:37.506666  9728 net.cpp:406] conv1_1/scale <- conv1_1/bn
I0225 16:04:37.506675  9728 net.cpp:367] conv1_1/scale -> conv1_1/bn (in-place)
I0225 16:04:37.506759  9728 layer_factory.hpp:77] Creating layer conv1_1/scale
I0225 16:04:37.507031  9728 net.cpp:122] Setting up conv1_1/scale
I0225 16:04:37.507040  9728 net.cpp:129] Top shape: 1 208 13 37 (100048)
I0225 16:04:37.507045  9728 net.cpp:137] Memory required for data: 309871532
I0225 16:04:37.507051  9728 layer_factory.hpp:77] Creating layer relu1_1
I0225 16:04:37.507059  9728 net.cpp:84] Creating Layer relu1_1
I0225 16:04:37.507063  9728 net.cpp:406] relu1_1 <- conv1_1/bn
I0225 16:04:37.507071  9728 net.cpp:367] relu1_1 -> conv1_1/bn (in-place)
I0225 16:04:37.507336  9728 net.cpp:122] Setting up relu1_1
I0225 16:04:37.507345  9728 net.cpp:129] Top shape: 1 208 13 37 (100048)
I0225 16:04:37.507349  9728 net.cpp:137] Memory required for data: 310271724
I0225 16:04:37.507354  9728 layer_factory.hpp:77] Creating layer conv1_1
I0225 16:04:37.507367  9728 net.cpp:84] Creating Layer conv1_1
I0225 16:04:37.507372  9728 net.cpp:406] conv1_1 <- conv1_1/bn
I0225 16:04:37.507381  9728 net.cpp:380] conv1_1 -> conv1_1
I0225 16:04:37.510566  9728 net.cpp:122] Setting up conv1_1
I0225 16:04:37.510583  9728 net.cpp:129] Top shape: 1 12 13 37 (5772)
I0225 16:04:37.510587  9728 net.cpp:137] Memory required for data: 310294812
I0225 16:04:37.510596  9728 layer_factory.hpp:77] Creating layer concat1_1
I0225 16:04:37.510610  9728 net.cpp:84] Creating Layer concat1_1
I0225 16:04:37.510615  9728 net.cpp:406] concat1_1 <- concat1_0_concat1_0_0_split_1
I0225 16:04:37.510622  9728 net.cpp:406] concat1_1 <- conv1_1
I0225 16:04:37.510628  9728 net.cpp:380] concat1_1 -> concat1_1
I0225 16:04:37.510686  9728 net.cpp:122] Setting up concat1_1
I0225 16:04:37.510694  9728 net.cpp:129] Top shape: 1 220 13 37 (105820)
I0225 16:04:37.510697  9728 net.cpp:137] Memory required for data: 310718092
I0225 16:04:37.510701  9728 layer_factory.hpp:77] Creating layer concat1_1_concat1_1_0_split
I0225 16:04:37.510707  9728 net.cpp:84] Creating Layer concat1_1_concat1_1_0_split
I0225 16:04:37.510712  9728 net.cpp:406] concat1_1_concat1_1_0_split <- concat1_1
I0225 16:04:37.510725  9728 net.cpp:380] concat1_1_concat1_1_0_split -> concat1_1_concat1_1_0_split_0
I0225 16:04:37.510731  9728 net.cpp:380] concat1_1_concat1_1_0_split -> concat1_1_concat1_1_0_split_1
I0225 16:04:37.510810  9728 net.cpp:122] Setting up concat1_1_concat1_1_0_split
I0225 16:04:37.510818  9728 net.cpp:129] Top shape: 1 220 13 37 (105820)
I0225 16:04:37.510823  9728 net.cpp:129] Top shape: 1 220 13 37 (105820)
I0225 16:04:37.510825  9728 net.cpp:137] Memory required for data: 311564652
I0225 16:04:37.510829  9728 layer_factory.hpp:77] Creating layer conv1_2/bn
I0225 16:04:37.510838  9728 net.cpp:84] Creating Layer conv1_2/bn
I0225 16:04:37.510843  9728 net.cpp:406] conv1_2/bn <- concat1_1_concat1_1_0_split_0
I0225 16:04:37.510852  9728 net.cpp:380] conv1_2/bn -> conv1_2/bn
I0225 16:04:37.511337  9728 net.cpp:122] Setting up conv1_2/bn
I0225 16:04:37.511344  9728 net.cpp:129] Top shape: 1 220 13 37 (105820)
I0225 16:04:37.511348  9728 net.cpp:137] Memory required for data: 311987932
I0225 16:04:37.511356  9728 layer_factory.hpp:77] Creating layer conv1_2/scale
I0225 16:04:37.511365  9728 net.cpp:84] Creating Layer conv1_2/scale
I0225 16:04:37.511370  9728 net.cpp:406] conv1_2/scale <- conv1_2/bn
I0225 16:04:37.511379  9728 net.cpp:367] conv1_2/scale -> conv1_2/bn (in-place)
I0225 16:04:37.511461  9728 layer_factory.hpp:77] Creating layer conv1_2/scale
I0225 16:04:37.511732  9728 net.cpp:122] Setting up conv1_2/scale
I0225 16:04:37.511741  9728 net.cpp:129] Top shape: 1 220 13 37 (105820)
I0225 16:04:37.511744  9728 net.cpp:137] Memory required for data: 312411212
I0225 16:04:37.511751  9728 layer_factory.hpp:77] Creating layer relu1_2
I0225 16:04:37.511759  9728 net.cpp:84] Creating Layer relu1_2
I0225 16:04:37.511764  9728 net.cpp:406] relu1_2 <- conv1_2/bn
I0225 16:04:37.511770  9728 net.cpp:367] relu1_2 -> conv1_2/bn (in-place)
I0225 16:04:37.512042  9728 net.cpp:122] Setting up relu1_2
I0225 16:04:37.512053  9728 net.cpp:129] Top shape: 1 220 13 37 (105820)
I0225 16:04:37.512056  9728 net.cpp:137] Memory required for data: 312834492
I0225 16:04:37.512061  9728 layer_factory.hpp:77] Creating layer conv1_2
I0225 16:04:37.512074  9728 net.cpp:84] Creating Layer conv1_2
I0225 16:04:37.512079  9728 net.cpp:406] conv1_2 <- conv1_2/bn
I0225 16:04:37.512086  9728 net.cpp:380] conv1_2 -> conv1_2
I0225 16:04:37.515204  9728 net.cpp:122] Setting up conv1_2
I0225 16:04:37.515220  9728 net.cpp:129] Top shape: 1 12 13 37 (5772)
I0225 16:04:37.515224  9728 net.cpp:137] Memory required for data: 312857580
I0225 16:04:37.515231  9728 layer_factory.hpp:77] Creating layer concat1_2
I0225 16:04:37.515241  9728 net.cpp:84] Creating Layer concat1_2
I0225 16:04:37.515247  9728 net.cpp:406] concat1_2 <- concat1_1_concat1_1_0_split_1
I0225 16:04:37.515254  9728 net.cpp:406] concat1_2 <- conv1_2
I0225 16:04:37.515261  9728 net.cpp:380] concat1_2 -> concat1_2
I0225 16:04:37.515316  9728 net.cpp:122] Setting up concat1_2
I0225 16:04:37.515321  9728 net.cpp:129] Top shape: 1 232 13 37 (111592)
I0225 16:04:37.515326  9728 net.cpp:137] Memory required for data: 313303948
I0225 16:04:37.515329  9728 layer_factory.hpp:77] Creating layer concat1_2_concat1_2_0_split
I0225 16:04:37.515336  9728 net.cpp:84] Creating Layer concat1_2_concat1_2_0_split
I0225 16:04:37.515339  9728 net.cpp:406] concat1_2_concat1_2_0_split <- concat1_2
I0225 16:04:37.515347  9728 net.cpp:380] concat1_2_concat1_2_0_split -> concat1_2_concat1_2_0_split_0
I0225 16:04:37.515354  9728 net.cpp:380] concat1_2_concat1_2_0_split -> concat1_2_concat1_2_0_split_1
I0225 16:04:37.515429  9728 net.cpp:122] Setting up concat1_2_concat1_2_0_split
I0225 16:04:37.515434  9728 net.cpp:129] Top shape: 1 232 13 37 (111592)
I0225 16:04:37.515439  9728 net.cpp:129] Top shape: 1 232 13 37 (111592)
I0225 16:04:37.515442  9728 net.cpp:137] Memory required for data: 314196684
I0225 16:04:37.515446  9728 layer_factory.hpp:77] Creating layer conv1_3/bn
I0225 16:04:37.515455  9728 net.cpp:84] Creating Layer conv1_3/bn
I0225 16:04:37.515462  9728 net.cpp:406] conv1_3/bn <- concat1_2_concat1_2_0_split_0
I0225 16:04:37.515471  9728 net.cpp:380] conv1_3/bn -> conv1_3/bn
I0225 16:04:37.515947  9728 net.cpp:122] Setting up conv1_3/bn
I0225 16:04:37.515955  9728 net.cpp:129] Top shape: 1 232 13 37 (111592)
I0225 16:04:37.515959  9728 net.cpp:137] Memory required for data: 314643052
I0225 16:04:37.515967  9728 layer_factory.hpp:77] Creating layer conv1_3/scale
I0225 16:04:37.515975  9728 net.cpp:84] Creating Layer conv1_3/scale
…
I0225 16:04:40.533699  9728 net.cpp:122] Setting up relu1_46
I0225 16:04:40.533717  9728 net.cpp:129] Top shape: 1 748 17 35 (445060)
I0225 16:04:40.533725  9728 net.cpp:137] Memory required for data: 696059568
I0225 16:04:40.533731  9728 layer_factory.hpp:77] Creating layer conv1_46
I0225 16:04:40.533752  9728 net.cpp:84] Creating Layer conv1_46
I0225 16:04:40.533761  9728 net.cpp:406] conv1_46 <- conv1_46/bn
I0225 16:04:40.533777  9728 net.cpp:380] conv1_46 -> conv1_46
I0225 16:04:40.545260  9728 net.cpp:122] Setting up conv1_46
I0225 16:04:40.545289  9728 net.cpp:129] Top shape: 1 12 17 35 (7140)
I0225 16:04:40.545297  9728 net.cpp:137] Memory required for data: 696088128
I0225 16:04:40.545310  9728 layer_factory.hpp:77] Creating layer concat1_46
I0225 16:04:40.545322  9728 net.cpp:84] Creating Layer concat1_46
I0225 16:04:40.545331  9728 net.cpp:406] concat1_46 <- concat1_45_concat1_45_0_split_1
I0225 16:04:40.545341  9728 net.cpp:406] concat1_46 <- conv1_46
I0225 16:04:40.545361  9728 net.cpp:380] concat1_46 -> concat1_46
I0225 16:04:40.545470  9728 net.cpp:122] Setting up concat1_46
I0225 16:04:40.545481  9728 net.cpp:129] Top shape: 1 760 17 35 (452200)
I0225 16:04:40.545487  9728 net.cpp:137] Memory required for data: 697896928
I0225 16:04:40.545493  9728 layer_factory.hpp:77] Creating layer concat1_46_concat1_46_0_split
I0225 16:04:40.545503  9728 net.cpp:84] Creating Layer concat1_46_concat1_46_0_split
I0225 16:04:40.545511  9728 net.cpp:406] concat1_46_concat1_46_0_split <- concat1_46
I0225 16:04:40.545523  9728 net.cpp:380] concat1_46_concat1_46_0_split -> concat1_46_concat1_46_0_split_0
I0225 16:04:40.545536  9728 net.cpp:380] concat1_46_concat1_46_0_split -> concat1_46_concat1_46_0_split_1
I0225 16:04:40.545680  9728 net.cpp:122] Setting up concat1_46_concat1_46_0_split
I0225 16:04:40.545692  9728 net.cpp:129] Top shape: 1 760 17 35 (452200)
I0225 16:04:40.545701  9728 net.cpp:129] Top shape: 1 760 17 35 (452200)
I0225 16:04:40.545706  9728 net.cpp:137] Memory required for data: 701514528
I0225 16:04:40.545712  9728 layer_factory.hpp:77] Creating layer conv1_47/bn
I0225 16:04:40.545722  9728 net.cpp:84] Creating Layer conv1_47/bn
I0225 16:04:40.545729  9728 net.cpp:406] conv1_47/bn <- concat1_46_concat1_46_0_split_0
I0225 16:04:40.545742  9728 net.cpp:380] conv1_47/bn -> conv1_47/bn
I0225 16:04:40.546756  9728 net.cpp:122] Setting up conv1_47/bn
I0225 16:04:40.546768  9728 net.cpp:129] Top shape: 1 760 17 35 (452200)
I0225 16:04:40.546774  9728 net.cpp:137] Memory required for data: 703323328
I0225 16:04:40.546792  9728 layer_factory.hpp:77] Creating layer conv1_47/scale
I0225 16:04:40.546804  9728 net.cpp:84] Creating Layer conv1_47/scale
I0225 16:04:40.546814  9728 net.cpp:406] conv1_47/scale <- conv1_47/bn
I0225 16:04:40.546824  9728 net.cpp:367] conv1_47/scale -> conv1_47/bn (in-place)
I0225 16:04:40.547013  9728 layer_factory.hpp:77] Creating layer conv1_47/scale
I0225 16:04:40.547586  9728 net.cpp:122] Setting up conv1_47/scale
I0225 16:04:40.547600  9728 net.cpp:129] Top shape: 1 760 17 35 (452200)
I0225 16:04:40.547606  9728 net.cpp:137] Memory required for data: 705132128
I0225 16:04:40.547617  9728 layer_factory.hpp:77] Creating layer relu1_47
I0225 16:04:40.547628  9728 net.cpp:84] Creating Layer relu1_47
I0225 16:04:40.547636  9728 net.cpp:406] relu1_47 <- conv1_47/bn
I0225 16:04:40.547644  9728 net.cpp:367] relu1_47 -> conv1_47/bn (in-place)
I0225 16:04:40.548182  9728 net.cpp:122] Setting up relu1_47
I0225 16:04:40.548198  9728 net.cpp:129] Top shape: 1 760 17 35 (452200)
I0225 16:04:40.548205  9728 net.cpp:137] Memory required for data: 706940928
I0225 16:04:40.548211  9728 layer_factory.hpp:77] Creating layer conv1_47
I0225 16:04:40.548233  9728 net.cpp:84] Creating Layer conv1_47
I0225 16:04:40.548241  9728 net.cpp:406] conv1_47 <- conv1_47/bn
I0225 16:04:40.548254  9728 net.cpp:380] conv1_47 -> conv1_47
I0225 16:04:40.558786  9728 net.cpp:122] Setting up conv1_47
I0225 16:04:40.558810  9728 net.cpp:129] Top shape: 1 12 17 35 (7140)
I0225 16:04:40.558816  9728 net.cpp:137] Memory required for data: 706969488
I0225 16:04:40.558827  9728 layer_factory.hpp:77] Creating layer concat1_47
I0225 16:04:40.558840  9728 net.cpp:84] Creating Layer concat1_47
I0225 16:04:40.558848  9728 net.cpp:406] concat1_47 <- concat1_46_concat1_46_0_split_1
I0225 16:04:40.558857  9728 net.cpp:406] concat1_47 <- conv1_47
I0225 16:04:40.558871  9728 net.cpp:380] concat1_47 -> concat1_47
I0225 16:04:40.558969  9728 net.cpp:122] Setting up concat1_47
I0225 16:04:40.558979  9728 net.cpp:129] Top shape: 1 772 17 35 (459340)
I0225 16:04:40.558984  9728 net.cpp:137] Memory required for data: 708806848
I0225 16:04:40.558990  9728 layer_factory.hpp:77] Creating layer concat1_47_concat1_47_0_split
I0225 16:04:40.559002  9728 net.cpp:84] Creating Layer concat1_47_concat1_47_0_split
I0225 16:04:40.559008  9728 net.cpp:406] concat1_47_concat1_47_0_split <- concat1_47
I0225 16:04:40.559017  9728 net.cpp:380] concat1_47_concat1_47_0_split -> concat1_47_concat1_47_0_split_0
I0225 16:04:40.559033  9728 net.cpp:380] concat1_47_concat1_47_0_split -> concat1_47_concat1_47_0_split_1
I0225 16:04:40.559165  9728 net.cpp:122] Setting up concat1_47_concat1_47_0_split
I0225 16:04:40.559176  9728 net.cpp:129] Top shape: 1 772 17 35 (459340)
I0225 16:04:40.559183  9728 net.cpp:129] Top shape: 1 772 17 35 (459340)
I0225 16:04:40.559190  9728 net.cpp:137] Memory required for data: 712481568
I0225 16:04:40.559195  9728 layer_factory.hpp:77] Creating layer conv1_48/bn
I0225 16:04:40.559206  9728 net.cpp:84] Creating Layer conv1_48/bn
I0225 16:04:40.559213  9728 net.cpp:406] conv1_48/bn <- concat1_47_concat1_47_0_split_0
I0225 16:04:40.559222  9728 net.cpp:380] conv1_48/bn -> conv1_48/bn
I0225 16:04:40.560178  9728 net.cpp:122] Setting up conv1_48/bn
I0225 16:04:40.560190  9728 net.cpp:129] Top shape: 1 772 17 35 (459340)
I0225 16:04:40.560196  9728 net.cpp:137] Memory required for data: 714318928
I0225 16:04:40.560210  9728 layer_factory.hpp:77] Creating layer conv1_48/scale
I0225 16:04:40.560225  9728 net.cpp:84] Creating Layer conv1_48/scale
I0225 16:04:40.560232  9728 net.cpp:406] conv1_48/scale <- conv1_48/bn
I0225 16:04:40.560241  9728 net.cpp:367] conv1_48/scale -> conv1_48/bn (in-place)
I0225 16:04:40.560418  9728 layer_factory.hpp:77] Creating layer conv1_48/scale
I0225 16:04:40.560989  9728 net.cpp:122] Setting up conv1_48/scale
I0225 16:04:40.561003  9728 net.cpp:129] Top shape: 1 772 17 35 (459340)
I0225 16:04:40.561009  9728 net.cpp:137] Memory required for data: 716156288
I0225 16:04:40.561019  9728 layer_factory.hpp:77] Creating layer relu1_48
I0225 16:04:40.561029  9728 net.cpp:84] Creating Layer relu1_48
I0225 16:04:40.561038  9728 net.cpp:406] relu1_48 <- conv1_48/bn
I0225 16:04:40.561044  9728 net.cpp:367] relu1_48 -> conv1_48/bn (in-place)
I0225 16:04:40.563231  9728 net.cpp:122] Setting up relu1_48
I0225 16:04:40.563253  9728 net.cpp:129] Top shape: 1 772 17 35 (459340)
I0225 16:04:40.563259  9728 net.cpp:137] Memory required for data: 717993648
I0225 16:04:40.563266  9728 layer_factory.hpp:77] Creating layer conv1_48
I0225 16:04:40.563285  9728 net.cpp:84] Creating Layer conv1_48
I0225 16:04:40.563294  9728 net.cpp:406] conv1_48 <- conv1_48/bn
I0225 16:04:40.563309  9728 net.cpp:380] conv1_48 -> conv1_48
I0225 16:04:40.573032  9728 net.cpp:122] Setting up conv1_48
I0225 16:04:40.573055  9728 net.cpp:129] Top shape: 1 12 17 35 (7140)
I0225 16:04:40.573061  9728 net.cpp:137] Memory required for data: 718022208
I0225 16:04:40.573071  9728 layer_factory.hpp:77] Creating layer concat1_48
I0225 16:04:40.573086  9728 net.cpp:84] Creating Layer concat1_48
I0225 16:04:40.573093  9728 net.cpp:406] concat1_48 <- concat1_47_concat1_47_0_split_1
I0225 16:04:40.573102  9728 net.cpp:406] concat1_48 <- conv1_48
I0225 16:04:40.573112  9728 net.cpp:380] concat1_48 -> concat1_48
I0225 16:04:40.573204  9728 net.cpp:122] Setting up concat1_48
I0225 16:04:40.573217  9728 net.cpp:129] Top shape: 1 784 17 35 (466480)
I0225 16:04:40.573222  9728 net.cpp:137] Memory required for data: 719888128
I0225 16:04:40.573228  9728 layer_factory.hpp:77] Creating layer concat1_48_concat1_48_0_split
I0225 16:04:40.573236  9728 net.cpp:84] Creating Layer concat1_48_concat1_48_0_split
I0225 16:04:40.573242  9728 net.cpp:406] concat1_48_concat1_48_0_split <- concat1_48
I0225 16:04:40.573251  9728 net.cpp:380] concat1_48_concat1_48_0_split -> concat1_48_concat1_48_0_split_0
I0225 16:04:40.573261  9728 net.cpp:380] concat1_48_concat1_48_0_split -> concat1_48_concat1_48_0_split_1
I0225 16:04:40.573385  9728 net.cpp:122] Setting up concat1_48_concat1_48_0_split
I0225 16:04:40.573395  9728 net.cpp:129] Top shape: 1 784 17 35 (466480)
I0225 16:04:40.573401  9728 net.cpp:129] Top shape: 1 784 17 35 (466480)
I0225 16:04:40.573406  9728 net.cpp:137] Memory required for data: 723619968
I0225 16:04:40.573411  9728 layer_factory.hpp:77] Creating layer conv1_49/bn
I0225 16:04:40.573423  9728 net.cpp:84] Creating Layer conv1_49/bn
I0225 16:04:40.573429  9728 net.cpp:406] conv1_49/bn <- concat1_48_concat1_48_0_split_0
I0225 16:04:40.573442  9728 net.cpp:380] conv1_49/bn -> conv1_49/bn
I0225 16:04:40.574347  9728 net.cpp:122] Setting up conv1_49/bn
I0225 16:04:40.574359  9728 net.cpp:129] Top shape: 1 784 17 35 (466480)
I0225 16:04:40.574364  9728 net.cpp:137] Memory required for data: 725485888
I0225 16:04:40.574376  9728 layer_factory.hpp:77] Creating layer conv1_49/scale
I0225 16:04:40.574390  9728 net.cpp:84] Creating Layer conv1_49/scale
I0225 16:04:40.574398  9728 net.cpp:406] conv1_49/scale <- conv1_49/bn
I0225 16:04:40.574409  9728 net.cpp:367] conv1_49/scale -> conv1_49/bn (in-place)
I0225 16:04:40.574573  9728 layer_factory.hpp:77] Creating layer conv1_49/scale
I0225 16:04:40.575093  9728 net.cpp:122] Setting up conv1_49/scale
I0225 16:04:40.575105  9728 net.cpp:129] Top shape: 1 784 17 35 (466480)
I0225 16:04:40.575110  9728 net.cpp:137] Memory required for data: 727351808
I0225 16:04:40.575120  9728 layer_factory.hpp:77] Creating layer relu1_49
I0225 16:04:40.575130  9728 net.cpp:84] Creating Layer relu1_49
I0225 16:04:40.575136  9728 net.cpp:406] relu1_49 <- conv1_49/bn
I0225 16:04:40.575145  9728 net.cpp:367] relu1_49 -> conv1_49/bn (in-place)
I0225 16:04:40.575628  9728 net.cpp:122] Setting up relu1_49
I0225 16:04:40.575642  9728 net.cpp:129] Top shape: 1 784 17 35 (466480)
I0225 16:04:40.575649  9728 net.cpp:137] Memory required for data: 729217728
I0225 16:04:40.575654  9728 layer_factory.hpp:77] Creating layer conv1_49
I0225 16:04:40.575671  9728 net.cpp:84] Creating Layer conv1_49
I0225 16:04:40.575681  9728 net.cpp:406] conv1_49 <- conv1_49/bn
I0225 16:04:40.575691  9728 net.cpp:380] conv1_49 -> conv1_49
I0225 16:04:40.584961  9728 net.cpp:122] Setting up conv1_49
I0225 16:04:40.584982  9728 net.cpp:129] Top shape: 1 12 17 35 (7140)
I0225 16:04:40.584988  9728 net.cpp:137] Memory required for data: 729246288
I0225 16:04:40.584998  9728 layer_factory.hpp:77] Creating layer concat1_49
I0225 16:04:40.585008  9728 net.cpp:84] Creating Layer concat1_49
I0225 16:04:40.585016  9728 net.cpp:406] concat1_49 <- concat1_48_concat1_48_0_split_1
I0225 16:04:40.585024  9728 net.cpp:406] concat1_49 <- conv1_49
I0225 16:04:40.585036  9728 net.cpp:380] concat1_49 -> concat1_49
I0225 16:04:40.585124  9728 net.cpp:122] Setting up concat1_49
I0225 16:04:40.585134  9728 net.cpp:129] Top shape: 1 796 17 35 (473620)
I0225 16:04:40.585139  9728 net.cpp:137] Memory required for data: 731140768
I0225 16:04:40.585144  9728 layer_factory.hpp:77] Creating layer concat1_49_concat1_49_0_split
I0225 16:04:40.585151  9728 net.cpp:84] Creating Layer concat1_49_concat1_49_0_split
I0225 16:04:40.585156  9728 net.cpp:406] concat1_49_concat1_49_0_split <- concat1_49
I0225 16:04:40.585167  9728 net.cpp:380] concat1_49_concat1_49_0_split -> concat1_49_concat1_49_0_split_0
I0225 16:04:40.585176  9728 net.cpp:380] concat1_49_concat1_49_0_split -> concat1_49_concat1_49_0_split_1
I0225 16:04:40.585295  9728 net.cpp:122] Setting up concat1_49_concat1_49_0_split
I0225 16:04:40.585304  9728 net.cpp:129] Top shape: 1 796 17 35 (473620)
I0225 16:04:40.585311  9728 net.cpp:129] Top shape: 1 796 17 35 (473620)
I0225 16:04:40.585316  9728 net.cpp:137] Memory required for data: 734929728
I0225 16:04:40.585320  9728 layer_factory.hpp:77] Creating layer conv1_50/bn
I0225 16:04:40.585331  9728 net.cpp:84] Creating Layer conv1_50/bn
I0225 16:04:40.585337  9728 net.cpp:406] conv1_50/bn <- concat1_49_concat1_49_0_split_0
I0225 16:04:40.585345  9728 net.cpp:380] conv1_50/bn -> conv1_50/bn
I0225 16:04:40.586186  9728 net.cpp:122] Setting up conv1_50/bn
I0225 16:04:40.586197  9728 net.cpp:129] Top shape: 1 796 17 35 (473620)
I0225 16:04:40.586202  9728 net.cpp:137] Memory required for data: 736824208
I0225 16:04:40.586213  9728 layer_factory.hpp:77] Creating layer conv1_50/scale
I0225 16:04:40.586226  9728 net.cpp:84] Creating Layer conv1_50/scale
I0225 16:04:40.586233  9728 net.cpp:406] conv1_50/scale <- conv1_50/bn
I0225 16:04:40.586241  9728 net.cpp:367] conv1_50/scale -> conv1_50/bn (in-place)
I0225 16:04:40.586400  9728 layer_factory.hpp:77] Creating layer conv1_50/scale
I0225 16:04:40.586901  9728 net.cpp:122] Setting up conv1_50/scale
I0225 16:04:40.586913  9728 net.cpp:129] Top shape: 1 796 17 35 (473620)
I0225 16:04:40.586920  9728 net.cpp:137] Memory required for data: 738718688
I0225 16:04:40.586928  9728 layer_factory.hpp:77] Creating layer relu1_50
I0225 16:04:40.586940  9728 net.cpp:84] Creating Layer relu1_50
I0225 16:04:40.586946  9728 net.cpp:406] relu1_50 <- conv1_50/bn
I0225 16:04:40.586952  9728 net.cpp:367] relu1_50 -> conv1_50/bn (in-place)
I0225 16:04:40.587414  9728 net.cpp:122] Setting up relu1_50
I0225 16:04:40.587429  9728 net.cpp:129] Top shape: 1 796 17 35 (473620)
I0225 16:04:40.587435  9728 net.cpp:137] Memory required for data: 740613168
I0225 16:04:40.587440  9728 layer_factory.hpp:77] Creating layer conv1_50
I0225 16:04:40.587455  9728 net.cpp:84] Creating Layer conv1_50
I0225 16:04:40.587462  9728 net.cpp:406] conv1_50 <- conv1_50/bn
I0225 16:04:40.587471  9728 net.cpp:380] conv1_50 -> conv1_50
I0225 16:04:40.596273  9728 net.cpp:122] Setting up conv1_50
I0225 16:04:40.596293  9728 net.cpp:129] Top shape: 1 12 17 35 (7140)
I0225 16:04:40.596298  9728 net.cpp:137] Memory required for data: 740641728
I0225 16:04:40.596308  9728 layer_factory.hpp:77] Creating layer concat1_50
I0225 16:04:40.596318  9728 net.cpp:84] Creating Layer concat1_50
I0225 16:04:40.596325  9728 net.cpp:406] concat1_50 <- concat1_49_concat1_49_0_split_1
I0225 16:04:40.596333  9728 net.cpp:406] concat1_50 <- conv1_50
I0225 16:04:40.596344  9728 net.cpp:380] concat1_50 -> concat1_50
I0225 16:04:40.596429  9728 net.cpp:122] Setting up concat1_50
I0225 16:04:40.596438  9728 net.cpp:129] Top shape: 1 808 17 35 (480760)
I0225 16:04:40.596443  9728 net.cpp:137] Memory required for data: 742564768
I0225 16:04:40.596447  9728 layer_factory.hpp:77] Creating layer concat1_50_concat1_50_0_split
I0225 16:04:40.596457  9728 net.cpp:84] Creating Layer concat1_50_concat1_50_0_split
I0225 16:04:40.596463  9728 net.cpp:406] concat1_50_concat1_50_0_split <- concat1_50
I0225 16:04:40.596472  9728 net.cpp:380] concat1_50_concat1_50_0_split -> concat1_50_concat1_50_0_split_0
I0225 16:04:40.596480  9728 net.cpp:380] concat1_50_concat1_50_0_split -> concat1_50_concat1_50_0_split_1
I0225 16:04:40.596593  9728 net.cpp:122] Setting up concat1_50_concat1_50_0_split
I0225 16:04:40.596602  9728 net.cpp:129] Top shape: 1 808 17 35 (480760)
I0225 16:04:40.596608  9728 net.cpp:129] Top shape: 1 808 17 35 (480760)
I0225 16:04:40.596613  9728 net.cpp:137] Memory required for data: 746410848
I0225 16:04:40.596617  9728 layer_factory.hpp:77] Creating layer conv1_51/bn
I0225 16:04:40.596649  9728 net.cpp:84] Creating Layer conv1_51/bn
I0225 16:04:40.596655  9728 net.cpp:406] conv1_51/bn <- concat1_50_concat1_50_0_split_0
I0225 16:04:40.596665  9728 net.cpp:380] conv1_51/bn -> conv1_51/bn
I0225 16:04:40.597472  9728 net.cpp:122] Setting up conv1_51/bn
I0225 16:04:40.597483  9728 net.cpp:129] Top shape: 1 808 17 35 (480760)
I0225 16:04:40.597488  9728 net.cpp:137] Memory required for data: 748333888
I0225 16:04:40.597499  9728 layer_factory.hpp:77] Creating layer conv1_51/scale
I0225 16:04:40.597512  9728 net.cpp:84] Creating Layer conv1_51/scale
I0225 16:04:40.597518  9728 net.cpp:406] conv1_51/scale <- conv1_51/bn
I0225 16:04:40.597525  9728 net.cpp:367] conv1_51/scale -> conv1_51/bn (in-place)
I0225 16:04:40.597676  9728 layer_factory.hpp:77] Creating layer conv1_51/scale
I0225 16:04:40.598155  9728 net.cpp:122] Setting up conv1_51/scale
I0225 16:04:40.598165  9728 net.cpp:129] Top shape: 1 808 17 35 (480760)
I0225 16:04:40.598170  9728 net.cpp:137] Memory required for data: 750256928
I0225 16:04:40.598179  9728 layer_factory.hpp:77] Creating layer relu1_51
I0225 16:04:40.598187  9728 net.cpp:84] Creating Layer relu1_51
I0225 16:04:40.598193  9728 net.cpp:406] relu1_51 <- conv1_51/bn
I0225 16:04:40.598204  9728 net.cpp:367] relu1_51 -> conv1_51/bn (in-place)
I0225 16:04:40.600039  9728 net.cpp:122] Setting up relu1_51
I0225 16:04:40.600057  9728 net.cpp:129] Top shape: 1 808 17 35 (480760)
I0225 16:04:40.600064  9728 net.cpp:137] Memory required for data: 752179968
I0225 16:04:40.600073  9728 layer_factory.hpp:77] Creating layer conv1_51
I0225 16:04:40.600090  9728 net.cpp:84] Creating Layer conv1_51
I0225 16:04:40.600097  9728 net.cpp:406] conv1_51 <- conv1_51/bn
I0225 16:04:40.600111  9728 net.cpp:380] conv1_51 -> conv1_51
I0225 16:04:40.610572  9728 net.cpp:122] Setting up conv1_51
I0225 16:04:40.610592  9728 net.cpp:129] Top shape: 1 12 17 35 (7140)
I0225 16:04:40.610597  9728 net.cpp:137] Memory required for data: 752208528
I0225 16:04:40.610605  9728 layer_factory.hpp:77] Creating layer concat1_51
I0225 16:04:40.610615  9728 net.cpp:84] Creating Layer concat1_51
I0225 16:04:40.610622  9728 net.cpp:406] concat1_51 <- concat1_50_concat1_50_0_split_1
I0225 16:04:40.610632  9728 net.cpp:406] concat1_51 <- conv1_51
I0225 16:04:40.610641  9728 net.cpp:380] concat1_51 -> concat1_51
I0225 16:04:40.610720  9728 net.cpp:122] Setting up concat1_51
I0225 16:04:40.610729  9728 net.cpp:129] Top shape: 1 820 17 35 (487900)
I0225 16:04:40.610734  9728 net.cpp:137] Memory required for data: 754160128
I0225 16:04:40.610738  9728 layer_factory.hpp:77] Creating layer concat1_51_concat1_51_0_split
I0225 16:04:40.610747  9728 net.cpp:84] Creating Layer concat1_51_concat1_51_0_split
I0225 16:04:40.610754  9728 net.cpp:406] concat1_51_concat1_51_0_split <- concat1_51
I0225 16:04:40.610760  9728 net.cpp:380] concat1_51_concat1_51_0_split -> concat1_51_concat1_51_0_split_0
I0225 16:04:40.610769  9728 net.cpp:380] concat1_51_concat1_51_0_split -> concat1_51_concat1_51_0_split_1
I0225 16:04:40.610877  9728 net.cpp:122] Setting up concat1_51_concat1_51_0_split
I0225 16:04:40.610885  9728 net.cpp:129] Top shape: 1 820 17 35 (487900)
I0225 16:04:40.610891  9728 net.cpp:129] Top shape: 1 820 17 35 (487900)
I0225 16:04:40.610895  9728 net.cpp:137] Memory required for data: 758063328
I0225 16:04:40.610899  9728 layer_factory.hpp:77] Creating layer conv1_52/bn
I0225 16:04:40.610913  9728 net.cpp:84] Creating Layer conv1_52/bn
I0225 16:04:40.610918  9728 net.cpp:406] conv1_52/bn <- concat1_51_concat1_51_0_split_0
I0225 16:04:40.610929  9728 net.cpp:380] conv1_52/bn -> conv1_52/bn
I0225 16:04:40.611706  9728 net.cpp:122] Setting up conv1_52/bn
I0225 16:04:40.611716  9728 net.cpp:129] Top shape: 1 820 17 35 (487900)
I0225 16:04:40.611721  9728 net.cpp:137] Memory required for data: 760014928
I0225 16:04:40.611730  9728 layer_factory.hpp:77] Creating layer conv1_52/scale
I0225 16:04:40.611743  9728 net.cpp:84] Creating Layer conv1_52/scale
I0225 16:04:40.611749  9728 net.cpp:406] conv1_52/scale <- conv1_52/bn
I0225 16:04:40.611757  9728 net.cpp:367] conv1_52/scale -> conv1_52/bn (in-place)
I0225 16:04:40.611901  9728 layer_factory.hpp:77] Creating layer conv1_52/scale
I0225 16:04:40.612365  9728 net.cpp:122] Setting up conv1_52/scale
I0225 16:04:40.612375  9728 net.cpp:129] Top shape: 1 820 17 35 (487900)
I0225 16:04:40.612380  9728 net.cpp:137] Memory required for data: 761966528
I0225 16:04:40.612388  9728 layer_factory.hpp:77] Creating layer relu1_52
I0225 16:04:40.612396  9728 net.cpp:84] Creating Layer relu1_52
I0225 16:04:40.612401  9728 net.cpp:406] relu1_52 <- conv1_52/bn
I0225 16:04:40.612411  9728 net.cpp:367] relu1_52 -> conv1_52/bn (in-place)
I0225 16:04:40.612828  9728 net.cpp:122] Setting up relu1_52
I0225 16:04:40.612839  9728 net.cpp:129] Top shape: 1 820 17 35 (487900)
I0225 16:04:40.612844  9728 net.cpp:137] Memory required for data: 763918128
I0225 16:04:40.612849  9728 layer_factory.hpp:77] Creating layer conv1_52
I0225 16:04:40.612864  9728 net.cpp:84] Creating Layer conv1_52
I0225 16:04:40.612869  9728 net.cpp:406] conv1_52 <- conv1_52/bn
I0225 16:04:40.612880  9728 net.cpp:380] conv1_52 -> conv1_52
I0225 16:04:40.620860  9728 net.cpp:122] Setting up conv1_52
I0225 16:04:40.620882  9728 net.cpp:129] Top shape: 1 12 17 35 (7140)
I0225 16:04:40.620887  9728 net.cpp:137] Memory required for data: 763946688
I0225 16:04:40.620894  9728 layer_factory.hpp:77] Creating layer concat1_52
I0225 16:04:40.620904  9728 net.cpp:84] Creating Layer concat1_52
I0225 16:04:40.620914  9728 net.cpp:406] concat1_52 <- concat1_51_concat1_51_0_split_1
I0225 16:04:40.620921  9728 net.cpp:406] concat1_52 <- conv1_52
I0225 16:04:40.620929  9728 net.cpp:380] concat1_52 -> concat1_52
I0225 16:04:40.621011  9728 net.cpp:122] Setting up concat1_52
I0225 16:04:40.621019  9728 net.cpp:129] Top shape: 1 832 17 35 (495040)
I0225 16:04:40.621023  9728 net.cpp:137] Memory required for data: 765926848
I0225 16:04:40.621027  9728 layer_factory.hpp:77] Creating layer concat1_52_concat1_52_0_split
I0225 16:04:40.621034  9728 net.cpp:84] Creating Layer concat1_52_concat1_52_0_split
I0225 16:04:40.621039  9728 net.cpp:406] concat1_52_concat1_52_0_split <- concat1_52
I0225 16:04:40.621045  9728 net.cpp:380] concat1_52_concat1_52_0_split -> concat1_52_concat1_52_0_split_0
I0225 16:04:40.621057  9728 net.cpp:380] concat1_52_concat1_52_0_split -> concat1_52_concat1_52_0_split_1
I0225 16:04:40.621161  9728 net.cpp:122] Setting up concat1_52_concat1_52_0_split
I0225 16:04:40.621170  9728 net.cpp:129] Top shape: 1 832 17 35 (495040)
I0225 16:04:40.621176  9728 net.cpp:129] Top shape: 1 832 17 35 (495040)
I0225 16:04:40.621181  9728 net.cpp:137] Memory required for data: 769887168
I0225 16:04:40.621184  9728 layer_factory.hpp:77] Creating layer conv1_53/bn
I0225 16:04:40.621191  9728 net.cpp:84] Creating Layer conv1_53/bn
I0225 16:04:40.621196  9728 net.cpp:406] conv1_53/bn <- concat1_52_concat1_52_0_split_0
I0225 16:04:40.621206  9728 net.cpp:380] conv1_53/bn -> conv1_53/bn
I0225 16:04:40.621940  9728 net.cpp:122] Setting up conv1_53/bn
I0225 16:04:40.621950  9728 net.cpp:129] Top shape: 1 832 17 35 (495040)
I0225 16:04:40.621954  9728 net.cpp:137] Memory required for data: 771867328
I0225 16:04:40.621994  9728 layer_factory.hpp:77] Creating layer conv1_53/scale
I0225 16:04:40.622021  9728 net.cpp:84] Creating Layer conv1_53/scale
I0225 16:04:40.622027  9728 net.cpp:406] conv1_53/scale <- conv1_53/bn
I0225 16:04:40.622035  9728 net.cpp:367] conv1_53/scale -> conv1_53/bn (in-place)
I0225 16:04:40.622174  9728 layer_factory.hpp:77] Creating layer conv1_53/scale
I0225 16:04:40.622627  9728 net.cpp:122] Setting up conv1_53/scale
I0225 16:04:40.622637  9728 net.cpp:129] Top shape: 1 832 17 35 (495040)
I0225 16:04:40.622642  9728 net.cpp:137] Memory required for data: 773847488
I0225 16:04:40.622650  9728 layer_factory.hpp:77] Creating layer relu1_53
I0225 16:04:40.622658  9728 net.cpp:84] Creating Layer relu1_53
I0225 16:04:40.622663  9728 net.cpp:406] relu1_53 <- conv1_53/bn
I0225 16:04:40.622669  9728 net.cpp:367] relu1_53 -> conv1_53/bn (in-place)
I0225 16:04:40.623059  9728 net.cpp:122] Setting up relu1_53
I0225 16:04:40.623070  9728 net.cpp:129] Top shape: 1 832 17 35 (495040)
I0225 16:04:40.623075  9728 net.cpp:137] Memory required for data: 775827648
I0225 16:04:40.623078  9728 layer_factory.hpp:77] Creating layer conv1_53
I0225 16:04:40.623095  9728 net.cpp:84] Creating Layer conv1_53
I0225 16:04:40.623100  9728 net.cpp:406] conv1_53 <- conv1_53/bn
I0225 16:04:40.623109  9728 net.cpp:380] conv1_53 -> conv1_53
I0225 16:04:40.630854  9728 net.cpp:122] Setting up conv1_53
I0225 16:04:40.630872  9728 net.cpp:129] Top shape: 1 12 17 35 (7140)
I0225 16:04:40.630877  9728 net.cpp:137] Memory required for data: 775856208
I0225 16:04:40.630885  9728 layer_factory.hpp:77] Creating layer concat1_53
I0225 16:04:40.630893  9728 net.cpp:84] Creating Layer concat1_53
I0225 16:04:40.630899  9728 net.cpp:406] concat1_53 <- concat1_52_concat1_52_0_split_1
I0225 16:04:40.630906  9728 net.cpp:406] concat1_53 <- conv1_53
I0225 16:04:40.630916  9728 net.cpp:380] concat1_53 -> concat1_53
I0225 16:04:40.630990  9728 net.cpp:122] Setting up concat1_53
I0225 16:04:40.630998  9728 net.cpp:129] Top shape: 1 844 17 35 (502180)
I0225 16:04:40.631002  9728 net.cpp:137] Memory required for data: 777864928
I0225 16:04:40.631006  9728 layer_factory.hpp:77] Creating layer concat1_53_concat1_53_0_split
I0225 16:04:40.631016  9728 net.cpp:84] Creating Layer concat1_53_concat1_53_0_split
I0225 16:04:40.631019  9728 net.cpp:406] concat1_53_concat1_53_0_split <- concat1_53
I0225 16:04:40.631031  9728 net.cpp:380] concat1_53_concat1_53_0_split -> concat1_53_concat1_53_0_split_0
I0225 16:04:40.631038  9728 net.cpp:380] concat1_53_concat1_53_0_split -> concat1_53_concat1_53_0_split_1
I0225 16:04:40.631142  9728 net.cpp:122] Setting up concat1_53_concat1_53_0_split
I0225 16:04:40.631150  9728 net.cpp:129] Top shape: 1 844 17 35 (502180)
I0225 16:04:40.631155  9728 net.cpp:129] Top shape: 1 844 17 35 (502180)
I0225 16:04:40.631160  9728 net.cpp:137] Memory required for data: 781882368
I0225 16:04:40.631163  9728 layer_factory.hpp:77] Creating layer conv1_54/bn
I0225 16:04:40.631172  9728 net.cpp:84] Creating Layer conv1_54/bn
I0225 16:04:40.631177  9728 net.cpp:406] conv1_54/bn <- concat1_53_concat1_53_0_split_0
I0225 16:04:40.631184  9728 net.cpp:380] conv1_54/bn -> conv1_54/bn
I0225 16:04:40.631899  9728 net.cpp:122] Setting up conv1_54/bn
I0225 16:04:40.631909  9728 net.cpp:129] Top shape: 1 844 17 35 (502180)
I0225 16:04:40.631913  9728 net.cpp:137] Memory required for data: 783891088
I0225 16:04:40.631922  9728 layer_factory.hpp:77] Creating layer conv1_54/scale
I0225 16:04:40.631933  9728 net.cpp:84] Creating Layer conv1_54/scale
I0225 16:04:40.631939  9728 net.cpp:406] conv1_54/scale <- conv1_54/bn
I0225 16:04:40.631947  9728 net.cpp:367] conv1_54/scale -> conv1_54/bn (in-place)
I0225 16:04:40.632079  9728 layer_factory.hpp:77] Creating layer conv1_54/scale
I0225 16:04:40.634487  9728 net.cpp:122] Setting up conv1_54/scale
I0225 16:04:40.634503  9728 net.cpp:129] Top shape: 1 844 17 35 (502180)
I0225 16:04:40.634507  9728 net.cpp:137] Memory required for data: 785899808
I0225 16:04:40.634516  9728 layer_factory.hpp:77] Creating layer relu1_54
I0225 16:04:40.634527  9728 net.cpp:84] Creating Layer relu1_54
I0225 16:04:40.634533  9728 net.cpp:406] relu1_54 <- conv1_54/bn
I0225 16:04:40.634541  9728 net.cpp:367] relu1_54 -> conv1_54/bn (in-place)
I0225 16:04:40.634933  9728 net.cpp:122] Setting up relu1_54
I0225 16:04:40.634944  9728 net.cpp:129] Top shape: 1 844 17 35 (502180)
I0225 16:04:40.634948  9728 net.cpp:137] Memory required for data: 787908528
I0225 16:04:40.634953  9728 layer_factory.hpp:77] Creating layer conv1_54
I0225 16:04:40.634968  9728 net.cpp:84] Creating Layer conv1_54
I0225 16:04:40.634974  9728 net.cpp:406] conv1_54 <- conv1_54/bn
I0225 16:04:40.634984  9728 net.cpp:380] conv1_54 -> conv1_54
I0225 16:04:40.642402  9728 net.cpp:122] Setting up conv1_54
I0225 16:04:40.642422  9728 net.cpp:129] Top shape: 1 12 17 35 (7140)
I0225 16:04:40.642426  9728 net.cpp:137] Memory required for data: 787937088
I0225 16:04:40.642434  9728 layer_factory.hpp:77] Creating layer concat1_54
I0225 16:04:40.642442  9728 net.cpp:84] Creating Layer concat1_54
I0225 16:04:40.642448  9728 net.cpp:406] concat1_54 <- concat1_53_concat1_53_0_split_1
I0225 16:04:40.642455  9728 net.cpp:406] concat1_54 <- conv1_54
I0225 16:04:40.642462  9728 net.cpp:380] concat1_54 -> concat1_54
I0225 16:04:40.642537  9728 net.cpp:122] Setting up concat1_54
I0225 16:04:40.642545  9728 net.cpp:129] Top shape: 1 856 17 35 (509320)
I0225 16:04:40.642549  9728 net.cpp:137] Memory required for data: 789974368
I0225 16:04:40.642554  9728 layer_factory.hpp:77] Creating layer concat1_54_concat1_54_0_split
I0225 16:04:40.642560  9728 net.cpp:84] Creating Layer concat1_54_concat1_54_0_split
I0225 16:04:40.642565  9728 net.cpp:406] concat1_54_concat1_54_0_split <- concat1_54
I0225 16:04:40.642570  9728 net.cpp:380] concat1_54_concat1_54_0_split -> concat1_54_concat1_54_0_split_0
I0225 16:04:40.642580  9728 net.cpp:380] concat1_54_concat1_54_0_split -> concat1_54_concat1_54_0_split_1
I0225 16:04:40.642681  9728 net.cpp:122] Setting up concat1_54_concat1_54_0_split
I0225 16:04:40.642688  9728 net.cpp:129] Top shape: 1 856 17 35 (509320)
I0225 16:04:40.642694  9728 net.cpp:129] Top shape: 1 856 17 35 (509320)
I0225 16:04:40.642698  9728 net.cpp:137] Memory required for data: 794048928
I0225 16:04:40.642701  9728 layer_factory.hpp:77] Creating layer conv1_55/bn
I0225 16:04:40.642709  9728 net.cpp:84] Creating Layer conv1_55/bn
I0225 16:04:40.642716  9728 net.cpp:406] conv1_55/bn <- concat1_54_concat1_54_0_split_0
I0225 16:04:40.642729  9728 net.cpp:380] conv1_55/bn -> conv1_55/bn
I0225 16:04:40.643322  9728 net.cpp:122] Setting up conv1_55/bn
I0225 16:04:40.643332  9728 net.cpp:129] Top shape: 1 856 17 35 (509320)
I0225 16:04:40.643335  9728 net.cpp:137] Memory required for data: 796086208
I0225 16:04:40.643344  9728 layer_factory.hpp:77] Creating layer conv1_55/scale
I0225 16:04:40.643354  9728 net.cpp:84] Creating Layer conv1_55/scale
I0225 16:04:40.643359  9728 net.cpp:406] conv1_55/scale <- conv1_55/bn
I0225 16:04:40.643368  9728 net.cpp:367] conv1_55/scale -> conv1_55/bn (in-place)
I0225 16:04:40.643466  9728 layer_factory.hpp:77] Creating layer conv1_55/scale
I0225 16:04:40.643777  9728 net.cpp:122] Setting up conv1_55/scale
I0225 16:04:40.643786  9728 net.cpp:129] Top shape: 1 856 17 35 (509320)
I0225 16:04:40.643790  9728 net.cpp:137] Memory required for data: 798123488
I0225 16:04:40.643797  9728 layer_factory.hpp:77] Creating layer relu1_55
I0225 16:04:40.643805  9728 net.cpp:84] Creating Layer relu1_55
I0225 16:04:40.643810  9728 net.cpp:406] relu1_55 <- conv1_55/bn
I0225 16:04:40.643815  9728 net.cpp:367] relu1_55 -> conv1_55/bn (in-place)
I0225 16:04:40.645366  9728 net.cpp:122] Setting up relu1_55
I0225 16:04:40.645382  9728 net.cpp:129] Top shape: 1 856 17 35 (509320)
I0225 16:04:40.645386  9728 net.cpp:137] Memory required for data: 800160768
I0225 16:04:40.645391  9728 layer_factory.hpp:77] Creating layer conv1_55
I0225 16:04:40.645404  9728 net.cpp:84] Creating Layer conv1_55
I0225 16:04:40.645411  9728 net.cpp:406] conv1_55 <- conv1_55/bn
I0225 16:04:40.645419  9728 net.cpp:380] conv1_55 -> conv1_55
I0225 16:04:40.652580  9728 net.cpp:122] Setting up conv1_55
I0225 16:04:40.652596  9728 net.cpp:129] Top shape: 1 12 17 35 (7140)
I0225 16:04:40.652601  9728 net.cpp:137] Memory required for data: 800189328
I0225 16:04:40.652608  9728 layer_factory.hpp:77] Creating layer concat1_55
I0225 16:04:40.652617  9728 net.cpp:84] Creating Layer concat1_55
I0225 16:04:40.652623  9728 net.cpp:406] concat1_55 <- concat1_54_concat1_54_0_split_1
I0225 16:04:40.652652  9728 net.cpp:406] concat1_55 <- conv1_55
I0225 16:04:40.652662  9728 net.cpp:380] concat1_55 -> concat1_55
I0225 16:04:40.652735  9728 net.cpp:122] Setting up concat1_55
I0225 16:04:40.652743  9728 net.cpp:129] Top shape: 1 868 17 35 (516460)
I0225 16:04:40.652747  9728 net.cpp:137] Memory required for data: 802255168
I0225 16:04:40.652750  9728 layer_factory.hpp:77] Creating layer concat1_55_concat1_55_0_split
I0225 16:04:40.652757  9728 net.cpp:84] Creating Layer concat1_55_concat1_55_0_split
I0225 16:04:40.652761  9728 net.cpp:406] concat1_55_concat1_55_0_split <- concat1_55
I0225 16:04:40.652770  9728 net.cpp:380] concat1_55_concat1_55_0_split -> concat1_55_concat1_55_0_split_0
I0225 16:04:40.652777  9728 net.cpp:380] concat1_55_concat1_55_0_split -> concat1_55_concat1_55_0_split_1
I0225 16:04:40.652885  9728 net.cpp:122] Setting up concat1_55_concat1_55_0_split
I0225 16:04:40.652892  9728 net.cpp:129] Top shape: 1 868 17 35 (516460)
I0225 16:04:40.652897  9728 net.cpp:129] Top shape: 1 868 17 35 (516460)
I0225 16:04:40.652900  9728 net.cpp:137] Memory required for data: 806386848
I0225 16:04:40.652904  9728 layer_factory.hpp:77] Creating layer conv1_56/bn
I0225 16:04:40.652914  9728 net.cpp:84] Creating Layer conv1_56/bn
I0225 16:04:40.652917  9728 net.cpp:406] conv1_56/bn <- concat1_55_concat1_55_0_split_0
I0225 16:04:40.652923  9728 net.cpp:380] conv1_56/bn -> conv1_56/bn
I0225 16:04:40.653487  9728 net.cpp:122] Setting up conv1_56/bn
I0225 16:04:40.653496  9728 net.cpp:129] Top shape: 1 868 17 35 (516460)
I0225 16:04:40.653499  9728 net.cpp:137] Memory required for data: 808452688
I0225 16:04:40.653507  9728 layer_factory.hpp:77] Creating layer conv1_56/scale
I0225 16:04:40.653518  9728 net.cpp:84] Creating Layer conv1_56/scale
I0225 16:04:40.653523  9728 net.cpp:406] conv1_56/scale <- conv1_56/bn
I0225 16:04:40.653529  9728 net.cpp:367] conv1_56/scale -> conv1_56/bn (in-place)
I0225 16:04:40.653632  9728 layer_factory.hpp:77] Creating layer conv1_56/scale
I0225 16:04:40.653933  9728 net.cpp:122] Setting up conv1_56/scale
I0225 16:04:40.653941  9728 net.cpp:129] Top shape: 1 868 17 35 (516460)
I0225 16:04:40.653945  9728 net.cpp:137] Memory required for data: 810518528
I0225 16:04:40.653951  9728 layer_factory.hpp:77] Creating layer relu1_56
I0225 16:04:40.653959  9728 net.cpp:84] Creating Layer relu1_56
I0225 16:04:40.653964  9728 net.cpp:406] relu1_56 <- conv1_56/bn
I0225 16:04:40.653969  9728 net.cpp:367] relu1_56 -> conv1_56/bn (in-place)
I0225 16:04:40.654322  9728 net.cpp:122] Setting up relu1_56
I0225 16:04:40.654333  9728 net.cpp:129] Top shape: 1 868 17 35 (516460)
I0225 16:04:40.654337  9728 net.cpp:137] Memory required for data: 812584368
I0225 16:04:40.654341  9728 layer_factory.hpp:77] Creating layer conv1_56
I0225 16:04:40.654353  9728 net.cpp:84] Creating Layer conv1_56
I0225 16:04:40.654359  9728 net.cpp:406] conv1_56 <- conv1_56/bn
I0225 16:04:40.654366  9728 net.cpp:380] conv1_56 -> conv1_56
I0225 16:04:40.663239  9728 net.cpp:122] Setting up conv1_56
I0225 16:04:40.663255  9728 net.cpp:129] Top shape: 1 12 17 35 (7140)
I0225 16:04:40.663259  9728 net.cpp:137] Memory required for data: 812612928
I0225 16:04:40.663266  9728 layer_factory.hpp:77] Creating layer concat1_56
I0225 16:04:40.663275  9728 net.cpp:84] Creating Layer concat1_56
I0225 16:04:40.663280  9728 net.cpp:406] concat1_56 <- concat1_55_concat1_55_0_split_1
I0225 16:04:40.663287  9728 net.cpp:406] concat1_56 <- conv1_56
I0225 16:04:40.663295  9728 net.cpp:380] concat1_56 -> concat1_56
I0225 16:04:40.663367  9728 net.cpp:122] Setting up concat1_56
I0225 16:04:40.663374  9728 net.cpp:129] Top shape: 1 880 17 35 (523600)
I0225 16:04:40.663378  9728 net.cpp:137] Memory required for data: 814707328
I0225 16:04:40.663381  9728 layer_factory.hpp:77] Creating layer concat1_56_concat1_56_0_split
I0225 16:04:40.663389  9728 net.cpp:84] Creating Layer concat1_56_concat1_56_0_split
I0225 16:04:40.663393  9728 net.cpp:406] concat1_56_concat1_56_0_split <- concat1_56
I0225 16:04:40.663399  9728 net.cpp:380] concat1_56_concat1_56_0_split -> concat1_56_concat1_56_0_split_0
I0225 16:04:40.663406  9728 net.cpp:380] concat1_56_concat1_56_0_split -> concat1_56_concat1_56_0_split_1
I0225 16:04:40.663497  9728 net.cpp:122] Setting up concat1_56_concat1_56_0_split
I0225 16:04:40.663504  9728 net.cpp:129] Top shape: 1 880 17 35 (523600)
I0225 16:04:40.663508  9728 net.cpp:129] Top shape: 1 880 17 35 (523600)
I0225 16:04:40.663512  9728 net.cpp:137] Memory required for data: 818896128
I0225 16:04:40.663516  9728 layer_factory.hpp:77] Creating layer conv1_57/bn
I0225 16:04:40.663524  9728 net.cpp:84] Creating Layer conv1_57/bn
I0225 16:04:40.663529  9728 net.cpp:406] conv1_57/bn <- concat1_56_concat1_56_0_split_0
I0225 16:04:40.663535  9728 net.cpp:380] conv1_57/bn -> conv1_57/bn
I0225 16:04:40.664100  9728 net.cpp:122] Setting up conv1_57/bn
I0225 16:04:40.664109  9728 net.cpp:129] Top shape: 1 880 17 35 (523600)
I0225 16:04:40.664113  9728 net.cpp:137] Memory required for data: 820990528
I0225 16:04:40.664121  9728 layer_factory.hpp:77] Creating layer conv1_57/scale
I0225 16:04:40.664131  9728 net.cpp:84] Creating Layer conv1_57/scale
I0225 16:04:40.664136  9728 net.cpp:406] conv1_57/scale <- conv1_57/bn
I0225 16:04:40.664142  9728 net.cpp:367] conv1_57/scale -> conv1_57/bn (in-place)
I0225 16:04:40.664243  9728 layer_factory.hpp:77] Creating layer conv1_57/scale
I0225 16:04:40.664547  9728 net.cpp:122] Setting up conv1_57/scale
I0225 16:04:40.664556  9728 net.cpp:129] Top shape: 1 880 17 35 (523600)
I0225 16:04:40.664559  9728 net.cpp:137] Memory required for data: 823084928
I0225 16:04:40.664566  9728 layer_factory.hpp:77] Creating layer relu1_57
I0225 16:04:40.664573  9728 net.cpp:84] Creating Layer relu1_57
I0225 16:04:40.664577  9728 net.cpp:406] relu1_57 <- conv1_57/bn
I0225 16:04:40.664583  9728 net.cpp:367] relu1_57 -> conv1_57/bn (in-place)
I0225 16:04:40.664949  9728 net.cpp:122] Setting up relu1_57
I0225 16:04:40.664963  9728 net.cpp:129] Top shape: 1 880 17 35 (523600)
I0225 16:04:40.664968  9728 net.cpp:137] Memory required for data: 825179328
I0225 16:04:40.664973  9728 layer_factory.hpp:77] Creating layer conv1_57
I0225 16:04:40.664984  9728 net.cpp:84] Creating Layer conv1_57
I0225 16:04:40.664989  9728 net.cpp:406] conv1_57 <- conv1_57/bn
I0225 16:04:40.664999  9728 net.cpp:380] conv1_57 -> conv1_57
I0225 16:04:40.671965  9728 net.cpp:122] Setting up conv1_57
I0225 16:04:40.671982  9728 net.cpp:129] Top shape: 1 12 17 35 (7140)
I0225 16:04:40.671985  9728 net.cpp:137] Memory required for data: 825207888
I0225 16:04:40.671993  9728 layer_factory.hpp:77] Creating layer concat1_57
I0225 16:04:40.672003  9728 net.cpp:84] Creating Layer concat1_57
I0225 16:04:40.672008  9728 net.cpp:406] concat1_57 <- concat1_56_concat1_56_0_split_1
I0225 16:04:40.672015  9728 net.cpp:406] concat1_57 <- conv1_57
I0225 16:04:40.672021  9728 net.cpp:380] concat1_57 -> concat1_57
I0225 16:04:40.672097  9728 net.cpp:122] Setting up concat1_57
I0225 16:04:40.672106  9728 net.cpp:129] Top shape: 1 892 17 35 (530740)
I0225 16:04:40.672108  9728 net.cpp:137] Memory required for data: 827330848
I0225 16:04:40.672112  9728 layer_factory.hpp:77] Creating layer concat1_57_concat1_57_0_split
I0225 16:04:40.672118  9728 net.cpp:84] Creating Layer concat1_57_concat1_57_0_split
I0225 16:04:40.672122  9728 net.cpp:406] concat1_57_concat1_57_0_split <- concat1_57
I0225 16:04:40.672130  9728 net.cpp:380] concat1_57_concat1_57_0_split -> concat1_57_concat1_57_0_split_0
I0225 16:04:40.672137  9728 net.cpp:380] concat1_57_concat1_57_0_split -> concat1_57_concat1_57_0_split_1
I0225 16:04:40.672230  9728 net.cpp:122] Setting up concat1_57_concat1_57_0_split
I0225 16:04:40.672236  9728 net.cpp:129] Top shape: 1 892 17 35 (530740)
I0225 16:04:40.672240  9728 net.cpp:129] Top shape: 1 892 17 35 (530740)
I0225 16:04:40.672245  9728 net.cpp:137] Memory required for data: 831576768
I0225 16:04:40.672247  9728 layer_factory.hpp:77] Creating layer conv1_58/bn
I0225 16:04:40.672256  9728 net.cpp:84] Creating Layer conv1_58/bn
I0225 16:04:40.672260  9728 net.cpp:406] conv1_58/bn <- concat1_57_concat1_57_0_split_0
I0225 16:04:40.672268  9728 net.cpp:380] conv1_58/bn -> conv1_58/bn
I0225 16:04:40.672847  9728 net.cpp:122] Setting up conv1_58/bn
I0225 16:04:40.672857  9728 net.cpp:129] Top shape: 1 892 17 35 (530740)
I0225 16:04:40.672859  9728 net.cpp:137] Memory required for data: 833699728
I0225 16:04:40.672868  9728 layer_factory.hpp:77] Creating layer conv1_58/scale
I0225 16:04:40.672878  9728 net.cpp:84] Creating Layer conv1_58/scale
I0225 16:04:40.672883  9728 net.cpp:406] conv1_58/scale <- conv1_58/bn
I0225 16:04:40.672890  9728 net.cpp:367] conv1_58/scale -> conv1_58/bn (in-place)
I0225 16:04:40.672986  9728 layer_factory.hpp:77] Creating layer conv1_58/scale
I0225 16:04:40.673300  9728 net.cpp:122] Setting up conv1_58/scale
I0225 16:04:40.673308  9728 net.cpp:129] Top shape: 1 892 17 35 (530740)
I0225 16:04:40.673312  9728 net.cpp:137] Memory required for data: 835822688
I0225 16:04:40.673319  9728 layer_factory.hpp:77] Creating layer relu1_58
I0225 16:04:40.673327  9728 net.cpp:84] Creating Layer relu1_58
I0225 16:04:40.673332  9728 net.cpp:406] relu1_58 <- conv1_58/bn
I0225 16:04:40.673337  9728 net.cpp:367] relu1_58 -> conv1_58/bn (in-place)
I0225 16:04:40.674827  9728 net.cpp:122] Setting up relu1_58
I0225 16:04:40.674842  9728 net.cpp:129] Top shape: 1 892 17 35 (530740)
I0225 16:04:40.674847  9728 net.cpp:137] Memory required for data: 837945648
I0225 16:04:40.674851  9728 layer_factory.hpp:77] Creating layer conv1_58
I0225 16:04:40.674865  9728 net.cpp:84] Creating Layer conv1_58
I0225 16:04:40.674870  9728 net.cpp:406] conv1_58 <- conv1_58/bn
I0225 16:04:40.674881  9728 net.cpp:380] conv1_58 -> conv1_58
I0225 16:04:40.683120  9728 net.cpp:122] Setting up conv1_58
I0225 16:04:40.683136  9728 net.cpp:129] Top shape: 1 12 17 35 (7140)
I0225 16:04:40.683140  9728 net.cpp:137] Memory required for data: 837974208
I0225 16:04:40.683147  9728 layer_factory.hpp:77] Creating layer concat1_58
I0225 16:04:40.683159  9728 net.cpp:84] Creating Layer concat1_58
I0225 16:04:40.683166  9728 net.cpp:406] concat1_58 <- concat1_57_concat1_57_0_split_1
I0225 16:04:40.683172  9728 net.cpp:406] concat1_58 <- conv1_58
I0225 16:04:40.683181  9728 net.cpp:380] concat1_58 -> concat1_58
I0225 16:04:40.683251  9728 net.cpp:122] Setting up concat1_58
I0225 16:04:40.683259  9728 net.cpp:129] Top shape: 1 904 17 35 (537880)
I0225 16:04:40.683262  9728 net.cpp:137] Memory required for data: 840125728
I0225 16:04:40.683266  9728 layer_factory.hpp:77] Creating layer concat1_58_concat1_58_0_split
I0225 16:04:40.683272  9728 net.cpp:84] Creating Layer concat1_58_concat1_58_0_split
I0225 16:04:40.683276  9728 net.cpp:406] concat1_58_concat1_58_0_split <- concat1_58
I0225 16:04:40.683284  9728 net.cpp:380] concat1_58_concat1_58_0_split -> concat1_58_concat1_58_0_split_0
I0225 16:04:40.683291  9728 net.cpp:380] concat1_58_concat1_58_0_split -> concat1_58_concat1_58_0_split_1
I0225 16:04:40.683385  9728 net.cpp:122] Setting up concat1_58_concat1_58_0_split
I0225 16:04:40.683393  9728 net.cpp:129] Top shape: 1 904 17 35 (537880)
I0225 16:04:40.683398  9728 net.cpp:129] Top shape: 1 904 17 35 (537880)
I0225 16:04:40.683400  9728 net.cpp:137] Memory required for data: 844428768
I0225 16:04:40.683404  9728 layer_factory.hpp:77] Creating layer conv1_59/bn
I0225 16:04:40.683410  9728 net.cpp:84] Creating Layer conv1_59/bn
I0225 16:04:40.683414  9728 net.cpp:406] conv1_59/bn <- concat1_58_concat1_58_0_split_0
I0225 16:04:40.683423  9728 net.cpp:380] conv1_59/bn -> conv1_59/bn
I0225 16:04:40.683993  9728 net.cpp:122] Setting up conv1_59/bn
I0225 16:04:40.684002  9728 net.cpp:129] Top shape: 1 904 17 35 (537880)
I0225 16:04:40.684005  9728 net.cpp:137] Memory required for data: 846580288
I0225 16:04:40.684015  9728 layer_factory.hpp:77] Creating layer conv1_59/scale
I0225 16:04:40.684028  9728 net.cpp:84] Creating Layer conv1_59/scale
I0225 16:04:40.684033  9728 net.cpp:406] conv1_59/scale <- conv1_59/bn
I0225 16:04:40.684039  9728 net.cpp:367] conv1_59/scale -> conv1_59/bn (in-place)
I0225 16:04:40.684135  9728 layer_factory.hpp:77] Creating layer conv1_59/scale
I0225 16:04:40.684445  9728 net.cpp:122] Setting up conv1_59/scale
I0225 16:04:40.684454  9728 net.cpp:129] Top shape: 1 904 17 35 (537880)
I0225 16:04:40.684458  9728 net.cpp:137] Memory required for data: 848731808
I0225 16:04:40.684464  9728 layer_factory.hpp:77] Creating layer relu1_59
I0225 16:04:40.684470  9728 net.cpp:84] Creating Layer relu1_59
I0225 16:04:40.684475  9728 net.cpp:406] relu1_59 <- conv1_59/bn
I0225 16:04:40.684480  9728 net.cpp:367] relu1_59 -> conv1_59/bn (in-place)
I0225 16:04:40.684846  9728 net.cpp:122] Setting up relu1_59
I0225 16:04:40.684857  9728 net.cpp:129] Top shape: 1 904 17 35 (537880)
I0225 16:04:40.684861  9728 net.cpp:137] Memory required for data: 850883328
I0225 16:04:40.684865  9728 layer_factory.hpp:77] Creating layer conv1_59
I0225 16:04:40.684877  9728 net.cpp:84] Creating Layer conv1_59
I0225 16:04:40.684883  9728 net.cpp:406] conv1_59 <- conv1_59/bn
I0225 16:04:40.684890  9728 net.cpp:380] conv1_59 -> conv1_59
I0225 16:04:40.691995  9728 net.cpp:122] Setting up conv1_59
I0225 16:04:40.692011  9728 net.cpp:129] Top shape: 1 12 17 35 (7140)
I0225 16:04:40.692015  9728 net.cpp:137] Memory required for data: 850911888
I0225 16:04:40.692023  9728 layer_factory.hpp:77] Creating layer concat1_59
I0225 16:04:40.692031  9728 net.cpp:84] Creating Layer concat1_59
I0225 16:04:40.692039  9728 net.cpp:406] concat1_59 <- concat1_58_concat1_58_0_split_1
I0225 16:04:40.692045  9728 net.cpp:406] concat1_59 <- conv1_59
I0225 16:04:40.692052  9728 net.cpp:380] concat1_59 -> concat1_59
I0225 16:04:40.692122  9728 net.cpp:122] Setting up concat1_59
I0225 16:04:40.692131  9728 net.cpp:129] Top shape: 1 916 17 35 (545020)
I0225 16:04:40.692133  9728 net.cpp:137] Memory required for data: 853091968
I0225 16:04:40.692137  9728 layer_factory.hpp:77] Creating layer tpp5
I0225 16:04:40.692152  9728 net.cpp:84] Creating Layer tpp5
I0225 16:04:40.692160  9728 net.cpp:406] tpp5 <- concat1_59
I0225 16:04:40.692167  9728 net.cpp:380] tpp5 -> tpp5
I0225 16:04:40.693365  9728 net.cpp:122] Setting up tpp5
I0225 16:04:40.693377  9728 net.cpp:129] Top shape: 1 13740 (13740)
I0225 16:04:40.693380  9728 net.cpp:137] Memory required for data: 853146928
I0225 16:04:40.693384  9728 layer_factory.hpp:77] Creating layer fc6_d
I0225 16:04:40.693394  9728 net.cpp:84] Creating Layer fc6_d
I0225 16:04:40.693399  9728 net.cpp:406] fc6_d <- tpp5
I0225 16:04:40.693406  9728 net.cpp:380] fc6_d -> fc6_d
I0225 16:04:42.300002  9728 net.cpp:122] Setting up fc6_d
I0225 16:04:42.300041  9728 net.cpp:129] Top shape: 1 4096 (4096)
I0225 16:04:42.300045  9728 net.cpp:137] Memory required for data: 853163312
I0225 16:04:42.300057  9728 layer_factory.hpp:77] Creating layer relu6
I0225 16:04:42.300071  9728 net.cpp:84] Creating Layer relu6
I0225 16:04:42.300077  9728 net.cpp:406] relu6 <- fc6_d
I0225 16:04:42.300087  9728 net.cpp:367] relu6 -> fc6_d (in-place)
I0225 16:04:42.300529  9728 net.cpp:122] Setting up relu6
I0225 16:04:42.300537  9728 net.cpp:129] Top shape: 1 4096 (4096)
I0225 16:04:42.300540  9728 net.cpp:137] Memory required for data: 853179696
I0225 16:04:42.300544  9728 layer_factory.hpp:77] Creating layer fc7_d
I0225 16:04:42.300554  9728 net.cpp:84] Creating Layer fc7_d
I0225 16:04:42.300557  9728 net.cpp:406] fc7_d <- fc6_d
I0225 16:04:42.300562  9728 net.cpp:380] fc7_d -> fc7_d
I0225 16:04:42.748481  9728 net.cpp:122] Setting up fc7_d
I0225 16:04:42.748522  9728 net.cpp:129] Top shape: 1 4096 (4096)
I0225 16:04:42.748525  9728 net.cpp:137] Memory required for data: 853196080
I0225 16:04:42.748538  9728 layer_factory.hpp:77] Creating layer relu7
I0225 16:04:42.748549  9728 net.cpp:84] Creating Layer relu7
I0225 16:04:42.748556  9728 net.cpp:406] relu7 <- fc7_d
I0225 16:04:42.748564  9728 net.cpp:367] relu7 -> fc7_d (in-place)
I0225 16:04:42.750193  9728 net.cpp:122] Setting up relu7
I0225 16:04:42.750205  9728 net.cpp:129] Top shape: 1 4096 (4096)
I0225 16:04:42.750210  9728 net.cpp:137] Memory required for data: 853212464
I0225 16:04:42.750212  9728 layer_factory.hpp:77] Creating layer fc8_d
I0225 16:04:42.750221  9728 net.cpp:84] Creating Layer fc8_d
I0225 16:04:42.750226  9728 net.cpp:406] fc8_d <- fc7_d
I0225 16:04:42.750233  9728 net.cpp:380] fc8_d -> fc8_d
I0225 16:04:42.816395  9728 net.cpp:122] Setting up fc8_d
I0225 16:04:42.816407  9728 net.cpp:129] Top shape: 1 604 (604)
I0225 16:04:42.816411  9728 net.cpp:137] Memory required for data: 853214880
I0225 16:04:42.816416  9728 layer_factory.hpp:77] Creating layer fc8_d_fc8_d_0_split
I0225 16:04:42.816423  9728 net.cpp:84] Creating Layer fc8_d_fc8_d_0_split
I0225 16:04:42.816427  9728 net.cpp:406] fc8_d_fc8_d_0_split <- fc8_d
I0225 16:04:42.816433  9728 net.cpp:380] fc8_d_fc8_d_0_split -> fc8_d_fc8_d_0_split_0
I0225 16:04:42.816439  9728 net.cpp:380] fc8_d_fc8_d_0_split -> fc8_d_fc8_d_0_split_1
I0225 16:04:42.816517  9728 net.cpp:122] Setting up fc8_d_fc8_d_0_split
I0225 16:04:42.816524  9728 net.cpp:129] Top shape: 1 604 (604)
I0225 16:04:42.816527  9728 net.cpp:129] Top shape: 1 604 (604)
I0225 16:04:42.816530  9728 net.cpp:137] Memory required for data: 853219712
I0225 16:04:42.816534  9728 layer_factory.hpp:77] Creating layer sigmoid
I0225 16:04:42.816542  9728 net.cpp:84] Creating Layer sigmoid
I0225 16:04:42.816545  9728 net.cpp:406] sigmoid <- fc8_d_fc8_d_0_split_0
I0225 16:04:42.816552  9728 net.cpp:380] sigmoid -> sigmoid
I0225 16:04:42.816892  9728 net.cpp:122] Setting up sigmoid
I0225 16:04:42.816902  9728 net.cpp:129] Top shape: 1 604 (604)
I0225 16:04:42.816905  9728 net.cpp:137] Memory required for data: 853222128
I0225 16:04:42.816910  9728 layer_factory.hpp:77] Creating layer silence
I0225 16:04:42.816915  9728 net.cpp:84] Creating Layer silence
I0225 16:04:42.816920  9728 net.cpp:406] silence <- sigmoid
I0225 16:04:42.816923  9728 net.cpp:122] Setting up silence
I0225 16:04:42.816926  9728 net.cpp:137] Memory required for data: 853222128
…
