…
  phase: TRAIN
}
layer {
  name: "word_images"
  type: "Data"
  top: "word_images"
  top: "label"
  transform_param {
    scale: -0.0039215689
    mean_value: 255
  }
  data_param {
    source: "/data/fwolf/iam_50000/iam-db_nti500000_pul2-3-4-5_train_word_images_lmdb"
    batch_size: 1
    backend: LMDB
    prefetch: 20
  }
}
layer {
  name: "phocs"
  type: "Data"
  top: "phocs"
  top: "label_phocs"
  data_param {
    source: "/data/fwolf/iam_50000/iam-db_nti500000_pul2-3-4-5_train_phocs_lmdb"
    batch_size: 1
    backend: LMDB
    prefetch: 20
  }
}
layer {
  name: "conv1_1"
  type: "Convolution"
  bottom: "word_images"
  top: "conv1_1"
  convolution_param {
    num_output: 64
    pad: 1
    kernel_size: 3
    stride: 1
    weight_filler {
      type: "msra"
    }
    bias_filler {
      type: "constant"
    }
    engine: CUDNN
  }
}
layer {
  name: "relu1_1"
  type: "ReLU"
  bottom: "conv1_1"
  top: "conv1_1"
}
layer {
  name: "conv1_2"
  type: "Convolution"
  bottom: "conv1_1"
  top: "conv1_2"
  convolution_param {
    num_output: 64
    pad: 1
    kernel_size: 3
    stride: 1
    weight_filler {
      type: "msra"
    }
    bias_filler {
      type: "constant"
    }
    engine: CUDNN
  }
}
layer {
  name: "relu1_2"
  type: "ReLU"
  bottom: "conv1_2"
  top: "conv1_2"
}
layer {
  name: "pool1"
  type: "Pooling"
  bottom: "conv1_2"
  top: "pool1"
  pooling_param {
    pool: MAX
    kernel_size: 2
    stride: 2
  }
}
layer {
  name: "conv2_1"
  type: "Convolution"
  bottom: "pool1"
  top: "conv2_1"
  convolution_param {
    num_output: 128
    pad: 1
    kernel_size: 3
    stride: 1
    weight_filler {
      type: "msra"
    }
    bias_filler {
      type: "constant"
    }
    engine: CUDNN
  }
}
layer {
  name: "relu2_1"
  type: "ReLU"
  bottom: "conv2_1"
  top: "conv2_1"
}
layer {
  name: "conv2_2"
  type: "Convolution"
  bottom: "conv2_1"
  top: "conv2_2"
  convolution_param {
    num_output: 128
    pad: 1
    kernel_size: 3
    stride: 1
    weight_filler {
      type: "msra"
    }
    bias_filler {
      type: "constant"
    }
    engine: CUDNN
  }
}
layer {
  name: "relu2_2"
  type: "ReLU"
  bottom: "conv2_2"
  top: "conv2_2"
}
layer {
  name: "pool2"
  type: "Pooling"
  bottom: "conv2_2"
  top: "pool2"
  pooling_param {
    pool: MAX
    kernel_size: 2
    stride: 2
  }
}
layer {
  name: "conv3_1"
  type: "Convolution"
  bottom: "pool2"
  top: "conv3_1"
  convolution_param {
    num_output: 256
    pad: 1
    kernel_size: 3
    stride: 1
    weight_filler {
      type: "msra"
    }
    bias_filler {
      type: "constant"
    }
    engine: CUDNN
  }
}
layer {
  name: "relu3_1"
  type: "ReLU"
  bottom: "conv3_1"
  top: "conv3_1"
}
layer {
  name: "conv3_2"
  type: "Convolution"
  bottom: "conv3_1"
  top: "conv3_2"
  convolution_param {
    num_output: 256
    pad: 1
    kernel_size: 3
    stride: 1
    weight_filler {
      type: "msra"
    }
    bias_filler {
      type: "constant"
    }
    engine: CUDNN
  }
}
layer {
  name: "relu3_2"
  type: "ReLU"
  bottom: "conv3_2"
  top: "conv3_2"
}
layer {
  name: "conv3_3"
  type: "Convolution"
  bottom: "conv3_2"
  top: "conv3_3"
  convolution_param {
    num_output: 256
    pad: 1
    kernel_size: 3
    stride: 1
    weight_filler {
      type: "msra"
    }
    bias_filler {
      type: "constant"
    }
    engine: CUDNN
  }
}
layer {
  name: "relu3_3"
  type: "ReLU"
  bottom: "conv3_3"
  top: "conv3_3"
}
layer {
  name: "conv3_4"
  type: "Convolution"
  bottom: "conv3_3"
  top: "conv3_4"
  convolution_param {
    num_output: 256
    pad: 1
    kernel_size: 3
    stride: 1
    weight_filler {
      type: "msra"
    }
    bias_filler {
      type: "constant"
    }
    engine: CUDNN
  }
}
layer {
  name: "relu3_4"
  type: "ReLU"
  bottom: "conv3_4"
  top: "conv3_4"
}
layer {
  name: "conv3_5"
  type: "Convolution"
  bottom: "conv3_4"
  top: "conv3_5"
  convolution_param {
    num_output: 256
    pad: 1
    kernel_size: 3
    stride: 1
    weight_filler {
      type: "msra"
    }
    bias_filler {
      type: "constant"
    }
    engine: CUDNN
  }
}
layer {
  name: "relu3_5"
  type: "ReLU"
  bottom: "conv3_5"
  top: "conv3_5"
}
layer {
  name: "conv3_6"
  type: "Convolution"
  bottom: "conv3_5"
  top: "conv3_6"
  convolution_param {
    num_output: 256
    pad: 1
    kernel_size: 3
    stride: 1
    weight_filler {
      type: "msra"
    }
    bias_filler {
      type: "constant"
    }
    engine: CUDNN
  }
}
layer {
  name: "relu3_6"
  type: "ReLU"
  bottom: "conv3_6"
  top: "conv3_6"
}
layer {
  name: "conv4_1"
  type: "Convolution"
  bottom: "conv3_6"
  top: "conv4_1"
  convolution_param {
    num_output: 512
    pad: 1
    kernel_size: 3
    stride: 1
    weight_filler {
      type: "msra"
    }
    bias_filler {
      type: "constant"
    }
    engine: CUDNN
  }
}
layer {
  name: "relu4_1"
  type: "ReLU"
  bottom: "conv4_1"
  top: "conv4_1"
}
layer {
  name: "conv4_2"
  type: "Convolution"
  bottom: "conv4_1"
  top: "conv4_2"
  convolution_param {
    num_output: 512
    pad: 1
    kernel_size: 3
    stride: 1
    weight_filler {
      type: "msra"
    }
    bias_filler {
      type: "constant"
    }
    engine: CUDNN
  }
}
layer {
  name: "relu4_2"
  type: "ReLU"
  bottom: "conv4_2"
  top: "conv4_2"
}
layer {
  name: "conv4_3"
  type: "Convolution"
  bottom: "conv4_2"
  top: "conv4_3"
  convolution_param {
    num_output: 512
    pad: 1
    kernel_size: 3
    stride: 1
    weight_filler {
      type: "msra"
    }
    bias_filler {
      type: "constant"
    }
    engine: CUDNN
  }
}
layer {
  name: "relu4_3"
  type: "ReLU"
  bottom: "conv4_3"
  top: "conv4_3"
}
layer {
  name: "tpp5"
  type: "TPP"
  bottom: "conv4_3"
  top: "tpp5"
  tpp_param {
    pyramid_layer: 1
    pyramid_layer: 2
    pyramid_layer: 3
    pyramid_layer: 4
    pyramid_layer: 5
    pool: MAX
    engine: CUDNN
  }
}
layer {
  name: "reshape"
  type: "Reshape"
  bottom: "tpp5"
  top: "reshape"
  reshape_param {
    shape {
      dim: 1
      dim: 1920
      dim: 4
      dim: 1
    }
  }
}
layer {
  name: "premax"
  type: "Scale"
  bottom: "reshape"
  top: "premax"
  param {
    lr_mult: 0
    decay_mult: 0
  }
  scale_param {
    num_axes: 3
    filler {
      value: 1
    }
    bias_term: false
    bias_filler {
      value: 0
    }
  }
}
layer {
  name: "maxout"
  type: "Pooling"
  bottom: "premax"
  top: "maxout"
  pooling_param {
    pool: MAX
    global_pooling: true
  }
}
layer {
  name: "fc6"
  type: "InnerProduct"
  bottom: "maxout"
  top: "fc6"
  inner_product_param {
    num_output: 4096
    weight_filler {
      type: "msra"
    }
    bias_filler {
      type: "constant"
    }
  }
}
layer {
  name: "relu6"
  type: "ReLU"
  bottom: "fc6"
  top: "fc6"
}
layer {
  name: "drop6"
  type: "Dropout"
  bottom: "fc6"
  top: "fc6"
  include {
    phase: TRAIN
  }
  dropout_param {
    dropout_ratio: 0.5
  }
}
layer {
  name: "fc7"
  type: "InnerProduct"
  bottom: "fc6"
  top: "fc7"
  inner_product_param {
    num_output: 4096
    weight_filler {
      type: "msra"
    }
    bias_filler {
      type: "constant"
    }
  }
}
layer {
  name: "relu7"
  type: "ReLU"
  bottom: "fc7"
  top: "fc7"
}
layer {
  name: "drop7"
  type: "Dropout"
  bottom: "fc7"
  top: "fc7"
  include {
    phase: TRAIN
  }
  dropout_param {
    dropout_ratio: 0.5
  }
}
layer {
  name: "fc8"
  type: "InnerProduct"
  bottom: "fc7"
  top: "fc8"
  inner_product_param {
    num_output: 618
    weight_filler {
      type: "msra"
    }
    bias_filler {
      type: "constant"
    }
  }
}
layer {
  name: "loss"
  type: "SigmoidCrossEntropyLoss"
  bottom: "fc8"
  bottom: "phocs"
  top: "loss"
}
I0129 12:37:17.131186 22730 layer_factory.hpp:77] Creating layer word_images
I0129 12:37:17.131279 22730 db_lmdb.cpp:35] Opened lmdb /data/fwolf/iam_50000/iam-db_nti500000_pul2-3-4-5_train_word_images_lmdb
I0129 12:37:17.131323 22730 net.cpp:84] Creating Layer word_images
I0129 12:37:17.131330 22730 net.cpp:380] word_images -> word_images
I0129 12:37:17.131351 22730 net.cpp:380] word_images -> label
I0129 12:37:17.157287 22730 data_layer.cpp:44] output data size: 1,1,79,231
I0129 12:37:17.457520 22730 net.cpp:122] Setting up word_images
I0129 12:37:17.457558 22730 net.cpp:129] Top shape: 1 1 79 231 (18249)
I0129 12:37:17.457566 22730 net.cpp:129] Top shape: 1 (1)
I0129 12:37:17.457571 22730 net.cpp:137] Memory required for data: 73000
I0129 12:37:17.457578 22730 layer_factory.hpp:77] Creating layer phocs
I0129 12:37:17.457659 22730 db_lmdb.cpp:35] Opened lmdb /data/fwolf/iam_50000/iam-db_nti500000_pul2-3-4-5_train_phocs_lmdb
I0129 12:37:17.457700 22730 net.cpp:84] Creating Layer phocs
I0129 12:37:17.457706 22730 net.cpp:380] phocs -> phocs
I0129 12:37:17.457720 22730 net.cpp:380] phocs -> label_phocs
I0129 12:37:17.457990 22730 data_layer.cpp:44] output data size: 1,1,1,618
I0129 12:37:17.511577 22730 net.cpp:122] Setting up phocs
I0129 12:37:17.511616 22730 net.cpp:129] Top shape: 1 1 1 618 (618)
I0129 12:37:17.511624 22730 net.cpp:129] Top shape: 1 (1)
I0129 12:37:17.511628 22730 net.cpp:137] Memory required for data: 75476
I0129 12:37:17.511634 22730 layer_factory.hpp:77] Creating layer conv1_1
I0129 12:37:17.511657 22730 net.cpp:84] Creating Layer conv1_1
I0129 12:37:17.511663 22730 net.cpp:406] conv1_1 <- word_images
I0129 12:37:17.511672 22730 net.cpp:380] conv1_1 -> conv1_1
I0129 12:37:23.931774 22730 net.cpp:122] Setting up conv1_1
I0129 12:37:23.931813 22730 net.cpp:129] Top shape: 1 64 79 231 (1167936)
I0129 12:37:23.931819 22730 net.cpp:137] Memory required for data: 4747220
I0129 12:37:23.931838 22730 layer_factory.hpp:77] Creating layer relu1_1
I0129 12:37:23.931851 22730 net.cpp:84] Creating Layer relu1_1
I0129 12:37:23.931857 22730 net.cpp:406] relu1_1 <- conv1_1
I0129 12:37:23.931865 22730 net.cpp:367] relu1_1 -> conv1_1 (in-place)
I0129 12:37:23.932482 22730 net.cpp:122] Setting up relu1_1
I0129 12:37:23.932498 22730 net.cpp:129] Top shape: 1 64 79 231 (1167936)
I0129 12:37:23.932502 22730 net.cpp:137] Memory required for data: 9418964
I0129 12:37:23.932507 22730 layer_factory.hpp:77] Creating layer conv1_2
I0129 12:37:23.932523 22730 net.cpp:84] Creating Layer conv1_2
I0129 12:37:23.932528 22730 net.cpp:406] conv1_2 <- conv1_1
I0129 12:37:23.932536 22730 net.cpp:380] conv1_2 -> conv1_2
I0129 12:37:23.982415 22730 net.cpp:122] Setting up conv1_2
I0129 12:37:23.982451 22730 net.cpp:129] Top shape: 1 64 79 231 (1167936)
I0129 12:37:23.982456 22730 net.cpp:137] Memory required for data: 14090708
I0129 12:37:23.982475 22730 layer_factory.hpp:77] Creating layer relu1_2
I0129 12:37:23.982488 22730 net.cpp:84] Creating Layer relu1_2
I0129 12:37:23.982494 22730 net.cpp:406] relu1_2 <- conv1_2
I0129 12:37:23.982502 22730 net.cpp:367] relu1_2 -> conv1_2 (in-place)
I0129 12:37:23.982784 22730 net.cpp:122] Setting up relu1_2
I0129 12:37:23.982795 22730 net.cpp:129] Top shape: 1 64 79 231 (1167936)
I0129 12:37:23.982805 22730 net.cpp:137] Memory required for data: 18762452
I0129 12:37:23.982810 22730 layer_factory.hpp:77] Creating layer pool1
I0129 12:37:23.982818 22730 net.cpp:84] Creating Layer pool1
I0129 12:37:23.982823 22730 net.cpp:406] pool1 <- conv1_2
I0129 12:37:23.982830 22730 net.cpp:380] pool1 -> pool1
I0129 12:37:23.982898 22730 net.cpp:122] Setting up pool1
I0129 12:37:23.982906 22730 net.cpp:129] Top shape: 1 64 40 116 (296960)
I0129 12:37:23.982910 22730 net.cpp:137] Memory required for data: 19950292
I0129 12:37:23.982914 22730 layer_factory.hpp:77] Creating layer conv2_1
I0129 12:37:23.982928 22730 net.cpp:84] Creating Layer conv2_1
I0129 12:37:23.982931 22730 net.cpp:406] conv2_1 <- pool1
I0129 12:37:23.982939 22730 net.cpp:380] conv2_1 -> conv2_1
I0129 12:37:24.061343 22730 net.cpp:122] Setting up conv2_1
I0129 12:37:24.061378 22730 net.cpp:129] Top shape: 1 128 40 116 (593920)
I0129 12:37:24.061383 22730 net.cpp:137] Memory required for data: 22325972
I0129 12:37:24.061398 22730 layer_factory.hpp:77] Creating layer relu2_1
I0129 12:37:24.061411 22730 net.cpp:84] Creating Layer relu2_1
I0129 12:37:24.061417 22730 net.cpp:406] relu2_1 <- conv2_1
I0129 12:37:24.061426 22730 net.cpp:367] relu2_1 -> conv2_1 (in-place)
I0129 12:37:24.082758 22730 net.cpp:122] Setting up relu2_1
I0129 12:37:24.082797 22730 net.cpp:129] Top shape: 1 128 40 116 (593920)
I0129 12:37:24.082801 22730 net.cpp:137] Memory required for data: 24701652
I0129 12:37:24.082809 22730 layer_factory.hpp:77] Creating layer conv2_2
I0129 12:37:24.082831 22730 net.cpp:84] Creating Layer conv2_2
I0129 12:37:24.082837 22730 net.cpp:406] conv2_2 <- conv2_1
I0129 12:37:24.082849 22730 net.cpp:380] conv2_2 -> conv2_2
I0129 12:37:24.168958 22730 net.cpp:122] Setting up conv2_2
I0129 12:37:24.168994 22730 net.cpp:129] Top shape: 1 128 40 116 (593920)
I0129 12:37:24.168998 22730 net.cpp:137] Memory required for data: 27077332
I0129 12:37:24.169013 22730 layer_factory.hpp:77] Creating layer relu2_2
I0129 12:37:24.169024 22730 net.cpp:84] Creating Layer relu2_2
I0129 12:37:24.169030 22730 net.cpp:406] relu2_2 <- conv2_2
I0129 12:37:24.169039 22730 net.cpp:367] relu2_2 -> conv2_2 (in-place)
I0129 12:37:24.169319 22730 net.cpp:122] Setting up relu2_2
I0129 12:37:24.169329 22730 net.cpp:129] Top shape: 1 128 40 116 (593920)
I0129 12:37:24.169333 22730 net.cpp:137] Memory required for data: 29453012
I0129 12:37:24.169337 22730 layer_factory.hpp:77] Creating layer pool2
I0129 12:37:24.169345 22730 net.cpp:84] Creating Layer pool2
I0129 12:37:24.169349 22730 net.cpp:406] pool2 <- conv2_2
I0129 12:37:24.169358 22730 net.cpp:380] pool2 -> pool2
I0129 12:37:24.169430 22730 net.cpp:122] Setting up pool2
I0129 12:37:24.169437 22730 net.cpp:129] Top shape: 1 128 20 58 (148480)
I0129 12:37:24.169440 22730 net.cpp:137] Memory required for data: 30046932
I0129 12:37:24.169445 22730 layer_factory.hpp:77] Creating layer conv3_1
I0129 12:37:24.169462 22730 net.cpp:84] Creating Layer conv3_1
I0129 12:37:24.169466 22730 net.cpp:406] conv3_1 <- pool2
I0129 12:37:24.169473 22730 net.cpp:380] conv3_1 -> conv3_1
I0129 12:37:24.339704 22730 net.cpp:122] Setting up conv3_1
I0129 12:37:24.339745 22730 net.cpp:129] Top shape: 1 256 20 58 (296960)
I0129 12:37:24.339756 22730 net.cpp:137] Memory required for data: 31234772
I0129 12:37:24.339776 22730 layer_factory.hpp:77] Creating layer relu3_1
I0129 12:37:24.339789 22730 net.cpp:84] Creating Layer relu3_1
I0129 12:37:24.339794 22730 net.cpp:406] relu3_1 <- conv3_1
I0129 12:37:24.339803 22730 net.cpp:367] relu3_1 -> conv3_1 (in-place)
I0129 12:37:24.340471 22730 net.cpp:122] Setting up relu3_1
I0129 12:37:24.340488 22730 net.cpp:129] Top shape: 1 256 20 58 (296960)
I0129 12:37:24.340492 22730 net.cpp:137] Memory required for data: 32422612
I0129 12:37:24.340497 22730 layer_factory.hpp:77] Creating layer conv3_2
I0129 12:37:24.340515 22730 net.cpp:84] Creating Layer conv3_2
I0129 12:37:24.340520 22730 net.cpp:406] conv3_2 <- conv3_1
I0129 12:37:24.340530 22730 net.cpp:380] conv3_2 -> conv3_2
I0129 12:37:24.562716 22730 net.cpp:122] Setting up conv3_2
I0129 12:37:24.562753 22730 net.cpp:129] Top shape: 1 256 20 58 (296960)
I0129 12:37:24.562758 22730 net.cpp:137] Memory required for data: 33610452
I0129 12:37:24.562773 22730 layer_factory.hpp:77] Creating layer relu3_2
I0129 12:37:24.562785 22730 net.cpp:84] Creating Layer relu3_2
I0129 12:37:24.562791 22730 net.cpp:406] relu3_2 <- conv3_2
I0129 12:37:24.562800 22730 net.cpp:367] relu3_2 -> conv3_2 (in-place)
I0129 12:37:24.563346 22730 net.cpp:122] Setting up relu3_2
I0129 12:37:24.563361 22730 net.cpp:129] Top shape: 1 256 20 58 (296960)
I0129 12:37:24.563365 22730 net.cpp:137] Memory required for data: 34798292
I0129 12:37:24.563370 22730 layer_factory.hpp:77] Creating layer conv3_3
I0129 12:37:24.563388 22730 net.cpp:84] Creating Layer conv3_3
I0129 12:37:24.563393 22730 net.cpp:406] conv3_3 <- conv3_2
I0129 12:37:24.563401 22730 net.cpp:380] conv3_3 -> conv3_3
I0129 12:37:24.854090 22730 net.cpp:122] Setting up conv3_3
I0129 12:37:24.854125 22730 net.cpp:129] Top shape: 1 256 20 58 (296960)
I0129 12:37:24.854130 22730 net.cpp:137] Memory required for data: 35986132
I0129 12:37:24.854143 22730 layer_factory.hpp:77] Creating layer relu3_3
I0129 12:37:24.854156 22730 net.cpp:84] Creating Layer relu3_3
I0129 12:37:24.854161 22730 net.cpp:406] relu3_3 <- conv3_3
I0129 12:37:24.854171 22730 net.cpp:367] relu3_3 -> conv3_3 (in-place)
I0129 12:37:24.854406 22730 net.cpp:122] Setting up relu3_3
I0129 12:37:24.854418 22730 net.cpp:129] Top shape: 1 256 20 58 (296960)
I0129 12:37:24.854421 22730 net.cpp:137] Memory required for data: 37173972
I0129 12:37:24.854425 22730 layer_factory.hpp:77] Creating layer conv3_4
I0129 12:37:24.854440 22730 net.cpp:84] Creating Layer conv3_4
I0129 12:37:24.854445 22730 net.cpp:406] conv3_4 <- conv3_3
I0129 12:37:24.854452 22730 net.cpp:380] conv3_4 -> conv3_4
I0129 12:37:25.092861 22730 net.cpp:122] Setting up conv3_4
I0129 12:37:25.092898 22730 net.cpp:129] Top shape: 1 256 20 58 (296960)
I0129 12:37:25.092903 22730 net.cpp:137] Memory required for data: 38361812
I0129 12:37:25.092916 22730 layer_factory.hpp:77] Creating layer relu3_4
I0129 12:37:25.092931 22730 net.cpp:84] Creating Layer relu3_4
I0129 12:37:25.092936 22730 net.cpp:406] relu3_4 <- conv3_4
I0129 12:37:25.092945 22730 net.cpp:367] relu3_4 -> conv3_4 (in-place)
I0129 12:37:25.093591 22730 net.cpp:122] Setting up relu3_4
I0129 12:37:25.093605 22730 net.cpp:129] Top shape: 1 256 20 58 (296960)
I0129 12:37:25.093608 22730 net.cpp:137] Memory required for data: 39549652
I0129 12:37:25.093613 22730 layer_factory.hpp:77] Creating layer conv3_5
I0129 12:37:25.093629 22730 net.cpp:84] Creating Layer conv3_5
I0129 12:37:25.093633 22730 net.cpp:406] conv3_5 <- conv3_4
I0129 12:37:25.093642 22730 net.cpp:380] conv3_5 -> conv3_5
I0129 12:37:25.362526 22730 net.cpp:122] Setting up conv3_5
I0129 12:37:25.362562 22730 net.cpp:129] Top shape: 1 256 20 58 (296960)
I0129 12:37:25.362567 22730 net.cpp:137] Memory required for data: 40737492
I0129 12:37:25.362586 22730 layer_factory.hpp:77] Creating layer relu3_5
I0129 12:37:25.362597 22730 net.cpp:84] Creating Layer relu3_5
I0129 12:37:25.362603 22730 net.cpp:406] relu3_5 <- conv3_5
I0129 12:37:25.362612 22730 net.cpp:367] relu3_5 -> conv3_5 (in-place)
I0129 12:37:25.362916 22730 net.cpp:122] Setting up relu3_5
I0129 12:37:25.362926 22730 net.cpp:129] Top shape: 1 256 20 58 (296960)
I0129 12:37:25.362931 22730 net.cpp:137] Memory required for data: 41925332
I0129 12:37:25.362934 22730 layer_factory.hpp:77] Creating layer conv3_6
I0129 12:37:25.362948 22730 net.cpp:84] Creating Layer conv3_6
I0129 12:37:25.362953 22730 net.cpp:406] conv3_6 <- conv3_5
I0129 12:37:25.362962 22730 net.cpp:380] conv3_6 -> conv3_6
I0129 12:37:25.637064 22730 net.cpp:122] Setting up conv3_6
I0129 12:37:25.637102 22730 net.cpp:129] Top shape: 1 256 20 58 (296960)
I0129 12:37:25.637107 22730 net.cpp:137] Memory required for data: 43113172
I0129 12:37:25.637125 22730 layer_factory.hpp:77] Creating layer relu3_6
I0129 12:37:25.637137 22730 net.cpp:84] Creating Layer relu3_6
I0129 12:37:25.637148 22730 net.cpp:406] relu3_6 <- conv3_6
I0129 12:37:25.637158 22730 net.cpp:367] relu3_6 -> conv3_6 (in-place)
I0129 12:37:25.637794 22730 net.cpp:122] Setting up relu3_6
I0129 12:37:25.637807 22730 net.cpp:129] Top shape: 1 256 20 58 (296960)
I0129 12:37:25.637811 22730 net.cpp:137] Memory required for data: 44301012
I0129 12:37:25.637815 22730 layer_factory.hpp:77] Creating layer conv4_1
I0129 12:37:25.637831 22730 net.cpp:84] Creating Layer conv4_1
I0129 12:37:25.637836 22730 net.cpp:406] conv4_1 <- conv3_6
I0129 12:37:25.637843 22730 net.cpp:380] conv4_1 -> conv4_1
I0129 12:37:26.188457 22730 net.cpp:122] Setting up conv4_1
I0129 12:37:26.188493 22730 net.cpp:129] Top shape: 1 512 20 58 (593920)
I0129 12:37:26.188498 22730 net.cpp:137] Memory required for data: 46676692
I0129 12:37:26.188513 22730 layer_factory.hpp:77] Creating layer relu4_1
I0129 12:37:26.188526 22730 net.cpp:84] Creating Layer relu4_1
I0129 12:37:26.188534 22730 net.cpp:406] relu4_1 <- conv4_1
I0129 12:37:26.188541 22730 net.cpp:367] relu4_1 -> conv4_1 (in-place)
I0129 12:37:26.189173 22730 net.cpp:122] Setting up relu4_1
I0129 12:37:26.189188 22730 net.cpp:129] Top shape: 1 512 20 58 (593920)
I0129 12:37:26.189193 22730 net.cpp:137] Memory required for data: 49052372
I0129 12:37:26.189196 22730 layer_factory.hpp:77] Creating layer conv4_2
I0129 12:37:26.189215 22730 net.cpp:84] Creating Layer conv4_2
I0129 12:37:26.189220 22730 net.cpp:406] conv4_2 <- conv4_1
I0129 12:37:26.189227 22730 net.cpp:380] conv4_2 -> conv4_2
I0129 12:37:27.230456 22730 net.cpp:122] Setting up conv4_2
I0129 12:37:27.230497 22730 net.cpp:129] Top shape: 1 512 20 58 (593920)
I0129 12:37:27.230502 22730 net.cpp:137] Memory required for data: 51428052
I0129 12:37:27.230515 22730 layer_factory.hpp:77] Creating layer relu4_2
I0129 12:37:27.230530 22730 net.cpp:84] Creating Layer relu4_2
I0129 12:37:27.230536 22730 net.cpp:406] relu4_2 <- conv4_2
I0129 12:37:27.230545 22730 net.cpp:367] relu4_2 -> conv4_2 (in-place)
I0129 12:37:27.232069 22730 net.cpp:122] Setting up relu4_2
I0129 12:37:27.232095 22730 net.cpp:129] Top shape: 1 512 20 58 (593920)
I0129 12:37:27.232100 22730 net.cpp:137] Memory required for data: 53803732
I0129 12:37:27.232105 22730 layer_factory.hpp:77] Creating layer conv4_3
I0129 12:37:27.232125 22730 net.cpp:84] Creating Layer conv4_3
I0129 12:37:27.232131 22730 net.cpp:406] conv4_3 <- conv4_2
I0129 12:37:27.232139 22730 net.cpp:380] conv4_3 -> conv4_3
I0129 12:37:27.331378 22730 net.cpp:122] Setting up conv4_3
I0129 12:37:27.331421 22730 net.cpp:129] Top shape: 1 512 20 58 (593920)
I0129 12:37:27.331427 22730 net.cpp:137] Memory required for data: 56179412
I0129 12:37:27.331440 22730 layer_factory.hpp:77] Creating layer relu4_3
I0129 12:37:27.331457 22730 net.cpp:84] Creating Layer relu4_3
I0129 12:37:27.331463 22730 net.cpp:406] relu4_3 <- conv4_3
I0129 12:37:27.331471 22730 net.cpp:367] relu4_3 -> conv4_3 (in-place)
I0129 12:37:27.332474 22730 net.cpp:122] Setting up relu4_3
I0129 12:37:27.332494 22730 net.cpp:129] Top shape: 1 512 20 58 (593920)
I0129 12:37:27.332499 22730 net.cpp:137] Memory required for data: 58555092
I0129 12:37:27.332505 22730 layer_factory.hpp:77] Creating layer tpp5
I0129 12:37:27.332516 22730 net.cpp:84] Creating Layer tpp5
I0129 12:37:27.332521 22730 net.cpp:406] tpp5 <- conv4_3
I0129 12:37:27.332530 22730 net.cpp:380] tpp5 -> tpp5
I0129 12:37:27.334908 22730 net.cpp:122] Setting up tpp5
I0129 12:37:27.334935 22730 net.cpp:129] Top shape: 1 7680 (7680)
I0129 12:37:27.334940 22730 net.cpp:137] Memory required for data: 58585812
I0129 12:37:27.334945 22730 layer_factory.hpp:77] Creating layer reshape
I0129 12:37:27.334956 22730 net.cpp:84] Creating Layer reshape
I0129 12:37:27.334962 22730 net.cpp:406] reshape <- tpp5
I0129 12:37:27.334970 22730 net.cpp:380] reshape -> reshape
I0129 12:37:27.335016 22730 net.cpp:122] Setting up reshape
I0129 12:37:27.335024 22730 net.cpp:129] Top shape: 1 1920 4 1 (7680)
I0129 12:37:27.335028 22730 net.cpp:137] Memory required for data: 58616532
I0129 12:37:27.335032 22730 layer_factory.hpp:77] Creating layer premax
I0129 12:37:27.335050 22730 net.cpp:84] Creating Layer premax
I0129 12:37:27.335055 22730 net.cpp:406] premax <- reshape
I0129 12:37:27.335062 22730 net.cpp:380] premax -> premax
I0129 12:37:27.335216 22730 net.cpp:122] Setting up premax
I0129 12:37:27.335225 22730 net.cpp:129] Top shape: 1 1920 4 1 (7680)
I0129 12:37:27.335229 22730 net.cpp:137] Memory required for data: 58647252
I0129 12:37:27.335237 22730 layer_factory.hpp:77] Creating layer maxout
I0129 12:37:27.335247 22730 net.cpp:84] Creating Layer maxout
I0129 12:37:27.335250 22730 net.cpp:406] maxout <- premax
I0129 12:37:27.335256 22730 net.cpp:380] maxout -> maxout
I0129 12:37:27.335309 22730 net.cpp:122] Setting up maxout
I0129 12:37:27.335316 22730 net.cpp:129] Top shape: 1 1920 1 1 (1920)
I0129 12:37:27.335320 22730 net.cpp:137] Memory required for data: 58654932
I0129 12:37:27.335325 22730 layer_factory.hpp:77] Creating layer fc6
I0129 12:37:27.335332 22730 net.cpp:84] Creating Layer fc6
I0129 12:37:27.335336 22730 net.cpp:406] fc6 <- maxout
I0129 12:37:27.335345 22730 net.cpp:380] fc6 -> fc6
I0129 12:37:27.651038 22730 net.cpp:122] Setting up fc6
I0129 12:37:27.651077 22730 net.cpp:129] Top shape: 1 4096 (4096)
I0129 12:37:27.651082 22730 net.cpp:137] Memory required for data: 58671316
I0129 12:37:27.651094 22730 layer_factory.hpp:77] Creating layer relu6
I0129 12:37:27.651108 22730 net.cpp:84] Creating Layer relu6
I0129 12:37:27.651114 22730 net.cpp:406] relu6 <- fc6
I0129 12:37:27.651124 22730 net.cpp:367] relu6 -> fc6 (in-place)
I0129 12:37:27.651432 22730 net.cpp:122] Setting up relu6
I0129 12:37:27.651446 22730 net.cpp:129] Top shape: 1 4096 (4096)
I0129 12:37:27.651450 22730 net.cpp:137] Memory required for data: 58687700
I0129 12:37:27.651454 22730 layer_factory.hpp:77] Creating layer drop6
I0129 12:37:27.651466 22730 net.cpp:84] Creating Layer drop6
I0129 12:37:27.651471 22730 net.cpp:406] drop6 <- fc6
I0129 12:37:27.651479 22730 net.cpp:367] drop6 -> fc6 (in-place)
I0129 12:37:27.651520 22730 net.cpp:122] Setting up drop6
I0129 12:37:27.651527 22730 net.cpp:129] Top shape: 1 4096 (4096)
I0129 12:37:27.651531 22730 net.cpp:137] Memory required for data: 58704084
I0129 12:37:27.651535 22730 layer_factory.hpp:77] Creating layer fc7
I0129 12:37:27.651546 22730 net.cpp:84] Creating Layer fc7
I0129 12:37:27.651549 22730 net.cpp:406] fc7 <- fc6
I0129 12:37:27.651556 22730 net.cpp:380] fc7 -> fc7
I0129 12:37:28.559782 22730 net.cpp:122] Setting up fc7
I0129 12:37:28.559831 22730 net.cpp:129] Top shape: 1 4096 (4096)
I0129 12:37:28.559837 22730 net.cpp:137] Memory required for data: 58720468
I0129 12:37:28.559851 22730 layer_factory.hpp:77] Creating layer relu7
I0129 12:37:28.559870 22730 net.cpp:84] Creating Layer relu7
I0129 12:37:28.559876 22730 net.cpp:406] relu7 <- fc7
I0129 12:37:28.559885 22730 net.cpp:367] relu7 -> fc7 (in-place)
I0129 12:37:28.560712 22730 net.cpp:122] Setting up relu7
I0129 12:37:28.560751 22730 net.cpp:129] Top shape: 1 4096 (4096)
I0129 12:37:28.560757 22730 net.cpp:137] Memory required for data: 58736852
I0129 12:37:28.560763 22730 layer_factory.hpp:77] Creating layer drop7
I0129 12:37:28.560781 22730 net.cpp:84] Creating Layer drop7
I0129 12:37:28.560788 22730 net.cpp:406] drop7 <- fc7
I0129 12:37:28.560798 22730 net.cpp:367] drop7 -> fc7 (in-place)
I0129 12:37:28.560863 22730 net.cpp:122] Setting up drop7
I0129 12:37:28.560871 22730 net.cpp:129] Top shape: 1 4096 (4096)
I0129 12:37:28.560875 22730 net.cpp:137] Memory required for data: 58753236
I0129 12:37:28.560879 22730 layer_factory.hpp:77] Creating layer fc8
I0129 12:37:28.560889 22730 net.cpp:84] Creating Layer fc8
I0129 12:37:28.560894 22730 net.cpp:406] fc8 <- fc7
I0129 12:37:28.560900 22730 net.cpp:380] fc8 -> fc8
I0129 12:37:28.727216 22730 net.cpp:122] Setting up fc8
I0129 12:37:28.727257 22730 net.cpp:129] Top shape: 1 618 (618)
I0129 12:37:28.727262 22730 net.cpp:137] Memory required for data: 58755708
I0129 12:37:28.727282 22730 layer_factory.hpp:77] Creating layer loss
I0129 12:37:28.727298 22730 net.cpp:84] Creating Layer loss
I0129 12:37:28.727313 22730 net.cpp:406] loss <- fc8
I0129 12:37:28.727320 22730 net.cpp:406] loss <- phocs
I0129 12:37:28.727330 22730 net.cpp:380] loss -> loss
I0129 12:37:28.727397 22730 net.cpp:122] Setting up loss
…
  phase: TEST
}
layer {
  name: "word_images"
  type: "Data"
  top: "word_images"
  top: "label"
  transform_param {
    scale: -0.0039215689
    mean_value: 255
  }
  data_param {
    source: "/data/fwolf/iam_50000/iam-db_nti500000_pul2-3-4-5_test_word_images_lmdb"
    batch_size: 1
    backend: LMDB
    prefetch: 20
  }
}
layer {
  name: "phocs"
  type: "Data"
  top: "phocs"
  top: "label_phocs"
  data_param {
    source: "/data/fwolf/iam_50000/iam-db_nti500000_pul2-3-4-5_test_phocs_lmdb"
    batch_size: 1
    backend: LMDB
    prefetch: 20
  }
}
layer {
  name: "conv1_1"
  type: "Convolution"
  bottom: "word_images"
  top: "conv1_1"
  convolution_param {
    num_output: 64
    pad: 1
    kernel_size: 3
    stride: 1
    weight_filler {
      type: "msra"
    }
    bias_filler {
      type: "constant"
    }
    engine: CUDNN
  }
}
layer {
  name: "relu1_1"
  type: "ReLU"
  bottom: "conv1_1"
  top: "conv1_1"
}
layer {
  name: "conv1_2"
  type: "Convolution"
  bottom: "conv1_1"
  top: "conv1_2"
  convolution_param {
    num_output: 64
    pad: 1
    kernel_size: 3
    stride: 1
    weight_filler {
      type: "msra"
    }
    bias_filler {
      type: "constant"
    }
    engine: CUDNN
  }
}
layer {
  name: "relu1_2"
  type: "ReLU"
  bottom: "conv1_2"
  top: "conv1_2"
}
layer {
  name: "pool1"
  type: "Pooling"
  bottom: "conv1_2"
  top: "pool1"
  pooling_param {
    pool: MAX
    kernel_size: 2
    stride: 2
  }
}
layer {
  name: "conv2_1"
  type: "Convolution"
  bottom: "pool1"
  top: "conv2_1"
  convolution_param {
    num_output: 128
    pad: 1
    kernel_size: 3
    stride: 1
    weight_filler {
      type: "msra"
    }
    bias_filler {
      type: "constant"
    }
    engine: CUDNN
  }
}
layer {
  name: "relu2_1"
  type: "ReLU"
  bottom: "conv2_1"
  top: "conv2_1"
}
layer {
  name: "conv2_2"
  type: "Convolution"
  bottom: "conv2_1"
  top: "conv2_2"
  convolution_param {
    num_output: 128
    pad: 1
    kernel_size: 3
    stride: 1
    weight_filler {
      type: "msra"
    }
    bias_filler {
      type: "constant"
    }
    engine: CUDNN
  }
}
layer {
  name: "relu2_2"
  type: "ReLU"
  bottom: "conv2_2"
  top: "conv2_2"
}
layer {
  name: "pool2"
  type: "Pooling"
  bottom: "conv2_2"
  top: "pool2"
  pooling_param {
    pool: MAX
    kernel_size: 2
    stride: 2
  }
}
layer {
  name: "conv3_1"
  type: "Convolution"
  bottom: "pool2"
  top: "conv3_1"
  convolution_param {
    num_output: 256
    pad: 1
    kernel_size: 3
    stride: 1
    weight_filler {
      type: "msra"
    }
    bias_filler {
      type: "constant"
    }
    engine: CUDNN
  }
}
layer {
  name: "relu3_1"
  type: "ReLU"
  bottom: "conv3_1"
  top: "conv3_1"
}
layer {
  name: "conv3_2"
  type: "Convolution"
  bottom: "conv3_1"
  top: "conv3_2"
  convolution_param {
    num_output: 256
    pad: 1
    kernel_size: 3
    stride: 1
    weight_filler {
      type: "msra"
    }
    bias_filler {
      type: "constant"
    }
    engine: CUDNN
  }
}
layer {
  name: "relu3_2"
  type: "ReLU"
  bottom: "conv3_2"
  top: "conv3_2"
}
layer {
  name: "conv3_3"
  type: "Convolution"
  bottom: "conv3_2"
  top: "conv3_3"
  convolution_param {
    num_output: 256
    pad: 1
    kernel_size: 3
    stride: 1
    weight_filler {
      type: "msra"
    }
    bias_filler {
      type: "constant"
    }
    engine: CUDNN
  }
}
layer {
  name: "relu3_3"
  type: "ReLU"
  bottom: "conv3_3"
  top: "conv3_3"
}
layer {
  name: "conv3_4"
  type: "Convolution"
  bottom: "conv3_3"
  top: "conv3_4"
  convolution_param {
    num_output: 256
    pad: 1
    kernel_size: 3
    stride: 1
    weight_filler {
      type: "msra"
    }
    bias_filler {
      type: "constant"
    }
    engine: CUDNN
  }
}
layer {
  name: "relu3_4"
  type: "ReLU"
  bottom: "conv3_4"
  top: "conv3_4"
}
layer {
  name: "conv3_5"
  type: "Convolution"
  bottom: "conv3_4"
  top: "conv3_5"
  convolution_param {
    num_output: 256
    pad: 1
    kernel_size: 3
    stride: 1
    weight_filler {
      type: "msra"
    }
    bias_filler {
      type: "constant"
    }
    engine: CUDNN
  }
}
layer {
  name: "relu3_5"
  type: "ReLU"
  bottom: "conv3_5"
  top: "conv3_5"
}
layer {
  name: "conv3_6"
  type: "Convolution"
  bottom: "conv3_5"
  top: "conv3_6"
  convolution_param {
    num_output: 256
    pad: 1
    kernel_size: 3
    stride: 1
    weight_filler {
      type: "msra"
    }
    bias_filler {
      type: "constant"
    }
    engine: CUDNN
  }
}
layer {
  name: "relu3_6"
  type: "ReLU"
  bottom: "conv3_6"
  top: "conv3_6"
}
layer {
  name: "conv4_1"
  type: "Convolution"
  bottom: "conv3_6"
  top: "conv4_1"
  convolution_param {
    num_output: 512
    pad: 1
    kernel_size: 3
    stride: 1
    weight_filler {
      type: "msra"
    }
    bias_filler {
      type: "constant"
    }
    engine: CUDNN
  }
}
layer {
  name: "relu4_1"
  type: "ReLU"
  bottom: "conv4_1"
  top: "conv4_1"
}
layer {
  name: "conv4_2"
  type: "Convolution"
  bottom: "conv4_1"
  top: "conv4_2"
  convolution_param {
    num_output: 512
    pad: 1
    kernel_size: 3
    stride: 1
    weight_filler {
      type: "msra"
    }
    bias_filler {
      type: "constant"
    }
    engine: CUDNN
  }
}
layer {
  name: "relu4_2"
  type: "ReLU"
  bottom: "conv4_2"
  top: "conv4_2"
}
layer {
  name: "conv4_3"
  type: "Convolution"
  bottom: "conv4_2"
  top: "conv4_3"
  convolution_param {
    num_output: 512
    pad: 1
    kernel_size: 3
    stride: 1
    weight_filler {
      type: "msra"
    }
    bias_filler {
      type: "constant"
    }
    engine: CUDNN
  }
}
layer {
  name: "relu4_3"
  type: "ReLU"
  bottom: "conv4_3"
  top: "conv4_3"
}
layer {
  name: "tpp5"
  type: "TPP"
  bottom: "conv4_3"
  top: "tpp5"
  tpp_param {
    pyramid_layer: 1
    pyramid_layer: 2
    pyramid_layer: 3
    pyramid_layer: 4
    pyramid_layer: 5
    pool: MAX
    engine: CUDNN
  }
}
layer {
  name: "reshape"
  type: "Reshape"
  bottom: "tpp5"
  top: "reshape"
  reshape_param {
    shape {
      dim: 1
      dim: 1920
      dim: 4
      dim: 1
    }
  }
}
layer {
  name: "premax"
  type: "Scale"
  bottom: "reshape"
  top: "premax"
  param {
    lr_mult: 0
    decay_mult: 0
  }
  scale_param {
    num_axes: 3
    filler {
      value: 1
    }
    bias_term: false
    bias_filler {
      value: 0
    }
  }
}
layer {
  name: "maxout"
  type: "Pooling"
  bottom: "premax"
  top: "maxout"
  pooling_param {
    pool: MAX
    global_pooling: true
  }
}
layer {
  name: "fc6"
  type: "InnerProduct"
  bottom: "maxout"
  top: "fc6"
  inner_product_param {
    num_output: 4096
    weight_filler {
      type: "msra"
    }
    bias_filler {
      type: "constant"
    }
  }
}
layer {
  name: "relu6"
  type: "ReLU"
  bottom: "fc6"
  top: "fc6"
}
layer {
  name: "fc7"
  type: "InnerProduct"
  bottom: "fc6"
  top: "fc7"
  inner_product_param {
    num_output: 4096
    weight_filler {
      type: "msra"
    }
    bias_filler {
      type: "constant"
    }
  }
}
layer {
  name: "relu7"
  type: "ReLU"
  bottom: "fc7"
  top: "fc7"
}
layer {
  name: "fc8"
  type: "InnerProduct"
  bottom: "fc7"
  top: "fc8"
  inner_product_param {
    num_output: 618
    weight_filler {
      type: "msra"
    }
    bias_filler {
      type: "constant"
    }
  }
}
layer {
  name: "sigmoid"
  type: "Sigmoid"
  bottom: "fc8"
  top: "sigmoid"
  include {
    phase: TEST
  }
}
layer {
  name: "silence"
  type: "Silence"
  bottom: "sigmoid"
  include {
    phase: TEST
  }
}
layer {
  name: "loss"
  type: "SigmoidCrossEntropyLoss"
  bottom: "fc8"
  bottom: "phocs"
  top: "loss"
}
I0129 12:37:28.736479 22730 layer_factory.hpp:77] Creating layer word_images
I0129 12:37:28.745904 22730 db_lmdb.cpp:35] Opened lmdb /data/fwolf/iam_50000/iam-db_nti500000_pul2-3-4-5_test_word_images_lmdb
I0129 12:37:28.745976 22730 net.cpp:84] Creating Layer word_images
I0129 12:37:28.745991 22730 net.cpp:380] word_images -> word_images
I0129 12:37:28.746013 22730 net.cpp:380] word_images -> label
I0129 12:37:28.746505 22730 data_layer.cpp:44] output data size: 1,1,90,94
I0129 12:37:28.764930 22730 net.cpp:122] Setting up word_images
I0129 12:37:28.764994 22730 net.cpp:129] Top shape: 1 1 90 94 (8460)
I0129 12:37:28.765002 22730 net.cpp:129] Top shape: 1 (1)
I0129 12:37:28.765007 22730 net.cpp:137] Memory required for data: 33844
I0129 12:37:28.765015 22730 layer_factory.hpp:77] Creating layer phocs
I0129 12:37:28.765444 22730 db_lmdb.cpp:35] Opened lmdb /data/fwolf/iam_50000/iam-db_nti500000_pul2-3-4-5_test_phocs_lmdb
I0129 12:37:28.765506 22730 net.cpp:84] Creating Layer phocs
I0129 12:37:28.765676 22730 net.cpp:380] phocs -> phocs
I0129 12:37:28.765703 22730 net.cpp:380] phocs -> label_phocs
I0129 12:37:28.767518 22730 data_layer.cpp:44] output data size: 1,1,1,618
I0129 12:37:28.772176 22730 net.cpp:122] Setting up phocs
I0129 12:37:28.772217 22730 net.cpp:129] Top shape: 1 1 1 618 (618)
I0129 12:37:28.772224 22730 net.cpp:129] Top shape: 1 (1)
I0129 12:37:28.772228 22730 net.cpp:137] Memory required for data: 36320
I0129 12:37:28.772236 22730 layer_factory.hpp:77] Creating layer conv1_1
I0129 12:37:28.772263 22730 net.cpp:84] Creating Layer conv1_1
I0129 12:37:28.772269 22730 net.cpp:406] conv1_1 <- word_images
I0129 12:37:28.772280 22730 net.cpp:380] conv1_1 -> conv1_1
I0129 12:37:28.774463 22730 net.cpp:122] Setting up conv1_1
I0129 12:37:28.774509 22730 net.cpp:129] Top shape: 1 64 90 94 (541440)
I0129 12:37:28.774514 22730 net.cpp:137] Memory required for data: 2202080
I0129 12:37:28.774534 22730 layer_factory.hpp:77] Creating layer relu1_1
I0129 12:37:28.774550 22730 net.cpp:84] Creating Layer relu1_1
I0129 12:37:28.774555 22730 net.cpp:406] relu1_1 <- conv1_1
I0129 12:37:28.774564 22730 net.cpp:367] relu1_1 -> conv1_1 (in-place)
I0129 12:37:28.775568 22730 net.cpp:122] Setting up relu1_1
I0129 12:37:28.775621 22730 net.cpp:129] Top shape: 1 64 90 94 (541440)
I0129 12:37:28.775630 22730 net.cpp:137] Memory required for data: 4367840
I0129 12:37:28.775642 22730 layer_factory.hpp:77] Creating layer conv1_2
I0129 12:37:28.775679 22730 net.cpp:84] Creating Layer conv1_2
I0129 12:37:28.775691 22730 net.cpp:406] conv1_2 <- conv1_1
I0129 12:37:28.775707 22730 net.cpp:380] conv1_2 -> conv1_2
I0129 12:37:28.779456 22730 net.cpp:122] Setting up conv1_2
I0129 12:37:28.779500 22730 net.cpp:129] Top shape: 1 64 90 94 (541440)
I0129 12:37:28.779505 22730 net.cpp:137] Memory required for data: 6533600
I0129 12:37:28.779523 22730 layer_factory.hpp:77] Creating layer relu1_2
I0129 12:37:28.779538 22730 net.cpp:84] Creating Layer relu1_2
I0129 12:37:28.779543 22730 net.cpp:406] relu1_2 <- conv1_2
I0129 12:37:28.779554 22730 net.cpp:367] relu1_2 -> conv1_2 (in-place)
I0129 12:37:28.781440 22730 net.cpp:122] Setting up relu1_2
I0129 12:37:28.781479 22730 net.cpp:129] Top shape: 1 64 90 94 (541440)
I0129 12:37:28.781484 22730 net.cpp:137] Memory required for data: 8699360
I0129 12:37:28.781491 22730 layer_factory.hpp:77] Creating layer pool1
I0129 12:37:28.781507 22730 net.cpp:84] Creating Layer pool1
I0129 12:37:28.781513 22730 net.cpp:406] pool1 <- conv1_2
I0129 12:37:28.781522 22730 net.cpp:380] pool1 -> pool1
I0129 12:37:28.781627 22730 net.cpp:122] Setting up pool1
I0129 12:37:28.781636 22730 net.cpp:129] Top shape: 1 64 45 47 (135360)
I0129 12:37:28.781641 22730 net.cpp:137] Memory required for data: 9240800
I0129 12:37:28.781644 22730 layer_factory.hpp:77] Creating layer conv2_1
I0129 12:37:28.781661 22730 net.cpp:84] Creating Layer conv2_1
I0129 12:37:28.781664 22730 net.cpp:406] conv2_1 <- pool1
I0129 12:37:28.781672 22730 net.cpp:380] conv2_1 -> conv2_1
I0129 12:37:28.794759 22730 net.cpp:122] Setting up conv2_1
I0129 12:37:28.794803 22730 net.cpp:129] Top shape: 1 128 45 47 (270720)
I0129 12:37:28.794808 22730 net.cpp:137] Memory required for data: 10323680
I0129 12:37:28.794827 22730 layer_factory.hpp:77] Creating layer relu2_1
I0129 12:37:28.794847 22730 net.cpp:84] Creating Layer relu2_1
I0129 12:37:28.794853 22730 net.cpp:406] relu2_1 <- conv2_1
I0129 12:37:28.794868 22730 net.cpp:367] relu2_1 -> conv2_1 (in-place)
I0129 12:37:28.795826 22730 net.cpp:122] Setting up relu2_1
I0129 12:37:28.795861 22730 net.cpp:129] Top shape: 1 128 45 47 (270720)
I0129 12:37:28.795866 22730 net.cpp:137] Memory required for data: 11406560
I0129 12:37:28.795871 22730 layer_factory.hpp:77] Creating layer conv2_2
I0129 12:37:28.795893 22730 net.cpp:84] Creating Layer conv2_2
I0129 12:37:28.795899 22730 net.cpp:406] conv2_2 <- conv2_1
I0129 12:37:28.795909 22730 net.cpp:380] conv2_2 -> conv2_2
I0129 12:37:28.804314 22730 net.cpp:122] Setting up conv2_2
I0129 12:37:28.804360 22730 net.cpp:129] Top shape: 1 128 45 47 (270720)
I0129 12:37:28.804368 22730 net.cpp:137] Memory required for data: 12489440
I0129 12:37:28.804385 22730 layer_factory.hpp:77] Creating layer relu2_2
I0129 12:37:28.804402 22730 net.cpp:84] Creating Layer relu2_2
I0129 12:37:28.804409 22730 net.cpp:406] relu2_2 <- conv2_2
I0129 12:37:28.804417 22730 net.cpp:367] relu2_2 -> conv2_2 (in-place)
I0129 12:37:28.804738 22730 net.cpp:122] Setting up relu2_2
I0129 12:37:28.804754 22730 net.cpp:129] Top shape: 1 128 45 47 (270720)
I0129 12:37:28.804759 22730 net.cpp:137] Memory required for data: 13572320
I0129 12:37:28.804764 22730 layer_factory.hpp:77] Creating layer pool2
I0129 12:37:28.804774 22730 net.cpp:84] Creating Layer pool2
I0129 12:37:28.804778 22730 net.cpp:406] pool2 <- conv2_2
I0129 12:37:28.804788 22730 net.cpp:380] pool2 -> pool2
I0129 12:37:28.804889 22730 net.cpp:122] Setting up pool2
I0129 12:37:28.804901 22730 net.cpp:129] Top shape: 1 128 23 24 (70656)
I0129 12:37:28.804905 22730 net.cpp:137] Memory required for data: 13854944
I0129 12:37:28.804910 22730 layer_factory.hpp:77] Creating layer conv3_1
I0129 12:37:28.804929 22730 net.cpp:84] Creating Layer conv3_1
I0129 12:37:28.804932 22730 net.cpp:406] conv3_1 <- pool2
I0129 12:37:28.804940 22730 net.cpp:380] conv3_1 -> conv3_1
I0129 12:37:28.819196 22730 net.cpp:122] Setting up conv3_1
I0129 12:37:28.819236 22730 net.cpp:129] Top shape: 1 256 23 24 (141312)
I0129 12:37:28.819241 22730 net.cpp:137] Memory required for data: 14420192
I0129 12:37:28.819259 22730 layer_factory.hpp:77] Creating layer relu3_1
I0129 12:37:28.819274 22730 net.cpp:84] Creating Layer relu3_1
I0129 12:37:28.819280 22730 net.cpp:406] relu3_1 <- conv3_1
I0129 12:37:28.819288 22730 net.cpp:367] relu3_1 -> conv3_1 (in-place)
I0129 12:37:28.820622 22730 net.cpp:122] Setting up relu3_1
I0129 12:37:28.820659 22730 net.cpp:129] Top shape: 1 256 23 24 (141312)
I0129 12:37:28.820664 22730 net.cpp:137] Memory required for data: 14985440
I0129 12:37:28.820672 22730 layer_factory.hpp:77] Creating layer conv3_2
I0129 12:37:28.820694 22730 net.cpp:84] Creating Layer conv3_2
I0129 12:37:28.820700 22730 net.cpp:406] conv3_2 <- conv3_1
I0129 12:37:28.820709 22730 net.cpp:380] conv3_2 -> conv3_2
I0129 12:37:28.872936 22730 net.cpp:122] Setting up conv3_2
I0129 12:37:28.872970 22730 net.cpp:129] Top shape: 1 256 23 24 (141312)
I0129 12:37:28.872975 22730 net.cpp:137] Memory required for data: 15550688
I0129 12:37:28.872987 22730 layer_factory.hpp:77] Creating layer relu3_2
I0129 12:37:28.873000 22730 net.cpp:84] Creating Layer relu3_2
I0129 12:37:28.873006 22730 net.cpp:406] relu3_2 <- conv3_2
I0129 12:37:28.873015 22730 net.cpp:367] relu3_2 -> conv3_2 (in-place)
I0129 12:37:28.873620 22730 net.cpp:122] Setting up relu3_2
I0129 12:37:28.873636 22730 net.cpp:129] Top shape: 1 256 23 24 (141312)
I0129 12:37:28.873641 22730 net.cpp:137] Memory required for data: 16115936
I0129 12:37:28.873646 22730 layer_factory.hpp:77] Creating layer conv3_3
I0129 12:37:28.873664 22730 net.cpp:84] Creating Layer conv3_3
I0129 12:37:28.873672 22730 net.cpp:406] conv3_3 <- conv3_2
I0129 12:37:28.873679 22730 net.cpp:380] conv3_3 -> conv3_3
I0129 12:37:28.928565 22730 net.cpp:122] Setting up conv3_3
I0129 12:37:28.928601 22730 net.cpp:129] Top shape: 1 256 23 24 (141312)
I0129 12:37:28.928606 22730 net.cpp:137] Memory required for data: 16681184
I0129 12:37:28.928619 22730 layer_factory.hpp:77] Creating layer relu3_3
I0129 12:37:28.928638 22730 net.cpp:84] Creating Layer relu3_3
I0129 12:37:28.928645 22730 net.cpp:406] relu3_3 <- conv3_3
I0129 12:37:28.928654 22730 net.cpp:367] relu3_3 -> conv3_3 (in-place)
I0129 12:37:28.929215 22730 net.cpp:122] Setting up relu3_3
I0129 12:37:28.929227 22730 net.cpp:129] Top shape: 1 256 23 24 (141312)
I0129 12:37:28.929232 22730 net.cpp:137] Memory required for data: 17246432
I0129 12:37:28.929236 22730 layer_factory.hpp:77] Creating layer conv3_4
I0129 12:37:28.929252 22730 net.cpp:84] Creating Layer conv3_4
I0129 12:37:28.929256 22730 net.cpp:406] conv3_4 <- conv3_3
I0129 12:37:28.929265 22730 net.cpp:380] conv3_4 -> conv3_4
I0129 12:37:28.956987 22730 net.cpp:122] Setting up conv3_4
I0129 12:37:28.957027 22730 net.cpp:129] Top shape: 1 256 23 24 (141312)
I0129 12:37:28.957032 22730 net.cpp:137] Memory required for data: 17811680
I0129 12:37:28.957046 22730 layer_factory.hpp:77] Creating layer relu3_4
I0129 12:37:28.957060 22730 net.cpp:84] Creating Layer relu3_4
I0129 12:37:28.957067 22730 net.cpp:406] relu3_4 <- conv3_4
I0129 12:37:28.957077 22730 net.cpp:367] relu3_4 -> conv3_4 (in-place)
I0129 12:37:28.957672 22730 net.cpp:122] Setting up relu3_4
I0129 12:37:28.957690 22730 net.cpp:129] Top shape: 1 256 23 24 (141312)
I0129 12:37:28.957695 22730 net.cpp:137] Memory required for data: 18376928
I0129 12:37:28.957700 22730 layer_factory.hpp:77] Creating layer conv3_5
I0129 12:37:28.957716 22730 net.cpp:84] Creating Layer conv3_5
I0129 12:37:28.957722 22730 net.cpp:406] conv3_5 <- conv3_4
I0129 12:37:28.957731 22730 net.cpp:380] conv3_5 -> conv3_5
I0129 12:37:29.006256 22730 net.cpp:122] Setting up conv3_5
I0129 12:37:29.006297 22730 net.cpp:129] Top shape: 1 256 23 24 (141312)
I0129 12:37:29.006304 22730 net.cpp:137] Memory required for data: 18942176
I0129 12:37:29.006323 22730 layer_factory.hpp:77] Creating layer relu3_5
I0129 12:37:29.006338 22730 net.cpp:84] Creating Layer relu3_5
I0129 12:37:29.006345 22730 net.cpp:406] relu3_5 <- conv3_5
I0129 12:37:29.006353 22730 net.cpp:367] relu3_5 -> conv3_5 (in-place)
I0129 12:37:29.011219 22730 net.cpp:122] Setting up relu3_5
I0129 12:37:29.011258 22730 net.cpp:129] Top shape: 1 256 23 24 (141312)
I0129 12:37:29.011263 22730 net.cpp:137] Memory required for data: 19507424
I0129 12:37:29.011270 22730 layer_factory.hpp:77] Creating layer conv3_6
I0129 12:37:29.011293 22730 net.cpp:84] Creating Layer conv3_6
I0129 12:37:29.011299 22730 net.cpp:406] conv3_6 <- conv3_5
I0129 12:37:29.011310 22730 net.cpp:380] conv3_6 -> conv3_6
I0129 12:37:29.082929 22730 net.cpp:122] Setting up conv3_6
I0129 12:37:29.082970 22730 net.cpp:129] Top shape: 1 256 23 24 (141312)
I0129 12:37:29.082975 22730 net.cpp:137] Memory required for data: 20072672
I0129 12:37:29.082990 22730 layer_factory.hpp:77] Creating layer relu3_6
I0129 12:37:29.083004 22730 net.cpp:84] Creating Layer relu3_6
I0129 12:37:29.083010 22730 net.cpp:406] relu3_6 <- conv3_6
I0129 12:37:29.083019 22730 net.cpp:367] relu3_6 -> conv3_6 (in-place)
I0129 12:37:29.083786 22730 net.cpp:122] Setting up relu3_6
I0129 12:37:29.083803 22730 net.cpp:129] Top shape: 1 256 23 24 (141312)
I0129 12:37:29.083808 22730 net.cpp:137] Memory required for data: 20637920
I0129 12:37:29.083812 22730 layer_factory.hpp:77] Creating layer conv4_1
I0129 12:37:29.083829 22730 net.cpp:84] Creating Layer conv4_1
I0129 12:37:29.083835 22730 net.cpp:406] conv4_1 <- conv3_6
I0129 12:37:29.083844 22730 net.cpp:380] conv4_1 -> conv4_1
I0129 12:37:29.211625 22730 net.cpp:122] Setting up conv4_1
I0129 12:37:29.211673 22730 net.cpp:129] Top shape: 1 512 23 24 (282624)
I0129 12:37:29.211678 22730 net.cpp:137] Memory required for data: 21768416
I0129 12:37:29.211694 22730 layer_factory.hpp:77] Creating layer relu4_1
I0129 12:37:29.211709 22730 net.cpp:84] Creating Layer relu4_1
I0129 12:37:29.211716 22730 net.cpp:406] relu4_1 <- conv4_1
I0129 12:37:29.211725 22730 net.cpp:367] relu4_1 -> conv4_1 (in-place)
I0129 12:37:29.213520 22730 net.cpp:122] Setting up relu4_1
I0129 12:37:29.213562 22730 net.cpp:129] Top shape: 1 512 23 24 (282624)
I0129 12:37:29.213572 22730 net.cpp:137] Memory required for data: 22898912
I0129 12:37:29.213580 22730 layer_factory.hpp:77] Creating layer conv4_2
I0129 12:37:29.213603 22730 net.cpp:84] Creating Layer conv4_2
I0129 12:37:29.213610 22730 net.cpp:406] conv4_2 <- conv4_1
I0129 12:37:29.213620 22730 net.cpp:380] conv4_2 -> conv4_2
I0129 12:37:29.308476 22730 net.cpp:122] Setting up conv4_2
I0129 12:37:29.334570 22730 net.cpp:129] Top shape: 1 512 23 24 (282624)
I0129 12:37:29.334589 22730 net.cpp:137] Memory required for data: 24029408
I0129 12:37:29.334604 22730 layer_factory.hpp:77] Creating layer relu4_2
I0129 12:37:29.334619 22730 net.cpp:84] Creating Layer relu4_2
I0129 12:37:29.334632 22730 net.cpp:406] relu4_2 <- conv4_2
I0129 12:37:29.334642 22730 net.cpp:367] relu4_2 -> conv4_2 (in-place)
I0129 12:37:29.334944 22730 net.cpp:122] Setting up relu4_2
I0129 12:37:29.334954 22730 net.cpp:129] Top shape: 1 512 23 24 (282624)
I0129 12:37:29.334956 22730 net.cpp:137] Memory required for data: 25159904
I0129 12:37:29.334959 22730 layer_factory.hpp:77] Creating layer conv4_3
I0129 12:37:29.334971 22730 net.cpp:84] Creating Layer conv4_3
I0129 12:37:29.334975 22730 net.cpp:406] conv4_3 <- conv4_2
I0129 12:37:29.334980 22730 net.cpp:380] conv4_3 -> conv4_3
I0129 12:37:29.411049 22730 net.cpp:122] Setting up conv4_3
I0129 12:37:29.411090 22730 net.cpp:129] Top shape: 1 512 23 24 (282624)
I0129 12:37:29.411095 22730 net.cpp:137] Memory required for data: 26290400
I0129 12:37:29.411108 22730 layer_factory.hpp:77] Creating layer relu4_3
I0129 12:37:29.411121 22730 net.cpp:84] Creating Layer relu4_3
I0129 12:37:29.411128 22730 net.cpp:406] relu4_3 <- conv4_3
I0129 12:37:29.411135 22730 net.cpp:367] relu4_3 -> conv4_3 (in-place)
I0129 12:37:29.412400 22730 net.cpp:122] Setting up relu4_3
I0129 12:37:29.412415 22730 net.cpp:129] Top shape: 1 512 23 24 (282624)
I0129 12:37:29.412418 22730 net.cpp:137] Memory required for data: 27420896
I0129 12:37:29.412422 22730 layer_factory.hpp:77] Creating layer tpp5
I0129 12:37:29.412431 22730 net.cpp:84] Creating Layer tpp5
I0129 12:37:29.412436 22730 net.cpp:406] tpp5 <- conv4_3
I0129 12:37:29.412443 22730 net.cpp:380] tpp5 -> tpp5
I0129 12:37:29.413216 22730 net.cpp:122] Setting up tpp5
I0129 12:37:29.413228 22730 net.cpp:129] Top shape: 1 7680 (7680)
I0129 12:37:29.413231 22730 net.cpp:137] Memory required for data: 27451616
I0129 12:37:29.413236 22730 layer_factory.hpp:77] Creating layer reshape
I0129 12:37:29.413245 22730 net.cpp:84] Creating Layer reshape
I0129 12:37:29.413250 22730 net.cpp:406] reshape <- tpp5
I0129 12:37:29.413256 22730 net.cpp:380] reshape -> reshape
I0129 12:37:29.413298 22730 net.cpp:122] Setting up reshape
I0129 12:37:29.413305 22730 net.cpp:129] Top shape: 1 1920 4 1 (7680)
I0129 12:37:29.413309 22730 net.cpp:137] Memory required for data: 27482336
I0129 12:37:29.413313 22730 layer_factory.hpp:77] Creating layer premax
I0129 12:37:29.413326 22730 net.cpp:84] Creating Layer premax
I0129 12:37:29.413331 22730 net.cpp:406] premax <- reshape
I0129 12:37:29.413336 22730 net.cpp:380] premax -> premax
I0129 12:37:29.413489 22730 net.cpp:122] Setting up premax
I0129 12:37:29.413498 22730 net.cpp:129] Top shape: 1 1920 4 1 (7680)
I0129 12:37:29.413502 22730 net.cpp:137] Memory required for data: 27513056
I0129 12:37:29.413508 22730 layer_factory.hpp:77] Creating layer maxout
I0129 12:37:29.413517 22730 net.cpp:84] Creating Layer maxout
I0129 12:37:29.413522 22730 net.cpp:406] maxout <- premax
I0129 12:37:29.413527 22730 net.cpp:380] maxout -> maxout
I0129 12:37:29.413583 22730 net.cpp:122] Setting up maxout
I0129 12:37:29.413590 22730 net.cpp:129] Top shape: 1 1920 1 1 (1920)
I0129 12:37:29.413594 22730 net.cpp:137] Memory required for data: 27520736
I0129 12:37:29.413597 22730 layer_factory.hpp:77] Creating layer fc6
I0129 12:37:29.413606 22730 net.cpp:84] Creating Layer fc6
I0129 12:37:29.413610 22730 net.cpp:406] fc6 <- maxout
I0129 12:37:29.413617 22730 net.cpp:380] fc6 -> fc6
I0129 12:37:29.734069 22730 net.cpp:122] Setting up fc6
I0129 12:37:29.734104 22730 net.cpp:129] Top shape: 1 4096 (4096)
I0129 12:37:29.734115 22730 net.cpp:137] Memory required for data: 27537120
I0129 12:37:29.734128 22730 layer_factory.hpp:77] Creating layer relu6
I0129 12:37:29.734143 22730 net.cpp:84] Creating Layer relu6
I0129 12:37:29.734148 22730 net.cpp:406] relu6 <- fc6
I0129 12:37:29.734156 22730 net.cpp:367] relu6 -> fc6 (in-place)
I0129 12:37:29.739624 22730 net.cpp:122] Setting up relu6
I0129 12:37:29.739667 22730 net.cpp:129] Top shape: 1 4096 (4096)
I0129 12:37:29.739675 22730 net.cpp:137] Memory required for data: 27553504
I0129 12:37:29.739684 22730 layer_factory.hpp:77] Creating layer fc7
I0129 12:37:29.739703 22730 net.cpp:84] Creating Layer fc7
I0129 12:37:29.739711 22730 net.cpp:406] fc7 <- fc6
I0129 12:37:29.739724 22730 net.cpp:380] fc7 -> fc7
I0129 12:37:30.609531 22730 net.cpp:122] Setting up fc7
I0129 12:37:30.609577 22730 net.cpp:129] Top shape: 1 4096 (4096)
I0129 12:37:30.609582 22730 net.cpp:137] Memory required for data: 27569888
I0129 12:37:30.609594 22730 layer_factory.hpp:77] Creating layer relu7
I0129 12:37:30.609606 22730 net.cpp:84] Creating Layer relu7
I0129 12:37:30.609611 22730 net.cpp:406] relu7 <- fc7
I0129 12:37:30.609619 22730 net.cpp:367] relu7 -> fc7 (in-place)
I0129 12:37:30.610363 22730 net.cpp:122] Setting up relu7
I0129 12:37:30.610383 22730 net.cpp:129] Top shape: 1 4096 (4096)
I0129 12:37:30.610388 22730 net.cpp:137] Memory required for data: 27586272
I0129 12:37:30.610393 22730 layer_factory.hpp:77] Creating layer fc8
I0129 12:37:30.610402 22730 net.cpp:84] Creating Layer fc8
I0129 12:37:30.610407 22730 net.cpp:406] fc8 <- fc7
I0129 12:37:30.610424 22730 net.cpp:380] fc8 -> fc8
I0129 12:37:30.708775 22730 net.cpp:122] Setting up fc8
I0129 12:37:30.708815 22730 net.cpp:129] Top shape: 1 618 (618)
I0129 12:37:30.708820 22730 net.cpp:137] Memory required for data: 27588744
I0129 12:37:30.708837 22730 layer_factory.hpp:77] Creating layer fc8_fc8_0_split
I0129 12:37:30.708851 22730 net.cpp:84] Creating Layer fc8_fc8_0_split
I0129 12:37:30.708858 22730 net.cpp:406] fc8_fc8_0_split <- fc8
I0129 12:37:30.708865 22730 net.cpp:380] fc8_fc8_0_split -> fc8_fc8_0_split_0
I0129 12:37:30.708876 22730 net.cpp:380] fc8_fc8_0_split -> fc8_fc8_0_split_1
I0129 12:37:30.708942 22730 net.cpp:122] Setting up fc8_fc8_0_split
I0129 12:37:30.708950 22730 net.cpp:129] Top shape: 1 618 (618)
I0129 12:37:30.708956 22730 net.cpp:129] Top shape: 1 618 (618)
I0129 12:37:30.708959 22730 net.cpp:137] Memory required for data: 27593688
I0129 12:37:30.708964 22730 layer_factory.hpp:77] Creating layer sigmoid
I0129 12:37:30.708973 22730 net.cpp:84] Creating Layer sigmoid
I0129 12:37:30.708977 22730 net.cpp:406] sigmoid <- fc8_fc8_0_split_0
I0129 12:37:30.708986 22730 net.cpp:380] sigmoid -> sigmoid
I0129 12:37:30.709746 22730 net.cpp:122] Setting up sigmoid
I0129 12:37:30.709761 22730 net.cpp:129] Top shape: 1 618 (618)
I0129 12:37:30.709766 22730 net.cpp:137] Memory required for data: 27596160
I0129 12:37:30.709770 22730 layer_factory.hpp:77] Creating layer silence
I0129 12:37:30.709779 22730 net.cpp:84] Creating Layer silence
I0129 12:37:30.709784 22730 net.cpp:406] silence <- sigmoid
I0129 12:37:30.709789 22730 net.cpp:122] Setting up silence
I0129 12:37:30.709792 22730 net.cpp:137] Memory required for data: 27596160
…
