…
  phase: TRAIN
}
layer {
  name: "word_images"
  type: "Data"
  top: "word_images"
  top: "label"
  transform_param {
    scale: -0.0039215689
    mean_value: 255
  }
  data_param {
    source: "/data/fwolf/iam_50000/iam-db_nti500000_pul2-3-4-5_train_word_images_lmdb"
    batch_size: 1
    backend: LMDB
    prefetch: 20
  }
}
layer {
  name: "phocs"
  type: "Data"
  top: "phocs"
  top: "label_phocs"
  data_param {
    source: "/data/fwolf/iam_50000/iam-db_nti500000_pul2-3-4-5_train_phocs_lmdb"
    batch_size: 1
    backend: LMDB
    prefetch: 20
  }
}
layer {
  name: "conv1_1"
  type: "Convolution"
  bottom: "word_images"
  top: "conv1_1"
  convolution_param {
    num_output: 64
    pad: 1
    kernel_size: 3
    stride: 1
    weight_filler {
      type: "msra"
    }
    bias_filler {
      type: "constant"
    }
    engine: CUDNN
  }
}
layer {
  name: "relu1_1"
  type: "ReLU"
  bottom: "conv1_1"
  top: "conv1_1"
}
layer {
  name: "conv1_2"
  type: "Convolution"
  bottom: "conv1_1"
  top: "conv1_2"
  convolution_param {
    num_output: 64
    pad: 1
    kernel_size: 3
    stride: 1
    weight_filler {
      type: "msra"
    }
    bias_filler {
      type: "constant"
    }
    engine: CUDNN
  }
}
layer {
  name: "relu1_2"
  type: "ReLU"
  bottom: "conv1_2"
  top: "conv1_2"
}
layer {
  name: "pool1"
  type: "Pooling"
  bottom: "conv1_2"
  top: "pool1"
  pooling_param {
    pool: MAX
    kernel_size: 2
    stride: 2
  }
}
layer {
  name: "conv2_1"
  type: "Convolution"
  bottom: "pool1"
  top: "conv2_1"
  convolution_param {
    num_output: 128
    pad: 1
    kernel_size: 3
    stride: 1
    weight_filler {
      type: "msra"
    }
    bias_filler {
      type: "constant"
    }
    engine: CUDNN
  }
}
layer {
  name: "relu2_1"
  type: "ReLU"
  bottom: "conv2_1"
  top: "conv2_1"
}
layer {
  name: "conv2_2"
  type: "Convolution"
  bottom: "conv2_1"
  top: "conv2_2"
  convolution_param {
    num_output: 128
    pad: 1
    kernel_size: 3
    stride: 1
    weight_filler {
      type: "msra"
    }
    bias_filler {
      type: "constant"
    }
    engine: CUDNN
  }
}
layer {
  name: "relu2_2"
  type: "ReLU"
  bottom: "conv2_2"
  top: "conv2_2"
}
layer {
  name: "pool2"
  type: "Pooling"
  bottom: "conv2_2"
  top: "pool2"
  pooling_param {
    pool: MAX
    kernel_size: 2
    stride: 2
  }
}
layer {
  name: "conv3_1"
  type: "Convolution"
  bottom: "pool2"
  top: "conv3_1"
  convolution_param {
    num_output: 256
    pad: 1
    kernel_size: 3
    stride: 1
    weight_filler {
      type: "msra"
    }
    bias_filler {
      type: "constant"
    }
    engine: CUDNN
  }
}
layer {
  name: "relu3_1"
  type: "ReLU"
  bottom: "conv3_1"
  top: "conv3_1"
}
layer {
  name: "conv3_2"
  type: "Convolution"
  bottom: "conv3_1"
  top: "conv3_2"
  convolution_param {
    num_output: 256
    pad: 1
    kernel_size: 3
    stride: 1
    weight_filler {
      type: "msra"
    }
    bias_filler {
      type: "constant"
    }
    engine: CUDNN
  }
}
layer {
  name: "relu3_2"
  type: "ReLU"
  bottom: "conv3_2"
  top: "conv3_2"
}
layer {
  name: "conv3_3"
  type: "Convolution"
  bottom: "conv3_2"
  top: "conv3_3"
  convolution_param {
    num_output: 256
    pad: 1
    kernel_size: 3
    stride: 1
    weight_filler {
      type: "msra"
    }
    bias_filler {
      type: "constant"
    }
    engine: CUDNN
  }
}
layer {
  name: "relu3_3"
  type: "ReLU"
  bottom: "conv3_3"
  top: "conv3_3"
}
layer {
  name: "conv3_4"
  type: "Convolution"
  bottom: "conv3_3"
  top: "conv3_4"
  convolution_param {
    num_output: 256
    pad: 1
    kernel_size: 3
    stride: 1
    weight_filler {
      type: "msra"
    }
    bias_filler {
      type: "constant"
    }
    engine: CUDNN
  }
}
layer {
  name: "relu3_4"
  type: "ReLU"
  bottom: "conv3_4"
  top: "conv3_4"
}
layer {
  name: "conv3_5"
  type: "Convolution"
  bottom: "conv3_4"
  top: "conv3_5"
  convolution_param {
    num_output: 256
    pad: 1
    kernel_size: 3
    stride: 1
    weight_filler {
      type: "msra"
    }
    bias_filler {
      type: "constant"
    }
    engine: CUDNN
  }
}
layer {
  name: "relu3_5"
  type: "ReLU"
  bottom: "conv3_5"
  top: "conv3_5"
}
layer {
  name: "conv3_6"
  type: "Convolution"
  bottom: "conv3_5"
  top: "conv3_6"
  convolution_param {
    num_output: 256
    pad: 1
    kernel_size: 3
    stride: 1
    weight_filler {
      type: "msra"
    }
    bias_filler {
      type: "constant"
    }
    engine: CUDNN
  }
}
layer {
  name: "relu3_6"
  type: "ReLU"
  bottom: "conv3_6"
  top: "conv3_6"
}
layer {
  name: "conv4_1"
  type: "Convolution"
  bottom: "conv3_6"
  top: "conv4_1"
  convolution_param {
    num_output: 512
    pad: 1
    kernel_size: 3
    stride: 1
    weight_filler {
      type: "msra"
    }
    bias_filler {
      type: "constant"
    }
    engine: CUDNN
  }
}
layer {
  name: "relu4_1"
  type: "ReLU"
  bottom: "conv4_1"
  top: "conv4_1"
}
layer {
  name: "conv4_2"
  type: "Convolution"
  bottom: "conv4_1"
  top: "conv4_2"
  convolution_param {
    num_output: 512
    pad: 1
    kernel_size: 3
    stride: 1
    weight_filler {
      type: "msra"
    }
    bias_filler {
      type: "constant"
    }
    engine: CUDNN
  }
}
layer {
  name: "relu4_2"
  type: "ReLU"
  bottom: "conv4_2"
  top: "conv4_2"
}
layer {
  name: "conv4_3"
  type: "Convolution"
  bottom: "conv4_2"
  top: "conv4_3"
  convolution_param {
    num_output: 512
    pad: 1
    kernel_size: 3
    stride: 1
    weight_filler {
      type: "msra"
    }
    bias_filler {
      type: "constant"
    }
    engine: CUDNN
  }
}
layer {
  name: "relu4_3"
  type: "ReLU"
  bottom: "conv4_3"
  top: "conv4_3"
}
layer {
  name: "tpp5"
  type: "TPP"
  bottom: "conv4_3"
  top: "tpp5"
  tpp_param {
    pyramid_layer: 1
    pyramid_layer: 2
    pyramid_layer: 3
    pyramid_layer: 4
    pyramid_layer: 5
    pool: MAX
    engine: CUDNN
  }
}
layer {
  name: "fc6"
  type: "InnerProduct"
  bottom: "tpp5"
  top: "fc6"
  inner_product_param {
    num_output: 4096
    weight_filler {
      type: "msra"
    }
    bias_filler {
      type: "constant"
    }
  }
}
layer {
  name: "relu6"
  type: "ReLU"
  bottom: "fc6"
  top: "fc6"
}
layer {
  name: "drop6"
  type: "Dropout"
  bottom: "fc6"
  top: "fc6"
  include {
    phase: TRAIN
  }
  dropout_param {
    dropout_ratio: 0.5
  }
}
layer {
  name: "fc7"
  type: "InnerProduct"
  bottom: "fc6"
  top: "fc7"
  inner_product_param {
    num_output: 4096
    weight_filler {
      type: "msra"
    }
    bias_filler {
      type: "constant"
    }
  }
}
layer {
  name: "relu7"
  type: "ReLU"
  bottom: "fc7"
  top: "fc7"
}
layer {
  name: "drop7"
  type: "Dropout"
  bottom: "fc7"
  top: "fc7"
  include {
    phase: TRAIN
  }
  dropout_param {
    dropout_ratio: 0.5
  }
}
layer {
  name: "fc8"
  type: "InnerProduct"
  bottom: "fc7"
  top: "fc8"
  inner_product_param {
    num_output: 618
    weight_filler {
      type: "msra"
    }
    bias_filler {
      type: "constant"
    }
  }
}
layer {
  name: "loss"
  type: "SigmoidCrossEntropyLoss"
  bottom: "fc8"
  bottom: "phocs"
  top: "loss"
}
I0125 15:03:44.548596 26601 layer_factory.hpp:77] Creating layer word_images
I0125 15:03:44.548689 26601 db_lmdb.cpp:35] Opened lmdb /data/fwolf/iam_50000/iam-db_nti500000_pul2-3-4-5_train_word_images_lmdb
I0125 15:03:44.548729 26601 net.cpp:84] Creating Layer word_images
I0125 15:03:44.548738 26601 net.cpp:380] word_images -> word_images
I0125 15:03:44.548751 26601 net.cpp:380] word_images -> label
I0125 15:03:44.549710 26601 data_layer.cpp:44] output data size: 1,1,79,231
I0125 15:03:44.593828 26601 net.cpp:122] Setting up word_images
I0125 15:03:44.593863 26601 net.cpp:129] Top shape: 1 1 79 231 (18249)
I0125 15:03:44.593870 26601 net.cpp:129] Top shape: 1 (1)
I0125 15:03:44.593874 26601 net.cpp:137] Memory required for data: 73000
I0125 15:03:44.593883 26601 layer_factory.hpp:77] Creating layer phocs
I0125 15:03:44.593950 26601 db_lmdb.cpp:35] Opened lmdb /data/fwolf/iam_50000/iam-db_nti500000_pul2-3-4-5_train_phocs_lmdb
I0125 15:03:44.593986 26601 net.cpp:84] Creating Layer phocs
I0125 15:03:44.593993 26601 net.cpp:380] phocs -> phocs
I0125 15:03:44.594007 26601 net.cpp:380] phocs -> label_phocs
I0125 15:03:44.594266 26601 data_layer.cpp:44] output data size: 1,1,1,618
I0125 15:03:44.642328 26601 net.cpp:122] Setting up phocs
I0125 15:03:44.642364 26601 net.cpp:129] Top shape: 1 1 1 618 (618)
I0125 15:03:44.642369 26601 net.cpp:129] Top shape: 1 (1)
I0125 15:03:44.642374 26601 net.cpp:137] Memory required for data: 75476
I0125 15:03:44.642379 26601 layer_factory.hpp:77] Creating layer conv1_1
I0125 15:03:44.642401 26601 net.cpp:84] Creating Layer conv1_1
I0125 15:03:44.642406 26601 net.cpp:406] conv1_1 <- word_images
I0125 15:03:44.642416 26601 net.cpp:380] conv1_1 -> conv1_1
I0125 15:03:46.422710 26601 net.cpp:122] Setting up conv1_1
I0125 15:03:46.422745 26601 net.cpp:129] Top shape: 1 64 79 231 (1167936)
I0125 15:03:46.422750 26601 net.cpp:137] Memory required for data: 4747220
I0125 15:03:46.422768 26601 layer_factory.hpp:77] Creating layer relu1_1
I0125 15:03:46.422780 26601 net.cpp:84] Creating Layer relu1_1
I0125 15:03:46.422786 26601 net.cpp:406] relu1_1 <- conv1_1
I0125 15:03:46.422793 26601 net.cpp:367] relu1_1 -> conv1_1 (in-place)
I0125 15:03:46.423738 26601 net.cpp:122] Setting up relu1_1
I0125 15:03:46.427759 26601 net.cpp:129] Top shape: 1 64 79 231 (1167936)
I0125 15:03:46.427769 26601 net.cpp:137] Memory required for data: 9418964
I0125 15:03:46.427775 26601 layer_factory.hpp:77] Creating layer conv1_2
I0125 15:03:46.427790 26601 net.cpp:84] Creating Layer conv1_2
I0125 15:03:46.427795 26601 net.cpp:406] conv1_2 <- conv1_1
I0125 15:03:46.427803 26601 net.cpp:380] conv1_2 -> conv1_2
I0125 15:03:46.431025 26601 net.cpp:122] Setting up conv1_2
I0125 15:03:46.431062 26601 net.cpp:129] Top shape: 1 64 79 231 (1167936)
I0125 15:03:46.431067 26601 net.cpp:137] Memory required for data: 14090708
I0125 15:03:46.431082 26601 layer_factory.hpp:77] Creating layer relu1_2
I0125 15:03:46.431094 26601 net.cpp:84] Creating Layer relu1_2
I0125 15:03:46.431100 26601 net.cpp:406] relu1_2 <- conv1_2
I0125 15:03:46.431107 26601 net.cpp:367] relu1_2 -> conv1_2 (in-place)
I0125 15:03:46.431543 26601 net.cpp:122] Setting up relu1_2
I0125 15:03:46.431556 26601 net.cpp:129] Top shape: 1 64 79 231 (1167936)
I0125 15:03:46.431561 26601 net.cpp:137] Memory required for data: 18762452
I0125 15:03:46.431565 26601 layer_factory.hpp:77] Creating layer pool1
I0125 15:03:46.431574 26601 net.cpp:84] Creating Layer pool1
I0125 15:03:46.431578 26601 net.cpp:406] pool1 <- conv1_2
I0125 15:03:46.431586 26601 net.cpp:380] pool1 -> pool1
I0125 15:03:46.431635 26601 net.cpp:122] Setting up pool1
I0125 15:03:46.431643 26601 net.cpp:129] Top shape: 1 64 40 116 (296960)
I0125 15:03:46.431646 26601 net.cpp:137] Memory required for data: 19950292
I0125 15:03:46.431650 26601 layer_factory.hpp:77] Creating layer conv2_1
I0125 15:03:46.431663 26601 net.cpp:84] Creating Layer conv2_1
I0125 15:03:46.431674 26601 net.cpp:406] conv2_1 <- pool1
I0125 15:03:46.431681 26601 net.cpp:380] conv2_1 -> conv2_1
I0125 15:03:46.461112 26601 net.cpp:122] Setting up conv2_1
I0125 15:03:46.461153 26601 net.cpp:129] Top shape: 1 128 40 116 (593920)
I0125 15:03:46.461158 26601 net.cpp:137] Memory required for data: 22325972
I0125 15:03:46.461175 26601 layer_factory.hpp:77] Creating layer relu2_1
I0125 15:03:46.461190 26601 net.cpp:84] Creating Layer relu2_1
I0125 15:03:46.461196 26601 net.cpp:406] relu2_1 <- conv2_1
I0125 15:03:46.461205 26601 net.cpp:367] relu2_1 -> conv2_1 (in-place)
I0125 15:03:46.461908 26601 net.cpp:122] Setting up relu2_1
I0125 15:03:46.461925 26601 net.cpp:129] Top shape: 1 128 40 116 (593920)
I0125 15:03:46.461930 26601 net.cpp:137] Memory required for data: 24701652
I0125 15:03:46.461935 26601 layer_factory.hpp:77] Creating layer conv2_2
I0125 15:03:46.461951 26601 net.cpp:84] Creating Layer conv2_2
I0125 15:03:46.461956 26601 net.cpp:406] conv2_2 <- conv2_1
I0125 15:03:46.461966 26601 net.cpp:380] conv2_2 -> conv2_2
I0125 15:03:46.478541 26601 net.cpp:122] Setting up conv2_2
I0125 15:03:46.478580 26601 net.cpp:129] Top shape: 1 128 40 116 (593920)
I0125 15:03:46.478585 26601 net.cpp:137] Memory required for data: 27077332
I0125 15:03:46.478598 26601 layer_factory.hpp:77] Creating layer relu2_2
I0125 15:03:46.478611 26601 net.cpp:84] Creating Layer relu2_2
I0125 15:03:46.478617 26601 net.cpp:406] relu2_2 <- conv2_2
I0125 15:03:46.478626 26601 net.cpp:367] relu2_2 -> conv2_2 (in-place)
I0125 15:03:46.479430 26601 net.cpp:122] Setting up relu2_2
I0125 15:03:46.479442 26601 net.cpp:129] Top shape: 1 128 40 116 (593920)
I0125 15:03:46.479446 26601 net.cpp:137] Memory required for data: 29453012
I0125 15:03:46.479451 26601 layer_factory.hpp:77] Creating layer pool2
I0125 15:03:46.479460 26601 net.cpp:84] Creating Layer pool2
I0125 15:03:46.479465 26601 net.cpp:406] pool2 <- conv2_2
I0125 15:03:46.479471 26601 net.cpp:380] pool2 -> pool2
I0125 15:03:46.479524 26601 net.cpp:122] Setting up pool2
I0125 15:03:46.479533 26601 net.cpp:129] Top shape: 1 128 20 58 (148480)
I0125 15:03:46.479537 26601 net.cpp:137] Memory required for data: 30046932
I0125 15:03:46.479542 26601 layer_factory.hpp:77] Creating layer conv3_1
I0125 15:03:46.479554 26601 net.cpp:84] Creating Layer conv3_1
I0125 15:03:46.479559 26601 net.cpp:406] conv3_1 <- pool2
I0125 15:03:46.479566 26601 net.cpp:380] conv3_1 -> conv3_1
I0125 15:03:46.570977 26601 net.cpp:122] Setting up conv3_1
I0125 15:03:46.571015 26601 net.cpp:129] Top shape: 1 256 20 58 (296960)
I0125 15:03:46.571022 26601 net.cpp:137] Memory required for data: 31234772
I0125 15:03:46.571040 26601 layer_factory.hpp:77] Creating layer relu3_1
I0125 15:03:46.571054 26601 net.cpp:84] Creating Layer relu3_1
I0125 15:03:46.571059 26601 net.cpp:406] relu3_1 <- conv3_1
I0125 15:03:46.571068 26601 net.cpp:367] relu3_1 -> conv3_1 (in-place)
I0125 15:03:46.571542 26601 net.cpp:122] Setting up relu3_1
I0125 15:03:46.571557 26601 net.cpp:129] Top shape: 1 256 20 58 (296960)
I0125 15:03:46.571561 26601 net.cpp:137] Memory required for data: 32422612
I0125 15:03:46.571566 26601 layer_factory.hpp:77] Creating layer conv3_2
I0125 15:03:46.571583 26601 net.cpp:84] Creating Layer conv3_2
I0125 15:03:46.571588 26601 net.cpp:406] conv3_2 <- conv3_1
I0125 15:03:46.571595 26601 net.cpp:380] conv3_2 -> conv3_2
I0125 15:03:46.679428 26601 net.cpp:122] Setting up conv3_2
I0125 15:03:46.679468 26601 net.cpp:129] Top shape: 1 256 20 58 (296960)
I0125 15:03:46.679474 26601 net.cpp:137] Memory required for data: 33610452
I0125 15:03:46.679488 26601 layer_factory.hpp:77] Creating layer relu3_2
I0125 15:03:46.679500 26601 net.cpp:84] Creating Layer relu3_2
I0125 15:03:46.679507 26601 net.cpp:406] relu3_2 <- conv3_2
I0125 15:03:46.679515 26601 net.cpp:367] relu3_2 -> conv3_2 (in-place)
I0125 15:03:46.679966 26601 net.cpp:122] Setting up relu3_2
I0125 15:03:46.679980 26601 net.cpp:129] Top shape: 1 256 20 58 (296960)
I0125 15:03:46.679983 26601 net.cpp:137] Memory required for data: 34798292
I0125 15:03:46.679996 26601 layer_factory.hpp:77] Creating layer conv3_3
I0125 15:03:46.680012 26601 net.cpp:84] Creating Layer conv3_3
I0125 15:03:46.680017 26601 net.cpp:406] conv3_3 <- conv3_2
I0125 15:03:46.680025 26601 net.cpp:380] conv3_3 -> conv3_3
I0125 15:03:46.777773 26601 net.cpp:122] Setting up conv3_3
I0125 15:03:46.777808 26601 net.cpp:129] Top shape: 1 256 20 58 (296960)
I0125 15:03:46.777813 26601 net.cpp:137] Memory required for data: 35986132
I0125 15:03:46.777829 26601 layer_factory.hpp:77] Creating layer relu3_3
I0125 15:03:46.777842 26601 net.cpp:84] Creating Layer relu3_3
I0125 15:03:46.777848 26601 net.cpp:406] relu3_3 <- conv3_3
I0125 15:03:46.777854 26601 net.cpp:367] relu3_3 -> conv3_3 (in-place)
I0125 15:03:46.778329 26601 net.cpp:122] Setting up relu3_3
I0125 15:03:46.778344 26601 net.cpp:129] Top shape: 1 256 20 58 (296960)
I0125 15:03:46.778348 26601 net.cpp:137] Memory required for data: 37173972
I0125 15:03:46.778353 26601 layer_factory.hpp:77] Creating layer conv3_4
I0125 15:03:46.778369 26601 net.cpp:84] Creating Layer conv3_4
I0125 15:03:46.778374 26601 net.cpp:406] conv3_4 <- conv3_3
I0125 15:03:46.778384 26601 net.cpp:380] conv3_4 -> conv3_4
I0125 15:03:46.804050 26601 net.cpp:122] Setting up conv3_4
I0125 15:03:46.804090 26601 net.cpp:129] Top shape: 1 256 20 58 (296960)
I0125 15:03:46.804095 26601 net.cpp:137] Memory required for data: 38361812
I0125 15:03:46.804107 26601 layer_factory.hpp:77] Creating layer relu3_4
I0125 15:03:46.804121 26601 net.cpp:84] Creating Layer relu3_4
I0125 15:03:46.804126 26601 net.cpp:406] relu3_4 <- conv3_4
I0125 15:03:46.804133 26601 net.cpp:367] relu3_4 -> conv3_4 (in-place)
I0125 15:03:46.804637 26601 net.cpp:122] Setting up relu3_4
I0125 15:03:46.804654 26601 net.cpp:129] Top shape: 1 256 20 58 (296960)
I0125 15:03:46.804659 26601 net.cpp:137] Memory required for data: 39549652
I0125 15:03:46.804663 26601 layer_factory.hpp:77] Creating layer conv3_5
I0125 15:03:46.804678 26601 net.cpp:84] Creating Layer conv3_5
I0125 15:03:46.804684 26601 net.cpp:406] conv3_5 <- conv3_4
I0125 15:03:46.804692 26601 net.cpp:380] conv3_5 -> conv3_5
I0125 15:03:46.958055 26601 net.cpp:122] Setting up conv3_5
I0125 15:03:46.958091 26601 net.cpp:129] Top shape: 1 256 20 58 (296960)
I0125 15:03:46.958096 26601 net.cpp:137] Memory required for data: 40737492
I0125 15:03:46.958114 26601 layer_factory.hpp:77] Creating layer relu3_5
I0125 15:03:46.958127 26601 net.cpp:84] Creating Layer relu3_5
I0125 15:03:46.958133 26601 net.cpp:406] relu3_5 <- conv3_5
I0125 15:03:46.958142 26601 net.cpp:367] relu3_5 -> conv3_5 (in-place)
I0125 15:03:46.958372 26601 net.cpp:122] Setting up relu3_5
I0125 15:03:46.958382 26601 net.cpp:129] Top shape: 1 256 20 58 (296960)
I0125 15:03:46.958386 26601 net.cpp:137] Memory required for data: 41925332
I0125 15:03:46.958391 26601 layer_factory.hpp:77] Creating layer conv3_6
I0125 15:03:46.958405 26601 net.cpp:84] Creating Layer conv3_6
I0125 15:03:46.958410 26601 net.cpp:406] conv3_6 <- conv3_5
I0125 15:03:46.958417 26601 net.cpp:380] conv3_6 -> conv3_6
I0125 15:03:47.203946 26601 net.cpp:122] Setting up conv3_6
I0125 15:03:47.203980 26601 net.cpp:129] Top shape: 1 256 20 58 (296960)
I0125 15:03:47.203986 26601 net.cpp:137] Memory required for data: 43113172
I0125 15:03:47.204000 26601 layer_factory.hpp:77] Creating layer relu3_6
I0125 15:03:47.204013 26601 net.cpp:84] Creating Layer relu3_6
I0125 15:03:47.204020 26601 net.cpp:406] relu3_6 <- conv3_6
I0125 15:03:47.204030 26601 net.cpp:367] relu3_6 -> conv3_6 (in-place)
I0125 15:03:47.205641 26601 net.cpp:122] Setting up relu3_6
I0125 15:03:47.205669 26601 net.cpp:129] Top shape: 1 256 20 58 (296960)
I0125 15:03:47.205674 26601 net.cpp:137] Memory required for data: 44301012
I0125 15:03:47.205682 26601 layer_factory.hpp:77] Creating layer conv4_1
I0125 15:03:47.205701 26601 net.cpp:84] Creating Layer conv4_1
I0125 15:03:47.205708 26601 net.cpp:406] conv4_1 <- conv3_6
I0125 15:03:47.205719 26601 net.cpp:380] conv4_1 -> conv4_1
I0125 15:03:47.338253 26601 net.cpp:122] Setting up conv4_1
I0125 15:03:47.338294 26601 net.cpp:129] Top shape: 1 512 20 58 (593920)
I0125 15:03:47.338299 26601 net.cpp:137] Memory required for data: 46676692
I0125 15:03:47.338311 26601 layer_factory.hpp:77] Creating layer relu4_1
I0125 15:03:47.338323 26601 net.cpp:84] Creating Layer relu4_1
I0125 15:03:47.338330 26601 net.cpp:406] relu4_1 <- conv4_1
I0125 15:03:47.338340 26601 net.cpp:367] relu4_1 -> conv4_1 (in-place)
I0125 15:03:47.338697 26601 net.cpp:122] Setting up relu4_1
I0125 15:03:47.338712 26601 net.cpp:129] Top shape: 1 512 20 58 (593920)
I0125 15:03:47.338717 26601 net.cpp:137] Memory required for data: 49052372
I0125 15:03:47.338721 26601 layer_factory.hpp:77] Creating layer conv4_2
I0125 15:03:47.338737 26601 net.cpp:84] Creating Layer conv4_2
I0125 15:03:47.338742 26601 net.cpp:406] conv4_2 <- conv4_1
I0125 15:03:47.338749 26601 net.cpp:380] conv4_2 -> conv4_2
I0125 15:03:47.587527 26601 net.cpp:122] Setting up conv4_2
I0125 15:03:47.587561 26601 net.cpp:129] Top shape: 1 512 20 58 (593920)
I0125 15:03:47.587568 26601 net.cpp:137] Memory required for data: 51428052
I0125 15:03:47.587580 26601 layer_factory.hpp:77] Creating layer relu4_2
I0125 15:03:47.587592 26601 net.cpp:84] Creating Layer relu4_2
I0125 15:03:47.587599 26601 net.cpp:406] relu4_2 <- conv4_2
I0125 15:03:47.587608 26601 net.cpp:367] relu4_2 -> conv4_2 (in-place)
I0125 15:03:47.589853 26601 net.cpp:122] Setting up relu4_2
I0125 15:03:47.589869 26601 net.cpp:129] Top shape: 1 512 20 58 (593920)
I0125 15:03:47.589874 26601 net.cpp:137] Memory required for data: 53803732
I0125 15:03:47.589879 26601 layer_factory.hpp:77] Creating layer conv4_3
I0125 15:03:47.589895 26601 net.cpp:84] Creating Layer conv4_3
I0125 15:03:47.589900 26601 net.cpp:406] conv4_3 <- conv4_2
I0125 15:03:47.589910 26601 net.cpp:380] conv4_3 -> conv4_3
I0125 15:03:47.855211 26601 net.cpp:122] Setting up conv4_3
I0125 15:03:47.855247 26601 net.cpp:129] Top shape: 1 512 20 58 (593920)
I0125 15:03:47.855252 26601 net.cpp:137] Memory required for data: 56179412
I0125 15:03:47.855264 26601 layer_factory.hpp:77] Creating layer relu4_3
I0125 15:03:47.855276 26601 net.cpp:84] Creating Layer relu4_3
I0125 15:03:47.855283 26601 net.cpp:406] relu4_3 <- conv4_3
I0125 15:03:47.855291 26601 net.cpp:367] relu4_3 -> conv4_3 (in-place)
I0125 15:03:47.856196 26601 net.cpp:122] Setting up relu4_3
I0125 15:03:47.856210 26601 net.cpp:129] Top shape: 1 512 20 58 (593920)
I0125 15:03:47.856215 26601 net.cpp:137] Memory required for data: 58555092
I0125 15:03:47.856220 26601 layer_factory.hpp:77] Creating layer tpp5
I0125 15:03:47.856230 26601 net.cpp:84] Creating Layer tpp5
I0125 15:03:47.856233 26601 net.cpp:406] tpp5 <- conv4_3
I0125 15:03:47.856240 26601 net.cpp:380] tpp5 -> tpp5
I0125 15:03:47.857534 26601 net.cpp:122] Setting up tpp5
I0125 15:03:47.857547 26601 net.cpp:129] Top shape: 1 7680 (7680)
I0125 15:03:47.857550 26601 net.cpp:137] Memory required for data: 58585812
I0125 15:03:47.857554 26601 layer_factory.hpp:77] Creating layer fc6
I0125 15:03:47.857563 26601 net.cpp:84] Creating Layer fc6
I0125 15:03:47.857568 26601 net.cpp:406] fc6 <- tpp5
I0125 15:03:47.857576 26601 net.cpp:380] fc6 -> fc6
I0125 15:03:50.508872 26601 net.cpp:122] Setting up fc6
I0125 15:03:50.508918 26601 net.cpp:129] Top shape: 1 4096 (4096)
I0125 15:03:50.508924 26601 net.cpp:137] Memory required for data: 58602196
I0125 15:03:50.508937 26601 layer_factory.hpp:77] Creating layer relu6
I0125 15:03:50.508955 26601 net.cpp:84] Creating Layer relu6
I0125 15:03:50.508961 26601 net.cpp:406] relu6 <- fc6
I0125 15:03:50.508971 26601 net.cpp:367] relu6 -> fc6 (in-place)
I0125 15:03:50.509310 26601 net.cpp:122] Setting up relu6
I0125 15:03:50.509326 26601 net.cpp:129] Top shape: 1 4096 (4096)
I0125 15:03:50.509331 26601 net.cpp:137] Memory required for data: 58618580
I0125 15:03:50.509337 26601 layer_factory.hpp:77] Creating layer drop6
I0125 15:03:50.509351 26601 net.cpp:84] Creating Layer drop6
I0125 15:03:50.509356 26601 net.cpp:406] drop6 <- fc6
I0125 15:03:50.509364 26601 net.cpp:367] drop6 -> fc6 (in-place)
I0125 15:03:50.509418 26601 net.cpp:122] Setting up drop6
I0125 15:03:50.509425 26601 net.cpp:129] Top shape: 1 4096 (4096)
I0125 15:03:50.509430 26601 net.cpp:137] Memory required for data: 58634964
I0125 15:03:50.509435 26601 layer_factory.hpp:77] Creating layer fc7
I0125 15:03:50.509447 26601 net.cpp:84] Creating Layer fc7
I0125 15:03:50.509452 26601 net.cpp:406] fc7 <- fc6
I0125 15:03:50.509459 26601 net.cpp:380] fc7 -> fc7
I0125 15:03:51.537886 26601 net.cpp:122] Setting up fc7
I0125 15:03:51.537926 26601 net.cpp:129] Top shape: 1 4096 (4096)
I0125 15:03:51.537931 26601 net.cpp:137] Memory required for data: 58651348
I0125 15:03:51.537943 26601 layer_factory.hpp:77] Creating layer relu7
I0125 15:03:51.537955 26601 net.cpp:84] Creating Layer relu7
I0125 15:03:51.537961 26601 net.cpp:406] relu7 <- fc7
I0125 15:03:51.537968 26601 net.cpp:367] relu7 -> fc7 (in-place)
I0125 15:03:51.538625 26601 net.cpp:122] Setting up relu7
I0125 15:03:51.538645 26601 net.cpp:129] Top shape: 1 4096 (4096)
I0125 15:03:51.538650 26601 net.cpp:137] Memory required for data: 58667732
I0125 15:03:51.538655 26601 layer_factory.hpp:77] Creating layer drop7
I0125 15:03:51.538666 26601 net.cpp:84] Creating Layer drop7
I0125 15:03:51.538671 26601 net.cpp:406] drop7 <- fc7
I0125 15:03:51.538679 26601 net.cpp:367] drop7 -> fc7 (in-place)
I0125 15:03:51.538723 26601 net.cpp:122] Setting up drop7
I0125 15:03:51.538731 26601 net.cpp:129] Top shape: 1 4096 (4096)
I0125 15:03:51.538734 26601 net.cpp:137] Memory required for data: 58684116
I0125 15:03:51.538738 26601 layer_factory.hpp:77] Creating layer fc8
I0125 15:03:51.538749 26601 net.cpp:84] Creating Layer fc8
I0125 15:03:51.538753 26601 net.cpp:406] fc8 <- fc7
I0125 15:03:51.538758 26601 net.cpp:380] fc8 -> fc8
I0125 15:03:51.668444 26601 net.cpp:122] Setting up fc8
I0125 15:03:51.668479 26601 net.cpp:129] Top shape: 1 618 (618)
I0125 15:03:51.668484 26601 net.cpp:137] Memory required for data: 58686588
I0125 15:03:51.668495 26601 layer_factory.hpp:77] Creating layer loss
I0125 15:03:51.668509 26601 net.cpp:84] Creating Layer loss
I0125 15:03:51.668514 26601 net.cpp:406] loss <- fc8
I0125 15:03:51.668521 26601 net.cpp:406] loss <- phocs
I0125 15:03:51.668529 26601 net.cpp:380] loss -> loss
I0125 15:03:51.668586 26601 net.cpp:122] Setting up loss
…
  phase: TEST
}
layer {
  name: "word_images"
  type: "Data"
  top: "word_images"
  top: "label"
  transform_param {
    scale: -0.0039215689
    mean_value: 255
  }
  data_param {
    source: "/data/fwolf/iam_50000/iam-db_nti500000_pul2-3-4-5_test_word_images_lmdb"
    batch_size: 1
    backend: LMDB
    prefetch: 20
  }
}
layer {
  name: "phocs"
  type: "Data"
  top: "phocs"
  top: "label_phocs"
  data_param {
    source: "/data/fwolf/iam_50000/iam-db_nti500000_pul2-3-4-5_test_phocs_lmdb"
    batch_size: 1
    backend: LMDB
    prefetch: 20
  }
}
layer {
  name: "conv1_1"
  type: "Convolution"
  bottom: "word_images"
  top: "conv1_1"
  convolution_param {
    num_output: 64
    pad: 1
    kernel_size: 3
    stride: 1
    weight_filler {
      type: "msra"
    }
    bias_filler {
      type: "constant"
    }
    engine: CUDNN
  }
}
layer {
  name: "relu1_1"
  type: "ReLU"
  bottom: "conv1_1"
  top: "conv1_1"
}
layer {
  name: "conv1_2"
  type: "Convolution"
  bottom: "conv1_1"
  top: "conv1_2"
  convolution_param {
    num_output: 64
    pad: 1
    kernel_size: 3
    stride: 1
    weight_filler {
      type: "msra"
    }
    bias_filler {
      type: "constant"
    }
    engine: CUDNN
  }
}
layer {
  name: "relu1_2"
  type: "ReLU"
  bottom: "conv1_2"
  top: "conv1_2"
}
layer {
  name: "pool1"
  type: "Pooling"
  bottom: "conv1_2"
  top: "pool1"
  pooling_param {
    pool: MAX
    kernel_size: 2
    stride: 2
  }
}
layer {
  name: "conv2_1"
  type: "Convolution"
  bottom: "pool1"
  top: "conv2_1"
  convolution_param {
    num_output: 128
    pad: 1
    kernel_size: 3
    stride: 1
    weight_filler {
      type: "msra"
    }
    bias_filler {
      type: "constant"
    }
    engine: CUDNN
  }
}
layer {
  name: "relu2_1"
  type: "ReLU"
  bottom: "conv2_1"
  top: "conv2_1"
}
layer {
  name: "conv2_2"
  type: "Convolution"
  bottom: "conv2_1"
  top: "conv2_2"
  convolution_param {
    num_output: 128
    pad: 1
    kernel_size: 3
    stride: 1
    weight_filler {
      type: "msra"
    }
    bias_filler {
      type: "constant"
    }
    engine: CUDNN
  }
}
layer {
  name: "relu2_2"
  type: "ReLU"
  bottom: "conv2_2"
  top: "conv2_2"
}
layer {
  name: "pool2"
  type: "Pooling"
  bottom: "conv2_2"
  top: "pool2"
  pooling_param {
    pool: MAX
    kernel_size: 2
    stride: 2
  }
}
layer {
  name: "conv3_1"
  type: "Convolution"
  bottom: "pool2"
  top: "conv3_1"
  convolution_param {
    num_output: 256
    pad: 1
    kernel_size: 3
    stride: 1
    weight_filler {
      type: "msra"
    }
    bias_filler {
      type: "constant"
    }
    engine: CUDNN
  }
}
layer {
  name: "relu3_1"
  type: "ReLU"
  bottom: "conv3_1"
  top: "conv3_1"
}
layer {
  name: "conv3_2"
  type: "Convolution"
  bottom: "conv3_1"
  top: "conv3_2"
  convolution_param {
    num_output: 256
    pad: 1
    kernel_size: 3
    stride: 1
    weight_filler {
      type: "msra"
    }
    bias_filler {
      type: "constant"
    }
    engine: CUDNN
  }
}
layer {
  name: "relu3_2"
  type: "ReLU"
  bottom: "conv3_2"
  top: "conv3_2"
}
layer {
  name: "conv3_3"
  type: "Convolution"
  bottom: "conv3_2"
  top: "conv3_3"
  convolution_param {
    num_output: 256
    pad: 1
    kernel_size: 3
    stride: 1
    weight_filler {
      type: "msra"
    }
    bias_filler {
      type: "constant"
    }
    engine: CUDNN
  }
}
layer {
  name: "relu3_3"
  type: "ReLU"
  bottom: "conv3_3"
  top: "conv3_3"
}
layer {
  name: "conv3_4"
  type: "Convolution"
  bottom: "conv3_3"
  top: "conv3_4"
  convolution_param {
    num_output: 256
    pad: 1
    kernel_size: 3
    stride: 1
    weight_filler {
      type: "msra"
    }
    bias_filler {
      type: "constant"
    }
    engine: CUDNN
  }
}
layer {
  name: "relu3_4"
  type: "ReLU"
  bottom: "conv3_4"
  top: "conv3_4"
}
layer {
  name: "conv3_5"
  type: "Convolution"
  bottom: "conv3_4"
  top: "conv3_5"
  convolution_param {
    num_output: 256
    pad: 1
    kernel_size: 3
    stride: 1
    weight_filler {
      type: "msra"
    }
    bias_filler {
      type: "constant"
    }
    engine: CUDNN
  }
}
layer {
  name: "relu3_5"
  type: "ReLU"
  bottom: "conv3_5"
  top: "conv3_5"
}
layer {
  name: "conv3_6"
  type: "Convolution"
  bottom: "conv3_5"
  top: "conv3_6"
  convolution_param {
    num_output: 256
    pad: 1
    kernel_size: 3
    stride: 1
    weight_filler {
      type: "msra"
    }
    bias_filler {
      type: "constant"
    }
    engine: CUDNN
  }
}
layer {
  name: "relu3_6"
  type: "ReLU"
  bottom: "conv3_6"
  top: "conv3_6"
}
layer {
  name: "conv4_1"
  type: "Convolution"
  bottom: "conv3_6"
  top: "conv4_1"
  convolution_param {
    num_output: 512
    pad: 1
    kernel_size: 3
    stride: 1
    weight_filler {
      type: "msra"
    }
    bias_filler {
      type: "constant"
    }
    engine: CUDNN
  }
}
layer {
  name: "relu4_1"
  type: "ReLU"
  bottom: "conv4_1"
  top: "conv4_1"
}
layer {
  name: "conv4_2"
  type: "Convolution"
  bottom: "conv4_1"
  top: "conv4_2"
  convolution_param {
    num_output: 512
    pad: 1
    kernel_size: 3
    stride: 1
    weight_filler {
      type: "msra"
    }
    bias_filler {
      type: "constant"
    }
    engine: CUDNN
  }
}
layer {
  name: "relu4_2"
  type: "ReLU"
  bottom: "conv4_2"
  top: "conv4_2"
}
layer {
  name: "conv4_3"
  type: "Convolution"
  bottom: "conv4_2"
  top: "conv4_3"
  convolution_param {
    num_output: 512
    pad: 1
    kernel_size: 3
    stride: 1
    weight_filler {
      type: "msra"
    }
    bias_filler {
      type: "constant"
    }
    engine: CUDNN
  }
}
layer {
  name: "relu4_3"
  type: "ReLU"
  bottom: "conv4_3"
  top: "conv4_3"
}
layer {
  name: "tpp5"
  type: "TPP"
  bottom: "conv4_3"
  top: "tpp5"
  tpp_param {
    pyramid_layer: 1
    pyramid_layer: 2
    pyramid_layer: 3
    pyramid_layer: 4
    pyramid_layer: 5
    pool: MAX
    engine: CUDNN
  }
}
layer {
  name: "fc6"
  type: "InnerProduct"
  bottom: "tpp5"
  top: "fc6"
  inner_product_param {
    num_output: 4096
    weight_filler {
      type: "msra"
    }
    bias_filler {
      type: "constant"
    }
  }
}
layer {
  name: "relu6"
  type: "ReLU"
  bottom: "fc6"
  top: "fc6"
}
layer {
  name: "fc7"
  type: "InnerProduct"
  bottom: "fc6"
  top: "fc7"
  inner_product_param {
    num_output: 4096
    weight_filler {
      type: "msra"
    }
    bias_filler {
      type: "constant"
    }
  }
}
layer {
  name: "relu7"
  type: "ReLU"
  bottom: "fc7"
  top: "fc7"
}
layer {
  name: "fc8"
  type: "InnerProduct"
  bottom: "fc7"
  top: "fc8"
  inner_product_param {
    num_output: 618
    weight_filler {
      type: "msra"
    }
    bias_filler {
      type: "constant"
    }
  }
}
layer {
  name: "sigmoid"
  type: "Sigmoid"
  bottom: "fc8"
  top: "sigmoid"
  include {
    phase: TEST
  }
}
layer {
  name: "silence"
  type: "Silence"
  bottom: "sigmoid"
  include {
    phase: TEST
  }
}
layer {
  name: "loss"
  type: "SigmoidCrossEntropyLoss"
  bottom: "fc8"
  bottom: "phocs"
  top: "loss"
}
I0125 15:03:51.681183 26601 layer_factory.hpp:77] Creating layer word_images
I0125 15:03:51.681265 26601 db_lmdb.cpp:35] Opened lmdb /data/fwolf/iam_50000/iam-db_nti500000_pul2-3-4-5_test_word_images_lmdb
I0125 15:03:51.681301 26601 net.cpp:84] Creating Layer word_images
I0125 15:03:51.681308 26601 net.cpp:380] word_images -> word_images
I0125 15:03:51.681319 26601 net.cpp:380] word_images -> label
I0125 15:03:51.681736 26601 data_layer.cpp:44] output data size: 1,1,90,94
I0125 15:03:51.696995 26601 net.cpp:122] Setting up word_images
I0125 15:03:51.697018 26601 net.cpp:129] Top shape: 1 1 90 94 (8460)
I0125 15:03:51.697024 26601 net.cpp:129] Top shape: 1 (1)
I0125 15:03:51.697028 26601 net.cpp:137] Memory required for data: 33844
I0125 15:03:51.697034 26601 layer_factory.hpp:77] Creating layer phocs
I0125 15:03:51.697103 26601 db_lmdb.cpp:35] Opened lmdb /data/fwolf/iam_50000/iam-db_nti500000_pul2-3-4-5_test_phocs_lmdb
I0125 15:03:51.697132 26601 net.cpp:84] Creating Layer phocs
I0125 15:03:51.697139 26601 net.cpp:380] phocs -> phocs
I0125 15:03:51.697150 26601 net.cpp:380] phocs -> label_phocs
I0125 15:03:51.697517 26601 data_layer.cpp:44] output data size: 1,1,1,618
I0125 15:03:51.699448 26601 net.cpp:122] Setting up phocs
I0125 15:03:51.699460 26601 net.cpp:129] Top shape: 1 1 1 618 (618)
I0125 15:03:51.699466 26601 net.cpp:129] Top shape: 1 (1)
I0125 15:03:51.699470 26601 net.cpp:137] Memory required for data: 36320
I0125 15:03:51.699475 26601 layer_factory.hpp:77] Creating layer conv1_1
I0125 15:03:51.699488 26601 net.cpp:84] Creating Layer conv1_1
I0125 15:03:51.699493 26601 net.cpp:406] conv1_1 <- word_images
I0125 15:03:51.699502 26601 net.cpp:380] conv1_1 -> conv1_1
I0125 15:03:51.701133 26601 net.cpp:122] Setting up conv1_1
I0125 15:03:51.701146 26601 net.cpp:129] Top shape: 1 64 90 94 (541440)
I0125 15:03:51.701150 26601 net.cpp:137] Memory required for data: 2202080
I0125 15:03:51.701162 26601 layer_factory.hpp:77] Creating layer relu1_1
I0125 15:03:51.701172 26601 net.cpp:84] Creating Layer relu1_1
I0125 15:03:51.701176 26601 net.cpp:406] relu1_1 <- conv1_1
I0125 15:03:51.701182 26601 net.cpp:367] relu1_1 -> conv1_1 (in-place)
I0125 15:03:51.701402 26601 net.cpp:122] Setting up relu1_1
I0125 15:03:51.701412 26601 net.cpp:129] Top shape: 1 64 90 94 (541440)
I0125 15:03:51.701416 26601 net.cpp:137] Memory required for data: 4367840
I0125 15:03:51.701421 26601 layer_factory.hpp:77] Creating layer conv1_2
I0125 15:03:51.701434 26601 net.cpp:84] Creating Layer conv1_2
I0125 15:03:51.701438 26601 net.cpp:406] conv1_2 <- conv1_1
I0125 15:03:51.701445 26601 net.cpp:380] conv1_2 -> conv1_2
I0125 15:03:51.707619 26601 net.cpp:122] Setting up conv1_2
I0125 15:03:51.707659 26601 net.cpp:129] Top shape: 1 64 90 94 (541440)
I0125 15:03:51.707665 26601 net.cpp:137] Memory required for data: 6533600
I0125 15:03:51.707684 26601 layer_factory.hpp:77] Creating layer relu1_2
I0125 15:03:51.707698 26601 net.cpp:84] Creating Layer relu1_2
I0125 15:03:51.707705 26601 net.cpp:406] relu1_2 <- conv1_2
I0125 15:03:51.707716 26601 net.cpp:367] relu1_2 -> conv1_2 (in-place)
I0125 15:03:51.708472 26601 net.cpp:122] Setting up relu1_2
I0125 15:03:51.708495 26601 net.cpp:129] Top shape: 1 64 90 94 (541440)
I0125 15:03:51.708503 26601 net.cpp:137] Memory required for data: 8699360
I0125 15:03:51.708508 26601 layer_factory.hpp:77] Creating layer pool1
I0125 15:03:51.708518 26601 net.cpp:84] Creating Layer pool1
I0125 15:03:51.708523 26601 net.cpp:406] pool1 <- conv1_2
I0125 15:03:51.708533 26601 net.cpp:380] pool1 -> pool1
I0125 15:03:51.708636 26601 net.cpp:122] Setting up pool1
I0125 15:03:51.708647 26601 net.cpp:129] Top shape: 1 64 45 47 (135360)
I0125 15:03:51.708652 26601 net.cpp:137] Memory required for data: 9240800
I0125 15:03:51.708657 26601 layer_factory.hpp:77] Creating layer conv2_1
I0125 15:03:51.708675 26601 net.cpp:84] Creating Layer conv2_1
I0125 15:03:51.708681 26601 net.cpp:406] conv2_1 <- pool1
I0125 15:03:51.708689 26601 net.cpp:380] conv2_1 -> conv2_1
I0125 15:03:51.726250 26601 net.cpp:122] Setting up conv2_1
I0125 15:03:51.726282 26601 net.cpp:129] Top shape: 1 128 45 47 (270720)
I0125 15:03:51.726287 26601 net.cpp:137] Memory required for data: 10323680
I0125 15:03:51.726301 26601 layer_factory.hpp:77] Creating layer relu2_1
I0125 15:03:51.726315 26601 net.cpp:84] Creating Layer relu2_1
I0125 15:03:51.726321 26601 net.cpp:406] relu2_1 <- conv2_1
I0125 15:03:51.726330 26601 net.cpp:367] relu2_1 -> conv2_1 (in-place)
I0125 15:03:51.727389 26601 net.cpp:122] Setting up relu2_1
I0125 15:03:51.727403 26601 net.cpp:129] Top shape: 1 128 45 47 (270720)
I0125 15:03:51.727407 26601 net.cpp:137] Memory required for data: 11406560
I0125 15:03:51.727412 26601 layer_factory.hpp:77] Creating layer conv2_2
I0125 15:03:51.727427 26601 net.cpp:84] Creating Layer conv2_2
I0125 15:03:51.727432 26601 net.cpp:406] conv2_2 <- conv2_1
I0125 15:03:51.727439 26601 net.cpp:380] conv2_2 -> conv2_2
I0125 15:03:51.736898 26601 net.cpp:122] Setting up conv2_2
I0125 15:03:51.736937 26601 net.cpp:129] Top shape: 1 128 45 47 (270720)
I0125 15:03:51.736943 26601 net.cpp:137] Memory required for data: 12489440
I0125 15:03:51.736955 26601 layer_factory.hpp:77] Creating layer relu2_2
I0125 15:03:51.736968 26601 net.cpp:84] Creating Layer relu2_2
I0125 15:03:51.736974 26601 net.cpp:406] relu2_2 <- conv2_2
I0125 15:03:51.736982 26601 net.cpp:367] relu2_2 -> conv2_2 (in-place)
I0125 15:03:51.738659 26601 net.cpp:122] Setting up relu2_2
I0125 15:03:51.738673 26601 net.cpp:129] Top shape: 1 128 45 47 (270720)
I0125 15:03:51.738677 26601 net.cpp:137] Memory required for data: 13572320
I0125 15:03:51.738682 26601 layer_factory.hpp:77] Creating layer pool2
I0125 15:03:51.738689 26601 net.cpp:84] Creating Layer pool2
I0125 15:03:51.738694 26601 net.cpp:406] pool2 <- conv2_2
I0125 15:03:51.738701 26601 net.cpp:380] pool2 -> pool2
I0125 15:03:51.738770 26601 net.cpp:122] Setting up pool2
I0125 15:03:51.738777 26601 net.cpp:129] Top shape: 1 128 23 24 (70656)
I0125 15:03:51.738781 26601 net.cpp:137] Memory required for data: 13854944
I0125 15:03:51.738785 26601 layer_factory.hpp:77] Creating layer conv3_1
I0125 15:03:51.738801 26601 net.cpp:84] Creating Layer conv3_1
I0125 15:03:51.738804 26601 net.cpp:406] conv3_1 <- pool2
I0125 15:03:51.738812 26601 net.cpp:380] conv3_1 -> conv3_1
I0125 15:03:51.806385 26601 net.cpp:122] Setting up conv3_1
I0125 15:03:51.806418 26601 net.cpp:129] Top shape: 1 256 23 24 (141312)
I0125 15:03:51.806423 26601 net.cpp:137] Memory required for data: 14420192
I0125 15:03:51.806440 26601 layer_factory.hpp:77] Creating layer relu3_1
I0125 15:03:51.806452 26601 net.cpp:84] Creating Layer relu3_1
I0125 15:03:51.806457 26601 net.cpp:406] relu3_1 <- conv3_1
I0125 15:03:51.806464 26601 net.cpp:367] relu3_1 -> conv3_1 (in-place)
I0125 15:03:51.806941 26601 net.cpp:122] Setting up relu3_1
I0125 15:03:51.806952 26601 net.cpp:129] Top shape: 1 256 23 24 (141312)
I0125 15:03:51.806957 26601 net.cpp:137] Memory required for data: 14985440
I0125 15:03:51.806962 26601 layer_factory.hpp:77] Creating layer conv3_2
I0125 15:03:51.806977 26601 net.cpp:84] Creating Layer conv3_2
I0125 15:03:51.806982 26601 net.cpp:406] conv3_2 <- conv3_1
I0125 15:03:51.806994 26601 net.cpp:380] conv3_2 -> conv3_2
I0125 15:03:51.851279 26601 net.cpp:122] Setting up conv3_2
I0125 15:03:51.851315 26601 net.cpp:129] Top shape: 1 256 23 24 (141312)
I0125 15:03:51.851320 26601 net.cpp:137] Memory required for data: 15550688
I0125 15:03:51.851333 26601 layer_factory.hpp:77] Creating layer relu3_2
I0125 15:03:51.851346 26601 net.cpp:84] Creating Layer relu3_2
I0125 15:03:51.851351 26601 net.cpp:406] relu3_2 <- conv3_2
I0125 15:03:51.851363 26601 net.cpp:367] relu3_2 -> conv3_2 (in-place)
I0125 15:03:51.851927 26601 net.cpp:122] Setting up relu3_2
I0125 15:03:51.851940 26601 net.cpp:129] Top shape: 1 256 23 24 (141312)
I0125 15:03:51.851944 26601 net.cpp:137] Memory required for data: 16115936
I0125 15:03:51.851949 26601 layer_factory.hpp:77] Creating layer conv3_3
I0125 15:03:51.851966 26601 net.cpp:84] Creating Layer conv3_3
I0125 15:03:51.851970 26601 net.cpp:406] conv3_3 <- conv3_2
I0125 15:03:51.851979 26601 net.cpp:380] conv3_3 -> conv3_3
I0125 15:03:51.913233 26601 net.cpp:122] Setting up conv3_3
I0125 15:03:51.913271 26601 net.cpp:129] Top shape: 1 256 23 24 (141312)
I0125 15:03:51.913275 26601 net.cpp:137] Memory required for data: 16681184
I0125 15:03:51.913290 26601 layer_factory.hpp:77] Creating layer relu3_3
I0125 15:03:51.913302 26601 net.cpp:84] Creating Layer relu3_3
I0125 15:03:51.913308 26601 net.cpp:406] relu3_3 <- conv3_3
I0125 15:03:51.913318 26601 net.cpp:367] relu3_3 -> conv3_3 (in-place)
I0125 15:03:51.913610 26601 net.cpp:122] Setting up relu3_3
I0125 15:03:51.913625 26601 net.cpp:129] Top shape: 1 256 23 24 (141312)
I0125 15:03:51.913628 26601 net.cpp:137] Memory required for data: 17246432
I0125 15:03:51.913632 26601 layer_factory.hpp:77] Creating layer conv3_4
I0125 15:03:51.913650 26601 net.cpp:84] Creating Layer conv3_4
I0125 15:03:51.913655 26601 net.cpp:406] conv3_4 <- conv3_3
I0125 15:03:51.913663 26601 net.cpp:380] conv3_4 -> conv3_4
I0125 15:03:52.006698 26601 net.cpp:122] Setting up conv3_4
I0125 15:03:52.006739 26601 net.cpp:129] Top shape: 1 256 23 24 (141312)
I0125 15:03:52.006743 26601 net.cpp:137] Memory required for data: 17811680
I0125 15:03:52.006757 26601 layer_factory.hpp:77] Creating layer relu3_4
I0125 15:03:52.006772 26601 net.cpp:84] Creating Layer relu3_4
I0125 15:03:52.006779 26601 net.cpp:406] relu3_4 <- conv3_4
I0125 15:03:52.006788 26601 net.cpp:367] relu3_4 -> conv3_4 (in-place)
I0125 15:03:52.007340 26601 net.cpp:122] Setting up relu3_4
I0125 15:03:52.007354 26601 net.cpp:129] Top shape: 1 256 23 24 (141312)
I0125 15:03:52.007359 26601 net.cpp:137] Memory required for data: 18376928
I0125 15:03:52.007364 26601 layer_factory.hpp:77] Creating layer conv3_5
I0125 15:03:52.007380 26601 net.cpp:84] Creating Layer conv3_5
I0125 15:03:52.007385 26601 net.cpp:406] conv3_5 <- conv3_4
I0125 15:03:52.007391 26601 net.cpp:380] conv3_5 -> conv3_5
I0125 15:03:52.053252 26601 net.cpp:122] Setting up conv3_5
I0125 15:03:52.053290 26601 net.cpp:129] Top shape: 1 256 23 24 (141312)
I0125 15:03:52.053295 26601 net.cpp:137] Memory required for data: 18942176
I0125 15:03:52.053313 26601 layer_factory.hpp:77] Creating layer relu3_5
I0125 15:03:52.053328 26601 net.cpp:84] Creating Layer relu3_5
I0125 15:03:52.053333 26601 net.cpp:406] relu3_5 <- conv3_5
I0125 15:03:52.053341 26601 net.cpp:367] relu3_5 -> conv3_5 (in-place)
I0125 15:03:52.053597 26601 net.cpp:122] Setting up relu3_5
I0125 15:03:52.053608 26601 net.cpp:129] Top shape: 1 256 23 24 (141312)
I0125 15:03:52.053612 26601 net.cpp:137] Memory required for data: 19507424
I0125 15:03:52.053617 26601 layer_factory.hpp:77] Creating layer conv3_6
I0125 15:03:52.053634 26601 net.cpp:84] Creating Layer conv3_6
I0125 15:03:52.053639 26601 net.cpp:406] conv3_6 <- conv3_5
I0125 15:03:52.053647 26601 net.cpp:380] conv3_6 -> conv3_6
I0125 15:03:52.142518 26601 net.cpp:122] Setting up conv3_6
I0125 15:03:52.142554 26601 net.cpp:129] Top shape: 1 256 23 24 (141312)
I0125 15:03:52.142560 26601 net.cpp:137] Memory required for data: 20072672
I0125 15:03:52.142572 26601 layer_factory.hpp:77] Creating layer relu3_6
I0125 15:03:52.142590 26601 net.cpp:84] Creating Layer relu3_6
I0125 15:03:52.142596 26601 net.cpp:406] relu3_6 <- conv3_6
I0125 15:03:52.142606 26601 net.cpp:367] relu3_6 -> conv3_6 (in-place)
I0125 15:03:52.143100 26601 net.cpp:122] Setting up relu3_6
I0125 15:03:52.143113 26601 net.cpp:129] Top shape: 1 256 23 24 (141312)
I0125 15:03:52.143117 26601 net.cpp:137] Memory required for data: 20637920
I0125 15:03:52.143122 26601 layer_factory.hpp:77] Creating layer conv4_1
I0125 15:03:52.143137 26601 net.cpp:84] Creating Layer conv4_1
I0125 15:03:52.143142 26601 net.cpp:406] conv4_1 <- conv3_6
I0125 15:03:52.143151 26601 net.cpp:380] conv4_1 -> conv4_1
I0125 15:03:52.345986 26601 net.cpp:122] Setting up conv4_1
I0125 15:03:52.346024 26601 net.cpp:129] Top shape: 1 512 23 24 (282624)
I0125 15:03:52.346029 26601 net.cpp:137] Memory required for data: 21768416
I0125 15:03:52.346043 26601 layer_factory.hpp:77] Creating layer relu4_1
I0125 15:03:52.346056 26601 net.cpp:84] Creating Layer relu4_1
I0125 15:03:52.346062 26601 net.cpp:406] relu4_1 <- conv4_1
I0125 15:03:52.346071 26601 net.cpp:367] relu4_1 -> conv4_1 (in-place)
I0125 15:03:52.346772 26601 net.cpp:122] Setting up relu4_1
I0125 15:03:52.346787 26601 net.cpp:129] Top shape: 1 512 23 24 (282624)
I0125 15:03:52.346793 26601 net.cpp:137] Memory required for data: 22898912
I0125 15:03:52.346798 26601 layer_factory.hpp:77] Creating layer conv4_2
I0125 15:03:52.346817 26601 net.cpp:84] Creating Layer conv4_2
I0125 15:03:52.346823 26601 net.cpp:406] conv4_2 <- conv4_1
I0125 15:03:52.346832 26601 net.cpp:380] conv4_2 -> conv4_2
I0125 15:03:52.660353 26601 net.cpp:122] Setting up conv4_2
I0125 15:03:52.660387 26601 net.cpp:129] Top shape: 1 512 23 24 (282624)
I0125 15:03:52.660392 26601 net.cpp:137] Memory required for data: 24029408
I0125 15:03:52.660404 26601 layer_factory.hpp:77] Creating layer relu4_2
I0125 15:03:52.660416 26601 net.cpp:84] Creating Layer relu4_2
I0125 15:03:52.660423 26601 net.cpp:406] relu4_2 <- conv4_2
I0125 15:03:52.660431 26601 net.cpp:367] relu4_2 -> conv4_2 (in-place)
I0125 15:03:52.661809 26601 net.cpp:122] Setting up relu4_2
I0125 15:03:52.661820 26601 net.cpp:129] Top shape: 1 512 23 24 (282624)
I0125 15:03:52.661824 26601 net.cpp:137] Memory required for data: 25159904
I0125 15:03:52.661829 26601 layer_factory.hpp:77] Creating layer conv4_3
I0125 15:03:52.661842 26601 net.cpp:84] Creating Layer conv4_3
I0125 15:03:52.661847 26601 net.cpp:406] conv4_3 <- conv4_2
I0125 15:03:52.661854 26601 net.cpp:380] conv4_3 -> conv4_3
I0125 15:03:52.969254 26601 net.cpp:122] Setting up conv4_3
I0125 15:03:52.969290 26601 net.cpp:129] Top shape: 1 512 23 24 (282624)
I0125 15:03:52.969295 26601 net.cpp:137] Memory required for data: 26290400
I0125 15:03:52.969306 26601 layer_factory.hpp:77] Creating layer relu4_3
I0125 15:03:52.969319 26601 net.cpp:84] Creating Layer relu4_3
I0125 15:03:52.969326 26601 net.cpp:406] relu4_3 <- conv4_3
I0125 15:03:52.969333 26601 net.cpp:367] relu4_3 -> conv4_3 (in-place)
I0125 15:03:52.969822 26601 net.cpp:122] Setting up relu4_3
I0125 15:03:52.969835 26601 net.cpp:129] Top shape: 1 512 23 24 (282624)
I0125 15:03:52.969840 26601 net.cpp:137] Memory required for data: 27420896
I0125 15:03:52.969843 26601 layer_factory.hpp:77] Creating layer tpp5
I0125 15:03:52.969853 26601 net.cpp:84] Creating Layer tpp5
I0125 15:03:52.969858 26601 net.cpp:406] tpp5 <- conv4_3
I0125 15:03:52.969864 26601 net.cpp:380] tpp5 -> tpp5
I0125 15:03:52.970530 26601 net.cpp:122] Setting up tpp5
I0125 15:03:52.970542 26601 net.cpp:129] Top shape: 1 7680 (7680)
I0125 15:03:52.970546 26601 net.cpp:137] Memory required for data: 27451616
I0125 15:03:52.970551 26601 layer_factory.hpp:77] Creating layer fc6
I0125 15:03:52.970561 26601 net.cpp:84] Creating Layer fc6
I0125 15:03:52.970564 26601 net.cpp:406] fc6 <- tpp5
I0125 15:03:52.970571 26601 net.cpp:380] fc6 -> fc6
I0125 15:03:56.099220 26601 net.cpp:122] Setting up fc6
I0125 15:03:56.099261 26601 net.cpp:129] Top shape: 1 4096 (4096)
I0125 15:03:56.099265 26601 net.cpp:137] Memory required for data: 27468000
I0125 15:03:56.099285 26601 layer_factory.hpp:77] Creating layer relu6
I0125 15:03:56.099301 26601 net.cpp:84] Creating Layer relu6
I0125 15:03:56.099306 26601 net.cpp:406] relu6 <- fc6
I0125 15:03:56.099315 26601 net.cpp:367] relu6 -> fc6 (in-place)
I0125 15:03:56.100002 26601 net.cpp:122] Setting up relu6
I0125 15:03:56.100016 26601 net.cpp:129] Top shape: 1 4096 (4096)
I0125 15:03:56.100021 26601 net.cpp:137] Memory required for data: 27484384
I0125 15:03:56.100025 26601 layer_factory.hpp:77] Creating layer fc7
I0125 15:03:56.100035 26601 net.cpp:84] Creating Layer fc7
I0125 15:03:56.100040 26601 net.cpp:406] fc7 <- fc6
I0125 15:03:56.100050 26601 net.cpp:380] fc7 -> fc7
I0125 15:03:57.067080 26601 net.cpp:122] Setting up fc7
I0125 15:03:57.067119 26601 net.cpp:129] Top shape: 1 4096 (4096)
I0125 15:03:57.067126 26601 net.cpp:137] Memory required for data: 27500768
I0125 15:03:57.067137 26601 layer_factory.hpp:77] Creating layer relu7
I0125 15:03:57.067149 26601 net.cpp:84] Creating Layer relu7
I0125 15:03:57.067157 26601 net.cpp:406] relu7 <- fc7
I0125 15:03:57.067167 26601 net.cpp:367] relu7 -> fc7 (in-place)
I0125 15:03:57.067906 26601 net.cpp:122] Setting up relu7
I0125 15:03:57.067921 26601 net.cpp:129] Top shape: 1 4096 (4096)
I0125 15:03:57.067925 26601 net.cpp:137] Memory required for data: 27517152
I0125 15:03:57.067931 26601 layer_factory.hpp:77] Creating layer fc8
I0125 15:03:57.067944 26601 net.cpp:84] Creating Layer fc8
I0125 15:03:57.067947 26601 net.cpp:406] fc8 <- fc7
I0125 15:03:57.067955 26601 net.cpp:380] fc8 -> fc8
I0125 15:03:57.241288 26601 net.cpp:122] Setting up fc8
I0125 15:03:57.241327 26601 net.cpp:129] Top shape: 1 618 (618)
I0125 15:03:57.241333 26601 net.cpp:137] Memory required for data: 27519624
I0125 15:03:57.241343 26601 layer_factory.hpp:77] Creating layer fc8_fc8_0_split
I0125 15:03:57.241354 26601 net.cpp:84] Creating Layer fc8_fc8_0_split
I0125 15:03:57.241360 26601 net.cpp:406] fc8_fc8_0_split <- fc8
I0125 15:03:57.241369 26601 net.cpp:380] fc8_fc8_0_split -> fc8_fc8_0_split_0
I0125 15:03:57.241379 26601 net.cpp:380] fc8_fc8_0_split -> fc8_fc8_0_split_1
I0125 15:03:57.241457 26601 net.cpp:122] Setting up fc8_fc8_0_split
I0125 15:03:57.241468 26601 net.cpp:129] Top shape: 1 618 (618)
I0125 15:03:57.241474 26601 net.cpp:129] Top shape: 1 618 (618)
I0125 15:03:57.241477 26601 net.cpp:137] Memory required for data: 27524568
I0125 15:03:57.241482 26601 layer_factory.hpp:77] Creating layer sigmoid
I0125 15:03:57.241492 26601 net.cpp:84] Creating Layer sigmoid
I0125 15:03:57.241497 26601 net.cpp:406] sigmoid <- fc8_fc8_0_split_0
I0125 15:03:57.241515 26601 net.cpp:380] sigmoid -> sigmoid
I0125 15:03:57.242267 26601 net.cpp:122] Setting up sigmoid
I0125 15:03:57.242281 26601 net.cpp:129] Top shape: 1 618 (618)
I0125 15:03:57.242288 26601 net.cpp:137] Memory required for data: 27527040
I0125 15:03:57.242293 26601 layer_factory.hpp:77] Creating layer silence
I0125 15:03:57.242301 26601 net.cpp:84] Creating Layer silence
I0125 15:03:57.242307 26601 net.cpp:406] silence <- sigmoid
I0125 15:03:57.242313 26601 net.cpp:122] Setting up silence
I0125 15:03:57.242317 26601 net.cpp:137] Memory required for data: 27527040
…
