…
  phase: TRAIN
}
layer {
  name: "word_images"
  type: "Data"
  top: "word_images"
  top: "label"
  transform_param {
    scale: -0.0039215689
    mean_value: 255
  }
  data_param {
    source: "/data/fwolf/iam_50000/iam-db_nti500000_pul2-3-4-5_train_word_images_lmdb"
    batch_size: 1
    backend: LMDB
    prefetch: 20
  }
}
layer {
  name: "phocs"
  type: "Data"
  top: "phocs"
  top: "label_phocs"
  data_param {
    source: "/data/fwolf/iam_50000/iam-db_nti500000_pul2-3-4-5_train_phocs_lmdb"
    batch_size: 1
    backend: LMDB
    prefetch: 20
  }
}
layer {
  name: "conv1_1"
  type: "Convolution"
  bottom: "word_images"
  top: "conv1_1"
  convolution_param {
    num_output: 64
    pad: 1
    kernel_size: 3
    stride: 1
    weight_filler {
      type: "msra"
    }
    bias_filler {
      type: "constant"
    }
    engine: CUDNN
  }
}
layer {
  name: "relu1_1"
  type: "ReLU"
  bottom: "conv1_1"
  top: "conv1_1"
}
layer {
  name: "conv1_2"
  type: "Convolution"
  bottom: "conv1_1"
  top: "conv1_2"
  convolution_param {
    num_output: 64
    pad: 1
    kernel_size: 3
    stride: 1
    weight_filler {
      type: "msra"
    }
    bias_filler {
      type: "constant"
    }
    engine: CUDNN
  }
}
layer {
  name: "relu1_2"
  type: "ReLU"
  bottom: "conv1_2"
  top: "conv1_2"
}
layer {
  name: "pool1"
  type: "Pooling"
  bottom: "conv1_2"
  top: "pool1"
  pooling_param {
    pool: MAX
    kernel_size: 2
    stride: 2
  }
}
layer {
  name: "conv2_1"
  type: "Convolution"
  bottom: "pool1"
  top: "conv2_1"
  convolution_param {
    num_output: 128
    pad: 1
    kernel_size: 3
    stride: 1
    weight_filler {
      type: "msra"
    }
    bias_filler {
      type: "constant"
    }
    engine: CUDNN
  }
}
layer {
  name: "relu2_1"
  type: "ReLU"
  bottom: "conv2_1"
  top: "conv2_1"
}
layer {
  name: "conv2_2"
  type: "Convolution"
  bottom: "conv2_1"
  top: "conv2_2"
  convolution_param {
    num_output: 128
    pad: 1
    kernel_size: 3
    stride: 1
    weight_filler {
      type: "msra"
    }
    bias_filler {
      type: "constant"
    }
    engine: CUDNN
  }
}
layer {
  name: "relu2_2"
  type: "ReLU"
  bottom: "conv2_2"
  top: "conv2_2"
}
layer {
  name: "pool2"
  type: "Pooling"
  bottom: "conv2_2"
  top: "pool2"
  pooling_param {
    pool: MAX
    kernel_size: 2
    stride: 2
  }
}
layer {
  name: "conv3_1"
  type: "Convolution"
  bottom: "pool2"
  top: "conv3_1"
  convolution_param {
    num_output: 256
    pad: 1
    kernel_size: 3
    stride: 1
    weight_filler {
      type: "msra"
    }
    bias_filler {
      type: "constant"
    }
    engine: CUDNN
  }
}
layer {
  name: "relu3_1"
  type: "ReLU"
  bottom: "conv3_1"
  top: "conv3_1"
}
layer {
  name: "conv3_2"
  type: "Convolution"
  bottom: "conv3_1"
  top: "conv3_2"
  convolution_param {
    num_output: 256
    pad: 1
    kernel_size: 3
    stride: 1
    weight_filler {
      type: "msra"
    }
    bias_filler {
      type: "constant"
    }
    engine: CUDNN
  }
}
layer {
  name: "relu3_2"
  type: "ReLU"
  bottom: "conv3_2"
  top: "conv3_2"
}
layer {
  name: "conv3_3"
  type: "Convolution"
  bottom: "conv3_2"
  top: "conv3_3"
  convolution_param {
    num_output: 256
    pad: 1
    kernel_size: 3
    stride: 1
    weight_filler {
      type: "msra"
    }
    bias_filler {
      type: "constant"
    }
    engine: CUDNN
  }
}
layer {
  name: "relu3_3"
  type: "ReLU"
  bottom: "conv3_3"
  top: "conv3_3"
}
layer {
  name: "conv3_4"
  type: "Convolution"
  bottom: "conv3_3"
  top: "conv3_4"
  convolution_param {
    num_output: 256
    pad: 1
    kernel_size: 3
    stride: 1
    weight_filler {
      type: "msra"
    }
    bias_filler {
      type: "constant"
    }
    engine: CUDNN
  }
}
layer {
  name: "relu3_4"
  type: "ReLU"
  bottom: "conv3_4"
  top: "conv3_4"
}
layer {
  name: "conv3_5"
  type: "Convolution"
  bottom: "conv3_4"
  top: "conv3_5"
  convolution_param {
    num_output: 256
    pad: 1
    kernel_size: 3
    stride: 1
    weight_filler {
      type: "msra"
    }
    bias_filler {
      type: "constant"
    }
    engine: CUDNN
  }
}
layer {
  name: "relu3_5"
  type: "ReLU"
  bottom: "conv3_5"
  top: "conv3_5"
}
layer {
  name: "conv3_6"
  type: "Convolution"
  bottom: "conv3_5"
  top: "conv3_6"
  convolution_param {
    num_output: 256
    pad: 1
    kernel_size: 3
    stride: 1
    weight_filler {
      type: "msra"
    }
    bias_filler {
      type: "constant"
    }
    engine: CUDNN
  }
}
layer {
  name: "relu3_6"
  type: "ReLU"
  bottom: "conv3_6"
  top: "conv3_6"
}
layer {
  name: "conv4_1"
  type: "Convolution"
  bottom: "conv3_6"
  top: "conv4_1"
  convolution_param {
    num_output: 512
    pad: 1
    kernel_size: 3
    stride: 1
    weight_filler {
      type: "msra"
    }
    bias_filler {
      type: "constant"
    }
    engine: CUDNN
  }
}
layer {
  name: "relu4_1"
  type: "ReLU"
  bottom: "conv4_1"
  top: "conv4_1"
}
layer {
  name: "conv4_2"
  type: "Convolution"
  bottom: "conv4_1"
  top: "conv4_2"
  convolution_param {
    num_output: 512
    pad: 1
    kernel_size: 3
    stride: 1
    weight_filler {
      type: "msra"
    }
    bias_filler {
      type: "constant"
    }
    engine: CUDNN
  }
}
layer {
  name: "relu4_2"
  type: "ReLU"
  bottom: "conv4_2"
  top: "conv4_2"
}
layer {
  name: "conv4_3"
  type: "Convolution"
  bottom: "conv4_2"
  top: "conv4_3"
  convolution_param {
    num_output: 512
    pad: 1
    kernel_size: 3
    stride: 1
    weight_filler {
      type: "msra"
    }
    bias_filler {
      type: "constant"
    }
    engine: CUDNN
  }
}
layer {
  name: "relu4_3"
  type: "ReLU"
  bottom: "conv4_3"
  top: "conv4_3"
}
layer {
  name: "tpp5"
  type: "TPP"
  bottom: "conv4_3"
  top: "tpp5"
  tpp_param {
    pyramid_layer: 1
    pyramid_layer: 2
    pyramid_layer: 3
    pyramid_layer: 4
    pyramid_layer: 5
    pool: MAX
    engine: CUDNN
  }
}
layer {
  name: "reshape"
  type: "Reshape"
  bottom: "tpp5"
  top: "reshape"
  reshape_param {
    shape {
      dim: 1
      dim: 3840
      dim: 2
      dim: 1
    }
  }
}
layer {
  name: "premax"
  type: "Scale"
  bottom: "reshape"
  top: "premax"
  param {
    lr_mult: 0
    decay_mult: 0
  }
  scale_param {
    num_axes: 3
    filler {
      value: 1
    }
    bias_term: false
    bias_filler {
      value: 0
    }
  }
}
layer {
  name: "maxout"
  type: "Pooling"
  bottom: "premax"
  top: "maxout"
  pooling_param {
    pool: MAX
    global_pooling: true
  }
}
layer {
  name: "fc6"
  type: "InnerProduct"
  bottom: "maxout"
  top: "fc6"
  inner_product_param {
    num_output: 4096
    weight_filler {
      type: "msra"
    }
    bias_filler {
      type: "constant"
    }
  }
}
layer {
  name: "relu6"
  type: "ReLU"
  bottom: "fc6"
  top: "fc6"
}
layer {
  name: "drop6"
  type: "Dropout"
  bottom: "fc6"
  top: "fc6"
  include {
    phase: TRAIN
  }
  dropout_param {
    dropout_ratio: 0.5
  }
}
layer {
  name: "fc7"
  type: "InnerProduct"
  bottom: "fc6"
  top: "fc7"
  inner_product_param {
    num_output: 4096
    weight_filler {
      type: "msra"
    }
    bias_filler {
      type: "constant"
    }
  }
}
layer {
  name: "relu7"
  type: "ReLU"
  bottom: "fc7"
  top: "fc7"
}
layer {
  name: "drop7"
  type: "Dropout"
  bottom: "fc7"
  top: "fc7"
  include {
    phase: TRAIN
  }
  dropout_param {
    dropout_ratio: 0.5
  }
}
layer {
  name: "fc8"
  type: "InnerProduct"
  bottom: "fc7"
  top: "fc8"
  inner_product_param {
    num_output: 618
    weight_filler {
      type: "msra"
    }
    bias_filler {
      type: "constant"
    }
  }
}
layer {
  name: "loss"
  type: "SigmoidCrossEntropyLoss"
  bottom: "fc8"
  bottom: "phocs"
  top: "loss"
}
I0126 23:19:47.415266  5973 layer_factory.hpp:77] Creating layer word_images
I0126 23:19:47.415359  5973 db_lmdb.cpp:35] Opened lmdb /data/fwolf/iam_50000/iam-db_nti500000_pul2-3-4-5_train_word_images_lmdb
I0126 23:19:47.415396  5973 net.cpp:84] Creating Layer word_images
I0126 23:19:47.415403  5973 net.cpp:380] word_images -> word_images
I0126 23:19:47.415419  5973 net.cpp:380] word_images -> label
I0126 23:19:47.441654  5973 data_layer.cpp:44] output data size: 1,1,79,231
I0126 23:19:47.489315  5973 net.cpp:122] Setting up word_images
I0126 23:19:47.489349  5973 net.cpp:129] Top shape: 1 1 79 231 (18249)
I0126 23:19:47.489356  5973 net.cpp:129] Top shape: 1 (1)
I0126 23:19:47.489361  5973 net.cpp:137] Memory required for data: 73000
I0126 23:19:47.489368  5973 layer_factory.hpp:77] Creating layer phocs
I0126 23:19:47.519414  5973 db_lmdb.cpp:35] Opened lmdb /data/fwolf/iam_50000/iam-db_nti500000_pul2-3-4-5_train_phocs_lmdb
I0126 23:19:47.519477  5973 net.cpp:84] Creating Layer phocs
I0126 23:19:47.519490  5973 net.cpp:380] phocs -> phocs
I0126 23:19:47.519501  5973 net.cpp:380] phocs -> label_phocs
I0126 23:19:47.519763  5973 data_layer.cpp:44] output data size: 1,1,1,618
I0126 23:19:47.522099  5973 net.cpp:122] Setting up phocs
I0126 23:19:47.522123  5973 net.cpp:129] Top shape: 1 1 1 618 (618)
I0126 23:19:47.522130  5973 net.cpp:129] Top shape: 1 (1)
I0126 23:19:47.522133  5973 net.cpp:137] Memory required for data: 75476
I0126 23:19:47.522138  5973 layer_factory.hpp:77] Creating layer conv1_1
I0126 23:19:47.522158  5973 net.cpp:84] Creating Layer conv1_1
I0126 23:19:47.522163  5973 net.cpp:406] conv1_1 <- word_images
I0126 23:19:47.522173  5973 net.cpp:380] conv1_1 -> conv1_1
I0126 23:19:56.628175  5973 net.cpp:122] Setting up conv1_1
I0126 23:19:56.628212  5973 net.cpp:129] Top shape: 1 64 79 231 (1167936)
I0126 23:19:56.628217  5973 net.cpp:137] Memory required for data: 4747220
I0126 23:19:56.628235  5973 layer_factory.hpp:77] Creating layer relu1_1
I0126 23:19:56.628248  5973 net.cpp:84] Creating Layer relu1_1
I0126 23:19:56.628253  5973 net.cpp:406] relu1_1 <- conv1_1
I0126 23:19:56.628260  5973 net.cpp:367] relu1_1 -> conv1_1 (in-place)
I0126 23:19:56.628685  5973 net.cpp:122] Setting up relu1_1
I0126 23:19:56.628700  5973 net.cpp:129] Top shape: 1 64 79 231 (1167936)
I0126 23:19:56.628703  5973 net.cpp:137] Memory required for data: 9418964
I0126 23:19:56.628708  5973 layer_factory.hpp:77] Creating layer conv1_2
I0126 23:19:56.628723  5973 net.cpp:84] Creating Layer conv1_2
I0126 23:19:56.628728  5973 net.cpp:406] conv1_2 <- conv1_1
I0126 23:19:56.628736  5973 net.cpp:380] conv1_2 -> conv1_2
I0126 23:19:56.640049  5973 net.cpp:122] Setting up conv1_2
I0126 23:19:56.640094  5973 net.cpp:129] Top shape: 1 64 79 231 (1167936)
I0126 23:19:56.640103  5973 net.cpp:137] Memory required for data: 14090708
I0126 23:19:56.640126  5973 layer_factory.hpp:77] Creating layer relu1_2
I0126 23:19:56.640142  5973 net.cpp:84] Creating Layer relu1_2
I0126 23:19:56.640152  5973 net.cpp:406] relu1_2 <- conv1_2
I0126 23:19:56.640164  5973 net.cpp:367] relu1_2 -> conv1_2 (in-place)
I0126 23:19:56.640552  5973 net.cpp:122] Setting up relu1_2
I0126 23:19:56.640573  5973 net.cpp:129] Top shape: 1 64 79 231 (1167936)
I0126 23:19:56.640591  5973 net.cpp:137] Memory required for data: 18762452
I0126 23:19:56.640600  5973 layer_factory.hpp:77] Creating layer pool1
I0126 23:19:56.640614  5973 net.cpp:84] Creating Layer pool1
I0126 23:19:56.640622  5973 net.cpp:406] pool1 <- conv1_2
I0126 23:19:56.640635  5973 net.cpp:380] pool1 -> pool1
I0126 23:19:56.640740  5973 net.cpp:122] Setting up pool1
I0126 23:19:56.640753  5973 net.cpp:129] Top shape: 1 64 40 116 (296960)
I0126 23:19:56.640760  5973 net.cpp:137] Memory required for data: 19950292
I0126 23:19:56.640766  5973 layer_factory.hpp:77] Creating layer conv2_1
I0126 23:19:56.640784  5973 net.cpp:84] Creating Layer conv2_1
I0126 23:19:56.640792  5973 net.cpp:406] conv2_1 <- pool1
I0126 23:19:56.640802  5973 net.cpp:380] conv2_1 -> conv2_1
I0126 23:19:56.707722  5973 net.cpp:122] Setting up conv2_1
I0126 23:19:56.722798  5973 net.cpp:129] Top shape: 1 128 40 116 (593920)
I0126 23:19:56.722820  5973 net.cpp:137] Memory required for data: 22325972
I0126 23:19:56.722836  5973 layer_factory.hpp:77] Creating layer relu2_1
I0126 23:19:56.722851  5973 net.cpp:84] Creating Layer relu2_1
I0126 23:19:56.722856  5973 net.cpp:406] relu2_1 <- conv2_1
I0126 23:19:56.722864  5973 net.cpp:367] relu2_1 -> conv2_1 (in-place)
I0126 23:19:56.723460  5973 net.cpp:122] Setting up relu2_1
I0126 23:19:56.723474  5973 net.cpp:129] Top shape: 1 128 40 116 (593920)
I0126 23:19:56.723479  5973 net.cpp:137] Memory required for data: 24701652
I0126 23:19:56.723482  5973 layer_factory.hpp:77] Creating layer conv2_2
I0126 23:19:56.723496  5973 net.cpp:84] Creating Layer conv2_2
I0126 23:19:56.723500  5973 net.cpp:406] conv2_2 <- conv2_1
I0126 23:19:56.723507  5973 net.cpp:380] conv2_2 -> conv2_2
I0126 23:19:56.845515  5973 net.cpp:122] Setting up conv2_2
I0126 23:19:56.845551  5973 net.cpp:129] Top shape: 1 128 40 116 (593920)
I0126 23:19:56.845556  5973 net.cpp:137] Memory required for data: 27077332
I0126 23:19:56.845569  5973 layer_factory.hpp:77] Creating layer relu2_2
I0126 23:19:56.845582  5973 net.cpp:84] Creating Layer relu2_2
I0126 23:19:56.845587  5973 net.cpp:406] relu2_2 <- conv2_2
I0126 23:19:56.845594  5973 net.cpp:367] relu2_2 -> conv2_2 (in-place)
I0126 23:19:56.845810  5973 net.cpp:122] Setting up relu2_2
I0126 23:19:56.845820  5973 net.cpp:129] Top shape: 1 128 40 116 (593920)
I0126 23:19:56.845824  5973 net.cpp:137] Memory required for data: 29453012
I0126 23:19:56.845829  5973 layer_factory.hpp:77] Creating layer pool2
I0126 23:19:56.845837  5973 net.cpp:84] Creating Layer pool2
I0126 23:19:56.845841  5973 net.cpp:406] pool2 <- conv2_2
I0126 23:19:56.845847  5973 net.cpp:380] pool2 -> pool2
I0126 23:19:56.845898  5973 net.cpp:122] Setting up pool2
I0126 23:19:56.845906  5973 net.cpp:129] Top shape: 1 128 20 58 (148480)
I0126 23:19:56.845909  5973 net.cpp:137] Memory required for data: 30046932
I0126 23:19:56.845913  5973 layer_factory.hpp:77] Creating layer conv3_1
I0126 23:19:56.845927  5973 net.cpp:84] Creating Layer conv3_1
I0126 23:19:56.845932  5973 net.cpp:406] conv3_1 <- pool2
I0126 23:19:56.845937  5973 net.cpp:380] conv3_1 -> conv3_1
I0126 23:19:57.127089  5973 net.cpp:122] Setting up conv3_1
I0126 23:19:57.127128  5973 net.cpp:129] Top shape: 1 256 20 58 (296960)
I0126 23:19:57.127133  5973 net.cpp:137] Memory required for data: 31234772
I0126 23:19:57.127151  5973 layer_factory.hpp:77] Creating layer relu3_1
I0126 23:19:57.127163  5973 net.cpp:84] Creating Layer relu3_1
I0126 23:19:57.127169  5973 net.cpp:406] relu3_1 <- conv3_1
I0126 23:19:57.127178  5973 net.cpp:367] relu3_1 -> conv3_1 (in-place)
I0126 23:19:57.127666  5973 net.cpp:122] Setting up relu3_1
I0126 23:19:57.127679  5973 net.cpp:129] Top shape: 1 256 20 58 (296960)
I0126 23:19:57.127684  5973 net.cpp:137] Memory required for data: 32422612
I0126 23:19:57.127688  5973 layer_factory.hpp:77] Creating layer conv3_2
I0126 23:19:57.127703  5973 net.cpp:84] Creating Layer conv3_2
I0126 23:19:57.127708  5973 net.cpp:406] conv3_2 <- conv3_1
I0126 23:19:57.127717  5973 net.cpp:380] conv3_2 -> conv3_2
I0126 23:19:57.259840  5973 net.cpp:122] Setting up conv3_2
I0126 23:19:57.259878  5973 net.cpp:129] Top shape: 1 256 20 58 (296960)
I0126 23:19:57.259883  5973 net.cpp:137] Memory required for data: 33610452
I0126 23:19:57.259897  5973 layer_factory.hpp:77] Creating layer relu3_2
I0126 23:19:57.259910  5973 net.cpp:84] Creating Layer relu3_2
I0126 23:19:57.259917  5973 net.cpp:406] relu3_2 <- conv3_2
I0126 23:19:57.259925  5973 net.cpp:367] relu3_2 -> conv3_2 (in-place)
I0126 23:19:57.260536  5973 net.cpp:122] Setting up relu3_2
I0126 23:19:57.260550  5973 net.cpp:129] Top shape: 1 256 20 58 (296960)
I0126 23:19:57.260555  5973 net.cpp:137] Memory required for data: 34798292
I0126 23:19:57.260560  5973 layer_factory.hpp:77] Creating layer conv3_3
I0126 23:19:57.260576  5973 net.cpp:84] Creating Layer conv3_3
I0126 23:19:57.260581  5973 net.cpp:406] conv3_3 <- conv3_2
I0126 23:19:57.260591  5973 net.cpp:380] conv3_3 -> conv3_3
I0126 23:19:57.865159  5973 net.cpp:122] Setting up conv3_3
I0126 23:19:57.865193  5973 net.cpp:129] Top shape: 1 256 20 58 (296960)
I0126 23:19:57.865198  5973 net.cpp:137] Memory required for data: 35986132
I0126 23:19:57.865211  5973 layer_factory.hpp:77] Creating layer relu3_3
I0126 23:19:57.865222  5973 net.cpp:84] Creating Layer relu3_3
I0126 23:19:57.865228  5973 net.cpp:406] relu3_3 <- conv3_3
I0126 23:19:57.865236  5973 net.cpp:367] relu3_3 -> conv3_3 (in-place)
I0126 23:19:57.865540  5973 net.cpp:122] Setting up relu3_3
I0126 23:19:57.865550  5973 net.cpp:129] Top shape: 1 256 20 58 (296960)
I0126 23:19:57.865555  5973 net.cpp:137] Memory required for data: 37173972
I0126 23:19:57.865558  5973 layer_factory.hpp:77] Creating layer conv3_4
I0126 23:19:57.865573  5973 net.cpp:84] Creating Layer conv3_4
I0126 23:19:57.865578  5973 net.cpp:406] conv3_4 <- conv3_3
I0126 23:19:57.865586  5973 net.cpp:380] conv3_4 -> conv3_4
I0126 23:19:58.392822  5973 net.cpp:122] Setting up conv3_4
I0126 23:19:58.392860  5973 net.cpp:129] Top shape: 1 256 20 58 (296960)
I0126 23:19:58.392865  5973 net.cpp:137] Memory required for data: 38361812
I0126 23:19:58.392879  5973 layer_factory.hpp:77] Creating layer relu3_4
I0126 23:19:58.392894  5973 net.cpp:84] Creating Layer relu3_4
I0126 23:19:58.392899  5973 net.cpp:406] relu3_4 <- conv3_4
I0126 23:19:58.392907  5973 net.cpp:367] relu3_4 -> conv3_4 (in-place)
I0126 23:19:58.393417  5973 net.cpp:122] Setting up relu3_4
I0126 23:19:58.393436  5973 net.cpp:129] Top shape: 1 256 20 58 (296960)
I0126 23:19:58.393441  5973 net.cpp:137] Memory required for data: 39549652
I0126 23:19:58.393446  5973 layer_factory.hpp:77] Creating layer conv3_5
I0126 23:19:58.393462  5973 net.cpp:84] Creating Layer conv3_5
I0126 23:19:58.393467  5973 net.cpp:406] conv3_5 <- conv3_4
I0126 23:19:58.393477  5973 net.cpp:380] conv3_5 -> conv3_5
I0126 23:19:58.886660  5973 net.cpp:122] Setting up conv3_5
I0126 23:19:58.886696  5973 net.cpp:129] Top shape: 1 256 20 58 (296960)
I0126 23:19:58.886701  5973 net.cpp:137] Memory required for data: 40737492
I0126 23:19:58.886718  5973 layer_factory.hpp:77] Creating layer relu3_5
I0126 23:19:58.886731  5973 net.cpp:84] Creating Layer relu3_5
I0126 23:19:58.886737  5973 net.cpp:406] relu3_5 <- conv3_5
I0126 23:19:58.886744  5973 net.cpp:367] relu3_5 -> conv3_5 (in-place)
I0126 23:19:58.886973  5973 net.cpp:122] Setting up relu3_5
I0126 23:19:58.886984  5973 net.cpp:129] Top shape: 1 256 20 58 (296960)
I0126 23:19:58.886988  5973 net.cpp:137] Memory required for data: 41925332
I0126 23:19:58.886992  5973 layer_factory.hpp:77] Creating layer conv3_6
I0126 23:19:58.887006  5973 net.cpp:84] Creating Layer conv3_6
I0126 23:19:58.887012  5973 net.cpp:406] conv3_6 <- conv3_5
I0126 23:19:58.887018  5973 net.cpp:380] conv3_6 -> conv3_6
I0126 23:19:59.506678  5973 net.cpp:122] Setting up conv3_6
I0126 23:19:59.506716  5973 net.cpp:129] Top shape: 1 256 20 58 (296960)
I0126 23:19:59.506721  5973 net.cpp:137] Memory required for data: 43113172
I0126 23:19:59.506733  5973 layer_factory.hpp:77] Creating layer relu3_6
I0126 23:19:59.506745  5973 net.cpp:84] Creating Layer relu3_6
I0126 23:19:59.506757  5973 net.cpp:406] relu3_6 <- conv3_6
I0126 23:19:59.506764  5973 net.cpp:367] relu3_6 -> conv3_6 (in-place)
I0126 23:19:59.507206  5973 net.cpp:122] Setting up relu3_6
I0126 23:19:59.507220  5973 net.cpp:129] Top shape: 1 256 20 58 (296960)
I0126 23:19:59.507223  5973 net.cpp:137] Memory required for data: 44301012
I0126 23:19:59.507228  5973 layer_factory.hpp:77] Creating layer conv4_1
I0126 23:19:59.507242  5973 net.cpp:84] Creating Layer conv4_1
I0126 23:19:59.507247  5973 net.cpp:406] conv4_1 <- conv3_6
I0126 23:19:59.507254  5973 net.cpp:380] conv4_1 -> conv4_1
I0126 23:20:00.422431  5973 net.cpp:122] Setting up conv4_1
I0126 23:20:00.422472  5973 net.cpp:129] Top shape: 1 512 20 58 (593920)
I0126 23:20:00.422477  5973 net.cpp:137] Memory required for data: 46676692
I0126 23:20:00.422488  5973 layer_factory.hpp:77] Creating layer relu4_1
I0126 23:20:00.422502  5973 net.cpp:84] Creating Layer relu4_1
I0126 23:20:00.422508  5973 net.cpp:406] relu4_1 <- conv4_1
I0126 23:20:00.422516  5973 net.cpp:367] relu4_1 -> conv4_1 (in-place)
I0126 23:20:00.422996  5973 net.cpp:122] Setting up relu4_1
I0126 23:20:00.423009  5973 net.cpp:129] Top shape: 1 512 20 58 (593920)
I0126 23:20:00.423014  5973 net.cpp:137] Memory required for data: 49052372
I0126 23:20:00.423019  5973 layer_factory.hpp:77] Creating layer conv4_2
I0126 23:20:00.423034  5973 net.cpp:84] Creating Layer conv4_2
I0126 23:20:00.423039  5973 net.cpp:406] conv4_2 <- conv4_1
I0126 23:20:00.423048  5973 net.cpp:380] conv4_2 -> conv4_2
I0126 23:20:01.719434  5973 net.cpp:122] Setting up conv4_2
I0126 23:20:01.719468  5973 net.cpp:129] Top shape: 1 512 20 58 (593920)
I0126 23:20:01.719473  5973 net.cpp:137] Memory required for data: 51428052
I0126 23:20:01.719485  5973 layer_factory.hpp:77] Creating layer relu4_2
I0126 23:20:01.719494  5973 net.cpp:84] Creating Layer relu4_2
I0126 23:20:01.719501  5973 net.cpp:406] relu4_2 <- conv4_2
I0126 23:20:01.719509  5973 net.cpp:367] relu4_2 -> conv4_2 (in-place)
I0126 23:20:01.719740  5973 net.cpp:122] Setting up relu4_2
I0126 23:20:01.719760  5973 net.cpp:129] Top shape: 1 512 20 58 (593920)
I0126 23:20:01.719765  5973 net.cpp:137] Memory required for data: 53803732
I0126 23:20:01.719769  5973 layer_factory.hpp:77] Creating layer conv4_3
I0126 23:20:01.719784  5973 net.cpp:84] Creating Layer conv4_3
I0126 23:20:01.719787  5973 net.cpp:406] conv4_3 <- conv4_2
I0126 23:20:01.719794  5973 net.cpp:380] conv4_3 -> conv4_3
I0126 23:20:01.959900  5973 net.cpp:122] Setting up conv4_3
I0126 23:20:01.959939  5973 net.cpp:129] Top shape: 1 512 20 58 (593920)
I0126 23:20:01.959944  5973 net.cpp:137] Memory required for data: 56179412
I0126 23:20:01.959956  5973 layer_factory.hpp:77] Creating layer relu4_3
I0126 23:20:01.959969  5973 net.cpp:84] Creating Layer relu4_3
I0126 23:20:01.959975  5973 net.cpp:406] relu4_3 <- conv4_3
I0126 23:20:01.959983  5973 net.cpp:367] relu4_3 -> conv4_3 (in-place)
I0126 23:20:01.962446  5973 net.cpp:122] Setting up relu4_3
I0126 23:20:01.962461  5973 net.cpp:129] Top shape: 1 512 20 58 (593920)
I0126 23:20:01.962466  5973 net.cpp:137] Memory required for data: 58555092
I0126 23:20:01.962471  5973 layer_factory.hpp:77] Creating layer tpp5
I0126 23:20:01.962481  5973 net.cpp:84] Creating Layer tpp5
I0126 23:20:01.962486  5973 net.cpp:406] tpp5 <- conv4_3
I0126 23:20:01.962493  5973 net.cpp:380] tpp5 -> tpp5
I0126 23:20:01.964856  5973 net.cpp:122] Setting up tpp5
I0126 23:20:01.964874  5973 net.cpp:129] Top shape: 1 7680 (7680)
I0126 23:20:01.964877  5973 net.cpp:137] Memory required for data: 58585812
I0126 23:20:01.964882  5973 layer_factory.hpp:77] Creating layer reshape
I0126 23:20:01.964892  5973 net.cpp:84] Creating Layer reshape
I0126 23:20:01.964897  5973 net.cpp:406] reshape <- tpp5
I0126 23:20:01.964905  5973 net.cpp:380] reshape -> reshape
I0126 23:20:01.964941  5973 net.cpp:122] Setting up reshape
I0126 23:20:01.964948  5973 net.cpp:129] Top shape: 1 3840 2 1 (7680)
I0126 23:20:01.964952  5973 net.cpp:137] Memory required for data: 58616532
I0126 23:20:01.964956  5973 layer_factory.hpp:77] Creating layer premax
I0126 23:20:01.964975  5973 net.cpp:84] Creating Layer premax
I0126 23:20:01.964979  5973 net.cpp:406] premax <- reshape
I0126 23:20:01.964987  5973 net.cpp:380] premax -> premax
I0126 23:20:01.965126  5973 net.cpp:122] Setting up premax
I0126 23:20:01.965135  5973 net.cpp:129] Top shape: 1 3840 2 1 (7680)
I0126 23:20:01.965139  5973 net.cpp:137] Memory required for data: 58647252
I0126 23:20:01.965147  5973 layer_factory.hpp:77] Creating layer maxout
I0126 23:20:01.965154  5973 net.cpp:84] Creating Layer maxout
I0126 23:20:01.965158  5973 net.cpp:406] maxout <- premax
I0126 23:20:01.965164  5973 net.cpp:380] maxout -> maxout
I0126 23:20:01.965210  5973 net.cpp:122] Setting up maxout
I0126 23:20:01.965217  5973 net.cpp:129] Top shape: 1 3840 1 1 (3840)
I0126 23:20:01.965221  5973 net.cpp:137] Memory required for data: 58662612
I0126 23:20:01.965225  5973 layer_factory.hpp:77] Creating layer fc6
I0126 23:20:01.965234  5973 net.cpp:84] Creating Layer fc6
I0126 23:20:01.965237  5973 net.cpp:406] fc6 <- maxout
I0126 23:20:01.965245  5973 net.cpp:380] fc6 -> fc6
I0126 23:20:06.735703  5973 net.cpp:122] Setting up fc6
I0126 23:20:06.735738  5973 net.cpp:129] Top shape: 1 4096 (4096)
I0126 23:20:06.735743  5973 net.cpp:137] Memory required for data: 58678996
I0126 23:20:06.779114  5973 layer_factory.hpp:77] Creating layer relu6
I0126 23:20:06.779161  5973 net.cpp:84] Creating Layer relu6
I0126 23:20:06.779172  5973 net.cpp:406] relu6 <- fc6
I0126 23:20:06.779181  5973 net.cpp:367] relu6 -> fc6 (in-place)
I0126 23:20:06.779568  5973 net.cpp:122] Setting up relu6
I0126 23:20:06.779583  5973 net.cpp:129] Top shape: 1 4096 (4096)
I0126 23:20:06.779588  5973 net.cpp:137] Memory required for data: 58695380
I0126 23:20:06.779593  5973 layer_factory.hpp:77] Creating layer drop6
I0126 23:20:06.779614  5973 net.cpp:84] Creating Layer drop6
I0126 23:20:06.779618  5973 net.cpp:406] drop6 <- fc6
I0126 23:20:06.779626  5973 net.cpp:367] drop6 -> fc6 (in-place)
I0126 23:20:06.779688  5973 net.cpp:122] Setting up drop6
I0126 23:20:06.779700  5973 net.cpp:129] Top shape: 1 4096 (4096)
I0126 23:20:06.779705  5973 net.cpp:137] Memory required for data: 58711764
I0126 23:20:06.779708  5973 layer_factory.hpp:77] Creating layer fc7
I0126 23:20:06.779721  5973 net.cpp:84] Creating Layer fc7
I0126 23:20:06.779726  5973 net.cpp:406] fc7 <- fc6
I0126 23:20:06.779733  5973 net.cpp:380] fc7 -> fc7
I0126 23:20:11.556212  5973 net.cpp:122] Setting up fc7
I0126 23:20:11.556251  5973 net.cpp:129] Top shape: 1 4096 (4096)
I0126 23:20:11.556255  5973 net.cpp:137] Memory required for data: 58728148
I0126 23:20:11.556267  5973 layer_factory.hpp:77] Creating layer relu7
I0126 23:20:11.556279  5973 net.cpp:84] Creating Layer relu7
I0126 23:20:11.556284  5973 net.cpp:406] relu7 <- fc7
I0126 23:20:11.556293  5973 net.cpp:367] relu7 -> fc7 (in-place)
I0126 23:20:11.556933  5973 net.cpp:122] Setting up relu7
I0126 23:20:11.556948  5973 net.cpp:129] Top shape: 1 4096 (4096)
I0126 23:20:11.556952  5973 net.cpp:137] Memory required for data: 58744532
I0126 23:20:11.556957  5973 layer_factory.hpp:77] Creating layer drop7
I0126 23:20:11.556967  5973 net.cpp:84] Creating Layer drop7
I0126 23:20:11.556972  5973 net.cpp:406] drop7 <- fc7
I0126 23:20:11.556977  5973 net.cpp:367] drop7 -> fc7 (in-place)
I0126 23:20:11.557015  5973 net.cpp:122] Setting up drop7
I0126 23:20:11.557023  5973 net.cpp:129] Top shape: 1 4096 (4096)
I0126 23:20:11.557025  5973 net.cpp:137] Memory required for data: 58760916
I0126 23:20:11.557030  5973 layer_factory.hpp:77] Creating layer fc8
I0126 23:20:11.557039  5973 net.cpp:84] Creating Layer fc8
I0126 23:20:11.557044  5973 net.cpp:406] fc8 <- fc7
I0126 23:20:11.557049  5973 net.cpp:380] fc8 -> fc8
I0126 23:20:12.333807  5973 net.cpp:122] Setting up fc8
I0126 23:20:12.333850  5973 net.cpp:129] Top shape: 1 618 (618)
I0126 23:20:12.333855  5973 net.cpp:137] Memory required for data: 58763388
I0126 23:20:12.333874  5973 layer_factory.hpp:77] Creating layer loss
I0126 23:20:12.333889  5973 net.cpp:84] Creating Layer loss
I0126 23:20:12.333901  5973 net.cpp:406] loss <- fc8
I0126 23:20:12.333909  5973 net.cpp:406] loss <- phocs
I0126 23:20:12.333917  5973 net.cpp:380] loss -> loss
I0126 23:20:12.333979  5973 net.cpp:122] Setting up loss
…
  phase: TEST
}
layer {
  name: "word_images"
  type: "Data"
  top: "word_images"
  top: "label"
  transform_param {
    scale: -0.0039215689
    mean_value: 255
  }
  data_param {
    source: "/data/fwolf/iam_50000/iam-db_nti500000_pul2-3-4-5_test_word_images_lmdb"
    batch_size: 1
    backend: LMDB
    prefetch: 20
  }
}
layer {
  name: "phocs"
  type: "Data"
  top: "phocs"
  top: "label_phocs"
  data_param {
    source: "/data/fwolf/iam_50000/iam-db_nti500000_pul2-3-4-5_test_phocs_lmdb"
    batch_size: 1
    backend: LMDB
    prefetch: 20
  }
}
layer {
  name: "conv1_1"
  type: "Convolution"
  bottom: "word_images"
  top: "conv1_1"
  convolution_param {
    num_output: 64
    pad: 1
    kernel_size: 3
    stride: 1
    weight_filler {
      type: "msra"
    }
    bias_filler {
      type: "constant"
    }
    engine: CUDNN
  }
}
layer {
  name: "relu1_1"
  type: "ReLU"
  bottom: "conv1_1"
  top: "conv1_1"
}
layer {
  name: "conv1_2"
  type: "Convolution"
  bottom: "conv1_1"
  top: "conv1_2"
  convolution_param {
    num_output: 64
    pad: 1
    kernel_size: 3
    stride: 1
    weight_filler {
      type: "msra"
    }
    bias_filler {
      type: "constant"
    }
    engine: CUDNN
  }
}
layer {
  name: "relu1_2"
  type: "ReLU"
  bottom: "conv1_2"
  top: "conv1_2"
}
layer {
  name: "pool1"
  type: "Pooling"
  bottom: "conv1_2"
  top: "pool1"
  pooling_param {
    pool: MAX
    kernel_size: 2
    stride: 2
  }
}
layer {
  name: "conv2_1"
  type: "Convolution"
  bottom: "pool1"
  top: "conv2_1"
  convolution_param {
    num_output: 128
    pad: 1
    kernel_size: 3
    stride: 1
    weight_filler {
      type: "msra"
    }
    bias_filler {
      type: "constant"
    }
    engine: CUDNN
  }
}
layer {
  name: "relu2_1"
  type: "ReLU"
  bottom: "conv2_1"
  top: "conv2_1"
}
layer {
  name: "conv2_2"
  type: "Convolution"
  bottom: "conv2_1"
  top: "conv2_2"
  convolution_param {
    num_output: 128
    pad: 1
    kernel_size: 3
    stride: 1
    weight_filler {
      type: "msra"
    }
    bias_filler {
      type: "constant"
    }
    engine: CUDNN
  }
}
layer {
  name: "relu2_2"
  type: "ReLU"
  bottom: "conv2_2"
  top: "conv2_2"
}
layer {
  name: "pool2"
  type: "Pooling"
  bottom: "conv2_2"
  top: "pool2"
  pooling_param {
    pool: MAX
    kernel_size: 2
    stride: 2
  }
}
layer {
  name: "conv3_1"
  type: "Convolution"
  bottom: "pool2"
  top: "conv3_1"
  convolution_param {
    num_output: 256
    pad: 1
    kernel_size: 3
    stride: 1
    weight_filler {
      type: "msra"
    }
    bias_filler {
      type: "constant"
    }
    engine: CUDNN
  }
}
layer {
  name: "relu3_1"
  type: "ReLU"
  bottom: "conv3_1"
  top: "conv3_1"
}
layer {
  name: "conv3_2"
  type: "Convolution"
  bottom: "conv3_1"
  top: "conv3_2"
  convolution_param {
    num_output: 256
    pad: 1
    kernel_size: 3
    stride: 1
    weight_filler {
      type: "msra"
    }
    bias_filler {
      type: "constant"
    }
    engine: CUDNN
  }
}
layer {
  name: "relu3_2"
  type: "ReLU"
  bottom: "conv3_2"
  top: "conv3_2"
}
layer {
  name: "conv3_3"
  type: "Convolution"
  bottom: "conv3_2"
  top: "conv3_3"
  convolution_param {
    num_output: 256
    pad: 1
    kernel_size: 3
    stride: 1
    weight_filler {
      type: "msra"
    }
    bias_filler {
      type: "constant"
    }
    engine: CUDNN
  }
}
layer {
  name: "relu3_3"
  type: "ReLU"
  bottom: "conv3_3"
  top: "conv3_3"
}
layer {
  name: "conv3_4"
  type: "Convolution"
  bottom: "conv3_3"
  top: "conv3_4"
  convolution_param {
    num_output: 256
    pad: 1
    kernel_size: 3
    stride: 1
    weight_filler {
      type: "msra"
    }
    bias_filler {
      type: "constant"
    }
    engine: CUDNN
  }
}
layer {
  name: "relu3_4"
  type: "ReLU"
  bottom: "conv3_4"
  top: "conv3_4"
}
layer {
  name: "conv3_5"
  type: "Convolution"
  bottom: "conv3_4"
  top: "conv3_5"
  convolution_param {
    num_output: 256
    pad: 1
    kernel_size: 3
    stride: 1
    weight_filler {
      type: "msra"
    }
    bias_filler {
      type: "constant"
    }
    engine: CUDNN
  }
}
layer {
  name: "relu3_5"
  type: "ReLU"
  bottom: "conv3_5"
  top: "conv3_5"
}
layer {
  name: "conv3_6"
  type: "Convolution"
  bottom: "conv3_5"
  top: "conv3_6"
  convolution_param {
    num_output: 256
    pad: 1
    kernel_size: 3
    stride: 1
    weight_filler {
      type: "msra"
    }
    bias_filler {
      type: "constant"
    }
    engine: CUDNN
  }
}
layer {
  name: "relu3_6"
  type: "ReLU"
  bottom: "conv3_6"
  top: "conv3_6"
}
layer {
  name: "conv4_1"
  type: "Convolution"
  bottom: "conv3_6"
  top: "conv4_1"
  convolution_param {
    num_output: 512
    pad: 1
    kernel_size: 3
    stride: 1
    weight_filler {
      type: "msra"
    }
    bias_filler {
      type: "constant"
    }
    engine: CUDNN
  }
}
layer {
  name: "relu4_1"
  type: "ReLU"
  bottom: "conv4_1"
  top: "conv4_1"
}
layer {
  name: "conv4_2"
  type: "Convolution"
  bottom: "conv4_1"
  top: "conv4_2"
  convolution_param {
    num_output: 512
    pad: 1
    kernel_size: 3
    stride: 1
    weight_filler {
      type: "msra"
    }
    bias_filler {
      type: "constant"
    }
    engine: CUDNN
  }
}
layer {
  name: "relu4_2"
  type: "ReLU"
  bottom: "conv4_2"
  top: "conv4_2"
}
layer {
  name: "conv4_3"
  type: "Convolution"
  bottom: "conv4_2"
  top: "conv4_3"
  convolution_param {
    num_output: 512
    pad: 1
    kernel_size: 3
    stride: 1
    weight_filler {
      type: "msra"
    }
    bias_filler {
      type: "constant"
    }
    engine: CUDNN
  }
}
layer {
  name: "relu4_3"
  type: "ReLU"
  bottom: "conv4_3"
  top: "conv4_3"
}
layer {
  name: "tpp5"
  type: "TPP"
  bottom: "conv4_3"
  top: "tpp5"
  tpp_param {
    pyramid_layer: 1
    pyramid_layer: 2
    pyramid_layer: 3
    pyramid_layer: 4
    pyramid_layer: 5
    pool: MAX
    engine: CUDNN
  }
}
layer {
  name: "reshape"
  type: "Reshape"
  bottom: "tpp5"
  top: "reshape"
  reshape_param {
    shape {
      dim: 1
      dim: 3840
      dim: 2
      dim: 1
    }
  }
}
layer {
  name: "premax"
  type: "Scale"
  bottom: "reshape"
  top: "premax"
  param {
    lr_mult: 0
    decay_mult: 0
  }
  scale_param {
    num_axes: 3
    filler {
      value: 1
    }
    bias_term: false
    bias_filler {
      value: 0
    }
  }
}
layer {
  name: "maxout"
  type: "Pooling"
  bottom: "premax"
  top: "maxout"
  pooling_param {
    pool: MAX
    global_pooling: true
  }
}
layer {
  name: "fc6"
  type: "InnerProduct"
  bottom: "maxout"
  top: "fc6"
  inner_product_param {
    num_output: 4096
    weight_filler {
      type: "msra"
    }
    bias_filler {
      type: "constant"
    }
  }
}
layer {
  name: "relu6"
  type: "ReLU"
  bottom: "fc6"
  top: "fc6"
}
layer {
  name: "fc7"
  type: "InnerProduct"
  bottom: "fc6"
  top: "fc7"
  inner_product_param {
    num_output: 4096
    weight_filler {
      type: "msra"
    }
    bias_filler {
      type: "constant"
    }
  }
}
layer {
  name: "relu7"
  type: "ReLU"
  bottom: "fc7"
  top: "fc7"
}
layer {
  name: "fc8"
  type: "InnerProduct"
  bottom: "fc7"
  top: "fc8"
  inner_product_param {
    num_output: 618
    weight_filler {
      type: "msra"
    }
    bias_filler {
      type: "constant"
    }
  }
}
layer {
  name: "sigmoid"
  type: "Sigmoid"
  bottom: "fc8"
  top: "sigmoid"
  include {
    phase: TEST
  }
}
layer {
  name: "silence"
  type: "Silence"
  bottom: "sigmoid"
  include {
    phase: TEST
  }
}
layer {
  name: "loss"
  type: "SigmoidCrossEntropyLoss"
  bottom: "fc8"
  bottom: "phocs"
  top: "loss"
}
I0126 23:20:12.364626  5973 layer_factory.hpp:77] Creating layer word_images
I0126 23:20:12.384510  5973 db_lmdb.cpp:35] Opened lmdb /data/fwolf/iam_50000/iam-db_nti500000_pul2-3-4-5_test_word_images_lmdb
I0126 23:20:12.384572  5973 net.cpp:84] Creating Layer word_images
I0126 23:20:12.384583  5973 net.cpp:380] word_images -> word_images
I0126 23:20:12.384603  5973 net.cpp:380] word_images -> label
I0126 23:20:12.385037  5973 data_layer.cpp:44] output data size: 1,1,90,94
I0126 23:20:12.420291  5973 net.cpp:122] Setting up word_images
I0126 23:20:12.420325  5973 net.cpp:129] Top shape: 1 1 90 94 (8460)
I0126 23:20:12.420331  5973 net.cpp:129] Top shape: 1 (1)
I0126 23:20:12.420334  5973 net.cpp:137] Memory required for data: 33844
I0126 23:20:12.420342  5973 layer_factory.hpp:77] Creating layer phocs
I0126 23:20:12.445272  5973 db_lmdb.cpp:35] Opened lmdb /data/fwolf/iam_50000/iam-db_nti500000_pul2-3-4-5_test_phocs_lmdb
I0126 23:20:12.445341  5973 net.cpp:84] Creating Layer phocs
I0126 23:20:12.445355  5973 net.cpp:380] phocs -> phocs
I0126 23:20:12.445369  5973 net.cpp:380] phocs -> label_phocs
I0126 23:20:12.445840  5973 data_layer.cpp:44] output data size: 1,1,1,618
I0126 23:20:12.566256  5973 net.cpp:122] Setting up phocs
I0126 23:20:12.566290  5973 net.cpp:129] Top shape: 1 1 1 618 (618)
I0126 23:20:12.566296  5973 net.cpp:129] Top shape: 1 (1)
I0126 23:20:12.566300  5973 net.cpp:137] Memory required for data: 36320
I0126 23:20:12.566308  5973 layer_factory.hpp:77] Creating layer conv1_1
I0126 23:20:12.566329  5973 net.cpp:84] Creating Layer conv1_1
I0126 23:20:12.566334  5973 net.cpp:406] conv1_1 <- word_images
I0126 23:20:12.566344  5973 net.cpp:380] conv1_1 -> conv1_1
I0126 23:20:12.620553  5973 net.cpp:122] Setting up conv1_1
I0126 23:20:12.620584  5973 net.cpp:129] Top shape: 1 64 90 94 (541440)
I0126 23:20:12.620589  5973 net.cpp:137] Memory required for data: 2202080
I0126 23:20:12.620606  5973 layer_factory.hpp:77] Creating layer relu1_1
I0126 23:20:12.620620  5973 net.cpp:84] Creating Layer relu1_1
I0126 23:20:12.620625  5973 net.cpp:406] relu1_1 <- conv1_1
I0126 23:20:12.620632  5973 net.cpp:367] relu1_1 -> conv1_1 (in-place)
I0126 23:20:12.621093  5973 net.cpp:122] Setting up relu1_1
I0126 23:20:12.621105  5973 net.cpp:129] Top shape: 1 64 90 94 (541440)
I0126 23:20:12.621109  5973 net.cpp:137] Memory required for data: 4367840
I0126 23:20:12.621114  5973 layer_factory.hpp:77] Creating layer conv1_2
I0126 23:20:12.621132  5973 net.cpp:84] Creating Layer conv1_2
I0126 23:20:12.621137  5973 net.cpp:406] conv1_2 <- conv1_1
I0126 23:20:12.621145  5973 net.cpp:380] conv1_2 -> conv1_2
I0126 23:20:12.681531  5973 net.cpp:122] Setting up conv1_2
I0126 23:20:12.681566  5973 net.cpp:129] Top shape: 1 64 90 94 (541440)
I0126 23:20:12.681571  5973 net.cpp:137] Memory required for data: 6533600
I0126 23:20:12.681586  5973 layer_factory.hpp:77] Creating layer relu1_2
I0126 23:20:12.681605  5973 net.cpp:84] Creating Layer relu1_2
I0126 23:20:12.681612  5973 net.cpp:406] relu1_2 <- conv1_2
I0126 23:20:12.681619  5973 net.cpp:367] relu1_2 -> conv1_2 (in-place)
I0126 23:20:12.681870  5973 net.cpp:122] Setting up relu1_2
I0126 23:20:12.681880  5973 net.cpp:129] Top shape: 1 64 90 94 (541440)
I0126 23:20:12.681885  5973 net.cpp:137] Memory required for data: 8699360
I0126 23:20:12.681888  5973 layer_factory.hpp:77] Creating layer pool1
I0126 23:20:12.681896  5973 net.cpp:84] Creating Layer pool1
I0126 23:20:12.681900  5973 net.cpp:406] pool1 <- conv1_2
I0126 23:20:12.681908  5973 net.cpp:380] pool1 -> pool1
I0126 23:20:12.681973  5973 net.cpp:122] Setting up pool1
I0126 23:20:12.681980  5973 net.cpp:129] Top shape: 1 64 45 47 (135360)
I0126 23:20:12.681984  5973 net.cpp:137] Memory required for data: 9240800
I0126 23:20:12.681988  5973 layer_factory.hpp:77] Creating layer conv2_1
I0126 23:20:12.682004  5973 net.cpp:84] Creating Layer conv2_1
I0126 23:20:12.682008  5973 net.cpp:406] conv2_1 <- pool1
I0126 23:20:12.682015  5973 net.cpp:380] conv2_1 -> conv2_1
I0126 23:20:12.752961  5973 net.cpp:122] Setting up conv2_1
I0126 23:20:12.752993  5973 net.cpp:129] Top shape: 1 128 45 47 (270720)
I0126 23:20:12.752998  5973 net.cpp:137] Memory required for data: 10323680
I0126 23:20:12.753015  5973 layer_factory.hpp:77] Creating layer relu2_1
I0126 23:20:12.753031  5973 net.cpp:84] Creating Layer relu2_1
I0126 23:20:12.753036  5973 net.cpp:406] relu2_1 <- conv2_1
I0126 23:20:12.753048  5973 net.cpp:367] relu2_1 -> conv2_1 (in-place)
I0126 23:20:12.753578  5973 net.cpp:122] Setting up relu2_1
I0126 23:20:12.753592  5973 net.cpp:129] Top shape: 1 128 45 47 (270720)
I0126 23:20:12.753595  5973 net.cpp:137] Memory required for data: 11406560
I0126 23:20:12.753600  5973 layer_factory.hpp:77] Creating layer conv2_2
I0126 23:20:12.753614  5973 net.cpp:84] Creating Layer conv2_2
I0126 23:20:12.753620  5973 net.cpp:406] conv2_2 <- conv2_1
I0126 23:20:12.753628  5973 net.cpp:380] conv2_2 -> conv2_2
I0126 23:20:12.854033  5973 net.cpp:122] Setting up conv2_2
I0126 23:20:12.854068  5973 net.cpp:129] Top shape: 1 128 45 47 (270720)
I0126 23:20:12.854073  5973 net.cpp:137] Memory required for data: 12489440
I0126 23:20:12.854085  5973 layer_factory.hpp:77] Creating layer relu2_2
I0126 23:20:12.854097  5973 net.cpp:84] Creating Layer relu2_2
I0126 23:20:12.854104  5973 net.cpp:406] relu2_2 <- conv2_2
I0126 23:20:12.854111  5973 net.cpp:367] relu2_2 -> conv2_2 (in-place)
I0126 23:20:12.854358  5973 net.cpp:122] Setting up relu2_2
I0126 23:20:12.854370  5973 net.cpp:129] Top shape: 1 128 45 47 (270720)
I0126 23:20:12.854375  5973 net.cpp:137] Memory required for data: 13572320
I0126 23:20:12.854379  5973 layer_factory.hpp:77] Creating layer pool2
I0126 23:20:12.854388  5973 net.cpp:84] Creating Layer pool2
I0126 23:20:12.854393  5973 net.cpp:406] pool2 <- conv2_2
I0126 23:20:12.854404  5973 net.cpp:380] pool2 -> pool2
I0126 23:20:12.854472  5973 net.cpp:122] Setting up pool2
I0126 23:20:12.854481  5973 net.cpp:129] Top shape: 1 128 23 24 (70656)
I0126 23:20:12.854485  5973 net.cpp:137] Memory required for data: 13854944
I0126 23:20:12.854490  5973 layer_factory.hpp:77] Creating layer conv3_1
I0126 23:20:12.854503  5973 net.cpp:84] Creating Layer conv3_1
I0126 23:20:12.854508  5973 net.cpp:406] conv3_1 <- pool2
I0126 23:20:12.854516  5973 net.cpp:380] conv3_1 -> conv3_1
I0126 23:20:13.033112  5973 net.cpp:122] Setting up conv3_1
I0126 23:20:13.033146  5973 net.cpp:129] Top shape: 1 256 23 24 (141312)
I0126 23:20:13.033151  5973 net.cpp:137] Memory required for data: 14420192
I0126 23:20:13.033169  5973 layer_factory.hpp:77] Creating layer relu3_1
I0126 23:20:13.033181  5973 net.cpp:84] Creating Layer relu3_1
I0126 23:20:13.033187  5973 net.cpp:406] relu3_1 <- conv3_1
I0126 23:20:13.033195  5973 net.cpp:367] relu3_1 -> conv3_1 (in-place)
I0126 23:20:13.033659  5973 net.cpp:122] Setting up relu3_1
I0126 23:20:13.033673  5973 net.cpp:129] Top shape: 1 256 23 24 (141312)
I0126 23:20:13.033676  5973 net.cpp:137] Memory required for data: 14985440
I0126 23:20:13.033681  5973 layer_factory.hpp:77] Creating layer conv3_2
I0126 23:20:13.033696  5973 net.cpp:84] Creating Layer conv3_2
I0126 23:20:13.033700  5973 net.cpp:406] conv3_2 <- conv3_1
I0126 23:20:13.033710  5973 net.cpp:380] conv3_2 -> conv3_2
I0126 23:20:13.269634  5973 net.cpp:122] Setting up conv3_2
I0126 23:20:13.269670  5973 net.cpp:129] Top shape: 1 256 23 24 (141312)
I0126 23:20:13.269675  5973 net.cpp:137] Memory required for data: 15550688
I0126 23:20:13.269686  5973 layer_factory.hpp:77] Creating layer relu3_2
I0126 23:20:13.269700  5973 net.cpp:84] Creating Layer relu3_2
I0126 23:20:13.269706  5973 net.cpp:406] relu3_2 <- conv3_2
I0126 23:20:13.269714  5973 net.cpp:367] relu3_2 -> conv3_2 (in-place)
I0126 23:20:13.270190  5973 net.cpp:122] Setting up relu3_2
I0126 23:20:13.270203  5973 net.cpp:129] Top shape: 1 256 23 24 (141312)
I0126 23:20:13.270208  5973 net.cpp:137] Memory required for data: 16115936
I0126 23:20:13.270212  5973 layer_factory.hpp:77] Creating layer conv3_3
I0126 23:20:13.270229  5973 net.cpp:84] Creating Layer conv3_3
I0126 23:20:13.270233  5973 net.cpp:406] conv3_3 <- conv3_2
I0126 23:20:13.270241  5973 net.cpp:380] conv3_3 -> conv3_3
I0126 23:20:13.454983  5973 net.cpp:122] Setting up conv3_3
I0126 23:20:13.455021  5973 net.cpp:129] Top shape: 1 256 23 24 (141312)
I0126 23:20:13.455027  5973 net.cpp:137] Memory required for data: 16681184
I0126 23:20:13.455040  5973 layer_factory.hpp:77] Creating layer relu3_3
I0126 23:20:13.455058  5973 net.cpp:84] Creating Layer relu3_3
I0126 23:20:13.455066  5973 net.cpp:406] relu3_3 <- conv3_3
I0126 23:20:13.455075  5973 net.cpp:367] relu3_3 -> conv3_3 (in-place)
I0126 23:20:13.455358  5973 net.cpp:122] Setting up relu3_3
I0126 23:20:13.455373  5973 net.cpp:129] Top shape: 1 256 23 24 (141312)
I0126 23:20:13.455379  5973 net.cpp:137] Memory required for data: 17246432
I0126 23:20:13.455382  5973 layer_factory.hpp:77] Creating layer conv3_4
I0126 23:20:13.455399  5973 net.cpp:84] Creating Layer conv3_4
I0126 23:20:13.455406  5973 net.cpp:406] conv3_4 <- conv3_3
I0126 23:20:13.455416  5973 net.cpp:380] conv3_4 -> conv3_4
I0126 23:20:13.656057  5973 net.cpp:122] Setting up conv3_4
I0126 23:20:13.656093  5973 net.cpp:129] Top shape: 1 256 23 24 (141312)
I0126 23:20:13.656098  5973 net.cpp:137] Memory required for data: 17811680
I0126 23:20:13.656112  5973 layer_factory.hpp:77] Creating layer relu3_4
I0126 23:20:13.656126  5973 net.cpp:84] Creating Layer relu3_4
I0126 23:20:13.656131  5973 net.cpp:406] relu3_4 <- conv3_4
I0126 23:20:13.656141  5973 net.cpp:367] relu3_4 -> conv3_4 (in-place)
I0126 23:20:13.656736  5973 net.cpp:122] Setting up relu3_4
I0126 23:20:13.656749  5973 net.cpp:129] Top shape: 1 256 23 24 (141312)
I0126 23:20:13.656754  5973 net.cpp:137] Memory required for data: 18376928
I0126 23:20:13.656759  5973 layer_factory.hpp:77] Creating layer conv3_5
I0126 23:20:13.656774  5973 net.cpp:84] Creating Layer conv3_5
I0126 23:20:13.656778  5973 net.cpp:406] conv3_5 <- conv3_4
I0126 23:20:13.656786  5973 net.cpp:380] conv3_5 -> conv3_5
I0126 23:20:13.867189  5973 net.cpp:122] Setting up conv3_5
I0126 23:20:13.867228  5973 net.cpp:129] Top shape: 1 256 23 24 (141312)
I0126 23:20:13.867235  5973 net.cpp:137] Memory required for data: 18942176
I0126 23:20:13.867254  5973 layer_factory.hpp:77] Creating layer relu3_5
I0126 23:20:13.867271  5973 net.cpp:84] Creating Layer relu3_5
I0126 23:20:13.867278  5973 net.cpp:406] relu3_5 <- conv3_5
I0126 23:20:13.867288  5973 net.cpp:367] relu3_5 -> conv3_5 (in-place)
I0126 23:20:13.867575  5973 net.cpp:122] Setting up relu3_5
I0126 23:20:13.867591  5973 net.cpp:129] Top shape: 1 256 23 24 (141312)
I0126 23:20:13.867597  5973 net.cpp:137] Memory required for data: 19507424
I0126 23:20:13.867602  5973 layer_factory.hpp:77] Creating layer conv3_6
I0126 23:20:13.867619  5973 net.cpp:84] Creating Layer conv3_6
I0126 23:20:13.867625  5973 net.cpp:406] conv3_6 <- conv3_5
I0126 23:20:13.867635  5973 net.cpp:380] conv3_6 -> conv3_6
I0126 23:20:14.032873  5973 net.cpp:122] Setting up conv3_6
I0126 23:20:14.032910  5973 net.cpp:129] Top shape: 1 256 23 24 (141312)
I0126 23:20:14.032915  5973 net.cpp:137] Memory required for data: 20072672
I0126 23:20:14.032929  5973 layer_factory.hpp:77] Creating layer relu3_6
I0126 23:20:14.032943  5973 net.cpp:84] Creating Layer relu3_6
I0126 23:20:14.032948  5973 net.cpp:406] relu3_6 <- conv3_6
I0126 23:20:14.032958  5973 net.cpp:367] relu3_6 -> conv3_6 (in-place)
I0126 23:20:14.033439  5973 net.cpp:122] Setting up relu3_6
I0126 23:20:14.033453  5973 net.cpp:129] Top shape: 1 256 23 24 (141312)
I0126 23:20:14.033457  5973 net.cpp:137] Memory required for data: 20637920
I0126 23:20:14.033463  5973 layer_factory.hpp:77] Creating layer conv4_1
I0126 23:20:14.033478  5973 net.cpp:84] Creating Layer conv4_1
I0126 23:20:14.033481  5973 net.cpp:406] conv4_1 <- conv3_6
I0126 23:20:14.033489  5973 net.cpp:380] conv4_1 -> conv4_1
I0126 23:20:14.901602  5973 net.cpp:122] Setting up conv4_1
I0126 23:20:14.901638  5973 net.cpp:129] Top shape: 1 512 23 24 (282624)
I0126 23:20:14.901643  5973 net.cpp:137] Memory required for data: 21768416
I0126 23:20:14.901656  5973 layer_factory.hpp:77] Creating layer relu4_1
I0126 23:20:14.901671  5973 net.cpp:84] Creating Layer relu4_1
I0126 23:20:14.901677  5973 net.cpp:406] relu4_1 <- conv4_1
I0126 23:20:14.901685  5973 net.cpp:367] relu4_1 -> conv4_1 (in-place)
I0126 23:20:14.902190  5973 net.cpp:122] Setting up relu4_1
I0126 23:20:14.902204  5973 net.cpp:129] Top shape: 1 512 23 24 (282624)
I0126 23:20:14.902212  5973 net.cpp:137] Memory required for data: 22898912
I0126 23:20:14.902217  5973 layer_factory.hpp:77] Creating layer conv4_2
I0126 23:20:14.902233  5973 net.cpp:84] Creating Layer conv4_2
I0126 23:20:14.902237  5973 net.cpp:406] conv4_2 <- conv4_1
I0126 23:20:14.902245  5973 net.cpp:380] conv4_2 -> conv4_2
I0126 23:20:16.154085  5973 net.cpp:122] Setting up conv4_2
I0126 23:20:16.154122  5973 net.cpp:129] Top shape: 1 512 23 24 (282624)
I0126 23:20:16.154126  5973 net.cpp:137] Memory required for data: 24029408
I0126 23:20:16.154139  5973 layer_factory.hpp:77] Creating layer relu4_2
I0126 23:20:16.154152  5973 net.cpp:84] Creating Layer relu4_2
I0126 23:20:16.154158  5973 net.cpp:406] relu4_2 <- conv4_2
I0126 23:20:16.154167  5973 net.cpp:367] relu4_2 -> conv4_2 (in-place)
I0126 23:20:16.154412  5973 net.cpp:122] Setting up relu4_2
I0126 23:20:16.154422  5973 net.cpp:129] Top shape: 1 512 23 24 (282624)
I0126 23:20:16.154428  5973 net.cpp:137] Memory required for data: 25159904
I0126 23:20:16.154431  5973 layer_factory.hpp:77] Creating layer conv4_3
I0126 23:20:16.154445  5973 net.cpp:84] Creating Layer conv4_3
I0126 23:20:16.154449  5973 net.cpp:406] conv4_3 <- conv4_2
I0126 23:20:16.154458  5973 net.cpp:380] conv4_3 -> conv4_3
I0126 23:20:18.506387  5973 net.cpp:122] Setting up conv4_3
I0126 23:20:18.506423  5973 net.cpp:129] Top shape: 1 512 23 24 (282624)
I0126 23:20:18.506428  5973 net.cpp:137] Memory required for data: 26290400
I0126 23:20:18.506440  5973 layer_factory.hpp:77] Creating layer relu4_3
I0126 23:20:18.506453  5973 net.cpp:84] Creating Layer relu4_3
I0126 23:20:18.506459  5973 net.cpp:406] relu4_3 <- conv4_3
I0126 23:20:18.506469  5973 net.cpp:367] relu4_3 -> conv4_3 (in-place)
I0126 23:20:18.507040  5973 net.cpp:122] Setting up relu4_3
I0126 23:20:18.507053  5973 net.cpp:129] Top shape: 1 512 23 24 (282624)
I0126 23:20:18.507057  5973 net.cpp:137] Memory required for data: 27420896
I0126 23:20:18.507061  5973 layer_factory.hpp:77] Creating layer tpp5
I0126 23:20:18.507071  5973 net.cpp:84] Creating Layer tpp5
I0126 23:20:18.507076  5973 net.cpp:406] tpp5 <- conv4_3
I0126 23:20:18.507082  5973 net.cpp:380] tpp5 -> tpp5
I0126 23:20:18.507726  5973 net.cpp:122] Setting up tpp5
I0126 23:20:18.507736  5973 net.cpp:129] Top shape: 1 7680 (7680)
I0126 23:20:18.507740  5973 net.cpp:137] Memory required for data: 27451616
I0126 23:20:18.507745  5973 layer_factory.hpp:77] Creating layer reshape
I0126 23:20:18.549991  5973 net.cpp:84] Creating Layer reshape
I0126 23:20:18.550002  5973 net.cpp:406] reshape <- tpp5
I0126 23:20:18.550012  5973 net.cpp:380] reshape -> reshape
I0126 23:20:18.550132  5973 net.cpp:122] Setting up reshape
I0126 23:20:18.550144  5973 net.cpp:129] Top shape: 1 3840 2 1 (7680)
I0126 23:20:18.550148  5973 net.cpp:137] Memory required for data: 27482336
I0126 23:20:18.550153  5973 layer_factory.hpp:77] Creating layer premax
I0126 23:20:18.550171  5973 net.cpp:84] Creating Layer premax
I0126 23:20:18.550175  5973 net.cpp:406] premax <- reshape
I0126 23:20:18.550184  5973 net.cpp:380] premax -> premax
I0126 23:20:18.550365  5973 net.cpp:122] Setting up premax
I0126 23:20:18.550374  5973 net.cpp:129] Top shape: 1 3840 2 1 (7680)
I0126 23:20:18.550379  5973 net.cpp:137] Memory required for data: 27513056
I0126 23:20:18.550385  5973 layer_factory.hpp:77] Creating layer maxout
I0126 23:20:18.550393  5973 net.cpp:84] Creating Layer maxout
I0126 23:20:18.550400  5973 net.cpp:406] maxout <- premax
I0126 23:20:18.550405  5973 net.cpp:380] maxout -> maxout
I0126 23:20:18.550462  5973 net.cpp:122] Setting up maxout
I0126 23:20:18.550469  5973 net.cpp:129] Top shape: 1 3840 1 1 (3840)
I0126 23:20:18.550473  5973 net.cpp:137] Memory required for data: 27528416
I0126 23:20:18.550477  5973 layer_factory.hpp:77] Creating layer fc6
I0126 23:20:18.550485  5973 net.cpp:84] Creating Layer fc6
I0126 23:20:18.550489  5973 net.cpp:406] fc6 <- maxout
I0126 23:20:18.550496  5973 net.cpp:380] fc6 -> fc6
I0126 23:20:26.385483  5973 net.cpp:122] Setting up fc6
I0126 23:20:26.385519  5973 net.cpp:129] Top shape: 1 4096 (4096)
I0126 23:20:26.385529  5973 net.cpp:137] Memory required for data: 27544800
I0126 23:20:26.385540  5973 layer_factory.hpp:77] Creating layer relu6
I0126 23:20:26.385551  5973 net.cpp:84] Creating Layer relu6
I0126 23:20:26.385557  5973 net.cpp:406] relu6 <- fc6
I0126 23:20:26.385566  5973 net.cpp:367] relu6 -> fc6 (in-place)
I0126 23:20:26.385851  5973 net.cpp:122] Setting up relu6
I0126 23:20:26.385862  5973 net.cpp:129] Top shape: 1 4096 (4096)
I0126 23:20:26.385866  5973 net.cpp:137] Memory required for data: 27561184
I0126 23:20:26.385870  5973 layer_factory.hpp:77] Creating layer fc7
I0126 23:20:26.385879  5973 net.cpp:84] Creating Layer fc7
I0126 23:20:26.385884  5973 net.cpp:406] fc7 <- fc6
I0126 23:20:26.385891  5973 net.cpp:380] fc7 -> fc7
I0126 23:20:37.292479  5973 net.cpp:122] Setting up fc7
I0126 23:20:37.292531  5973 net.cpp:129] Top shape: 1 4096 (4096)
I0126 23:20:37.292541  5973 net.cpp:137] Memory required for data: 27577568
I0126 23:20:37.292557  5973 layer_factory.hpp:77] Creating layer relu7
I0126 23:20:37.292574  5973 net.cpp:84] Creating Layer relu7
I0126 23:20:37.292583  5973 net.cpp:406] relu7 <- fc7
I0126 23:20:37.292594  5973 net.cpp:367] relu7 -> fc7 (in-place)
I0126 23:20:37.293757  5973 net.cpp:122] Setting up relu7
I0126 23:20:37.293793  5973 net.cpp:129] Top shape: 1 4096 (4096)
I0126 23:20:37.293803  5973 net.cpp:137] Memory required for data: 27593952
I0126 23:20:37.293813  5973 layer_factory.hpp:77] Creating layer fc8
I0126 23:20:37.293839  5973 net.cpp:84] Creating Layer fc8
I0126 23:20:37.293848  5973 net.cpp:406] fc8 <- fc7
I0126 23:20:37.293861  5973 net.cpp:380] fc8 -> fc8
I0126 23:20:39.333724  5973 net.cpp:122] Setting up fc8
I0126 23:20:39.333766  5973 net.cpp:129] Top shape: 1 618 (618)
I0126 23:20:39.333773  5973 net.cpp:137] Memory required for data: 27596424
I0126 23:20:39.333791  5973 layer_factory.hpp:77] Creating layer fc8_fc8_0_split
I0126 23:20:39.333802  5973 net.cpp:84] Creating Layer fc8_fc8_0_split
I0126 23:20:39.333808  5973 net.cpp:406] fc8_fc8_0_split <- fc8
I0126 23:20:39.333818  5973 net.cpp:380] fc8_fc8_0_split -> fc8_fc8_0_split_0
I0126 23:20:39.333828  5973 net.cpp:380] fc8_fc8_0_split -> fc8_fc8_0_split_1
I0126 23:20:39.333894  5973 net.cpp:122] Setting up fc8_fc8_0_split
I0126 23:20:39.333902  5973 net.cpp:129] Top shape: 1 618 (618)
I0126 23:20:39.333907  5973 net.cpp:129] Top shape: 1 618 (618)
I0126 23:20:39.333910  5973 net.cpp:137] Memory required for data: 27601368
I0126 23:20:39.333914  5973 layer_factory.hpp:77] Creating layer sigmoid
I0126 23:20:39.333925  5973 net.cpp:84] Creating Layer sigmoid
I0126 23:20:39.333928  5973 net.cpp:406] sigmoid <- fc8_fc8_0_split_0
I0126 23:20:39.333935  5973 net.cpp:380] sigmoid -> sigmoid
I0126 23:20:39.334818  5973 net.cpp:122] Setting up sigmoid
I0126 23:20:39.334836  5973 net.cpp:129] Top shape: 1 618 (618)
I0126 23:20:39.334841  5973 net.cpp:137] Memory required for data: 27603840
I0126 23:20:39.334846  5973 layer_factory.hpp:77] Creating layer silence
I0126 23:20:39.334854  5973 net.cpp:84] Creating Layer silence
I0126 23:20:39.334859  5973 net.cpp:406] silence <- sigmoid
I0126 23:20:39.334866  5973 net.cpp:122] Setting up silence
I0126 23:20:39.334868  5973 net.cpp:137] Memory required for data: 27603840
…
