…
  phase: TRAIN
}
layer {
  name: "word_images"
  type: "Data"
  top: "word_images"
  top: "label"
  transform_param {
    scale: -0.0039215689
    mean_value: 255
  }
  data_param {
    source: "/data/fwolf/iam_50000/iam-db_nti500000_pul2-3-4-5_train_word_images_lmdb"
    batch_size: 1
    backend: LMDB
    prefetch: 20
  }
}
layer {
  name: "phocs"
  type: "Data"
  top: "phocs"
  top: "label_phocs"
  data_param {
    source: "/data/fwolf/iam_50000/iam-db_nti500000_pul2-3-4-5_train_phocs_lmdb"
    batch_size: 1
    backend: LMDB
    prefetch: 20
  }
}
layer {
  name: "conv1_1"
  type: "Convolution"
  bottom: "word_images"
  top: "conv1_1"
  convolution_param {
    num_output: 64
    pad: 1
    kernel_size: 3
    stride: 1
    weight_filler {
      type: "msra"
    }
    bias_filler {
      type: "constant"
    }
    engine: CUDNN
  }
}
layer {
  name: "relu1_1"
  type: "ReLU"
  bottom: "conv1_1"
  top: "conv1_1"
}
layer {
  name: "conv1_2"
  type: "Convolution"
  bottom: "conv1_1"
  top: "conv1_2"
  convolution_param {
    num_output: 64
    pad: 1
    kernel_size: 3
    stride: 1
    weight_filler {
      type: "msra"
    }
    bias_filler {
      type: "constant"
    }
    engine: CUDNN
  }
}
layer {
  name: "relu1_2"
  type: "ReLU"
  bottom: "conv1_2"
  top: "conv1_2"
}
layer {
  name: "pool1"
  type: "Pooling"
  bottom: "conv1_2"
  top: "pool1"
  pooling_param {
    pool: MAX
    kernel_size: 2
    stride: 2
  }
}
layer {
  name: "conv2_1"
  type: "Convolution"
  bottom: "pool1"
  top: "conv2_1"
  convolution_param {
    num_output: 128
    pad: 1
    kernel_size: 3
    stride: 1
    weight_filler {
      type: "msra"
    }
    bias_filler {
      type: "constant"
    }
    engine: CUDNN
  }
}
layer {
  name: "relu2_1"
  type: "ReLU"
  bottom: "conv2_1"
  top: "conv2_1"
}
layer {
  name: "conv2_2"
  type: "Convolution"
  bottom: "conv2_1"
  top: "conv2_2"
  convolution_param {
    num_output: 128
    pad: 1
    kernel_size: 3
    stride: 1
    weight_filler {
      type: "msra"
    }
    bias_filler {
      type: "constant"
    }
    engine: CUDNN
  }
}
layer {
  name: "relu2_2"
  type: "ReLU"
  bottom: "conv2_2"
  top: "conv2_2"
}
layer {
  name: "pool2"
  type: "Pooling"
  bottom: "conv2_2"
  top: "pool2"
  pooling_param {
    pool: MAX
    kernel_size: 2
    stride: 2
  }
}
layer {
  name: "conv3_1"
  type: "Convolution"
  bottom: "pool2"
  top: "conv3_1"
  convolution_param {
    num_output: 256
    pad: 1
    kernel_size: 3
    stride: 1
    weight_filler {
      type: "msra"
    }
    bias_filler {
      type: "constant"
    }
    engine: CUDNN
  }
}
layer {
  name: "relu3_1"
  type: "ReLU"
  bottom: "conv3_1"
  top: "conv3_1"
}
layer {
  name: "conv3_2"
  type: "Convolution"
  bottom: "conv3_1"
  top: "conv3_2"
  convolution_param {
    num_output: 256
    pad: 1
    kernel_size: 3
    stride: 1
    weight_filler {
      type: "msra"
    }
    bias_filler {
      type: "constant"
    }
    engine: CUDNN
  }
}
layer {
  name: "relu3_2"
  type: "ReLU"
  bottom: "conv3_2"
  top: "conv3_2"
}
layer {
  name: "conv3_3"
  type: "Convolution"
  bottom: "conv3_2"
  top: "conv3_3"
  convolution_param {
    num_output: 256
    pad: 1
    kernel_size: 3
    stride: 1
    weight_filler {
      type: "msra"
    }
    bias_filler {
      type: "constant"
    }
    engine: CUDNN
  }
}
layer {
  name: "relu3_3"
  type: "ReLU"
  bottom: "conv3_3"
  top: "conv3_3"
}
layer {
  name: "conv3_4"
  type: "Convolution"
  bottom: "conv3_3"
  top: "conv3_4"
  convolution_param {
    num_output: 256
    pad: 1
    kernel_size: 3
    stride: 1
    weight_filler {
      type: "msra"
    }
    bias_filler {
      type: "constant"
    }
    engine: CUDNN
  }
}
layer {
  name: "relu3_4"
  type: "ReLU"
  bottom: "conv3_4"
  top: "conv3_4"
}
layer {
  name: "conv3_5"
  type: "Convolution"
  bottom: "conv3_4"
  top: "conv3_5"
  convolution_param {
    num_output: 256
    pad: 1
    kernel_size: 3
    stride: 1
    weight_filler {
      type: "msra"
    }
    bias_filler {
      type: "constant"
    }
    engine: CUDNN
  }
}
layer {
  name: "relu3_5"
  type: "ReLU"
  bottom: "conv3_5"
  top: "conv3_5"
}
layer {
  name: "conv3_6"
  type: "Convolution"
  bottom: "conv3_5"
  top: "conv3_6"
  convolution_param {
    num_output: 256
    pad: 1
    kernel_size: 3
    stride: 1
    weight_filler {
      type: "msra"
    }
    bias_filler {
      type: "constant"
    }
    engine: CUDNN
  }
}
layer {
  name: "relu3_6"
  type: "ReLU"
  bottom: "conv3_6"
  top: "conv3_6"
}
layer {
  name: "conv4_1"
  type: "Convolution"
  bottom: "conv3_6"
  top: "conv4_1"
  convolution_param {
    num_output: 512
    pad: 1
    kernel_size: 3
    stride: 1
    weight_filler {
      type: "msra"
    }
    bias_filler {
      type: "constant"
    }
    engine: CUDNN
  }
}
layer {
  name: "relu4_1"
  type: "ReLU"
  bottom: "conv4_1"
  top: "conv4_1"
}
layer {
  name: "conv4_2"
  type: "Convolution"
  bottom: "conv4_1"
  top: "conv4_2"
  convolution_param {
    num_output: 512
    pad: 1
    kernel_size: 3
    stride: 1
    weight_filler {
      type: "msra"
    }
    bias_filler {
      type: "constant"
    }
    engine: CUDNN
  }
}
layer {
  name: "relu4_2"
  type: "ReLU"
  bottom: "conv4_2"
  top: "conv4_2"
}
layer {
  name: "conv4_3"
  type: "Convolution"
  bottom: "conv4_2"
  top: "conv4_3"
  convolution_param {
    num_output: 512
    pad: 1
    kernel_size: 3
    stride: 1
    weight_filler {
      type: "msra"
    }
    bias_filler {
      type: "constant"
    }
    engine: CUDNN
  }
}
layer {
  name: "relu4_3"
  type: "ReLU"
  bottom: "conv4_3"
  top: "conv4_3"
}
layer {
  name: "tpp5"
  type: "TPP"
  bottom: "conv4_3"
  top: "tpp5"
  tpp_param {
    pyramid_layer: 1
    pyramid_layer: 2
    pyramid_layer: 3
    pyramid_layer: 4
    pyramid_layer: 5
    pool: MAX
    engine: CUDNN
  }
}
layer {
  name: "reshape"
  type: "Reshape"
  bottom: "tpp5"
  top: "reshape"
  reshape_param {
    shape {
      dim: 1
      dim: 960
      dim: 8
      dim: 1
    }
  }
}
layer {
  name: "premax"
  type: "Scale"
  bottom: "reshape"
  top: "premax"
  param {
    lr_mult: 0
    decay_mult: 0
  }
  scale_param {
    num_axes: 3
    filler {
      value: 1
    }
    bias_term: false
    bias_filler {
      value: 0
    }
  }
}
layer {
  name: "maxout"
  type: "Pooling"
  bottom: "premax"
  top: "maxout"
  pooling_param {
    pool: MAX
    global_pooling: true
  }
}
layer {
  name: "fc6"
  type: "InnerProduct"
  bottom: "maxout"
  top: "fc6"
  inner_product_param {
    num_output: 4096
    weight_filler {
      type: "msra"
    }
    bias_filler {
      type: "constant"
    }
  }
}
layer {
  name: "relu6"
  type: "ReLU"
  bottom: "fc6"
  top: "fc6"
}
layer {
  name: "drop6"
  type: "Dropout"
  bottom: "fc6"
  top: "fc6"
  include {
    phase: TRAIN
  }
  dropout_param {
    dropout_ratio: 0.5
  }
}
layer {
  name: "fc7"
  type: "InnerProduct"
  bottom: "fc6"
  top: "fc7"
  inner_product_param {
    num_output: 4096
    weight_filler {
      type: "msra"
    }
    bias_filler {
      type: "constant"
    }
  }
}
layer {
  name: "relu7"
  type: "ReLU"
  bottom: "fc7"
  top: "fc7"
}
layer {
  name: "drop7"
  type: "Dropout"
  bottom: "fc7"
  top: "fc7"
  include {
    phase: TRAIN
  }
  dropout_param {
    dropout_ratio: 0.5
  }
}
layer {
  name: "fc8"
  type: "InnerProduct"
  bottom: "fc7"
  top: "fc8"
  inner_product_param {
    num_output: 618
    weight_filler {
      type: "msra"
    }
    bias_filler {
      type: "constant"
    }
  }
}
layer {
  name: "loss"
  type: "SigmoidCrossEntropyLoss"
  bottom: "fc8"
  bottom: "phocs"
  top: "loss"
}
I0131 02:36:05.735503 30489 layer_factory.hpp:77] Creating layer word_images
I0131 02:36:05.735599 30489 db_lmdb.cpp:35] Opened lmdb /data/fwolf/iam_50000/iam-db_nti500000_pul2-3-4-5_train_word_images_lmdb
I0131 02:36:05.735642 30489 net.cpp:84] Creating Layer word_images
I0131 02:36:05.735651 30489 net.cpp:380] word_images -> word_images
I0131 02:36:05.735666 30489 net.cpp:380] word_images -> label
I0131 02:36:05.818244 30489 data_layer.cpp:44] output data size: 1,1,79,231
I0131 02:36:06.013105 30489 net.cpp:122] Setting up word_images
I0131 02:36:06.013141 30489 net.cpp:129] Top shape: 1 1 79 231 (18249)
I0131 02:36:06.013149 30489 net.cpp:129] Top shape: 1 (1)
I0131 02:36:06.013152 30489 net.cpp:137] Memory required for data: 73000
I0131 02:36:06.013159 30489 layer_factory.hpp:77] Creating layer phocs
I0131 02:36:06.013233 30489 db_lmdb.cpp:35] Opened lmdb /data/fwolf/iam_50000/iam-db_nti500000_pul2-3-4-5_train_phocs_lmdb
I0131 02:36:06.013270 30489 net.cpp:84] Creating Layer phocs
I0131 02:36:06.013279 30489 net.cpp:380] phocs -> phocs
I0131 02:36:06.013291 30489 net.cpp:380] phocs -> label_phocs
I0131 02:36:06.013550 30489 data_layer.cpp:44] output data size: 1,1,1,618
I0131 02:36:06.136476 30489 net.cpp:122] Setting up phocs
I0131 02:36:06.136518 30489 net.cpp:129] Top shape: 1 1 1 618 (618)
I0131 02:36:06.136524 30489 net.cpp:129] Top shape: 1 (1)
I0131 02:36:06.136528 30489 net.cpp:137] Memory required for data: 75476
I0131 02:36:06.136536 30489 layer_factory.hpp:77] Creating layer conv1_1
I0131 02:36:06.137004 30489 net.cpp:84] Creating Layer conv1_1
I0131 02:36:06.137012 30489 net.cpp:406] conv1_1 <- word_images
I0131 02:36:06.137347 30489 net.cpp:380] conv1_1 -> conv1_1
I0131 02:36:10.415974 30489 net.cpp:122] Setting up conv1_1
I0131 02:36:10.416018 30489 net.cpp:129] Top shape: 1 64 79 231 (1167936)
I0131 02:36:10.416023 30489 net.cpp:137] Memory required for data: 4747220
I0131 02:36:10.416043 30489 layer_factory.hpp:77] Creating layer relu1_1
I0131 02:36:10.416055 30489 net.cpp:84] Creating Layer relu1_1
I0131 02:36:10.416061 30489 net.cpp:406] relu1_1 <- conv1_1
I0131 02:36:10.416069 30489 net.cpp:367] relu1_1 -> conv1_1 (in-place)
I0131 02:36:10.416347 30489 net.cpp:122] Setting up relu1_1
I0131 02:36:10.416357 30489 net.cpp:129] Top shape: 1 64 79 231 (1167936)
I0131 02:36:10.416362 30489 net.cpp:137] Memory required for data: 9418964
I0131 02:36:10.416365 30489 layer_factory.hpp:77] Creating layer conv1_2
I0131 02:36:10.416381 30489 net.cpp:84] Creating Layer conv1_2
I0131 02:36:10.416386 30489 net.cpp:406] conv1_2 <- conv1_1
I0131 02:36:10.416393 30489 net.cpp:380] conv1_2 -> conv1_2
I0131 02:36:10.444344 30489 net.cpp:122] Setting up conv1_2
I0131 02:36:10.444381 30489 net.cpp:129] Top shape: 1 64 79 231 (1167936)
I0131 02:36:10.444387 30489 net.cpp:137] Memory required for data: 14090708
I0131 02:36:10.444403 30489 layer_factory.hpp:77] Creating layer relu1_2
I0131 02:36:10.444417 30489 net.cpp:84] Creating Layer relu1_2
I0131 02:36:10.444422 30489 net.cpp:406] relu1_2 <- conv1_2
I0131 02:36:10.444432 30489 net.cpp:367] relu1_2 -> conv1_2 (in-place)
I0131 02:36:10.444852 30489 net.cpp:122] Setting up relu1_2
I0131 02:36:10.444866 30489 net.cpp:129] Top shape: 1 64 79 231 (1167936)
I0131 02:36:10.444878 30489 net.cpp:137] Memory required for data: 18762452
I0131 02:36:10.444883 30489 layer_factory.hpp:77] Creating layer pool1
I0131 02:36:10.444892 30489 net.cpp:84] Creating Layer pool1
I0131 02:36:10.444896 30489 net.cpp:406] pool1 <- conv1_2
I0131 02:36:10.444903 30489 net.cpp:380] pool1 -> pool1
I0131 02:36:10.444957 30489 net.cpp:122] Setting up pool1
I0131 02:36:10.444965 30489 net.cpp:129] Top shape: 1 64 40 116 (296960)
I0131 02:36:10.444969 30489 net.cpp:137] Memory required for data: 19950292
I0131 02:36:10.444973 30489 layer_factory.hpp:77] Creating layer conv2_1
I0131 02:36:10.444986 30489 net.cpp:84] Creating Layer conv2_1
I0131 02:36:10.444990 30489 net.cpp:406] conv2_1 <- pool1
I0131 02:36:10.444998 30489 net.cpp:380] conv2_1 -> conv2_1
I0131 02:36:10.461009 30489 net.cpp:122] Setting up conv2_1
I0131 02:36:10.461046 30489 net.cpp:129] Top shape: 1 128 40 116 (593920)
I0131 02:36:10.461051 30489 net.cpp:137] Memory required for data: 22325972
I0131 02:36:10.461068 30489 layer_factory.hpp:77] Creating layer relu2_1
I0131 02:36:10.461083 30489 net.cpp:84] Creating Layer relu2_1
I0131 02:36:10.461088 30489 net.cpp:406] relu2_1 <- conv2_1
I0131 02:36:10.461097 30489 net.cpp:367] relu2_1 -> conv2_1 (in-place)
I0131 02:36:10.461519 30489 net.cpp:122] Setting up relu2_1
I0131 02:36:10.461534 30489 net.cpp:129] Top shape: 1 128 40 116 (593920)
I0131 02:36:10.461537 30489 net.cpp:137] Memory required for data: 24701652
I0131 02:36:10.461542 30489 layer_factory.hpp:77] Creating layer conv2_2
I0131 02:36:10.461556 30489 net.cpp:84] Creating Layer conv2_2
I0131 02:36:10.461561 30489 net.cpp:406] conv2_2 <- conv2_1
I0131 02:36:10.461568 30489 net.cpp:380] conv2_2 -> conv2_2
I0131 02:36:10.529618 30489 net.cpp:122] Setting up conv2_2
I0131 02:36:10.529654 30489 net.cpp:129] Top shape: 1 128 40 116 (593920)
I0131 02:36:10.529659 30489 net.cpp:137] Memory required for data: 27077332
I0131 02:36:10.529673 30489 layer_factory.hpp:77] Creating layer relu2_2
I0131 02:36:10.529685 30489 net.cpp:84] Creating Layer relu2_2
I0131 02:36:10.529691 30489 net.cpp:406] relu2_2 <- conv2_2
I0131 02:36:10.529700 30489 net.cpp:367] relu2_2 -> conv2_2 (in-place)
I0131 02:36:10.530469 30489 net.cpp:122] Setting up relu2_2
I0131 02:36:10.530480 30489 net.cpp:129] Top shape: 1 128 40 116 (593920)
I0131 02:36:10.530484 30489 net.cpp:137] Memory required for data: 29453012
I0131 02:36:10.530489 30489 layer_factory.hpp:77] Creating layer pool2
I0131 02:36:10.530496 30489 net.cpp:84] Creating Layer pool2
I0131 02:36:10.530501 30489 net.cpp:406] pool2 <- conv2_2
I0131 02:36:10.530508 30489 net.cpp:380] pool2 -> pool2
I0131 02:36:10.530558 30489 net.cpp:122] Setting up pool2
I0131 02:36:10.530566 30489 net.cpp:129] Top shape: 1 128 20 58 (148480)
I0131 02:36:10.530570 30489 net.cpp:137] Memory required for data: 30046932
I0131 02:36:10.530575 30489 layer_factory.hpp:77] Creating layer conv3_1
I0131 02:36:10.530587 30489 net.cpp:84] Creating Layer conv3_1
I0131 02:36:10.530592 30489 net.cpp:406] conv3_1 <- pool2
I0131 02:36:10.530598 30489 net.cpp:380] conv3_1 -> conv3_1
I0131 02:36:10.623517 30489 net.cpp:122] Setting up conv3_1
I0131 02:36:10.623551 30489 net.cpp:129] Top shape: 1 256 20 58 (296960)
I0131 02:36:10.623558 30489 net.cpp:137] Memory required for data: 31234772
I0131 02:36:10.623574 30489 layer_factory.hpp:77] Creating layer relu3_1
I0131 02:36:10.623587 30489 net.cpp:84] Creating Layer relu3_1
I0131 02:36:10.623592 30489 net.cpp:406] relu3_1 <- conv3_1
I0131 02:36:10.623600 30489 net.cpp:367] relu3_1 -> conv3_1 (in-place)
I0131 02:36:10.624042 30489 net.cpp:122] Setting up relu3_1
I0131 02:36:10.624054 30489 net.cpp:129] Top shape: 1 256 20 58 (296960)
I0131 02:36:10.624058 30489 net.cpp:137] Memory required for data: 32422612
I0131 02:36:10.624063 30489 layer_factory.hpp:77] Creating layer conv3_2
I0131 02:36:10.624078 30489 net.cpp:84] Creating Layer conv3_2
I0131 02:36:10.624083 30489 net.cpp:406] conv3_2 <- conv3_1
I0131 02:36:10.624089 30489 net.cpp:380] conv3_2 -> conv3_2
I0131 02:36:10.754585 30489 net.cpp:122] Setting up conv3_2
I0131 02:36:10.754623 30489 net.cpp:129] Top shape: 1 256 20 58 (296960)
I0131 02:36:10.754628 30489 net.cpp:137] Memory required for data: 33610452
I0131 02:36:10.754642 30489 layer_factory.hpp:77] Creating layer relu3_2
I0131 02:36:10.754655 30489 net.cpp:84] Creating Layer relu3_2
I0131 02:36:10.754662 30489 net.cpp:406] relu3_2 <- conv3_2
I0131 02:36:10.754670 30489 net.cpp:367] relu3_2 -> conv3_2 (in-place)
I0131 02:36:10.754902 30489 net.cpp:122] Setting up relu3_2
I0131 02:36:10.754915 30489 net.cpp:129] Top shape: 1 256 20 58 (296960)
I0131 02:36:10.754920 30489 net.cpp:137] Memory required for data: 34798292
I0131 02:36:10.754925 30489 layer_factory.hpp:77] Creating layer conv3_3
I0131 02:36:10.754940 30489 net.cpp:84] Creating Layer conv3_3
I0131 02:36:10.754945 30489 net.cpp:406] conv3_3 <- conv3_2
I0131 02:36:10.754951 30489 net.cpp:380] conv3_3 -> conv3_3
I0131 02:36:11.045202 30489 net.cpp:122] Setting up conv3_3
I0131 02:36:11.045243 30489 net.cpp:129] Top shape: 1 256 20 58 (296960)
I0131 02:36:11.045248 30489 net.cpp:137] Memory required for data: 35986132
I0131 02:36:11.045260 30489 layer_factory.hpp:77] Creating layer relu3_3
I0131 02:36:11.045274 30489 net.cpp:84] Creating Layer relu3_3
I0131 02:36:11.045279 30489 net.cpp:406] relu3_3 <- conv3_3
I0131 02:36:11.045286 30489 net.cpp:367] relu3_3 -> conv3_3 (in-place)
I0131 02:36:11.045692 30489 net.cpp:122] Setting up relu3_3
I0131 02:36:11.045706 30489 net.cpp:129] Top shape: 1 256 20 58 (296960)
I0131 02:36:11.045711 30489 net.cpp:137] Memory required for data: 37173972
I0131 02:36:11.045716 30489 layer_factory.hpp:77] Creating layer conv3_4
I0131 02:36:11.045729 30489 net.cpp:84] Creating Layer conv3_4
I0131 02:36:11.045734 30489 net.cpp:406] conv3_4 <- conv3_3
I0131 02:36:11.045742 30489 net.cpp:380] conv3_4 -> conv3_4
I0131 02:36:11.304667 30489 net.cpp:122] Setting up conv3_4
I0131 02:36:11.304707 30489 net.cpp:129] Top shape: 1 256 20 58 (296960)
I0131 02:36:11.304711 30489 net.cpp:137] Memory required for data: 38361812
I0131 02:36:11.304723 30489 layer_factory.hpp:77] Creating layer relu3_4
I0131 02:36:11.304738 30489 net.cpp:84] Creating Layer relu3_4
I0131 02:36:11.304744 30489 net.cpp:406] relu3_4 <- conv3_4
I0131 02:36:11.304751 30489 net.cpp:367] relu3_4 -> conv3_4 (in-place)
I0131 02:36:11.305188 30489 net.cpp:122] Setting up relu3_4
I0131 02:36:11.305202 30489 net.cpp:129] Top shape: 1 256 20 58 (296960)
I0131 02:36:11.305207 30489 net.cpp:137] Memory required for data: 39549652
I0131 02:36:11.305212 30489 layer_factory.hpp:77] Creating layer conv3_5
I0131 02:36:11.305227 30489 net.cpp:84] Creating Layer conv3_5
I0131 02:36:11.305233 30489 net.cpp:406] conv3_5 <- conv3_4
I0131 02:36:11.305241 30489 net.cpp:380] conv3_5 -> conv3_5
I0131 02:36:11.780776 30489 net.cpp:122] Setting up conv3_5
I0131 02:36:11.780817 30489 net.cpp:129] Top shape: 1 256 20 58 (296960)
I0131 02:36:11.780822 30489 net.cpp:137] Memory required for data: 40737492
I0131 02:36:11.780839 30489 layer_factory.hpp:77] Creating layer relu3_5
I0131 02:36:11.780853 30489 net.cpp:84] Creating Layer relu3_5
I0131 02:36:11.780859 30489 net.cpp:406] relu3_5 <- conv3_5
I0131 02:36:11.780869 30489 net.cpp:367] relu3_5 -> conv3_5 (in-place)
I0131 02:36:11.781118 30489 net.cpp:122] Setting up relu3_5
I0131 02:36:11.781131 30489 net.cpp:129] Top shape: 1 256 20 58 (296960)
I0131 02:36:11.781134 30489 net.cpp:137] Memory required for data: 41925332
I0131 02:36:11.781139 30489 layer_factory.hpp:77] Creating layer conv3_6
I0131 02:36:11.781154 30489 net.cpp:84] Creating Layer conv3_6
I0131 02:36:11.781159 30489 net.cpp:406] conv3_6 <- conv3_5
I0131 02:36:11.781167 30489 net.cpp:380] conv3_6 -> conv3_6
I0131 02:36:12.071727 30489 net.cpp:122] Setting up conv3_6
I0131 02:36:12.139866 30489 net.cpp:129] Top shape: 1 256 20 58 (296960)
I0131 02:36:12.139884 30489 net.cpp:137] Memory required for data: 43113172
I0131 02:36:12.139899 30489 layer_factory.hpp:77] Creating layer relu3_6
I0131 02:36:12.139911 30489 net.cpp:84] Creating Layer relu3_6
I0131 02:36:12.139926 30489 net.cpp:406] relu3_6 <- conv3_6
I0131 02:36:12.139940 30489 net.cpp:367] relu3_6 -> conv3_6 (in-place)
I0131 02:36:12.140558 30489 net.cpp:122] Setting up relu3_6
I0131 02:36:12.140570 30489 net.cpp:129] Top shape: 1 256 20 58 (296960)
I0131 02:36:12.140574 30489 net.cpp:137] Memory required for data: 44301012
I0131 02:36:12.140579 30489 layer_factory.hpp:77] Creating layer conv4_1
I0131 02:36:12.140594 30489 net.cpp:84] Creating Layer conv4_1
I0131 02:36:12.140599 30489 net.cpp:406] conv4_1 <- conv3_6
I0131 02:36:12.140606 30489 net.cpp:380] conv4_1 -> conv4_1
I0131 02:36:12.696030 30489 net.cpp:122] Setting up conv4_1
I0131 02:36:12.696074 30489 net.cpp:129] Top shape: 1 512 20 58 (593920)
I0131 02:36:12.696081 30489 net.cpp:137] Memory required for data: 46676692
I0131 02:36:12.696095 30489 layer_factory.hpp:77] Creating layer relu4_1
I0131 02:36:12.696110 30489 net.cpp:84] Creating Layer relu4_1
I0131 02:36:12.696116 30489 net.cpp:406] relu4_1 <- conv4_1
I0131 02:36:12.696127 30489 net.cpp:367] relu4_1 -> conv4_1 (in-place)
I0131 02:36:12.696475 30489 net.cpp:122] Setting up relu4_1
I0131 02:36:12.696488 30489 net.cpp:129] Top shape: 1 512 20 58 (593920)
I0131 02:36:12.696492 30489 net.cpp:137] Memory required for data: 49052372
I0131 02:36:12.696497 30489 layer_factory.hpp:77] Creating layer conv4_2
I0131 02:36:12.696514 30489 net.cpp:84] Creating Layer conv4_2
I0131 02:36:12.696519 30489 net.cpp:406] conv4_2 <- conv4_1
I0131 02:36:12.696529 30489 net.cpp:380] conv4_2 -> conv4_2
I0131 02:36:13.595739 30489 net.cpp:122] Setting up conv4_2
I0131 02:36:13.689359 30489 net.cpp:129] Top shape: 1 512 20 58 (593920)
I0131 02:36:13.689368 30489 net.cpp:137] Memory required for data: 51428052
I0131 02:36:13.689383 30489 layer_factory.hpp:77] Creating layer relu4_2
I0131 02:36:13.689402 30489 net.cpp:84] Creating Layer relu4_2
I0131 02:36:13.689409 30489 net.cpp:406] relu4_2 <- conv4_2
I0131 02:36:13.689417 30489 net.cpp:367] relu4_2 -> conv4_2 (in-place)
I0131 02:36:13.690062 30489 net.cpp:122] Setting up relu4_2
I0131 02:36:13.690074 30489 net.cpp:129] Top shape: 1 512 20 58 (593920)
I0131 02:36:13.690078 30489 net.cpp:137] Memory required for data: 53803732
I0131 02:36:13.690083 30489 layer_factory.hpp:77] Creating layer conv4_3
I0131 02:36:13.690099 30489 net.cpp:84] Creating Layer conv4_3
I0131 02:36:13.690104 30489 net.cpp:406] conv4_3 <- conv4_2
I0131 02:36:13.690111 30489 net.cpp:380] conv4_3 -> conv4_3
I0131 02:36:14.550853 30489 net.cpp:122] Setting up conv4_3
I0131 02:36:14.550890 30489 net.cpp:129] Top shape: 1 512 20 58 (593920)
I0131 02:36:14.550895 30489 net.cpp:137] Memory required for data: 56179412
I0131 02:36:14.550906 30489 layer_factory.hpp:77] Creating layer relu4_3
I0131 02:36:14.550918 30489 net.cpp:84] Creating Layer relu4_3
I0131 02:36:14.550925 30489 net.cpp:406] relu4_3 <- conv4_3
I0131 02:36:14.550931 30489 net.cpp:367] relu4_3 -> conv4_3 (in-place)
I0131 02:36:14.551393 30489 net.cpp:122] Setting up relu4_3
I0131 02:36:14.551406 30489 net.cpp:129] Top shape: 1 512 20 58 (593920)
I0131 02:36:14.551411 30489 net.cpp:137] Memory required for data: 58555092
I0131 02:36:14.551416 30489 layer_factory.hpp:77] Creating layer tpp5
I0131 02:36:14.551424 30489 net.cpp:84] Creating Layer tpp5
I0131 02:36:14.551429 30489 net.cpp:406] tpp5 <- conv4_3
I0131 02:36:14.551439 30489 net.cpp:380] tpp5 -> tpp5
I0131 02:36:14.560173 30489 net.cpp:122] Setting up tpp5
I0131 02:36:14.560209 30489 net.cpp:129] Top shape: 1 7680 (7680)
I0131 02:36:14.560214 30489 net.cpp:137] Memory required for data: 58585812
I0131 02:36:14.560220 30489 layer_factory.hpp:77] Creating layer reshape
I0131 02:36:14.560231 30489 net.cpp:84] Creating Layer reshape
I0131 02:36:14.560236 30489 net.cpp:406] reshape <- tpp5
I0131 02:36:14.560245 30489 net.cpp:380] reshape -> reshape
I0131 02:36:14.560286 30489 net.cpp:122] Setting up reshape
I0131 02:36:14.560294 30489 net.cpp:129] Top shape: 1 960 8 1 (7680)
I0131 02:36:14.560297 30489 net.cpp:137] Memory required for data: 58616532
I0131 02:36:14.560300 30489 layer_factory.hpp:77] Creating layer premax
I0131 02:36:14.560318 30489 net.cpp:84] Creating Layer premax
I0131 02:36:14.560322 30489 net.cpp:406] premax <- reshape
I0131 02:36:14.560329 30489 net.cpp:380] premax -> premax
I0131 02:36:14.560478 30489 net.cpp:122] Setting up premax
I0131 02:36:14.560487 30489 net.cpp:129] Top shape: 1 960 8 1 (7680)
I0131 02:36:14.560490 30489 net.cpp:137] Memory required for data: 58647252
I0131 02:36:14.560497 30489 layer_factory.hpp:77] Creating layer maxout
I0131 02:36:14.560506 30489 net.cpp:84] Creating Layer maxout
I0131 02:36:14.560510 30489 net.cpp:406] maxout <- premax
I0131 02:36:14.560516 30489 net.cpp:380] maxout -> maxout
I0131 02:36:14.560564 30489 net.cpp:122] Setting up maxout
I0131 02:36:14.560571 30489 net.cpp:129] Top shape: 1 960 1 1 (960)
I0131 02:36:14.560575 30489 net.cpp:137] Memory required for data: 58651092
I0131 02:36:14.560578 30489 layer_factory.hpp:77] Creating layer fc6
I0131 02:36:14.560590 30489 net.cpp:84] Creating Layer fc6
I0131 02:36:14.560595 30489 net.cpp:406] fc6 <- maxout
I0131 02:36:14.560601 30489 net.cpp:380] fc6 -> fc6
I0131 02:36:16.532842 30489 net.cpp:122] Setting up fc6
I0131 02:36:16.532879 30489 net.cpp:129] Top shape: 1 4096 (4096)
I0131 02:36:16.532884 30489 net.cpp:137] Memory required for data: 58667476
I0131 02:36:16.532896 30489 layer_factory.hpp:77] Creating layer relu6
I0131 02:36:16.532910 30489 net.cpp:84] Creating Layer relu6
I0131 02:36:16.532915 30489 net.cpp:406] relu6 <- fc6
I0131 02:36:16.532923 30489 net.cpp:367] relu6 -> fc6 (in-place)
I0131 02:36:16.533212 30489 net.cpp:122] Setting up relu6
I0131 02:36:16.533223 30489 net.cpp:129] Top shape: 1 4096 (4096)
I0131 02:36:16.533227 30489 net.cpp:137] Memory required for data: 58683860
I0131 02:36:16.533231 30489 layer_factory.hpp:77] Creating layer drop6
I0131 02:36:16.533241 30489 net.cpp:84] Creating Layer drop6
I0131 02:36:16.533246 30489 net.cpp:406] drop6 <- fc6
I0131 02:36:16.533262 30489 net.cpp:367] drop6 -> fc6 (in-place)
I0131 02:36:16.533301 30489 net.cpp:122] Setting up drop6
I0131 02:36:16.533308 30489 net.cpp:129] Top shape: 1 4096 (4096)
I0131 02:36:16.533313 30489 net.cpp:137] Memory required for data: 58700244
I0131 02:36:16.533316 30489 layer_factory.hpp:77] Creating layer fc7
I0131 02:36:16.533325 30489 net.cpp:84] Creating Layer fc7
I0131 02:36:16.533329 30489 net.cpp:406] fc7 <- fc6
I0131 02:36:16.533336 30489 net.cpp:380] fc7 -> fc7
I0131 02:36:21.762048 30489 net.cpp:122] Setting up fc7
I0131 02:36:21.762082 30489 net.cpp:129] Top shape: 1 4096 (4096)
I0131 02:36:21.762087 30489 net.cpp:137] Memory required for data: 58716628
I0131 02:36:21.762099 30489 layer_factory.hpp:77] Creating layer relu7
I0131 02:36:21.762114 30489 net.cpp:84] Creating Layer relu7
I0131 02:36:21.762120 30489 net.cpp:406] relu7 <- fc7
I0131 02:36:21.762127 30489 net.cpp:367] relu7 -> fc7 (in-place)
I0131 02:36:21.762748 30489 net.cpp:122] Setting up relu7
I0131 02:36:21.762761 30489 net.cpp:129] Top shape: 1 4096 (4096)
I0131 02:36:21.762766 30489 net.cpp:137] Memory required for data: 58733012
I0131 02:36:21.762771 30489 layer_factory.hpp:77] Creating layer drop7
I0131 02:36:21.762780 30489 net.cpp:84] Creating Layer drop7
I0131 02:36:21.762785 30489 net.cpp:406] drop7 <- fc7
I0131 02:36:21.762794 30489 net.cpp:367] drop7 -> fc7 (in-place)
I0131 02:36:21.762832 30489 net.cpp:122] Setting up drop7
I0131 02:36:21.762841 30489 net.cpp:129] Top shape: 1 4096 (4096)
I0131 02:36:21.762845 30489 net.cpp:137] Memory required for data: 58749396
I0131 02:36:21.762850 30489 layer_factory.hpp:77] Creating layer fc8
I0131 02:36:21.762859 30489 net.cpp:84] Creating Layer fc8
I0131 02:36:21.762863 30489 net.cpp:406] fc8 <- fc7
I0131 02:36:21.762872 30489 net.cpp:380] fc8 -> fc8
I0131 02:36:22.239563 30489 net.cpp:122] Setting up fc8
I0131 02:36:22.239629 30489 net.cpp:129] Top shape: 1 618 (618)
I0131 02:36:22.239636 30489 net.cpp:137] Memory required for data: 58751868
I0131 02:36:22.239657 30489 layer_factory.hpp:77] Creating layer loss
I0131 02:36:22.239678 30489 net.cpp:84] Creating Layer loss
I0131 02:36:22.239697 30489 net.cpp:406] loss <- fc8
I0131 02:36:22.239707 30489 net.cpp:406] loss <- phocs
I0131 02:36:22.239717 30489 net.cpp:380] loss -> loss
I0131 02:36:22.239817 30489 net.cpp:122] Setting up loss
…
  phase: TEST
}
layer {
  name: "word_images"
  type: "Data"
  top: "word_images"
  top: "label"
  transform_param {
    scale: -0.0039215689
    mean_value: 255
  }
  data_param {
    source: "/data/fwolf/iam_50000/iam-db_nti500000_pul2-3-4-5_test_word_images_lmdb"
    batch_size: 1
    backend: LMDB
    prefetch: 20
  }
}
layer {
  name: "phocs"
  type: "Data"
  top: "phocs"
  top: "label_phocs"
  data_param {
    source: "/data/fwolf/iam_50000/iam-db_nti500000_pul2-3-4-5_test_phocs_lmdb"
    batch_size: 1
    backend: LMDB
    prefetch: 20
  }
}
layer {
  name: "conv1_1"
  type: "Convolution"
  bottom: "word_images"
  top: "conv1_1"
  convolution_param {
    num_output: 64
    pad: 1
    kernel_size: 3
    stride: 1
    weight_filler {
      type: "msra"
    }
    bias_filler {
      type: "constant"
    }
    engine: CUDNN
  }
}
layer {
  name: "relu1_1"
  type: "ReLU"
  bottom: "conv1_1"
  top: "conv1_1"
}
layer {
  name: "conv1_2"
  type: "Convolution"
  bottom: "conv1_1"
  top: "conv1_2"
  convolution_param {
    num_output: 64
    pad: 1
    kernel_size: 3
    stride: 1
    weight_filler {
      type: "msra"
    }
    bias_filler {
      type: "constant"
    }
    engine: CUDNN
  }
}
layer {
  name: "relu1_2"
  type: "ReLU"
  bottom: "conv1_2"
  top: "conv1_2"
}
layer {
  name: "pool1"
  type: "Pooling"
  bottom: "conv1_2"
  top: "pool1"
  pooling_param {
    pool: MAX
    kernel_size: 2
    stride: 2
  }
}
layer {
  name: "conv2_1"
  type: "Convolution"
  bottom: "pool1"
  top: "conv2_1"
  convolution_param {
    num_output: 128
    pad: 1
    kernel_size: 3
    stride: 1
    weight_filler {
      type: "msra"
    }
    bias_filler {
      type: "constant"
    }
    engine: CUDNN
  }
}
layer {
  name: "relu2_1"
  type: "ReLU"
  bottom: "conv2_1"
  top: "conv2_1"
}
layer {
  name: "conv2_2"
  type: "Convolution"
  bottom: "conv2_1"
  top: "conv2_2"
  convolution_param {
    num_output: 128
    pad: 1
    kernel_size: 3
    stride: 1
    weight_filler {
      type: "msra"
    }
    bias_filler {
      type: "constant"
    }
    engine: CUDNN
  }
}
layer {
  name: "relu2_2"
  type: "ReLU"
  bottom: "conv2_2"
  top: "conv2_2"
}
layer {
  name: "pool2"
  type: "Pooling"
  bottom: "conv2_2"
  top: "pool2"
  pooling_param {
    pool: MAX
    kernel_size: 2
    stride: 2
  }
}
layer {
  name: "conv3_1"
  type: "Convolution"
  bottom: "pool2"
  top: "conv3_1"
  convolution_param {
    num_output: 256
    pad: 1
    kernel_size: 3
    stride: 1
    weight_filler {
      type: "msra"
    }
    bias_filler {
      type: "constant"
    }
    engine: CUDNN
  }
}
layer {
  name: "relu3_1"
  type: "ReLU"
  bottom: "conv3_1"
  top: "conv3_1"
}
layer {
  name: "conv3_2"
  type: "Convolution"
  bottom: "conv3_1"
  top: "conv3_2"
  convolution_param {
    num_output: 256
    pad: 1
    kernel_size: 3
    stride: 1
    weight_filler {
      type: "msra"
    }
    bias_filler {
      type: "constant"
    }
    engine: CUDNN
  }
}
layer {
  name: "relu3_2"
  type: "ReLU"
  bottom: "conv3_2"
  top: "conv3_2"
}
layer {
  name: "conv3_3"
  type: "Convolution"
  bottom: "conv3_2"
  top: "conv3_3"
  convolution_param {
    num_output: 256
    pad: 1
    kernel_size: 3
    stride: 1
    weight_filler {
      type: "msra"
    }
    bias_filler {
      type: "constant"
    }
    engine: CUDNN
  }
}
layer {
  name: "relu3_3"
  type: "ReLU"
  bottom: "conv3_3"
  top: "conv3_3"
}
layer {
  name: "conv3_4"
  type: "Convolution"
  bottom: "conv3_3"
  top: "conv3_4"
  convolution_param {
    num_output: 256
    pad: 1
    kernel_size: 3
    stride: 1
    weight_filler {
      type: "msra"
    }
    bias_filler {
      type: "constant"
    }
    engine: CUDNN
  }
}
layer {
  name: "relu3_4"
  type: "ReLU"
  bottom: "conv3_4"
  top: "conv3_4"
}
layer {
  name: "conv3_5"
  type: "Convolution"
  bottom: "conv3_4"
  top: "conv3_5"
  convolution_param {
    num_output: 256
    pad: 1
    kernel_size: 3
    stride: 1
    weight_filler {
      type: "msra"
    }
    bias_filler {
      type: "constant"
    }
    engine: CUDNN
  }
}
layer {
  name: "relu3_5"
  type: "ReLU"
  bottom: "conv3_5"
  top: "conv3_5"
}
layer {
  name: "conv3_6"
  type: "Convolution"
  bottom: "conv3_5"
  top: "conv3_6"
  convolution_param {
    num_output: 256
    pad: 1
    kernel_size: 3
    stride: 1
    weight_filler {
      type: "msra"
    }
    bias_filler {
      type: "constant"
    }
    engine: CUDNN
  }
}
layer {
  name: "relu3_6"
  type: "ReLU"
  bottom: "conv3_6"
  top: "conv3_6"
}
layer {
  name: "conv4_1"
  type: "Convolution"
  bottom: "conv3_6"
  top: "conv4_1"
  convolution_param {
    num_output: 512
    pad: 1
    kernel_size: 3
    stride: 1
    weight_filler {
      type: "msra"
    }
    bias_filler {
      type: "constant"
    }
    engine: CUDNN
  }
}
layer {
  name: "relu4_1"
  type: "ReLU"
  bottom: "conv4_1"
  top: "conv4_1"
}
layer {
  name: "conv4_2"
  type: "Convolution"
  bottom: "conv4_1"
  top: "conv4_2"
  convolution_param {
    num_output: 512
    pad: 1
    kernel_size: 3
    stride: 1
    weight_filler {
      type: "msra"
    }
    bias_filler {
      type: "constant"
    }
    engine: CUDNN
  }
}
layer {
  name: "relu4_2"
  type: "ReLU"
  bottom: "conv4_2"
  top: "conv4_2"
}
layer {
  name: "conv4_3"
  type: "Convolution"
  bottom: "conv4_2"
  top: "conv4_3"
  convolution_param {
    num_output: 512
    pad: 1
    kernel_size: 3
    stride: 1
    weight_filler {
      type: "msra"
    }
    bias_filler {
      type: "constant"
    }
    engine: CUDNN
  }
}
layer {
  name: "relu4_3"
  type: "ReLU"
  bottom: "conv4_3"
  top: "conv4_3"
}
layer {
  name: "tpp5"
  type: "TPP"
  bottom: "conv4_3"
  top: "tpp5"
  tpp_param {
    pyramid_layer: 1
    pyramid_layer: 2
    pyramid_layer: 3
    pyramid_layer: 4
    pyramid_layer: 5
    pool: MAX
    engine: CUDNN
  }
}
layer {
  name: "reshape"
  type: "Reshape"
  bottom: "tpp5"
  top: "reshape"
  reshape_param {
    shape {
      dim: 1
      dim: 960
      dim: 8
      dim: 1
    }
  }
}
layer {
  name: "premax"
  type: "Scale"
  bottom: "reshape"
  top: "premax"
  param {
    lr_mult: 0
    decay_mult: 0
  }
  scale_param {
    num_axes: 3
    filler {
      value: 1
    }
    bias_term: false
    bias_filler {
      value: 0
    }
  }
}
layer {
  name: "maxout"
  type: "Pooling"
  bottom: "premax"
  top: "maxout"
  pooling_param {
    pool: MAX
    global_pooling: true
  }
}
layer {
  name: "fc6"
  type: "InnerProduct"
  bottom: "maxout"
  top: "fc6"
  inner_product_param {
    num_output: 4096
    weight_filler {
      type: "msra"
    }
    bias_filler {
      type: "constant"
    }
  }
}
layer {
  name: "relu6"
  type: "ReLU"
  bottom: "fc6"
  top: "fc6"
}
layer {
  name: "fc7"
  type: "InnerProduct"
  bottom: "fc6"
  top: "fc7"
  inner_product_param {
    num_output: 4096
    weight_filler {
      type: "msra"
    }
    bias_filler {
      type: "constant"
    }
  }
}
layer {
  name: "relu7"
  type: "ReLU"
  bottom: "fc7"
  top: "fc7"
}
layer {
  name: "fc8"
  type: "InnerProduct"
  bottom: "fc7"
  top: "fc8"
  inner_product_param {
    num_output: 618
    weight_filler {
      type: "msra"
    }
    bias_filler {
      type: "constant"
    }
  }
}
layer {
  name: "sigmoid"
  type: "Sigmoid"
  bottom: "fc8"
  top: "sigmoid"
  include {
    phase: TEST
  }
}
layer {
  name: "silence"
  type: "Silence"
  bottom: "sigmoid"
  include {
    phase: TEST
  }
}
layer {
  name: "loss"
  type: "SigmoidCrossEntropyLoss"
  bottom: "fc8"
  bottom: "phocs"
  top: "loss"
}
I0131 02:36:22.272634 30489 layer_factory.hpp:77] Creating layer word_images
I0131 02:36:22.272723 30489 db_lmdb.cpp:35] Opened lmdb /data/fwolf/iam_50000/iam-db_nti500000_pul2-3-4-5_test_word_images_lmdb
I0131 02:36:22.272759 30489 net.cpp:84] Creating Layer word_images
I0131 02:36:22.272768 30489 net.cpp:380] word_images -> word_images
I0131 02:36:22.272788 30489 net.cpp:380] word_images -> label
I0131 02:36:22.273260 30489 data_layer.cpp:44] output data size: 1,1,90,94
I0131 02:36:22.407855 30489 net.cpp:122] Setting up word_images
I0131 02:36:22.407896 30489 net.cpp:129] Top shape: 1 1 90 94 (8460)
I0131 02:36:22.407902 30489 net.cpp:129] Top shape: 1 (1)
I0131 02:36:22.407907 30489 net.cpp:137] Memory required for data: 33844
I0131 02:36:22.407914 30489 layer_factory.hpp:77] Creating layer phocs
I0131 02:36:22.408005 30489 db_lmdb.cpp:35] Opened lmdb /data/fwolf/iam_50000/iam-db_nti500000_pul2-3-4-5_test_phocs_lmdb
I0131 02:36:22.408036 30489 net.cpp:84] Creating Layer phocs
I0131 02:36:22.408046 30489 net.cpp:380] phocs -> phocs
I0131 02:36:22.408058 30489 net.cpp:380] phocs -> label_phocs
I0131 02:36:22.408499 30489 data_layer.cpp:44] output data size: 1,1,1,618
I0131 02:36:22.410722 30489 net.cpp:122] Setting up phocs
I0131 02:36:22.410758 30489 net.cpp:129] Top shape: 1 1 1 618 (618)
I0131 02:36:22.410764 30489 net.cpp:129] Top shape: 1 (1)
I0131 02:36:22.410768 30489 net.cpp:137] Memory required for data: 36320
I0131 02:36:22.410775 30489 layer_factory.hpp:77] Creating layer conv1_1
I0131 02:36:22.410799 30489 net.cpp:84] Creating Layer conv1_1
I0131 02:36:22.410805 30489 net.cpp:406] conv1_1 <- word_images
I0131 02:36:22.410815 30489 net.cpp:380] conv1_1 -> conv1_1
I0131 02:36:22.483120 30489 net.cpp:122] Setting up conv1_1
I0131 02:36:22.483160 30489 net.cpp:129] Top shape: 1 64 90 94 (541440)
I0131 02:36:22.483167 30489 net.cpp:137] Memory required for data: 2202080
I0131 02:36:22.483187 30489 layer_factory.hpp:77] Creating layer relu1_1
I0131 02:36:22.483203 30489 net.cpp:84] Creating Layer relu1_1
I0131 02:36:22.483208 30489 net.cpp:406] relu1_1 <- conv1_1
I0131 02:36:22.483217 30489 net.cpp:367] relu1_1 -> conv1_1 (in-place)
I0131 02:36:22.483867 30489 net.cpp:122] Setting up relu1_1
I0131 02:36:22.483883 30489 net.cpp:129] Top shape: 1 64 90 94 (541440)
I0131 02:36:22.483888 30489 net.cpp:137] Memory required for data: 4367840
I0131 02:36:22.483893 30489 layer_factory.hpp:77] Creating layer conv1_2
I0131 02:36:22.483913 30489 net.cpp:84] Creating Layer conv1_2
I0131 02:36:22.483922 30489 net.cpp:406] conv1_2 <- conv1_1
I0131 02:36:22.483938 30489 net.cpp:380] conv1_2 -> conv1_2
I0131 02:36:22.583612 30489 net.cpp:122] Setting up conv1_2
I0131 02:36:22.583647 30489 net.cpp:129] Top shape: 1 64 90 94 (541440)
I0131 02:36:22.583652 30489 net.cpp:137] Memory required for data: 6533600
I0131 02:36:22.583668 30489 layer_factory.hpp:77] Creating layer relu1_2
I0131 02:36:22.583683 30489 net.cpp:84] Creating Layer relu1_2
I0131 02:36:22.583688 30489 net.cpp:406] relu1_2 <- conv1_2
I0131 02:36:22.583695 30489 net.cpp:367] relu1_2 -> conv1_2 (in-place)
I0131 02:36:22.583945 30489 net.cpp:122] Setting up relu1_2
I0131 02:36:22.583957 30489 net.cpp:129] Top shape: 1 64 90 94 (541440)
I0131 02:36:22.583961 30489 net.cpp:137] Memory required for data: 8699360
I0131 02:36:22.583966 30489 layer_factory.hpp:77] Creating layer pool1
I0131 02:36:22.583973 30489 net.cpp:84] Creating Layer pool1
I0131 02:36:22.583977 30489 net.cpp:406] pool1 <- conv1_2
I0131 02:36:22.583986 30489 net.cpp:380] pool1 -> pool1
I0131 02:36:22.584046 30489 net.cpp:122] Setting up pool1
I0131 02:36:22.584054 30489 net.cpp:129] Top shape: 1 64 45 47 (135360)
I0131 02:36:22.584058 30489 net.cpp:137] Memory required for data: 9240800
I0131 02:36:22.584061 30489 layer_factory.hpp:77] Creating layer conv2_1
I0131 02:36:22.584077 30489 net.cpp:84] Creating Layer conv2_1
I0131 02:36:22.584082 30489 net.cpp:406] conv2_1 <- pool1
I0131 02:36:22.584089 30489 net.cpp:380] conv2_1 -> conv2_1
I0131 02:36:22.601491 30489 net.cpp:122] Setting up conv2_1
I0131 02:36:22.601522 30489 net.cpp:129] Top shape: 1 128 45 47 (270720)
I0131 02:36:22.601527 30489 net.cpp:137] Memory required for data: 10323680
I0131 02:36:22.601543 30489 layer_factory.hpp:77] Creating layer relu2_1
I0131 02:36:22.601557 30489 net.cpp:84] Creating Layer relu2_1
I0131 02:36:22.601562 30489 net.cpp:406] relu2_1 <- conv2_1
I0131 02:36:22.601577 30489 net.cpp:367] relu2_1 -> conv2_1 (in-place)
I0131 02:36:22.602018 30489 net.cpp:122] Setting up relu2_1
I0131 02:36:22.602031 30489 net.cpp:129] Top shape: 1 128 45 47 (270720)
I0131 02:36:22.602035 30489 net.cpp:137] Memory required for data: 11406560
I0131 02:36:22.602039 30489 layer_factory.hpp:77] Creating layer conv2_2
I0131 02:36:22.602057 30489 net.cpp:84] Creating Layer conv2_2
I0131 02:36:22.602061 30489 net.cpp:406] conv2_2 <- conv2_1
I0131 02:36:22.602071 30489 net.cpp:380] conv2_2 -> conv2_2
I0131 02:36:22.609359 30489 net.cpp:122] Setting up conv2_2
I0131 02:36:22.609395 30489 net.cpp:129] Top shape: 1 128 45 47 (270720)
I0131 02:36:22.609400 30489 net.cpp:137] Memory required for data: 12489440
I0131 02:36:22.609412 30489 layer_factory.hpp:77] Creating layer relu2_2
I0131 02:36:22.609426 30489 net.cpp:84] Creating Layer relu2_2
I0131 02:36:22.609431 30489 net.cpp:406] relu2_2 <- conv2_2
I0131 02:36:22.609441 30489 net.cpp:367] relu2_2 -> conv2_2 (in-place)
I0131 02:36:22.609679 30489 net.cpp:122] Setting up relu2_2
I0131 02:36:22.609689 30489 net.cpp:129] Top shape: 1 128 45 47 (270720)
I0131 02:36:22.609694 30489 net.cpp:137] Memory required for data: 13572320
I0131 02:36:22.609697 30489 layer_factory.hpp:77] Creating layer pool2
I0131 02:36:22.609706 30489 net.cpp:84] Creating Layer pool2
I0131 02:36:22.609711 30489 net.cpp:406] pool2 <- conv2_2
I0131 02:36:22.609717 30489 net.cpp:380] pool2 -> pool2
I0131 02:36:22.609778 30489 net.cpp:122] Setting up pool2
I0131 02:36:22.609786 30489 net.cpp:129] Top shape: 1 128 23 24 (70656)
I0131 02:36:22.609789 30489 net.cpp:137] Memory required for data: 13854944
I0131 02:36:22.609793 30489 layer_factory.hpp:77] Creating layer conv3_1
I0131 02:36:22.609807 30489 net.cpp:84] Creating Layer conv3_1
I0131 02:36:22.609812 30489 net.cpp:406] conv3_1 <- pool2
I0131 02:36:22.609819 30489 net.cpp:380] conv3_1 -> conv3_1
I0131 02:36:22.623102 30489 net.cpp:122] Setting up conv3_1
I0131 02:36:22.623142 30489 net.cpp:129] Top shape: 1 256 23 24 (141312)
I0131 02:36:22.623147 30489 net.cpp:137] Memory required for data: 14420192
I0131 02:36:22.623163 30489 layer_factory.hpp:77] Creating layer relu3_1
I0131 02:36:22.623178 30489 net.cpp:84] Creating Layer relu3_1
I0131 02:36:22.623183 30489 net.cpp:406] relu3_1 <- conv3_1
I0131 02:36:22.623193 30489 net.cpp:367] relu3_1 -> conv3_1 (in-place)
I0131 02:36:22.623658 30489 net.cpp:122] Setting up relu3_1
I0131 02:36:22.623677 30489 net.cpp:129] Top shape: 1 256 23 24 (141312)
I0131 02:36:22.623680 30489 net.cpp:137] Memory required for data: 14985440
I0131 02:36:22.623685 30489 layer_factory.hpp:77] Creating layer conv3_2
I0131 02:36:22.623703 30489 net.cpp:84] Creating Layer conv3_2
I0131 02:36:22.623708 30489 net.cpp:406] conv3_2 <- conv3_1
I0131 02:36:22.623715 30489 net.cpp:380] conv3_2 -> conv3_2
I0131 02:36:22.649096 30489 net.cpp:122] Setting up conv3_2
I0131 02:36:22.649133 30489 net.cpp:129] Top shape: 1 256 23 24 (141312)
I0131 02:36:22.649138 30489 net.cpp:137] Memory required for data: 15550688
I0131 02:36:22.649152 30489 layer_factory.hpp:77] Creating layer relu3_2
I0131 02:36:22.649163 30489 net.cpp:84] Creating Layer relu3_2
I0131 02:36:22.649169 30489 net.cpp:406] relu3_2 <- conv3_2
I0131 02:36:22.649178 30489 net.cpp:367] relu3_2 -> conv3_2 (in-place)
I0131 02:36:22.650197 30489 net.cpp:122] Setting up relu3_2
I0131 02:36:22.650213 30489 net.cpp:129] Top shape: 1 256 23 24 (141312)
I0131 02:36:22.650218 30489 net.cpp:137] Memory required for data: 16115936
I0131 02:36:22.650223 30489 layer_factory.hpp:77] Creating layer conv3_3
I0131 02:36:22.650240 30489 net.cpp:84] Creating Layer conv3_3
I0131 02:36:22.650245 30489 net.cpp:406] conv3_3 <- conv3_2
I0131 02:36:22.650254 30489 net.cpp:380] conv3_3 -> conv3_3
I0131 02:36:22.675236 30489 net.cpp:122] Setting up conv3_3
I0131 02:36:22.675273 30489 net.cpp:129] Top shape: 1 256 23 24 (141312)
I0131 02:36:22.675278 30489 net.cpp:137] Memory required for data: 16681184
I0131 02:36:22.675292 30489 layer_factory.hpp:77] Creating layer relu3_3
I0131 02:36:22.675312 30489 net.cpp:84] Creating Layer relu3_3
I0131 02:36:22.675318 30489 net.cpp:406] relu3_3 <- conv3_3
I0131 02:36:22.675326 30489 net.cpp:367] relu3_3 -> conv3_3 (in-place)
I0131 02:36:22.675591 30489 net.cpp:122] Setting up relu3_3
I0131 02:36:22.675603 30489 net.cpp:129] Top shape: 1 256 23 24 (141312)
I0131 02:36:22.675607 30489 net.cpp:137] Memory required for data: 17246432
I0131 02:36:22.675612 30489 layer_factory.hpp:77] Creating layer conv3_4
I0131 02:36:22.675628 30489 net.cpp:84] Creating Layer conv3_4
I0131 02:36:22.675633 30489 net.cpp:406] conv3_4 <- conv3_3
I0131 02:36:22.675640 30489 net.cpp:380] conv3_4 -> conv3_4
I0131 02:36:22.699381 30489 net.cpp:122] Setting up conv3_4
I0131 02:36:22.699414 30489 net.cpp:129] Top shape: 1 256 23 24 (141312)
I0131 02:36:22.699416 30489 net.cpp:137] Memory required for data: 17811680
I0131 02:36:22.699424 30489 layer_factory.hpp:77] Creating layer relu3_4
I0131 02:36:22.699434 30489 net.cpp:84] Creating Layer relu3_4
I0131 02:36:22.699437 30489 net.cpp:406] relu3_4 <- conv3_4
I0131 02:36:22.699443 30489 net.cpp:367] relu3_4 -> conv3_4 (in-place)
I0131 02:36:22.699820 30489 net.cpp:122] Setting up relu3_4
I0131 02:36:22.699834 30489 net.cpp:129] Top shape: 1 256 23 24 (141312)
I0131 02:36:22.699837 30489 net.cpp:137] Memory required for data: 18376928
I0131 02:36:22.699841 30489 layer_factory.hpp:77] Creating layer conv3_5
I0131 02:36:22.699853 30489 net.cpp:84] Creating Layer conv3_5
I0131 02:36:22.699857 30489 net.cpp:406] conv3_5 <- conv3_4
I0131 02:36:22.699862 30489 net.cpp:380] conv3_5 -> conv3_5
I0131 02:36:22.720736 30489 net.cpp:122] Setting up conv3_5
I0131 02:36:22.720775 30489 net.cpp:129] Top shape: 1 256 23 24 (141312)
I0131 02:36:22.720780 30489 net.cpp:137] Memory required for data: 18942176
I0131 02:36:22.720799 30489 layer_factory.hpp:77] Creating layer relu3_5
I0131 02:36:22.720813 30489 net.cpp:84] Creating Layer relu3_5
I0131 02:36:22.720818 30489 net.cpp:406] relu3_5 <- conv3_5
I0131 02:36:22.720826 30489 net.cpp:367] relu3_5 -> conv3_5 (in-place)
I0131 02:36:22.721091 30489 net.cpp:122] Setting up relu3_5
I0131 02:36:22.721102 30489 net.cpp:129] Top shape: 1 256 23 24 (141312)
I0131 02:36:22.721107 30489 net.cpp:137] Memory required for data: 19507424
I0131 02:36:22.721110 30489 layer_factory.hpp:77] Creating layer conv3_6
I0131 02:36:22.721125 30489 net.cpp:84] Creating Layer conv3_6
I0131 02:36:22.721130 30489 net.cpp:406] conv3_6 <- conv3_5
I0131 02:36:22.721138 30489 net.cpp:380] conv3_6 -> conv3_6
I0131 02:36:22.819453 30489 net.cpp:122] Setting up conv3_6
I0131 02:36:22.819490 30489 net.cpp:129] Top shape: 1 256 23 24 (141312)
I0131 02:36:22.819495 30489 net.cpp:137] Memory required for data: 20072672
I0131 02:36:22.819509 30489 layer_factory.hpp:77] Creating layer relu3_6
I0131 02:36:22.819524 30489 net.cpp:84] Creating Layer relu3_6
I0131 02:36:22.819530 30489 net.cpp:406] relu3_6 <- conv3_6
I0131 02:36:22.819537 30489 net.cpp:367] relu3_6 -> conv3_6 (in-place)
I0131 02:36:22.820030 30489 net.cpp:122] Setting up relu3_6
I0131 02:36:22.820046 30489 net.cpp:129] Top shape: 1 256 23 24 (141312)
I0131 02:36:22.820051 30489 net.cpp:137] Memory required for data: 20637920
I0131 02:36:22.820055 30489 layer_factory.hpp:77] Creating layer conv4_1
I0131 02:36:22.820073 30489 net.cpp:84] Creating Layer conv4_1
I0131 02:36:22.820080 30489 net.cpp:406] conv4_1 <- conv3_6
I0131 02:36:22.820086 30489 net.cpp:380] conv4_1 -> conv4_1
I0131 02:36:23.310688 30489 net.cpp:122] Setting up conv4_1
I0131 02:36:23.310730 30489 net.cpp:129] Top shape: 1 512 23 24 (282624)
I0131 02:36:23.310736 30489 net.cpp:137] Memory required for data: 21768416
I0131 02:36:23.310751 30489 layer_factory.hpp:77] Creating layer relu4_1
I0131 02:36:23.310766 30489 net.cpp:84] Creating Layer relu4_1
I0131 02:36:23.310775 30489 net.cpp:406] relu4_1 <- conv4_1
I0131 02:36:23.310786 30489 net.cpp:367] relu4_1 -> conv4_1 (in-place)
I0131 02:36:23.318042 30489 net.cpp:122] Setting up relu4_1
I0131 02:36:23.318074 30489 net.cpp:129] Top shape: 1 512 23 24 (282624)
I0131 02:36:23.318084 30489 net.cpp:137] Memory required for data: 22898912
I0131 02:36:23.318090 30489 layer_factory.hpp:77] Creating layer conv4_2
I0131 02:36:23.318110 30489 net.cpp:84] Creating Layer conv4_2
I0131 02:36:23.318116 30489 net.cpp:406] conv4_2 <- conv4_1
I0131 02:36:23.318127 30489 net.cpp:380] conv4_2 -> conv4_2
I0131 02:36:24.161098 30489 net.cpp:122] Setting up conv4_2
I0131 02:36:24.161136 30489 net.cpp:129] Top shape: 1 512 23 24 (282624)
I0131 02:36:24.161141 30489 net.cpp:137] Memory required for data: 24029408
I0131 02:36:24.161154 30489 layer_factory.hpp:77] Creating layer relu4_2
I0131 02:36:24.161167 30489 net.cpp:84] Creating Layer relu4_2
I0131 02:36:24.161173 30489 net.cpp:406] relu4_2 <- conv4_2
I0131 02:36:24.161182 30489 net.cpp:367] relu4_2 -> conv4_2 (in-place)
I0131 02:36:24.161515 30489 net.cpp:122] Setting up relu4_2
I0131 02:36:24.161526 30489 net.cpp:129] Top shape: 1 512 23 24 (282624)
I0131 02:36:24.161530 30489 net.cpp:137] Memory required for data: 25159904
I0131 02:36:24.161535 30489 layer_factory.hpp:77] Creating layer conv4_3
I0131 02:36:24.161551 30489 net.cpp:84] Creating Layer conv4_3
I0131 02:36:24.161556 30489 net.cpp:406] conv4_3 <- conv4_2
I0131 02:36:24.161563 30489 net.cpp:380] conv4_3 -> conv4_3
I0131 02:36:25.907039 30489 net.cpp:122] Setting up conv4_3
I0131 02:36:25.907078 30489 net.cpp:129] Top shape: 1 512 23 24 (282624)
I0131 02:36:25.907083 30489 net.cpp:137] Memory required for data: 26290400
I0131 02:36:25.907095 30489 layer_factory.hpp:77] Creating layer relu4_3
I0131 02:36:25.907109 30489 net.cpp:84] Creating Layer relu4_3
I0131 02:36:25.907114 30489 net.cpp:406] relu4_3 <- conv4_3
I0131 02:36:25.907121 30489 net.cpp:367] relu4_3 -> conv4_3 (in-place)
I0131 02:36:25.937846 30489 net.cpp:122] Setting up relu4_3
I0131 02:36:25.937882 30489 net.cpp:129] Top shape: 1 512 23 24 (282624)
I0131 02:36:25.937887 30489 net.cpp:137] Memory required for data: 27420896
I0131 02:36:25.937894 30489 layer_factory.hpp:77] Creating layer tpp5
I0131 02:36:25.937907 30489 net.cpp:84] Creating Layer tpp5
I0131 02:36:25.937913 30489 net.cpp:406] tpp5 <- conv4_3
I0131 02:36:25.937924 30489 net.cpp:380] tpp5 -> tpp5
I0131 02:36:25.938622 30489 net.cpp:122] Setting up tpp5
I0131 02:36:25.938634 30489 net.cpp:129] Top shape: 1 7680 (7680)
I0131 02:36:25.938639 30489 net.cpp:137] Memory required for data: 27451616
I0131 02:36:25.938643 30489 layer_factory.hpp:77] Creating layer reshape
I0131 02:36:25.938652 30489 net.cpp:84] Creating Layer reshape
I0131 02:36:25.938657 30489 net.cpp:406] reshape <- tpp5
I0131 02:36:25.938663 30489 net.cpp:380] reshape -> reshape
I0131 02:36:25.938704 30489 net.cpp:122] Setting up reshape
I0131 02:36:25.938711 30489 net.cpp:129] Top shape: 1 960 8 1 (7680)
I0131 02:36:25.938715 30489 net.cpp:137] Memory required for data: 27482336
I0131 02:36:25.938719 30489 layer_factory.hpp:77] Creating layer premax
I0131 02:36:25.938730 30489 net.cpp:84] Creating Layer premax
I0131 02:36:25.938735 30489 net.cpp:406] premax <- reshape
I0131 02:36:25.938743 30489 net.cpp:380] premax -> premax
I0131 02:36:25.938894 30489 net.cpp:122] Setting up premax
I0131 02:36:25.938904 30489 net.cpp:129] Top shape: 1 960 8 1 (7680)
I0131 02:36:25.938907 30489 net.cpp:137] Memory required for data: 27513056
I0131 02:36:25.938913 30489 layer_factory.hpp:77] Creating layer maxout
I0131 02:36:25.938923 30489 net.cpp:84] Creating Layer maxout
I0131 02:36:25.938927 30489 net.cpp:406] maxout <- premax
I0131 02:36:25.938933 30489 net.cpp:380] maxout -> maxout
I0131 02:36:25.938989 30489 net.cpp:122] Setting up maxout
I0131 02:36:25.938997 30489 net.cpp:129] Top shape: 1 960 1 1 (960)
I0131 02:36:25.939000 30489 net.cpp:137] Memory required for data: 27516896
I0131 02:36:25.939004 30489 layer_factory.hpp:77] Creating layer fc6
I0131 02:36:25.939013 30489 net.cpp:84] Creating Layer fc6
I0131 02:36:25.939016 30489 net.cpp:406] fc6 <- maxout
I0131 02:36:25.939024 30489 net.cpp:380] fc6 -> fc6
I0131 02:36:28.490772 30489 net.cpp:122] Setting up fc6
I0131 02:36:28.490808 30489 net.cpp:129] Top shape: 1 4096 (4096)
I0131 02:36:28.490818 30489 net.cpp:137] Memory required for data: 27533280
I0131 02:36:28.490830 30489 layer_factory.hpp:77] Creating layer relu6
I0131 02:36:28.490842 30489 net.cpp:84] Creating Layer relu6
I0131 02:36:28.490849 30489 net.cpp:406] relu6 <- fc6
I0131 02:36:28.490857 30489 net.cpp:367] relu6 -> fc6 (in-place)
I0131 02:36:28.491147 30489 net.cpp:122] Setting up relu6
I0131 02:36:28.491158 30489 net.cpp:129] Top shape: 1 4096 (4096)
I0131 02:36:28.491161 30489 net.cpp:137] Memory required for data: 27549664
I0131 02:36:28.491166 30489 layer_factory.hpp:77] Creating layer fc7
I0131 02:36:28.491176 30489 net.cpp:84] Creating Layer fc7
I0131 02:36:28.491180 30489 net.cpp:406] fc7 <- fc6
I0131 02:36:28.491188 30489 net.cpp:380] fc7 -> fc7
I0131 02:36:35.600085 30489 net.cpp:122] Setting up fc7
I0131 02:36:35.600123 30489 net.cpp:129] Top shape: 1 4096 (4096)
I0131 02:36:35.600128 30489 net.cpp:137] Memory required for data: 27566048
I0131 02:36:35.600142 30489 layer_factory.hpp:77] Creating layer relu7
I0131 02:36:35.600155 30489 net.cpp:84] Creating Layer relu7
I0131 02:36:35.600162 30489 net.cpp:406] relu7 <- fc7
I0131 02:36:35.600169 30489 net.cpp:367] relu7 -> fc7 (in-place)
I0131 02:36:35.601073 30489 net.cpp:122] Setting up relu7
I0131 02:36:35.601095 30489 net.cpp:129] Top shape: 1 4096 (4096)
I0131 02:36:35.601099 30489 net.cpp:137] Memory required for data: 27582432
I0131 02:36:35.601105 30489 layer_factory.hpp:77] Creating layer fc8
I0131 02:36:35.601117 30489 net.cpp:84] Creating Layer fc8
I0131 02:36:35.601124 30489 net.cpp:406] fc8 <- fc7
I0131 02:36:35.601140 30489 net.cpp:380] fc8 -> fc8
I0131 02:36:36.559281 30489 net.cpp:122] Setting up fc8
I0131 02:36:36.559320 30489 net.cpp:129] Top shape: 1 618 (618)
I0131 02:36:36.559324 30489 net.cpp:137] Memory required for data: 27584904
I0131 02:36:36.559341 30489 layer_factory.hpp:77] Creating layer fc8_fc8_0_split
I0131 02:36:36.559353 30489 net.cpp:84] Creating Layer fc8_fc8_0_split
I0131 02:36:36.559360 30489 net.cpp:406] fc8_fc8_0_split <- fc8
I0131 02:36:36.559368 30489 net.cpp:380] fc8_fc8_0_split -> fc8_fc8_0_split_0
I0131 02:36:36.559378 30489 net.cpp:380] fc8_fc8_0_split -> fc8_fc8_0_split_1
I0131 02:36:36.559435 30489 net.cpp:122] Setting up fc8_fc8_0_split
I0131 02:36:36.559443 30489 net.cpp:129] Top shape: 1 618 (618)
I0131 02:36:36.559448 30489 net.cpp:129] Top shape: 1 618 (618)
I0131 02:36:36.559453 30489 net.cpp:137] Memory required for data: 27589848
I0131 02:36:36.559456 30489 layer_factory.hpp:77] Creating layer sigmoid
I0131 02:36:36.559466 30489 net.cpp:84] Creating Layer sigmoid
I0131 02:36:36.559470 30489 net.cpp:406] sigmoid <- fc8_fc8_0_split_0
I0131 02:36:36.559478 30489 net.cpp:380] sigmoid -> sigmoid
I0131 02:36:36.666501 30489 net.cpp:122] Setting up sigmoid
I0131 02:36:36.666539 30489 net.cpp:129] Top shape: 1 618 (618)
I0131 02:36:36.666546 30489 net.cpp:137] Memory required for data: 27592320
I0131 02:36:36.666553 30489 layer_factory.hpp:77] Creating layer silence
I0131 02:36:36.666566 30489 net.cpp:84] Creating Layer silence
I0131 02:36:36.666573 30489 net.cpp:406] silence <- sigmoid
I0131 02:36:36.666581 30489 net.cpp:122] Setting up silence
I0131 02:36:36.666584 30489 net.cpp:137] Memory required for data: 27592320
…
