…
  phase: TRAIN
}
layer {
  name: "word_images"
  type: "Data"
  top: "word_images"
  top: "label"
  transform_param {
    scale: -0.0039215689
    mean_value: 255
  }
  data_param {
    source: "/data/fwolf/iam_50000/iam-db_nti500000_pul2-3-4-5_train_word_images_lmdb"
    batch_size: 1
    backend: LMDB
    prefetch: 20
  }
}
layer {
  name: "phocs"
  type: "Data"
  top: "phocs"
  top: "label_phocs"
  data_param {
    source: "/data/fwolf/iam_50000/iam-db_nti500000_pul2-3-4-5_train_phocs_lmdb"
    batch_size: 1
    backend: LMDB
    prefetch: 20
  }
}
layer {
  name: "conv_init"
  type: "Convolution"
  bottom: "word_images"
  top: "conv_init"
  convolution_param {
    num_output: 32
    bias_term: false
    pad: 1
    kernel_size: 3
    stride: 1
    weight_filler {
      type: "msra"
    }
    bias_filler {
      type: "constant"
    }
    engine: CUDNN
  }
}
layer {
  name: "bn_init"
  type: "BatchNorm"
  bottom: "conv_init"
  top: "bn_init"
  param {
    lr_mult: 0
    decay_mult: 0
  }
  param {
    lr_mult: 0
    decay_mult: 0
  }
  param {
    lr_mult: 0
    decay_mult: 0
  }
  batch_norm_param {
    eps: 1e-05
  }
}
layer {
  name: "scale_init"
  type: "Scale"
  bottom: "bn_init"
  top: "bn_init"
  scale_param {
    filler {
      value: 1
    }
    bias_term: true
    bias_filler {
      value: 0
    }
  }
}
layer {
  name: "relu_init"
  type: "ReLU"
  bottom: "bn_init"
  top: "bn_init"
}
layer {
  name: "pool_init"
  type: "Pooling"
  bottom: "bn_init"
  top: "pool_init"
  pooling_param {
    pool: MAX
    kernel_size: 3
    stride: 2
    pad: 1
  }
}
layer {
  name: "conv0_0/bn"
  type: "BatchNorm"
  bottom: "pool_init"
  top: "conv0_0/bn"
  param {
    lr_mult: 0
    decay_mult: 0
  }
  param {
    lr_mult: 0
    decay_mult: 0
  }
  param {
    lr_mult: 0
    decay_mult: 0
  }
}
layer {
  name: "conv0_0/scale"
  type: "Scale"
  bottom: "conv0_0/bn"
  top: "conv0_0/bn"
  scale_param {
    filler {
      value: 1
    }
    bias_term: true
    bias_filler {
      value: 0
    }
  }
}
layer {
  name: "relu0_0"
  type: "ReLU"
  bottom: "conv0_0/bn"
  top: "conv0_0/bn"
}
layer {
  name: "conv0_0"
  type: "Convolution"
  bottom: "conv0_0/bn"
  top: "conv0_0"
  convolution_param {
    num_output: 32
    bias_term: false
    pad: 1
    kernel_size: 3
    stride: 1
    weight_filler {
      type: "msra"
    }
    bias_filler {
      type: "constant"
    }
    engine: CUDNN
  }
}
layer {
  name: "concat0_0"
  type: "Concat"
  bottom: "pool_init"
  bottom: "conv0_0"
  top: "concat0_0"
  concat_param {
    axis: 1
  }
}
layer {
  name: "conv0_1/bn"
  type: "BatchNorm"
  bottom: "concat0_0"
  top: "conv0_1/bn"
  param {
    lr_mult: 0
    decay_mult: 0
  }
  param {
    lr_mult: 0
    decay_mult: 0
  }
  param {
    lr_mult: 0
    decay_mult: 0
  }
}
layer {
  name: "conv0_1/scale"
  type: "Scale"
  bottom: "conv0_1/bn"
  top: "conv0_1/bn"
  scale_param {
    filler {
      value: 1
    }
    bias_term: true
    bias_filler {
      value: 0
    }
  }
}
layer {
  name: "relu0_1"
  type: "ReLU"
  bottom: "conv0_1/bn"
  top: "conv0_1/bn"
}
layer {
  name: "conv0_1"
  type: "Convolution"
  bottom: "conv0_1/bn"
  top: "conv0_1"
  convolution_param {
    num_output: 32
    bias_term: false
    pad: 1
    kernel_size: 3
    stride: 1
    weight_filler {
      type: "msra"
    }
    bias_filler {
      type: "constant"
    }
    engine: CUDNN
  }
}
layer {
  name: "concat0_1"
  type: "Concat"
  bottom: "concat0_0"
  bottom: "conv0_1"
  top: "concat0_1"
  concat_param {
    axis: 1
  }
}
layer {
  name: "conv0_2/bn"
  type: "BatchNorm"
  bottom: "concat0_1"
  top: "conv0_2/bn"
  param {
    lr_mult: 0
    decay_mult: 0
  }
  param {
    lr_mult: 0
    decay_mult: 0
  }
  param {
    lr_mult: 0
    decay_mult: 0
  }
}
layer {
  name: "conv0_2/scale"
  type: "Scale"
  bottom: "conv0_2/bn"
  top: "conv0_2/bn"
  scale_param {
    filler {
      value: 1
    }
    bias_term: true
    bias_filler {
      value: 0
    }
  }
}
layer {
  name: "relu0_2"
  type: "ReLU"
  bottom: "conv0_2/bn"
  top: "conv0_2/bn"
}
layer {
  name: "conv0_2"
  type: "Convolution"
  bottom: "conv0_2/bn"
  top: "conv0_2"
  convolution_param {
    num_output: 32
    bias_term: false
    pad: 1
    kernel_size: 3
    stride: 1
    weight_filler {
      type: "msra"
    }
    bias_filler {
      type: "constant"
    }
    engine: CUDNN
  }
}
layer {
  name: "concat0_2"
  type: "Concat"
  bottom: "concat0_1"
  bottom: "conv0_2"
  top: "concat0_2"
  concat_param {
    axis: 1
  }
}
layer {
  name: "conv0_3/bn"
  type: "BatchNorm"
  bottom: "concat0_2"
  top: "conv0_3/bn"
  param {
    lr_mult: 0
    decay_mult: 0
  }
  param {
    lr_mult: 0
    decay_mult: 0
  }
  param {
    lr_mult: 0
    decay_mult: 0
  }
}
layer {
  name: "conv0_3/scale"
  type: "Scale"
  bottom: "conv0_3/bn"
  top: "conv0_3/bn"
  scale_param {
    filler {
      value: 1
    }
    bias_term: true
    bias_filler {
      value: 0
    }
  }
}
layer {
  name: "relu0_3"
  type: "ReLU"
  bottom: "conv0_3/bn"
  top: "conv0_3/bn"
}
layer {
  name: "conv0_3"
  type: "Convolution"
  bottom: "conv0_3/bn"
  top: "conv0_3"
  convolution_param {
    num_output: 32
    bias_term: false
    pad: 1
    kernel_size: 3
    stride: 1
    weight_filler {
      type: "msra"
    }
    bias_filler {
      type: "constant"
    }
    engine: CUDNN
  }
}
layer {
  name: "concat0_3"
  type: "Concat"
  bottom: "concat0_2"
  bottom: "conv0_3"
  top: "concat0_3"
  concat_param {
    axis: 1
  }
}
layer {
  name: "conv0_4/bn"
  type: "BatchNorm"
  bottom: "concat0_3"
  top: "conv0_4/bn"
  param {
    lr_mult: 0
    decay_mult: 0
  }
  param {
    lr_mult: 0
    decay_mult: 0
  }
  param {
    lr_mult: 0
    decay_mult: 0
  }
}
layer {
  name: "conv0_4/scale"
  type: "Scale"
  bottom: "conv0_4/bn"
  top: "conv0_4/bn"
  scale_param {
    filler {
      value: 1
    }
    bias_term: true
    bias_filler {
      value: 0
    }
  }
}
layer {
  name: "relu0_4"
  type: "ReLU"
  bottom: "conv0_4/bn"
  top: "conv0_4/bn"
}
layer {
  name: "conv0_4"
  type: "Convolution"
  bottom: "conv0_4/bn"
  top: "conv0_4"
  convolution_param {
    num_output: 32
    bias_term: false
    pad: 1
    kernel_size: 3
    stride: 1
    weight_filler {
      type: "msra"
    }
    bias_filler {
      type: "constant"
    }
    engine: CUDNN
  }
}
layer {
  name: "concat0_4"
  type: "Concat"
  bottom: "concat0_3"
  bottom: "conv0_4"
  top: "concat0_4"
  concat_param {
    axis: 1
  }
}
layer {
  name: "conv0_5/bn"
  type: "BatchNorm"
  bottom: "concat0_4"
  top: "conv0_5/bn"
  param {
    lr_mult: 0
    decay_mult: 0
  }
  param {
    lr_mult: 0
    decay_mult: 0
  }
  param {
    lr_mult: 0
    decay_mult: 0
  }
}
layer {
  name: "conv0_5/scale"
  type: "Scale"
  bottom: "conv0_5/bn"
  top: "conv0_5/bn"
  scale_param {
    filler {
      value: 1
    }
    bias_term: true
    bias_filler {
      value: 0
    }
  }
}
layer {
  name: "relu0_5"
  type: "ReLU"
  bottom: "conv0_5/bn"
  top: "conv0_5/bn"
}
layer {
  name: "conv0_5"
  type: "Convolution"
  bottom: "conv0_5/bn"
  top: "conv0_5"
  convolution_param {
    num_output: 32
    bias_term: false
    pad: 1
    kernel_size: 3
    stride: 1
    weight_filler {
      type: "msra"
    }
    bias_filler {
      type: "constant"
    }
    engine: CUDNN
  }
}
layer {
  name: "concat0_5"
  type: "Concat"
  bottom: "concat0_4"
  bottom: "conv0_5"
  top: "concat0_5"
  concat_param {
    axis: 1
  }
}
layer {
  name: "conv0_6/bn"
  type: "BatchNorm"
  bottom: "concat0_5"
  top: "conv0_6/bn"
  param {
    lr_mult: 0
    decay_mult: 0
  }
  param {
    lr_mult: 0
    decay_mult: 0
  }
  param {
    lr_mult: 0
    decay_mult: 0
  }
}
layer {
  name: "conv0_6/scale"
  type: "Scale"
  bottom: "conv0_6/bn"
  top: "conv0_6/bn"
  scale_param {
    filler {
      value: 1
    }
    bias_term: true
    bias_filler {
      value: 0
    }
  }
}
layer {
  name: "relu0_6"
  type: "ReLU"
  bottom: "conv0_6/bn"
  top: "conv0_6/bn"
}
layer {
  name: "conv0_6"
  type: "Convolution"
  bottom: "conv0_6/bn"
  top: "conv0_6"
  convolution_param {
    num_output: 32
    bias_term: false
    pad: 1
    kernel_size: 3
    stride: 1
    weight_filler {
      type: "msra"
    }
    bias_filler {
      type: "constant"
    }
    engine: CUDNN
  }
}
layer {
  name: "concat0_6"
  type: "Concat"
  bottom: "concat0_5"
  bottom: "conv0_6"
  top: "concat0_6"
  concat_param {
    axis: 1
  }
}
layer {
  name: "conv0_7/bn"
  type: "BatchNorm"
  bottom: "concat0_6"
  top: "conv0_7/bn"
  param {
    lr_mult: 0
    decay_mult: 0
  }
  param {
    lr_mult: 0
    decay_mult: 0
  }
  param {
    lr_mult: 0
    decay_mult: 0
  }
}
layer {
  name: "conv0_7/scale"
  type: "Scale"
  bottom: "conv0_7/bn"
  top: "conv0_7/bn"
  scale_param {
    filler {
      value: 1
    }
    bias_term: true
    bias_filler {
      value: 0
    }
  }
}
layer {
  name: "relu0_7"
  type: "ReLU"
  bottom: "conv0_7/bn"
  top: "conv0_7/bn"
}
layer {
  name: "conv0_7"
  type: "Convolution"
  bottom: "conv0_7/bn"
  top: "conv0_7"
  convolution_param {
    num_output: 32
    bias_term: false
    pad: 1
    kernel_size: 3
    stride: 1
    weight_filler {
      type: "msra"
    }
    bias_filler {
      type: "constant"
    }
    engine: CUDNN
  }
}
layer {
  name: "concat0_7"
  type: "Concat"
  bottom: "concat0_6"
  bottom: "conv0_7"
  top: "concat0_7"
  concat_param {
    axis: 1
  }
}
layer {
  name: "conv0_8/bn"
  type: "BatchNorm"
  bottom: "concat0_7"
  top: "conv0_8/bn"
  param {
    lr_mult: 0
    decay_mult: 0
  }
  param {
    lr_mult: 0
    decay_mult: 0
  }
  param {
    lr_mult: 0
    decay_mult: 0
  }
}
layer {
  name: "conv0_8/scale"
  type: "Scale"
  bottom: "conv0_8/bn"
  top: "conv0_8/bn"
  scale_param {
    filler {
      value: 1
    }
    bias_term: true
    bias_filler {
      value: 0
    }
  }
}
layer {
  name: "relu0_8"
  type: "ReLU"
  bottom: "conv0_8/bn"
  top: "conv0_8/bn"
}
layer {
  name: "conv0_8"
  type: "Convolution"
  bottom: "conv0_8/bn"
  top: "conv0_8"
  convolution_param {
    num_output: 32
    bias_term: false
    pad: 1
    kernel_size: 3
    stride: 1
    weight_filler {
      type: "msra"
    }
    bias_filler {
      type: "constant"
    }
    engine: CUDNN
  }
}
layer {
  name: "concat0_8"
  type: "Concat"
  bottom: "concat0_7"
  bottom: "conv0_8"
  top: "concat0_8"
  concat_param {
    axis: 1
  }
}
layer {
  name: "conv0_9/bn"
  type: "BatchNorm"
  bottom: "concat0_8"
  top: "conv0_9/bn"
  param {
    lr_mult: 0
    decay_mult: 0
  }
  param {
    lr_mult: 0
    decay_mult: 0
  }
  param {
    lr_mult: 0
    decay_mult: 0
  }
}
layer {
  name: "conv0_9/scale"
  type: "Scale"
  bottom: "conv0_9/bn"
  top: "conv0_9/bn"
  scale_param {
    filler {
      value: 1
    }
    bias_term: true
    bias_filler {
      value: 0
    }
  }
}
layer {
  name: "relu0_9"
  type: "ReLU"
  bottom: "conv0_9/bn"
  top: "conv0_9/bn"
}
layer {
  name: "conv0_9"
  type: "Convolution"
  bottom: "conv0_9/bn"
  top: "conv0_9"
  convolution_param {
    num_output: 32
    bias_term: false
    pad: 1
    kernel_size: 3
    stride: 1
    weight_filler {
      type: "msra"
    }
    bias_filler {
      type: "constant"
    }
    engine: CUDNN
  }
}
layer {
  name: "concat0_9"
  type: "Concat"
  bottom: "concat0_8"
  bottom: "conv0_9"
  top: "concat0_9"
  concat_param {
    axis: 1
  }
}
layer {
  name: "conv0_10/bn"
  type: "BatchNorm"
  bottom: "concat0_9"
  top: "conv0_10/bn"
  param {
    lr_mult: 0
    decay_mult: 0
  }
  param {
    lr_mult: 0
    decay_mult: 0
  }
  param {
    lr_mult: 0
    decay_mult: 0
  }
}
layer {
  name: "conv0_10/scale"
  type: "Scale"
  bottom: "conv0_10/bn"
  top: "conv0_10/bn"
  scale_param {
    filler {
      value: 1
    }
    bias_term: true
    bias_filler {
      value: 0
    }
  }
}
layer {
  name: "relu0_10"
  type: "ReLU"
  bottom: "conv0_10/bn"
  top: "conv0_10/bn"
}
layer {
  name: "conv0_10"
  type: "Convolution"
  bottom: "conv0_10/bn"
  top: "conv0_10"
  convolution_param {
    num_output: 32
    bias_term: false
    pad: 1
    kernel_size: 3
    stride: 1
    weight_filler {
      type: "msra"
    }
    bias_filler {
      type: "constant"
    }
    engine: CUDNN
  }
}
layer {
  name: "concat0_10"
  type: "Concat"
  bottom: "concat0_9"
  bottom: "conv0_10"
  top: "concat0_10"
  concat_param {
    axis: 1
  }
}
layer {
  name: "conv0_11/bn"
  type: "BatchNorm"
  bottom: "concat0_10"
  top: "conv0_11/bn"
  param {
    lr_mult: 0
    decay_mult: 0
  }
  param {
    lr_mult: 0
    decay_mult: 0
  }
  param {
    lr_mult: 0
    decay_mult: 0
  }
}
layer {
  name: "conv0_11/scale"
  type: "Scale"
  bottom: "conv0_11/bn"
  top: "conv0_11/bn"
  scale_param {
    filler {
      value: 1
    }
    bias_term: true
    bias_filler {
      value: 0
    }
  }
}
layer {
  name: "relu0_11"
  type: "ReLU"
  bottom: "conv0_11/bn"
  top: "conv0_11/bn"
}
layer {
  name: "conv0_11"
  type: "Convolution"
  bottom: "conv0_11/bn"
  top: "conv0_11"
  convolution_param {
    num_output: 32
    bias_term: false
    pad: 1
    kernel_size: 3
    stride: 1
    weight_filler {
      type: "msra"
    }
    bias_filler {
      type: "constant"
    }
    engine: CUDNN
  }
}
layer {
  name: "concat0_11"
  type: "Concat"
  bottom: "concat0_10"
  bottom: "conv0_11"
  top: "concat0_11"
  concat_param {
    axis: 1
  }
}
layer {
  name: "conv0_12/bn"
  type: "BatchNorm"
  bottom: "concat0_11"
  top: "conv0_12/bn"
  param {
    lr_mult: 0
    decay_mult: 0
  }
  param {
    lr_mult: 0
    decay_mult: 0
  }
  param {
    lr_mult: 0
    decay_mult: 0
  }
}
layer {
  name: "conv0_12/scale"
  type: "Scale"
  bottom: "conv0_12/bn"
  top: "conv0_12/bn"
  scale_param {
    filler {
      value: 1
    }
    bias_term: true
    bias_filler {
      value: 0
    }
  }
}
layer {
  name: "relu0_12"
  type: "ReLU"
  bottom: "conv0_12/bn"
  top: "conv0_12/bn"
}
layer {
  name: "conv0_12"
  type: "Convolution"
  bottom: "conv0_12/bn"
  top: "conv0_12"
  convolution_param {
    num_output: 32
    bias_term: false
    pad: 1
    kernel_size: 3
    stride: 1
    weight_filler {
      type: "msra"
    }
    bias_filler {
      type: "constant"
    }
    engine: CUDNN
  }
}
layer {
  name: "concat0_12"
  type: "Concat"
  bottom: "concat0_11"
  bottom: "conv0_12"
  top: "concat0_12"
  concat_param {
    axis: 1
  }
}
layer {
  name: "conv0_13/bn"
  type: "BatchNorm"
  bottom: "concat0_12"
  top: "conv0_13/bn"
  param {
    lr_mult: 0
    decay_mult: 0
  }
  param {
    lr_mult: 0
    decay_mult: 0
  }
  param {
    lr_mult: 0
    decay_mult: 0
  }
}
layer {
  name: "conv0_13/scale"
  type: "Scale"
  bottom: "conv0_13/bn"
  top: "conv0_13/bn"
  scale_param {
    filler {
      value: 1
    }
    bias_term: true
    bias_filler {
      value: 0
    }
  }
}
layer {
  name: "relu0_13"
  type: "ReLU"
  bottom: "conv0_13/bn"
  top: "conv0_13/bn"
}
layer {
  name: "conv0_13"
  type: "Convolution"
  bottom: "conv0_13/bn"
  top: "conv0_13"
  convolution_param {
    num_output: 32
    bias_term: false
    pad: 1
    kernel_size: 3
    stride: 1
    weight_filler {
      type: "msra"
    }
    bias_filler {
      type: "constant"
    }
    engine: CUDNN
  }
}
layer {
  name: "concat0_13"
  type: "Concat"
  bottom: "concat0_12"
  bottom: "conv0_13"
  top: "concat0_13"
  concat_param {
    axis: 1
  }
}
layer {
  name: "conv0_14/bn"
  type: "BatchNorm"
  bottom: "concat0_13"
  top: "conv0_14/bn"
  param {
    lr_mult: 0
    decay_mult: 0
  }
  param {
    lr_mult: 0
    decay_mult: 0
  }
  param {
    lr_mult: 0
    decay_mult: 0
  }
}
layer {
  name: "conv0_14/scale"
  type: "Scale"
  bottom: "conv0_14/bn"
  top: "conv0_14/bn"
  scale_param {
    filler {
      value: 1
    }
    bias_term: true
    bias_filler {
      value: 0
    }
  }
}
layer {
  name: "relu0_14"
  type: "ReLU"
  bottom: "conv0_14/bn"
  top: "conv0_14/bn"
}
layer {
  name: "conv0_14"
  type: "Convolution"
  bottom: "conv0_14/bn"
  top: "conv0_14"
  convolution_param {
    num_output: 32
    bias_term: false
    pad: 1
    kernel_size: 3
    stride: 1
    weight_filler {
      type: "msra"
    }
    bias_filler {
      type: "constant"
    }
    engine: CUDNN
  }
}
layer {
  name: "concat0_14"
  type: "Concat"
  bottom: "concat0_13"
  bottom: "conv0_14"
  top: "concat0_14"
  concat_param {
    axis: 1
  }
}
layer {
  name: "BatchNorm1"
  type: "BatchNorm"
  bottom: "concat0_14"
  top: "BatchNorm1"
  param {
    lr_mult: 0
    decay_mult: 0
  }
  param {
    lr_mult: 0
    decay_mult: 0
  }
  param {
    lr_mult: 0
    decay_mult: 0
  }
}
layer {
  name: "Scale1"
  type: "Scale"
  bottom: "BatchNorm1"
  top: "BatchNorm1"
  scale_param {
    filler {
      value: 1
    }
    bias_term: true
    bias_filler {
      value: 0
    }
  }
}
layer {
  name: "ReLU1"
  type: "ReLU"
  bottom: "BatchNorm1"
  top: "BatchNorm1"
}
layer {
  name: "conv0_blk"
  type: "Convolution"
  bottom: "BatchNorm1"
  top: "conv0_blk"
  convolution_param {
    num_output: 512
    bias_term: false
    pad: 0
    kernel_size: 1
    stride: 1
    weight_filler {
      type: "msra"
    }
    bias_filler {
      type: "constant"
    }
    engine: CUDNN
  }
}
layer {
  name: "pool0"
  type: "Pooling"
  bottom: "conv0_blk"
  top: "pool0"
  pooling_param {
    pool: AVE
    kernel_size: 2
    stride: 2
  }
}
layer {
  name: "conv1_0/bn"
  type: "BatchNorm"
  bottom: "pool0"
  top: "conv1_0/bn"
  param {
    lr_mult: 0
    decay_mult: 0
  }
  param {
    lr_mult: 0
    decay_mult: 0
  }
  param {
    lr_mult: 0
    decay_mult: 0
  }
}
layer {
  name: "conv1_0/scale"
  type: "Scale"
  bottom: "conv1_0/bn"
  top: "conv1_0/bn"
  scale_param {
    filler {
      value: 1
    }
    bias_term: true
    bias_filler {
      value: 0
    }
  }
}
layer {
  name: "relu1_0"
  type: "ReLU"
  bottom: "conv1_0/bn"
  top: "conv1_0/bn"
}
layer {
  name: "conv1_0"
  type: "Convolution"
  bottom: "conv1_0/bn"
  top: "conv1_0"
  convolution_param {
    num_output: 32
    bias_term: false
    pad: 1
    kernel_size: 3
    stride: 1
    weight_filler {
      type: "msra"
    }
    bias_filler {
      type: "constant"
    }
    engine: CUDNN
  }
}
layer {
  name: "concat1_0"
  type: "Concat"
  bottom: "pool0"
  bottom: "conv1_0"
  top: "concat1_0"
  concat_param {
    axis: 1
  }
}
layer {
  name: "conv1_1/bn"
  type: "BatchNorm"
  bottom: "concat1_0"
  top: "conv1_1/bn"
  param {
    lr_mult: 0
    decay_mult: 0
  }
  param {
    lr_mult: 0
    decay_mult: 0
  }
  param {
    lr_mult: 0
    decay_mult: 0
  }
}
layer {
  name: "conv1_1/scale"
  type: "Scale"
  bottom: "conv1_1/bn"
  top: "conv1_1/bn"
  scale_param {
    filler {
      value: 1
    }
    bias_term: true
    bias_filler {
      value: 0
    }
  }
}
layer {
  name: "relu1_1"
  type: "ReLU"
  bottom: "conv1_1/bn"
  top: "conv1_1/bn"
}
layer {
  name: "conv1_1"
  type: "Convolution"
  bottom: "conv1_1/bn"
  top: "conv1_1"
  convolution_param {
    num_output: 32
    bias_term: false
    pad: 1
    kernel_size: 3
    stride: 1
    weight_filler {
      type: "msra"
    }
    bias_filler {
      type: "constant"
    }
    engine: CUDNN
  }
}
layer {
  name: "concat1_1"
  type: "Concat"
  bottom: "concat1_0"
  bottom: "conv1_1"
  top: "concat1_1"
  concat_param {
    axis: 1
  }
}
layer {
  name: "conv1_2/bn"
  type: "BatchNorm"
  bottom: "concat1_1"
  top: "conv1_2/bn"
  param {
    lr_mult: 0
    decay_mult: 0
  }
  param {
    lr_mult: 0
    decay_mult: 0
  }
  param {
    lr_mult: 0
    decay_mult: 0
  }
}
layer {
  name: "conv1_2/scale"
  type: "Scale"
  bottom: "conv1_2/bn"
  top: "conv1_2/bn"
  scale_param {
    filler {
      value: 1
    }
    bias_term: true
    bias_filler {
      value: 0
    }
  }
}
layer {
  name: "relu1_2"
  type: "ReLU"
  bottom: "conv1_2/bn"
  top: "conv1_2/bn"
}
layer {
  name: "conv1_2"
  type: "Convolution"
  bottom: "conv1_2/bn"
  top: "conv1_2"
  convolution_param {
    num_output: 32
    bias_term: false
    pad: 1
    kernel_size: 3
    stride: 1
    weight_filler {
      type: "msra"
    }
    bias_filler {
      type: "constant"
    }
    engine: CUDNN
  }
}
layer {
  name: "concat1_2"
  type: "Concat"
  bottom: "concat1_1"
  bottom: "conv1_2"
  top: "concat1_2"
  concat_param {
    axis: 1
  }
}
layer {
  name: "conv1_3/bn"
  type: "BatchNorm"
  bottom: "concat1_2"
  top: "conv1_3/bn"
  param {
    lr_mult: 0
    decay_mult: 0
  }
  param {
    lr_mult: 0
    decay_mult: 0
  }
  param {
    lr_mult: 0
    decay_mult: 0
  }
}
layer {
  name: "conv1_3/scale"
  type: "Scale"
  bottom: "conv1_3/bn"
  top: "conv1_3/bn"
  scale_param {
    filler {
      value: 1
    }
    bias_term: true
    bias_filler {
      value: 0
    }
  }
}
layer {
  name: "relu1_3"
  type: "ReLU"
  bottom: "conv1_3/bn"
  top: "conv1_3/bn"
}
layer {
  name: "conv1_3"
  type: "Convolution"
  bottom: "conv1_3/bn"
  top: "conv1_3"
  convolution_param {
    num_output: 32
    bias_term: false
    pad: 1
    kernel_size: 3
    stride: 1
    weight_filler {
      type: "msra"
    }
    bias_filler {
      type: "constant"
    }
    engine: CUDNN
  }
}
layer {
  name: "concat1_3"
  type: "Concat"
  bottom: "concat1_2"
  bottom: "conv1_3"
  top: "concat1_3"
  concat_param {
    axis: 1
  }
}
layer {
  name: "conv1_4/bn"
  type: "BatchNorm"
  bottom: "concat1_3"
  top: "conv1_4/bn"
  param {
    lr_mult: 0
    decay_mult: 0
  }
  param {
    lr_mult: 0
    decay_mult: 0
  }
  param {
    lr_mult: 0
    decay_mult: 0
  }
}
layer {
  name: "conv1_4/scale"
  type: "Scale"
  bottom: "conv1_4/bn"
  top: "conv1_4/bn"
  scale_param {
    filler {
      value: 1
    }
    bias_term: true
    bias_filler {
      value: 0
    }
  }
}
layer {
  name: "relu1_4"
  type: "ReLU"
  bottom: "conv1_4/bn"
  top: "conv1_4/bn"
}
layer {
  name: "conv1_4"
  type: "Convolution"
  bottom: "conv1_4/bn"
  top: "conv1_4"
  convolution_param {
    num_output: 32
    bias_term: false
    pad: 1
    kernel_size: 3
    stride: 1
    weight_filler {
      type: "msra"
    }
    bias_filler {
      type: "constant"
    }
    engine: CUDNN
  }
}
layer {
  name: "concat1_4"
  type: "Concat"
  bottom: "concat1_3"
  bottom: "conv1_4"
  top: "concat1_4"
  concat_param {
    axis: 1
  }
}
layer {
  name: "conv1_5/bn"
  type: "BatchNorm"
  bottom: "concat1_4"
  top: "conv1_5/bn"
  param {
    lr_mult: 0
    decay_mult: 0
  }
  param {
    lr_mult: 0
    decay_mult: 0
  }
  param {
    lr_mult: 0
    decay_mult: 0
  }
}
layer {
  name: "conv1_5/scale"
  type: "Scale"
  bottom: "conv1_5/bn"
  top: "conv1_5/bn"
  scale_param {
    filler {
      value: 1
    }
    bias_term: true
    bias_filler {
      value: 0
    }
  }
}
layer {
  name: "relu1_5"
  type: "ReLU"
  bottom: "conv1_5/bn"
  top: "conv1_5/bn"
}
layer {
  name: "conv1_5"
  type: "Convolution"
  bottom: "conv1_5/bn"
  top: "conv1_5"
  convolution_param {
    num_output: 32
    bias_term: false
    pad: 1
    kernel_size: 3
    stride: 1
    weight_filler {
      type: "msra"
    }
    bias_filler {
      type: "constant"
    }
    engine: CUDNN
  }
}
layer {
  name: "concat1_5"
  type: "Concat"
  bottom: "concat1_4"
  bottom: "conv1_5"
  top: "concat1_5"
  concat_param {
    axis: 1
  }
}
layer {
  name: "conv1_6/bn"
  type: "BatchNorm"
  bottom: "concat1_5"
  top: "conv1_6/bn"
  param {
    lr_mult: 0
    decay_mult: 0
  }
  param {
    lr_mult: 0
    decay_mult: 0
  }
  param {
    lr_mult: 0
    decay_mult: 0
  }
}
layer {
  name: "conv1_6/scale"
  type: "Scale"
  bottom: "conv1_6/bn"
  top: "conv1_6/bn"
  scale_param {
    filler {
      value: 1
    }
    bias_term: true
    bias_filler {
      value: 0
    }
  }
}
layer {
  name: "relu1_6"
  type: "ReLU"
  bottom: "conv1_6/bn"
  top: "conv1_6/bn"
}
layer {
  name: "conv1_6"
  type: "Convolution"
  bottom: "conv1_6/bn"
  top: "conv1_6"
  convolution_param {
    num_output: 32
    bias_term: false
    pad: 1
    kernel_size: 3
    stride: 1
    weight_filler {
      type: "msra"
    }
    bias_filler {
      type: "constant"
    }
    engine: CUDNN
  }
}
layer {
  name: "concat1_6"
  type: "Concat"
  bottom: "concat1_5"
  bottom: "conv1_6"
  top: "concat1_6"
  concat_param {
    axis: 1
  }
}
layer {
  name: "conv1_7/bn"
  type: "BatchNorm"
  bottom: "concat1_6"
  top: "conv1_7/bn"
  param {
    lr_mult: 0
    decay_mult: 0
  }
  param {
    lr_mult: 0
    decay_mult: 0
  }
  param {
    lr_mult: 0
    decay_mult: 0
  }
}
layer {
  name: "conv1_7/scale"
  type: "Scale"
  bottom: "conv1_7/bn"
  top: "conv1_7/bn"
  scale_param {
    filler {
      value: 1
    }
    bias_term: true
    bias_filler {
      value: 0
    }
  }
}
layer {
  name: "relu1_7"
  type: "ReLU"
  bottom: "conv1_7/bn"
  top: "conv1_7/bn"
}
layer {
  name: "conv1_7"
  type: "Convolution"
  bottom: "conv1_7/bn"
  top: "conv1_7"
  convolution_param {
    num_output: 32
    bias_term: false
    pad: 1
    kernel_size: 3
    stride: 1
    weight_filler {
      type: "msra"
    }
    bias_filler {
      type: "constant"
    }
    engine: CUDNN
  }
}
layer {
  name: "concat1_7"
  type: "Concat"
  bottom: "concat1_6"
  bottom: "conv1_7"
  top: "concat1_7"
  concat_param {
    axis: 1
  }
}
layer {
  name: "conv1_8/bn"
  type: "BatchNorm"
  bottom: "concat1_7"
  top: "conv1_8/bn"
  param {
    lr_mult: 0
    decay_mult: 0
  }
  param {
    lr_mult: 0
    decay_mult: 0
  }
  param {
    lr_mult: 0
    decay_mult: 0
  }
}
layer {
  name: "conv1_8/scale"
  type: "Scale"
  bottom: "conv1_8/bn"
  top: "conv1_8/bn"
  scale_param {
    filler {
      value: 1
    }
    bias_term: true
    bias_filler {
      value: 0
    }
  }
}
layer {
  name: "relu1_8"
  type: "ReLU"
  bottom: "conv1_8/bn"
  top: "conv1_8/bn"
}
layer {
  name: "conv1_8"
  type: "Convolution"
  bottom: "conv1_8/bn"
  top: "conv1_8"
  convolution_param {
    num_output: 32
    bias_term: false
    pad: 1
    kernel_size: 3
    stride: 1
    weight_filler {
      type: "msra"
    }
    bias_filler {
      type: "constant"
    }
    engine: CUDNN
  }
}
layer {
  name: "concat1_8"
  type: "Concat"
  bottom: "concat1_7"
  bottom: "conv1_8"
  top: "concat1_8"
  concat_param {
    axis: 1
  }
}
layer {
  name: "conv1_9/bn"
  type: "BatchNorm"
  bottom: "concat1_8"
  top: "conv1_9/bn"
  param {
    lr_mult: 0
    decay_mult: 0
  }
  param {
    lr_mult: 0
    decay_mult: 0
  }
  param {
    lr_mult: 0
    decay_mult: 0
  }
}
layer {
  name: "conv1_9/scale"
  type: "Scale"
  bottom: "conv1_9/bn"
  top: "conv1_9/bn"
  scale_param {
    filler {
      value: 1
    }
    bias_term: true
    bias_filler {
      value: 0
    }
  }
}
layer {
  name: "relu1_9"
  type: "ReLU"
  bottom: "conv1_9/bn"
  top: "conv1_9/bn"
}
layer {
  name: "conv1_9"
  type: "Convolution"
  bottom: "conv1_9/bn"
  top: "conv1_9"
  convolution_param {
    num_output: 32
    bias_term: false
    pad: 1
    kernel_size: 3
    stride: 1
    weight_filler {
      type: "msra"
    }
    bias_filler {
      type: "constant"
    }
    engine: CUDNN
  }
}
layer {
  name: "concat1_9"
  type: "Concat"
  bottom: "concat1_8"
  bottom: "conv1_9"
  top: "concat1_9"
  concat_param {
    axis: 1
  }
}
layer {
  name: "conv1_10/bn"
  type: "BatchNorm"
  bottom: "concat1_9"
  top: "conv1_10/bn"
  param {
    lr_mult: 0
    decay_mult: 0
  }
  param {
    lr_mult: 0
    decay_mult: 0
  }
  param {
    lr_mult: 0
    decay_mult: 0
  }
}
layer {
  name: "conv1_10/scale"
  type: "Scale"
  bottom: "conv1_10/bn"
  top: "conv1_10/bn"
  scale_param {
    filler {
      value: 1
    }
    bias_term: true
    bias_filler {
      value: 0
    }
  }
}
layer {
  name: "relu1_10"
  type: "ReLU"
  bottom: "conv1_10/bn"
  top: "conv1_10/bn"
}
layer {
  name: "conv1_10"
  type: "Convolution"
  bottom: "conv1_10/bn"
  top: "conv1_10"
  convolution_param {
    num_output: 32
    bias_term: false
    pad: 1
    kernel_size: 3
    stride: 1
    weight_filler {
      type: "msra"
    }
    bias_filler {
      type: "constant"
    }
    engine: CUDNN
  }
}
layer {
  name: "concat1_10"
  type: "Concat"
  bottom: "concat1_9"
  bottom: "conv1_10"
  top: "concat1_10"
  concat_param {
    axis: 1
  }
}
layer {
  name: "conv1_11/bn"
  type: "BatchNorm"
  bottom: "concat1_10"
  top: "conv1_11/bn"
  param {
    lr_mult: 0
    decay_mult: 0
  }
  param {
    lr_mult: 0
    decay_mult: 0
  }
  param {
    lr_mult: 0
    decay_mult: 0
  }
}
layer {
  name: "conv1_11/scale"
  type: "Scale"
  bottom: "conv1_11/bn"
  top: "conv1_11/bn"
  scale_param {
    filler {
      value: 1
    }
    bias_term: true
    bias_filler {
      value: 0
    }
  }
}
layer {
  name: "relu1_11"
  type: "ReLU"
  bottom: "conv1_11/bn"
  top: "conv1_11/bn"
}
layer {
  name: "conv1_11"
  type: "Convolution"
  bottom: "conv1_11/bn"
  top: "conv1_11"
  convolution_param {
    num_output: 32
    bias_term: false
    pad: 1
    kernel_size: 3
    stride: 1
    weight_filler {
      type: "msra"
    }
    bias_filler {
      type: "constant"
    }
    engine: CUDNN
  }
}
layer {
  name: "concat1_11"
  type: "Concat"
  bottom: "concat1_10"
  bottom: "conv1_11"
  top: "concat1_11"
  concat_param {
    axis: 1
  }
}
layer {
  name: "conv1_12/bn"
  type: "BatchNorm"
  bottom: "concat1_11"
  top: "conv1_12/bn"
  param {
    lr_mult: 0
    decay_mult: 0
  }
  param {
    lr_mult: 0
    decay_mult: 0
  }
  param {
    lr_mult: 0
    decay_mult: 0
  }
}
layer {
  name: "conv1_12/scale"
  type: "Scale"
  bottom: "conv1_12/bn"
  top: "conv1_12/bn"
  scale_param {
    filler {
      value: 1
    }
    bias_term: true
    bias_filler {
      value: 0
    }
  }
}
layer {
  name: "relu1_12"
  type: "ReLU"
  bottom: "conv1_12/bn"
  top: "conv1_12/bn"
}
layer {
  name: "conv1_12"
  type: "Convolution"
  bottom: "conv1_12/bn"
  top: "conv1_12"
  convolution_param {
    num_output: 32
    bias_term: false
    pad: 1
    kernel_size: 3
    stride: 1
    weight_filler {
      type: "msra"
    }
    bias_filler {
      type: "constant"
    }
    engine: CUDNN
  }
}
layer {
  name: "c
I0126 12:00:37.198894  9477 layer_factory.hpp:77] Creating layer word_images
I0126 12:00:37.199072  9477 db_lmdb.cpp:35] Opened lmdb /data/fwolf/iam_50000/iam-db_nti500000_pul2-3-4-5_train_word_images_lmdb
I0126 12:00:37.199151  9477 net.cpp:84] Creating Layer word_images
I0126 12:00:37.199167  9477 net.cpp:380] word_images -> word_images
I0126 12:00:37.199189  9477 net.cpp:380] word_images -> label
I0126 12:00:37.200973  9477 data_layer.cpp:44] output data size: 1,1,79,231
I0126 12:00:37.214010  9477 net.cpp:122] Setting up word_images
I0126 12:00:37.214058  9477 net.cpp:129] Top shape: 1 1 79 231 (18249)
I0126 12:00:37.214068  9477 net.cpp:129] Top shape: 1 (1)
I0126 12:00:37.214073  9477 net.cpp:137] Memory required for data: 73000
I0126 12:00:37.214085  9477 layer_factory.hpp:77] Creating layer phocs
I0126 12:00:37.214195  9477 db_lmdb.cpp:35] Opened lmdb /data/fwolf/iam_50000/iam-db_nti500000_pul2-3-4-5_train_phocs_lmdb
I0126 12:00:37.214251  9477 net.cpp:84] Creating Layer phocs
I0126 12:00:37.214272  9477 net.cpp:380] phocs -> phocs
I0126 12:00:37.214292  9477 net.cpp:380] phocs -> label_phocs
I0126 12:00:37.223103  9477 data_layer.cpp:44] output data size: 1,1,1,618
I0126 12:00:37.263286  9477 net.cpp:122] Setting up phocs
I0126 12:00:37.263329  9477 net.cpp:129] Top shape: 1 1 1 618 (618)
I0126 12:00:37.263335  9477 net.cpp:129] Top shape: 1 (1)
I0126 12:00:37.263339  9477 net.cpp:137] Memory required for data: 75476
I0126 12:00:37.263347  9477 layer_factory.hpp:77] Creating layer conv_init
I0126 12:00:37.263368  9477 net.cpp:84] Creating Layer conv_init
I0126 12:00:37.263375  9477 net.cpp:406] conv_init <- word_images
I0126 12:00:37.263388  9477 net.cpp:380] conv_init -> conv_init
I0126 12:00:38.628746  9477 net.cpp:122] Setting up conv_init
I0126 12:00:38.628785  9477 net.cpp:129] Top shape: 1 32 79 231 (583968)
I0126 12:00:38.628792  9477 net.cpp:137] Memory required for data: 2411348
I0126 12:00:38.628806  9477 layer_factory.hpp:77] Creating layer bn_init
I0126 12:00:38.628820  9477 net.cpp:84] Creating Layer bn_init
I0126 12:00:38.628826  9477 net.cpp:406] bn_init <- conv_init
I0126 12:00:38.628834  9477 net.cpp:380] bn_init -> bn_init
I0126 12:00:38.629238  9477 net.cpp:122] Setting up bn_init
I0126 12:00:38.629247  9477 net.cpp:129] Top shape: 1 32 79 231 (583968)
I0126 12:00:38.629252  9477 net.cpp:137] Memory required for data: 4747220
I0126 12:00:38.629264  9477 layer_factory.hpp:77] Creating layer scale_init
I0126 12:00:38.629276  9477 net.cpp:84] Creating Layer scale_init
I0126 12:00:38.629281  9477 net.cpp:406] scale_init <- bn_init
I0126 12:00:38.629287  9477 net.cpp:367] scale_init -> bn_init (in-place)
I0126 12:00:38.629353  9477 layer_factory.hpp:77] Creating layer scale_init
I0126 12:00:38.629583  9477 net.cpp:122] Setting up scale_init
I0126 12:00:38.629593  9477 net.cpp:129] Top shape: 1 32 79 231 (583968)
I0126 12:00:38.629597  9477 net.cpp:137] Memory required for data: 7083092
I0126 12:00:38.629606  9477 layer_factory.hpp:77] Creating layer relu_init
I0126 12:00:38.629613  9477 net.cpp:84] Creating Layer relu_init
I0126 12:00:38.629618  9477 net.cpp:406] relu_init <- bn_init
I0126 12:00:38.629624  9477 net.cpp:367] relu_init -> bn_init (in-place)
I0126 12:00:38.630033  9477 net.cpp:122] Setting up relu_init
I0126 12:00:38.630048  9477 net.cpp:129] Top shape: 1 32 79 231 (583968)
I0126 12:00:38.630051  9477 net.cpp:137] Memory required for data: 9418964
I0126 12:00:38.630056  9477 layer_factory.hpp:77] Creating layer pool_init
I0126 12:00:38.630064  9477 net.cpp:84] Creating Layer pool_init
I0126 12:00:38.630069  9477 net.cpp:406] pool_init <- bn_init
I0126 12:00:38.630076  9477 net.cpp:380] pool_init -> pool_init
I0126 12:00:38.630156  9477 net.cpp:122] Setting up pool_init
I0126 12:00:38.630163  9477 net.cpp:129] Top shape: 1 32 40 116 (148480)
I0126 12:00:38.630167  9477 net.cpp:137] Memory required for data: 10012884
I0126 12:00:38.630172  9477 layer_factory.hpp:77] Creating layer pool_init_pool_init_0_split
I0126 12:00:38.630178  9477 net.cpp:84] Creating Layer pool_init_pool_init_0_split
I0126 12:00:38.630182  9477 net.cpp:406] pool_init_pool_init_0_split <- pool_init
I0126 12:00:38.630188  9477 net.cpp:380] pool_init_pool_init_0_split -> pool_init_pool_init_0_split_0
I0126 12:00:38.630197  9477 net.cpp:380] pool_init_pool_init_0_split -> pool_init_pool_init_0_split_1
I0126 12:00:38.630254  9477 net.cpp:122] Setting up pool_init_pool_init_0_split
I0126 12:00:38.630260  9477 net.cpp:129] Top shape: 1 32 40 116 (148480)
I0126 12:00:38.630266  9477 net.cpp:129] Top shape: 1 32 40 116 (148480)
I0126 12:00:38.630270  9477 net.cpp:137] Memory required for data: 11200724
I0126 12:00:38.630275  9477 layer_factory.hpp:77] Creating layer conv0_0/bn
I0126 12:00:38.630282  9477 net.cpp:84] Creating Layer conv0_0/bn
I0126 12:00:38.630286  9477 net.cpp:406] conv0_0/bn <- pool_init_pool_init_0_split_0
I0126 12:00:38.630292  9477 net.cpp:380] conv0_0/bn -> conv0_0/bn
I0126 12:00:38.644935  9477 net.cpp:122] Setting up conv0_0/bn
I0126 12:00:38.644971  9477 net.cpp:129] Top shape: 1 32 40 116 (148480)
I0126 12:00:38.644984  9477 net.cpp:137] Memory required for data: 11794644
I0126 12:00:38.645002  9477 layer_factory.hpp:77] Creating layer conv0_0/scale
I0126 12:00:38.645017  9477 net.cpp:84] Creating Layer conv0_0/scale
I0126 12:00:38.645023  9477 net.cpp:406] conv0_0/scale <- conv0_0/bn
I0126 12:00:38.645031  9477 net.cpp:367] conv0_0/scale -> conv0_0/bn (in-place)
I0126 12:00:38.645114  9477 layer_factory.hpp:77] Creating layer conv0_0/scale
I0126 12:00:38.645351  9477 net.cpp:122] Setting up conv0_0/scale
I0126 12:00:38.645360  9477 net.cpp:129] Top shape: 1 32 40 116 (148480)
I0126 12:00:38.645365  9477 net.cpp:137] Memory required for data: 12388564
I0126 12:00:38.645373  9477 layer_factory.hpp:77] Creating layer relu0_0
I0126 12:00:38.645380  9477 net.cpp:84] Creating Layer relu0_0
I0126 12:00:38.645385  9477 net.cpp:406] relu0_0 <- conv0_0/bn
I0126 12:00:38.645391  9477 net.cpp:367] relu0_0 -> conv0_0/bn (in-place)
I0126 12:00:38.645649  9477 net.cpp:122] Setting up relu0_0
I0126 12:00:38.645660  9477 net.cpp:129] Top shape: 1 32 40 116 (148480)
I0126 12:00:38.645664  9477 net.cpp:137] Memory required for data: 12982484
I0126 12:00:38.645669  9477 layer_factory.hpp:77] Creating layer conv0_0
I0126 12:00:38.645683  9477 net.cpp:84] Creating Layer conv0_0
I0126 12:00:38.645686  9477 net.cpp:406] conv0_0 <- conv0_0/bn
I0126 12:00:38.645694  9477 net.cpp:380] conv0_0 -> conv0_0
I0126 12:00:38.647610  9477 net.cpp:122] Setting up conv0_0
I0126 12:00:38.647627  9477 net.cpp:129] Top shape: 1 32 40 116 (148480)
I0126 12:00:38.647632  9477 net.cpp:137] Memory required for data: 13576404
I0126 12:00:38.647640  9477 layer_factory.hpp:77] Creating layer concat0_0
I0126 12:00:38.647650  9477 net.cpp:84] Creating Layer concat0_0
I0126 12:00:38.647656  9477 net.cpp:406] concat0_0 <- pool_init_pool_init_0_split_1
I0126 12:00:38.647662  9477 net.cpp:406] concat0_0 <- conv0_0
I0126 12:00:38.647670  9477 net.cpp:380] concat0_0 -> concat0_0
I0126 12:00:38.647718  9477 net.cpp:122] Setting up concat0_0
I0126 12:00:38.647728  9477 net.cpp:129] Top shape: 1 64 40 116 (296960)
I0126 12:00:38.647732  9477 net.cpp:137] Memory required for data: 14764244
I0126 12:00:38.647737  9477 layer_factory.hpp:77] Creating layer concat0_0_concat0_0_0_split
I0126 12:00:38.647743  9477 net.cpp:84] Creating Layer concat0_0_concat0_0_0_split
I0126 12:00:38.647754  9477 net.cpp:406] concat0_0_concat0_0_0_split <- concat0_0
I0126 12:00:38.647761  9477 net.cpp:380] concat0_0_concat0_0_0_split -> concat0_0_concat0_0_0_split_0
I0126 12:00:38.647768  9477 net.cpp:380] concat0_0_concat0_0_0_split -> concat0_0_concat0_0_0_split_1
I0126 12:00:38.647840  9477 net.cpp:122] Setting up concat0_0_concat0_0_0_split
I0126 12:00:38.647847  9477 net.cpp:129] Top shape: 1 64 40 116 (296960)
I0126 12:00:38.647855  9477 net.cpp:129] Top shape: 1 64 40 116 (296960)
I0126 12:00:38.647858  9477 net.cpp:137] Memory required for data: 17139924
I0126 12:00:38.647862  9477 layer_factory.hpp:77] Creating layer conv0_1/bn
I0126 12:00:38.647871  9477 net.cpp:84] Creating Layer conv0_1/bn
I0126 12:00:38.647874  9477 net.cpp:406] conv0_1/bn <- concat0_0_concat0_0_0_split_0
I0126 12:00:38.647882  9477 net.cpp:380] conv0_1/bn -> conv0_1/bn
I0126 12:00:38.648268  9477 net.cpp:122] Setting up conv0_1/bn
I0126 12:00:38.648277  9477 net.cpp:129] Top shape: 1 64 40 116 (296960)
I0126 12:00:38.648281  9477 net.cpp:137] Memory required for data: 18327764
I0126 12:00:38.648291  9477 layer_factory.hpp:77] Creating layer conv0_1/scale
I0126 12:00:38.648300  9477 net.cpp:84] Creating Layer conv0_1/scale
I0126 12:00:38.648305  9477 net.cpp:406] conv0_1/scale <- conv0_1/bn
I0126 12:00:38.648313  9477 net.cpp:367] conv0_1/scale -> conv0_1/bn (in-place)
I0126 12:00:38.648386  9477 layer_factory.hpp:77] Creating layer conv0_1/scale
I0126 12:00:38.648607  9477 net.cpp:122] Setting up conv0_1/scale
I0126 12:00:38.648617  9477 net.cpp:129] Top shape: 1 64 40 116 (296960)
I0126 12:00:38.648622  9477 net.cpp:137] Memory required for data: 19515604
I0126 12:00:38.648633  9477 layer_factory.hpp:77] Creating layer relu0_1
I0126 12:00:38.648648  9477 net.cpp:84] Creating Layer relu0_1
I0126 12:00:38.648653  9477 net.cpp:406] relu0_1 <- conv0_1/bn
I0126 12:00:38.648658  9477 net.cpp:367] relu0_1 -> conv0_1/bn (in-place)
I0126 12:00:38.649176  9477 net.cpp:122] Setting up relu0_1
I0126 12:00:38.649194  9477 net.cpp:129] Top shape: 1 64 40 116 (296960)
I0126 12:00:38.649199  9477 net.cpp:137] Memory required for data: 20703444
I0126 12:00:38.649202  9477 layer_factory.hpp:77] Creating layer conv0_1
I0126 12:00:38.649217  9477 net.cpp:84] Creating Layer conv0_1
I0126 12:00:38.649222  9477 net.cpp:406] conv0_1 <- conv0_1/bn
I0126 12:00:38.649232  9477 net.cpp:380] conv0_1 -> conv0_1
I0126 12:00:38.651492  9477 net.cpp:122] Setting up conv0_1
I0126 12:00:38.651515  9477 net.cpp:129] Top shape: 1 32 40 116 (148480)
I0126 12:00:38.651518  9477 net.cpp:137] Memory required for data: 21297364
I0126 12:00:38.651527  9477 layer_factory.hpp:77] Creating layer concat0_1
I0126 12:00:38.651540  9477 net.cpp:84] Creating Layer concat0_1
I0126 12:00:38.651545  9477 net.cpp:406] concat0_1 <- concat0_0_concat0_0_0_split_1
I0126 12:00:38.651551  9477 net.cpp:406] concat0_1 <- conv0_1
I0126 12:00:38.651557  9477 net.cpp:380] concat0_1 -> concat0_1
I0126 12:00:38.651610  9477 net.cpp:122] Setting up concat0_1
I0126 12:00:38.651619  9477 net.cpp:129] Top shape: 1 96 40 116 (445440)
I0126 12:00:38.651623  9477 net.cpp:137] Memory required for data: 23079124
I0126 12:00:38.651628  9477 layer_factory.hpp:77] Creating layer concat0_1_concat0_1_0_split
I0126 12:00:38.651634  9477 net.cpp:84] Creating Layer concat0_1_concat0_1_0_split
I0126 12:00:38.651639  9477 net.cpp:406] concat0_1_concat0_1_0_split <- concat0_1
I0126 12:00:38.651645  9477 net.cpp:380] concat0_1_concat0_1_0_split -> concat0_1_concat0_1_0_split_0
I0126 12:00:38.651652  9477 net.cpp:380] concat0_1_concat0_1_0_split -> concat0_1_concat0_1_0_split_1
I0126 12:00:38.651716  9477 net.cpp:122] Setting up concat0_1_concat0_1_0_split
I0126 12:00:38.651726  9477 net.cpp:129] Top shape: 1 96 40 116 (445440)
I0126 12:00:38.651731  9477 net.cpp:129] Top shape: 1 96 40 116 (445440)
I0126 12:00:38.651736  9477 net.cpp:137] Memory required for data: 26642644
I0126 12:00:38.651738  9477 layer_factory.hpp:77] Creating layer conv0_2/bn
I0126 12:00:38.659757  9477 net.cpp:84] Creating Layer conv0_2/bn
I0126 12:00:38.659793  9477 net.cpp:406] conv0_2/bn <- concat0_1_concat0_1_0_split_0
I0126 12:00:38.659813  9477 net.cpp:380] conv0_2/bn -> conv0_2/bn
I0126 12:00:38.660348  9477 net.cpp:122] Setting up conv0_2/bn
I0126 12:00:38.660362  9477 net.cpp:129] Top shape: 1 96 40 116 (445440)
I0126 12:00:38.660367  9477 net.cpp:137] Memory required for data: 28424404
I0126 12:00:38.660378  9477 layer_factory.hpp:77] Creating layer conv0_2/scale
I0126 12:00:38.660390  9477 net.cpp:84] Creating Layer conv0_2/scale
I0126 12:00:38.660395  9477 net.cpp:406] conv0_2/scale <- conv0_2/bn
I0126 12:00:38.660403  9477 net.cpp:367] conv0_2/scale -> conv0_2/bn (in-place)
I0126 12:00:38.660476  9477 layer_factory.hpp:77] Creating layer conv0_2/scale
I0126 12:00:38.660712  9477 net.cpp:122] Setting up conv0_2/scale
I0126 12:00:38.660720  9477 net.cpp:129] Top shape: 1 96 40 116 (445440)
I0126 12:00:38.660725  9477 net.cpp:137] Memory required for data: 30206164
I0126 12:00:38.660732  9477 layer_factory.hpp:77] Creating layer relu0_2
I0126 12:00:38.660740  9477 net.cpp:84] Creating Layer relu0_2
I0126 12:00:38.660744  9477 net.cpp:406] relu0_2 <- conv0_2/bn
I0126 12:00:38.660750  9477 net.cpp:367] relu0_2 -> conv0_2/bn (in-place)
I0126 12:00:38.661038  9477 net.cpp:122] Setting up relu0_2
I0126 12:00:38.661051  9477 net.cpp:129] Top shape: 1 96 40 116 (445440)
I0126 12:00:38.661054  9477 net.cpp:137] Memory required for data: 31987924
I0126 12:00:38.661058  9477 layer_factory.hpp:77] Creating layer conv0_2
I0126 12:00:38.661073  9477 net.cpp:84] Creating Layer conv0_2
I0126 12:00:38.661077  9477 net.cpp:406] conv0_2 <- conv0_2/bn
I0126 12:00:38.661085  9477 net.cpp:380] conv0_2 -> conv0_2
I0126 12:00:38.663260  9477 net.cpp:122] Setting up conv0_2
I0126 12:00:38.663295  9477 net.cpp:129] Top shape: 1 32 40 116 (148480)
I0126 12:00:38.663300  9477 net.cpp:137] Memory required for data: 32581844
I0126 12:00:38.663308  9477 layer_factory.hpp:77] Creating layer concat0_2
I0126 12:00:38.663319  9477 net.cpp:84] Creating Layer concat0_2
I0126 12:00:38.663326  9477 net.cpp:406] concat0_2 <- concat0_1_concat0_1_0_split_1
I0126 12:00:38.663331  9477 net.cpp:406] concat0_2 <- conv0_2
I0126 12:00:38.663336  9477 net.cpp:380] concat0_2 -> concat0_2
I0126 12:00:38.663383  9477 net.cpp:122] Setting up concat0_2
I0126 12:00:38.663389  9477 net.cpp:129] Top shape: 1 128 40 116 (593920)
I0126 12:00:38.663393  9477 net.cpp:137] Memory required for data: 34957524
I0126 12:00:38.663395  9477 layer_factory.hpp:77] Creating layer concat0_2_concat0_2_0_split
I0126 12:00:38.663400  9477 net.cpp:84] Creating Layer concat0_2_concat0_2_0_split
I0126 12:00:38.663403  9477 net.cpp:406] concat0_2_concat0_2_0_split <- concat0_2
I0126 12:00:38.663408  9477 net.cpp:380] concat0_2_concat0_2_0_split -> concat0_2_concat0_2_0_split_0
I0126 12:00:38.663414  9477 net.cpp:380] concat0_2_concat0_2_0_split -> concat0_2_concat0_2_0_split_1
I0126 12:00:38.663462  9477 net.cpp:122] Setting up concat0_2_concat0_2_0_split
I0126 12:00:38.663468  9477 net.cpp:129] Top shape: 1 128 40 116 (593920)
I0126 12:00:38.663472  9477 net.cpp:129] Top shape: 1 128 40 116 (593920)
I0126 12:00:38.663475  9477 net.cpp:137] Memory required for data: 39708884
I0126 12:00:38.663477  9477 layer_factory.hpp:77] Creating layer conv0_3/bn
I0126 12:00:38.663483  9477 net.cpp:84] Creating Layer conv0_3/bn
I0126 12:00:38.663486  9477 net.cpp:406] conv0_3/bn <- concat0_2_concat0_2_0_split_0
I0126 12:00:38.663491  9477 net.cpp:380] conv0_3/bn -> conv0_3/bn
I0126 12:00:38.667886  9477 net.cpp:122] Setting up conv0_3/bn
I0126 12:00:38.667909  9477 net.cpp:129] Top shape: 1 128 40 116 (593920)
I0126 12:00:38.667912  9477 net.cpp:137] Memory required for data: 42084564
I0126 12:00:38.667922  9477 layer_factory.hpp:77] Creating layer conv0_3/scale
I0126 12:00:38.667937  9477 net.cpp:84] Creating Layer conv0_3/scale
I0126 12:00:38.667942  9477 net.cpp:406] conv0_3/scale <- conv0_3/bn
I0126 12:00:38.667948  9477 net.cpp:367] conv0_3/scale -> conv0_3/bn (in-place)
I0126 12:00:38.668009  9477 layer_factory.hpp:77] Creating layer conv0_3/scale
I0126 12:00:38.668190  9477 net.cpp:122] Setting up conv0_3/scale
I0126 12:00:38.668195  9477 net.cpp:129] Top shape: 1 128 40 116 (593920)
I0126 12:00:38.668197  9477 net.cpp:137] Memory required for data: 44460244
I0126 12:00:38.668202  9477 layer_factory.hpp:77] Creating layer relu0_3
I0126 12:00:38.668210  9477 net.cpp:84] Creating Layer relu0_3
I0126 12:00:38.668211  9477 net.cpp:406] relu0_3 <- conv0_3/bn
I0126 12:00:38.668215  9477 net.cpp:367] relu0_3 -> conv0_3/bn (in-place)
I0126 12:00:38.668699  9477 net.cpp:122] Setting up relu0_3
I0126 12:00:38.668711  9477 net.cpp:129] Top shape: 1 128 40 116 (593920)
I0126 12:00:38.668715  9477 net.cpp:137] Memory required for data: 46835924
I0126 12:00:38.668717  9477 layer_factory.hpp:77] Creating layer conv0_3
I0126 12:00:38.668728  9477 net.cpp:84] Creating Layer conv0_3
I0126 12:00:38.668732  9477 net.cpp:406] conv0_3 <- conv0_3/bn
I0126 12:00:38.668737  9477 net.cpp:380] conv0_3 -> conv0_3
I0126 12:00:38.676865  9477 net.cpp:122] Setting up conv0_3
I0126 12:00:38.676895  9477 net.cpp:129] Top shape: 1 32 40 116 (148480)
I0126 12:00:38.676898  9477 net.cpp:137] Memory required for data: 47429844
I0126 12:00:38.676908  9477 layer_factory.hpp:77] Creating layer concat0_3
I0126 12:00:38.676918  9477 net.cpp:84] Creating Layer concat0_3
I0126 12:00:38.676921  9477 net.cpp:406] concat0_3 <- concat0_2_concat0_2_0_split_1
I0126 12:00:38.676928  9477 net.cpp:406] concat0_3 <- conv0_3
I0126 12:00:38.676934  9477 net.cpp:380] concat0_3 -> concat0_3
I0126 12:00:38.676975  9477 net.cpp:122] Setting up concat0_3
I0126 12:00:38.676980  9477 net.cpp:129] Top shape: 1 160 40 116 (742400)
I0126 12:00:38.676982  9477 net.cpp:137] Memory required for data: 50399444
I0126 12:00:38.676988  9477 layer_factory.hpp:77] Creating layer concat0_3_concat0_3_0_split
I0126 12:00:38.676993  9477 net.cpp:84] Creating Layer concat0_3_concat0_3_0_split
I0126 12:00:38.676996  9477 net.cpp:406] concat0_3_concat0_3_0_split <- concat0_3
I0126 12:00:38.677001  9477 net.cpp:380] concat0_3_concat0_3_0_split -> concat0_3_concat0_3_0_split_0
I0126 12:00:38.677006  9477 net.cpp:380] concat0_3_concat0_3_0_split -> concat0_3_concat0_3_0_split_1
I0126 12:00:38.677055  9477 net.cpp:122] Setting up concat0_3_concat0_3_0_split
I0126 12:00:38.677063  9477 net.cpp:129] Top shape: 1 160 40 116 (742400)
I0126 12:00:38.677067  9477 net.cpp:129] Top shape: 1 160 40 116 (742400)
I0126 12:00:38.677069  9477 net.cpp:137] Memory required for data: 56338644
I0126 12:00:38.677073  9477 layer_factory.hpp:77] Creating layer conv0_4/bn
I0126 12:00:38.677079  9477 net.cpp:84] Creating Layer conv0_4/bn
I0126 12:00:38.677083  9477 net.cpp:406] conv0_4/bn <- concat0_3_concat0_3_0_split_0
I0126 12:00:38.677086  9477 net.cpp:380] conv0_4/bn -> conv0_4/bn
I0126 12:00:38.677384  9477 net.cpp:122] Setting up conv0_4/bn
I0126 12:00:38.677390  9477 net.cpp:129] Top shape: 1 160 40 116 (742400)
I0126 12:00:38.677392  9477 net.cpp:137] Memory required for data: 59308244
I0126 12:00:38.677402  9477 layer_factory.hpp:77] Creating layer conv0_4/scale
I0126 12:00:38.677410  9477 net.cpp:84] Creating Layer conv0_4/scale
I0126 12:00:38.677413  9477 net.cpp:406] conv0_4/scale <- conv0_4/bn
I0126 12:00:38.677417  9477 net.cpp:367] conv0_4/scale -> conv0_4/bn (in-place)
I0126 12:00:38.677470  9477 layer_factory.hpp:77] Creating layer conv0_4/scale
I0126 12:00:38.677634  9477 net.cpp:122] Setting up conv0_4/scale
I0126 12:00:38.677640  9477 net.cpp:129] Top shape: 1 160 40 116 (742400)
I0126 12:00:38.677642  9477 net.cpp:137] Memory required for data: 62277844
I0126 12:00:38.677647  9477 layer_factory.hpp:77] Creating layer relu0_4
I0126 12:00:38.677654  9477 net.cpp:84] Creating Layer relu0_4
I0126 12:00:38.677655  9477 net.cpp:406] relu0_4 <- conv0_4/bn
I0126 12:00:38.677659  9477 net.cpp:367] relu0_4 -> conv0_4/bn (in-place)
I0126 12:00:38.678004  9477 net.cpp:122] Setting up relu0_4
I0126 12:00:38.678014  9477 net.cpp:129] Top shape: 1 160 40 116 (742400)
I0126 12:00:38.678017  9477 net.cpp:137] Memory required for data: 65247444
I0126 12:00:38.678020  9477 layer_factory.hpp:77] Creating layer conv0_4
I0126 12:00:38.678031  9477 net.cpp:84] Creating Layer conv0_4
I0126 12:00:38.678035  9477 net.cpp:406] conv0_4 <- conv0_4/bn
I0126 12:00:38.678040  9477 net.cpp:380] conv0_4 -> conv0_4
I0126 12:00:38.681311  9477 net.cpp:122] Setting up conv0_4
I0126 12:00:38.681332  9477 net.cpp:129] Top shape: 1 32 40 116 (148480)
I0126 12:00:38.681335  9477 net.cpp:137] Memory required for data: 65841364
I0126 12:00:38.681342  9477 layer_factory.hpp:77] Creating layer concat0_4
I0126 12:00:38.681349  9477 net.cpp:84] Creating Layer concat0_4
I0126 12:00:38.681354  9477 net.cpp:406] concat0_4 <- concat0_3_concat0_3_0_split_1
I0126 12:00:38.681358  9477 net.cpp:406] concat0_4 <- conv0_4
I0126 12:00:38.681363  9477 net.cpp:380] concat0_4 -> concat0_4
I0126 12:00:38.681404  9477 net.cpp:122] Setting up concat0_4
I0126 12:00:38.681411  9477 net.cpp:129] Top shape: 1 192 40 116 (890880)
I0126 12:00:38.681412  9477 net.cpp:137] Memory required for data: 69404884
I0126 12:00:38.681416  9477 layer_factory.hpp:77] Creating layer concat0_4_concat0_4_0_split
I0126 12:00:38.681419  9477 net.cpp:84] Creating Layer concat0_4_concat0_4_0_split
I0126 12:00:38.681422  9477 net.cpp:406] concat0_4_concat0_4_0_split <- concat0_4
I0126 12:00:38.681427  9477 net.cpp:380] concat0_4_concat0_4_0_split -> concat0_4_concat0_4_0_split_0
I0126 12:00:38.681435  9477 net.cpp:380] concat0_4_concat0_4_0_split -> concat0_4_concat0_4_0_split_1
I0126 12:00:38.681483  9477 net.cpp:122] Setting up concat0_4_concat0_4_0_split
I0126 12:00:38.681488  9477 net.cpp:129] Top shape: 1 192 40 116 (890880)
I0126 12:00:38.681491  9477 net.cpp:129] Top shape: 1 192 40 116 (890880)
I0126 12:00:38.681497  9477 net.cpp:137] Memory required for data: 76531924
I0126 12:00:38.681500  9477 layer_factory.hpp:77] Creating layer conv0_5/bn
I0126 12:00:38.681506  9477 net.cpp:84] Creating Layer conv0_5/bn
I0126 12:00:38.681509  9477 net.cpp:406] conv0_5/bn <- concat0_4_concat0_4_0_split_0
I0126 12:00:38.681514  9477 net.cpp:380] conv0_5/bn -> conv0_5/bn
I0126 12:00:38.681808  9477 net.cpp:122] Setting up conv0_5/bn
I0126 12:00:38.681813  9477 net.cpp:129] Top shape: 1 192 40 116 (890880)
I0126 12:00:38.681816  9477 net.cpp:137] Memory required for data: 80095444
I0126 12:00:38.681823  9477 layer_factory.hpp:77] Creating layer conv0_5/scale
I0126 12:00:38.681829  9477 net.cpp:84] Creating Layer conv0_5/scale
I0126 12:00:38.681833  9477 net.cpp:406] conv0_5/scale <- conv0_5/bn
I0126 12:00:38.681838  9477 net.cpp:367] conv0_5/scale -> conv0_5/bn (in-place)
I0126 12:00:38.681890  9477 layer_factory.hpp:77] Creating layer conv0_5/scale
I0126 12:00:38.682050  9477 net.cpp:122] Setting up conv0_5/scale
I0126 12:00:38.682057  9477 net.cpp:129] Top shape: 1 192 40 116 (890880)
I0126 12:00:38.682060  9477 net.cpp:137] Memory required for data: 83658964
I0126 12:00:38.682065  9477 layer_factory.hpp:77] Creating layer relu0_5
I0126 12:00:38.682070  9477 net.cpp:84] Creating Layer relu0_5
I0126 12:00:38.682072  9477 net.cpp:406] relu0_5 <- conv0_5/bn
I0126 12:00:38.682080  9477 net.cpp:367] relu0_5 -> conv0_5/bn (in-place)
I0126 12:00:38.682266  9477 net.cpp:122] Setting up relu0_5
I0126 12:00:38.682276  9477 net.cpp:129] Top shape: 1 192 40 116 (890880)
I0126 12:00:38.682278  9477 net.cpp:137] Memory required for data: 87222484
I0126 12:00:38.682281  9477 layer_factory.hpp:77] Creating layer conv0_5
I0126 12:00:38.682291  9477 net.cpp:84] Creating Layer conv0_5
I0126 12:00:38.682293  9477 net.cpp:406] conv0_5 <- conv0_5/bn
I0126 12:00:38.682298  9477 net.cpp:380] conv0_5 -> conv0_5
I0126 12:00:38.693547  9477 net.cpp:122] Setting up conv0_5
I0126 12:00:38.693583  9477 net.cpp:129] Top shape: 1 32 40 116 (148480)
I0126 12:00:38.693588  9477 net.cpp:137] Memory required for data: 87816404
I0126 12:00:38.693596  9477 layer_factory.hpp:77] Creating layer concat0_5
I0126 12:00:38.693608  9477 net.cpp:84] Creating Layer concat0_5
I0126 12:00:38.693612  9477 net.cpp:406] concat0_5 <- concat0_4_concat0_4_0_split_1
I0126 12:00:38.693619  9477 net.cpp:406] concat0_5 <- conv0_5
I0126 12:00:38.693624  9477 net.cpp:380] concat0_5 -> concat0_5
I0126 12:00:38.693681  9477 net.cpp:122] Setting up concat0_5
I0126 12:00:38.693686  9477 net.cpp:129] Top shape: 1 224 40 116 (1039360)
I0126 12:00:38.693689  9477 net.cpp:137] Memory required for data: 91973844
I0126 12:00:38.693691  9477 layer_factory.hpp:77] Creating layer concat0_5_concat0_5_0_split
I0126 12:00:38.693696  9477 net.cpp:84] Creating Layer concat0_5_concat0_5_0_split
I0126 12:00:38.693699  9477 net.cpp:406] concat0_5_concat0_5_0_split <- concat0_5
I0126 12:00:38.693704  9477 net.cpp:380] concat0_5_concat0_5_0_split -> concat0_5_concat0_5_0_split_0
I0126 12:00:38.693711  9477 net.cpp:380] concat0_5_concat0_5_0_split -> concat0_5_concat0_5_0_split_1
I0126 12:00:38.693763  9477 net.cpp:122] Setting up concat0_5_concat0_5_0_split
I0126 12:00:38.693768  9477 net.cpp:129] Top shape: 1 224 40 116 (1039360)
I0126 12:00:38.693773  9477 net.cpp:129] Top shape: 1 224 40 116 (1039360)
I0126 12:00:38.693774  9477 net.cpp:137] Memory required for data: 100288724
I0126 12:00:38.693776  9477 layer_factory.hpp:77] Creating layer conv0_6/bn
I0126 12:00:38.693783  9477 net.cpp:84] Creating Layer conv0_6/bn
I0126 12:00:38.693785  9477 net.cpp:406] conv0_6/bn <- concat0_5_concat0_5_0_split_0
I0126 12:00:38.693791  9477 net.cpp:380] conv0_6/bn -> conv0_6/bn
I0126 12:00:38.694145  9477 net.cpp:122] Setting up conv0_6/bn
I0126 12:00:38.694157  9477 net.cpp:129] Top shape: 1 224 40 116 (1039360)
I0126 12:00:38.694160  9477 net.cpp:137] Memory required for data: 104446164
I0126 12:00:38.694169  9477 layer_factory.hpp:77] Creating layer conv0_6/scale
I0126 12:00:38.694178  9477 net.cpp:84] Creating Layer conv0_6/scale
I0126 12:00:38.694188  9477 net.cpp:406] conv0_6/scale <- conv0_6/bn
I0126 12:00:38.694193  9477 net.cpp:367] conv0_6/scale -> conv0_6/bn (in-place)
I0126 12:00:38.694254  9477 layer_factory.hpp:77] Creating layer conv0_6/scale
I0126 12:00:38.694435  9477 net.cpp:122] Setting up conv0_6/scale
I0126 12:00:38.694444  9477 net.cpp:129] Top shape: 1 224 40 116 (1039360)
I0126 12:00:38.694447  9477 net.cpp:137] Memory required for data: 108603604
I0126 12:00:38.694452  9477 layer_factory.hpp:77] Creating layer relu0_6
I0126 12:00:38.694458  9477 net.cpp:84] Creating Layer relu0_6
I0126 12:00:38.694460  9477 net.cpp:406] relu0_6 <- conv0_6/bn
I0126 12:00:38.694464  9477 net.cpp:367] relu0_6 -> conv0_6/bn (in-place)
I0126 12:00:38.694952  9477 net.cpp:122] Setting up relu0_6
I0126 12:00:38.694964  9477 net.cpp:129] Top shape: 1 224 40 116 (1039360)
I0126 12:00:38.694967  9477 net.cpp:137] Memory required for data: 112761044
I0126 12:00:38.694969  9477 layer_factory.hpp:77] Creating layer conv0_6
I0126 12:00:38.694981  9477 net.cpp:84] Creating Layer conv0_6
I0126 12:00:38.694984  9477 net.cpp:406] conv0_6 <- conv0_6/bn
I0126 12:00:38.694991  9477 net.cpp:380] conv0_6 -> conv0_6
I0126 12:00:38.699477  9477 net.cpp:122] Setting up conv0_6
I0126 12:00:38.699509  9477 net.cpp:129] Top shape: 1 32 40 116 (148480)
I0126 12:00:38.699512  9477 net.cpp:137] Memory required for data: 113354964
I0126 12:00:38.699522  9477 layer_factory.hpp:77] Creating layer concat0_6
I0126 12:00:38.699535  9477 net.cpp:84] Creating Layer concat0_6
I0126 12:00:38.699542  9477 net.cpp:406] concat0_6 <- concat0_5_concat0_5_0_split_1
I0126 12:00:38.699546  9477 net.cpp:406] concat0_6 <- conv0_6
I0126 12:00:38.699551  9477 net.cpp:380] concat0_6 -> concat0_6
I0126 12:00:38.699600  9477 net.cpp:122] Setting up concat0_6
I0126 12:00:38.699606  9477 net.cpp:129] Top shape: 1 256 40 116 (1187840)
I0126 12:00:38.699609  9477 net.cpp:137] Memory required for data: 118106324
I0126 12:00:38.699611  9477 layer_factory.hpp:77] Creating layer concat0_6_concat0_6_0_split
I0126 12:00:38.699616  9477 net.cpp:84] Creating Layer concat0_6_concat0_6_0_split
I0126 12:00:38.699618  9477 net.cpp:406] concat0_6_concat0_6_0_split <- concat0_6
I0126 12:00:38.699623  9477 net.cpp:380] concat0_6_concat0_6_0_split -> concat0_6_concat0_6_0_split_0
I0126 12:00:38.699628  9477 net.cpp:380] concat0_6_concat0_6_0_split -> concat0_6_concat0_6_0_split_1
I0126 12:00:38.699678  9477 net.cpp:122] Setting up concat0_6_concat0_6_0_split
I0126 12:00:38.699683  9477 net.cpp:129] Top shape: 1 256 40 116 (1187840)
I0126 12:00:38.699687  9477 net.cpp:129] Top shape: 1 256 40 116 (1187840)
I0126 12:00:38.699688  9477 net.cpp:137] Memory required for data: 127609044
I0126 12:00:38.699690  9477 layer_factory.hpp:77] Creating layer conv0_7/bn
I0126 12:00:38.699697  9477 net.cpp:84] Creating Layer conv0_7/bn
I0126 12:00:38.699699  9477 net.cpp:406] conv0_7/bn <- concat0_6_concat0_6_0_split_0
I0126 12:00:38.699704  9477 net.cpp:380] conv0_7/bn -> conv0_7/bn
I0126 12:00:38.702435  9477 net.cpp:122] Setting up conv0_7/bn
I0126 12:00:38.702468  9477 net.cpp:129] Top shape: 1 256 40 116 (1187840)
I0126 12:00:38.702473  9477 net.cpp:137] Memory required for data: 132360404
I0126 12:00:38.702489  9477 layer_factory.hpp:77] Creating layer conv0_7/scale
I0126 12:00:38.702504  9477 net.cpp:84] Creating Layer conv0_7/scale
I0126 12:00:38.702512  9477 net.cpp:406] conv0_7/scale <- conv0_7/bn
I0126 12:00:38.702520  9477 net.cpp:367] conv0_7/scale -> conv0_7/bn (in-place)
I0126 12:00:38.702610  9477 layer_factory.hpp:77] Creating layer conv0_7/scale
I0126 12:00:38.702846  9477 net.cpp:122] Setting up conv0_7/scale
I0126 12:00:38.702857  9477 net.cpp:129] Top shape: 1 256 40 116 (1187840)
I0126 12:00:38.702860  9477 net.cpp:137] Memory required for data: 137111764
I0126 12:00:38.702869  9477 layer_factory.hpp:77] Creating layer relu0_7
I0126 12:00:38.702879  9477 net.cpp:84] Creating Layer relu0_7
I0126 12:00:38.702884  9477 net.cpp:406] relu0_7 <- conv0_7/bn
I0126 12:00:38.702889  9477 net.cpp:367] relu0_7 -> conv0_7/bn (in-place)
I0126 12:00:38.703212  9477 net.cpp:122] Setting up relu0_7
I0126 12:00:38.703224  9477 net.cpp:129] Top shape: 1 256 40 116 (1187840)
I0126 12:00:38.703228  9477 net.cpp:137] Memory required for data: 141863124
I0126 12:00:38.703233  9477 layer_factory.hpp:77] Creating layer conv0_7
I0126 12:00:38.703249  9477 net.cpp:84] Creating Layer conv0_7
I0126 12:00:38.703255  9477 net.cpp:406] conv0_7 <- conv0_7/bn
I0126 12:00:38.703264  9477 net.cpp:380] conv0_7 -> conv0_7
I0126 12:00:38.709338  9477 net.cpp:122] Setting up conv0_7
I0126 12:00:38.709379  9477 net.cpp:129] Top shape: 1 32 40 116 (148480)
I0126 12:00:38.709384  9477 net.cpp:137] Memory required for data: 142457044
I0126 12:00:38.709398  9477 layer_factory.hpp:77] Creating layer concat0_7
I0126 12:00:38.709412  9477 net.cpp:84] Creating Layer concat0_7
I0126 12:00:38.709419  9477 net.cpp:406] concat0_7 <- concat0_6_concat0_6_0_split_1
I0126 12:00:38.709427  9477 net.cpp:406] concat0_7 <- conv0_7
I0126 12:00:38.709435  9477 net.cpp:380] concat0_7 -> concat0_7
I0126 12:00:38.709523  9477 net.cpp:122] Setting up concat0_7
I0126 12:00:38.709532  9477 net.cpp:129] Top shape: 1 288 40 116 (1336320)
I0126 12:00:38.709535  9477 net.cpp:137] Memory required for data: 147802324
I0126 12:00:38.709539  9477 layer_factory.hpp:77] Creating layer concat0_7_concat0_7_0_split
I0126 12:00:38.709547  9477 net.cpp:84] Creating Layer concat0_7_concat0_7_0_split
I0126 12:00:38.709552  9477 net.cpp:406] concat0_7_concat0_7_0_split <- concat0_7
I0126 12:00:38.709561  9477 net.cpp:380] concat0_7_concat0_7_0_split -> concat0_7_concat0_7_0_split_0
I0126 12:00:38.709570  9477 net.cpp:380] concat0_7_concat0_7_0_split -> concat0_7_concat0_7_0_split_1
I0126 12:00:38.709666  9477 net.cpp:122] Setting up concat0_7_concat0_7_0_split
I0126 12:00:38.709678  9477 net.cpp:129] Top shape: 1 288 40 116 (1336320)
I0126 12:00:38.709683  9477 net.cpp:129] Top shape: 1 288 40 116 (1336320)
I0126 12:00:38.709686  9477 net.cpp:137] Memory required for data: 158492884
I0126 12:00:38.709691  9477 layer_factory.hpp:77] Creating layer conv0_8/bn
I0126 12:00:38.709699  9477 net.cpp:84] Creating Layer conv0_8/bn
I0126 12:00:38.709704  9477 net.cpp:406] conv0_8/bn <- concat0_7_concat0_7_0_split_0
I0126 12:00:38.709713  9477 net.cpp:380] conv0_8/bn -> conv0_8/bn
I0126 12:00:38.710235  9477 net.cpp:122] Setting up conv0_8/bn
I0126 12:00:38.710248  9477 net.cpp:129] Top shape: 1 288 40 116 (1336320)
I0126 12:00:38.710253  9477 net.cpp:137] Memory required for data: 163838164
I0126 12:00:38.710264  9477 layer_factory.hpp:77] Creating layer conv0_8/scale
I0126 12:00:38.710278  9477 net.cpp:84] Creating Layer conv0_8/scale
I0126 12:00:38.710283  9477 net.cpp:406] conv0_8/scale <- conv0_8/bn
I0126 12:00:38.710289  9477 net.cpp:367] conv0_8/scale -> conv0_8/bn (in-place)
I0126 12:00:38.710374  9477 layer_factory.hpp:77] Creating layer conv0_8/scale
I0126 12:00:38.710634  9477 net.cpp:122] Setting up conv0_8/scale
I0126 12:00:38.710644  9477 net.cpp:129] Top shape: 1 288 40 116 (1336320)
I0126 12:00:38.710649  9477 net.cpp:137] Memory required for data: 169183444
I0126 12:00:38.710656  9477 layer_factory.hpp:77] Creating layer relu0_8
I0126 12:00:38.710664  9477 net.cpp:84] Creating Layer relu0_8
I0126 12:00:38.710669  9477 net.cpp:406] relu0_8 <- conv0_8/bn
I0126 12:00:38.710675  9477 net.cpp:367] relu0_8 -> conv0_8/bn (in-place)
I0126 12:00:38.711242  9477 net.cpp:122] Setting up relu0_8
I0126 12:00:38.711256  9477 net.cpp:129] Top shape: 1 288 40 116 (1336320)
I0126 12:00:38.711261  9477 net.cpp:137] Memory required for data: 174528724
I0126 12:00:38.711266  9477 layer_factory.hpp:77] Creating layer conv0_8
I0126 12:00:38.711279  9477 net.cpp:84] Creating Layer conv0_8
I0126 12:00:38.711284  9477 net.cpp:406] conv0_8 <- conv0_8/bn
I0126 12:00:38.711293  9477 net.cpp:380] conv0_8 -> conv0_8
I0126 12:00:38.716660  9477 net.cpp:122] Setting up conv0_8
I0126 12:00:38.716698  9477 net.cpp:129] Top shape: 1 32 40 116 (148480)
I0126 12:00:38.716703  9477 net.cpp:137] Memory required for data: 175122644
I0126 12:00:38.716719  9477 layer_factory.hpp:77] Creating layer concat0_8
I0126 12:00:38.716733  9477 net.cpp:84] Creating Layer concat0_8
I0126 12:00:38.716740  9477 net.cpp:406] concat0_8 <- concat0_7_concat0_7_0_split_1
I0126 12:00:38.716749  9477 net.cpp:406] concat0_8 <- conv0_8
I0126 12:00:38.716756  9477 net.cpp:380] concat0_8 -> concat0_8
I0126 12:00:38.716816  9477 net.cpp:122] Setting up concat0_8
I0126 12:00:38.716825  9477 net.cpp:129] Top shape: 1 320 40 116 (1484800)
I0126 12:00:38.716830  9477 net.cpp:137] Memory required for data: 181061844
I0126 12:00:38.716833  9477 layer_factory.hpp:77] Creating layer concat0_8_concat0_8_0_split
I0126 12:00:38.716840  9477 net.cpp:84] Creating Layer concat0_8_concat0_8_0_split
I0126 12:00:38.716845  9477 net.cpp:406] concat0_8_concat0_8_0_split <- concat0_8
I0126 12:00:38.716850  9477 net.cpp:380] concat0_8_concat0_8_0_split -> concat0_8_concat0_8_0_split_0
I0126 12:00:38.716859  9477 net.cpp:380] concat0_8_concat0_8_0_split -> concat0_8_concat0_8_0_split_1
I0126 12:00:38.716938  9477 net.cpp:122] Setting up concat0_8_concat0_8_0_split
I0126 12:00:38.716945  9477 net.cpp:129] Top shape: 1 320 40 116 (1484800)
I0126 12:00:38.716951  9477 net.cpp:129] Top shape: 1 320 40 116 (1484800)
I0126 12:00:38.716955  9477 net.cpp:137] Memory required for data: 192940244
I0126 12:00:38.716959  9477 layer_factory.hpp:77] Creating layer conv0_9/bn
I0126 12:00:38.716966  9477 net.cpp:84] Creating Layer conv0_9/bn
I0126 12:00:38.716971  9477 net.cpp:406] conv0_9/bn <- concat0_8_concat0_8_0_split_0
I0126 12:00:38.716979  9477 net.cpp:380] conv0_9/bn -> conv0_9/bn
I0126 12:00:38.717521  9477 net.cpp:122] Setting up conv0_9/bn
I0126 12:00:38.717535  9477 net.cpp:129] Top shape: 1 320 40 116 (1484800)
I0126 12:00:38.717538  9477 net.cpp:137] Memory required for data: 198879444
I0126 12:00:38.717550  9477 layer_factory.hpp:77] Creating layer conv0_9/scale
I0126 12:00:38.717561  9477 net.cpp:84] Creating Layer conv0_9/scale
I0126 12:00:38.717566  9477 net.cpp:406] conv0_9/scale <- conv0_9/bn
I0126 12:00:38.717573  9477 net.cpp:367] conv0_9/scale -> conv0_9/bn (in-place)
I0126 12:00:38.717655  9477 layer_factory.hpp:77] Creating layer conv0_9/scale
I0126 12:00:38.717900  9477 net.cpp:122] Setting up conv0_9/scale
I0126 12:00:38.717908  9477 net.cpp:129] Top shape: 1 320 40 116 (1484800)
I0126 12:00:38.717912  9477 net.cpp:137] Memory required for data: 204818644
I0126 12:00:38.717927  9477 layer_factory.hpp:77] Creating layer relu0_9
I0126 12:00:38.717938  9477 net.cpp:84] Creating Layer relu0_9
I0126 12:00:38.717943  9477 net.cpp:406] relu0_9 <- conv0_9/bn
I0126 12:00:38.717949  9477 net.cpp:367] relu0_9 -> conv0_9/bn (in-place)
I0126 12:00:38.718395  9477 net.cpp:122] Setting up relu0_9
I0126 12:00:38.718410  9477 net.cpp:129] Top shape: 1 320 40 116 (1484800)
I0126 12:00:38.718413  9477 net.cpp:137] Memory required for data: 210757844
I0126 12:00:38.718418  9477 layer_factory.hpp:77] Creating layer conv0_9
I0126 12:00:38.718432  9477 net.cpp:84] Creating Layer conv0_9
I0126 12:00:38.718436  9477 net.cpp:406] conv0_9 <- conv0_9/bn
I0126 12:00:38.718446  9477 net.cpp:380] conv0_9 -> conv0_9
I0126 12:00:38.723511  9477 net.cpp:122] Setting up conv0_9
I0126 12:00:38.723541  9477 net.cpp:129] Top shape: 1 32 40 116 (148480)
I0126 12:00:38.723546  9477 net.cpp:137] Memory required for data: 211351764
I0126 12:00:38.723556  9477 layer_factory.hpp:77] Creating layer concat0_9
I0126 12:00:38.723567  9477 net.cpp:84] Creating Layer concat0_9
I0126 12:00:38.723573  9477 net.cpp:406] concat0_9 <- concat0_8_concat0_8_0_split_1
I0126 12:00:38.723580  9477 net.cpp:406] concat0_9 <- conv0_9
I0126 12:00:38.723590  9477 net.cpp:380] concat0_9 -> concat0_9
I0126 12:00:38.723644  9477 net.cpp:122] Setting up concat0_9
I0126 12:00:38.723654  9477 net.cpp:129] Top shape: 1 352 40 116 (1633280)
I0126 12:00:38.723657  9477 net.cpp:137] Memory required for data: 217884884
I0126 12:00:38.723661  9477 layer_factory.hpp:77] Creating layer concat0_9_concat0_9_0_split
I0126 12:00:38.723670  9477 net.cpp:84] Creating Layer concat0_9_concat0_9_0_split
I0126 12:00:38.723678  9477 net.cpp:406] concat0_9_concat0_9_0_split <- concat0_9
I0126 12:00:38.723685  9477 net.cpp:380] concat0_9_concat0_9_0_split -> concat0_9_concat0_9_0_split_0
I0126 12:00:38.723691  9477 net.cpp:380] concat0_9_concat0_9_0_split -> concat0_9_concat0_9_0_split_1
I0126 12:00:38.723768  9477 net.cpp:122] Setting up concat0_9_concat0_9_0_split
I0126 12:00:38.723776  9477 net.cpp:129] Top shape: 1 352 40 116 (1633280)
I0126 12:00:38.723783  9477 net.cpp:129] Top shape: 1 352 40 116 (1633280)
I0126 12:00:38.723785  9477 net.cpp:137] Memory required for data: 230951124
I0126 12:00:38.723789  9477 layer_factory.hpp:77] Creating layer conv0_10/bn
I0126 12:00:38.723798  9477 net.cpp:84] Creating Layer conv0_10/bn
I0126 12:00:38.723803  9477 net.cpp:406] conv0_10/bn <- concat0_9_concat0_9_0_split_0
I0126 12:00:38.723809  9477 net.cpp:380] conv0_10/bn -> conv0_10/bn
I0126 12:00:38.724273  9477 net.cpp:122] Setting up conv0_10/bn
I0126 12:00:38.724283  9477 net.cpp:129] Top shape: 1 352 40 116 (1633280)
I0126 12:00:38.724287  9477 net.cpp:137] Memory required for data: 237484244
I0126 12:00:38.724298  9477 layer_factory.hpp:77] Creating layer conv0_10/scale
I0126 12:00:38.724308  9477 net.cpp:84] Creating Layer conv0_10/scale
I0126 12:00:38.724313  9477 net.cpp:406] conv0_10/scale <- conv0_10/bn
I0126 12:00:38.724319  9477 net.cpp:367] conv0_10/scale -> conv0_10/bn (in-place)
I0126 12:00:38.724403  9477 layer_factory.hpp:77] Creating layer conv0_10/scale
I0126 12:00:38.724648  9477 net.cpp:122] Setting up conv0_10/scale
I0126 12:00:38.724658  9477 net.cpp:129] Top shape: 1 352 40 116 (1633280)
I0126 12:00:38.724661  9477 net.cpp:137] Memory required for data: 244017364
I0126 12:00:38.724669  9477 layer_factory.hpp:77] Creating layer relu0_10
I0126 12:00:38.724678  9477 net.cpp:84] Creating Layer relu0_10
I0126 12:00:38.724681  9477 net.cpp:406] relu0_10 <- conv0_10/bn
I0126 12:00:38.724687  9477 net.cpp:367] relu0_10 -> conv0_10/bn (in-place)
I0126 12:00:38.724943  9477 net.cpp:122] Setting up relu0_10
I0126 12:00:38.724954  9477 net.cpp:129] Top shape: 1 352 40 116 (1633280)
I0126 12:00:38.724958  9477 net.cpp:137] Memory required for data: 250550484
I0126 12:00:38.724962  9477 layer_factory.hpp:77] Creating layer conv0_10
I0126 12:00:38.724977  9477 net.cpp:84] Creating Layer conv0_10
I0126 12:00:38.724980  9477 net.cpp:406] conv0_10 <- conv0_10/bn
I0126 12:00:38.724989  9477 net.cpp:380] conv0_10 -> conv0_10
I0126 12:00:38.741188  9477 net.cpp:122] Setting up conv0_10
I0126 12:00:38.741225  9477 net.cpp:129] Top shape: 1 32 40 116 (148480)
I0126 12:00:38.741230  9477 net.cpp:137] Memory required for data: 251144404
I0126 12:00:38.741240  9477 layer_factory.hpp:77] Creating layer concat0_10
I0126 12:00:38.741255  9477 net.cpp:84] Creating Layer concat0_10
I0126 12:00:38.741261  9477 net.cpp:406] concat0_10 <- concat0_9_concat0_9_0_split_1
I0126 12:00:38.741271  9477 net.cpp:406] concat0_10 <- conv0_10
I0126 12:00:38.741278  9477 net.cpp:380] concat0_10 -> concat0_10
I0126 12:00:38.741334  9477 net.cpp:122] Setting up concat0_10
I0126 12:00:38.741343  9477 net.cpp:129] Top shape: 1 384 40 116 (1781760)
I0126 12:00:38.741346  9477 net.cpp:137] Memory required for data: 258271444
I0126 12:00:38.741350  9477 layer_factory.hpp:77] Creating layer concat0_10_concat0_10_0_split
I0126 12:00:38.741359  9477 net.cpp:84] Creating Layer concat0_10_concat0_10_0_split
I0126 12:00:38.741364  9477 net.cpp:406] concat0_10_concat0_10_0_split <- concat0_10
I0126 12:00:38.741369  9477 net.cpp:380] concat0_10_concat0_10_0_split -> concat0_10_concat0_10_0_split_0
I0126 12:00:38.741376  9477 net.cpp:380] concat0_10_concat0_10_0_split -> concat0_10_concat0_10_0_split_1
I0126 12:00:38.741446  9477 net.cpp:122] Setting up concat0_10_concat0_10_0_split
I0126 12:00:38.741452  9477 net.cpp:129] Top shape: 1 384 40 116 (1781760)
I0126 12:00:38.741458  9477 net.cpp:129] Top shape: 1 384 40 116 (1781760)
I0126 12:00:38.741461  9477 net.cpp:137] Memory required for data: 272525524
I0126 12:00:38.741466  9477 layer_factory.hpp:77] Creating layer conv0_11/bn
I0126 12:00:38.741479  9477 net.cpp:84] Creating Layer conv0_11/bn
I0126 12:00:38.741483  9477 net.cpp:406] conv0_11/bn <- concat0_10_concat0_10_0_split_0
I0126 12:00:38.741490  9477 net.cpp:380] conv0_11/bn -> conv0_11/bn
I0126 12:00:38.741947  9477 net.cpp:122] Setting up conv0_11/bn
I0126 12:00:38.741957  9477 net.cpp:129] Top shape: 1 384 40 116 (1781760)
I0126 12:00:38.741961  9477 net.cpp:137] Memory required for data: 279652564
I0126 12:00:38.741971  9477 layer_factory.hpp:77] Creating layer conv0_11/scale
I0126 12:00:38.741982  9477 net.cpp:84] Creating Layer conv0_11/scale
I0126 12:00:38.741986  9477 net.cpp:406] conv0_11/scale <- conv0_11/bn
I0126 12:00:38.741993  9477 net.cpp:367] conv0_11/scale -> conv0_11/bn (in-place)
I0126 12:00:38.742064  9477 layer_factory.hpp:77] Creating layer conv0_11/scale
I0126 12:00:38.742295  9477 net.cpp:122] Setting up conv0_11/scale
I0126 12:00:38.742303  9477 net.cpp:129] Top shape: 1 384 40 116 (1781760)
I0126 12:00:38.742307  9477 net.cpp:137] Memory required for data: 286779604
I0126 12:00:38.742314  9477 layer_factory.hpp:77] Creating layer relu0_11
I0126 12:00:38.742322  9477 net.cpp:84] Creating Layer relu0_11
I0126 12:00:38.742326  9477 net.cpp:406] relu0_11 <- conv0_11/bn
I0126 12:00:38.742333  9477 net.cpp:367] relu0_11 -> conv0_11/bn (in-place)
I0126 12:00:38.742769  9477 net.cpp:122] Setting up relu0_11
I0126 12:00:38.742781  9477 net.cpp:129] Top shape: 1 384 40 116 (1781760)
I0126 12:00:38.742785  9477 net.cpp:137] Memory required for data: 293906644
I0126 12:00:38.742790  9477 layer_factory.hpp:77] Creating layer conv0_11
I0126 12:00:38.742805  9477 net.cpp:84] Creating Layer conv0_11
I0126 12:00:38.742810  9477 net.cpp:406] conv0_11 <- conv0_11/bn
I0126 12:00:38.742816  9477 net.cpp:380] conv0_11 -> conv0_11
I0126 12:00:38.782692  9477 net.cpp:122] Setting up conv0_11
I0126 12:00:38.782729  9477 net.cpp:129] Top shape: 1 32 40 116 (148480)
I0126 12:00:38.782733  9477 net.cpp:137] Memory required for data: 294500564
I0126 12:00:38.782745  9477 layer_factory.hpp:77] Creating layer concat0_11
I0126 12:00:38.782760  9477 net.cpp:84] Creating Layer concat0_11
I0126 12:00:38.782768  9477 net.cpp:406] concat0_11 <- concat0_10_concat0_10_0_split_1
I0126 12:00:38.782775  9477 net.cpp:406] concat0_11 <- conv0_11
I0126 12:00:38.782783  9477 net.cpp:380] concat0_11 -> concat0_11
I0126 12:00:38.782838  9477 net.cpp:122] Setting up concat0_11
I0126 12:00:38.782846  9477 net.cpp:129] Top shape: 1 416 40 116 (1930240)
I0126 12:00:38.782850  9477 net.cpp:137] Memory required for data: 302221524
I0126 12:00:38.782855  9477 layer_factory.hpp:77] Creating layer concat0_11_concat0_11_0_split
I0126 12:00:38.782862  9477 net.cpp:84] Creating Layer concat0_11_concat0_11_0_split
I0126 12:00:38.782867  9477 net.cpp:406] concat0_11_concat0_11_0_split <- concat0_11
I0126 12:00:38.782876  9477 net.cpp:380] concat0_11_concat0_11_0_split -> concat0_11_concat0_11_0_split_0
I0126 12:00:38.782883  9477 net.cpp:380] concat0_11_concat0_11_0_split -> concat0_11_concat0_11_0_split_1
I0126 12:00:38.782950  9477 net.cpp:122] Setting up concat0_11_concat0_11_0_split
I0126 12:00:38.782958  9477 net.cpp:129] Top shape: 1 416 40 116 (1930240)
I0126 12:00:38.782963  9477 net.cpp:129] Top shape: 1 416 40 116 (1930240)
I0126 12:00:38.782968  9477 net.cpp:137] Memory required for data: 317663444
I0126 12:00:38.782971  9477 layer_factory.hpp:77] Creating layer conv0_12/bn
I0126 12:00:38.782980  9477 net.cpp:84] Creating Layer conv0_12/bn
I0126 12:00:38.782984  9477 net.cpp:406] conv0_12/bn <- concat0_11_concat0_11_0_split_0
I0126 12:00:38.782992  9477 net.cpp:380] conv0_12/bn -> conv0_12/bn
I0126 12:00:38.783433  9477 net.cpp:122] Setting up conv0_12/bn
I0126 12:00:38.783442  9477 net.cpp:129] Top shape: 1 416 40 116 (1930240)
I0126 12:00:38.783447  9477 net.cpp:137] Memory required for data: 325384404
I0126 12:00:38.783457  9477 layer_factory.hpp:77] Creating layer conv0_12/scale
I0126 12:00:38.783466  9477 net.cpp:84] Creating Layer conv0_12/scale
I0126 12:00:38.783475  9477 net.cpp:406] conv0_12/scale <- conv0_12/bn
I0126 12:00:38.783483  9477 net.cpp:367] conv0_12/scale -> conv0_12/bn (in-place)
I0126 12:00:38.783566  9477 layer_factory.hpp:77] Creating layer conv0_12/scale
I0126 12:00:38.783824  9477 net.cpp:122] Setting up conv0_12/scale
I0126 12:00:38.783834  9477 net.cpp:129] Top shape: 1 416 40 116 (1930240)
I0126 12:00:38.783838  9477 net.cpp:137] Memory required for data: 333105364
I0126 12:00:38.783846  9477 layer_factory.hpp:77] Creating layer relu0_12
I0126 12:00:38.783854  9477 net.cpp:84] Creating Layer relu0_12
I0126 12:00:38.783857  9477 net.cpp:406] relu0_12 <- conv0_12/bn
I0126 12:00:38.783864  9477 net.cpp:367] relu0_12 -> conv0_12/bn (in-place)
I0126 12:00:38.784127  9477 net.cpp:122] Setting up relu0_12
I0126 12:00:38.784137  9477 net.cpp:129] Top shape: 1 416 40 116 (1930240)
I0126 12:00:38.784142  9477 net.cpp:137] Memory required for data: 340826324
I0126 12:00:38.784147  9477 layer_factory.hpp:77] Creating layer conv0_12
I0126 12:00:38.784158  9477 net.cpp:84] Creating Layer conv0_12
I0126 12:00:38.784163  9477 net.cpp:406] conv0_12 <- conv0_12/bn
I0126 12:00:38.784171  9477 net.cpp:380] conv0_12 -> conv0_12
I0126 12:00:38.816828  9477 net.cpp:122] Setting up conv0_12
I0126 12:00:38.821066  9477 net.cpp:129] Top shape: 1 32 40 116 (148480)
I0126 12:00:38.821079  9477 net.cpp:137] Memory required for data: 341420244
I0126 12:00:38.821092  9477 layer_factory.hpp:77] Creating layer concat0_12
I0126 12:00:38.821107  9477 net.cpp:84] Creating Layer concat0_12
I0126 12:00:38.821115  9477 net.cpp:406] concat0_12 <- concat0_11_concat0_11_0_split_1
I0126 12:00:38.821125  9477 net.cpp:406] concat0_12 <- conv0_12
I0126 12:00:38.821136  9477 net.cpp:380] concat0_12 -> concat0_12
I0126 12:00:38.821276  9477 net.cpp:122] Setting up concat0_12
I0126 12:00:38.821286  9477 net.cpp:129] Top shape: 1 448 40 116 (2078720)
I0126 12:00:38.821290  9477 net.cpp:137] Memory required for data: 349735124
I0126 12:00:38.821293  9477 layer_factory.hpp:77] Creating layer concat0_12_concat0_12_0_split
I0126 12:00:38.821302  9477 net.cpp:84] Creating Layer concat0_12_concat0_12_0_split
I0126 12:00:38.821306  9477 net.cpp:406] concat0_12_concat0_12_0_split <- concat0_12
I0126 12:00:38.821312  9477 net.cpp:380] concat0_12_concat0_12_0_split -> concat0_12_concat0_12_0_split_0
I0126 12:00:38.821321  9477 net.cpp:380] concat0_12_concat0_12_0_split -> concat0_12_concat0_12_0_split_1
I0126 12:00:38.821399  9477 net.cpp:122] Setting up concat0_12_concat0_12_0_split
I0126 12:00:38.831789  9477 net.cpp:129] Top shape: 1 448 40 116 (2078720)
I0126 12:00:38.831807  9477 net.cpp:129] Top shape: 1 448 40 116 (2078720)
I0126 12:00:38.831811  9477 net.cpp:137] Memory required for data: 366364884
I0126 12:00:38.831818  9477 layer_factory.hpp:77] Creating layer conv0_13/bn
I0126 12:00:38.831837  9477 net.cpp:84] Creating Layer conv0_13/bn
I0126 12:00:38.831845  9477 net.cpp:406] conv0_13/bn <- concat0_12_concat0_12_0_split_0
I0126 12:00:38.831857  9477 net.cpp:380] conv0_13/bn -> conv0_13/bn
I0126 12:00:38.832505  9477 net.cpp:122] Setting up conv0_13/bn
I0126 12:00:38.832521  9477 net.cpp:129] Top shape: 1 448 40 116 (2078720)
I0126 12:00:38.832525  9477 net.cpp:137] Memory required for data: 374679764
I0126 12:00:38.832537  9477 layer_factory.hpp:77] Creating layer conv0_13/scale
I0126 12:00:38.832550  9477 net.cpp:84] Creating Layer conv0_13/scale
I0126 12:00:38.832554  9477 net.cpp:406] conv0_13/scale <- conv0_13/bn
I0126 12:00:38.832561  9477 net.cpp:367] conv0_13/scale -> conv0_13/bn (in-place)
I0126 12:00:38.832651  9477 layer_factory.hpp:77] Creating layer conv0_13/scale
I0126 12:00:38.832908  9477 net.cpp:122] Setting up conv0_13/scale
I0126 12:00:38.832918  9477 net.cpp:129] Top shape: 1 448 40 116 (2078720)
I0126 12:00:38.832922  9477 net.cpp:137] Memory required for data: 382994644
I0126 12:00:38.832929  9477 layer_factory.hpp:77] Creating layer relu0_13
I0126 12:00:38.832940  9477 net.cpp:84] Creating Layer relu0_13
I0126 12:00:38.832945  9477 net.cpp:406] relu0_13 <- conv0_13/bn
I0126 12:00:38.832955  9477 net.cpp:367] relu0_13 -> conv0_13/bn (in-place)
I0126 12:00:38.833570  9477 net.cpp:122] Setting up relu0_13
I0126 12:00:38.833588  9477 net.cpp:129] Top shape: 1 448 40 116 (2078720)
I0126 12:00:38.833592  9477 net.cpp:137] Memory required for data: 391309524
I0126 12:00:38.833597  9477 layer_factory.hpp:77] Creating layer conv0_13
I0126 12:00:38.833612  9477 net.cpp:84] Creating Layer conv0_13
I0126 12:00:38.833618  9477 net.cpp:406] conv0_13 <- conv0_13/bn
I0126 12:00:38.833626  9477 net.cpp:380] conv0_13 -> conv0_13
I0126 12:00:38.844405  9477 net.cpp:122] Setting up conv0_13
I0126 12:00:38.844441  9477 net.cpp:129] Top shape: 1 32 40 116 (148480)
I0126 12:00:38.844446  9477 net.cpp:137] Memory required for data: 391903444
I0126 12:00:38.844457  9477 layer_factory.hpp:77] Creating layer concat0_13
I0126 12:00:38.844470  9477 net.cpp:84] Creating Layer concat0_13
I0126 12:00:38.844475  9477 net.cpp:406] concat0_13 <- concat0_12_concat0_12_0_split_1
I0126 12:00:38.844483  9477 net.cpp:406] concat0_13 <- conv0_13
I0126 12:00:38.844492  9477 net.cpp:380] concat0_13 -> concat0_13
I0126 12:00:38.844548  9477 net.cpp:122] Setting up concat0_13
I0126 12:00:38.844557  9477 net.cpp:129] Top shape: 1 480 40 116 (2227200)
I0126 12:00:38.844560  9477 net.cpp:137] Memory required for data: 400812244
I0126 12:00:38.844564  9477 layer_factory.hpp:77] Creating layer concat0_13_concat0_13_0_split
I0126 12:00:38.844573  9477 net.cpp:84] Creating Layer concat0_13_concat0_13_0_split
I0126 12:00:38.844578  9477 net.cpp:406] concat0_13_concat0_13_0_split <- concat0_13
I0126 12:00:38.844583  9477 net.cpp:380] concat0_13_concat0_13_0_split -> concat0_13_concat0_13_0_split_0
I0126 12:00:38.844590  9477 net.cpp:380] concat0_13_concat0_13_0_split -> concat0_13_concat0_13_0_split_1
I0126 12:00:38.844660  9477 net.cpp:122] Setting up concat0_13_concat0_13_0_split
I0126 12:00:38.844668  9477 net.cpp:129] Top shape: 1 480 40 116 (2227200)
I0126 12:00:38.844673  9477 net.cpp:129] Top shape: 1 480 40 116 (2227200)
I0126 12:00:38.844677  9477 net.cpp:137] Memory required for data: 418629844
I0126 12:00:38.844681  9477 layer_factory.hpp:77] Creating layer conv0_14/bn
I0126 12:00:38.844691  9477 net.cpp:84] Creating Layer conv0_14/bn
I0126 12:00:38.844694  9477 net.cpp:406] conv0_14/bn <- concat0_13_concat0_13_0_split_0
I0126 12:00:38.844700  9477 net.cpp:380] conv0_14/bn -> conv0_14/bn
I0126 12:00:38.845186  9477 net.cpp:122] Setting up conv0_14/bn
I0126 12:00:38.845196  9477 net.cpp:129] Top shape: 1 480 40 116 (2227200)
I0126 12:00:38.845199  9477 net.cpp:137] Memory required for data: 427538644
I0126 12:00:38.845209  9477 layer_factory.hpp:77] Creating layer conv0_14/scale
I0126 12:00:38.845219  9477 net.cpp:84] Creating Layer conv0_14/scale
I0126 12:00:38.845224  9477 net.cpp:406] conv0_14/scale <- conv0_14/bn
I0126 12:00:38.845230  9477 net.cpp:367] conv0_14/scale -> conv0_14/bn (in-place)
I0126 12:00:38.845314  9477 layer_factory.hpp:77] Creating layer conv0_14/scale
I0126 12:00:38.845563  9477 net.cpp:122] Setting up conv0_14/scale
I0126 12:00:38.845572  9477 net.cpp:129] Top shape: 1 480 40 116 (2227200)
I0126 12:00:38.845577  9477 net.cpp:137] Memory required for data: 436447444
I0126 12:00:38.845583  9477 layer_factory.hpp:77] Creating layer relu0_14
I0126 12:00:38.845592  9477 net.cpp:84] Creating Layer relu0_14
I0126 12:00:38.845597  9477 net.cpp:406] relu0_14 <- conv0_14/bn
I0126 12:00:38.845602  9477 net.cpp:367] relu0_14 -> conv0_14/bn (in-place)
I0126 12:00:38.846081  9477 net.cpp:122] Setting up relu0_14
I0126 12:00:38.846094  9477 net.cpp:129] Top shape: 1 480 40 116 (2227200)
I0126 12:00:38.846099  9477 net.cpp:137] Memory required for data: 445356244
I0126 12:00:38.846103  9477 layer_factory.hpp:77] Creating layer conv0_14
I0126 12:00:38.846117  9477 net.cpp:84] Creating Layer conv0_14
I0126 12:00:38.846122  9477 net.cpp:406] conv0_14 <- conv0_14/bn
I0126 12:00:38.846130  9477 net.cpp:380] conv0_14 -> conv0_14
I0126 12:00:38.858834  9477 net.cpp:122] Setting up conv0_14
I0126 12:00:38.858875  9477 net.cpp:129] Top shape: 1 32 40 116 (148480)
I0126 12:00:38.858885  9477 net.cpp:137] Memory required for data: 445950164
I0126 12:00:38.858896  9477 layer_factory.hpp:77] Creating layer concat0_14
I0126 12:00:38.858912  9477 net.cpp:84] Creating Layer concat0_14
I0126 12:00:38.858919  9477 net.cpp:406] concat0_14 <- concat0_13_concat0_13_0_split_1
I0126 12:00:38.858927  9477 net.cpp:406] concat0_14 <- conv0_14
I0126 12:00:38.858934  9477 net.cpp:380] concat0_14 -> concat0_14
I0126 12:00:38.859004  9477 net.cpp:122] Setting up concat0_14
I0126 12:00:38.859014  9477 net.cpp:129] Top shape: 1 512 40 116 (2375680)
I0126 12:00:38.859017  9477 net.cpp:137] Memory required for data: 455452884
I0126 12:00:38.859021  9477 layer_factory.hpp:77] Creating layer BatchNorm1
I0126 12:00:38.859030  9477 net.cpp:84] Creating Layer BatchNorm1
I0126 12:00:38.859035  9477 net.cpp:406] BatchNorm1 <- concat0_14
I0126 12:00:38.859041  9477 net.cpp:380] BatchNorm1 -> BatchNorm1
I0126 12:00:38.859536  9477 net.cpp:122] Setting up BatchNorm1
I0126 12:00:38.859549  9477 net.cpp:129] Top shape: 1 512 40 116 (2375680)
I0126 12:00:38.859552  9477 net.cpp:137] Memory required for data: 464955604
I0126 12:00:38.859563  9477 layer_factory.hpp:77] Creating layer Scale1
I0126 12:00:38.859575  9477 net.cpp:84] Creating Layer Scale1
I0126 12:00:38.859580  9477 net.cpp:406] Scale1 <- BatchNorm1
I0126 12:00:38.859588  9477 net.cpp:367] Scale1 -> BatchNorm1 (in-place)
I0126 12:00:38.859663  9477 layer_factory.hpp:77] Creating layer Scale1
I0126 12:00:38.868075  9477 net.cpp:122] Setting up Scale1
I0126 12:00:38.868109  9477 net.cpp:129] Top shape: 1 512 40 116 (2375680)
I0126 12:00:38.868114  9477 net.cpp:137] Memory required for data: 474458324
I0126 12:00:38.868125  9477 layer_factory.hpp:77] Creating layer ReLU1
I0126 12:00:38.868137  9477 net.cpp:84] Creating Layer ReLU1
I0126 12:00:38.868144  9477 net.cpp:406] ReLU1 <- BatchNorm1
I0126 12:00:38.868154  9477 net.cpp:367] ReLU1 -> BatchNorm1 (in-place)
I0126 12:00:38.868459  9477 net.cpp:122] Setting up ReLU1
I0126 12:00:38.868471  9477 net.cpp:129] Top shape: 1 512 40 116 (2375680)
I0126 12:00:38.868475  9477 net.cpp:137] Memory required for data: 483961044
I0126 12:00:38.868480  9477 layer_factory.hpp:77] Creating layer conv0_blk
I0126 12:00:38.868494  9477 net.cpp:84] Creating Layer conv0_blk
I0126 12:00:38.868499  9477 net.cpp:406] conv0_blk <- BatchNorm1
I0126 12:00:38.868508  9477 net.cpp:380] conv0_blk -> conv0_blk
I0126 12:00:38.886322  9477 net.cpp:122] Setting up conv0_blk
I0126 12:00:38.886366  9477 net.cpp:129] Top shape: 1 512 40 116 (2375680)
I0126 12:00:38.886371  9477 net.cpp:137] Memory required for data: 493463764
I0126 12:00:38.886384  9477 layer_factory.hpp:77] Creating layer pool0
I0126 12:00:38.886402  9477 net.cpp:84] Creating Layer pool0
I0126 12:00:38.886410  9477 net.cpp:406] pool0 <- conv0_blk
I0126 12:00:38.886420  9477 net.cpp:380] pool0 -> pool0
I0126 12:00:38.887203  9477 net.cpp:122] Setting up pool0
I0126 12:00:38.887236  9477 net.cpp:129] Top shape: 1 512 20 58 (593920)
I0126 12:00:38.887243  9477 net.cpp:137] Memory required for data: 495839444
I0126 12:00:38.887249  9477 layer_factory.hpp:77] Creating layer pool0_pool0_0_split
I0126 12:00:38.887264  9477 net.cpp:84] Creating Layer pool0_pool0_0_split
I0126 12:00:38.887271  9477 net.cpp:406] pool0_pool0_0_split <- pool0
I0126 12:00:38.887282  9477 net.cpp:380] pool0_pool0_0_split -> pool0_pool0_0_split_0
I0126 12:00:38.887295  9477 net.cpp:380] pool0_pool0_0_split -> pool0_pool0_0_split_1
I0126 12:00:38.887401  9477 net.cpp:122] Setting up pool0_pool0_0_split
I0126 12:00:38.887411  9477 net.cpp:129] Top shape: 1 512 20 58 (593920)
I0126 12:00:38.887418  9477 net.cpp:129] Top shape: 1 512 20 58 (593920)
I0126 12:00:38.887421  9477 net.cpp:137] Memory required for data: 500590804
I0126 12:00:38.887425  9477 layer_factory.hpp:77] Creating layer conv1_0/bn
I0126 12:00:38.887435  9477 net.cpp:84] Creating Layer conv1_0/bn
I0126 12:00:38.887440  9477 net.cpp:406] conv1_0/bn <- pool0_pool0_0_split_0
I0126 12:00:38.887452  9477 net.cpp:380] conv1_0/bn -> conv1_0/bn
I0126 12:00:38.889289  9477 net.cpp:122] Setting up conv1_0/bn
I0126 12:00:38.889334  9477 net.cpp:129] Top shape: 1 512 20 58 (593920)
I0126 12:00:38.889340  9477 net.cpp:137] Memory required for data: 502966484
I0126 12:00:38.889363  9477 layer_factory.hpp:77] Creating layer conv1_0/scale
I0126 12:00:38.889385  9477 net.cpp:84] Creating Layer conv1_0/scale
I0126 12:00:38.889395  9477 net.cpp:406] conv1_0/scale <- conv1_0/bn
I0126 12:00:38.889408  9477 net.cpp:367] conv1_0/scale -> conv1_0/bn (in-place)
I0126 12:00:38.889554  9477 layer_factory.hpp:77] Creating layer conv1_0/scale
I0126 12:00:38.889931  9477 net.cpp:122] Setting up conv1_0/scale
I0126 12:00:38.889953  9477 net.cpp:129] Top shape: 1 512 20 58 (593920)
I0126 12:00:38.889961  9477 net.cpp:137] Memory required for data: 505342164
I0126 12:00:38.889978  9477 layer_factory.hpp:77] Creating layer relu1_0
I0126 12:00:38.889991  9477 net.cpp:84] Creating Layer relu1_0
I0126 12:00:38.889997  9477 net.cpp:406] relu1_0 <- conv1_0/bn
I0126 12:00:38.890005  9477 net.cpp:367] relu1_0 -> conv1_0/bn (in-place)
I0126 12:00:38.890347  9477 net.cpp:122] Setting up relu1_0
I0126 12:00:38.890364  9477 net.cpp:129] Top shape: 1 512 20 58 (593920)
I0126 12:00:38.890368  9477 net.cpp:137] Memory required for data: 507717844
I0126 12:00:38.890374  9477 layer_factory.hpp:77] Creating layer conv1_0
I0126 12:00:38.890390  9477 net.cpp:84] Creating Layer conv1_0
I0126 12:00:38.890396  9477 net.cpp:406] conv1_0 <- conv1_0/bn
I0126 12:00:38.890406  9477 net.cpp:380] conv1_0 -> conv1_0
I0126 12:00:38.950585  9477 net.cpp:122] Setting up conv1_0
I0126 12:00:38.950626  9477 net.cpp:129] Top shape: 1 32 20 58 (37120)
I0126 12:00:38.950631  9477 net.cpp:137] Memory required for data: 507866324
I0126 12:00:38.950644  9477 layer_factory.hpp:77] Creating layer concat1_0
I0126 12:00:38.950659  9477 net.cpp:84] Creating Layer concat1_0
I0126 12:00:38.950666  9477 net.cpp:406] concat1_0 <- pool0_pool0_0_split_1
I0126 12:00:38.950676  9477 net.cpp:406] concat1_0 <- conv1_0
I0126 12:00:38.950685  9477 net.cpp:380] concat1_0 -> concat1_0
I0126 12:00:38.950752  9477 net.cpp:122] Setting up concat1_0
I0126 12:00:38.950760  9477 net.cpp:129] Top shape: 1 544 20 58 (631040)
I0126 12:00:38.950764  9477 net.cpp:137] Memory required for data: 510390484
I0126 12:00:38.950768  9477 layer_factory.hpp:77] Creating layer concat1_0_concat1_0_0_split
I0126 12:00:38.950778  9477 net.cpp:84] Creating Layer concat1_0_concat1_0_0_split
I0126 12:00:38.950783  9477 net.cpp:406] concat1_0_concat1_0_0_split <- concat1_0
I0126 12:00:38.950788  9477 net.cpp:380] concat1_0_concat1_0_0_split -> concat1_0_concat1_0_0_split_0
I0126 12:00:38.950795  9477 net.cpp:380] concat1_0_concat1_0_0_split -> concat1_0_concat1_0_0_split_1
I0126 12:00:38.950872  9477 net.cpp:122] Setting up concat1_0_concat1_0_0_split
I0126 12:00:38.950879  9477 net.cpp:129] Top shape: 1 544 20 58 (631040)
I0126 12:00:38.950886  9477 net.cpp:129] Top shape: 1 544 20 58 (631040)
I0126 12:00:38.950889  9477 net.cpp:137] Memory required for data: 515438804
I0126 12:00:38.950893  9477 layer_factory.hpp:77] Creating layer conv1_1/bn
I0126 12:00:38.950901  9477 net.cpp:84] Creating Layer conv1_1/bn
I0126 12:00:38.950906  9477 net.cpp:406] conv1_1/bn <- concat1_0_concat1_0_0_split_0
I0126 12:00:38.950913  9477 net.cpp:380] conv1_1/bn -> conv1_1/bn
I0126 12:00:38.951409  9477 net.cpp:122] Setting up conv1_1/bn
I0126 12:00:38.951421  9477 net.cpp:129] Top shape: 1 544 20 58 (631040)
I0126 12:00:38.951426  9477 net.cpp:137] Memory required for data: 517962964
I0126 12:00:38.951438  9477 layer_factory.hpp:77] Creating layer conv1_1/scale
I0126 12:00:38.951449  9477 net.cpp:84] Creating Layer conv1_1/scale
I0126 12:00:38.951457  9477 net.cpp:406] conv1_1/scale <- conv1_1/bn
I0126 12:00:38.951462  9477 net.cpp:367] conv1_1/scale -> conv1_1/bn (in-place)
I0126 12:00:38.951551  9477 layer_factory.hpp:77] Creating layer conv1_1/scale
I0126 12:00:38.959995  9477 net.cpp:122] Setting up conv1_1/scale
I0126 12:00:38.960036  9477 net.cpp:129] Top shape: 1 544 20 58 (631040)
I0126 12:00:38.960047  9477 net.cpp:137] Memory required for data: 520487124
I0126 12:00:38.960060  9477 layer_factory.hpp:77] Creating layer relu1_1
I0126 12:00:38.960074  9477 net.cpp:84] Creating Layer relu1_1
I0126 12:00:38.960081  9477 net.cpp:406] relu1_1 <- conv1_1/bn
I0126 12:00:38.960089  9477 net.cpp:367] relu1_1 -> conv1_1/bn (in-place)
I0126 12:00:38.960716  9477 net.cpp:122] Setting up relu1_1
I0126 12:00:38.960738  9477 net.cpp:129] Top shape: 1 544 20 58 (631040)
I0126 12:00:38.960743  9477 net.cpp:137] Memory required for data: 523011284
I0126 12:00:38.960749  9477 layer_factory.hpp:77] Creating layer conv1_1
I0126 12:00:38.960768  9477 net.cpp:84] Creating Layer conv1_1
I0126 12:00:38.960773  9477 net.cpp:406] conv1_1 <- conv1_1/bn
I0126 12:00:38.960783  9477 net.cpp:380] conv1_1 -> conv1_1
I0126 12:00:38.983950  9477 net.cpp:122] Setting up conv1_1
I0126 12:00:38.983999  9477 net.cpp:129] Top shape: 1 32 20 58 (37120)
I0126 12:00:38.984011  9477 net.cpp:137] Memory required for data: 523159764
I0126 12:00:38.984027  9477 layer_factory.hpp:77] Creating layer concat1_1
I0126 12:00:38.984047  9477 net.cpp:84] Creating Layer concat1_1
I0126 12:00:38.984058  9477 net.cpp:406] concat1_1 <- concat1_0_concat1_0_0_split_1
I0126 12:00:38.984069  9477 net.cpp:406] concat1_1 <- conv1_1
I0126 12:00:38.984081  9477 net.cpp:380] concat1_1 -> concat1_1
I0126 12:00:38.984175  9477 net.cpp:122] Setting up concat1_1
I0126 12:00:38.984189  9477 net.cpp:129] Top shape: 1 576 20 58 (668160)
I0126 12:00:38.984194  9477 net.cpp:137] Memory required for data: 525832404
I0126 12:00:38.984200  9477 layer_factory.hpp:77] Creating layer concat1_1_concat1_1_0_split
I0126 12:00:38.984208  9477 net.cpp:84] Creating Layer concat1_1_concat1_1_0_split
I0126 12:00:38.984215  9477 net.cpp:406] concat1_1_concat1_1_0_split <- concat1_1
I0126 12:00:38.984223  9477 net.cpp:380] concat1_1_concat1_1_0_split -> concat1_1_concat1_1_0_split_0
I0126 12:00:38.984235  9477 net.cpp:380] concat1_1_concat1_1_0_split -> concat1_1_concat1_1_0_split_1
I0126 12:00:38.984346  9477 net.cpp:122] Setting up concat1_1_concat1_1_0_split
I0126 12:00:38.984360  9477 net.cpp:129] Top shape: 1 576 20 58 (668160)
I0126 12:00:38.984369  9477 net.cpp:129] Top shape: 1 576 20 58 (668160)
I0126 12:00:38.984375  9477 net.cpp:137] Memory required for data: 531177684
I0126 12:00:38.984380  9477 layer_factory.hpp:77] Creating layer conv1_2/bn
I0126 12:00:38.984390  9477 net.cpp:84] Creating Layer conv1_2/bn
I0126 12:00:38.984396  9477 net.cpp:406] conv1_2/bn <- concat1_1_concat1_1_0_split_0
I0126 12:00:38.984406  9477 net.cpp:380] conv1_2/bn -> conv1_2/bn
I0126 12:00:38.985146  9477 net.cpp:122] Setting up conv1_2/bn
I0126 12:00:38.985165  9477 net.cpp:129] Top shape: 1 576 20 58 (668160)
I0126 12:00:38.985173  9477 net.cpp:137] Memory required for data: 533850324
I0126 12:00:38.985190  9477 layer_factory.hpp:77] Creating layer conv1_2/scale
I0126 12:00:38.985210  9477 net.cpp:84] Creating Layer conv1_2/scale
I0126 12:00:38.985219  9477 net.cpp:406] conv1_2/scale <- conv1_2/bn
I0126 12:00:38.985231  9477 net.cpp:367] conv1_2/scale -> conv1_2/bn (in-place)
I0126 12:00:38.985357  9477 layer_factory.hpp:77] Creating layer conv1_2/scale
I0126 12:00:38.985718  9477 net.cpp:122] Setting up conv1_2/scale
I0126 12:00:38.985729  9477 net.cpp:129] Top shape: 1 576 20 58 (668160)
I0126 12:00:38.985736  9477 net.cpp:137] Memory required for data: 536522964
I0126 12:00:38.985747  9477 layer_factory.hpp:77] Creating layer relu1_2
I0126 12:00:38.985757  9477 net.cpp:84] Creating Layer relu1_2
I0126 12:00:38.985764  9477 net.cpp:406] relu1_2 <- conv1_2/bn
I0126 12:00:38.985772  9477 net.cpp:367] relu1_2 -> conv1_2/bn (in-place)
I0126 12:00:38.986495  9477 net.cpp:122] Setting up relu1_2
I0126 12:00:38.986515  9477 net.cpp:129] Top shape: 1 576 20 58 (668160)
I0126 12:00:38.986519  9477 net.cpp:137] Memory required for data: 539195604
I0126 12:00:38.986524  9477 layer_factory.hpp:77] Creating layer conv1_2
I0126 12:00:38.986541  9477 net.cpp:84] Creating Layer conv1_2
I0126 12:00:38.986552  9477 net.cpp:406] conv1_2 <- conv1_2/bn
I0126 12:00:38.986563  9477 net.cpp:380] conv1_2 -> conv1_2
I0126 12:00:39.009992  9477 net.cpp:122] Setting up conv1_2
I0126 12:00:39.010040  9477 net.cpp:129] Top shape: 1 32 20 58 (37120)
I0126 12:00:39.010047  9477 net.cpp:137] Memory required for data: 539344084
I0126 12:00:39.010062  9477 layer_factory.hpp:77] Creating layer concat1_2
I0126 12:00:39.010084  9477 net.cpp:84] Creating Layer concat1_2
I0126 12:00:39.010095  9477 net.cpp:406] concat1_2 <- concat1_1_concat1_1_0_split_1
I0126 12:00:39.010107  9477 net.cpp:406] concat1_2 <- conv1_2
I0126 12:00:39.010116  9477 net.cpp:380] concat1_2 -> concat1_2
I0126 12:00:39.010200  9477 net.cpp:122] Setting up concat1_2
I0126 12:00:39.010215  9477 net.cpp:129] Top shape: 1 608 20 58 (705280)
I0126 12:00:39.010221  9477 net.cpp:137] Memory required for data: 542165204
I0126 12:00:39.010226  9477 layer_factory.hpp:77] Creating layer concat1_2_concat1_2_0_split
I0126 12:00:39.010233  9477 net.cpp:84] Creating Layer concat1_2_concat1_2_0_split
I0126 12:00:39.010239  9477 net.cpp:406] concat1_2_concat1_2_0_split <- concat1_2
I0126 12:00:39.010248  9477 net.cpp:380] concat1_2_concat1_2_0_split -> concat1_2_concat1_2_0_split_0
I0126 12:00:39.010258  9477 net.cpp:380] concat1_2_concat1_2_0_split -> concat1_2_concat1_2_0_split_1
I0126 12:00:39.010370  9477 net.cpp:122] Setting up concat1_2_concat1_2_0_split
I0126 12:00:39.010380  9477 net.cpp:129] Top shape: 1 608 20 58 (705280)
I0126 12:00:39.010388  9477 net.cpp:129] Top shape: 1 608 20 58 (705280)
I0126 12:00:39.010392  9477 net.cpp:137] Memory required for data: 547807444
I0126 12:00:39.010398  9477 layer_factory.hpp:77] Creating layer conv1_3/bn
I0126 12:00:39.010407  9477 net.cpp:84] Creating Layer conv1_3/bn
I0126 12:00:39.010413  9477 net.cpp:406] conv1_3/bn <- concat1_2_concat1_2_0_split_0
I0126 12:00:39.010423  9477 net.cpp:380] conv1_3/bn -> conv1_3/bn
I0126 12:00:39.011018  9477 net.cpp:122] Setting up conv1_3/bn
I0126 12:00:39.011029  9477 net.cpp:129] Top shape: 1 608 20 58 (705280)
I0126 12:00:39.011032  9477 net.cpp:137] Memory required for data: 550628564
I0126 12:00:39.011044  9477 layer_factory.hpp:77] Creating layer conv1_3/scale
I0126 12:00:39.011059  9477 net.cpp:84] Creating Layer conv1_3/scale
I0126 12:00:39.011063  9477 net.cpp:406] conv1_3/scale <- conv1_3/bn
I0126 12:00:39.011071  9477 net.cpp:367] conv1_3/scale -> conv1_3/bn (in-place)
I0126 12:00:39.011165  9477 layer_factory.hpp:77] Creating layer conv1_3/scale
I0126 12:00:39.011448  9477 net.cpp:122] Setting up conv1_3/scale
I0126 12:00:39.011457  9477 net.cpp:129] Top shape: 1 608 20 58 (705280)
I0126 12:00:39.011461  9477 net.cpp:137] Memory required for data: 553449684
I0126 12:00:39.011468  9477 layer_factory.hpp:77] Creating layer relu1_3
I0126 12:00:39.011476  9477 net.cpp:84] Creating Layer relu1_3
I0126 12:00:39.011481  9477 net.cpp:406] relu1_3 <- conv1_3/bn
I0126 12:00:39.011485  9477 net.cpp:367] relu1_3 -> conv1_3/bn (in-place)
I0126 12:00:39.011801  9477 net.cpp:122] Setting up relu1_3
I0126 12:00:39.011812  9477 net.cpp:129] Top shape: 1 608 20 58 (705280)
I0126 12:00:39.011816  9477 net.cpp:137] Memory required for data: 556270804
I0126 12:00:39.011821  9477 layer_factory.hpp:77] Creating layer conv1_3
I0126 12:00:39.011837  9477 net.cpp:84] Creating Layer conv1_3
I0126 12:00:39.011840  9477 net.cpp:406] conv1_3 <- conv1_3/bn
I0126 12:00:39.011847  9477 net.cpp:380] conv1_3 -> conv1_3
I0126 12:00:39.036659  9477 net.cpp:122] Setting up conv1_3
I0126 12:00:39.036698  9477 net.cpp:129] Top shape: 1 32 20 58 (37120)
I0126 12:00:39.036703  9477 net.cpp:137] Memory required for data: 556419284
I0126 12:00:39.036715  9477 layer_factory.hpp:77] Creating layer concat1_3
I0126 12:00:39.036731  9477 net.cpp:84] Creating Layer concat1_3
I0126 12:00:39.036738  9477 net.cpp:406] concat1_3 <- concat1_2_concat1_2_0_split_1
I0126 12:00:39.036747  9477 net.cpp:406] concat1_3 <- conv1_3
I0126 12:00:39.036754  9477 net.cpp:380] concat1_3 -> concat1_3
I0126 12:00:39.036818  9477 net.cpp:122] Setting up concat1_3
I0126 12:00:39.036833  9477 net.cpp:129] Top shape: 1 640 20 58 (742400)
I0126 12:00:39.036836  9477 net.cpp:137] Memory required for data: 559388884
I0126 12:00:39.036840  9477 layer_factory.hpp:77] Creating layer concat1_3_concat1_3_0_split
I0126 12:00:39.036850  9477 net.cpp:84] Creating Layer concat1_3_concat1_3_0_split
I0126 12:00:39.036855  9477 net.cpp:406] concat1_3_concat1_3_0_split <- concat1_3
I0126 12:00:39.036861  9477 net.cpp:380] concat1_3_concat1_3_0_split -> concat1_3_concat1_3_0_split_0
I0126 12:00:39.036870  9477 net.cpp:380] concat1_3_concat1_3_0_split -> concat1_3_concat1_3_0_split_1
I0126 12:00:39.036949  9477 net.cpp:122] Setting up concat1_3_concat1_3_0_split
I0126 12:00:39.036957  9477 net.cpp:129] Top shape: 1 640 20 58 (742400)
I0126 12:00:39.036962  9477 net.cpp:129] Top shape: 1 640 20 58 (742400)
I0126 12:00:39.036967  9477 net.cpp:137] Memory required for data: 565328084
I0126 12:00:39.036970  9477 layer_factory.hpp:77] Creating layer conv1_4/bn
I0126 12:00:39.036979  9477 net.cpp:84] Creating Layer conv1_4/bn
I0126 12:00:39.036984  9477 net.cpp:406] conv1_4/bn <- concat1_3_concat1_3_0_split_0
I0126 12:00:39.036991  9477 net.cpp:380] conv1_4/bn -> conv1_4/bn
I0126 12:00:39.037505  9477 net.cpp:122] Setting up conv1_4/bn
I0126 12:00:39.037515  9477 net.cpp:129] Top shape: 1 640 20 58 (742400)
I0126 12:00:39.037519  9477 net.cpp:137] Memory required for data: 568297684
I0126 12:00:39.037542  9477 layer_factory.hpp:77] Creating layer conv1_4/scale
I0126 12:00:39.037557  9477 net.cpp:84] Creating Layer conv1_4/scale
I0126 12:00:39.037562  9477 net.cpp:406] conv1_4/scale <- conv1_4/bn
I0126 12:00:39.037569  9477 net.cpp:367] conv1_4/scale -> conv1_4/bn (in-place)
I0126 12:00:39.037652  9477 layer_factory.hpp:77] Creating layer conv1_4/scale
I0126 12:00:39.037902  9477 net.cpp:122] Setting up conv1_4/scale
I0126 12:00:39.037911  9477 net.cpp:129] Top shape: 1 640 20 58 (742400)
I0126 12:00:39.037915  9477 net.cpp:137] Memory required for data: 571267284
I0126 12:00:39.037923  9477 layer_factory.hpp:77] Creating layer relu1_4
I0126 12:00:39.037930  9477 net.cpp:84] Creating Layer relu1_4
I0126 12:00:39.037935  9477 net.cpp:406] relu1_4 <- conv1_4/bn
I0126 12:00:39.037940  9477 net.cpp:367] relu1_4 -> conv1_4/bn (in-place)
I0126 12:00:39.038509  9477 net.cpp:122] Setting up relu1_4
I0126 12:00:39.038523  9477 net.cpp:129] Top shape: 1 640 20 58 (742400)
I0126 12:00:39.038528  9477 net.cpp:137] Memory required for data: 574236884
I0126 12:00:39.038532  9477 layer_factory.hpp:77] Creating layer conv1_4
I0126 12:00:39.038547  9477 net.cpp:84] Creating Layer conv1_4
I0126 12:00:39.038552  9477 net.cpp:406] conv1_4 <- conv1_4/bn
I0126 12:00:39.038559  9477 net.cpp:380] conv1_4 -> conv1_4
I0126 12:00:39.056884  9477 net.cpp:122] Setting up conv1_4
I0126 12:00:39.056926  9477 net.cpp:129] Top shape: 1 32 20 58 (37120)
I0126 12:00:39.056931  9477 net.cpp:137] Memory required for data: 574385364
I0126 12:00:39.056942  9477 layer_factory.hpp:77] Creating layer concat1_4
I0126 12:00:39.056958  9477 net.cpp:84] Creating Layer concat1_4
I0126 12:00:39.056965  9477 net.cpp:406] concat1_4 <- concat1_3_concat1_3_0_split_1
I0126 12:00:39.056974  9477 net.cpp:406] concat1_4 <- conv1_4
I0126 12:00:39.056982  9477 net.cpp:380] concat1_4 -> concat1_4
I0126 12:00:39.057065  9477 net.cpp:122] Setting up concat1_4
I0126 12:00:39.057073  9477 net.cpp:129] Top shape: 1 672 20 58 (779520)
I0126 12:00:39.057076  9477 net.cpp:137] Memory required for data: 577503444
I0126 12:00:39.057081  9477 layer_factory.hpp:77] Creating layer concat1_4_concat1_4_0_split
I0126 12:00:39.057088  9477 net.cpp:84] Creating Layer concat1_4_concat1_4_0_split
I0126 12:00:39.057092  9477 net.cpp:406] concat1_4_concat1_4_0_split <- concat1_4
I0126 12:00:39.057101  9477 net.cpp:380] concat1_4_concat1_4_0_split -> concat1_4_concat1_4_0_split_0
I0126 12:00:39.057108  9477 net.cpp:380] concat1_4_concat1_4_0_split -> concat1_4_concat1_4_0_split_1
I0126 12:00:39.057191  9477 net.cpp:122] Setting up concat1_4_concat1_4_0_split
I0126 12:00:39.057204  9477 net.cpp:129] Top shape: 1 672 20 58 (779520)
I0126 12:00:39.057210  9477 net.cpp:129] Top shape: 1 672 20 58 (779520)
I0126 12:00:39.057214  9477 net.cpp:137] Memory required for data: 583739604
I0126 12:00:39.057219  9477 layer_factory.hpp:77] Creating layer conv1_5/bn
I0126 12:00:39.057226  9477 net.cpp:84] Creating Layer conv1_5/bn
I0126 12:00:39.057230  9477 net.cpp:406] conv1_5/bn <- concat1_4_concat1_4_0_split_0
I0126 12:00:39.057238  9477 net.cpp:380] conv1_5/bn -> conv1_5/bn
I0126 12:00:39.057760  9477 net.cpp:122] Setting up conv1_5/bn
I0126 12:00:39.057770  9477 net.cpp:129] Top shape: 1 672 20 58 (779520)
I0126 12:00:39.057773  9477 net.cpp:137] Memory required for data: 586857684
I0126 12:00:39.057785  9477 layer_factory.hpp:77] Creating layer conv1_5/scale
I0126 12:00:39.057796  9477 net.cpp:84] Creating Layer conv1_5/scale
I0126 12:00:39.057801  9477 net.cpp:406] conv1_5/scale <- conv1_5/bn
I0126 12:00:39.057807  9477 net.cpp:367] conv1_5/scale -> conv1_5/bn (in-place)
I0126 12:00:39.057898  9477 layer_factory.hpp:77] Creating layer conv1_5/scale
I0126 12:00:39.058163  9477 net.cpp:122] Setting up conv1_5/scale
I0126 12:00:39.058173  9477 net.cpp:129] Top shape: 1 672 20 58 (779520)
I0126 12:00:39.058176  9477 net.cpp:137] Memory required for data: 589975764
I0126 12:00:39.058184  9477 layer_factory.hpp:77] Creating layer relu1_5
I0126 12:00:39.058192  9477 net.cpp:84] Creating Layer relu1_5
I0126 12:00:39.058197  9477 net.cpp:406] relu1_5 <- conv1_5/bn
I0126 12:00:39.058202  9477 net.cpp:367] relu1_5 -> conv1_5/bn (in-place)
I0126 12:00:39.058502  9477 net.cpp:122] Setting up relu1_5
I0126 12:00:39.058513  9477 net.cpp:129] Top shape: 1 672 20 58 (779520)
I0126 12:00:39.058517  9477 net.cpp:137] Memory required for data: 593093844
I0126 12:00:39.058522  9477 layer_factory.hpp:77] Creating layer conv1_5
I0126 12:00:39.058543  9477 net.cpp:84] Creating Layer conv1_5
I0126 12:00:39.058548  9477 net.cpp:406] conv1_5 <- conv1_5/bn
I0126 12:00:39.058555  9477 net.cpp:380] conv1_5 -> conv1_5
I0126 12:00:39.142132  9477 net.cpp:122] Setting up conv1_5
I0126 12:00:39.142169  9477 net.cpp:129] Top shape: 1 32 20 58 (37120)
I0126 12:00:39.142174  9477 net.cpp:137] Memory required for data: 593242324
I0126 12:00:39.142186  9477 layer_factory.hpp:77] Creating layer concat1_5
I0126 12:00:39.142200  9477 net.cpp:84] Creating Layer concat1_5
I0126 12:00:39.142208  9477 net.cpp:406] concat1_5 <- concat1_4_concat1_4_0_split_1
I0126 12:00:39.142217  9477 net.cpp:406] concat1_5 <- conv1_5
I0126 12:00:39.142226  9477 net.cpp:380] concat1_5 -> concat1_5
I0126 12:00:39.142298  9477 net.cpp:122] Setting up concat1_5
I0126 12:00:39.142307  9477 net.cpp:129] Top shape: 1 704 20 58 (816640)
I0126 12:00:39.142312  9477 net.cpp:137] Memory required for data: 596508884
I0126 12:00:39.142315  9477 layer_factory.hpp:77] Creating layer concat1_5_concat1_5_0_split
I0126 12:00:39.142323  9477 net.cpp:84] Creating Layer concat1_5_concat1_5_0_split
I0126 12:00:39.142328  9477 net.cpp:406] concat1_5_concat1_5_0_split <- concat1_5
I0126 12:00:39.142334  9477 net.cpp:380] concat1_5_concat1_5_0_split -> concat1_5_concat1_5_0_split_0
I0126 12:00:39.142343  9477 net.cpp:380] concat1_5_concat1_5_0_split -> concat1_5_concat1_5_0_split_1
I0126 12:00:39.142426  9477 net.cpp:122] Setting up concat1_5_concat1_5_0_split
I0126 12:00:39.142434  9477 net.cpp:129] Top shape: 1 704 20 58 (816640)
I0126 12:00:39.142441  9477 net.cpp:129] Top shape: 1 704 20 58 (816640)
I0126 12:00:39.142444  9477 net.cpp:137] Memory required for data: 603042004
I0126 12:00:39.142447  9477 layer_factory.hpp:77] Creating layer conv1_6/bn
I0126 12:00:39.142457  9477 net.cpp:84] Creating Layer conv1_6/bn
I0126 12:00:39.142462  9477 net.cpp:406] conv1_6/bn <- concat1_5_concat1_5_0_split_0
I0126 12:00:39.142467  9477 net.cpp:380] conv1_6/bn -> conv1_6/bn
I0126 12:00:39.142997  9477 net.cpp:122] Setting up conv1_6/bn
I0126 12:00:39.143007  9477 net.cpp:129] Top shape: 1 704 20 58 (816640)
I0126 12:00:39.143012  9477 net.cpp:137] Memory required for data: 606308564
I0126 12:00:39.143029  9477 layer_factory.hpp:77] Creating layer conv1_6/scale
I0126 12:00:39.143041  9477 net.cpp:84] Creating Layer conv1_6/scale
I0126 12:00:39.143045  9477 net.cpp:406] conv1_6/scale <- conv1_6/bn
I0126 12:00:39.143052  9477 net.cpp:367] conv1_6/scale -> conv1_6/bn (in-place)
I0126 12:00:39.143146  9477 layer_factory.hpp:77] Creating layer conv1_6/scale
I0126 12:00:39.143425  9477 net.cpp:122] Setting up conv1_6/scale
I0126 12:00:39.143435  9477 net.cpp:129] Top shape: 1 704 20 58 (816640)
I0126 12:00:39.143440  9477 net.cpp:137] Memory required for data: 609575124
I0126 12:00:39.143447  9477 layer_factory.hpp:77] Creating layer relu1_6
I0126 12:00:39.143455  9477 net.cpp:84] Creating Layer relu1_6
I0126 12:00:39.143460  9477 net.cpp:406] relu1_6 <- conv1_6/bn
I0126 12:00:39.143466  9477 net.cpp:367] relu1_6 -> conv1_6/bn (in-place)
I0126 12:00:39.152482  9477 net.cpp:122] Setting up relu1_6
I0126 12:00:39.152523  9477 net.cpp:129] Top shape: 1 704 20 58 (816640)
I0126 12:00:39.152528  9477 net.cpp:137] Memory required for data: 612841684
I0126 12:00:39.152534  9477 layer_factory.hpp:77] Creating layer conv1_6
I0126 12:00:39.152580  9477 net.cpp:84] Creating Layer conv1_6
I0126 12:00:39.152587  9477 net.cpp:406] conv1_6 <- conv1_6/bn
I0126 12:00:39.152598  9477 net.cpp:380] conv1_6 -> conv1_6
I0126 12:00:39.171252  9477 net.cpp:122] Setting up conv1_6
I0126 12:00:39.171286  9477 net.cpp:129] Top shape: 1 32 20 58 (37120)
I0126 12:00:39.171290  9477 net.cpp:137] Memory required for data: 612990164
I0126 12:00:39.171301  9477 layer_factory.hpp:77] Creating layer concat1_6
I0126 12:00:39.171314  9477 net.cpp:84] Creating Layer concat1_6
I0126 12:00:39.171321  9477 net.cpp:406] concat1_6 <- concat1_5_concat1_5_0_split_1
I0126 12:00:39.171330  9477 net.cpp:406] concat1_6 <- conv1_6
I0126 12:00:39.171339  9477 net.cpp:380] concat1_6 -> concat1_6
I0126 12:00:39.171403  9477 net.cpp:122] Setting up concat1_6
I0126 12:00:39.171412  9477 net.cpp:129] Top shape: 1 736 20 58 (853760)
I0126 12:00:39.171416  9477 net.cpp:137] Memory required for data: 616405204
I0126 12:00:39.171422  9477 layer_factory.hpp:77] Creating layer concat1_6_concat1_6_0_split
I0126 12:00:39.171428  9477 net.cpp:84] Creating Layer concat1_6_concat1_6_0_split
I0126 12:00:39.171432  9477 net.cpp:406] concat1_6_concat1_6_0_split <- concat1_6
I0126 12:00:39.171440  9477 net.cpp:380] concat1_6_concat1_6_0_split -> concat1_6_concat1_6_0_split_0
I0126 12:00:39.171448  9477 net.cpp:380] concat1_6_concat1_6_0_split -> concat1_6_concat1_6_0_split_1
I0126 12:00:39.171533  9477 net.cpp:122] Setting up concat1_6_concat1_6_0_split
I0126 12:00:39.171541  9477 net.cpp:129] Top shape: 1 736 20 58 (853760)
I0126 12:00:39.171547  9477 net.cpp:129] Top shape: 1 736 20 58 (853760)
I0126 12:00:39.171551  9477 net.cpp:137] Memory required for data: 623235284
I0126 12:00:39.171555  9477 layer_factory.hpp:77] Creating layer conv1_7/bn
I0126 12:00:39.171564  9477 net.cpp:84] Creating Layer conv1_7/bn
I0126 12:00:39.171569  9477 net.cpp:406] conv1_7/bn <- concat1_6_concat1_6_0_split_0
I0126 12:00:39.171576  9477 net.cpp:380] conv1_7/bn -> conv1_7/bn
I0126 12:00:39.180356  9477 net.cpp:122] Setting up conv1_7/bn
I0126 12:00:39.180393  9477 net.cpp:129] Top shape: 1 736 20 58 (853760)
I0126 12:00:39.180398  9477 net.cpp:137] Memory required for data: 626650324
I0126 12:00:39.180414  9477 layer_factory.hpp:77] Creating layer conv1_7/scale
I0126 12:00:39.180431  9477 net.cpp:84] Creating Layer conv1_7/scale
I0126 12:00:39.180438  9477 net.cpp:406] conv1_7/scale <- conv1_7/bn
I0126 12:00:39.180447  9477 net.cpp:367] conv1_7/scale -> conv1_7/bn (in-place)
I0126 12:00:39.180559  9477 layer_factory.hpp:77] Creating layer conv1_7/scale
I0126 12:00:39.180866  9477 net.cpp:122] Setting up conv1_7/scale
I0126 12:00:39.180876  9477 net.cpp:129] Top shape: 1 736 20 58 (853760)
I0126 12:00:39.180881  9477 net.cpp:137] Memory required for data: 630065364
I0126 12:00:39.180889  9477 layer_factory.hpp:77] Creating layer relu1_7
I0126 12:00:39.180898  9477 net.cpp:84] Creating Layer relu1_7
I0126 12:00:39.180908  9477 net.cpp:406] relu1_7 <- conv1_7/bn
I0126 12:00:39.180915  9477 net.cpp:367] relu1_7 -> conv1_7/bn (in-place)
I0126 12:00:39.181540  9477 net.cpp:122] Setting up relu1_7
I0126 12:00:39.181555  9477 net.cpp:129] Top shape: 1 736 20 58 (853760)
I0126 12:00:39.181560  9477 net.cpp:137] Memory required for data: 633480404
I0126 12:00:39.181565  9477 layer_factory.hpp:77] Creating layer conv1_7
I0126 12:00:39.181581  9477 net.cpp:84] Creating Layer conv1_7
I0126 12:00:39.181586  9477 net.cpp:406] conv1_7 <- conv1_7/bn
I0126 12:00:39.181594  9477 net.cpp:380] conv1_7 -> conv1_7
I0126 12:00:39.192812  9477 net.cpp:122] Setting up conv1_7
I0126 12:00:39.192850  9477 net.cpp:129] Top shape: 1 32 20 58 (37120)
I0126 12:00:39.192857  9477 net.cpp:137] Memory required for data: 633628884
I0126 12:00:39.192868  9477 layer_factory.hpp:77] Creating layer concat1_7
I0126 12:00:39.192883  9477 net.cpp:84] Creating Layer concat1_7
I0126 12:00:39.192890  9477 net.cpp:406] concat1_7 <- concat1_6_concat1_6_0_split_1
I0126 12:00:39.192898  9477 net.cpp:406] concat1_7 <- conv1_7
I0126 12:00:39.192908  9477 net.cpp:380] concat1_7 -> concat1_7
I0126 12:00:39.192979  9477 net.cpp:122] Setting up concat1_7
I0126 12:00:39.192989  9477 net.cpp:129] Top shape: 1 768 20 58 (890880)
I0126 12:00:39.192993  9477 net.cpp:137] Memory required for data: 637192404
I0126 12:00:39.192998  9477 layer_factory.hpp:77] Creating layer concat1_7_concat1_7_0_split
I0126 12:00:39.193006  9477 net.cpp:84] Creating Layer concat1_7_concat1_7_0_split
I0126 12:00:39.193011  9477 net.cpp:406] concat1_7_concat1_7_0_split <- concat1_7
I0126 12:00:39.193018  9477 net.cpp:380] concat1_7_concat1_7_0_split -> concat1_7_concat1_7_0_split_0
I0126 12:00:39.193025  9477 net.cpp:380] concat1_7_concat1_7_0_split -> concat1_7_concat1_7_0_split_1
I0126 12:00:39.193115  9477 net.cpp:122] Setting up concat1_7_concat1_7_0_split
I0126 12:00:39.193123  9477 net.cpp:129] Top shape: 1 768 20 58 (890880)
I0126 12:00:39.193128  9477 net.cpp:129] Top shape: 1 768 20 58 (890880)
I0126 12:00:39.193132  9477 net.cpp:137] Memory required for data: 644319444
I0126 12:00:39.193136  9477 layer_factory.hpp:77] Creating layer conv1_8/bn
I0126 12:00:39.193145  9477 net.cpp:84] Creating Layer conv1_8/bn
I0126 12:00:39.193150  9477 net.cpp:406] conv1_8/bn <- concat1_7_concat1_7_0_split_0
I0126 12:00:39.193156  9477 net.cpp:380] conv1_8/bn -> conv1_8/bn
I0126 12:00:39.193735  9477 net.cpp:122] Setting up conv1_8/bn
I0126 12:00:39.193747  9477 net.cpp:129] Top shape: 1 768 20 58 (890880)
I0126 12:00:39.193750  9477 net.cpp:137] Memory required for data: 647882964
I0126 12:00:39.193761  9477 layer_factory.hpp:77] Creating layer conv1_8/scale
I0126 12:00:39.193771  9477 net.cpp:84] Creating Layer conv1_8/scale
I0126 12:00:39.193776  9477 net.cpp:406] conv1_8/scale <- conv1_8/bn
I0126 12:00:39.193784  9477 net.cpp:367] conv1_8/scale -> conv1_8/bn (in-place)
I0126 12:00:39.193873  9477 layer_factory.hpp:77] Creating layer conv1_8/scale
I0126 12:00:39.194169  9477 net.cpp:122] Setting up conv1_8/scale
I0126 12:00:39.194180  9477 net.cpp:129] Top shape: 1 768 20 58 (890880)
I0126 12:00:39.194185  9477 net.cpp:137] Memory required for data: 651446484
I0126 12:00:39.194192  9477 layer_factory.hpp:77] Creating layer relu1_8
I0126 12:00:39.194200  9477 net.cpp:84] Creating Layer relu1_8
I0126 12:00:39.194205  9477 net.cpp:406] relu1_8 <- conv1_8/bn
I0126 12:00:39.194211  9477 net.cpp:367] relu1_8 -> conv1_8/bn (in-place)
I0126 12:00:39.194491  9477 net.cpp:122] Setting up relu1_8
I0126 12:00:39.194504  9477 net.cpp:129] Top shape: 1 768 20 58 (890880)
I0126 12:00:39.194507  9477 net.cpp:137] Memory required for data: 655010004
I0126 12:00:39.194512  9477 layer_factory.hpp:77] Creating layer conv1_8
I0126 12:00:39.194526  9477 net.cpp:84] Creating Layer conv1_8
I0126 12:00:39.194531  9477 net.cpp:406] conv1_8 <- conv1_8/bn
I0126 12:00:39.194540  9477 net.cpp:380] conv1_8 -> conv1_8
I0126 12:00:39.206849  9477 net.cpp:122] Setting up conv1_8
I0126 12:00:39.206885  9477 net.cpp:129] Top shape: 1 32 20 58 (37120)
I0126 12:00:39.206894  9477 net.cpp:137] Memory required for data: 655158484
I0126 12:00:39.206905  9477 layer_factory.hpp:77] Creating layer concat1_8
I0126 12:00:39.206920  9477 net.cpp:84] Creating Layer concat1_8
I0126 12:00:39.206928  9477 net.cpp:406] concat1_8 <- concat1_7_concat1_7_0_split_1
I0126 12:00:39.206936  9477 net.cpp:406] concat1_8 <- conv1_8
I0126 12:00:39.206943  9477 net.cpp:380] concat1_8 -> concat1_8
I0126 12:00:39.207008  9477 net.cpp:122] Setting up concat1_8
I0126 12:00:39.207017  9477 net.cpp:129] Top shape: 1 800 20 58 (928000)
I0126 12:00:39.207021  9477 net.cpp:137] Memory required for data: 658870484
I0126 12:00:39.207026  9477 layer_factory.hpp:77] Creating layer concat1_8_concat1_8_0_split
I0126 12:00:39.207034  9477 net.cpp:84] Creating Layer concat1_8_concat1_8_0_split
I0126 12:00:39.207038  9477 net.cpp:406] concat1_8_concat1_8_0_split <- concat1_8
I0126 12:00:39.207044  9477 net.cpp:380] concat1_8_concat1_8_0_split -> concat1_8_concat1_8_0_split_0
I0126 12:00:39.207053  9477 net.cpp:380] concat1_8_concat1_8_0_split -> concat1_8_concat1_8_0_split_1
I0126 12:00:39.207140  9477 net.cpp:122] Setting up concat1_8_concat1_8_0_split
I0126 12:00:39.207149  9477 net.cpp:129] Top shape: 1 800 20 58 (928000)
I0126 12:00:39.207154  9477 net.cpp:129] Top shape: 1 800 20 58 (928000)
I0126 12:00:39.207157  9477 net.cpp:137] Memory required for data: 666294484
I0126 12:00:39.207161  9477 layer_factory.hpp:77] Creating layer conv1_9/bn
I0126 12:00:39.207171  9477 net.cpp:84] Creating Layer conv1_9/bn
I0126 12:00:39.207176  9477 net.cpp:406] conv1_9/bn <- concat1_8_concat1_8_0_split_0
I0126 12:00:39.207183  9477 net.cpp:380] conv1_9/bn -> conv1_9/bn
I0126 12:00:39.207754  9477 net.cpp:122] Setting up conv1_9/bn
I0126 12:00:39.207764  9477 net.cpp:129] Top shape: 1 800 20 58 (928000)
I0126 12:00:39.207768  9477 net.cpp:137] Memory required for data: 670006484
I0126 12:00:39.207778  9477 layer_factory.hpp:77] Creating layer conv1_9/scale
I0126 12:00:39.207788  9477 net.cpp:84] Creating Layer conv1_9/scale
I0126 12:00:39.207793  9477 net.cpp:406] conv1_9/scale <- conv1_9/bn
I0126 12:00:39.207800  9477 net.cpp:367] conv1_9/scale -> conv1_9/bn (in-place)
I0126 12:00:39.207901  9477 layer_factory.hpp:77] Creating layer conv1_9/scale
I0126 12:00:39.208201  9477 net.cpp:122] Setting up conv1_9/scale
I0126 12:00:39.208211  9477 net.cpp:129] Top shape: 1 800 20 58 (928000)
I0126 12:00:39.208215  9477 net.cpp:137] Memory required for data: 673718484
I0126 12:00:39.208223  9477 layer_factory.hpp:77] Creating layer relu1_9
I0126 12:00:39.208231  9477 net.cpp:84] Creating Layer relu1_9
I0126 12:00:39.208235  9477 net.cpp:406] relu1_9 <- conv1_9/bn
I0126 12:00:39.208241  9477 net.cpp:367] relu1_9 -> conv1_9/bn (in-place)
I0126 12:00:39.208708  9477 net.cpp:122] Setting up relu1_9
I0126 12:00:39.208724  9477 net.cpp:129] Top shape: 1 800 20 58 (928000)
I0126 12:00:39.208727  9477 net.cpp:137] Memory required for data: 677430484
I0126 12:00:39.208732  9477 layer_factory.hpp:77] Creating layer conv1_9
I0126 12:00:39.208745  9477 net.cpp:84] Creating Layer conv1_9
I0126 12:00:39.208750  9477 net.cpp:406] conv1_9 <- conv1_9/bn
I0126 12:00:39.208760  9477 net.cpp:380] conv1_9 -> conv1_9
I0126 12:00:39.220206  9477 net.cpp:122] Setting up conv1_9
I0126 12:00:39.220242  9477 net.cpp:129] Top shape: 1 32 20 58 (37120)
I0126 12:00:39.220247  9477 net.cpp:137] Memory required for data: 677578964
I0126 12:00:39.220258  9477 layer_factory.hpp:77] Creating layer concat1_9
I0126 12:00:39.220269  9477 net.cpp:84] Creating Layer concat1_9
I0126 12:00:39.220278  9477 net.cpp:406] concat1_9 <- concat1_8_concat1_8_0_split_1
I0126 12:00:39.220285  9477 net.cpp:406] concat1_9 <- conv1_9
I0126 12:00:39.220293  9477 net.cpp:380] concat1_9 -> concat1_9
I0126 12:00:39.220360  9477 net.cpp:122] Setting up concat1_9
I0126 12:00:39.220369  9477 net.cpp:129] Top shape: 1 832 20 58 (965120)
I0126 12:00:39.220373  9477 net.cpp:137] Memory required for data: 681439444
I0126 12:00:39.220377  9477 layer_factory.hpp:77] Creating layer concat1_9_concat1_9_0_split
I0126 12:00:39.220389  9477 net.cpp:84] Creating Layer concat1_9_concat1_9_0_split
I0126 12:00:39.220394  9477 net.cpp:406] concat1_9_concat1_9_0_split <- concat1_9
I0126 12:00:39.220401  9477 net.cpp:380] concat1_9_concat1_9_0_split -> concat1_9_concat1_9_0_split_0
I0126 12:00:39.220409  9477 net.cpp:380] concat1_9_concat1_9_0_split -> concat1_9_concat1_9_0_split_1
I0126 12:00:39.220499  9477 net.cpp:122] Setting up concat1_9_concat1_9_0_split
I0126 12:00:39.220507  9477 net.cpp:129] Top shape: 1 832 20 58 (965120)
I0126 12:00:39.220513  9477 net.cpp:129] Top shape: 1 832 20 58 (965120)
I0126 12:00:39.220517  9477 net.cpp:137] Memory required for data: 689160404
I0126 12:00:39.220521  9477 layer_factory.hpp:77] Creating layer conv1_10/bn
I0126 12:00:39.220528  9477 net.cpp:84] Creating Layer conv1_10/bn
I0126 12:00:39.220533  9477 net.cpp:406] conv1_10/bn <- concat1_9_concat1_9_0_split_0
I0126 12:00:39.220541  9477 net.cpp:380] conv1_10/bn -> conv1_10/bn
I0126 12:00:39.221129  9477 net.cpp:122] Setting up conv1_10/bn
I0126 12:00:39.221138  9477 net.cpp:129] Top shape: 1 832 20 58 (965120)
I0126 12:00:39.221143  9477 net.cpp:137] Memory required for data: 693020884
I0126 12:00:39.221154  9477 layer_factory.hpp:77] Creating layer conv1_10/scale
I0126 12:00:39.221163  9477 net.cpp:84] Creating Layer conv1_10/scale
I0126 12:00:39.221168  9477 net.cpp:406] conv1_10/scale <- conv1_10/bn
I0126 12:00:39.221175  9477 net.cpp:367] conv1_10/scale -> conv1_10/bn (in-place)
I0126 12:00:39.221274  9477 layer_factory.hpp:77] Creating layer conv1_10/scale
I0126 12:00:39.221570  9477 net.cpp:122] Setting up conv1_10/scale
I0126 12:00:39.221580  9477 net.cpp:129] Top shape: 1 832 20 58 (965120)
I0126 12:00:39.221585  9477 net.cpp:137] Memory required for data: 696881364
I0126 12:00:39.221591  9477 layer_factory.hpp:77] Creating layer relu1_10
I0126 12:00:39.221599  9477 net.cpp:84] Creating Layer relu1_10
I0126 12:00:39.221603  9477 net.cpp:406] relu1_10 <- conv1_10/bn
I0126 12:00:39.221609  9477 net.cpp:367] relu1_10 -> conv1_10/bn (in-place)
I0126 12:00:39.221882  9477 net.cpp:122] Setting up relu1_10
I0126 12:00:39.221894  9477 net.cpp:129] Top shape: 1 832 20 58 (965120)
I0126 12:00:39.221897  9477 net.cpp:137] Memory required for data: 700741844
I0126 12:00:39.221901  9477 layer_factory.hpp:77] Creating layer conv1_10
I0126 12:00:39.221916  9477 net.cpp:84] Creating Layer conv1_10
I0126 12:00:39.221921  9477 net.cpp:406] conv1_10 <- conv1_10/bn
I0126 12:00:39.221928  9477 net.cpp:380] conv1_10 -> conv1_10
I0126 12:00:39.234526  9477 net.cpp:122] Setting up conv1_10
I0126 12:00:39.234575  9477 net.cpp:129] Top shape: 1 32 20 58 (37120)
I0126 12:00:39.234581  9477 net.cpp:137] Memory required for data: 700890324
I0126 12:00:39.234597  9477 layer_factory.hpp:77] Creating layer concat1_10
I0126 12:00:39.234616  9477 net.cpp:84] Creating Layer concat1_10
I0126 12:00:39.234623  9477 net.cpp:406] concat1_10 <- concat1_9_concat1_9_0_split_1
I0126 12:00:39.234632  9477 net.cpp:406] concat1_10 <- conv1_10
I0126 12:00:39.234643  9477 net.cpp:380] concat1_10 -> concat1_10
I0126 12:00:39.234745  9477 net.cpp:122] Setting up concat1_10
I0126 12:00:39.234755  9477 net.cpp:129] Top shape: 1 864 20 58 (1002240)
I0126 12:00:39.234758  9477 net.cpp:137] Memory required for data: 704899284
I0126 12:00:39.234763  9477 layer_factory.hpp:77] Creating layer concat1_10_concat1_10_0_split
I0126 12:00:39.234771  9477 net.cpp:84] Creating Layer concat1_10_concat1_10_0_split
I0126 12:00:39.234776  9477 net.cpp:406] concat1_10_concat1_10_0_split <- concat1_10
I0126 12:00:39.234782  9477 net.cpp:380] concat1_10_concat1_10_0_split -> concat1_10_concat1_10_0_split_0
I0126 12:00:39.234791  9477 net.cpp:380] concat1_10_concat1_10_0_split -> concat1_10_concat1_10_0_split_1
I0126 12:00:39.234910  9477 net.cpp:122] Setting up concat1_10_concat1_10_0_split
I0126 12:00:39.234921  9477 net.cpp:129] Top shape: 1 864 20 58 (1002240)
I0126 12:00:39.234927  9477 net.cpp:129] Top shape: 1 864 20 58 (1002240)
I0126 12:00:39.234930  9477 net.cpp:137] Memory required for data: 712917204
I0126 12:00:39.234941  9477 layer_factory.hpp:77] Creating layer conv1_11/bn
I0126 12:00:39.234954  9477 net.cpp:84] Creating Layer conv1_11/bn
I0126 12:00:39.234961  9477 net.cpp:406] conv1_11/bn <- concat1_10_concat1_10_0_split_0
I0126 12:00:39.234967  9477 net.cpp:380] conv1_11/bn -> conv1_11/bn
I0126 12:00:39.235620  9477 net.cpp:122] Setting up conv1_11/bn
I0126 12:00:39.235644  9477 net.cpp:129] Top shape: 1 864 20 58 (1002240)
I0126 12:00:39.235649  9477 net.cpp:137] Memory required for data: 716926164
I0126 12:00:39.235662  9477 layer_factory.hpp:77] Creating layer conv1_11/scale
I0126 12:00:39.235676  9477 net.cpp:84] Creating Layer conv1_11/scale
I0126 12:00:39.235682  9477 net.cpp:406] conv1_11/scale <- conv1_11/bn
I0126 12:00:39.235692  9477 net.cpp:367] conv1_11/scale -> conv1_11/bn (in-place)
I0126 12:00:39.235828  9477 layer_factory.hpp:77] Creating layer conv1_11/scale
I0126 12:00:39.236191  9477 net.cpp:122] Setting up conv1_11/scale
I0126 12:00:39.236208  9477 net.cpp:129] Top shape: 1 864 20 58 (1002240)
I0126 12:00:39.236213  9477 net.cpp:137] Memory required for data: 720935124
I0126 12:00:39.236224  9477 layer_factory.hpp:77] Creating layer relu1_11
I0126 12:00:39.236238  9477 net.cpp:84] Creating Layer relu1_11
I0126 12:00:39.236244  9477 net.cpp:406] relu1_11 <- conv1_11/bn
I0126 12:00:39.236253  9477 net.cpp:367] relu1_11 -> conv1_11/bn (in-place)
I0126 12:00:39.236915  9477 net.cpp:122] Setting up relu1_11
I0126 12:00:39.236932  9477 net.cpp:129] Top shape: 1 864 20 58 (1002240)
I0126 12:00:39.236937  9477 net.cpp:137] Memory required for data: 724944084
I0126 12:00:39.236940  9477 layer_factory.hpp:77] Creating layer conv1_11
I0126 12:00:39.236956  9477 net.cpp:84] Creating Layer conv1_11
I0126 12:00:39.236963  9477 net.cpp:406] conv1_11 <- conv1_11/bn
I0126 12:00:39.236971  9477 net.cpp:380] conv1_11 -> conv1_11
I0126 12:00:39.258224  9477 net.cpp:122] Setting up conv1_11
I0126 12:00:39.258265  9477 net.cpp:129] Top shape: 1 32 20 58 (37120)
I0126 12:00:39.258271  9477 net.cpp:137] Memory required for data: 725092564
I0126 12:00:39.258285  9477 layer_factory.hpp:77] Creating layer concat1_11
I0126 12:00:39.258301  9477 net.cpp:84] Creating Layer concat1_11
I0126 12:00:39.258309  9477 net.cpp:406] concat1_11 <- concat1_10_concat1_10_0_split_1
I0126 12:00:39.258318  9477 net.cpp:406] concat1_11 <- conv1_11
I0126 12:00:39.258325  9477 net.cpp:380] concat1_11 -> concat1_11
I0126 12:00:39.258404  9477 net.cpp:122] Setting up concat1_11
I0126 12:00:39.258414  9477 net.cpp:129] Top shape: 1 896 20 58 (1039360)
I0126 12:00:39.258417  9477 net.cpp:137] Memory required for data: 729250004
I0126 12:00:39.258421  9477 layer_factory.hpp:77] Creating layer concat1_11_concat1_11_0_split
I0126 12:00:39.258430  9477 net.cpp:84] Creating Layer concat1_11_concat1_11_0_split
I0126 12:00:39.258435  9477 net.cpp:406] concat1_11_concat1_11_0_split <- concat1_11
I0126 12:00:39.258441  9477 net.cpp:380] concat1_11_concat1_11_0_split -> concat1_11_concat1_11_0_split_0
I0126 12:00:39.258450  9477 net.cpp:380] concat1_11_concat1_11_0_split -> concat1_11_concat1_11_0_split_1
I0126 12:00:39.258548  9477 net.cpp:122] Setting up concat1_11_concat1_11_0_split
I0126 12:00:39.258558  9477 net.cpp:129] Top shape: 1 896 20 58 (1039360)
I0126 12:00:39.258563  9477 net.cpp:129] Top shape: 1 896 20 58 (1039360)
I0126 12:00:39.258566  9477 net.cpp:137] Memory required for data: 737564884
I0126 12:00:39.258570  9477 layer_factory.hpp:77] Creating layer conv1_12/bn
I0126 12:00:39.258580  9477 net.cpp:84] Creating Layer conv1_12/bn
I0126 12:00:39.258584  9477 net.cpp:406] conv1_12/bn <- concat1_11_concat1_11_0_split_0
I0126 12:00:39.258594  9477 net.cpp:380] conv1_12/bn -> conv1_12/bn
I0126 12:00:39.259218  9477 net.cpp:122] Setting up conv1_12/bn
I0126 12:00:39.259229  9477 net.cpp:129] Top shape: 1 896 20 58 (1039360)
I0126 12:00:39.259233  9477 net.cpp:137] Memory required for data: 741722324
I0126 12:00:39.259245  9477 layer_factory.hpp:77] Creating layer conv1_12/scale
I0126 12:00:39.259258  9477 net.cpp:84] Creating Layer conv1_12/scale
I0126 12:00:39.259268  9477 net.cpp:406] conv1_12/scale <- conv1_12/bn
I0126 12:00:39.259274  9477 net.cpp:367] conv1_12/scale -> conv1_12/bn (in-place)
I0126 12:00:39.259369  9477 layer_factory.hpp:77] Creating layer conv1_12/scale
I0126 12:00:39.259691  9477 net.cpp:122] Setting up conv1_12/scale
I0126 12:00:39.259701  9477 net.cpp:129] Top shape: 1 896 20 58 (1039360)
I0126 12:00:39.259706  9477 net.cpp:137] Memory required for data: 745879764
I0126 12:00:39.259713  9477 layer_factory.hpp:77] Creating layer relu1_12
I0126 12:00:39.259722  9477 net.cpp:84] Creating Layer relu1_12
I0126 12:00:39.259727  9477 net.cpp:406] relu1_12 <- conv1_12/bn
I0126 12:00:39.259733  9477 net.cpp:367] relu1_12 -> conv1_12/bn (in-place)
I0126 12:00:39.319453  9477 net.cpp:122] Setting up relu1_12
I0126 12:00:39.319499  9477 net.cpp:129] Top shape: 1 896 20 58 (1039360)
I0126 12:00:39.319505  9477 net.cpp:137] Memory required for data: 750037204
I0126 12:00:39.319515  9477 layer_factory.hpp:77] Creating layer conv1_12
I0126 12:00:39.319540  9477 net.cpp:84] Creating Layer conv1_12
I0126 12:00:39.319551  9477 net.cpp:406] conv1_12 <- conv1_12/bn
I0126 12:00:39.319566  9477 net.cpp:380] conv1_12 -> conv1_12
I0126 12:00:39.335147  9477 net.cpp:122] Setting up conv1_12
I0126 12:00:39.335187  9477 net.cpp:129] Top shape: 1 32 20 58 (37120)
I0126 12:00:39.335192  9477 net.cpp:137] Memory required for data: 750185684
I0126 12:00:39.335203  9477 layer_factory.hpp:77] Creating layer concat1_12
I0126 12:00:39.335218  9477 net.cpp:84] Creating Layer concat1_12
I0126 12:00:39.335227  9477 net.cpp:406] concat1_12 <- concat1_11_concat1_11_0_split_1
I0126 12:00:39.335235  9477 net.cpp:406] concat1_12 <- conv1_12
I0126 12:00:39.335244  9477 net.cpp:380] concat1_12 -> concat1_12
I0126 12:00:39.335314  9477 net.cpp:122] Setting up concat1_12
I0126 12:00:39.335325  9477 net.cpp:129] Top shape: 1 928 20 58 (1076480)
I0126 12:00:39.335327  9477 net.cpp:137] Memory required for data: 754491604
I0126 12:00:39.335331  9477 layer_factory.hpp:77] Creating layer concat1_12_concat1_12_0_split
I0126 12:00:39.335340  9477 net.cpp:84] Creating Layer concat1_12_concat1_12_0_split
I0126 12:00:39.335343  9477 net.cpp:406] concat1_12_concat1_12_0_split <- concat1_12
I0126 12:00:39.335351  9477 net.cpp:380] concat1_12_concat1_12_0_split -> concat1_12_concat1_12_0_split_0
I0126 12:00:39.335360  9477 net.cpp:380] concat1_12_concat1_12_0_split -> concat1_12_concat1_12_0_split_1
I0126 12:00:39.335451  9477 net.cpp:122] Setting up concat1_12_concat1_12_0_split
I0126 12:00:39.335460  9477 net.cpp:129] Top shape: 1 928 20 58 (1076480)
I0126 12:00:39.335466  9477 net.cpp:129] Top shape: 1 928 20 58 (1076480)
I0126 12:00:39.335469  9477 net.cpp:137] Memory required for data: 763103444
I0126 12:00:39.335474  9477 layer_factory.hpp:77] Creating layer conv1_13/bn
I0126 12:00:39.335484  9477 net.cpp:84] Creating Layer conv1_13/bn
I0126 12:00:39.335487  9477 net.cpp:406] conv1_13/bn <- concat1_12_concat1_12_0_split_0
I0126 12:00:39.335494  9477 net.cpp:380] conv1_13/bn -> conv1_13/bn
I0126 12:00:39.336113  9477 net.cpp:122] Setting up conv1_13/bn
I0126 12:00:39.336133  9477 net.cpp:129] Top shape: 1 928 20 58 (1076480)
I0126 12:00:39.336136  9477 net.cpp:137] Memory required for data: 767409364
I0126 12:00:39.336148  9477 layer_factory.hpp:77] Creating layer conv1_13/scale
I0126 12:00:39.336159  9477 net.cpp:84] Creating Layer conv1_13/scale
I0126 12:00:39.336165  9477 net.cpp:406] conv1_13/scale <- conv1_13/bn
I0126 12:00:39.336174  9477 net.cpp:367] conv1_13/scale -> conv1_13/bn (in-place)
I0126 12:00:39.336284  9477 layer_factory.hpp:77] Creating layer conv1_13/scale
I0126 12:00:39.336596  9477 net.cpp:122] Setting up conv1_13/scale
I0126 12:00:39.336606  9477 net.cpp:129] Top shape: 1 928 20 58 (1076480)
I0126 12:00:39.336611  9477 net.cpp:137] Memory required for data: 771715284
I0126 12:00:39.336617  9477 layer_factory.hpp:77] Creating layer relu1_13
I0126 12:00:39.336625  9477 net.cpp:84] Creating Layer relu1_13
I0126 12:00:39.336630  9477 net.cpp:406] relu1_13 <- conv1_13/bn
I0126 12:00:39.336643  9477 net.cpp:367] relu1_13 -> conv1_13/bn (in-place)
I0126 12:00:39.336971  9477 net.cpp:122] Setting up relu1_13
I0126 12:00:39.336982  9477 net.cpp:129] Top shape: 1 928 20 58 (1076480)
I0126 12:00:39.336987  9477 net.cpp:137] Memory required for data: 776021204
I0126 12:00:39.336992  9477 layer_factory.hpp:77] Creating layer conv1_13
I0126 12:00:39.337004  9477 net.cpp:84] Creating Layer conv1_13
I0126 12:00:39.337010  9477 net.cpp:406] conv1_13 <- conv1_13/bn
I0126 12:00:39.337018  9477 net.cpp:380] conv1_13 -> conv1_13
I0126 12:00:39.349737  9477 net.cpp:122] Setting up conv1_13
I0126 12:00:39.349776  9477 net.cpp:129] Top shape: 1 32 20 58 (37120)
I0126 12:00:39.349781  9477 net.cpp:137] Memory required for data: 776169684
I0126 12:00:39.349791  9477 layer_factory.hpp:77] Creating layer concat1_13
I0126 12:00:39.349804  9477 net.cpp:84] Creating Layer concat1_13
I0126 12:00:39.349812  9477 net.cpp:406] concat1_13 <- concat1_12_concat1_12_0_split_1
I0126 12:00:39.349820  9477 net.cpp:406] concat1_13 <- conv1_13
I0126 12:00:39.349829  9477 net.cpp:380] concat1_13 -> concat1_13
I0126 12:00:39.349896  9477 net.cpp:122] Setting up concat1_13
I0126 12:00:39.349905  9477 net.cpp:129] Top shape: 1 960 20 58 (1113600)
I0126 12:00:39.349910  9477 net.cpp:137] Memory required for data: 780624084
I0126 12:00:39.349913  9477 layer_factory.hpp:77] Creating layer concat1_13_concat1_13_0_split
I0126 12:00:39.349921  9477 net.cpp:84] Creating Layer concat1_13_concat1_13_0_split
I0126 12:00:39.349927  9477 net.cpp:406] concat1_13_concat1_13_0_split <- concat1_13
I0126 12:00:39.349933  9477 net.cpp:380] concat1_13_concat1_13_0_split -> concat1_13_concat1_13_0_split_0
I0126 12:00:39.349942  9477 net.cpp:380] concat1_13_concat1_13_0_split -> concat1_13_concat1_13_0_split_1
I0126 12:00:39.350040  9477 net.cpp:122] Setting up concat1_13_concat1_13_0_split
I0126 12:00:39.350049  9477 net.cpp:129] Top shape: 1 960 20 58 (1113600)
I0126 12:00:39.350054  9477 net.cpp:129] Top shape: 1 960 20 58 (1113600)
I0126 12:00:39.350059  9477 net.cpp:137] Memory required for data: 789532884
I0126 12:00:39.350064  9477 layer_factory.hpp:77] Creating layer conv1_14/bn
I0126 12:00:39.350072  9477 net.cpp:84] Creating Layer conv1_14/bn
I0126 12:00:39.350077  9477 net.cpp:406] conv1_14/bn <- concat1_13_concat1_13_0_split_0
I0126 12:00:39.350085  9477 net.cpp:380] conv1_14/bn -> conv1_14/bn
I0126 12:00:39.350739  9477 net.cpp:122] Setting up conv1_14/bn
I0126 12:00:39.350756  9477 net.cpp:129] Top shape: 1 960 20 58 (1113600)
I0126 12:00:39.350760  9477 net.cpp:137] Memory required for data: 793987284
I0126 12:00:39.350772  9477 layer_factory.hpp:77] Creating layer conv1_14/scale
I0126 12:00:39.350785  9477 net.cpp:84] Creating Layer conv1_14/scale
I0126 12:00:39.350790  9477 net.cpp:406] conv1_14/scale <- conv1_14/bn
I0126 12:00:39.350798  9477 net.cpp:367] conv1_14/scale -> conv1_14/bn (in-place)
I0126 12:00:39.350911  9477 layer_factory.hpp:77] Creating layer conv1_14/scale
I0126 12:00:39.351238  9477 net.cpp:122] Setting up conv1_14/scale
I0126 12:00:39.351248  9477 net.cpp:129] Top shape: 1 960 20 58 (1113600)
I0126 12:00:39.351253  9477 net.cpp:137] Memory required for data: 798441684
I0126 12:00:39.351261  9477 layer_factory.hpp:77] Creating layer relu1_14
I0126 12:00:39.351272  9477 net.cpp:84] Creating Layer relu1_14
I0126 12:00:39.351277  9477 net.cpp:406] relu1_14 <- conv1_14/bn
I0126 12:00:39.351284  9477 net.cpp:367] relu1_14 -> conv1_14/bn (in-place)
I0126 12:00:39.352177  9477 net.cpp:122] Setting up relu1_14
I0126 12:00:39.352207  9477 net.cpp:129] Top shape: 1 960 20 58 (1113600)
I0126 12:00:39.352211  9477 net.cpp:137] Memory required for data: 802896084
I0126 12:00:39.352217  9477 layer_factory.hpp:77] Creating layer conv1_14
I0126 12:00:39.352236  9477 net.cpp:84] Creating Layer conv1_14
I0126 12:00:39.352243  9477 net.cpp:406] conv1_14 <- conv1_14/bn
I0126 12:00:39.352253  9477 net.cpp:380] conv1_14 -> conv1_14
I0126 12:00:39.374447  9477 net.cpp:122] Setting up conv1_14
I0126 12:00:39.374490  9477 net.cpp:129] Top shape: 1 32 20 58 (37120)
I0126 12:00:39.374495  9477 net.cpp:137] Memory required for data: 803044564
I0126 12:00:39.374506  9477 layer_factory.hpp:77] Creating layer concat1_14
I0126 12:00:39.374521  9477 net.cpp:84] Creating Layer concat1_14
I0126 12:00:39.374531  9477 net.cpp:406] concat1_14 <- concat1_13_concat1_13_0_split_1
I0126 12:00:39.374539  9477 net.cpp:406] concat1_14 <- conv1_14
I0126 12:00:39.374547  9477 net.cpp:380] concat1_14 -> concat1_14
I0126 12:00:39.374707  9477 net.cpp:122] Setting up concat1_14
I0126 12:00:39.374716  9477 net.cpp:129] Top shape: 1 992 20 58 (1150720)
I0126 12:00:39.374722  9477 net.cpp:137] Memory required for data: 807647444
I0126 12:00:39.374725  9477 layer_factory.hpp:77] Creating layer concat1_14_concat1_14_0_split
I0126 12:00:39.374733  9477 net.cpp:84] Creating Layer concat1_14_concat1_14_0_split
I0126 12:00:39.374737  9477 net.cpp:406] concat1_14_concat1_14_0_split <- concat1_14
I0126 12:00:39.374745  9477 net.cpp:380] concat1_14_concat1_14_0_split -> concat1_14_concat1_14_0_split_0
I0126 12:00:39.374754  9477 net.cpp:380] concat1_14_concat1_14_0_split -> concat1_14_concat1_14_0_split_1
I0126 12:00:39.374858  9477 net.cpp:122] Setting up concat1_14_concat1_14_0_split
I0126 12:00:39.374866  9477 net.cpp:129] Top shape: 1 992 20 58 (1150720)
I0126 12:00:39.374872  9477 net.cpp:129] Top shape: 1 992 20 58 (1150720)
I0126 12:00:39.374876  9477 net.cpp:137] Memory required for data: 816853204
I0126 12:00:39.374881  9477 layer_factory.hpp:77] Creating layer conv1_15/bn
I0126 12:00:39.374888  9477 net.cpp:84] Creating Layer conv1_15/bn
I0126 12:00:39.374892  9477 net.cpp:406] conv1_15/bn <- concat1_14_concat1_14_0_split_0
I0126 12:00:39.374900  9477 net.cpp:380] conv1_15/bn -> conv1_15/bn
I0126 12:00:39.375540  9477 net.cpp:122] Setting up conv1_15/bn
I0126 12:00:39.375550  9477 net.cpp:129] Top shape: 1 992 20 58 (1150720)
I0126 12:00:39.375555  9477 net.cpp:137] Memory required for data: 821456084
I0126 12:00:39.375564  9477 layer_factory.hpp:77] Creating layer conv1_15/scale
I0126 12:00:39.375576  9477 net.cpp:84] Creating Layer conv1_15/scale
I0126 12:00:39.375581  9477 net.cpp:406] conv1_15/scale <- conv1_15/bn
I0126 12:00:39.375587  9477 net.cpp:367] conv1_15/scale -> conv1_15/bn (in-place)
I0126 12:00:39.375690  9477 layer_factory.hpp:77] Creating layer conv1_15/scale
I0126 12:00:39.376015  9477 net.cpp:122] Setting up conv1_15/scale
I0126 12:00:39.376027  9477 net.cpp:129] Top shape: 1 992 20 58 (1150720)
I0126 12:00:39.376031  9477 net.cpp:137] Memory required for data: 826058964
I0126 12:00:39.376039  9477 layer_factory.hpp:77] Creating layer relu1_15
I0126 12:00:39.376046  9477 net.cpp:84] Creating Layer relu1_15
I0126 12:00:39.376051  9477 net.cpp:406] relu1_15 <- conv1_15/bn
I0126 12:00:39.376057  9477 net.cpp:367] relu1_15 -> conv1_15/bn (in-place)
I0126 12:00:39.376389  9477 net.cpp:122] Setting up relu1_15
I0126 12:00:39.376402  9477 net.cpp:129] Top shape: 1 992 20 58 (1150720)
I0126 12:00:39.376406  9477 net.cpp:137] Memory required for data: 830661844
I0126 12:00:39.376411  9477 layer_factory.hpp:77] Creating layer conv1_15
I0126 12:00:39.376425  9477 net.cpp:84] Creating Layer conv1_15
I0126 12:00:39.376430  9477 net.cpp:406] conv1_15 <- conv1_15/bn
I0126 12:00:39.376437  9477 net.cpp:380] conv1_15 -> conv1_15
I0126 12:00:39.407867  9477 net.cpp:122] Setting up conv1_15
I0126 12:00:39.407903  9477 net.cpp:129] Top shape: 1 32 20 58 (37120)
I0126 12:00:39.407908  9477 net.cpp:137] Memory required for data: 830810324
I0126 12:00:39.407919  9477 layer_factory.hpp:77] Creating layer concat1_15
I0126 12:00:39.407933  9477 net.cpp:84] Creating Layer concat1_15
I0126 12:00:39.407940  9477 net.cpp:406] concat1_15 <- concat1_14_concat1_14_0_split_1
I0126 12:00:39.407949  9477 net.cpp:406] concat1_15 <- conv1_15
I0126 12:00:39.407958  9477 net.cpp:380] concat1_15 -> concat1_15
I0126 12:00:39.408023  9477 net.cpp:122] Setting up concat1_15
I0126 12:00:39.408031  9477 net.cpp:129] Top shape: 1 1024 20 58 (1187840)
I0126 12:00:39.408041  9477 net.cpp:137] Memory required for data: 835561684
I0126 12:00:39.408046  9477 layer_factory.hpp:77] Creating layer concat1_15_concat1_15_0_split
I0126 12:00:39.408051  9477 net.cpp:84] Creating Layer concat1_15_concat1_15_0_split
I0126 12:00:39.408057  9477 net.cpp:406] concat1_15_concat1_15_0_split <- concat1_15
I0126 12:00:39.408063  9477 net.cpp:380] concat1_15_concat1_15_0_split -> concat1_15_concat1_15_0_split_0
I0126 12:00:39.408071  9477 net.cpp:380] concat1_15_concat1_15_0_split -> concat1_15_concat1_15_0_split_1
I0126 12:00:39.408159  9477 net.cpp:122] Setting up concat1_15_concat1_15_0_split
I0126 12:00:39.408167  9477 net.cpp:129] Top shape: 1 1024 20 58 (1187840)
I0126 12:00:39.408172  9477 net.cpp:129] Top shape: 1 1024 20 58 (1187840)
I0126 12:00:39.408176  9477 net.cpp:137] Memory required for data: 845064404
I0126 12:00:39.408180  9477 layer_factory.hpp:77] Creating layer conv1_16/bn
I0126 12:00:39.408190  9477 net.cpp:84] Creating Layer conv1_16/bn
I0126 12:00:39.408193  9477 net.cpp:406] conv1_16/bn <- concat1_15_concat1_15_0_split_0
I0126 12:00:39.408200  9477 net.cpp:380] conv1_16/bn -> conv1_16/bn
I0126 12:00:39.408761  9477 net.cpp:122] Setting up conv1_16/bn
I0126 12:00:39.408771  9477 net.cpp:129] Top shape: 1 1024 20 58 (1187840)
I0126 12:00:39.408776  9477 net.cpp:137] Memory required for data: 849815764
I0126 12:00:39.408785  9477 layer_factory.hpp:77] Creating layer conv1_16/scale
I0126 12:00:39.408794  9477 net.cpp:84] Creating Layer conv1_16/scale
I0126 12:00:39.408798  9477 net.cpp:406] conv1_16/scale <- conv1_16/bn
I0126 12:00:39.408807  9477 net.cpp:367] conv1_16/scale -> conv1_16/bn (in-place)
I0126 12:00:39.408893  9477 layer_factory.hpp:77] Creating layer conv1_16/scale
I0126 12:00:39.409178  9477 net.cpp:122] Setting up conv1_16/scale
I0126 12:00:39.409186  9477 net.cpp:129] Top shape: 1 1024 20 58 (1187840)
I0126 12:00:39.409189  9477 net.cpp:137] Memory required for data: 854567124
I0126 12:00:39.409198  9477 layer_factory.hpp:77] Creating layer relu1_16
I0126 12:00:39.409204  9477 net.cpp:84] Creating Layer relu1_16
I0126 12:00:39.409209  9477 net.cpp:406] relu1_16 <- conv1_16/bn
I0126 12:00:39.409214  9477 net.cpp:367] relu1_16 -> conv1_16/bn (in-place)
I0126 12:00:39.409695  9477 net.cpp:122] Setting up relu1_16
I0126 12:00:39.409708  9477 net.cpp:129] Top shape: 1 1024 20 58 (1187840)
I0126 12:00:39.409713  9477 net.cpp:137] Memory required for data: 859318484
I0126 12:00:39.409716  9477 layer_factory.hpp:77] Creating layer conv1_16
I0126 12:00:39.409730  9477 net.cpp:84] Creating Layer conv1_16
I0126 12:00:39.409735  9477 net.cpp:406] conv1_16 <- conv1_16/bn
I0126 12:00:39.409744  9477 net.cpp:380] conv1_16 -> conv1_16
I0126 12:00:39.436471  9477 net.cpp:122] Setting up conv1_16
I0126 12:00:39.436508  9477 net.cpp:129] Top shape: 1 32 20 58 (37120)
I0126 12:00:39.436513  9477 net.cpp:137] Memory required for data: 859466964
I0126 12:00:39.436523  9477 layer_factory.hpp:77] Creating layer concat1_16
I0126 12:00:39.436538  9477 net.cpp:84] Creating Layer concat1_16
I0126 12:00:39.436545  9477 net.cpp:406] concat1_16 <- concat1_15_concat1_15_0_split_1
I0126 12:00:39.436553  9477 net.cpp:406] concat1_16 <- conv1_16
I0126 12:00:39.436560  9477 net.cpp:380] concat1_16 -> concat1_16
I0126 12:00:39.436625  9477 net.cpp:122] Setting up concat1_16
I0126 12:00:39.436635  9477 net.cpp:129] Top shape: 1 1056 20 58 (1224960)
I0126 12:00:39.436638  9477 net.cpp:137] Memory required for data: 864366804
I0126 12:00:39.436642  9477 layer_factory.hpp:77] Creating layer concat1_16_concat1_16_0_split
I0126 12:00:39.436650  9477 net.cpp:84] Creating Layer concat1_16_concat1_16_0_split
I0126 12:00:39.436653  9477 net.cpp:406] concat1_16_concat1_16_0_split <- concat1_16
I0126 12:00:39.436659  9477 net.cpp:380] concat1_16_concat1_16_0_split -> concat1_16_concat1_16_0_split_0
I0126 12:00:39.436666  9477 net.cpp:380] concat1_16_concat1_16_0_split -> concat1_16_concat1_16_0_split_1
I0126 12:00:39.436754  9477 net.cpp:122] Setting up concat1_16_concat1_16_0_split
I0126 12:00:39.436763  9477 net.cpp:129] Top shape: 1 1056 20 58 (1224960)
I0126 12:00:39.436772  9477 net.cpp:129] Top shape: 1 1056 20 58 (1224960)
I0126 12:00:39.436776  9477 net.cpp:137] Memory required for data: 874166484
I0126 12:00:39.436780  9477 layer_factory.hpp:77] Creating layer conv1_17/bn
I0126 12:00:39.436789  9477 net.cpp:84] Creating Layer conv1_17/bn
I0126 12:00:39.436794  9477 net.cpp:406] conv1_17/bn <- concat1_16_concat1_16_0_split_0
I0126 12:00:39.436800  9477 net.cpp:380] conv1_17/bn -> conv1_17/bn
I0126 12:00:39.437369  9477 net.cpp:122] Setting up conv1_17/bn
I0126 12:00:39.437379  9477 net.cpp:129] Top shape: 1 1056 20 58 (1224960)
I0126 12:00:39.437383  9477 net.cpp:137] Memory required for data: 879066324
I0126 12:00:39.437392  9477 layer_factory.hpp:77] Creating layer conv1_17/scale
I0126 12:00:39.437402  9477 net.cpp:84] Creating Layer conv1_17/scale
I0126 12:00:39.437407  9477 net.cpp:406] conv1_17/scale <- conv1_17/bn
I0126 12:00:39.437414  9477 net.cpp:367] conv1_17/scale -> conv1_17/bn (in-place)
I0126 12:00:39.437505  9477 layer_factory.hpp:77] Creating layer conv1_17/scale
I0126 12:00:39.437788  9477 net.cpp:122] Setting up conv1_17/scale
I0126 12:00:39.437798  9477 net.cpp:129] Top shape: 1 1056 20 58 (1224960)
I0126 12:00:39.437801  9477 net.cpp:137] Memory required for data: 883966164
I0126 12:00:39.437808  9477 layer_factory.hpp:77] Creating layer relu1_17
I0126 12:00:39.437816  9477 net.cpp:84] Creating Layer relu1_17
I0126 12:00:39.437821  9477 net.cpp:406] relu1_17 <- conv1_17/bn
I0126 12:00:39.437826  9477 net.cpp:367] relu1_17 -> conv1_17/bn (in-place)
I0126 12:00:39.438287  9477 net.cpp:122] Setting up relu1_17
I0126 12:00:39.438300  9477 net.cpp:129] Top shape: 1 1056 20 58 (1224960)
I0126 12:00:39.438304  9477 net.cpp:137] Memory required for data: 888866004
I0126 12:00:39.438308  9477 layer_factory.hpp:77] Creating layer conv1_17
I0126 12:00:39.438321  9477 net.cpp:84] Creating Layer conv1_17
I0126 12:00:39.438326  9477 net.cpp:406] conv1_17 <- conv1_17/bn
I0126 12:00:39.438334  9477 net.cpp:380] conv1_17 -> conv1_17
I0126 12:00:39.460558  9477 net.cpp:122] Setting up conv1_17
I0126 12:00:39.460598  9477 net.cpp:129] Top shape: 1 32 20 58 (37120)
I0126 12:00:39.460603  9477 net.cpp:137] Memory required for data: 889014484
I0126 12:00:39.460615  9477 layer_factory.hpp:77] Creating layer concat1_17
I0126 12:00:39.460631  9477 net.cpp:84] Creating Layer concat1_17
I0126 12:00:39.460639  9477 net.cpp:406] concat1_17 <- concat1_16_concat1_16_0_split_1
I0126 12:00:39.460647  9477 net.cpp:406] concat1_17 <- conv1_17
I0126 12:00:39.460654  9477 net.cpp:380] concat1_17 -> concat1_17
I0126 12:00:39.460731  9477 net.cpp:122] Setting up concat1_17
I0126 12:00:39.460739  9477 net.cpp:129] Top shape: 1 1088 20 58 (1262080)
I0126 12:00:39.460743  9477 net.cpp:137] Memory required for data: 894062804
I0126 12:00:39.460747  9477 layer_factory.hpp:77] Creating layer concat1_17_concat1_17_0_split
I0126 12:00:39.460757  9477 net.cpp:84] Creating Layer concat1_17_concat1_17_0_split
I0126 12:00:39.460762  9477 net.cpp:406] concat1_17_concat1_17_0_split <- concat1_17
I0126 12:00:39.460767  9477 net.cpp:380] concat1_17_concat1_17_0_split -> concat1_17_concat1_17_0_split_0
I0126 12:00:39.460777  9477 net.cpp:380] concat1_17_concat1_17_0_split -> concat1_17_concat1_17_0_split_1
I0126 12:00:39.460875  9477 net.cpp:122] Setting up concat1_17_concat1_17_0_split
I0126 12:00:39.460882  9477 net.cpp:129] Top shape: 1 1088 20 58 (1262080)
I0126 12:00:39.460888  9477 net.cpp:129] Top shape: 1 1088 20 58 (1262080)
I0126 12:00:39.460892  9477 net.cpp:137] Memory required for data: 904159444
I0126 12:00:39.460896  9477 layer_factory.hpp:77] Creating layer conv1_18/bn
I0126 12:00:39.460906  9477 net.cpp:84] Creating Layer conv1_18/bn
I0126 12:00:39.460909  9477 net.cpp:406] conv1_18/bn <- concat1_17_concat1_17_0_split_0
I0126 12:00:39.460917  9477 net.cpp:380] conv1_18/bn -> conv1_18/bn
I0126 12:00:39.461549  9477 net.cpp:122] Setting up conv1_18/bn
I0126 12:00:39.461561  9477 net.cpp:129] Top shape: 1 1088 20 58 (1262080)
I0126 12:00:39.461570  9477 net.cpp:137] Memory required for data: 909207764
I0126 12:00:39.461582  9477 layer_factory.hpp:77] Creating layer conv1_18/scale
I0126 12:00:39.461593  9477 net.cpp:84] Creating Layer conv1_18/scale
I0126 12:00:39.461598  9477 net.cpp:406] conv1_18/scale <- conv1_18/bn
…
I0126 12:00:45.975425  9477 net.cpp:406] concat1_16_concat1_16_0_split <- concat1_16
I0126 12:00:45.975430  9477 net.cpp:380] concat1_16_concat1_16_0_split -> concat1_16_concat1_16_0_split_0
I0126 12:00:45.975437  9477 net.cpp:380] concat1_16_concat1_16_0_split -> concat1_16_concat1_16_0_split_1
I0126 12:00:45.975515  9477 net.cpp:122] Setting up concat1_16_concat1_16_0_split
I0126 12:00:45.975523  9477 net.cpp:129] Top shape: 1 1056 23 24 (582912)
I0126 12:00:45.975528  9477 net.cpp:129] Top shape: 1 1056 23 24 (582912)
I0126 12:00:45.975533  9477 net.cpp:137] Memory required for data: 415868384
I0126 12:00:45.975536  9477 layer_factory.hpp:77] Creating layer conv1_17/bn
I0126 12:00:45.975544  9477 net.cpp:84] Creating Layer conv1_17/bn
I0126 12:00:45.975549  9477 net.cpp:406] conv1_17/bn <- concat1_16_concat1_16_0_split_0
I0126 12:00:45.975555  9477 net.cpp:380] conv1_17/bn -> conv1_17/bn
I0126 12:00:45.976137  9477 net.cpp:122] Setting up conv1_17/bn
I0126 12:00:45.976148  9477 net.cpp:129] Top shape: 1 1056 23 24 (582912)
I0126 12:00:45.976152  9477 net.cpp:137] Memory required for data: 418200032
I0126 12:00:45.976166  9477 layer_factory.hpp:77] Creating layer conv1_17/scale
I0126 12:00:45.976177  9477 net.cpp:84] Creating Layer conv1_17/scale
I0126 12:00:45.976182  9477 net.cpp:406] conv1_17/scale <- conv1_17/bn
I0126 12:00:45.976188  9477 net.cpp:367] conv1_17/scale -> conv1_17/bn (in-place)
I0126 12:00:45.976279  9477 layer_factory.hpp:77] Creating layer conv1_17/scale
I0126 12:00:45.976613  9477 net.cpp:122] Setting up conv1_17/scale
I0126 12:00:45.976622  9477 net.cpp:129] Top shape: 1 1056 23 24 (582912)
I0126 12:00:45.976626  9477 net.cpp:137] Memory required for data: 420531680
I0126 12:00:45.976634  9477 layer_factory.hpp:77] Creating layer relu1_17
I0126 12:00:45.976641  9477 net.cpp:84] Creating Layer relu1_17
I0126 12:00:45.976646  9477 net.cpp:406] relu1_17 <- conv1_17/bn
I0126 12:00:45.976651  9477 net.cpp:367] relu1_17 -> conv1_17/bn (in-place)
I0126 12:00:45.977174  9477 net.cpp:122] Setting up relu1_17
I0126 12:00:45.977187  9477 net.cpp:129] Top shape: 1 1056 23 24 (582912)
I0126 12:00:45.977191  9477 net.cpp:137] Memory required for data: 422863328
I0126 12:00:45.977196  9477 layer_factory.hpp:77] Creating layer conv1_17
I0126 12:00:45.977210  9477 net.cpp:84] Creating Layer conv1_17
I0126 12:00:45.977216  9477 net.cpp:406] conv1_17 <- conv1_17/bn
I0126 12:00:45.977223  9477 net.cpp:380] conv1_17 -> conv1_17
I0126 12:00:45.992563  9477 net.cpp:122] Setting up conv1_17
I0126 12:00:45.992604  9477 net.cpp:129] Top shape: 1 32 23 24 (17664)
I0126 12:00:45.992609  9477 net.cpp:137] Memory required for data: 422933984
I0126 12:00:45.992620  9477 layer_factory.hpp:77] Creating layer concat1_17
I0126 12:00:45.992635  9477 net.cpp:84] Creating Layer concat1_17
I0126 12:00:45.992642  9477 net.cpp:406] concat1_17 <- concat1_16_concat1_16_0_split_1
I0126 12:00:45.992650  9477 net.cpp:406] concat1_17 <- conv1_17
I0126 12:00:45.992660  9477 net.cpp:380] concat1_17 -> concat1_17
I0126 12:00:45.992729  9477 net.cpp:122] Setting up concat1_17
I0126 12:00:45.992738  9477 net.cpp:129] Top shape: 1 1088 23 24 (600576)
I0126 12:00:45.992743  9477 net.cpp:137] Memory required for data: 425336288
I0126 12:00:45.992746  9477 layer_factory.hpp:77] Creating layer concat1_17_concat1_17_0_split
I0126 12:00:45.992754  9477 net.cpp:84] Creating Layer concat1_17_concat1_17_0_split
I0126 12:00:45.992760  9477 net.cpp:406] concat1_17_concat1_17_0_split <- concat1_17
I0126 12:00:45.992766  9477 net.cpp:380] concat1_17_concat1_17_0_split -> concat1_17_concat1_17_0_split_0
I0126 12:00:45.992774  9477 net.cpp:380] concat1_17_concat1_17_0_split -> concat1_17_concat1_17_0_split_1
I0126 12:00:45.992862  9477 net.cpp:122] Setting up concat1_17_concat1_17_0_split
I0126 12:00:45.992871  9477 net.cpp:129] Top shape: 1 1088 23 24 (600576)
I0126 12:00:45.992877  9477 net.cpp:129] Top shape: 1 1088 23 24 (600576)
I0126 12:00:45.992880  9477 net.cpp:137] Memory required for data: 430140896
I0126 12:00:45.992884  9477 layer_factory.hpp:77] Creating layer conv1_18/bn
I0126 12:00:45.992893  9477 net.cpp:84] Creating Layer conv1_18/bn
I0126 12:00:45.992898  9477 net.cpp:406] conv1_18/bn <- concat1_17_concat1_17_0_split_0
I0126 12:00:45.992905  9477 net.cpp:380] conv1_18/bn -> conv1_18/bn
I0126 12:00:45.993566  9477 net.cpp:122] Setting up conv1_18/bn
I0126 12:00:45.993580  9477 net.cpp:129] Top shape: 1 1088 23 24 (600576)
I0126 12:00:45.993583  9477 net.cpp:137] Memory required for data: 432543200
I0126 12:00:45.993592  9477 layer_factory.hpp:77] Creating layer conv1_18/scale
I0126 12:00:45.993600  9477 net.cpp:84] Creating Layer conv1_18/scale
I0126 12:00:45.993604  9477 net.cpp:406] conv1_18/scale <- conv1_18/bn
I0126 12:00:45.993608  9477 net.cpp:367] conv1_18/scale -> conv1_18/bn (in-place)
I0126 12:00:45.993690  9477 layer_factory.hpp:77] Creating layer conv1_18/scale
I0126 12:00:45.994097  9477 net.cpp:122] Setting up conv1_18/scale
I0126 12:00:45.994112  9477 net.cpp:129] Top shape: 1 1088 23 24 (600576)
I0126 12:00:45.994117  9477 net.cpp:137] Memory required for data: 434945504
I0126 12:00:45.994124  9477 layer_factory.hpp:77] Creating layer relu1_18
I0126 12:00:45.994140  9477 net.cpp:84] Creating Layer relu1_18
I0126 12:00:45.994148  9477 net.cpp:406] relu1_18 <- conv1_18/bn
I0126 12:00:45.994153  9477 net.cpp:367] relu1_18 -> conv1_18/bn (in-place)
I0126 12:00:45.994524  9477 net.cpp:122] Setting up relu1_18
I0126 12:00:45.994535  9477 net.cpp:129] Top shape: 1 1088 23 24 (600576)
I0126 12:00:45.994537  9477 net.cpp:137] Memory required for data: 437347808
I0126 12:00:45.994540  9477 layer_factory.hpp:77] Creating layer conv1_18
I0126 12:00:45.994551  9477 net.cpp:84] Creating Layer conv1_18
I0126 12:00:45.994559  9477 net.cpp:406] conv1_18 <- conv1_18/bn
I0126 12:00:45.994565  9477 net.cpp:380] conv1_18 -> conv1_18
I0126 12:00:46.009438  9477 net.cpp:122] Setting up conv1_18
I0126 12:00:46.009475  9477 net.cpp:129] Top shape: 1 32 23 24 (17664)
I0126 12:00:46.009480  9477 net.cpp:137] Memory required for data: 437418464
I0126 12:00:46.009491  9477 layer_factory.hpp:77] Creating layer concat1_18
I0126 12:00:46.009506  9477 net.cpp:84] Creating Layer concat1_18
I0126 12:00:46.009513  9477 net.cpp:406] concat1_18 <- concat1_17_concat1_17_0_split_1
I0126 12:00:46.009522  9477 net.cpp:406] concat1_18 <- conv1_18
I0126 12:00:46.009531  9477 net.cpp:380] concat1_18 -> concat1_18
I0126 12:00:46.009596  9477 net.cpp:122] Setting up concat1_18
I0126 12:00:46.009605  9477 net.cpp:129] Top shape: 1 1120 23 24 (618240)
I0126 12:00:46.009609  9477 net.cpp:137] Memory required for data: 439891424
I0126 12:00:46.009613  9477 layer_factory.hpp:77] Creating layer concat1_18_concat1_18_0_split
I0126 12:00:46.009620  9477 net.cpp:84] Creating Layer concat1_18_concat1_18_0_split
I0126 12:00:46.009625  9477 net.cpp:406] concat1_18_concat1_18_0_split <- concat1_18
I0126 12:00:46.009632  9477 net.cpp:380] concat1_18_concat1_18_0_split -> concat1_18_concat1_18_0_split_0
I0126 12:00:46.009640  9477 net.cpp:380] concat1_18_concat1_18_0_split -> concat1_18_concat1_18_0_split_1
I0126 12:00:46.009726  9477 net.cpp:122] Setting up concat1_18_concat1_18_0_split
I0126 12:00:46.009734  9477 net.cpp:129] Top shape: 1 1120 23 24 (618240)
I0126 12:00:46.009739  9477 net.cpp:129] Top shape: 1 1120 23 24 (618240)
I0126 12:00:46.009743  9477 net.cpp:137] Memory required for data: 444837344
I0126 12:00:46.009747  9477 layer_factory.hpp:77] Creating layer conv1_19/bn
I0126 12:00:46.009757  9477 net.cpp:84] Creating Layer conv1_19/bn
I0126 12:00:46.009762  9477 net.cpp:406] conv1_19/bn <- concat1_18_concat1_18_0_split_0
I0126 12:00:46.009768  9477 net.cpp:380] conv1_19/bn -> conv1_19/bn
I0126 12:00:46.010378  9477 net.cpp:122] Setting up conv1_19/bn
I0126 12:00:46.010388  9477 net.cpp:129] Top shape: 1 1120 23 24 (618240)
I0126 12:00:46.010392  9477 net.cpp:137] Memory required for data: 447310304
I0126 12:00:46.010402  9477 layer_factory.hpp:77] Creating layer conv1_19/scale
I0126 12:00:46.010413  9477 net.cpp:84] Creating Layer conv1_19/scale
I0126 12:00:46.010418  9477 net.cpp:406] conv1_19/scale <- conv1_19/bn
I0126 12:00:46.010424  9477 net.cpp:367] conv1_19/scale -> conv1_19/bn (in-place)
I0126 12:00:46.010517  9477 layer_factory.hpp:77] Creating layer conv1_19/scale
I0126 12:00:46.010864  9477 net.cpp:122] Setting up conv1_19/scale
I0126 12:00:46.010874  9477 net.cpp:129] Top shape: 1 1120 23 24 (618240)
I0126 12:00:46.010879  9477 net.cpp:137] Memory required for data: 449783264
I0126 12:00:46.010886  9477 layer_factory.hpp:77] Creating layer relu1_19
I0126 12:00:46.010893  9477 net.cpp:84] Creating Layer relu1_19
I0126 12:00:46.010898  9477 net.cpp:406] relu1_19 <- conv1_19/bn
I0126 12:00:46.010905  9477 net.cpp:367] relu1_19 -> conv1_19/bn (in-place)
I0126 12:00:46.011617  9477 net.cpp:122] Setting up relu1_19
I0126 12:00:46.011637  9477 net.cpp:129] Top shape: 1 1120 23 24 (618240)
I0126 12:00:46.011641  9477 net.cpp:137] Memory required for data: 452256224
I0126 12:00:46.011647  9477 layer_factory.hpp:77] Creating layer conv1_19
I0126 12:00:46.011663  9477 net.cpp:84] Creating Layer conv1_19
I0126 12:00:46.011669  9477 net.cpp:406] conv1_19 <- conv1_19/bn
I0126 12:00:46.011678  9477 net.cpp:380] conv1_19 -> conv1_19
I0126 12:00:46.082931  9477 net.cpp:122] Setting up conv1_19
I0126 12:00:46.082983  9477 net.cpp:129] Top shape: 1 32 23 24 (17664)
I0126 12:00:46.082988  9477 net.cpp:137] Memory required for data: 452326880
I0126 12:00:46.083001  9477 layer_factory.hpp:77] Creating layer concat1_19
I0126 12:00:46.083019  9477 net.cpp:84] Creating Layer concat1_19
I0126 12:00:46.083029  9477 net.cpp:406] concat1_19 <- concat1_18_concat1_18_0_split_1
I0126 12:00:46.083039  9477 net.cpp:406] concat1_19 <- conv1_19
I0126 12:00:46.083046  9477 net.cpp:380] concat1_19 -> concat1_19
I0126 12:00:46.083159  9477 net.cpp:122] Setting up concat1_19
I0126 12:00:46.083170  9477 net.cpp:129] Top shape: 1 1152 23 24 (635904)
I0126 12:00:46.083174  9477 net.cpp:137] Memory required for data: 454870496
I0126 12:00:46.083179  9477 layer_factory.hpp:77] Creating layer concat1_19_concat1_19_0_split
I0126 12:00:46.083189  9477 net.cpp:84] Creating Layer concat1_19_concat1_19_0_split
I0126 12:00:46.083194  9477 net.cpp:406] concat1_19_concat1_19_0_split <- concat1_19
I0126 12:00:46.083199  9477 net.cpp:380] concat1_19_concat1_19_0_split -> concat1_19_concat1_19_0_split_0
I0126 12:00:46.083210  9477 net.cpp:380] concat1_19_concat1_19_0_split -> concat1_19_concat1_19_0_split_1
I0126 12:00:46.083333  9477 net.cpp:122] Setting up concat1_19_concat1_19_0_split
I0126 12:00:46.083343  9477 net.cpp:129] Top shape: 1 1152 23 24 (635904)
I0126 12:00:46.083348  9477 net.cpp:129] Top shape: 1 1152 23 24 (635904)
I0126 12:00:46.083353  9477 net.cpp:137] Memory required for data: 459957728
I0126 12:00:46.083356  9477 layer_factory.hpp:77] Creating layer conv1_20/bn
I0126 12:00:46.083364  9477 net.cpp:84] Creating Layer conv1_20/bn
I0126 12:00:46.083369  9477 net.cpp:406] conv1_20/bn <- concat1_19_concat1_19_0_split_0
I0126 12:00:46.083389  9477 net.cpp:380] conv1_20/bn -> conv1_20/bn
I0126 12:00:46.109349  9477 net.cpp:122] Setting up conv1_20/bn
I0126 12:00:46.109390  9477 net.cpp:129] Top shape: 1 1152 23 24 (635904)
I0126 12:00:46.109395  9477 net.cpp:137] Memory required for data: 462501344
I0126 12:00:46.109411  9477 layer_factory.hpp:77] Creating layer conv1_20/scale
I0126 12:00:46.109428  9477 net.cpp:84] Creating Layer conv1_20/scale
I0126 12:00:46.109436  9477 net.cpp:406] conv1_20/scale <- conv1_20/bn
I0126 12:00:46.109447  9477 net.cpp:367] conv1_20/scale -> conv1_20/bn (in-place)
I0126 12:00:46.109555  9477 layer_factory.hpp:77] Creating layer conv1_20/scale
I0126 12:00:46.109930  9477 net.cpp:122] Setting up conv1_20/scale
I0126 12:00:46.109939  9477 net.cpp:129] Top shape: 1 1152 23 24 (635904)
I0126 12:00:46.109944  9477 net.cpp:137] Memory required for data: 465044960
I0126 12:00:46.109952  9477 layer_factory.hpp:77] Creating layer relu1_20
I0126 12:00:46.109961  9477 net.cpp:84] Creating Layer relu1_20
I0126 12:00:46.109966  9477 net.cpp:406] relu1_20 <- conv1_20/bn
I0126 12:00:46.109972  9477 net.cpp:367] relu1_20 -> conv1_20/bn (in-place)
I0126 12:00:46.110368  9477 net.cpp:122] Setting up relu1_20
I0126 12:00:46.110379  9477 net.cpp:129] Top shape: 1 1152 23 24 (635904)
I0126 12:00:46.110384  9477 net.cpp:137] Memory required for data: 467588576
I0126 12:00:46.110389  9477 layer_factory.hpp:77] Creating layer conv1_20
I0126 12:00:46.110404  9477 net.cpp:84] Creating Layer conv1_20
I0126 12:00:46.110409  9477 net.cpp:406] conv1_20 <- conv1_20/bn
I0126 12:00:46.110417  9477 net.cpp:380] conv1_20 -> conv1_20
I0126 12:00:46.126353  9477 net.cpp:122] Setting up conv1_20
I0126 12:00:46.126390  9477 net.cpp:129] Top shape: 1 32 23 24 (17664)
I0126 12:00:46.126395  9477 net.cpp:137] Memory required for data: 467659232
I0126 12:00:46.126406  9477 layer_factory.hpp:77] Creating layer concat1_20
I0126 12:00:46.126421  9477 net.cpp:84] Creating Layer concat1_20
I0126 12:00:46.126430  9477 net.cpp:406] concat1_20 <- concat1_19_concat1_19_0_split_1
I0126 12:00:46.126438  9477 net.cpp:406] concat1_20 <- conv1_20
I0126 12:00:46.126446  9477 net.cpp:380] concat1_20 -> concat1_20
I0126 12:00:46.126507  9477 net.cpp:122] Setting up concat1_20
I0126 12:00:46.126521  9477 net.cpp:129] Top shape: 1 1184 23 24 (653568)
I0126 12:00:46.126525  9477 net.cpp:137] Memory required for data: 470273504
I0126 12:00:46.126529  9477 layer_factory.hpp:77] Creating layer concat1_20_concat1_20_0_split
I0126 12:00:46.126538  9477 net.cpp:84] Creating Layer concat1_20_concat1_20_0_split
I0126 12:00:46.126541  9477 net.cpp:406] concat1_20_concat1_20_0_split <- concat1_20
I0126 12:00:46.126547  9477 net.cpp:380] concat1_20_concat1_20_0_split -> concat1_20_concat1_20_0_split_0
I0126 12:00:46.126555  9477 net.cpp:380] concat1_20_concat1_20_0_split -> concat1_20_concat1_20_0_split_1
I0126 12:00:46.126639  9477 net.cpp:122] Setting up concat1_20_concat1_20_0_split
I0126 12:00:46.126647  9477 net.cpp:129] Top shape: 1 1184 23 24 (653568)
I0126 12:00:46.126652  9477 net.cpp:129] Top shape: 1 1184 23 24 (653568)
I0126 12:00:46.126657  9477 net.cpp:137] Memory required for data: 475502048
I0126 12:00:46.126660  9477 layer_factory.hpp:77] Creating layer conv1_21/bn
I0126 12:00:46.126669  9477 net.cpp:84] Creating Layer conv1_21/bn
I0126 12:00:46.126673  9477 net.cpp:406] conv1_21/bn <- concat1_20_concat1_20_0_split_0
I0126 12:00:46.126680  9477 net.cpp:380] conv1_21/bn -> conv1_21/bn
I0126 12:00:46.127269  9477 net.cpp:122] Setting up conv1_21/bn
I0126 12:00:46.127279  9477 net.cpp:129] Top shape: 1 1184 23 24 (653568)
I0126 12:00:46.127282  9477 net.cpp:137] Memory required for data: 478116320
I0126 12:00:46.127292  9477 layer_factory.hpp:77] Creating layer conv1_21/scale
I0126 12:00:46.127302  9477 net.cpp:84] Creating Layer conv1_21/scale
I0126 12:00:46.127306  9477 net.cpp:406] conv1_21/scale <- conv1_21/bn
I0126 12:00:46.127315  9477 net.cpp:367] conv1_21/scale -> conv1_21/bn (in-place)
I0126 12:00:46.127413  9477 layer_factory.hpp:77] Creating layer conv1_21/scale
I0126 12:00:46.127769  9477 net.cpp:122] Setting up conv1_21/scale
I0126 12:00:46.127779  9477 net.cpp:129] Top shape: 1 1184 23 24 (653568)
I0126 12:00:46.127784  9477 net.cpp:137] Memory required for data: 480730592
I0126 12:00:46.127791  9477 layer_factory.hpp:77] Creating layer relu1_21
I0126 12:00:46.127800  9477 net.cpp:84] Creating Layer relu1_21
I0126 12:00:46.127805  9477 net.cpp:406] relu1_21 <- conv1_21/bn
I0126 12:00:46.127811  9477 net.cpp:367] relu1_21 -> conv1_21/bn (in-place)
I0126 12:00:46.128410  9477 net.cpp:122] Setting up relu1_21
I0126 12:00:46.128423  9477 net.cpp:129] Top shape: 1 1184 23 24 (653568)
I0126 12:00:46.128428  9477 net.cpp:137] Memory required for data: 483344864
I0126 12:00:46.128432  9477 layer_factory.hpp:77] Creating layer conv1_21
I0126 12:00:46.128448  9477 net.cpp:84] Creating Layer conv1_21
I0126 12:00:46.128454  9477 net.cpp:406] conv1_21 <- conv1_21/bn
I0126 12:00:46.128461  9477 net.cpp:380] conv1_21 -> conv1_21
I0126 12:00:46.144438  9477 net.cpp:122] Setting up conv1_21
I0126 12:00:46.144474  9477 net.cpp:129] Top shape: 1 32 23 24 (17664)
I0126 12:00:46.144479  9477 net.cpp:137] Memory required for data: 483415520
I0126 12:00:46.144490  9477 layer_factory.hpp:77] Creating layer concat1_21
I0126 12:00:46.144505  9477 net.cpp:84] Creating Layer concat1_21
I0126 12:00:46.144512  9477 net.cpp:406] concat1_21 <- concat1_20_concat1_20_0_split_1
I0126 12:00:46.144520  9477 net.cpp:406] concat1_21 <- conv1_21
I0126 12:00:46.144529  9477 net.cpp:380] concat1_21 -> concat1_21
I0126 12:00:46.144592  9477 net.cpp:122] Setting up concat1_21
I0126 12:00:46.144600  9477 net.cpp:129] Top shape: 1 1216 23 24 (671232)
I0126 12:00:46.144604  9477 net.cpp:137] Memory required for data: 486100448
I0126 12:00:46.144608  9477 layer_factory.hpp:77] Creating layer concat1_21_concat1_21_0_split
I0126 12:00:46.144615  9477 net.cpp:84] Creating Layer concat1_21_concat1_21_0_split
I0126 12:00:46.144620  9477 net.cpp:406] concat1_21_concat1_21_0_split <- concat1_21
I0126 12:00:46.144628  9477 net.cpp:380] concat1_21_concat1_21_0_split -> concat1_21_concat1_21_0_split_0
I0126 12:00:46.144635  9477 net.cpp:380] concat1_21_concat1_21_0_split -> concat1_21_concat1_21_0_split_1
I0126 12:00:46.144717  9477 net.cpp:122] Setting up concat1_21_concat1_21_0_split
I0126 12:00:46.144729  9477 net.cpp:129] Top shape: 1 1216 23 24 (671232)
I0126 12:00:46.144735  9477 net.cpp:129] Top shape: 1 1216 23 24 (671232)
I0126 12:00:46.144738  9477 net.cpp:137] Memory required for data: 491470304
I0126 12:00:46.144743  9477 layer_factory.hpp:77] Creating layer conv1_22/bn
I0126 12:00:46.144752  9477 net.cpp:84] Creating Layer conv1_22/bn
I0126 12:00:46.144757  9477 net.cpp:406] conv1_22/bn <- concat1_21_concat1_21_0_split_0
I0126 12:00:46.144763  9477 net.cpp:380] conv1_22/bn -> conv1_22/bn
I0126 12:00:46.145375  9477 net.cpp:122] Setting up conv1_22/bn
I0126 12:00:46.145385  9477 net.cpp:129] Top shape: 1 1216 23 24 (671232)
I0126 12:00:46.145390  9477 net.cpp:137] Memory required for data: 494155232
I0126 12:00:46.145398  9477 layer_factory.hpp:77] Creating layer conv1_22/scale
I0126 12:00:46.145408  9477 net.cpp:84] Creating Layer conv1_22/scale
I0126 12:00:46.145413  9477 net.cpp:406] conv1_22/scale <- conv1_22/bn
I0126 12:00:46.145421  9477 net.cpp:367] conv1_22/scale -> conv1_22/bn (in-place)
I0126 12:00:46.145515  9477 layer_factory.hpp:77] Creating layer conv1_22/scale
I0126 12:00:46.145866  9477 net.cpp:122] Setting up conv1_22/scale
I0126 12:00:46.145875  9477 net.cpp:129] Top shape: 1 1216 23 24 (671232)
I0126 12:00:46.145879  9477 net.cpp:137] Memory required for data: 496840160
I0126 12:00:46.145886  9477 layer_factory.hpp:77] Creating layer relu1_22
I0126 12:00:46.145895  9477 net.cpp:84] Creating Layer relu1_22
I0126 12:00:46.145900  9477 net.cpp:406] relu1_22 <- conv1_22/bn
I0126 12:00:46.145906  9477 net.cpp:367] relu1_22 -> conv1_22/bn (in-place)
I0126 12:00:46.146450  9477 net.cpp:122] Setting up relu1_22
I0126 12:00:46.146463  9477 net.cpp:129] Top shape: 1 1216 23 24 (671232)
I0126 12:00:46.146467  9477 net.cpp:137] Memory required for data: 499525088
I0126 12:00:46.146471  9477 layer_factory.hpp:77] Creating layer conv1_22
I0126 12:00:46.146486  9477 net.cpp:84] Creating Layer conv1_22
I0126 12:00:46.146490  9477 net.cpp:406] conv1_22 <- conv1_22/bn
I0126 12:00:46.146499  9477 net.cpp:380] conv1_22 -> conv1_22
I0126 12:00:46.164351  9477 net.cpp:122] Setting up conv1_22
I0126 12:00:46.164389  9477 net.cpp:129] Top shape: 1 32 23 24 (17664)
I0126 12:00:46.164393  9477 net.cpp:137] Memory required for data: 499595744
I0126 12:00:46.164404  9477 layer_factory.hpp:77] Creating layer concat1_22
I0126 12:00:46.164422  9477 net.cpp:84] Creating Layer concat1_22
I0126 12:00:46.164429  9477 net.cpp:406] concat1_22 <- concat1_21_concat1_21_0_split_1
I0126 12:00:46.164438  9477 net.cpp:406] concat1_22 <- conv1_22
I0126 12:00:46.164445  9477 net.cpp:380] concat1_22 -> concat1_22
I0126 12:00:46.164510  9477 net.cpp:122] Setting up concat1_22
I0126 12:00:46.164520  9477 net.cpp:129] Top shape: 1 1248 23 24 (688896)
I0126 12:00:46.164523  9477 net.cpp:137] Memory required for data: 502351328
I0126 12:00:46.164527  9477 layer_factory.hpp:77] Creating layer concat1_22_concat1_22_0_split
I0126 12:00:46.164535  9477 net.cpp:84] Creating Layer concat1_22_concat1_22_0_split
I0126 12:00:46.164541  9477 net.cpp:406] concat1_22_concat1_22_0_split <- concat1_22
I0126 12:00:46.164547  9477 net.cpp:380] concat1_22_concat1_22_0_split -> concat1_22_concat1_22_0_split_0
I0126 12:00:46.164556  9477 net.cpp:380] concat1_22_concat1_22_0_split -> concat1_22_concat1_22_0_split_1
I0126 12:00:46.164638  9477 net.cpp:122] Setting up concat1_22_concat1_22_0_split
I0126 12:00:46.164647  9477 net.cpp:129] Top shape: 1 1248 23 24 (688896)
I0126 12:00:46.164652  9477 net.cpp:129] Top shape: 1 1248 23 24 (688896)
I0126 12:00:46.164656  9477 net.cpp:137] Memory required for data: 507862496
I0126 12:00:46.164660  9477 layer_factory.hpp:77] Creating layer conv1_23/bn
I0126 12:00:46.164669  9477 net.cpp:84] Creating Layer conv1_23/bn
I0126 12:00:46.164674  9477 net.cpp:406] conv1_23/bn <- concat1_22_concat1_22_0_split_0
I0126 12:00:46.164681  9477 net.cpp:380] conv1_23/bn -> conv1_23/bn
I0126 12:00:46.165297  9477 net.cpp:122] Setting up conv1_23/bn
I0126 12:00:46.165310  9477 net.cpp:129] Top shape: 1 1248 23 24 (688896)
I0126 12:00:46.165315  9477 net.cpp:137] Memory required for data: 510618080
I0126 12:00:46.165324  9477 layer_factory.hpp:77] Creating layer conv1_23/scale
I0126 12:00:46.165334  9477 net.cpp:84] Creating Layer conv1_23/scale
I0126 12:00:46.165339  9477 net.cpp:406] conv1_23/scale <- conv1_23/bn
I0126 12:00:46.165346  9477 net.cpp:367] conv1_23/scale -> conv1_23/bn (in-place)
I0126 12:00:46.165444  9477 layer_factory.hpp:77] Creating layer conv1_23/scale
I0126 12:00:46.165799  9477 net.cpp:122] Setting up conv1_23/scale
I0126 12:00:46.165808  9477 net.cpp:129] Top shape: 1 1248 23 24 (688896)
I0126 12:00:46.165812  9477 net.cpp:137] Memory required for data: 513373664
I0126 12:00:46.165819  9477 layer_factory.hpp:77] Creating layer relu1_23
I0126 12:00:46.165827  9477 net.cpp:84] Creating Layer relu1_23
I0126 12:00:46.165832  9477 net.cpp:406] relu1_23 <- conv1_23/bn
I0126 12:00:46.165838  9477 net.cpp:367] relu1_23 -> conv1_23/bn (in-place)
I0126 12:00:46.166142  9477 net.cpp:122] Setting up relu1_23
I0126 12:00:46.166154  9477 net.cpp:129] Top shape: 1 1248 23 24 (688896)
I0126 12:00:46.166158  9477 net.cpp:137] Memory required for data: 516129248
I0126 12:00:46.166163  9477 layer_factory.hpp:77] Creating layer conv1_23
I0126 12:00:46.166175  9477 net.cpp:84] Creating Layer conv1_23
I0126 12:00:46.166180  9477 net.cpp:406] conv1_23 <- conv1_23/bn
I0126 12:00:46.166188  9477 net.cpp:380] conv1_23 -> conv1_23
I0126 12:00:46.182689  9477 net.cpp:122] Setting up conv1_23
I0126 12:00:46.182727  9477 net.cpp:129] Top shape: 1 32 23 24 (17664)
I0126 12:00:46.182731  9477 net.cpp:137] Memory required for data: 516199904
I0126 12:00:46.182744  9477 layer_factory.hpp:77] Creating layer concat1_23
I0126 12:00:46.182760  9477 net.cpp:84] Creating Layer concat1_23
I0126 12:00:46.182768  9477 net.cpp:406] concat1_23 <- concat1_22_concat1_22_0_split_1
I0126 12:00:46.182777  9477 net.cpp:406] concat1_23 <- conv1_23
I0126 12:00:46.182785  9477 net.cpp:380] concat1_23 -> concat1_23
I0126 12:00:46.182849  9477 net.cpp:122] Setting up concat1_23
I0126 12:00:46.182858  9477 net.cpp:129] Top shape: 1 1280 23 24 (706560)
I0126 12:00:46.182862  9477 net.cpp:137] Memory required for data: 519026144
I0126 12:00:46.182867  9477 layer_factory.hpp:77] Creating layer concat1_23_concat1_23_0_split
I0126 12:00:46.182873  9477 net.cpp:84] Creating Layer concat1_23_concat1_23_0_split
I0126 12:00:46.182878  9477 net.cpp:406] concat1_23_concat1_23_0_split <- concat1_23
I0126 12:00:46.182883  9477 net.cpp:380] concat1_23_concat1_23_0_split -> concat1_23_concat1_23_0_split_0
I0126 12:00:46.182891  9477 net.cpp:380] concat1_23_concat1_23_0_split -> concat1_23_concat1_23_0_split_1
I0126 12:00:46.182976  9477 net.cpp:122] Setting up concat1_23_concat1_23_0_split
I0126 12:00:46.182986  9477 net.cpp:129] Top shape: 1 1280 23 24 (706560)
I0126 12:00:46.182991  9477 net.cpp:129] Top shape: 1 1280 23 24 (706560)
I0126 12:00:46.182996  9477 net.cpp:137] Memory required for data: 524678624
I0126 12:00:46.182999  9477 layer_factory.hpp:77] Creating layer conv1_24/bn
I0126 12:00:46.183007  9477 net.cpp:84] Creating Layer conv1_24/bn
I0126 12:00:46.183012  9477 net.cpp:406] conv1_24/bn <- concat1_23_concat1_23_0_split_0
I0126 12:00:46.183025  9477 net.cpp:380] conv1_24/bn -> conv1_24/bn
I0126 12:00:46.183621  9477 net.cpp:122] Setting up conv1_24/bn
I0126 12:00:46.183631  9477 net.cpp:129] Top shape: 1 1280 23 24 (706560)
I0126 12:00:46.183635  9477 net.cpp:137] Memory required for data: 527504864
I0126 12:00:46.183645  9477 layer_factory.hpp:77] Creating layer conv1_24/scale
I0126 12:00:46.183655  9477 net.cpp:84] Creating Layer conv1_24/scale
I0126 12:00:46.183660  9477 net.cpp:406] conv1_24/scale <- conv1_24/bn
I0126 12:00:46.183666  9477 net.cpp:367] conv1_24/scale -> conv1_24/bn (in-place)
I0126 12:00:46.183822  9477 layer_factory.hpp:77] Creating layer conv1_24/scale
I0126 12:00:46.184176  9477 net.cpp:122] Setting up conv1_24/scale
I0126 12:00:46.184186  9477 net.cpp:129] Top shape: 1 1280 23 24 (706560)
I0126 12:00:46.184195  9477 net.cpp:137] Memory required for data: 530331104
I0126 12:00:46.184202  9477 layer_factory.hpp:77] Creating layer relu1_24
I0126 12:00:46.184211  9477 net.cpp:84] Creating Layer relu1_24
I0126 12:00:46.184216  9477 net.cpp:406] relu1_24 <- conv1_24/bn
I0126 12:00:46.184221  9477 net.cpp:367] relu1_24 -> conv1_24/bn (in-place)
I0126 12:00:46.184803  9477 net.cpp:122] Setting up relu1_24
I0126 12:00:46.184816  9477 net.cpp:129] Top shape: 1 1280 23 24 (706560)
I0126 12:00:46.184820  9477 net.cpp:137] Memory required for data: 533157344
I0126 12:00:46.184825  9477 layer_factory.hpp:77] Creating layer conv1_24
I0126 12:00:46.184839  9477 net.cpp:84] Creating Layer conv1_24
I0126 12:00:46.184844  9477 net.cpp:406] conv1_24 <- conv1_24/bn
I0126 12:00:46.184851  9477 net.cpp:380] conv1_24 -> conv1_24
I0126 12:00:46.201885  9477 net.cpp:122] Setting up conv1_24
I0126 12:00:46.201925  9477 net.cpp:129] Top shape: 1 32 23 24 (17664)
I0126 12:00:46.201930  9477 net.cpp:137] Memory required for data: 533228000
I0126 12:00:46.201941  9477 layer_factory.hpp:77] Creating layer concat1_24
I0126 12:00:46.201956  9477 net.cpp:84] Creating Layer concat1_24
I0126 12:00:46.201963  9477 net.cpp:406] concat1_24 <- concat1_23_concat1_23_0_split_1
I0126 12:00:46.201972  9477 net.cpp:406] concat1_24 <- conv1_24
I0126 12:00:46.201980  9477 net.cpp:380] concat1_24 -> concat1_24
I0126 12:00:46.202049  9477 net.cpp:122] Setting up concat1_24
I0126 12:00:46.202059  9477 net.cpp:129] Top shape: 1 1312 23 24 (724224)
I0126 12:00:46.202062  9477 net.cpp:137] Memory required for data: 536124896
I0126 12:00:46.202066  9477 layer_factory.hpp:77] Creating layer concat1_24_concat1_24_0_split
I0126 12:00:46.202073  9477 net.cpp:84] Creating Layer concat1_24_concat1_24_0_split
I0126 12:00:46.202077  9477 net.cpp:406] concat1_24_concat1_24_0_split <- concat1_24
I0126 12:00:46.202085  9477 net.cpp:380] concat1_24_concat1_24_0_split -> concat1_24_concat1_24_0_split_0
I0126 12:00:46.202093  9477 net.cpp:380] concat1_24_concat1_24_0_split -> concat1_24_concat1_24_0_split_1
I0126 12:00:46.202180  9477 net.cpp:122] Setting up concat1_24_concat1_24_0_split
I0126 12:00:46.202188  9477 net.cpp:129] Top shape: 1 1312 23 24 (724224)
I0126 12:00:46.202193  9477 net.cpp:129] Top shape: 1 1312 23 24 (724224)
I0126 12:00:46.202198  9477 net.cpp:137] Memory required for data: 541918688
I0126 12:00:46.202201  9477 layer_factory.hpp:77] Creating layer conv1_25/bn
I0126 12:00:46.202209  9477 net.cpp:84] Creating Layer conv1_25/bn
I0126 12:00:46.202214  9477 net.cpp:406] conv1_25/bn <- concat1_24_concat1_24_0_split_0
I0126 12:00:46.202221  9477 net.cpp:380] conv1_25/bn -> conv1_25/bn
I0126 12:00:46.202844  9477 net.cpp:122] Setting up conv1_25/bn
I0126 12:00:46.202857  9477 net.cpp:129] Top shape: 1 1312 23 24 (724224)
I0126 12:00:46.202860  9477 net.cpp:137] Memory required for data: 544815584
I0126 12:00:46.202872  9477 layer_factory.hpp:77] Creating layer conv1_25/scale
I0126 12:00:46.202883  9477 net.cpp:84] Creating Layer conv1_25/scale
I0126 12:00:46.202888  9477 net.cpp:406] conv1_25/scale <- conv1_25/bn
I0126 12:00:46.202895  9477 net.cpp:367] conv1_25/scale -> conv1_25/bn (in-place)
I0126 12:00:46.202996  9477 layer_factory.hpp:77] Creating layer conv1_25/scale
I0126 12:00:46.203366  9477 net.cpp:122] Setting up conv1_25/scale
I0126 12:00:46.203375  9477 net.cpp:129] Top shape: 1 1312 23 24 (724224)
I0126 12:00:46.203378  9477 net.cpp:137] Memory required for data: 547712480
I0126 12:00:46.203409  9477 layer_factory.hpp:77] Creating layer relu1_25
I0126 12:00:46.203418  9477 net.cpp:84] Creating Layer relu1_25
I0126 12:00:46.203423  9477 net.cpp:406] relu1_25 <- conv1_25/bn
I0126 12:00:46.203428  9477 net.cpp:367] relu1_25 -> conv1_25/bn (in-place)
I0126 12:00:46.203812  9477 net.cpp:122] Setting up relu1_25
I0126 12:00:46.203824  9477 net.cpp:129] Top shape: 1 1312 23 24 (724224)
I0126 12:00:46.203829  9477 net.cpp:137] Memory required for data: 550609376
I0126 12:00:46.203833  9477 layer_factory.hpp:77] Creating layer conv1_25
I0126 12:00:46.203860  9477 net.cpp:84] Creating Layer conv1_25
I0126 12:00:46.203866  9477 net.cpp:406] conv1_25 <- conv1_25/bn
I0126 12:00:46.203873  9477 net.cpp:380] conv1_25 -> conv1_25
I0126 12:00:46.276067  9477 net.cpp:122] Setting up conv1_25
I0126 12:00:46.276103  9477 net.cpp:129] Top shape: 1 32 23 24 (17664)
I0126 12:00:46.276108  9477 net.cpp:137] Memory required for data: 550680032
I0126 12:00:46.276119  9477 layer_factory.hpp:77] Creating layer concat1_25
I0126 12:00:46.276131  9477 net.cpp:84] Creating Layer concat1_25
I0126 12:00:46.276139  9477 net.cpp:406] concat1_25 <- concat1_24_concat1_24_0_split_1
I0126 12:00:46.276147  9477 net.cpp:406] concat1_25 <- conv1_25
I0126 12:00:46.276156  9477 net.cpp:380] concat1_25 -> concat1_25
I0126 12:00:46.276219  9477 net.cpp:122] Setting up concat1_25
I0126 12:00:46.276228  9477 net.cpp:129] Top shape: 1 1344 23 24 (741888)
I0126 12:00:46.276232  9477 net.cpp:137] Memory required for data: 553647584
I0126 12:00:46.276237  9477 layer_factory.hpp:77] Creating layer concat1_25_concat1_25_0_split
I0126 12:00:46.276243  9477 net.cpp:84] Creating Layer concat1_25_concat1_25_0_split
I0126 12:00:46.276249  9477 net.cpp:406] concat1_25_concat1_25_0_split <- concat1_25
I0126 12:00:46.276255  9477 net.cpp:380] concat1_25_concat1_25_0_split -> concat1_25_concat1_25_0_split_0
I0126 12:00:46.276263  9477 net.cpp:380] concat1_25_concat1_25_0_split -> concat1_25_concat1_25_0_split_1
I0126 12:00:46.276353  9477 net.cpp:122] Setting up concat1_25_concat1_25_0_split
I0126 12:00:46.276361  9477 net.cpp:129] Top shape: 1 1344 23 24 (741888)
I0126 12:00:46.276367  9477 net.cpp:129] Top shape: 1 1344 23 24 (741888)
I0126 12:00:46.276371  9477 net.cpp:137] Memory required for data: 559582688
I0126 12:00:46.276374  9477 layer_factory.hpp:77] Creating layer conv1_26/bn
I0126 12:00:46.276383  9477 net.cpp:84] Creating Layer conv1_26/bn
I0126 12:00:46.276388  9477 net.cpp:406] conv1_26/bn <- concat1_25_concat1_25_0_split_0
I0126 12:00:46.276396  9477 net.cpp:380] conv1_26/bn -> conv1_26/bn
I0126 12:00:46.277055  9477 net.cpp:122] Setting up conv1_26/bn
I0126 12:00:46.277065  9477 net.cpp:129] Top shape: 1 1344 23 24 (741888)
I0126 12:00:46.277068  9477 net.cpp:137] Memory required for data: 562550240
I0126 12:00:46.277078  9477 layer_factory.hpp:77] Creating layer conv1_26/scale
I0126 12:00:46.277088  9477 net.cpp:84] Creating Layer conv1_26/scale
I0126 12:00:46.277093  9477 net.cpp:406] conv1_26/scale <- conv1_26/bn
I0126 12:00:46.277101  9477 net.cpp:367] conv1_26/scale -> conv1_26/bn (in-place)
I0126 12:00:46.277202  9477 layer_factory.hpp:77] Creating layer conv1_26/scale
I0126 12:00:46.277590  9477 net.cpp:122] Setting up conv1_26/scale
I0126 12:00:46.277602  9477 net.cpp:129] Top shape: 1 1344 23 24 (741888)
I0126 12:00:46.277606  9477 net.cpp:137] Memory required for data: 565517792
I0126 12:00:46.277614  9477 layer_factory.hpp:77] Creating layer relu1_26
I0126 12:00:46.277622  9477 net.cpp:84] Creating Layer relu1_26
I0126 12:00:46.277627  9477 net.cpp:406] relu1_26 <- conv1_26/bn
I0126 12:00:46.277633  9477 net.cpp:367] relu1_26 -> conv1_26/bn (in-place)
I0126 12:00:46.278236  9477 net.cpp:122] Setting up relu1_26
I0126 12:00:46.278251  9477 net.cpp:129] Top shape: 1 1344 23 24 (741888)
I0126 12:00:46.278256  9477 net.cpp:137] Memory required for data: 568485344
I0126 12:00:46.278260  9477 layer_factory.hpp:77] Creating layer conv1_26
I0126 12:00:46.278275  9477 net.cpp:84] Creating Layer conv1_26
I0126 12:00:46.278281  9477 net.cpp:406] conv1_26 <- conv1_26/bn
I0126 12:00:46.278290  9477 net.cpp:380] conv1_26 -> conv1_26
I0126 12:00:46.313647  9477 net.cpp:122] Setting up conv1_26
I0126 12:00:46.313686  9477 net.cpp:129] Top shape: 1 32 23 24 (17664)
I0126 12:00:46.313691  9477 net.cpp:137] Memory required for data: 568556000
I0126 12:00:46.313704  9477 layer_factory.hpp:77] Creating layer concat1_26
I0126 12:00:46.313720  9477 net.cpp:84] Creating Layer concat1_26
I0126 12:00:46.313730  9477 net.cpp:406] concat1_26 <- concat1_25_concat1_25_0_split_1
I0126 12:00:46.313738  9477 net.cpp:406] concat1_26 <- conv1_26
I0126 12:00:46.313752  9477 net.cpp:380] concat1_26 -> concat1_26
I0126 12:00:46.313827  9477 net.cpp:122] Setting up concat1_26
I0126 12:00:46.313836  9477 net.cpp:129] Top shape: 1 1376 23 24 (759552)
I0126 12:00:46.313840  9477 net.cpp:137] Memory required for data: 571594208
I0126 12:00:46.313844  9477 layer_factory.hpp:77] Creating layer concat1_26_concat1_26_0_split
I0126 12:00:46.313853  9477 net.cpp:84] Creating Layer concat1_26_concat1_26_0_split
I0126 12:00:46.313858  9477 net.cpp:406] concat1_26_concat1_26_0_split <- concat1_26
I0126 12:00:46.313864  9477 net.cpp:380] concat1_26_concat1_26_0_split -> concat1_26_concat1_26_0_split_0
I0126 12:00:46.313872  9477 net.cpp:380] concat1_26_concat1_26_0_split -> concat1_26_concat1_26_0_split_1
I0126 12:00:46.313972  9477 net.cpp:122] Setting up concat1_26_concat1_26_0_split
I0126 12:00:46.313984  9477 net.cpp:129] Top shape: 1 1376 23 24 (759552)
I0126 12:00:46.313990  9477 net.cpp:129] Top shape: 1 1376 23 24 (759552)
I0126 12:00:46.313993  9477 net.cpp:137] Memory required for data: 577670624
I0126 12:00:46.313997  9477 layer_factory.hpp:77] Creating layer conv1_27/bn
I0126 12:00:46.314007  9477 net.cpp:84] Creating Layer conv1_27/bn
I0126 12:00:46.314011  9477 net.cpp:406] conv1_27/bn <- concat1_26_concat1_26_0_split_0
I0126 12:00:46.314018  9477 net.cpp:380] conv1_27/bn -> conv1_27/bn
I0126 12:00:46.314713  9477 net.cpp:122] Setting up conv1_27/bn
I0126 12:00:46.314729  9477 net.cpp:129] Top shape: 1 1376 23 24 (759552)
I0126 12:00:46.314733  9477 net.cpp:137] Memory required for data: 580708832
I0126 12:00:46.314744  9477 layer_factory.hpp:77] Creating layer conv1_27/scale
I0126 12:00:46.314754  9477 net.cpp:84] Creating Layer conv1_27/scale
I0126 12:00:46.314760  9477 net.cpp:406] conv1_27/scale <- conv1_27/bn
I0126 12:00:46.314769  9477 net.cpp:367] conv1_27/scale -> conv1_27/bn (in-place)
I0126 12:00:46.314874  9477 layer_factory.hpp:77] Creating layer conv1_27/scale
I0126 12:00:46.315248  9477 net.cpp:122] Setting up conv1_27/scale
I0126 12:00:46.315258  9477 net.cpp:129] Top shape: 1 1376 23 24 (759552)
I0126 12:00:46.315263  9477 net.cpp:137] Memory required for data: 583747040
I0126 12:00:46.315270  9477 layer_factory.hpp:77] Creating layer relu1_27
I0126 12:00:46.315279  9477 net.cpp:84] Creating Layer relu1_27
I0126 12:00:46.315284  9477 net.cpp:406] relu1_27 <- conv1_27/bn
I0126 12:00:46.315290  9477 net.cpp:367] relu1_27 -> conv1_27/bn (in-place)
I0126 12:00:46.316138  9477 net.cpp:122] Setting up relu1_27
I0126 12:00:46.316161  9477 net.cpp:129] Top shape: 1 1376 23 24 (759552)
I0126 12:00:46.316166  9477 net.cpp:137] Memory required for data: 586785248
I0126 12:00:46.316171  9477 layer_factory.hpp:77] Creating layer conv1_27
I0126 12:00:46.316190  9477 net.cpp:84] Creating Layer conv1_27
I0126 12:00:46.316197  9477 net.cpp:406] conv1_27 <- conv1_27/bn
I0126 12:00:46.316206  9477 net.cpp:380] conv1_27 -> conv1_27
I0126 12:00:46.334697  9477 net.cpp:122] Setting up conv1_27
I0126 12:00:46.334735  9477 net.cpp:129] Top shape: 1 32 23 24 (17664)
I0126 12:00:46.334740  9477 net.cpp:137] Memory required for data: 586855904
I0126 12:00:46.334751  9477 layer_factory.hpp:77] Creating layer concat1_27
I0126 12:00:46.334767  9477 net.cpp:84] Creating Layer concat1_27
I0126 12:00:46.334776  9477 net.cpp:406] concat1_27 <- concat1_26_concat1_26_0_split_1
I0126 12:00:46.334784  9477 net.cpp:406] concat1_27 <- conv1_27
I0126 12:00:46.334792  9477 net.cpp:380] concat1_27 -> concat1_27
I0126 12:00:46.334859  9477 net.cpp:122] Setting up concat1_27
I0126 12:00:46.334868  9477 net.cpp:129] Top shape: 1 1408 23 24 (777216)
I0126 12:00:46.334872  9477 net.cpp:137] Memory required for data: 589964768
I0126 12:00:46.334877  9477 layer_factory.hpp:77] Creating layer concat1_27_concat1_27_0_split
I0126 12:00:46.334887  9477 net.cpp:84] Creating Layer concat1_27_concat1_27_0_split
I0126 12:00:46.334892  9477 net.cpp:406] concat1_27_concat1_27_0_split <- concat1_27
I0126 12:00:46.334897  9477 net.cpp:380] concat1_27_concat1_27_0_split -> concat1_27_concat1_27_0_split_0
I0126 12:00:46.334911  9477 net.cpp:380] concat1_27_concat1_27_0_split -> concat1_27_concat1_27_0_split_1
I0126 12:00:46.335007  9477 net.cpp:122] Setting up concat1_27_concat1_27_0_split
I0126 12:00:46.335016  9477 net.cpp:129] Top shape: 1 1408 23 24 (777216)
I0126 12:00:46.335022  9477 net.cpp:129] Top shape: 1 1408 23 24 (777216)
I0126 12:00:46.335026  9477 net.cpp:137] Memory required for data: 596182496
I0126 12:00:46.335031  9477 layer_factory.hpp:77] Creating layer conv1_28/bn
I0126 12:00:46.335039  9477 net.cpp:84] Creating Layer conv1_28/bn
I0126 12:00:46.335044  9477 net.cpp:406] conv1_28/bn <- concat1_27_concat1_27_0_split_0
I0126 12:00:46.335052  9477 net.cpp:380] conv1_28/bn -> conv1_28/bn
I0126 12:00:46.335717  9477 net.cpp:122] Setting up conv1_28/bn
I0126 12:00:46.335726  9477 net.cpp:129] Top shape: 1 1408 23 24 (777216)
I0126 12:00:46.335731  9477 net.cpp:137] Memory required for data: 599291360
I0126 12:00:46.335741  9477 layer_factory.hpp:77] Creating layer conv1_28/scale
I0126 12:00:46.335765  9477 net.cpp:84] Creating Layer conv1_28/scale
I0126 12:00:46.335772  9477 net.cpp:406] conv1_28/scale <- conv1_28/bn
I0126 12:00:46.335777  9477 net.cpp:367] conv1_28/scale -> conv1_28/bn (in-place)
I0126 12:00:46.335868  9477 layer_factory.hpp:77] Creating layer conv1_28/scale
I0126 12:00:46.336223  9477 net.cpp:122] Setting up conv1_28/scale
I0126 12:00:46.336232  9477 net.cpp:129] Top shape: 1 1408 23 24 (777216)
I0126 12:00:46.336236  9477 net.cpp:137] Memory required for data: 602400224
I0126 12:00:46.336244  9477 layer_factory.hpp:77] Creating layer relu1_28
I0126 12:00:46.336251  9477 net.cpp:84] Creating Layer relu1_28
I0126 12:00:46.336256  9477 net.cpp:406] relu1_28 <- conv1_28/bn
I0126 12:00:46.336262  9477 net.cpp:367] relu1_28 -> conv1_28/bn (in-place)
I0126 12:00:46.336573  9477 net.cpp:122] Setting up relu1_28
I0126 12:00:46.336585  9477 net.cpp:129] Top shape: 1 1408 23 24 (777216)
I0126 12:00:46.336589  9477 net.cpp:137] Memory required for data: 605509088
I0126 12:00:46.336593  9477 layer_factory.hpp:77] Creating layer conv1_28
I0126 12:00:46.336607  9477 net.cpp:84] Creating Layer conv1_28
I0126 12:00:46.336612  9477 net.cpp:406] conv1_28 <- conv1_28/bn
I0126 12:00:46.336621  9477 net.cpp:380] conv1_28 -> conv1_28
I0126 12:00:46.401865  9477 net.cpp:122] Setting up conv1_28
I0126 12:00:46.401904  9477 net.cpp:129] Top shape: 1 32 23 24 (17664)
I0126 12:00:46.401909  9477 net.cpp:137] Memory required for data: 605579744
I0126 12:00:46.401921  9477 layer_factory.hpp:77] Creating layer concat1_28
I0126 12:00:46.401934  9477 net.cpp:84] Creating Layer concat1_28
I0126 12:00:46.401943  9477 net.cpp:406] concat1_28 <- concat1_27_concat1_27_0_split_1
I0126 12:00:46.401952  9477 net.cpp:406] concat1_28 <- conv1_28
I0126 12:00:46.401962  9477 net.cpp:380] concat1_28 -> concat1_28
I0126 12:00:46.402031  9477 net.cpp:122] Setting up concat1_28
I0126 12:00:46.402040  9477 net.cpp:129] Top shape: 1 1440 23 24 (794880)
I0126 12:00:46.402045  9477 net.cpp:137] Memory required for data: 608759264
I0126 12:00:46.402050  9477 layer_factory.hpp:77] Creating layer concat1_28_concat1_28_0_split
I0126 12:00:46.402056  9477 net.cpp:84] Creating Layer concat1_28_concat1_28_0_split
I0126 12:00:46.402061  9477 net.cpp:406] concat1_28_concat1_28_0_split <- concat1_28
I0126 12:00:46.402070  9477 net.cpp:380] concat1_28_concat1_28_0_split -> concat1_28_concat1_28_0_split_0
I0126 12:00:46.402077  9477 net.cpp:380] concat1_28_concat1_28_0_split -> concat1_28_concat1_28_0_split_1
I0126 12:00:46.402173  9477 net.cpp:122] Setting up concat1_28_concat1_28_0_split
I0126 12:00:46.402181  9477 net.cpp:129] Top shape: 1 1440 23 24 (794880)
I0126 12:00:46.402187  9477 net.cpp:129] Top shape: 1 1440 23 24 (794880)
I0126 12:00:46.402191  9477 net.cpp:137] Memory required for data: 615118304
I0126 12:00:46.402195  9477 layer_factory.hpp:77] Creating layer conv1_29/bn
I0126 12:00:46.402204  9477 net.cpp:84] Creating Layer conv1_29/bn
I0126 12:00:46.402209  9477 net.cpp:406] conv1_29/bn <- concat1_28_concat1_28_0_split_0
I0126 12:00:46.402221  9477 net.cpp:380] conv1_29/bn -> conv1_29/bn
I0126 12:00:46.402896  9477 net.cpp:122] Setting up conv1_29/bn
I0126 12:00:46.402906  9477 net.cpp:129] Top shape: 1 1440 23 24 (794880)
I0126 12:00:46.402910  9477 net.cpp:137] Memory required for data: 618297824
I0126 12:00:46.402920  9477 layer_factory.hpp:77] Creating layer conv1_29/scale
I0126 12:00:46.402931  9477 net.cpp:84] Creating Layer conv1_29/scale
I0126 12:00:46.402937  9477 net.cpp:406] conv1_29/scale <- conv1_29/bn
I0126 12:00:46.402945  9477 net.cpp:367] conv1_29/scale -> conv1_29/bn (in-place)
I0126 12:00:46.403050  9477 layer_factory.hpp:77] Creating layer conv1_29/scale
I0126 12:00:46.403440  9477 net.cpp:122] Setting up conv1_29/scale
I0126 12:00:46.403450  9477 net.cpp:129] Top shape: 1 1440 23 24 (794880)
I0126 12:00:46.403455  9477 net.cpp:137] Memory required for data: 621477344
I0126 12:00:46.403461  9477 layer_factory.hpp:77] Creating layer relu1_29
I0126 12:00:46.403470  9477 net.cpp:84] Creating Layer relu1_29
I0126 12:00:46.403475  9477 net.cpp:406] relu1_29 <- conv1_29/bn
I0126 12:00:46.403481  9477 net.cpp:367] relu1_29 -> conv1_29/bn (in-place)
I0126 12:00:46.404109  9477 net.cpp:122] Setting up relu1_29
I0126 12:00:46.404124  9477 net.cpp:129] Top shape: 1 1440 23 24 (794880)
I0126 12:00:46.404129  9477 net.cpp:137] Memory required for data: 624656864
I0126 12:00:46.404134  9477 layer_factory.hpp:77] Creating layer conv1_29
I0126 12:00:46.404147  9477 net.cpp:84] Creating Layer conv1_29
I0126 12:00:46.404152  9477 net.cpp:406] conv1_29 <- conv1_29/bn
I0126 12:00:46.404162  9477 net.cpp:380] conv1_29 -> conv1_29
I0126 12:00:46.509469  9477 net.cpp:122] Setting up conv1_29
I0126 12:00:46.509507  9477 net.cpp:129] Top shape: 1 32 23 24 (17664)
I0126 12:00:46.509512  9477 net.cpp:137] Memory required for data: 624727520
I0126 12:00:46.509523  9477 layer_factory.hpp:77] Creating layer concat1_29
I0126 12:00:46.509537  9477 net.cpp:84] Creating Layer concat1_29
I0126 12:00:46.509546  9477 net.cpp:406] concat1_29 <- concat1_28_concat1_28_0_split_1
I0126 12:00:46.509555  9477 net.cpp:406] concat1_29 <- conv1_29
I0126 12:00:46.509562  9477 net.cpp:380] concat1_29 -> concat1_29
I0126 12:00:46.509630  9477 net.cpp:122] Setting up concat1_29
I0126 12:00:46.509639  9477 net.cpp:129] Top shape: 1 1472 23 24 (812544)
I0126 12:00:46.509644  9477 net.cpp:137] Memory required for data: 627977696
I0126 12:00:46.509647  9477 layer_factory.hpp:77] Creating layer tpp5
I0126 12:00:46.509655  9477 net.cpp:84] Creating Layer tpp5
I0126 12:00:46.509660  9477 net.cpp:406] tpp5 <- concat1_29
I0126 12:00:46.509667  9477 net.cpp:380] tpp5 -> tpp5
I0126 12:00:46.510849  9477 net.cpp:122] Setting up tpp5
I0126 12:00:46.510864  9477 net.cpp:129] Top shape: 1 22080 (22080)
I0126 12:00:46.510869  9477 net.cpp:137] Memory required for data: 628066016
I0126 12:00:46.510874  9477 layer_factory.hpp:77] Creating layer reshape
I0126 12:00:46.510885  9477 net.cpp:84] Creating Layer reshape
I0126 12:00:46.510891  9477 net.cpp:406] reshape <- tpp5
I0126 12:00:46.510900  9477 net.cpp:380] reshape -> reshape
I0126 12:00:46.510980  9477 net.cpp:122] Setting up reshape
I0126 12:00:46.510993  9477 net.cpp:129] Top shape: 1 11040 2 1 (22080)
I0126 12:00:46.510998  9477 net.cpp:137] Memory required for data: 628154336
I0126 12:00:46.511001  9477 layer_factory.hpp:77] Creating layer premax
I0126 12:00:46.511013  9477 net.cpp:84] Creating Layer premax
I0126 12:00:46.511018  9477 net.cpp:406] premax <- reshape
I0126 12:00:46.511026  9477 net.cpp:380] premax -> premax
I0126 12:00:46.511337  9477 net.cpp:122] Setting up premax
I0126 12:00:46.511346  9477 net.cpp:129] Top shape: 1 11040 2 1 (22080)
I0126 12:00:46.511350  9477 net.cpp:137] Memory required for data: 628242656
I0126 12:00:46.511358  9477 layer_factory.hpp:77] Creating layer maxout
I0126 12:00:46.511365  9477 net.cpp:84] Creating Layer maxout
I0126 12:00:46.511373  9477 net.cpp:406] maxout <- premax
I0126 12:00:46.511379  9477 net.cpp:380] maxout -> maxout
I0126 12:00:46.511474  9477 net.cpp:122] Setting up maxout
I0126 12:00:46.511487  9477 net.cpp:129] Top shape: 1 11040 1 1 (11040)
I0126 12:00:46.511492  9477 net.cpp:137] Memory required for data: 628286816
I0126 12:00:46.511497  9477 layer_factory.hpp:77] Creating layer fc6_d
I0126 12:00:46.511505  9477 net.cpp:84] Creating Layer fc6_d
I0126 12:00:46.511510  9477 net.cpp:406] fc6_d <- maxout
I0126 12:00:46.511518  9477 net.cpp:380] fc6_d -> fc6_d
I0126 12:00:51.347687  9477 net.cpp:122] Setting up fc6_d
I0126 12:00:51.347728  9477 net.cpp:129] Top shape: 1 4096 (4096)
I0126 12:00:51.347733  9477 net.cpp:137] Memory required for data: 628303200
I0126 12:00:51.347745  9477 layer_factory.hpp:77] Creating layer relu6
I0126 12:00:51.347765  9477 net.cpp:84] Creating Layer relu6
I0126 12:00:51.347772  9477 net.cpp:406] relu6 <- fc6_d
I0126 12:00:51.347780  9477 net.cpp:367] relu6 -> fc6_d (in-place)
I0126 12:00:51.348244  9477 net.cpp:122] Setting up relu6
I0126 12:00:51.348256  9477 net.cpp:129] Top shape: 1 4096 (4096)
I0126 12:00:51.348260  9477 net.cpp:137] Memory required for data: 628319584
I0126 12:00:51.348265  9477 layer_factory.hpp:77] Creating layer fc7_d
I0126 12:00:51.348276  9477 net.cpp:84] Creating Layer fc7_d
I0126 12:00:51.348281  9477 net.cpp:406] fc7_d <- fc6_d
I0126 12:00:51.348289  9477 net.cpp:380] fc7_d -> fc7_d
I0126 12:00:53.137584  9477 net.cpp:122] Setting up fc7_d
I0126 12:00:53.137631  9477 net.cpp:129] Top shape: 1 4096 (4096)
I0126 12:00:53.137639  9477 net.cpp:137] Memory required for data: 628335968
I0126 12:00:53.137653  9477 layer_factory.hpp:77] Creating layer relu7
I0126 12:00:53.137670  9477 net.cpp:84] Creating Layer relu7
I0126 12:00:53.137679  9477 net.cpp:406] relu7 <- fc7_d
I0126 12:00:53.137693  9477 net.cpp:367] relu7 -> fc7_d (in-place)
I0126 12:00:53.138691  9477 net.cpp:122] Setting up relu7
I0126 12:00:53.138716  9477 net.cpp:129] Top shape: 1 4096 (4096)
I0126 12:00:53.138725  9477 net.cpp:137] Memory required for data: 628352352
I0126 12:00:53.138732  9477 layer_factory.hpp:77] Creating layer fc8_d
I0126 12:00:53.138749  9477 net.cpp:84] Creating Layer fc8_d
I0126 12:00:53.138758  9477 net.cpp:406] fc8_d <- fc7_d
I0126 12:00:53.138772  9477 net.cpp:380] fc8_d -> fc8_d
I0126 12:00:53.423408  9477 net.cpp:122] Setting up fc8_d
I0126 12:00:53.423445  9477 net.cpp:129] Top shape: 1 618 (618)
I0126 12:00:53.423450  9477 net.cpp:137] Memory required for data: 628354824
I0126 12:00:53.423461  9477 layer_factory.hpp:77] Creating layer fc8_d_fc8_d_0_split
I0126 12:00:53.423475  9477 net.cpp:84] Creating Layer fc8_d_fc8_d_0_split
I0126 12:00:53.423480  9477 net.cpp:406] fc8_d_fc8_d_0_split <- fc8_d
I0126 12:00:53.423490  9477 net.cpp:380] fc8_d_fc8_d_0_split -> fc8_d_fc8_d_0_split_0
I0126 12:00:53.423499  9477 net.cpp:380] fc8_d_fc8_d_0_split -> fc8_d_fc8_d_0_split_1
I0126 12:00:53.423591  9477 net.cpp:122] Setting up fc8_d_fc8_d_0_split
I0126 12:00:53.423600  9477 net.cpp:129] Top shape: 1 618 (618)
I0126 12:00:53.423605  9477 net.cpp:129] Top shape: 1 618 (618)
I0126 12:00:53.423609  9477 net.cpp:137] Memory required for data: 628359768
I0126 12:00:53.423614  9477 layer_factory.hpp:77] Creating layer sigmoid
I0126 12:00:53.423631  9477 net.cpp:84] Creating Layer sigmoid
I0126 12:00:53.423636  9477 net.cpp:406] sigmoid <- fc8_d_fc8_d_0_split_0
I0126 12:00:53.423643  9477 net.cpp:380] sigmoid -> sigmoid
I0126 12:00:53.424449  9477 net.cpp:122] Setting up sigmoid
I0126 12:00:53.424463  9477 net.cpp:129] Top shape: 1 618 (618)
I0126 12:00:53.424468  9477 net.cpp:137] Memory required for data: 628362240
I0126 12:00:53.424473  9477 layer_factory.hpp:77] Creating layer silence
I0126 12:00:53.424479  9477 net.cpp:84] Creating Layer silence
I0126 12:00:53.424484  9477 net.cpp:406] silence <- sigmoid
I0126 12:00:53.424490  9477 net.cpp:122] Setting up silence
I0126 12:00:53.424494  9477 net.cpp:137] Memory required for data: 628362240
…
