…
  phase: TRAIN
}
layer {
  name: "word_images"
  type: "Data"
  top: "word_images"
  top: "label"
  transform_param {
    scale: -0.0039215689
    mean_value: 255
  }
  data_param {
    source: "/data/fwolf/gw3_50000/gw_cv3_nti500000_pul2-3-4-5_train_word_images_lmdb"
    batch_size: 1
    backend: LMDB
    prefetch: 20
  }
}
layer {
  name: "phocs"
  type: "Data"
  top: "phocs"
  top: "label_phocs"
  data_param {
    source: "/data/fwolf/gw3_50000/gw_cv3_nti500000_pul2-3-4-5_train_phocs_lmdb"
    batch_size: 1
    backend: LMDB
    prefetch: 20
  }
}
layer {
  name: "conv_init"
  type: "Convolution"
  bottom: "word_images"
  top: "conv_init"
  convolution_param {
    num_output: 32
    bias_term: false
    pad: 1
    kernel_size: 3
    stride: 1
    weight_filler {
      type: "msra"
    }
    bias_filler {
      type: "constant"
    }
    engine: CUDNN
  }
}
layer {
  name: "bn_init"
  type: "BatchNorm"
  bottom: "conv_init"
  top: "bn_init"
  param {
    lr_mult: 0
    decay_mult: 0
  }
  param {
    lr_mult: 0
    decay_mult: 0
  }
  param {
    lr_mult: 0
    decay_mult: 0
  }
  batch_norm_param {
    eps: 1e-05
  }
}
layer {
  name: "scale_init"
  type: "Scale"
  bottom: "bn_init"
  top: "bn_init"
  scale_param {
    filler {
      value: 1
    }
    bias_term: true
    bias_filler {
      value: 0
    }
  }
}
layer {
  name: "relu_init"
  type: "ReLU"
  bottom: "bn_init"
  top: "bn_init"
}
layer {
  name: "pool_init"
  type: "Pooling"
  bottom: "bn_init"
  top: "pool_init"
  pooling_param {
    pool: MAX
    kernel_size: 3
    stride: 2
    pad: 1
  }
}
layer {
  name: "conv0_0/bn"
  type: "BatchNorm"
  bottom: "pool_init"
  top: "conv0_0/bn"
  param {
    lr_mult: 0
    decay_mult: 0
  }
  param {
    lr_mult: 0
    decay_mult: 0
  }
  param {
    lr_mult: 0
    decay_mult: 0
  }
}
layer {
  name: "conv0_0/scale"
  type: "Scale"
  bottom: "conv0_0/bn"
  top: "conv0_0/bn"
  scale_param {
    filler {
      value: 1
    }
    bias_term: true
    bias_filler {
      value: 0
    }
  }
}
layer {
  name: "relu0_0"
  type: "ReLU"
  bottom: "conv0_0/bn"
  top: "conv0_0/bn"
}
layer {
  name: "conv0_0"
  type: "Convolution"
  bottom: "conv0_0/bn"
  top: "conv0_0"
  convolution_param {
    num_output: 12
    bias_term: false
    pad: 1
    kernel_size: 3
    stride: 1
    weight_filler {
      type: "msra"
    }
    bias_filler {
      type: "constant"
    }
    engine: CUDNN
  }
}
layer {
  name: "concat0_0"
  type: "Concat"
  bottom: "pool_init"
  bottom: "conv0_0"
  top: "concat0_0"
  concat_param {
    axis: 1
  }
}
layer {
  name: "conv0_1/bn"
  type: "BatchNorm"
  bottom: "concat0_0"
  top: "conv0_1/bn"
  param {
    lr_mult: 0
    decay_mult: 0
  }
  param {
    lr_mult: 0
    decay_mult: 0
  }
  param {
    lr_mult: 0
    decay_mult: 0
  }
}
layer {
  name: "conv0_1/scale"
  type: "Scale"
  bottom: "conv0_1/bn"
  top: "conv0_1/bn"
  scale_param {
    filler {
      value: 1
    }
    bias_term: true
    bias_filler {
      value: 0
    }
  }
}
layer {
  name: "relu0_1"
  type: "ReLU"
  bottom: "conv0_1/bn"
  top: "conv0_1/bn"
}
layer {
  name: "conv0_1"
  type: "Convolution"
  bottom: "conv0_1/bn"
  top: "conv0_1"
  convolution_param {
    num_output: 12
    bias_term: false
    pad: 1
    kernel_size: 3
    stride: 1
    weight_filler {
      type: "msra"
    }
    bias_filler {
      type: "constant"
    }
    engine: CUDNN
  }
}
layer {
  name: "concat0_1"
  type: "Concat"
  bottom: "concat0_0"
  bottom: "conv0_1"
  top: "concat0_1"
  concat_param {
    axis: 1
  }
}
layer {
  name: "conv0_2/bn"
  type: "BatchNorm"
  bottom: "concat0_1"
  top: "conv0_2/bn"
  param {
    lr_mult: 0
    decay_mult: 0
  }
  param {
    lr_mult: 0
    decay_mult: 0
  }
  param {
    lr_mult: 0
    decay_mult: 0
  }
}
layer {
  name: "conv0_2/scale"
  type: "Scale"
  bottom: "conv0_2/bn"
  top: "conv0_2/bn"
  scale_param {
    filler {
      value: 1
    }
    bias_term: true
    bias_filler {
      value: 0
    }
  }
}
layer {
  name: "relu0_2"
  type: "ReLU"
  bottom: "conv0_2/bn"
  top: "conv0_2/bn"
}
layer {
  name: "conv0_2"
  type: "Convolution"
  bottom: "conv0_2/bn"
  top: "conv0_2"
  convolution_param {
    num_output: 12
    bias_term: false
    pad: 1
    kernel_size: 3
    stride: 1
    weight_filler {
      type: "msra"
    }
    bias_filler {
      type: "constant"
    }
    engine: CUDNN
  }
}
layer {
  name: "concat0_2"
  type: "Concat"
  bottom: "concat0_1"
  bottom: "conv0_2"
  top: "concat0_2"
  concat_param {
    axis: 1
  }
}
layer {
  name: "conv0_3/bn"
  type: "BatchNorm"
  bottom: "concat0_2"
  top: "conv0_3/bn"
  param {
    lr_mult: 0
    decay_mult: 0
  }
  param {
    lr_mult: 0
    decay_mult: 0
  }
  param {
    lr_mult: 0
    decay_mult: 0
  }
}
layer {
  name: "conv0_3/scale"
  type: "Scale"
  bottom: "conv0_3/bn"
  top: "conv0_3/bn"
  scale_param {
    filler {
      value: 1
    }
    bias_term: true
    bias_filler {
      value: 0
    }
  }
}
layer {
  name: "relu0_3"
  type: "ReLU"
  bottom: "conv0_3/bn"
  top: "conv0_3/bn"
}
layer {
  name: "conv0_3"
  type: "Convolution"
  bottom: "conv0_3/bn"
  top: "conv0_3"
  convolution_param {
    num_output: 12
    bias_term: false
    pad: 1
    kernel_size: 3
    stride: 1
    weight_filler {
      type: "msra"
    }
    bias_filler {
      type: "constant"
    }
    engine: CUDNN
  }
}
layer {
  name: "concat0_3"
  type: "Concat"
  bottom: "concat0_2"
  bottom: "conv0_3"
  top: "concat0_3"
  concat_param {
    axis: 1
  }
}
layer {
  name: "conv0_4/bn"
  type: "BatchNorm"
  bottom: "concat0_3"
  top: "conv0_4/bn"
  param {
    lr_mult: 0
    decay_mult: 0
  }
  param {
    lr_mult: 0
    decay_mult: 0
  }
  param {
    lr_mult: 0
    decay_mult: 0
  }
}
layer {
  name: "conv0_4/scale"
  type: "Scale"
  bottom: "conv0_4/bn"
  top: "conv0_4/bn"
  scale_param {
    filler {
      value: 1
    }
    bias_term: true
    bias_filler {
      value: 0
    }
  }
}
layer {
  name: "relu0_4"
  type: "ReLU"
  bottom: "conv0_4/bn"
  top: "conv0_4/bn"
}
layer {
  name: "conv0_4"
  type: "Convolution"
  bottom: "conv0_4/bn"
  top: "conv0_4"
  convolution_param {
    num_output: 12
    bias_term: false
    pad: 1
    kernel_size: 3
    stride: 1
    weight_filler {
      type: "msra"
    }
    bias_filler {
      type: "constant"
    }
    engine: CUDNN
  }
}
layer {
  name: "concat0_4"
  type: "Concat"
  bottom: "concat0_3"
  bottom: "conv0_4"
  top: "concat0_4"
  concat_param {
    axis: 1
  }
}
layer {
  name: "conv0_5/bn"
  type: "BatchNorm"
  bottom: "concat0_4"
  top: "conv0_5/bn"
  param {
    lr_mult: 0
    decay_mult: 0
  }
  param {
    lr_mult: 0
    decay_mult: 0
  }
  param {
    lr_mult: 0
    decay_mult: 0
  }
}
layer {
  name: "conv0_5/scale"
  type: "Scale"
  bottom: "conv0_5/bn"
  top: "conv0_5/bn"
  scale_param {
    filler {
      value: 1
    }
    bias_term: true
    bias_filler {
      value: 0
    }
  }
}
layer {
  name: "relu0_5"
  type: "ReLU"
  bottom: "conv0_5/bn"
  top: "conv0_5/bn"
}
layer {
  name: "conv0_5"
  type: "Convolution"
  bottom: "conv0_5/bn"
  top: "conv0_5"
  convolution_param {
    num_output: 12
    bias_term: false
    pad: 1
    kernel_size: 3
    stride: 1
    weight_filler {
      type: "msra"
    }
    bias_filler {
      type: "constant"
    }
    engine: CUDNN
  }
}
layer {
  name: "concat0_5"
  type: "Concat"
  bottom: "concat0_4"
  bottom: "conv0_5"
  top: "concat0_5"
  concat_param {
    axis: 1
  }
}
layer {
  name: "conv0_6/bn"
  type: "BatchNorm"
  bottom: "concat0_5"
  top: "conv0_6/bn"
  param {
    lr_mult: 0
    decay_mult: 0
  }
  param {
    lr_mult: 0
    decay_mult: 0
  }
  param {
    lr_mult: 0
    decay_mult: 0
  }
}
layer {
  name: "conv0_6/scale"
  type: "Scale"
  bottom: "conv0_6/bn"
  top: "conv0_6/bn"
  scale_param {
    filler {
      value: 1
    }
    bias_term: true
    bias_filler {
      value: 0
    }
  }
}
layer {
  name: "relu0_6"
  type: "ReLU"
  bottom: "conv0_6/bn"
  top: "conv0_6/bn"
}
layer {
  name: "conv0_6"
  type: "Convolution"
  bottom: "conv0_6/bn"
  top: "conv0_6"
  convolution_param {
    num_output: 12
    bias_term: false
    pad: 1
    kernel_size: 3
    stride: 1
    weight_filler {
      type: "msra"
    }
    bias_filler {
      type: "constant"
    }
    engine: CUDNN
  }
}
layer {
  name: "concat0_6"
  type: "Concat"
  bottom: "concat0_5"
  bottom: "conv0_6"
  top: "concat0_6"
  concat_param {
    axis: 1
  }
}
layer {
  name: "conv0_7/bn"
  type: "BatchNorm"
  bottom: "concat0_6"
  top: "conv0_7/bn"
  param {
    lr_mult: 0
    decay_mult: 0
  }
  param {
    lr_mult: 0
    decay_mult: 0
  }
  param {
    lr_mult: 0
    decay_mult: 0
  }
}
layer {
  name: "conv0_7/scale"
  type: "Scale"
  bottom: "conv0_7/bn"
  top: "conv0_7/bn"
  scale_param {
    filler {
      value: 1
    }
    bias_term: true
    bias_filler {
      value: 0
    }
  }
}
layer {
  name: "relu0_7"
  type: "ReLU"
  bottom: "conv0_7/bn"
  top: "conv0_7/bn"
}
layer {
  name: "conv0_7"
  type: "Convolution"
  bottom: "conv0_7/bn"
  top: "conv0_7"
  convolution_param {
    num_output: 12
    bias_term: false
    pad: 1
    kernel_size: 3
    stride: 1
    weight_filler {
      type: "msra"
    }
    bias_filler {
      type: "constant"
    }
    engine: CUDNN
  }
}
layer {
  name: "concat0_7"
  type: "Concat"
  bottom: "concat0_6"
  bottom: "conv0_7"
  top: "concat0_7"
  concat_param {
    axis: 1
  }
}
layer {
  name: "conv0_8/bn"
  type: "BatchNorm"
  bottom: "concat0_7"
  top: "conv0_8/bn"
  param {
    lr_mult: 0
    decay_mult: 0
  }
  param {
    lr_mult: 0
    decay_mult: 0
  }
  param {
    lr_mult: 0
    decay_mult: 0
  }
}
layer {
  name: "conv0_8/scale"
  type: "Scale"
  bottom: "conv0_8/bn"
  top: "conv0_8/bn"
  scale_param {
    filler {
      value: 1
    }
    bias_term: true
    bias_filler {
      value: 0
    }
  }
}
layer {
  name: "relu0_8"
  type: "ReLU"
  bottom: "conv0_8/bn"
  top: "conv0_8/bn"
}
layer {
  name: "conv0_8"
  type: "Convolution"
  bottom: "conv0_8/bn"
  top: "conv0_8"
  convolution_param {
    num_output: 12
    bias_term: false
    pad: 1
    kernel_size: 3
    stride: 1
    weight_filler {
      type: "msra"
    }
    bias_filler {
      type: "constant"
    }
    engine: CUDNN
  }
}
layer {
  name: "concat0_8"
  type: "Concat"
  bottom: "concat0_7"
  bottom: "conv0_8"
  top: "concat0_8"
  concat_param {
    axis: 1
  }
}
layer {
  name: "conv0_9/bn"
  type: "BatchNorm"
  bottom: "concat0_8"
  top: "conv0_9/bn"
  param {
    lr_mult: 0
    decay_mult: 0
  }
  param {
    lr_mult: 0
    decay_mult: 0
  }
  param {
    lr_mult: 0
    decay_mult: 0
  }
}
layer {
  name: "conv0_9/scale"
  type: "Scale"
  bottom: "conv0_9/bn"
  top: "conv0_9/bn"
  scale_param {
    filler {
      value: 1
    }
    bias_term: true
    bias_filler {
      value: 0
    }
  }
}
layer {
  name: "relu0_9"
  type: "ReLU"
  bottom: "conv0_9/bn"
  top: "conv0_9/bn"
}
layer {
  name: "conv0_9"
  type: "Convolution"
  bottom: "conv0_9/bn"
  top: "conv0_9"
  convolution_param {
    num_output: 12
    bias_term: false
    pad: 1
    kernel_size: 3
    stride: 1
    weight_filler {
      type: "msra"
    }
    bias_filler {
      type: "constant"
    }
    engine: CUDNN
  }
}
layer {
  name: "concat0_9"
  type: "Concat"
  bottom: "concat0_8"
  bottom: "conv0_9"
  top: "concat0_9"
  concat_param {
    axis: 1
  }
}
layer {
  name: "conv0_10/bn"
  type: "BatchNorm"
  bottom: "concat0_9"
  top: "conv0_10/bn"
  param {
    lr_mult: 0
    decay_mult: 0
  }
  param {
    lr_mult: 0
    decay_mult: 0
  }
  param {
    lr_mult: 0
    decay_mult: 0
  }
}
layer {
  name: "conv0_10/scale"
  type: "Scale"
  bottom: "conv0_10/bn"
  top: "conv0_10/bn"
  scale_param {
    filler {
      value: 1
    }
    bias_term: true
    bias_filler {
      value: 0
    }
  }
}
layer {
  name: "relu0_10"
  type: "ReLU"
  bottom: "conv0_10/bn"
  top: "conv0_10/bn"
}
layer {
  name: "conv0_10"
  type: "Convolution"
  bottom: "conv0_10/bn"
  top: "conv0_10"
  convolution_param {
    num_output: 12
    bias_term: false
    pad: 1
    kernel_size: 3
    stride: 1
    weight_filler {
      type: "msra"
    }
    bias_filler {
      type: "constant"
    }
    engine: CUDNN
  }
}
layer {
  name: "concat0_10"
  type: "Concat"
  bottom: "concat0_9"
  bottom: "conv0_10"
  top: "concat0_10"
  concat_param {
    axis: 1
  }
}
layer {
  name: "conv0_11/bn"
  type: "BatchNorm"
  bottom: "concat0_10"
  top: "conv0_11/bn"
  param {
    lr_mult: 0
    decay_mult: 0
  }
  param {
    lr_mult: 0
    decay_mult: 0
  }
  param {
    lr_mult: 0
    decay_mult: 0
  }
}
layer {
  name: "conv0_11/scale"
  type: "Scale"
  bottom: "conv0_11/bn"
  top: "conv0_11/bn"
  scale_param {
    filler {
      value: 1
    }
    bias_term: true
    bias_filler {
      value: 0
    }
  }
}
layer {
  name: "relu0_11"
  type: "ReLU"
  bottom: "conv0_11/bn"
  top: "conv0_11/bn"
}
layer {
  name: "conv0_11"
  type: "Convolution"
  bottom: "conv0_11/bn"
  top: "conv0_11"
  convolution_param {
    num_output: 12
    bias_term: false
    pad: 1
    kernel_size: 3
    stride: 1
    weight_filler {
      type: "msra"
    }
    bias_filler {
      type: "constant"
    }
    engine: CUDNN
  }
}
layer {
  name: "concat0_11"
  type: "Concat"
  bottom: "concat0_10"
  bottom: "conv0_11"
  top: "concat0_11"
  concat_param {
    axis: 1
  }
}
layer {
  name: "conv0_12/bn"
  type: "BatchNorm"
  bottom: "concat0_11"
  top: "conv0_12/bn"
  param {
    lr_mult: 0
    decay_mult: 0
  }
  param {
    lr_mult: 0
    decay_mult: 0
  }
  param {
    lr_mult: 0
    decay_mult: 0
  }
}
layer {
  name: "conv0_12/scale"
  type: "Scale"
  bottom: "conv0_12/bn"
  top: "conv0_12/bn"
  scale_param {
    filler {
      value: 1
    }
    bias_term: true
    bias_filler {
      value: 0
    }
  }
}
layer {
  name: "relu0_12"
  type: "ReLU"
  bottom: "conv0_12/bn"
  top: "conv0_12/bn"
}
layer {
  name: "conv0_12"
  type: "Convolution"
  bottom: "conv0_12/bn"
  top: "conv0_12"
  convolution_param {
    num_output: 12
    bias_term: false
    pad: 1
    kernel_size: 3
    stride: 1
    weight_filler {
      type: "msra"
    }
    bias_filler {
      type: "constant"
    }
    engine: CUDNN
  }
}
layer {
  name: "concat0_12"
  type: "Concat"
  bottom: "concat0_11"
  bottom: "conv0_12"
  top: "concat0_12"
  concat_param {
    axis: 1
  }
}
layer {
  name: "conv0_13/bn"
  type: "BatchNorm"
  bottom: "concat0_12"
  top: "conv0_13/bn"
  param {
    lr_mult: 0
    decay_mult: 0
  }
  param {
    lr_mult: 0
    decay_mult: 0
  }
  param {
    lr_mult: 0
    decay_mult: 0
  }
}
layer {
  name: "conv0_13/scale"
  type: "Scale"
  bottom: "conv0_13/bn"
  top: "conv0_13/bn"
  scale_param {
    filler {
      value: 1
    }
    bias_term: true
    bias_filler {
      value: 0
    }
  }
}
layer {
  name: "relu0_13"
  type: "ReLU"
  bottom: "conv0_13/bn"
  top: "conv0_13/bn"
}
layer {
  name: "conv0_13"
  type: "Convolution"
  bottom: "conv0_13/bn"
  top: "conv0_13"
  convolution_param {
    num_output: 12
    bias_term: false
    pad: 1
    kernel_size: 3
    stride: 1
    weight_filler {
      type: "msra"
    }
    bias_filler {
      type: "constant"
    }
    engine: CUDNN
  }
}
layer {
  name: "concat0_13"
  type: "Concat"
  bottom: "concat0_12"
  bottom: "conv0_13"
  top: "concat0_13"
  concat_param {
    axis: 1
  }
}
layer {
  name: "conv0_14/bn"
  type: "BatchNorm"
  bottom: "concat0_13"
  top: "conv0_14/bn"
  param {
    lr_mult: 0
    decay_mult: 0
  }
  param {
    lr_mult: 0
    decay_mult: 0
  }
  param {
    lr_mult: 0
    decay_mult: 0
  }
}
layer {
  name: "conv0_14/scale"
  type: "Scale"
  bottom: "conv0_14/bn"
  top: "conv0_14/bn"
  scale_param {
    filler {
      value: 1
    }
    bias_term: true
    bias_filler {
      value: 0
    }
  }
}
layer {
  name: "relu0_14"
  type: "ReLU"
  bottom: "conv0_14/bn"
  top: "conv0_14/bn"
}
layer {
  name: "conv0_14"
  type: "Convolution"
  bottom: "conv0_14/bn"
  top: "conv0_14"
  convolution_param {
    num_output: 12
    bias_term: false
    pad: 1
    kernel_size: 3
    stride: 1
    weight_filler {
      type: "msra"
    }
    bias_filler {
      type: "constant"
    }
    engine: CUDNN
  }
}
layer {
  name: "concat0_14"
  type: "Concat"
  bottom: "concat0_13"
  bottom: "conv0_14"
  top: "concat0_14"
  concat_param {
    axis: 1
  }
}
layer {
  name: "conv0_15/bn"
  type: "BatchNorm"
  bottom: "concat0_14"
  top: "conv0_15/bn"
  param {
    lr_mult: 0
    decay_mult: 0
  }
  param {
    lr_mult: 0
    decay_mult: 0
  }
  param {
    lr_mult: 0
    decay_mult: 0
  }
}
layer {
  name: "conv0_15/scale"
  type: "Scale"
  bottom: "conv0_15/bn"
  top: "conv0_15/bn"
  scale_param {
    filler {
      value: 1
    }
    bias_term: true
    bias_filler {
      value: 0
    }
  }
}
layer {
  name: "relu0_15"
  type: "ReLU"
  bottom: "conv0_15/bn"
  top: "conv0_15/bn"
}
layer {
  name: "conv0_15"
  type: "Convolution"
  bottom: "conv0_15/bn"
  top: "conv0_15"
  convolution_param {
    num_output: 12
    bias_term: false
    pad: 1
    kernel_size: 3
    stride: 1
    weight_filler {
      type: "msra"
    }
    bias_filler {
      type: "constant"
    }
    engine: CUDNN
  }
}
layer {
  name: "concat0_15"
  type: "Concat"
  bottom: "concat0_14"
  bottom: "conv0_15"
  top: "concat0_15"
  concat_param {
    axis: 1
  }
}
layer {
  name: "conv0_16/bn"
  type: "BatchNorm"
  bottom: "concat0_15"
  top: "conv0_16/bn"
  param {
    lr_mult: 0
    decay_mult: 0
  }
  param {
    lr_mult: 0
    decay_mult: 0
  }
  param {
    lr_mult: 0
    decay_mult: 0
  }
}
layer {
  name: "conv0_16/scale"
  type: "Scale"
  bottom: "conv0_16/bn"
  top: "conv0_16/bn"
  scale_param {
    filler {
      value: 1
    }
    bias_term: true
    bias_filler {
      value: 0
    }
  }
}
layer {
  name: "relu0_16"
  type: "ReLU"
  bottom: "conv0_16/bn"
  top: "conv0_16/bn"
}
layer {
  name: "conv0_16"
  type: "Convolution"
  bottom: "conv0_16/bn"
  top: "conv0_16"
  convolution_param {
    num_output: 12
    bias_term: false
    pad: 1
    kernel_size: 3
    stride: 1
    weight_filler {
      type: "msra"
    }
    bias_filler {
      type: "constant"
    }
    engine: CUDNN
  }
}
layer {
  name: "concat0_16"
  type: "Concat"
  bottom: "concat0_15"
  bottom: "conv0_16"
  top: "concat0_16"
  concat_param {
    axis: 1
  }
}
layer {
  name: "conv0_17/bn"
  type: "BatchNorm"
  bottom: "concat0_16"
  top: "conv0_17/bn"
  param {
    lr_mult: 0
    decay_mult: 0
  }
  param {
    lr_mult: 0
    decay_mult: 0
  }
  param {
    lr_mult: 0
    decay_mult: 0
  }
}
layer {
  name: "conv0_17/scale"
  type: "Scale"
  bottom: "conv0_17/bn"
  top: "conv0_17/bn"
  scale_param {
    filler {
      value: 1
    }
    bias_term: true
    bias_filler {
      value: 0
    }
  }
}
layer {
  name: "relu0_17"
  type: "ReLU"
  bottom: "conv0_17/bn"
  top: "conv0_17/bn"
}
layer {
  name: "conv0_17"
  type: "Convolution"
  bottom: "conv0_17/bn"
  top: "conv0_17"
  convolution_param {
    num_output: 12
    bias_term: false
    pad: 1
    kernel_size: 3
    stride: 1
    weight_filler {
      type: "msra"
    }
    bias_filler {
      type: "constant"
    }
    engine: CUDNN
  }
}
layer {
  name: "concat0_17"
  type: "Concat"
  bottom: "concat0_16"
  bottom: "conv0_17"
  top: "concat0_17"
  concat_param {
    axis: 1
  }
}
layer {
  name: "conv0_18/bn"
  type: "BatchNorm"
  bottom: "concat0_17"
  top: "conv0_18/bn"
  param {
    lr_mult: 0
    decay_mult: 0
  }
  param {
    lr_mult: 0
    decay_mult: 0
  }
  param {
    lr_mult: 0
    decay_mult: 0
  }
}
layer {
  name: "conv0_18/scale"
  type: "Scale"
  bottom: "conv0_18/bn"
  top: "conv0_18/bn"
  scale_param {
    filler {
      value: 1
    }
    bias_term: true
    bias_filler {
      value: 0
    }
  }
}
layer {
  name: "relu0_18"
  type: "ReLU"
  bottom: "conv0_18/bn"
  top: "conv0_18/bn"
}
layer {
  name: "conv0_18"
  type: "Convolution"
  bottom: "conv0_18/bn"
  top: "conv0_18"
  convolution_param {
    num_output: 12
    bias_term: false
    pad: 1
    kernel_size: 3
    stride: 1
    weight_filler {
      type: "msra"
    }
    bias_filler {
      type: "constant"
    }
    engine: CUDNN
  }
}
layer {
  name: "concat0_18"
  type: "Concat"
  bottom: "concat0_17"
  bottom: "conv0_18"
  top: "concat0_18"
  concat_param {
    axis: 1
  }
}
layer {
  name: "conv0_19/bn"
  type: "BatchNorm"
  bottom: "concat0_18"
  top: "conv0_19/bn"
  param {
    lr_mult: 0
    decay_mult: 0
  }
  param {
    lr_mult: 0
    decay_mult: 0
  }
  param {
    lr_mult: 0
    decay_mult: 0
  }
}
layer {
  name: "conv0_19/scale"
  type: "Scale"
  bottom: "conv0_19/bn"
  top: "conv0_19/bn"
  scale_param {
    filler {
      value: 1
    }
    bias_term: true
    bias_filler {
      value: 0
    }
  }
}
layer {
  name: "relu0_19"
  type: "ReLU"
  bottom: "conv0_19/bn"
  top: "conv0_19/bn"
}
layer {
  name: "conv0_19"
  type: "Convolution"
  bottom: "conv0_19/bn"
  top: "conv0_19"
  convolution_param {
    num_output: 12
    bias_term: false
    pad: 1
    kernel_size: 3
    stride: 1
    weight_filler {
      type: "msra"
    }
    bias_filler {
      type: "constant"
    }
    engine: CUDNN
  }
}
layer {
  name: "concat0_19"
  type: "Concat"
  bottom: "concat0_18"
  bottom: "conv0_19"
  top: "concat0_19"
  concat_param {
    axis: 1
  }
}
layer {
  name: "conv0_20/bn"
  type: "BatchNorm"
  bottom: "concat0_19"
  top: "conv0_20/bn"
  param {
    lr_mult: 0
    decay_mult: 0
  }
  param {
    lr_mult: 0
    decay_mult: 0
  }
  param {
    lr_mult: 0
    decay_mult: 0
  }
}
layer {
  name: "conv0_20/scale"
  type: "Scale"
  bottom: "conv0_20/bn"
  top: "conv0_20/bn"
  scale_param {
    filler {
      value: 1
    }
    bias_term: true
    bias_filler {
      value: 0
    }
  }
}
layer {
  name: "relu0_20"
  type: "ReLU"
  bottom: "conv0_20/bn"
  top: "conv0_20/bn"
}
layer {
  name: "conv0_20"
  type: "Convolution"
  bottom: "conv0_20/bn"
  top: "conv0_20"
  convolution_param {
    num_output: 12
    bias_term: false
    pad: 1
    kernel_size: 3
    stride: 1
    weight_filler {
      type: "msra"
    }
    bias_filler {
      type: "constant"
    }
    engine: CUDNN
  }
}
layer {
  name: "concat0_20"
  type: "Concat"
  bottom: "concat0_19"
  bottom: "conv0_20"
  top: "concat0_20"
  concat_param {
    axis: 1
  }
}
layer {
  name: "conv0_21/bn"
  type: "BatchNorm"
  bottom: "concat0_20"
  top: "conv0_21/bn"
  param {
    lr_mult: 0
    decay_mult: 0
  }
  param {
    lr_mult: 0
    decay_mult: 0
  }
  param {
    lr_mult: 0
    decay_mult: 0
  }
}
layer {
  name: "conv0_21/scale"
  type: "Scale"
  bottom: "conv0_21/bn"
  top: "conv0_21/bn"
  scale_param {
    filler {
      value: 1
    }
    bias_term: true
    bias_filler {
      value: 0
    }
  }
}
layer {
  name: "relu0_21"
  type: "ReLU"
  bottom: "conv0_21/bn"
  top: "conv0_21/bn"
}
layer {
  name: "conv0_21"
  type: "Convolution"
  bottom: "conv0_21/bn"
  top: "conv0_21"
  convolution_param {
    num_output: 12
    bias_term: false
    pad: 1
    kernel_size: 3
    stride: 1
    weight_filler {
      type: "msra"
    }
    bias_filler {
      type: "constant"
    }
    engine: CUDNN
  }
}
layer {
  name: "concat0_21"
  type: "Concat"
  bottom: "concat0_20"
  bottom: "conv0_21"
  top: "concat0_21"
  concat_param {
    axis: 1
  }
}
layer {
  name: "conv0_22/bn"
  type: "BatchNorm"
  bottom: "concat0_21"
  top: "conv0_22/bn"
  param {
    lr_mult: 0
    decay_mult: 0
  }
  param {
    lr_mult: 0
    decay_mult: 0
  }
  param {
    lr_mult: 0
    decay_mult: 0
  }
}
layer {
  name: "conv0_22/scale"
  type: "Scale"
  bottom: "conv0_22/bn"
  top: "conv0_22/bn"
  scale_param {
    filler {
      value: 1
    }
    bias_term: true
    bias_filler {
      value: 0
    }
  }
}
layer {
  name: "relu0_22"
  type: "ReLU"
  bottom: "conv0_22/bn"
  top: "conv0_22/bn"
}
layer {
  name: "conv0_22"
  type: "Convolution"
  bottom: "conv0_22/bn"
  top: "conv0_22"
  convolution_param {
    num_output: 12
    bias_term: false
    pad: 1
    kernel_size: 3
    stride: 1
    weight_filler {
      type: "msra"
    }
    bias_filler {
      type: "constant"
    }
    engine: CUDNN
  }
}
layer {
  name: "concat0_22"
  type: "Concat"
  bottom: "concat0_21"
  bottom: "conv0_22"
  top: "concat0_22"
  concat_param {
    axis: 1
  }
}
layer {
  name: "conv0_23/bn"
  type: "BatchNorm"
  bottom: "concat0_22"
  top: "conv0_23/bn"
  param {
    lr_mult: 0
    decay_mult: 0
  }
  param {
    lr_mult: 0
    decay_mult: 0
  }
  param {
    lr_mult: 0
    decay_mult: 0
  }
}
layer {
  name: "conv0_23/scale"
  type: "Scale"
  bottom: "conv0_23/bn"
  top: "conv0_23/bn"
  scale_param {
    filler {
      value: 1
    }
    bias_term: true
    bias_filler {
      value: 0
    }
  }
}
layer {
  name: "relu0_23"
  type: "ReLU"
  bottom: "conv0_23/bn"
  top: "conv0_23/bn"
}
layer {
  name: "conv0_23"
  type: "Convolution"
  bottom: "conv0_23/bn"
  top: "conv0_23"
  convolution_param {
    num_output: 12
    bias_term: false
    pad: 1
    kernel_size: 3
    stride: 1
    weight_filler {
      type: "msra"
    }
    bias_filler {
      type: "constant"
    }
    engine: CUDNN
  }
}
layer {
  name: "concat0_23"
  type: "Concat"
  bottom: "concat0_22"
  bottom: "conv0_23"
  top: "concat0_23"
  concat_param {
    axis: 1
  }
}
layer {
  name: "conv0_24/bn"
  type: "BatchNorm"
  bottom: "concat0_23"
  top: "conv0_24/bn"
  param {
    lr_mult: 0
    decay_mult: 0
  }
  param {
    lr_mult: 0
    decay_mult: 0
  }
  param {
    lr_mult: 0
    decay_mult: 0
  }
}
layer {
  name: "conv0_24/scale"
  type: "Scale"
  bottom: "conv0_24/bn"
  top: "conv0_24/bn"
  scale_param {
    filler {
      value: 1
    }
    bias_term: true
    bias_filler {
      value: 0
    }
  }
}
layer {
  name: "relu0_24"
  type: "ReLU"
  bottom: "conv0_24/bn"
  top: "conv0_24/bn"
}
layer {
  name: "conv0_24"
  type: "Convolution"
  bottom: "conv0_24/bn"
  top: "conv0_24"
  convolution_param {
    num_output: 12
    bias_term: false
    pad: 1
    kernel_size: 3
    stride: 1
    weight_filler {
      type: "msra"
    }
    bias_filler {
      type: "constant"
    }
    engine: CUDNN
  }
}
layer {
  name: "concat0_24"
  type: "Concat"
  bottom: "concat0_23"
  bottom: "conv0_24"
  top: "concat0_24"
  concat_param {
    axis: 1
  }
}
layer {
  name: "conv0_25/bn"
  type: "BatchNorm"
  bottom: "concat0_24"
  top: "conv0_25/bn"
  param {
    lr_mult: 0
    decay_mult: 0
  }
  param {
    lr_mult: 0
    decay_mult: 0
  }
  param {
    lr_mult: 0
    decay_mult: 0
  }
}
layer {
  name: "conv0_25/scale"
  type: "Scale"
  bottom: "conv0_25/bn"
  top: "conv0_25/bn"
  scale_param {
    filler {
      value: 1
    }
    bias_term: true
    bias_filler {
      value: 0
    }
  }
}
layer {
  name: "relu0_25"
  type: "ReLU"
  bottom: "conv0_25/bn"
  top: "conv0_25/bn"
}
layer {
  name: "conv0_25"
  type: "Convolution"
  bottom: "conv0_25/bn"
  top: "conv0_25"
  convolution_param {
    num_output: 12
    bias_term: false
    pad: 1
    kernel_size: 3
    stride: 1
    weight_filler {
      type: "msra"
    }
    bias_filler {
      type: "constant"
    }
    engine: CUDNN
  }
}
layer {
  name: "concat0_25"
  type: "Concat"
  bottom: "concat0_24"
  bottom: "conv0_25"
  top: "concat0_25"
  concat_param {
    axis: 1
  }
}
layer {
  name: "conv0_26/bn"
  type: "BatchNorm"
  bottom: "concat0_25"
  top: "conv0_26/bn"
  param {
    lr_mult: 0
    decay_mult: 0
  }
  param {
    lr_mult: 0
    decay_mult: 0
  }
  param {
    lr_mult: 0
    decay_mult: 0
  }
}
layer {
  name: "conv0_26/scale"
  type: "Scale"
  bottom: "conv0_26/bn"
  top: "conv0_26/bn"
  scale_param {
    filler {
      value: 1
    }
    bias_term: true
    bias_filler {
      value: 0
    }
  }
}
layer {
  name: "relu0_26"
  type: "ReLU"
  bottom: "conv0_26/bn"
  top: "conv0_26/bn"
}
layer {
  name: "conv0_26"
  type: "Convolution"
  bottom: "conv0_26/bn"
  top: "conv0_26"
  convolution_param {
    num_output: 12
    bias_term: false
    pad: 1
    kernel_size: 3
    stride: 1
    weight_filler {
      type: "msra"
    }
    bias_filler {
      type: "constant"
    }
    engine: CUDNN
  }
}
layer {
  name: "concat0_26"
  type: "Concat"
  bottom: "concat0_25"
  bottom: "conv0_26"
  top: "concat0_26"
  concat_param {
    axis: 1
  }
}
layer {
  name: "conv0_27/bn"
  type: "BatchNorm"
  bottom: "concat0_26"
  top: "conv0_27/bn"
  param {
    lr_mult: 0
    decay_mult: 0
  }
  param {
    lr_mult: 0
    decay_mult: 0
  }
  param {
    lr_mult: 0
    decay_mult: 0
  }
}
layer {
  name: "conv0_27/scale"
  type: "Scale"
  bottom: "conv0_27/bn"
  top: "conv0_27/bn"
  scale_param {
    filler {
      value: 1
    }
    bias_term: true
    bias_filler {
      value: 0
    }
  }
}
layer {
  name: "relu0_27"
  type: "ReLU"
  bottom: "conv0_27/bn"
  top: "conv0_27/bn"
}
layer {
  name: "conv0_27"
  type: "Convolution"
  bottom: "conv0_27/bn"
  top: "conv0_27"
  convolution_param {
    num_output: 12
    bias_term: false
    pad: 1
    kernel_size: 3
    stride: 1
    weight_filler {
      type: "msra"
    }
    bias_filler {
      type: "constant"
    }
    engine: CUDNN
  }
}
layer {
  name: "concat0_27"
  type: "Concat"
  bottom: "concat0_26"
  bottom: "conv0_27"
  top: "concat0_27"
  concat_param {
    axis: 1
  }
}
layer {
  name: "conv0_28/bn"
  type: "BatchNorm"
  bottom: "concat0_27"
  top: "conv0_28/bn"
  param {
    lr_mult: 0
    decay_mult: 0
  }
  param {
    lr_mult: 0
    decay_mult: 0
  }
  param {
    lr_mult: 0
    decay_mult: 0
  }
}
layer {
  name: "conv0_28/scale"
  type: "Scale"
  bottom: "conv0_28/bn"
  top: "conv0_28/bn"
  scale_param {
    filler {
      value: 1
    }
    bias_term: true
    bias_filler {
      value: 0
    }
  }
}
layer {
  name: "relu0_28"
  type: "ReLU"
  bottom: "conv0_28/bn"
  top: "conv0_28/bn"
}
layer {
  name: "conv0_28"
  type: "Convolution"
  bottom: "conv0_28/bn"
  top: "conv0_28"
  convolution_param {
    num_output: 12
    bias_term: fals
I0225 16:26:25.764784 11251 layer_factory.hpp:77] Creating layer word_images
I0225 16:26:25.764912 11251 db_lmdb.cpp:35] Opened lmdb /data/fwolf/gw3_50000/gw_cv3_nti500000_pul2-3-4-5_train_word_images_lmdb
I0225 16:26:25.764957 11251 net.cpp:84] Creating Layer word_images
I0225 16:26:25.764977 11251 net.cpp:380] word_images -> word_images
I0225 16:26:25.765005 11251 net.cpp:380] word_images -> label
I0225 16:26:25.768266 11251 data_layer.cpp:44] output data size: 1,1,63,280
I0225 16:26:25.776516 11251 net.cpp:122] Setting up word_images
I0225 16:26:25.776542 11251 net.cpp:129] Top shape: 1 1 63 280 (17640)
I0225 16:26:25.776551 11251 net.cpp:129] Top shape: 1 (1)
I0225 16:26:25.776557 11251 net.cpp:137] Memory required for data: 70564
I0225 16:26:25.776564 11251 layer_factory.hpp:77] Creating layer phocs
I0225 16:26:25.776681 11251 db_lmdb.cpp:35] Opened lmdb /data/fwolf/gw3_50000/gw_cv3_nti500000_pul2-3-4-5_train_phocs_lmdb
I0225 16:26:25.776729 11251 net.cpp:84] Creating Layer phocs
I0225 16:26:25.776739 11251 net.cpp:380] phocs -> phocs
I0225 16:26:25.776764 11251 net.cpp:380] phocs -> label_phocs
I0225 16:26:25.777531 11251 data_layer.cpp:44] output data size: 1,1,1,604
I0225 16:26:25.785692 11251 net.cpp:122] Setting up phocs
I0225 16:26:25.785717 11251 net.cpp:129] Top shape: 1 1 1 604 (604)
I0225 16:26:25.785724 11251 net.cpp:129] Top shape: 1 (1)
I0225 16:26:25.785730 11251 net.cpp:137] Memory required for data: 72984
I0225 16:26:25.785737 11251 layer_factory.hpp:77] Creating layer conv_init
I0225 16:26:25.785758 11251 net.cpp:84] Creating Layer conv_init
I0225 16:26:25.785765 11251 net.cpp:406] conv_init <- word_images
I0225 16:26:25.785779 11251 net.cpp:380] conv_init -> conv_init
I0225 16:26:26.555146 11251 net.cpp:122] Setting up conv_init
I0225 16:26:26.555186 11251 net.cpp:129] Top shape: 1 32 63 280 (564480)
I0225 16:26:26.555191 11251 net.cpp:137] Memory required for data: 2330904
I0225 16:26:26.555205 11251 layer_factory.hpp:77] Creating layer bn_init
I0225 16:26:26.555220 11251 net.cpp:84] Creating Layer bn_init
I0225 16:26:26.555225 11251 net.cpp:406] bn_init <- conv_init
I0225 16:26:26.555233 11251 net.cpp:380] bn_init -> bn_init
I0225 16:26:26.555675 11251 net.cpp:122] Setting up bn_init
I0225 16:26:26.555683 11251 net.cpp:129] Top shape: 1 32 63 280 (564480)
I0225 16:26:26.555687 11251 net.cpp:137] Memory required for data: 4588824
I0225 16:26:26.555699 11251 layer_factory.hpp:77] Creating layer scale_init
I0225 16:26:26.555712 11251 net.cpp:84] Creating Layer scale_init
I0225 16:26:26.555716 11251 net.cpp:406] scale_init <- bn_init
I0225 16:26:26.555723 11251 net.cpp:367] scale_init -> bn_init (in-place)
I0225 16:26:26.555790 11251 layer_factory.hpp:77] Creating layer scale_init
I0225 16:26:26.556035 11251 net.cpp:122] Setting up scale_init
I0225 16:26:26.556044 11251 net.cpp:129] Top shape: 1 32 63 280 (564480)
I0225 16:26:26.556048 11251 net.cpp:137] Memory required for data: 6846744
I0225 16:26:26.556057 11251 layer_factory.hpp:77] Creating layer relu_init
I0225 16:26:26.556066 11251 net.cpp:84] Creating Layer relu_init
I0225 16:26:26.556069 11251 net.cpp:406] relu_init <- bn_init
I0225 16:26:26.556074 11251 net.cpp:367] relu_init -> bn_init (in-place)
I0225 16:26:26.557410 11251 net.cpp:122] Setting up relu_init
I0225 16:26:26.557425 11251 net.cpp:129] Top shape: 1 32 63 280 (564480)
I0225 16:26:26.557430 11251 net.cpp:137] Memory required for data: 9104664
I0225 16:26:26.557433 11251 layer_factory.hpp:77] Creating layer pool_init
I0225 16:26:26.557442 11251 net.cpp:84] Creating Layer pool_init
I0225 16:26:26.557451 11251 net.cpp:406] pool_init <- bn_init
I0225 16:26:26.557458 11251 net.cpp:380] pool_init -> pool_init
I0225 16:26:26.557535 11251 net.cpp:122] Setting up pool_init
I0225 16:26:26.557543 11251 net.cpp:129] Top shape: 1 32 32 141 (144384)
I0225 16:26:26.557546 11251 net.cpp:137] Memory required for data: 9682200
I0225 16:26:26.557549 11251 layer_factory.hpp:77] Creating layer pool_init_pool_init_0_split
I0225 16:26:26.557556 11251 net.cpp:84] Creating Layer pool_init_pool_init_0_split
I0225 16:26:26.557560 11251 net.cpp:406] pool_init_pool_init_0_split <- pool_init
I0225 16:26:26.557566 11251 net.cpp:380] pool_init_pool_init_0_split -> pool_init_pool_init_0_split_0
I0225 16:26:26.557574 11251 net.cpp:380] pool_init_pool_init_0_split -> pool_init_pool_init_0_split_1
I0225 16:26:26.557631 11251 net.cpp:122] Setting up pool_init_pool_init_0_split
I0225 16:26:26.557636 11251 net.cpp:129] Top shape: 1 32 32 141 (144384)
I0225 16:26:26.557641 11251 net.cpp:129] Top shape: 1 32 32 141 (144384)
I0225 16:26:26.557644 11251 net.cpp:137] Memory required for data: 10837272
I0225 16:26:26.557648 11251 layer_factory.hpp:77] Creating layer conv0_0/bn
I0225 16:26:26.557656 11251 net.cpp:84] Creating Layer conv0_0/bn
I0225 16:26:26.557659 11251 net.cpp:406] conv0_0/bn <- pool_init_pool_init_0_split_0
I0225 16:26:26.557665 11251 net.cpp:380] conv0_0/bn -> conv0_0/bn
I0225 16:26:26.559990 11251 net.cpp:122] Setting up conv0_0/bn
I0225 16:26:26.560006 11251 net.cpp:129] Top shape: 1 32 32 141 (144384)
I0225 16:26:26.560010 11251 net.cpp:137] Memory required for data: 11414808
I0225 16:26:26.560022 11251 layer_factory.hpp:77] Creating layer conv0_0/scale
I0225 16:26:26.560031 11251 net.cpp:84] Creating Layer conv0_0/scale
I0225 16:26:26.560036 11251 net.cpp:406] conv0_0/scale <- conv0_0/bn
I0225 16:26:26.560042 11251 net.cpp:367] conv0_0/scale -> conv0_0/bn (in-place)
I0225 16:26:26.560111 11251 layer_factory.hpp:77] Creating layer conv0_0/scale
I0225 16:26:26.560319 11251 net.cpp:122] Setting up conv0_0/scale
I0225 16:26:26.560328 11251 net.cpp:129] Top shape: 1 32 32 141 (144384)
I0225 16:26:26.560331 11251 net.cpp:137] Memory required for data: 11992344
I0225 16:26:26.560338 11251 layer_factory.hpp:77] Creating layer relu0_0
I0225 16:26:26.560345 11251 net.cpp:84] Creating Layer relu0_0
I0225 16:26:26.560348 11251 net.cpp:406] relu0_0 <- conv0_0/bn
I0225 16:26:26.560354 11251 net.cpp:367] relu0_0 -> conv0_0/bn (in-place)
I0225 16:26:26.560586 11251 net.cpp:122] Setting up relu0_0
I0225 16:26:26.560596 11251 net.cpp:129] Top shape: 1 32 32 141 (144384)
I0225 16:26:26.560600 11251 net.cpp:137] Memory required for data: 12569880
I0225 16:26:26.560605 11251 layer_factory.hpp:77] Creating layer conv0_0
I0225 16:26:26.560616 11251 net.cpp:84] Creating Layer conv0_0
I0225 16:26:26.560621 11251 net.cpp:406] conv0_0 <- conv0_0/bn
I0225 16:26:26.560636 11251 net.cpp:380] conv0_0 -> conv0_0
I0225 16:26:26.564771 11251 net.cpp:122] Setting up conv0_0
I0225 16:26:26.564788 11251 net.cpp:129] Top shape: 1 12 32 141 (54144)
I0225 16:26:26.564792 11251 net.cpp:137] Memory required for data: 12786456
I0225 16:26:26.564800 11251 layer_factory.hpp:77] Creating layer concat0_0
I0225 16:26:26.564810 11251 net.cpp:84] Creating Layer concat0_0
I0225 16:26:26.564815 11251 net.cpp:406] concat0_0 <- pool_init_pool_init_0_split_1
I0225 16:26:26.564821 11251 net.cpp:406] concat0_0 <- conv0_0
I0225 16:26:26.564826 11251 net.cpp:380] concat0_0 -> concat0_0
I0225 16:26:26.564870 11251 net.cpp:122] Setting up concat0_0
I0225 16:26:26.564877 11251 net.cpp:129] Top shape: 1 44 32 141 (198528)
I0225 16:26:26.564882 11251 net.cpp:137] Memory required for data: 13580568
I0225 16:26:26.564884 11251 layer_factory.hpp:77] Creating layer concat0_0_concat0_0_0_split
I0225 16:26:26.564890 11251 net.cpp:84] Creating Layer concat0_0_concat0_0_0_split
I0225 16:26:26.564894 11251 net.cpp:406] concat0_0_concat0_0_0_split <- concat0_0
I0225 16:26:26.564900 11251 net.cpp:380] concat0_0_concat0_0_0_split -> concat0_0_concat0_0_0_split_0
I0225 16:26:26.564908 11251 net.cpp:380] concat0_0_concat0_0_0_split -> concat0_0_concat0_0_0_split_1
I0225 16:26:26.564970 11251 net.cpp:122] Setting up concat0_0_concat0_0_0_split
I0225 16:26:26.564976 11251 net.cpp:129] Top shape: 1 44 32 141 (198528)
I0225 16:26:26.564981 11251 net.cpp:129] Top shape: 1 44 32 141 (198528)
I0225 16:26:26.564985 11251 net.cpp:137] Memory required for data: 15168792
I0225 16:26:26.564988 11251 layer_factory.hpp:77] Creating layer conv0_1/bn
I0225 16:26:26.564996 11251 net.cpp:84] Creating Layer conv0_1/bn
I0225 16:26:26.564999 11251 net.cpp:406] conv0_1/bn <- concat0_0_concat0_0_0_split_0
I0225 16:26:26.565006 11251 net.cpp:380] conv0_1/bn -> conv0_1/bn
I0225 16:26:26.565388 11251 net.cpp:122] Setting up conv0_1/bn
I0225 16:26:26.565397 11251 net.cpp:129] Top shape: 1 44 32 141 (198528)
I0225 16:26:26.565400 11251 net.cpp:137] Memory required for data: 15962904
I0225 16:26:26.565409 11251 layer_factory.hpp:77] Creating layer conv0_1/scale
I0225 16:26:26.565418 11251 net.cpp:84] Creating Layer conv0_1/scale
I0225 16:26:26.565421 11251 net.cpp:406] conv0_1/scale <- conv0_1/bn
I0225 16:26:26.565428 11251 net.cpp:367] conv0_1/scale -> conv0_1/bn (in-place)
I0225 16:26:26.565492 11251 layer_factory.hpp:77] Creating layer conv0_1/scale
I0225 16:26:26.565702 11251 net.cpp:122] Setting up conv0_1/scale
I0225 16:26:26.565711 11251 net.cpp:129] Top shape: 1 44 32 141 (198528)
I0225 16:26:26.565714 11251 net.cpp:137] Memory required for data: 16757016
I0225 16:26:26.565726 11251 layer_factory.hpp:77] Creating layer relu0_1
I0225 16:26:26.565733 11251 net.cpp:84] Creating Layer relu0_1
I0225 16:26:26.565737 11251 net.cpp:406] relu0_1 <- conv0_1/bn
I0225 16:26:26.565742 11251 net.cpp:367] relu0_1 -> conv0_1/bn (in-place)
I0225 16:26:26.565964 11251 net.cpp:122] Setting up relu0_1
I0225 16:26:26.565973 11251 net.cpp:129] Top shape: 1 44 32 141 (198528)
I0225 16:26:26.565976 11251 net.cpp:137] Memory required for data: 17551128
I0225 16:26:26.565981 11251 layer_factory.hpp:77] Creating layer conv0_1
I0225 16:26:26.565992 11251 net.cpp:84] Creating Layer conv0_1
I0225 16:26:26.565996 11251 net.cpp:406] conv0_1 <- conv0_1/bn
I0225 16:26:26.566002 11251 net.cpp:380] conv0_1 -> conv0_1
I0225 16:26:26.568284 11251 net.cpp:122] Setting up conv0_1
I0225 16:26:26.568300 11251 net.cpp:129] Top shape: 1 12 32 141 (54144)
I0225 16:26:26.568305 11251 net.cpp:137] Memory required for data: 17767704
I0225 16:26:26.568311 11251 layer_factory.hpp:77] Creating layer concat0_1
I0225 16:26:26.568320 11251 net.cpp:84] Creating Layer concat0_1
I0225 16:26:26.568325 11251 net.cpp:406] concat0_1 <- concat0_0_concat0_0_0_split_1
I0225 16:26:26.568330 11251 net.cpp:406] concat0_1 <- conv0_1
I0225 16:26:26.568336 11251 net.cpp:380] concat0_1 -> concat0_1
I0225 16:26:26.568382 11251 net.cpp:122] Setting up concat0_1
I0225 16:26:26.568389 11251 net.cpp:129] Top shape: 1 56 32 141 (252672)
I0225 16:26:26.568392 11251 net.cpp:137] Memory required for data: 18778392
I0225 16:26:26.568397 11251 layer_factory.hpp:77] Creating layer concat0_1_concat0_1_0_split
I0225 16:26:26.568403 11251 net.cpp:84] Creating Layer concat0_1_concat0_1_0_split
I0225 16:26:26.568406 11251 net.cpp:406] concat0_1_concat0_1_0_split <- concat0_1
I0225 16:26:26.568413 11251 net.cpp:380] concat0_1_concat0_1_0_split -> concat0_1_concat0_1_0_split_0
I0225 16:26:26.568419 11251 net.cpp:380] concat0_1_concat0_1_0_split -> concat0_1_concat0_1_0_split_1
I0225 16:26:26.568476 11251 net.cpp:122] Setting up concat0_1_concat0_1_0_split
I0225 16:26:26.568483 11251 net.cpp:129] Top shape: 1 56 32 141 (252672)
I0225 16:26:26.568487 11251 net.cpp:129] Top shape: 1 56 32 141 (252672)
I0225 16:26:26.568491 11251 net.cpp:137] Memory required for data: 20799768
I0225 16:26:26.568495 11251 layer_factory.hpp:77] Creating layer conv0_2/bn
I0225 16:26:26.568501 11251 net.cpp:84] Creating Layer conv0_2/bn
I0225 16:26:26.568506 11251 net.cpp:406] conv0_2/bn <- concat0_1_concat0_1_0_split_0
I0225 16:26:26.568511 11251 net.cpp:380] conv0_2/bn -> conv0_2/bn
I0225 16:26:26.568922 11251 net.cpp:122] Setting up conv0_2/bn
I0225 16:26:26.568934 11251 net.cpp:129] Top shape: 1 56 32 141 (252672)
I0225 16:26:26.568938 11251 net.cpp:137] Memory required for data: 21810456
I0225 16:26:26.568948 11251 layer_factory.hpp:77] Creating layer conv0_2/scale
I0225 16:26:26.568955 11251 net.cpp:84] Creating Layer conv0_2/scale
I0225 16:26:26.568960 11251 net.cpp:406] conv0_2/scale <- conv0_2/bn
I0225 16:26:26.568971 11251 net.cpp:367] conv0_2/scale -> conv0_2/bn (in-place)
I0225 16:26:26.569038 11251 layer_factory.hpp:77] Creating layer conv0_2/scale
I0225 16:26:26.569257 11251 net.cpp:122] Setting up conv0_2/scale
I0225 16:26:26.569264 11251 net.cpp:129] Top shape: 1 56 32 141 (252672)
I0225 16:26:26.569268 11251 net.cpp:137] Memory required for data: 22821144
I0225 16:26:26.569275 11251 layer_factory.hpp:77] Creating layer relu0_2
I0225 16:26:26.569283 11251 net.cpp:84] Creating Layer relu0_2
I0225 16:26:26.569285 11251 net.cpp:406] relu0_2 <- conv0_2/bn
I0225 16:26:26.569291 11251 net.cpp:367] relu0_2 -> conv0_2/bn (in-place)
I0225 16:26:26.570611 11251 net.cpp:122] Setting up relu0_2
I0225 16:26:26.570626 11251 net.cpp:129] Top shape: 1 56 32 141 (252672)
I0225 16:26:26.570631 11251 net.cpp:137] Memory required for data: 23831832
I0225 16:26:26.570636 11251 layer_factory.hpp:77] Creating layer conv0_2
I0225 16:26:26.570647 11251 net.cpp:84] Creating Layer conv0_2
I0225 16:26:26.570652 11251 net.cpp:406] conv0_2 <- conv0_2/bn
I0225 16:26:26.570658 11251 net.cpp:380] conv0_2 -> conv0_2
I0225 16:26:26.573031 11251 net.cpp:122] Setting up conv0_2
I0225 16:26:26.573047 11251 net.cpp:129] Top shape: 1 12 32 141 (54144)
I0225 16:26:26.573052 11251 net.cpp:137] Memory required for data: 24048408
I0225 16:26:26.573060 11251 layer_factory.hpp:77] Creating layer concat0_2
I0225 16:26:26.573067 11251 net.cpp:84] Creating Layer concat0_2
I0225 16:26:26.573071 11251 net.cpp:406] concat0_2 <- concat0_1_concat0_1_0_split_1
I0225 16:26:26.573077 11251 net.cpp:406] concat0_2 <- conv0_2
I0225 16:26:26.573083 11251 net.cpp:380] concat0_2 -> concat0_2
I0225 16:26:26.573127 11251 net.cpp:122] Setting up concat0_2
I0225 16:26:26.573133 11251 net.cpp:129] Top shape: 1 68 32 141 (306816)
I0225 16:26:26.573137 11251 net.cpp:137] Memory required for data: 25275672
I0225 16:26:26.573140 11251 layer_factory.hpp:77] Creating layer concat0_2_concat0_2_0_split
I0225 16:26:26.573146 11251 net.cpp:84] Creating Layer concat0_2_concat0_2_0_split
I0225 16:26:26.573151 11251 net.cpp:406] concat0_2_concat0_2_0_split <- concat0_2
I0225 16:26:26.573156 11251 net.cpp:380] concat0_2_concat0_2_0_split -> concat0_2_concat0_2_0_split_0
I0225 16:26:26.573163 11251 net.cpp:380] concat0_2_concat0_2_0_split -> concat0_2_concat0_2_0_split_1
I0225 16:26:26.573222 11251 net.cpp:122] Setting up concat0_2_concat0_2_0_split
I0225 16:26:26.573228 11251 net.cpp:129] Top shape: 1 68 32 141 (306816)
I0225 16:26:26.573233 11251 net.cpp:129] Top shape: 1 68 32 141 (306816)
I0225 16:26:26.573236 11251 net.cpp:137] Memory required for data: 27730200
I0225 16:26:26.573240 11251 layer_factory.hpp:77] Creating layer conv0_3/bn
I0225 16:26:26.573246 11251 net.cpp:84] Creating Layer conv0_3/bn
I0225 16:26:26.573251 11251 net.cpp:406] conv0_3/bn <- concat0_2_concat0_2_0_split_0
I0225 16:26:26.573256 11251 net.cpp:380] conv0_3/bn -> conv0_3/bn
I0225 16:26:26.573655 11251 net.cpp:122] Setting up conv0_3/bn
I0225 16:26:26.573663 11251 net.cpp:129] Top shape: 1 68 32 141 (306816)
I0225 16:26:26.573667 11251 net.cpp:137] Memory required for data: 28957464
I0225 16:26:26.573674 11251 layer_factory.hpp:77] Creating layer conv0_3/scale
I0225 16:26:26.573683 11251 net.cpp:84] Creating Layer conv0_3/scale
I0225 16:26:26.573688 11251 net.cpp:406] conv0_3/scale <- conv0_3/bn
I0225 16:26:26.573693 11251 net.cpp:367] conv0_3/scale -> conv0_3/bn (in-place)
I0225 16:26:26.573758 11251 layer_factory.hpp:77] Creating layer conv0_3/scale
I0225 16:26:26.573976 11251 net.cpp:122] Setting up conv0_3/scale
I0225 16:26:26.573984 11251 net.cpp:129] Top shape: 1 68 32 141 (306816)
I0225 16:26:26.573988 11251 net.cpp:137] Memory required for data: 30184728
I0225 16:26:26.573998 11251 layer_factory.hpp:77] Creating layer relu0_3
I0225 16:26:26.574005 11251 net.cpp:84] Creating Layer relu0_3
I0225 16:26:26.574010 11251 net.cpp:406] relu0_3 <- conv0_3/bn
I0225 16:26:26.574015 11251 net.cpp:367] relu0_3 -> conv0_3/bn (in-place)
I0225 16:26:26.574244 11251 net.cpp:122] Setting up relu0_3
I0225 16:26:26.574254 11251 net.cpp:129] Top shape: 1 68 32 141 (306816)
I0225 16:26:26.574257 11251 net.cpp:137] Memory required for data: 31411992
I0225 16:26:26.574261 11251 layer_factory.hpp:77] Creating layer conv0_3
I0225 16:26:26.574272 11251 net.cpp:84] Creating Layer conv0_3
I0225 16:26:26.574276 11251 net.cpp:406] conv0_3 <- conv0_3/bn
I0225 16:26:26.574282 11251 net.cpp:380] conv0_3 -> conv0_3
I0225 16:26:26.576679 11251 net.cpp:122] Setting up conv0_3
I0225 16:26:26.576695 11251 net.cpp:129] Top shape: 1 12 32 141 (54144)
I0225 16:26:26.576700 11251 net.cpp:137] Memory required for data: 31628568
I0225 16:26:26.576707 11251 layer_factory.hpp:77] Creating layer concat0_3
I0225 16:26:26.576715 11251 net.cpp:84] Creating Layer concat0_3
I0225 16:26:26.576719 11251 net.cpp:406] concat0_3 <- concat0_2_concat0_2_0_split_1
I0225 16:26:26.576725 11251 net.cpp:406] concat0_3 <- conv0_3
I0225 16:26:26.576731 11251 net.cpp:380] concat0_3 -> concat0_3
I0225 16:26:26.576776 11251 net.cpp:122] Setting up concat0_3
I0225 16:26:26.576781 11251 net.cpp:129] Top shape: 1 80 32 141 (360960)
I0225 16:26:26.576786 11251 net.cpp:137] Memory required for data: 33072408
I0225 16:26:26.576789 11251 layer_factory.hpp:77] Creating layer concat0_3_concat0_3_0_split
I0225 16:26:26.576795 11251 net.cpp:84] Creating Layer concat0_3_concat0_3_0_split
I0225 16:26:26.576798 11251 net.cpp:406] concat0_3_concat0_3_0_split <- concat0_3
I0225 16:26:26.576805 11251 net.cpp:380] concat0_3_concat0_3_0_split -> concat0_3_concat0_3_0_split_0
I0225 16:26:26.576812 11251 net.cpp:380] concat0_3_concat0_3_0_split -> concat0_3_concat0_3_0_split_1
I0225 16:26:26.576874 11251 net.cpp:122] Setting up concat0_3_concat0_3_0_split
I0225 16:26:26.576879 11251 net.cpp:129] Top shape: 1 80 32 141 (360960)
I0225 16:26:26.576884 11251 net.cpp:129] Top shape: 1 80 32 141 (360960)
I0225 16:26:26.576887 11251 net.cpp:137] Memory required for data: 35960088
I0225 16:26:26.576891 11251 layer_factory.hpp:77] Creating layer conv0_4/bn
I0225 16:26:26.576900 11251 net.cpp:84] Creating Layer conv0_4/bn
I0225 16:26:26.576903 11251 net.cpp:406] conv0_4/bn <- concat0_3_concat0_3_0_split_0
I0225 16:26:26.576910 11251 net.cpp:380] conv0_4/bn -> conv0_4/bn
I0225 16:26:26.577299 11251 net.cpp:122] Setting up conv0_4/bn
I0225 16:26:26.577307 11251 net.cpp:129] Top shape: 1 80 32 141 (360960)
I0225 16:26:26.577311 11251 net.cpp:137] Memory required for data: 37403928
I0225 16:26:26.577322 11251 layer_factory.hpp:77] Creating layer conv0_4/scale
I0225 16:26:26.577332 11251 net.cpp:84] Creating Layer conv0_4/scale
I0225 16:26:26.577335 11251 net.cpp:406] conv0_4/scale <- conv0_4/bn
I0225 16:26:26.577342 11251 net.cpp:367] conv0_4/scale -> conv0_4/bn (in-place)
I0225 16:26:26.577409 11251 layer_factory.hpp:77] Creating layer conv0_4/scale
I0225 16:26:26.577627 11251 net.cpp:122] Setting up conv0_4/scale
I0225 16:26:26.577636 11251 net.cpp:129] Top shape: 1 80 32 141 (360960)
I0225 16:26:26.577639 11251 net.cpp:137] Memory required for data: 38847768
I0225 16:26:26.577646 11251 layer_factory.hpp:77] Creating layer relu0_4
I0225 16:26:26.577653 11251 net.cpp:84] Creating Layer relu0_4
I0225 16:26:26.577657 11251 net.cpp:406] relu0_4 <- conv0_4/bn
I0225 16:26:26.577662 11251 net.cpp:367] relu0_4 -> conv0_4/bn (in-place)
I0225 16:26:26.577890 11251 net.cpp:122] Setting up relu0_4
I0225 16:26:26.577899 11251 net.cpp:129] Top shape: 1 80 32 141 (360960)
I0225 16:26:26.577903 11251 net.cpp:137] Memory required for data: 40291608
I0225 16:26:26.577908 11251 layer_factory.hpp:77] Creating layer conv0_4
I0225 16:26:26.577919 11251 net.cpp:84] Creating Layer conv0_4
I0225 16:26:26.577922 11251 net.cpp:406] conv0_4 <- conv0_4/bn
I0225 16:26:26.577929 11251 net.cpp:380] conv0_4 -> conv0_4
I0225 16:26:26.580397 11251 net.cpp:122] Setting up conv0_4
I0225 16:26:26.580413 11251 net.cpp:129] Top shape: 1 12 32 141 (54144)
I0225 16:26:26.580417 11251 net.cpp:137] Memory required for data: 40508184
I0225 16:26:26.580425 11251 layer_factory.hpp:77] Creating layer concat0_4
I0225 16:26:26.580432 11251 net.cpp:84] Creating Layer concat0_4
I0225 16:26:26.580437 11251 net.cpp:406] concat0_4 <- concat0_3_concat0_3_0_split_1
I0225 16:26:26.580443 11251 net.cpp:406] concat0_4 <- conv0_4
I0225 16:26:26.580451 11251 net.cpp:380] concat0_4 -> concat0_4
I0225 16:26:26.580494 11251 net.cpp:122] Setting up concat0_4
I0225 16:26:26.580502 11251 net.cpp:129] Top shape: 1 92 32 141 (415104)
I0225 16:26:26.580505 11251 net.cpp:137] Memory required for data: 42168600
I0225 16:26:26.580509 11251 layer_factory.hpp:77] Creating layer concat0_4_concat0_4_0_split
I0225 16:26:26.580515 11251 net.cpp:84] Creating Layer concat0_4_concat0_4_0_split
I0225 16:26:26.580519 11251 net.cpp:406] concat0_4_concat0_4_0_split <- concat0_4
I0225 16:26:26.580525 11251 net.cpp:380] concat0_4_concat0_4_0_split -> concat0_4_concat0_4_0_split_0
I0225 16:26:26.580533 11251 net.cpp:380] concat0_4_concat0_4_0_split -> concat0_4_concat0_4_0_split_1
I0225 16:26:26.580595 11251 net.cpp:122] Setting up concat0_4_concat0_4_0_split
I0225 16:26:26.580601 11251 net.cpp:129] Top shape: 1 92 32 141 (415104)
I0225 16:26:26.580606 11251 net.cpp:129] Top shape: 1 92 32 141 (415104)
I0225 16:26:26.580610 11251 net.cpp:137] Memory required for data: 45489432
I0225 16:26:26.580613 11251 layer_factory.hpp:77] Creating layer conv0_5/bn
I0225 16:26:26.580621 11251 net.cpp:84] Creating Layer conv0_5/bn
I0225 16:26:26.580626 11251 net.cpp:406] conv0_5/bn <- concat0_4_concat0_4_0_split_0
I0225 16:26:26.580638 11251 net.cpp:380] conv0_5/bn -> conv0_5/bn
I0225 16:26:26.581046 11251 net.cpp:122] Setting up conv0_5/bn
I0225 16:26:26.581054 11251 net.cpp:129] Top shape: 1 92 32 141 (415104)
I0225 16:26:26.581058 11251 net.cpp:137] Memory required for data: 47149848
I0225 16:26:26.581068 11251 layer_factory.hpp:77] Creating layer conv0_5/scale
I0225 16:26:26.581076 11251 net.cpp:84] Creating Layer conv0_5/scale
I0225 16:26:26.581080 11251 net.cpp:406] conv0_5/scale <- conv0_5/bn
I0225 16:26:26.581087 11251 net.cpp:367] conv0_5/scale -> conv0_5/bn (in-place)
I0225 16:26:26.581152 11251 layer_factory.hpp:77] Creating layer conv0_5/scale
I0225 16:26:26.581375 11251 net.cpp:122] Setting up conv0_5/scale
I0225 16:26:26.581383 11251 net.cpp:129] Top shape: 1 92 32 141 (415104)
I0225 16:26:26.581387 11251 net.cpp:137] Memory required for data: 48810264
I0225 16:26:26.581394 11251 layer_factory.hpp:77] Creating layer relu0_5
I0225 16:26:26.581401 11251 net.cpp:84] Creating Layer relu0_5
I0225 16:26:26.581405 11251 net.cpp:406] relu0_5 <- conv0_5/bn
I0225 16:26:26.581410 11251 net.cpp:367] relu0_5 -> conv0_5/bn (in-place)
I0225 16:26:26.582741 11251 net.cpp:122] Setting up relu0_5
I0225 16:26:26.582754 11251 net.cpp:129] Top shape: 1 92 32 141 (415104)
I0225 16:26:26.582759 11251 net.cpp:137] Memory required for data: 50470680
I0225 16:26:26.582763 11251 layer_factory.hpp:77] Creating layer conv0_5
I0225 16:26:26.582775 11251 net.cpp:84] Creating Layer conv0_5
I0225 16:26:26.582779 11251 net.cpp:406] conv0_5 <- conv0_5/bn
I0225 16:26:26.582787 11251 net.cpp:380] conv0_5 -> conv0_5
I0225 16:26:26.586407 11251 net.cpp:122] Setting up conv0_5
I0225 16:26:26.586423 11251 net.cpp:129] Top shape: 1 12 32 141 (54144)
I0225 16:26:26.586427 11251 net.cpp:137] Memory required for data: 50687256
I0225 16:26:26.586436 11251 layer_factory.hpp:77] Creating layer concat0_5
I0225 16:26:26.586443 11251 net.cpp:84] Creating Layer concat0_5
I0225 16:26:26.586448 11251 net.cpp:406] concat0_5 <- concat0_4_concat0_4_0_split_1
I0225 16:26:26.586454 11251 net.cpp:406] concat0_5 <- conv0_5
I0225 16:26:26.586460 11251 net.cpp:380] concat0_5 -> concat0_5
I0225 16:26:26.586511 11251 net.cpp:122] Setting up concat0_5
I0225 16:26:26.586519 11251 net.cpp:129] Top shape: 1 104 32 141 (469248)
I0225 16:26:26.586527 11251 net.cpp:137] Memory required for data: 52564248
I0225 16:26:26.586531 11251 layer_factory.hpp:77] Creating layer concat0_5_concat0_5_0_split
I0225 16:26:26.586539 11251 net.cpp:84] Creating Layer concat0_5_concat0_5_0_split
I0225 16:26:26.586542 11251 net.cpp:406] concat0_5_concat0_5_0_split <- concat0_5
I0225 16:26:26.586549 11251 net.cpp:380] concat0_5_concat0_5_0_split -> concat0_5_concat0_5_0_split_0
I0225 16:26:26.586555 11251 net.cpp:380] concat0_5_concat0_5_0_split -> concat0_5_concat0_5_0_split_1
I0225 16:26:26.586621 11251 net.cpp:122] Setting up concat0_5_concat0_5_0_split
I0225 16:26:26.586627 11251 net.cpp:129] Top shape: 1 104 32 141 (469248)
I0225 16:26:26.586632 11251 net.cpp:129] Top shape: 1 104 32 141 (469248)
I0225 16:26:26.586635 11251 net.cpp:137] Memory required for data: 56318232
I0225 16:26:26.586639 11251 layer_factory.hpp:77] Creating layer conv0_6/bn
I0225 16:26:26.586647 11251 net.cpp:84] Creating Layer conv0_6/bn
I0225 16:26:26.586650 11251 net.cpp:406] conv0_6/bn <- concat0_5_concat0_5_0_split_0
I0225 16:26:26.586655 11251 net.cpp:380] conv0_6/bn -> conv0_6/bn
I0225 16:26:26.587071 11251 net.cpp:122] Setting up conv0_6/bn
I0225 16:26:26.587080 11251 net.cpp:129] Top shape: 1 104 32 141 (469248)
I0225 16:26:26.587083 11251 net.cpp:137] Memory required for data: 58195224
I0225 16:26:26.587092 11251 layer_factory.hpp:77] Creating layer conv0_6/scale
I0225 16:26:26.587100 11251 net.cpp:84] Creating Layer conv0_6/scale
I0225 16:26:26.587105 11251 net.cpp:406] conv0_6/scale <- conv0_6/bn
I0225 16:26:26.587111 11251 net.cpp:367] conv0_6/scale -> conv0_6/bn (in-place)
I0225 16:26:26.587182 11251 layer_factory.hpp:77] Creating layer conv0_6/scale
I0225 16:26:26.587411 11251 net.cpp:122] Setting up conv0_6/scale
I0225 16:26:26.587420 11251 net.cpp:129] Top shape: 1 104 32 141 (469248)
I0225 16:26:26.587424 11251 net.cpp:137] Memory required for data: 60072216
I0225 16:26:26.587431 11251 layer_factory.hpp:77] Creating layer relu0_6
I0225 16:26:26.587438 11251 net.cpp:84] Creating Layer relu0_6
I0225 16:26:26.587442 11251 net.cpp:406] relu0_6 <- conv0_6/bn
I0225 16:26:26.587447 11251 net.cpp:367] relu0_6 -> conv0_6/bn (in-place)
I0225 16:26:26.587689 11251 net.cpp:122] Setting up relu0_6
I0225 16:26:26.587699 11251 net.cpp:129] Top shape: 1 104 32 141 (469248)
I0225 16:26:26.587703 11251 net.cpp:137] Memory required for data: 61949208
I0225 16:26:26.587707 11251 layer_factory.hpp:77] Creating layer conv0_6
I0225 16:26:26.587718 11251 net.cpp:84] Creating Layer conv0_6
I0225 16:26:26.587723 11251 net.cpp:406] conv0_6 <- conv0_6/bn
I0225 16:26:26.587729 11251 net.cpp:380] conv0_6 -> conv0_6
I0225 16:26:26.590291 11251 net.cpp:122] Setting up conv0_6
I0225 16:26:26.590307 11251 net.cpp:129] Top shape: 1 12 32 141 (54144)
I0225 16:26:26.590312 11251 net.cpp:137] Memory required for data: 62165784
I0225 16:26:26.590318 11251 layer_factory.hpp:77] Creating layer concat0_6
I0225 16:26:26.590327 11251 net.cpp:84] Creating Layer concat0_6
I0225 16:26:26.590332 11251 net.cpp:406] concat0_6 <- concat0_5_concat0_5_0_split_1
I0225 16:26:26.590337 11251 net.cpp:406] concat0_6 <- conv0_6
I0225 16:26:26.590343 11251 net.cpp:380] concat0_6 -> concat0_6
I0225 16:26:26.590389 11251 net.cpp:122] Setting up concat0_6
I0225 16:26:26.590396 11251 net.cpp:129] Top shape: 1 116 32 141 (523392)
I0225 16:26:26.590400 11251 net.cpp:137] Memory required for data: 64259352
I0225 16:26:26.590404 11251 layer_factory.hpp:77] Creating layer concat0_6_concat0_6_0_split
I0225 16:26:26.590409 11251 net.cpp:84] Creating Layer concat0_6_concat0_6_0_split
I0225 16:26:26.590414 11251 net.cpp:406] concat0_6_concat0_6_0_split <- concat0_6
I0225 16:26:26.590420 11251 net.cpp:380] concat0_6_concat0_6_0_split -> concat0_6_concat0_6_0_split_0
I0225 16:26:26.590426 11251 net.cpp:380] concat0_6_concat0_6_0_split -> concat0_6_concat0_6_0_split_1
I0225 16:26:26.590487 11251 net.cpp:122] Setting up concat0_6_concat0_6_0_split
I0225 16:26:26.590493 11251 net.cpp:129] Top shape: 1 116 32 141 (523392)
I0225 16:26:26.590498 11251 net.cpp:129] Top shape: 1 116 32 141 (523392)
I0225 16:26:26.590505 11251 net.cpp:137] Memory required for data: 68446488
I0225 16:26:26.590509 11251 layer_factory.hpp:77] Creating layer conv0_7/bn
I0225 16:26:26.590515 11251 net.cpp:84] Creating Layer conv0_7/bn
I0225 16:26:26.590520 11251 net.cpp:406] conv0_7/bn <- concat0_6_concat0_6_0_split_0
I0225 16:26:26.590526 11251 net.cpp:380] conv0_7/bn -> conv0_7/bn
I0225 16:26:26.590930 11251 net.cpp:122] Setting up conv0_7/bn
I0225 16:26:26.590939 11251 net.cpp:129] Top shape: 1 116 32 141 (523392)
I0225 16:26:26.590942 11251 net.cpp:137] Memory required for data: 70540056
I0225 16:26:26.590951 11251 layer_factory.hpp:77] Creating layer conv0_7/scale
I0225 16:26:26.590960 11251 net.cpp:84] Creating Layer conv0_7/scale
I0225 16:26:26.590963 11251 net.cpp:406] conv0_7/scale <- conv0_7/bn
I0225 16:26:26.590970 11251 net.cpp:367] conv0_7/scale -> conv0_7/bn (in-place)
I0225 16:26:26.591038 11251 layer_factory.hpp:77] Creating layer conv0_7/scale
I0225 16:26:26.591266 11251 net.cpp:122] Setting up conv0_7/scale
I0225 16:26:26.591274 11251 net.cpp:129] Top shape: 1 116 32 141 (523392)
I0225 16:26:26.591279 11251 net.cpp:137] Memory required for data: 72633624
I0225 16:26:26.591285 11251 layer_factory.hpp:77] Creating layer relu0_7
I0225 16:26:26.591292 11251 net.cpp:84] Creating Layer relu0_7
I0225 16:26:26.591296 11251 net.cpp:406] relu0_7 <- conv0_7/bn
I0225 16:26:26.591301 11251 net.cpp:367] relu0_7 -> conv0_7/bn (in-place)
I0225 16:26:26.591532 11251 net.cpp:122] Setting up relu0_7
I0225 16:26:26.591542 11251 net.cpp:129] Top shape: 1 116 32 141 (523392)
I0225 16:26:26.591545 11251 net.cpp:137] Memory required for data: 74727192
I0225 16:26:26.591549 11251 layer_factory.hpp:77] Creating layer conv0_7
I0225 16:26:26.591560 11251 net.cpp:84] Creating Layer conv0_7
I0225 16:26:26.591564 11251 net.cpp:406] conv0_7 <- conv0_7/bn
I0225 16:26:26.591572 11251 net.cpp:380] conv0_7 -> conv0_7
I0225 16:26:26.594157 11251 net.cpp:122] Setting up conv0_7
I0225 16:26:26.594173 11251 net.cpp:129] Top shape: 1 12 32 141 (54144)
I0225 16:26:26.594177 11251 net.cpp:137] Memory required for data: 74943768
I0225 16:26:26.594184 11251 layer_factory.hpp:77] Creating layer concat0_7
I0225 16:26:26.594192 11251 net.cpp:84] Creating Layer concat0_7
I0225 16:26:26.594197 11251 net.cpp:406] concat0_7 <- concat0_6_concat0_6_0_split_1
I0225 16:26:26.594203 11251 net.cpp:406] concat0_7 <- conv0_7
I0225 16:26:26.594209 11251 net.cpp:380] concat0_7 -> concat0_7
I0225 16:26:26.594255 11251 net.cpp:122] Setting up concat0_7
I0225 16:26:26.594262 11251 net.cpp:129] Top shape: 1 128 32 141 (577536)
I0225 16:26:26.594266 11251 net.cpp:137] Memory required for data: 77253912
I0225 16:26:26.594270 11251 layer_factory.hpp:77] Creating layer concat0_7_concat0_7_0_split
I0225 16:26:26.594276 11251 net.cpp:84] Creating Layer concat0_7_concat0_7_0_split
I0225 16:26:26.594280 11251 net.cpp:406] concat0_7_concat0_7_0_split <- concat0_7
I0225 16:26:26.594286 11251 net.cpp:380] concat0_7_concat0_7_0_split -> concat0_7_concat0_7_0_split_0
I0225 16:26:26.594293 11251 net.cpp:380] concat0_7_concat0_7_0_split -> concat0_7_concat0_7_0_split_1
I0225 16:26:26.594357 11251 net.cpp:122] Setting up concat0_7_concat0_7_0_split
I0225 16:26:26.594362 11251 net.cpp:129] Top shape: 1 128 32 141 (577536)
I0225 16:26:26.594367 11251 net.cpp:129] Top shape: 1 128 32 141 (577536)
I0225 16:26:26.594370 11251 net.cpp:137] Memory required for data: 81874200
I0225 16:26:26.594374 11251 layer_factory.hpp:77] Creating layer conv0_8/bn
I0225 16:26:26.594380 11251 net.cpp:84] Creating Layer conv0_8/bn
I0225 16:26:26.594385 11251 net.cpp:406] conv0_8/bn <- concat0_7_concat0_7_0_split_0
I0225 16:26:26.594390 11251 net.cpp:380] conv0_8/bn -> conv0_8/bn
I0225 16:26:26.594779 11251 net.cpp:122] Setting up conv0_8/bn
I0225 16:26:26.594787 11251 net.cpp:129] Top shape: 1 128 32 141 (577536)
I0225 16:26:26.594791 11251 net.cpp:137] Memory required for data: 84184344
I0225 16:26:26.594799 11251 layer_factory.hpp:77] Creating layer conv0_8/scale
I0225 16:26:26.594808 11251 net.cpp:84] Creating Layer conv0_8/scale
I0225 16:26:26.594816 11251 net.cpp:406] conv0_8/scale <- conv0_8/bn
I0225 16:26:26.594823 11251 net.cpp:367] conv0_8/scale -> conv0_8/bn (in-place)
I0225 16:26:26.594892 11251 layer_factory.hpp:77] Creating layer conv0_8/scale
I0225 16:26:26.595103 11251 net.cpp:122] Setting up conv0_8/scale
I0225 16:26:26.595111 11251 net.cpp:129] Top shape: 1 128 32 141 (577536)
I0225 16:26:26.595115 11251 net.cpp:137] Memory required for data: 86494488
I0225 16:26:26.595122 11251 layer_factory.hpp:77] Creating layer relu0_8
I0225 16:26:26.595129 11251 net.cpp:84] Creating Layer relu0_8
I0225 16:26:26.595132 11251 net.cpp:406] relu0_8 <- conv0_8/bn
I0225 16:26:26.595137 11251 net.cpp:367] relu0_8 -> conv0_8/bn (in-place)
I0225 16:26:26.595367 11251 net.cpp:122] Setting up relu0_8
I0225 16:26:26.595376 11251 net.cpp:129] Top shape: 1 128 32 141 (577536)
I0225 16:26:26.595379 11251 net.cpp:137] Memory required for data: 88804632
I0225 16:26:26.595384 11251 layer_factory.hpp:77] Creating layer conv0_8
I0225 16:26:26.595396 11251 net.cpp:84] Creating Layer conv0_8
I0225 16:26:26.595399 11251 net.cpp:406] conv0_8 <- conv0_8/bn
I0225 16:26:26.595405 11251 net.cpp:380] conv0_8 -> conv0_8
I0225 16:26:26.599171 11251 net.cpp:122] Setting up conv0_8
I0225 16:26:26.599187 11251 net.cpp:129] Top shape: 1 12 32 141 (54144)
I0225 16:26:26.599192 11251 net.cpp:137] Memory required for data: 89021208
I0225 16:26:26.599200 11251 layer_factory.hpp:77] Creating layer concat0_8
I0225 16:26:26.599208 11251 net.cpp:84] Creating Layer concat0_8
I0225 16:26:26.599213 11251 net.cpp:406] concat0_8 <- concat0_7_concat0_7_0_split_1
I0225 16:26:26.599220 11251 net.cpp:406] concat0_8 <- conv0_8
I0225 16:26:26.599225 11251 net.cpp:380] concat0_8 -> concat0_8
I0225 16:26:26.599277 11251 net.cpp:122] Setting up concat0_8
I0225 16:26:26.599284 11251 net.cpp:129] Top shape: 1 140 32 141 (631680)
I0225 16:26:26.599287 11251 net.cpp:137] Memory required for data: 91547928
I0225 16:26:26.599292 11251 layer_factory.hpp:77] Creating layer concat0_8_concat0_8_0_split
I0225 16:26:26.599298 11251 net.cpp:84] Creating Layer concat0_8_concat0_8_0_split
I0225 16:26:26.599301 11251 net.cpp:406] concat0_8_concat0_8_0_split <- concat0_8
I0225 16:26:26.599308 11251 net.cpp:380] concat0_8_concat0_8_0_split -> concat0_8_concat0_8_0_split_0
I0225 16:26:26.599314 11251 net.cpp:380] concat0_8_concat0_8_0_split -> concat0_8_concat0_8_0_split_1
I0225 16:26:26.599380 11251 net.cpp:122] Setting up concat0_8_concat0_8_0_split
I0225 16:26:26.599387 11251 net.cpp:129] Top shape: 1 140 32 141 (631680)
I0225 16:26:26.599391 11251 net.cpp:129] Top shape: 1 140 32 141 (631680)
I0225 16:26:26.599395 11251 net.cpp:137] Memory required for data: 96601368
I0225 16:26:26.599398 11251 layer_factory.hpp:77] Creating layer conv0_9/bn
I0225 16:26:26.599406 11251 net.cpp:84] Creating Layer conv0_9/bn
I0225 16:26:26.599409 11251 net.cpp:406] conv0_9/bn <- concat0_8_concat0_8_0_split_0
I0225 16:26:26.599416 11251 net.cpp:380] conv0_9/bn -> conv0_9/bn
I0225 16:26:26.599809 11251 net.cpp:122] Setting up conv0_9/bn
I0225 16:26:26.599817 11251 net.cpp:129] Top shape: 1 140 32 141 (631680)
I0225 16:26:26.599822 11251 net.cpp:137] Memory required for data: 99128088
I0225 16:26:26.599830 11251 layer_factory.hpp:77] Creating layer conv0_9/scale
I0225 16:26:26.599838 11251 net.cpp:84] Creating Layer conv0_9/scale
I0225 16:26:26.599843 11251 net.cpp:406] conv0_9/scale <- conv0_9/bn
I0225 16:26:26.599850 11251 net.cpp:367] conv0_9/scale -> conv0_9/bn (in-place)
I0225 16:26:26.599916 11251 layer_factory.hpp:77] Creating layer conv0_9/scale
I0225 16:26:26.600149 11251 net.cpp:122] Setting up conv0_9/scale
I0225 16:26:26.600158 11251 net.cpp:129] Top shape: 1 140 32 141 (631680)
I0225 16:26:26.600162 11251 net.cpp:137] Memory required for data: 101654808
I0225 16:26:26.600174 11251 layer_factory.hpp:77] Creating layer relu0_9
I0225 16:26:26.600184 11251 net.cpp:84] Creating Layer relu0_9
I0225 16:26:26.600188 11251 net.cpp:406] relu0_9 <- conv0_9/bn
I0225 16:26:26.600194 11251 net.cpp:367] relu0_9 -> conv0_9/bn (in-place)
I0225 16:26:26.601534 11251 net.cpp:122] Setting up relu0_9
I0225 16:26:26.601550 11251 net.cpp:129] Top shape: 1 140 32 141 (631680)
I0225 16:26:26.601554 11251 net.cpp:137] Memory required for data: 104181528
I0225 16:26:26.601560 11251 layer_factory.hpp:77] Creating layer conv0_9
I0225 16:26:26.601572 11251 net.cpp:84] Creating Layer conv0_9
I0225 16:26:26.601577 11251 net.cpp:406] conv0_9 <- conv0_9/bn
I0225 16:26:26.601585 11251 net.cpp:380] conv0_9 -> conv0_9
I0225 16:26:26.604267 11251 net.cpp:122] Setting up conv0_9
I0225 16:26:26.604285 11251 net.cpp:129] Top shape: 1 12 32 141 (54144)
I0225 16:26:26.604288 11251 net.cpp:137] Memory required for data: 104398104
I0225 16:26:26.604295 11251 layer_factory.hpp:77] Creating layer concat0_9
I0225 16:26:26.604303 11251 net.cpp:84] Creating Layer concat0_9
I0225 16:26:26.604308 11251 net.cpp:406] concat0_9 <- concat0_8_concat0_8_0_split_1
I0225 16:26:26.604315 11251 net.cpp:406] concat0_9 <- conv0_9
I0225 16:26:26.604321 11251 net.cpp:380] concat0_9 -> concat0_9
I0225 16:26:26.604368 11251 net.cpp:122] Setting up concat0_9
I0225 16:26:26.604375 11251 net.cpp:129] Top shape: 1 152 32 141 (685824)
I0225 16:26:26.604379 11251 net.cpp:137] Memory required for data: 107141400
I0225 16:26:26.604383 11251 layer_factory.hpp:77] Creating layer concat0_9_concat0_9_0_split
I0225 16:26:26.604389 11251 net.cpp:84] Creating Layer concat0_9_concat0_9_0_split
I0225 16:26:26.604393 11251 net.cpp:406] concat0_9_concat0_9_0_split <- concat0_9
I0225 16:26:26.604400 11251 net.cpp:380] concat0_9_concat0_9_0_split -> concat0_9_concat0_9_0_split_0
I0225 16:26:26.604408 11251 net.cpp:380] concat0_9_concat0_9_0_split -> concat0_9_concat0_9_0_split_1
I0225 16:26:26.604471 11251 net.cpp:122] Setting up concat0_9_concat0_9_0_split
I0225 16:26:26.604478 11251 net.cpp:129] Top shape: 1 152 32 141 (685824)
I0225 16:26:26.604482 11251 net.cpp:129] Top shape: 1 152 32 141 (685824)
I0225 16:26:26.604486 11251 net.cpp:137] Memory required for data: 112627992
I0225 16:26:26.604490 11251 layer_factory.hpp:77] Creating layer conv0_10/bn
I0225 16:26:26.604497 11251 net.cpp:84] Creating Layer conv0_10/bn
I0225 16:26:26.604501 11251 net.cpp:406] conv0_10/bn <- concat0_9_concat0_9_0_split_0
I0225 16:26:26.604507 11251 net.cpp:380] conv0_10/bn -> conv0_10/bn
I0225 16:26:26.604938 11251 net.cpp:122] Setting up conv0_10/bn
I0225 16:26:26.604946 11251 net.cpp:129] Top shape: 1 152 32 141 (685824)
I0225 16:26:26.604950 11251 net.cpp:137] Memory required for data: 115371288
I0225 16:26:26.604959 11251 layer_factory.hpp:77] Creating layer conv0_10/scale
I0225 16:26:26.604977 11251 net.cpp:84] Creating Layer conv0_10/scale
I0225 16:26:26.604982 11251 net.cpp:406] conv0_10/scale <- conv0_10/bn
I0225 16:26:26.604990 11251 net.cpp:367] conv0_10/scale -> conv0_10/bn (in-place)
I0225 16:26:26.605057 11251 layer_factory.hpp:77] Creating layer conv0_10/scale
I0225 16:26:26.605300 11251 net.cpp:122] Setting up conv0_10/scale
I0225 16:26:26.605309 11251 net.cpp:129] Top shape: 1 152 32 141 (685824)
I0225 16:26:26.605314 11251 net.cpp:137] Memory required for data: 118114584
I0225 16:26:26.605319 11251 layer_factory.hpp:77] Creating layer relu0_10
I0225 16:26:26.605326 11251 net.cpp:84] Creating Layer relu0_10
I0225 16:26:26.605330 11251 net.cpp:406] relu0_10 <- conv0_10/bn
I0225 16:26:26.605336 11251 net.cpp:367] relu0_10 -> conv0_10/bn (in-place)
I0225 16:26:26.605572 11251 net.cpp:122] Setting up relu0_10
I0225 16:26:26.605581 11251 net.cpp:129] Top shape: 1 152 32 141 (685824)
I0225 16:26:26.605585 11251 net.cpp:137] Memory required for data: 120857880
I0225 16:26:26.605589 11251 layer_factory.hpp:77] Creating layer conv0_10
I0225 16:26:26.605600 11251 net.cpp:84] Creating Layer conv0_10
I0225 16:26:26.605604 11251 net.cpp:406] conv0_10 <- conv0_10/bn
I0225 16:26:26.605612 11251 net.cpp:380] conv0_10 -> conv0_10
I0225 16:26:26.609478 11251 net.cpp:122] Setting up conv0_10
I0225 16:26:26.609494 11251 net.cpp:129] Top shape: 1 12 32 141 (54144)
I0225 16:26:26.609498 11251 net.cpp:137] Memory required for data: 121074456
I0225 16:26:26.609508 11251 layer_factory.hpp:77] Creating layer concat0_10
I0225 16:26:26.609516 11251 net.cpp:84] Creating Layer concat0_10
I0225 16:26:26.609522 11251 net.cpp:406] concat0_10 <- concat0_9_concat0_9_0_split_1
I0225 16:26:26.609529 11251 net.cpp:406] concat0_10 <- conv0_10
I0225 16:26:26.609534 11251 net.cpp:380] concat0_10 -> concat0_10
I0225 16:26:26.609587 11251 net.cpp:122] Setting up concat0_10
I0225 16:26:26.609596 11251 net.cpp:129] Top shape: 1 164 32 141 (739968)
I0225 16:26:26.609599 11251 net.cpp:137] Memory required for data: 124034328
I0225 16:26:26.609603 11251 layer_factory.hpp:77] Creating layer concat0_10_concat0_10_0_split
I0225 16:26:26.609609 11251 net.cpp:84] Creating Layer concat0_10_concat0_10_0_split
I0225 16:26:26.609613 11251 net.cpp:406] concat0_10_concat0_10_0_split <- concat0_10
I0225 16:26:26.609618 11251 net.cpp:380] concat0_10_concat0_10_0_split -> concat0_10_concat0_10_0_split_0
I0225 16:26:26.609625 11251 net.cpp:380] concat0_10_concat0_10_0_split -> concat0_10_concat0_10_0_split_1
I0225 16:26:26.609691 11251 net.cpp:122] Setting up concat0_10_concat0_10_0_split
I0225 16:26:26.609699 11251 net.cpp:129] Top shape: 1 164 32 141 (739968)
I0225 16:26:26.609704 11251 net.cpp:129] Top shape: 1 164 32 141 (739968)
I0225 16:26:26.609706 11251 net.cpp:137] Memory required for data: 129954072
I0225 16:26:26.609710 11251 layer_factory.hpp:77] Creating layer conv0_11/bn
I0225 16:26:26.609717 11251 net.cpp:84] Creating Layer conv0_11/bn
I0225 16:26:26.609720 11251 net.cpp:406] conv0_11/bn <- concat0_10_concat0_10_0_split_0
I0225 16:26:26.609726 11251 net.cpp:380] conv0_11/bn -> conv0_11/bn
I0225 16:26:26.610142 11251 net.cpp:122] Setting up conv0_11/bn
I0225 16:26:26.610150 11251 net.cpp:129] Top shape: 1 164 32 141 (739968)
I0225 16:26:26.610154 11251 net.cpp:137] Memory required for data: 132913944
I0225 16:26:26.610163 11251 layer_factory.hpp:77] Creating layer conv0_11/scale
I0225 16:26:26.610172 11251 net.cpp:84] Creating Layer conv0_11/scale
I0225 16:26:26.610175 11251 net.cpp:406] conv0_11/scale <- conv0_11/bn
I0225 16:26:26.610183 11251 net.cpp:367] conv0_11/scale -> conv0_11/bn (in-place)
I0225 16:26:26.610270 11251 layer_factory.hpp:77] Creating layer conv0_11/scale
I0225 16:26:26.610494 11251 net.cpp:122] Setting up conv0_11/scale
I0225 16:26:26.610503 11251 net.cpp:129] Top shape: 1 164 32 141 (739968)
I0225 16:26:26.610507 11251 net.cpp:137] Memory required for data: 135873816
I0225 16:26:26.610513 11251 layer_factory.hpp:77] Creating layer relu0_11
I0225 16:26:26.610520 11251 net.cpp:84] Creating Layer relu0_11
I0225 16:26:26.610524 11251 net.cpp:406] relu0_11 <- conv0_11/bn
I0225 16:26:26.610530 11251 net.cpp:367] relu0_11 -> conv0_11/bn (in-place)
I0225 16:26:26.610764 11251 net.cpp:122] Setting up relu0_11
I0225 16:26:26.610774 11251 net.cpp:129] Top shape: 1 164 32 141 (739968)
I0225 16:26:26.610779 11251 net.cpp:137] Memory required for data: 138833688
I0225 16:26:26.610782 11251 layer_factory.hpp:77] Creating layer conv0_11
I0225 16:26:26.610793 11251 net.cpp:84] Creating Layer conv0_11
I0225 16:26:26.610797 11251 net.cpp:406] conv0_11 <- conv0_11/bn
I0225 16:26:26.610805 11251 net.cpp:380] conv0_11 -> conv0_11
I0225 16:26:26.613632 11251 net.cpp:122] Setting up conv0_11
I0225 16:26:26.613651 11251 net.cpp:129] Top shape: 1 12 32 141 (54144)
I0225 16:26:26.613654 11251 net.cpp:137] Memory required for data: 139050264
I0225 16:26:26.613662 11251 layer_factory.hpp:77] Creating layer concat0_11
I0225 16:26:26.613669 11251 net.cpp:84] Creating Layer concat0_11
I0225 16:26:26.613673 11251 net.cpp:406] concat0_11 <- concat0_10_concat0_10_0_split_1
I0225 16:26:26.613679 11251 net.cpp:406] concat0_11 <- conv0_11
I0225 16:26:26.613685 11251 net.cpp:380] concat0_11 -> concat0_11
I0225 16:26:26.613735 11251 net.cpp:122] Setting up concat0_11
I0225 16:26:26.613742 11251 net.cpp:129] Top shape: 1 176 32 141 (794112)
I0225 16:26:26.613745 11251 net.cpp:137] Memory required for data: 142226712
I0225 16:26:26.613749 11251 layer_factory.hpp:77] Creating layer concat0_11_concat0_11_0_split
I0225 16:26:26.613759 11251 net.cpp:84] Creating Layer concat0_11_concat0_11_0_split
I0225 16:26:26.613764 11251 net.cpp:406] concat0_11_concat0_11_0_split <- concat0_11
I0225 16:26:26.613768 11251 net.cpp:380] concat0_11_concat0_11_0_split -> concat0_11_concat0_11_0_split_0
I0225 16:26:26.613777 11251 net.cpp:380] concat0_11_concat0_11_0_split -> concat0_11_concat0_11_0_split_1
I0225 16:26:26.613857 11251 net.cpp:122] Setting up concat0_11_concat0_11_0_split
I0225 16:26:26.613863 11251 net.cpp:129] Top shape: 1 176 32 141 (794112)
I0225 16:26:26.613867 11251 net.cpp:129] Top shape: 1 176 32 141 (794112)
I0225 16:26:26.613871 11251 net.cpp:137] Memory required for data: 148579608
I0225 16:26:26.613874 11251 layer_factory.hpp:77] Creating layer conv0_12/bn
I0225 16:26:26.613880 11251 net.cpp:84] Creating Layer conv0_12/bn
I0225 16:26:26.613884 11251 net.cpp:406] conv0_12/bn <- concat0_11_concat0_11_0_split_0
I0225 16:26:26.613893 11251 net.cpp:380] conv0_12/bn -> conv0_12/bn
I0225 16:26:26.614306 11251 net.cpp:122] Setting up conv0_12/bn
I0225 16:26:26.614315 11251 net.cpp:129] Top shape: 1 176 32 141 (794112)
I0225 16:26:26.614318 11251 net.cpp:137] Memory required for data: 151756056
I0225 16:26:26.614326 11251 layer_factory.hpp:77] Creating layer conv0_12/scale
I0225 16:26:26.614341 11251 net.cpp:84] Creating Layer conv0_12/scale
I0225 16:26:26.614346 11251 net.cpp:406] conv0_12/scale <- conv0_12/bn
I0225 16:26:26.614353 11251 net.cpp:367] conv0_12/scale -> conv0_12/bn (in-place)
I0225 16:26:26.614428 11251 layer_factory.hpp:77] Creating layer conv0_12/scale
I0225 16:26:26.614666 11251 net.cpp:122] Setting up conv0_12/scale
I0225 16:26:26.614675 11251 net.cpp:129] Top shape: 1 176 32 141 (794112)
I0225 16:26:26.614678 11251 net.cpp:137] Memory required for data: 154932504
I0225 16:26:26.614686 11251 layer_factory.hpp:77] Creating layer relu0_12
I0225 16:26:26.614691 11251 net.cpp:84] Creating Layer relu0_12
I0225 16:26:26.614696 11251 net.cpp:406] relu0_12 <- conv0_12/bn
I0225 16:26:26.614701 11251 net.cpp:367] relu0_12 -> conv0_12/bn (in-place)
I0225 16:26:26.616057 11251 net.cpp:122] Setting up relu0_12
I0225 16:26:26.616075 11251 net.cpp:129] Top shape: 1 176 32 141 (794112)
I0225 16:26:26.616078 11251 net.cpp:137] Memory required for data: 158108952
I0225 16:26:26.616082 11251 layer_factory.hpp:77] Creating layer conv0_12
I0225 16:26:26.616094 11251 net.cpp:84] Creating Layer conv0_12
I0225 16:26:26.616099 11251 net.cpp:406] conv0_12 <- conv0_12/bn
I0225 16:26:26.616107 11251 net.cpp:380] conv0_12 -> conv0_12
I0225 16:26:26.620158 11251 net.cpp:122] Setting up conv0_12
I0225 16:26:26.620174 11251 net.cpp:129] Top shape: 1 12 32 141 (54144)
I0225 16:26:26.620178 11251 net.cpp:137] Memory required for data: 158325528
I0225 16:26:26.620187 11251 layer_factory.hpp:77] Creating layer concat0_12
I0225 16:26:26.620194 11251 net.cpp:84] Creating Layer concat0_12
I0225 16:26:26.620199 11251 net.cpp:406] concat0_12 <- concat0_11_concat0_11_0_split_1
I0225 16:26:26.620204 11251 net.cpp:406] concat0_12 <- conv0_12
I0225 16:26:26.620216 11251 net.cpp:380] concat0_12 -> concat0_12
I0225 16:26:26.620272 11251 net.cpp:122] Setting up concat0_12
I0225 16:26:26.620280 11251 net.cpp:129] Top shape: 1 188 32 141 (848256)
I0225 16:26:26.620283 11251 net.cpp:137] Memory required for data: 161718552
I0225 16:26:26.620287 11251 layer_factory.hpp:77] Creating layer concat0_12_concat0_12_0_split
I0225 16:26:26.620292 11251 net.cpp:84] Creating Layer concat0_12_concat0_12_0_split
I0225 16:26:26.620296 11251 net.cpp:406] concat0_12_concat0_12_0_split <- concat0_12
I0225 16:26:26.620304 11251 net.cpp:380] concat0_12_concat0_12_0_split -> concat0_12_concat0_12_0_split_0
I0225 16:26:26.620311 11251 net.cpp:380] concat0_12_concat0_12_0_split -> concat0_12_concat0_12_0_split_1
I0225 16:26:26.620384 11251 net.cpp:122] Setting up concat0_12_concat0_12_0_split
I0225 16:26:26.620390 11251 net.cpp:129] Top shape: 1 188 32 141 (848256)
I0225 16:26:26.620395 11251 net.cpp:129] Top shape: 1 188 32 141 (848256)
I0225 16:26:26.620402 11251 net.cpp:137] Memory required for data: 168504600
I0225 16:26:26.620406 11251 layer_factory.hpp:77] Creating layer conv0_13/bn
I0225 16:26:26.620414 11251 net.cpp:84] Creating Layer conv0_13/bn
I0225 16:26:26.620419 11251 net.cpp:406] conv0_13/bn <- concat0_12_concat0_12_0_split_0
I0225 16:26:26.620424 11251 net.cpp:380] conv0_13/bn -> conv0_13/bn
I0225 16:26:26.620885 11251 net.cpp:122] Setting up conv0_13/bn
I0225 16:26:26.620893 11251 net.cpp:129] Top shape: 1 188 32 141 (848256)
I0225 16:26:26.620898 11251 net.cpp:137] Memory required for data: 171897624
I0225 16:26:26.620905 11251 layer_factory.hpp:77] Creating layer conv0_13/scale
I0225 16:26:26.620915 11251 net.cpp:84] Creating Layer conv0_13/scale
I0225 16:26:26.620920 11251 net.cpp:406] conv0_13/scale <- conv0_13/bn
I0225 16:26:26.620926 11251 net.cpp:367] conv0_13/scale -> conv0_13/bn (in-place)
I0225 16:26:26.621007 11251 layer_factory.hpp:77] Creating layer conv0_13/scale
I0225 16:26:26.621258 11251 net.cpp:122] Setting up conv0_13/scale
I0225 16:26:26.621268 11251 net.cpp:129] Top shape: 1 188 32 141 (848256)
I0225 16:26:26.621271 11251 net.cpp:137] Memory required for data: 175290648
I0225 16:26:26.621279 11251 layer_factory.hpp:77] Creating layer relu0_13
I0225 16:26:26.621284 11251 net.cpp:84] Creating Layer relu0_13
I0225 16:26:26.621289 11251 net.cpp:406] relu0_13 <- conv0_13/bn
I0225 16:26:26.621294 11251 net.cpp:367] relu0_13 -> conv0_13/bn (in-place)
I0225 16:26:26.621558 11251 net.cpp:122] Setting up relu0_13
I0225 16:26:26.621568 11251 net.cpp:129] Top shape: 1 188 32 141 (848256)
I0225 16:26:26.621572 11251 net.cpp:137] Memory required for data: 178683672
I0225 16:26:26.621575 11251 layer_factory.hpp:77] Creating layer conv0_13
I0225 16:26:26.621587 11251 net.cpp:84] Creating Layer conv0_13
I0225 16:26:26.621592 11251 net.cpp:406] conv0_13 <- conv0_13/bn
I0225 16:26:26.621598 11251 net.cpp:380] conv0_13 -> conv0_13
I0225 16:26:26.625728 11251 net.cpp:122] Setting up conv0_13
I0225 16:26:26.625744 11251 net.cpp:129] Top shape: 1 12 32 141 (54144)
I0225 16:26:26.625749 11251 net.cpp:137] Memory required for data: 178900248
I0225 16:26:26.625756 11251 layer_factory.hpp:77] Creating layer concat0_13
I0225 16:26:26.625766 11251 net.cpp:84] Creating Layer concat0_13
I0225 16:26:26.625771 11251 net.cpp:406] concat0_13 <- concat0_12_concat0_12_0_split_1
I0225 16:26:26.625777 11251 net.cpp:406] concat0_13 <- conv0_13
I0225 16:26:26.625782 11251 net.cpp:380] concat0_13 -> concat0_13
I0225 16:26:26.625838 11251 net.cpp:122] Setting up concat0_13
I0225 16:26:26.625845 11251 net.cpp:129] Top shape: 1 200 32 141 (902400)
I0225 16:26:26.625849 11251 net.cpp:137] Memory required for data: 182509848
I0225 16:26:26.625852 11251 layer_factory.hpp:77] Creating layer concat0_13_concat0_13_0_split
I0225 16:26:26.625860 11251 net.cpp:84] Creating Layer concat0_13_concat0_13_0_split
I0225 16:26:26.625864 11251 net.cpp:406] concat0_13_concat0_13_0_split <- concat0_13
I0225 16:26:26.625869 11251 net.cpp:380] concat0_13_concat0_13_0_split -> concat0_13_concat0_13_0_split_0
I0225 16:26:26.625876 11251 net.cpp:380] concat0_13_concat0_13_0_split -> concat0_13_concat0_13_0_split_1
I0225 16:26:26.625948 11251 net.cpp:122] Setting up concat0_13_concat0_13_0_split
I0225 16:26:26.625954 11251 net.cpp:129] Top shape: 1 200 32 141 (902400)
I0225 16:26:26.625959 11251 net.cpp:129] Top shape: 1 200 32 141 (902400)
I0225 16:26:26.625962 11251 net.cpp:137] Memory required for data: 189729048
I0225 16:26:26.625967 11251 layer_factory.hpp:77] Creating layer conv0_14/bn
I0225 16:26:26.625974 11251 net.cpp:84] Creating Layer conv0_14/bn
I0225 16:26:26.625978 11251 net.cpp:406] conv0_14/bn <- concat0_13_concat0_13_0_split_0
I0225 16:26:26.625984 11251 net.cpp:380] conv0_14/bn -> conv0_14/bn
I0225 16:26:26.626427 11251 net.cpp:122] Setting up conv0_14/bn
I0225 16:26:26.626435 11251 net.cpp:129] Top shape: 1 200 32 141 (902400)
I0225 16:26:26.626438 11251 net.cpp:137] Memory required for data: 193338648
I0225 16:26:26.626447 11251 layer_factory.hpp:77] Creating layer conv0_14/scale
I0225 16:26:26.626464 11251 net.cpp:84] Creating Layer conv0_14/scale
I0225 16:26:26.626469 11251 net.cpp:406] conv0_14/scale <- conv0_14/bn
I0225 16:26:26.626477 11251 net.cpp:367] conv0_14/scale -> conv0_14/bn (in-place)
I0225 16:26:26.626550 11251 layer_factory.hpp:77] Creating layer conv0_14/scale
I0225 16:26:26.626796 11251 net.cpp:122] Setting up conv0_14/scale
I0225 16:26:26.626806 11251 net.cpp:129] Top shape: 1 200 32 141 (902400)
I0225 16:26:26.626809 11251 net.cpp:137] Memory required for data: 196948248
I0225 16:26:26.626816 11251 layer_factory.hpp:77] Creating layer relu0_14
I0225 16:26:26.626822 11251 net.cpp:84] Creating Layer relu0_14
I0225 16:26:26.626827 11251 net.cpp:406] relu0_14 <- conv0_14/bn
I0225 16:26:26.626832 11251 net.cpp:367] relu0_14 -> conv0_14/bn (in-place)
I0225 16:26:26.627081 11251 net.cpp:122] Setting up relu0_14
I0225 16:26:26.627090 11251 net.cpp:129] Top shape: 1 200 32 141 (902400)
I0225 16:26:26.627094 11251 net.cpp:137] Memory required for data: 200557848
I0225 16:26:26.627099 11251 layer_factory.hpp:77] Creating layer conv0_14
I0225 16:26:26.627110 11251 net.cpp:84] Creating Layer conv0_14
I0225 16:26:26.627115 11251 net.cpp:406] conv0_14 <- conv0_14/bn
I0225 16:26:26.627123 11251 net.cpp:380] conv0_14 -> conv0_14
I0225 16:26:26.632416 11251 net.cpp:122] Setting up conv0_14
I0225 16:26:26.632432 11251 net.cpp:129] Top shape: 1 12 32 141 (54144)
I0225 16:26:26.632436 11251 net.cpp:137] Memory required for data: 200774424
I0225 16:26:26.632443 11251 layer_factory.hpp:77] Creating layer concat0_14
I0225 16:26:26.632452 11251 net.cpp:84] Creating Layer concat0_14
I0225 16:26:26.632457 11251 net.cpp:406] concat0_14 <- concat0_13_concat0_13_0_split_1
I0225 16:26:26.632462 11251 net.cpp:406] concat0_14 <- conv0_14
I0225 16:26:26.632468 11251 net.cpp:380] concat0_14 -> concat0_14
I0225 16:26:26.632530 11251 net.cpp:122] Setting up concat0_14
I0225 16:26:26.632539 11251 net.cpp:129] Top shape: 1 212 32 141 (956544)
I0225 16:26:26.632541 11251 net.cpp:137] Memory required for data: 204600600
I0225 16:26:26.632545 11251 layer_factory.hpp:77] Creating layer concat0_14_concat0_14_0_split
I0225 16:26:26.632551 11251 net.cpp:84] Creating Layer concat0_14_concat0_14_0_split
I0225 16:26:26.632555 11251 net.cpp:406] concat0_14_concat0_14_0_split <- concat0_14
I0225 16:26:26.632562 11251 net.cpp:380] concat0_14_concat0_14_0_split -> concat0_14_concat0_14_0_split_0
I0225 16:26:26.632570 11251 net.cpp:380] concat0_14_concat0_14_0_split -> concat0_14_concat0_14_0_split_1
I0225 16:26:26.632665 11251 net.cpp:122] Setting up concat0_14_concat0_14_0_split
I0225 16:26:26.632673 11251 net.cpp:129] Top shape: 1 212 32 141 (956544)
I0225 16:26:26.632678 11251 net.cpp:129] Top shape: 1 212 32 141 (956544)
I0225 16:26:26.632681 11251 net.cpp:137] Memory required for data: 212252952
I0225 16:26:26.632684 11251 layer_factory.hpp:77] Creating layer conv0_15/bn
I0225 16:26:26.632691 11251 net.cpp:84] Creating Layer conv0_15/bn
I0225 16:26:26.632695 11251 net.cpp:406] conv0_15/bn <- concat0_14_concat0_14_0_split_0
I0225 16:26:26.632702 11251 net.cpp:380] conv0_15/bn -> conv0_15/bn
I0225 16:26:26.633157 11251 net.cpp:122] Setting up conv0_15/bn
I0225 16:26:26.633165 11251 net.cpp:129] Top shape: 1 212 32 141 (956544)
I0225 16:26:26.633168 11251 net.cpp:137] Memory required for data: 216079128
I0225 16:26:26.633179 11251 layer_factory.hpp:77] Creating layer conv0_15/scale
I0225 16:26:26.633188 11251 net.cpp:84] Creating Layer conv0_15/scale
I0225 16:26:26.633194 11251 net.cpp:406] conv0_15/scale <- conv0_15/bn
I0225 16:26:26.633199 11251 net.cpp:367] conv0_15/scale -> conv0_15/bn (in-place)
I0225 16:26:26.633275 11251 layer_factory.hpp:77] Creating layer conv0_15/scale
I0225 16:26:26.633520 11251 net.cpp:122] Setting up conv0_15/scale
I0225 16:26:26.633529 11251 net.cpp:129] Top shape: 1 212 32 141 (956544)
I0225 16:26:26.633533 11251 net.cpp:137] Memory required for data: 219905304
I0225 16:26:26.633539 11251 layer_factory.hpp:77] Creating layer relu0_15
I0225 16:26:26.633545 11251 net.cpp:84] Creating Layer relu0_15
I0225 16:26:26.633553 11251 net.cpp:406] relu0_15 <- conv0_15/bn
I0225 16:26:26.633558 11251 net.cpp:367] relu0_15 -> conv0_15/bn (in-place)
I0225 16:26:26.634922 11251 net.cpp:122] Setting up relu0_15
I0225 16:26:26.634937 11251 net.cpp:129] Top shape: 1 212 32 141 (956544)
I0225 16:26:26.634943 11251 net.cpp:137] Memory required for data: 223731480
I0225 16:26:26.634948 11251 layer_factory.hpp:77] Creating layer conv0_15
I0225 16:26:26.634958 11251 net.cpp:84] Creating Layer conv0_15
I0225 16:26:26.634963 11251 net.cpp:406] conv0_15 <- conv0_15/bn
I0225 16:26:26.634971 11251 net.cpp:380] conv0_15 -> conv0_15
I0225 16:26:26.639196 11251 net.cpp:122] Setting up conv0_15
I0225 16:26:26.639211 11251 net.cpp:129] Top shape: 1 12 32 141 (54144)
I0225 16:26:26.639216 11251 net.cpp:137] Memory required for data: 223948056
I0225 16:26:26.639223 11251 layer_factory.hpp:77] Creating layer concat0_15
I0225 16:26:26.639231 11251 net.cpp:84] Creating Layer concat0_15
I0225 16:26:26.639236 11251 net.cpp:406] concat0_15 <- concat0_14_concat0_14_0_split_1
I0225 16:26:26.639242 11251 net.cpp:406] concat0_15 <- conv0_15
I0225 16:26:26.639250 11251 net.cpp:380] concat0_15 -> concat0_15
I0225 16:26:26.639307 11251 net.cpp:122] Setting up concat0_15
I0225 16:26:26.639314 11251 net.cpp:129] Top shape: 1 224 32 141 (1010688)
I0225 16:26:26.639317 11251 net.cpp:137] Memory required for data: 227990808
I0225 16:26:26.639322 11251 layer_factory.hpp:77] Creating layer concat0_15_concat0_15_0_split
I0225 16:26:26.639328 11251 net.cpp:84] Creating Layer concat0_15_concat0_15_0_split
I0225 16:26:26.639330 11251 net.cpp:406] concat0_15_concat0_15_0_split <- concat0_15
I0225 16:26:26.639338 11251 net.cpp:380] concat0_15_concat0_15_0_split -> concat0_15_concat0_15_0_split_0
I0225 16:26:26.639345 11251 net.cpp:380] concat0_15_concat0_15_0_split -> concat0_15_concat0_15_0_split_1
I0225 16:26:26.639421 11251 net.cpp:122] Setting up concat0_15_concat0_15_0_split
I0225 16:26:26.639428 11251 net.cpp:129] Top shape: 1 224 32 141 (1010688)
I0225 16:26:26.639432 11251 net.cpp:129] Top shape: 1 224 32 141 (1010688)
I0225 16:26:26.639436 11251 net.cpp:137] Memory required for data: 236076312
I0225 16:26:26.639439 11251 layer_factory.hpp:77] Creating layer conv0_16/bn
I0225 16:26:26.639447 11251 net.cpp:84] Creating Layer conv0_16/bn
I0225 16:26:26.639451 11251 net.cpp:406] conv0_16/bn <- concat0_15_concat0_15_0_split_0
I0225 16:26:26.639457 11251 net.cpp:380] conv0_16/bn -> conv0_16/bn
I0225 16:26:26.639894 11251 net.cpp:122] Setting up conv0_16/bn
I0225 16:26:26.639902 11251 net.cpp:129] Top shape: 1 224 32 141 (1010688)
I0225 16:26:26.639906 11251 net.cpp:137] Memory required for data: 240119064
I0225 16:26:26.639914 11251 layer_factory.hpp:77] Creating layer conv0_16/scale
I0225 16:26:26.639928 11251 net.cpp:84] Creating Layer conv0_16/scale
I0225 16:26:26.639933 11251 net.cpp:406] conv0_16/scale <- conv0_16/bn
I0225 16:26:26.639940 11251 net.cpp:367] conv0_16/scale -> conv0_16/bn (in-place)
I0225 16:26:26.640012 11251 layer_factory.hpp:77] Creating layer conv0_16/scale
I0225 16:26:26.640265 11251 net.cpp:122] Setting up conv0_16/scale
I0225 16:26:26.640275 11251 net.cpp:129] Top shape: 1 224 32 141 (1010688)
I0225 16:26:26.640277 11251 net.cpp:137] Memory required for data: 244161816
I0225 16:26:26.640285 11251 layer_factory.hpp:77] Creating layer relu0_16
I0225 16:26:26.640290 11251 net.cpp:84] Creating Layer relu0_16
I0225 16:26:26.640295 11251 net.cpp:406] relu0_16 <- conv0_16/bn
I0225 16:26:26.640300 11251 net.cpp:367] relu0_16 -> conv0_16/bn (in-place)
I0225 16:26:26.640556 11251 net.cpp:122] Setting up relu0_16
I0225 16:26:26.640565 11251 net.cpp:129] Top shape: 1 224 32 141 (1010688)
I0225 16:26:26.640569 11251 net.cpp:137] Memory required for data: 248204568
I0225 16:26:26.640573 11251 layer_factory.hpp:77] Creating layer conv0_16
I0225 16:26:26.640585 11251 net.cpp:84] Creating Layer conv0_16
I0225 16:26:26.640589 11251 net.cpp:406] conv0_16 <- conv0_16/bn
I0225 16:26:26.640599 11251 net.cpp:380] conv0_16 -> conv0_16
I0225 16:26:26.644887 11251 net.cpp:122] Setting up conv0_16
I0225 16:26:26.644903 11251 net.cpp:129] Top shape: 1 12 32 141 (54144)
I0225 16:26:26.644907 11251 net.cpp:137] Memory required for data: 248421144
I0225 16:26:26.644914 11251 layer_factory.hpp:77] Creating layer concat0_16
I0225 16:26:26.644929 11251 net.cpp:84] Creating Layer concat0_16
I0225 16:26:26.644934 11251 net.cpp:406] concat0_16 <- concat0_15_concat0_15_0_split_1
I0225 16:26:26.644940 11251 net.cpp:406] concat0_16 <- conv0_16
I0225 16:26:26.644946 11251 net.cpp:380] concat0_16 -> concat0_16
I0225 16:26:26.645011 11251 net.cpp:122] Setting up concat0_16
I0225 16:26:26.645021 11251 net.cpp:129] Top shape: 1 236 32 141 (1064832)
I0225 16:26:26.645025 11251 net.cpp:137] Memory required for data: 252680472
I0225 16:26:26.645028 11251 layer_factory.hpp:77] Creating layer concat0_16_concat0_16_0_split
I0225 16:26:26.645035 11251 net.cpp:84] Creating Layer concat0_16_concat0_16_0_split
I0225 16:26:26.645037 11251 net.cpp:406] concat0_16_concat0_16_0_split <- concat0_16
I0225 16:26:26.645043 11251 net.cpp:380] concat0_16_concat0_16_0_split -> concat0_16_concat0_16_0_split_0
I0225 16:26:26.645051 11251 net.cpp:380] concat0_16_concat0_16_0_split -> concat0_16_concat0_16_0_split_1
I0225 16:26:26.645124 11251 net.cpp:122] Setting up concat0_16_concat0_16_0_split
I0225 16:26:26.645130 11251 net.cpp:129] Top shape: 1 236 32 141 (1064832)
I0225 16:26:26.645135 11251 net.cpp:129] Top shape: 1 236 32 141 (1064832)
I0225 16:26:26.645138 11251 net.cpp:137] Memory required for data: 261199128
I0225 16:26:26.645143 11251 layer_factory.hpp:77] Creating layer conv0_17/bn
I0225 16:26:26.645150 11251 net.cpp:84] Creating Layer conv0_17/bn
I0225 16:26:26.645155 11251 net.cpp:406] conv0_17/bn <- concat0_16_concat0_16_0_split_0
I0225 16:26:26.645160 11251 net.cpp:380] conv0_17/bn -> conv0_17/bn
I0225 16:26:26.645617 11251 net.cpp:122] Setting up conv0_17/bn
I0225 16:26:26.645624 11251 net.cpp:129] Top shape: 1 236 32 141 (1064832)
I0225 16:26:26.645627 11251 net.cpp:137] Memory required for data: 265458456
I0225 16:26:26.645637 11251 layer_factory.hpp:77] Creating layer conv0_17/scale
I0225 16:26:26.645648 11251 net.cpp:84] Creating Layer conv0_17/scale
I0225 16:26:26.645653 11251 net.cpp:406] conv0_17/scale <- conv0_17/bn
I0225 16:26:26.645659 11251 net.cpp:367] conv0_17/scale -> conv0_17/bn (in-place)
I0225 16:26:26.645742 11251 layer_factory.hpp:77] Creating layer conv0_17/scale
I0225 16:26:26.645998 11251 net.cpp:122] Setting up conv0_17/scale
I0225 16:26:26.646005 11251 net.cpp:129] Top shape: 1 236 32 141 (1064832)
I0225 16:26:26.646009 11251 net.cpp:137] Memory required for data: 269717784
I0225 16:26:26.646016 11251 layer_factory.hpp:77] Creating layer relu0_17
I0225 16:26:26.646023 11251 net.cpp:84] Creating Layer relu0_17
I0225 16:26:26.646026 11251 net.cpp:406] relu0_17 <- conv0_17/bn
I0225 16:26:26.646031 11251 net.cpp:367] relu0_17 -> conv0_17/bn (in-place)
I0225 16:26:26.646302 11251 net.cpp:122] Setting up relu0_17
I0225 16:26:26.646312 11251 net.cpp:129] Top shape: 1 236 32 141 (1064832)
I0225 16:26:26.646315 11251 net.cpp:137] Memory required for data: 273977112
I0225 16:26:26.646319 11251 layer_factory.hpp:77] Creating layer conv0_17
I0225 16:26:26.646332 11251 net.cpp:84] Creating Layer conv0_17
I0225 16:26:26.646338 11251 net.cpp:406] conv0_17 <- conv0_17/bn
I0225 16:26:26.646344 11251 net.cpp:380] conv0_17 -> conv0_17
I0225 16:26:26.650625 11251 net.cpp:122] Setting up conv0_17
I0225 16:26:26.650641 11251 net.cpp:129] Top shape: 1 12 32 141 (54144)
I0225 16:26:26.650645 11251 net.cpp:137] Memory required for data: 274193688
I0225 16:26:26.650653 11251 layer_factory.hpp:77] Creating layer concat0_17
I0225 16:26:26.650660 11251 net.cpp:84] Creating Layer concat0_17
I0225 16:26:26.650665 11251 net.cpp:406] concat0_17 <- concat0_16_concat0_16_0_split_1
I0225 16:26:26.650671 11251 net.cpp:406] concat0_17 <- conv0_17
I0225 16:26:26.650679 11251 net.cpp:380] concat0_17 -> concat0_17
I0225 16:26:26.650735 11251 net.cpp:122] Setting up concat0_17
I0225 16:26:26.650743 11251 net.cpp:129] Top shape: 1 248 32 141 (1118976)
I0225 16:26:26.650750 11251 net.cpp:137] Memory required for data: 278669592
I0225 16:26:26.650754 11251 layer_factory.hpp:77] Creating layer concat0_17_concat0_17_0_split
I0225 16:26:26.650759 11251 net.cpp:84] Creating Layer concat0_17_concat0_17_0_split
I0225 16:26:26.650763 11251 net.cpp:406] concat0_17_concat0_17_0_split <- concat0_17
I0225 16:26:26.650771 11251 net.cpp:380] concat0_17_concat0_17_0_split -> concat0_17_concat0_17_0_split_0
I0225 16:26:26.650779 11251 net.cpp:380] concat0_17_concat0_17_0_split -> concat0_17_concat0_17_0_split_1
I0225 16:26:26.650854 11251 net.cpp:122] Setting up concat0_17_concat0_17_0_split
I0225 16:26:26.650861 11251 net.cpp:129] Top shape: 1 248 32 141 (1118976)
I0225 16:26:26.650866 11251 net.cpp:129] Top shape: 1 248 32 141 (1118976)
I0225 16:26:26.650869 11251 net.cpp:137] Memory required for data: 287621400
I0225 16:26:26.650873 11251 layer_factory.hpp:77] Creating layer conv0_18/bn
I0225 16:26:26.650882 11251 net.cpp:84] Creating Layer conv0_18/bn
I0225 16:26:26.650885 11251 net.cpp:406] conv0_18/bn <- concat0_17_concat0_17_0_split_0
I0225 16:26:26.650890 11251 net.cpp:380] conv0_18/bn -> conv0_18/bn
I0225 16:26:26.651336 11251 net.cpp:122] Setting up conv0_18/bn
I0225 16:26:26.651345 11251 net.cpp:129] Top shape: 1 248 32 141 (1118976)
I0225 16:26:26.651348 11251 net.cpp:137] Memory required for data: 292097304
I0225 16:26:26.651356 11251 layer_factory.hpp:77] Creating layer conv0_18/scale
I0225 16:26:26.651371 11251 net.cpp:84] Creating Layer conv0_18/scale
I0225 16:26:26.651376 11251 net.cpp:406] conv0_18/scale <- conv0_18/bn
I0225 16:26:26.651381 11251 net.cpp:367] conv0_18/scale -> conv0_18/bn (in-place)
I0225 16:26:26.651456 11251 layer_factory.hpp:77] Creating layer conv0_18/scale
I0225 16:26:26.651710 11251 net.cpp:122] Setting up conv0_18/scale
I0225 16:26:26.651718 11251 net.cpp:129] Top shape: 1 248 32 141 (1118976)
I0225 16:26:26.651722 11251 net.cpp:137] Memory required for data: 296573208
I0225 16:26:26.651728 11251 layer_factory.hpp:77] Creating layer relu0_18
I0225 16:26:26.651736 11251 net.cpp:84] Creating Layer relu0_18
I0225 16:26:26.651739 11251 net.cpp:406] relu0_18 <- conv0_18/bn
I0225 16:26:26.651744 11251 net.cpp:367] relu0_18 -> conv0_18/bn (in-place)
I0225 16:26:26.652001 11251 net.cpp:122] Setting up relu0_18
I0225 16:26:26.652011 11251 net.cpp:129] Top shape: 1 248 32 141 (1118976)
I0225 16:26:26.652015 11251 net.cpp:137] Memory required for data: 301049112
I0225 16:26:26.652019 11251 layer_factory.hpp:77] Creating layer conv0_18
I0225 16:26:26.652030 11251 net.cpp:84] Creating Layer conv0_18
I0225 16:26:26.652035 11251 net.cpp:406] conv0_18 <- conv0_18/bn
I0225 16:26:26.652045 11251 net.cpp:380] conv0_18 -> conv0_18
I0225 16:26:26.656366 11251 net.cpp:122] Setting up conv0_18
I0225 16:26:26.656383 11251 net.cpp:129] Top shape: 1 12 32 141 (54144)
I0225 16:26:26.656386 11251 net.cpp:137] Memory required for data: 301265688
I0225 16:26:26.656394 11251 layer_factory.hpp:77] Creating layer concat0_18
I0225 16:26:26.656404 11251 net.cpp:84] Creating Layer concat0_18
I0225 16:26:26.656409 11251 net.cpp:406] concat0_18 <- concat0_17_concat0_17_0_split_1
I0225 16:26:26.656415 11251 net.cpp:406] concat0_18 <- conv0_18
I0225 16:26:26.656421 11251 net.cpp:380] concat0_18 -> concat0_18
I0225 16:26:26.656481 11251 net.cpp:122] Setting up concat0_18
I0225 16:26:26.656491 11251 net.cpp:129] Top shape: 1 260 32 141 (1173120)
I0225 16:26:26.656493 11251 net.cpp:137] Memory required for data: 305958168
I0225 16:26:26.656497 11251 layer_factory.hpp:77] Creating layer concat0_18_concat0_18_0_split
I0225 16:26:26.656503 11251 net.cpp:84] Creating Layer concat0_18_concat0_18_0_split
I0225 16:26:26.656507 11251 net.cpp:406] concat0_18_concat0_18_0_split <- concat0_18
I0225 16:26:26.656513 11251 net.cpp:380] concat0_18_concat0_18_0_split -> concat0_18_concat0_18_0_split_0
I0225 16:26:26.656519 11251 net.cpp:380] concat0_18_concat0_18_0_split -> concat0_18_concat0_18_0_split_1
I0225 16:26:26.656594 11251 net.cpp:122] Setting up concat0_18_concat0_18_0_split
I0225 16:26:26.656605 11251 net.cpp:129] Top shape: 1 260 32 141 (1173120)
I0225 16:26:26.656611 11251 net.cpp:129] Top shape: 1 260 32 141 (1173120)
I0225 16:26:26.656615 11251 net.cpp:137] Memory required for data: 315343128
I0225 16:26:26.656620 11251 layer_factory.hpp:77] Creating layer conv0_19/bn
I0225 16:26:26.656625 11251 net.cpp:84] Creating Layer conv0_19/bn
I0225 16:26:26.656642 11251 net.cpp:406] conv0_19/bn <- concat0_18_concat0_18_0_split_0
I0225 16:26:26.656661 11251 net.cpp:380] conv0_19/bn -> conv0_19/bn
I0225 16:26:26.657148 11251 net.cpp:122] Setting up conv0_19/bn
I0225 16:26:26.657156 11251 net.cpp:129] Top shape: 1 260 32 141 (1173120)
I0225 16:26:26.657160 11251 net.cpp:137] Memory required for data: 320035608
I0225 16:26:26.657169 11251 layer_factory.hpp:77] Creating layer conv0_19/scale
I0225 16:26:26.657179 11251 net.cpp:84] Creating Layer conv0_19/scale
I0225 16:26:26.657183 11251 net.cpp:406] conv0_19/scale <- conv0_19/bn
I0225 16:26:26.657191 11251 net.cpp:367] conv0_19/scale -> conv0_19/bn (in-place)
I0225 16:26:26.657272 11251 layer_factory.hpp:77] Creating layer conv0_19/scale
I0225 16:26:26.657528 11251 net.cpp:122] Setting up conv0_19/scale
I0225 16:26:26.657536 11251 net.cpp:129] Top shape: 1 260 32 141 (1173120)
I0225 16:26:26.657541 11251 net.cpp:137] Memory required for data: 324728088
I0225 16:26:26.657547 11251 layer_factory.hpp:77] Creating layer relu0_19
I0225 16:26:26.657553 11251 net.cpp:84] Creating Layer relu0_19
I0225 16:26:26.657557 11251 net.cpp:406] relu0_19 <- conv0_19/bn
I0225 16:26:26.657562 11251 net.cpp:367] relu0_19 -> conv0_19/bn (in-place)
I0225 16:26:26.658913 11251 net.cpp:122] Setting up relu0_19
I0225 16:26:26.658928 11251 net.cpp:129] Top shape: 1 260 32 141 (1173120)
I0225 16:26:26.658932 11251 net.cpp:137] Memory required for data: 329420568
I0225 16:26:26.658936 11251 layer_factory.hpp:77] Creating layer conv0_19
I0225 16:26:26.658948 11251 net.cpp:84] Creating Layer conv0_19
I0225 16:26:26.658953 11251 net.cpp:406] conv0_19 <- conv0_19/bn
I0225 16:26:26.658963 11251 net.cpp:380] conv0_19 -> conv0_19
I0225 16:26:26.663354 11251 net.cpp:122] Setting up conv0_19
I0225 16:26:26.663372 11251 net.cpp:129] Top shape: 1 12 32 141 (54144)
I0225 16:26:26.663377 11251 net.cpp:137] Memory required for data: 329637144
I0225 16:26:26.663383 11251 layer_factory.hpp:77] Creating layer concat0_19
I0225 16:26:26.663391 11251 net.cpp:84] Creating Layer concat0_19
I0225 16:26:26.663396 11251 net.cpp:406] concat0_19 <- concat0_18_concat0_18_0_split_1
I0225 16:26:26.663403 11251 net.cpp:406] concat0_19 <- conv0_19
I0225 16:26:26.663408 11251 net.cpp:380] concat0_19 -> concat0_19
I0225 16:26:26.663467 11251 net.cpp:122] Setting up concat0_19
I0225 16:26:26.663475 11251 net.cpp:129] Top shape: 1 272 32 141 (1227264)
I0225 16:26:26.663478 11251 net.cpp:137] Memory required for data: 334546200
I0225 16:26:26.663482 11251 layer_factory.hpp:77] Creating layer concat0_19_concat0_19_0_split
I0225 16:26:26.663488 11251 net.cpp:84] Creating Layer concat0_19_concat0_19_0_split
I0225 16:26:26.663492 11251 net.cpp:406] concat0_19_concat0_19_0_split <- concat0_19
I0225 16:26:26.663499 11251 net.cpp:380] concat0_19_concat0_19_0_split -> concat0_19_concat0_19_0_split_0
I0225 16:26:26.663506 11251 net.cpp:380] concat0_19_concat0_19_0_split -> concat0_19_concat0_19_0_split_1
I0225 16:26:26.663583 11251 net.cpp:122] Setting up concat0_19_concat0_19_0_split
I0225 16:26:26.663589 11251 net.cpp:129] Top shape: 1 272 32 141 (1227264)
I0225 16:26:26.663594 11251 net.cpp:129] Top shape: 1 272 32 141 (1227264)
I0225 16:26:26.663597 11251 net.cpp:137] Memory required for data: 344364312
I0225 16:26:26.663601 11251 layer_factory.hpp:77] Creating layer conv0_20/bn
I0225 16:26:26.663614 11251 net.cpp:84] Creating Layer conv0_20/bn
I0225 16:26:26.663619 11251 net.cpp:406] conv0_20/bn <- concat0_19_concat0_19_0_split_0
I0225 16:26:26.663625 11251 net.cpp:380] conv0_20/bn -> conv0_20/bn
I0225 16:26:26.664088 11251 net.cpp:122] Setting up conv0_20/bn
I0225 16:26:26.664096 11251 net.cpp:129] Top shape: 1 272 32 141 (1227264)
I0225 16:26:26.664103 11251 net.cpp:137] Memory required for data: 349273368
I0225 16:26:26.664124 11251 layer_factory.hpp:77] Creating layer conv0_20/scale
I0225 16:26:26.664132 11251 net.cpp:84] Creating Layer conv0_20/scale
I0225 16:26:26.664136 11251 net.cpp:406] conv0_20/scale <- conv0_20/bn
I0225 16:26:26.664144 11251 net.cpp:367] conv0_20/scale -> conv0_20/bn (in-place)
I0225 16:26:26.664228 11251 layer_factory.hpp:77] Creating layer conv0_20/scale
I0225 16:26:26.664489 11251 net.cpp:122] Setting up conv0_20/scale
I0225 16:26:26.664496 11251 net.cpp:129] Top shape: 1 272 32 141 (1227264)
I0225 16:26:26.664500 11251 net.cpp:137] Memory required for data: 354182424
I0225 16:26:26.664507 11251 layer_factory.hpp:77] Creating layer relu0_20
I0225 16:26:26.664515 11251 net.cpp:84] Creating Layer relu0_20
I0225 16:26:26.664520 11251 net.cpp:406] relu0_20 <- conv0_20/bn
I0225 16:26:26.664525 11251 net.cpp:367] relu0_20 -> conv0_20/bn (in-place)
I0225 16:26:26.664808 11251 net.cpp:122] Setting up relu0_20
I0225 16:26:26.664816 11251 net.cpp:129] Top shape: 1 272 32 141 (1227264)
I0225 16:26:26.664820 11251 net.cpp:137] Memory required for data: 359091480
I0225 16:26:26.664824 11251 layer_factory.hpp:77] Creating layer conv0_20
I0225 16:26:26.664836 11251 net.cpp:84] Creating Layer conv0_20
I0225 16:26:26.664840 11251 net.cpp:406] conv0_20 <- conv0_20/bn
I0225 16:26:26.664847 11251 net.cpp:380] conv0_20 -> conv0_20
I0225 16:26:26.669299 11251 net.cpp:122] Setting up conv0_20
I0225 16:26:26.669317 11251 net.cpp:129] Top shape: 1 12 32 141 (54144)
I0225 16:26:26.669320 11251 net.cpp:137] Memory required for data: 359308056
I0225 16:26:26.669327 11251 layer_factory.hpp:77] Creating layer concat0_20
I0225 16:26:26.669335 11251 net.cpp:84] Creating Layer concat0_20
I0225 16:26:26.669340 11251 net.cpp:406] concat0_20 <- concat0_19_concat0_19_0_split_1
I0225 16:26:26.669347 11251 net.cpp:406] concat0_20 <- conv0_20
I0225 16:26:26.669354 11251 net.cpp:380] concat0_20 -> concat0_20
I0225 16:26:26.669411 11251 net.cpp:122] Setting up concat0_20
I0225 16:26:26.669420 11251 net.cpp:129] Top shape: 1 284 32 141 (1281408)
I0225 16:26:26.669422 11251 net.cpp:137] Memory required for data: 364433688
I0225 16:26:26.669426 11251 layer_factory.hpp:77] Creating layer concat0_20_concat0_20_0_split
I0225 16:26:26.669431 11251 net.cpp:84] Creating Layer concat0_20_concat0_20_0_split
I0225 16:26:26.669435 11251 net.cpp:406] concat0_20_concat0_20_0_split <- concat0_20
I0225 16:26:26.669443 11251 net.cpp:380] concat0_20_concat0_20_0_split -> concat0_20_concat0_20_0_split_0
I0225 16:26:26.669450 11251 net.cpp:380] concat0_20_concat0_20_0_split -> concat0_20_concat0_20_0_split_1
I0225 16:26:26.669524 11251 net.cpp:122] Setting up concat0_20_concat0_20_0_split
I0225 16:26:26.669530 11251 net.cpp:129] Top shape: 1 284 32 141 (1281408)
I0225 16:26:26.669535 11251 net.cpp:129] Top shape: 1 284 32 141 (1281408)
I0225 16:26:26.669538 11251 net.cpp:137] Memory required for data: 374684952
I0225 16:26:26.669541 11251 layer_factory.hpp:77] Creating layer conv0_21/bn
I0225 16:26:26.669550 11251 net.cpp:84] Creating Layer conv0_21/bn
I0225 16:26:26.669554 11251 net.cpp:406] conv0_21/bn <- concat0_20_concat0_20_0_split_0
I0225 16:26:26.669559 11251 net.cpp:380] conv0_21/bn -> conv0_21/bn
I0225 16:26:26.670018 11251 net.cpp:122] Setting up conv0_21/bn
I0225 16:26:26.670027 11251 net.cpp:129] Top shape: 1 284 32 141 (1281408)
I0225 16:26:26.670030 11251 net.cpp:137] Memory required for data: 379810584
I0225 16:26:26.670038 11251 layer_factory.hpp:77] Creating layer conv0_21/scale
I0225 16:26:26.670048 11251 net.cpp:84] Creating Layer conv0_21/scale
I0225 16:26:26.670053 11251 net.cpp:406] conv0_21/scale <- conv0_21/bn
I0225 16:26:26.670058 11251 net.cpp:367] conv0_21/scale -> conv0_21/bn (in-place)
I0225 16:26:26.670141 11251 layer_factory.hpp:77] Creating layer conv0_21/scale
I0225 16:26:26.670405 11251 net.cpp:122] Setting up conv0_21/scale
I0225 16:26:26.670414 11251 net.cpp:129] Top shape: 1 284 32 141 (1281408)
I0225 16:26:26.670421 11251 net.cpp:137] Memory required for data: 384936216
I0225 16:26:26.670429 11251 layer_factory.hpp:77] Creating layer relu0_21
I0225 16:26:26.670436 11251 net.cpp:84] Creating Layer relu0_21
I0225 16:26:26.670440 11251 net.cpp:406] relu0_21 <- conv0_21/bn
I0225 16:26:26.670445 11251 net.cpp:367] relu0_21 -> conv0_21/bn (in-place)
I0225 16:26:26.670717 11251 net.cpp:122] Setting up relu0_21
I0225 16:26:26.670725 11251 net.cpp:129] Top shape: 1 284 32 141 (1281408)
I0225 16:26:26.670729 11251 net.cpp:137] Memory required for data: 390061848
I0225 16:26:26.670733 11251 layer_factory.hpp:77] Creating layer conv0_21
I0225 16:26:26.670745 11251 net.cpp:84] Creating Layer conv0_21
I0225 16:26:26.670750 11251 net.cpp:406] conv0_21 <- conv0_21/bn
I0225 16:26:26.670758 11251 net.cpp:380] conv0_21 -> conv0_21
I0225 16:26:26.675266 11251 net.cpp:122] Setting up conv0_21
I0225 16:26:26.675283 11251 net.cpp:129] Top shape: 1 12 32 141 (54144)
I0225 16:26:26.675287 11251 net.cpp:137] Memory required for data: 390278424
I0225 16:26:26.675294 11251 layer_factory.hpp:77] Creating layer concat0_21
I0225 16:26:26.675304 11251 net.cpp:84] Creating Layer concat0_21
I0225 16:26:26.675309 11251 net.cpp:406] concat0_21 <- concat0_20_concat0_20_0_split_1
I0225 16:26:26.675315 11251 net.cpp:406] concat0_21 <- conv0_21
I0225 16:26:26.675321 11251 net.cpp:380] concat0_21 -> concat0_21
I0225 16:26:26.675377 11251 net.cpp:122] Setting up concat0_21
I0225 16:26:26.675386 11251 net.cpp:129] Top shape: 1 296 32 141 (1335552)
I0225 16:26:26.675390 11251 net.cpp:137] Memory required for data: 395620632
I0225 16:26:26.675395 11251 layer_factory.hpp:77] Creating layer concat0_21_concat0_21_0_split
I0225 16:26:26.675400 11251 net.cpp:84] Creating Layer concat0_21_concat0_21_0_split
I0225 16:26:26.675403 11251 net.cpp:406] concat0_21_concat0_21_0_split <- concat0_21
I0225 16:26:26.675410 11251 net.cpp:380] concat0_21_concat0_21_0_split -> concat0_21_concat0_21_0_split_0
I0225 16:26:26.675415 11251 net.cpp:380] concat0_21_concat0_21_0_split -> concat0_21_concat0_21_0_split_1
I0225 16:26:26.675489 11251 net.cpp:122] Setting up concat0_21_concat0_21_0_split
I0225 16:26:26.675495 11251 net.cpp:129] Top shape: 1 296 32 141 (1335552)
I0225 16:26:26.675500 11251 net.cpp:129] Top shape: 1 296 32 141 (1335552)
I0225 16:26:26.675503 11251 net.cpp:137] Memory required for data: 406305048
I0225 16:26:26.675506 11251 layer_factory.hpp:77] Creating layer conv0_22/bn
I0225 16:26:26.675514 11251 net.cpp:84] Creating Layer conv0_22/bn
I0225 16:26:26.675518 11251 net.cpp:406] conv0_22/bn <- concat0_21_concat0_21_0_split_0
I0225 16:26:26.675524 11251 net.cpp:380] conv0_22/bn -> conv0_22/bn
I0225 16:26:26.676002 11251 net.cpp:122] Setting up conv0_22/bn
I0225 16:26:26.676010 11251 net.cpp:129] Top shape: 1 296 32 141 (1335552)
I0225 16:26:26.676014 11251 net.cpp:137] Memory required for data: 411647256
I0225 16:26:26.676023 11251 layer_factory.hpp:77] Creating layer conv0_22/scale
I0225 16:26:26.676033 11251 net.cpp:84] Creating Layer conv0_22/scale
I0225 16:26:26.676038 11251 net.cpp:406] conv0_22/scale <- conv0_22/bn
I0225 16:26:26.676045 11251 net.cpp:367] conv0_22/scale -> conv0_22/bn (in-place)
I0225 16:26:26.676128 11251 layer_factory.hpp:77] Creating layer conv0_22/scale
I0225 16:26:26.676385 11251 net.cpp:122] Setting up conv0_22/scale
I0225 16:26:26.676393 11251 net.cpp:129] Top shape: 1 296 32 141 (1335552)
I0225 16:26:26.676398 11251 net.cpp:137] Memory required for data: 416989464
I0225 16:26:26.676404 11251 layer_factory.hpp:77] Creating layer relu0_22
I0225 16:26:26.676410 11251 net.cpp:84] Creating Layer relu0_22
I0225 16:26:26.676414 11251 net.cpp:406] relu0_22 <- conv0_22/bn
I0225 16:26:26.676419 11251 net.cpp:367] relu0_22 -> conv0_22/bn (in-place)
I0225 16:26:26.677816 11251 net.cpp:122] Setting up relu0_22
I0225 16:26:26.677831 11251 net.cpp:129] Top shape: 1 296 32 141 (1335552)
I0225 16:26:26.677835 11251 net.cpp:137] Memory required for data: 422331672
I0225 16:26:26.677839 11251 layer_factory.hpp:77] Creating layer conv0_22
I0225 16:26:26.677856 11251 net.cpp:84] Creating Layer conv0_22
I0225 16:26:26.677862 11251 net.cpp:406] conv0_22 <- conv0_22/bn
I0225 16:26:26.677871 11251 net.cpp:380] conv0_22 -> conv0_22
I0225 16:26:26.682380 11251 net.cpp:122] Setting up conv0_22
I0225 16:26:26.682396 11251 net.cpp:129] Top shape: 1 12 32 141 (54144)
I0225 16:26:26.682400 11251 net.cpp:137] Memory required for data: 422548248
I0225 16:26:26.682409 11251 layer_factory.hpp:77] Creating layer concat0_22
I0225 16:26:26.682416 11251 net.cpp:84] Creating Layer concat0_22
I0225 16:26:26.682421 11251 net.cpp:406] concat0_22 <- concat0_21_concat0_21_0_split_1
I0225 16:26:26.682427 11251 net.cpp:406] concat0_22 <- conv0_22
I0225 16:26:26.682435 11251 net.cpp:380] concat0_22 -> concat0_22
I0225 16:26:26.682492 11251 net.cpp:122] Setting up concat0_22
I0225 16:26:26.682499 11251 net.cpp:129] Top shape: 1 308 32 141 (1389696)
I0225 16:26:26.682503 11251 net.cpp:137] Memory required for data: 428107032
I0225 16:26:26.682507 11251 layer_factory.hpp:77] Creating layer concat0_22_concat0_22_0_split
I0225 16:26:26.682512 11251 net.cpp:84] Creating Layer concat0_22_concat0_22_0_split
I0225 16:26:26.682516 11251 net.cpp:406] concat0_22_concat0_22_0_split <- concat0_22
I0225 16:26:26.682524 11251 net.cpp:380] concat0_22_concat0_22_0_split -> concat0_22_concat0_22_0_split_0
I0225 16:26:26.682530 11251 net.cpp:380] concat0_22_concat0_22_0_split -> concat0_22_concat0_22_0_split_1
I0225 16:26:26.682606 11251 net.cpp:122] Setting up concat0_22_concat0_22_0_split
I0225 16:26:26.682613 11251 net.cpp:129] Top shape: 1 308 32 141 (1389696)
I0225 16:26:26.682617 11251 net.cpp:129] Top shape: 1 308 32 141 (1389696)
I0225 16:26:26.682621 11251 net.cpp:137] Memory required for data: 439224600
I0225 16:26:26.682624 11251 layer_factory.hpp:77] Creating layer conv0_23/bn
I0225 16:26:26.682631 11251 net.cpp:84] Creating Layer conv0_23/bn
I0225 16:26:26.682636 11251 net.cpp:406] conv0_23/bn <- concat0_22_concat0_22_0_split_0
I0225 16:26:26.682642 11251 net.cpp:380] conv0_23/bn -> conv0_23/bn
I0225 16:26:26.683112 11251 net.cpp:122] Setting up conv0_23/bn
I0225 16:26:26.683120 11251 net.cpp:129] Top shape: 1 308 32 141 (1389696)
I0225 16:26:26.683125 11251 net.cpp:137] Memory required for data: 444783384
I0225 16:26:26.683133 11251 layer_factory.hpp:77] Creating layer conv0_23/scale
I0225 16:26:26.683143 11251 net.cpp:84] Creating Layer conv0_23/scale
I0225 16:26:26.683148 11251 net.cpp:406] conv0_23/scale <- conv0_23/bn
I0225 16:26:26.683153 11251 net.cpp:367] conv0_23/scale -> conv0_23/bn (in-place)
I0225 16:26:26.683236 11251 layer_factory.hpp:77] Creating layer conv0_23/scale
I0225 16:26:26.683501 11251 net.cpp:122] Setting up conv0_23/scale
I0225 16:26:26.683508 11251 net.cpp:129] Top shape: 1 308 32 141 (1389696)
I0225 16:26:26.683512 11251 net.cpp:137] Memory required for data: 450342168
I0225 16:26:26.683519 11251 layer_factory.hpp:77] Creating layer relu0_23
I0225 16:26:26.683526 11251 net.cpp:84] Creating Layer relu0_23
I0225 16:26:26.683529 11251 net.cpp:406] relu0_23 <- conv0_23/bn
I0225 16:26:26.683534 11251 net.cpp:367] relu0_23 -> conv0_23/bn (in-place)
I0225 16:26:26.683804 11251 net.cpp:122] Setting up relu0_23
I0225 16:26:26.683814 11251 net.cpp:129] Top shape: 1 308 32 141 (1389696)
I0225 16:26:26.683817 11251 net.cpp:137] Memory required for data: 455900952
I0225 16:26:26.683821 11251 layer_factory.hpp:77] Creating layer conv0_23
I0225 16:26:26.683835 11251 net.cpp:84] Creating Layer conv0_23
I0225 16:26:26.683840 11251 net.cpp:406] conv0_23 <- conv0_23/bn
I0225 16:26:26.683846 11251 net.cpp:380] conv0_23 -> conv0_23
I0225 16:26:26.688421 11251 net.cpp:122] Setting up conv0_23
I0225 16:26:26.688436 11251 net.cpp:129] Top shape: 1 12 32 141 (54144)
I0225 16:26:26.688441 11251 net.cpp:137] Memory required for data: 456117528
I0225 16:26:26.688448 11251 layer_factory.hpp:77] Creating layer concat0_23
I0225 16:26:26.688457 11251 net.cpp:84] Creating Layer concat0_23
I0225 16:26:26.688464 11251 net.cpp:406] concat0_23 <- concat0_22_concat0_22_0_split_1
I0225 16:26:26.688470 11251 net.cpp:406] concat0_23 <- conv0_23
I0225 16:26:26.688480 11251 net.cpp:380] concat0_23 -> concat0_23
I0225 16:26:26.688539 11251 net.cpp:122] Setting up concat0_23
I0225 16:26:26.688547 11251 net.cpp:129] Top shape: 1 320 32 141 (1443840)
I0225 16:26:26.688550 11251 net.cpp:137] Memory required for data: 461892888
I0225 16:26:26.688555 11251 layer_factory.hpp:77] Creating layer concat0_23_concat0_23_0_split
I0225 16:26:26.688562 11251 net.cpp:84] Creating Layer concat0_23_concat0_23_0_split
I0225 16:26:26.688566 11251 net.cpp:406] concat0_23_concat0_23_0_split <- concat0_23
I0225 16:26:26.688571 11251 net.cpp:380] concat0_23_concat0_23_0_split -> concat0_23_concat0_23_0_split_0
I0225 16:26:26.688578 11251 net.cpp:380] concat0_23_concat0_23_0_split -> concat0_23_concat0_23_0_split_1
I0225 16:26:26.688669 11251 net.cpp:122] Setting up concat0_23_concat0_23_0_split
I0225 16:26:26.688676 11251 net.cpp:129] Top shape: 1 320 32 141 (1443840)
I0225 16:26:26.688683 11251 net.cpp:129] Top shape: 1 320 32 141 (1443840)
I0225 16:26:26.688688 11251 net.cpp:137] Memory required for data: 473443608
I0225 16:26:26.688691 11251 layer_factory.hpp:77] Creating layer conv0_24/bn
I0225 16:26:26.688700 11251 net.cpp:84] Creating Layer conv0_24/bn
I0225 16:26:26.688704 11251 net.cpp:406] conv0_24/bn <- concat0_23_concat0_23_0_split_0
I0225 16:26:26.688710 11251 net.cpp:380] conv0_24/bn -> conv0_24/bn
I0225 16:26:26.689194 11251 net.cpp:122] Setting up conv0_24/bn
I0225 16:26:26.689203 11251 net.cpp:129] Top shape: 1 320 32 141 (1443840)
I0225 16:26:26.689208 11251 net.cpp:137] Memory required for data: 479218968
I0225 16:26:26.689215 11251 layer_factory.hpp:77] Creating layer conv0_24/scale
I0225 16:26:26.689225 11251 net.cpp:84] Creating Layer conv0_24/scale
I0225 16:26:26.689230 11251 net.cpp:406] conv0_24/scale <- conv0_24/bn
I0225 16:26:26.689236 11251 net.cpp:367] conv0_24/scale -> conv0_24/bn (in-place)
I0225 16:26:26.689340 11251 layer_factory.hpp:77] Creating layer conv0_24/scale
I0225 16:26:26.689606 11251 net.cpp:122] Setting up conv0_24/scale
I0225 16:26:26.689615 11251 net.cpp:129] Top shape: 1 320 32 141 (1443840)
I0225 16:26:26.689618 11251 net.cpp:137] Memory required for data: 484994328
I0225 16:26:26.689625 11251 layer_factory.hpp:77] Creating layer relu0_24
I0225 16:26:26.689635 11251 net.cpp:84] Creating Layer relu0_24
I0225 16:26:26.689640 11251 net.cpp:406] relu0_24 <- conv0_24/bn
I0225 16:26:26.689644 11251 net.cpp:367] relu0_24 -> conv0_24/bn (in-place)
I0225 16:26:26.689918 11251 net.cpp:122] Setting up relu0_24
I0225 16:26:26.689926 11251 net.cpp:129] Top shape: 1 320 32 141 (1443840)
I0225 16:26:26.689930 11251 net.cpp:137] Memory required for data: 490769688
I0225 16:26:26.689934 11251 layer_factory.hpp:77] Creating layer conv0_24
I0225 16:26:26.689946 11251 net.cpp:84] Creating Layer conv0_24
I0225 16:26:26.689951 11251 net.cpp:406] conv0_24 <- conv0_24/bn
I0225 16:26:26.689960 11251 net.cpp:380] conv0_24 -> conv0_24
I0225 16:26:26.694636 11251 net.cpp:122] Setting up conv0_24
I0225 16:26:26.694653 11251 net.cpp:129] Top shape: 1 12 32 141 (54144)
I0225 16:26:26.694658 11251 net.cpp:137] Memory required for data: 490986264
I0225 16:26:26.694664 11251 layer_factory.hpp:77] Creating layer concat0_24
I0225 16:26:26.694672 11251 net.cpp:84] Creating Layer concat0_24
I0225 16:26:26.694677 11251 net.cpp:406] concat0_24 <- concat0_23_concat0_23_0_split_1
I0225 16:26:26.694684 11251 net.cpp:406] concat0_24 <- conv0_24
I0225 16:26:26.694691 11251 net.cpp:380] concat0_24 -> concat0_24
I0225 16:26:26.694751 11251 net.cpp:122] Setting up concat0_24
I0225 16:26:26.694757 11251 net.cpp:129] Top shape: 1 332 32 141 (1497984)
I0225 16:26:26.694761 11251 net.cpp:137] Memory required for data: 496978200
I0225 16:26:26.694764 11251 layer_factory.hpp:77] Creating layer concat0_24_concat0_24_0_split
I0225 16:26:26.694772 11251 net.cpp:84] Creating Layer concat0_24_concat0_24_0_split
I0225 16:26:26.694777 11251 net.cpp:406] concat0_24_concat0_24_0_split <- concat0_24
I0225 16:26:26.694782 11251 net.cpp:380] concat0_24_concat0_24_0_split -> concat0_24_concat0_24_0_split_0
I0225 16:26:26.694792 11251 net.cpp:380] concat0_24_concat0_24_0_split -> concat0_24_concat0_24_0_split_1
I0225 16:26:26.694871 11251 net.cpp:122] Setting up concat0_24_concat0_24_0_split
I0225 16:26:26.694878 11251 net.cpp:129] Top shape: 1 332 32 141 (1497984)
I0225 16:26:26.694883 11251 net.cpp:129] Top shape: 1 332 32 141 (1497984)
I0225 16:26:26.694886 11251 net.cpp:137] Memory required for data: 508962072
I0225 16:26:26.694890 11251 layer_factory.hpp:77] Creating layer conv0_25/bn
I0225 16:26:26.694898 11251 net.cpp:84] Creating Layer conv0_25/bn
I0225 16:26:26.694902 11251 net.cpp:406] conv0_25/bn <- concat0_24_concat0_24_0_split_0
I0225 16:26:26.694911 11251 net.cpp:380] conv0_25/bn -> conv0_25/bn
I0225 16:26:26.695387 11251 net.cpp:122] Setting up conv0_25/bn
I0225 16:26:26.695395 11251 net.cpp:129] Top shape: 1 332 32 141 (1497984)
I0225 16:26:26.695399 11251 net.cpp:137] Memory required for data: 514954008
I0225 16:26:26.695407 11251 layer_factory.hpp:77] Creating layer conv0_25/scale
I0225 16:26:26.695418 11251 net.cpp:84] Creating Layer conv0_25/scale
I0225 16:26:26.695422 11251 net.cpp:406] conv0_25/scale <- conv0_25/bn
I0225 16:26:26.695428 11251 net.cpp:367] conv0_25/scale -> conv0_25/bn (in-place)
I0225 16:26:26.695513 11251 layer_factory.hpp:77] Creating layer conv0_25/scale
I0225 16:26:26.695791 11251 net.cpp:122] Setting up conv0_25/scale
I0225 16:26:26.695799 11251 net.cpp:129] Top shape: 1 332 32 141 (1497984)
I0225 16:26:26.695803 11251 net.cpp:137] Memory required for data: 520945944
I0225 16:26:26.695811 11251 layer_factory.hpp:77] Creating layer relu0_25
I0225 16:26:26.695816 11251 net.cpp:84] Creating Layer relu0_25
I0225 16:26:26.695822 11251 net.cpp:406] relu0_25 <- conv0_25/bn
I0225 16:26:26.695832 11251 net.cpp:367] relu0_25 -> conv0_25/bn (in-place)
I0225 16:26:26.697203 11251 net.cpp:122] Setting up relu0_25
I0225 16:26:26.697217 11251 net.cpp:129] Top shape: 1 332 32 141 (1497984)
I0225 16:26:26.697221 11251 net.cpp:137] Memory required for data: 526937880
I0225 16:26:26.697227 11251 layer_factory.hpp:77] Creating layer conv0_25
I0225 16:26:26.697238 11251 net.cpp:84] Creating Layer conv0_25
I0225 16:26:26.697243 11251 net.cpp:406] conv0_25 <- conv0_25/bn
I0225 16:26:26.697253 11251 net.cpp:380] conv0_25 -> conv0_25
I0225 16:26:26.701931 11251 net.cpp:122] Setting up conv0_25
I0225 16:26:26.701947 11251 net.cpp:129] Top shape: 1 12 32 141 (54144)
I0225 16:26:26.701951 11251 net.cpp:137] Memory required for data: 527154456
I0225 16:26:26.701959 11251 layer_factory.hpp:77] Creating layer concat0_25
I0225 16:26:26.701967 11251 net.cpp:84] Creating Layer concat0_25
I0225 16:26:26.701972 11251 net.cpp:406] concat0_25 <- concat0_24_concat0_24_0_split_1
I0225 16:26:26.701978 11251 net.cpp:406] concat0_25 <- conv0_25
I0225 16:26:26.701987 11251 net.cpp:380] concat0_25 -> concat0_25
I0225 16:26:26.702047 11251 net.cpp:122] Setting up concat0_25
I0225 16:26:26.702054 11251 net.cpp:129] Top shape: 1 344 32 141 (1552128)
I0225 16:26:26.702059 11251 net.cpp:137] Memory required for data: 533362968
I0225 16:26:26.702061 11251 layer_factory.hpp:77] Creating layer concat0_25_concat0_25_0_split
I0225 16:26:26.702067 11251 net.cpp:84] Creating Layer concat0_25_concat0_25_0_split
I0225 16:26:26.702071 11251 net.cpp:406] concat0_25_concat0_25_0_split <- concat0_25
I0225 16:26:26.702080 11251 net.cpp:380] concat0_25_concat0_25_0_split -> concat0_25_concat0_25_0_split_0
I0225 16:26:26.702085 11251 net.cpp:380] concat0_25_concat0_25_0_split -> concat0_25_concat0_25_0_split_1
I0225 16:26:26.702170 11251 net.cpp:122] Setting up concat0_25_concat0_25_0_split
I0225 16:26:26.702178 11251 net.cpp:129] Top shape: 1 344 32 141 (1552128)
I0225 16:26:26.702183 11251 net.cpp:129] Top shape: 1 344 32 141 (1552128)
I0225 16:26:26.702185 11251 net.cpp:137] Memory required for data: 545779992
I0225 16:26:26.702189 11251 layer_factory.hpp:77] Creating layer conv0_26/bn
I0225 16:26:26.702198 11251 net.cpp:84] Creating Layer conv0_26/bn
I0225 16:26:26.702201 11251 net.cpp:406] conv0_26/bn <- concat0_25_concat0_25_0_split_0
I0225 16:26:26.702210 11251 net.cpp:380] conv0_26/bn -> conv0_26/bn
I0225 16:26:26.702702 11251 net.cpp:122] Setting up conv0_26/bn
I0225 16:26:26.702711 11251 net.cpp:129] Top shape: 1 344 32 141 (1552128)
I0225 16:26:26.702715 11251 net.cpp:137] Memory required for data: 551988504
I0225 16:26:26.702723 11251 layer_factory.hpp:77] Creating layer conv0_26/scale
I0225 16:26:26.702733 11251 net.cpp:84] Creating Layer conv0_26/scale
I0225 16:26:26.702739 11251 net.cpp:406] conv0_26/scale <- conv0_26/bn
I0225 16:26:26.702744 11251 net.cpp:367] conv0_26/scale -> conv0_26/bn (in-place)
I0225 16:26:26.702831 11251 layer_factory.hpp:77] Creating layer conv0_26/scale
I0225 16:26:26.703104 11251 net.cpp:122] Setting up conv0_26/scale
I0225 16:26:26.703112 11251 net.cpp:129] Top shape: 1 344 32 141 (1552128)
I0225 16:26:26.703116 11251 net.cpp:137] Memory required for data: 558197016
I0225 16:26:26.703124 11251 layer_factory.hpp:77] Creating layer relu0_26
I0225 16:26:26.703130 11251 net.cpp:84] Creating Layer relu0_26
I0225 16:26:26.703135 11251 net.cpp:406] relu0_26 <- conv0_26/bn
I0225 16:26:26.703140 11251 net.cpp:367] relu0_26 -> conv0_26/bn (in-place)
I0225 16:26:26.703404 11251 net.cpp:122] Setting up relu0_26
I0225 16:26:26.703414 11251 net.cpp:129] Top shape: 1 344 32 141 (1552128)
I0225 16:26:26.703418 11251 net.cpp:137] Memory required for data: 564405528
I0225 16:26:26.703423 11251 layer_factory.hpp:77] Creating layer conv0_26
I0225 16:26:26.703434 11251 net.cpp:84] Creating Layer conv0_26
I0225 16:26:26.703439 11251 net.cpp:406] conv0_26 <- conv0_26/bn
I0225 16:26:26.703451 11251 net.cpp:380] conv0_26 -> conv0_26
I0225 16:26:26.710249 11251 net.cpp:122] Setting up conv0_26
I0225 16:26:26.710266 11251 net.cpp:129] Top shape: 1 12 32 141 (54144)
I0225 16:26:26.710270 11251 net.cpp:137] Memory required for data: 564622104
I0225 16:26:26.710278 11251 layer_factory.hpp:77] Creating layer concat0_26
I0225 16:26:26.710288 11251 net.cpp:84] Creating Layer concat0_26
I0225 16:26:26.710294 11251 net.cpp:406] concat0_26 <- concat0_25_concat0_25_0_split_1
I0225 16:26:26.710300 11251 net.cpp:406] concat0_26 <- conv0_26
I0225 16:26:26.710306 11251 net.cpp:380] concat0_26 -> concat0_26
I0225 16:26:26.710367 11251 net.cpp:122] Setting up concat0_26
I0225 16:26:26.710376 11251 net.cpp:129] Top shape: 1 356 32 141 (1606272)
I0225 16:26:26.710379 11251 net.cpp:137] Memory required for data: 571047192
I0225 16:26:26.710382 11251 layer_factory.hpp:77] Creating layer concat0_26_concat0_26_0_split
I0225 16:26:26.710391 11251 net.cpp:84] Creating Layer concat0_26_concat0_26_0_split
I0225 16:26:26.710395 11251 net.cpp:406] concat0_26_concat0_26_0_split <- concat0_26
I0225 16:26:26.710400 11251 net.cpp:380] concat0_26_concat0_26_0_split -> concat0_26_concat0_26_0_split_0
I0225 16:26:26.710407 11251 net.cpp:380] concat0_26_concat0_26_0_split -> concat0_26_concat0_26_0_split_1
I0225 16:26:26.710491 11251 net.cpp:122] Setting up concat0_26_concat0_26_0_split
I0225 16:26:26.710499 11251 net.cpp:129] Top shape: 1 356 32 141 (1606272)
I0225 16:26:26.710503 11251 net.cpp:129] Top shape: 1 356 32 141 (1606272)
I0225 16:26:26.710506 11251 net.cpp:137] Memory required for data: 583897368
I0225 16:26:26.710510 11251 layer_factory.hpp:77] Creating layer conv0_27/bn
I0225 16:26:26.710518 11251 net.cpp:84] Creating Layer conv0_27/bn
I0225 16:26:26.710522 11251 net.cpp:406] conv0_27/bn <- concat0_26_concat0_26_0_split_0
I0225 16:26:26.710528 11251 net.cpp:380] conv0_27/bn -> conv0_27/bn
I0225 16:26:26.711038 11251 net.cpp:122] Setting up conv0_27/bn
I0225 16:26:26.711046 11251 net.cpp:129] Top shape: 1 356 32 141 (1606272)
I0225 16:26:26.711050 11251 net.cpp:137] Memory required for data: 590322456
I0225 16:26:26.711060 11251 layer_factory.hpp:77] Creating layer conv0_27/scale
I0225 16:26:26.711069 11251 net.cpp:84] Creating Layer conv0_27/scale
I0225 16:26:26.711074 11251 net.cpp:406] conv0_27/scale <- conv0_27/bn
I0225 16:26:26.711081 11251 net.cpp:367] conv0_27/scale -> conv0_27/bn (in-place)
I0225 16:26:26.711170 11251 layer_factory.hpp:77] Creating layer conv0_27/scale
I0225 16:26:26.711452 11251 net.cpp:122] Setting up conv0_27/scale
I0225 16:26:26.711462 11251 net.cpp:129] Top shape: 1 356 32 141 (1606272)
I0225 16:26:26.711465 11251 net.cpp:137] Memory required for data: 596747544
I0225 16:26:26.711472 11251 layer_factory.hpp:77] Creating layer relu0_27
I0225 16:26:26.711478 11251 net.cpp:84] Creating Layer relu0_27
I0225 16:26:26.711483 11251 net.cpp:406] relu0_27 <- conv0_27/bn
I0225 16:26:26.711488 11251 net.cpp:367] relu0_27 -> conv0_27/bn (in-place)
I0225 16:26:26.711766 11251 net.cpp:122] Setting up relu0_27
I0225 16:26:26.711774 11251 net.cpp:129] Top shape: 1 356 32 141 (1606272)
I0225 16:26:26.711778 11251 net.cpp:137] Memory required for data: 603172632
I0225 16:26:26.711782 11251 layer_factory.hpp:77] Creating layer conv0_27
I0225 16:26:26.711794 11251 net.cpp:84] Creating Layer conv0_27
I0225 16:26:26.711799 11251 net.cpp:406] conv0_27 <- conv0_27/bn
I0225 16:26:26.711807 11251 net.cpp:380] conv0_27 -> conv0_27
I0225 16:26:26.716626 11251 net.cpp:122] Setting up conv0_27
I0225 16:26:26.716650 11251 net.cpp:129] Top shape: 1 12 32 141 (54144)
I0225 16:26:26.716655 11251 net.cpp:137] Memory required for data: 603389208
I0225 16:26:26.716662 11251 layer_factory.hpp:77] Creating layer concat0_27
I0225 16:26:26.716673 11251 net.cpp:84] Creating Layer concat0_27
I0225 16:26:26.716678 11251 net.cpp:406] concat0_27 <- concat0_26_concat0_26_0_split_1
I0225 16:26:26.716684 11251 net.cpp:406] concat0_27 <- conv0_27
I0225 16:26:26.716691 11251 net.cpp:380] concat0_27 -> concat0_27
I0225 16:26:26.716751 11251 net.cpp:122] Setting up concat0_27
I0225 16:26:26.716759 11251 net.cpp:129] Top shape: 1 368 32 141 (1660416)
I0225 16:26:26.716763 11251 net.cpp:137] Memory required for data: 610030872
I0225 16:26:26.716766 11251 layer_factory.hpp:77] Creating layer concat0_27_concat0_27_0_split
I0225 16:26:26.716774 11251 net.cpp:84] Creating Layer concat0_27_concat0_27_0_split
I0225 16:26:26.716778 11251 net.cpp:406] concat0_27_concat0_27_0_split <- concat0_27
I0225 16:26:26.716784 11251 net.cpp:380] concat0_27_concat0_27_0_split -> concat0_27_concat0_27_0_split_0
I0225 16:26:26.716792 11251 net.cpp:380] concat0_27_concat0_27_0_split -> concat0_27_concat0_27_0_split_1
I0225 16:26:26.716871 11251 net.cpp:122] Setting up concat0_27_concat0_27_0_split
I0225 16:26:26.716878 11251 net.cpp:129] Top shape: 1 368 32 141 (1660416)
I0225 16:26:26.716882 11251 net.cpp:129] Top shape: 1 368 32 141 (1660416)
I0225 16:26:26.716886 11251 net.cpp:137] Memory required for data: 623314200
I0225 16:26:26.716889 11251 layer_factory.hpp:77] Creating layer conv0_28/bn
I0225 16:26:26.716897 11251 net.cpp:84] Creating Layer conv0_28/bn
I0225 16:26:26.716902 11251 net.cpp:406] conv0_28/bn <- concat0_27_concat0_27_0_split_0
I0225 16:26:26.716909 11251 net.cpp:380] conv0_28/bn -> conv0_28/bn
I0225 16:26:26.717393 11251 net.cpp:122] Setting up conv0_28/bn
I0225 16:26:26.717404 11251 net.cpp:129] Top shape: 1 368 32 141 (1660416)
I0225 16:26:26.717407 11251 net.cpp:137] Memory required for data: 629955864
I0225 16:26:26.717417 11251 layer_factory.hpp:77] Creating layer conv0_28/scale
I0225 16:26:26.717424 11251 net.cpp:84] Creating Layer conv0_28/scale
I0225 16:26:26.717428 11251 net.cpp:406] conv0_28/scale <- conv0_28/bn
I0225 16:26:26.717437 11251 net.cpp:367] conv0_28/scale -> conv0_28/bn (in-place)
I0225 16:26:26.717530 11251 layer_factory.hpp:77] Creating layer conv0_28/scale
I0225 16:26:26.717804 11251 net.cpp:122] Setting up conv0_28/scale
I0225 16:26:26.717813 11251 net.cpp:129] Top shape: 1 368 32 141 (1660416)
I0225 16:26:26.717818 11251 net.cpp:137] Memory required for data: 636597528
I0225 16:26:26.717824 11251 layer_factory.hpp:77] Creating layer relu0_28
I0225 16:26:26.717831 11251 net.cpp:84] Creating Layer relu0_28
I0225 16:26:26.717835 11251 net.cpp:406] relu0_28 <- conv0_28/bn
I0225 16:26:26.717842 11251 net.cpp:367] relu0_28 -> conv0_28/bn (in-place)
I0225 16:26:26.718122 11251 net.cpp:122] Setting up relu0_28
I0225 16:26:26.718134 11251 net.cpp:129] Top shape: 1 368 32 141 (1660416)
I0225 16:26:26.718142 11251 net.cpp:137] Memory required for data: 643239192
I0225 16:26:26.718147 11251 layer_factory.hpp:77] Creating layer conv0_28
I0225 16:26:26.718156 11251 net.cpp:84] Creating Layer conv0_28
I0225 16:26:26.718161 11251 net.cpp:406] conv0_28 <- conv0_28/bn
I0225 16:26:26.718170 11251 net.cpp:380] conv0_28 -> conv0_28
I0225 16:26:26.723031 11251 net.cpp:122] Setting up conv0_28
I0225 16:26:26.723049 11251 net.cpp:129] Top shape: 1 12 32 141 (54144)
I0225 16:26:26.723053 11251 net.cpp:137] Memory required for data: 643455768
I0225 16:26:26.723062 11251 layer_factory.hpp:77] Creating layer concat0_28
I0225 16:26:26.723070 11251 net.cpp:84] Creating Layer concat0_28
I0225 16:26:26.723075 11251 net.cpp:406] concat0_28 <- concat0_27_concat0_27_0_split_1
I0225 16:26:26.723081 11251 net.cpp:406] concat0_28 <- conv0_28
I0225 16:26:26.723088 11251 net.cpp:380] concat0_28 -> concat0_28
I0225 16:26:26.723151 11251 net.cpp:122] Setting up concat0_28
I0225 16:26:26.723158 11251 net.cpp:129] Top shape: 1 380 32 141 (1714560)
I0225 16:26:26.723162 11251 net.cpp:137] Memory required for data: 650314008
I0225 16:26:26.723165 11251 layer_factory.hpp:77] Creating layer concat0_28_concat0_28_0_split
I0225 16:26:26.723171 11251 net.cpp:84] Creating Layer concat0_28_concat0_28_0_split
I0225 16:26:26.723176 11251 net.cpp:406] concat0_28_concat0_28_0_split <- concat0_28
I0225 16:26:26.723189 11251 net.cpp:380] concat0_28_concat0_28_0_split -> concat0_28_concat0_28_0_split_0
I0225 16:26:26.723196 11251 net.cpp:380] concat0_28_concat0_28_0_split -> concat0_28_concat0_28_0_split_1
I0225 16:26:26.723278 11251 net.cpp:122] Setting up concat0_28_concat0_28_0_split
I0225 16:26:26.723284 11251 net.cpp:129] Top shape: 1 380 32 141 (1714560)
I0225 16:26:26.723289 11251 net.cpp:129] Top shape: 1 380 32 141 (1714560)
I0225 16:26:26.723292 11251 net.cpp:137] Memory required for data: 664030488
I0225 16:26:26.723296 11251 layer_factory.hpp:77] Creating layer conv0_29/bn
I0225 16:26:26.723302 11251 net.cpp:84] Creating Layer conv0_29/bn
I0225 16:26:26.723306 11251 net.cpp:406] conv0_29/bn <- concat0_28_concat0_28_0_split_0
I0225 16:26:26.723315 11251 net.cpp:380] conv0_29/bn -> conv0_29/bn
I0225 16:26:26.723804 11251 net.cpp:122] Setting up conv0_29/bn
I0225 16:26:26.723814 11251 net.cpp:129] Top shape: 1 380 32 141 (1714560)
I0225 16:26:26.723816 11251 net.cpp:137] Memory required for data: 670888728
I0225 16:26:26.723825 11251 layer_factory.hpp:77] Creating layer conv0_29/scale
I0225 16:26:26.723834 11251 net.cpp:84] Creating Layer conv0_29/scale
I0225 16:26:26.723839 11251 net.cpp:406] conv0_29/scale <- conv0_29/bn
I0225 16:26:26.723845 11251 net.cpp:367] conv0_29/scale -> conv0_29/bn (in-place)
I0225 16:26:26.723932 11251 layer_factory.hpp:77] Creating layer conv0_29/scale
I0225 16:26:26.724213 11251 net.cpp:122] Setting up conv0_29/scale
I0225 16:26:26.724222 11251 net.cpp:129] Top shape: 1 380 32 141 (1714560)
I0225 16:26:26.724226 11251 net.cpp:137] Memory required for data: 677746968
I0225 16:26:26.724233 11251 layer_factory.hpp:77] Creating layer relu0_29
I0225 16:26:26.724239 11251 net.cpp:84] Creating Layer relu0_29
I0225 16:26:26.724244 11251 net.cpp:406] relu0_29 <- conv0_29/bn
I0225 16:26:26.724249 11251 net.cpp:367] relu0_29 -> conv0_29/bn (in-place)
I0225 16:26:26.725662 11251 net.cpp:122] Setting up relu0_29
I0225 16:26:26.725678 11251 net.cpp:129] Top shape: 1 380 32 141 (1714560)
I0225 16:26:26.725682 11251 net.cpp:137] Memory required for data: 684605208
I0225 16:26:26.725687 11251 layer_factory.hpp:77] Creating layer conv0_29
I0225 16:26:26.725700 11251 net.cpp:84] Creating Layer conv0_29
I0225 16:26:26.725705 11251 net.cpp:406] conv0_29 <- conv0_29/bn
I0225 16:26:26.725713 11251 net.cpp:380] conv0_29 -> conv0_29
I0225 16:26:26.730626 11251 net.cpp:122] Setting up conv0_29
I0225 16:26:26.730643 11251 net.cpp:129] Top shape: 1 12 32 141 (54144)
I0225 16:26:26.730648 11251 net.cpp:137] Memory required for data: 684821784
I0225 16:26:26.730655 11251 layer_factory.hpp:77] Creating layer concat0_29
I0225 16:26:26.730669 11251 net.cpp:84] Creating Layer concat0_29
I0225 16:26:26.730674 11251 net.cpp:406] concat0_29 <- concat0_28_concat0_28_0_split_1
I0225 16:26:26.730679 11251 net.cpp:406] concat0_29 <- conv0_29
I0225 16:26:26.730689 11251 net.cpp:380] concat0_29 -> concat0_29
I0225 16:26:26.730751 11251 net.cpp:122] Setting up concat0_29
I0225 16:26:26.730759 11251 net.cpp:129] Top shape: 1 392 32 141 (1768704)
I0225 16:26:26.730762 11251 net.cpp:137] Memory required for data: 691896600
I0225 16:26:26.730767 11251 layer_factory.hpp:77] Creating layer BatchNorm1
I0225 16:26:26.730775 11251 net.cpp:84] Creating Layer BatchNorm1
I0225 16:26:26.730779 11251 net.cpp:406] BatchNorm1 <- concat0_29
I0225 16:26:26.730785 11251 net.cpp:380] BatchNorm1 -> BatchNorm1
I0225 16:26:26.731297 11251 net.cpp:122] Setting up BatchNorm1
I0225 16:26:26.731307 11251 net.cpp:129] Top shape: 1 392 32 141 (1768704)
I0225 16:26:26.731309 11251 net.cpp:137] Memory required for data: 698971416
I0225 16:26:26.731318 11251 layer_factory.hpp:77] Creating layer Scale1
I0225 16:26:26.731329 11251 net.cpp:84] Creating Layer Scale1
I0225 16:26:26.731333 11251 net.cpp:406] Scale1 <- BatchNorm1
I0225 16:26:26.731339 11251 net.cpp:367] Scale1 -> BatchNorm1 (in-place)
I0225 16:26:26.731431 11251 layer_factory.hpp:77] Creating layer Scale1
I0225 16:26:26.731721 11251 net.cpp:122] Setting up Scale1
I0225 16:26:26.731731 11251 net.cpp:129] Top shape: 1 392 32 141 (1768704)
I0225 16:26:26.731734 11251 net.cpp:137] Memory required for data: 706046232
I0225 16:26:26.731741 11251 layer_factory.hpp:77] Creating layer ReLU1
I0225 16:26:26.731748 11251 net.cpp:84] Creating Layer ReLU1
I0225 16:26:26.731752 11251 net.cpp:406] ReLU1 <- BatchNorm1
I0225 16:26:26.731757 11251 net.cpp:367] ReLU1 -> BatchNorm1 (in-place)
I0225 16:26:26.732030 11251 net.cpp:122] Setting up ReLU1
I0225 16:26:26.732040 11251 net.cpp:129] Top shape: 1 392 32 141 (1768704)
I0225 16:26:26.732044 11251 net.cpp:137] Memory required for data: 713121048
I0225 16:26:26.732048 11251 layer_factory.hpp:77] Creating layer conv0_blk
I0225 16:26:26.732061 11251 net.cpp:84] Creating Layer conv0_blk
I0225 16:26:26.732065 11251 net.cpp:406] conv0_blk <- BatchNorm1
I0225 16:26:26.732072 11251 net.cpp:380] conv0_blk -> conv0_blk
I0225 16:26:26.739353 11251 net.cpp:122] Setting up conv0_blk
I0225 16:26:26.739369 11251 net.cpp:129] Top shape: 1 196 32 141 (884352)
I0225 16:26:26.739372 11251 net.cpp:137] Memory required for data: 716658456
I0225 16:26:26.739379 11251 layer_factory.hpp:77] Creating layer pool0
I0225 16:26:26.739388 11251 net.cpp:84] Creating Layer pool0
I0225 16:26:26.739393 11251 net.cpp:406] pool0 <- conv0_blk
I0225 16:26:26.739399 11251 net.cpp:380] pool0 -> pool0
I0225 16:26:26.739671 11251 net.cpp:122] Setting up pool0
I0225 16:26:26.739681 11251 net.cpp:129] Top shape: 1 196 16 71 (222656)
I0225 16:26:26.739684 11251 net.cpp:137] Memory required for data: 717549080
I0225 16:26:26.739688 11251 layer_factory.hpp:77] Creating layer pool0_pool0_0_split
I0225 16:26:26.739694 11251 net.cpp:84] Creating Layer pool0_pool0_0_split
I0225 16:26:26.739698 11251 net.cpp:406] pool0_pool0_0_split <- pool0
I0225 16:26:26.739706 11251 net.cpp:380] pool0_pool0_0_split -> pool0_pool0_0_split_0
I0225 16:26:26.739711 11251 net.cpp:380] pool0_pool0_0_split -> pool0_pool0_0_split_1
I0225 16:26:26.739789 11251 net.cpp:122] Setting up pool0_pool0_0_split
I0225 16:26:26.739794 11251 net.cpp:129] Top shape: 1 196 16 71 (222656)
I0225 16:26:26.739799 11251 net.cpp:129] Top shape: 1 196 16 71 (222656)
I0225 16:26:26.739801 11251 net.cpp:137] Memory required for data: 719330328
I0225 16:26:26.739804 11251 layer_factory.hpp:77] Creating layer conv1_0/bn
I0225 16:26:26.739812 11251 net.cpp:84] Creating Layer conv1_0/bn
I0225 16:26:26.739815 11251 net.cpp:406] conv1_0/bn <- pool0_pool0_0_split_0
I0225 16:26:26.739820 11251 net.cpp:380] conv1_0/bn -> conv1_0/bn
I0225 16:26:26.740234 11251 net.cpp:122] Setting up conv1_0/bn
I0225 16:26:26.740242 11251 net.cpp:129] Top shape: 1 196 16 71 (222656)
I0225 16:26:26.740244 11251 net.cpp:137] Memory required for data: 720220952
I0225 16:26:26.740255 11251 layer_factory.hpp:77] Creating layer conv1_0/scale
I0225 16:26:26.740265 11251 net.cpp:84] Creating Layer conv1_0/scale
I0225 16:26:26.740269 11251 net.cpp:406] conv1_0/scale <- conv1_0/bn
I0225 16:26:26.740275 11251 net.cpp:367] conv1_0/scale -> conv1_0/bn (in-place)
I0225 16:26:26.740348 11251 layer_factory.hpp:77] Creating layer conv1_0/scale
I0225 16:26:26.740587 11251 net.cpp:122] Setting up conv1_0/scale
I0225 16:26:26.740595 11251 net.cpp:129] Top shape: 1 196 16 71 (222656)
I0225 16:26:26.740598 11251 net.cpp:137] Memory required for data: 721111576
I0225 16:26:26.740604 11251 layer_factory.hpp:77] Creating layer relu1_0
I0225 16:26:26.740609 11251 net.cpp:84] Creating Layer relu1_0
I0225 16:26:26.740613 11251 net.cpp:406] relu1_0 <- conv1_0/bn
I0225 16:26:26.740617 11251 net.cpp:367] relu1_0 -> conv1_0/bn (in-place)
I0225 16:26:26.741894 11251 net.cpp:122] Setting up relu1_0
I0225 16:26:26.741907 11251 net.cpp:129] Top shape: 1 196 16 71 (222656)
I0225 16:26:26.741914 11251 net.cpp:137] Memory required for data: 722002200
I0225 16:26:26.741917 11251 layer_factory.hpp:77] Creating layer conv1_0
I0225 16:26:26.741927 11251 net.cpp:84] Creating Layer conv1_0
I0225 16:26:26.741931 11251 net.cpp:406] conv1_0 <- conv1_0/bn
I0225 16:26:26.741940 11251 net.cpp:380] conv1_0 -> conv1_0
I0225 16:26:26.744652 11251 net.cpp:122] Setting up conv1_0
I0225 16:26:26.744670 11251 net.cpp:129] Top shape: 1 12 16 71 (13632)
I0225 16:26:26.744674 11251 net.cpp:137] Memory required for data: 722056728
I0225 16:26:26.744680 11251 layer_factory.hpp:77] Creating layer concat1_0
I0225 16:26:26.744688 11251 net.cpp:84] Creating Layer concat1_0
I0225 16:26:26.744691 11251 net.cpp:406] concat1_0 <- pool0_pool0_0_split_1
I0225 16:26:26.744698 11251 net.cpp:406] concat1_0 <- conv1_0
I0225 16:26:26.744704 11251 net.cpp:380] concat1_0 -> concat1_0
I0225 16:26:26.744756 11251 net.cpp:122] Setting up concat1_0
I0225 16:26:26.744762 11251 net.cpp:129] Top shape: 1 208 16 71 (236288)
I0225 16:26:26.744765 11251 net.cpp:137] Memory required for data: 723001880
I0225 16:26:26.744768 11251 layer_factory.hpp:77] Creating layer concat1_0_concat1_0_0_split
I0225 16:26:26.744774 11251 net.cpp:84] Creating Layer concat1_0_concat1_0_0_split
I0225 16:26:26.744777 11251 net.cpp:406] concat1_0_concat1_0_0_split <- concat1_0
I0225 16:26:26.744784 11251 net.cpp:380] concat1_0_concat1_0_0_split -> concat1_0_concat1_0_0_split_0
I0225 16:26:26.744791 11251 net.cpp:380] concat1_0_concat1_0_0_split -> concat1_0_concat1_0_0_split_1
I0225 16:26:26.744863 11251 net.cpp:122] Setting up concat1_0_concat1_0_0_split
I0225 16:26:26.744869 11251 net.cpp:129] Top shape: 1 208 16 71 (236288)
I0225 16:26:26.744874 11251 net.cpp:129] Top shape: 1 208 16 71 (236288)
I0225 16:26:26.744876 11251 net.cpp:137] Memory required for data: 724892184
I0225 16:26:26.744879 11251 layer_factory.hpp:77] Creating layer conv1_1/bn
I0225 16:26:26.744887 11251 net.cpp:84] Creating Layer conv1_1/bn
I0225 16:26:26.744891 11251 net.cpp:406] conv1_1/bn <- concat1_0_concat1_0_0_split_0
I0225 16:26:26.744896 11251 net.cpp:380] conv1_1/bn -> conv1_1/bn
I0225 16:26:26.745317 11251 net.cpp:122] Setting up conv1_1/bn
I0225 16:26:26.745326 11251 net.cpp:129] Top shape: 1 208 16 71 (236288)
I0225 16:26:26.745328 11251 net.cpp:137] Memory required for data: 725837336
I0225 16:26:26.745335 11251 layer_factory.hpp:77] Creating layer conv1_1/scale
I0225 16:26:26.745342 11251 net.cpp:84] Creating Layer conv1_1/scale
I0225 16:26:26.745347 11251 net.cpp:406] conv1_1/scale <- conv1_1/bn
I0225 16:26:26.745353 11251 net.cpp:367] conv1_1/scale -> conv1_1/bn (in-place)
I0225 16:26:26.745427 11251 layer_factory.hpp:77] Creating layer conv1_1/scale
I0225 16:26:26.745667 11251 net.cpp:122] Setting up conv1_1/scale
I0225 16:26:26.745676 11251 net.cpp:129] Top shape: 1 208 16 71 (236288)
I0225 16:26:26.745678 11251 net.cpp:137] Memory required for data: 726782488
I0225 16:26:26.745684 11251 layer_factory.hpp:77] Creating layer relu1_1
I0225 16:26:26.745702 11251 net.cpp:84] Creating Layer relu1_1
I0225 16:26:26.745707 11251 net.cpp:406] relu1_1 <- conv1_1/bn
I0225 16:26:26.745712 11251 net.cpp:367] relu1_1 -> conv1_1/bn (in-place)
I0225 16:26:26.745949 11251 net.cpp:122] Setting up relu1_1
I0225 16:26:26.745960 11251 net.cpp:129] Top shape: 1 208 16 71 (236288)
I0225 16:26:26.745964 11251 net.cpp:137] Memory required for data: 727727640
I0225 16:26:26.745967 11251 layer_factory.hpp:77] Creating layer conv1_1
I0225 16:26:26.745978 11251 net.cpp:84] Creating Layer conv1_1
I0225 16:26:26.745981 11251 net.cpp:406] conv1_1 <- conv1_1/bn
I0225 16:26:26.745987 11251 net.cpp:380] conv1_1 -> conv1_1
I0225 16:26:26.748790 11251 net.cpp:122] Setting up conv1_1
I0225 16:26:26.748805 11251 net.cpp:129] Top shape: 1 12 16 71 (13632)
I0225 16:26:26.748807 11251 net.cpp:137] Memory required for data: 727782168
I0225 16:26:26.748814 11251 layer_factory.hpp:77] Creating layer concat1_1
I0225 16:26:26.748821 11251 net.cpp:84] Creating Layer concat1_1
I0225 16:26:26.748826 11251 net.cpp:406] concat1_1 <- concat1_0_concat1_0_0_split_1
I0225 16:26:26.748831 11251 net.cpp:406] concat1_1 <- conv1_1
I0225 16:26:26.748838 11251 net.cpp:380] concat1_1 -> concat1_1
I0225 16:26:26.748890 11251 net.cpp:122] Setting up concat1_1
I0225 16:26:26.748898 11251 net.cpp:129] Top shape: 1 220 16 71 (249920)
I0225 16:26:26.748900 11251 net.cpp:137] Memory required for data: 728781848
I0225 16:26:26.748903 11251 layer_factory.hpp:77] Creating layer concat1_1_concat1_1_0_split
I0225 16:26:26.748908 11251 net.cpp:84] Creating Layer concat1_1_concat1_1_0_split
I0225 16:26:26.748914 11251 net.cpp:406] concat1_1_concat1_1_0_split <- concat1_1
I0225 16:26:26.748919 11251 net.cpp:380] concat1_1_concat1_1_0_split -> concat1_1_concat1_1_0_split_0
I0225 16:26:26.748925 11251 net.cpp:380] concat1_1_concat1_1_0_split -> concat1_1_concat1_1_0_split_1
I0225 16:26:26.749008 11251 net.cpp:122] Setting up concat1_1_concat1_1_0_split
I0225 16:26:26.749014 11251 net.cpp:129] Top shape: 1 220 16 71 (249920)
I0225 16:26:26.749018 11251 net.cpp:129] Top shape: 1 220 16 71 (249920)
I0225 16:26:26.749022 11251 net.cpp:137] Memory required for data: 730781208
I0225 16:26:26.749024 11251 layer_factory.hpp:77] Creating layer conv1_2/bn
I0225 16:26:26.749032 11251 net.cpp:84] Creating Layer conv1_2/bn
I0225 16:26:26.749037 11251 net.cpp:406] conv1_2/bn <- concat1_1_concat1_1_0_split_0
I0225 16:26:26.749042 11251 net.cpp:380] conv1_2/bn -> conv1_2/bn
I0225 16:26:26.749482 11251 net.cpp:122] Setting up conv1_2/bn
I0225 16:26:26.749490 11251 net.cpp:129] Top shape: 1 220 16 71 (249920)
I0225 16:26:26.749493 11251 net.cpp:137] Memory required for data: 731780888
I0225 16:26:26.749501 11251 layer_factory.hpp:77] Creating layer conv1_2/scale
I0225 16:26:26.749511 11251 net.cpp:84] Creating Layer conv1_2/scale
I0225 16:26:26.749514 11251 net.cpp:406] conv1_2/scale <- conv1_2/bn
I0225 16:26:26.749519 11251 net.cpp:367] conv1_2/scale -> conv1_2/bn (in-place)
I0225 16:26:26.749595 11251 layer_factory.hpp:77] Creating layer conv1_2/scale
I0225 16:26:26.749841 11251 net.cpp:122] Setting up conv1_2/scale
I0225 16:26:26.749850 11251 net.cpp:129] Top shape: 1 220 16 71 (249920)
I0225 16:26:26.749852 11251 net.cpp:137] Memory required for data: 732780568
I0225 16:26:26.749858 11251 layer_factory.hpp:77] Creating layer relu1_2
I0225 16:26:26.749866 11251 net.cpp:84] Creating Layer relu1_2
I0225 16:26:26.749871 11251 net.cpp:406] relu1_2 <- conv1_2/bn
I0225 16:26:26.749874 11251 net.cpp:367] relu1_2 -> conv1_2/bn (in-place)
I0225 16:26:26.750110 11251 net.cpp:122] Setting up relu1_2
I0225 16:26:26.750118 11251 net.cpp:129] Top shape: 1 220 16 71 (249920)
I0225 16:26:26.750121 11251 net.cpp:137] Memory required for data: 733780248
I0225 16:26:26.750125 11251 layer_factory.hpp:77] Creating layer conv1_2
I0225 16:26:26.750136 11251 net.cpp:84] Creating Layer conv1_2
I0225 16:26:26.750140 11251 net.cpp:406] conv1_2 <- conv1_2/bn
I0225 16:26:26.750149 11251 net.cpp:380] conv1_2 -> conv1_2
I0225 16:26:26.753010 11251 net.cpp:122] Setting up conv1_2
I0225 16:26:26.753029 11251 net.cpp:129] Top shape: 1 12 16 71 (13632)
I0225 16:26:26.753033 11251 net.cpp:137] Memory required for data: 733834776
I0225 16:26:26.753039 11251 layer_factory.hpp:77] Creating layer concat1_2
I0225 16:26:26.753046 11251 net.cpp:84] Creating Layer concat1_2
I0225 16:26:26.753051 11251 net.cpp:406] concat1_2 <- concat1_1_concat1_1_0_split_1
I0225 16:26:26.753057 11251 net.cpp:406] concat1_2 <- conv1_2
I0225 16:26:26.753063 11251 net.cpp:380] concat1_2 -> concat1_2
I0225 16:26:26.753115 11251 net.cpp:122] Setting up concat1_2
I0225 16:26:26.753123 11251 net.cpp:129] Top shape: 1 232 16 71 (263552)
I0225 16:26:26.753125 11251 net.cpp:137] Memory required for data: 734888984
I0225 16:26:26.753129 11251 layer_factory.hpp:77] Creating layer concat1_2_concat1_2_0_split
I0225 16:26:26.753135 11251 net.cpp:84] Creating Layer concat1_2_concat1_2_0_split
I0225 16:26:26.753139 11251 net.cpp:406] concat1_2_concat1_2_0_split <- concat1_2
I0225 16:26:26.753144 11251 net.cpp:380] concat1_2_concat1_2_0_split -> concat1_2_concat1_2_0_split_0
I0225 16:26:26.753149 11251 net.cpp:380] concat1_2_concat1_2_0_split -> concat1_2_concat1_2_0_split_1
I0225 16:26:26.753221 11251 net.cpp:122] Setting up concat1_2_concat1_2_0_split
I0225 16:26:26.753227 11251 net.cpp:129] Top shape: 1 232 16 71 (263552)
I0225 16:26:26.753232 11251 net.cpp:129] Top shape: 1 232 16 71 (263552)
I0225 16:26:26.753234 11251 net.cpp:137] Memory required for data: 736997400
I0225 16:26:26.753237 11251 layer_factory.hpp:77] Creating layer conv1_3/bn
I0225 16:26:26.753245 11251 net.cpp:84] Creating Layer conv1_3/bn
I0225 16:26:26.753248 11251 net.cpp:406] conv1_3/bn <- concat1_2_concat1_2_0_split_0
I0225 16:26:26.753253 11251 net.cpp:380] conv1_3/bn -> conv1_3/bn
…
I0225 16:26:30.210496 11251 net.cpp:122] Setting up relu1_46
I0225 16:26:30.210507 11251 net.cpp:129] Top shape: 1 748 19 37 (525844)
I0225 16:26:30.210512 11251 net.cpp:137] Memory required for data: 822384552
I0225 16:26:30.210516 11251 layer_factory.hpp:77] Creating layer conv1_46
I0225 16:26:30.210530 11251 net.cpp:84] Creating Layer conv1_46
I0225 16:26:30.210536 11251 net.cpp:406] conv1_46 <- conv1_46/bn
I0225 16:26:30.210544 11251 net.cpp:380] conv1_46 -> conv1_46
I0225 16:26:30.217151 11251 net.cpp:122] Setting up conv1_46
I0225 16:26:30.217169 11251 net.cpp:129] Top shape: 1 12 19 37 (8436)
I0225 16:26:30.217173 11251 net.cpp:137] Memory required for data: 822418296
I0225 16:26:30.217180 11251 layer_factory.hpp:77] Creating layer concat1_46
I0225 16:26:30.217190 11251 net.cpp:84] Creating Layer concat1_46
I0225 16:26:30.217195 11251 net.cpp:406] concat1_46 <- concat1_45_concat1_45_0_split_1
I0225 16:26:30.217201 11251 net.cpp:406] concat1_46 <- conv1_46
I0225 16:26:30.217211 11251 net.cpp:380] concat1_46 -> concat1_46
I0225 16:26:30.217280 11251 net.cpp:122] Setting up concat1_46
I0225 16:26:30.217289 11251 net.cpp:129] Top shape: 1 760 19 37 (534280)
I0225 16:26:30.217293 11251 net.cpp:137] Memory required for data: 824555416
I0225 16:26:30.217298 11251 layer_factory.hpp:77] Creating layer concat1_46_concat1_46_0_split
I0225 16:26:30.217306 11251 net.cpp:84] Creating Layer concat1_46_concat1_46_0_split
I0225 16:26:30.217310 11251 net.cpp:406] concat1_46_concat1_46_0_split <- concat1_46
I0225 16:26:30.217317 11251 net.cpp:380] concat1_46_concat1_46_0_split -> concat1_46_concat1_46_0_split_0
I0225 16:26:30.217325 11251 net.cpp:380] concat1_46_concat1_46_0_split -> concat1_46_concat1_46_0_split_1
I0225 16:26:30.217416 11251 net.cpp:122] Setting up concat1_46_concat1_46_0_split
I0225 16:26:30.217423 11251 net.cpp:129] Top shape: 1 760 19 37 (534280)
I0225 16:26:30.217428 11251 net.cpp:129] Top shape: 1 760 19 37 (534280)
I0225 16:26:30.217432 11251 net.cpp:137] Memory required for data: 828829656
I0225 16:26:30.217435 11251 layer_factory.hpp:77] Creating layer conv1_47/bn
I0225 16:26:30.217445 11251 net.cpp:84] Creating Layer conv1_47/bn
I0225 16:26:30.217449 11251 net.cpp:406] conv1_47/bn <- concat1_46_concat1_46_0_split_0
I0225 16:26:30.217456 11251 net.cpp:380] conv1_47/bn -> conv1_47/bn
I0225 16:26:30.218102 11251 net.cpp:122] Setting up conv1_47/bn
I0225 16:26:30.218113 11251 net.cpp:129] Top shape: 1 760 19 37 (534280)
I0225 16:26:30.218117 11251 net.cpp:137] Memory required for data: 830966776
I0225 16:26:30.218127 11251 layer_factory.hpp:77] Creating layer conv1_47/scale
I0225 16:26:30.218142 11251 net.cpp:84] Creating Layer conv1_47/scale
I0225 16:26:30.218147 11251 net.cpp:406] conv1_47/scale <- conv1_47/bn
I0225 16:26:30.218153 11251 net.cpp:367] conv1_47/scale -> conv1_47/bn (in-place)
I0225 16:26:30.218282 11251 layer_factory.hpp:77] Creating layer conv1_47/scale
I0225 16:26:30.218672 11251 net.cpp:122] Setting up conv1_47/scale
I0225 16:26:30.218681 11251 net.cpp:129] Top shape: 1 760 19 37 (534280)
I0225 16:26:30.218689 11251 net.cpp:137] Memory required for data: 833103896
I0225 16:26:30.218698 11251 layer_factory.hpp:77] Creating layer relu1_47
I0225 16:26:30.218704 11251 net.cpp:84] Creating Layer relu1_47
I0225 16:26:30.218709 11251 net.cpp:406] relu1_47 <- conv1_47/bn
I0225 16:26:30.218715 11251 net.cpp:367] relu1_47 -> conv1_47/bn (in-place)
I0225 16:26:30.219069 11251 net.cpp:122] Setting up relu1_47
I0225 16:26:30.219081 11251 net.cpp:129] Top shape: 1 760 19 37 (534280)
I0225 16:26:30.219085 11251 net.cpp:137] Memory required for data: 835241016
I0225 16:26:30.219089 11251 layer_factory.hpp:77] Creating layer conv1_47
I0225 16:26:30.219103 11251 net.cpp:84] Creating Layer conv1_47
I0225 16:26:30.219108 11251 net.cpp:406] conv1_47 <- conv1_47/bn
I0225 16:26:30.219118 11251 net.cpp:380] conv1_47 -> conv1_47
I0225 16:26:30.225747 11251 net.cpp:122] Setting up conv1_47
I0225 16:26:30.225765 11251 net.cpp:129] Top shape: 1 12 19 37 (8436)
I0225 16:26:30.225769 11251 net.cpp:137] Memory required for data: 835274760
I0225 16:26:30.225777 11251 layer_factory.hpp:77] Creating layer concat1_47
I0225 16:26:30.225786 11251 net.cpp:84] Creating Layer concat1_47
I0225 16:26:30.225791 11251 net.cpp:406] concat1_47 <- concat1_46_concat1_46_0_split_1
I0225 16:26:30.225805 11251 net.cpp:406] concat1_47 <- conv1_47
I0225 16:26:30.225811 11251 net.cpp:380] concat1_47 -> concat1_47
I0225 16:26:30.225883 11251 net.cpp:122] Setting up concat1_47
I0225 16:26:30.225891 11251 net.cpp:129] Top shape: 1 772 19 37 (542716)
I0225 16:26:30.225895 11251 net.cpp:137] Memory required for data: 837445624
I0225 16:26:30.225899 11251 layer_factory.hpp:77] Creating layer concat1_47_concat1_47_0_split
I0225 16:26:30.225908 11251 net.cpp:84] Creating Layer concat1_47_concat1_47_0_split
I0225 16:26:30.225913 11251 net.cpp:406] concat1_47_concat1_47_0_split <- concat1_47
I0225 16:26:30.225919 11251 net.cpp:380] concat1_47_concat1_47_0_split -> concat1_47_concat1_47_0_split_0
I0225 16:26:30.225926 11251 net.cpp:380] concat1_47_concat1_47_0_split -> concat1_47_concat1_47_0_split_1
I0225 16:26:30.226017 11251 net.cpp:122] Setting up concat1_47_concat1_47_0_split
I0225 16:26:30.226027 11251 net.cpp:129] Top shape: 1 772 19 37 (542716)
I0225 16:26:30.226032 11251 net.cpp:129] Top shape: 1 772 19 37 (542716)
I0225 16:26:30.226034 11251 net.cpp:137] Memory required for data: 841787352
I0225 16:26:30.226038 11251 layer_factory.hpp:77] Creating layer conv1_48/bn
I0225 16:26:30.226047 11251 net.cpp:84] Creating Layer conv1_48/bn
I0225 16:26:30.226052 11251 net.cpp:406] conv1_48/bn <- concat1_47_concat1_47_0_split_0
I0225 16:26:30.226060 11251 net.cpp:380] conv1_48/bn -> conv1_48/bn
I0225 16:26:30.226729 11251 net.cpp:122] Setting up conv1_48/bn
I0225 16:26:30.226740 11251 net.cpp:129] Top shape: 1 772 19 37 (542716)
I0225 16:26:30.226744 11251 net.cpp:137] Memory required for data: 843958216
I0225 16:26:30.226758 11251 layer_factory.hpp:77] Creating layer conv1_48/scale
I0225 16:26:30.226766 11251 net.cpp:84] Creating Layer conv1_48/scale
I0225 16:26:30.226771 11251 net.cpp:406] conv1_48/scale <- conv1_48/bn
I0225 16:26:30.226778 11251 net.cpp:367] conv1_48/scale -> conv1_48/bn (in-place)
I0225 16:26:30.226903 11251 layer_factory.hpp:77] Creating layer conv1_48/scale
I0225 16:26:30.227298 11251 net.cpp:122] Setting up conv1_48/scale
I0225 16:26:30.227308 11251 net.cpp:129] Top shape: 1 772 19 37 (542716)
I0225 16:26:30.227313 11251 net.cpp:137] Memory required for data: 846129080
I0225 16:26:30.227320 11251 layer_factory.hpp:77] Creating layer relu1_48
I0225 16:26:30.227327 11251 net.cpp:84] Creating Layer relu1_48
I0225 16:26:30.227332 11251 net.cpp:406] relu1_48 <- conv1_48/bn
I0225 16:26:30.227339 11251 net.cpp:367] relu1_48 -> conv1_48/bn (in-place)
I0225 16:26:30.228894 11251 net.cpp:122] Setting up relu1_48
I0225 16:26:30.228911 11251 net.cpp:129] Top shape: 1 772 19 37 (542716)
I0225 16:26:30.228915 11251 net.cpp:137] Memory required for data: 848299944
I0225 16:26:30.228919 11251 layer_factory.hpp:77] Creating layer conv1_48
I0225 16:26:30.228934 11251 net.cpp:84] Creating Layer conv1_48
I0225 16:26:30.228945 11251 net.cpp:406] conv1_48 <- conv1_48/bn
I0225 16:26:30.228955 11251 net.cpp:380] conv1_48 -> conv1_48
I0225 16:26:30.235625 11251 net.cpp:122] Setting up conv1_48
I0225 16:26:30.235642 11251 net.cpp:129] Top shape: 1 12 19 37 (8436)
I0225 16:26:30.235646 11251 net.cpp:137] Memory required for data: 848333688
I0225 16:26:30.235654 11251 layer_factory.hpp:77] Creating layer concat1_48
I0225 16:26:30.235666 11251 net.cpp:84] Creating Layer concat1_48
I0225 16:26:30.235671 11251 net.cpp:406] concat1_48 <- concat1_47_concat1_47_0_split_1
I0225 16:26:30.235678 11251 net.cpp:406] concat1_48 <- conv1_48
I0225 16:26:30.235685 11251 net.cpp:380] concat1_48 -> concat1_48
I0225 16:26:30.235760 11251 net.cpp:122] Setting up concat1_48
I0225 16:26:30.235769 11251 net.cpp:129] Top shape: 1 784 19 37 (551152)
I0225 16:26:30.235774 11251 net.cpp:137] Memory required for data: 850538296
I0225 16:26:30.235777 11251 layer_factory.hpp:77] Creating layer concat1_48_concat1_48_0_split
I0225 16:26:30.235785 11251 net.cpp:84] Creating Layer concat1_48_concat1_48_0_split
I0225 16:26:30.235788 11251 net.cpp:406] concat1_48_concat1_48_0_split <- concat1_48
I0225 16:26:30.235797 11251 net.cpp:380] concat1_48_concat1_48_0_split -> concat1_48_concat1_48_0_split_0
I0225 16:26:30.235805 11251 net.cpp:380] concat1_48_concat1_48_0_split -> concat1_48_concat1_48_0_split_1
I0225 16:26:30.235896 11251 net.cpp:122] Setting up concat1_48_concat1_48_0_split
I0225 16:26:30.235905 11251 net.cpp:129] Top shape: 1 784 19 37 (551152)
I0225 16:26:30.235910 11251 net.cpp:129] Top shape: 1 784 19 37 (551152)
I0225 16:26:30.235913 11251 net.cpp:137] Memory required for data: 854947512
I0225 16:26:30.235918 11251 layer_factory.hpp:77] Creating layer conv1_49/bn
I0225 16:26:30.235927 11251 net.cpp:84] Creating Layer conv1_49/bn
I0225 16:26:30.235932 11251 net.cpp:406] conv1_49/bn <- concat1_48_concat1_48_0_split_0
I0225 16:26:30.235940 11251 net.cpp:380] conv1_49/bn -> conv1_49/bn
I0225 16:26:30.236595 11251 net.cpp:122] Setting up conv1_49/bn
I0225 16:26:30.236606 11251 net.cpp:129] Top shape: 1 784 19 37 (551152)
I0225 16:26:30.236610 11251 net.cpp:137] Memory required for data: 857152120
I0225 16:26:30.236619 11251 layer_factory.hpp:77] Creating layer conv1_49/scale
I0225 16:26:30.236635 11251 net.cpp:84] Creating Layer conv1_49/scale
I0225 16:26:30.236640 11251 net.cpp:406] conv1_49/scale <- conv1_49/bn
I0225 16:26:30.236649 11251 net.cpp:367] conv1_49/scale -> conv1_49/bn (in-place)
I0225 16:26:30.236781 11251 layer_factory.hpp:77] Creating layer conv1_49/scale
I0225 16:26:30.237176 11251 net.cpp:122] Setting up conv1_49/scale
I0225 16:26:30.237187 11251 net.cpp:129] Top shape: 1 784 19 37 (551152)
I0225 16:26:30.237191 11251 net.cpp:137] Memory required for data: 859356728
I0225 16:26:30.237200 11251 layer_factory.hpp:77] Creating layer relu1_49
I0225 16:26:30.237206 11251 net.cpp:84] Creating Layer relu1_49
I0225 16:26:30.237211 11251 net.cpp:406] relu1_49 <- conv1_49/bn
I0225 16:26:30.237218 11251 net.cpp:367] relu1_49 -> conv1_49/bn (in-place)
I0225 16:26:30.237571 11251 net.cpp:122] Setting up relu1_49
I0225 16:26:30.237586 11251 net.cpp:129] Top shape: 1 784 19 37 (551152)
I0225 16:26:30.237589 11251 net.cpp:137] Memory required for data: 861561336
I0225 16:26:30.237593 11251 layer_factory.hpp:77] Creating layer conv1_49
I0225 16:26:30.237607 11251 net.cpp:84] Creating Layer conv1_49
I0225 16:26:30.237613 11251 net.cpp:406] conv1_49 <- conv1_49/bn
I0225 16:26:30.237622 11251 net.cpp:380] conv1_49 -> conv1_49
I0225 16:26:30.244391 11251 net.cpp:122] Setting up conv1_49
I0225 16:26:30.244408 11251 net.cpp:129] Top shape: 1 12 19 37 (8436)
I0225 16:26:30.244412 11251 net.cpp:137] Memory required for data: 861595080
I0225 16:26:30.244421 11251 layer_factory.hpp:77] Creating layer concat1_49
I0225 16:26:30.244429 11251 net.cpp:84] Creating Layer concat1_49
I0225 16:26:30.244434 11251 net.cpp:406] concat1_49 <- concat1_48_concat1_48_0_split_1
I0225 16:26:30.244441 11251 net.cpp:406] concat1_49 <- conv1_49
I0225 16:26:30.244457 11251 net.cpp:380] concat1_49 -> concat1_49
I0225 16:26:30.244530 11251 net.cpp:122] Setting up concat1_49
I0225 16:26:30.244539 11251 net.cpp:129] Top shape: 1 796 19 37 (559588)
I0225 16:26:30.244542 11251 net.cpp:137] Memory required for data: 863833432
I0225 16:26:30.244546 11251 layer_factory.hpp:77] Creating layer concat1_49_concat1_49_0_split
I0225 16:26:30.244555 11251 net.cpp:84] Creating Layer concat1_49_concat1_49_0_split
I0225 16:26:30.244560 11251 net.cpp:406] concat1_49_concat1_49_0_split <- concat1_49
I0225 16:26:30.244565 11251 net.cpp:380] concat1_49_concat1_49_0_split -> concat1_49_concat1_49_0_split_0
I0225 16:26:30.244573 11251 net.cpp:380] concat1_49_concat1_49_0_split -> concat1_49_concat1_49_0_split_1
I0225 16:26:30.244678 11251 net.cpp:122] Setting up concat1_49_concat1_49_0_split
I0225 16:26:30.244688 11251 net.cpp:129] Top shape: 1 796 19 37 (559588)
I0225 16:26:30.244693 11251 net.cpp:129] Top shape: 1 796 19 37 (559588)
I0225 16:26:30.244696 11251 net.cpp:137] Memory required for data: 868310136
I0225 16:26:30.244700 11251 layer_factory.hpp:77] Creating layer conv1_50/bn
I0225 16:26:30.244709 11251 net.cpp:84] Creating Layer conv1_50/bn
I0225 16:26:30.244714 11251 net.cpp:406] conv1_50/bn <- concat1_49_concat1_49_0_split_0
I0225 16:26:30.244722 11251 net.cpp:380] conv1_50/bn -> conv1_50/bn
I0225 16:26:30.245367 11251 net.cpp:122] Setting up conv1_50/bn
I0225 16:26:30.245376 11251 net.cpp:129] Top shape: 1 796 19 37 (559588)
I0225 16:26:30.245380 11251 net.cpp:137] Memory required for data: 870548488
I0225 16:26:30.245389 11251 layer_factory.hpp:77] Creating layer conv1_50/scale
I0225 16:26:30.245400 11251 net.cpp:84] Creating Layer conv1_50/scale
I0225 16:26:30.245406 11251 net.cpp:406] conv1_50/scale <- conv1_50/bn
I0225 16:26:30.245412 11251 net.cpp:367] conv1_50/scale -> conv1_50/bn (in-place)
I0225 16:26:30.245537 11251 layer_factory.hpp:77] Creating layer conv1_50/scale
I0225 16:26:30.245929 11251 net.cpp:122] Setting up conv1_50/scale
I0225 16:26:30.245940 11251 net.cpp:129] Top shape: 1 796 19 37 (559588)
I0225 16:26:30.245944 11251 net.cpp:137] Memory required for data: 872786840
I0225 16:26:30.245952 11251 layer_factory.hpp:77] Creating layer relu1_50
I0225 16:26:30.245959 11251 net.cpp:84] Creating Layer relu1_50
I0225 16:26:30.245965 11251 net.cpp:406] relu1_50 <- conv1_50/bn
I0225 16:26:30.245973 11251 net.cpp:367] relu1_50 -> conv1_50/bn (in-place)
I0225 16:26:30.246333 11251 net.cpp:122] Setting up relu1_50
I0225 16:26:30.246345 11251 net.cpp:129] Top shape: 1 796 19 37 (559588)
I0225 16:26:30.246350 11251 net.cpp:137] Memory required for data: 875025192
I0225 16:26:30.246354 11251 layer_factory.hpp:77] Creating layer conv1_50
I0225 16:26:30.246367 11251 net.cpp:84] Creating Layer conv1_50
I0225 16:26:30.246372 11251 net.cpp:406] conv1_50 <- conv1_50/bn
I0225 16:26:30.246381 11251 net.cpp:380] conv1_50 -> conv1_50
I0225 16:26:30.253142 11251 net.cpp:122] Setting up conv1_50
I0225 16:26:30.253159 11251 net.cpp:129] Top shape: 1 12 19 37 (8436)
I0225 16:26:30.253166 11251 net.cpp:137] Memory required for data: 875058936
I0225 16:26:30.253175 11251 layer_factory.hpp:77] Creating layer concat1_50
I0225 16:26:30.253182 11251 net.cpp:84] Creating Layer concat1_50
I0225 16:26:30.253188 11251 net.cpp:406] concat1_50 <- concat1_49_concat1_49_0_split_1
I0225 16:26:30.253195 11251 net.cpp:406] concat1_50 <- conv1_50
I0225 16:26:30.253201 11251 net.cpp:380] concat1_50 -> concat1_50
I0225 16:26:30.253273 11251 net.cpp:122] Setting up concat1_50
I0225 16:26:30.253281 11251 net.cpp:129] Top shape: 1 808 19 37 (568024)
I0225 16:26:30.253285 11251 net.cpp:137] Memory required for data: 877331032
I0225 16:26:30.253289 11251 layer_factory.hpp:77] Creating layer concat1_50_concat1_50_0_split
I0225 16:26:30.253296 11251 net.cpp:84] Creating Layer concat1_50_concat1_50_0_split
I0225 16:26:30.253300 11251 net.cpp:406] concat1_50_concat1_50_0_split <- concat1_50
I0225 16:26:30.253306 11251 net.cpp:380] concat1_50_concat1_50_0_split -> concat1_50_concat1_50_0_split_0
I0225 16:26:30.253314 11251 net.cpp:380] concat1_50_concat1_50_0_split -> concat1_50_concat1_50_0_split_1
I0225 16:26:30.253409 11251 net.cpp:122] Setting up concat1_50_concat1_50_0_split
I0225 16:26:30.253420 11251 net.cpp:129] Top shape: 1 808 19 37 (568024)
I0225 16:26:30.253425 11251 net.cpp:129] Top shape: 1 808 19 37 (568024)
I0225 16:26:30.253429 11251 net.cpp:137] Memory required for data: 881875224
I0225 16:26:30.253433 11251 layer_factory.hpp:77] Creating layer conv1_51/bn
I0225 16:26:30.253439 11251 net.cpp:84] Creating Layer conv1_51/bn
I0225 16:26:30.253444 11251 net.cpp:406] conv1_51/bn <- concat1_50_concat1_50_0_split_0
I0225 16:26:30.253453 11251 net.cpp:380] conv1_51/bn -> conv1_51/bn
I0225 16:26:30.254096 11251 net.cpp:122] Setting up conv1_51/bn
I0225 16:26:30.254106 11251 net.cpp:129] Top shape: 1 808 19 37 (568024)
I0225 16:26:30.254109 11251 net.cpp:137] Memory required for data: 884147320
I0225 16:26:30.254118 11251 layer_factory.hpp:77] Creating layer conv1_51/scale
I0225 16:26:30.254133 11251 net.cpp:84] Creating Layer conv1_51/scale
I0225 16:26:30.254139 11251 net.cpp:406] conv1_51/scale <- conv1_51/bn
I0225 16:26:30.254148 11251 net.cpp:367] conv1_51/scale -> conv1_51/bn (in-place)
I0225 16:26:30.254273 11251 layer_factory.hpp:77] Creating layer conv1_51/scale
I0225 16:26:30.254659 11251 net.cpp:122] Setting up conv1_51/scale
I0225 16:26:30.254670 11251 net.cpp:129] Top shape: 1 808 19 37 (568024)
I0225 16:26:30.254674 11251 net.cpp:137] Memory required for data: 886419416
I0225 16:26:30.254683 11251 layer_factory.hpp:77] Creating layer relu1_51
I0225 16:26:30.254689 11251 net.cpp:84] Creating Layer relu1_51
I0225 16:26:30.254694 11251 net.cpp:406] relu1_51 <- conv1_51/bn
I0225 16:26:30.254699 11251 net.cpp:367] relu1_51 -> conv1_51/bn (in-place)
I0225 16:26:30.256230 11251 net.cpp:122] Setting up relu1_51
I0225 16:26:30.256248 11251 net.cpp:129] Top shape: 1 808 19 37 (568024)
I0225 16:26:30.256253 11251 net.cpp:137] Memory required for data: 888691512
I0225 16:26:30.256258 11251 layer_factory.hpp:77] Creating layer conv1_51
I0225 16:26:30.256270 11251 net.cpp:84] Creating Layer conv1_51
I0225 16:26:30.256276 11251 net.cpp:406] conv1_51 <- conv1_51/bn
I0225 16:26:30.256284 11251 net.cpp:380] conv1_51 -> conv1_51
I0225 16:26:30.264444 11251 net.cpp:122] Setting up conv1_51
I0225 16:26:30.264462 11251 net.cpp:129] Top shape: 1 12 19 37 (8436)
I0225 16:26:30.264467 11251 net.cpp:137] Memory required for data: 888725256
I0225 16:26:30.264473 11251 layer_factory.hpp:77] Creating layer concat1_51
I0225 16:26:30.264482 11251 net.cpp:84] Creating Layer concat1_51
I0225 16:26:30.264487 11251 net.cpp:406] concat1_51 <- concat1_50_concat1_50_0_split_1
I0225 16:26:30.264492 11251 net.cpp:406] concat1_51 <- conv1_51
I0225 16:26:30.264497 11251 net.cpp:380] concat1_51 -> concat1_51
I0225 16:26:30.264562 11251 net.cpp:122] Setting up concat1_51
I0225 16:26:30.264570 11251 net.cpp:129] Top shape: 1 820 19 37 (576460)
I0225 16:26:30.264573 11251 net.cpp:137] Memory required for data: 891031096
I0225 16:26:30.264577 11251 layer_factory.hpp:77] Creating layer concat1_51_concat1_51_0_split
I0225 16:26:30.264583 11251 net.cpp:84] Creating Layer concat1_51_concat1_51_0_split
I0225 16:26:30.264586 11251 net.cpp:406] concat1_51_concat1_51_0_split <- concat1_51
I0225 16:26:30.264592 11251 net.cpp:380] concat1_51_concat1_51_0_split -> concat1_51_concat1_51_0_split_0
I0225 16:26:30.264600 11251 net.cpp:380] concat1_51_concat1_51_0_split -> concat1_51_concat1_51_0_split_1
I0225 16:26:30.264698 11251 net.cpp:122] Setting up concat1_51_concat1_51_0_split
I0225 16:26:30.264708 11251 net.cpp:129] Top shape: 1 820 19 37 (576460)
I0225 16:26:30.264711 11251 net.cpp:129] Top shape: 1 820 19 37 (576460)
I0225 16:26:30.264714 11251 net.cpp:137] Memory required for data: 895642776
I0225 16:26:30.264719 11251 layer_factory.hpp:77] Creating layer conv1_52/bn
I0225 16:26:30.264724 11251 net.cpp:84] Creating Layer conv1_52/bn
I0225 16:26:30.264729 11251 net.cpp:406] conv1_52/bn <- concat1_51_concat1_51_0_split_0
I0225 16:26:30.264736 11251 net.cpp:380] conv1_52/bn -> conv1_52/bn
I0225 16:26:30.265332 11251 net.cpp:122] Setting up conv1_52/bn
I0225 16:26:30.265341 11251 net.cpp:129] Top shape: 1 820 19 37 (576460)
I0225 16:26:30.265346 11251 net.cpp:137] Memory required for data: 897948616
I0225 16:26:30.265353 11251 layer_factory.hpp:77] Creating layer conv1_52/scale
I0225 16:26:30.265363 11251 net.cpp:84] Creating Layer conv1_52/scale
I0225 16:26:30.265368 11251 net.cpp:406] conv1_52/scale <- conv1_52/bn
I0225 16:26:30.265375 11251 net.cpp:367] conv1_52/scale -> conv1_52/bn (in-place)
I0225 16:26:30.265491 11251 layer_factory.hpp:77] Creating layer conv1_52/scale
I0225 16:26:30.265839 11251 net.cpp:122] Setting up conv1_52/scale
I0225 16:26:30.265849 11251 net.cpp:129] Top shape: 1 820 19 37 (576460)
I0225 16:26:30.265852 11251 net.cpp:137] Memory required for data: 900254456
I0225 16:26:30.265859 11251 layer_factory.hpp:77] Creating layer relu1_52
I0225 16:26:30.265866 11251 net.cpp:84] Creating Layer relu1_52
I0225 16:26:30.265871 11251 net.cpp:406] relu1_52 <- conv1_52/bn
I0225 16:26:30.265875 11251 net.cpp:367] relu1_52 -> conv1_52/bn (in-place)
I0225 16:26:30.266189 11251 net.cpp:122] Setting up relu1_52
I0225 16:26:30.266201 11251 net.cpp:129] Top shape: 1 820 19 37 (576460)
I0225 16:26:30.266204 11251 net.cpp:137] Memory required for data: 902560296
I0225 16:26:30.266207 11251 layer_factory.hpp:77] Creating layer conv1_52
I0225 16:26:30.266222 11251 net.cpp:84] Creating Layer conv1_52
I0225 16:26:30.266227 11251 net.cpp:406] conv1_52 <- conv1_52/bn
I0225 16:26:30.266233 11251 net.cpp:380] conv1_52 -> conv1_52
I0225 16:26:30.272366 11251 net.cpp:122] Setting up conv1_52
I0225 16:26:30.272382 11251 net.cpp:129] Top shape: 1 12 19 37 (8436)
I0225 16:26:30.272385 11251 net.cpp:137] Memory required for data: 902594040
I0225 16:26:30.272392 11251 layer_factory.hpp:77] Creating layer concat1_52
I0225 16:26:30.272400 11251 net.cpp:84] Creating Layer concat1_52
I0225 16:26:30.272405 11251 net.cpp:406] concat1_52 <- concat1_51_concat1_51_0_split_1
I0225 16:26:30.272411 11251 net.cpp:406] concat1_52 <- conv1_52
I0225 16:26:30.272419 11251 net.cpp:380] concat1_52 -> concat1_52
I0225 16:26:30.272485 11251 net.cpp:122] Setting up concat1_52
I0225 16:26:30.272492 11251 net.cpp:129] Top shape: 1 832 19 37 (584896)
I0225 16:26:30.272495 11251 net.cpp:137] Memory required for data: 904933624
I0225 16:26:30.272500 11251 layer_factory.hpp:77] Creating layer concat1_52_concat1_52_0_split
I0225 16:26:30.272505 11251 net.cpp:84] Creating Layer concat1_52_concat1_52_0_split
I0225 16:26:30.272509 11251 net.cpp:406] concat1_52_concat1_52_0_split <- concat1_52
I0225 16:26:30.272517 11251 net.cpp:380] concat1_52_concat1_52_0_split -> concat1_52_concat1_52_0_split_0
I0225 16:26:30.272524 11251 net.cpp:380] concat1_52_concat1_52_0_split -> concat1_52_concat1_52_0_split_1
I0225 16:26:30.272608 11251 net.cpp:122] Setting up concat1_52_concat1_52_0_split
I0225 16:26:30.272615 11251 net.cpp:129] Top shape: 1 832 19 37 (584896)
I0225 16:26:30.272620 11251 net.cpp:129] Top shape: 1 832 19 37 (584896)
I0225 16:26:30.272624 11251 net.cpp:137] Memory required for data: 909612792
I0225 16:26:30.272634 11251 layer_factory.hpp:77] Creating layer conv1_53/bn
I0225 16:26:30.272642 11251 net.cpp:84] Creating Layer conv1_53/bn
I0225 16:26:30.272646 11251 net.cpp:406] conv1_53/bn <- concat1_52_concat1_52_0_split_0
I0225 16:26:30.272652 11251 net.cpp:380] conv1_53/bn -> conv1_53/bn
I0225 16:26:30.273249 11251 net.cpp:122] Setting up conv1_53/bn
I0225 16:26:30.273259 11251 net.cpp:129] Top shape: 1 832 19 37 (584896)
I0225 16:26:30.273262 11251 net.cpp:137] Memory required for data: 911952376
I0225 16:26:30.273296 11251 layer_factory.hpp:77] Creating layer conv1_53/scale
I0225 16:26:30.273321 11251 net.cpp:84] Creating Layer conv1_53/scale
I0225 16:26:30.273326 11251 net.cpp:406] conv1_53/scale <- conv1_53/bn
I0225 16:26:30.273332 11251 net.cpp:367] conv1_53/scale -> conv1_53/bn (in-place)
I0225 16:26:30.273444 11251 layer_factory.hpp:77] Creating layer conv1_53/scale
I0225 16:26:30.273807 11251 net.cpp:122] Setting up conv1_53/scale
I0225 16:26:30.273819 11251 net.cpp:129] Top shape: 1 832 19 37 (584896)
I0225 16:26:30.273823 11251 net.cpp:137] Memory required for data: 914291960
I0225 16:26:30.273831 11251 layer_factory.hpp:77] Creating layer relu1_53
I0225 16:26:30.273839 11251 net.cpp:84] Creating Layer relu1_53
I0225 16:26:30.273844 11251 net.cpp:406] relu1_53 <- conv1_53/bn
I0225 16:26:30.273849 11251 net.cpp:367] relu1_53 -> conv1_53/bn (in-place)
I0225 16:26:30.274163 11251 net.cpp:122] Setting up relu1_53
I0225 16:26:30.274174 11251 net.cpp:129] Top shape: 1 832 19 37 (584896)
I0225 16:26:30.274178 11251 net.cpp:137] Memory required for data: 916631544
I0225 16:26:30.274183 11251 layer_factory.hpp:77] Creating layer conv1_53
I0225 16:26:30.274194 11251 net.cpp:84] Creating Layer conv1_53
I0225 16:26:30.274199 11251 net.cpp:406] conv1_53 <- conv1_53/bn
I0225 16:26:30.274207 11251 net.cpp:380] conv1_53 -> conv1_53
I0225 16:26:30.280335 11251 net.cpp:122] Setting up conv1_53
I0225 16:26:30.280350 11251 net.cpp:129] Top shape: 1 12 19 37 (8436)
I0225 16:26:30.280354 11251 net.cpp:137] Memory required for data: 916665288
I0225 16:26:30.280361 11251 layer_factory.hpp:77] Creating layer concat1_53
I0225 16:26:30.280369 11251 net.cpp:84] Creating Layer concat1_53
I0225 16:26:30.280375 11251 net.cpp:406] concat1_53 <- concat1_52_concat1_52_0_split_1
I0225 16:26:30.280382 11251 net.cpp:406] concat1_53 <- conv1_53
I0225 16:26:30.280390 11251 net.cpp:380] concat1_53 -> concat1_53
I0225 16:26:30.280453 11251 net.cpp:122] Setting up concat1_53
I0225 16:26:30.280462 11251 net.cpp:129] Top shape: 1 844 19 37 (593332)
I0225 16:26:30.280465 11251 net.cpp:137] Memory required for data: 919038616
I0225 16:26:30.280469 11251 layer_factory.hpp:77] Creating layer concat1_53_concat1_53_0_split
I0225 16:26:30.280477 11251 net.cpp:84] Creating Layer concat1_53_concat1_53_0_split
I0225 16:26:30.280481 11251 net.cpp:406] concat1_53_concat1_53_0_split <- concat1_53
I0225 16:26:30.280488 11251 net.cpp:380] concat1_53_concat1_53_0_split -> concat1_53_concat1_53_0_split_0
I0225 16:26:30.280493 11251 net.cpp:380] concat1_53_concat1_53_0_split -> concat1_53_concat1_53_0_split_1
I0225 16:26:30.280577 11251 net.cpp:122] Setting up concat1_53_concat1_53_0_split
I0225 16:26:30.280584 11251 net.cpp:129] Top shape: 1 844 19 37 (593332)
I0225 16:26:30.280589 11251 net.cpp:129] Top shape: 1 844 19 37 (593332)
I0225 16:26:30.280592 11251 net.cpp:137] Memory required for data: 923785272
I0225 16:26:30.280596 11251 layer_factory.hpp:77] Creating layer conv1_54/bn
I0225 16:26:30.280607 11251 net.cpp:84] Creating Layer conv1_54/bn
I0225 16:26:30.280611 11251 net.cpp:406] conv1_54/bn <- concat1_53_concat1_53_0_split_0
I0225 16:26:30.280619 11251 net.cpp:380] conv1_54/bn -> conv1_54/bn
I0225 16:26:30.281219 11251 net.cpp:122] Setting up conv1_54/bn
I0225 16:26:30.281229 11251 net.cpp:129] Top shape: 1 844 19 37 (593332)
I0225 16:26:30.281234 11251 net.cpp:137] Memory required for data: 926158600
I0225 16:26:30.281244 11251 layer_factory.hpp:77] Creating layer conv1_54/scale
I0225 16:26:30.281252 11251 net.cpp:84] Creating Layer conv1_54/scale
I0225 16:26:30.281256 11251 net.cpp:406] conv1_54/scale <- conv1_54/bn
I0225 16:26:30.281262 11251 net.cpp:367] conv1_54/scale -> conv1_54/bn (in-place)
I0225 16:26:30.281378 11251 layer_factory.hpp:77] Creating layer conv1_54/scale
I0225 16:26:30.281733 11251 net.cpp:122] Setting up conv1_54/scale
I0225 16:26:30.281743 11251 net.cpp:129] Top shape: 1 844 19 37 (593332)
I0225 16:26:30.281746 11251 net.cpp:137] Memory required for data: 928531928
I0225 16:26:30.281752 11251 layer_factory.hpp:77] Creating layer relu1_54
I0225 16:26:30.281759 11251 net.cpp:84] Creating Layer relu1_54
I0225 16:26:30.281764 11251 net.cpp:406] relu1_54 <- conv1_54/bn
I0225 16:26:30.281770 11251 net.cpp:367] relu1_54 -> conv1_54/bn (in-place)
I0225 16:26:30.282089 11251 net.cpp:122] Setting up relu1_54
I0225 16:26:30.282099 11251 net.cpp:129] Top shape: 1 844 19 37 (593332)
I0225 16:26:30.282104 11251 net.cpp:137] Memory required for data: 930905256
I0225 16:26:30.282110 11251 layer_factory.hpp:77] Creating layer conv1_54
I0225 16:26:30.282122 11251 net.cpp:84] Creating Layer conv1_54
I0225 16:26:30.282127 11251 net.cpp:406] conv1_54 <- conv1_54/bn
I0225 16:26:30.282136 11251 net.cpp:380] conv1_54 -> conv1_54
I0225 16:26:30.288281 11251 net.cpp:122] Setting up conv1_54
I0225 16:26:30.288297 11251 net.cpp:129] Top shape: 1 12 19 37 (8436)
I0225 16:26:30.288301 11251 net.cpp:137] Memory required for data: 930939000
I0225 16:26:30.288308 11251 layer_factory.hpp:77] Creating layer concat1_54
I0225 16:26:30.288316 11251 net.cpp:84] Creating Layer concat1_54
I0225 16:26:30.288321 11251 net.cpp:406] concat1_54 <- concat1_53_concat1_53_0_split_1
I0225 16:26:30.288329 11251 net.cpp:406] concat1_54 <- conv1_54
I0225 16:26:30.288336 11251 net.cpp:380] concat1_54 -> concat1_54
I0225 16:26:30.288400 11251 net.cpp:122] Setting up concat1_54
I0225 16:26:30.288408 11251 net.cpp:129] Top shape: 1 856 19 37 (601768)
I0225 16:26:30.288411 11251 net.cpp:137] Memory required for data: 933346072
I0225 16:26:30.288415 11251 layer_factory.hpp:77] Creating layer concat1_54_concat1_54_0_split
I0225 16:26:30.288422 11251 net.cpp:84] Creating Layer concat1_54_concat1_54_0_split
I0225 16:26:30.288427 11251 net.cpp:406] concat1_54_concat1_54_0_split <- concat1_54
I0225 16:26:30.288432 11251 net.cpp:380] concat1_54_concat1_54_0_split -> concat1_54_concat1_54_0_split_0
I0225 16:26:30.288439 11251 net.cpp:380] concat1_54_concat1_54_0_split -> concat1_54_concat1_54_0_split_1
I0225 16:26:30.288522 11251 net.cpp:122] Setting up concat1_54_concat1_54_0_split
I0225 16:26:30.288530 11251 net.cpp:129] Top shape: 1 856 19 37 (601768)
I0225 16:26:30.288534 11251 net.cpp:129] Top shape: 1 856 19 37 (601768)
I0225 16:26:30.288538 11251 net.cpp:137] Memory required for data: 938160216
I0225 16:26:30.288542 11251 layer_factory.hpp:77] Creating layer conv1_55/bn
I0225 16:26:30.288549 11251 net.cpp:84] Creating Layer conv1_55/bn
I0225 16:26:30.288553 11251 net.cpp:406] conv1_55/bn <- concat1_54_concat1_54_0_split_0
I0225 16:26:30.288559 11251 net.cpp:380] conv1_55/bn -> conv1_55/bn
I0225 16:26:30.289181 11251 net.cpp:122] Setting up conv1_55/bn
I0225 16:26:30.289191 11251 net.cpp:129] Top shape: 1 856 19 37 (601768)
I0225 16:26:30.289194 11251 net.cpp:137] Memory required for data: 940567288
I0225 16:26:30.289202 11251 layer_factory.hpp:77] Creating layer conv1_55/scale
I0225 16:26:30.289212 11251 net.cpp:84] Creating Layer conv1_55/scale
I0225 16:26:30.289217 11251 net.cpp:406] conv1_55/scale <- conv1_55/bn
I0225 16:26:30.289223 11251 net.cpp:367] conv1_55/scale -> conv1_55/bn (in-place)
I0225 16:26:30.289340 11251 layer_factory.hpp:77] Creating layer conv1_55/scale
I0225 16:26:30.289703 11251 net.cpp:122] Setting up conv1_55/scale
I0225 16:26:30.289712 11251 net.cpp:129] Top shape: 1 856 19 37 (601768)
I0225 16:26:30.289716 11251 net.cpp:137] Memory required for data: 942974360
I0225 16:26:30.289723 11251 layer_factory.hpp:77] Creating layer relu1_55
I0225 16:26:30.289729 11251 net.cpp:84] Creating Layer relu1_55
I0225 16:26:30.289733 11251 net.cpp:406] relu1_55 <- conv1_55/bn
I0225 16:26:30.289738 11251 net.cpp:367] relu1_55 -> conv1_55/bn (in-place)
I0225 16:26:30.291115 11251 net.cpp:122] Setting up relu1_55
I0225 16:26:30.291128 11251 net.cpp:129] Top shape: 1 856 19 37 (601768)
I0225 16:26:30.291132 11251 net.cpp:137] Memory required for data: 945381432
I0225 16:26:30.291136 11251 layer_factory.hpp:77] Creating layer conv1_55
I0225 16:26:30.291149 11251 net.cpp:84] Creating Layer conv1_55
I0225 16:26:30.291155 11251 net.cpp:406] conv1_55 <- conv1_55/bn
I0225 16:26:30.291164 11251 net.cpp:380] conv1_55 -> conv1_55
I0225 16:26:30.297420 11251 net.cpp:122] Setting up conv1_55
I0225 16:26:30.297435 11251 net.cpp:129] Top shape: 1 12 19 37 (8436)
I0225 16:26:30.297439 11251 net.cpp:137] Memory required for data: 945415176
I0225 16:26:30.297446 11251 layer_factory.hpp:77] Creating layer concat1_55
I0225 16:26:30.297456 11251 net.cpp:84] Creating Layer concat1_55
I0225 16:26:30.297462 11251 net.cpp:406] concat1_55 <- concat1_54_concat1_54_0_split_1
I0225 16:26:30.297472 11251 net.cpp:406] concat1_55 <- conv1_55
I0225 16:26:30.297477 11251 net.cpp:380] concat1_55 -> concat1_55
I0225 16:26:30.297543 11251 net.cpp:122] Setting up concat1_55
I0225 16:26:30.297552 11251 net.cpp:129] Top shape: 1 868 19 37 (610204)
I0225 16:26:30.297556 11251 net.cpp:137] Memory required for data: 947855992
I0225 16:26:30.297559 11251 layer_factory.hpp:77] Creating layer concat1_55_concat1_55_0_split
I0225 16:26:30.297565 11251 net.cpp:84] Creating Layer concat1_55_concat1_55_0_split
I0225 16:26:30.297569 11251 net.cpp:406] concat1_55_concat1_55_0_split <- concat1_55
I0225 16:26:30.297575 11251 net.cpp:380] concat1_55_concat1_55_0_split -> concat1_55_concat1_55_0_split_0
I0225 16:26:30.297581 11251 net.cpp:380] concat1_55_concat1_55_0_split -> concat1_55_concat1_55_0_split_1
I0225 16:26:30.297667 11251 net.cpp:122] Setting up concat1_55_concat1_55_0_split
I0225 16:26:30.297673 11251 net.cpp:129] Top shape: 1 868 19 37 (610204)
I0225 16:26:30.297679 11251 net.cpp:129] Top shape: 1 868 19 37 (610204)
I0225 16:26:30.297683 11251 net.cpp:137] Memory required for data: 952737624
I0225 16:26:30.297686 11251 layer_factory.hpp:77] Creating layer conv1_56/bn
I0225 16:26:30.297693 11251 net.cpp:84] Creating Layer conv1_56/bn
I0225 16:26:30.297696 11251 net.cpp:406] conv1_56/bn <- concat1_55_concat1_55_0_split_0
I0225 16:26:30.297708 11251 net.cpp:380] conv1_56/bn -> conv1_56/bn
I0225 16:26:30.298305 11251 net.cpp:122] Setting up conv1_56/bn
I0225 16:26:30.298313 11251 net.cpp:129] Top shape: 1 868 19 37 (610204)
I0225 16:26:30.298316 11251 net.cpp:137] Memory required for data: 955178440
I0225 16:26:30.298324 11251 layer_factory.hpp:77] Creating layer conv1_56/scale
I0225 16:26:30.298336 11251 net.cpp:84] Creating Layer conv1_56/scale
I0225 16:26:30.298339 11251 net.cpp:406] conv1_56/scale <- conv1_56/bn
I0225 16:26:30.298347 11251 net.cpp:367] conv1_56/scale -> conv1_56/bn (in-place)
I0225 16:26:30.298462 11251 layer_factory.hpp:77] Creating layer conv1_56/scale
I0225 16:26:30.298820 11251 net.cpp:122] Setting up conv1_56/scale
I0225 16:26:30.298830 11251 net.cpp:129] Top shape: 1 868 19 37 (610204)
I0225 16:26:30.298832 11251 net.cpp:137] Memory required for data: 957619256
I0225 16:26:30.298840 11251 layer_factory.hpp:77] Creating layer relu1_56
I0225 16:26:30.298846 11251 net.cpp:84] Creating Layer relu1_56
I0225 16:26:30.298849 11251 net.cpp:406] relu1_56 <- conv1_56/bn
I0225 16:26:30.298854 11251 net.cpp:367] relu1_56 -> conv1_56/bn (in-place)
I0225 16:26:30.299175 11251 net.cpp:122] Setting up relu1_56
I0225 16:26:30.299185 11251 net.cpp:129] Top shape: 1 868 19 37 (610204)
I0225 16:26:30.299188 11251 net.cpp:137] Memory required for data: 960060072
I0225 16:26:30.299192 11251 layer_factory.hpp:77] Creating layer conv1_56
I0225 16:26:30.299206 11251 net.cpp:84] Creating Layer conv1_56
I0225 16:26:30.299211 11251 net.cpp:406] conv1_56 <- conv1_56/bn
I0225 16:26:30.299218 11251 net.cpp:380] conv1_56 -> conv1_56
I0225 16:26:30.307348 11251 net.cpp:122] Setting up conv1_56
I0225 16:26:30.307363 11251 net.cpp:129] Top shape: 1 12 19 37 (8436)
I0225 16:26:30.307368 11251 net.cpp:137] Memory required for data: 960093816
I0225 16:26:30.307374 11251 layer_factory.hpp:77] Creating layer concat1_56
I0225 16:26:30.307384 11251 net.cpp:84] Creating Layer concat1_56
I0225 16:26:30.307389 11251 net.cpp:406] concat1_56 <- concat1_55_concat1_55_0_split_1
I0225 16:26:30.307395 11251 net.cpp:406] concat1_56 <- conv1_56
I0225 16:26:30.307401 11251 net.cpp:380] concat1_56 -> concat1_56
I0225 16:26:30.307467 11251 net.cpp:122] Setting up concat1_56
I0225 16:26:30.307476 11251 net.cpp:129] Top shape: 1 880 19 37 (618640)
I0225 16:26:30.307478 11251 net.cpp:137] Memory required for data: 962568376
I0225 16:26:30.307482 11251 layer_factory.hpp:77] Creating layer concat1_56_concat1_56_0_split
I0225 16:26:30.307490 11251 net.cpp:84] Creating Layer concat1_56_concat1_56_0_split
I0225 16:26:30.307494 11251 net.cpp:406] concat1_56_concat1_56_0_split <- concat1_56
I0225 16:26:30.307502 11251 net.cpp:380] concat1_56_concat1_56_0_split -> concat1_56_concat1_56_0_split_0
I0225 16:26:30.307513 11251 net.cpp:380] concat1_56_concat1_56_0_split -> concat1_56_concat1_56_0_split_1
I0225 16:26:30.307603 11251 net.cpp:122] Setting up concat1_56_concat1_56_0_split
I0225 16:26:30.307611 11251 net.cpp:129] Top shape: 1 880 19 37 (618640)
I0225 16:26:30.307615 11251 net.cpp:129] Top shape: 1 880 19 37 (618640)
I0225 16:26:30.307618 11251 net.cpp:137] Memory required for data: 967517496
I0225 16:26:30.307622 11251 layer_factory.hpp:77] Creating layer conv1_57/bn
I0225 16:26:30.307631 11251 net.cpp:84] Creating Layer conv1_57/bn
I0225 16:26:30.307634 11251 net.cpp:406] conv1_57/bn <- concat1_56_concat1_56_0_split_0
I0225 16:26:30.307642 11251 net.cpp:380] conv1_57/bn -> conv1_57/bn
I0225 16:26:30.308238 11251 net.cpp:122] Setting up conv1_57/bn
I0225 16:26:30.308249 11251 net.cpp:129] Top shape: 1 880 19 37 (618640)
I0225 16:26:30.308254 11251 net.cpp:137] Memory required for data: 969992056
I0225 16:26:30.308261 11251 layer_factory.hpp:77] Creating layer conv1_57/scale
I0225 16:26:30.308269 11251 net.cpp:84] Creating Layer conv1_57/scale
I0225 16:26:30.308274 11251 net.cpp:406] conv1_57/scale <- conv1_57/bn
I0225 16:26:30.308282 11251 net.cpp:367] conv1_57/scale -> conv1_57/bn (in-place)
I0225 16:26:30.308400 11251 layer_factory.hpp:77] Creating layer conv1_57/scale
I0225 16:26:30.308773 11251 net.cpp:122] Setting up conv1_57/scale
I0225 16:26:30.308782 11251 net.cpp:129] Top shape: 1 880 19 37 (618640)
I0225 16:26:30.308786 11251 net.cpp:137] Memory required for data: 972466616
I0225 16:26:30.308794 11251 layer_factory.hpp:77] Creating layer relu1_57
I0225 16:26:30.308799 11251 net.cpp:84] Creating Layer relu1_57
I0225 16:26:30.308804 11251 net.cpp:406] relu1_57 <- conv1_57/bn
I0225 16:26:30.308812 11251 net.cpp:367] relu1_57 -> conv1_57/bn (in-place)
I0225 16:26:30.309136 11251 net.cpp:122] Setting up relu1_57
I0225 16:26:30.309149 11251 net.cpp:129] Top shape: 1 880 19 37 (618640)
I0225 16:26:30.309152 11251 net.cpp:137] Memory required for data: 974941176
I0225 16:26:30.309156 11251 layer_factory.hpp:77] Creating layer conv1_57
I0225 16:26:30.309168 11251 net.cpp:84] Creating Layer conv1_57
I0225 16:26:30.309173 11251 net.cpp:406] conv1_57 <- conv1_57/bn
I0225 16:26:30.309180 11251 net.cpp:380] conv1_57 -> conv1_57
I0225 16:26:30.315467 11251 net.cpp:122] Setting up conv1_57
I0225 16:26:30.315484 11251 net.cpp:129] Top shape: 1 12 19 37 (8436)
I0225 16:26:30.315486 11251 net.cpp:137] Memory required for data: 974974920
I0225 16:26:30.315493 11251 layer_factory.hpp:77] Creating layer concat1_57
I0225 16:26:30.315501 11251 net.cpp:84] Creating Layer concat1_57
I0225 16:26:30.315506 11251 net.cpp:406] concat1_57 <- concat1_56_concat1_56_0_split_1
I0225 16:26:30.315511 11251 net.cpp:406] concat1_57 <- conv1_57
I0225 16:26:30.315520 11251 net.cpp:380] concat1_57 -> concat1_57
I0225 16:26:30.315585 11251 net.cpp:122] Setting up concat1_57
I0225 16:26:30.315593 11251 net.cpp:129] Top shape: 1 892 19 37 (627076)
I0225 16:26:30.315596 11251 net.cpp:137] Memory required for data: 977483224
I0225 16:26:30.315600 11251 layer_factory.hpp:77] Creating layer concat1_57_concat1_57_0_split
I0225 16:26:30.315605 11251 net.cpp:84] Creating Layer concat1_57_concat1_57_0_split
I0225 16:26:30.315609 11251 net.cpp:406] concat1_57_concat1_57_0_split <- concat1_57
I0225 16:26:30.315618 11251 net.cpp:380] concat1_57_concat1_57_0_split -> concat1_57_concat1_57_0_split_0
I0225 16:26:30.315624 11251 net.cpp:380] concat1_57_concat1_57_0_split -> concat1_57_concat1_57_0_split_1
I0225 16:26:30.315711 11251 net.cpp:122] Setting up concat1_57_concat1_57_0_split
I0225 16:26:30.315717 11251 net.cpp:129] Top shape: 1 892 19 37 (627076)
I0225 16:26:30.315721 11251 net.cpp:129] Top shape: 1 892 19 37 (627076)
I0225 16:26:30.315724 11251 net.cpp:137] Memory required for data: 982499832
I0225 16:26:30.315728 11251 layer_factory.hpp:77] Creating layer conv1_58/bn
I0225 16:26:30.315737 11251 net.cpp:84] Creating Layer conv1_58/bn
I0225 16:26:30.315740 11251 net.cpp:406] conv1_58/bn <- concat1_57_concat1_57_0_split_0
I0225 16:26:30.315750 11251 net.cpp:380] conv1_58/bn -> conv1_58/bn
I0225 16:26:30.316346 11251 net.cpp:122] Setting up conv1_58/bn
I0225 16:26:30.316356 11251 net.cpp:129] Top shape: 1 892 19 37 (627076)
I0225 16:26:30.316359 11251 net.cpp:137] Memory required for data: 985008136
I0225 16:26:30.316368 11251 layer_factory.hpp:77] Creating layer conv1_58/scale
I0225 16:26:30.316378 11251 net.cpp:84] Creating Layer conv1_58/scale
I0225 16:26:30.316383 11251 net.cpp:406] conv1_58/scale <- conv1_58/bn
I0225 16:26:30.316390 11251 net.cpp:367] conv1_58/scale -> conv1_58/bn (in-place)
I0225 16:26:30.316505 11251 layer_factory.hpp:77] Creating layer conv1_58/scale
I0225 16:26:30.316887 11251 net.cpp:122] Setting up conv1_58/scale
I0225 16:26:30.316897 11251 net.cpp:129] Top shape: 1 892 19 37 (627076)
I0225 16:26:30.316900 11251 net.cpp:137] Memory required for data: 987516440
I0225 16:26:30.316907 11251 layer_factory.hpp:77] Creating layer relu1_58
I0225 16:26:30.316915 11251 net.cpp:84] Creating Layer relu1_58
I0225 16:26:30.316918 11251 net.cpp:406] relu1_58 <- conv1_58/bn
I0225 16:26:30.316923 11251 net.cpp:367] relu1_58 -> conv1_58/bn (in-place)
I0225 16:26:30.318306 11251 net.cpp:122] Setting up relu1_58
I0225 16:26:30.318321 11251 net.cpp:129] Top shape: 1 892 19 37 (627076)
I0225 16:26:30.318325 11251 net.cpp:137] Memory required for data: 990024744
I0225 16:26:30.318330 11251 layer_factory.hpp:77] Creating layer conv1_58
I0225 16:26:30.318341 11251 net.cpp:84] Creating Layer conv1_58
I0225 16:26:30.318347 11251 net.cpp:406] conv1_58 <- conv1_58/bn
I0225 16:26:30.318356 11251 net.cpp:380] conv1_58 -> conv1_58
I0225 16:26:30.324676 11251 net.cpp:122] Setting up conv1_58
I0225 16:26:30.324692 11251 net.cpp:129] Top shape: 1 12 19 37 (8436)
I0225 16:26:30.324695 11251 net.cpp:137] Memory required for data: 990058488
I0225 16:26:30.324702 11251 layer_factory.hpp:77] Creating layer concat1_58
I0225 16:26:30.324712 11251 net.cpp:84] Creating Layer concat1_58
I0225 16:26:30.324717 11251 net.cpp:406] concat1_58 <- concat1_57_concat1_57_0_split_1
I0225 16:26:30.324723 11251 net.cpp:406] concat1_58 <- conv1_58
I0225 16:26:30.324729 11251 net.cpp:380] concat1_58 -> concat1_58
I0225 16:26:30.324795 11251 net.cpp:122] Setting up concat1_58
I0225 16:26:30.324803 11251 net.cpp:129] Top shape: 1 904 19 37 (635512)
I0225 16:26:30.324806 11251 net.cpp:137] Memory required for data: 992600536
I0225 16:26:30.324810 11251 layer_factory.hpp:77] Creating layer concat1_58_concat1_58_0_split
I0225 16:26:30.324817 11251 net.cpp:84] Creating Layer concat1_58_concat1_58_0_split
I0225 16:26:30.324821 11251 net.cpp:406] concat1_58_concat1_58_0_split <- concat1_58
I0225 16:26:30.324827 11251 net.cpp:380] concat1_58_concat1_58_0_split -> concat1_58_concat1_58_0_split_0
I0225 16:26:30.324836 11251 net.cpp:380] concat1_58_concat1_58_0_split -> concat1_58_concat1_58_0_split_1
I0225 16:26:30.324923 11251 net.cpp:122] Setting up concat1_58_concat1_58_0_split
I0225 16:26:30.324931 11251 net.cpp:129] Top shape: 1 904 19 37 (635512)
I0225 16:26:30.324935 11251 net.cpp:129] Top shape: 1 904 19 37 (635512)
I0225 16:26:30.324939 11251 net.cpp:137] Memory required for data: 997684632
I0225 16:26:30.324942 11251 layer_factory.hpp:77] Creating layer conv1_59/bn
I0225 16:26:30.324950 11251 net.cpp:84] Creating Layer conv1_59/bn
I0225 16:26:30.324954 11251 net.cpp:406] conv1_59/bn <- concat1_58_concat1_58_0_split_0
I0225 16:26:30.324962 11251 net.cpp:380] conv1_59/bn -> conv1_59/bn
I0225 16:26:30.325561 11251 net.cpp:122] Setting up conv1_59/bn
I0225 16:26:30.325572 11251 net.cpp:129] Top shape: 1 904 19 37 (635512)
I0225 16:26:30.325574 11251 net.cpp:137] Memory required for data: 1000226680
I0225 16:26:30.325582 11251 layer_factory.hpp:77] Creating layer conv1_59/scale
I0225 16:26:30.325592 11251 net.cpp:84] Creating Layer conv1_59/scale
I0225 16:26:30.325595 11251 net.cpp:406] conv1_59/scale <- conv1_59/bn
I0225 16:26:30.325603 11251 net.cpp:367] conv1_59/scale -> conv1_59/bn (in-place)
I0225 16:26:30.325726 11251 layer_factory.hpp:77] Creating layer conv1_59/scale
I0225 16:26:30.326088 11251 net.cpp:122] Setting up conv1_59/scale
I0225 16:26:30.326097 11251 net.cpp:129] Top shape: 1 904 19 37 (635512)
I0225 16:26:30.326102 11251 net.cpp:137] Memory required for data: 1002768728
I0225 16:26:30.326108 11251 layer_factory.hpp:77] Creating layer relu1_59
I0225 16:26:30.326114 11251 net.cpp:84] Creating Layer relu1_59
I0225 16:26:30.326118 11251 net.cpp:406] relu1_59 <- conv1_59/bn
I0225 16:26:30.326126 11251 net.cpp:367] relu1_59 -> conv1_59/bn (in-place)
I0225 16:26:30.326449 11251 net.cpp:122] Setting up relu1_59
I0225 16:26:30.326459 11251 net.cpp:129] Top shape: 1 904 19 37 (635512)
I0225 16:26:30.326465 11251 net.cpp:137] Memory required for data: 1005310776
I0225 16:26:30.326470 11251 layer_factory.hpp:77] Creating layer conv1_59
I0225 16:26:30.326480 11251 net.cpp:84] Creating Layer conv1_59
I0225 16:26:30.326485 11251 net.cpp:406] conv1_59 <- conv1_59/bn
I0225 16:26:30.326493 11251 net.cpp:380] conv1_59 -> conv1_59
I0225 16:26:30.332931 11251 net.cpp:122] Setting up conv1_59
I0225 16:26:30.332948 11251 net.cpp:129] Top shape: 1 12 19 37 (8436)
I0225 16:26:30.332952 11251 net.cpp:137] Memory required for data: 1005344520
I0225 16:26:30.332959 11251 layer_factory.hpp:77] Creating layer concat1_59
I0225 16:26:30.332967 11251 net.cpp:84] Creating Layer concat1_59
I0225 16:26:30.332973 11251 net.cpp:406] concat1_59 <- concat1_58_concat1_58_0_split_1
I0225 16:26:30.332978 11251 net.cpp:406] concat1_59 <- conv1_59
I0225 16:26:30.332983 11251 net.cpp:380] concat1_59 -> concat1_59
I0225 16:26:30.333051 11251 net.cpp:122] Setting up concat1_59
I0225 16:26:30.333060 11251 net.cpp:129] Top shape: 1 916 19 37 (643948)
I0225 16:26:30.333062 11251 net.cpp:137] Memory required for data: 1007920312
I0225 16:26:30.333066 11251 layer_factory.hpp:77] Creating layer tpp5
I0225 16:26:30.333073 11251 net.cpp:84] Creating Layer tpp5
I0225 16:26:30.333077 11251 net.cpp:406] tpp5 <- concat1_59
I0225 16:26:30.333086 11251 net.cpp:380] tpp5 -> tpp5
I0225 16:26:30.334168 11251 net.cpp:122] Setting up tpp5
I0225 16:26:30.334180 11251 net.cpp:129] Top shape: 1 13740 (13740)
I0225 16:26:30.334183 11251 net.cpp:137] Memory required for data: 1007975272
I0225 16:26:30.334187 11251 layer_factory.hpp:77] Creating layer fc6_d
I0225 16:26:30.334197 11251 net.cpp:84] Creating Layer fc6_d
I0225 16:26:30.334201 11251 net.cpp:406] fc6_d <- tpp5
I0225 16:26:30.334208 11251 net.cpp:380] fc6_d -> fc6_d
I0225 16:26:32.033516 11251 net.cpp:122] Setting up fc6_d
I0225 16:26:32.033558 11251 net.cpp:129] Top shape: 1 4096 (4096)
I0225 16:26:32.033562 11251 net.cpp:137] Memory required for data: 1007991656
I0225 16:26:32.033574 11251 layer_factory.hpp:77] Creating layer relu6
I0225 16:26:32.033587 11251 net.cpp:84] Creating Layer relu6
I0225 16:26:32.033596 11251 net.cpp:406] relu6 <- fc6_d
I0225 16:26:32.033602 11251 net.cpp:367] relu6 -> fc6_d (in-place)
I0225 16:26:32.034063 11251 net.cpp:122] Setting up relu6
I0225 16:26:32.034076 11251 net.cpp:129] Top shape: 1 4096 (4096)
I0225 16:26:32.034080 11251 net.cpp:137] Memory required for data: 1008008040
I0225 16:26:32.034085 11251 layer_factory.hpp:77] Creating layer fc7_d
I0225 16:26:32.034095 11251 net.cpp:84] Creating Layer fc7_d
I0225 16:26:32.034098 11251 net.cpp:406] fc7_d <- fc6_d
I0225 16:26:32.034104 11251 net.cpp:380] fc7_d -> fc7_d
I0225 16:26:32.546931 11251 net.cpp:122] Setting up fc7_d
I0225 16:26:32.546972 11251 net.cpp:129] Top shape: 1 4096 (4096)
I0225 16:26:32.546977 11251 net.cpp:137] Memory required for data: 1008024424
I0225 16:26:32.546988 11251 layer_factory.hpp:77] Creating layer relu7
I0225 16:26:32.546999 11251 net.cpp:84] Creating Layer relu7
I0225 16:26:32.547005 11251 net.cpp:406] relu7 <- fc7_d
I0225 16:26:32.547015 11251 net.cpp:367] relu7 -> fc7_d (in-place)
I0225 16:26:32.550019 11251 net.cpp:122] Setting up relu7
I0225 16:26:32.550034 11251 net.cpp:129] Top shape: 1 4096 (4096)
I0225 16:26:32.550038 11251 net.cpp:137] Memory required for data: 1008040808
I0225 16:26:32.550042 11251 layer_factory.hpp:77] Creating layer fc8_d
I0225 16:26:32.550060 11251 net.cpp:84] Creating Layer fc8_d
I0225 16:26:32.550065 11251 net.cpp:406] fc8_d <- fc7_d
I0225 16:26:32.550071 11251 net.cpp:380] fc8_d -> fc8_d
I0225 16:26:32.625830 11251 net.cpp:122] Setting up fc8_d
I0225 16:26:32.625849 11251 net.cpp:129] Top shape: 1 604 (604)
I0225 16:26:32.625851 11251 net.cpp:137] Memory required for data: 1008043224
I0225 16:26:32.625859 11251 layer_factory.hpp:77] Creating layer fc8_d_fc8_d_0_split
I0225 16:26:32.625871 11251 net.cpp:84] Creating Layer fc8_d_fc8_d_0_split
I0225 16:26:32.625876 11251 net.cpp:406] fc8_d_fc8_d_0_split <- fc8_d
I0225 16:26:32.625882 11251 net.cpp:380] fc8_d_fc8_d_0_split -> fc8_d_fc8_d_0_split_0
I0225 16:26:32.625890 11251 net.cpp:380] fc8_d_fc8_d_0_split -> fc8_d_fc8_d_0_split_1
I0225 16:26:32.625978 11251 net.cpp:122] Setting up fc8_d_fc8_d_0_split
I0225 16:26:32.625986 11251 net.cpp:129] Top shape: 1 604 (604)
I0225 16:26:32.625990 11251 net.cpp:129] Top shape: 1 604 (604)
I0225 16:26:32.625993 11251 net.cpp:137] Memory required for data: 1008048056
I0225 16:26:32.625998 11251 layer_factory.hpp:77] Creating layer sigmoid
I0225 16:26:32.626005 11251 net.cpp:84] Creating Layer sigmoid
I0225 16:26:32.626009 11251 net.cpp:406] sigmoid <- fc8_d_fc8_d_0_split_0
I0225 16:26:32.626018 11251 net.cpp:380] sigmoid -> sigmoid
I0225 16:26:32.626411 11251 net.cpp:122] Setting up sigmoid
I0225 16:26:32.626422 11251 net.cpp:129] Top shape: 1 604 (604)
I0225 16:26:32.626425 11251 net.cpp:137] Memory required for data: 1008050472
I0225 16:26:32.626430 11251 layer_factory.hpp:77] Creating layer silence
I0225 16:26:32.626436 11251 net.cpp:84] Creating Layer silence
I0225 16:26:32.626441 11251 net.cpp:406] silence <- sigmoid
I0225 16:26:32.626446 11251 net.cpp:122] Setting up silence
I0225 16:26:32.626449 11251 net.cpp:137] Memory required for data: 1008050472
…
