…
  phase: TRAIN
}
layer {
  name: "word_images"
  type: "Data"
  top: "word_images"
  top: "label"
  transform_param {
    scale: -0.0039215689
    mean_value: 255
  }
  data_param {
    source: "/data/fwolf/gw4_50000/gw_cv4_nti500000_pul2-3-4-5_train_word_images_lmdb"
    batch_size: 1
    backend: LMDB
    prefetch: 20
  }
}
layer {
  name: "phocs"
  type: "Data"
  top: "phocs"
  top: "label_phocs"
  data_param {
    source: "/data/fwolf/gw4_50000/gw_cv4_nti500000_pul2-3-4-5_train_phocs_lmdb"
    batch_size: 1
    backend: LMDB
    prefetch: 20
  }
}
layer {
  name: "conv_init"
  type: "Convolution"
  bottom: "word_images"
  top: "conv_init"
  convolution_param {
    num_output: 32
    bias_term: false
    pad: 1
    kernel_size: 3
    stride: 1
    weight_filler {
      type: "msra"
    }
    bias_filler {
      type: "constant"
    }
    engine: CUDNN
  }
}
layer {
  name: "bn_init"
  type: "BatchNorm"
  bottom: "conv_init"
  top: "bn_init"
  param {
    lr_mult: 0
    decay_mult: 0
  }
  param {
    lr_mult: 0
    decay_mult: 0
  }
  param {
    lr_mult: 0
    decay_mult: 0
  }
  batch_norm_param {
    eps: 1e-05
  }
}
layer {
  name: "scale_init"
  type: "Scale"
  bottom: "bn_init"
  top: "bn_init"
  scale_param {
    filler {
      value: 1
    }
    bias_term: true
    bias_filler {
      value: 0
    }
  }
}
layer {
  name: "relu_init"
  type: "ReLU"
  bottom: "bn_init"
  top: "bn_init"
}
layer {
  name: "pool_init"
  type: "Pooling"
  bottom: "bn_init"
  top: "pool_init"
  pooling_param {
    pool: MAX
    kernel_size: 3
    stride: 2
    pad: 1
  }
}
layer {
  name: "conv0_0/bn"
  type: "BatchNorm"
  bottom: "pool_init"
  top: "conv0_0/bn"
  param {
    lr_mult: 0
    decay_mult: 0
  }
  param {
    lr_mult: 0
    decay_mult: 0
  }
  param {
    lr_mult: 0
    decay_mult: 0
  }
}
layer {
  name: "conv0_0/scale"
  type: "Scale"
  bottom: "conv0_0/bn"
  top: "conv0_0/bn"
  scale_param {
    filler {
      value: 1
    }
    bias_term: true
    bias_filler {
      value: 0
    }
  }
}
layer {
  name: "relu0_0"
  type: "ReLU"
  bottom: "conv0_0/bn"
  top: "conv0_0/bn"
}
layer {
  name: "conv0_0"
  type: "Convolution"
  bottom: "conv0_0/bn"
  top: "conv0_0"
  convolution_param {
    num_output: 12
    bias_term: false
    pad: 1
    kernel_size: 3
    stride: 1
    weight_filler {
      type: "msra"
    }
    bias_filler {
      type: "constant"
    }
    engine: CUDNN
  }
}
layer {
  name: "concat0_0"
  type: "Concat"
  bottom: "pool_init"
  bottom: "conv0_0"
  top: "concat0_0"
  concat_param {
    axis: 1
  }
}
layer {
  name: "conv0_1/bn"
  type: "BatchNorm"
  bottom: "concat0_0"
  top: "conv0_1/bn"
  param {
    lr_mult: 0
    decay_mult: 0
  }
  param {
    lr_mult: 0
    decay_mult: 0
  }
  param {
    lr_mult: 0
    decay_mult: 0
  }
}
layer {
  name: "conv0_1/scale"
  type: "Scale"
  bottom: "conv0_1/bn"
  top: "conv0_1/bn"
  scale_param {
    filler {
      value: 1
    }
    bias_term: true
    bias_filler {
      value: 0
    }
  }
}
layer {
  name: "relu0_1"
  type: "ReLU"
  bottom: "conv0_1/bn"
  top: "conv0_1/bn"
}
layer {
  name: "conv0_1"
  type: "Convolution"
  bottom: "conv0_1/bn"
  top: "conv0_1"
  convolution_param {
    num_output: 12
    bias_term: false
    pad: 1
    kernel_size: 3
    stride: 1
    weight_filler {
      type: "msra"
    }
    bias_filler {
      type: "constant"
    }
    engine: CUDNN
  }
}
layer {
  name: "concat0_1"
  type: "Concat"
  bottom: "concat0_0"
  bottom: "conv0_1"
  top: "concat0_1"
  concat_param {
    axis: 1
  }
}
layer {
  name: "conv0_2/bn"
  type: "BatchNorm"
  bottom: "concat0_1"
  top: "conv0_2/bn"
  param {
    lr_mult: 0
    decay_mult: 0
  }
  param {
    lr_mult: 0
    decay_mult: 0
  }
  param {
    lr_mult: 0
    decay_mult: 0
  }
}
layer {
  name: "conv0_2/scale"
  type: "Scale"
  bottom: "conv0_2/bn"
  top: "conv0_2/bn"
  scale_param {
    filler {
      value: 1
    }
    bias_term: true
    bias_filler {
      value: 0
    }
  }
}
layer {
  name: "relu0_2"
  type: "ReLU"
  bottom: "conv0_2/bn"
  top: "conv0_2/bn"
}
layer {
  name: "conv0_2"
  type: "Convolution"
  bottom: "conv0_2/bn"
  top: "conv0_2"
  convolution_param {
    num_output: 12
    bias_term: false
    pad: 1
    kernel_size: 3
    stride: 1
    weight_filler {
      type: "msra"
    }
    bias_filler {
      type: "constant"
    }
    engine: CUDNN
  }
}
layer {
  name: "concat0_2"
  type: "Concat"
  bottom: "concat0_1"
  bottom: "conv0_2"
  top: "concat0_2"
  concat_param {
    axis: 1
  }
}
layer {
  name: "conv0_3/bn"
  type: "BatchNorm"
  bottom: "concat0_2"
  top: "conv0_3/bn"
  param {
    lr_mult: 0
    decay_mult: 0
  }
  param {
    lr_mult: 0
    decay_mult: 0
  }
  param {
    lr_mult: 0
    decay_mult: 0
  }
}
layer {
  name: "conv0_3/scale"
  type: "Scale"
  bottom: "conv0_3/bn"
  top: "conv0_3/bn"
  scale_param {
    filler {
      value: 1
    }
    bias_term: true
    bias_filler {
      value: 0
    }
  }
}
layer {
  name: "relu0_3"
  type: "ReLU"
  bottom: "conv0_3/bn"
  top: "conv0_3/bn"
}
layer {
  name: "conv0_3"
  type: "Convolution"
  bottom: "conv0_3/bn"
  top: "conv0_3"
  convolution_param {
    num_output: 12
    bias_term: false
    pad: 1
    kernel_size: 3
    stride: 1
    weight_filler {
      type: "msra"
    }
    bias_filler {
      type: "constant"
    }
    engine: CUDNN
  }
}
layer {
  name: "concat0_3"
  type: "Concat"
  bottom: "concat0_2"
  bottom: "conv0_3"
  top: "concat0_3"
  concat_param {
    axis: 1
  }
}
layer {
  name: "conv0_4/bn"
  type: "BatchNorm"
  bottom: "concat0_3"
  top: "conv0_4/bn"
  param {
    lr_mult: 0
    decay_mult: 0
  }
  param {
    lr_mult: 0
    decay_mult: 0
  }
  param {
    lr_mult: 0
    decay_mult: 0
  }
}
layer {
  name: "conv0_4/scale"
  type: "Scale"
  bottom: "conv0_4/bn"
  top: "conv0_4/bn"
  scale_param {
    filler {
      value: 1
    }
    bias_term: true
    bias_filler {
      value: 0
    }
  }
}
layer {
  name: "relu0_4"
  type: "ReLU"
  bottom: "conv0_4/bn"
  top: "conv0_4/bn"
}
layer {
  name: "conv0_4"
  type: "Convolution"
  bottom: "conv0_4/bn"
  top: "conv0_4"
  convolution_param {
    num_output: 12
    bias_term: false
    pad: 1
    kernel_size: 3
    stride: 1
    weight_filler {
      type: "msra"
    }
    bias_filler {
      type: "constant"
    }
    engine: CUDNN
  }
}
layer {
  name: "concat0_4"
  type: "Concat"
  bottom: "concat0_3"
  bottom: "conv0_4"
  top: "concat0_4"
  concat_param {
    axis: 1
  }
}
layer {
  name: "conv0_5/bn"
  type: "BatchNorm"
  bottom: "concat0_4"
  top: "conv0_5/bn"
  param {
    lr_mult: 0
    decay_mult: 0
  }
  param {
    lr_mult: 0
    decay_mult: 0
  }
  param {
    lr_mult: 0
    decay_mult: 0
  }
}
layer {
  name: "conv0_5/scale"
  type: "Scale"
  bottom: "conv0_5/bn"
  top: "conv0_5/bn"
  scale_param {
    filler {
      value: 1
    }
    bias_term: true
    bias_filler {
      value: 0
    }
  }
}
layer {
  name: "relu0_5"
  type: "ReLU"
  bottom: "conv0_5/bn"
  top: "conv0_5/bn"
}
layer {
  name: "conv0_5"
  type: "Convolution"
  bottom: "conv0_5/bn"
  top: "conv0_5"
  convolution_param {
    num_output: 12
    bias_term: false
    pad: 1
    kernel_size: 3
    stride: 1
    weight_filler {
      type: "msra"
    }
    bias_filler {
      type: "constant"
    }
    engine: CUDNN
  }
}
layer {
  name: "concat0_5"
  type: "Concat"
  bottom: "concat0_4"
  bottom: "conv0_5"
  top: "concat0_5"
  concat_param {
    axis: 1
  }
}
layer {
  name: "conv0_6/bn"
  type: "BatchNorm"
  bottom: "concat0_5"
  top: "conv0_6/bn"
  param {
    lr_mult: 0
    decay_mult: 0
  }
  param {
    lr_mult: 0
    decay_mult: 0
  }
  param {
    lr_mult: 0
    decay_mult: 0
  }
}
layer {
  name: "conv0_6/scale"
  type: "Scale"
  bottom: "conv0_6/bn"
  top: "conv0_6/bn"
  scale_param {
    filler {
      value: 1
    }
    bias_term: true
    bias_filler {
      value: 0
    }
  }
}
layer {
  name: "relu0_6"
  type: "ReLU"
  bottom: "conv0_6/bn"
  top: "conv0_6/bn"
}
layer {
  name: "conv0_6"
  type: "Convolution"
  bottom: "conv0_6/bn"
  top: "conv0_6"
  convolution_param {
    num_output: 12
    bias_term: false
    pad: 1
    kernel_size: 3
    stride: 1
    weight_filler {
      type: "msra"
    }
    bias_filler {
      type: "constant"
    }
    engine: CUDNN
  }
}
layer {
  name: "concat0_6"
  type: "Concat"
  bottom: "concat0_5"
  bottom: "conv0_6"
  top: "concat0_6"
  concat_param {
    axis: 1
  }
}
layer {
  name: "conv0_7/bn"
  type: "BatchNorm"
  bottom: "concat0_6"
  top: "conv0_7/bn"
  param {
    lr_mult: 0
    decay_mult: 0
  }
  param {
    lr_mult: 0
    decay_mult: 0
  }
  param {
    lr_mult: 0
    decay_mult: 0
  }
}
layer {
  name: "conv0_7/scale"
  type: "Scale"
  bottom: "conv0_7/bn"
  top: "conv0_7/bn"
  scale_param {
    filler {
      value: 1
    }
    bias_term: true
    bias_filler {
      value: 0
    }
  }
}
layer {
  name: "relu0_7"
  type: "ReLU"
  bottom: "conv0_7/bn"
  top: "conv0_7/bn"
}
layer {
  name: "conv0_7"
  type: "Convolution"
  bottom: "conv0_7/bn"
  top: "conv0_7"
  convolution_param {
    num_output: 12
    bias_term: false
    pad: 1
    kernel_size: 3
    stride: 1
    weight_filler {
      type: "msra"
    }
    bias_filler {
      type: "constant"
    }
    engine: CUDNN
  }
}
layer {
  name: "concat0_7"
  type: "Concat"
  bottom: "concat0_6"
  bottom: "conv0_7"
  top: "concat0_7"
  concat_param {
    axis: 1
  }
}
layer {
  name: "conv0_8/bn"
  type: "BatchNorm"
  bottom: "concat0_7"
  top: "conv0_8/bn"
  param {
    lr_mult: 0
    decay_mult: 0
  }
  param {
    lr_mult: 0
    decay_mult: 0
  }
  param {
    lr_mult: 0
    decay_mult: 0
  }
}
layer {
  name: "conv0_8/scale"
  type: "Scale"
  bottom: "conv0_8/bn"
  top: "conv0_8/bn"
  scale_param {
    filler {
      value: 1
    }
    bias_term: true
    bias_filler {
      value: 0
    }
  }
}
layer {
  name: "relu0_8"
  type: "ReLU"
  bottom: "conv0_8/bn"
  top: "conv0_8/bn"
}
layer {
  name: "conv0_8"
  type: "Convolution"
  bottom: "conv0_8/bn"
  top: "conv0_8"
  convolution_param {
    num_output: 12
    bias_term: false
    pad: 1
    kernel_size: 3
    stride: 1
    weight_filler {
      type: "msra"
    }
    bias_filler {
      type: "constant"
    }
    engine: CUDNN
  }
}
layer {
  name: "concat0_8"
  type: "Concat"
  bottom: "concat0_7"
  bottom: "conv0_8"
  top: "concat0_8"
  concat_param {
    axis: 1
  }
}
layer {
  name: "conv0_9/bn"
  type: "BatchNorm"
  bottom: "concat0_8"
  top: "conv0_9/bn"
  param {
    lr_mult: 0
    decay_mult: 0
  }
  param {
    lr_mult: 0
    decay_mult: 0
  }
  param {
    lr_mult: 0
    decay_mult: 0
  }
}
layer {
  name: "conv0_9/scale"
  type: "Scale"
  bottom: "conv0_9/bn"
  top: "conv0_9/bn"
  scale_param {
    filler {
      value: 1
    }
    bias_term: true
    bias_filler {
      value: 0
    }
  }
}
layer {
  name: "relu0_9"
  type: "ReLU"
  bottom: "conv0_9/bn"
  top: "conv0_9/bn"
}
layer {
  name: "conv0_9"
  type: "Convolution"
  bottom: "conv0_9/bn"
  top: "conv0_9"
  convolution_param {
    num_output: 12
    bias_term: false
    pad: 1
    kernel_size: 3
    stride: 1
    weight_filler {
      type: "msra"
    }
    bias_filler {
      type: "constant"
    }
    engine: CUDNN
  }
}
layer {
  name: "concat0_9"
  type: "Concat"
  bottom: "concat0_8"
  bottom: "conv0_9"
  top: "concat0_9"
  concat_param {
    axis: 1
  }
}
layer {
  name: "conv0_10/bn"
  type: "BatchNorm"
  bottom: "concat0_9"
  top: "conv0_10/bn"
  param {
    lr_mult: 0
    decay_mult: 0
  }
  param {
    lr_mult: 0
    decay_mult: 0
  }
  param {
    lr_mult: 0
    decay_mult: 0
  }
}
layer {
  name: "conv0_10/scale"
  type: "Scale"
  bottom: "conv0_10/bn"
  top: "conv0_10/bn"
  scale_param {
    filler {
      value: 1
    }
    bias_term: true
    bias_filler {
      value: 0
    }
  }
}
layer {
  name: "relu0_10"
  type: "ReLU"
  bottom: "conv0_10/bn"
  top: "conv0_10/bn"
}
layer {
  name: "conv0_10"
  type: "Convolution"
  bottom: "conv0_10/bn"
  top: "conv0_10"
  convolution_param {
    num_output: 12
    bias_term: false
    pad: 1
    kernel_size: 3
    stride: 1
    weight_filler {
      type: "msra"
    }
    bias_filler {
      type: "constant"
    }
    engine: CUDNN
  }
}
layer {
  name: "concat0_10"
  type: "Concat"
  bottom: "concat0_9"
  bottom: "conv0_10"
  top: "concat0_10"
  concat_param {
    axis: 1
  }
}
layer {
  name: "conv0_11/bn"
  type: "BatchNorm"
  bottom: "concat0_10"
  top: "conv0_11/bn"
  param {
    lr_mult: 0
    decay_mult: 0
  }
  param {
    lr_mult: 0
    decay_mult: 0
  }
  param {
    lr_mult: 0
    decay_mult: 0
  }
}
layer {
  name: "conv0_11/scale"
  type: "Scale"
  bottom: "conv0_11/bn"
  top: "conv0_11/bn"
  scale_param {
    filler {
      value: 1
    }
    bias_term: true
    bias_filler {
      value: 0
    }
  }
}
layer {
  name: "relu0_11"
  type: "ReLU"
  bottom: "conv0_11/bn"
  top: "conv0_11/bn"
}
layer {
  name: "conv0_11"
  type: "Convolution"
  bottom: "conv0_11/bn"
  top: "conv0_11"
  convolution_param {
    num_output: 12
    bias_term: false
    pad: 1
    kernel_size: 3
    stride: 1
    weight_filler {
      type: "msra"
    }
    bias_filler {
      type: "constant"
    }
    engine: CUDNN
  }
}
layer {
  name: "concat0_11"
  type: "Concat"
  bottom: "concat0_10"
  bottom: "conv0_11"
  top: "concat0_11"
  concat_param {
    axis: 1
  }
}
layer {
  name: "conv0_12/bn"
  type: "BatchNorm"
  bottom: "concat0_11"
  top: "conv0_12/bn"
  param {
    lr_mult: 0
    decay_mult: 0
  }
  param {
    lr_mult: 0
    decay_mult: 0
  }
  param {
    lr_mult: 0
    decay_mult: 0
  }
}
layer {
  name: "conv0_12/scale"
  type: "Scale"
  bottom: "conv0_12/bn"
  top: "conv0_12/bn"
  scale_param {
    filler {
      value: 1
    }
    bias_term: true
    bias_filler {
      value: 0
    }
  }
}
layer {
  name: "relu0_12"
  type: "ReLU"
  bottom: "conv0_12/bn"
  top: "conv0_12/bn"
}
layer {
  name: "conv0_12"
  type: "Convolution"
  bottom: "conv0_12/bn"
  top: "conv0_12"
  convolution_param {
    num_output: 12
    bias_term: false
    pad: 1
    kernel_size: 3
    stride: 1
    weight_filler {
      type: "msra"
    }
    bias_filler {
      type: "constant"
    }
    engine: CUDNN
  }
}
layer {
  name: "concat0_12"
  type: "Concat"
  bottom: "concat0_11"
  bottom: "conv0_12"
  top: "concat0_12"
  concat_param {
    axis: 1
  }
}
layer {
  name: "conv0_13/bn"
  type: "BatchNorm"
  bottom: "concat0_12"
  top: "conv0_13/bn"
  param {
    lr_mult: 0
    decay_mult: 0
  }
  param {
    lr_mult: 0
    decay_mult: 0
  }
  param {
    lr_mult: 0
    decay_mult: 0
  }
}
layer {
  name: "conv0_13/scale"
  type: "Scale"
  bottom: "conv0_13/bn"
  top: "conv0_13/bn"
  scale_param {
    filler {
      value: 1
    }
    bias_term: true
    bias_filler {
      value: 0
    }
  }
}
layer {
  name: "relu0_13"
  type: "ReLU"
  bottom: "conv0_13/bn"
  top: "conv0_13/bn"
}
layer {
  name: "conv0_13"
  type: "Convolution"
  bottom: "conv0_13/bn"
  top: "conv0_13"
  convolution_param {
    num_output: 12
    bias_term: false
    pad: 1
    kernel_size: 3
    stride: 1
    weight_filler {
      type: "msra"
    }
    bias_filler {
      type: "constant"
    }
    engine: CUDNN
  }
}
layer {
  name: "concat0_13"
  type: "Concat"
  bottom: "concat0_12"
  bottom: "conv0_13"
  top: "concat0_13"
  concat_param {
    axis: 1
  }
}
layer {
  name: "conv0_14/bn"
  type: "BatchNorm"
  bottom: "concat0_13"
  top: "conv0_14/bn"
  param {
    lr_mult: 0
    decay_mult: 0
  }
  param {
    lr_mult: 0
    decay_mult: 0
  }
  param {
    lr_mult: 0
    decay_mult: 0
  }
}
layer {
  name: "conv0_14/scale"
  type: "Scale"
  bottom: "conv0_14/bn"
  top: "conv0_14/bn"
  scale_param {
    filler {
      value: 1
    }
    bias_term: true
    bias_filler {
      value: 0
    }
  }
}
layer {
  name: "relu0_14"
  type: "ReLU"
  bottom: "conv0_14/bn"
  top: "conv0_14/bn"
}
layer {
  name: "conv0_14"
  type: "Convolution"
  bottom: "conv0_14/bn"
  top: "conv0_14"
  convolution_param {
    num_output: 12
    bias_term: false
    pad: 1
    kernel_size: 3
    stride: 1
    weight_filler {
      type: "msra"
    }
    bias_filler {
      type: "constant"
    }
    engine: CUDNN
  }
}
layer {
  name: "concat0_14"
  type: "Concat"
  bottom: "concat0_13"
  bottom: "conv0_14"
  top: "concat0_14"
  concat_param {
    axis: 1
  }
}
layer {
  name: "conv0_15/bn"
  type: "BatchNorm"
  bottom: "concat0_14"
  top: "conv0_15/bn"
  param {
    lr_mult: 0
    decay_mult: 0
  }
  param {
    lr_mult: 0
    decay_mult: 0
  }
  param {
    lr_mult: 0
    decay_mult: 0
  }
}
layer {
  name: "conv0_15/scale"
  type: "Scale"
  bottom: "conv0_15/bn"
  top: "conv0_15/bn"
  scale_param {
    filler {
      value: 1
    }
    bias_term: true
    bias_filler {
      value: 0
    }
  }
}
layer {
  name: "relu0_15"
  type: "ReLU"
  bottom: "conv0_15/bn"
  top: "conv0_15/bn"
}
layer {
  name: "conv0_15"
  type: "Convolution"
  bottom: "conv0_15/bn"
  top: "conv0_15"
  convolution_param {
    num_output: 12
    bias_term: false
    pad: 1
    kernel_size: 3
    stride: 1
    weight_filler {
      type: "msra"
    }
    bias_filler {
      type: "constant"
    }
    engine: CUDNN
  }
}
layer {
  name: "concat0_15"
  type: "Concat"
  bottom: "concat0_14"
  bottom: "conv0_15"
  top: "concat0_15"
  concat_param {
    axis: 1
  }
}
layer {
  name: "conv0_16/bn"
  type: "BatchNorm"
  bottom: "concat0_15"
  top: "conv0_16/bn"
  param {
    lr_mult: 0
    decay_mult: 0
  }
  param {
    lr_mult: 0
    decay_mult: 0
  }
  param {
    lr_mult: 0
    decay_mult: 0
  }
}
layer {
  name: "conv0_16/scale"
  type: "Scale"
  bottom: "conv0_16/bn"
  top: "conv0_16/bn"
  scale_param {
    filler {
      value: 1
    }
    bias_term: true
    bias_filler {
      value: 0
    }
  }
}
layer {
  name: "relu0_16"
  type: "ReLU"
  bottom: "conv0_16/bn"
  top: "conv0_16/bn"
}
layer {
  name: "conv0_16"
  type: "Convolution"
  bottom: "conv0_16/bn"
  top: "conv0_16"
  convolution_param {
    num_output: 12
    bias_term: false
    pad: 1
    kernel_size: 3
    stride: 1
    weight_filler {
      type: "msra"
    }
    bias_filler {
      type: "constant"
    }
    engine: CUDNN
  }
}
layer {
  name: "concat0_16"
  type: "Concat"
  bottom: "concat0_15"
  bottom: "conv0_16"
  top: "concat0_16"
  concat_param {
    axis: 1
  }
}
layer {
  name: "conv0_17/bn"
  type: "BatchNorm"
  bottom: "concat0_16"
  top: "conv0_17/bn"
  param {
    lr_mult: 0
    decay_mult: 0
  }
  param {
    lr_mult: 0
    decay_mult: 0
  }
  param {
    lr_mult: 0
    decay_mult: 0
  }
}
layer {
  name: "conv0_17/scale"
  type: "Scale"
  bottom: "conv0_17/bn"
  top: "conv0_17/bn"
  scale_param {
    filler {
      value: 1
    }
    bias_term: true
    bias_filler {
      value: 0
    }
  }
}
layer {
  name: "relu0_17"
  type: "ReLU"
  bottom: "conv0_17/bn"
  top: "conv0_17/bn"
}
layer {
  name: "conv0_17"
  type: "Convolution"
  bottom: "conv0_17/bn"
  top: "conv0_17"
  convolution_param {
    num_output: 12
    bias_term: false
    pad: 1
    kernel_size: 3
    stride: 1
    weight_filler {
      type: "msra"
    }
    bias_filler {
      type: "constant"
    }
    engine: CUDNN
  }
}
layer {
  name: "concat0_17"
  type: "Concat"
  bottom: "concat0_16"
  bottom: "conv0_17"
  top: "concat0_17"
  concat_param {
    axis: 1
  }
}
layer {
  name: "conv0_18/bn"
  type: "BatchNorm"
  bottom: "concat0_17"
  top: "conv0_18/bn"
  param {
    lr_mult: 0
    decay_mult: 0
  }
  param {
    lr_mult: 0
    decay_mult: 0
  }
  param {
    lr_mult: 0
    decay_mult: 0
  }
}
layer {
  name: "conv0_18/scale"
  type: "Scale"
  bottom: "conv0_18/bn"
  top: "conv0_18/bn"
  scale_param {
    filler {
      value: 1
    }
    bias_term: true
    bias_filler {
      value: 0
    }
  }
}
layer {
  name: "relu0_18"
  type: "ReLU"
  bottom: "conv0_18/bn"
  top: "conv0_18/bn"
}
layer {
  name: "conv0_18"
  type: "Convolution"
  bottom: "conv0_18/bn"
  top: "conv0_18"
  convolution_param {
    num_output: 12
    bias_term: false
    pad: 1
    kernel_size: 3
    stride: 1
    weight_filler {
      type: "msra"
    }
    bias_filler {
      type: "constant"
    }
    engine: CUDNN
  }
}
layer {
  name: "concat0_18"
  type: "Concat"
  bottom: "concat0_17"
  bottom: "conv0_18"
  top: "concat0_18"
  concat_param {
    axis: 1
  }
}
layer {
  name: "conv0_19/bn"
  type: "BatchNorm"
  bottom: "concat0_18"
  top: "conv0_19/bn"
  param {
    lr_mult: 0
    decay_mult: 0
  }
  param {
    lr_mult: 0
    decay_mult: 0
  }
  param {
    lr_mult: 0
    decay_mult: 0
  }
}
layer {
  name: "conv0_19/scale"
  type: "Scale"
  bottom: "conv0_19/bn"
  top: "conv0_19/bn"
  scale_param {
    filler {
      value: 1
    }
    bias_term: true
    bias_filler {
      value: 0
    }
  }
}
layer {
  name: "relu0_19"
  type: "ReLU"
  bottom: "conv0_19/bn"
  top: "conv0_19/bn"
}
layer {
  name: "conv0_19"
  type: "Convolution"
  bottom: "conv0_19/bn"
  top: "conv0_19"
  convolution_param {
    num_output: 12
    bias_term: false
    pad: 1
    kernel_size: 3
    stride: 1
    weight_filler {
      type: "msra"
    }
    bias_filler {
      type: "constant"
    }
    engine: CUDNN
  }
}
layer {
  name: "concat0_19"
  type: "Concat"
  bottom: "concat0_18"
  bottom: "conv0_19"
  top: "concat0_19"
  concat_param {
    axis: 1
  }
}
layer {
  name: "conv0_20/bn"
  type: "BatchNorm"
  bottom: "concat0_19"
  top: "conv0_20/bn"
  param {
    lr_mult: 0
    decay_mult: 0
  }
  param {
    lr_mult: 0
    decay_mult: 0
  }
  param {
    lr_mult: 0
    decay_mult: 0
  }
}
layer {
  name: "conv0_20/scale"
  type: "Scale"
  bottom: "conv0_20/bn"
  top: "conv0_20/bn"
  scale_param {
    filler {
      value: 1
    }
    bias_term: true
    bias_filler {
      value: 0
    }
  }
}
layer {
  name: "relu0_20"
  type: "ReLU"
  bottom: "conv0_20/bn"
  top: "conv0_20/bn"
}
layer {
  name: "conv0_20"
  type: "Convolution"
  bottom: "conv0_20/bn"
  top: "conv0_20"
  convolution_param {
    num_output: 12
    bias_term: false
    pad: 1
    kernel_size: 3
    stride: 1
    weight_filler {
      type: "msra"
    }
    bias_filler {
      type: "constant"
    }
    engine: CUDNN
  }
}
layer {
  name: "concat0_20"
  type: "Concat"
  bottom: "concat0_19"
  bottom: "conv0_20"
  top: "concat0_20"
  concat_param {
    axis: 1
  }
}
layer {
  name: "conv0_21/bn"
  type: "BatchNorm"
  bottom: "concat0_20"
  top: "conv0_21/bn"
  param {
    lr_mult: 0
    decay_mult: 0
  }
  param {
    lr_mult: 0
    decay_mult: 0
  }
  param {
    lr_mult: 0
    decay_mult: 0
  }
}
layer {
  name: "conv0_21/scale"
  type: "Scale"
  bottom: "conv0_21/bn"
  top: "conv0_21/bn"
  scale_param {
    filler {
      value: 1
    }
    bias_term: true
    bias_filler {
      value: 0
    }
  }
}
layer {
  name: "relu0_21"
  type: "ReLU"
  bottom: "conv0_21/bn"
  top: "conv0_21/bn"
}
layer {
  name: "conv0_21"
  type: "Convolution"
  bottom: "conv0_21/bn"
  top: "conv0_21"
  convolution_param {
    num_output: 12
    bias_term: false
    pad: 1
    kernel_size: 3
    stride: 1
    weight_filler {
      type: "msra"
    }
    bias_filler {
      type: "constant"
    }
    engine: CUDNN
  }
}
layer {
  name: "concat0_21"
  type: "Concat"
  bottom: "concat0_20"
  bottom: "conv0_21"
  top: "concat0_21"
  concat_param {
    axis: 1
  }
}
layer {
  name: "conv0_22/bn"
  type: "BatchNorm"
  bottom: "concat0_21"
  top: "conv0_22/bn"
  param {
    lr_mult: 0
    decay_mult: 0
  }
  param {
    lr_mult: 0
    decay_mult: 0
  }
  param {
    lr_mult: 0
    decay_mult: 0
  }
}
layer {
  name: "conv0_22/scale"
  type: "Scale"
  bottom: "conv0_22/bn"
  top: "conv0_22/bn"
  scale_param {
    filler {
      value: 1
    }
    bias_term: true
    bias_filler {
      value: 0
    }
  }
}
layer {
  name: "relu0_22"
  type: "ReLU"
  bottom: "conv0_22/bn"
  top: "conv0_22/bn"
}
layer {
  name: "conv0_22"
  type: "Convolution"
  bottom: "conv0_22/bn"
  top: "conv0_22"
  convolution_param {
    num_output: 12
    bias_term: false
    pad: 1
    kernel_size: 3
    stride: 1
    weight_filler {
      type: "msra"
    }
    bias_filler {
      type: "constant"
    }
    engine: CUDNN
  }
}
layer {
  name: "concat0_22"
  type: "Concat"
  bottom: "concat0_21"
  bottom: "conv0_22"
  top: "concat0_22"
  concat_param {
    axis: 1
  }
}
layer {
  name: "conv0_23/bn"
  type: "BatchNorm"
  bottom: "concat0_22"
  top: "conv0_23/bn"
  param {
    lr_mult: 0
    decay_mult: 0
  }
  param {
    lr_mult: 0
    decay_mult: 0
  }
  param {
    lr_mult: 0
    decay_mult: 0
  }
}
layer {
  name: "conv0_23/scale"
  type: "Scale"
  bottom: "conv0_23/bn"
  top: "conv0_23/bn"
  scale_param {
    filler {
      value: 1
    }
    bias_term: true
    bias_filler {
      value: 0
    }
  }
}
layer {
  name: "relu0_23"
  type: "ReLU"
  bottom: "conv0_23/bn"
  top: "conv0_23/bn"
}
layer {
  name: "conv0_23"
  type: "Convolution"
  bottom: "conv0_23/bn"
  top: "conv0_23"
  convolution_param {
    num_output: 12
    bias_term: false
    pad: 1
    kernel_size: 3
    stride: 1
    weight_filler {
      type: "msra"
    }
    bias_filler {
      type: "constant"
    }
    engine: CUDNN
  }
}
layer {
  name: "concat0_23"
  type: "Concat"
  bottom: "concat0_22"
  bottom: "conv0_23"
  top: "concat0_23"
  concat_param {
    axis: 1
  }
}
layer {
  name: "conv0_24/bn"
  type: "BatchNorm"
  bottom: "concat0_23"
  top: "conv0_24/bn"
  param {
    lr_mult: 0
    decay_mult: 0
  }
  param {
    lr_mult: 0
    decay_mult: 0
  }
  param {
    lr_mult: 0
    decay_mult: 0
  }
}
layer {
  name: "conv0_24/scale"
  type: "Scale"
  bottom: "conv0_24/bn"
  top: "conv0_24/bn"
  scale_param {
    filler {
      value: 1
    }
    bias_term: true
    bias_filler {
      value: 0
    }
  }
}
layer {
  name: "relu0_24"
  type: "ReLU"
  bottom: "conv0_24/bn"
  top: "conv0_24/bn"
}
layer {
  name: "conv0_24"
  type: "Convolution"
  bottom: "conv0_24/bn"
  top: "conv0_24"
  convolution_param {
    num_output: 12
    bias_term: false
    pad: 1
    kernel_size: 3
    stride: 1
    weight_filler {
      type: "msra"
    }
    bias_filler {
      type: "constant"
    }
    engine: CUDNN
  }
}
layer {
  name: "concat0_24"
  type: "Concat"
  bottom: "concat0_23"
  bottom: "conv0_24"
  top: "concat0_24"
  concat_param {
    axis: 1
  }
}
layer {
  name: "conv0_25/bn"
  type: "BatchNorm"
  bottom: "concat0_24"
  top: "conv0_25/bn"
  param {
    lr_mult: 0
    decay_mult: 0
  }
  param {
    lr_mult: 0
    decay_mult: 0
  }
  param {
    lr_mult: 0
    decay_mult: 0
  }
}
layer {
  name: "conv0_25/scale"
  type: "Scale"
  bottom: "conv0_25/bn"
  top: "conv0_25/bn"
  scale_param {
    filler {
      value: 1
    }
    bias_term: true
    bias_filler {
      value: 0
    }
  }
}
layer {
  name: "relu0_25"
  type: "ReLU"
  bottom: "conv0_25/bn"
  top: "conv0_25/bn"
}
layer {
  name: "conv0_25"
  type: "Convolution"
  bottom: "conv0_25/bn"
  top: "conv0_25"
  convolution_param {
    num_output: 12
    bias_term: false
    pad: 1
    kernel_size: 3
    stride: 1
    weight_filler {
      type: "msra"
    }
    bias_filler {
      type: "constant"
    }
    engine: CUDNN
  }
}
layer {
  name: "concat0_25"
  type: "Concat"
  bottom: "concat0_24"
  bottom: "conv0_25"
  top: "concat0_25"
  concat_param {
    axis: 1
  }
}
layer {
  name: "conv0_26/bn"
  type: "BatchNorm"
  bottom: "concat0_25"
  top: "conv0_26/bn"
  param {
    lr_mult: 0
    decay_mult: 0
  }
  param {
    lr_mult: 0
    decay_mult: 0
  }
  param {
    lr_mult: 0
    decay_mult: 0
  }
}
layer {
  name: "conv0_26/scale"
  type: "Scale"
  bottom: "conv0_26/bn"
  top: "conv0_26/bn"
  scale_param {
    filler {
      value: 1
    }
    bias_term: true
    bias_filler {
      value: 0
    }
  }
}
layer {
  name: "relu0_26"
  type: "ReLU"
  bottom: "conv0_26/bn"
  top: "conv0_26/bn"
}
layer {
  name: "conv0_26"
  type: "Convolution"
  bottom: "conv0_26/bn"
  top: "conv0_26"
  convolution_param {
    num_output: 12
    bias_term: false
    pad: 1
    kernel_size: 3
    stride: 1
    weight_filler {
      type: "msra"
    }
    bias_filler {
      type: "constant"
    }
    engine: CUDNN
  }
}
layer {
  name: "concat0_26"
  type: "Concat"
  bottom: "concat0_25"
  bottom: "conv0_26"
  top: "concat0_26"
  concat_param {
    axis: 1
  }
}
layer {
  name: "conv0_27/bn"
  type: "BatchNorm"
  bottom: "concat0_26"
  top: "conv0_27/bn"
  param {
    lr_mult: 0
    decay_mult: 0
  }
  param {
    lr_mult: 0
    decay_mult: 0
  }
  param {
    lr_mult: 0
    decay_mult: 0
  }
}
layer {
  name: "conv0_27/scale"
  type: "Scale"
  bottom: "conv0_27/bn"
  top: "conv0_27/bn"
  scale_param {
    filler {
      value: 1
    }
    bias_term: true
    bias_filler {
      value: 0
    }
  }
}
layer {
  name: "relu0_27"
  type: "ReLU"
  bottom: "conv0_27/bn"
  top: "conv0_27/bn"
}
layer {
  name: "conv0_27"
  type: "Convolution"
  bottom: "conv0_27/bn"
  top: "conv0_27"
  convolution_param {
    num_output: 12
    bias_term: false
    pad: 1
    kernel_size: 3
    stride: 1
    weight_filler {
      type: "msra"
    }
    bias_filler {
      type: "constant"
    }
    engine: CUDNN
  }
}
layer {
  name: "concat0_27"
  type: "Concat"
  bottom: "concat0_26"
  bottom: "conv0_27"
  top: "concat0_27"
  concat_param {
    axis: 1
  }
}
layer {
  name: "conv0_28/bn"
  type: "BatchNorm"
  bottom: "concat0_27"
  top: "conv0_28/bn"
  param {
    lr_mult: 0
    decay_mult: 0
  }
  param {
    lr_mult: 0
    decay_mult: 0
  }
  param {
    lr_mult: 0
    decay_mult: 0
  }
}
layer {
  name: "conv0_28/scale"
  type: "Scale"
  bottom: "conv0_28/bn"
  top: "conv0_28/bn"
  scale_param {
    filler {
      value: 1
    }
    bias_term: true
    bias_filler {
      value: 0
    }
  }
}
layer {
  name: "relu0_28"
  type: "ReLU"
  bottom: "conv0_28/bn"
  top: "conv0_28/bn"
}
layer {
  name: "conv0_28"
  type: "Convolution"
  bottom: "conv0_28/bn"
  top: "conv0_28"
  convolution_param {
    num_output: 12
    bias_term: fals
I0227 14:24:39.470584  5773 layer_factory.hpp:77] Creating layer word_images
I0227 14:24:39.470721  5773 db_lmdb.cpp:35] Opened lmdb /data/fwolf/gw4_50000/gw_cv4_nti500000_pul2-3-4-5_train_word_images_lmdb
I0227 14:24:39.470760  5773 net.cpp:84] Creating Layer word_images
I0227 14:24:39.470772  5773 net.cpp:380] word_images -> word_images
I0227 14:24:39.470795  5773 net.cpp:380] word_images -> label
I0227 14:24:39.474216  5773 data_layer.cpp:44] output data size: 1,1,67,272
I0227 14:24:39.540985  5773 net.cpp:122] Setting up word_images
I0227 14:24:39.541039  5773 net.cpp:129] Top shape: 1 1 67 272 (18224)
I0227 14:24:39.541049  5773 net.cpp:129] Top shape: 1 (1)
I0227 14:24:39.541054  5773 net.cpp:137] Memory required for data: 72900
I0227 14:24:39.541064  5773 layer_factory.hpp:77] Creating layer phocs
I0227 14:24:39.541203  5773 db_lmdb.cpp:35] Opened lmdb /data/fwolf/gw4_50000/gw_cv4_nti500000_pul2-3-4-5_train_phocs_lmdb
I0227 14:24:39.541247  5773 net.cpp:84] Creating Layer phocs
I0227 14:24:39.541260  5773 net.cpp:380] phocs -> phocs
I0227 14:24:39.541275  5773 net.cpp:380] phocs -> label_phocs
I0227 14:24:39.541853  5773 data_layer.cpp:44] output data size: 1,1,1,604
I0227 14:24:39.548838  5773 net.cpp:122] Setting up phocs
I0227 14:24:39.548898  5773 net.cpp:129] Top shape: 1 1 1 604 (604)
I0227 14:24:39.548909  5773 net.cpp:129] Top shape: 1 (1)
I0227 14:24:39.548914  5773 net.cpp:137] Memory required for data: 75320
I0227 14:24:39.548920  5773 layer_factory.hpp:77] Creating layer conv_init
I0227 14:24:39.548955  5773 net.cpp:84] Creating Layer conv_init
I0227 14:24:39.548962  5773 net.cpp:406] conv_init <- word_images
I0227 14:24:39.548979  5773 net.cpp:380] conv_init -> conv_init
I0227 14:24:40.297123  5773 net.cpp:122] Setting up conv_init
I0227 14:24:40.297158  5773 net.cpp:129] Top shape: 1 32 67 272 (583168)
I0227 14:24:40.297163  5773 net.cpp:137] Memory required for data: 2407992
I0227 14:24:40.297178  5773 layer_factory.hpp:77] Creating layer bn_init
I0227 14:24:40.297194  5773 net.cpp:84] Creating Layer bn_init
I0227 14:24:40.297199  5773 net.cpp:406] bn_init <- conv_init
I0227 14:24:40.297206  5773 net.cpp:380] bn_init -> bn_init
I0227 14:24:40.297583  5773 net.cpp:122] Setting up bn_init
I0227 14:24:40.297591  5773 net.cpp:129] Top shape: 1 32 67 272 (583168)
I0227 14:24:40.297595  5773 net.cpp:137] Memory required for data: 4740664
I0227 14:24:40.297606  5773 layer_factory.hpp:77] Creating layer scale_init
I0227 14:24:40.297618  5773 net.cpp:84] Creating Layer scale_init
I0227 14:24:40.297622  5773 net.cpp:406] scale_init <- bn_init
I0227 14:24:40.297627  5773 net.cpp:367] scale_init -> bn_init (in-place)
I0227 14:24:40.297686  5773 layer_factory.hpp:77] Creating layer scale_init
I0227 14:24:40.297894  5773 net.cpp:122] Setting up scale_init
I0227 14:24:40.297902  5773 net.cpp:129] Top shape: 1 32 67 272 (583168)
I0227 14:24:40.297906  5773 net.cpp:137] Memory required for data: 7073336
I0227 14:24:40.297914  5773 layer_factory.hpp:77] Creating layer relu_init
I0227 14:24:40.297921  5773 net.cpp:84] Creating Layer relu_init
I0227 14:24:40.297925  5773 net.cpp:406] relu_init <- bn_init
I0227 14:24:40.297930  5773 net.cpp:367] relu_init -> bn_init (in-place)
I0227 14:24:40.299057  5773 net.cpp:122] Setting up relu_init
I0227 14:24:40.299070  5773 net.cpp:129] Top shape: 1 32 67 272 (583168)
I0227 14:24:40.299075  5773 net.cpp:137] Memory required for data: 9406008
I0227 14:24:40.299079  5773 layer_factory.hpp:77] Creating layer pool_init
I0227 14:24:40.299088  5773 net.cpp:84] Creating Layer pool_init
I0227 14:24:40.299095  5773 net.cpp:406] pool_init <- bn_init
I0227 14:24:40.299103  5773 net.cpp:380] pool_init -> pool_init
I0227 14:24:40.299178  5773 net.cpp:122] Setting up pool_init
I0227 14:24:40.299185  5773 net.cpp:129] Top shape: 1 32 34 137 (149056)
I0227 14:24:40.299188  5773 net.cpp:137] Memory required for data: 10002232
I0227 14:24:40.299192  5773 layer_factory.hpp:77] Creating layer pool_init_pool_init_0_split
I0227 14:24:40.299198  5773 net.cpp:84] Creating Layer pool_init_pool_init_0_split
I0227 14:24:40.299202  5773 net.cpp:406] pool_init_pool_init_0_split <- pool_init
I0227 14:24:40.299207  5773 net.cpp:380] pool_init_pool_init_0_split -> pool_init_pool_init_0_split_0
I0227 14:24:40.299214  5773 net.cpp:380] pool_init_pool_init_0_split -> pool_init_pool_init_0_split_1
I0227 14:24:40.299265  5773 net.cpp:122] Setting up pool_init_pool_init_0_split
I0227 14:24:40.299271  5773 net.cpp:129] Top shape: 1 32 34 137 (149056)
I0227 14:24:40.299276  5773 net.cpp:129] Top shape: 1 32 34 137 (149056)
I0227 14:24:40.299279  5773 net.cpp:137] Memory required for data: 11194680
I0227 14:24:40.299283  5773 layer_factory.hpp:77] Creating layer conv0_0/bn
I0227 14:24:40.299289  5773 net.cpp:84] Creating Layer conv0_0/bn
I0227 14:24:40.299293  5773 net.cpp:406] conv0_0/bn <- pool_init_pool_init_0_split_0
I0227 14:24:40.299299  5773 net.cpp:380] conv0_0/bn -> conv0_0/bn
I0227 14:24:40.301491  5773 net.cpp:122] Setting up conv0_0/bn
I0227 14:24:40.301506  5773 net.cpp:129] Top shape: 1 32 34 137 (149056)
I0227 14:24:40.301508  5773 net.cpp:137] Memory required for data: 11790904
I0227 14:24:40.301519  5773 layer_factory.hpp:77] Creating layer conv0_0/scale
I0227 14:24:40.301528  5773 net.cpp:84] Creating Layer conv0_0/scale
I0227 14:24:40.301532  5773 net.cpp:406] conv0_0/scale <- conv0_0/bn
I0227 14:24:40.301538  5773 net.cpp:367] conv0_0/scale -> conv0_0/bn (in-place)
I0227 14:24:40.301597  5773 layer_factory.hpp:77] Creating layer conv0_0/scale
I0227 14:24:40.301795  5773 net.cpp:122] Setting up conv0_0/scale
I0227 14:24:40.301803  5773 net.cpp:129] Top shape: 1 32 34 137 (149056)
I0227 14:24:40.301806  5773 net.cpp:137] Memory required for data: 12387128
I0227 14:24:40.301813  5773 layer_factory.hpp:77] Creating layer relu0_0
I0227 14:24:40.301820  5773 net.cpp:84] Creating Layer relu0_0
I0227 14:24:40.301823  5773 net.cpp:406] relu0_0 <- conv0_0/bn
I0227 14:24:40.301828  5773 net.cpp:367] relu0_0 -> conv0_0/bn (in-place)
I0227 14:24:40.302023  5773 net.cpp:122] Setting up relu0_0
I0227 14:24:40.302033  5773 net.cpp:129] Top shape: 1 32 34 137 (149056)
I0227 14:24:40.302037  5773 net.cpp:137] Memory required for data: 12983352
I0227 14:24:40.302042  5773 layer_factory.hpp:77] Creating layer conv0_0
I0227 14:24:40.302053  5773 net.cpp:84] Creating Layer conv0_0
I0227 14:24:40.302057  5773 net.cpp:406] conv0_0 <- conv0_0/bn
I0227 14:24:40.302064  5773 net.cpp:380] conv0_0 -> conv0_0
I0227 14:24:40.305769  5773 net.cpp:122] Setting up conv0_0
I0227 14:24:40.305784  5773 net.cpp:129] Top shape: 1 12 34 137 (55896)
I0227 14:24:40.305788  5773 net.cpp:137] Memory required for data: 13206936
I0227 14:24:40.305794  5773 layer_factory.hpp:77] Creating layer concat0_0
I0227 14:24:40.305804  5773 net.cpp:84] Creating Layer concat0_0
I0227 14:24:40.305807  5773 net.cpp:406] concat0_0 <- pool_init_pool_init_0_split_1
I0227 14:24:40.305814  5773 net.cpp:406] concat0_0 <- conv0_0
I0227 14:24:40.305819  5773 net.cpp:380] concat0_0 -> concat0_0
I0227 14:24:40.305857  5773 net.cpp:122] Setting up concat0_0
I0227 14:24:40.305865  5773 net.cpp:129] Top shape: 1 44 34 137 (204952)
I0227 14:24:40.305868  5773 net.cpp:137] Memory required for data: 14026744
I0227 14:24:40.305871  5773 layer_factory.hpp:77] Creating layer concat0_0_concat0_0_0_split
I0227 14:24:40.305877  5773 net.cpp:84] Creating Layer concat0_0_concat0_0_0_split
I0227 14:24:40.305881  5773 net.cpp:406] concat0_0_concat0_0_0_split <- concat0_0
I0227 14:24:40.305886  5773 net.cpp:380] concat0_0_concat0_0_0_split -> concat0_0_concat0_0_0_split_0
I0227 14:24:40.305892  5773 net.cpp:380] concat0_0_concat0_0_0_split -> concat0_0_concat0_0_0_split_1
I0227 14:24:40.305946  5773 net.cpp:122] Setting up concat0_0_concat0_0_0_split
I0227 14:24:40.305953  5773 net.cpp:129] Top shape: 1 44 34 137 (204952)
I0227 14:24:40.305958  5773 net.cpp:129] Top shape: 1 44 34 137 (204952)
I0227 14:24:40.305960  5773 net.cpp:137] Memory required for data: 15666360
I0227 14:24:40.305964  5773 layer_factory.hpp:77] Creating layer conv0_1/bn
I0227 14:24:40.305970  5773 net.cpp:84] Creating Layer conv0_1/bn
I0227 14:24:40.305974  5773 net.cpp:406] conv0_1/bn <- concat0_0_concat0_0_0_split_0
I0227 14:24:40.305979  5773 net.cpp:380] conv0_1/bn -> conv0_1/bn
I0227 14:24:40.306303  5773 net.cpp:122] Setting up conv0_1/bn
I0227 14:24:40.306310  5773 net.cpp:129] Top shape: 1 44 34 137 (204952)
I0227 14:24:40.306313  5773 net.cpp:137] Memory required for data: 16486168
I0227 14:24:40.306321  5773 layer_factory.hpp:77] Creating layer conv0_1/scale
I0227 14:24:40.306329  5773 net.cpp:84] Creating Layer conv0_1/scale
I0227 14:24:40.306332  5773 net.cpp:406] conv0_1/scale <- conv0_1/bn
I0227 14:24:40.306339  5773 net.cpp:367] conv0_1/scale -> conv0_1/bn (in-place)
I0227 14:24:40.306392  5773 layer_factory.hpp:77] Creating layer conv0_1/scale
I0227 14:24:40.306572  5773 net.cpp:122] Setting up conv0_1/scale
I0227 14:24:40.306581  5773 net.cpp:129] Top shape: 1 44 34 137 (204952)
I0227 14:24:40.306584  5773 net.cpp:137] Memory required for data: 17305976
I0227 14:24:40.306593  5773 layer_factory.hpp:77] Creating layer relu0_1
I0227 14:24:40.306601  5773 net.cpp:84] Creating Layer relu0_1
I0227 14:24:40.306604  5773 net.cpp:406] relu0_1 <- conv0_1/bn
I0227 14:24:40.306609  5773 net.cpp:367] relu0_1 -> conv0_1/bn (in-place)
I0227 14:24:40.306794  5773 net.cpp:122] Setting up relu0_1
I0227 14:24:40.306803  5773 net.cpp:129] Top shape: 1 44 34 137 (204952)
I0227 14:24:40.306807  5773 net.cpp:137] Memory required for data: 18125784
I0227 14:24:40.306812  5773 layer_factory.hpp:77] Creating layer conv0_1
I0227 14:24:40.306820  5773 net.cpp:84] Creating Layer conv0_1
I0227 14:24:40.306824  5773 net.cpp:406] conv0_1 <- conv0_1/bn
I0227 14:24:40.306830  5773 net.cpp:380] conv0_1 -> conv0_1
I0227 14:24:40.308773  5773 net.cpp:122] Setting up conv0_1
I0227 14:24:40.308787  5773 net.cpp:129] Top shape: 1 12 34 137 (55896)
I0227 14:24:40.308791  5773 net.cpp:137] Memory required for data: 18349368
I0227 14:24:40.308797  5773 layer_factory.hpp:77] Creating layer concat0_1
I0227 14:24:40.308805  5773 net.cpp:84] Creating Layer concat0_1
I0227 14:24:40.308809  5773 net.cpp:406] concat0_1 <- concat0_0_concat0_0_0_split_1
I0227 14:24:40.308815  5773 net.cpp:406] concat0_1 <- conv0_1
I0227 14:24:40.308820  5773 net.cpp:380] concat0_1 -> concat0_1
I0227 14:24:40.308861  5773 net.cpp:122] Setting up concat0_1
I0227 14:24:40.308868  5773 net.cpp:129] Top shape: 1 56 34 137 (260848)
I0227 14:24:40.308872  5773 net.cpp:137] Memory required for data: 19392760
I0227 14:24:40.308876  5773 layer_factory.hpp:77] Creating layer concat0_1_concat0_1_0_split
I0227 14:24:40.308881  5773 net.cpp:84] Creating Layer concat0_1_concat0_1_0_split
I0227 14:24:40.308885  5773 net.cpp:406] concat0_1_concat0_1_0_split <- concat0_1
I0227 14:24:40.308892  5773 net.cpp:380] concat0_1_concat0_1_0_split -> concat0_1_concat0_1_0_split_0
I0227 14:24:40.308897  5773 net.cpp:380] concat0_1_concat0_1_0_split -> concat0_1_concat0_1_0_split_1
I0227 14:24:40.308948  5773 net.cpp:122] Setting up concat0_1_concat0_1_0_split
I0227 14:24:40.308955  5773 net.cpp:129] Top shape: 1 56 34 137 (260848)
I0227 14:24:40.308959  5773 net.cpp:129] Top shape: 1 56 34 137 (260848)
I0227 14:24:40.308977  5773 net.cpp:137] Memory required for data: 21479544
I0227 14:24:40.308981  5773 layer_factory.hpp:77] Creating layer conv0_2/bn
I0227 14:24:40.308987  5773 net.cpp:84] Creating Layer conv0_2/bn
I0227 14:24:40.308991  5773 net.cpp:406] conv0_2/bn <- concat0_1_concat0_1_0_split_0
I0227 14:24:40.308996  5773 net.cpp:380] conv0_2/bn -> conv0_2/bn
I0227 14:24:40.309342  5773 net.cpp:122] Setting up conv0_2/bn
I0227 14:24:40.309352  5773 net.cpp:129] Top shape: 1 56 34 137 (260848)
I0227 14:24:40.309356  5773 net.cpp:137] Memory required for data: 22522936
I0227 14:24:40.309365  5773 layer_factory.hpp:77] Creating layer conv0_2/scale
I0227 14:24:40.309371  5773 net.cpp:84] Creating Layer conv0_2/scale
I0227 14:24:40.309376  5773 net.cpp:406] conv0_2/scale <- conv0_2/bn
I0227 14:24:40.309381  5773 net.cpp:367] conv0_2/scale -> conv0_2/bn (in-place)
I0227 14:24:40.309439  5773 layer_factory.hpp:77] Creating layer conv0_2/scale
I0227 14:24:40.309633  5773 net.cpp:122] Setting up conv0_2/scale
I0227 14:24:40.309641  5773 net.cpp:129] Top shape: 1 56 34 137 (260848)
I0227 14:24:40.309645  5773 net.cpp:137] Memory required for data: 23566328
I0227 14:24:40.309651  5773 layer_factory.hpp:77] Creating layer relu0_2
I0227 14:24:40.309657  5773 net.cpp:84] Creating Layer relu0_2
I0227 14:24:40.309661  5773 net.cpp:406] relu0_2 <- conv0_2/bn
I0227 14:24:40.309666  5773 net.cpp:367] relu0_2 -> conv0_2/bn (in-place)
I0227 14:24:40.310796  5773 net.cpp:122] Setting up relu0_2
I0227 14:24:40.310808  5773 net.cpp:129] Top shape: 1 56 34 137 (260848)
I0227 14:24:40.310812  5773 net.cpp:137] Memory required for data: 24609720
I0227 14:24:40.310817  5773 layer_factory.hpp:77] Creating layer conv0_2
I0227 14:24:40.310827  5773 net.cpp:84] Creating Layer conv0_2
I0227 14:24:40.310832  5773 net.cpp:406] conv0_2 <- conv0_2/bn
I0227 14:24:40.310837  5773 net.cpp:380] conv0_2 -> conv0_2
I0227 14:24:40.312832  5773 net.cpp:122] Setting up conv0_2
I0227 14:24:40.312847  5773 net.cpp:129] Top shape: 1 12 34 137 (55896)
I0227 14:24:40.312851  5773 net.cpp:137] Memory required for data: 24833304
I0227 14:24:40.312858  5773 layer_factory.hpp:77] Creating layer concat0_2
I0227 14:24:40.312866  5773 net.cpp:84] Creating Layer concat0_2
I0227 14:24:40.312871  5773 net.cpp:406] concat0_2 <- concat0_1_concat0_1_0_split_1
I0227 14:24:40.312877  5773 net.cpp:406] concat0_2 <- conv0_2
I0227 14:24:40.312883  5773 net.cpp:380] concat0_2 -> concat0_2
I0227 14:24:40.312924  5773 net.cpp:122] Setting up concat0_2
I0227 14:24:40.312932  5773 net.cpp:129] Top shape: 1 68 34 137 (316744)
I0227 14:24:40.312934  5773 net.cpp:137] Memory required for data: 26100280
I0227 14:24:40.312938  5773 layer_factory.hpp:77] Creating layer concat0_2_concat0_2_0_split
I0227 14:24:40.312944  5773 net.cpp:84] Creating Layer concat0_2_concat0_2_0_split
I0227 14:24:40.312948  5773 net.cpp:406] concat0_2_concat0_2_0_split <- concat0_2
I0227 14:24:40.312954  5773 net.cpp:380] concat0_2_concat0_2_0_split -> concat0_2_concat0_2_0_split_0
I0227 14:24:40.312961  5773 net.cpp:380] concat0_2_concat0_2_0_split -> concat0_2_concat0_2_0_split_1
I0227 14:24:40.313041  5773 net.cpp:122] Setting up concat0_2_concat0_2_0_split
I0227 14:24:40.313047  5773 net.cpp:129] Top shape: 1 68 34 137 (316744)
I0227 14:24:40.313052  5773 net.cpp:129] Top shape: 1 68 34 137 (316744)
I0227 14:24:40.313055  5773 net.cpp:137] Memory required for data: 28634232
I0227 14:24:40.313058  5773 layer_factory.hpp:77] Creating layer conv0_3/bn
I0227 14:24:40.313066  5773 net.cpp:84] Creating Layer conv0_3/bn
I0227 14:24:40.313068  5773 net.cpp:406] conv0_3/bn <- concat0_2_concat0_2_0_split_0
I0227 14:24:40.313074  5773 net.cpp:380] conv0_3/bn -> conv0_3/bn
I0227 14:24:40.313406  5773 net.cpp:122] Setting up conv0_3/bn
I0227 14:24:40.313413  5773 net.cpp:129] Top shape: 1 68 34 137 (316744)
I0227 14:24:40.313416  5773 net.cpp:137] Memory required for data: 29901208
I0227 14:24:40.313424  5773 layer_factory.hpp:77] Creating layer conv0_3/scale
I0227 14:24:40.313431  5773 net.cpp:84] Creating Layer conv0_3/scale
I0227 14:24:40.313436  5773 net.cpp:406] conv0_3/scale <- conv0_3/bn
I0227 14:24:40.313441  5773 net.cpp:367] conv0_3/scale -> conv0_3/bn (in-place)
I0227 14:24:40.313496  5773 layer_factory.hpp:77] Creating layer conv0_3/scale
I0227 14:24:40.313679  5773 net.cpp:122] Setting up conv0_3/scale
I0227 14:24:40.313688  5773 net.cpp:129] Top shape: 1 68 34 137 (316744)
I0227 14:24:40.313690  5773 net.cpp:137] Memory required for data: 31168184
I0227 14:24:40.313699  5773 layer_factory.hpp:77] Creating layer relu0_3
I0227 14:24:40.313706  5773 net.cpp:84] Creating Layer relu0_3
I0227 14:24:40.313710  5773 net.cpp:406] relu0_3 <- conv0_3/bn
I0227 14:24:40.313715  5773 net.cpp:367] relu0_3 -> conv0_3/bn (in-place)
I0227 14:24:40.313905  5773 net.cpp:122] Setting up relu0_3
I0227 14:24:40.313913  5773 net.cpp:129] Top shape: 1 68 34 137 (316744)
I0227 14:24:40.313916  5773 net.cpp:137] Memory required for data: 32435160
I0227 14:24:40.313920  5773 layer_factory.hpp:77] Creating layer conv0_3
I0227 14:24:40.313930  5773 net.cpp:84] Creating Layer conv0_3
I0227 14:24:40.313935  5773 net.cpp:406] conv0_3 <- conv0_3/bn
I0227 14:24:40.313941  5773 net.cpp:380] conv0_3 -> conv0_3
I0227 14:24:40.316069  5773 net.cpp:122] Setting up conv0_3
I0227 14:24:40.316084  5773 net.cpp:129] Top shape: 1 12 34 137 (55896)
I0227 14:24:40.316088  5773 net.cpp:137] Memory required for data: 32658744
I0227 14:24:40.316095  5773 layer_factory.hpp:77] Creating layer concat0_3
I0227 14:24:40.316103  5773 net.cpp:84] Creating Layer concat0_3
I0227 14:24:40.316107  5773 net.cpp:406] concat0_3 <- concat0_2_concat0_2_0_split_1
I0227 14:24:40.316113  5773 net.cpp:406] concat0_3 <- conv0_3
I0227 14:24:40.316118  5773 net.cpp:380] concat0_3 -> concat0_3
I0227 14:24:40.316159  5773 net.cpp:122] Setting up concat0_3
I0227 14:24:40.316165  5773 net.cpp:129] Top shape: 1 80 34 137 (372640)
I0227 14:24:40.316169  5773 net.cpp:137] Memory required for data: 34149304
I0227 14:24:40.316172  5773 layer_factory.hpp:77] Creating layer concat0_3_concat0_3_0_split
I0227 14:24:40.316179  5773 net.cpp:84] Creating Layer concat0_3_concat0_3_0_split
I0227 14:24:40.316182  5773 net.cpp:406] concat0_3_concat0_3_0_split <- concat0_3
I0227 14:24:40.316187  5773 net.cpp:380] concat0_3_concat0_3_0_split -> concat0_3_concat0_3_0_split_0
I0227 14:24:40.316195  5773 net.cpp:380] concat0_3_concat0_3_0_split -> concat0_3_concat0_3_0_split_1
I0227 14:24:40.316247  5773 net.cpp:122] Setting up concat0_3_concat0_3_0_split
I0227 14:24:40.316253  5773 net.cpp:129] Top shape: 1 80 34 137 (372640)
I0227 14:24:40.316258  5773 net.cpp:129] Top shape: 1 80 34 137 (372640)
I0227 14:24:40.316262  5773 net.cpp:137] Memory required for data: 37130424
I0227 14:24:40.316265  5773 layer_factory.hpp:77] Creating layer conv0_4/bn
I0227 14:24:40.316272  5773 net.cpp:84] Creating Layer conv0_4/bn
I0227 14:24:40.316277  5773 net.cpp:406] conv0_4/bn <- concat0_3_concat0_3_0_split_0
I0227 14:24:40.316282  5773 net.cpp:380] conv0_4/bn -> conv0_4/bn
I0227 14:24:40.316624  5773 net.cpp:122] Setting up conv0_4/bn
I0227 14:24:40.316655  5773 net.cpp:129] Top shape: 1 80 34 137 (372640)
I0227 14:24:40.316659  5773 net.cpp:137] Memory required for data: 38620984
I0227 14:24:40.316670  5773 layer_factory.hpp:77] Creating layer conv0_4/scale
I0227 14:24:40.316679  5773 net.cpp:84] Creating Layer conv0_4/scale
I0227 14:24:40.316684  5773 net.cpp:406] conv0_4/scale <- conv0_4/bn
I0227 14:24:40.316689  5773 net.cpp:367] conv0_4/scale -> conv0_4/bn (in-place)
I0227 14:24:40.316751  5773 layer_factory.hpp:77] Creating layer conv0_4/scale
I0227 14:24:40.316954  5773 net.cpp:122] Setting up conv0_4/scale
I0227 14:24:40.316977  5773 net.cpp:129] Top shape: 1 80 34 137 (372640)
I0227 14:24:40.316982  5773 net.cpp:137] Memory required for data: 40111544
I0227 14:24:40.316987  5773 layer_factory.hpp:77] Creating layer relu0_4
I0227 14:24:40.316994  5773 net.cpp:84] Creating Layer relu0_4
I0227 14:24:40.316998  5773 net.cpp:406] relu0_4 <- conv0_4/bn
I0227 14:24:40.317003  5773 net.cpp:367] relu0_4 -> conv0_4/bn (in-place)
I0227 14:24:40.317207  5773 net.cpp:122] Setting up relu0_4
I0227 14:24:40.317216  5773 net.cpp:129] Top shape: 1 80 34 137 (372640)
I0227 14:24:40.317220  5773 net.cpp:137] Memory required for data: 41602104
I0227 14:24:40.317224  5773 layer_factory.hpp:77] Creating layer conv0_4
I0227 14:24:40.317234  5773 net.cpp:84] Creating Layer conv0_4
I0227 14:24:40.317239  5773 net.cpp:406] conv0_4 <- conv0_4/bn
I0227 14:24:40.317245  5773 net.cpp:380] conv0_4 -> conv0_4
I0227 14:24:40.319264  5773 net.cpp:122] Setting up conv0_4
I0227 14:24:40.319278  5773 net.cpp:129] Top shape: 1 12 34 137 (55896)
I0227 14:24:40.319283  5773 net.cpp:137] Memory required for data: 41825688
I0227 14:24:40.319289  5773 layer_factory.hpp:77] Creating layer concat0_4
I0227 14:24:40.319296  5773 net.cpp:84] Creating Layer concat0_4
I0227 14:24:40.319301  5773 net.cpp:406] concat0_4 <- concat0_3_concat0_3_0_split_1
I0227 14:24:40.319306  5773 net.cpp:406] concat0_4 <- conv0_4
I0227 14:24:40.319313  5773 net.cpp:380] concat0_4 -> concat0_4
I0227 14:24:40.319351  5773 net.cpp:122] Setting up concat0_4
I0227 14:24:40.319358  5773 net.cpp:129] Top shape: 1 92 34 137 (428536)
I0227 14:24:40.319361  5773 net.cpp:137] Memory required for data: 43539832
I0227 14:24:40.319365  5773 layer_factory.hpp:77] Creating layer concat0_4_concat0_4_0_split
I0227 14:24:40.319370  5773 net.cpp:84] Creating Layer concat0_4_concat0_4_0_split
I0227 14:24:40.319375  5773 net.cpp:406] concat0_4_concat0_4_0_split <- concat0_4
I0227 14:24:40.319380  5773 net.cpp:380] concat0_4_concat0_4_0_split -> concat0_4_concat0_4_0_split_0
I0227 14:24:40.319387  5773 net.cpp:380] concat0_4_concat0_4_0_split -> concat0_4_concat0_4_0_split_1
I0227 14:24:40.319438  5773 net.cpp:122] Setting up concat0_4_concat0_4_0_split
I0227 14:24:40.319445  5773 net.cpp:129] Top shape: 1 92 34 137 (428536)
I0227 14:24:40.319449  5773 net.cpp:129] Top shape: 1 92 34 137 (428536)
I0227 14:24:40.319453  5773 net.cpp:137] Memory required for data: 46968120
I0227 14:24:40.319456  5773 layer_factory.hpp:77] Creating layer conv0_5/bn
I0227 14:24:40.319463  5773 net.cpp:84] Creating Layer conv0_5/bn
I0227 14:24:40.319466  5773 net.cpp:406] conv0_5/bn <- concat0_4_concat0_4_0_split_0
I0227 14:24:40.319473  5773 net.cpp:380] conv0_5/bn -> conv0_5/bn
I0227 14:24:40.319798  5773 net.cpp:122] Setting up conv0_5/bn
I0227 14:24:40.319805  5773 net.cpp:129] Top shape: 1 92 34 137 (428536)
I0227 14:24:40.319809  5773 net.cpp:137] Memory required for data: 48682264
I0227 14:24:40.319818  5773 layer_factory.hpp:77] Creating layer conv0_5/scale
I0227 14:24:40.319825  5773 net.cpp:84] Creating Layer conv0_5/scale
I0227 14:24:40.319829  5773 net.cpp:406] conv0_5/scale <- conv0_5/bn
I0227 14:24:40.319834  5773 net.cpp:367] conv0_5/scale -> conv0_5/bn (in-place)
I0227 14:24:40.319890  5773 layer_factory.hpp:77] Creating layer conv0_5/scale
I0227 14:24:40.320075  5773 net.cpp:122] Setting up conv0_5/scale
I0227 14:24:40.320082  5773 net.cpp:129] Top shape: 1 92 34 137 (428536)
I0227 14:24:40.320086  5773 net.cpp:137] Memory required for data: 50396408
I0227 14:24:40.320092  5773 layer_factory.hpp:77] Creating layer relu0_5
I0227 14:24:40.320098  5773 net.cpp:84] Creating Layer relu0_5
I0227 14:24:40.320102  5773 net.cpp:406] relu0_5 <- conv0_5/bn
I0227 14:24:40.320107  5773 net.cpp:367] relu0_5 -> conv0_5/bn (in-place)
I0227 14:24:40.321326  5773 net.cpp:122] Setting up relu0_5
I0227 14:24:40.321338  5773 net.cpp:129] Top shape: 1 92 34 137 (428536)
I0227 14:24:40.321342  5773 net.cpp:137] Memory required for data: 52110552
I0227 14:24:40.321346  5773 layer_factory.hpp:77] Creating layer conv0_5
I0227 14:24:40.321357  5773 net.cpp:84] Creating Layer conv0_5
I0227 14:24:40.321362  5773 net.cpp:406] conv0_5 <- conv0_5/bn
I0227 14:24:40.321368  5773 net.cpp:380] conv0_5 -> conv0_5
I0227 14:24:40.324812  5773 net.cpp:122] Setting up conv0_5
I0227 14:24:40.324827  5773 net.cpp:129] Top shape: 1 12 34 137 (55896)
I0227 14:24:40.324831  5773 net.cpp:137] Memory required for data: 52334136
I0227 14:24:40.324838  5773 layer_factory.hpp:77] Creating layer concat0_5
I0227 14:24:40.324847  5773 net.cpp:84] Creating Layer concat0_5
I0227 14:24:40.324852  5773 net.cpp:406] concat0_5 <- concat0_4_concat0_4_0_split_1
I0227 14:24:40.324857  5773 net.cpp:406] concat0_5 <- conv0_5
I0227 14:24:40.324863  5773 net.cpp:380] concat0_5 -> concat0_5
I0227 14:24:40.324911  5773 net.cpp:122] Setting up concat0_5
I0227 14:24:40.324919  5773 net.cpp:129] Top shape: 1 104 34 137 (484432)
I0227 14:24:40.324926  5773 net.cpp:137] Memory required for data: 54271864
I0227 14:24:40.324930  5773 layer_factory.hpp:77] Creating layer concat0_5_concat0_5_0_split
I0227 14:24:40.324936  5773 net.cpp:84] Creating Layer concat0_5_concat0_5_0_split
I0227 14:24:40.324940  5773 net.cpp:406] concat0_5_concat0_5_0_split <- concat0_5
I0227 14:24:40.324946  5773 net.cpp:380] concat0_5_concat0_5_0_split -> concat0_5_concat0_5_0_split_0
I0227 14:24:40.324954  5773 net.cpp:380] concat0_5_concat0_5_0_split -> concat0_5_concat0_5_0_split_1
I0227 14:24:40.325024  5773 net.cpp:122] Setting up concat0_5_concat0_5_0_split
I0227 14:24:40.325031  5773 net.cpp:129] Top shape: 1 104 34 137 (484432)
I0227 14:24:40.325036  5773 net.cpp:129] Top shape: 1 104 34 137 (484432)
I0227 14:24:40.325039  5773 net.cpp:137] Memory required for data: 58147320
I0227 14:24:40.325042  5773 layer_factory.hpp:77] Creating layer conv0_6/bn
I0227 14:24:40.325048  5773 net.cpp:84] Creating Layer conv0_6/bn
I0227 14:24:40.325052  5773 net.cpp:406] conv0_6/bn <- concat0_5_concat0_5_0_split_0
I0227 14:24:40.325058  5773 net.cpp:380] conv0_6/bn -> conv0_6/bn
I0227 14:24:40.325430  5773 net.cpp:122] Setting up conv0_6/bn
I0227 14:24:40.325438  5773 net.cpp:129] Top shape: 1 104 34 137 (484432)
I0227 14:24:40.325443  5773 net.cpp:137] Memory required for data: 60085048
I0227 14:24:40.325450  5773 layer_factory.hpp:77] Creating layer conv0_6/scale
I0227 14:24:40.325458  5773 net.cpp:84] Creating Layer conv0_6/scale
I0227 14:24:40.325462  5773 net.cpp:406] conv0_6/scale <- conv0_6/bn
I0227 14:24:40.325467  5773 net.cpp:367] conv0_6/scale -> conv0_6/bn (in-place)
I0227 14:24:40.325525  5773 layer_factory.hpp:77] Creating layer conv0_6/scale
I0227 14:24:40.325718  5773 net.cpp:122] Setting up conv0_6/scale
I0227 14:24:40.325726  5773 net.cpp:129] Top shape: 1 104 34 137 (484432)
I0227 14:24:40.325731  5773 net.cpp:137] Memory required for data: 62022776
I0227 14:24:40.325737  5773 layer_factory.hpp:77] Creating layer relu0_6
I0227 14:24:40.325743  5773 net.cpp:84] Creating Layer relu0_6
I0227 14:24:40.325748  5773 net.cpp:406] relu0_6 <- conv0_6/bn
I0227 14:24:40.325753  5773 net.cpp:367] relu0_6 -> conv0_6/bn (in-place)
I0227 14:24:40.325965  5773 net.cpp:122] Setting up relu0_6
I0227 14:24:40.325975  5773 net.cpp:129] Top shape: 1 104 34 137 (484432)
I0227 14:24:40.325978  5773 net.cpp:137] Memory required for data: 63960504
I0227 14:24:40.325983  5773 layer_factory.hpp:77] Creating layer conv0_6
I0227 14:24:40.325992  5773 net.cpp:84] Creating Layer conv0_6
I0227 14:24:40.325996  5773 net.cpp:406] conv0_6 <- conv0_6/bn
I0227 14:24:40.326002  5773 net.cpp:380] conv0_6 -> conv0_6
I0227 14:24:40.328176  5773 net.cpp:122] Setting up conv0_6
I0227 14:24:40.328191  5773 net.cpp:129] Top shape: 1 12 34 137 (55896)
I0227 14:24:40.328194  5773 net.cpp:137] Memory required for data: 64184088
I0227 14:24:40.328200  5773 layer_factory.hpp:77] Creating layer concat0_6
I0227 14:24:40.328207  5773 net.cpp:84] Creating Layer concat0_6
I0227 14:24:40.328212  5773 net.cpp:406] concat0_6 <- concat0_5_concat0_5_0_split_1
I0227 14:24:40.328217  5773 net.cpp:406] concat0_6 <- conv0_6
I0227 14:24:40.328222  5773 net.cpp:380] concat0_6 -> concat0_6
I0227 14:24:40.328259  5773 net.cpp:122] Setting up concat0_6
I0227 14:24:40.328266  5773 net.cpp:129] Top shape: 1 116 34 137 (540328)
I0227 14:24:40.328269  5773 net.cpp:137] Memory required for data: 66345400
I0227 14:24:40.328272  5773 layer_factory.hpp:77] Creating layer concat0_6_concat0_6_0_split
I0227 14:24:40.328279  5773 net.cpp:84] Creating Layer concat0_6_concat0_6_0_split
I0227 14:24:40.328281  5773 net.cpp:406] concat0_6_concat0_6_0_split <- concat0_6
I0227 14:24:40.328286  5773 net.cpp:380] concat0_6_concat0_6_0_split -> concat0_6_concat0_6_0_split_0
I0227 14:24:40.328292  5773 net.cpp:380] concat0_6_concat0_6_0_split -> concat0_6_concat0_6_0_split_1
I0227 14:24:40.328341  5773 net.cpp:122] Setting up concat0_6_concat0_6_0_split
I0227 14:24:40.328347  5773 net.cpp:129] Top shape: 1 116 34 137 (540328)
I0227 14:24:40.328351  5773 net.cpp:129] Top shape: 1 116 34 137 (540328)
I0227 14:24:40.328357  5773 net.cpp:137] Memory required for data: 70668024
I0227 14:24:40.328361  5773 layer_factory.hpp:77] Creating layer conv0_7/bn
I0227 14:24:40.328366  5773 net.cpp:84] Creating Layer conv0_7/bn
I0227 14:24:40.328371  5773 net.cpp:406] conv0_7/bn <- concat0_6_concat0_6_0_split_0
I0227 14:24:40.328390  5773 net.cpp:380] conv0_7/bn -> conv0_7/bn
I0227 14:24:40.328754  5773 net.cpp:122] Setting up conv0_7/bn
I0227 14:24:40.328763  5773 net.cpp:129] Top shape: 1 116 34 137 (540328)
I0227 14:24:40.328766  5773 net.cpp:137] Memory required for data: 72829336
I0227 14:24:40.328774  5773 layer_factory.hpp:77] Creating layer conv0_7/scale
I0227 14:24:40.328783  5773 net.cpp:84] Creating Layer conv0_7/scale
I0227 14:24:40.328786  5773 net.cpp:406] conv0_7/scale <- conv0_7/bn
I0227 14:24:40.328793  5773 net.cpp:367] conv0_7/scale -> conv0_7/bn (in-place)
I0227 14:24:40.328850  5773 layer_factory.hpp:77] Creating layer conv0_7/scale
I0227 14:24:40.329084  5773 net.cpp:122] Setting up conv0_7/scale
I0227 14:24:40.329092  5773 net.cpp:129] Top shape: 1 116 34 137 (540328)
I0227 14:24:40.329095  5773 net.cpp:137] Memory required for data: 74990648
I0227 14:24:40.329102  5773 layer_factory.hpp:77] Creating layer relu0_7
I0227 14:24:40.329108  5773 net.cpp:84] Creating Layer relu0_7
I0227 14:24:40.329113  5773 net.cpp:406] relu0_7 <- conv0_7/bn
I0227 14:24:40.329118  5773 net.cpp:367] relu0_7 -> conv0_7/bn (in-place)
I0227 14:24:40.329309  5773 net.cpp:122] Setting up relu0_7
I0227 14:24:40.329319  5773 net.cpp:129] Top shape: 1 116 34 137 (540328)
I0227 14:24:40.329322  5773 net.cpp:137] Memory required for data: 77151960
I0227 14:24:40.329325  5773 layer_factory.hpp:77] Creating layer conv0_7
I0227 14:24:40.329336  5773 net.cpp:84] Creating Layer conv0_7
I0227 14:24:40.329340  5773 net.cpp:406] conv0_7 <- conv0_7/bn
I0227 14:24:40.329360  5773 net.cpp:380] conv0_7 -> conv0_7
I0227 14:24:40.331430  5773 net.cpp:122] Setting up conv0_7
I0227 14:24:40.331444  5773 net.cpp:129] Top shape: 1 12 34 137 (55896)
I0227 14:24:40.331449  5773 net.cpp:137] Memory required for data: 77375544
I0227 14:24:40.331454  5773 layer_factory.hpp:77] Creating layer concat0_7
I0227 14:24:40.331461  5773 net.cpp:84] Creating Layer concat0_7
I0227 14:24:40.331465  5773 net.cpp:406] concat0_7 <- concat0_6_concat0_6_0_split_1
I0227 14:24:40.331470  5773 net.cpp:406] concat0_7 <- conv0_7
I0227 14:24:40.331475  5773 net.cpp:380] concat0_7 -> concat0_7
I0227 14:24:40.331513  5773 net.cpp:122] Setting up concat0_7
I0227 14:24:40.331521  5773 net.cpp:129] Top shape: 1 128 34 137 (596224)
I0227 14:24:40.331523  5773 net.cpp:137] Memory required for data: 79760440
I0227 14:24:40.331526  5773 layer_factory.hpp:77] Creating layer concat0_7_concat0_7_0_split
I0227 14:24:40.331532  5773 net.cpp:84] Creating Layer concat0_7_concat0_7_0_split
I0227 14:24:40.331535  5773 net.cpp:406] concat0_7_concat0_7_0_split <- concat0_7
I0227 14:24:40.331540  5773 net.cpp:380] concat0_7_concat0_7_0_split -> concat0_7_concat0_7_0_split_0
I0227 14:24:40.331547  5773 net.cpp:380] concat0_7_concat0_7_0_split -> concat0_7_concat0_7_0_split_1
I0227 14:24:40.331594  5773 net.cpp:122] Setting up concat0_7_concat0_7_0_split
I0227 14:24:40.331600  5773 net.cpp:129] Top shape: 1 128 34 137 (596224)
I0227 14:24:40.331604  5773 net.cpp:129] Top shape: 1 128 34 137 (596224)
I0227 14:24:40.331607  5773 net.cpp:137] Memory required for data: 84530232
I0227 14:24:40.331610  5773 layer_factory.hpp:77] Creating layer conv0_8/bn
I0227 14:24:40.331616  5773 net.cpp:84] Creating Layer conv0_8/bn
I0227 14:24:40.331620  5773 net.cpp:406] conv0_8/bn <- concat0_7_concat0_7_0_split_0
I0227 14:24:40.331625  5773 net.cpp:380] conv0_8/bn -> conv0_8/bn
I0227 14:24:40.331921  5773 net.cpp:122] Setting up conv0_8/bn
I0227 14:24:40.331929  5773 net.cpp:129] Top shape: 1 128 34 137 (596224)
I0227 14:24:40.331933  5773 net.cpp:137] Memory required for data: 86915128
I0227 14:24:40.331939  5773 layer_factory.hpp:77] Creating layer conv0_8/scale
I0227 14:24:40.331946  5773 net.cpp:84] Creating Layer conv0_8/scale
I0227 14:24:40.331954  5773 net.cpp:406] conv0_8/scale <- conv0_8/bn
I0227 14:24:40.331959  5773 net.cpp:367] conv0_8/scale -> conv0_8/bn (in-place)
I0227 14:24:40.332012  5773 layer_factory.hpp:77] Creating layer conv0_8/scale
I0227 14:24:40.332175  5773 net.cpp:122] Setting up conv0_8/scale
I0227 14:24:40.332181  5773 net.cpp:129] Top shape: 1 128 34 137 (596224)
I0227 14:24:40.332185  5773 net.cpp:137] Memory required for data: 89300024
I0227 14:24:40.332190  5773 layer_factory.hpp:77] Creating layer relu0_8
I0227 14:24:40.332196  5773 net.cpp:84] Creating Layer relu0_8
I0227 14:24:40.332201  5773 net.cpp:406] relu0_8 <- conv0_8/bn
I0227 14:24:40.332206  5773 net.cpp:367] relu0_8 -> conv0_8/bn (in-place)
I0227 14:24:40.332386  5773 net.cpp:122] Setting up relu0_8
I0227 14:24:40.332394  5773 net.cpp:129] Top shape: 1 128 34 137 (596224)
I0227 14:24:40.332398  5773 net.cpp:137] Memory required for data: 91684920
I0227 14:24:40.332401  5773 layer_factory.hpp:77] Creating layer conv0_8
I0227 14:24:40.332412  5773 net.cpp:84] Creating Layer conv0_8
I0227 14:24:40.332415  5773 net.cpp:406] conv0_8 <- conv0_8/bn
I0227 14:24:40.332420  5773 net.cpp:380] conv0_8 -> conv0_8
I0227 14:24:40.335477  5773 net.cpp:122] Setting up conv0_8
I0227 14:24:40.335490  5773 net.cpp:129] Top shape: 1 12 34 137 (55896)
I0227 14:24:40.335494  5773 net.cpp:137] Memory required for data: 91908504
I0227 14:24:40.335500  5773 layer_factory.hpp:77] Creating layer concat0_8
I0227 14:24:40.335508  5773 net.cpp:84] Creating Layer concat0_8
I0227 14:24:40.335512  5773 net.cpp:406] concat0_8 <- concat0_7_concat0_7_0_split_1
I0227 14:24:40.335517  5773 net.cpp:406] concat0_8 <- conv0_8
I0227 14:24:40.335522  5773 net.cpp:380] concat0_8 -> concat0_8
I0227 14:24:40.335566  5773 net.cpp:122] Setting up concat0_8
I0227 14:24:40.335572  5773 net.cpp:129] Top shape: 1 140 34 137 (652120)
I0227 14:24:40.335575  5773 net.cpp:137] Memory required for data: 94516984
I0227 14:24:40.335578  5773 layer_factory.hpp:77] Creating layer concat0_8_concat0_8_0_split
I0227 14:24:40.335584  5773 net.cpp:84] Creating Layer concat0_8_concat0_8_0_split
I0227 14:24:40.335587  5773 net.cpp:406] concat0_8_concat0_8_0_split <- concat0_8
I0227 14:24:40.335592  5773 net.cpp:380] concat0_8_concat0_8_0_split -> concat0_8_concat0_8_0_split_0
I0227 14:24:40.335598  5773 net.cpp:380] concat0_8_concat0_8_0_split -> concat0_8_concat0_8_0_split_1
I0227 14:24:40.335649  5773 net.cpp:122] Setting up concat0_8_concat0_8_0_split
I0227 14:24:40.335655  5773 net.cpp:129] Top shape: 1 140 34 137 (652120)
I0227 14:24:40.335659  5773 net.cpp:129] Top shape: 1 140 34 137 (652120)
I0227 14:24:40.335662  5773 net.cpp:137] Memory required for data: 99733944
I0227 14:24:40.335666  5773 layer_factory.hpp:77] Creating layer conv0_9/bn
I0227 14:24:40.335672  5773 net.cpp:84] Creating Layer conv0_9/bn
I0227 14:24:40.335675  5773 net.cpp:406] conv0_9/bn <- concat0_8_concat0_8_0_split_0
I0227 14:24:40.335680  5773 net.cpp:380] conv0_9/bn -> conv0_9/bn
I0227 14:24:40.335981  5773 net.cpp:122] Setting up conv0_9/bn
I0227 14:24:40.335989  5773 net.cpp:129] Top shape: 1 140 34 137 (652120)
I0227 14:24:40.335992  5773 net.cpp:137] Memory required for data: 102342424
I0227 14:24:40.335999  5773 layer_factory.hpp:77] Creating layer conv0_9/scale
I0227 14:24:40.336006  5773 net.cpp:84] Creating Layer conv0_9/scale
I0227 14:24:40.336010  5773 net.cpp:406] conv0_9/scale <- conv0_9/bn
I0227 14:24:40.336015  5773 net.cpp:367] conv0_9/scale -> conv0_9/bn (in-place)
I0227 14:24:40.336067  5773 layer_factory.hpp:77] Creating layer conv0_9/scale
I0227 14:24:40.336242  5773 net.cpp:122] Setting up conv0_9/scale
I0227 14:24:40.336251  5773 net.cpp:129] Top shape: 1 140 34 137 (652120)
I0227 14:24:40.336253  5773 net.cpp:137] Memory required for data: 104950904
I0227 14:24:40.336263  5773 layer_factory.hpp:77] Creating layer relu0_9
I0227 14:24:40.336271  5773 net.cpp:84] Creating Layer relu0_9
I0227 14:24:40.336274  5773 net.cpp:406] relu0_9 <- conv0_9/bn
I0227 14:24:40.336279  5773 net.cpp:367] relu0_9 -> conv0_9/bn (in-place)
I0227 14:24:40.337404  5773 net.cpp:122] Setting up relu0_9
I0227 14:24:40.337416  5773 net.cpp:129] Top shape: 1 140 34 137 (652120)
I0227 14:24:40.337419  5773 net.cpp:137] Memory required for data: 107559384
I0227 14:24:40.337424  5773 layer_factory.hpp:77] Creating layer conv0_9
I0227 14:24:40.337435  5773 net.cpp:84] Creating Layer conv0_9
I0227 14:24:40.337438  5773 net.cpp:406] conv0_9 <- conv0_9/bn
I0227 14:24:40.337445  5773 net.cpp:380] conv0_9 -> conv0_9
I0227 14:24:40.339527  5773 net.cpp:122] Setting up conv0_9
I0227 14:24:40.339541  5773 net.cpp:129] Top shape: 1 12 34 137 (55896)
I0227 14:24:40.339545  5773 net.cpp:137] Memory required for data: 107782968
I0227 14:24:40.339550  5773 layer_factory.hpp:77] Creating layer concat0_9
I0227 14:24:40.339558  5773 net.cpp:84] Creating Layer concat0_9
I0227 14:24:40.339562  5773 net.cpp:406] concat0_9 <- concat0_8_concat0_8_0_split_1
I0227 14:24:40.339567  5773 net.cpp:406] concat0_9 <- conv0_9
I0227 14:24:40.339572  5773 net.cpp:380] concat0_9 -> concat0_9
I0227 14:24:40.339610  5773 net.cpp:122] Setting up concat0_9
I0227 14:24:40.339617  5773 net.cpp:129] Top shape: 1 152 34 137 (708016)
I0227 14:24:40.339620  5773 net.cpp:137] Memory required for data: 110615032
I0227 14:24:40.339623  5773 layer_factory.hpp:77] Creating layer concat0_9_concat0_9_0_split
I0227 14:24:40.339628  5773 net.cpp:84] Creating Layer concat0_9_concat0_9_0_split
I0227 14:24:40.339632  5773 net.cpp:406] concat0_9_concat0_9_0_split <- concat0_9
I0227 14:24:40.339637  5773 net.cpp:380] concat0_9_concat0_9_0_split -> concat0_9_concat0_9_0_split_0
I0227 14:24:40.339643  5773 net.cpp:380] concat0_9_concat0_9_0_split -> concat0_9_concat0_9_0_split_1
I0227 14:24:40.339692  5773 net.cpp:122] Setting up concat0_9_concat0_9_0_split
I0227 14:24:40.339699  5773 net.cpp:129] Top shape: 1 152 34 137 (708016)
I0227 14:24:40.339702  5773 net.cpp:129] Top shape: 1 152 34 137 (708016)
I0227 14:24:40.339705  5773 net.cpp:137] Memory required for data: 116279160
I0227 14:24:40.339709  5773 layer_factory.hpp:77] Creating layer conv0_10/bn
I0227 14:24:40.339715  5773 net.cpp:84] Creating Layer conv0_10/bn
I0227 14:24:40.339718  5773 net.cpp:406] conv0_10/bn <- concat0_9_concat0_9_0_split_0
I0227 14:24:40.339723  5773 net.cpp:380] conv0_10/bn -> conv0_10/bn
I0227 14:24:40.340050  5773 net.cpp:122] Setting up conv0_10/bn
I0227 14:24:40.340059  5773 net.cpp:129] Top shape: 1 152 34 137 (708016)
I0227 14:24:40.340061  5773 net.cpp:137] Memory required for data: 119111224
I0227 14:24:40.340070  5773 layer_factory.hpp:77] Creating layer conv0_10/scale
I0227 14:24:40.340076  5773 net.cpp:84] Creating Layer conv0_10/scale
I0227 14:24:40.340080  5773 net.cpp:406] conv0_10/scale <- conv0_10/bn
I0227 14:24:40.340086  5773 net.cpp:367] conv0_10/scale -> conv0_10/bn (in-place)
I0227 14:24:40.340142  5773 layer_factory.hpp:77] Creating layer conv0_10/scale
I0227 14:24:40.340332  5773 net.cpp:122] Setting up conv0_10/scale
I0227 14:24:40.340340  5773 net.cpp:129] Top shape: 1 152 34 137 (708016)
I0227 14:24:40.340344  5773 net.cpp:137] Memory required for data: 121943288
I0227 14:24:40.340350  5773 layer_factory.hpp:77] Creating layer relu0_10
I0227 14:24:40.340356  5773 net.cpp:84] Creating Layer relu0_10
I0227 14:24:40.340360  5773 net.cpp:406] relu0_10 <- conv0_10/bn
I0227 14:24:40.340365  5773 net.cpp:367] relu0_10 -> conv0_10/bn (in-place)
I0227 14:24:40.340556  5773 net.cpp:122] Setting up relu0_10
I0227 14:24:40.340579  5773 net.cpp:129] Top shape: 1 152 34 137 (708016)
I0227 14:24:40.340582  5773 net.cpp:137] Memory required for data: 124775352
I0227 14:24:40.340586  5773 layer_factory.hpp:77] Creating layer conv0_10
I0227 14:24:40.340595  5773 net.cpp:84] Creating Layer conv0_10
I0227 14:24:40.340600  5773 net.cpp:406] conv0_10 <- conv0_10/bn
I0227 14:24:40.340605  5773 net.cpp:380] conv0_10 -> conv0_10
I0227 14:24:40.343765  5773 net.cpp:122] Setting up conv0_10
I0227 14:24:40.343777  5773 net.cpp:129] Top shape: 1 12 34 137 (55896)
I0227 14:24:40.343781  5773 net.cpp:137] Memory required for data: 124998936
I0227 14:24:40.343791  5773 layer_factory.hpp:77] Creating layer concat0_10
I0227 14:24:40.343798  5773 net.cpp:84] Creating Layer concat0_10
I0227 14:24:40.343802  5773 net.cpp:406] concat0_10 <- concat0_9_concat0_9_0_split_1
I0227 14:24:40.343807  5773 net.cpp:406] concat0_10 <- conv0_10
I0227 14:24:40.343812  5773 net.cpp:380] concat0_10 -> concat0_10
I0227 14:24:40.343855  5773 net.cpp:122] Setting up concat0_10
I0227 14:24:40.343863  5773 net.cpp:129] Top shape: 1 164 34 137 (763912)
I0227 14:24:40.343865  5773 net.cpp:137] Memory required for data: 128054584
I0227 14:24:40.343869  5773 layer_factory.hpp:77] Creating layer concat0_10_concat0_10_0_split
I0227 14:24:40.343874  5773 net.cpp:84] Creating Layer concat0_10_concat0_10_0_split
I0227 14:24:40.343878  5773 net.cpp:406] concat0_10_concat0_10_0_split <- concat0_10
I0227 14:24:40.343883  5773 net.cpp:380] concat0_10_concat0_10_0_split -> concat0_10_concat0_10_0_split_0
I0227 14:24:40.343888  5773 net.cpp:380] concat0_10_concat0_10_0_split -> concat0_10_concat0_10_0_split_1
I0227 14:24:40.343940  5773 net.cpp:122] Setting up concat0_10_concat0_10_0_split
I0227 14:24:40.343945  5773 net.cpp:129] Top shape: 1 164 34 137 (763912)
I0227 14:24:40.343950  5773 net.cpp:129] Top shape: 1 164 34 137 (763912)
I0227 14:24:40.343952  5773 net.cpp:137] Memory required for data: 134165880
I0227 14:24:40.343955  5773 layer_factory.hpp:77] Creating layer conv0_11/bn
I0227 14:24:40.343962  5773 net.cpp:84] Creating Layer conv0_11/bn
I0227 14:24:40.343966  5773 net.cpp:406] conv0_11/bn <- concat0_10_concat0_10_0_split_0
I0227 14:24:40.343971  5773 net.cpp:380] conv0_11/bn -> conv0_11/bn
I0227 14:24:40.344286  5773 net.cpp:122] Setting up conv0_11/bn
I0227 14:24:40.344295  5773 net.cpp:129] Top shape: 1 164 34 137 (763912)
I0227 14:24:40.344297  5773 net.cpp:137] Memory required for data: 137221528
I0227 14:24:40.344305  5773 layer_factory.hpp:77] Creating layer conv0_11/scale
I0227 14:24:40.344311  5773 net.cpp:84] Creating Layer conv0_11/scale
I0227 14:24:40.344316  5773 net.cpp:406] conv0_11/scale <- conv0_11/bn
I0227 14:24:40.344321  5773 net.cpp:367] conv0_11/scale -> conv0_11/bn (in-place)
I0227 14:24:40.344373  5773 layer_factory.hpp:77] Creating layer conv0_11/scale
I0227 14:24:40.344550  5773 net.cpp:122] Setting up conv0_11/scale
I0227 14:24:40.344558  5773 net.cpp:129] Top shape: 1 164 34 137 (763912)
I0227 14:24:40.344561  5773 net.cpp:137] Memory required for data: 140277176
I0227 14:24:40.344568  5773 layer_factory.hpp:77] Creating layer relu0_11
I0227 14:24:40.344573  5773 net.cpp:84] Creating Layer relu0_11
I0227 14:24:40.344576  5773 net.cpp:406] relu0_11 <- conv0_11/bn
I0227 14:24:40.344581  5773 net.cpp:367] relu0_11 -> conv0_11/bn (in-place)
I0227 14:24:40.344794  5773 net.cpp:122] Setting up relu0_11
I0227 14:24:40.344805  5773 net.cpp:129] Top shape: 1 164 34 137 (763912)
I0227 14:24:40.344807  5773 net.cpp:137] Memory required for data: 143332824
I0227 14:24:40.344811  5773 layer_factory.hpp:77] Creating layer conv0_11
I0227 14:24:40.344821  5773 net.cpp:84] Creating Layer conv0_11
I0227 14:24:40.344825  5773 net.cpp:406] conv0_11 <- conv0_11/bn
I0227 14:24:40.344831  5773 net.cpp:380] conv0_11 -> conv0_11
I0227 14:24:40.347061  5773 net.cpp:122] Setting up conv0_11
I0227 14:24:40.347079  5773 net.cpp:129] Top shape: 1 12 34 137 (55896)
I0227 14:24:40.347084  5773 net.cpp:137] Memory required for data: 143556408
I0227 14:24:40.347090  5773 layer_factory.hpp:77] Creating layer concat0_11
I0227 14:24:40.347097  5773 net.cpp:84] Creating Layer concat0_11
I0227 14:24:40.347101  5773 net.cpp:406] concat0_11 <- concat0_10_concat0_10_0_split_1
I0227 14:24:40.347107  5773 net.cpp:406] concat0_11 <- conv0_11
I0227 14:24:40.347113  5773 net.cpp:380] concat0_11 -> concat0_11
I0227 14:24:40.347154  5773 net.cpp:122] Setting up concat0_11
I0227 14:24:40.347160  5773 net.cpp:129] Top shape: 1 176 34 137 (819808)
I0227 14:24:40.347163  5773 net.cpp:137] Memory required for data: 146835640
I0227 14:24:40.347167  5773 layer_factory.hpp:77] Creating layer concat0_11_concat0_11_0_split
I0227 14:24:40.347175  5773 net.cpp:84] Creating Layer concat0_11_concat0_11_0_split
I0227 14:24:40.347179  5773 net.cpp:406] concat0_11_concat0_11_0_split <- concat0_11
I0227 14:24:40.347185  5773 net.cpp:380] concat0_11_concat0_11_0_split -> concat0_11_concat0_11_0_split_0
I0227 14:24:40.347192  5773 net.cpp:380] concat0_11_concat0_11_0_split -> concat0_11_concat0_11_0_split_1
I0227 14:24:40.347247  5773 net.cpp:122] Setting up concat0_11_concat0_11_0_split
I0227 14:24:40.347254  5773 net.cpp:129] Top shape: 1 176 34 137 (819808)
I0227 14:24:40.347257  5773 net.cpp:129] Top shape: 1 176 34 137 (819808)
I0227 14:24:40.347260  5773 net.cpp:137] Memory required for data: 153394104
I0227 14:24:40.347263  5773 layer_factory.hpp:77] Creating layer conv0_12/bn
I0227 14:24:40.347270  5773 net.cpp:84] Creating Layer conv0_12/bn
I0227 14:24:40.347275  5773 net.cpp:406] conv0_12/bn <- concat0_11_concat0_11_0_split_0
I0227 14:24:40.347280  5773 net.cpp:380] conv0_12/bn -> conv0_12/bn
I0227 14:24:40.347606  5773 net.cpp:122] Setting up conv0_12/bn
I0227 14:24:40.347615  5773 net.cpp:129] Top shape: 1 176 34 137 (819808)
I0227 14:24:40.347617  5773 net.cpp:137] Memory required for data: 156673336
I0227 14:24:40.347625  5773 layer_factory.hpp:77] Creating layer conv0_12/scale
I0227 14:24:40.347631  5773 net.cpp:84] Creating Layer conv0_12/scale
I0227 14:24:40.347635  5773 net.cpp:406] conv0_12/scale <- conv0_12/bn
I0227 14:24:40.347641  5773 net.cpp:367] conv0_12/scale -> conv0_12/bn (in-place)
I0227 14:24:40.347700  5773 layer_factory.hpp:77] Creating layer conv0_12/scale
I0227 14:24:40.347892  5773 net.cpp:122] Setting up conv0_12/scale
I0227 14:24:40.347899  5773 net.cpp:129] Top shape: 1 176 34 137 (819808)
I0227 14:24:40.347903  5773 net.cpp:137] Memory required for data: 159952568
I0227 14:24:40.347908  5773 layer_factory.hpp:77] Creating layer relu0_12
I0227 14:24:40.347915  5773 net.cpp:84] Creating Layer relu0_12
I0227 14:24:40.347919  5773 net.cpp:406] relu0_12 <- conv0_12/bn
I0227 14:24:40.347923  5773 net.cpp:367] relu0_12 -> conv0_12/bn (in-place)
I0227 14:24:40.349051  5773 net.cpp:122] Setting up relu0_12
I0227 14:24:40.349063  5773 net.cpp:129] Top shape: 1 176 34 137 (819808)
I0227 14:24:40.349067  5773 net.cpp:137] Memory required for data: 163231800
I0227 14:24:40.349071  5773 layer_factory.hpp:77] Creating layer conv0_12
I0227 14:24:40.349082  5773 net.cpp:84] Creating Layer conv0_12
I0227 14:24:40.349086  5773 net.cpp:406] conv0_12 <- conv0_12/bn
I0227 14:24:40.349092  5773 net.cpp:380] conv0_12 -> conv0_12
I0227 14:24:40.352294  5773 net.cpp:122] Setting up conv0_12
I0227 14:24:40.352308  5773 net.cpp:129] Top shape: 1 12 34 137 (55896)
I0227 14:24:40.352311  5773 net.cpp:137] Memory required for data: 163455384
I0227 14:24:40.352318  5773 layer_factory.hpp:77] Creating layer concat0_12
I0227 14:24:40.352325  5773 net.cpp:84] Creating Layer concat0_12
I0227 14:24:40.352331  5773 net.cpp:406] concat0_12 <- concat0_11_concat0_11_0_split_1
I0227 14:24:40.352336  5773 net.cpp:406] concat0_12 <- conv0_12
I0227 14:24:40.352341  5773 net.cpp:380] concat0_12 -> concat0_12
I0227 14:24:40.352387  5773 net.cpp:122] Setting up concat0_12
I0227 14:24:40.352394  5773 net.cpp:129] Top shape: 1 188 34 137 (875704)
I0227 14:24:40.352396  5773 net.cpp:137] Memory required for data: 166958200
I0227 14:24:40.352401  5773 layer_factory.hpp:77] Creating layer concat0_12_concat0_12_0_split
I0227 14:24:40.352406  5773 net.cpp:84] Creating Layer concat0_12_concat0_12_0_split
I0227 14:24:40.352411  5773 net.cpp:406] concat0_12_concat0_12_0_split <- concat0_12
I0227 14:24:40.352414  5773 net.cpp:380] concat0_12_concat0_12_0_split -> concat0_12_concat0_12_0_split_0
I0227 14:24:40.352421  5773 net.cpp:380] concat0_12_concat0_12_0_split -> concat0_12_concat0_12_0_split_1
I0227 14:24:40.352476  5773 net.cpp:122] Setting up concat0_12_concat0_12_0_split
I0227 14:24:40.352483  5773 net.cpp:129] Top shape: 1 188 34 137 (875704)
I0227 14:24:40.352486  5773 net.cpp:129] Top shape: 1 188 34 137 (875704)
I0227 14:24:40.352493  5773 net.cpp:137] Memory required for data: 173963832
I0227 14:24:40.352510  5773 layer_factory.hpp:77] Creating layer conv0_13/bn
I0227 14:24:40.352519  5773 net.cpp:84] Creating Layer conv0_13/bn
I0227 14:24:40.352522  5773 net.cpp:406] conv0_13/bn <- concat0_12_concat0_12_0_split_0
I0227 14:24:40.352527  5773 net.cpp:380] conv0_13/bn -> conv0_13/bn
I0227 14:24:40.352962  5773 net.cpp:122] Setting up conv0_13/bn
I0227 14:24:40.352972  5773 net.cpp:129] Top shape: 1 188 34 137 (875704)
I0227 14:24:40.352974  5773 net.cpp:137] Memory required for data: 177466648
I0227 14:24:40.352982  5773 layer_factory.hpp:77] Creating layer conv0_13/scale
I0227 14:24:40.352993  5773 net.cpp:84] Creating Layer conv0_13/scale
I0227 14:24:40.352996  5773 net.cpp:406] conv0_13/scale <- conv0_13/bn
I0227 14:24:40.353001  5773 net.cpp:367] conv0_13/scale -> conv0_13/bn (in-place)
I0227 14:24:40.353066  5773 layer_factory.hpp:77] Creating layer conv0_13/scale
I0227 14:24:40.353277  5773 net.cpp:122] Setting up conv0_13/scale
I0227 14:24:40.353284  5773 net.cpp:129] Top shape: 1 188 34 137 (875704)
I0227 14:24:40.353287  5773 net.cpp:137] Memory required for data: 180969464
I0227 14:24:40.353293  5773 layer_factory.hpp:77] Creating layer relu0_13
I0227 14:24:40.353299  5773 net.cpp:84] Creating Layer relu0_13
I0227 14:24:40.353302  5773 net.cpp:406] relu0_13 <- conv0_13/bn
I0227 14:24:40.353307  5773 net.cpp:367] relu0_13 -> conv0_13/bn (in-place)
I0227 14:24:40.353512  5773 net.cpp:122] Setting up relu0_13
I0227 14:24:40.353520  5773 net.cpp:129] Top shape: 1 188 34 137 (875704)
I0227 14:24:40.353523  5773 net.cpp:137] Memory required for data: 184472280
I0227 14:24:40.353528  5773 layer_factory.hpp:77] Creating layer conv0_13
I0227 14:24:40.353538  5773 net.cpp:84] Creating Layer conv0_13
I0227 14:24:40.353541  5773 net.cpp:406] conv0_13 <- conv0_13/bn
I0227 14:24:40.353549  5773 net.cpp:380] conv0_13 -> conv0_13
I0227 14:24:40.356884  5773 net.cpp:122] Setting up conv0_13
I0227 14:24:40.356899  5773 net.cpp:129] Top shape: 1 12 34 137 (55896)
I0227 14:24:40.356902  5773 net.cpp:137] Memory required for data: 184695864
I0227 14:24:40.356909  5773 layer_factory.hpp:77] Creating layer concat0_13
I0227 14:24:40.356919  5773 net.cpp:84] Creating Layer concat0_13
I0227 14:24:40.356922  5773 net.cpp:406] concat0_13 <- concat0_12_concat0_12_0_split_1
I0227 14:24:40.356928  5773 net.cpp:406] concat0_13 <- conv0_13
I0227 14:24:40.356933  5773 net.cpp:380] concat0_13 -> concat0_13
I0227 14:24:40.356995  5773 net.cpp:122] Setting up concat0_13
I0227 14:24:40.357002  5773 net.cpp:129] Top shape: 1 200 34 137 (931600)
I0227 14:24:40.357004  5773 net.cpp:137] Memory required for data: 188422264
I0227 14:24:40.357007  5773 layer_factory.hpp:77] Creating layer concat0_13_concat0_13_0_split
I0227 14:24:40.357014  5773 net.cpp:84] Creating Layer concat0_13_concat0_13_0_split
I0227 14:24:40.357018  5773 net.cpp:406] concat0_13_concat0_13_0_split <- concat0_13
I0227 14:24:40.357023  5773 net.cpp:380] concat0_13_concat0_13_0_split -> concat0_13_concat0_13_0_split_0
I0227 14:24:40.357030  5773 net.cpp:380] concat0_13_concat0_13_0_split -> concat0_13_concat0_13_0_split_1
I0227 14:24:40.357086  5773 net.cpp:122] Setting up concat0_13_concat0_13_0_split
I0227 14:24:40.357092  5773 net.cpp:129] Top shape: 1 200 34 137 (931600)
I0227 14:24:40.357096  5773 net.cpp:129] Top shape: 1 200 34 137 (931600)
I0227 14:24:40.357100  5773 net.cpp:137] Memory required for data: 195875064
I0227 14:24:40.357102  5773 layer_factory.hpp:77] Creating layer conv0_14/bn
I0227 14:24:40.357110  5773 net.cpp:84] Creating Layer conv0_14/bn
I0227 14:24:40.357113  5773 net.cpp:406] conv0_14/bn <- concat0_13_concat0_13_0_split_0
I0227 14:24:40.357120  5773 net.cpp:380] conv0_14/bn -> conv0_14/bn
I0227 14:24:40.357460  5773 net.cpp:122] Setting up conv0_14/bn
I0227 14:24:40.357468  5773 net.cpp:129] Top shape: 1 200 34 137 (931600)
I0227 14:24:40.357471  5773 net.cpp:137] Memory required for data: 199601464
I0227 14:24:40.357480  5773 layer_factory.hpp:77] Creating layer conv0_14/scale
I0227 14:24:40.357489  5773 net.cpp:84] Creating Layer conv0_14/scale
I0227 14:24:40.357493  5773 net.cpp:406] conv0_14/scale <- conv0_14/bn
I0227 14:24:40.357499  5773 net.cpp:367] conv0_14/scale -> conv0_14/bn (in-place)
I0227 14:24:40.357560  5773 layer_factory.hpp:77] Creating layer conv0_14/scale
I0227 14:24:40.357753  5773 net.cpp:122] Setting up conv0_14/scale
I0227 14:24:40.357761  5773 net.cpp:129] Top shape: 1 200 34 137 (931600)
I0227 14:24:40.357764  5773 net.cpp:137] Memory required for data: 203327864
I0227 14:24:40.357770  5773 layer_factory.hpp:77] Creating layer relu0_14
I0227 14:24:40.357776  5773 net.cpp:84] Creating Layer relu0_14
I0227 14:24:40.357779  5773 net.cpp:406] relu0_14 <- conv0_14/bn
I0227 14:24:40.357786  5773 net.cpp:367] relu0_14 -> conv0_14/bn (in-place)
I0227 14:24:40.357985  5773 net.cpp:122] Setting up relu0_14
I0227 14:24:40.357993  5773 net.cpp:129] Top shape: 1 200 34 137 (931600)
I0227 14:24:40.357996  5773 net.cpp:137] Memory required for data: 207054264
I0227 14:24:40.358000  5773 layer_factory.hpp:77] Creating layer conv0_14
I0227 14:24:40.358011  5773 net.cpp:84] Creating Layer conv0_14
I0227 14:24:40.358013  5773 net.cpp:406] conv0_14 <- conv0_14/bn
I0227 14:24:40.358021  5773 net.cpp:380] conv0_14 -> conv0_14
I0227 14:24:40.362373  5773 net.cpp:122] Setting up conv0_14
I0227 14:24:40.362388  5773 net.cpp:129] Top shape: 1 12 34 137 (55896)
I0227 14:24:40.362392  5773 net.cpp:137] Memory required for data: 207277848
I0227 14:24:40.362398  5773 layer_factory.hpp:77] Creating layer concat0_14
I0227 14:24:40.362406  5773 net.cpp:84] Creating Layer concat0_14
I0227 14:24:40.362411  5773 net.cpp:406] concat0_14 <- concat0_13_concat0_13_0_split_1
I0227 14:24:40.362429  5773 net.cpp:406] concat0_14 <- conv0_14
I0227 14:24:40.362437  5773 net.cpp:380] concat0_14 -> concat0_14
I0227 14:24:40.362483  5773 net.cpp:122] Setting up concat0_14
I0227 14:24:40.362489  5773 net.cpp:129] Top shape: 1 212 34 137 (987496)
I0227 14:24:40.362493  5773 net.cpp:137] Memory required for data: 211227832
I0227 14:24:40.362495  5773 layer_factory.hpp:77] Creating layer concat0_14_concat0_14_0_split
I0227 14:24:40.362500  5773 net.cpp:84] Creating Layer concat0_14_concat0_14_0_split
I0227 14:24:40.362505  5773 net.cpp:406] concat0_14_concat0_14_0_split <- concat0_14
I0227 14:24:40.362510  5773 net.cpp:380] concat0_14_concat0_14_0_split -> concat0_14_concat0_14_0_split_0
I0227 14:24:40.362516  5773 net.cpp:380] concat0_14_concat0_14_0_split -> concat0_14_concat0_14_0_split_1
I0227 14:24:40.362573  5773 net.cpp:122] Setting up concat0_14_concat0_14_0_split
I0227 14:24:40.362579  5773 net.cpp:129] Top shape: 1 212 34 137 (987496)
I0227 14:24:40.362583  5773 net.cpp:129] Top shape: 1 212 34 137 (987496)
I0227 14:24:40.362586  5773 net.cpp:137] Memory required for data: 219127800
I0227 14:24:40.362589  5773 layer_factory.hpp:77] Creating layer conv0_15/bn
I0227 14:24:40.362596  5773 net.cpp:84] Creating Layer conv0_15/bn
I0227 14:24:40.362599  5773 net.cpp:406] conv0_15/bn <- concat0_14_concat0_14_0_split_0
I0227 14:24:40.362604  5773 net.cpp:380] conv0_15/bn -> conv0_15/bn
I0227 14:24:40.362946  5773 net.cpp:122] Setting up conv0_15/bn
I0227 14:24:40.362953  5773 net.cpp:129] Top shape: 1 212 34 137 (987496)
I0227 14:24:40.362957  5773 net.cpp:137] Memory required for data: 223077784
I0227 14:24:40.362963  5773 layer_factory.hpp:77] Creating layer conv0_15/scale
I0227 14:24:40.362972  5773 net.cpp:84] Creating Layer conv0_15/scale
I0227 14:24:40.362977  5773 net.cpp:406] conv0_15/scale <- conv0_15/bn
I0227 14:24:40.362982  5773 net.cpp:367] conv0_15/scale -> conv0_15/bn (in-place)
I0227 14:24:40.363042  5773 layer_factory.hpp:77] Creating layer conv0_15/scale
I0227 14:24:40.363234  5773 net.cpp:122] Setting up conv0_15/scale
I0227 14:24:40.363241  5773 net.cpp:129] Top shape: 1 212 34 137 (987496)
I0227 14:24:40.363245  5773 net.cpp:137] Memory required for data: 227027768
I0227 14:24:40.363250  5773 layer_factory.hpp:77] Creating layer relu0_15
I0227 14:24:40.363257  5773 net.cpp:84] Creating Layer relu0_15
I0227 14:24:40.363265  5773 net.cpp:406] relu0_15 <- conv0_15/bn
I0227 14:24:40.363270  5773 net.cpp:367] relu0_15 -> conv0_15/bn (in-place)
I0227 14:24:40.364356  5773 net.cpp:122] Setting up relu0_15
I0227 14:24:40.364368  5773 net.cpp:129] Top shape: 1 212 34 137 (987496)
I0227 14:24:40.364372  5773 net.cpp:137] Memory required for data: 230977752
I0227 14:24:40.364377  5773 layer_factory.hpp:77] Creating layer conv0_15
I0227 14:24:40.364388  5773 net.cpp:84] Creating Layer conv0_15
I0227 14:24:40.364392  5773 net.cpp:406] conv0_15 <- conv0_15/bn
I0227 14:24:40.364399  5773 net.cpp:380] conv0_15 -> conv0_15
I0227 14:24:40.367750  5773 net.cpp:122] Setting up conv0_15
I0227 14:24:40.367764  5773 net.cpp:129] Top shape: 1 12 34 137 (55896)
I0227 14:24:40.367768  5773 net.cpp:137] Memory required for data: 231201336
I0227 14:24:40.367774  5773 layer_factory.hpp:77] Creating layer concat0_15
I0227 14:24:40.367784  5773 net.cpp:84] Creating Layer concat0_15
I0227 14:24:40.367787  5773 net.cpp:406] concat0_15 <- concat0_14_concat0_14_0_split_1
I0227 14:24:40.367792  5773 net.cpp:406] concat0_15 <- conv0_15
I0227 14:24:40.367797  5773 net.cpp:380] concat0_15 -> concat0_15
I0227 14:24:40.367843  5773 net.cpp:122] Setting up concat0_15
I0227 14:24:40.367851  5773 net.cpp:129] Top shape: 1 224 34 137 (1043392)
I0227 14:24:40.367853  5773 net.cpp:137] Memory required for data: 235374904
I0227 14:24:40.367856  5773 layer_factory.hpp:77] Creating layer concat0_15_concat0_15_0_split
I0227 14:24:40.367863  5773 net.cpp:84] Creating Layer concat0_15_concat0_15_0_split
I0227 14:24:40.367866  5773 net.cpp:406] concat0_15_concat0_15_0_split <- concat0_15
I0227 14:24:40.367871  5773 net.cpp:380] concat0_15_concat0_15_0_split -> concat0_15_concat0_15_0_split_0
I0227 14:24:40.367877  5773 net.cpp:380] concat0_15_concat0_15_0_split -> concat0_15_concat0_15_0_split_1
I0227 14:24:40.367933  5773 net.cpp:122] Setting up concat0_15_concat0_15_0_split
I0227 14:24:40.367939  5773 net.cpp:129] Top shape: 1 224 34 137 (1043392)
I0227 14:24:40.367944  5773 net.cpp:129] Top shape: 1 224 34 137 (1043392)
I0227 14:24:40.367946  5773 net.cpp:137] Memory required for data: 243722040
I0227 14:24:40.367949  5773 layer_factory.hpp:77] Creating layer conv0_16/bn
I0227 14:24:40.367956  5773 net.cpp:84] Creating Layer conv0_16/bn
I0227 14:24:40.367959  5773 net.cpp:406] conv0_16/bn <- concat0_15_concat0_15_0_split_0
I0227 14:24:40.367964  5773 net.cpp:380] conv0_16/bn -> conv0_16/bn
I0227 14:24:40.368309  5773 net.cpp:122] Setting up conv0_16/bn
I0227 14:24:40.368315  5773 net.cpp:129] Top shape: 1 224 34 137 (1043392)
I0227 14:24:40.368319  5773 net.cpp:137] Memory required for data: 247895608
I0227 14:24:40.368325  5773 layer_factory.hpp:77] Creating layer conv0_16/scale
I0227 14:24:40.368333  5773 net.cpp:84] Creating Layer conv0_16/scale
I0227 14:24:40.368337  5773 net.cpp:406] conv0_16/scale <- conv0_16/bn
I0227 14:24:40.368341  5773 net.cpp:367] conv0_16/scale -> conv0_16/bn (in-place)
I0227 14:24:40.368402  5773 layer_factory.hpp:77] Creating layer conv0_16/scale
I0227 14:24:40.368598  5773 net.cpp:122] Setting up conv0_16/scale
I0227 14:24:40.368607  5773 net.cpp:129] Top shape: 1 224 34 137 (1043392)
I0227 14:24:40.368610  5773 net.cpp:137] Memory required for data: 252069176
I0227 14:24:40.368616  5773 layer_factory.hpp:77] Creating layer relu0_16
I0227 14:24:40.368623  5773 net.cpp:84] Creating Layer relu0_16
I0227 14:24:40.368625  5773 net.cpp:406] relu0_16 <- conv0_16/bn
I0227 14:24:40.368649  5773 net.cpp:367] relu0_16 -> conv0_16/bn (in-place)
I0227 14:24:40.368870  5773 net.cpp:122] Setting up relu0_16
I0227 14:24:40.368880  5773 net.cpp:129] Top shape: 1 224 34 137 (1043392)
I0227 14:24:40.368883  5773 net.cpp:137] Memory required for data: 256242744
I0227 14:24:40.368887  5773 layer_factory.hpp:77] Creating layer conv0_16
I0227 14:24:40.368898  5773 net.cpp:84] Creating Layer conv0_16
I0227 14:24:40.368902  5773 net.cpp:406] conv0_16 <- conv0_16/bn
I0227 14:24:40.368911  5773 net.cpp:380] conv0_16 -> conv0_16
I0227 14:24:40.372293  5773 net.cpp:122] Setting up conv0_16
I0227 14:24:40.372306  5773 net.cpp:129] Top shape: 1 12 34 137 (55896)
I0227 14:24:40.372310  5773 net.cpp:137] Memory required for data: 256466328
I0227 14:24:40.372316  5773 layer_factory.hpp:77] Creating layer concat0_16
I0227 14:24:40.372325  5773 net.cpp:84] Creating Layer concat0_16
I0227 14:24:40.372330  5773 net.cpp:406] concat0_16 <- concat0_15_concat0_15_0_split_1
I0227 14:24:40.372334  5773 net.cpp:406] concat0_16 <- conv0_16
I0227 14:24:40.372339  5773 net.cpp:380] concat0_16 -> concat0_16
I0227 14:24:40.372385  5773 net.cpp:122] Setting up concat0_16
I0227 14:24:40.372392  5773 net.cpp:129] Top shape: 1 236 34 137 (1099288)
I0227 14:24:40.372395  5773 net.cpp:137] Memory required for data: 260863480
I0227 14:24:40.372398  5773 layer_factory.hpp:77] Creating layer concat0_16_concat0_16_0_split
I0227 14:24:40.372406  5773 net.cpp:84] Creating Layer concat0_16_concat0_16_0_split
I0227 14:24:40.372408  5773 net.cpp:406] concat0_16_concat0_16_0_split <- concat0_16
I0227 14:24:40.372413  5773 net.cpp:380] concat0_16_concat0_16_0_split -> concat0_16_concat0_16_0_split_0
I0227 14:24:40.372421  5773 net.cpp:380] concat0_16_concat0_16_0_split -> concat0_16_concat0_16_0_split_1
I0227 14:24:40.372478  5773 net.cpp:122] Setting up concat0_16_concat0_16_0_split
I0227 14:24:40.372484  5773 net.cpp:129] Top shape: 1 236 34 137 (1099288)
I0227 14:24:40.372488  5773 net.cpp:129] Top shape: 1 236 34 137 (1099288)
I0227 14:24:40.372491  5773 net.cpp:137] Memory required for data: 269657784
I0227 14:24:40.372494  5773 layer_factory.hpp:77] Creating layer conv0_17/bn
I0227 14:24:40.372501  5773 net.cpp:84] Creating Layer conv0_17/bn
I0227 14:24:40.372505  5773 net.cpp:406] conv0_17/bn <- concat0_16_concat0_16_0_split_0
I0227 14:24:40.372511  5773 net.cpp:380] conv0_17/bn -> conv0_17/bn
I0227 14:24:40.372892  5773 net.cpp:122] Setting up conv0_17/bn
I0227 14:24:40.372902  5773 net.cpp:129] Top shape: 1 236 34 137 (1099288)
I0227 14:24:40.372906  5773 net.cpp:137] Memory required for data: 274054936
I0227 14:24:40.372915  5773 layer_factory.hpp:77] Creating layer conv0_17/scale
I0227 14:24:40.372921  5773 net.cpp:84] Creating Layer conv0_17/scale
I0227 14:24:40.372925  5773 net.cpp:406] conv0_17/scale <- conv0_17/bn
I0227 14:24:40.372932  5773 net.cpp:367] conv0_17/scale -> conv0_17/bn (in-place)
I0227 14:24:40.373011  5773 layer_factory.hpp:77] Creating layer conv0_17/scale
I0227 14:24:40.373204  5773 net.cpp:122] Setting up conv0_17/scale
I0227 14:24:40.373212  5773 net.cpp:129] Top shape: 1 236 34 137 (1099288)
I0227 14:24:40.373215  5773 net.cpp:137] Memory required for data: 278452088
I0227 14:24:40.373220  5773 layer_factory.hpp:77] Creating layer relu0_17
I0227 14:24:40.373226  5773 net.cpp:84] Creating Layer relu0_17
I0227 14:24:40.373230  5773 net.cpp:406] relu0_17 <- conv0_17/bn
I0227 14:24:40.373236  5773 net.cpp:367] relu0_17 -> conv0_17/bn (in-place)
I0227 14:24:40.373442  5773 net.cpp:122] Setting up relu0_17
I0227 14:24:40.373452  5773 net.cpp:129] Top shape: 1 236 34 137 (1099288)
I0227 14:24:40.373456  5773 net.cpp:137] Memory required for data: 282849240
I0227 14:24:40.373459  5773 layer_factory.hpp:77] Creating layer conv0_17
I0227 14:24:40.373469  5773 net.cpp:84] Creating Layer conv0_17
I0227 14:24:40.373473  5773 net.cpp:406] conv0_17 <- conv0_17/bn
I0227 14:24:40.373479  5773 net.cpp:380] conv0_17 -> conv0_17
I0227 14:24:40.376885  5773 net.cpp:122] Setting up conv0_17
I0227 14:24:40.376899  5773 net.cpp:129] Top shape: 1 12 34 137 (55896)
I0227 14:24:40.376904  5773 net.cpp:137] Memory required for data: 283072824
I0227 14:24:40.376909  5773 layer_factory.hpp:77] Creating layer concat0_17
I0227 14:24:40.376924  5773 net.cpp:84] Creating Layer concat0_17
I0227 14:24:40.376929  5773 net.cpp:406] concat0_17 <- concat0_16_concat0_16_0_split_1
I0227 14:24:40.376933  5773 net.cpp:406] concat0_17 <- conv0_17
I0227 14:24:40.376938  5773 net.cpp:380] concat0_17 -> concat0_17
I0227 14:24:40.377002  5773 net.cpp:122] Setting up concat0_17
I0227 14:24:40.377009  5773 net.cpp:129] Top shape: 1 248 34 137 (1155184)
I0227 14:24:40.377017  5773 net.cpp:137] Memory required for data: 287693560
I0227 14:24:40.377020  5773 layer_factory.hpp:77] Creating layer concat0_17_concat0_17_0_split
I0227 14:24:40.377025  5773 net.cpp:84] Creating Layer concat0_17_concat0_17_0_split
I0227 14:24:40.377028  5773 net.cpp:406] concat0_17_concat0_17_0_split <- concat0_17
I0227 14:24:40.377033  5773 net.cpp:380] concat0_17_concat0_17_0_split -> concat0_17_concat0_17_0_split_0
I0227 14:24:40.377039  5773 net.cpp:380] concat0_17_concat0_17_0_split -> concat0_17_concat0_17_0_split_1
I0227 14:24:40.377099  5773 net.cpp:122] Setting up concat0_17_concat0_17_0_split
I0227 14:24:40.377104  5773 net.cpp:129] Top shape: 1 248 34 137 (1155184)
I0227 14:24:40.377108  5773 net.cpp:129] Top shape: 1 248 34 137 (1155184)
I0227 14:24:40.377111  5773 net.cpp:137] Memory required for data: 296935032
I0227 14:24:40.377115  5773 layer_factory.hpp:77] Creating layer conv0_18/bn
I0227 14:24:40.377121  5773 net.cpp:84] Creating Layer conv0_18/bn
I0227 14:24:40.377125  5773 net.cpp:406] conv0_18/bn <- concat0_17_concat0_17_0_split_0
I0227 14:24:40.377130  5773 net.cpp:380] conv0_18/bn -> conv0_18/bn
I0227 14:24:40.377487  5773 net.cpp:122] Setting up conv0_18/bn
I0227 14:24:40.377495  5773 net.cpp:129] Top shape: 1 248 34 137 (1155184)
I0227 14:24:40.377498  5773 net.cpp:137] Memory required for data: 301555768
I0227 14:24:40.377506  5773 layer_factory.hpp:77] Creating layer conv0_18/scale
I0227 14:24:40.377513  5773 net.cpp:84] Creating Layer conv0_18/scale
I0227 14:24:40.377517  5773 net.cpp:406] conv0_18/scale <- conv0_18/bn
I0227 14:24:40.377523  5773 net.cpp:367] conv0_18/scale -> conv0_18/bn (in-place)
I0227 14:24:40.377583  5773 layer_factory.hpp:77] Creating layer conv0_18/scale
I0227 14:24:40.377781  5773 net.cpp:122] Setting up conv0_18/scale
I0227 14:24:40.377789  5773 net.cpp:129] Top shape: 1 248 34 137 (1155184)
I0227 14:24:40.377791  5773 net.cpp:137] Memory required for data: 306176504
I0227 14:24:40.377797  5773 layer_factory.hpp:77] Creating layer relu0_18
I0227 14:24:40.377802  5773 net.cpp:84] Creating Layer relu0_18
I0227 14:24:40.377806  5773 net.cpp:406] relu0_18 <- conv0_18/bn
I0227 14:24:40.377811  5773 net.cpp:367] relu0_18 -> conv0_18/bn (in-place)
I0227 14:24:40.378023  5773 net.cpp:122] Setting up relu0_18
I0227 14:24:40.378032  5773 net.cpp:129] Top shape: 1 248 34 137 (1155184)
I0227 14:24:40.378036  5773 net.cpp:137] Memory required for data: 310797240
I0227 14:24:40.378039  5773 layer_factory.hpp:77] Creating layer conv0_18
I0227 14:24:40.378049  5773 net.cpp:84] Creating Layer conv0_18
I0227 14:24:40.378054  5773 net.cpp:406] conv0_18 <- conv0_18/bn
I0227 14:24:40.378060  5773 net.cpp:380] conv0_18 -> conv0_18
I0227 14:24:40.381583  5773 net.cpp:122] Setting up conv0_18
I0227 14:24:40.381597  5773 net.cpp:129] Top shape: 1 12 34 137 (55896)
I0227 14:24:40.381600  5773 net.cpp:137] Memory required for data: 311020824
I0227 14:24:40.381606  5773 layer_factory.hpp:77] Creating layer concat0_18
I0227 14:24:40.381615  5773 net.cpp:84] Creating Layer concat0_18
I0227 14:24:40.381620  5773 net.cpp:406] concat0_18 <- concat0_17_concat0_17_0_split_1
I0227 14:24:40.381625  5773 net.cpp:406] concat0_18 <- conv0_18
I0227 14:24:40.381630  5773 net.cpp:380] concat0_18 -> concat0_18
I0227 14:24:40.381680  5773 net.cpp:122] Setting up concat0_18
I0227 14:24:40.381685  5773 net.cpp:129] Top shape: 1 260 34 137 (1211080)
I0227 14:24:40.381688  5773 net.cpp:137] Memory required for data: 315865144
I0227 14:24:40.381691  5773 layer_factory.hpp:77] Creating layer concat0_18_concat0_18_0_split
I0227 14:24:40.381696  5773 net.cpp:84] Creating Layer concat0_18_concat0_18_0_split
I0227 14:24:40.381700  5773 net.cpp:406] concat0_18_concat0_18_0_split <- concat0_18
I0227 14:24:40.381706  5773 net.cpp:380] concat0_18_concat0_18_0_split -> concat0_18_concat0_18_0_split_0
I0227 14:24:40.381712  5773 net.cpp:380] concat0_18_concat0_18_0_split -> concat0_18_concat0_18_0_split_1
I0227 14:24:40.381770  5773 net.cpp:122] Setting up concat0_18_concat0_18_0_split
I0227 14:24:40.381779  5773 net.cpp:129] Top shape: 1 260 34 137 (1211080)
I0227 14:24:40.381783  5773 net.cpp:129] Top shape: 1 260 34 137 (1211080)
I0227 14:24:40.381786  5773 net.cpp:137] Memory required for data: 325553784
I0227 14:24:40.381789  5773 layer_factory.hpp:77] Creating layer conv0_19/bn
I0227 14:24:40.381798  5773 net.cpp:84] Creating Layer conv0_19/bn
I0227 14:24:40.381800  5773 net.cpp:406] conv0_19/bn <- concat0_18_concat0_18_0_split_0
I0227 14:24:40.381808  5773 net.cpp:380] conv0_19/bn -> conv0_19/bn
I0227 14:24:40.382171  5773 net.cpp:122] Setting up conv0_19/bn
I0227 14:24:40.382179  5773 net.cpp:129] Top shape: 1 260 34 137 (1211080)
I0227 14:24:40.382182  5773 net.cpp:137] Memory required for data: 330398104
I0227 14:24:40.382190  5773 layer_factory.hpp:77] Creating layer conv0_19/scale
I0227 14:24:40.382197  5773 net.cpp:84] Creating Layer conv0_19/scale
I0227 14:24:40.382200  5773 net.cpp:406] conv0_19/scale <- conv0_19/bn
I0227 14:24:40.382207  5773 net.cpp:367] conv0_19/scale -> conv0_19/bn (in-place)
I0227 14:24:40.382275  5773 layer_factory.hpp:77] Creating layer conv0_19/scale
I0227 14:24:40.382479  5773 net.cpp:122] Setting up conv0_19/scale
I0227 14:24:40.382486  5773 net.cpp:129] Top shape: 1 260 34 137 (1211080)
I0227 14:24:40.382489  5773 net.cpp:137] Memory required for data: 335242424
I0227 14:24:40.382495  5773 layer_factory.hpp:77] Creating layer relu0_19
I0227 14:24:40.382500  5773 net.cpp:84] Creating Layer relu0_19
I0227 14:24:40.382504  5773 net.cpp:406] relu0_19 <- conv0_19/bn
I0227 14:24:40.382511  5773 net.cpp:367] relu0_19 -> conv0_19/bn (in-place)
I0227 14:24:40.383591  5773 net.cpp:122] Setting up relu0_19
I0227 14:24:40.383605  5773 net.cpp:129] Top shape: 1 260 34 137 (1211080)
I0227 14:24:40.383607  5773 net.cpp:137] Memory required for data: 340086744
I0227 14:24:40.383611  5773 layer_factory.hpp:77] Creating layer conv0_19
I0227 14:24:40.383625  5773 net.cpp:84] Creating Layer conv0_19
I0227 14:24:40.383628  5773 net.cpp:406] conv0_19 <- conv0_19/bn
I0227 14:24:40.383635  5773 net.cpp:380] conv0_19 -> conv0_19
I0227 14:24:40.387145  5773 net.cpp:122] Setting up conv0_19
I0227 14:24:40.387157  5773 net.cpp:129] Top shape: 1 12 34 137 (55896)
I0227 14:24:40.387161  5773 net.cpp:137] Memory required for data: 340310328
I0227 14:24:40.387169  5773 layer_factory.hpp:77] Creating layer concat0_19
I0227 14:24:40.387176  5773 net.cpp:84] Creating Layer concat0_19
I0227 14:24:40.387181  5773 net.cpp:406] concat0_19 <- concat0_18_concat0_18_0_split_1
I0227 14:24:40.387186  5773 net.cpp:406] concat0_19 <- conv0_19
I0227 14:24:40.387192  5773 net.cpp:380] concat0_19 -> concat0_19
I0227 14:24:40.387240  5773 net.cpp:122] Setting up concat0_19
I0227 14:24:40.387246  5773 net.cpp:129] Top shape: 1 272 34 137 (1266976)
I0227 14:24:40.387249  5773 net.cpp:137] Memory required for data: 345378232
I0227 14:24:40.387253  5773 layer_factory.hpp:77] Creating layer concat0_19_concat0_19_0_split
I0227 14:24:40.387259  5773 net.cpp:84] Creating Layer concat0_19_concat0_19_0_split
I0227 14:24:40.387261  5773 net.cpp:406] concat0_19_concat0_19_0_split <- concat0_19
I0227 14:24:40.387269  5773 net.cpp:380] concat0_19_concat0_19_0_split -> concat0_19_concat0_19_0_split_0
I0227 14:24:40.387274  5773 net.cpp:380] concat0_19_concat0_19_0_split -> concat0_19_concat0_19_0_split_1
I0227 14:24:40.387333  5773 net.cpp:122] Setting up concat0_19_concat0_19_0_split
I0227 14:24:40.387341  5773 net.cpp:129] Top shape: 1 272 34 137 (1266976)
I0227 14:24:40.387343  5773 net.cpp:129] Top shape: 1 272 34 137 (1266976)
I0227 14:24:40.387346  5773 net.cpp:137] Memory required for data: 355514040
I0227 14:24:40.387349  5773 layer_factory.hpp:77] Creating layer conv0_20/bn
I0227 14:24:40.387362  5773 net.cpp:84] Creating Layer conv0_20/bn
I0227 14:24:40.387367  5773 net.cpp:406] conv0_20/bn <- concat0_19_concat0_19_0_split_0
I0227 14:24:40.387372  5773 net.cpp:380] conv0_20/bn -> conv0_20/bn
I0227 14:24:40.387725  5773 net.cpp:122] Setting up conv0_20/bn
I0227 14:24:40.387732  5773 net.cpp:129] Top shape: 1 272 34 137 (1266976)
I0227 14:24:40.387738  5773 net.cpp:137] Memory required for data: 360581944
I0227 14:24:40.387758  5773 layer_factory.hpp:77] Creating layer conv0_20/scale
I0227 14:24:40.387764  5773 net.cpp:84] Creating Layer conv0_20/scale
I0227 14:24:40.387768  5773 net.cpp:406] conv0_20/scale <- conv0_20/bn
I0227 14:24:40.387775  5773 net.cpp:367] conv0_20/scale -> conv0_20/bn (in-place)
I0227 14:24:40.387843  5773 layer_factory.hpp:77] Creating layer conv0_20/scale
I0227 14:24:40.388053  5773 net.cpp:122] Setting up conv0_20/scale
I0227 14:24:40.388061  5773 net.cpp:129] Top shape: 1 272 34 137 (1266976)
I0227 14:24:40.388063  5773 net.cpp:137] Memory required for data: 365649848
I0227 14:24:40.388069  5773 layer_factory.hpp:77] Creating layer relu0_20
I0227 14:24:40.388075  5773 net.cpp:84] Creating Layer relu0_20
I0227 14:24:40.388079  5773 net.cpp:406] relu0_20 <- conv0_20/bn
I0227 14:24:40.388083  5773 net.cpp:367] relu0_20 -> conv0_20/bn (in-place)
I0227 14:24:40.388298  5773 net.cpp:122] Setting up relu0_20
I0227 14:24:40.388305  5773 net.cpp:129] Top shape: 1 272 34 137 (1266976)
I0227 14:24:40.388309  5773 net.cpp:137] Memory required for data: 370717752
I0227 14:24:40.388312  5773 layer_factory.hpp:77] Creating layer conv0_20
I0227 14:24:40.388322  5773 net.cpp:84] Creating Layer conv0_20
I0227 14:24:40.388326  5773 net.cpp:406] conv0_20 <- conv0_20/bn
I0227 14:24:40.388332  5773 net.cpp:380] conv0_20 -> conv0_20
I0227 14:24:40.391933  5773 net.cpp:122] Setting up conv0_20
I0227 14:24:40.391947  5773 net.cpp:129] Top shape: 1 12 34 137 (55896)
I0227 14:24:40.391952  5773 net.cpp:137] Memory required for data: 370941336
I0227 14:24:40.391957  5773 layer_factory.hpp:77] Creating layer concat0_20
I0227 14:24:40.391968  5773 net.cpp:84] Creating Layer concat0_20
I0227 14:24:40.391973  5773 net.cpp:406] concat0_20 <- concat0_19_concat0_19_0_split_1
I0227 14:24:40.391978  5773 net.cpp:406] concat0_20 <- conv0_20
I0227 14:24:40.391983  5773 net.cpp:380] concat0_20 -> concat0_20
I0227 14:24:40.392033  5773 net.cpp:122] Setting up concat0_20
I0227 14:24:40.392040  5773 net.cpp:129] Top shape: 1 284 34 137 (1322872)
I0227 14:24:40.392043  5773 net.cpp:137] Memory required for data: 376232824
I0227 14:24:40.392046  5773 layer_factory.hpp:77] Creating layer concat0_20_concat0_20_0_split
I0227 14:24:40.392053  5773 net.cpp:84] Creating Layer concat0_20_concat0_20_0_split
I0227 14:24:40.392057  5773 net.cpp:406] concat0_20_concat0_20_0_split <- concat0_20
I0227 14:24:40.392062  5773 net.cpp:380] concat0_20_concat0_20_0_split -> concat0_20_concat0_20_0_split_0
I0227 14:24:40.392068  5773 net.cpp:380] concat0_20_concat0_20_0_split -> concat0_20_concat0_20_0_split_1
I0227 14:24:40.392143  5773 net.cpp:122] Setting up concat0_20_concat0_20_0_split
I0227 14:24:40.392149  5773 net.cpp:129] Top shape: 1 284 34 137 (1322872)
I0227 14:24:40.392153  5773 net.cpp:129] Top shape: 1 284 34 137 (1322872)
I0227 14:24:40.392156  5773 net.cpp:137] Memory required for data: 386815800
I0227 14:24:40.392159  5773 layer_factory.hpp:77] Creating layer conv0_21/bn
I0227 14:24:40.392166  5773 net.cpp:84] Creating Layer conv0_21/bn
I0227 14:24:40.392170  5773 net.cpp:406] conv0_21/bn <- concat0_20_concat0_20_0_split_0
I0227 14:24:40.392175  5773 net.cpp:380] conv0_21/bn -> conv0_21/bn
I0227 14:24:40.392547  5773 net.cpp:122] Setting up conv0_21/bn
I0227 14:24:40.392555  5773 net.cpp:129] Top shape: 1 284 34 137 (1322872)
I0227 14:24:40.392558  5773 net.cpp:137] Memory required for data: 392107288
I0227 14:24:40.392565  5773 layer_factory.hpp:77] Creating layer conv0_21/scale
I0227 14:24:40.392575  5773 net.cpp:84] Creating Layer conv0_21/scale
I0227 14:24:40.392577  5773 net.cpp:406] conv0_21/scale <- conv0_21/bn
I0227 14:24:40.392582  5773 net.cpp:367] conv0_21/scale -> conv0_21/bn (in-place)
I0227 14:24:40.392678  5773 layer_factory.hpp:77] Creating layer conv0_21/scale
I0227 14:24:40.392901  5773 net.cpp:122] Setting up conv0_21/scale
I0227 14:24:40.392910  5773 net.cpp:129] Top shape: 1 284 34 137 (1322872)
I0227 14:24:40.392916  5773 net.cpp:137] Memory required for data: 397398776
I0227 14:24:40.392922  5773 layer_factory.hpp:77] Creating layer relu0_21
I0227 14:24:40.392930  5773 net.cpp:84] Creating Layer relu0_21
I0227 14:24:40.392933  5773 net.cpp:406] relu0_21 <- conv0_21/bn
I0227 14:24:40.392937  5773 net.cpp:367] relu0_21 -> conv0_21/bn (in-place)
I0227 14:24:40.393165  5773 net.cpp:122] Setting up relu0_21
I0227 14:24:40.393174  5773 net.cpp:129] Top shape: 1 284 34 137 (1322872)
I0227 14:24:40.393177  5773 net.cpp:137] Memory required for data: 402690264
I0227 14:24:40.393182  5773 layer_factory.hpp:77] Creating layer conv0_21
I0227 14:24:40.393191  5773 net.cpp:84] Creating Layer conv0_21
I0227 14:24:40.393195  5773 net.cpp:406] conv0_21 <- conv0_21/bn
I0227 14:24:40.393203  5773 net.cpp:380] conv0_21 -> conv0_21
I0227 14:24:40.396749  5773 net.cpp:122] Setting up conv0_21
I0227 14:24:40.396764  5773 net.cpp:129] Top shape: 1 12 34 137 (55896)
I0227 14:24:40.396766  5773 net.cpp:137] Memory required for data: 402913848
I0227 14:24:40.396773  5773 layer_factory.hpp:77] Creating layer concat0_21
I0227 14:24:40.396783  5773 net.cpp:84] Creating Layer concat0_21
I0227 14:24:40.396787  5773 net.cpp:406] concat0_21 <- concat0_20_concat0_20_0_split_1
I0227 14:24:40.396793  5773 net.cpp:406] concat0_21 <- conv0_21
I0227 14:24:40.396798  5773 net.cpp:380] concat0_21 -> concat0_21
I0227 14:24:40.396848  5773 net.cpp:122] Setting up concat0_21
I0227 14:24:40.396854  5773 net.cpp:129] Top shape: 1 296 34 137 (1378768)
I0227 14:24:40.396858  5773 net.cpp:137] Memory required for data: 408428920
I0227 14:24:40.396862  5773 layer_factory.hpp:77] Creating layer concat0_21_concat0_21_0_split
I0227 14:24:40.396868  5773 net.cpp:84] Creating Layer concat0_21_concat0_21_0_split
I0227 14:24:40.396872  5773 net.cpp:406] concat0_21_concat0_21_0_split <- concat0_21
I0227 14:24:40.396878  5773 net.cpp:380] concat0_21_concat0_21_0_split -> concat0_21_concat0_21_0_split_0
I0227 14:24:40.396885  5773 net.cpp:380] concat0_21_concat0_21_0_split -> concat0_21_concat0_21_0_split_1
I0227 14:24:40.396946  5773 net.cpp:122] Setting up concat0_21_concat0_21_0_split
I0227 14:24:40.396952  5773 net.cpp:129] Top shape: 1 296 34 137 (1378768)
I0227 14:24:40.396957  5773 net.cpp:129] Top shape: 1 296 34 137 (1378768)
I0227 14:24:40.396960  5773 net.cpp:137] Memory required for data: 419459064
I0227 14:24:40.396963  5773 layer_factory.hpp:77] Creating layer conv0_22/bn
I0227 14:24:40.396970  5773 net.cpp:84] Creating Layer conv0_22/bn
I0227 14:24:40.396988  5773 net.cpp:406] conv0_22/bn <- concat0_21_concat0_21_0_split_0
I0227 14:24:40.396996  5773 net.cpp:380] conv0_22/bn -> conv0_22/bn
I0227 14:24:40.397359  5773 net.cpp:122] Setting up conv0_22/bn
I0227 14:24:40.397368  5773 net.cpp:129] Top shape: 1 296 34 137 (1378768)
I0227 14:24:40.397372  5773 net.cpp:137] Memory required for data: 424974136
I0227 14:24:40.397379  5773 layer_factory.hpp:77] Creating layer conv0_22/scale
I0227 14:24:40.397387  5773 net.cpp:84] Creating Layer conv0_22/scale
I0227 14:24:40.397390  5773 net.cpp:406] conv0_22/scale <- conv0_22/bn
I0227 14:24:40.397397  5773 net.cpp:367] conv0_22/scale -> conv0_22/bn (in-place)
I0227 14:24:40.397465  5773 layer_factory.hpp:77] Creating layer conv0_22/scale
I0227 14:24:40.397672  5773 net.cpp:122] Setting up conv0_22/scale
I0227 14:24:40.397680  5773 net.cpp:129] Top shape: 1 296 34 137 (1378768)
I0227 14:24:40.397682  5773 net.cpp:137] Memory required for data: 430489208
I0227 14:24:40.397688  5773 layer_factory.hpp:77] Creating layer relu0_22
I0227 14:24:40.397694  5773 net.cpp:84] Creating Layer relu0_22
I0227 14:24:40.397697  5773 net.cpp:406] relu0_22 <- conv0_22/bn
I0227 14:24:40.397704  5773 net.cpp:367] relu0_22 -> conv0_22/bn (in-place)
I0227 14:24:40.398793  5773 net.cpp:122] Setting up relu0_22
I0227 14:24:40.398805  5773 net.cpp:129] Top shape: 1 296 34 137 (1378768)
I0227 14:24:40.398809  5773 net.cpp:137] Memory required for data: 436004280
I0227 14:24:40.398813  5773 layer_factory.hpp:77] Creating layer conv0_22
I0227 14:24:40.398828  5773 net.cpp:84] Creating Layer conv0_22
I0227 14:24:40.398833  5773 net.cpp:406] conv0_22 <- conv0_22/bn
I0227 14:24:40.398840  5773 net.cpp:380] conv0_22 -> conv0_22
I0227 14:24:40.402592  5773 net.cpp:122] Setting up conv0_22
I0227 14:24:40.402606  5773 net.cpp:129] Top shape: 1 12 34 137 (55896)
I0227 14:24:40.402611  5773 net.cpp:137] Memory required for data: 436227864
I0227 14:24:40.402616  5773 layer_factory.hpp:77] Creating layer concat0_22
I0227 14:24:40.402624  5773 net.cpp:84] Creating Layer concat0_22
I0227 14:24:40.402628  5773 net.cpp:406] concat0_22 <- concat0_21_concat0_21_0_split_1
I0227 14:24:40.402634  5773 net.cpp:406] concat0_22 <- conv0_22
I0227 14:24:40.402642  5773 net.cpp:380] concat0_22 -> concat0_22
I0227 14:24:40.402693  5773 net.cpp:122] Setting up concat0_22
I0227 14:24:40.402699  5773 net.cpp:129] Top shape: 1 308 34 137 (1434664)
I0227 14:24:40.402703  5773 net.cpp:137] Memory required for data: 441966520
I0227 14:24:40.402705  5773 layer_factory.hpp:77] Creating layer concat0_22_concat0_22_0_split
I0227 14:24:40.402714  5773 net.cpp:84] Creating Layer concat0_22_concat0_22_0_split
I0227 14:24:40.402716  5773 net.cpp:406] concat0_22_concat0_22_0_split <- concat0_22
I0227 14:24:40.402721  5773 net.cpp:380] concat0_22_concat0_22_0_split -> concat0_22_concat0_22_0_split_0
I0227 14:24:40.402727  5773 net.cpp:380] concat0_22_concat0_22_0_split -> concat0_22_concat0_22_0_split_1
I0227 14:24:40.402789  5773 net.cpp:122] Setting up concat0_22_concat0_22_0_split
I0227 14:24:40.402796  5773 net.cpp:129] Top shape: 1 308 34 137 (1434664)
I0227 14:24:40.402799  5773 net.cpp:129] Top shape: 1 308 34 137 (1434664)
I0227 14:24:40.402802  5773 net.cpp:137] Memory required for data: 453443832
I0227 14:24:40.402806  5773 layer_factory.hpp:77] Creating layer conv0_23/bn
I0227 14:24:40.402814  5773 net.cpp:84] Creating Layer conv0_23/bn
I0227 14:24:40.402817  5773 net.cpp:406] conv0_23/bn <- concat0_22_concat0_22_0_split_0
I0227 14:24:40.402823  5773 net.cpp:380] conv0_23/bn -> conv0_23/bn
I0227 14:24:40.403235  5773 net.cpp:122] Setting up conv0_23/bn
I0227 14:24:40.403244  5773 net.cpp:129] Top shape: 1 308 34 137 (1434664)
I0227 14:24:40.403246  5773 net.cpp:137] Memory required for data: 459182488
I0227 14:24:40.403254  5773 layer_factory.hpp:77] Creating layer conv0_23/scale
I0227 14:24:40.403264  5773 net.cpp:84] Creating Layer conv0_23/scale
I0227 14:24:40.403267  5773 net.cpp:406] conv0_23/scale <- conv0_23/bn
I0227 14:24:40.403273  5773 net.cpp:367] conv0_23/scale -> conv0_23/bn (in-place)
I0227 14:24:40.403348  5773 layer_factory.hpp:77] Creating layer conv0_23/scale
I0227 14:24:40.403589  5773 net.cpp:122] Setting up conv0_23/scale
I0227 14:24:40.403599  5773 net.cpp:129] Top shape: 1 308 34 137 (1434664)
I0227 14:24:40.403601  5773 net.cpp:137] Memory required for data: 464921144
I0227 14:24:40.403607  5773 layer_factory.hpp:77] Creating layer relu0_23
I0227 14:24:40.403614  5773 net.cpp:84] Creating Layer relu0_23
I0227 14:24:40.403617  5773 net.cpp:406] relu0_23 <- conv0_23/bn
I0227 14:24:40.403622  5773 net.cpp:367] relu0_23 -> conv0_23/bn (in-place)
I0227 14:24:40.403849  5773 net.cpp:122] Setting up relu0_23
I0227 14:24:40.403858  5773 net.cpp:129] Top shape: 1 308 34 137 (1434664)
I0227 14:24:40.403862  5773 net.cpp:137] Memory required for data: 470659800
I0227 14:24:40.403867  5773 layer_factory.hpp:77] Creating layer conv0_23
I0227 14:24:40.403877  5773 net.cpp:84] Creating Layer conv0_23
I0227 14:24:40.403880  5773 net.cpp:406] conv0_23 <- conv0_23/bn
I0227 14:24:40.403887  5773 net.cpp:380] conv0_23 -> conv0_23
I0227 14:24:40.407871  5773 net.cpp:122] Setting up conv0_23
I0227 14:24:40.407884  5773 net.cpp:129] Top shape: 1 12 34 137 (55896)
I0227 14:24:40.407888  5773 net.cpp:137] Memory required for data: 470883384
I0227 14:24:40.407894  5773 layer_factory.hpp:77] Creating layer concat0_23
I0227 14:24:40.407904  5773 net.cpp:84] Creating Layer concat0_23
I0227 14:24:40.407908  5773 net.cpp:406] concat0_23 <- concat0_22_concat0_22_0_split_1
I0227 14:24:40.407914  5773 net.cpp:406] concat0_23 <- conv0_23
I0227 14:24:40.407923  5773 net.cpp:380] concat0_23 -> concat0_23
I0227 14:24:40.407975  5773 net.cpp:122] Setting up concat0_23
I0227 14:24:40.407981  5773 net.cpp:129] Top shape: 1 320 34 137 (1490560)
I0227 14:24:40.407985  5773 net.cpp:137] Memory required for data: 476845624
I0227 14:24:40.407989  5773 layer_factory.hpp:77] Creating layer concat0_23_concat0_23_0_split
I0227 14:24:40.407995  5773 net.cpp:84] Creating Layer concat0_23_concat0_23_0_split
I0227 14:24:40.407999  5773 net.cpp:406] concat0_23_concat0_23_0_split <- concat0_23
I0227 14:24:40.408004  5773 net.cpp:380] concat0_23_concat0_23_0_split -> concat0_23_concat0_23_0_split_0
I0227 14:24:40.408012  5773 net.cpp:380] concat0_23_concat0_23_0_split -> concat0_23_concat0_23_0_split_1
I0227 14:24:40.408080  5773 net.cpp:122] Setting up concat0_23_concat0_23_0_split
I0227 14:24:40.408087  5773 net.cpp:129] Top shape: 1 320 34 137 (1490560)
I0227 14:24:40.408092  5773 net.cpp:129] Top shape: 1 320 34 137 (1490560)
I0227 14:24:40.408095  5773 net.cpp:137] Memory required for data: 488770104
I0227 14:24:40.408098  5773 layer_factory.hpp:77] Creating layer conv0_24/bn
I0227 14:24:40.408107  5773 net.cpp:84] Creating Layer conv0_24/bn
I0227 14:24:40.408110  5773 net.cpp:406] conv0_24/bn <- concat0_23_concat0_23_0_split_0
I0227 14:24:40.408116  5773 net.cpp:380] conv0_24/bn -> conv0_24/bn
I0227 14:24:40.408509  5773 net.cpp:122] Setting up conv0_24/bn
I0227 14:24:40.408516  5773 net.cpp:129] Top shape: 1 320 34 137 (1490560)
I0227 14:24:40.408519  5773 net.cpp:137] Memory required for data: 494732344
I0227 14:24:40.408526  5773 layer_factory.hpp:77] Creating layer conv0_24/scale
I0227 14:24:40.408536  5773 net.cpp:84] Creating Layer conv0_24/scale
I0227 14:24:40.408540  5773 net.cpp:406] conv0_24/scale <- conv0_24/bn
I0227 14:24:40.408545  5773 net.cpp:367] conv0_24/scale -> conv0_24/bn (in-place)
I0227 14:24:40.408617  5773 layer_factory.hpp:77] Creating layer conv0_24/scale
I0227 14:24:40.408906  5773 net.cpp:122] Setting up conv0_24/scale
I0227 14:24:40.408915  5773 net.cpp:129] Top shape: 1 320 34 137 (1490560)
I0227 14:24:40.408918  5773 net.cpp:137] Memory required for data: 500694584
I0227 14:24:40.408926  5773 layer_factory.hpp:77] Creating layer relu0_24
I0227 14:24:40.408932  5773 net.cpp:84] Creating Layer relu0_24
I0227 14:24:40.408936  5773 net.cpp:406] relu0_24 <- conv0_24/bn
I0227 14:24:40.408941  5773 net.cpp:367] relu0_24 -> conv0_24/bn (in-place)
I0227 14:24:40.409202  5773 net.cpp:122] Setting up relu0_24
I0227 14:24:40.409212  5773 net.cpp:129] Top shape: 1 320 34 137 (1490560)
I0227 14:24:40.409215  5773 net.cpp:137] Memory required for data: 506656824
I0227 14:24:40.409219  5773 layer_factory.hpp:77] Creating layer conv0_24
I0227 14:24:40.409229  5773 net.cpp:84] Creating Layer conv0_24
I0227 14:24:40.409234  5773 net.cpp:406] conv0_24 <- conv0_24/bn
I0227 14:24:40.409241  5773 net.cpp:380] conv0_24 -> conv0_24
I0227 14:24:40.413247  5773 net.cpp:122] Setting up conv0_24
I0227 14:24:40.413261  5773 net.cpp:129] Top shape: 1 12 34 137 (55896)
I0227 14:24:40.413264  5773 net.cpp:137] Memory required for data: 506880408
I0227 14:24:40.413271  5773 layer_factory.hpp:77] Creating layer concat0_24
I0227 14:24:40.413281  5773 net.cpp:84] Creating Layer concat0_24
I0227 14:24:40.413285  5773 net.cpp:406] concat0_24 <- concat0_23_concat0_23_0_split_1
I0227 14:24:40.413291  5773 net.cpp:406] concat0_24 <- conv0_24
I0227 14:24:40.413296  5773 net.cpp:380] concat0_24 -> concat0_24
I0227 14:24:40.413349  5773 net.cpp:122] Setting up concat0_24
I0227 14:24:40.413357  5773 net.cpp:129] Top shape: 1 332 34 137 (1546456)
I0227 14:24:40.413359  5773 net.cpp:137] Memory required for data: 513066232
I0227 14:24:40.413363  5773 layer_factory.hpp:77] Creating layer concat0_24_concat0_24_0_split
I0227 14:24:40.413368  5773 net.cpp:84] Creating Layer concat0_24_concat0_24_0_split
I0227 14:24:40.413372  5773 net.cpp:406] concat0_24_concat0_24_0_split <- concat0_24
I0227 14:24:40.413378  5773 net.cpp:380] concat0_24_concat0_24_0_split -> concat0_24_concat0_24_0_split_0
I0227 14:24:40.413386  5773 net.cpp:380] concat0_24_concat0_24_0_split -> concat0_24_concat0_24_0_split_1
I0227 14:24:40.413457  5773 net.cpp:122] Setting up concat0_24_concat0_24_0_split
I0227 14:24:40.413465  5773 net.cpp:129] Top shape: 1 332 34 137 (1546456)
I0227 14:24:40.413470  5773 net.cpp:129] Top shape: 1 332 34 137 (1546456)
I0227 14:24:40.413472  5773 net.cpp:137] Memory required for data: 525437880
I0227 14:24:40.413476  5773 layer_factory.hpp:77] Creating layer conv0_25/bn
I0227 14:24:40.413481  5773 net.cpp:84] Creating Layer conv0_25/bn
I0227 14:24:40.413486  5773 net.cpp:406] conv0_25/bn <- concat0_24_concat0_24_0_split_0
I0227 14:24:40.413492  5773 net.cpp:380] conv0_25/bn -> conv0_25/bn
I0227 14:24:40.413902  5773 net.cpp:122] Setting up conv0_25/bn
I0227 14:24:40.413910  5773 net.cpp:129] Top shape: 1 332 34 137 (1546456)
I0227 14:24:40.413913  5773 net.cpp:137] Memory required for data: 531623704
I0227 14:24:40.413921  5773 layer_factory.hpp:77] Creating layer conv0_25/scale
I0227 14:24:40.413930  5773 net.cpp:84] Creating Layer conv0_25/scale
I0227 14:24:40.413934  5773 net.cpp:406] conv0_25/scale <- conv0_25/bn
I0227 14:24:40.413941  5773 net.cpp:367] conv0_25/scale -> conv0_25/bn (in-place)
I0227 14:24:40.414014  5773 layer_factory.hpp:77] Creating layer conv0_25/scale
I0227 14:24:40.414237  5773 net.cpp:122] Setting up conv0_25/scale
I0227 14:24:40.414245  5773 net.cpp:129] Top shape: 1 332 34 137 (1546456)
I0227 14:24:40.414248  5773 net.cpp:137] Memory required for data: 537809528
I0227 14:24:40.414254  5773 layer_factory.hpp:77] Creating layer relu0_25
I0227 14:24:40.414260  5773 net.cpp:84] Creating Layer relu0_25
I0227 14:24:40.414264  5773 net.cpp:406] relu0_25 <- conv0_25/bn
I0227 14:24:40.414268  5773 net.cpp:367] relu0_25 -> conv0_25/bn (in-place)
I0227 14:24:40.415427  5773 net.cpp:122] Setting up relu0_25
I0227 14:24:40.415441  5773 net.cpp:129] Top shape: 1 332 34 137 (1546456)
I0227 14:24:40.415449  5773 net.cpp:137] Memory required for data: 543995352
I0227 14:24:40.415453  5773 layer_factory.hpp:77] Creating layer conv0_25
I0227 14:24:40.415463  5773 net.cpp:84] Creating Layer conv0_25
I0227 14:24:40.415467  5773 net.cpp:406] conv0_25 <- conv0_25/bn
I0227 14:24:40.415477  5773 net.cpp:380] conv0_25 -> conv0_25
I0227 14:24:40.419414  5773 net.cpp:122] Setting up conv0_25
I0227 14:24:40.419427  5773 net.cpp:129] Top shape: 1 12 34 137 (55896)
I0227 14:24:40.419431  5773 net.cpp:137] Memory required for data: 544218936
I0227 14:24:40.419438  5773 layer_factory.hpp:77] Creating layer concat0_25
I0227 14:24:40.419447  5773 net.cpp:84] Creating Layer concat0_25
I0227 14:24:40.419452  5773 net.cpp:406] concat0_25 <- concat0_24_concat0_24_0_split_1
I0227 14:24:40.419457  5773 net.cpp:406] concat0_25 <- conv0_25
I0227 14:24:40.419463  5773 net.cpp:380] concat0_25 -> concat0_25
I0227 14:24:40.419515  5773 net.cpp:122] Setting up concat0_25
I0227 14:24:40.419522  5773 net.cpp:129] Top shape: 1 344 34 137 (1602352)
I0227 14:24:40.419525  5773 net.cpp:137] Memory required for data: 550628344
I0227 14:24:40.419528  5773 layer_factory.hpp:77] Creating layer concat0_25_concat0_25_0_split
I0227 14:24:40.419535  5773 net.cpp:84] Creating Layer concat0_25_concat0_25_0_split
I0227 14:24:40.419539  5773 net.cpp:406] concat0_25_concat0_25_0_split <- concat0_25
I0227 14:24:40.419544  5773 net.cpp:380] concat0_25_concat0_25_0_split -> concat0_25_concat0_25_0_split_0
I0227 14:24:40.419550  5773 net.cpp:380] concat0_25_concat0_25_0_split -> concat0_25_concat0_25_0_split_1
I0227 14:24:40.419615  5773 net.cpp:122] Setting up concat0_25_concat0_25_0_split
I0227 14:24:40.419621  5773 net.cpp:129] Top shape: 1 344 34 137 (1602352)
I0227 14:24:40.419625  5773 net.cpp:129] Top shape: 1 344 34 137 (1602352)
I0227 14:24:40.419628  5773 net.cpp:137] Memory required for data: 563447160
I0227 14:24:40.419631  5773 layer_factory.hpp:77] Creating layer conv0_26/bn
I0227 14:24:40.419639  5773 net.cpp:84] Creating Layer conv0_26/bn
I0227 14:24:40.419643  5773 net.cpp:406] conv0_26/bn <- concat0_25_concat0_25_0_split_0
I0227 14:24:40.419652  5773 net.cpp:380] conv0_26/bn -> conv0_26/bn
I0227 14:24:40.420060  5773 net.cpp:122] Setting up conv0_26/bn
I0227 14:24:40.420068  5773 net.cpp:129] Top shape: 1 344 34 137 (1602352)
I0227 14:24:40.420071  5773 net.cpp:137] Memory required for data: 569856568
I0227 14:24:40.420078  5773 layer_factory.hpp:77] Creating layer conv0_26/scale
I0227 14:24:40.420087  5773 net.cpp:84] Creating Layer conv0_26/scale
I0227 14:24:40.420092  5773 net.cpp:406] conv0_26/scale <- conv0_26/bn
I0227 14:24:40.420097  5773 net.cpp:367] conv0_26/scale -> conv0_26/bn (in-place)
I0227 14:24:40.420174  5773 layer_factory.hpp:77] Creating layer conv0_26/scale
I0227 14:24:40.420397  5773 net.cpp:122] Setting up conv0_26/scale
I0227 14:24:40.420408  5773 net.cpp:129] Top shape: 1 344 34 137 (1602352)
I0227 14:24:40.420410  5773 net.cpp:137] Memory required for data: 576265976
I0227 14:24:40.420416  5773 layer_factory.hpp:77] Creating layer relu0_26
I0227 14:24:40.420423  5773 net.cpp:84] Creating Layer relu0_26
I0227 14:24:40.420426  5773 net.cpp:406] relu0_26 <- conv0_26/bn
I0227 14:24:40.420431  5773 net.cpp:367] relu0_26 -> conv0_26/bn (in-place)
I0227 14:24:40.420678  5773 net.cpp:122] Setting up relu0_26
I0227 14:24:40.420688  5773 net.cpp:129] Top shape: 1 344 34 137 (1602352)
I0227 14:24:40.420692  5773 net.cpp:137] Memory required for data: 582675384
I0227 14:24:40.420696  5773 layer_factory.hpp:77] Creating layer conv0_26
I0227 14:24:40.420706  5773 net.cpp:84] Creating Layer conv0_26
I0227 14:24:40.420711  5773 net.cpp:406] conv0_26 <- conv0_26/bn
I0227 14:24:40.420719  5773 net.cpp:380] conv0_26 -> conv0_26
I0227 14:24:40.426599  5773 net.cpp:122] Setting up conv0_26
I0227 14:24:40.426612  5773 net.cpp:129] Top shape: 1 12 34 137 (55896)
I0227 14:24:40.426616  5773 net.cpp:137] Memory required for data: 582898968
I0227 14:24:40.426622  5773 layer_factory.hpp:77] Creating layer concat0_26
I0227 14:24:40.426630  5773 net.cpp:84] Creating Layer concat0_26
I0227 14:24:40.426635  5773 net.cpp:406] concat0_26 <- concat0_25_concat0_25_0_split_1
I0227 14:24:40.426642  5773 net.cpp:406] concat0_26 <- conv0_26
I0227 14:24:40.426648  5773 net.cpp:380] concat0_26 -> concat0_26
I0227 14:24:40.426717  5773 net.cpp:122] Setting up concat0_26
I0227 14:24:40.426725  5773 net.cpp:129] Top shape: 1 356 34 137 (1658248)
I0227 14:24:40.426728  5773 net.cpp:137] Memory required for data: 589531960
I0227 14:24:40.426733  5773 layer_factory.hpp:77] Creating layer concat0_26_concat0_26_0_split
I0227 14:24:40.426739  5773 net.cpp:84] Creating Layer concat0_26_concat0_26_0_split
I0227 14:24:40.426743  5773 net.cpp:406] concat0_26_concat0_26_0_split <- concat0_26
I0227 14:24:40.426748  5773 net.cpp:380] concat0_26_concat0_26_0_split -> concat0_26_concat0_26_0_split_0
I0227 14:24:40.426755  5773 net.cpp:380] concat0_26_concat0_26_0_split -> concat0_26_concat0_26_0_split_1
I0227 14:24:40.426823  5773 net.cpp:122] Setting up concat0_26_concat0_26_0_split
I0227 14:24:40.426831  5773 net.cpp:129] Top shape: 1 356 34 137 (1658248)
I0227 14:24:40.426834  5773 net.cpp:129] Top shape: 1 356 34 137 (1658248)
I0227 14:24:40.426837  5773 net.cpp:137] Memory required for data: 602797944
I0227 14:24:40.426841  5773 layer_factory.hpp:77] Creating layer conv0_27/bn
I0227 14:24:40.426849  5773 net.cpp:84] Creating Layer conv0_27/bn
I0227 14:24:40.426853  5773 net.cpp:406] conv0_27/bn <- concat0_26_concat0_26_0_split_0
I0227 14:24:40.426861  5773 net.cpp:380] conv0_27/bn -> conv0_27/bn
I0227 14:24:40.427283  5773 net.cpp:122] Setting up conv0_27/bn
I0227 14:24:40.427290  5773 net.cpp:129] Top shape: 1 356 34 137 (1658248)
I0227 14:24:40.427294  5773 net.cpp:137] Memory required for data: 609430936
I0227 14:24:40.427301  5773 layer_factory.hpp:77] Creating layer conv0_27/scale
I0227 14:24:40.427310  5773 net.cpp:84] Creating Layer conv0_27/scale
I0227 14:24:40.427314  5773 net.cpp:406] conv0_27/scale <- conv0_27/bn
I0227 14:24:40.427320  5773 net.cpp:367] conv0_27/scale -> conv0_27/bn (in-place)
I0227 14:24:40.427395  5773 layer_factory.hpp:77] Creating layer conv0_27/scale
I0227 14:24:40.427634  5773 net.cpp:122] Setting up conv0_27/scale
I0227 14:24:40.427642  5773 net.cpp:129] Top shape: 1 356 34 137 (1658248)
I0227 14:24:40.427646  5773 net.cpp:137] Memory required for data: 616063928
I0227 14:24:40.427652  5773 layer_factory.hpp:77] Creating layer relu0_27
I0227 14:24:40.427659  5773 net.cpp:84] Creating Layer relu0_27
I0227 14:24:40.427662  5773 net.cpp:406] relu0_27 <- conv0_27/bn
I0227 14:24:40.427670  5773 net.cpp:367] relu0_27 -> conv0_27/bn (in-place)
I0227 14:24:40.427894  5773 net.cpp:122] Setting up relu0_27
I0227 14:24:40.427903  5773 net.cpp:129] Top shape: 1 356 34 137 (1658248)
I0227 14:24:40.427906  5773 net.cpp:137] Memory required for data: 622696920
I0227 14:24:40.427911  5773 layer_factory.hpp:77] Creating layer conv0_27
I0227 14:24:40.427920  5773 net.cpp:84] Creating Layer conv0_27
I0227 14:24:40.427924  5773 net.cpp:406] conv0_27 <- conv0_27/bn
I0227 14:24:40.427932  5773 net.cpp:380] conv0_27 -> conv0_27
I0227 14:24:40.432122  5773 net.cpp:122] Setting up conv0_27
I0227 14:24:40.432138  5773 net.cpp:129] Top shape: 1 12 34 137 (55896)
I0227 14:24:40.432142  5773 net.cpp:137] Memory required for data: 622920504
I0227 14:24:40.432148  5773 layer_factory.hpp:77] Creating layer concat0_27
I0227 14:24:40.432155  5773 net.cpp:84] Creating Layer concat0_27
I0227 14:24:40.432160  5773 net.cpp:406] concat0_27 <- concat0_26_concat0_26_0_split_1
I0227 14:24:40.432165  5773 net.cpp:406] concat0_27 <- conv0_27
I0227 14:24:40.432170  5773 net.cpp:380] concat0_27 -> concat0_27
I0227 14:24:40.432229  5773 net.cpp:122] Setting up concat0_27
I0227 14:24:40.432236  5773 net.cpp:129] Top shape: 1 368 34 137 (1714144)
I0227 14:24:40.432240  5773 net.cpp:137] Memory required for data: 629777080
I0227 14:24:40.432242  5773 layer_factory.hpp:77] Creating layer concat0_27_concat0_27_0_split
I0227 14:24:40.432247  5773 net.cpp:84] Creating Layer concat0_27_concat0_27_0_split
I0227 14:24:40.432251  5773 net.cpp:406] concat0_27_concat0_27_0_split <- concat0_27
I0227 14:24:40.432256  5773 net.cpp:380] concat0_27_concat0_27_0_split -> concat0_27_concat0_27_0_split_0
I0227 14:24:40.432265  5773 net.cpp:380] concat0_27_concat0_27_0_split -> concat0_27_concat0_27_0_split_1
I0227 14:24:40.432330  5773 net.cpp:122] Setting up concat0_27_concat0_27_0_split
I0227 14:24:40.432338  5773 net.cpp:129] Top shape: 1 368 34 137 (1714144)
I0227 14:24:40.432343  5773 net.cpp:129] Top shape: 1 368 34 137 (1714144)
I0227 14:24:40.432346  5773 net.cpp:137] Memory required for data: 643490232
I0227 14:24:40.432349  5773 layer_factory.hpp:77] Creating layer conv0_28/bn
I0227 14:24:40.432355  5773 net.cpp:84] Creating Layer conv0_28/bn
I0227 14:24:40.432359  5773 net.cpp:406] conv0_28/bn <- concat0_27_concat0_27_0_split_0
I0227 14:24:40.432366  5773 net.cpp:380] conv0_28/bn -> conv0_28/bn
I0227 14:24:40.432798  5773 net.cpp:122] Setting up conv0_28/bn
I0227 14:24:40.432806  5773 net.cpp:129] Top shape: 1 368 34 137 (1714144)
I0227 14:24:40.432811  5773 net.cpp:137] Memory required for data: 650346808
I0227 14:24:40.432817  5773 layer_factory.hpp:77] Creating layer conv0_28/scale
I0227 14:24:40.432827  5773 net.cpp:84] Creating Layer conv0_28/scale
I0227 14:24:40.432832  5773 net.cpp:406] conv0_28/scale <- conv0_28/bn
I0227 14:24:40.432838  5773 net.cpp:367] conv0_28/scale -> conv0_28/bn (in-place)
I0227 14:24:40.432916  5773 layer_factory.hpp:77] Creating layer conv0_28/scale
I0227 14:24:40.433164  5773 net.cpp:122] Setting up conv0_28/scale
I0227 14:24:40.433171  5773 net.cpp:129] Top shape: 1 368 34 137 (1714144)
I0227 14:24:40.433174  5773 net.cpp:137] Memory required for data: 657203384
I0227 14:24:40.433181  5773 layer_factory.hpp:77] Creating layer relu0_28
I0227 14:24:40.433187  5773 net.cpp:84] Creating Layer relu0_28
I0227 14:24:40.433189  5773 net.cpp:406] relu0_28 <- conv0_28/bn
I0227 14:24:40.433194  5773 net.cpp:367] relu0_28 -> conv0_28/bn (in-place)
I0227 14:24:40.433413  5773 net.cpp:122] Setting up relu0_28
I0227 14:24:40.433421  5773 net.cpp:129] Top shape: 1 368 34 137 (1714144)
I0227 14:24:40.433428  5773 net.cpp:137] Memory required for data: 664059960
I0227 14:24:40.433431  5773 layer_factory.hpp:77] Creating layer conv0_28
I0227 14:24:40.433444  5773 net.cpp:84] Creating Layer conv0_28
I0227 14:24:40.433447  5773 net.cpp:406] conv0_28 <- conv0_28/bn
I0227 14:24:40.433454  5773 net.cpp:380] conv0_28 -> conv0_28
I0227 14:24:40.437288  5773 net.cpp:122] Setting up conv0_28
I0227 14:24:40.437300  5773 net.cpp:129] Top shape: 1 12 34 137 (55896)
I0227 14:24:40.437304  5773 net.cpp:137] Memory required for data: 664283544
I0227 14:24:40.437310  5773 layer_factory.hpp:77] Creating layer concat0_28
I0227 14:24:40.437317  5773 net.cpp:84] Creating Layer concat0_28
I0227 14:24:40.437321  5773 net.cpp:406] concat0_28 <- concat0_27_concat0_27_0_split_1
I0227 14:24:40.437326  5773 net.cpp:406] concat0_28 <- conv0_28
I0227 14:24:40.437333  5773 net.cpp:380] concat0_28 -> concat0_28
I0227 14:24:40.437383  5773 net.cpp:122] Setting up concat0_28
I0227 14:24:40.437389  5773 net.cpp:129] Top shape: 1 380 34 137 (1770040)
I0227 14:24:40.437392  5773 net.cpp:137] Memory required for data: 671363704
I0227 14:24:40.437396  5773 layer_factory.hpp:77] Creating layer concat0_28_concat0_28_0_split
I0227 14:24:40.437400  5773 net.cpp:84] Creating Layer concat0_28_concat0_28_0_split
I0227 14:24:40.437403  5773 net.cpp:406] concat0_28_concat0_28_0_split <- concat0_28
I0227 14:24:40.437410  5773 net.cpp:380] concat0_28_concat0_28_0_split -> concat0_28_concat0_28_0_split_0
I0227 14:24:40.437417  5773 net.cpp:380] concat0_28_concat0_28_0_split -> concat0_28_concat0_28_0_split_1
I0227 14:24:40.437479  5773 net.cpp:122] Setting up concat0_28_concat0_28_0_split
I0227 14:24:40.437484  5773 net.cpp:129] Top shape: 1 380 34 137 (1770040)
I0227 14:24:40.437489  5773 net.cpp:129] Top shape: 1 380 34 137 (1770040)
I0227 14:24:40.437491  5773 net.cpp:137] Memory required for data: 685524024
I0227 14:24:40.437494  5773 layer_factory.hpp:77] Creating layer conv0_29/bn
I0227 14:24:40.437501  5773 net.cpp:84] Creating Layer conv0_29/bn
I0227 14:24:40.437505  5773 net.cpp:406] conv0_29/bn <- concat0_28_concat0_28_0_split_0
I0227 14:24:40.437510  5773 net.cpp:380] conv0_29/bn -> conv0_29/bn
I0227 14:24:40.437891  5773 net.cpp:122] Setting up conv0_29/bn
I0227 14:24:40.437898  5773 net.cpp:129] Top shape: 1 380 34 137 (1770040)
I0227 14:24:40.437901  5773 net.cpp:137] Memory required for data: 692604184
I0227 14:24:40.437908  5773 layer_factory.hpp:77] Creating layer conv0_29/scale
I0227 14:24:40.437916  5773 net.cpp:84] Creating Layer conv0_29/scale
I0227 14:24:40.437919  5773 net.cpp:406] conv0_29/scale <- conv0_29/bn
I0227 14:24:40.437927  5773 net.cpp:367] conv0_29/scale -> conv0_29/bn (in-place)
I0227 14:24:40.437999  5773 layer_factory.hpp:77] Creating layer conv0_29/scale
I0227 14:24:40.438210  5773 net.cpp:122] Setting up conv0_29/scale
I0227 14:24:40.438218  5773 net.cpp:129] Top shape: 1 380 34 137 (1770040)
I0227 14:24:40.438221  5773 net.cpp:137] Memory required for data: 699684344
I0227 14:24:40.438226  5773 layer_factory.hpp:77] Creating layer relu0_29
I0227 14:24:40.438233  5773 net.cpp:84] Creating Layer relu0_29
I0227 14:24:40.438237  5773 net.cpp:406] relu0_29 <- conv0_29/bn
I0227 14:24:40.438242  5773 net.cpp:367] relu0_29 -> conv0_29/bn (in-place)
I0227 14:24:40.439345  5773 net.cpp:122] Setting up relu0_29
I0227 14:24:40.439357  5773 net.cpp:129] Top shape: 1 380 34 137 (1770040)
I0227 14:24:40.439362  5773 net.cpp:137] Memory required for data: 706764504
I0227 14:24:40.439364  5773 layer_factory.hpp:77] Creating layer conv0_29
I0227 14:24:40.439376  5773 net.cpp:84] Creating Layer conv0_29
I0227 14:24:40.439380  5773 net.cpp:406] conv0_29 <- conv0_29/bn
I0227 14:24:40.439386  5773 net.cpp:380] conv0_29 -> conv0_29
I0227 14:24:40.443308  5773 net.cpp:122] Setting up conv0_29
I0227 14:24:40.443321  5773 net.cpp:129] Top shape: 1 12 34 137 (55896)
I0227 14:24:40.443325  5773 net.cpp:137] Memory required for data: 706988088
I0227 14:24:40.443331  5773 layer_factory.hpp:77] Creating layer concat0_29
I0227 14:24:40.443344  5773 net.cpp:84] Creating Layer concat0_29
I0227 14:24:40.443348  5773 net.cpp:406] concat0_29 <- concat0_28_concat0_28_0_split_1
I0227 14:24:40.443353  5773 net.cpp:406] concat0_29 <- conv0_29
I0227 14:24:40.443359  5773 net.cpp:380] concat0_29 -> concat0_29
I0227 14:24:40.443413  5773 net.cpp:122] Setting up concat0_29
I0227 14:24:40.443418  5773 net.cpp:129] Top shape: 1 392 34 137 (1825936)
I0227 14:24:40.443421  5773 net.cpp:137] Memory required for data: 714291832
I0227 14:24:40.443424  5773 layer_factory.hpp:77] Creating layer BatchNorm1
I0227 14:24:40.443433  5773 net.cpp:84] Creating Layer BatchNorm1
I0227 14:24:40.443436  5773 net.cpp:406] BatchNorm1 <- concat0_29
I0227 14:24:40.443441  5773 net.cpp:380] BatchNorm1 -> BatchNorm1
I0227 14:24:40.443827  5773 net.cpp:122] Setting up BatchNorm1
I0227 14:24:40.443835  5773 net.cpp:129] Top shape: 1 392 34 137 (1825936)
I0227 14:24:40.443837  5773 net.cpp:137] Memory required for data: 721595576
I0227 14:24:40.443845  5773 layer_factory.hpp:77] Creating layer Scale1
I0227 14:24:40.443853  5773 net.cpp:84] Creating Layer Scale1
I0227 14:24:40.443856  5773 net.cpp:406] Scale1 <- BatchNorm1
I0227 14:24:40.443863  5773 net.cpp:367] Scale1 -> BatchNorm1 (in-place)
I0227 14:24:40.443931  5773 layer_factory.hpp:77] Creating layer Scale1
I0227 14:24:40.445850  5773 net.cpp:122] Setting up Scale1
I0227 14:24:40.445863  5773 net.cpp:129] Top shape: 1 392 34 137 (1825936)
I0227 14:24:40.445865  5773 net.cpp:137] Memory required for data: 728899320
I0227 14:24:40.445873  5773 layer_factory.hpp:77] Creating layer ReLU1
I0227 14:24:40.445879  5773 net.cpp:84] Creating Layer ReLU1
I0227 14:24:40.445883  5773 net.cpp:406] ReLU1 <- BatchNorm1
I0227 14:24:40.445890  5773 net.cpp:367] ReLU1 -> BatchNorm1 (in-place)
I0227 14:24:40.446104  5773 net.cpp:122] Setting up ReLU1
I0227 14:24:40.446112  5773 net.cpp:129] Top shape: 1 392 34 137 (1825936)
I0227 14:24:40.446116  5773 net.cpp:137] Memory required for data: 736203064
I0227 14:24:40.446120  5773 layer_factory.hpp:77] Creating layer conv0_blk
I0227 14:24:40.446132  5773 net.cpp:84] Creating Layer conv0_blk
I0227 14:24:40.446136  5773 net.cpp:406] conv0_blk <- BatchNorm1
I0227 14:24:40.446144  5773 net.cpp:380] conv0_blk -> conv0_blk
I0227 14:24:40.452580  5773 net.cpp:122] Setting up conv0_blk
I0227 14:24:40.452594  5773 net.cpp:129] Top shape: 1 196 34 137 (912968)
I0227 14:24:40.452597  5773 net.cpp:137] Memory required for data: 739854936
I0227 14:24:40.452603  5773 layer_factory.hpp:77] Creating layer pool0
I0227 14:24:40.452613  5773 net.cpp:84] Creating Layer pool0
I0227 14:24:40.452617  5773 net.cpp:406] pool0 <- conv0_blk
I0227 14:24:40.452623  5773 net.cpp:380] pool0 -> pool0
I0227 14:24:40.452908  5773 net.cpp:122] Setting up pool0
I0227 14:24:40.452917  5773 net.cpp:129] Top shape: 1 196 17 69 (229908)
I0227 14:24:40.452921  5773 net.cpp:137] Memory required for data: 740774568
I0227 14:24:40.452925  5773 layer_factory.hpp:77] Creating layer pool0_pool0_0_split
I0227 14:24:40.452931  5773 net.cpp:84] Creating Layer pool0_pool0_0_split
I0227 14:24:40.452934  5773 net.cpp:406] pool0_pool0_0_split <- pool0
I0227 14:24:40.452942  5773 net.cpp:380] pool0_pool0_0_split -> pool0_pool0_0_split_0
I0227 14:24:40.452949  5773 net.cpp:380] pool0_pool0_0_split -> pool0_pool0_0_split_1
I0227 14:24:40.453029  5773 net.cpp:122] Setting up pool0_pool0_0_split
I0227 14:24:40.453037  5773 net.cpp:129] Top shape: 1 196 17 69 (229908)
I0227 14:24:40.453039  5773 net.cpp:129] Top shape: 1 196 17 69 (229908)
I0227 14:24:40.453042  5773 net.cpp:137] Memory required for data: 742613832
I0227 14:24:40.453045  5773 layer_factory.hpp:77] Creating layer conv1_0/bn
I0227 14:24:40.453053  5773 net.cpp:84] Creating Layer conv1_0/bn
I0227 14:24:40.453058  5773 net.cpp:406] conv1_0/bn <- pool0_pool0_0_split_0
I0227 14:24:40.453061  5773 net.cpp:380] conv1_0/bn -> conv1_0/bn
I0227 14:24:40.453434  5773 net.cpp:122] Setting up conv1_0/bn
I0227 14:24:40.453444  5773 net.cpp:129] Top shape: 1 196 17 69 (229908)
I0227 14:24:40.453446  5773 net.cpp:137] Memory required for data: 743533464
I0227 14:24:40.453457  5773 layer_factory.hpp:77] Creating layer conv1_0/scale
I0227 14:24:40.453464  5773 net.cpp:84] Creating Layer conv1_0/scale
I0227 14:24:40.453469  5773 net.cpp:406] conv1_0/scale <- conv1_0/bn
I0227 14:24:40.453475  5773 net.cpp:367] conv1_0/scale -> conv1_0/bn (in-place)
I0227 14:24:40.453542  5773 layer_factory.hpp:77] Creating layer conv1_0/scale
I0227 14:24:40.453752  5773 net.cpp:122] Setting up conv1_0/scale
I0227 14:24:40.453759  5773 net.cpp:129] Top shape: 1 196 17 69 (229908)
I0227 14:24:40.453763  5773 net.cpp:137] Memory required for data: 744453096
I0227 14:24:40.453768  5773 layer_factory.hpp:77] Creating layer relu1_0
I0227 14:24:40.453774  5773 net.cpp:84] Creating Layer relu1_0
I0227 14:24:40.453778  5773 net.cpp:406] relu1_0 <- conv1_0/bn
I0227 14:24:40.453784  5773 net.cpp:367] relu1_0 -> conv1_0/bn (in-place)
I0227 14:24:40.454912  5773 net.cpp:122] Setting up relu1_0
I0227 14:24:40.454926  5773 net.cpp:129] Top shape: 1 196 17 69 (229908)
I0227 14:24:40.454929  5773 net.cpp:137] Memory required for data: 745372728
I0227 14:24:40.454933  5773 layer_factory.hpp:77] Creating layer conv1_0
I0227 14:24:40.454947  5773 net.cpp:84] Creating Layer conv1_0
I0227 14:24:40.454952  5773 net.cpp:406] conv1_0 <- conv1_0/bn
I0227 14:24:40.454958  5773 net.cpp:380] conv1_0 -> conv1_0
I0227 14:24:40.457442  5773 net.cpp:122] Setting up conv1_0
I0227 14:24:40.457455  5773 net.cpp:129] Top shape: 1 12 17 69 (14076)
I0227 14:24:40.457459  5773 net.cpp:137] Memory required for data: 745429032
I0227 14:24:40.457465  5773 layer_factory.hpp:77] Creating layer concat1_0
I0227 14:24:40.457473  5773 net.cpp:84] Creating Layer concat1_0
I0227 14:24:40.457476  5773 net.cpp:406] concat1_0 <- pool0_pool0_0_split_1
I0227 14:24:40.457481  5773 net.cpp:406] concat1_0 <- conv1_0
I0227 14:24:40.457489  5773 net.cpp:380] concat1_0 -> concat1_0
I0227 14:24:40.457535  5773 net.cpp:122] Setting up concat1_0
I0227 14:24:40.457541  5773 net.cpp:129] Top shape: 1 208 17 69 (243984)
I0227 14:24:40.457543  5773 net.cpp:137] Memory required for data: 746404968
I0227 14:24:40.457547  5773 layer_factory.hpp:77] Creating layer concat1_0_concat1_0_0_split
I0227 14:24:40.457552  5773 net.cpp:84] Creating Layer concat1_0_concat1_0_0_split
I0227 14:24:40.457556  5773 net.cpp:406] concat1_0_concat1_0_0_split <- concat1_0
I0227 14:24:40.457562  5773 net.cpp:380] concat1_0_concat1_0_0_split -> concat1_0_concat1_0_0_split_0
I0227 14:24:40.457568  5773 net.cpp:380] concat1_0_concat1_0_0_split -> concat1_0_concat1_0_0_split_1
I0227 14:24:40.457633  5773 net.cpp:122] Setting up concat1_0_concat1_0_0_split
I0227 14:24:40.457638  5773 net.cpp:129] Top shape: 1 208 17 69 (243984)
I0227 14:24:40.457643  5773 net.cpp:129] Top shape: 1 208 17 69 (243984)
I0227 14:24:40.457645  5773 net.cpp:137] Memory required for data: 748356840
I0227 14:24:40.457648  5773 layer_factory.hpp:77] Creating layer conv1_1/bn
I0227 14:24:40.457654  5773 net.cpp:84] Creating Layer conv1_1/bn
I0227 14:24:40.457657  5773 net.cpp:406] conv1_1/bn <- concat1_0_concat1_0_0_split_0
I0227 14:24:40.457664  5773 net.cpp:380] conv1_1/bn -> conv1_1/bn
I0227 14:24:40.458035  5773 net.cpp:122] Setting up conv1_1/bn
I0227 14:24:40.458042  5773 net.cpp:129] Top shape: 1 208 17 69 (243984)
I0227 14:24:40.458045  5773 net.cpp:137] Memory required for data: 749332776
I0227 14:24:40.458052  5773 layer_factory.hpp:77] Creating layer conv1_1/scale
I0227 14:24:40.458061  5773 net.cpp:84] Creating Layer conv1_1/scale
I0227 14:24:40.458065  5773 net.cpp:406] conv1_1/scale <- conv1_1/bn
I0227 14:24:40.458070  5773 net.cpp:367] conv1_1/scale -> conv1_1/bn (in-place)
I0227 14:24:40.458133  5773 layer_factory.hpp:77] Creating layer conv1_1/scale
I0227 14:24:40.458344  5773 net.cpp:122] Setting up conv1_1/scale
I0227 14:24:40.458353  5773 net.cpp:129] Top shape: 1 208 17 69 (243984)
I0227 14:24:40.458356  5773 net.cpp:137] Memory required for data: 750308712
I0227 14:24:40.458361  5773 layer_factory.hpp:77] Creating layer relu1_1
I0227 14:24:40.458370  5773 net.cpp:84] Creating Layer relu1_1
I0227 14:24:40.458374  5773 net.cpp:406] relu1_1 <- conv1_1/bn
I0227 14:24:40.458379  5773 net.cpp:367] relu1_1 -> conv1_1/bn (in-place)
I0227 14:24:40.458585  5773 net.cpp:122] Setting up relu1_1
I0227 14:24:40.458592  5773 net.cpp:129] Top shape: 1 208 17 69 (243984)
I0227 14:24:40.458595  5773 net.cpp:137] Memory required for data: 751284648
I0227 14:24:40.458600  5773 layer_factory.hpp:77] Creating layer conv1_1
I0227 14:24:40.458611  5773 net.cpp:84] Creating Layer conv1_1
I0227 14:24:40.458614  5773 net.cpp:406] conv1_1 <- conv1_1/bn
I0227 14:24:40.458621  5773 net.cpp:380] conv1_1 -> conv1_1
I0227 14:24:40.461155  5773 net.cpp:122] Setting up conv1_1
I0227 14:24:40.461169  5773 net.cpp:129] Top shape: 1 12 17 69 (14076)
I0227 14:24:40.461172  5773 net.cpp:137] Memory required for data: 751340952
I0227 14:24:40.461179  5773 layer_factory.hpp:77] Creating layer concat1_1
I0227 14:24:40.461185  5773 net.cpp:84] Creating Layer concat1_1
I0227 14:24:40.461190  5773 net.cpp:406] concat1_1 <- concat1_0_concat1_0_0_split_1
I0227 14:24:40.461195  5773 net.cpp:406] concat1_1 <- conv1_1
I0227 14:24:40.461202  5773 net.cpp:380] concat1_1 -> concat1_1
I0227 14:24:40.461247  5773 net.cpp:122] Setting up concat1_1
I0227 14:24:40.461254  5773 net.cpp:129] Top shape: 1 220 17 69 (258060)
I0227 14:24:40.461257  5773 net.cpp:137] Memory required for data: 752373192
I0227 14:24:40.461261  5773 layer_factory.hpp:77] Creating layer concat1_1_concat1_1_0_split
I0227 14:24:40.461266  5773 net.cpp:84] Creating Layer concat1_1_concat1_1_0_split
I0227 14:24:40.461268  5773 net.cpp:406] concat1_1_concat1_1_0_split <- concat1_1
I0227 14:24:40.461275  5773 net.cpp:380] concat1_1_concat1_1_0_split -> concat1_1_concat1_1_0_split_0
I0227 14:24:40.461282  5773 net.cpp:380] concat1_1_concat1_1_0_split -> concat1_1_concat1_1_0_split_1
I0227 14:24:40.461344  5773 net.cpp:122] Setting up concat1_1_concat1_1_0_split
I0227 14:24:40.461350  5773 net.cpp:129] Top shape: 1 220 17 69 (258060)
I0227 14:24:40.461354  5773 net.cpp:129] Top shape: 1 220 17 69 (258060)
I0227 14:24:40.461356  5773 net.cpp:137] Memory required for data: 754437672
I0227 14:24:40.461359  5773 layer_factory.hpp:77] Creating layer conv1_2/bn
I0227 14:24:40.461367  5773 net.cpp:84] Creating Layer conv1_2/bn
I0227 14:24:40.461370  5773 net.cpp:406] conv1_2/bn <- concat1_1_concat1_1_0_split_0
I0227 14:24:40.461375  5773 net.cpp:380] conv1_2/bn -> conv1_2/bn
I0227 14:24:40.461745  5773 net.cpp:122] Setting up conv1_2/bn
I0227 14:24:40.461752  5773 net.cpp:129] Top shape: 1 220 17 69 (258060)
I0227 14:24:40.461755  5773 net.cpp:137] Memory required for data: 755469912
I0227 14:24:40.461762  5773 layer_factory.hpp:77] Creating layer conv1_2/scale
I0227 14:24:40.461771  5773 net.cpp:84] Creating Layer conv1_2/scale
I0227 14:24:40.461776  5773 net.cpp:406] conv1_2/scale <- conv1_2/bn
I0227 14:24:40.461779  5773 net.cpp:367] conv1_2/scale -> conv1_2/bn (in-place)
I0227 14:24:40.461843  5773 layer_factory.hpp:77] Creating layer conv1_2/scale
I0227 14:24:40.462052  5773 net.cpp:122] Setting up conv1_2/scale
I0227 14:24:40.462059  5773 net.cpp:129] Top shape: 1 220 17 69 (258060)
I0227 14:24:40.462062  5773 net.cpp:137] Memory required for data: 756502152
I0227 14:24:40.462067  5773 layer_factory.hpp:77] Creating layer relu1_2
I0227 14:24:40.462074  5773 net.cpp:84] Creating Layer relu1_2
I0227 14:24:40.462077  5773 net.cpp:406] relu1_2 <- conv1_2/bn
I0227 14:24:40.462081  5773 net.cpp:367] relu1_2 -> conv1_2/bn (in-place)
I0227 14:24:40.462286  5773 net.cpp:122] Setting up relu1_2
I0227 14:24:40.462296  5773 net.cpp:129] Top shape: 1 220 17 69 (258060)
I0227 14:24:40.462298  5773 net.cpp:137] Memory required for data: 757534392
I0227 14:24:40.462301  5773 layer_factory.hpp:77] Creating layer conv1_2
I0227 14:24:40.462312  5773 net.cpp:84] Creating Layer conv1_2
I0227 14:24:40.462316  5773 net.cpp:406] conv1_2 <- conv1_2/bn
I0227 14:24:40.462321  5773 net.cpp:380] conv1_2 -> conv1_2
I0227 14:24:40.464807  5773 net.cpp:122] Setting up conv1_2
I0227 14:24:40.464823  5773 net.cpp:129] Top shape: 1 12 17 69 (14076)
I0227 14:24:40.464828  5773 net.cpp:137] Memory required for data: 757590696
I0227 14:24:40.464833  5773 layer_factory.hpp:77] Creating layer concat1_2
I0227 14:24:40.464840  5773 net.cpp:84] Creating Layer concat1_2
I0227 14:24:40.464845  5773 net.cpp:406] concat1_2 <- concat1_1_concat1_1_0_split_1
I0227 14:24:40.464851  5773 net.cpp:406] concat1_2 <- conv1_2
I0227 14:24:40.464859  5773 net.cpp:380] concat1_2 -> concat1_2
I0227 14:24:40.464906  5773 net.cpp:122] Setting up concat1_2
I0227 14:24:40.464913  5773 net.cpp:129] Top shape: 1 232 17 69 (272136)
I0227 14:24:40.464916  5773 net.cpp:137] Memory required for data: 758679240
I0227 14:24:40.464920  5773 layer_factory.hpp:77] Creating layer concat1_2_concat1_2_0_split
I0227 14:24:40.464926  5773 net.cpp:84] Creating Layer concat1_2_concat1_2_0_split
I0227 14:24:40.464929  5773 net.cpp:406] concat1_2_concat1_2_0_split <- concat1_2
I0227 14:24:40.464941  5773 net.cpp:380] concat1_2_concat1_2_0_split -> concat1_2_concat1_2_0_split_0
I0227 14:24:40.464948  5773 net.cpp:380] concat1_2_concat1_2_0_split -> concat1_2_concat1_2_0_split_1
I0227 14:24:40.465026  5773 net.cpp:122] Setting up concat1_2_concat1_2_0_split
I0227 14:24:40.465032  5773 net.cpp:129] Top shape: 1 232 17 69 (272136)
I0227 14:24:40.465036  5773 net.cpp:129] Top shape: 1 232 17 69 (272136)
I0227 14:24:40.465039  5773 net.cpp:137] Memory required for data: 760856328
I0227 14:24:40.465042  5773 layer_factory.hpp:77] Creating layer conv1_3/bn
I0227 14:24:40.465049  5773 net.cpp:84] Creating Layer conv1_3/bn
I0227 14:24:40.465054  5773 net.cpp:406] conv1_3/bn <- concat1_2_concat1_2_0_split_0
I0227 14:24:40.465059  5773 net.cpp:380] conv1_3/bn -> conv1_3/bn
…
I0227 14:24:43.478950  5773 layer_factory.hpp:77] Creating layer conv1_46
I0227 14:24:43.478961  5773 net.cpp:84] Creating Layer conv1_46
I0227 14:24:43.478966  5773 net.cpp:406] conv1_46 <- conv1_46/bn
I0227 14:24:43.478972  5773 net.cpp:380] conv1_46 -> conv1_46
I0227 14:24:43.484146  5773 net.cpp:122] Setting up conv1_46
I0227 14:24:43.484160  5773 net.cpp:129] Top shape: 1 12 26 63 (19656)
I0227 14:24:43.484164  5773 net.cpp:137] Memory required for data: 1908279864
I0227 14:24:43.484170  5773 layer_factory.hpp:77] Creating layer concat1_46
I0227 14:24:43.484177  5773 net.cpp:84] Creating Layer concat1_46
I0227 14:24:43.484181  5773 net.cpp:406] concat1_46 <- concat1_45_concat1_45_0_split_1
I0227 14:24:43.484189  5773 net.cpp:406] concat1_46 <- conv1_46
I0227 14:24:43.484194  5773 net.cpp:380] concat1_46 -> concat1_46
I0227 14:24:43.484251  5773 net.cpp:122] Setting up concat1_46
I0227 14:24:43.484257  5773 net.cpp:129] Top shape: 1 760 26 63 (1244880)
I0227 14:24:43.484261  5773 net.cpp:137] Memory required for data: 1913259384
I0227 14:24:43.484263  5773 layer_factory.hpp:77] Creating layer concat1_46_concat1_46_0_split
I0227 14:24:43.484271  5773 net.cpp:84] Creating Layer concat1_46_concat1_46_0_split
I0227 14:24:43.484274  5773 net.cpp:406] concat1_46_concat1_46_0_split <- concat1_46
I0227 14:24:43.484278  5773 net.cpp:380] concat1_46_concat1_46_0_split -> concat1_46_concat1_46_0_split_0
I0227 14:24:43.484284  5773 net.cpp:380] concat1_46_concat1_46_0_split -> concat1_46_concat1_46_0_split_1
I0227 14:24:43.484359  5773 net.cpp:122] Setting up concat1_46_concat1_46_0_split
I0227 14:24:43.484364  5773 net.cpp:129] Top shape: 1 760 26 63 (1244880)
I0227 14:24:43.484369  5773 net.cpp:129] Top shape: 1 760 26 63 (1244880)
I0227 14:24:43.484371  5773 net.cpp:137] Memory required for data: 1923218424
I0227 14:24:43.484375  5773 layer_factory.hpp:77] Creating layer conv1_47/bn
I0227 14:24:43.484382  5773 net.cpp:84] Creating Layer conv1_47/bn
I0227 14:24:43.484385  5773 net.cpp:406] conv1_47/bn <- concat1_46_concat1_46_0_split_0
I0227 14:24:43.484395  5773 net.cpp:380] conv1_47/bn -> conv1_47/bn
I0227 14:24:43.484951  5773 net.cpp:122] Setting up conv1_47/bn
I0227 14:24:43.484959  5773 net.cpp:129] Top shape: 1 760 26 63 (1244880)
I0227 14:24:43.484977  5773 net.cpp:137] Memory required for data: 1928197944
I0227 14:24:43.484985  5773 layer_factory.hpp:77] Creating layer conv1_47/scale
I0227 14:24:43.484993  5773 net.cpp:84] Creating Layer conv1_47/scale
I0227 14:24:43.484998  5773 net.cpp:406] conv1_47/scale <- conv1_47/bn
I0227 14:24:43.485002  5773 net.cpp:367] conv1_47/scale -> conv1_47/bn (in-place)
I0227 14:24:43.485122  5773 layer_factory.hpp:77] Creating layer conv1_47/scale
I0227 14:24:43.485455  5773 net.cpp:122] Setting up conv1_47/scale
I0227 14:24:43.485463  5773 net.cpp:129] Top shape: 1 760 26 63 (1244880)
I0227 14:24:43.485466  5773 net.cpp:137] Memory required for data: 1933177464
I0227 14:24:43.485472  5773 layer_factory.hpp:77] Creating layer relu1_47
I0227 14:24:43.485478  5773 net.cpp:84] Creating Layer relu1_47
I0227 14:24:43.485482  5773 net.cpp:406] relu1_47 <- conv1_47/bn
I0227 14:24:43.485489  5773 net.cpp:367] relu1_47 -> conv1_47/bn (in-place)
I0227 14:24:43.485769  5773 net.cpp:122] Setting up relu1_47
I0227 14:24:43.485777  5773 net.cpp:129] Top shape: 1 760 26 63 (1244880)
I0227 14:24:43.485780  5773 net.cpp:137] Memory required for data: 1938156984
I0227 14:24:43.485785  5773 layer_factory.hpp:77] Creating layer conv1_47
I0227 14:24:43.485795  5773 net.cpp:84] Creating Layer conv1_47
I0227 14:24:43.485798  5773 net.cpp:406] conv1_47 <- conv1_47/bn
I0227 14:24:43.485805  5773 net.cpp:380] conv1_47 -> conv1_47
I0227 14:24:43.491072  5773 net.cpp:122] Setting up conv1_47
I0227 14:24:43.491087  5773 net.cpp:129] Top shape: 1 12 26 63 (19656)
I0227 14:24:43.491091  5773 net.cpp:137] Memory required for data: 1938235608
I0227 14:24:43.491097  5773 layer_factory.hpp:77] Creating layer concat1_47
I0227 14:24:43.491104  5773 net.cpp:84] Creating Layer concat1_47
I0227 14:24:43.491109  5773 net.cpp:406] concat1_47 <- concat1_46_concat1_46_0_split_1
I0227 14:24:43.491114  5773 net.cpp:406] concat1_47 <- conv1_47
I0227 14:24:43.491119  5773 net.cpp:380] concat1_47 -> concat1_47
I0227 14:24:43.491178  5773 net.cpp:122] Setting up concat1_47
I0227 14:24:43.491184  5773 net.cpp:129] Top shape: 1 772 26 63 (1264536)
I0227 14:24:43.491188  5773 net.cpp:137] Memory required for data: 1943293752
I0227 14:24:43.491191  5773 layer_factory.hpp:77] Creating layer concat1_47_concat1_47_0_split
I0227 14:24:43.491196  5773 net.cpp:84] Creating Layer concat1_47_concat1_47_0_split
I0227 14:24:43.491200  5773 net.cpp:406] concat1_47_concat1_47_0_split <- concat1_47
I0227 14:24:43.491205  5773 net.cpp:380] concat1_47_concat1_47_0_split -> concat1_47_concat1_47_0_split_0
I0227 14:24:43.491212  5773 net.cpp:380] concat1_47_concat1_47_0_split -> concat1_47_concat1_47_0_split_1
I0227 14:24:43.491286  5773 net.cpp:122] Setting up concat1_47_concat1_47_0_split
I0227 14:24:43.491294  5773 net.cpp:129] Top shape: 1 772 26 63 (1264536)
I0227 14:24:43.491298  5773 net.cpp:129] Top shape: 1 772 26 63 (1264536)
I0227 14:24:43.491302  5773 net.cpp:137] Memory required for data: 1953410040
I0227 14:24:43.491304  5773 layer_factory.hpp:77] Creating layer conv1_48/bn
I0227 14:24:43.491310  5773 net.cpp:84] Creating Layer conv1_48/bn
I0227 14:24:43.491313  5773 net.cpp:406] conv1_48/bn <- concat1_47_concat1_47_0_split_0
I0227 14:24:43.491320  5773 net.cpp:380] conv1_48/bn -> conv1_48/bn
I0227 14:24:43.491829  5773 net.cpp:122] Setting up conv1_48/bn
I0227 14:24:43.491837  5773 net.cpp:129] Top shape: 1 772 26 63 (1264536)
I0227 14:24:43.491840  5773 net.cpp:137] Memory required for data: 1958468184
I0227 14:24:43.491847  5773 layer_factory.hpp:77] Creating layer conv1_48/scale
I0227 14:24:43.491855  5773 net.cpp:84] Creating Layer conv1_48/scale
I0227 14:24:43.491860  5773 net.cpp:406] conv1_48/scale <- conv1_48/bn
I0227 14:24:43.491866  5773 net.cpp:367] conv1_48/scale -> conv1_48/bn (in-place)
I0227 14:24:43.491968  5773 layer_factory.hpp:77] Creating layer conv1_48/scale
I0227 14:24:43.492280  5773 net.cpp:122] Setting up conv1_48/scale
I0227 14:24:43.492287  5773 net.cpp:129] Top shape: 1 772 26 63 (1264536)
I0227 14:24:43.492290  5773 net.cpp:137] Memory required for data: 1963526328
I0227 14:24:43.492296  5773 layer_factory.hpp:77] Creating layer relu1_48
I0227 14:24:43.492302  5773 net.cpp:84] Creating Layer relu1_48
I0227 14:24:43.492306  5773 net.cpp:406] relu1_48 <- conv1_48/bn
I0227 14:24:43.492311  5773 net.cpp:367] relu1_48 -> conv1_48/bn (in-place)
I0227 14:24:43.493593  5773 net.cpp:122] Setting up relu1_48
I0227 14:24:43.493607  5773 net.cpp:129] Top shape: 1 772 26 63 (1264536)
I0227 14:24:43.493611  5773 net.cpp:137] Memory required for data: 1968584472
I0227 14:24:43.493615  5773 layer_factory.hpp:77] Creating layer conv1_48
I0227 14:24:43.493626  5773 net.cpp:84] Creating Layer conv1_48
I0227 14:24:43.493631  5773 net.cpp:406] conv1_48 <- conv1_48/bn
I0227 14:24:43.493638  5773 net.cpp:380] conv1_48 -> conv1_48
I0227 14:24:43.498931  5773 net.cpp:122] Setting up conv1_48
I0227 14:24:43.498944  5773 net.cpp:129] Top shape: 1 12 26 63 (19656)
I0227 14:24:43.498948  5773 net.cpp:137] Memory required for data: 1968663096
I0227 14:24:43.498955  5773 layer_factory.hpp:77] Creating layer concat1_48
I0227 14:24:43.498961  5773 net.cpp:84] Creating Layer concat1_48
I0227 14:24:43.498966  5773 net.cpp:406] concat1_48 <- concat1_47_concat1_47_0_split_1
I0227 14:24:43.498971  5773 net.cpp:406] concat1_48 <- conv1_48
I0227 14:24:43.498978  5773 net.cpp:380] concat1_48 -> concat1_48
I0227 14:24:43.499035  5773 net.cpp:122] Setting up concat1_48
I0227 14:24:43.499042  5773 net.cpp:129] Top shape: 1 784 26 63 (1284192)
I0227 14:24:43.499045  5773 net.cpp:137] Memory required for data: 1973799864
I0227 14:24:43.499048  5773 layer_factory.hpp:77] Creating layer concat1_48_concat1_48_0_split
I0227 14:24:43.499053  5773 net.cpp:84] Creating Layer concat1_48_concat1_48_0_split
I0227 14:24:43.499058  5773 net.cpp:406] concat1_48_concat1_48_0_split <- concat1_48
I0227 14:24:43.499064  5773 net.cpp:380] concat1_48_concat1_48_0_split -> concat1_48_concat1_48_0_split_0
I0227 14:24:43.499069  5773 net.cpp:380] concat1_48_concat1_48_0_split -> concat1_48_concat1_48_0_split_1
I0227 14:24:43.499145  5773 net.cpp:122] Setting up concat1_48_concat1_48_0_split
I0227 14:24:43.499151  5773 net.cpp:129] Top shape: 1 784 26 63 (1284192)
I0227 14:24:43.499155  5773 net.cpp:129] Top shape: 1 784 26 63 (1284192)
I0227 14:24:43.499157  5773 net.cpp:137] Memory required for data: 1984073400
I0227 14:24:43.499161  5773 layer_factory.hpp:77] Creating layer conv1_49/bn
I0227 14:24:43.499166  5773 net.cpp:84] Creating Layer conv1_49/bn
I0227 14:24:43.499171  5773 net.cpp:406] conv1_49/bn <- concat1_48_concat1_48_0_split_0
I0227 14:24:43.499179  5773 net.cpp:380] conv1_49/bn -> conv1_49/bn
I0227 14:24:43.499699  5773 net.cpp:122] Setting up conv1_49/bn
I0227 14:24:43.499708  5773 net.cpp:129] Top shape: 1 784 26 63 (1284192)
I0227 14:24:43.499711  5773 net.cpp:137] Memory required for data: 1989210168
I0227 14:24:43.499718  5773 layer_factory.hpp:77] Creating layer conv1_49/scale
I0227 14:24:43.499727  5773 net.cpp:84] Creating Layer conv1_49/scale
I0227 14:24:43.499732  5773 net.cpp:406] conv1_49/scale <- conv1_49/bn
I0227 14:24:43.499735  5773 net.cpp:367] conv1_49/scale -> conv1_49/bn (in-place)
I0227 14:24:43.499836  5773 layer_factory.hpp:77] Creating layer conv1_49/scale
I0227 14:24:43.500147  5773 net.cpp:122] Setting up conv1_49/scale
I0227 14:24:43.500155  5773 net.cpp:129] Top shape: 1 784 26 63 (1284192)
I0227 14:24:43.500159  5773 net.cpp:137] Memory required for data: 1994346936
I0227 14:24:43.500164  5773 layer_factory.hpp:77] Creating layer relu1_49
I0227 14:24:43.500170  5773 net.cpp:84] Creating Layer relu1_49
I0227 14:24:43.500174  5773 net.cpp:406] relu1_49 <- conv1_49/bn
I0227 14:24:43.500180  5773 net.cpp:367] relu1_49 -> conv1_49/bn (in-place)
I0227 14:24:43.500457  5773 net.cpp:122] Setting up relu1_49
I0227 14:24:43.500465  5773 net.cpp:129] Top shape: 1 784 26 63 (1284192)
I0227 14:24:43.500473  5773 net.cpp:137] Memory required for data: 1999483704
I0227 14:24:43.500476  5773 layer_factory.hpp:77] Creating layer conv1_49
I0227 14:24:43.500486  5773 net.cpp:84] Creating Layer conv1_49
I0227 14:24:43.500490  5773 net.cpp:406] conv1_49 <- conv1_49/bn
I0227 14:24:43.500495  5773 net.cpp:380] conv1_49 -> conv1_49
I0227 14:24:43.506827  5773 net.cpp:122] Setting up conv1_49
I0227 14:24:43.506840  5773 net.cpp:129] Top shape: 1 12 26 63 (19656)
I0227 14:24:43.506844  5773 net.cpp:137] Memory required for data: 1999562328
I0227 14:24:43.506850  5773 layer_factory.hpp:77] Creating layer concat1_49
I0227 14:24:43.506860  5773 net.cpp:84] Creating Layer concat1_49
I0227 14:24:43.506865  5773 net.cpp:406] concat1_49 <- concat1_48_concat1_48_0_split_1
I0227 14:24:43.506870  5773 net.cpp:406] concat1_49 <- conv1_49
I0227 14:24:43.506875  5773 net.cpp:380] concat1_49 -> concat1_49
I0227 14:24:43.506930  5773 net.cpp:122] Setting up concat1_49
I0227 14:24:43.506937  5773 net.cpp:129] Top shape: 1 796 26 63 (1303848)
I0227 14:24:43.506940  5773 net.cpp:137] Memory required for data: 2004777720
I0227 14:24:43.506943  5773 layer_factory.hpp:77] Creating layer concat1_49_concat1_49_0_split
I0227 14:24:43.506950  5773 net.cpp:84] Creating Layer concat1_49_concat1_49_0_split
I0227 14:24:43.506954  5773 net.cpp:406] concat1_49_concat1_49_0_split <- concat1_49
I0227 14:24:43.506959  5773 net.cpp:380] concat1_49_concat1_49_0_split -> concat1_49_concat1_49_0_split_0
I0227 14:24:43.506966  5773 net.cpp:380] concat1_49_concat1_49_0_split -> concat1_49_concat1_49_0_split_1
I0227 14:24:43.507040  5773 net.cpp:122] Setting up concat1_49_concat1_49_0_split
I0227 14:24:43.507045  5773 net.cpp:129] Top shape: 1 796 26 63 (1303848)
I0227 14:24:43.507050  5773 net.cpp:129] Top shape: 1 796 26 63 (1303848)
I0227 14:24:43.507052  5773 net.cpp:137] Memory required for data: 2015208504
I0227 14:24:43.507055  5773 layer_factory.hpp:77] Creating layer conv1_50/bn
I0227 14:24:43.507063  5773 net.cpp:84] Creating Layer conv1_50/bn
I0227 14:24:43.507067  5773 net.cpp:406] conv1_50/bn <- concat1_49_concat1_49_0_split_0
I0227 14:24:43.507073  5773 net.cpp:380] conv1_50/bn -> conv1_50/bn
I0227 14:24:43.507588  5773 net.cpp:122] Setting up conv1_50/bn
I0227 14:24:43.507598  5773 net.cpp:129] Top shape: 1 796 26 63 (1303848)
I0227 14:24:43.507601  5773 net.cpp:137] Memory required for data: 2020423896
I0227 14:24:43.507608  5773 layer_factory.hpp:77] Creating layer conv1_50/scale
I0227 14:24:43.507616  5773 net.cpp:84] Creating Layer conv1_50/scale
I0227 14:24:43.507619  5773 net.cpp:406] conv1_50/scale <- conv1_50/bn
I0227 14:24:43.507627  5773 net.cpp:367] conv1_50/scale -> conv1_50/bn (in-place)
I0227 14:24:43.507730  5773 layer_factory.hpp:77] Creating layer conv1_50/scale
I0227 14:24:43.508038  5773 net.cpp:122] Setting up conv1_50/scale
I0227 14:24:43.508047  5773 net.cpp:129] Top shape: 1 796 26 63 (1303848)
I0227 14:24:43.508050  5773 net.cpp:137] Memory required for data: 2025639288
I0227 14:24:43.508056  5773 layer_factory.hpp:77] Creating layer relu1_50
I0227 14:24:43.508061  5773 net.cpp:84] Creating Layer relu1_50
I0227 14:24:43.508065  5773 net.cpp:406] relu1_50 <- conv1_50/bn
I0227 14:24:43.508071  5773 net.cpp:367] relu1_50 -> conv1_50/bn (in-place)
I0227 14:24:43.508358  5773 net.cpp:122] Setting up relu1_50
I0227 14:24:43.508368  5773 net.cpp:129] Top shape: 1 796 26 63 (1303848)
I0227 14:24:43.508371  5773 net.cpp:137] Memory required for data: 2030854680
I0227 14:24:43.508374  5773 layer_factory.hpp:77] Creating layer conv1_50
I0227 14:24:43.508385  5773 net.cpp:84] Creating Layer conv1_50
I0227 14:24:43.508389  5773 net.cpp:406] conv1_50 <- conv1_50/bn
I0227 14:24:43.508396  5773 net.cpp:380] conv1_50 -> conv1_50
I0227 14:24:43.513767  5773 net.cpp:122] Setting up conv1_50
I0227 14:24:43.513782  5773 net.cpp:129] Top shape: 1 12 26 63 (19656)
I0227 14:24:43.513787  5773 net.cpp:137] Memory required for data: 2030933304
I0227 14:24:43.513792  5773 layer_factory.hpp:77] Creating layer concat1_50
I0227 14:24:43.513799  5773 net.cpp:84] Creating Layer concat1_50
I0227 14:24:43.513808  5773 net.cpp:406] concat1_50 <- concat1_49_concat1_49_0_split_1
I0227 14:24:43.513813  5773 net.cpp:406] concat1_50 <- conv1_50
I0227 14:24:43.513818  5773 net.cpp:380] concat1_50 -> concat1_50
I0227 14:24:43.513877  5773 net.cpp:122] Setting up concat1_50
I0227 14:24:43.513885  5773 net.cpp:129] Top shape: 1 808 26 63 (1323504)
I0227 14:24:43.513887  5773 net.cpp:137] Memory required for data: 2036227320
I0227 14:24:43.513890  5773 layer_factory.hpp:77] Creating layer concat1_50_concat1_50_0_split
I0227 14:24:43.513895  5773 net.cpp:84] Creating Layer concat1_50_concat1_50_0_split
I0227 14:24:43.513898  5773 net.cpp:406] concat1_50_concat1_50_0_split <- concat1_50
I0227 14:24:43.513906  5773 net.cpp:380] concat1_50_concat1_50_0_split -> concat1_50_concat1_50_0_split_0
I0227 14:24:43.513911  5773 net.cpp:380] concat1_50_concat1_50_0_split -> concat1_50_concat1_50_0_split_1
I0227 14:24:43.513986  5773 net.cpp:122] Setting up concat1_50_concat1_50_0_split
I0227 14:24:43.513993  5773 net.cpp:129] Top shape: 1 808 26 63 (1323504)
I0227 14:24:43.513998  5773 net.cpp:129] Top shape: 1 808 26 63 (1323504)
I0227 14:24:43.514000  5773 net.cpp:137] Memory required for data: 2046815352
I0227 14:24:43.514003  5773 layer_factory.hpp:77] Creating layer conv1_51/bn
I0227 14:24:43.514008  5773 net.cpp:84] Creating Layer conv1_51/bn
I0227 14:24:43.514012  5773 net.cpp:406] conv1_51/bn <- concat1_50_concat1_50_0_split_0
I0227 14:24:43.514019  5773 net.cpp:380] conv1_51/bn -> conv1_51/bn
I0227 14:24:43.514534  5773 net.cpp:122] Setting up conv1_51/bn
I0227 14:24:43.514542  5773 net.cpp:129] Top shape: 1 808 26 63 (1323504)
I0227 14:24:43.514545  5773 net.cpp:137] Memory required for data: 2052109368
I0227 14:24:43.514554  5773 layer_factory.hpp:77] Creating layer conv1_51/scale
I0227 14:24:43.514562  5773 net.cpp:84] Creating Layer conv1_51/scale
I0227 14:24:43.514569  5773 net.cpp:406] conv1_51/scale <- conv1_51/bn
I0227 14:24:43.514572  5773 net.cpp:367] conv1_51/scale -> conv1_51/bn (in-place)
I0227 14:24:43.514674  5773 layer_factory.hpp:77] Creating layer conv1_51/scale
I0227 14:24:43.514989  5773 net.cpp:122] Setting up conv1_51/scale
I0227 14:24:43.514997  5773 net.cpp:129] Top shape: 1 808 26 63 (1323504)
I0227 14:24:43.515000  5773 net.cpp:137] Memory required for data: 2057403384
I0227 14:24:43.515007  5773 layer_factory.hpp:77] Creating layer relu1_51
I0227 14:24:43.515012  5773 net.cpp:84] Creating Layer relu1_51
I0227 14:24:43.515017  5773 net.cpp:406] relu1_51 <- conv1_51/bn
I0227 14:24:43.515020  5773 net.cpp:367] relu1_51 -> conv1_51/bn (in-place)
I0227 14:24:43.516285  5773 net.cpp:122] Setting up relu1_51
I0227 14:24:43.516299  5773 net.cpp:129] Top shape: 1 808 26 63 (1323504)
I0227 14:24:43.516302  5773 net.cpp:137] Memory required for data: 2062697400
I0227 14:24:43.516305  5773 layer_factory.hpp:77] Creating layer conv1_51
I0227 14:24:43.516317  5773 net.cpp:84] Creating Layer conv1_51
I0227 14:24:43.516321  5773 net.cpp:406] conv1_51 <- conv1_51/bn
I0227 14:24:43.516329  5773 net.cpp:380] conv1_51 -> conv1_51
I0227 14:24:43.523524  5773 net.cpp:122] Setting up conv1_51
I0227 14:24:43.523538  5773 net.cpp:129] Top shape: 1 12 26 63 (19656)
I0227 14:24:43.523542  5773 net.cpp:137] Memory required for data: 2062776024
I0227 14:24:43.523548  5773 layer_factory.hpp:77] Creating layer concat1_51
I0227 14:24:43.523555  5773 net.cpp:84] Creating Layer concat1_51
I0227 14:24:43.523561  5773 net.cpp:406] concat1_51 <- concat1_50_concat1_50_0_split_1
I0227 14:24:43.523566  5773 net.cpp:406] concat1_51 <- conv1_51
I0227 14:24:43.523571  5773 net.cpp:380] concat1_51 -> concat1_51
I0227 14:24:43.523629  5773 net.cpp:122] Setting up concat1_51
I0227 14:24:43.523636  5773 net.cpp:129] Top shape: 1 820 26 63 (1343160)
I0227 14:24:43.523639  5773 net.cpp:137] Memory required for data: 2068148664
I0227 14:24:43.523643  5773 layer_factory.hpp:77] Creating layer concat1_51_concat1_51_0_split
I0227 14:24:43.523648  5773 net.cpp:84] Creating Layer concat1_51_concat1_51_0_split
I0227 14:24:43.523655  5773 net.cpp:406] concat1_51_concat1_51_0_split <- concat1_51
I0227 14:24:43.523663  5773 net.cpp:380] concat1_51_concat1_51_0_split -> concat1_51_concat1_51_0_split_0
I0227 14:24:43.523669  5773 net.cpp:380] concat1_51_concat1_51_0_split -> concat1_51_concat1_51_0_split_1
I0227 14:24:43.523744  5773 net.cpp:122] Setting up concat1_51_concat1_51_0_split
I0227 14:24:43.523751  5773 net.cpp:129] Top shape: 1 820 26 63 (1343160)
I0227 14:24:43.523754  5773 net.cpp:129] Top shape: 1 820 26 63 (1343160)
I0227 14:24:43.523757  5773 net.cpp:137] Memory required for data: 2078893944
I0227 14:24:43.523761  5773 layer_factory.hpp:77] Creating layer conv1_52/bn
I0227 14:24:43.523766  5773 net.cpp:84] Creating Layer conv1_52/bn
I0227 14:24:43.523771  5773 net.cpp:406] conv1_52/bn <- concat1_51_concat1_51_0_split_0
I0227 14:24:43.523777  5773 net.cpp:380] conv1_52/bn -> conv1_52/bn
I0227 14:24:43.524304  5773 net.cpp:122] Setting up conv1_52/bn
I0227 14:24:43.524312  5773 net.cpp:129] Top shape: 1 820 26 63 (1343160)
I0227 14:24:43.524315  5773 net.cpp:137] Memory required for data: 2084266584
I0227 14:24:43.524322  5773 layer_factory.hpp:77] Creating layer conv1_52/scale
I0227 14:24:43.524332  5773 net.cpp:84] Creating Layer conv1_52/scale
I0227 14:24:43.524335  5773 net.cpp:406] conv1_52/scale <- conv1_52/bn
I0227 14:24:43.524340  5773 net.cpp:367] conv1_52/scale -> conv1_52/bn (in-place)
I0227 14:24:43.524442  5773 layer_factory.hpp:77] Creating layer conv1_52/scale
I0227 14:24:43.524791  5773 net.cpp:122] Setting up conv1_52/scale
I0227 14:24:43.524802  5773 net.cpp:129] Top shape: 1 820 26 63 (1343160)
I0227 14:24:43.524806  5773 net.cpp:137] Memory required for data: 2089639224
I0227 14:24:43.524812  5773 layer_factory.hpp:77] Creating layer relu1_52
I0227 14:24:43.524818  5773 net.cpp:84] Creating Layer relu1_52
I0227 14:24:43.524822  5773 net.cpp:406] relu1_52 <- conv1_52/bn
I0227 14:24:43.524827  5773 net.cpp:367] relu1_52 -> conv1_52/bn (in-place)
I0227 14:24:43.525133  5773 net.cpp:122] Setting up relu1_52
I0227 14:24:43.525142  5773 net.cpp:129] Top shape: 1 820 26 63 (1343160)
I0227 14:24:43.525146  5773 net.cpp:137] Memory required for data: 2095011864
I0227 14:24:43.525149  5773 layer_factory.hpp:77] Creating layer conv1_52
I0227 14:24:43.525159  5773 net.cpp:84] Creating Layer conv1_52
I0227 14:24:43.525163  5773 net.cpp:406] conv1_52 <- conv1_52/bn
I0227 14:24:43.525169  5773 net.cpp:380] conv1_52 -> conv1_52
I0227 14:24:43.530628  5773 net.cpp:122] Setting up conv1_52
I0227 14:24:43.530642  5773 net.cpp:129] Top shape: 1 12 26 63 (19656)
I0227 14:24:43.530645  5773 net.cpp:137] Memory required for data: 2095090488
I0227 14:24:43.530652  5773 layer_factory.hpp:77] Creating layer concat1_52
I0227 14:24:43.530658  5773 net.cpp:84] Creating Layer concat1_52
I0227 14:24:43.530663  5773 net.cpp:406] concat1_52 <- concat1_51_concat1_51_0_split_1
I0227 14:24:43.530670  5773 net.cpp:406] concat1_52 <- conv1_52
I0227 14:24:43.530675  5773 net.cpp:380] concat1_52 -> concat1_52
I0227 14:24:43.530733  5773 net.cpp:122] Setting up concat1_52
I0227 14:24:43.530740  5773 net.cpp:129] Top shape: 1 832 26 63 (1362816)
I0227 14:24:43.530743  5773 net.cpp:137] Memory required for data: 2100541752
I0227 14:24:43.530746  5773 layer_factory.hpp:77] Creating layer concat1_52_concat1_52_0_split
I0227 14:24:43.530753  5773 net.cpp:84] Creating Layer concat1_52_concat1_52_0_split
I0227 14:24:43.530757  5773 net.cpp:406] concat1_52_concat1_52_0_split <- concat1_52
I0227 14:24:43.530761  5773 net.cpp:380] concat1_52_concat1_52_0_split -> concat1_52_concat1_52_0_split_0
I0227 14:24:43.530767  5773 net.cpp:380] concat1_52_concat1_52_0_split -> concat1_52_concat1_52_0_split_1
I0227 14:24:43.530843  5773 net.cpp:122] Setting up concat1_52_concat1_52_0_split
I0227 14:24:43.530849  5773 net.cpp:129] Top shape: 1 832 26 63 (1362816)
I0227 14:24:43.530853  5773 net.cpp:129] Top shape: 1 832 26 63 (1362816)
I0227 14:24:43.530856  5773 net.cpp:137] Memory required for data: 2111444280
I0227 14:24:43.530859  5773 layer_factory.hpp:77] Creating layer conv1_53/bn
I0227 14:24:43.530869  5773 net.cpp:84] Creating Layer conv1_53/bn
I0227 14:24:43.530874  5773 net.cpp:406] conv1_53/bn <- concat1_52_concat1_52_0_split_0
I0227 14:24:43.530879  5773 net.cpp:380] conv1_53/bn -> conv1_53/bn
I0227 14:24:43.531407  5773 net.cpp:122] Setting up conv1_53/bn
I0227 14:24:43.531416  5773 net.cpp:129] Top shape: 1 832 26 63 (1362816)
I0227 14:24:43.531419  5773 net.cpp:137] Memory required for data: 2116895544
I0227 14:24:43.531450  5773 layer_factory.hpp:77] Creating layer conv1_53/scale
I0227 14:24:43.531471  5773 net.cpp:84] Creating Layer conv1_53/scale
I0227 14:24:43.531476  5773 net.cpp:406] conv1_53/scale <- conv1_53/bn
I0227 14:24:43.531481  5773 net.cpp:367] conv1_53/scale -> conv1_53/bn (in-place)
I0227 14:24:43.531581  5773 layer_factory.hpp:77] Creating layer conv1_53/scale
I0227 14:24:43.531903  5773 net.cpp:122] Setting up conv1_53/scale
I0227 14:24:43.531913  5773 net.cpp:129] Top shape: 1 832 26 63 (1362816)
I0227 14:24:43.531916  5773 net.cpp:137] Memory required for data: 2122346808
I0227 14:24:43.531924  5773 layer_factory.hpp:77] Creating layer relu1_53
I0227 14:24:43.531929  5773 net.cpp:84] Creating Layer relu1_53
I0227 14:24:43.531934  5773 net.cpp:406] relu1_53 <- conv1_53/bn
I0227 14:24:43.531937  5773 net.cpp:367] relu1_53 -> conv1_53/bn (in-place)
I0227 14:24:43.532215  5773 net.cpp:122] Setting up relu1_53
I0227 14:24:43.532225  5773 net.cpp:129] Top shape: 1 832 26 63 (1362816)
I0227 14:24:43.532228  5773 net.cpp:137] Memory required for data: 2127798072
I0227 14:24:43.532232  5773 layer_factory.hpp:77] Creating layer conv1_53
I0227 14:24:43.532243  5773 net.cpp:84] Creating Layer conv1_53
I0227 14:24:43.532246  5773 net.cpp:406] conv1_53 <- conv1_53/bn
I0227 14:24:43.532254  5773 net.cpp:380] conv1_53 -> conv1_53
I0227 14:24:43.538091  5773 net.cpp:122] Setting up conv1_53
I0227 14:24:43.538105  5773 net.cpp:129] Top shape: 1 12 26 63 (19656)
I0227 14:24:43.538110  5773 net.cpp:137] Memory required for data: 2127876696
I0227 14:24:43.538115  5773 layer_factory.hpp:77] Creating layer concat1_53
I0227 14:24:43.538125  5773 net.cpp:84] Creating Layer concat1_53
I0227 14:24:43.538130  5773 net.cpp:406] concat1_53 <- concat1_52_concat1_52_0_split_1
I0227 14:24:43.538136  5773 net.cpp:406] concat1_53 <- conv1_53
I0227 14:24:43.538141  5773 net.cpp:380] concat1_53 -> concat1_53
I0227 14:24:43.538202  5773 net.cpp:122] Setting up concat1_53
I0227 14:24:43.538208  5773 net.cpp:129] Top shape: 1 844 26 63 (1382472)
I0227 14:24:43.538211  5773 net.cpp:137] Memory required for data: 2133406584
I0227 14:24:43.538215  5773 layer_factory.hpp:77] Creating layer concat1_53_concat1_53_0_split
I0227 14:24:43.538223  5773 net.cpp:84] Creating Layer concat1_53_concat1_53_0_split
I0227 14:24:43.538226  5773 net.cpp:406] concat1_53_concat1_53_0_split <- concat1_53
I0227 14:24:43.538233  5773 net.cpp:380] concat1_53_concat1_53_0_split -> concat1_53_concat1_53_0_split_0
I0227 14:24:43.538240  5773 net.cpp:380] concat1_53_concat1_53_0_split -> concat1_53_concat1_53_0_split_1
I0227 14:24:43.538321  5773 net.cpp:122] Setting up concat1_53_concat1_53_0_split
I0227 14:24:43.538328  5773 net.cpp:129] Top shape: 1 844 26 63 (1382472)
I0227 14:24:43.538332  5773 net.cpp:129] Top shape: 1 844 26 63 (1382472)
I0227 14:24:43.538336  5773 net.cpp:137] Memory required for data: 2144466360
I0227 14:24:43.538339  5773 layer_factory.hpp:77] Creating layer conv1_54/bn
I0227 14:24:43.538347  5773 net.cpp:84] Creating Layer conv1_54/bn
I0227 14:24:43.538352  5773 net.cpp:406] conv1_54/bn <- concat1_53_concat1_53_0_split_0
I0227 14:24:43.538358  5773 net.cpp:380] conv1_54/bn -> conv1_54/bn
I0227 14:24:43.538910  5773 net.cpp:122] Setting up conv1_54/bn
I0227 14:24:43.538921  5773 net.cpp:129] Top shape: 1 844 26 63 (1382472)
I0227 14:24:43.538924  5773 net.cpp:137] Memory required for data: 2149996248
I0227 14:24:43.538931  5773 layer_factory.hpp:77] Creating layer conv1_54/scale
I0227 14:24:43.538939  5773 net.cpp:84] Creating Layer conv1_54/scale
I0227 14:24:43.538944  5773 net.cpp:406] conv1_54/scale <- conv1_54/bn
I0227 14:24:43.538954  5773 net.cpp:367] conv1_54/scale -> conv1_54/bn (in-place)
I0227 14:24:43.539064  5773 layer_factory.hpp:77] Creating layer conv1_54/scale
I0227 14:24:43.539397  5773 net.cpp:122] Setting up conv1_54/scale
I0227 14:24:43.539407  5773 net.cpp:129] Top shape: 1 844 26 63 (1382472)
I0227 14:24:43.539409  5773 net.cpp:137] Memory required for data: 2155526136
I0227 14:24:43.539415  5773 layer_factory.hpp:77] Creating layer relu1_54
I0227 14:24:43.539422  5773 net.cpp:84] Creating Layer relu1_54
I0227 14:24:43.539425  5773 net.cpp:406] relu1_54 <- conv1_54/bn
I0227 14:24:43.539433  5773 net.cpp:367] relu1_54 -> conv1_54/bn (in-place)
I0227 14:24:43.539727  5773 net.cpp:122] Setting up relu1_54
I0227 14:24:43.539738  5773 net.cpp:129] Top shape: 1 844 26 63 (1382472)
I0227 14:24:43.539742  5773 net.cpp:137] Memory required for data: 2161056024
I0227 14:24:43.539746  5773 layer_factory.hpp:77] Creating layer conv1_54
I0227 14:24:43.539759  5773 net.cpp:84] Creating Layer conv1_54
I0227 14:24:43.539764  5773 net.cpp:406] conv1_54 <- conv1_54/bn
I0227 14:24:43.539770  5773 net.cpp:380] conv1_54 -> conv1_54
I0227 14:24:43.545828  5773 net.cpp:122] Setting up conv1_54
I0227 14:24:43.545842  5773 net.cpp:129] Top shape: 1 12 26 63 (19656)
I0227 14:24:43.545845  5773 net.cpp:137] Memory required for data: 2161134648
I0227 14:24:43.545851  5773 layer_factory.hpp:77] Creating layer concat1_54
I0227 14:24:43.545861  5773 net.cpp:84] Creating Layer concat1_54
I0227 14:24:43.545864  5773 net.cpp:406] concat1_54 <- concat1_53_concat1_53_0_split_1
I0227 14:24:43.545871  5773 net.cpp:406] concat1_54 <- conv1_54
I0227 14:24:43.545876  5773 net.cpp:380] concat1_54 -> concat1_54
I0227 14:24:43.545933  5773 net.cpp:122] Setting up concat1_54
I0227 14:24:43.545941  5773 net.cpp:129] Top shape: 1 856 26 63 (1402128)
I0227 14:24:43.545944  5773 net.cpp:137] Memory required for data: 2166743160
I0227 14:24:43.545948  5773 layer_factory.hpp:77] Creating layer concat1_54_concat1_54_0_split
I0227 14:24:43.545953  5773 net.cpp:84] Creating Layer concat1_54_concat1_54_0_split
I0227 14:24:43.545956  5773 net.cpp:406] concat1_54_concat1_54_0_split <- concat1_54
I0227 14:24:43.545961  5773 net.cpp:380] concat1_54_concat1_54_0_split -> concat1_54_concat1_54_0_split_0
I0227 14:24:43.545967  5773 net.cpp:380] concat1_54_concat1_54_0_split -> concat1_54_concat1_54_0_split_1
I0227 14:24:43.546042  5773 net.cpp:122] Setting up concat1_54_concat1_54_0_split
I0227 14:24:43.546049  5773 net.cpp:129] Top shape: 1 856 26 63 (1402128)
I0227 14:24:43.546053  5773 net.cpp:129] Top shape: 1 856 26 63 (1402128)
I0227 14:24:43.546056  5773 net.cpp:137] Memory required for data: 2177960184
I0227 14:24:43.546059  5773 layer_factory.hpp:77] Creating layer conv1_55/bn
I0227 14:24:43.546066  5773 net.cpp:84] Creating Layer conv1_55/bn
I0227 14:24:43.546070  5773 net.cpp:406] conv1_55/bn <- concat1_54_concat1_54_0_split_0
I0227 14:24:43.546075  5773 net.cpp:380] conv1_55/bn -> conv1_55/bn
I0227 14:24:43.546610  5773 net.cpp:122] Setting up conv1_55/bn
I0227 14:24:43.546619  5773 net.cpp:129] Top shape: 1 856 26 63 (1402128)
I0227 14:24:43.546622  5773 net.cpp:137] Memory required for data: 2183568696
I0227 14:24:43.546629  5773 layer_factory.hpp:77] Creating layer conv1_55/scale
I0227 14:24:43.546638  5773 net.cpp:84] Creating Layer conv1_55/scale
I0227 14:24:43.546643  5773 net.cpp:406] conv1_55/scale <- conv1_55/bn
I0227 14:24:43.546648  5773 net.cpp:367] conv1_55/scale -> conv1_55/bn (in-place)
I0227 14:24:43.546752  5773 layer_factory.hpp:77] Creating layer conv1_55/scale
I0227 14:24:43.549270  5773 net.cpp:122] Setting up conv1_55/scale
I0227 14:24:43.549284  5773 net.cpp:129] Top shape: 1 856 26 63 (1402128)
I0227 14:24:43.549288  5773 net.cpp:137] Memory required for data: 2189177208
I0227 14:24:43.549294  5773 layer_factory.hpp:77] Creating layer relu1_55
I0227 14:24:43.549301  5773 net.cpp:84] Creating Layer relu1_55
I0227 14:24:43.549306  5773 net.cpp:406] relu1_55 <- conv1_55/bn
I0227 14:24:43.549314  5773 net.cpp:367] relu1_55 -> conv1_55/bn (in-place)
I0227 14:24:43.550577  5773 net.cpp:122] Setting up relu1_55
I0227 14:24:43.550590  5773 net.cpp:129] Top shape: 1 856 26 63 (1402128)
I0227 14:24:43.550593  5773 net.cpp:137] Memory required for data: 2194785720
I0227 14:24:43.550597  5773 layer_factory.hpp:77] Creating layer conv1_55
I0227 14:24:43.550609  5773 net.cpp:84] Creating Layer conv1_55
I0227 14:24:43.550614  5773 net.cpp:406] conv1_55 <- conv1_55/bn
I0227 14:24:43.550623  5773 net.cpp:380] conv1_55 -> conv1_55
I0227 14:24:43.556180  5773 net.cpp:122] Setting up conv1_55
I0227 14:24:43.556193  5773 net.cpp:129] Top shape: 1 12 26 63 (19656)
I0227 14:24:43.556197  5773 net.cpp:137] Memory required for data: 2194864344
I0227 14:24:43.556203  5773 layer_factory.hpp:77] Creating layer concat1_55
I0227 14:24:43.556212  5773 net.cpp:84] Creating Layer concat1_55
I0227 14:24:43.556217  5773 net.cpp:406] concat1_55 <- concat1_54_concat1_54_0_split_1
I0227 14:24:43.556222  5773 net.cpp:406] concat1_55 <- conv1_55
I0227 14:24:43.556228  5773 net.cpp:380] concat1_55 -> concat1_55
I0227 14:24:43.556288  5773 net.cpp:122] Setting up concat1_55
I0227 14:24:43.556296  5773 net.cpp:129] Top shape: 1 868 26 63 (1421784)
I0227 14:24:43.556298  5773 net.cpp:137] Memory required for data: 2200551480
I0227 14:24:43.556303  5773 layer_factory.hpp:77] Creating layer concat1_55_concat1_55_0_split
I0227 14:24:43.556308  5773 net.cpp:84] Creating Layer concat1_55_concat1_55_0_split
I0227 14:24:43.556311  5773 net.cpp:406] concat1_55_concat1_55_0_split <- concat1_55
I0227 14:24:43.556315  5773 net.cpp:380] concat1_55_concat1_55_0_split -> concat1_55_concat1_55_0_split_0
I0227 14:24:43.556321  5773 net.cpp:380] concat1_55_concat1_55_0_split -> concat1_55_concat1_55_0_split_1
I0227 14:24:43.556402  5773 net.cpp:122] Setting up concat1_55_concat1_55_0_split
I0227 14:24:43.556411  5773 net.cpp:129] Top shape: 1 868 26 63 (1421784)
I0227 14:24:43.556416  5773 net.cpp:129] Top shape: 1 868 26 63 (1421784)
I0227 14:24:43.556418  5773 net.cpp:137] Memory required for data: 2211925752
I0227 14:24:43.556421  5773 layer_factory.hpp:77] Creating layer conv1_56/bn
I0227 14:24:43.556427  5773 net.cpp:84] Creating Layer conv1_56/bn
I0227 14:24:43.556432  5773 net.cpp:406] conv1_56/bn <- concat1_55_concat1_55_0_split_0
I0227 14:24:43.556438  5773 net.cpp:380] conv1_56/bn -> conv1_56/bn
I0227 14:24:43.557021  5773 net.cpp:122] Setting up conv1_56/bn
I0227 14:24:43.557030  5773 net.cpp:129] Top shape: 1 868 26 63 (1421784)
I0227 14:24:43.557034  5773 net.cpp:137] Memory required for data: 2217612888
I0227 14:24:43.557040  5773 layer_factory.hpp:77] Creating layer conv1_56/scale
I0227 14:24:43.557050  5773 net.cpp:84] Creating Layer conv1_56/scale
I0227 14:24:43.557054  5773 net.cpp:406] conv1_56/scale <- conv1_56/bn
I0227 14:24:43.557061  5773 net.cpp:367] conv1_56/scale -> conv1_56/bn (in-place)
I0227 14:24:43.557173  5773 layer_factory.hpp:77] Creating layer conv1_56/scale
I0227 14:24:43.557456  5773 net.cpp:122] Setting up conv1_56/scale
I0227 14:24:43.557463  5773 net.cpp:129] Top shape: 1 868 26 63 (1421784)
I0227 14:24:43.557466  5773 net.cpp:137] Memory required for data: 2223300024
I0227 14:24:43.557472  5773 layer_factory.hpp:77] Creating layer relu1_56
I0227 14:24:43.557478  5773 net.cpp:84] Creating Layer relu1_56
I0227 14:24:43.557482  5773 net.cpp:406] relu1_56 <- conv1_56/bn
I0227 14:24:43.557487  5773 net.cpp:367] relu1_56 -> conv1_56/bn (in-place)
I0227 14:24:43.557780  5773 net.cpp:122] Setting up relu1_56
I0227 14:24:43.557790  5773 net.cpp:129] Top shape: 1 868 26 63 (1421784)
I0227 14:24:43.557793  5773 net.cpp:137] Memory required for data: 2228987160
I0227 14:24:43.557797  5773 layer_factory.hpp:77] Creating layer conv1_56
I0227 14:24:43.557809  5773 net.cpp:84] Creating Layer conv1_56
I0227 14:24:43.557814  5773 net.cpp:406] conv1_56 <- conv1_56/bn
I0227 14:24:43.557819  5773 net.cpp:380] conv1_56 -> conv1_56
I0227 14:24:43.565842  5773 net.cpp:122] Setting up conv1_56
I0227 14:24:43.565857  5773 net.cpp:129] Top shape: 1 12 26 63 (19656)
I0227 14:24:43.565865  5773 net.cpp:137] Memory required for data: 2229065784
I0227 14:24:43.565872  5773 layer_factory.hpp:77] Creating layer concat1_56
I0227 14:24:43.565883  5773 net.cpp:84] Creating Layer concat1_56
I0227 14:24:43.565888  5773 net.cpp:406] concat1_56 <- concat1_55_concat1_55_0_split_1
I0227 14:24:43.565893  5773 net.cpp:406] concat1_56 <- conv1_56
I0227 14:24:43.565899  5773 net.cpp:380] concat1_56 -> concat1_56
I0227 14:24:43.565960  5773 net.cpp:122] Setting up concat1_56
I0227 14:24:43.565968  5773 net.cpp:129] Top shape: 1 880 26 63 (1441440)
I0227 14:24:43.565971  5773 net.cpp:137] Memory required for data: 2234831544
I0227 14:24:43.565974  5773 layer_factory.hpp:77] Creating layer concat1_56_concat1_56_0_split
I0227 14:24:43.565982  5773 net.cpp:84] Creating Layer concat1_56_concat1_56_0_split
I0227 14:24:43.565986  5773 net.cpp:406] concat1_56_concat1_56_0_split <- concat1_56
I0227 14:24:43.565994  5773 net.cpp:380] concat1_56_concat1_56_0_split -> concat1_56_concat1_56_0_split_0
I0227 14:24:43.566000  5773 net.cpp:380] concat1_56_concat1_56_0_split -> concat1_56_concat1_56_0_split_1
I0227 14:24:43.566093  5773 net.cpp:122] Setting up concat1_56_concat1_56_0_split
I0227 14:24:43.566100  5773 net.cpp:129] Top shape: 1 880 26 63 (1441440)
I0227 14:24:43.566104  5773 net.cpp:129] Top shape: 1 880 26 63 (1441440)
I0227 14:24:43.566107  5773 net.cpp:137] Memory required for data: 2246363064
I0227 14:24:43.566110  5773 layer_factory.hpp:77] Creating layer conv1_57/bn
I0227 14:24:43.566118  5773 net.cpp:84] Creating Layer conv1_57/bn
I0227 14:24:43.566123  5773 net.cpp:406] conv1_57/bn <- concat1_56_concat1_56_0_split_0
I0227 14:24:43.566129  5773 net.cpp:380] conv1_57/bn -> conv1_57/bn
I0227 14:24:43.566648  5773 net.cpp:122] Setting up conv1_57/bn
I0227 14:24:43.566655  5773 net.cpp:129] Top shape: 1 880 26 63 (1441440)
I0227 14:24:43.566658  5773 net.cpp:137] Memory required for data: 2252128824
I0227 14:24:43.566665  5773 layer_factory.hpp:77] Creating layer conv1_57/scale
I0227 14:24:43.566673  5773 net.cpp:84] Creating Layer conv1_57/scale
I0227 14:24:43.566676  5773 net.cpp:406] conv1_57/scale <- conv1_57/bn
I0227 14:24:43.566687  5773 net.cpp:367] conv1_57/scale -> conv1_57/bn (in-place)
I0227 14:24:43.566797  5773 layer_factory.hpp:77] Creating layer conv1_57/scale
I0227 14:24:43.567082  5773 net.cpp:122] Setting up conv1_57/scale
I0227 14:24:43.567090  5773 net.cpp:129] Top shape: 1 880 26 63 (1441440)
I0227 14:24:43.567095  5773 net.cpp:137] Memory required for data: 2257894584
I0227 14:24:43.567101  5773 layer_factory.hpp:77] Creating layer relu1_57
I0227 14:24:43.567106  5773 net.cpp:84] Creating Layer relu1_57
I0227 14:24:43.567109  5773 net.cpp:406] relu1_57 <- conv1_57/bn
I0227 14:24:43.567119  5773 net.cpp:367] relu1_57 -> conv1_57/bn (in-place)
I0227 14:24:43.567410  5773 net.cpp:122] Setting up relu1_57
I0227 14:24:43.567422  5773 net.cpp:129] Top shape: 1 880 26 63 (1441440)
I0227 14:24:43.567425  5773 net.cpp:137] Memory required for data: 2263660344
I0227 14:24:43.567430  5773 layer_factory.hpp:77] Creating layer conv1_57
I0227 14:24:43.567440  5773 net.cpp:84] Creating Layer conv1_57
I0227 14:24:43.567443  5773 net.cpp:406] conv1_57 <- conv1_57/bn
I0227 14:24:43.567450  5773 net.cpp:380] conv1_57 -> conv1_57
I0227 14:24:43.573235  5773 net.cpp:122] Setting up conv1_57
I0227 14:24:43.573249  5773 net.cpp:129] Top shape: 1 12 26 63 (19656)
I0227 14:24:43.573253  5773 net.cpp:137] Memory required for data: 2263738968
I0227 14:24:43.573259  5773 layer_factory.hpp:77] Creating layer concat1_57
I0227 14:24:43.573266  5773 net.cpp:84] Creating Layer concat1_57
I0227 14:24:43.573271  5773 net.cpp:406] concat1_57 <- concat1_56_concat1_56_0_split_1
I0227 14:24:43.573276  5773 net.cpp:406] concat1_57 <- conv1_57
I0227 14:24:43.573283  5773 net.cpp:380] concat1_57 -> concat1_57
I0227 14:24:43.573343  5773 net.cpp:122] Setting up concat1_57
I0227 14:24:43.573349  5773 net.cpp:129] Top shape: 1 892 26 63 (1461096)
I0227 14:24:43.573352  5773 net.cpp:137] Memory required for data: 2269583352
I0227 14:24:43.573364  5773 layer_factory.hpp:77] Creating layer concat1_57_concat1_57_0_split
I0227 14:24:43.573371  5773 net.cpp:84] Creating Layer concat1_57_concat1_57_0_split
I0227 14:24:43.573374  5773 net.cpp:406] concat1_57_concat1_57_0_split <- concat1_57
I0227 14:24:43.573379  5773 net.cpp:380] concat1_57_concat1_57_0_split -> concat1_57_concat1_57_0_split_0
I0227 14:24:43.573385  5773 net.cpp:380] concat1_57_concat1_57_0_split -> concat1_57_concat1_57_0_split_1
I0227 14:24:43.573467  5773 net.cpp:122] Setting up concat1_57_concat1_57_0_split
I0227 14:24:43.573473  5773 net.cpp:129] Top shape: 1 892 26 63 (1461096)
I0227 14:24:43.573477  5773 net.cpp:129] Top shape: 1 892 26 63 (1461096)
I0227 14:24:43.573480  5773 net.cpp:137] Memory required for data: 2281272120
I0227 14:24:43.573483  5773 layer_factory.hpp:77] Creating layer conv1_58/bn
I0227 14:24:43.573492  5773 net.cpp:84] Creating Layer conv1_58/bn
I0227 14:24:43.573495  5773 net.cpp:406] conv1_58/bn <- concat1_57_concat1_57_0_split_0
I0227 14:24:43.573503  5773 net.cpp:380] conv1_58/bn -> conv1_58/bn
I0227 14:24:43.574008  5773 net.cpp:122] Setting up conv1_58/bn
I0227 14:24:43.574018  5773 net.cpp:129] Top shape: 1 892 26 63 (1461096)
I0227 14:24:43.574020  5773 net.cpp:137] Memory required for data: 2287116504
I0227 14:24:43.574028  5773 layer_factory.hpp:77] Creating layer conv1_58/scale
I0227 14:24:43.574036  5773 net.cpp:84] Creating Layer conv1_58/scale
I0227 14:24:43.574040  5773 net.cpp:406] conv1_58/scale <- conv1_58/bn
I0227 14:24:43.574045  5773 net.cpp:367] conv1_58/scale -> conv1_58/bn (in-place)
I0227 14:24:43.574152  5773 layer_factory.hpp:77] Creating layer conv1_58/scale
I0227 14:24:43.574443  5773 net.cpp:122] Setting up conv1_58/scale
I0227 14:24:43.574451  5773 net.cpp:129] Top shape: 1 892 26 63 (1461096)
I0227 14:24:43.574455  5773 net.cpp:137] Memory required for data: 2292960888
I0227 14:24:43.574460  5773 layer_factory.hpp:77] Creating layer relu1_58
I0227 14:24:43.574465  5773 net.cpp:84] Creating Layer relu1_58
I0227 14:24:43.574470  5773 net.cpp:406] relu1_58 <- conv1_58/bn
I0227 14:24:43.574475  5773 net.cpp:367] relu1_58 -> conv1_58/bn (in-place)
I0227 14:24:43.575729  5773 net.cpp:122] Setting up relu1_58
I0227 14:24:43.575742  5773 net.cpp:129] Top shape: 1 892 26 63 (1461096)
I0227 14:24:43.575745  5773 net.cpp:137] Memory required for data: 2298805272
I0227 14:24:43.575749  5773 layer_factory.hpp:77] Creating layer conv1_58
I0227 14:24:43.575762  5773 net.cpp:84] Creating Layer conv1_58
I0227 14:24:43.575767  5773 net.cpp:406] conv1_58 <- conv1_58/bn
I0227 14:24:43.575775  5773 net.cpp:380] conv1_58 -> conv1_58
I0227 14:24:43.581565  5773 net.cpp:122] Setting up conv1_58
I0227 14:24:43.581579  5773 net.cpp:129] Top shape: 1 12 26 63 (19656)
I0227 14:24:43.581583  5773 net.cpp:137] Memory required for data: 2298883896
I0227 14:24:43.581589  5773 layer_factory.hpp:77] Creating layer concat1_58
I0227 14:24:43.581600  5773 net.cpp:84] Creating Layer concat1_58
I0227 14:24:43.581605  5773 net.cpp:406] concat1_58 <- concat1_57_concat1_57_0_split_1
I0227 14:24:43.581610  5773 net.cpp:406] concat1_58 <- conv1_58
I0227 14:24:43.581616  5773 net.cpp:380] concat1_58 -> concat1_58
I0227 14:24:43.581679  5773 net.cpp:122] Setting up concat1_58
I0227 14:24:43.581686  5773 net.cpp:129] Top shape: 1 904 26 63 (1480752)
I0227 14:24:43.581689  5773 net.cpp:137] Memory required for data: 2304806904
I0227 14:24:43.581693  5773 layer_factory.hpp:77] Creating layer concat1_58_concat1_58_0_split
I0227 14:24:43.581701  5773 net.cpp:84] Creating Layer concat1_58_concat1_58_0_split
I0227 14:24:43.581706  5773 net.cpp:406] concat1_58_concat1_58_0_split <- concat1_58
I0227 14:24:43.581710  5773 net.cpp:380] concat1_58_concat1_58_0_split -> concat1_58_concat1_58_0_split_0
I0227 14:24:43.581719  5773 net.cpp:380] concat1_58_concat1_58_0_split -> concat1_58_concat1_58_0_split_1
I0227 14:24:43.581838  5773 net.cpp:122] Setting up concat1_58_concat1_58_0_split
I0227 14:24:43.581845  5773 net.cpp:129] Top shape: 1 904 26 63 (1480752)
I0227 14:24:43.581854  5773 net.cpp:129] Top shape: 1 904 26 63 (1480752)
I0227 14:24:43.581858  5773 net.cpp:137] Memory required for data: 2316652920
I0227 14:24:43.581862  5773 layer_factory.hpp:77] Creating layer conv1_59/bn
I0227 14:24:43.581871  5773 net.cpp:84] Creating Layer conv1_59/bn
I0227 14:24:43.581876  5773 net.cpp:406] conv1_59/bn <- concat1_58_concat1_58_0_split_0
I0227 14:24:43.581884  5773 net.cpp:380] conv1_59/bn -> conv1_59/bn
I0227 14:24:43.582489  5773 net.cpp:122] Setting up conv1_59/bn
I0227 14:24:43.582499  5773 net.cpp:129] Top shape: 1 904 26 63 (1480752)
I0227 14:24:43.582502  5773 net.cpp:137] Memory required for data: 2322575928
I0227 14:24:43.582510  5773 layer_factory.hpp:77] Creating layer conv1_59/scale
I0227 14:24:43.582517  5773 net.cpp:84] Creating Layer conv1_59/scale
I0227 14:24:43.582521  5773 net.cpp:406] conv1_59/scale <- conv1_59/bn
I0227 14:24:43.582532  5773 net.cpp:367] conv1_59/scale -> conv1_59/bn (in-place)
I0227 14:24:43.582643  5773 layer_factory.hpp:77] Creating layer conv1_59/scale
I0227 14:24:43.582947  5773 net.cpp:122] Setting up conv1_59/scale
I0227 14:24:43.582955  5773 net.cpp:129] Top shape: 1 904 26 63 (1480752)
I0227 14:24:43.582959  5773 net.cpp:137] Memory required for data: 2328498936
I0227 14:24:43.582965  5773 layer_factory.hpp:77] Creating layer relu1_59
I0227 14:24:43.582972  5773 net.cpp:84] Creating Layer relu1_59
I0227 14:24:43.582975  5773 net.cpp:406] relu1_59 <- conv1_59/bn
I0227 14:24:43.582984  5773 net.cpp:367] relu1_59 -> conv1_59/bn (in-place)
I0227 14:24:43.583287  5773 net.cpp:122] Setting up relu1_59
I0227 14:24:43.583298  5773 net.cpp:129] Top shape: 1 904 26 63 (1480752)
I0227 14:24:43.583302  5773 net.cpp:137] Memory required for data: 2334421944
I0227 14:24:43.583305  5773 layer_factory.hpp:77] Creating layer conv1_59
I0227 14:24:43.583315  5773 net.cpp:84] Creating Layer conv1_59
I0227 14:24:43.583319  5773 net.cpp:406] conv1_59 <- conv1_59/bn
I0227 14:24:43.583328  5773 net.cpp:380] conv1_59 -> conv1_59
I0227 14:24:43.589274  5773 net.cpp:122] Setting up conv1_59
I0227 14:24:43.589288  5773 net.cpp:129] Top shape: 1 12 26 63 (19656)
I0227 14:24:43.589292  5773 net.cpp:137] Memory required for data: 2334500568
I0227 14:24:43.589298  5773 layer_factory.hpp:77] Creating layer concat1_59
I0227 14:24:43.589305  5773 net.cpp:84] Creating Layer concat1_59
I0227 14:24:43.589309  5773 net.cpp:406] concat1_59 <- concat1_58_concat1_58_0_split_1
I0227 14:24:43.589314  5773 net.cpp:406] concat1_59 <- conv1_59
I0227 14:24:43.589320  5773 net.cpp:380] concat1_59 -> concat1_59
I0227 14:24:43.589385  5773 net.cpp:122] Setting up concat1_59
I0227 14:24:43.589393  5773 net.cpp:129] Top shape: 1 916 26 63 (1500408)
I0227 14:24:43.589396  5773 net.cpp:137] Memory required for data: 2340502200
I0227 14:24:43.589399  5773 layer_factory.hpp:77] Creating layer tpp5
I0227 14:24:43.589406  5773 net.cpp:84] Creating Layer tpp5
I0227 14:24:43.589409  5773 net.cpp:406] tpp5 <- concat1_59
I0227 14:24:43.589416  5773 net.cpp:380] tpp5 -> tpp5
I0227 14:24:43.590440  5773 net.cpp:122] Setting up tpp5
I0227 14:24:43.590450  5773 net.cpp:129] Top shape: 1 13740 (13740)
I0227 14:24:43.590467  5773 net.cpp:137] Memory required for data: 2340557160
I0227 14:24:43.590471  5773 layer_factory.hpp:77] Creating layer fc6_d
I0227 14:24:43.590481  5773 net.cpp:84] Creating Layer fc6_d
I0227 14:24:43.590484  5773 net.cpp:406] fc6_d <- tpp5
I0227 14:24:43.590490  5773 net.cpp:380] fc6_d -> fc6_d
I0227 14:24:45.148754  5773 net.cpp:122] Setting up fc6_d
I0227 14:24:45.148792  5773 net.cpp:129] Top shape: 1 4096 (4096)
I0227 14:24:45.148795  5773 net.cpp:137] Memory required for data: 2340573544
I0227 14:24:45.148805  5773 layer_factory.hpp:77] Creating layer relu6
I0227 14:24:45.148818  5773 net.cpp:84] Creating Layer relu6
I0227 14:24:45.148825  5773 net.cpp:406] relu6 <- fc6_d
I0227 14:24:45.148833  5773 net.cpp:367] relu6 -> fc6_d (in-place)
I0227 14:24:45.149318  5773 net.cpp:122] Setting up relu6
I0227 14:24:45.149328  5773 net.cpp:129] Top shape: 1 4096 (4096)
I0227 14:24:45.149333  5773 net.cpp:137] Memory required for data: 2340589928
I0227 14:24:45.149341  5773 layer_factory.hpp:77] Creating layer fc7_d
I0227 14:24:45.149350  5773 net.cpp:84] Creating Layer fc7_d
I0227 14:24:45.149354  5773 net.cpp:406] fc7_d <- fc6_d
I0227 14:24:45.149363  5773 net.cpp:380] fc7_d -> fc7_d
I0227 14:24:45.647532  5773 net.cpp:122] Setting up fc7_d
I0227 14:24:45.647570  5773 net.cpp:129] Top shape: 1 4096 (4096)
I0227 14:24:45.647574  5773 net.cpp:137] Memory required for data: 2340606312
I0227 14:24:45.647584  5773 layer_factory.hpp:77] Creating layer relu7
I0227 14:24:45.647598  5773 net.cpp:84] Creating Layer relu7
I0227 14:24:45.647605  5773 net.cpp:406] relu7 <- fc7_d
I0227 14:24:45.647613  5773 net.cpp:367] relu7 -> fc7_d (in-place)
I0227 14:24:45.649497  5773 net.cpp:122] Setting up relu7
I0227 14:24:45.649510  5773 net.cpp:129] Top shape: 1 4096 (4096)
I0227 14:24:45.649514  5773 net.cpp:137] Memory required for data: 2340622696
I0227 14:24:45.649518  5773 layer_factory.hpp:77] Creating layer fc8_d
I0227 14:24:45.649528  5773 net.cpp:84] Creating Layer fc8_d
I0227 14:24:45.649533  5773 net.cpp:406] fc8_d <- fc7_d
I0227 14:24:45.649541  5773 net.cpp:380] fc8_d -> fc8_d
I0227 14:24:45.721061  5773 net.cpp:122] Setting up fc8_d
I0227 14:24:45.721076  5773 net.cpp:129] Top shape: 1 604 (604)
I0227 14:24:45.721078  5773 net.cpp:137] Memory required for data: 2340625112
I0227 14:24:45.721086  5773 layer_factory.hpp:77] Creating layer fc8_d_fc8_d_0_split
I0227 14:24:45.721093  5773 net.cpp:84] Creating Layer fc8_d_fc8_d_0_split
I0227 14:24:45.721097  5773 net.cpp:406] fc8_d_fc8_d_0_split <- fc8_d
I0227 14:24:45.721103  5773 net.cpp:380] fc8_d_fc8_d_0_split -> fc8_d_fc8_d_0_split_0
I0227 14:24:45.721110  5773 net.cpp:380] fc8_d_fc8_d_0_split -> fc8_d_fc8_d_0_split_1
I0227 14:24:45.721191  5773 net.cpp:122] Setting up fc8_d_fc8_d_0_split
I0227 14:24:45.721199  5773 net.cpp:129] Top shape: 1 604 (604)
I0227 14:24:45.721204  5773 net.cpp:129] Top shape: 1 604 (604)
I0227 14:24:45.721206  5773 net.cpp:137] Memory required for data: 2340629944
I0227 14:24:45.721210  5773 layer_factory.hpp:77] Creating layer sigmoid
I0227 14:24:45.721218  5773 net.cpp:84] Creating Layer sigmoid
I0227 14:24:45.721222  5773 net.cpp:406] sigmoid <- fc8_d_fc8_d_0_split_0
I0227 14:24:45.721227  5773 net.cpp:380] sigmoid -> sigmoid
I0227 14:24:45.721586  5773 net.cpp:122] Setting up sigmoid
I0227 14:24:45.721597  5773 net.cpp:129] Top shape: 1 604 (604)
I0227 14:24:45.721601  5773 net.cpp:137] Memory required for data: 2340632360
I0227 14:24:45.721604  5773 layer_factory.hpp:77] Creating layer silence
I0227 14:24:45.721611  5773 net.cpp:84] Creating Layer silence
I0227 14:24:45.721614  5773 net.cpp:406] silence <- sigmoid
I0227 14:24:45.721619  5773 net.cpp:122] Setting up silence
I0227 14:24:45.721622  5773 net.cpp:137] Memory required for data: 2340632360
…
