…
  phase: TRAIN
}
layer {
  name: "word_images"
  type: "Data"
  top: "word_images"
  top: "label"
  transform_param {
    scale: -0.0039215689
    mean_value: 255
  }
  data_param {
    source: "/data/fwolf/iam_60x160/iam-db_nti500000_pul2-3-4-5_train_word_images_lmdb"
    batch_size: 1
    backend: LMDB
    prefetch: 20
  }
}
layer {
  name: "phocs"
  type: "Data"
  top: "phocs"
  top: "label_phocs"
  data_param {
    source: "/data/fwolf/iam_60x160/iam-db_nti500000_pul2-3-4-5_train_phocs_lmdb"
    batch_size: 1
    backend: LMDB
    prefetch: 20
  }
}
layer {
  name: "conv_init"
  type: "Convolution"
  bottom: "word_images"
  top: "conv_init"
  convolution_param {
    num_output: 64
    bias_term: false
    pad: 3
    kernel_size: 7
    stride: 2
    weight_filler {
      type: "msra"
    }
    bias_filler {
      type: "constant"
    }
    engine: CUDNN
  }
}
layer {
  name: "bn_init"
  type: "BatchNorm"
  bottom: "conv_init"
  top: "bn_init"
  param {
    lr_mult: 0
    decay_mult: 0
  }
  param {
    lr_mult: 0
    decay_mult: 0
  }
  param {
    lr_mult: 0
    decay_mult: 0
  }
  batch_norm_param {
    eps: 1e-05
  }
}
layer {
  name: "scale_init"
  type: "Scale"
  bottom: "bn_init"
  top: "bn_init"
  scale_param {
    filler {
      value: 1
    }
    bias_term: true
    bias_filler {
      value: 0
    }
  }
}
layer {
  name: "relu_init"
  type: "ReLU"
  bottom: "bn_init"
  top: "bn_init"
}
layer {
  name: "pool_init"
  type: "Pooling"
  bottom: "bn_init"
  top: "pool_init"
  pooling_param {
    pool: MAX
    kernel_size: 3
    stride: 2
    pad: 1
  }
}
layer {
  name: "conv0_0/x1/bn"
  type: "BatchNorm"
  bottom: "pool_init"
  top: "conv0_0/x1/bn"
  param {
    lr_mult: 0
    decay_mult: 0
  }
  param {
    lr_mult: 0
    decay_mult: 0
  }
  param {
    lr_mult: 0
    decay_mult: 0
  }
}
layer {
  name: "conv0_0/x1/scale"
  type: "Scale"
  bottom: "conv0_0/x1/bn"
  top: "conv0_0/x1/bn"
  scale_param {
    filler {
      value: 1
    }
    bias_term: true
    bias_filler {
      value: 0
    }
  }
}
layer {
  name: "relu0_0/x1"
  type: "ReLU"
  bottom: "conv0_0/x1/bn"
  top: "conv0_0/x1/bn"
}
layer {
  name: "conv0_0/x1"
  type: "Convolution"
  bottom: "conv0_0/x1/bn"
  top: "conv0_0/x1"
  convolution_param {
    num_output: 128
    bias_term: false
    pad: 0
    kernel_size: 1
    stride: 1
    weight_filler {
      type: "msra"
    }
    bias_filler {
      type: "constant"
    }
    engine: CUDNN
  }
}
layer {
  name: "conv0_0/x2/bn"
  type: "BatchNorm"
  bottom: "conv0_0/x1"
  top: "conv0_0/x2/bn"
  param {
    lr_mult: 0
    decay_mult: 0
  }
  param {
    lr_mult: 0
    decay_mult: 0
  }
  param {
    lr_mult: 0
    decay_mult: 0
  }
}
layer {
  name: "conv0_0/x2/scale"
  type: "Scale"
  bottom: "conv0_0/x2/bn"
  top: "conv0_0/x2/bn"
  scale_param {
    filler {
      value: 1
    }
    bias_term: true
    bias_filler {
      value: 0
    }
  }
}
layer {
  name: "relu0_0/x2"
  type: "ReLU"
  bottom: "conv0_0/x2/bn"
  top: "conv0_0/x2/bn"
}
layer {
  name: "conv0_0/x2"
  type: "Convolution"
  bottom: "conv0_0/x2/bn"
  top: "conv0_0/x2"
  convolution_param {
    num_output: 32
    bias_term: false
    pad: 1
    kernel_size: 3
    stride: 1
    weight_filler {
      type: "msra"
    }
    bias_filler {
      type: "constant"
    }
    engine: CUDNN
  }
}
layer {
  name: "concat0_0"
  type: "Concat"
  bottom: "pool_init"
  bottom: "conv0_0/x2"
  top: "concat0_0"
  concat_param {
    axis: 1
  }
}
layer {
  name: "conv0_1/x1/bn"
  type: "BatchNorm"
  bottom: "concat0_0"
  top: "conv0_1/x1/bn"
  param {
    lr_mult: 0
    decay_mult: 0
  }
  param {
    lr_mult: 0
    decay_mult: 0
  }
  param {
    lr_mult: 0
    decay_mult: 0
  }
}
layer {
  name: "conv0_1/x1/scale"
  type: "Scale"
  bottom: "conv0_1/x1/bn"
  top: "conv0_1/x1/bn"
  scale_param {
    filler {
      value: 1
    }
    bias_term: true
    bias_filler {
      value: 0
    }
  }
}
layer {
  name: "relu0_1/x1"
  type: "ReLU"
  bottom: "conv0_1/x1/bn"
  top: "conv0_1/x1/bn"
}
layer {
  name: "conv0_1/x1"
  type: "Convolution"
  bottom: "conv0_1/x1/bn"
  top: "conv0_1/x1"
  convolution_param {
    num_output: 128
    bias_term: false
    pad: 0
    kernel_size: 1
    stride: 1
    weight_filler {
      type: "msra"
    }
    bias_filler {
      type: "constant"
    }
    engine: CUDNN
  }
}
layer {
  name: "conv0_1/x2/bn"
  type: "BatchNorm"
  bottom: "conv0_1/x1"
  top: "conv0_1/x2/bn"
  param {
    lr_mult: 0
    decay_mult: 0
  }
  param {
    lr_mult: 0
    decay_mult: 0
  }
  param {
    lr_mult: 0
    decay_mult: 0
  }
}
layer {
  name: "conv0_1/x2/scale"
  type: "Scale"
  bottom: "conv0_1/x2/bn"
  top: "conv0_1/x2/bn"
  scale_param {
    filler {
      value: 1
    }
    bias_term: true
    bias_filler {
      value: 0
    }
  }
}
layer {
  name: "relu0_1/x2"
  type: "ReLU"
  bottom: "conv0_1/x2/bn"
  top: "conv0_1/x2/bn"
}
layer {
  name: "conv0_1/x2"
  type: "Convolution"
  bottom: "conv0_1/x2/bn"
  top: "conv0_1/x2"
  convolution_param {
    num_output: 32
    bias_term: false
    pad: 1
    kernel_size: 3
    stride: 1
    weight_filler {
      type: "msra"
    }
    bias_filler {
      type: "constant"
    }
    engine: CUDNN
  }
}
layer {
  name: "concat0_1"
  type: "Concat"
  bottom: "concat0_0"
  bottom: "conv0_1/x2"
  top: "concat0_1"
  concat_param {
    axis: 1
  }
}
layer {
  name: "conv0_2/x1/bn"
  type: "BatchNorm"
  bottom: "concat0_1"
  top: "conv0_2/x1/bn"
  param {
    lr_mult: 0
    decay_mult: 0
  }
  param {
    lr_mult: 0
    decay_mult: 0
  }
  param {
    lr_mult: 0
    decay_mult: 0
  }
}
layer {
  name: "conv0_2/x1/scale"
  type: "Scale"
  bottom: "conv0_2/x1/bn"
  top: "conv0_2/x1/bn"
  scale_param {
    filler {
      value: 1
    }
    bias_term: true
    bias_filler {
      value: 0
    }
  }
}
layer {
  name: "relu0_2/x1"
  type: "ReLU"
  bottom: "conv0_2/x1/bn"
  top: "conv0_2/x1/bn"
}
layer {
  name: "conv0_2/x1"
  type: "Convolution"
  bottom: "conv0_2/x1/bn"
  top: "conv0_2/x1"
  convolution_param {
    num_output: 128
    bias_term: false
    pad: 0
    kernel_size: 1
    stride: 1
    weight_filler {
      type: "msra"
    }
    bias_filler {
      type: "constant"
    }
    engine: CUDNN
  }
}
layer {
  name: "conv0_2/x2/bn"
  type: "BatchNorm"
  bottom: "conv0_2/x1"
  top: "conv0_2/x2/bn"
  param {
    lr_mult: 0
    decay_mult: 0
  }
  param {
    lr_mult: 0
    decay_mult: 0
  }
  param {
    lr_mult: 0
    decay_mult: 0
  }
}
layer {
  name: "conv0_2/x2/scale"
  type: "Scale"
  bottom: "conv0_2/x2/bn"
  top: "conv0_2/x2/bn"
  scale_param {
    filler {
      value: 1
    }
    bias_term: true
    bias_filler {
      value: 0
    }
  }
}
layer {
  name: "relu0_2/x2"
  type: "ReLU"
  bottom: "conv0_2/x2/bn"
  top: "conv0_2/x2/bn"
}
layer {
  name: "conv0_2/x2"
  type: "Convolution"
  bottom: "conv0_2/x2/bn"
  top: "conv0_2/x2"
  convolution_param {
    num_output: 32
    bias_term: false
    pad: 1
    kernel_size: 3
    stride: 1
    weight_filler {
      type: "msra"
    }
    bias_filler {
      type: "constant"
    }
    engine: CUDNN
  }
}
layer {
  name: "concat0_2"
  type: "Concat"
  bottom: "concat0_1"
  bottom: "conv0_2/x2"
  top: "concat0_2"
  concat_param {
    axis: 1
  }
}
layer {
  name: "conv0_3/x1/bn"
  type: "BatchNorm"
  bottom: "concat0_2"
  top: "conv0_3/x1/bn"
  param {
    lr_mult: 0
    decay_mult: 0
  }
  param {
    lr_mult: 0
    decay_mult: 0
  }
  param {
    lr_mult: 0
    decay_mult: 0
  }
}
layer {
  name: "conv0_3/x1/scale"
  type: "Scale"
  bottom: "conv0_3/x1/bn"
  top: "conv0_3/x1/bn"
  scale_param {
    filler {
      value: 1
    }
    bias_term: true
    bias_filler {
      value: 0
    }
  }
}
layer {
  name: "relu0_3/x1"
  type: "ReLU"
  bottom: "conv0_3/x1/bn"
  top: "conv0_3/x1/bn"
}
layer {
  name: "conv0_3/x1"
  type: "Convolution"
  bottom: "conv0_3/x1/bn"
  top: "conv0_3/x1"
  convolution_param {
    num_output: 128
    bias_term: false
    pad: 0
    kernel_size: 1
    stride: 1
    weight_filler {
      type: "msra"
    }
    bias_filler {
      type: "constant"
    }
    engine: CUDNN
  }
}
layer {
  name: "conv0_3/x2/bn"
  type: "BatchNorm"
  bottom: "conv0_3/x1"
  top: "conv0_3/x2/bn"
  param {
    lr_mult: 0
    decay_mult: 0
  }
  param {
    lr_mult: 0
    decay_mult: 0
  }
  param {
    lr_mult: 0
    decay_mult: 0
  }
}
layer {
  name: "conv0_3/x2/scale"
  type: "Scale"
  bottom: "conv0_3/x2/bn"
  top: "conv0_3/x2/bn"
  scale_param {
    filler {
      value: 1
    }
    bias_term: true
    bias_filler {
      value: 0
    }
  }
}
layer {
  name: "relu0_3/x2"
  type: "ReLU"
  bottom: "conv0_3/x2/bn"
  top: "conv0_3/x2/bn"
}
layer {
  name: "conv0_3/x2"
  type: "Convolution"
  bottom: "conv0_3/x2/bn"
  top: "conv0_3/x2"
  convolution_param {
    num_output: 32
    bias_term: false
    pad: 1
    kernel_size: 3
    stride: 1
    weight_filler {
      type: "msra"
    }
    bias_filler {
      type: "constant"
    }
    engine: CUDNN
  }
}
layer {
  name: "concat0_3"
  type: "Concat"
  bottom: "concat0_2"
  bottom: "conv0_3/x2"
  top: "concat0_3"
  concat_param {
    axis: 1
  }
}
layer {
  name: "conv0_4/x1/bn"
  type: "BatchNorm"
  bottom: "concat0_3"
  top: "conv0_4/x1/bn"
  param {
    lr_mult: 0
    decay_mult: 0
  }
  param {
    lr_mult: 0
    decay_mult: 0
  }
  param {
    lr_mult: 0
    decay_mult: 0
  }
}
layer {
  name: "conv0_4/x1/scale"
  type: "Scale"
  bottom: "conv0_4/x1/bn"
  top: "conv0_4/x1/bn"
  scale_param {
    filler {
      value: 1
    }
    bias_term: true
    bias_filler {
      value: 0
    }
  }
}
layer {
  name: "relu0_4/x1"
  type: "ReLU"
  bottom: "conv0_4/x1/bn"
  top: "conv0_4/x1/bn"
}
layer {
  name: "conv0_4/x1"
  type: "Convolution"
  bottom: "conv0_4/x1/bn"
  top: "conv0_4/x1"
  convolution_param {
    num_output: 128
    bias_term: false
    pad: 0
    kernel_size: 1
    stride: 1
    weight_filler {
      type: "msra"
    }
    bias_filler {
      type: "constant"
    }
    engine: CUDNN
  }
}
layer {
  name: "conv0_4/x2/bn"
  type: "BatchNorm"
  bottom: "conv0_4/x1"
  top: "conv0_4/x2/bn"
  param {
    lr_mult: 0
    decay_mult: 0
  }
  param {
    lr_mult: 0
    decay_mult: 0
  }
  param {
    lr_mult: 0
    decay_mult: 0
  }
}
layer {
  name: "conv0_4/x2/scale"
  type: "Scale"
  bottom: "conv0_4/x2/bn"
  top: "conv0_4/x2/bn"
  scale_param {
    filler {
      value: 1
    }
    bias_term: true
    bias_filler {
      value: 0
    }
  }
}
layer {
  name: "relu0_4/x2"
  type: "ReLU"
  bottom: "conv0_4/x2/bn"
  top: "conv0_4/x2/bn"
}
layer {
  name: "conv0_4/x2"
  type: "Convolution"
  bottom: "conv0_4/x2/bn"
  top: "conv0_4/x2"
  convolution_param {
    num_output: 32
    bias_term: false
    pad: 1
    kernel_size: 3
    stride: 1
    weight_filler {
      type: "msra"
    }
    bias_filler {
      type: "constant"
    }
    engine: CUDNN
  }
}
layer {
  name: "concat0_4"
  type: "Concat"
  bottom: "concat0_3"
  bottom: "conv0_4/x2"
  top: "concat0_4"
  concat_param {
    axis: 1
  }
}
layer {
  name: "conv0_5/x1/bn"
  type: "BatchNorm"
  bottom: "concat0_4"
  top: "conv0_5/x1/bn"
  param {
    lr_mult: 0
    decay_mult: 0
  }
  param {
    lr_mult: 0
    decay_mult: 0
  }
  param {
    lr_mult: 0
    decay_mult: 0
  }
}
layer {
  name: "conv0_5/x1/scale"
  type: "Scale"
  bottom: "conv0_5/x1/bn"
  top: "conv0_5/x1/bn"
  scale_param {
    filler {
      value: 1
    }
    bias_term: true
    bias_filler {
      value: 0
    }
  }
}
layer {
  name: "relu0_5/x1"
  type: "ReLU"
  bottom: "conv0_5/x1/bn"
  top: "conv0_5/x1/bn"
}
layer {
  name: "conv0_5/x1"
  type: "Convolution"
  bottom: "conv0_5/x1/bn"
  top: "conv0_5/x1"
  convolution_param {
    num_output: 128
    bias_term: false
    pad: 0
    kernel_size: 1
    stride: 1
    weight_filler {
      type: "msra"
    }
    bias_filler {
      type: "constant"
    }
    engine: CUDNN
  }
}
layer {
  name: "conv0_5/x2/bn"
  type: "BatchNorm"
  bottom: "conv0_5/x1"
  top: "conv0_5/x2/bn"
  param {
    lr_mult: 0
    decay_mult: 0
  }
  param {
    lr_mult: 0
    decay_mult: 0
  }
  param {
    lr_mult: 0
    decay_mult: 0
  }
}
layer {
  name: "conv0_5/x2/scale"
  type: "Scale"
  bottom: "conv0_5/x2/bn"
  top: "conv0_5/x2/bn"
  scale_param {
    filler {
      value: 1
    }
    bias_term: true
    bias_filler {
      value: 0
    }
  }
}
layer {
  name: "relu0_5/x2"
  type: "ReLU"
  bottom: "conv0_5/x2/bn"
  top: "conv0_5/x2/bn"
}
layer {
  name: "conv0_5/x2"
  type: "Convolution"
  bottom: "conv0_5/x2/bn"
  top: "conv0_5/x2"
  convolution_param {
    num_output: 32
    bias_term: false
    pad: 1
    kernel_size: 3
    stride: 1
    weight_filler {
      type: "msra"
    }
    bias_filler {
      type: "constant"
    }
    engine: CUDNN
  }
}
layer {
  name: "concat0_5"
  type: "Concat"
  bottom: "concat0_4"
  bottom: "conv0_5/x2"
  top: "concat0_5"
  concat_param {
    axis: 1
  }
}
layer {
  name: "BatchNorm1"
  type: "BatchNorm"
  bottom: "concat0_5"
  top: "BatchNorm1"
  param {
    lr_mult: 0
    decay_mult: 0
  }
  param {
    lr_mult: 0
    decay_mult: 0
  }
  param {
    lr_mult: 0
    decay_mult: 0
  }
}
layer {
  name: "Scale1"
  type: "Scale"
  bottom: "BatchNorm1"
  top: "BatchNorm1"
  scale_param {
    filler {
      value: 1
    }
    bias_term: true
    bias_filler {
      value: 0
    }
  }
}
layer {
  name: "ReLU1"
  type: "ReLU"
  bottom: "BatchNorm1"
  top: "BatchNorm1"
}
layer {
  name: "conv0_blk"
  type: "Convolution"
  bottom: "BatchNorm1"
  top: "conv0_blk"
  convolution_param {
    num_output: 128
    bias_term: false
    pad: 0
    kernel_size: 1
    stride: 1
    weight_filler {
      type: "msra"
    }
    bias_filler {
      type: "constant"
    }
    engine: CUDNN
  }
}
layer {
  name: "pool0"
  type: "Pooling"
  bottom: "conv0_blk"
  top: "pool0"
  pooling_param {
    pool: AVE
    kernel_size: 2
    stride: 2
  }
}
layer {
  name: "conv1_0/x1/bn"
  type: "BatchNorm"
  bottom: "pool0"
  top: "conv1_0/x1/bn"
  param {
    lr_mult: 0
    decay_mult: 0
  }
  param {
    lr_mult: 0
    decay_mult: 0
  }
  param {
    lr_mult: 0
    decay_mult: 0
  }
}
layer {
  name: "conv1_0/x1/scale"
  type: "Scale"
  bottom: "conv1_0/x1/bn"
  top: "conv1_0/x1/bn"
  scale_param {
    filler {
      value: 1
    }
    bias_term: true
    bias_filler {
      value: 0
    }
  }
}
layer {
  name: "relu1_0/x1"
  type: "ReLU"
  bottom: "conv1_0/x1/bn"
  top: "conv1_0/x1/bn"
}
layer {
  name: "conv1_0/x1"
  type: "Convolution"
  bottom: "conv1_0/x1/bn"
  top: "conv1_0/x1"
  convolution_param {
    num_output: 128
    bias_term: false
    pad: 0
    kernel_size: 1
    stride: 1
    weight_filler {
      type: "msra"
    }
    bias_filler {
      type: "constant"
    }
    engine: CUDNN
  }
}
layer {
  name: "conv1_0/x2/bn"
  type: "BatchNorm"
  bottom: "conv1_0/x1"
  top: "conv1_0/x2/bn"
  param {
    lr_mult: 0
    decay_mult: 0
  }
  param {
    lr_mult: 0
    decay_mult: 0
  }
  param {
    lr_mult: 0
    decay_mult: 0
  }
}
layer {
  name: "conv1_0/x2/scale"
  type: "Scale"
  bottom: "conv1_0/x2/bn"
  top: "conv1_0/x2/bn"
  scale_param {
    filler {
      value: 1
    }
    bias_term: true
    bias_filler {
      value: 0
    }
  }
}
layer {
  name: "relu1_0/x2"
  type: "ReLU"
  bottom: "conv1_0/x2/bn"
  top: "conv1_0/x2/bn"
}
layer {
  name: "conv1_0/x2"
  type: "Convolution"
  bottom: "conv1_0/x2/bn"
  top: "conv1_0/x2"
  convolution_param {
    num_output: 32
    bias_term: false
    pad: 1
    kernel_size: 3
    stride: 1
    weight_filler {
      type: "msra"
    }
    bias_filler {
      type: "constant"
    }
    engine: CUDNN
  }
}
layer {
  name: "concat1_0"
  type: "Concat"
  bottom: "pool0"
  bottom: "conv1_0/x2"
  top: "concat1_0"
  concat_param {
    axis: 1
  }
}
layer {
  name: "conv1_1/x1/bn"
  type: "BatchNorm"
  bottom: "concat1_0"
  top: "conv1_1/x1/bn"
  param {
    lr_mult: 0
    decay_mult: 0
  }
  param {
    lr_mult: 0
    decay_mult: 0
  }
  param {
    lr_mult: 0
    decay_mult: 0
  }
}
layer {
  name: "conv1_1/x1/scale"
  type: "Scale"
  bottom: "conv1_1/x1/bn"
  top: "conv1_1/x1/bn"
  scale_param {
    filler {
      value: 1
    }
    bias_term: true
    bias_filler {
      value: 0
    }
  }
}
layer {
  name: "relu1_1/x1"
  type: "ReLU"
  bottom: "conv1_1/x1/bn"
  top: "conv1_1/x1/bn"
}
layer {
  name: "conv1_1/x1"
  type: "Convolution"
  bottom: "conv1_1/x1/bn"
  top: "conv1_1/x1"
  convolution_param {
    num_output: 128
    bias_term: false
    pad: 0
    kernel_size: 1
    stride: 1
    weight_filler {
      type: "msra"
    }
    bias_filler {
      type: "constant"
    }
    engine: CUDNN
  }
}
layer {
  name: "conv1_1/x2/bn"
  type: "BatchNorm"
  bottom: "conv1_1/x1"
  top: "conv1_1/x2/bn"
  param {
    lr_mult: 0
    decay_mult: 0
  }
  param {
    lr_mult: 0
    decay_mult: 0
  }
  param {
    lr_mult: 0
    decay_mult: 0
  }
}
layer {
  name: "conv1_1/x2/scale"
  type: "Scale"
  bottom: "conv1_1/x2/bn"
  top: "conv1_1/x2/bn"
  scale_param {
    filler {
      value: 1
    }
    bias_term: true
    bias_filler {
      value: 0
    }
  }
}
layer {
  name: "relu1_1/x2"
  type: "ReLU"
  bottom: "conv1_1/x2/bn"
  top: "conv1_1/x2/bn"
}
layer {
  name: "conv1_1/x2"
  type: "Convolution"
  bottom: "conv1_1/x2/bn"
  top: "conv1_1/x2"
  convolution_param {
    num_output: 32
    bias_term: false
    pad: 1
    kernel_size: 3
    stride: 1
    weight_filler {
      type: "msra"
    }
    bias_filler {
      type: "constant"
    }
    engine: CUDNN
  }
}
layer {
  name: "concat1_1"
  type: "Concat"
  bottom: "concat1_0"
  bottom: "conv1_1/x2"
  top: "concat1_1"
  concat_param {
    axis: 1
  }
}
layer {
  name: "conv1_2/x1/bn"
  type: "BatchNorm"
  bottom: "concat1_1"
  top: "conv1_2/x1/bn"
  param {
    lr_mult: 0
    decay_mult: 0
  }
  param {
    lr_mult: 0
    decay_mult: 0
  }
  param {
    lr_mult: 0
    decay_mult: 0
  }
}
layer {
  name: "conv1_2/x1/scale"
  type: "Scale"
  bottom: "conv1_2/x1/bn"
  top: "conv1_2/x1/bn"
  scale_param {
    filler {
      value: 1
    }
    bias_term: true
    bias_filler {
      value: 0
    }
  }
}
layer {
  name: "relu1_2/x1"
  type: "ReLU"
  bottom: "conv1_2/x1/bn"
  top: "conv1_2/x1/bn"
}
layer {
  name: "conv1_2/x1"
  type: "Convolution"
  bottom: "conv1_2/x1/bn"
  top: "conv1_2/x1"
  convolution_param {
    num_output: 128
    bias_term: false
    pad: 0
    kernel_size: 1
    stride: 1
    weight_filler {
      type: "msra"
    }
    bias_filler {
      type: "constant"
    }
    engine: CUDNN
  }
}
layer {
  name: "conv1_2/x2/bn"
  type: "BatchNorm"
  bottom: "conv1_2/x1"
  top: "conv1_2/x2/bn"
  param {
    lr_mult: 0
    decay_mult: 0
  }
  param {
    lr_mult: 0
    decay_mult: 0
  }
  param {
    lr_mult: 0
    decay_mult: 0
  }
}
layer {
  name: "conv1_2/x2/scale"
  type: "Scale"
  bottom: "conv1_2/x2/bn"
  top: "conv1_2/x2/bn"
  scale_param {
    filler {
      value: 1
    }
    bias_term: true
    bias_filler {
      value: 0
    }
  }
}
layer {
  name: "relu1_2/x2"
  type: "ReLU"
  bottom: "conv1_2/x2/bn"
  top: "conv1_2/x2/bn"
}
layer {
  name: "conv1_2/x2"
  type: "Convolution"
  bottom: "conv1_2/x2/bn"
  top: "conv1_2/x2"
  convolution_param {
    num_output: 32
    bias_term: false
    pad: 1
    kernel_size: 3
    stride: 1
    weight_filler {
      type: "msra"
    }
    bias_filler {
      type: "constant"
    }
    engine: CUDNN
  }
}
layer {
  name: "concat1_2"
  type: "Concat"
  bottom: "concat1_1"
  bottom: "conv1_2/x2"
  top: "concat1_2"
  concat_param {
    axis: 1
  }
}
layer {
  name: "conv1_3/x1/bn"
  type: "BatchNorm"
  bottom: "concat1_2"
  top: "conv1_3/x1/bn"
  param {
    lr_mult: 0
    decay_mult: 0
  }
  param {
    lr_mult: 0
    decay_mult: 0
  }
  param {
    lr_mult: 0
    decay_mult: 0
  }
}
layer {
  name: "conv1_3/x1/scale"
  type: "Scale"
  bottom: "conv1_3/x1/bn"
  top: "conv1_3/x1/bn"
  scale_param {
    filler {
      value: 1
    }
    bias_term: true
    bias_filler {
      value: 0
    }
  }
}
layer {
  name: "relu1_3/x1"
  type: "ReLU"
  bottom: "conv1_3/x1/bn"
  top: "conv1_3/x1/bn"
}
layer {
  name: "conv1_3/x1"
  type: "Convolution"
  bottom: "conv1_3/x1/bn"
  top: "conv1_3/x1"
  convolution_param {
    num_output: 128
    bias_term: false
    pad: 0
    kernel_size: 1
    stride: 1
    weight_filler {
      type: "msra"
    }
    bias_filler {
      type: "constant"
    }
    engine: CUDNN
  }
}
layer {
  name: "conv1_3/x2/bn"
  type: "BatchNorm"
  bottom: "conv1_3/x1"
  top: "conv1_3/x2/bn"
  param {
    lr_mult: 0
    decay_mult: 0
  }
  param {
    lr_mult: 0
    decay_mult: 0
  }
  param {
    lr_mult: 0
    decay_mult: 0
  }
}
layer {
  name: "conv1_3/x2/scale"
  type: "Scale"
  bottom: "conv1_3/x2/bn"
  top: "conv1_3/x2/bn"
  scale_param {
    filler {
      value: 1
    }
    bias_term: true
    bias_filler {
      value: 0
    }
  }
}
layer {
  name: "relu1_3/x2"
  type: "ReLU"
  bottom: "conv1_3/x2/bn"
  top: "conv1_3/x2/bn"
}
layer {
  name: "conv1_3/x2"
  type: "Convolution"
  bottom: "conv1_3/x2/bn"
  top: "conv1_3/x2"
  convolution_param {
    num_output: 32
    bias_term: false
    pad: 1
    kernel_size: 3
    stride: 1
    weight_filler {
      type: "msra"
    }
    bias_filler {
      type: "constant"
    }
    engine: CUDNN
  }
}
layer {
  name: "concat1_3"
  type: "Concat"
  bottom: "concat1_2"
  bottom: "conv1_3/x2"
  top: "concat1_3"
  concat_param {
    axis: 1
  }
}
layer {
  name: "conv1_4/x1/bn"
  type: "BatchNorm"
  bottom: "concat1_3"
  top: "conv1_4/x1/bn"
  param {
    lr_mult: 0
    decay_mult: 0
  }
  param {
    lr_mult: 0
    decay_mult: 0
  }
  param {
    lr_mult: 0
    decay_mult: 0
  }
}
layer {
  name: "conv1_4/x1/scale"
  type: "Scale"
  bottom: "conv1_4/x1/bn"
  top: "conv1_4/x1/bn"
  scale_param {
    filler {
      value: 1
    }
    bias_term: true
    bias_filler {
      value: 0
    }
  }
}
layer {
  name: "relu1_4/x1"
  type: "ReLU"
  bottom: "conv1_4/x1/bn"
  top: "conv1_4/x1/bn"
}
layer {
  name: "conv1_4/x1"
  type: "Convolution"
  bottom: "conv1_4/x1/bn"
  top: "conv1_4/x1"
  convolution_param {
    num_output: 128
    bias_term: false
    pad: 0
    kernel_size: 1
    stride: 1
    weight_filler {
      type: "msra"
    }
    bias_filler {
      type: "constant"
    }
    engine: CUDNN
  }
}
layer {
  name: "conv1_4/x2/bn"
  type: "BatchNorm"
  bottom: "conv1_4/x1"
  top: "conv1_4/x2/bn"
  param {
    lr_mult: 0
    decay_mult: 0
  }
  param {
    lr_mult: 0
    decay_mult: 0
  }
  param {
    lr_mult: 0
    decay_mult: 0
  }
}
layer {
  name: "conv1_4/x2/scale"
  type: "Scale"
  bottom: "conv1_4/x2/bn"
  top: "conv1_4/x2/bn"
  scale_param {
    filler {
      value: 1
    }
    bias_term: true
    bias_filler {
      value: 0
    }
  }
}
layer {
  name: "relu1_4/x2"
  type: "ReLU"
  bottom: "conv1_4/x2/bn"
  top: "conv1_4/x2/bn"
}
layer {
  name: "conv1_4/x2"
  type: "Convolution"
  bottom: "conv1_4/x2/bn"
  top: "conv1_4/x2"
  convolution_param {
    num_output: 32
    bias_term: false
    pad: 1
    kernel_size: 3
    stride: 1
    weight_filler {
      type: "msra"
    }
    bias_filler {
      type: "constant"
    }
    engine: CUDNN
  }
}
layer {
  name: "concat1_4"
  type: "Concat"
  bottom: "concat1_3"
  bottom: "conv1_4/x2"
  top: "concat1_4"
  concat_param {
    axis: 1
  }
}
layer {
  name: "conv1_5/x1/bn"
  type: "BatchNorm"
  bottom: "concat1_4"
  top: "conv1_5/x1/bn"
  param {
    lr_mult: 0
    decay_mult: 0
  }
  param {
    lr_mult: 0
    decay_mult: 0
  }
  param {
    lr_mult: 0
    decay_mult: 0
  }
}
layer {
  name: "conv1_5/x1/scale"
  type: "Scale"
  bottom: "conv1_5/x1/bn"
  top: "conv1_5/x1/bn"
  scale_param {
    filler {
      value: 1
    }
    bias_term: true
    bias_filler {
      value: 0
    }
  }
}
layer {
  name: "relu1_5/x1"
  type: "ReLU"
  bottom: "conv1_5/x1/bn"
  top: "conv1_5/x1/bn"
}
layer {
  name: "conv1_5/x1"
  type: "Convolution"
  bottom: "conv1_5/x1/bn"
  top: "conv1_5/x1"
  convolution_param {
    num_output: 128
    bias_term: false
    pad: 0
    kernel_size: 1
    stride: 1
    weight_filler {
      type: "msra"
    }
    bias_filler {
      type: "constant"
    }
    engine: CUDNN
  }
}
layer {
  name: "conv1_5/x2/bn"
  type: "BatchNorm"
  bottom: "conv1_5/x1"
  top: "conv1_5/x2/bn"
  param {
    lr_mult: 0
    decay_mult: 0
  }
  param {
    lr_mult: 0
    decay_mult: 0
  }
  param {
    lr_mult: 0
    decay_mult: 0
  }
}
layer {
  name: "conv1_5/x2/scale"
  type: "Scale"
  bottom: "conv1_5/x2/bn"
  top: "conv1_5/x2/bn"
  scale_param {
    filler {
      value: 1
    }
    bias_term: true
    bias_filler {
      value: 0
    }
  }
}
layer {
  name: "relu1_5/x2"
  type: "ReLU"
  bottom: "conv1_5/x2/bn"
  top: "conv1_5/x2/bn"
}
layer {
  name: "conv1_5/x2"
  type: "Convolution"
  bottom: "conv1_5/x2/bn"
  top: "conv1_5/x2"
  convolution_param {
    num_output: 32
    bias_term: false
    pad: 1
    kernel_size: 3
    stride: 1
    weight_filler {
      type: "msra"
    }
    bias_filler {
      type: "constant"
    }
    engine: CUDNN
  }
}
layer {
  name: "concat1_5"
  type: "Concat"
  bottom: "concat1_4"
  bottom: "conv1_5/x2"
  top: "concat1_5"
  concat_param {
    axis: 1
  }
}
layer {
  name: "conv1_6/x1/bn"
  type: "BatchNorm"
  bottom: "concat1_5"
  top: "conv1_6/x1/bn"
  param {
    lr_mult: 0
    decay_mult: 0
  }
  param {
    lr_mult: 0
    decay_mult: 0
  }
  param {
    lr_mult: 0
    decay_mult: 0
  }
}
layer {
  name: "conv1_6/x1/scale"
  type: "Scale"
  bottom: "conv1_6/x1/bn"
  top: "conv1_6/x1/bn"
  scale_param {
    filler {
      value: 1
    }
    bias_term: true
    bias_filler {
      value: 0
    }
  }
}
layer {
  name: "relu1_6/x1"
  type: "ReLU"
  bottom: "conv1_6/x1/bn"
  top: "conv1_6/x1/bn"
}
layer {
  name: "conv1_6/x1"
  type: "Convolution"
  bottom: "conv1_6/x1/bn"
  top: "conv1_6/x1"
  convolution_param {
    num_output: 128
    bias_term: false
    pad: 0
    kernel_size: 1
    stride: 1
    weight_filler {
      type: "msra"
    }
    bias_filler {
      type: "constant"
    }
    engine: CUDNN
  }
}
layer {
  name: "conv1_6/x2/bn"
  type: "BatchNorm"
  bottom: "conv1_6/x1"
  top: "conv1_6/x2/bn"
  param {
    lr_mult: 0
    decay_mult: 0
  }
  param {
    lr_mult: 0
    decay_mult: 0
  }
  param {
    lr_mult: 0
    decay_mult: 0
  }
}
layer {
  name: "conv1_6/x2/scale"
  type: "Scale"
  bottom: "conv1_6/x2/bn"
  top: "conv1_6/x2/bn"
  scale_param {
    filler {
      value: 1
    }
    bias_term: true
    bias_filler {
      value: 0
    }
  }
}
layer {
  name: "relu1_6/x2"
  type: "ReLU"
  bottom: "conv1_6/x2/bn"
  top: "conv1_6/x2/bn"
}
layer {
  name: "conv1_6/x2"
  type: "Convolution"
  bottom: "conv1_6/x2/bn"
  top: "conv1_6/x2"
  convolution_param {
    num_output: 32
    bias_term: false
    pad: 1
    kernel_size: 3
    stride: 1
    weight_filler {
      type: "msra"
    }
    bias_filler {
      type: "constant"
    }
    engine: CUDNN
  }
}
layer {
  name: "concat1_6"
  type: "Concat"
  bottom: "concat1_5"
  bottom: "conv1_6/x2"
  top: "concat1_6"
  concat_param {
    axis: 1
  }
}
layer {
  name: "conv1_7/x1/bn"
  type: "BatchNorm"
  bottom: "concat1_6"
  top: "conv1_7/x1/bn"
  param {
    lr_mult: 0
    decay_mult: 0
  }
  param {
    lr_mult: 0
    decay_mult: 0
  }
  param {
    lr_mult: 0
    decay_mult: 0
  }
}
layer {
  name: "conv1_7/x1/scale"
  type: "Scale"
  bottom: "conv1_7/x1/bn"
  top: "conv1_7/x1/bn"
  scale_param {
    filler {
      value: 1
    }
    bias_term: true
    bias_filler {
      value: 0
    }
  }
}
layer {
  name: "relu1_7/x1"
  type: "ReLU"
  bottom: "conv1_7/x1/bn"
  top: "conv1_7/x1/bn"
}
layer {
  name: "conv1_7/x1"
  type: "Convolution"
  bottom: "conv1_7/x1/bn"
  top: "conv1_7/x1"
  convolution_param {
    num_output: 128
    bias_term: false
    pad: 0
    kernel_size: 1
    stride: 1
    weight_filler {
      type: "msra"
    }
    bias_filler {
      type: "constant"
    }
    engine: CUDNN
  }
}
layer {
  name: "conv1_7/x2/bn"
  type: "BatchNorm"
  bottom: "conv1_7/x1"
  top: "conv1_7/x2/bn"
  param {
    lr_mult: 0
    decay_mult: 0
  }
  param {
    lr_mult: 0
    decay_mult: 0
  }
  param {
    lr_mult: 0
    decay_mult: 0
  }
}
layer {
  name: "conv1_7/x2/scale"
  type: "Scale"
  bottom: "conv1_7/x2/bn"
  top: "conv1_7/x2/bn"
  scale_param {
    filler {
      value: 1
    }
    bias_term: true
    bias_filler {
      value: 0
    }
  }
}
layer {
  name: "relu1_7/x2"
  type: "ReLU"
  bottom: "conv1_7/x2/bn"
  top: "conv1_7/x2/bn"
}
layer {
  name: "conv1_7/x2"
  type: "Convolution"
  bottom: "conv1_7/x2/bn"
  top: "conv1_7/x2"
  convolution_param {
    num_output: 32
    bias_term: false
    pad: 1
    kernel_size: 3
    stride: 1
    weight_filler {
      type: "msra"
    }
    bias_filler {
      type: "constant"
    }
    engine: CUDNN
  }
}
layer {
  name: "concat1_7"
  type: "Concat"
  bottom: "concat1_6"
  bottom: "conv1_7/x2"
  top: "concat1_7"
  concat_param {
    axis: 1
  }
}
layer {
  name: "conv1_8/x1/bn"
  type: "BatchNorm"
  bottom: "concat1_7"
  top: "conv1_8/x1/bn"
  param {
    lr_mult: 0
    decay_mult: 0
  }
  param {
    lr_mult: 0
    decay_mult: 0
  }
  param {
    lr_mult: 0
    decay_mult: 0
  }
}
layer {
  name: "conv1_8/x1/scale"
  type: "Scale"
  bottom: "conv1_8/x1/bn"
  top: "conv1_8/x1/bn"
  scale_param {
    filler {
      value: 1
    }
    bias_term: true
    bias_filler {
      value: 0
    }
  }
}
layer {
  name: "relu1_8/x1"
  type: "ReLU"
  bottom: "conv1_8/x1/bn"
  top: "conv1_8/x1/bn"
}
layer {
  name: "conv1_8/x1"
  type: "Convolution"
  bottom: "conv1_8/x1/bn"
  top: "conv1_8/x1"
  convolution_param {
    num_output: 128
    bias_term: false
    pad: 0
    kernel_size: 1
    stride: 1
    weight_filler {
      type: "msra"
    }
    bias_filler {
      type: "constant"
    }
    engine: CUDNN
  }
}
layer {
  name: "conv1_8/x2/bn"
  type: "BatchNorm"
  bottom: "conv1_8/x1"
  top: "conv1_8/x2/bn"
  param 
I0222 09:49:09.966437 22224 layer_factory.hpp:77] Creating layer word_images
I0222 09:49:09.966563 22224 db_lmdb.cpp:35] Opened lmdb /data/fwolf/iam_60x160/iam-db_nti500000_pul2-3-4-5_train_word_images_lmdb
I0222 09:49:09.966629 22224 net.cpp:84] Creating Layer word_images
I0222 09:49:09.966640 22224 net.cpp:380] word_images -> word_images
I0222 09:49:09.966658 22224 net.cpp:380] word_images -> label
I0222 09:49:09.969852 22224 data_layer.cpp:44] output data size: 1,1,60,160
I0222 09:49:09.975728 22224 net.cpp:122] Setting up word_images
I0222 09:49:09.975754 22224 net.cpp:129] Top shape: 1 1 60 160 (9600)
I0222 09:49:09.975764 22224 net.cpp:129] Top shape: 1 (1)
I0222 09:49:09.975769 22224 net.cpp:137] Memory required for data: 38404
I0222 09:49:09.975780 22224 layer_factory.hpp:77] Creating layer phocs
I0222 09:49:09.975879 22224 db_lmdb.cpp:35] Opened lmdb /data/fwolf/iam_60x160/iam-db_nti500000_pul2-3-4-5_train_phocs_lmdb
I0222 09:49:09.975941 22224 net.cpp:84] Creating Layer phocs
I0222 09:49:09.975956 22224 net.cpp:380] phocs -> phocs
I0222 09:49:09.975971 22224 net.cpp:380] phocs -> label_phocs
I0222 09:49:09.976718 22224 data_layer.cpp:44] output data size: 1,1,1,618
I0222 09:49:09.984417 22224 net.cpp:122] Setting up phocs
I0222 09:49:09.984441 22224 net.cpp:129] Top shape: 1 1 1 618 (618)
I0222 09:49:09.984450 22224 net.cpp:129] Top shape: 1 (1)
I0222 09:49:09.984455 22224 net.cpp:137] Memory required for data: 40880
I0222 09:49:09.984462 22224 layer_factory.hpp:77] Creating layer conv_init
I0222 09:49:09.984483 22224 net.cpp:84] Creating Layer conv_init
I0222 09:49:09.984490 22224 net.cpp:406] conv_init <- word_images
I0222 09:49:09.984504 22224 net.cpp:380] conv_init -> conv_init
I0222 09:49:10.749596 22224 net.cpp:122] Setting up conv_init
I0222 09:49:10.749632 22224 net.cpp:129] Top shape: 1 64 30 80 (153600)
I0222 09:49:10.749639 22224 net.cpp:137] Memory required for data: 655280
I0222 09:49:10.749652 22224 layer_factory.hpp:77] Creating layer bn_init
I0222 09:49:10.749665 22224 net.cpp:84] Creating Layer bn_init
I0222 09:49:10.749670 22224 net.cpp:406] bn_init <- conv_init
I0222 09:49:10.749678 22224 net.cpp:380] bn_init -> bn_init
I0222 09:49:10.750107 22224 net.cpp:122] Setting up bn_init
I0222 09:49:10.750118 22224 net.cpp:129] Top shape: 1 64 30 80 (153600)
I0222 09:49:10.750121 22224 net.cpp:137] Memory required for data: 1269680
I0222 09:49:10.750134 22224 layer_factory.hpp:77] Creating layer scale_init
I0222 09:49:10.750146 22224 net.cpp:84] Creating Layer scale_init
I0222 09:49:10.750150 22224 net.cpp:406] scale_init <- bn_init
I0222 09:49:10.750156 22224 net.cpp:367] scale_init -> bn_init (in-place)
I0222 09:49:10.750226 22224 layer_factory.hpp:77] Creating layer scale_init
I0222 09:49:10.750447 22224 net.cpp:122] Setting up scale_init
I0222 09:49:10.750457 22224 net.cpp:129] Top shape: 1 64 30 80 (153600)
I0222 09:49:10.750460 22224 net.cpp:137] Memory required for data: 1884080
I0222 09:49:10.750468 22224 layer_factory.hpp:77] Creating layer relu_init
I0222 09:49:10.750476 22224 net.cpp:84] Creating Layer relu_init
I0222 09:49:10.750480 22224 net.cpp:406] relu_init <- bn_init
I0222 09:49:10.750485 22224 net.cpp:367] relu_init -> bn_init (in-place)
I0222 09:49:10.751828 22224 net.cpp:122] Setting up relu_init
I0222 09:49:10.751844 22224 net.cpp:129] Top shape: 1 64 30 80 (153600)
I0222 09:49:10.751849 22224 net.cpp:137] Memory required for data: 2498480
I0222 09:49:10.751853 22224 layer_factory.hpp:77] Creating layer pool_init
I0222 09:49:10.751863 22224 net.cpp:84] Creating Layer pool_init
I0222 09:49:10.751866 22224 net.cpp:406] pool_init <- bn_init
I0222 09:49:10.751873 22224 net.cpp:380] pool_init -> pool_init
I0222 09:49:10.751958 22224 net.cpp:122] Setting up pool_init
I0222 09:49:10.751966 22224 net.cpp:129] Top shape: 1 64 16 41 (41984)
I0222 09:49:10.751971 22224 net.cpp:137] Memory required for data: 2666416
I0222 09:49:10.751973 22224 layer_factory.hpp:77] Creating layer pool_init_pool_init_0_split
I0222 09:49:10.751981 22224 net.cpp:84] Creating Layer pool_init_pool_init_0_split
I0222 09:49:10.751984 22224 net.cpp:406] pool_init_pool_init_0_split <- pool_init
I0222 09:49:10.751991 22224 net.cpp:380] pool_init_pool_init_0_split -> pool_init_pool_init_0_split_0
I0222 09:49:10.751997 22224 net.cpp:380] pool_init_pool_init_0_split -> pool_init_pool_init_0_split_1
I0222 09:49:10.752056 22224 net.cpp:122] Setting up pool_init_pool_init_0_split
I0222 09:49:10.752063 22224 net.cpp:129] Top shape: 1 64 16 41 (41984)
I0222 09:49:10.752068 22224 net.cpp:129] Top shape: 1 64 16 41 (41984)
I0222 09:49:10.752073 22224 net.cpp:137] Memory required for data: 3002288
I0222 09:49:10.752075 22224 layer_factory.hpp:77] Creating layer conv0_0/x1/bn
I0222 09:49:10.752084 22224 net.cpp:84] Creating Layer conv0_0/x1/bn
I0222 09:49:10.752092 22224 net.cpp:406] conv0_0/x1/bn <- pool_init_pool_init_0_split_0
I0222 09:49:10.752099 22224 net.cpp:380] conv0_0/x1/bn -> conv0_0/x1/bn
I0222 09:49:10.752475 22224 net.cpp:122] Setting up conv0_0/x1/bn
I0222 09:49:10.752483 22224 net.cpp:129] Top shape: 1 64 16 41 (41984)
I0222 09:49:10.752487 22224 net.cpp:137] Memory required for data: 3170224
I0222 09:49:10.752499 22224 layer_factory.hpp:77] Creating layer conv0_0/x1/scale
I0222 09:49:10.752507 22224 net.cpp:84] Creating Layer conv0_0/x1/scale
I0222 09:49:10.752511 22224 net.cpp:406] conv0_0/x1/scale <- conv0_0/x1/bn
I0222 09:49:10.752516 22224 net.cpp:367] conv0_0/x1/scale -> conv0_0/x1/bn (in-place)
I0222 09:49:10.752578 22224 layer_factory.hpp:77] Creating layer conv0_0/x1/scale
I0222 09:49:10.752792 22224 net.cpp:122] Setting up conv0_0/x1/scale
I0222 09:49:10.752801 22224 net.cpp:129] Top shape: 1 64 16 41 (41984)
I0222 09:49:10.752805 22224 net.cpp:137] Memory required for data: 3338160
I0222 09:49:10.752812 22224 layer_factory.hpp:77] Creating layer relu0_0/x1
I0222 09:49:10.752820 22224 net.cpp:84] Creating Layer relu0_0/x1
I0222 09:49:10.752823 22224 net.cpp:406] relu0_0/x1 <- conv0_0/x1/bn
I0222 09:49:10.752828 22224 net.cpp:367] relu0_0/x1 -> conv0_0/x1/bn (in-place)
I0222 09:49:10.753051 22224 net.cpp:122] Setting up relu0_0/x1
I0222 09:49:10.753062 22224 net.cpp:129] Top shape: 1 64 16 41 (41984)
I0222 09:49:10.753065 22224 net.cpp:137] Memory required for data: 3506096
I0222 09:49:10.753070 22224 layer_factory.hpp:77] Creating layer conv0_0/x1
I0222 09:49:10.753082 22224 net.cpp:84] Creating Layer conv0_0/x1
I0222 09:49:10.753087 22224 net.cpp:406] conv0_0/x1 <- conv0_0/x1/bn
I0222 09:49:10.753093 22224 net.cpp:380] conv0_0/x1 -> conv0_0/x1
I0222 09:49:10.755455 22224 net.cpp:122] Setting up conv0_0/x1
I0222 09:49:10.755472 22224 net.cpp:129] Top shape: 1 128 16 41 (83968)
I0222 09:49:10.755476 22224 net.cpp:137] Memory required for data: 3841968
I0222 09:49:10.755483 22224 layer_factory.hpp:77] Creating layer conv0_0/x2/bn
I0222 09:49:10.755491 22224 net.cpp:84] Creating Layer conv0_0/x2/bn
I0222 09:49:10.755496 22224 net.cpp:406] conv0_0/x2/bn <- conv0_0/x1
I0222 09:49:10.755502 22224 net.cpp:380] conv0_0/x2/bn -> conv0_0/x2/bn
I0222 09:49:10.755857 22224 net.cpp:122] Setting up conv0_0/x2/bn
I0222 09:49:10.755865 22224 net.cpp:129] Top shape: 1 128 16 41 (83968)
I0222 09:49:10.755869 22224 net.cpp:137] Memory required for data: 4177840
I0222 09:49:10.755877 22224 layer_factory.hpp:77] Creating layer conv0_0/x2/scale
I0222 09:49:10.755885 22224 net.cpp:84] Creating Layer conv0_0/x2/scale
I0222 09:49:10.755889 22224 net.cpp:406] conv0_0/x2/scale <- conv0_0/x2/bn
I0222 09:49:10.755894 22224 net.cpp:367] conv0_0/x2/scale -> conv0_0/x2/bn (in-place)
I0222 09:49:10.755954 22224 layer_factory.hpp:77] Creating layer conv0_0/x2/scale
I0222 09:49:10.756142 22224 net.cpp:122] Setting up conv0_0/x2/scale
I0222 09:49:10.756150 22224 net.cpp:129] Top shape: 1 128 16 41 (83968)
I0222 09:49:10.756155 22224 net.cpp:137] Memory required for data: 4513712
I0222 09:49:10.756165 22224 layer_factory.hpp:77] Creating layer relu0_0/x2
I0222 09:49:10.756170 22224 net.cpp:84] Creating Layer relu0_0/x2
I0222 09:49:10.756175 22224 net.cpp:406] relu0_0/x2 <- conv0_0/x2/bn
I0222 09:49:10.756180 22224 net.cpp:367] relu0_0/x2 -> conv0_0/x2/bn (in-place)
I0222 09:49:10.756407 22224 net.cpp:122] Setting up relu0_0/x2
I0222 09:49:10.756415 22224 net.cpp:129] Top shape: 1 128 16 41 (83968)
I0222 09:49:10.756420 22224 net.cpp:137] Memory required for data: 4849584
I0222 09:49:10.756424 22224 layer_factory.hpp:77] Creating layer conv0_0/x2
I0222 09:49:10.756435 22224 net.cpp:84] Creating Layer conv0_0/x2
I0222 09:49:10.756439 22224 net.cpp:406] conv0_0/x2 <- conv0_0/x2/bn
I0222 09:49:10.756445 22224 net.cpp:380] conv0_0/x2 -> conv0_0/x2
I0222 09:49:10.762807 22224 net.cpp:122] Setting up conv0_0/x2
I0222 09:49:10.762825 22224 net.cpp:129] Top shape: 1 32 16 41 (20992)
I0222 09:49:10.762828 22224 net.cpp:137] Memory required for data: 4933552
I0222 09:49:10.762840 22224 layer_factory.hpp:77] Creating layer concat0_0
I0222 09:49:10.762850 22224 net.cpp:84] Creating Layer concat0_0
I0222 09:49:10.762854 22224 net.cpp:406] concat0_0 <- pool_init_pool_init_0_split_1
I0222 09:49:10.762859 22224 net.cpp:406] concat0_0 <- conv0_0/x2
I0222 09:49:10.762866 22224 net.cpp:380] concat0_0 -> concat0_0
I0222 09:49:10.762914 22224 net.cpp:122] Setting up concat0_0
I0222 09:49:10.762923 22224 net.cpp:129] Top shape: 1 96 16 41 (62976)
I0222 09:49:10.762926 22224 net.cpp:137] Memory required for data: 5185456
I0222 09:49:10.762929 22224 layer_factory.hpp:77] Creating layer concat0_0_concat0_0_0_split
I0222 09:49:10.762935 22224 net.cpp:84] Creating Layer concat0_0_concat0_0_0_split
I0222 09:49:10.762939 22224 net.cpp:406] concat0_0_concat0_0_0_split <- concat0_0
I0222 09:49:10.762944 22224 net.cpp:380] concat0_0_concat0_0_0_split -> concat0_0_concat0_0_0_split_0
I0222 09:49:10.762951 22224 net.cpp:380] concat0_0_concat0_0_0_split -> concat0_0_concat0_0_0_split_1
I0222 09:49:10.763010 22224 net.cpp:122] Setting up concat0_0_concat0_0_0_split
I0222 09:49:10.763017 22224 net.cpp:129] Top shape: 1 96 16 41 (62976)
I0222 09:49:10.763021 22224 net.cpp:129] Top shape: 1 96 16 41 (62976)
I0222 09:49:10.763025 22224 net.cpp:137] Memory required for data: 5689264
I0222 09:49:10.763028 22224 layer_factory.hpp:77] Creating layer conv0_1/x1/bn
I0222 09:49:10.763036 22224 net.cpp:84] Creating Layer conv0_1/x1/bn
I0222 09:49:10.763039 22224 net.cpp:406] conv0_1/x1/bn <- concat0_0_concat0_0_0_split_0
I0222 09:49:10.763044 22224 net.cpp:380] conv0_1/x1/bn -> conv0_1/x1/bn
I0222 09:49:10.763419 22224 net.cpp:122] Setting up conv0_1/x1/bn
I0222 09:49:10.763428 22224 net.cpp:129] Top shape: 1 96 16 41 (62976)
I0222 09:49:10.763432 22224 net.cpp:137] Memory required for data: 5941168
I0222 09:49:10.763440 22224 layer_factory.hpp:77] Creating layer conv0_1/x1/scale
I0222 09:49:10.763447 22224 net.cpp:84] Creating Layer conv0_1/x1/scale
I0222 09:49:10.763453 22224 net.cpp:406] conv0_1/x1/scale <- conv0_1/x1/bn
I0222 09:49:10.763458 22224 net.cpp:367] conv0_1/x1/scale -> conv0_1/x1/bn (in-place)
I0222 09:49:10.763520 22224 layer_factory.hpp:77] Creating layer conv0_1/x1/scale
I0222 09:49:10.763731 22224 net.cpp:122] Setting up conv0_1/x1/scale
I0222 09:49:10.763738 22224 net.cpp:129] Top shape: 1 96 16 41 (62976)
I0222 09:49:10.763742 22224 net.cpp:137] Memory required for data: 6193072
I0222 09:49:10.763748 22224 layer_factory.hpp:77] Creating layer relu0_1/x1
I0222 09:49:10.763756 22224 net.cpp:84] Creating Layer relu0_1/x1
I0222 09:49:10.763759 22224 net.cpp:406] relu0_1/x1 <- conv0_1/x1/bn
I0222 09:49:10.763764 22224 net.cpp:367] relu0_1/x1 -> conv0_1/x1/bn (in-place)
I0222 09:49:10.765067 22224 net.cpp:122] Setting up relu0_1/x1
I0222 09:49:10.765082 22224 net.cpp:129] Top shape: 1 96 16 41 (62976)
I0222 09:49:10.765087 22224 net.cpp:137] Memory required for data: 6444976
I0222 09:49:10.765091 22224 layer_factory.hpp:77] Creating layer conv0_1/x1
I0222 09:49:10.765102 22224 net.cpp:84] Creating Layer conv0_1/x1
I0222 09:49:10.765107 22224 net.cpp:406] conv0_1/x1 <- conv0_1/x1/bn
I0222 09:49:10.765115 22224 net.cpp:380] conv0_1/x1 -> conv0_1/x1
I0222 09:49:10.767588 22224 net.cpp:122] Setting up conv0_1/x1
I0222 09:49:10.767604 22224 net.cpp:129] Top shape: 1 128 16 41 (83968)
I0222 09:49:10.767609 22224 net.cpp:137] Memory required for data: 6780848
I0222 09:49:10.767616 22224 layer_factory.hpp:77] Creating layer conv0_1/x2/bn
I0222 09:49:10.767624 22224 net.cpp:84] Creating Layer conv0_1/x2/bn
I0222 09:49:10.767629 22224 net.cpp:406] conv0_1/x2/bn <- conv0_1/x1
I0222 09:49:10.767635 22224 net.cpp:380] conv0_1/x2/bn -> conv0_1/x2/bn
I0222 09:49:10.768005 22224 net.cpp:122] Setting up conv0_1/x2/bn
I0222 09:49:10.768013 22224 net.cpp:129] Top shape: 1 128 16 41 (83968)
I0222 09:49:10.768018 22224 net.cpp:137] Memory required for data: 7116720
I0222 09:49:10.768025 22224 layer_factory.hpp:77] Creating layer conv0_1/x2/scale
I0222 09:49:10.768033 22224 net.cpp:84] Creating Layer conv0_1/x2/scale
I0222 09:49:10.768040 22224 net.cpp:406] conv0_1/x2/scale <- conv0_1/x2/bn
I0222 09:49:10.768046 22224 net.cpp:367] conv0_1/x2/scale -> conv0_1/x2/bn (in-place)
I0222 09:49:10.768108 22224 layer_factory.hpp:77] Creating layer conv0_1/x2/scale
I0222 09:49:10.768301 22224 net.cpp:122] Setting up conv0_1/x2/scale
I0222 09:49:10.768311 22224 net.cpp:129] Top shape: 1 128 16 41 (83968)
I0222 09:49:10.768313 22224 net.cpp:137] Memory required for data: 7452592
I0222 09:49:10.768321 22224 layer_factory.hpp:77] Creating layer relu0_1/x2
I0222 09:49:10.768326 22224 net.cpp:84] Creating Layer relu0_1/x2
I0222 09:49:10.768330 22224 net.cpp:406] relu0_1/x2 <- conv0_1/x2/bn
I0222 09:49:10.768335 22224 net.cpp:367] relu0_1/x2 -> conv0_1/x2/bn (in-place)
I0222 09:49:10.768560 22224 net.cpp:122] Setting up relu0_1/x2
I0222 09:49:10.768569 22224 net.cpp:129] Top shape: 1 128 16 41 (83968)
I0222 09:49:10.768573 22224 net.cpp:137] Memory required for data: 7788464
I0222 09:49:10.768577 22224 layer_factory.hpp:77] Creating layer conv0_1/x2
I0222 09:49:10.768587 22224 net.cpp:84] Creating Layer conv0_1/x2
I0222 09:49:10.768591 22224 net.cpp:406] conv0_1/x2 <- conv0_1/x2/bn
I0222 09:49:10.768599 22224 net.cpp:380] conv0_1/x2 -> conv0_1/x2
I0222 09:49:10.771860 22224 net.cpp:122] Setting up conv0_1/x2
I0222 09:49:10.771877 22224 net.cpp:129] Top shape: 1 32 16 41 (20992)
I0222 09:49:10.771880 22224 net.cpp:137] Memory required for data: 7872432
I0222 09:49:10.771888 22224 layer_factory.hpp:77] Creating layer concat0_1
I0222 09:49:10.771895 22224 net.cpp:84] Creating Layer concat0_1
I0222 09:49:10.771900 22224 net.cpp:406] concat0_1 <- concat0_0_concat0_0_0_split_1
I0222 09:49:10.771906 22224 net.cpp:406] concat0_1 <- conv0_1/x2
I0222 09:49:10.771912 22224 net.cpp:380] concat0_1 -> concat0_1
I0222 09:49:10.771955 22224 net.cpp:122] Setting up concat0_1
I0222 09:49:10.771962 22224 net.cpp:129] Top shape: 1 128 16 41 (83968)
I0222 09:49:10.771965 22224 net.cpp:137] Memory required for data: 8208304
I0222 09:49:10.771970 22224 layer_factory.hpp:77] Creating layer concat0_1_concat0_1_0_split
I0222 09:49:10.771975 22224 net.cpp:84] Creating Layer concat0_1_concat0_1_0_split
I0222 09:49:10.771980 22224 net.cpp:406] concat0_1_concat0_1_0_split <- concat0_1
I0222 09:49:10.771986 22224 net.cpp:380] concat0_1_concat0_1_0_split -> concat0_1_concat0_1_0_split_0
I0222 09:49:10.771992 22224 net.cpp:380] concat0_1_concat0_1_0_split -> concat0_1_concat0_1_0_split_1
I0222 09:49:10.772049 22224 net.cpp:122] Setting up concat0_1_concat0_1_0_split
I0222 09:49:10.772055 22224 net.cpp:129] Top shape: 1 128 16 41 (83968)
I0222 09:49:10.772060 22224 net.cpp:129] Top shape: 1 128 16 41 (83968)
I0222 09:49:10.772063 22224 net.cpp:137] Memory required for data: 8880048
I0222 09:49:10.772068 22224 layer_factory.hpp:77] Creating layer conv0_2/x1/bn
I0222 09:49:10.772074 22224 net.cpp:84] Creating Layer conv0_2/x1/bn
I0222 09:49:10.772078 22224 net.cpp:406] conv0_2/x1/bn <- concat0_1_concat0_1_0_split_0
I0222 09:49:10.772083 22224 net.cpp:380] conv0_2/x1/bn -> conv0_2/x1/bn
I0222 09:49:10.772435 22224 net.cpp:122] Setting up conv0_2/x1/bn
I0222 09:49:10.772444 22224 net.cpp:129] Top shape: 1 128 16 41 (83968)
I0222 09:49:10.772447 22224 net.cpp:137] Memory required for data: 9215920
I0222 09:49:10.772459 22224 layer_factory.hpp:77] Creating layer conv0_2/x1/scale
I0222 09:49:10.772466 22224 net.cpp:84] Creating Layer conv0_2/x1/scale
I0222 09:49:10.772471 22224 net.cpp:406] conv0_2/x1/scale <- conv0_2/x1/bn
I0222 09:49:10.772476 22224 net.cpp:367] conv0_2/x1/scale -> conv0_2/x1/bn (in-place)
I0222 09:49:10.772536 22224 layer_factory.hpp:77] Creating layer conv0_2/x1/scale
I0222 09:49:10.772735 22224 net.cpp:122] Setting up conv0_2/x1/scale
I0222 09:49:10.772743 22224 net.cpp:129] Top shape: 1 128 16 41 (83968)
I0222 09:49:10.772747 22224 net.cpp:137] Memory required for data: 9551792
I0222 09:49:10.772754 22224 layer_factory.hpp:77] Creating layer relu0_2/x1
I0222 09:49:10.772761 22224 net.cpp:84] Creating Layer relu0_2/x1
I0222 09:49:10.772764 22224 net.cpp:406] relu0_2/x1 <- conv0_2/x1/bn
I0222 09:49:10.772773 22224 net.cpp:367] relu0_2/x1 -> conv0_2/x1/bn (in-place)
I0222 09:49:10.772994 22224 net.cpp:122] Setting up relu0_2/x1
I0222 09:49:10.773002 22224 net.cpp:129] Top shape: 1 128 16 41 (83968)
I0222 09:49:10.773006 22224 net.cpp:137] Memory required for data: 9887664
I0222 09:49:10.773011 22224 layer_factory.hpp:77] Creating layer conv0_2/x1
I0222 09:49:10.773020 22224 net.cpp:84] Creating Layer conv0_2/x1
I0222 09:49:10.773025 22224 net.cpp:406] conv0_2/x1 <- conv0_2/x1/bn
I0222 09:49:10.773031 22224 net.cpp:380] conv0_2/x1 -> conv0_2/x1
I0222 09:49:10.775629 22224 net.cpp:122] Setting up conv0_2/x1
I0222 09:49:10.775645 22224 net.cpp:129] Top shape: 1 128 16 41 (83968)
I0222 09:49:10.775650 22224 net.cpp:137] Memory required for data: 10223536
I0222 09:49:10.775656 22224 layer_factory.hpp:77] Creating layer conv0_2/x2/bn
I0222 09:49:10.775665 22224 net.cpp:84] Creating Layer conv0_2/x2/bn
I0222 09:49:10.775671 22224 net.cpp:406] conv0_2/x2/bn <- conv0_2/x1
I0222 09:49:10.775676 22224 net.cpp:380] conv0_2/x2/bn -> conv0_2/x2/bn
I0222 09:49:10.776047 22224 net.cpp:122] Setting up conv0_2/x2/bn
I0222 09:49:10.776055 22224 net.cpp:129] Top shape: 1 128 16 41 (83968)
I0222 09:49:10.776059 22224 net.cpp:137] Memory required for data: 10559408
I0222 09:49:10.776068 22224 layer_factory.hpp:77] Creating layer conv0_2/x2/scale
I0222 09:49:10.776075 22224 net.cpp:84] Creating Layer conv0_2/x2/scale
I0222 09:49:10.776079 22224 net.cpp:406] conv0_2/x2/scale <- conv0_2/x2/bn
I0222 09:49:10.776085 22224 net.cpp:367] conv0_2/x2/scale -> conv0_2/x2/bn (in-place)
I0222 09:49:10.776149 22224 layer_factory.hpp:77] Creating layer conv0_2/x2/scale
I0222 09:49:10.776345 22224 net.cpp:122] Setting up conv0_2/x2/scale
I0222 09:49:10.776352 22224 net.cpp:129] Top shape: 1 128 16 41 (83968)
I0222 09:49:10.776356 22224 net.cpp:137] Memory required for data: 10895280
I0222 09:49:10.776363 22224 layer_factory.hpp:77] Creating layer relu0_2/x2
I0222 09:49:10.776370 22224 net.cpp:84] Creating Layer relu0_2/x2
I0222 09:49:10.776373 22224 net.cpp:406] relu0_2/x2 <- conv0_2/x2/bn
I0222 09:49:10.776378 22224 net.cpp:367] relu0_2/x2 -> conv0_2/x2/bn (in-place)
I0222 09:49:10.777698 22224 net.cpp:122] Setting up relu0_2/x2
I0222 09:49:10.777712 22224 net.cpp:129] Top shape: 1 128 16 41 (83968)
I0222 09:49:10.777717 22224 net.cpp:137] Memory required for data: 11231152
I0222 09:49:10.777721 22224 layer_factory.hpp:77] Creating layer conv0_2/x2
I0222 09:49:10.777734 22224 net.cpp:84] Creating Layer conv0_2/x2
I0222 09:49:10.777737 22224 net.cpp:406] conv0_2/x2 <- conv0_2/x2/bn
I0222 09:49:10.777745 22224 net.cpp:380] conv0_2/x2 -> conv0_2/x2
I0222 09:49:10.782124 22224 net.cpp:122] Setting up conv0_2/x2
I0222 09:49:10.782140 22224 net.cpp:129] Top shape: 1 32 16 41 (20992)
I0222 09:49:10.782145 22224 net.cpp:137] Memory required for data: 11315120
I0222 09:49:10.782152 22224 layer_factory.hpp:77] Creating layer concat0_2
I0222 09:49:10.782160 22224 net.cpp:84] Creating Layer concat0_2
I0222 09:49:10.782166 22224 net.cpp:406] concat0_2 <- concat0_1_concat0_1_0_split_1
I0222 09:49:10.782171 22224 net.cpp:406] concat0_2 <- conv0_2/x2
I0222 09:49:10.782176 22224 net.cpp:380] concat0_2 -> concat0_2
I0222 09:49:10.782227 22224 net.cpp:122] Setting up concat0_2
I0222 09:49:10.782234 22224 net.cpp:129] Top shape: 1 160 16 41 (104960)
I0222 09:49:10.782238 22224 net.cpp:137] Memory required for data: 11734960
I0222 09:49:10.782243 22224 layer_factory.hpp:77] Creating layer concat0_2_concat0_2_0_split
I0222 09:49:10.782248 22224 net.cpp:84] Creating Layer concat0_2_concat0_2_0_split
I0222 09:49:10.782251 22224 net.cpp:406] concat0_2_concat0_2_0_split <- concat0_2
I0222 09:49:10.782258 22224 net.cpp:380] concat0_2_concat0_2_0_split -> concat0_2_concat0_2_0_split_0
I0222 09:49:10.782264 22224 net.cpp:380] concat0_2_concat0_2_0_split -> concat0_2_concat0_2_0_split_1
I0222 09:49:10.782327 22224 net.cpp:122] Setting up concat0_2_concat0_2_0_split
I0222 09:49:10.782333 22224 net.cpp:129] Top shape: 1 160 16 41 (104960)
I0222 09:49:10.782342 22224 net.cpp:129] Top shape: 1 160 16 41 (104960)
I0222 09:49:10.782346 22224 net.cpp:137] Memory required for data: 12574640
I0222 09:49:10.782349 22224 layer_factory.hpp:77] Creating layer conv0_3/x1/bn
I0222 09:49:10.782356 22224 net.cpp:84] Creating Layer conv0_3/x1/bn
I0222 09:49:10.782359 22224 net.cpp:406] conv0_3/x1/bn <- concat0_2_concat0_2_0_split_0
I0222 09:49:10.782366 22224 net.cpp:380] conv0_3/x1/bn -> conv0_3/x1/bn
I0222 09:49:10.782749 22224 net.cpp:122] Setting up conv0_3/x1/bn
I0222 09:49:10.782757 22224 net.cpp:129] Top shape: 1 160 16 41 (104960)
I0222 09:49:10.782761 22224 net.cpp:137] Memory required for data: 12994480
I0222 09:49:10.782770 22224 layer_factory.hpp:77] Creating layer conv0_3/x1/scale
I0222 09:49:10.782778 22224 net.cpp:84] Creating Layer conv0_3/x1/scale
I0222 09:49:10.782781 22224 net.cpp:406] conv0_3/x1/scale <- conv0_3/x1/bn
I0222 09:49:10.782788 22224 net.cpp:367] conv0_3/x1/scale -> conv0_3/x1/bn (in-place)
I0222 09:49:10.782850 22224 layer_factory.hpp:77] Creating layer conv0_3/x1/scale
I0222 09:49:10.783058 22224 net.cpp:122] Setting up conv0_3/x1/scale
I0222 09:49:10.783066 22224 net.cpp:129] Top shape: 1 160 16 41 (104960)
I0222 09:49:10.783071 22224 net.cpp:137] Memory required for data: 13414320
I0222 09:49:10.783077 22224 layer_factory.hpp:77] Creating layer relu0_3/x1
I0222 09:49:10.783083 22224 net.cpp:84] Creating Layer relu0_3/x1
I0222 09:49:10.783087 22224 net.cpp:406] relu0_3/x1 <- conv0_3/x1/bn
I0222 09:49:10.783092 22224 net.cpp:367] relu0_3/x1 -> conv0_3/x1/bn (in-place)
I0222 09:49:10.783320 22224 net.cpp:122] Setting up relu0_3/x1
I0222 09:49:10.783330 22224 net.cpp:129] Top shape: 1 160 16 41 (104960)
I0222 09:49:10.783334 22224 net.cpp:137] Memory required for data: 13834160
I0222 09:49:10.783339 22224 layer_factory.hpp:77] Creating layer conv0_3/x1
I0222 09:49:10.783349 22224 net.cpp:84] Creating Layer conv0_3/x1
I0222 09:49:10.783352 22224 net.cpp:406] conv0_3/x1 <- conv0_3/x1/bn
I0222 09:49:10.783360 22224 net.cpp:380] conv0_3/x1 -> conv0_3/x1
I0222 09:49:10.786201 22224 net.cpp:122] Setting up conv0_3/x1
I0222 09:49:10.786216 22224 net.cpp:129] Top shape: 1 128 16 41 (83968)
I0222 09:49:10.786221 22224 net.cpp:137] Memory required for data: 14170032
I0222 09:49:10.786228 22224 layer_factory.hpp:77] Creating layer conv0_3/x2/bn
I0222 09:49:10.786237 22224 net.cpp:84] Creating Layer conv0_3/x2/bn
I0222 09:49:10.786242 22224 net.cpp:406] conv0_3/x2/bn <- conv0_3/x1
I0222 09:49:10.786248 22224 net.cpp:380] conv0_3/x2/bn -> conv0_3/x2/bn
I0222 09:49:10.786617 22224 net.cpp:122] Setting up conv0_3/x2/bn
I0222 09:49:10.786626 22224 net.cpp:129] Top shape: 1 128 16 41 (83968)
I0222 09:49:10.786630 22224 net.cpp:137] Memory required for data: 14505904
I0222 09:49:10.786639 22224 layer_factory.hpp:77] Creating layer conv0_3/x2/scale
I0222 09:49:10.786646 22224 net.cpp:84] Creating Layer conv0_3/x2/scale
I0222 09:49:10.786650 22224 net.cpp:406] conv0_3/x2/scale <- conv0_3/x2/bn
I0222 09:49:10.786656 22224 net.cpp:367] conv0_3/x2/scale -> conv0_3/x2/bn (in-place)
I0222 09:49:10.786718 22224 layer_factory.hpp:77] Creating layer conv0_3/x2/scale
I0222 09:49:10.786911 22224 net.cpp:122] Setting up conv0_3/x2/scale
I0222 09:49:10.786919 22224 net.cpp:129] Top shape: 1 128 16 41 (83968)
I0222 09:49:10.786923 22224 net.cpp:137] Memory required for data: 14841776
I0222 09:49:10.786931 22224 layer_factory.hpp:77] Creating layer relu0_3/x2
I0222 09:49:10.786936 22224 net.cpp:84] Creating Layer relu0_3/x2
I0222 09:49:10.786940 22224 net.cpp:406] relu0_3/x2 <- conv0_3/x2/bn
I0222 09:49:10.786945 22224 net.cpp:367] relu0_3/x2 -> conv0_3/x2/bn (in-place)
I0222 09:49:10.787179 22224 net.cpp:122] Setting up relu0_3/x2
I0222 09:49:10.787189 22224 net.cpp:129] Top shape: 1 128 16 41 (83968)
I0222 09:49:10.787194 22224 net.cpp:137] Memory required for data: 15177648
I0222 09:49:10.787197 22224 layer_factory.hpp:77] Creating layer conv0_3/x2
I0222 09:49:10.787207 22224 net.cpp:84] Creating Layer conv0_3/x2
I0222 09:49:10.787211 22224 net.cpp:406] conv0_3/x2 <- conv0_3/x2/bn
I0222 09:49:10.787221 22224 net.cpp:380] conv0_3/x2 -> conv0_3/x2
I0222 09:49:10.791625 22224 net.cpp:122] Setting up conv0_3/x2
I0222 09:49:10.791642 22224 net.cpp:129] Top shape: 1 32 16 41 (20992)
I0222 09:49:10.791646 22224 net.cpp:137] Memory required for data: 15261616
I0222 09:49:10.791653 22224 layer_factory.hpp:77] Creating layer concat0_3
I0222 09:49:10.791661 22224 net.cpp:84] Creating Layer concat0_3
I0222 09:49:10.791666 22224 net.cpp:406] concat0_3 <- concat0_2_concat0_2_0_split_1
I0222 09:49:10.791672 22224 net.cpp:406] concat0_3 <- conv0_3/x2
I0222 09:49:10.791678 22224 net.cpp:380] concat0_3 -> concat0_3
I0222 09:49:10.791723 22224 net.cpp:122] Setting up concat0_3
I0222 09:49:10.791730 22224 net.cpp:129] Top shape: 1 192 16 41 (125952)
I0222 09:49:10.791733 22224 net.cpp:137] Memory required for data: 15765424
I0222 09:49:10.791738 22224 layer_factory.hpp:77] Creating layer concat0_3_concat0_3_0_split
I0222 09:49:10.791743 22224 net.cpp:84] Creating Layer concat0_3_concat0_3_0_split
I0222 09:49:10.791748 22224 net.cpp:406] concat0_3_concat0_3_0_split <- concat0_3
I0222 09:49:10.791754 22224 net.cpp:380] concat0_3_concat0_3_0_split -> concat0_3_concat0_3_0_split_0
I0222 09:49:10.791760 22224 net.cpp:380] concat0_3_concat0_3_0_split -> concat0_3_concat0_3_0_split_1
I0222 09:49:10.791821 22224 net.cpp:122] Setting up concat0_3_concat0_3_0_split
I0222 09:49:10.791826 22224 net.cpp:129] Top shape: 1 192 16 41 (125952)
I0222 09:49:10.791831 22224 net.cpp:129] Top shape: 1 192 16 41 (125952)
I0222 09:49:10.791834 22224 net.cpp:137] Memory required for data: 16773040
I0222 09:49:10.791838 22224 layer_factory.hpp:77] Creating layer conv0_4/x1/bn
I0222 09:49:10.791844 22224 net.cpp:84] Creating Layer conv0_4/x1/bn
I0222 09:49:10.791848 22224 net.cpp:406] conv0_4/x1/bn <- concat0_3_concat0_3_0_split_0
I0222 09:49:10.791854 22224 net.cpp:380] conv0_4/x1/bn -> conv0_4/x1/bn
I0222 09:49:10.792243 22224 net.cpp:122] Setting up conv0_4/x1/bn
I0222 09:49:10.792250 22224 net.cpp:129] Top shape: 1 192 16 41 (125952)
I0222 09:49:10.792254 22224 net.cpp:137] Memory required for data: 17276848
I0222 09:49:10.792263 22224 layer_factory.hpp:77] Creating layer conv0_4/x1/scale
I0222 09:49:10.792270 22224 net.cpp:84] Creating Layer conv0_4/x1/scale
I0222 09:49:10.792274 22224 net.cpp:406] conv0_4/x1/scale <- conv0_4/x1/bn
I0222 09:49:10.792280 22224 net.cpp:367] conv0_4/x1/scale -> conv0_4/x1/bn (in-place)
I0222 09:49:10.792343 22224 layer_factory.hpp:77] Creating layer conv0_4/x1/scale
I0222 09:49:10.792557 22224 net.cpp:122] Setting up conv0_4/x1/scale
I0222 09:49:10.792565 22224 net.cpp:129] Top shape: 1 192 16 41 (125952)
I0222 09:49:10.792569 22224 net.cpp:137] Memory required for data: 17780656
I0222 09:49:10.792577 22224 layer_factory.hpp:77] Creating layer relu0_4/x1
I0222 09:49:10.792582 22224 net.cpp:84] Creating Layer relu0_4/x1
I0222 09:49:10.792587 22224 net.cpp:406] relu0_4/x1 <- conv0_4/x1/bn
I0222 09:49:10.792593 22224 net.cpp:367] relu0_4/x1 -> conv0_4/x1/bn (in-place)
I0222 09:49:10.792821 22224 net.cpp:122] Setting up relu0_4/x1
I0222 09:49:10.792832 22224 net.cpp:129] Top shape: 1 192 16 41 (125952)
I0222 09:49:10.792836 22224 net.cpp:137] Memory required for data: 18284464
I0222 09:49:10.792840 22224 layer_factory.hpp:77] Creating layer conv0_4/x1
I0222 09:49:10.792850 22224 net.cpp:84] Creating Layer conv0_4/x1
I0222 09:49:10.792855 22224 net.cpp:406] conv0_4/x1 <- conv0_4/x1/bn
I0222 09:49:10.792861 22224 net.cpp:380] conv0_4/x1 -> conv0_4/x1
I0222 09:49:10.795732 22224 net.cpp:122] Setting up conv0_4/x1
I0222 09:49:10.795748 22224 net.cpp:129] Top shape: 1 128 16 41 (83968)
I0222 09:49:10.795753 22224 net.cpp:137] Memory required for data: 18620336
I0222 09:49:10.795759 22224 layer_factory.hpp:77] Creating layer conv0_4/x2/bn
I0222 09:49:10.795768 22224 net.cpp:84] Creating Layer conv0_4/x2/bn
I0222 09:49:10.795773 22224 net.cpp:406] conv0_4/x2/bn <- conv0_4/x1
I0222 09:49:10.795778 22224 net.cpp:380] conv0_4/x2/bn -> conv0_4/x2/bn
I0222 09:49:10.796157 22224 net.cpp:122] Setting up conv0_4/x2/bn
I0222 09:49:10.796169 22224 net.cpp:129] Top shape: 1 128 16 41 (83968)
I0222 09:49:10.796174 22224 net.cpp:137] Memory required for data: 18956208
I0222 09:49:10.796182 22224 layer_factory.hpp:77] Creating layer conv0_4/x2/scale
I0222 09:49:10.796190 22224 net.cpp:84] Creating Layer conv0_4/x2/scale
I0222 09:49:10.796195 22224 net.cpp:406] conv0_4/x2/scale <- conv0_4/x2/bn
I0222 09:49:10.796200 22224 net.cpp:367] conv0_4/x2/scale -> conv0_4/x2/bn (in-place)
I0222 09:49:10.796264 22224 layer_factory.hpp:77] Creating layer conv0_4/x2/scale
I0222 09:49:10.796463 22224 net.cpp:122] Setting up conv0_4/x2/scale
I0222 09:49:10.796471 22224 net.cpp:129] Top shape: 1 128 16 41 (83968)
I0222 09:49:10.796475 22224 net.cpp:137] Memory required for data: 19292080
I0222 09:49:10.796486 22224 layer_factory.hpp:77] Creating layer relu0_4/x2
I0222 09:49:10.796494 22224 net.cpp:84] Creating Layer relu0_4/x2
I0222 09:49:10.796497 22224 net.cpp:406] relu0_4/x2 <- conv0_4/x2/bn
I0222 09:49:10.796502 22224 net.cpp:367] relu0_4/x2 -> conv0_4/x2/bn (in-place)
I0222 09:49:10.797833 22224 net.cpp:122] Setting up relu0_4/x2
I0222 09:49:10.797848 22224 net.cpp:129] Top shape: 1 128 16 41 (83968)
I0222 09:49:10.797853 22224 net.cpp:137] Memory required for data: 19627952
I0222 09:49:10.797857 22224 layer_factory.hpp:77] Creating layer conv0_4/x2
I0222 09:49:10.797868 22224 net.cpp:84] Creating Layer conv0_4/x2
I0222 09:49:10.797873 22224 net.cpp:406] conv0_4/x2 <- conv0_4/x2/bn
I0222 09:49:10.797880 22224 net.cpp:380] conv0_4/x2 -> conv0_4/x2
I0222 09:49:10.802304 22224 net.cpp:122] Setting up conv0_4/x2
I0222 09:49:10.802320 22224 net.cpp:129] Top shape: 1 32 16 41 (20992)
I0222 09:49:10.802325 22224 net.cpp:137] Memory required for data: 19711920
I0222 09:49:10.802331 22224 layer_factory.hpp:77] Creating layer concat0_4
I0222 09:49:10.802340 22224 net.cpp:84] Creating Layer concat0_4
I0222 09:49:10.802345 22224 net.cpp:406] concat0_4 <- concat0_3_concat0_3_0_split_1
I0222 09:49:10.802350 22224 net.cpp:406] concat0_4 <- conv0_4/x2
I0222 09:49:10.802356 22224 net.cpp:380] concat0_4 -> concat0_4
I0222 09:49:10.802408 22224 net.cpp:122] Setting up concat0_4
I0222 09:49:10.802415 22224 net.cpp:129] Top shape: 1 224 16 41 (146944)
I0222 09:49:10.802419 22224 net.cpp:137] Memory required for data: 20299696
I0222 09:49:10.802423 22224 layer_factory.hpp:77] Creating layer concat0_4_concat0_4_0_split
I0222 09:49:10.802429 22224 net.cpp:84] Creating Layer concat0_4_concat0_4_0_split
I0222 09:49:10.802433 22224 net.cpp:406] concat0_4_concat0_4_0_split <- concat0_4
I0222 09:49:10.802439 22224 net.cpp:380] concat0_4_concat0_4_0_split -> concat0_4_concat0_4_0_split_0
I0222 09:49:10.802446 22224 net.cpp:380] concat0_4_concat0_4_0_split -> concat0_4_concat0_4_0_split_1
I0222 09:49:10.802510 22224 net.cpp:122] Setting up concat0_4_concat0_4_0_split
I0222 09:49:10.802517 22224 net.cpp:129] Top shape: 1 224 16 41 (146944)
I0222 09:49:10.802521 22224 net.cpp:129] Top shape: 1 224 16 41 (146944)
I0222 09:49:10.802525 22224 net.cpp:137] Memory required for data: 21475248
I0222 09:49:10.802530 22224 layer_factory.hpp:77] Creating layer conv0_5/x1/bn
I0222 09:49:10.802536 22224 net.cpp:84] Creating Layer conv0_5/x1/bn
I0222 09:49:10.802539 22224 net.cpp:406] conv0_5/x1/bn <- concat0_4_concat0_4_0_split_0
I0222 09:49:10.802546 22224 net.cpp:380] conv0_5/x1/bn -> conv0_5/x1/bn
I0222 09:49:10.802942 22224 net.cpp:122] Setting up conv0_5/x1/bn
I0222 09:49:10.802950 22224 net.cpp:129] Top shape: 1 224 16 41 (146944)
I0222 09:49:10.802954 22224 net.cpp:137] Memory required for data: 22063024
I0222 09:49:10.802963 22224 layer_factory.hpp:77] Creating layer conv0_5/x1/scale
I0222 09:49:10.802970 22224 net.cpp:84] Creating Layer conv0_5/x1/scale
I0222 09:49:10.802974 22224 net.cpp:406] conv0_5/x1/scale <- conv0_5/x1/bn
I0222 09:49:10.802980 22224 net.cpp:367] conv0_5/x1/scale -> conv0_5/x1/bn (in-place)
I0222 09:49:10.803046 22224 layer_factory.hpp:77] Creating layer conv0_5/x1/scale
I0222 09:49:10.803267 22224 net.cpp:122] Setting up conv0_5/x1/scale
I0222 09:49:10.803274 22224 net.cpp:129] Top shape: 1 224 16 41 (146944)
I0222 09:49:10.803282 22224 net.cpp:137] Memory required for data: 22650800
I0222 09:49:10.803289 22224 layer_factory.hpp:77] Creating layer relu0_5/x1
I0222 09:49:10.803295 22224 net.cpp:84] Creating Layer relu0_5/x1
I0222 09:49:10.803299 22224 net.cpp:406] relu0_5/x1 <- conv0_5/x1/bn
I0222 09:49:10.803304 22224 net.cpp:367] relu0_5/x1 -> conv0_5/x1/bn (in-place)
I0222 09:49:10.803537 22224 net.cpp:122] Setting up relu0_5/x1
I0222 09:49:10.803547 22224 net.cpp:129] Top shape: 1 224 16 41 (146944)
I0222 09:49:10.803552 22224 net.cpp:137] Memory required for data: 23238576
I0222 09:49:10.803556 22224 layer_factory.hpp:77] Creating layer conv0_5/x1
I0222 09:49:10.803567 22224 net.cpp:84] Creating Layer conv0_5/x1
I0222 09:49:10.803571 22224 net.cpp:406] conv0_5/x1 <- conv0_5/x1/bn
I0222 09:49:10.803578 22224 net.cpp:380] conv0_5/x1 -> conv0_5/x1
I0222 09:49:10.806658 22224 net.cpp:122] Setting up conv0_5/x1
I0222 09:49:10.806674 22224 net.cpp:129] Top shape: 1 128 16 41 (83968)
I0222 09:49:10.806679 22224 net.cpp:137] Memory required for data: 23574448
I0222 09:49:10.806684 22224 layer_factory.hpp:77] Creating layer conv0_5/x2/bn
I0222 09:49:10.806694 22224 net.cpp:84] Creating Layer conv0_5/x2/bn
I0222 09:49:10.806699 22224 net.cpp:406] conv0_5/x2/bn <- conv0_5/x1
I0222 09:49:10.806706 22224 net.cpp:380] conv0_5/x2/bn -> conv0_5/x2/bn
I0222 09:49:10.807126 22224 net.cpp:122] Setting up conv0_5/x2/bn
I0222 09:49:10.807134 22224 net.cpp:129] Top shape: 1 128 16 41 (83968)
I0222 09:49:10.807137 22224 net.cpp:137] Memory required for data: 23910320
I0222 09:49:10.807147 22224 layer_factory.hpp:77] Creating layer conv0_5/x2/scale
I0222 09:49:10.807154 22224 net.cpp:84] Creating Layer conv0_5/x2/scale
I0222 09:49:10.807158 22224 net.cpp:406] conv0_5/x2/scale <- conv0_5/x2/bn
I0222 09:49:10.807166 22224 net.cpp:367] conv0_5/x2/scale -> conv0_5/x2/bn (in-place)
I0222 09:49:10.807238 22224 layer_factory.hpp:77] Creating layer conv0_5/x2/scale
I0222 09:49:10.807453 22224 net.cpp:122] Setting up conv0_5/x2/scale
I0222 09:49:10.807462 22224 net.cpp:129] Top shape: 1 128 16 41 (83968)
I0222 09:49:10.807466 22224 net.cpp:137] Memory required for data: 24246192
I0222 09:49:10.807472 22224 layer_factory.hpp:77] Creating layer relu0_5/x2
I0222 09:49:10.807482 22224 net.cpp:84] Creating Layer relu0_5/x2
I0222 09:49:10.807487 22224 net.cpp:406] relu0_5/x2 <- conv0_5/x2/bn
I0222 09:49:10.807492 22224 net.cpp:367] relu0_5/x2 -> conv0_5/x2/bn (in-place)
I0222 09:49:10.807742 22224 net.cpp:122] Setting up relu0_5/x2
I0222 09:49:10.807752 22224 net.cpp:129] Top shape: 1 128 16 41 (83968)
I0222 09:49:10.807756 22224 net.cpp:137] Memory required for data: 24582064
I0222 09:49:10.807760 22224 layer_factory.hpp:77] Creating layer conv0_5/x2
I0222 09:49:10.807772 22224 net.cpp:84] Creating Layer conv0_5/x2
I0222 09:49:10.807777 22224 net.cpp:406] conv0_5/x2 <- conv0_5/x2/bn
I0222 09:49:10.807785 22224 net.cpp:380] conv0_5/x2 -> conv0_5/x2
I0222 09:49:10.811209 22224 net.cpp:122] Setting up conv0_5/x2
I0222 09:49:10.811225 22224 net.cpp:129] Top shape: 1 32 16 41 (20992)
I0222 09:49:10.811229 22224 net.cpp:137] Memory required for data: 24666032
I0222 09:49:10.811236 22224 layer_factory.hpp:77] Creating layer concat0_5
I0222 09:49:10.811247 22224 net.cpp:84] Creating Layer concat0_5
I0222 09:49:10.811251 22224 net.cpp:406] concat0_5 <- concat0_4_concat0_4_0_split_1
I0222 09:49:10.811257 22224 net.cpp:406] concat0_5 <- conv0_5/x2
I0222 09:49:10.811264 22224 net.cpp:380] concat0_5 -> concat0_5
I0222 09:49:10.811311 22224 net.cpp:122] Setting up concat0_5
I0222 09:49:10.811318 22224 net.cpp:129] Top shape: 1 256 16 41 (167936)
I0222 09:49:10.811321 22224 net.cpp:137] Memory required for data: 25337776
I0222 09:49:10.811326 22224 layer_factory.hpp:77] Creating layer BatchNorm1
I0222 09:49:10.811333 22224 net.cpp:84] Creating Layer BatchNorm1
I0222 09:49:10.811337 22224 net.cpp:406] BatchNorm1 <- concat0_5
I0222 09:49:10.811344 22224 net.cpp:380] BatchNorm1 -> BatchNorm1
I0222 09:49:10.811745 22224 net.cpp:122] Setting up BatchNorm1
I0222 09:49:10.811758 22224 net.cpp:129] Top shape: 1 256 16 41 (167936)
I0222 09:49:10.811761 22224 net.cpp:137] Memory required for data: 26009520
I0222 09:49:10.811769 22224 layer_factory.hpp:77] Creating layer Scale1
I0222 09:49:10.811779 22224 net.cpp:84] Creating Layer Scale1
I0222 09:49:10.811784 22224 net.cpp:406] Scale1 <- BatchNorm1
I0222 09:49:10.811791 22224 net.cpp:367] Scale1 -> BatchNorm1 (in-place)
I0222 09:49:10.811863 22224 layer_factory.hpp:77] Creating layer Scale1
I0222 09:49:10.812084 22224 net.cpp:122] Setting up Scale1
I0222 09:49:10.812093 22224 net.cpp:129] Top shape: 1 256 16 41 (167936)
I0222 09:49:10.812096 22224 net.cpp:137] Memory required for data: 26681264
I0222 09:49:10.812103 22224 layer_factory.hpp:77] Creating layer ReLU1
I0222 09:49:10.812113 22224 net.cpp:84] Creating Layer ReLU1
I0222 09:49:10.812116 22224 net.cpp:406] ReLU1 <- BatchNorm1
I0222 09:49:10.812121 22224 net.cpp:367] ReLU1 -> BatchNorm1 (in-place)
I0222 09:49:10.813467 22224 net.cpp:122] Setting up ReLU1
I0222 09:49:10.813482 22224 net.cpp:129] Top shape: 1 256 16 41 (167936)
I0222 09:49:10.813485 22224 net.cpp:137] Memory required for data: 27353008
I0222 09:49:10.813490 22224 layer_factory.hpp:77] Creating layer conv0_blk
I0222 09:49:10.813504 22224 net.cpp:84] Creating Layer conv0_blk
I0222 09:49:10.813509 22224 net.cpp:406] conv0_blk <- BatchNorm1
I0222 09:49:10.813516 22224 net.cpp:380] conv0_blk -> conv0_blk
I0222 09:49:10.816808 22224 net.cpp:122] Setting up conv0_blk
I0222 09:49:10.816824 22224 net.cpp:129] Top shape: 1 128 16 41 (83968)
I0222 09:49:10.816828 22224 net.cpp:137] Memory required for data: 27688880
I0222 09:49:10.816834 22224 layer_factory.hpp:77] Creating layer pool0
I0222 09:49:10.816845 22224 net.cpp:84] Creating Layer pool0
I0222 09:49:10.816850 22224 net.cpp:406] pool0 <- conv0_blk
I0222 09:49:10.816857 22224 net.cpp:380] pool0 -> pool0
I0222 09:49:10.817147 22224 net.cpp:122] Setting up pool0
I0222 09:49:10.817157 22224 net.cpp:129] Top shape: 1 128 8 21 (21504)
I0222 09:49:10.817162 22224 net.cpp:137] Memory required for data: 27774896
I0222 09:49:10.817165 22224 layer_factory.hpp:77] Creating layer pool0_pool0_0_split
I0222 09:49:10.817174 22224 net.cpp:84] Creating Layer pool0_pool0_0_split
I0222 09:49:10.817178 22224 net.cpp:406] pool0_pool0_0_split <- pool0
I0222 09:49:10.817184 22224 net.cpp:380] pool0_pool0_0_split -> pool0_pool0_0_split_0
I0222 09:49:10.817193 22224 net.cpp:380] pool0_pool0_0_split -> pool0_pool0_0_split_1
I0222 09:49:10.817261 22224 net.cpp:122] Setting up pool0_pool0_0_split
I0222 09:49:10.817268 22224 net.cpp:129] Top shape: 1 128 8 21 (21504)
I0222 09:49:10.817273 22224 net.cpp:129] Top shape: 1 128 8 21 (21504)
I0222 09:49:10.817276 22224 net.cpp:137] Memory required for data: 27946928
I0222 09:49:10.817281 22224 layer_factory.hpp:77] Creating layer conv1_0/x1/bn
I0222 09:49:10.817289 22224 net.cpp:84] Creating Layer conv1_0/x1/bn
I0222 09:49:10.817293 22224 net.cpp:406] conv1_0/x1/bn <- pool0_pool0_0_split_0
I0222 09:49:10.817306 22224 net.cpp:380] conv1_0/x1/bn -> conv1_0/x1/bn
I0222 09:49:10.817701 22224 net.cpp:122] Setting up conv1_0/x1/bn
I0222 09:49:10.817710 22224 net.cpp:129] Top shape: 1 128 8 21 (21504)
I0222 09:49:10.817713 22224 net.cpp:137] Memory required for data: 28032944
I0222 09:49:10.817723 22224 layer_factory.hpp:77] Creating layer conv1_0/x1/scale
I0222 09:49:10.817733 22224 net.cpp:84] Creating Layer conv1_0/x1/scale
I0222 09:49:10.817736 22224 net.cpp:406] conv1_0/x1/scale <- conv1_0/x1/bn
I0222 09:49:10.817744 22224 net.cpp:367] conv1_0/x1/scale -> conv1_0/x1/bn (in-place)
I0222 09:49:10.817812 22224 layer_factory.hpp:77] Creating layer conv1_0/x1/scale
I0222 09:49:10.818019 22224 net.cpp:122] Setting up conv1_0/x1/scale
I0222 09:49:10.818027 22224 net.cpp:129] Top shape: 1 128 8 21 (21504)
I0222 09:49:10.818032 22224 net.cpp:137] Memory required for data: 28118960
I0222 09:49:10.818038 22224 layer_factory.hpp:77] Creating layer relu1_0/x1
I0222 09:49:10.818044 22224 net.cpp:84] Creating Layer relu1_0/x1
I0222 09:49:10.818048 22224 net.cpp:406] relu1_0/x1 <- conv1_0/x1/bn
I0222 09:49:10.818058 22224 net.cpp:367] relu1_0/x1 -> conv1_0/x1/bn (in-place)
I0222 09:49:10.818301 22224 net.cpp:122] Setting up relu1_0/x1
I0222 09:49:10.818312 22224 net.cpp:129] Top shape: 1 128 8 21 (21504)
I0222 09:49:10.818315 22224 net.cpp:137] Memory required for data: 28204976
I0222 09:49:10.818320 22224 layer_factory.hpp:77] Creating layer conv1_0/x1
I0222 09:49:10.818330 22224 net.cpp:84] Creating Layer conv1_0/x1
I0222 09:49:10.818333 22224 net.cpp:406] conv1_0/x1 <- conv1_0/x1/bn
I0222 09:49:10.818341 22224 net.cpp:380] conv1_0/x1 -> conv1_0/x1
I0222 09:49:10.822260 22224 net.cpp:122] Setting up conv1_0/x1
I0222 09:49:10.822276 22224 net.cpp:129] Top shape: 1 128 8 21 (21504)
I0222 09:49:10.822281 22224 net.cpp:137] Memory required for data: 28290992
I0222 09:49:10.822288 22224 layer_factory.hpp:77] Creating layer conv1_0/x2/bn
I0222 09:49:10.822299 22224 net.cpp:84] Creating Layer conv1_0/x2/bn
I0222 09:49:10.822304 22224 net.cpp:406] conv1_0/x2/bn <- conv1_0/x1
I0222 09:49:10.822310 22224 net.cpp:380] conv1_0/x2/bn -> conv1_0/x2/bn
I0222 09:49:10.822729 22224 net.cpp:122] Setting up conv1_0/x2/bn
I0222 09:49:10.822737 22224 net.cpp:129] Top shape: 1 128 8 21 (21504)
I0222 09:49:10.822741 22224 net.cpp:137] Memory required for data: 28377008
I0222 09:49:10.822749 22224 layer_factory.hpp:77] Creating layer conv1_0/x2/scale
I0222 09:49:10.822759 22224 net.cpp:84] Creating Layer conv1_0/x2/scale
I0222 09:49:10.822763 22224 net.cpp:406] conv1_0/x2/scale <- conv1_0/x2/bn
I0222 09:49:10.822768 22224 net.cpp:367] conv1_0/x2/scale -> conv1_0/x2/bn (in-place)
I0222 09:49:10.822840 22224 layer_factory.hpp:77] Creating layer conv1_0/x2/scale
I0222 09:49:10.823047 22224 net.cpp:122] Setting up conv1_0/x2/scale
I0222 09:49:10.823057 22224 net.cpp:129] Top shape: 1 128 8 21 (21504)
I0222 09:49:10.823061 22224 net.cpp:137] Memory required for data: 28463024
I0222 09:49:10.823068 22224 layer_factory.hpp:77] Creating layer relu1_0/x2
I0222 09:49:10.823074 22224 net.cpp:84] Creating Layer relu1_0/x2
I0222 09:49:10.823078 22224 net.cpp:406] relu1_0/x2 <- conv1_0/x2/bn
I0222 09:49:10.823086 22224 net.cpp:367] relu1_0/x2 -> conv1_0/x2/bn (in-place)
I0222 09:49:10.824403 22224 net.cpp:122] Setting up relu1_0/x2
I0222 09:49:10.824419 22224 net.cpp:129] Top shape: 1 128 8 21 (21504)
I0222 09:49:10.824422 22224 net.cpp:137] Memory required for data: 28549040
I0222 09:49:10.824426 22224 layer_factory.hpp:77] Creating layer conv1_0/x2
I0222 09:49:10.824440 22224 net.cpp:84] Creating Layer conv1_0/x2
I0222 09:49:10.824445 22224 net.cpp:406] conv1_0/x2 <- conv1_0/x2/bn
I0222 09:49:10.824455 22224 net.cpp:380] conv1_0/x2 -> conv1_0/x2
I0222 09:49:10.829007 22224 net.cpp:122] Setting up conv1_0/x2
I0222 09:49:10.829023 22224 net.cpp:129] Top shape: 1 32 8 21 (5376)
I0222 09:49:10.829027 22224 net.cpp:137] Memory required for data: 28570544
I0222 09:49:10.829035 22224 layer_factory.hpp:77] Creating layer concat1_0
I0222 09:49:10.829042 22224 net.cpp:84] Creating Layer concat1_0
I0222 09:49:10.829047 22224 net.cpp:406] concat1_0 <- pool0_pool0_0_split_1
I0222 09:49:10.829053 22224 net.cpp:406] concat1_0 <- conv1_0/x2
I0222 09:49:10.829062 22224 net.cpp:380] concat1_0 -> concat1_0
I0222 09:49:10.829116 22224 net.cpp:122] Setting up concat1_0
I0222 09:49:10.829123 22224 net.cpp:129] Top shape: 1 160 8 21 (26880)
I0222 09:49:10.829128 22224 net.cpp:137] Memory required for data: 28678064
I0222 09:49:10.829131 22224 layer_factory.hpp:77] Creating layer concat1_0_concat1_0_0_split
I0222 09:49:10.829139 22224 net.cpp:84] Creating Layer concat1_0_concat1_0_0_split
I0222 09:49:10.829144 22224 net.cpp:406] concat1_0_concat1_0_0_split <- concat1_0
I0222 09:49:10.829149 22224 net.cpp:380] concat1_0_concat1_0_0_split -> concat1_0_concat1_0_0_split_0
I0222 09:49:10.829155 22224 net.cpp:380] concat1_0_concat1_0_0_split -> concat1_0_concat1_0_0_split_1
I0222 09:49:10.829226 22224 net.cpp:122] Setting up concat1_0_concat1_0_0_split
I0222 09:49:10.829232 22224 net.cpp:129] Top shape: 1 160 8 21 (26880)
I0222 09:49:10.829241 22224 net.cpp:129] Top shape: 1 160 8 21 (26880)
I0222 09:49:10.829244 22224 net.cpp:137] Memory required for data: 28893104
I0222 09:49:10.829248 22224 layer_factory.hpp:77] Creating layer conv1_1/x1/bn
I0222 09:49:10.829257 22224 net.cpp:84] Creating Layer conv1_1/x1/bn
I0222 09:49:10.829260 22224 net.cpp:406] conv1_1/x1/bn <- concat1_0_concat1_0_0_split_0
I0222 09:49:10.829267 22224 net.cpp:380] conv1_1/x1/bn -> conv1_1/x1/bn
I0222 09:49:10.829696 22224 net.cpp:122] Setting up conv1_1/x1/bn
I0222 09:49:10.829705 22224 net.cpp:129] Top shape: 1 160 8 21 (26880)
I0222 09:49:10.829710 22224 net.cpp:137] Memory required for data: 29000624
I0222 09:49:10.829717 22224 layer_factory.hpp:77] Creating layer conv1_1/x1/scale
I0222 09:49:10.829727 22224 net.cpp:84] Creating Layer conv1_1/x1/scale
I0222 09:49:10.829732 22224 net.cpp:406] conv1_1/x1/scale <- conv1_1/x1/bn
I0222 09:49:10.829737 22224 net.cpp:367] conv1_1/x1/scale -> conv1_1/x1/bn (in-place)
I0222 09:49:10.829810 22224 layer_factory.hpp:77] Creating layer conv1_1/x1/scale
I0222 09:49:10.830032 22224 net.cpp:122] Setting up conv1_1/x1/scale
I0222 09:49:10.830040 22224 net.cpp:129] Top shape: 1 160 8 21 (26880)
I0222 09:49:10.830044 22224 net.cpp:137] Memory required for data: 29108144
I0222 09:49:10.830051 22224 layer_factory.hpp:77] Creating layer relu1_1/x1
I0222 09:49:10.830060 22224 net.cpp:84] Creating Layer relu1_1/x1
I0222 09:49:10.830063 22224 net.cpp:406] relu1_1/x1 <- conv1_1/x1/bn
I0222 09:49:10.830068 22224 net.cpp:367] relu1_1/x1 -> conv1_1/x1/bn (in-place)
I0222 09:49:10.830322 22224 net.cpp:122] Setting up relu1_1/x1
I0222 09:49:10.830332 22224 net.cpp:129] Top shape: 1 160 8 21 (26880)
I0222 09:49:10.830334 22224 net.cpp:137] Memory required for data: 29215664
I0222 09:49:10.830339 22224 layer_factory.hpp:77] Creating layer conv1_1/x1
I0222 09:49:10.830351 22224 net.cpp:84] Creating Layer conv1_1/x1
I0222 09:49:10.830355 22224 net.cpp:406] conv1_1/x1 <- conv1_1/x1/bn
I0222 09:49:10.830364 22224 net.cpp:380] conv1_1/x1 -> conv1_1/x1
I0222 09:49:10.833299 22224 net.cpp:122] Setting up conv1_1/x1
I0222 09:49:10.833315 22224 net.cpp:129] Top shape: 1 128 8 21 (21504)
I0222 09:49:10.833319 22224 net.cpp:137] Memory required for data: 29301680
I0222 09:49:10.833326 22224 layer_factory.hpp:77] Creating layer conv1_1/x2/bn
I0222 09:49:10.833336 22224 net.cpp:84] Creating Layer conv1_1/x2/bn
I0222 09:49:10.833341 22224 net.cpp:406] conv1_1/x2/bn <- conv1_1/x1
I0222 09:49:10.833348 22224 net.cpp:380] conv1_1/x2/bn -> conv1_1/x2/bn
I0222 09:49:10.833765 22224 net.cpp:122] Setting up conv1_1/x2/bn
I0222 09:49:10.833773 22224 net.cpp:129] Top shape: 1 128 8 21 (21504)
I0222 09:49:10.833777 22224 net.cpp:137] Memory required for data: 29387696
I0222 09:49:10.833786 22224 layer_factory.hpp:77] Creating layer conv1_1/x2/scale
I0222 09:49:10.833796 22224 net.cpp:84] Creating Layer conv1_1/x2/scale
I0222 09:49:10.833799 22224 net.cpp:406] conv1_1/x2/scale <- conv1_1/x2/bn
I0222 09:49:10.833806 22224 net.cpp:367] conv1_1/x2/scale -> conv1_1/x2/bn (in-place)
I0222 09:49:10.833876 22224 layer_factory.hpp:77] Creating layer conv1_1/x2/scale
I0222 09:49:10.834090 22224 net.cpp:122] Setting up conv1_1/x2/scale
I0222 09:49:10.834098 22224 net.cpp:129] Top shape: 1 128 8 21 (21504)
I0222 09:49:10.834102 22224 net.cpp:137] Memory required for data: 29473712
I0222 09:49:10.834108 22224 layer_factory.hpp:77] Creating layer relu1_1/x2
I0222 09:49:10.834115 22224 net.cpp:84] Creating Layer relu1_1/x2
I0222 09:49:10.834118 22224 net.cpp:406] relu1_1/x2 <- conv1_1/x2/bn
I0222 09:49:10.834125 22224 net.cpp:367] relu1_1/x2 -> conv1_1/x2/bn (in-place)
I0222 09:49:10.834378 22224 net.cpp:122] Setting up relu1_1/x2
I0222 09:49:10.834388 22224 net.cpp:129] Top shape: 1 128 8 21 (21504)
I0222 09:49:10.834393 22224 net.cpp:137] Memory required for data: 29559728
I0222 09:49:10.834396 22224 layer_factory.hpp:77] Creating layer conv1_1/x2
I0222 09:49:10.834408 22224 net.cpp:84] Creating Layer conv1_1/x2
I0222 09:49:10.834414 22224 net.cpp:406] conv1_1/x2 <- conv1_1/x2/bn
I0222 09:49:10.834424 22224 net.cpp:380] conv1_1/x2 -> conv1_1/x2
I0222 09:49:10.837864 22224 net.cpp:122] Setting up conv1_1/x2
I0222 09:49:10.837883 22224 net.cpp:129] Top shape: 1 32 8 21 (5376)
I0222 09:49:10.837888 22224 net.cpp:137] Memory required for data: 29581232
I0222 09:49:10.837894 22224 layer_factory.hpp:77] Creating layer concat1_1
I0222 09:49:10.837903 22224 net.cpp:84] Creating Layer concat1_1
I0222 09:49:10.837906 22224 net.cpp:406] concat1_1 <- concat1_0_concat1_0_0_split_1
I0222 09:49:10.837913 22224 net.cpp:406] concat1_1 <- conv1_1/x2
I0222 09:49:10.837918 22224 net.cpp:380] concat1_1 -> concat1_1
I0222 09:49:10.837970 22224 net.cpp:122] Setting up concat1_1
I0222 09:49:10.837976 22224 net.cpp:129] Top shape: 1 192 8 21 (32256)
I0222 09:49:10.837980 22224 net.cpp:137] Memory required for data: 29710256
I0222 09:49:10.837983 22224 layer_factory.hpp:77] Creating layer concat1_1_concat1_1_0_split
I0222 09:49:10.837990 22224 net.cpp:84] Creating Layer concat1_1_concat1_1_0_split
I0222 09:49:10.837993 22224 net.cpp:406] concat1_1_concat1_1_0_split <- concat1_1
I0222 09:49:10.837998 22224 net.cpp:380] concat1_1_concat1_1_0_split -> concat1_1_concat1_1_0_split_0
I0222 09:49:10.838007 22224 net.cpp:380] concat1_1_concat1_1_0_split -> concat1_1_concat1_1_0_split_1
I0222 09:49:10.838078 22224 net.cpp:122] Setting up concat1_1_concat1_1_0_split
I0222 09:49:10.838085 22224 net.cpp:129] Top shape: 1 192 8 21 (32256)
I0222 09:49:10.838090 22224 net.cpp:129] Top shape: 1 192 8 21 (32256)
I0222 09:49:10.838094 22224 net.cpp:137] Memory required for data: 29968304
I0222 09:49:10.838098 22224 layer_factory.hpp:77] Creating layer conv1_2/x1/bn
I0222 09:49:10.838104 22224 net.cpp:84] Creating Layer conv1_2/x1/bn
I0222 09:49:10.838107 22224 net.cpp:406] conv1_2/x1/bn <- concat1_1_concat1_1_0_split_0
I0222 09:49:10.838115 22224 net.cpp:380] conv1_2/x1/bn -> conv1_2/x1/bn
I0222 09:49:10.838531 22224 net.cpp:122] Setting up conv1_2/x1/bn
I0222 09:49:10.838538 22224 net.cpp:129] Top shape: 1 192 8 21 (32256)
I0222 09:49:10.838541 22224 net.cpp:137] Memory required for data: 30097328
I0222 09:49:10.838551 22224 layer_factory.hpp:77] Creating layer conv1_2/x1/scale
I0222 09:49:10.838560 22224 net.cpp:84] Creating Layer conv1_2/x1/scale
I0222 09:49:10.838564 22224 net.cpp:406] conv1_2/x1/scale <- conv1_2/x1/bn
I0222 09:49:10.838572 22224 net.cpp:367] conv1_2/x1/scale -> conv1_2/x1/bn (in-place)
I0222 09:49:10.838646 22224 layer_factory.hpp:77] Creating layer conv1_2/x1/scale
I0222 09:49:10.838872 22224 net.cpp:122] Setting up conv1_2/x1/scale
I0222 09:49:10.838881 22224 net.cpp:129] Top shape: 1 192 8 21 (32256)
I0222 09:49:10.838884 22224 net.cpp:137] Memory required for data: 30226352
I0222 09:49:10.838891 22224 layer_factory.hpp:77] Creating layer relu1_2/x1
I0222 09:49:10.838897 22224 net.cpp:84] Creating Layer relu1_2/x1
I0222 09:49:10.838901 22224 net.cpp:406] relu1_2/x1 <- conv1_2/x1/bn
I0222 09:49:10.838907 22224 net.cpp:367] relu1_2/x1 -> conv1_2/x1/bn (in-place)
I0222 09:49:10.839161 22224 net.cpp:122] Setting up relu1_2/x1
I0222 09:49:10.839171 22224 net.cpp:129] Top shape: 1 192 8 21 (32256)
I0222 09:49:10.839175 22224 net.cpp:137] Memory required for data: 30355376
I0222 09:49:10.839179 22224 layer_factory.hpp:77] Creating layer conv1_2/x1
I0222 09:49:10.839192 22224 net.cpp:84] Creating Layer conv1_2/x1
I0222 09:49:10.839197 22224 net.cpp:406] conv1_2/x1 <- conv1_2/x1/bn
I0222 09:49:10.839205 22224 net.cpp:380] conv1_2/x1 -> conv1_2/x1
I0222 09:49:10.842236 22224 net.cpp:122] Setting up conv1_2/x1
I0222 09:49:10.842252 22224 net.cpp:129] Top shape: 1 128 8 21 (21504)
I0222 09:49:10.842257 22224 net.cpp:137] Memory required for data: 30441392
I0222 09:49:10.842263 22224 layer_factory.hpp:77] Creating layer conv1_2/x2/bn
I0222 09:49:10.842273 22224 net.cpp:84] Creating Layer conv1_2/x2/bn
I0222 09:49:10.842278 22224 net.cpp:406] conv1_2/x2/bn <- conv1_2/x1
I0222 09:49:10.842285 22224 net.cpp:380] conv1_2/x2/bn -> conv1_2/x2/bn
I0222 09:49:10.842703 22224 net.cpp:122] Setting up conv1_2/x2/bn
I0222 09:49:10.842711 22224 net.cpp:129] Top shape: 1 128 8 21 (21504)
I0222 09:49:10.842718 22224 net.cpp:137] Memory required for data: 30527408
I0222 09:49:10.842727 22224 layer_factory.hpp:77] Creating layer conv1_2/x2/scale
I0222 09:49:10.842737 22224 net.cpp:84] Creating Layer conv1_2/x2/scale
I0222 09:49:10.842742 22224 net.cpp:406] conv1_2/x2/scale <- conv1_2/x2/bn
I0222 09:49:10.842747 22224 net.cpp:367] conv1_2/x2/scale -> conv1_2/x2/bn (in-place)
I0222 09:49:10.842820 22224 layer_factory.hpp:77] Creating layer conv1_2/x2/scale
I0222 09:49:10.843030 22224 net.cpp:122] Setting up conv1_2/x2/scale
I0222 09:49:10.843039 22224 net.cpp:129] Top shape: 1 128 8 21 (21504)
I0222 09:49:10.843041 22224 net.cpp:137] Memory required for data: 30613424
I0222 09:49:10.843049 22224 layer_factory.hpp:77] Creating layer relu1_2/x2
I0222 09:49:10.843055 22224 net.cpp:84] Creating Layer relu1_2/x2
I0222 09:49:10.843058 22224 net.cpp:406] relu1_2/x2 <- conv1_2/x2/bn
I0222 09:49:10.843065 22224 net.cpp:367] relu1_2/x2 -> conv1_2/x2/bn (in-place)
I0222 09:49:10.844379 22224 net.cpp:122] Setting up relu1_2/x2
I0222 09:49:10.844394 22224 net.cpp:129] Top shape: 1 128 8 21 (21504)
I0222 09:49:10.844398 22224 net.cpp:137] Memory required for data: 30699440
I0222 09:49:10.844403 22224 layer_factory.hpp:77] Creating layer conv1_2/x2
I0222 09:49:10.844415 22224 net.cpp:84] Creating Layer conv1_2/x2
I0222 09:49:10.844420 22224 net.cpp:406] conv1_2/x2 <- conv1_2/x2/bn
I0222 09:49:10.844429 22224 net.cpp:380] conv1_2/x2 -> conv1_2/x2
I0222 09:49:10.848992 22224 net.cpp:122] Setting up conv1_2/x2
I0222 09:49:10.849009 22224 net.cpp:129] Top shape: 1 32 8 21 (5376)
I0222 09:49:10.849014 22224 net.cpp:137] Memory required for data: 30720944
I0222 09:49:10.849021 22224 layer_factory.hpp:77] Creating layer concat1_2
I0222 09:49:10.849030 22224 net.cpp:84] Creating Layer concat1_2
I0222 09:49:10.849042 22224 net.cpp:406] concat1_2 <- concat1_1_concat1_1_0_split_1
I0222 09:49:10.849048 22224 net.cpp:406] concat1_2 <- conv1_2/x2
I0222 09:49:10.849054 22224 net.cpp:380] concat1_2 -> concat1_2
I0222 09:49:10.849112 22224 net.cpp:122] Setting up concat1_2
I0222 09:49:10.849118 22224 net.cpp:129] Top shape: 1 224 8 21 (37632)
I0222 09:49:10.849123 22224 net.cpp:137] Memory required for data: 30871472
I0222 09:49:10.849126 22224 layer_factory.hpp:77] Creating layer concat1_2_concat1_2_0_split
I0222 09:49:10.849133 22224 net.cpp:84] Creating Layer concat1_2_concat1_2_0_split
I0222 09:49:10.849138 22224 net.cpp:406] concat1_2_concat1_2_0_split <- concat1_2
I0222 09:49:10.849143 22224 net.cpp:380] concat1_2_concat1_2_0_split -> concat1_2_concat1_2_0_split_0
I0222 09:49:10.849150 22224 net.cpp:380] concat1_2_concat1_2_0_split -> concat1_2_concat1_2_0_split_1
I0222 09:49:10.849220 22224 net.cpp:122] Setting up concat1_2_concat1_2_0_split
I0222 09:49:10.849227 22224 net.cpp:129] Top shape: 1 224 8 21 (37632)
I0222 09:49:10.849232 22224 net.cpp:129] Top shape: 1 224 8 21 (37632)
I0222 09:49:10.849236 22224 net.cpp:137] Memory required for data: 31172528
I0222 09:49:10.849239 22224 layer_factory.hpp:77] Creating layer conv1_3/x1/bn
I0222 09:49:10.849247 22224 net.cpp:84] Creating Layer conv1_3/x1/bn
I0222 09:49:10.849251 22224 net.cpp:406] conv1_3/x1/bn <- concat1_2_concat1_2_0_split_0
I0222 09:49:10.849257 22224 net.cpp:380] conv1_3/x1/bn -> conv1_3/x1/bn
I0222 09:49:10.849687 22224 net.cpp:122] Setting up conv1_3/x1/bn
I0222 09:49:10.849695 22224 net.cpp:129] Top shape: 1 224 8 21 (37632)
I0222 09:49:10.849699 22224 net.cpp:137] Memory required for data: 31323056
I0222 09:49:10.849707 22224 layer_factory.hpp:77] Creating layer conv1_3/x1/scale
I0222 09:49:10.849717 22224 net.cpp:84] Creating Layer conv1_3/x1/scale
I0222 09:49:10.849721 22224 net.cpp:406] conv1_3/x1/scale <- conv1_3/x1/bn
I0222 09:49:10.849727 22224 net.cpp:367] conv1_3/x1/scale -> conv1_3/x1/bn (in-place)
I0222 09:49:10.849800 22224 layer_factory.hpp:77] Creating layer conv1_3/x1/scale
I0222 09:49:10.850039 22224 net.cpp:122] Setting up conv1_3/x1/scale
I0222 09:49:10.850049 22224 net.cpp:129] Top shape: 1 224 8 21 (37632)
I0222 09:49:10.850055 22224 net.cpp:137] Memory required for data: 31473584
I0222 09:49:10.850062 22224 layer_factory.hpp:77] Creating layer relu1_3/x1
I0222 09:49:10.850069 22224 net.cpp:84] Creating Layer relu1_3/x1
I0222 09:49:10.850073 22224 net.cpp:406] relu1_3/x1 <- conv1_3/x1/bn
I0222 09:49:10.850078 22224 net.cpp:367] relu1_3/x1 -> conv1_3/x1/bn (in-place)
I0222 09:49:10.850337 22224 net.cpp:122] Setting up relu1_3/x1
I0222 09:49:10.850345 22224 net.cpp:129] Top shape: 1 224 8 21 (37632)
I0222 09:49:10.850349 22224 net.cpp:137] Memory required for data: 31624112
I0222 09:49:10.850353 22224 layer_factory.hpp:77] Creating layer conv1_3/x1
I0222 09:49:10.850365 22224 net.cpp:84] Creating Layer conv1_3/x1
I0222 09:49:10.850370 22224 net.cpp:406] conv1_3/x1 <- conv1_3/x1/bn
I0222 09:49:10.850378 22224 net.cpp:380] conv1_3/x1 -> conv1_3/x1
I0222 09:49:10.853600 22224 net.cpp:122] Setting up conv1_3/x1
I0222 09:49:10.853616 22224 net.cpp:129] Top shape: 1 128 8 21 (21504)
I0222 09:49:10.853621 22224 net.cpp:137] Memory required for data: 31710128
I0222 09:49:10.853627 22224 layer_factory.hpp:77] Creating layer conv1_3/x2/bn
I0222 09:49:10.853637 22224 net.cpp:84] Creating Layer conv1_3/x2/bn
I0222 09:49:10.853642 22224 net.cpp:406] conv1_3/x2/bn <- conv1_3/x1
I0222 09:49:10.853649 22224 net.cpp:380] conv1_3/x2/bn -> conv1_3/x2/bn
I0222 09:49:10.854068 22224 net.cpp:122] Setting up conv1_3/x2/bn
I0222 09:49:10.854076 22224 net.cpp:129] Top shape: 1 128 8 21 (21504)
I0222 09:49:10.854080 22224 net.cpp:137] Memory required for data: 31796144
I0222 09:49:10.854105 22224 layer_factory.hpp:77] Creating layer conv1_3/x2/scale
I0222 09:49:10.854115 22224 net.cpp:84] Creating Layer conv1_3/x2/scale
I0222 09:49:10.854120 22224 net.cpp:406] conv1_3/x2/scale <- conv1_3/x2/bn
I0222 09:49:10.854125 22224 net.cpp:367] conv1_3/x2/scale -> conv1_3/x2/bn (in-place)
I0222 09:49:10.854200 22224 layer_factory.hpp:77] Creating layer conv1_3/x2/scale
I0222 09:49:10.854413 22224 net.cpp:122] Setting up conv1_3/x2/scale
I0222 09:49:10.854423 22224 net.cpp:129] Top shape: 1 128 8 21 (21504)
I0222 09:49:10.854426 22224 net.cpp:137] Memory required for data: 31882160
I0222 09:49:10.854432 22224 layer_factory.hpp:77] Creating layer relu1_3/x2
I0222 09:49:10.854439 22224 net.cpp:84] Creating Layer relu1_3/x2
I0222 09:49:10.854444 22224 net.cpp:406] relu1_3/x2 <- conv1_3/x2/bn
I0222 09:49:10.854450 22224 net.cpp:367] relu1_3/x2 -> conv1_3/x2/bn (in-place)
I0222 09:49:10.854698 22224 net.cpp:122] Setting up relu1_3/x2
I0222 09:49:10.854710 22224 net.cpp:129] Top shape: 1 128 8 21 (21504)
I0222 09:49:10.854714 22224 net.cpp:137] Memory required for data: 31968176
I0222 09:49:10.854718 22224 layer_factory.hpp:77] Creating layer conv1_3/x2
I0222 09:49:10.854728 22224 net.cpp:84] Creating Layer conv1_3/x2
I0222 09:49:10.854733 22224 net.cpp:406] conv1_3/x2 <- conv1_3/x2/bn
I0222 09:49:10.854742 22224 net.cpp:380] conv1_3/x2 -> conv1_3/x2
I0222 09:49:10.860064 22224 net.cpp:122] Setting up conv1_3/x2
I0222 09:49:10.860080 22224 net.cpp:129] Top shape: 1 32 8 21 (5376)
I0222 09:49:10.860083 22224 net.cpp:137] Memory required for data: 31989680
I0222 09:49:10.860090 22224 layer_factory.hpp:77] Creating layer concat1_3
I0222 09:49:10.860098 22224 net.cpp:84] Creating Layer concat1_3
I0222 09:49:10.860103 22224 net.cpp:406] concat1_3 <- concat1_2_concat1_2_0_split_1
I0222 09:49:10.860108 22224 net.cpp:406] concat1_3 <- conv1_3/x2
I0222 09:49:10.860114 22224 net.cpp:380] concat1_3 -> concat1_3
I0222 09:49:10.860160 22224 net.cpp:122] Setting up concat1_3
I0222 09:49:10.860167 22224 net.cpp:129] Top shape: 1 256 8 21 (43008)
I0222 09:49:10.860170 22224 net.cpp:137] Memory required for data: 32161712
I0222 09:49:10.860173 22224 layer_factory.hpp:77] Creating layer concat1_3_concat1_3_0_split
I0222 09:49:10.860180 22224 net.cpp:84] Creating Layer concat1_3_concat1_3_0_split
I0222 09:49:10.860183 22224 net.cpp:406] concat1_3_concat1_3_0_split <- concat1_3
I0222 09:49:10.860188 22224 net.cpp:380] concat1_3_concat1_3_0_split -> concat1_3_concat1_3_0_split_0
I0222 09:49:10.860200 22224 net.cpp:380] concat1_3_concat1_3_0_split -> concat1_3_concat1_3_0_split_1
I0222 09:49:10.860263 22224 net.cpp:122] Setting up concat1_3_concat1_3_0_split
I0222 09:49:10.860270 22224 net.cpp:129] Top shape: 1 256 8 21 (43008)
I0222 09:49:10.860275 22224 net.cpp:129] Top shape: 1 256 8 21 (43008)
I0222 09:49:10.860277 22224 net.cpp:137] Memory required for data: 32505776
I0222 09:49:10.860280 22224 layer_factory.hpp:77] Creating layer conv1_4/x1/bn
I0222 09:49:10.860287 22224 net.cpp:84] Creating Layer conv1_4/x1/bn
I0222 09:49:10.860291 22224 net.cpp:406] conv1_4/x1/bn <- concat1_3_concat1_3_0_split_0
I0222 09:49:10.860298 22224 net.cpp:380] conv1_4/x1/bn -> conv1_4/x1/bn
I0222 09:49:10.860668 22224 net.cpp:122] Setting up conv1_4/x1/bn
I0222 09:49:10.860677 22224 net.cpp:129] Top shape: 1 256 8 21 (43008)
I0222 09:49:10.860680 22224 net.cpp:137] Memory required for data: 32677808
I0222 09:49:10.860688 22224 layer_factory.hpp:77] Creating layer conv1_4/x1/scale
I0222 09:49:10.860697 22224 net.cpp:84] Creating Layer conv1_4/x1/scale
I0222 09:49:10.860702 22224 net.cpp:406] conv1_4/x1/scale <- conv1_4/x1/bn
I0222 09:49:10.860707 22224 net.cpp:367] conv1_4/x1/scale -> conv1_4/x1/bn (in-place)
I0222 09:49:10.860772 22224 layer_factory.hpp:77] Creating layer conv1_4/x1/scale
I0222 09:49:10.860960 22224 net.cpp:122] Setting up conv1_4/x1/scale
I0222 09:49:10.860968 22224 net.cpp:129] Top shape: 1 256 8 21 (43008)
I0222 09:49:10.860971 22224 net.cpp:137] Memory required for data: 32849840
I0222 09:49:10.860977 22224 layer_factory.hpp:77] Creating layer relu1_4/x1
I0222 09:49:10.860983 22224 net.cpp:84] Creating Layer relu1_4/x1
I0222 09:49:10.860986 22224 net.cpp:406] relu1_4/x1 <- conv1_4/x1/bn
I0222 09:49:10.860992 22224 net.cpp:367] relu1_4/x1 -> conv1_4/x1/bn (in-place)
I0222 09:49:10.862176 22224 net.cpp:122] Setting up relu1_4/x1
I0222 09:49:10.862190 22224 net.cpp:129] Top shape: 1 256 8 21 (43008)
I0222 09:49:10.862195 22224 net.cpp:137] Memory required for data: 33021872
I0222 09:49:10.862197 22224 layer_factory.hpp:77] Creating layer conv1_4/x1
I0222 09:49:10.862211 22224 net.cpp:84] Creating Layer conv1_4/x1
I0222 09:49:10.862215 22224 net.cpp:406] conv1_4/x1 <- conv1_4/x1/bn
I0222 09:49:10.862222 22224 net.cpp:380] conv1_4/x1 -> conv1_4/x1
I0222 09:49:10.865200 22224 net.cpp:122] Setting up conv1_4/x1
I0222 09:49:10.865216 22224 net.cpp:129] Top shape: 1 128 8 21 (21504)
I0222 09:49:10.865219 22224 net.cpp:137] Memory required for data: 33107888
I0222 09:49:10.865226 22224 layer_factory.hpp:77] Creating layer conv1_4/x2/bn
I0222 09:49:10.865236 22224 net.cpp:84] Creating Layer conv1_4/x2/bn
I0222 09:49:10.865239 22224 net.cpp:406] conv1_4/x2/bn <- conv1_4/x1
I0222 09:49:10.865245 22224 net.cpp:380] conv1_4/x2/bn -> conv1_4/x2/bn
I0222 09:49:10.865623 22224 net.cpp:122] Setting up conv1_4/x2/bn
I0222 09:49:10.865630 22224 net.cpp:129] Top shape: 1 128 8 21 (21504)
I0222 09:49:10.865633 22224 net.cpp:137] Memory required for data: 33193904
I0222 09:49:10.865641 22224 layer_factory.hpp:77] Creating layer conv1_4/x2/scale
I0222 09:49:10.865650 22224 net.cpp:84] Creating Layer conv1_4/x2/scale
I0222 09:49:10.865654 22224 net.cpp:406] conv1_4/x2/scale <- conv1_4/x2/bn
I0222 09:49:10.865659 22224 net.cpp:367] conv1_4/x2/scale -> conv1_4/x2/bn (in-place)
I0222 09:49:10.865725 22224 layer_factory.hpp:77] Creating layer conv1_4/x2/scale
I0222 09:49:10.865918 22224 net.cpp:122] Setting up conv1_4/x2/scale
I0222 09:49:10.865926 22224 net.cpp:129] Top shape: 1 128 8 21 (21504)
I0222 09:49:10.865929 22224 net.cpp:137] Memory required for data: 33279920
I0222 09:49:10.865936 22224 layer_factory.hpp:77] Creating layer relu1_4/x2
I0222 09:49:10.865942 22224 net.cpp:84] Creating Layer relu1_4/x2
I0222 09:49:10.865945 22224 net.cpp:406] relu1_4/x2 <- conv1_4/x2/bn
I0222 09:49:10.865952 22224 net.cpp:367] relu1_4/x2 -> conv1_4/x2/bn (in-place)
I0222 09:49:10.866176 22224 net.cpp:122] Setting up relu1_4/x2
I0222 09:49:10.866185 22224 net.cpp:129] Top shape: 1 128 8 21 (21504)
I0222 09:49:10.866189 22224 net.cpp:137] Memory required for data: 33365936
I0222 09:49:10.866195 22224 layer_factory.hpp:77] Creating layer conv1_4/x2
I0222 09:49:10.866207 22224 net.cpp:84] Creating Layer conv1_4/x2
I0222 09:49:10.866211 22224 net.cpp:406] conv1_4/x2 <- conv1_4/x2/bn
I0222 09:49:10.866219 22224 net.cpp:380] conv1_4/x2 -> conv1_4/x2
I0222 09:49:10.871345 22224 net.cpp:122] Setting up conv1_4/x2
I0222 09:49:10.871359 22224 net.cpp:129] Top shape: 1 32 8 21 (5376)
I0222 09:49:10.871362 22224 net.cpp:137] Memory required for data: 33387440
I0222 09:49:10.871368 22224 layer_factory.hpp:77] Creating layer concat1_4
I0222 09:49:10.871376 22224 net.cpp:84] Creating Layer concat1_4
I0222 09:49:10.871383 22224 net.cpp:406] concat1_4 <- concat1_3_concat1_3_0_split_1
I0222 09:49:10.871388 22224 net.cpp:406] concat1_4 <- conv1_4/x2
I0222 09:49:10.871394 22224 net.cpp:380] concat1_4 -> concat1_4
I0222 09:49:10.871445 22224 net.cpp:122] Setting up concat1_4
I0222 09:49:10.871453 22224 net.cpp:129] Top shape: 1 288 8 21 (48384)
I0222 09:49:10.871455 22224 net.cpp:137] Memory required for data: 33580976
I0222 09:49:10.871459 22224 layer_factory.hpp:77] Creating layer concat1_4_concat1_4_0_split
I0222 09:49:10.871465 22224 net.cpp:84] Creating Layer concat1_4_concat1_4_0_split
I0222 09:49:10.871469 22224 net.cpp:406] concat1_4_concat1_4_0_split <- concat1_4
I0222 09:49:10.871474 22224 net.cpp:380] concat1_4_concat1_4_0_split -> concat1_4_concat1_4_0_split_0
I0222 09:49:10.871480 22224 net.cpp:380] concat1_4_concat1_4_0_split -> concat1_4_concat1_4_0_split_1
I0222 09:49:10.871543 22224 net.cpp:122] Setting up concat1_4_concat1_4_0_split
I0222 09:49:10.871549 22224 net.cpp:129] Top shape: 1 288 8 21 (48384)
I0222 09:49:10.871553 22224 net.cpp:129] Top shape: 1 288 8 21 (48384)
I0222 09:49:10.871556 22224 net.cpp:137] Memory required for data: 33968048
I0222 09:49:10.871559 22224 layer_factory.hpp:77] Creating layer conv1_5/x1/bn
I0222 09:49:10.871567 22224 net.cpp:84] Creating Layer conv1_5/x1/bn
I0222 09:49:10.871570 22224 net.cpp:406] conv1_5/x1/bn <- concat1_4_concat1_4_0_split_0
I0222 09:49:10.871575 22224 net.cpp:380] conv1_5/x1/bn -> conv1_5/x1/bn
I0222 09:49:10.871974 22224 net.cpp:122] Setting up conv1_5/x1/bn
I0222 09:49:10.871982 22224 net.cpp:129] Top shape: 1 288 8 21 (48384)
I0222 09:49:10.871985 22224 net.cpp:137] Memory required for data: 34161584
I0222 09:49:10.871994 22224 layer_factory.hpp:77] Creating layer conv1_5/x1/scale
I0222 09:49:10.872002 22224 net.cpp:84] Creating Layer conv1_5/x1/scale
I0222 09:49:10.872006 22224 net.cpp:406] conv1_5/x1/scale <- conv1_5/x1/bn
I0222 09:49:10.872010 22224 net.cpp:367] conv1_5/x1/scale -> conv1_5/x1/bn (in-place)
I0222 09:49:10.872083 22224 layer_factory.hpp:77] Creating layer conv1_5/x1/scale
I0222 09:49:10.872297 22224 net.cpp:122] Setting up conv1_5/x1/scale
I0222 09:49:10.872304 22224 net.cpp:129] Top shape: 1 288 8 21 (48384)
I0222 09:49:10.872308 22224 net.cpp:137] Memory required for data: 34355120
I0222 09:49:10.872313 22224 layer_factory.hpp:77] Creating layer relu1_5/x1
I0222 09:49:10.872318 22224 net.cpp:84] Creating Layer relu1_5/x1
I0222 09:49:10.872323 22224 net.cpp:406] relu1_5/x1 <- conv1_5/x1/bn
I0222 09:49:10.872326 22224 net.cpp:367] relu1_5/x1 -> conv1_5/x1/bn (in-place)
I0222 09:49:10.872561 22224 net.cpp:122] Setting up relu1_5/x1
I0222 09:49:10.872570 22224 net.cpp:129] Top shape: 1 288 8 21 (48384)
I0222 09:49:10.872575 22224 net.cpp:137] Memory required for data: 34548656
I0222 09:49:10.872577 22224 layer_factory.hpp:77] Creating layer conv1_5/x1
I0222 09:49:10.872589 22224 net.cpp:84] Creating Layer conv1_5/x1
I0222 09:49:10.872593 22224 net.cpp:406] conv1_5/x1 <- conv1_5/x1/bn
I0222 09:49:10.872601 22224 net.cpp:380] conv1_5/x1 -> conv1_5/x1
I0222 09:49:10.875664 22224 net.cpp:122] Setting up conv1_5/x1
I0222 09:49:10.875679 22224 net.cpp:129] Top shape: 1 128 8 21 (21504)
I0222 09:49:10.875682 22224 net.cpp:137] Memory required for data: 34634672
I0222 09:49:10.875689 22224 layer_factory.hpp:77] Creating layer conv1_5/x2/bn
I0222 09:49:10.875697 22224 net.cpp:84] Creating Layer conv1_5/x2/bn
I0222 09:49:10.875705 22224 net.cpp:406] conv1_5/x2/bn <- conv1_5/x1
I0222 09:49:10.875711 22224 net.cpp:380] conv1_5/x2/bn -> conv1_5/x2/bn
I0222 09:49:10.876096 22224 net.cpp:122] Setting up conv1_5/x2/bn
I0222 09:49:10.876104 22224 net.cpp:129] Top shape: 1 128 8 21 (21504)
I0222 09:49:10.876107 22224 net.cpp:137] Memory required for data: 34720688
I0222 09:49:10.876116 22224 layer_factory.hpp:77] Creating layer conv1_5/x2/scale
I0222 09:49:10.876129 22224 net.cpp:84] Creating Layer conv1_5/x2/scale
I0222 09:49:10.876134 22224 net.cpp:406] conv1_5/x2/scale <- conv1_5/x2/bn
I0222 09:49:10.876139 22224 net.cpp:367] conv1_5/x2/scale -> conv1_5/x2/bn (in-place)
I0222 09:49:10.876204 22224 layer_factory.hpp:77] Creating layer conv1_5/x2/scale
I0222 09:49:10.876394 22224 net.cpp:122] Setting up conv1_5/x2/scale
I0222 09:49:10.876400 22224 net.cpp:129] Top shape: 1 128 8 21 (21504)
I0222 09:49:10.876404 22224 net.cpp:137] Memory required for data: 34806704
I0222 09:49:10.876410 22224 layer_factory.hpp:77] Creating layer relu1_5/x2
I0222 09:49:10.876418 22224 net.cpp:84] Creating Layer relu1_5/x2
I0222 09:49:10.876421 22224 net.cpp:406] relu1_5/x2 <- conv1_5/x2/bn
I0222 09:49:10.876426 22224 net.cpp:367] relu1_5/x2 -> conv1_5/x2/bn (in-place)
I0222 09:49:10.877619 22224 net.cpp:122] Setting up relu1_5/x2
I0222 09:49:10.877632 22224 net.cpp:129] Top shape: 1 128 8 21 (21504)
I0222 09:49:10.877636 22224 net.cpp:137] Memory required for data: 34892720
I0222 09:49:10.877640 22224 layer_factory.hpp:77] Creating layer conv1_5/x2
I0222 09:49:10.877657 22224 net.cpp:84] Creating Layer conv1_5/x2
I0222 09:49:10.877661 22224 net.cpp:406] conv1_5/x2 <- conv1_5/x2/bn
I0222 09:49:10.877668 22224 net.cpp:380] conv1_5/x2 -> conv1_5/x2
I0222 09:49:10.880774 22224 net.cpp:122] Setting up conv1_5/x2
I0222 09:49:10.880789 22224 net.cpp:129] Top shape: 1 32 8 21 (5376)
I0222 09:49:10.880792 22224 net.cpp:137] Memory required for data: 34914224
I0222 09:49:10.880800 22224 layer_factory.hpp:77] Creating layer concat1_5
I0222 09:49:10.880808 22224 net.cpp:84] Creating Layer concat1_5
I0222 09:49:10.880812 22224 net.cpp:406] concat1_5 <- concat1_4_concat1_4_0_split_1
I0222 09:49:10.880817 22224 net.cpp:406] concat1_5 <- conv1_5/x2
I0222 09:49:10.880823 22224 net.cpp:380] concat1_5 -> concat1_5
I0222 09:49:10.880874 22224 net.cpp:122] Setting up concat1_5
I0222 09:49:10.880883 22224 net.cpp:129] Top shape: 1 320 8 21 (53760)
I0222 09:49:10.880887 22224 net.cpp:137] Memory required for data: 35129264
I0222 09:49:10.880890 22224 layer_factory.hpp:77] Creating layer concat1_5_concat1_5_0_split
I0222 09:49:10.880895 22224 net.cpp:84] Creating Layer concat1_5_concat1_5_0_split
I0222 09:49:10.880898 22224 net.cpp:406] concat1_5_concat1_5_0_split <- concat1_5
I0222 09:49:10.880903 22224 net.cpp:380] concat1_5_concat1_5_0_split -> concat1_5_concat1_5_0_split_0
I0222 09:49:10.880909 22224 net.cpp:380] concat1_5_concat1_5_0_split -> concat1_5_concat1_5_0_split_1
I0222 09:49:10.880973 22224 net.cpp:122] Setting up concat1_5_concat1_5_0_split
I0222 09:49:10.880980 22224 net.cpp:129] Top shape: 1 320 8 21 (53760)
I0222 09:49:10.880983 22224 net.cpp:129] Top shape: 1 320 8 21 (53760)
I0222 09:49:10.880986 22224 net.cpp:137] Memory required for data: 35559344
I0222 09:49:10.880990 22224 layer_factory.hpp:77] Creating layer conv1_6/x1/bn
I0222 09:49:10.880997 22224 net.cpp:84] Creating Layer conv1_6/x1/bn
I0222 09:49:10.881001 22224 net.cpp:406] conv1_6/x1/bn <- concat1_5_concat1_5_0_split_0
I0222 09:49:10.881008 22224 net.cpp:380] conv1_6/x1/bn -> conv1_6/x1/bn
I0222 09:49:10.881413 22224 net.cpp:122] Setting up conv1_6/x1/bn
I0222 09:49:10.881422 22224 net.cpp:129] Top shape: 1 320 8 21 (53760)
I0222 09:49:10.881424 22224 net.cpp:137] Memory required for data: 35774384
I0222 09:49:10.881431 22224 layer_factory.hpp:77] Creating layer conv1_6/x1/scale
I0222 09:49:10.881440 22224 net.cpp:84] Creating Layer conv1_6/x1/scale
I0222 09:49:10.881444 22224 net.cpp:406] conv1_6/x1/scale <- conv1_6/x1/bn
I0222 09:49:10.881450 22224 net.cpp:367] conv1_6/x1/scale -> conv1_6/x1/bn (in-place)
I0222 09:49:10.881527 22224 layer_factory.hpp:77] Creating layer conv1_6/x1/scale
I0222 09:49:10.881741 22224 net.cpp:122] Setting up conv1_6/x1/scale
I0222 09:49:10.881747 22224 net.cpp:129] Top shape: 1 320 8 21 (53760)
I0222 09:49:10.881750 22224 net.cpp:137] Memory required for data: 35989424
I0222 09:49:10.881757 22224 layer_factory.hpp:77] Creating layer relu1_6/x1
I0222 09:49:10.881762 22224 net.cpp:84] Creating Layer relu1_6/x1
I0222 09:49:10.881767 22224 net.cpp:406] relu1_6/x1 <- conv1_6/x1/bn
I0222 09:49:10.881770 22224 net.cpp:367] relu1_6/x1 -> conv1_6/x1/bn (in-place)
I0222 09:49:10.881996 22224 net.cpp:122] Setting up relu1_6/x1
I0222 09:49:10.882005 22224 net.cpp:129] Top shape: 1 320 8 21 (53760)
I0222 09:49:10.882009 22224 net.cpp:137] Memory required for data: 36204464
I0222 09:49:10.882012 22224 layer_factory.hpp:77] Creating layer conv1_6/x1
I0222 09:49:10.882025 22224 net.cpp:84] Creating Layer conv1_6/x1
I0222 09:49:10.882030 22224 net.cpp:406] conv1_6/x1 <- conv1_6/x1/bn
I0222 09:49:10.882035 22224 net.cpp:380] conv1_6/x1 -> conv1_6/x1
I0222 09:49:10.885298 22224 net.cpp:122] Setting up conv1_6/x1
I0222 09:49:10.885311 22224 net.cpp:129] Top shape: 1 128 8 21 (21504)
I0222 09:49:10.885315 22224 net.cpp:137] Memory required for data: 36290480
I0222 09:49:10.885321 22224 layer_factory.hpp:77] Creating layer conv1_6/x2/bn
I0222 09:49:10.885330 22224 net.cpp:84] Creating Layer conv1_6/x2/bn
I0222 09:49:10.885335 22224 net.cpp:406] conv1_6/x2/bn <- conv1_6/x1
I0222 09:49:10.885340 22224 net.cpp:380] conv1_6/x2/bn -> conv1_6/x2/bn
I0222 09:49:10.885728 22224 net.cpp:122] Setting up conv1_6/x2/bn
I0222 09:49:10.885735 22224 net.cpp:129] Top shape: 1 128 8 21 (21504)
I0222 09:49:10.885738 22224 net.cpp:137] Memory required for data: 36376496
I0222 09:49:10.885746 22224 layer_factory.hpp:77] Creating layer conv1_6/x2/scale
I0222 09:49:10.885754 22224 net.cpp:84] Creating Layer conv1_6/x2/scale
I0222 09:49:10.885758 22224 net.cpp:406] conv1_6/x2/scale <- conv1_6/x2/bn
I0222 09:49:10.885763 22224 net.cpp:367] conv1_6/x2/scale -> conv1_6/x2/bn (in-place)
I0222 09:49:10.885829 22224 layer_factory.hpp:77] Creating layer conv1_6/x2/scale
I0222 09:49:10.886025 22224 net.cpp:122] Setting up conv1_6/x2/scale
I0222 09:49:10.886032 22224 net.cpp:129] Top shape: 1 128 8 21 (21504)
I0222 09:49:10.886035 22224 net.cpp:137] Memory required for data: 36462512
I0222 09:49:10.886041 22224 layer_factory.hpp:77] Creating layer relu1_6/x2
I0222 09:49:10.886047 22224 net.cpp:84] Creating Layer relu1_6/x2
I0222 09:49:10.886051 22224 net.cpp:406] relu1_6/x2 <- conv1_6/x2/bn
I0222 09:49:10.886057 22224 net.cpp:367] relu1_6/x2 -> conv1_6/x2/bn (in-place)
I0222 09:49:10.886278 22224 net.cpp:122] Setting up relu1_6/x2
I0222 09:49:10.886287 22224 net.cpp:129] Top shape: 1 128 8 21 (21504)
I0222 09:49:10.886291 22224 net.cpp:137] Memory required for data: 36548528
I0222 09:49:10.886294 22224 layer_factory.hpp:77] Creating layer conv1_6/x2
I0222 09:49:10.886306 22224 net.cpp:84] Creating Layer conv1_6/x2
I0222 09:49:10.886309 22224 net.cpp:406] conv1_6/x2 <- conv1_6/x2/bn
I0222 09:49:10.886317 22224 net.cpp:380] conv1_6/x2 -> conv1_6/x2
I0222 09:49:10.890434 22224 net.cpp:122] Setting up conv1_6/x2
I0222 09:49:10.890449 22224 net.cpp:129] Top shape: 1 32 8 21 (5376)
I0222 09:49:10.890452 22224 net.cpp:137] Memory required for data: 36570032
I0222 09:49:10.890460 22224 layer_factory.hpp:77] Creating layer concat1_6
I0222 09:49:10.890466 22224 net.cpp:84] Creating Layer concat1_6
I0222 09:49:10.890471 22224 net.cpp:406] concat1_6 <- concat1_5_concat1_5_0_split_1
I0222 09:49:10.890476 22224 net.cpp:406] concat1_6 <- conv1_6/x2
I0222 09:49:10.890485 22224 net.cpp:380] concat1_6 -> concat1_6
I0222 09:49:10.890535 22224 net.cpp:122] Setting up concat1_6
I0222 09:49:10.890542 22224 net.cpp:129] Top shape: 1 352 8 21 (59136)
I0222 09:49:10.890545 22224 net.cpp:137] Memory required for data: 36806576
I0222 09:49:10.890548 22224 layer_factory.hpp:77] Creating layer concat1_6_concat1_6_0_split
I0222 09:49:10.890553 22224 net.cpp:84] Creating Layer concat1_6_concat1_6_0_split
I0222 09:49:10.890560 22224 net.cpp:406] concat1_6_concat1_6_0_split <- concat1_6
I0222 09:49:10.890568 22224 net.cpp:380] concat1_6_concat1_6_0_split -> concat1_6_concat1_6_0_split_0
I0222 09:49:10.890573 22224 net.cpp:380] concat1_6_concat1_6_0_split -> concat1_6_concat1_6_0_split_1
I0222 09:49:10.890641 22224 net.cpp:122] Setting up concat1_6_concat1_6_0_split
I0222 09:49:10.890647 22224 net.cpp:129] Top shape: 1 352 8 21 (59136)
I0222 09:49:10.890651 22224 net.cpp:129] Top shape: 1 352 8 21 (59136)
I0222 09:49:10.890655 22224 net.cpp:137] Memory required for data: 37279664
I0222 09:49:10.890657 22224 layer_factory.hpp:77] Creating layer conv1_7/x1/bn
I0222 09:49:10.890666 22224 net.cpp:84] Creating Layer conv1_7/x1/bn
I0222 09:49:10.890668 22224 net.cpp:406] conv1_7/x1/bn <- concat1_6_concat1_6_0_split_0
I0222 09:49:10.890673 22224 net.cpp:380] conv1_7/x1/bn -> conv1_7/x1/bn
I0222 09:49:10.891088 22224 net.cpp:122] Setting up conv1_7/x1/bn
I0222 09:49:10.891094 22224 net.cpp:129] Top shape: 1 352 8 21 (59136)
I0222 09:49:10.891098 22224 net.cpp:137] Memory required for data: 37516208
I0222 09:49:10.891106 22224 layer_factory.hpp:77] Creating layer conv1_7/x1/scale
I0222 09:49:10.891114 22224 net.cpp:84] Creating Layer conv1_7/x1/scale
I0222 09:49:10.891119 22224 net.cpp:406] conv1_7/x1/scale <- conv1_7/x1/bn
I0222 09:49:10.891124 22224 net.cpp:367] conv1_7/x1/scale -> conv1_7/x1/bn (in-place)
I0222 09:49:10.891201 22224 layer_factory.hpp:77] Creating layer conv1_7/x1/scale
I0222 09:49:10.891420 22224 net.cpp:122] Setting up conv1_7/x1/scale
I0222 09:49:10.891428 22224 net.cpp:129] Top shape: 1 352 8 21 (59136)
I0222 09:49:10.891432 22224 net.cpp:137] Memory required for data: 37752752
I0222 09:49:10.891438 22224 layer_factory.hpp:77] Creating layer relu1_7/x1
I0222 09:49:10.891443 22224 net.cpp:84] Creating Layer relu1_7/x1
I0222 09:49:10.891446 22224 net.cpp:406] relu1_7/x1 <- conv1_7/x1/bn
I0222 09:49:10.891450 22224 net.cpp:367] relu1_7/x1 -> conv1_7/x1/bn (in-place)
I0222 09:49:10.891681 22224 net.cpp:122] Setting up relu1_7/x1
I0222 09:49:10.891690 22224 net.cpp:129] Top shape: 1 352 8 21 (59136)
I0222 09:49:10.891695 22224 net.cpp:137] Memory required for data: 37989296
I0222 09:49:10.891698 22224 layer_factory.hpp:77] Creating layer conv1_7/x1
I0222 09:49:10.891710 22224 net.cpp:84] Creating Layer conv1_7/x1
I0222 09:49:10.891713 22224 net.cpp:406] conv1_7/x1 <- conv1_7/x1/bn
I0222 09:49:10.891721 22224 net.cpp:380] conv1_7/x1 -> conv1_7/x1
I0222 09:49:10.895022 22224 net.cpp:122] Setting up conv1_7/x1
I0222 09:49:10.895036 22224 net.cpp:129] Top shape: 1 128 8 21 (21504)
I0222 09:49:10.895040 22224 net.cpp:137] Memory required for data: 38075312
I0222 09:49:10.895046 22224 layer_factory.hpp:77] Creating layer conv1_7/x2/bn
I0222 09:49:10.895053 22224 net.cpp:84] Creating Layer conv1_7/x2/bn
I0222 09:49:10.895057 22224 net.cpp:406] conv1_7/x2/bn <- conv1_7/x1
I0222 09:49:10.895066 22224 net.cpp:380] conv1_7/x2/bn -> conv1_7/x2/bn
I0222 09:49:10.895455 22224 net.cpp:122] Setting up conv1_7/x2/bn
I0222 09:49:10.895463 22224 net.cpp:129] Top shape: 1 128 8 21 (21504)
I0222 09:49:10.895467 22224 net.cpp:137] Memory required for data: 38161328
I0222 09:49:10.895474 22224 layer_factory.hpp:77] Creating layer conv1_7/x2/scale
I0222 09:49:10.895481 22224 net.cpp:84] Creating Layer conv1_7/x2/scale
I0222 09:49:10.895485 22224 net.cpp:406] conv1_7/x2/scale <- conv1_7/x2/bn
I0222 09:49:10.895491 22224 net.cpp:367] conv1_7/x2/scale -> conv1_7/x2/bn (in-place)
I0222 09:49:10.895560 22224 layer_factory.hpp:77] Creating layer conv1_7/x2/scale
I0222 09:49:10.895756 22224 net.cpp:122] Setting up conv1_7/x2/scale
I0222 09:49:10.895764 22224 net.cpp:129] Top shape: 1 128 8 21 (21504)
I0222 09:49:10.895767 22224 net.cpp:137] Memory required for data: 38247344
I0222 09:49:10.895773 22224 layer_factory.hpp:77] Creating layer relu1_7/x2
I0222 09:49:10.895779 22224 net.cpp:84] Creating Layer relu1_7/x2
I0222 09:49:10.895783 22224 net.cpp:406] relu1_7/x2 <- conv1_7/x2/bn
I0222 09:49:10.895792 22224 net.cpp:367] relu1_7/x2 -> conv1_7/x2/bn (in-place)
I0222 09:49:10.896986 22224 net.cpp:122] Setting up relu1_7/x2
I0222 09:49:10.897004 22224 net.cpp:129] Top shape: 1 128 8 21 (21504)
I0222 09:49:10.897008 22224 net.cpp:137] Memory required for data: 38333360
I0222 09:49:10.897012 22224 layer_factory.hpp:77] Creating layer conv1_7/x2
I0222 09:49:10.897024 22224 net.cpp:84] Creating Layer conv1_7/x2
I0222 09:49:10.897028 22224 net.cpp:406] conv1_7/x2 <- conv1_7/x2/bn
I0222 09:49:10.897035 22224 net.cpp:380] conv1_7/x2 -> conv1_7/x2
I0222 09:49:10.900128 22224 net.cpp:122] Setting up conv1_7/x2
I0222 09:49:10.900142 22224 net.cpp:129] Top shape: 1 32 8 21 (5376)
I0222 09:49:10.900146 22224 net.cpp:137] Memory required for data: 38354864
I0222 09:49:10.900152 22224 layer_factory.hpp:77] Creating layer concat1_7
I0222 09:49:10.900162 22224 net.cpp:84] Creating Layer concat1_7
I0222 09:49:10.900166 22224 net.cpp:406] concat1_7 <- concat1_6_concat1_6_0_split_1
I0222 09:49:10.900172 22224 net.cpp:406] concat1_7 <- conv1_7/x2
I0222 09:49:10.900177 22224 net.cpp:380] concat1_7 -> concat1_7
I0222 09:49:10.900224 22224 net.cpp:122] Setting up concat1_7
I0222 09:49:10.900231 22224 net.cpp:129] Top shape: 1 384 8 21 (64512)
I0222 09:49:10.900234 22224 net.cpp:137] Memory required for data: 38612912
I0222 09:49:10.900238 22224 layer_factory.hpp:77] Creating layer concat1_7_concat1_7_0_split
I0222 09:49:10.900245 22224 net.cpp:84] Creating Layer concat1_7_concat1_7_0_split
I0222 09:49:10.900249 22224 net.cpp:406] concat1_7_concat1_7_0_split <- concat1_7
I0222 09:49:10.900254 22224 net.cpp:380] concat1_7_concat1_7_0_split -> concat1_7_concat1_7_0_split_0
I0222 09:49:10.900260 22224 net.cpp:380] concat1_7_concat1_7_0_split -> concat1_7_concat1_7_0_split_1
I0222 09:49:10.900326 22224 net.cpp:122] Setting up concat1_7_concat1_7_0_split
I0222 09:49:10.900332 22224 net.cpp:129] Top shape: 1 384 8 21 (64512)
I0222 09:49:10.900336 22224 net.cpp:129] Top shape: 1 384 8 21 (64512)
I0222 09:49:10.900339 22224 net.cpp:137] Memory required for data: 39129008
I0222 09:49:10.900343 22224 layer_factory.hpp:77] Creating layer conv1_8/x1/bn
I0222 09:49:10.900351 22224 net.cpp:84] Creating Layer conv1_8/x1/bn
I0222 09:49:10.900354 22224 net.cpp:406] conv1_8/x1/bn <- concat1_7_concat1_7_0_split_0
I0222 09:49:10.900367 22224 net.cpp:380] conv1_8/x1/bn -> conv1_8/x1/bn
I0222 09:49:10.900801 22224 net.cpp:122] Setting up conv1_8/x1/bn
I0222 09:49:10.900811 22224 net.cpp:129] Top shape: 1 384 8 21 (64512)
I0222 09:49:10.900815 22224 net.cpp:137] Memory required for data: 39387056
I0222 09:49:10.900822 22224 layer_factory.hpp:77] Creating layer conv1_8/x1/scale
I0222 09:49:10.900831 22224 net.cpp:84] Creating Layer conv1_8/x1/scale
I0222 09:49:10.900836 22224 net.cpp:406] conv1_8/x1/scale <- conv1_8/x1/bn
I0222 09:49:10.900841 22224 net.cpp:367] conv1_8/x1/scale -> conv1_8/x1/bn (in-place)
I0222 09:49:10.900907 22224 layer_factory.hpp:77] Creating layer conv1_8/x1/scale
I0222 09:49:10.901118 22224 net.cpp:122] Setting up conv1_8/x1/scale
I0222 09:49:10.901124 22224 net.cpp:129] Top shape: 1 384 8 21 (64512)
I0222 09:49:10.901127 22224 net.cpp:137] Memory required for data: 39645104
I0222 09:49:10.901134 22224 layer_factory.hpp:77] Creating layer relu1_8/x1
I0222 09:49:10.901141 22224 net.cpp:84] Creating Layer relu1_8/x1
I0222 09:49:10.901145 22224 net.cpp:406] relu1_8/x1 <- conv1_8/x1/bn
I0222 09:49:10.901149 22224 net.cpp:367] relu1_8/x1 -> conv1_8/x1/bn (in-place)
I0222 09:49:10.901386 22224 net.cpp:122] Setting up relu1_8/x1
I0222 09:49:10.901394 22224 net.cpp:129] Top shape: 1 384 8 21 (64512)
I0222 09:49:10.901397 22224 net.cpp:137] Memory required for data: 39903152
I0222 09:49:10.901401 22224 layer_factory.hpp:77] Creating layer conv1_8/x1
I0222 09:49:10.901412 22224 net.cpp:84] Creating Layer conv1_8/x1
I0222 09:49:10.901417 22224 net.cpp:406] conv1_8/x1 <- conv1_8/x1/bn
I0222 09:49:10.901424 22224 net.cpp:380] conv1_8/x1 -> conv1_8/x1
I0222 09:49:10.904873 22224 net.cpp:122] Setting up conv1_8/x1
I0222 09:49:10.905184 22224 net.cpp:129] Top shape: 1 128 8 21 (21504)
I0222 09:49:10.905192 22224 net.cpp:137] Memory required for data: 39989168
I0222 09:49:10.905200 22224 layer_factory.hpp:77] Creating layer conv1_8/x2/bn
I0222 09:49:10.905208 22224 net.cpp:84] Creating Layer conv1_8/x2/bn
I0222 09:49:10.905212 22224 net.cpp:406] conv1_8/x2/bn <- conv1_8/x1
I0222 09:49:10.905220 22224 net.cpp:380] conv1_8/x2/bn -> conv1_8/x2/bn
I0222 09:49:10.905622 22224 net.cpp:122] Setting up conv1_8/x2/bn
I0222 09:49:10.905630 22224 net.cpp:129] Top shape: 1 128 8 21 (21504)
I0222 09:49:10.905633 22224 net.cpp:137] Memory required for data: 40075184
I0222 09:49:10.905640 22224 layer_factory.hpp:77] Creating layer conv1_8/x2/scale
I0222 09:49:10.905649 22224 net.cpp:84] Creating Layer conv1_8/x2/scale
I0222 09:49:10.905653 22224 net.cpp:406] conv1_8/x2/scale <- conv1_8/x2/bn
I0222 09:49:10.905663 22224 net.cpp:367] conv1_8/x2/scale -> conv1_8/x2/bn (in-place)
I0222 09:49:10.905737 22224 layer_factory.hpp:77] Creating layer conv1_8/x2/scale
I0222 09:49:10.905936 22224 net.cpp:122] Setting up conv1_8/x2/scale
I0222 09:49:10.905943 22224 net.cpp:129] Top shape: 1 128 8 21 (21504)
I0222 09:49:10.905946 22224 net.cpp:137] Memory required for data: 40161200
I0222 09:49:10.905952 22224 layer_factory.hpp:77] Creating layer relu1_8/x2
I0222 09:49:10.905959 22224 net.cpp:84] Creating Layer relu1_8/x2
I0222 09:49:10.905963 22224 net.cpp:406] relu1_8/x2 <- conv1_8/x2/bn
I0222 09:49:10.905967 22224 net.cpp:367] relu1_8/x2 -> conv1_8/x2/bn (in-place)
I0222 09:49:10.906193 22224 net.cpp:122] Setting up relu1_8/x2
I0222 09:49:10.906203 22224 net.cpp:129] Top shape: 1 128 8 21 (21504)
I0222 09:49:10.906205 22224 net.cpp:137] Memory required for data: 40247216
I0222 09:49:10.906209 22224 layer_factory.hpp:77] Creating layer conv1_8/x2
I0222 09:49:10.906220 22224 net.cpp:84] Creating Layer conv1_8/x2
I0222 09:49:10.906224 22224 net.cpp:406] conv1_8/x2 <- conv1_8/x2/bn
I0222 09:49:10.906230 22224 net.cpp:380] conv1_8/x2 -> conv1_8/x2
I0222 09:49:10.910321 22224 net.cpp:122] Setting up conv1_8/x2
I0222 09:49:10.910336 22224 net.cpp:129] Top shape: 1 32 8 21 (5376)
I0222 09:49:10.910339 22224 net.cpp:137] Memory required for data: 40268720
I0222 09:49:10.910346 22224 layer_factory.hpp:77] Creating layer concat1_8
I0222 09:49:10.910356 22224 net.cpp:84] Creating Layer concat1_8
I0222 09:49:10.910360 22224 net.cpp:406] concat1_8 <- concat1_7_concat1_7_0_split_1
I0222 09:49:10.910365 22224 net.cpp:406] concat1_8 <- conv1_8/x2
I0222 09:49:10.910372 22224 net.cpp:380] concat1_8 -> concat1_8
I0222 09:49:10.910425 22224 net.cpp:122] Setting up concat1_8
I0222 09:49:10.910432 22224 net.cpp:129] Top shape: 1 416 8 21 (69888)
I0222 09:49:10.910435 22224 net.cpp:137] Memory required for data: 40548272
I0222 09:49:10.910439 22224 layer_factory.hpp:77] Creating layer concat1_8_concat1_8_0_split
I0222 09:49:10.910444 22224 net.cpp:84] Creating Layer concat1_8_concat1_8_0_split
I0222 09:49:10.910449 22224 net.cpp:406] concat1_8_concat1_8_0_split <- concat1_8
I0222 09:49:10.910454 22224 net.cpp:380] concat1_8_concat1_8_0_split -> concat1_8_concat1_8_0_split_0
I0222 09:49:10.910459 22224 net.cpp:380] concat1_8_concat1_8_0_split -> concat1_8_concat1_8_0_split_1
I0222 09:49:10.910526 22224 net.cpp:122] Setting up concat1_8_concat1_8_0_split
I0222 09:49:10.910533 22224 net.cpp:129] Top shape: 1 416 8 21 (69888)
I0222 09:49:10.910537 22224 net.cpp:129] Top shape: 1 416 8 21 (69888)
I0222 09:49:10.910540 22224 net.cpp:137] Memory required for data: 41107376
I0222 09:49:10.910543 22224 layer_factory.hpp:77] Creating layer conv1_9/x1/bn
I0222 09:49:10.910549 22224 net.cpp:84] Creating Layer conv1_9/x1/bn
I0222 09:49:10.910552 22224 net.cpp:406] conv1_9/x1/bn <- concat1_8_concat1_8_0_split_0
I0222 09:49:10.910560 22224 net.cpp:380] conv1_9/x1/bn -> conv1_9/x1/bn
I0222 09:49:10.910959 22224 net.cpp:122] Setting up conv1_9/x1/bn
I0222 09:49:10.910967 22224 net.cpp:129] Top shape: 1 416 8 21 (69888)
I0222 09:49:10.910970 22224 net.cpp:137] Memory required for data: 41386928
I0222 09:49:10.910979 22224 layer_factory.hpp:77] Creating layer conv1_9/x1/scale
I0222 09:49:10.910990 22224 net.cpp:84] Creating Layer conv1_9/x1/scale
I0222 09:49:10.910995 22224 net.cpp:406] conv1_9/x1/scale <- conv1_9/x1/bn
I0222 09:49:10.911000 22224 net.cpp:367] conv1_9/x1/scale -> conv1_9/x1/bn (in-place)
I0222 09:49:10.911077 22224 layer_factory.hpp:77] Creating layer conv1_9/x1/scale
I0222 09:49:10.911299 22224 net.cpp:122] Setting up conv1_9/x1/scale
I0222 09:49:10.911306 22224 net.cpp:129] Top shape: 1 416 8 21 (69888)
I0222 09:49:10.911310 22224 net.cpp:137] Memory required for data: 41666480
I0222 09:49:10.911316 22224 layer_factory.hpp:77] Creating layer relu1_9/x1
I0222 09:49:10.911324 22224 net.cpp:84] Creating Layer relu1_9/x1
I0222 09:49:10.911327 22224 net.cpp:406] relu1_9/x1 <- conv1_9/x1/bn
I0222 09:49:10.911331 22224 net.cpp:367] relu1_9/x1 -> conv1_9/x1/bn (in-place)
I0222 09:49:10.912531 22224 net.cpp:122] Setting up relu1_9/x1
I0222 09:49:10.912545 22224 net.cpp:129] Top shape: 1 416 8 21 (69888)
I0222 09:49:10.912549 22224 net.cpp:137] Memory required for data: 41946032
I0222 09:49:10.912554 22224 layer_factory.hpp:77] Creating layer conv1_9/x1
I0222 09:49:10.912564 22224 net.cpp:84] Creating Layer conv1_9/x1
I0222 09:49:10.912569 22224 net.cpp:406] conv1_9/x1 <- conv1_9/x1/bn
I0222 09:49:10.912577 22224 net.cpp:380] conv1_9/x1 -> conv1_9/x1
I0222 09:49:10.916142 22224 net.cpp:122] Setting up conv1_9/x1
I0222 09:49:10.916157 22224 net.cpp:129] Top shape: 1 128 8 21 (21504)
I0222 09:49:10.916160 22224 net.cpp:137] Memory required for data: 42032048
I0222 09:49:10.916167 22224 layer_factory.hpp:77] Creating layer conv1_9/x2/bn
I0222 09:49:10.916177 22224 net.cpp:84] Creating Layer conv1_9/x2/bn
I0222 09:49:10.916180 22224 net.cpp:406] conv1_9/x2/bn <- conv1_9/x1
I0222 09:49:10.916187 22224 net.cpp:380] conv1_9/x2/bn -> conv1_9/x2/bn
I0222 09:49:10.916580 22224 net.cpp:122] Setting up conv1_9/x2/bn
I0222 09:49:10.916589 22224 net.cpp:129] Top shape: 1 128 8 21 (21504)
I0222 09:49:10.916591 22224 net.cpp:137] Memory required for data: 42118064
I0222 09:49:10.916599 22224 layer_factory.hpp:77] Creating layer conv1_9/x2/scale
I0222 09:49:10.916607 22224 net.cpp:84] Creating Layer conv1_9/x2/scale
I0222 09:49:10.916611 22224 net.cpp:406] conv1_9/x2/scale <- conv1_9/x2/bn
I0222 09:49:10.916616 22224 net.cpp:367] conv1_9/x2/scale -> conv1_9/x2/bn (in-place)
I0222 09:49:10.916710 22224 layer_factory.hpp:77] Creating layer conv1_9/x2/scale
I0222 09:49:10.916913 22224 net.cpp:122] Setting up conv1_9/x2/scale
I0222 09:49:10.916920 22224 net.cpp:129] Top shape: 1 128 8 21 (21504)
I0222 09:49:10.916923 22224 net.cpp:137] Memory required for data: 42204080
I0222 09:49:10.916929 22224 layer_factory.hpp:77] Creating layer relu1_9/x2
I0222 09:49:10.916935 22224 net.cpp:84] Creating Layer relu1_9/x2
I0222 09:49:10.916939 22224 net.cpp:406] relu1_9/x2 <- conv1_9/x2/bn
I0222 09:49:10.916944 22224 net.cpp:367] relu1_9/x2 -> conv1_9/x2/bn (in-place)
I0222 09:49:10.917181 22224 net.cpp:122] Setting up relu1_9/x2
I0222 09:49:10.917191 22224 net.cpp:129] Top shape: 1 128 8 21 (21504)
I0222 09:49:10.917193 22224 net.cpp:137] Memory required for data: 42290096
I0222 09:49:10.917197 22224 layer_factory.hpp:77] Creating layer conv1_9/x2
I0222 09:49:10.917210 22224 net.cpp:84] Creating Layer conv1_9/x2
I0222 09:49:10.917214 22224 net.cpp:406] conv1_9/x2 <- conv1_9/x2/bn
I0222 09:49:10.917220 22224 net.cpp:380] conv1_9/x2 -> conv1_9/x2
I0222 09:49:10.920332 22224 net.cpp:122] Setting up conv1_9/x2
I0222 09:49:10.920349 22224 net.cpp:129] Top shape: 1 32 8 21 (5376)
I0222 09:49:10.920353 22224 net.cpp:137] Memory required for data: 42311600
I0222 09:49:10.920359 22224 layer_factory.hpp:77] Creating layer concat1_9
I0222 09:49:10.920367 22224 net.cpp:84] Creating Layer concat1_9
I0222 09:49:10.920370 22224 net.cpp:406] concat1_9 <- concat1_8_concat1_8_0_split_1
I0222 09:49:10.920375 22224 net.cpp:406] concat1_9 <- conv1_9/x2
I0222 09:49:10.920382 22224 net.cpp:380] concat1_9 -> concat1_9
I0222 09:49:10.920429 22224 net.cpp:122] Setting up concat1_9
I0222 09:49:10.920440 22224 net.cpp:129] Top shape: 1 448 8 21 (75264)
I0222 09:49:10.920444 22224 net.cpp:137] Memory required for data: 42612656
I0222 09:49:10.920446 22224 layer_factory.hpp:77] Creating layer concat1_9_concat1_9_0_split
I0222 09:49:10.920451 22224 net.cpp:84] Creating Layer concat1_9_concat1_9_0_split
I0222 09:49:10.920455 22224 net.cpp:406] concat1_9_concat1_9_0_split <- concat1_9
I0222 09:49:10.920460 22224 net.cpp:380] concat1_9_concat1_9_0_split -> concat1_9_concat1_9_0_split_0
I0222 09:49:10.920469 22224 net.cpp:380] concat1_9_concat1_9_0_split -> concat1_9_concat1_9_0_split_1
I0222 09:49:10.920539 22224 net.cpp:122] Setting up concat1_9_concat1_9_0_split
I0222 09:49:10.920547 22224 net.cpp:129] Top shape: 1 448 8 21 (75264)
I0222 09:49:10.920550 22224 net.cpp:129] Top shape: 1 448 8 21 (75264)
I0222 09:49:10.920553 22224 net.cpp:137] Memory required for data: 43214768
I0222 09:49:10.920557 22224 layer_factory.hpp:77] Creating layer conv1_10/x1/bn
I0222 09:49:10.920562 22224 net.cpp:84] Creating Layer conv1_10/x1/bn
I0222 09:49:10.920565 22224 net.cpp:406] conv1_10/x1/bn <- concat1_9_concat1_9_0_split_0
I0222 09:49:10.920572 22224 net.cpp:380] conv1_10/x1/bn -> conv1_10/x1/bn
I0222 09:49:10.921007 22224 net.cpp:122] Setting up conv1_10/x1/bn
I0222 09:49:10.921015 22224 net.cpp:129] Top shape: 1 448 8 21 (75264)
I0222 09:49:10.921018 22224 net.cpp:137] Memory required for data: 43515824
I0222 09:49:10.921026 22224 layer_factory.hpp:77] Creating layer conv1_10/x1/scale
I0222 09:49:10.921041 22224 net.cpp:84] Creating Layer conv1_10/x1/scale
I0222 09:49:10.921046 22224 net.cpp:406] conv1_10/x1/scale <- conv1_10/x1/bn
I0222 09:49:10.921052 22224 net.cpp:367] conv1_10/x1/scale -> conv1_10/x1/bn (in-place)
I0222 09:49:10.921128 22224 layer_factory.hpp:77] Creating layer conv1_10/x1/scale
I0222 09:49:10.921355 22224 net.cpp:122] Setting up conv1_10/x1/scale
I0222 09:49:10.921363 22224 net.cpp:129] Top shape: 1 448 8 21 (75264)
I0222 09:49:10.921366 22224 net.cpp:137] Memory required for data: 43816880
I0222 09:49:10.921372 22224 layer_factory.hpp:77] Creating layer relu1_10/x1
I0222 09:49:10.921378 22224 net.cpp:84] Creating Layer relu1_10/x1
I0222 09:49:10.921381 22224 net.cpp:406] relu1_10/x1 <- conv1_10/x1/bn
I0222 09:49:10.921386 22224 net.cpp:367] relu1_10/x1 -> conv1_10/x1/bn (in-place)
I0222 09:49:10.921607 22224 net.cpp:122] Setting up relu1_10/x1
I0222 09:49:10.921617 22224 net.cpp:129] Top shape: 1 448 8 21 (75264)
I0222 09:49:10.921619 22224 net.cpp:137] Memory required for data: 44117936
I0222 09:49:10.921623 22224 layer_factory.hpp:77] Creating layer conv1_10/x1
I0222 09:49:10.921635 22224 net.cpp:84] Creating Layer conv1_10/x1
I0222 09:49:10.921639 22224 net.cpp:406] conv1_10/x1 <- conv1_10/x1/bn
I0222 09:49:10.921645 22224 net.cpp:380] conv1_10/x1 -> conv1_10/x1
I0222 09:49:10.927091 22224 net.cpp:122] Setting up conv1_10/x1
I0222 09:49:10.927106 22224 net.cpp:129] Top shape: 1 128 8 21 (21504)
I0222 09:49:10.927110 22224 net.cpp:137] Memory required for data: 44203952
I0222 09:49:10.927116 22224 layer_factory.hpp:77] Creating layer conv1_10/x2/bn
I0222 09:49:10.927124 22224 net.cpp:84] Creating Layer conv1_10/x2/bn
I0222 09:49:10.927129 22224 net.cpp:406] conv1_10/x2/bn <- conv1_10/x1
I0222 09:49:10.927136 22224 net.cpp:380] conv1_10/x2/bn -> conv1_10/x2/bn
I0222 09:49:10.927543 22224 net.cpp:122] Setting up conv1_10/x2/bn
I0222 09:49:10.927551 22224 net.cpp:129] Top shape: 1 128 8 21 (21504)
I0222 09:49:10.927554 22224 net.cpp:137] Memory required for data: 44289968
I0222 09:49:10.927561 22224 layer_factory.hpp:77] Creating layer conv1_10/x2/scale
I0222 09:49:10.927568 22224 net.cpp:84] Creating Layer conv1_10/x2/scale
I0222 09:49:10.927572 22224 net.cpp:406] conv1_10/x2/scale <- conv1_10/x2/bn
I0222 09:49:10.927579 22224 net.cpp:367] conv1_10/x2/scale -> conv1_10/x2/bn (in-place)
I0222 09:49:10.927649 22224 layer_factory.hpp:77] Creating layer conv1_10/x2/scale
I0222 09:49:10.927850 22224 net.cpp:122] Setting up conv1_10/x2/scale
I0222 09:49:10.927857 22224 net.cpp:129] Top shape: 1 128 8 21 (21504)
I0222 09:49:10.927863 22224 net.cpp:137] Memory required for data: 44375984
I0222 09:49:10.927870 22224 layer_factory.hpp:77] Creating layer relu1_10/x2
I0222 09:49:10.927875 22224 net.cpp:84] Creating Layer relu1_10/x2
I0222 09:49:10.927880 22224 net.cpp:406] relu1_10/x2 <- conv1_10/x2/bn
I0222 09:49:10.927883 22224 net.cpp:367] relu1_10/x2 -> conv1_10/x2/bn (in-place)
I0222 09:49:10.929074 22224 net.cpp:122] Setting up relu1_10/x2
I0222 09:49:10.929087 22224 net.cpp:129] Top shape: 1 128 8 21 (21504)
I0222 09:49:10.929090 22224 net.cpp:137] Memory required for data: 44462000
I0222 09:49:10.929095 22224 layer_factory.hpp:77] Creating layer conv1_10/x2
I0222 09:49:10.929105 22224 net.cpp:84] Creating Layer conv1_10/x2
I0222 09:49:10.929111 22224 net.cpp:406] conv1_10/x2 <- conv1_10/x2/bn
I0222 09:49:10.929117 22224 net.cpp:380] conv1_10/x2 -> conv1_10/x2
I0222 09:49:10.933279 22224 net.cpp:122] Setting up conv1_10/x2
I0222 09:49:10.933295 22224 net.cpp:129] Top shape: 1 32 8 21 (5376)
I0222 09:49:10.933298 22224 net.cpp:137] Memory required for data: 44483504
I0222 09:49:10.933305 22224 layer_factory.hpp:77] Creating layer concat1_10
I0222 09:49:10.933312 22224 net.cpp:84] Creating Layer concat1_10
I0222 09:49:10.933317 22224 net.cpp:406] concat1_10 <- concat1_9_concat1_9_0_split_1
I0222 09:49:10.933322 22224 net.cpp:406] concat1_10 <- conv1_10/x2
I0222 09:49:10.933327 22224 net.cpp:380] concat1_10 -> concat1_10
I0222 09:49:10.933387 22224 net.cpp:122] Setting up concat1_10
I0222 09:49:10.933396 22224 net.cpp:129] Top shape: 1 480 8 21 (80640)
I0222 09:49:10.933400 22224 net.cpp:137] Memory required for data: 44806064
I0222 09:49:10.933403 22224 layer_factory.hpp:77] Creating layer concat1_10_concat1_10_0_split
I0222 09:49:10.933409 22224 net.cpp:84] Creating Layer concat1_10_concat1_10_0_split
I0222 09:49:10.933413 22224 net.cpp:406] concat1_10_concat1_10_0_split <- concat1_10
I0222 09:49:10.933418 22224 net.cpp:380] concat1_10_concat1_10_0_split -> concat1_10_concat1_10_0_split_0
I0222 09:49:10.933423 22224 net.cpp:380] concat1_10_concat1_10_0_split -> concat1_10_concat1_10_0_split_1
I0222 09:49:10.933492 22224 net.cpp:122] Setting up concat1_10_concat1_10_0_split
I0222 09:49:10.933499 22224 net.cpp:129] Top shape: 1 480 8 21 (80640)
I0222 09:49:10.933503 22224 net.cpp:129] Top shape: 1 480 8 21 (80640)
I0222 09:49:10.933506 22224 net.cpp:137] Memory required for data: 45451184
I0222 09:49:10.933509 22224 layer_factory.hpp:77] Creating layer conv1_11/x1/bn
I0222 09:49:10.933517 22224 net.cpp:84] Creating Layer conv1_11/x1/bn
I0222 09:49:10.933521 22224 net.cpp:406] conv1_11/x1/bn <- concat1_10_concat1_10_0_split_0
I0222 09:49:10.933526 22224 net.cpp:380] conv1_11/x1/bn -> conv1_11/x1/bn
I0222 09:49:10.933949 22224 net.cpp:122] Setting up conv1_11/x1/bn
I0222 09:49:10.933956 22224 net.cpp:129] Top shape: 1 480 8 21 (80640)
I0222 09:49:10.933959 22224 net.cpp:137] Memory required for data: 45773744
I0222 09:49:10.933967 22224 layer_factory.hpp:77] Creating layer conv1_11/x1/scale
I0222 09:49:10.933976 22224 net.cpp:84] Creating Layer conv1_11/x1/scale
I0222 09:49:10.933980 22224 net.cpp:406] conv1_11/x1/scale <- conv1_11/x1/bn
I0222 09:49:10.933986 22224 net.cpp:367] conv1_11/x1/scale -> conv1_11/x1/bn (in-place)
I0222 09:49:10.934062 22224 layer_factory.hpp:77] Creating layer conv1_11/x1/scale
I0222 09:49:10.934288 22224 net.cpp:122] Setting up conv1_11/x1/scale
I0222 09:49:10.934295 22224 net.cpp:129] Top shape: 1 480 8 21 (80640)
I0222 09:49:10.934299 22224 net.cpp:137] Memory required for data: 46096304
I0222 09:49:10.934305 22224 layer_factory.hpp:77] Creating layer relu1_11/x1
I0222 09:49:10.934310 22224 net.cpp:84] Creating Layer relu1_11/x1
I0222 09:49:10.934314 22224 net.cpp:406] relu1_11/x1 <- conv1_11/x1/bn
I0222 09:49:10.934319 22224 net.cpp:367] relu1_11/x1 -> conv1_11/x1/bn (in-place)
I0222 09:49:10.934556 22224 net.cpp:122] Setting up relu1_11/x1
I0222 09:49:10.934564 22224 net.cpp:129] Top shape: 1 480 8 21 (80640)
I0222 09:49:10.934568 22224 net.cpp:137] Memory required for data: 46418864
I0222 09:49:10.934576 22224 layer_factory.hpp:77] Creating layer conv1_11/x1
I0222 09:49:10.934586 22224 net.cpp:84] Creating Layer conv1_11/x1
I0222 09:49:10.934592 22224 net.cpp:406] conv1_11/x1 <- conv1_11/x1/bn
I0222 09:49:10.934597 22224 net.cpp:380] conv1_11/x1 -> conv1_11/x1
I0222 09:49:10.938413 22224 net.cpp:122] Setting up conv1_11/x1
I0222 09:49:10.938427 22224 net.cpp:129] Top shape: 1 128 8 21 (21504)
I0222 09:49:10.938431 22224 net.cpp:137] Memory required for data: 46504880
I0222 09:49:10.938437 22224 layer_factory.hpp:77] Creating layer conv1_11/x2/bn
I0222 09:49:10.938446 22224 net.cpp:84] Creating Layer conv1_11/x2/bn
I0222 09:49:10.938450 22224 net.cpp:406] conv1_11/x2/bn <- conv1_11/x1
I0222 09:49:10.938457 22224 net.cpp:380] conv1_11/x2/bn -> conv1_11/x2/bn
I0222 09:49:10.938860 22224 net.cpp:122] Setting up conv1_11/x2/bn
I0222 09:49:10.938868 22224 net.cpp:129] Top shape: 1 128 8 21 (21504)
I0222 09:49:10.938870 22224 net.cpp:137] Memory required for data: 46590896
I0222 09:49:10.938879 22224 layer_factory.hpp:77] Creating layer conv1_11/x2/scale
I0222 09:49:10.938886 22224 net.cpp:84] Creating Layer conv1_11/x2/scale
I0222 09:49:10.938890 22224 net.cpp:406] conv1_11/x2/scale <- conv1_11/x2/bn
I0222 09:49:10.938895 22224 net.cpp:367] conv1_11/x2/scale -> conv1_11/x2/bn (in-place)
I0222 09:49:10.938963 22224 layer_factory.hpp:77] Creating layer conv1_11/x2/scale
I0222 09:49:10.939165 22224 net.cpp:122] Setting up conv1_11/x2/scale
I0222 09:49:10.939173 22224 net.cpp:129] Top shape: 1 128 8 21 (21504)
I0222 09:49:10.939177 22224 net.cpp:137] Memory required for data: 46676912
I0222 09:49:10.939182 22224 layer_factory.hpp:77] Creating layer relu1_11/x2
I0222 09:49:10.939188 22224 net.cpp:84] Creating Layer relu1_11/x2
I0222 09:49:10.939191 22224 net.cpp:406] relu1_11/x2 <- conv1_11/x2/bn
I0222 09:49:10.939198 22224 net.cpp:367] relu1_11/x2 -> conv1_11/x2/bn (in-place)
I0222 09:49:10.939424 22224 net.cpp:122] Setting up relu1_11/x2
I0222 09:49:10.939432 22224 net.cpp:129] Top shape: 1 128 8 21 (21504)
I0222 09:49:10.939436 22224 net.cpp:137] Memory required for data: 46762928
I0222 09:49:10.939440 22224 layer_factory.hpp:77] Creating layer conv1_11/x2
I0222 09:49:10.939450 22224 net.cpp:84] Creating Layer conv1_11/x2
I0222 09:49:10.939455 22224 net.cpp:406] conv1_11/x2 <- conv1_11/x2/bn
I0222 09:49:10.939462 22224 net.cpp:380] conv1_11/x2 -> conv1_11/x2
I0222 09:49:10.942559 22224 net.cpp:122] Setting up conv1_11/x2
I0222 09:49:10.942574 22224 net.cpp:129] Top shape: 1 32 8 21 (5376)
I0222 09:49:10.942579 22224 net.cpp:137] Memory required for data: 46784432
I0222 09:49:10.942584 22224 layer_factory.hpp:77] Creating layer concat1_11
I0222 09:49:10.942593 22224 net.cpp:84] Creating Layer concat1_11
I0222 09:49:10.942597 22224 net.cpp:406] concat1_11 <- concat1_10_concat1_10_0_split_1
I0222 09:49:10.942603 22224 net.cpp:406] concat1_11 <- conv1_11/x2
I0222 09:49:10.942610 22224 net.cpp:380] concat1_11 -> concat1_11
I0222 09:49:10.942658 22224 net.cpp:122] Setting up concat1_11
I0222 09:49:10.942664 22224 net.cpp:129] Top shape: 1 512 8 21 (86016)
I0222 09:49:10.942667 22224 net.cpp:137] Memory required for data: 47128496
I0222 09:49:10.942672 22224 layer_factory.hpp:77] Creating layer BatchNorm2
I0222 09:49:10.942678 22224 net.cpp:84] Creating Layer BatchNorm2
I0222 09:49:10.942682 22224 net.cpp:406] BatchNorm2 <- concat1_11
I0222 09:49:10.942687 22224 net.cpp:380] BatchNorm2 -> BatchNorm2
I0222 09:49:10.943106 22224 net.cpp:122] Setting up BatchNorm2
I0222 09:49:10.943114 22224 net.cpp:129] Top shape: 1 512 8 21 (86016)
I0222 09:49:10.943117 22224 net.cpp:137] Memory required for data: 47472560
I0222 09:49:10.943126 22224 layer_factory.hpp:77] Creating layer Scale2
I0222 09:49:10.943133 22224 net.cpp:84] Creating Layer Scale2
I0222 09:49:10.943137 22224 net.cpp:406] Scale2 <- BatchNorm2
I0222 09:49:10.943142 22224 net.cpp:367] Scale2 -> BatchNorm2 (in-place)
I0222 09:49:10.943207 22224 layer_factory.hpp:77] Creating layer Scale2
I0222 09:49:10.943425 22224 net.cpp:122] Setting up Scale2
I0222 09:49:10.943433 22224 net.cpp:129] Top shape: 1 512 8 21 (86016)
I0222 09:49:10.943439 22224 net.cpp:137] Memory required for data: 47816624
I0222 09:49:10.943445 22224 layer_factory.hpp:77] Creating layer ReLU2
I0222 09:49:10.943451 22224 net.cpp:84] Creating Layer ReLU2
I0222 09:49:10.943454 22224 net.cpp:406] ReLU2 <- BatchNorm2
I0222 09:49:10.943460 22224 net.cpp:367] ReLU2 -> BatchNorm2 (in-place)
I0222 09:49:10.943693 22224 net.cpp:122] Setting up ReLU2
I0222 09:49:10.943702 22224 net.cpp:129] Top shape: 1 512 8 21 (86016)
I0222 09:49:10.943706 22224 net.cpp:137] Memory required for data: 48160688
I0222 09:49:10.943709 22224 layer_factory.hpp:77] Creating layer conv1_blk
I0222 09:49:10.943722 22224 net.cpp:84] Creating Layer conv1_blk
I0222 09:49:10.943725 22224 net.cpp:406] conv1_blk <- BatchNorm2
I0222 09:49:10.943732 22224 net.cpp:380] conv1_blk -> conv1_blk
I0222 09:49:10.951285 22224 net.cpp:122] Setting up conv1_blk
I0222 09:49:10.951305 22224 net.cpp:129] Top shape: 1 256 8 21 (43008)
I0222 09:49:10.951309 22224 net.cpp:137] Memory required for data: 48332720
I0222 09:49:10.951316 22224 layer_factory.hpp:77] Creating layer pool1
I0222 09:49:10.951323 22224 net.cpp:84] Creating Layer pool1
I0222 09:49:10.951328 22224 net.cpp:406] pool1 <- conv1_blk
I0222 09:49:10.951334 22224 net.cpp:380] pool1 -> pool1
I0222 09:49:10.952581 22224 net.cpp:122] Setting up pool1
I0222 09:49:10.952597 22224 net.cpp:129] Top shape: 1 256 4 11 (11264)
I0222 09:49:10.952600 22224 net.cpp:137] Memory required for data: 48377776
I0222 09:49:10.952605 22224 layer_factory.hpp:77] Creating layer pool1_pool1_0_split
I0222 09:49:10.952611 22224 net.cpp:84] Creating Layer pool1_pool1_0_split
I0222 09:49:10.952615 22224 net.cpp:406] pool1_pool1_0_split <- pool1
I0222 09:49:10.952620 22224 net.cpp:380] pool1_pool1_0_split -> pool1_pool1_0_split_0
I0222 09:49:10.952633 22224 net.cpp:380] pool1_pool1_0_split -> pool1_pool1_0_split_1
I0222 09:49:10.952708 22224 net.cpp:122] Setting up pool1_pool1_0_split
I0222 09:49:10.952718 22224 net.cpp:129] Top shape: 1 256 4 11 (11264)
I0222 09:49:10.952721 22224 net.cpp:129] Top shape: 1 256 4 11 (11264)
I0222 09:49:10.952724 22224 net.cpp:137] Memory required for data: 48467888
I0222 09:49:10.952728 22224 layer_factory.hpp:77] Creating layer conv2_0/x1/bn
I0222 09:49:10.952733 22224 net.cpp:84] Creating Layer conv2_0/x1/bn
I0222 09:49:10.952738 22224 net.cpp:406] conv2_0/x1/bn <- pool1_pool1_0_split_0
I0222 09:49:10.952744 22224 net.cpp:380] conv2_0/x1/bn -> conv2_0/x1/bn
I0222 09:49:10.953161 22224 net.cpp:122] Setting up conv2_0/x1/bn
I0222 09:49:10.953171 22224 net.cpp:129] Top shape: 1 256 4 11 (11264)
I0222 09:49:10.953174 22224 net.cpp:137] Memory required for data: 48512944
I0222 09:49:10.953182 22224 layer_factory.hpp:77] Creating layer conv2_0/x1/scale
I0222 09:49:10.953188 22224 net.cpp:84] Creating Layer conv2_0/x1/scale
I0222 09:49:10.953192 22224 net.cpp:406] conv2_0/x1/scale <- conv2_0/x1/bn
I0222 09:49:10.953199 22224 net.cpp:367] conv2_0/x1/scale -> conv2_0/x1/bn (in-place)
I0222 09:49:10.953271 22224 layer_factory.hpp:77] Creating layer conv2_0/x1/scale
I0222 09:49:10.953486 22224 net.cpp:122] Setting up conv2_0/x1/scale
I0222 09:49:10.953495 22224 net.cpp:129] Top shape: 1 256 4 11 (11264)
I0222 09:49:10.953497 22224 net.cpp:137] Memory required for data: 48558000
I0222 09:49:10.953503 22224 layer_factory.hpp:77] Creating layer relu2_0/x1
I0222 09:49:10.953510 22224 net.cpp:84] Creating Layer relu2_0/x1
I0222 09:49:10.953513 22224 net.cpp:406] relu2_0/x1 <- conv2_0/x1/bn
I0222 09:49:10.953517 22224 net.cpp:367] relu2_0/x1 -> conv2_0/x1/bn (in-place)
I0222 09:49:10.953737 22224 net.cpp:122] Setting up relu2_0/x1
I0222 09:49:10.953745 22224 net.cpp:129] Top shape: 1 256 4 11 (11264)
I0222 09:49:10.953748 22224 net.cpp:137] Memory required for data: 48603056
I0222 09:49:10.953752 22224 layer_factory.hpp:77] Creating layer conv2_0/x1
I0222 09:49:10.953763 22224 net.cpp:84] Creating Layer conv2_0/x1
I0222 09:49:10.953768 22224 net.cpp:406] conv2_0/x1 <- conv2_0/x1/bn
I0222 09:49:10.953775 22224 net.cpp:380] conv2_0/x1 -> conv2_0/x1
I0222 09:49:10.957803 22224 net.cpp:122] Setting up conv2_0/x1
I0222 09:49:10.957818 22224 net.cpp:129] Top shape: 1 128 4 11 (5632)
I0222 09:49:10.957823 22224 net.cpp:137] Memory required for data: 48625584
I0222 09:49:10.957828 22224 layer_factory.hpp:77] Creating layer conv2_0/x2/bn
I0222 09:49:10.957839 22224 net.cpp:84] Creating Layer conv2_0/x2/bn
I0222 09:49:10.957842 22224 net.cpp:406] conv2_0/x2/bn <- conv2_0/x1
I0222 09:49:10.957849 22224 net.cpp:380] conv2_0/x2/bn -> conv2_0/x2/bn
I0222 09:49:10.958266 22224 net.cpp:122] Setting up conv2_0/x2/bn
I0222 09:49:10.958276 22224 net.cpp:129] Top shape: 1 128 4 11 (5632)
I0222 09:49:10.958278 22224 net.cpp:137] Memory required for data: 48648112
I0222 09:49:10.958286 22224 layer_factory.hpp:77] Creating layer conv2_0/x2/scale
I0222 09:49:10.958294 22224 net.cpp:84] Creating Layer conv2_0/x2/scale
I0222 09:49:10.958298 22224 net.cpp:406] conv2_0/x2/scale <- conv2_0/x2/bn
I0222 09:49:10.958303 22224 net.cpp:367] conv2_0/x2/scale -> conv2_0/x2/bn (in-place)
I0222 09:49:10.958374 22224 layer_factory.hpp:77] Creating layer conv2_0/x2/scale
I0222 09:49:10.958590 22224 net.cpp:122] Setting up conv2_0/x2/scale
I0222 09:49:10.958597 22224 net.cpp:129] Top shape: 1 128 4 11 (5632)
I0222 09:49:10.958601 22224 net.cpp:137] Memory required for data: 48670640
I0222 09:49:10.958607 22224 layer_factory.hpp:77] Creating layer relu2_0/x2
I0222 09:49:10.958613 22224 net.cpp:84] Creating Layer relu2_0/x2
I0222 09:49:10.958616 22224 net.cpp:406] relu2_0/x2 <- conv2_0/x2/bn
I0222 09:49:10.958621 22224 net.cpp:367] relu2_0/x2 -> conv2_0/x2/bn (in-place)
I0222 09:49:10.958847 22224 net.cpp:122] Setting up relu2_0/x2
I0222 09:49:10.958855 22224 net.cpp:129] Top shape: 1 128 4 11 (5632)
I0222 09:49:10.958859 22224 net.cpp:137] Memory required for data: 48693168
I0222 09:49:10.958863 22224 layer_factory.hpp:77] Creating layer conv2_0/x2
I0222 09:49:10.958873 22224 net.cpp:84] Creating Layer conv2_0/x2
I0222 09:49:10.958878 22224 net.cpp:406] conv2_0/x2 <- conv2_0/x2/bn
I0222 09:49:10.958886 22224 net.cpp:380] conv2_0/x2 -> conv2_0/x2
I0222 09:49:10.963029 22224 net.cpp:122] Setting up conv2_0/x2
I0222 09:49:10.963043 22224 net.cpp:129] Top shape: 1 32 4 11 (1408)
I0222 09:49:10.963047 22224 net.cpp:137] Memory required for data: 48698800
I0222 09:49:10.963053 22224 layer_factory.hpp:77] Creating layer concat2_0
I0222 09:49:10.963062 22224 net.cpp:84] Creating Layer concat2_0
I0222 09:49:10.963065 22224 net.cpp:406] concat2_0 <- pool1_pool1_0_split_1
I0222 09:49:10.963070 22224 net.cpp:406] concat2_0 <- conv2_0/x2
I0222 09:49:10.963078 22224 net.cpp:380] concat2_0 -> concat2_0
I0222 09:49:10.963134 22224 net.cpp:122] Setting up concat2_0
I0222 09:49:10.963140 22224 net.cpp:129] Top shape: 1 288 4 11 (12672)
I0222 09:49:10.963143 22224 net.cpp:137] Memory required for data: 48749488
I0222 09:49:10.963146 22224 layer_factory.hpp:77] Creating layer concat2_0_concat2_0_0_split
I0222 09:49:10.963151 22224 net.cpp:84] Creating Layer concat2_0_concat2_0_0_split
I0222 09:49:10.963157 22224 net.cpp:406] concat2_0_concat2_0_0_split <- concat2_0
I0222 09:49:10.963162 22224 net.cpp:380] concat2_0_concat2_0_0_split -> concat2_0_concat2_0_0_split_0
I0222 09:49:10.963168 22224 net.cpp:380] concat2_0_concat2_0_0_split -> concat2_0_concat2_0_0_split_1
I0222 09:49:10.963241 22224 net.cpp:122] Setting up concat2_0_concat2_0_0_split
I0222 09:49:10.963248 22224 net.cpp:129] Top shape: 1 288 4 11 (12672)
I0222 09:49:10.963253 22224 net.cpp:129] Top shape: 1 288 4 11 (12672)
I0222 09:49:10.963255 22224 net.cpp:137] Memory required for data: 48850864
I0222 09:49:10.963258 22224 layer_factory.hpp:77] Creating layer conv2_1/x1/bn
I0222 09:49:10.963266 22224 net.cpp:84] Creating Layer conv2_1/x1/bn
I0222 09:49:10.963269 22224 net.cpp:406] conv2_1/x1/bn <- concat2_0_concat2_0_0_split_0
I0222 09:49:10.963275 22224 net.cpp:380] conv2_1/x1/bn -> conv2_1/x1/bn
I0222 09:49:10.963706 22224 net.cpp:122] Setting up conv2_1/x1/bn
I0222 09:49:10.963714 22224 net.cpp:129] Top shape: 1 288 4 11 (12672)
I0222 09:49:10.963721 22224 net.cpp:137] Memory required for data: 48901552
I0222 09:49:10.963729 22224 layer_factory.hpp:77] Creating layer conv2_1/x1/scale
I0222 09:49:10.963737 22224 net.cpp:84] Creating Layer conv2_1/x1/scale
I0222 09:49:10.963739 22224 net.cpp:406] conv2_1/x1/scale <- conv2_1/x1/bn
I0222 09:49:10.963747 22224 net.cpp:367] conv2_1/x1/scale -> conv2_1/x1/bn (in-place)
I0222 09:49:10.963827 22224 layer_factory.hpp:77] Creating layer conv2_1/x1/scale
I0222 09:49:10.964063 22224 net.cpp:122] Setting up conv2_1/x1/scale
I0222 09:49:10.964071 22224 net.cpp:129] Top shape: 1 288 4 11 (12672)
I0222 09:49:10.964074 22224 net.cpp:137] Memory required for data: 48952240
I0222 09:49:10.964081 22224 layer_factory.hpp:77] Creating layer relu2_1/x1
I0222 09:49:10.964085 22224 net.cpp:84] Creating Layer relu2_1/x1
I0222 09:49:10.964089 22224 net.cpp:406] relu2_1/x1 <- conv2_1/x1/bn
I0222 09:49:10.964097 22224 net.cpp:367] relu2_1/x1 -> conv2_1/x1/bn (in-place)
I0222 09:49:10.965314 22224 net.cpp:122] Setting up relu2_1/x1
I0222 09:49:10.965328 22224 net.cpp:129] Top shape: 1 288 4 11 (12672)
I0222 09:49:10.965332 22224 net.cpp:137] Memory required for data: 49002928
I0222 09:49:10.965335 22224 layer_factory.hpp:77] Creating layer conv2_1/x1
I0222 09:49:10.965349 22224 net.cpp:84] Creating Layer conv2_1/x1
I0222 09:49:10.965353 22224 net.cpp:406] conv2_1/x1 <- conv2_1/x1/bn
I0222 09:49:10.965360 22224 net.cpp:380] conv2_1/x1 -> conv2_1/x1
I0222 09:49:10.968480 22224 net.cpp:122] Setting up conv2_1/x1
I0222 09:49:10.968497 22224 net.cpp:129] Top shape: 1 128 4 11 (5632)
I0222 09:49:10.968500 22224 net.cpp:137] Memory required for data: 49025456
I0222 09:49:10.968506 22224 layer_factory.hpp:77] Creating layer conv2_1/x2/bn
I0222 09:49:10.968514 22224 net.cpp:84] Creating Layer conv2_1/x2/bn
I0222 09:49:10.968518 22224 net.cpp:406] conv2_1/x2/bn <- conv2_1/x1
I0222 09:49:10.968526 22224 net.cpp:380] conv2_1/x2/bn -> conv2_1/x2/bn
I0222 09:49:10.968951 22224 net.cpp:122] Setting up conv2_1/x2/bn
I0222 09:49:10.968961 22224 net.cpp:129] Top shape: 1 128 4 11 (5632)
I0222 09:49:10.968964 22224 net.cpp:137] Memory required for data: 49047984
I0222 09:49:10.968972 22224 layer_factory.hpp:77] Creating layer conv2_1/x2/scale
I0222 09:49:10.968979 22224 net.cpp:84] Creating Layer conv2_1/x2/scale
I0222 09:49:10.968983 22224 net.cpp:406] conv2_1/x2/scale <- conv2_1/x2/bn
I0222 09:49:10.968993 22224 net.cpp:367] conv2_1/x2/scale -> conv2_1/x2/bn (in-place)
I0222 09:49:10.969065 22224 layer_factory.hpp:77] Creating layer conv2_1/x2/scale
I0222 09:49:10.969277 22224 net.cpp:122] Setting up conv2_1/x2/scale
I0222 09:49:10.969285 22224 net.cpp:129] Top shape: 1 128 4 11 (5632)
I0222 09:49:10.969288 22224 net.cpp:137] Memory required for data: 49070512
I0222 09:49:10.969310 22224 layer_factory.hpp:77] Creating layer relu2_1/x2
I0222 09:49:10.969317 22224 net.cpp:84] Creating Layer relu2_1/x2
I0222 09:49:10.969321 22224 net.cpp:406] relu2_1/x2 <- conv2_1/x2/bn
I0222 09:49:10.969326 22224 net.cpp:367] relu2_1/x2 -> conv2_1/x2/bn (in-place)
I0222 09:49:10.969560 22224 net.cpp:122] Setting up relu2_1/x2
I0222 09:49:10.969569 22224 net.cpp:129] Top shape: 1 128 4 11 (5632)
I0222 09:49:10.969573 22224 net.cpp:137] Memory required for data: 49093040
I0222 09:49:10.969576 22224 layer_factory.hpp:77] Creating layer conv2_1/x2
I0222 09:49:10.969588 22224 net.cpp:84] Creating Layer conv2_1/x2
I0222 09:49:10.969591 22224 net.cpp:406] conv2_1/x2 <- conv2_1/x2/bn
I0222 09:49:10.969599 22224 net.cpp:380] conv2_1/x2 -> conv2_1/x2
I0222 09:49:10.972738 22224 net.cpp:122] Setting up conv2_1/x2
I0222 09:49:10.972754 22224 net.cpp:129] Top shape: 1 32 4 11 (1408)
I0222 09:49:10.972756 22224 net.cpp:137] Memory required for data: 49098672
I0222 09:49:10.972762 22224 layer_factory.hpp:77] Creating layer concat2_1
I0222 09:49:10.972769 22224 net.cpp:84] Creating Layer concat2_1
I0222 09:49:10.972774 22224 net.cpp:406] concat2_1 <- concat2_0_concat2_0_0_split_1
I0222 09:49:10.972781 22224 net.cpp:406] concat2_1 <- conv2_1/x2
I0222 09:49:10.972787 22224 net.cpp:380] concat2_1 -> concat2_1
I0222 09:49:10.972843 22224 net.cpp:122] Setting up concat2_1
I0222 09:49:10.972851 22224 net.cpp:129] Top shape: 1 320 4 11 (14080)
I0222 09:49:10.972853 22224 net.cpp:137] Memory required for data: 49154992
I0222 09:49:10.972857 22224 layer_factory.hpp:77] Creating layer concat2_1_concat2_1_0_split
I0222 09:49:10.972864 22224 net.cpp:84] Creating Layer concat2_1_concat2_1_0_split
I0222 09:49:10.972868 22224 net.cpp:406] concat2_1_concat2_1_0_split <- concat2_1
I0222 09:49:10.972873 22224 net.cpp:380] concat2_1_concat2_1_0_split -> concat2_1_concat2_1_0_split_0
…
I0222 09:49:13.088466 22224 net.cpp:122] Setting up concat3_7_concat3_7_0_split
I0222 09:49:13.088472 22224 net.cpp:129] Top shape: 1 768 2 6 (9216)
I0222 09:49:13.088476 22224 net.cpp:129] Top shape: 1 768 2 6 (9216)
I0222 09:49:13.088479 22224 net.cpp:137] Memory required for data: 69013424
I0222 09:49:13.088482 22224 layer_factory.hpp:77] Creating layer conv3_8/x1/bn
I0222 09:49:13.088490 22224 net.cpp:84] Creating Layer conv3_8/x1/bn
I0222 09:49:13.088493 22224 net.cpp:406] conv3_8/x1/bn <- concat3_7_concat3_7_0_split_0
I0222 09:49:13.088500 22224 net.cpp:380] conv3_8/x1/bn -> conv3_8/x1/bn
I0222 09:49:13.088974 22224 net.cpp:122] Setting up conv3_8/x1/bn
I0222 09:49:13.088982 22224 net.cpp:129] Top shape: 1 768 2 6 (9216)
I0222 09:49:13.088985 22224 net.cpp:137] Memory required for data: 69050288
I0222 09:49:13.088994 22224 layer_factory.hpp:77] Creating layer conv3_8/x1/scale
I0222 09:49:13.089002 22224 net.cpp:84] Creating Layer conv3_8/x1/scale
I0222 09:49:13.089006 22224 net.cpp:406] conv3_8/x1/scale <- conv3_8/x1/bn
I0222 09:49:13.089011 22224 net.cpp:367] conv3_8/x1/scale -> conv3_8/x1/bn (in-place)
I0222 09:49:13.089102 22224 layer_factory.hpp:77] Creating layer conv3_8/x1/scale
I0222 09:49:13.089350 22224 net.cpp:122] Setting up conv3_8/x1/scale
I0222 09:49:13.089357 22224 net.cpp:129] Top shape: 1 768 2 6 (9216)
I0222 09:49:13.089360 22224 net.cpp:137] Memory required for data: 69087152
I0222 09:49:13.089366 22224 layer_factory.hpp:77] Creating layer relu3_8/x1
I0222 09:49:13.089381 22224 net.cpp:84] Creating Layer relu3_8/x1
I0222 09:49:13.089386 22224 net.cpp:406] relu3_8/x1 <- conv3_8/x1/bn
I0222 09:49:13.089390 22224 net.cpp:367] relu3_8/x1 -> conv3_8/x1/bn (in-place)
I0222 09:49:13.090726 22224 net.cpp:122] Setting up relu3_8/x1
I0222 09:49:13.090740 22224 net.cpp:129] Top shape: 1 768 2 6 (9216)
I0222 09:49:13.090744 22224 net.cpp:137] Memory required for data: 69124016
I0222 09:49:13.090747 22224 layer_factory.hpp:77] Creating layer conv3_8/x1
I0222 09:49:13.090759 22224 net.cpp:84] Creating Layer conv3_8/x1
I0222 09:49:13.090764 22224 net.cpp:406] conv3_8/x1 <- conv3_8/x1/bn
I0222 09:49:13.090770 22224 net.cpp:380] conv3_8/x1 -> conv3_8/x1
I0222 09:49:13.095906 22224 net.cpp:122] Setting up conv3_8/x1
I0222 09:49:13.095921 22224 net.cpp:129] Top shape: 1 128 2 6 (1536)
I0222 09:49:13.095926 22224 net.cpp:137] Memory required for data: 69130160
I0222 09:49:13.095932 22224 layer_factory.hpp:77] Creating layer conv3_8/x2/bn
I0222 09:49:13.095938 22224 net.cpp:84] Creating Layer conv3_8/x2/bn
I0222 09:49:13.095942 22224 net.cpp:406] conv3_8/x2/bn <- conv3_8/x1
I0222 09:49:13.095952 22224 net.cpp:380] conv3_8/x2/bn -> conv3_8/x2/bn
I0222 09:49:13.096356 22224 net.cpp:122] Setting up conv3_8/x2/bn
I0222 09:49:13.096364 22224 net.cpp:129] Top shape: 1 128 2 6 (1536)
I0222 09:49:13.096367 22224 net.cpp:137] Memory required for data: 69136304
I0222 09:49:13.096375 22224 layer_factory.hpp:77] Creating layer conv3_8/x2/scale
I0222 09:49:13.096382 22224 net.cpp:84] Creating Layer conv3_8/x2/scale
I0222 09:49:13.096386 22224 net.cpp:406] conv3_8/x2/scale <- conv3_8/x2/bn
I0222 09:49:13.096393 22224 net.cpp:367] conv3_8/x2/scale -> conv3_8/x2/bn (in-place)
I0222 09:49:13.096464 22224 layer_factory.hpp:77] Creating layer conv3_8/x2/scale
I0222 09:49:13.096675 22224 net.cpp:122] Setting up conv3_8/x2/scale
I0222 09:49:13.096683 22224 net.cpp:129] Top shape: 1 128 2 6 (1536)
I0222 09:49:13.096686 22224 net.cpp:137] Memory required for data: 69142448
I0222 09:49:13.096693 22224 layer_factory.hpp:77] Creating layer relu3_8/x2
I0222 09:49:13.096698 22224 net.cpp:84] Creating Layer relu3_8/x2
I0222 09:49:13.096702 22224 net.cpp:406] relu3_8/x2 <- conv3_8/x2/bn
I0222 09:49:13.096706 22224 net.cpp:367] relu3_8/x2 -> conv3_8/x2/bn (in-place)
I0222 09:49:13.096990 22224 net.cpp:122] Setting up relu3_8/x2
I0222 09:49:13.097000 22224 net.cpp:129] Top shape: 1 128 2 6 (1536)
I0222 09:49:13.097003 22224 net.cpp:137] Memory required for data: 69148592
I0222 09:49:13.097007 22224 layer_factory.hpp:77] Creating layer conv3_8/x2
I0222 09:49:13.097020 22224 net.cpp:84] Creating Layer conv3_8/x2
I0222 09:49:13.097024 22224 net.cpp:406] conv3_8/x2 <- conv3_8/x2/bn
I0222 09:49:13.097030 22224 net.cpp:380] conv3_8/x2 -> conv3_8/x2
I0222 09:49:13.101511 22224 net.cpp:122] Setting up conv3_8/x2
I0222 09:49:13.101526 22224 net.cpp:129] Top shape: 1 32 2 6 (384)
I0222 09:49:13.101529 22224 net.cpp:137] Memory required for data: 69150128
I0222 09:49:13.101536 22224 layer_factory.hpp:77] Creating layer concat3_8
I0222 09:49:13.101546 22224 net.cpp:84] Creating Layer concat3_8
I0222 09:49:13.101550 22224 net.cpp:406] concat3_8 <- concat3_7_concat3_7_0_split_1
I0222 09:49:13.101555 22224 net.cpp:406] concat3_8 <- conv3_8/x2
I0222 09:49:13.101562 22224 net.cpp:380] concat3_8 -> concat3_8
I0222 09:49:13.101613 22224 net.cpp:122] Setting up concat3_8
I0222 09:49:13.101619 22224 net.cpp:129] Top shape: 1 800 2 6 (9600)
I0222 09:49:13.101622 22224 net.cpp:137] Memory required for data: 69188528
I0222 09:49:13.101626 22224 layer_factory.hpp:77] Creating layer concat3_8_concat3_8_0_split
I0222 09:49:13.101634 22224 net.cpp:84] Creating Layer concat3_8_concat3_8_0_split
I0222 09:49:13.101637 22224 net.cpp:406] concat3_8_concat3_8_0_split <- concat3_8
I0222 09:49:13.101644 22224 net.cpp:380] concat3_8_concat3_8_0_split -> concat3_8_concat3_8_0_split_0
I0222 09:49:13.101650 22224 net.cpp:380] concat3_8_concat3_8_0_split -> concat3_8_concat3_8_0_split_1
I0222 09:49:13.101716 22224 net.cpp:122] Setting up concat3_8_concat3_8_0_split
I0222 09:49:13.101727 22224 net.cpp:129] Top shape: 1 800 2 6 (9600)
I0222 09:49:13.101730 22224 net.cpp:129] Top shape: 1 800 2 6 (9600)
I0222 09:49:13.101733 22224 net.cpp:137] Memory required for data: 69265328
I0222 09:49:13.101737 22224 layer_factory.hpp:77] Creating layer conv3_9/x1/bn
I0222 09:49:13.101744 22224 net.cpp:84] Creating Layer conv3_9/x1/bn
I0222 09:49:13.101748 22224 net.cpp:406] conv3_9/x1/bn <- concat3_8_concat3_8_0_split_0
I0222 09:49:13.101755 22224 net.cpp:380] conv3_9/x1/bn -> conv3_9/x1/bn
I0222 09:49:13.102221 22224 net.cpp:122] Setting up conv3_9/x1/bn
I0222 09:49:13.102229 22224 net.cpp:129] Top shape: 1 800 2 6 (9600)
I0222 09:49:13.102232 22224 net.cpp:137] Memory required for data: 69303728
I0222 09:49:13.102241 22224 layer_factory.hpp:77] Creating layer conv3_9/x1/scale
I0222 09:49:13.102249 22224 net.cpp:84] Creating Layer conv3_9/x1/scale
I0222 09:49:13.102253 22224 net.cpp:406] conv3_9/x1/scale <- conv3_9/x1/bn
I0222 09:49:13.102258 22224 net.cpp:367] conv3_9/x1/scale -> conv3_9/x1/bn (in-place)
I0222 09:49:13.102363 22224 layer_factory.hpp:77] Creating layer conv3_9/x1/scale
I0222 09:49:13.102629 22224 net.cpp:122] Setting up conv3_9/x1/scale
I0222 09:49:13.102638 22224 net.cpp:129] Top shape: 1 800 2 6 (9600)
I0222 09:49:13.102641 22224 net.cpp:137] Memory required for data: 69342128
I0222 09:49:13.102648 22224 layer_factory.hpp:77] Creating layer relu3_9/x1
I0222 09:49:13.102653 22224 net.cpp:84] Creating Layer relu3_9/x1
I0222 09:49:13.102656 22224 net.cpp:406] relu3_9/x1 <- conv3_9/x1/bn
I0222 09:49:13.102661 22224 net.cpp:367] relu3_9/x1 -> conv3_9/x1/bn (in-place)
I0222 09:49:13.102957 22224 net.cpp:122] Setting up relu3_9/x1
I0222 09:49:13.102965 22224 net.cpp:129] Top shape: 1 800 2 6 (9600)
I0222 09:49:13.102968 22224 net.cpp:137] Memory required for data: 69380528
I0222 09:49:13.102972 22224 layer_factory.hpp:77] Creating layer conv3_9/x1
I0222 09:49:13.102982 22224 net.cpp:84] Creating Layer conv3_9/x1
I0222 09:49:13.102988 22224 net.cpp:406] conv3_9/x1 <- conv3_9/x1/bn
I0222 09:49:13.102994 22224 net.cpp:380] conv3_9/x1 -> conv3_9/x1
I0222 09:49:13.110085 22224 net.cpp:122] Setting up conv3_9/x1
I0222 09:49:13.110100 22224 net.cpp:129] Top shape: 1 128 2 6 (1536)
I0222 09:49:13.110103 22224 net.cpp:137] Memory required for data: 69386672
I0222 09:49:13.110110 22224 layer_factory.hpp:77] Creating layer conv3_9/x2/bn
I0222 09:49:13.110118 22224 net.cpp:84] Creating Layer conv3_9/x2/bn
I0222 09:49:13.110123 22224 net.cpp:406] conv3_9/x2/bn <- conv3_9/x1
I0222 09:49:13.110131 22224 net.cpp:380] conv3_9/x2/bn -> conv3_9/x2/bn
I0222 09:49:13.110536 22224 net.cpp:122] Setting up conv3_9/x2/bn
I0222 09:49:13.110543 22224 net.cpp:129] Top shape: 1 128 2 6 (1536)
I0222 09:49:13.110548 22224 net.cpp:137] Memory required for data: 69392816
I0222 09:49:13.110554 22224 layer_factory.hpp:77] Creating layer conv3_9/x2/scale
I0222 09:49:13.110563 22224 net.cpp:84] Creating Layer conv3_9/x2/scale
I0222 09:49:13.110568 22224 net.cpp:406] conv3_9/x2/scale <- conv3_9/x2/bn
I0222 09:49:13.110574 22224 net.cpp:367] conv3_9/x2/scale -> conv3_9/x2/bn (in-place)
I0222 09:49:13.110642 22224 layer_factory.hpp:77] Creating layer conv3_9/x2/scale
I0222 09:49:13.110847 22224 net.cpp:122] Setting up conv3_9/x2/scale
I0222 09:49:13.110854 22224 net.cpp:129] Top shape: 1 128 2 6 (1536)
I0222 09:49:13.110857 22224 net.cpp:137] Memory required for data: 69398960
I0222 09:49:13.110864 22224 layer_factory.hpp:77] Creating layer relu3_9/x2
I0222 09:49:13.110870 22224 net.cpp:84] Creating Layer relu3_9/x2
I0222 09:49:13.110873 22224 net.cpp:406] relu3_9/x2 <- conv3_9/x2/bn
I0222 09:49:13.110880 22224 net.cpp:367] relu3_9/x2 -> conv3_9/x2/bn (in-place)
I0222 09:49:13.112216 22224 net.cpp:122] Setting up relu3_9/x2
I0222 09:49:13.112229 22224 net.cpp:129] Top shape: 1 128 2 6 (1536)
I0222 09:49:13.112233 22224 net.cpp:137] Memory required for data: 69405104
I0222 09:49:13.112236 22224 layer_factory.hpp:77] Creating layer conv3_9/x2
I0222 09:49:13.112248 22224 net.cpp:84] Creating Layer conv3_9/x2
I0222 09:49:13.112253 22224 net.cpp:406] conv3_9/x2 <- conv3_9/x2/bn
I0222 09:49:13.112267 22224 net.cpp:380] conv3_9/x2 -> conv3_9/x2
I0222 09:49:13.117472 22224 net.cpp:122] Setting up conv3_9/x2
I0222 09:49:13.117487 22224 net.cpp:129] Top shape: 1 32 2 6 (384)
I0222 09:49:13.117491 22224 net.cpp:137] Memory required for data: 69406640
I0222 09:49:13.117497 22224 layer_factory.hpp:77] Creating layer concat3_9
I0222 09:49:13.117506 22224 net.cpp:84] Creating Layer concat3_9
I0222 09:49:13.117511 22224 net.cpp:406] concat3_9 <- concat3_8_concat3_8_0_split_1
I0222 09:49:13.117516 22224 net.cpp:406] concat3_9 <- conv3_9/x2
I0222 09:49:13.117522 22224 net.cpp:380] concat3_9 -> concat3_9
I0222 09:49:13.117570 22224 net.cpp:122] Setting up concat3_9
I0222 09:49:13.117583 22224 net.cpp:129] Top shape: 1 832 2 6 (9984)
I0222 09:49:13.117586 22224 net.cpp:137] Memory required for data: 69446576
I0222 09:49:13.117589 22224 layer_factory.hpp:77] Creating layer concat3_9_concat3_9_0_split
I0222 09:49:13.117595 22224 net.cpp:84] Creating Layer concat3_9_concat3_9_0_split
I0222 09:49:13.117599 22224 net.cpp:406] concat3_9_concat3_9_0_split <- concat3_9
I0222 09:49:13.117604 22224 net.cpp:380] concat3_9_concat3_9_0_split -> concat3_9_concat3_9_0_split_0
I0222 09:49:13.117609 22224 net.cpp:380] concat3_9_concat3_9_0_split -> concat3_9_concat3_9_0_split_1
I0222 09:49:13.117677 22224 net.cpp:122] Setting up concat3_9_concat3_9_0_split
I0222 09:49:13.117683 22224 net.cpp:129] Top shape: 1 832 2 6 (9984)
I0222 09:49:13.117687 22224 net.cpp:129] Top shape: 1 832 2 6 (9984)
I0222 09:49:13.117691 22224 net.cpp:137] Memory required for data: 69526448
I0222 09:49:13.117693 22224 layer_factory.hpp:77] Creating layer conv3_10/x1/bn
I0222 09:49:13.117700 22224 net.cpp:84] Creating Layer conv3_10/x1/bn
I0222 09:49:13.117705 22224 net.cpp:406] conv3_10/x1/bn <- concat3_9_concat3_9_0_split_0
I0222 09:49:13.117712 22224 net.cpp:380] conv3_10/x1/bn -> conv3_10/x1/bn
I0222 09:49:13.118202 22224 net.cpp:122] Setting up conv3_10/x1/bn
I0222 09:49:13.118211 22224 net.cpp:129] Top shape: 1 832 2 6 (9984)
I0222 09:49:13.118213 22224 net.cpp:137] Memory required for data: 69566384
I0222 09:49:13.118222 22224 layer_factory.hpp:77] Creating layer conv3_10/x1/scale
I0222 09:49:13.118230 22224 net.cpp:84] Creating Layer conv3_10/x1/scale
I0222 09:49:13.118235 22224 net.cpp:406] conv3_10/x1/scale <- conv3_10/x1/bn
I0222 09:49:13.118242 22224 net.cpp:367] conv3_10/x1/scale -> conv3_10/x1/bn (in-place)
I0222 09:49:13.118348 22224 layer_factory.hpp:77] Creating layer conv3_10/x1/scale
I0222 09:49:13.118614 22224 net.cpp:122] Setting up conv3_10/x1/scale
I0222 09:49:13.118621 22224 net.cpp:129] Top shape: 1 832 2 6 (9984)
I0222 09:49:13.118625 22224 net.cpp:137] Memory required for data: 69606320
I0222 09:49:13.118631 22224 layer_factory.hpp:77] Creating layer relu3_10/x1
I0222 09:49:13.118638 22224 net.cpp:84] Creating Layer relu3_10/x1
I0222 09:49:13.118641 22224 net.cpp:406] relu3_10/x1 <- conv3_10/x1/bn
I0222 09:49:13.118645 22224 net.cpp:367] relu3_10/x1 -> conv3_10/x1/bn (in-place)
I0222 09:49:13.118932 22224 net.cpp:122] Setting up relu3_10/x1
I0222 09:49:13.118942 22224 net.cpp:129] Top shape: 1 832 2 6 (9984)
I0222 09:49:13.118944 22224 net.cpp:137] Memory required for data: 69646256
I0222 09:49:13.118948 22224 layer_factory.hpp:77] Creating layer conv3_10/x1
I0222 09:49:13.118960 22224 net.cpp:84] Creating Layer conv3_10/x1
I0222 09:49:13.118964 22224 net.cpp:406] conv3_10/x1 <- conv3_10/x1/bn
I0222 09:49:13.118970 22224 net.cpp:380] conv3_10/x1 -> conv3_10/x1
I0222 09:49:13.124336 22224 net.cpp:122] Setting up conv3_10/x1
I0222 09:49:13.124349 22224 net.cpp:129] Top shape: 1 128 2 6 (1536)
I0222 09:49:13.124353 22224 net.cpp:137] Memory required for data: 69652400
I0222 09:49:13.124359 22224 layer_factory.hpp:77] Creating layer conv3_10/x2/bn
I0222 09:49:13.124368 22224 net.cpp:84] Creating Layer conv3_10/x2/bn
I0222 09:49:13.124372 22224 net.cpp:406] conv3_10/x2/bn <- conv3_10/x1
I0222 09:49:13.124378 22224 net.cpp:380] conv3_10/x2/bn -> conv3_10/x2/bn
I0222 09:49:13.124794 22224 net.cpp:122] Setting up conv3_10/x2/bn
I0222 09:49:13.124805 22224 net.cpp:129] Top shape: 1 128 2 6 (1536)
I0222 09:49:13.124809 22224 net.cpp:137] Memory required for data: 69658544
I0222 09:49:13.124816 22224 layer_factory.hpp:77] Creating layer conv3_10/x2/scale
I0222 09:49:13.124825 22224 net.cpp:84] Creating Layer conv3_10/x2/scale
I0222 09:49:13.124830 22224 net.cpp:406] conv3_10/x2/scale <- conv3_10/x2/bn
I0222 09:49:13.124835 22224 net.cpp:367] conv3_10/x2/scale -> conv3_10/x2/bn (in-place)
I0222 09:49:13.124902 22224 layer_factory.hpp:77] Creating layer conv3_10/x2/scale
I0222 09:49:13.125115 22224 net.cpp:122] Setting up conv3_10/x2/scale
I0222 09:49:13.125123 22224 net.cpp:129] Top shape: 1 128 2 6 (1536)
I0222 09:49:13.125126 22224 net.cpp:137] Memory required for data: 69664688
I0222 09:49:13.125133 22224 layer_factory.hpp:77] Creating layer relu3_10/x2
I0222 09:49:13.125138 22224 net.cpp:84] Creating Layer relu3_10/x2
I0222 09:49:13.125141 22224 net.cpp:406] relu3_10/x2 <- conv3_10/x2/bn
I0222 09:49:13.125149 22224 net.cpp:367] relu3_10/x2 -> conv3_10/x2/bn (in-place)
I0222 09:49:13.125428 22224 net.cpp:122] Setting up relu3_10/x2
I0222 09:49:13.125437 22224 net.cpp:129] Top shape: 1 128 2 6 (1536)
I0222 09:49:13.125440 22224 net.cpp:137] Memory required for data: 69670832
I0222 09:49:13.125444 22224 layer_factory.hpp:77] Creating layer conv3_10/x2
I0222 09:49:13.125455 22224 net.cpp:84] Creating Layer conv3_10/x2
I0222 09:49:13.125459 22224 net.cpp:406] conv3_10/x2 <- conv3_10/x2/bn
I0222 09:49:13.125468 22224 net.cpp:380] conv3_10/x2 -> conv3_10/x2
I0222 09:49:13.129917 22224 net.cpp:122] Setting up conv3_10/x2
I0222 09:49:13.129932 22224 net.cpp:129] Top shape: 1 32 2 6 (384)
I0222 09:49:13.129935 22224 net.cpp:137] Memory required for data: 69672368
I0222 09:49:13.129942 22224 layer_factory.hpp:77] Creating layer concat3_10
I0222 09:49:13.129950 22224 net.cpp:84] Creating Layer concat3_10
I0222 09:49:13.129954 22224 net.cpp:406] concat3_10 <- concat3_9_concat3_9_0_split_1
I0222 09:49:13.129959 22224 net.cpp:406] concat3_10 <- conv3_10/x2
I0222 09:49:13.129967 22224 net.cpp:380] concat3_10 -> concat3_10
I0222 09:49:13.130022 22224 net.cpp:122] Setting up concat3_10
I0222 09:49:13.130028 22224 net.cpp:129] Top shape: 1 864 2 6 (10368)
I0222 09:49:13.130031 22224 net.cpp:137] Memory required for data: 69713840
I0222 09:49:13.130034 22224 layer_factory.hpp:77] Creating layer concat3_10_concat3_10_0_split
I0222 09:49:13.130040 22224 net.cpp:84] Creating Layer concat3_10_concat3_10_0_split
I0222 09:49:13.130043 22224 net.cpp:406] concat3_10_concat3_10_0_split <- concat3_10
I0222 09:49:13.130050 22224 net.cpp:380] concat3_10_concat3_10_0_split -> concat3_10_concat3_10_0_split_0
I0222 09:49:13.130058 22224 net.cpp:380] concat3_10_concat3_10_0_split -> concat3_10_concat3_10_0_split_1
I0222 09:49:13.130126 22224 net.cpp:122] Setting up concat3_10_concat3_10_0_split
I0222 09:49:13.130132 22224 net.cpp:129] Top shape: 1 864 2 6 (10368)
I0222 09:49:13.130136 22224 net.cpp:129] Top shape: 1 864 2 6 (10368)
I0222 09:49:13.130139 22224 net.cpp:137] Memory required for data: 69796784
I0222 09:49:13.130142 22224 layer_factory.hpp:77] Creating layer conv3_11/x1/bn
I0222 09:49:13.130151 22224 net.cpp:84] Creating Layer conv3_11/x1/bn
I0222 09:49:13.130154 22224 net.cpp:406] conv3_11/x1/bn <- concat3_10_concat3_10_0_split_0
I0222 09:49:13.130159 22224 net.cpp:380] conv3_11/x1/bn -> conv3_11/x1/bn
I0222 09:49:13.130652 22224 net.cpp:122] Setting up conv3_11/x1/bn
I0222 09:49:13.130661 22224 net.cpp:129] Top shape: 1 864 2 6 (10368)
I0222 09:49:13.130664 22224 net.cpp:137] Memory required for data: 69838256
I0222 09:49:13.130671 22224 layer_factory.hpp:77] Creating layer conv3_11/x1/scale
I0222 09:49:13.130681 22224 net.cpp:84] Creating Layer conv3_11/x1/scale
I0222 09:49:13.130684 22224 net.cpp:406] conv3_11/x1/scale <- conv3_11/x1/bn
I0222 09:49:13.130690 22224 net.cpp:367] conv3_11/x1/scale -> conv3_11/x1/bn (in-place)
I0222 09:49:13.130795 22224 layer_factory.hpp:77] Creating layer conv3_11/x1/scale
I0222 09:49:13.131067 22224 net.cpp:122] Setting up conv3_11/x1/scale
I0222 09:49:13.131075 22224 net.cpp:129] Top shape: 1 864 2 6 (10368)
I0222 09:49:13.131079 22224 net.cpp:137] Memory required for data: 69879728
I0222 09:49:13.131085 22224 layer_factory.hpp:77] Creating layer relu3_11/x1
I0222 09:49:13.131090 22224 net.cpp:84] Creating Layer relu3_11/x1
I0222 09:49:13.131094 22224 net.cpp:406] relu3_11/x1 <- conv3_11/x1/bn
I0222 09:49:13.131099 22224 net.cpp:367] relu3_11/x1 -> conv3_11/x1/bn (in-place)
I0222 09:49:13.132445 22224 net.cpp:122] Setting up relu3_11/x1
I0222 09:49:13.132458 22224 net.cpp:129] Top shape: 1 864 2 6 (10368)
I0222 09:49:13.132462 22224 net.cpp:137] Memory required for data: 69921200
I0222 09:49:13.132467 22224 layer_factory.hpp:77] Creating layer conv3_11/x1
I0222 09:49:13.132478 22224 net.cpp:84] Creating Layer conv3_11/x1
I0222 09:49:13.132483 22224 net.cpp:406] conv3_11/x1 <- conv3_11/x1/bn
I0222 09:49:13.132491 22224 net.cpp:380] conv3_11/x1 -> conv3_11/x1
I0222 09:49:13.138001 22224 net.cpp:122] Setting up conv3_11/x1
I0222 09:49:13.138016 22224 net.cpp:129] Top shape: 1 128 2 6 (1536)
I0222 09:49:13.138020 22224 net.cpp:137] Memory required for data: 69927344
I0222 09:49:13.138025 22224 layer_factory.hpp:77] Creating layer conv3_11/x2/bn
I0222 09:49:13.138036 22224 net.cpp:84] Creating Layer conv3_11/x2/bn
I0222 09:49:13.138041 22224 net.cpp:406] conv3_11/x2/bn <- conv3_11/x1
I0222 09:49:13.138047 22224 net.cpp:380] conv3_11/x2/bn -> conv3_11/x2/bn
I0222 09:49:13.138458 22224 net.cpp:122] Setting up conv3_11/x2/bn
I0222 09:49:13.138465 22224 net.cpp:129] Top shape: 1 128 2 6 (1536)
I0222 09:49:13.138468 22224 net.cpp:137] Memory required for data: 69933488
I0222 09:49:13.138478 22224 layer_factory.hpp:77] Creating layer conv3_11/x2/scale
I0222 09:49:13.138485 22224 net.cpp:84] Creating Layer conv3_11/x2/scale
I0222 09:49:13.138490 22224 net.cpp:406] conv3_11/x2/scale <- conv3_11/x2/bn
I0222 09:49:13.138495 22224 net.cpp:367] conv3_11/x2/scale -> conv3_11/x2/bn (in-place)
I0222 09:49:13.138566 22224 layer_factory.hpp:77] Creating layer conv3_11/x2/scale
I0222 09:49:13.138772 22224 net.cpp:122] Setting up conv3_11/x2/scale
I0222 09:49:13.138779 22224 net.cpp:129] Top shape: 1 128 2 6 (1536)
I0222 09:49:13.138782 22224 net.cpp:137] Memory required for data: 69939632
I0222 09:49:13.138789 22224 layer_factory.hpp:77] Creating layer relu3_11/x2
I0222 09:49:13.138797 22224 net.cpp:84] Creating Layer relu3_11/x2
I0222 09:49:13.138800 22224 net.cpp:406] relu3_11/x2 <- conv3_11/x2/bn
I0222 09:49:13.138805 22224 net.cpp:367] relu3_11/x2 -> conv3_11/x2/bn (in-place)
I0222 09:49:13.139091 22224 net.cpp:122] Setting up relu3_11/x2
I0222 09:49:13.139101 22224 net.cpp:129] Top shape: 1 128 2 6 (1536)
I0222 09:49:13.139104 22224 net.cpp:137] Memory required for data: 69945776
I0222 09:49:13.139107 22224 layer_factory.hpp:77] Creating layer conv3_11/x2
I0222 09:49:13.139118 22224 net.cpp:84] Creating Layer conv3_11/x2
I0222 09:49:13.139122 22224 net.cpp:406] conv3_11/x2 <- conv3_11/x2/bn
I0222 09:49:13.139128 22224 net.cpp:380] conv3_11/x2 -> conv3_11/x2
I0222 09:49:13.142503 22224 net.cpp:122] Setting up conv3_11/x2
I0222 09:49:13.142518 22224 net.cpp:129] Top shape: 1 32 2 6 (384)
I0222 09:49:13.142520 22224 net.cpp:137] Memory required for data: 69947312
I0222 09:49:13.142526 22224 layer_factory.hpp:77] Creating layer concat3_11
I0222 09:49:13.142535 22224 net.cpp:84] Creating Layer concat3_11
I0222 09:49:13.142540 22224 net.cpp:406] concat3_11 <- concat3_10_concat3_10_0_split_1
I0222 09:49:13.142546 22224 net.cpp:406] concat3_11 <- conv3_11/x2
I0222 09:49:13.142552 22224 net.cpp:380] concat3_11 -> concat3_11
I0222 09:49:13.142599 22224 net.cpp:122] Setting up concat3_11
I0222 09:49:13.142606 22224 net.cpp:129] Top shape: 1 896 2 6 (10752)
I0222 09:49:13.142608 22224 net.cpp:137] Memory required for data: 69990320
I0222 09:49:13.142612 22224 layer_factory.hpp:77] Creating layer concat3_11_concat3_11_0_split
I0222 09:49:13.142619 22224 net.cpp:84] Creating Layer concat3_11_concat3_11_0_split
I0222 09:49:13.142623 22224 net.cpp:406] concat3_11_concat3_11_0_split <- concat3_11
I0222 09:49:13.142632 22224 net.cpp:380] concat3_11_concat3_11_0_split -> concat3_11_concat3_11_0_split_0
I0222 09:49:13.142638 22224 net.cpp:380] concat3_11_concat3_11_0_split -> concat3_11_concat3_11_0_split_1
I0222 09:49:13.142707 22224 net.cpp:122] Setting up concat3_11_concat3_11_0_split
I0222 09:49:13.142714 22224 net.cpp:129] Top shape: 1 896 2 6 (10752)
I0222 09:49:13.142717 22224 net.cpp:129] Top shape: 1 896 2 6 (10752)
I0222 09:49:13.142720 22224 net.cpp:137] Memory required for data: 70076336
I0222 09:49:13.142724 22224 layer_factory.hpp:77] Creating layer conv3_12/x1/bn
I0222 09:49:13.142731 22224 net.cpp:84] Creating Layer conv3_12/x1/bn
I0222 09:49:13.142735 22224 net.cpp:406] conv3_12/x1/bn <- concat3_11_concat3_11_0_split_0
I0222 09:49:13.142742 22224 net.cpp:380] conv3_12/x1/bn -> conv3_12/x1/bn
I0222 09:49:13.143216 22224 net.cpp:122] Setting up conv3_12/x1/bn
I0222 09:49:13.143224 22224 net.cpp:129] Top shape: 1 896 2 6 (10752)
I0222 09:49:13.143229 22224 net.cpp:137] Memory required for data: 70119344
I0222 09:49:13.143235 22224 layer_factory.hpp:77] Creating layer conv3_12/x1/scale
I0222 09:49:13.143244 22224 net.cpp:84] Creating Layer conv3_12/x1/scale
I0222 09:49:13.143249 22224 net.cpp:406] conv3_12/x1/scale <- conv3_12/x1/bn
I0222 09:49:13.143254 22224 net.cpp:367] conv3_12/x1/scale -> conv3_12/x1/bn (in-place)
I0222 09:49:13.143347 22224 layer_factory.hpp:77] Creating layer conv3_12/x1/scale
I0222 09:49:13.143601 22224 net.cpp:122] Setting up conv3_12/x1/scale
I0222 09:49:13.143609 22224 net.cpp:129] Top shape: 1 896 2 6 (10752)
I0222 09:49:13.143612 22224 net.cpp:137] Memory required for data: 70162352
I0222 09:49:13.143618 22224 layer_factory.hpp:77] Creating layer relu3_12/x1
I0222 09:49:13.143628 22224 net.cpp:84] Creating Layer relu3_12/x1
I0222 09:49:13.143632 22224 net.cpp:406] relu3_12/x1 <- conv3_12/x1/bn
I0222 09:49:13.143636 22224 net.cpp:367] relu3_12/x1 -> conv3_12/x1/bn (in-place)
I0222 09:49:13.143918 22224 net.cpp:122] Setting up relu3_12/x1
I0222 09:49:13.143926 22224 net.cpp:129] Top shape: 1 896 2 6 (10752)
I0222 09:49:13.143930 22224 net.cpp:137] Memory required for data: 70205360
I0222 09:49:13.143934 22224 layer_factory.hpp:77] Creating layer conv3_12/x1
I0222 09:49:13.143944 22224 net.cpp:84] Creating Layer conv3_12/x1
I0222 09:49:13.143949 22224 net.cpp:406] conv3_12/x1 <- conv3_12/x1/bn
I0222 09:49:13.143956 22224 net.cpp:380] conv3_12/x1 -> conv3_12/x1
I0222 09:49:13.149590 22224 net.cpp:122] Setting up conv3_12/x1
I0222 09:49:13.149605 22224 net.cpp:129] Top shape: 1 128 2 6 (1536)
I0222 09:49:13.149610 22224 net.cpp:137] Memory required for data: 70211504
I0222 09:49:13.149616 22224 layer_factory.hpp:77] Creating layer conv3_12/x2/bn
I0222 09:49:13.149624 22224 net.cpp:84] Creating Layer conv3_12/x2/bn
I0222 09:49:13.149628 22224 net.cpp:406] conv3_12/x2/bn <- conv3_12/x1
I0222 09:49:13.149636 22224 net.cpp:380] conv3_12/x2/bn -> conv3_12/x2/bn
I0222 09:49:13.150048 22224 net.cpp:122] Setting up conv3_12/x2/bn
I0222 09:49:13.150056 22224 net.cpp:129] Top shape: 1 128 2 6 (1536)
I0222 09:49:13.150059 22224 net.cpp:137] Memory required for data: 70217648
I0222 09:49:13.150066 22224 layer_factory.hpp:77] Creating layer conv3_12/x2/scale
I0222 09:49:13.150076 22224 net.cpp:84] Creating Layer conv3_12/x2/scale
I0222 09:49:13.150080 22224 net.cpp:406] conv3_12/x2/scale <- conv3_12/x2/bn
I0222 09:49:13.150087 22224 net.cpp:367] conv3_12/x2/scale -> conv3_12/x2/bn (in-place)
I0222 09:49:13.150161 22224 layer_factory.hpp:77] Creating layer conv3_12/x2/scale
I0222 09:49:13.150368 22224 net.cpp:122] Setting up conv3_12/x2/scale
I0222 09:49:13.150375 22224 net.cpp:129] Top shape: 1 128 2 6 (1536)
I0222 09:49:13.150378 22224 net.cpp:137] Memory required for data: 70223792
I0222 09:49:13.150384 22224 layer_factory.hpp:77] Creating layer relu3_12/x2
I0222 09:49:13.150393 22224 net.cpp:84] Creating Layer relu3_12/x2
I0222 09:49:13.150396 22224 net.cpp:406] relu3_12/x2 <- conv3_12/x2/bn
I0222 09:49:13.150400 22224 net.cpp:367] relu3_12/x2 -> conv3_12/x2/bn (in-place)
I0222 09:49:13.150687 22224 net.cpp:122] Setting up relu3_12/x2
I0222 09:49:13.150696 22224 net.cpp:129] Top shape: 1 128 2 6 (1536)
I0222 09:49:13.150701 22224 net.cpp:137] Memory required for data: 70229936
I0222 09:49:13.150704 22224 layer_factory.hpp:77] Creating layer conv3_12/x2
I0222 09:49:13.150715 22224 net.cpp:84] Creating Layer conv3_12/x2
I0222 09:49:13.150719 22224 net.cpp:406] conv3_12/x2 <- conv3_12/x2/bn
I0222 09:49:13.150725 22224 net.cpp:380] conv3_12/x2 -> conv3_12/x2
I0222 09:49:13.155174 22224 net.cpp:122] Setting up conv3_12/x2
I0222 09:49:13.155189 22224 net.cpp:129] Top shape: 1 32 2 6 (384)
I0222 09:49:13.155192 22224 net.cpp:137] Memory required for data: 70231472
I0222 09:49:13.155198 22224 layer_factory.hpp:77] Creating layer concat3_12
I0222 09:49:13.155207 22224 net.cpp:84] Creating Layer concat3_12
I0222 09:49:13.155212 22224 net.cpp:406] concat3_12 <- concat3_11_concat3_11_0_split_1
I0222 09:49:13.155218 22224 net.cpp:406] concat3_12 <- conv3_12/x2
I0222 09:49:13.155223 22224 net.cpp:380] concat3_12 -> concat3_12
I0222 09:49:13.155278 22224 net.cpp:122] Setting up concat3_12
I0222 09:49:13.155285 22224 net.cpp:129] Top shape: 1 928 2 6 (11136)
I0222 09:49:13.155288 22224 net.cpp:137] Memory required for data: 70276016
I0222 09:49:13.155292 22224 layer_factory.hpp:77] Creating layer concat3_12_concat3_12_0_split
I0222 09:49:13.155297 22224 net.cpp:84] Creating Layer concat3_12_concat3_12_0_split
I0222 09:49:13.155300 22224 net.cpp:406] concat3_12_concat3_12_0_split <- concat3_12
I0222 09:49:13.155306 22224 net.cpp:380] concat3_12_concat3_12_0_split -> concat3_12_concat3_12_0_split_0
I0222 09:49:13.155313 22224 net.cpp:380] concat3_12_concat3_12_0_split -> concat3_12_concat3_12_0_split_1
I0222 09:49:13.155380 22224 net.cpp:122] Setting up concat3_12_concat3_12_0_split
I0222 09:49:13.155390 22224 net.cpp:129] Top shape: 1 928 2 6 (11136)
I0222 09:49:13.155393 22224 net.cpp:129] Top shape: 1 928 2 6 (11136)
I0222 09:49:13.155396 22224 net.cpp:137] Memory required for data: 70365104
I0222 09:49:13.155400 22224 layer_factory.hpp:77] Creating layer conv3_13/x1/bn
I0222 09:49:13.155405 22224 net.cpp:84] Creating Layer conv3_13/x1/bn
I0222 09:49:13.155409 22224 net.cpp:406] conv3_13/x1/bn <- concat3_12_concat3_12_0_split_0
I0222 09:49:13.155416 22224 net.cpp:380] conv3_13/x1/bn -> conv3_13/x1/bn
I0222 09:49:13.155900 22224 net.cpp:122] Setting up conv3_13/x1/bn
I0222 09:49:13.155907 22224 net.cpp:129] Top shape: 1 928 2 6 (11136)
I0222 09:49:13.155910 22224 net.cpp:137] Memory required for data: 70409648
I0222 09:49:13.155918 22224 layer_factory.hpp:77] Creating layer conv3_13/x1/scale
I0222 09:49:13.155927 22224 net.cpp:84] Creating Layer conv3_13/x1/scale
I0222 09:49:13.155932 22224 net.cpp:406] conv3_13/x1/scale <- conv3_13/x1/bn
I0222 09:49:13.155937 22224 net.cpp:367] conv3_13/x1/scale -> conv3_13/x1/bn (in-place)
I0222 09:49:13.156049 22224 layer_factory.hpp:77] Creating layer conv3_13/x1/scale
I0222 09:49:13.156319 22224 net.cpp:122] Setting up conv3_13/x1/scale
I0222 09:49:13.156327 22224 net.cpp:129] Top shape: 1 928 2 6 (11136)
I0222 09:49:13.156330 22224 net.cpp:137] Memory required for data: 70454192
I0222 09:49:13.156337 22224 layer_factory.hpp:77] Creating layer relu3_13/x1
I0222 09:49:13.156344 22224 net.cpp:84] Creating Layer relu3_13/x1
I0222 09:49:13.156348 22224 net.cpp:406] relu3_13/x1 <- conv3_13/x1/bn
I0222 09:49:13.156353 22224 net.cpp:367] relu3_13/x1 -> conv3_13/x1/bn (in-place)
I0222 09:49:13.157703 22224 net.cpp:122] Setting up relu3_13/x1
I0222 09:49:13.157716 22224 net.cpp:129] Top shape: 1 928 2 6 (11136)
I0222 09:49:13.157721 22224 net.cpp:137] Memory required for data: 70498736
I0222 09:49:13.157724 22224 layer_factory.hpp:77] Creating layer conv3_13/x1
I0222 09:49:13.157735 22224 net.cpp:84] Creating Layer conv3_13/x1
I0222 09:49:13.157740 22224 net.cpp:406] conv3_13/x1 <- conv3_13/x1/bn
I0222 09:49:13.157749 22224 net.cpp:380] conv3_13/x1 -> conv3_13/x1
I0222 09:49:13.165318 22224 net.cpp:122] Setting up conv3_13/x1
I0222 09:49:13.165335 22224 net.cpp:129] Top shape: 1 128 2 6 (1536)
I0222 09:49:13.165339 22224 net.cpp:137] Memory required for data: 70504880
I0222 09:49:13.165345 22224 layer_factory.hpp:77] Creating layer conv3_13/x2/bn
I0222 09:49:13.165355 22224 net.cpp:84] Creating Layer conv3_13/x2/bn
I0222 09:49:13.165359 22224 net.cpp:406] conv3_13/x2/bn <- conv3_13/x1
I0222 09:49:13.165369 22224 net.cpp:380] conv3_13/x2/bn -> conv3_13/x2/bn
I0222 09:49:13.165784 22224 net.cpp:122] Setting up conv3_13/x2/bn
I0222 09:49:13.165792 22224 net.cpp:129] Top shape: 1 128 2 6 (1536)
I0222 09:49:13.165796 22224 net.cpp:137] Memory required for data: 70511024
I0222 09:49:13.165802 22224 layer_factory.hpp:77] Creating layer conv3_13/x2/scale
I0222 09:49:13.165812 22224 net.cpp:84] Creating Layer conv3_13/x2/scale
I0222 09:49:13.165817 22224 net.cpp:406] conv3_13/x2/scale <- conv3_13/x2/bn
I0222 09:49:13.165822 22224 net.cpp:367] conv3_13/x2/scale -> conv3_13/x2/bn (in-place)
I0222 09:49:13.165892 22224 layer_factory.hpp:77] Creating layer conv3_13/x2/scale
I0222 09:49:13.166102 22224 net.cpp:122] Setting up conv3_13/x2/scale
I0222 09:49:13.166110 22224 net.cpp:129] Top shape: 1 128 2 6 (1536)
I0222 09:49:13.166113 22224 net.cpp:137] Memory required for data: 70517168
I0222 09:49:13.166119 22224 layer_factory.hpp:77] Creating layer relu3_13/x2
I0222 09:49:13.166126 22224 net.cpp:84] Creating Layer relu3_13/x2
I0222 09:49:13.166129 22224 net.cpp:406] relu3_13/x2 <- conv3_13/x2/bn
I0222 09:49:13.166136 22224 net.cpp:367] relu3_13/x2 -> conv3_13/x2/bn (in-place)
I0222 09:49:13.166421 22224 net.cpp:122] Setting up relu3_13/x2
I0222 09:49:13.166430 22224 net.cpp:129] Top shape: 1 128 2 6 (1536)
I0222 09:49:13.166434 22224 net.cpp:137] Memory required for data: 70523312
I0222 09:49:13.166437 22224 layer_factory.hpp:77] Creating layer conv3_13/x2
I0222 09:49:13.166447 22224 net.cpp:84] Creating Layer conv3_13/x2
I0222 09:49:13.166451 22224 net.cpp:406] conv3_13/x2 <- conv3_13/x2/bn
I0222 09:49:13.166460 22224 net.cpp:380] conv3_13/x2 -> conv3_13/x2
I0222 09:49:13.169848 22224 net.cpp:122] Setting up conv3_13/x2
I0222 09:49:13.169863 22224 net.cpp:129] Top shape: 1 32 2 6 (384)
I0222 09:49:13.169867 22224 net.cpp:137] Memory required for data: 70524848
I0222 09:49:13.169872 22224 layer_factory.hpp:77] Creating layer concat3_13
I0222 09:49:13.169880 22224 net.cpp:84] Creating Layer concat3_13
I0222 09:49:13.169884 22224 net.cpp:406] concat3_13 <- concat3_12_concat3_12_0_split_1
I0222 09:49:13.169890 22224 net.cpp:406] concat3_13 <- conv3_13/x2
I0222 09:49:13.169898 22224 net.cpp:380] concat3_13 -> concat3_13
I0222 09:49:13.169946 22224 net.cpp:122] Setting up concat3_13
I0222 09:49:13.169952 22224 net.cpp:129] Top shape: 1 960 2 6 (11520)
I0222 09:49:13.169955 22224 net.cpp:137] Memory required for data: 70570928
I0222 09:49:13.169960 22224 layer_factory.hpp:77] Creating layer concat3_13_concat3_13_0_split
I0222 09:49:13.169965 22224 net.cpp:84] Creating Layer concat3_13_concat3_13_0_split
I0222 09:49:13.169968 22224 net.cpp:406] concat3_13_concat3_13_0_split <- concat3_13
I0222 09:49:13.169975 22224 net.cpp:380] concat3_13_concat3_13_0_split -> concat3_13_concat3_13_0_split_0
I0222 09:49:13.169981 22224 net.cpp:380] concat3_13_concat3_13_0_split -> concat3_13_concat3_13_0_split_1
I0222 09:49:13.170050 22224 net.cpp:122] Setting up concat3_13_concat3_13_0_split
I0222 09:49:13.170056 22224 net.cpp:129] Top shape: 1 960 2 6 (11520)
I0222 09:49:13.170060 22224 net.cpp:129] Top shape: 1 960 2 6 (11520)
I0222 09:49:13.170063 22224 net.cpp:137] Memory required for data: 70663088
I0222 09:49:13.170066 22224 layer_factory.hpp:77] Creating layer conv3_14/x1/bn
I0222 09:49:13.170074 22224 net.cpp:84] Creating Layer conv3_14/x1/bn
I0222 09:49:13.170078 22224 net.cpp:406] conv3_14/x1/bn <- concat3_13_concat3_13_0_split_0
I0222 09:49:13.170084 22224 net.cpp:380] conv3_14/x1/bn -> conv3_14/x1/bn
I0222 09:49:13.170581 22224 net.cpp:122] Setting up conv3_14/x1/bn
I0222 09:49:13.170590 22224 net.cpp:129] Top shape: 1 960 2 6 (11520)
I0222 09:49:13.170593 22224 net.cpp:137] Memory required for data: 70709168
I0222 09:49:13.170603 22224 layer_factory.hpp:77] Creating layer conv3_14/x1/scale
I0222 09:49:13.170612 22224 net.cpp:84] Creating Layer conv3_14/x1/scale
I0222 09:49:13.170617 22224 net.cpp:406] conv3_14/x1/scale <- conv3_14/x1/bn
I0222 09:49:13.170622 22224 net.cpp:367] conv3_14/x1/scale -> conv3_14/x1/bn (in-place)
I0222 09:49:13.170729 22224 layer_factory.hpp:77] Creating layer conv3_14/x1/scale
I0222 09:49:13.171007 22224 net.cpp:122] Setting up conv3_14/x1/scale
I0222 09:49:13.171015 22224 net.cpp:129] Top shape: 1 960 2 6 (11520)
I0222 09:49:13.171020 22224 net.cpp:137] Memory required for data: 70755248
I0222 09:49:13.171025 22224 layer_factory.hpp:77] Creating layer relu3_14/x1
I0222 09:49:13.171031 22224 net.cpp:84] Creating Layer relu3_14/x1
I0222 09:49:13.171034 22224 net.cpp:406] relu3_14/x1 <- conv3_14/x1/bn
I0222 09:49:13.171039 22224 net.cpp:367] relu3_14/x1 -> conv3_14/x1/bn (in-place)
I0222 09:49:13.171330 22224 net.cpp:122] Setting up relu3_14/x1
I0222 09:49:13.171339 22224 net.cpp:129] Top shape: 1 960 2 6 (11520)
I0222 09:49:13.171342 22224 net.cpp:137] Memory required for data: 70801328
I0222 09:49:13.171346 22224 layer_factory.hpp:77] Creating layer conv3_14/x1
I0222 09:49:13.171357 22224 net.cpp:84] Creating Layer conv3_14/x1
I0222 09:49:13.171361 22224 net.cpp:406] conv3_14/x1 <- conv3_14/x1/bn
I0222 09:49:13.171370 22224 net.cpp:380] conv3_14/x1 -> conv3_14/x1
I0222 09:49:13.177222 22224 net.cpp:122] Setting up conv3_14/x1
I0222 09:49:13.177237 22224 net.cpp:129] Top shape: 1 128 2 6 (1536)
I0222 09:49:13.177242 22224 net.cpp:137] Memory required for data: 70807472
I0222 09:49:13.177248 22224 layer_factory.hpp:77] Creating layer conv3_14/x2/bn
I0222 09:49:13.177254 22224 net.cpp:84] Creating Layer conv3_14/x2/bn
I0222 09:49:13.177258 22224 net.cpp:406] conv3_14/x2/bn <- conv3_14/x1
I0222 09:49:13.177266 22224 net.cpp:380] conv3_14/x2/bn -> conv3_14/x2/bn
I0222 09:49:13.177685 22224 net.cpp:122] Setting up conv3_14/x2/bn
I0222 09:49:13.177695 22224 net.cpp:129] Top shape: 1 128 2 6 (1536)
I0222 09:49:13.177697 22224 net.cpp:137] Memory required for data: 70813616
I0222 09:49:13.177705 22224 layer_factory.hpp:77] Creating layer conv3_14/x2/scale
I0222 09:49:13.177712 22224 net.cpp:84] Creating Layer conv3_14/x2/scale
I0222 09:49:13.177716 22224 net.cpp:406] conv3_14/x2/scale <- conv3_14/x2/bn
I0222 09:49:13.177723 22224 net.cpp:367] conv3_14/x2/scale -> conv3_14/x2/bn (in-place)
I0222 09:49:13.177794 22224 layer_factory.hpp:77] Creating layer conv3_14/x2/scale
I0222 09:49:13.178004 22224 net.cpp:122] Setting up conv3_14/x2/scale
I0222 09:49:13.178011 22224 net.cpp:129] Top shape: 1 128 2 6 (1536)
I0222 09:49:13.178014 22224 net.cpp:137] Memory required for data: 70819760
I0222 09:49:13.178020 22224 layer_factory.hpp:77] Creating layer relu3_14/x2
I0222 09:49:13.178026 22224 net.cpp:84] Creating Layer relu3_14/x2
I0222 09:49:13.178030 22224 net.cpp:406] relu3_14/x2 <- conv3_14/x2/bn
I0222 09:49:13.178035 22224 net.cpp:367] relu3_14/x2 -> conv3_14/x2/bn (in-place)
I0222 09:49:13.179383 22224 net.cpp:122] Setting up relu3_14/x2
I0222 09:49:13.179397 22224 net.cpp:129] Top shape: 1 128 2 6 (1536)
I0222 09:49:13.179401 22224 net.cpp:137] Memory required for data: 70825904
I0222 09:49:13.179405 22224 layer_factory.hpp:77] Creating layer conv3_14/x2
I0222 09:49:13.179416 22224 net.cpp:84] Creating Layer conv3_14/x2
I0222 09:49:13.179421 22224 net.cpp:406] conv3_14/x2 <- conv3_14/x2/bn
I0222 09:49:13.179428 22224 net.cpp:380] conv3_14/x2 -> conv3_14/x2
I0222 09:49:13.184990 22224 net.cpp:122] Setting up conv3_14/x2
I0222 09:49:13.185004 22224 net.cpp:129] Top shape: 1 32 2 6 (384)
I0222 09:49:13.185009 22224 net.cpp:137] Memory required for data: 70827440
I0222 09:49:13.185014 22224 layer_factory.hpp:77] Creating layer concat3_14
I0222 09:49:13.185022 22224 net.cpp:84] Creating Layer concat3_14
I0222 09:49:13.185027 22224 net.cpp:406] concat3_14 <- concat3_13_concat3_13_0_split_1
I0222 09:49:13.185034 22224 net.cpp:406] concat3_14 <- conv3_14/x2
I0222 09:49:13.185040 22224 net.cpp:380] concat3_14 -> concat3_14
I0222 09:49:13.185099 22224 net.cpp:122] Setting up concat3_14
I0222 09:49:13.185106 22224 net.cpp:129] Top shape: 1 992 2 6 (11904)
I0222 09:49:13.185109 22224 net.cpp:137] Memory required for data: 70875056
I0222 09:49:13.185112 22224 layer_factory.hpp:77] Creating layer concat3_14_concat3_14_0_split
I0222 09:49:13.185120 22224 net.cpp:84] Creating Layer concat3_14_concat3_14_0_split
I0222 09:49:13.185124 22224 net.cpp:406] concat3_14_concat3_14_0_split <- concat3_14
I0222 09:49:13.185129 22224 net.cpp:380] concat3_14_concat3_14_0_split -> concat3_14_concat3_14_0_split_0
I0222 09:49:13.185135 22224 net.cpp:380] concat3_14_concat3_14_0_split -> concat3_14_concat3_14_0_split_1
I0222 09:49:13.185207 22224 net.cpp:122] Setting up concat3_14_concat3_14_0_split
I0222 09:49:13.185214 22224 net.cpp:129] Top shape: 1 992 2 6 (11904)
I0222 09:49:13.185217 22224 net.cpp:129] Top shape: 1 992 2 6 (11904)
I0222 09:49:13.185220 22224 net.cpp:137] Memory required for data: 70970288
I0222 09:49:13.185225 22224 layer_factory.hpp:77] Creating layer conv3_15/x1/bn
I0222 09:49:13.185231 22224 net.cpp:84] Creating Layer conv3_15/x1/bn
I0222 09:49:13.185235 22224 net.cpp:406] conv3_15/x1/bn <- concat3_14_concat3_14_0_split_0
I0222 09:49:13.185242 22224 net.cpp:380] conv3_15/x1/bn -> conv3_15/x1/bn
I0222 09:49:13.185745 22224 net.cpp:122] Setting up conv3_15/x1/bn
I0222 09:49:13.185753 22224 net.cpp:129] Top shape: 1 992 2 6 (11904)
I0222 09:49:13.185757 22224 net.cpp:137] Memory required for data: 71017904
I0222 09:49:13.185765 22224 layer_factory.hpp:77] Creating layer conv3_15/x1/scale
I0222 09:49:13.185773 22224 net.cpp:84] Creating Layer conv3_15/x1/scale
I0222 09:49:13.185778 22224 net.cpp:406] conv3_15/x1/scale <- conv3_15/x1/bn
I0222 09:49:13.185783 22224 net.cpp:367] conv3_15/x1/scale -> conv3_15/x1/bn (in-place)
I0222 09:49:13.185891 22224 layer_factory.hpp:77] Creating layer conv3_15/x1/scale
I0222 09:49:13.186169 22224 net.cpp:122] Setting up conv3_15/x1/scale
I0222 09:49:13.186177 22224 net.cpp:129] Top shape: 1 992 2 6 (11904)
I0222 09:49:13.186182 22224 net.cpp:137] Memory required for data: 71065520
I0222 09:49:13.186187 22224 layer_factory.hpp:77] Creating layer relu3_15/x1
I0222 09:49:13.186193 22224 net.cpp:84] Creating Layer relu3_15/x1
I0222 09:49:13.186197 22224 net.cpp:406] relu3_15/x1 <- conv3_15/x1/bn
I0222 09:49:13.186204 22224 net.cpp:367] relu3_15/x1 -> conv3_15/x1/bn (in-place)
I0222 09:49:13.186494 22224 net.cpp:122] Setting up relu3_15/x1
I0222 09:49:13.186503 22224 net.cpp:129] Top shape: 1 992 2 6 (11904)
I0222 09:49:13.186507 22224 net.cpp:137] Memory required for data: 71113136
I0222 09:49:13.186511 22224 layer_factory.hpp:77] Creating layer conv3_15/x1
I0222 09:49:13.186522 22224 net.cpp:84] Creating Layer conv3_15/x1
I0222 09:49:13.186527 22224 net.cpp:406] conv3_15/x1 <- conv3_15/x1/bn
I0222 09:49:13.186533 22224 net.cpp:380] conv3_15/x1 -> conv3_15/x1
I0222 09:49:13.192577 22224 net.cpp:122] Setting up conv3_15/x1
I0222 09:49:13.192591 22224 net.cpp:129] Top shape: 1 128 2 6 (1536)
I0222 09:49:13.192595 22224 net.cpp:137] Memory required for data: 71119280
I0222 09:49:13.192601 22224 layer_factory.hpp:77] Creating layer conv3_15/x2/bn
I0222 09:49:13.192608 22224 net.cpp:84] Creating Layer conv3_15/x2/bn
I0222 09:49:13.192613 22224 net.cpp:406] conv3_15/x2/bn <- conv3_15/x1
I0222 09:49:13.192621 22224 net.cpp:380] conv3_15/x2/bn -> conv3_15/x2/bn
I0222 09:49:13.193053 22224 net.cpp:122] Setting up conv3_15/x2/bn
I0222 09:49:13.193061 22224 net.cpp:129] Top shape: 1 128 2 6 (1536)
I0222 09:49:13.193064 22224 net.cpp:137] Memory required for data: 71125424
I0222 09:49:13.193071 22224 layer_factory.hpp:77] Creating layer conv3_15/x2/scale
I0222 09:49:13.193078 22224 net.cpp:84] Creating Layer conv3_15/x2/scale
I0222 09:49:13.193083 22224 net.cpp:406] conv3_15/x2/scale <- conv3_15/x2/bn
I0222 09:49:13.193089 22224 net.cpp:367] conv3_15/x2/scale -> conv3_15/x2/bn (in-place)
I0222 09:49:13.193163 22224 layer_factory.hpp:77] Creating layer conv3_15/x2/scale
I0222 09:49:13.193379 22224 net.cpp:122] Setting up conv3_15/x2/scale
I0222 09:49:13.193387 22224 net.cpp:129] Top shape: 1 128 2 6 (1536)
I0222 09:49:13.193390 22224 net.cpp:137] Memory required for data: 71131568
I0222 09:49:13.193397 22224 layer_factory.hpp:77] Creating layer relu3_15/x2
I0222 09:49:13.193403 22224 net.cpp:84] Creating Layer relu3_15/x2
I0222 09:49:13.193408 22224 net.cpp:406] relu3_15/x2 <- conv3_15/x2/bn
I0222 09:49:13.193411 22224 net.cpp:367] relu3_15/x2 -> conv3_15/x2/bn (in-place)
I0222 09:49:13.193706 22224 net.cpp:122] Setting up relu3_15/x2
I0222 09:49:13.193714 22224 net.cpp:129] Top shape: 1 128 2 6 (1536)
I0222 09:49:13.193718 22224 net.cpp:137] Memory required for data: 71137712
I0222 09:49:13.193722 22224 layer_factory.hpp:77] Creating layer conv3_15/x2
I0222 09:49:13.193732 22224 net.cpp:84] Creating Layer conv3_15/x2
I0222 09:49:13.193737 22224 net.cpp:406] conv3_15/x2 <- conv3_15/x2/bn
I0222 09:49:13.193743 22224 net.cpp:380] conv3_15/x2 -> conv3_15/x2
I0222 09:49:13.197136 22224 net.cpp:122] Setting up conv3_15/x2
I0222 09:49:13.197150 22224 net.cpp:129] Top shape: 1 32 2 6 (384)
I0222 09:49:13.197154 22224 net.cpp:137] Memory required for data: 71139248
I0222 09:49:13.197160 22224 layer_factory.hpp:77] Creating layer concat3_15
I0222 09:49:13.197170 22224 net.cpp:84] Creating Layer concat3_15
I0222 09:49:13.197175 22224 net.cpp:406] concat3_15 <- concat3_14_concat3_14_0_split_1
I0222 09:49:13.197180 22224 net.cpp:406] concat3_15 <- conv3_15/x2
I0222 09:49:13.197185 22224 net.cpp:380] concat3_15 -> concat3_15
I0222 09:49:13.197234 22224 net.cpp:122] Setting up concat3_15
I0222 09:49:13.197242 22224 net.cpp:129] Top shape: 1 1024 2 6 (12288)
I0222 09:49:13.197244 22224 net.cpp:137] Memory required for data: 71188400
I0222 09:49:13.197247 22224 layer_factory.hpp:77] Creating layer conv3_blk/bn
I0222 09:49:13.197253 22224 net.cpp:84] Creating Layer conv3_blk/bn
I0222 09:49:13.197257 22224 net.cpp:406] conv3_blk/bn <- concat3_15
I0222 09:49:13.197264 22224 net.cpp:380] conv3_blk/bn -> conv3_blk/bn
I0222 09:49:13.197757 22224 net.cpp:122] Setting up conv3_blk/bn
I0222 09:49:13.197764 22224 net.cpp:129] Top shape: 1 1024 2 6 (12288)
I0222 09:49:13.197767 22224 net.cpp:137] Memory required for data: 71237552
I0222 09:49:13.197775 22224 layer_factory.hpp:77] Creating layer conv3_blk/scale
I0222 09:49:13.197784 22224 net.cpp:84] Creating Layer conv3_blk/scale
I0222 09:49:13.197788 22224 net.cpp:406] conv3_blk/scale <- conv3_blk/bn
I0222 09:49:13.197793 22224 net.cpp:367] conv3_blk/scale -> conv3_blk/bn (in-place)
I0222 09:49:13.197890 22224 layer_factory.hpp:77] Creating layer conv3_blk/scale
I0222 09:49:13.198151 22224 net.cpp:122] Setting up conv3_blk/scale
I0222 09:49:13.198159 22224 net.cpp:129] Top shape: 1 1024 2 6 (12288)
I0222 09:49:13.198163 22224 net.cpp:137] Memory required for data: 71286704
I0222 09:49:13.198168 22224 layer_factory.hpp:77] Creating layer relu3_blk
I0222 09:49:13.198174 22224 net.cpp:84] Creating Layer relu3_blk
I0222 09:49:13.198179 22224 net.cpp:406] relu3_blk <- conv3_blk/bn
I0222 09:49:13.198182 22224 net.cpp:367] relu3_blk -> conv3_blk/bn (in-place)
I0222 09:49:13.199513 22224 net.cpp:122] Setting up relu3_blk
I0222 09:49:13.199527 22224 net.cpp:129] Top shape: 1 1024 2 6 (12288)
I0222 09:49:13.199530 22224 net.cpp:137] Memory required for data: 71335856
I0222 09:49:13.199533 22224 layer_factory.hpp:77] Creating layer gp
I0222 09:49:13.199542 22224 net.cpp:84] Creating Layer gp
I0222 09:49:13.199545 22224 net.cpp:406] gp <- conv3_blk/bn
I0222 09:49:13.199553 22224 net.cpp:380] gp -> gp
I0222 09:49:13.199643 22224 net.cpp:122] Setting up gp
I0222 09:49:13.199651 22224 net.cpp:129] Top shape: 1 1024 1 1 (1024)
I0222 09:49:13.199653 22224 net.cpp:137] Memory required for data: 71339952
I0222 09:49:13.199656 22224 layer_factory.hpp:77] Creating layer fc6_d
I0222 09:49:13.199664 22224 net.cpp:84] Creating Layer fc6_d
I0222 09:49:13.199668 22224 net.cpp:406] fc6_d <- gp
I0222 09:49:13.199674 22224 net.cpp:380] fc6_d -> fc6_d
I0222 09:49:13.327415 22224 net.cpp:122] Setting up fc6_d
I0222 09:49:13.327453 22224 net.cpp:129] Top shape: 1 4096 (4096)
I0222 09:49:13.327457 22224 net.cpp:137] Memory required for data: 71356336
I0222 09:49:13.327466 22224 layer_factory.hpp:77] Creating layer relu6
I0222 09:49:13.327476 22224 net.cpp:84] Creating Layer relu6
I0222 09:49:13.327482 22224 net.cpp:406] relu6 <- fc6_d
I0222 09:49:13.327489 22224 net.cpp:367] relu6 -> fc6_d (in-place)
I0222 09:49:13.327878 22224 net.cpp:122] Setting up relu6
I0222 09:49:13.327888 22224 net.cpp:129] Top shape: 1 4096 (4096)
I0222 09:49:13.327890 22224 net.cpp:137] Memory required for data: 71372720
I0222 09:49:13.327894 22224 layer_factory.hpp:77] Creating layer fc7_d
I0222 09:49:13.327905 22224 net.cpp:84] Creating Layer fc7_d
I0222 09:49:13.327909 22224 net.cpp:406] fc7_d <- fc6_d
I0222 09:49:13.327914 22224 net.cpp:380] fc7_d -> fc7_d
I0222 09:49:13.840294 22224 net.cpp:122] Setting up fc7_d
I0222 09:49:13.840330 22224 net.cpp:129] Top shape: 1 4096 (4096)
I0222 09:49:13.840333 22224 net.cpp:137] Memory required for data: 71389104
I0222 09:49:13.840344 22224 layer_factory.hpp:77] Creating layer relu7
I0222 09:49:13.840356 22224 net.cpp:84] Creating Layer relu7
I0222 09:49:13.840363 22224 net.cpp:406] relu7 <- fc7_d
I0222 09:49:13.840370 22224 net.cpp:367] relu7 -> fc7_d (in-place)
I0222 09:49:13.840782 22224 net.cpp:122] Setting up relu7
I0222 09:49:13.840792 22224 net.cpp:129] Top shape: 1 4096 (4096)
I0222 09:49:13.840795 22224 net.cpp:137] Memory required for data: 71405488
I0222 09:49:13.840800 22224 layer_factory.hpp:77] Creating layer fc8_d
I0222 09:49:13.840807 22224 net.cpp:84] Creating Layer fc8_d
I0222 09:49:13.840811 22224 net.cpp:406] fc8_d <- fc7_d
I0222 09:49:13.840819 22224 net.cpp:380] fc8_d -> fc8_d
I0222 09:49:13.918375 22224 net.cpp:122] Setting up fc8_d
I0222 09:49:13.918403 22224 net.cpp:129] Top shape: 1 618 (618)
I0222 09:49:13.918406 22224 net.cpp:137] Memory required for data: 71407960
I0222 09:49:13.918416 22224 layer_factory.hpp:77] Creating layer fc8_d_fc8_d_0_split
I0222 09:49:13.918423 22224 net.cpp:84] Creating Layer fc8_d_fc8_d_0_split
I0222 09:49:13.918431 22224 net.cpp:406] fc8_d_fc8_d_0_split <- fc8_d
I0222 09:49:13.918437 22224 net.cpp:380] fc8_d_fc8_d_0_split -> fc8_d_fc8_d_0_split_0
I0222 09:49:13.918448 22224 net.cpp:380] fc8_d_fc8_d_0_split -> fc8_d_fc8_d_0_split_1
I0222 09:49:13.918524 22224 net.cpp:122] Setting up fc8_d_fc8_d_0_split
I0222 09:49:13.918530 22224 net.cpp:129] Top shape: 1 618 (618)
I0222 09:49:13.918534 22224 net.cpp:129] Top shape: 1 618 (618)
I0222 09:49:13.918537 22224 net.cpp:137] Memory required for data: 71412904
I0222 09:49:13.918540 22224 layer_factory.hpp:77] Creating layer sigmoid
I0222 09:49:13.918550 22224 net.cpp:84] Creating Layer sigmoid
I0222 09:49:13.918553 22224 net.cpp:406] sigmoid <- fc8_d_fc8_d_0_split_0
I0222 09:49:13.918560 22224 net.cpp:380] sigmoid -> sigmoid
I0222 09:49:13.918967 22224 net.cpp:122] Setting up sigmoid
I0222 09:49:13.918977 22224 net.cpp:129] Top shape: 1 618 (618)
I0222 09:49:13.918979 22224 net.cpp:137] Memory required for data: 71415376
I0222 09:49:13.918983 22224 layer_factory.hpp:77] Creating layer silence
I0222 09:49:13.918992 22224 net.cpp:84] Creating Layer silence
I0222 09:49:13.918997 22224 net.cpp:406] silence <- sigmoid
I0222 09:49:13.919001 22224 net.cpp:122] Setting up silence
I0222 09:49:13.919003 22224 net.cpp:137] Memory required for data: 71415376
…
