…
  phase: TRAIN
}
layer {
  name: "word_images"
  type: "Data"
  top: "word_images"
  top: "label"
  transform_param {
    scale: -0.0039215689
    mean_value: 255
  }
  data_param {
    source: "/data/fwolf/iam_120x320/iam-db_nti500000_pul2-3-4-5_train_word_images_lmdb"
    batch_size: 1
    backend: LMDB
    prefetch: 20
  }
}
layer {
  name: "phocs"
  type: "Data"
  top: "phocs"
  top: "label_phocs"
  data_param {
    source: "/data/fwolf/iam_120x320/iam-db_nti500000_pul2-3-4-5_train_phocs_lmdb"
    batch_size: 1
    backend: LMDB
    prefetch: 20
  }
}
layer {
  name: "conv1_1"
  type: "Convolution"
  bottom: "word_images"
  top: "conv1_1"
  convolution_param {
    num_output: 64
    pad: 1
    kernel_size: 3
    stride: 1
    weight_filler {
      type: "msra"
    }
    bias_filler {
      type: "constant"
    }
    engine: CUDNN
  }
}
layer {
  name: "relu1_1"
  type: "ReLU"
  bottom: "conv1_1"
  top: "conv1_1"
}
layer {
  name: "conv1_2"
  type: "Convolution"
  bottom: "conv1_1"
  top: "conv1_2"
  convolution_param {
    num_output: 64
    pad: 1
    kernel_size: 3
    stride: 1
    weight_filler {
      type: "msra"
    }
    bias_filler {
      type: "constant"
    }
    engine: CUDNN
  }
}
layer {
  name: "relu1_2"
  type: "ReLU"
  bottom: "conv1_2"
  top: "conv1_2"
}
layer {
  name: "pool1"
  type: "Pooling"
  bottom: "conv1_2"
  top: "pool1"
  pooling_param {
    pool: MAX
    kernel_size: 2
    stride: 2
  }
}
layer {
  name: "conv2_1"
  type: "Convolution"
  bottom: "pool1"
  top: "conv2_1"
  convolution_param {
    num_output: 128
    pad: 1
    kernel_size: 3
    stride: 1
    weight_filler {
      type: "msra"
    }
    bias_filler {
      type: "constant"
    }
    engine: CUDNN
  }
}
layer {
  name: "relu2_1"
  type: "ReLU"
  bottom: "conv2_1"
  top: "conv2_1"
}
layer {
  name: "conv2_2"
  type: "Convolution"
  bottom: "conv2_1"
  top: "conv2_2"
  convolution_param {
    num_output: 128
    pad: 1
    kernel_size: 3
    stride: 1
    weight_filler {
      type: "msra"
    }
    bias_filler {
      type: "constant"
    }
    engine: CUDNN
  }
}
layer {
  name: "relu2_2"
  type: "ReLU"
  bottom: "conv2_2"
  top: "conv2_2"
}
layer {
  name: "pool2"
  type: "Pooling"
  bottom: "conv2_2"
  top: "pool2"
  pooling_param {
    pool: MAX
    kernel_size: 2
    stride: 2
  }
}
layer {
  name: "conv3_1"
  type: "Convolution"
  bottom: "pool2"
  top: "conv3_1"
  convolution_param {
    num_output: 256
    pad: 1
    kernel_size: 3
    stride: 1
    weight_filler {
      type: "msra"
    }
    bias_filler {
      type: "constant"
    }
    engine: CUDNN
  }
}
layer {
  name: "relu3_1"
  type: "ReLU"
  bottom: "conv3_1"
  top: "conv3_1"
}
layer {
  name: "conv3_2"
  type: "Convolution"
  bottom: "conv3_1"
  top: "conv3_2"
  convolution_param {
    num_output: 256
    pad: 1
    kernel_size: 3
    stride: 1
    weight_filler {
      type: "msra"
    }
    bias_filler {
      type: "constant"
    }
    engine: CUDNN
  }
}
layer {
  name: "relu3_2"
  type: "ReLU"
  bottom: "conv3_2"
  top: "conv3_2"
}
layer {
  name: "conv3_3"
  type: "Convolution"
  bottom: "conv3_2"
  top: "conv3_3"
  convolution_param {
    num_output: 256
    pad: 1
    kernel_size: 3
    stride: 1
    weight_filler {
      type: "msra"
    }
    bias_filler {
      type: "constant"
    }
    engine: CUDNN
  }
}
layer {
  name: "relu3_3"
  type: "ReLU"
  bottom: "conv3_3"
  top: "conv3_3"
}
layer {
  name: "conv3_4"
  type: "Convolution"
  bottom: "conv3_3"
  top: "conv3_4"
  convolution_param {
    num_output: 256
    pad: 1
    kernel_size: 3
    stride: 1
    weight_filler {
      type: "msra"
    }
    bias_filler {
      type: "constant"
    }
    engine: CUDNN
  }
}
layer {
  name: "relu3_4"
  type: "ReLU"
  bottom: "conv3_4"
  top: "conv3_4"
}
layer {
  name: "conv3_5"
  type: "Convolution"
  bottom: "conv3_4"
  top: "conv3_5"
  convolution_param {
    num_output: 256
    pad: 1
    kernel_size: 3
    stride: 1
    weight_filler {
      type: "msra"
    }
    bias_filler {
      type: "constant"
    }
    engine: CUDNN
  }
}
layer {
  name: "relu3_5"
  type: "ReLU"
  bottom: "conv3_5"
  top: "conv3_5"
}
layer {
  name: "conv3_6"
  type: "Convolution"
  bottom: "conv3_5"
  top: "conv3_6"
  convolution_param {
    num_output: 256
    pad: 1
    kernel_size: 3
    stride: 1
    weight_filler {
      type: "msra"
    }
    bias_filler {
      type: "constant"
    }
    engine: CUDNN
  }
}
layer {
  name: "relu3_6"
  type: "ReLU"
  bottom: "conv3_6"
  top: "conv3_6"
}
layer {
  name: "conv4_1"
  type: "Convolution"
  bottom: "conv3_6"
  top: "conv4_1"
  convolution_param {
    num_output: 512
    pad: 1
    kernel_size: 3
    stride: 1
    weight_filler {
      type: "msra"
    }
    bias_filler {
      type: "constant"
    }
    engine: CUDNN
  }
}
layer {
  name: "relu4_1"
  type: "ReLU"
  bottom: "conv4_1"
  top: "conv4_1"
}
layer {
  name: "conv4_2"
  type: "Convolution"
  bottom: "conv4_1"
  top: "conv4_2"
  convolution_param {
    num_output: 512
    pad: 1
    kernel_size: 3
    stride: 1
    weight_filler {
      type: "msra"
    }
    bias_filler {
      type: "constant"
    }
    engine: CUDNN
  }
}
layer {
  name: "relu4_2"
  type: "ReLU"
  bottom: "conv4_2"
  top: "conv4_2"
}
layer {
  name: "conv4_3"
  type: "Convolution"
  bottom: "conv4_2"
  top: "conv4_3"
  convolution_param {
    num_output: 512
    pad: 1
    kernel_size: 3
    stride: 1
    weight_filler {
      type: "msra"
    }
    bias_filler {
      type: "constant"
    }
    engine: CUDNN
  }
}
layer {
  name: "relu4_3"
  type: "ReLU"
  bottom: "conv4_3"
  top: "conv4_3"
}
layer {
  name: "tpp5"
  type: "TPP"
  bottom: "conv4_3"
  top: "tpp5"
  tpp_param {
    pyramid_layer: 1
    pyramid_layer: 2
    pyramid_layer: 3
    pyramid_layer: 4
    pyramid_layer: 5
    pool: MAX
    engine: CUDNN
  }
}
layer {
  name: "fc6"
  type: "InnerProduct"
  bottom: "tpp5"
  top: "fc6"
  inner_product_param {
    num_output: 4096
    weight_filler {
      type: "msra"
    }
    bias_filler {
      type: "constant"
    }
  }
}
layer {
  name: "relu6"
  type: "ReLU"
  bottom: "fc6"
  top: "fc6"
}
layer {
  name: "drop6"
  type: "Dropout"
  bottom: "fc6"
  top: "fc6"
  include {
    phase: TRAIN
  }
  dropout_param {
    dropout_ratio: 0.5
  }
}
layer {
  name: "fc7"
  type: "InnerProduct"
  bottom: "fc6"
  top: "fc7"
  inner_product_param {
    num_output: 4096
    weight_filler {
      type: "msra"
    }
    bias_filler {
      type: "constant"
    }
  }
}
layer {
  name: "relu7"
  type: "ReLU"
  bottom: "fc7"
  top: "fc7"
}
layer {
  name: "drop7"
  type: "Dropout"
  bottom: "fc7"
  top: "fc7"
  include {
    phase: TRAIN
  }
  dropout_param {
    dropout_ratio: 0.5
  }
}
layer {
  name: "fc8"
  type: "InnerProduct"
  bottom: "fc7"
  top: "fc8"
  inner_product_param {
    num_output: 618
    weight_filler {
      type: "msra"
    }
    bias_filler {
      type: "constant"
    }
  }
}
layer {
  name: "loss"
  type: "SigmoidCrossEntropyLoss"
  bottom: "fc8"
  bottom: "phocs"
  top: "loss"
}
I0227 11:02:36.208098 18769 layer_factory.hpp:77] Creating layer word_images
I0227 11:02:36.208169 18769 db_lmdb.cpp:35] Opened lmdb /data/fwolf/iam_120x320/iam-db_nti500000_pul2-3-4-5_train_word_images_lmdb
I0227 11:02:36.208192 18769 net.cpp:84] Creating Layer word_images
I0227 11:02:36.208199 18769 net.cpp:380] word_images -> word_images
I0227 11:02:36.208211 18769 net.cpp:380] word_images -> label
I0227 11:02:36.209229 18769 data_layer.cpp:44] output data size: 1,1,120,320
I0227 11:02:36.213637 18769 net.cpp:122] Setting up word_images
I0227 11:02:36.213651 18769 net.cpp:129] Top shape: 1 1 120 320 (38400)
I0227 11:02:36.213656 18769 net.cpp:129] Top shape: 1 (1)
I0227 11:02:36.213660 18769 net.cpp:137] Memory required for data: 153604
I0227 11:02:36.213663 18769 layer_factory.hpp:77] Creating layer phocs
I0227 11:02:36.213711 18769 db_lmdb.cpp:35] Opened lmdb /data/fwolf/iam_120x320/iam-db_nti500000_pul2-3-4-5_train_phocs_lmdb
I0227 11:02:36.213733 18769 net.cpp:84] Creating Layer phocs
I0227 11:02:36.213738 18769 net.cpp:380] phocs -> phocs
I0227 11:02:36.213745 18769 net.cpp:380] phocs -> label_phocs
I0227 11:02:36.213971 18769 data_layer.cpp:44] output data size: 1,1,1,618
I0227 11:02:36.216269 18769 net.cpp:122] Setting up phocs
I0227 11:02:36.216281 18769 net.cpp:129] Top shape: 1 1 1 618 (618)
I0227 11:02:36.216285 18769 net.cpp:129] Top shape: 1 (1)
I0227 11:02:36.216289 18769 net.cpp:137] Memory required for data: 156080
I0227 11:02:36.216294 18769 layer_factory.hpp:77] Creating layer conv1_1
I0227 11:02:36.216320 18769 net.cpp:84] Creating Layer conv1_1
I0227 11:02:36.216325 18769 net.cpp:406] conv1_1 <- word_images
I0227 11:02:36.216331 18769 net.cpp:380] conv1_1 -> conv1_1
I0227 11:02:36.784183 18769 net.cpp:122] Setting up conv1_1
I0227 11:02:36.784214 18769 net.cpp:129] Top shape: 1 64 120 320 (2457600)
I0227 11:02:36.784217 18769 net.cpp:137] Memory required for data: 9986480
I0227 11:02:36.784230 18769 layer_factory.hpp:77] Creating layer relu1_1
I0227 11:02:36.784240 18769 net.cpp:84] Creating Layer relu1_1
I0227 11:02:36.784245 18769 net.cpp:406] relu1_1 <- conv1_1
I0227 11:02:36.784250 18769 net.cpp:367] relu1_1 -> conv1_1 (in-place)
I0227 11:02:36.784612 18769 net.cpp:122] Setting up relu1_1
I0227 11:02:36.784623 18769 net.cpp:129] Top shape: 1 64 120 320 (2457600)
I0227 11:02:36.784626 18769 net.cpp:137] Memory required for data: 19816880
I0227 11:02:36.784631 18769 layer_factory.hpp:77] Creating layer conv1_2
I0227 11:02:36.784642 18769 net.cpp:84] Creating Layer conv1_2
I0227 11:02:36.784646 18769 net.cpp:406] conv1_2 <- conv1_1
I0227 11:02:36.784651 18769 net.cpp:380] conv1_2 -> conv1_2
I0227 11:02:36.786438 18769 net.cpp:122] Setting up conv1_2
I0227 11:02:36.786450 18769 net.cpp:129] Top shape: 1 64 120 320 (2457600)
I0227 11:02:36.786454 18769 net.cpp:137] Memory required for data: 29647280
I0227 11:02:36.786461 18769 layer_factory.hpp:77] Creating layer relu1_2
I0227 11:02:36.786468 18769 net.cpp:84] Creating Layer relu1_2
I0227 11:02:36.786470 18769 net.cpp:406] relu1_2 <- conv1_2
I0227 11:02:36.786475 18769 net.cpp:367] relu1_2 -> conv1_2 (in-place)
I0227 11:02:36.786623 18769 net.cpp:122] Setting up relu1_2
I0227 11:02:36.786629 18769 net.cpp:129] Top shape: 1 64 120 320 (2457600)
I0227 11:02:36.786633 18769 net.cpp:137] Memory required for data: 39477680
I0227 11:02:36.786635 18769 layer_factory.hpp:77] Creating layer pool1
I0227 11:02:36.786645 18769 net.cpp:84] Creating Layer pool1
I0227 11:02:36.786648 18769 net.cpp:406] pool1 <- conv1_2
I0227 11:02:36.786653 18769 net.cpp:380] pool1 -> pool1
I0227 11:02:36.786686 18769 net.cpp:122] Setting up pool1
I0227 11:02:36.786692 18769 net.cpp:129] Top shape: 1 64 60 160 (614400)
I0227 11:02:36.786695 18769 net.cpp:137] Memory required for data: 41935280
I0227 11:02:36.786697 18769 layer_factory.hpp:77] Creating layer conv2_1
I0227 11:02:36.786705 18769 net.cpp:84] Creating Layer conv2_1
I0227 11:02:36.786707 18769 net.cpp:406] conv2_1 <- pool1
I0227 11:02:36.786711 18769 net.cpp:380] conv2_1 -> conv2_1
I0227 11:02:36.791887 18769 net.cpp:122] Setting up conv2_1
I0227 11:02:36.791901 18769 net.cpp:129] Top shape: 1 128 60 160 (1228800)
I0227 11:02:36.791904 18769 net.cpp:137] Memory required for data: 46850480
I0227 11:02:36.791913 18769 layer_factory.hpp:77] Creating layer relu2_1
I0227 11:02:36.791918 18769 net.cpp:84] Creating Layer relu2_1
I0227 11:02:36.791921 18769 net.cpp:406] relu2_1 <- conv2_1
I0227 11:02:36.791926 18769 net.cpp:367] relu2_1 -> conv2_1 (in-place)
I0227 11:02:36.792079 18769 net.cpp:122] Setting up relu2_1
I0227 11:02:36.792088 18769 net.cpp:129] Top shape: 1 128 60 160 (1228800)
I0227 11:02:36.792089 18769 net.cpp:137] Memory required for data: 51765680
I0227 11:02:36.792093 18769 layer_factory.hpp:77] Creating layer conv2_2
I0227 11:02:36.792101 18769 net.cpp:84] Creating Layer conv2_2
I0227 11:02:36.792104 18769 net.cpp:406] conv2_2 <- conv2_1
I0227 11:02:36.792109 18769 net.cpp:380] conv2_2 -> conv2_2
I0227 11:02:36.796701 18769 net.cpp:122] Setting up conv2_2
I0227 11:02:36.796713 18769 net.cpp:129] Top shape: 1 128 60 160 (1228800)
I0227 11:02:36.796716 18769 net.cpp:137] Memory required for data: 56680880
I0227 11:02:36.796722 18769 layer_factory.hpp:77] Creating layer relu2_2
I0227 11:02:36.796727 18769 net.cpp:84] Creating Layer relu2_2
I0227 11:02:36.796731 18769 net.cpp:406] relu2_2 <- conv2_2
I0227 11:02:36.796736 18769 net.cpp:367] relu2_2 -> conv2_2 (in-place)
I0227 11:02:36.797098 18769 net.cpp:122] Setting up relu2_2
I0227 11:02:36.797108 18769 net.cpp:129] Top shape: 1 128 60 160 (1228800)
I0227 11:02:36.797111 18769 net.cpp:137] Memory required for data: 61596080
I0227 11:02:36.797116 18769 layer_factory.hpp:77] Creating layer pool2
I0227 11:02:36.797121 18769 net.cpp:84] Creating Layer pool2
I0227 11:02:36.797123 18769 net.cpp:406] pool2 <- conv2_2
I0227 11:02:36.797128 18769 net.cpp:380] pool2 -> pool2
I0227 11:02:36.797164 18769 net.cpp:122] Setting up pool2
I0227 11:02:36.797170 18769 net.cpp:129] Top shape: 1 128 30 80 (307200)
I0227 11:02:36.797173 18769 net.cpp:137] Memory required for data: 62824880
I0227 11:02:36.797175 18769 layer_factory.hpp:77] Creating layer conv3_1
I0227 11:02:36.797183 18769 net.cpp:84] Creating Layer conv3_1
I0227 11:02:36.797185 18769 net.cpp:406] conv3_1 <- pool2
I0227 11:02:36.797189 18769 net.cpp:380] conv3_1 -> conv3_1
I0227 11:02:36.806047 18769 net.cpp:122] Setting up conv3_1
I0227 11:02:36.806064 18769 net.cpp:129] Top shape: 1 256 30 80 (614400)
I0227 11:02:36.806067 18769 net.cpp:137] Memory required for data: 65282480
I0227 11:02:36.806077 18769 layer_factory.hpp:77] Creating layer relu3_1
I0227 11:02:36.806082 18769 net.cpp:84] Creating Layer relu3_1
I0227 11:02:36.806087 18769 net.cpp:406] relu3_1 <- conv3_1
I0227 11:02:36.806090 18769 net.cpp:367] relu3_1 -> conv3_1 (in-place)
I0227 11:02:36.806253 18769 net.cpp:122] Setting up relu3_1
I0227 11:02:36.806262 18769 net.cpp:129] Top shape: 1 256 30 80 (614400)
I0227 11:02:36.806263 18769 net.cpp:137] Memory required for data: 67740080
I0227 11:02:36.806267 18769 layer_factory.hpp:77] Creating layer conv3_2
I0227 11:02:36.806274 18769 net.cpp:84] Creating Layer conv3_2
I0227 11:02:36.806277 18769 net.cpp:406] conv3_2 <- conv3_1
I0227 11:02:36.806282 18769 net.cpp:380] conv3_2 -> conv3_2
I0227 11:02:36.822324 18769 net.cpp:122] Setting up conv3_2
I0227 11:02:36.822335 18769 net.cpp:129] Top shape: 1 256 30 80 (614400)
I0227 11:02:36.822338 18769 net.cpp:137] Memory required for data: 70197680
I0227 11:02:36.822348 18769 layer_factory.hpp:77] Creating layer relu3_2
I0227 11:02:36.822355 18769 net.cpp:84] Creating Layer relu3_2
I0227 11:02:36.822357 18769 net.cpp:406] relu3_2 <- conv3_2
I0227 11:02:36.822361 18769 net.cpp:367] relu3_2 -> conv3_2 (in-place)
I0227 11:02:36.822517 18769 net.cpp:122] Setting up relu3_2
I0227 11:02:36.822525 18769 net.cpp:129] Top shape: 1 256 30 80 (614400)
I0227 11:02:36.822527 18769 net.cpp:137] Memory required for data: 72655280
I0227 11:02:36.822530 18769 layer_factory.hpp:77] Creating layer conv3_3
I0227 11:02:36.822540 18769 net.cpp:84] Creating Layer conv3_3
I0227 11:02:36.822542 18769 net.cpp:406] conv3_3 <- conv3_2
I0227 11:02:36.822547 18769 net.cpp:380] conv3_3 -> conv3_3
I0227 11:02:36.838614 18769 net.cpp:122] Setting up conv3_3
I0227 11:02:36.838630 18769 net.cpp:129] Top shape: 1 256 30 80 (614400)
I0227 11:02:36.838634 18769 net.cpp:137] Memory required for data: 75112880
I0227 11:02:36.838641 18769 layer_factory.hpp:77] Creating layer relu3_3
I0227 11:02:36.838647 18769 net.cpp:84] Creating Layer relu3_3
I0227 11:02:36.838651 18769 net.cpp:406] relu3_3 <- conv3_3
I0227 11:02:36.838655 18769 net.cpp:367] relu3_3 -> conv3_3 (in-place)
I0227 11:02:36.839025 18769 net.cpp:122] Setting up relu3_3
I0227 11:02:36.839035 18769 net.cpp:129] Top shape: 1 256 30 80 (614400)
I0227 11:02:36.839038 18769 net.cpp:137] Memory required for data: 77570480
I0227 11:02:36.839041 18769 layer_factory.hpp:77] Creating layer conv3_4
I0227 11:02:36.839051 18769 net.cpp:84] Creating Layer conv3_4
I0227 11:02:36.839054 18769 net.cpp:406] conv3_4 <- conv3_3
I0227 11:02:36.839059 18769 net.cpp:380] conv3_4 -> conv3_4
I0227 11:02:36.855113 18769 net.cpp:122] Setting up conv3_4
I0227 11:02:36.855125 18769 net.cpp:129] Top shape: 1 256 30 80 (614400)
I0227 11:02:36.855129 18769 net.cpp:137] Memory required for data: 80028080
I0227 11:02:36.855134 18769 layer_factory.hpp:77] Creating layer relu3_4
I0227 11:02:36.855140 18769 net.cpp:84] Creating Layer relu3_4
I0227 11:02:36.855144 18769 net.cpp:406] relu3_4 <- conv3_4
I0227 11:02:36.855149 18769 net.cpp:367] relu3_4 -> conv3_4 (in-place)
I0227 11:02:36.855305 18769 net.cpp:122] Setting up relu3_4
I0227 11:02:36.855314 18769 net.cpp:129] Top shape: 1 256 30 80 (614400)
I0227 11:02:36.855315 18769 net.cpp:137] Memory required for data: 82485680
I0227 11:02:36.855319 18769 layer_factory.hpp:77] Creating layer conv3_5
I0227 11:02:36.855326 18769 net.cpp:84] Creating Layer conv3_5
I0227 11:02:36.855329 18769 net.cpp:406] conv3_5 <- conv3_4
I0227 11:02:36.855334 18769 net.cpp:380] conv3_5 -> conv3_5
I0227 11:02:36.871403 18769 net.cpp:122] Setting up conv3_5
I0227 11:02:36.871420 18769 net.cpp:129] Top shape: 1 256 30 80 (614400)
I0227 11:02:36.871423 18769 net.cpp:137] Memory required for data: 84943280
I0227 11:02:36.871433 18769 layer_factory.hpp:77] Creating layer relu3_5
I0227 11:02:36.871439 18769 net.cpp:84] Creating Layer relu3_5
I0227 11:02:36.871443 18769 net.cpp:406] relu3_5 <- conv3_5
I0227 11:02:36.871448 18769 net.cpp:367] relu3_5 -> conv3_5 (in-place)
I0227 11:02:36.871611 18769 net.cpp:122] Setting up relu3_5
I0227 11:02:36.871619 18769 net.cpp:129] Top shape: 1 256 30 80 (614400)
I0227 11:02:36.871623 18769 net.cpp:137] Memory required for data: 87400880
I0227 11:02:36.871625 18769 layer_factory.hpp:77] Creating layer conv3_6
I0227 11:02:36.871635 18769 net.cpp:84] Creating Layer conv3_6
I0227 11:02:36.871639 18769 net.cpp:406] conv3_6 <- conv3_5
I0227 11:02:36.871642 18769 net.cpp:380] conv3_6 -> conv3_6
I0227 11:02:36.888459 18769 net.cpp:122] Setting up conv3_6
I0227 11:02:36.888473 18769 net.cpp:129] Top shape: 1 256 30 80 (614400)
I0227 11:02:36.888476 18769 net.cpp:137] Memory required for data: 89858480
I0227 11:02:36.888483 18769 layer_factory.hpp:77] Creating layer relu3_6
I0227 11:02:36.888489 18769 net.cpp:84] Creating Layer relu3_6
I0227 11:02:36.888491 18769 net.cpp:406] relu3_6 <- conv3_6
I0227 11:02:36.888496 18769 net.cpp:367] relu3_6 -> conv3_6 (in-place)
I0227 11:02:36.888660 18769 net.cpp:122] Setting up relu3_6
I0227 11:02:36.888671 18769 net.cpp:129] Top shape: 1 256 30 80 (614400)
I0227 11:02:36.888674 18769 net.cpp:137] Memory required for data: 92316080
I0227 11:02:36.888677 18769 layer_factory.hpp:77] Creating layer conv4_1
I0227 11:02:36.888685 18769 net.cpp:84] Creating Layer conv4_1
I0227 11:02:36.888689 18769 net.cpp:406] conv4_1 <- conv3_6
I0227 11:02:36.888694 18769 net.cpp:380] conv4_1 -> conv4_1
I0227 11:02:36.919595 18769 net.cpp:122] Setting up conv4_1
I0227 11:02:36.919617 18769 net.cpp:129] Top shape: 1 512 30 80 (1228800)
I0227 11:02:36.919621 18769 net.cpp:137] Memory required for data: 97231280
I0227 11:02:36.919629 18769 layer_factory.hpp:77] Creating layer relu4_1
I0227 11:02:36.919637 18769 net.cpp:84] Creating Layer relu4_1
I0227 11:02:36.919641 18769 net.cpp:406] relu4_1 <- conv4_1
I0227 11:02:36.919646 18769 net.cpp:367] relu4_1 -> conv4_1 (in-place)
I0227 11:02:36.920039 18769 net.cpp:122] Setting up relu4_1
I0227 11:02:36.920049 18769 net.cpp:129] Top shape: 1 512 30 80 (1228800)
I0227 11:02:36.920053 18769 net.cpp:137] Memory required for data: 102146480
I0227 11:02:36.920056 18769 layer_factory.hpp:77] Creating layer conv4_2
I0227 11:02:36.920065 18769 net.cpp:84] Creating Layer conv4_2
I0227 11:02:36.920069 18769 net.cpp:406] conv4_2 <- conv4_1
I0227 11:02:36.920074 18769 net.cpp:380] conv4_2 -> conv4_2
I0227 11:02:36.980378 18769 net.cpp:122] Setting up conv4_2
I0227 11:02:36.980406 18769 net.cpp:129] Top shape: 1 512 30 80 (1228800)
I0227 11:02:36.980409 18769 net.cpp:137] Memory required for data: 107061680
I0227 11:02:36.980417 18769 layer_factory.hpp:77] Creating layer relu4_2
I0227 11:02:36.980427 18769 net.cpp:84] Creating Layer relu4_2
I0227 11:02:36.980432 18769 net.cpp:406] relu4_2 <- conv4_2
I0227 11:02:36.980437 18769 net.cpp:367] relu4_2 -> conv4_2 (in-place)
I0227 11:02:36.980592 18769 net.cpp:122] Setting up relu4_2
I0227 11:02:36.980600 18769 net.cpp:129] Top shape: 1 512 30 80 (1228800)
I0227 11:02:36.980602 18769 net.cpp:137] Memory required for data: 111976880
I0227 11:02:36.980605 18769 layer_factory.hpp:77] Creating layer conv4_3
I0227 11:02:36.980615 18769 net.cpp:84] Creating Layer conv4_3
I0227 11:02:36.980618 18769 net.cpp:406] conv4_3 <- conv4_2
I0227 11:02:36.980623 18769 net.cpp:380] conv4_3 -> conv4_3
I0227 11:02:37.061409 18769 net.cpp:122] Setting up conv4_3
I0227 11:02:37.061444 18769 net.cpp:129] Top shape: 1 512 30 80 (1228800)
I0227 11:02:37.061447 18769 net.cpp:137] Memory required for data: 116892080
I0227 11:02:37.061458 18769 layer_factory.hpp:77] Creating layer relu4_3
I0227 11:02:37.061470 18769 net.cpp:84] Creating Layer relu4_3
I0227 11:02:37.061475 18769 net.cpp:406] relu4_3 <- conv4_3
I0227 11:02:37.061483 18769 net.cpp:367] relu4_3 -> conv4_3 (in-place)
I0227 11:02:37.061688 18769 net.cpp:122] Setting up relu4_3
I0227 11:02:37.061697 18769 net.cpp:129] Top shape: 1 512 30 80 (1228800)
I0227 11:02:37.061702 18769 net.cpp:137] Memory required for data: 121807280
I0227 11:02:37.061705 18769 layer_factory.hpp:77] Creating layer tpp5
I0227 11:02:37.061714 18769 net.cpp:84] Creating Layer tpp5
I0227 11:02:37.061718 18769 net.cpp:406] tpp5 <- conv4_3
I0227 11:02:37.061724 18769 net.cpp:380] tpp5 -> tpp5
I0227 11:02:37.062173 18769 net.cpp:122] Setting up tpp5
I0227 11:02:37.062182 18769 net.cpp:129] Top shape: 1 7680 (7680)
I0227 11:02:37.062187 18769 net.cpp:137] Memory required for data: 121838000
I0227 11:02:37.062191 18769 layer_factory.hpp:77] Creating layer fc6
I0227 11:02:37.062199 18769 net.cpp:84] Creating Layer fc6
I0227 11:02:37.062203 18769 net.cpp:406] fc6 <- tpp5
I0227 11:02:37.062209 18769 net.cpp:380] fc6 -> fc6
I0227 11:02:38.220613 18769 net.cpp:122] Setting up fc6
I0227 11:02:38.220649 18769 net.cpp:129] Top shape: 1 4096 (4096)
I0227 11:02:38.220657 18769 net.cpp:137] Memory required for data: 121854384
I0227 11:02:38.220671 18769 layer_factory.hpp:77] Creating layer relu6
I0227 11:02:38.220687 18769 net.cpp:84] Creating Layer relu6
I0227 11:02:38.220695 18769 net.cpp:406] relu6 <- fc6
I0227 11:02:38.220705 18769 net.cpp:367] relu6 -> fc6 (in-place)
I0227 11:02:38.221518 18769 net.cpp:122] Setting up relu6
I0227 11:02:38.221534 18769 net.cpp:129] Top shape: 1 4096 (4096)
I0227 11:02:38.221539 18769 net.cpp:137] Memory required for data: 121870768
I0227 11:02:38.221544 18769 layer_factory.hpp:77] Creating layer drop6
I0227 11:02:38.221554 18769 net.cpp:84] Creating Layer drop6
I0227 11:02:38.221560 18769 net.cpp:406] drop6 <- fc6
I0227 11:02:38.221566 18769 net.cpp:367] drop6 -> fc6 (in-place)
I0227 11:02:38.221603 18769 net.cpp:122] Setting up drop6
I0227 11:02:38.221613 18769 net.cpp:129] Top shape: 1 4096 (4096)
I0227 11:02:38.221618 18769 net.cpp:137] Memory required for data: 121887152
I0227 11:02:38.221623 18769 layer_factory.hpp:77] Creating layer fc7
I0227 11:02:38.221632 18769 net.cpp:84] Creating Layer fc7
I0227 11:02:38.221637 18769 net.cpp:406] fc7 <- fc6
I0227 11:02:38.221645 18769 net.cpp:380] fc7 -> fc7
I0227 11:02:38.793305 18769 net.cpp:122] Setting up fc7
I0227 11:02:38.793341 18769 net.cpp:129] Top shape: 1 4096 (4096)
I0227 11:02:38.793346 18769 net.cpp:137] Memory required for data: 121903536
I0227 11:02:38.793357 18769 layer_factory.hpp:77] Creating layer relu7
I0227 11:02:38.793368 18769 net.cpp:84] Creating Layer relu7
I0227 11:02:38.793375 18769 net.cpp:406] relu7 <- fc7
I0227 11:02:38.793383 18769 net.cpp:367] relu7 -> fc7 (in-place)
I0227 11:02:38.793660 18769 net.cpp:122] Setting up relu7
I0227 11:02:38.793670 18769 net.cpp:129] Top shape: 1 4096 (4096)
I0227 11:02:38.793674 18769 net.cpp:137] Memory required for data: 121919920
I0227 11:02:38.793679 18769 layer_factory.hpp:77] Creating layer drop7
I0227 11:02:38.793689 18769 net.cpp:84] Creating Layer drop7
I0227 11:02:38.793692 18769 net.cpp:406] drop7 <- fc7
I0227 11:02:38.793699 18769 net.cpp:367] drop7 -> fc7 (in-place)
I0227 11:02:38.793730 18769 net.cpp:122] Setting up drop7
I0227 11:02:38.793737 18769 net.cpp:129] Top shape: 1 4096 (4096)
I0227 11:02:38.793741 18769 net.cpp:137] Memory required for data: 121936304
I0227 11:02:38.793745 18769 layer_factory.hpp:77] Creating layer fc8
I0227 11:02:38.793752 18769 net.cpp:84] Creating Layer fc8
I0227 11:02:38.793756 18769 net.cpp:406] fc8 <- fc7
I0227 11:02:38.793762 18769 net.cpp:380] fc8 -> fc8
I0227 11:02:38.890215 18769 net.cpp:122] Setting up fc8
I0227 11:02:38.890250 18769 net.cpp:129] Top shape: 1 618 (618)
I0227 11:02:38.890255 18769 net.cpp:137] Memory required for data: 121938776
I0227 11:02:38.890266 18769 layer_factory.hpp:77] Creating layer loss
I0227 11:02:38.890278 18769 net.cpp:84] Creating Layer loss
I0227 11:02:38.890285 18769 net.cpp:406] loss <- fc8
I0227 11:02:38.890291 18769 net.cpp:406] loss <- phocs
I0227 11:02:38.890298 18769 net.cpp:380] loss -> loss
I0227 11:02:38.890347 18769 net.cpp:122] Setting up loss
…
  phase: TEST
}
layer {
  name: "word_images"
  type: "Data"
  top: "word_images"
  top: "label"
  transform_param {
    scale: -0.0039215689
    mean_value: 255
  }
  data_param {
    source: "/data/fwolf/iam_120x320/iam-db_nti500000_pul2-3-4-5_test_word_images_lmdb"
    batch_size: 1
    backend: LMDB
    prefetch: 20
  }
}
layer {
  name: "phocs"
  type: "Data"
  top: "phocs"
  top: "label_phocs"
  data_param {
    source: "/data/fwolf/iam_120x320/iam-db_nti500000_pul2-3-4-5_test_phocs_lmdb"
    batch_size: 1
    backend: LMDB
    prefetch: 20
  }
}
layer {
  name: "conv1_1"
  type: "Convolution"
  bottom: "word_images"
  top: "conv1_1"
  convolution_param {
    num_output: 64
    pad: 1
    kernel_size: 3
    stride: 1
    weight_filler {
      type: "msra"
    }
    bias_filler {
      type: "constant"
    }
    engine: CUDNN
  }
}
layer {
  name: "relu1_1"
  type: "ReLU"
  bottom: "conv1_1"
  top: "conv1_1"
}
layer {
  name: "conv1_2"
  type: "Convolution"
  bottom: "conv1_1"
  top: "conv1_2"
  convolution_param {
    num_output: 64
    pad: 1
    kernel_size: 3
    stride: 1
    weight_filler {
      type: "msra"
    }
    bias_filler {
      type: "constant"
    }
    engine: CUDNN
  }
}
layer {
  name: "relu1_2"
  type: "ReLU"
  bottom: "conv1_2"
  top: "conv1_2"
}
layer {
  name: "pool1"
  type: "Pooling"
  bottom: "conv1_2"
  top: "pool1"
  pooling_param {
    pool: MAX
    kernel_size: 2
    stride: 2
  }
}
layer {
  name: "conv2_1"
  type: "Convolution"
  bottom: "pool1"
  top: "conv2_1"
  convolution_param {
    num_output: 128
    pad: 1
    kernel_size: 3
    stride: 1
    weight_filler {
      type: "msra"
    }
    bias_filler {
      type: "constant"
    }
    engine: CUDNN
  }
}
layer {
  name: "relu2_1"
  type: "ReLU"
  bottom: "conv2_1"
  top: "conv2_1"
}
layer {
  name: "conv2_2"
  type: "Convolution"
  bottom: "conv2_1"
  top: "conv2_2"
  convolution_param {
    num_output: 128
    pad: 1
    kernel_size: 3
    stride: 1
    weight_filler {
      type: "msra"
    }
    bias_filler {
      type: "constant"
    }
    engine: CUDNN
  }
}
layer {
  name: "relu2_2"
  type: "ReLU"
  bottom: "conv2_2"
  top: "conv2_2"
}
layer {
  name: "pool2"
  type: "Pooling"
  bottom: "conv2_2"
  top: "pool2"
  pooling_param {
    pool: MAX
    kernel_size: 2
    stride: 2
  }
}
layer {
  name: "conv3_1"
  type: "Convolution"
  bottom: "pool2"
  top: "conv3_1"
  convolution_param {
    num_output: 256
    pad: 1
    kernel_size: 3
    stride: 1
    weight_filler {
      type: "msra"
    }
    bias_filler {
      type: "constant"
    }
    engine: CUDNN
  }
}
layer {
  name: "relu3_1"
  type: "ReLU"
  bottom: "conv3_1"
  top: "conv3_1"
}
layer {
  name: "conv3_2"
  type: "Convolution"
  bottom: "conv3_1"
  top: "conv3_2"
  convolution_param {
    num_output: 256
    pad: 1
    kernel_size: 3
    stride: 1
    weight_filler {
      type: "msra"
    }
    bias_filler {
      type: "constant"
    }
    engine: CUDNN
  }
}
layer {
  name: "relu3_2"
  type: "ReLU"
  bottom: "conv3_2"
  top: "conv3_2"
}
layer {
  name: "conv3_3"
  type: "Convolution"
  bottom: "conv3_2"
  top: "conv3_3"
  convolution_param {
    num_output: 256
    pad: 1
    kernel_size: 3
    stride: 1
    weight_filler {
      type: "msra"
    }
    bias_filler {
      type: "constant"
    }
    engine: CUDNN
  }
}
layer {
  name: "relu3_3"
  type: "ReLU"
  bottom: "conv3_3"
  top: "conv3_3"
}
layer {
  name: "conv3_4"
  type: "Convolution"
  bottom: "conv3_3"
  top: "conv3_4"
  convolution_param {
    num_output: 256
    pad: 1
    kernel_size: 3
    stride: 1
    weight_filler {
      type: "msra"
    }
    bias_filler {
      type: "constant"
    }
    engine: CUDNN
  }
}
layer {
  name: "relu3_4"
  type: "ReLU"
  bottom: "conv3_4"
  top: "conv3_4"
}
layer {
  name: "conv3_5"
  type: "Convolution"
  bottom: "conv3_4"
  top: "conv3_5"
  convolution_param {
    num_output: 256
    pad: 1
    kernel_size: 3
    stride: 1
    weight_filler {
      type: "msra"
    }
    bias_filler {
      type: "constant"
    }
    engine: CUDNN
  }
}
layer {
  name: "relu3_5"
  type: "ReLU"
  bottom: "conv3_5"
  top: "conv3_5"
}
layer {
  name: "conv3_6"
  type: "Convolution"
  bottom: "conv3_5"
  top: "conv3_6"
  convolution_param {
    num_output: 256
    pad: 1
    kernel_size: 3
    stride: 1
    weight_filler {
      type: "msra"
    }
    bias_filler {
      type: "constant"
    }
    engine: CUDNN
  }
}
layer {
  name: "relu3_6"
  type: "ReLU"
  bottom: "conv3_6"
  top: "conv3_6"
}
layer {
  name: "conv4_1"
  type: "Convolution"
  bottom: "conv3_6"
  top: "conv4_1"
  convolution_param {
    num_output: 512
    pad: 1
    kernel_size: 3
    stride: 1
    weight_filler {
      type: "msra"
    }
    bias_filler {
      type: "constant"
    }
    engine: CUDNN
  }
}
layer {
  name: "relu4_1"
  type: "ReLU"
  bottom: "conv4_1"
  top: "conv4_1"
}
layer {
  name: "conv4_2"
  type: "Convolution"
  bottom: "conv4_1"
  top: "conv4_2"
  convolution_param {
    num_output: 512
    pad: 1
    kernel_size: 3
    stride: 1
    weight_filler {
      type: "msra"
    }
    bias_filler {
      type: "constant"
    }
    engine: CUDNN
  }
}
layer {
  name: "relu4_2"
  type: "ReLU"
  bottom: "conv4_2"
  top: "conv4_2"
}
layer {
  name: "conv4_3"
  type: "Convolution"
  bottom: "conv4_2"
  top: "conv4_3"
  convolution_param {
    num_output: 512
    pad: 1
    kernel_size: 3
    stride: 1
    weight_filler {
      type: "msra"
    }
    bias_filler {
      type: "constant"
    }
    engine: CUDNN
  }
}
layer {
  name: "relu4_3"
  type: "ReLU"
  bottom: "conv4_3"
  top: "conv4_3"
}
layer {
  name: "tpp5"
  type: "TPP"
  bottom: "conv4_3"
  top: "tpp5"
  tpp_param {
    pyramid_layer: 1
    pyramid_layer: 2
    pyramid_layer: 3
    pyramid_layer: 4
    pyramid_layer: 5
    pool: MAX
    engine: CUDNN
  }
}
layer {
  name: "fc6"
  type: "InnerProduct"
  bottom: "tpp5"
  top: "fc6"
  inner_product_param {
    num_output: 4096
    weight_filler {
      type: "msra"
    }
    bias_filler {
      type: "constant"
    }
  }
}
layer {
  name: "relu6"
  type: "ReLU"
  bottom: "fc6"
  top: "fc6"
}
layer {
  name: "fc7"
  type: "InnerProduct"
  bottom: "fc6"
  top: "fc7"
  inner_product_param {
    num_output: 4096
    weight_filler {
      type: "msra"
    }
    bias_filler {
      type: "constant"
    }
  }
}
layer {
  name: "relu7"
  type: "ReLU"
  bottom: "fc7"
  top: "fc7"
}
layer {
  name: "fc8"
  type: "InnerProduct"
  bottom: "fc7"
  top: "fc8"
  inner_product_param {
    num_output: 618
    weight_filler {
      type: "msra"
    }
    bias_filler {
      type: "constant"
    }
  }
}
layer {
  name: "sigmoid"
  type: "Sigmoid"
  bottom: "fc8"
  top: "sigmoid"
  include {
    phase: TEST
  }
}
layer {
  name: "silence"
  type: "Silence"
  bottom: "sigmoid"
  include {
    phase: TEST
  }
}
layer {
  name: "loss"
  type: "SigmoidCrossEntropyLoss"
  bottom: "fc8"
  bottom: "phocs"
  top: "loss"
}
I0227 11:02:38.892714 18769 layer_factory.hpp:77] Creating layer word_images
I0227 11:02:38.892797 18769 db_lmdb.cpp:35] Opened lmdb /data/fwolf/iam_120x320/iam-db_nti500000_pul2-3-4-5_test_word_images_lmdb
I0227 11:02:38.892814 18769 net.cpp:84] Creating Layer word_images
I0227 11:02:38.892822 18769 net.cpp:380] word_images -> word_images
I0227 11:02:38.892829 18769 net.cpp:380] word_images -> label
I0227 11:02:38.893151 18769 data_layer.cpp:44] output data size: 1,1,120,320
I0227 11:02:38.898463 18769 net.cpp:122] Setting up word_images
I0227 11:02:38.898488 18769 net.cpp:129] Top shape: 1 1 120 320 (38400)
I0227 11:02:38.898495 18769 net.cpp:129] Top shape: 1 (1)
I0227 11:02:38.898499 18769 net.cpp:137] Memory required for data: 153604
I0227 11:02:38.898504 18769 layer_factory.hpp:77] Creating layer phocs
I0227 11:02:38.898552 18769 db_lmdb.cpp:35] Opened lmdb /data/fwolf/iam_120x320/iam-db_nti500000_pul2-3-4-5_test_phocs_lmdb
I0227 11:02:38.898566 18769 net.cpp:84] Creating Layer phocs
I0227 11:02:38.898572 18769 net.cpp:380] phocs -> phocs
I0227 11:02:38.898581 18769 net.cpp:380] phocs -> label_phocs
I0227 11:02:38.898948 18769 data_layer.cpp:44] output data size: 1,1,1,618
I0227 11:02:38.901154 18769 net.cpp:122] Setting up phocs
I0227 11:02:38.901172 18769 net.cpp:129] Top shape: 1 1 1 618 (618)
I0227 11:02:38.901181 18769 net.cpp:129] Top shape: 1 (1)
I0227 11:02:38.901187 18769 net.cpp:137] Memory required for data: 156080
I0227 11:02:38.901195 18769 layer_factory.hpp:77] Creating layer conv1_1
I0227 11:02:38.901212 18769 net.cpp:84] Creating Layer conv1_1
I0227 11:02:38.901221 18769 net.cpp:406] conv1_1 <- word_images
I0227 11:02:38.901233 18769 net.cpp:380] conv1_1 -> conv1_1
I0227 11:02:38.903560 18769 net.cpp:122] Setting up conv1_1
I0227 11:02:38.903576 18769 net.cpp:129] Top shape: 1 64 120 320 (2457600)
I0227 11:02:38.903581 18769 net.cpp:137] Memory required for data: 9986480
I0227 11:02:38.903594 18769 layer_factory.hpp:77] Creating layer relu1_1
I0227 11:02:38.903602 18769 net.cpp:84] Creating Layer relu1_1
I0227 11:02:38.903607 18769 net.cpp:406] relu1_1 <- conv1_1
I0227 11:02:38.903614 18769 net.cpp:367] relu1_1 -> conv1_1 (in-place)
I0227 11:02:38.904276 18769 net.cpp:122] Setting up relu1_1
I0227 11:02:38.904319 18769 net.cpp:129] Top shape: 1 64 120 320 (2457600)
I0227 11:02:38.904335 18769 net.cpp:137] Memory required for data: 19816880
I0227 11:02:38.904347 18769 layer_factory.hpp:77] Creating layer conv1_2
I0227 11:02:38.904379 18769 net.cpp:84] Creating Layer conv1_2
I0227 11:02:38.904393 18769 net.cpp:406] conv1_2 <- conv1_1
I0227 11:02:38.904419 18769 net.cpp:380] conv1_2 -> conv1_2
I0227 11:02:38.912720 18769 net.cpp:122] Setting up conv1_2
I0227 11:02:38.912760 18769 net.cpp:129] Top shape: 1 64 120 320 (2457600)
I0227 11:02:38.912775 18769 net.cpp:137] Memory required for data: 29647280
I0227 11:02:38.912804 18769 layer_factory.hpp:77] Creating layer relu1_2
I0227 11:02:38.912825 18769 net.cpp:84] Creating Layer relu1_2
I0227 11:02:38.912838 18769 net.cpp:406] relu1_2 <- conv1_2
I0227 11:02:38.912859 18769 net.cpp:367] relu1_2 -> conv1_2 (in-place)
I0227 11:02:38.914013 18769 net.cpp:122] Setting up relu1_2
I0227 11:02:38.914050 18769 net.cpp:129] Top shape: 1 64 120 320 (2457600)
I0227 11:02:38.914063 18769 net.cpp:137] Memory required for data: 39477680
I0227 11:02:38.914077 18769 layer_factory.hpp:77] Creating layer pool1
I0227 11:02:38.914103 18769 net.cpp:84] Creating Layer pool1
I0227 11:02:38.914117 18769 net.cpp:406] pool1 <- conv1_2
I0227 11:02:38.914137 18769 net.cpp:380] pool1 -> pool1
I0227 11:02:38.914314 18769 net.cpp:122] Setting up pool1
I0227 11:02:38.914336 18769 net.cpp:129] Top shape: 1 64 60 160 (614400)
I0227 11:02:38.914346 18769 net.cpp:137] Memory required for data: 41935280
I0227 11:02:38.914357 18769 layer_factory.hpp:77] Creating layer conv2_1
I0227 11:02:38.914388 18769 net.cpp:84] Creating Layer conv2_1
I0227 11:02:38.914403 18769 net.cpp:406] conv2_1 <- pool1
I0227 11:02:38.914424 18769 net.cpp:380] conv2_1 -> conv2_1
I0227 11:02:38.923562 18769 net.cpp:122] Setting up conv2_1
I0227 11:02:38.923588 18769 net.cpp:129] Top shape: 1 128 60 160 (1228800)
I0227 11:02:38.923595 18769 net.cpp:137] Memory required for data: 46850480
I0227 11:02:38.923614 18769 layer_factory.hpp:77] Creating layer relu2_1
I0227 11:02:38.923630 18769 net.cpp:84] Creating Layer relu2_1
I0227 11:02:38.923638 18769 net.cpp:406] relu2_1 <- conv2_1
I0227 11:02:38.923648 18769 net.cpp:367] relu2_1 -> conv2_1 (in-place)
I0227 11:02:38.924053 18769 net.cpp:122] Setting up relu2_1
I0227 11:02:38.924072 18769 net.cpp:129] Top shape: 1 128 60 160 (1228800)
I0227 11:02:38.924077 18769 net.cpp:137] Memory required for data: 51765680
I0227 11:02:38.924084 18769 layer_factory.hpp:77] Creating layer conv2_2
I0227 11:02:38.924103 18769 net.cpp:84] Creating Layer conv2_2
I0227 11:02:38.924111 18769 net.cpp:406] conv2_2 <- conv2_1
I0227 11:02:38.924124 18769 net.cpp:380] conv2_2 -> conv2_2
I0227 11:02:38.935703 18769 net.cpp:122] Setting up conv2_2
I0227 11:02:38.935731 18769 net.cpp:129] Top shape: 1 128 60 160 (1228800)
I0227 11:02:38.935739 18769 net.cpp:137] Memory required for data: 56680880
I0227 11:02:38.935751 18769 layer_factory.hpp:77] Creating layer relu2_2
I0227 11:02:38.935765 18769 net.cpp:84] Creating Layer relu2_2
I0227 11:02:38.935771 18769 net.cpp:406] relu2_2 <- conv2_2
I0227 11:02:38.935783 18769 net.cpp:367] relu2_2 -> conv2_2 (in-place)
I0227 11:02:38.936153 18769 net.cpp:122] Setting up relu2_2
I0227 11:02:38.936169 18769 net.cpp:129] Top shape: 1 128 60 160 (1228800)
I0227 11:02:38.936177 18769 net.cpp:137] Memory required for data: 61596080
I0227 11:02:38.936182 18769 layer_factory.hpp:77] Creating layer pool2
I0227 11:02:38.936194 18769 net.cpp:84] Creating Layer pool2
I0227 11:02:38.936202 18769 net.cpp:406] pool2 <- conv2_2
I0227 11:02:38.936210 18769 net.cpp:380] pool2 -> pool2
I0227 11:02:38.936298 18769 net.cpp:122] Setting up pool2
I0227 11:02:38.936309 18769 net.cpp:129] Top shape: 1 128 30 80 (307200)
I0227 11:02:38.936316 18769 net.cpp:137] Memory required for data: 62824880
I0227 11:02:38.936321 18769 layer_factory.hpp:77] Creating layer conv3_1
I0227 11:02:38.936339 18769 net.cpp:84] Creating Layer conv3_1
I0227 11:02:38.936347 18769 net.cpp:406] conv3_1 <- pool2
I0227 11:02:38.936358 18769 net.cpp:380] conv3_1 -> conv3_1
I0227 11:02:38.954937 18769 net.cpp:122] Setting up conv3_1
I0227 11:02:38.954959 18769 net.cpp:129] Top shape: 1 256 30 80 (614400)
I0227 11:02:38.954967 18769 net.cpp:137] Memory required for data: 65282480
I0227 11:02:38.954982 18769 layer_factory.hpp:77] Creating layer relu3_1
I0227 11:02:38.954993 18769 net.cpp:84] Creating Layer relu3_1
I0227 11:02:38.955004 18769 net.cpp:406] relu3_1 <- conv3_1
I0227 11:02:38.955015 18769 net.cpp:367] relu3_1 -> conv3_1 (in-place)
I0227 11:02:38.955371 18769 net.cpp:122] Setting up relu3_1
I0227 11:02:38.955389 18769 net.cpp:129] Top shape: 1 256 30 80 (614400)
I0227 11:02:38.955394 18769 net.cpp:137] Memory required for data: 67740080
I0227 11:02:38.955400 18769 layer_factory.hpp:77] Creating layer conv3_2
I0227 11:02:38.955416 18769 net.cpp:84] Creating Layer conv3_2
I0227 11:02:38.955423 18769 net.cpp:406] conv3_2 <- conv3_1
I0227 11:02:38.955433 18769 net.cpp:380] conv3_2 -> conv3_2
I0227 11:02:38.986809 18769 net.cpp:122] Setting up conv3_2
I0227 11:02:38.986835 18769 net.cpp:129] Top shape: 1 256 30 80 (614400)
I0227 11:02:38.986840 18769 net.cpp:137] Memory required for data: 70197680
I0227 11:02:38.986851 18769 layer_factory.hpp:77] Creating layer relu3_2
I0227 11:02:38.986863 18769 net.cpp:84] Creating Layer relu3_2
I0227 11:02:38.986870 18769 net.cpp:406] relu3_2 <- conv3_2
I0227 11:02:38.986877 18769 net.cpp:367] relu3_2 -> conv3_2 (in-place)
I0227 11:02:38.987551 18769 net.cpp:122] Setting up relu3_2
I0227 11:02:38.987570 18769 net.cpp:129] Top shape: 1 256 30 80 (614400)
I0227 11:02:38.987574 18769 net.cpp:137] Memory required for data: 72655280
I0227 11:02:38.987579 18769 layer_factory.hpp:77] Creating layer conv3_3
I0227 11:02:38.987596 18769 net.cpp:84] Creating Layer conv3_3
I0227 11:02:38.987602 18769 net.cpp:406] conv3_3 <- conv3_2
I0227 11:02:38.987613 18769 net.cpp:380] conv3_3 -> conv3_3
I0227 11:02:39.015182 18769 net.cpp:122] Setting up conv3_3
I0227 11:02:39.015206 18769 net.cpp:129] Top shape: 1 256 30 80 (614400)
I0227 11:02:39.015213 18769 net.cpp:137] Memory required for data: 75112880
I0227 11:02:39.015223 18769 layer_factory.hpp:77] Creating layer relu3_3
I0227 11:02:39.015233 18769 net.cpp:84] Creating Layer relu3_3
I0227 11:02:39.015239 18769 net.cpp:406] relu3_3 <- conv3_3
I0227 11:02:39.015246 18769 net.cpp:367] relu3_3 -> conv3_3 (in-place)
I0227 11:02:39.015532 18769 net.cpp:122] Setting up relu3_3
I0227 11:02:39.015545 18769 net.cpp:129] Top shape: 1 256 30 80 (614400)
I0227 11:02:39.015549 18769 net.cpp:137] Memory required for data: 77570480
I0227 11:02:39.015554 18769 layer_factory.hpp:77] Creating layer conv3_4
I0227 11:02:39.015569 18769 net.cpp:84] Creating Layer conv3_4
I0227 11:02:39.015575 18769 net.cpp:406] conv3_4 <- conv3_3
I0227 11:02:39.015583 18769 net.cpp:380] conv3_4 -> conv3_4
I0227 11:02:39.040241 18769 net.cpp:122] Setting up conv3_4
I0227 11:02:39.040258 18769 net.cpp:129] Top shape: 1 256 30 80 (614400)
I0227 11:02:39.040263 18769 net.cpp:137] Memory required for data: 80028080
I0227 11:02:39.040271 18769 layer_factory.hpp:77] Creating layer relu3_4
I0227 11:02:39.040279 18769 net.cpp:84] Creating Layer relu3_4
I0227 11:02:39.040284 18769 net.cpp:406] relu3_4 <- conv3_4
I0227 11:02:39.040290 18769 net.cpp:367] relu3_4 -> conv3_4 (in-place)
I0227 11:02:39.040531 18769 net.cpp:122] Setting up relu3_4
I0227 11:02:39.040541 18769 net.cpp:129] Top shape: 1 256 30 80 (614400)
I0227 11:02:39.040545 18769 net.cpp:137] Memory required for data: 82485680
I0227 11:02:39.040549 18769 layer_factory.hpp:77] Creating layer conv3_5
I0227 11:02:39.040561 18769 net.cpp:84] Creating Layer conv3_5
I0227 11:02:39.040566 18769 net.cpp:406] conv3_5 <- conv3_4
I0227 11:02:39.040573 18769 net.cpp:380] conv3_5 -> conv3_5
I0227 11:02:39.063244 18769 net.cpp:122] Setting up conv3_5
I0227 11:02:39.063267 18769 net.cpp:129] Top shape: 1 256 30 80 (614400)
I0227 11:02:39.063272 18769 net.cpp:137] Memory required for data: 84943280
I0227 11:02:39.063285 18769 layer_factory.hpp:77] Creating layer relu3_5
I0227 11:02:39.063294 18769 net.cpp:84] Creating Layer relu3_5
I0227 11:02:39.063299 18769 net.cpp:406] relu3_5 <- conv3_5
I0227 11:02:39.063308 18769 net.cpp:367] relu3_5 -> conv3_5 (in-place)
I0227 11:02:39.063856 18769 net.cpp:122] Setting up relu3_5
I0227 11:02:39.063870 18769 net.cpp:129] Top shape: 1 256 30 80 (614400)
I0227 11:02:39.063874 18769 net.cpp:137] Memory required for data: 87400880
I0227 11:02:39.063882 18769 layer_factory.hpp:77] Creating layer conv3_6
I0227 11:02:39.063894 18769 net.cpp:84] Creating Layer conv3_6
I0227 11:02:39.063899 18769 net.cpp:406] conv3_6 <- conv3_5
I0227 11:02:39.063905 18769 net.cpp:380] conv3_6 -> conv3_6
I0227 11:02:39.090732 18769 net.cpp:122] Setting up conv3_6
I0227 11:02:39.090750 18769 net.cpp:129] Top shape: 1 256 30 80 (614400)
I0227 11:02:39.090755 18769 net.cpp:137] Memory required for data: 89858480
I0227 11:02:39.090764 18769 layer_factory.hpp:77] Creating layer relu3_6
I0227 11:02:39.090775 18769 net.cpp:84] Creating Layer relu3_6
I0227 11:02:39.090780 18769 net.cpp:406] relu3_6 <- conv3_6
I0227 11:02:39.090787 18769 net.cpp:367] relu3_6 -> conv3_6 (in-place)
I0227 11:02:39.091018 18769 net.cpp:122] Setting up relu3_6
I0227 11:02:39.091029 18769 net.cpp:129] Top shape: 1 256 30 80 (614400)
I0227 11:02:39.091033 18769 net.cpp:137] Memory required for data: 92316080
I0227 11:02:39.091037 18769 layer_factory.hpp:77] Creating layer conv4_1
I0227 11:02:39.091050 18769 net.cpp:84] Creating Layer conv4_1
I0227 11:02:39.091055 18769 net.cpp:406] conv4_1 <- conv3_6
I0227 11:02:39.091063 18769 net.cpp:380] conv4_1 -> conv4_1
I0227 11:02:39.138615 18769 net.cpp:122] Setting up conv4_1
I0227 11:02:39.138638 18769 net.cpp:129] Top shape: 1 512 30 80 (1228800)
I0227 11:02:39.138643 18769 net.cpp:137] Memory required for data: 97231280
I0227 11:02:39.138653 18769 layer_factory.hpp:77] Creating layer relu4_1
I0227 11:02:39.138664 18769 net.cpp:84] Creating Layer relu4_1
I0227 11:02:39.138669 18769 net.cpp:406] relu4_1 <- conv4_1
I0227 11:02:39.138675 18769 net.cpp:367] relu4_1 -> conv4_1 (in-place)
I0227 11:02:39.138911 18769 net.cpp:122] Setting up relu4_1
I0227 11:02:39.138922 18769 net.cpp:129] Top shape: 1 512 30 80 (1228800)
I0227 11:02:39.138926 18769 net.cpp:137] Memory required for data: 102146480
I0227 11:02:39.138931 18769 layer_factory.hpp:77] Creating layer conv4_2
I0227 11:02:39.138943 18769 net.cpp:84] Creating Layer conv4_2
I0227 11:02:39.138948 18769 net.cpp:406] conv4_2 <- conv4_1
I0227 11:02:39.138955 18769 net.cpp:380] conv4_2 -> conv4_2
I0227 11:02:39.213749 18769 net.cpp:122] Setting up conv4_2
I0227 11:02:39.213775 18769 net.cpp:129] Top shape: 1 512 30 80 (1228800)
I0227 11:02:39.213778 18769 net.cpp:137] Memory required for data: 107061680
I0227 11:02:39.213788 18769 layer_factory.hpp:77] Creating layer relu4_2
I0227 11:02:39.213798 18769 net.cpp:84] Creating Layer relu4_2
I0227 11:02:39.213801 18769 net.cpp:406] relu4_2 <- conv4_2
I0227 11:02:39.213807 18769 net.cpp:367] relu4_2 -> conv4_2 (in-place)
I0227 11:02:39.214241 18769 net.cpp:122] Setting up relu4_2
I0227 11:02:39.214251 18769 net.cpp:129] Top shape: 1 512 30 80 (1228800)
I0227 11:02:39.214254 18769 net.cpp:137] Memory required for data: 111976880
I0227 11:02:39.214257 18769 layer_factory.hpp:77] Creating layer conv4_3
I0227 11:02:39.214268 18769 net.cpp:84] Creating Layer conv4_3
I0227 11:02:39.214272 18769 net.cpp:406] conv4_3 <- conv4_2
I0227 11:02:39.214277 18769 net.cpp:380] conv4_3 -> conv4_3
I0227 11:02:39.274554 18769 net.cpp:122] Setting up conv4_3
I0227 11:02:39.274574 18769 net.cpp:129] Top shape: 1 512 30 80 (1228800)
I0227 11:02:39.274576 18769 net.cpp:137] Memory required for data: 116892080
I0227 11:02:39.274583 18769 layer_factory.hpp:77] Creating layer relu4_3
I0227 11:02:39.274591 18769 net.cpp:84] Creating Layer relu4_3
I0227 11:02:39.274595 18769 net.cpp:406] relu4_3 <- conv4_3
I0227 11:02:39.274601 18769 net.cpp:367] relu4_3 -> conv4_3 (in-place)
I0227 11:02:39.274772 18769 net.cpp:122] Setting up relu4_3
I0227 11:02:39.274780 18769 net.cpp:129] Top shape: 1 512 30 80 (1228800)
I0227 11:02:39.274782 18769 net.cpp:137] Memory required for data: 121807280
I0227 11:02:39.274785 18769 layer_factory.hpp:77] Creating layer tpp5
I0227 11:02:39.274791 18769 net.cpp:84] Creating Layer tpp5
I0227 11:02:39.274794 18769 net.cpp:406] tpp5 <- conv4_3
I0227 11:02:39.274799 18769 net.cpp:380] tpp5 -> tpp5
I0227 11:02:39.275218 18769 net.cpp:122] Setting up tpp5
I0227 11:02:39.275230 18769 net.cpp:129] Top shape: 1 7680 (7680)
I0227 11:02:39.275233 18769 net.cpp:137] Memory required for data: 121838000
I0227 11:02:39.275236 18769 layer_factory.hpp:77] Creating layer fc6
I0227 11:02:39.275243 18769 net.cpp:84] Creating Layer fc6
I0227 11:02:39.275246 18769 net.cpp:406] fc6 <- tpp5
I0227 11:02:39.275251 18769 net.cpp:380] fc6 -> fc6
I0227 11:02:40.185259 18769 net.cpp:122] Setting up fc6
I0227 11:02:40.185292 18769 net.cpp:129] Top shape: 1 4096 (4096)
I0227 11:02:40.185294 18769 net.cpp:137] Memory required for data: 121854384
I0227 11:02:40.185303 18769 layer_factory.hpp:77] Creating layer relu6
I0227 11:02:40.185315 18769 net.cpp:84] Creating Layer relu6
I0227 11:02:40.185320 18769 net.cpp:406] relu6 <- fc6
I0227 11:02:40.185325 18769 net.cpp:367] relu6 -> fc6 (in-place)
I0227 11:02:40.185565 18769 net.cpp:122] Setting up relu6
I0227 11:02:40.185573 18769 net.cpp:129] Top shape: 1 4096 (4096)
I0227 11:02:40.185576 18769 net.cpp:137] Memory required for data: 121870768
I0227 11:02:40.185580 18769 layer_factory.hpp:77] Creating layer fc7
I0227 11:02:40.185586 18769 net.cpp:84] Creating Layer fc7
I0227 11:02:40.185590 18769 net.cpp:406] fc7 <- fc6
I0227 11:02:40.185595 18769 net.cpp:380] fc7 -> fc7
I0227 11:02:40.599699 18769 net.cpp:122] Setting up fc7
I0227 11:02:40.599728 18769 net.cpp:129] Top shape: 1 4096 (4096)
I0227 11:02:40.599731 18769 net.cpp:137] Memory required for data: 121887152
I0227 11:02:40.599740 18769 layer_factory.hpp:77] Creating layer relu7
I0227 11:02:40.599748 18769 net.cpp:84] Creating Layer relu7
I0227 11:02:40.599752 18769 net.cpp:406] relu7 <- fc7
I0227 11:02:40.599759 18769 net.cpp:367] relu7 -> fc7 (in-place)
I0227 11:02:40.599987 18769 net.cpp:122] Setting up relu7
I0227 11:02:40.599995 18769 net.cpp:129] Top shape: 1 4096 (4096)
I0227 11:02:40.599998 18769 net.cpp:137] Memory required for data: 121903536
I0227 11:02:40.600000 18769 layer_factory.hpp:77] Creating layer fc8
I0227 11:02:40.600008 18769 net.cpp:84] Creating Layer fc8
I0227 11:02:40.600011 18769 net.cpp:406] fc8 <- fc7
I0227 11:02:40.600015 18769 net.cpp:380] fc8 -> fc8
I0227 11:02:40.661804 18769 net.cpp:122] Setting up fc8
I0227 11:02:40.661834 18769 net.cpp:129] Top shape: 1 618 (618)
I0227 11:02:40.661837 18769 net.cpp:137] Memory required for data: 121906008
I0227 11:02:40.661844 18769 layer_factory.hpp:77] Creating layer fc8_fc8_0_split
I0227 11:02:40.661854 18769 net.cpp:84] Creating Layer fc8_fc8_0_split
I0227 11:02:40.661856 18769 net.cpp:406] fc8_fc8_0_split <- fc8
I0227 11:02:40.661862 18769 net.cpp:380] fc8_fc8_0_split -> fc8_fc8_0_split_0
I0227 11:02:40.661869 18769 net.cpp:380] fc8_fc8_0_split -> fc8_fc8_0_split_1
I0227 11:02:40.661906 18769 net.cpp:122] Setting up fc8_fc8_0_split
I0227 11:02:40.661911 18769 net.cpp:129] Top shape: 1 618 (618)
I0227 11:02:40.661913 18769 net.cpp:129] Top shape: 1 618 (618)
I0227 11:02:40.661916 18769 net.cpp:137] Memory required for data: 121910952
I0227 11:02:40.661918 18769 layer_factory.hpp:77] Creating layer sigmoid
I0227 11:02:40.661926 18769 net.cpp:84] Creating Layer sigmoid
I0227 11:02:40.661927 18769 net.cpp:406] sigmoid <- fc8_fc8_0_split_0
I0227 11:02:40.661934 18769 net.cpp:380] sigmoid -> sigmoid
I0227 11:02:40.662534 18769 net.cpp:122] Setting up sigmoid
I0227 11:02:40.662545 18769 net.cpp:129] Top shape: 1 618 (618)
I0227 11:02:40.662549 18769 net.cpp:137] Memory required for data: 121913424
I0227 11:02:40.662551 18769 layer_factory.hpp:77] Creating layer silence
I0227 11:02:40.662557 18769 net.cpp:84] Creating Layer silence
I0227 11:02:40.662560 18769 net.cpp:406] silence <- sigmoid
I0227 11:02:40.662564 18769 net.cpp:122] Setting up silence
I0227 11:02:40.662565 18769 net.cpp:137] Memory required for data: 121913424
…
