…
  phase: TRAIN
}
layer {
  name: "word_images"
  type: "Data"
  top: "word_images"
  top: "label"
  transform_param {
    scale: -0.0039215689
    mean_value: 255
  }
  data_param {
    source: "/data/fwolf/iam_50000/iam-db_nti500000_pul2-3-4-5_train_word_images_lmdb"
    batch_size: 1
    backend: LMDB
    prefetch: 20
  }
}
layer {
  name: "phocs"
  type: "Data"
  top: "phocs"
  top: "label_phocs"
  data_param {
    source: "/data/fwolf/iam_50000/iam-db_nti500000_pul2-3-4-5_train_phocs_lmdb"
    batch_size: 1
    backend: LMDB
    prefetch: 20
  }
}
layer {
  name: "conv_init"
  type: "Convolution"
  bottom: "word_images"
  top: "conv_init"
  convolution_param {
    num_output: 32
    bias_term: false
    pad: 1
    kernel_size: 3
    stride: 1
    weight_filler {
      type: "msra"
    }
    bias_filler {
      type: "constant"
    }
    engine: CUDNN
  }
}
layer {
  name: "relu_init"
  type: "ReLU"
  bottom: "conv_init"
  top: "conv_init"
}
layer {
  name: "pool_init"
  type: "Pooling"
  bottom: "conv_init"
  top: "pool_init"
  pooling_param {
    pool: MAX
    kernel_size: 3
    stride: 2
    pad: 1
  }
}
layer {
  name: "conv0_0"
  type: "Convolution"
  bottom: "pool_init"
  top: "conv0_0"
  convolution_param {
    num_output: 12
    bias_term: false
    pad: 1
    kernel_size: 3
    stride: 1
    weight_filler {
      type: "msra"
    }
    bias_filler {
      type: "constant"
    }
    engine: CUDNN
  }
}
layer {
  name: "relu0_0"
  type: "ReLU"
  bottom: "conv0_0"
  top: "conv0_0"
}
layer {
  name: "concat0_0"
  type: "Concat"
  bottom: "pool_init"
  bottom: "conv0_0"
  top: "concat0_0"
  concat_param {
    axis: 1
  }
}
layer {
  name: "conv0_1"
  type: "Convolution"
  bottom: "concat0_0"
  top: "conv0_1"
  convolution_param {
    num_output: 12
    bias_term: false
    pad: 1
    kernel_size: 3
    stride: 1
    weight_filler {
      type: "msra"
    }
    bias_filler {
      type: "constant"
    }
    engine: CUDNN
  }
}
layer {
  name: "relu0_1"
  type: "ReLU"
  bottom: "conv0_1"
  top: "conv0_1"
}
layer {
  name: "concat0_1"
  type: "Concat"
  bottom: "concat0_0"
  bottom: "conv0_1"
  top: "concat0_1"
  concat_param {
    axis: 1
  }
}
layer {
  name: "conv0_2"
  type: "Convolution"
  bottom: "concat0_1"
  top: "conv0_2"
  convolution_param {
    num_output: 12
    bias_term: false
    pad: 1
    kernel_size: 3
    stride: 1
    weight_filler {
      type: "msra"
    }
    bias_filler {
      type: "constant"
    }
    engine: CUDNN
  }
}
layer {
  name: "relu0_2"
  type: "ReLU"
  bottom: "conv0_2"
  top: "conv0_2"
}
layer {
  name: "concat0_2"
  type: "Concat"
  bottom: "concat0_1"
  bottom: "conv0_2"
  top: "concat0_2"
  concat_param {
    axis: 1
  }
}
layer {
  name: "conv0_3"
  type: "Convolution"
  bottom: "concat0_2"
  top: "conv0_3"
  convolution_param {
    num_output: 12
    bias_term: false
    pad: 1
    kernel_size: 3
    stride: 1
    weight_filler {
      type: "msra"
    }
    bias_filler {
      type: "constant"
    }
    engine: CUDNN
  }
}
layer {
  name: "relu0_3"
  type: "ReLU"
  bottom: "conv0_3"
  top: "conv0_3"
}
layer {
  name: "concat0_3"
  type: "Concat"
  bottom: "concat0_2"
  bottom: "conv0_3"
  top: "concat0_3"
  concat_param {
    axis: 1
  }
}
layer {
  name: "conv0_4"
  type: "Convolution"
  bottom: "concat0_3"
  top: "conv0_4"
  convolution_param {
    num_output: 12
    bias_term: false
    pad: 1
    kernel_size: 3
    stride: 1
    weight_filler {
      type: "msra"
    }
    bias_filler {
      type: "constant"
    }
    engine: CUDNN
  }
}
layer {
  name: "relu0_4"
  type: "ReLU"
  bottom: "conv0_4"
  top: "conv0_4"
}
layer {
  name: "concat0_4"
  type: "Concat"
  bottom: "concat0_3"
  bottom: "conv0_4"
  top: "concat0_4"
  concat_param {
    axis: 1
  }
}
layer {
  name: "conv0_5"
  type: "Convolution"
  bottom: "concat0_4"
  top: "conv0_5"
  convolution_param {
    num_output: 12
    bias_term: false
    pad: 1
    kernel_size: 3
    stride: 1
    weight_filler {
      type: "msra"
    }
    bias_filler {
      type: "constant"
    }
    engine: CUDNN
  }
}
layer {
  name: "relu0_5"
  type: "ReLU"
  bottom: "conv0_5"
  top: "conv0_5"
}
layer {
  name: "concat0_5"
  type: "Concat"
  bottom: "concat0_4"
  bottom: "conv0_5"
  top: "concat0_5"
  concat_param {
    axis: 1
  }
}
layer {
  name: "conv0_6"
  type: "Convolution"
  bottom: "concat0_5"
  top: "conv0_6"
  convolution_param {
    num_output: 12
    bias_term: false
    pad: 1
    kernel_size: 3
    stride: 1
    weight_filler {
      type: "msra"
    }
    bias_filler {
      type: "constant"
    }
    engine: CUDNN
  }
}
layer {
  name: "relu0_6"
  type: "ReLU"
  bottom: "conv0_6"
  top: "conv0_6"
}
layer {
  name: "concat0_6"
  type: "Concat"
  bottom: "concat0_5"
  bottom: "conv0_6"
  top: "concat0_6"
  concat_param {
    axis: 1
  }
}
layer {
  name: "conv0_7"
  type: "Convolution"
  bottom: "concat0_6"
  top: "conv0_7"
  convolution_param {
    num_output: 12
    bias_term: false
    pad: 1
    kernel_size: 3
    stride: 1
    weight_filler {
      type: "msra"
    }
    bias_filler {
      type: "constant"
    }
    engine: CUDNN
  }
}
layer {
  name: "relu0_7"
  type: "ReLU"
  bottom: "conv0_7"
  top: "conv0_7"
}
layer {
  name: "concat0_7"
  type: "Concat"
  bottom: "concat0_6"
  bottom: "conv0_7"
  top: "concat0_7"
  concat_param {
    axis: 1
  }
}
layer {
  name: "conv0_8"
  type: "Convolution"
  bottom: "concat0_7"
  top: "conv0_8"
  convolution_param {
    num_output: 12
    bias_term: false
    pad: 1
    kernel_size: 3
    stride: 1
    weight_filler {
      type: "msra"
    }
    bias_filler {
      type: "constant"
    }
    engine: CUDNN
  }
}
layer {
  name: "relu0_8"
  type: "ReLU"
  bottom: "conv0_8"
  top: "conv0_8"
}
layer {
  name: "concat0_8"
  type: "Concat"
  bottom: "concat0_7"
  bottom: "conv0_8"
  top: "concat0_8"
  concat_param {
    axis: 1
  }
}
layer {
  name: "conv0_9"
  type: "Convolution"
  bottom: "concat0_8"
  top: "conv0_9"
  convolution_param {
    num_output: 12
    bias_term: false
    pad: 1
    kernel_size: 3
    stride: 1
    weight_filler {
      type: "msra"
    }
    bias_filler {
      type: "constant"
    }
    engine: CUDNN
  }
}
layer {
  name: "relu0_9"
  type: "ReLU"
  bottom: "conv0_9"
  top: "conv0_9"
}
layer {
  name: "concat0_9"
  type: "Concat"
  bottom: "concat0_8"
  bottom: "conv0_9"
  top: "concat0_9"
  concat_param {
    axis: 1
  }
}
layer {
  name: "conv0_blk"
  type: "Convolution"
  bottom: "concat0_9"
  top: "conv0_blk"
  convolution_param {
    num_output: 152
    bias_term: false
    pad: 0
    kernel_size: 1
    stride: 1
    weight_filler {
      type: "msra"
    }
    bias_filler {
      type: "constant"
    }
    engine: CUDNN
  }
}
layer {
  name: "pool0"
  type: "Pooling"
  bottom: "conv0_blk"
  top: "pool0"
  pooling_param {
    pool: AVE
    kernel_size: 2
    stride: 2
  }
}
layer {
  name: "conv1_0"
  type: "Convolution"
  bottom: "pool0"
  top: "conv1_0"
  convolution_param {
    num_output: 12
    bias_term: false
    pad: 1
    kernel_size: 3
    stride: 1
    weight_filler {
      type: "msra"
    }
    bias_filler {
      type: "constant"
    }
    engine: CUDNN
  }
}
layer {
  name: "relu1_0"
  type: "ReLU"
  bottom: "conv1_0"
  top: "conv1_0"
}
layer {
  name: "concat1_0"
  type: "Concat"
  bottom: "pool0"
  bottom: "conv1_0"
  top: "concat1_0"
  concat_param {
    axis: 1
  }
}
layer {
  name: "conv1_1"
  type: "Convolution"
  bottom: "concat1_0"
  top: "conv1_1"
  convolution_param {
    num_output: 12
    bias_term: false
    pad: 1
    kernel_size: 3
    stride: 1
    weight_filler {
      type: "msra"
    }
    bias_filler {
      type: "constant"
    }
    engine: CUDNN
  }
}
layer {
  name: "relu1_1"
  type: "ReLU"
  bottom: "conv1_1"
  top: "conv1_1"
}
layer {
  name: "concat1_1"
  type: "Concat"
  bottom: "concat1_0"
  bottom: "conv1_1"
  top: "concat1_1"
  concat_param {
    axis: 1
  }
}
layer {
  name: "conv1_2"
  type: "Convolution"
  bottom: "concat1_1"
  top: "conv1_2"
  convolution_param {
    num_output: 12
    bias_term: false
    pad: 1
    kernel_size: 3
    stride: 1
    weight_filler {
      type: "msra"
    }
    bias_filler {
      type: "constant"
    }
    engine: CUDNN
  }
}
layer {
  name: "relu1_2"
  type: "ReLU"
  bottom: "conv1_2"
  top: "conv1_2"
}
layer {
  name: "concat1_2"
  type: "Concat"
  bottom: "concat1_1"
  bottom: "conv1_2"
  top: "concat1_2"
  concat_param {
    axis: 1
  }
}
layer {
  name: "conv1_3"
  type: "Convolution"
  bottom: "concat1_2"
  top: "conv1_3"
  convolution_param {
    num_output: 12
    bias_term: false
    pad: 1
    kernel_size: 3
    stride: 1
    weight_filler {
      type: "msra"
    }
    bias_filler {
      type: "constant"
    }
    engine: CUDNN
  }
}
layer {
  name: "relu1_3"
  type: "ReLU"
  bottom: "conv1_3"
  top: "conv1_3"
}
layer {
  name: "concat1_3"
  type: "Concat"
  bottom: "concat1_2"
  bottom: "conv1_3"
  top: "concat1_3"
  concat_param {
    axis: 1
  }
}
layer {
  name: "conv1_4"
  type: "Convolution"
  bottom: "concat1_3"
  top: "conv1_4"
  convolution_param {
    num_output: 12
    bias_term: false
    pad: 1
    kernel_size: 3
    stride: 1
    weight_filler {
      type: "msra"
    }
    bias_filler {
      type: "constant"
    }
    engine: CUDNN
  }
}
layer {
  name: "relu1_4"
  type: "ReLU"
  bottom: "conv1_4"
  top: "conv1_4"
}
layer {
  name: "concat1_4"
  type: "Concat"
  bottom: "concat1_3"
  bottom: "conv1_4"
  top: "concat1_4"
  concat_param {
    axis: 1
  }
}
layer {
  name: "conv1_5"
  type: "Convolution"
  bottom: "concat1_4"
  top: "conv1_5"
  convolution_param {
    num_output: 12
    bias_term: false
    pad: 1
    kernel_size: 3
    stride: 1
    weight_filler {
      type: "msra"
    }
    bias_filler {
      type: "constant"
    }
    engine: CUDNN
  }
}
layer {
  name: "relu1_5"
  type: "ReLU"
  bottom: "conv1_5"
  top: "conv1_5"
}
layer {
  name: "concat1_5"
  type: "Concat"
  bottom: "concat1_4"
  bottom: "conv1_5"
  top: "concat1_5"
  concat_param {
    axis: 1
  }
}
layer {
  name: "conv1_6"
  type: "Convolution"
  bottom: "concat1_5"
  top: "conv1_6"
  convolution_param {
    num_output: 12
    bias_term: false
    pad: 1
    kernel_size: 3
    stride: 1
    weight_filler {
      type: "msra"
    }
    bias_filler {
      type: "constant"
    }
    engine: CUDNN
  }
}
layer {
  name: "relu1_6"
  type: "ReLU"
  bottom: "conv1_6"
  top: "conv1_6"
}
layer {
  name: "concat1_6"
  type: "Concat"
  bottom: "concat1_5"
  bottom: "conv1_6"
  top: "concat1_6"
  concat_param {
    axis: 1
  }
}
layer {
  name: "conv1_7"
  type: "Convolution"
  bottom: "concat1_6"
  top: "conv1_7"
  convolution_param {
    num_output: 12
    bias_term: false
    pad: 1
    kernel_size: 3
    stride: 1
    weight_filler {
      type: "msra"
    }
    bias_filler {
      type: "constant"
    }
    engine: CUDNN
  }
}
layer {
  name: "relu1_7"
  type: "ReLU"
  bottom: "conv1_7"
  top: "conv1_7"
}
layer {
  name: "concat1_7"
  type: "Concat"
  bottom: "concat1_6"
  bottom: "conv1_7"
  top: "concat1_7"
  concat_param {
    axis: 1
  }
}
layer {
  name: "conv1_8"
  type: "Convolution"
  bottom: "concat1_7"
  top: "conv1_8"
  convolution_param {
    num_output: 12
    bias_term: false
    pad: 1
    kernel_size: 3
    stride: 1
    weight_filler {
      type: "msra"
    }
    bias_filler {
      type: "constant"
    }
    engine: CUDNN
  }
}
layer {
  name: "relu1_8"
  type: "ReLU"
  bottom: "conv1_8"
  top: "conv1_8"
}
layer {
  name: "concat1_8"
  type: "Concat"
  bottom: "concat1_7"
  bottom: "conv1_8"
  top: "concat1_8"
  concat_param {
    axis: 1
  }
}
layer {
  name: "conv1_9"
  type: "Convolution"
  bottom: "concat1_8"
  top: "conv1_9"
  convolution_param {
    num_output: 12
    bias_term: false
    pad: 1
    kernel_size: 3
    stride: 1
    weight_filler {
      type: "msra"
    }
    bias_filler {
      type: "constant"
    }
    engine: CUDNN
  }
}
layer {
  name: "relu1_9"
  type: "ReLU"
  bottom: "conv1_9"
  top: "conv1_9"
}
layer {
  name: "concat1_9"
  type: "Concat"
  bottom: "concat1_8"
  bottom: "conv1_9"
  top: "concat1_9"
  concat_param {
    axis: 1
  }
}
layer {
  name: "conv1_10"
  type: "Convolution"
  bottom: "concat1_9"
  top: "conv1_10"
  convolution_param {
    num_output: 12
    bias_term: false
    pad: 1
    kernel_size: 3
    stride: 1
    weight_filler {
      type: "msra"
    }
    bias_filler {
      type: "constant"
    }
    engine: CUDNN
  }
}
layer {
  name: "relu1_10"
  type: "ReLU"
  bottom: "conv1_10"
  top: "conv1_10"
}
layer {
  name: "concat1_10"
  type: "Concat"
  bottom: "concat1_9"
  bottom: "conv1_10"
  top: "concat1_10"
  concat_param {
    axis: 1
  }
}
layer {
  name: "conv1_11"
  type: "Convolution"
  bottom: "concat1_10"
  top: "conv1_11"
  convolution_param {
    num_output: 12
    bias_term: false
    pad: 1
    kernel_size: 3
    stride: 1
    weight_filler {
      type: "msra"
    }
    bias_filler {
      type: "constant"
    }
    engine: CUDNN
  }
}
layer {
  name: "relu1_11"
  type: "ReLU"
  bottom: "conv1_11"
  top: "conv1_11"
}
layer {
  name: "concat1_11"
  type: "Concat"
  bottom: "concat1_10"
  bottom: "conv1_11"
  top: "concat1_11"
  concat_param {
    axis: 1
  }
}
layer {
  name: "conv1_12"
  type: "Convolution"
  bottom: "concat1_11"
  top: "conv1_12"
  convolution_param {
    num_output: 12
    bias_term: false
    pad: 1
    kernel_size: 3
    stride: 1
    weight_filler {
      type: "msra"
    }
    bias_filler {
      type: "constant"
    }
    engine: CUDNN
  }
}
layer {
  name: "relu1_12"
  type: "ReLU"
  bottom: "conv1_12"
  top: "conv1_12"
}
layer {
  name: "concat1_12"
  type: "Concat"
  bottom: "concat1_11"
  bottom: "conv1_12"
  top: "concat1_12"
  concat_param {
    axis: 1
  }
}
layer {
  name: "conv1_13"
  type: "Convolution"
  bottom: "concat1_12"
  top: "conv1_13"
  convolution_param {
    num_output: 12
    bias_term: false
    pad: 1
    kernel_size: 3
    stride: 1
    weight_filler {
      type: "msra"
    }
    bias_filler {
      type: "constant"
    }
    engine: CUDNN
  }
}
layer {
  name: "relu1_13"
  type: "ReLU"
  bottom: "conv1_13"
  top: "conv1_13"
}
layer {
  name: "concat1_13"
  type: "Concat"
  bottom: "concat1_12"
  bottom: "conv1_13"
  top: "concat1_13"
  concat_param {
    axis: 1
  }
}
layer {
  name: "conv1_14"
  type: "Convolution"
  bottom: "concat1_13"
  top: "conv1_14"
  convolution_param {
    num_output: 12
    bias_term: false
    pad: 1
    kernel_size: 3
    stride: 1
    weight_filler {
      type: "msra"
    }
    bias_filler {
      type: "constant"
    }
    engine: CUDNN
  }
}
layer {
  name: "relu1_14"
  type: "ReLU"
  bottom: "conv1_14"
  top: "conv1_14"
}
layer {
  name: "concat1_14"
  type: "Concat"
  bottom: "concat1_13"
  bottom: "conv1_14"
  top: "concat1_14"
  concat_param {
    axis: 1
  }
}
layer {
  name: "conv1_15"
  type: "Convolution"
  bottom: "concat1_14"
  top: "conv1_15"
  convolution_param {
    num_output: 12
    bias_term: false
    pad: 1
    kernel_size: 3
    stride: 1
    weight_filler {
      type: "msra"
    }
    bias_filler {
      type: "constant"
    }
    engine: CUDNN
  }
}
layer {
  name: "relu1_15"
  type: "ReLU"
  bottom: "conv1_15"
  top: "conv1_15"
}
layer {
  name: "concat1_15"
  type: "Concat"
  bottom: "concat1_14"
  bottom: "conv1_15"
  top: "concat1_15"
  concat_param {
    axis: 1
  }
}
layer {
  name: "conv1_16"
  type: "Convolution"
  bottom: "concat1_15"
  top: "conv1_16"
  convolution_param {
    num_output: 12
    bias_term: false
    pad: 1
    kernel_size: 3
    stride: 1
    weight_filler {
      type: "msra"
    }
    bias_filler {
      type: "constant"
    }
    engine: CUDNN
  }
}
layer {
  name: "relu1_16"
  type: "ReLU"
  bottom: "conv1_16"
  top: "conv1_16"
}
layer {
  name: "concat1_16"
  type: "Concat"
  bottom: "concat1_15"
  bottom: "conv1_16"
  top: "concat1_16"
  concat_param {
    axis: 1
  }
}
layer {
  name: "conv1_17"
  type: "Convolution"
  bottom: "concat1_16"
  top: "conv1_17"
  convolution_param {
    num_output: 12
    bias_term: false
    pad: 1
    kernel_size: 3
    stride: 1
    weight_filler {
      type: "msra"
    }
    bias_filler {
      type: "constant"
    }
    engine: CUDNN
  }
}
layer {
  name: "relu1_17"
  type: "ReLU"
  bottom: "conv1_17"
  top: "conv1_17"
}
layer {
  name: "concat1_17"
  type: "Concat"
  bottom: "concat1_16"
  bottom: "conv1_17"
  top: "concat1_17"
  concat_param {
    axis: 1
  }
}
layer {
  name: "conv1_18"
  type: "Convolution"
  bottom: "concat1_17"
  top: "conv1_18"
  convolution_param {
    num_output: 12
    bias_term: false
    pad: 1
    kernel_size: 3
    stride: 1
    weight_filler {
      type: "msra"
    }
    bias_filler {
      type: "constant"
    }
    engine: CUDNN
  }
}
layer {
  name: "relu1_18"
  type: "ReLU"
  bottom: "conv1_18"
  top: "conv1_18"
}
layer {
  name: "concat1_18"
  type: "Concat"
  bottom: "concat1_17"
  bottom: "conv1_18"
  top: "concat1_18"
  concat_param {
    axis: 1
  }
}
layer {
  name: "conv1_19"
  type: "Convolution"
  bottom: "concat1_18"
  top: "conv1_19"
  convolution_param {
    num_output: 12
    bias_term: false
    pad: 1
    kernel_size: 3
    stride: 1
    weight_filler {
      type: "msra"
    }
    bias_filler {
      type: "constant"
    }
    engine: CUDNN
  }
}
layer {
  name: "relu1_19"
  type: "ReLU"
  bottom: "conv1_19"
  top: "conv1_19"
}
layer {
  name: "concat1_19"
  type: "Concat"
  bottom: "concat1_18"
  bottom: "conv1_19"
  top: "concat1_19"
  concat_param {
    axis: 1
  }
}
layer {
  name: "tpp5"
  type: "TPP"
  bottom: "concat1_19"
  top: "tpp5"
  tpp_param {
    pyramid_layer: 1
    pyramid_layer: 2
    pyramid_layer: 3
    pyramid_layer: 4
    pyramid_layer: 5
    pool: MAX
    engine: CUDNN
  }
}
layer {
  name: "fc6_d"
  type: "InnerProduct"
  bottom: "tpp5"
  top: "fc6_d"
  inner_product_param {
    num_output: 4096
    weight_filler {
      type: "msra"
    }
    bias_filler {
      type: "constant"
    }
  }
}
layer {
  name: "relu6"
  type: "ReLU"
  bottom: "fc6_d"
  top: "fc6_d"
}
layer {
  name: "drop6"
  type: "Dropout"
  bottom: "fc6_d"
  top: "fc6_d"
  include {
    phase: TRAIN
  }
  dropout_param {
    dropout_ratio: 0.5
  }
}
layer {
  name: "fc7_d"
  type: "InnerProduct"
  bottom: "fc6_d"
  top: "fc7_d"
  inner_product_param {
    num_output: 4096
    weight_filler {
      type: "msra"
    }
    bias_filler {
      type: "constant"
    }
  }
}
layer {
  name: "relu7"
  type: "ReLU"
  bottom: "fc7_d"
  top: "fc7_d"
}
layer {
  name: "drop7"
  type: "Dropout"
  bottom: "fc7_d"
  top: "fc7_d"
  include {
    phase: TRAIN
  }
  dropout_param {
    dropout_ratio: 0.5
  }
}
layer {
  name: "fc8_d"
  type: "InnerProduct"
  bottom: "fc7_d"
  top: "fc8_d"
  inner_product_param {
    num_output: 618
    weight_filler {
      type: "msra"
    }
    bias_filler {
      type: "constant"
    }
  }
}
layer {
  name: "loss"
  type: "SigmoidCrossEntropyLoss"
  bottom: "fc8_d"
  bottom: "phocs"
  top: "loss"
}
I0210 11:10:12.662642 45784 layer_factory.hpp:77] Creating layer word_images
I0210 11:10:12.662781 45784 db_lmdb.cpp:35] Opened lmdb /data/fwolf/iam_50000/iam-db_nti500000_pul2-3-4-5_train_word_images_lmdb
I0210 11:10:12.662830 45784 net.cpp:84] Creating Layer word_images
I0210 11:10:12.662843 45784 net.cpp:380] word_images -> word_images
I0210 11:10:12.662866 45784 net.cpp:380] word_images -> label
I0210 11:10:12.666525 45784 data_layer.cpp:44] output data size: 1,1,145,197
I0210 11:10:12.679806 45784 net.cpp:122] Setting up word_images
I0210 11:10:12.679852 45784 net.cpp:129] Top shape: 1 1 145 197 (28565)
I0210 11:10:12.679862 45784 net.cpp:129] Top shape: 1 (1)
I0210 11:10:12.679869 45784 net.cpp:137] Memory required for data: 114264
I0210 11:10:12.679878 45784 layer_factory.hpp:77] Creating layer phocs
I0210 11:10:12.679994 45784 db_lmdb.cpp:35] Opened lmdb /data/fwolf/iam_50000/iam-db_nti500000_pul2-3-4-5_train_phocs_lmdb
I0210 11:10:12.680043 45784 net.cpp:84] Creating Layer phocs
I0210 11:10:12.680054 45784 net.cpp:380] phocs -> phocs
I0210 11:10:12.680071 45784 net.cpp:380] phocs -> label_phocs
I0210 11:10:12.680882 45784 data_layer.cpp:44] output data size: 1,1,1,618
I0210 11:10:12.689447 45784 net.cpp:122] Setting up phocs
I0210 11:10:12.689477 45784 net.cpp:129] Top shape: 1 1 1 618 (618)
I0210 11:10:12.689486 45784 net.cpp:129] Top shape: 1 (1)
I0210 11:10:12.689492 45784 net.cpp:137] Memory required for data: 116740
I0210 11:10:12.689499 45784 layer_factory.hpp:77] Creating layer conv_init
I0210 11:10:12.689522 45784 net.cpp:84] Creating Layer conv_init
I0210 11:10:12.689530 45784 net.cpp:406] conv_init <- word_images
I0210 11:10:12.689548 45784 net.cpp:380] conv_init -> conv_init
I0210 11:10:13.442798 45784 net.cpp:122] Setting up conv_init
I0210 11:10:13.442837 45784 net.cpp:129] Top shape: 1 32 145 197 (914080)
I0210 11:10:13.442842 45784 net.cpp:137] Memory required for data: 3773060
I0210 11:10:13.442857 45784 layer_factory.hpp:77] Creating layer relu_init
I0210 11:10:13.442872 45784 net.cpp:84] Creating Layer relu_init
I0210 11:10:13.442875 45784 net.cpp:406] relu_init <- conv_init
I0210 11:10:13.442881 45784 net.cpp:367] relu_init -> conv_init (in-place)
I0210 11:10:13.443940 45784 net.cpp:122] Setting up relu_init
I0210 11:10:13.443953 45784 net.cpp:129] Top shape: 1 32 145 197 (914080)
I0210 11:10:13.443958 45784 net.cpp:137] Memory required for data: 7429380
I0210 11:10:13.443961 45784 layer_factory.hpp:77] Creating layer pool_init
I0210 11:10:13.443970 45784 net.cpp:84] Creating Layer pool_init
I0210 11:10:13.443974 45784 net.cpp:406] pool_init <- conv_init
I0210 11:10:13.443980 45784 net.cpp:380] pool_init -> pool_init
I0210 11:10:13.444044 45784 net.cpp:122] Setting up pool_init
I0210 11:10:13.444051 45784 net.cpp:129] Top shape: 1 32 73 99 (231264)
I0210 11:10:13.444053 45784 net.cpp:137] Memory required for data: 8354436
I0210 11:10:13.444056 45784 layer_factory.hpp:77] Creating layer pool_init_pool_init_0_split
I0210 11:10:13.444062 45784 net.cpp:84] Creating Layer pool_init_pool_init_0_split
I0210 11:10:13.444066 45784 net.cpp:406] pool_init_pool_init_0_split <- pool_init
I0210 11:10:13.444070 45784 net.cpp:380] pool_init_pool_init_0_split -> pool_init_pool_init_0_split_0
I0210 11:10:13.444077 45784 net.cpp:380] pool_init_pool_init_0_split -> pool_init_pool_init_0_split_1
I0210 11:10:13.444124 45784 net.cpp:122] Setting up pool_init_pool_init_0_split
I0210 11:10:13.444128 45784 net.cpp:129] Top shape: 1 32 73 99 (231264)
I0210 11:10:13.444133 45784 net.cpp:129] Top shape: 1 32 73 99 (231264)
I0210 11:10:13.444135 45784 net.cpp:137] Memory required for data: 10204548
I0210 11:10:13.444139 45784 layer_factory.hpp:77] Creating layer conv0_0
I0210 11:10:13.444150 45784 net.cpp:84] Creating Layer conv0_0
I0210 11:10:13.444157 45784 net.cpp:406] conv0_0 <- pool_init_pool_init_0_split_0
I0210 11:10:13.444162 45784 net.cpp:380] conv0_0 -> conv0_0
I0210 11:10:13.447665 45784 net.cpp:122] Setting up conv0_0
I0210 11:10:13.447680 45784 net.cpp:129] Top shape: 1 12 73 99 (86724)
I0210 11:10:13.447685 45784 net.cpp:137] Memory required for data: 10551444
I0210 11:10:13.447692 45784 layer_factory.hpp:77] Creating layer relu0_0
I0210 11:10:13.447700 45784 net.cpp:84] Creating Layer relu0_0
I0210 11:10:13.447702 45784 net.cpp:406] relu0_0 <- conv0_0
I0210 11:10:13.447707 45784 net.cpp:367] relu0_0 -> conv0_0 (in-place)
I0210 11:10:13.447883 45784 net.cpp:122] Setting up relu0_0
I0210 11:10:13.447891 45784 net.cpp:129] Top shape: 1 12 73 99 (86724)
I0210 11:10:13.447895 45784 net.cpp:137] Memory required for data: 10898340
I0210 11:10:13.447898 45784 layer_factory.hpp:77] Creating layer concat0_0
I0210 11:10:13.447906 45784 net.cpp:84] Creating Layer concat0_0
I0210 11:10:13.447909 45784 net.cpp:406] concat0_0 <- pool_init_pool_init_0_split_1
I0210 11:10:13.447913 45784 net.cpp:406] concat0_0 <- conv0_0
I0210 11:10:13.447917 45784 net.cpp:380] concat0_0 -> concat0_0
I0210 11:10:13.447955 45784 net.cpp:122] Setting up concat0_0
I0210 11:10:13.447962 45784 net.cpp:129] Top shape: 1 44 73 99 (317988)
I0210 11:10:13.447964 45784 net.cpp:137] Memory required for data: 12170292
I0210 11:10:13.447968 45784 layer_factory.hpp:77] Creating layer concat0_0_concat0_0_0_split
I0210 11:10:13.447973 45784 net.cpp:84] Creating Layer concat0_0_concat0_0_0_split
I0210 11:10:13.447975 45784 net.cpp:406] concat0_0_concat0_0_0_split <- concat0_0
I0210 11:10:13.447979 45784 net.cpp:380] concat0_0_concat0_0_0_split -> concat0_0_concat0_0_0_split_0
I0210 11:10:13.447984 45784 net.cpp:380] concat0_0_concat0_0_0_split -> concat0_0_concat0_0_0_split_1
I0210 11:10:13.448032 45784 net.cpp:122] Setting up concat0_0_concat0_0_0_split
I0210 11:10:13.448037 45784 net.cpp:129] Top shape: 1 44 73 99 (317988)
I0210 11:10:13.448041 45784 net.cpp:129] Top shape: 1 44 73 99 (317988)
I0210 11:10:13.448043 45784 net.cpp:137] Memory required for data: 14714196
I0210 11:10:13.448046 45784 layer_factory.hpp:77] Creating layer conv0_1
I0210 11:10:13.448055 45784 net.cpp:84] Creating Layer conv0_1
I0210 11:10:13.448058 45784 net.cpp:406] conv0_1 <- concat0_0_concat0_0_0_split_0
I0210 11:10:13.448063 45784 net.cpp:380] conv0_1 -> conv0_1
I0210 11:10:13.451519 45784 net.cpp:122] Setting up conv0_1
I0210 11:10:13.451534 45784 net.cpp:129] Top shape: 1 12 73 99 (86724)
I0210 11:10:13.451537 45784 net.cpp:137] Memory required for data: 15061092
I0210 11:10:13.451545 45784 layer_factory.hpp:77] Creating layer relu0_1
I0210 11:10:13.451551 45784 net.cpp:84] Creating Layer relu0_1
I0210 11:10:13.451555 45784 net.cpp:406] relu0_1 <- conv0_1
I0210 11:10:13.451560 45784 net.cpp:367] relu0_1 -> conv0_1 (in-place)
I0210 11:10:13.451742 45784 net.cpp:122] Setting up relu0_1
I0210 11:10:13.451750 45784 net.cpp:129] Top shape: 1 12 73 99 (86724)
I0210 11:10:13.451752 45784 net.cpp:137] Memory required for data: 15407988
I0210 11:10:13.451756 45784 layer_factory.hpp:77] Creating layer concat0_1
I0210 11:10:13.451762 45784 net.cpp:84] Creating Layer concat0_1
I0210 11:10:13.451766 45784 net.cpp:406] concat0_1 <- concat0_0_concat0_0_0_split_1
I0210 11:10:13.451771 45784 net.cpp:406] concat0_1 <- conv0_1
I0210 11:10:13.451774 45784 net.cpp:380] concat0_1 -> concat0_1
I0210 11:10:13.451812 45784 net.cpp:122] Setting up concat0_1
I0210 11:10:13.451818 45784 net.cpp:129] Top shape: 1 56 73 99 (404712)
I0210 11:10:13.451822 45784 net.cpp:137] Memory required for data: 17026836
I0210 11:10:13.451824 45784 layer_factory.hpp:77] Creating layer concat0_1_concat0_1_0_split
I0210 11:10:13.451828 45784 net.cpp:84] Creating Layer concat0_1_concat0_1_0_split
I0210 11:10:13.451833 45784 net.cpp:406] concat0_1_concat0_1_0_split <- concat0_1
I0210 11:10:13.451836 45784 net.cpp:380] concat0_1_concat0_1_0_split -> concat0_1_concat0_1_0_split_0
I0210 11:10:13.451841 45784 net.cpp:380] concat0_1_concat0_1_0_split -> concat0_1_concat0_1_0_split_1
I0210 11:10:13.451894 45784 net.cpp:122] Setting up concat0_1_concat0_1_0_split
I0210 11:10:13.451900 45784 net.cpp:129] Top shape: 1 56 73 99 (404712)
I0210 11:10:13.451903 45784 net.cpp:129] Top shape: 1 56 73 99 (404712)
I0210 11:10:13.451906 45784 net.cpp:137] Memory required for data: 20264532
I0210 11:10:13.451910 45784 layer_factory.hpp:77] Creating layer conv0_2
I0210 11:10:13.451917 45784 net.cpp:84] Creating Layer conv0_2
I0210 11:10:13.451921 45784 net.cpp:406] conv0_2 <- concat0_1_concat0_1_0_split_0
I0210 11:10:13.451926 45784 net.cpp:380] conv0_2 -> conv0_2
I0210 11:10:13.453811 45784 net.cpp:122] Setting up conv0_2
I0210 11:10:13.453825 45784 net.cpp:129] Top shape: 1 12 73 99 (86724)
I0210 11:10:13.453830 45784 net.cpp:137] Memory required for data: 20611428
I0210 11:10:13.453835 45784 layer_factory.hpp:77] Creating layer relu0_2
I0210 11:10:13.453841 45784 net.cpp:84] Creating Layer relu0_2
I0210 11:10:13.453845 45784 net.cpp:406] relu0_2 <- conv0_2
I0210 11:10:13.453850 45784 net.cpp:367] relu0_2 -> conv0_2 (in-place)
I0210 11:10:13.454857 45784 net.cpp:122] Setting up relu0_2
I0210 11:10:13.454870 45784 net.cpp:129] Top shape: 1 12 73 99 (86724)
I0210 11:10:13.454874 45784 net.cpp:137] Memory required for data: 20958324
I0210 11:10:13.454877 45784 layer_factory.hpp:77] Creating layer concat0_2
I0210 11:10:13.454885 45784 net.cpp:84] Creating Layer concat0_2
I0210 11:10:13.454888 45784 net.cpp:406] concat0_2 <- concat0_1_concat0_1_0_split_1
I0210 11:10:13.454893 45784 net.cpp:406] concat0_2 <- conv0_2
I0210 11:10:13.454898 45784 net.cpp:380] concat0_2 -> concat0_2
I0210 11:10:13.454941 45784 net.cpp:122] Setting up concat0_2
I0210 11:10:13.454946 45784 net.cpp:129] Top shape: 1 68 73 99 (491436)
I0210 11:10:13.454948 45784 net.cpp:137] Memory required for data: 22924068
I0210 11:10:13.454952 45784 layer_factory.hpp:77] Creating layer concat0_2_concat0_2_0_split
I0210 11:10:13.454957 45784 net.cpp:84] Creating Layer concat0_2_concat0_2_0_split
I0210 11:10:13.454959 45784 net.cpp:406] concat0_2_concat0_2_0_split <- concat0_2
I0210 11:10:13.454963 45784 net.cpp:380] concat0_2_concat0_2_0_split -> concat0_2_concat0_2_0_split_0
I0210 11:10:13.454968 45784 net.cpp:380] concat0_2_concat0_2_0_split -> concat0_2_concat0_2_0_split_1
I0210 11:10:13.455019 45784 net.cpp:122] Setting up concat0_2_concat0_2_0_split
I0210 11:10:13.455024 45784 net.cpp:129] Top shape: 1 68 73 99 (491436)
I0210 11:10:13.455027 45784 net.cpp:129] Top shape: 1 68 73 99 (491436)
I0210 11:10:13.455030 45784 net.cpp:137] Memory required for data: 26855556
I0210 11:10:13.455034 45784 layer_factory.hpp:77] Creating layer conv0_3
I0210 11:10:13.455041 45784 net.cpp:84] Creating Layer conv0_3
I0210 11:10:13.455045 45784 net.cpp:406] conv0_3 <- concat0_2_concat0_2_0_split_0
I0210 11:10:13.455050 45784 net.cpp:380] conv0_3 -> conv0_3
I0210 11:10:13.456969 45784 net.cpp:122] Setting up conv0_3
I0210 11:10:13.456984 45784 net.cpp:129] Top shape: 1 12 73 99 (86724)
I0210 11:10:13.456986 45784 net.cpp:137] Memory required for data: 27202452
I0210 11:10:13.456993 45784 layer_factory.hpp:77] Creating layer relu0_3
I0210 11:10:13.457000 45784 net.cpp:84] Creating Layer relu0_3
I0210 11:10:13.457003 45784 net.cpp:406] relu0_3 <- conv0_3
I0210 11:10:13.457008 45784 net.cpp:367] relu0_3 -> conv0_3 (in-place)
I0210 11:10:13.457186 45784 net.cpp:122] Setting up relu0_3
I0210 11:10:13.457195 45784 net.cpp:129] Top shape: 1 12 73 99 (86724)
I0210 11:10:13.457197 45784 net.cpp:137] Memory required for data: 27549348
I0210 11:10:13.457201 45784 layer_factory.hpp:77] Creating layer concat0_3
I0210 11:10:13.457206 45784 net.cpp:84] Creating Layer concat0_3
I0210 11:10:13.457211 45784 net.cpp:406] concat0_3 <- concat0_2_concat0_2_0_split_1
I0210 11:10:13.457214 45784 net.cpp:406] concat0_3 <- conv0_3
I0210 11:10:13.457219 45784 net.cpp:380] concat0_3 -> concat0_3
I0210 11:10:13.457257 45784 net.cpp:122] Setting up concat0_3
I0210 11:10:13.457262 45784 net.cpp:129] Top shape: 1 80 73 99 (578160)
I0210 11:10:13.457268 45784 net.cpp:137] Memory required for data: 29861988
I0210 11:10:13.457271 45784 layer_factory.hpp:77] Creating layer concat0_3_concat0_3_0_split
I0210 11:10:13.457276 45784 net.cpp:84] Creating Layer concat0_3_concat0_3_0_split
I0210 11:10:13.457279 45784 net.cpp:406] concat0_3_concat0_3_0_split <- concat0_3
I0210 11:10:13.457284 45784 net.cpp:380] concat0_3_concat0_3_0_split -> concat0_3_concat0_3_0_split_0
I0210 11:10:13.457289 45784 net.cpp:380] concat0_3_concat0_3_0_split -> concat0_3_concat0_3_0_split_1
I0210 11:10:13.457340 45784 net.cpp:122] Setting up concat0_3_concat0_3_0_split
I0210 11:10:13.457345 45784 net.cpp:129] Top shape: 1 80 73 99 (578160)
I0210 11:10:13.457348 45784 net.cpp:129] Top shape: 1 80 73 99 (578160)
I0210 11:10:13.457350 45784 net.cpp:137] Memory required for data: 34487268
I0210 11:10:13.457353 45784 layer_factory.hpp:77] Creating layer conv0_4
I0210 11:10:13.457362 45784 net.cpp:84] Creating Layer conv0_4
I0210 11:10:13.457365 45784 net.cpp:406] conv0_4 <- concat0_3_concat0_3_0_split_0
I0210 11:10:13.457370 45784 net.cpp:380] conv0_4 -> conv0_4
I0210 11:10:13.459374 45784 net.cpp:122] Setting up conv0_4
I0210 11:10:13.459388 45784 net.cpp:129] Top shape: 1 12 73 99 (86724)
I0210 11:10:13.459393 45784 net.cpp:137] Memory required for data: 34834164
I0210 11:10:13.459398 45784 layer_factory.hpp:77] Creating layer relu0_4
I0210 11:10:13.459404 45784 net.cpp:84] Creating Layer relu0_4
I0210 11:10:13.459408 45784 net.cpp:406] relu0_4 <- conv0_4
I0210 11:10:13.459414 45784 net.cpp:367] relu0_4 -> conv0_4 (in-place)
I0210 11:10:13.459595 45784 net.cpp:122] Setting up relu0_4
I0210 11:10:13.459604 45784 net.cpp:129] Top shape: 1 12 73 99 (86724)
I0210 11:10:13.459606 45784 net.cpp:137] Memory required for data: 35181060
I0210 11:10:13.459609 45784 layer_factory.hpp:77] Creating layer concat0_4
I0210 11:10:13.459615 45784 net.cpp:84] Creating Layer concat0_4
I0210 11:10:13.459619 45784 net.cpp:406] concat0_4 <- concat0_3_concat0_3_0_split_1
I0210 11:10:13.459623 45784 net.cpp:406] concat0_4 <- conv0_4
I0210 11:10:13.459627 45784 net.cpp:380] concat0_4 -> concat0_4
I0210 11:10:13.459666 45784 net.cpp:122] Setting up concat0_4
I0210 11:10:13.459672 45784 net.cpp:129] Top shape: 1 92 73 99 (664884)
I0210 11:10:13.459674 45784 net.cpp:137] Memory required for data: 37840596
I0210 11:10:13.459677 45784 layer_factory.hpp:77] Creating layer concat0_4_concat0_4_0_split
I0210 11:10:13.459682 45784 net.cpp:84] Creating Layer concat0_4_concat0_4_0_split
I0210 11:10:13.459686 45784 net.cpp:406] concat0_4_concat0_4_0_split <- concat0_4
I0210 11:10:13.459691 45784 net.cpp:380] concat0_4_concat0_4_0_split -> concat0_4_concat0_4_0_split_0
I0210 11:10:13.459695 45784 net.cpp:380] concat0_4_concat0_4_0_split -> concat0_4_concat0_4_0_split_1
I0210 11:10:13.459745 45784 net.cpp:122] Setting up concat0_4_concat0_4_0_split
I0210 11:10:13.459750 45784 net.cpp:129] Top shape: 1 92 73 99 (664884)
I0210 11:10:13.459754 45784 net.cpp:129] Top shape: 1 92 73 99 (664884)
I0210 11:10:13.459756 45784 net.cpp:137] Memory required for data: 43159668
I0210 11:10:13.459759 45784 layer_factory.hpp:77] Creating layer conv0_5
I0210 11:10:13.459769 45784 net.cpp:84] Creating Layer conv0_5
I0210 11:10:13.459771 45784 net.cpp:406] conv0_5 <- concat0_4_concat0_4_0_split_0
I0210 11:10:13.459776 45784 net.cpp:380] conv0_5 -> conv0_5
I0210 11:10:13.462729 45784 net.cpp:122] Setting up conv0_5
I0210 11:10:13.462743 45784 net.cpp:129] Top shape: 1 12 73 99 (86724)
I0210 11:10:13.462746 45784 net.cpp:137] Memory required for data: 43506564
I0210 11:10:13.462752 45784 layer_factory.hpp:77] Creating layer relu0_5
I0210 11:10:13.462759 45784 net.cpp:84] Creating Layer relu0_5
I0210 11:10:13.462762 45784 net.cpp:406] relu0_5 <- conv0_5
I0210 11:10:13.462769 45784 net.cpp:367] relu0_5 -> conv0_5 (in-place)
I0210 11:10:13.463845 45784 net.cpp:122] Setting up relu0_5
I0210 11:10:13.463857 45784 net.cpp:129] Top shape: 1 12 73 99 (86724)
I0210 11:10:13.463860 45784 net.cpp:137] Memory required for data: 43853460
I0210 11:10:13.463865 45784 layer_factory.hpp:77] Creating layer concat0_5
I0210 11:10:13.463874 45784 net.cpp:84] Creating Layer concat0_5
I0210 11:10:13.463878 45784 net.cpp:406] concat0_5 <- concat0_4_concat0_4_0_split_1
I0210 11:10:13.463883 45784 net.cpp:406] concat0_5 <- conv0_5
I0210 11:10:13.463889 45784 net.cpp:380] concat0_5 -> concat0_5
I0210 11:10:13.463934 45784 net.cpp:122] Setting up concat0_5
I0210 11:10:13.463939 45784 net.cpp:129] Top shape: 1 104 73 99 (751608)
I0210 11:10:13.463943 45784 net.cpp:137] Memory required for data: 46859892
I0210 11:10:13.463945 45784 layer_factory.hpp:77] Creating layer concat0_5_concat0_5_0_split
I0210 11:10:13.463950 45784 net.cpp:84] Creating Layer concat0_5_concat0_5_0_split
I0210 11:10:13.463953 45784 net.cpp:406] concat0_5_concat0_5_0_split <- concat0_5
I0210 11:10:13.463959 45784 net.cpp:380] concat0_5_concat0_5_0_split -> concat0_5_concat0_5_0_split_0
I0210 11:10:13.463964 45784 net.cpp:380] concat0_5_concat0_5_0_split -> concat0_5_concat0_5_0_split_1
I0210 11:10:13.464020 45784 net.cpp:122] Setting up concat0_5_concat0_5_0_split
I0210 11:10:13.464025 45784 net.cpp:129] Top shape: 1 104 73 99 (751608)
I0210 11:10:13.464030 45784 net.cpp:129] Top shape: 1 104 73 99 (751608)
I0210 11:10:13.464032 45784 net.cpp:137] Memory required for data: 52872756
I0210 11:10:13.464035 45784 layer_factory.hpp:77] Creating layer conv0_6
I0210 11:10:13.464045 45784 net.cpp:84] Creating Layer conv0_6
I0210 11:10:13.464048 45784 net.cpp:406] conv0_6 <- concat0_5_concat0_5_0_split_0
I0210 11:10:13.464056 45784 net.cpp:380] conv0_6 -> conv0_6
I0210 11:10:13.466173 45784 net.cpp:122] Setting up conv0_6
I0210 11:10:13.466187 45784 net.cpp:129] Top shape: 1 12 73 99 (86724)
I0210 11:10:13.466190 45784 net.cpp:137] Memory required for data: 53219652
I0210 11:10:13.466197 45784 layer_factory.hpp:77] Creating layer relu0_6
I0210 11:10:13.466202 45784 net.cpp:84] Creating Layer relu0_6
I0210 11:10:13.466207 45784 net.cpp:406] relu0_6 <- conv0_6
I0210 11:10:13.466212 45784 net.cpp:367] relu0_6 -> conv0_6 (in-place)
I0210 11:10:13.466414 45784 net.cpp:122] Setting up relu0_6
I0210 11:10:13.466421 45784 net.cpp:129] Top shape: 1 12 73 99 (86724)
I0210 11:10:13.466424 45784 net.cpp:137] Memory required for data: 53566548
I0210 11:10:13.466428 45784 layer_factory.hpp:77] Creating layer concat0_6
I0210 11:10:13.466436 45784 net.cpp:84] Creating Layer concat0_6
I0210 11:10:13.466440 45784 net.cpp:406] concat0_6 <- concat0_5_concat0_5_0_split_1
I0210 11:10:13.466444 45784 net.cpp:406] concat0_6 <- conv0_6
I0210 11:10:13.466449 45784 net.cpp:380] concat0_6 -> concat0_6
I0210 11:10:13.466492 45784 net.cpp:122] Setting up concat0_6
I0210 11:10:13.466497 45784 net.cpp:129] Top shape: 1 116 73 99 (838332)
I0210 11:10:13.466500 45784 net.cpp:137] Memory required for data: 56919876
I0210 11:10:13.466503 45784 layer_factory.hpp:77] Creating layer concat0_6_concat0_6_0_split
I0210 11:10:13.466508 45784 net.cpp:84] Creating Layer concat0_6_concat0_6_0_split
I0210 11:10:13.466511 45784 net.cpp:406] concat0_6_concat0_6_0_split <- concat0_6
I0210 11:10:13.466516 45784 net.cpp:380] concat0_6_concat0_6_0_split -> concat0_6_concat0_6_0_split_0
I0210 11:10:13.466522 45784 net.cpp:380] concat0_6_concat0_6_0_split -> concat0_6_concat0_6_0_split_1
I0210 11:10:13.466578 45784 net.cpp:122] Setting up concat0_6_concat0_6_0_split
I0210 11:10:13.466584 45784 net.cpp:129] Top shape: 1 116 73 99 (838332)
I0210 11:10:13.466588 45784 net.cpp:129] Top shape: 1 116 73 99 (838332)
I0210 11:10:13.466590 45784 net.cpp:137] Memory required for data: 63626532
I0210 11:10:13.466593 45784 layer_factory.hpp:77] Creating layer conv0_7
I0210 11:10:13.466605 45784 net.cpp:84] Creating Layer conv0_7
I0210 11:10:13.466609 45784 net.cpp:406] conv0_7 <- concat0_6_concat0_6_0_split_0
I0210 11:10:13.466614 45784 net.cpp:380] conv0_7 -> conv0_7
I0210 11:10:13.468778 45784 net.cpp:122] Setting up conv0_7
I0210 11:10:13.468791 45784 net.cpp:129] Top shape: 1 12 73 99 (86724)
I0210 11:10:13.468796 45784 net.cpp:137] Memory required for data: 63973428
I0210 11:10:13.468804 45784 layer_factory.hpp:77] Creating layer relu0_7
I0210 11:10:13.468814 45784 net.cpp:84] Creating Layer relu0_7
I0210 11:10:13.468818 45784 net.cpp:406] relu0_7 <- conv0_7
I0210 11:10:13.468825 45784 net.cpp:367] relu0_7 -> conv0_7 (in-place)
I0210 11:10:13.469020 45784 net.cpp:122] Setting up relu0_7
I0210 11:10:13.469028 45784 net.cpp:129] Top shape: 1 12 73 99 (86724)
I0210 11:10:13.469032 45784 net.cpp:137] Memory required for data: 64320324
I0210 11:10:13.469034 45784 layer_factory.hpp:77] Creating layer concat0_7
I0210 11:10:13.469040 45784 net.cpp:84] Creating Layer concat0_7
I0210 11:10:13.469044 45784 net.cpp:406] concat0_7 <- concat0_6_concat0_6_0_split_1
I0210 11:10:13.469048 45784 net.cpp:406] concat0_7 <- conv0_7
I0210 11:10:13.469058 45784 net.cpp:380] concat0_7 -> concat0_7
I0210 11:10:13.469099 45784 net.cpp:122] Setting up concat0_7
I0210 11:10:13.469105 45784 net.cpp:129] Top shape: 1 128 73 99 (925056)
I0210 11:10:13.469106 45784 net.cpp:137] Memory required for data: 68020548
I0210 11:10:13.469110 45784 layer_factory.hpp:77] Creating layer concat0_7_concat0_7_0_split
I0210 11:10:13.469116 45784 net.cpp:84] Creating Layer concat0_7_concat0_7_0_split
I0210 11:10:13.469120 45784 net.cpp:406] concat0_7_concat0_7_0_split <- concat0_7
I0210 11:10:13.469123 45784 net.cpp:380] concat0_7_concat0_7_0_split -> concat0_7_concat0_7_0_split_0
I0210 11:10:13.469128 45784 net.cpp:380] concat0_7_concat0_7_0_split -> concat0_7_concat0_7_0_split_1
I0210 11:10:13.469183 45784 net.cpp:122] Setting up concat0_7_concat0_7_0_split
I0210 11:10:13.469188 45784 net.cpp:129] Top shape: 1 128 73 99 (925056)
I0210 11:10:13.469192 45784 net.cpp:129] Top shape: 1 128 73 99 (925056)
I0210 11:10:13.469194 45784 net.cpp:137] Memory required for data: 75420996
I0210 11:10:13.469197 45784 layer_factory.hpp:77] Creating layer conv0_8
I0210 11:10:13.469208 45784 net.cpp:84] Creating Layer conv0_8
I0210 11:10:13.469210 45784 net.cpp:406] conv0_8 <- concat0_7_concat0_7_0_split_0
I0210 11:10:13.469218 45784 net.cpp:380] conv0_8 -> conv0_8
I0210 11:10:13.472362 45784 net.cpp:122] Setting up conv0_8
I0210 11:10:13.472376 45784 net.cpp:129] Top shape: 1 12 73 99 (86724)
I0210 11:10:13.472379 45784 net.cpp:137] Memory required for data: 75767892
I0210 11:10:13.472385 45784 layer_factory.hpp:77] Creating layer relu0_8
I0210 11:10:13.472393 45784 net.cpp:84] Creating Layer relu0_8
I0210 11:10:13.472398 45784 net.cpp:406] relu0_8 <- conv0_8
I0210 11:10:13.472403 45784 net.cpp:367] relu0_8 -> conv0_8 (in-place)
I0210 11:10:13.472612 45784 net.cpp:122] Setting up relu0_8
I0210 11:10:13.472620 45784 net.cpp:129] Top shape: 1 12 73 99 (86724)
I0210 11:10:13.472623 45784 net.cpp:137] Memory required for data: 76114788
I0210 11:10:13.472633 45784 layer_factory.hpp:77] Creating layer concat0_8
I0210 11:10:13.472640 45784 net.cpp:84] Creating Layer concat0_8
I0210 11:10:13.472643 45784 net.cpp:406] concat0_8 <- concat0_7_concat0_7_0_split_1
I0210 11:10:13.472647 45784 net.cpp:406] concat0_8 <- conv0_8
I0210 11:10:13.472653 45784 net.cpp:380] concat0_8 -> concat0_8
I0210 11:10:13.472698 45784 net.cpp:122] Setting up concat0_8
I0210 11:10:13.472703 45784 net.cpp:129] Top shape: 1 140 73 99 (1011780)
I0210 11:10:13.472707 45784 net.cpp:137] Memory required for data: 80161908
I0210 11:10:13.472709 45784 layer_factory.hpp:77] Creating layer concat0_8_concat0_8_0_split
I0210 11:10:13.472714 45784 net.cpp:84] Creating Layer concat0_8_concat0_8_0_split
I0210 11:10:13.472717 45784 net.cpp:406] concat0_8_concat0_8_0_split <- concat0_8
I0210 11:10:13.472723 45784 net.cpp:380] concat0_8_concat0_8_0_split -> concat0_8_concat0_8_0_split_0
I0210 11:10:13.472728 45784 net.cpp:380] concat0_8_concat0_8_0_split -> concat0_8_concat0_8_0_split_1
I0210 11:10:13.472785 45784 net.cpp:122] Setting up concat0_8_concat0_8_0_split
I0210 11:10:13.472790 45784 net.cpp:129] Top shape: 1 140 73 99 (1011780)
I0210 11:10:13.472795 45784 net.cpp:129] Top shape: 1 140 73 99 (1011780)
I0210 11:10:13.472796 45784 net.cpp:137] Memory required for data: 88256148
I0210 11:10:13.472800 45784 layer_factory.hpp:77] Creating layer conv0_9
I0210 11:10:13.472816 45784 net.cpp:84] Creating Layer conv0_9
I0210 11:10:13.472820 45784 net.cpp:406] conv0_9 <- concat0_8_concat0_8_0_split_0
I0210 11:10:13.472827 45784 net.cpp:380] conv0_9 -> conv0_9
I0210 11:10:13.475069 45784 net.cpp:122] Setting up conv0_9
I0210 11:10:13.475082 45784 net.cpp:129] Top shape: 1 12 73 99 (86724)
I0210 11:10:13.475086 45784 net.cpp:137] Memory required for data: 88603044
I0210 11:10:13.475092 45784 layer_factory.hpp:77] Creating layer relu0_9
I0210 11:10:13.475100 45784 net.cpp:84] Creating Layer relu0_9
I0210 11:10:13.475105 45784 net.cpp:406] relu0_9 <- conv0_9
I0210 11:10:13.475109 45784 net.cpp:367] relu0_9 -> conv0_9 (in-place)
I0210 11:10:13.476176 45784 net.cpp:122] Setting up relu0_9
I0210 11:10:13.476188 45784 net.cpp:129] Top shape: 1 12 73 99 (86724)
I0210 11:10:13.476192 45784 net.cpp:137] Memory required for data: 88949940
I0210 11:10:13.476197 45784 layer_factory.hpp:77] Creating layer concat0_9
I0210 11:10:13.476204 45784 net.cpp:84] Creating Layer concat0_9
I0210 11:10:13.476208 45784 net.cpp:406] concat0_9 <- concat0_8_concat0_8_0_split_1
I0210 11:10:13.476213 45784 net.cpp:406] concat0_9 <- conv0_9
I0210 11:10:13.476219 45784 net.cpp:380] concat0_9 -> concat0_9
I0210 11:10:13.476263 45784 net.cpp:122] Setting up concat0_9
I0210 11:10:13.476269 45784 net.cpp:129] Top shape: 1 152 73 99 (1098504)
I0210 11:10:13.476271 45784 net.cpp:137] Memory required for data: 93343956
I0210 11:10:13.476274 45784 layer_factory.hpp:77] Creating layer conv0_blk
I0210 11:10:13.476284 45784 net.cpp:84] Creating Layer conv0_blk
I0210 11:10:13.476287 45784 net.cpp:406] conv0_blk <- concat0_9
I0210 11:10:13.476297 45784 net.cpp:380] conv0_blk -> conv0_blk
I0210 11:10:13.478814 45784 net.cpp:122] Setting up conv0_blk
I0210 11:10:13.478828 45784 net.cpp:129] Top shape: 1 152 73 99 (1098504)
I0210 11:10:13.478832 45784 net.cpp:137] Memory required for data: 97737972
I0210 11:10:13.478837 45784 layer_factory.hpp:77] Creating layer pool0
I0210 11:10:13.478845 45784 net.cpp:84] Creating Layer pool0
I0210 11:10:13.478848 45784 net.cpp:406] pool0 <- conv0_blk
I0210 11:10:13.478857 45784 net.cpp:380] pool0 -> pool0
I0210 11:10:13.479091 45784 net.cpp:122] Setting up pool0
I0210 11:10:13.479099 45784 net.cpp:129] Top shape: 1 152 37 50 (281200)
I0210 11:10:13.479102 45784 net.cpp:137] Memory required for data: 98862772
I0210 11:10:13.479105 45784 layer_factory.hpp:77] Creating layer pool0_pool0_0_split
I0210 11:10:13.479112 45784 net.cpp:84] Creating Layer pool0_pool0_0_split
I0210 11:10:13.479116 45784 net.cpp:406] pool0_pool0_0_split <- pool0
I0210 11:10:13.479121 45784 net.cpp:380] pool0_pool0_0_split -> pool0_pool0_0_split_0
I0210 11:10:13.479126 45784 net.cpp:380] pool0_pool0_0_split -> pool0_pool0_0_split_1
I0210 11:10:13.479183 45784 net.cpp:122] Setting up pool0_pool0_0_split
I0210 11:10:13.479188 45784 net.cpp:129] Top shape: 1 152 37 50 (281200)
I0210 11:10:13.479192 45784 net.cpp:129] Top shape: 1 152 37 50 (281200)
I0210 11:10:13.479194 45784 net.cpp:137] Memory required for data: 101112372
I0210 11:10:13.479197 45784 layer_factory.hpp:77] Creating layer conv1_0
I0210 11:10:13.479207 45784 net.cpp:84] Creating Layer conv1_0
I0210 11:10:13.479210 45784 net.cpp:406] conv1_0 <- pool0_pool0_0_split_0
I0210 11:10:13.479218 45784 net.cpp:380] conv1_0 -> conv1_0
I0210 11:10:13.482406 45784 net.cpp:122] Setting up conv1_0
I0210 11:10:13.482420 45784 net.cpp:129] Top shape: 1 12 37 50 (22200)
I0210 11:10:13.482424 45784 net.cpp:137] Memory required for data: 101201172
I0210 11:10:13.482429 45784 layer_factory.hpp:77] Creating layer relu1_0
I0210 11:10:13.482437 45784 net.cpp:84] Creating Layer relu1_0
I0210 11:10:13.482441 45784 net.cpp:406] relu1_0 <- conv1_0
I0210 11:10:13.482446 45784 net.cpp:367] relu1_0 -> conv1_0 (in-place)
I0210 11:10:13.482676 45784 net.cpp:122] Setting up relu1_0
I0210 11:10:13.482683 45784 net.cpp:129] Top shape: 1 12 37 50 (22200)
I0210 11:10:13.482687 45784 net.cpp:137] Memory required for data: 101289972
I0210 11:10:13.482691 45784 layer_factory.hpp:77] Creating layer concat1_0
I0210 11:10:13.482702 45784 net.cpp:84] Creating Layer concat1_0
I0210 11:10:13.482705 45784 net.cpp:406] concat1_0 <- pool0_pool0_0_split_1
I0210 11:10:13.482710 45784 net.cpp:406] concat1_0 <- conv1_0
I0210 11:10:13.482714 45784 net.cpp:380] concat1_0 -> concat1_0
I0210 11:10:13.482759 45784 net.cpp:122] Setting up concat1_0
I0210 11:10:13.482765 45784 net.cpp:129] Top shape: 1 164 37 50 (303400)
I0210 11:10:13.482769 45784 net.cpp:137] Memory required for data: 102503572
I0210 11:10:13.482771 45784 layer_factory.hpp:77] Creating layer concat1_0_concat1_0_0_split
I0210 11:10:13.482776 45784 net.cpp:84] Creating Layer concat1_0_concat1_0_0_split
I0210 11:10:13.482779 45784 net.cpp:406] concat1_0_concat1_0_0_split <- concat1_0
I0210 11:10:13.482802 45784 net.cpp:380] concat1_0_concat1_0_0_split -> concat1_0_concat1_0_0_split_0
I0210 11:10:13.482807 45784 net.cpp:380] concat1_0_concat1_0_0_split -> concat1_0_concat1_0_0_split_1
I0210 11:10:13.482864 45784 net.cpp:122] Setting up concat1_0_concat1_0_0_split
I0210 11:10:13.482869 45784 net.cpp:129] Top shape: 1 164 37 50 (303400)
I0210 11:10:13.482873 45784 net.cpp:129] Top shape: 1 164 37 50 (303400)
I0210 11:10:13.482877 45784 net.cpp:137] Memory required for data: 104930772
I0210 11:10:13.482879 45784 layer_factory.hpp:77] Creating layer conv1_1
I0210 11:10:13.482892 45784 net.cpp:84] Creating Layer conv1_1
I0210 11:10:13.482894 45784 net.cpp:406] conv1_1 <- concat1_0_concat1_0_0_split_0
I0210 11:10:13.482900 45784 net.cpp:380] conv1_1 -> conv1_1
I0210 11:10:13.485229 45784 net.cpp:122] Setting up conv1_1
I0210 11:10:13.485242 45784 net.cpp:129] Top shape: 1 12 37 50 (22200)
I0210 11:10:13.485245 45784 net.cpp:137] Memory required for data: 105019572
I0210 11:10:13.485251 45784 layer_factory.hpp:77] Creating layer relu1_1
I0210 11:10:13.485258 45784 net.cpp:84] Creating Layer relu1_1
I0210 11:10:13.485261 45784 net.cpp:406] relu1_1 <- conv1_1
I0210 11:10:13.485266 45784 net.cpp:367] relu1_1 -> conv1_1 (in-place)
I0210 11:10:13.486392 45784 net.cpp:122] Setting up relu1_1
I0210 11:10:13.486403 45784 net.cpp:129] Top shape: 1 12 37 50 (22200)
I0210 11:10:13.486407 45784 net.cpp:137] Memory required for data: 105108372
I0210 11:10:13.486410 45784 layer_factory.hpp:77] Creating layer concat1_1
I0210 11:10:13.486416 45784 net.cpp:84] Creating Layer concat1_1
I0210 11:10:13.486420 45784 net.cpp:406] concat1_1 <- concat1_0_concat1_0_0_split_1
I0210 11:10:13.486425 45784 net.cpp:406] concat1_1 <- conv1_1
I0210 11:10:13.486431 45784 net.cpp:380] concat1_1 -> concat1_1
I0210 11:10:13.486476 45784 net.cpp:122] Setting up concat1_1
I0210 11:10:13.486482 45784 net.cpp:129] Top shape: 1 176 37 50 (325600)
I0210 11:10:13.486485 45784 net.cpp:137] Memory required for data: 106410772
I0210 11:10:13.486487 45784 layer_factory.hpp:77] Creating layer concat1_1_concat1_1_0_split
I0210 11:10:13.486492 45784 net.cpp:84] Creating Layer concat1_1_concat1_1_0_split
I0210 11:10:13.486495 45784 net.cpp:406] concat1_1_concat1_1_0_split <- concat1_1
I0210 11:10:13.486502 45784 net.cpp:380] concat1_1_concat1_1_0_split -> concat1_1_concat1_1_0_split_0
I0210 11:10:13.486507 45784 net.cpp:380] concat1_1_concat1_1_0_split -> concat1_1_concat1_1_0_split_1
I0210 11:10:13.486565 45784 net.cpp:122] Setting up concat1_1_concat1_1_0_split
I0210 11:10:13.486570 45784 net.cpp:129] Top shape: 1 176 37 50 (325600)
I0210 11:10:13.486573 45784 net.cpp:129] Top shape: 1 176 37 50 (325600)
I0210 11:10:13.486577 45784 net.cpp:137] Memory required for data: 109015572
I0210 11:10:13.486579 45784 layer_factory.hpp:77] Creating layer conv1_2
I0210 11:10:13.486589 45784 net.cpp:84] Creating Layer conv1_2
I0210 11:10:13.486593 45784 net.cpp:406] conv1_2 <- concat1_1_concat1_1_0_split_0
I0210 11:10:13.486600 45784 net.cpp:380] conv1_2 -> conv1_2
I0210 11:10:13.489889 45784 net.cpp:122] Setting up conv1_2
I0210 11:10:13.489903 45784 net.cpp:129] Top shape: 1 12 37 50 (22200)
I0210 11:10:13.489907 45784 net.cpp:137] Memory required for data: 109104372
I0210 11:10:13.489915 45784 layer_factory.hpp:77] Creating layer relu1_2
I0210 11:10:13.489925 45784 net.cpp:84] Creating Layer relu1_2
I0210 11:10:13.489930 45784 net.cpp:406] relu1_2 <- conv1_2
I0210 11:10:13.489935 45784 net.cpp:367] relu1_2 -> conv1_2 (in-place)
I0210 11:10:13.490165 45784 net.cpp:122] Setting up relu1_2
I0210 11:10:13.490173 45784 net.cpp:129] Top shape: 1 12 37 50 (22200)
I0210 11:10:13.490177 45784 net.cpp:137] Memory required for data: 109193172
I0210 11:10:13.490180 45784 layer_factory.hpp:77] Creating layer concat1_2
I0210 11:10:13.490186 45784 net.cpp:84] Creating Layer concat1_2
I0210 11:10:13.490190 45784 net.cpp:406] concat1_2 <- concat1_1_concat1_1_0_split_1
I0210 11:10:13.490195 45784 net.cpp:406] concat1_2 <- conv1_2
I0210 11:10:13.490198 45784 net.cpp:380] concat1_2 -> concat1_2
I0210 11:10:13.490244 45784 net.cpp:122] Setting up concat1_2
I0210 11:10:13.490250 45784 net.cpp:129] Top shape: 1 188 37 50 (347800)
I0210 11:10:13.490252 45784 net.cpp:137] Memory required for data: 110584372
I0210 11:10:13.490255 45784 layer_factory.hpp:77] Creating layer concat1_2_concat1_2_0_split
I0210 11:10:13.490262 45784 net.cpp:84] Creating Layer concat1_2_concat1_2_0_split
I0210 11:10:13.490264 45784 net.cpp:406] concat1_2_concat1_2_0_split <- concat1_2
I0210 11:10:13.490273 45784 net.cpp:380] concat1_2_concat1_2_0_split -> concat1_2_concat1_2_0_split_0
I0210 11:10:13.490278 45784 net.cpp:380] concat1_2_concat1_2_0_split -> concat1_2_concat1_2_0_split_1
I0210 11:10:13.490337 45784 net.cpp:122] Setting up concat1_2_concat1_2_0_split
I0210 11:10:13.490342 45784 net.cpp:129] Top shape: 1 188 37 50 (347800)
I0210 11:10:13.490346 45784 net.cpp:129] Top shape: 1 188 37 50 (347800)
I0210 11:10:13.490348 45784 net.cpp:137] Memory required for data: 113366772
I0210 11:10:13.490351 45784 layer_factory.hpp:77] Creating layer conv1_3
I0210 11:10:13.490362 45784 net.cpp:84] Creating Layer conv1_3
I0210 11:10:13.490365 45784 net.cpp:406] conv1_3 <- concat1_2_concat1_2_0_split_0
I0210 11:10:13.490370 45784 net.cpp:380] conv1_3 -> conv1_3
I0210 11:10:13.494607 45784 net.cpp:122] Setting up conv1_3
I0210 11:10:13.494622 45784 net.cpp:129] Top shape: 1 12 37 50 (22200)
I0210 11:10:13.494626 45784 net.cpp:137] Memory required for data: 113455572
I0210 11:10:13.494632 45784 layer_factory.hpp:77] Creating layer relu1_3
I0210 11:10:13.494642 45784 net.cpp:84] Creating Layer relu1_3
I0210 11:10:13.494645 45784 net.cpp:406] relu1_3 <- conv1_3
I0210 11:10:13.494650 45784 net.cpp:367] relu1_3 -> conv1_3 (in-place)
I0210 11:10:13.494869 45784 net.cpp:122] Setting up relu1_3
I0210 11:10:13.494879 45784 net.cpp:129] Top shape: 1 12 37 50 (22200)
I0210 11:10:13.494881 45784 net.cpp:137] Memory required for data: 113544372
I0210 11:10:13.494885 45784 layer_factory.hpp:77] Creating layer concat1_3
I0210 11:10:13.494892 45784 net.cpp:84] Creating Layer concat1_3
I0210 11:10:13.494896 45784 net.cpp:406] concat1_3 <- concat1_2_concat1_2_0_split_1
I0210 11:10:13.494900 45784 net.cpp:406] concat1_3 <- conv1_3
I0210 11:10:13.494904 45784 net.cpp:380] concat1_3 -> concat1_3
I0210 11:10:13.494951 45784 net.cpp:122] Setting up concat1_3
I0210 11:10:13.494957 45784 net.cpp:129] Top shape: 1 200 37 50 (370000)
I0210 11:10:13.494959 45784 net.cpp:137] Memory required for data: 115024372
I0210 11:10:13.494962 45784 layer_factory.hpp:77] Creating layer concat1_3_concat1_3_0_split
I0210 11:10:13.494967 45784 net.cpp:84] Creating Layer concat1_3_concat1_3_0_split
I0210 11:10:13.494971 45784 net.cpp:406] concat1_3_concat1_3_0_split <- concat1_3
I0210 11:10:13.494977 45784 net.cpp:380] concat1_3_concat1_3_0_split -> concat1_3_concat1_3_0_split_0
I0210 11:10:13.494987 45784 net.cpp:380] concat1_3_concat1_3_0_split -> concat1_3_concat1_3_0_split_1
I0210 11:10:13.495044 45784 net.cpp:122] Setting up concat1_3_concat1_3_0_split
I0210 11:10:13.495052 45784 net.cpp:129] Top shape: 1 200 37 50 (370000)
I0210 11:10:13.495056 45784 net.cpp:129] Top shape: 1 200 37 50 (370000)
I0210 11:10:13.495059 45784 net.cpp:137] Memory required for data: 117984372
I0210 11:10:13.495062 45784 layer_factory.hpp:77] Creating layer conv1_4
I0210 11:10:13.495084 45784 net.cpp:84] Creating Layer conv1_4
I0210 11:10:13.495087 45784 net.cpp:406] conv1_4 <- concat1_3_concat1_3_0_split_0
I0210 11:10:13.495092 45784 net.cpp:380] conv1_4 -> conv1_4
I0210 11:10:13.498448 45784 net.cpp:122] Setting up conv1_4
I0210 11:10:13.498461 45784 net.cpp:129] Top shape: 1 12 37 50 (22200)
I0210 11:10:13.498466 45784 net.cpp:137] Memory required for data: 118073172
I0210 11:10:13.498476 45784 layer_factory.hpp:77] Creating layer relu1_4
I0210 11:10:13.498482 45784 net.cpp:84] Creating Layer relu1_4
I0210 11:10:13.498486 45784 net.cpp:406] relu1_4 <- conv1_4
I0210 11:10:13.498492 45784 net.cpp:367] relu1_4 -> conv1_4 (in-place)
I0210 11:10:13.499574 45784 net.cpp:122] Setting up relu1_4
I0210 11:10:13.499586 45784 net.cpp:129] Top shape: 1 12 37 50 (22200)
I0210 11:10:13.499589 45784 net.cpp:137] Memory required for data: 118161972
I0210 11:10:13.499593 45784 layer_factory.hpp:77] Creating layer concat1_4
I0210 11:10:13.499601 45784 net.cpp:84] Creating Layer concat1_4
I0210 11:10:13.499605 45784 net.cpp:406] concat1_4 <- concat1_3_concat1_3_0_split_1
I0210 11:10:13.499610 45784 net.cpp:406] concat1_4 <- conv1_4
I0210 11:10:13.499615 45784 net.cpp:380] concat1_4 -> concat1_4
I0210 11:10:13.499661 45784 net.cpp:122] Setting up concat1_4
I0210 11:10:13.499670 45784 net.cpp:129] Top shape: 1 212 37 50 (392200)
I0210 11:10:13.499672 45784 net.cpp:137] Memory required for data: 119730772
I0210 11:10:13.499675 45784 layer_factory.hpp:77] Creating layer concat1_4_concat1_4_0_split
I0210 11:10:13.499680 45784 net.cpp:84] Creating Layer concat1_4_concat1_4_0_split
I0210 11:10:13.499683 45784 net.cpp:406] concat1_4_concat1_4_0_split <- concat1_4
I0210 11:10:13.499687 45784 net.cpp:380] concat1_4_concat1_4_0_split -> concat1_4_concat1_4_0_split_0
I0210 11:10:13.499692 45784 net.cpp:380] concat1_4_concat1_4_0_split -> concat1_4_concat1_4_0_split_1
I0210 11:10:13.499750 45784 net.cpp:122] Setting up concat1_4_concat1_4_0_split
I0210 11:10:13.499755 45784 net.cpp:129] Top shape: 1 212 37 50 (392200)
I0210 11:10:13.499759 45784 net.cpp:129] Top shape: 1 212 37 50 (392200)
I0210 11:10:13.499763 45784 net.cpp:137] Memory required for data: 122868372
I0210 11:10:13.499764 45784 layer_factory.hpp:77] Creating layer conv1_5
I0210 11:10:13.499774 45784 net.cpp:84] Creating Layer conv1_5
I0210 11:10:13.499778 45784 net.cpp:406] conv1_5 <- concat1_4_concat1_4_0_split_0
I0210 11:10:13.499785 45784 net.cpp:380] conv1_5 -> conv1_5
I0210 11:10:13.503121 45784 net.cpp:122] Setting up conv1_5
I0210 11:10:13.503137 45784 net.cpp:129] Top shape: 1 12 37 50 (22200)
I0210 11:10:13.503140 45784 net.cpp:137] Memory required for data: 122957172
I0210 11:10:13.503146 45784 layer_factory.hpp:77] Creating layer relu1_5
I0210 11:10:13.503152 45784 net.cpp:84] Creating Layer relu1_5
I0210 11:10:13.503156 45784 net.cpp:406] relu1_5 <- conv1_5
I0210 11:10:13.503161 45784 net.cpp:367] relu1_5 -> conv1_5 (in-place)
I0210 11:10:13.503360 45784 net.cpp:122] Setting up relu1_5
I0210 11:10:13.503368 45784 net.cpp:129] Top shape: 1 12 37 50 (22200)
I0210 11:10:13.503371 45784 net.cpp:137] Memory required for data: 123045972
I0210 11:10:13.503374 45784 layer_factory.hpp:77] Creating layer concat1_5
I0210 11:10:13.503381 45784 net.cpp:84] Creating Layer concat1_5
I0210 11:10:13.503383 45784 net.cpp:406] concat1_5 <- concat1_4_concat1_4_0_split_1
I0210 11:10:13.503387 45784 net.cpp:406] concat1_5 <- conv1_5
I0210 11:10:13.503393 45784 net.cpp:380] concat1_5 -> concat1_5
I0210 11:10:13.503437 45784 net.cpp:122] Setting up concat1_5
I0210 11:10:13.503442 45784 net.cpp:129] Top shape: 1 224 37 50 (414400)
I0210 11:10:13.503444 45784 net.cpp:137] Memory required for data: 124703572
I0210 11:10:13.503448 45784 layer_factory.hpp:77] Creating layer concat1_5_concat1_5_0_split
I0210 11:10:13.503451 45784 net.cpp:84] Creating Layer concat1_5_concat1_5_0_split
I0210 11:10:13.503458 45784 net.cpp:406] concat1_5_concat1_5_0_split <- concat1_5
I0210 11:10:13.503461 45784 net.cpp:380] concat1_5_concat1_5_0_split -> concat1_5_concat1_5_0_split_0
I0210 11:10:13.503470 45784 net.cpp:380] concat1_5_concat1_5_0_split -> concat1_5_concat1_5_0_split_1
I0210 11:10:13.503530 45784 net.cpp:122] Setting up concat1_5_concat1_5_0_split
I0210 11:10:13.503533 45784 net.cpp:129] Top shape: 1 224 37 50 (414400)
I0210 11:10:13.503537 45784 net.cpp:129] Top shape: 1 224 37 50 (414400)
I0210 11:10:13.503540 45784 net.cpp:137] Memory required for data: 128018772
I0210 11:10:13.503542 45784 layer_factory.hpp:77] Creating layer conv1_6
I0210 11:10:13.503551 45784 net.cpp:84] Creating Layer conv1_6
I0210 11:10:13.503554 45784 net.cpp:406] conv1_6 <- concat1_5_concat1_5_0_split_0
I0210 11:10:13.503561 45784 net.cpp:380] conv1_6 -> conv1_6
I0210 11:10:13.506805 45784 net.cpp:122] Setting up conv1_6
I0210 11:10:13.506819 45784 net.cpp:129] Top shape: 1 12 37 50 (22200)
I0210 11:10:13.506821 45784 net.cpp:137] Memory required for data: 128107572
I0210 11:10:13.506827 45784 layer_factory.hpp:77] Creating layer relu1_6
I0210 11:10:13.506835 45784 net.cpp:84] Creating Layer relu1_6
I0210 11:10:13.506839 45784 net.cpp:406] relu1_6 <- conv1_6
I0210 11:10:13.506844 45784 net.cpp:367] relu1_6 -> conv1_6 (in-place)
I0210 11:10:13.507050 45784 net.cpp:122] Setting up relu1_6
I0210 11:10:13.507058 45784 net.cpp:129] Top shape: 1 12 37 50 (22200)
I0210 11:10:13.507061 45784 net.cpp:137] Memory required for data: 128196372
I0210 11:10:13.507064 45784 layer_factory.hpp:77] Creating layer concat1_6
I0210 11:10:13.507071 45784 net.cpp:84] Creating Layer concat1_6
I0210 11:10:13.507076 45784 net.cpp:406] concat1_6 <- concat1_5_concat1_5_0_split_1
I0210 11:10:13.507079 45784 net.cpp:406] concat1_6 <- conv1_6
I0210 11:10:13.507083 45784 net.cpp:380] concat1_6 -> concat1_6
I0210 11:10:13.507128 45784 net.cpp:122] Setting up concat1_6
I0210 11:10:13.507133 45784 net.cpp:129] Top shape: 1 236 37 50 (436600)
I0210 11:10:13.507135 45784 net.cpp:137] Memory required for data: 129942772
I0210 11:10:13.507138 45784 layer_factory.hpp:77] Creating layer concat1_6_concat1_6_0_split
I0210 11:10:13.507143 45784 net.cpp:84] Creating Layer concat1_6_concat1_6_0_split
I0210 11:10:13.507146 45784 net.cpp:406] concat1_6_concat1_6_0_split <- concat1_6
I0210 11:10:13.507153 45784 net.cpp:380] concat1_6_concat1_6_0_split -> concat1_6_concat1_6_0_split_0
I0210 11:10:13.507158 45784 net.cpp:380] concat1_6_concat1_6_0_split -> concat1_6_concat1_6_0_split_1
I0210 11:10:13.507211 45784 net.cpp:122] Setting up concat1_6_concat1_6_0_split
I0210 11:10:13.507216 45784 net.cpp:129] Top shape: 1 236 37 50 (436600)
I0210 11:10:13.507220 45784 net.cpp:129] Top shape: 1 236 37 50 (436600)
I0210 11:10:13.507222 45784 net.cpp:137] Memory required for data: 133435572
I0210 11:10:13.507225 45784 layer_factory.hpp:77] Creating layer conv1_7
I0210 11:10:13.507236 45784 net.cpp:84] Creating Layer conv1_7
I0210 11:10:13.507239 45784 net.cpp:406] conv1_7 <- concat1_6_concat1_6_0_split_0
I0210 11:10:13.507244 45784 net.cpp:380] conv1_7 -> conv1_7
I0210 11:10:13.510591 45784 net.cpp:122] Setting up conv1_7
I0210 11:10:13.510603 45784 net.cpp:129] Top shape: 1 12 37 50 (22200)
I0210 11:10:13.510607 45784 net.cpp:137] Memory required for data: 133524372
I0210 11:10:13.510612 45784 layer_factory.hpp:77] Creating layer relu1_7
I0210 11:10:13.510619 45784 net.cpp:84] Creating Layer relu1_7
I0210 11:10:13.510623 45784 net.cpp:406] relu1_7 <- conv1_7
I0210 11:10:13.510628 45784 net.cpp:367] relu1_7 -> conv1_7 (in-place)
I0210 11:10:13.510833 45784 net.cpp:122] Setting up relu1_7
I0210 11:10:13.510840 45784 net.cpp:129] Top shape: 1 12 37 50 (22200)
I0210 11:10:13.510843 45784 net.cpp:137] Memory required for data: 133613172
I0210 11:10:13.510845 45784 layer_factory.hpp:77] Creating layer concat1_7
I0210 11:10:13.510851 45784 net.cpp:84] Creating Layer concat1_7
I0210 11:10:13.510854 45784 net.cpp:406] concat1_7 <- concat1_6_concat1_6_0_split_1
I0210 11:10:13.510859 45784 net.cpp:406] concat1_7 <- conv1_7
I0210 11:10:13.510862 45784 net.cpp:380] concat1_7 -> concat1_7
I0210 11:10:13.510910 45784 net.cpp:122] Setting up concat1_7
I0210 11:10:13.510921 45784 net.cpp:129] Top shape: 1 248 37 50 (458800)
I0210 11:10:13.510922 45784 net.cpp:137] Memory required for data: 135448372
I0210 11:10:13.510926 45784 layer_factory.hpp:77] Creating layer concat1_7_concat1_7_0_split
I0210 11:10:13.510931 45784 net.cpp:84] Creating Layer concat1_7_concat1_7_0_split
I0210 11:10:13.510934 45784 net.cpp:406] concat1_7_concat1_7_0_split <- concat1_7
I0210 11:10:13.510939 45784 net.cpp:380] concat1_7_concat1_7_0_split -> concat1_7_concat1_7_0_split_0
I0210 11:10:13.510946 45784 net.cpp:380] concat1_7_concat1_7_0_split -> concat1_7_concat1_7_0_split_1
I0210 11:10:13.511004 45784 net.cpp:122] Setting up concat1_7_concat1_7_0_split
I0210 11:10:13.511009 45784 net.cpp:129] Top shape: 1 248 37 50 (458800)
I0210 11:10:13.511013 45784 net.cpp:129] Top shape: 1 248 37 50 (458800)
I0210 11:10:13.511014 45784 net.cpp:137] Memory required for data: 139118772
I0210 11:10:13.511018 45784 layer_factory.hpp:77] Creating layer conv1_8
I0210 11:10:13.511027 45784 net.cpp:84] Creating Layer conv1_8
I0210 11:10:13.511030 45784 net.cpp:406] conv1_8 <- concat1_7_concat1_7_0_split_0
I0210 11:10:13.511035 45784 net.cpp:380] conv1_8 -> conv1_8
I0210 11:10:13.514372 45784 net.cpp:122] Setting up conv1_8
I0210 11:10:13.514385 45784 net.cpp:129] Top shape: 1 12 37 50 (22200)
I0210 11:10:13.514389 45784 net.cpp:137] Memory required for data: 139207572
I0210 11:10:13.514394 45784 layer_factory.hpp:77] Creating layer relu1_8
I0210 11:10:13.514400 45784 net.cpp:84] Creating Layer relu1_8
I0210 11:10:13.514403 45784 net.cpp:406] relu1_8 <- conv1_8
I0210 11:10:13.514410 45784 net.cpp:367] relu1_8 -> conv1_8 (in-place)
I0210 11:10:13.515424 45784 net.cpp:122] Setting up relu1_8
I0210 11:10:13.515434 45784 net.cpp:129] Top shape: 1 12 37 50 (22200)
I0210 11:10:13.515439 45784 net.cpp:137] Memory required for data: 139296372
I0210 11:10:13.515441 45784 layer_factory.hpp:77] Creating layer concat1_8
I0210 11:10:13.515450 45784 net.cpp:84] Creating Layer concat1_8
I0210 11:10:13.515453 45784 net.cpp:406] concat1_8 <- concat1_7_concat1_7_0_split_1
I0210 11:10:13.515457 45784 net.cpp:406] concat1_8 <- conv1_8
I0210 11:10:13.515462 45784 net.cpp:380] concat1_8 -> concat1_8
I0210 11:10:13.515507 45784 net.cpp:122] Setting up concat1_8
I0210 11:10:13.515512 45784 net.cpp:129] Top shape: 1 260 37 50 (481000)
I0210 11:10:13.515516 45784 net.cpp:137] Memory required for data: 141220372
I0210 11:10:13.515517 45784 layer_factory.hpp:77] Creating layer concat1_8_concat1_8_0_split
I0210 11:10:13.515524 45784 net.cpp:84] Creating Layer concat1_8_concat1_8_0_split
I0210 11:10:13.515527 45784 net.cpp:406] concat1_8_concat1_8_0_split <- concat1_8
I0210 11:10:13.515532 45784 net.cpp:380] concat1_8_concat1_8_0_split -> concat1_8_concat1_8_0_split_0
I0210 11:10:13.515537 45784 net.cpp:380] concat1_8_concat1_8_0_split -> concat1_8_concat1_8_0_split_1
I0210 11:10:13.515596 45784 net.cpp:122] Setting up concat1_8_concat1_8_0_split
I0210 11:10:13.515601 45784 net.cpp:129] Top shape: 1 260 37 50 (481000)
I0210 11:10:13.515605 45784 net.cpp:129] Top shape: 1 260 37 50 (481000)
I0210 11:10:13.515607 45784 net.cpp:137] Memory required for data: 145068372
I0210 11:10:13.515610 45784 layer_factory.hpp:77] Creating layer conv1_9
I0210 11:10:13.515621 45784 net.cpp:84] Creating Layer conv1_9
I0210 11:10:13.515625 45784 net.cpp:406] conv1_9 <- concat1_8_concat1_8_0_split_0
I0210 11:10:13.515630 45784 net.cpp:380] conv1_9 -> conv1_9
I0210 11:10:13.519033 45784 net.cpp:122] Setting up conv1_9
I0210 11:10:13.519047 45784 net.cpp:129] Top shape: 1 12 37 50 (22200)
I0210 11:10:13.519049 45784 net.cpp:137] Memory required for data: 145157172
I0210 11:10:13.519055 45784 layer_factory.hpp:77] Creating layer relu1_9
I0210 11:10:13.519063 45784 net.cpp:84] Creating Layer relu1_9
I0210 11:10:13.519068 45784 net.cpp:406] relu1_9 <- conv1_9
I0210 11:10:13.519073 45784 net.cpp:367] relu1_9 -> conv1_9 (in-place)
I0210 11:10:13.519278 45784 net.cpp:122] Setting up relu1_9
I0210 11:10:13.519284 45784 net.cpp:129] Top shape: 1 12 37 50 (22200)
I0210 11:10:13.519291 45784 net.cpp:137] Memory required for data: 145245972
I0210 11:10:13.519294 45784 layer_factory.hpp:77] Creating layer concat1_9
I0210 11:10:13.519300 45784 net.cpp:84] Creating Layer concat1_9
I0210 11:10:13.519304 45784 net.cpp:406] concat1_9 <- concat1_8_concat1_8_0_split_1
I0210 11:10:13.519307 45784 net.cpp:406] concat1_9 <- conv1_9
I0210 11:10:13.519313 45784 net.cpp:380] concat1_9 -> concat1_9
I0210 11:10:13.519359 45784 net.cpp:122] Setting up concat1_9
I0210 11:10:13.519364 45784 net.cpp:129] Top shape: 1 272 37 50 (503200)
I0210 11:10:13.519367 45784 net.cpp:137] Memory required for data: 147258772
I0210 11:10:13.519369 45784 layer_factory.hpp:77] Creating layer concat1_9_concat1_9_0_split
I0210 11:10:13.519374 45784 net.cpp:84] Creating Layer concat1_9_concat1_9_0_split
I0210 11:10:13.519377 45784 net.cpp:406] concat1_9_concat1_9_0_split <- concat1_9
I0210 11:10:13.519382 45784 net.cpp:380] concat1_9_concat1_9_0_split -> concat1_9_concat1_9_0_split_0
I0210 11:10:13.519388 45784 net.cpp:380] concat1_9_concat1_9_0_split -> concat1_9_concat1_9_0_split_1
I0210 11:10:13.519446 45784 net.cpp:122] Setting up concat1_9_concat1_9_0_split
I0210 11:10:13.519451 45784 net.cpp:129] Top shape: 1 272 37 50 (503200)
I0210 11:10:13.519455 45784 net.cpp:129] Top shape: 1 272 37 50 (503200)
I0210 11:10:13.519457 45784 net.cpp:137] Memory required for data: 151284372
I0210 11:10:13.519460 45784 layer_factory.hpp:77] Creating layer conv1_10
I0210 11:10:13.519469 45784 net.cpp:84] Creating Layer conv1_10
I0210 11:10:13.519472 45784 net.cpp:406] conv1_10 <- concat1_9_concat1_9_0_split_0
I0210 11:10:13.519479 45784 net.cpp:380] conv1_10 -> conv1_10
I0210 11:10:13.522928 45784 net.cpp:122] Setting up conv1_10
I0210 11:10:13.522941 45784 net.cpp:129] Top shape: 1 12 37 50 (22200)
I0210 11:10:13.522944 45784 net.cpp:137] Memory required for data: 151373172
I0210 11:10:13.522950 45784 layer_factory.hpp:77] Creating layer relu1_10
I0210 11:10:13.522958 45784 net.cpp:84] Creating Layer relu1_10
I0210 11:10:13.522961 45784 net.cpp:406] relu1_10 <- conv1_10
I0210 11:10:13.522966 45784 net.cpp:367] relu1_10 -> conv1_10 (in-place)
I0210 11:10:13.523180 45784 net.cpp:122] Setting up relu1_10
I0210 11:10:13.523190 45784 net.cpp:129] Top shape: 1 12 37 50 (22200)
I0210 11:10:13.523192 45784 net.cpp:137] Memory required for data: 151461972
I0210 11:10:13.523195 45784 layer_factory.hpp:77] Creating layer concat1_10
I0210 11:10:13.523201 45784 net.cpp:84] Creating Layer concat1_10
I0210 11:10:13.523205 45784 net.cpp:406] concat1_10 <- concat1_9_concat1_9_0_split_1
I0210 11:10:13.523208 45784 net.cpp:406] concat1_10 <- conv1_10
I0210 11:10:13.523213 45784 net.cpp:380] concat1_10 -> concat1_10
I0210 11:10:13.523260 45784 net.cpp:122] Setting up concat1_10
I0210 11:10:13.523267 45784 net.cpp:129] Top shape: 1 284 37 50 (525400)
I0210 11:10:13.523268 45784 net.cpp:137] Memory required for data: 153563572
I0210 11:10:13.523272 45784 layer_factory.hpp:77] Creating layer concat1_10_concat1_10_0_split
I0210 11:10:13.523277 45784 net.cpp:84] Creating Layer concat1_10_concat1_10_0_split
I0210 11:10:13.523279 45784 net.cpp:406] concat1_10_concat1_10_0_split <- concat1_10
I0210 11:10:13.523283 45784 net.cpp:380] concat1_10_concat1_10_0_split -> concat1_10_concat1_10_0_split_0
I0210 11:10:13.523289 45784 net.cpp:380] concat1_10_concat1_10_0_split -> concat1_10_concat1_10_0_split_1
I0210 11:10:13.523347 45784 net.cpp:122] Setting up concat1_10_concat1_10_0_split
I0210 11:10:13.523352 45784 net.cpp:129] Top shape: 1 284 37 50 (525400)
I0210 11:10:13.523356 45784 net.cpp:129] Top shape: 1 284 37 50 (525400)
I0210 11:10:13.523358 45784 net.cpp:137] Memory required for data: 157766772
I0210 11:10:13.523361 45784 layer_factory.hpp:77] Creating layer conv1_11
I0210 11:10:13.523371 45784 net.cpp:84] Creating Layer conv1_11
I0210 11:10:13.523375 45784 net.cpp:406] conv1_11 <- concat1_10_concat1_10_0_split_0
I0210 11:10:13.523380 45784 net.cpp:380] conv1_11 -> conv1_11
I0210 11:10:13.528789 45784 net.cpp:122] Setting up conv1_11
I0210 11:10:13.528842 45784 net.cpp:129] Top shape: 1 12 37 50 (22200)
I0210 11:10:13.528865 45784 net.cpp:137] Memory required for data: 157855572
I0210 11:10:13.528883 45784 layer_factory.hpp:77] Creating layer relu1_11
I0210 11:10:13.528903 45784 net.cpp:84] Creating Layer relu1_11
I0210 11:10:13.528913 45784 net.cpp:406] relu1_11 <- conv1_11
I0210 11:10:13.528928 45784 net.cpp:367] relu1_11 -> conv1_11 (in-place)
I0210 11:10:13.531430 45784 net.cpp:122] Setting up relu1_11
I0210 11:10:13.531456 45784 net.cpp:129] Top shape: 1 12 37 50 (22200)
I0210 11:10:13.531464 45784 net.cpp:137] Memory required for data: 157944372
I0210 11:10:13.531471 45784 layer_factory.hpp:77] Creating layer concat1_11
I0210 11:10:13.531491 45784 net.cpp:84] Creating Layer concat1_11
I0210 11:10:13.531500 45784 net.cpp:406] concat1_11 <- concat1_10_concat1_10_0_split_1
I0210 11:10:13.531510 45784 net.cpp:406] concat1_11 <- conv1_11
I0210 11:10:13.531522 45784 net.cpp:380] concat1_11 -> concat1_11
I0210 11:10:13.531659 45784 net.cpp:122] Setting up concat1_11
I0210 11:10:13.531672 45784 net.cpp:129] Top shape: 1 296 37 50 (547600)
I0210 11:10:13.531677 45784 net.cpp:137] Memory required for data: 160134772
I0210 11:10:13.531683 45784 layer_factory.hpp:77] Creating layer concat1_11_concat1_11_0_split
I0210 11:10:13.531697 45784 net.cpp:84] Creating Layer concat1_11_concat1_11_0_split
I0210 11:10:13.531705 45784 net.cpp:406] concat1_11_concat1_11_0_split <- concat1_11
I0210 11:10:13.531714 45784 net.cpp:380] concat1_11_concat1_11_0_split -> concat1_11_concat1_11_0_split_0
I0210 11:10:13.531729 45784 net.cpp:380] concat1_11_concat1_11_0_split -> concat1_11_concat1_11_0_split_1
I0210 11:10:13.531865 45784 net.cpp:122] Setting up concat1_11_concat1_11_0_split
I0210 11:10:13.531877 45784 net.cpp:129] Top shape: 1 296 37 50 (547600)
I0210 11:10:13.531884 45784 net.cpp:129] Top shape: 1 296 37 50 (547600)
I0210 11:10:13.531890 45784 net.cpp:137] Memory required for data: 164515572
I0210 11:10:13.531896 45784 layer_factory.hpp:77] Creating layer conv1_12
I0210 11:10:13.531921 45784 net.cpp:84] Creating Layer conv1_12
I0210 11:10:13.531929 45784 net.cpp:406] conv1_12 <- concat1_11_concat1_11_0_split_0
I0210 11:10:13.531941 45784 net.cpp:380] conv1_12 -> conv1_12
I0210 11:10:13.539609 45784 net.cpp:122] Setting up conv1_12
I0210 11:10:13.539636 45784 net.cpp:129] Top shape: 1 12 37 50 (22200)
I0210 11:10:13.539644 45784 net.cpp:137] Memory required for data: 164604372
I0210 11:10:13.539659 45784 layer_factory.hpp:77] Creating layer relu1_12
I0210 11:10:13.539672 45784 net.cpp:84] Creating Layer relu1_12
I0210 11:10:13.539681 45784 net.cpp:406] relu1_12 <- conv1_12
I0210 11:10:13.539692 45784 net.cpp:367] relu1_12 -> conv1_12 (in-place)
I0210 11:10:13.540154 45784 net.cpp:122] Setting up relu1_12
I0210 11:10:13.540171 45784 net.cpp:129] Top shape: 1 12 37 50 (22200)
I0210 11:10:13.540177 45784 net.cpp:137] Memory required for data: 164693172
I0210 11:10:13.540184 45784 layer_factory.hpp:77] Creating layer concat1_12
I0210 11:10:13.540197 45784 net.cpp:84] Creating Layer concat1_12
I0210 11:10:13.540205 45784 net.cpp:406] concat1_12 <- concat1_11_concat1_11_0_split_1
I0210 11:10:13.540215 45784 net.cpp:406] concat1_12 <- conv1_12
I0210 11:10:13.540228 45784 net.cpp:380] concat1_12 -> concat1_12
I0210 11:10:13.540323 45784 net.cpp:122] Setting up concat1_12
I0210 11:10:13.540333 45784 net.cpp:129] Top shape: 1 308 37 50 (569800)
I0210 11:10:13.540339 45784 net.cpp:137] Memory required for data: 166972372
I0210 11:10:13.540346 45784 layer_factory.hpp:77] Creating layer concat1_12_concat1_12_0_split
I0210 11:10:13.540356 45784 net.cpp:84] Creating Layer concat1_12_concat1_12_0_split
I0210 11:10:13.540364 45784 net.cpp:406] concat1_12_concat1_12_0_split <- concat1_12
I0210 11:10:13.540377 45784 net.cpp:380] concat1_12_concat1_12_0_split -> concat1_12_concat1_12_0_split_0
I0210 11:10:13.540390 45784 net.cpp:380] concat1_12_concat1_12_0_split -> concat1_12_concat1_12_0_split_1
I0210 11:10:13.540520 45784 net.cpp:122] Setting up concat1_12_concat1_12_0_split
I0210 11:10:13.540531 45784 net.cpp:129] Top shape: 1 308 37 50 (569800)
I0210 11:10:13.540545 45784 net.cpp:129] Top shape: 1 308 37 50 (569800)
I0210 11:10:13.540552 45784 net.cpp:137] Memory required for data: 171530772
I0210 11:10:13.540558 45784 layer_factory.hpp:77] Creating layer conv1_13
I0210 11:10:13.540577 45784 net.cpp:84] Creating Layer conv1_13
I0210 11:10:13.540585 45784 net.cpp:406] conv1_13 <- concat1_12_concat1_12_0_split_0
I0210 11:10:13.540599 45784 net.cpp:380] conv1_13 -> conv1_13
I0210 11:10:13.547824 45784 net.cpp:122] Setting up conv1_13
I0210 11:10:13.547849 45784 net.cpp:129] Top shape: 1 12 37 50 (22200)
I0210 11:10:13.547857 45784 net.cpp:137] Memory required for data: 171619572
I0210 11:10:13.547868 45784 layer_factory.hpp:77] Creating layer relu1_13
I0210 11:10:13.547883 45784 net.cpp:84] Creating Layer relu1_13
I0210 11:10:13.547890 45784 net.cpp:406] relu1_13 <- conv1_13
I0210 11:10:13.547901 45784 net.cpp:367] relu1_13 -> conv1_13 (in-place)
I0210 11:10:13.548408 45784 net.cpp:122] Setting up relu1_13
I0210 11:10:13.548422 45784 net.cpp:129] Top shape: 1 12 37 50 (22200)
I0210 11:10:13.548429 45784 net.cpp:137] Memory required for data: 171708372
I0210 11:10:13.548436 45784 layer_factory.hpp:77] Creating layer concat1_13
I0210 11:10:13.548447 45784 net.cpp:84] Creating Layer concat1_13
I0210 11:10:13.548455 45784 net.cpp:406] concat1_13 <- concat1_12_concat1_12_0_split_1
I0210 11:10:13.548465 45784 net.cpp:406] concat1_13 <- conv1_13
I0210 11:10:13.548475 45784 net.cpp:380] concat1_13 -> concat1_13
I0210 11:10:13.548558 45784 net.cpp:122] Setting up concat1_13
I0210 11:10:13.548569 45784 net.cpp:129] Top shape: 1 320 37 50 (592000)
I0210 11:10:13.548575 45784 net.cpp:137] Memory required for data: 174076372
I0210 11:10:13.548581 45784 layer_factory.hpp:77] Creating layer concat1_13_concat1_13_0_split
I0210 11:10:13.548590 45784 net.cpp:84] Creating Layer concat1_13_concat1_13_0_split
I0210 11:10:13.548597 45784 net.cpp:406] concat1_13_concat1_13_0_split <- concat1_13
I0210 11:10:13.548606 45784 net.cpp:380] concat1_13_concat1_13_0_split -> concat1_13_concat1_13_0_split_0
I0210 11:10:13.548617 45784 net.cpp:380] concat1_13_concat1_13_0_split -> concat1_13_concat1_13_0_split_1
I0210 11:10:13.548740 45784 net.cpp:122] Setting up concat1_13_concat1_13_0_split
I0210 11:10:13.548750 45784 net.cpp:129] Top shape: 1 320 37 50 (592000)
I0210 11:10:13.548758 45784 net.cpp:129] Top shape: 1 320 37 50 (592000)
I0210 11:10:13.548763 45784 net.cpp:137] Memory required for data: 178812372
I0210 11:10:13.548769 45784 layer_factory.hpp:77] Creating layer conv1_14
I0210 11:10:13.548789 45784 net.cpp:84] Creating Layer conv1_14
I0210 11:10:13.548797 45784 net.cpp:406] conv1_14 <- concat1_13_concat1_13_0_split_0
I0210 11:10:13.548815 45784 net.cpp:380] conv1_14 -> conv1_14
I0210 11:10:13.555737 45784 net.cpp:122] Setting up conv1_14
I0210 11:10:13.555759 45784 net.cpp:129] Top shape: 1 12 37 50 (22200)
I0210 11:10:13.555765 45784 net.cpp:137] Memory required for data: 178901172
I0210 11:10:13.555776 45784 layer_factory.hpp:77] Creating layer relu1_14
I0210 11:10:13.555788 45784 net.cpp:84] Creating Layer relu1_14
I0210 11:10:13.555795 45784 net.cpp:406] relu1_14 <- conv1_14
I0210 11:10:13.555807 45784 net.cpp:367] relu1_14 -> conv1_14 (in-place)
I0210 11:10:13.557723 45784 net.cpp:122] Setting up relu1_14
I0210 11:10:13.557744 45784 net.cpp:129] Top shape: 1 12 37 50 (22200)
I0210 11:10:13.557750 45784 net.cpp:137] Memory required for data: 178989972
I0210 11:10:13.557757 45784 layer_factory.hpp:77] Creating layer concat1_14
I0210 11:10:13.557768 45784 net.cpp:84] Creating Layer concat1_14
I0210 11:10:13.557775 45784 net.cpp:406] concat1_14 <- concat1_13_concat1_13_0_split_1
I0210 11:10:13.557787 45784 net.cpp:406] concat1_14 <- conv1_14
I0210 11:10:13.557796 45784 net.cpp:380] concat1_14 -> concat1_14
I0210 11:10:13.557881 45784 net.cpp:122] Setting up concat1_14
I0210 11:10:13.557893 45784 net.cpp:129] Top shape: 1 332 37 50 (614200)
I0210 11:10:13.557898 45784 net.cpp:137] Memory required for data: 181446772
I0210 11:10:13.557902 45784 layer_factory.hpp:77] Creating layer concat1_14_concat1_14_0_split
I0210 11:10:13.557919 45784 net.cpp:84] Creating Layer concat1_14_concat1_14_0_split
I0210 11:10:13.557926 45784 net.cpp:406] concat1_14_concat1_14_0_split <- concat1_14
I0210 11:10:13.557934 45784 net.cpp:380] concat1_14_concat1_14_0_split -> concat1_14_concat1_14_0_split_0
I0210 11:10:13.557945 45784 net.cpp:380] concat1_14_concat1_14_0_split -> concat1_14_concat1_14_0_split_1
I0210 11:10:13.558061 45784 net.cpp:122] Setting up concat1_14_concat1_14_0_split
I0210 11:10:13.558070 45784 net.cpp:129] Top shape: 1 332 37 50 (614200)
I0210 11:10:13.558077 45784 net.cpp:129] Top shape: 1 332 37 50 (614200)
I0210 11:10:13.558084 45784 net.cpp:137] Memory required for data: 186360372
I0210 11:10:13.558089 45784 layer_factory.hpp:77] Creating layer conv1_15
I0210 11:10:13.558107 45784 net.cpp:84] Creating Layer conv1_15
I0210 11:10:13.558115 45784 net.cpp:406] conv1_15 <- concat1_14_concat1_14_0_split_0
I0210 11:10:13.558125 45784 net.cpp:380] conv1_15 -> conv1_15
I0210 11:10:13.564923 45784 net.cpp:122] Setting up conv1_15
I0210 11:10:13.564944 45784 net.cpp:129] Top shape: 1 12 37 50 (22200)
I0210 11:10:13.564950 45784 net.cpp:137] Memory required for data: 186449172
I0210 11:10:13.564960 45784 layer_factory.hpp:77] Creating layer relu1_15
I0210 11:10:13.564971 45784 net.cpp:84] Creating Layer relu1_15
I0210 11:10:13.564978 45784 net.cpp:406] relu1_15 <- conv1_15
I0210 11:10:13.564990 45784 net.cpp:367] relu1_15 -> conv1_15 (in-place)
I0210 11:10:13.565359 45784 net.cpp:122] Setting up relu1_15
I0210 11:10:13.565373 45784 net.cpp:129] Top shape: 1 12 37 50 (22200)
I0210 11:10:13.565382 45784 net.cpp:137] Memory required for data: 186537972
I0210 11:10:13.565387 45784 layer_factory.hpp:77] Creating layer concat1_15
I0210 11:10:13.565397 45784 net.cpp:84] Creating Layer concat1_15
I0210 11:10:13.565403 45784 net.cpp:406] concat1_15 <- concat1_14_concat1_14_0_split_1
I0210 11:10:13.565410 45784 net.cpp:406] concat1_15 <- conv1_15
I0210 11:10:13.565418 45784 net.cpp:380] concat1_15 -> concat1_15
I0210 11:10:13.565500 45784 net.cpp:122] Setting up concat1_15
I0210 11:10:13.565510 45784 net.cpp:129] Top shape: 1 344 37 50 (636400)
I0210 11:10:13.565515 45784 net.cpp:137] Memory required for data: 189083572
I0210 11:10:13.565520 45784 layer_factory.hpp:77] Creating layer concat1_15_concat1_15_0_split
I0210 11:10:13.565527 45784 net.cpp:84] Creating Layer concat1_15_concat1_15_0_split
I0210 11:10:13.565533 45784 net.cpp:406] concat1_15_concat1_15_0_split <- concat1_15
I0210 11:10:13.565541 45784 net.cpp:380] concat1_15_concat1_15_0_split -> concat1_15_concat1_15_0_split_0
I0210 11:10:13.565551 45784 net.cpp:380] concat1_15_concat1_15_0_split -> concat1_15_concat1_15_0_split_1
I0210 11:10:13.565659 45784 net.cpp:122] Setting up concat1_15_concat1_15_0_split
I0210 11:10:13.565670 45784 net.cpp:129] Top shape: 1 344 37 50 (636400)
I0210 11:10:13.565676 45784 net.cpp:129] Top shape: 1 344 37 50 (636400)
I0210 11:10:13.565681 45784 net.cpp:137] Memory required for data: 194174772
I0210 11:10:13.565686 45784 layer_factory.hpp:77] Creating layer conv1_16
I0210 11:10:13.565701 45784 net.cpp:84] Creating Layer conv1_16
I0210 11:10:13.565707 45784 net.cpp:406] conv1_16 <- concat1_15_concat1_15_0_split_0
I0210 11:10:13.565718 45784 net.cpp:380] conv1_16 -> conv1_16
I0210 11:10:13.572160 45784 net.cpp:122] Setting up conv1_16
I0210 11:10:13.572181 45784 net.cpp:129] Top shape: 1 12 37 50 (22200)
I0210 11:10:13.572187 45784 net.cpp:137] Memory required for data: 194263572
I0210 11:10:13.572197 45784 layer_factory.hpp:77] Creating layer relu1_16
I0210 11:10:13.572208 45784 net.cpp:84] Creating Layer relu1_16
I0210 11:10:13.572216 45784 net.cpp:406] relu1_16 <- conv1_16
I0210 11:10:13.572224 45784 net.cpp:367] relu1_16 -> conv1_16 (in-place)
I0210 11:10:13.572607 45784 net.cpp:122] Setting up relu1_16
I0210 11:10:13.572619 45784 net.cpp:129] Top shape: 1 12 37 50 (22200)
I0210 11:10:13.572625 45784 net.cpp:137] Memory required for data: 194352372
I0210 11:10:13.572638 45784 layer_factory.hpp:77] Creating layer concat1_16
I0210 11:10:13.572654 45784 net.cpp:84] Creating Layer concat1_16
I0210 11:10:13.572661 45784 net.cpp:406] concat1_16 <- concat1_15_concat1_15_0_split_1
I0210 11:10:13.572669 45784 net.cpp:406] concat1_16 <- conv1_16
I0210 11:10:13.572679 45784 net.cpp:380] concat1_16 -> concat1_16
I0210 11:10:13.572767 45784 net.cpp:122] Setting up concat1_16
I0210 11:10:13.572777 45784 net.cpp:129] Top shape: 1 356 37 50 (658600)
I0210 11:10:13.572782 45784 net.cpp:137] Memory required for data: 196986772
I0210 11:10:13.572788 45784 layer_factory.hpp:77] Creating layer concat1_16_concat1_16_0_split
I0210 11:10:13.572799 45784 net.cpp:84] Creating Layer concat1_16_concat1_16_0_split
I0210 11:10:13.572805 45784 net.cpp:406] concat1_16_concat1_16_0_split <- concat1_16
I0210 11:10:13.572813 45784 net.cpp:380] concat1_16_concat1_16_0_split -> concat1_16_concat1_16_0_split_0
I0210 11:10:13.572823 45784 net.cpp:380] concat1_16_concat1_16_0_split -> concat1_16_concat1_16_0_split_1
I0210 11:10:13.572927 45784 net.cpp:122] Setting up concat1_16_concat1_16_0_split
I0210 11:10:13.572937 45784 net.cpp:129] Top shape: 1 356 37 50 (658600)
I0210 11:10:13.572943 45784 net.cpp:129] Top shape: 1 356 37 50 (658600)
I0210 11:10:13.572948 45784 net.cpp:137] Memory required for data: 202255572
I0210 11:10:13.572953 45784 layer_factory.hpp:77] Creating layer conv1_17
I0210 11:10:13.572969 45784 net.cpp:84] Creating Layer conv1_17
I0210 11:10:13.572975 45784 net.cpp:406] conv1_17 <- concat1_16_concat1_16_0_split_0
I0210 11:10:13.572988 45784 net.cpp:380] conv1_17 -> conv1_17
I0210 11:10:13.579406 45784 net.cpp:122] Setting up conv1_17
I0210 11:10:13.579427 45784 net.cpp:129] Top shape: 1 12 37 50 (22200)
I0210 11:10:13.579432 45784 net.cpp:137] Memory required for data: 202344372
I0210 11:10:13.579442 45784 layer_factory.hpp:77] Creating layer relu1_17
I0210 11:10:13.579455 45784 net.cpp:84] Creating Layer relu1_17
I0210 11:10:13.579461 45784 net.cpp:406] relu1_17 <- conv1_17
I0210 11:10:13.579469 45784 net.cpp:367] relu1_17 -> conv1_17 (in-place)
I0210 11:10:13.579833 45784 net.cpp:122] Setting up relu1_17
I0210 11:10:13.579844 45784 net.cpp:129] Top shape: 1 12 37 50 (22200)
I0210 11:10:13.579849 45784 net.cpp:137] Memory required for data: 202433172
I0210 11:10:13.579854 45784 layer_factory.hpp:77] Creating layer concat1_17
I0210 11:10:13.579866 45784 net.cpp:84] Creating Layer concat1_17
I0210 11:10:13.579872 45784 net.cpp:406] concat1_17 <- concat1_16_concat1_16_0_split_1
I0210 11:10:13.579879 45784 net.cpp:406] concat1_17 <- conv1_17
I0210 11:10:13.579890 45784 net.cpp:380] concat1_17 -> concat1_17
I0210 11:10:13.579963 45784 net.cpp:122] Setting up concat1_17
I0210 11:10:13.579972 45784 net.cpp:129] Top shape: 1 368 37 50 (680800)
I0210 11:10:13.579977 45784 net.cpp:137] Memory required for data: 205156372
I0210 11:10:13.579982 45784 layer_factory.hpp:77] Creating layer concat1_17_concat1_17_0_split
I0210 11:10:13.579990 45784 net.cpp:84] Creating Layer concat1_17_concat1_17_0_split
I0210 11:10:13.579995 45784 net.cpp:406] concat1_17_concat1_17_0_split <- concat1_17
I0210 11:10:13.580006 45784 net.cpp:380] concat1_17_concat1_17_0_split -> concat1_17_concat1_17_0_split_0
I0210 11:10:13.580015 45784 net.cpp:380] concat1_17_concat1_17_0_split -> concat1_17_concat1_17_0_split_1
I0210 11:10:13.580116 45784 net.cpp:122] Setting up concat1_17_concat1_17_0_split
I0210 11:10:13.580124 45784 net.cpp:129] Top shape: 1 368 37 50 (680800)
I0210 11:10:13.580130 45784 net.cpp:129] Top shape: 1 368 37 50 (680800)
I0210 11:10:13.580135 45784 net.cpp:137] Memory required for data: 210602772
I0210 11:10:13.580140 45784 layer_factory.hpp:77] Creating layer conv1_18
I0210 11:10:13.580157 45784 net.cpp:84] Creating Layer conv1_18
I0210 11:10:13.580163 45784 net.cpp:406] conv1_18 <- concat1_17_concat1_17_0_split_0
I0210 11:10:13.580173 45784 net.cpp:380] conv1_18 -> conv1_18
I0210 11:10:13.586381 45784 net.cpp:122] Setting up conv1_18
I0210 11:10:13.586402 45784 net.cpp:129] Top shape: 1 12 37 50 (22200)
I0210 11:10:13.586407 45784 net.cpp:137] Memory required for data: 210691572
I0210 11:10:13.586422 45784 layer_factory.hpp:77] Creating layer relu1_18
I0210 11:10:13.586439 45784 net.cpp:84] Creating Layer relu1_18
I0210 11:10:13.586447 45784 net.cpp:406] relu1_18 <- conv1_18
I0210 11:10:13.586454 45784 net.cpp:367] relu1_18 -> conv1_18 (in-place)
I0210 11:10:13.588153 45784 net.cpp:122] Setting up relu1_18
I0210 11:10:13.588172 45784 net.cpp:129] Top shape: 1 12 37 50 (22200)
I0210 11:10:13.588177 45784 net.cpp:137] Memory required for data: 210780372
I0210 11:10:13.588183 45784 layer_factory.hpp:77] Creating layer concat1_18
I0210 11:10:13.588196 45784 net.cpp:84] Creating Layer concat1_18
I0210 11:10:13.588202 45784 net.cpp:406] concat1_18 <- concat1_17_concat1_17_0_split_1
I0210 11:10:13.588210 45784 net.cpp:406] concat1_18 <- conv1_18
I0210 11:10:13.588218 45784 net.cpp:380] concat1_18 -> concat1_18
I0210 11:10:13.588297 45784 net.cpp:122] Setting up concat1_18
I0210 11:10:13.588310 45784 net.cpp:129] Top shape: 1 380 37 50 (703000)
I0210 11:10:13.588313 45784 net.cpp:137] Memory required for data: 213592372
I0210 11:10:13.588318 45784 layer_factory.hpp:77] Creating layer concat1_18_concat1_18_0_split
I0210 11:10:13.588326 45784 net.cpp:84] Creating Layer concat1_18_concat1_18_0_split
I0210 11:10:13.588332 45784 net.cpp:406] concat1_18_concat1_18_0_split <- concat1_18
I0210 11:10:13.588340 45784 net.cpp:380] concat1_18_concat1_18_0_split -> concat1_18_concat1_18_0_split_0
I0210 11:10:13.588348 45784 net.cpp:380] concat1_18_concat1_18_0_split -> concat1_18_concat1_18_0_split_1
I0210 11:10:13.588451 45784 net.cpp:122] Setting up concat1_18_concat1_18_0_split
I0210 11:10:13.588460 45784 net.cpp:129] Top shape: 1 380 37 50 (703000)
I0210 11:10:13.588466 45784 net.cpp:129] Top shape: 1 380 37 50 (703000)
I0210 11:10:13.588470 45784 net.cpp:137] Memory required for data: 219216372
I0210 11:10:13.588475 45784 layer_factory.hpp:77] Creating layer conv1_19
I0210 11:10:13.588492 45784 net.cpp:84] Creating Layer conv1_19
I0210 11:10:13.588498 45784 net.cpp:406] conv1_19 <- concat1_18_concat1_18_0_split_0
I0210 11:10:13.588510 45784 net.cpp:380] conv1_19 -> conv1_19
I0210 11:10:13.595829 45784 net.cpp:122] Setting up conv1_19
I0210 11:10:13.595850 45784 net.cpp:129] Top shape: 1 12 37 50 (22200)
I0210 11:10:13.595856 45784 net.cpp:137] Memory required for data: 219305172
I0210 11:10:13.595866 45784 layer_factory.hpp:77] Creating layer relu1_19
I0210 11:10:13.595875 45784 net.cpp:84] Creating Layer relu1_19
I0210 11:10:13.595882 45784 net.cpp:406] relu1_19 <- conv1_19
I0210 11:10:13.595892 45784 net.cpp:367] relu1_19 -> conv1_19 (in-place)
I0210 11:10:13.596233 45784 net.cpp:122] Setting up relu1_19
I0210 11:10:13.596246 45784 net.cpp:129] Top shape: 1 12 37 50 (22200)
I0210 11:10:13.596251 45784 net.cpp:137] Memory required for data: 219393972
I0210 11:10:13.596256 45784 layer_factory.hpp:77] Creating layer concat1_19
I0210 11:10:13.596266 45784 net.cpp:84] Creating Layer concat1_19
I0210 11:10:13.596271 45784 net.cpp:406] concat1_19 <- concat1_18_concat1_18_0_split_1
I0210 11:10:13.596277 45784 net.cpp:406] concat1_19 <- conv1_19
I0210 11:10:13.596287 45784 net.cpp:380] concat1_19 -> concat1_19
I0210 11:10:13.596360 45784 net.cpp:122] Setting up concat1_19
I0210 11:10:13.596369 45784 net.cpp:129] Top shape: 1 392 37 50 (725200)
I0210 11:10:13.596374 45784 net.cpp:137] Memory required for data: 222294772
I0210 11:10:13.596379 45784 layer_factory.hpp:77] Creating layer tpp5
I0210 11:10:13.596391 45784 net.cpp:84] Creating Layer tpp5
I0210 11:10:13.596396 45784 net.cpp:406] tpp5 <- concat1_19
I0210 11:10:13.596403 45784 net.cpp:380] tpp5 -> tpp5
I0210 11:10:13.597654 45784 net.cpp:122] Setting up tpp5
I0210 11:10:13.597669 45784 net.cpp:129] Top shape: 1 5880 (5880)
I0210 11:10:13.597674 45784 net.cpp:137] Memory required for data: 222318292
I0210 11:10:13.597679 45784 layer_factory.hpp:77] Creating layer fc6_d
I0210 11:10:13.597699 45784 net.cpp:84] Creating Layer fc6_d
I0210 11:10:13.597705 45784 net.cpp:406] fc6_d <- tpp5
I0210 11:10:13.597714 45784 net.cpp:380] fc6_d -> fc6_d
I0210 11:10:14.414320 45784 net.cpp:122] Setting up fc6_d
I0210 11:10:14.414366 45784 net.cpp:129] Top shape: 1 4096 (4096)
I0210 11:10:14.414369 45784 net.cpp:137] Memory required for data: 222334676
I0210 11:10:14.414388 45784 layer_factory.hpp:77] Creating layer relu6
I0210 11:10:14.414400 45784 net.cpp:84] Creating Layer relu6
I0210 11:10:14.414408 45784 net.cpp:406] relu6 <- fc6_d
I0210 11:10:14.414415 45784 net.cpp:367] relu6 -> fc6_d (in-place)
I0210 11:10:14.414737 45784 net.cpp:122] Setting up relu6
I0210 11:10:14.414747 45784 net.cpp:129] Top shape: 1 4096 (4096)
I0210 11:10:14.414750 45784 net.cpp:137] Memory required for data: 222351060
I0210 11:10:14.414753 45784 layer_factory.hpp:77] Creating layer drop6
I0210 11:10:14.414763 45784 net.cpp:84] Creating Layer drop6
I0210 11:10:14.414767 45784 net.cpp:406] drop6 <- fc6_d
I0210 11:10:14.414772 45784 net.cpp:367] drop6 -> fc6_d (in-place)
I0210 11:10:14.414818 45784 net.cpp:122] Setting up drop6
I0210 11:10:14.414822 45784 net.cpp:129] Top shape: 1 4096 (4096)
I0210 11:10:14.414825 45784 net.cpp:137] Memory required for data: 222367444
I0210 11:10:14.414829 45784 layer_factory.hpp:77] Creating layer fc7_d
I0210 11:10:14.414836 45784 net.cpp:84] Creating Layer fc7_d
I0210 11:10:14.414839 45784 net.cpp:406] fc7_d <- fc6_d
I0210 11:10:14.414845 45784 net.cpp:380] fc7_d -> fc7_d
I0210 11:10:14.890619 45784 net.cpp:122] Setting up fc7_d
I0210 11:10:14.890662 45784 net.cpp:129] Top shape: 1 4096 (4096)
I0210 11:10:14.890666 45784 net.cpp:137] Memory required for data: 222383828
I0210 11:10:14.890677 45784 layer_factory.hpp:77] Creating layer relu7
I0210 11:10:14.890692 45784 net.cpp:84] Creating Layer relu7
I0210 11:10:14.890699 45784 net.cpp:406] relu7 <- fc7_d
I0210 11:10:14.890705 45784 net.cpp:367] relu7 -> fc7_d (in-place)
I0210 11:10:14.892138 45784 net.cpp:122] Setting up relu7
I0210 11:10:14.892151 45784 net.cpp:129] Top shape: 1 4096 (4096)
I0210 11:10:14.892154 45784 net.cpp:137] Memory required for data: 222400212
I0210 11:10:14.892158 45784 layer_factory.hpp:77] Creating layer drop7
I0210 11:10:14.892170 45784 net.cpp:84] Creating Layer drop7
I0210 11:10:14.892174 45784 net.cpp:406] drop7 <- fc7_d
I0210 11:10:14.892180 45784 net.cpp:367] drop7 -> fc7_d (in-place)
I0210 11:10:14.892228 45784 net.cpp:122] Setting up drop7
I0210 11:10:14.892233 45784 net.cpp:129] Top shape: 1 4096 (4096)
I0210 11:10:14.892236 45784 net.cpp:137] Memory required for data: 222416596
I0210 11:10:14.892240 45784 layer_factory.hpp:77] Creating layer fc8_d
I0210 11:10:14.892247 45784 net.cpp:84] Creating Layer fc8_d
I0210 11:10:14.892251 45784 net.cpp:406] fc8_d <- fc7_d
I0210 11:10:14.892256 45784 net.cpp:380] fc8_d -> fc8_d
I0210 11:10:14.962749 45784 net.cpp:122] Setting up fc8_d
I0210 11:10:14.962762 45784 net.cpp:129] Top shape: 1 618 (618)
I0210 11:10:14.962765 45784 net.cpp:137] Memory required for data: 222419068
I0210 11:10:14.962771 45784 layer_factory.hpp:77] Creating layer loss
I0210 11:10:14.962786 45784 net.cpp:84] Creating Layer loss
I0210 11:10:14.962790 45784 net.cpp:406] loss <- fc8_d
I0210 11:10:14.962793 45784 net.cpp:406] loss <- phocs
I0210 11:10:14.962798 45784 net.cpp:380] loss -> loss
I0210 11:10:14.962867 45784 net.cpp:122] Setting up loss
…
  phase: TEST
}
layer {
  name: "word_images"
  type: "Data"
  top: "word_images"
  top: "label"
  transform_param {
    scale: -0.0039215689
    mean_value: 255
  }
  data_param {
    source: "/data/fwolf/iam_50000/iam-db_nti500000_pul2-3-4-5_test_word_images_lmdb"
    batch_size: 1
    backend: LMDB
    prefetch: 20
  }
}
layer {
  name: "phocs"
  type: "Data"
  top: "phocs"
  top: "label_phocs"
  data_param {
    source: "/data/fwolf/iam_50000/iam-db_nti500000_pul2-3-4-5_test_phocs_lmdb"
    batch_size: 1
    backend: LMDB
    prefetch: 20
  }
}
layer {
  name: "conv_init"
  type: "Convolution"
  bottom: "word_images"
  top: "conv_init"
  convolution_param {
    num_output: 32
    bias_term: false
    pad: 1
    kernel_size: 3
    stride: 1
    weight_filler {
      type: "msra"
    }
    bias_filler {
      type: "constant"
    }
    engine: CUDNN
  }
}
layer {
  name: "relu_init"
  type: "ReLU"
  bottom: "conv_init"
  top: "conv_init"
}
layer {
  name: "pool_init"
  type: "Pooling"
  bottom: "conv_init"
  top: "pool_init"
  pooling_param {
    pool: MAX
    kernel_size: 3
    stride: 2
    pad: 1
  }
}
layer {
  name: "conv0_0"
  type: "Convolution"
  bottom: "pool_init"
  top: "conv0_0"
  convolution_param {
    num_output: 12
    bias_term: false
    pad: 1
    kernel_size: 3
    stride: 1
    weight_filler {
      type: "msra"
    }
    bias_filler {
      type: "constant"
    }
    engine: CUDNN
  }
}
layer {
  name: "relu0_0"
  type: "ReLU"
  bottom: "conv0_0"
  top: "conv0_0"
}
layer {
  name: "concat0_0"
  type: "Concat"
  bottom: "pool_init"
  bottom: "conv0_0"
  top: "concat0_0"
  concat_param {
    axis: 1
  }
}
layer {
  name: "conv0_1"
  type: "Convolution"
  bottom: "concat0_0"
  top: "conv0_1"
  convolution_param {
    num_output: 12
    bias_term: false
    pad: 1
    kernel_size: 3
    stride: 1
    weight_filler {
      type: "msra"
    }
    bias_filler {
      type: "constant"
    }
    engine: CUDNN
  }
}
layer {
  name: "relu0_1"
  type: "ReLU"
  bottom: "conv0_1"
  top: "conv0_1"
}
layer {
  name: "concat0_1"
  type: "Concat"
  bottom: "concat0_0"
  bottom: "conv0_1"
  top: "concat0_1"
  concat_param {
    axis: 1
  }
}
layer {
  name: "conv0_2"
  type: "Convolution"
  bottom: "concat0_1"
  top: "conv0_2"
  convolution_param {
    num_output: 12
    bias_term: false
    pad: 1
    kernel_size: 3
    stride: 1
    weight_filler {
      type: "msra"
    }
    bias_filler {
      type: "constant"
    }
    engine: CUDNN
  }
}
layer {
  name: "relu0_2"
  type: "ReLU"
  bottom: "conv0_2"
  top: "conv0_2"
}
layer {
  name: "concat0_2"
  type: "Concat"
  bottom: "concat0_1"
  bottom: "conv0_2"
  top: "concat0_2"
  concat_param {
    axis: 1
  }
}
layer {
  name: "conv0_3"
  type: "Convolution"
  bottom: "concat0_2"
  top: "conv0_3"
  convolution_param {
    num_output: 12
    bias_term: false
    pad: 1
    kernel_size: 3
    stride: 1
    weight_filler {
      type: "msra"
    }
    bias_filler {
      type: "constant"
    }
    engine: CUDNN
  }
}
layer {
  name: "relu0_3"
  type: "ReLU"
  bottom: "conv0_3"
  top: "conv0_3"
}
layer {
  name: "concat0_3"
  type: "Concat"
  bottom: "concat0_2"
  bottom: "conv0_3"
  top: "concat0_3"
  concat_param {
    axis: 1
  }
}
layer {
  name: "conv0_4"
  type: "Convolution"
  bottom: "concat0_3"
  top: "conv0_4"
  convolution_param {
    num_output: 12
    bias_term: false
    pad: 1
    kernel_size: 3
    stride: 1
    weight_filler {
      type: "msra"
    }
    bias_filler {
      type: "constant"
    }
    engine: CUDNN
  }
}
layer {
  name: "relu0_4"
  type: "ReLU"
  bottom: "conv0_4"
  top: "conv0_4"
}
layer {
  name: "concat0_4"
  type: "Concat"
  bottom: "concat0_3"
  bottom: "conv0_4"
  top: "concat0_4"
  concat_param {
    axis: 1
  }
}
layer {
  name: "conv0_5"
  type: "Convolution"
  bottom: "concat0_4"
  top: "conv0_5"
  convolution_param {
    num_output: 12
    bias_term: false
    pad: 1
    kernel_size: 3
    stride: 1
    weight_filler {
      type: "msra"
    }
    bias_filler {
      type: "constant"
    }
    engine: CUDNN
  }
}
layer {
  name: "relu0_5"
  type: "ReLU"
  bottom: "conv0_5"
  top: "conv0_5"
}
layer {
  name: "concat0_5"
  type: "Concat"
  bottom: "concat0_4"
  bottom: "conv0_5"
  top: "concat0_5"
  concat_param {
    axis: 1
  }
}
layer {
  name: "conv0_6"
  type: "Convolution"
  bottom: "concat0_5"
  top: "conv0_6"
  convolution_param {
    num_output: 12
    bias_term: false
    pad: 1
    kernel_size: 3
    stride: 1
    weight_filler {
      type: "msra"
    }
    bias_filler {
      type: "constant"
    }
    engine: CUDNN
  }
}
layer {
  name: "relu0_6"
  type: "ReLU"
  bottom: "conv0_6"
  top: "conv0_6"
}
layer {
  name: "concat0_6"
  type: "Concat"
  bottom: "concat0_5"
  bottom: "conv0_6"
  top: "concat0_6"
  concat_param {
    axis: 1
  }
}
layer {
  name: "conv0_7"
  type: "Convolution"
  bottom: "concat0_6"
  top: "conv0_7"
  convolution_param {
    num_output: 12
    bias_term: false
    pad: 1
    kernel_size: 3
    stride: 1
    weight_filler {
      type: "msra"
    }
    bias_filler {
      type: "constant"
    }
    engine: CUDNN
  }
}
layer {
  name: "relu0_7"
  type: "ReLU"
  bottom: "conv0_7"
  top: "conv0_7"
}
layer {
  name: "concat0_7"
  type: "Concat"
  bottom: "concat0_6"
  bottom: "conv0_7"
  top: "concat0_7"
  concat_param {
    axis: 1
  }
}
layer {
  name: "conv0_8"
  type: "Convolution"
  bottom: "concat0_7"
  top: "conv0_8"
  convolution_param {
    num_output: 12
    bias_term: false
    pad: 1
    kernel_size: 3
    stride: 1
    weight_filler {
      type: "msra"
    }
    bias_filler {
      type: "constant"
    }
    engine: CUDNN
  }
}
layer {
  name: "relu0_8"
  type: "ReLU"
  bottom: "conv0_8"
  top: "conv0_8"
}
layer {
  name: "concat0_8"
  type: "Concat"
  bottom: "concat0_7"
  bottom: "conv0_8"
  top: "concat0_8"
  concat_param {
    axis: 1
  }
}
layer {
  name: "conv0_9"
  type: "Convolution"
  bottom: "concat0_8"
  top: "conv0_9"
  convolution_param {
    num_output: 12
    bias_term: false
    pad: 1
    kernel_size: 3
    stride: 1
    weight_filler {
      type: "msra"
    }
    bias_filler {
      type: "constant"
    }
    engine: CUDNN
  }
}
layer {
  name: "relu0_9"
  type: "ReLU"
  bottom: "conv0_9"
  top: "conv0_9"
}
layer {
  name: "concat0_9"
  type: "Concat"
  bottom: "concat0_8"
  bottom: "conv0_9"
  top: "concat0_9"
  concat_param {
    axis: 1
  }
}
layer {
  name: "conv0_blk"
  type: "Convolution"
  bottom: "concat0_9"
  top: "conv0_blk"
  convolution_param {
    num_output: 152
    bias_term: false
    pad: 0
    kernel_size: 1
    stride: 1
    weight_filler {
      type: "msra"
    }
    bias_filler {
      type: "constant"
    }
    engine: CUDNN
  }
}
layer {
  name: "pool0"
  type: "Pooling"
  bottom: "conv0_blk"
  top: "pool0"
  pooling_param {
    pool: AVE
    kernel_size: 2
    stride: 2
  }
}
layer {
  name: "conv1_0"
  type: "Convolution"
  bottom: "pool0"
  top: "conv1_0"
  convolution_param {
    num_output: 12
    bias_term: false
    pad: 1
    kernel_size: 3
    stride: 1
    weight_filler {
      type: "msra"
    }
    bias_filler {
      type: "constant"
    }
    engine: CUDNN
  }
}
layer {
  name: "relu1_0"
  type: "ReLU"
  bottom: "conv1_0"
  top: "conv1_0"
}
layer {
  name: "concat1_0"
  type: "Concat"
  bottom: "pool0"
  bottom: "conv1_0"
  top: "concat1_0"
  concat_param {
    axis: 1
  }
}
layer {
  name: "conv1_1"
  type: "Convolution"
  bottom: "concat1_0"
  top: "conv1_1"
  convolution_param {
    num_output: 12
    bias_term: false
    pad: 1
    kernel_size: 3
    stride: 1
    weight_filler {
      type: "msra"
    }
    bias_filler {
      type: "constant"
    }
    engine: CUDNN
  }
}
layer {
  name: "relu1_1"
  type: "ReLU"
  bottom: "conv1_1"
  top: "conv1_1"
}
layer {
  name: "concat1_1"
  type: "Concat"
  bottom: "concat1_0"
  bottom: "conv1_1"
  top: "concat1_1"
  concat_param {
    axis: 1
  }
}
layer {
  name: "conv1_2"
  type: "Convolution"
  bottom: "concat1_1"
  top: "conv1_2"
  convolution_param {
    num_output: 12
    bias_term: false
    pad: 1
    kernel_size: 3
    stride: 1
    weight_filler {
      type: "msra"
    }
    bias_filler {
      type: "constant"
    }
    engine: CUDNN
  }
}
layer {
  name: "relu1_2"
  type: "ReLU"
  bottom: "conv1_2"
  top: "conv1_2"
}
layer {
  name: "concat1_2"
  type: "Concat"
  bottom: "concat1_1"
  bottom: "conv1_2"
  top: "concat1_2"
  concat_param {
    axis: 1
  }
}
layer {
  name: "conv1_3"
  type: "Convolution"
  bottom: "concat1_2"
  top: "conv1_3"
  convolution_param {
    num_output: 12
    bias_term: false
    pad: 1
    kernel_size: 3
    stride: 1
    weight_filler {
      type: "msra"
    }
    bias_filler {
      type: "constant"
    }
    engine: CUDNN
  }
}
layer {
  name: "relu1_3"
  type: "ReLU"
  bottom: "conv1_3"
  top: "conv1_3"
}
layer {
  name: "concat1_3"
  type: "Concat"
  bottom: "concat1_2"
  bottom: "conv1_3"
  top: "concat1_3"
  concat_param {
    axis: 1
  }
}
layer {
  name: "conv1_4"
  type: "Convolution"
  bottom: "concat1_3"
  top: "conv1_4"
  convolution_param {
    num_output: 12
    bias_term: false
    pad: 1
    kernel_size: 3
    stride: 1
    weight_filler {
      type: "msra"
    }
    bias_filler {
      type: "constant"
    }
    engine: CUDNN
  }
}
layer {
  name: "relu1_4"
  type: "ReLU"
  bottom: "conv1_4"
  top: "conv1_4"
}
layer {
  name: "concat1_4"
  type: "Concat"
  bottom: "concat1_3"
  bottom: "conv1_4"
  top: "concat1_4"
  concat_param {
    axis: 1
  }
}
layer {
  name: "conv1_5"
  type: "Convolution"
  bottom: "concat1_4"
  top: "conv1_5"
  convolution_param {
    num_output: 12
    bias_term: false
    pad: 1
    kernel_size: 3
    stride: 1
    weight_filler {
      type: "msra"
    }
    bias_filler {
      type: "constant"
    }
    engine: CUDNN
  }
}
layer {
  name: "relu1_5"
  type: "ReLU"
  bottom: "conv1_5"
  top: "conv1_5"
}
layer {
  name: "concat1_5"
  type: "Concat"
  bottom: "concat1_4"
  bottom: "conv1_5"
  top: "concat1_5"
  concat_param {
    axis: 1
  }
}
layer {
  name: "conv1_6"
  type: "Convolution"
  bottom: "concat1_5"
  top: "conv1_6"
  convolution_param {
    num_output: 12
    bias_term: false
    pad: 1
    kernel_size: 3
    stride: 1
    weight_filler {
      type: "msra"
    }
    bias_filler {
      type: "constant"
    }
    engine: CUDNN
  }
}
layer {
  name: "relu1_6"
  type: "ReLU"
  bottom: "conv1_6"
  top: "conv1_6"
}
layer {
  name: "concat1_6"
  type: "Concat"
  bottom: "concat1_5"
  bottom: "conv1_6"
  top: "concat1_6"
  concat_param {
    axis: 1
  }
}
layer {
  name: "conv1_7"
  type: "Convolution"
  bottom: "concat1_6"
  top: "conv1_7"
  convolution_param {
    num_output: 12
    bias_term: false
    pad: 1
    kernel_size: 3
    stride: 1
    weight_filler {
      type: "msra"
    }
    bias_filler {
      type: "constant"
    }
    engine: CUDNN
  }
}
layer {
  name: "relu1_7"
  type: "ReLU"
  bottom: "conv1_7"
  top: "conv1_7"
}
layer {
  name: "concat1_7"
  type: "Concat"
  bottom: "concat1_6"
  bottom: "conv1_7"
  top: "concat1_7"
  concat_param {
    axis: 1
  }
}
layer {
  name: "conv1_8"
  type: "Convolution"
  bottom: "concat1_7"
  top: "conv1_8"
  convolution_param {
    num_output: 12
    bias_term: false
    pad: 1
    kernel_size: 3
    stride: 1
    weight_filler {
      type: "msra"
    }
    bias_filler {
      type: "constant"
    }
    engine: CUDNN
  }
}
layer {
  name: "relu1_8"
  type: "ReLU"
  bottom: "conv1_8"
  top: "conv1_8"
}
layer {
  name: "concat1_8"
  type: "Concat"
  bottom: "concat1_7"
  bottom: "conv1_8"
  top: "concat1_8"
  concat_param {
    axis: 1
  }
}
layer {
  name: "conv1_9"
  type: "Convolution"
  bottom: "concat1_8"
  top: "conv1_9"
  convolution_param {
    num_output: 12
    bias_term: false
    pad: 1
    kernel_size: 3
    stride: 1
    weight_filler {
      type: "msra"
    }
    bias_filler {
      type: "constant"
    }
    engine: CUDNN
  }
}
layer {
  name: "relu1_9"
  type: "ReLU"
  bottom: "conv1_9"
  top: "conv1_9"
}
layer {
  name: "concat1_9"
  type: "Concat"
  bottom: "concat1_8"
  bottom: "conv1_9"
  top: "concat1_9"
  concat_param {
    axis: 1
  }
}
layer {
  name: "conv1_10"
  type: "Convolution"
  bottom: "concat1_9"
  top: "conv1_10"
  convolution_param {
    num_output: 12
    bias_term: false
    pad: 1
    kernel_size: 3
    stride: 1
    weight_filler {
      type: "msra"
    }
    bias_filler {
      type: "constant"
    }
    engine: CUDNN
  }
}
layer {
  name: "relu1_10"
  type: "ReLU"
  bottom: "conv1_10"
  top: "conv1_10"
}
layer {
  name: "concat1_10"
  type: "Concat"
  bottom: "concat1_9"
  bottom: "conv1_10"
  top: "concat1_10"
  concat_param {
    axis: 1
  }
}
layer {
  name: "conv1_11"
  type: "Convolution"
  bottom: "concat1_10"
  top: "conv1_11"
  convolution_param {
    num_output: 12
    bias_term: false
    pad: 1
    kernel_size: 3
    stride: 1
    weight_filler {
      type: "msra"
    }
    bias_filler {
      type: "constant"
    }
    engine: CUDNN
  }
}
layer {
  name: "relu1_11"
  type: "ReLU"
  bottom: "conv1_11"
  top: "conv1_11"
}
layer {
  name: "concat1_11"
  type: "Concat"
  bottom: "concat1_10"
  bottom: "conv1_11"
  top: "concat1_11"
  concat_param {
    axis: 1
  }
}
layer {
  name: "conv1_12"
  type: "Convolution"
  bottom: "concat1_11"
  top: "conv1_12"
  convolution_param {
    num_output: 12
    bias_term: false
    pad: 1
    kernel_size: 3
    stride: 1
    weight_filler {
      type: "msra"
    }
    bias_filler {
      type: "constant"
    }
    engine: CUDNN
  }
}
layer {
  name: "relu1_12"
  type: "ReLU"
  bottom: "conv1_12"
  top: "conv1_12"
}
layer {
  name: "concat1_12"
  type: "Concat"
  bottom: "concat1_11"
  bottom: "conv1_12"
  top: "concat1_12"
  concat_param {
    axis: 1
  }
}
layer {
  name: "conv1_13"
  type: "Convolution"
  bottom: "concat1_12"
  top: "conv1_13"
  convolution_param {
    num_output: 12
    bias_term: false
    pad: 1
    kernel_size: 3
    stride: 1
    weight_filler {
      type: "msra"
    }
    bias_filler {
      type: "constant"
    }
    engine: CUDNN
  }
}
layer {
  name: "relu1_13"
  type: "ReLU"
  bottom: "conv1_13"
  top: "conv1_13"
}
layer {
  name: "concat1_13"
  type: "Concat"
  bottom: "concat1_12"
  bottom: "conv1_13"
  top: "concat1_13"
  concat_param {
    axis: 1
  }
}
layer {
  name: "conv1_14"
  type: "Convolution"
  bottom: "concat1_13"
  top: "conv1_14"
  convolution_param {
    num_output: 12
    bias_term: false
    pad: 1
    kernel_size: 3
    stride: 1
    weight_filler {
      type: "msra"
    }
    bias_filler {
      type: "constant"
    }
    engine: CUDNN
  }
}
layer {
  name: "relu1_14"
  type: "ReLU"
  bottom: "conv1_14"
  top: "conv1_14"
}
layer {
  name: "concat1_14"
  type: "Concat"
  bottom: "concat1_13"
  bottom: "conv1_14"
  top: "concat1_14"
  concat_param {
    axis: 1
  }
}
layer {
  name: "conv1_15"
  type: "Convolution"
  bottom: "concat1_14"
  top: "conv1_15"
  convolution_param {
    num_output: 12
    bias_term: false
    pad: 1
    kernel_size: 3
    stride: 1
    weight_filler {
      type: "msra"
    }
    bias_filler {
      type: "constant"
    }
    engine: CUDNN
  }
}
layer {
  name: "relu1_15"
  type: "ReLU"
  bottom: "conv1_15"
  top: "conv1_15"
}
layer {
  name: "concat1_15"
  type: "Concat"
  bottom: "concat1_14"
  bottom: "conv1_15"
  top: "concat1_15"
  concat_param {
    axis: 1
  }
}
layer {
  name: "conv1_16"
  type: "Convolution"
  bottom: "concat1_15"
  top: "conv1_16"
  convolution_param {
    num_output: 12
    bias_term: false
    pad: 1
    kernel_size: 3
    stride: 1
    weight_filler {
      type: "msra"
    }
    bias_filler {
      type: "constant"
    }
    engine: CUDNN
  }
}
layer {
  name: "relu1_16"
  type: "ReLU"
  bottom: "conv1_16"
  top: "conv1_16"
}
layer {
  name: "concat1_16"
  type: "Concat"
  bottom: "concat1_15"
  bottom: "conv1_16"
  top: "concat1_16"
  concat_param {
    axis: 1
  }
}
layer {
  name: "conv1_17"
  type: "Convolution"
  bottom: "concat1_16"
  top: "conv1_17"
  convolution_param {
    num_output: 12
    bias_term: false
    pad: 1
    kernel_size: 3
    stride: 1
    weight_filler {
      type: "msra"
    }
    bias_filler {
      type: "constant"
    }
    engine: CUDNN
  }
}
layer {
  name: "relu1_17"
  type: "ReLU"
  bottom: "conv1_17"
  top: "conv1_17"
}
layer {
  name: "concat1_17"
  type: "Concat"
  bottom: "concat1_16"
  bottom: "conv1_17"
  top: "concat1_17"
  concat_param {
    axis: 1
  }
}
layer {
  name: "conv1_18"
  type: "Convolution"
  bottom: "concat1_17"
  top: "conv1_18"
  convolution_param {
    num_output: 12
    bias_term: false
    pad: 1
    kernel_size: 3
    stride: 1
    weight_filler {
      type: "msra"
    }
    bias_filler {
      type: "constant"
    }
    engine: CUDNN
  }
}
layer {
  name: "relu1_18"
  type: "ReLU"
  bottom: "conv1_18"
  top: "conv1_18"
}
layer {
  name: "concat1_18"
  type: "Concat"
  bottom: "concat1_17"
  bottom: "conv1_18"
  top: "concat1_18"
  concat_param {
    axis: 1
  }
}
layer {
  name: "conv1_19"
  type: "Convolution"
  bottom: "concat1_18"
  top: "conv1_19"
  convolution_param {
    num_output: 12
    bias_term: false
    pad: 1
    kernel_size: 3
    stride: 1
    weight_filler {
      type: "msra"
    }
    bias_filler {
      type: "constant"
    }
    engine: CUDNN
  }
}
layer {
  name: "relu1_19"
  type: "ReLU"
  bottom: "conv1_19"
  top: "conv1_19"
}
layer {
  name: "concat1_19"
  type: "Concat"
  bottom: "concat1_18"
  bottom: "conv1_19"
  top: "concat1_19"
  concat_param {
    axis: 1
  }
}
layer {
  name: "tpp5"
  type: "TPP"
  bottom: "concat1_19"
  top: "tpp5"
  tpp_param {
    pyramid_layer: 1
    pyramid_layer: 2
    pyramid_layer: 3
    pyramid_layer: 4
    pyramid_layer: 5
    pool: MAX
    engine: CUDNN
  }
}
layer {
  name: "fc6_d"
  type: "InnerProduct"
  bottom: "tpp5"
  top: "fc6_d"
  inner_product_param {
    num_output: 4096
    weight_filler {
      type: "msra"
    }
    bias_filler {
      type: "constant"
    }
  }
}
layer {
  name: "relu6"
  type: "ReLU"
  bottom: "fc6_d"
  top: "fc6_d"
}
layer {
  name: "fc7_d"
  type: "InnerProduct"
  bottom: "fc6_d"
  top: "fc7_d"
  inner_product_param {
    num_output: 4096
    weight_filler {
      type: "msra"
    }
    bias_filler {
      type: "constant"
    }
  }
}
layer {
  name: "relu7"
  type: "ReLU"
  bottom: "fc7_d"
  top: "fc7_d"
}
layer {
  name: "fc8_d"
  type: "InnerProduct"
  bottom: "fc7_d"
  top: "fc8_d"
  inner_product_param {
    num_output: 618
    weight_filler {
      type: "msra"
    }
    bias_filler {
      type: "constant"
    }
  }
}
layer {
  name: "sigmoid"
  type: "Sigmoid"
  bottom: "fc8_d"
  top: "sigmoid"
  include {
    phase: TEST
  }
}
layer {
  name: "silence"
  type: "Silence"
  bottom: "sigmoid"
  include {
    phase: TEST
  }
}
layer {
  name: "loss"
  type: "SigmoidCrossEntropyLoss"
  bottom: "fc8_d"
  bottom: "phocs"
  top: "loss"
}
I0210 11:10:14.968848 45784 layer_factory.hpp:77] Creating layer word_images
I0210 11:10:14.968967 45784 db_lmdb.cpp:35] Opened lmdb /data/fwolf/iam_50000/iam-db_nti500000_pul2-3-4-5_test_word_images_lmdb
I0210 11:10:14.968999 45784 net.cpp:84] Creating Layer word_images
I0210 11:10:14.969008 45784 net.cpp:380] word_images -> word_images
I0210 11:10:14.969022 45784 net.cpp:380] word_images -> label
I0210 11:10:14.969913 45784 data_layer.cpp:44] output data size: 1,1,90,94
I0210 11:10:14.973515 45784 net.cpp:122] Setting up word_images
I0210 11:10:14.973534 45784 net.cpp:129] Top shape: 1 1 90 94 (8460)
I0210 11:10:14.973544 45784 net.cpp:129] Top shape: 1 (1)
I0210 11:10:14.973548 45784 net.cpp:137] Memory required for data: 33844
I0210 11:10:14.973556 45784 layer_factory.hpp:77] Creating layer phocs
I0210 11:10:14.973631 45784 db_lmdb.cpp:35] Opened lmdb /data/fwolf/iam_50000/iam-db_nti500000_pul2-3-4-5_test_phocs_lmdb
I0210 11:10:14.973654 45784 net.cpp:84] Creating Layer phocs
I0210 11:10:14.973662 45784 net.cpp:380] phocs -> phocs
I0210 11:10:14.973675 45784 net.cpp:380] phocs -> label_phocs
I0210 11:10:14.974573 45784 data_layer.cpp:44] output data size: 1,1,1,618
I0210 11:10:14.979557 45784 net.cpp:122] Setting up phocs
I0210 11:10:14.979583 45784 net.cpp:129] Top shape: 1 1 1 618 (618)
I0210 11:10:14.979590 45784 net.cpp:129] Top shape: 1 (1)
I0210 11:10:14.979595 45784 net.cpp:137] Memory required for data: 36320
I0210 11:10:14.979602 45784 layer_factory.hpp:77] Creating layer conv_init
I0210 11:10:14.979624 45784 net.cpp:84] Creating Layer conv_init
I0210 11:10:14.979631 45784 net.cpp:406] conv_init <- word_images
I0210 11:10:14.979641 45784 net.cpp:380] conv_init -> conv_init
I0210 11:10:14.984374 45784 net.cpp:122] Setting up conv_init
I0210 11:10:14.984396 45784 net.cpp:129] Top shape: 1 32 90 94 (270720)
I0210 11:10:14.984405 45784 net.cpp:137] Memory required for data: 1119200
I0210 11:10:14.984426 45784 layer_factory.hpp:77] Creating layer relu_init
I0210 11:10:14.984436 45784 net.cpp:84] Creating Layer relu_init
I0210 11:10:14.984444 45784 net.cpp:406] relu_init <- conv_init
I0210 11:10:14.984468 45784 net.cpp:367] relu_init -> conv_init (in-place)
I0210 11:10:14.985074 45784 net.cpp:122] Setting up relu_init
I0210 11:10:14.985088 45784 net.cpp:129] Top shape: 1 32 90 94 (270720)
I0210 11:10:14.985095 45784 net.cpp:137] Memory required for data: 2202080
I0210 11:10:14.985105 45784 layer_factory.hpp:77] Creating layer pool_init
I0210 11:10:14.985121 45784 net.cpp:84] Creating Layer pool_init
I0210 11:10:14.985126 45784 net.cpp:406] pool_init <- conv_init
I0210 11:10:14.985133 45784 net.cpp:380] pool_init -> pool_init
I0210 11:10:14.985312 45784 net.cpp:122] Setting up pool_init
I0210 11:10:14.985323 45784 net.cpp:129] Top shape: 1 32 46 48 (70656)
I0210 11:10:14.985328 45784 net.cpp:137] Memory required for data: 2484704
I0210 11:10:14.985335 45784 layer_factory.hpp:77] Creating layer pool_init_pool_init_0_split
I0210 11:10:14.985352 45784 net.cpp:84] Creating Layer pool_init_pool_init_0_split
I0210 11:10:14.985360 45784 net.cpp:406] pool_init_pool_init_0_split <- pool_init
I0210 11:10:14.985370 45784 net.cpp:380] pool_init_pool_init_0_split -> pool_init_pool_init_0_split_0
I0210 11:10:14.985388 45784 net.cpp:380] pool_init_pool_init_0_split -> pool_init_pool_init_0_split_1
I0210 11:10:14.985584 45784 net.cpp:122] Setting up pool_init_pool_init_0_split
I0210 11:10:14.985595 45784 net.cpp:129] Top shape: 1 32 46 48 (70656)
I0210 11:10:14.985601 45784 net.cpp:129] Top shape: 1 32 46 48 (70656)
I0210 11:10:14.985606 45784 net.cpp:137] Memory required for data: 3049952
I0210 11:10:14.985611 45784 layer_factory.hpp:77] Creating layer conv0_0
I0210 11:10:14.985627 45784 net.cpp:84] Creating Layer conv0_0
I0210 11:10:14.985633 45784 net.cpp:406] conv0_0 <- pool_init_pool_init_0_split_0
I0210 11:10:14.985646 45784 net.cpp:380] conv0_0 -> conv0_0
I0210 11:10:14.991744 45784 net.cpp:122] Setting up conv0_0
I0210 11:10:14.991765 45784 net.cpp:129] Top shape: 1 12 46 48 (26496)
I0210 11:10:14.991770 45784 net.cpp:137] Memory required for data: 3155936
I0210 11:10:14.991786 45784 layer_factory.hpp:77] Creating layer relu0_0
I0210 11:10:14.991796 45784 net.cpp:84] Creating Layer relu0_0
I0210 11:10:14.991802 45784 net.cpp:406] relu0_0 <- conv0_0
I0210 11:10:14.991811 45784 net.cpp:367] relu0_0 -> conv0_0 (in-place)
I0210 11:10:14.992432 45784 net.cpp:122] Setting up relu0_0
I0210 11:10:14.992455 45784 net.cpp:129] Top shape: 1 12 46 48 (26496)
I0210 11:10:14.992465 45784 net.cpp:137] Memory required for data: 3261920
I0210 11:10:14.992472 45784 layer_factory.hpp:77] Creating layer concat0_0
I0210 11:10:14.992486 45784 net.cpp:84] Creating Layer concat0_0
I0210 11:10:14.992492 45784 net.cpp:406] concat0_0 <- pool_init_pool_init_0_split_1
I0210 11:10:14.992501 45784 net.cpp:406] concat0_0 <- conv0_0
I0210 11:10:14.992511 45784 net.cpp:380] concat0_0 -> concat0_0
I0210 11:10:14.992600 45784 net.cpp:122] Setting up concat0_0
I0210 11:10:14.992610 45784 net.cpp:129] Top shape: 1 44 46 48 (97152)
I0210 11:10:14.992615 45784 net.cpp:137] Memory required for data: 3650528
I0210 11:10:14.992620 45784 layer_factory.hpp:77] Creating layer concat0_0_concat0_0_0_split
I0210 11:10:14.992637 45784 net.cpp:84] Creating Layer concat0_0_concat0_0_0_split
I0210 11:10:14.992642 45784 net.cpp:406] concat0_0_concat0_0_0_split <- concat0_0
I0210 11:10:14.992653 45784 net.cpp:380] concat0_0_concat0_0_0_split -> concat0_0_concat0_0_0_split_0
I0210 11:10:14.992663 45784 net.cpp:380] concat0_0_concat0_0_0_split -> concat0_0_concat0_0_0_split_1
I0210 11:10:14.992846 45784 net.cpp:122] Setting up concat0_0_concat0_0_0_split
I0210 11:10:14.992856 45784 net.cpp:129] Top shape: 1 44 46 48 (97152)
I0210 11:10:14.992862 45784 net.cpp:129] Top shape: 1 44 46 48 (97152)
I0210 11:10:14.992867 45784 net.cpp:137] Memory required for data: 4427744
I0210 11:10:14.992872 45784 layer_factory.hpp:77] Creating layer conv0_1
I0210 11:10:14.992887 45784 net.cpp:84] Creating Layer conv0_1
I0210 11:10:14.992893 45784 net.cpp:406] conv0_1 <- concat0_0_concat0_0_0_split_0
I0210 11:10:14.992904 45784 net.cpp:380] conv0_1 -> conv0_1
I0210 11:10:14.998785 45784 net.cpp:122] Setting up conv0_1
I0210 11:10:14.998816 45784 net.cpp:129] Top shape: 1 12 46 48 (26496)
I0210 11:10:14.998826 45784 net.cpp:137] Memory required for data: 4533728
I0210 11:10:14.998842 45784 layer_factory.hpp:77] Creating layer relu0_1
I0210 11:10:14.998854 45784 net.cpp:84] Creating Layer relu0_1
I0210 11:10:14.998868 45784 net.cpp:406] relu0_1 <- conv0_1
I0210 11:10:14.998883 45784 net.cpp:367] relu0_1 -> conv0_1 (in-place)
I0210 11:10:15.001159 45784 net.cpp:122] Setting up relu0_1
I0210 11:10:15.001185 45784 net.cpp:129] Top shape: 1 12 46 48 (26496)
I0210 11:10:15.001194 45784 net.cpp:137] Memory required for data: 4639712
I0210 11:10:15.001201 45784 layer_factory.hpp:77] Creating layer concat0_1
I0210 11:10:15.001214 45784 net.cpp:84] Creating Layer concat0_1
I0210 11:10:15.001221 45784 net.cpp:406] concat0_1 <- concat0_0_concat0_0_0_split_1
I0210 11:10:15.001231 45784 net.cpp:406] concat0_1 <- conv0_1
I0210 11:10:15.001245 45784 net.cpp:380] concat0_1 -> concat0_1
I0210 11:10:15.001344 45784 net.cpp:122] Setting up concat0_1
I0210 11:10:15.001356 45784 net.cpp:129] Top shape: 1 56 46 48 (123648)
I0210 11:10:15.001363 45784 net.cpp:137] Memory required for data: 5134304
I0210 11:10:15.001369 45784 layer_factory.hpp:77] Creating layer concat0_1_concat0_1_0_split
I0210 11:10:15.001384 45784 net.cpp:84] Creating Layer concat0_1_concat0_1_0_split
I0210 11:10:15.001391 45784 net.cpp:406] concat0_1_concat0_1_0_split <- concat0_1
I0210 11:10:15.001400 45784 net.cpp:380] concat0_1_concat0_1_0_split -> concat0_1_concat0_1_0_split_0
I0210 11:10:15.001412 45784 net.cpp:380] concat0_1_concat0_1_0_split -> concat0_1_concat0_1_0_split_1
I0210 11:10:15.001550 45784 net.cpp:122] Setting up concat0_1_concat0_1_0_split
I0210 11:10:15.001561 45784 net.cpp:129] Top shape: 1 56 46 48 (123648)
I0210 11:10:15.001569 45784 net.cpp:129] Top shape: 1 56 46 48 (123648)
I0210 11:10:15.001575 45784 net.cpp:137] Memory required for data: 6123488
I0210 11:10:15.001582 45784 layer_factory.hpp:77] Creating layer conv0_2
I0210 11:10:15.001600 45784 net.cpp:84] Creating Layer conv0_2
I0210 11:10:15.001607 45784 net.cpp:406] conv0_2 <- concat0_1_concat0_1_0_split_0
I0210 11:10:15.001621 45784 net.cpp:380] conv0_2 -> conv0_2
I0210 11:10:15.005983 45784 net.cpp:122] Setting up conv0_2
I0210 11:10:15.006011 45784 net.cpp:129] Top shape: 1 12 46 48 (26496)
I0210 11:10:15.006019 45784 net.cpp:137] Memory required for data: 6229472
I0210 11:10:15.006032 45784 layer_factory.hpp:77] Creating layer relu0_2
I0210 11:10:15.006044 45784 net.cpp:84] Creating Layer relu0_2
I0210 11:10:15.006052 45784 net.cpp:406] relu0_2 <- conv0_2
I0210 11:10:15.006065 45784 net.cpp:367] relu0_2 -> conv0_2 (in-place)
I0210 11:10:15.006508 45784 net.cpp:122] Setting up relu0_2
I0210 11:10:15.006525 45784 net.cpp:129] Top shape: 1 12 46 48 (26496)
I0210 11:10:15.006534 45784 net.cpp:137] Memory required for data: 6335456
I0210 11:10:15.006542 45784 layer_factory.hpp:77] Creating layer concat0_2
I0210 11:10:15.006556 45784 net.cpp:84] Creating Layer concat0_2
I0210 11:10:15.006563 45784 net.cpp:406] concat0_2 <- concat0_1_concat0_1_0_split_1
I0210 11:10:15.006572 45784 net.cpp:406] concat0_2 <- conv0_2
I0210 11:10:15.006582 45784 net.cpp:380] concat0_2 -> concat0_2
I0210 11:10:15.006677 45784 net.cpp:122] Setting up concat0_2
I0210 11:10:15.006688 45784 net.cpp:129] Top shape: 1 68 46 48 (150144)
I0210 11:10:15.006695 45784 net.cpp:137] Memory required for data: 6936032
I0210 11:10:15.006701 45784 layer_factory.hpp:77] Creating layer concat0_2_concat0_2_0_split
I0210 11:10:15.006711 45784 net.cpp:84] Creating Layer concat0_2_concat0_2_0_split
I0210 11:10:15.006717 45784 net.cpp:406] concat0_2_concat0_2_0_split <- concat0_2
I0210 11:10:15.006727 45784 net.cpp:380] concat0_2_concat0_2_0_split -> concat0_2_concat0_2_0_split_0
I0210 11:10:15.006741 45784 net.cpp:380] concat0_2_concat0_2_0_split -> concat0_2_concat0_2_0_split_1
I0210 11:10:15.006880 45784 net.cpp:122] Setting up concat0_2_concat0_2_0_split
I0210 11:10:15.006891 45784 net.cpp:129] Top shape: 1 68 46 48 (150144)
I0210 11:10:15.006898 45784 net.cpp:129] Top shape: 1 68 46 48 (150144)
I0210 11:10:15.006904 45784 net.cpp:137] Memory required for data: 8137184
I0210 11:10:15.006911 45784 layer_factory.hpp:77] Creating layer conv0_3
I0210 11:10:15.006928 45784 net.cpp:84] Creating Layer conv0_3
I0210 11:10:15.006942 45784 net.cpp:406] conv0_3 <- concat0_2_concat0_2_0_split_0
I0210 11:10:15.006953 45784 net.cpp:380] conv0_3 -> conv0_3
I0210 11:10:15.011153 45784 net.cpp:122] Setting up conv0_3
I0210 11:10:15.011178 45784 net.cpp:129] Top shape: 1 12 46 48 (26496)
I0210 11:10:15.011185 45784 net.cpp:137] Memory required for data: 8243168
I0210 11:10:15.011199 45784 layer_factory.hpp:77] Creating layer relu0_3
I0210 11:10:15.011214 45784 net.cpp:84] Creating Layer relu0_3
I0210 11:10:15.011221 45784 net.cpp:406] relu0_3 <- conv0_3
I0210 11:10:15.011231 45784 net.cpp:367] relu0_3 -> conv0_3 (in-place)
I0210 11:10:15.011634 45784 net.cpp:122] Setting up relu0_3
I0210 11:10:15.011648 45784 net.cpp:129] Top shape: 1 12 46 48 (26496)
I0210 11:10:15.011654 45784 net.cpp:137] Memory required for data: 8349152
I0210 11:10:15.011662 45784 layer_factory.hpp:77] Creating layer concat0_3
I0210 11:10:15.011672 45784 net.cpp:84] Creating Layer concat0_3
I0210 11:10:15.011678 45784 net.cpp:406] concat0_3 <- concat0_2_concat0_2_0_split_1
I0210 11:10:15.011687 45784 net.cpp:406] concat0_3 <- conv0_3
I0210 11:10:15.011695 45784 net.cpp:380] concat0_3 -> concat0_3
I0210 11:10:15.011782 45784 net.cpp:122] Setting up concat0_3
I0210 11:10:15.011793 45784 net.cpp:129] Top shape: 1 80 46 48 (176640)
I0210 11:10:15.011798 45784 net.cpp:137] Memory required for data: 9055712
I0210 11:10:15.011804 45784 layer_factory.hpp:77] Creating layer concat0_3_concat0_3_0_split
I0210 11:10:15.011813 45784 net.cpp:84] Creating Layer concat0_3_concat0_3_0_split
I0210 11:10:15.011819 45784 net.cpp:406] concat0_3_concat0_3_0_split <- concat0_3
I0210 11:10:15.011831 45784 net.cpp:380] concat0_3_concat0_3_0_split -> concat0_3_concat0_3_0_split_0
I0210 11:10:15.011840 45784 net.cpp:380] concat0_3_concat0_3_0_split -> concat0_3_concat0_3_0_split_1
I0210 11:10:15.011965 45784 net.cpp:122] Setting up concat0_3_concat0_3_0_split
I0210 11:10:15.011975 45784 net.cpp:129] Top shape: 1 80 46 48 (176640)
I0210 11:10:15.011981 45784 net.cpp:129] Top shape: 1 80 46 48 (176640)
I0210 11:10:15.011987 45784 net.cpp:137] Memory required for data: 10468832
I0210 11:10:15.011993 45784 layer_factory.hpp:77] Creating layer conv0_4
I0210 11:10:15.012009 45784 net.cpp:84] Creating Layer conv0_4
I0210 11:10:15.012017 45784 net.cpp:406] conv0_4 <- concat0_3_concat0_3_0_split_0
I0210 11:10:15.012027 45784 net.cpp:380] conv0_4 -> conv0_4
I0210 11:10:15.016175 45784 net.cpp:122] Setting up conv0_4
I0210 11:10:15.016201 45784 net.cpp:129] Top shape: 1 12 46 48 (26496)
I0210 11:10:15.016207 45784 net.cpp:137] Memory required for data: 10574816
I0210 11:10:15.016218 45784 layer_factory.hpp:77] Creating layer relu0_4
I0210 11:10:15.016230 45784 net.cpp:84] Creating Layer relu0_4
I0210 11:10:15.016237 45784 net.cpp:406] relu0_4 <- conv0_4
I0210 11:10:15.016253 45784 net.cpp:367] relu0_4 -> conv0_4 (in-place)
I0210 11:10:15.018373 45784 net.cpp:122] Setting up relu0_4
I0210 11:10:15.018395 45784 net.cpp:129] Top shape: 1 12 46 48 (26496)
I0210 11:10:15.018402 45784 net.cpp:137] Memory required for data: 10680800
I0210 11:10:15.018409 45784 layer_factory.hpp:77] Creating layer concat0_4
I0210 11:10:15.018424 45784 net.cpp:84] Creating Layer concat0_4
I0210 11:10:15.018431 45784 net.cpp:406] concat0_4 <- concat0_3_concat0_3_0_split_1
I0210 11:10:15.018440 45784 net.cpp:406] concat0_4 <- conv0_4
I0210 11:10:15.018450 45784 net.cpp:380] concat0_4 -> concat0_4
I0210 11:10:15.018541 45784 net.cpp:122] Setting up concat0_4
I0210 11:10:15.018553 45784 net.cpp:129] Top shape: 1 92 46 48 (203136)
I0210 11:10:15.018558 45784 net.cpp:137] Memory required for data: 11493344
I0210 11:10:15.018564 45784 layer_factory.hpp:77] Creating layer concat0_4_concat0_4_0_split
I0210 11:10:15.018575 45784 net.cpp:84] Creating Layer concat0_4_concat0_4_0_split
I0210 11:10:15.018581 45784 net.cpp:406] concat0_4_concat0_4_0_split <- concat0_4
I0210 11:10:15.018590 45784 net.cpp:380] concat0_4_concat0_4_0_split -> concat0_4_concat0_4_0_split_0
I0210 11:10:15.018600 45784 net.cpp:380] concat0_4_concat0_4_0_split -> concat0_4_concat0_4_0_split_1
I0210 11:10:15.018733 45784 net.cpp:122] Setting up concat0_4_concat0_4_0_split
I0210 11:10:15.018743 45784 net.cpp:129] Top shape: 1 92 46 48 (203136)
I0210 11:10:15.018750 45784 net.cpp:129] Top shape: 1 92 46 48 (203136)
I0210 11:10:15.018756 45784 net.cpp:137] Memory required for data: 13118432
I0210 11:10:15.018762 45784 layer_factory.hpp:77] Creating layer conv0_5
I0210 11:10:15.018779 45784 net.cpp:84] Creating Layer conv0_5
I0210 11:10:15.018786 45784 net.cpp:406] conv0_5 <- concat0_4_concat0_4_0_split_0
I0210 11:10:15.018798 45784 net.cpp:380] conv0_5 -> conv0_5
I0210 11:10:15.022891 45784 net.cpp:122] Setting up conv0_5
I0210 11:10:15.022914 45784 net.cpp:129] Top shape: 1 12 46 48 (26496)
I0210 11:10:15.022920 45784 net.cpp:137] Memory required for data: 13224416
I0210 11:10:15.022930 45784 layer_factory.hpp:77] Creating layer relu0_5
I0210 11:10:15.022944 45784 net.cpp:84] Creating Layer relu0_5
I0210 11:10:15.022951 45784 net.cpp:406] relu0_5 <- conv0_5
I0210 11:10:15.022960 45784 net.cpp:367] relu0_5 -> conv0_5 (in-place)
I0210 11:10:15.023346 45784 net.cpp:122] Setting up relu0_5
I0210 11:10:15.023363 45784 net.cpp:129] Top shape: 1 12 46 48 (26496)
I0210 11:10:15.023370 45784 net.cpp:137] Memory required for data: 13330400
I0210 11:10:15.023375 45784 layer_factory.hpp:77] Creating layer concat0_5
I0210 11:10:15.023385 45784 net.cpp:84] Creating Layer concat0_5
I0210 11:10:15.023391 45784 net.cpp:406] concat0_5 <- concat0_4_concat0_4_0_split_1
I0210 11:10:15.023399 45784 net.cpp:406] concat0_5 <- conv0_5
I0210 11:10:15.023407 45784 net.cpp:380] concat0_5 -> concat0_5
I0210 11:10:15.023490 45784 net.cpp:122] Setting up concat0_5
I0210 11:10:15.023500 45784 net.cpp:129] Top shape: 1 104 46 48 (229632)
I0210 11:10:15.023505 45784 net.cpp:137] Memory required for data: 14248928
I0210 11:10:15.023511 45784 layer_factory.hpp:77] Creating layer concat0_5_concat0_5_0_split
I0210 11:10:15.023519 45784 net.cpp:84] Creating Layer concat0_5_concat0_5_0_split
I0210 11:10:15.023524 45784 net.cpp:406] concat0_5_concat0_5_0_split <- concat0_5
I0210 11:10:15.023532 45784 net.cpp:380] concat0_5_concat0_5_0_split -> concat0_5_concat0_5_0_split_0
I0210 11:10:15.023545 45784 net.cpp:380] concat0_5_concat0_5_0_split -> concat0_5_concat0_5_0_split_1
I0210 11:10:15.023663 45784 net.cpp:122] Setting up concat0_5_concat0_5_0_split
I0210 11:10:15.023672 45784 net.cpp:129] Top shape: 1 104 46 48 (229632)
I0210 11:10:15.023679 45784 net.cpp:129] Top shape: 1 104 46 48 (229632)
I0210 11:10:15.023685 45784 net.cpp:137] Memory required for data: 16085984
I0210 11:10:15.023690 45784 layer_factory.hpp:77] Creating layer conv0_6
I0210 11:10:15.023706 45784 net.cpp:84] Creating Layer conv0_6
I0210 11:10:15.023712 45784 net.cpp:406] conv0_6 <- concat0_5_concat0_5_0_split_0
I0210 11:10:15.023722 45784 net.cpp:380] conv0_6 -> conv0_6
I0210 11:10:15.027745 45784 net.cpp:122] Setting up conv0_6
I0210 11:10:15.027768 45784 net.cpp:129] Top shape: 1 12 46 48 (26496)
I0210 11:10:15.027775 45784 net.cpp:137] Memory required for data: 16191968
I0210 11:10:15.027786 45784 layer_factory.hpp:77] Creating layer relu0_6
I0210 11:10:15.027799 45784 net.cpp:84] Creating Layer relu0_6
I0210 11:10:15.027806 45784 net.cpp:406] relu0_6 <- conv0_6
I0210 11:10:15.027815 45784 net.cpp:367] relu0_6 -> conv0_6 (in-place)
I0210 11:10:15.028192 45784 net.cpp:122] Setting up relu0_6
I0210 11:10:15.028205 45784 net.cpp:129] Top shape: 1 12 46 48 (26496)
I0210 11:10:15.028211 45784 net.cpp:137] Memory required for data: 16297952
I0210 11:10:15.028218 45784 layer_factory.hpp:77] Creating layer concat0_6
I0210 11:10:15.028231 45784 net.cpp:84] Creating Layer concat0_6
I0210 11:10:15.028239 45784 net.cpp:406] concat0_6 <- concat0_5_concat0_5_0_split_1
I0210 11:10:15.028246 45784 net.cpp:406] concat0_6 <- conv0_6
I0210 11:10:15.028257 45784 net.cpp:380] concat0_6 -> concat0_6
I0210 11:10:15.028337 45784 net.cpp:122] Setting up concat0_6
I0210 11:10:15.028347 45784 net.cpp:129] Top shape: 1 116 46 48 (256128)
I0210 11:10:15.028353 45784 net.cpp:137] Memory required for data: 17322464
I0210 11:10:15.028367 45784 layer_factory.hpp:77] Creating layer concat0_6_concat0_6_0_split
I0210 11:10:15.028375 45784 net.cpp:84] Creating Layer concat0_6_concat0_6_0_split
I0210 11:10:15.028381 45784 net.cpp:406] concat0_6_concat0_6_0_split <- concat0_6
I0210 11:10:15.028393 45784 net.cpp:380] concat0_6_concat0_6_0_split -> concat0_6_concat0_6_0_split_0
I0210 11:10:15.028403 45784 net.cpp:380] concat0_6_concat0_6_0_split -> concat0_6_concat0_6_0_split_1
I0210 11:10:15.028523 45784 net.cpp:122] Setting up concat0_6_concat0_6_0_split
I0210 11:10:15.028533 45784 net.cpp:129] Top shape: 1 116 46 48 (256128)
I0210 11:10:15.028540 45784 net.cpp:129] Top shape: 1 116 46 48 (256128)
I0210 11:10:15.028545 45784 net.cpp:137] Memory required for data: 19371488
I0210 11:10:15.028551 45784 layer_factory.hpp:77] Creating layer conv0_7
I0210 11:10:15.028566 45784 net.cpp:84] Creating Layer conv0_7
I0210 11:10:15.028573 45784 net.cpp:406] conv0_7 <- concat0_6_concat0_6_0_split_0
I0210 11:10:15.028583 45784 net.cpp:380] conv0_7 -> conv0_7
I0210 11:10:15.032697 45784 net.cpp:122] Setting up conv0_7
I0210 11:10:15.032719 45784 net.cpp:129] Top shape: 1 12 46 48 (26496)
I0210 11:10:15.032726 45784 net.cpp:137] Memory required for data: 19477472
I0210 11:10:15.032739 45784 layer_factory.hpp:77] Creating layer relu0_7
I0210 11:10:15.032750 45784 net.cpp:84] Creating Layer relu0_7
I0210 11:10:15.032757 45784 net.cpp:406] relu0_7 <- conv0_7
I0210 11:10:15.032769 45784 net.cpp:367] relu0_7 -> conv0_7 (in-place)
I0210 11:10:15.033149 45784 net.cpp:122] Setting up relu0_7
I0210 11:10:15.033164 45784 net.cpp:129] Top shape: 1 12 46 48 (26496)
I0210 11:10:15.033169 45784 net.cpp:137] Memory required for data: 19583456
I0210 11:10:15.033175 45784 layer_factory.hpp:77] Creating layer concat0_7
I0210 11:10:15.033185 45784 net.cpp:84] Creating Layer concat0_7
I0210 11:10:15.033190 45784 net.cpp:406] concat0_7 <- concat0_6_concat0_6_0_split_1
I0210 11:10:15.033197 45784 net.cpp:406] concat0_7 <- conv0_7
I0210 11:10:15.033205 45784 net.cpp:380] concat0_7 -> concat0_7
I0210 11:10:15.033284 45784 net.cpp:122] Setting up concat0_7
I0210 11:10:15.033294 45784 net.cpp:129] Top shape: 1 128 46 48 (282624)
I0210 11:10:15.033299 45784 net.cpp:137] Memory required for data: 20713952
I0210 11:10:15.033304 45784 layer_factory.hpp:77] Creating layer concat0_7_concat0_7_0_split
I0210 11:10:15.033313 45784 net.cpp:84] Creating Layer concat0_7_concat0_7_0_split
I0210 11:10:15.033318 45784 net.cpp:406] concat0_7_concat0_7_0_split <- concat0_7
I0210 11:10:15.033325 45784 net.cpp:380] concat0_7_concat0_7_0_split -> concat0_7_concat0_7_0_split_0
I0210 11:10:15.033336 45784 net.cpp:380] concat0_7_concat0_7_0_split -> concat0_7_concat0_7_0_split_1
I0210 11:10:15.033445 45784 net.cpp:122] Setting up concat0_7_concat0_7_0_split
I0210 11:10:15.033457 45784 net.cpp:129] Top shape: 1 128 46 48 (282624)
I0210 11:10:15.033463 45784 net.cpp:129] Top shape: 1 128 46 48 (282624)
I0210 11:10:15.033468 45784 net.cpp:137] Memory required for data: 22974944
I0210 11:10:15.033473 45784 layer_factory.hpp:77] Creating layer conv0_8
I0210 11:10:15.033488 45784 net.cpp:84] Creating Layer conv0_8
I0210 11:10:15.033494 45784 net.cpp:406] conv0_8 <- concat0_7_concat0_7_0_split_0
I0210 11:10:15.033504 45784 net.cpp:380] conv0_8 -> conv0_8
I0210 11:10:15.037457 45784 net.cpp:122] Setting up conv0_8
I0210 11:10:15.037479 45784 net.cpp:129] Top shape: 1 12 46 48 (26496)
I0210 11:10:15.037485 45784 net.cpp:137] Memory required for data: 23080928
I0210 11:10:15.037495 45784 layer_factory.hpp:77] Creating layer relu0_8
I0210 11:10:15.037508 45784 net.cpp:84] Creating Layer relu0_8
I0210 11:10:15.037515 45784 net.cpp:406] relu0_8 <- conv0_8
I0210 11:10:15.037524 45784 net.cpp:367] relu0_8 -> conv0_8 (in-place)
I0210 11:10:15.039351 45784 net.cpp:122] Setting up relu0_8
I0210 11:10:15.039371 45784 net.cpp:129] Top shape: 1 12 46 48 (26496)
I0210 11:10:15.039376 45784 net.cpp:137] Memory required for data: 23186912
I0210 11:10:15.039382 45784 layer_factory.hpp:77] Creating layer concat0_8
I0210 11:10:15.039397 45784 net.cpp:84] Creating Layer concat0_8
I0210 11:10:15.039404 45784 net.cpp:406] concat0_8 <- concat0_7_concat0_7_0_split_1
I0210 11:10:15.039412 45784 net.cpp:406] concat0_8 <- conv0_8
I0210 11:10:15.039422 45784 net.cpp:380] concat0_8 -> concat0_8
I0210 11:10:15.039505 45784 net.cpp:122] Setting up concat0_8
I0210 11:10:15.039515 45784 net.cpp:129] Top shape: 1 140 46 48 (309120)
I0210 11:10:15.039520 45784 net.cpp:137] Memory required for data: 24423392
I0210 11:10:15.039525 45784 layer_factory.hpp:77] Creating layer concat0_8_concat0_8_0_split
I0210 11:10:15.039535 45784 net.cpp:84] Creating Layer concat0_8_concat0_8_0_split
I0210 11:10:15.039541 45784 net.cpp:406] concat0_8_concat0_8_0_split <- concat0_8
I0210 11:10:15.039548 45784 net.cpp:380] concat0_8_concat0_8_0_split -> concat0_8_concat0_8_0_split_0
I0210 11:10:15.039557 45784 net.cpp:380] concat0_8_concat0_8_0_split -> concat0_8_concat0_8_0_split_1
I0210 11:10:15.039669 45784 net.cpp:122] Setting up concat0_8_concat0_8_0_split
I0210 11:10:15.039679 45784 net.cpp:129] Top shape: 1 140 46 48 (309120)
I0210 11:10:15.039685 45784 net.cpp:129] Top shape: 1 140 46 48 (309120)
I0210 11:10:15.039690 45784 net.cpp:137] Memory required for data: 26896352
I0210 11:10:15.039695 45784 layer_factory.hpp:77] Creating layer conv0_9
I0210 11:10:15.039711 45784 net.cpp:84] Creating Layer conv0_9
I0210 11:10:15.039717 45784 net.cpp:406] conv0_9 <- concat0_8_concat0_8_0_split_0
I0210 11:10:15.039728 45784 net.cpp:380] conv0_9 -> conv0_9
I0210 11:10:15.045240 45784 net.cpp:122] Setting up conv0_9
I0210 11:10:15.045261 45784 net.cpp:129] Top shape: 1 12 46 48 (26496)
I0210 11:10:15.045267 45784 net.cpp:137] Memory required for data: 27002336
I0210 11:10:15.045276 45784 layer_factory.hpp:77] Creating layer relu0_9
I0210 11:10:15.045291 45784 net.cpp:84] Creating Layer relu0_9
I0210 11:10:15.045298 45784 net.cpp:406] relu0_9 <- conv0_9
I0210 11:10:15.045306 45784 net.cpp:367] relu0_9 -> conv0_9 (in-place)
I0210 11:10:15.045670 45784 net.cpp:122] Setting up relu0_9
I0210 11:10:15.045681 45784 net.cpp:129] Top shape: 1 12 46 48 (26496)
I0210 11:10:15.045686 45784 net.cpp:137] Memory required for data: 27108320
I0210 11:10:15.045691 45784 layer_factory.hpp:77] Creating layer concat0_9
I0210 11:10:15.045701 45784 net.cpp:84] Creating Layer concat0_9
I0210 11:10:15.045706 45784 net.cpp:406] concat0_9 <- concat0_8_concat0_8_0_split_1
I0210 11:10:15.045714 45784 net.cpp:406] concat0_9 <- conv0_9
I0210 11:10:15.045723 45784 net.cpp:380] concat0_9 -> concat0_9
I0210 11:10:15.045795 45784 net.cpp:122] Setting up concat0_9
I0210 11:10:15.045804 45784 net.cpp:129] Top shape: 1 152 46 48 (335616)
I0210 11:10:15.045809 45784 net.cpp:137] Memory required for data: 28450784
I0210 11:10:15.045814 45784 layer_factory.hpp:77] Creating layer conv0_blk
I0210 11:10:15.045830 45784 net.cpp:84] Creating Layer conv0_blk
I0210 11:10:15.045836 45784 net.cpp:406] conv0_blk <- concat0_9
I0210 11:10:15.045845 45784 net.cpp:380] conv0_blk -> conv0_blk
I0210 11:10:15.050031 45784 net.cpp:122] Setting up conv0_blk
I0210 11:10:15.050052 45784 net.cpp:129] Top shape: 1 152 46 48 (335616)
I0210 11:10:15.050057 45784 net.cpp:137] Memory required for data: 29793248
I0210 11:10:15.050067 45784 layer_factory.hpp:77] Creating layer pool0
I0210 11:10:15.050077 45784 net.cpp:84] Creating Layer pool0
I0210 11:10:15.050083 45784 net.cpp:406] pool0 <- conv0_blk
I0210 11:10:15.050099 45784 net.cpp:380] pool0 -> pool0
I0210 11:10:15.050503 45784 net.cpp:122] Setting up pool0
I0210 11:10:15.050515 45784 net.cpp:129] Top shape: 1 152 23 24 (83904)
I0210 11:10:15.050520 45784 net.cpp:137] Memory required for data: 30128864
I0210 11:10:15.050525 45784 layer_factory.hpp:77] Creating layer pool0_pool0_0_split
I0210 11:10:15.050534 45784 net.cpp:84] Creating Layer pool0_pool0_0_split
I0210 11:10:15.050540 45784 net.cpp:406] pool0_pool0_0_split <- pool0
I0210 11:10:15.050549 45784 net.cpp:380] pool0_pool0_0_split -> pool0_pool0_0_split_0
I0210 11:10:15.050559 45784 net.cpp:380] pool0_pool0_0_split -> pool0_pool0_0_split_1
I0210 11:10:15.050673 45784 net.cpp:122] Setting up pool0_pool0_0_split
I0210 11:10:15.050681 45784 net.cpp:129] Top shape: 1 152 23 24 (83904)
I0210 11:10:15.050688 45784 net.cpp:129] Top shape: 1 152 23 24 (83904)
I0210 11:10:15.050693 45784 net.cpp:137] Memory required for data: 30800096
I0210 11:10:15.050698 45784 layer_factory.hpp:77] Creating layer conv1_0
I0210 11:10:15.050711 45784 net.cpp:84] Creating Layer conv1_0
I0210 11:10:15.050717 45784 net.cpp:406] conv1_0 <- pool0_pool0_0_split_0
I0210 11:10:15.050726 45784 net.cpp:380] conv1_0 -> conv1_0
I0210 11:10:15.054530 45784 net.cpp:122] Setting up conv1_0
I0210 11:10:15.054551 45784 net.cpp:129] Top shape: 1 12 23 24 (6624)
I0210 11:10:15.054558 45784 net.cpp:137] Memory required for data: 30826592
I0210 11:10:15.054566 45784 layer_factory.hpp:77] Creating layer relu1_0
I0210 11:10:15.054576 45784 net.cpp:84] Creating Layer relu1_0
I0210 11:10:15.054582 45784 net.cpp:406] relu1_0 <- conv1_0
I0210 11:10:15.054594 45784 net.cpp:367] relu1_0 -> conv1_0 (in-place)
I0210 11:10:15.056313 45784 net.cpp:122] Setting up relu1_0
I0210 11:10:15.056331 45784 net.cpp:129] Top shape: 1 12 23 24 (6624)
I0210 11:10:15.056336 45784 net.cpp:137] Memory required for data: 30853088
I0210 11:10:15.056342 45784 layer_factory.hpp:77] Creating layer concat1_0
I0210 11:10:15.056352 45784 net.cpp:84] Creating Layer concat1_0
I0210 11:10:15.056358 45784 net.cpp:406] concat1_0 <- pool0_pool0_0_split_1
I0210 11:10:15.056368 45784 net.cpp:406] concat1_0 <- conv1_0
I0210 11:10:15.056376 45784 net.cpp:380] concat1_0 -> concat1_0
I0210 11:10:15.056452 45784 net.cpp:122] Setting up concat1_0
I0210 11:10:15.056479 45784 net.cpp:129] Top shape: 1 164 23 24 (90528)
I0210 11:10:15.056484 45784 net.cpp:137] Memory required for data: 31215200
I0210 11:10:15.056489 45784 layer_factory.hpp:77] Creating layer concat1_0_concat1_0_0_split
I0210 11:10:15.056502 45784 net.cpp:84] Creating Layer concat1_0_concat1_0_0_split
I0210 11:10:15.056509 45784 net.cpp:406] concat1_0_concat1_0_0_split <- concat1_0
I0210 11:10:15.056516 45784 net.cpp:380] concat1_0_concat1_0_0_split -> concat1_0_concat1_0_0_split_0
I0210 11:10:15.056525 45784 net.cpp:380] concat1_0_concat1_0_0_split -> concat1_0_concat1_0_0_split_1
I0210 11:10:15.056649 45784 net.cpp:122] Setting up concat1_0_concat1_0_0_split
I0210 11:10:15.056659 45784 net.cpp:129] Top shape: 1 164 23 24 (90528)
I0210 11:10:15.056666 45784 net.cpp:129] Top shape: 1 164 23 24 (90528)
I0210 11:10:15.056670 45784 net.cpp:137] Memory required for data: 31939424
I0210 11:10:15.056675 45784 layer_factory.hpp:77] Creating layer conv1_1
I0210 11:10:15.056692 45784 net.cpp:84] Creating Layer conv1_1
I0210 11:10:15.056699 45784 net.cpp:406] conv1_1 <- concat1_0_concat1_0_0_split_0
I0210 11:10:15.056707 45784 net.cpp:380] conv1_1 -> conv1_1
I0210 11:10:15.061775 45784 net.cpp:122] Setting up conv1_1
I0210 11:10:15.061794 45784 net.cpp:129] Top shape: 1 12 23 24 (6624)
I0210 11:10:15.061800 45784 net.cpp:137] Memory required for data: 31965920
I0210 11:10:15.061810 45784 layer_factory.hpp:77] Creating layer relu1_1
I0210 11:10:15.061821 45784 net.cpp:84] Creating Layer relu1_1
I0210 11:10:15.061827 45784 net.cpp:406] relu1_1 <- conv1_1
I0210 11:10:15.061836 45784 net.cpp:367] relu1_1 -> conv1_1 (in-place)
I0210 11:10:15.062180 45784 net.cpp:122] Setting up relu1_1
I0210 11:10:15.062191 45784 net.cpp:129] Top shape: 1 12 23 24 (6624)
I0210 11:10:15.062196 45784 net.cpp:137] Memory required for data: 31992416
I0210 11:10:15.062201 45784 layer_factory.hpp:77] Creating layer concat1_1
I0210 11:10:15.062209 45784 net.cpp:84] Creating Layer concat1_1
I0210 11:10:15.062216 45784 net.cpp:406] concat1_1 <- concat1_0_concat1_0_0_split_1
I0210 11:10:15.062222 45784 net.cpp:406] concat1_1 <- conv1_1
I0210 11:10:15.062232 45784 net.cpp:380] concat1_1 -> concat1_1
I0210 11:10:15.062304 45784 net.cpp:122] Setting up concat1_1
I0210 11:10:15.062312 45784 net.cpp:129] Top shape: 1 176 23 24 (97152)
I0210 11:10:15.062317 45784 net.cpp:137] Memory required for data: 32381024
I0210 11:10:15.062327 45784 layer_factory.hpp:77] Creating layer concat1_1_concat1_1_0_split
I0210 11:10:15.062335 45784 net.cpp:84] Creating Layer concat1_1_concat1_1_0_split
I0210 11:10:15.062340 45784 net.cpp:406] concat1_1_concat1_1_0_split <- concat1_1
I0210 11:10:15.062348 45784 net.cpp:380] concat1_1_concat1_1_0_split -> concat1_1_concat1_1_0_split_0
I0210 11:10:15.062356 45784 net.cpp:380] concat1_1_concat1_1_0_split -> concat1_1_concat1_1_0_split_1
I0210 11:10:15.062461 45784 net.cpp:122] Setting up concat1_1_concat1_1_0_split
I0210 11:10:15.062469 45784 net.cpp:129] Top shape: 1 176 23 24 (97152)
I0210 11:10:15.062475 45784 net.cpp:129] Top shape: 1 176 23 24 (97152)
I0210 11:10:15.062479 45784 net.cpp:137] Memory required for data: 33158240
I0210 11:10:15.062484 45784 layer_factory.hpp:77] Creating layer conv1_2
I0210 11:10:15.062497 45784 net.cpp:84] Creating Layer conv1_2
I0210 11:10:15.062503 45784 net.cpp:406] conv1_2 <- concat1_1_concat1_1_0_split_0
I0210 11:10:15.062513 45784 net.cpp:380] conv1_2 -> conv1_2
I0210 11:10:15.067654 45784 net.cpp:122] Setting up conv1_2
I0210 11:10:15.067674 45784 net.cpp:129] Top shape: 1 12 23 24 (6624)
I0210 11:10:15.067680 45784 net.cpp:137] Memory required for data: 33184736
I0210 11:10:15.067689 45784 layer_factory.hpp:77] Creating layer relu1_2
I0210 11:10:15.067699 45784 net.cpp:84] Creating Layer relu1_2
I0210 11:10:15.067705 45784 net.cpp:406] relu1_2 <- conv1_2
I0210 11:10:15.067715 45784 net.cpp:367] relu1_2 -> conv1_2 (in-place)
I0210 11:10:15.068063 45784 net.cpp:122] Setting up relu1_2
I0210 11:10:15.068076 45784 net.cpp:129] Top shape: 1 12 23 24 (6624)
I0210 11:10:15.068081 45784 net.cpp:137] Memory required for data: 33211232
I0210 11:10:15.068086 45784 layer_factory.hpp:77] Creating layer concat1_2
I0210 11:10:15.068094 45784 net.cpp:84] Creating Layer concat1_2
I0210 11:10:15.068100 45784 net.cpp:406] concat1_2 <- concat1_1_concat1_1_0_split_1
I0210 11:10:15.068107 45784 net.cpp:406] concat1_2 <- conv1_2
I0210 11:10:15.068114 45784 net.cpp:380] concat1_2 -> concat1_2
I0210 11:10:15.068190 45784 net.cpp:122] Setting up concat1_2
I0210 11:10:15.068198 45784 net.cpp:129] Top shape: 1 188 23 24 (103776)
I0210 11:10:15.068203 45784 net.cpp:137] Memory required for data: 33626336
I0210 11:10:15.068207 45784 layer_factory.hpp:77] Creating layer concat1_2_concat1_2_0_split
I0210 11:10:15.068214 45784 net.cpp:84] Creating Layer concat1_2_concat1_2_0_split
I0210 11:10:15.068219 45784 net.cpp:406] concat1_2_concat1_2_0_split <- concat1_2
I0210 11:10:15.068226 45784 net.cpp:380] concat1_2_concat1_2_0_split -> concat1_2_concat1_2_0_split_0
I0210 11:10:15.068238 45784 net.cpp:380] concat1_2_concat1_2_0_split -> concat1_2_concat1_2_0_split_1
I0210 11:10:15.068342 45784 net.cpp:122] Setting up concat1_2_concat1_2_0_split
I0210 11:10:15.068352 45784 net.cpp:129] Top shape: 1 188 23 24 (103776)
I0210 11:10:15.068358 45784 net.cpp:129] Top shape: 1 188 23 24 (103776)
I0210 11:10:15.068362 45784 net.cpp:137] Memory required for data: 34456544
I0210 11:10:15.068367 45784 layer_factory.hpp:77] Creating layer conv1_3
I0210 11:10:15.068382 45784 net.cpp:84] Creating Layer conv1_3
I0210 11:10:15.068387 45784 net.cpp:406] conv1_3 <- concat1_2_concat1_2_0_split_0
I0210 11:10:15.068395 45784 net.cpp:380] conv1_3 -> conv1_3
I0210 11:10:15.073348 45784 net.cpp:122] Setting up conv1_3
I0210 11:10:15.073367 45784 net.cpp:129] Top shape: 1 12 23 24 (6624)
I0210 11:10:15.073372 45784 net.cpp:137] Memory required for data: 34483040
I0210 11:10:15.073380 45784 layer_factory.hpp:77] Creating layer relu1_3
I0210 11:10:15.073390 45784 net.cpp:84] Creating Layer relu1_3
I0210 11:10:15.073395 45784 net.cpp:406] relu1_3 <- conv1_3
I0210 11:10:15.073402 45784 net.cpp:367] relu1_3 -> conv1_3 (in-place)
I0210 11:10:15.074980 45784 net.cpp:122] Setting up relu1_3
I0210 11:10:15.074997 45784 net.cpp:129] Top shape: 1 12 23 24 (6624)
I0210 11:10:15.075002 45784 net.cpp:137] Memory required for data: 34509536
I0210 11:10:15.075007 45784 layer_factory.hpp:77] Creating layer concat1_3
I0210 11:10:15.075021 45784 net.cpp:84] Creating Layer concat1_3
I0210 11:10:15.075026 45784 net.cpp:406] concat1_3 <- concat1_2_concat1_2_0_split_1
I0210 11:10:15.075033 45784 net.cpp:406] concat1_3 <- conv1_3
I0210 11:10:15.075042 45784 net.cpp:380] concat1_3 -> concat1_3
I0210 11:10:15.075114 45784 net.cpp:122] Setting up concat1_3
I0210 11:10:15.075124 45784 net.cpp:129] Top shape: 1 200 23 24 (110400)
I0210 11:10:15.075127 45784 net.cpp:137] Memory required for data: 34951136
I0210 11:10:15.075132 45784 layer_factory.hpp:77] Creating layer concat1_3_concat1_3_0_split
I0210 11:10:15.075140 45784 net.cpp:84] Creating Layer concat1_3_concat1_3_0_split
I0210 11:10:15.075145 45784 net.cpp:406] concat1_3_concat1_3_0_split <- concat1_3
I0210 11:10:15.075152 45784 net.cpp:380] concat1_3_concat1_3_0_split -> concat1_3_concat1_3_0_split_0
I0210 11:10:15.075165 45784 net.cpp:380] concat1_3_concat1_3_0_split -> concat1_3_concat1_3_0_split_1
I0210 11:10:15.075266 45784 net.cpp:122] Setting up concat1_3_concat1_3_0_split
I0210 11:10:15.075275 45784 net.cpp:129] Top shape: 1 200 23 24 (110400)
I0210 11:10:15.075280 45784 net.cpp:129] Top shape: 1 200 23 24 (110400)
I0210 11:10:15.075284 45784 net.cpp:137] Memory required for data: 35834336
I0210 11:10:15.075289 45784 layer_factory.hpp:77] Creating layer conv1_4
I0210 11:10:15.075306 45784 net.cpp:84] Creating Layer conv1_4
I0210 11:10:15.075312 45784 net.cpp:406] conv1_4 <- concat1_3_concat1_3_0_split_0
I0210 11:10:15.075323 45784 net.cpp:380] conv1_4 -> conv1_4
I0210 11:10:15.080291 45784 net.cpp:122] Setting up conv1_4
I0210 11:10:15.080309 45784 net.cpp:129] Top shape: 1 12 23 24 (6624)
I0210 11:10:15.080314 45784 net.cpp:137] Memory required for data: 35860832
I0210 11:10:15.080327 45784 layer_factory.hpp:77] Creating layer relu1_4
I0210 11:10:15.080339 45784 net.cpp:84] Creating Layer relu1_4
I0210 11:10:15.080344 45784 net.cpp:406] relu1_4 <- conv1_4
I0210 11:10:15.080351 45784 net.cpp:367] relu1_4 -> conv1_4 (in-place)
I0210 11:10:15.080694 45784 net.cpp:122] Setting up relu1_4
I0210 11:10:15.080718 45784 net.cpp:129] Top shape: 1 12 23 24 (6624)
I0210 11:10:15.080724 45784 net.cpp:137] Memory required for data: 35887328
I0210 11:10:15.080729 45784 layer_factory.hpp:77] Creating layer concat1_4
I0210 11:10:15.080735 45784 net.cpp:84] Creating Layer concat1_4
I0210 11:10:15.080740 45784 net.cpp:406] concat1_4 <- concat1_3_concat1_3_0_split_1
I0210 11:10:15.080747 45784 net.cpp:406] concat1_4 <- conv1_4
I0210 11:10:15.080755 45784 net.cpp:380] concat1_4 -> concat1_4
I0210 11:10:15.080824 45784 net.cpp:122] Setting up concat1_4
I0210 11:10:15.080832 45784 net.cpp:129] Top shape: 1 212 23 24 (117024)
I0210 11:10:15.080837 45784 net.cpp:137] Memory required for data: 36355424
I0210 11:10:15.080840 45784 layer_factory.hpp:77] Creating layer concat1_4_concat1_4_0_split
I0210 11:10:15.080847 45784 net.cpp:84] Creating Layer concat1_4_concat1_4_0_split
I0210 11:10:15.080852 45784 net.cpp:406] concat1_4_concat1_4_0_split <- concat1_4
I0210 11:10:15.080860 45784 net.cpp:380] concat1_4_concat1_4_0_split -> concat1_4_concat1_4_0_split_0
I0210 11:10:15.080868 45784 net.cpp:380] concat1_4_concat1_4_0_split -> concat1_4_concat1_4_0_split_1
I0210 11:10:15.080963 45784 net.cpp:122] Setting up concat1_4_concat1_4_0_split
I0210 11:10:15.080971 45784 net.cpp:129] Top shape: 1 212 23 24 (117024)
I0210 11:10:15.080976 45784 net.cpp:129] Top shape: 1 212 23 24 (117024)
I0210 11:10:15.080979 45784 net.cpp:137] Memory required for data: 37291616
I0210 11:10:15.080983 45784 layer_factory.hpp:77] Creating layer conv1_5
I0210 11:10:15.080996 45784 net.cpp:84] Creating Layer conv1_5
I0210 11:10:15.081001 45784 net.cpp:406] conv1_5 <- concat1_4_concat1_4_0_split_0
I0210 11:10:15.081010 45784 net.cpp:380] conv1_5 -> conv1_5
I0210 11:10:15.085821 45784 net.cpp:122] Setting up conv1_5
I0210 11:10:15.085839 45784 net.cpp:129] Top shape: 1 12 23 24 (6624)
I0210 11:10:15.085844 45784 net.cpp:137] Memory required for data: 37318112
I0210 11:10:15.085852 45784 layer_factory.hpp:77] Creating layer relu1_5
I0210 11:10:15.085860 45784 net.cpp:84] Creating Layer relu1_5
I0210 11:10:15.085870 45784 net.cpp:406] relu1_5 <- conv1_5
I0210 11:10:15.085880 45784 net.cpp:367] relu1_5 -> conv1_5 (in-place)
I0210 11:10:15.086196 45784 net.cpp:122] Setting up relu1_5
I0210 11:10:15.086212 45784 net.cpp:129] Top shape: 1 12 23 24 (6624)
I0210 11:10:15.086216 45784 net.cpp:137] Memory required for data: 37344608
I0210 11:10:15.086221 45784 layer_factory.hpp:77] Creating layer concat1_5
I0210 11:10:15.086228 45784 net.cpp:84] Creating Layer concat1_5
I0210 11:10:15.086235 45784 net.cpp:406] concat1_5 <- concat1_4_concat1_4_0_split_1
I0210 11:10:15.086241 45784 net.cpp:406] concat1_5 <- conv1_5
I0210 11:10:15.086246 45784 net.cpp:380] concat1_5 -> concat1_5
I0210 11:10:15.086318 45784 net.cpp:122] Setting up concat1_5
I0210 11:10:15.086326 45784 net.cpp:129] Top shape: 1 224 23 24 (123648)
I0210 11:10:15.086329 45784 net.cpp:137] Memory required for data: 37839200
I0210 11:10:15.086333 45784 layer_factory.hpp:77] Creating layer concat1_5_concat1_5_0_split
I0210 11:10:15.086340 45784 net.cpp:84] Creating Layer concat1_5_concat1_5_0_split
I0210 11:10:15.086345 45784 net.cpp:406] concat1_5_concat1_5_0_split <- concat1_5
I0210 11:10:15.086351 45784 net.cpp:380] concat1_5_concat1_5_0_split -> concat1_5_concat1_5_0_split_0
I0210 11:10:15.086360 45784 net.cpp:380] concat1_5_concat1_5_0_split -> concat1_5_concat1_5_0_split_1
I0210 11:10:15.086453 45784 net.cpp:122] Setting up concat1_5_concat1_5_0_split
I0210 11:10:15.086463 45784 net.cpp:129] Top shape: 1 224 23 24 (123648)
I0210 11:10:15.086468 45784 net.cpp:129] Top shape: 1 224 23 24 (123648)
I0210 11:10:15.086472 45784 net.cpp:137] Memory required for data: 38828384
I0210 11:10:15.086477 45784 layer_factory.hpp:77] Creating layer conv1_6
I0210 11:10:15.086489 45784 net.cpp:84] Creating Layer conv1_6
I0210 11:10:15.086494 45784 net.cpp:406] conv1_6 <- concat1_5_concat1_5_0_split_0
I0210 11:10:15.086501 45784 net.cpp:380] conv1_6 -> conv1_6
I0210 11:10:15.091356 45784 net.cpp:122] Setting up conv1_6
I0210 11:10:15.091373 45784 net.cpp:129] Top shape: 1 12 23 24 (6624)
I0210 11:10:15.091378 45784 net.cpp:137] Memory required for data: 38854880
I0210 11:10:15.091387 45784 layer_factory.hpp:77] Creating layer relu1_6
I0210 11:10:15.091395 45784 net.cpp:84] Creating Layer relu1_6
I0210 11:10:15.091401 45784 net.cpp:406] relu1_6 <- conv1_6
I0210 11:10:15.091410 45784 net.cpp:367] relu1_6 -> conv1_6 (in-place)
I0210 11:10:15.091733 45784 net.cpp:122] Setting up relu1_6
I0210 11:10:15.091744 45784 net.cpp:129] Top shape: 1 12 23 24 (6624)
I0210 11:10:15.091748 45784 net.cpp:137] Memory required for data: 38881376
I0210 11:10:15.091753 45784 layer_factory.hpp:77] Creating layer concat1_6
I0210 11:10:15.091763 45784 net.cpp:84] Creating Layer concat1_6
I0210 11:10:15.091768 45784 net.cpp:406] concat1_6 <- concat1_5_concat1_5_0_split_1
I0210 11:10:15.091774 45784 net.cpp:406] concat1_6 <- conv1_6
I0210 11:10:15.091780 45784 net.cpp:380] concat1_6 -> concat1_6
I0210 11:10:15.091848 45784 net.cpp:122] Setting up concat1_6
I0210 11:10:15.091856 45784 net.cpp:129] Top shape: 1 236 23 24 (130272)
I0210 11:10:15.091861 45784 net.cpp:137] Memory required for data: 39402464
I0210 11:10:15.091864 45784 layer_factory.hpp:77] Creating layer concat1_6_concat1_6_0_split
I0210 11:10:15.091873 45784 net.cpp:84] Creating Layer concat1_6_concat1_6_0_split
I0210 11:10:15.091878 45784 net.cpp:406] concat1_6_concat1_6_0_split <- concat1_6
I0210 11:10:15.091884 45784 net.cpp:380] concat1_6_concat1_6_0_split -> concat1_6_concat1_6_0_split_0
I0210 11:10:15.091892 45784 net.cpp:380] concat1_6_concat1_6_0_split -> concat1_6_concat1_6_0_split_1
I0210 11:10:15.091985 45784 net.cpp:122] Setting up concat1_6_concat1_6_0_split
I0210 11:10:15.091994 45784 net.cpp:129] Top shape: 1 236 23 24 (130272)
I0210 11:10:15.091998 45784 net.cpp:129] Top shape: 1 236 23 24 (130272)
I0210 11:10:15.092002 45784 net.cpp:137] Memory required for data: 40444640
I0210 11:10:15.092006 45784 layer_factory.hpp:77] Creating layer conv1_7
I0210 11:10:15.092018 45784 net.cpp:84] Creating Layer conv1_7
I0210 11:10:15.092031 45784 net.cpp:406] conv1_7 <- concat1_6_concat1_6_0_split_0
I0210 11:10:15.092041 45784 net.cpp:380] conv1_7 -> conv1_7
I0210 11:10:15.096871 45784 net.cpp:122] Setting up conv1_7
I0210 11:10:15.096889 45784 net.cpp:129] Top shape: 1 12 23 24 (6624)
I0210 11:10:15.096894 45784 net.cpp:137] Memory required for data: 40471136
I0210 11:10:15.096902 45784 layer_factory.hpp:77] Creating layer relu1_7
I0210 11:10:15.096910 45784 net.cpp:84] Creating Layer relu1_7
I0210 11:10:15.096916 45784 net.cpp:406] relu1_7 <- conv1_7
I0210 11:10:15.096923 45784 net.cpp:367] relu1_7 -> conv1_7 (in-place)
I0210 11:10:15.098368 45784 net.cpp:122] Setting up relu1_7
I0210 11:10:15.098387 45784 net.cpp:129] Top shape: 1 12 23 24 (6624)
I0210 11:10:15.098392 45784 net.cpp:137] Memory required for data: 40497632
I0210 11:10:15.098397 45784 layer_factory.hpp:77] Creating layer concat1_7
I0210 11:10:15.098404 45784 net.cpp:84] Creating Layer concat1_7
I0210 11:10:15.098409 45784 net.cpp:406] concat1_7 <- concat1_6_concat1_6_0_split_1
I0210 11:10:15.098415 45784 net.cpp:406] concat1_7 <- conv1_7
I0210 11:10:15.098423 45784 net.cpp:380] concat1_7 -> concat1_7
I0210 11:10:15.098492 45784 net.cpp:122] Setting up concat1_7
I0210 11:10:15.098500 45784 net.cpp:129] Top shape: 1 248 23 24 (136896)
I0210 11:10:15.098505 45784 net.cpp:137] Memory required for data: 41045216
I0210 11:10:15.098508 45784 layer_factory.hpp:77] Creating layer concat1_7_concat1_7_0_split
I0210 11:10:15.098515 45784 net.cpp:84] Creating Layer concat1_7_concat1_7_0_split
I0210 11:10:15.098518 45784 net.cpp:406] concat1_7_concat1_7_0_split <- concat1_7
I0210 11:10:15.098525 45784 net.cpp:380] concat1_7_concat1_7_0_split -> concat1_7_concat1_7_0_split_0
I0210 11:10:15.098533 45784 net.cpp:380] concat1_7_concat1_7_0_split -> concat1_7_concat1_7_0_split_1
I0210 11:10:15.098625 45784 net.cpp:122] Setting up concat1_7_concat1_7_0_split
I0210 11:10:15.098634 45784 net.cpp:129] Top shape: 1 248 23 24 (136896)
I0210 11:10:15.098639 45784 net.cpp:129] Top shape: 1 248 23 24 (136896)
I0210 11:10:15.098641 45784 net.cpp:137] Memory required for data: 42140384
I0210 11:10:15.098645 45784 layer_factory.hpp:77] Creating layer conv1_8
I0210 11:10:15.098659 45784 net.cpp:84] Creating Layer conv1_8
I0210 11:10:15.098662 45784 net.cpp:406] conv1_8 <- concat1_7_concat1_7_0_split_0
I0210 11:10:15.098670 45784 net.cpp:380] conv1_8 -> conv1_8
I0210 11:10:15.103401 45784 net.cpp:122] Setting up conv1_8
I0210 11:10:15.103418 45784 net.cpp:129] Top shape: 1 12 23 24 (6624)
I0210 11:10:15.103422 45784 net.cpp:137] Memory required for data: 42166880
I0210 11:10:15.103430 45784 layer_factory.hpp:77] Creating layer relu1_8
I0210 11:10:15.103440 45784 net.cpp:84] Creating Layer relu1_8
I0210 11:10:15.103444 45784 net.cpp:406] relu1_8 <- conv1_8
I0210 11:10:15.103453 45784 net.cpp:367] relu1_8 -> conv1_8 (in-place)
I0210 11:10:15.103760 45784 net.cpp:122] Setting up relu1_8
I0210 11:10:15.103770 45784 net.cpp:129] Top shape: 1 12 23 24 (6624)
I0210 11:10:15.103775 45784 net.cpp:137] Memory required for data: 42193376
I0210 11:10:15.103778 45784 layer_factory.hpp:77] Creating layer concat1_8
I0210 11:10:15.103788 45784 net.cpp:84] Creating Layer concat1_8
I0210 11:10:15.103793 45784 net.cpp:406] concat1_8 <- concat1_7_concat1_7_0_split_1
I0210 11:10:15.103799 45784 net.cpp:406] concat1_8 <- conv1_8
I0210 11:10:15.103806 45784 net.cpp:380] concat1_8 -> concat1_8
I0210 11:10:15.103873 45784 net.cpp:122] Setting up concat1_8
I0210 11:10:15.103884 45784 net.cpp:129] Top shape: 1 260 23 24 (143520)
I0210 11:10:15.103888 45784 net.cpp:137] Memory required for data: 42767456
I0210 11:10:15.103893 45784 layer_factory.hpp:77] Creating layer concat1_8_concat1_8_0_split
I0210 11:10:15.103899 45784 net.cpp:84] Creating Layer concat1_8_concat1_8_0_split
I0210 11:10:15.103902 45784 net.cpp:406] concat1_8_concat1_8_0_split <- concat1_8
I0210 11:10:15.103909 45784 net.cpp:380] concat1_8_concat1_8_0_split -> concat1_8_concat1_8_0_split_0
I0210 11:10:15.103915 45784 net.cpp:380] concat1_8_concat1_8_0_split -> concat1_8_concat1_8_0_split_1
I0210 11:10:15.104014 45784 net.cpp:122] Setting up concat1_8_concat1_8_0_split
I0210 11:10:15.104022 45784 net.cpp:129] Top shape: 1 260 23 24 (143520)
I0210 11:10:15.104027 45784 net.cpp:129] Top shape: 1 260 23 24 (143520)
I0210 11:10:15.104030 45784 net.cpp:137] Memory required for data: 43915616
I0210 11:10:15.104034 45784 layer_factory.hpp:77] Creating layer conv1_9
I0210 11:10:15.104046 45784 net.cpp:84] Creating Layer conv1_9
I0210 11:10:15.104051 45784 net.cpp:406] conv1_9 <- concat1_8_concat1_8_0_split_0
I0210 11:10:15.104061 45784 net.cpp:380] conv1_9 -> conv1_9
I0210 11:10:15.108743 45784 net.cpp:122] Setting up conv1_9
I0210 11:10:15.108762 45784 net.cpp:129] Top shape: 1 12 23 24 (6624)
I0210 11:10:15.108767 45784 net.cpp:137] Memory required for data: 43942112
I0210 11:10:15.108774 45784 layer_factory.hpp:77] Creating layer relu1_9
I0210 11:10:15.108783 45784 net.cpp:84] Creating Layer relu1_9
I0210 11:10:15.108788 45784 net.cpp:406] relu1_9 <- conv1_9
I0210 11:10:15.108794 45784 net.cpp:367] relu1_9 -> conv1_9 (in-place)
I0210 11:10:15.109096 45784 net.cpp:122] Setting up relu1_9
I0210 11:10:15.109107 45784 net.cpp:129] Top shape: 1 12 23 24 (6624)
I0210 11:10:15.109110 45784 net.cpp:137] Memory required for data: 43968608
I0210 11:10:15.109114 45784 layer_factory.hpp:77] Creating layer concat1_9
I0210 11:10:15.109122 45784 net.cpp:84] Creating Layer concat1_9
I0210 11:10:15.109127 45784 net.cpp:406] concat1_9 <- concat1_8_concat1_8_0_split_1
I0210 11:10:15.109131 45784 net.cpp:406] concat1_9 <- conv1_9
I0210 11:10:15.109140 45784 net.cpp:380] concat1_9 -> concat1_9
I0210 11:10:15.109205 45784 net.cpp:122] Setting up concat1_9
I0210 11:10:15.109211 45784 net.cpp:129] Top shape: 1 272 23 24 (150144)
I0210 11:10:15.109215 45784 net.cpp:137] Memory required for data: 44569184
I0210 11:10:15.109218 45784 layer_factory.hpp:77] Creating layer concat1_9_concat1_9_0_split
I0210 11:10:15.109225 45784 net.cpp:84] Creating Layer concat1_9_concat1_9_0_split
I0210 11:10:15.109231 45784 net.cpp:406] concat1_9_concat1_9_0_split <- concat1_9
I0210 11:10:15.109237 45784 net.cpp:380] concat1_9_concat1_9_0_split -> concat1_9_concat1_9_0_split_0
I0210 11:10:15.109243 45784 net.cpp:380] concat1_9_concat1_9_0_split -> concat1_9_concat1_9_0_split_1
I0210 11:10:15.109334 45784 net.cpp:122] Setting up concat1_9_concat1_9_0_split
I0210 11:10:15.109341 45784 net.cpp:129] Top shape: 1 272 23 24 (150144)
I0210 11:10:15.109345 45784 net.cpp:129] Top shape: 1 272 23 24 (150144)
I0210 11:10:15.109349 45784 net.cpp:137] Memory required for data: 45770336
I0210 11:10:15.109354 45784 layer_factory.hpp:77] Creating layer conv1_10
I0210 11:10:15.109367 45784 net.cpp:84] Creating Layer conv1_10
I0210 11:10:15.109371 45784 net.cpp:406] conv1_10 <- concat1_9_concat1_9_0_split_0
I0210 11:10:15.109380 45784 net.cpp:380] conv1_10 -> conv1_10
I0210 11:10:15.114022 45784 net.cpp:122] Setting up conv1_10
I0210 11:10:15.114037 45784 net.cpp:129] Top shape: 1 12 23 24 (6624)
I0210 11:10:15.114042 45784 net.cpp:137] Memory required for data: 45796832
I0210 11:10:15.114049 45784 layer_factory.hpp:77] Creating layer relu1_10
I0210 11:10:15.114059 45784 net.cpp:84] Creating Layer relu1_10
I0210 11:10:15.114064 45784 net.cpp:406] relu1_10 <- conv1_10
I0210 11:10:15.114071 45784 net.cpp:367] relu1_10 -> conv1_10 (in-place)
I0210 11:10:15.115460 45784 net.cpp:122] Setting up relu1_10
I0210 11:10:15.115478 45784 net.cpp:129] Top shape: 1 12 23 24 (6624)
I0210 11:10:15.115483 45784 net.cpp:137] Memory required for data: 45823328
I0210 11:10:15.115487 45784 layer_factory.hpp:77] Creating layer concat1_10
I0210 11:10:15.115494 45784 net.cpp:84] Creating Layer concat1_10
I0210 11:10:15.115499 45784 net.cpp:406] concat1_10 <- concat1_9_concat1_9_0_split_1
I0210 11:10:15.115505 45784 net.cpp:406] concat1_10 <- conv1_10
I0210 11:10:15.115512 45784 net.cpp:380] concat1_10 -> concat1_10
I0210 11:10:15.115581 45784 net.cpp:122] Setting up concat1_10
I0210 11:10:15.115588 45784 net.cpp:129] Top shape: 1 284 23 24 (156768)
I0210 11:10:15.115597 45784 net.cpp:137] Memory required for data: 46450400
I0210 11:10:15.115600 45784 layer_factory.hpp:77] Creating layer concat1_10_concat1_10_0_split
I0210 11:10:15.115607 45784 net.cpp:84] Creating Layer concat1_10_concat1_10_0_split
I0210 11:10:15.115610 45784 net.cpp:406] concat1_10_concat1_10_0_split <- concat1_10
I0210 11:10:15.115617 45784 net.cpp:380] concat1_10_concat1_10_0_split -> concat1_10_concat1_10_0_split_0
I0210 11:10:15.115624 45784 net.cpp:380] concat1_10_concat1_10_0_split -> concat1_10_concat1_10_0_split_1
I0210 11:10:15.115716 45784 net.cpp:122] Setting up concat1_10_concat1_10_0_split
I0210 11:10:15.115725 45784 net.cpp:129] Top shape: 1 284 23 24 (156768)
I0210 11:10:15.115731 45784 net.cpp:129] Top shape: 1 284 23 24 (156768)
I0210 11:10:15.115733 45784 net.cpp:137] Memory required for data: 47704544
I0210 11:10:15.115737 45784 layer_factory.hpp:77] Creating layer conv1_11
I0210 11:10:15.115749 45784 net.cpp:84] Creating Layer conv1_11
I0210 11:10:15.115753 45784 net.cpp:406] conv1_11 <- concat1_10_concat1_10_0_split_0
I0210 11:10:15.115761 45784 net.cpp:380] conv1_11 -> conv1_11
I0210 11:10:15.120332 45784 net.cpp:122] Setting up conv1_11
I0210 11:10:15.120347 45784 net.cpp:129] Top shape: 1 12 23 24 (6624)
I0210 11:10:15.120352 45784 net.cpp:137] Memory required for data: 47731040
I0210 11:10:15.120358 45784 layer_factory.hpp:77] Creating layer relu1_11
I0210 11:10:15.120367 45784 net.cpp:84] Creating Layer relu1_11
I0210 11:10:15.120371 45784 net.cpp:406] relu1_11 <- conv1_11
I0210 11:10:15.120378 45784 net.cpp:367] relu1_11 -> conv1_11 (in-place)
I0210 11:10:15.120676 45784 net.cpp:122] Setting up relu1_11
I0210 11:10:15.120687 45784 net.cpp:129] Top shape: 1 12 23 24 (6624)
I0210 11:10:15.120690 45784 net.cpp:137] Memory required for data: 47757536
I0210 11:10:15.120694 45784 layer_factory.hpp:77] Creating layer concat1_11
I0210 11:10:15.120703 45784 net.cpp:84] Creating Layer concat1_11
I0210 11:10:15.120708 45784 net.cpp:406] concat1_11 <- concat1_10_concat1_10_0_split_1
I0210 11:10:15.120713 45784 net.cpp:406] concat1_11 <- conv1_11
I0210 11:10:15.120719 45784 net.cpp:380] concat1_11 -> concat1_11
I0210 11:10:15.120782 45784 net.cpp:122] Setting up concat1_11
I0210 11:10:15.120790 45784 net.cpp:129] Top shape: 1 296 23 24 (163392)
I0210 11:10:15.120793 45784 net.cpp:137] Memory required for data: 48411104
I0210 11:10:15.120796 45784 layer_factory.hpp:77] Creating layer concat1_11_concat1_11_0_split
I0210 11:10:15.120810 45784 net.cpp:84] Creating Layer concat1_11_concat1_11_0_split
I0210 11:10:15.120815 45784 net.cpp:406] concat1_11_concat1_11_0_split <- concat1_11
I0210 11:10:15.120820 45784 net.cpp:380] concat1_11_concat1_11_0_split -> concat1_11_concat1_11_0_split_0
I0210 11:10:15.120826 45784 net.cpp:380] concat1_11_concat1_11_0_split -> concat1_11_concat1_11_0_split_1
I0210 11:10:15.120914 45784 net.cpp:122] Setting up concat1_11_concat1_11_0_split
I0210 11:10:15.120921 45784 net.cpp:129] Top shape: 1 296 23 24 (163392)
I0210 11:10:15.120925 45784 net.cpp:129] Top shape: 1 296 23 24 (163392)
I0210 11:10:15.120929 45784 net.cpp:137] Memory required for data: 49718240
I0210 11:10:15.120932 45784 layer_factory.hpp:77] Creating layer conv1_12
I0210 11:10:15.120944 45784 net.cpp:84] Creating Layer conv1_12
I0210 11:10:15.120949 45784 net.cpp:406] conv1_12 <- concat1_11_concat1_11_0_split_0
I0210 11:10:15.120956 45784 net.cpp:380] conv1_12 -> conv1_12
I0210 11:10:15.125548 45784 net.cpp:122] Setting up conv1_12
I0210 11:10:15.125564 45784 net.cpp:129] Top shape: 1 12 23 24 (6624)
I0210 11:10:15.125571 45784 net.cpp:137] Memory required for data: 49744736
I0210 11:10:15.125578 45784 layer_factory.hpp:77] Creating layer relu1_12
I0210 11:10:15.125586 45784 net.cpp:84] Creating Layer relu1_12
I0210 11:10:15.125591 45784 net.cpp:406] relu1_12 <- conv1_12
I0210 11:10:15.125597 45784 net.cpp:367] relu1_12 -> conv1_12 (in-place)
I0210 11:10:15.125890 45784 net.cpp:122] Setting up relu1_12
I0210 11:10:15.125900 45784 net.cpp:129] Top shape: 1 12 23 24 (6624)
I0210 11:10:15.125908 45784 net.cpp:137] Memory required for data: 49771232
I0210 11:10:15.125913 45784 layer_factory.hpp:77] Creating layer concat1_12
I0210 11:10:15.125919 45784 net.cpp:84] Creating Layer concat1_12
I0210 11:10:15.125924 45784 net.cpp:406] concat1_12 <- concat1_11_concat1_11_0_split_1
I0210 11:10:15.125929 45784 net.cpp:406] concat1_12 <- conv1_12
I0210 11:10:15.125937 45784 net.cpp:380] concat1_12 -> concat1_12
I0210 11:10:15.126000 45784 net.cpp:122] Setting up concat1_12
I0210 11:10:15.126008 45784 net.cpp:129] Top shape: 1 308 23 24 (170016)
I0210 11:10:15.126011 45784 net.cpp:137] Memory required for data: 50451296
I0210 11:10:15.126015 45784 layer_factory.hpp:77] Creating layer concat1_12_concat1_12_0_split
I0210 11:10:15.126020 45784 net.cpp:84] Creating Layer concat1_12_concat1_12_0_split
I0210 11:10:15.126024 45784 net.cpp:406] concat1_12_concat1_12_0_split <- concat1_12
I0210 11:10:15.126032 45784 net.cpp:380] concat1_12_concat1_12_0_split -> concat1_12_concat1_12_0_split_0
I0210 11:10:15.126039 45784 net.cpp:380] concat1_12_concat1_12_0_split -> concat1_12_concat1_12_0_split_1
I0210 11:10:15.126127 45784 net.cpp:122] Setting up concat1_12_concat1_12_0_split
I0210 11:10:15.126134 45784 net.cpp:129] Top shape: 1 308 23 24 (170016)
I0210 11:10:15.126138 45784 net.cpp:129] Top shape: 1 308 23 24 (170016)
I0210 11:10:15.126142 45784 net.cpp:137] Memory required for data: 51811424
I0210 11:10:15.126145 45784 layer_factory.hpp:77] Creating layer conv1_13
I0210 11:10:15.126157 45784 net.cpp:84] Creating Layer conv1_13
I0210 11:10:15.126161 45784 net.cpp:406] conv1_13 <- concat1_12_concat1_12_0_split_0
I0210 11:10:15.126168 45784 net.cpp:380] conv1_13 -> conv1_13
I0210 11:10:15.130781 45784 net.cpp:122] Setting up conv1_13
I0210 11:10:15.130796 45784 net.cpp:129] Top shape: 1 12 23 24 (6624)
I0210 11:10:15.130801 45784 net.cpp:137] Memory required for data: 51837920
I0210 11:10:15.130808 45784 layer_factory.hpp:77] Creating layer relu1_13
I0210 11:10:15.130817 45784 net.cpp:84] Creating Layer relu1_13
I0210 11:10:15.130822 45784 net.cpp:406] relu1_13 <- conv1_13
I0210 11:10:15.130830 45784 net.cpp:367] relu1_13 -> conv1_13 (in-place)
I0210 11:10:15.132164 45784 net.cpp:122] Setting up relu1_13
I0210 11:10:15.132180 45784 net.cpp:129] Top shape: 1 12 23 24 (6624)
I0210 11:10:15.132185 45784 net.cpp:137] Memory required for data: 51864416
I0210 11:10:15.132189 45784 layer_factory.hpp:77] Creating layer concat1_13
I0210 11:10:15.132197 45784 net.cpp:84] Creating Layer concat1_13
I0210 11:10:15.132201 45784 net.cpp:406] concat1_13 <- concat1_12_concat1_12_0_split_1
I0210 11:10:15.132207 45784 net.cpp:406] concat1_13 <- conv1_13
I0210 11:10:15.132213 45784 net.cpp:380] concat1_13 -> concat1_13
I0210 11:10:15.132279 45784 net.cpp:122] Setting up concat1_13
I0210 11:10:15.132287 45784 net.cpp:129] Top shape: 1 320 23 24 (176640)
I0210 11:10:15.132290 45784 net.cpp:137] Memory required for data: 52570976
I0210 11:10:15.132294 45784 layer_factory.hpp:77] Creating layer concat1_13_concat1_13_0_split
I0210 11:10:15.132299 45784 net.cpp:84] Creating Layer concat1_13_concat1_13_0_split
I0210 11:10:15.132303 45784 net.cpp:406] concat1_13_concat1_13_0_split <- concat1_13
I0210 11:10:15.132309 45784 net.cpp:380] concat1_13_concat1_13_0_split -> concat1_13_concat1_13_0_split_0
I0210 11:10:15.132315 45784 net.cpp:380] concat1_13_concat1_13_0_split -> concat1_13_concat1_13_0_split_1
I0210 11:10:15.132403 45784 net.cpp:122] Setting up concat1_13_concat1_13_0_split
I0210 11:10:15.132412 45784 net.cpp:129] Top shape: 1 320 23 24 (176640)
I0210 11:10:15.132416 45784 net.cpp:129] Top shape: 1 320 23 24 (176640)
I0210 11:10:15.132421 45784 net.cpp:137] Memory required for data: 53984096
I0210 11:10:15.132423 45784 layer_factory.hpp:77] Creating layer conv1_14
I0210 11:10:15.132436 45784 net.cpp:84] Creating Layer conv1_14
I0210 11:10:15.132439 45784 net.cpp:406] conv1_14 <- concat1_13_concat1_13_0_split_0
I0210 11:10:15.132445 45784 net.cpp:380] conv1_14 -> conv1_14
I0210 11:10:15.138288 45784 net.cpp:122] Setting up conv1_14
I0210 11:10:15.138306 45784 net.cpp:129] Top shape: 1 12 23 24 (6624)
I0210 11:10:15.138311 45784 net.cpp:137] Memory required for data: 54010592
I0210 11:10:15.138319 45784 layer_factory.hpp:77] Creating layer relu1_14
I0210 11:10:15.138329 45784 net.cpp:84] Creating Layer relu1_14
I0210 11:10:15.138334 45784 net.cpp:406] relu1_14 <- conv1_14
I0210 11:10:15.138340 45784 net.cpp:367] relu1_14 -> conv1_14 (in-place)
I0210 11:10:15.138623 45784 net.cpp:122] Setting up relu1_14
I0210 11:10:15.138633 45784 net.cpp:129] Top shape: 1 12 23 24 (6624)
I0210 11:10:15.138636 45784 net.cpp:137] Memory required for data: 54037088
I0210 11:10:15.138640 45784 layer_factory.hpp:77] Creating layer concat1_14
I0210 11:10:15.138648 45784 net.cpp:84] Creating Layer concat1_14
I0210 11:10:15.138653 45784 net.cpp:406] concat1_14 <- concat1_13_concat1_13_0_split_1
I0210 11:10:15.138659 45784 net.cpp:406] concat1_14 <- conv1_14
I0210 11:10:15.138665 45784 net.cpp:380] concat1_14 -> concat1_14
I0210 11:10:15.138730 45784 net.cpp:122] Setting up concat1_14
I0210 11:10:15.138737 45784 net.cpp:129] Top shape: 1 332 23 24 (183264)
I0210 11:10:15.138741 45784 net.cpp:137] Memory required for data: 54770144
I0210 11:10:15.138744 45784 layer_factory.hpp:77] Creating layer concat1_14_concat1_14_0_split
I0210 11:10:15.138756 45784 net.cpp:84] Creating Layer concat1_14_concat1_14_0_split
I0210 11:10:15.138759 45784 net.cpp:406] concat1_14_concat1_14_0_split <- concat1_14
I0210 11:10:15.138764 45784 net.cpp:380] concat1_14_concat1_14_0_split -> concat1_14_concat1_14_0_split_0
I0210 11:10:15.138772 45784 net.cpp:380] concat1_14_concat1_14_0_split -> concat1_14_concat1_14_0_split_1
I0210 11:10:15.138859 45784 net.cpp:122] Setting up concat1_14_concat1_14_0_split
I0210 11:10:15.138866 45784 net.cpp:129] Top shape: 1 332 23 24 (183264)
I0210 11:10:15.138870 45784 net.cpp:129] Top shape: 1 332 23 24 (183264)
I0210 11:10:15.138873 45784 net.cpp:137] Memory required for data: 56236256
I0210 11:10:15.138877 45784 layer_factory.hpp:77] Creating layer conv1_15
I0210 11:10:15.138888 45784 net.cpp:84] Creating Layer conv1_15
I0210 11:10:15.138895 45784 net.cpp:406] conv1_15 <- concat1_14_concat1_14_0_split_0
I0210 11:10:15.138901 45784 net.cpp:380] conv1_15 -> conv1_15
I0210 11:10:15.143632 45784 net.cpp:122] Setting up conv1_15
I0210 11:10:15.143648 45784 net.cpp:129] Top shape: 1 12 23 24 (6624)
I0210 11:10:15.143652 45784 net.cpp:137] Memory required for data: 56262752
I0210 11:10:15.143661 45784 layer_factory.hpp:77] Creating layer relu1_15
I0210 11:10:15.143669 45784 net.cpp:84] Creating Layer relu1_15
I0210 11:10:15.143674 45784 net.cpp:406] relu1_15 <- conv1_15
I0210 11:10:15.143682 45784 net.cpp:367] relu1_15 -> conv1_15 (in-place)
I0210 11:10:15.143965 45784 net.cpp:122] Setting up relu1_15
I0210 11:10:15.143975 45784 net.cpp:129] Top shape: 1 12 23 24 (6624)
I0210 11:10:15.143978 45784 net.cpp:137] Memory required for data: 56289248
I0210 11:10:15.143982 45784 layer_factory.hpp:77] Creating layer concat1_15
I0210 11:10:15.143988 45784 net.cpp:84] Creating Layer concat1_15
I0210 11:10:15.143993 45784 net.cpp:406] concat1_15 <- concat1_14_concat1_14_0_split_1
I0210 11:10:15.143998 45784 net.cpp:406] concat1_15 <- conv1_15
I0210 11:10:15.144004 45784 net.cpp:380] concat1_15 -> concat1_15
I0210 11:10:15.144068 45784 net.cpp:122] Setting up concat1_15
I0210 11:10:15.144076 45784 net.cpp:129] Top shape: 1 344 23 24 (189888)
I0210 11:10:15.144079 45784 net.cpp:137] Memory required for data: 57048800
I0210 11:10:15.144083 45784 layer_factory.hpp:77] Creating layer concat1_15_concat1_15_0_split
I0210 11:10:15.144088 45784 net.cpp:84] Creating Layer concat1_15_concat1_15_0_split
I0210 11:10:15.144093 45784 net.cpp:406] concat1_15_concat1_15_0_split <- concat1_15
I0210 11:10:15.144100 45784 net.cpp:380] concat1_15_concat1_15_0_split -> concat1_15_concat1_15_0_split_0
I0210 11:10:15.144107 45784 net.cpp:380] concat1_15_concat1_15_0_split -> concat1_15_concat1_15_0_split_1
I0210 11:10:15.144196 45784 net.cpp:122] Setting up concat1_15_concat1_15_0_split
I0210 11:10:15.144203 45784 net.cpp:129] Top shape: 1 344 23 24 (189888)
I0210 11:10:15.144212 45784 net.cpp:129] Top shape: 1 344 23 24 (189888)
I0210 11:10:15.144214 45784 net.cpp:137] Memory required for data: 58567904
I0210 11:10:15.144218 45784 layer_factory.hpp:77] Creating layer conv1_16
I0210 11:10:15.144229 45784 net.cpp:84] Creating Layer conv1_16
I0210 11:10:15.144234 45784 net.cpp:406] conv1_16 <- concat1_15_concat1_15_0_split_0
I0210 11:10:15.144240 45784 net.cpp:380] conv1_16 -> conv1_16
I0210 11:10:15.148985 45784 net.cpp:122] Setting up conv1_16
I0210 11:10:15.149001 45784 net.cpp:129] Top shape: 1 12 23 24 (6624)
I0210 11:10:15.149005 45784 net.cpp:137] Memory required for data: 58594400
I0210 11:10:15.149013 45784 layer_factory.hpp:77] Creating layer relu1_16
I0210 11:10:15.149020 45784 net.cpp:84] Creating Layer relu1_16
I0210 11:10:15.149025 45784 net.cpp:406] relu1_16 <- conv1_16
I0210 11:10:15.149034 45784 net.cpp:367] relu1_16 -> conv1_16 (in-place)
I0210 11:10:15.149319 45784 net.cpp:122] Setting up relu1_16
I0210 11:10:15.149329 45784 net.cpp:129] Top shape: 1 12 23 24 (6624)
I0210 11:10:15.149333 45784 net.cpp:137] Memory required for data: 58620896
I0210 11:10:15.149336 45784 layer_factory.hpp:77] Creating layer concat1_16
I0210 11:10:15.149345 45784 net.cpp:84] Creating Layer concat1_16
I0210 11:10:15.149350 45784 net.cpp:406] concat1_16 <- concat1_15_concat1_15_0_split_1
I0210 11:10:15.149355 45784 net.cpp:406] concat1_16 <- conv1_16
I0210 11:10:15.149361 45784 net.cpp:380] concat1_16 -> concat1_16
I0210 11:10:15.149425 45784 net.cpp:122] Setting up concat1_16
I0210 11:10:15.149432 45784 net.cpp:129] Top shape: 1 356 23 24 (196512)
I0210 11:10:15.149436 45784 net.cpp:137] Memory required for data: 59406944
I0210 11:10:15.149440 45784 layer_factory.hpp:77] Creating layer concat1_16_concat1_16_0_split
I0210 11:10:15.149446 45784 net.cpp:84] Creating Layer concat1_16_concat1_16_0_split
I0210 11:10:15.149451 45784 net.cpp:406] concat1_16_concat1_16_0_split <- concat1_16
I0210 11:10:15.149456 45784 net.cpp:380] concat1_16_concat1_16_0_split -> concat1_16_concat1_16_0_split_0
I0210 11:10:15.149461 45784 net.cpp:380] concat1_16_concat1_16_0_split -> concat1_16_concat1_16_0_split_1
I0210 11:10:15.149549 45784 net.cpp:122] Setting up concat1_16_concat1_16_0_split
I0210 11:10:15.149556 45784 net.cpp:129] Top shape: 1 356 23 24 (196512)
I0210 11:10:15.149562 45784 net.cpp:129] Top shape: 1 356 23 24 (196512)
I0210 11:10:15.149565 45784 net.cpp:137] Memory required for data: 60979040
I0210 11:10:15.149569 45784 layer_factory.hpp:77] Creating layer conv1_17
I0210 11:10:15.149580 45784 net.cpp:84] Creating Layer conv1_17
I0210 11:10:15.149583 45784 net.cpp:406] conv1_17 <- concat1_16_concat1_16_0_split_0
I0210 11:10:15.149592 45784 net.cpp:380] conv1_17 -> conv1_17
I0210 11:10:15.156286 45784 net.cpp:122] Setting up conv1_17
I0210 11:10:15.156304 45784 net.cpp:129] Top shape: 1 12 23 24 (6624)
I0210 11:10:15.156309 45784 net.cpp:137] Memory required for data: 61005536
I0210 11:10:15.156316 45784 layer_factory.hpp:77] Creating layer relu1_17
I0210 11:10:15.156324 45784 net.cpp:84] Creating Layer relu1_17
I0210 11:10:15.156329 45784 net.cpp:406] relu1_17 <- conv1_17
I0210 11:10:15.156335 45784 net.cpp:367] relu1_17 -> conv1_17 (in-place)
I0210 11:10:15.157687 45784 net.cpp:122] Setting up relu1_17
I0210 11:10:15.157703 45784 net.cpp:129] Top shape: 1 12 23 24 (6624)
I0210 11:10:15.157707 45784 net.cpp:137] Memory required for data: 61032032
I0210 11:10:15.157712 45784 layer_factory.hpp:77] Creating layer concat1_17
I0210 11:10:15.157719 45784 net.cpp:84] Creating Layer concat1_17
I0210 11:10:15.157724 45784 net.cpp:406] concat1_17 <- concat1_16_concat1_16_0_split_1
I0210 11:10:15.157730 45784 net.cpp:406] concat1_17 <- conv1_17
I0210 11:10:15.157738 45784 net.cpp:380] concat1_17 -> concat1_17
I0210 11:10:15.157805 45784 net.cpp:122] Setting up concat1_17
I0210 11:10:15.157812 45784 net.cpp:129] Top shape: 1 368 23 24 (203136)
I0210 11:10:15.157816 45784 net.cpp:137] Memory required for data: 61844576
I0210 11:10:15.157819 45784 layer_factory.hpp:77] Creating layer concat1_17_concat1_17_0_split
I0210 11:10:15.157829 45784 net.cpp:84] Creating Layer concat1_17_concat1_17_0_split
I0210 11:10:15.157835 45784 net.cpp:406] concat1_17_concat1_17_0_split <- concat1_17
I0210 11:10:15.157845 45784 net.cpp:380] concat1_17_concat1_17_0_split -> concat1_17_concat1_17_0_split_0
I0210 11:10:15.157851 45784 net.cpp:380] concat1_17_concat1_17_0_split -> concat1_17_concat1_17_0_split_1
I0210 11:10:15.157944 45784 net.cpp:122] Setting up concat1_17_concat1_17_0_split
I0210 11:10:15.157951 45784 net.cpp:129] Top shape: 1 368 23 24 (203136)
I0210 11:10:15.157956 45784 net.cpp:129] Top shape: 1 368 23 24 (203136)
I0210 11:10:15.157959 45784 net.cpp:137] Memory required for data: 63469664
I0210 11:10:15.157963 45784 layer_factory.hpp:77] Creating layer conv1_18
I0210 11:10:15.157974 45784 net.cpp:84] Creating Layer conv1_18
I0210 11:10:15.157979 45784 net.cpp:406] conv1_18 <- concat1_17_concat1_17_0_split_0
I0210 11:10:15.157987 45784 net.cpp:380] conv1_18 -> conv1_18
I0210 11:10:15.162778 45784 net.cpp:122] Setting up conv1_18
I0210 11:10:15.162794 45784 net.cpp:129] Top shape: 1 12 23 24 (6624)
I0210 11:10:15.162799 45784 net.cpp:137] Memory required for data: 63496160
I0210 11:10:15.162806 45784 layer_factory.hpp:77] Creating layer relu1_18
I0210 11:10:15.162814 45784 net.cpp:84] Creating Layer relu1_18
I0210 11:10:15.162819 45784 net.cpp:406] relu1_18 <- conv1_18
I0210 11:10:15.162827 45784 net.cpp:367] relu1_18 -> conv1_18 (in-place)
I0210 11:10:15.163112 45784 net.cpp:122] Setting up relu1_18
I0210 11:10:15.163123 45784 net.cpp:129] Top shape: 1 12 23 24 (6624)
I0210 11:10:15.163127 45784 net.cpp:137] Memory required for data: 63522656
I0210 11:10:15.163131 45784 layer_factory.hpp:77] Creating layer concat1_18
I0210 11:10:15.163138 45784 net.cpp:84] Creating Layer concat1_18
I0210 11:10:15.163143 45784 net.cpp:406] concat1_18 <- concat1_17_concat1_17_0_split_1
I0210 11:10:15.163148 45784 net.cpp:406] concat1_18 <- conv1_18
I0210 11:10:15.163154 45784 net.cpp:380] concat1_18 -> concat1_18
I0210 11:10:15.163219 45784 net.cpp:122] Setting up concat1_18
I0210 11:10:15.163226 45784 net.cpp:129] Top shape: 1 380 23 24 (209760)
I0210 11:10:15.163230 45784 net.cpp:137] Memory required for data: 64361696
I0210 11:10:15.163233 45784 layer_factory.hpp:77] Creating layer concat1_18_concat1_18_0_split
I0210 11:10:15.163239 45784 net.cpp:84] Creating Layer concat1_18_concat1_18_0_split
I0210 11:10:15.163244 45784 net.cpp:406] concat1_18_concat1_18_0_split <- concat1_18
I0210 11:10:15.163249 45784 net.cpp:380] concat1_18_concat1_18_0_split -> concat1_18_concat1_18_0_split_0
I0210 11:10:15.163255 45784 net.cpp:380] concat1_18_concat1_18_0_split -> concat1_18_concat1_18_0_split_1
I0210 11:10:15.163345 45784 net.cpp:122] Setting up concat1_18_concat1_18_0_split
I0210 11:10:15.163354 45784 net.cpp:129] Top shape: 1 380 23 24 (209760)
I0210 11:10:15.163359 45784 net.cpp:129] Top shape: 1 380 23 24 (209760)
I0210 11:10:15.163362 45784 net.cpp:137] Memory required for data: 66039776
I0210 11:10:15.163367 45784 layer_factory.hpp:77] Creating layer conv1_19
I0210 11:10:15.163378 45784 net.cpp:84] Creating Layer conv1_19
I0210 11:10:15.163383 45784 net.cpp:406] conv1_19 <- concat1_18_concat1_18_0_split_0
I0210 11:10:15.163388 45784 net.cpp:380] conv1_19 -> conv1_19
I0210 11:10:15.168262 45784 net.cpp:122] Setting up conv1_19
I0210 11:10:15.168278 45784 net.cpp:129] Top shape: 1 12 23 24 (6624)
I0210 11:10:15.168282 45784 net.cpp:137] Memory required for data: 66066272
I0210 11:10:15.168289 45784 layer_factory.hpp:77] Creating layer relu1_19
I0210 11:10:15.168298 45784 net.cpp:84] Creating Layer relu1_19
I0210 11:10:15.168303 45784 net.cpp:406] relu1_19 <- conv1_19
I0210 11:10:15.168308 45784 net.cpp:367] relu1_19 -> conv1_19 (in-place)
I0210 11:10:15.168598 45784 net.cpp:122] Setting up relu1_19
I0210 11:10:15.168608 45784 net.cpp:129] Top shape: 1 12 23 24 (6624)
I0210 11:10:15.168612 45784 net.cpp:137] Memory required for data: 66092768
I0210 11:10:15.168615 45784 layer_factory.hpp:77] Creating layer concat1_19
I0210 11:10:15.168638 45784 net.cpp:84] Creating Layer concat1_19
I0210 11:10:15.168646 45784 net.cpp:406] concat1_19 <- concat1_18_concat1_18_0_split_1
I0210 11:10:15.168653 45784 net.cpp:406] concat1_19 <- conv1_19
I0210 11:10:15.168658 45784 net.cpp:380] concat1_19 -> concat1_19
I0210 11:10:15.168723 45784 net.cpp:122] Setting up concat1_19
I0210 11:10:15.168731 45784 net.cpp:129] Top shape: 1 392 23 24 (216384)
I0210 11:10:15.168735 45784 net.cpp:137] Memory required for data: 66958304
I0210 11:10:15.168738 45784 layer_factory.hpp:77] Creating layer tpp5
I0210 11:10:15.168747 45784 net.cpp:84] Creating Layer tpp5
I0210 11:10:15.168751 45784 net.cpp:406] tpp5 <- concat1_19
I0210 11:10:15.168757 45784 net.cpp:380] tpp5 -> tpp5
I0210 11:10:15.169859 45784 net.cpp:122] Setting up tpp5
I0210 11:10:15.169870 45784 net.cpp:129] Top shape: 1 5880 (5880)
I0210 11:10:15.169874 45784 net.cpp:137] Memory required for data: 66981824
I0210 11:10:15.169879 45784 layer_factory.hpp:77] Creating layer fc6_d
I0210 11:10:15.169898 45784 net.cpp:84] Creating Layer fc6_d
I0210 11:10:15.169903 45784 net.cpp:406] fc6_d <- tpp5
I0210 11:10:15.169909 45784 net.cpp:380] fc6_d -> fc6_d
I0210 11:10:15.923312 45784 net.cpp:122] Setting up fc6_d
I0210 11:10:15.923352 45784 net.cpp:129] Top shape: 1 4096 (4096)
I0210 11:10:15.923355 45784 net.cpp:137] Memory required for data: 66998208
I0210 11:10:15.923375 45784 layer_factory.hpp:77] Creating layer relu6
I0210 11:10:15.923389 45784 net.cpp:84] Creating Layer relu6
I0210 11:10:15.923395 45784 net.cpp:406] relu6 <- fc6_d
I0210 11:10:15.923401 45784 net.cpp:367] relu6 -> fc6_d (in-place)
I0210 11:10:15.924816 45784 net.cpp:122] Setting up relu6
I0210 11:10:15.924829 45784 net.cpp:129] Top shape: 1 4096 (4096)
I0210 11:10:15.924831 45784 net.cpp:137] Memory required for data: 67014592
I0210 11:10:15.924841 45784 layer_factory.hpp:77] Creating layer fc7_d
I0210 11:10:15.924850 45784 net.cpp:84] Creating Layer fc7_d
I0210 11:10:15.924854 45784 net.cpp:406] fc7_d <- fc6_d
I0210 11:10:15.924860 45784 net.cpp:380] fc7_d -> fc7_d
I0210 11:10:16.369256 45784 net.cpp:122] Setting up fc7_d
I0210 11:10:16.369293 45784 net.cpp:129] Top shape: 1 4096 (4096)
I0210 11:10:16.369297 45784 net.cpp:137] Memory required for data: 67030976
I0210 11:10:16.369308 45784 layer_factory.hpp:77] Creating layer relu7
I0210 11:10:16.369324 45784 net.cpp:84] Creating Layer relu7
I0210 11:10:16.369329 45784 net.cpp:406] relu7 <- fc7_d
I0210 11:10:16.369336 45784 net.cpp:367] relu7 -> fc7_d (in-place)
I0210 11:10:16.369652 45784 net.cpp:122] Setting up relu7
I0210 11:10:16.369662 45784 net.cpp:129] Top shape: 1 4096 (4096)
I0210 11:10:16.369663 45784 net.cpp:137] Memory required for data: 67047360
I0210 11:10:16.369668 45784 layer_factory.hpp:77] Creating layer fc8_d
I0210 11:10:16.369675 45784 net.cpp:84] Creating Layer fc8_d
I0210 11:10:16.369678 45784 net.cpp:406] fc8_d <- fc7_d
I0210 11:10:16.369695 45784 net.cpp:380] fc8_d -> fc8_d
I0210 11:10:16.437088 45784 net.cpp:122] Setting up fc8_d
I0210 11:10:16.437103 45784 net.cpp:129] Top shape: 1 618 (618)
I0210 11:10:16.437105 45784 net.cpp:137] Memory required for data: 67049832
I0210 11:10:16.437111 45784 layer_factory.hpp:77] Creating layer fc8_d_fc8_d_0_split
I0210 11:10:16.437119 45784 net.cpp:84] Creating Layer fc8_d_fc8_d_0_split
I0210 11:10:16.437121 45784 net.cpp:406] fc8_d_fc8_d_0_split <- fc8_d
I0210 11:10:16.437129 45784 net.cpp:380] fc8_d_fc8_d_0_split -> fc8_d_fc8_d_0_split_0
I0210 11:10:16.437135 45784 net.cpp:380] fc8_d_fc8_d_0_split -> fc8_d_fc8_d_0_split_1
I0210 11:10:16.437202 45784 net.cpp:122] Setting up fc8_d_fc8_d_0_split
I0210 11:10:16.437207 45784 net.cpp:129] Top shape: 1 618 (618)
I0210 11:10:16.437211 45784 net.cpp:129] Top shape: 1 618 (618)
I0210 11:10:16.437213 45784 net.cpp:137] Memory required for data: 67054776
I0210 11:10:16.437216 45784 layer_factory.hpp:77] Creating layer sigmoid
I0210 11:10:16.437224 45784 net.cpp:84] Creating Layer sigmoid
I0210 11:10:16.437227 45784 net.cpp:406] sigmoid <- fc8_d_fc8_d_0_split_0
I0210 11:10:16.437237 45784 net.cpp:380] sigmoid -> sigmoid
I0210 11:10:16.437505 45784 net.cpp:122] Setting up sigmoid
I0210 11:10:16.437512 45784 net.cpp:129] Top shape: 1 618 (618)
I0210 11:10:16.437515 45784 net.cpp:137] Memory required for data: 67057248
I0210 11:10:16.437518 45784 layer_factory.hpp:77] Creating layer silence
I0210 11:10:16.437525 45784 net.cpp:84] Creating Layer silence
I0210 11:10:16.437530 45784 net.cpp:406] silence <- sigmoid
I0210 11:10:16.437533 45784 net.cpp:122] Setting up silence
I0210 11:10:16.437536 45784 net.cpp:137] Memory required for data: 67057248
…
