…
  phase: TRAIN
}
layer {
  name: "word_images"
  type: "Data"
  top: "word_images"
  top: "label"
  transform_param {
    scale: -0.0039215689
    mean_value: 255
  }
  data_param {
    source: "/data/fwolf/iam_50000/iam-db_nti500000_pul2-3-4-5_train_word_images_lmdb"
    batch_size: 1
    backend: LMDB
    prefetch: 20
  }
}
layer {
  name: "phocs"
  type: "Data"
  top: "phocs"
  top: "label_phocs"
  data_param {
    source: "/data/fwolf/iam_50000/iam-db_nti500000_pul2-3-4-5_train_phocs_lmdb"
    batch_size: 1
    backend: LMDB
    prefetch: 20
  }
}
layer {
  name: "conv_init"
  type: "Convolution"
  bottom: "word_images"
  top: "conv_init"
  convolution_param {
    num_output: 32
    bias_term: false
    pad: 1
    kernel_size: 3
    stride: 1
    weight_filler {
      type: "msra"
    }
    bias_filler {
      type: "constant"
    }
    engine: CUDNN
  }
}
layer {
  name: "bn_init"
  type: "BatchNorm"
  bottom: "conv_init"
  top: "bn_init"
  param {
    lr_mult: 0
    decay_mult: 0
  }
  param {
    lr_mult: 0
    decay_mult: 0
  }
  param {
    lr_mult: 0
    decay_mult: 0
  }
  batch_norm_param {
    eps: 1e-05
  }
}
layer {
  name: "scale_init"
  type: "Scale"
  bottom: "bn_init"
  top: "bn_init"
  scale_param {
    filler {
      value: 1
    }
    bias_term: true
    bias_filler {
      value: 0
    }
  }
}
layer {
  name: "relu_init"
  type: "ReLU"
  bottom: "bn_init"
  top: "bn_init"
}
layer {
  name: "pool_init"
  type: "Pooling"
  bottom: "bn_init"
  top: "pool_init"
  pooling_param {
    pool: MAX
    kernel_size: 3
    stride: 2
    pad: 1
  }
}
layer {
  name: "conv0_0/bn"
  type: "BatchNorm"
  bottom: "pool_init"
  top: "conv0_0/bn"
  param {
    lr_mult: 0
    decay_mult: 0
  }
  param {
    lr_mult: 0
    decay_mult: 0
  }
  param {
    lr_mult: 0
    decay_mult: 0
  }
}
layer {
  name: "conv0_0/scale"
  type: "Scale"
  bottom: "conv0_0/bn"
  top: "conv0_0/bn"
  scale_param {
    filler {
      value: 1
    }
    bias_term: true
    bias_filler {
      value: 0
    }
  }
}
layer {
  name: "relu0_0"
  type: "ReLU"
  bottom: "conv0_0/bn"
  top: "conv0_0/bn"
}
layer {
  name: "conv0_0"
  type: "Convolution"
  bottom: "conv0_0/bn"
  top: "conv0_0"
  convolution_param {
    num_output: 32
    bias_term: false
    pad: 1
    kernel_size: 3
    stride: 1
    weight_filler {
      type: "msra"
    }
    bias_filler {
      type: "constant"
    }
    engine: CUDNN
  }
}
layer {
  name: "concat0_0"
  type: "Concat"
  bottom: "pool_init"
  bottom: "conv0_0"
  top: "concat0_0"
  concat_param {
    axis: 1
  }
}
layer {
  name: "conv0_1/bn"
  type: "BatchNorm"
  bottom: "concat0_0"
  top: "conv0_1/bn"
  param {
    lr_mult: 0
    decay_mult: 0
  }
  param {
    lr_mult: 0
    decay_mult: 0
  }
  param {
    lr_mult: 0
    decay_mult: 0
  }
}
layer {
  name: "conv0_1/scale"
  type: "Scale"
  bottom: "conv0_1/bn"
  top: "conv0_1/bn"
  scale_param {
    filler {
      value: 1
    }
    bias_term: true
    bias_filler {
      value: 0
    }
  }
}
layer {
  name: "relu0_1"
  type: "ReLU"
  bottom: "conv0_1/bn"
  top: "conv0_1/bn"
}
layer {
  name: "conv0_1"
  type: "Convolution"
  bottom: "conv0_1/bn"
  top: "conv0_1"
  convolution_param {
    num_output: 32
    bias_term: false
    pad: 1
    kernel_size: 3
    stride: 1
    weight_filler {
      type: "msra"
    }
    bias_filler {
      type: "constant"
    }
    engine: CUDNN
  }
}
layer {
  name: "concat0_1"
  type: "Concat"
  bottom: "concat0_0"
  bottom: "conv0_1"
  top: "concat0_1"
  concat_param {
    axis: 1
  }
}
layer {
  name: "conv0_2/bn"
  type: "BatchNorm"
  bottom: "concat0_1"
  top: "conv0_2/bn"
  param {
    lr_mult: 0
    decay_mult: 0
  }
  param {
    lr_mult: 0
    decay_mult: 0
  }
  param {
    lr_mult: 0
    decay_mult: 0
  }
}
layer {
  name: "conv0_2/scale"
  type: "Scale"
  bottom: "conv0_2/bn"
  top: "conv0_2/bn"
  scale_param {
    filler {
      value: 1
    }
    bias_term: true
    bias_filler {
      value: 0
    }
  }
}
layer {
  name: "relu0_2"
  type: "ReLU"
  bottom: "conv0_2/bn"
  top: "conv0_2/bn"
}
layer {
  name: "conv0_2"
  type: "Convolution"
  bottom: "conv0_2/bn"
  top: "conv0_2"
  convolution_param {
    num_output: 32
    bias_term: false
    pad: 1
    kernel_size: 3
    stride: 1
    weight_filler {
      type: "msra"
    }
    bias_filler {
      type: "constant"
    }
    engine: CUDNN
  }
}
layer {
  name: "concat0_2"
  type: "Concat"
  bottom: "concat0_1"
  bottom: "conv0_2"
  top: "concat0_2"
  concat_param {
    axis: 1
  }
}
layer {
  name: "conv0_3/bn"
  type: "BatchNorm"
  bottom: "concat0_2"
  top: "conv0_3/bn"
  param {
    lr_mult: 0
    decay_mult: 0
  }
  param {
    lr_mult: 0
    decay_mult: 0
  }
  param {
    lr_mult: 0
    decay_mult: 0
  }
}
layer {
  name: "conv0_3/scale"
  type: "Scale"
  bottom: "conv0_3/bn"
  top: "conv0_3/bn"
  scale_param {
    filler {
      value: 1
    }
    bias_term: true
    bias_filler {
      value: 0
    }
  }
}
layer {
  name: "relu0_3"
  type: "ReLU"
  bottom: "conv0_3/bn"
  top: "conv0_3/bn"
}
layer {
  name: "conv0_3"
  type: "Convolution"
  bottom: "conv0_3/bn"
  top: "conv0_3"
  convolution_param {
    num_output: 32
    bias_term: false
    pad: 1
    kernel_size: 3
    stride: 1
    weight_filler {
      type: "msra"
    }
    bias_filler {
      type: "constant"
    }
    engine: CUDNN
  }
}
layer {
  name: "concat0_3"
  type: "Concat"
  bottom: "concat0_2"
  bottom: "conv0_3"
  top: "concat0_3"
  concat_param {
    axis: 1
  }
}
layer {
  name: "conv0_4/bn"
  type: "BatchNorm"
  bottom: "concat0_3"
  top: "conv0_4/bn"
  param {
    lr_mult: 0
    decay_mult: 0
  }
  param {
    lr_mult: 0
    decay_mult: 0
  }
  param {
    lr_mult: 0
    decay_mult: 0
  }
}
layer {
  name: "conv0_4/scale"
  type: "Scale"
  bottom: "conv0_4/bn"
  top: "conv0_4/bn"
  scale_param {
    filler {
      value: 1
    }
    bias_term: true
    bias_filler {
      value: 0
    }
  }
}
layer {
  name: "relu0_4"
  type: "ReLU"
  bottom: "conv0_4/bn"
  top: "conv0_4/bn"
}
layer {
  name: "conv0_4"
  type: "Convolution"
  bottom: "conv0_4/bn"
  top: "conv0_4"
  convolution_param {
    num_output: 32
    bias_term: false
    pad: 1
    kernel_size: 3
    stride: 1
    weight_filler {
      type: "msra"
    }
    bias_filler {
      type: "constant"
    }
    engine: CUDNN
  }
}
layer {
  name: "concat0_4"
  type: "Concat"
  bottom: "concat0_3"
  bottom: "conv0_4"
  top: "concat0_4"
  concat_param {
    axis: 1
  }
}
layer {
  name: "conv0_5/bn"
  type: "BatchNorm"
  bottom: "concat0_4"
  top: "conv0_5/bn"
  param {
    lr_mult: 0
    decay_mult: 0
  }
  param {
    lr_mult: 0
    decay_mult: 0
  }
  param {
    lr_mult: 0
    decay_mult: 0
  }
}
layer {
  name: "conv0_5/scale"
  type: "Scale"
  bottom: "conv0_5/bn"
  top: "conv0_5/bn"
  scale_param {
    filler {
      value: 1
    }
    bias_term: true
    bias_filler {
      value: 0
    }
  }
}
layer {
  name: "relu0_5"
  type: "ReLU"
  bottom: "conv0_5/bn"
  top: "conv0_5/bn"
}
layer {
  name: "conv0_5"
  type: "Convolution"
  bottom: "conv0_5/bn"
  top: "conv0_5"
  convolution_param {
    num_output: 32
    bias_term: false
    pad: 1
    kernel_size: 3
    stride: 1
    weight_filler {
      type: "msra"
    }
    bias_filler {
      type: "constant"
    }
    engine: CUDNN
  }
}
layer {
  name: "concat0_5"
  type: "Concat"
  bottom: "concat0_4"
  bottom: "conv0_5"
  top: "concat0_5"
  concat_param {
    axis: 1
  }
}
layer {
  name: "conv0_6/bn"
  type: "BatchNorm"
  bottom: "concat0_5"
  top: "conv0_6/bn"
  param {
    lr_mult: 0
    decay_mult: 0
  }
  param {
    lr_mult: 0
    decay_mult: 0
  }
  param {
    lr_mult: 0
    decay_mult: 0
  }
}
layer {
  name: "conv0_6/scale"
  type: "Scale"
  bottom: "conv0_6/bn"
  top: "conv0_6/bn"
  scale_param {
    filler {
      value: 1
    }
    bias_term: true
    bias_filler {
      value: 0
    }
  }
}
layer {
  name: "relu0_6"
  type: "ReLU"
  bottom: "conv0_6/bn"
  top: "conv0_6/bn"
}
layer {
  name: "conv0_6"
  type: "Convolution"
  bottom: "conv0_6/bn"
  top: "conv0_6"
  convolution_param {
    num_output: 32
    bias_term: false
    pad: 1
    kernel_size: 3
    stride: 1
    weight_filler {
      type: "msra"
    }
    bias_filler {
      type: "constant"
    }
    engine: CUDNN
  }
}
layer {
  name: "concat0_6"
  type: "Concat"
  bottom: "concat0_5"
  bottom: "conv0_6"
  top: "concat0_6"
  concat_param {
    axis: 1
  }
}
layer {
  name: "conv0_7/bn"
  type: "BatchNorm"
  bottom: "concat0_6"
  top: "conv0_7/bn"
  param {
    lr_mult: 0
    decay_mult: 0
  }
  param {
    lr_mult: 0
    decay_mult: 0
  }
  param {
    lr_mult: 0
    decay_mult: 0
  }
}
layer {
  name: "conv0_7/scale"
  type: "Scale"
  bottom: "conv0_7/bn"
  top: "conv0_7/bn"
  scale_param {
    filler {
      value: 1
    }
    bias_term: true
    bias_filler {
      value: 0
    }
  }
}
layer {
  name: "relu0_7"
  type: "ReLU"
  bottom: "conv0_7/bn"
  top: "conv0_7/bn"
}
layer {
  name: "conv0_7"
  type: "Convolution"
  bottom: "conv0_7/bn"
  top: "conv0_7"
  convolution_param {
    num_output: 32
    bias_term: false
    pad: 1
    kernel_size: 3
    stride: 1
    weight_filler {
      type: "msra"
    }
    bias_filler {
      type: "constant"
    }
    engine: CUDNN
  }
}
layer {
  name: "concat0_7"
  type: "Concat"
  bottom: "concat0_6"
  bottom: "conv0_7"
  top: "concat0_7"
  concat_param {
    axis: 1
  }
}
layer {
  name: "conv0_8/bn"
  type: "BatchNorm"
  bottom: "concat0_7"
  top: "conv0_8/bn"
  param {
    lr_mult: 0
    decay_mult: 0
  }
  param {
    lr_mult: 0
    decay_mult: 0
  }
  param {
    lr_mult: 0
    decay_mult: 0
  }
}
layer {
  name: "conv0_8/scale"
  type: "Scale"
  bottom: "conv0_8/bn"
  top: "conv0_8/bn"
  scale_param {
    filler {
      value: 1
    }
    bias_term: true
    bias_filler {
      value: 0
    }
  }
}
layer {
  name: "relu0_8"
  type: "ReLU"
  bottom: "conv0_8/bn"
  top: "conv0_8/bn"
}
layer {
  name: "conv0_8"
  type: "Convolution"
  bottom: "conv0_8/bn"
  top: "conv0_8"
  convolution_param {
    num_output: 32
    bias_term: false
    pad: 1
    kernel_size: 3
    stride: 1
    weight_filler {
      type: "msra"
    }
    bias_filler {
      type: "constant"
    }
    engine: CUDNN
  }
}
layer {
  name: "concat0_8"
  type: "Concat"
  bottom: "concat0_7"
  bottom: "conv0_8"
  top: "concat0_8"
  concat_param {
    axis: 1
  }
}
layer {
  name: "conv0_9/bn"
  type: "BatchNorm"
  bottom: "concat0_8"
  top: "conv0_9/bn"
  param {
    lr_mult: 0
    decay_mult: 0
  }
  param {
    lr_mult: 0
    decay_mult: 0
  }
  param {
    lr_mult: 0
    decay_mult: 0
  }
}
layer {
  name: "conv0_9/scale"
  type: "Scale"
  bottom: "conv0_9/bn"
  top: "conv0_9/bn"
  scale_param {
    filler {
      value: 1
    }
    bias_term: true
    bias_filler {
      value: 0
    }
  }
}
layer {
  name: "relu0_9"
  type: "ReLU"
  bottom: "conv0_9/bn"
  top: "conv0_9/bn"
}
layer {
  name: "conv0_9"
  type: "Convolution"
  bottom: "conv0_9/bn"
  top: "conv0_9"
  convolution_param {
    num_output: 32
    bias_term: false
    pad: 1
    kernel_size: 3
    stride: 1
    weight_filler {
      type: "msra"
    }
    bias_filler {
      type: "constant"
    }
    engine: CUDNN
  }
}
layer {
  name: "concat0_9"
  type: "Concat"
  bottom: "concat0_8"
  bottom: "conv0_9"
  top: "concat0_9"
  concat_param {
    axis: 1
  }
}
layer {
  name: "conv0_10/bn"
  type: "BatchNorm"
  bottom: "concat0_9"
  top: "conv0_10/bn"
  param {
    lr_mult: 0
    decay_mult: 0
  }
  param {
    lr_mult: 0
    decay_mult: 0
  }
  param {
    lr_mult: 0
    decay_mult: 0
  }
}
layer {
  name: "conv0_10/scale"
  type: "Scale"
  bottom: "conv0_10/bn"
  top: "conv0_10/bn"
  scale_param {
    filler {
      value: 1
    }
    bias_term: true
    bias_filler {
      value: 0
    }
  }
}
layer {
  name: "relu0_10"
  type: "ReLU"
  bottom: "conv0_10/bn"
  top: "conv0_10/bn"
}
layer {
  name: "conv0_10"
  type: "Convolution"
  bottom: "conv0_10/bn"
  top: "conv0_10"
  convolution_param {
    num_output: 32
    bias_term: false
    pad: 1
    kernel_size: 3
    stride: 1
    weight_filler {
      type: "msra"
    }
    bias_filler {
      type: "constant"
    }
    engine: CUDNN
  }
}
layer {
  name: "concat0_10"
  type: "Concat"
  bottom: "concat0_9"
  bottom: "conv0_10"
  top: "concat0_10"
  concat_param {
    axis: 1
  }
}
layer {
  name: "conv0_11/bn"
  type: "BatchNorm"
  bottom: "concat0_10"
  top: "conv0_11/bn"
  param {
    lr_mult: 0
    decay_mult: 0
  }
  param {
    lr_mult: 0
    decay_mult: 0
  }
  param {
    lr_mult: 0
    decay_mult: 0
  }
}
layer {
  name: "conv0_11/scale"
  type: "Scale"
  bottom: "conv0_11/bn"
  top: "conv0_11/bn"
  scale_param {
    filler {
      value: 1
    }
    bias_term: true
    bias_filler {
      value: 0
    }
  }
}
layer {
  name: "relu0_11"
  type: "ReLU"
  bottom: "conv0_11/bn"
  top: "conv0_11/bn"
}
layer {
  name: "conv0_11"
  type: "Convolution"
  bottom: "conv0_11/bn"
  top: "conv0_11"
  convolution_param {
    num_output: 32
    bias_term: false
    pad: 1
    kernel_size: 3
    stride: 1
    weight_filler {
      type: "msra"
    }
    bias_filler {
      type: "constant"
    }
    engine: CUDNN
  }
}
layer {
  name: "concat0_11"
  type: "Concat"
  bottom: "concat0_10"
  bottom: "conv0_11"
  top: "concat0_11"
  concat_param {
    axis: 1
  }
}
layer {
  name: "conv0_12/bn"
  type: "BatchNorm"
  bottom: "concat0_11"
  top: "conv0_12/bn"
  param {
    lr_mult: 0
    decay_mult: 0
  }
  param {
    lr_mult: 0
    decay_mult: 0
  }
  param {
    lr_mult: 0
    decay_mult: 0
  }
}
layer {
  name: "conv0_12/scale"
  type: "Scale"
  bottom: "conv0_12/bn"
  top: "conv0_12/bn"
  scale_param {
    filler {
      value: 1
    }
    bias_term: true
    bias_filler {
      value: 0
    }
  }
}
layer {
  name: "relu0_12"
  type: "ReLU"
  bottom: "conv0_12/bn"
  top: "conv0_12/bn"
}
layer {
  name: "conv0_12"
  type: "Convolution"
  bottom: "conv0_12/bn"
  top: "conv0_12"
  convolution_param {
    num_output: 32
    bias_term: false
    pad: 1
    kernel_size: 3
    stride: 1
    weight_filler {
      type: "msra"
    }
    bias_filler {
      type: "constant"
    }
    engine: CUDNN
  }
}
layer {
  name: "concat0_12"
  type: "Concat"
  bottom: "concat0_11"
  bottom: "conv0_12"
  top: "concat0_12"
  concat_param {
    axis: 1
  }
}
layer {
  name: "conv0_13/bn"
  type: "BatchNorm"
  bottom: "concat0_12"
  top: "conv0_13/bn"
  param {
    lr_mult: 0
    decay_mult: 0
  }
  param {
    lr_mult: 0
    decay_mult: 0
  }
  param {
    lr_mult: 0
    decay_mult: 0
  }
}
layer {
  name: "conv0_13/scale"
  type: "Scale"
  bottom: "conv0_13/bn"
  top: "conv0_13/bn"
  scale_param {
    filler {
      value: 1
    }
    bias_term: true
    bias_filler {
      value: 0
    }
  }
}
layer {
  name: "relu0_13"
  type: "ReLU"
  bottom: "conv0_13/bn"
  top: "conv0_13/bn"
}
layer {
  name: "conv0_13"
  type: "Convolution"
  bottom: "conv0_13/bn"
  top: "conv0_13"
  convolution_param {
    num_output: 32
    bias_term: false
    pad: 1
    kernel_size: 3
    stride: 1
    weight_filler {
      type: "msra"
    }
    bias_filler {
      type: "constant"
    }
    engine: CUDNN
  }
}
layer {
  name: "concat0_13"
  type: "Concat"
  bottom: "concat0_12"
  bottom: "conv0_13"
  top: "concat0_13"
  concat_param {
    axis: 1
  }
}
layer {
  name: "conv0_14/bn"
  type: "BatchNorm"
  bottom: "concat0_13"
  top: "conv0_14/bn"
  param {
    lr_mult: 0
    decay_mult: 0
  }
  param {
    lr_mult: 0
    decay_mult: 0
  }
  param {
    lr_mult: 0
    decay_mult: 0
  }
}
layer {
  name: "conv0_14/scale"
  type: "Scale"
  bottom: "conv0_14/bn"
  top: "conv0_14/bn"
  scale_param {
    filler {
      value: 1
    }
    bias_term: true
    bias_filler {
      value: 0
    }
  }
}
layer {
  name: "relu0_14"
  type: "ReLU"
  bottom: "conv0_14/bn"
  top: "conv0_14/bn"
}
layer {
  name: "conv0_14"
  type: "Convolution"
  bottom: "conv0_14/bn"
  top: "conv0_14"
  convolution_param {
    num_output: 32
    bias_term: false
    pad: 1
    kernel_size: 3
    stride: 1
    weight_filler {
      type: "msra"
    }
    bias_filler {
      type: "constant"
    }
    engine: CUDNN
  }
}
layer {
  name: "concat0_14"
  type: "Concat"
  bottom: "concat0_13"
  bottom: "conv0_14"
  top: "concat0_14"
  concat_param {
    axis: 1
  }
}
layer {
  name: "BatchNorm1"
  type: "BatchNorm"
  bottom: "concat0_14"
  top: "BatchNorm1"
  param {
    lr_mult: 0
    decay_mult: 0
  }
  param {
    lr_mult: 0
    decay_mult: 0
  }
  param {
    lr_mult: 0
    decay_mult: 0
  }
}
layer {
  name: "Scale1"
  type: "Scale"
  bottom: "BatchNorm1"
  top: "BatchNorm1"
  scale_param {
    filler {
      value: 1
    }
    bias_term: true
    bias_filler {
      value: 0
    }
  }
}
layer {
  name: "ReLU1"
  type: "ReLU"
  bottom: "BatchNorm1"
  top: "BatchNorm1"
}
layer {
  name: "conv0_blk"
  type: "Convolution"
  bottom: "BatchNorm1"
  top: "conv0_blk"
  convolution_param {
    num_output: 512
    bias_term: false
    pad: 0
    kernel_size: 1
    stride: 1
    weight_filler {
      type: "msra"
    }
    bias_filler {
      type: "constant"
    }
    engine: CUDNN
  }
}
layer {
  name: "pool0"
  type: "Pooling"
  bottom: "conv0_blk"
  top: "pool0"
  pooling_param {
    pool: AVE
    kernel_size: 2
    stride: 2
  }
}
layer {
  name: "conv1_0/bn"
  type: "BatchNorm"
  bottom: "pool0"
  top: "conv1_0/bn"
  param {
    lr_mult: 0
    decay_mult: 0
  }
  param {
    lr_mult: 0
    decay_mult: 0
  }
  param {
    lr_mult: 0
    decay_mult: 0
  }
}
layer {
  name: "conv1_0/scale"
  type: "Scale"
  bottom: "conv1_0/bn"
  top: "conv1_0/bn"
  scale_param {
    filler {
      value: 1
    }
    bias_term: true
    bias_filler {
      value: 0
    }
  }
}
layer {
  name: "relu1_0"
  type: "ReLU"
  bottom: "conv1_0/bn"
  top: "conv1_0/bn"
}
layer {
  name: "conv1_0"
  type: "Convolution"
  bottom: "conv1_0/bn"
  top: "conv1_0"
  convolution_param {
    num_output: 32
    bias_term: false
    pad: 1
    kernel_size: 3
    stride: 1
    weight_filler {
      type: "msra"
    }
    bias_filler {
      type: "constant"
    }
    engine: CUDNN
  }
}
layer {
  name: "concat1_0"
  type: "Concat"
  bottom: "pool0"
  bottom: "conv1_0"
  top: "concat1_0"
  concat_param {
    axis: 1
  }
}
layer {
  name: "conv1_1/bn"
  type: "BatchNorm"
  bottom: "concat1_0"
  top: "conv1_1/bn"
  param {
    lr_mult: 0
    decay_mult: 0
  }
  param {
    lr_mult: 0
    decay_mult: 0
  }
  param {
    lr_mult: 0
    decay_mult: 0
  }
}
layer {
  name: "conv1_1/scale"
  type: "Scale"
  bottom: "conv1_1/bn"
  top: "conv1_1/bn"
  scale_param {
    filler {
      value: 1
    }
    bias_term: true
    bias_filler {
      value: 0
    }
  }
}
layer {
  name: "relu1_1"
  type: "ReLU"
  bottom: "conv1_1/bn"
  top: "conv1_1/bn"
}
layer {
  name: "conv1_1"
  type: "Convolution"
  bottom: "conv1_1/bn"
  top: "conv1_1"
  convolution_param {
    num_output: 32
    bias_term: false
    pad: 1
    kernel_size: 3
    stride: 1
    weight_filler {
      type: "msra"
    }
    bias_filler {
      type: "constant"
    }
    engine: CUDNN
  }
}
layer {
  name: "concat1_1"
  type: "Concat"
  bottom: "concat1_0"
  bottom: "conv1_1"
  top: "concat1_1"
  concat_param {
    axis: 1
  }
}
layer {
  name: "conv1_2/bn"
  type: "BatchNorm"
  bottom: "concat1_1"
  top: "conv1_2/bn"
  param {
    lr_mult: 0
    decay_mult: 0
  }
  param {
    lr_mult: 0
    decay_mult: 0
  }
  param {
    lr_mult: 0
    decay_mult: 0
  }
}
layer {
  name: "conv1_2/scale"
  type: "Scale"
  bottom: "conv1_2/bn"
  top: "conv1_2/bn"
  scale_param {
    filler {
      value: 1
    }
    bias_term: true
    bias_filler {
      value: 0
    }
  }
}
layer {
  name: "relu1_2"
  type: "ReLU"
  bottom: "conv1_2/bn"
  top: "conv1_2/bn"
}
layer {
  name: "conv1_2"
  type: "Convolution"
  bottom: "conv1_2/bn"
  top: "conv1_2"
  convolution_param {
    num_output: 32
    bias_term: false
    pad: 1
    kernel_size: 3
    stride: 1
    weight_filler {
      type: "msra"
    }
    bias_filler {
      type: "constant"
    }
    engine: CUDNN
  }
}
layer {
  name: "concat1_2"
  type: "Concat"
  bottom: "concat1_1"
  bottom: "conv1_2"
  top: "concat1_2"
  concat_param {
    axis: 1
  }
}
layer {
  name: "conv1_3/bn"
  type: "BatchNorm"
  bottom: "concat1_2"
  top: "conv1_3/bn"
  param {
    lr_mult: 0
    decay_mult: 0
  }
  param {
    lr_mult: 0
    decay_mult: 0
  }
  param {
    lr_mult: 0
    decay_mult: 0
  }
}
layer {
  name: "conv1_3/scale"
  type: "Scale"
  bottom: "conv1_3/bn"
  top: "conv1_3/bn"
  scale_param {
    filler {
      value: 1
    }
    bias_term: true
    bias_filler {
      value: 0
    }
  }
}
layer {
  name: "relu1_3"
  type: "ReLU"
  bottom: "conv1_3/bn"
  top: "conv1_3/bn"
}
layer {
  name: "conv1_3"
  type: "Convolution"
  bottom: "conv1_3/bn"
  top: "conv1_3"
  convolution_param {
    num_output: 32
    bias_term: false
    pad: 1
    kernel_size: 3
    stride: 1
    weight_filler {
      type: "msra"
    }
    bias_filler {
      type: "constant"
    }
    engine: CUDNN
  }
}
layer {
  name: "concat1_3"
  type: "Concat"
  bottom: "concat1_2"
  bottom: "conv1_3"
  top: "concat1_3"
  concat_param {
    axis: 1
  }
}
layer {
  name: "conv1_4/bn"
  type: "BatchNorm"
  bottom: "concat1_3"
  top: "conv1_4/bn"
  param {
    lr_mult: 0
    decay_mult: 0
  }
  param {
    lr_mult: 0
    decay_mult: 0
  }
  param {
    lr_mult: 0
    decay_mult: 0
  }
}
layer {
  name: "conv1_4/scale"
  type: "Scale"
  bottom: "conv1_4/bn"
  top: "conv1_4/bn"
  scale_param {
    filler {
      value: 1
    }
    bias_term: true
    bias_filler {
      value: 0
    }
  }
}
layer {
  name: "relu1_4"
  type: "ReLU"
  bottom: "conv1_4/bn"
  top: "conv1_4/bn"
}
layer {
  name: "conv1_4"
  type: "Convolution"
  bottom: "conv1_4/bn"
  top: "conv1_4"
  convolution_param {
    num_output: 32
    bias_term: false
    pad: 1
    kernel_size: 3
    stride: 1
    weight_filler {
      type: "msra"
    }
    bias_filler {
      type: "constant"
    }
    engine: CUDNN
  }
}
layer {
  name: "concat1_4"
  type: "Concat"
  bottom: "concat1_3"
  bottom: "conv1_4"
  top: "concat1_4"
  concat_param {
    axis: 1
  }
}
layer {
  name: "conv1_5/bn"
  type: "BatchNorm"
  bottom: "concat1_4"
  top: "conv1_5/bn"
  param {
    lr_mult: 0
    decay_mult: 0
  }
  param {
    lr_mult: 0
    decay_mult: 0
  }
  param {
    lr_mult: 0
    decay_mult: 0
  }
}
layer {
  name: "conv1_5/scale"
  type: "Scale"
  bottom: "conv1_5/bn"
  top: "conv1_5/bn"
  scale_param {
    filler {
      value: 1
    }
    bias_term: true
    bias_filler {
      value: 0
    }
  }
}
layer {
  name: "relu1_5"
  type: "ReLU"
  bottom: "conv1_5/bn"
  top: "conv1_5/bn"
}
layer {
  name: "conv1_5"
  type: "Convolution"
  bottom: "conv1_5/bn"
  top: "conv1_5"
  convolution_param {
    num_output: 32
    bias_term: false
    pad: 1
    kernel_size: 3
    stride: 1
    weight_filler {
      type: "msra"
    }
    bias_filler {
      type: "constant"
    }
    engine: CUDNN
  }
}
layer {
  name: "concat1_5"
  type: "Concat"
  bottom: "concat1_4"
  bottom: "conv1_5"
  top: "concat1_5"
  concat_param {
    axis: 1
  }
}
layer {
  name: "conv1_6/bn"
  type: "BatchNorm"
  bottom: "concat1_5"
  top: "conv1_6/bn"
  param {
    lr_mult: 0
    decay_mult: 0
  }
  param {
    lr_mult: 0
    decay_mult: 0
  }
  param {
    lr_mult: 0
    decay_mult: 0
  }
}
layer {
  name: "conv1_6/scale"
  type: "Scale"
  bottom: "conv1_6/bn"
  top: "conv1_6/bn"
  scale_param {
    filler {
      value: 1
    }
    bias_term: true
    bias_filler {
      value: 0
    }
  }
}
layer {
  name: "relu1_6"
  type: "ReLU"
  bottom: "conv1_6/bn"
  top: "conv1_6/bn"
}
layer {
  name: "conv1_6"
  type: "Convolution"
  bottom: "conv1_6/bn"
  top: "conv1_6"
  convolution_param {
    num_output: 32
    bias_term: false
    pad: 1
    kernel_size: 3
    stride: 1
    weight_filler {
      type: "msra"
    }
    bias_filler {
      type: "constant"
    }
    engine: CUDNN
  }
}
layer {
  name: "concat1_6"
  type: "Concat"
  bottom: "concat1_5"
  bottom: "conv1_6"
  top: "concat1_6"
  concat_param {
    axis: 1
  }
}
layer {
  name: "conv1_7/bn"
  type: "BatchNorm"
  bottom: "concat1_6"
  top: "conv1_7/bn"
  param {
    lr_mult: 0
    decay_mult: 0
  }
  param {
    lr_mult: 0
    decay_mult: 0
  }
  param {
    lr_mult: 0
    decay_mult: 0
  }
}
layer {
  name: "conv1_7/scale"
  type: "Scale"
  bottom: "conv1_7/bn"
  top: "conv1_7/bn"
  scale_param {
    filler {
      value: 1
    }
    bias_term: true
    bias_filler {
      value: 0
    }
  }
}
layer {
  name: "relu1_7"
  type: "ReLU"
  bottom: "conv1_7/bn"
  top: "conv1_7/bn"
}
layer {
  name: "conv1_7"
  type: "Convolution"
  bottom: "conv1_7/bn"
  top: "conv1_7"
  convolution_param {
    num_output: 32
    bias_term: false
    pad: 1
    kernel_size: 3
    stride: 1
    weight_filler {
      type: "msra"
    }
    bias_filler {
      type: "constant"
    }
    engine: CUDNN
  }
}
layer {
  name: "concat1_7"
  type: "Concat"
  bottom: "concat1_6"
  bottom: "conv1_7"
  top: "concat1_7"
  concat_param {
    axis: 1
  }
}
layer {
  name: "conv1_8/bn"
  type: "BatchNorm"
  bottom: "concat1_7"
  top: "conv1_8/bn"
  param {
    lr_mult: 0
    decay_mult: 0
  }
  param {
    lr_mult: 0
    decay_mult: 0
  }
  param {
    lr_mult: 0
    decay_mult: 0
  }
}
layer {
  name: "conv1_8/scale"
  type: "Scale"
  bottom: "conv1_8/bn"
  top: "conv1_8/bn"
  scale_param {
    filler {
      value: 1
    }
    bias_term: true
    bias_filler {
      value: 0
    }
  }
}
layer {
  name: "relu1_8"
  type: "ReLU"
  bottom: "conv1_8/bn"
  top: "conv1_8/bn"
}
layer {
  name: "conv1_8"
  type: "Convolution"
  bottom: "conv1_8/bn"
  top: "conv1_8"
  convolution_param {
    num_output: 32
    bias_term: false
    pad: 1
    kernel_size: 3
    stride: 1
    weight_filler {
      type: "msra"
    }
    bias_filler {
      type: "constant"
    }
    engine: CUDNN
  }
}
layer {
  name: "concat1_8"
  type: "Concat"
  bottom: "concat1_7"
  bottom: "conv1_8"
  top: "concat1_8"
  concat_param {
    axis: 1
  }
}
layer {
  name: "conv1_9/bn"
  type: "BatchNorm"
  bottom: "concat1_8"
  top: "conv1_9/bn"
  param {
    lr_mult: 0
    decay_mult: 0
  }
  param {
    lr_mult: 0
    decay_mult: 0
  }
  param {
    lr_mult: 0
    decay_mult: 0
  }
}
layer {
  name: "conv1_9/scale"
  type: "Scale"
  bottom: "conv1_9/bn"
  top: "conv1_9/bn"
  scale_param {
    filler {
      value: 1
    }
    bias_term: true
    bias_filler {
      value: 0
    }
  }
}
layer {
  name: "relu1_9"
  type: "ReLU"
  bottom: "conv1_9/bn"
  top: "conv1_9/bn"
}
layer {
  name: "conv1_9"
  type: "Convolution"
  bottom: "conv1_9/bn"
  top: "conv1_9"
  convolution_param {
    num_output: 32
    bias_term: false
    pad: 1
    kernel_size: 3
    stride: 1
    weight_filler {
      type: "msra"
    }
    bias_filler {
      type: "constant"
    }
    engine: CUDNN
  }
}
layer {
  name: "concat1_9"
  type: "Concat"
  bottom: "concat1_8"
  bottom: "conv1_9"
  top: "concat1_9"
  concat_param {
    axis: 1
  }
}
layer {
  name: "conv1_10/bn"
  type: "BatchNorm"
  bottom: "concat1_9"
  top: "conv1_10/bn"
  param {
    lr_mult: 0
    decay_mult: 0
  }
  param {
    lr_mult: 0
    decay_mult: 0
  }
  param {
    lr_mult: 0
    decay_mult: 0
  }
}
layer {
  name: "conv1_10/scale"
  type: "Scale"
  bottom: "conv1_10/bn"
  top: "conv1_10/bn"
  scale_param {
    filler {
      value: 1
    }
    bias_term: true
    bias_filler {
      value: 0
    }
  }
}
layer {
  name: "relu1_10"
  type: "ReLU"
  bottom: "conv1_10/bn"
  top: "conv1_10/bn"
}
layer {
  name: "conv1_10"
  type: "Convolution"
  bottom: "conv1_10/bn"
  top: "conv1_10"
  convolution_param {
    num_output: 32
    bias_term: false
    pad: 1
    kernel_size: 3
    stride: 1
    weight_filler {
      type: "msra"
    }
    bias_filler {
      type: "constant"
    }
    engine: CUDNN
  }
}
layer {
  name: "concat1_10"
  type: "Concat"
  bottom: "concat1_9"
  bottom: "conv1_10"
  top: "concat1_10"
  concat_param {
    axis: 1
  }
}
layer {
  name: "conv1_11/bn"
  type: "BatchNorm"
  bottom: "concat1_10"
  top: "conv1_11/bn"
  param {
    lr_mult: 0
    decay_mult: 0
  }
  param {
    lr_mult: 0
    decay_mult: 0
  }
  param {
    lr_mult: 0
    decay_mult: 0
  }
}
layer {
  name: "conv1_11/scale"
  type: "Scale"
  bottom: "conv1_11/bn"
  top: "conv1_11/bn"
  scale_param {
    filler {
      value: 1
    }
    bias_term: true
    bias_filler {
      value: 0
    }
  }
}
layer {
  name: "relu1_11"
  type: "ReLU"
  bottom: "conv1_11/bn"
  top: "conv1_11/bn"
}
layer {
  name: "conv1_11"
  type: "Convolution"
  bottom: "conv1_11/bn"
  top: "conv1_11"
  convolution_param {
    num_output: 32
    bias_term: false
    pad: 1
    kernel_size: 3
    stride: 1
    weight_filler {
      type: "msra"
    }
    bias_filler {
      type: "constant"
    }
    engine: CUDNN
  }
}
layer {
  name: "concat1_11"
  type: "Concat"
  bottom: "concat1_10"
  bottom: "conv1_11"
  top: "concat1_11"
  concat_param {
    axis: 1
  }
}
layer {
  name: "conv1_12/bn"
  type: "BatchNorm"
  bottom: "concat1_11"
  top: "conv1_12/bn"
  param {
    lr_mult: 0
    decay_mult: 0
  }
  param {
    lr_mult: 0
    decay_mult: 0
  }
  param {
    lr_mult: 0
    decay_mult: 0
  }
}
layer {
  name: "conv1_12/scale"
  type: "Scale"
  bottom: "conv1_12/bn"
  top: "conv1_12/bn"
  scale_param {
    filler {
      value: 1
    }
    bias_term: true
    bias_filler {
      value: 0
    }
  }
}
layer {
  name: "relu1_12"
  type: "ReLU"
  bottom: "conv1_12/bn"
  top: "conv1_12/bn"
}
layer {
  name: "conv1_12"
  type: "Convolution"
  bottom: "conv1_12/bn"
  top: "conv1_12"
  convolution_param {
    num_output: 32
    bias_term: false
    pad: 1
    kernel_size: 3
    stride: 1
    weight_filler {
      type: "msra"
    }
    bias_filler {
      type: "constant"
    }
    engine: CUDNN
  }
}
layer {
  name: "c
I0130 23:00:31.860474 13865 layer_factory.hpp:77] Creating layer word_images
I0130 23:00:31.860601 13865 db_lmdb.cpp:35] Opened lmdb /data/fwolf/iam_50000/iam-db_nti500000_pul2-3-4-5_train_word_images_lmdb
I0130 23:00:31.860647 13865 net.cpp:84] Creating Layer word_images
I0130 23:00:31.860657 13865 net.cpp:380] word_images -> word_images
I0130 23:00:31.860677 13865 net.cpp:380] word_images -> label
I0130 23:00:31.863656 13865 data_layer.cpp:44] output data size: 1,1,145,197
I0130 23:00:31.873677 13865 net.cpp:122] Setting up word_images
I0130 23:00:31.873719 13865 net.cpp:129] Top shape: 1 1 145 197 (28565)
I0130 23:00:31.873728 13865 net.cpp:129] Top shape: 1 (1)
I0130 23:00:31.873733 13865 net.cpp:137] Memory required for data: 114264
I0130 23:00:31.873744 13865 layer_factory.hpp:77] Creating layer phocs
I0130 23:00:31.873859 13865 db_lmdb.cpp:35] Opened lmdb /data/fwolf/iam_50000/iam-db_nti500000_pul2-3-4-5_train_phocs_lmdb
I0130 23:00:31.873910 13865 net.cpp:84] Creating Layer phocs
I0130 23:00:31.873919 13865 net.cpp:380] phocs -> phocs
I0130 23:00:31.873939 13865 net.cpp:380] phocs -> label_phocs
I0130 23:00:31.874508 13865 data_layer.cpp:44] output data size: 1,1,1,618
I0130 23:00:31.881898 13865 net.cpp:122] Setting up phocs
I0130 23:00:31.881934 13865 net.cpp:129] Top shape: 1 1 1 618 (618)
I0130 23:00:31.881942 13865 net.cpp:129] Top shape: 1 (1)
I0130 23:00:31.881947 13865 net.cpp:137] Memory required for data: 116740
I0130 23:00:31.881955 13865 layer_factory.hpp:77] Creating layer conv_init
I0130 23:00:31.881980 13865 net.cpp:84] Creating Layer conv_init
I0130 23:00:31.881986 13865 net.cpp:406] conv_init <- word_images
I0130 23:00:31.881999 13865 net.cpp:380] conv_init -> conv_init
I0130 23:00:32.867529 13865 net.cpp:122] Setting up conv_init
I0130 23:00:32.867586 13865 net.cpp:129] Top shape: 1 32 145 197 (914080)
I0130 23:00:32.867595 13865 net.cpp:137] Memory required for data: 3773060
I0130 23:00:32.867619 13865 layer_factory.hpp:77] Creating layer bn_init
I0130 23:00:32.867642 13865 net.cpp:84] Creating Layer bn_init
I0130 23:00:32.867652 13865 net.cpp:406] bn_init <- conv_init
I0130 23:00:32.867666 13865 net.cpp:380] bn_init -> bn_init
I0130 23:00:32.868300 13865 net.cpp:122] Setting up bn_init
I0130 23:00:32.868317 13865 net.cpp:129] Top shape: 1 32 145 197 (914080)
I0130 23:00:32.868325 13865 net.cpp:137] Memory required for data: 7429380
I0130 23:00:32.868346 13865 layer_factory.hpp:77] Creating layer scale_init
I0130 23:00:32.868366 13865 net.cpp:84] Creating Layer scale_init
I0130 23:00:32.868374 13865 net.cpp:406] scale_init <- bn_init
I0130 23:00:32.868386 13865 net.cpp:367] scale_init -> bn_init (in-place)
I0130 23:00:32.868485 13865 layer_factory.hpp:77] Creating layer scale_init
I0130 23:00:32.868873 13865 net.cpp:122] Setting up scale_init
I0130 23:00:32.868890 13865 net.cpp:129] Top shape: 1 32 145 197 (914080)
I0130 23:00:32.868896 13865 net.cpp:137] Memory required for data: 11085700
I0130 23:00:32.868912 13865 layer_factory.hpp:77] Creating layer relu_init
I0130 23:00:32.868927 13865 net.cpp:84] Creating Layer relu_init
I0130 23:00:32.868933 13865 net.cpp:406] relu_init <- bn_init
I0130 23:00:32.868943 13865 net.cpp:367] relu_init -> bn_init (in-place)
I0130 23:00:32.870662 13865 net.cpp:122] Setting up relu_init
I0130 23:00:32.870685 13865 net.cpp:129] Top shape: 1 32 145 197 (914080)
I0130 23:00:32.870693 13865 net.cpp:137] Memory required for data: 14742020
I0130 23:00:32.870702 13865 layer_factory.hpp:77] Creating layer pool_init
I0130 23:00:32.870717 13865 net.cpp:84] Creating Layer pool_init
I0130 23:00:32.870724 13865 net.cpp:406] pool_init <- bn_init
I0130 23:00:32.870738 13865 net.cpp:380] pool_init -> pool_init
I0130 23:00:32.870851 13865 net.cpp:122] Setting up pool_init
I0130 23:00:32.870863 13865 net.cpp:129] Top shape: 1 32 73 99 (231264)
I0130 23:00:32.870870 13865 net.cpp:137] Memory required for data: 15667076
I0130 23:00:32.870878 13865 layer_factory.hpp:77] Creating layer pool_init_pool_init_0_split
I0130 23:00:32.870890 13865 net.cpp:84] Creating Layer pool_init_pool_init_0_split
I0130 23:00:32.870898 13865 net.cpp:406] pool_init_pool_init_0_split <- pool_init
I0130 23:00:32.870909 13865 net.cpp:380] pool_init_pool_init_0_split -> pool_init_pool_init_0_split_0
I0130 23:00:32.870923 13865 net.cpp:380] pool_init_pool_init_0_split -> pool_init_pool_init_0_split_1
I0130 23:00:32.871014 13865 net.cpp:122] Setting up pool_init_pool_init_0_split
I0130 23:00:32.871027 13865 net.cpp:129] Top shape: 1 32 73 99 (231264)
I0130 23:00:32.871037 13865 net.cpp:129] Top shape: 1 32 73 99 (231264)
I0130 23:00:32.871044 13865 net.cpp:137] Memory required for data: 17517188
I0130 23:00:32.871052 13865 layer_factory.hpp:77] Creating layer conv0_0/bn
I0130 23:00:32.871068 13865 net.cpp:84] Creating Layer conv0_0/bn
I0130 23:00:32.871075 13865 net.cpp:406] conv0_0/bn <- pool_init_pool_init_0_split_0
I0130 23:00:32.871088 13865 net.cpp:380] conv0_0/bn -> conv0_0/bn
I0130 23:00:32.874192 13865 net.cpp:122] Setting up conv0_0/bn
I0130 23:00:32.874223 13865 net.cpp:129] Top shape: 1 32 73 99 (231264)
I0130 23:00:32.874231 13865 net.cpp:137] Memory required for data: 18442244
I0130 23:00:32.874255 13865 layer_factory.hpp:77] Creating layer conv0_0/scale
I0130 23:00:32.874274 13865 net.cpp:84] Creating Layer conv0_0/scale
I0130 23:00:32.874284 13865 net.cpp:406] conv0_0/scale <- conv0_0/bn
I0130 23:00:32.874295 13865 net.cpp:367] conv0_0/scale -> conv0_0/bn (in-place)
I0130 23:00:32.874406 13865 layer_factory.hpp:77] Creating layer conv0_0/scale
I0130 23:00:32.874750 13865 net.cpp:122] Setting up conv0_0/scale
I0130 23:00:32.874766 13865 net.cpp:129] Top shape: 1 32 73 99 (231264)
I0130 23:00:32.874773 13865 net.cpp:137] Memory required for data: 19367300
I0130 23:00:32.874786 13865 layer_factory.hpp:77] Creating layer relu0_0
I0130 23:00:32.874800 13865 net.cpp:84] Creating Layer relu0_0
I0130 23:00:32.874809 13865 net.cpp:406] relu0_0 <- conv0_0/bn
I0130 23:00:32.874819 13865 net.cpp:367] relu0_0 -> conv0_0/bn (in-place)
I0130 23:00:32.875186 13865 net.cpp:122] Setting up relu0_0
I0130 23:00:32.875201 13865 net.cpp:129] Top shape: 1 32 73 99 (231264)
I0130 23:00:32.875210 13865 net.cpp:137] Memory required for data: 20292356
I0130 23:00:32.875217 13865 layer_factory.hpp:77] Creating layer conv0_0
I0130 23:00:32.875238 13865 net.cpp:84] Creating Layer conv0_0
I0130 23:00:32.875247 13865 net.cpp:406] conv0_0 <- conv0_0/bn
I0130 23:00:32.875259 13865 net.cpp:380] conv0_0 -> conv0_0
I0130 23:00:32.878743 13865 net.cpp:122] Setting up conv0_0
I0130 23:00:32.878767 13865 net.cpp:129] Top shape: 1 32 73 99 (231264)
I0130 23:00:32.878775 13865 net.cpp:137] Memory required for data: 21217412
I0130 23:00:32.878787 13865 layer_factory.hpp:77] Creating layer concat0_0
I0130 23:00:32.878803 13865 net.cpp:84] Creating Layer concat0_0
I0130 23:00:32.878811 13865 net.cpp:406] concat0_0 <- pool_init_pool_init_0_split_1
I0130 23:00:32.878820 13865 net.cpp:406] concat0_0 <- conv0_0
I0130 23:00:32.878834 13865 net.cpp:380] concat0_0 -> concat0_0
I0130 23:00:32.878897 13865 net.cpp:122] Setting up concat0_0
I0130 23:00:32.878911 13865 net.cpp:129] Top shape: 1 64 73 99 (462528)
I0130 23:00:32.878917 13865 net.cpp:137] Memory required for data: 23067524
I0130 23:00:32.878924 13865 layer_factory.hpp:77] Creating layer concat0_0_concat0_0_0_split
I0130 23:00:32.878935 13865 net.cpp:84] Creating Layer concat0_0_concat0_0_0_split
I0130 23:00:32.878942 13865 net.cpp:406] concat0_0_concat0_0_0_split <- concat0_0
I0130 23:00:32.878955 13865 net.cpp:380] concat0_0_concat0_0_0_split -> concat0_0_concat0_0_0_split_0
I0130 23:00:32.878968 13865 net.cpp:380] concat0_0_concat0_0_0_split -> concat0_0_concat0_0_0_split_1
I0130 23:00:32.879063 13865 net.cpp:122] Setting up concat0_0_concat0_0_0_split
I0130 23:00:32.879076 13865 net.cpp:129] Top shape: 1 64 73 99 (462528)
I0130 23:00:32.879086 13865 net.cpp:129] Top shape: 1 64 73 99 (462528)
I0130 23:00:32.879092 13865 net.cpp:137] Memory required for data: 26767748
I0130 23:00:32.879099 13865 layer_factory.hpp:77] Creating layer conv0_1/bn
I0130 23:00:32.879113 13865 net.cpp:84] Creating Layer conv0_1/bn
I0130 23:00:32.879122 13865 net.cpp:406] conv0_1/bn <- concat0_0_concat0_0_0_split_0
I0130 23:00:32.879132 13865 net.cpp:380] conv0_1/bn -> conv0_1/bn
I0130 23:00:32.879685 13865 net.cpp:122] Setting up conv0_1/bn
I0130 23:00:32.879699 13865 net.cpp:129] Top shape: 1 64 73 99 (462528)
I0130 23:00:32.879706 13865 net.cpp:137] Memory required for data: 28617860
I0130 23:00:32.879721 13865 layer_factory.hpp:77] Creating layer conv0_1/scale
I0130 23:00:32.879737 13865 net.cpp:84] Creating Layer conv0_1/scale
I0130 23:00:32.879745 13865 net.cpp:406] conv0_1/scale <- conv0_1/bn
I0130 23:00:32.879758 13865 net.cpp:367] conv0_1/scale -> conv0_1/bn (in-place)
I0130 23:00:32.879859 13865 layer_factory.hpp:77] Creating layer conv0_1/scale
I0130 23:00:32.880185 13865 net.cpp:122] Setting up conv0_1/scale
I0130 23:00:32.880199 13865 net.cpp:129] Top shape: 1 64 73 99 (462528)
I0130 23:00:32.880213 13865 net.cpp:137] Memory required for data: 30467972
I0130 23:00:32.880230 13865 layer_factory.hpp:77] Creating layer relu0_1
I0130 23:00:32.880245 13865 net.cpp:84] Creating Layer relu0_1
I0130 23:00:32.880254 13865 net.cpp:406] relu0_1 <- conv0_1/bn
I0130 23:00:32.880265 13865 net.cpp:367] relu0_1 -> conv0_1/bn (in-place)
I0130 23:00:32.880600 13865 net.cpp:122] Setting up relu0_1
I0130 23:00:32.880615 13865 net.cpp:129] Top shape: 1 64 73 99 (462528)
I0130 23:00:32.880622 13865 net.cpp:137] Memory required for data: 32318084
I0130 23:00:32.880640 13865 layer_factory.hpp:77] Creating layer conv0_1
I0130 23:00:32.880661 13865 net.cpp:84] Creating Layer conv0_1
I0130 23:00:32.880669 13865 net.cpp:406] conv0_1 <- conv0_1/bn
I0130 23:00:32.880683 13865 net.cpp:380] conv0_1 -> conv0_1
I0130 23:00:32.884537 13865 net.cpp:122] Setting up conv0_1
I0130 23:00:32.884564 13865 net.cpp:129] Top shape: 1 32 73 99 (231264)
I0130 23:00:32.884572 13865 net.cpp:137] Memory required for data: 33243140
I0130 23:00:32.884584 13865 layer_factory.hpp:77] Creating layer concat0_1
I0130 23:00:32.884601 13865 net.cpp:84] Creating Layer concat0_1
I0130 23:00:32.884610 13865 net.cpp:406] concat0_1 <- concat0_0_concat0_0_0_split_1
I0130 23:00:32.884620 13865 net.cpp:406] concat0_1 <- conv0_1
I0130 23:00:32.884639 13865 net.cpp:380] concat0_1 -> concat0_1
I0130 23:00:32.884711 13865 net.cpp:122] Setting up concat0_1
I0130 23:00:32.884723 13865 net.cpp:129] Top shape: 1 96 73 99 (693792)
I0130 23:00:32.884730 13865 net.cpp:137] Memory required for data: 36018308
I0130 23:00:32.884737 13865 layer_factory.hpp:77] Creating layer concat0_1_concat0_1_0_split
I0130 23:00:32.884748 13865 net.cpp:84] Creating Layer concat0_1_concat0_1_0_split
I0130 23:00:32.884757 13865 net.cpp:406] concat0_1_concat0_1_0_split <- concat0_1
I0130 23:00:32.884769 13865 net.cpp:380] concat0_1_concat0_1_0_split -> concat0_1_concat0_1_0_split_0
I0130 23:00:32.884781 13865 net.cpp:380] concat0_1_concat0_1_0_split -> concat0_1_concat0_1_0_split_1
I0130 23:00:32.884876 13865 net.cpp:122] Setting up concat0_1_concat0_1_0_split
I0130 23:00:32.884887 13865 net.cpp:129] Top shape: 1 96 73 99 (693792)
I0130 23:00:32.884896 13865 net.cpp:129] Top shape: 1 96 73 99 (693792)
I0130 23:00:32.884903 13865 net.cpp:137] Memory required for data: 41568644
I0130 23:00:32.884910 13865 layer_factory.hpp:77] Creating layer conv0_2/bn
I0130 23:00:32.884927 13865 net.cpp:84] Creating Layer conv0_2/bn
I0130 23:00:32.884935 13865 net.cpp:406] conv0_2/bn <- concat0_1_concat0_1_0_split_0
I0130 23:00:32.884945 13865 net.cpp:380] conv0_2/bn -> conv0_2/bn
I0130 23:00:32.885531 13865 net.cpp:122] Setting up conv0_2/bn
I0130 23:00:32.885545 13865 net.cpp:129] Top shape: 1 96 73 99 (693792)
I0130 23:00:32.885552 13865 net.cpp:137] Memory required for data: 44343812
I0130 23:00:32.885567 13865 layer_factory.hpp:77] Creating layer conv0_2/scale
I0130 23:00:32.885581 13865 net.cpp:84] Creating Layer conv0_2/scale
I0130 23:00:32.885589 13865 net.cpp:406] conv0_2/scale <- conv0_2/bn
I0130 23:00:32.885601 13865 net.cpp:367] conv0_2/scale -> conv0_2/bn (in-place)
I0130 23:00:32.885704 13865 layer_factory.hpp:77] Creating layer conv0_2/scale
I0130 23:00:32.886042 13865 net.cpp:122] Setting up conv0_2/scale
I0130 23:00:32.886056 13865 net.cpp:129] Top shape: 1 96 73 99 (693792)
I0130 23:00:32.886063 13865 net.cpp:137] Memory required for data: 47118980
I0130 23:00:32.886076 13865 layer_factory.hpp:77] Creating layer relu0_2
I0130 23:00:32.886090 13865 net.cpp:84] Creating Layer relu0_2
I0130 23:00:32.886098 13865 net.cpp:406] relu0_2 <- conv0_2/bn
I0130 23:00:32.886107 13865 net.cpp:367] relu0_2 -> conv0_2/bn (in-place)
I0130 23:00:32.887835 13865 net.cpp:122] Setting up relu0_2
I0130 23:00:32.887856 13865 net.cpp:129] Top shape: 1 96 73 99 (693792)
I0130 23:00:32.887864 13865 net.cpp:137] Memory required for data: 49894148
I0130 23:00:32.887872 13865 layer_factory.hpp:77] Creating layer conv0_2
I0130 23:00:32.887897 13865 net.cpp:84] Creating Layer conv0_2
I0130 23:00:32.887910 13865 net.cpp:406] conv0_2 <- conv0_2/bn
I0130 23:00:32.887924 13865 net.cpp:380] conv0_2 -> conv0_2
I0130 23:00:32.892158 13865 net.cpp:122] Setting up conv0_2
I0130 23:00:32.892184 13865 net.cpp:129] Top shape: 1 32 73 99 (231264)
I0130 23:00:32.892192 13865 net.cpp:137] Memory required for data: 50819204
I0130 23:00:32.892206 13865 layer_factory.hpp:77] Creating layer concat0_2
I0130 23:00:32.892222 13865 net.cpp:84] Creating Layer concat0_2
I0130 23:00:32.892231 13865 net.cpp:406] concat0_2 <- concat0_1_concat0_1_0_split_1
I0130 23:00:32.892241 13865 net.cpp:406] concat0_2 <- conv0_2
I0130 23:00:32.892252 13865 net.cpp:380] concat0_2 -> concat0_2
I0130 23:00:32.892318 13865 net.cpp:122] Setting up concat0_2
I0130 23:00:32.892333 13865 net.cpp:129] Top shape: 1 128 73 99 (925056)
I0130 23:00:32.892340 13865 net.cpp:137] Memory required for data: 54519428
I0130 23:00:32.892347 13865 layer_factory.hpp:77] Creating layer concat0_2_concat0_2_0_split
I0130 23:00:32.892359 13865 net.cpp:84] Creating Layer concat0_2_concat0_2_0_split
I0130 23:00:32.892366 13865 net.cpp:406] concat0_2_concat0_2_0_split <- concat0_2
I0130 23:00:32.892376 13865 net.cpp:380] concat0_2_concat0_2_0_split -> concat0_2_concat0_2_0_split_0
I0130 23:00:32.892388 13865 net.cpp:380] concat0_2_concat0_2_0_split -> concat0_2_concat0_2_0_split_1
I0130 23:00:32.892484 13865 net.cpp:122] Setting up concat0_2_concat0_2_0_split
I0130 23:00:32.892498 13865 net.cpp:129] Top shape: 1 128 73 99 (925056)
I0130 23:00:32.892506 13865 net.cpp:129] Top shape: 1 128 73 99 (925056)
I0130 23:00:32.892513 13865 net.cpp:137] Memory required for data: 61919876
I0130 23:00:32.892520 13865 layer_factory.hpp:77] Creating layer conv0_3/bn
I0130 23:00:32.892534 13865 net.cpp:84] Creating Layer conv0_3/bn
I0130 23:00:32.892542 13865 net.cpp:406] conv0_3/bn <- concat0_2_concat0_2_0_split_0
I0130 23:00:32.892555 13865 net.cpp:380] conv0_3/bn -> conv0_3/bn
I0130 23:00:32.893126 13865 net.cpp:122] Setting up conv0_3/bn
I0130 23:00:32.893143 13865 net.cpp:129] Top shape: 1 128 73 99 (925056)
I0130 23:00:32.893151 13865 net.cpp:137] Memory required for data: 65620100
I0130 23:00:32.893168 13865 layer_factory.hpp:77] Creating layer conv0_3/scale
I0130 23:00:32.893183 13865 net.cpp:84] Creating Layer conv0_3/scale
I0130 23:00:32.893191 13865 net.cpp:406] conv0_3/scale <- conv0_3/bn
I0130 23:00:32.893203 13865 net.cpp:367] conv0_3/scale -> conv0_3/bn (in-place)
I0130 23:00:32.893304 13865 layer_factory.hpp:77] Creating layer conv0_3/scale
I0130 23:00:32.893612 13865 net.cpp:122] Setting up conv0_3/scale
I0130 23:00:32.893627 13865 net.cpp:129] Top shape: 1 128 73 99 (925056)
I0130 23:00:32.893635 13865 net.cpp:137] Memory required for data: 69320324
I0130 23:00:32.893647 13865 layer_factory.hpp:77] Creating layer relu0_3
I0130 23:00:32.893661 13865 net.cpp:84] Creating Layer relu0_3
I0130 23:00:32.893667 13865 net.cpp:406] relu0_3 <- conv0_3/bn
I0130 23:00:32.893679 13865 net.cpp:367] relu0_3 -> conv0_3/bn (in-place)
I0130 23:00:32.894016 13865 net.cpp:122] Setting up relu0_3
I0130 23:00:32.894031 13865 net.cpp:129] Top shape: 1 128 73 99 (925056)
I0130 23:00:32.894038 13865 net.cpp:137] Memory required for data: 73020548
I0130 23:00:32.894045 13865 layer_factory.hpp:77] Creating layer conv0_3
I0130 23:00:32.894068 13865 net.cpp:84] Creating Layer conv0_3
I0130 23:00:32.894075 13865 net.cpp:406] conv0_3 <- conv0_3/bn
I0130 23:00:32.894088 13865 net.cpp:380] conv0_3 -> conv0_3
I0130 23:00:32.900238 13865 net.cpp:122] Setting up conv0_3
I0130 23:00:32.900271 13865 net.cpp:129] Top shape: 1 32 73 99 (231264)
I0130 23:00:32.900279 13865 net.cpp:137] Memory required for data: 73945604
I0130 23:00:32.900293 13865 layer_factory.hpp:77] Creating layer concat0_3
I0130 23:00:32.900310 13865 net.cpp:84] Creating Layer concat0_3
I0130 23:00:32.900319 13865 net.cpp:406] concat0_3 <- concat0_2_concat0_2_0_split_1
I0130 23:00:32.900329 13865 net.cpp:406] concat0_3 <- conv0_3
I0130 23:00:32.900343 13865 net.cpp:380] concat0_3 -> concat0_3
I0130 23:00:32.900414 13865 net.cpp:122] Setting up concat0_3
I0130 23:00:32.900434 13865 net.cpp:129] Top shape: 1 160 73 99 (1156320)
I0130 23:00:32.900441 13865 net.cpp:137] Memory required for data: 78570884
I0130 23:00:32.900449 13865 layer_factory.hpp:77] Creating layer concat0_3_concat0_3_0_split
I0130 23:00:32.900461 13865 net.cpp:84] Creating Layer concat0_3_concat0_3_0_split
I0130 23:00:32.900470 13865 net.cpp:406] concat0_3_concat0_3_0_split <- concat0_3
I0130 23:00:32.900480 13865 net.cpp:380] concat0_3_concat0_3_0_split -> concat0_3_concat0_3_0_split_0
I0130 23:00:32.900492 13865 net.cpp:380] concat0_3_concat0_3_0_split -> concat0_3_concat0_3_0_split_1
I0130 23:00:32.900589 13865 net.cpp:122] Setting up concat0_3_concat0_3_0_split
I0130 23:00:32.900602 13865 net.cpp:129] Top shape: 1 160 73 99 (1156320)
I0130 23:00:32.900611 13865 net.cpp:129] Top shape: 1 160 73 99 (1156320)
I0130 23:00:32.900617 13865 net.cpp:137] Memory required for data: 87821444
I0130 23:00:32.900625 13865 layer_factory.hpp:77] Creating layer conv0_4/bn
I0130 23:00:32.900662 13865 net.cpp:84] Creating Layer conv0_4/bn
I0130 23:00:32.900671 13865 net.cpp:406] conv0_4/bn <- concat0_3_concat0_3_0_split_0
I0130 23:00:32.900684 13865 net.cpp:380] conv0_4/bn -> conv0_4/bn
I0130 23:00:32.901286 13865 net.cpp:122] Setting up conv0_4/bn
I0130 23:00:32.901304 13865 net.cpp:129] Top shape: 1 160 73 99 (1156320)
I0130 23:00:32.901310 13865 net.cpp:137] Memory required for data: 92446724
I0130 23:00:32.901335 13865 layer_factory.hpp:77] Creating layer conv0_4/scale
I0130 23:00:32.901350 13865 net.cpp:84] Creating Layer conv0_4/scale
I0130 23:00:32.901358 13865 net.cpp:406] conv0_4/scale <- conv0_4/bn
I0130 23:00:32.901371 13865 net.cpp:367] conv0_4/scale -> conv0_4/bn (in-place)
I0130 23:00:32.901473 13865 layer_factory.hpp:77] Creating layer conv0_4/scale
I0130 23:00:32.901804 13865 net.cpp:122] Setting up conv0_4/scale
I0130 23:00:32.901818 13865 net.cpp:129] Top shape: 1 160 73 99 (1156320)
I0130 23:00:32.901825 13865 net.cpp:137] Memory required for data: 97072004
I0130 23:00:32.901839 13865 layer_factory.hpp:77] Creating layer relu0_4
I0130 23:00:32.901850 13865 net.cpp:84] Creating Layer relu0_4
I0130 23:00:32.901859 13865 net.cpp:406] relu0_4 <- conv0_4/bn
I0130 23:00:32.901868 13865 net.cpp:367] relu0_4 -> conv0_4/bn (in-place)
I0130 23:00:32.902207 13865 net.cpp:122] Setting up relu0_4
I0130 23:00:32.902222 13865 net.cpp:129] Top shape: 1 160 73 99 (1156320)
I0130 23:00:32.902230 13865 net.cpp:137] Memory required for data: 101697284
I0130 23:00:32.902237 13865 layer_factory.hpp:77] Creating layer conv0_4
I0130 23:00:32.902261 13865 net.cpp:84] Creating Layer conv0_4
I0130 23:00:32.902269 13865 net.cpp:406] conv0_4 <- conv0_4/bn
I0130 23:00:32.902281 13865 net.cpp:380] conv0_4 -> conv0_4
I0130 23:00:32.907510 13865 net.cpp:122] Setting up conv0_4
I0130 23:00:32.907539 13865 net.cpp:129] Top shape: 1 32 73 99 (231264)
I0130 23:00:32.907547 13865 net.cpp:137] Memory required for data: 102622340
I0130 23:00:32.907560 13865 layer_factory.hpp:77] Creating layer concat0_4
I0130 23:00:32.907575 13865 net.cpp:84] Creating Layer concat0_4
I0130 23:00:32.907585 13865 net.cpp:406] concat0_4 <- concat0_3_concat0_3_0_split_1
I0130 23:00:32.907598 13865 net.cpp:406] concat0_4 <- conv0_4
I0130 23:00:32.907609 13865 net.cpp:380] concat0_4 -> concat0_4
I0130 23:00:32.907675 13865 net.cpp:122] Setting up concat0_4
I0130 23:00:32.907686 13865 net.cpp:129] Top shape: 1 192 73 99 (1387584)
I0130 23:00:32.907693 13865 net.cpp:137] Memory required for data: 108172676
I0130 23:00:32.907701 13865 layer_factory.hpp:77] Creating layer concat0_4_concat0_4_0_split
I0130 23:00:32.907714 13865 net.cpp:84] Creating Layer concat0_4_concat0_4_0_split
I0130 23:00:32.907721 13865 net.cpp:406] concat0_4_concat0_4_0_split <- concat0_4
I0130 23:00:32.907732 13865 net.cpp:380] concat0_4_concat0_4_0_split -> concat0_4_concat0_4_0_split_0
I0130 23:00:32.907747 13865 net.cpp:380] concat0_4_concat0_4_0_split -> concat0_4_concat0_4_0_split_1
I0130 23:00:32.907842 13865 net.cpp:122] Setting up concat0_4_concat0_4_0_split
I0130 23:00:32.907866 13865 net.cpp:129] Top shape: 1 192 73 99 (1387584)
I0130 23:00:32.907874 13865 net.cpp:129] Top shape: 1 192 73 99 (1387584)
I0130 23:00:32.907881 13865 net.cpp:137] Memory required for data: 119273348
I0130 23:00:32.907888 13865 layer_factory.hpp:77] Creating layer conv0_5/bn
I0130 23:00:32.907901 13865 net.cpp:84] Creating Layer conv0_5/bn
I0130 23:00:32.907908 13865 net.cpp:406] conv0_5/bn <- concat0_4_concat0_4_0_split_0
I0130 23:00:32.907922 13865 net.cpp:380] conv0_5/bn -> conv0_5/bn
I0130 23:00:32.908516 13865 net.cpp:122] Setting up conv0_5/bn
I0130 23:00:32.908530 13865 net.cpp:129] Top shape: 1 192 73 99 (1387584)
I0130 23:00:32.908537 13865 net.cpp:137] Memory required for data: 124823684
I0130 23:00:32.908553 13865 layer_factory.hpp:77] Creating layer conv0_5/scale
I0130 23:00:32.908571 13865 net.cpp:84] Creating Layer conv0_5/scale
I0130 23:00:32.908578 13865 net.cpp:406] conv0_5/scale <- conv0_5/bn
I0130 23:00:32.908591 13865 net.cpp:367] conv0_5/scale -> conv0_5/bn (in-place)
I0130 23:00:32.908704 13865 layer_factory.hpp:77] Creating layer conv0_5/scale
I0130 23:00:32.909037 13865 net.cpp:122] Setting up conv0_5/scale
I0130 23:00:32.909052 13865 net.cpp:129] Top shape: 1 192 73 99 (1387584)
I0130 23:00:32.909060 13865 net.cpp:137] Memory required for data: 130374020
I0130 23:00:32.909072 13865 layer_factory.hpp:77] Creating layer relu0_5
I0130 23:00:32.909085 13865 net.cpp:84] Creating Layer relu0_5
I0130 23:00:32.909092 13865 net.cpp:406] relu0_5 <- conv0_5/bn
I0130 23:00:32.909102 13865 net.cpp:367] relu0_5 -> conv0_5/bn (in-place)
I0130 23:00:32.910861 13865 net.cpp:122] Setting up relu0_5
I0130 23:00:32.910883 13865 net.cpp:129] Top shape: 1 192 73 99 (1387584)
I0130 23:00:32.910892 13865 net.cpp:137] Memory required for data: 135924356
I0130 23:00:32.910899 13865 layer_factory.hpp:77] Creating layer conv0_5
I0130 23:00:32.910918 13865 net.cpp:84] Creating Layer conv0_5
I0130 23:00:32.910928 13865 net.cpp:406] conv0_5 <- conv0_5/bn
I0130 23:00:32.910941 13865 net.cpp:380] conv0_5 -> conv0_5
I0130 23:00:32.917834 13865 net.cpp:122] Setting up conv0_5
I0130 23:00:32.917866 13865 net.cpp:129] Top shape: 1 32 73 99 (231264)
I0130 23:00:32.917874 13865 net.cpp:137] Memory required for data: 136849412
I0130 23:00:32.917888 13865 layer_factory.hpp:77] Creating layer concat0_5
I0130 23:00:32.917906 13865 net.cpp:84] Creating Layer concat0_5
I0130 23:00:32.917914 13865 net.cpp:406] concat0_5 <- concat0_4_concat0_4_0_split_1
I0130 23:00:32.917924 13865 net.cpp:406] concat0_5 <- conv0_5
I0130 23:00:32.917935 13865 net.cpp:380] concat0_5 -> concat0_5
I0130 23:00:32.918015 13865 net.cpp:122] Setting up concat0_5
I0130 23:00:32.918027 13865 net.cpp:129] Top shape: 1 224 73 99 (1618848)
I0130 23:00:32.918035 13865 net.cpp:137] Memory required for data: 143324804
I0130 23:00:32.918041 13865 layer_factory.hpp:77] Creating layer concat0_5_concat0_5_0_split
I0130 23:00:32.918052 13865 net.cpp:84] Creating Layer concat0_5_concat0_5_0_split
I0130 23:00:32.918061 13865 net.cpp:406] concat0_5_concat0_5_0_split <- concat0_5
I0130 23:00:32.918072 13865 net.cpp:380] concat0_5_concat0_5_0_split -> concat0_5_concat0_5_0_split_0
I0130 23:00:32.918087 13865 net.cpp:380] concat0_5_concat0_5_0_split -> concat0_5_concat0_5_0_split_1
I0130 23:00:32.918187 13865 net.cpp:122] Setting up concat0_5_concat0_5_0_split
I0130 23:00:32.918200 13865 net.cpp:129] Top shape: 1 224 73 99 (1618848)
I0130 23:00:32.918208 13865 net.cpp:129] Top shape: 1 224 73 99 (1618848)
I0130 23:00:32.918215 13865 net.cpp:137] Memory required for data: 156275588
I0130 23:00:32.918222 13865 layer_factory.hpp:77] Creating layer conv0_6/bn
I0130 23:00:32.918234 13865 net.cpp:84] Creating Layer conv0_6/bn
I0130 23:00:32.918242 13865 net.cpp:406] conv0_6/bn <- concat0_5_concat0_5_0_split_0
I0130 23:00:32.918256 13865 net.cpp:380] conv0_6/bn -> conv0_6/bn
I0130 23:00:32.918869 13865 net.cpp:122] Setting up conv0_6/bn
I0130 23:00:32.918884 13865 net.cpp:129] Top shape: 1 224 73 99 (1618848)
I0130 23:00:32.918890 13865 net.cpp:137] Memory required for data: 162750980
I0130 23:00:32.918913 13865 layer_factory.hpp:77] Creating layer conv0_6/scale
I0130 23:00:32.918931 13865 net.cpp:84] Creating Layer conv0_6/scale
I0130 23:00:32.918939 13865 net.cpp:406] conv0_6/scale <- conv0_6/bn
I0130 23:00:32.918949 13865 net.cpp:367] conv0_6/scale -> conv0_6/bn (in-place)
I0130 23:00:32.919051 13865 layer_factory.hpp:77] Creating layer conv0_6/scale
I0130 23:00:32.919391 13865 net.cpp:122] Setting up conv0_6/scale
I0130 23:00:32.919409 13865 net.cpp:129] Top shape: 1 224 73 99 (1618848)
I0130 23:00:32.919415 13865 net.cpp:137] Memory required for data: 169226372
I0130 23:00:32.919428 13865 layer_factory.hpp:77] Creating layer relu0_6
I0130 23:00:32.919441 13865 net.cpp:84] Creating Layer relu0_6
I0130 23:00:32.919450 13865 net.cpp:406] relu0_6 <- conv0_6/bn
I0130 23:00:32.919458 13865 net.cpp:367] relu0_6 -> conv0_6/bn (in-place)
I0130 23:00:32.919807 13865 net.cpp:122] Setting up relu0_6
I0130 23:00:32.919824 13865 net.cpp:129] Top shape: 1 224 73 99 (1618848)
I0130 23:00:32.919831 13865 net.cpp:137] Memory required for data: 175701764
I0130 23:00:32.919839 13865 layer_factory.hpp:77] Creating layer conv0_6
I0130 23:00:32.919859 13865 net.cpp:84] Creating Layer conv0_6
I0130 23:00:32.919867 13865 net.cpp:406] conv0_6 <- conv0_6/bn
I0130 23:00:32.919879 13865 net.cpp:380] conv0_6 -> conv0_6
I0130 23:00:32.929818 13865 net.cpp:122] Setting up conv0_6
I0130 23:00:32.929867 13865 net.cpp:129] Top shape: 1 32 73 99 (231264)
I0130 23:00:32.929874 13865 net.cpp:137] Memory required for data: 176626820
I0130 23:00:32.929891 13865 layer_factory.hpp:77] Creating layer concat0_6
I0130 23:00:32.929915 13865 net.cpp:84] Creating Layer concat0_6
I0130 23:00:32.929925 13865 net.cpp:406] concat0_6 <- concat0_5_concat0_5_0_split_1
I0130 23:00:32.929937 13865 net.cpp:406] concat0_6 <- conv0_6
I0130 23:00:32.929949 13865 net.cpp:380] concat0_6 -> concat0_6
I0130 23:00:32.930032 13865 net.cpp:122] Setting up concat0_6
I0130 23:00:32.930044 13865 net.cpp:129] Top shape: 1 256 73 99 (1850112)
I0130 23:00:32.930050 13865 net.cpp:137] Memory required for data: 184027268
I0130 23:00:32.930058 13865 layer_factory.hpp:77] Creating layer concat0_6_concat0_6_0_split
I0130 23:00:32.930071 13865 net.cpp:84] Creating Layer concat0_6_concat0_6_0_split
I0130 23:00:32.930079 13865 net.cpp:406] concat0_6_concat0_6_0_split <- concat0_6
I0130 23:00:32.930089 13865 net.cpp:380] concat0_6_concat0_6_0_split -> concat0_6_concat0_6_0_split_0
I0130 23:00:32.930101 13865 net.cpp:380] concat0_6_concat0_6_0_split -> concat0_6_concat0_6_0_split_1
I0130 23:00:32.930200 13865 net.cpp:122] Setting up concat0_6_concat0_6_0_split
I0130 23:00:32.930212 13865 net.cpp:129] Top shape: 1 256 73 99 (1850112)
I0130 23:00:32.930222 13865 net.cpp:129] Top shape: 1 256 73 99 (1850112)
I0130 23:00:32.930228 13865 net.cpp:137] Memory required for data: 198828164
I0130 23:00:32.930235 13865 layer_factory.hpp:77] Creating layer conv0_7/bn
I0130 23:00:32.930250 13865 net.cpp:84] Creating Layer conv0_7/bn
I0130 23:00:32.930258 13865 net.cpp:406] conv0_7/bn <- concat0_6_concat0_6_0_split_0
I0130 23:00:32.930269 13865 net.cpp:380] conv0_7/bn -> conv0_7/bn
I0130 23:00:32.930868 13865 net.cpp:122] Setting up conv0_7/bn
I0130 23:00:32.930883 13865 net.cpp:129] Top shape: 1 256 73 99 (1850112)
I0130 23:00:32.930891 13865 net.cpp:137] Memory required for data: 206228612
I0130 23:00:32.930907 13865 layer_factory.hpp:77] Creating layer conv0_7/scale
I0130 23:00:32.930925 13865 net.cpp:84] Creating Layer conv0_7/scale
I0130 23:00:32.930933 13865 net.cpp:406] conv0_7/scale <- conv0_7/bn
I0130 23:00:32.930943 13865 net.cpp:367] conv0_7/scale -> conv0_7/bn (in-place)
I0130 23:00:32.931048 13865 layer_factory.hpp:77] Creating layer conv0_7/scale
I0130 23:00:32.931367 13865 net.cpp:122] Setting up conv0_7/scale
I0130 23:00:32.931385 13865 net.cpp:129] Top shape: 1 256 73 99 (1850112)
I0130 23:00:32.931391 13865 net.cpp:137] Memory required for data: 213629060
I0130 23:00:32.931406 13865 layer_factory.hpp:77] Creating layer relu0_7
I0130 23:00:32.931418 13865 net.cpp:84] Creating Layer relu0_7
I0130 23:00:32.931432 13865 net.cpp:406] relu0_7 <- conv0_7/bn
I0130 23:00:32.931445 13865 net.cpp:367] relu0_7 -> conv0_7/bn (in-place)
I0130 23:00:32.931799 13865 net.cpp:122] Setting up relu0_7
I0130 23:00:32.931815 13865 net.cpp:129] Top shape: 1 256 73 99 (1850112)
I0130 23:00:32.931823 13865 net.cpp:137] Memory required for data: 221029508
I0130 23:00:32.931830 13865 layer_factory.hpp:77] Creating layer conv0_7
I0130 23:00:32.931850 13865 net.cpp:84] Creating Layer conv0_7
I0130 23:00:32.931859 13865 net.cpp:406] conv0_7 <- conv0_7/bn
I0130 23:00:32.931874 13865 net.cpp:380] conv0_7 -> conv0_7
I0130 23:00:32.942091 13865 net.cpp:122] Setting up conv0_7
I0130 23:00:32.942136 13865 net.cpp:129] Top shape: 1 32 73 99 (231264)
I0130 23:00:32.942143 13865 net.cpp:137] Memory required for data: 221954564
I0130 23:00:32.942160 13865 layer_factory.hpp:77] Creating layer concat0_7
I0130 23:00:32.942183 13865 net.cpp:84] Creating Layer concat0_7
I0130 23:00:32.942193 13865 net.cpp:406] concat0_7 <- concat0_6_concat0_6_0_split_1
I0130 23:00:32.942204 13865 net.cpp:406] concat0_7 <- conv0_7
I0130 23:00:32.942215 13865 net.cpp:380] concat0_7 -> concat0_7
I0130 23:00:32.942296 13865 net.cpp:122] Setting up concat0_7
I0130 23:00:32.942308 13865 net.cpp:129] Top shape: 1 288 73 99 (2081376)
I0130 23:00:32.942315 13865 net.cpp:137] Memory required for data: 230280068
I0130 23:00:32.942322 13865 layer_factory.hpp:77] Creating layer concat0_7_concat0_7_0_split
I0130 23:00:32.942337 13865 net.cpp:84] Creating Layer concat0_7_concat0_7_0_split
I0130 23:00:32.942344 13865 net.cpp:406] concat0_7_concat0_7_0_split <- concat0_7
I0130 23:00:32.942354 13865 net.cpp:380] concat0_7_concat0_7_0_split -> concat0_7_concat0_7_0_split_0
I0130 23:00:32.942368 13865 net.cpp:380] concat0_7_concat0_7_0_split -> concat0_7_concat0_7_0_split_1
I0130 23:00:32.942468 13865 net.cpp:122] Setting up concat0_7_concat0_7_0_split
I0130 23:00:32.942481 13865 net.cpp:129] Top shape: 1 288 73 99 (2081376)
I0130 23:00:32.942489 13865 net.cpp:129] Top shape: 1 288 73 99 (2081376)
I0130 23:00:32.942497 13865 net.cpp:137] Memory required for data: 246931076
I0130 23:00:32.942503 13865 layer_factory.hpp:77] Creating layer conv0_8/bn
I0130 23:00:32.942518 13865 net.cpp:84] Creating Layer conv0_8/bn
I0130 23:00:32.942526 13865 net.cpp:406] conv0_8/bn <- concat0_7_concat0_7_0_split_0
I0130 23:00:32.942539 13865 net.cpp:380] conv0_8/bn -> conv0_8/bn
I0130 23:00:32.943193 13865 net.cpp:122] Setting up conv0_8/bn
I0130 23:00:32.943208 13865 net.cpp:129] Top shape: 1 288 73 99 (2081376)
I0130 23:00:32.943215 13865 net.cpp:137] Memory required for data: 255256580
I0130 23:00:32.943234 13865 layer_factory.hpp:77] Creating layer conv0_8/scale
I0130 23:00:32.943249 13865 net.cpp:84] Creating Layer conv0_8/scale
I0130 23:00:32.943258 13865 net.cpp:406] conv0_8/scale <- conv0_8/bn
I0130 23:00:32.943267 13865 net.cpp:367] conv0_8/scale -> conv0_8/bn (in-place)
I0130 23:00:32.943382 13865 layer_factory.hpp:77] Creating layer conv0_8/scale
I0130 23:00:32.943742 13865 net.cpp:122] Setting up conv0_8/scale
I0130 23:00:32.943756 13865 net.cpp:129] Top shape: 1 288 73 99 (2081376)
I0130 23:00:32.943764 13865 net.cpp:137] Memory required for data: 263582084
I0130 23:00:32.943778 13865 layer_factory.hpp:77] Creating layer relu0_8
I0130 23:00:32.943789 13865 net.cpp:84] Creating Layer relu0_8
I0130 23:00:32.943796 13865 net.cpp:406] relu0_8 <- conv0_8/bn
I0130 23:00:32.943809 13865 net.cpp:367] relu0_8 -> conv0_8/bn (in-place)
I0130 23:00:32.944155 13865 net.cpp:122] Setting up relu0_8
I0130 23:00:32.944171 13865 net.cpp:129] Top shape: 1 288 73 99 (2081376)
I0130 23:00:32.944178 13865 net.cpp:137] Memory required for data: 271907588
I0130 23:00:32.944186 13865 layer_factory.hpp:77] Creating layer conv0_8
I0130 23:00:32.944207 13865 net.cpp:84] Creating Layer conv0_8
I0130 23:00:32.944216 13865 net.cpp:406] conv0_8 <- conv0_8/bn
I0130 23:00:32.944231 13865 net.cpp:380] conv0_8 -> conv0_8
I0130 23:00:32.952414 13865 net.cpp:122] Setting up conv0_8
I0130 23:00:32.952450 13865 net.cpp:129] Top shape: 1 32 73 99 (231264)
I0130 23:00:32.952466 13865 net.cpp:137] Memory required for data: 272832644
I0130 23:00:32.952481 13865 layer_factory.hpp:77] Creating layer concat0_8
I0130 23:00:32.952499 13865 net.cpp:84] Creating Layer concat0_8
I0130 23:00:32.952512 13865 net.cpp:406] concat0_8 <- concat0_7_concat0_7_0_split_1
I0130 23:00:32.952523 13865 net.cpp:406] concat0_8 <- conv0_8
I0130 23:00:32.952534 13865 net.cpp:380] concat0_8 -> concat0_8
I0130 23:00:32.952615 13865 net.cpp:122] Setting up concat0_8
I0130 23:00:32.952636 13865 net.cpp:129] Top shape: 1 320 73 99 (2312640)
I0130 23:00:32.952644 13865 net.cpp:137] Memory required for data: 282083204
I0130 23:00:32.952652 13865 layer_factory.hpp:77] Creating layer concat0_8_concat0_8_0_split
I0130 23:00:32.952666 13865 net.cpp:84] Creating Layer concat0_8_concat0_8_0_split
I0130 23:00:32.952674 13865 net.cpp:406] concat0_8_concat0_8_0_split <- concat0_8
I0130 23:00:32.952684 13865 net.cpp:380] concat0_8_concat0_8_0_split -> concat0_8_concat0_8_0_split_0
I0130 23:00:32.952697 13865 net.cpp:380] concat0_8_concat0_8_0_split -> concat0_8_concat0_8_0_split_1
I0130 23:00:32.952800 13865 net.cpp:122] Setting up concat0_8_concat0_8_0_split
I0130 23:00:32.952812 13865 net.cpp:129] Top shape: 1 320 73 99 (2312640)
I0130 23:00:32.952821 13865 net.cpp:129] Top shape: 1 320 73 99 (2312640)
I0130 23:00:32.952828 13865 net.cpp:137] Memory required for data: 300584324
I0130 23:00:32.952836 13865 layer_factory.hpp:77] Creating layer conv0_9/bn
I0130 23:00:32.952849 13865 net.cpp:84] Creating Layer conv0_9/bn
I0130 23:00:32.952857 13865 net.cpp:406] conv0_9/bn <- concat0_8_concat0_8_0_split_0
I0130 23:00:32.952868 13865 net.cpp:380] conv0_9/bn -> conv0_9/bn
I0130 23:00:32.953516 13865 net.cpp:122] Setting up conv0_9/bn
I0130 23:00:32.953531 13865 net.cpp:129] Top shape: 1 320 73 99 (2312640)
I0130 23:00:32.953536 13865 net.cpp:137] Memory required for data: 309834884
I0130 23:00:32.953553 13865 layer_factory.hpp:77] Creating layer conv0_9/scale
I0130 23:00:32.953572 13865 net.cpp:84] Creating Layer conv0_9/scale
I0130 23:00:32.953579 13865 net.cpp:406] conv0_9/scale <- conv0_9/bn
I0130 23:00:32.953589 13865 net.cpp:367] conv0_9/scale -> conv0_9/bn (in-place)
I0130 23:00:32.953704 13865 layer_factory.hpp:77] Creating layer conv0_9/scale
I0130 23:00:32.954067 13865 net.cpp:122] Setting up conv0_9/scale
I0130 23:00:32.954082 13865 net.cpp:129] Top shape: 1 320 73 99 (2312640)
I0130 23:00:32.954088 13865 net.cpp:137] Memory required for data: 319085444
I0130 23:00:32.954121 13865 layer_factory.hpp:77] Creating layer relu0_9
I0130 23:00:32.954140 13865 net.cpp:84] Creating Layer relu0_9
I0130 23:00:32.954149 13865 net.cpp:406] relu0_9 <- conv0_9/bn
I0130 23:00:32.954159 13865 net.cpp:367] relu0_9 -> conv0_9/bn (in-place)
I0130 23:00:32.955852 13865 net.cpp:122] Setting up relu0_9
I0130 23:00:32.955875 13865 net.cpp:129] Top shape: 1 320 73 99 (2312640)
I0130 23:00:32.955883 13865 net.cpp:137] Memory required for data: 328336004
I0130 23:00:32.955893 13865 layer_factory.hpp:77] Creating layer conv0_9
I0130 23:00:32.955915 13865 net.cpp:84] Creating Layer conv0_9
I0130 23:00:32.955924 13865 net.cpp:406] conv0_9 <- conv0_9/bn
I0130 23:00:32.955936 13865 net.cpp:380] conv0_9 -> conv0_9
I0130 23:00:32.964504 13865 net.cpp:122] Setting up conv0_9
I0130 23:00:32.964542 13865 net.cpp:129] Top shape: 1 32 73 99 (231264)
I0130 23:00:32.964550 13865 net.cpp:137] Memory required for data: 329261060
I0130 23:00:32.964566 13865 layer_factory.hpp:77] Creating layer concat0_9
I0130 23:00:32.964586 13865 net.cpp:84] Creating Layer concat0_9
I0130 23:00:32.964596 13865 net.cpp:406] concat0_9 <- concat0_8_concat0_8_0_split_1
I0130 23:00:32.964607 13865 net.cpp:406] concat0_9 <- conv0_9
I0130 23:00:32.964618 13865 net.cpp:380] concat0_9 -> concat0_9
I0130 23:00:32.964715 13865 net.cpp:122] Setting up concat0_9
I0130 23:00:32.964730 13865 net.cpp:129] Top shape: 1 352 73 99 (2543904)
I0130 23:00:32.964736 13865 net.cpp:137] Memory required for data: 339436676
I0130 23:00:32.964745 13865 layer_factory.hpp:77] Creating layer concat0_9_concat0_9_0_split
I0130 23:00:32.964762 13865 net.cpp:84] Creating Layer concat0_9_concat0_9_0_split
I0130 23:00:32.964771 13865 net.cpp:406] concat0_9_concat0_9_0_split <- concat0_9
I0130 23:00:32.964781 13865 net.cpp:380] concat0_9_concat0_9_0_split -> concat0_9_concat0_9_0_split_0
I0130 23:00:32.964793 13865 net.cpp:380] concat0_9_concat0_9_0_split -> concat0_9_concat0_9_0_split_1
I0130 23:00:32.964895 13865 net.cpp:122] Setting up concat0_9_concat0_9_0_split
I0130 23:00:32.964910 13865 net.cpp:129] Top shape: 1 352 73 99 (2543904)
I0130 23:00:32.964920 13865 net.cpp:129] Top shape: 1 352 73 99 (2543904)
I0130 23:00:32.964926 13865 net.cpp:137] Memory required for data: 359787908
I0130 23:00:32.964933 13865 layer_factory.hpp:77] Creating layer conv0_10/bn
I0130 23:00:32.964946 13865 net.cpp:84] Creating Layer conv0_10/bn
I0130 23:00:32.964953 13865 net.cpp:406] conv0_10/bn <- concat0_9_concat0_9_0_split_0
I0130 23:00:32.964967 13865 net.cpp:380] conv0_10/bn -> conv0_10/bn
I0130 23:00:32.965636 13865 net.cpp:122] Setting up conv0_10/bn
I0130 23:00:32.965651 13865 net.cpp:129] Top shape: 1 352 73 99 (2543904)
I0130 23:00:32.965658 13865 net.cpp:137] Memory required for data: 369963524
I0130 23:00:32.965674 13865 layer_factory.hpp:77] Creating layer conv0_10/scale
I0130 23:00:32.965692 13865 net.cpp:84] Creating Layer conv0_10/scale
I0130 23:00:32.965700 13865 net.cpp:406] conv0_10/scale <- conv0_10/bn
I0130 23:00:32.965713 13865 net.cpp:367] conv0_10/scale -> conv0_10/bn (in-place)
I0130 23:00:32.965826 13865 layer_factory.hpp:77] Creating layer conv0_10/scale
I0130 23:00:32.966189 13865 net.cpp:122] Setting up conv0_10/scale
I0130 23:00:32.966204 13865 net.cpp:129] Top shape: 1 352 73 99 (2543904)
I0130 23:00:32.966212 13865 net.cpp:137] Memory required for data: 380139140
I0130 23:00:32.966224 13865 layer_factory.hpp:77] Creating layer relu0_10
I0130 23:00:32.966236 13865 net.cpp:84] Creating Layer relu0_10
I0130 23:00:32.966244 13865 net.cpp:406] relu0_10 <- conv0_10/bn
I0130 23:00:32.966253 13865 net.cpp:367] relu0_10 -> conv0_10/bn (in-place)
I0130 23:00:32.966614 13865 net.cpp:122] Setting up relu0_10
I0130 23:00:32.966629 13865 net.cpp:129] Top shape: 1 352 73 99 (2543904)
I0130 23:00:32.966635 13865 net.cpp:137] Memory required for data: 390314756
I0130 23:00:32.966644 13865 layer_factory.hpp:77] Creating layer conv0_10
I0130 23:00:32.966665 13865 net.cpp:84] Creating Layer conv0_10
I0130 23:00:32.966673 13865 net.cpp:406] conv0_10 <- conv0_10/bn
I0130 23:00:32.966686 13865 net.cpp:380] conv0_10 -> conv0_10
I0130 23:00:32.975864 13865 net.cpp:122] Setting up conv0_10
I0130 23:00:32.975900 13865 net.cpp:129] Top shape: 1 32 73 99 (231264)
I0130 23:00:32.975908 13865 net.cpp:137] Memory required for data: 391239812
I0130 23:00:32.975924 13865 layer_factory.hpp:77] Creating layer concat0_10
I0130 23:00:32.975941 13865 net.cpp:84] Creating Layer concat0_10
I0130 23:00:32.975951 13865 net.cpp:406] concat0_10 <- concat0_9_concat0_9_0_split_1
I0130 23:00:32.975963 13865 net.cpp:406] concat0_10 <- conv0_10
I0130 23:00:32.975977 13865 net.cpp:380] concat0_10 -> concat0_10
I0130 23:00:32.976054 13865 net.cpp:122] Setting up concat0_10
I0130 23:00:32.976068 13865 net.cpp:129] Top shape: 1 384 73 99 (2775168)
I0130 23:00:32.976074 13865 net.cpp:137] Memory required for data: 402340484
I0130 23:00:32.976081 13865 layer_factory.hpp:77] Creating layer concat0_10_concat0_10_0_split
I0130 23:00:32.976094 13865 net.cpp:84] Creating Layer concat0_10_concat0_10_0_split
I0130 23:00:32.976102 13865 net.cpp:406] concat0_10_concat0_10_0_split <- concat0_10
I0130 23:00:32.976112 13865 net.cpp:380] concat0_10_concat0_10_0_split -> concat0_10_concat0_10_0_split_0
I0130 23:00:32.976125 13865 net.cpp:380] concat0_10_concat0_10_0_split -> concat0_10_concat0_10_0_split_1
I0130 23:00:32.976227 13865 net.cpp:122] Setting up concat0_10_concat0_10_0_split
I0130 23:00:32.976239 13865 net.cpp:129] Top shape: 1 384 73 99 (2775168)
I0130 23:00:32.976248 13865 net.cpp:129] Top shape: 1 384 73 99 (2775168)
I0130 23:00:32.976263 13865 net.cpp:137] Memory required for data: 424541828
I0130 23:00:32.976270 13865 layer_factory.hpp:77] Creating layer conv0_11/bn
I0130 23:00:32.976284 13865 net.cpp:84] Creating Layer conv0_11/bn
I0130 23:00:32.976292 13865 net.cpp:406] conv0_11/bn <- concat0_10_concat0_10_0_split_0
I0130 23:00:32.976306 13865 net.cpp:380] conv0_11/bn -> conv0_11/bn
I0130 23:00:32.976966 13865 net.cpp:122] Setting up conv0_11/bn
I0130 23:00:32.976985 13865 net.cpp:129] Top shape: 1 384 73 99 (2775168)
I0130 23:00:32.976992 13865 net.cpp:137] Memory required for data: 435642500
I0130 23:00:32.977008 13865 layer_factory.hpp:77] Creating layer conv0_11/scale
I0130 23:00:32.977023 13865 net.cpp:84] Creating Layer conv0_11/scale
I0130 23:00:32.977031 13865 net.cpp:406] conv0_11/scale <- conv0_11/bn
I0130 23:00:32.977044 13865 net.cpp:367] conv0_11/scale -> conv0_11/bn (in-place)
I0130 23:00:32.977146 13865 layer_factory.hpp:77] Creating layer conv0_11/scale
I0130 23:00:32.977500 13865 net.cpp:122] Setting up conv0_11/scale
I0130 23:00:32.977515 13865 net.cpp:129] Top shape: 1 384 73 99 (2775168)
I0130 23:00:32.977524 13865 net.cpp:137] Memory required for data: 446743172
I0130 23:00:32.977536 13865 layer_factory.hpp:77] Creating layer relu0_11
I0130 23:00:32.977548 13865 net.cpp:84] Creating Layer relu0_11
I0130 23:00:32.977556 13865 net.cpp:406] relu0_11 <- conv0_11/bn
I0130 23:00:32.977566 13865 net.cpp:367] relu0_11 -> conv0_11/bn (in-place)
I0130 23:00:32.977919 13865 net.cpp:122] Setting up relu0_11
I0130 23:00:32.977936 13865 net.cpp:129] Top shape: 1 384 73 99 (2775168)
I0130 23:00:32.977942 13865 net.cpp:137] Memory required for data: 457843844
I0130 23:00:32.977951 13865 layer_factory.hpp:77] Creating layer conv0_11
I0130 23:00:32.977973 13865 net.cpp:84] Creating Layer conv0_11
I0130 23:00:32.977982 13865 net.cpp:406] conv0_11 <- conv0_11/bn
I0130 23:00:32.977994 13865 net.cpp:380] conv0_11 -> conv0_11
I0130 23:00:32.987499 13865 net.cpp:122] Setting up conv0_11
I0130 23:00:32.987540 13865 net.cpp:129] Top shape: 1 32 73 99 (231264)
I0130 23:00:32.987546 13865 net.cpp:137] Memory required for data: 458768900
I0130 23:00:32.987562 13865 layer_factory.hpp:77] Creating layer concat0_11
I0130 23:00:32.987584 13865 net.cpp:84] Creating Layer concat0_11
I0130 23:00:32.987594 13865 net.cpp:406] concat0_11 <- concat0_10_concat0_10_0_split_1
I0130 23:00:32.987607 13865 net.cpp:406] concat0_11 <- conv0_11
I0130 23:00:32.987617 13865 net.cpp:380] concat0_11 -> concat0_11
I0130 23:00:32.987699 13865 net.cpp:122] Setting up concat0_11
I0130 23:00:32.987711 13865 net.cpp:129] Top shape: 1 416 73 99 (3006432)
I0130 23:00:32.987718 13865 net.cpp:137] Memory required for data: 470794628
I0130 23:00:32.987725 13865 layer_factory.hpp:77] Creating layer concat0_11_concat0_11_0_split
I0130 23:00:32.987742 13865 net.cpp:84] Creating Layer concat0_11_concat0_11_0_split
I0130 23:00:32.987751 13865 net.cpp:406] concat0_11_concat0_11_0_split <- concat0_11
I0130 23:00:32.987761 13865 net.cpp:380] concat0_11_concat0_11_0_split -> concat0_11_concat0_11_0_split_0
I0130 23:00:32.987776 13865 net.cpp:380] concat0_11_concat0_11_0_split -> concat0_11_concat0_11_0_split_1
I0130 23:00:32.987879 13865 net.cpp:122] Setting up concat0_11_concat0_11_0_split
I0130 23:00:32.987890 13865 net.cpp:129] Top shape: 1 416 73 99 (3006432)
I0130 23:00:32.987898 13865 net.cpp:129] Top shape: 1 416 73 99 (3006432)
I0130 23:00:32.987905 13865 net.cpp:137] Memory required for data: 494846084
I0130 23:00:32.987910 13865 layer_factory.hpp:77] Creating layer conv0_12/bn
I0130 23:00:32.987929 13865 net.cpp:84] Creating Layer conv0_12/bn
I0130 23:00:32.987937 13865 net.cpp:406] conv0_12/bn <- concat0_11_concat0_11_0_split_0
I0130 23:00:32.987951 13865 net.cpp:380] conv0_12/bn -> conv0_12/bn
I0130 23:00:32.988598 13865 net.cpp:122] Setting up conv0_12/bn
I0130 23:00:32.988613 13865 net.cpp:129] Top shape: 1 416 73 99 (3006432)
I0130 23:00:32.988620 13865 net.cpp:137] Memory required for data: 506871812
I0130 23:00:32.988646 13865 layer_factory.hpp:77] Creating layer conv0_12/scale
I0130 23:00:32.988672 13865 net.cpp:84] Creating Layer conv0_12/scale
I0130 23:00:32.988682 13865 net.cpp:406] conv0_12/scale <- conv0_12/bn
I0130 23:00:32.988692 13865 net.cpp:367] conv0_12/scale -> conv0_12/bn (in-place)
I0130 23:00:32.988808 13865 layer_factory.hpp:77] Creating layer conv0_12/scale
I0130 23:00:32.989174 13865 net.cpp:122] Setting up conv0_12/scale
I0130 23:00:32.989189 13865 net.cpp:129] Top shape: 1 416 73 99 (3006432)
I0130 23:00:32.989197 13865 net.cpp:137] Memory required for data: 518897540
I0130 23:00:32.989209 13865 layer_factory.hpp:77] Creating layer relu0_12
I0130 23:00:32.989222 13865 net.cpp:84] Creating Layer relu0_12
I0130 23:00:32.989229 13865 net.cpp:406] relu0_12 <- conv0_12/bn
I0130 23:00:32.989238 13865 net.cpp:367] relu0_12 -> conv0_12/bn (in-place)
I0130 23:00:32.990957 13865 net.cpp:122] Setting up relu0_12
I0130 23:00:32.990978 13865 net.cpp:129] Top shape: 1 416 73 99 (3006432)
I0130 23:00:32.990985 13865 net.cpp:137] Memory required for data: 530923268
I0130 23:00:32.990993 13865 layer_factory.hpp:77] Creating layer conv0_12
I0130 23:00:32.991019 13865 net.cpp:84] Creating Layer conv0_12
I0130 23:00:32.991027 13865 net.cpp:406] conv0_12 <- conv0_12/bn
I0130 23:00:32.991042 13865 net.cpp:380] conv0_12 -> conv0_12
I0130 23:00:33.003414 13865 net.cpp:122] Setting up conv0_12
I0130 23:00:33.003459 13865 net.cpp:129] Top shape: 1 32 73 99 (231264)
I0130 23:00:33.003468 13865 net.cpp:137] Memory required for data: 531848324
I0130 23:00:33.003484 13865 layer_factory.hpp:77] Creating layer concat0_12
I0130 23:00:33.003504 13865 net.cpp:84] Creating Layer concat0_12
I0130 23:00:33.003515 13865 net.cpp:406] concat0_12 <- concat0_11_concat0_11_0_split_1
I0130 23:00:33.003526 13865 net.cpp:406] concat0_12 <- conv0_12
I0130 23:00:33.003541 13865 net.cpp:380] concat0_12 -> concat0_12
I0130 23:00:33.003624 13865 net.cpp:122] Setting up concat0_12
I0130 23:00:33.003638 13865 net.cpp:129] Top shape: 1 448 73 99 (3237696)
I0130 23:00:33.003643 13865 net.cpp:137] Memory required for data: 544799108
I0130 23:00:33.003651 13865 layer_factory.hpp:77] Creating layer concat0_12_concat0_12_0_split
I0130 23:00:33.003662 13865 net.cpp:84] Creating Layer concat0_12_concat0_12_0_split
I0130 23:00:33.003670 13865 net.cpp:406] concat0_12_concat0_12_0_split <- concat0_12
I0130 23:00:33.003684 13865 net.cpp:380] concat0_12_concat0_12_0_split -> concat0_12_concat0_12_0_split_0
I0130 23:00:33.003696 13865 net.cpp:380] concat0_12_concat0_12_0_split -> concat0_12_concat0_12_0_split_1
I0130 23:00:33.003806 13865 net.cpp:122] Setting up concat0_12_concat0_12_0_split
I0130 23:00:33.003818 13865 net.cpp:129] Top shape: 1 448 73 99 (3237696)
I0130 23:00:33.003828 13865 net.cpp:129] Top shape: 1 448 73 99 (3237696)
I0130 23:00:33.003834 13865 net.cpp:137] Memory required for data: 570700676
I0130 23:00:33.003840 13865 layer_factory.hpp:77] Creating layer conv0_13/bn
I0130 23:00:33.003856 13865 net.cpp:84] Creating Layer conv0_13/bn
I0130 23:00:33.003865 13865 net.cpp:406] conv0_13/bn <- concat0_12_concat0_12_0_split_0
I0130 23:00:33.003875 13865 net.cpp:380] conv0_13/bn -> conv0_13/bn
I0130 23:00:33.004551 13865 net.cpp:122] Setting up conv0_13/bn
I0130 23:00:33.004566 13865 net.cpp:129] Top shape: 1 448 73 99 (3237696)
I0130 23:00:33.004573 13865 net.cpp:137] Memory required for data: 583651460
I0130 23:00:33.004590 13865 layer_factory.hpp:77] Creating layer conv0_13/scale
I0130 23:00:33.004608 13865 net.cpp:84] Creating Layer conv0_13/scale
I0130 23:00:33.004616 13865 net.cpp:406] conv0_13/scale <- conv0_13/bn
I0130 23:00:33.004633 13865 net.cpp:367] conv0_13/scale -> conv0_13/bn (in-place)
I0130 23:00:33.004755 13865 layer_factory.hpp:77] Creating layer conv0_13/scale
I0130 23:00:33.005175 13865 net.cpp:122] Setting up conv0_13/scale
I0130 23:00:33.005192 13865 net.cpp:129] Top shape: 1 448 73 99 (3237696)
I0130 23:00:33.005198 13865 net.cpp:137] Memory required for data: 596602244
I0130 23:00:33.005211 13865 layer_factory.hpp:77] Creating layer relu0_13
I0130 23:00:33.005223 13865 net.cpp:84] Creating Layer relu0_13
I0130 23:00:33.005237 13865 net.cpp:406] relu0_13 <- conv0_13/bn
I0130 23:00:33.005247 13865 net.cpp:367] relu0_13 -> conv0_13/bn (in-place)
I0130 23:00:33.005614 13865 net.cpp:122] Setting up relu0_13
I0130 23:00:33.005630 13865 net.cpp:129] Top shape: 1 448 73 99 (3237696)
I0130 23:00:33.005637 13865 net.cpp:137] Memory required for data: 609553028
I0130 23:00:33.005645 13865 layer_factory.hpp:77] Creating layer conv0_13
I0130 23:00:33.005666 13865 net.cpp:84] Creating Layer conv0_13
I0130 23:00:33.005673 13865 net.cpp:406] conv0_13 <- conv0_13/bn
I0130 23:00:33.005693 13865 net.cpp:380] conv0_13 -> conv0_13
I0130 23:00:33.016178 13865 net.cpp:122] Setting up conv0_13
I0130 23:00:33.016224 13865 net.cpp:129] Top shape: 1 32 73 99 (231264)
I0130 23:00:33.016232 13865 net.cpp:137] Memory required for data: 610478084
I0130 23:00:33.016252 13865 layer_factory.hpp:77] Creating layer concat0_13
I0130 23:00:33.016270 13865 net.cpp:84] Creating Layer concat0_13
I0130 23:00:33.016281 13865 net.cpp:406] concat0_13 <- concat0_12_concat0_12_0_split_1
I0130 23:00:33.016293 13865 net.cpp:406] concat0_13 <- conv0_13
I0130 23:00:33.016306 13865 net.cpp:380] concat0_13 -> concat0_13
I0130 23:00:33.016391 13865 net.cpp:122] Setting up concat0_13
I0130 23:00:33.016404 13865 net.cpp:129] Top shape: 1 480 73 99 (3468960)
I0130 23:00:33.016412 13865 net.cpp:137] Memory required for data: 624353924
I0130 23:00:33.016418 13865 layer_factory.hpp:77] Creating layer concat0_13_concat0_13_0_split
I0130 23:00:33.016429 13865 net.cpp:84] Creating Layer concat0_13_concat0_13_0_split
I0130 23:00:33.016438 13865 net.cpp:406] concat0_13_concat0_13_0_split <- concat0_13
I0130 23:00:33.016450 13865 net.cpp:380] concat0_13_concat0_13_0_split -> concat0_13_concat0_13_0_split_0
I0130 23:00:33.016463 13865 net.cpp:380] concat0_13_concat0_13_0_split -> concat0_13_concat0_13_0_split_1
I0130 23:00:33.016568 13865 net.cpp:122] Setting up concat0_13_concat0_13_0_split
I0130 23:00:33.016580 13865 net.cpp:129] Top shape: 1 480 73 99 (3468960)
I0130 23:00:33.016590 13865 net.cpp:129] Top shape: 1 480 73 99 (3468960)
I0130 23:00:33.016597 13865 net.cpp:137] Memory required for data: 652105604
I0130 23:00:33.016604 13865 layer_factory.hpp:77] Creating layer conv0_14/bn
I0130 23:00:33.016619 13865 net.cpp:84] Creating Layer conv0_14/bn
I0130 23:00:33.016634 13865 net.cpp:406] conv0_14/bn <- concat0_13_concat0_13_0_split_0
I0130 23:00:33.016646 13865 net.cpp:380] conv0_14/bn -> conv0_14/bn
I0130 23:00:33.017335 13865 net.cpp:122] Setting up conv0_14/bn
I0130 23:00:33.017350 13865 net.cpp:129] Top shape: 1 480 73 99 (3468960)
I0130 23:00:33.017357 13865 net.cpp:137] Memory required for data: 665981444
I0130 23:00:33.017374 13865 layer_factory.hpp:77] Creating layer conv0_14/scale
I0130 23:00:33.017390 13865 net.cpp:84] Creating Layer conv0_14/scale
I0130 23:00:33.017397 13865 net.cpp:406] conv0_14/scale <- conv0_14/bn
I0130 23:00:33.017411 13865 net.cpp:367] conv0_14/scale -> conv0_14/bn (in-place)
I0130 23:00:33.017534 13865 layer_factory.hpp:77] Creating layer conv0_14/scale
I0130 23:00:33.017905 13865 net.cpp:122] Setting up conv0_14/scale
I0130 23:00:33.017920 13865 net.cpp:129] Top shape: 1 480 73 99 (3468960)
I0130 23:00:33.017927 13865 net.cpp:137] Memory required for data: 679857284
I0130 23:00:33.017940 13865 layer_factory.hpp:77] Creating layer relu0_14
I0130 23:00:33.017954 13865 net.cpp:84] Creating Layer relu0_14
I0130 23:00:33.017962 13865 net.cpp:406] relu0_14 <- conv0_14/bn
I0130 23:00:33.017972 13865 net.cpp:367] relu0_14 -> conv0_14/bn (in-place)
I0130 23:00:33.018326 13865 net.cpp:122] Setting up relu0_14
I0130 23:00:33.018345 13865 net.cpp:129] Top shape: 1 480 73 99 (3468960)
I0130 23:00:33.018352 13865 net.cpp:137] Memory required for data: 693733124
I0130 23:00:33.018360 13865 layer_factory.hpp:77] Creating layer conv0_14
I0130 23:00:33.018381 13865 net.cpp:84] Creating Layer conv0_14
I0130 23:00:33.018389 13865 net.cpp:406] conv0_14 <- conv0_14/bn
I0130 23:00:33.018401 13865 net.cpp:380] conv0_14 -> conv0_14
I0130 23:00:33.030979 13865 net.cpp:122] Setting up conv0_14
I0130 23:00:33.031038 13865 net.cpp:129] Top shape: 1 32 73 99 (231264)
I0130 23:00:33.031047 13865 net.cpp:137] Memory required for data: 694658180
I0130 23:00:33.031069 13865 layer_factory.hpp:77] Creating layer concat0_14
I0130 23:00:33.031090 13865 net.cpp:84] Creating Layer concat0_14
I0130 23:00:33.031101 13865 net.cpp:406] concat0_14 <- concat0_13_concat0_13_0_split_1
I0130 23:00:33.031114 13865 net.cpp:406] concat0_14 <- conv0_14
I0130 23:00:33.031129 13865 net.cpp:380] concat0_14 -> concat0_14
I0130 23:00:33.031217 13865 net.cpp:122] Setting up concat0_14
I0130 23:00:33.031230 13865 net.cpp:129] Top shape: 1 512 73 99 (3700224)
I0130 23:00:33.031237 13865 net.cpp:137] Memory required for data: 709459076
I0130 23:00:33.031244 13865 layer_factory.hpp:77] Creating layer BatchNorm1
I0130 23:00:33.031260 13865 net.cpp:84] Creating Layer BatchNorm1
I0130 23:00:33.031267 13865 net.cpp:406] BatchNorm1 <- concat0_14
I0130 23:00:33.031278 13865 net.cpp:380] BatchNorm1 -> BatchNorm1
I0130 23:00:33.031971 13865 net.cpp:122] Setting up BatchNorm1
I0130 23:00:33.031988 13865 net.cpp:129] Top shape: 1 512 73 99 (3700224)
I0130 23:00:33.031996 13865 net.cpp:137] Memory required for data: 724259972
I0130 23:00:33.032013 13865 layer_factory.hpp:77] Creating layer Scale1
I0130 23:00:33.032029 13865 net.cpp:84] Creating Layer Scale1
I0130 23:00:33.032037 13865 net.cpp:406] Scale1 <- BatchNorm1
I0130 23:00:33.032049 13865 net.cpp:367] Scale1 -> BatchNorm1 (in-place)
I0130 23:00:33.032155 13865 layer_factory.hpp:77] Creating layer Scale1
I0130 23:00:33.032512 13865 net.cpp:122] Setting up Scale1
I0130 23:00:33.032526 13865 net.cpp:129] Top shape: 1 512 73 99 (3700224)
I0130 23:00:33.032533 13865 net.cpp:137] Memory required for data: 739060868
I0130 23:00:33.032546 13865 layer_factory.hpp:77] Creating layer ReLU1
I0130 23:00:33.032558 13865 net.cpp:84] Creating Layer ReLU1
I0130 23:00:33.032567 13865 net.cpp:406] ReLU1 <- BatchNorm1
I0130 23:00:33.032575 13865 net.cpp:367] ReLU1 -> BatchNorm1 (in-place)
I0130 23:00:33.034341 13865 net.cpp:122] Setting up ReLU1
I0130 23:00:33.034364 13865 net.cpp:129] Top shape: 1 512 73 99 (3700224)
I0130 23:00:33.034371 13865 net.cpp:137] Memory required for data: 753861764
I0130 23:00:33.034380 13865 layer_factory.hpp:77] Creating layer conv0_blk
I0130 23:00:33.034404 13865 net.cpp:84] Creating Layer conv0_blk
I0130 23:00:33.034411 13865 net.cpp:406] conv0_blk <- BatchNorm1
I0130 23:00:33.034427 13865 net.cpp:380] conv0_blk -> conv0_blk
I0130 23:00:33.051996 13865 net.cpp:122] Setting up conv0_blk
I0130 23:00:33.052052 13865 net.cpp:129] Top shape: 1 512 73 99 (3700224)
I0130 23:00:33.052060 13865 net.cpp:137] Memory required for data: 768662660
I0130 23:00:33.052079 13865 layer_factory.hpp:77] Creating layer pool0
I0130 23:00:33.052103 13865 net.cpp:84] Creating Layer pool0
I0130 23:00:33.052114 13865 net.cpp:406] pool0 <- conv0_blk
I0130 23:00:33.052129 13865 net.cpp:380] pool0 -> pool0
I0130 23:00:33.052533 13865 net.cpp:122] Setting up pool0
I0130 23:00:33.052551 13865 net.cpp:129] Top shape: 1 512 37 50 (947200)
I0130 23:00:33.052559 13865 net.cpp:137] Memory required for data: 772451460
I0130 23:00:33.052567 13865 layer_factory.hpp:77] Creating layer pool0_pool0_0_split
I0130 23:00:33.052579 13865 net.cpp:84] Creating Layer pool0_pool0_0_split
I0130 23:00:33.052587 13865 net.cpp:406] pool0_pool0_0_split <- pool0
I0130 23:00:33.052598 13865 net.cpp:380] pool0_pool0_0_split -> pool0_pool0_0_split_0
I0130 23:00:33.052611 13865 net.cpp:380] pool0_pool0_0_split -> pool0_pool0_0_split_1
I0130 23:00:33.052726 13865 net.cpp:122] Setting up pool0_pool0_0_split
I0130 23:00:33.052740 13865 net.cpp:129] Top shape: 1 512 37 50 (947200)
I0130 23:00:33.052752 13865 net.cpp:129] Top shape: 1 512 37 50 (947200)
I0130 23:00:33.052758 13865 net.cpp:137] Memory required for data: 780029060
I0130 23:00:33.052765 13865 layer_factory.hpp:77] Creating layer conv1_0/bn
I0130 23:00:33.052779 13865 net.cpp:84] Creating Layer conv1_0/bn
I0130 23:00:33.052786 13865 net.cpp:406] conv1_0/bn <- pool0_pool0_0_split_0
I0130 23:00:33.052806 13865 net.cpp:380] conv1_0/bn -> conv1_0/bn
I0130 23:00:33.055954 13865 net.cpp:122] Setting up conv1_0/bn
I0130 23:00:33.055980 13865 net.cpp:129] Top shape: 1 512 37 50 (947200)
I0130 23:00:33.055987 13865 net.cpp:137] Memory required for data: 783817860
I0130 23:00:33.056010 13865 layer_factory.hpp:77] Creating layer conv1_0/scale
I0130 23:00:33.056028 13865 net.cpp:84] Creating Layer conv1_0/scale
I0130 23:00:33.056037 13865 net.cpp:406] conv1_0/scale <- conv1_0/bn
I0130 23:00:33.056048 13865 net.cpp:367] conv1_0/scale -> conv1_0/bn (in-place)
I0130 23:00:33.056162 13865 layer_factory.hpp:77] Creating layer conv1_0/scale
I0130 23:00:33.056524 13865 net.cpp:122] Setting up conv1_0/scale
I0130 23:00:33.056540 13865 net.cpp:129] Top shape: 1 512 37 50 (947200)
I0130 23:00:33.056547 13865 net.cpp:137] Memory required for data: 787606660
I0130 23:00:33.056561 13865 layer_factory.hpp:77] Creating layer relu1_0
I0130 23:00:33.056574 13865 net.cpp:84] Creating Layer relu1_0
I0130 23:00:33.056582 13865 net.cpp:406] relu1_0 <- conv1_0/bn
I0130 23:00:33.056591 13865 net.cpp:367] relu1_0 -> conv1_0/bn (in-place)
I0130 23:00:33.056993 13865 net.cpp:122] Setting up relu1_0
I0130 23:00:33.057009 13865 net.cpp:129] Top shape: 1 512 37 50 (947200)
I0130 23:00:33.057018 13865 net.cpp:137] Memory required for data: 791395460
I0130 23:00:33.057024 13865 layer_factory.hpp:77] Creating layer conv1_0
I0130 23:00:33.057046 13865 net.cpp:84] Creating Layer conv1_0
I0130 23:00:33.057054 13865 net.cpp:406] conv1_0 <- conv1_0/bn
I0130 23:00:33.057068 13865 net.cpp:380] conv1_0 -> conv1_0
I0130 23:00:33.068567 13865 net.cpp:122] Setting up conv1_0
I0130 23:00:33.068617 13865 net.cpp:129] Top shape: 1 32 37 50 (59200)
I0130 23:00:33.068625 13865 net.cpp:137] Memory required for data: 791632260
I0130 23:00:33.068652 13865 layer_factory.hpp:77] Creating layer concat1_0
I0130 23:00:33.068675 13865 net.cpp:84] Creating Layer concat1_0
I0130 23:00:33.068686 13865 net.cpp:406] concat1_0 <- pool0_pool0_0_split_1
I0130 23:00:33.068697 13865 net.cpp:406] concat1_0 <- conv1_0
I0130 23:00:33.068713 13865 net.cpp:380] concat1_0 -> concat1_0
I0130 23:00:33.068800 13865 net.cpp:122] Setting up concat1_0
I0130 23:00:33.068814 13865 net.cpp:129] Top shape: 1 544 37 50 (1006400)
I0130 23:00:33.068820 13865 net.cpp:137] Memory required for data: 795657860
I0130 23:00:33.068827 13865 layer_factory.hpp:77] Creating layer concat1_0_concat1_0_0_split
I0130 23:00:33.068838 13865 net.cpp:84] Creating Layer concat1_0_concat1_0_0_split
I0130 23:00:33.068846 13865 net.cpp:406] concat1_0_concat1_0_0_split <- concat1_0
I0130 23:00:33.068859 13865 net.cpp:380] concat1_0_concat1_0_0_split -> concat1_0_concat1_0_0_split_0
I0130 23:00:33.068872 13865 net.cpp:380] concat1_0_concat1_0_0_split -> concat1_0_concat1_0_0_split_1
I0130 23:00:33.068979 13865 net.cpp:122] Setting up concat1_0_concat1_0_0_split
I0130 23:00:33.068992 13865 net.cpp:129] Top shape: 1 544 37 50 (1006400)
I0130 23:00:33.069001 13865 net.cpp:129] Top shape: 1 544 37 50 (1006400)
I0130 23:00:33.069008 13865 net.cpp:137] Memory required for data: 803709060
I0130 23:00:33.069015 13865 layer_factory.hpp:77] Creating layer conv1_1/bn
I0130 23:00:33.069031 13865 net.cpp:84] Creating Layer conv1_1/bn
I0130 23:00:33.069038 13865 net.cpp:406] conv1_1/bn <- concat1_0_concat1_0_0_split_0
I0130 23:00:33.069049 13865 net.cpp:380] conv1_1/bn -> conv1_1/bn
I0130 23:00:33.069713 13865 net.cpp:122] Setting up conv1_1/bn
I0130 23:00:33.069728 13865 net.cpp:129] Top shape: 1 544 37 50 (1006400)
I0130 23:00:33.069736 13865 net.cpp:137] Memory required for data: 807734660
I0130 23:00:33.069753 13865 layer_factory.hpp:77] Creating layer conv1_1/scale
I0130 23:00:33.069772 13865 net.cpp:84] Creating Layer conv1_1/scale
I0130 23:00:33.069779 13865 net.cpp:406] conv1_1/scale <- conv1_1/bn
I0130 23:00:33.069792 13865 net.cpp:367] conv1_1/scale -> conv1_1/bn (in-place)
I0130 23:00:33.069911 13865 layer_factory.hpp:77] Creating layer conv1_1/scale
I0130 23:00:33.070272 13865 net.cpp:122] Setting up conv1_1/scale
I0130 23:00:33.070294 13865 net.cpp:129] Top shape: 1 544 37 50 (1006400)
I0130 23:00:33.070302 13865 net.cpp:137] Memory required for data: 811760260
I0130 23:00:33.070314 13865 layer_factory.hpp:77] Creating layer relu1_1
I0130 23:00:33.070327 13865 net.cpp:84] Creating Layer relu1_1
I0130 23:00:33.070335 13865 net.cpp:406] relu1_1 <- conv1_1/bn
I0130 23:00:33.070345 13865 net.cpp:367] relu1_1 -> conv1_1/bn (in-place)
I0130 23:00:33.070722 13865 net.cpp:122] Setting up relu1_1
I0130 23:00:33.070739 13865 net.cpp:129] Top shape: 1 544 37 50 (1006400)
I0130 23:00:33.070745 13865 net.cpp:137] Memory required for data: 815785860
I0130 23:00:33.070752 13865 layer_factory.hpp:77] Creating layer conv1_1
I0130 23:00:33.070776 13865 net.cpp:84] Creating Layer conv1_1
I0130 23:00:33.070785 13865 net.cpp:406] conv1_1 <- conv1_1/bn
I0130 23:00:33.070797 13865 net.cpp:380] conv1_1 -> conv1_1
I0130 23:00:33.085158 13865 net.cpp:122] Setting up conv1_1
I0130 23:00:33.085209 13865 net.cpp:129] Top shape: 1 32 37 50 (59200)
I0130 23:00:33.085217 13865 net.cpp:137] Memory required for data: 816022660
I0130 23:00:33.085237 13865 layer_factory.hpp:77] Creating layer concat1_1
I0130 23:00:33.085260 13865 net.cpp:84] Creating Layer concat1_1
I0130 23:00:33.085271 13865 net.cpp:406] concat1_1 <- concat1_0_concat1_0_0_split_1
I0130 23:00:33.085283 13865 net.cpp:406] concat1_1 <- conv1_1
I0130 23:00:33.085296 13865 net.cpp:380] concat1_1 -> concat1_1
I0130 23:00:33.085386 13865 net.cpp:122] Setting up concat1_1
I0130 23:00:33.085398 13865 net.cpp:129] Top shape: 1 576 37 50 (1065600)
I0130 23:00:33.085405 13865 net.cpp:137] Memory required for data: 820285060
I0130 23:00:33.085412 13865 layer_factory.hpp:77] Creating layer concat1_1_concat1_1_0_split
I0130 23:00:33.085424 13865 net.cpp:84] Creating Layer concat1_1_concat1_1_0_split
I0130 23:00:33.085433 13865 net.cpp:406] concat1_1_concat1_1_0_split <- concat1_1
I0130 23:00:33.085445 13865 net.cpp:380] concat1_1_concat1_1_0_split -> concat1_1_concat1_1_0_split_0
I0130 23:00:33.085458 13865 net.cpp:380] concat1_1_concat1_1_0_split -> concat1_1_concat1_1_0_split_1
I0130 23:00:33.085566 13865 net.cpp:122] Setting up concat1_1_concat1_1_0_split
I0130 23:00:33.085579 13865 net.cpp:129] Top shape: 1 576 37 50 (1065600)
I0130 23:00:33.085589 13865 net.cpp:129] Top shape: 1 576 37 50 (1065600)
I0130 23:00:33.085595 13865 net.cpp:137] Memory required for data: 828809860
I0130 23:00:33.085602 13865 layer_factory.hpp:77] Creating layer conv1_2/bn
I0130 23:00:33.085621 13865 net.cpp:84] Creating Layer conv1_2/bn
I0130 23:00:33.085629 13865 net.cpp:406] conv1_2/bn <- concat1_1_concat1_1_0_split_0
I0130 23:00:33.085644 13865 net.cpp:380] conv1_2/bn -> conv1_2/bn
I0130 23:00:33.086338 13865 net.cpp:122] Setting up conv1_2/bn
I0130 23:00:33.086351 13865 net.cpp:129] Top shape: 1 576 37 50 (1065600)
I0130 23:00:33.086359 13865 net.cpp:137] Memory required for data: 833072260
I0130 23:00:33.086376 13865 layer_factory.hpp:77] Creating layer conv1_2/scale
I0130 23:00:33.086392 13865 net.cpp:84] Creating Layer conv1_2/scale
I0130 23:00:33.086401 13865 net.cpp:406] conv1_2/scale <- conv1_2/bn
I0130 23:00:33.086414 13865 net.cpp:367] conv1_2/scale -> conv1_2/bn (in-place)
I0130 23:00:33.086535 13865 layer_factory.hpp:77] Creating layer conv1_2/scale
I0130 23:00:33.086897 13865 net.cpp:122] Setting up conv1_2/scale
I0130 23:00:33.086911 13865 net.cpp:129] Top shape: 1 576 37 50 (1065600)
I0130 23:00:33.086920 13865 net.cpp:137] Memory required for data: 837334660
I0130 23:00:33.086932 13865 layer_factory.hpp:77] Creating layer relu1_2
I0130 23:00:33.086947 13865 net.cpp:84] Creating Layer relu1_2
I0130 23:00:33.086956 13865 net.cpp:406] relu1_2 <- conv1_2/bn
I0130 23:00:33.086966 13865 net.cpp:367] relu1_2 -> conv1_2/bn (in-place)
I0130 23:00:33.088711 13865 net.cpp:122] Setting up relu1_2
I0130 23:00:33.088732 13865 net.cpp:129] Top shape: 1 576 37 50 (1065600)
I0130 23:00:33.088739 13865 net.cpp:137] Memory required for data: 841597060
I0130 23:00:33.088747 13865 layer_factory.hpp:77] Creating layer conv1_2
I0130 23:00:33.088779 13865 net.cpp:84] Creating Layer conv1_2
I0130 23:00:33.088789 13865 net.cpp:406] conv1_2 <- conv1_2/bn
I0130 23:00:33.088802 13865 net.cpp:380] conv1_2 -> conv1_2
I0130 23:00:33.100976 13865 net.cpp:122] Setting up conv1_2
I0130 23:00:33.101024 13865 net.cpp:129] Top shape: 1 32 37 50 (59200)
I0130 23:00:33.101032 13865 net.cpp:137] Memory required for data: 841833860
I0130 23:00:33.101049 13865 layer_factory.hpp:77] Creating layer concat1_2
I0130 23:00:33.101071 13865 net.cpp:84] Creating Layer concat1_2
I0130 23:00:33.101081 13865 net.cpp:406] concat1_2 <- concat1_1_concat1_1_0_split_1
I0130 23:00:33.101095 13865 net.cpp:406] concat1_2 <- conv1_2
I0130 23:00:33.101106 13865 net.cpp:380] concat1_2 -> concat1_2
I0130 23:00:33.101192 13865 net.cpp:122] Setting up concat1_2
I0130 23:00:33.101205 13865 net.cpp:129] Top shape: 1 608 37 50 (1124800)
I0130 23:00:33.101212 13865 net.cpp:137] Memory required for data: 846333060
I0130 23:00:33.101219 13865 layer_factory.hpp:77] Creating layer concat1_2_concat1_2_0_split
I0130 23:00:33.101233 13865 net.cpp:84] Creating Layer concat1_2_concat1_2_0_split
I0130 23:00:33.101241 13865 net.cpp:406] concat1_2_concat1_2_0_split <- concat1_2
I0130 23:00:33.101253 13865 net.cpp:380] concat1_2_concat1_2_0_split -> concat1_2_concat1_2_0_split_0
I0130 23:00:33.101267 13865 net.cpp:380] concat1_2_concat1_2_0_split -> concat1_2_concat1_2_0_split_1
I0130 23:00:33.101372 13865 net.cpp:122] Setting up concat1_2_concat1_2_0_split
I0130 23:00:33.101385 13865 net.cpp:129] Top shape: 1 608 37 50 (1124800)
I0130 23:00:33.101394 13865 net.cpp:129] Top shape: 1 608 37 50 (1124800)
I0130 23:00:33.101402 13865 net.cpp:137] Memory required for data: 855331460
I0130 23:00:33.101408 13865 layer_factory.hpp:77] Creating layer conv1_3/bn
I0130 23:00:33.101423 13865 net.cpp:84] Creating Layer conv1_3/bn
I0130 23:00:33.101431 13865 net.cpp:406] conv1_3/bn <- concat1_2_concat1_2_0_split_0
I0130 23:00:33.101445 13865 net.cpp:380] conv1_3/bn -> conv1_3/bn
I0130 23:00:33.102140 13865 net.cpp:122] Setting up conv1_3/bn
I0130 23:00:33.102157 13865 net.cpp:129] Top shape: 1 608 37 50 (1124800)
I0130 23:00:33.102164 13865 net.cpp:137] Memory required for data: 859830660
I0130 23:00:33.102181 13865 layer_factory.hpp:77] Creating layer conv1_3/scale
I0130 23:00:33.102197 13865 net.cpp:84] Creating Layer conv1_3/scale
I0130 23:00:33.102205 13865 net.cpp:406] conv1_3/scale <- conv1_3/bn
I0130 23:00:33.102218 13865 net.cpp:367] conv1_3/scale -> conv1_3/bn (in-place)
I0130 23:00:33.102339 13865 layer_factory.hpp:77] Creating layer conv1_3/scale
I0130 23:00:33.102705 13865 net.cpp:122] Setting up conv1_3/scale
I0130 23:00:33.102720 13865 net.cpp:129] Top shape: 1 608 37 50 (1124800)
I0130 23:00:33.102726 13865 net.cpp:137] Memory required for data: 864329860
I0130 23:00:33.102741 13865 layer_factory.hpp:77] Creating layer relu1_3
I0130 23:00:33.102752 13865 net.cpp:84] Creating Layer relu1_3
I0130 23:00:33.102761 13865 net.cpp:406] relu1_3 <- conv1_3/bn
I0130 23:00:33.102772 13865 net.cpp:367] relu1_3 -> conv1_3/bn (in-place)
I0130 23:00:33.103129 13865 net.cpp:122] Setting up relu1_3
I0130 23:00:33.103147 13865 net.cpp:129] Top shape: 1 608 37 50 (1124800)
I0130 23:00:33.103154 13865 net.cpp:137] Memory required for data: 868829060
I0130 23:00:33.103163 13865 layer_factory.hpp:77] Creating layer conv1_3
I0130 23:00:33.103181 13865 net.cpp:84] Creating Layer conv1_3
I0130 23:00:33.103189 13865 net.cpp:406] conv1_3 <- conv1_3/bn
I0130 23:00:33.103204 13865 net.cpp:380] conv1_3 -> conv1_3
I0130 23:00:33.115759 13865 net.cpp:122] Setting up conv1_3
I0130 23:00:33.115799 13865 net.cpp:129] Top shape: 1 32 37 50 (59200)
I0130 23:00:33.115808 13865 net.cpp:137] Memory required for data: 869065860
I0130 23:00:33.115823 13865 layer_factory.hpp:77] Creating layer concat1_3
I0130 23:00:33.115845 13865 net.cpp:84] Creating Layer concat1_3
I0130 23:00:33.115855 13865 net.cpp:406] concat1_3 <- concat1_2_concat1_2_0_split_1
I0130 23:00:33.115867 13865 net.cpp:406] concat1_3 <- conv1_3
I0130 23:00:33.115886 13865 net.cpp:380] concat1_3 -> concat1_3
I0130 23:00:33.115972 13865 net.cpp:122] Setting up concat1_3
I0130 23:00:33.115988 13865 net.cpp:129] Top shape: 1 640 37 50 (1184000)
I0130 23:00:33.115993 13865 net.cpp:137] Memory required for data: 873801860
I0130 23:00:33.116001 13865 layer_factory.hpp:77] Creating layer concat1_3_concat1_3_0_split
I0130 23:00:33.116011 13865 net.cpp:84] Creating Layer concat1_3_concat1_3_0_split
I0130 23:00:33.116019 13865 net.cpp:406] concat1_3_concat1_3_0_split <- concat1_3
I0130 23:00:33.116029 13865 net.cpp:380] concat1_3_concat1_3_0_split -> concat1_3_concat1_3_0_split_0
I0130 23:00:33.116042 13865 net.cpp:380] concat1_3_concat1_3_0_split -> concat1_3_concat1_3_0_split_1
I0130 23:00:33.116150 13865 net.cpp:122] Setting up concat1_3_concat1_3_0_split
I0130 23:00:33.116163 13865 net.cpp:129] Top shape: 1 640 37 50 (1184000)
I0130 23:00:33.116173 13865 net.cpp:129] Top shape: 1 640 37 50 (1184000)
I0130 23:00:33.116179 13865 net.cpp:137] Memory required for data: 883273860
I0130 23:00:33.116186 13865 layer_factory.hpp:77] Creating layer conv1_4/bn
I0130 23:00:33.116201 13865 net.cpp:84] Creating Layer conv1_4/bn
I0130 23:00:33.116209 13865 net.cpp:406] conv1_4/bn <- concat1_3_concat1_3_0_split_0
I0130 23:00:33.116220 13865 net.cpp:380] conv1_4/bn -> conv1_4/bn
I0130 23:00:33.116912 13865 net.cpp:122] Setting up conv1_4/bn
I0130 23:00:33.116926 13865 net.cpp:129] Top shape: 1 640 37 50 (1184000)
I0130 23:00:33.116935 13865 net.cpp:137] Memory required for data: 888009860
I0130 23:00:33.116969 13865 layer_factory.hpp:77] Creating layer conv1_4/scale
I0130 23:00:33.116993 13865 net.cpp:84] Creating Layer conv1_4/scale
I0130 23:00:33.117003 13865 net.cpp:406] conv1_4/scale <- conv1_4/bn
I0130 23:00:33.117014 13865 net.cpp:367] conv1_4/scale -> conv1_4/bn (in-place)
I0130 23:00:33.117121 13865 layer_factory.hpp:77] Creating layer conv1_4/scale
I0130 23:00:33.117470 13865 net.cpp:122] Setting up conv1_4/scale
I0130 23:00:33.117486 13865 net.cpp:129] Top shape: 1 640 37 50 (1184000)
I0130 23:00:33.117491 13865 net.cpp:137] Memory required for data: 892745860
I0130 23:00:33.117504 13865 layer_factory.hpp:77] Creating layer relu1_4
I0130 23:00:33.117525 13865 net.cpp:84] Creating Layer relu1_4
I0130 23:00:33.117533 13865 net.cpp:406] relu1_4 <- conv1_4/bn
I0130 23:00:33.117543 13865 net.cpp:367] relu1_4 -> conv1_4/bn (in-place)
I0130 23:00:33.117900 13865 net.cpp:122] Setting up relu1_4
I0130 23:00:33.117916 13865 net.cpp:129] Top shape: 1 640 37 50 (1184000)
I0130 23:00:33.117923 13865 net.cpp:137] Memory required for data: 897481860
I0130 23:00:33.117931 13865 layer_factory.hpp:77] Creating layer conv1_4
I0130 23:00:33.117951 13865 net.cpp:84] Creating Layer conv1_4
I0130 23:00:33.117960 13865 net.cpp:406] conv1_4 <- conv1_4/bn
I0130 23:00:33.117975 13865 net.cpp:380] conv1_4 -> conv1_4
I0130 23:00:33.133396 13865 net.cpp:122] Setting up conv1_4
I0130 23:00:33.133443 13865 net.cpp:129] Top shape: 1 32 37 50 (59200)
I0130 23:00:33.133452 13865 net.cpp:137] Memory required for data: 897718660
I0130 23:00:33.133469 13865 layer_factory.hpp:77] Creating layer concat1_4
I0130 23:00:33.133488 13865 net.cpp:84] Creating Layer concat1_4
I0130 23:00:33.133499 13865 net.cpp:406] concat1_4 <- concat1_3_concat1_3_0_split_1
I0130 23:00:33.133512 13865 net.cpp:406] concat1_4 <- conv1_4
I0130 23:00:33.133524 13865 net.cpp:380] concat1_4 -> concat1_4
I0130 23:00:33.133612 13865 net.cpp:122] Setting up concat1_4
I0130 23:00:33.133625 13865 net.cpp:129] Top shape: 1 672 37 50 (1243200)
I0130 23:00:33.133632 13865 net.cpp:137] Memory required for data: 902691460
I0130 23:00:33.133639 13865 layer_factory.hpp:77] Creating layer concat1_4_concat1_4_0_split
I0130 23:00:33.133651 13865 net.cpp:84] Creating Layer concat1_4_concat1_4_0_split
I0130 23:00:33.133658 13865 net.cpp:406] concat1_4_concat1_4_0_split <- concat1_4
I0130 23:00:33.133675 13865 net.cpp:380] concat1_4_concat1_4_0_split -> concat1_4_concat1_4_0_split_0
I0130 23:00:33.133689 13865 net.cpp:380] concat1_4_concat1_4_0_split -> concat1_4_concat1_4_0_split_1
I0130 23:00:33.133807 13865 net.cpp:122] Setting up concat1_4_concat1_4_0_split
I0130 23:00:33.133821 13865 net.cpp:129] Top shape: 1 672 37 50 (1243200)
I0130 23:00:33.133831 13865 net.cpp:129] Top shape: 1 672 37 50 (1243200)
I0130 23:00:33.133837 13865 net.cpp:137] Memory required for data: 912637060
I0130 23:00:33.133846 13865 layer_factory.hpp:77] Creating layer conv1_5/bn
I0130 23:00:33.133860 13865 net.cpp:84] Creating Layer conv1_5/bn
I0130 23:00:33.133868 13865 net.cpp:406] conv1_5/bn <- concat1_4_concat1_4_0_split_0
I0130 23:00:33.133879 13865 net.cpp:380] conv1_5/bn -> conv1_5/bn
I0130 23:00:33.134549 13865 net.cpp:122] Setting up conv1_5/bn
I0130 23:00:33.134563 13865 net.cpp:129] Top shape: 1 672 37 50 (1243200)
I0130 23:00:33.134569 13865 net.cpp:137] Memory required for data: 917609860
I0130 23:00:33.134587 13865 layer_factory.hpp:77] Creating layer conv1_5/scale
I0130 23:00:33.134604 13865 net.cpp:84] Creating Layer conv1_5/scale
I0130 23:00:33.134613 13865 net.cpp:406] conv1_5/scale <- conv1_5/bn
I0130 23:00:33.134625 13865 net.cpp:367] conv1_5/scale -> conv1_5/bn (in-place)
I0130 23:00:33.134745 13865 layer_factory.hpp:77] Creating layer conv1_5/scale
I0130 23:00:33.135114 13865 net.cpp:122] Setting up conv1_5/scale
I0130 23:00:33.135129 13865 net.cpp:129] Top shape: 1 672 37 50 (1243200)
I0130 23:00:33.135136 13865 net.cpp:137] Memory required for data: 922582660
I0130 23:00:33.135149 13865 layer_factory.hpp:77] Creating layer relu1_5
I0130 23:00:33.135161 13865 net.cpp:84] Creating Layer relu1_5
I0130 23:00:33.135169 13865 net.cpp:406] relu1_5 <- conv1_5/bn
I0130 23:00:33.135179 13865 net.cpp:367] relu1_5 -> conv1_5/bn (in-place)
I0130 23:00:33.136922 13865 net.cpp:122] Setting up relu1_5
I0130 23:00:33.136945 13865 net.cpp:129] Top shape: 1 672 37 50 (1243200)
I0130 23:00:33.136953 13865 net.cpp:137] Memory required for data: 927555460
I0130 23:00:33.136960 13865 layer_factory.hpp:77] Creating layer conv1_5
I0130 23:00:33.136981 13865 net.cpp:84] Creating Layer conv1_5
I0130 23:00:33.136988 13865 net.cpp:406] conv1_5 <- conv1_5/bn
I0130 23:00:33.137007 13865 net.cpp:380] conv1_5 -> conv1_5
I0130 23:00:33.150352 13865 net.cpp:122] Setting up conv1_5
I0130 23:00:33.150393 13865 net.cpp:129] Top shape: 1 32 37 50 (59200)
I0130 23:00:33.150401 13865 net.cpp:137] Memory required for data: 927792260
I0130 23:00:33.150418 13865 layer_factory.hpp:77] Creating layer concat1_5
I0130 23:00:33.150439 13865 net.cpp:84] Creating Layer concat1_5
I0130 23:00:33.150450 13865 net.cpp:406] concat1_5 <- concat1_4_concat1_4_0_split_1
I0130 23:00:33.150463 13865 net.cpp:406] concat1_5 <- conv1_5
I0130 23:00:33.150475 13865 net.cpp:380] concat1_5 -> concat1_5
I0130 23:00:33.150563 13865 net.cpp:122] Setting up concat1_5
I0130 23:00:33.150578 13865 net.cpp:129] Top shape: 1 704 37 50 (1302400)
I0130 23:00:33.150584 13865 net.cpp:137] Memory required for data: 933001860
I0130 23:00:33.150591 13865 layer_factory.hpp:77] Creating layer concat1_5_concat1_5_0_split
I0130 23:00:33.150602 13865 net.cpp:84] Creating Layer concat1_5_concat1_5_0_split
I0130 23:00:33.150610 13865 net.cpp:406] concat1_5_concat1_5_0_split <- concat1_5
I0130 23:00:33.150620 13865 net.cpp:380] concat1_5_concat1_5_0_split -> concat1_5_concat1_5_0_split_0
I0130 23:00:33.150634 13865 net.cpp:380] concat1_5_concat1_5_0_split -> concat1_5_concat1_5_0_split_1
I0130 23:00:33.150743 13865 net.cpp:122] Setting up concat1_5_concat1_5_0_split
I0130 23:00:33.150754 13865 net.cpp:129] Top shape: 1 704 37 50 (1302400)
I0130 23:00:33.150763 13865 net.cpp:129] Top shape: 1 704 37 50 (1302400)
I0130 23:00:33.150770 13865 net.cpp:137] Memory required for data: 943421060
I0130 23:00:33.150777 13865 layer_factory.hpp:77] Creating layer conv1_6/bn
I0130 23:00:33.150792 13865 net.cpp:84] Creating Layer conv1_6/bn
I0130 23:00:33.150800 13865 net.cpp:406] conv1_6/bn <- concat1_5_concat1_5_0_split_0
I0130 23:00:33.150811 13865 net.cpp:380] conv1_6/bn -> conv1_6/bn
I0130 23:00:33.151522 13865 net.cpp:122] Setting up conv1_6/bn
I0130 23:00:33.151536 13865 net.cpp:129] Top shape: 1 704 37 50 (1302400)
I0130 23:00:33.151551 13865 net.cpp:137] Memory required for data: 948630660
I0130 23:00:33.151568 13865 layer_factory.hpp:77] Creating layer conv1_6/scale
I0130 23:00:33.151587 13865 net.cpp:84] Creating Layer conv1_6/scale
I0130 23:00:33.151594 13865 net.cpp:406] conv1_6/scale <- conv1_6/bn
I0130 23:00:33.151607 13865 net.cpp:367] conv1_6/scale -> conv1_6/bn (in-place)
I0130 23:00:33.151729 13865 layer_factory.hpp:77] Creating layer conv1_6/scale
I0130 23:00:33.152102 13865 net.cpp:122] Setting up conv1_6/scale
I0130 23:00:33.152118 13865 net.cpp:129] Top shape: 1 704 37 50 (1302400)
I0130 23:00:33.152127 13865 net.cpp:137] Memory required for data: 953840260
I0130 23:00:33.152139 13865 layer_factory.hpp:77] Creating layer relu1_6
I0130 23:00:33.152151 13865 net.cpp:84] Creating Layer relu1_6
I0130 23:00:33.152159 13865 net.cpp:406] relu1_6 <- conv1_6/bn
I0130 23:00:33.152169 13865 net.cpp:367] relu1_6 -> conv1_6/bn (in-place)
I0130 23:00:33.152534 13865 net.cpp:122] Setting up relu1_6
I0130 23:00:33.152549 13865 net.cpp:129] Top shape: 1 704 37 50 (1302400)
I0130 23:00:33.152555 13865 net.cpp:137] Memory required for data: 959049860
I0130 23:00:33.152564 13865 layer_factory.hpp:77] Creating layer conv1_6
I0130 23:00:33.152585 13865 net.cpp:84] Creating Layer conv1_6
I0130 23:00:33.152592 13865 net.cpp:406] conv1_6 <- conv1_6/bn
I0130 23:00:33.152607 13865 net.cpp:380] conv1_6 -> conv1_6
I0130 23:00:33.168908 13865 net.cpp:122] Setting up conv1_6
I0130 23:00:33.168956 13865 net.cpp:129] Top shape: 1 32 37 50 (59200)
I0130 23:00:33.168963 13865 net.cpp:137] Memory required for data: 959286660
I0130 23:00:33.168982 13865 layer_factory.hpp:77] Creating layer concat1_6
I0130 23:00:33.169004 13865 net.cpp:84] Creating Layer concat1_6
I0130 23:00:33.169016 13865 net.cpp:406] concat1_6 <- concat1_5_concat1_5_0_split_1
I0130 23:00:33.169029 13865 net.cpp:406] concat1_6 <- conv1_6
I0130 23:00:33.169041 13865 net.cpp:380] concat1_6 -> concat1_6
I0130 23:00:33.169128 13865 net.cpp:122] Setting up concat1_6
I0130 23:00:33.169142 13865 net.cpp:129] Top shape: 1 736 37 50 (1361600)
I0130 23:00:33.169148 13865 net.cpp:137] Memory required for data: 964733060
I0130 23:00:33.169155 13865 layer_factory.hpp:77] Creating layer concat1_6_concat1_6_0_split
I0130 23:00:33.169169 13865 net.cpp:84] Creating Layer concat1_6_concat1_6_0_split
I0130 23:00:33.169178 13865 net.cpp:406] concat1_6_concat1_6_0_split <- concat1_6
I0130 23:00:33.169188 13865 net.cpp:380] concat1_6_concat1_6_0_split -> concat1_6_concat1_6_0_split_0
I0130 23:00:33.169203 13865 net.cpp:380] concat1_6_concat1_6_0_split -> concat1_6_concat1_6_0_split_1
I0130 23:00:33.169312 13865 net.cpp:122] Setting up concat1_6_concat1_6_0_split
I0130 23:00:33.169324 13865 net.cpp:129] Top shape: 1 736 37 50 (1361600)
I0130 23:00:33.169333 13865 net.cpp:129] Top shape: 1 736 37 50 (1361600)
I0130 23:00:33.169340 13865 net.cpp:137] Memory required for data: 975625860
I0130 23:00:33.169348 13865 layer_factory.hpp:77] Creating layer conv1_7/bn
I0130 23:00:33.169363 13865 net.cpp:84] Creating Layer conv1_7/bn
I0130 23:00:33.169371 13865 net.cpp:406] conv1_7/bn <- concat1_6_concat1_6_0_split_0
I0130 23:00:33.169389 13865 net.cpp:380] conv1_7/bn -> conv1_7/bn
I0130 23:00:33.170109 13865 net.cpp:122] Setting up conv1_7/bn
I0130 23:00:33.170123 13865 net.cpp:129] Top shape: 1 736 37 50 (1361600)
I0130 23:00:33.170130 13865 net.cpp:137] Memory required for data: 981072260
I0130 23:00:33.170150 13865 layer_factory.hpp:77] Creating layer conv1_7/scale
I0130 23:00:33.170166 13865 net.cpp:84] Creating Layer conv1_7/scale
I0130 23:00:33.170173 13865 net.cpp:406] conv1_7/scale <- conv1_7/bn
I0130 23:00:33.170183 13865 net.cpp:367] conv1_7/scale -> conv1_7/bn (in-place)
I0130 23:00:33.170306 13865 layer_factory.hpp:77] Creating layer conv1_7/scale
I0130 23:00:33.170723 13865 net.cpp:122] Setting up conv1_7/scale
I0130 23:00:33.170739 13865 net.cpp:129] Top shape: 1 736 37 50 (1361600)
I0130 23:00:33.170747 13865 net.cpp:137] Memory required for data: 986518660
I0130 23:00:33.170768 13865 layer_factory.hpp:77] Creating layer relu1_7
I0130 23:00:33.170780 13865 net.cpp:84] Creating Layer relu1_7
I0130 23:00:33.170789 13865 net.cpp:406] relu1_7 <- conv1_7/bn
I0130 23:00:33.170802 13865 net.cpp:367] relu1_7 -> conv1_7/bn (in-place)
I0130 23:00:33.171166 13865 net.cpp:122] Setting up relu1_7
I0130 23:00:33.171181 13865 net.cpp:129] Top shape: 1 736 37 50 (1361600)
I0130 23:00:33.171188 13865 net.cpp:137] Memory required for data: 991965060
I0130 23:00:33.171196 13865 layer_factory.hpp:77] Creating layer conv1_7
I0130 23:00:33.171217 13865 net.cpp:84] Creating Layer conv1_7
I0130 23:00:33.171226 13865 net.cpp:406] conv1_7 <- conv1_7/bn
I0130 23:00:33.171241 13865 net.cpp:380] conv1_7 -> conv1_7
I0130 23:00:33.185483 13865 net.cpp:122] Setting up conv1_7
I0130 23:00:33.185528 13865 net.cpp:129] Top shape: 1 32 37 50 (59200)
I0130 23:00:33.185535 13865 net.cpp:137] Memory required for data: 992201860
I0130 23:00:33.185554 13865 layer_factory.hpp:77] Creating layer concat1_7
I0130 23:00:33.185575 13865 net.cpp:84] Creating Layer concat1_7
I0130 23:00:33.185586 13865 net.cpp:406] concat1_7 <- concat1_6_concat1_6_0_split_1
I0130 23:00:33.185600 13865 net.cpp:406] concat1_7 <- conv1_7
I0130 23:00:33.185611 13865 net.cpp:380] concat1_7 -> concat1_7
I0130 23:00:33.185699 13865 net.cpp:122] Setting up concat1_7
I0130 23:00:33.185712 13865 net.cpp:129] Top shape: 1 768 37 50 (1420800)
I0130 23:00:33.185719 13865 net.cpp:137] Memory required for data: 997885060
I0130 23:00:33.185726 13865 layer_factory.hpp:77] Creating layer concat1_7_concat1_7_0_split
I0130 23:00:33.185739 13865 net.cpp:84] Creating Layer concat1_7_concat1_7_0_split
I0130 23:00:33.185746 13865 net.cpp:406] concat1_7_concat1_7_0_split <- concat1_7
I0130 23:00:33.185756 13865 net.cpp:380] concat1_7_concat1_7_0_split -> concat1_7_concat1_7_0_split_0
I0130 23:00:33.185770 13865 net.cpp:380] concat1_7_concat1_7_0_split -> concat1_7_concat1_7_0_split_1
I0130 23:00:33.185878 13865 net.cpp:122] Setting up concat1_7_concat1_7_0_split
I0130 23:00:33.185894 13865 net.cpp:129] Top shape: 1 768 37 50 (1420800)
I0130 23:00:33.185902 13865 net.cpp:129] Top shape: 1 768 37 50 (1420800)
I0130 23:00:33.185909 13865 net.cpp:137] Memory required for data: 1009251460
I0130 23:00:33.185916 13865 layer_factory.hpp:77] Creating layer conv1_8/bn
I0130 23:00:33.185928 13865 net.cpp:84] Creating Layer conv1_8/bn
I0130 23:00:33.185936 13865 net.cpp:406] conv1_8/bn <- concat1_7_concat1_7_0_split_0
I0130 23:00:33.185950 13865 net.cpp:380] conv1_8/bn -> conv1_8/bn
I0130 23:00:33.186643 13865 net.cpp:122] Setting up conv1_8/bn
I0130 23:00:33.186658 13865 net.cpp:129] Top shape: 1 768 37 50 (1420800)
I0130 23:00:33.186666 13865 net.cpp:137] Memory required for data: 1014934660
I0130 23:00:33.186683 13865 layer_factory.hpp:77] Creating layer conv1_8/scale
I0130 23:00:33.186702 13865 net.cpp:84] Creating Layer conv1_8/scale
I0130 23:00:33.186710 13865 net.cpp:406] conv1_8/scale <- conv1_8/bn
I0130 23:00:33.186720 13865 net.cpp:367] conv1_8/scale -> conv1_8/bn (in-place)
I0130 23:00:33.186828 13865 layer_factory.hpp:77] Creating layer conv1_8/scale
I0130 23:00:33.187188 13865 net.cpp:122] Setting up conv1_8/scale
I0130 23:00:33.187203 13865 net.cpp:129] Top shape: 1 768 37 50 (1420800)
I0130 23:00:33.187211 13865 net.cpp:137] Memory required for data: 1020617860
I0130 23:00:33.187223 13865 layer_factory.hpp:77] Creating layer relu1_8
I0130 23:00:33.187235 13865 net.cpp:84] Creating Layer relu1_8
I0130 23:00:33.187243 13865 net.cpp:406] relu1_8 <- conv1_8/bn
I0130 23:00:33.187252 13865 net.cpp:367] relu1_8 -> conv1_8/bn (in-place)
I0130 23:00:33.189018 13865 net.cpp:122] Setting up relu1_8
I0130 23:00:33.189039 13865 net.cpp:129] Top shape: 1 768 37 50 (1420800)
I0130 23:00:33.189047 13865 net.cpp:137] Memory required for data: 1026301060
I0130 23:00:33.189055 13865 layer_factory.hpp:77] Creating layer conv1_8
I0130 23:00:33.189079 13865 net.cpp:84] Creating Layer conv1_8
I0130 23:00:33.189087 13865 net.cpp:406] conv1_8 <- conv1_8/bn
I0130 23:00:33.189100 13865 net.cpp:380] conv1_8 -> conv1_8
I0130 23:00:33.206219 13865 net.cpp:122] Setting up conv1_8
I0130 23:00:33.206270 13865 net.cpp:129] Top shape: 1 32 37 50 (59200)
I0130 23:00:33.206279 13865 net.cpp:137] Memory required for data: 1026537860
I0130 23:00:33.206295 13865 layer_factory.hpp:77] Creating layer concat1_8
I0130 23:00:33.206316 13865 net.cpp:84] Creating Layer concat1_8
I0130 23:00:33.206328 13865 net.cpp:406] concat1_8 <- concat1_7_concat1_7_0_split_1
I0130 23:00:33.206341 13865 net.cpp:406] concat1_8 <- conv1_8
I0130 23:00:33.206356 13865 net.cpp:380] concat1_8 -> concat1_8
I0130 23:00:33.206442 13865 net.cpp:122] Setting up concat1_8
I0130 23:00:33.206455 13865 net.cpp:129] Top shape: 1 800 37 50 (1480000)
I0130 23:00:33.206462 13865 net.cpp:137] Memory required for data: 1032457860
I0130 23:00:33.206470 13865 layer_factory.hpp:77] Creating layer concat1_8_concat1_8_0_split
I0130 23:00:33.206481 13865 net.cpp:84] Creating Layer concat1_8_concat1_8_0_split
I0130 23:00:33.206490 13865 net.cpp:406] concat1_8_concat1_8_0_split <- concat1_8
I0130 23:00:33.206501 13865 net.cpp:380] concat1_8_concat1_8_0_split -> concat1_8_concat1_8_0_split_0
I0130 23:00:33.206516 13865 net.cpp:380] concat1_8_concat1_8_0_split -> concat1_8_concat1_8_0_split_1
I0130 23:00:33.206627 13865 net.cpp:122] Setting up concat1_8_concat1_8_0_split
I0130 23:00:33.206640 13865 net.cpp:129] Top shape: 1 800 37 50 (1480000)
I0130 23:00:33.206650 13865 net.cpp:129] Top shape: 1 800 37 50 (1480000)
I0130 23:00:33.206656 13865 net.cpp:137] Memory required for data: 1044297860
I0130 23:00:33.206663 13865 layer_factory.hpp:77] Creating layer conv1_9/bn
I0130 23:00:33.206676 13865 net.cpp:84] Creating Layer conv1_9/bn
I0130 23:00:33.206684 13865 net.cpp:406] conv1_9/bn <- concat1_8_concat1_8_0_split_0
I0130 23:00:33.206697 13865 net.cpp:380] conv1_9/bn -> conv1_9/bn
I0130 23:00:33.207402 13865 net.cpp:122] Setting up conv1_9/bn
I0130 23:00:33.207417 13865 net.cpp:129] Top shape: 1 800 37 50 (1480000)
I0130 23:00:33.207424 13865 net.cpp:137] Memory required for data: 1050217860
I0130 23:00:33.207442 13865 layer_factory.hpp:77] Creating layer conv1_9/scale
I0130 23:00:33.207461 13865 net.cpp:84] Creating Layer conv1_9/scale
I0130 23:00:33.207469 13865 net.cpp:406] conv1_9/scale <- conv1_9/bn
I0130 23:00:33.207482 13865 net.cpp:367] conv1_9/scale -> conv1_9/bn (in-place)
I0130 23:00:33.207607 13865 layer_factory.hpp:77] Creating layer conv1_9/scale
I0130 23:00:33.207988 13865 net.cpp:122] Setting up conv1_9/scale
I0130 23:00:33.208001 13865 net.cpp:129] Top shape: 1 800 37 50 (1480000)
I0130 23:00:33.208009 13865 net.cpp:137] Memory required for data: 1056137860
I0130 23:00:33.208022 13865 layer_factory.hpp:77] Creating layer relu1_9
I0130 23:00:33.208034 13865 net.cpp:84] Creating Layer relu1_9
I0130 23:00:33.208042 13865 net.cpp:406] relu1_9 <- conv1_9/bn
I0130 23:00:33.208052 13865 net.cpp:367] relu1_9 -> conv1_9/bn (in-place)
I0130 23:00:33.208412 13865 net.cpp:122] Setting up relu1_9
I0130 23:00:33.208428 13865 net.cpp:129] Top shape: 1 800 37 50 (1480000)
I0130 23:00:33.208436 13865 net.cpp:137] Memory required for data: 1062057860
I0130 23:00:33.208442 13865 layer_factory.hpp:77] Creating layer conv1_9
I0130 23:00:33.208467 13865 net.cpp:84] Creating Layer conv1_9
I0130 23:00:33.208474 13865 net.cpp:406] conv1_9 <- conv1_9/bn
I0130 23:00:33.208487 13865 net.cpp:380] conv1_9 -> conv1_9
I0130 23:00:33.223734 13865 net.cpp:122] Setting up conv1_9
I0130 23:00:33.223775 13865 net.cpp:129] Top shape: 1 32 37 50 (59200)
I0130 23:00:33.223783 13865 net.cpp:137] Memory required for data: 1062294660
I0130 23:00:33.223800 13865 layer_factory.hpp:77] Creating layer concat1_9
I0130 23:00:33.223821 13865 net.cpp:84] Creating Layer concat1_9
I0130 23:00:33.223832 13865 net.cpp:406] concat1_9 <- concat1_8_concat1_8_0_split_1
I0130 23:00:33.223845 13865 net.cpp:406] concat1_9 <- conv1_9
I0130 23:00:33.223860 13865 net.cpp:380] concat1_9 -> concat1_9
I0130 23:00:33.223948 13865 net.cpp:122] Setting up concat1_9
I0130 23:00:33.223961 13865 net.cpp:129] Top shape: 1 832 37 50 (1539200)
I0130 23:00:33.223975 13865 net.cpp:137] Memory required for data: 1068451460
I0130 23:00:33.223984 13865 layer_factory.hpp:77] Creating layer concat1_9_concat1_9_0_split
I0130 23:00:33.223997 13865 net.cpp:84] Creating Layer concat1_9_concat1_9_0_split
I0130 23:00:33.224005 13865 net.cpp:406] concat1_9_concat1_9_0_split <- concat1_9
I0130 23:00:33.224015 13865 net.cpp:380] concat1_9_concat1_9_0_split -> concat1_9_concat1_9_0_split_0
I0130 23:00:33.224028 13865 net.cpp:380] concat1_9_concat1_9_0_split -> concat1_9_concat1_9_0_split_1
I0130 23:00:33.224141 13865 net.cpp:122] Setting up concat1_9_concat1_9_0_split
I0130 23:00:33.224153 13865 net.cpp:129] Top shape: 1 832 37 50 (1539200)
I0130 23:00:33.224164 13865 net.cpp:129] Top shape: 1 832 37 50 (1539200)
I0130 23:00:33.224170 13865 net.cpp:137] Memory required for data: 1080765060
I0130 23:00:33.224177 13865 layer_factory.hpp:77] Creating layer conv1_10/bn
I0130 23:00:33.224192 13865 net.cpp:84] Creating Layer conv1_10/bn
I0130 23:00:33.224212 13865 net.cpp:406] conv1_10/bn <- concat1_9_concat1_9_0_split_0
I0130 23:00:33.224223 13865 net.cpp:380] conv1_10/bn -> conv1_10/bn
I0130 23:00:33.225028 13865 net.cpp:122] Setting up conv1_10/bn
I0130 23:00:33.225046 13865 net.cpp:129] Top shape: 1 832 37 50 (1539200)
I0130 23:00:33.225054 13865 net.cpp:137] Memory required for data: 1086921860
I0130 23:00:33.225071 13865 layer_factory.hpp:77] Creating layer conv1_10/scale
I0130 23:00:33.225090 13865 net.cpp:84] Creating Layer conv1_10/scale
I0130 23:00:33.225097 13865 net.cpp:406] conv1_10/scale <- conv1_10/bn
I0130 23:00:33.225108 13865 net.cpp:367] conv1_10/scale -> conv1_10/bn (in-place)
I0130 23:00:33.225234 13865 layer_factory.hpp:77] Creating layer conv1_10/scale
I0130 23:00:33.225618 13865 net.cpp:122] Setting up conv1_10/scale
I0130 23:00:33.225633 13865 net.cpp:129] Top shape: 1 832 37 50 (1539200)
I0130 23:00:33.225641 13865 net.cpp:137] Memory required for data: 1093078660
I0130 23:00:33.225653 13865 layer_factory.hpp:77] Creating layer relu1_10
I0130 23:00:33.225666 13865 net.cpp:84] Creating Layer relu1_10
I0130 23:00:33.225674 13865 net.cpp:406] relu1_10 <- conv1_10/bn
I0130 23:00:33.225683 13865 net.cpp:367] relu1_10 -> conv1_10/bn (in-place)
I0130 23:00:33.226052 13865 net.cpp:122] Setting up relu1_10
I0130 23:00:33.226068 13865 net.cpp:129] Top shape: 1 832 37 50 (1539200)
I0130 23:00:33.226075 13865 net.cpp:137] Memory required for data: 1099235460
I0130 23:00:33.226083 13865 layer_factory.hpp:77] Creating layer conv1_10
I0130 23:00:33.226104 13865 net.cpp:84] Creating Layer conv1_10
I0130 23:00:33.226111 13865 net.cpp:406] conv1_10 <- conv1_10/bn
I0130 23:00:33.226126 13865 net.cpp:380] conv1_10 -> conv1_10
I0130 23:00:33.244181 13865 net.cpp:122] Setting up conv1_10
I0130 23:00:33.244227 13865 net.cpp:129] Top shape: 1 32 37 50 (59200)
I0130 23:00:33.244235 13865 net.cpp:137] Memory required for data: 1099472260
I0130 23:00:33.244252 13865 layer_factory.hpp:77] Creating layer concat1_10
I0130 23:00:33.244274 13865 net.cpp:84] Creating Layer concat1_10
I0130 23:00:33.244285 13865 net.cpp:406] concat1_10 <- concat1_9_concat1_9_0_split_1
I0130 23:00:33.244297 13865 net.cpp:406] concat1_10 <- conv1_10
I0130 23:00:33.244309 13865 net.cpp:380] concat1_10 -> concat1_10
I0130 23:00:33.244397 13865 net.cpp:122] Setting up concat1_10
I0130 23:00:33.244413 13865 net.cpp:129] Top shape: 1 864 37 50 (1598400)
I0130 23:00:33.244421 13865 net.cpp:137] Memory required for data: 1105865860
I0130 23:00:33.244427 13865 layer_factory.hpp:77] Creating layer concat1_10_concat1_10_0_split
I0130 23:00:33.244438 13865 net.cpp:84] Creating Layer concat1_10_concat1_10_0_split
I0130 23:00:33.244446 13865 net.cpp:406] concat1_10_concat1_10_0_split <- concat1_10
I0130 23:00:33.244457 13865 net.cpp:380] concat1_10_concat1_10_0_split -> concat1_10_concat1_10_0_split_0
I0130 23:00:33.244469 13865 net.cpp:380] concat1_10_concat1_10_0_split -> concat1_10_concat1_10_0_split_1
I0130 23:00:33.244580 13865 net.cpp:122] Setting up concat1_10_concat1_10_0_split
I0130 23:00:33.244593 13865 net.cpp:129] Top shape: 1 864 37 50 (1598400)
I0130 23:00:33.244609 13865 net.cpp:129] Top shape: 1 864 37 50 (1598400)
I0130 23:00:33.244616 13865 net.cpp:137] Memory required for data: 1118653060
I0130 23:00:33.244623 13865 layer_factory.hpp:77] Creating layer conv1_11/bn
I0130 23:00:33.244786 13865 net.cpp:84] Creating Layer conv1_11/bn
I0130 23:00:33.244796 13865 net.cpp:406] conv1_11/bn <- concat1_10_concat1_10_0_split_0
I0130 23:00:33.244810 13865 net.cpp:380] conv1_11/bn -> conv1_11/bn
I0130 23:00:33.245573 13865 net.cpp:122] Setting up conv1_11/bn
I0130 23:00:33.245590 13865 net.cpp:129] Top shape: 1 864 37 50 (1598400)
I0130 23:00:33.245597 13865 net.cpp:137] Memory required for data: 1125046660
I0130 23:00:33.245615 13865 layer_factory.hpp:77] Creating layer conv1_11/scale
I0130 23:00:33.245633 13865 net.cpp:84] Creating Layer conv1_11/scale
I0130 23:00:33.245641 13865 net.cpp:406] conv1_11/scale <- conv1_11/bn
I0130 23:00:33.245654 13865 net.cpp:367] conv1_11/scale -> conv1_11/bn (in-place)
I0130 23:00:33.245779 13865 layer_factory.hpp:77] Creating layer conv1_11/scale
I0130 23:00:33.246199 13865 net.cpp:122] Setting up conv1_11/scale
I0130 23:00:33.246215 13865 net.cpp:129] Top shape: 1 864 37 50 (1598400)
I0130 23:00:33.246222 13865 net.cpp:137] Memory required for data: 1131440260
I0130 23:00:33.246235 13865 layer_factory.hpp:77] Creating layer relu1_11
I0130 23:00:33.246248 13865 net.cpp:84] Creating Layer relu1_11
I0130 23:00:33.246256 13865 net.cpp:406] relu1_11 <- conv1_11/bn
I0130 23:00:33.246266 13865 net.cpp:367] relu1_11 -> conv1_11/bn (in-place)
I0130 23:00:33.246646 13865 net.cpp:122] Setting up relu1_11
I0130 23:00:33.246662 13865 net.cpp:129] Top shape: 1 864 37 50 (1598400)
I0130 23:00:33.246670 13865 net.cpp:137] Memory required for data: 1137833860
I0130 23:00:33.246676 13865 layer_factory.hpp:77] Creating layer conv1_11
I0130 23:00:33.246698 13865 net.cpp:84] Creating Layer conv1_11
I0130 23:00:33.246706 13865 net.cpp:406] conv1_11 <- conv1_11/bn
I0130 23:00:33.246721 13865 net.cpp:380] conv1_11 -> conv1_11
I0130 23:00:33.264577 13865 net.cpp:122] Setting up conv1_11
I0130 23:00:33.264637 13865 net.cpp:129] Top shape: 1 32 37 50 (59200)
I0130 23:00:33.264647 13865 net.cpp:137] Memory required for data: 1138070660
I0130 23:00:33.264664 13865 layer_factory.hpp:77] Creating layer concat1_11
I0130 23:00:33.264686 13865 net.cpp:84] Creating Layer concat1_11
I0130 23:00:33.264698 13865 net.cpp:406] concat1_11 <- concat1_10_concat1_10_0_split_1
I0130 23:00:33.264710 13865 net.cpp:406] concat1_11 <- conv1_11
I0130 23:00:33.264725 13865 net.cpp:380] concat1_11 -> concat1_11
I0130 23:00:33.264818 13865 net.cpp:122] Setting up concat1_11
I0130 23:00:33.264832 13865 net.cpp:129] Top shape: 1 896 37 50 (1657600)
I0130 23:00:33.264838 13865 net.cpp:137] Memory required for data: 1144701060
I0130 23:00:33.264845 13865 layer_factory.hpp:77] Creating layer concat1_11_concat1_11_0_split
I0130 23:00:33.264856 13865 net.cpp:84] Creating Layer concat1_11_concat1_11_0_split
I0130 23:00:33.264864 13865 net.cpp:406] concat1_11_concat1_11_0_split <- concat1_11
I0130 23:00:33.264876 13865 net.cpp:380] concat1_11_concat1_11_0_split -> concat1_11_concat1_11_0_split_0
I0130 23:00:33.264889 13865 net.cpp:380] concat1_11_concat1_11_0_split -> concat1_11_concat1_11_0_split_1
I0130 23:00:33.265007 13865 net.cpp:122] Setting up concat1_11_concat1_11_0_split
I0130 23:00:33.265018 13865 net.cpp:129] Top shape: 1 896 37 50 (1657600)
I0130 23:00:33.265028 13865 net.cpp:129] Top shape: 1 896 37 50 (1657600)
I0130 23:00:33.265034 13865 net.cpp:137] Memory required for data: 1157961860
I0130 23:00:33.265043 13865 layer_factory.hpp:77] Creating layer conv1_12/bn
I0130 23:00:33.265056 13865 net.cpp:84] Creating Layer conv1_12/bn
I0130 23:00:33.265064 13865 net.cpp:406] conv1_12/bn <- concat1_11_concat1_11_0_split_0
I0130 23:00:33.265075 13865 net.cpp:380] conv1_12/bn -> conv1_12/bn
I0130 23:00:33.265802 13865 net.cpp:122] Setting up conv1_12/bn
I0130 23:00:33.265817 13865 net.cpp:129] Top shape: 1 896 37 50 (1657600)
I0130 23:00:33.265830 13865 net.cpp:137] Memory required for data: 1164592260
I0130 23:00:33.265848 13865 layer_factory.hpp:77] Creating layer conv1_12/scale
I0130 23:00:33.265866 13865 net.cpp:84] Creating Layer conv1_12/scale
I0130 23:00:33.265874 13865 net.cpp:406] conv1_12/scale <- conv1_12/bn
I0130 23:00:33.265887 13865 net.cpp:367] conv1_12/scale -> conv1_12/bn (in-place)
I0130 23:00:33.266000 13865 layer_factory.hpp:77] Creating layer conv1_12/scale
I0130 23:00:33.266371 13865 net.cpp:122] Setting up conv1_12/scale
I0130 23:00:33.266386 13865 net.cpp:129] Top shape: 1 896 37 50 (1657600)
I0130 23:00:33.266393 13865 net.cpp:137] Memory required for data: 1171222660
I0130 23:00:33.266407 13865 layer_factory.hpp:77] Creating layer relu1_12
I0130 23:00:33.266418 13865 net.cpp:84] Creating Layer relu1_12
I0130 23:00:33.266427 13865 net.cpp:406] relu1_12 <- conv1_12/bn
I0130 23:00:33.266438 13865 net.cpp:367] relu1_12 -> conv1_12/bn (in-place)
I0130 23:00:33.268224 13865 net.cpp:122] Setting up relu1_12
I0130 23:00:33.268245 13865 net.cpp:129] Top shape: 1 896 37 50 (1657600)
I0130 23:00:33.268254 13865 net.cpp:137] Memory required for data: 1177853060
I0130 23:00:33.268261 13865 layer_factory.hpp:77] Creating layer conv1_12
I0130 23:00:33.268285 13865 net.cpp:84] Creating Layer conv1_12
I0130 23:00:33.268295 13865 net.cpp:406] conv1_12 <- conv1_12/bn
I0130 23:00:33.268307 13865 net.cpp:380] conv1_12 -> conv1_12
I0130 23:00:33.287355 13865 net.cpp:122] Setting up conv1_12
I0130 23:00:33.287401 13865 net.cpp:129] Top shape: 1 32 37 50 (59200)
I0130 23:00:33.287410 13865 net.cpp:137] Memory required for data: 1178089860
I0130 23:00:33.287431 13865 layer_factory.hpp:77] Creating layer concat1_12
I0130 23:00:33.287453 13865 net.cpp:84] Creating Layer concat1_12
I0130 23:00:33.287464 13865 net.cpp:406] concat1_12 <- concat1_11_concat1_11_0_split_1
I0130 23:00:33.287477 13865 net.cpp:406] concat1_12 <- conv1_12
I0130 23:00:33.287492 13865 net.cpp:380] concat1_12 -> concat1_12
I0130 23:00:33.287591 13865 net.cpp:122] Setting up concat1_12
I0130 23:00:33.287605 13865 net.cpp:129] Top shape: 1 928 37 50 (1716800)
I0130 23:00:33.287611 13865 net.cpp:137] Memory required for data: 1184957060
I0130 23:00:33.287618 13865 layer_factory.hpp:77] Creating layer concat1_12_concat1_12_0_split
I0130 23:00:33.287629 13865 net.cpp:84] Creating Layer concat1_12_concat1_12_0_split
I0130 23:00:33.287636 13865 net.cpp:406] concat1_12_concat1_12_0_split <- concat1_12
I0130 23:00:33.287648 13865 net.cpp:380] concat1_12_concat1_12_0_split -> concat1_12_concat1_12_0_split_0
I0130 23:00:33.287660 13865 net.cpp:380] concat1_12_concat1_12_0_split -> concat1_12_concat1_12_0_split_1
I0130 23:00:33.287778 13865 net.cpp:122] Setting up concat1_12_concat1_12_0_split
I0130 23:00:33.287793 13865 net.cpp:129] Top shape: 1 928 37 50 (1716800)
I0130 23:00:33.287802 13865 net.cpp:129] Top shape: 1 928 37 50 (1716800)
I0130 23:00:33.287809 13865 net.cpp:137] Memory required for data: 1198691460
I0130 23:00:33.287817 13865 layer_factory.hpp:77] Creating layer conv1_13/bn
I0130 23:00:33.287832 13865 net.cpp:84] Creating Layer conv1_13/bn
I0130 23:00:33.287840 13865 net.cpp:406] conv1_13/bn <- concat1_12_concat1_12_0_split_0
I0130 23:00:33.287853 13865 net.cpp:380] conv1_13/bn -> conv1_13/bn
I0130 23:00:33.288594 13865 net.cpp:122] Setting up conv1_13/bn
I0130 23:00:33.288609 13865 net.cpp:129] Top shape: 1 928 37 50 (1716800)
I0130 23:00:33.288616 13865 net.cpp:137] Memory required for data: 1205558660
I0130 23:00:33.288684 13865 layer_factory.hpp:77] Creating layer conv1_13/scale
I0130 23:00:33.288704 13865 net.cpp:84] Creating Layer conv1_13/scale
I0130 23:00:33.288713 13865 net.cpp:406] conv1_13/scale <- conv1_13/bn
I0130 23:00:33.288724 13865 net.cpp:367] conv1_13/scale -> conv1_13/bn (in-place)
I0130 23:00:33.288861 13865 layer_factory.hpp:77] Creating layer conv1_13/scale
I0130 23:00:33.289261 13865 net.cpp:122] Setting up conv1_13/scale
I0130 23:00:33.289278 13865 net.cpp:129] Top shape: 1 928 37 50 (1716800)
I0130 23:00:33.289284 13865 net.cpp:137] Memory required for data: 1212425860
I0130 23:00:33.289304 13865 layer_factory.hpp:77] Creating layer relu1_13
I0130 23:00:33.289317 13865 net.cpp:84] Creating Layer relu1_13
I0130 23:00:33.289325 13865 net.cpp:406] relu1_13 <- conv1_13/bn
I0130 23:00:33.289338 13865 net.cpp:367] relu1_13 -> conv1_13/bn (in-place)
I0130 23:00:33.289729 13865 net.cpp:122] Setting up relu1_13
I0130 23:00:33.289744 13865 net.cpp:129] Top shape: 1 928 37 50 (1716800)
I0130 23:00:33.289752 13865 net.cpp:137] Memory required for data: 1219293060
I0130 23:00:33.289760 13865 layer_factory.hpp:77] Creating layer conv1_13
I0130 23:00:33.289782 13865 net.cpp:84] Creating Layer conv1_13
I0130 23:00:33.289790 13865 net.cpp:406] conv1_13 <- conv1_13/bn
I0130 23:00:33.289804 13865 net.cpp:380] conv1_13 -> conv1_13
I0130 23:00:33.309463 13865 net.cpp:122] Setting up conv1_13
I0130 23:00:33.309512 13865 net.cpp:129] Top shape: 1 32 37 50 (59200)
I0130 23:00:33.309521 13865 net.cpp:137] Memory required for data: 1219529860
I0130 23:00:33.309538 13865 layer_factory.hpp:77] Creating layer concat1_13
I0130 23:00:33.309559 13865 net.cpp:84] Creating Layer concat1_13
I0130 23:00:33.309571 13865 net.cpp:406] concat1_13 <- concat1_12_concat1_12_0_split_1
I0130 23:00:33.309584 13865 net.cpp:406] concat1_13 <- conv1_13
I0130 23:00:33.309598 13865 net.cpp:380] concat1_13 -> concat1_13
I0130 23:00:33.309693 13865 net.cpp:122] Setting up concat1_13
I0130 23:00:33.309707 13865 net.cpp:129] Top shape: 1 960 37 50 (1776000)
I0130 23:00:33.309713 13865 net.cpp:137] Memory required for data: 1226633860
I0130 23:00:33.309721 13865 layer_factory.hpp:77] Creating layer concat1_13_concat1_13_0_split
I0130 23:00:33.309736 13865 net.cpp:84] Creating Layer concat1_13_concat1_13_0_split
I0130 23:00:33.309742 13865 net.cpp:406] concat1_13_concat1_13_0_split <- concat1_13
I0130 23:00:33.309753 13865 net.cpp:380] concat1_13_concat1_13_0_split -> concat1_13_concat1_13_0_split_0
I0130 23:00:33.309765 13865 net.cpp:380] concat1_13_concat1_13_0_split -> concat1_13_concat1_13_0_split_1
I0130 23:00:33.309880 13865 net.cpp:122] Setting up concat1_13_concat1_13_0_split
I0130 23:00:33.309893 13865 net.cpp:129] Top shape: 1 960 37 50 (1776000)
I0130 23:00:33.309902 13865 net.cpp:129] Top shape: 1 960 37 50 (1776000)
I0130 23:00:33.309909 13865 net.cpp:137] Memory required for data: 1240841860
I0130 23:00:33.309916 13865 layer_factory.hpp:77] Creating layer conv1_14/bn
I0130 23:00:33.309931 13865 net.cpp:84] Creating Layer conv1_14/bn
I0130 23:00:33.309939 13865 net.cpp:406] conv1_14/bn <- concat1_13_concat1_13_0_split_0
I0130 23:00:33.309950 13865 net.cpp:380] conv1_14/bn -> conv1_14/bn
I0130 23:00:33.310748 13865 net.cpp:122] Setting up conv1_14/bn
I0130 23:00:33.310765 13865 net.cpp:129] Top shape: 1 960 37 50 (1776000)
I0130 23:00:33.310771 13865 net.cpp:137] Memory required for data: 1247945860
I0130 23:00:33.310788 13865 layer_factory.hpp:77] Creating layer conv1_14/scale
I0130 23:00:33.310807 13865 net.cpp:84] Creating Layer conv1_14/scale
I0130 23:00:33.310817 13865 net.cpp:406] conv1_14/scale <- conv1_14/bn
I0130 23:00:33.310827 13865 net.cpp:367] conv1_14/scale -> conv1_14/bn (in-place)
I0130 23:00:33.310958 13865 layer_factory.hpp:77] Creating layer conv1_14/scale
I0130 23:00:33.311354 13865 net.cpp:122] Setting up conv1_14/scale
I0130 23:00:33.311369 13865 net.cpp:129] Top shape: 1 960 37 50 (1776000)
I0130 23:00:33.311377 13865 net.cpp:137] Memory required for data: 1255049860
I0130 23:00:33.311389 13865 layer_factory.hpp:77] Creating layer relu1_14
I0130 23:00:33.311403 13865 net.cpp:84] Creating Layer relu1_14
I0130 23:00:33.311409 13865 net.cpp:406] relu1_14 <- conv1_14/bn
I0130 23:00:33.311419 13865 net.cpp:367] relu1_14 -> conv1_14/bn (in-place)
I0130 23:00:33.313325 13865 net.cpp:122] Setting up relu1_14
I0130 23:00:33.313347 13865 net.cpp:129] Top shape: 1 960 37 50 (1776000)
I0130 23:00:33.313354 13865 net.cpp:137] Memory required for data: 1262153860
I0130 23:00:33.313362 13865 layer_factory.hpp:77] Creating layer conv1_14
I0130 23:00:33.313386 13865 net.cpp:84] Creating Layer conv1_14
I0130 23:00:33.313401 13865 net.cpp:406] conv1_14 <- conv1_14/bn
I0130 23:00:33.313417 13865 net.cpp:380] conv1_14 -> conv1_14
I0130 23:00:33.333386 13865 net.cpp:122] Setting up conv1_14
I0130 23:00:33.333437 13865 net.cpp:129] Top shape: 1 32 37 50 (59200)
I0130 23:00:33.333446 13865 net.cpp:137] Memory required for data: 1262390660
I0130 23:00:33.333464 13865 layer_factory.hpp:77] Creating layer concat1_14
I0130 23:00:33.333488 13865 net.cpp:84] Creating Layer concat1_14
I0130 23:00:33.333500 13865 net.cpp:406] concat1_14 <- concat1_13_concat1_13_0_split_1
I0130 23:00:33.333513 13865 net.cpp:406] concat1_14 <- conv1_14
I0130 23:00:33.333524 13865 net.cpp:380] concat1_14 -> concat1_14
I0130 23:00:33.333621 13865 net.cpp:122] Setting up concat1_14
I0130 23:00:33.333636 13865 net.cpp:129] Top shape: 1 992 37 50 (1835200)
I0130 23:00:33.333642 13865 net.cpp:137] Memory required for data: 1269731460
I0130 23:00:33.333649 13865 layer_factory.hpp:77] Creating layer concat1_14_concat1_14_0_split
I0130 23:00:33.333662 13865 net.cpp:84] Creating Layer concat1_14_concat1_14_0_split
I0130 23:00:33.333668 13865 net.cpp:406] concat1_14_concat1_14_0_split <- concat1_14
I0130 23:00:33.333678 13865 net.cpp:380] concat1_14_concat1_14_0_split -> concat1_14_concat1_14_0_split_0
I0130 23:00:33.333691 13865 net.cpp:380] concat1_14_concat1_14_0_split -> concat1_14_concat1_14_0_split_1
I0130 23:00:33.333863 13865 net.cpp:122] Setting up concat1_14_concat1_14_0_split
I0130 23:00:33.333878 13865 net.cpp:129] Top shape: 1 992 37 50 (1835200)
I0130 23:00:33.333887 13865 net.cpp:129] Top shape: 1 992 37 50 (1835200)
I0130 23:00:33.333894 13865 net.cpp:137] Memory required for data: 1284413060
I0130 23:00:33.333901 13865 layer_factory.hpp:77] Creating layer conv1_15/bn
I0130 23:00:33.333917 13865 net.cpp:84] Creating Layer conv1_15/bn
I0130 23:00:33.333925 13865 net.cpp:406] conv1_15/bn <- concat1_14_concat1_14_0_split_0
I0130 23:00:33.333940 13865 net.cpp:380] conv1_15/bn -> conv1_15/bn
I0130 23:00:33.334753 13865 net.cpp:122] Setting up conv1_15/bn
I0130 23:00:33.334770 13865 net.cpp:129] Top shape: 1 992 37 50 (1835200)
I0130 23:00:33.334777 13865 net.cpp:137] Memory required for data: 1291753860
I0130 23:00:33.334794 13865 layer_factory.hpp:77] Creating layer conv1_15/scale
I0130 23:00:33.334813 13865 net.cpp:84] Creating Layer conv1_15/scale
I0130 23:00:33.334822 13865 net.cpp:406] conv1_15/scale <- conv1_15/bn
I0130 23:00:33.334836 13865 net.cpp:367] conv1_15/scale -> conv1_15/bn (in-place)
I0130 23:00:33.334966 13865 layer_factory.hpp:77] Creating layer conv1_15/scale
I0130 23:00:33.335362 13865 net.cpp:122] Setting up conv1_15/scale
I0130 23:00:33.335378 13865 net.cpp:129] Top shape: 1 992 37 50 (1835200)
I0130 23:00:33.335386 13865 net.cpp:137] Memory required for data: 1299094660
I0130 23:00:33.335398 13865 layer_factory.hpp:77] Creating layer relu1_15
I0130 23:00:33.335412 13865 net.cpp:84] Creating Layer relu1_15
I0130 23:00:33.335419 13865 net.cpp:406] relu1_15 <- conv1_15/bn
I0130 23:00:33.335428 13865 net.cpp:367] relu1_15 -> conv1_15/bn (in-place)
I0130 23:00:33.337296 13865 net.cpp:122] Setting up relu1_15
I0130 23:00:33.337317 13865 net.cpp:129] Top shape: 1 992 37 50 (1835200)
I0130 23:00:33.337326 13865 net.cpp:137] Memory required for data: 1306435460
I0130 23:00:33.337333 13865 layer_factory.hpp:77] Creating layer conv1_15
I0130 23:00:33.337355 13865 net.cpp:84] Creating Layer conv1_15
I0130 23:00:33.337364 13865 net.cpp:406] conv1_15 <- conv1_15/bn
I0130 23:00:33.337380 13865 net.cpp:380] conv1_15 -> conv1_15
I0130 23:00:33.357878 13865 net.cpp:122] Setting up conv1_15
I0130 23:00:33.357937 13865 net.cpp:129] Top shape: 1 32 37 50 (59200)
I0130 23:00:33.357945 13865 net.cpp:137] Memory required for data: 1306672260
I0130 23:00:33.357965 13865 layer_factory.hpp:77] Creating layer concat1_15
I0130 23:00:33.357987 13865 net.cpp:84] Creating Layer concat1_15
I0130 23:00:33.357998 13865 net.cpp:406] concat1_15 <- concat1_14_concat1_14_0_split_1
I0130 23:00:33.358011 13865 net.cpp:406] concat1_15 <- conv1_15
I0130 23:00:33.358023 13865 net.cpp:380] concat1_15 -> concat1_15
I0130 23:00:33.358129 13865 net.cpp:122] Setting up concat1_15
I0130 23:00:33.358142 13865 net.cpp:129] Top shape: 1 1024 37 50 (1894400)
I0130 23:00:33.358150 13865 net.cpp:137] Memory required for data: 1314249860
I0130 23:00:33.358156 13865 layer_factory.hpp:77] Creating layer concat1_15_concat1_15_0_split
I0130 23:00:33.358167 13865 net.cpp:84] Creating Layer concat1_15_concat1_15_0_split
I0130 23:00:33.358175 13865 net.cpp:406] concat1_15_concat1_15_0_split <- concat1_15
I0130 23:00:33.358188 13865 net.cpp:380] concat1_15_concat1_15_0_split -> concat1_15_concat1_15_0_split_0
I0130 23:00:33.358201 13865 net.cpp:380] concat1_15_concat1_15_0_split -> concat1_15_concat1_15_0_split_1
I0130 23:00:33.358321 13865 net.cpp:122] Setting up concat1_15_concat1_15_0_split
I0130 23:00:33.358335 13865 net.cpp:129] Top shape: 1 1024 37 50 (1894400)
I0130 23:00:33.358343 13865 net.cpp:129] Top shape: 1 1024 37 50 (1894400)
I0130 23:00:33.358350 13865 net.cpp:137] Memory required for data: 1329405060
I0130 23:00:33.358357 13865 layer_factory.hpp:77] Creating layer conv1_16/bn
I0130 23:00:33.358371 13865 net.cpp:84] Creating Layer conv1_16/bn
I0130 23:00:33.358377 13865 net.cpp:406] conv1_16/bn <- concat1_15_concat1_15_0_split_0
I0130 23:00:33.358397 13865 net.cpp:380] conv1_16/bn -> conv1_16/bn
I0130 23:00:33.359140 13865 net.cpp:122] Setting up conv1_16/bn
I0130 23:00:33.359154 13865 net.cpp:129] Top shape: 1 1024 37 50 (1894400)
I0130 23:00:33.359161 13865 net.cpp:137] Memory required for data: 1336982660
I0130 23:00:33.359179 13865 layer_factory.hpp:77] Creating layer conv1_16/scale
I0130 23:00:33.359196 13865 net.cpp:84] Creating Layer conv1_16/scale
I0130 23:00:33.359205 13865 net.cpp:406] conv1_16/scale <- conv1_16/bn
I0130 23:00:33.359217 13865 net.cpp:367] conv1_16/scale -> conv1_16/bn (in-place)
I0130 23:00:33.359333 13865 layer_factory.hpp:77] Creating layer conv1_16/scale
I0130 23:00:33.359711 13865 net.cpp:122] Setting up conv1_16/scale
I0130 23:00:33.359726 13865 net.cpp:129] Top shape: 1 1024 37 50 (1894400)
I0130 23:00:33.359733 13865 net.cpp:137] Memory required for data: 1344560260
I0130 23:00:33.359746 13865 layer_factory.hpp:77] Creating layer relu1_16
I0130 23:00:33.359760 13865 net.cpp:84] Creating Layer relu1_16
I0130 23:00:33.359767 13865 net.cpp:406] relu1_16 <- conv1_16/bn
I0130 23:00:33.359779 13865 net.cpp:367] relu1_16 -> conv1_16/bn (in-place)
I0130 23:00:33.360163 13865 net.cpp:122] Setting up relu1_16
I0130 23:00:33.360178 13865 net.cpp:129] Top shape: 1 1024 37 50 (1894400)
I0130 23:00:33.360186 13865 net.cpp:137] Memory required for data: 1352137860
I0130 23:00:33.360193 13865 layer_factory.hpp:77] Creating layer conv1_16
I0130 23:00:33.360214 13865 net.cpp:84] Creating Layer conv1_16
I0130 23:00:33.360224 13865 net.cpp:406] conv1_16 <- conv1_16/bn
I0130 23:00:33.360237 13865 net.cpp:380] conv1_16 -> conv1_16
I0130 23:00:33.381181 13865 net.cpp:122] Setting up conv1_16
I0130 23:00:33.381237 13865 net.cpp:129] Top shape: 1 32 37 50 (59200)
I0130 23:00:33.381245 13865 net.cpp:137] Memory required for data: 1352374660
I0130 23:00:33.381265 13865 layer_factory.hpp:77] Creating layer concat1_16
I0130 23:00:33.381289 13865 net.cpp:84] Creating Layer concat1_16
I0130 23:00:33.381302 13865 net.cpp:406] concat1_16 <- concat1_15_concat1_15_0_split_1
I0130 23:00:33.381315 13865 net.cpp:406] concat1_16 <- conv1_16
I0130 23:00:33.381327 13865 net.cpp:380] concat1_16 -> concat1_16
I0130 23:00:33.381428 13865 net.cpp:122] Setting up concat1_16
I0130 23:00:33.381443 13865 net.cpp:129] Top shape: 1 1056 37 50 (1953600)
I0130 23:00:33.381449 13865 net.cpp:137] Memory required for data: 1360189060
I0130 23:00:33.381458 13865 layer_factory.hpp:77] Creating layer concat1_16_concat1_16_0_split
I0130 23:00:33.381469 13865 net.cpp:84] Creating Layer concat1_16_concat1_16_0_split
I0130 23:00:33.381476 13865 net.cpp:406] concat1_16_concat1_16_0_split <- concat1_16
I0130 23:00:33.381486 13865 net.cpp:380] concat1_16_concat1_16_0_split -> concat1_16_concat1_16_0_split_0
I0130 23:00:33.381500 13865 net.cpp:380] concat1_16_concat1_16_0_split -> concat1_16_concat1_16_0_split_1
I0130 23:00:33.381628 13865 net.cpp:122] Setting up concat1_16_concat1_16_0_split
I0130 23:00:33.381640 13865 net.cpp:129] Top shape: 1 1056 37 50 (1953600)
I0130 23:00:33.381649 13865 net.cpp:129] Top shape: 1 1056 37 50 (1953600)
I0130 23:00:33.381656 13865 net.cpp:137] Memory required for data: 1375817860
I0130 23:00:33.381664 13865 layer_factory.hpp:77] Creating layer conv1_17/bn
I0130 23:00:33.381678 13865 net.cpp:84] Creating Layer conv1_17/bn
I0130 23:00:33.381686 13865 net.cpp:406] conv1_17/bn <- concat1_16_concat1_16_0_split_0
I0130 23:00:33.381705 13865 net.cpp:380] conv1_17/bn -> conv1_17/bn
I0130 23:00:33.382470 13865 net.cpp:122] Setting up conv1_17/bn
I0130 23:00:33.382484 13865 net.cpp:129] Top shape: 1 1056 37 50 (1953600)
I0130 23:00:33.382491 13865 net.cpp:137] Memory required for data: 1383632260
I0130 23:00:33.382508 13865 layer_factory.hpp:77] Creating layer conv1_17/scale
I0130 23:00:33.382527 13865 net.cpp:84] Creating Layer conv1_17/scale
I0130 23:00:33.382536 13865 net.cpp:406] conv1_17/scale <- conv1_17/bn
I0130 23:00:33.382550 13865 net.cpp:367] conv1_17/scale -> conv1_17/bn (in-place)
I0130 23:00:33.382673 13865 layer_factory.hpp:77] Creating layer conv1_17/scale
I0130 23:00:33.383067 13865 net.cpp:122] Setting up conv1_17/scale
I0130 23:00:33.383082 13865 net.cpp:129] Top shape: 1 1056 37 50 (1953600)
I0130 23:00:33.383088 13865 net.cpp:137] Memory required for data: 1391446660
I0130 23:00:33.383102 13865 layer_factory.hpp:77] Creating layer relu1_17
I0130 23:00:33.383114 13865 net.cpp:84] Creating Layer relu1_17
I0130 23:00:33.383122 13865 net.cpp:406] relu1_17 <- conv1_17/bn
I0130 23:00:33.383132 13865 net.cpp:367] relu1_17 -> conv1_17/bn (in-place)
I0130 23:00:33.383533 13865 net.cpp:122] Setting up relu1_17
I0130 23:00:33.383548 13865 net.cpp:129] Top shape: 1 1056 37 50 (1953600)
I0130 23:00:33.383555 13865 net.cpp:137] Memory required for data: 1399261060
I0130 23:00:33.383563 13865 layer_factory.hpp:77] Creating layer conv1_17
I0130 23:00:33.383586 13865 net.cpp:84] Creating Layer conv1_17
I0130 23:00:33.383595 13865 net.cpp:406] conv1_17 <- conv1_17/bn
I0130 23:00:33.383607 13865 net.cpp:380] conv1_17 -> conv1_17
I0130 23:00:33.405038 13865 net.cpp:122] Setting up conv1_17
I0130 23:00:33.405091 13865 net.cpp:129] Top shape: 1 32 37 50 (59200)
I0130 23:00:33.405098 13865 net.cpp:137] Memory required for data: 1399497860
I0130 23:00:33.405118 13865 layer_factory.hpp:77] Creating layer concat1_17
I0130 23:00:33.405140 13865 net.cpp:84] Creating Layer concat1_17
I0130 23:00:33.405153 13865 net.cpp:406] concat1_17 <- concat1_16_concat1_16_0_split_1
I0130 23:00:33.405169 13865 net.cpp:406] concat1_17 <- conv1_17
I0130 23:00:33.405181 13865 net.cpp:380] concat1_17 -> concat1_17
I0130 23:00:33.405279 13865 net.cpp:122] Setting up concat1_17
I0130 23:00:33.405292 13865 net.cpp:129] Top shape: 1 1088 37 50 (2012800)
I0130 23:00:33.405299 13865 net.cpp:137] Memory required for data: 1407549060
I0130 23:00:33.405306 13865 layer_factory.hpp:77] Creating layer concat1_17_concat1_17_0_split
I0130 23:00:33.405320 13865 net.cpp:84] Creating Layer concat1_17_concat1_17_0_split
I0130 23:00:33.405328 13865 net.cpp:406] concat1_17_concat1_17_0_split <- concat1_17
I0130 23:00:33.405339 13865 net.cpp:380] concat1_17_concat1_17_0_split -> concat1_17_concat1_17_0_split_0
I0130 23:00:33.405352 13865 net.cpp:380] concat1_17_concat1_17_0_split -> concat1_17_concat1_17_0_split_1
I0130 23:00:33.405478 13865 net.cpp:122] Setting up concat1_17_concat1_17_0_split
I0130 23:00:33.405491 13865 net.cpp:129] Top shape: 1 1088 37 50 (2012800)
I0130 23:00:33.405500 13865 net.cpp:129] Top shape: 1 1088 37 50 (2012800)
I0130 23:00:33.405508 13865 net.cpp:137] Memory required for data: 1423651460
I0130 23:00:33.405514 13865 layer_factory.hpp:77] Creating layer conv1_18/bn
I0130 23:00:33.405535 13865 net.cpp:84] Creating Layer conv1_18/bn
I0130 23:00:33.405544 13865 net.cpp:406] conv1_18/bn <- concat1_17_concat1_17_0_split_0
I0130 23:00:33.405557 13865 net.cpp:380] conv1_18/bn -> conv1_18/bn
I0130 23:00:33.406321 13865 net.cpp:122] Setting up conv1_18/bn
I0130 23:00:33.406337 13865 net.cpp:129] Top shape: 1 1088 37 50 (2012800)
I0130 23:00:33.406343 13865 net.cpp:137] Memory required for data: 1431702660
I0130 23:00:33.406361 13865 layer_factory.hpp:77] Creating layer conv1_18/scale
I0130 23:00:33.406380 13865 net.cpp:84] Creating Layer conv1_18/scale
…
I0130 23:00:35.863466 13865 net.cpp:406] concat1_16_concat1_16_0_split <- concat1_16
I0130 23:00:35.863473 13865 net.cpp:380] concat1_16_concat1_16_0_split -> concat1_16_concat1_16_0_split_0
I0130 23:00:35.863483 13865 net.cpp:380] concat1_16_concat1_16_0_split -> concat1_16_concat1_16_0_split_1
I0130 23:00:35.863643 13865 net.cpp:122] Setting up concat1_16_concat1_16_0_split
I0130 23:00:35.863656 13865 net.cpp:129] Top shape: 1 1056 23 24 (582912)
I0130 23:00:35.863663 13865 net.cpp:129] Top shape: 1 1056 23 24 (582912)
I0130 23:00:35.863668 13865 net.cpp:137] Memory required for data: 415868384
I0130 23:00:35.863674 13865 layer_factory.hpp:77] Creating layer conv1_17/bn
I0130 23:00:35.863687 13865 net.cpp:84] Creating Layer conv1_17/bn
I0130 23:00:35.863693 13865 net.cpp:406] conv1_17/bn <- concat1_16_concat1_16_0_split_0
I0130 23:00:35.863701 13865 net.cpp:380] conv1_17/bn -> conv1_17/bn
I0130 23:00:35.864874 13865 net.cpp:122] Setting up conv1_17/bn
I0130 23:00:35.864893 13865 net.cpp:129] Top shape: 1 1056 23 24 (582912)
I0130 23:00:35.864899 13865 net.cpp:137] Memory required for data: 418200032
I0130 23:00:35.864913 13865 layer_factory.hpp:77] Creating layer conv1_17/scale
I0130 23:00:35.864929 13865 net.cpp:84] Creating Layer conv1_17/scale
I0130 23:00:35.864938 13865 net.cpp:406] conv1_17/scale <- conv1_17/bn
I0130 23:00:35.864946 13865 net.cpp:367] conv1_17/scale -> conv1_17/bn (in-place)
I0130 23:00:35.865108 13865 layer_factory.hpp:77] Creating layer conv1_17/scale
I0130 23:00:35.865682 13865 net.cpp:122] Setting up conv1_17/scale
I0130 23:00:35.865698 13865 net.cpp:129] Top shape: 1 1056 23 24 (582912)
I0130 23:00:35.865705 13865 net.cpp:137] Memory required for data: 420531680
I0130 23:00:35.865716 13865 layer_factory.hpp:77] Creating layer relu1_17
I0130 23:00:35.865726 13865 net.cpp:84] Creating Layer relu1_17
I0130 23:00:35.865733 13865 net.cpp:406] relu1_17 <- conv1_17/bn
I0130 23:00:35.865741 13865 net.cpp:367] relu1_17 -> conv1_17/bn (in-place)
I0130 23:00:35.866164 13865 net.cpp:122] Setting up relu1_17
I0130 23:00:35.866178 13865 net.cpp:129] Top shape: 1 1056 23 24 (582912)
I0130 23:00:35.866183 13865 net.cpp:137] Memory required for data: 422863328
I0130 23:00:35.866189 13865 layer_factory.hpp:77] Creating layer conv1_17
I0130 23:00:35.866207 13865 net.cpp:84] Creating Layer conv1_17
I0130 23:00:35.866216 13865 net.cpp:406] conv1_17 <- conv1_17/bn
I0130 23:00:35.866230 13865 net.cpp:380] conv1_17 -> conv1_17
I0130 23:00:35.888694 13865 net.cpp:122] Setting up conv1_17
I0130 23:00:35.888743 13865 net.cpp:129] Top shape: 1 32 23 24 (17664)
I0130 23:00:35.888751 13865 net.cpp:137] Memory required for data: 422933984
I0130 23:00:35.888766 13865 layer_factory.hpp:77] Creating layer concat1_17
I0130 23:00:35.888784 13865 net.cpp:84] Creating Layer concat1_17
I0130 23:00:35.888795 13865 net.cpp:406] concat1_17 <- concat1_16_concat1_16_0_split_1
I0130 23:00:35.888808 13865 net.cpp:406] concat1_17 <- conv1_17
I0130 23:00:35.888820 13865 net.cpp:380] concat1_17 -> concat1_17
I0130 23:00:35.888932 13865 net.cpp:122] Setting up concat1_17
I0130 23:00:35.888944 13865 net.cpp:129] Top shape: 1 1088 23 24 (600576)
I0130 23:00:35.888949 13865 net.cpp:137] Memory required for data: 425336288
I0130 23:00:35.888954 13865 layer_factory.hpp:77] Creating layer concat1_17_concat1_17_0_split
I0130 23:00:35.888963 13865 net.cpp:84] Creating Layer concat1_17_concat1_17_0_split
I0130 23:00:35.888969 13865 net.cpp:406] concat1_17_concat1_17_0_split <- concat1_17
I0130 23:00:35.888980 13865 net.cpp:380] concat1_17_concat1_17_0_split -> concat1_17_concat1_17_0_split_0
I0130 23:00:35.888990 13865 net.cpp:380] concat1_17_concat1_17_0_split -> concat1_17_concat1_17_0_split_1
I0130 23:00:35.889149 13865 net.cpp:122] Setting up concat1_17_concat1_17_0_split
I0130 23:00:35.889160 13865 net.cpp:129] Top shape: 1 1088 23 24 (600576)
I0130 23:00:35.889168 13865 net.cpp:129] Top shape: 1 1088 23 24 (600576)
I0130 23:00:35.889173 13865 net.cpp:137] Memory required for data: 430140896
I0130 23:00:35.889178 13865 layer_factory.hpp:77] Creating layer conv1_18/bn
I0130 23:00:35.889195 13865 net.cpp:84] Creating Layer conv1_18/bn
I0130 23:00:35.889202 13865 net.cpp:406] conv1_18/bn <- concat1_17_concat1_17_0_split_0
I0130 23:00:35.889211 13865 net.cpp:380] conv1_18/bn -> conv1_18/bn
I0130 23:00:35.890312 13865 net.cpp:122] Setting up conv1_18/bn
I0130 23:00:35.890329 13865 net.cpp:129] Top shape: 1 1088 23 24 (600576)
I0130 23:00:35.890334 13865 net.cpp:137] Memory required for data: 432543200
I0130 23:00:35.890347 13865 layer_factory.hpp:77] Creating layer conv1_18/scale
I0130 23:00:35.890363 13865 net.cpp:84] Creating Layer conv1_18/scale
I0130 23:00:35.890370 13865 net.cpp:406] conv1_18/scale <- conv1_18/bn
I0130 23:00:35.890379 13865 net.cpp:367] conv1_18/scale -> conv1_18/bn (in-place)
I0130 23:00:35.890533 13865 layer_factory.hpp:77] Creating layer conv1_18/scale
I0130 23:00:35.891106 13865 net.cpp:122] Setting up conv1_18/scale
I0130 23:00:35.891129 13865 net.cpp:129] Top shape: 1 1088 23 24 (600576)
I0130 23:00:35.891136 13865 net.cpp:137] Memory required for data: 434945504
I0130 23:00:35.891147 13865 layer_factory.hpp:77] Creating layer relu1_18
I0130 23:00:35.891158 13865 net.cpp:84] Creating Layer relu1_18
I0130 23:00:35.891165 13865 net.cpp:406] relu1_18 <- conv1_18/bn
I0130 23:00:35.891173 13865 net.cpp:367] relu1_18 -> conv1_18/bn (in-place)
I0130 23:00:35.893141 13865 net.cpp:122] Setting up relu1_18
I0130 23:00:35.893162 13865 net.cpp:129] Top shape: 1 1088 23 24 (600576)
I0130 23:00:35.893169 13865 net.cpp:137] Memory required for data: 437347808
I0130 23:00:35.893177 13865 layer_factory.hpp:77] Creating layer conv1_18
I0130 23:00:35.893195 13865 net.cpp:84] Creating Layer conv1_18
I0130 23:00:35.893203 13865 net.cpp:406] conv1_18 <- conv1_18/bn
I0130 23:00:35.893215 13865 net.cpp:380] conv1_18 -> conv1_18
I0130 23:00:35.916328 13865 net.cpp:122] Setting up conv1_18
I0130 23:00:35.916370 13865 net.cpp:129] Top shape: 1 32 23 24 (17664)
I0130 23:00:35.916378 13865 net.cpp:137] Memory required for data: 437418464
I0130 23:00:35.916391 13865 layer_factory.hpp:77] Creating layer concat1_18
I0130 23:00:35.916409 13865 net.cpp:84] Creating Layer concat1_18
I0130 23:00:35.916421 13865 net.cpp:406] concat1_18 <- concat1_17_concat1_17_0_split_1
I0130 23:00:35.916432 13865 net.cpp:406] concat1_18 <- conv1_18
I0130 23:00:35.916443 13865 net.cpp:380] concat1_18 -> concat1_18
I0130 23:00:35.916549 13865 net.cpp:122] Setting up concat1_18
I0130 23:00:35.916561 13865 net.cpp:129] Top shape: 1 1120 23 24 (618240)
I0130 23:00:35.916566 13865 net.cpp:137] Memory required for data: 439891424
I0130 23:00:35.916571 13865 layer_factory.hpp:77] Creating layer concat1_18_concat1_18_0_split
I0130 23:00:35.916581 13865 net.cpp:84] Creating Layer concat1_18_concat1_18_0_split
I0130 23:00:35.916587 13865 net.cpp:406] concat1_18_concat1_18_0_split <- concat1_18
I0130 23:00:35.916597 13865 net.cpp:380] concat1_18_concat1_18_0_split -> concat1_18_concat1_18_0_split_0
I0130 23:00:35.916607 13865 net.cpp:380] concat1_18_concat1_18_0_split -> concat1_18_concat1_18_0_split_1
I0130 23:00:35.916779 13865 net.cpp:122] Setting up concat1_18_concat1_18_0_split
I0130 23:00:35.916791 13865 net.cpp:129] Top shape: 1 1120 23 24 (618240)
I0130 23:00:35.916798 13865 net.cpp:129] Top shape: 1 1120 23 24 (618240)
I0130 23:00:35.916803 13865 net.cpp:137] Memory required for data: 444837344
I0130 23:00:35.916810 13865 layer_factory.hpp:77] Creating layer conv1_19/bn
I0130 23:00:35.916821 13865 net.cpp:84] Creating Layer conv1_19/bn
I0130 23:00:35.916827 13865 net.cpp:406] conv1_19/bn <- concat1_18_concat1_18_0_split_0
I0130 23:00:35.916836 13865 net.cpp:380] conv1_19/bn -> conv1_19/bn
I0130 23:00:35.917979 13865 net.cpp:122] Setting up conv1_19/bn
I0130 23:00:35.917994 13865 net.cpp:129] Top shape: 1 1120 23 24 (618240)
I0130 23:00:35.918000 13865 net.cpp:137] Memory required for data: 447310304
I0130 23:00:35.918014 13865 layer_factory.hpp:77] Creating layer conv1_19/scale
I0130 23:00:35.918030 13865 net.cpp:84] Creating Layer conv1_19/scale
I0130 23:00:35.918038 13865 net.cpp:406] conv1_19/scale <- conv1_19/bn
I0130 23:00:35.918047 13865 net.cpp:367] conv1_19/scale -> conv1_19/bn (in-place)
I0130 23:00:35.918208 13865 layer_factory.hpp:77] Creating layer conv1_19/scale
I0130 23:00:35.918771 13865 net.cpp:122] Setting up conv1_19/scale
I0130 23:00:35.918784 13865 net.cpp:129] Top shape: 1 1120 23 24 (618240)
I0130 23:00:35.918790 13865 net.cpp:137] Memory required for data: 449783264
I0130 23:00:35.918802 13865 layer_factory.hpp:77] Creating layer relu1_19
I0130 23:00:35.918812 13865 net.cpp:84] Creating Layer relu1_19
I0130 23:00:35.918818 13865 net.cpp:406] relu1_19 <- conv1_19/bn
I0130 23:00:35.918825 13865 net.cpp:367] relu1_19 -> conv1_19/bn (in-place)
I0130 23:00:35.919245 13865 net.cpp:122] Setting up relu1_19
I0130 23:00:35.919262 13865 net.cpp:129] Top shape: 1 1120 23 24 (618240)
I0130 23:00:35.919270 13865 net.cpp:137] Memory required for data: 452256224
I0130 23:00:35.919282 13865 layer_factory.hpp:77] Creating layer conv1_19
I0130 23:00:35.919302 13865 net.cpp:84] Creating Layer conv1_19
I0130 23:00:35.919309 13865 net.cpp:406] conv1_19 <- conv1_19/bn
I0130 23:00:35.919322 13865 net.cpp:380] conv1_19 -> conv1_19
I0130 23:00:35.943212 13865 net.cpp:122] Setting up conv1_19
I0130 23:00:35.943264 13865 net.cpp:129] Top shape: 1 32 23 24 (17664)
I0130 23:00:35.943274 13865 net.cpp:137] Memory required for data: 452326880
I0130 23:00:35.943289 13865 layer_factory.hpp:77] Creating layer concat1_19
I0130 23:00:35.943310 13865 net.cpp:84] Creating Layer concat1_19
I0130 23:00:35.943321 13865 net.cpp:406] concat1_19 <- concat1_18_concat1_18_0_split_1
I0130 23:00:35.943332 13865 net.cpp:406] concat1_19 <- conv1_19
I0130 23:00:35.943342 13865 net.cpp:380] concat1_19 -> concat1_19
I0130 23:00:35.943451 13865 net.cpp:122] Setting up concat1_19
I0130 23:00:35.943464 13865 net.cpp:129] Top shape: 1 1152 23 24 (635904)
I0130 23:00:35.943469 13865 net.cpp:137] Memory required for data: 454870496
I0130 23:00:35.943475 13865 layer_factory.hpp:77] Creating layer concat1_19_concat1_19_0_split
I0130 23:00:35.943486 13865 net.cpp:84] Creating Layer concat1_19_concat1_19_0_split
I0130 23:00:35.943492 13865 net.cpp:406] concat1_19_concat1_19_0_split <- concat1_19
I0130 23:00:35.943500 13865 net.cpp:380] concat1_19_concat1_19_0_split -> concat1_19_concat1_19_0_split_0
I0130 23:00:35.943511 13865 net.cpp:380] concat1_19_concat1_19_0_split -> concat1_19_concat1_19_0_split_1
I0130 23:00:35.943675 13865 net.cpp:122] Setting up concat1_19_concat1_19_0_split
I0130 23:00:35.943686 13865 net.cpp:129] Top shape: 1 1152 23 24 (635904)
I0130 23:00:35.943694 13865 net.cpp:129] Top shape: 1 1152 23 24 (635904)
I0130 23:00:35.943699 13865 net.cpp:137] Memory required for data: 459957728
I0130 23:00:35.943704 13865 layer_factory.hpp:77] Creating layer conv1_20/bn
I0130 23:00:35.943718 13865 net.cpp:84] Creating Layer conv1_20/bn
I0130 23:00:35.943724 13865 net.cpp:406] conv1_20/bn <- concat1_19_concat1_19_0_split_0
I0130 23:00:35.943734 13865 net.cpp:380] conv1_20/bn -> conv1_20/bn
I0130 23:00:35.944895 13865 net.cpp:122] Setting up conv1_20/bn
I0130 23:00:35.944912 13865 net.cpp:129] Top shape: 1 1152 23 24 (635904)
I0130 23:00:35.944917 13865 net.cpp:137] Memory required for data: 462501344
I0130 23:00:35.944931 13865 layer_factory.hpp:77] Creating layer conv1_20/scale
I0130 23:00:35.944945 13865 net.cpp:84] Creating Layer conv1_20/scale
I0130 23:00:35.944952 13865 net.cpp:406] conv1_20/scale <- conv1_20/bn
I0130 23:00:35.944964 13865 net.cpp:367] conv1_20/scale -> conv1_20/bn (in-place)
I0130 23:00:35.945113 13865 layer_factory.hpp:77] Creating layer conv1_20/scale
I0130 23:00:35.945688 13865 net.cpp:122] Setting up conv1_20/scale
I0130 23:00:35.945705 13865 net.cpp:129] Top shape: 1 1152 23 24 (635904)
I0130 23:00:35.945713 13865 net.cpp:137] Memory required for data: 465044960
I0130 23:00:35.945722 13865 layer_factory.hpp:77] Creating layer relu1_20
I0130 23:00:35.945734 13865 net.cpp:84] Creating Layer relu1_20
I0130 23:00:35.945740 13865 net.cpp:406] relu1_20 <- conv1_20/bn
I0130 23:00:35.945749 13865 net.cpp:367] relu1_20 -> conv1_20/bn (in-place)
I0130 23:00:35.946180 13865 net.cpp:122] Setting up relu1_20
I0130 23:00:35.946194 13865 net.cpp:129] Top shape: 1 1152 23 24 (635904)
I0130 23:00:35.946200 13865 net.cpp:137] Memory required for data: 467588576
I0130 23:00:35.946207 13865 layer_factory.hpp:77] Creating layer conv1_20
I0130 23:00:35.946228 13865 net.cpp:84] Creating Layer conv1_20
I0130 23:00:35.946234 13865 net.cpp:406] conv1_20 <- conv1_20/bn
I0130 23:00:35.946244 13865 net.cpp:380] conv1_20 -> conv1_20
I0130 23:00:35.970437 13865 net.cpp:122] Setting up conv1_20
I0130 23:00:35.970487 13865 net.cpp:129] Top shape: 1 32 23 24 (17664)
I0130 23:00:35.970495 13865 net.cpp:137] Memory required for data: 467659232
I0130 23:00:35.970512 13865 layer_factory.hpp:77] Creating layer concat1_20
I0130 23:00:35.970532 13865 net.cpp:84] Creating Layer concat1_20
I0130 23:00:35.970543 13865 net.cpp:406] concat1_20 <- concat1_19_concat1_19_0_split_1
I0130 23:00:35.970562 13865 net.cpp:406] concat1_20 <- conv1_20
I0130 23:00:35.970577 13865 net.cpp:380] concat1_20 -> concat1_20
I0130 23:00:35.970683 13865 net.cpp:122] Setting up concat1_20
I0130 23:00:35.970695 13865 net.cpp:129] Top shape: 1 1184 23 24 (653568)
I0130 23:00:35.970700 13865 net.cpp:137] Memory required for data: 470273504
I0130 23:00:35.970705 13865 layer_factory.hpp:77] Creating layer concat1_20_concat1_20_0_split
I0130 23:00:35.970715 13865 net.cpp:84] Creating Layer concat1_20_concat1_20_0_split
I0130 23:00:35.970721 13865 net.cpp:406] concat1_20_concat1_20_0_split <- concat1_20
I0130 23:00:35.970732 13865 net.cpp:380] concat1_20_concat1_20_0_split -> concat1_20_concat1_20_0_split_0
I0130 23:00:35.970742 13865 net.cpp:380] concat1_20_concat1_20_0_split -> concat1_20_concat1_20_0_split_1
I0130 23:00:35.970911 13865 net.cpp:122] Setting up concat1_20_concat1_20_0_split
I0130 23:00:35.970926 13865 net.cpp:129] Top shape: 1 1184 23 24 (653568)
I0130 23:00:35.970932 13865 net.cpp:129] Top shape: 1 1184 23 24 (653568)
I0130 23:00:35.970937 13865 net.cpp:137] Memory required for data: 475502048
I0130 23:00:35.970942 13865 layer_factory.hpp:77] Creating layer conv1_21/bn
I0130 23:00:35.970957 13865 net.cpp:84] Creating Layer conv1_21/bn
I0130 23:00:35.970963 13865 net.cpp:406] conv1_21/bn <- concat1_20_concat1_20_0_split_0
I0130 23:00:35.970973 13865 net.cpp:380] conv1_21/bn -> conv1_21/bn
I0130 23:00:35.972126 13865 net.cpp:122] Setting up conv1_21/bn
I0130 23:00:35.972143 13865 net.cpp:129] Top shape: 1 1184 23 24 (653568)
I0130 23:00:35.972149 13865 net.cpp:137] Memory required for data: 478116320
I0130 23:00:35.972167 13865 layer_factory.hpp:77] Creating layer conv1_21/scale
I0130 23:00:35.972182 13865 net.cpp:84] Creating Layer conv1_21/scale
I0130 23:00:35.972189 13865 net.cpp:406] conv1_21/scale <- conv1_21/bn
I0130 23:00:35.972198 13865 net.cpp:367] conv1_21/scale -> conv1_21/bn (in-place)
I0130 23:00:35.972362 13865 layer_factory.hpp:77] Creating layer conv1_21/scale
I0130 23:00:35.972968 13865 net.cpp:122] Setting up conv1_21/scale
I0130 23:00:35.972985 13865 net.cpp:129] Top shape: 1 1184 23 24 (653568)
I0130 23:00:35.972990 13865 net.cpp:137] Memory required for data: 480730592
I0130 23:00:35.973001 13865 layer_factory.hpp:77] Creating layer relu1_21
I0130 23:00:35.973013 13865 net.cpp:84] Creating Layer relu1_21
I0130 23:00:35.973021 13865 net.cpp:406] relu1_21 <- conv1_21/bn
I0130 23:00:35.973032 13865 net.cpp:367] relu1_21 -> conv1_21/bn (in-place)
I0130 23:00:35.974987 13865 net.cpp:122] Setting up relu1_21
I0130 23:00:35.975006 13865 net.cpp:129] Top shape: 1 1184 23 24 (653568)
I0130 23:00:35.975014 13865 net.cpp:137] Memory required for data: 483344864
I0130 23:00:35.975020 13865 layer_factory.hpp:77] Creating layer conv1_21
I0130 23:00:35.975040 13865 net.cpp:84] Creating Layer conv1_21
I0130 23:00:35.975049 13865 net.cpp:406] conv1_21 <- conv1_21/bn
I0130 23:00:35.975064 13865 net.cpp:380] conv1_21 -> conv1_21
I0130 23:00:35.999698 13865 net.cpp:122] Setting up conv1_21
I0130 23:00:35.999747 13865 net.cpp:129] Top shape: 1 32 23 24 (17664)
I0130 23:00:35.999755 13865 net.cpp:137] Memory required for data: 483415520
I0130 23:00:35.999773 13865 layer_factory.hpp:77] Creating layer concat1_21
I0130 23:00:35.999794 13865 net.cpp:84] Creating Layer concat1_21
I0130 23:00:35.999804 13865 net.cpp:406] concat1_21 <- concat1_20_concat1_20_0_split_1
I0130 23:00:35.999817 13865 net.cpp:406] concat1_21 <- conv1_21
I0130 23:00:35.999830 13865 net.cpp:380] concat1_21 -> concat1_21
I0130 23:00:35.999940 13865 net.cpp:122] Setting up concat1_21
I0130 23:00:35.999953 13865 net.cpp:129] Top shape: 1 1216 23 24 (671232)
I0130 23:00:35.999958 13865 net.cpp:137] Memory required for data: 486100448
I0130 23:00:35.999963 13865 layer_factory.hpp:77] Creating layer concat1_21_concat1_21_0_split
I0130 23:00:35.999972 13865 net.cpp:84] Creating Layer concat1_21_concat1_21_0_split
I0130 23:00:35.999979 13865 net.cpp:406] concat1_21_concat1_21_0_split <- concat1_21
I0130 23:00:35.999995 13865 net.cpp:380] concat1_21_concat1_21_0_split -> concat1_21_concat1_21_0_split_0
I0130 23:00:36.000006 13865 net.cpp:380] concat1_21_concat1_21_0_split -> concat1_21_concat1_21_0_split_1
I0130 23:00:36.000169 13865 net.cpp:122] Setting up concat1_21_concat1_21_0_split
I0130 23:00:36.000180 13865 net.cpp:129] Top shape: 1 1216 23 24 (671232)
I0130 23:00:36.000188 13865 net.cpp:129] Top shape: 1 1216 23 24 (671232)
I0130 23:00:36.000193 13865 net.cpp:137] Memory required for data: 491470304
I0130 23:00:36.000198 13865 layer_factory.hpp:77] Creating layer conv1_22/bn
I0130 23:00:36.000211 13865 net.cpp:84] Creating Layer conv1_22/bn
I0130 23:00:36.000226 13865 net.cpp:406] conv1_22/bn <- concat1_21_concat1_21_0_split_0
I0130 23:00:36.000234 13865 net.cpp:380] conv1_22/bn -> conv1_22/bn
I0130 23:00:36.001389 13865 net.cpp:122] Setting up conv1_22/bn
I0130 23:00:36.001405 13865 net.cpp:129] Top shape: 1 1216 23 24 (671232)
I0130 23:00:36.001411 13865 net.cpp:137] Memory required for data: 494155232
I0130 23:00:36.001426 13865 layer_factory.hpp:77] Creating layer conv1_22/scale
I0130 23:00:36.001441 13865 net.cpp:84] Creating Layer conv1_22/scale
I0130 23:00:36.001447 13865 net.cpp:406] conv1_22/scale <- conv1_22/bn
I0130 23:00:36.001458 13865 net.cpp:367] conv1_22/scale -> conv1_22/bn (in-place)
I0130 23:00:36.001628 13865 layer_factory.hpp:77] Creating layer conv1_22/scale
I0130 23:00:36.002226 13865 net.cpp:122] Setting up conv1_22/scale
I0130 23:00:36.002241 13865 net.cpp:129] Top shape: 1 1216 23 24 (671232)
I0130 23:00:36.002246 13865 net.cpp:137] Memory required for data: 496840160
I0130 23:00:36.002257 13865 layer_factory.hpp:77] Creating layer relu1_22
I0130 23:00:36.002272 13865 net.cpp:84] Creating Layer relu1_22
I0130 23:00:36.002280 13865 net.cpp:406] relu1_22 <- conv1_22/bn
I0130 23:00:36.002288 13865 net.cpp:367] relu1_22 -> conv1_22/bn (in-place)
I0130 23:00:36.002725 13865 net.cpp:122] Setting up relu1_22
I0130 23:00:36.002741 13865 net.cpp:129] Top shape: 1 1216 23 24 (671232)
I0130 23:00:36.002750 13865 net.cpp:137] Memory required for data: 499525088
I0130 23:00:36.002758 13865 layer_factory.hpp:77] Creating layer conv1_22
I0130 23:00:36.002774 13865 net.cpp:84] Creating Layer conv1_22
I0130 23:00:36.002781 13865 net.cpp:406] conv1_22 <- conv1_22/bn
I0130 23:00:36.002795 13865 net.cpp:380] conv1_22 -> conv1_22
I0130 23:00:36.028206 13865 net.cpp:122] Setting up conv1_22
I0130 23:00:36.028251 13865 net.cpp:129] Top shape: 1 32 23 24 (17664)
I0130 23:00:36.028259 13865 net.cpp:137] Memory required for data: 499595744
I0130 23:00:36.028275 13865 layer_factory.hpp:77] Creating layer concat1_22
I0130 23:00:36.028295 13865 net.cpp:84] Creating Layer concat1_22
I0130 23:00:36.028306 13865 net.cpp:406] concat1_22 <- concat1_21_concat1_21_0_split_1
I0130 23:00:36.028318 13865 net.cpp:406] concat1_22 <- conv1_22
I0130 23:00:36.028329 13865 net.cpp:380] concat1_22 -> concat1_22
I0130 23:00:36.028445 13865 net.cpp:122] Setting up concat1_22
I0130 23:00:36.028456 13865 net.cpp:129] Top shape: 1 1248 23 24 (688896)
I0130 23:00:36.028462 13865 net.cpp:137] Memory required for data: 502351328
I0130 23:00:36.028467 13865 layer_factory.hpp:77] Creating layer concat1_22_concat1_22_0_split
I0130 23:00:36.028477 13865 net.cpp:84] Creating Layer concat1_22_concat1_22_0_split
I0130 23:00:36.028483 13865 net.cpp:406] concat1_22_concat1_22_0_split <- concat1_22
I0130 23:00:36.028494 13865 net.cpp:380] concat1_22_concat1_22_0_split -> concat1_22_concat1_22_0_split_0
I0130 23:00:36.028506 13865 net.cpp:380] concat1_22_concat1_22_0_split -> concat1_22_concat1_22_0_split_1
I0130 23:00:36.028684 13865 net.cpp:122] Setting up concat1_22_concat1_22_0_split
I0130 23:00:36.028697 13865 net.cpp:129] Top shape: 1 1248 23 24 (688896)
I0130 23:00:36.028704 13865 net.cpp:129] Top shape: 1 1248 23 24 (688896)
I0130 23:00:36.028709 13865 net.cpp:137] Memory required for data: 507862496
I0130 23:00:36.028715 13865 layer_factory.hpp:77] Creating layer conv1_23/bn
I0130 23:00:36.028725 13865 net.cpp:84] Creating Layer conv1_23/bn
I0130 23:00:36.028745 13865 net.cpp:406] conv1_23/bn <- concat1_22_concat1_22_0_split_0
I0130 23:00:36.028759 13865 net.cpp:380] conv1_23/bn -> conv1_23/bn
I0130 23:00:36.029944 13865 net.cpp:122] Setting up conv1_23/bn
I0130 23:00:36.029961 13865 net.cpp:129] Top shape: 1 1248 23 24 (688896)
I0130 23:00:36.029968 13865 net.cpp:137] Memory required for data: 510618080
I0130 23:00:36.029983 13865 layer_factory.hpp:77] Creating layer conv1_23/scale
I0130 23:00:36.029999 13865 net.cpp:84] Creating Layer conv1_23/scale
I0130 23:00:36.030007 13865 net.cpp:406] conv1_23/scale <- conv1_23/bn
I0130 23:00:36.030016 13865 net.cpp:367] conv1_23/scale -> conv1_23/bn (in-place)
I0130 23:00:36.030186 13865 layer_factory.hpp:77] Creating layer conv1_23/scale
I0130 23:00:36.030787 13865 net.cpp:122] Setting up conv1_23/scale
I0130 23:00:36.030807 13865 net.cpp:129] Top shape: 1 1248 23 24 (688896)
I0130 23:00:36.030812 13865 net.cpp:137] Memory required for data: 513373664
I0130 23:00:36.030824 13865 layer_factory.hpp:77] Creating layer relu1_23
I0130 23:00:36.030835 13865 net.cpp:84] Creating Layer relu1_23
I0130 23:00:36.030843 13865 net.cpp:406] relu1_23 <- conv1_23/bn
I0130 23:00:36.030850 13865 net.cpp:367] relu1_23 -> conv1_23/bn (in-place)
I0130 23:00:36.031296 13865 net.cpp:122] Setting up relu1_23
I0130 23:00:36.031314 13865 net.cpp:129] Top shape: 1 1248 23 24 (688896)
I0130 23:00:36.031322 13865 net.cpp:137] Memory required for data: 516129248
I0130 23:00:36.031328 13865 layer_factory.hpp:77] Creating layer conv1_23
I0130 23:00:36.031349 13865 net.cpp:84] Creating Layer conv1_23
I0130 23:00:36.031359 13865 net.cpp:406] conv1_23 <- conv1_23/bn
I0130 23:00:36.031370 13865 net.cpp:380] conv1_23 -> conv1_23
I0130 23:00:36.056385 13865 net.cpp:122] Setting up conv1_23
I0130 23:00:36.056424 13865 net.cpp:129] Top shape: 1 32 23 24 (17664)
I0130 23:00:36.056432 13865 net.cpp:137] Memory required for data: 516199904
I0130 23:00:36.056447 13865 layer_factory.hpp:77] Creating layer concat1_23
I0130 23:00:36.056463 13865 net.cpp:84] Creating Layer concat1_23
I0130 23:00:36.056473 13865 net.cpp:406] concat1_23 <- concat1_22_concat1_22_0_split_1
I0130 23:00:36.056485 13865 net.cpp:406] concat1_23 <- conv1_23
I0130 23:00:36.056499 13865 net.cpp:380] concat1_23 -> concat1_23
I0130 23:00:36.056612 13865 net.cpp:122] Setting up concat1_23
I0130 23:00:36.056625 13865 net.cpp:129] Top shape: 1 1280 23 24 (706560)
I0130 23:00:36.056666 13865 net.cpp:137] Memory required for data: 519026144
I0130 23:00:36.056673 13865 layer_factory.hpp:77] Creating layer concat1_23_concat1_23_0_split
I0130 23:00:36.056682 13865 net.cpp:84] Creating Layer concat1_23_concat1_23_0_split
I0130 23:00:36.056692 13865 net.cpp:406] concat1_23_concat1_23_0_split <- concat1_23
I0130 23:00:36.056701 13865 net.cpp:380] concat1_23_concat1_23_0_split -> concat1_23_concat1_23_0_split_0
I0130 23:00:36.056713 13865 net.cpp:380] concat1_23_concat1_23_0_split -> concat1_23_concat1_23_0_split_1
I0130 23:00:36.056891 13865 net.cpp:122] Setting up concat1_23_concat1_23_0_split
I0130 23:00:36.056903 13865 net.cpp:129] Top shape: 1 1280 23 24 (706560)
I0130 23:00:36.056911 13865 net.cpp:129] Top shape: 1 1280 23 24 (706560)
I0130 23:00:36.056916 13865 net.cpp:137] Memory required for data: 524678624
I0130 23:00:36.056922 13865 layer_factory.hpp:77] Creating layer conv1_24/bn
I0130 23:00:36.056936 13865 net.cpp:84] Creating Layer conv1_24/bn
I0130 23:00:36.056942 13865 net.cpp:406] conv1_24/bn <- concat1_23_concat1_23_0_split_0
I0130 23:00:36.056951 13865 net.cpp:380] conv1_24/bn -> conv1_24/bn
I0130 23:00:36.058081 13865 net.cpp:122] Setting up conv1_24/bn
I0130 23:00:36.058100 13865 net.cpp:129] Top shape: 1 1280 23 24 (706560)
I0130 23:00:36.058107 13865 net.cpp:137] Memory required for data: 527504864
I0130 23:00:36.058121 13865 layer_factory.hpp:77] Creating layer conv1_24/scale
I0130 23:00:36.058135 13865 net.cpp:84] Creating Layer conv1_24/scale
I0130 23:00:36.058143 13865 net.cpp:406] conv1_24/scale <- conv1_24/bn
I0130 23:00:36.058154 13865 net.cpp:367] conv1_24/scale -> conv1_24/bn (in-place)
I0130 23:00:36.058310 13865 layer_factory.hpp:77] Creating layer conv1_24/scale
I0130 23:00:36.058902 13865 net.cpp:122] Setting up conv1_24/scale
I0130 23:00:36.058917 13865 net.cpp:129] Top shape: 1 1280 23 24 (706560)
I0130 23:00:36.058923 13865 net.cpp:137] Memory required for data: 530331104
I0130 23:00:36.058934 13865 layer_factory.hpp:77] Creating layer relu1_24
I0130 23:00:36.058946 13865 net.cpp:84] Creating Layer relu1_24
I0130 23:00:36.058954 13865 net.cpp:406] relu1_24 <- conv1_24/bn
I0130 23:00:36.058961 13865 net.cpp:367] relu1_24 -> conv1_24/bn (in-place)
I0130 23:00:36.059401 13865 net.cpp:122] Setting up relu1_24
I0130 23:00:36.059418 13865 net.cpp:129] Top shape: 1 1280 23 24 (706560)
I0130 23:00:36.059425 13865 net.cpp:137] Memory required for data: 533157344
I0130 23:00:36.059432 13865 layer_factory.hpp:77] Creating layer conv1_24
I0130 23:00:36.059453 13865 net.cpp:84] Creating Layer conv1_24
I0130 23:00:36.059460 13865 net.cpp:406] conv1_24 <- conv1_24/bn
I0130 23:00:36.059471 13865 net.cpp:380] conv1_24 -> conv1_24
I0130 23:00:36.085430 13865 net.cpp:122] Setting up conv1_24
I0130 23:00:36.085472 13865 net.cpp:129] Top shape: 1 32 23 24 (17664)
I0130 23:00:36.085479 13865 net.cpp:137] Memory required for data: 533228000
I0130 23:00:36.085494 13865 layer_factory.hpp:77] Creating layer concat1_24
I0130 23:00:36.085516 13865 net.cpp:84] Creating Layer concat1_24
I0130 23:00:36.085526 13865 net.cpp:406] concat1_24 <- concat1_23_concat1_23_0_split_1
I0130 23:00:36.085538 13865 net.cpp:406] concat1_24 <- conv1_24
I0130 23:00:36.085548 13865 net.cpp:380] concat1_24 -> concat1_24
I0130 23:00:36.085659 13865 net.cpp:122] Setting up concat1_24
I0130 23:00:36.085671 13865 net.cpp:129] Top shape: 1 1312 23 24 (724224)
I0130 23:00:36.085676 13865 net.cpp:137] Memory required for data: 536124896
I0130 23:00:36.085681 13865 layer_factory.hpp:77] Creating layer concat1_24_concat1_24_0_split
I0130 23:00:36.085690 13865 net.cpp:84] Creating Layer concat1_24_concat1_24_0_split
I0130 23:00:36.085696 13865 net.cpp:406] concat1_24_concat1_24_0_split <- concat1_24
I0130 23:00:36.085706 13865 net.cpp:380] concat1_24_concat1_24_0_split -> concat1_24_concat1_24_0_split_0
I0130 23:00:36.085716 13865 net.cpp:380] concat1_24_concat1_24_0_split -> concat1_24_concat1_24_0_split_1
I0130 23:00:36.085883 13865 net.cpp:122] Setting up concat1_24_concat1_24_0_split
I0130 23:00:36.085896 13865 net.cpp:129] Top shape: 1 1312 23 24 (724224)
I0130 23:00:36.085902 13865 net.cpp:129] Top shape: 1 1312 23 24 (724224)
I0130 23:00:36.085907 13865 net.cpp:137] Memory required for data: 541918688
I0130 23:00:36.085912 13865 layer_factory.hpp:77] Creating layer conv1_25/bn
I0130 23:00:36.085925 13865 net.cpp:84] Creating Layer conv1_25/bn
I0130 23:00:36.085932 13865 net.cpp:406] conv1_25/bn <- concat1_24_concat1_24_0_split_0
I0130 23:00:36.085943 13865 net.cpp:380] conv1_25/bn -> conv1_25/bn
I0130 23:00:36.087052 13865 net.cpp:122] Setting up conv1_25/bn
I0130 23:00:36.087069 13865 net.cpp:129] Top shape: 1 1312 23 24 (724224)
I0130 23:00:36.087077 13865 net.cpp:137] Memory required for data: 544815584
I0130 23:00:36.087093 13865 layer_factory.hpp:77] Creating layer conv1_25/scale
I0130 23:00:36.087111 13865 net.cpp:84] Creating Layer conv1_25/scale
I0130 23:00:36.087118 13865 net.cpp:406] conv1_25/scale <- conv1_25/bn
I0130 23:00:36.087126 13865 net.cpp:367] conv1_25/scale -> conv1_25/bn (in-place)
I0130 23:00:36.087296 13865 layer_factory.hpp:77] Creating layer conv1_25/scale
I0130 23:00:36.087894 13865 net.cpp:122] Setting up conv1_25/scale
I0130 23:00:36.087910 13865 net.cpp:129] Top shape: 1 1312 23 24 (724224)
I0130 23:00:36.087916 13865 net.cpp:137] Memory required for data: 547712480
I0130 23:00:36.087949 13865 layer_factory.hpp:77] Creating layer relu1_25
I0130 23:00:36.087961 13865 net.cpp:84] Creating Layer relu1_25
I0130 23:00:36.087968 13865 net.cpp:406] relu1_25 <- conv1_25/bn
I0130 23:00:36.087976 13865 net.cpp:367] relu1_25 -> conv1_25/bn (in-place)
I0130 23:00:36.090016 13865 net.cpp:122] Setting up relu1_25
I0130 23:00:36.090042 13865 net.cpp:129] Top shape: 1 1312 23 24 (724224)
I0130 23:00:36.090049 13865 net.cpp:137] Memory required for data: 550609376
I0130 23:00:36.090055 13865 layer_factory.hpp:77] Creating layer conv1_25
I0130 23:00:36.090088 13865 net.cpp:84] Creating Layer conv1_25
I0130 23:00:36.090096 13865 net.cpp:406] conv1_25 <- conv1_25/bn
I0130 23:00:36.090107 13865 net.cpp:380] conv1_25 -> conv1_25
I0130 23:00:36.118680 13865 net.cpp:122] Setting up conv1_25
I0130 23:00:36.118724 13865 net.cpp:129] Top shape: 1 32 23 24 (17664)
I0130 23:00:36.118731 13865 net.cpp:137] Memory required for data: 550680032
I0130 23:00:36.118751 13865 layer_factory.hpp:77] Creating layer concat1_25
I0130 23:00:36.118773 13865 net.cpp:84] Creating Layer concat1_25
I0130 23:00:36.118784 13865 net.cpp:406] concat1_25 <- concat1_24_concat1_24_0_split_1
I0130 23:00:36.118795 13865 net.cpp:406] concat1_25 <- conv1_25
I0130 23:00:36.118804 13865 net.cpp:380] concat1_25 -> concat1_25
I0130 23:00:36.118916 13865 net.cpp:122] Setting up concat1_25
I0130 23:00:36.118928 13865 net.cpp:129] Top shape: 1 1344 23 24 (741888)
I0130 23:00:36.118933 13865 net.cpp:137] Memory required for data: 553647584
I0130 23:00:36.118938 13865 layer_factory.hpp:77] Creating layer concat1_25_concat1_25_0_split
I0130 23:00:36.118949 13865 net.cpp:84] Creating Layer concat1_25_concat1_25_0_split
I0130 23:00:36.118955 13865 net.cpp:406] concat1_25_concat1_25_0_split <- concat1_25
I0130 23:00:36.118963 13865 net.cpp:380] concat1_25_concat1_25_0_split -> concat1_25_concat1_25_0_split_0
I0130 23:00:36.118973 13865 net.cpp:380] concat1_25_concat1_25_0_split -> concat1_25_concat1_25_0_split_1
I0130 23:00:36.119143 13865 net.cpp:122] Setting up concat1_25_concat1_25_0_split
I0130 23:00:36.119153 13865 net.cpp:129] Top shape: 1 1344 23 24 (741888)
I0130 23:00:36.119161 13865 net.cpp:129] Top shape: 1 1344 23 24 (741888)
I0130 23:00:36.119166 13865 net.cpp:137] Memory required for data: 559582688
I0130 23:00:36.119171 13865 layer_factory.hpp:77] Creating layer conv1_26/bn
I0130 23:00:36.119184 13865 net.cpp:84] Creating Layer conv1_26/bn
I0130 23:00:36.119191 13865 net.cpp:406] conv1_26/bn <- concat1_25_concat1_25_0_split_0
I0130 23:00:36.119200 13865 net.cpp:380] conv1_26/bn -> conv1_26/bn
I0130 23:00:36.120412 13865 net.cpp:122] Setting up conv1_26/bn
I0130 23:00:36.120429 13865 net.cpp:129] Top shape: 1 1344 23 24 (741888)
I0130 23:00:36.120436 13865 net.cpp:137] Memory required for data: 562550240
I0130 23:00:36.120453 13865 layer_factory.hpp:77] Creating layer conv1_26/scale
I0130 23:00:36.120472 13865 net.cpp:84] Creating Layer conv1_26/scale
I0130 23:00:36.120481 13865 net.cpp:406] conv1_26/scale <- conv1_26/bn
I0130 23:00:36.120491 13865 net.cpp:367] conv1_26/scale -> conv1_26/bn (in-place)
I0130 23:00:36.120678 13865 layer_factory.hpp:77] Creating layer conv1_26/scale
I0130 23:00:36.121299 13865 net.cpp:122] Setting up conv1_26/scale
I0130 23:00:36.121315 13865 net.cpp:129] Top shape: 1 1344 23 24 (741888)
I0130 23:00:36.121322 13865 net.cpp:137] Memory required for data: 565517792
I0130 23:00:36.121333 13865 layer_factory.hpp:77] Creating layer relu1_26
I0130 23:00:36.121345 13865 net.cpp:84] Creating Layer relu1_26
I0130 23:00:36.121353 13865 net.cpp:406] relu1_26 <- conv1_26/bn
I0130 23:00:36.121361 13865 net.cpp:367] relu1_26 -> conv1_26/bn (in-place)
I0130 23:00:36.121834 13865 net.cpp:122] Setting up relu1_26
I0130 23:00:36.121850 13865 net.cpp:129] Top shape: 1 1344 23 24 (741888)
I0130 23:00:36.121855 13865 net.cpp:137] Memory required for data: 568485344
I0130 23:00:36.121861 13865 layer_factory.hpp:77] Creating layer conv1_26
I0130 23:00:36.121882 13865 net.cpp:84] Creating Layer conv1_26
I0130 23:00:36.121889 13865 net.cpp:406] conv1_26 <- conv1_26/bn
I0130 23:00:36.121902 13865 net.cpp:380] conv1_26 -> conv1_26
I0130 23:00:36.149382 13865 net.cpp:122] Setting up conv1_26
I0130 23:00:36.149435 13865 net.cpp:129] Top shape: 1 32 23 24 (17664)
I0130 23:00:36.149443 13865 net.cpp:137] Memory required for data: 568556000
I0130 23:00:36.149467 13865 layer_factory.hpp:77] Creating layer concat1_26
I0130 23:00:36.149488 13865 net.cpp:84] Creating Layer concat1_26
I0130 23:00:36.149499 13865 net.cpp:406] concat1_26 <- concat1_25_concat1_25_0_split_1
I0130 23:00:36.149514 13865 net.cpp:406] concat1_26 <- conv1_26
I0130 23:00:36.149526 13865 net.cpp:380] concat1_26 -> concat1_26
I0130 23:00:36.149641 13865 net.cpp:122] Setting up concat1_26
I0130 23:00:36.149655 13865 net.cpp:129] Top shape: 1 1376 23 24 (759552)
I0130 23:00:36.149660 13865 net.cpp:137] Memory required for data: 571594208
I0130 23:00:36.149667 13865 layer_factory.hpp:77] Creating layer concat1_26_concat1_26_0_split
I0130 23:00:36.149679 13865 net.cpp:84] Creating Layer concat1_26_concat1_26_0_split
I0130 23:00:36.149686 13865 net.cpp:406] concat1_26_concat1_26_0_split <- concat1_26
I0130 23:00:36.149694 13865 net.cpp:380] concat1_26_concat1_26_0_split -> concat1_26_concat1_26_0_split_0
I0130 23:00:36.149706 13865 net.cpp:380] concat1_26_concat1_26_0_split -> concat1_26_concat1_26_0_split_1
I0130 23:00:36.149885 13865 net.cpp:122] Setting up concat1_26_concat1_26_0_split
I0130 23:00:36.149897 13865 net.cpp:129] Top shape: 1 1376 23 24 (759552)
I0130 23:00:36.149904 13865 net.cpp:129] Top shape: 1 1376 23 24 (759552)
I0130 23:00:36.149910 13865 net.cpp:137] Memory required for data: 577670624
I0130 23:00:36.149915 13865 layer_factory.hpp:77] Creating layer conv1_27/bn
I0130 23:00:36.149930 13865 net.cpp:84] Creating Layer conv1_27/bn
I0130 23:00:36.149936 13865 net.cpp:406] conv1_27/bn <- concat1_26_concat1_26_0_split_0
I0130 23:00:36.149947 13865 net.cpp:380] conv1_27/bn -> conv1_27/bn
I0130 23:00:36.151175 13865 net.cpp:122] Setting up conv1_27/bn
I0130 23:00:36.151191 13865 net.cpp:129] Top shape: 1 1376 23 24 (759552)
I0130 23:00:36.151198 13865 net.cpp:137] Memory required for data: 580708832
I0130 23:00:36.151214 13865 layer_factory.hpp:77] Creating layer conv1_27/scale
I0130 23:00:36.151232 13865 net.cpp:84] Creating Layer conv1_27/scale
I0130 23:00:36.151242 13865 net.cpp:406] conv1_27/scale <- conv1_27/bn
I0130 23:00:36.151252 13865 net.cpp:367] conv1_27/scale -> conv1_27/bn (in-place)
I0130 23:00:36.151425 13865 layer_factory.hpp:77] Creating layer conv1_27/scale
I0130 23:00:36.152051 13865 net.cpp:122] Setting up conv1_27/scale
I0130 23:00:36.152070 13865 net.cpp:129] Top shape: 1 1376 23 24 (759552)
I0130 23:00:36.152076 13865 net.cpp:137] Memory required for data: 583747040
I0130 23:00:36.152086 13865 layer_factory.hpp:77] Creating layer relu1_27
I0130 23:00:36.152096 13865 net.cpp:84] Creating Layer relu1_27
I0130 23:00:36.152103 13865 net.cpp:406] relu1_27 <- conv1_27/bn
I0130 23:00:36.152115 13865 net.cpp:367] relu1_27 -> conv1_27/bn (in-place)
I0130 23:00:36.152560 13865 net.cpp:122] Setting up relu1_27
I0130 23:00:36.152575 13865 net.cpp:129] Top shape: 1 1376 23 24 (759552)
I0130 23:00:36.152580 13865 net.cpp:137] Memory required for data: 586785248
I0130 23:00:36.152586 13865 layer_factory.hpp:77] Creating layer conv1_27
I0130 23:00:36.152606 13865 net.cpp:84] Creating Layer conv1_27
I0130 23:00:36.152613 13865 net.cpp:406] conv1_27 <- conv1_27/bn
I0130 23:00:36.152624 13865 net.cpp:380] conv1_27 -> conv1_27
I0130 23:00:36.179965 13865 net.cpp:122] Setting up conv1_27
I0130 23:00:36.180012 13865 net.cpp:129] Top shape: 1 32 23 24 (17664)
I0130 23:00:36.180021 13865 net.cpp:137] Memory required for data: 586855904
I0130 23:00:36.180037 13865 layer_factory.hpp:77] Creating layer concat1_27
I0130 23:00:36.180058 13865 net.cpp:84] Creating Layer concat1_27
I0130 23:00:36.180068 13865 net.cpp:406] concat1_27 <- concat1_26_concat1_26_0_split_1
I0130 23:00:36.180080 13865 net.cpp:406] concat1_27 <- conv1_27
I0130 23:00:36.180090 13865 net.cpp:380] concat1_27 -> concat1_27
I0130 23:00:36.180202 13865 net.cpp:122] Setting up concat1_27
I0130 23:00:36.180219 13865 net.cpp:129] Top shape: 1 1408 23 24 (777216)
I0130 23:00:36.180227 13865 net.cpp:137] Memory required for data: 589964768
I0130 23:00:36.180233 13865 layer_factory.hpp:77] Creating layer concat1_27_concat1_27_0_split
I0130 23:00:36.180250 13865 net.cpp:84] Creating Layer concat1_27_concat1_27_0_split
I0130 23:00:36.180258 13865 net.cpp:406] concat1_27_concat1_27_0_split <- concat1_27
I0130 23:00:36.180268 13865 net.cpp:380] concat1_27_concat1_27_0_split -> concat1_27_concat1_27_0_split_0
I0130 23:00:36.180279 13865 net.cpp:380] concat1_27_concat1_27_0_split -> concat1_27_concat1_27_0_split_1
I0130 23:00:36.180449 13865 net.cpp:122] Setting up concat1_27_concat1_27_0_split
I0130 23:00:36.180461 13865 net.cpp:129] Top shape: 1 1408 23 24 (777216)
I0130 23:00:36.180470 13865 net.cpp:129] Top shape: 1 1408 23 24 (777216)
I0130 23:00:36.180476 13865 net.cpp:137] Memory required for data: 596182496
I0130 23:00:36.180481 13865 layer_factory.hpp:77] Creating layer conv1_28/bn
I0130 23:00:36.180492 13865 net.cpp:84] Creating Layer conv1_28/bn
I0130 23:00:36.180500 13865 net.cpp:406] conv1_28/bn <- concat1_27_concat1_27_0_split_0
I0130 23:00:36.180514 13865 net.cpp:380] conv1_28/bn -> conv1_28/bn
I0130 23:00:36.181691 13865 net.cpp:122] Setting up conv1_28/bn
I0130 23:00:36.181708 13865 net.cpp:129] Top shape: 1 1408 23 24 (777216)
I0130 23:00:36.181715 13865 net.cpp:137] Memory required for data: 599291360
I0130 23:00:36.181727 13865 layer_factory.hpp:77] Creating layer conv1_28/scale
I0130 23:00:36.181740 13865 net.cpp:84] Creating Layer conv1_28/scale
I0130 23:00:36.181748 13865 net.cpp:406] conv1_28/scale <- conv1_28/bn
I0130 23:00:36.181759 13865 net.cpp:367] conv1_28/scale -> conv1_28/bn (in-place)
I0130 23:00:36.181915 13865 layer_factory.hpp:77] Creating layer conv1_28/scale
I0130 23:00:36.182516 13865 net.cpp:122] Setting up conv1_28/scale
I0130 23:00:36.182533 13865 net.cpp:129] Top shape: 1 1408 23 24 (777216)
I0130 23:00:36.182540 13865 net.cpp:137] Memory required for data: 602400224
I0130 23:00:36.182551 13865 layer_factory.hpp:77] Creating layer relu1_28
I0130 23:00:36.182564 13865 net.cpp:84] Creating Layer relu1_28
I0130 23:00:36.182571 13865 net.cpp:406] relu1_28 <- conv1_28/bn
I0130 23:00:36.182580 13865 net.cpp:367] relu1_28 -> conv1_28/bn (in-place)
I0130 23:00:36.184571 13865 net.cpp:122] Setting up relu1_28
I0130 23:00:36.184590 13865 net.cpp:129] Top shape: 1 1408 23 24 (777216)
I0130 23:00:36.184597 13865 net.cpp:137] Memory required for data: 605509088
I0130 23:00:36.184603 13865 layer_factory.hpp:77] Creating layer conv1_28
I0130 23:00:36.184623 13865 net.cpp:84] Creating Layer conv1_28
I0130 23:00:36.184638 13865 net.cpp:406] conv1_28 <- conv1_28/bn
I0130 23:00:36.184653 13865 net.cpp:380] conv1_28 -> conv1_28
I0130 23:00:36.211848 13865 net.cpp:122] Setting up conv1_28
I0130 23:00:36.211891 13865 net.cpp:129] Top shape: 1 32 23 24 (17664)
I0130 23:00:36.211899 13865 net.cpp:137] Memory required for data: 605579744
I0130 23:00:36.211912 13865 layer_factory.hpp:77] Creating layer concat1_28
I0130 23:00:36.211930 13865 net.cpp:84] Creating Layer concat1_28
I0130 23:00:36.211940 13865 net.cpp:406] concat1_28 <- concat1_27_concat1_27_0_split_1
I0130 23:00:36.211951 13865 net.cpp:406] concat1_28 <- conv1_28
I0130 23:00:36.211963 13865 net.cpp:380] concat1_28 -> concat1_28
I0130 23:00:36.212075 13865 net.cpp:122] Setting up concat1_28
I0130 23:00:36.212090 13865 net.cpp:129] Top shape: 1 1440 23 24 (794880)
I0130 23:00:36.212097 13865 net.cpp:137] Memory required for data: 608759264
I0130 23:00:36.212103 13865 layer_factory.hpp:77] Creating layer concat1_28_concat1_28_0_split
I0130 23:00:36.212116 13865 net.cpp:84] Creating Layer concat1_28_concat1_28_0_split
I0130 23:00:36.212124 13865 net.cpp:406] concat1_28_concat1_28_0_split <- concat1_28
I0130 23:00:36.212136 13865 net.cpp:380] concat1_28_concat1_28_0_split -> concat1_28_concat1_28_0_split_0
I0130 23:00:36.212146 13865 net.cpp:380] concat1_28_concat1_28_0_split -> concat1_28_concat1_28_0_split_1
I0130 23:00:36.212308 13865 net.cpp:122] Setting up concat1_28_concat1_28_0_split
I0130 23:00:36.212321 13865 net.cpp:129] Top shape: 1 1440 23 24 (794880)
I0130 23:00:36.212327 13865 net.cpp:129] Top shape: 1 1440 23 24 (794880)
I0130 23:00:36.212332 13865 net.cpp:137] Memory required for data: 615118304
I0130 23:00:36.212344 13865 layer_factory.hpp:77] Creating layer conv1_29/bn
I0130 23:00:36.212357 13865 net.cpp:84] Creating Layer conv1_29/bn
I0130 23:00:36.212363 13865 net.cpp:406] conv1_29/bn <- concat1_28_concat1_28_0_split_0
I0130 23:00:36.212373 13865 net.cpp:380] conv1_29/bn -> conv1_29/bn
I0130 23:00:36.213544 13865 net.cpp:122] Setting up conv1_29/bn
I0130 23:00:36.213562 13865 net.cpp:129] Top shape: 1 1440 23 24 (794880)
I0130 23:00:36.213567 13865 net.cpp:137] Memory required for data: 618297824
I0130 23:00:36.213580 13865 layer_factory.hpp:77] Creating layer conv1_29/scale
I0130 23:00:36.213598 13865 net.cpp:84] Creating Layer conv1_29/scale
I0130 23:00:36.213605 13865 net.cpp:406] conv1_29/scale <- conv1_29/bn
I0130 23:00:36.213618 13865 net.cpp:367] conv1_29/scale -> conv1_29/bn (in-place)
I0130 23:00:36.213789 13865 layer_factory.hpp:77] Creating layer conv1_29/scale
I0130 23:00:36.214402 13865 net.cpp:122] Setting up conv1_29/scale
I0130 23:00:36.214418 13865 net.cpp:129] Top shape: 1 1440 23 24 (794880)
I0130 23:00:36.214424 13865 net.cpp:137] Memory required for data: 621477344
I0130 23:00:36.214434 13865 layer_factory.hpp:77] Creating layer relu1_29
I0130 23:00:36.214445 13865 net.cpp:84] Creating Layer relu1_29
I0130 23:00:36.214452 13865 net.cpp:406] relu1_29 <- conv1_29/bn
I0130 23:00:36.214459 13865 net.cpp:367] relu1_29 -> conv1_29/bn (in-place)
I0130 23:00:36.214889 13865 net.cpp:122] Setting up relu1_29
I0130 23:00:36.214902 13865 net.cpp:129] Top shape: 1 1440 23 24 (794880)
I0130 23:00:36.214908 13865 net.cpp:137] Memory required for data: 624656864
I0130 23:00:36.214915 13865 layer_factory.hpp:77] Creating layer conv1_29
I0130 23:00:36.214934 13865 net.cpp:84] Creating Layer conv1_29
I0130 23:00:36.214942 13865 net.cpp:406] conv1_29 <- conv1_29/bn
I0130 23:00:36.214952 13865 net.cpp:380] conv1_29 -> conv1_29
I0130 23:00:36.242758 13865 net.cpp:122] Setting up conv1_29
I0130 23:00:36.242802 13865 net.cpp:129] Top shape: 1 32 23 24 (17664)
I0130 23:00:36.242810 13865 net.cpp:137] Memory required for data: 624727520
I0130 23:00:36.242823 13865 layer_factory.hpp:77] Creating layer concat1_29
I0130 23:00:36.242841 13865 net.cpp:84] Creating Layer concat1_29
I0130 23:00:36.242851 13865 net.cpp:406] concat1_29 <- concat1_28_concat1_28_0_split_1
I0130 23:00:36.242861 13865 net.cpp:406] concat1_29 <- conv1_29
I0130 23:00:36.242874 13865 net.cpp:380] concat1_29 -> concat1_29
I0130 23:00:36.242988 13865 net.cpp:122] Setting up concat1_29
I0130 23:00:36.243002 13865 net.cpp:129] Top shape: 1 1472 23 24 (812544)
I0130 23:00:36.243007 13865 net.cpp:137] Memory required for data: 627977696
I0130 23:00:36.243013 13865 layer_factory.hpp:77] Creating layer tpp5
I0130 23:00:36.243026 13865 net.cpp:84] Creating Layer tpp5
I0130 23:00:36.243033 13865 net.cpp:406] tpp5 <- concat1_29
I0130 23:00:36.243042 13865 net.cpp:380] tpp5 -> tpp5
I0130 23:00:36.245301 13865 net.cpp:122] Setting up tpp5
I0130 23:00:36.245321 13865 net.cpp:129] Top shape: 1 22080 (22080)
I0130 23:00:36.245327 13865 net.cpp:137] Memory required for data: 628066016
I0130 23:00:36.245333 13865 layer_factory.hpp:77] Creating layer reshape
I0130 23:00:36.245347 13865 net.cpp:84] Creating Layer reshape
I0130 23:00:36.245353 13865 net.cpp:406] reshape <- tpp5
I0130 23:00:36.245362 13865 net.cpp:380] reshape -> reshape
I0130 23:00:36.245463 13865 net.cpp:122] Setting up reshape
I0130 23:00:36.245476 13865 net.cpp:129] Top shape: 1 2760 8 1 (22080)
I0130 23:00:36.245481 13865 net.cpp:137] Memory required for data: 628154336
I0130 23:00:36.245487 13865 layer_factory.hpp:77] Creating layer premax
I0130 23:00:36.245501 13865 net.cpp:84] Creating Layer premax
I0130 23:00:36.245508 13865 net.cpp:406] premax <- reshape
I0130 23:00:36.245517 13865 net.cpp:380] premax -> premax
I0130 23:00:36.246014 13865 net.cpp:122] Setting up premax
I0130 23:00:36.246031 13865 net.cpp:129] Top shape: 1 2760 8 1 (22080)
I0130 23:00:36.246037 13865 net.cpp:137] Memory required for data: 628242656
I0130 23:00:36.246047 13865 layer_factory.hpp:77] Creating layer maxout
I0130 23:00:36.246063 13865 net.cpp:84] Creating Layer maxout
I0130 23:00:36.246070 13865 net.cpp:406] maxout <- premax
I0130 23:00:36.246081 13865 net.cpp:380] maxout -> maxout
I0130 23:00:36.246245 13865 net.cpp:122] Setting up maxout
I0130 23:00:36.246258 13865 net.cpp:129] Top shape: 1 2760 1 1 (2760)
I0130 23:00:36.246263 13865 net.cpp:137] Memory required for data: 628253696
I0130 23:00:36.246268 13865 layer_factory.hpp:77] Creating layer fc6_d
I0130 23:00:36.246279 13865 net.cpp:84] Creating Layer fc6_d
I0130 23:00:36.246284 13865 net.cpp:406] fc6_d <- maxout
I0130 23:00:36.246292 13865 net.cpp:380] fc6_d -> fc6_d
I0130 23:00:36.834744 13865 net.cpp:122] Setting up fc6_d
I0130 23:00:36.834801 13865 net.cpp:129] Top shape: 1 4096 (4096)
I0130 23:00:36.834810 13865 net.cpp:137] Memory required for data: 628270080
I0130 23:00:36.834827 13865 layer_factory.hpp:77] Creating layer relu6
I0130 23:00:36.834847 13865 net.cpp:84] Creating Layer relu6
I0130 23:00:36.834858 13865 net.cpp:406] relu6 <- fc6_d
I0130 23:00:36.834870 13865 net.cpp:367] relu6 -> fc6_d (in-place)
I0130 23:00:36.835449 13865 net.cpp:122] Setting up relu6
I0130 23:00:36.835464 13865 net.cpp:129] Top shape: 1 4096 (4096)
I0130 23:00:36.835470 13865 net.cpp:137] Memory required for data: 628286464
I0130 23:00:36.835476 13865 layer_factory.hpp:77] Creating layer fc7_d
I0130 23:00:36.835491 13865 net.cpp:84] Creating Layer fc7_d
I0130 23:00:36.835499 13865 net.cpp:406] fc7_d <- fc6_d
I0130 23:00:36.835510 13865 net.cpp:380] fc7_d -> fc7_d
I0130 23:00:37.703714 13865 net.cpp:122] Setting up fc7_d
I0130 23:00:37.703768 13865 net.cpp:129] Top shape: 1 4096 (4096)
I0130 23:00:37.703775 13865 net.cpp:137] Memory required for data: 628302848
I0130 23:00:37.703794 13865 layer_factory.hpp:77] Creating layer relu7
I0130 23:00:37.703811 13865 net.cpp:84] Creating Layer relu7
I0130 23:00:37.703822 13865 net.cpp:406] relu7 <- fc7_d
I0130 23:00:37.703835 13865 net.cpp:367] relu7 -> fc7_d (in-place)
I0130 23:00:37.706357 13865 net.cpp:122] Setting up relu7
I0130 23:00:37.706379 13865 net.cpp:129] Top shape: 1 4096 (4096)
I0130 23:00:37.706387 13865 net.cpp:137] Memory required for data: 628319232
I0130 23:00:37.706393 13865 layer_factory.hpp:77] Creating layer fc8_d
I0130 23:00:37.706406 13865 net.cpp:84] Creating Layer fc8_d
I0130 23:00:37.706413 13865 net.cpp:406] fc8_d <- fc7_d
I0130 23:00:37.706423 13865 net.cpp:380] fc8_d -> fc8_d
I0130 23:00:37.838876 13865 net.cpp:122] Setting up fc8_d
I0130 23:00:37.838933 13865 net.cpp:129] Top shape: 1 618 (618)
I0130 23:00:37.838941 13865 net.cpp:137] Memory required for data: 628321704
I0130 23:00:37.838959 13865 layer_factory.hpp:77] Creating layer fc8_d_fc8_d_0_split
I0130 23:00:37.838982 13865 net.cpp:84] Creating Layer fc8_d_fc8_d_0_split
I0130 23:00:37.838992 13865 net.cpp:406] fc8_d_fc8_d_0_split <- fc8_d
I0130 23:00:37.839006 13865 net.cpp:380] fc8_d_fc8_d_0_split -> fc8_d_fc8_d_0_split_0
I0130 23:00:37.839022 13865 net.cpp:380] fc8_d_fc8_d_0_split -> fc8_d_fc8_d_0_split_1
I0130 23:00:37.839205 13865 net.cpp:122] Setting up fc8_d_fc8_d_0_split
I0130 23:00:37.839216 13865 net.cpp:129] Top shape: 1 618 (618)
I0130 23:00:37.839224 13865 net.cpp:129] Top shape: 1 618 (618)
I0130 23:00:37.839229 13865 net.cpp:137] Memory required for data: 628326648
I0130 23:00:37.839236 13865 layer_factory.hpp:77] Creating layer sigmoid
I0130 23:00:37.839257 13865 net.cpp:84] Creating Layer sigmoid
I0130 23:00:37.839263 13865 net.cpp:406] sigmoid <- fc8_d_fc8_d_0_split_0
I0130 23:00:37.839272 13865 net.cpp:380] sigmoid -> sigmoid
I0130 23:00:37.839892 13865 net.cpp:122] Setting up sigmoid
I0130 23:00:37.839910 13865 net.cpp:129] Top shape: 1 618 (618)
I0130 23:00:37.839916 13865 net.cpp:137] Memory required for data: 628329120
I0130 23:00:37.839922 13865 layer_factory.hpp:77] Creating layer silence
I0130 23:00:37.839936 13865 net.cpp:84] Creating Layer silence
I0130 23:00:37.839941 13865 net.cpp:406] silence <- sigmoid
I0130 23:00:37.839949 13865 net.cpp:122] Setting up silence
I0130 23:00:37.839954 13865 net.cpp:137] Memory required for data: 628329120
…
