…
  phase: TRAIN
}
layer {
  name: "word_images"
  type: "Data"
  top: "word_images"
  top: "label"
  transform_param {
    scale: -0.0039215689
    mean_value: 255
  }
  data_param {
    source: "/data/fwolf/iam_50000/iam-db_nti500000_pul2-3-4-5_train_word_images_lmdb"
    batch_size: 1
    backend: LMDB
    prefetch: 20
  }
}
layer {
  name: "phocs"
  type: "Data"
  top: "phocs"
  top: "label_phocs"
  data_param {
    source: "/data/fwolf/iam_50000/iam-db_nti500000_pul2-3-4-5_train_phocs_lmdb"
    batch_size: 1
    backend: LMDB
    prefetch: 20
  }
}
layer {
  name: "conv_init"
  type: "Convolution"
  bottom: "word_images"
  top: "conv_init"
  convolution_param {
    num_output: 32
    bias_term: false
    pad: 1
    kernel_size: 3
    stride: 1
    weight_filler {
      type: "msra"
    }
    bias_filler {
      type: "constant"
    }
    engine: CUDNN
  }
}
layer {
  name: "bn_init"
  type: "BatchNorm"
  bottom: "conv_init"
  top: "bn_init"
  param {
    lr_mult: 0
    decay_mult: 0
  }
  param {
    lr_mult: 0
    decay_mult: 0
  }
  param {
    lr_mult: 0
    decay_mult: 0
  }
  batch_norm_param {
    eps: 1e-05
  }
}
layer {
  name: "scale_init"
  type: "Scale"
  bottom: "bn_init"
  top: "bn_init"
  scale_param {
    filler {
      value: 1
    }
    bias_term: true
    bias_filler {
      value: 0
    }
  }
}
layer {
  name: "relu_init"
  type: "ReLU"
  bottom: "bn_init"
  top: "bn_init"
}
layer {
  name: "pool_init"
  type: "Pooling"
  bottom: "bn_init"
  top: "pool_init"
  pooling_param {
    pool: MAX
    kernel_size: 3
    stride: 2
    pad: 1
  }
}
layer {
  name: "conv0_0/bn"
  type: "BatchNorm"
  bottom: "pool_init"
  top: "conv0_0/bn"
  param {
    lr_mult: 0
    decay_mult: 0
  }
  param {
    lr_mult: 0
    decay_mult: 0
  }
  param {
    lr_mult: 0
    decay_mult: 0
  }
}
layer {
  name: "conv0_0/scale"
  type: "Scale"
  bottom: "conv0_0/bn"
  top: "conv0_0/bn"
  scale_param {
    filler {
      value: 1
    }
    bias_term: true
    bias_filler {
      value: 0
    }
  }
}
layer {
  name: "relu0_0"
  type: "ReLU"
  bottom: "conv0_0/bn"
  top: "conv0_0/bn"
}
layer {
  name: "conv0_0"
  type: "Convolution"
  bottom: "conv0_0/bn"
  top: "conv0_0"
  convolution_param {
    num_output: 32
    bias_term: false
    pad: 1
    kernel_size: 3
    stride: 1
    weight_filler {
      type: "msra"
    }
    bias_filler {
      type: "constant"
    }
    engine: CUDNN
  }
}
layer {
  name: "concat0_0"
  type: "Concat"
  bottom: "pool_init"
  bottom: "conv0_0"
  top: "concat0_0"
  concat_param {
    axis: 1
  }
}
layer {
  name: "conv0_1/bn"
  type: "BatchNorm"
  bottom: "concat0_0"
  top: "conv0_1/bn"
  param {
    lr_mult: 0
    decay_mult: 0
  }
  param {
    lr_mult: 0
    decay_mult: 0
  }
  param {
    lr_mult: 0
    decay_mult: 0
  }
}
layer {
  name: "conv0_1/scale"
  type: "Scale"
  bottom: "conv0_1/bn"
  top: "conv0_1/bn"
  scale_param {
    filler {
      value: 1
    }
    bias_term: true
    bias_filler {
      value: 0
    }
  }
}
layer {
  name: "relu0_1"
  type: "ReLU"
  bottom: "conv0_1/bn"
  top: "conv0_1/bn"
}
layer {
  name: "conv0_1"
  type: "Convolution"
  bottom: "conv0_1/bn"
  top: "conv0_1"
  convolution_param {
    num_output: 32
    bias_term: false
    pad: 1
    kernel_size: 3
    stride: 1
    weight_filler {
      type: "msra"
    }
    bias_filler {
      type: "constant"
    }
    engine: CUDNN
  }
}
layer {
  name: "concat0_1"
  type: "Concat"
  bottom: "concat0_0"
  bottom: "conv0_1"
  top: "concat0_1"
  concat_param {
    axis: 1
  }
}
layer {
  name: "conv0_2/bn"
  type: "BatchNorm"
  bottom: "concat0_1"
  top: "conv0_2/bn"
  param {
    lr_mult: 0
    decay_mult: 0
  }
  param {
    lr_mult: 0
    decay_mult: 0
  }
  param {
    lr_mult: 0
    decay_mult: 0
  }
}
layer {
  name: "conv0_2/scale"
  type: "Scale"
  bottom: "conv0_2/bn"
  top: "conv0_2/bn"
  scale_param {
    filler {
      value: 1
    }
    bias_term: true
    bias_filler {
      value: 0
    }
  }
}
layer {
  name: "relu0_2"
  type: "ReLU"
  bottom: "conv0_2/bn"
  top: "conv0_2/bn"
}
layer {
  name: "conv0_2"
  type: "Convolution"
  bottom: "conv0_2/bn"
  top: "conv0_2"
  convolution_param {
    num_output: 32
    bias_term: false
    pad: 1
    kernel_size: 3
    stride: 1
    weight_filler {
      type: "msra"
    }
    bias_filler {
      type: "constant"
    }
    engine: CUDNN
  }
}
layer {
  name: "concat0_2"
  type: "Concat"
  bottom: "concat0_1"
  bottom: "conv0_2"
  top: "concat0_2"
  concat_param {
    axis: 1
  }
}
layer {
  name: "conv0_3/bn"
  type: "BatchNorm"
  bottom: "concat0_2"
  top: "conv0_3/bn"
  param {
    lr_mult: 0
    decay_mult: 0
  }
  param {
    lr_mult: 0
    decay_mult: 0
  }
  param {
    lr_mult: 0
    decay_mult: 0
  }
}
layer {
  name: "conv0_3/scale"
  type: "Scale"
  bottom: "conv0_3/bn"
  top: "conv0_3/bn"
  scale_param {
    filler {
      value: 1
    }
    bias_term: true
    bias_filler {
      value: 0
    }
  }
}
layer {
  name: "relu0_3"
  type: "ReLU"
  bottom: "conv0_3/bn"
  top: "conv0_3/bn"
}
layer {
  name: "conv0_3"
  type: "Convolution"
  bottom: "conv0_3/bn"
  top: "conv0_3"
  convolution_param {
    num_output: 32
    bias_term: false
    pad: 1
    kernel_size: 3
    stride: 1
    weight_filler {
      type: "msra"
    }
    bias_filler {
      type: "constant"
    }
    engine: CUDNN
  }
}
layer {
  name: "concat0_3"
  type: "Concat"
  bottom: "concat0_2"
  bottom: "conv0_3"
  top: "concat0_3"
  concat_param {
    axis: 1
  }
}
layer {
  name: "conv0_4/bn"
  type: "BatchNorm"
  bottom: "concat0_3"
  top: "conv0_4/bn"
  param {
    lr_mult: 0
    decay_mult: 0
  }
  param {
    lr_mult: 0
    decay_mult: 0
  }
  param {
    lr_mult: 0
    decay_mult: 0
  }
}
layer {
  name: "conv0_4/scale"
  type: "Scale"
  bottom: "conv0_4/bn"
  top: "conv0_4/bn"
  scale_param {
    filler {
      value: 1
    }
    bias_term: true
    bias_filler {
      value: 0
    }
  }
}
layer {
  name: "relu0_4"
  type: "ReLU"
  bottom: "conv0_4/bn"
  top: "conv0_4/bn"
}
layer {
  name: "conv0_4"
  type: "Convolution"
  bottom: "conv0_4/bn"
  top: "conv0_4"
  convolution_param {
    num_output: 32
    bias_term: false
    pad: 1
    kernel_size: 3
    stride: 1
    weight_filler {
      type: "msra"
    }
    bias_filler {
      type: "constant"
    }
    engine: CUDNN
  }
}
layer {
  name: "concat0_4"
  type: "Concat"
  bottom: "concat0_3"
  bottom: "conv0_4"
  top: "concat0_4"
  concat_param {
    axis: 1
  }
}
layer {
  name: "conv0_5/bn"
  type: "BatchNorm"
  bottom: "concat0_4"
  top: "conv0_5/bn"
  param {
    lr_mult: 0
    decay_mult: 0
  }
  param {
    lr_mult: 0
    decay_mult: 0
  }
  param {
    lr_mult: 0
    decay_mult: 0
  }
}
layer {
  name: "conv0_5/scale"
  type: "Scale"
  bottom: "conv0_5/bn"
  top: "conv0_5/bn"
  scale_param {
    filler {
      value: 1
    }
    bias_term: true
    bias_filler {
      value: 0
    }
  }
}
layer {
  name: "relu0_5"
  type: "ReLU"
  bottom: "conv0_5/bn"
  top: "conv0_5/bn"
}
layer {
  name: "conv0_5"
  type: "Convolution"
  bottom: "conv0_5/bn"
  top: "conv0_5"
  convolution_param {
    num_output: 32
    bias_term: false
    pad: 1
    kernel_size: 3
    stride: 1
    weight_filler {
      type: "msra"
    }
    bias_filler {
      type: "constant"
    }
    engine: CUDNN
  }
}
layer {
  name: "concat0_5"
  type: "Concat"
  bottom: "concat0_4"
  bottom: "conv0_5"
  top: "concat0_5"
  concat_param {
    axis: 1
  }
}
layer {
  name: "conv0_6/bn"
  type: "BatchNorm"
  bottom: "concat0_5"
  top: "conv0_6/bn"
  param {
    lr_mult: 0
    decay_mult: 0
  }
  param {
    lr_mult: 0
    decay_mult: 0
  }
  param {
    lr_mult: 0
    decay_mult: 0
  }
}
layer {
  name: "conv0_6/scale"
  type: "Scale"
  bottom: "conv0_6/bn"
  top: "conv0_6/bn"
  scale_param {
    filler {
      value: 1
    }
    bias_term: true
    bias_filler {
      value: 0
    }
  }
}
layer {
  name: "relu0_6"
  type: "ReLU"
  bottom: "conv0_6/bn"
  top: "conv0_6/bn"
}
layer {
  name: "conv0_6"
  type: "Convolution"
  bottom: "conv0_6/bn"
  top: "conv0_6"
  convolution_param {
    num_output: 32
    bias_term: false
    pad: 1
    kernel_size: 3
    stride: 1
    weight_filler {
      type: "msra"
    }
    bias_filler {
      type: "constant"
    }
    engine: CUDNN
  }
}
layer {
  name: "concat0_6"
  type: "Concat"
  bottom: "concat0_5"
  bottom: "conv0_6"
  top: "concat0_6"
  concat_param {
    axis: 1
  }
}
layer {
  name: "conv0_7/bn"
  type: "BatchNorm"
  bottom: "concat0_6"
  top: "conv0_7/bn"
  param {
    lr_mult: 0
    decay_mult: 0
  }
  param {
    lr_mult: 0
    decay_mult: 0
  }
  param {
    lr_mult: 0
    decay_mult: 0
  }
}
layer {
  name: "conv0_7/scale"
  type: "Scale"
  bottom: "conv0_7/bn"
  top: "conv0_7/bn"
  scale_param {
    filler {
      value: 1
    }
    bias_term: true
    bias_filler {
      value: 0
    }
  }
}
layer {
  name: "relu0_7"
  type: "ReLU"
  bottom: "conv0_7/bn"
  top: "conv0_7/bn"
}
layer {
  name: "conv0_7"
  type: "Convolution"
  bottom: "conv0_7/bn"
  top: "conv0_7"
  convolution_param {
    num_output: 32
    bias_term: false
    pad: 1
    kernel_size: 3
    stride: 1
    weight_filler {
      type: "msra"
    }
    bias_filler {
      type: "constant"
    }
    engine: CUDNN
  }
}
layer {
  name: "concat0_7"
  type: "Concat"
  bottom: "concat0_6"
  bottom: "conv0_7"
  top: "concat0_7"
  concat_param {
    axis: 1
  }
}
layer {
  name: "conv0_8/bn"
  type: "BatchNorm"
  bottom: "concat0_7"
  top: "conv0_8/bn"
  param {
    lr_mult: 0
    decay_mult: 0
  }
  param {
    lr_mult: 0
    decay_mult: 0
  }
  param {
    lr_mult: 0
    decay_mult: 0
  }
}
layer {
  name: "conv0_8/scale"
  type: "Scale"
  bottom: "conv0_8/bn"
  top: "conv0_8/bn"
  scale_param {
    filler {
      value: 1
    }
    bias_term: true
    bias_filler {
      value: 0
    }
  }
}
layer {
  name: "relu0_8"
  type: "ReLU"
  bottom: "conv0_8/bn"
  top: "conv0_8/bn"
}
layer {
  name: "conv0_8"
  type: "Convolution"
  bottom: "conv0_8/bn"
  top: "conv0_8"
  convolution_param {
    num_output: 32
    bias_term: false
    pad: 1
    kernel_size: 3
    stride: 1
    weight_filler {
      type: "msra"
    }
    bias_filler {
      type: "constant"
    }
    engine: CUDNN
  }
}
layer {
  name: "concat0_8"
  type: "Concat"
  bottom: "concat0_7"
  bottom: "conv0_8"
  top: "concat0_8"
  concat_param {
    axis: 1
  }
}
layer {
  name: "conv0_9/bn"
  type: "BatchNorm"
  bottom: "concat0_8"
  top: "conv0_9/bn"
  param {
    lr_mult: 0
    decay_mult: 0
  }
  param {
    lr_mult: 0
    decay_mult: 0
  }
  param {
    lr_mult: 0
    decay_mult: 0
  }
}
layer {
  name: "conv0_9/scale"
  type: "Scale"
  bottom: "conv0_9/bn"
  top: "conv0_9/bn"
  scale_param {
    filler {
      value: 1
    }
    bias_term: true
    bias_filler {
      value: 0
    }
  }
}
layer {
  name: "relu0_9"
  type: "ReLU"
  bottom: "conv0_9/bn"
  top: "conv0_9/bn"
}
layer {
  name: "conv0_9"
  type: "Convolution"
  bottom: "conv0_9/bn"
  top: "conv0_9"
  convolution_param {
    num_output: 32
    bias_term: false
    pad: 1
    kernel_size: 3
    stride: 1
    weight_filler {
      type: "msra"
    }
    bias_filler {
      type: "constant"
    }
    engine: CUDNN
  }
}
layer {
  name: "concat0_9"
  type: "Concat"
  bottom: "concat0_8"
  bottom: "conv0_9"
  top: "concat0_9"
  concat_param {
    axis: 1
  }
}
layer {
  name: "conv0_10/bn"
  type: "BatchNorm"
  bottom: "concat0_9"
  top: "conv0_10/bn"
  param {
    lr_mult: 0
    decay_mult: 0
  }
  param {
    lr_mult: 0
    decay_mult: 0
  }
  param {
    lr_mult: 0
    decay_mult: 0
  }
}
layer {
  name: "conv0_10/scale"
  type: "Scale"
  bottom: "conv0_10/bn"
  top: "conv0_10/bn"
  scale_param {
    filler {
      value: 1
    }
    bias_term: true
    bias_filler {
      value: 0
    }
  }
}
layer {
  name: "relu0_10"
  type: "ReLU"
  bottom: "conv0_10/bn"
  top: "conv0_10/bn"
}
layer {
  name: "conv0_10"
  type: "Convolution"
  bottom: "conv0_10/bn"
  top: "conv0_10"
  convolution_param {
    num_output: 32
    bias_term: false
    pad: 1
    kernel_size: 3
    stride: 1
    weight_filler {
      type: "msra"
    }
    bias_filler {
      type: "constant"
    }
    engine: CUDNN
  }
}
layer {
  name: "concat0_10"
  type: "Concat"
  bottom: "concat0_9"
  bottom: "conv0_10"
  top: "concat0_10"
  concat_param {
    axis: 1
  }
}
layer {
  name: "conv0_11/bn"
  type: "BatchNorm"
  bottom: "concat0_10"
  top: "conv0_11/bn"
  param {
    lr_mult: 0
    decay_mult: 0
  }
  param {
    lr_mult: 0
    decay_mult: 0
  }
  param {
    lr_mult: 0
    decay_mult: 0
  }
}
layer {
  name: "conv0_11/scale"
  type: "Scale"
  bottom: "conv0_11/bn"
  top: "conv0_11/bn"
  scale_param {
    filler {
      value: 1
    }
    bias_term: true
    bias_filler {
      value: 0
    }
  }
}
layer {
  name: "relu0_11"
  type: "ReLU"
  bottom: "conv0_11/bn"
  top: "conv0_11/bn"
}
layer {
  name: "conv0_11"
  type: "Convolution"
  bottom: "conv0_11/bn"
  top: "conv0_11"
  convolution_param {
    num_output: 32
    bias_term: false
    pad: 1
    kernel_size: 3
    stride: 1
    weight_filler {
      type: "msra"
    }
    bias_filler {
      type: "constant"
    }
    engine: CUDNN
  }
}
layer {
  name: "concat0_11"
  type: "Concat"
  bottom: "concat0_10"
  bottom: "conv0_11"
  top: "concat0_11"
  concat_param {
    axis: 1
  }
}
layer {
  name: "conv0_12/bn"
  type: "BatchNorm"
  bottom: "concat0_11"
  top: "conv0_12/bn"
  param {
    lr_mult: 0
    decay_mult: 0
  }
  param {
    lr_mult: 0
    decay_mult: 0
  }
  param {
    lr_mult: 0
    decay_mult: 0
  }
}
layer {
  name: "conv0_12/scale"
  type: "Scale"
  bottom: "conv0_12/bn"
  top: "conv0_12/bn"
  scale_param {
    filler {
      value: 1
    }
    bias_term: true
    bias_filler {
      value: 0
    }
  }
}
layer {
  name: "relu0_12"
  type: "ReLU"
  bottom: "conv0_12/bn"
  top: "conv0_12/bn"
}
layer {
  name: "conv0_12"
  type: "Convolution"
  bottom: "conv0_12/bn"
  top: "conv0_12"
  convolution_param {
    num_output: 32
    bias_term: false
    pad: 1
    kernel_size: 3
    stride: 1
    weight_filler {
      type: "msra"
    }
    bias_filler {
      type: "constant"
    }
    engine: CUDNN
  }
}
layer {
  name: "concat0_12"
  type: "Concat"
  bottom: "concat0_11"
  bottom: "conv0_12"
  top: "concat0_12"
  concat_param {
    axis: 1
  }
}
layer {
  name: "conv0_13/bn"
  type: "BatchNorm"
  bottom: "concat0_12"
  top: "conv0_13/bn"
  param {
    lr_mult: 0
    decay_mult: 0
  }
  param {
    lr_mult: 0
    decay_mult: 0
  }
  param {
    lr_mult: 0
    decay_mult: 0
  }
}
layer {
  name: "conv0_13/scale"
  type: "Scale"
  bottom: "conv0_13/bn"
  top: "conv0_13/bn"
  scale_param {
    filler {
      value: 1
    }
    bias_term: true
    bias_filler {
      value: 0
    }
  }
}
layer {
  name: "relu0_13"
  type: "ReLU"
  bottom: "conv0_13/bn"
  top: "conv0_13/bn"
}
layer {
  name: "conv0_13"
  type: "Convolution"
  bottom: "conv0_13/bn"
  top: "conv0_13"
  convolution_param {
    num_output: 32
    bias_term: false
    pad: 1
    kernel_size: 3
    stride: 1
    weight_filler {
      type: "msra"
    }
    bias_filler {
      type: "constant"
    }
    engine: CUDNN
  }
}
layer {
  name: "concat0_13"
  type: "Concat"
  bottom: "concat0_12"
  bottom: "conv0_13"
  top: "concat0_13"
  concat_param {
    axis: 1
  }
}
layer {
  name: "conv0_14/bn"
  type: "BatchNorm"
  bottom: "concat0_13"
  top: "conv0_14/bn"
  param {
    lr_mult: 0
    decay_mult: 0
  }
  param {
    lr_mult: 0
    decay_mult: 0
  }
  param {
    lr_mult: 0
    decay_mult: 0
  }
}
layer {
  name: "conv0_14/scale"
  type: "Scale"
  bottom: "conv0_14/bn"
  top: "conv0_14/bn"
  scale_param {
    filler {
      value: 1
    }
    bias_term: true
    bias_filler {
      value: 0
    }
  }
}
layer {
  name: "relu0_14"
  type: "ReLU"
  bottom: "conv0_14/bn"
  top: "conv0_14/bn"
}
layer {
  name: "conv0_14"
  type: "Convolution"
  bottom: "conv0_14/bn"
  top: "conv0_14"
  convolution_param {
    num_output: 32
    bias_term: false
    pad: 1
    kernel_size: 3
    stride: 1
    weight_filler {
      type: "msra"
    }
    bias_filler {
      type: "constant"
    }
    engine: CUDNN
  }
}
layer {
  name: "concat0_14"
  type: "Concat"
  bottom: "concat0_13"
  bottom: "conv0_14"
  top: "concat0_14"
  concat_param {
    axis: 1
  }
}
layer {
  name: "BatchNorm1"
  type: "BatchNorm"
  bottom: "concat0_14"
  top: "BatchNorm1"
  param {
    lr_mult: 0
    decay_mult: 0
  }
  param {
    lr_mult: 0
    decay_mult: 0
  }
  param {
    lr_mult: 0
    decay_mult: 0
  }
}
layer {
  name: "Scale1"
  type: "Scale"
  bottom: "BatchNorm1"
  top: "BatchNorm1"
  scale_param {
    filler {
      value: 1
    }
    bias_term: true
    bias_filler {
      value: 0
    }
  }
}
layer {
  name: "ReLU1"
  type: "ReLU"
  bottom: "BatchNorm1"
  top: "BatchNorm1"
}
layer {
  name: "conv0_blk"
  type: "Convolution"
  bottom: "BatchNorm1"
  top: "conv0_blk"
  convolution_param {
    num_output: 512
    bias_term: false
    pad: 0
    kernel_size: 1
    stride: 1
    weight_filler {
      type: "msra"
    }
    bias_filler {
      type: "constant"
    }
    engine: CUDNN
  }
}
layer {
  name: "pool0"
  type: "Pooling"
  bottom: "conv0_blk"
  top: "pool0"
  pooling_param {
    pool: AVE
    kernel_size: 2
    stride: 2
  }
}
layer {
  name: "conv1_0/bn"
  type: "BatchNorm"
  bottom: "pool0"
  top: "conv1_0/bn"
  param {
    lr_mult: 0
    decay_mult: 0
  }
  param {
    lr_mult: 0
    decay_mult: 0
  }
  param {
    lr_mult: 0
    decay_mult: 0
  }
}
layer {
  name: "conv1_0/scale"
  type: "Scale"
  bottom: "conv1_0/bn"
  top: "conv1_0/bn"
  scale_param {
    filler {
      value: 1
    }
    bias_term: true
    bias_filler {
      value: 0
    }
  }
}
layer {
  name: "relu1_0"
  type: "ReLU"
  bottom: "conv1_0/bn"
  top: "conv1_0/bn"
}
layer {
  name: "conv1_0"
  type: "Convolution"
  bottom: "conv1_0/bn"
  top: "conv1_0"
  convolution_param {
    num_output: 32
    bias_term: false
    pad: 1
    kernel_size: 3
    stride: 1
    weight_filler {
      type: "msra"
    }
    bias_filler {
      type: "constant"
    }
    engine: CUDNN
  }
}
layer {
  name: "concat1_0"
  type: "Concat"
  bottom: "pool0"
  bottom: "conv1_0"
  top: "concat1_0"
  concat_param {
    axis: 1
  }
}
layer {
  name: "conv1_1/bn"
  type: "BatchNorm"
  bottom: "concat1_0"
  top: "conv1_1/bn"
  param {
    lr_mult: 0
    decay_mult: 0
  }
  param {
    lr_mult: 0
    decay_mult: 0
  }
  param {
    lr_mult: 0
    decay_mult: 0
  }
}
layer {
  name: "conv1_1/scale"
  type: "Scale"
  bottom: "conv1_1/bn"
  top: "conv1_1/bn"
  scale_param {
    filler {
      value: 1
    }
    bias_term: true
    bias_filler {
      value: 0
    }
  }
}
layer {
  name: "relu1_1"
  type: "ReLU"
  bottom: "conv1_1/bn"
  top: "conv1_1/bn"
}
layer {
  name: "conv1_1"
  type: "Convolution"
  bottom: "conv1_1/bn"
  top: "conv1_1"
  convolution_param {
    num_output: 32
    bias_term: false
    pad: 1
    kernel_size: 3
    stride: 1
    weight_filler {
      type: "msra"
    }
    bias_filler {
      type: "constant"
    }
    engine: CUDNN
  }
}
layer {
  name: "concat1_1"
  type: "Concat"
  bottom: "concat1_0"
  bottom: "conv1_1"
  top: "concat1_1"
  concat_param {
    axis: 1
  }
}
layer {
  name: "conv1_2/bn"
  type: "BatchNorm"
  bottom: "concat1_1"
  top: "conv1_2/bn"
  param {
    lr_mult: 0
    decay_mult: 0
  }
  param {
    lr_mult: 0
    decay_mult: 0
  }
  param {
    lr_mult: 0
    decay_mult: 0
  }
}
layer {
  name: "conv1_2/scale"
  type: "Scale"
  bottom: "conv1_2/bn"
  top: "conv1_2/bn"
  scale_param {
    filler {
      value: 1
    }
    bias_term: true
    bias_filler {
      value: 0
    }
  }
}
layer {
  name: "relu1_2"
  type: "ReLU"
  bottom: "conv1_2/bn"
  top: "conv1_2/bn"
}
layer {
  name: "conv1_2"
  type: "Convolution"
  bottom: "conv1_2/bn"
  top: "conv1_2"
  convolution_param {
    num_output: 32
    bias_term: false
    pad: 1
    kernel_size: 3
    stride: 1
    weight_filler {
      type: "msra"
    }
    bias_filler {
      type: "constant"
    }
    engine: CUDNN
  }
}
layer {
  name: "concat1_2"
  type: "Concat"
  bottom: "concat1_1"
  bottom: "conv1_2"
  top: "concat1_2"
  concat_param {
    axis: 1
  }
}
layer {
  name: "conv1_3/bn"
  type: "BatchNorm"
  bottom: "concat1_2"
  top: "conv1_3/bn"
  param {
    lr_mult: 0
    decay_mult: 0
  }
  param {
    lr_mult: 0
    decay_mult: 0
  }
  param {
    lr_mult: 0
    decay_mult: 0
  }
}
layer {
  name: "conv1_3/scale"
  type: "Scale"
  bottom: "conv1_3/bn"
  top: "conv1_3/bn"
  scale_param {
    filler {
      value: 1
    }
    bias_term: true
    bias_filler {
      value: 0
    }
  }
}
layer {
  name: "relu1_3"
  type: "ReLU"
  bottom: "conv1_3/bn"
  top: "conv1_3/bn"
}
layer {
  name: "conv1_3"
  type: "Convolution"
  bottom: "conv1_3/bn"
  top: "conv1_3"
  convolution_param {
    num_output: 32
    bias_term: false
    pad: 1
    kernel_size: 3
    stride: 1
    weight_filler {
      type: "msra"
    }
    bias_filler {
      type: "constant"
    }
    engine: CUDNN
  }
}
layer {
  name: "concat1_3"
  type: "Concat"
  bottom: "concat1_2"
  bottom: "conv1_3"
  top: "concat1_3"
  concat_param {
    axis: 1
  }
}
layer {
  name: "conv1_4/bn"
  type: "BatchNorm"
  bottom: "concat1_3"
  top: "conv1_4/bn"
  param {
    lr_mult: 0
    decay_mult: 0
  }
  param {
    lr_mult: 0
    decay_mult: 0
  }
  param {
    lr_mult: 0
    decay_mult: 0
  }
}
layer {
  name: "conv1_4/scale"
  type: "Scale"
  bottom: "conv1_4/bn"
  top: "conv1_4/bn"
  scale_param {
    filler {
      value: 1
    }
    bias_term: true
    bias_filler {
      value: 0
    }
  }
}
layer {
  name: "relu1_4"
  type: "ReLU"
  bottom: "conv1_4/bn"
  top: "conv1_4/bn"
}
layer {
  name: "conv1_4"
  type: "Convolution"
  bottom: "conv1_4/bn"
  top: "conv1_4"
  convolution_param {
    num_output: 32
    bias_term: false
    pad: 1
    kernel_size: 3
    stride: 1
    weight_filler {
      type: "msra"
    }
    bias_filler {
      type: "constant"
    }
    engine: CUDNN
  }
}
layer {
  name: "concat1_4"
  type: "Concat"
  bottom: "concat1_3"
  bottom: "conv1_4"
  top: "concat1_4"
  concat_param {
    axis: 1
  }
}
layer {
  name: "conv1_5/bn"
  type: "BatchNorm"
  bottom: "concat1_4"
  top: "conv1_5/bn"
  param {
    lr_mult: 0
    decay_mult: 0
  }
  param {
    lr_mult: 0
    decay_mult: 0
  }
  param {
    lr_mult: 0
    decay_mult: 0
  }
}
layer {
  name: "conv1_5/scale"
  type: "Scale"
  bottom: "conv1_5/bn"
  top: "conv1_5/bn"
  scale_param {
    filler {
      value: 1
    }
    bias_term: true
    bias_filler {
      value: 0
    }
  }
}
layer {
  name: "relu1_5"
  type: "ReLU"
  bottom: "conv1_5/bn"
  top: "conv1_5/bn"
}
layer {
  name: "conv1_5"
  type: "Convolution"
  bottom: "conv1_5/bn"
  top: "conv1_5"
  convolution_param {
    num_output: 32
    bias_term: false
    pad: 1
    kernel_size: 3
    stride: 1
    weight_filler {
      type: "msra"
    }
    bias_filler {
      type: "constant"
    }
    engine: CUDNN
  }
}
layer {
  name: "concat1_5"
  type: "Concat"
  bottom: "concat1_4"
  bottom: "conv1_5"
  top: "concat1_5"
  concat_param {
    axis: 1
  }
}
layer {
  name: "conv1_6/bn"
  type: "BatchNorm"
  bottom: "concat1_5"
  top: "conv1_6/bn"
  param {
    lr_mult: 0
    decay_mult: 0
  }
  param {
    lr_mult: 0
    decay_mult: 0
  }
  param {
    lr_mult: 0
    decay_mult: 0
  }
}
layer {
  name: "conv1_6/scale"
  type: "Scale"
  bottom: "conv1_6/bn"
  top: "conv1_6/bn"
  scale_param {
    filler {
      value: 1
    }
    bias_term: true
    bias_filler {
      value: 0
    }
  }
}
layer {
  name: "relu1_6"
  type: "ReLU"
  bottom: "conv1_6/bn"
  top: "conv1_6/bn"
}
layer {
  name: "conv1_6"
  type: "Convolution"
  bottom: "conv1_6/bn"
  top: "conv1_6"
  convolution_param {
    num_output: 32
    bias_term: false
    pad: 1
    kernel_size: 3
    stride: 1
    weight_filler {
      type: "msra"
    }
    bias_filler {
      type: "constant"
    }
    engine: CUDNN
  }
}
layer {
  name: "concat1_6"
  type: "Concat"
  bottom: "concat1_5"
  bottom: "conv1_6"
  top: "concat1_6"
  concat_param {
    axis: 1
  }
}
layer {
  name: "conv1_7/bn"
  type: "BatchNorm"
  bottom: "concat1_6"
  top: "conv1_7/bn"
  param {
    lr_mult: 0
    decay_mult: 0
  }
  param {
    lr_mult: 0
    decay_mult: 0
  }
  param {
    lr_mult: 0
    decay_mult: 0
  }
}
layer {
  name: "conv1_7/scale"
  type: "Scale"
  bottom: "conv1_7/bn"
  top: "conv1_7/bn"
  scale_param {
    filler {
      value: 1
    }
    bias_term: true
    bias_filler {
      value: 0
    }
  }
}
layer {
  name: "relu1_7"
  type: "ReLU"
  bottom: "conv1_7/bn"
  top: "conv1_7/bn"
}
layer {
  name: "conv1_7"
  type: "Convolution"
  bottom: "conv1_7/bn"
  top: "conv1_7"
  convolution_param {
    num_output: 32
    bias_term: false
    pad: 1
    kernel_size: 3
    stride: 1
    weight_filler {
      type: "msra"
    }
    bias_filler {
      type: "constant"
    }
    engine: CUDNN
  }
}
layer {
  name: "concat1_7"
  type: "Concat"
  bottom: "concat1_6"
  bottom: "conv1_7"
  top: "concat1_7"
  concat_param {
    axis: 1
  }
}
layer {
  name: "conv1_8/bn"
  type: "BatchNorm"
  bottom: "concat1_7"
  top: "conv1_8/bn"
  param {
    lr_mult: 0
    decay_mult: 0
  }
  param {
    lr_mult: 0
    decay_mult: 0
  }
  param {
    lr_mult: 0
    decay_mult: 0
  }
}
layer {
  name: "conv1_8/scale"
  type: "Scale"
  bottom: "conv1_8/bn"
  top: "conv1_8/bn"
  scale_param {
    filler {
      value: 1
    }
    bias_term: true
    bias_filler {
      value: 0
    }
  }
}
layer {
  name: "relu1_8"
  type: "ReLU"
  bottom: "conv1_8/bn"
  top: "conv1_8/bn"
}
layer {
  name: "conv1_8"
  type: "Convolution"
  bottom: "conv1_8/bn"
  top: "conv1_8"
  convolution_param {
    num_output: 32
    bias_term: false
    pad: 1
    kernel_size: 3
    stride: 1
    weight_filler {
      type: "msra"
    }
    bias_filler {
      type: "constant"
    }
    engine: CUDNN
  }
}
layer {
  name: "concat1_8"
  type: "Concat"
  bottom: "concat1_7"
  bottom: "conv1_8"
  top: "concat1_8"
  concat_param {
    axis: 1
  }
}
layer {
  name: "conv1_9/bn"
  type: "BatchNorm"
  bottom: "concat1_8"
  top: "conv1_9/bn"
  param {
    lr_mult: 0
    decay_mult: 0
  }
  param {
    lr_mult: 0
    decay_mult: 0
  }
  param {
    lr_mult: 0
    decay_mult: 0
  }
}
layer {
  name: "conv1_9/scale"
  type: "Scale"
  bottom: "conv1_9/bn"
  top: "conv1_9/bn"
  scale_param {
    filler {
      value: 1
    }
    bias_term: true
    bias_filler {
      value: 0
    }
  }
}
layer {
  name: "relu1_9"
  type: "ReLU"
  bottom: "conv1_9/bn"
  top: "conv1_9/bn"
}
layer {
  name: "conv1_9"
  type: "Convolution"
  bottom: "conv1_9/bn"
  top: "conv1_9"
  convolution_param {
    num_output: 32
    bias_term: false
    pad: 1
    kernel_size: 3
    stride: 1
    weight_filler {
      type: "msra"
    }
    bias_filler {
      type: "constant"
    }
    engine: CUDNN
  }
}
layer {
  name: "concat1_9"
  type: "Concat"
  bottom: "concat1_8"
  bottom: "conv1_9"
  top: "concat1_9"
  concat_param {
    axis: 1
  }
}
layer {
  name: "conv1_10/bn"
  type: "BatchNorm"
  bottom: "concat1_9"
  top: "conv1_10/bn"
  param {
    lr_mult: 0
    decay_mult: 0
  }
  param {
    lr_mult: 0
    decay_mult: 0
  }
  param {
    lr_mult: 0
    decay_mult: 0
  }
}
layer {
  name: "conv1_10/scale"
  type: "Scale"
  bottom: "conv1_10/bn"
  top: "conv1_10/bn"
  scale_param {
    filler {
      value: 1
    }
    bias_term: true
    bias_filler {
      value: 0
    }
  }
}
layer {
  name: "relu1_10"
  type: "ReLU"
  bottom: "conv1_10/bn"
  top: "conv1_10/bn"
}
layer {
  name: "conv1_10"
  type: "Convolution"
  bottom: "conv1_10/bn"
  top: "conv1_10"
  convolution_param {
    num_output: 32
    bias_term: false
    pad: 1
    kernel_size: 3
    stride: 1
    weight_filler {
      type: "msra"
    }
    bias_filler {
      type: "constant"
    }
    engine: CUDNN
  }
}
layer {
  name: "concat1_10"
  type: "Concat"
  bottom: "concat1_9"
  bottom: "conv1_10"
  top: "concat1_10"
  concat_param {
    axis: 1
  }
}
layer {
  name: "conv1_11/bn"
  type: "BatchNorm"
  bottom: "concat1_10"
  top: "conv1_11/bn"
  param {
    lr_mult: 0
    decay_mult: 0
  }
  param {
    lr_mult: 0
    decay_mult: 0
  }
  param {
    lr_mult: 0
    decay_mult: 0
  }
}
layer {
  name: "conv1_11/scale"
  type: "Scale"
  bottom: "conv1_11/bn"
  top: "conv1_11/bn"
  scale_param {
    filler {
      value: 1
    }
    bias_term: true
    bias_filler {
      value: 0
    }
  }
}
layer {
  name: "relu1_11"
  type: "ReLU"
  bottom: "conv1_11/bn"
  top: "conv1_11/bn"
}
layer {
  name: "conv1_11"
  type: "Convolution"
  bottom: "conv1_11/bn"
  top: "conv1_11"
  convolution_param {
    num_output: 32
    bias_term: false
    pad: 1
    kernel_size: 3
    stride: 1
    weight_filler {
      type: "msra"
    }
    bias_filler {
      type: "constant"
    }
    engine: CUDNN
  }
}
layer {
  name: "concat1_11"
  type: "Concat"
  bottom: "concat1_10"
  bottom: "conv1_11"
  top: "concat1_11"
  concat_param {
    axis: 1
  }
}
layer {
  name: "conv1_12/bn"
  type: "BatchNorm"
  bottom: "concat1_11"
  top: "conv1_12/bn"
  param {
    lr_mult: 0
    decay_mult: 0
  }
  param {
    lr_mult: 0
    decay_mult: 0
  }
  param {
    lr_mult: 0
    decay_mult: 0
  }
}
layer {
  name: "conv1_12/scale"
  type: "Scale"
  bottom: "conv1_12/bn"
  top: "conv1_12/bn"
  scale_param {
    filler {
      value: 1
    }
    bias_term: true
    bias_filler {
      value: 0
    }
  }
}
layer {
  name: "relu1_12"
  type: "ReLU"
  bottom: "conv1_12/bn"
  top: "conv1_12/bn"
}
layer {
  name: "conv1_12"
  type: "Convolution"
  bottom: "conv1_12/bn"
  top: "conv1_12"
  convolution_param {
    num_output: 32
    bias_term: false
    pad: 1
    kernel_size: 3
    stride: 1
    weight_filler {
      type: "msra"
    }
    bias_filler {
      type: "constant"
    }
    engine: CUDNN
  }
}
layer {
  name: "c
I0129 13:29:50.625572  4205 layer_factory.hpp:77] Creating layer word_images
I0129 13:29:50.625679  4205 db_lmdb.cpp:35] Opened lmdb /data/fwolf/iam_50000/iam-db_nti500000_pul2-3-4-5_train_word_images_lmdb
I0129 13:29:50.625715  4205 net.cpp:84] Creating Layer word_images
I0129 13:29:50.625720  4205 net.cpp:380] word_images -> word_images
I0129 13:29:50.625733  4205 net.cpp:380] word_images -> label
I0129 13:29:50.628284  4205 data_layer.cpp:44] output data size: 1,1,145,197
I0129 13:29:50.637575  4205 net.cpp:122] Setting up word_images
I0129 13:29:50.637600  4205 net.cpp:129] Top shape: 1 1 145 197 (28565)
I0129 13:29:50.637606  4205 net.cpp:129] Top shape: 1 (1)
I0129 13:29:50.637609  4205 net.cpp:137] Memory required for data: 114264
I0129 13:29:50.637615  4205 layer_factory.hpp:77] Creating layer phocs
I0129 13:29:50.637744  4205 db_lmdb.cpp:35] Opened lmdb /data/fwolf/iam_50000/iam-db_nti500000_pul2-3-4-5_train_phocs_lmdb
I0129 13:29:50.637781  4205 net.cpp:84] Creating Layer phocs
I0129 13:29:50.637789  4205 net.cpp:380] phocs -> phocs
I0129 13:29:50.637800  4205 net.cpp:380] phocs -> label_phocs
I0129 13:29:50.638399  4205 data_layer.cpp:44] output data size: 1,1,1,618
I0129 13:29:50.644577  4205 net.cpp:122] Setting up phocs
I0129 13:29:50.644593  4205 net.cpp:129] Top shape: 1 1 1 618 (618)
I0129 13:29:50.644599  4205 net.cpp:129] Top shape: 1 (1)
I0129 13:29:50.644603  4205 net.cpp:137] Memory required for data: 116740
I0129 13:29:50.644608  4205 layer_factory.hpp:77] Creating layer conv_init
I0129 13:29:50.644623  4205 net.cpp:84] Creating Layer conv_init
I0129 13:29:50.644636  4205 net.cpp:406] conv_init <- word_images
I0129 13:29:50.644644  4205 net.cpp:380] conv_init -> conv_init
I0129 13:29:51.327595  4205 net.cpp:122] Setting up conv_init
I0129 13:29:51.327638  4205 net.cpp:129] Top shape: 1 32 145 197 (914080)
I0129 13:29:51.327642  4205 net.cpp:137] Memory required for data: 3773060
I0129 13:29:51.327657  4205 layer_factory.hpp:77] Creating layer bn_init
I0129 13:29:51.327672  4205 net.cpp:84] Creating Layer bn_init
I0129 13:29:51.327677  4205 net.cpp:406] bn_init <- conv_init
I0129 13:29:51.327683  4205 net.cpp:380] bn_init -> bn_init
I0129 13:29:51.328090  4205 net.cpp:122] Setting up bn_init
I0129 13:29:51.328099  4205 net.cpp:129] Top shape: 1 32 145 197 (914080)
I0129 13:29:51.328102  4205 net.cpp:137] Memory required for data: 7429380
I0129 13:29:51.328114  4205 layer_factory.hpp:77] Creating layer scale_init
I0129 13:29:51.328125  4205 net.cpp:84] Creating Layer scale_init
I0129 13:29:51.328130  4205 net.cpp:406] scale_init <- bn_init
I0129 13:29:51.328135  4205 net.cpp:367] scale_init -> bn_init (in-place)
I0129 13:29:51.328197  4205 layer_factory.hpp:77] Creating layer scale_init
I0129 13:29:51.328434  4205 net.cpp:122] Setting up scale_init
I0129 13:29:51.328444  4205 net.cpp:129] Top shape: 1 32 145 197 (914080)
I0129 13:29:51.328446  4205 net.cpp:137] Memory required for data: 11085700
I0129 13:29:51.328454  4205 layer_factory.hpp:77] Creating layer relu_init
I0129 13:29:51.328462  4205 net.cpp:84] Creating Layer relu_init
I0129 13:29:51.328466  4205 net.cpp:406] relu_init <- bn_init
I0129 13:29:51.328471  4205 net.cpp:367] relu_init -> bn_init (in-place)
I0129 13:29:51.329672  4205 net.cpp:122] Setting up relu_init
I0129 13:29:51.329686  4205 net.cpp:129] Top shape: 1 32 145 197 (914080)
I0129 13:29:51.329689  4205 net.cpp:137] Memory required for data: 14742020
I0129 13:29:51.329694  4205 layer_factory.hpp:77] Creating layer pool_init
I0129 13:29:51.329700  4205 net.cpp:84] Creating Layer pool_init
I0129 13:29:51.329704  4205 net.cpp:406] pool_init <- bn_init
I0129 13:29:51.329710  4205 net.cpp:380] pool_init -> pool_init
I0129 13:29:51.329774  4205 net.cpp:122] Setting up pool_init
I0129 13:29:51.329780  4205 net.cpp:129] Top shape: 1 32 73 99 (231264)
I0129 13:29:51.329783  4205 net.cpp:137] Memory required for data: 15667076
I0129 13:29:51.329787  4205 layer_factory.hpp:77] Creating layer pool_init_pool_init_0_split
I0129 13:29:51.329792  4205 net.cpp:84] Creating Layer pool_init_pool_init_0_split
I0129 13:29:51.329797  4205 net.cpp:406] pool_init_pool_init_0_split <- pool_init
I0129 13:29:51.329800  4205 net.cpp:380] pool_init_pool_init_0_split -> pool_init_pool_init_0_split_0
I0129 13:29:51.329807  4205 net.cpp:380] pool_init_pool_init_0_split -> pool_init_pool_init_0_split_1
I0129 13:29:51.329854  4205 net.cpp:122] Setting up pool_init_pool_init_0_split
I0129 13:29:51.329860  4205 net.cpp:129] Top shape: 1 32 73 99 (231264)
I0129 13:29:51.329864  4205 net.cpp:129] Top shape: 1 32 73 99 (231264)
I0129 13:29:51.329867  4205 net.cpp:137] Memory required for data: 17517188
I0129 13:29:51.329870  4205 layer_factory.hpp:77] Creating layer conv0_0/bn
I0129 13:29:51.329877  4205 net.cpp:84] Creating Layer conv0_0/bn
I0129 13:29:51.329880  4205 net.cpp:406] conv0_0/bn <- pool_init_pool_init_0_split_0
I0129 13:29:51.329885  4205 net.cpp:380] conv0_0/bn -> conv0_0/bn
I0129 13:29:51.331917  4205 net.cpp:122] Setting up conv0_0/bn
I0129 13:29:51.331930  4205 net.cpp:129] Top shape: 1 32 73 99 (231264)
I0129 13:29:51.331933  4205 net.cpp:137] Memory required for data: 18442244
I0129 13:29:51.331944  4205 layer_factory.hpp:77] Creating layer conv0_0/scale
I0129 13:29:51.331953  4205 net.cpp:84] Creating Layer conv0_0/scale
I0129 13:29:51.331956  4205 net.cpp:406] conv0_0/scale <- conv0_0/bn
I0129 13:29:51.331962  4205 net.cpp:367] conv0_0/scale -> conv0_0/bn (in-place)
I0129 13:29:51.332020  4205 layer_factory.hpp:77] Creating layer conv0_0/scale
I0129 13:29:51.332197  4205 net.cpp:122] Setting up conv0_0/scale
I0129 13:29:51.332206  4205 net.cpp:129] Top shape: 1 32 73 99 (231264)
I0129 13:29:51.332208  4205 net.cpp:137] Memory required for data: 19367300
I0129 13:29:51.332214  4205 layer_factory.hpp:77] Creating layer relu0_0
I0129 13:29:51.332221  4205 net.cpp:84] Creating Layer relu0_0
I0129 13:29:51.332223  4205 net.cpp:406] relu0_0 <- conv0_0/bn
I0129 13:29:51.332228  4205 net.cpp:367] relu0_0 -> conv0_0/bn (in-place)
I0129 13:29:51.332419  4205 net.cpp:122] Setting up relu0_0
I0129 13:29:51.332427  4205 net.cpp:129] Top shape: 1 32 73 99 (231264)
I0129 13:29:51.332432  4205 net.cpp:137] Memory required for data: 20292356
I0129 13:29:51.332434  4205 layer_factory.hpp:77] Creating layer conv0_0
I0129 13:29:51.332445  4205 net.cpp:84] Creating Layer conv0_0
I0129 13:29:51.332449  4205 net.cpp:406] conv0_0 <- conv0_0/bn
I0129 13:29:51.332454  4205 net.cpp:380] conv0_0 -> conv0_0
I0129 13:29:51.334589  4205 net.cpp:122] Setting up conv0_0
I0129 13:29:51.334604  4205 net.cpp:129] Top shape: 1 32 73 99 (231264)
I0129 13:29:51.334606  4205 net.cpp:137] Memory required for data: 21217412
I0129 13:29:51.334612  4205 layer_factory.hpp:77] Creating layer concat0_0
I0129 13:29:51.334620  4205 net.cpp:84] Creating Layer concat0_0
I0129 13:29:51.334625  4205 net.cpp:406] concat0_0 <- pool_init_pool_init_0_split_1
I0129 13:29:51.334630  4205 net.cpp:406] concat0_0 <- conv0_0
I0129 13:29:51.334635  4205 net.cpp:380] concat0_0 -> concat0_0
I0129 13:29:51.334671  4205 net.cpp:122] Setting up concat0_0
I0129 13:29:51.334677  4205 net.cpp:129] Top shape: 1 64 73 99 (462528)
I0129 13:29:51.334681  4205 net.cpp:137] Memory required for data: 23067524
I0129 13:29:51.334683  4205 layer_factory.hpp:77] Creating layer concat0_0_concat0_0_0_split
I0129 13:29:51.334689  4205 net.cpp:84] Creating Layer concat0_0_concat0_0_0_split
I0129 13:29:51.334692  4205 net.cpp:406] concat0_0_concat0_0_0_split <- concat0_0
I0129 13:29:51.334697  4205 net.cpp:380] concat0_0_concat0_0_0_split -> concat0_0_concat0_0_0_split_0
I0129 13:29:51.334702  4205 net.cpp:380] concat0_0_concat0_0_0_split -> concat0_0_concat0_0_0_split_1
I0129 13:29:51.334751  4205 net.cpp:122] Setting up concat0_0_concat0_0_0_split
I0129 13:29:51.334756  4205 net.cpp:129] Top shape: 1 64 73 99 (462528)
I0129 13:29:51.334760  4205 net.cpp:129] Top shape: 1 64 73 99 (462528)
I0129 13:29:51.334764  4205 net.cpp:137] Memory required for data: 26767748
I0129 13:29:51.334766  4205 layer_factory.hpp:77] Creating layer conv0_1/bn
I0129 13:29:51.334772  4205 net.cpp:84] Creating Layer conv0_1/bn
I0129 13:29:51.334775  4205 net.cpp:406] conv0_1/bn <- concat0_0_concat0_0_0_split_0
I0129 13:29:51.334780  4205 net.cpp:380] conv0_1/bn -> conv0_1/bn
I0129 13:29:51.335079  4205 net.cpp:122] Setting up conv0_1/bn
I0129 13:29:51.335086  4205 net.cpp:129] Top shape: 1 64 73 99 (462528)
I0129 13:29:51.335089  4205 net.cpp:137] Memory required for data: 28617860
I0129 13:29:51.335096  4205 layer_factory.hpp:77] Creating layer conv0_1/scale
I0129 13:29:51.335103  4205 net.cpp:84] Creating Layer conv0_1/scale
I0129 13:29:51.335108  4205 net.cpp:406] conv0_1/scale <- conv0_1/bn
I0129 13:29:51.335113  4205 net.cpp:367] conv0_1/scale -> conv0_1/bn (in-place)
I0129 13:29:51.335165  4205 layer_factory.hpp:77] Creating layer conv0_1/scale
I0129 13:29:51.335340  4205 net.cpp:122] Setting up conv0_1/scale
I0129 13:29:51.335347  4205 net.cpp:129] Top shape: 1 64 73 99 (462528)
I0129 13:29:51.335355  4205 net.cpp:137] Memory required for data: 30467972
I0129 13:29:51.335362  4205 layer_factory.hpp:77] Creating layer relu0_1
I0129 13:29:51.335369  4205 net.cpp:84] Creating Layer relu0_1
I0129 13:29:51.335373  4205 net.cpp:406] relu0_1 <- conv0_1/bn
I0129 13:29:51.335377  4205 net.cpp:367] relu0_1 -> conv0_1/bn (in-place)
I0129 13:29:51.335559  4205 net.cpp:122] Setting up relu0_1
I0129 13:29:51.335567  4205 net.cpp:129] Top shape: 1 64 73 99 (462528)
I0129 13:29:51.335570  4205 net.cpp:137] Memory required for data: 32318084
I0129 13:29:51.335573  4205 layer_factory.hpp:77] Creating layer conv0_1
I0129 13:29:51.335583  4205 net.cpp:84] Creating Layer conv0_1
I0129 13:29:51.335587  4205 net.cpp:406] conv0_1 <- conv0_1/bn
I0129 13:29:51.335592  4205 net.cpp:380] conv0_1 -> conv0_1
I0129 13:29:51.337992  4205 net.cpp:122] Setting up conv0_1
I0129 13:29:51.338006  4205 net.cpp:129] Top shape: 1 32 73 99 (231264)
I0129 13:29:51.338009  4205 net.cpp:137] Memory required for data: 33243140
I0129 13:29:51.338016  4205 layer_factory.hpp:77] Creating layer concat0_1
I0129 13:29:51.338022  4205 net.cpp:84] Creating Layer concat0_1
I0129 13:29:51.338027  4205 net.cpp:406] concat0_1 <- concat0_0_concat0_0_0_split_1
I0129 13:29:51.338032  4205 net.cpp:406] concat0_1 <- conv0_1
I0129 13:29:51.338037  4205 net.cpp:380] concat0_1 -> concat0_1
I0129 13:29:51.338074  4205 net.cpp:122] Setting up concat0_1
I0129 13:29:51.338080  4205 net.cpp:129] Top shape: 1 96 73 99 (693792)
I0129 13:29:51.338083  4205 net.cpp:137] Memory required for data: 36018308
I0129 13:29:51.338088  4205 layer_factory.hpp:77] Creating layer concat0_1_concat0_1_0_split
I0129 13:29:51.338093  4205 net.cpp:84] Creating Layer concat0_1_concat0_1_0_split
I0129 13:29:51.338095  4205 net.cpp:406] concat0_1_concat0_1_0_split <- concat0_1
I0129 13:29:51.338100  4205 net.cpp:380] concat0_1_concat0_1_0_split -> concat0_1_concat0_1_0_split_0
I0129 13:29:51.338106  4205 net.cpp:380] concat0_1_concat0_1_0_split -> concat0_1_concat0_1_0_split_1
I0129 13:29:51.338155  4205 net.cpp:122] Setting up concat0_1_concat0_1_0_split
I0129 13:29:51.338160  4205 net.cpp:129] Top shape: 1 96 73 99 (693792)
I0129 13:29:51.338165  4205 net.cpp:129] Top shape: 1 96 73 99 (693792)
I0129 13:29:51.338166  4205 net.cpp:137] Memory required for data: 41568644
I0129 13:29:51.338171  4205 layer_factory.hpp:77] Creating layer conv0_2/bn
I0129 13:29:51.338176  4205 net.cpp:84] Creating Layer conv0_2/bn
I0129 13:29:51.338179  4205 net.cpp:406] conv0_2/bn <- concat0_1_concat0_1_0_split_0
I0129 13:29:51.338184  4205 net.cpp:380] conv0_2/bn -> conv0_2/bn
I0129 13:29:51.338497  4205 net.cpp:122] Setting up conv0_2/bn
I0129 13:29:51.338505  4205 net.cpp:129] Top shape: 1 96 73 99 (693792)
I0129 13:29:51.338507  4205 net.cpp:137] Memory required for data: 44343812
I0129 13:29:51.338515  4205 layer_factory.hpp:77] Creating layer conv0_2/scale
I0129 13:29:51.338521  4205 net.cpp:84] Creating Layer conv0_2/scale
I0129 13:29:51.338526  4205 net.cpp:406] conv0_2/scale <- conv0_2/bn
I0129 13:29:51.338529  4205 net.cpp:367] conv0_2/scale -> conv0_2/bn (in-place)
I0129 13:29:51.338582  4205 layer_factory.hpp:77] Creating layer conv0_2/scale
I0129 13:29:51.338780  4205 net.cpp:122] Setting up conv0_2/scale
I0129 13:29:51.338788  4205 net.cpp:129] Top shape: 1 96 73 99 (693792)
I0129 13:29:51.338791  4205 net.cpp:137] Memory required for data: 47118980
I0129 13:29:51.338798  4205 layer_factory.hpp:77] Creating layer relu0_2
I0129 13:29:51.338804  4205 net.cpp:84] Creating Layer relu0_2
I0129 13:29:51.338806  4205 net.cpp:406] relu0_2 <- conv0_2/bn
I0129 13:29:51.338811  4205 net.cpp:367] relu0_2 -> conv0_2/bn (in-place)
I0129 13:29:51.339977  4205 net.cpp:122] Setting up relu0_2
I0129 13:29:51.339989  4205 net.cpp:129] Top shape: 1 96 73 99 (693792)
I0129 13:29:51.339993  4205 net.cpp:137] Memory required for data: 49894148
I0129 13:29:51.339996  4205 layer_factory.hpp:77] Creating layer conv0_2
I0129 13:29:51.340006  4205 net.cpp:84] Creating Layer conv0_2
I0129 13:29:51.340013  4205 net.cpp:406] conv0_2 <- conv0_2/bn
I0129 13:29:51.340019  4205 net.cpp:380] conv0_2 -> conv0_2
I0129 13:29:51.342696  4205 net.cpp:122] Setting up conv0_2
I0129 13:29:51.342710  4205 net.cpp:129] Top shape: 1 32 73 99 (231264)
I0129 13:29:51.342713  4205 net.cpp:137] Memory required for data: 50819204
I0129 13:29:51.342720  4205 layer_factory.hpp:77] Creating layer concat0_2
I0129 13:29:51.342730  4205 net.cpp:84] Creating Layer concat0_2
I0129 13:29:51.342733  4205 net.cpp:406] concat0_2 <- concat0_1_concat0_1_0_split_1
I0129 13:29:51.342738  4205 net.cpp:406] concat0_2 <- conv0_2
I0129 13:29:51.342743  4205 net.cpp:380] concat0_2 -> concat0_2
I0129 13:29:51.342780  4205 net.cpp:122] Setting up concat0_2
I0129 13:29:51.342787  4205 net.cpp:129] Top shape: 1 128 73 99 (925056)
I0129 13:29:51.342789  4205 net.cpp:137] Memory required for data: 54519428
I0129 13:29:51.342792  4205 layer_factory.hpp:77] Creating layer concat0_2_concat0_2_0_split
I0129 13:29:51.342797  4205 net.cpp:84] Creating Layer concat0_2_concat0_2_0_split
I0129 13:29:51.342802  4205 net.cpp:406] concat0_2_concat0_2_0_split <- concat0_2
I0129 13:29:51.342805  4205 net.cpp:380] concat0_2_concat0_2_0_split -> concat0_2_concat0_2_0_split_0
I0129 13:29:51.342811  4205 net.cpp:380] concat0_2_concat0_2_0_split -> concat0_2_concat0_2_0_split_1
I0129 13:29:51.342859  4205 net.cpp:122] Setting up concat0_2_concat0_2_0_split
I0129 13:29:51.342865  4205 net.cpp:129] Top shape: 1 128 73 99 (925056)
I0129 13:29:51.342869  4205 net.cpp:129] Top shape: 1 128 73 99 (925056)
I0129 13:29:51.342871  4205 net.cpp:137] Memory required for data: 61919876
I0129 13:29:51.342875  4205 layer_factory.hpp:77] Creating layer conv0_3/bn
I0129 13:29:51.342880  4205 net.cpp:84] Creating Layer conv0_3/bn
I0129 13:29:51.342883  4205 net.cpp:406] conv0_3/bn <- concat0_2_concat0_2_0_split_0
I0129 13:29:51.342888  4205 net.cpp:380] conv0_3/bn -> conv0_3/bn
I0129 13:29:51.343183  4205 net.cpp:122] Setting up conv0_3/bn
I0129 13:29:51.343190  4205 net.cpp:129] Top shape: 1 128 73 99 (925056)
I0129 13:29:51.343194  4205 net.cpp:137] Memory required for data: 65620100
I0129 13:29:51.343201  4205 layer_factory.hpp:77] Creating layer conv0_3/scale
I0129 13:29:51.343209  4205 net.cpp:84] Creating Layer conv0_3/scale
I0129 13:29:51.343212  4205 net.cpp:406] conv0_3/scale <- conv0_3/bn
I0129 13:29:51.343217  4205 net.cpp:367] conv0_3/scale -> conv0_3/bn (in-place)
I0129 13:29:51.343269  4205 layer_factory.hpp:77] Creating layer conv0_3/scale
I0129 13:29:51.343432  4205 net.cpp:122] Setting up conv0_3/scale
I0129 13:29:51.343441  4205 net.cpp:129] Top shape: 1 128 73 99 (925056)
I0129 13:29:51.343443  4205 net.cpp:137] Memory required for data: 69320324
I0129 13:29:51.343451  4205 layer_factory.hpp:77] Creating layer relu0_3
I0129 13:29:51.343456  4205 net.cpp:84] Creating Layer relu0_3
I0129 13:29:51.343459  4205 net.cpp:406] relu0_3 <- conv0_3/bn
I0129 13:29:51.343464  4205 net.cpp:367] relu0_3 -> conv0_3/bn (in-place)
I0129 13:29:51.343643  4205 net.cpp:122] Setting up relu0_3
I0129 13:29:51.343650  4205 net.cpp:129] Top shape: 1 128 73 99 (925056)
I0129 13:29:51.343654  4205 net.cpp:137] Memory required for data: 73020548
I0129 13:29:51.343657  4205 layer_factory.hpp:77] Creating layer conv0_3
I0129 13:29:51.343667  4205 net.cpp:84] Creating Layer conv0_3
I0129 13:29:51.343670  4205 net.cpp:406] conv0_3 <- conv0_3/bn
I0129 13:29:51.343677  4205 net.cpp:380] conv0_3 -> conv0_3
I0129 13:29:51.347477  4205 net.cpp:122] Setting up conv0_3
I0129 13:29:51.347491  4205 net.cpp:129] Top shape: 1 32 73 99 (231264)
I0129 13:29:51.347494  4205 net.cpp:137] Memory required for data: 73945604
I0129 13:29:51.347501  4205 layer_factory.hpp:77] Creating layer concat0_3
I0129 13:29:51.347509  4205 net.cpp:84] Creating Layer concat0_3
I0129 13:29:51.347513  4205 net.cpp:406] concat0_3 <- concat0_2_concat0_2_0_split_1
I0129 13:29:51.347517  4205 net.cpp:406] concat0_3 <- conv0_3
I0129 13:29:51.347524  4205 net.cpp:380] concat0_3 -> concat0_3
I0129 13:29:51.347570  4205 net.cpp:122] Setting up concat0_3
I0129 13:29:51.347580  4205 net.cpp:129] Top shape: 1 160 73 99 (1156320)
I0129 13:29:51.347584  4205 net.cpp:137] Memory required for data: 78570884
I0129 13:29:51.347586  4205 layer_factory.hpp:77] Creating layer concat0_3_concat0_3_0_split
I0129 13:29:51.347592  4205 net.cpp:84] Creating Layer concat0_3_concat0_3_0_split
I0129 13:29:51.347595  4205 net.cpp:406] concat0_3_concat0_3_0_split <- concat0_3
I0129 13:29:51.347601  4205 net.cpp:380] concat0_3_concat0_3_0_split -> concat0_3_concat0_3_0_split_0
I0129 13:29:51.347607  4205 net.cpp:380] concat0_3_concat0_3_0_split -> concat0_3_concat0_3_0_split_1
I0129 13:29:51.347664  4205 net.cpp:122] Setting up concat0_3_concat0_3_0_split
I0129 13:29:51.347671  4205 net.cpp:129] Top shape: 1 160 73 99 (1156320)
I0129 13:29:51.347674  4205 net.cpp:129] Top shape: 1 160 73 99 (1156320)
I0129 13:29:51.347677  4205 net.cpp:137] Memory required for data: 87821444
I0129 13:29:51.347681  4205 layer_factory.hpp:77] Creating layer conv0_4/bn
I0129 13:29:51.347688  4205 net.cpp:84] Creating Layer conv0_4/bn
I0129 13:29:51.347692  4205 net.cpp:406] conv0_4/bn <- concat0_3_concat0_3_0_split_0
I0129 13:29:51.347697  4205 net.cpp:380] conv0_4/bn -> conv0_4/bn
I0129 13:29:51.348027  4205 net.cpp:122] Setting up conv0_4/bn
I0129 13:29:51.348033  4205 net.cpp:129] Top shape: 1 160 73 99 (1156320)
I0129 13:29:51.348037  4205 net.cpp:137] Memory required for data: 92446724
I0129 13:29:51.348048  4205 layer_factory.hpp:77] Creating layer conv0_4/scale
I0129 13:29:51.348057  4205 net.cpp:84] Creating Layer conv0_4/scale
I0129 13:29:51.348060  4205 net.cpp:406] conv0_4/scale <- conv0_4/bn
I0129 13:29:51.348065  4205 net.cpp:367] conv0_4/scale -> conv0_4/bn (in-place)
I0129 13:29:51.348121  4205 layer_factory.hpp:77] Creating layer conv0_4/scale
I0129 13:29:51.348310  4205 net.cpp:122] Setting up conv0_4/scale
I0129 13:29:51.348318  4205 net.cpp:129] Top shape: 1 160 73 99 (1156320)
I0129 13:29:51.348321  4205 net.cpp:137] Memory required for data: 97072004
I0129 13:29:51.348327  4205 layer_factory.hpp:77] Creating layer relu0_4
I0129 13:29:51.348333  4205 net.cpp:84] Creating Layer relu0_4
I0129 13:29:51.348336  4205 net.cpp:406] relu0_4 <- conv0_4/bn
I0129 13:29:51.348340  4205 net.cpp:367] relu0_4 -> conv0_4/bn (in-place)
I0129 13:29:51.348548  4205 net.cpp:122] Setting up relu0_4
I0129 13:29:51.348556  4205 net.cpp:129] Top shape: 1 160 73 99 (1156320)
I0129 13:29:51.348559  4205 net.cpp:137] Memory required for data: 101697284
I0129 13:29:51.348562  4205 layer_factory.hpp:77] Creating layer conv0_4
I0129 13:29:51.348572  4205 net.cpp:84] Creating Layer conv0_4
I0129 13:29:51.348577  4205 net.cpp:406] conv0_4 <- conv0_4/bn
I0129 13:29:51.348583  4205 net.cpp:380] conv0_4 -> conv0_4
I0129 13:29:51.351795  4205 net.cpp:122] Setting up conv0_4
I0129 13:29:51.351810  4205 net.cpp:129] Top shape: 1 32 73 99 (231264)
I0129 13:29:51.351814  4205 net.cpp:137] Memory required for data: 102622340
I0129 13:29:51.351820  4205 layer_factory.hpp:77] Creating layer concat0_4
I0129 13:29:51.351826  4205 net.cpp:84] Creating Layer concat0_4
I0129 13:29:51.351830  4205 net.cpp:406] concat0_4 <- concat0_3_concat0_3_0_split_1
I0129 13:29:51.351835  4205 net.cpp:406] concat0_4 <- conv0_4
I0129 13:29:51.351840  4205 net.cpp:380] concat0_4 -> concat0_4
I0129 13:29:51.351881  4205 net.cpp:122] Setting up concat0_4
I0129 13:29:51.351887  4205 net.cpp:129] Top shape: 1 192 73 99 (1387584)
I0129 13:29:51.351889  4205 net.cpp:137] Memory required for data: 108172676
I0129 13:29:51.351893  4205 layer_factory.hpp:77] Creating layer concat0_4_concat0_4_0_split
I0129 13:29:51.351898  4205 net.cpp:84] Creating Layer concat0_4_concat0_4_0_split
I0129 13:29:51.351902  4205 net.cpp:406] concat0_4_concat0_4_0_split <- concat0_4
I0129 13:29:51.351907  4205 net.cpp:380] concat0_4_concat0_4_0_split -> concat0_4_concat0_4_0_split_0
I0129 13:29:51.351914  4205 net.cpp:380] concat0_4_concat0_4_0_split -> concat0_4_concat0_4_0_split_1
I0129 13:29:51.351969  4205 net.cpp:122] Setting up concat0_4_concat0_4_0_split
I0129 13:29:51.351979  4205 net.cpp:129] Top shape: 1 192 73 99 (1387584)
I0129 13:29:51.351982  4205 net.cpp:129] Top shape: 1 192 73 99 (1387584)
I0129 13:29:51.351985  4205 net.cpp:137] Memory required for data: 119273348
I0129 13:29:51.351989  4205 layer_factory.hpp:77] Creating layer conv0_5/bn
I0129 13:29:51.351995  4205 net.cpp:84] Creating Layer conv0_5/bn
I0129 13:29:51.351999  4205 net.cpp:406] conv0_5/bn <- concat0_4_concat0_4_0_split_0
I0129 13:29:51.352005  4205 net.cpp:380] conv0_5/bn -> conv0_5/bn
I0129 13:29:51.352340  4205 net.cpp:122] Setting up conv0_5/bn
I0129 13:29:51.352347  4205 net.cpp:129] Top shape: 1 192 73 99 (1387584)
I0129 13:29:51.352349  4205 net.cpp:137] Memory required for data: 124823684
I0129 13:29:51.352357  4205 layer_factory.hpp:77] Creating layer conv0_5/scale
I0129 13:29:51.352365  4205 net.cpp:84] Creating Layer conv0_5/scale
I0129 13:29:51.352370  4205 net.cpp:406] conv0_5/scale <- conv0_5/bn
I0129 13:29:51.352373  4205 net.cpp:367] conv0_5/scale -> conv0_5/bn (in-place)
I0129 13:29:51.352433  4205 layer_factory.hpp:77] Creating layer conv0_5/scale
I0129 13:29:51.352653  4205 net.cpp:122] Setting up conv0_5/scale
I0129 13:29:51.352669  4205 net.cpp:129] Top shape: 1 192 73 99 (1387584)
I0129 13:29:51.352672  4205 net.cpp:137] Memory required for data: 130374020
I0129 13:29:51.352679  4205 layer_factory.hpp:77] Creating layer relu0_5
I0129 13:29:51.352684  4205 net.cpp:84] Creating Layer relu0_5
I0129 13:29:51.352689  4205 net.cpp:406] relu0_5 <- conv0_5/bn
I0129 13:29:51.352692  4205 net.cpp:367] relu0_5 -> conv0_5/bn (in-place)
I0129 13:29:51.353878  4205 net.cpp:122] Setting up relu0_5
I0129 13:29:51.353890  4205 net.cpp:129] Top shape: 1 192 73 99 (1387584)
I0129 13:29:51.353893  4205 net.cpp:137] Memory required for data: 135924356
I0129 13:29:51.353898  4205 layer_factory.hpp:77] Creating layer conv0_5
I0129 13:29:51.353909  4205 net.cpp:84] Creating Layer conv0_5
I0129 13:29:51.353914  4205 net.cpp:406] conv0_5 <- conv0_5/bn
I0129 13:29:51.353921  4205 net.cpp:380] conv0_5 -> conv0_5
I0129 13:29:51.358446  4205 net.cpp:122] Setting up conv0_5
I0129 13:29:51.358459  4205 net.cpp:129] Top shape: 1 32 73 99 (231264)
I0129 13:29:51.358464  4205 net.cpp:137] Memory required for data: 136849412
I0129 13:29:51.358469  4205 layer_factory.hpp:77] Creating layer concat0_5
I0129 13:29:51.358477  4205 net.cpp:84] Creating Layer concat0_5
I0129 13:29:51.358482  4205 net.cpp:406] concat0_5 <- concat0_4_concat0_4_0_split_1
I0129 13:29:51.358487  4205 net.cpp:406] concat0_5 <- conv0_5
I0129 13:29:51.358492  4205 net.cpp:380] concat0_5 -> concat0_5
I0129 13:29:51.358538  4205 net.cpp:122] Setting up concat0_5
I0129 13:29:51.358544  4205 net.cpp:129] Top shape: 1 224 73 99 (1618848)
I0129 13:29:51.358546  4205 net.cpp:137] Memory required for data: 143324804
I0129 13:29:51.358551  4205 layer_factory.hpp:77] Creating layer concat0_5_concat0_5_0_split
I0129 13:29:51.358557  4205 net.cpp:84] Creating Layer concat0_5_concat0_5_0_split
I0129 13:29:51.358561  4205 net.cpp:406] concat0_5_concat0_5_0_split <- concat0_5
I0129 13:29:51.358566  4205 net.cpp:380] concat0_5_concat0_5_0_split -> concat0_5_concat0_5_0_split_0
I0129 13:29:51.358572  4205 net.cpp:380] concat0_5_concat0_5_0_split -> concat0_5_concat0_5_0_split_1
I0129 13:29:51.358629  4205 net.cpp:122] Setting up concat0_5_concat0_5_0_split
I0129 13:29:51.358634  4205 net.cpp:129] Top shape: 1 224 73 99 (1618848)
I0129 13:29:51.358639  4205 net.cpp:129] Top shape: 1 224 73 99 (1618848)
I0129 13:29:51.358641  4205 net.cpp:137] Memory required for data: 156275588
I0129 13:29:51.358644  4205 layer_factory.hpp:77] Creating layer conv0_6/bn
I0129 13:29:51.358652  4205 net.cpp:84] Creating Layer conv0_6/bn
I0129 13:29:51.358655  4205 net.cpp:406] conv0_6/bn <- concat0_5_concat0_5_0_split_0
I0129 13:29:51.358662  4205 net.cpp:380] conv0_6/bn -> conv0_6/bn
I0129 13:29:51.359004  4205 net.cpp:122] Setting up conv0_6/bn
I0129 13:29:51.359014  4205 net.cpp:129] Top shape: 1 224 73 99 (1618848)
I0129 13:29:51.359016  4205 net.cpp:137] Memory required for data: 162750980
I0129 13:29:51.359026  4205 layer_factory.hpp:77] Creating layer conv0_6/scale
I0129 13:29:51.359033  4205 net.cpp:84] Creating Layer conv0_6/scale
I0129 13:29:51.359037  4205 net.cpp:406] conv0_6/scale <- conv0_6/bn
I0129 13:29:51.359045  4205 net.cpp:367] conv0_6/scale -> conv0_6/bn (in-place)
I0129 13:29:51.359107  4205 layer_factory.hpp:77] Creating layer conv0_6/scale
I0129 13:29:51.359323  4205 net.cpp:122] Setting up conv0_6/scale
I0129 13:29:51.359331  4205 net.cpp:129] Top shape: 1 224 73 99 (1618848)
I0129 13:29:51.359334  4205 net.cpp:137] Memory required for data: 169226372
I0129 13:29:51.359340  4205 layer_factory.hpp:77] Creating layer relu0_6
I0129 13:29:51.359346  4205 net.cpp:84] Creating Layer relu0_6
I0129 13:29:51.359350  4205 net.cpp:406] relu0_6 <- conv0_6/bn
I0129 13:29:51.359357  4205 net.cpp:367] relu0_6 -> conv0_6/bn (in-place)
I0129 13:29:51.359585  4205 net.cpp:122] Setting up relu0_6
I0129 13:29:51.359592  4205 net.cpp:129] Top shape: 1 224 73 99 (1618848)
I0129 13:29:51.359597  4205 net.cpp:137] Memory required for data: 175701764
I0129 13:29:51.359601  4205 layer_factory.hpp:77] Creating layer conv0_6
I0129 13:29:51.359609  4205 net.cpp:84] Creating Layer conv0_6
I0129 13:29:51.359613  4205 net.cpp:406] conv0_6 <- conv0_6/bn
I0129 13:29:51.359621  4205 net.cpp:380] conv0_6 -> conv0_6
I0129 13:29:51.365991  4205 net.cpp:122] Setting up conv0_6
I0129 13:29:51.366005  4205 net.cpp:129] Top shape: 1 32 73 99 (231264)
I0129 13:29:51.366008  4205 net.cpp:137] Memory required for data: 176626820
I0129 13:29:51.366015  4205 layer_factory.hpp:77] Creating layer concat0_6
I0129 13:29:51.366022  4205 net.cpp:84] Creating Layer concat0_6
I0129 13:29:51.366026  4205 net.cpp:406] concat0_6 <- concat0_5_concat0_5_0_split_1
I0129 13:29:51.366031  4205 net.cpp:406] concat0_6 <- conv0_6
I0129 13:29:51.366039  4205 net.cpp:380] concat0_6 -> concat0_6
I0129 13:29:51.366084  4205 net.cpp:122] Setting up concat0_6
I0129 13:29:51.366091  4205 net.cpp:129] Top shape: 1 256 73 99 (1850112)
I0129 13:29:51.366093  4205 net.cpp:137] Memory required for data: 184027268
I0129 13:29:51.366096  4205 layer_factory.hpp:77] Creating layer concat0_6_concat0_6_0_split
I0129 13:29:51.366101  4205 net.cpp:84] Creating Layer concat0_6_concat0_6_0_split
I0129 13:29:51.366106  4205 net.cpp:406] concat0_6_concat0_6_0_split <- concat0_6
I0129 13:29:51.366111  4205 net.cpp:380] concat0_6_concat0_6_0_split -> concat0_6_concat0_6_0_split_0
I0129 13:29:51.366117  4205 net.cpp:380] concat0_6_concat0_6_0_split -> concat0_6_concat0_6_0_split_1
I0129 13:29:51.366174  4205 net.cpp:122] Setting up concat0_6_concat0_6_0_split
I0129 13:29:51.366180  4205 net.cpp:129] Top shape: 1 256 73 99 (1850112)
I0129 13:29:51.366184  4205 net.cpp:129] Top shape: 1 256 73 99 (1850112)
I0129 13:29:51.366188  4205 net.cpp:137] Memory required for data: 198828164
I0129 13:29:51.366190  4205 layer_factory.hpp:77] Creating layer conv0_7/bn
I0129 13:29:51.366195  4205 net.cpp:84] Creating Layer conv0_7/bn
I0129 13:29:51.366199  4205 net.cpp:406] conv0_7/bn <- concat0_6_concat0_6_0_split_0
I0129 13:29:51.366205  4205 net.cpp:380] conv0_7/bn -> conv0_7/bn
I0129 13:29:51.366535  4205 net.cpp:122] Setting up conv0_7/bn
I0129 13:29:51.366542  4205 net.cpp:129] Top shape: 1 256 73 99 (1850112)
I0129 13:29:51.366545  4205 net.cpp:137] Memory required for data: 206228612
I0129 13:29:51.366554  4205 layer_factory.hpp:77] Creating layer conv0_7/scale
I0129 13:29:51.366560  4205 net.cpp:84] Creating Layer conv0_7/scale
I0129 13:29:51.366564  4205 net.cpp:406] conv0_7/scale <- conv0_7/bn
I0129 13:29:51.366570  4205 net.cpp:367] conv0_7/scale -> conv0_7/bn (in-place)
I0129 13:29:51.366631  4205 layer_factory.hpp:77] Creating layer conv0_7/scale
I0129 13:29:51.366812  4205 net.cpp:122] Setting up conv0_7/scale
I0129 13:29:51.366819  4205 net.cpp:129] Top shape: 1 256 73 99 (1850112)
I0129 13:29:51.366822  4205 net.cpp:137] Memory required for data: 213629060
I0129 13:29:51.366828  4205 layer_factory.hpp:77] Creating layer relu0_7
I0129 13:29:51.366834  4205 net.cpp:84] Creating Layer relu0_7
I0129 13:29:51.366840  4205 net.cpp:406] relu0_7 <- conv0_7/bn
I0129 13:29:51.366845  4205 net.cpp:367] relu0_7 -> conv0_7/bn (in-place)
I0129 13:29:51.367065  4205 net.cpp:122] Setting up relu0_7
I0129 13:29:51.367074  4205 net.cpp:129] Top shape: 1 256 73 99 (1850112)
I0129 13:29:51.367077  4205 net.cpp:137] Memory required for data: 221029508
I0129 13:29:51.367080  4205 layer_factory.hpp:77] Creating layer conv0_7
I0129 13:29:51.367092  4205 net.cpp:84] Creating Layer conv0_7
I0129 13:29:51.367096  4205 net.cpp:406] conv0_7 <- conv0_7/bn
I0129 13:29:51.367101  4205 net.cpp:380] conv0_7 -> conv0_7
I0129 13:29:51.373744  4205 net.cpp:122] Setting up conv0_7
I0129 13:29:51.373759  4205 net.cpp:129] Top shape: 1 32 73 99 (231264)
I0129 13:29:51.373762  4205 net.cpp:137] Memory required for data: 221954564
I0129 13:29:51.373769  4205 layer_factory.hpp:77] Creating layer concat0_7
I0129 13:29:51.373775  4205 net.cpp:84] Creating Layer concat0_7
I0129 13:29:51.373780  4205 net.cpp:406] concat0_7 <- concat0_6_concat0_6_0_split_1
I0129 13:29:51.373785  4205 net.cpp:406] concat0_7 <- conv0_7
I0129 13:29:51.373791  4205 net.cpp:380] concat0_7 -> concat0_7
I0129 13:29:51.373838  4205 net.cpp:122] Setting up concat0_7
I0129 13:29:51.373844  4205 net.cpp:129] Top shape: 1 288 73 99 (2081376)
I0129 13:29:51.373847  4205 net.cpp:137] Memory required for data: 230280068
I0129 13:29:51.373850  4205 layer_factory.hpp:77] Creating layer concat0_7_concat0_7_0_split
I0129 13:29:51.373857  4205 net.cpp:84] Creating Layer concat0_7_concat0_7_0_split
I0129 13:29:51.373860  4205 net.cpp:406] concat0_7_concat0_7_0_split <- concat0_7
I0129 13:29:51.373865  4205 net.cpp:380] concat0_7_concat0_7_0_split -> concat0_7_concat0_7_0_split_0
I0129 13:29:51.373870  4205 net.cpp:380] concat0_7_concat0_7_0_split -> concat0_7_concat0_7_0_split_1
I0129 13:29:51.373927  4205 net.cpp:122] Setting up concat0_7_concat0_7_0_split
I0129 13:29:51.373934  4205 net.cpp:129] Top shape: 1 288 73 99 (2081376)
I0129 13:29:51.373937  4205 net.cpp:129] Top shape: 1 288 73 99 (2081376)
I0129 13:29:51.373940  4205 net.cpp:137] Memory required for data: 246931076
I0129 13:29:51.373944  4205 layer_factory.hpp:77] Creating layer conv0_8/bn
I0129 13:29:51.373951  4205 net.cpp:84] Creating Layer conv0_8/bn
I0129 13:29:51.373955  4205 net.cpp:406] conv0_8/bn <- concat0_7_concat0_7_0_split_0
I0129 13:29:51.373960  4205 net.cpp:380] conv0_8/bn -> conv0_8/bn
I0129 13:29:51.374321  4205 net.cpp:122] Setting up conv0_8/bn
I0129 13:29:51.374328  4205 net.cpp:129] Top shape: 1 288 73 99 (2081376)
I0129 13:29:51.374331  4205 net.cpp:137] Memory required for data: 255256580
I0129 13:29:51.374339  4205 layer_factory.hpp:77] Creating layer conv0_8/scale
I0129 13:29:51.374347  4205 net.cpp:84] Creating Layer conv0_8/scale
I0129 13:29:51.374351  4205 net.cpp:406] conv0_8/scale <- conv0_8/bn
I0129 13:29:51.374356  4205 net.cpp:367] conv0_8/scale -> conv0_8/bn (in-place)
I0129 13:29:51.374423  4205 layer_factory.hpp:77] Creating layer conv0_8/scale
I0129 13:29:51.374629  4205 net.cpp:122] Setting up conv0_8/scale
I0129 13:29:51.374636  4205 net.cpp:129] Top shape: 1 288 73 99 (2081376)
I0129 13:29:51.374639  4205 net.cpp:137] Memory required for data: 263582084
I0129 13:29:51.374645  4205 layer_factory.hpp:77] Creating layer relu0_8
I0129 13:29:51.374653  4205 net.cpp:84] Creating Layer relu0_8
I0129 13:29:51.374656  4205 net.cpp:406] relu0_8 <- conv0_8/bn
I0129 13:29:51.374661  4205 net.cpp:367] relu0_8 -> conv0_8/bn (in-place)
I0129 13:29:51.374874  4205 net.cpp:122] Setting up relu0_8
I0129 13:29:51.374883  4205 net.cpp:129] Top shape: 1 288 73 99 (2081376)
I0129 13:29:51.374886  4205 net.cpp:137] Memory required for data: 271907588
I0129 13:29:51.374889  4205 layer_factory.hpp:77] Creating layer conv0_8
I0129 13:29:51.374900  4205 net.cpp:84] Creating Layer conv0_8
I0129 13:29:51.374904  4205 net.cpp:406] conv0_8 <- conv0_8/bn
I0129 13:29:51.374912  4205 net.cpp:380] conv0_8 -> conv0_8
I0129 13:29:51.380025  4205 net.cpp:122] Setting up conv0_8
I0129 13:29:51.380039  4205 net.cpp:129] Top shape: 1 32 73 99 (231264)
I0129 13:29:51.380046  4205 net.cpp:137] Memory required for data: 272832644
I0129 13:29:51.380053  4205 layer_factory.hpp:77] Creating layer concat0_8
I0129 13:29:51.380059  4205 net.cpp:84] Creating Layer concat0_8
I0129 13:29:51.380064  4205 net.cpp:406] concat0_8 <- concat0_7_concat0_7_0_split_1
I0129 13:29:51.380069  4205 net.cpp:406] concat0_8 <- conv0_8
I0129 13:29:51.380074  4205 net.cpp:380] concat0_8 -> concat0_8
I0129 13:29:51.380121  4205 net.cpp:122] Setting up concat0_8
I0129 13:29:51.380128  4205 net.cpp:129] Top shape: 1 320 73 99 (2312640)
I0129 13:29:51.380131  4205 net.cpp:137] Memory required for data: 282083204
I0129 13:29:51.380134  4205 layer_factory.hpp:77] Creating layer concat0_8_concat0_8_0_split
I0129 13:29:51.380139  4205 net.cpp:84] Creating Layer concat0_8_concat0_8_0_split
I0129 13:29:51.380142  4205 net.cpp:406] concat0_8_concat0_8_0_split <- concat0_8
I0129 13:29:51.380148  4205 net.cpp:380] concat0_8_concat0_8_0_split -> concat0_8_concat0_8_0_split_0
I0129 13:29:51.380154  4205 net.cpp:380] concat0_8_concat0_8_0_split -> concat0_8_concat0_8_0_split_1
I0129 13:29:51.380213  4205 net.cpp:122] Setting up concat0_8_concat0_8_0_split
I0129 13:29:51.380218  4205 net.cpp:129] Top shape: 1 320 73 99 (2312640)
I0129 13:29:51.380221  4205 net.cpp:129] Top shape: 1 320 73 99 (2312640)
I0129 13:29:51.380224  4205 net.cpp:137] Memory required for data: 300584324
I0129 13:29:51.380228  4205 layer_factory.hpp:77] Creating layer conv0_9/bn
I0129 13:29:51.380234  4205 net.cpp:84] Creating Layer conv0_9/bn
I0129 13:29:51.380236  4205 net.cpp:406] conv0_9/bn <- concat0_8_concat0_8_0_split_0
I0129 13:29:51.380244  4205 net.cpp:380] conv0_9/bn -> conv0_9/bn
I0129 13:29:51.380601  4205 net.cpp:122] Setting up conv0_9/bn
I0129 13:29:51.380609  4205 net.cpp:129] Top shape: 1 320 73 99 (2312640)
I0129 13:29:51.380611  4205 net.cpp:137] Memory required for data: 309834884
I0129 13:29:51.380619  4205 layer_factory.hpp:77] Creating layer conv0_9/scale
I0129 13:29:51.380633  4205 net.cpp:84] Creating Layer conv0_9/scale
I0129 13:29:51.380652  4205 net.cpp:406] conv0_9/scale <- conv0_9/bn
I0129 13:29:51.380658  4205 net.cpp:367] conv0_9/scale -> conv0_9/bn (in-place)
I0129 13:29:51.380728  4205 layer_factory.hpp:77] Creating layer conv0_9/scale
I0129 13:29:51.380942  4205 net.cpp:122] Setting up conv0_9/scale
I0129 13:29:51.380952  4205 net.cpp:129] Top shape: 1 320 73 99 (2312640)
I0129 13:29:51.380955  4205 net.cpp:137] Memory required for data: 319085444
I0129 13:29:51.380969  4205 layer_factory.hpp:77] Creating layer relu0_9
I0129 13:29:51.380978  4205 net.cpp:84] Creating Layer relu0_9
I0129 13:29:51.380982  4205 net.cpp:406] relu0_9 <- conv0_9/bn
I0129 13:29:51.380987  4205 net.cpp:367] relu0_9 -> conv0_9/bn (in-place)
I0129 13:29:51.382159  4205 net.cpp:122] Setting up relu0_9
I0129 13:29:51.382172  4205 net.cpp:129] Top shape: 1 320 73 99 (2312640)
I0129 13:29:51.382175  4205 net.cpp:137] Memory required for data: 328336004
I0129 13:29:51.382179  4205 layer_factory.hpp:77] Creating layer conv0_9
I0129 13:29:51.382191  4205 net.cpp:84] Creating Layer conv0_9
I0129 13:29:51.382197  4205 net.cpp:406] conv0_9 <- conv0_9/bn
I0129 13:29:51.382203  4205 net.cpp:380] conv0_9 -> conv0_9
I0129 13:29:51.387552  4205 net.cpp:122] Setting up conv0_9
I0129 13:29:51.387565  4205 net.cpp:129] Top shape: 1 32 73 99 (231264)
I0129 13:29:51.387569  4205 net.cpp:137] Memory required for data: 329261060
I0129 13:29:51.387575  4205 layer_factory.hpp:77] Creating layer concat0_9
I0129 13:29:51.387583  4205 net.cpp:84] Creating Layer concat0_9
I0129 13:29:51.387586  4205 net.cpp:406] concat0_9 <- concat0_8_concat0_8_0_split_1
I0129 13:29:51.387591  4205 net.cpp:406] concat0_9 <- conv0_9
I0129 13:29:51.387599  4205 net.cpp:380] concat0_9 -> concat0_9
I0129 13:29:51.387645  4205 net.cpp:122] Setting up concat0_9
I0129 13:29:51.387652  4205 net.cpp:129] Top shape: 1 352 73 99 (2543904)
I0129 13:29:51.387655  4205 net.cpp:137] Memory required for data: 339436676
I0129 13:29:51.387658  4205 layer_factory.hpp:77] Creating layer concat0_9_concat0_9_0_split
I0129 13:29:51.387670  4205 net.cpp:84] Creating Layer concat0_9_concat0_9_0_split
I0129 13:29:51.387673  4205 net.cpp:406] concat0_9_concat0_9_0_split <- concat0_9
I0129 13:29:51.387679  4205 net.cpp:380] concat0_9_concat0_9_0_split -> concat0_9_concat0_9_0_split_0
I0129 13:29:51.387686  4205 net.cpp:380] concat0_9_concat0_9_0_split -> concat0_9_concat0_9_0_split_1
I0129 13:29:51.387755  4205 net.cpp:122] Setting up concat0_9_concat0_9_0_split
I0129 13:29:51.387761  4205 net.cpp:129] Top shape: 1 352 73 99 (2543904)
I0129 13:29:51.387765  4205 net.cpp:129] Top shape: 1 352 73 99 (2543904)
I0129 13:29:51.387768  4205 net.cpp:137] Memory required for data: 359787908
I0129 13:29:51.387771  4205 layer_factory.hpp:77] Creating layer conv0_10/bn
I0129 13:29:51.387778  4205 net.cpp:84] Creating Layer conv0_10/bn
I0129 13:29:51.387781  4205 net.cpp:406] conv0_10/bn <- concat0_9_concat0_9_0_split_0
I0129 13:29:51.387786  4205 net.cpp:380] conv0_10/bn -> conv0_10/bn
I0129 13:29:51.388196  4205 net.cpp:122] Setting up conv0_10/bn
I0129 13:29:51.388203  4205 net.cpp:129] Top shape: 1 352 73 99 (2543904)
I0129 13:29:51.388207  4205 net.cpp:137] Memory required for data: 369963524
I0129 13:29:51.388216  4205 layer_factory.hpp:77] Creating layer conv0_10/scale
I0129 13:29:51.388224  4205 net.cpp:84] Creating Layer conv0_10/scale
I0129 13:29:51.388228  4205 net.cpp:406] conv0_10/scale <- conv0_10/bn
I0129 13:29:51.388233  4205 net.cpp:367] conv0_10/scale -> conv0_10/bn (in-place)
I0129 13:29:51.388306  4205 layer_factory.hpp:77] Creating layer conv0_10/scale
I0129 13:29:51.388556  4205 net.cpp:122] Setting up conv0_10/scale
I0129 13:29:51.388564  4205 net.cpp:129] Top shape: 1 352 73 99 (2543904)
I0129 13:29:51.388567  4205 net.cpp:137] Memory required for data: 380139140
I0129 13:29:51.388573  4205 layer_factory.hpp:77] Creating layer relu0_10
I0129 13:29:51.388579  4205 net.cpp:84] Creating Layer relu0_10
I0129 13:29:51.388582  4205 net.cpp:406] relu0_10 <- conv0_10/bn
I0129 13:29:51.388586  4205 net.cpp:367] relu0_10 -> conv0_10/bn (in-place)
I0129 13:29:51.388855  4205 net.cpp:122] Setting up relu0_10
I0129 13:29:51.388864  4205 net.cpp:129] Top shape: 1 352 73 99 (2543904)
I0129 13:29:51.388867  4205 net.cpp:137] Memory required for data: 390314756
I0129 13:29:51.388871  4205 layer_factory.hpp:77] Creating layer conv0_10
I0129 13:29:51.388882  4205 net.cpp:84] Creating Layer conv0_10
I0129 13:29:51.388886  4205 net.cpp:406] conv0_10 <- conv0_10/bn
I0129 13:29:51.388895  4205 net.cpp:380] conv0_10 -> conv0_10
I0129 13:29:51.394680  4205 net.cpp:122] Setting up conv0_10
I0129 13:29:51.394692  4205 net.cpp:129] Top shape: 1 32 73 99 (231264)
I0129 13:29:51.394696  4205 net.cpp:137] Memory required for data: 391239812
I0129 13:29:51.394702  4205 layer_factory.hpp:77] Creating layer concat0_10
I0129 13:29:51.394709  4205 net.cpp:84] Creating Layer concat0_10
I0129 13:29:51.394713  4205 net.cpp:406] concat0_10 <- concat0_9_concat0_9_0_split_1
I0129 13:29:51.394718  4205 net.cpp:406] concat0_10 <- conv0_10
I0129 13:29:51.394726  4205 net.cpp:380] concat0_10 -> concat0_10
I0129 13:29:51.394771  4205 net.cpp:122] Setting up concat0_10
I0129 13:29:51.394778  4205 net.cpp:129] Top shape: 1 384 73 99 (2775168)
I0129 13:29:51.394780  4205 net.cpp:137] Memory required for data: 402340484
I0129 13:29:51.394783  4205 layer_factory.hpp:77] Creating layer concat0_10_concat0_10_0_split
I0129 13:29:51.394788  4205 net.cpp:84] Creating Layer concat0_10_concat0_10_0_split
I0129 13:29:51.394791  4205 net.cpp:406] concat0_10_concat0_10_0_split <- concat0_10
I0129 13:29:51.394798  4205 net.cpp:380] concat0_10_concat0_10_0_split -> concat0_10_concat0_10_0_split_0
I0129 13:29:51.394804  4205 net.cpp:380] concat0_10_concat0_10_0_split -> concat0_10_concat0_10_0_split_1
I0129 13:29:51.394862  4205 net.cpp:122] Setting up concat0_10_concat0_10_0_split
I0129 13:29:51.394867  4205 net.cpp:129] Top shape: 1 384 73 99 (2775168)
I0129 13:29:51.394871  4205 net.cpp:129] Top shape: 1 384 73 99 (2775168)
I0129 13:29:51.394878  4205 net.cpp:137] Memory required for data: 424541828
I0129 13:29:51.394881  4205 layer_factory.hpp:77] Creating layer conv0_11/bn
I0129 13:29:51.394888  4205 net.cpp:84] Creating Layer conv0_11/bn
I0129 13:29:51.394892  4205 net.cpp:406] conv0_11/bn <- concat0_10_concat0_10_0_split_0
I0129 13:29:51.394896  4205 net.cpp:380] conv0_11/bn -> conv0_11/bn
I0129 13:29:51.395264  4205 net.cpp:122] Setting up conv0_11/bn
I0129 13:29:51.395272  4205 net.cpp:129] Top shape: 1 384 73 99 (2775168)
I0129 13:29:51.395275  4205 net.cpp:137] Memory required for data: 435642500
I0129 13:29:51.395282  4205 layer_factory.hpp:77] Creating layer conv0_11/scale
I0129 13:29:51.395292  4205 net.cpp:84] Creating Layer conv0_11/scale
I0129 13:29:51.395295  4205 net.cpp:406] conv0_11/scale <- conv0_11/bn
I0129 13:29:51.395301  4205 net.cpp:367] conv0_11/scale -> conv0_11/bn (in-place)
I0129 13:29:51.395360  4205 layer_factory.hpp:77] Creating layer conv0_11/scale
I0129 13:29:51.395560  4205 net.cpp:122] Setting up conv0_11/scale
I0129 13:29:51.395568  4205 net.cpp:129] Top shape: 1 384 73 99 (2775168)
I0129 13:29:51.395571  4205 net.cpp:137] Memory required for data: 446743172
I0129 13:29:51.395577  4205 layer_factory.hpp:77] Creating layer relu0_11
I0129 13:29:51.395583  4205 net.cpp:84] Creating Layer relu0_11
I0129 13:29:51.395586  4205 net.cpp:406] relu0_11 <- conv0_11/bn
I0129 13:29:51.395592  4205 net.cpp:367] relu0_11 -> conv0_11/bn (in-place)
I0129 13:29:51.395807  4205 net.cpp:122] Setting up relu0_11
I0129 13:29:51.395814  4205 net.cpp:129] Top shape: 1 384 73 99 (2775168)
I0129 13:29:51.395817  4205 net.cpp:137] Memory required for data: 457843844
I0129 13:29:51.395820  4205 layer_factory.hpp:77] Creating layer conv0_11
I0129 13:29:51.395830  4205 net.cpp:84] Creating Layer conv0_11
I0129 13:29:51.395834  4205 net.cpp:406] conv0_11 <- conv0_11/bn
I0129 13:29:51.395841  4205 net.cpp:380] conv0_11 -> conv0_11
I0129 13:29:51.401926  4205 net.cpp:122] Setting up conv0_11
I0129 13:29:51.401939  4205 net.cpp:129] Top shape: 1 32 73 99 (231264)
I0129 13:29:51.401943  4205 net.cpp:137] Memory required for data: 458768900
I0129 13:29:51.401949  4205 layer_factory.hpp:77] Creating layer concat0_11
I0129 13:29:51.401957  4205 net.cpp:84] Creating Layer concat0_11
I0129 13:29:51.401960  4205 net.cpp:406] concat0_11 <- concat0_10_concat0_10_0_split_1
I0129 13:29:51.401968  4205 net.cpp:406] concat0_11 <- conv0_11
I0129 13:29:51.401973  4205 net.cpp:380] concat0_11 -> concat0_11
I0129 13:29:51.402019  4205 net.cpp:122] Setting up concat0_11
I0129 13:29:51.402025  4205 net.cpp:129] Top shape: 1 416 73 99 (3006432)
I0129 13:29:51.402029  4205 net.cpp:137] Memory required for data: 470794628
I0129 13:29:51.402031  4205 layer_factory.hpp:77] Creating layer concat0_11_concat0_11_0_split
I0129 13:29:51.402040  4205 net.cpp:84] Creating Layer concat0_11_concat0_11_0_split
I0129 13:29:51.402042  4205 net.cpp:406] concat0_11_concat0_11_0_split <- concat0_11
I0129 13:29:51.402046  4205 net.cpp:380] concat0_11_concat0_11_0_split -> concat0_11_concat0_11_0_split_0
I0129 13:29:51.402052  4205 net.cpp:380] concat0_11_concat0_11_0_split -> concat0_11_concat0_11_0_split_1
I0129 13:29:51.402109  4205 net.cpp:122] Setting up concat0_11_concat0_11_0_split
I0129 13:29:51.402115  4205 net.cpp:129] Top shape: 1 416 73 99 (3006432)
I0129 13:29:51.402119  4205 net.cpp:129] Top shape: 1 416 73 99 (3006432)
I0129 13:29:51.402122  4205 net.cpp:137] Memory required for data: 494846084
I0129 13:29:51.402125  4205 layer_factory.hpp:77] Creating layer conv0_12/bn
I0129 13:29:51.402132  4205 net.cpp:84] Creating Layer conv0_12/bn
I0129 13:29:51.402137  4205 net.cpp:406] conv0_12/bn <- concat0_11_concat0_11_0_split_0
I0129 13:29:51.402142  4205 net.cpp:380] conv0_12/bn -> conv0_12/bn
I0129 13:29:51.402505  4205 net.cpp:122] Setting up conv0_12/bn
I0129 13:29:51.402513  4205 net.cpp:129] Top shape: 1 416 73 99 (3006432)
I0129 13:29:51.402515  4205 net.cpp:137] Memory required for data: 506871812
I0129 13:29:51.402523  4205 layer_factory.hpp:77] Creating layer conv0_12/scale
I0129 13:29:51.402532  4205 net.cpp:84] Creating Layer conv0_12/scale
I0129 13:29:51.402536  4205 net.cpp:406] conv0_12/scale <- conv0_12/bn
I0129 13:29:51.402544  4205 net.cpp:367] conv0_12/scale -> conv0_12/bn (in-place)
I0129 13:29:51.402613  4205 layer_factory.hpp:77] Creating layer conv0_12/scale
I0129 13:29:51.402827  4205 net.cpp:122] Setting up conv0_12/scale
I0129 13:29:51.402835  4205 net.cpp:129] Top shape: 1 416 73 99 (3006432)
I0129 13:29:51.402838  4205 net.cpp:137] Memory required for data: 518897540
I0129 13:29:51.402844  4205 layer_factory.hpp:77] Creating layer relu0_12
I0129 13:29:51.402854  4205 net.cpp:84] Creating Layer relu0_12
I0129 13:29:51.402858  4205 net.cpp:406] relu0_12 <- conv0_12/bn
I0129 13:29:51.402863  4205 net.cpp:367] relu0_12 -> conv0_12/bn (in-place)
I0129 13:29:51.404045  4205 net.cpp:122] Setting up relu0_12
I0129 13:29:51.404058  4205 net.cpp:129] Top shape: 1 416 73 99 (3006432)
I0129 13:29:51.404062  4205 net.cpp:137] Memory required for data: 530923268
I0129 13:29:51.404065  4205 layer_factory.hpp:77] Creating layer conv0_12
I0129 13:29:51.404078  4205 net.cpp:84] Creating Layer conv0_12
I0129 13:29:51.404083  4205 net.cpp:406] conv0_12 <- conv0_12/bn
I0129 13:29:51.404089  4205 net.cpp:380] conv0_12 -> conv0_12
I0129 13:29:51.412106  4205 net.cpp:122] Setting up conv0_12
I0129 13:29:51.412119  4205 net.cpp:129] Top shape: 1 32 73 99 (231264)
I0129 13:29:51.412122  4205 net.cpp:137] Memory required for data: 531848324
I0129 13:29:51.412130  4205 layer_factory.hpp:77] Creating layer concat0_12
I0129 13:29:51.412137  4205 net.cpp:84] Creating Layer concat0_12
I0129 13:29:51.412142  4205 net.cpp:406] concat0_12 <- concat0_11_concat0_11_0_split_1
I0129 13:29:51.412147  4205 net.cpp:406] concat0_12 <- conv0_12
I0129 13:29:51.412153  4205 net.cpp:380] concat0_12 -> concat0_12
I0129 13:29:51.412200  4205 net.cpp:122] Setting up concat0_12
I0129 13:29:51.412206  4205 net.cpp:129] Top shape: 1 448 73 99 (3237696)
I0129 13:29:51.412209  4205 net.cpp:137] Memory required for data: 544799108
I0129 13:29:51.412212  4205 layer_factory.hpp:77] Creating layer concat0_12_concat0_12_0_split
I0129 13:29:51.412219  4205 net.cpp:84] Creating Layer concat0_12_concat0_12_0_split
I0129 13:29:51.412221  4205 net.cpp:406] concat0_12_concat0_12_0_split <- concat0_12
I0129 13:29:51.412228  4205 net.cpp:380] concat0_12_concat0_12_0_split -> concat0_12_concat0_12_0_split_0
I0129 13:29:51.412233  4205 net.cpp:380] concat0_12_concat0_12_0_split -> concat0_12_concat0_12_0_split_1
I0129 13:29:51.412292  4205 net.cpp:122] Setting up concat0_12_concat0_12_0_split
I0129 13:29:51.412297  4205 net.cpp:129] Top shape: 1 448 73 99 (3237696)
I0129 13:29:51.412302  4205 net.cpp:129] Top shape: 1 448 73 99 (3237696)
I0129 13:29:51.412304  4205 net.cpp:137] Memory required for data: 570700676
I0129 13:29:51.412307  4205 layer_factory.hpp:77] Creating layer conv0_13/bn
I0129 13:29:51.412314  4205 net.cpp:84] Creating Layer conv0_13/bn
I0129 13:29:51.412319  4205 net.cpp:406] conv0_13/bn <- concat0_12_concat0_12_0_split_0
I0129 13:29:51.412323  4205 net.cpp:380] conv0_13/bn -> conv0_13/bn
I0129 13:29:51.412760  4205 net.cpp:122] Setting up conv0_13/bn
I0129 13:29:51.412768  4205 net.cpp:129] Top shape: 1 448 73 99 (3237696)
I0129 13:29:51.412772  4205 net.cpp:137] Memory required for data: 583651460
I0129 13:29:51.412780  4205 layer_factory.hpp:77] Creating layer conv0_13/scale
I0129 13:29:51.412787  4205 net.cpp:84] Creating Layer conv0_13/scale
I0129 13:29:51.412791  4205 net.cpp:406] conv0_13/scale <- conv0_13/bn
I0129 13:29:51.412798  4205 net.cpp:367] conv0_13/scale -> conv0_13/bn (in-place)
I0129 13:29:51.412873  4205 layer_factory.hpp:77] Creating layer conv0_13/scale
I0129 13:29:51.413131  4205 net.cpp:122] Setting up conv0_13/scale
I0129 13:29:51.413138  4205 net.cpp:129] Top shape: 1 448 73 99 (3237696)
I0129 13:29:51.413142  4205 net.cpp:137] Memory required for data: 596602244
I0129 13:29:51.413148  4205 layer_factory.hpp:77] Creating layer relu0_13
I0129 13:29:51.413156  4205 net.cpp:84] Creating Layer relu0_13
I0129 13:29:51.413163  4205 net.cpp:406] relu0_13 <- conv0_13/bn
I0129 13:29:51.413168  4205 net.cpp:367] relu0_13 -> conv0_13/bn (in-place)
I0129 13:29:51.413388  4205 net.cpp:122] Setting up relu0_13
I0129 13:29:51.413396  4205 net.cpp:129] Top shape: 1 448 73 99 (3237696)
I0129 13:29:51.413399  4205 net.cpp:137] Memory required for data: 609553028
I0129 13:29:51.413403  4205 layer_factory.hpp:77] Creating layer conv0_13
I0129 13:29:51.413414  4205 net.cpp:84] Creating Layer conv0_13
I0129 13:29:51.413417  4205 net.cpp:406] conv0_13 <- conv0_13/bn
I0129 13:29:51.413424  4205 net.cpp:380] conv0_13 -> conv0_13
I0129 13:29:51.420204  4205 net.cpp:122] Setting up conv0_13
I0129 13:29:51.420220  4205 net.cpp:129] Top shape: 1 32 73 99 (231264)
I0129 13:29:51.420223  4205 net.cpp:137] Memory required for data: 610478084
I0129 13:29:51.420230  4205 layer_factory.hpp:77] Creating layer concat0_13
I0129 13:29:51.420238  4205 net.cpp:84] Creating Layer concat0_13
I0129 13:29:51.420241  4205 net.cpp:406] concat0_13 <- concat0_12_concat0_12_0_split_1
I0129 13:29:51.420246  4205 net.cpp:406] concat0_13 <- conv0_13
I0129 13:29:51.420251  4205 net.cpp:380] concat0_13 -> concat0_13
I0129 13:29:51.420302  4205 net.cpp:122] Setting up concat0_13
I0129 13:29:51.420308  4205 net.cpp:129] Top shape: 1 480 73 99 (3468960)
I0129 13:29:51.420311  4205 net.cpp:137] Memory required for data: 624353924
I0129 13:29:51.420315  4205 layer_factory.hpp:77] Creating layer concat0_13_concat0_13_0_split
I0129 13:29:51.420320  4205 net.cpp:84] Creating Layer concat0_13_concat0_13_0_split
I0129 13:29:51.420325  4205 net.cpp:406] concat0_13_concat0_13_0_split <- concat0_13
I0129 13:29:51.420330  4205 net.cpp:380] concat0_13_concat0_13_0_split -> concat0_13_concat0_13_0_split_0
I0129 13:29:51.420336  4205 net.cpp:380] concat0_13_concat0_13_0_split -> concat0_13_concat0_13_0_split_1
I0129 13:29:51.420398  4205 net.cpp:122] Setting up concat0_13_concat0_13_0_split
I0129 13:29:51.420406  4205 net.cpp:129] Top shape: 1 480 73 99 (3468960)
I0129 13:29:51.420410  4205 net.cpp:129] Top shape: 1 480 73 99 (3468960)
I0129 13:29:51.420413  4205 net.cpp:137] Memory required for data: 652105604
I0129 13:29:51.420416  4205 layer_factory.hpp:77] Creating layer conv0_14/bn
I0129 13:29:51.420423  4205 net.cpp:84] Creating Layer conv0_14/bn
I0129 13:29:51.420425  4205 net.cpp:406] conv0_14/bn <- concat0_13_concat0_13_0_split_0
I0129 13:29:51.420433  4205 net.cpp:380] conv0_14/bn -> conv0_14/bn
I0129 13:29:51.420859  4205 net.cpp:122] Setting up conv0_14/bn
I0129 13:29:51.420867  4205 net.cpp:129] Top shape: 1 480 73 99 (3468960)
I0129 13:29:51.420871  4205 net.cpp:137] Memory required for data: 665981444
I0129 13:29:51.420878  4205 layer_factory.hpp:77] Creating layer conv0_14/scale
I0129 13:29:51.420887  4205 net.cpp:84] Creating Layer conv0_14/scale
I0129 13:29:51.420892  4205 net.cpp:406] conv0_14/scale <- conv0_14/bn
I0129 13:29:51.420899  4205 net.cpp:367] conv0_14/scale -> conv0_14/bn (in-place)
I0129 13:29:51.420974  4205 layer_factory.hpp:77] Creating layer conv0_14/scale
I0129 13:29:51.421211  4205 net.cpp:122] Setting up conv0_14/scale
I0129 13:29:51.421219  4205 net.cpp:129] Top shape: 1 480 73 99 (3468960)
I0129 13:29:51.421222  4205 net.cpp:137] Memory required for data: 679857284
I0129 13:29:51.421228  4205 layer_factory.hpp:77] Creating layer relu0_14
I0129 13:29:51.421234  4205 net.cpp:84] Creating Layer relu0_14
I0129 13:29:51.421237  4205 net.cpp:406] relu0_14 <- conv0_14/bn
I0129 13:29:51.421242  4205 net.cpp:367] relu0_14 -> conv0_14/bn (in-place)
I0129 13:29:51.421465  4205 net.cpp:122] Setting up relu0_14
I0129 13:29:51.421473  4205 net.cpp:129] Top shape: 1 480 73 99 (3468960)
I0129 13:29:51.421478  4205 net.cpp:137] Memory required for data: 693733124
I0129 13:29:51.421480  4205 layer_factory.hpp:77] Creating layer conv0_14
I0129 13:29:51.421491  4205 net.cpp:84] Creating Layer conv0_14
I0129 13:29:51.421495  4205 net.cpp:406] conv0_14 <- conv0_14/bn
I0129 13:29:51.421502  4205 net.cpp:380] conv0_14 -> conv0_14
I0129 13:29:51.429412  4205 net.cpp:122] Setting up conv0_14
I0129 13:29:51.429431  4205 net.cpp:129] Top shape: 1 32 73 99 (231264)
I0129 13:29:51.429435  4205 net.cpp:137] Memory required for data: 694658180
I0129 13:29:51.429441  4205 layer_factory.hpp:77] Creating layer concat0_14
I0129 13:29:51.429450  4205 net.cpp:84] Creating Layer concat0_14
I0129 13:29:51.429453  4205 net.cpp:406] concat0_14 <- concat0_13_concat0_13_0_split_1
I0129 13:29:51.429458  4205 net.cpp:406] concat0_14 <- conv0_14
I0129 13:29:51.429463  4205 net.cpp:380] concat0_14 -> concat0_14
I0129 13:29:51.429515  4205 net.cpp:122] Setting up concat0_14
I0129 13:29:51.429522  4205 net.cpp:129] Top shape: 1 512 73 99 (3700224)
I0129 13:29:51.429524  4205 net.cpp:137] Memory required for data: 709459076
I0129 13:29:51.429527  4205 layer_factory.hpp:77] Creating layer BatchNorm1
I0129 13:29:51.429533  4205 net.cpp:84] Creating Layer BatchNorm1
I0129 13:29:51.429538  4205 net.cpp:406] BatchNorm1 <- concat0_14
I0129 13:29:51.429544  4205 net.cpp:380] BatchNorm1 -> BatchNorm1
I0129 13:29:51.429930  4205 net.cpp:122] Setting up BatchNorm1
I0129 13:29:51.429937  4205 net.cpp:129] Top shape: 1 512 73 99 (3700224)
I0129 13:29:51.429940  4205 net.cpp:137] Memory required for data: 724259972
I0129 13:29:51.429949  4205 layer_factory.hpp:77] Creating layer Scale1
I0129 13:29:51.429957  4205 net.cpp:84] Creating Layer Scale1
I0129 13:29:51.429960  4205 net.cpp:406] Scale1 <- BatchNorm1
I0129 13:29:51.429967  4205 net.cpp:367] Scale1 -> BatchNorm1 (in-place)
I0129 13:29:51.430027  4205 layer_factory.hpp:77] Creating layer Scale1
I0129 13:29:51.430238  4205 net.cpp:122] Setting up Scale1
I0129 13:29:51.430245  4205 net.cpp:129] Top shape: 1 512 73 99 (3700224)
I0129 13:29:51.430248  4205 net.cpp:137] Memory required for data: 739060868
I0129 13:29:51.430254  4205 layer_factory.hpp:77] Creating layer ReLU1
I0129 13:29:51.430260  4205 net.cpp:84] Creating Layer ReLU1
I0129 13:29:51.430263  4205 net.cpp:406] ReLU1 <- BatchNorm1
I0129 13:29:51.430269  4205 net.cpp:367] ReLU1 -> BatchNorm1 (in-place)
I0129 13:29:51.431471  4205 net.cpp:122] Setting up ReLU1
I0129 13:29:51.431484  4205 net.cpp:129] Top shape: 1 512 73 99 (3700224)
I0129 13:29:51.431488  4205 net.cpp:137] Memory required for data: 753861764
I0129 13:29:51.431491  4205 layer_factory.hpp:77] Creating layer conv0_blk
I0129 13:29:51.431506  4205 net.cpp:84] Creating Layer conv0_blk
I0129 13:29:51.431510  4205 net.cpp:406] conv0_blk <- BatchNorm1
I0129 13:29:51.431519  4205 net.cpp:380] conv0_blk -> conv0_blk
I0129 13:29:51.442504  4205 net.cpp:122] Setting up conv0_blk
I0129 13:29:51.442519  4205 net.cpp:129] Top shape: 1 512 73 99 (3700224)
I0129 13:29:51.442523  4205 net.cpp:137] Memory required for data: 768662660
I0129 13:29:51.442528  4205 layer_factory.hpp:77] Creating layer pool0
I0129 13:29:51.442538  4205 net.cpp:84] Creating Layer pool0
I0129 13:29:51.442543  4205 net.cpp:406] pool0 <- conv0_blk
I0129 13:29:51.442548  4205 net.cpp:380] pool0 -> pool0
I0129 13:29:51.442804  4205 net.cpp:122] Setting up pool0
I0129 13:29:51.442813  4205 net.cpp:129] Top shape: 1 512 37 50 (947200)
I0129 13:29:51.442816  4205 net.cpp:137] Memory required for data: 772451460
I0129 13:29:51.442821  4205 layer_factory.hpp:77] Creating layer pool0_pool0_0_split
I0129 13:29:51.442826  4205 net.cpp:84] Creating Layer pool0_pool0_0_split
I0129 13:29:51.442829  4205 net.cpp:406] pool0_pool0_0_split <- pool0
I0129 13:29:51.442836  4205 net.cpp:380] pool0_pool0_0_split -> pool0_pool0_0_split_0
I0129 13:29:51.442842  4205 net.cpp:380] pool0_pool0_0_split -> pool0_pool0_0_split_1
I0129 13:29:51.442904  4205 net.cpp:122] Setting up pool0_pool0_0_split
I0129 13:29:51.442910  4205 net.cpp:129] Top shape: 1 512 37 50 (947200)
I0129 13:29:51.442914  4205 net.cpp:129] Top shape: 1 512 37 50 (947200)
I0129 13:29:51.442916  4205 net.cpp:137] Memory required for data: 780029060
I0129 13:29:51.442920  4205 layer_factory.hpp:77] Creating layer conv1_0/bn
I0129 13:29:51.442927  4205 net.cpp:84] Creating Layer conv1_0/bn
I0129 13:29:51.442930  4205 net.cpp:406] conv1_0/bn <- pool0_pool0_0_split_0
I0129 13:29:51.442939  4205 net.cpp:380] conv1_0/bn -> conv1_0/bn
I0129 13:29:51.445032  4205 net.cpp:122] Setting up conv1_0/bn
I0129 13:29:51.445045  4205 net.cpp:129] Top shape: 1 512 37 50 (947200)
I0129 13:29:51.445050  4205 net.cpp:137] Memory required for data: 783817860
I0129 13:29:51.445058  4205 layer_factory.hpp:77] Creating layer conv1_0/scale
I0129 13:29:51.445066  4205 net.cpp:84] Creating Layer conv1_0/scale
I0129 13:29:51.445071  4205 net.cpp:406] conv1_0/scale <- conv1_0/bn
I0129 13:29:51.445078  4205 net.cpp:367] conv1_0/scale -> conv1_0/bn (in-place)
I0129 13:29:51.445163  4205 layer_factory.hpp:77] Creating layer conv1_0/scale
I0129 13:29:51.445371  4205 net.cpp:122] Setting up conv1_0/scale
I0129 13:29:51.445379  4205 net.cpp:129] Top shape: 1 512 37 50 (947200)
I0129 13:29:51.445382  4205 net.cpp:137] Memory required for data: 787606660
I0129 13:29:51.445389  4205 layer_factory.hpp:77] Creating layer relu1_0
I0129 13:29:51.445394  4205 net.cpp:84] Creating Layer relu1_0
I0129 13:29:51.445399  4205 net.cpp:406] relu1_0 <- conv1_0/bn
I0129 13:29:51.445403  4205 net.cpp:367] relu1_0 -> conv1_0/bn (in-place)
I0129 13:29:51.445636  4205 net.cpp:122] Setting up relu1_0
I0129 13:29:51.445644  4205 net.cpp:129] Top shape: 1 512 37 50 (947200)
I0129 13:29:51.445647  4205 net.cpp:137] Memory required for data: 791395460
I0129 13:29:51.445652  4205 layer_factory.hpp:77] Creating layer conv1_0
I0129 13:29:51.445664  4205 net.cpp:84] Creating Layer conv1_0
I0129 13:29:51.445668  4205 net.cpp:406] conv1_0 <- conv1_0/bn
I0129 13:29:51.445673  4205 net.cpp:380] conv1_0 -> conv1_0
I0129 13:29:51.452862  4205 net.cpp:122] Setting up conv1_0
I0129 13:29:51.452877  4205 net.cpp:129] Top shape: 1 32 37 50 (59200)
I0129 13:29:51.452880  4205 net.cpp:137] Memory required for data: 791632260
I0129 13:29:51.452888  4205 layer_factory.hpp:77] Creating layer concat1_0
I0129 13:29:51.452896  4205 net.cpp:84] Creating Layer concat1_0
I0129 13:29:51.452901  4205 net.cpp:406] concat1_0 <- pool0_pool0_0_split_1
I0129 13:29:51.452906  4205 net.cpp:406] concat1_0 <- conv1_0
I0129 13:29:51.452914  4205 net.cpp:380] concat1_0 -> concat1_0
I0129 13:29:51.452965  4205 net.cpp:122] Setting up concat1_0
I0129 13:29:51.452971  4205 net.cpp:129] Top shape: 1 544 37 50 (1006400)
I0129 13:29:51.452975  4205 net.cpp:137] Memory required for data: 795657860
I0129 13:29:51.452977  4205 layer_factory.hpp:77] Creating layer concat1_0_concat1_0_0_split
I0129 13:29:51.452983  4205 net.cpp:84] Creating Layer concat1_0_concat1_0_0_split
I0129 13:29:51.452987  4205 net.cpp:406] concat1_0_concat1_0_0_split <- concat1_0
I0129 13:29:51.452996  4205 net.cpp:380] concat1_0_concat1_0_0_split -> concat1_0_concat1_0_0_split_0
I0129 13:29:51.453001  4205 net.cpp:380] concat1_0_concat1_0_0_split -> concat1_0_concat1_0_0_split_1
I0129 13:29:51.453078  4205 net.cpp:122] Setting up concat1_0_concat1_0_0_split
I0129 13:29:51.453083  4205 net.cpp:129] Top shape: 1 544 37 50 (1006400)
I0129 13:29:51.453088  4205 net.cpp:129] Top shape: 1 544 37 50 (1006400)
I0129 13:29:51.453090  4205 net.cpp:137] Memory required for data: 803709060
I0129 13:29:51.453094  4205 layer_factory.hpp:77] Creating layer conv1_1/bn
I0129 13:29:51.453101  4205 net.cpp:84] Creating Layer conv1_1/bn
I0129 13:29:51.453107  4205 net.cpp:406] conv1_1/bn <- concat1_0_concat1_0_0_split_0
I0129 13:29:51.453111  4205 net.cpp:380] conv1_1/bn -> conv1_1/bn
I0129 13:29:51.453490  4205 net.cpp:122] Setting up conv1_1/bn
I0129 13:29:51.453497  4205 net.cpp:129] Top shape: 1 544 37 50 (1006400)
I0129 13:29:51.453500  4205 net.cpp:137] Memory required for data: 807734660
I0129 13:29:51.453510  4205 layer_factory.hpp:77] Creating layer conv1_1/scale
I0129 13:29:51.453517  4205 net.cpp:84] Creating Layer conv1_1/scale
I0129 13:29:51.453521  4205 net.cpp:406] conv1_1/scale <- conv1_1/bn
I0129 13:29:51.453526  4205 net.cpp:367] conv1_1/scale -> conv1_1/bn (in-place)
I0129 13:29:51.453601  4205 layer_factory.hpp:77] Creating layer conv1_1/scale
I0129 13:29:51.453821  4205 net.cpp:122] Setting up conv1_1/scale
I0129 13:29:51.453832  4205 net.cpp:129] Top shape: 1 544 37 50 (1006400)
I0129 13:29:51.453836  4205 net.cpp:137] Memory required for data: 811760260
I0129 13:29:51.453842  4205 layer_factory.hpp:77] Creating layer relu1_1
I0129 13:29:51.453848  4205 net.cpp:84] Creating Layer relu1_1
I0129 13:29:51.453851  4205 net.cpp:406] relu1_1 <- conv1_1/bn
I0129 13:29:51.453858  4205 net.cpp:367] relu1_1 -> conv1_1/bn (in-place)
I0129 13:29:51.454097  4205 net.cpp:122] Setting up relu1_1
I0129 13:29:51.454105  4205 net.cpp:129] Top shape: 1 544 37 50 (1006400)
I0129 13:29:51.454108  4205 net.cpp:137] Memory required for data: 815785860
I0129 13:29:51.454113  4205 layer_factory.hpp:77] Creating layer conv1_1
I0129 13:29:51.454123  4205 net.cpp:84] Creating Layer conv1_1
I0129 13:29:51.454128  4205 net.cpp:406] conv1_1 <- conv1_1/bn
I0129 13:29:51.454134  4205 net.cpp:380] conv1_1 -> conv1_1
I0129 13:29:51.463263  4205 net.cpp:122] Setting up conv1_1
I0129 13:29:51.463276  4205 net.cpp:129] Top shape: 1 32 37 50 (59200)
I0129 13:29:51.463280  4205 net.cpp:137] Memory required for data: 816022660
I0129 13:29:51.463286  4205 layer_factory.hpp:77] Creating layer concat1_1
I0129 13:29:51.463295  4205 net.cpp:84] Creating Layer concat1_1
I0129 13:29:51.463300  4205 net.cpp:406] concat1_1 <- concat1_0_concat1_0_0_split_1
I0129 13:29:51.463305  4205 net.cpp:406] concat1_1 <- conv1_1
I0129 13:29:51.463311  4205 net.cpp:380] concat1_1 -> concat1_1
I0129 13:29:51.463361  4205 net.cpp:122] Setting up concat1_1
I0129 13:29:51.463371  4205 net.cpp:129] Top shape: 1 576 37 50 (1065600)
I0129 13:29:51.463373  4205 net.cpp:137] Memory required for data: 820285060
I0129 13:29:51.463376  4205 layer_factory.hpp:77] Creating layer concat1_1_concat1_1_0_split
I0129 13:29:51.463382  4205 net.cpp:84] Creating Layer concat1_1_concat1_1_0_split
I0129 13:29:51.463385  4205 net.cpp:406] concat1_1_concat1_1_0_split <- concat1_1
I0129 13:29:51.463390  4205 net.cpp:380] concat1_1_concat1_1_0_split -> concat1_1_concat1_1_0_split_0
I0129 13:29:51.463397  4205 net.cpp:380] concat1_1_concat1_1_0_split -> concat1_1_concat1_1_0_split_1
I0129 13:29:51.463459  4205 net.cpp:122] Setting up concat1_1_concat1_1_0_split
I0129 13:29:51.463465  4205 net.cpp:129] Top shape: 1 576 37 50 (1065600)
I0129 13:29:51.463469  4205 net.cpp:129] Top shape: 1 576 37 50 (1065600)
I0129 13:29:51.463472  4205 net.cpp:137] Memory required for data: 828809860
I0129 13:29:51.463475  4205 layer_factory.hpp:77] Creating layer conv1_2/bn
I0129 13:29:51.463482  4205 net.cpp:84] Creating Layer conv1_2/bn
I0129 13:29:51.463486  4205 net.cpp:406] conv1_2/bn <- concat1_1_concat1_1_0_split_0
I0129 13:29:51.463491  4205 net.cpp:380] conv1_2/bn -> conv1_2/bn
I0129 13:29:51.463907  4205 net.cpp:122] Setting up conv1_2/bn
I0129 13:29:51.463915  4205 net.cpp:129] Top shape: 1 576 37 50 (1065600)
I0129 13:29:51.463918  4205 net.cpp:137] Memory required for data: 833072260
I0129 13:29:51.463927  4205 layer_factory.hpp:77] Creating layer conv1_2/scale
I0129 13:29:51.463935  4205 net.cpp:84] Creating Layer conv1_2/scale
I0129 13:29:51.463939  4205 net.cpp:406] conv1_2/scale <- conv1_2/bn
I0129 13:29:51.463946  4205 net.cpp:367] conv1_2/scale -> conv1_2/bn (in-place)
I0129 13:29:51.464020  4205 layer_factory.hpp:77] Creating layer conv1_2/scale
I0129 13:29:51.464264  4205 net.cpp:122] Setting up conv1_2/scale
I0129 13:29:51.464272  4205 net.cpp:129] Top shape: 1 576 37 50 (1065600)
I0129 13:29:51.464275  4205 net.cpp:137] Memory required for data: 837334660
I0129 13:29:51.464282  4205 layer_factory.hpp:77] Creating layer relu1_2
I0129 13:29:51.464287  4205 net.cpp:84] Creating Layer relu1_2
I0129 13:29:51.464292  4205 net.cpp:406] relu1_2 <- conv1_2/bn
I0129 13:29:51.464295  4205 net.cpp:367] relu1_2 -> conv1_2/bn (in-place)
I0129 13:29:51.465535  4205 net.cpp:122] Setting up relu1_2
I0129 13:29:51.465548  4205 net.cpp:129] Top shape: 1 576 37 50 (1065600)
I0129 13:29:51.465553  4205 net.cpp:137] Memory required for data: 841597060
I0129 13:29:51.465556  4205 layer_factory.hpp:77] Creating layer conv1_2
I0129 13:29:51.465570  4205 net.cpp:84] Creating Layer conv1_2
I0129 13:29:51.465575  4205 net.cpp:406] conv1_2 <- conv1_2/bn
I0129 13:29:51.465584  4205 net.cpp:380] conv1_2 -> conv1_2
I0129 13:29:51.473285  4205 net.cpp:122] Setting up conv1_2
I0129 13:29:51.473299  4205 net.cpp:129] Top shape: 1 32 37 50 (59200)
I0129 13:29:51.473304  4205 net.cpp:137] Memory required for data: 841833860
I0129 13:29:51.473309  4205 layer_factory.hpp:77] Creating layer concat1_2
I0129 13:29:51.473317  4205 net.cpp:84] Creating Layer concat1_2
I0129 13:29:51.473321  4205 net.cpp:406] concat1_2 <- concat1_1_concat1_1_0_split_1
I0129 13:29:51.473328  4205 net.cpp:406] concat1_2 <- conv1_2
I0129 13:29:51.473335  4205 net.cpp:380] concat1_2 -> concat1_2
I0129 13:29:51.473384  4205 net.cpp:122] Setting up concat1_2
I0129 13:29:51.473390  4205 net.cpp:129] Top shape: 1 608 37 50 (1124800)
I0129 13:29:51.473393  4205 net.cpp:137] Memory required for data: 846333060
I0129 13:29:51.473397  4205 layer_factory.hpp:77] Creating layer concat1_2_concat1_2_0_split
I0129 13:29:51.473403  4205 net.cpp:84] Creating Layer concat1_2_concat1_2_0_split
I0129 13:29:51.473407  4205 net.cpp:406] concat1_2_concat1_2_0_split <- concat1_2
I0129 13:29:51.473412  4205 net.cpp:380] concat1_2_concat1_2_0_split -> concat1_2_concat1_2_0_split_0
I0129 13:29:51.473418  4205 net.cpp:380] concat1_2_concat1_2_0_split -> concat1_2_concat1_2_0_split_1
I0129 13:29:51.473480  4205 net.cpp:122] Setting up concat1_2_concat1_2_0_split
I0129 13:29:51.473486  4205 net.cpp:129] Top shape: 1 608 37 50 (1124800)
I0129 13:29:51.473490  4205 net.cpp:129] Top shape: 1 608 37 50 (1124800)
I0129 13:29:51.473493  4205 net.cpp:137] Memory required for data: 855331460
I0129 13:29:51.473496  4205 layer_factory.hpp:77] Creating layer conv1_3/bn
I0129 13:29:51.473505  4205 net.cpp:84] Creating Layer conv1_3/bn
I0129 13:29:51.473508  4205 net.cpp:406] conv1_3/bn <- concat1_2_concat1_2_0_split_0
I0129 13:29:51.473513  4205 net.cpp:380] conv1_3/bn -> conv1_3/bn
I0129 13:29:51.473909  4205 net.cpp:122] Setting up conv1_3/bn
I0129 13:29:51.473917  4205 net.cpp:129] Top shape: 1 608 37 50 (1124800)
I0129 13:29:51.473920  4205 net.cpp:137] Memory required for data: 859830660
I0129 13:29:51.473927  4205 layer_factory.hpp:77] Creating layer conv1_3/scale
I0129 13:29:51.473937  4205 net.cpp:84] Creating Layer conv1_3/scale
I0129 13:29:51.473940  4205 net.cpp:406] conv1_3/scale <- conv1_3/bn
I0129 13:29:51.473945  4205 net.cpp:367] conv1_3/scale -> conv1_3/bn (in-place)
I0129 13:29:51.474018  4205 layer_factory.hpp:77] Creating layer conv1_3/scale
I0129 13:29:51.474239  4205 net.cpp:122] Setting up conv1_3/scale
I0129 13:29:51.474247  4205 net.cpp:129] Top shape: 1 608 37 50 (1124800)
I0129 13:29:51.474251  4205 net.cpp:137] Memory required for data: 864329860
I0129 13:29:51.474256  4205 layer_factory.hpp:77] Creating layer relu1_3
I0129 13:29:51.474262  4205 net.cpp:84] Creating Layer relu1_3
I0129 13:29:51.474267  4205 net.cpp:406] relu1_3 <- conv1_3/bn
I0129 13:29:51.474270  4205 net.cpp:367] relu1_3 -> conv1_3/bn (in-place)
I0129 13:29:51.474493  4205 net.cpp:122] Setting up relu1_3
I0129 13:29:51.474500  4205 net.cpp:129] Top shape: 1 608 37 50 (1124800)
I0129 13:29:51.474503  4205 net.cpp:137] Memory required for data: 868829060
I0129 13:29:51.474508  4205 layer_factory.hpp:77] Creating layer conv1_3
I0129 13:29:51.474519  4205 net.cpp:84] Creating Layer conv1_3
I0129 13:29:51.474522  4205 net.cpp:406] conv1_3 <- conv1_3/bn
I0129 13:29:51.474529  4205 net.cpp:380] conv1_3 -> conv1_3
I0129 13:29:51.482462  4205 net.cpp:122] Setting up conv1_3
I0129 13:29:51.482476  4205 net.cpp:129] Top shape: 1 32 37 50 (59200)
I0129 13:29:51.482481  4205 net.cpp:137] Memory required for data: 869065860
I0129 13:29:51.482486  4205 layer_factory.hpp:77] Creating layer concat1_3
I0129 13:29:51.482492  4205 net.cpp:84] Creating Layer concat1_3
I0129 13:29:51.482497  4205 net.cpp:406] concat1_3 <- concat1_2_concat1_2_0_split_1
I0129 13:29:51.482502  4205 net.cpp:406] concat1_3 <- conv1_3
I0129 13:29:51.482512  4205 net.cpp:380] concat1_3 -> concat1_3
I0129 13:29:51.482563  4205 net.cpp:122] Setting up concat1_3
I0129 13:29:51.482570  4205 net.cpp:129] Top shape: 1 640 37 50 (1184000)
I0129 13:29:51.482573  4205 net.cpp:137] Memory required for data: 873801860
I0129 13:29:51.482576  4205 layer_factory.hpp:77] Creating layer concat1_3_concat1_3_0_split
I0129 13:29:51.482581  4205 net.cpp:84] Creating Layer concat1_3_concat1_3_0_split
I0129 13:29:51.482584  4205 net.cpp:406] concat1_3_concat1_3_0_split <- concat1_3
I0129 13:29:51.482590  4205 net.cpp:380] concat1_3_concat1_3_0_split -> concat1_3_concat1_3_0_split_0
I0129 13:29:51.482596  4205 net.cpp:380] concat1_3_concat1_3_0_split -> concat1_3_concat1_3_0_split_1
I0129 13:29:51.482661  4205 net.cpp:122] Setting up concat1_3_concat1_3_0_split
I0129 13:29:51.482666  4205 net.cpp:129] Top shape: 1 640 37 50 (1184000)
I0129 13:29:51.482671  4205 net.cpp:129] Top shape: 1 640 37 50 (1184000)
I0129 13:29:51.482673  4205 net.cpp:137] Memory required for data: 883273860
I0129 13:29:51.482676  4205 layer_factory.hpp:77] Creating layer conv1_4/bn
I0129 13:29:51.482683  4205 net.cpp:84] Creating Layer conv1_4/bn
I0129 13:29:51.482686  4205 net.cpp:406] conv1_4/bn <- concat1_3_concat1_3_0_split_0
I0129 13:29:51.482692  4205 net.cpp:380] conv1_4/bn -> conv1_4/bn
I0129 13:29:51.483067  4205 net.cpp:122] Setting up conv1_4/bn
I0129 13:29:51.483074  4205 net.cpp:129] Top shape: 1 640 37 50 (1184000)
I0129 13:29:51.483078  4205 net.cpp:137] Memory required for data: 888009860
I0129 13:29:51.483096  4205 layer_factory.hpp:77] Creating layer conv1_4/scale
I0129 13:29:51.483111  4205 net.cpp:84] Creating Layer conv1_4/scale
I0129 13:29:51.483115  4205 net.cpp:406] conv1_4/scale <- conv1_4/bn
I0129 13:29:51.483120  4205 net.cpp:367] conv1_4/scale -> conv1_4/bn (in-place)
I0129 13:29:51.483181  4205 layer_factory.hpp:77] Creating layer conv1_4/scale
I0129 13:29:51.483382  4205 net.cpp:122] Setting up conv1_4/scale
I0129 13:29:51.483391  4205 net.cpp:129] Top shape: 1 640 37 50 (1184000)
I0129 13:29:51.483392  4205 net.cpp:137] Memory required for data: 892745860
I0129 13:29:51.483399  4205 layer_factory.hpp:77] Creating layer relu1_4
I0129 13:29:51.483404  4205 net.cpp:84] Creating Layer relu1_4
I0129 13:29:51.483408  4205 net.cpp:406] relu1_4 <- conv1_4/bn
I0129 13:29:51.483412  4205 net.cpp:367] relu1_4 -> conv1_4/bn (in-place)
I0129 13:29:51.483635  4205 net.cpp:122] Setting up relu1_4
I0129 13:29:51.483644  4205 net.cpp:129] Top shape: 1 640 37 50 (1184000)
I0129 13:29:51.483646  4205 net.cpp:137] Memory required for data: 897481860
I0129 13:29:51.483649  4205 layer_factory.hpp:77] Creating layer conv1_4
I0129 13:29:51.483661  4205 net.cpp:84] Creating Layer conv1_4
I0129 13:29:51.483665  4205 net.cpp:406] conv1_4 <- conv1_4/bn
I0129 13:29:51.483670  4205 net.cpp:380] conv1_4 -> conv1_4
I0129 13:29:51.493400  4205 net.cpp:122] Setting up conv1_4
I0129 13:29:51.493415  4205 net.cpp:129] Top shape: 1 32 37 50 (59200)
I0129 13:29:51.493418  4205 net.cpp:137] Memory required for data: 897718660
I0129 13:29:51.493424  4205 layer_factory.hpp:77] Creating layer concat1_4
I0129 13:29:51.493433  4205 net.cpp:84] Creating Layer concat1_4
I0129 13:29:51.493438  4205 net.cpp:406] concat1_4 <- concat1_3_concat1_3_0_split_1
I0129 13:29:51.493443  4205 net.cpp:406] concat1_4 <- conv1_4
I0129 13:29:51.493448  4205 net.cpp:380] concat1_4 -> concat1_4
I0129 13:29:51.493502  4205 net.cpp:122] Setting up concat1_4
I0129 13:29:51.493508  4205 net.cpp:129] Top shape: 1 672 37 50 (1243200)
I0129 13:29:51.493511  4205 net.cpp:137] Memory required for data: 902691460
I0129 13:29:51.493515  4205 layer_factory.hpp:77] Creating layer concat1_4_concat1_4_0_split
I0129 13:29:51.493520  4205 net.cpp:84] Creating Layer concat1_4_concat1_4_0_split
I0129 13:29:51.493525  4205 net.cpp:406] concat1_4_concat1_4_0_split <- concat1_4
I0129 13:29:51.493530  4205 net.cpp:380] concat1_4_concat1_4_0_split -> concat1_4_concat1_4_0_split_0
I0129 13:29:51.493536  4205 net.cpp:380] concat1_4_concat1_4_0_split -> concat1_4_concat1_4_0_split_1
I0129 13:29:51.493602  4205 net.cpp:122] Setting up concat1_4_concat1_4_0_split
I0129 13:29:51.493608  4205 net.cpp:129] Top shape: 1 672 37 50 (1243200)
I0129 13:29:51.493613  4205 net.cpp:129] Top shape: 1 672 37 50 (1243200)
I0129 13:29:51.493615  4205 net.cpp:137] Memory required for data: 912637060
I0129 13:29:51.493618  4205 layer_factory.hpp:77] Creating layer conv1_5/bn
I0129 13:29:51.493624  4205 net.cpp:84] Creating Layer conv1_5/bn
I0129 13:29:51.493628  4205 net.cpp:406] conv1_5/bn <- concat1_4_concat1_4_0_split_0
I0129 13:29:51.493634  4205 net.cpp:380] conv1_5/bn -> conv1_5/bn
I0129 13:29:51.494006  4205 net.cpp:122] Setting up conv1_5/bn
I0129 13:29:51.494014  4205 net.cpp:129] Top shape: 1 672 37 50 (1243200)
I0129 13:29:51.494016  4205 net.cpp:137] Memory required for data: 917609860
I0129 13:29:51.494024  4205 layer_factory.hpp:77] Creating layer conv1_5/scale
I0129 13:29:51.494032  4205 net.cpp:84] Creating Layer conv1_5/scale
I0129 13:29:51.494036  4205 net.cpp:406] conv1_5/scale <- conv1_5/bn
I0129 13:29:51.494041  4205 net.cpp:367] conv1_5/scale -> conv1_5/bn (in-place)
I0129 13:29:51.494112  4205 layer_factory.hpp:77] Creating layer conv1_5/scale
I0129 13:29:51.494324  4205 net.cpp:122] Setting up conv1_5/scale
I0129 13:29:51.494333  4205 net.cpp:129] Top shape: 1 672 37 50 (1243200)
I0129 13:29:51.494335  4205 net.cpp:137] Memory required for data: 922582660
I0129 13:29:51.494341  4205 layer_factory.hpp:77] Creating layer relu1_5
I0129 13:29:51.494346  4205 net.cpp:84] Creating Layer relu1_5
I0129 13:29:51.494350  4205 net.cpp:406] relu1_5 <- conv1_5/bn
I0129 13:29:51.494354  4205 net.cpp:367] relu1_5 -> conv1_5/bn (in-place)
I0129 13:29:51.495519  4205 net.cpp:122] Setting up relu1_5
I0129 13:29:51.495530  4205 net.cpp:129] Top shape: 1 672 37 50 (1243200)
I0129 13:29:51.495534  4205 net.cpp:137] Memory required for data: 927555460
I0129 13:29:51.495538  4205 layer_factory.hpp:77] Creating layer conv1_5
I0129 13:29:51.495551  4205 net.cpp:84] Creating Layer conv1_5
I0129 13:29:51.495555  4205 net.cpp:406] conv1_5 <- conv1_5/bn
I0129 13:29:51.495564  4205 net.cpp:380] conv1_5 -> conv1_5
I0129 13:29:51.503820  4205 net.cpp:122] Setting up conv1_5
I0129 13:29:51.503834  4205 net.cpp:129] Top shape: 1 32 37 50 (59200)
I0129 13:29:51.503837  4205 net.cpp:137] Memory required for data: 927792260
I0129 13:29:51.503844  4205 layer_factory.hpp:77] Creating layer concat1_5
I0129 13:29:51.503849  4205 net.cpp:84] Creating Layer concat1_5
I0129 13:29:51.503854  4205 net.cpp:406] concat1_5 <- concat1_4_concat1_4_0_split_1
I0129 13:29:51.503859  4205 net.cpp:406] concat1_5 <- conv1_5
I0129 13:29:51.503866  4205 net.cpp:380] concat1_5 -> concat1_5
I0129 13:29:51.503916  4205 net.cpp:122] Setting up concat1_5
I0129 13:29:51.503922  4205 net.cpp:129] Top shape: 1 704 37 50 (1302400)
I0129 13:29:51.503926  4205 net.cpp:137] Memory required for data: 933001860
I0129 13:29:51.503928  4205 layer_factory.hpp:77] Creating layer concat1_5_concat1_5_0_split
I0129 13:29:51.503933  4205 net.cpp:84] Creating Layer concat1_5_concat1_5_0_split
I0129 13:29:51.503937  4205 net.cpp:406] concat1_5_concat1_5_0_split <- concat1_5
I0129 13:29:51.503943  4205 net.cpp:380] concat1_5_concat1_5_0_split -> concat1_5_concat1_5_0_split_0
I0129 13:29:51.503949  4205 net.cpp:380] concat1_5_concat1_5_0_split -> concat1_5_concat1_5_0_split_1
I0129 13:29:51.504011  4205 net.cpp:122] Setting up concat1_5_concat1_5_0_split
I0129 13:29:51.504017  4205 net.cpp:129] Top shape: 1 704 37 50 (1302400)
I0129 13:29:51.504021  4205 net.cpp:129] Top shape: 1 704 37 50 (1302400)
I0129 13:29:51.504024  4205 net.cpp:137] Memory required for data: 943421060
I0129 13:29:51.504027  4205 layer_factory.hpp:77] Creating layer conv1_6/bn
I0129 13:29:51.504032  4205 net.cpp:84] Creating Layer conv1_6/bn
I0129 13:29:51.504036  4205 net.cpp:406] conv1_6/bn <- concat1_5_concat1_5_0_split_0
I0129 13:29:51.504042  4205 net.cpp:380] conv1_6/bn -> conv1_6/bn
I0129 13:29:51.504475  4205 net.cpp:122] Setting up conv1_6/bn
I0129 13:29:51.504483  4205 net.cpp:129] Top shape: 1 704 37 50 (1302400)
I0129 13:29:51.504489  4205 net.cpp:137] Memory required for data: 948630660
I0129 13:29:51.504498  4205 layer_factory.hpp:77] Creating layer conv1_6/scale
I0129 13:29:51.504506  4205 net.cpp:84] Creating Layer conv1_6/scale
I0129 13:29:51.504510  4205 net.cpp:406] conv1_6/scale <- conv1_6/bn
I0129 13:29:51.504515  4205 net.cpp:367] conv1_6/scale -> conv1_6/bn (in-place)
I0129 13:29:51.504587  4205 layer_factory.hpp:77] Creating layer conv1_6/scale
I0129 13:29:51.504832  4205 net.cpp:122] Setting up conv1_6/scale
I0129 13:29:51.504840  4205 net.cpp:129] Top shape: 1 704 37 50 (1302400)
I0129 13:29:51.504843  4205 net.cpp:137] Memory required for data: 953840260
I0129 13:29:51.504849  4205 layer_factory.hpp:77] Creating layer relu1_6
I0129 13:29:51.504855  4205 net.cpp:84] Creating Layer relu1_6
I0129 13:29:51.504859  4205 net.cpp:406] relu1_6 <- conv1_6/bn
I0129 13:29:51.504864  4205 net.cpp:367] relu1_6 -> conv1_6/bn (in-place)
I0129 13:29:51.505110  4205 net.cpp:122] Setting up relu1_6
I0129 13:29:51.505117  4205 net.cpp:129] Top shape: 1 704 37 50 (1302400)
I0129 13:29:51.505120  4205 net.cpp:137] Memory required for data: 959049860
I0129 13:29:51.505125  4205 layer_factory.hpp:77] Creating layer conv1_6
I0129 13:29:51.505134  4205 net.cpp:84] Creating Layer conv1_6
I0129 13:29:51.505138  4205 net.cpp:406] conv1_6 <- conv1_6/bn
I0129 13:29:51.505144  4205 net.cpp:380] conv1_6 -> conv1_6
I0129 13:29:51.515365  4205 net.cpp:122] Setting up conv1_6
I0129 13:29:51.515380  4205 net.cpp:129] Top shape: 1 32 37 50 (59200)
I0129 13:29:51.515384  4205 net.cpp:137] Memory required for data: 959286660
I0129 13:29:51.515390  4205 layer_factory.hpp:77] Creating layer concat1_6
I0129 13:29:51.515398  4205 net.cpp:84] Creating Layer concat1_6
I0129 13:29:51.515401  4205 net.cpp:406] concat1_6 <- concat1_5_concat1_5_0_split_1
I0129 13:29:51.515406  4205 net.cpp:406] concat1_6 <- conv1_6
I0129 13:29:51.515413  4205 net.cpp:380] concat1_6 -> concat1_6
I0129 13:29:51.515463  4205 net.cpp:122] Setting up concat1_6
I0129 13:29:51.515470  4205 net.cpp:129] Top shape: 1 736 37 50 (1361600)
I0129 13:29:51.515472  4205 net.cpp:137] Memory required for data: 964733060
I0129 13:29:51.515476  4205 layer_factory.hpp:77] Creating layer concat1_6_concat1_6_0_split
I0129 13:29:51.515482  4205 net.cpp:84] Creating Layer concat1_6_concat1_6_0_split
I0129 13:29:51.515486  4205 net.cpp:406] concat1_6_concat1_6_0_split <- concat1_6
I0129 13:29:51.515491  4205 net.cpp:380] concat1_6_concat1_6_0_split -> concat1_6_concat1_6_0_split_0
I0129 13:29:51.515497  4205 net.cpp:380] concat1_6_concat1_6_0_split -> concat1_6_concat1_6_0_split_1
I0129 13:29:51.515559  4205 net.cpp:122] Setting up concat1_6_concat1_6_0_split
I0129 13:29:51.515565  4205 net.cpp:129] Top shape: 1 736 37 50 (1361600)
I0129 13:29:51.515569  4205 net.cpp:129] Top shape: 1 736 37 50 (1361600)
I0129 13:29:51.515573  4205 net.cpp:137] Memory required for data: 975625860
I0129 13:29:51.515575  4205 layer_factory.hpp:77] Creating layer conv1_7/bn
I0129 13:29:51.515583  4205 net.cpp:84] Creating Layer conv1_7/bn
I0129 13:29:51.515586  4205 net.cpp:406] conv1_7/bn <- concat1_6_concat1_6_0_split_0
I0129 13:29:51.515591  4205 net.cpp:380] conv1_7/bn -> conv1_7/bn
I0129 13:29:51.515985  4205 net.cpp:122] Setting up conv1_7/bn
I0129 13:29:51.515990  4205 net.cpp:129] Top shape: 1 736 37 50 (1361600)
I0129 13:29:51.515993  4205 net.cpp:137] Memory required for data: 981072260
I0129 13:29:51.516001  4205 layer_factory.hpp:77] Creating layer conv1_7/scale
I0129 13:29:51.516010  4205 net.cpp:84] Creating Layer conv1_7/scale
I0129 13:29:51.516014  4205 net.cpp:406] conv1_7/scale <- conv1_7/bn
I0129 13:29:51.516019  4205 net.cpp:367] conv1_7/scale -> conv1_7/bn (in-place)
I0129 13:29:51.516093  4205 layer_factory.hpp:77] Creating layer conv1_7/scale
I0129 13:29:51.516309  4205 net.cpp:122] Setting up conv1_7/scale
I0129 13:29:51.516317  4205 net.cpp:129] Top shape: 1 736 37 50 (1361600)
I0129 13:29:51.516320  4205 net.cpp:137] Memory required for data: 986518660
I0129 13:29:51.516332  4205 layer_factory.hpp:77] Creating layer relu1_7
I0129 13:29:51.516338  4205 net.cpp:84] Creating Layer relu1_7
I0129 13:29:51.516342  4205 net.cpp:406] relu1_7 <- conv1_7/bn
I0129 13:29:51.516346  4205 net.cpp:367] relu1_7 -> conv1_7/bn (in-place)
I0129 13:29:51.516566  4205 net.cpp:122] Setting up relu1_7
I0129 13:29:51.516573  4205 net.cpp:129] Top shape: 1 736 37 50 (1361600)
I0129 13:29:51.516577  4205 net.cpp:137] Memory required for data: 991965060
I0129 13:29:51.516579  4205 layer_factory.hpp:77] Creating layer conv1_7
I0129 13:29:51.516590  4205 net.cpp:84] Creating Layer conv1_7
I0129 13:29:51.516594  4205 net.cpp:406] conv1_7 <- conv1_7/bn
I0129 13:29:51.516602  4205 net.cpp:380] conv1_7 -> conv1_7
I0129 13:29:51.525471  4205 net.cpp:122] Setting up conv1_7
I0129 13:29:51.525485  4205 net.cpp:129] Top shape: 1 32 37 50 (59200)
I0129 13:29:51.525488  4205 net.cpp:137] Memory required for data: 992201860
I0129 13:29:51.525494  4205 layer_factory.hpp:77] Creating layer concat1_7
I0129 13:29:51.525501  4205 net.cpp:84] Creating Layer concat1_7
I0129 13:29:51.525506  4205 net.cpp:406] concat1_7 <- concat1_6_concat1_6_0_split_1
I0129 13:29:51.525511  4205 net.cpp:406] concat1_7 <- conv1_7
I0129 13:29:51.525517  4205 net.cpp:380] concat1_7 -> concat1_7
I0129 13:29:51.525569  4205 net.cpp:122] Setting up concat1_7
I0129 13:29:51.525575  4205 net.cpp:129] Top shape: 1 768 37 50 (1420800)
I0129 13:29:51.525578  4205 net.cpp:137] Memory required for data: 997885060
I0129 13:29:51.525581  4205 layer_factory.hpp:77] Creating layer concat1_7_concat1_7_0_split
I0129 13:29:51.525588  4205 net.cpp:84] Creating Layer concat1_7_concat1_7_0_split
I0129 13:29:51.525590  4205 net.cpp:406] concat1_7_concat1_7_0_split <- concat1_7
I0129 13:29:51.525598  4205 net.cpp:380] concat1_7_concat1_7_0_split -> concat1_7_concat1_7_0_split_0
I0129 13:29:51.525604  4205 net.cpp:380] concat1_7_concat1_7_0_split -> concat1_7_concat1_7_0_split_1
I0129 13:29:51.525668  4205 net.cpp:122] Setting up concat1_7_concat1_7_0_split
I0129 13:29:51.525674  4205 net.cpp:129] Top shape: 1 768 37 50 (1420800)
I0129 13:29:51.525678  4205 net.cpp:129] Top shape: 1 768 37 50 (1420800)
I0129 13:29:51.525681  4205 net.cpp:137] Memory required for data: 1009251460
I0129 13:29:51.525684  4205 layer_factory.hpp:77] Creating layer conv1_8/bn
I0129 13:29:51.525691  4205 net.cpp:84] Creating Layer conv1_8/bn
I0129 13:29:51.525696  4205 net.cpp:406] conv1_8/bn <- concat1_7_concat1_7_0_split_0
I0129 13:29:51.525699  4205 net.cpp:380] conv1_8/bn -> conv1_8/bn
I0129 13:29:51.526085  4205 net.cpp:122] Setting up conv1_8/bn
I0129 13:29:51.526093  4205 net.cpp:129] Top shape: 1 768 37 50 (1420800)
I0129 13:29:51.526095  4205 net.cpp:137] Memory required for data: 1014934660
I0129 13:29:51.526105  4205 layer_factory.hpp:77] Creating layer conv1_8/scale
I0129 13:29:51.526113  4205 net.cpp:84] Creating Layer conv1_8/scale
I0129 13:29:51.526116  4205 net.cpp:406] conv1_8/scale <- conv1_8/bn
I0129 13:29:51.526123  4205 net.cpp:367] conv1_8/scale -> conv1_8/bn (in-place)
I0129 13:29:51.526185  4205 layer_factory.hpp:77] Creating layer conv1_8/scale
I0129 13:29:51.526389  4205 net.cpp:122] Setting up conv1_8/scale
I0129 13:29:51.526397  4205 net.cpp:129] Top shape: 1 768 37 50 (1420800)
I0129 13:29:51.526401  4205 net.cpp:137] Memory required for data: 1020617860
I0129 13:29:51.526406  4205 layer_factory.hpp:77] Creating layer relu1_8
I0129 13:29:51.526413  4205 net.cpp:84] Creating Layer relu1_8
I0129 13:29:51.526417  4205 net.cpp:406] relu1_8 <- conv1_8/bn
I0129 13:29:51.526422  4205 net.cpp:367] relu1_8 -> conv1_8/bn (in-place)
I0129 13:29:51.527593  4205 net.cpp:122] Setting up relu1_8
I0129 13:29:51.527606  4205 net.cpp:129] Top shape: 1 768 37 50 (1420800)
I0129 13:29:51.527609  4205 net.cpp:137] Memory required for data: 1026301060
I0129 13:29:51.527612  4205 layer_factory.hpp:77] Creating layer conv1_8
I0129 13:29:51.527623  4205 net.cpp:84] Creating Layer conv1_8
I0129 13:29:51.527631  4205 net.cpp:406] conv1_8 <- conv1_8/bn
I0129 13:29:51.527637  4205 net.cpp:380] conv1_8 -> conv1_8
I0129 13:29:51.538316  4205 net.cpp:122] Setting up conv1_8
I0129 13:29:51.538331  4205 net.cpp:129] Top shape: 1 32 37 50 (59200)
I0129 13:29:51.538334  4205 net.cpp:137] Memory required for data: 1026537860
I0129 13:29:51.538341  4205 layer_factory.hpp:77] Creating layer concat1_8
I0129 13:29:51.538349  4205 net.cpp:84] Creating Layer concat1_8
I0129 13:29:51.538353  4205 net.cpp:406] concat1_8 <- concat1_7_concat1_7_0_split_1
I0129 13:29:51.538359  4205 net.cpp:406] concat1_8 <- conv1_8
I0129 13:29:51.538364  4205 net.cpp:380] concat1_8 -> concat1_8
I0129 13:29:51.538419  4205 net.cpp:122] Setting up concat1_8
I0129 13:29:51.538424  4205 net.cpp:129] Top shape: 1 800 37 50 (1480000)
I0129 13:29:51.538427  4205 net.cpp:137] Memory required for data: 1032457860
I0129 13:29:51.538431  4205 layer_factory.hpp:77] Creating layer concat1_8_concat1_8_0_split
I0129 13:29:51.538439  4205 net.cpp:84] Creating Layer concat1_8_concat1_8_0_split
I0129 13:29:51.538441  4205 net.cpp:406] concat1_8_concat1_8_0_split <- concat1_8
I0129 13:29:51.538449  4205 net.cpp:380] concat1_8_concat1_8_0_split -> concat1_8_concat1_8_0_split_0
I0129 13:29:51.538455  4205 net.cpp:380] concat1_8_concat1_8_0_split -> concat1_8_concat1_8_0_split_1
I0129 13:29:51.538517  4205 net.cpp:122] Setting up concat1_8_concat1_8_0_split
I0129 13:29:51.538523  4205 net.cpp:129] Top shape: 1 800 37 50 (1480000)
I0129 13:29:51.538527  4205 net.cpp:129] Top shape: 1 800 37 50 (1480000)
I0129 13:29:51.538530  4205 net.cpp:137] Memory required for data: 1044297860
I0129 13:29:51.538533  4205 layer_factory.hpp:77] Creating layer conv1_9/bn
I0129 13:29:51.538540  4205 net.cpp:84] Creating Layer conv1_9/bn
I0129 13:29:51.538543  4205 net.cpp:406] conv1_9/bn <- concat1_8_concat1_8_0_split_0
I0129 13:29:51.538550  4205 net.cpp:380] conv1_9/bn -> conv1_9/bn
I0129 13:29:51.538928  4205 net.cpp:122] Setting up conv1_9/bn
I0129 13:29:51.538935  4205 net.cpp:129] Top shape: 1 800 37 50 (1480000)
I0129 13:29:51.538938  4205 net.cpp:137] Memory required for data: 1050217860
I0129 13:29:51.538946  4205 layer_factory.hpp:77] Creating layer conv1_9/scale
I0129 13:29:51.538955  4205 net.cpp:84] Creating Layer conv1_9/scale
I0129 13:29:51.538959  4205 net.cpp:406] conv1_9/scale <- conv1_9/bn
I0129 13:29:51.538964  4205 net.cpp:367] conv1_9/scale -> conv1_9/bn (in-place)
I0129 13:29:51.539037  4205 layer_factory.hpp:77] Creating layer conv1_9/scale
I0129 13:29:51.539284  4205 net.cpp:122] Setting up conv1_9/scale
I0129 13:29:51.539292  4205 net.cpp:129] Top shape: 1 800 37 50 (1480000)
I0129 13:29:51.539295  4205 net.cpp:137] Memory required for data: 1056137860
I0129 13:29:51.539301  4205 layer_factory.hpp:77] Creating layer relu1_9
I0129 13:29:51.539307  4205 net.cpp:84] Creating Layer relu1_9
I0129 13:29:51.539311  4205 net.cpp:406] relu1_9 <- conv1_9/bn
I0129 13:29:51.539315  4205 net.cpp:367] relu1_9 -> conv1_9/bn (in-place)
I0129 13:29:51.539574  4205 net.cpp:122] Setting up relu1_9
I0129 13:29:51.539583  4205 net.cpp:129] Top shape: 1 800 37 50 (1480000)
I0129 13:29:51.539587  4205 net.cpp:137] Memory required for data: 1062057860
I0129 13:29:51.539590  4205 layer_factory.hpp:77] Creating layer conv1_9
I0129 13:29:51.539602  4205 net.cpp:84] Creating Layer conv1_9
I0129 13:29:51.539605  4205 net.cpp:406] conv1_9 <- conv1_9/bn
I0129 13:29:51.539613  4205 net.cpp:380] conv1_9 -> conv1_9
I0129 13:29:51.549088  4205 net.cpp:122] Setting up conv1_9
I0129 13:29:51.549101  4205 net.cpp:129] Top shape: 1 32 37 50 (59200)
I0129 13:29:51.549104  4205 net.cpp:137] Memory required for data: 1062294660
I0129 13:29:51.549113  4205 layer_factory.hpp:77] Creating layer concat1_9
I0129 13:29:51.549120  4205 net.cpp:84] Creating Layer concat1_9
I0129 13:29:51.549124  4205 net.cpp:406] concat1_9 <- concat1_8_concat1_8_0_split_1
I0129 13:29:51.549129  4205 net.cpp:406] concat1_9 <- conv1_9
I0129 13:29:51.549136  4205 net.cpp:380] concat1_9 -> concat1_9
I0129 13:29:51.549188  4205 net.cpp:122] Setting up concat1_9
I0129 13:29:51.549194  4205 net.cpp:129] Top shape: 1 832 37 50 (1539200)
I0129 13:29:51.549201  4205 net.cpp:137] Memory required for data: 1068451460
I0129 13:29:51.549203  4205 layer_factory.hpp:77] Creating layer concat1_9_concat1_9_0_split
I0129 13:29:51.549209  4205 net.cpp:84] Creating Layer concat1_9_concat1_9_0_split
I0129 13:29:51.549212  4205 net.cpp:406] concat1_9_concat1_9_0_split <- concat1_9
I0129 13:29:51.549219  4205 net.cpp:380] concat1_9_concat1_9_0_split -> concat1_9_concat1_9_0_split_0
I0129 13:29:51.549226  4205 net.cpp:380] concat1_9_concat1_9_0_split -> concat1_9_concat1_9_0_split_1
I0129 13:29:51.549293  4205 net.cpp:122] Setting up concat1_9_concat1_9_0_split
I0129 13:29:51.549299  4205 net.cpp:129] Top shape: 1 832 37 50 (1539200)
I0129 13:29:51.549302  4205 net.cpp:129] Top shape: 1 832 37 50 (1539200)
I0129 13:29:51.549305  4205 net.cpp:137] Memory required for data: 1080765060
I0129 13:29:51.549309  4205 layer_factory.hpp:77] Creating layer conv1_10/bn
I0129 13:29:51.549315  4205 net.cpp:84] Creating Layer conv1_10/bn
I0129 13:29:51.549319  4205 net.cpp:406] conv1_10/bn <- concat1_9_concat1_9_0_split_0
I0129 13:29:51.549324  4205 net.cpp:380] conv1_10/bn -> conv1_10/bn
I0129 13:29:51.549729  4205 net.cpp:122] Setting up conv1_10/bn
I0129 13:29:51.549736  4205 net.cpp:129] Top shape: 1 832 37 50 (1539200)
I0129 13:29:51.549739  4205 net.cpp:137] Memory required for data: 1086921860
I0129 13:29:51.549747  4205 layer_factory.hpp:77] Creating layer conv1_10/scale
I0129 13:29:51.549754  4205 net.cpp:84] Creating Layer conv1_10/scale
I0129 13:29:51.549758  4205 net.cpp:406] conv1_10/scale <- conv1_10/bn
I0129 13:29:51.549764  4205 net.cpp:367] conv1_10/scale -> conv1_10/bn (in-place)
I0129 13:29:51.549844  4205 layer_factory.hpp:77] Creating layer conv1_10/scale
I0129 13:29:51.550062  4205 net.cpp:122] Setting up conv1_10/scale
I0129 13:29:51.550070  4205 net.cpp:129] Top shape: 1 832 37 50 (1539200)
I0129 13:29:51.550072  4205 net.cpp:137] Memory required for data: 1093078660
I0129 13:29:51.550078  4205 layer_factory.hpp:77] Creating layer relu1_10
I0129 13:29:51.550086  4205 net.cpp:84] Creating Layer relu1_10
I0129 13:29:51.550091  4205 net.cpp:406] relu1_10 <- conv1_10/bn
I0129 13:29:51.550094  4205 net.cpp:367] relu1_10 -> conv1_10/bn (in-place)
I0129 13:29:51.550315  4205 net.cpp:122] Setting up relu1_10
I0129 13:29:51.550323  4205 net.cpp:129] Top shape: 1 832 37 50 (1539200)
I0129 13:29:51.550326  4205 net.cpp:137] Memory required for data: 1099235460
I0129 13:29:51.550330  4205 layer_factory.hpp:77] Creating layer conv1_10
I0129 13:29:51.550340  4205 net.cpp:84] Creating Layer conv1_10
I0129 13:29:51.550343  4205 net.cpp:406] conv1_10 <- conv1_10/bn
I0129 13:29:51.550351  4205 net.cpp:380] conv1_10 -> conv1_10
I0129 13:29:51.561601  4205 net.cpp:122] Setting up conv1_10
I0129 13:29:51.561616  4205 net.cpp:129] Top shape: 1 32 37 50 (59200)
I0129 13:29:51.561619  4205 net.cpp:137] Memory required for data: 1099472260
I0129 13:29:51.561625  4205 layer_factory.hpp:77] Creating layer concat1_10
I0129 13:29:51.561632  4205 net.cpp:84] Creating Layer concat1_10
I0129 13:29:51.561636  4205 net.cpp:406] concat1_10 <- concat1_9_concat1_9_0_split_1
I0129 13:29:51.561641  4205 net.cpp:406] concat1_10 <- conv1_10
I0129 13:29:51.561648  4205 net.cpp:380] concat1_10 -> concat1_10
I0129 13:29:51.561700  4205 net.cpp:122] Setting up concat1_10
I0129 13:29:51.561707  4205 net.cpp:129] Top shape: 1 864 37 50 (1598400)
I0129 13:29:51.561709  4205 net.cpp:137] Memory required for data: 1105865860
I0129 13:29:51.561712  4205 layer_factory.hpp:77] Creating layer concat1_10_concat1_10_0_split
I0129 13:29:51.561718  4205 net.cpp:84] Creating Layer concat1_10_concat1_10_0_split
I0129 13:29:51.561722  4205 net.cpp:406] concat1_10_concat1_10_0_split <- concat1_10
I0129 13:29:51.561728  4205 net.cpp:380] concat1_10_concat1_10_0_split -> concat1_10_concat1_10_0_split_0
I0129 13:29:51.561734  4205 net.cpp:380] concat1_10_concat1_10_0_split -> concat1_10_concat1_10_0_split_1
I0129 13:29:51.561800  4205 net.cpp:122] Setting up concat1_10_concat1_10_0_split
I0129 13:29:51.561805  4205 net.cpp:129] Top shape: 1 864 37 50 (1598400)
I0129 13:29:51.561812  4205 net.cpp:129] Top shape: 1 864 37 50 (1598400)
I0129 13:29:51.561815  4205 net.cpp:137] Memory required for data: 1118653060
I0129 13:29:51.561818  4205 layer_factory.hpp:77] Creating layer conv1_11/bn
I0129 13:29:51.561827  4205 net.cpp:84] Creating Layer conv1_11/bn
I0129 13:29:51.561831  4205 net.cpp:406] conv1_11/bn <- concat1_10_concat1_10_0_split_0
I0129 13:29:51.561836  4205 net.cpp:380] conv1_11/bn -> conv1_11/bn
I0129 13:29:51.562237  4205 net.cpp:122] Setting up conv1_11/bn
I0129 13:29:51.562243  4205 net.cpp:129] Top shape: 1 864 37 50 (1598400)
I0129 13:29:51.562247  4205 net.cpp:137] Memory required for data: 1125046660
I0129 13:29:51.562254  4205 layer_factory.hpp:77] Creating layer conv1_11/scale
I0129 13:29:51.562265  4205 net.cpp:84] Creating Layer conv1_11/scale
I0129 13:29:51.562269  4205 net.cpp:406] conv1_11/scale <- conv1_11/bn
I0129 13:29:51.562274  4205 net.cpp:367] conv1_11/scale -> conv1_11/bn (in-place)
I0129 13:29:51.562348  4205 layer_factory.hpp:77] Creating layer conv1_11/scale
I0129 13:29:51.562575  4205 net.cpp:122] Setting up conv1_11/scale
I0129 13:29:51.562582  4205 net.cpp:129] Top shape: 1 864 37 50 (1598400)
I0129 13:29:51.562585  4205 net.cpp:137] Memory required for data: 1131440260
I0129 13:29:51.562592  4205 layer_factory.hpp:77] Creating layer relu1_11
I0129 13:29:51.562597  4205 net.cpp:84] Creating Layer relu1_11
I0129 13:29:51.562600  4205 net.cpp:406] relu1_11 <- conv1_11/bn
I0129 13:29:51.562605  4205 net.cpp:367] relu1_11 -> conv1_11/bn (in-place)
I0129 13:29:51.562829  4205 net.cpp:122] Setting up relu1_11
I0129 13:29:51.562837  4205 net.cpp:129] Top shape: 1 864 37 50 (1598400)
I0129 13:29:51.562840  4205 net.cpp:137] Memory required for data: 1137833860
I0129 13:29:51.562844  4205 layer_factory.hpp:77] Creating layer conv1_11
I0129 13:29:51.562855  4205 net.cpp:84] Creating Layer conv1_11
I0129 13:29:51.562858  4205 net.cpp:406] conv1_11 <- conv1_11/bn
I0129 13:29:51.562865  4205 net.cpp:380] conv1_11 -> conv1_11
I0129 13:29:51.572703  4205 net.cpp:122] Setting up conv1_11
I0129 13:29:51.572717  4205 net.cpp:129] Top shape: 1 32 37 50 (59200)
I0129 13:29:51.572721  4205 net.cpp:137] Memory required for data: 1138070660
I0129 13:29:51.572728  4205 layer_factory.hpp:77] Creating layer concat1_11
I0129 13:29:51.572736  4205 net.cpp:84] Creating Layer concat1_11
I0129 13:29:51.572757  4205 net.cpp:406] concat1_11 <- concat1_10_concat1_10_0_split_1
I0129 13:29:51.572762  4205 net.cpp:406] concat1_11 <- conv1_11
I0129 13:29:51.572772  4205 net.cpp:380] concat1_11 -> concat1_11
I0129 13:29:51.572826  4205 net.cpp:122] Setting up concat1_11
I0129 13:29:51.572834  4205 net.cpp:129] Top shape: 1 896 37 50 (1657600)
I0129 13:29:51.572836  4205 net.cpp:137] Memory required for data: 1144701060
I0129 13:29:51.572839  4205 layer_factory.hpp:77] Creating layer concat1_11_concat1_11_0_split
I0129 13:29:51.572845  4205 net.cpp:84] Creating Layer concat1_11_concat1_11_0_split
I0129 13:29:51.572849  4205 net.cpp:406] concat1_11_concat1_11_0_split <- concat1_11
I0129 13:29:51.572855  4205 net.cpp:380] concat1_11_concat1_11_0_split -> concat1_11_concat1_11_0_split_0
I0129 13:29:51.572862  4205 net.cpp:380] concat1_11_concat1_11_0_split -> concat1_11_concat1_11_0_split_1
I0129 13:29:51.572930  4205 net.cpp:122] Setting up concat1_11_concat1_11_0_split
I0129 13:29:51.572937  4205 net.cpp:129] Top shape: 1 896 37 50 (1657600)
I0129 13:29:51.572940  4205 net.cpp:129] Top shape: 1 896 37 50 (1657600)
I0129 13:29:51.572943  4205 net.cpp:137] Memory required for data: 1157961860
I0129 13:29:51.572947  4205 layer_factory.hpp:77] Creating layer conv1_12/bn
I0129 13:29:51.572955  4205 net.cpp:84] Creating Layer conv1_12/bn
I0129 13:29:51.572959  4205 net.cpp:406] conv1_12/bn <- concat1_11_concat1_11_0_split_0
I0129 13:29:51.572964  4205 net.cpp:380] conv1_12/bn -> conv1_12/bn
I0129 13:29:51.573386  4205 net.cpp:122] Setting up conv1_12/bn
I0129 13:29:51.573393  4205 net.cpp:129] Top shape: 1 896 37 50 (1657600)
I0129 13:29:51.573406  4205 net.cpp:137] Memory required for data: 1164592260
I0129 13:29:51.573415  4205 layer_factory.hpp:77] Creating layer conv1_12/scale
I0129 13:29:51.573423  4205 net.cpp:84] Creating Layer conv1_12/scale
I0129 13:29:51.573427  4205 net.cpp:406] conv1_12/scale <- conv1_12/bn
I0129 13:29:51.573432  4205 net.cpp:367] conv1_12/scale -> conv1_12/bn (in-place)
I0129 13:29:51.573496  4205 layer_factory.hpp:77] Creating layer conv1_12/scale
I0129 13:29:51.573710  4205 net.cpp:122] Setting up conv1_12/scale
I0129 13:29:51.573719  4205 net.cpp:129] Top shape: 1 896 37 50 (1657600)
I0129 13:29:51.573722  4205 net.cpp:137] Memory required for data: 1171222660
I0129 13:29:51.573729  4205 layer_factory.hpp:77] Creating layer relu1_12
I0129 13:29:51.573734  4205 net.cpp:84] Creating Layer relu1_12
I0129 13:29:51.573737  4205 net.cpp:406] relu1_12 <- conv1_12/bn
I0129 13:29:51.573745  4205 net.cpp:367] relu1_12 -> conv1_12/bn (in-place)
I0129 13:29:51.574949  4205 net.cpp:122] Setting up relu1_12
I0129 13:29:51.574961  4205 net.cpp:129] Top shape: 1 896 37 50 (1657600)
I0129 13:29:51.574965  4205 net.cpp:137] Memory required for data: 1177853060
I0129 13:29:51.574968  4205 layer_factory.hpp:77] Creating layer conv1_12
I0129 13:29:51.574980  4205 net.cpp:84] Creating Layer conv1_12
I0129 13:29:51.574985  4205 net.cpp:406] conv1_12 <- conv1_12/bn
I0129 13:29:51.574992  4205 net.cpp:380] conv1_12 -> conv1_12
I0129 13:29:51.586704  4205 net.cpp:122] Setting up conv1_12
I0129 13:29:51.586719  4205 net.cpp:129] Top shape: 1 32 37 50 (59200)
I0129 13:29:51.586724  4205 net.cpp:137] Memory required for data: 1178089860
I0129 13:29:51.586730  4205 layer_factory.hpp:77] Creating layer concat1_12
I0129 13:29:51.586741  4205 net.cpp:84] Creating Layer concat1_12
I0129 13:29:51.586746  4205 net.cpp:406] concat1_12 <- concat1_11_concat1_11_0_split_1
I0129 13:29:51.586751  4205 net.cpp:406] concat1_12 <- conv1_12
I0129 13:29:51.586756  4205 net.cpp:380] concat1_12 -> concat1_12
I0129 13:29:51.586808  4205 net.cpp:122] Setting up concat1_12
I0129 13:29:51.586817  4205 net.cpp:129] Top shape: 1 928 37 50 (1716800)
I0129 13:29:51.586819  4205 net.cpp:137] Memory required for data: 1184957060
I0129 13:29:51.586823  4205 layer_factory.hpp:77] Creating layer concat1_12_concat1_12_0_split
I0129 13:29:51.586828  4205 net.cpp:84] Creating Layer concat1_12_concat1_12_0_split
I0129 13:29:51.586832  4205 net.cpp:406] concat1_12_concat1_12_0_split <- concat1_12
I0129 13:29:51.586836  4205 net.cpp:380] concat1_12_concat1_12_0_split -> concat1_12_concat1_12_0_split_0
I0129 13:29:51.586843  4205 net.cpp:380] concat1_12_concat1_12_0_split -> concat1_12_concat1_12_0_split_1
I0129 13:29:51.586908  4205 net.cpp:122] Setting up concat1_12_concat1_12_0_split
I0129 13:29:51.586913  4205 net.cpp:129] Top shape: 1 928 37 50 (1716800)
I0129 13:29:51.586917  4205 net.cpp:129] Top shape: 1 928 37 50 (1716800)
I0129 13:29:51.586920  4205 net.cpp:137] Memory required for data: 1198691460
I0129 13:29:51.586925  4205 layer_factory.hpp:77] Creating layer conv1_13/bn
I0129 13:29:51.586931  4205 net.cpp:84] Creating Layer conv1_13/bn
I0129 13:29:51.586935  4205 net.cpp:406] conv1_13/bn <- concat1_12_concat1_12_0_split_0
I0129 13:29:51.586941  4205 net.cpp:380] conv1_13/bn -> conv1_13/bn
I0129 13:29:51.587340  4205 net.cpp:122] Setting up conv1_13/bn
I0129 13:29:51.587347  4205 net.cpp:129] Top shape: 1 928 37 50 (1716800)
I0129 13:29:51.587350  4205 net.cpp:137] Memory required for data: 1205558660
I0129 13:29:51.587357  4205 layer_factory.hpp:77] Creating layer conv1_13/scale
I0129 13:29:51.587364  4205 net.cpp:84] Creating Layer conv1_13/scale
I0129 13:29:51.587368  4205 net.cpp:406] conv1_13/scale <- conv1_13/bn
I0129 13:29:51.587375  4205 net.cpp:367] conv1_13/scale -> conv1_13/bn (in-place)
I0129 13:29:51.587451  4205 layer_factory.hpp:77] Creating layer conv1_13/scale
I0129 13:29:51.587680  4205 net.cpp:122] Setting up conv1_13/scale
I0129 13:29:51.587687  4205 net.cpp:129] Top shape: 1 928 37 50 (1716800)
I0129 13:29:51.587690  4205 net.cpp:137] Memory required for data: 1212425860
I0129 13:29:51.587700  4205 layer_factory.hpp:77] Creating layer relu1_13
I0129 13:29:51.587708  4205 net.cpp:84] Creating Layer relu1_13
I0129 13:29:51.587712  4205 net.cpp:406] relu1_13 <- conv1_13/bn
I0129 13:29:51.587716  4205 net.cpp:367] relu1_13 -> conv1_13/bn (in-place)
I0129 13:29:51.587942  4205 net.cpp:122] Setting up relu1_13
I0129 13:29:51.587951  4205 net.cpp:129] Top shape: 1 928 37 50 (1716800)
I0129 13:29:51.587954  4205 net.cpp:137] Memory required for data: 1219293060
I0129 13:29:51.587958  4205 layer_factory.hpp:77] Creating layer conv1_13
I0129 13:29:51.587968  4205 net.cpp:84] Creating Layer conv1_13
I0129 13:29:51.587972  4205 net.cpp:406] conv1_13 <- conv1_13/bn
I0129 13:29:51.587980  4205 net.cpp:380] conv1_13 -> conv1_13
I0129 13:29:51.600133  4205 net.cpp:122] Setting up conv1_13
I0129 13:29:51.600149  4205 net.cpp:129] Top shape: 1 32 37 50 (59200)
I0129 13:29:51.600153  4205 net.cpp:137] Memory required for data: 1219529860
I0129 13:29:51.600160  4205 layer_factory.hpp:77] Creating layer concat1_13
I0129 13:29:51.600167  4205 net.cpp:84] Creating Layer concat1_13
I0129 13:29:51.600172  4205 net.cpp:406] concat1_13 <- concat1_12_concat1_12_0_split_1
I0129 13:29:51.600177  4205 net.cpp:406] concat1_13 <- conv1_13
I0129 13:29:51.600181  4205 net.cpp:380] concat1_13 -> concat1_13
I0129 13:29:51.600236  4205 net.cpp:122] Setting up concat1_13
I0129 13:29:51.600244  4205 net.cpp:129] Top shape: 1 960 37 50 (1776000)
I0129 13:29:51.600246  4205 net.cpp:137] Memory required for data: 1226633860
I0129 13:29:51.600250  4205 layer_factory.hpp:77] Creating layer concat1_13_concat1_13_0_split
I0129 13:29:51.600255  4205 net.cpp:84] Creating Layer concat1_13_concat1_13_0_split
I0129 13:29:51.600258  4205 net.cpp:406] concat1_13_concat1_13_0_split <- concat1_13
I0129 13:29:51.600265  4205 net.cpp:380] concat1_13_concat1_13_0_split -> concat1_13_concat1_13_0_split_0
I0129 13:29:51.600270  4205 net.cpp:380] concat1_13_concat1_13_0_split -> concat1_13_concat1_13_0_split_1
I0129 13:29:51.600338  4205 net.cpp:122] Setting up concat1_13_concat1_13_0_split
I0129 13:29:51.600344  4205 net.cpp:129] Top shape: 1 960 37 50 (1776000)
I0129 13:29:51.600348  4205 net.cpp:129] Top shape: 1 960 37 50 (1776000)
I0129 13:29:51.600352  4205 net.cpp:137] Memory required for data: 1240841860
I0129 13:29:51.600354  4205 layer_factory.hpp:77] Creating layer conv1_14/bn
I0129 13:29:51.600359  4205 net.cpp:84] Creating Layer conv1_14/bn
I0129 13:29:51.600363  4205 net.cpp:406] conv1_14/bn <- concat1_13_concat1_13_0_split_0
I0129 13:29:51.600369  4205 net.cpp:380] conv1_14/bn -> conv1_14/bn
I0129 13:29:51.600828  4205 net.cpp:122] Setting up conv1_14/bn
I0129 13:29:51.600836  4205 net.cpp:129] Top shape: 1 960 37 50 (1776000)
I0129 13:29:51.600839  4205 net.cpp:137] Memory required for data: 1247945860
I0129 13:29:51.600849  4205 layer_factory.hpp:77] Creating layer conv1_14/scale
I0129 13:29:51.600857  4205 net.cpp:84] Creating Layer conv1_14/scale
I0129 13:29:51.600863  4205 net.cpp:406] conv1_14/scale <- conv1_14/bn
I0129 13:29:51.600868  4205 net.cpp:367] conv1_14/scale -> conv1_14/bn (in-place)
I0129 13:29:51.600962  4205 layer_factory.hpp:77] Creating layer conv1_14/scale
I0129 13:29:51.601220  4205 net.cpp:122] Setting up conv1_14/scale
I0129 13:29:51.601228  4205 net.cpp:129] Top shape: 1 960 37 50 (1776000)
I0129 13:29:51.601231  4205 net.cpp:137] Memory required for data: 1255049860
I0129 13:29:51.601238  4205 layer_factory.hpp:77] Creating layer relu1_14
I0129 13:29:51.601243  4205 net.cpp:84] Creating Layer relu1_14
I0129 13:29:51.601246  4205 net.cpp:406] relu1_14 <- conv1_14/bn
I0129 13:29:51.601251  4205 net.cpp:367] relu1_14 -> conv1_14/bn (in-place)
I0129 13:29:51.602521  4205 net.cpp:122] Setting up relu1_14
I0129 13:29:51.602535  4205 net.cpp:129] Top shape: 1 960 37 50 (1776000)
I0129 13:29:51.602537  4205 net.cpp:137] Memory required for data: 1262153860
I0129 13:29:51.602541  4205 layer_factory.hpp:77] Creating layer conv1_14
I0129 13:29:51.602552  4205 net.cpp:84] Creating Layer conv1_14
I0129 13:29:51.602560  4205 net.cpp:406] conv1_14 <- conv1_14/bn
I0129 13:29:51.602568  4205 net.cpp:380] conv1_14 -> conv1_14
I0129 13:29:51.614805  4205 net.cpp:122] Setting up conv1_14
I0129 13:29:51.614820  4205 net.cpp:129] Top shape: 1 32 37 50 (59200)
I0129 13:29:51.614823  4205 net.cpp:137] Memory required for data: 1262390660
I0129 13:29:51.614830  4205 layer_factory.hpp:77] Creating layer concat1_14
I0129 13:29:51.614836  4205 net.cpp:84] Creating Layer concat1_14
I0129 13:29:51.614840  4205 net.cpp:406] concat1_14 <- concat1_13_concat1_13_0_split_1
I0129 13:29:51.614845  4205 net.cpp:406] concat1_14 <- conv1_14
I0129 13:29:51.614853  4205 net.cpp:380] concat1_14 -> concat1_14
I0129 13:29:51.614907  4205 net.cpp:122] Setting up concat1_14
I0129 13:29:51.614913  4205 net.cpp:129] Top shape: 1 992 37 50 (1835200)
I0129 13:29:51.614915  4205 net.cpp:137] Memory required for data: 1269731460
I0129 13:29:51.614918  4205 layer_factory.hpp:77] Creating layer concat1_14_concat1_14_0_split
I0129 13:29:51.614923  4205 net.cpp:84] Creating Layer concat1_14_concat1_14_0_split
I0129 13:29:51.614928  4205 net.cpp:406] concat1_14_concat1_14_0_split <- concat1_14
I0129 13:29:51.614933  4205 net.cpp:380] concat1_14_concat1_14_0_split -> concat1_14_concat1_14_0_split_0
I0129 13:29:51.614940  4205 net.cpp:380] concat1_14_concat1_14_0_split -> concat1_14_concat1_14_0_split_1
I0129 13:29:51.615011  4205 net.cpp:122] Setting up concat1_14_concat1_14_0_split
I0129 13:29:51.615017  4205 net.cpp:129] Top shape: 1 992 37 50 (1835200)
I0129 13:29:51.615021  4205 net.cpp:129] Top shape: 1 992 37 50 (1835200)
I0129 13:29:51.615025  4205 net.cpp:137] Memory required for data: 1284413060
I0129 13:29:51.615027  4205 layer_factory.hpp:77] Creating layer conv1_15/bn
I0129 13:29:51.615046  4205 net.cpp:84] Creating Layer conv1_15/bn
I0129 13:29:51.615049  4205 net.cpp:406] conv1_15/bn <- concat1_14_concat1_14_0_split_0
I0129 13:29:51.615054  4205 net.cpp:380] conv1_15/bn -> conv1_15/bn
I0129 13:29:51.615476  4205 net.cpp:122] Setting up conv1_15/bn
I0129 13:29:51.615483  4205 net.cpp:129] Top shape: 1 992 37 50 (1835200)
I0129 13:29:51.615486  4205 net.cpp:137] Memory required for data: 1291753860
I0129 13:29:51.615494  4205 layer_factory.hpp:77] Creating layer conv1_15/scale
I0129 13:29:51.615502  4205 net.cpp:84] Creating Layer conv1_15/scale
I0129 13:29:51.615506  4205 net.cpp:406] conv1_15/scale <- conv1_15/bn
I0129 13:29:51.615511  4205 net.cpp:367] conv1_15/scale -> conv1_15/bn (in-place)
I0129 13:29:51.615587  4205 layer_factory.hpp:77] Creating layer conv1_15/scale
I0129 13:29:51.615819  4205 net.cpp:122] Setting up conv1_15/scale
I0129 13:29:51.615826  4205 net.cpp:129] Top shape: 1 992 37 50 (1835200)
I0129 13:29:51.615829  4205 net.cpp:137] Memory required for data: 1299094660
I0129 13:29:51.615835  4205 layer_factory.hpp:77] Creating layer relu1_15
I0129 13:29:51.615840  4205 net.cpp:84] Creating Layer relu1_15
I0129 13:29:51.615844  4205 net.cpp:406] relu1_15 <- conv1_15/bn
I0129 13:29:51.615849  4205 net.cpp:367] relu1_15 -> conv1_15/bn (in-place)
I0129 13:29:51.617094  4205 net.cpp:122] Setting up relu1_15
I0129 13:29:51.617107  4205 net.cpp:129] Top shape: 1 992 37 50 (1835200)
I0129 13:29:51.617110  4205 net.cpp:137] Memory required for data: 1306435460
I0129 13:29:51.617115  4205 layer_factory.hpp:77] Creating layer conv1_15
I0129 13:29:51.617125  4205 net.cpp:84] Creating Layer conv1_15
I0129 13:29:51.617130  4205 net.cpp:406] conv1_15 <- conv1_15/bn
I0129 13:29:51.617137  4205 net.cpp:380] conv1_15 -> conv1_15
I0129 13:29:51.629664  4205 net.cpp:122] Setting up conv1_15
I0129 13:29:51.629679  4205 net.cpp:129] Top shape: 1 32 37 50 (59200)
I0129 13:29:51.629683  4205 net.cpp:137] Memory required for data: 1306672260
I0129 13:29:51.629689  4205 layer_factory.hpp:77] Creating layer concat1_15
I0129 13:29:51.629698  4205 net.cpp:84] Creating Layer concat1_15
I0129 13:29:51.629703  4205 net.cpp:406] concat1_15 <- concat1_14_concat1_14_0_split_1
I0129 13:29:51.629707  4205 net.cpp:406] concat1_15 <- conv1_15
I0129 13:29:51.629714  4205 net.cpp:380] concat1_15 -> concat1_15
I0129 13:29:51.629770  4205 net.cpp:122] Setting up concat1_15
I0129 13:29:51.629776  4205 net.cpp:129] Top shape: 1 1024 37 50 (1894400)
I0129 13:29:51.629779  4205 net.cpp:137] Memory required for data: 1314249860
I0129 13:29:51.629783  4205 layer_factory.hpp:77] Creating layer concat1_15_concat1_15_0_split
I0129 13:29:51.629791  4205 net.cpp:84] Creating Layer concat1_15_concat1_15_0_split
I0129 13:29:51.629794  4205 net.cpp:406] concat1_15_concat1_15_0_split <- concat1_15
I0129 13:29:51.629799  4205 net.cpp:380] concat1_15_concat1_15_0_split -> concat1_15_concat1_15_0_split_0
I0129 13:29:51.629806  4205 net.cpp:380] concat1_15_concat1_15_0_split -> concat1_15_concat1_15_0_split_1
I0129 13:29:51.629873  4205 net.cpp:122] Setting up concat1_15_concat1_15_0_split
I0129 13:29:51.629879  4205 net.cpp:129] Top shape: 1 1024 37 50 (1894400)
I0129 13:29:51.629884  4205 net.cpp:129] Top shape: 1 1024 37 50 (1894400)
I0129 13:29:51.629885  4205 net.cpp:137] Memory required for data: 1329405060
I0129 13:29:51.629889  4205 layer_factory.hpp:77] Creating layer conv1_16/bn
I0129 13:29:51.629896  4205 net.cpp:84] Creating Layer conv1_16/bn
I0129 13:29:51.629899  4205 net.cpp:406] conv1_16/bn <- concat1_15_concat1_15_0_split_0
I0129 13:29:51.629905  4205 net.cpp:380] conv1_16/bn -> conv1_16/bn
I0129 13:29:51.630307  4205 net.cpp:122] Setting up conv1_16/bn
I0129 13:29:51.630314  4205 net.cpp:129] Top shape: 1 1024 37 50 (1894400)
I0129 13:29:51.630317  4205 net.cpp:137] Memory required for data: 1336982660
I0129 13:29:51.630326  4205 layer_factory.hpp:77] Creating layer conv1_16/scale
I0129 13:29:51.630333  4205 net.cpp:84] Creating Layer conv1_16/scale
I0129 13:29:51.630337  4205 net.cpp:406] conv1_16/scale <- conv1_16/bn
I0129 13:29:51.630342  4205 net.cpp:367] conv1_16/scale -> conv1_16/bn (in-place)
I0129 13:29:51.630409  4205 layer_factory.hpp:77] Creating layer conv1_16/scale
I0129 13:29:51.630630  4205 net.cpp:122] Setting up conv1_16/scale
I0129 13:29:51.630636  4205 net.cpp:129] Top shape: 1 1024 37 50 (1894400)
I0129 13:29:51.630640  4205 net.cpp:137] Memory required for data: 1344560260
I0129 13:29:51.630645  4205 layer_factory.hpp:77] Creating layer relu1_16
I0129 13:29:51.630653  4205 net.cpp:84] Creating Layer relu1_16
I0129 13:29:51.630657  4205 net.cpp:406] relu1_16 <- conv1_16/bn
I0129 13:29:51.630661  4205 net.cpp:367] relu1_16 -> conv1_16/bn (in-place)
I0129 13:29:51.630895  4205 net.cpp:122] Setting up relu1_16
I0129 13:29:51.630904  4205 net.cpp:129] Top shape: 1 1024 37 50 (1894400)
I0129 13:29:51.630908  4205 net.cpp:137] Memory required for data: 1352137860
I0129 13:29:51.630910  4205 layer_factory.hpp:77] Creating layer conv1_16
I0129 13:29:51.630921  4205 net.cpp:84] Creating Layer conv1_16
I0129 13:29:51.630925  4205 net.cpp:406] conv1_16 <- conv1_16/bn
I0129 13:29:51.630930  4205 net.cpp:380] conv1_16 -> conv1_16
I0129 13:29:51.643955  4205 net.cpp:122] Setting up conv1_16
I0129 13:29:51.643970  4205 net.cpp:129] Top shape: 1 32 37 50 (59200)
I0129 13:29:51.643973  4205 net.cpp:137] Memory required for data: 1352374660
I0129 13:29:51.643980  4205 layer_factory.hpp:77] Creating layer concat1_16
I0129 13:29:51.643986  4205 net.cpp:84] Creating Layer concat1_16
I0129 13:29:51.643991  4205 net.cpp:406] concat1_16 <- concat1_15_concat1_15_0_split_1
I0129 13:29:51.643996  4205 net.cpp:406] concat1_16 <- conv1_16
I0129 13:29:51.644003  4205 net.cpp:380] concat1_16 -> concat1_16
I0129 13:29:51.644057  4205 net.cpp:122] Setting up concat1_16
I0129 13:29:51.644063  4205 net.cpp:129] Top shape: 1 1056 37 50 (1953600)
I0129 13:29:51.644067  4205 net.cpp:137] Memory required for data: 1360189060
I0129 13:29:51.644069  4205 layer_factory.hpp:77] Creating layer concat1_16_concat1_16_0_split
I0129 13:29:51.644074  4205 net.cpp:84] Creating Layer concat1_16_concat1_16_0_split
I0129 13:29:51.644078  4205 net.cpp:406] concat1_16_concat1_16_0_split <- concat1_16
I0129 13:29:51.644084  4205 net.cpp:380] concat1_16_concat1_16_0_split -> concat1_16_concat1_16_0_split_0
I0129 13:29:51.644090  4205 net.cpp:380] concat1_16_concat1_16_0_split -> concat1_16_concat1_16_0_split_1
I0129 13:29:51.644165  4205 net.cpp:122] Setting up concat1_16_concat1_16_0_split
I0129 13:29:51.644170  4205 net.cpp:129] Top shape: 1 1056 37 50 (1953600)
I0129 13:29:51.644174  4205 net.cpp:129] Top shape: 1 1056 37 50 (1953600)
I0129 13:29:51.644177  4205 net.cpp:137] Memory required for data: 1375817860
I0129 13:29:51.644181  4205 layer_factory.hpp:77] Creating layer conv1_17/bn
I0129 13:29:51.644187  4205 net.cpp:84] Creating Layer conv1_17/bn
I0129 13:29:51.644191  4205 net.cpp:406] conv1_17/bn <- concat1_16_concat1_16_0_split_0
I0129 13:29:51.644196  4205 net.cpp:380] conv1_17/bn -> conv1_17/bn
I0129 13:29:51.644608  4205 net.cpp:122] Setting up conv1_17/bn
I0129 13:29:51.644614  4205 net.cpp:129] Top shape: 1 1056 37 50 (1953600)
I0129 13:29:51.644618  4205 net.cpp:137] Memory required for data: 1383632260
I0129 13:29:51.644624  4205 layer_factory.hpp:77] Creating layer conv1_17/scale
I0129 13:29:51.644652  4205 net.cpp:84] Creating Layer conv1_17/scale
I0129 13:29:51.644657  4205 net.cpp:406] conv1_17/scale <- conv1_17/bn
I0129 13:29:51.644662  4205 net.cpp:367] conv1_17/scale -> conv1_17/bn (in-place)
I0129 13:29:51.644739  4205 layer_factory.hpp:77] Creating layer conv1_17/scale
I0129 13:29:51.644974  4205 net.cpp:122] Setting up conv1_17/scale
I0129 13:29:51.644982  4205 net.cpp:129] Top shape: 1 1056 37 50 (1953600)
I0129 13:29:51.644985  4205 net.cpp:137] Memory required for data: 1391446660
I0129 13:29:51.644991  4205 layer_factory.hpp:77] Creating layer relu1_17
I0129 13:29:51.644997  4205 net.cpp:84] Creating Layer relu1_17
I0129 13:29:51.645015  4205 net.cpp:406] relu1_17 <- conv1_17/bn
I0129 13:29:51.645020  4205 net.cpp:367] relu1_17 -> conv1_17/bn (in-place)
I0129 13:29:51.645251  4205 net.cpp:122] Setting up relu1_17
I0129 13:29:51.645258  4205 net.cpp:129] Top shape: 1 1056 37 50 (1953600)
I0129 13:29:51.645262  4205 net.cpp:137] Memory required for data: 1399261060
I0129 13:29:51.645264  4205 layer_factory.hpp:77] Creating layer conv1_17
I0129 13:29:51.645274  4205 net.cpp:84] Creating Layer conv1_17
I0129 13:29:51.645278  4205 net.cpp:406] conv1_17 <- conv1_17/bn
I0129 13:29:51.645287  4205 net.cpp:380] conv1_17 -> conv1_17
I0129 13:29:51.658293  4205 net.cpp:122] Setting up conv1_17
I0129 13:29:51.658308  4205 net.cpp:129] Top shape: 1 32 37 50 (59200)
I0129 13:29:51.658310  4205 net.cpp:137] Memory required for data: 1399497860
I0129 13:29:51.658316  4205 layer_factory.hpp:77] Creating layer concat1_17
I0129 13:29:51.658324  4205 net.cpp:84] Creating Layer concat1_17
I0129 13:29:51.658329  4205 net.cpp:406] concat1_17 <- concat1_16_concat1_16_0_split_1
I0129 13:29:51.658334  4205 net.cpp:406] concat1_17 <- conv1_17
I0129 13:29:51.658340  4205 net.cpp:380] concat1_17 -> concat1_17
I0129 13:29:51.658394  4205 net.cpp:122] Setting up concat1_17
I0129 13:29:51.658401  4205 net.cpp:129] Top shape: 1 1088 37 50 (2012800)
I0129 13:29:51.658403  4205 net.cpp:137] Memory required for data: 1407549060
I0129 13:29:51.658406  4205 layer_factory.hpp:77] Creating layer concat1_17_concat1_17_0_split
I0129 13:29:51.658412  4205 net.cpp:84] Creating Layer concat1_17_concat1_17_0_split
I0129 13:29:51.658416  4205 net.cpp:406] concat1_17_concat1_17_0_split <- concat1_17
I0129 13:29:51.658422  4205 net.cpp:380] concat1_17_concat1_17_0_split -> concat1_17_concat1_17_0_split_0
I0129 13:29:51.658428  4205 net.cpp:380] concat1_17_concat1_17_0_split -> concat1_17_concat1_17_0_split_1
I0129 13:29:51.658502  4205 net.cpp:122] Setting up concat1_17_concat1_17_0_split
I0129 13:29:51.658509  4205 net.cpp:129] Top shape: 1 1088 37 50 (2012800)
I0129 13:29:51.658512  4205 net.cpp:129] Top shape: 1 1088 37 50 (2012800)
I0129 13:29:51.658515  4205 net.cpp:137] Memory required for data: 1423651460
I0129 13:29:51.658519  4205 layer_factory.hpp:77] Creating layer conv1_18/bn
I0129 13:29:51.658526  4205 net.cpp:84] Creating Layer conv1_18/bn
I0129 13:29:51.658530  4205 net.cpp:406] conv1_18/bn <- concat1_17_concat1_17_0_split_0
I0129 13:29:51.658535  4205 net.cpp:380] conv1_18/bn -> conv1_18/bn
I0129 13:29:51.658960  4205 net.cpp:122] Setting up conv1_18/bn
I0129 13:29:51.658968  4205 net.cpp:129] Top shape: 1 1088 37 50 (2012800)
I0129 13:29:51.658972  4205 net.cpp:137] Memory required for data: 1431702660
I0129 13:29:51.658979  4205 layer_factory.hpp:77] Creating layer conv1_18/scale
I0129 13:29:51.658987  4205 net.cpp:84] Creating Layer conv1_18/scale
…
I0129 13:29:53.484738  4205 net.cpp:406] concat1_16_concat1_16_0_split <- concat1_16
I0129 13:29:53.484743  4205 net.cpp:380] concat1_16_concat1_16_0_split -> concat1_16_concat1_16_0_split_0
I0129 13:29:53.484750  4205 net.cpp:380] concat1_16_concat1_16_0_split -> concat1_16_concat1_16_0_split_1
I0129 13:29:53.484840  4205 net.cpp:122] Setting up concat1_16_concat1_16_0_split
I0129 13:29:53.484848  4205 net.cpp:129] Top shape: 1 1056 23 24 (582912)
I0129 13:29:53.484851  4205 net.cpp:129] Top shape: 1 1056 23 24 (582912)
I0129 13:29:53.484854  4205 net.cpp:137] Memory required for data: 415868384
I0129 13:29:53.484858  4205 layer_factory.hpp:77] Creating layer conv1_17/bn
I0129 13:29:53.484865  4205 net.cpp:84] Creating Layer conv1_17/bn
I0129 13:29:53.484869  4205 net.cpp:406] conv1_17/bn <- concat1_16_concat1_16_0_split_0
I0129 13:29:53.484874  4205 net.cpp:380] conv1_17/bn -> conv1_17/bn
I0129 13:29:53.485522  4205 net.cpp:122] Setting up conv1_17/bn
I0129 13:29:53.485529  4205 net.cpp:129] Top shape: 1 1056 23 24 (582912)
I0129 13:29:53.485532  4205 net.cpp:137] Memory required for data: 418200032
I0129 13:29:53.485540  4205 layer_factory.hpp:77] Creating layer conv1_17/scale
I0129 13:29:53.485553  4205 net.cpp:84] Creating Layer conv1_17/scale
I0129 13:29:53.485558  4205 net.cpp:406] conv1_17/scale <- conv1_17/bn
I0129 13:29:53.485563  4205 net.cpp:367] conv1_17/scale -> conv1_17/bn (in-place)
I0129 13:29:53.485663  4205 layer_factory.hpp:77] Creating layer conv1_17/scale
I0129 13:29:53.485983  4205 net.cpp:122] Setting up conv1_17/scale
I0129 13:29:53.485992  4205 net.cpp:129] Top shape: 1 1056 23 24 (582912)
I0129 13:29:53.485996  4205 net.cpp:137] Memory required for data: 420531680
I0129 13:29:53.486001  4205 layer_factory.hpp:77] Creating layer relu1_17
I0129 13:29:53.486007  4205 net.cpp:84] Creating Layer relu1_17
I0129 13:29:53.486011  4205 net.cpp:406] relu1_17 <- conv1_17/bn
I0129 13:29:53.486016  4205 net.cpp:367] relu1_17 -> conv1_17/bn (in-place)
I0129 13:29:53.486284  4205 net.cpp:122] Setting up relu1_17
I0129 13:29:53.486292  4205 net.cpp:129] Top shape: 1 1056 23 24 (582912)
I0129 13:29:53.486295  4205 net.cpp:137] Memory required for data: 422863328
I0129 13:29:53.486299  4205 layer_factory.hpp:77] Creating layer conv1_17
I0129 13:29:53.486310  4205 net.cpp:84] Creating Layer conv1_17
I0129 13:29:53.486315  4205 net.cpp:406] conv1_17 <- conv1_17/bn
I0129 13:29:53.486322  4205 net.cpp:380] conv1_17 -> conv1_17
I0129 13:29:53.500244  4205 net.cpp:122] Setting up conv1_17
I0129 13:29:53.500258  4205 net.cpp:129] Top shape: 1 32 23 24 (17664)
I0129 13:29:53.500262  4205 net.cpp:137] Memory required for data: 422933984
I0129 13:29:53.500269  4205 layer_factory.hpp:77] Creating layer concat1_17
I0129 13:29:53.500277  4205 net.cpp:84] Creating Layer concat1_17
I0129 13:29:53.500282  4205 net.cpp:406] concat1_17 <- concat1_16_concat1_16_0_split_1
I0129 13:29:53.500286  4205 net.cpp:406] concat1_17 <- conv1_17
I0129 13:29:53.500293  4205 net.cpp:380] concat1_17 -> concat1_17
I0129 13:29:53.500361  4205 net.cpp:122] Setting up concat1_17
I0129 13:29:53.500368  4205 net.cpp:129] Top shape: 1 1088 23 24 (600576)
I0129 13:29:53.500371  4205 net.cpp:137] Memory required for data: 425336288
I0129 13:29:53.500375  4205 layer_factory.hpp:77] Creating layer concat1_17_concat1_17_0_split
I0129 13:29:53.500380  4205 net.cpp:84] Creating Layer concat1_17_concat1_17_0_split
I0129 13:29:53.500385  4205 net.cpp:406] concat1_17_concat1_17_0_split <- concat1_17
I0129 13:29:53.500391  4205 net.cpp:380] concat1_17_concat1_17_0_split -> concat1_17_concat1_17_0_split_0
I0129 13:29:53.500397  4205 net.cpp:380] concat1_17_concat1_17_0_split -> concat1_17_concat1_17_0_split_1
I0129 13:29:53.500493  4205 net.cpp:122] Setting up concat1_17_concat1_17_0_split
I0129 13:29:53.500499  4205 net.cpp:129] Top shape: 1 1088 23 24 (600576)
I0129 13:29:53.500504  4205 net.cpp:129] Top shape: 1 1088 23 24 (600576)
I0129 13:29:53.500506  4205 net.cpp:137] Memory required for data: 430140896
I0129 13:29:53.500509  4205 layer_factory.hpp:77] Creating layer conv1_18/bn
I0129 13:29:53.500520  4205 net.cpp:84] Creating Layer conv1_18/bn
I0129 13:29:53.500524  4205 net.cpp:406] conv1_18/bn <- concat1_17_concat1_17_0_split_0
I0129 13:29:53.500530  4205 net.cpp:380] conv1_18/bn -> conv1_18/bn
I0129 13:29:53.501169  4205 net.cpp:122] Setting up conv1_18/bn
I0129 13:29:53.501178  4205 net.cpp:129] Top shape: 1 1088 23 24 (600576)
I0129 13:29:53.501180  4205 net.cpp:137] Memory required for data: 432543200
I0129 13:29:53.501188  4205 layer_factory.hpp:77] Creating layer conv1_18/scale
I0129 13:29:53.501201  4205 net.cpp:84] Creating Layer conv1_18/scale
I0129 13:29:53.501205  4205 net.cpp:406] conv1_18/scale <- conv1_18/bn
I0129 13:29:53.501211  4205 net.cpp:367] conv1_18/scale -> conv1_18/bn (in-place)
I0129 13:29:53.501309  4205 layer_factory.hpp:77] Creating layer conv1_18/scale
I0129 13:29:53.501636  4205 net.cpp:122] Setting up conv1_18/scale
I0129 13:29:53.501647  4205 net.cpp:129] Top shape: 1 1088 23 24 (600576)
I0129 13:29:53.501651  4205 net.cpp:137] Memory required for data: 434945504
I0129 13:29:53.501657  4205 layer_factory.hpp:77] Creating layer relu1_18
I0129 13:29:53.501663  4205 net.cpp:84] Creating Layer relu1_18
I0129 13:29:53.501667  4205 net.cpp:406] relu1_18 <- conv1_18/bn
I0129 13:29:53.501672  4205 net.cpp:367] relu1_18 -> conv1_18/bn (in-place)
I0129 13:29:53.503012  4205 net.cpp:122] Setting up relu1_18
I0129 13:29:53.503026  4205 net.cpp:129] Top shape: 1 1088 23 24 (600576)
I0129 13:29:53.503029  4205 net.cpp:137] Memory required for data: 437347808
I0129 13:29:53.503033  4205 layer_factory.hpp:77] Creating layer conv1_18
I0129 13:29:53.503046  4205 net.cpp:84] Creating Layer conv1_18
I0129 13:29:53.503049  4205 net.cpp:406] conv1_18 <- conv1_18/bn
I0129 13:29:53.503058  4205 net.cpp:380] conv1_18 -> conv1_18
I0129 13:29:53.516993  4205 net.cpp:122] Setting up conv1_18
I0129 13:29:53.517007  4205 net.cpp:129] Top shape: 1 32 23 24 (17664)
I0129 13:29:53.517010  4205 net.cpp:137] Memory required for data: 437418464
I0129 13:29:53.517017  4205 layer_factory.hpp:77] Creating layer concat1_18
I0129 13:29:53.517025  4205 net.cpp:84] Creating Layer concat1_18
I0129 13:29:53.517030  4205 net.cpp:406] concat1_18 <- concat1_17_concat1_17_0_split_1
I0129 13:29:53.517035  4205 net.cpp:406] concat1_18 <- conv1_18
I0129 13:29:53.517042  4205 net.cpp:380] concat1_18 -> concat1_18
I0129 13:29:53.517110  4205 net.cpp:122] Setting up concat1_18
I0129 13:29:53.517117  4205 net.cpp:129] Top shape: 1 1120 23 24 (618240)
I0129 13:29:53.517120  4205 net.cpp:137] Memory required for data: 439891424
I0129 13:29:53.517123  4205 layer_factory.hpp:77] Creating layer concat1_18_concat1_18_0_split
I0129 13:29:53.517129  4205 net.cpp:84] Creating Layer concat1_18_concat1_18_0_split
I0129 13:29:53.517133  4205 net.cpp:406] concat1_18_concat1_18_0_split <- concat1_18
I0129 13:29:53.517140  4205 net.cpp:380] concat1_18_concat1_18_0_split -> concat1_18_concat1_18_0_split_0
I0129 13:29:53.517146  4205 net.cpp:380] concat1_18_concat1_18_0_split -> concat1_18_concat1_18_0_split_1
I0129 13:29:53.517241  4205 net.cpp:122] Setting up concat1_18_concat1_18_0_split
I0129 13:29:53.517248  4205 net.cpp:129] Top shape: 1 1120 23 24 (618240)
I0129 13:29:53.517252  4205 net.cpp:129] Top shape: 1 1120 23 24 (618240)
I0129 13:29:53.517256  4205 net.cpp:137] Memory required for data: 444837344
I0129 13:29:53.517258  4205 layer_factory.hpp:77] Creating layer conv1_19/bn
I0129 13:29:53.517266  4205 net.cpp:84] Creating Layer conv1_19/bn
I0129 13:29:53.517271  4205 net.cpp:406] conv1_19/bn <- concat1_18_concat1_18_0_split_0
I0129 13:29:53.517277  4205 net.cpp:380] conv1_19/bn -> conv1_19/bn
I0129 13:29:53.517869  4205 net.cpp:122] Setting up conv1_19/bn
I0129 13:29:53.517877  4205 net.cpp:129] Top shape: 1 1120 23 24 (618240)
I0129 13:29:53.517881  4205 net.cpp:137] Memory required for data: 447310304
I0129 13:29:53.517889  4205 layer_factory.hpp:77] Creating layer conv1_19/scale
I0129 13:29:53.517899  4205 net.cpp:84] Creating Layer conv1_19/scale
I0129 13:29:53.517902  4205 net.cpp:406] conv1_19/scale <- conv1_19/bn
I0129 13:29:53.517909  4205 net.cpp:367] conv1_19/scale -> conv1_19/bn (in-place)
I0129 13:29:53.518005  4205 layer_factory.hpp:77] Creating layer conv1_19/scale
I0129 13:29:53.518337  4205 net.cpp:122] Setting up conv1_19/scale
I0129 13:29:53.518344  4205 net.cpp:129] Top shape: 1 1120 23 24 (618240)
I0129 13:29:53.518348  4205 net.cpp:137] Memory required for data: 449783264
I0129 13:29:53.518354  4205 layer_factory.hpp:77] Creating layer relu1_19
I0129 13:29:53.518360  4205 net.cpp:84] Creating Layer relu1_19
I0129 13:29:53.518364  4205 net.cpp:406] relu1_19 <- conv1_19/bn
I0129 13:29:53.518368  4205 net.cpp:367] relu1_19 -> conv1_19/bn (in-place)
I0129 13:29:53.518637  4205 net.cpp:122] Setting up relu1_19
I0129 13:29:53.518646  4205 net.cpp:129] Top shape: 1 1120 23 24 (618240)
I0129 13:29:53.518649  4205 net.cpp:137] Memory required for data: 452256224
I0129 13:29:53.518661  4205 layer_factory.hpp:77] Creating layer conv1_19
I0129 13:29:53.518672  4205 net.cpp:84] Creating Layer conv1_19
I0129 13:29:53.518676  4205 net.cpp:406] conv1_19 <- conv1_19/bn
I0129 13:29:53.518684  4205 net.cpp:380] conv1_19 -> conv1_19
I0129 13:29:53.533022  4205 net.cpp:122] Setting up conv1_19
I0129 13:29:53.533037  4205 net.cpp:129] Top shape: 1 32 23 24 (17664)
I0129 13:29:53.533041  4205 net.cpp:137] Memory required for data: 452326880
I0129 13:29:53.533047  4205 layer_factory.hpp:77] Creating layer concat1_19
I0129 13:29:53.533054  4205 net.cpp:84] Creating Layer concat1_19
I0129 13:29:53.533061  4205 net.cpp:406] concat1_19 <- concat1_18_concat1_18_0_split_1
I0129 13:29:53.533067  4205 net.cpp:406] concat1_19 <- conv1_19
I0129 13:29:53.533072  4205 net.cpp:380] concat1_19 -> concat1_19
I0129 13:29:53.533140  4205 net.cpp:122] Setting up concat1_19
I0129 13:29:53.533148  4205 net.cpp:129] Top shape: 1 1152 23 24 (635904)
I0129 13:29:53.533150  4205 net.cpp:137] Memory required for data: 454870496
I0129 13:29:53.533154  4205 layer_factory.hpp:77] Creating layer concat1_19_concat1_19_0_split
I0129 13:29:53.533161  4205 net.cpp:84] Creating Layer concat1_19_concat1_19_0_split
I0129 13:29:53.533164  4205 net.cpp:406] concat1_19_concat1_19_0_split <- concat1_19
I0129 13:29:53.533169  4205 net.cpp:380] concat1_19_concat1_19_0_split -> concat1_19_concat1_19_0_split_0
I0129 13:29:53.533175  4205 net.cpp:380] concat1_19_concat1_19_0_split -> concat1_19_concat1_19_0_split_1
I0129 13:29:53.533270  4205 net.cpp:122] Setting up concat1_19_concat1_19_0_split
I0129 13:29:53.533277  4205 net.cpp:129] Top shape: 1 1152 23 24 (635904)
I0129 13:29:53.533282  4205 net.cpp:129] Top shape: 1 1152 23 24 (635904)
I0129 13:29:53.533284  4205 net.cpp:137] Memory required for data: 459957728
I0129 13:29:53.533288  4205 layer_factory.hpp:77] Creating layer conv1_20/bn
I0129 13:29:53.533295  4205 net.cpp:84] Creating Layer conv1_20/bn
I0129 13:29:53.533299  4205 net.cpp:406] conv1_20/bn <- concat1_19_concat1_19_0_split_0
I0129 13:29:53.533305  4205 net.cpp:380] conv1_20/bn -> conv1_20/bn
I0129 13:29:53.533893  4205 net.cpp:122] Setting up conv1_20/bn
I0129 13:29:53.533901  4205 net.cpp:129] Top shape: 1 1152 23 24 (635904)
I0129 13:29:53.533905  4205 net.cpp:137] Memory required for data: 462501344
I0129 13:29:53.533912  4205 layer_factory.hpp:77] Creating layer conv1_20/scale
I0129 13:29:53.533921  4205 net.cpp:84] Creating Layer conv1_20/scale
I0129 13:29:53.533924  4205 net.cpp:406] conv1_20/scale <- conv1_20/bn
I0129 13:29:53.533931  4205 net.cpp:367] conv1_20/scale -> conv1_20/bn (in-place)
I0129 13:29:53.534019  4205 layer_factory.hpp:77] Creating layer conv1_20/scale
I0129 13:29:53.534338  4205 net.cpp:122] Setting up conv1_20/scale
I0129 13:29:53.534348  4205 net.cpp:129] Top shape: 1 1152 23 24 (635904)
I0129 13:29:53.534350  4205 net.cpp:137] Memory required for data: 465044960
I0129 13:29:53.534356  4205 layer_factory.hpp:77] Creating layer relu1_20
I0129 13:29:53.534363  4205 net.cpp:84] Creating Layer relu1_20
I0129 13:29:53.534366  4205 net.cpp:406] relu1_20 <- conv1_20/bn
I0129 13:29:53.534370  4205 net.cpp:367] relu1_20 -> conv1_20/bn (in-place)
I0129 13:29:53.534641  4205 net.cpp:122] Setting up relu1_20
I0129 13:29:53.534648  4205 net.cpp:129] Top shape: 1 1152 23 24 (635904)
I0129 13:29:53.534651  4205 net.cpp:137] Memory required for data: 467588576
I0129 13:29:53.534656  4205 layer_factory.hpp:77] Creating layer conv1_20
I0129 13:29:53.534669  4205 net.cpp:84] Creating Layer conv1_20
I0129 13:29:53.534673  4205 net.cpp:406] conv1_20 <- conv1_20/bn
I0129 13:29:53.534679  4205 net.cpp:380] conv1_20 -> conv1_20
I0129 13:29:53.549187  4205 net.cpp:122] Setting up conv1_20
I0129 13:29:53.549203  4205 net.cpp:129] Top shape: 1 32 23 24 (17664)
I0129 13:29:53.549206  4205 net.cpp:137] Memory required for data: 467659232
I0129 13:29:53.549214  4205 layer_factory.hpp:77] Creating layer concat1_20
I0129 13:29:53.549222  4205 net.cpp:84] Creating Layer concat1_20
I0129 13:29:53.549227  4205 net.cpp:406] concat1_20 <- concat1_19_concat1_19_0_split_1
I0129 13:29:53.549237  4205 net.cpp:406] concat1_20 <- conv1_20
I0129 13:29:53.549244  4205 net.cpp:380] concat1_20 -> concat1_20
I0129 13:29:53.549312  4205 net.cpp:122] Setting up concat1_20
I0129 13:29:53.549320  4205 net.cpp:129] Top shape: 1 1184 23 24 (653568)
I0129 13:29:53.549324  4205 net.cpp:137] Memory required for data: 470273504
I0129 13:29:53.549326  4205 layer_factory.hpp:77] Creating layer concat1_20_concat1_20_0_split
I0129 13:29:53.549331  4205 net.cpp:84] Creating Layer concat1_20_concat1_20_0_split
I0129 13:29:53.549335  4205 net.cpp:406] concat1_20_concat1_20_0_split <- concat1_20
I0129 13:29:53.549342  4205 net.cpp:380] concat1_20_concat1_20_0_split -> concat1_20_concat1_20_0_split_0
I0129 13:29:53.549348  4205 net.cpp:380] concat1_20_concat1_20_0_split -> concat1_20_concat1_20_0_split_1
I0129 13:29:53.549443  4205 net.cpp:122] Setting up concat1_20_concat1_20_0_split
I0129 13:29:53.549451  4205 net.cpp:129] Top shape: 1 1184 23 24 (653568)
I0129 13:29:53.549456  4205 net.cpp:129] Top shape: 1 1184 23 24 (653568)
I0129 13:29:53.549459  4205 net.cpp:137] Memory required for data: 475502048
I0129 13:29:53.549463  4205 layer_factory.hpp:77] Creating layer conv1_21/bn
I0129 13:29:53.549470  4205 net.cpp:84] Creating Layer conv1_21/bn
I0129 13:29:53.549474  4205 net.cpp:406] conv1_21/bn <- concat1_20_concat1_20_0_split_0
I0129 13:29:53.549479  4205 net.cpp:380] conv1_21/bn -> conv1_21/bn
I0129 13:29:53.550072  4205 net.cpp:122] Setting up conv1_21/bn
I0129 13:29:53.550081  4205 net.cpp:129] Top shape: 1 1184 23 24 (653568)
I0129 13:29:53.550084  4205 net.cpp:137] Memory required for data: 478116320
I0129 13:29:53.550094  4205 layer_factory.hpp:77] Creating layer conv1_21/scale
I0129 13:29:53.550101  4205 net.cpp:84] Creating Layer conv1_21/scale
I0129 13:29:53.550107  4205 net.cpp:406] conv1_21/scale <- conv1_21/bn
I0129 13:29:53.550112  4205 net.cpp:367] conv1_21/scale -> conv1_21/bn (in-place)
I0129 13:29:53.550210  4205 layer_factory.hpp:77] Creating layer conv1_21/scale
I0129 13:29:53.550546  4205 net.cpp:122] Setting up conv1_21/scale
I0129 13:29:53.550570  4205 net.cpp:129] Top shape: 1 1184 23 24 (653568)
I0129 13:29:53.550573  4205 net.cpp:137] Memory required for data: 480730592
I0129 13:29:53.550580  4205 layer_factory.hpp:77] Creating layer relu1_21
I0129 13:29:53.550586  4205 net.cpp:84] Creating Layer relu1_21
I0129 13:29:53.550590  4205 net.cpp:406] relu1_21 <- conv1_21/bn
I0129 13:29:53.550598  4205 net.cpp:367] relu1_21 -> conv1_21/bn (in-place)
I0129 13:29:53.551970  4205 net.cpp:122] Setting up relu1_21
I0129 13:29:53.551983  4205 net.cpp:129] Top shape: 1 1184 23 24 (653568)
I0129 13:29:53.551986  4205 net.cpp:137] Memory required for data: 483344864
I0129 13:29:53.551990  4205 layer_factory.hpp:77] Creating layer conv1_21
I0129 13:29:53.552002  4205 net.cpp:84] Creating Layer conv1_21
I0129 13:29:53.552007  4205 net.cpp:406] conv1_21 <- conv1_21/bn
I0129 13:29:53.552016  4205 net.cpp:380] conv1_21 -> conv1_21
I0129 13:29:53.566725  4205 net.cpp:122] Setting up conv1_21
I0129 13:29:53.566738  4205 net.cpp:129] Top shape: 1 32 23 24 (17664)
I0129 13:29:53.566742  4205 net.cpp:137] Memory required for data: 483415520
I0129 13:29:53.566748  4205 layer_factory.hpp:77] Creating layer concat1_21
I0129 13:29:53.566758  4205 net.cpp:84] Creating Layer concat1_21
I0129 13:29:53.566763  4205 net.cpp:406] concat1_21 <- concat1_20_concat1_20_0_split_1
I0129 13:29:53.566768  4205 net.cpp:406] concat1_21 <- conv1_21
I0129 13:29:53.566774  4205 net.cpp:380] concat1_21 -> concat1_21
I0129 13:29:53.566845  4205 net.cpp:122] Setting up concat1_21
I0129 13:29:53.566854  4205 net.cpp:129] Top shape: 1 1216 23 24 (671232)
I0129 13:29:53.566856  4205 net.cpp:137] Memory required for data: 486100448
I0129 13:29:53.566859  4205 layer_factory.hpp:77] Creating layer concat1_21_concat1_21_0_split
I0129 13:29:53.566865  4205 net.cpp:84] Creating Layer concat1_21_concat1_21_0_split
I0129 13:29:53.566869  4205 net.cpp:406] concat1_21_concat1_21_0_split <- concat1_21
I0129 13:29:53.566879  4205 net.cpp:380] concat1_21_concat1_21_0_split -> concat1_21_concat1_21_0_split_0
I0129 13:29:53.566886  4205 net.cpp:380] concat1_21_concat1_21_0_split -> concat1_21_concat1_21_0_split_1
I0129 13:29:53.566982  4205 net.cpp:122] Setting up concat1_21_concat1_21_0_split
I0129 13:29:53.566989  4205 net.cpp:129] Top shape: 1 1216 23 24 (671232)
I0129 13:29:53.566993  4205 net.cpp:129] Top shape: 1 1216 23 24 (671232)
I0129 13:29:53.566996  4205 net.cpp:137] Memory required for data: 491470304
I0129 13:29:53.567000  4205 layer_factory.hpp:77] Creating layer conv1_22/bn
I0129 13:29:53.567008  4205 net.cpp:84] Creating Layer conv1_22/bn
I0129 13:29:53.567013  4205 net.cpp:406] conv1_22/bn <- concat1_21_concat1_21_0_split_0
I0129 13:29:53.567019  4205 net.cpp:380] conv1_22/bn -> conv1_22/bn
I0129 13:29:53.567651  4205 net.cpp:122] Setting up conv1_22/bn
I0129 13:29:53.567659  4205 net.cpp:129] Top shape: 1 1216 23 24 (671232)
I0129 13:29:53.567663  4205 net.cpp:137] Memory required for data: 494155232
I0129 13:29:53.567672  4205 layer_factory.hpp:77] Creating layer conv1_22/scale
I0129 13:29:53.567678  4205 net.cpp:84] Creating Layer conv1_22/scale
I0129 13:29:53.567683  4205 net.cpp:406] conv1_22/scale <- conv1_22/bn
I0129 13:29:53.567690  4205 net.cpp:367] conv1_22/scale -> conv1_22/bn (in-place)
I0129 13:29:53.567795  4205 layer_factory.hpp:77] Creating layer conv1_22/scale
I0129 13:29:53.568146  4205 net.cpp:122] Setting up conv1_22/scale
I0129 13:29:53.568155  4205 net.cpp:129] Top shape: 1 1216 23 24 (671232)
I0129 13:29:53.568157  4205 net.cpp:137] Memory required for data: 496840160
I0129 13:29:53.568164  4205 layer_factory.hpp:77] Creating layer relu1_22
I0129 13:29:53.568173  4205 net.cpp:84] Creating Layer relu1_22
I0129 13:29:53.568177  4205 net.cpp:406] relu1_22 <- conv1_22/bn
I0129 13:29:53.568182  4205 net.cpp:367] relu1_22 -> conv1_22/bn (in-place)
I0129 13:29:53.568452  4205 net.cpp:122] Setting up relu1_22
I0129 13:29:53.568461  4205 net.cpp:129] Top shape: 1 1216 23 24 (671232)
I0129 13:29:53.568464  4205 net.cpp:137] Memory required for data: 499525088
I0129 13:29:53.568469  4205 layer_factory.hpp:77] Creating layer conv1_22
I0129 13:29:53.568480  4205 net.cpp:84] Creating Layer conv1_22
I0129 13:29:53.568485  4205 net.cpp:406] conv1_22 <- conv1_22/bn
I0129 13:29:53.568492  4205 net.cpp:380] conv1_22 -> conv1_22
I0129 13:29:53.583503  4205 net.cpp:122] Setting up conv1_22
I0129 13:29:53.583518  4205 net.cpp:129] Top shape: 1 32 23 24 (17664)
I0129 13:29:53.583521  4205 net.cpp:137] Memory required for data: 499595744
I0129 13:29:53.583528  4205 layer_factory.hpp:77] Creating layer concat1_22
I0129 13:29:53.583535  4205 net.cpp:84] Creating Layer concat1_22
I0129 13:29:53.583540  4205 net.cpp:406] concat1_22 <- concat1_21_concat1_21_0_split_1
I0129 13:29:53.583545  4205 net.cpp:406] concat1_22 <- conv1_22
I0129 13:29:53.583551  4205 net.cpp:380] concat1_22 -> concat1_22
I0129 13:29:53.583622  4205 net.cpp:122] Setting up concat1_22
I0129 13:29:53.583628  4205 net.cpp:129] Top shape: 1 1248 23 24 (688896)
I0129 13:29:53.583631  4205 net.cpp:137] Memory required for data: 502351328
I0129 13:29:53.583636  4205 layer_factory.hpp:77] Creating layer concat1_22_concat1_22_0_split
I0129 13:29:53.583640  4205 net.cpp:84] Creating Layer concat1_22_concat1_22_0_split
I0129 13:29:53.583644  4205 net.cpp:406] concat1_22_concat1_22_0_split <- concat1_22
I0129 13:29:53.583652  4205 net.cpp:380] concat1_22_concat1_22_0_split -> concat1_22_concat1_22_0_split_0
I0129 13:29:53.583657  4205 net.cpp:380] concat1_22_concat1_22_0_split -> concat1_22_concat1_22_0_split_1
I0129 13:29:53.583755  4205 net.cpp:122] Setting up concat1_22_concat1_22_0_split
I0129 13:29:53.583762  4205 net.cpp:129] Top shape: 1 1248 23 24 (688896)
I0129 13:29:53.583766  4205 net.cpp:129] Top shape: 1 1248 23 24 (688896)
I0129 13:29:53.583770  4205 net.cpp:137] Memory required for data: 507862496
I0129 13:29:53.583772  4205 layer_factory.hpp:77] Creating layer conv1_23/bn
I0129 13:29:53.583780  4205 net.cpp:84] Creating Layer conv1_23/bn
I0129 13:29:53.583786  4205 net.cpp:406] conv1_23/bn <- concat1_22_concat1_22_0_split_0
I0129 13:29:53.583794  4205 net.cpp:380] conv1_23/bn -> conv1_23/bn
I0129 13:29:53.584409  4205 net.cpp:122] Setting up conv1_23/bn
I0129 13:29:53.584417  4205 net.cpp:129] Top shape: 1 1248 23 24 (688896)
I0129 13:29:53.584420  4205 net.cpp:137] Memory required for data: 510618080
I0129 13:29:53.584429  4205 layer_factory.hpp:77] Creating layer conv1_23/scale
I0129 13:29:53.584437  4205 net.cpp:84] Creating Layer conv1_23/scale
I0129 13:29:53.584442  4205 net.cpp:406] conv1_23/scale <- conv1_23/bn
I0129 13:29:53.584447  4205 net.cpp:367] conv1_23/scale -> conv1_23/bn (in-place)
I0129 13:29:53.584547  4205 layer_factory.hpp:77] Creating layer conv1_23/scale
I0129 13:29:53.584897  4205 net.cpp:122] Setting up conv1_23/scale
I0129 13:29:53.584906  4205 net.cpp:129] Top shape: 1 1248 23 24 (688896)
I0129 13:29:53.584909  4205 net.cpp:137] Memory required for data: 513373664
I0129 13:29:53.584916  4205 layer_factory.hpp:77] Creating layer relu1_23
I0129 13:29:53.584923  4205 net.cpp:84] Creating Layer relu1_23
I0129 13:29:53.584926  4205 net.cpp:406] relu1_23 <- conv1_23/bn
I0129 13:29:53.584931  4205 net.cpp:367] relu1_23 -> conv1_23/bn (in-place)
I0129 13:29:53.585201  4205 net.cpp:122] Setting up relu1_23
I0129 13:29:53.585212  4205 net.cpp:129] Top shape: 1 1248 23 24 (688896)
I0129 13:29:53.585216  4205 net.cpp:137] Memory required for data: 516129248
I0129 13:29:53.585219  4205 layer_factory.hpp:77] Creating layer conv1_23
I0129 13:29:53.585230  4205 net.cpp:84] Creating Layer conv1_23
I0129 13:29:53.585235  4205 net.cpp:406] conv1_23 <- conv1_23/bn
I0129 13:29:53.585240  4205 net.cpp:380] conv1_23 -> conv1_23
I0129 13:29:53.600765  4205 net.cpp:122] Setting up conv1_23
I0129 13:29:53.600780  4205 net.cpp:129] Top shape: 1 32 23 24 (17664)
I0129 13:29:53.600783  4205 net.cpp:137] Memory required for data: 516199904
I0129 13:29:53.600790  4205 layer_factory.hpp:77] Creating layer concat1_23
I0129 13:29:53.600797  4205 net.cpp:84] Creating Layer concat1_23
I0129 13:29:53.600802  4205 net.cpp:406] concat1_23 <- concat1_22_concat1_22_0_split_1
I0129 13:29:53.600807  4205 net.cpp:406] concat1_23 <- conv1_23
I0129 13:29:53.600816  4205 net.cpp:380] concat1_23 -> concat1_23
I0129 13:29:53.600884  4205 net.cpp:122] Setting up concat1_23
I0129 13:29:53.600891  4205 net.cpp:129] Top shape: 1 1280 23 24 (706560)
I0129 13:29:53.600894  4205 net.cpp:137] Memory required for data: 519026144
I0129 13:29:53.600898  4205 layer_factory.hpp:77] Creating layer concat1_23_concat1_23_0_split
I0129 13:29:53.600903  4205 net.cpp:84] Creating Layer concat1_23_concat1_23_0_split
I0129 13:29:53.600908  4205 net.cpp:406] concat1_23_concat1_23_0_split <- concat1_23
I0129 13:29:53.600914  4205 net.cpp:380] concat1_23_concat1_23_0_split -> concat1_23_concat1_23_0_split_0
I0129 13:29:53.600920  4205 net.cpp:380] concat1_23_concat1_23_0_split -> concat1_23_concat1_23_0_split_1
I0129 13:29:53.601019  4205 net.cpp:122] Setting up concat1_23_concat1_23_0_split
I0129 13:29:53.601027  4205 net.cpp:129] Top shape: 1 1280 23 24 (706560)
I0129 13:29:53.601032  4205 net.cpp:129] Top shape: 1 1280 23 24 (706560)
I0129 13:29:53.601034  4205 net.cpp:137] Memory required for data: 524678624
I0129 13:29:53.601037  4205 layer_factory.hpp:77] Creating layer conv1_24/bn
I0129 13:29:53.601045  4205 net.cpp:84] Creating Layer conv1_24/bn
I0129 13:29:53.601049  4205 net.cpp:406] conv1_24/bn <- concat1_23_concat1_23_0_split_0
I0129 13:29:53.601054  4205 net.cpp:380] conv1_24/bn -> conv1_24/bn
I0129 13:29:53.601697  4205 net.cpp:122] Setting up conv1_24/bn
I0129 13:29:53.601706  4205 net.cpp:129] Top shape: 1 1280 23 24 (706560)
I0129 13:29:53.601709  4205 net.cpp:137] Memory required for data: 527504864
I0129 13:29:53.601717  4205 layer_factory.hpp:77] Creating layer conv1_24/scale
I0129 13:29:53.601725  4205 net.cpp:84] Creating Layer conv1_24/scale
I0129 13:29:53.601729  4205 net.cpp:406] conv1_24/scale <- conv1_24/bn
I0129 13:29:53.601737  4205 net.cpp:367] conv1_24/scale -> conv1_24/bn (in-place)
I0129 13:29:53.601832  4205 layer_factory.hpp:77] Creating layer conv1_24/scale
I0129 13:29:53.602160  4205 net.cpp:122] Setting up conv1_24/scale
I0129 13:29:53.602169  4205 net.cpp:129] Top shape: 1 1280 23 24 (706560)
I0129 13:29:53.602171  4205 net.cpp:137] Memory required for data: 530331104
I0129 13:29:53.602179  4205 layer_factory.hpp:77] Creating layer relu1_24
I0129 13:29:53.602185  4205 net.cpp:84] Creating Layer relu1_24
I0129 13:29:53.602188  4205 net.cpp:406] relu1_24 <- conv1_24/bn
I0129 13:29:53.602193  4205 net.cpp:367] relu1_24 -> conv1_24/bn (in-place)
I0129 13:29:53.602464  4205 net.cpp:122] Setting up relu1_24
I0129 13:29:53.602473  4205 net.cpp:129] Top shape: 1 1280 23 24 (706560)
I0129 13:29:53.602476  4205 net.cpp:137] Memory required for data: 533157344
I0129 13:29:53.602480  4205 layer_factory.hpp:77] Creating layer conv1_24
I0129 13:29:53.602493  4205 net.cpp:84] Creating Layer conv1_24
I0129 13:29:53.602497  4205 net.cpp:406] conv1_24 <- conv1_24/bn
I0129 13:29:53.602504  4205 net.cpp:380] conv1_24 -> conv1_24
I0129 13:29:53.618031  4205 net.cpp:122] Setting up conv1_24
I0129 13:29:53.618046  4205 net.cpp:129] Top shape: 1 32 23 24 (17664)
I0129 13:29:53.618049  4205 net.cpp:137] Memory required for data: 533228000
I0129 13:29:53.618055  4205 layer_factory.hpp:77] Creating layer concat1_24
I0129 13:29:53.618064  4205 net.cpp:84] Creating Layer concat1_24
I0129 13:29:53.618069  4205 net.cpp:406] concat1_24 <- concat1_23_concat1_23_0_split_1
I0129 13:29:53.618074  4205 net.cpp:406] concat1_24 <- conv1_24
I0129 13:29:53.618080  4205 net.cpp:380] concat1_24 -> concat1_24
I0129 13:29:53.618150  4205 net.cpp:122] Setting up concat1_24
I0129 13:29:53.618158  4205 net.cpp:129] Top shape: 1 1312 23 24 (724224)
I0129 13:29:53.618160  4205 net.cpp:137] Memory required for data: 536124896
I0129 13:29:53.618165  4205 layer_factory.hpp:77] Creating layer concat1_24_concat1_24_0_split
I0129 13:29:53.618172  4205 net.cpp:84] Creating Layer concat1_24_concat1_24_0_split
I0129 13:29:53.618176  4205 net.cpp:406] concat1_24_concat1_24_0_split <- concat1_24
I0129 13:29:53.618182  4205 net.cpp:380] concat1_24_concat1_24_0_split -> concat1_24_concat1_24_0_split_0
I0129 13:29:53.618190  4205 net.cpp:380] concat1_24_concat1_24_0_split -> concat1_24_concat1_24_0_split_1
I0129 13:29:53.618285  4205 net.cpp:122] Setting up concat1_24_concat1_24_0_split
I0129 13:29:53.618293  4205 net.cpp:129] Top shape: 1 1312 23 24 (724224)
I0129 13:29:53.618296  4205 net.cpp:129] Top shape: 1 1312 23 24 (724224)
I0129 13:29:53.618299  4205 net.cpp:137] Memory required for data: 541918688
I0129 13:29:53.618302  4205 layer_factory.hpp:77] Creating layer conv1_25/bn
I0129 13:29:53.618310  4205 net.cpp:84] Creating Layer conv1_25/bn
I0129 13:29:53.618314  4205 net.cpp:406] conv1_25/bn <- concat1_24_concat1_24_0_split_0
I0129 13:29:53.618324  4205 net.cpp:380] conv1_25/bn -> conv1_25/bn
I0129 13:29:53.618932  4205 net.cpp:122] Setting up conv1_25/bn
I0129 13:29:53.618939  4205 net.cpp:129] Top shape: 1 1312 23 24 (724224)
I0129 13:29:53.618943  4205 net.cpp:137] Memory required for data: 544815584
I0129 13:29:53.618952  4205 layer_factory.hpp:77] Creating layer conv1_25/scale
I0129 13:29:53.618960  4205 net.cpp:84] Creating Layer conv1_25/scale
I0129 13:29:53.618964  4205 net.cpp:406] conv1_25/scale <- conv1_25/bn
I0129 13:29:53.618969  4205 net.cpp:367] conv1_25/scale -> conv1_25/bn (in-place)
I0129 13:29:53.619073  4205 layer_factory.hpp:77] Creating layer conv1_25/scale
I0129 13:29:53.619419  4205 net.cpp:122] Setting up conv1_25/scale
I0129 13:29:53.619427  4205 net.cpp:129] Top shape: 1 1312 23 24 (724224)
I0129 13:29:53.619431  4205 net.cpp:137] Memory required for data: 547712480
I0129 13:29:53.619454  4205 layer_factory.hpp:77] Creating layer relu1_25
I0129 13:29:53.619462  4205 net.cpp:84] Creating Layer relu1_25
I0129 13:29:53.619465  4205 net.cpp:406] relu1_25 <- conv1_25/bn
I0129 13:29:53.619469  4205 net.cpp:367] relu1_25 -> conv1_25/bn (in-place)
I0129 13:29:53.620851  4205 net.cpp:122] Setting up relu1_25
I0129 13:29:53.620867  4205 net.cpp:129] Top shape: 1 1312 23 24 (724224)
I0129 13:29:53.620870  4205 net.cpp:137] Memory required for data: 550609376
I0129 13:29:53.620874  4205 layer_factory.hpp:77] Creating layer conv1_25
I0129 13:29:53.620899  4205 net.cpp:84] Creating Layer conv1_25
I0129 13:29:53.620904  4205 net.cpp:406] conv1_25 <- conv1_25/bn
I0129 13:29:53.620910  4205 net.cpp:380] conv1_25 -> conv1_25
I0129 13:29:53.638031  4205 net.cpp:122] Setting up conv1_25
I0129 13:29:53.638046  4205 net.cpp:129] Top shape: 1 32 23 24 (17664)
I0129 13:29:53.638048  4205 net.cpp:137] Memory required for data: 550680032
I0129 13:29:53.638056  4205 layer_factory.hpp:77] Creating layer concat1_25
I0129 13:29:53.638069  4205 net.cpp:84] Creating Layer concat1_25
I0129 13:29:53.638073  4205 net.cpp:406] concat1_25 <- concat1_24_concat1_24_0_split_1
I0129 13:29:53.638079  4205 net.cpp:406] concat1_25 <- conv1_25
I0129 13:29:53.638084  4205 net.cpp:380] concat1_25 -> concat1_25
I0129 13:29:53.638155  4205 net.cpp:122] Setting up concat1_25
I0129 13:29:53.638162  4205 net.cpp:129] Top shape: 1 1344 23 24 (741888)
I0129 13:29:53.638165  4205 net.cpp:137] Memory required for data: 553647584
I0129 13:29:53.638169  4205 layer_factory.hpp:77] Creating layer concat1_25_concat1_25_0_split
I0129 13:29:53.638175  4205 net.cpp:84] Creating Layer concat1_25_concat1_25_0_split
I0129 13:29:53.638180  4205 net.cpp:406] concat1_25_concat1_25_0_split <- concat1_25
I0129 13:29:53.638185  4205 net.cpp:380] concat1_25_concat1_25_0_split -> concat1_25_concat1_25_0_split_0
I0129 13:29:53.638191  4205 net.cpp:380] concat1_25_concat1_25_0_split -> concat1_25_concat1_25_0_split_1
I0129 13:29:53.638288  4205 net.cpp:122] Setting up concat1_25_concat1_25_0_split
I0129 13:29:53.638295  4205 net.cpp:129] Top shape: 1 1344 23 24 (741888)
I0129 13:29:53.638299  4205 net.cpp:129] Top shape: 1 1344 23 24 (741888)
I0129 13:29:53.638303  4205 net.cpp:137] Memory required for data: 559582688
I0129 13:29:53.638305  4205 layer_factory.hpp:77] Creating layer conv1_26/bn
I0129 13:29:53.638312  4205 net.cpp:84] Creating Layer conv1_26/bn
I0129 13:29:53.638316  4205 net.cpp:406] conv1_26/bn <- concat1_25_concat1_25_0_split_0
I0129 13:29:53.638321  4205 net.cpp:380] conv1_26/bn -> conv1_26/bn
I0129 13:29:53.638947  4205 net.cpp:122] Setting up conv1_26/bn
I0129 13:29:53.638954  4205 net.cpp:129] Top shape: 1 1344 23 24 (741888)
I0129 13:29:53.638958  4205 net.cpp:137] Memory required for data: 562550240
I0129 13:29:53.638965  4205 layer_factory.hpp:77] Creating layer conv1_26/scale
I0129 13:29:53.638974  4205 net.cpp:84] Creating Layer conv1_26/scale
I0129 13:29:53.638979  4205 net.cpp:406] conv1_26/scale <- conv1_26/bn
I0129 13:29:53.638984  4205 net.cpp:367] conv1_26/scale -> conv1_26/bn (in-place)
I0129 13:29:53.639088  4205 layer_factory.hpp:77] Creating layer conv1_26/scale
I0129 13:29:53.639434  4205 net.cpp:122] Setting up conv1_26/scale
I0129 13:29:53.639442  4205 net.cpp:129] Top shape: 1 1344 23 24 (741888)
I0129 13:29:53.639446  4205 net.cpp:137] Memory required for data: 565517792
I0129 13:29:53.639451  4205 layer_factory.hpp:77] Creating layer relu1_26
I0129 13:29:53.639457  4205 net.cpp:84] Creating Layer relu1_26
I0129 13:29:53.639461  4205 net.cpp:406] relu1_26 <- conv1_26/bn
I0129 13:29:53.639467  4205 net.cpp:367] relu1_26 -> conv1_26/bn (in-place)
I0129 13:29:53.639739  4205 net.cpp:122] Setting up relu1_26
I0129 13:29:53.639747  4205 net.cpp:129] Top shape: 1 1344 23 24 (741888)
I0129 13:29:53.639750  4205 net.cpp:137] Memory required for data: 568485344
I0129 13:29:53.639755  4205 layer_factory.hpp:77] Creating layer conv1_26
I0129 13:29:53.639765  4205 net.cpp:84] Creating Layer conv1_26
I0129 13:29:53.639770  4205 net.cpp:406] conv1_26 <- conv1_26/bn
I0129 13:29:53.639777  4205 net.cpp:380] conv1_26 -> conv1_26
I0129 13:29:53.655961  4205 net.cpp:122] Setting up conv1_26
I0129 13:29:53.655975  4205 net.cpp:129] Top shape: 1 32 23 24 (17664)
I0129 13:29:53.655978  4205 net.cpp:137] Memory required for data: 568556000
I0129 13:29:53.655988  4205 layer_factory.hpp:77] Creating layer concat1_26
I0129 13:29:53.655997  4205 net.cpp:84] Creating Layer concat1_26
I0129 13:29:53.656002  4205 net.cpp:406] concat1_26 <- concat1_25_concat1_25_0_split_1
I0129 13:29:53.656006  4205 net.cpp:406] concat1_26 <- conv1_26
I0129 13:29:53.656014  4205 net.cpp:380] concat1_26 -> concat1_26
I0129 13:29:53.656085  4205 net.cpp:122] Setting up concat1_26
I0129 13:29:53.656092  4205 net.cpp:129] Top shape: 1 1376 23 24 (759552)
I0129 13:29:53.656095  4205 net.cpp:137] Memory required for data: 571594208
I0129 13:29:53.656098  4205 layer_factory.hpp:77] Creating layer concat1_26_concat1_26_0_split
I0129 13:29:53.656106  4205 net.cpp:84] Creating Layer concat1_26_concat1_26_0_split
I0129 13:29:53.656111  4205 net.cpp:406] concat1_26_concat1_26_0_split <- concat1_26
I0129 13:29:53.656116  4205 net.cpp:380] concat1_26_concat1_26_0_split -> concat1_26_concat1_26_0_split_0
I0129 13:29:53.656121  4205 net.cpp:380] concat1_26_concat1_26_0_split -> concat1_26_concat1_26_0_split_1
I0129 13:29:53.656225  4205 net.cpp:122] Setting up concat1_26_concat1_26_0_split
I0129 13:29:53.656232  4205 net.cpp:129] Top shape: 1 1376 23 24 (759552)
I0129 13:29:53.656236  4205 net.cpp:129] Top shape: 1 1376 23 24 (759552)
I0129 13:29:53.656239  4205 net.cpp:137] Memory required for data: 577670624
I0129 13:29:53.656242  4205 layer_factory.hpp:77] Creating layer conv1_27/bn
I0129 13:29:53.656250  4205 net.cpp:84] Creating Layer conv1_27/bn
I0129 13:29:53.656255  4205 net.cpp:406] conv1_27/bn <- concat1_26_concat1_26_0_split_0
I0129 13:29:53.656260  4205 net.cpp:380] conv1_27/bn -> conv1_27/bn
I0129 13:29:53.656898  4205 net.cpp:122] Setting up conv1_27/bn
I0129 13:29:53.656906  4205 net.cpp:129] Top shape: 1 1376 23 24 (759552)
I0129 13:29:53.656909  4205 net.cpp:137] Memory required for data: 580708832
I0129 13:29:53.656918  4205 layer_factory.hpp:77] Creating layer conv1_27/scale
I0129 13:29:53.656926  4205 net.cpp:84] Creating Layer conv1_27/scale
I0129 13:29:53.656930  4205 net.cpp:406] conv1_27/scale <- conv1_27/bn
I0129 13:29:53.656936  4205 net.cpp:367] conv1_27/scale -> conv1_27/bn (in-place)
I0129 13:29:53.657040  4205 layer_factory.hpp:77] Creating layer conv1_27/scale
I0129 13:29:53.657394  4205 net.cpp:122] Setting up conv1_27/scale
I0129 13:29:53.657402  4205 net.cpp:129] Top shape: 1 1376 23 24 (759552)
I0129 13:29:53.657405  4205 net.cpp:137] Memory required for data: 583747040
I0129 13:29:53.657411  4205 layer_factory.hpp:77] Creating layer relu1_27
I0129 13:29:53.657418  4205 net.cpp:84] Creating Layer relu1_27
I0129 13:29:53.657421  4205 net.cpp:406] relu1_27 <- conv1_27/bn
I0129 13:29:53.657428  4205 net.cpp:367] relu1_27 -> conv1_27/bn (in-place)
I0129 13:29:53.657701  4205 net.cpp:122] Setting up relu1_27
I0129 13:29:53.657709  4205 net.cpp:129] Top shape: 1 1376 23 24 (759552)
I0129 13:29:53.657712  4205 net.cpp:137] Memory required for data: 586785248
I0129 13:29:53.657716  4205 layer_factory.hpp:77] Creating layer conv1_27
I0129 13:29:53.657727  4205 net.cpp:84] Creating Layer conv1_27
I0129 13:29:53.657732  4205 net.cpp:406] conv1_27 <- conv1_27/bn
I0129 13:29:53.657738  4205 net.cpp:380] conv1_27 -> conv1_27
I0129 13:29:53.674142  4205 net.cpp:122] Setting up conv1_27
I0129 13:29:53.674159  4205 net.cpp:129] Top shape: 1 32 23 24 (17664)
I0129 13:29:53.674161  4205 net.cpp:137] Memory required for data: 586855904
I0129 13:29:53.674168  4205 layer_factory.hpp:77] Creating layer concat1_27
I0129 13:29:53.674177  4205 net.cpp:84] Creating Layer concat1_27
I0129 13:29:53.674182  4205 net.cpp:406] concat1_27 <- concat1_26_concat1_26_0_split_1
I0129 13:29:53.674187  4205 net.cpp:406] concat1_27 <- conv1_27
I0129 13:29:53.674193  4205 net.cpp:380] concat1_27 -> concat1_27
I0129 13:29:53.674263  4205 net.cpp:122] Setting up concat1_27
I0129 13:29:53.674273  4205 net.cpp:129] Top shape: 1 1408 23 24 (777216)
I0129 13:29:53.674275  4205 net.cpp:137] Memory required for data: 589964768
I0129 13:29:53.674278  4205 layer_factory.hpp:77] Creating layer concat1_27_concat1_27_0_split
I0129 13:29:53.674288  4205 net.cpp:84] Creating Layer concat1_27_concat1_27_0_split
I0129 13:29:53.674291  4205 net.cpp:406] concat1_27_concat1_27_0_split <- concat1_27
I0129 13:29:53.674298  4205 net.cpp:380] concat1_27_concat1_27_0_split -> concat1_27_concat1_27_0_split_0
I0129 13:29:53.674319  4205 net.cpp:380] concat1_27_concat1_27_0_split -> concat1_27_concat1_27_0_split_1
I0129 13:29:53.674423  4205 net.cpp:122] Setting up concat1_27_concat1_27_0_split
I0129 13:29:53.674430  4205 net.cpp:129] Top shape: 1 1408 23 24 (777216)
I0129 13:29:53.674434  4205 net.cpp:129] Top shape: 1 1408 23 24 (777216)
I0129 13:29:53.674437  4205 net.cpp:137] Memory required for data: 596182496
I0129 13:29:53.674441  4205 layer_factory.hpp:77] Creating layer conv1_28/bn
I0129 13:29:53.674449  4205 net.cpp:84] Creating Layer conv1_28/bn
I0129 13:29:53.674453  4205 net.cpp:406] conv1_28/bn <- concat1_27_concat1_27_0_split_0
I0129 13:29:53.674463  4205 net.cpp:380] conv1_28/bn -> conv1_28/bn
I0129 13:29:53.675113  4205 net.cpp:122] Setting up conv1_28/bn
I0129 13:29:53.675122  4205 net.cpp:129] Top shape: 1 1408 23 24 (777216)
I0129 13:29:53.675124  4205 net.cpp:137] Memory required for data: 599291360
I0129 13:29:53.675137  4205 layer_factory.hpp:77] Creating layer conv1_28/scale
I0129 13:29:53.675144  4205 net.cpp:84] Creating Layer conv1_28/scale
I0129 13:29:53.675149  4205 net.cpp:406] conv1_28/scale <- conv1_28/bn
I0129 13:29:53.675156  4205 net.cpp:367] conv1_28/scale -> conv1_28/bn (in-place)
I0129 13:29:53.675249  4205 layer_factory.hpp:77] Creating layer conv1_28/scale
I0129 13:29:53.675587  4205 net.cpp:122] Setting up conv1_28/scale
I0129 13:29:53.675595  4205 net.cpp:129] Top shape: 1 1408 23 24 (777216)
I0129 13:29:53.675598  4205 net.cpp:137] Memory required for data: 602400224
I0129 13:29:53.675604  4205 layer_factory.hpp:77] Creating layer relu1_28
I0129 13:29:53.675611  4205 net.cpp:84] Creating Layer relu1_28
I0129 13:29:53.675614  4205 net.cpp:406] relu1_28 <- conv1_28/bn
I0129 13:29:53.675618  4205 net.cpp:367] relu1_28 -> conv1_28/bn (in-place)
I0129 13:29:53.677163  4205 net.cpp:122] Setting up relu1_28
I0129 13:29:53.677176  4205 net.cpp:129] Top shape: 1 1408 23 24 (777216)
I0129 13:29:53.677181  4205 net.cpp:137] Memory required for data: 605509088
I0129 13:29:53.677184  4205 layer_factory.hpp:77] Creating layer conv1_28
I0129 13:29:53.677196  4205 net.cpp:84] Creating Layer conv1_28
I0129 13:29:53.677201  4205 net.cpp:406] conv1_28 <- conv1_28/bn
I0129 13:29:53.677209  4205 net.cpp:380] conv1_28 -> conv1_28
I0129 13:29:53.693954  4205 net.cpp:122] Setting up conv1_28
I0129 13:29:53.693969  4205 net.cpp:129] Top shape: 1 32 23 24 (17664)
I0129 13:29:53.693972  4205 net.cpp:137] Memory required for data: 605579744
I0129 13:29:53.693979  4205 layer_factory.hpp:77] Creating layer concat1_28
I0129 13:29:53.693986  4205 net.cpp:84] Creating Layer concat1_28
I0129 13:29:53.693991  4205 net.cpp:406] concat1_28 <- concat1_27_concat1_27_0_split_1
I0129 13:29:53.693997  4205 net.cpp:406] concat1_28 <- conv1_28
I0129 13:29:53.694005  4205 net.cpp:380] concat1_28 -> concat1_28
I0129 13:29:53.694077  4205 net.cpp:122] Setting up concat1_28
I0129 13:29:53.694084  4205 net.cpp:129] Top shape: 1 1440 23 24 (794880)
I0129 13:29:53.694087  4205 net.cpp:137] Memory required for data: 608759264
I0129 13:29:53.694090  4205 layer_factory.hpp:77] Creating layer concat1_28_concat1_28_0_split
I0129 13:29:53.694097  4205 net.cpp:84] Creating Layer concat1_28_concat1_28_0_split
I0129 13:29:53.694100  4205 net.cpp:406] concat1_28_concat1_28_0_split <- concat1_28
I0129 13:29:53.694108  4205 net.cpp:380] concat1_28_concat1_28_0_split -> concat1_28_concat1_28_0_split_0
I0129 13:29:53.694113  4205 net.cpp:380] concat1_28_concat1_28_0_split -> concat1_28_concat1_28_0_split_1
I0129 13:29:53.694216  4205 net.cpp:122] Setting up concat1_28_concat1_28_0_split
I0129 13:29:53.694222  4205 net.cpp:129] Top shape: 1 1440 23 24 (794880)
I0129 13:29:53.694226  4205 net.cpp:129] Top shape: 1 1440 23 24 (794880)
I0129 13:29:53.694229  4205 net.cpp:137] Memory required for data: 615118304
I0129 13:29:53.694236  4205 layer_factory.hpp:77] Creating layer conv1_29/bn
I0129 13:29:53.694244  4205 net.cpp:84] Creating Layer conv1_29/bn
I0129 13:29:53.694248  4205 net.cpp:406] conv1_29/bn <- concat1_28_concat1_28_0_split_0
I0129 13:29:53.694253  4205 net.cpp:380] conv1_29/bn -> conv1_29/bn
I0129 13:29:53.694882  4205 net.cpp:122] Setting up conv1_29/bn
I0129 13:29:53.694890  4205 net.cpp:129] Top shape: 1 1440 23 24 (794880)
I0129 13:29:53.694893  4205 net.cpp:137] Memory required for data: 618297824
I0129 13:29:53.694901  4205 layer_factory.hpp:77] Creating layer conv1_29/scale
I0129 13:29:53.694911  4205 net.cpp:84] Creating Layer conv1_29/scale
I0129 13:29:53.694914  4205 net.cpp:406] conv1_29/scale <- conv1_29/bn
I0129 13:29:53.694921  4205 net.cpp:367] conv1_29/scale -> conv1_29/bn (in-place)
I0129 13:29:53.695044  4205 layer_factory.hpp:77] Creating layer conv1_29/scale
I0129 13:29:53.695441  4205 net.cpp:122] Setting up conv1_29/scale
I0129 13:29:53.695451  4205 net.cpp:129] Top shape: 1 1440 23 24 (794880)
I0129 13:29:53.695453  4205 net.cpp:137] Memory required for data: 621477344
I0129 13:29:53.695461  4205 layer_factory.hpp:77] Creating layer relu1_29
I0129 13:29:53.695466  4205 net.cpp:84] Creating Layer relu1_29
I0129 13:29:53.695471  4205 net.cpp:406] relu1_29 <- conv1_29/bn
I0129 13:29:53.695474  4205 net.cpp:367] relu1_29 -> conv1_29/bn (in-place)
I0129 13:29:53.695776  4205 net.cpp:122] Setting up relu1_29
I0129 13:29:53.695785  4205 net.cpp:129] Top shape: 1 1440 23 24 (794880)
I0129 13:29:53.695788  4205 net.cpp:137] Memory required for data: 624656864
I0129 13:29:53.695792  4205 layer_factory.hpp:77] Creating layer conv1_29
I0129 13:29:53.695806  4205 net.cpp:84] Creating Layer conv1_29
I0129 13:29:53.695809  4205 net.cpp:406] conv1_29 <- conv1_29/bn
I0129 13:29:53.695816  4205 net.cpp:380] conv1_29 -> conv1_29
I0129 13:29:53.712813  4205 net.cpp:122] Setting up conv1_29
I0129 13:29:53.712828  4205 net.cpp:129] Top shape: 1 32 23 24 (17664)
I0129 13:29:53.712832  4205 net.cpp:137] Memory required for data: 624727520
I0129 13:29:53.712838  4205 layer_factory.hpp:77] Creating layer concat1_29
I0129 13:29:53.712846  4205 net.cpp:84] Creating Layer concat1_29
I0129 13:29:53.712851  4205 net.cpp:406] concat1_29 <- concat1_28_concat1_28_0_split_1
I0129 13:29:53.712855  4205 net.cpp:406] concat1_29 <- conv1_29
I0129 13:29:53.712863  4205 net.cpp:380] concat1_29 -> concat1_29
I0129 13:29:53.712936  4205 net.cpp:122] Setting up concat1_29
I0129 13:29:53.712944  4205 net.cpp:129] Top shape: 1 1472 23 24 (812544)
I0129 13:29:53.712946  4205 net.cpp:137] Memory required for data: 627977696
I0129 13:29:53.712949  4205 layer_factory.hpp:77] Creating layer tpp5
I0129 13:29:53.712958  4205 net.cpp:84] Creating Layer tpp5
I0129 13:29:53.712962  4205 net.cpp:406] tpp5 <- concat1_29
I0129 13:29:53.712967  4205 net.cpp:380] tpp5 -> tpp5
I0129 13:29:53.714236  4205 net.cpp:122] Setting up tpp5
I0129 13:29:53.714247  4205 net.cpp:129] Top shape: 1 22080 (22080)
I0129 13:29:53.714251  4205 net.cpp:137] Memory required for data: 628066016
I0129 13:29:53.714254  4205 layer_factory.hpp:77] Creating layer reshape
I0129 13:29:53.714262  4205 net.cpp:84] Creating Layer reshape
I0129 13:29:53.714267  4205 net.cpp:406] reshape <- tpp5
I0129 13:29:53.714272  4205 net.cpp:380] reshape -> reshape
I0129 13:29:53.714337  4205 net.cpp:122] Setting up reshape
I0129 13:29:53.714344  4205 net.cpp:129] Top shape: 1 5520 4 1 (22080)
I0129 13:29:53.714347  4205 net.cpp:137] Memory required for data: 628154336
I0129 13:29:53.714350  4205 layer_factory.hpp:77] Creating layer premax
I0129 13:29:53.714359  4205 net.cpp:84] Creating Layer premax
I0129 13:29:53.714363  4205 net.cpp:406] premax <- reshape
I0129 13:29:53.714368  4205 net.cpp:380] premax -> premax
I0129 13:29:53.714663  4205 net.cpp:122] Setting up premax
I0129 13:29:53.714671  4205 net.cpp:129] Top shape: 1 5520 4 1 (22080)
I0129 13:29:53.714674  4205 net.cpp:137] Memory required for data: 628242656
I0129 13:29:53.714680  4205 layer_factory.hpp:77] Creating layer maxout
I0129 13:29:53.714692  4205 net.cpp:84] Creating Layer maxout
I0129 13:29:53.714696  4205 net.cpp:406] maxout <- premax
I0129 13:29:53.714701  4205 net.cpp:380] maxout -> maxout
I0129 13:29:53.714802  4205 net.cpp:122] Setting up maxout
I0129 13:29:53.714809  4205 net.cpp:129] Top shape: 1 5520 1 1 (5520)
I0129 13:29:53.714812  4205 net.cpp:137] Memory required for data: 628264736
I0129 13:29:53.714815  4205 layer_factory.hpp:77] Creating layer fc6_d
I0129 13:29:53.714824  4205 net.cpp:84] Creating Layer fc6_d
I0129 13:29:53.714828  4205 net.cpp:406] fc6_d <- maxout
I0129 13:29:53.714833  4205 net.cpp:380] fc6_d -> fc6_d
I0129 13:29:54.390619  4205 net.cpp:122] Setting up fc6_d
I0129 13:29:54.390661  4205 net.cpp:129] Top shape: 1 4096 (4096)
I0129 13:29:54.390666  4205 net.cpp:137] Memory required for data: 628281120
I0129 13:29:54.390676  4205 layer_factory.hpp:77] Creating layer relu6
I0129 13:29:54.390687  4205 net.cpp:84] Creating Layer relu6
I0129 13:29:54.390694  4205 net.cpp:406] relu6 <- fc6_d
I0129 13:29:54.390702  4205 net.cpp:367] relu6 -> fc6_d (in-place)
I0129 13:29:54.391142  4205 net.cpp:122] Setting up relu6
I0129 13:29:54.391151  4205 net.cpp:129] Top shape: 1 4096 (4096)
I0129 13:29:54.391155  4205 net.cpp:137] Memory required for data: 628297504
I0129 13:29:54.391160  4205 layer_factory.hpp:77] Creating layer fc7_d
I0129 13:29:54.391170  4205 net.cpp:84] Creating Layer fc7_d
I0129 13:29:54.391175  4205 net.cpp:406] fc7_d <- fc6_d
I0129 13:29:54.391180  4205 net.cpp:380] fc7_d -> fc7_d
I0129 13:29:54.880843  4205 net.cpp:122] Setting up fc7_d
I0129 13:29:54.880900  4205 net.cpp:129] Top shape: 1 4096 (4096)
I0129 13:29:54.880904  4205 net.cpp:137] Memory required for data: 628313888
I0129 13:29:54.880915  4205 layer_factory.hpp:77] Creating layer relu7
I0129 13:29:54.880926  4205 net.cpp:84] Creating Layer relu7
I0129 13:29:54.880934  4205 net.cpp:406] relu7 <- fc7_d
I0129 13:29:54.880940  4205 net.cpp:367] relu7 -> fc7_d (in-place)
I0129 13:29:54.882735  4205 net.cpp:122] Setting up relu7
I0129 13:29:54.882747  4205 net.cpp:129] Top shape: 1 4096 (4096)
I0129 13:29:54.882751  4205 net.cpp:137] Memory required for data: 628330272
I0129 13:29:54.882755  4205 layer_factory.hpp:77] Creating layer fc8_d
I0129 13:29:54.882763  4205 net.cpp:84] Creating Layer fc8_d
I0129 13:29:54.882771  4205 net.cpp:406] fc8_d <- fc7_d
I0129 13:29:54.882776  4205 net.cpp:380] fc8_d -> fc8_d
I0129 13:29:54.955955  4205 net.cpp:122] Setting up fc8_d
I0129 13:29:54.955981  4205 net.cpp:129] Top shape: 1 618 (618)
I0129 13:29:54.955984  4205 net.cpp:137] Memory required for data: 628332744
I0129 13:29:54.955993  4205 layer_factory.hpp:77] Creating layer fc8_d_fc8_d_0_split
I0129 13:29:54.956001  4205 net.cpp:84] Creating Layer fc8_d_fc8_d_0_split
I0129 13:29:54.956007  4205 net.cpp:406] fc8_d_fc8_d_0_split <- fc8_d
I0129 13:29:54.956017  4205 net.cpp:380] fc8_d_fc8_d_0_split -> fc8_d_fc8_d_0_split_0
I0129 13:29:54.956024  4205 net.cpp:380] fc8_d_fc8_d_0_split -> fc8_d_fc8_d_0_split_1
I0129 13:29:54.956131  4205 net.cpp:122] Setting up fc8_d_fc8_d_0_split
I0129 13:29:54.956138  4205 net.cpp:129] Top shape: 1 618 (618)
I0129 13:29:54.956142  4205 net.cpp:129] Top shape: 1 618 (618)
I0129 13:29:54.956146  4205 net.cpp:137] Memory required for data: 628337688
I0129 13:29:54.956148  4205 layer_factory.hpp:77] Creating layer sigmoid
I0129 13:29:54.956156  4205 net.cpp:84] Creating Layer sigmoid
I0129 13:29:54.956159  4205 net.cpp:406] sigmoid <- fc8_d_fc8_d_0_split_0
I0129 13:29:54.956166  4205 net.cpp:380] sigmoid -> sigmoid
I0129 13:29:54.956532  4205 net.cpp:122] Setting up sigmoid
I0129 13:29:54.956542  4205 net.cpp:129] Top shape: 1 618 (618)
I0129 13:29:54.956544  4205 net.cpp:137] Memory required for data: 628340160
I0129 13:29:54.956548  4205 layer_factory.hpp:77] Creating layer silence
I0129 13:29:54.956557  4205 net.cpp:84] Creating Layer silence
I0129 13:29:54.956560  4205 net.cpp:406] silence <- sigmoid
I0129 13:29:54.956565  4205 net.cpp:122] Setting up silence
I0129 13:29:54.956568  4205 net.cpp:137] Memory required for data: 628340160
…
