…
  phase: TRAIN
}
layer {
  name: "word_images"
  type: "Data"
  top: "word_images"
  top: "label"
  transform_param {
    scale: -0.0039215689
    mean_value: 255
  }
  data_param {
    source: "/data/fwolf/iam_30x80/iam-db_nti500000_pul2-3-4-5_train_word_images_lmdb"
    batch_size: 1
    backend: LMDB
    prefetch: 20
  }
}
layer {
  name: "phocs"
  type: "Data"
  top: "phocs"
  top: "label_phocs"
  data_param {
    source: "/data/fwolf/iam_30x80/iam-db_nti500000_pul2-3-4-5_train_phocs_lmdb"
    batch_size: 1
    backend: LMDB
    prefetch: 20
  }
}
layer {
  name: "conv1_1"
  type: "Convolution"
  bottom: "word_images"
  top: "conv1_1"
  convolution_param {
    num_output: 64
    pad: 1
    kernel_size: 3
    stride: 1
    weight_filler {
      type: "msra"
    }
    bias_filler {
      type: "constant"
    }
    engine: CUDNN
  }
}
layer {
  name: "relu1_1"
  type: "ReLU"
  bottom: "conv1_1"
  top: "conv1_1"
}
layer {
  name: "conv1_2"
  type: "Convolution"
  bottom: "conv1_1"
  top: "conv1_2"
  convolution_param {
    num_output: 64
    pad: 1
    kernel_size: 3
    stride: 1
    weight_filler {
      type: "msra"
    }
    bias_filler {
      type: "constant"
    }
    engine: CUDNN
  }
}
layer {
  name: "relu1_2"
  type: "ReLU"
  bottom: "conv1_2"
  top: "conv1_2"
}
layer {
  name: "pool1"
  type: "Pooling"
  bottom: "conv1_2"
  top: "pool1"
  pooling_param {
    pool: MAX
    kernel_size: 2
    stride: 2
  }
}
layer {
  name: "conv2_1"
  type: "Convolution"
  bottom: "pool1"
  top: "conv2_1"
  convolution_param {
    num_output: 128
    pad: 1
    kernel_size: 3
    stride: 1
    weight_filler {
      type: "msra"
    }
    bias_filler {
      type: "constant"
    }
    engine: CUDNN
  }
}
layer {
  name: "relu2_1"
  type: "ReLU"
  bottom: "conv2_1"
  top: "conv2_1"
}
layer {
  name: "conv2_2"
  type: "Convolution"
  bottom: "conv2_1"
  top: "conv2_2"
  convolution_param {
    num_output: 128
    pad: 1
    kernel_size: 3
    stride: 1
    weight_filler {
      type: "msra"
    }
    bias_filler {
      type: "constant"
    }
    engine: CUDNN
  }
}
layer {
  name: "relu2_2"
  type: "ReLU"
  bottom: "conv2_2"
  top: "conv2_2"
}
layer {
  name: "pool2"
  type: "Pooling"
  bottom: "conv2_2"
  top: "pool2"
  pooling_param {
    pool: MAX
    kernel_size: 2
    stride: 2
  }
}
layer {
  name: "conv3_1"
  type: "Convolution"
  bottom: "pool2"
  top: "conv3_1"
  convolution_param {
    num_output: 256
    pad: 1
    kernel_size: 3
    stride: 1
    weight_filler {
      type: "msra"
    }
    bias_filler {
      type: "constant"
    }
    engine: CUDNN
  }
}
layer {
  name: "relu3_1"
  type: "ReLU"
  bottom: "conv3_1"
  top: "conv3_1"
}
layer {
  name: "conv3_2"
  type: "Convolution"
  bottom: "conv3_1"
  top: "conv3_2"
  convolution_param {
    num_output: 256
    pad: 1
    kernel_size: 3
    stride: 1
    weight_filler {
      type: "msra"
    }
    bias_filler {
      type: "constant"
    }
    engine: CUDNN
  }
}
layer {
  name: "relu3_2"
  type: "ReLU"
  bottom: "conv3_2"
  top: "conv3_2"
}
layer {
  name: "conv3_3"
  type: "Convolution"
  bottom: "conv3_2"
  top: "conv3_3"
  convolution_param {
    num_output: 256
    pad: 1
    kernel_size: 3
    stride: 1
    weight_filler {
      type: "msra"
    }
    bias_filler {
      type: "constant"
    }
    engine: CUDNN
  }
}
layer {
  name: "relu3_3"
  type: "ReLU"
  bottom: "conv3_3"
  top: "conv3_3"
}
layer {
  name: "conv3_4"
  type: "Convolution"
  bottom: "conv3_3"
  top: "conv3_4"
  convolution_param {
    num_output: 256
    pad: 1
    kernel_size: 3
    stride: 1
    weight_filler {
      type: "msra"
    }
    bias_filler {
      type: "constant"
    }
    engine: CUDNN
  }
}
layer {
  name: "relu3_4"
  type: "ReLU"
  bottom: "conv3_4"
  top: "conv3_4"
}
layer {
  name: "conv3_5"
  type: "Convolution"
  bottom: "conv3_4"
  top: "conv3_5"
  convolution_param {
    num_output: 256
    pad: 1
    kernel_size: 3
    stride: 1
    weight_filler {
      type: "msra"
    }
    bias_filler {
      type: "constant"
    }
    engine: CUDNN
  }
}
layer {
  name: "relu3_5"
  type: "ReLU"
  bottom: "conv3_5"
  top: "conv3_5"
}
layer {
  name: "conv3_6"
  type: "Convolution"
  bottom: "conv3_5"
  top: "conv3_6"
  convolution_param {
    num_output: 256
    pad: 1
    kernel_size: 3
    stride: 1
    weight_filler {
      type: "msra"
    }
    bias_filler {
      type: "constant"
    }
    engine: CUDNN
  }
}
layer {
  name: "relu3_6"
  type: "ReLU"
  bottom: "conv3_6"
  top: "conv3_6"
}
layer {
  name: "conv4_1"
  type: "Convolution"
  bottom: "conv3_6"
  top: "conv4_1"
  convolution_param {
    num_output: 512
    pad: 1
    kernel_size: 3
    stride: 1
    weight_filler {
      type: "msra"
    }
    bias_filler {
      type: "constant"
    }
    engine: CUDNN
  }
}
layer {
  name: "relu4_1"
  type: "ReLU"
  bottom: "conv4_1"
  top: "conv4_1"
}
layer {
  name: "conv4_2"
  type: "Convolution"
  bottom: "conv4_1"
  top: "conv4_2"
  convolution_param {
    num_output: 512
    pad: 1
    kernel_size: 3
    stride: 1
    weight_filler {
      type: "msra"
    }
    bias_filler {
      type: "constant"
    }
    engine: CUDNN
  }
}
layer {
  name: "relu4_2"
  type: "ReLU"
  bottom: "conv4_2"
  top: "conv4_2"
}
layer {
  name: "conv4_3"
  type: "Convolution"
  bottom: "conv4_2"
  top: "conv4_3"
  convolution_param {
    num_output: 512
    pad: 1
    kernel_size: 3
    stride: 1
    weight_filler {
      type: "msra"
    }
    bias_filler {
      type: "constant"
    }
    engine: CUDNN
  }
}
layer {
  name: "relu4_3"
  type: "ReLU"
  bottom: "conv4_3"
  top: "conv4_3"
}
layer {
  name: "tpp5"
  type: "TPP"
  bottom: "conv4_3"
  top: "tpp5"
  tpp_param {
    pyramid_layer: 1
    pyramid_layer: 2
    pyramid_layer: 3
    pyramid_layer: 4
    pyramid_layer: 5
    pool: MAX
    engine: CUDNN
  }
}
layer {
  name: "fc6"
  type: "InnerProduct"
  bottom: "tpp5"
  top: "fc6"
  inner_product_param {
    num_output: 4096
    weight_filler {
      type: "msra"
    }
    bias_filler {
      type: "constant"
    }
  }
}
layer {
  name: "relu6"
  type: "ReLU"
  bottom: "fc6"
  top: "fc6"
}
layer {
  name: "drop6"
  type: "Dropout"
  bottom: "fc6"
  top: "fc6"
  include {
    phase: TRAIN
  }
  dropout_param {
    dropout_ratio: 0.5
  }
}
layer {
  name: "fc7"
  type: "InnerProduct"
  bottom: "fc6"
  top: "fc7"
  inner_product_param {
    num_output: 4096
    weight_filler {
      type: "msra"
    }
    bias_filler {
      type: "constant"
    }
  }
}
layer {
  name: "relu7"
  type: "ReLU"
  bottom: "fc7"
  top: "fc7"
}
layer {
  name: "drop7"
  type: "Dropout"
  bottom: "fc7"
  top: "fc7"
  include {
    phase: TRAIN
  }
  dropout_param {
    dropout_ratio: 0.5
  }
}
layer {
  name: "fc8"
  type: "InnerProduct"
  bottom: "fc7"
  top: "fc8"
  inner_product_param {
    num_output: 618
    weight_filler {
      type: "msra"
    }
    bias_filler {
      type: "constant"
    }
  }
}
layer {
  name: "loss"
  type: "SigmoidCrossEntropyLoss"
  bottom: "fc8"
  bottom: "phocs"
  top: "loss"
}
I0228 06:29:19.100421 31705 layer_factory.hpp:77] Creating layer word_images
I0228 06:29:19.100508 31705 db_lmdb.cpp:35] Opened lmdb /data/fwolf/iam_30x80/iam-db_nti500000_pul2-3-4-5_train_word_images_lmdb
I0228 06:29:19.100539 31705 net.cpp:84] Creating Layer word_images
I0228 06:29:19.100548 31705 net.cpp:380] word_images -> word_images
I0228 06:29:19.100561 31705 net.cpp:380] word_images -> label
I0228 06:29:19.101897 31705 data_layer.cpp:44] output data size: 1,1,30,80
I0228 06:29:19.105458 31705 net.cpp:122] Setting up word_images
I0228 06:29:19.105479 31705 net.cpp:129] Top shape: 1 1 30 80 (2400)
I0228 06:29:19.105486 31705 net.cpp:129] Top shape: 1 (1)
I0228 06:29:19.105491 31705 net.cpp:137] Memory required for data: 9604
I0228 06:29:19.105497 31705 layer_factory.hpp:77] Creating layer phocs
I0228 06:29:19.105558 31705 db_lmdb.cpp:35] Opened lmdb /data/fwolf/iam_30x80/iam-db_nti500000_pul2-3-4-5_train_phocs_lmdb
I0228 06:29:19.105593 31705 net.cpp:84] Creating Layer phocs
I0228 06:29:19.105602 31705 net.cpp:380] phocs -> phocs
I0228 06:29:19.105614 31705 net.cpp:380] phocs -> label_phocs
I0228 06:29:19.105934 31705 data_layer.cpp:44] output data size: 1,1,1,618
I0228 06:29:19.109468 31705 net.cpp:122] Setting up phocs
I0228 06:29:19.109489 31705 net.cpp:129] Top shape: 1 1 1 618 (618)
I0228 06:29:19.109496 31705 net.cpp:129] Top shape: 1 (1)
I0228 06:29:19.109501 31705 net.cpp:137] Memory required for data: 12080
I0228 06:29:19.109506 31705 layer_factory.hpp:77] Creating layer conv1_1
I0228 06:29:19.109524 31705 net.cpp:84] Creating Layer conv1_1
I0228 06:29:19.109529 31705 net.cpp:406] conv1_1 <- word_images
I0228 06:29:19.109539 31705 net.cpp:380] conv1_1 -> conv1_1
I0228 06:29:19.561905 31705 net.cpp:122] Setting up conv1_1
I0228 06:29:19.561934 31705 net.cpp:129] Top shape: 1 64 30 80 (153600)
I0228 06:29:19.561939 31705 net.cpp:137] Memory required for data: 626480
I0228 06:29:19.561951 31705 layer_factory.hpp:77] Creating layer relu1_1
I0228 06:29:19.561961 31705 net.cpp:84] Creating Layer relu1_1
I0228 06:29:19.561964 31705 net.cpp:406] relu1_1 <- conv1_1
I0228 06:29:19.561969 31705 net.cpp:367] relu1_1 -> conv1_1 (in-place)
I0228 06:29:19.562330 31705 net.cpp:122] Setting up relu1_1
I0228 06:29:19.562340 31705 net.cpp:129] Top shape: 1 64 30 80 (153600)
I0228 06:29:19.562343 31705 net.cpp:137] Memory required for data: 1240880
I0228 06:29:19.562346 31705 layer_factory.hpp:77] Creating layer conv1_2
I0228 06:29:19.562357 31705 net.cpp:84] Creating Layer conv1_2
I0228 06:29:19.562361 31705 net.cpp:406] conv1_2 <- conv1_1
I0228 06:29:19.562366 31705 net.cpp:380] conv1_2 -> conv1_2
I0228 06:29:19.564733 31705 net.cpp:122] Setting up conv1_2
I0228 06:29:19.564743 31705 net.cpp:129] Top shape: 1 64 30 80 (153600)
I0228 06:29:19.564748 31705 net.cpp:137] Memory required for data: 1855280
I0228 06:29:19.564754 31705 layer_factory.hpp:77] Creating layer relu1_2
I0228 06:29:19.564759 31705 net.cpp:84] Creating Layer relu1_2
I0228 06:29:19.564762 31705 net.cpp:406] relu1_2 <- conv1_2
I0228 06:29:19.564766 31705 net.cpp:367] relu1_2 -> conv1_2 (in-place)
I0228 06:29:19.564906 31705 net.cpp:122] Setting up relu1_2
I0228 06:29:19.564913 31705 net.cpp:129] Top shape: 1 64 30 80 (153600)
I0228 06:29:19.564916 31705 net.cpp:137] Memory required for data: 2469680
I0228 06:29:19.564918 31705 layer_factory.hpp:77] Creating layer pool1
I0228 06:29:19.564924 31705 net.cpp:84] Creating Layer pool1
I0228 06:29:19.564927 31705 net.cpp:406] pool1 <- conv1_2
I0228 06:29:19.564931 31705 net.cpp:380] pool1 -> pool1
I0228 06:29:19.564963 31705 net.cpp:122] Setting up pool1
I0228 06:29:19.564967 31705 net.cpp:129] Top shape: 1 64 15 40 (38400)
I0228 06:29:19.564970 31705 net.cpp:137] Memory required for data: 2623280
I0228 06:29:19.564972 31705 layer_factory.hpp:77] Creating layer conv2_1
I0228 06:29:19.564980 31705 net.cpp:84] Creating Layer conv2_1
I0228 06:29:19.564982 31705 net.cpp:406] conv2_1 <- pool1
I0228 06:29:19.564986 31705 net.cpp:380] conv2_1 -> conv2_1
I0228 06:29:19.568377 31705 net.cpp:122] Setting up conv2_1
I0228 06:29:19.568388 31705 net.cpp:129] Top shape: 1 128 15 40 (76800)
I0228 06:29:19.568392 31705 net.cpp:137] Memory required for data: 2930480
I0228 06:29:19.568398 31705 layer_factory.hpp:77] Creating layer relu2_1
I0228 06:29:19.568404 31705 net.cpp:84] Creating Layer relu2_1
I0228 06:29:19.568408 31705 net.cpp:406] relu2_1 <- conv2_1
I0228 06:29:19.568411 31705 net.cpp:367] relu2_1 -> conv2_1 (in-place)
I0228 06:29:19.568555 31705 net.cpp:122] Setting up relu2_1
I0228 06:29:19.568562 31705 net.cpp:129] Top shape: 1 128 15 40 (76800)
I0228 06:29:19.568564 31705 net.cpp:137] Memory required for data: 3237680
I0228 06:29:19.568567 31705 layer_factory.hpp:77] Creating layer conv2_2
I0228 06:29:19.568574 31705 net.cpp:84] Creating Layer conv2_2
I0228 06:29:19.568578 31705 net.cpp:406] conv2_2 <- conv2_1
I0228 06:29:19.568581 31705 net.cpp:380] conv2_2 -> conv2_2
I0228 06:29:19.573046 31705 net.cpp:122] Setting up conv2_2
I0228 06:29:19.573061 31705 net.cpp:129] Top shape: 1 128 15 40 (76800)
I0228 06:29:19.573065 31705 net.cpp:137] Memory required for data: 3544880
I0228 06:29:19.573071 31705 layer_factory.hpp:77] Creating layer relu2_2
I0228 06:29:19.573076 31705 net.cpp:84] Creating Layer relu2_2
I0228 06:29:19.573078 31705 net.cpp:406] relu2_2 <- conv2_2
I0228 06:29:19.573082 31705 net.cpp:367] relu2_2 -> conv2_2 (in-place)
I0228 06:29:19.573443 31705 net.cpp:122] Setting up relu2_2
I0228 06:29:19.573453 31705 net.cpp:129] Top shape: 1 128 15 40 (76800)
I0228 06:29:19.573457 31705 net.cpp:137] Memory required for data: 3852080
I0228 06:29:19.573459 31705 layer_factory.hpp:77] Creating layer pool2
I0228 06:29:19.573464 31705 net.cpp:84] Creating Layer pool2
I0228 06:29:19.573467 31705 net.cpp:406] pool2 <- conv2_2
I0228 06:29:19.573472 31705 net.cpp:380] pool2 -> pool2
I0228 06:29:19.573506 31705 net.cpp:122] Setting up pool2
I0228 06:29:19.573510 31705 net.cpp:129] Top shape: 1 128 8 20 (20480)
I0228 06:29:19.573513 31705 net.cpp:137] Memory required for data: 3934000
I0228 06:29:19.573515 31705 layer_factory.hpp:77] Creating layer conv3_1
I0228 06:29:19.573523 31705 net.cpp:84] Creating Layer conv3_1
I0228 06:29:19.573525 31705 net.cpp:406] conv3_1 <- pool2
I0228 06:29:19.573529 31705 net.cpp:380] conv3_1 -> conv3_1
I0228 06:29:19.581404 31705 net.cpp:122] Setting up conv3_1
I0228 06:29:19.581414 31705 net.cpp:129] Top shape: 1 256 8 20 (40960)
I0228 06:29:19.581418 31705 net.cpp:137] Memory required for data: 4097840
I0228 06:29:19.581425 31705 layer_factory.hpp:77] Creating layer relu3_1
I0228 06:29:19.581430 31705 net.cpp:84] Creating Layer relu3_1
I0228 06:29:19.581434 31705 net.cpp:406] relu3_1 <- conv3_1
I0228 06:29:19.581437 31705 net.cpp:367] relu3_1 -> conv3_1 (in-place)
I0228 06:29:19.581583 31705 net.cpp:122] Setting up relu3_1
I0228 06:29:19.581590 31705 net.cpp:129] Top shape: 1 256 8 20 (40960)
I0228 06:29:19.581593 31705 net.cpp:137] Memory required for data: 4261680
I0228 06:29:19.581595 31705 layer_factory.hpp:77] Creating layer conv3_2
I0228 06:29:19.581603 31705 net.cpp:84] Creating Layer conv3_2
I0228 06:29:19.581605 31705 net.cpp:406] conv3_2 <- conv3_1
I0228 06:29:19.581609 31705 net.cpp:380] conv3_2 -> conv3_2
I0228 06:29:19.597071 31705 net.cpp:122] Setting up conv3_2
I0228 06:29:19.597082 31705 net.cpp:129] Top shape: 1 256 8 20 (40960)
I0228 06:29:19.597085 31705 net.cpp:137] Memory required for data: 4425520
I0228 06:29:19.597092 31705 layer_factory.hpp:77] Creating layer relu3_2
I0228 06:29:19.597097 31705 net.cpp:84] Creating Layer relu3_2
I0228 06:29:19.597100 31705 net.cpp:406] relu3_2 <- conv3_2
I0228 06:29:19.597105 31705 net.cpp:367] relu3_2 -> conv3_2 (in-place)
I0228 06:29:19.597252 31705 net.cpp:122] Setting up relu3_2
I0228 06:29:19.597259 31705 net.cpp:129] Top shape: 1 256 8 20 (40960)
I0228 06:29:19.597262 31705 net.cpp:137] Memory required for data: 4589360
I0228 06:29:19.597265 31705 layer_factory.hpp:77] Creating layer conv3_3
I0228 06:29:19.597273 31705 net.cpp:84] Creating Layer conv3_3
I0228 06:29:19.597276 31705 net.cpp:406] conv3_3 <- conv3_2
I0228 06:29:19.597280 31705 net.cpp:380] conv3_3 -> conv3_3
I0228 06:29:19.612749 31705 net.cpp:122] Setting up conv3_3
I0228 06:29:19.612761 31705 net.cpp:129] Top shape: 1 256 8 20 (40960)
I0228 06:29:19.612763 31705 net.cpp:137] Memory required for data: 4753200
I0228 06:29:19.612768 31705 layer_factory.hpp:77] Creating layer relu3_3
I0228 06:29:19.612776 31705 net.cpp:84] Creating Layer relu3_3
I0228 06:29:19.612778 31705 net.cpp:406] relu3_3 <- conv3_3
I0228 06:29:19.612782 31705 net.cpp:367] relu3_3 -> conv3_3 (in-place)
I0228 06:29:19.613152 31705 net.cpp:122] Setting up relu3_3
I0228 06:29:19.613162 31705 net.cpp:129] Top shape: 1 256 8 20 (40960)
I0228 06:29:19.613164 31705 net.cpp:137] Memory required for data: 4917040
I0228 06:29:19.613168 31705 layer_factory.hpp:77] Creating layer conv3_4
I0228 06:29:19.613175 31705 net.cpp:84] Creating Layer conv3_4
I0228 06:29:19.613179 31705 net.cpp:406] conv3_4 <- conv3_3
I0228 06:29:19.613184 31705 net.cpp:380] conv3_4 -> conv3_4
I0228 06:29:19.628690 31705 net.cpp:122] Setting up conv3_4
I0228 06:29:19.628702 31705 net.cpp:129] Top shape: 1 256 8 20 (40960)
I0228 06:29:19.628705 31705 net.cpp:137] Memory required for data: 5080880
I0228 06:29:19.628711 31705 layer_factory.hpp:77] Creating layer relu3_4
I0228 06:29:19.628717 31705 net.cpp:84] Creating Layer relu3_4
I0228 06:29:19.628720 31705 net.cpp:406] relu3_4 <- conv3_4
I0228 06:29:19.628726 31705 net.cpp:367] relu3_4 -> conv3_4 (in-place)
I0228 06:29:19.628885 31705 net.cpp:122] Setting up relu3_4
I0228 06:29:19.628892 31705 net.cpp:129] Top shape: 1 256 8 20 (40960)
I0228 06:29:19.628895 31705 net.cpp:137] Memory required for data: 5244720
I0228 06:29:19.628898 31705 layer_factory.hpp:77] Creating layer conv3_5
I0228 06:29:19.628906 31705 net.cpp:84] Creating Layer conv3_5
I0228 06:29:19.628909 31705 net.cpp:406] conv3_5 <- conv3_4
I0228 06:29:19.628916 31705 net.cpp:380] conv3_5 -> conv3_5
I0228 06:29:19.644419 31705 net.cpp:122] Setting up conv3_5
I0228 06:29:19.644430 31705 net.cpp:129] Top shape: 1 256 8 20 (40960)
I0228 06:29:19.644434 31705 net.cpp:137] Memory required for data: 5408560
I0228 06:29:19.644441 31705 layer_factory.hpp:77] Creating layer relu3_5
I0228 06:29:19.644448 31705 net.cpp:84] Creating Layer relu3_5
I0228 06:29:19.644450 31705 net.cpp:406] relu3_5 <- conv3_5
I0228 06:29:19.644455 31705 net.cpp:367] relu3_5 -> conv3_5 (in-place)
I0228 06:29:19.644613 31705 net.cpp:122] Setting up relu3_5
I0228 06:29:19.644621 31705 net.cpp:129] Top shape: 1 256 8 20 (40960)
I0228 06:29:19.644623 31705 net.cpp:137] Memory required for data: 5572400
I0228 06:29:19.644626 31705 layer_factory.hpp:77] Creating layer conv3_6
I0228 06:29:19.644634 31705 net.cpp:84] Creating Layer conv3_6
I0228 06:29:19.644637 31705 net.cpp:406] conv3_6 <- conv3_5
I0228 06:29:19.644644 31705 net.cpp:380] conv3_6 -> conv3_6
I0228 06:29:19.660166 31705 net.cpp:122] Setting up conv3_6
I0228 06:29:19.660176 31705 net.cpp:129] Top shape: 1 256 8 20 (40960)
I0228 06:29:19.660179 31705 net.cpp:137] Memory required for data: 5736240
I0228 06:29:19.660185 31705 layer_factory.hpp:77] Creating layer relu3_6
I0228 06:29:19.660192 31705 net.cpp:84] Creating Layer relu3_6
I0228 06:29:19.660194 31705 net.cpp:406] relu3_6 <- conv3_6
I0228 06:29:19.660198 31705 net.cpp:367] relu3_6 -> conv3_6 (in-place)
I0228 06:29:19.660360 31705 net.cpp:122] Setting up relu3_6
I0228 06:29:19.660367 31705 net.cpp:129] Top shape: 1 256 8 20 (40960)
I0228 06:29:19.660369 31705 net.cpp:137] Memory required for data: 5900080
I0228 06:29:19.660372 31705 layer_factory.hpp:77] Creating layer conv4_1
I0228 06:29:19.660380 31705 net.cpp:84] Creating Layer conv4_1
I0228 06:29:19.660383 31705 net.cpp:406] conv4_1 <- conv3_6
I0228 06:29:19.660388 31705 net.cpp:380] conv4_1 -> conv4_1
I0228 06:29:19.690026 31705 net.cpp:122] Setting up conv4_1
I0228 06:29:19.690037 31705 net.cpp:129] Top shape: 1 512 8 20 (81920)
I0228 06:29:19.690040 31705 net.cpp:137] Memory required for data: 6227760
I0228 06:29:19.690047 31705 layer_factory.hpp:77] Creating layer relu4_1
I0228 06:29:19.690052 31705 net.cpp:84] Creating Layer relu4_1
I0228 06:29:19.690054 31705 net.cpp:406] relu4_1 <- conv4_1
I0228 06:29:19.690058 31705 net.cpp:367] relu4_1 -> conv4_1 (in-place)
I0228 06:29:19.690440 31705 net.cpp:122] Setting up relu4_1
I0228 06:29:19.690449 31705 net.cpp:129] Top shape: 1 512 8 20 (81920)
I0228 06:29:19.690452 31705 net.cpp:137] Memory required for data: 6555440
I0228 06:29:19.690455 31705 layer_factory.hpp:77] Creating layer conv4_2
I0228 06:29:19.690464 31705 net.cpp:84] Creating Layer conv4_2
I0228 06:29:19.690467 31705 net.cpp:406] conv4_2 <- conv4_1
I0228 06:29:19.690474 31705 net.cpp:380] conv4_2 -> conv4_2
I0228 06:29:19.748338 31705 net.cpp:122] Setting up conv4_2
I0228 06:29:19.748354 31705 net.cpp:129] Top shape: 1 512 8 20 (81920)
I0228 06:29:19.748358 31705 net.cpp:137] Memory required for data: 6883120
I0228 06:29:19.748363 31705 layer_factory.hpp:77] Creating layer relu4_2
I0228 06:29:19.748371 31705 net.cpp:84] Creating Layer relu4_2
I0228 06:29:19.748378 31705 net.cpp:406] relu4_2 <- conv4_2
I0228 06:29:19.748383 31705 net.cpp:367] relu4_2 -> conv4_2 (in-place)
I0228 06:29:19.748539 31705 net.cpp:122] Setting up relu4_2
I0228 06:29:19.748546 31705 net.cpp:129] Top shape: 1 512 8 20 (81920)
I0228 06:29:19.748548 31705 net.cpp:137] Memory required for data: 7210800
I0228 06:29:19.748551 31705 layer_factory.hpp:77] Creating layer conv4_3
I0228 06:29:19.748560 31705 net.cpp:84] Creating Layer conv4_3
I0228 06:29:19.748564 31705 net.cpp:406] conv4_3 <- conv4_2
I0228 06:29:19.748569 31705 net.cpp:380] conv4_3 -> conv4_3
I0228 06:29:19.806426 31705 net.cpp:122] Setting up conv4_3
I0228 06:29:19.806443 31705 net.cpp:129] Top shape: 1 512 8 20 (81920)
I0228 06:29:19.806447 31705 net.cpp:137] Memory required for data: 7538480
I0228 06:29:19.806453 31705 layer_factory.hpp:77] Creating layer relu4_3
I0228 06:29:19.806460 31705 net.cpp:84] Creating Layer relu4_3
I0228 06:29:19.806463 31705 net.cpp:406] relu4_3 <- conv4_3
I0228 06:29:19.806468 31705 net.cpp:367] relu4_3 -> conv4_3 (in-place)
I0228 06:29:19.806633 31705 net.cpp:122] Setting up relu4_3
I0228 06:29:19.806640 31705 net.cpp:129] Top shape: 1 512 8 20 (81920)
I0228 06:29:19.806643 31705 net.cpp:137] Memory required for data: 7866160
I0228 06:29:19.806646 31705 layer_factory.hpp:77] Creating layer tpp5
I0228 06:29:19.806651 31705 net.cpp:84] Creating Layer tpp5
I0228 06:29:19.806654 31705 net.cpp:406] tpp5 <- conv4_3
I0228 06:29:19.806659 31705 net.cpp:380] tpp5 -> tpp5
I0228 06:29:19.807019 31705 net.cpp:122] Setting up tpp5
I0228 06:29:19.807027 31705 net.cpp:129] Top shape: 1 7680 (7680)
I0228 06:29:19.807029 31705 net.cpp:137] Memory required for data: 7896880
I0228 06:29:19.807032 31705 layer_factory.hpp:77] Creating layer fc6
I0228 06:29:19.807039 31705 net.cpp:84] Creating Layer fc6
I0228 06:29:19.807041 31705 net.cpp:406] fc6 <- tpp5
I0228 06:29:19.807045 31705 net.cpp:380] fc6 -> fc6
I0228 06:29:20.568462 31705 net.cpp:122] Setting up fc6
I0228 06:29:20.568490 31705 net.cpp:129] Top shape: 1 4096 (4096)
I0228 06:29:20.568493 31705 net.cpp:137] Memory required for data: 7913264
I0228 06:29:20.568502 31705 layer_factory.hpp:77] Creating layer relu6
I0228 06:29:20.568513 31705 net.cpp:84] Creating Layer relu6
I0228 06:29:20.568517 31705 net.cpp:406] relu6 <- fc6
I0228 06:29:20.568522 31705 net.cpp:367] relu6 -> fc6 (in-place)
I0228 06:29:20.569106 31705 net.cpp:122] Setting up relu6
I0228 06:29:20.569116 31705 net.cpp:129] Top shape: 1 4096 (4096)
I0228 06:29:20.569119 31705 net.cpp:137] Memory required for data: 7929648
I0228 06:29:20.569123 31705 layer_factory.hpp:77] Creating layer drop6
I0228 06:29:20.569130 31705 net.cpp:84] Creating Layer drop6
I0228 06:29:20.569133 31705 net.cpp:406] drop6 <- fc6
I0228 06:29:20.569139 31705 net.cpp:367] drop6 -> fc6 (in-place)
I0228 06:29:20.569162 31705 net.cpp:122] Setting up drop6
I0228 06:29:20.569166 31705 net.cpp:129] Top shape: 1 4096 (4096)
I0228 06:29:20.569169 31705 net.cpp:137] Memory required for data: 7946032
I0228 06:29:20.569171 31705 layer_factory.hpp:77] Creating layer fc7
I0228 06:29:20.569178 31705 net.cpp:84] Creating Layer fc7
I0228 06:29:20.569180 31705 net.cpp:406] fc7 <- fc6
I0228 06:29:20.569185 31705 net.cpp:380] fc7 -> fc7
I0228 06:29:20.975745 31705 net.cpp:122] Setting up fc7
I0228 06:29:20.975776 31705 net.cpp:129] Top shape: 1 4096 (4096)
I0228 06:29:20.975780 31705 net.cpp:137] Memory required for data: 7962416
I0228 06:29:20.975788 31705 layer_factory.hpp:77] Creating layer relu7
I0228 06:29:20.975797 31705 net.cpp:84] Creating Layer relu7
I0228 06:29:20.975801 31705 net.cpp:406] relu7 <- fc7
I0228 06:29:20.975806 31705 net.cpp:367] relu7 -> fc7 (in-place)
I0228 06:29:20.976024 31705 net.cpp:122] Setting up relu7
I0228 06:29:20.976032 31705 net.cpp:129] Top shape: 1 4096 (4096)
I0228 06:29:20.976034 31705 net.cpp:137] Memory required for data: 7978800
I0228 06:29:20.976037 31705 layer_factory.hpp:77] Creating layer drop7
I0228 06:29:20.976047 31705 net.cpp:84] Creating Layer drop7
I0228 06:29:20.976049 31705 net.cpp:406] drop7 <- fc7
I0228 06:29:20.976058 31705 net.cpp:367] drop7 -> fc7 (in-place)
I0228 06:29:20.976081 31705 net.cpp:122] Setting up drop7
I0228 06:29:20.976086 31705 net.cpp:129] Top shape: 1 4096 (4096)
I0228 06:29:20.976089 31705 net.cpp:137] Memory required for data: 7995184
I0228 06:29:20.976090 31705 layer_factory.hpp:77] Creating layer fc8
I0228 06:29:20.976096 31705 net.cpp:84] Creating Layer fc8
I0228 06:29:20.976099 31705 net.cpp:406] fc8 <- fc7
I0228 06:29:20.976104 31705 net.cpp:380] fc8 -> fc8
I0228 06:29:21.037261 31705 net.cpp:122] Setting up fc8
I0228 06:29:21.037274 31705 net.cpp:129] Top shape: 1 618 (618)
I0228 06:29:21.037277 31705 net.cpp:137] Memory required for data: 7997656
I0228 06:29:21.037282 31705 layer_factory.hpp:77] Creating layer loss
I0228 06:29:21.037294 31705 net.cpp:84] Creating Layer loss
I0228 06:29:21.037298 31705 net.cpp:406] loss <- fc8
I0228 06:29:21.037302 31705 net.cpp:406] loss <- phocs
I0228 06:29:21.037305 31705 net.cpp:380] loss -> loss
I0228 06:29:21.037343 31705 net.cpp:122] Setting up loss
…
  phase: TEST
}
layer {
  name: "word_images"
  type: "Data"
  top: "word_images"
  top: "label"
  transform_param {
    scale: -0.0039215689
    mean_value: 255
  }
  data_param {
    source: "/data/fwolf/iam_30x80/iam-db_nti500000_pul2-3-4-5_test_word_images_lmdb"
    batch_size: 1
    backend: LMDB
    prefetch: 20
  }
}
layer {
  name: "phocs"
  type: "Data"
  top: "phocs"
  top: "label_phocs"
  data_param {
    source: "/data/fwolf/iam_30x80/iam-db_nti500000_pul2-3-4-5_test_phocs_lmdb"
    batch_size: 1
    backend: LMDB
    prefetch: 20
  }
}
layer {
  name: "conv1_1"
  type: "Convolution"
  bottom: "word_images"
  top: "conv1_1"
  convolution_param {
    num_output: 64
    pad: 1
    kernel_size: 3
    stride: 1
    weight_filler {
      type: "msra"
    }
    bias_filler {
      type: "constant"
    }
    engine: CUDNN
  }
}
layer {
  name: "relu1_1"
  type: "ReLU"
  bottom: "conv1_1"
  top: "conv1_1"
}
layer {
  name: "conv1_2"
  type: "Convolution"
  bottom: "conv1_1"
  top: "conv1_2"
  convolution_param {
    num_output: 64
    pad: 1
    kernel_size: 3
    stride: 1
    weight_filler {
      type: "msra"
    }
    bias_filler {
      type: "constant"
    }
    engine: CUDNN
  }
}
layer {
  name: "relu1_2"
  type: "ReLU"
  bottom: "conv1_2"
  top: "conv1_2"
}
layer {
  name: "pool1"
  type: "Pooling"
  bottom: "conv1_2"
  top: "pool1"
  pooling_param {
    pool: MAX
    kernel_size: 2
    stride: 2
  }
}
layer {
  name: "conv2_1"
  type: "Convolution"
  bottom: "pool1"
  top: "conv2_1"
  convolution_param {
    num_output: 128
    pad: 1
    kernel_size: 3
    stride: 1
    weight_filler {
      type: "msra"
    }
    bias_filler {
      type: "constant"
    }
    engine: CUDNN
  }
}
layer {
  name: "relu2_1"
  type: "ReLU"
  bottom: "conv2_1"
  top: "conv2_1"
}
layer {
  name: "conv2_2"
  type: "Convolution"
  bottom: "conv2_1"
  top: "conv2_2"
  convolution_param {
    num_output: 128
    pad: 1
    kernel_size: 3
    stride: 1
    weight_filler {
      type: "msra"
    }
    bias_filler {
      type: "constant"
    }
    engine: CUDNN
  }
}
layer {
  name: "relu2_2"
  type: "ReLU"
  bottom: "conv2_2"
  top: "conv2_2"
}
layer {
  name: "pool2"
  type: "Pooling"
  bottom: "conv2_2"
  top: "pool2"
  pooling_param {
    pool: MAX
    kernel_size: 2
    stride: 2
  }
}
layer {
  name: "conv3_1"
  type: "Convolution"
  bottom: "pool2"
  top: "conv3_1"
  convolution_param {
    num_output: 256
    pad: 1
    kernel_size: 3
    stride: 1
    weight_filler {
      type: "msra"
    }
    bias_filler {
      type: "constant"
    }
    engine: CUDNN
  }
}
layer {
  name: "relu3_1"
  type: "ReLU"
  bottom: "conv3_1"
  top: "conv3_1"
}
layer {
  name: "conv3_2"
  type: "Convolution"
  bottom: "conv3_1"
  top: "conv3_2"
  convolution_param {
    num_output: 256
    pad: 1
    kernel_size: 3
    stride: 1
    weight_filler {
      type: "msra"
    }
    bias_filler {
      type: "constant"
    }
    engine: CUDNN
  }
}
layer {
  name: "relu3_2"
  type: "ReLU"
  bottom: "conv3_2"
  top: "conv3_2"
}
layer {
  name: "conv3_3"
  type: "Convolution"
  bottom: "conv3_2"
  top: "conv3_3"
  convolution_param {
    num_output: 256
    pad: 1
    kernel_size: 3
    stride: 1
    weight_filler {
      type: "msra"
    }
    bias_filler {
      type: "constant"
    }
    engine: CUDNN
  }
}
layer {
  name: "relu3_3"
  type: "ReLU"
  bottom: "conv3_3"
  top: "conv3_3"
}
layer {
  name: "conv3_4"
  type: "Convolution"
  bottom: "conv3_3"
  top: "conv3_4"
  convolution_param {
    num_output: 256
    pad: 1
    kernel_size: 3
    stride: 1
    weight_filler {
      type: "msra"
    }
    bias_filler {
      type: "constant"
    }
    engine: CUDNN
  }
}
layer {
  name: "relu3_4"
  type: "ReLU"
  bottom: "conv3_4"
  top: "conv3_4"
}
layer {
  name: "conv3_5"
  type: "Convolution"
  bottom: "conv3_4"
  top: "conv3_5"
  convolution_param {
    num_output: 256
    pad: 1
    kernel_size: 3
    stride: 1
    weight_filler {
      type: "msra"
    }
    bias_filler {
      type: "constant"
    }
    engine: CUDNN
  }
}
layer {
  name: "relu3_5"
  type: "ReLU"
  bottom: "conv3_5"
  top: "conv3_5"
}
layer {
  name: "conv3_6"
  type: "Convolution"
  bottom: "conv3_5"
  top: "conv3_6"
  convolution_param {
    num_output: 256
    pad: 1
    kernel_size: 3
    stride: 1
    weight_filler {
      type: "msra"
    }
    bias_filler {
      type: "constant"
    }
    engine: CUDNN
  }
}
layer {
  name: "relu3_6"
  type: "ReLU"
  bottom: "conv3_6"
  top: "conv3_6"
}
layer {
  name: "conv4_1"
  type: "Convolution"
  bottom: "conv3_6"
  top: "conv4_1"
  convolution_param {
    num_output: 512
    pad: 1
    kernel_size: 3
    stride: 1
    weight_filler {
      type: "msra"
    }
    bias_filler {
      type: "constant"
    }
    engine: CUDNN
  }
}
layer {
  name: "relu4_1"
  type: "ReLU"
  bottom: "conv4_1"
  top: "conv4_1"
}
layer {
  name: "conv4_2"
  type: "Convolution"
  bottom: "conv4_1"
  top: "conv4_2"
  convolution_param {
    num_output: 512
    pad: 1
    kernel_size: 3
    stride: 1
    weight_filler {
      type: "msra"
    }
    bias_filler {
      type: "constant"
    }
    engine: CUDNN
  }
}
layer {
  name: "relu4_2"
  type: "ReLU"
  bottom: "conv4_2"
  top: "conv4_2"
}
layer {
  name: "conv4_3"
  type: "Convolution"
  bottom: "conv4_2"
  top: "conv4_3"
  convolution_param {
    num_output: 512
    pad: 1
    kernel_size: 3
    stride: 1
    weight_filler {
      type: "msra"
    }
    bias_filler {
      type: "constant"
    }
    engine: CUDNN
  }
}
layer {
  name: "relu4_3"
  type: "ReLU"
  bottom: "conv4_3"
  top: "conv4_3"
}
layer {
  name: "tpp5"
  type: "TPP"
  bottom: "conv4_3"
  top: "tpp5"
  tpp_param {
    pyramid_layer: 1
    pyramid_layer: 2
    pyramid_layer: 3
    pyramid_layer: 4
    pyramid_layer: 5
    pool: MAX
    engine: CUDNN
  }
}
layer {
  name: "fc6"
  type: "InnerProduct"
  bottom: "tpp5"
  top: "fc6"
  inner_product_param {
    num_output: 4096
    weight_filler {
      type: "msra"
    }
    bias_filler {
      type: "constant"
    }
  }
}
layer {
  name: "relu6"
  type: "ReLU"
  bottom: "fc6"
  top: "fc6"
}
layer {
  name: "fc7"
  type: "InnerProduct"
  bottom: "fc6"
  top: "fc7"
  inner_product_param {
    num_output: 4096
    weight_filler {
      type: "msra"
    }
    bias_filler {
      type: "constant"
    }
  }
}
layer {
  name: "relu7"
  type: "ReLU"
  bottom: "fc7"
  top: "fc7"
}
layer {
  name: "fc8"
  type: "InnerProduct"
  bottom: "fc7"
  top: "fc8"
  inner_product_param {
    num_output: 618
    weight_filler {
      type: "msra"
    }
    bias_filler {
      type: "constant"
    }
  }
}
layer {
  name: "sigmoid"
  type: "Sigmoid"
  bottom: "fc8"
  top: "sigmoid"
  include {
    phase: TEST
  }
}
layer {
  name: "silence"
  type: "Silence"
  bottom: "sigmoid"
  include {
    phase: TEST
  }
}
layer {
  name: "loss"
  type: "SigmoidCrossEntropyLoss"
  bottom: "fc8"
  bottom: "phocs"
  top: "loss"
}
I0228 06:29:21.040575 31705 layer_factory.hpp:77] Creating layer word_images
I0228 06:29:21.040679 31705 db_lmdb.cpp:35] Opened lmdb /data/fwolf/iam_30x80/iam-db_nti500000_pul2-3-4-5_test_word_images_lmdb
I0228 06:29:21.040706 31705 net.cpp:84] Creating Layer word_images
I0228 06:29:21.040729 31705 net.cpp:380] word_images -> word_images
I0228 06:29:21.040747 31705 net.cpp:380] word_images -> label
I0228 06:29:21.041406 31705 data_layer.cpp:44] output data size: 1,1,30,80
I0228 06:29:21.044677 31705 net.cpp:122] Setting up word_images
I0228 06:29:21.044698 31705 net.cpp:129] Top shape: 1 1 30 80 (2400)
I0228 06:29:21.044713 31705 net.cpp:129] Top shape: 1 (1)
I0228 06:29:21.044718 31705 net.cpp:137] Memory required for data: 9604
I0228 06:29:21.044730 31705 layer_factory.hpp:77] Creating layer phocs
I0228 06:29:21.044821 31705 db_lmdb.cpp:35] Opened lmdb /data/fwolf/iam_30x80/iam-db_nti500000_pul2-3-4-5_test_phocs_lmdb
I0228 06:29:21.044847 31705 net.cpp:84] Creating Layer phocs
I0228 06:29:21.044858 31705 net.cpp:380] phocs -> phocs
I0228 06:29:21.044874 31705 net.cpp:380] phocs -> label_phocs
I0228 06:29:21.045569 31705 data_layer.cpp:44] output data size: 1,1,1,618
I0228 06:29:21.049705 31705 net.cpp:122] Setting up phocs
I0228 06:29:21.049728 31705 net.cpp:129] Top shape: 1 1 1 618 (618)
I0228 06:29:21.049738 31705 net.cpp:129] Top shape: 1 (1)
I0228 06:29:21.049746 31705 net.cpp:137] Memory required for data: 12080
I0228 06:29:21.049753 31705 layer_factory.hpp:77] Creating layer conv1_1
I0228 06:29:21.049778 31705 net.cpp:84] Creating Layer conv1_1
I0228 06:29:21.049787 31705 net.cpp:406] conv1_1 <- word_images
I0228 06:29:21.049799 31705 net.cpp:380] conv1_1 -> conv1_1
I0228 06:29:21.052868 31705 net.cpp:122] Setting up conv1_1
I0228 06:29:21.052896 31705 net.cpp:129] Top shape: 1 64 30 80 (153600)
I0228 06:29:21.052903 31705 net.cpp:137] Memory required for data: 626480
I0228 06:29:21.052922 31705 layer_factory.hpp:77] Creating layer relu1_1
I0228 06:29:21.052937 31705 net.cpp:84] Creating Layer relu1_1
I0228 06:29:21.052943 31705 net.cpp:406] relu1_1 <- conv1_1
I0228 06:29:21.052954 31705 net.cpp:367] relu1_1 -> conv1_1 (in-place)
I0228 06:29:21.053431 31705 net.cpp:122] Setting up relu1_1
I0228 06:29:21.053450 31705 net.cpp:129] Top shape: 1 64 30 80 (153600)
I0228 06:29:21.053457 31705 net.cpp:137] Memory required for data: 1240880
I0228 06:29:21.053463 31705 layer_factory.hpp:77] Creating layer conv1_2
I0228 06:29:21.053483 31705 net.cpp:84] Creating Layer conv1_2
I0228 06:29:21.053489 31705 net.cpp:406] conv1_2 <- conv1_1
I0228 06:29:21.053503 31705 net.cpp:380] conv1_2 -> conv1_2
I0228 06:29:21.058512 31705 net.cpp:122] Setting up conv1_2
I0228 06:29:21.058537 31705 net.cpp:129] Top shape: 1 64 30 80 (153600)
I0228 06:29:21.058545 31705 net.cpp:137] Memory required for data: 1855280
I0228 06:29:21.058562 31705 layer_factory.hpp:77] Creating layer relu1_2
I0228 06:29:21.058575 31705 net.cpp:84] Creating Layer relu1_2
I0228 06:29:21.058583 31705 net.cpp:406] relu1_2 <- conv1_2
I0228 06:29:21.058593 31705 net.cpp:367] relu1_2 -> conv1_2 (in-place)
I0228 06:29:21.059512 31705 net.cpp:122] Setting up relu1_2
I0228 06:29:21.059535 31705 net.cpp:129] Top shape: 1 64 30 80 (153600)
I0228 06:29:21.059542 31705 net.cpp:137] Memory required for data: 2469680
I0228 06:29:21.059550 31705 layer_factory.hpp:77] Creating layer pool1
I0228 06:29:21.059561 31705 net.cpp:84] Creating Layer pool1
I0228 06:29:21.059568 31705 net.cpp:406] pool1 <- conv1_2
I0228 06:29:21.059581 31705 net.cpp:380] pool1 -> pool1
I0228 06:29:21.059674 31705 net.cpp:122] Setting up pool1
I0228 06:29:21.059687 31705 net.cpp:129] Top shape: 1 64 15 40 (38400)
I0228 06:29:21.059693 31705 net.cpp:137] Memory required for data: 2623280
I0228 06:29:21.059700 31705 layer_factory.hpp:77] Creating layer conv2_1
I0228 06:29:21.059715 31705 net.cpp:84] Creating Layer conv2_1
I0228 06:29:21.059723 31705 net.cpp:406] conv2_1 <- pool1
I0228 06:29:21.059733 31705 net.cpp:380] conv2_1 -> conv2_1
I0228 06:29:21.068037 31705 net.cpp:122] Setting up conv2_1
I0228 06:29:21.068060 31705 net.cpp:129] Top shape: 1 128 15 40 (76800)
I0228 06:29:21.068068 31705 net.cpp:137] Memory required for data: 2930480
I0228 06:29:21.068084 31705 layer_factory.hpp:77] Creating layer relu2_1
I0228 06:29:21.068099 31705 net.cpp:84] Creating Layer relu2_1
I0228 06:29:21.068109 31705 net.cpp:406] relu2_1 <- conv2_1
I0228 06:29:21.068120 31705 net.cpp:367] relu2_1 -> conv2_1 (in-place)
I0228 06:29:21.068490 31705 net.cpp:122] Setting up relu2_1
I0228 06:29:21.068506 31705 net.cpp:129] Top shape: 1 128 15 40 (76800)
I0228 06:29:21.068512 31705 net.cpp:137] Memory required for data: 3237680
I0228 06:29:21.068518 31705 layer_factory.hpp:77] Creating layer conv2_2
I0228 06:29:21.068537 31705 net.cpp:84] Creating Layer conv2_2
I0228 06:29:21.068543 31705 net.cpp:406] conv2_2 <- conv2_1
I0228 06:29:21.068554 31705 net.cpp:380] conv2_2 -> conv2_2
I0228 06:29:21.079248 31705 net.cpp:122] Setting up conv2_2
I0228 06:29:21.079270 31705 net.cpp:129] Top shape: 1 128 15 40 (76800)
I0228 06:29:21.079277 31705 net.cpp:137] Memory required for data: 3544880
I0228 06:29:21.079289 31705 layer_factory.hpp:77] Creating layer relu2_2
I0228 06:29:21.079301 31705 net.cpp:84] Creating Layer relu2_2
I0228 06:29:21.079308 31705 net.cpp:406] relu2_2 <- conv2_2
I0228 06:29:21.079318 31705 net.cpp:367] relu2_2 -> conv2_2 (in-place)
I0228 06:29:21.079679 31705 net.cpp:122] Setting up relu2_2
I0228 06:29:21.079694 31705 net.cpp:129] Top shape: 1 128 15 40 (76800)
I0228 06:29:21.079699 31705 net.cpp:137] Memory required for data: 3852080
I0228 06:29:21.079705 31705 layer_factory.hpp:77] Creating layer pool2
I0228 06:29:21.079717 31705 net.cpp:84] Creating Layer pool2
I0228 06:29:21.079723 31705 net.cpp:406] pool2 <- conv2_2
I0228 06:29:21.079731 31705 net.cpp:380] pool2 -> pool2
I0228 06:29:21.079812 31705 net.cpp:122] Setting up pool2
I0228 06:29:21.079821 31705 net.cpp:129] Top shape: 1 128 8 20 (20480)
I0228 06:29:21.079826 31705 net.cpp:137] Memory required for data: 3934000
I0228 06:29:21.079831 31705 layer_factory.hpp:77] Creating layer conv3_1
I0228 06:29:21.079847 31705 net.cpp:84] Creating Layer conv3_1
I0228 06:29:21.079854 31705 net.cpp:406] conv3_1 <- pool2
I0228 06:29:21.079867 31705 net.cpp:380] conv3_1 -> conv3_1
I0228 06:29:21.097173 31705 net.cpp:122] Setting up conv3_1
I0228 06:29:21.097194 31705 net.cpp:129] Top shape: 1 256 8 20 (40960)
I0228 06:29:21.097200 31705 net.cpp:137] Memory required for data: 4097840
I0228 06:29:21.097216 31705 layer_factory.hpp:77] Creating layer relu3_1
I0228 06:29:21.097226 31705 net.cpp:84] Creating Layer relu3_1
I0228 06:29:21.097231 31705 net.cpp:406] relu3_1 <- conv3_1
I0228 06:29:21.097239 31705 net.cpp:367] relu3_1 -> conv3_1 (in-place)
I0228 06:29:21.097571 31705 net.cpp:122] Setting up relu3_1
I0228 06:29:21.097585 31705 net.cpp:129] Top shape: 1 256 8 20 (40960)
I0228 06:29:21.097590 31705 net.cpp:137] Memory required for data: 4261680
I0228 06:29:21.097595 31705 layer_factory.hpp:77] Creating layer conv3_2
I0228 06:29:21.097610 31705 net.cpp:84] Creating Layer conv3_2
I0228 06:29:21.097615 31705 net.cpp:406] conv3_2 <- conv3_1
I0228 06:29:21.097626 31705 net.cpp:380] conv3_2 -> conv3_2
I0228 06:29:21.127368 31705 net.cpp:122] Setting up conv3_2
I0228 06:29:21.127387 31705 net.cpp:129] Top shape: 1 256 8 20 (40960)
I0228 06:29:21.127391 31705 net.cpp:137] Memory required for data: 4425520
I0228 06:29:21.127401 31705 layer_factory.hpp:77] Creating layer relu3_2
I0228 06:29:21.127410 31705 net.cpp:84] Creating Layer relu3_2
I0228 06:29:21.127416 31705 net.cpp:406] relu3_2 <- conv3_2
I0228 06:29:21.127424 31705 net.cpp:367] relu3_2 -> conv3_2 (in-place)
I0228 06:29:21.128068 31705 net.cpp:122] Setting up relu3_2
I0228 06:29:21.128084 31705 net.cpp:129] Top shape: 1 256 8 20 (40960)
I0228 06:29:21.128089 31705 net.cpp:137] Memory required for data: 4589360
I0228 06:29:21.128094 31705 layer_factory.hpp:77] Creating layer conv3_3
I0228 06:29:21.128110 31705 net.cpp:84] Creating Layer conv3_3
I0228 06:29:21.128115 31705 net.cpp:406] conv3_3 <- conv3_2
I0228 06:29:21.128124 31705 net.cpp:380] conv3_3 -> conv3_3
I0228 06:29:21.154408 31705 net.cpp:122] Setting up conv3_3
I0228 06:29:21.154425 31705 net.cpp:129] Top shape: 1 256 8 20 (40960)
I0228 06:29:21.154429 31705 net.cpp:137] Memory required for data: 4753200
I0228 06:29:21.154441 31705 layer_factory.hpp:77] Creating layer relu3_3
I0228 06:29:21.154451 31705 net.cpp:84] Creating Layer relu3_3
I0228 06:29:21.154456 31705 net.cpp:406] relu3_3 <- conv3_3
I0228 06:29:21.154462 31705 net.cpp:367] relu3_3 -> conv3_3 (in-place)
I0228 06:29:21.154721 31705 net.cpp:122] Setting up relu3_3
I0228 06:29:21.154731 31705 net.cpp:129] Top shape: 1 256 8 20 (40960)
I0228 06:29:21.154736 31705 net.cpp:137] Memory required for data: 4917040
I0228 06:29:21.154739 31705 layer_factory.hpp:77] Creating layer conv3_4
I0228 06:29:21.154752 31705 net.cpp:84] Creating Layer conv3_4
I0228 06:29:21.154757 31705 net.cpp:406] conv3_4 <- conv3_3
I0228 06:29:21.154763 31705 net.cpp:380] conv3_4 -> conv3_4
I0228 06:29:21.178556 31705 net.cpp:122] Setting up conv3_4
I0228 06:29:21.178571 31705 net.cpp:129] Top shape: 1 256 8 20 (40960)
I0228 06:29:21.178576 31705 net.cpp:137] Memory required for data: 5080880
I0228 06:29:21.178583 31705 layer_factory.hpp:77] Creating layer relu3_4
I0228 06:29:21.178591 31705 net.cpp:84] Creating Layer relu3_4
I0228 06:29:21.178596 31705 net.cpp:406] relu3_4 <- conv3_4
I0228 06:29:21.178602 31705 net.cpp:367] relu3_4 -> conv3_4 (in-place)
I0228 06:29:21.178843 31705 net.cpp:122] Setting up relu3_4
I0228 06:29:21.178853 31705 net.cpp:129] Top shape: 1 256 8 20 (40960)
I0228 06:29:21.178858 31705 net.cpp:137] Memory required for data: 5244720
I0228 06:29:21.178861 31705 layer_factory.hpp:77] Creating layer conv3_5
I0228 06:29:21.178874 31705 net.cpp:84] Creating Layer conv3_5
I0228 06:29:21.178877 31705 net.cpp:406] conv3_5 <- conv3_4
I0228 06:29:21.178884 31705 net.cpp:380] conv3_5 -> conv3_5
I0228 06:29:21.200794 31705 net.cpp:122] Setting up conv3_5
I0228 06:29:21.200809 31705 net.cpp:129] Top shape: 1 256 8 20 (40960)
I0228 06:29:21.200812 31705 net.cpp:137] Memory required for data: 5408560
I0228 06:29:21.200822 31705 layer_factory.hpp:77] Creating layer relu3_5
I0228 06:29:21.200829 31705 net.cpp:84] Creating Layer relu3_5
I0228 06:29:21.200834 31705 net.cpp:406] relu3_5 <- conv3_5
I0228 06:29:21.200839 31705 net.cpp:367] relu3_5 -> conv3_5 (in-place)
I0228 06:29:21.201357 31705 net.cpp:122] Setting up relu3_5
I0228 06:29:21.201370 31705 net.cpp:129] Top shape: 1 256 8 20 (40960)
I0228 06:29:21.201375 31705 net.cpp:137] Memory required for data: 5572400
I0228 06:29:21.201378 31705 layer_factory.hpp:77] Creating layer conv3_6
I0228 06:29:21.201390 31705 net.cpp:84] Creating Layer conv3_6
I0228 06:29:21.201395 31705 net.cpp:406] conv3_6 <- conv3_5
I0228 06:29:21.201400 31705 net.cpp:380] conv3_6 -> conv3_6
I0228 06:29:21.221845 31705 net.cpp:122] Setting up conv3_6
I0228 06:29:21.221859 31705 net.cpp:129] Top shape: 1 256 8 20 (40960)
I0228 06:29:21.221863 31705 net.cpp:137] Memory required for data: 5736240
I0228 06:29:21.221869 31705 layer_factory.hpp:77] Creating layer relu3_6
I0228 06:29:21.221875 31705 net.cpp:84] Creating Layer relu3_6
I0228 06:29:21.221879 31705 net.cpp:406] relu3_6 <- conv3_6
I0228 06:29:21.221884 31705 net.cpp:367] relu3_6 -> conv3_6 (in-place)
I0228 06:29:21.222092 31705 net.cpp:122] Setting up relu3_6
I0228 06:29:21.222101 31705 net.cpp:129] Top shape: 1 256 8 20 (40960)
I0228 06:29:21.222105 31705 net.cpp:137] Memory required for data: 5900080
I0228 06:29:21.222107 31705 layer_factory.hpp:77] Creating layer conv4_1
I0228 06:29:21.222117 31705 net.cpp:84] Creating Layer conv4_1
I0228 06:29:21.222121 31705 net.cpp:406] conv4_1 <- conv3_6
I0228 06:29:21.222128 31705 net.cpp:380] conv4_1 -> conv4_1
I0228 06:29:21.257953 31705 net.cpp:122] Setting up conv4_1
I0228 06:29:21.257966 31705 net.cpp:129] Top shape: 1 512 8 20 (81920)
I0228 06:29:21.257969 31705 net.cpp:137] Memory required for data: 6227760
I0228 06:29:21.257975 31705 layer_factory.hpp:77] Creating layer relu4_1
I0228 06:29:21.257982 31705 net.cpp:84] Creating Layer relu4_1
I0228 06:29:21.257985 31705 net.cpp:406] relu4_1 <- conv4_1
I0228 06:29:21.257992 31705 net.cpp:367] relu4_1 -> conv4_1 (in-place)
I0228 06:29:21.258177 31705 net.cpp:122] Setting up relu4_1
I0228 06:29:21.258184 31705 net.cpp:129] Top shape: 1 512 8 20 (81920)
I0228 06:29:21.258190 31705 net.cpp:137] Memory required for data: 6555440
I0228 06:29:21.258194 31705 layer_factory.hpp:77] Creating layer conv4_2
I0228 06:29:21.258203 31705 net.cpp:84] Creating Layer conv4_2
I0228 06:29:21.258208 31705 net.cpp:406] conv4_2 <- conv4_1
I0228 06:29:21.258213 31705 net.cpp:380] conv4_2 -> conv4_2
I0228 06:29:21.319331 31705 net.cpp:122] Setting up conv4_2
I0228 06:29:21.319350 31705 net.cpp:129] Top shape: 1 512 8 20 (81920)
I0228 06:29:21.319352 31705 net.cpp:137] Memory required for data: 6883120
I0228 06:29:21.319357 31705 layer_factory.hpp:77] Creating layer relu4_2
I0228 06:29:21.319365 31705 net.cpp:84] Creating Layer relu4_2
I0228 06:29:21.319368 31705 net.cpp:406] relu4_2 <- conv4_2
I0228 06:29:21.319373 31705 net.cpp:367] relu4_2 -> conv4_2 (in-place)
I0228 06:29:21.319806 31705 net.cpp:122] Setting up relu4_2
I0228 06:29:21.319816 31705 net.cpp:129] Top shape: 1 512 8 20 (81920)
I0228 06:29:21.319819 31705 net.cpp:137] Memory required for data: 7210800
I0228 06:29:21.319823 31705 layer_factory.hpp:77] Creating layer conv4_3
I0228 06:29:21.319833 31705 net.cpp:84] Creating Layer conv4_3
I0228 06:29:21.319835 31705 net.cpp:406] conv4_3 <- conv4_2
I0228 06:29:21.319841 31705 net.cpp:380] conv4_3 -> conv4_3
I0228 06:29:21.377830 31705 net.cpp:122] Setting up conv4_3
I0228 06:29:21.377846 31705 net.cpp:129] Top shape: 1 512 8 20 (81920)
I0228 06:29:21.377848 31705 net.cpp:137] Memory required for data: 7538480
I0228 06:29:21.377853 31705 layer_factory.hpp:77] Creating layer relu4_3
I0228 06:29:21.377861 31705 net.cpp:84] Creating Layer relu4_3
I0228 06:29:21.377864 31705 net.cpp:406] relu4_3 <- conv4_3
I0228 06:29:21.377868 31705 net.cpp:367] relu4_3 -> conv4_3 (in-place)
I0228 06:29:21.378031 31705 net.cpp:122] Setting up relu4_3
I0228 06:29:21.378038 31705 net.cpp:129] Top shape: 1 512 8 20 (81920)
I0228 06:29:21.378041 31705 net.cpp:137] Memory required for data: 7866160
I0228 06:29:21.378044 31705 layer_factory.hpp:77] Creating layer tpp5
I0228 06:29:21.378051 31705 net.cpp:84] Creating Layer tpp5
I0228 06:29:21.378053 31705 net.cpp:406] tpp5 <- conv4_3
I0228 06:29:21.378058 31705 net.cpp:380] tpp5 -> tpp5
I0228 06:29:21.378454 31705 net.cpp:122] Setting up tpp5
I0228 06:29:21.378461 31705 net.cpp:129] Top shape: 1 7680 (7680)
I0228 06:29:21.378464 31705 net.cpp:137] Memory required for data: 7896880
I0228 06:29:21.378468 31705 layer_factory.hpp:77] Creating layer fc6
I0228 06:29:21.378473 31705 net.cpp:84] Creating Layer fc6
I0228 06:29:21.378476 31705 net.cpp:406] fc6 <- tpp5
I0228 06:29:21.378480 31705 net.cpp:380] fc6 -> fc6
I0228 06:29:22.429306 31705 net.cpp:122] Setting up fc6
I0228 06:29:22.429342 31705 net.cpp:129] Top shape: 1 4096 (4096)
I0228 06:29:22.429347 31705 net.cpp:137] Memory required for data: 7913264
I0228 06:29:22.429359 31705 layer_factory.hpp:77] Creating layer relu6
I0228 06:29:22.429375 31705 net.cpp:84] Creating Layer relu6
I0228 06:29:22.429381 31705 net.cpp:406] relu6 <- fc6
I0228 06:29:22.429389 31705 net.cpp:367] relu6 -> fc6 (in-place)
I0228 06:29:22.429692 31705 net.cpp:122] Setting up relu6
I0228 06:29:22.429702 31705 net.cpp:129] Top shape: 1 4096 (4096)
I0228 06:29:22.429707 31705 net.cpp:137] Memory required for data: 7929648
I0228 06:29:22.429710 31705 layer_factory.hpp:77] Creating layer fc7
I0228 06:29:22.429720 31705 net.cpp:84] Creating Layer fc7
I0228 06:29:22.429724 31705 net.cpp:406] fc7 <- fc6
I0228 06:29:22.429731 31705 net.cpp:380] fc7 -> fc7
I0228 06:29:23.048974 31705 net.cpp:122] Setting up fc7
I0228 06:29:23.049010 31705 net.cpp:129] Top shape: 1 4096 (4096)
I0228 06:29:23.049015 31705 net.cpp:137] Memory required for data: 7946032
I0228 06:29:23.049026 31705 layer_factory.hpp:77] Creating layer relu7
I0228 06:29:23.049039 31705 net.cpp:84] Creating Layer relu7
I0228 06:29:23.049046 31705 net.cpp:406] relu7 <- fc7
I0228 06:29:23.049053 31705 net.cpp:367] relu7 -> fc7 (in-place)
I0228 06:29:23.049355 31705 net.cpp:122] Setting up relu7
I0228 06:29:23.049365 31705 net.cpp:129] Top shape: 1 4096 (4096)
I0228 06:29:23.049374 31705 net.cpp:137] Memory required for data: 7962416
I0228 06:29:23.049378 31705 layer_factory.hpp:77] Creating layer fc8
I0228 06:29:23.049387 31705 net.cpp:84] Creating Layer fc8
I0228 06:29:23.049392 31705 net.cpp:406] fc8 <- fc7
I0228 06:29:23.049399 31705 net.cpp:380] fc8 -> fc8
I0228 06:29:23.142930 31705 net.cpp:122] Setting up fc8
I0228 06:29:23.142948 31705 net.cpp:129] Top shape: 1 618 (618)
I0228 06:29:23.142953 31705 net.cpp:137] Memory required for data: 7964888
I0228 06:29:23.142962 31705 layer_factory.hpp:77] Creating layer fc8_fc8_0_split
I0228 06:29:23.142971 31705 net.cpp:84] Creating Layer fc8_fc8_0_split
I0228 06:29:23.142976 31705 net.cpp:406] fc8_fc8_0_split <- fc8
I0228 06:29:23.142983 31705 net.cpp:380] fc8_fc8_0_split -> fc8_fc8_0_split_0
I0228 06:29:23.142992 31705 net.cpp:380] fc8_fc8_0_split -> fc8_fc8_0_split_1
I0228 06:29:23.143036 31705 net.cpp:122] Setting up fc8_fc8_0_split
I0228 06:29:23.143044 31705 net.cpp:129] Top shape: 1 618 (618)
I0228 06:29:23.143049 31705 net.cpp:129] Top shape: 1 618 (618)
I0228 06:29:23.143054 31705 net.cpp:137] Memory required for data: 7969832
I0228 06:29:23.143057 31705 layer_factory.hpp:77] Creating layer sigmoid
I0228 06:29:23.143065 31705 net.cpp:84] Creating Layer sigmoid
I0228 06:29:23.143069 31705 net.cpp:406] sigmoid <- fc8_fc8_0_split_0
I0228 06:29:23.143075 31705 net.cpp:380] sigmoid -> sigmoid
I0228 06:29:23.143775 31705 net.cpp:122] Setting up sigmoid
I0228 06:29:23.143788 31705 net.cpp:129] Top shape: 1 618 (618)
I0228 06:29:23.143793 31705 net.cpp:137] Memory required for data: 7972304
I0228 06:29:23.143797 31705 layer_factory.hpp:77] Creating layer silence
I0228 06:29:23.143805 31705 net.cpp:84] Creating Layer silence
I0228 06:29:23.143810 31705 net.cpp:406] silence <- sigmoid
I0228 06:29:23.143815 31705 net.cpp:122] Setting up silence
I0228 06:29:23.143818 31705 net.cpp:137] Memory required for data: 7972304
…
