…
  phase: TRAIN
}
layer {
  name: "word_images"
  type: "Data"
  top: "word_images"
  top: "label"
  transform_param {
    scale: -0.0039215689
    mean_value: 255
  }
  data_param {
    source: "/data/fwolf/iam_60x160/iam-db_nti500000_pul2-3-4-5_train_word_images_lmdb"
    batch_size: 1
    backend: LMDB
    prefetch: 20
  }
}
layer {
  name: "phocs"
  type: "Data"
  top: "phocs"
  top: "label_phocs"
  data_param {
    source: "/data/fwolf/iam_60x160/iam-db_nti500000_pul2-3-4-5_train_phocs_lmdb"
    batch_size: 1
    backend: LMDB
    prefetch: 20
  }
}
layer {
  name: "conv1_1"
  type: "Convolution"
  bottom: "word_images"
  top: "conv1_1"
  convolution_param {
    num_output: 64
    pad: 1
    kernel_size: 3
    stride: 1
    weight_filler {
      type: "msra"
    }
    bias_filler {
      type: "constant"
    }
    engine: CUDNN
  }
}
layer {
  name: "relu1_1"
  type: "ReLU"
  bottom: "conv1_1"
  top: "conv1_1"
}
layer {
  name: "conv1_2"
  type: "Convolution"
  bottom: "conv1_1"
  top: "conv1_2"
  convolution_param {
    num_output: 64
    pad: 1
    kernel_size: 3
    stride: 1
    weight_filler {
      type: "msra"
    }
    bias_filler {
      type: "constant"
    }
    engine: CUDNN
  }
}
layer {
  name: "relu1_2"
  type: "ReLU"
  bottom: "conv1_2"
  top: "conv1_2"
}
layer {
  name: "pool1"
  type: "Pooling"
  bottom: "conv1_2"
  top: "pool1"
  pooling_param {
    pool: MAX
    kernel_size: 2
    stride: 2
  }
}
layer {
  name: "conv2_1"
  type: "Convolution"
  bottom: "pool1"
  top: "conv2_1"
  convolution_param {
    num_output: 128
    pad: 1
    kernel_size: 3
    stride: 1
    weight_filler {
      type: "msra"
    }
    bias_filler {
      type: "constant"
    }
    engine: CUDNN
  }
}
layer {
  name: "relu2_1"
  type: "ReLU"
  bottom: "conv2_1"
  top: "conv2_1"
}
layer {
  name: "conv2_2"
  type: "Convolution"
  bottom: "conv2_1"
  top: "conv2_2"
  convolution_param {
    num_output: 128
    pad: 1
    kernel_size: 3
    stride: 1
    weight_filler {
      type: "msra"
    }
    bias_filler {
      type: "constant"
    }
    engine: CUDNN
  }
}
layer {
  name: "relu2_2"
  type: "ReLU"
  bottom: "conv2_2"
  top: "conv2_2"
}
layer {
  name: "pool2"
  type: "Pooling"
  bottom: "conv2_2"
  top: "pool2"
  pooling_param {
    pool: MAX
    kernel_size: 2
    stride: 2
  }
}
layer {
  name: "conv3_1"
  type: "Convolution"
  bottom: "pool2"
  top: "conv3_1"
  convolution_param {
    num_output: 256
    pad: 1
    kernel_size: 3
    stride: 1
    weight_filler {
      type: "msra"
    }
    bias_filler {
      type: "constant"
    }
    engine: CUDNN
  }
}
layer {
  name: "relu3_1"
  type: "ReLU"
  bottom: "conv3_1"
  top: "conv3_1"
}
layer {
  name: "conv3_2"
  type: "Convolution"
  bottom: "conv3_1"
  top: "conv3_2"
  convolution_param {
    num_output: 256
    pad: 1
    kernel_size: 3
    stride: 1
    weight_filler {
      type: "msra"
    }
    bias_filler {
      type: "constant"
    }
    engine: CUDNN
  }
}
layer {
  name: "relu3_2"
  type: "ReLU"
  bottom: "conv3_2"
  top: "conv3_2"
}
layer {
  name: "conv3_3"
  type: "Convolution"
  bottom: "conv3_2"
  top: "conv3_3"
  convolution_param {
    num_output: 256
    pad: 1
    kernel_size: 3
    stride: 1
    weight_filler {
      type: "msra"
    }
    bias_filler {
      type: "constant"
    }
    engine: CUDNN
  }
}
layer {
  name: "relu3_3"
  type: "ReLU"
  bottom: "conv3_3"
  top: "conv3_3"
}
layer {
  name: "conv3_4"
  type: "Convolution"
  bottom: "conv3_3"
  top: "conv3_4"
  convolution_param {
    num_output: 256
    pad: 1
    kernel_size: 3
    stride: 1
    weight_filler {
      type: "msra"
    }
    bias_filler {
      type: "constant"
    }
    engine: CUDNN
  }
}
layer {
  name: "relu3_4"
  type: "ReLU"
  bottom: "conv3_4"
  top: "conv3_4"
}
layer {
  name: "conv3_5"
  type: "Convolution"
  bottom: "conv3_4"
  top: "conv3_5"
  convolution_param {
    num_output: 256
    pad: 1
    kernel_size: 3
    stride: 1
    weight_filler {
      type: "msra"
    }
    bias_filler {
      type: "constant"
    }
    engine: CUDNN
  }
}
layer {
  name: "relu3_5"
  type: "ReLU"
  bottom: "conv3_5"
  top: "conv3_5"
}
layer {
  name: "conv3_6"
  type: "Convolution"
  bottom: "conv3_5"
  top: "conv3_6"
  convolution_param {
    num_output: 256
    pad: 1
    kernel_size: 3
    stride: 1
    weight_filler {
      type: "msra"
    }
    bias_filler {
      type: "constant"
    }
    engine: CUDNN
  }
}
layer {
  name: "relu3_6"
  type: "ReLU"
  bottom: "conv3_6"
  top: "conv3_6"
}
layer {
  name: "conv4_1"
  type: "Convolution"
  bottom: "conv3_6"
  top: "conv4_1"
  convolution_param {
    num_output: 512
    pad: 1
    kernel_size: 3
    stride: 1
    weight_filler {
      type: "msra"
    }
    bias_filler {
      type: "constant"
    }
    engine: CUDNN
  }
}
layer {
  name: "relu4_1"
  type: "ReLU"
  bottom: "conv4_1"
  top: "conv4_1"
}
layer {
  name: "conv4_2"
  type: "Convolution"
  bottom: "conv4_1"
  top: "conv4_2"
  convolution_param {
    num_output: 512
    pad: 1
    kernel_size: 3
    stride: 1
    weight_filler {
      type: "msra"
    }
    bias_filler {
      type: "constant"
    }
    engine: CUDNN
  }
}
layer {
  name: "relu4_2"
  type: "ReLU"
  bottom: "conv4_2"
  top: "conv4_2"
}
layer {
  name: "conv4_3"
  type: "Convolution"
  bottom: "conv4_2"
  top: "conv4_3"
  convolution_param {
    num_output: 512
    pad: 1
    kernel_size: 3
    stride: 1
    weight_filler {
      type: "msra"
    }
    bias_filler {
      type: "constant"
    }
    engine: CUDNN
  }
}
layer {
  name: "relu4_3"
  type: "ReLU"
  bottom: "conv4_3"
  top: "conv4_3"
}
layer {
  name: "tpp5"
  type: "TPP"
  bottom: "conv4_3"
  top: "tpp5"
  tpp_param {
    pyramid_layer: 1
    pyramid_layer: 2
    pyramid_layer: 3
    pyramid_layer: 4
    pyramid_layer: 5
    pool: MAX
    engine: CUDNN
  }
}
layer {
  name: "fc6"
  type: "InnerProduct"
  bottom: "tpp5"
  top: "fc6"
  inner_product_param {
    num_output: 4096
    weight_filler {
      type: "msra"
    }
    bias_filler {
      type: "constant"
    }
  }
}
layer {
  name: "relu6"
  type: "ReLU"
  bottom: "fc6"
  top: "fc6"
}
layer {
  name: "drop6"
  type: "Dropout"
  bottom: "fc6"
  top: "fc6"
  include {
    phase: TRAIN
  }
  dropout_param {
    dropout_ratio: 0.5
  }
}
layer {
  name: "fc7"
  type: "InnerProduct"
  bottom: "fc6"
  top: "fc7"
  inner_product_param {
    num_output: 4096
    weight_filler {
      type: "msra"
    }
    bias_filler {
      type: "constant"
    }
  }
}
layer {
  name: "relu7"
  type: "ReLU"
  bottom: "fc7"
  top: "fc7"
}
layer {
  name: "drop7"
  type: "Dropout"
  bottom: "fc7"
  top: "fc7"
  include {
    phase: TRAIN
  }
  dropout_param {
    dropout_ratio: 0.5
  }
}
layer {
  name: "fc8"
  type: "InnerProduct"
  bottom: "fc7"
  top: "fc8"
  inner_product_param {
    num_output: 618
    weight_filler {
      type: "msra"
    }
    bias_filler {
      type: "constant"
    }
  }
}
layer {
  name: "loss"
  type: "SigmoidCrossEntropyLoss"
  bottom: "fc8"
  bottom: "phocs"
  top: "loss"
}
I0220 18:53:48.597249 44746 layer_factory.hpp:77] Creating layer word_images
I0220 18:53:48.597383 44746 db_lmdb.cpp:35] Opened lmdb /data/fwolf/iam_60x160/iam-db_nti500000_pul2-3-4-5_train_word_images_lmdb
I0220 18:53:48.597434 44746 net.cpp:84] Creating Layer word_images
I0220 18:53:48.597446 44746 net.cpp:380] word_images -> word_images
I0220 18:53:48.597470 44746 net.cpp:380] word_images -> label
I0220 18:53:48.600150 44746 data_layer.cpp:44] output data size: 1,1,60,160
I0220 18:53:48.605753 44746 net.cpp:122] Setting up word_images
I0220 18:53:48.605782 44746 net.cpp:129] Top shape: 1 1 60 160 (9600)
I0220 18:53:48.605793 44746 net.cpp:129] Top shape: 1 (1)
I0220 18:53:48.605799 44746 net.cpp:137] Memory required for data: 38404
I0220 18:53:48.605809 44746 layer_factory.hpp:77] Creating layer phocs
I0220 18:53:48.605927 44746 db_lmdb.cpp:35] Opened lmdb /data/fwolf/iam_60x160/iam-db_nti500000_pul2-3-4-5_train_phocs_lmdb
I0220 18:53:48.605994 44746 net.cpp:84] Creating Layer phocs
I0220 18:53:48.606007 44746 net.cpp:380] phocs -> phocs
I0220 18:53:48.606025 44746 net.cpp:380] phocs -> label_phocs
I0220 18:53:48.606508 44746 data_layer.cpp:44] output data size: 1,1,1,618
I0220 18:53:48.613147 44746 net.cpp:122] Setting up phocs
I0220 18:53:48.613174 44746 net.cpp:129] Top shape: 1 1 1 618 (618)
I0220 18:53:48.613184 44746 net.cpp:129] Top shape: 1 (1)
I0220 18:53:48.613190 44746 net.cpp:137] Memory required for data: 40880
I0220 18:53:48.613199 44746 layer_factory.hpp:77] Creating layer conv1_1
I0220 18:53:48.613227 44746 net.cpp:84] Creating Layer conv1_1
I0220 18:53:48.613236 44746 net.cpp:406] conv1_1 <- word_images
I0220 18:53:48.613253 44746 net.cpp:380] conv1_1 -> conv1_1
I0220 18:53:49.451725 44746 net.cpp:122] Setting up conv1_1
I0220 18:53:49.451761 44746 net.cpp:129] Top shape: 1 64 60 160 (614400)
I0220 18:53:49.451767 44746 net.cpp:137] Memory required for data: 2498480
I0220 18:53:49.451784 44746 layer_factory.hpp:77] Creating layer relu1_1
I0220 18:53:49.451797 44746 net.cpp:84] Creating Layer relu1_1
I0220 18:53:49.451803 44746 net.cpp:406] relu1_1 <- conv1_1
I0220 18:53:49.451810 44746 net.cpp:367] relu1_1 -> conv1_1 (in-place)
I0220 18:53:49.453006 44746 net.cpp:122] Setting up relu1_1
I0220 18:53:49.453022 44746 net.cpp:129] Top shape: 1 64 60 160 (614400)
I0220 18:53:49.453027 44746 net.cpp:137] Memory required for data: 4956080
I0220 18:53:49.453032 44746 layer_factory.hpp:77] Creating layer conv1_2
I0220 18:53:49.453049 44746 net.cpp:84] Creating Layer conv1_2
I0220 18:53:49.453053 44746 net.cpp:406] conv1_2 <- conv1_1
I0220 18:53:49.453060 44746 net.cpp:380] conv1_2 -> conv1_2
I0220 18:53:49.457644 44746 net.cpp:122] Setting up conv1_2
I0220 18:53:49.457661 44746 net.cpp:129] Top shape: 1 64 60 160 (614400)
I0220 18:53:49.457665 44746 net.cpp:137] Memory required for data: 7413680
I0220 18:53:49.457676 44746 layer_factory.hpp:77] Creating layer relu1_2
I0220 18:53:49.457684 44746 net.cpp:84] Creating Layer relu1_2
I0220 18:53:49.457690 44746 net.cpp:406] relu1_2 <- conv1_2
I0220 18:53:49.457697 44746 net.cpp:367] relu1_2 -> conv1_2 (in-place)
I0220 18:53:49.457924 44746 net.cpp:122] Setting up relu1_2
I0220 18:53:49.457933 44746 net.cpp:129] Top shape: 1 64 60 160 (614400)
I0220 18:53:49.457937 44746 net.cpp:137] Memory required for data: 9871280
I0220 18:53:49.457942 44746 layer_factory.hpp:77] Creating layer pool1
I0220 18:53:49.457952 44746 net.cpp:84] Creating Layer pool1
I0220 18:53:49.457955 44746 net.cpp:406] pool1 <- conv1_2
I0220 18:53:49.457962 44746 net.cpp:380] pool1 -> pool1
I0220 18:53:49.458011 44746 net.cpp:122] Setting up pool1
I0220 18:53:49.458019 44746 net.cpp:129] Top shape: 1 64 30 80 (153600)
I0220 18:53:49.458021 44746 net.cpp:137] Memory required for data: 10485680
I0220 18:53:49.458025 44746 layer_factory.hpp:77] Creating layer conv2_1
I0220 18:53:49.458037 44746 net.cpp:84] Creating Layer conv2_1
I0220 18:53:49.458041 44746 net.cpp:406] conv2_1 <- pool1
I0220 18:53:49.458048 44746 net.cpp:380] conv2_1 -> conv2_1
I0220 18:53:49.467072 44746 net.cpp:122] Setting up conv2_1
I0220 18:53:49.467092 44746 net.cpp:129] Top shape: 1 128 30 80 (307200)
I0220 18:53:49.467097 44746 net.cpp:137] Memory required for data: 11714480
I0220 18:53:49.467111 44746 layer_factory.hpp:77] Creating layer relu2_1
I0220 18:53:49.467121 44746 net.cpp:84] Creating Layer relu2_1
I0220 18:53:49.467126 44746 net.cpp:406] relu2_1 <- conv2_1
I0220 18:53:49.467133 44746 net.cpp:367] relu2_1 -> conv2_1 (in-place)
I0220 18:53:49.467386 44746 net.cpp:122] Setting up relu2_1
I0220 18:53:49.467396 44746 net.cpp:129] Top shape: 1 128 30 80 (307200)
I0220 18:53:49.467401 44746 net.cpp:137] Memory required for data: 12943280
I0220 18:53:49.467406 44746 layer_factory.hpp:77] Creating layer conv2_2
I0220 18:53:49.467417 44746 net.cpp:84] Creating Layer conv2_2
I0220 18:53:49.467422 44746 net.cpp:406] conv2_2 <- conv2_1
I0220 18:53:49.467430 44746 net.cpp:380] conv2_2 -> conv2_2
I0220 18:53:49.475154 44746 net.cpp:122] Setting up conv2_2
I0220 18:53:49.475173 44746 net.cpp:129] Top shape: 1 128 30 80 (307200)
I0220 18:53:49.475178 44746 net.cpp:137] Memory required for data: 14172080
I0220 18:53:49.475186 44746 layer_factory.hpp:77] Creating layer relu2_2
I0220 18:53:49.475194 44746 net.cpp:84] Creating Layer relu2_2
I0220 18:53:49.475199 44746 net.cpp:406] relu2_2 <- conv2_2
I0220 18:53:49.475206 44746 net.cpp:367] relu2_2 -> conv2_2 (in-place)
I0220 18:53:49.476440 44746 net.cpp:122] Setting up relu2_2
I0220 18:53:49.476456 44746 net.cpp:129] Top shape: 1 128 30 80 (307200)
I0220 18:53:49.476460 44746 net.cpp:137] Memory required for data: 15400880
I0220 18:53:49.476465 44746 layer_factory.hpp:77] Creating layer pool2
I0220 18:53:49.476474 44746 net.cpp:84] Creating Layer pool2
I0220 18:53:49.476477 44746 net.cpp:406] pool2 <- conv2_2
I0220 18:53:49.476486 44746 net.cpp:380] pool2 -> pool2
I0220 18:53:49.476541 44746 net.cpp:122] Setting up pool2
I0220 18:53:49.476547 44746 net.cpp:129] Top shape: 1 128 15 40 (76800)
I0220 18:53:49.476550 44746 net.cpp:137] Memory required for data: 15708080
I0220 18:53:49.476554 44746 layer_factory.hpp:77] Creating layer conv3_1
I0220 18:53:49.476568 44746 net.cpp:84] Creating Layer conv3_1
I0220 18:53:49.476572 44746 net.cpp:406] conv3_1 <- pool2
I0220 18:53:49.476578 44746 net.cpp:380] conv3_1 -> conv3_1
I0220 18:53:49.489024 44746 net.cpp:122] Setting up conv3_1
I0220 18:53:49.489040 44746 net.cpp:129] Top shape: 1 256 15 40 (153600)
I0220 18:53:49.489044 44746 net.cpp:137] Memory required for data: 16322480
I0220 18:53:49.489058 44746 layer_factory.hpp:77] Creating layer relu3_1
I0220 18:53:49.489066 44746 net.cpp:84] Creating Layer relu3_1
I0220 18:53:49.489071 44746 net.cpp:406] relu3_1 <- conv3_1
I0220 18:53:49.489079 44746 net.cpp:367] relu3_1 -> conv3_1 (in-place)
I0220 18:53:49.489327 44746 net.cpp:122] Setting up relu3_1
I0220 18:53:49.489341 44746 net.cpp:129] Top shape: 1 256 15 40 (153600)
I0220 18:53:49.489348 44746 net.cpp:137] Memory required for data: 16936880
I0220 18:53:49.489356 44746 layer_factory.hpp:77] Creating layer conv3_2
I0220 18:53:49.489377 44746 net.cpp:84] Creating Layer conv3_2
I0220 18:53:49.489384 44746 net.cpp:406] conv3_2 <- conv3_1
I0220 18:53:49.489397 44746 net.cpp:380] conv3_2 -> conv3_2
I0220 18:53:49.525442 44746 net.cpp:122] Setting up conv3_2
I0220 18:53:49.525466 44746 net.cpp:129] Top shape: 1 256 15 40 (153600)
I0220 18:53:49.525473 44746 net.cpp:137] Memory required for data: 17551280
I0220 18:53:49.525486 44746 layer_factory.hpp:77] Creating layer relu3_2
I0220 18:53:49.525497 44746 net.cpp:84] Creating Layer relu3_2
I0220 18:53:49.525504 44746 net.cpp:406] relu3_2 <- conv3_2
I0220 18:53:49.525514 44746 net.cpp:367] relu3_2 -> conv3_2 (in-place)
I0220 18:53:49.525864 44746 net.cpp:122] Setting up relu3_2
I0220 18:53:49.525878 44746 net.cpp:129] Top shape: 1 256 15 40 (153600)
I0220 18:53:49.525884 44746 net.cpp:137] Memory required for data: 18165680
I0220 18:53:49.525892 44746 layer_factory.hpp:77] Creating layer conv3_3
I0220 18:53:49.525910 44746 net.cpp:84] Creating Layer conv3_3
I0220 18:53:49.525916 44746 net.cpp:406] conv3_3 <- conv3_2
I0220 18:53:49.525929 44746 net.cpp:380] conv3_3 -> conv3_3
I0220 18:53:49.553622 44746 net.cpp:122] Setting up conv3_3
I0220 18:53:49.553639 44746 net.cpp:129] Top shape: 1 256 15 40 (153600)
I0220 18:53:49.553643 44746 net.cpp:137] Memory required for data: 18780080
I0220 18:53:49.553653 44746 layer_factory.hpp:77] Creating layer relu3_3
I0220 18:53:49.553660 44746 net.cpp:84] Creating Layer relu3_3
I0220 18:53:49.553664 44746 net.cpp:406] relu3_3 <- conv3_3
I0220 18:53:49.553674 44746 net.cpp:367] relu3_3 -> conv3_3 (in-place)
I0220 18:53:49.554857 44746 net.cpp:122] Setting up relu3_3
I0220 18:53:49.554872 44746 net.cpp:129] Top shape: 1 256 15 40 (153600)
I0220 18:53:49.554875 44746 net.cpp:137] Memory required for data: 19394480
I0220 18:53:49.554880 44746 layer_factory.hpp:77] Creating layer conv3_4
I0220 18:53:49.554895 44746 net.cpp:84] Creating Layer conv3_4
I0220 18:53:49.554904 44746 net.cpp:406] conv3_4 <- conv3_3
I0220 18:53:49.554913 44746 net.cpp:380] conv3_4 -> conv3_4
I0220 18:53:49.578641 44746 net.cpp:122] Setting up conv3_4
I0220 18:53:49.578657 44746 net.cpp:129] Top shape: 1 256 15 40 (153600)
I0220 18:53:49.578662 44746 net.cpp:137] Memory required for data: 20008880
I0220 18:53:49.578670 44746 layer_factory.hpp:77] Creating layer relu3_4
I0220 18:53:49.578681 44746 net.cpp:84] Creating Layer relu3_4
I0220 18:53:49.578685 44746 net.cpp:406] relu3_4 <- conv3_4
I0220 18:53:49.578692 44746 net.cpp:367] relu3_4 -> conv3_4 (in-place)
I0220 18:53:49.578940 44746 net.cpp:122] Setting up relu3_4
I0220 18:53:49.578949 44746 net.cpp:129] Top shape: 1 256 15 40 (153600)
I0220 18:53:49.578953 44746 net.cpp:137] Memory required for data: 20623280
I0220 18:53:49.578958 44746 layer_factory.hpp:77] Creating layer conv3_5
I0220 18:53:49.578970 44746 net.cpp:84] Creating Layer conv3_5
I0220 18:53:49.578974 44746 net.cpp:406] conv3_5 <- conv3_4
I0220 18:53:49.578985 44746 net.cpp:380] conv3_5 -> conv3_5
I0220 18:53:49.602607 44746 net.cpp:122] Setting up conv3_5
I0220 18:53:49.602624 44746 net.cpp:129] Top shape: 1 256 15 40 (153600)
I0220 18:53:49.602629 44746 net.cpp:137] Memory required for data: 21237680
I0220 18:53:49.602643 44746 layer_factory.hpp:77] Creating layer relu3_5
I0220 18:53:49.602651 44746 net.cpp:84] Creating Layer relu3_5
I0220 18:53:49.602656 44746 net.cpp:406] relu3_5 <- conv3_5
I0220 18:53:49.602663 44746 net.cpp:367] relu3_5 -> conv3_5 (in-place)
I0220 18:53:49.602916 44746 net.cpp:122] Setting up relu3_5
I0220 18:53:49.602926 44746 net.cpp:129] Top shape: 1 256 15 40 (153600)
I0220 18:53:49.602931 44746 net.cpp:137] Memory required for data: 21852080
I0220 18:53:49.602934 44746 layer_factory.hpp:77] Creating layer conv3_6
I0220 18:53:49.602947 44746 net.cpp:84] Creating Layer conv3_6
I0220 18:53:49.602952 44746 net.cpp:406] conv3_6 <- conv3_5
I0220 18:53:49.602960 44746 net.cpp:380] conv3_6 -> conv3_6
I0220 18:53:49.635752 44746 net.cpp:122] Setting up conv3_6
I0220 18:53:49.635777 44746 net.cpp:129] Top shape: 1 256 15 40 (153600)
I0220 18:53:49.635784 44746 net.cpp:137] Memory required for data: 22466480
I0220 18:53:49.635797 44746 layer_factory.hpp:77] Creating layer relu3_6
I0220 18:53:49.635808 44746 net.cpp:84] Creating Layer relu3_6
I0220 18:53:49.635815 44746 net.cpp:406] relu3_6 <- conv3_6
I0220 18:53:49.635825 44746 net.cpp:367] relu3_6 -> conv3_6 (in-place)
I0220 18:53:49.636190 44746 net.cpp:122] Setting up relu3_6
I0220 18:53:49.636204 44746 net.cpp:129] Top shape: 1 256 15 40 (153600)
I0220 18:53:49.636211 44746 net.cpp:137] Memory required for data: 23080880
I0220 18:53:49.636217 44746 layer_factory.hpp:77] Creating layer conv4_1
I0220 18:53:49.636235 44746 net.cpp:84] Creating Layer conv4_1
I0220 18:53:49.636242 44746 net.cpp:406] conv4_1 <- conv3_6
I0220 18:53:49.636252 44746 net.cpp:380] conv4_1 -> conv4_1
I0220 18:53:49.685364 44746 net.cpp:122] Setting up conv4_1
I0220 18:53:49.685380 44746 net.cpp:129] Top shape: 1 512 15 40 (307200)
I0220 18:53:49.685384 44746 net.cpp:137] Memory required for data: 24309680
I0220 18:53:49.685391 44746 layer_factory.hpp:77] Creating layer relu4_1
I0220 18:53:49.685400 44746 net.cpp:84] Creating Layer relu4_1
I0220 18:53:49.685405 44746 net.cpp:406] relu4_1 <- conv4_1
I0220 18:53:49.685410 44746 net.cpp:367] relu4_1 -> conv4_1 (in-place)
I0220 18:53:49.686497 44746 net.cpp:122] Setting up relu4_1
I0220 18:53:49.686511 44746 net.cpp:129] Top shape: 1 512 15 40 (307200)
I0220 18:53:49.686514 44746 net.cpp:137] Memory required for data: 25538480
I0220 18:53:49.686518 44746 layer_factory.hpp:77] Creating layer conv4_2
I0220 18:53:49.686532 44746 net.cpp:84] Creating Layer conv4_2
I0220 18:53:49.686537 44746 net.cpp:406] conv4_2 <- conv4_1
I0220 18:53:49.686542 44746 net.cpp:380] conv4_2 -> conv4_2
I0220 18:53:50.088899 44746 net.cpp:122] Setting up conv4_2
I0220 18:53:50.088943 44746 net.cpp:129] Top shape: 1 512 15 40 (307200)
I0220 18:53:50.088948 44746 net.cpp:137] Memory required for data: 26767280
I0220 18:53:50.088968 44746 layer_factory.hpp:77] Creating layer relu4_2
I0220 18:53:50.088989 44746 net.cpp:84] Creating Layer relu4_2
I0220 18:53:50.088996 44746 net.cpp:406] relu4_2 <- conv4_2
I0220 18:53:50.089005 44746 net.cpp:367] relu4_2 -> conv4_2 (in-place)
I0220 18:53:50.089267 44746 net.cpp:122] Setting up relu4_2
I0220 18:53:50.089277 44746 net.cpp:129] Top shape: 1 512 15 40 (307200)
I0220 18:53:50.089282 44746 net.cpp:137] Memory required for data: 27996080
I0220 18:53:50.089287 44746 layer_factory.hpp:77] Creating layer conv4_3
I0220 18:53:50.089304 44746 net.cpp:84] Creating Layer conv4_3
I0220 18:53:50.089309 44746 net.cpp:406] conv4_3 <- conv4_2
I0220 18:53:50.089319 44746 net.cpp:380] conv4_3 -> conv4_3
I0220 18:53:50.173764 44746 net.cpp:122] Setting up conv4_3
I0220 18:53:50.173790 44746 net.cpp:129] Top shape: 1 512 15 40 (307200)
I0220 18:53:50.173794 44746 net.cpp:137] Memory required for data: 29224880
I0220 18:53:50.173804 44746 layer_factory.hpp:77] Creating layer relu4_3
I0220 18:53:50.173815 44746 net.cpp:84] Creating Layer relu4_3
I0220 18:53:50.173820 44746 net.cpp:406] relu4_3 <- conv4_3
I0220 18:53:50.173830 44746 net.cpp:367] relu4_3 -> conv4_3 (in-place)
I0220 18:53:50.174093 44746 net.cpp:122] Setting up relu4_3
I0220 18:53:50.174103 44746 net.cpp:129] Top shape: 1 512 15 40 (307200)
I0220 18:53:50.174106 44746 net.cpp:137] Memory required for data: 30453680
I0220 18:53:50.174110 44746 layer_factory.hpp:77] Creating layer tpp5
I0220 18:53:50.174124 44746 net.cpp:84] Creating Layer tpp5
I0220 18:53:50.174127 44746 net.cpp:406] tpp5 <- conv4_3
I0220 18:53:50.174134 44746 net.cpp:380] tpp5 -> tpp5
I0220 18:53:50.174693 44746 net.cpp:122] Setting up tpp5
I0220 18:53:50.174705 44746 net.cpp:129] Top shape: 1 7680 (7680)
I0220 18:53:50.174708 44746 net.cpp:137] Memory required for data: 30484400
I0220 18:53:50.174712 44746 layer_factory.hpp:77] Creating layer fc6
I0220 18:53:50.174722 44746 net.cpp:84] Creating Layer fc6
I0220 18:53:50.174727 44746 net.cpp:406] fc6 <- tpp5
I0220 18:53:50.174736 44746 net.cpp:380] fc6 -> fc6
I0220 18:53:51.218354 44746 net.cpp:122] Setting up fc6
I0220 18:53:51.218395 44746 net.cpp:129] Top shape: 1 4096 (4096)
I0220 18:53:51.218400 44746 net.cpp:137] Memory required for data: 30500784
I0220 18:53:51.218410 44746 layer_factory.hpp:77] Creating layer relu6
I0220 18:53:51.218425 44746 net.cpp:84] Creating Layer relu6
I0220 18:53:51.218432 44746 net.cpp:406] relu6 <- fc6
I0220 18:53:51.218442 44746 net.cpp:367] relu6 -> fc6 (in-place)
I0220 18:53:51.219859 44746 net.cpp:122] Setting up relu6
I0220 18:53:51.219872 44746 net.cpp:129] Top shape: 1 4096 (4096)
I0220 18:53:51.219877 44746 net.cpp:137] Memory required for data: 30517168
I0220 18:53:51.219880 44746 layer_factory.hpp:77] Creating layer drop6
I0220 18:53:51.219890 44746 net.cpp:84] Creating Layer drop6
I0220 18:53:51.219894 44746 net.cpp:406] drop6 <- fc6
I0220 18:53:51.219907 44746 net.cpp:367] drop6 -> fc6 (in-place)
I0220 18:53:51.219941 44746 net.cpp:122] Setting up drop6
I0220 18:53:51.219946 44746 net.cpp:129] Top shape: 1 4096 (4096)
I0220 18:53:51.219949 44746 net.cpp:137] Memory required for data: 30533552
I0220 18:53:51.219954 44746 layer_factory.hpp:77] Creating layer fc7
I0220 18:53:51.219961 44746 net.cpp:84] Creating Layer fc7
I0220 18:53:51.219964 44746 net.cpp:406] fc7 <- fc6
I0220 18:53:51.219971 44746 net.cpp:380] fc7 -> fc7
I0220 18:53:51.732900 44746 net.cpp:122] Setting up fc7
I0220 18:53:51.732942 44746 net.cpp:129] Top shape: 1 4096 (4096)
I0220 18:53:51.732947 44746 net.cpp:137] Memory required for data: 30549936
I0220 18:53:51.732959 44746 layer_factory.hpp:77] Creating layer relu7
I0220 18:53:51.732975 44746 net.cpp:84] Creating Layer relu7
I0220 18:53:51.732981 44746 net.cpp:406] relu7 <- fc7
I0220 18:53:51.732990 44746 net.cpp:367] relu7 -> fc7 (in-place)
I0220 18:53:51.733301 44746 net.cpp:122] Setting up relu7
I0220 18:53:51.733309 44746 net.cpp:129] Top shape: 1 4096 (4096)
I0220 18:53:51.733314 44746 net.cpp:137] Memory required for data: 30566320
I0220 18:53:51.733317 44746 layer_factory.hpp:77] Creating layer drop7
I0220 18:53:51.733338 44746 net.cpp:84] Creating Layer drop7
I0220 18:53:51.733342 44746 net.cpp:406] drop7 <- fc7
I0220 18:53:51.733350 44746 net.cpp:367] drop7 -> fc7 (in-place)
I0220 18:53:51.733381 44746 net.cpp:122] Setting up drop7
I0220 18:53:51.733386 44746 net.cpp:129] Top shape: 1 4096 (4096)
I0220 18:53:51.733389 44746 net.cpp:137] Memory required for data: 30582704
I0220 18:53:51.733392 44746 layer_factory.hpp:77] Creating layer fc8
I0220 18:53:51.733403 44746 net.cpp:84] Creating Layer fc8
I0220 18:53:51.733407 44746 net.cpp:406] fc8 <- fc7
I0220 18:53:51.733412 44746 net.cpp:380] fc8 -> fc8
I0220 18:53:51.874266 44746 net.cpp:122] Setting up fc8
I0220 18:53:51.874305 44746 net.cpp:129] Top shape: 1 618 (618)
I0220 18:53:51.874308 44746 net.cpp:137] Memory required for data: 30585176
I0220 18:53:51.874318 44746 layer_factory.hpp:77] Creating layer loss
I0220 18:53:51.874334 44746 net.cpp:84] Creating Layer loss
I0220 18:53:51.874341 44746 net.cpp:406] loss <- fc8
I0220 18:53:51.874347 44746 net.cpp:406] loss <- phocs
I0220 18:53:51.874353 44746 net.cpp:380] loss -> loss
I0220 18:53:51.874406 44746 net.cpp:122] Setting up loss
…
  phase: TEST
}
layer {
  name: "word_images"
  type: "Data"
  top: "word_images"
  top: "label"
  transform_param {
    scale: -0.0039215689
    mean_value: 255
  }
  data_param {
    source: "/data/fwolf/iam_60x160/iam-db_nti500000_pul2-3-4-5_test_word_images_lmdb"
    batch_size: 1
    backend: LMDB
    prefetch: 20
  }
}
layer {
  name: "phocs"
  type: "Data"
  top: "phocs"
  top: "label_phocs"
  data_param {
    source: "/data/fwolf/iam_60x160/iam-db_nti500000_pul2-3-4-5_test_phocs_lmdb"
    batch_size: 1
    backend: LMDB
    prefetch: 20
  }
}
layer {
  name: "conv1_1"
  type: "Convolution"
  bottom: "word_images"
  top: "conv1_1"
  convolution_param {
    num_output: 64
    pad: 1
    kernel_size: 3
    stride: 1
    weight_filler {
      type: "msra"
    }
    bias_filler {
      type: "constant"
    }
    engine: CUDNN
  }
}
layer {
  name: "relu1_1"
  type: "ReLU"
  bottom: "conv1_1"
  top: "conv1_1"
}
layer {
  name: "conv1_2"
  type: "Convolution"
  bottom: "conv1_1"
  top: "conv1_2"
  convolution_param {
    num_output: 64
    pad: 1
    kernel_size: 3
    stride: 1
    weight_filler {
      type: "msra"
    }
    bias_filler {
      type: "constant"
    }
    engine: CUDNN
  }
}
layer {
  name: "relu1_2"
  type: "ReLU"
  bottom: "conv1_2"
  top: "conv1_2"
}
layer {
  name: "pool1"
  type: "Pooling"
  bottom: "conv1_2"
  top: "pool1"
  pooling_param {
    pool: MAX
    kernel_size: 2
    stride: 2
  }
}
layer {
  name: "conv2_1"
  type: "Convolution"
  bottom: "pool1"
  top: "conv2_1"
  convolution_param {
    num_output: 128
    pad: 1
    kernel_size: 3
    stride: 1
    weight_filler {
      type: "msra"
    }
    bias_filler {
      type: "constant"
    }
    engine: CUDNN
  }
}
layer {
  name: "relu2_1"
  type: "ReLU"
  bottom: "conv2_1"
  top: "conv2_1"
}
layer {
  name: "conv2_2"
  type: "Convolution"
  bottom: "conv2_1"
  top: "conv2_2"
  convolution_param {
    num_output: 128
    pad: 1
    kernel_size: 3
    stride: 1
    weight_filler {
      type: "msra"
    }
    bias_filler {
      type: "constant"
    }
    engine: CUDNN
  }
}
layer {
  name: "relu2_2"
  type: "ReLU"
  bottom: "conv2_2"
  top: "conv2_2"
}
layer {
  name: "pool2"
  type: "Pooling"
  bottom: "conv2_2"
  top: "pool2"
  pooling_param {
    pool: MAX
    kernel_size: 2
    stride: 2
  }
}
layer {
  name: "conv3_1"
  type: "Convolution"
  bottom: "pool2"
  top: "conv3_1"
  convolution_param {
    num_output: 256
    pad: 1
    kernel_size: 3
    stride: 1
    weight_filler {
      type: "msra"
    }
    bias_filler {
      type: "constant"
    }
    engine: CUDNN
  }
}
layer {
  name: "relu3_1"
  type: "ReLU"
  bottom: "conv3_1"
  top: "conv3_1"
}
layer {
  name: "conv3_2"
  type: "Convolution"
  bottom: "conv3_1"
  top: "conv3_2"
  convolution_param {
    num_output: 256
    pad: 1
    kernel_size: 3
    stride: 1
    weight_filler {
      type: "msra"
    }
    bias_filler {
      type: "constant"
    }
    engine: CUDNN
  }
}
layer {
  name: "relu3_2"
  type: "ReLU"
  bottom: "conv3_2"
  top: "conv3_2"
}
layer {
  name: "conv3_3"
  type: "Convolution"
  bottom: "conv3_2"
  top: "conv3_3"
  convolution_param {
    num_output: 256
    pad: 1
    kernel_size: 3
    stride: 1
    weight_filler {
      type: "msra"
    }
    bias_filler {
      type: "constant"
    }
    engine: CUDNN
  }
}
layer {
  name: "relu3_3"
  type: "ReLU"
  bottom: "conv3_3"
  top: "conv3_3"
}
layer {
  name: "conv3_4"
  type: "Convolution"
  bottom: "conv3_3"
  top: "conv3_4"
  convolution_param {
    num_output: 256
    pad: 1
    kernel_size: 3
    stride: 1
    weight_filler {
      type: "msra"
    }
    bias_filler {
      type: "constant"
    }
    engine: CUDNN
  }
}
layer {
  name: "relu3_4"
  type: "ReLU"
  bottom: "conv3_4"
  top: "conv3_4"
}
layer {
  name: "conv3_5"
  type: "Convolution"
  bottom: "conv3_4"
  top: "conv3_5"
  convolution_param {
    num_output: 256
    pad: 1
    kernel_size: 3
    stride: 1
    weight_filler {
      type: "msra"
    }
    bias_filler {
      type: "constant"
    }
    engine: CUDNN
  }
}
layer {
  name: "relu3_5"
  type: "ReLU"
  bottom: "conv3_5"
  top: "conv3_5"
}
layer {
  name: "conv3_6"
  type: "Convolution"
  bottom: "conv3_5"
  top: "conv3_6"
  convolution_param {
    num_output: 256
    pad: 1
    kernel_size: 3
    stride: 1
    weight_filler {
      type: "msra"
    }
    bias_filler {
      type: "constant"
    }
    engine: CUDNN
  }
}
layer {
  name: "relu3_6"
  type: "ReLU"
  bottom: "conv3_6"
  top: "conv3_6"
}
layer {
  name: "conv4_1"
  type: "Convolution"
  bottom: "conv3_6"
  top: "conv4_1"
  convolution_param {
    num_output: 512
    pad: 1
    kernel_size: 3
    stride: 1
    weight_filler {
      type: "msra"
    }
    bias_filler {
      type: "constant"
    }
    engine: CUDNN
  }
}
layer {
  name: "relu4_1"
  type: "ReLU"
  bottom: "conv4_1"
  top: "conv4_1"
}
layer {
  name: "conv4_2"
  type: "Convolution"
  bottom: "conv4_1"
  top: "conv4_2"
  convolution_param {
    num_output: 512
    pad: 1
    kernel_size: 3
    stride: 1
    weight_filler {
      type: "msra"
    }
    bias_filler {
      type: "constant"
    }
    engine: CUDNN
  }
}
layer {
  name: "relu4_2"
  type: "ReLU"
  bottom: "conv4_2"
  top: "conv4_2"
}
layer {
  name: "conv4_3"
  type: "Convolution"
  bottom: "conv4_2"
  top: "conv4_3"
  convolution_param {
    num_output: 512
    pad: 1
    kernel_size: 3
    stride: 1
    weight_filler {
      type: "msra"
    }
    bias_filler {
      type: "constant"
    }
    engine: CUDNN
  }
}
layer {
  name: "relu4_3"
  type: "ReLU"
  bottom: "conv4_3"
  top: "conv4_3"
}
layer {
  name: "tpp5"
  type: "TPP"
  bottom: "conv4_3"
  top: "tpp5"
  tpp_param {
    pyramid_layer: 1
    pyramid_layer: 2
    pyramid_layer: 3
    pyramid_layer: 4
    pyramid_layer: 5
    pool: MAX
    engine: CUDNN
  }
}
layer {
  name: "fc6"
  type: "InnerProduct"
  bottom: "tpp5"
  top: "fc6"
  inner_product_param {
    num_output: 4096
    weight_filler {
      type: "msra"
    }
    bias_filler {
      type: "constant"
    }
  }
}
layer {
  name: "relu6"
  type: "ReLU"
  bottom: "fc6"
  top: "fc6"
}
layer {
  name: "fc7"
  type: "InnerProduct"
  bottom: "fc6"
  top: "fc7"
  inner_product_param {
    num_output: 4096
    weight_filler {
      type: "msra"
    }
    bias_filler {
      type: "constant"
    }
  }
}
layer {
  name: "relu7"
  type: "ReLU"
  bottom: "fc7"
  top: "fc7"
}
layer {
  name: "fc8"
  type: "InnerProduct"
  bottom: "fc7"
  top: "fc8"
  inner_product_param {
    num_output: 618
    weight_filler {
      type: "msra"
    }
    bias_filler {
      type: "constant"
    }
  }
}
layer {
  name: "sigmoid"
  type: "Sigmoid"
  bottom: "fc8"
  top: "sigmoid"
  include {
    phase: TEST
  }
}
layer {
  name: "silence"
  type: "Silence"
  bottom: "sigmoid"
  include {
    phase: TEST
  }
}
layer {
  name: "loss"
  type: "SigmoidCrossEntropyLoss"
  bottom: "fc8"
  bottom: "phocs"
  top: "loss"
}
I0220 18:53:51.877763 44746 layer_factory.hpp:77] Creating layer word_images
I0220 18:53:51.877902 44746 db_lmdb.cpp:35] Opened lmdb /data/fwolf/iam_60x160/iam-db_nti500000_pul2-3-4-5_test_word_images_lmdb
I0220 18:53:51.877938 44746 net.cpp:84] Creating Layer word_images
I0220 18:53:51.877950 44746 net.cpp:380] word_images -> word_images
I0220 18:53:51.877972 44746 net.cpp:380] word_images -> label
I0220 18:53:51.878728 44746 data_layer.cpp:44] output data size: 1,1,60,160
I0220 18:53:51.882138 44746 net.cpp:122] Setting up word_images
I0220 18:53:51.882167 44746 net.cpp:129] Top shape: 1 1 60 160 (9600)
I0220 18:53:51.882179 44746 net.cpp:129] Top shape: 1 (1)
I0220 18:53:51.882185 44746 net.cpp:137] Memory required for data: 38404
I0220 18:53:51.882195 44746 layer_factory.hpp:77] Creating layer phocs
I0220 18:53:51.882314 44746 db_lmdb.cpp:35] Opened lmdb /data/fwolf/iam_60x160/iam-db_nti500000_pul2-3-4-5_test_phocs_lmdb
I0220 18:53:51.882344 44746 net.cpp:84] Creating Layer phocs
I0220 18:53:51.882355 44746 net.cpp:380] phocs -> phocs
I0220 18:53:51.882372 44746 net.cpp:380] phocs -> label_phocs
I0220 18:53:51.883144 44746 data_layer.cpp:44] output data size: 1,1,1,618
I0220 18:53:51.887055 44746 net.cpp:122] Setting up phocs
I0220 18:53:51.887080 44746 net.cpp:129] Top shape: 1 1 1 618 (618)
I0220 18:53:51.887090 44746 net.cpp:129] Top shape: 1 (1)
I0220 18:53:51.887097 44746 net.cpp:137] Memory required for data: 40880
I0220 18:53:51.887106 44746 layer_factory.hpp:77] Creating layer conv1_1
I0220 18:53:51.887132 44746 net.cpp:84] Creating Layer conv1_1
I0220 18:53:51.887141 44746 net.cpp:406] conv1_1 <- word_images
I0220 18:53:51.887158 44746 net.cpp:380] conv1_1 -> conv1_1
I0220 18:53:51.892053 44746 net.cpp:122] Setting up conv1_1
I0220 18:53:51.892082 44746 net.cpp:129] Top shape: 1 64 60 160 (614400)
I0220 18:53:51.892092 44746 net.cpp:137] Memory required for data: 2498480
I0220 18:53:51.892114 44746 layer_factory.hpp:77] Creating layer relu1_1
I0220 18:53:51.892133 44746 net.cpp:84] Creating Layer relu1_1
I0220 18:53:51.892141 44746 net.cpp:406] relu1_1 <- conv1_1
I0220 18:53:51.892155 44746 net.cpp:367] relu1_1 -> conv1_1 (in-place)
I0220 18:53:51.892771 44746 net.cpp:122] Setting up relu1_1
I0220 18:53:51.892792 44746 net.cpp:129] Top shape: 1 64 60 160 (614400)
I0220 18:53:51.892799 44746 net.cpp:137] Memory required for data: 4956080
I0220 18:53:51.892807 44746 layer_factory.hpp:77] Creating layer conv1_2
I0220 18:53:51.892829 44746 net.cpp:84] Creating Layer conv1_2
I0220 18:53:51.892838 44746 net.cpp:406] conv1_2 <- conv1_1
I0220 18:53:51.892853 44746 net.cpp:380] conv1_2 -> conv1_2
I0220 18:53:51.898433 44746 net.cpp:122] Setting up conv1_2
I0220 18:53:51.898459 44746 net.cpp:129] Top shape: 1 64 60 160 (614400)
I0220 18:53:51.898468 44746 net.cpp:137] Memory required for data: 7413680
I0220 18:53:51.898488 44746 layer_factory.hpp:77] Creating layer relu1_2
I0220 18:53:51.898502 44746 net.cpp:84] Creating Layer relu1_2
I0220 18:53:51.898509 44746 net.cpp:406] relu1_2 <- conv1_2
I0220 18:53:51.898521 44746 net.cpp:367] relu1_2 -> conv1_2 (in-place)
I0220 18:53:51.900486 44746 net.cpp:122] Setting up relu1_2
I0220 18:53:51.900511 44746 net.cpp:129] Top shape: 1 64 60 160 (614400)
I0220 18:53:51.900518 44746 net.cpp:137] Memory required for data: 9871280
I0220 18:53:51.900527 44746 layer_factory.hpp:77] Creating layer pool1
I0220 18:53:51.900539 44746 net.cpp:84] Creating Layer pool1
I0220 18:53:51.900547 44746 net.cpp:406] pool1 <- conv1_2
I0220 18:53:51.900562 44746 net.cpp:380] pool1 -> pool1
I0220 18:53:51.900672 44746 net.cpp:122] Setting up pool1
I0220 18:53:51.900686 44746 net.cpp:129] Top shape: 1 64 30 80 (153600)
I0220 18:53:51.900692 44746 net.cpp:137] Memory required for data: 10485680
I0220 18:53:51.900699 44746 layer_factory.hpp:77] Creating layer conv2_1
I0220 18:53:51.900730 44746 net.cpp:84] Creating Layer conv2_1
I0220 18:53:51.900741 44746 net.cpp:406] conv2_1 <- pool1
I0220 18:53:51.900753 44746 net.cpp:380] conv2_1 -> conv2_1
I0220 18:53:51.911228 44746 net.cpp:122] Setting up conv2_1
I0220 18:53:51.911262 44746 net.cpp:129] Top shape: 1 128 30 80 (307200)
I0220 18:53:51.911268 44746 net.cpp:137] Memory required for data: 11714480
I0220 18:53:51.911293 44746 layer_factory.hpp:77] Creating layer relu2_1
I0220 18:53:51.911309 44746 net.cpp:84] Creating Layer relu2_1
I0220 18:53:51.911316 44746 net.cpp:406] relu2_1 <- conv2_1
I0220 18:53:51.911330 44746 net.cpp:367] relu2_1 -> conv2_1 (in-place)
I0220 18:53:51.911715 44746 net.cpp:122] Setting up relu2_1
I0220 18:53:51.911731 44746 net.cpp:129] Top shape: 1 128 30 80 (307200)
I0220 18:53:51.911738 44746 net.cpp:137] Memory required for data: 12943280
I0220 18:53:51.911744 44746 layer_factory.hpp:77] Creating layer conv2_2
I0220 18:53:51.911763 44746 net.cpp:84] Creating Layer conv2_2
I0220 18:53:51.911770 44746 net.cpp:406] conv2_2 <- conv2_1
I0220 18:53:51.911785 44746 net.cpp:380] conv2_2 -> conv2_2
I0220 18:53:51.923276 44746 net.cpp:122] Setting up conv2_2
I0220 18:53:51.923301 44746 net.cpp:129] Top shape: 1 128 30 80 (307200)
I0220 18:53:51.923307 44746 net.cpp:137] Memory required for data: 14172080
I0220 18:53:51.923321 44746 layer_factory.hpp:77] Creating layer relu2_2
I0220 18:53:51.923332 44746 net.cpp:84] Creating Layer relu2_2
I0220 18:53:51.923339 44746 net.cpp:406] relu2_2 <- conv2_2
I0220 18:53:51.923348 44746 net.cpp:367] relu2_2 -> conv2_2 (in-place)
I0220 18:53:51.923712 44746 net.cpp:122] Setting up relu2_2
I0220 18:53:51.923727 44746 net.cpp:129] Top shape: 1 128 30 80 (307200)
I0220 18:53:51.923732 44746 net.cpp:137] Memory required for data: 15400880
I0220 18:53:51.923739 44746 layer_factory.hpp:77] Creating layer pool2
I0220 18:53:51.923753 44746 net.cpp:84] Creating Layer pool2
I0220 18:53:51.923758 44746 net.cpp:406] pool2 <- conv2_2
I0220 18:53:51.923768 44746 net.cpp:380] pool2 -> pool2
I0220 18:53:51.923851 44746 net.cpp:122] Setting up pool2
I0220 18:53:51.923862 44746 net.cpp:129] Top shape: 1 128 15 40 (76800)
I0220 18:53:51.923868 44746 net.cpp:137] Memory required for data: 15708080
I0220 18:53:51.923873 44746 layer_factory.hpp:77] Creating layer conv3_1
I0220 18:53:51.923892 44746 net.cpp:84] Creating Layer conv3_1
I0220 18:53:51.923898 44746 net.cpp:406] conv3_1 <- pool2
I0220 18:53:51.923908 44746 net.cpp:380] conv3_1 -> conv3_1
I0220 18:53:51.941068 44746 net.cpp:122] Setting up conv3_1
I0220 18:53:51.941090 44746 net.cpp:129] Top shape: 1 256 15 40 (153600)
I0220 18:53:51.941095 44746 net.cpp:137] Memory required for data: 16322480
I0220 18:53:51.941110 44746 layer_factory.hpp:77] Creating layer relu3_1
I0220 18:53:51.941121 44746 net.cpp:84] Creating Layer relu3_1
I0220 18:53:51.941128 44746 net.cpp:406] relu3_1 <- conv3_1
I0220 18:53:51.941138 44746 net.cpp:367] relu3_1 -> conv3_1 (in-place)
I0220 18:53:51.942692 44746 net.cpp:122] Setting up relu3_1
I0220 18:53:51.942711 44746 net.cpp:129] Top shape: 1 256 15 40 (153600)
I0220 18:53:51.942716 44746 net.cpp:137] Memory required for data: 16936880
I0220 18:53:51.942723 44746 layer_factory.hpp:77] Creating layer conv3_2
I0220 18:53:51.942742 44746 net.cpp:84] Creating Layer conv3_2
I0220 18:53:51.942749 44746 net.cpp:406] conv3_2 <- conv3_1
I0220 18:53:51.942759 44746 net.cpp:380] conv3_2 -> conv3_2
I0220 18:53:51.973292 44746 net.cpp:122] Setting up conv3_2
I0220 18:53:51.973315 44746 net.cpp:129] Top shape: 1 256 15 40 (153600)
I0220 18:53:51.973320 44746 net.cpp:137] Memory required for data: 17551280
I0220 18:53:51.973333 44746 layer_factory.hpp:77] Creating layer relu3_2
I0220 18:53:51.973343 44746 net.cpp:84] Creating Layer relu3_2
I0220 18:53:51.973348 44746 net.cpp:406] relu3_2 <- conv3_2
I0220 18:53:51.973356 44746 net.cpp:367] relu3_2 -> conv3_2 (in-place)
I0220 18:53:51.973661 44746 net.cpp:122] Setting up relu3_2
I0220 18:53:51.973675 44746 net.cpp:129] Top shape: 1 256 15 40 (153600)
I0220 18:53:51.973678 44746 net.cpp:137] Memory required for data: 18165680
I0220 18:53:51.973685 44746 layer_factory.hpp:77] Creating layer conv3_3
I0220 18:53:51.973701 44746 net.cpp:84] Creating Layer conv3_3
I0220 18:53:51.973707 44746 net.cpp:406] conv3_3 <- conv3_2
I0220 18:53:51.973716 44746 net.cpp:380] conv3_3 -> conv3_3
I0220 18:53:52.000263 44746 net.cpp:122] Setting up conv3_3
I0220 18:53:52.000285 44746 net.cpp:129] Top shape: 1 256 15 40 (153600)
I0220 18:53:52.000290 44746 net.cpp:137] Memory required for data: 18780080
I0220 18:53:52.000299 44746 layer_factory.hpp:77] Creating layer relu3_3
I0220 18:53:52.000311 44746 net.cpp:84] Creating Layer relu3_3
I0220 18:53:52.000316 44746 net.cpp:406] relu3_3 <- conv3_3
I0220 18:53:52.000324 44746 net.cpp:367] relu3_3 -> conv3_3 (in-place)
I0220 18:53:52.000594 44746 net.cpp:122] Setting up relu3_3
I0220 18:53:52.000607 44746 net.cpp:129] Top shape: 1 256 15 40 (153600)
I0220 18:53:52.000610 44746 net.cpp:137] Memory required for data: 19394480
I0220 18:53:52.000615 44746 layer_factory.hpp:77] Creating layer conv3_4
I0220 18:53:52.000640 44746 net.cpp:84] Creating Layer conv3_4
I0220 18:53:52.000646 44746 net.cpp:406] conv3_4 <- conv3_3
I0220 18:53:52.000655 44746 net.cpp:380] conv3_4 -> conv3_4
I0220 18:53:52.024889 44746 net.cpp:122] Setting up conv3_4
I0220 18:53:52.024907 44746 net.cpp:129] Top shape: 1 256 15 40 (153600)
I0220 18:53:52.024912 44746 net.cpp:137] Memory required for data: 20008880
I0220 18:53:52.024921 44746 layer_factory.hpp:77] Creating layer relu3_4
I0220 18:53:52.024935 44746 net.cpp:84] Creating Layer relu3_4
I0220 18:53:52.024940 44746 net.cpp:406] relu3_4 <- conv3_4
I0220 18:53:52.024948 44746 net.cpp:367] relu3_4 -> conv3_4 (in-place)
I0220 18:53:52.025219 44746 net.cpp:122] Setting up relu3_4
I0220 18:53:52.025230 44746 net.cpp:129] Top shape: 1 256 15 40 (153600)
I0220 18:53:52.025235 44746 net.cpp:137] Memory required for data: 20623280
I0220 18:53:52.025239 44746 layer_factory.hpp:77] Creating layer conv3_5
I0220 18:53:52.025255 44746 net.cpp:84] Creating Layer conv3_5
I0220 18:53:52.025259 44746 net.cpp:406] conv3_5 <- conv3_4
I0220 18:53:52.025267 44746 net.cpp:380] conv3_5 -> conv3_5
I0220 18:53:52.049070 44746 net.cpp:122] Setting up conv3_5
I0220 18:53:52.049090 44746 net.cpp:129] Top shape: 1 256 15 40 (153600)
I0220 18:53:52.049094 44746 net.cpp:137] Memory required for data: 21237680
I0220 18:53:52.049108 44746 layer_factory.hpp:77] Creating layer relu3_5
I0220 18:53:52.049118 44746 net.cpp:84] Creating Layer relu3_5
I0220 18:53:52.049124 44746 net.cpp:406] relu3_5 <- conv3_5
I0220 18:53:52.049130 44746 net.cpp:367] relu3_5 -> conv3_5 (in-place)
I0220 18:53:52.050374 44746 net.cpp:122] Setting up relu3_5
I0220 18:53:52.050390 44746 net.cpp:129] Top shape: 1 256 15 40 (153600)
I0220 18:53:52.050395 44746 net.cpp:137] Memory required for data: 21852080
I0220 18:53:52.050400 44746 layer_factory.hpp:77] Creating layer conv3_6
I0220 18:53:52.050413 44746 net.cpp:84] Creating Layer conv3_6
I0220 18:53:52.050418 44746 net.cpp:406] conv3_6 <- conv3_5
I0220 18:53:52.050428 44746 net.cpp:380] conv3_6 -> conv3_6
I0220 18:53:52.074322 44746 net.cpp:122] Setting up conv3_6
I0220 18:53:52.074339 44746 net.cpp:129] Top shape: 1 256 15 40 (153600)
I0220 18:53:52.074344 44746 net.cpp:137] Memory required for data: 22466480
I0220 18:53:52.074353 44746 layer_factory.hpp:77] Creating layer relu3_6
I0220 18:53:52.074362 44746 net.cpp:84] Creating Layer relu3_6
I0220 18:53:52.074367 44746 net.cpp:406] relu3_6 <- conv3_6
I0220 18:53:52.074373 44746 net.cpp:367] relu3_6 -> conv3_6 (in-place)
I0220 18:53:52.074635 44746 net.cpp:122] Setting up relu3_6
I0220 18:53:52.074647 44746 net.cpp:129] Top shape: 1 256 15 40 (153600)
I0220 18:53:52.074651 44746 net.cpp:137] Memory required for data: 23080880
I0220 18:53:52.074656 44746 layer_factory.hpp:77] Creating layer conv4_1
I0220 18:53:52.074671 44746 net.cpp:84] Creating Layer conv4_1
I0220 18:53:52.074676 44746 net.cpp:406] conv4_1 <- conv3_6
I0220 18:53:52.074684 44746 net.cpp:380] conv4_1 -> conv4_1
I0220 18:53:52.118757 44746 net.cpp:122] Setting up conv4_1
I0220 18:53:52.118777 44746 net.cpp:129] Top shape: 1 512 15 40 (307200)
I0220 18:53:52.118782 44746 net.cpp:137] Memory required for data: 24309680
I0220 18:53:52.118793 44746 layer_factory.hpp:77] Creating layer relu4_1
I0220 18:53:52.118803 44746 net.cpp:84] Creating Layer relu4_1
I0220 18:53:52.118808 44746 net.cpp:406] relu4_1 <- conv4_1
I0220 18:53:52.118821 44746 net.cpp:367] relu4_1 -> conv4_1 (in-place)
I0220 18:53:52.119086 44746 net.cpp:122] Setting up relu4_1
I0220 18:53:52.119096 44746 net.cpp:129] Top shape: 1 512 15 40 (307200)
I0220 18:53:52.119101 44746 net.cpp:137] Memory required for data: 25538480
I0220 18:53:52.119105 44746 layer_factory.hpp:77] Creating layer conv4_2
I0220 18:53:52.119119 44746 net.cpp:84] Creating Layer conv4_2
I0220 18:53:52.119124 44746 net.cpp:406] conv4_2 <- conv4_1
I0220 18:53:52.119134 44746 net.cpp:380] conv4_2 -> conv4_2
I0220 18:53:52.206336 44746 net.cpp:122] Setting up conv4_2
I0220 18:53:52.206362 44746 net.cpp:129] Top shape: 1 512 15 40 (307200)
I0220 18:53:52.206367 44746 net.cpp:137] Memory required for data: 26767280
I0220 18:53:52.206377 44746 layer_factory.hpp:77] Creating layer relu4_2
I0220 18:53:52.206387 44746 net.cpp:84] Creating Layer relu4_2
I0220 18:53:52.206394 44746 net.cpp:406] relu4_2 <- conv4_2
I0220 18:53:52.206404 44746 net.cpp:367] relu4_2 -> conv4_2 (in-place)
I0220 18:53:52.207670 44746 net.cpp:122] Setting up relu4_2
I0220 18:53:52.207686 44746 net.cpp:129] Top shape: 1 512 15 40 (307200)
I0220 18:53:52.207690 44746 net.cpp:137] Memory required for data: 27996080
I0220 18:53:52.207695 44746 layer_factory.hpp:77] Creating layer conv4_3
I0220 18:53:52.207711 44746 net.cpp:84] Creating Layer conv4_3
I0220 18:53:52.207716 44746 net.cpp:406] conv4_3 <- conv4_2
I0220 18:53:52.207726 44746 net.cpp:380] conv4_3 -> conv4_3
I0220 18:53:52.291205 44746 net.cpp:122] Setting up conv4_3
I0220 18:53:52.291232 44746 net.cpp:129] Top shape: 1 512 15 40 (307200)
I0220 18:53:52.291237 44746 net.cpp:137] Memory required for data: 29224880
I0220 18:53:52.291247 44746 layer_factory.hpp:77] Creating layer relu4_3
I0220 18:53:52.291259 44746 net.cpp:84] Creating Layer relu4_3
I0220 18:53:52.291263 44746 net.cpp:406] relu4_3 <- conv4_3
I0220 18:53:52.291273 44746 net.cpp:367] relu4_3 -> conv4_3 (in-place)
I0220 18:53:52.291522 44746 net.cpp:122] Setting up relu4_3
I0220 18:53:52.291535 44746 net.cpp:129] Top shape: 1 512 15 40 (307200)
I0220 18:53:52.291540 44746 net.cpp:137] Memory required for data: 30453680
I0220 18:53:52.291545 44746 layer_factory.hpp:77] Creating layer tpp5
I0220 18:53:52.291554 44746 net.cpp:84] Creating Layer tpp5
I0220 18:53:52.291559 44746 net.cpp:406] tpp5 <- conv4_3
I0220 18:53:52.291566 44746 net.cpp:380] tpp5 -> tpp5
I0220 18:53:52.292181 44746 net.cpp:122] Setting up tpp5
I0220 18:53:52.292192 44746 net.cpp:129] Top shape: 1 7680 (7680)
I0220 18:53:52.292196 44746 net.cpp:137] Memory required for data: 30484400
I0220 18:53:52.292201 44746 layer_factory.hpp:77] Creating layer fc6
I0220 18:53:52.292213 44746 net.cpp:84] Creating Layer fc6
I0220 18:53:52.292218 44746 net.cpp:406] fc6 <- tpp5
I0220 18:53:52.292230 44746 net.cpp:380] fc6 -> fc6
I0220 18:53:53.291460 44746 net.cpp:122] Setting up fc6
I0220 18:53:53.291501 44746 net.cpp:129] Top shape: 1 4096 (4096)
I0220 18:53:53.291505 44746 net.cpp:137] Memory required for data: 30500784
I0220 18:53:53.291515 44746 layer_factory.hpp:77] Creating layer relu6
I0220 18:53:53.291529 44746 net.cpp:84] Creating Layer relu6
I0220 18:53:53.291535 44746 net.cpp:406] relu6 <- fc6
I0220 18:53:53.291545 44746 net.cpp:367] relu6 -> fc6 (in-place)
I0220 18:53:53.291857 44746 net.cpp:122] Setting up relu6
I0220 18:53:53.291870 44746 net.cpp:129] Top shape: 1 4096 (4096)
I0220 18:53:53.291874 44746 net.cpp:137] Memory required for data: 30517168
I0220 18:53:53.291878 44746 layer_factory.hpp:77] Creating layer fc7
I0220 18:53:53.291889 44746 net.cpp:84] Creating Layer fc7
I0220 18:53:53.291893 44746 net.cpp:406] fc7 <- fc6
I0220 18:53:53.291901 44746 net.cpp:380] fc7 -> fc7
I0220 18:53:53.810734 44746 net.cpp:122] Setting up fc7
I0220 18:53:53.810771 44746 net.cpp:129] Top shape: 1 4096 (4096)
I0220 18:53:53.810776 44746 net.cpp:137] Memory required for data: 30533552
I0220 18:53:53.810786 44746 layer_factory.hpp:77] Creating layer relu7
I0220 18:53:53.810797 44746 net.cpp:84] Creating Layer relu7
I0220 18:53:53.810803 44746 net.cpp:406] relu7 <- fc7
I0220 18:53:53.810817 44746 net.cpp:367] relu7 -> fc7 (in-place)
I0220 18:53:53.812274 44746 net.cpp:122] Setting up relu7
I0220 18:53:53.812289 44746 net.cpp:129] Top shape: 1 4096 (4096)
I0220 18:53:53.812294 44746 net.cpp:137] Memory required for data: 30549936
I0220 18:53:53.812299 44746 layer_factory.hpp:77] Creating layer fc8
I0220 18:53:53.812310 44746 net.cpp:84] Creating Layer fc8
I0220 18:53:53.812314 44746 net.cpp:406] fc8 <- fc7
I0220 18:53:53.812321 44746 net.cpp:380] fc8 -> fc8
I0220 18:53:53.889287 44746 net.cpp:122] Setting up fc8
I0220 18:53:53.889310 44746 net.cpp:129] Top shape: 1 618 (618)
I0220 18:53:53.889314 44746 net.cpp:137] Memory required for data: 30552408
I0220 18:53:53.889323 44746 layer_factory.hpp:77] Creating layer fc8_fc8_0_split
I0220 18:53:53.889333 44746 net.cpp:84] Creating Layer fc8_fc8_0_split
I0220 18:53:53.889338 44746 net.cpp:406] fc8_fc8_0_split <- fc8
I0220 18:53:53.889346 44746 net.cpp:380] fc8_fc8_0_split -> fc8_fc8_0_split_0
I0220 18:53:53.889355 44746 net.cpp:380] fc8_fc8_0_split -> fc8_fc8_0_split_1
I0220 18:53:53.889403 44746 net.cpp:122] Setting up fc8_fc8_0_split
I0220 18:53:53.889412 44746 net.cpp:129] Top shape: 1 618 (618)
I0220 18:53:53.889416 44746 net.cpp:129] Top shape: 1 618 (618)
I0220 18:53:53.889420 44746 net.cpp:137] Memory required for data: 30557352
I0220 18:53:53.889423 44746 layer_factory.hpp:77] Creating layer sigmoid
I0220 18:53:53.889433 44746 net.cpp:84] Creating Layer sigmoid
I0220 18:53:53.889436 44746 net.cpp:406] sigmoid <- fc8_fc8_0_split_0
I0220 18:53:53.889442 44746 net.cpp:380] sigmoid -> sigmoid
I0220 18:53:53.889740 44746 net.cpp:122] Setting up sigmoid
I0220 18:53:53.889751 44746 net.cpp:129] Top shape: 1 618 (618)
I0220 18:53:53.889755 44746 net.cpp:137] Memory required for data: 30559824
I0220 18:53:53.889760 44746 layer_factory.hpp:77] Creating layer silence
I0220 18:53:53.889766 44746 net.cpp:84] Creating Layer silence
I0220 18:53:53.889770 44746 net.cpp:406] silence <- sigmoid
I0220 18:53:53.889776 44746 net.cpp:122] Setting up silence
I0220 18:53:53.889780 44746 net.cpp:137] Memory required for data: 30559824
…
