…
  phase: TRAIN
}
layer {
  name: "word_images"
  type: "Data"
  top: "word_images"
  top: "label"
  transform_param {
    scale: -0.0039215689
    mean_value: 255
  }
  data_param {
    source: "/data/fwolf/iam_60x160/iam-db_nti500000_pul2-3-4-5_train_word_images_lmdb"
    batch_size: 1
    backend: LMDB
    prefetch: 20
  }
}
layer {
  name: "phocs"
  type: "Data"
  top: "phocs"
  top: "label_phocs"
  data_param {
    source: "/data/fwolf/iam_60x160/iam-db_nti500000_pul2-3-4-5_train_phocs_lmdb"
    batch_size: 1
    backend: LMDB
    prefetch: 20
  }
}
layer {
  name: "conv1_1"
  type: "Convolution"
  bottom: "word_images"
  top: "conv1_1"
  convolution_param {
    num_output: 64
    pad: 1
    kernel_size: 3
    stride: 1
    weight_filler {
      type: "msra"
    }
    bias_filler {
      type: "constant"
    }
    engine: CUDNN
  }
}
layer {
  name: "relu1_1"
  type: "ReLU"
  bottom: "conv1_1"
  top: "conv1_1"
}
layer {
  name: "conv1_2"
  type: "Convolution"
  bottom: "conv1_1"
  top: "conv1_2"
  convolution_param {
    num_output: 64
    pad: 1
    kernel_size: 3
    stride: 1
    weight_filler {
      type: "msra"
    }
    bias_filler {
      type: "constant"
    }
    engine: CUDNN
  }
}
layer {
  name: "relu1_2"
  type: "ReLU"
  bottom: "conv1_2"
  top: "conv1_2"
}
layer {
  name: "pool1"
  type: "Pooling"
  bottom: "conv1_2"
  top: "pool1"
  pooling_param {
    pool: MAX
    kernel_size: 2
    stride: 2
  }
}
layer {
  name: "conv2_1"
  type: "Convolution"
  bottom: "pool1"
  top: "conv2_1"
  convolution_param {
    num_output: 128
    pad: 1
    kernel_size: 3
    stride: 1
    weight_filler {
      type: "msra"
    }
    bias_filler {
      type: "constant"
    }
    engine: CUDNN
  }
}
layer {
  name: "relu2_1"
  type: "ReLU"
  bottom: "conv2_1"
  top: "conv2_1"
}
layer {
  name: "conv2_2"
  type: "Convolution"
  bottom: "conv2_1"
  top: "conv2_2"
  convolution_param {
    num_output: 128
    pad: 1
    kernel_size: 3
    stride: 1
    weight_filler {
      type: "msra"
    }
    bias_filler {
      type: "constant"
    }
    engine: CUDNN
  }
}
layer {
  name: "relu2_2"
  type: "ReLU"
  bottom: "conv2_2"
  top: "conv2_2"
}
layer {
  name: "pool2"
  type: "Pooling"
  bottom: "conv2_2"
  top: "pool2"
  pooling_param {
    pool: MAX
    kernel_size: 2
    stride: 2
  }
}
layer {
  name: "conv3_1"
  type: "Convolution"
  bottom: "pool2"
  top: "conv3_1"
  convolution_param {
    num_output: 256
    pad: 1
    kernel_size: 3
    stride: 1
    weight_filler {
      type: "msra"
    }
    bias_filler {
      type: "constant"
    }
    engine: CUDNN
  }
}
layer {
  name: "relu3_1"
  type: "ReLU"
  bottom: "conv3_1"
  top: "conv3_1"
}
layer {
  name: "conv3_2"
  type: "Convolution"
  bottom: "conv3_1"
  top: "conv3_2"
  convolution_param {
    num_output: 256
    pad: 1
    kernel_size: 3
    stride: 1
    weight_filler {
      type: "msra"
    }
    bias_filler {
      type: "constant"
    }
    engine: CUDNN
  }
}
layer {
  name: "relu3_2"
  type: "ReLU"
  bottom: "conv3_2"
  top: "conv3_2"
}
layer {
  name: "conv3_3"
  type: "Convolution"
  bottom: "conv3_2"
  top: "conv3_3"
  convolution_param {
    num_output: 256
    pad: 1
    kernel_size: 3
    stride: 1
    weight_filler {
      type: "msra"
    }
    bias_filler {
      type: "constant"
    }
    engine: CUDNN
  }
}
layer {
  name: "relu3_3"
  type: "ReLU"
  bottom: "conv3_3"
  top: "conv3_3"
}
layer {
  name: "conv3_4"
  type: "Convolution"
  bottom: "conv3_3"
  top: "conv3_4"
  convolution_param {
    num_output: 256
    pad: 1
    kernel_size: 3
    stride: 1
    weight_filler {
      type: "msra"
    }
    bias_filler {
      type: "constant"
    }
    engine: CUDNN
  }
}
layer {
  name: "relu3_4"
  type: "ReLU"
  bottom: "conv3_4"
  top: "conv3_4"
}
layer {
  name: "conv3_5"
  type: "Convolution"
  bottom: "conv3_4"
  top: "conv3_5"
  convolution_param {
    num_output: 256
    pad: 1
    kernel_size: 3
    stride: 1
    weight_filler {
      type: "msra"
    }
    bias_filler {
      type: "constant"
    }
    engine: CUDNN
  }
}
layer {
  name: "relu3_5"
  type: "ReLU"
  bottom: "conv3_5"
  top: "conv3_5"
}
layer {
  name: "conv3_6"
  type: "Convolution"
  bottom: "conv3_5"
  top: "conv3_6"
  convolution_param {
    num_output: 256
    pad: 1
    kernel_size: 3
    stride: 1
    weight_filler {
      type: "msra"
    }
    bias_filler {
      type: "constant"
    }
    engine: CUDNN
  }
}
layer {
  name: "relu3_6"
  type: "ReLU"
  bottom: "conv3_6"
  top: "conv3_6"
}
layer {
  name: "conv4_1"
  type: "Convolution"
  bottom: "conv3_6"
  top: "conv4_1"
  convolution_param {
    num_output: 512
    pad: 1
    kernel_size: 3
    stride: 1
    weight_filler {
      type: "msra"
    }
    bias_filler {
      type: "constant"
    }
    engine: CUDNN
  }
}
layer {
  name: "relu4_1"
  type: "ReLU"
  bottom: "conv4_1"
  top: "conv4_1"
}
layer {
  name: "conv4_2"
  type: "Convolution"
  bottom: "conv4_1"
  top: "conv4_2"
  convolution_param {
    num_output: 512
    pad: 1
    kernel_size: 3
    stride: 1
    weight_filler {
      type: "msra"
    }
    bias_filler {
      type: "constant"
    }
    engine: CUDNN
  }
}
layer {
  name: "relu4_2"
  type: "ReLU"
  bottom: "conv4_2"
  top: "conv4_2"
}
layer {
  name: "conv4_3"
  type: "Convolution"
  bottom: "conv4_2"
  top: "conv4_3"
  convolution_param {
    num_output: 512
    pad: 1
    kernel_size: 3
    stride: 1
    weight_filler {
      type: "msra"
    }
    bias_filler {
      type: "constant"
    }
    engine: CUDNN
  }
}
layer {
  name: "relu4_3"
  type: "ReLU"
  bottom: "conv4_3"
  top: "conv4_3"
}
layer {
  name: "gp"
  type: "Pooling"
  bottom: "conv4_3"
  top: "gp"
  pooling_param {
    pool: AVE
    global_pooling: true
  }
}
layer {
  name: "fc6"
  type: "InnerProduct"
  bottom: "gp"
  top: "fc6"
  inner_product_param {
    num_output: 4096
    weight_filler {
      type: "msra"
    }
    bias_filler {
      type: "constant"
    }
  }
}
layer {
  name: "relu6"
  type: "ReLU"
  bottom: "fc6"
  top: "fc6"
}
layer {
  name: "drop6"
  type: "Dropout"
  bottom: "fc6"
  top: "fc6"
  include {
    phase: TRAIN
  }
  dropout_param {
    dropout_ratio: 0.5
  }
}
layer {
  name: "fc7"
  type: "InnerProduct"
  bottom: "fc6"
  top: "fc7"
  inner_product_param {
    num_output: 4096
    weight_filler {
      type: "msra"
    }
    bias_filler {
      type: "constant"
    }
  }
}
layer {
  name: "relu7"
  type: "ReLU"
  bottom: "fc7"
  top: "fc7"
}
layer {
  name: "drop7"
  type: "Dropout"
  bottom: "fc7"
  top: "fc7"
  include {
    phase: TRAIN
  }
  dropout_param {
    dropout_ratio: 0.5
  }
}
layer {
  name: "fc8"
  type: "InnerProduct"
  bottom: "fc7"
  top: "fc8"
  inner_product_param {
    num_output: 618
    weight_filler {
      type: "msra"
    }
    bias_filler {
      type: "constant"
    }
  }
}
layer {
  name: "loss"
  type: "SigmoidCrossEntropyLoss"
  bottom: "fc8"
  bottom: "phocs"
  top: "loss"
}
I0220 18:55:21.433084 13564 layer_factory.hpp:77] Creating layer word_images
I0220 18:55:21.433174 13564 db_lmdb.cpp:35] Opened lmdb /data/fwolf/iam_60x160/iam-db_nti500000_pul2-3-4-5_train_word_images_lmdb
I0220 18:55:21.433221 13564 net.cpp:84] Creating Layer word_images
I0220 18:55:21.433228 13564 net.cpp:380] word_images -> word_images
I0220 18:55:21.433239 13564 net.cpp:380] word_images -> label
I0220 18:55:21.435549 13564 data_layer.cpp:44] output data size: 1,1,60,160
I0220 18:55:21.448748 13564 net.cpp:122] Setting up word_images
I0220 18:55:21.448765 13564 net.cpp:129] Top shape: 1 1 60 160 (9600)
I0220 18:55:21.448770 13564 net.cpp:129] Top shape: 1 (1)
I0220 18:55:21.448774 13564 net.cpp:137] Memory required for data: 38404
I0220 18:55:21.448778 13564 layer_factory.hpp:77] Creating layer phocs
I0220 18:55:21.448830 13564 db_lmdb.cpp:35] Opened lmdb /data/fwolf/iam_60x160/iam-db_nti500000_pul2-3-4-5_train_phocs_lmdb
I0220 18:55:21.448866 13564 net.cpp:84] Creating Layer phocs
I0220 18:55:21.448873 13564 net.cpp:380] phocs -> phocs
I0220 18:55:21.448882 13564 net.cpp:380] phocs -> label_phocs
I0220 18:55:21.449291 13564 data_layer.cpp:44] output data size: 1,1,1,618
I0220 18:55:21.472825 13564 net.cpp:122] Setting up phocs
I0220 18:55:21.472843 13564 net.cpp:129] Top shape: 1 1 1 618 (618)
I0220 18:55:21.472854 13564 net.cpp:129] Top shape: 1 (1)
I0220 18:55:21.472858 13564 net.cpp:137] Memory required for data: 40880
I0220 18:55:21.472862 13564 layer_factory.hpp:77] Creating layer conv1_1
I0220 18:55:21.472913 13564 net.cpp:84] Creating Layer conv1_1
I0220 18:55:21.472918 13564 net.cpp:406] conv1_1 <- word_images
I0220 18:55:21.472925 13564 net.cpp:380] conv1_1 -> conv1_1
I0220 18:55:22.310880 13564 net.cpp:122] Setting up conv1_1
I0220 18:55:22.310925 13564 net.cpp:129] Top shape: 1 64 60 160 (614400)
I0220 18:55:22.310930 13564 net.cpp:137] Memory required for data: 2498480
I0220 18:55:22.310948 13564 layer_factory.hpp:77] Creating layer relu1_1
I0220 18:55:22.310961 13564 net.cpp:84] Creating Layer relu1_1
I0220 18:55:22.310966 13564 net.cpp:406] relu1_1 <- conv1_1
I0220 18:55:22.310973 13564 net.cpp:367] relu1_1 -> conv1_1 (in-place)
I0220 18:55:22.312086 13564 net.cpp:122] Setting up relu1_1
I0220 18:55:22.312100 13564 net.cpp:129] Top shape: 1 64 60 160 (614400)
I0220 18:55:22.312103 13564 net.cpp:137] Memory required for data: 4956080
I0220 18:55:22.312108 13564 layer_factory.hpp:77] Creating layer conv1_2
I0220 18:55:22.312124 13564 net.cpp:84] Creating Layer conv1_2
I0220 18:55:22.312127 13564 net.cpp:406] conv1_2 <- conv1_1
I0220 18:55:22.312134 13564 net.cpp:380] conv1_2 -> conv1_2
I0220 18:55:22.319855 13564 net.cpp:122] Setting up conv1_2
I0220 18:55:22.324137 13564 net.cpp:129] Top shape: 1 64 60 160 (614400)
I0220 18:55:22.324149 13564 net.cpp:137] Memory required for data: 7413680
I0220 18:55:22.324167 13564 layer_factory.hpp:77] Creating layer relu1_2
I0220 18:55:22.324177 13564 net.cpp:84] Creating Layer relu1_2
I0220 18:55:22.324180 13564 net.cpp:406] relu1_2 <- conv1_2
I0220 18:55:22.324187 13564 net.cpp:367] relu1_2 -> conv1_2 (in-place)
I0220 18:55:22.324455 13564 net.cpp:122] Setting up relu1_2
I0220 18:55:22.324463 13564 net.cpp:129] Top shape: 1 64 60 160 (614400)
I0220 18:55:22.324466 13564 net.cpp:137] Memory required for data: 9871280
I0220 18:55:22.324470 13564 layer_factory.hpp:77] Creating layer pool1
I0220 18:55:22.324479 13564 net.cpp:84] Creating Layer pool1
I0220 18:55:22.324486 13564 net.cpp:406] pool1 <- conv1_2
I0220 18:55:22.324494 13564 net.cpp:380] pool1 -> pool1
I0220 18:55:22.324575 13564 net.cpp:122] Setting up pool1
I0220 18:55:22.324582 13564 net.cpp:129] Top shape: 1 64 30 80 (153600)
I0220 18:55:22.324585 13564 net.cpp:137] Memory required for data: 10485680
I0220 18:55:22.324589 13564 layer_factory.hpp:77] Creating layer conv2_1
I0220 18:55:22.324605 13564 net.cpp:84] Creating Layer conv2_1
I0220 18:55:22.324609 13564 net.cpp:406] conv2_1 <- pool1
I0220 18:55:22.324615 13564 net.cpp:380] conv2_1 -> conv2_1
I0220 18:55:22.333353 13564 net.cpp:122] Setting up conv2_1
I0220 18:55:22.333370 13564 net.cpp:129] Top shape: 1 128 30 80 (307200)
I0220 18:55:22.333374 13564 net.cpp:137] Memory required for data: 11714480
I0220 18:55:22.333384 13564 layer_factory.hpp:77] Creating layer relu2_1
I0220 18:55:22.333392 13564 net.cpp:84] Creating Layer relu2_1
I0220 18:55:22.333396 13564 net.cpp:406] relu2_1 <- conv2_1
I0220 18:55:22.333403 13564 net.cpp:367] relu2_1 -> conv2_1 (in-place)
I0220 18:55:22.333633 13564 net.cpp:122] Setting up relu2_1
I0220 18:55:22.333643 13564 net.cpp:129] Top shape: 1 128 30 80 (307200)
I0220 18:55:22.333647 13564 net.cpp:137] Memory required for data: 12943280
I0220 18:55:22.333652 13564 layer_factory.hpp:77] Creating layer conv2_2
I0220 18:55:22.333662 13564 net.cpp:84] Creating Layer conv2_2
I0220 18:55:22.333667 13564 net.cpp:406] conv2_2 <- conv2_1
I0220 18:55:22.333672 13564 net.cpp:380] conv2_2 -> conv2_2
I0220 18:55:22.344677 13564 net.cpp:122] Setting up conv2_2
I0220 18:55:22.344694 13564 net.cpp:129] Top shape: 1 128 30 80 (307200)
I0220 18:55:22.344698 13564 net.cpp:137] Memory required for data: 14172080
I0220 18:55:22.344705 13564 layer_factory.hpp:77] Creating layer relu2_2
I0220 18:55:22.344712 13564 net.cpp:84] Creating Layer relu2_2
I0220 18:55:22.344717 13564 net.cpp:406] relu2_2 <- conv2_2
I0220 18:55:22.344724 13564 net.cpp:367] relu2_2 -> conv2_2 (in-place)
I0220 18:55:22.345821 13564 net.cpp:122] Setting up relu2_2
I0220 18:55:22.345834 13564 net.cpp:129] Top shape: 1 128 30 80 (307200)
I0220 18:55:22.345839 13564 net.cpp:137] Memory required for data: 15400880
I0220 18:55:22.345841 13564 layer_factory.hpp:77] Creating layer pool2
I0220 18:55:22.345850 13564 net.cpp:84] Creating Layer pool2
I0220 18:55:22.345854 13564 net.cpp:406] pool2 <- conv2_2
I0220 18:55:22.345860 13564 net.cpp:380] pool2 -> pool2
I0220 18:55:22.345930 13564 net.cpp:122] Setting up pool2
I0220 18:55:22.345937 13564 net.cpp:129] Top shape: 1 128 15 40 (76800)
I0220 18:55:22.345939 13564 net.cpp:137] Memory required for data: 15708080
I0220 18:55:22.345942 13564 layer_factory.hpp:77] Creating layer conv3_1
I0220 18:55:22.345952 13564 net.cpp:84] Creating Layer conv3_1
I0220 18:55:22.345957 13564 net.cpp:406] conv3_1 <- pool2
I0220 18:55:22.345964 13564 net.cpp:380] conv3_1 -> conv3_1
I0220 18:55:22.358907 13564 net.cpp:122] Setting up conv3_1
I0220 18:55:22.358920 13564 net.cpp:129] Top shape: 1 256 15 40 (153600)
I0220 18:55:22.358924 13564 net.cpp:137] Memory required for data: 16322480
I0220 18:55:22.358933 13564 layer_factory.hpp:77] Creating layer relu3_1
I0220 18:55:22.358944 13564 net.cpp:84] Creating Layer relu3_1
I0220 18:55:22.358947 13564 net.cpp:406] relu3_1 <- conv3_1
I0220 18:55:22.358952 13564 net.cpp:367] relu3_1 -> conv3_1 (in-place)
I0220 18:55:22.360075 13564 net.cpp:122] Setting up relu3_1
I0220 18:55:22.360083 13564 net.cpp:129] Top shape: 1 256 15 40 (153600)
I0220 18:55:22.360087 13564 net.cpp:137] Memory required for data: 16936880
I0220 18:55:22.360090 13564 layer_factory.hpp:77] Creating layer conv3_2
I0220 18:55:22.360101 13564 net.cpp:84] Creating Layer conv3_2
I0220 18:55:22.360105 13564 net.cpp:406] conv3_2 <- conv3_1
I0220 18:55:22.360110 13564 net.cpp:380] conv3_2 -> conv3_2
I0220 18:55:22.384398 13564 net.cpp:122] Setting up conv3_2
I0220 18:55:22.384416 13564 net.cpp:129] Top shape: 1 256 15 40 (153600)
I0220 18:55:22.384420 13564 net.cpp:137] Memory required for data: 17551280
I0220 18:55:22.384428 13564 layer_factory.hpp:77] Creating layer relu3_2
I0220 18:55:22.384439 13564 net.cpp:84] Creating Layer relu3_2
I0220 18:55:22.384443 13564 net.cpp:406] relu3_2 <- conv3_2
I0220 18:55:22.384451 13564 net.cpp:367] relu3_2 -> conv3_2 (in-place)
I0220 18:55:22.385368 13564 net.cpp:122] Setting up relu3_2
I0220 18:55:22.385377 13564 net.cpp:129] Top shape: 1 256 15 40 (153600)
I0220 18:55:22.385380 13564 net.cpp:137] Memory required for data: 18165680
I0220 18:55:22.385385 13564 layer_factory.hpp:77] Creating layer conv3_3
I0220 18:55:22.385397 13564 net.cpp:84] Creating Layer conv3_3
I0220 18:55:22.385401 13564 net.cpp:406] conv3_3 <- conv3_2
I0220 18:55:22.385407 13564 net.cpp:380] conv3_3 -> conv3_3
I0220 18:55:22.407173 13564 net.cpp:122] Setting up conv3_3
I0220 18:55:22.407188 13564 net.cpp:129] Top shape: 1 256 15 40 (153600)
I0220 18:55:22.407192 13564 net.cpp:137] Memory required for data: 18780080
I0220 18:55:22.407199 13564 layer_factory.hpp:77] Creating layer relu3_3
I0220 18:55:22.407207 13564 net.cpp:84] Creating Layer relu3_3
I0220 18:55:22.407210 13564 net.cpp:406] relu3_3 <- conv3_3
I0220 18:55:22.407215 13564 net.cpp:367] relu3_3 -> conv3_3 (in-place)
I0220 18:55:22.409189 13564 net.cpp:122] Setting up relu3_3
I0220 18:55:22.409222 13564 net.cpp:129] Top shape: 1 256 15 40 (153600)
I0220 18:55:22.409231 13564 net.cpp:137] Memory required for data: 19394480
I0220 18:55:22.409240 13564 layer_factory.hpp:77] Creating layer conv3_4
I0220 18:55:22.409262 13564 net.cpp:84] Creating Layer conv3_4
I0220 18:55:22.409271 13564 net.cpp:406] conv3_4 <- conv3_3
I0220 18:55:22.409284 13564 net.cpp:380] conv3_4 -> conv3_4
I0220 18:55:22.448838 13564 net.cpp:122] Setting up conv3_4
I0220 18:55:22.448863 13564 net.cpp:129] Top shape: 1 256 15 40 (153600)
I0220 18:55:22.448869 13564 net.cpp:137] Memory required for data: 20008880
I0220 18:55:22.448885 13564 layer_factory.hpp:77] Creating layer relu3_4
I0220 18:55:22.448897 13564 net.cpp:84] Creating Layer relu3_4
I0220 18:55:22.448904 13564 net.cpp:406] relu3_4 <- conv3_4
I0220 18:55:22.448912 13564 net.cpp:367] relu3_4 -> conv3_4 (in-place)
I0220 18:55:22.449280 13564 net.cpp:122] Setting up relu3_4
I0220 18:55:22.449293 13564 net.cpp:129] Top shape: 1 256 15 40 (153600)
I0220 18:55:22.449299 13564 net.cpp:137] Memory required for data: 20623280
I0220 18:55:22.449306 13564 layer_factory.hpp:77] Creating layer conv3_5
I0220 18:55:22.449324 13564 net.cpp:84] Creating Layer conv3_5
I0220 18:55:22.449331 13564 net.cpp:406] conv3_5 <- conv3_4
I0220 18:55:22.449340 13564 net.cpp:380] conv3_5 -> conv3_5
I0220 18:55:22.483482 13564 net.cpp:122] Setting up conv3_5
I0220 18:55:22.483502 13564 net.cpp:129] Top shape: 1 256 15 40 (153600)
I0220 18:55:22.483508 13564 net.cpp:137] Memory required for data: 21237680
I0220 18:55:22.483521 13564 layer_factory.hpp:77] Creating layer relu3_5
I0220 18:55:22.483533 13564 net.cpp:84] Creating Layer relu3_5
I0220 18:55:22.483539 13564 net.cpp:406] relu3_5 <- conv3_5
I0220 18:55:22.483546 13564 net.cpp:367] relu3_5 -> conv3_5 (in-place)
I0220 18:55:22.484284 13564 net.cpp:122] Setting up relu3_5
I0220 18:55:22.484298 13564 net.cpp:129] Top shape: 1 256 15 40 (153600)
I0220 18:55:22.484302 13564 net.cpp:137] Memory required for data: 21852080
I0220 18:55:22.484308 13564 layer_factory.hpp:77] Creating layer conv3_6
I0220 18:55:22.484321 13564 net.cpp:84] Creating Layer conv3_6
I0220 18:55:22.484328 13564 net.cpp:406] conv3_6 <- conv3_5
I0220 18:55:22.484335 13564 net.cpp:380] conv3_6 -> conv3_6
I0220 18:55:22.513789 13564 net.cpp:122] Setting up conv3_6
I0220 18:55:22.513808 13564 net.cpp:129] Top shape: 1 256 15 40 (153600)
I0220 18:55:22.513813 13564 net.cpp:137] Memory required for data: 22466480
I0220 18:55:22.513821 13564 layer_factory.hpp:77] Creating layer relu3_6
I0220 18:55:22.513830 13564 net.cpp:84] Creating Layer relu3_6
I0220 18:55:22.513835 13564 net.cpp:406] relu3_6 <- conv3_6
I0220 18:55:22.513844 13564 net.cpp:367] relu3_6 -> conv3_6 (in-place)
I0220 18:55:22.514701 13564 net.cpp:122] Setting up relu3_6
I0220 18:55:22.514713 13564 net.cpp:129] Top shape: 1 256 15 40 (153600)
I0220 18:55:22.514721 13564 net.cpp:137] Memory required for data: 23080880
I0220 18:55:22.514726 13564 layer_factory.hpp:77] Creating layer conv4_1
I0220 18:55:22.514739 13564 net.cpp:84] Creating Layer conv4_1
I0220 18:55:22.514744 13564 net.cpp:406] conv4_1 <- conv3_6
I0220 18:55:22.514753 13564 net.cpp:380] conv4_1 -> conv4_1
I0220 18:55:22.561977 13564 net.cpp:122] Setting up conv4_1
I0220 18:55:22.561997 13564 net.cpp:129] Top shape: 1 512 15 40 (307200)
I0220 18:55:22.562001 13564 net.cpp:137] Memory required for data: 24309680
I0220 18:55:22.562011 13564 layer_factory.hpp:77] Creating layer relu4_1
I0220 18:55:22.562021 13564 net.cpp:84] Creating Layer relu4_1
I0220 18:55:22.562026 13564 net.cpp:406] relu4_1 <- conv4_1
I0220 18:55:22.562032 13564 net.cpp:367] relu4_1 -> conv4_1 (in-place)
I0220 18:55:22.563305 13564 net.cpp:122] Setting up relu4_1
I0220 18:55:22.563319 13564 net.cpp:129] Top shape: 1 512 15 40 (307200)
I0220 18:55:22.563323 13564 net.cpp:137] Memory required for data: 25538480
I0220 18:55:22.563328 13564 layer_factory.hpp:77] Creating layer conv4_2
I0220 18:55:22.563344 13564 net.cpp:84] Creating Layer conv4_2
I0220 18:55:22.563349 13564 net.cpp:406] conv4_2 <- conv4_1
I0220 18:55:22.563355 13564 net.cpp:380] conv4_2 -> conv4_2
I0220 18:55:22.649940 13564 net.cpp:122] Setting up conv4_2
I0220 18:55:22.649968 13564 net.cpp:129] Top shape: 1 512 15 40 (307200)
I0220 18:55:22.649972 13564 net.cpp:137] Memory required for data: 26767280
I0220 18:55:22.649982 13564 layer_factory.hpp:77] Creating layer relu4_2
I0220 18:55:22.649996 13564 net.cpp:84] Creating Layer relu4_2
I0220 18:55:22.650002 13564 net.cpp:406] relu4_2 <- conv4_2
I0220 18:55:22.650009 13564 net.cpp:367] relu4_2 -> conv4_2 (in-place)
I0220 18:55:22.652017 13564 net.cpp:122] Setting up relu4_2
I0220 18:55:22.652027 13564 net.cpp:129] Top shape: 1 512 15 40 (307200)
I0220 18:55:22.652030 13564 net.cpp:137] Memory required for data: 27996080
I0220 18:55:22.652034 13564 layer_factory.hpp:77] Creating layer conv4_3
I0220 18:55:22.652050 13564 net.cpp:84] Creating Layer conv4_3
I0220 18:55:22.652053 13564 net.cpp:406] conv4_3 <- conv4_2
I0220 18:55:22.652062 13564 net.cpp:380] conv4_3 -> conv4_3
I0220 18:55:22.736008 13564 net.cpp:122] Setting up conv4_3
I0220 18:55:22.736035 13564 net.cpp:129] Top shape: 1 512 15 40 (307200)
I0220 18:55:22.736039 13564 net.cpp:137] Memory required for data: 29224880
I0220 18:55:22.736049 13564 layer_factory.hpp:77] Creating layer relu4_3
I0220 18:55:22.736059 13564 net.cpp:84] Creating Layer relu4_3
I0220 18:55:22.736063 13564 net.cpp:406] relu4_3 <- conv4_3
I0220 18:55:22.736070 13564 net.cpp:367] relu4_3 -> conv4_3 (in-place)
I0220 18:55:22.738121 13564 net.cpp:122] Setting up relu4_3
I0220 18:55:22.738131 13564 net.cpp:129] Top shape: 1 512 15 40 (307200)
I0220 18:55:22.738134 13564 net.cpp:137] Memory required for data: 30453680
I0220 18:55:22.738138 13564 layer_factory.hpp:77] Creating layer gp
I0220 18:55:22.738145 13564 net.cpp:84] Creating Layer gp
I0220 18:55:22.738149 13564 net.cpp:406] gp <- conv4_3
I0220 18:55:22.738157 13564 net.cpp:380] gp -> gp
I0220 18:55:22.740468 13564 net.cpp:122] Setting up gp
I0220 18:55:22.740483 13564 net.cpp:129] Top shape: 1 512 1 1 (512)
I0220 18:55:22.740489 13564 net.cpp:137] Memory required for data: 30455728
I0220 18:55:22.740492 13564 layer_factory.hpp:77] Creating layer fc6
I0220 18:55:22.740505 13564 net.cpp:84] Creating Layer fc6
I0220 18:55:22.740509 13564 net.cpp:406] fc6 <- gp
I0220 18:55:22.740516 13564 net.cpp:380] fc6 -> fc6
I0220 18:55:22.812947 13564 net.cpp:122] Setting up fc6
I0220 18:55:22.812968 13564 net.cpp:129] Top shape: 1 4096 (4096)
I0220 18:55:22.812971 13564 net.cpp:137] Memory required for data: 30472112
I0220 18:55:22.812980 13564 layer_factory.hpp:77] Creating layer relu6
I0220 18:55:22.812994 13564 net.cpp:84] Creating Layer relu6
I0220 18:55:22.812999 13564 net.cpp:406] relu6 <- fc6
I0220 18:55:22.813004 13564 net.cpp:367] relu6 -> fc6 (in-place)
I0220 18:55:22.813283 13564 net.cpp:122] Setting up relu6
I0220 18:55:22.813299 13564 net.cpp:129] Top shape: 1 4096 (4096)
I0220 18:55:22.813303 13564 net.cpp:137] Memory required for data: 30488496
I0220 18:55:22.813308 13564 layer_factory.hpp:77] Creating layer drop6
I0220 18:55:22.813318 13564 net.cpp:84] Creating Layer drop6
I0220 18:55:22.813321 13564 net.cpp:406] drop6 <- fc6
I0220 18:55:22.813329 13564 net.cpp:367] drop6 -> fc6 (in-place)
I0220 18:55:22.813379 13564 net.cpp:122] Setting up drop6
I0220 18:55:22.813385 13564 net.cpp:129] Top shape: 1 4096 (4096)
I0220 18:55:22.813388 13564 net.cpp:137] Memory required for data: 30504880
I0220 18:55:22.813392 13564 layer_factory.hpp:77] Creating layer fc7
I0220 18:55:22.813400 13564 net.cpp:84] Creating Layer fc7
I0220 18:55:22.813405 13564 net.cpp:406] fc7 <- fc6
I0220 18:55:22.813411 13564 net.cpp:380] fc7 -> fc7
I0220 18:55:23.387042 13564 net.cpp:122] Setting up fc7
I0220 18:55:23.387086 13564 net.cpp:129] Top shape: 1 4096 (4096)
I0220 18:55:23.387090 13564 net.cpp:137] Memory required for data: 30521264
I0220 18:55:23.387101 13564 layer_factory.hpp:77] Creating layer relu7
I0220 18:55:23.387112 13564 net.cpp:84] Creating Layer relu7
I0220 18:55:23.387117 13564 net.cpp:406] relu7 <- fc7
I0220 18:55:23.387127 13564 net.cpp:367] relu7 -> fc7 (in-place)
I0220 18:55:23.387423 13564 net.cpp:122] Setting up relu7
I0220 18:55:23.387432 13564 net.cpp:129] Top shape: 1 4096 (4096)
I0220 18:55:23.387436 13564 net.cpp:137] Memory required for data: 30537648
I0220 18:55:23.387440 13564 layer_factory.hpp:77] Creating layer drop7
I0220 18:55:23.387449 13564 net.cpp:84] Creating Layer drop7
I0220 18:55:23.387454 13564 net.cpp:406] drop7 <- fc7
I0220 18:55:23.387459 13564 net.cpp:367] drop7 -> fc7 (in-place)
I0220 18:55:23.387502 13564 net.cpp:122] Setting up drop7
I0220 18:55:23.387508 13564 net.cpp:129] Top shape: 1 4096 (4096)
I0220 18:55:23.387511 13564 net.cpp:137] Memory required for data: 30554032
I0220 18:55:23.387514 13564 layer_factory.hpp:77] Creating layer fc8
I0220 18:55:23.387523 13564 net.cpp:84] Creating Layer fc8
I0220 18:55:23.387526 13564 net.cpp:406] fc8 <- fc7
I0220 18:55:23.387534 13564 net.cpp:380] fc8 -> fc8
I0220 18:55:23.464783 13564 net.cpp:122] Setting up fc8
I0220 18:55:23.464812 13564 net.cpp:129] Top shape: 1 618 (618)
I0220 18:55:23.464814 13564 net.cpp:137] Memory required for data: 30556504
I0220 18:55:23.464823 13564 layer_factory.hpp:77] Creating layer loss
I0220 18:55:23.464846 13564 net.cpp:84] Creating Layer loss
I0220 18:55:23.464851 13564 net.cpp:406] loss <- fc8
I0220 18:55:23.464857 13564 net.cpp:406] loss <- phocs
I0220 18:55:23.464862 13564 net.cpp:380] loss -> loss
I0220 18:55:23.464947 13564 net.cpp:122] Setting up loss
…
  phase: TEST
}
layer {
  name: "word_images"
  type: "Data"
  top: "word_images"
  top: "label"
  transform_param {
    scale: -0.0039215689
    mean_value: 255
  }
  data_param {
    source: "/data/fwolf/iam_60x160/iam-db_nti500000_pul2-3-4-5_test_word_images_lmdb"
    batch_size: 1
    backend: LMDB
    prefetch: 20
  }
}
layer {
  name: "phocs"
  type: "Data"
  top: "phocs"
  top: "label_phocs"
  data_param {
    source: "/data/fwolf/iam_60x160/iam-db_nti500000_pul2-3-4-5_test_phocs_lmdb"
    batch_size: 1
    backend: LMDB
    prefetch: 20
  }
}
layer {
  name: "conv1_1"
  type: "Convolution"
  bottom: "word_images"
  top: "conv1_1"
  convolution_param {
    num_output: 64
    pad: 1
    kernel_size: 3
    stride: 1
    weight_filler {
      type: "msra"
    }
    bias_filler {
      type: "constant"
    }
    engine: CUDNN
  }
}
layer {
  name: "relu1_1"
  type: "ReLU"
  bottom: "conv1_1"
  top: "conv1_1"
}
layer {
  name: "conv1_2"
  type: "Convolution"
  bottom: "conv1_1"
  top: "conv1_2"
  convolution_param {
    num_output: 64
    pad: 1
    kernel_size: 3
    stride: 1
    weight_filler {
      type: "msra"
    }
    bias_filler {
      type: "constant"
    }
    engine: CUDNN
  }
}
layer {
  name: "relu1_2"
  type: "ReLU"
  bottom: "conv1_2"
  top: "conv1_2"
}
layer {
  name: "pool1"
  type: "Pooling"
  bottom: "conv1_2"
  top: "pool1"
  pooling_param {
    pool: MAX
    kernel_size: 2
    stride: 2
  }
}
layer {
  name: "conv2_1"
  type: "Convolution"
  bottom: "pool1"
  top: "conv2_1"
  convolution_param {
    num_output: 128
    pad: 1
    kernel_size: 3
    stride: 1
    weight_filler {
      type: "msra"
    }
    bias_filler {
      type: "constant"
    }
    engine: CUDNN
  }
}
layer {
  name: "relu2_1"
  type: "ReLU"
  bottom: "conv2_1"
  top: "conv2_1"
}
layer {
  name: "conv2_2"
  type: "Convolution"
  bottom: "conv2_1"
  top: "conv2_2"
  convolution_param {
    num_output: 128
    pad: 1
    kernel_size: 3
    stride: 1
    weight_filler {
      type: "msra"
    }
    bias_filler {
      type: "constant"
    }
    engine: CUDNN
  }
}
layer {
  name: "relu2_2"
  type: "ReLU"
  bottom: "conv2_2"
  top: "conv2_2"
}
layer {
  name: "pool2"
  type: "Pooling"
  bottom: "conv2_2"
  top: "pool2"
  pooling_param {
    pool: MAX
    kernel_size: 2
    stride: 2
  }
}
layer {
  name: "conv3_1"
  type: "Convolution"
  bottom: "pool2"
  top: "conv3_1"
  convolution_param {
    num_output: 256
    pad: 1
    kernel_size: 3
    stride: 1
    weight_filler {
      type: "msra"
    }
    bias_filler {
      type: "constant"
    }
    engine: CUDNN
  }
}
layer {
  name: "relu3_1"
  type: "ReLU"
  bottom: "conv3_1"
  top: "conv3_1"
}
layer {
  name: "conv3_2"
  type: "Convolution"
  bottom: "conv3_1"
  top: "conv3_2"
  convolution_param {
    num_output: 256
    pad: 1
    kernel_size: 3
    stride: 1
    weight_filler {
      type: "msra"
    }
    bias_filler {
      type: "constant"
    }
    engine: CUDNN
  }
}
layer {
  name: "relu3_2"
  type: "ReLU"
  bottom: "conv3_2"
  top: "conv3_2"
}
layer {
  name: "conv3_3"
  type: "Convolution"
  bottom: "conv3_2"
  top: "conv3_3"
  convolution_param {
    num_output: 256
    pad: 1
    kernel_size: 3
    stride: 1
    weight_filler {
      type: "msra"
    }
    bias_filler {
      type: "constant"
    }
    engine: CUDNN
  }
}
layer {
  name: "relu3_3"
  type: "ReLU"
  bottom: "conv3_3"
  top: "conv3_3"
}
layer {
  name: "conv3_4"
  type: "Convolution"
  bottom: "conv3_3"
  top: "conv3_4"
  convolution_param {
    num_output: 256
    pad: 1
    kernel_size: 3
    stride: 1
    weight_filler {
      type: "msra"
    }
    bias_filler {
      type: "constant"
    }
    engine: CUDNN
  }
}
layer {
  name: "relu3_4"
  type: "ReLU"
  bottom: "conv3_4"
  top: "conv3_4"
}
layer {
  name: "conv3_5"
  type: "Convolution"
  bottom: "conv3_4"
  top: "conv3_5"
  convolution_param {
    num_output: 256
    pad: 1
    kernel_size: 3
    stride: 1
    weight_filler {
      type: "msra"
    }
    bias_filler {
      type: "constant"
    }
    engine: CUDNN
  }
}
layer {
  name: "relu3_5"
  type: "ReLU"
  bottom: "conv3_5"
  top: "conv3_5"
}
layer {
  name: "conv3_6"
  type: "Convolution"
  bottom: "conv3_5"
  top: "conv3_6"
  convolution_param {
    num_output: 256
    pad: 1
    kernel_size: 3
    stride: 1
    weight_filler {
      type: "msra"
    }
    bias_filler {
      type: "constant"
    }
    engine: CUDNN
  }
}
layer {
  name: "relu3_6"
  type: "ReLU"
  bottom: "conv3_6"
  top: "conv3_6"
}
layer {
  name: "conv4_1"
  type: "Convolution"
  bottom: "conv3_6"
  top: "conv4_1"
  convolution_param {
    num_output: 512
    pad: 1
    kernel_size: 3
    stride: 1
    weight_filler {
      type: "msra"
    }
    bias_filler {
      type: "constant"
    }
    engine: CUDNN
  }
}
layer {
  name: "relu4_1"
  type: "ReLU"
  bottom: "conv4_1"
  top: "conv4_1"
}
layer {
  name: "conv4_2"
  type: "Convolution"
  bottom: "conv4_1"
  top: "conv4_2"
  convolution_param {
    num_output: 512
    pad: 1
    kernel_size: 3
    stride: 1
    weight_filler {
      type: "msra"
    }
    bias_filler {
      type: "constant"
    }
    engine: CUDNN
  }
}
layer {
  name: "relu4_2"
  type: "ReLU"
  bottom: "conv4_2"
  top: "conv4_2"
}
layer {
  name: "conv4_3"
  type: "Convolution"
  bottom: "conv4_2"
  top: "conv4_3"
  convolution_param {
    num_output: 512
    pad: 1
    kernel_size: 3
    stride: 1
    weight_filler {
      type: "msra"
    }
    bias_filler {
      type: "constant"
    }
    engine: CUDNN
  }
}
layer {
  name: "relu4_3"
  type: "ReLU"
  bottom: "conv4_3"
  top: "conv4_3"
}
layer {
  name: "gp"
  type: "Pooling"
  bottom: "conv4_3"
  top: "gp"
  pooling_param {
    pool: AVE
    global_pooling: true
  }
}
layer {
  name: "fc6"
  type: "InnerProduct"
  bottom: "gp"
  top: "fc6"
  inner_product_param {
    num_output: 4096
    weight_filler {
      type: "msra"
    }
    bias_filler {
      type: "constant"
    }
  }
}
layer {
  name: "relu6"
  type: "ReLU"
  bottom: "fc6"
  top: "fc6"
}
layer {
  name: "fc7"
  type: "InnerProduct"
  bottom: "fc6"
  top: "fc7"
  inner_product_param {
    num_output: 4096
    weight_filler {
      type: "msra"
    }
    bias_filler {
      type: "constant"
    }
  }
}
layer {
  name: "relu7"
  type: "ReLU"
  bottom: "fc7"
  top: "fc7"
}
layer {
  name: "fc8"
  type: "InnerProduct"
  bottom: "fc7"
  top: "fc8"
  inner_product_param {
    num_output: 618
    weight_filler {
      type: "msra"
    }
    bias_filler {
      type: "constant"
    }
  }
}
layer {
  name: "sigmoid"
  type: "Sigmoid"
  bottom: "fc8"
  top: "sigmoid"
  include {
    phase: TEST
  }
}
layer {
  name: "silence"
  type: "Silence"
  bottom: "sigmoid"
  include {
    phase: TEST
  }
}
layer {
  name: "loss"
  type: "SigmoidCrossEntropyLoss"
  bottom: "fc8"
  bottom: "phocs"
  top: "loss"
}
I0220 18:55:23.466845 13564 layer_factory.hpp:77] Creating layer word_images
I0220 18:55:23.466925 13564 db_lmdb.cpp:35] Opened lmdb /data/fwolf/iam_60x160/iam-db_nti500000_pul2-3-4-5_test_word_images_lmdb
I0220 18:55:23.466954 13564 net.cpp:84] Creating Layer word_images
I0220 18:55:23.466959 13564 net.cpp:380] word_images -> word_images
I0220 18:55:23.466967 13564 net.cpp:380] word_images -> label
I0220 18:55:23.467475 13564 data_layer.cpp:44] output data size: 1,1,60,160
I0220 18:55:23.475587 13564 net.cpp:122] Setting up word_images
I0220 18:55:23.475600 13564 net.cpp:129] Top shape: 1 1 60 160 (9600)
I0220 18:55:23.475605 13564 net.cpp:129] Top shape: 1 (1)
I0220 18:55:23.475608 13564 net.cpp:137] Memory required for data: 38404
I0220 18:55:23.475612 13564 layer_factory.hpp:77] Creating layer phocs
I0220 18:55:23.475694 13564 db_lmdb.cpp:35] Opened lmdb /data/fwolf/iam_60x160/iam-db_nti500000_pul2-3-4-5_test_phocs_lmdb
I0220 18:55:23.475721 13564 net.cpp:84] Creating Layer phocs
I0220 18:55:23.475728 13564 net.cpp:380] phocs -> phocs
I0220 18:55:23.475736 13564 net.cpp:380] phocs -> label_phocs
I0220 18:55:23.476352 13564 data_layer.cpp:44] output data size: 1,1,1,618
I0220 18:55:23.502508 13564 net.cpp:122] Setting up phocs
I0220 18:55:23.502521 13564 net.cpp:129] Top shape: 1 1 1 618 (618)
I0220 18:55:23.502527 13564 net.cpp:129] Top shape: 1 (1)
I0220 18:55:23.502530 13564 net.cpp:137] Memory required for data: 40880
I0220 18:55:23.502534 13564 layer_factory.hpp:77] Creating layer conv1_1
I0220 18:55:23.502569 13564 net.cpp:84] Creating Layer conv1_1
I0220 18:55:23.502575 13564 net.cpp:406] conv1_1 <- word_images
I0220 18:55:23.502584 13564 net.cpp:380] conv1_1 -> conv1_1
I0220 18:55:23.506173 13564 net.cpp:122] Setting up conv1_1
I0220 18:55:23.506189 13564 net.cpp:129] Top shape: 1 64 60 160 (614400)
I0220 18:55:23.506193 13564 net.cpp:137] Memory required for data: 2498480
I0220 18:55:23.506206 13564 layer_factory.hpp:77] Creating layer relu1_1
I0220 18:55:23.506213 13564 net.cpp:84] Creating Layer relu1_1
I0220 18:55:23.506217 13564 net.cpp:406] relu1_1 <- conv1_1
I0220 18:55:23.506225 13564 net.cpp:367] relu1_1 -> conv1_1 (in-place)
I0220 18:55:23.507767 13564 net.cpp:122] Setting up relu1_1
I0220 18:55:23.507781 13564 net.cpp:129] Top shape: 1 64 60 160 (614400)
I0220 18:55:23.507784 13564 net.cpp:137] Memory required for data: 4956080
I0220 18:55:23.507788 13564 layer_factory.hpp:77] Creating layer conv1_2
I0220 18:55:23.507802 13564 net.cpp:84] Creating Layer conv1_2
I0220 18:55:23.507805 13564 net.cpp:406] conv1_2 <- conv1_1
I0220 18:55:23.507813 13564 net.cpp:380] conv1_2 -> conv1_2
I0220 18:55:23.514834 13564 net.cpp:122] Setting up conv1_2
I0220 18:55:23.514849 13564 net.cpp:129] Top shape: 1 64 60 160 (614400)
I0220 18:55:23.514853 13564 net.cpp:137] Memory required for data: 7413680
I0220 18:55:23.514870 13564 layer_factory.hpp:77] Creating layer relu1_2
I0220 18:55:23.514878 13564 net.cpp:84] Creating Layer relu1_2
I0220 18:55:23.514883 13564 net.cpp:406] relu1_2 <- conv1_2
I0220 18:55:23.514888 13564 net.cpp:367] relu1_2 -> conv1_2 (in-place)
I0220 18:55:23.516891 13564 net.cpp:122] Setting up relu1_2
I0220 18:55:23.516901 13564 net.cpp:129] Top shape: 1 64 60 160 (614400)
I0220 18:55:23.516904 13564 net.cpp:137] Memory required for data: 9871280
I0220 18:55:23.516908 13564 layer_factory.hpp:77] Creating layer pool1
I0220 18:55:23.516916 13564 net.cpp:84] Creating Layer pool1
I0220 18:55:23.516921 13564 net.cpp:406] pool1 <- conv1_2
I0220 18:55:23.516927 13564 net.cpp:380] pool1 -> pool1
I0220 18:55:23.517110 13564 net.cpp:122] Setting up pool1
I0220 18:55:23.517118 13564 net.cpp:129] Top shape: 1 64 30 80 (153600)
I0220 18:55:23.517122 13564 net.cpp:137] Memory required for data: 10485680
I0220 18:55:23.517124 13564 layer_factory.hpp:77] Creating layer conv2_1
I0220 18:55:23.517140 13564 net.cpp:84] Creating Layer conv2_1
I0220 18:55:23.517144 13564 net.cpp:406] conv2_1 <- pool1
I0220 18:55:23.517150 13564 net.cpp:380] conv2_1 -> conv2_1
I0220 18:55:23.524446 13564 net.cpp:122] Setting up conv2_1
I0220 18:55:23.524462 13564 net.cpp:129] Top shape: 1 128 30 80 (307200)
I0220 18:55:23.524466 13564 net.cpp:137] Memory required for data: 11714480
I0220 18:55:23.524477 13564 layer_factory.hpp:77] Creating layer relu2_1
I0220 18:55:23.524484 13564 net.cpp:84] Creating Layer relu2_1
I0220 18:55:23.524488 13564 net.cpp:406] relu2_1 <- conv2_1
I0220 18:55:23.524493 13564 net.cpp:367] relu2_1 -> conv2_1 (in-place)
I0220 18:55:23.525409 13564 net.cpp:122] Setting up relu2_1
I0220 18:55:23.525418 13564 net.cpp:129] Top shape: 1 128 30 80 (307200)
I0220 18:55:23.525423 13564 net.cpp:137] Memory required for data: 12943280
I0220 18:55:23.525425 13564 layer_factory.hpp:77] Creating layer conv2_2
I0220 18:55:23.525437 13564 net.cpp:84] Creating Layer conv2_2
I0220 18:55:23.525440 13564 net.cpp:406] conv2_2 <- conv2_1
I0220 18:55:23.525449 13564 net.cpp:380] conv2_2 -> conv2_2
I0220 18:55:23.534950 13564 net.cpp:122] Setting up conv2_2
I0220 18:55:23.534965 13564 net.cpp:129] Top shape: 1 128 30 80 (307200)
I0220 18:55:23.534967 13564 net.cpp:137] Memory required for data: 14172080
I0220 18:55:23.534976 13564 layer_factory.hpp:77] Creating layer relu2_2
I0220 18:55:23.534983 13564 net.cpp:84] Creating Layer relu2_2
I0220 18:55:23.534987 13564 net.cpp:406] relu2_2 <- conv2_2
I0220 18:55:23.534992 13564 net.cpp:367] relu2_2 -> conv2_2 (in-place)
I0220 18:55:23.536118 13564 net.cpp:122] Setting up relu2_2
I0220 18:55:23.536129 13564 net.cpp:129] Top shape: 1 128 30 80 (307200)
I0220 18:55:23.536134 13564 net.cpp:137] Memory required for data: 15400880
I0220 18:55:23.536137 13564 layer_factory.hpp:77] Creating layer pool2
I0220 18:55:23.536144 13564 net.cpp:84] Creating Layer pool2
I0220 18:55:23.536147 13564 net.cpp:406] pool2 <- conv2_2
I0220 18:55:23.536154 13564 net.cpp:380] pool2 -> pool2
I0220 18:55:23.536232 13564 net.cpp:122] Setting up pool2
I0220 18:55:23.536239 13564 net.cpp:129] Top shape: 1 128 15 40 (76800)
I0220 18:55:23.536242 13564 net.cpp:137] Memory required for data: 15708080
I0220 18:55:23.536245 13564 layer_factory.hpp:77] Creating layer conv3_1
I0220 18:55:23.536257 13564 net.cpp:84] Creating Layer conv3_1
I0220 18:55:23.536262 13564 net.cpp:406] conv3_1 <- pool2
I0220 18:55:23.536267 13564 net.cpp:380] conv3_1 -> conv3_1
I0220 18:55:23.550380 13564 net.cpp:122] Setting up conv3_1
I0220 18:55:23.550395 13564 net.cpp:129] Top shape: 1 256 15 40 (153600)
I0220 18:55:23.550398 13564 net.cpp:137] Memory required for data: 16322480
I0220 18:55:23.550408 13564 layer_factory.hpp:77] Creating layer relu3_1
I0220 18:55:23.550415 13564 net.cpp:84] Creating Layer relu3_1
I0220 18:55:23.550418 13564 net.cpp:406] relu3_1 <- conv3_1
I0220 18:55:23.550426 13564 net.cpp:367] relu3_1 -> conv3_1 (in-place)
I0220 18:55:23.550655 13564 net.cpp:122] Setting up relu3_1
I0220 18:55:23.550668 13564 net.cpp:129] Top shape: 1 256 15 40 (153600)
I0220 18:55:23.550673 13564 net.cpp:137] Memory required for data: 16936880
I0220 18:55:23.550678 13564 layer_factory.hpp:77] Creating layer conv3_2
I0220 18:55:23.550686 13564 net.cpp:84] Creating Layer conv3_2
I0220 18:55:23.550689 13564 net.cpp:406] conv3_2 <- conv3_1
I0220 18:55:23.550698 13564 net.cpp:380] conv3_2 -> conv3_2
I0220 18:55:23.573217 13564 net.cpp:122] Setting up conv3_2
I0220 18:55:23.573231 13564 net.cpp:129] Top shape: 1 256 15 40 (153600)
I0220 18:55:23.573235 13564 net.cpp:137] Memory required for data: 17551280
I0220 18:55:23.573242 13564 layer_factory.hpp:77] Creating layer relu3_2
I0220 18:55:23.573249 13564 net.cpp:84] Creating Layer relu3_2
I0220 18:55:23.573253 13564 net.cpp:406] relu3_2 <- conv3_2
I0220 18:55:23.573258 13564 net.cpp:367] relu3_2 -> conv3_2 (in-place)
I0220 18:55:23.574308 13564 net.cpp:122] Setting up relu3_2
I0220 18:55:23.574316 13564 net.cpp:129] Top shape: 1 256 15 40 (153600)
I0220 18:55:23.574321 13564 net.cpp:137] Memory required for data: 18165680
I0220 18:55:23.574323 13564 layer_factory.hpp:77] Creating layer conv3_3
I0220 18:55:23.574335 13564 net.cpp:84] Creating Layer conv3_3
I0220 18:55:23.574339 13564 net.cpp:406] conv3_3 <- conv3_2
I0220 18:55:23.574347 13564 net.cpp:380] conv3_3 -> conv3_3
I0220 18:55:23.597131 13564 net.cpp:122] Setting up conv3_3
I0220 18:55:23.597146 13564 net.cpp:129] Top shape: 1 256 15 40 (153600)
I0220 18:55:23.597149 13564 net.cpp:137] Memory required for data: 18780080
I0220 18:55:23.597159 13564 layer_factory.hpp:77] Creating layer relu3_3
I0220 18:55:23.597167 13564 net.cpp:84] Creating Layer relu3_3
I0220 18:55:23.597170 13564 net.cpp:406] relu3_3 <- conv3_3
I0220 18:55:23.597178 13564 net.cpp:367] relu3_3 -> conv3_3 (in-place)
I0220 18:55:23.598249 13564 net.cpp:122] Setting up relu3_3
I0220 18:55:23.598258 13564 net.cpp:129] Top shape: 1 256 15 40 (153600)
I0220 18:55:23.598263 13564 net.cpp:137] Memory required for data: 19394480
I0220 18:55:23.598265 13564 layer_factory.hpp:77] Creating layer conv3_4
I0220 18:55:23.598278 13564 net.cpp:84] Creating Layer conv3_4
I0220 18:55:23.598280 13564 net.cpp:406] conv3_4 <- conv3_3
I0220 18:55:23.598286 13564 net.cpp:380] conv3_4 -> conv3_4
I0220 18:55:23.623075 13564 net.cpp:122] Setting up conv3_4
I0220 18:55:23.623091 13564 net.cpp:129] Top shape: 1 256 15 40 (153600)
I0220 18:55:23.623095 13564 net.cpp:137] Memory required for data: 20008880
I0220 18:55:23.623103 13564 layer_factory.hpp:77] Creating layer relu3_4
I0220 18:55:23.623112 13564 net.cpp:84] Creating Layer relu3_4
I0220 18:55:23.623116 13564 net.cpp:406] relu3_4 <- conv3_4
I0220 18:55:23.623122 13564 net.cpp:367] relu3_4 -> conv3_4 (in-place)
I0220 18:55:23.624289 13564 net.cpp:122] Setting up relu3_4
I0220 18:55:23.624301 13564 net.cpp:129] Top shape: 1 256 15 40 (153600)
I0220 18:55:23.624305 13564 net.cpp:137] Memory required for data: 20623280
I0220 18:55:23.624308 13564 layer_factory.hpp:77] Creating layer conv3_5
I0220 18:55:23.624320 13564 net.cpp:84] Creating Layer conv3_5
I0220 18:55:23.624325 13564 net.cpp:406] conv3_5 <- conv3_4
I0220 18:55:23.624333 13564 net.cpp:380] conv3_5 -> conv3_5
I0220 18:55:23.647225 13564 net.cpp:122] Setting up conv3_5
I0220 18:55:23.647241 13564 net.cpp:129] Top shape: 1 256 15 40 (153600)
I0220 18:55:23.647245 13564 net.cpp:137] Memory required for data: 21237680
I0220 18:55:23.647258 13564 layer_factory.hpp:77] Creating layer relu3_5
I0220 18:55:23.647266 13564 net.cpp:84] Creating Layer relu3_5
I0220 18:55:23.647270 13564 net.cpp:406] relu3_5 <- conv3_5
I0220 18:55:23.647276 13564 net.cpp:367] relu3_5 -> conv3_5 (in-place)
I0220 18:55:23.648339 13564 net.cpp:122] Setting up relu3_5
I0220 18:55:23.648347 13564 net.cpp:129] Top shape: 1 256 15 40 (153600)
I0220 18:55:23.648350 13564 net.cpp:137] Memory required for data: 21852080
I0220 18:55:23.648355 13564 layer_factory.hpp:77] Creating layer conv3_6
I0220 18:55:23.648367 13564 net.cpp:84] Creating Layer conv3_6
I0220 18:55:23.648371 13564 net.cpp:406] conv3_6 <- conv3_5
I0220 18:55:23.648382 13564 net.cpp:380] conv3_6 -> conv3_6
I0220 18:55:23.672842 13564 net.cpp:122] Setting up conv3_6
I0220 18:55:23.672860 13564 net.cpp:129] Top shape: 1 256 15 40 (153600)
I0220 18:55:23.672864 13564 net.cpp:137] Memory required for data: 22466480
I0220 18:55:23.672871 13564 layer_factory.hpp:77] Creating layer relu3_6
I0220 18:55:23.672878 13564 net.cpp:84] Creating Layer relu3_6
I0220 18:55:23.672883 13564 net.cpp:406] relu3_6 <- conv3_6
I0220 18:55:23.672888 13564 net.cpp:367] relu3_6 -> conv3_6 (in-place)
I0220 18:55:23.673120 13564 net.cpp:122] Setting up relu3_6
I0220 18:55:23.673130 13564 net.cpp:129] Top shape: 1 256 15 40 (153600)
I0220 18:55:23.673132 13564 net.cpp:137] Memory required for data: 23080880
I0220 18:55:23.673136 13564 layer_factory.hpp:77] Creating layer conv4_1
I0220 18:55:23.673147 13564 net.cpp:84] Creating Layer conv4_1
I0220 18:55:23.673151 13564 net.cpp:406] conv4_1 <- conv3_6
I0220 18:55:23.673157 13564 net.cpp:380] conv4_1 -> conv4_1
I0220 18:55:23.717716 13564 net.cpp:122] Setting up conv4_1
I0220 18:55:23.717734 13564 net.cpp:129] Top shape: 1 512 15 40 (307200)
I0220 18:55:23.717738 13564 net.cpp:137] Memory required for data: 24309680
I0220 18:55:23.717746 13564 layer_factory.hpp:77] Creating layer relu4_1
I0220 18:55:23.717753 13564 net.cpp:84] Creating Layer relu4_1
I0220 18:55:23.717757 13564 net.cpp:406] relu4_1 <- conv4_1
I0220 18:55:23.717767 13564 net.cpp:367] relu4_1 -> conv4_1 (in-place)
I0220 18:55:23.718963 13564 net.cpp:122] Setting up relu4_1
I0220 18:55:23.718976 13564 net.cpp:129] Top shape: 1 512 15 40 (307200)
I0220 18:55:23.718981 13564 net.cpp:137] Memory required for data: 25538480
I0220 18:55:23.718984 13564 layer_factory.hpp:77] Creating layer conv4_2
I0220 18:55:23.718997 13564 net.cpp:84] Creating Layer conv4_2
I0220 18:55:23.719004 13564 net.cpp:406] conv4_2 <- conv4_1
I0220 18:55:23.719012 13564 net.cpp:380] conv4_2 -> conv4_2
I0220 18:55:23.798532 13564 net.cpp:122] Setting up conv4_2
I0220 18:55:23.798557 13564 net.cpp:129] Top shape: 1 512 15 40 (307200)
I0220 18:55:23.798560 13564 net.cpp:137] Memory required for data: 26767280
I0220 18:55:23.798568 13564 layer_factory.hpp:77] Creating layer relu4_2
I0220 18:55:23.798578 13564 net.cpp:84] Creating Layer relu4_2
I0220 18:55:23.798583 13564 net.cpp:406] relu4_2 <- conv4_2
I0220 18:55:23.798593 13564 net.cpp:367] relu4_2 -> conv4_2 (in-place)
I0220 18:55:23.799684 13564 net.cpp:122] Setting up relu4_2
I0220 18:55:23.799695 13564 net.cpp:129] Top shape: 1 512 15 40 (307200)
I0220 18:55:23.799698 13564 net.cpp:137] Memory required for data: 27996080
I0220 18:55:23.799702 13564 layer_factory.hpp:77] Creating layer conv4_3
I0220 18:55:23.799713 13564 net.cpp:84] Creating Layer conv4_3
I0220 18:55:23.799717 13564 net.cpp:406] conv4_3 <- conv4_2
I0220 18:55:23.799726 13564 net.cpp:380] conv4_3 -> conv4_3
I0220 18:55:23.879673 13564 net.cpp:122] Setting up conv4_3
I0220 18:55:23.879699 13564 net.cpp:129] Top shape: 1 512 15 40 (307200)
I0220 18:55:23.879703 13564 net.cpp:137] Memory required for data: 29224880
I0220 18:55:23.879712 13564 layer_factory.hpp:77] Creating layer relu4_3
I0220 18:55:23.879725 13564 net.cpp:84] Creating Layer relu4_3
I0220 18:55:23.879729 13564 net.cpp:406] relu4_3 <- conv4_3
I0220 18:55:23.879735 13564 net.cpp:367] relu4_3 -> conv4_3 (in-place)
I0220 18:55:23.881789 13564 net.cpp:122] Setting up relu4_3
I0220 18:55:23.881799 13564 net.cpp:129] Top shape: 1 512 15 40 (307200)
I0220 18:55:23.881803 13564 net.cpp:137] Memory required for data: 30453680
I0220 18:55:23.881808 13564 layer_factory.hpp:77] Creating layer gp
I0220 18:55:23.881817 13564 net.cpp:84] Creating Layer gp
I0220 18:55:23.881820 13564 net.cpp:406] gp <- conv4_3
I0220 18:55:23.881829 13564 net.cpp:380] gp -> gp
I0220 18:55:23.883242 13564 net.cpp:122] Setting up gp
I0220 18:55:23.883256 13564 net.cpp:129] Top shape: 1 512 1 1 (512)
I0220 18:55:23.883260 13564 net.cpp:137] Memory required for data: 30455728
I0220 18:55:23.883265 13564 layer_factory.hpp:77] Creating layer fc6
I0220 18:55:23.883277 13564 net.cpp:84] Creating Layer fc6
I0220 18:55:23.883287 13564 net.cpp:406] fc6 <- gp
I0220 18:55:23.883296 13564 net.cpp:380] fc6 -> fc6
I0220 18:55:23.950428 13564 net.cpp:122] Setting up fc6
I0220 18:55:23.950459 13564 net.cpp:129] Top shape: 1 4096 (4096)
I0220 18:55:23.950462 13564 net.cpp:137] Memory required for data: 30472112
I0220 18:55:23.950471 13564 layer_factory.hpp:77] Creating layer relu6
I0220 18:55:23.950484 13564 net.cpp:84] Creating Layer relu6
I0220 18:55:23.950489 13564 net.cpp:406] relu6 <- fc6
I0220 18:55:23.950500 13564 net.cpp:367] relu6 -> fc6 (in-place)
I0220 18:55:23.950786 13564 net.cpp:122] Setting up relu6
I0220 18:55:23.950796 13564 net.cpp:129] Top shape: 1 4096 (4096)
I0220 18:55:23.950800 13564 net.cpp:137] Memory required for data: 30488496
I0220 18:55:23.950804 13564 layer_factory.hpp:77] Creating layer fc7
I0220 18:55:23.950814 13564 net.cpp:84] Creating Layer fc7
I0220 18:55:23.950816 13564 net.cpp:406] fc7 <- fc6
I0220 18:55:23.950822 13564 net.cpp:380] fc7 -> fc7
I0220 18:55:24.479568 13564 net.cpp:122] Setting up fc7
I0220 18:55:24.479614 13564 net.cpp:129] Top shape: 1 4096 (4096)
I0220 18:55:24.479617 13564 net.cpp:137] Memory required for data: 30504880
I0220 18:55:24.479629 13564 layer_factory.hpp:77] Creating layer relu7
I0220 18:55:24.479640 13564 net.cpp:84] Creating Layer relu7
I0220 18:55:24.479645 13564 net.cpp:406] relu7 <- fc7
I0220 18:55:24.479652 13564 net.cpp:367] relu7 -> fc7 (in-place)
I0220 18:55:24.479969 13564 net.cpp:122] Setting up relu7
I0220 18:55:24.479977 13564 net.cpp:129] Top shape: 1 4096 (4096)
I0220 18:55:24.479981 13564 net.cpp:137] Memory required for data: 30521264
I0220 18:55:24.479984 13564 layer_factory.hpp:77] Creating layer fc8
I0220 18:55:24.479993 13564 net.cpp:84] Creating Layer fc8
I0220 18:55:24.479996 13564 net.cpp:406] fc8 <- fc7
I0220 18:55:24.480005 13564 net.cpp:380] fc8 -> fc8
I0220 18:55:24.558070 13564 net.cpp:122] Setting up fc8
I0220 18:55:24.558091 13564 net.cpp:129] Top shape: 1 618 (618)
I0220 18:55:24.558095 13564 net.cpp:137] Memory required for data: 30523736
I0220 18:55:24.558104 13564 layer_factory.hpp:77] Creating layer fc8_fc8_0_split
I0220 18:55:24.558112 13564 net.cpp:84] Creating Layer fc8_fc8_0_split
I0220 18:55:24.558116 13564 net.cpp:406] fc8_fc8_0_split <- fc8
I0220 18:55:24.558123 13564 net.cpp:380] fc8_fc8_0_split -> fc8_fc8_0_split_0
I0220 18:55:24.558130 13564 net.cpp:380] fc8_fc8_0_split -> fc8_fc8_0_split_1
I0220 18:55:24.558197 13564 net.cpp:122] Setting up fc8_fc8_0_split
I0220 18:55:24.558203 13564 net.cpp:129] Top shape: 1 618 (618)
I0220 18:55:24.558207 13564 net.cpp:129] Top shape: 1 618 (618)
I0220 18:55:24.558210 13564 net.cpp:137] Memory required for data: 30528680
I0220 18:55:24.558213 13564 layer_factory.hpp:77] Creating layer sigmoid
I0220 18:55:24.558224 13564 net.cpp:84] Creating Layer sigmoid
I0220 18:55:24.558244 13564 net.cpp:406] sigmoid <- fc8_fc8_0_split_0
I0220 18:55:24.558249 13564 net.cpp:380] sigmoid -> sigmoid
I0220 18:55:24.558571 13564 net.cpp:122] Setting up sigmoid
I0220 18:55:24.558580 13564 net.cpp:129] Top shape: 1 618 (618)
I0220 18:55:24.558583 13564 net.cpp:137] Memory required for data: 30531152
I0220 18:55:24.558588 13564 layer_factory.hpp:77] Creating layer silence
I0220 18:55:24.558593 13564 net.cpp:84] Creating Layer silence
I0220 18:55:24.558598 13564 net.cpp:406] silence <- sigmoid
I0220 18:55:24.558603 13564 net.cpp:122] Setting up silence
I0220 18:55:24.558605 13564 net.cpp:137] Memory required for data: 30531152
…
