…
state {
  phase: TRAIN
}
layer {
  name: "word_images"
  type: "Data"
  top: "word_images"
  top: "label"
  transform_param {
    scale: -0.0039215689
    mean_value: 255
  }
  data_param {
    source: "/data/fwolf/botany/botany_nti500000_pul2-3-4-5_train_word_images_lmdb"
    batch_size: 1
    backend: LMDB
    prefetch: 20
  }
}
layer {
  name: "phocs"
  type: "Data"
  top: "phocs"
  top: "label_phocs"
  data_param {
    source: "/data/fwolf/botany/botany_nti500000_pul2-3-4-5_train_phocs_lmdb"
    batch_size: 1
    backend: LMDB
    prefetch: 20
  }
}
layer {
  name: "conv1_1"
  type: "Convolution"
  bottom: "word_images"
  top: "conv1_1"
  convolution_param {
    num_output: 64
    pad: 1
    kernel_size: 3
    stride: 1
    weight_filler {
      type: "msra"
    }
    bias_filler {
      type: "constant"
    }
    engine: CUDNN
  }
}
layer {
  name: "relu1_1"
  type: "ReLU"
  bottom: "conv1_1"
  top: "conv1_1"
}
layer {
  name: "conv1_2"
  type: "Convolution"
  bottom: "conv1_1"
  top: "conv1_2"
  convolution_param {
    num_output: 64
    pad: 1
    kernel_size: 3
    stride: 1
    weight_filler {
      type: "msra"
    }
    bias_filler {
      type: "constant"
    }
    engine: CUDNN
  }
}
layer {
  name: "relu1_2"
  type: "ReLU"
  bottom: "conv1_2"
  top: "conv1_2"
}
layer {
  name: "pool1"
  type: "Pooling"
  bottom: "conv1_2"
  top: "pool1"
  pooling_param {
    pool: MAX
    kernel_size: 2
    stride: 2
  }
}
layer {
  name: "conv2_1"
  type: "Convolution"
  bottom: "pool1"
  top: "conv2_1"
  convolution_param {
    num_output: 128
    pad: 1
    kernel_size: 3
    stride: 1
    weight_filler {
      type: "msra"
    }
    bias_filler {
      type: "constant"
    }
    engine: CUDNN
  }
}
layer {
  name: "relu2_1"
  type: "ReLU"
  bottom: "conv2_1"
  top: "conv2_1"
}
layer {
  name: "conv2_2"
  type: "Convolution"
  bottom: "conv2_1"
  top: "conv2_2"
  convolution_param {
    num_output: 128
    pad: 1
    kernel_size: 3
    stride: 1
    weight_filler {
      type: "msra"
    }
    bias_filler {
      type: "constant"
    }
    engine: CUDNN
  }
}
layer {
  name: "relu2_2"
  type: "ReLU"
  bottom: "conv2_2"
  top: "conv2_2"
}
layer {
  name: "pool2"
  type: "Pooling"
  bottom: "conv2_2"
  top: "pool2"
  pooling_param {
    pool: MAX
    kernel_size: 2
    stride: 2
  }
}
layer {
  name: "conv3_1"
  type: "Convolution"
  bottom: "pool2"
  top: "conv3_1"
  convolution_param {
    num_output: 256
    pad: 1
    kernel_size: 3
    stride: 1
    weight_filler {
      type: "msra"
    }
    bias_filler {
      type: "constant"
    }
    engine: CUDNN
  }
}
layer {
  name: "relu3_1"
  type: "ReLU"
  bottom: "conv3_1"
  top: "conv3_1"
}
layer {
  name: "conv3_2"
  type: "Convolution"
  bottom: "conv3_1"
  top: "conv3_2"
  convolution_param {
    num_output: 256
    pad: 1
    kernel_size: 3
    stride: 1
    weight_filler {
      type: "msra"
    }
    bias_filler {
      type: "constant"
    }
    engine: CUDNN
  }
}
layer {
  name: "relu3_2"
  type: "ReLU"
  bottom: "conv3_2"
  top: "conv3_2"
}
layer {
  name: "conv3_3"
  type: "Convolution"
  bottom: "conv3_2"
  top: "conv3_3"
  convolution_param {
    num_output: 256
    pad: 1
    kernel_size: 3
    stride: 1
    weight_filler {
      type: "msra"
    }
    bias_filler {
      type: "constant"
    }
    engine: CUDNN
  }
}
layer {
  name: "relu3_3"
  type: "ReLU"
  bottom: "conv3_3"
  top: "conv3_3"
}
layer {
  name: "conv3_4"
  type: "Convolution"
  bottom: "conv3_3"
  top: "conv3_4"
  convolution_param {
    num_output: 256
    pad: 1
    kernel_size: 3
    stride: 1
    weight_filler {
      type: "msra"
    }
    bias_filler {
      type: "constant"
    }
    engine: CUDNN
  }
}
layer {
  name: "relu3_4"
  type: "ReLU"
  bottom: "conv3_4"
  top: "conv3_4"
}
layer {
  name: "conv3_5"
  type: "Convolution"
  bottom: "conv3_4"
  top: "conv3_5"
  convolution_param {
    num_output: 256
    pad: 1
    kernel_size: 3
    stride: 1
    weight_filler {
      type: "msra"
    }
    bias_filler {
      type: "constant"
    }
    engine: CUDNN
  }
}
layer {
  name: "relu3_5"
  type: "ReLU"
  bottom: "conv3_5"
  top: "conv3_5"
}
layer {
  name: "conv3_6"
  type: "Convolution"
  bottom: "conv3_5"
  top: "conv3_6"
  convolution_param {
    num_output: 256
    pad: 1
    kernel_size: 3
    stride: 1
    weight_filler {
      type: "msra"
    }
    bias_filler {
      type: "constant"
    }
    engine: CUDNN
  }
}
layer {
  name: "relu3_6"
  type: "ReLU"
  bottom: "conv3_6"
  top: "conv3_6"
}
layer {
  name: "conv4_1"
  type: "Convolution"
  bottom: "conv3_6"
  top: "conv4_1"
  convolution_param {
    num_output: 512
    pad: 1
    kernel_size: 3
    stride: 1
    weight_filler {
      type: "msra"
    }
    bias_filler {
      type: "constant"
    }
    engine: CUDNN
  }
}
layer {
  name: "relu4_1"
  type: "ReLU"
  bottom: "conv4_1"
  top: "conv4_1"
}
layer {
  name: "conv4_2"
  type: "Convolution"
  bottom: "conv4_1"
  top: "conv4_2"
  convolution_param {
    num_output: 512
    pad: 1
    kernel_size: 3
    stride: 1
    weight_filler {
      type: "msra"
    }
    bias_filler {
      type: "constant"
    }
    engine: CUDNN
  }
}
layer {
  name: "relu4_2"
  type: "ReLU"
  bottom: "conv4_2"
  top: "conv4_2"
}
layer {
  name: "conv4_3"
  type: "Convolution"
  bottom: "conv4_2"
  top: "conv4_3"
  convolution_param {
    num_output: 512
    pad: 1
    kernel_size: 3
    stride: 1
    weight_filler {
      type: "msra"
    }
    bias_filler {
      type: "constant"
    }
    engine: CUDNN
  }
}
layer {
  name: "relu4_3"
  type: "ReLU"
  bottom: "conv4_3"
  top: "conv4_3"
}
layer {
  name: "tpp5"
  type: "TPP"
  bottom: "conv4_3"
  top: "tpp5"
  tpp_param {
    pyramid_layer: 1
    pyramid_layer: 2
    pyramid_layer: 3
    pyramid_layer: 4
    pyramid_layer: 5
    pool: MAX
    engine: CUDNN
  }
}
layer {
  name: "fc6"
  type: "InnerProduct"
  bottom: "tpp5"
  top: "fc6"
  inner_product_param {
    num_output: 4096
    weight_filler {
      type: "msra"
    }
    bias_filler {
      type: "constant"
    }
  }
}
layer {
  name: "relu6"
  type: "ReLU"
  bottom: "fc6"
  top: "fc6"
}
layer {
  name: "drop6"
  type: "Dropout"
  bottom: "fc6"
  top: "fc6"
  include {
    phase: TRAIN
  }
  dropout_param {
    dropout_ratio: 0.5
  }
}
layer {
  name: "fc7"
  type: "InnerProduct"
  bottom: "fc6"
  top: "fc7"
  inner_product_param {
    num_output: 4096
    weight_filler {
      type: "msra"
    }
    bias_filler {
      type: "constant"
    }
  }
}
layer {
  name: "relu7"
  type: "ReLU"
  bottom: "fc7"
  top: "fc7"
}
layer {
  name: "drop7"
  type: "Dropout"
  bottom: "fc7"
  top: "fc7"
  include {
    phase: TRAIN
  }
  dropout_param {
    dropout_ratio: 0.5
  }
}
layer {
  name: "fc8"
  type: "InnerProduct"
  bottom: "fc7"
  top: "fc8"
  inner_product_param {
    num_output: 926
    weight_filler {
      type: "msra"
    }
    bias_filler {
      type: "constant"
    }
  }
}
layer {
  name: "loss"
  type: "SigmoidCrossEntropyLoss"
  bottom: "fc8"
  bottom: "phocs"
  top: "loss"
}
I0215 09:24:28.199209 25627 layer_factory.hpp:77] Creating layer word_images
I0215 09:24:28.199265 25627 db_lmdb.cpp:35] Opened lmdb /data/fwolf/botany/botany_nti500000_pul2-3-4-5_train_word_images_lmdb
I0215 09:24:28.199293 25627 net.cpp:84] Creating Layer word_images
I0215 09:24:28.199298 25627 net.cpp:380] word_images -> word_images
I0215 09:24:28.199306 25627 net.cpp:380] word_images -> label
I0215 09:24:28.200572 25627 data_layer.cpp:44] output data size: 1,1,123,405
I0215 09:24:28.205261 25627 net.cpp:122] Setting up word_images
I0215 09:24:28.205274 25627 net.cpp:129] Top shape: 1 1 123 405 (49815)
I0215 09:24:28.205278 25627 net.cpp:129] Top shape: 1 (1)
I0215 09:24:28.205281 25627 net.cpp:137] Memory required for data: 199264
I0215 09:24:28.205286 25627 layer_factory.hpp:77] Creating layer phocs
I0215 09:24:28.205322 25627 db_lmdb.cpp:35] Opened lmdb /data/fwolf/botany/botany_nti500000_pul2-3-4-5_train_phocs_lmdb
I0215 09:24:28.205344 25627 net.cpp:84] Creating Layer phocs
I0215 09:24:28.205351 25627 net.cpp:380] phocs -> phocs
I0215 09:24:28.205358 25627 net.cpp:380] phocs -> label_phocs
I0215 09:24:28.205677 25627 data_layer.cpp:44] output data size: 1,1,1,926
I0215 09:24:28.208556 25627 net.cpp:122] Setting up phocs
I0215 09:24:28.208569 25627 net.cpp:129] Top shape: 1 1 1 926 (926)
I0215 09:24:28.208571 25627 net.cpp:129] Top shape: 1 (1)
I0215 09:24:28.208575 25627 net.cpp:137] Memory required for data: 202972
I0215 09:24:28.208577 25627 layer_factory.hpp:77] Creating layer conv1_1
I0215 09:24:28.208590 25627 net.cpp:84] Creating Layer conv1_1
I0215 09:24:28.208592 25627 net.cpp:406] conv1_1 <- word_images
I0215 09:24:28.208603 25627 net.cpp:380] conv1_1 -> conv1_1
I0215 09:24:28.709303 25627 net.cpp:122] Setting up conv1_1
I0215 09:24:28.709336 25627 net.cpp:129] Top shape: 1 64 123 405 (3188160)
I0215 09:24:28.709342 25627 net.cpp:137] Memory required for data: 12955612
I0215 09:24:28.709358 25627 layer_factory.hpp:77] Creating layer relu1_1
I0215 09:24:28.709372 25627 net.cpp:84] Creating Layer relu1_1
I0215 09:24:28.709377 25627 net.cpp:406] relu1_1 <- conv1_1
I0215 09:24:28.709383 25627 net.cpp:367] relu1_1 -> conv1_1 (in-place)
I0215 09:24:28.709967 25627 net.cpp:122] Setting up relu1_1
I0215 09:24:28.709981 25627 net.cpp:129] Top shape: 1 64 123 405 (3188160)
I0215 09:24:28.709986 25627 net.cpp:137] Memory required for data: 25708252
I0215 09:24:28.709990 25627 layer_factory.hpp:77] Creating layer conv1_2
I0215 09:24:28.710006 25627 net.cpp:84] Creating Layer conv1_2
I0215 09:24:28.710011 25627 net.cpp:406] conv1_2 <- conv1_1
I0215 09:24:28.710018 25627 net.cpp:380] conv1_2 -> conv1_2
I0215 09:24:28.712774 25627 net.cpp:122] Setting up conv1_2
I0215 09:24:28.712787 25627 net.cpp:129] Top shape: 1 64 123 405 (3188160)
I0215 09:24:28.712792 25627 net.cpp:137] Memory required for data: 38460892
I0215 09:24:28.712802 25627 layer_factory.hpp:77] Creating layer relu1_2
I0215 09:24:28.712810 25627 net.cpp:84] Creating Layer relu1_2
I0215 09:24:28.712815 25627 net.cpp:406] relu1_2 <- conv1_2
I0215 09:24:28.712821 25627 net.cpp:367] relu1_2 -> conv1_2 (in-place)
I0215 09:24:28.713016 25627 net.cpp:122] Setting up relu1_2
I0215 09:24:28.713026 25627 net.cpp:129] Top shape: 1 64 123 405 (3188160)
I0215 09:24:28.713029 25627 net.cpp:137] Memory required for data: 51213532
I0215 09:24:28.713033 25627 layer_factory.hpp:77] Creating layer pool1
I0215 09:24:28.713042 25627 net.cpp:84] Creating Layer pool1
I0215 09:24:28.713047 25627 net.cpp:406] pool1 <- conv1_2
I0215 09:24:28.713052 25627 net.cpp:380] pool1 -> pool1
I0215 09:24:28.713120 25627 net.cpp:122] Setting up pool1
I0215 09:24:28.713129 25627 net.cpp:129] Top shape: 1 64 62 203 (805504)
I0215 09:24:28.713134 25627 net.cpp:137] Memory required for data: 54435548
I0215 09:24:28.713137 25627 layer_factory.hpp:77] Creating layer conv2_1
I0215 09:24:28.713146 25627 net.cpp:84] Creating Layer conv2_1
I0215 09:24:28.713151 25627 net.cpp:406] conv2_1 <- pool1
I0215 09:24:28.713157 25627 net.cpp:380] conv2_1 -> conv2_1
I0215 09:24:28.719898 25627 net.cpp:122] Setting up conv2_1
I0215 09:24:28.719913 25627 net.cpp:129] Top shape: 1 128 62 203 (1611008)
I0215 09:24:28.719918 25627 net.cpp:137] Memory required for data: 60879580
I0215 09:24:28.719928 25627 layer_factory.hpp:77] Creating layer relu2_1
I0215 09:24:28.719938 25627 net.cpp:84] Creating Layer relu2_1
I0215 09:24:28.719943 25627 net.cpp:406] relu2_1 <- conv2_1
I0215 09:24:28.719949 25627 net.cpp:367] relu2_1 -> conv2_1 (in-place)
I0215 09:24:28.720167 25627 net.cpp:122] Setting up relu2_1
I0215 09:24:28.720177 25627 net.cpp:129] Top shape: 1 128 62 203 (1611008)
I0215 09:24:28.720182 25627 net.cpp:137] Memory required for data: 67323612
I0215 09:24:28.720186 25627 layer_factory.hpp:77] Creating layer conv2_2
I0215 09:24:28.720198 25627 net.cpp:84] Creating Layer conv2_2
I0215 09:24:28.720202 25627 net.cpp:406] conv2_2 <- conv2_1
I0215 09:24:28.720209 25627 net.cpp:380] conv2_2 -> conv2_2
I0215 09:24:28.727290 25627 net.cpp:122] Setting up conv2_2
I0215 09:24:28.727304 25627 net.cpp:129] Top shape: 1 128 62 203 (1611008)
I0215 09:24:28.727308 25627 net.cpp:137] Memory required for data: 73767644
I0215 09:24:28.727318 25627 layer_factory.hpp:77] Creating layer relu2_2
I0215 09:24:28.727324 25627 net.cpp:84] Creating Layer relu2_2
I0215 09:24:28.727329 25627 net.cpp:406] relu2_2 <- conv2_2
I0215 09:24:28.727335 25627 net.cpp:367] relu2_2 -> conv2_2 (in-place)
I0215 09:24:28.727939 25627 net.cpp:122] Setting up relu2_2
I0215 09:24:28.727952 25627 net.cpp:129] Top shape: 1 128 62 203 (1611008)
I0215 09:24:28.727957 25627 net.cpp:137] Memory required for data: 80211676
I0215 09:24:28.727960 25627 layer_factory.hpp:77] Creating layer pool2
I0215 09:24:28.727969 25627 net.cpp:84] Creating Layer pool2
I0215 09:24:28.727973 25627 net.cpp:406] pool2 <- conv2_2
I0215 09:24:28.727979 25627 net.cpp:380] pool2 -> pool2
I0215 09:24:28.728051 25627 net.cpp:122] Setting up pool2
I0215 09:24:28.728060 25627 net.cpp:129] Top shape: 1 128 31 102 (404736)
I0215 09:24:28.728063 25627 net.cpp:137] Memory required for data: 81830620
I0215 09:24:28.728067 25627 layer_factory.hpp:77] Creating layer conv3_1
I0215 09:24:28.728078 25627 net.cpp:84] Creating Layer conv3_1
I0215 09:24:28.728082 25627 net.cpp:406] conv3_1 <- pool2
I0215 09:24:28.728091 25627 net.cpp:380] conv3_1 -> conv3_1
I0215 09:24:28.741564 25627 net.cpp:122] Setting up conv3_1
I0215 09:24:28.741578 25627 net.cpp:129] Top shape: 1 256 31 102 (809472)
I0215 09:24:28.741583 25627 net.cpp:137] Memory required for data: 85068508
I0215 09:24:28.741593 25627 layer_factory.hpp:77] Creating layer relu3_1
I0215 09:24:28.741602 25627 net.cpp:84] Creating Layer relu3_1
I0215 09:24:28.741607 25627 net.cpp:406] relu3_1 <- conv3_1
I0215 09:24:28.741613 25627 net.cpp:367] relu3_1 -> conv3_1 (in-place)
I0215 09:24:28.741835 25627 net.cpp:122] Setting up relu3_1
I0215 09:24:28.741845 25627 net.cpp:129] Top shape: 1 256 31 102 (809472)
I0215 09:24:28.741849 25627 net.cpp:137] Memory required for data: 88306396
I0215 09:24:28.741854 25627 layer_factory.hpp:77] Creating layer conv3_2
I0215 09:24:28.741868 25627 net.cpp:84] Creating Layer conv3_2
I0215 09:24:28.741871 25627 net.cpp:406] conv3_2 <- conv3_1
I0215 09:24:28.741878 25627 net.cpp:380] conv3_2 -> conv3_2
I0215 09:24:28.761713 25627 net.cpp:122] Setting up conv3_2
I0215 09:24:28.761726 25627 net.cpp:129] Top shape: 1 256 31 102 (809472)
I0215 09:24:28.761729 25627 net.cpp:137] Memory required for data: 91544284
I0215 09:24:28.761734 25627 layer_factory.hpp:77] Creating layer relu3_2
I0215 09:24:28.761740 25627 net.cpp:84] Creating Layer relu3_2
I0215 09:24:28.761745 25627 net.cpp:406] relu3_2 <- conv3_2
I0215 09:24:28.761750 25627 net.cpp:367] relu3_2 -> conv3_2 (in-place)
I0215 09:24:28.761915 25627 net.cpp:122] Setting up relu3_2
I0215 09:24:28.761924 25627 net.cpp:129] Top shape: 1 256 31 102 (809472)
I0215 09:24:28.761926 25627 net.cpp:137] Memory required for data: 94782172
I0215 09:24:28.761929 25627 layer_factory.hpp:77] Creating layer conv3_3
I0215 09:24:28.761937 25627 net.cpp:84] Creating Layer conv3_3
I0215 09:24:28.761940 25627 net.cpp:406] conv3_3 <- conv3_2
I0215 09:24:28.761946 25627 net.cpp:380] conv3_3 -> conv3_3
I0215 09:24:28.779208 25627 net.cpp:122] Setting up conv3_3
I0215 09:24:28.779225 25627 net.cpp:129] Top shape: 1 256 31 102 (809472)
I0215 09:24:28.779230 25627 net.cpp:137] Memory required for data: 98020060
I0215 09:24:28.779238 25627 layer_factory.hpp:77] Creating layer relu3_3
I0215 09:24:28.779248 25627 net.cpp:84] Creating Layer relu3_3
I0215 09:24:28.779253 25627 net.cpp:406] relu3_3 <- conv3_3
I0215 09:24:28.779259 25627 net.cpp:367] relu3_3 -> conv3_3 (in-place)
I0215 09:24:28.779906 25627 net.cpp:122] Setting up relu3_3
I0215 09:24:28.779918 25627 net.cpp:129] Top shape: 1 256 31 102 (809472)
I0215 09:24:28.779923 25627 net.cpp:137] Memory required for data: 101257948
I0215 09:24:28.779927 25627 layer_factory.hpp:77] Creating layer conv3_4
I0215 09:24:28.779942 25627 net.cpp:84] Creating Layer conv3_4
I0215 09:24:28.779945 25627 net.cpp:406] conv3_4 <- conv3_3
I0215 09:24:28.779953 25627 net.cpp:380] conv3_4 -> conv3_4
I0215 09:24:28.804177 25627 net.cpp:122] Setting up conv3_4
I0215 09:24:28.804193 25627 net.cpp:129] Top shape: 1 256 31 102 (809472)
I0215 09:24:28.804198 25627 net.cpp:137] Memory required for data: 104495836
I0215 09:24:28.804208 25627 layer_factory.hpp:77] Creating layer relu3_4
I0215 09:24:28.804214 25627 net.cpp:84] Creating Layer relu3_4
I0215 09:24:28.804219 25627 net.cpp:406] relu3_4 <- conv3_4
I0215 09:24:28.804226 25627 net.cpp:367] relu3_4 -> conv3_4 (in-place)
I0215 09:24:28.804447 25627 net.cpp:122] Setting up relu3_4
I0215 09:24:28.804457 25627 net.cpp:129] Top shape: 1 256 31 102 (809472)
I0215 09:24:28.804461 25627 net.cpp:137] Memory required for data: 107733724
I0215 09:24:28.804466 25627 layer_factory.hpp:77] Creating layer conv3_5
I0215 09:24:28.804478 25627 net.cpp:84] Creating Layer conv3_5
I0215 09:24:28.804482 25627 net.cpp:406] conv3_5 <- conv3_4
I0215 09:24:28.804491 25627 net.cpp:380] conv3_5 -> conv3_5
I0215 09:24:28.828770 25627 net.cpp:122] Setting up conv3_5
I0215 09:24:28.828789 25627 net.cpp:129] Top shape: 1 256 31 102 (809472)
I0215 09:24:28.828794 25627 net.cpp:137] Memory required for data: 110971612
I0215 09:24:28.828807 25627 layer_factory.hpp:77] Creating layer relu3_5
I0215 09:24:28.828815 25627 net.cpp:84] Creating Layer relu3_5
I0215 09:24:28.828820 25627 net.cpp:406] relu3_5 <- conv3_5
I0215 09:24:28.828827 25627 net.cpp:367] relu3_5 -> conv3_5 (in-place)
I0215 09:24:28.829056 25627 net.cpp:122] Setting up relu3_5
I0215 09:24:28.829066 25627 net.cpp:129] Top shape: 1 256 31 102 (809472)
I0215 09:24:28.829069 25627 net.cpp:137] Memory required for data: 114209500
I0215 09:24:28.829073 25627 layer_factory.hpp:77] Creating layer conv3_6
I0215 09:24:28.829085 25627 net.cpp:84] Creating Layer conv3_6
I0215 09:24:28.829090 25627 net.cpp:406] conv3_6 <- conv3_5
I0215 09:24:28.829098 25627 net.cpp:380] conv3_6 -> conv3_6
I0215 09:24:28.853406 25627 net.cpp:122] Setting up conv3_6
I0215 09:24:28.853423 25627 net.cpp:129] Top shape: 1 256 31 102 (809472)
I0215 09:24:28.853427 25627 net.cpp:137] Memory required for data: 117447388
I0215 09:24:28.853437 25627 layer_factory.hpp:77] Creating layer relu3_6
I0215 09:24:28.853446 25627 net.cpp:84] Creating Layer relu3_6
I0215 09:24:28.853451 25627 net.cpp:406] relu3_6 <- conv3_6
I0215 09:24:28.853457 25627 net.cpp:367] relu3_6 -> conv3_6 (in-place)
I0215 09:24:28.853679 25627 net.cpp:122] Setting up relu3_6
I0215 09:24:28.853689 25627 net.cpp:129] Top shape: 1 256 31 102 (809472)
I0215 09:24:28.853693 25627 net.cpp:137] Memory required for data: 120685276
I0215 09:24:28.853700 25627 layer_factory.hpp:77] Creating layer conv4_1
I0215 09:24:28.853713 25627 net.cpp:84] Creating Layer conv4_1
I0215 09:24:28.853718 25627 net.cpp:406] conv4_1 <- conv3_6
I0215 09:24:28.853724 25627 net.cpp:380] conv4_1 -> conv4_1
I0215 09:24:28.899596 25627 net.cpp:122] Setting up conv4_1
I0215 09:24:28.899613 25627 net.cpp:129] Top shape: 1 512 31 102 (1618944)
I0215 09:24:28.899617 25627 net.cpp:137] Memory required for data: 127161052
I0215 09:24:28.899626 25627 layer_factory.hpp:77] Creating layer relu4_1
I0215 09:24:28.899634 25627 net.cpp:84] Creating Layer relu4_1
I0215 09:24:28.899639 25627 net.cpp:406] relu4_1 <- conv4_1
I0215 09:24:28.899646 25627 net.cpp:367] relu4_1 -> conv4_1 (in-place)
I0215 09:24:28.900269 25627 net.cpp:122] Setting up relu4_1
I0215 09:24:28.900282 25627 net.cpp:129] Top shape: 1 512 31 102 (1618944)
I0215 09:24:28.900286 25627 net.cpp:137] Memory required for data: 133636828
I0215 09:24:28.900291 25627 layer_factory.hpp:77] Creating layer conv4_2
I0215 09:24:28.900303 25627 net.cpp:84] Creating Layer conv4_2
I0215 09:24:28.900308 25627 net.cpp:406] conv4_2 <- conv4_1
I0215 09:24:28.900315 25627 net.cpp:380] conv4_2 -> conv4_2
I0215 09:24:28.989498 25627 net.cpp:122] Setting up conv4_2
I0215 09:24:28.989526 25627 net.cpp:129] Top shape: 1 512 31 102 (1618944)
I0215 09:24:28.989531 25627 net.cpp:137] Memory required for data: 140112604
I0215 09:24:28.989543 25627 layer_factory.hpp:77] Creating layer relu4_2
I0215 09:24:28.989554 25627 net.cpp:84] Creating Layer relu4_2
I0215 09:24:28.989560 25627 net.cpp:406] relu4_2 <- conv4_2
I0215 09:24:28.989569 25627 net.cpp:367] relu4_2 -> conv4_2 (in-place)
I0215 09:24:28.989792 25627 net.cpp:122] Setting up relu4_2
I0215 09:24:28.989802 25627 net.cpp:129] Top shape: 1 512 31 102 (1618944)
I0215 09:24:28.989806 25627 net.cpp:137] Memory required for data: 146588380
I0215 09:24:28.989811 25627 layer_factory.hpp:77] Creating layer conv4_3
I0215 09:24:28.989825 25627 net.cpp:84] Creating Layer conv4_3
I0215 09:24:28.989830 25627 net.cpp:406] conv4_3 <- conv4_2
I0215 09:24:28.989836 25627 net.cpp:380] conv4_3 -> conv4_3
I0215 09:24:29.071702 25627 net.cpp:122] Setting up conv4_3
I0215 09:24:29.071727 25627 net.cpp:129] Top shape: 1 512 31 102 (1618944)
I0215 09:24:29.071729 25627 net.cpp:137] Memory required for data: 153064156
I0215 09:24:29.071738 25627 layer_factory.hpp:77] Creating layer relu4_3
I0215 09:24:29.071746 25627 net.cpp:84] Creating Layer relu4_3
I0215 09:24:29.071750 25627 net.cpp:406] relu4_3 <- conv4_3
I0215 09:24:29.071755 25627 net.cpp:367] relu4_3 -> conv4_3 (in-place)
I0215 09:24:29.071933 25627 net.cpp:122] Setting up relu4_3
I0215 09:24:29.071941 25627 net.cpp:129] Top shape: 1 512 31 102 (1618944)
I0215 09:24:29.071944 25627 net.cpp:137] Memory required for data: 159539932
I0215 09:24:29.071946 25627 layer_factory.hpp:77] Creating layer tpp5
I0215 09:24:29.071952 25627 net.cpp:84] Creating Layer tpp5
I0215 09:24:29.071955 25627 net.cpp:406] tpp5 <- conv4_3
I0215 09:24:29.071960 25627 net.cpp:380] tpp5 -> tpp5
I0215 09:24:29.072564 25627 net.cpp:122] Setting up tpp5
I0215 09:24:29.072572 25627 net.cpp:129] Top shape: 1 7680 (7680)
I0215 09:24:29.072576 25627 net.cpp:137] Memory required for data: 159570652
I0215 09:24:29.072578 25627 layer_factory.hpp:77] Creating layer fc6
I0215 09:24:29.072584 25627 net.cpp:84] Creating Layer fc6
I0215 09:24:29.072587 25627 net.cpp:406] fc6 <- tpp5
I0215 09:24:29.072592 25627 net.cpp:380] fc6 -> fc6
I0215 09:24:30.092350 25627 net.cpp:122] Setting up fc6
I0215 09:24:30.092376 25627 net.cpp:129] Top shape: 1 4096 (4096)
I0215 09:24:30.092380 25627 net.cpp:137] Memory required for data: 159587036
I0215 09:24:30.092387 25627 layer_factory.hpp:77] Creating layer relu6
I0215 09:24:30.092397 25627 net.cpp:84] Creating Layer relu6
I0215 09:24:30.092401 25627 net.cpp:406] relu6 <- fc6
I0215 09:24:30.092407 25627 net.cpp:367] relu6 -> fc6 (in-place)
I0215 09:24:30.093008 25627 net.cpp:122] Setting up relu6
I0215 09:24:30.093019 25627 net.cpp:129] Top shape: 1 4096 (4096)
I0215 09:24:30.093024 25627 net.cpp:137] Memory required for data: 159603420
I0215 09:24:30.093027 25627 layer_factory.hpp:77] Creating layer drop6
I0215 09:24:30.093036 25627 net.cpp:84] Creating Layer drop6
I0215 09:24:30.093039 25627 net.cpp:406] drop6 <- fc6
I0215 09:24:30.093044 25627 net.cpp:367] drop6 -> fc6 (in-place)
I0215 09:24:30.093081 25627 net.cpp:122] Setting up drop6
I0215 09:24:30.093087 25627 net.cpp:129] Top shape: 1 4096 (4096)
I0215 09:24:30.093091 25627 net.cpp:137] Memory required for data: 159619804
I0215 09:24:30.093092 25627 layer_factory.hpp:77] Creating layer fc7
I0215 09:24:30.093098 25627 net.cpp:84] Creating Layer fc7
I0215 09:24:30.093101 25627 net.cpp:406] fc7 <- fc6
I0215 09:24:30.093106 25627 net.cpp:380] fc7 -> fc7
I0215 09:24:30.586169 25627 net.cpp:122] Setting up fc7
I0215 09:24:30.586191 25627 net.cpp:129] Top shape: 1 4096 (4096)
I0215 09:24:30.586194 25627 net.cpp:137] Memory required for data: 159636188
I0215 09:24:30.586201 25627 layer_factory.hpp:77] Creating layer relu7
I0215 09:24:30.586210 25627 net.cpp:84] Creating Layer relu7
I0215 09:24:30.586213 25627 net.cpp:406] relu7 <- fc7
I0215 09:24:30.586220 25627 net.cpp:367] relu7 -> fc7 (in-place)
I0215 09:24:30.586439 25627 net.cpp:122] Setting up relu7
I0215 09:24:30.586447 25627 net.cpp:129] Top shape: 1 4096 (4096)
I0215 09:24:30.586450 25627 net.cpp:137] Memory required for data: 159652572
I0215 09:24:30.586452 25627 layer_factory.hpp:77] Creating layer drop7
I0215 09:24:30.586460 25627 net.cpp:84] Creating Layer drop7
I0215 09:24:30.586463 25627 net.cpp:406] drop7 <- fc7
I0215 09:24:30.586467 25627 net.cpp:367] drop7 -> fc7 (in-place)
I0215 09:24:30.586503 25627 net.cpp:122] Setting up drop7
I0215 09:24:30.586508 25627 net.cpp:129] Top shape: 1 4096 (4096)
I0215 09:24:30.586511 25627 net.cpp:137] Memory required for data: 159668956
I0215 09:24:30.586513 25627 layer_factory.hpp:77] Creating layer fc8
I0215 09:24:30.586519 25627 net.cpp:84] Creating Layer fc8
I0215 09:24:30.586521 25627 net.cpp:406] fc8 <- fc7
I0215 09:24:30.586525 25627 net.cpp:380] fc8 -> fc8
I0215 09:24:30.679536 25627 net.cpp:122] Setting up fc8
I0215 09:24:30.679560 25627 net.cpp:129] Top shape: 1 926 (926)
I0215 09:24:30.679563 25627 net.cpp:137] Memory required for data: 159672660
I0215 09:24:30.679571 25627 layer_factory.hpp:77] Creating layer loss
I0215 09:24:30.679579 25627 net.cpp:84] Creating Layer loss
I0215 09:24:30.679584 25627 net.cpp:406] loss <- fc8
I0215 09:24:30.679589 25627 net.cpp:406] loss <- phocs
I0215 09:24:30.679594 25627 net.cpp:380] loss -> loss
I0215 09:24:30.679651 25627 net.cpp:122] Setting up loss
…
state {
  phase: TEST
}
layer {
  name: "word_images"
  type: "Data"
  top: "word_images"
  top: "label"
  transform_param {
    scale: -0.0039215689
    mean_value: 255
  }
  data_param {
    source: "/data/fwolf/botany/botany_nti500000_pul2-3-4-5_test_word_images_lmdb"
    batch_size: 1
    backend: LMDB
    prefetch: 20
  }
}
layer {
  name: "phocs"
  type: "Data"
  top: "phocs"
  top: "label_phocs"
  data_param {
    source: "/data/fwolf/botany/botany_nti500000_pul2-3-4-5_test_phocs_lmdb"
    batch_size: 1
    backend: LMDB
    prefetch: 20
  }
}
layer {
  name: "conv1_1"
  type: "Convolution"
  bottom: "word_images"
  top: "conv1_1"
  convolution_param {
    num_output: 64
    pad: 1
    kernel_size: 3
    stride: 1
    weight_filler {
      type: "msra"
    }
    bias_filler {
      type: "constant"
    }
    engine: CUDNN
  }
}
layer {
  name: "relu1_1"
  type: "ReLU"
  bottom: "conv1_1"
  top: "conv1_1"
}
layer {
  name: "conv1_2"
  type: "Convolution"
  bottom: "conv1_1"
  top: "conv1_2"
  convolution_param {
    num_output: 64
    pad: 1
    kernel_size: 3
    stride: 1
    weight_filler {
      type: "msra"
    }
    bias_filler {
      type: "constant"
    }
    engine: CUDNN
  }
}
layer {
  name: "relu1_2"
  type: "ReLU"
  bottom: "conv1_2"
  top: "conv1_2"
}
layer {
  name: "pool1"
  type: "Pooling"
  bottom: "conv1_2"
  top: "pool1"
  pooling_param {
    pool: MAX
    kernel_size: 2
    stride: 2
  }
}
layer {
  name: "conv2_1"
  type: "Convolution"
  bottom: "pool1"
  top: "conv2_1"
  convolution_param {
    num_output: 128
    pad: 1
    kernel_size: 3
    stride: 1
    weight_filler {
      type: "msra"
    }
    bias_filler {
      type: "constant"
    }
    engine: CUDNN
  }
}
layer {
  name: "relu2_1"
  type: "ReLU"
  bottom: "conv2_1"
  top: "conv2_1"
}
layer {
  name: "conv2_2"
  type: "Convolution"
  bottom: "conv2_1"
  top: "conv2_2"
  convolution_param {
    num_output: 128
    pad: 1
    kernel_size: 3
    stride: 1
    weight_filler {
      type: "msra"
    }
    bias_filler {
      type: "constant"
    }
    engine: CUDNN
  }
}
layer {
  name: "relu2_2"
  type: "ReLU"
  bottom: "conv2_2"
  top: "conv2_2"
}
layer {
  name: "pool2"
  type: "Pooling"
  bottom: "conv2_2"
  top: "pool2"
  pooling_param {
    pool: MAX
    kernel_size: 2
    stride: 2
  }
}
layer {
  name: "conv3_1"
  type: "Convolution"
  bottom: "pool2"
  top: "conv3_1"
  convolution_param {
    num_output: 256
    pad: 1
    kernel_size: 3
    stride: 1
    weight_filler {
      type: "msra"
    }
    bias_filler {
      type: "constant"
    }
    engine: CUDNN
  }
}
layer {
  name: "relu3_1"
  type: "ReLU"
  bottom: "conv3_1"
  top: "conv3_1"
}
layer {
  name: "conv3_2"
  type: "Convolution"
  bottom: "conv3_1"
  top: "conv3_2"
  convolution_param {
    num_output: 256
    pad: 1
    kernel_size: 3
    stride: 1
    weight_filler {
      type: "msra"
    }
    bias_filler {
      type: "constant"
    }
    engine: CUDNN
  }
}
layer {
  name: "relu3_2"
  type: "ReLU"
  bottom: "conv3_2"
  top: "conv3_2"
}
layer {
  name: "conv3_3"
  type: "Convolution"
  bottom: "conv3_2"
  top: "conv3_3"
  convolution_param {
    num_output: 256
    pad: 1
    kernel_size: 3
    stride: 1
    weight_filler {
      type: "msra"
    }
    bias_filler {
      type: "constant"
    }
    engine: CUDNN
  }
}
layer {
  name: "relu3_3"
  type: "ReLU"
  bottom: "conv3_3"
  top: "conv3_3"
}
layer {
  name: "conv3_4"
  type: "Convolution"
  bottom: "conv3_3"
  top: "conv3_4"
  convolution_param {
    num_output: 256
    pad: 1
    kernel_size: 3
    stride: 1
    weight_filler {
      type: "msra"
    }
    bias_filler {
      type: "constant"
    }
    engine: CUDNN
  }
}
layer {
  name: "relu3_4"
  type: "ReLU"
  bottom: "conv3_4"
  top: "conv3_4"
}
layer {
  name: "conv3_5"
  type: "Convolution"
  bottom: "conv3_4"
  top: "conv3_5"
  convolution_param {
    num_output: 256
    pad: 1
    kernel_size: 3
    stride: 1
    weight_filler {
      type: "msra"
    }
    bias_filler {
      type: "constant"
    }
    engine: CUDNN
  }
}
layer {
  name: "relu3_5"
  type: "ReLU"
  bottom: "conv3_5"
  top: "conv3_5"
}
layer {
  name: "conv3_6"
  type: "Convolution"
  bottom: "conv3_5"
  top: "conv3_6"
  convolution_param {
    num_output: 256
    pad: 1
    kernel_size: 3
    stride: 1
    weight_filler {
      type: "msra"
    }
    bias_filler {
      type: "constant"
    }
    engine: CUDNN
  }
}
layer {
  name: "relu3_6"
  type: "ReLU"
  bottom: "conv3_6"
  top: "conv3_6"
}
layer {
  name: "conv4_1"
  type: "Convolution"
  bottom: "conv3_6"
  top: "conv4_1"
  convolution_param {
    num_output: 512
    pad: 1
    kernel_size: 3
    stride: 1
    weight_filler {
      type: "msra"
    }
    bias_filler {
      type: "constant"
    }
    engine: CUDNN
  }
}
layer {
  name: "relu4_1"
  type: "ReLU"
  bottom: "conv4_1"
  top: "conv4_1"
}
layer {
  name: "conv4_2"
  type: "Convolution"
  bottom: "conv4_1"
  top: "conv4_2"
  convolution_param {
    num_output: 512
    pad: 1
    kernel_size: 3
    stride: 1
    weight_filler {
      type: "msra"
    }
    bias_filler {
      type: "constant"
    }
    engine: CUDNN
  }
}
layer {
  name: "relu4_2"
  type: "ReLU"
  bottom: "conv4_2"
  top: "conv4_2"
}
layer {
  name: "conv4_3"
  type: "Convolution"
  bottom: "conv4_2"
  top: "conv4_3"
  convolution_param {
    num_output: 512
    pad: 1
    kernel_size: 3
    stride: 1
    weight_filler {
      type: "msra"
    }
    bias_filler {
      type: "constant"
    }
    engine: CUDNN
  }
}
layer {
  name: "relu4_3"
  type: "ReLU"
  bottom: "conv4_3"
  top: "conv4_3"
}
layer {
  name: "tpp5"
  type: "TPP"
  bottom: "conv4_3"
  top: "tpp5"
  tpp_param {
    pyramid_layer: 1
    pyramid_layer: 2
    pyramid_layer: 3
    pyramid_layer: 4
    pyramid_layer: 5
    pool: MAX
    engine: CUDNN
  }
}
layer {
  name: "fc6"
  type: "InnerProduct"
  bottom: "tpp5"
  top: "fc6"
  inner_product_param {
    num_output: 4096
    weight_filler {
      type: "msra"
    }
    bias_filler {
      type: "constant"
    }
  }
}
layer {
  name: "relu6"
  type: "ReLU"
  bottom: "fc6"
  top: "fc6"
}
layer {
  name: "fc7"
  type: "InnerProduct"
  bottom: "fc6"
  top: "fc7"
  inner_product_param {
    num_output: 4096
    weight_filler {
      type: "msra"
    }
    bias_filler {
      type: "constant"
    }
  }
}
layer {
  name: "relu7"
  type: "ReLU"
  bottom: "fc7"
  top: "fc7"
}
layer {
  name: "fc8"
  type: "InnerProduct"
  bottom: "fc7"
  top: "fc8"
  inner_product_param {
    num_output: 926
    weight_filler {
      type: "msra"
    }
    bias_filler {
      type: "constant"
    }
  }
}
layer {
  name: "sigmoid"
  type: "Sigmoid"
  bottom: "fc8"
  top: "sigmoid"
  include {
    phase: TEST
  }
}
layer {
  name: "silence"
  type: "Silence"
  bottom: "sigmoid"
  include {
    phase: TEST
  }
}
layer {
  name: "loss"
  type: "SigmoidCrossEntropyLoss"
  bottom: "fc8"
  bottom: "phocs"
  top: "loss"
}
I0215 09:24:30.681398 25627 layer_factory.hpp:77] Creating layer word_images
I0215 09:24:30.681450 25627 db_lmdb.cpp:35] Opened lmdb /data/fwolf/botany/botany_nti500000_pul2-3-4-5_test_word_images_lmdb
I0215 09:24:30.681471 25627 net.cpp:84] Creating Layer word_images
I0215 09:24:30.681476 25627 net.cpp:380] word_images -> word_images
I0215 09:24:30.681483 25627 net.cpp:380] word_images -> label
I0215 09:24:30.681892 25627 data_layer.cpp:44] output data size: 1,1,158,315
I0215 09:24:30.686713 25627 net.cpp:122] Setting up word_images
I0215 09:24:30.686727 25627 net.cpp:129] Top shape: 1 1 158 315 (49770)
I0215 09:24:30.686730 25627 net.cpp:129] Top shape: 1 (1)
I0215 09:24:30.686733 25627 net.cpp:137] Memory required for data: 199084
I0215 09:24:30.686736 25627 layer_factory.hpp:77] Creating layer phocs
I0215 09:24:30.686776 25627 db_lmdb.cpp:35] Opened lmdb /data/fwolf/botany/botany_nti500000_pul2-3-4-5_test_phocs_lmdb
I0215 09:24:30.686795 25627 net.cpp:84] Creating Layer phocs
I0215 09:24:30.686800 25627 net.cpp:380] phocs -> phocs
I0215 09:24:30.686807 25627 net.cpp:380] phocs -> label_phocs
I0215 09:24:30.687227 25627 data_layer.cpp:44] output data size: 1,1,1,926
I0215 09:24:30.689456 25627 net.cpp:122] Setting up phocs
I0215 09:24:30.689466 25627 net.cpp:129] Top shape: 1 1 1 926 (926)
I0215 09:24:30.689471 25627 net.cpp:129] Top shape: 1 (1)
I0215 09:24:30.689472 25627 net.cpp:137] Memory required for data: 202792
I0215 09:24:30.689476 25627 layer_factory.hpp:77] Creating layer conv1_1
I0215 09:24:30.689484 25627 net.cpp:84] Creating Layer conv1_1
I0215 09:24:30.689487 25627 net.cpp:406] conv1_1 <- word_images
I0215 09:24:30.689493 25627 net.cpp:380] conv1_1 -> conv1_1
I0215 09:24:30.691686 25627 net.cpp:122] Setting up conv1_1
I0215 09:24:30.691699 25627 net.cpp:129] Top shape: 1 64 158 315 (3185280)
I0215 09:24:30.691702 25627 net.cpp:137] Memory required for data: 12943912
I0215 09:24:30.691710 25627 layer_factory.hpp:77] Creating layer relu1_1
I0215 09:24:30.691716 25627 net.cpp:84] Creating Layer relu1_1
I0215 09:24:30.691720 25627 net.cpp:406] relu1_1 <- conv1_1
I0215 09:24:30.691723 25627 net.cpp:367] relu1_1 -> conv1_1 (in-place)
I0215 09:24:30.691968 25627 net.cpp:122] Setting up relu1_1
I0215 09:24:30.691977 25627 net.cpp:129] Top shape: 1 64 158 315 (3185280)
I0215 09:24:30.691980 25627 net.cpp:137] Memory required for data: 25685032
I0215 09:24:30.691983 25627 layer_factory.hpp:77] Creating layer conv1_2
I0215 09:24:30.691992 25627 net.cpp:84] Creating Layer conv1_2
I0215 09:24:30.691994 25627 net.cpp:406] conv1_2 <- conv1_1
I0215 09:24:30.692000 25627 net.cpp:380] conv1_2 -> conv1_2
I0215 09:24:30.694453 25627 net.cpp:122] Setting up conv1_2
I0215 09:24:30.694463 25627 net.cpp:129] Top shape: 1 64 158 315 (3185280)
I0215 09:24:30.694470 25627 net.cpp:137] Memory required for data: 38426152
I0215 09:24:30.694478 25627 layer_factory.hpp:77] Creating layer relu1_2
I0215 09:24:30.694483 25627 net.cpp:84] Creating Layer relu1_2
I0215 09:24:30.694485 25627 net.cpp:406] relu1_2 <- conv1_2
I0215 09:24:30.694489 25627 net.cpp:367] relu1_2 -> conv1_2 (in-place)
I0215 09:24:30.694936 25627 net.cpp:122] Setting up relu1_2
I0215 09:24:30.694947 25627 net.cpp:129] Top shape: 1 64 158 315 (3185280)
I0215 09:24:30.694949 25627 net.cpp:137] Memory required for data: 51167272
I0215 09:24:30.694952 25627 layer_factory.hpp:77] Creating layer pool1
I0215 09:24:30.694958 25627 net.cpp:84] Creating Layer pool1
I0215 09:24:30.694962 25627 net.cpp:406] pool1 <- conv1_2
I0215 09:24:30.694967 25627 net.cpp:380] pool1 -> pool1
I0215 09:24:30.695029 25627 net.cpp:122] Setting up pool1
I0215 09:24:30.695035 25627 net.cpp:129] Top shape: 1 64 79 158 (798848)
I0215 09:24:30.695037 25627 net.cpp:137] Memory required for data: 54362664
I0215 09:24:30.695040 25627 layer_factory.hpp:77] Creating layer conv2_1
I0215 09:24:30.695049 25627 net.cpp:84] Creating Layer conv2_1
I0215 09:24:30.695050 25627 net.cpp:406] conv2_1 <- pool1
I0215 09:24:30.695055 25627 net.cpp:380] conv2_1 -> conv2_1
I0215 09:24:30.699074 25627 net.cpp:122] Setting up conv2_1
I0215 09:24:30.699086 25627 net.cpp:129] Top shape: 1 128 79 158 (1597696)
I0215 09:24:30.699090 25627 net.cpp:137] Memory required for data: 60753448
I0215 09:24:30.699097 25627 layer_factory.hpp:77] Creating layer relu2_1
I0215 09:24:30.699103 25627 net.cpp:84] Creating Layer relu2_1
I0215 09:24:30.699106 25627 net.cpp:406] relu2_1 <- conv2_1
I0215 09:24:30.699110 25627 net.cpp:367] relu2_1 -> conv2_1 (in-place)
I0215 09:24:30.699281 25627 net.cpp:122] Setting up relu2_1
I0215 09:24:30.699290 25627 net.cpp:129] Top shape: 1 128 79 158 (1597696)
I0215 09:24:30.699293 25627 net.cpp:137] Memory required for data: 67144232
I0215 09:24:30.699295 25627 layer_factory.hpp:77] Creating layer conv2_2
I0215 09:24:30.699303 25627 net.cpp:84] Creating Layer conv2_2
I0215 09:24:30.699306 25627 net.cpp:406] conv2_2 <- conv2_1
I0215 09:24:30.699311 25627 net.cpp:380] conv2_2 -> conv2_2
I0215 09:24:30.704216 25627 net.cpp:122] Setting up conv2_2
I0215 09:24:30.704227 25627 net.cpp:129] Top shape: 1 128 79 158 (1597696)
I0215 09:24:30.704231 25627 net.cpp:137] Memory required for data: 73535016
I0215 09:24:30.704236 25627 layer_factory.hpp:77] Creating layer relu2_2
I0215 09:24:30.704241 25627 net.cpp:84] Creating Layer relu2_2
I0215 09:24:30.704243 25627 net.cpp:406] relu2_2 <- conv2_2
I0215 09:24:30.704248 25627 net.cpp:367] relu2_2 -> conv2_2 (in-place)
I0215 09:24:30.704417 25627 net.cpp:122] Setting up relu2_2
I0215 09:24:30.704424 25627 net.cpp:129] Top shape: 1 128 79 158 (1597696)
I0215 09:24:30.704428 25627 net.cpp:137] Memory required for data: 79925800
I0215 09:24:30.704432 25627 layer_factory.hpp:77] Creating layer pool2
I0215 09:24:30.704435 25627 net.cpp:84] Creating Layer pool2
I0215 09:24:30.704438 25627 net.cpp:406] pool2 <- conv2_2
I0215 09:24:30.704442 25627 net.cpp:380] pool2 -> pool2
I0215 09:24:30.704506 25627 net.cpp:122] Setting up pool2
I0215 09:24:30.704512 25627 net.cpp:129] Top shape: 1 128 40 79 (404480)
I0215 09:24:30.704514 25627 net.cpp:137] Memory required for data: 81543720
I0215 09:24:30.704517 25627 layer_factory.hpp:77] Creating layer conv3_1
I0215 09:24:30.704525 25627 net.cpp:84] Creating Layer conv3_1
I0215 09:24:30.704529 25627 net.cpp:406] conv3_1 <- pool2
I0215 09:24:30.704533 25627 net.cpp:380] conv3_1 -> conv3_1
I0215 09:24:30.712837 25627 net.cpp:122] Setting up conv3_1
I0215 09:24:30.712847 25627 net.cpp:129] Top shape: 1 256 40 79 (808960)
I0215 09:24:30.712851 25627 net.cpp:137] Memory required for data: 84779560
I0215 09:24:30.712858 25627 layer_factory.hpp:77] Creating layer relu3_1
I0215 09:24:30.712863 25627 net.cpp:84] Creating Layer relu3_1
I0215 09:24:30.712865 25627 net.cpp:406] relu3_1 <- conv3_1
I0215 09:24:30.712870 25627 net.cpp:367] relu3_1 -> conv3_1 (in-place)
I0215 09:24:30.713043 25627 net.cpp:122] Setting up relu3_1
I0215 09:24:30.713052 25627 net.cpp:129] Top shape: 1 256 40 79 (808960)
I0215 09:24:30.713055 25627 net.cpp:137] Memory required for data: 88015400
I0215 09:24:30.713057 25627 layer_factory.hpp:77] Creating layer conv3_2
I0215 09:24:30.713064 25627 net.cpp:84] Creating Layer conv3_2
I0215 09:24:30.713068 25627 net.cpp:406] conv3_2 <- conv3_1
I0215 09:24:30.713073 25627 net.cpp:380] conv3_2 -> conv3_2
I0215 09:24:30.729240 25627 net.cpp:122] Setting up conv3_2
I0215 09:24:30.729252 25627 net.cpp:129] Top shape: 1 256 40 79 (808960)
I0215 09:24:30.729255 25627 net.cpp:137] Memory required for data: 91251240
I0215 09:24:30.729260 25627 layer_factory.hpp:77] Creating layer relu3_2
I0215 09:24:30.729266 25627 net.cpp:84] Creating Layer relu3_2
I0215 09:24:30.729269 25627 net.cpp:406] relu3_2 <- conv3_2
I0215 09:24:30.729274 25627 net.cpp:367] relu3_2 -> conv3_2 (in-place)
I0215 09:24:30.729718 25627 net.cpp:122] Setting up relu3_2
I0215 09:24:30.729729 25627 net.cpp:129] Top shape: 1 256 40 79 (808960)
I0215 09:24:30.729732 25627 net.cpp:137] Memory required for data: 94487080
I0215 09:24:30.729735 25627 layer_factory.hpp:77] Creating layer conv3_3
I0215 09:24:30.729745 25627 net.cpp:84] Creating Layer conv3_3
I0215 09:24:30.729748 25627 net.cpp:406] conv3_3 <- conv3_2
I0215 09:24:30.729753 25627 net.cpp:380] conv3_3 -> conv3_3
I0215 09:24:30.745909 25627 net.cpp:122] Setting up conv3_3
I0215 09:24:30.745920 25627 net.cpp:129] Top shape: 1 256 40 79 (808960)
I0215 09:24:30.745923 25627 net.cpp:137] Memory required for data: 97722920
I0215 09:24:30.745929 25627 layer_factory.hpp:77] Creating layer relu3_3
I0215 09:24:30.745935 25627 net.cpp:84] Creating Layer relu3_3
I0215 09:24:30.745939 25627 net.cpp:406] relu3_3 <- conv3_3
I0215 09:24:30.745942 25627 net.cpp:367] relu3_3 -> conv3_3 (in-place)
I0215 09:24:30.746117 25627 net.cpp:122] Setting up relu3_3
I0215 09:24:30.746125 25627 net.cpp:129] Top shape: 1 256 40 79 (808960)
I0215 09:24:30.746127 25627 net.cpp:137] Memory required for data: 100958760
I0215 09:24:30.746130 25627 layer_factory.hpp:77] Creating layer conv3_4
I0215 09:24:30.746139 25627 net.cpp:84] Creating Layer conv3_4
I0215 09:24:30.746141 25627 net.cpp:406] conv3_4 <- conv3_3
I0215 09:24:30.746146 25627 net.cpp:380] conv3_4 -> conv3_4
I0215 09:24:30.762277 25627 net.cpp:122] Setting up conv3_4
I0215 09:24:30.762289 25627 net.cpp:129] Top shape: 1 256 40 79 (808960)
I0215 09:24:30.762291 25627 net.cpp:137] Memory required for data: 104194600
I0215 09:24:30.762297 25627 layer_factory.hpp:77] Creating layer relu3_4
I0215 09:24:30.762302 25627 net.cpp:84] Creating Layer relu3_4
I0215 09:24:30.762305 25627 net.cpp:406] relu3_4 <- conv3_4
I0215 09:24:30.762310 25627 net.cpp:367] relu3_4 -> conv3_4 (in-place)
I0215 09:24:30.762480 25627 net.cpp:122] Setting up relu3_4
I0215 09:24:30.762487 25627 net.cpp:129] Top shape: 1 256 40 79 (808960)
I0215 09:24:30.762490 25627 net.cpp:137] Memory required for data: 107430440
I0215 09:24:30.762492 25627 layer_factory.hpp:77] Creating layer conv3_5
I0215 09:24:30.762501 25627 net.cpp:84] Creating Layer conv3_5
I0215 09:24:30.762504 25627 net.cpp:406] conv3_5 <- conv3_4
I0215 09:24:30.762509 25627 net.cpp:380] conv3_5 -> conv3_5
I0215 09:24:30.778671 25627 net.cpp:122] Setting up conv3_5
I0215 09:24:30.778683 25627 net.cpp:129] Top shape: 1 256 40 79 (808960)
I0215 09:24:30.778687 25627 net.cpp:137] Memory required for data: 110666280
I0215 09:24:30.778695 25627 layer_factory.hpp:77] Creating layer relu3_5
I0215 09:24:30.778702 25627 net.cpp:84] Creating Layer relu3_5
I0215 09:24:30.778704 25627 net.cpp:406] relu3_5 <- conv3_5
I0215 09:24:30.778708 25627 net.cpp:367] relu3_5 -> conv3_5 (in-place)
I0215 09:24:30.779167 25627 net.cpp:122] Setting up relu3_5
I0215 09:24:30.779177 25627 net.cpp:129] Top shape: 1 256 40 79 (808960)
I0215 09:24:30.779181 25627 net.cpp:137] Memory required for data: 113902120
I0215 09:24:30.779183 25627 layer_factory.hpp:77] Creating layer conv3_6
I0215 09:24:30.779192 25627 net.cpp:84] Creating Layer conv3_6
I0215 09:24:30.779198 25627 net.cpp:406] conv3_6 <- conv3_5
I0215 09:24:30.779203 25627 net.cpp:380] conv3_6 -> conv3_6
I0215 09:24:30.795338 25627 net.cpp:122] Setting up conv3_6
I0215 09:24:30.795351 25627 net.cpp:129] Top shape: 1 256 40 79 (808960)
I0215 09:24:30.795353 25627 net.cpp:137] Memory required for data: 117137960
I0215 09:24:30.795359 25627 layer_factory.hpp:77] Creating layer relu3_6
I0215 09:24:30.795366 25627 net.cpp:84] Creating Layer relu3_6
I0215 09:24:30.795368 25627 net.cpp:406] relu3_6 <- conv3_6
I0215 09:24:30.795373 25627 net.cpp:367] relu3_6 -> conv3_6 (in-place)
I0215 09:24:30.795555 25627 net.cpp:122] Setting up relu3_6
I0215 09:24:30.795564 25627 net.cpp:129] Top shape: 1 256 40 79 (808960)
I0215 09:24:30.795567 25627 net.cpp:137] Memory required for data: 120373800
I0215 09:24:30.795569 25627 layer_factory.hpp:77] Creating layer conv4_1
I0215 09:24:30.795578 25627 net.cpp:84] Creating Layer conv4_1
I0215 09:24:30.795581 25627 net.cpp:406] conv4_1 <- conv3_6
I0215 09:24:30.795585 25627 net.cpp:380] conv4_1 -> conv4_1
I0215 09:24:30.826059 25627 net.cpp:122] Setting up conv4_1
I0215 09:24:30.826076 25627 net.cpp:129] Top shape: 1 512 40 79 (1617920)
I0215 09:24:30.826079 25627 net.cpp:137] Memory required for data: 126845480
I0215 09:24:30.826086 25627 layer_factory.hpp:77] Creating layer relu4_1
I0215 09:24:30.826092 25627 net.cpp:84] Creating Layer relu4_1
I0215 09:24:30.826094 25627 net.cpp:406] relu4_1 <- conv4_1
I0215 09:24:30.826099 25627 net.cpp:367] relu4_1 -> conv4_1 (in-place)
I0215 09:24:30.826272 25627 net.cpp:122] Setting up relu4_1
I0215 09:24:30.826280 25627 net.cpp:129] Top shape: 1 512 40 79 (1617920)
I0215 09:24:30.826283 25627 net.cpp:137] Memory required for data: 133317160
I0215 09:24:30.826285 25627 layer_factory.hpp:77] Creating layer conv4_2
I0215 09:24:30.826295 25627 net.cpp:84] Creating Layer conv4_2
I0215 09:24:30.826298 25627 net.cpp:406] conv4_2 <- conv4_1
I0215 09:24:30.826303 25627 net.cpp:380] conv4_2 -> conv4_2
I0215 09:24:30.885315 25627 net.cpp:122] Setting up conv4_2
I0215 09:24:30.885337 25627 net.cpp:129] Top shape: 1 512 40 79 (1617920)
I0215 09:24:30.885340 25627 net.cpp:137] Memory required for data: 139788840
I0215 09:24:30.885346 25627 layer_factory.hpp:77] Creating layer relu4_2
I0215 09:24:30.885354 25627 net.cpp:84] Creating Layer relu4_2
I0215 09:24:30.885359 25627 net.cpp:406] relu4_2 <- conv4_2
I0215 09:24:30.885363 25627 net.cpp:367] relu4_2 -> conv4_2 (in-place)
I0215 09:24:30.885843 25627 net.cpp:122] Setting up relu4_2
I0215 09:24:30.885854 25627 net.cpp:129] Top shape: 1 512 40 79 (1617920)
I0215 09:24:30.885856 25627 net.cpp:137] Memory required for data: 146260520
I0215 09:24:30.885859 25627 layer_factory.hpp:77] Creating layer conv4_3
I0215 09:24:30.885869 25627 net.cpp:84] Creating Layer conv4_3
I0215 09:24:30.885872 25627 net.cpp:406] conv4_3 <- conv4_2
I0215 09:24:30.885877 25627 net.cpp:380] conv4_3 -> conv4_3
I0215 09:24:30.944926 25627 net.cpp:122] Setting up conv4_3
I0215 09:24:30.944947 25627 net.cpp:129] Top shape: 1 512 40 79 (1617920)
I0215 09:24:30.944949 25627 net.cpp:137] Memory required for data: 152732200
I0215 09:24:30.944957 25627 layer_factory.hpp:77] Creating layer relu4_3
I0215 09:24:30.944965 25627 net.cpp:84] Creating Layer relu4_3
I0215 09:24:30.944968 25627 net.cpp:406] relu4_3 <- conv4_3
I0215 09:24:30.944973 25627 net.cpp:367] relu4_3 -> conv4_3 (in-place)
I0215 09:24:30.945147 25627 net.cpp:122] Setting up relu4_3
I0215 09:24:30.945155 25627 net.cpp:129] Top shape: 1 512 40 79 (1617920)
I0215 09:24:30.945158 25627 net.cpp:137] Memory required for data: 159203880
I0215 09:24:30.945160 25627 layer_factory.hpp:77] Creating layer tpp5
I0215 09:24:30.945166 25627 net.cpp:84] Creating Layer tpp5
I0215 09:24:30.945169 25627 net.cpp:406] tpp5 <- conv4_3
I0215 09:24:30.945174 25627 net.cpp:380] tpp5 -> tpp5
I0215 09:24:30.945852 25627 net.cpp:122] Setting up tpp5
I0215 09:24:30.945861 25627 net.cpp:129] Top shape: 1 7680 (7680)
I0215 09:24:30.945864 25627 net.cpp:137] Memory required for data: 159234600
I0215 09:24:30.945871 25627 layer_factory.hpp:77] Creating layer fc6
I0215 09:24:30.945878 25627 net.cpp:84] Creating Layer fc6
I0215 09:24:30.945881 25627 net.cpp:406] fc6 <- tpp5
I0215 09:24:30.945885 25627 net.cpp:380] fc6 -> fc6
I0215 09:24:31.880928 25627 net.cpp:122] Setting up fc6
I0215 09:24:31.880959 25627 net.cpp:129] Top shape: 1 4096 (4096)
I0215 09:24:31.880964 25627 net.cpp:137] Memory required for data: 159250984
I0215 09:24:31.880975 25627 layer_factory.hpp:77] Creating layer relu6
I0215 09:24:31.880988 25627 net.cpp:84] Creating Layer relu6
I0215 09:24:31.880995 25627 net.cpp:406] relu6 <- fc6
I0215 09:24:31.881002 25627 net.cpp:367] relu6 -> fc6 (in-place)
I0215 09:24:31.881299 25627 net.cpp:122] Setting up relu6
I0215 09:24:31.881309 25627 net.cpp:129] Top shape: 1 4096 (4096)
I0215 09:24:31.881312 25627 net.cpp:137] Memory required for data: 159267368
I0215 09:24:31.881317 25627 layer_factory.hpp:77] Creating layer fc7
I0215 09:24:31.881327 25627 net.cpp:84] Creating Layer fc7
I0215 09:24:31.881331 25627 net.cpp:406] fc7 <- fc6
I0215 09:24:31.881337 25627 net.cpp:380] fc7 -> fc7
I0215 09:24:32.341794 25627 net.cpp:122] Setting up fc7
I0215 09:24:32.341819 25627 net.cpp:129] Top shape: 1 4096 (4096)
I0215 09:24:32.341821 25627 net.cpp:137] Memory required for data: 159283752
I0215 09:24:32.341828 25627 layer_factory.hpp:77] Creating layer relu7
I0215 09:24:32.341836 25627 net.cpp:84] Creating Layer relu7
I0215 09:24:32.341840 25627 net.cpp:406] relu7 <- fc7
I0215 09:24:32.341846 25627 net.cpp:367] relu7 -> fc7 (in-place)
I0215 09:24:32.342080 25627 net.cpp:122] Setting up relu7
I0215 09:24:32.342088 25627 net.cpp:129] Top shape: 1 4096 (4096)
I0215 09:24:32.342092 25627 net.cpp:137] Memory required for data: 159300136
I0215 09:24:32.342094 25627 layer_factory.hpp:77] Creating layer fc8
I0215 09:24:32.342100 25627 net.cpp:84] Creating Layer fc8
I0215 09:24:32.342103 25627 net.cpp:406] fc8 <- fc7
I0215 09:24:32.342108 25627 net.cpp:380] fc8 -> fc8
I0215 09:24:32.451608 25627 net.cpp:122] Setting up fc8
I0215 09:24:32.451637 25627 net.cpp:129] Top shape: 1 926 (926)
I0215 09:24:32.451642 25627 net.cpp:137] Memory required for data: 159303840
I0215 09:24:32.451653 25627 layer_factory.hpp:77] Creating layer fc8_fc8_0_split
I0215 09:24:32.451663 25627 net.cpp:84] Creating Layer fc8_fc8_0_split
I0215 09:24:32.451668 25627 net.cpp:406] fc8_fc8_0_split <- fc8
I0215 09:24:32.451676 25627 net.cpp:380] fc8_fc8_0_split -> fc8_fc8_0_split_0
I0215 09:24:32.451685 25627 net.cpp:380] fc8_fc8_0_split -> fc8_fc8_0_split_1
I0215 09:24:32.451756 25627 net.cpp:122] Setting up fc8_fc8_0_split
I0215 09:24:32.451764 25627 net.cpp:129] Top shape: 1 926 (926)
I0215 09:24:32.451769 25627 net.cpp:129] Top shape: 1 926 (926)
I0215 09:24:32.451773 25627 net.cpp:137] Memory required for data: 159311248
I0215 09:24:32.451777 25627 layer_factory.hpp:77] Creating layer sigmoid
I0215 09:24:32.451786 25627 net.cpp:84] Creating Layer sigmoid
I0215 09:24:32.451789 25627 net.cpp:406] sigmoid <- fc8_fc8_0_split_0
I0215 09:24:32.451795 25627 net.cpp:380] sigmoid -> sigmoid
I0215 09:24:32.452726 25627 net.cpp:122] Setting up sigmoid
I0215 09:24:32.452740 25627 net.cpp:129] Top shape: 1 926 (926)
I0215 09:24:32.452744 25627 net.cpp:137] Memory required for data: 159314952
I0215 09:24:32.452749 25627 layer_factory.hpp:77] Creating layer silence
I0215 09:24:32.452756 25627 net.cpp:84] Creating Layer silence
I0215 09:24:32.452761 25627 net.cpp:406] silence <- sigmoid
I0215 09:24:32.452766 25627 net.cpp:122] Setting up silence
I0215 09:24:32.452770 25627 net.cpp:137] Memory required for data: 159314952
…
