…
state {
  phase: TRAIN
}
layer {
  name: "word_images"
  type: "Data"
  top: "word_images"
  top: "label"
  transform_param {
    scale: -0.0039215689
    mean_value: 255
  }
  data_param {
    source: "/data/fwolf/botany/botany_nti500000_pul2-3-4-5_train_word_images_lmdb"
    batch_size: 1
    backend: LMDB
    prefetch: 20
  }
}
layer {
  name: "phocs"
  type: "Data"
  top: "phocs"
  top: "label_phocs"
  data_param {
    source: "/data/fwolf/botany/botany_nti500000_pul2-3-4-5_train_phocs_lmdb"
    batch_size: 1
    backend: LMDB
    prefetch: 20
  }
}
layer {
  name: "conv1_1"
  type: "Convolution"
  bottom: "word_images"
  top: "conv1_1"
  convolution_param {
    num_output: 64
    pad: 1
    kernel_size: 3
    stride: 1
    weight_filler {
      type: "msra"
    }
    bias_filler {
      type: "constant"
    }
    engine: CUDNN
  }
}
layer {
  name: "relu1_1"
  type: "ReLU"
  bottom: "conv1_1"
  top: "conv1_1"
}
layer {
  name: "conv1_2"
  type: "Convolution"
  bottom: "conv1_1"
  top: "conv1_2"
  convolution_param {
    num_output: 64
    pad: 1
    kernel_size: 3
    stride: 1
    weight_filler {
      type: "msra"
    }
    bias_filler {
      type: "constant"
    }
    engine: CUDNN
  }
}
layer {
  name: "relu1_2"
  type: "ReLU"
  bottom: "conv1_2"
  top: "conv1_2"
}
layer {
  name: "pool1"
  type: "Pooling"
  bottom: "conv1_2"
  top: "pool1"
  pooling_param {
    pool: MAX
    kernel_size: 2
    stride: 2
  }
}
layer {
  name: "conv2_1"
  type: "Convolution"
  bottom: "pool1"
  top: "conv2_1"
  convolution_param {
    num_output: 128
    pad: 1
    kernel_size: 3
    stride: 1
    weight_filler {
      type: "msra"
    }
    bias_filler {
      type: "constant"
    }
    engine: CUDNN
  }
}
layer {
  name: "relu2_1"
  type: "ReLU"
  bottom: "conv2_1"
  top: "conv2_1"
}
layer {
  name: "conv2_2"
  type: "Convolution"
  bottom: "conv2_1"
  top: "conv2_2"
  convolution_param {
    num_output: 128
    pad: 1
    kernel_size: 3
    stride: 1
    weight_filler {
      type: "msra"
    }
    bias_filler {
      type: "constant"
    }
    engine: CUDNN
  }
}
layer {
  name: "relu2_2"
  type: "ReLU"
  bottom: "conv2_2"
  top: "conv2_2"
}
layer {
  name: "pool2"
  type: "Pooling"
  bottom: "conv2_2"
  top: "pool2"
  pooling_param {
    pool: MAX
    kernel_size: 2
    stride: 2
  }
}
layer {
  name: "conv3_1"
  type: "Convolution"
  bottom: "pool2"
  top: "conv3_1"
  convolution_param {
    num_output: 256
    pad: 1
    kernel_size: 3
    stride: 1
    weight_filler {
      type: "msra"
    }
    bias_filler {
      type: "constant"
    }
    engine: CUDNN
  }
}
layer {
  name: "relu3_1"
  type: "ReLU"
  bottom: "conv3_1"
  top: "conv3_1"
}
layer {
  name: "conv3_2"
  type: "Convolution"
  bottom: "conv3_1"
  top: "conv3_2"
  convolution_param {
    num_output: 256
    pad: 1
    kernel_size: 3
    stride: 1
    weight_filler {
      type: "msra"
    }
    bias_filler {
      type: "constant"
    }
    engine: CUDNN
  }
}
layer {
  name: "relu3_2"
  type: "ReLU"
  bottom: "conv3_2"
  top: "conv3_2"
}
layer {
  name: "conv3_3"
  type: "Convolution"
  bottom: "conv3_2"
  top: "conv3_3"
  convolution_param {
    num_output: 256
    pad: 1
    kernel_size: 3
    stride: 1
    weight_filler {
      type: "msra"
    }
    bias_filler {
      type: "constant"
    }
    engine: CUDNN
  }
}
layer {
  name: "relu3_3"
  type: "ReLU"
  bottom: "conv3_3"
  top: "conv3_3"
}
layer {
  name: "conv3_4"
  type: "Convolution"
  bottom: "conv3_3"
  top: "conv3_4"
  convolution_param {
    num_output: 256
    pad: 1
    kernel_size: 3
    stride: 1
    weight_filler {
      type: "msra"
    }
    bias_filler {
      type: "constant"
    }
    engine: CUDNN
  }
}
layer {
  name: "relu3_4"
  type: "ReLU"
  bottom: "conv3_4"
  top: "conv3_4"
}
layer {
  name: "conv3_5"
  type: "Convolution"
  bottom: "conv3_4"
  top: "conv3_5"
  convolution_param {
    num_output: 256
    pad: 1
    kernel_size: 3
    stride: 1
    weight_filler {
      type: "msra"
    }
    bias_filler {
      type: "constant"
    }
    engine: CUDNN
  }
}
layer {
  name: "relu3_5"
  type: "ReLU"
  bottom: "conv3_5"
  top: "conv3_5"
}
layer {
  name: "conv3_6"
  type: "Convolution"
  bottom: "conv3_5"
  top: "conv3_6"
  convolution_param {
    num_output: 256
    pad: 1
    kernel_size: 3
    stride: 1
    weight_filler {
      type: "msra"
    }
    bias_filler {
      type: "constant"
    }
    engine: CUDNN
  }
}
layer {
  name: "relu3_6"
  type: "ReLU"
  bottom: "conv3_6"
  top: "conv3_6"
}
layer {
  name: "conv4_1"
  type: "Convolution"
  bottom: "conv3_6"
  top: "conv4_1"
  convolution_param {
    num_output: 512
    pad: 1
    kernel_size: 3
    stride: 1
    weight_filler {
      type: "msra"
    }
    bias_filler {
      type: "constant"
    }
    engine: CUDNN
  }
}
layer {
  name: "relu4_1"
  type: "ReLU"
  bottom: "conv4_1"
  top: "conv4_1"
}
layer {
  name: "conv4_2"
  type: "Convolution"
  bottom: "conv4_1"
  top: "conv4_2"
  convolution_param {
    num_output: 512
    pad: 1
    kernel_size: 3
    stride: 1
    weight_filler {
      type: "msra"
    }
    bias_filler {
      type: "constant"
    }
    engine: CUDNN
  }
}
layer {
  name: "relu4_2"
  type: "ReLU"
  bottom: "conv4_2"
  top: "conv4_2"
}
layer {
  name: "conv4_3"
  type: "Convolution"
  bottom: "conv4_2"
  top: "conv4_3"
  convolution_param {
    num_output: 512
    pad: 1
    kernel_size: 3
    stride: 1
    weight_filler {
      type: "msra"
    }
    bias_filler {
      type: "constant"
    }
    engine: CUDNN
  }
}
layer {
  name: "relu4_3"
  type: "ReLU"
  bottom: "conv4_3"
  top: "conv4_3"
}
layer {
  name: "tpp5"
  type: "TPP"
  bottom: "conv4_3"
  top: "tpp5"
  tpp_param {
    pyramid_layer: 1
    pyramid_layer: 2
    pyramid_layer: 3
    pyramid_layer: 4
    pyramid_layer: 5
    pool: MAX
    engine: CUDNN
  }
}
layer {
  name: "reshape"
  type: "Reshape"
  bottom: "tpp5"
  top: "reshape"
  reshape_param {
    shape {
      dim: 1
      dim: 1920
      dim: 4
      dim: 1
    }
  }
}
layer {
  name: "premax"
  type: "Scale"
  bottom: "reshape"
  top: "premax"
  param {
    lr_mult: 0
    decay_mult: 0
  }
  scale_param {
    num_axes: 3
    filler {
      value: 1
    }
    bias_term: false
    bias_filler {
      value: 0
    }
  }
}
layer {
  name: "maxout"
  type: "Pooling"
  bottom: "premax"
  top: "maxout"
  pooling_param {
    pool: MAX
    global_pooling: true
  }
}
layer {
  name: "fc6"
  type: "InnerProduct"
  bottom: "maxout"
  top: "fc6"
  inner_product_param {
    num_output: 4096
    weight_filler {
      type: "msra"
    }
    bias_filler {
      type: "constant"
    }
  }
}
layer {
  name: "relu6"
  type: "ReLU"
  bottom: "fc6"
  top: "fc6"
}
layer {
  name: "drop6"
  type: "Dropout"
  bottom: "fc6"
  top: "fc6"
  include {
    phase: TRAIN
  }
  dropout_param {
    dropout_ratio: 0.5
  }
}
layer {
  name: "fc7"
  type: "InnerProduct"
  bottom: "fc6"
  top: "fc7"
  inner_product_param {
    num_output: 4096
    weight_filler {
      type: "msra"
    }
    bias_filler {
      type: "constant"
    }
  }
}
layer {
  name: "relu7"
  type: "ReLU"
  bottom: "fc7"
  top: "fc7"
}
layer {
  name: "drop7"
  type: "Dropout"
  bottom: "fc7"
  top: "fc7"
  include {
    phase: TRAIN
  }
  dropout_param {
    dropout_ratio: 0.5
  }
}
layer {
  name: "fc8"
  type: "InnerProduct"
  bottom: "fc7"
  top: "fc8"
  inner_product_param {
    num_output: 926
    weight_filler {
      type: "msra"
    }
    bias_filler {
      type: "constant"
    }
  }
}
layer {
  name: "loss"
  type: "SigmoidCrossEntropyLoss"
  bottom: "fc8"
  bottom: "phocs"
  top: "loss"
}
I0217 07:41:37.868060 12273 layer_factory.hpp:77] Creating layer word_images
I0217 07:41:37.868151 12273 db_lmdb.cpp:35] Opened lmdb /data/fwolf/botany/botany_nti500000_pul2-3-4-5_train_word_images_lmdb
I0217 07:41:37.868180 12273 net.cpp:84] Creating Layer word_images
I0217 07:41:37.868188 12273 net.cpp:380] word_images -> word_images
I0217 07:41:37.868202 12273 net.cpp:380] word_images -> label
I0217 07:41:37.903519 12273 data_layer.cpp:44] output data size: 1,1,123,405
I0217 07:41:37.998920 12273 net.cpp:122] Setting up word_images
I0217 07:41:37.998955 12273 net.cpp:129] Top shape: 1 1 123 405 (49815)
I0217 07:41:37.998961 12273 net.cpp:129] Top shape: 1 (1)
I0217 07:41:37.998965 12273 net.cpp:137] Memory required for data: 199264
I0217 07:41:37.998973 12273 layer_factory.hpp:77] Creating layer phocs
I0217 07:41:37.999053 12273 db_lmdb.cpp:35] Opened lmdb /data/fwolf/botany/botany_nti500000_pul2-3-4-5_train_phocs_lmdb
I0217 07:41:37.999081 12273 net.cpp:84] Creating Layer phocs
I0217 07:41:37.999089 12273 net.cpp:380] phocs -> phocs
I0217 07:41:37.999100 12273 net.cpp:380] phocs -> label_phocs
I0217 07:41:37.999361 12273 data_layer.cpp:44] output data size: 1,1,1,926
I0217 07:41:38.005780 12273 net.cpp:122] Setting up phocs
I0217 07:41:38.005797 12273 net.cpp:129] Top shape: 1 1 1 926 (926)
I0217 07:41:38.005805 12273 net.cpp:129] Top shape: 1 (1)
I0217 07:41:38.005808 12273 net.cpp:137] Memory required for data: 202972
I0217 07:41:38.005813 12273 layer_factory.hpp:77] Creating layer conv1_1
I0217 07:41:38.005828 12273 net.cpp:84] Creating Layer conv1_1
I0217 07:41:38.005833 12273 net.cpp:406] conv1_1 <- word_images
I0217 07:41:38.005843 12273 net.cpp:380] conv1_1 -> conv1_1
I0217 07:41:45.118104 12273 net.cpp:122] Setting up conv1_1
I0217 07:41:45.118132 12273 net.cpp:129] Top shape: 1 64 123 405 (3188160)
I0217 07:41:45.118135 12273 net.cpp:137] Memory required for data: 12955612
I0217 07:41:45.118149 12273 layer_factory.hpp:77] Creating layer relu1_1
I0217 07:41:45.118158 12273 net.cpp:84] Creating Layer relu1_1
I0217 07:41:45.118162 12273 net.cpp:406] relu1_1 <- conv1_1
I0217 07:41:45.118167 12273 net.cpp:367] relu1_1 -> conv1_1 (in-place)
I0217 07:41:45.118533 12273 net.cpp:122] Setting up relu1_1
I0217 07:41:45.118544 12273 net.cpp:129] Top shape: 1 64 123 405 (3188160)
I0217 07:41:45.118547 12273 net.cpp:137] Memory required for data: 25708252
I0217 07:41:45.118551 12273 layer_factory.hpp:77] Creating layer conv1_2
I0217 07:41:45.118561 12273 net.cpp:84] Creating Layer conv1_2
I0217 07:41:45.118564 12273 net.cpp:406] conv1_2 <- conv1_1
I0217 07:41:45.118569 12273 net.cpp:380] conv1_2 -> conv1_2
I0217 07:41:45.120708 12273 net.cpp:122] Setting up conv1_2
I0217 07:41:45.120724 12273 net.cpp:129] Top shape: 1 64 123 405 (3188160)
I0217 07:41:45.120729 12273 net.cpp:137] Memory required for data: 38460892
I0217 07:41:45.120740 12273 layer_factory.hpp:77] Creating layer relu1_2
I0217 07:41:45.120748 12273 net.cpp:84] Creating Layer relu1_2
I0217 07:41:45.120757 12273 net.cpp:406] relu1_2 <- conv1_2
I0217 07:41:45.120766 12273 net.cpp:367] relu1_2 -> conv1_2 (in-place)
I0217 07:41:45.120968 12273 net.cpp:122] Setting up relu1_2
I0217 07:41:45.120977 12273 net.cpp:129] Top shape: 1 64 123 405 (3188160)
I0217 07:41:45.120981 12273 net.cpp:137] Memory required for data: 51213532
I0217 07:41:45.120986 12273 layer_factory.hpp:77] Creating layer pool1
I0217 07:41:45.120995 12273 net.cpp:84] Creating Layer pool1
I0217 07:41:45.120999 12273 net.cpp:406] pool1 <- conv1_2
I0217 07:41:45.121006 12273 net.cpp:380] pool1 -> pool1
I0217 07:41:45.121052 12273 net.cpp:122] Setting up pool1
I0217 07:41:45.121058 12273 net.cpp:129] Top shape: 1 64 62 203 (805504)
I0217 07:41:45.121062 12273 net.cpp:137] Memory required for data: 54435548
I0217 07:41:45.121067 12273 layer_factory.hpp:77] Creating layer conv2_1
I0217 07:41:45.121078 12273 net.cpp:84] Creating Layer conv2_1
I0217 07:41:45.121081 12273 net.cpp:406] conv2_1 <- pool1
I0217 07:41:45.121089 12273 net.cpp:380] conv2_1 -> conv2_1
I0217 07:41:45.421798 12273 net.cpp:122] Setting up conv2_1
I0217 07:41:45.421831 12273 net.cpp:129] Top shape: 1 128 62 203 (1611008)
I0217 07:41:45.421836 12273 net.cpp:137] Memory required for data: 60879580
I0217 07:41:45.421854 12273 layer_factory.hpp:77] Creating layer relu2_1
I0217 07:41:45.421872 12273 net.cpp:84] Creating Layer relu2_1
I0217 07:41:45.421878 12273 net.cpp:406] relu2_1 <- conv2_1
I0217 07:41:45.421887 12273 net.cpp:367] relu2_1 -> conv2_1 (in-place)
I0217 07:41:45.422142 12273 net.cpp:122] Setting up relu2_1
I0217 07:41:45.422152 12273 net.cpp:129] Top shape: 1 128 62 203 (1611008)
I0217 07:41:45.422157 12273 net.cpp:137] Memory required for data: 67323612
I0217 07:41:45.422161 12273 layer_factory.hpp:77] Creating layer conv2_2
I0217 07:41:45.422175 12273 net.cpp:84] Creating Layer conv2_2
I0217 07:41:45.422179 12273 net.cpp:406] conv2_2 <- conv2_1
I0217 07:41:45.422188 12273 net.cpp:380] conv2_2 -> conv2_2
I0217 07:41:45.590579 12273 net.cpp:122] Setting up conv2_2
I0217 07:41:45.590615 12273 net.cpp:129] Top shape: 1 128 62 203 (1611008)
I0217 07:41:45.590620 12273 net.cpp:137] Memory required for data: 73767644
I0217 07:41:45.590632 12273 layer_factory.hpp:77] Creating layer relu2_2
I0217 07:41:45.590646 12273 net.cpp:84] Creating Layer relu2_2
I0217 07:41:45.590652 12273 net.cpp:406] relu2_2 <- conv2_2
I0217 07:41:45.590661 12273 net.cpp:367] relu2_2 -> conv2_2 (in-place)
I0217 07:41:45.591199 12273 net.cpp:122] Setting up relu2_2
I0217 07:41:45.591212 12273 net.cpp:129] Top shape: 1 128 62 203 (1611008)
I0217 07:41:45.591217 12273 net.cpp:137] Memory required for data: 80211676
I0217 07:41:45.591222 12273 layer_factory.hpp:77] Creating layer pool2
I0217 07:41:45.591229 12273 net.cpp:84] Creating Layer pool2
I0217 07:41:45.591233 12273 net.cpp:406] pool2 <- conv2_2
I0217 07:41:45.591241 12273 net.cpp:380] pool2 -> pool2
I0217 07:41:45.591292 12273 net.cpp:122] Setting up pool2
I0217 07:41:45.591301 12273 net.cpp:129] Top shape: 1 128 31 102 (404736)
I0217 07:41:45.591305 12273 net.cpp:137] Memory required for data: 81830620
I0217 07:41:45.591310 12273 layer_factory.hpp:77] Creating layer conv3_1
I0217 07:41:45.591322 12273 net.cpp:84] Creating Layer conv3_1
I0217 07:41:45.591327 12273 net.cpp:406] conv3_1 <- pool2
I0217 07:41:45.591333 12273 net.cpp:380] conv3_1 -> conv3_1
I0217 07:41:45.972115 12273 net.cpp:122] Setting up conv3_1
I0217 07:41:45.972152 12273 net.cpp:129] Top shape: 1 256 31 102 (809472)
I0217 07:41:45.972157 12273 net.cpp:137] Memory required for data: 85068508
I0217 07:41:45.972177 12273 layer_factory.hpp:77] Creating layer relu3_1
I0217 07:41:45.972192 12273 net.cpp:84] Creating Layer relu3_1
I0217 07:41:45.972196 12273 net.cpp:406] relu3_1 <- conv3_1
I0217 07:41:45.972205 12273 net.cpp:367] relu3_1 -> conv3_1 (in-place)
I0217 07:41:45.972487 12273 net.cpp:122] Setting up relu3_1
I0217 07:41:45.972498 12273 net.cpp:129] Top shape: 1 256 31 102 (809472)
I0217 07:41:45.972502 12273 net.cpp:137] Memory required for data: 88306396
I0217 07:41:45.972512 12273 layer_factory.hpp:77] Creating layer conv3_2
I0217 07:41:45.972527 12273 net.cpp:84] Creating Layer conv3_2
I0217 07:41:45.972532 12273 net.cpp:406] conv3_2 <- conv3_1
I0217 07:41:45.972539 12273 net.cpp:380] conv3_2 -> conv3_2
I0217 07:41:46.164355 12273 net.cpp:122] Setting up conv3_2
I0217 07:41:46.164388 12273 net.cpp:129] Top shape: 1 256 31 102 (809472)
I0217 07:41:46.164393 12273 net.cpp:137] Memory required for data: 91544284
I0217 07:41:46.164405 12273 layer_factory.hpp:77] Creating layer relu3_2
I0217 07:41:46.164417 12273 net.cpp:84] Creating Layer relu3_2
I0217 07:41:46.164423 12273 net.cpp:406] relu3_2 <- conv3_2
I0217 07:41:46.164432 12273 net.cpp:367] relu3_2 -> conv3_2 (in-place)
I0217 07:41:46.164651 12273 net.cpp:122] Setting up relu3_2
I0217 07:41:46.164661 12273 net.cpp:129] Top shape: 1 256 31 102 (809472)
I0217 07:41:46.164665 12273 net.cpp:137] Memory required for data: 94782172
I0217 07:41:46.164670 12273 layer_factory.hpp:77] Creating layer conv3_3
I0217 07:41:46.164685 12273 net.cpp:84] Creating Layer conv3_3
I0217 07:41:46.164690 12273 net.cpp:406] conv3_3 <- conv3_2
I0217 07:41:46.164698 12273 net.cpp:380] conv3_3 -> conv3_3
I0217 07:41:46.470337 12273 net.cpp:122] Setting up conv3_3
I0217 07:41:46.470373 12273 net.cpp:129] Top shape: 1 256 31 102 (809472)
I0217 07:41:46.470378 12273 net.cpp:137] Memory required for data: 98020060
I0217 07:41:46.470391 12273 layer_factory.hpp:77] Creating layer relu3_3
I0217 07:41:46.470403 12273 net.cpp:84] Creating Layer relu3_3
I0217 07:41:46.470410 12273 net.cpp:406] relu3_3 <- conv3_3
I0217 07:41:46.470419 12273 net.cpp:367] relu3_3 -> conv3_3 (in-place)
I0217 07:41:46.471002 12273 net.cpp:122] Setting up relu3_3
I0217 07:41:46.471019 12273 net.cpp:129] Top shape: 1 256 31 102 (809472)
I0217 07:41:46.471024 12273 net.cpp:137] Memory required for data: 101257948
I0217 07:41:46.471029 12273 layer_factory.hpp:77] Creating layer conv3_4
I0217 07:41:46.471045 12273 net.cpp:84] Creating Layer conv3_4
I0217 07:41:46.471050 12273 net.cpp:406] conv3_4 <- conv3_3
I0217 07:41:46.471057 12273 net.cpp:380] conv3_4 -> conv3_4
I0217 07:41:46.495326 12273 net.cpp:122] Setting up conv3_4
I0217 07:41:46.495357 12273 net.cpp:129] Top shape: 1 256 31 102 (809472)
I0217 07:41:46.495362 12273 net.cpp:137] Memory required for data: 104495836
I0217 07:41:46.495373 12273 layer_factory.hpp:77] Creating layer relu3_4
I0217 07:41:46.495388 12273 net.cpp:84] Creating Layer relu3_4
I0217 07:41:46.495393 12273 net.cpp:406] relu3_4 <- conv3_4
I0217 07:41:46.495401 12273 net.cpp:367] relu3_4 -> conv3_4 (in-place)
I0217 07:41:46.495635 12273 net.cpp:122] Setting up relu3_4
I0217 07:41:46.495646 12273 net.cpp:129] Top shape: 1 256 31 102 (809472)
I0217 07:41:46.495651 12273 net.cpp:137] Memory required for data: 107733724
I0217 07:41:46.495656 12273 layer_factory.hpp:77] Creating layer conv3_5
I0217 07:41:46.495669 12273 net.cpp:84] Creating Layer conv3_5
I0217 07:41:46.495673 12273 net.cpp:406] conv3_5 <- conv3_4
I0217 07:41:46.495682 12273 net.cpp:380] conv3_5 -> conv3_5
I0217 07:41:46.690192 12273 net.cpp:122] Setting up conv3_5
I0217 07:41:46.690227 12273 net.cpp:129] Top shape: 1 256 31 102 (809472)
I0217 07:41:46.690232 12273 net.cpp:137] Memory required for data: 110971612
I0217 07:41:46.690249 12273 layer_factory.hpp:77] Creating layer relu3_5
I0217 07:41:46.690261 12273 net.cpp:84] Creating Layer relu3_5
I0217 07:41:46.690268 12273 net.cpp:406] relu3_5 <- conv3_5
I0217 07:41:46.690274 12273 net.cpp:367] relu3_5 -> conv3_5 (in-place)
I0217 07:41:46.690501 12273 net.cpp:122] Setting up relu3_5
I0217 07:41:46.690511 12273 net.cpp:129] Top shape: 1 256 31 102 (809472)
I0217 07:41:46.690515 12273 net.cpp:137] Memory required for data: 114209500
I0217 07:41:46.690521 12273 layer_factory.hpp:77] Creating layer conv3_6
I0217 07:41:46.690533 12273 net.cpp:84] Creating Layer conv3_6
I0217 07:41:46.690538 12273 net.cpp:406] conv3_6 <- conv3_5
I0217 07:41:46.690546 12273 net.cpp:380] conv3_6 -> conv3_6
I0217 07:41:46.818104 12273 net.cpp:122] Setting up conv3_6
I0217 07:41:46.818142 12273 net.cpp:129] Top shape: 1 256 31 102 (809472)
I0217 07:41:46.818147 12273 net.cpp:137] Memory required for data: 117447388
I0217 07:41:46.818161 12273 layer_factory.hpp:77] Creating layer relu3_6
I0217 07:41:46.818173 12273 net.cpp:84] Creating Layer relu3_6
I0217 07:41:46.818179 12273 net.cpp:406] relu3_6 <- conv3_6
I0217 07:41:46.818188 12273 net.cpp:367] relu3_6 -> conv3_6 (in-place)
I0217 07:41:46.818414 12273 net.cpp:122] Setting up relu3_6
I0217 07:41:46.818425 12273 net.cpp:129] Top shape: 1 256 31 102 (809472)
I0217 07:41:46.818429 12273 net.cpp:137] Memory required for data: 120685276
I0217 07:41:46.818434 12273 layer_factory.hpp:77] Creating layer conv4_1
I0217 07:41:46.818449 12273 net.cpp:84] Creating Layer conv4_1
I0217 07:41:46.818454 12273 net.cpp:406] conv4_1 <- conv3_6
I0217 07:41:46.818460 12273 net.cpp:380] conv4_1 -> conv4_1
I0217 07:41:47.539949 12273 net.cpp:122] Setting up conv4_1
I0217 07:41:47.539983 12273 net.cpp:129] Top shape: 1 512 31 102 (1618944)
I0217 07:41:47.539989 12273 net.cpp:137] Memory required for data: 127161052
I0217 07:41:47.540001 12273 layer_factory.hpp:77] Creating layer relu4_1
I0217 07:41:47.540014 12273 net.cpp:84] Creating Layer relu4_1
I0217 07:41:47.540019 12273 net.cpp:406] relu4_1 <- conv4_1
I0217 07:41:47.540027 12273 net.cpp:367] relu4_1 -> conv4_1 (in-place)
I0217 07:41:47.540608 12273 net.cpp:122] Setting up relu4_1
I0217 07:41:47.540624 12273 net.cpp:129] Top shape: 1 512 31 102 (1618944)
I0217 07:41:47.540629 12273 net.cpp:137] Memory required for data: 133636828
I0217 07:41:47.540635 12273 layer_factory.hpp:77] Creating layer conv4_2
I0217 07:41:47.540649 12273 net.cpp:84] Creating Layer conv4_2
I0217 07:41:47.540654 12273 net.cpp:406] conv4_2 <- conv4_1
I0217 07:41:47.540663 12273 net.cpp:380] conv4_2 -> conv4_2
I0217 07:41:48.862702 12273 net.cpp:122] Setting up conv4_2
I0217 07:41:48.862735 12273 net.cpp:129] Top shape: 1 512 31 102 (1618944)
I0217 07:41:48.862740 12273 net.cpp:137] Memory required for data: 140112604
I0217 07:41:48.862753 12273 layer_factory.hpp:77] Creating layer relu4_2
I0217 07:41:48.862766 12273 net.cpp:84] Creating Layer relu4_2
I0217 07:41:48.862771 12273 net.cpp:406] relu4_2 <- conv4_2
I0217 07:41:48.862781 12273 net.cpp:367] relu4_2 -> conv4_2 (in-place)
I0217 07:41:48.863008 12273 net.cpp:122] Setting up relu4_2
I0217 07:41:48.863019 12273 net.cpp:129] Top shape: 1 512 31 102 (1618944)
I0217 07:41:48.863023 12273 net.cpp:137] Memory required for data: 146588380
I0217 07:41:48.863029 12273 layer_factory.hpp:77] Creating layer conv4_3
I0217 07:41:48.863041 12273 net.cpp:84] Creating Layer conv4_3
I0217 07:41:48.863046 12273 net.cpp:406] conv4_3 <- conv4_2
I0217 07:41:48.863054 12273 net.cpp:380] conv4_3 -> conv4_3
I0217 07:41:49.675319 12273 net.cpp:122] Setting up conv4_3
I0217 07:41:49.675357 12273 net.cpp:129] Top shape: 1 512 31 102 (1618944)
I0217 07:41:49.675362 12273 net.cpp:137] Memory required for data: 153064156
I0217 07:41:49.675376 12273 layer_factory.hpp:77] Creating layer relu4_3
I0217 07:41:49.675390 12273 net.cpp:84] Creating Layer relu4_3
I0217 07:41:49.675395 12273 net.cpp:406] relu4_3 <- conv4_3
I0217 07:41:49.675405 12273 net.cpp:367] relu4_3 -> conv4_3 (in-place)
I0217 07:41:49.708685 12273 net.cpp:122] Setting up relu4_3
I0217 07:41:49.708721 12273 net.cpp:129] Top shape: 1 512 31 102 (1618944)
I0217 07:41:49.708726 12273 net.cpp:137] Memory required for data: 159539932
I0217 07:41:49.708732 12273 layer_factory.hpp:77] Creating layer tpp5
I0217 07:41:49.708745 12273 net.cpp:84] Creating Layer tpp5
I0217 07:41:49.708752 12273 net.cpp:406] tpp5 <- conv4_3
I0217 07:41:49.708761 12273 net.cpp:380] tpp5 -> tpp5
I0217 07:41:49.709292 12273 net.cpp:122] Setting up tpp5
I0217 07:41:49.709305 12273 net.cpp:129] Top shape: 1 7680 (7680)
I0217 07:41:49.709308 12273 net.cpp:137] Memory required for data: 159570652
I0217 07:41:49.709312 12273 layer_factory.hpp:77] Creating layer reshape
I0217 07:41:49.709321 12273 net.cpp:84] Creating Layer reshape
I0217 07:41:49.709326 12273 net.cpp:406] reshape <- tpp5
I0217 07:41:49.709339 12273 net.cpp:380] reshape -> reshape
I0217 07:41:49.709373 12273 net.cpp:122] Setting up reshape
I0217 07:41:49.709380 12273 net.cpp:129] Top shape: 1 1920 4 1 (7680)
I0217 07:41:49.709384 12273 net.cpp:137] Memory required for data: 159601372
I0217 07:41:49.709388 12273 layer_factory.hpp:77] Creating layer premax
I0217 07:41:49.709398 12273 net.cpp:84] Creating Layer premax
I0217 07:41:49.709403 12273 net.cpp:406] premax <- reshape
I0217 07:41:49.709410 12273 net.cpp:380] premax -> premax
I0217 07:41:49.709540 12273 net.cpp:122] Setting up premax
I0217 07:41:49.709548 12273 net.cpp:129] Top shape: 1 1920 4 1 (7680)
I0217 07:41:49.709553 12273 net.cpp:137] Memory required for data: 159632092
I0217 07:41:49.709559 12273 layer_factory.hpp:77] Creating layer maxout
I0217 07:41:49.709566 12273 net.cpp:84] Creating Layer maxout
I0217 07:41:49.709570 12273 net.cpp:406] maxout <- premax
I0217 07:41:49.709578 12273 net.cpp:380] maxout -> maxout
I0217 07:41:49.709628 12273 net.cpp:122] Setting up maxout
I0217 07:41:49.709636 12273 net.cpp:129] Top shape: 1 1920 1 1 (1920)
I0217 07:41:49.709640 12273 net.cpp:137] Memory required for data: 159639772
I0217 07:41:49.709643 12273 layer_factory.hpp:77] Creating layer fc6
I0217 07:41:49.709651 12273 net.cpp:84] Creating Layer fc6
I0217 07:41:49.709656 12273 net.cpp:406] fc6 <- maxout
I0217 07:41:49.709663 12273 net.cpp:380] fc6 -> fc6
I0217 07:41:51.773170 12273 net.cpp:122] Setting up fc6
I0217 07:41:51.773206 12273 net.cpp:129] Top shape: 1 4096 (4096)
I0217 07:41:51.773211 12273 net.cpp:137] Memory required for data: 159656156
I0217 07:41:51.773222 12273 layer_factory.hpp:77] Creating layer relu6
I0217 07:41:51.773236 12273 net.cpp:84] Creating Layer relu6
I0217 07:41:51.773241 12273 net.cpp:406] relu6 <- fc6
I0217 07:41:51.773248 12273 net.cpp:367] relu6 -> fc6 (in-place)
I0217 07:41:51.774009 12273 net.cpp:122] Setting up relu6
I0217 07:41:51.774024 12273 net.cpp:129] Top shape: 1 4096 (4096)
I0217 07:41:51.774029 12273 net.cpp:137] Memory required for data: 159672540
I0217 07:41:51.774032 12273 layer_factory.hpp:77] Creating layer drop6
I0217 07:41:51.774044 12273 net.cpp:84] Creating Layer drop6
I0217 07:41:51.774049 12273 net.cpp:406] drop6 <- fc6
I0217 07:41:51.774055 12273 net.cpp:367] drop6 -> fc6 (in-place)
I0217 07:41:51.774088 12273 net.cpp:122] Setting up drop6
I0217 07:41:51.774096 12273 net.cpp:129] Top shape: 1 4096 (4096)
I0217 07:41:51.774099 12273 net.cpp:137] Memory required for data: 159688924
I0217 07:41:51.774102 12273 layer_factory.hpp:77] Creating layer fc7
I0217 07:41:51.774112 12273 net.cpp:84] Creating Layer fc7
I0217 07:41:51.774116 12273 net.cpp:406] fc7 <- fc6
I0217 07:41:51.774122 12273 net.cpp:380] fc7 -> fc7
I0217 07:41:56.550858 12273 net.cpp:122] Setting up fc7
I0217 07:41:56.550899 12273 net.cpp:129] Top shape: 1 4096 (4096)
I0217 07:41:56.550904 12273 net.cpp:137] Memory required for data: 159705308
I0217 07:41:56.550915 12273 layer_factory.hpp:77] Creating layer relu7
I0217 07:41:56.550928 12273 net.cpp:84] Creating Layer relu7
I0217 07:41:56.550935 12273 net.cpp:406] relu7 <- fc7
I0217 07:41:56.550945 12273 net.cpp:367] relu7 -> fc7 (in-place)
I0217 07:41:56.551256 12273 net.cpp:122] Setting up relu7
I0217 07:41:56.551270 12273 net.cpp:129] Top shape: 1 4096 (4096)
I0217 07:41:56.551275 12273 net.cpp:137] Memory required for data: 159721692
I0217 07:41:56.551280 12273 layer_factory.hpp:77] Creating layer drop7
I0217 07:41:56.551293 12273 net.cpp:84] Creating Layer drop7
I0217 07:41:56.551297 12273 net.cpp:406] drop7 <- fc7
I0217 07:41:56.551304 12273 net.cpp:367] drop7 -> fc7 (in-place)
I0217 07:41:56.551347 12273 net.cpp:122] Setting up drop7
I0217 07:41:56.551353 12273 net.cpp:129] Top shape: 1 4096 (4096)
I0217 07:41:56.551357 12273 net.cpp:137] Memory required for data: 159738076
I0217 07:41:56.551362 12273 layer_factory.hpp:77] Creating layer fc8
I0217 07:41:56.551370 12273 net.cpp:84] Creating Layer fc8
I0217 07:41:56.551374 12273 net.cpp:406] fc8 <- fc7
I0217 07:41:56.551383 12273 net.cpp:380] fc8 -> fc8
I0217 07:41:58.228365 12273 net.cpp:122] Setting up fc8
I0217 07:41:58.228404 12273 net.cpp:129] Top shape: 1 926 (926)
I0217 07:41:58.228408 12273 net.cpp:137] Memory required for data: 159741780
I0217 07:41:58.228437 12273 layer_factory.hpp:77] Creating layer loss
I0217 07:41:58.228457 12273 net.cpp:84] Creating Layer loss
I0217 07:41:58.228463 12273 net.cpp:406] loss <- fc8
I0217 07:41:58.228471 12273 net.cpp:406] loss <- phocs
I0217 07:41:58.228477 12273 net.cpp:380] loss -> loss
I0217 07:41:58.228534 12273 net.cpp:122] Setting up loss
…
state {
  phase: TEST
}
layer {
  name: "word_images"
  type: "Data"
  top: "word_images"
  top: "label"
  transform_param {
    scale: -0.0039215689
    mean_value: 255
  }
  data_param {
    source: "/data/fwolf/botany/botany_nti500000_pul2-3-4-5_test_word_images_lmdb"
    batch_size: 1
    backend: LMDB
    prefetch: 20
  }
}
layer {
  name: "phocs"
  type: "Data"
  top: "phocs"
  top: "label_phocs"
  data_param {
    source: "/data/fwolf/botany/botany_nti500000_pul2-3-4-5_test_phocs_lmdb"
    batch_size: 1
    backend: LMDB
    prefetch: 20
  }
}
layer {
  name: "conv1_1"
  type: "Convolution"
  bottom: "word_images"
  top: "conv1_1"
  convolution_param {
    num_output: 64
    pad: 1
    kernel_size: 3
    stride: 1
    weight_filler {
      type: "msra"
    }
    bias_filler {
      type: "constant"
    }
    engine: CUDNN
  }
}
layer {
  name: "relu1_1"
  type: "ReLU"
  bottom: "conv1_1"
  top: "conv1_1"
}
layer {
  name: "conv1_2"
  type: "Convolution"
  bottom: "conv1_1"
  top: "conv1_2"
  convolution_param {
    num_output: 64
    pad: 1
    kernel_size: 3
    stride: 1
    weight_filler {
      type: "msra"
    }
    bias_filler {
      type: "constant"
    }
    engine: CUDNN
  }
}
layer {
  name: "relu1_2"
  type: "ReLU"
  bottom: "conv1_2"
  top: "conv1_2"
}
layer {
  name: "pool1"
  type: "Pooling"
  bottom: "conv1_2"
  top: "pool1"
  pooling_param {
    pool: MAX
    kernel_size: 2
    stride: 2
  }
}
layer {
  name: "conv2_1"
  type: "Convolution"
  bottom: "pool1"
  top: "conv2_1"
  convolution_param {
    num_output: 128
    pad: 1
    kernel_size: 3
    stride: 1
    weight_filler {
      type: "msra"
    }
    bias_filler {
      type: "constant"
    }
    engine: CUDNN
  }
}
layer {
  name: "relu2_1"
  type: "ReLU"
  bottom: "conv2_1"
  top: "conv2_1"
}
layer {
  name: "conv2_2"
  type: "Convolution"
  bottom: "conv2_1"
  top: "conv2_2"
  convolution_param {
    num_output: 128
    pad: 1
    kernel_size: 3
    stride: 1
    weight_filler {
      type: "msra"
    }
    bias_filler {
      type: "constant"
    }
    engine: CUDNN
  }
}
layer {
  name: "relu2_2"
  type: "ReLU"
  bottom: "conv2_2"
  top: "conv2_2"
}
layer {
  name: "pool2"
  type: "Pooling"
  bottom: "conv2_2"
  top: "pool2"
  pooling_param {
    pool: MAX
    kernel_size: 2
    stride: 2
  }
}
layer {
  name: "conv3_1"
  type: "Convolution"
  bottom: "pool2"
  top: "conv3_1"
  convolution_param {
    num_output: 256
    pad: 1
    kernel_size: 3
    stride: 1
    weight_filler {
      type: "msra"
    }
    bias_filler {
      type: "constant"
    }
    engine: CUDNN
  }
}
layer {
  name: "relu3_1"
  type: "ReLU"
  bottom: "conv3_1"
  top: "conv3_1"
}
layer {
  name: "conv3_2"
  type: "Convolution"
  bottom: "conv3_1"
  top: "conv3_2"
  convolution_param {
    num_output: 256
    pad: 1
    kernel_size: 3
    stride: 1
    weight_filler {
      type: "msra"
    }
    bias_filler {
      type: "constant"
    }
    engine: CUDNN
  }
}
layer {
  name: "relu3_2"
  type: "ReLU"
  bottom: "conv3_2"
  top: "conv3_2"
}
layer {
  name: "conv3_3"
  type: "Convolution"
  bottom: "conv3_2"
  top: "conv3_3"
  convolution_param {
    num_output: 256
    pad: 1
    kernel_size: 3
    stride: 1
    weight_filler {
      type: "msra"
    }
    bias_filler {
      type: "constant"
    }
    engine: CUDNN
  }
}
layer {
  name: "relu3_3"
  type: "ReLU"
  bottom: "conv3_3"
  top: "conv3_3"
}
layer {
  name: "conv3_4"
  type: "Convolution"
  bottom: "conv3_3"
  top: "conv3_4"
  convolution_param {
    num_output: 256
    pad: 1
    kernel_size: 3
    stride: 1
    weight_filler {
      type: "msra"
    }
    bias_filler {
      type: "constant"
    }
    engine: CUDNN
  }
}
layer {
  name: "relu3_4"
  type: "ReLU"
  bottom: "conv3_4"
  top: "conv3_4"
}
layer {
  name: "conv3_5"
  type: "Convolution"
  bottom: "conv3_4"
  top: "conv3_5"
  convolution_param {
    num_output: 256
    pad: 1
    kernel_size: 3
    stride: 1
    weight_filler {
      type: "msra"
    }
    bias_filler {
      type: "constant"
    }
    engine: CUDNN
  }
}
layer {
  name: "relu3_5"
  type: "ReLU"
  bottom: "conv3_5"
  top: "conv3_5"
}
layer {
  name: "conv3_6"
  type: "Convolution"
  bottom: "conv3_5"
  top: "conv3_6"
  convolution_param {
    num_output: 256
    pad: 1
    kernel_size: 3
    stride: 1
    weight_filler {
      type: "msra"
    }
    bias_filler {
      type: "constant"
    }
    engine: CUDNN
  }
}
layer {
  name: "relu3_6"
  type: "ReLU"
  bottom: "conv3_6"
  top: "conv3_6"
}
layer {
  name: "conv4_1"
  type: "Convolution"
  bottom: "conv3_6"
  top: "conv4_1"
  convolution_param {
    num_output: 512
    pad: 1
    kernel_size: 3
    stride: 1
    weight_filler {
      type: "msra"
    }
    bias_filler {
      type: "constant"
    }
    engine: CUDNN
  }
}
layer {
  name: "relu4_1"
  type: "ReLU"
  bottom: "conv4_1"
  top: "conv4_1"
}
layer {
  name: "conv4_2"
  type: "Convolution"
  bottom: "conv4_1"
  top: "conv4_2"
  convolution_param {
    num_output: 512
    pad: 1
    kernel_size: 3
    stride: 1
    weight_filler {
      type: "msra"
    }
    bias_filler {
      type: "constant"
    }
    engine: CUDNN
  }
}
layer {
  name: "relu4_2"
  type: "ReLU"
  bottom: "conv4_2"
  top: "conv4_2"
}
layer {
  name: "conv4_3"
  type: "Convolution"
  bottom: "conv4_2"
  top: "conv4_3"
  convolution_param {
    num_output: 512
    pad: 1
    kernel_size: 3
    stride: 1
    weight_filler {
      type: "msra"
    }
    bias_filler {
      type: "constant"
    }
    engine: CUDNN
  }
}
layer {
  name: "relu4_3"
  type: "ReLU"
  bottom: "conv4_3"
  top: "conv4_3"
}
layer {
  name: "tpp5"
  type: "TPP"
  bottom: "conv4_3"
  top: "tpp5"
  tpp_param {
    pyramid_layer: 1
    pyramid_layer: 2
    pyramid_layer: 3
    pyramid_layer: 4
    pyramid_layer: 5
    pool: MAX
    engine: CUDNN
  }
}
layer {
  name: "reshape"
  type: "Reshape"
  bottom: "tpp5"
  top: "reshape"
  reshape_param {
    shape {
      dim: 1
      dim: 1920
      dim: 4
      dim: 1
    }
  }
}
layer {
  name: "premax"
  type: "Scale"
  bottom: "reshape"
  top: "premax"
  param {
    lr_mult: 0
    decay_mult: 0
  }
  scale_param {
    num_axes: 3
    filler {
      value: 1
    }
    bias_term: false
    bias_filler {
      value: 0
    }
  }
}
layer {
  name: "maxout"
  type: "Pooling"
  bottom: "premax"
  top: "maxout"
  pooling_param {
    pool: MAX
    global_pooling: true
  }
}
layer {
  name: "fc6"
  type: "InnerProduct"
  bottom: "maxout"
  top: "fc6"
  inner_product_param {
    num_output: 4096
    weight_filler {
      type: "msra"
    }
    bias_filler {
      type: "constant"
    }
  }
}
layer {
  name: "relu6"
  type: "ReLU"
  bottom: "fc6"
  top: "fc6"
}
layer {
  name: "fc7"
  type: "InnerProduct"
  bottom: "fc6"
  top: "fc7"
  inner_product_param {
    num_output: 4096
    weight_filler {
      type: "msra"
    }
    bias_filler {
      type: "constant"
    }
  }
}
layer {
  name: "relu7"
  type: "ReLU"
  bottom: "fc7"
  top: "fc7"
}
layer {
  name: "fc8"
  type: "InnerProduct"
  bottom: "fc7"
  top: "fc8"
  inner_product_param {
    num_output: 926
    weight_filler {
      type: "msra"
    }
    bias_filler {
      type: "constant"
    }
  }
}
layer {
  name: "sigmoid"
  type: "Sigmoid"
  bottom: "fc8"
  top: "sigmoid"
  include {
    phase: TEST
  }
}
layer {
  name: "silence"
  type: "Silence"
  bottom: "sigmoid"
  include {
    phase: TEST
  }
}
layer {
  name: "loss"
  type: "SigmoidCrossEntropyLoss"
  bottom: "fc8"
  bottom: "phocs"
  top: "loss"
}
I0217 07:41:58.231087 12273 layer_factory.hpp:77] Creating layer word_images
I0217 07:41:58.231175 12273 db_lmdb.cpp:35] Opened lmdb /data/fwolf/botany/botany_nti500000_pul2-3-4-5_test_word_images_lmdb
I0217 07:41:58.231192 12273 net.cpp:84] Creating Layer word_images
I0217 07:41:58.231199 12273 net.cpp:380] word_images -> word_images
I0217 07:41:58.231209 12273 net.cpp:380] word_images -> label
I0217 07:41:58.231593 12273 data_layer.cpp:44] output data size: 1,1,158,315
I0217 07:41:58.237774 12273 net.cpp:122] Setting up word_images
I0217 07:41:58.237809 12273 net.cpp:129] Top shape: 1 1 158 315 (49770)
I0217 07:41:58.237817 12273 net.cpp:129] Top shape: 1 (1)
I0217 07:41:58.237821 12273 net.cpp:137] Memory required for data: 199084
I0217 07:41:58.237828 12273 layer_factory.hpp:77] Creating layer phocs
I0217 07:41:58.237908 12273 db_lmdb.cpp:35] Opened lmdb /data/fwolf/botany/botany_nti500000_pul2-3-4-5_test_phocs_lmdb
I0217 07:41:58.237927 12273 net.cpp:84] Creating Layer phocs
I0217 07:41:58.237936 12273 net.cpp:380] phocs -> phocs
I0217 07:41:58.237948 12273 net.cpp:380] phocs -> label_phocs
I0217 07:41:58.238296 12273 data_layer.cpp:44] output data size: 1,1,1,926
I0217 07:41:58.241135 12273 net.cpp:122] Setting up phocs
I0217 07:41:58.241166 12273 net.cpp:129] Top shape: 1 1 1 926 (926)
I0217 07:41:58.241173 12273 net.cpp:129] Top shape: 1 (1)
I0217 07:41:58.241176 12273 net.cpp:137] Memory required for data: 202792
I0217 07:41:58.241183 12273 layer_factory.hpp:77] Creating layer conv1_1
I0217 07:41:58.241205 12273 net.cpp:84] Creating Layer conv1_1
I0217 07:41:58.241211 12273 net.cpp:406] conv1_1 <- word_images
I0217 07:41:58.241223 12273 net.cpp:380] conv1_1 -> conv1_1
I0217 07:41:58.243167 12273 net.cpp:122] Setting up conv1_1
I0217 07:41:58.243199 12273 net.cpp:129] Top shape: 1 64 158 315 (3185280)
I0217 07:41:58.243204 12273 net.cpp:137] Memory required for data: 12943912
I0217 07:41:58.243221 12273 layer_factory.hpp:77] Creating layer relu1_1
I0217 07:41:58.243234 12273 net.cpp:84] Creating Layer relu1_1
I0217 07:41:58.243239 12273 net.cpp:406] relu1_1 <- conv1_1
I0217 07:41:58.243248 12273 net.cpp:367] relu1_1 -> conv1_1 (in-place)
I0217 07:41:58.243975 12273 net.cpp:122] Setting up relu1_1
I0217 07:41:58.244000 12273 net.cpp:129] Top shape: 1 64 158 315 (3185280)
I0217 07:41:58.244004 12273 net.cpp:137] Memory required for data: 25685032
I0217 07:41:58.244010 12273 layer_factory.hpp:77] Creating layer conv1_2
I0217 07:41:58.244033 12273 net.cpp:84] Creating Layer conv1_2
I0217 07:41:58.244038 12273 net.cpp:406] conv1_2 <- conv1_1
I0217 07:41:58.244048 12273 net.cpp:380] conv1_2 -> conv1_2
I0217 07:41:58.247436 12273 net.cpp:122] Setting up conv1_2
I0217 07:41:58.247468 12273 net.cpp:129] Top shape: 1 64 158 315 (3185280)
I0217 07:41:58.247473 12273 net.cpp:137] Memory required for data: 38426152
I0217 07:41:58.261878 12273 layer_factory.hpp:77] Creating layer relu1_2
I0217 07:41:58.261915 12273 net.cpp:84] Creating Layer relu1_2
I0217 07:41:58.261921 12273 net.cpp:406] relu1_2 <- conv1_2
I0217 07:41:58.261930 12273 net.cpp:367] relu1_2 -> conv1_2 (in-place)
I0217 07:41:58.262778 12273 net.cpp:122] Setting up relu1_2
I0217 07:41:58.262794 12273 net.cpp:129] Top shape: 1 64 158 315 (3185280)
I0217 07:41:58.262799 12273 net.cpp:137] Memory required for data: 51167272
I0217 07:41:58.262804 12273 layer_factory.hpp:77] Creating layer pool1
I0217 07:41:58.262812 12273 net.cpp:84] Creating Layer pool1
I0217 07:41:58.262817 12273 net.cpp:406] pool1 <- conv1_2
I0217 07:41:58.262825 12273 net.cpp:380] pool1 -> pool1
I0217 07:41:58.262905 12273 net.cpp:122] Setting up pool1
I0217 07:41:58.262913 12273 net.cpp:129] Top shape: 1 64 79 158 (798848)
I0217 07:41:58.262917 12273 net.cpp:137] Memory required for data: 54362664
I0217 07:41:58.262922 12273 layer_factory.hpp:77] Creating layer conv2_1
I0217 07:41:58.262934 12273 net.cpp:84] Creating Layer conv2_1
I0217 07:41:58.262939 12273 net.cpp:406] conv2_1 <- pool1
I0217 07:41:58.262946 12273 net.cpp:380] conv2_1 -> conv2_1
I0217 07:41:58.387809 12273 net.cpp:122] Setting up conv2_1
I0217 07:41:58.387847 12273 net.cpp:129] Top shape: 1 128 79 158 (1597696)
I0217 07:41:58.387854 12273 net.cpp:137] Memory required for data: 60753448
I0217 07:41:58.387871 12273 layer_factory.hpp:77] Creating layer relu2_1
I0217 07:41:58.387886 12273 net.cpp:84] Creating Layer relu2_1
I0217 07:41:58.387892 12273 net.cpp:406] relu2_1 <- conv2_1
I0217 07:41:58.387899 12273 net.cpp:367] relu2_1 -> conv2_1 (in-place)
I0217 07:41:58.388203 12273 net.cpp:122] Setting up relu2_1
I0217 07:41:58.388213 12273 net.cpp:129] Top shape: 1 128 79 158 (1597696)
I0217 07:41:58.388217 12273 net.cpp:137] Memory required for data: 67144232
I0217 07:41:58.388222 12273 layer_factory.hpp:77] Creating layer conv2_2
I0217 07:41:58.388236 12273 net.cpp:84] Creating Layer conv2_2
I0217 07:41:58.388242 12273 net.cpp:406] conv2_2 <- conv2_1
I0217 07:41:58.388249 12273 net.cpp:380] conv2_2 -> conv2_2
I0217 07:41:58.418510 12273 net.cpp:122] Setting up conv2_2
I0217 07:41:58.418545 12273 net.cpp:129] Top shape: 1 128 79 158 (1597696)
I0217 07:41:58.418550 12273 net.cpp:137] Memory required for data: 73535016
I0217 07:41:58.418562 12273 layer_factory.hpp:77] Creating layer relu2_2
I0217 07:41:58.418575 12273 net.cpp:84] Creating Layer relu2_2
I0217 07:41:58.418581 12273 net.cpp:406] relu2_2 <- conv2_2
I0217 07:41:58.418588 12273 net.cpp:367] relu2_2 -> conv2_2 (in-place)
I0217 07:41:58.418825 12273 net.cpp:122] Setting up relu2_2
I0217 07:41:58.418838 12273 net.cpp:129] Top shape: 1 128 79 158 (1597696)
I0217 07:41:58.418841 12273 net.cpp:137] Memory required for data: 79925800
I0217 07:41:58.418845 12273 layer_factory.hpp:77] Creating layer pool2
I0217 07:41:58.418854 12273 net.cpp:84] Creating Layer pool2
I0217 07:41:58.418859 12273 net.cpp:406] pool2 <- conv2_2
I0217 07:41:58.418866 12273 net.cpp:380] pool2 -> pool2
I0217 07:41:58.418925 12273 net.cpp:122] Setting up pool2
I0217 07:41:58.418934 12273 net.cpp:129] Top shape: 1 128 40 79 (404480)
I0217 07:41:58.418938 12273 net.cpp:137] Memory required for data: 81543720
I0217 07:41:58.418942 12273 layer_factory.hpp:77] Creating layer conv3_1
I0217 07:41:58.418954 12273 net.cpp:84] Creating Layer conv3_1
I0217 07:41:58.418959 12273 net.cpp:406] conv3_1 <- pool2
I0217 07:41:58.418967 12273 net.cpp:380] conv3_1 -> conv3_1
I0217 07:41:58.451017 12273 net.cpp:122] Setting up conv3_1
I0217 07:41:58.451048 12273 net.cpp:129] Top shape: 1 256 40 79 (808960)
I0217 07:41:58.451055 12273 net.cpp:137] Memory required for data: 84779560
I0217 07:41:58.451069 12273 layer_factory.hpp:77] Creating layer relu3_1
I0217 07:41:58.451081 12273 net.cpp:84] Creating Layer relu3_1
I0217 07:41:58.451087 12273 net.cpp:406] relu3_1 <- conv3_1
I0217 07:41:58.451094 12273 net.cpp:367] relu3_1 -> conv3_1 (in-place)
I0217 07:41:58.451323 12273 net.cpp:122] Setting up relu3_1
I0217 07:41:58.451333 12273 net.cpp:129] Top shape: 1 256 40 79 (808960)
I0217 07:41:58.451336 12273 net.cpp:137] Memory required for data: 88015400
I0217 07:41:58.451340 12273 layer_factory.hpp:77] Creating layer conv3_2
I0217 07:41:58.451354 12273 net.cpp:84] Creating Layer conv3_2
I0217 07:41:58.451359 12273 net.cpp:406] conv3_2 <- conv3_1
I0217 07:41:58.451367 12273 net.cpp:380] conv3_2 -> conv3_2
I0217 07:41:59.388185 12273 net.cpp:122] Setting up conv3_2
I0217 07:41:59.388222 12273 net.cpp:129] Top shape: 1 256 40 79 (808960)
I0217 07:41:59.388227 12273 net.cpp:137] Memory required for data: 91251240
I0217 07:41:59.388242 12273 layer_factory.hpp:77] Creating layer relu3_2
I0217 07:41:59.388257 12273 net.cpp:84] Creating Layer relu3_2
I0217 07:41:59.388262 12273 net.cpp:406] relu3_2 <- conv3_2
I0217 07:41:59.388273 12273 net.cpp:367] relu3_2 -> conv3_2 (in-place)
I0217 07:41:59.389067 12273 net.cpp:122] Setting up relu3_2
I0217 07:41:59.389081 12273 net.cpp:129] Top shape: 1 256 40 79 (808960)
I0217 07:41:59.389086 12273 net.cpp:137] Memory required for data: 94487080
I0217 07:41:59.389091 12273 layer_factory.hpp:77] Creating layer conv3_3
I0217 07:41:59.389109 12273 net.cpp:84] Creating Layer conv3_3
I0217 07:41:59.389114 12273 net.cpp:406] conv3_3 <- conv3_2
I0217 07:41:59.389127 12273 net.cpp:380] conv3_3 -> conv3_3
I0217 07:41:59.446753 12273 net.cpp:122] Setting up conv3_3
I0217 07:41:59.446787 12273 net.cpp:129] Top shape: 1 256 40 79 (808960)
I0217 07:41:59.446792 12273 net.cpp:137] Memory required for data: 97722920
I0217 07:41:59.446805 12273 layer_factory.hpp:77] Creating layer relu3_3
I0217 07:41:59.446820 12273 net.cpp:84] Creating Layer relu3_3
I0217 07:41:59.446825 12273 net.cpp:406] relu3_3 <- conv3_3
I0217 07:41:59.446832 12273 net.cpp:367] relu3_3 -> conv3_3 (in-place)
I0217 07:41:59.447064 12273 net.cpp:122] Setting up relu3_3
I0217 07:41:59.447075 12273 net.cpp:129] Top shape: 1 256 40 79 (808960)
I0217 07:41:59.447079 12273 net.cpp:137] Memory required for data: 100958760
I0217 07:41:59.447083 12273 layer_factory.hpp:77] Creating layer conv3_4
I0217 07:41:59.447098 12273 net.cpp:84] Creating Layer conv3_4
I0217 07:41:59.447103 12273 net.cpp:406] conv3_4 <- conv3_3
I0217 07:41:59.447111 12273 net.cpp:380] conv3_4 -> conv3_4
I0217 07:41:59.803622 12273 net.cpp:122] Setting up conv3_4
I0217 07:41:59.803660 12273 net.cpp:129] Top shape: 1 256 40 79 (808960)
I0217 07:41:59.803665 12273 net.cpp:137] Memory required for data: 104194600
I0217 07:41:59.803678 12273 layer_factory.hpp:77] Creating layer relu3_4
I0217 07:41:59.803694 12273 net.cpp:84] Creating Layer relu3_4
I0217 07:41:59.803699 12273 net.cpp:406] relu3_4 <- conv3_4
I0217 07:41:59.803707 12273 net.cpp:367] relu3_4 -> conv3_4 (in-place)
I0217 07:41:59.805438 12273 net.cpp:122] Setting up relu3_4
I0217 07:41:59.805449 12273 net.cpp:129] Top shape: 1 256 40 79 (808960)
I0217 07:41:59.805454 12273 net.cpp:137] Memory required for data: 107430440
I0217 07:41:59.805459 12273 layer_factory.hpp:77] Creating layer conv3_5
I0217 07:41:59.805474 12273 net.cpp:84] Creating Layer conv3_5
I0217 07:41:59.805480 12273 net.cpp:406] conv3_5 <- conv3_4
I0217 07:41:59.805486 12273 net.cpp:380] conv3_5 -> conv3_5
I0217 07:42:00.215361 12273 net.cpp:122] Setting up conv3_5
I0217 07:42:00.215399 12273 net.cpp:129] Top shape: 1 256 40 79 (808960)
I0217 07:42:00.215405 12273 net.cpp:137] Memory required for data: 110666280
I0217 07:42:00.215423 12273 layer_factory.hpp:77] Creating layer relu3_5
I0217 07:42:00.215438 12273 net.cpp:84] Creating Layer relu3_5
I0217 07:42:00.215445 12273 net.cpp:406] relu3_5 <- conv3_5
I0217 07:42:00.215452 12273 net.cpp:367] relu3_5 -> conv3_5 (in-place)
I0217 07:42:00.216264 12273 net.cpp:122] Setting up relu3_5
I0217 07:42:00.216277 12273 net.cpp:129] Top shape: 1 256 40 79 (808960)
I0217 07:42:00.216281 12273 net.cpp:137] Memory required for data: 113902120
I0217 07:42:00.216285 12273 layer_factory.hpp:77] Creating layer conv3_6
I0217 07:42:00.216301 12273 net.cpp:84] Creating Layer conv3_6
I0217 07:42:00.216306 12273 net.cpp:406] conv3_6 <- conv3_5
I0217 07:42:00.216315 12273 net.cpp:380] conv3_6 -> conv3_6
I0217 07:42:00.759258 12273 net.cpp:122] Setting up conv3_6
I0217 07:42:00.759295 12273 net.cpp:129] Top shape: 1 256 40 79 (808960)
I0217 07:42:00.759300 12273 net.cpp:137] Memory required for data: 117137960
I0217 07:42:00.759312 12273 layer_factory.hpp:77] Creating layer relu3_6
I0217 07:42:00.759327 12273 net.cpp:84] Creating Layer relu3_6
I0217 07:42:00.759335 12273 net.cpp:406] relu3_6 <- conv3_6
I0217 07:42:00.759343 12273 net.cpp:367] relu3_6 -> conv3_6 (in-place)
I0217 07:42:00.788488 12273 net.cpp:122] Setting up relu3_6
I0217 07:42:00.788524 12273 net.cpp:129] Top shape: 1 256 40 79 (808960)
I0217 07:42:00.788529 12273 net.cpp:137] Memory required for data: 120373800
I0217 07:42:00.788537 12273 layer_factory.hpp:77] Creating layer conv4_1
I0217 07:42:00.788558 12273 net.cpp:84] Creating Layer conv4_1
I0217 07:42:00.788564 12273 net.cpp:406] conv4_1 <- conv3_6
I0217 07:42:00.788575 12273 net.cpp:380] conv4_1 -> conv4_1
I0217 07:42:01.044186 12273 net.cpp:122] Setting up conv4_1
I0217 07:42:01.044222 12273 net.cpp:129] Top shape: 1 512 40 79 (1617920)
I0217 07:42:01.044227 12273 net.cpp:137] Memory required for data: 126845480
I0217 07:42:01.044239 12273 layer_factory.hpp:77] Creating layer relu4_1
I0217 07:42:01.044257 12273 net.cpp:84] Creating Layer relu4_1
I0217 07:42:01.044265 12273 net.cpp:406] relu4_1 <- conv4_1
I0217 07:42:01.044272 12273 net.cpp:367] relu4_1 -> conv4_1 (in-place)
I0217 07:42:01.044505 12273 net.cpp:122] Setting up relu4_1
I0217 07:42:01.044517 12273 net.cpp:129] Top shape: 1 512 40 79 (1617920)
I0217 07:42:01.044520 12273 net.cpp:137] Memory required for data: 133317160
I0217 07:42:01.044525 12273 layer_factory.hpp:77] Creating layer conv4_2
I0217 07:42:01.044541 12273 net.cpp:84] Creating Layer conv4_2
I0217 07:42:01.044546 12273 net.cpp:406] conv4_2 <- conv4_1
I0217 07:42:01.044554 12273 net.cpp:380] conv4_2 -> conv4_2
I0217 07:42:01.278028 12273 net.cpp:122] Setting up conv4_2
I0217 07:42:01.278056 12273 net.cpp:129] Top shape: 1 512 40 79 (1617920)
I0217 07:42:01.278060 12273 net.cpp:137] Memory required for data: 139788840
I0217 07:42:01.278069 12273 layer_factory.hpp:77] Creating layer relu4_2
I0217 07:42:01.278079 12273 net.cpp:84] Creating Layer relu4_2
I0217 07:42:01.278084 12273 net.cpp:406] relu4_2 <- conv4_2
I0217 07:42:01.278090 12273 net.cpp:367] relu4_2 -> conv4_2 (in-place)
I0217 07:42:01.278563 12273 net.cpp:122] Setting up relu4_2
I0217 07:42:01.278574 12273 net.cpp:129] Top shape: 1 512 40 79 (1617920)
I0217 07:42:01.278578 12273 net.cpp:137] Memory required for data: 146260520
I0217 07:42:01.278580 12273 layer_factory.hpp:77] Creating layer conv4_3
I0217 07:42:01.278591 12273 net.cpp:84] Creating Layer conv4_3
I0217 07:42:01.278594 12273 net.cpp:406] conv4_3 <- conv4_2
I0217 07:42:01.278600 12273 net.cpp:380] conv4_3 -> conv4_3
I0217 07:42:01.507833 12273 net.cpp:122] Setting up conv4_3
I0217 07:42:01.507869 12273 net.cpp:129] Top shape: 1 512 40 79 (1617920)
I0217 07:42:01.507874 12273 net.cpp:137] Memory required for data: 152732200
I0217 07:42:01.507885 12273 layer_factory.hpp:77] Creating layer relu4_3
I0217 07:42:01.507897 12273 net.cpp:84] Creating Layer relu4_3
I0217 07:42:01.507905 12273 net.cpp:406] relu4_3 <- conv4_3
I0217 07:42:01.507911 12273 net.cpp:367] relu4_3 -> conv4_3 (in-place)
I0217 07:42:01.508143 12273 net.cpp:122] Setting up relu4_3
I0217 07:42:01.508153 12273 net.cpp:129] Top shape: 1 512 40 79 (1617920)
I0217 07:42:01.508157 12273 net.cpp:137] Memory required for data: 159203880
I0217 07:42:01.508162 12273 layer_factory.hpp:77] Creating layer tpp5
I0217 07:42:01.508172 12273 net.cpp:84] Creating Layer tpp5
I0217 07:42:01.508175 12273 net.cpp:406] tpp5 <- conv4_3
I0217 07:42:01.508183 12273 net.cpp:380] tpp5 -> tpp5
I0217 07:42:01.508754 12273 net.cpp:122] Setting up tpp5
I0217 07:42:01.508764 12273 net.cpp:129] Top shape: 1 7680 (7680)
I0217 07:42:01.508769 12273 net.cpp:137] Memory required for data: 159234600
I0217 07:42:01.508772 12273 layer_factory.hpp:77] Creating layer reshape
I0217 07:42:01.508780 12273 net.cpp:84] Creating Layer reshape
I0217 07:42:01.508785 12273 net.cpp:406] reshape <- tpp5
I0217 07:42:01.508791 12273 net.cpp:380] reshape -> reshape
I0217 07:42:01.508826 12273 net.cpp:122] Setting up reshape
I0217 07:42:01.508834 12273 net.cpp:129] Top shape: 1 1920 4 1 (7680)
I0217 07:42:01.508838 12273 net.cpp:137] Memory required for data: 159265320
I0217 07:42:01.508841 12273 layer_factory.hpp:77] Creating layer premax
I0217 07:42:01.508853 12273 net.cpp:84] Creating Layer premax
I0217 07:42:01.508858 12273 net.cpp:406] premax <- reshape
I0217 07:42:01.508865 12273 net.cpp:380] premax -> premax
I0217 07:42:01.509006 12273 net.cpp:122] Setting up premax
I0217 07:42:01.509014 12273 net.cpp:129] Top shape: 1 1920 4 1 (7680)
I0217 07:42:01.509018 12273 net.cpp:137] Memory required for data: 159296040
I0217 07:42:01.509024 12273 layer_factory.hpp:77] Creating layer maxout
I0217 07:42:01.509032 12273 net.cpp:84] Creating Layer maxout
I0217 07:42:01.509037 12273 net.cpp:406] maxout <- premax
I0217 07:42:01.509043 12273 net.cpp:380] maxout -> maxout
I0217 07:42:01.509090 12273 net.cpp:122] Setting up maxout
I0217 07:42:01.509099 12273 net.cpp:129] Top shape: 1 1920 1 1 (1920)
I0217 07:42:01.509106 12273 net.cpp:137] Memory required for data: 159303720
I0217 07:42:01.509110 12273 layer_factory.hpp:77] Creating layer fc6
I0217 07:42:01.509120 12273 net.cpp:84] Creating Layer fc6
I0217 07:42:01.509124 12273 net.cpp:406] fc6 <- maxout
I0217 07:42:01.509131 12273 net.cpp:380] fc6 -> fc6
I0217 07:42:03.837148 12273 net.cpp:122] Setting up fc6
I0217 07:42:03.837188 12273 net.cpp:129] Top shape: 1 4096 (4096)
I0217 07:42:03.837193 12273 net.cpp:137] Memory required for data: 159320104
I0217 07:42:03.837204 12273 layer_factory.hpp:77] Creating layer relu6
I0217 07:42:03.837215 12273 net.cpp:84] Creating Layer relu6
I0217 07:42:03.837221 12273 net.cpp:406] relu6 <- fc6
I0217 07:42:03.837230 12273 net.cpp:367] relu6 -> fc6 (in-place)
I0217 07:42:03.885692 12273 net.cpp:122] Setting up relu6
I0217 07:42:03.885737 12273 net.cpp:129] Top shape: 1 4096 (4096)
I0217 07:42:03.885743 12273 net.cpp:137] Memory required for data: 159336488
I0217 07:42:03.885751 12273 layer_factory.hpp:77] Creating layer fc7
I0217 07:42:03.885766 12273 net.cpp:84] Creating Layer fc7
I0217 07:42:03.885773 12273 net.cpp:406] fc7 <- fc6
I0217 07:42:03.885784 12273 net.cpp:380] fc7 -> fc7
I0217 07:42:09.448231 12273 net.cpp:122] Setting up fc7
I0217 07:42:09.448269 12273 net.cpp:129] Top shape: 1 4096 (4096)
I0217 07:42:09.448274 12273 net.cpp:137] Memory required for data: 159352872
I0217 07:42:09.448285 12273 layer_factory.hpp:77] Creating layer relu7
I0217 07:42:09.448297 12273 net.cpp:84] Creating Layer relu7
I0217 07:42:09.448303 12273 net.cpp:406] relu7 <- fc7
I0217 07:42:09.448312 12273 net.cpp:367] relu7 -> fc7 (in-place)
I0217 07:42:09.448608 12273 net.cpp:122] Setting up relu7
I0217 07:42:09.448619 12273 net.cpp:129] Top shape: 1 4096 (4096)
I0217 07:42:09.448624 12273 net.cpp:137] Memory required for data: 159369256
I0217 07:42:09.448628 12273 layer_factory.hpp:77] Creating layer fc8
I0217 07:42:09.448645 12273 net.cpp:84] Creating Layer fc8
I0217 07:42:09.448649 12273 net.cpp:406] fc8 <- fc7
I0217 07:42:09.448655 12273 net.cpp:380] fc8 -> fc8
I0217 07:42:10.292757 12273 net.cpp:122] Setting up fc8
I0217 07:42:10.292793 12273 net.cpp:129] Top shape: 1 926 (926)
I0217 07:42:10.292799 12273 net.cpp:137] Memory required for data: 159372960
I0217 07:42:10.292815 12273 layer_factory.hpp:77] Creating layer fc8_fc8_0_split
I0217 07:42:10.292827 12273 net.cpp:84] Creating Layer fc8_fc8_0_split
I0217 07:42:10.292834 12273 net.cpp:406] fc8_fc8_0_split <- fc8
I0217 07:42:10.292842 12273 net.cpp:380] fc8_fc8_0_split -> fc8_fc8_0_split_0
I0217 07:42:10.292851 12273 net.cpp:380] fc8_fc8_0_split -> fc8_fc8_0_split_1
I0217 07:42:10.292901 12273 net.cpp:122] Setting up fc8_fc8_0_split
I0217 07:42:10.292907 12273 net.cpp:129] Top shape: 1 926 (926)
I0217 07:42:10.292912 12273 net.cpp:129] Top shape: 1 926 (926)
I0217 07:42:10.292915 12273 net.cpp:137] Memory required for data: 159380368
I0217 07:42:10.292919 12273 layer_factory.hpp:77] Creating layer sigmoid
I0217 07:42:10.292927 12273 net.cpp:84] Creating Layer sigmoid
I0217 07:42:10.292930 12273 net.cpp:406] sigmoid <- fc8_fc8_0_split_0
I0217 07:42:10.292937 12273 net.cpp:380] sigmoid -> sigmoid
I0217 07:42:10.314558 12273 net.cpp:122] Setting up sigmoid
I0217 07:42:10.314596 12273 net.cpp:129] Top shape: 1 926 (926)
I0217 07:42:10.314601 12273 net.cpp:137] Memory required for data: 159384072
I0217 07:42:10.314608 12273 layer_factory.hpp:77] Creating layer silence
I0217 07:42:10.314622 12273 net.cpp:84] Creating Layer silence
I0217 07:42:10.314628 12273 net.cpp:406] silence <- sigmoid
I0217 07:42:10.314637 12273 net.cpp:122] Setting up silence
I0217 07:42:10.314640 12273 net.cpp:137] Memory required for data: 159384072
…
