…
state {
  phase: TRAIN
}
layer {
  name: "word_images"
  type: "Data"
  top: "word_images"
  top: "label"
  transform_param {
    scale: -0.0039215689
    mean_value: 255
  }
  data_param {
    source: "/data/fwolf/botany/botany_nti500000_pul2-3-4-5_train_word_images_lmdb"
    batch_size: 1
    backend: LMDB
    prefetch: 20
  }
}
layer {
  name: "phocs"
  type: "Data"
  top: "phocs"
  top: "label_phocs"
  data_param {
    source: "/data/fwolf/botany/botany_nti500000_pul2-3-4-5_train_phocs_lmdb"
    batch_size: 1
    backend: LMDB
    prefetch: 20
  }
}
layer {
  name: "conv1_1"
  type: "Convolution"
  bottom: "word_images"
  top: "conv1_1"
  convolution_param {
    num_output: 64
    pad: 1
    kernel_size: 3
    stride: 1
    weight_filler {
      type: "msra"
    }
    bias_filler {
      type: "constant"
    }
    engine: CUDNN
  }
}
layer {
  name: "relu1_1"
  type: "ReLU"
  bottom: "conv1_1"
  top: "conv1_1"
}
layer {
  name: "conv1_2"
  type: "Convolution"
  bottom: "conv1_1"
  top: "conv1_2"
  convolution_param {
    num_output: 64
    pad: 1
    kernel_size: 3
    stride: 1
    weight_filler {
      type: "msra"
    }
    bias_filler {
      type: "constant"
    }
    engine: CUDNN
  }
}
layer {
  name: "relu1_2"
  type: "ReLU"
  bottom: "conv1_2"
  top: "conv1_2"
}
layer {
  name: "pool1"
  type: "Pooling"
  bottom: "conv1_2"
  top: "pool1"
  pooling_param {
    pool: MAX
    kernel_size: 2
    stride: 2
  }
}
layer {
  name: "conv2_1"
  type: "Convolution"
  bottom: "pool1"
  top: "conv2_1"
  convolution_param {
    num_output: 128
    pad: 1
    kernel_size: 3
    stride: 1
    weight_filler {
      type: "msra"
    }
    bias_filler {
      type: "constant"
    }
    engine: CUDNN
  }
}
layer {
  name: "relu2_1"
  type: "ReLU"
  bottom: "conv2_1"
  top: "conv2_1"
}
layer {
  name: "conv2_2"
  type: "Convolution"
  bottom: "conv2_1"
  top: "conv2_2"
  convolution_param {
    num_output: 128
    pad: 1
    kernel_size: 3
    stride: 1
    weight_filler {
      type: "msra"
    }
    bias_filler {
      type: "constant"
    }
    engine: CUDNN
  }
}
layer {
  name: "relu2_2"
  type: "ReLU"
  bottom: "conv2_2"
  top: "conv2_2"
}
layer {
  name: "pool2"
  type: "Pooling"
  bottom: "conv2_2"
  top: "pool2"
  pooling_param {
    pool: MAX
    kernel_size: 2
    stride: 2
  }
}
layer {
  name: "conv3_1"
  type: "Convolution"
  bottom: "pool2"
  top: "conv3_1"
  convolution_param {
    num_output: 256
    pad: 1
    kernel_size: 3
    stride: 1
    weight_filler {
      type: "msra"
    }
    bias_filler {
      type: "constant"
    }
    engine: CUDNN
  }
}
layer {
  name: "relu3_1"
  type: "ReLU"
  bottom: "conv3_1"
  top: "conv3_1"
}
layer {
  name: "conv3_2"
  type: "Convolution"
  bottom: "conv3_1"
  top: "conv3_2"
  convolution_param {
    num_output: 256
    pad: 1
    kernel_size: 3
    stride: 1
    weight_filler {
      type: "msra"
    }
    bias_filler {
      type: "constant"
    }
    engine: CUDNN
  }
}
layer {
  name: "relu3_2"
  type: "ReLU"
  bottom: "conv3_2"
  top: "conv3_2"
}
layer {
  name: "conv3_3"
  type: "Convolution"
  bottom: "conv3_2"
  top: "conv3_3"
  convolution_param {
    num_output: 256
    pad: 1
    kernel_size: 3
    stride: 1
    weight_filler {
      type: "msra"
    }
    bias_filler {
      type: "constant"
    }
    engine: CUDNN
  }
}
layer {
  name: "relu3_3"
  type: "ReLU"
  bottom: "conv3_3"
  top: "conv3_3"
}
layer {
  name: "conv3_4"
  type: "Convolution"
  bottom: "conv3_3"
  top: "conv3_4"
  convolution_param {
    num_output: 256
    pad: 1
    kernel_size: 3
    stride: 1
    weight_filler {
      type: "msra"
    }
    bias_filler {
      type: "constant"
    }
    engine: CUDNN
  }
}
layer {
  name: "relu3_4"
  type: "ReLU"
  bottom: "conv3_4"
  top: "conv3_4"
}
layer {
  name: "conv3_5"
  type: "Convolution"
  bottom: "conv3_4"
  top: "conv3_5"
  convolution_param {
    num_output: 256
    pad: 1
    kernel_size: 3
    stride: 1
    weight_filler {
      type: "msra"
    }
    bias_filler {
      type: "constant"
    }
    engine: CUDNN
  }
}
layer {
  name: "relu3_5"
  type: "ReLU"
  bottom: "conv3_5"
  top: "conv3_5"
}
layer {
  name: "conv3_6"
  type: "Convolution"
  bottom: "conv3_5"
  top: "conv3_6"
  convolution_param {
    num_output: 256
    pad: 1
    kernel_size: 3
    stride: 1
    weight_filler {
      type: "msra"
    }
    bias_filler {
      type: "constant"
    }
    engine: CUDNN
  }
}
layer {
  name: "relu3_6"
  type: "ReLU"
  bottom: "conv3_6"
  top: "conv3_6"
}
layer {
  name: "conv4_1"
  type: "Convolution"
  bottom: "conv3_6"
  top: "conv4_1"
  convolution_param {
    num_output: 512
    pad: 1
    kernel_size: 3
    stride: 1
    weight_filler {
      type: "msra"
    }
    bias_filler {
      type: "constant"
    }
    engine: CUDNN
  }
}
layer {
  name: "relu4_1"
  type: "ReLU"
  bottom: "conv4_1"
  top: "conv4_1"
}
layer {
  name: "conv4_2"
  type: "Convolution"
  bottom: "conv4_1"
  top: "conv4_2"
  convolution_param {
    num_output: 512
    pad: 1
    kernel_size: 3
    stride: 1
    weight_filler {
      type: "msra"
    }
    bias_filler {
      type: "constant"
    }
    engine: CUDNN
  }
}
layer {
  name: "relu4_2"
  type: "ReLU"
  bottom: "conv4_2"
  top: "conv4_2"
}
layer {
  name: "conv4_3"
  type: "Convolution"
  bottom: "conv4_2"
  top: "conv4_3"
  convolution_param {
    num_output: 512
    pad: 1
    kernel_size: 3
    stride: 1
    weight_filler {
      type: "msra"
    }
    bias_filler {
      type: "constant"
    }
    engine: CUDNN
  }
}
layer {
  name: "relu4_3"
  type: "ReLU"
  bottom: "conv4_3"
  top: "conv4_3"
}
layer {
  name: "tpp5"
  type: "TPP"
  bottom: "conv4_3"
  top: "tpp5"
  tpp_param {
    pyramid_layer: 1
    pyramid_layer: 2
    pyramid_layer: 3
    pyramid_layer: 4
    pyramid_layer: 5
    pool: MAX
    engine: CUDNN
  }
}
layer {
  name: "reshape"
  type: "Reshape"
  bottom: "tpp5"
  top: "reshape"
  reshape_param {
    shape {
      dim: 1
      dim: 960
      dim: 8
      dim: 1
    }
  }
}
layer {
  name: "premax"
  type: "Scale"
  bottom: "reshape"
  top: "premax"
  param {
    lr_mult: 0
    decay_mult: 0
  }
  scale_param {
    num_axes: 3
    filler {
      value: 1
    }
    bias_term: false
    bias_filler {
      value: 0
    }
  }
}
layer {
  name: "maxout"
  type: "Pooling"
  bottom: "premax"
  top: "maxout"
  pooling_param {
    pool: MAX
    global_pooling: true
  }
}
layer {
  name: "fc6"
  type: "InnerProduct"
  bottom: "maxout"
  top: "fc6"
  inner_product_param {
    num_output: 4096
    weight_filler {
      type: "msra"
    }
    bias_filler {
      type: "constant"
    }
  }
}
layer {
  name: "relu6"
  type: "ReLU"
  bottom: "fc6"
  top: "fc6"
}
layer {
  name: "drop6"
  type: "Dropout"
  bottom: "fc6"
  top: "fc6"
  include {
    phase: TRAIN
  }
  dropout_param {
    dropout_ratio: 0.5
  }
}
layer {
  name: "fc7"
  type: "InnerProduct"
  bottom: "fc6"
  top: "fc7"
  inner_product_param {
    num_output: 4096
    weight_filler {
      type: "msra"
    }
    bias_filler {
      type: "constant"
    }
  }
}
layer {
  name: "relu7"
  type: "ReLU"
  bottom: "fc7"
  top: "fc7"
}
layer {
  name: "drop7"
  type: "Dropout"
  bottom: "fc7"
  top: "fc7"
  include {
    phase: TRAIN
  }
  dropout_param {
    dropout_ratio: 0.5
  }
}
layer {
  name: "fc8"
  type: "InnerProduct"
  bottom: "fc7"
  top: "fc8"
  inner_product_param {
    num_output: 926
    weight_filler {
      type: "msra"
    }
    bias_filler {
      type: "constant"
    }
  }
}
layer {
  name: "loss"
  type: "SigmoidCrossEntropyLoss"
  bottom: "fc8"
  bottom: "phocs"
  top: "loss"
}
I0218 05:35:44.877040 24863 layer_factory.hpp:77] Creating layer word_images
I0218 05:35:44.877157 24863 db_lmdb.cpp:35] Opened lmdb /data/fwolf/botany/botany_nti500000_pul2-3-4-5_train_word_images_lmdb
I0218 05:35:44.877197 24863 net.cpp:84] Creating Layer word_images
I0218 05:35:44.877209 24863 net.cpp:380] word_images -> word_images
I0218 05:35:44.877228 24863 net.cpp:380] word_images -> label
I0218 05:35:44.879241 24863 data_layer.cpp:44] output data size: 1,1,123,405
I0218 05:35:44.887429 24863 net.cpp:122] Setting up word_images
I0218 05:35:44.887457 24863 net.cpp:129] Top shape: 1 1 123 405 (49815)
I0218 05:35:44.887468 24863 net.cpp:129] Top shape: 1 (1)
I0218 05:35:44.887475 24863 net.cpp:137] Memory required for data: 199264
I0218 05:35:44.887482 24863 layer_factory.hpp:77] Creating layer phocs
I0218 05:35:44.887586 24863 db_lmdb.cpp:35] Opened lmdb /data/fwolf/botany/botany_nti500000_pul2-3-4-5_train_phocs_lmdb
I0218 05:35:44.887625 24863 net.cpp:84] Creating Layer phocs
I0218 05:35:44.887635 24863 net.cpp:380] phocs -> phocs
I0218 05:35:44.887652 24863 net.cpp:380] phocs -> label_phocs
I0218 05:35:44.888108 24863 data_layer.cpp:44] output data size: 1,1,1,926
I0218 05:35:44.893056 24863 net.cpp:122] Setting up phocs
I0218 05:35:44.893080 24863 net.cpp:129] Top shape: 1 1 1 926 (926)
I0218 05:35:44.893090 24863 net.cpp:129] Top shape: 1 (1)
I0218 05:35:44.893095 24863 net.cpp:137] Memory required for data: 202972
I0218 05:35:44.893101 24863 layer_factory.hpp:77] Creating layer conv1_1
I0218 05:35:44.893122 24863 net.cpp:84] Creating Layer conv1_1
I0218 05:35:44.893129 24863 net.cpp:406] conv1_1 <- word_images
I0218 05:35:44.893142 24863 net.cpp:380] conv1_1 -> conv1_1
I0218 05:35:45.474768 24863 net.cpp:122] Setting up conv1_1
I0218 05:35:45.474800 24863 net.cpp:129] Top shape: 1 64 123 405 (3188160)
I0218 05:35:45.474804 24863 net.cpp:137] Memory required for data: 12955612
I0218 05:35:45.474819 24863 layer_factory.hpp:77] Creating layer relu1_1
I0218 05:35:45.474830 24863 net.cpp:84] Creating Layer relu1_1
I0218 05:35:45.474834 24863 net.cpp:406] relu1_1 <- conv1_1
I0218 05:35:45.474840 24863 net.cpp:367] relu1_1 -> conv1_1 (in-place)
I0218 05:35:45.475266 24863 net.cpp:122] Setting up relu1_1
I0218 05:35:45.475280 24863 net.cpp:129] Top shape: 1 64 123 405 (3188160)
I0218 05:35:45.475283 24863 net.cpp:137] Memory required for data: 25708252
I0218 05:35:45.475287 24863 layer_factory.hpp:77] Creating layer conv1_2
I0218 05:35:45.475301 24863 net.cpp:84] Creating Layer conv1_2
I0218 05:35:45.475304 24863 net.cpp:406] conv1_2 <- conv1_1
I0218 05:35:45.475311 24863 net.cpp:380] conv1_2 -> conv1_2
I0218 05:35:45.477442 24863 net.cpp:122] Setting up conv1_2
I0218 05:35:45.477457 24863 net.cpp:129] Top shape: 1 64 123 405 (3188160)
I0218 05:35:45.477459 24863 net.cpp:137] Memory required for data: 38460892
I0218 05:35:45.477468 24863 layer_factory.hpp:77] Creating layer relu1_2
I0218 05:35:45.477474 24863 net.cpp:84] Creating Layer relu1_2
I0218 05:35:45.477483 24863 net.cpp:406] relu1_2 <- conv1_2
I0218 05:35:45.477488 24863 net.cpp:367] relu1_2 -> conv1_2 (in-place)
I0218 05:35:45.477663 24863 net.cpp:122] Setting up relu1_2
I0218 05:35:45.477672 24863 net.cpp:129] Top shape: 1 64 123 405 (3188160)
I0218 05:35:45.477675 24863 net.cpp:137] Memory required for data: 51213532
I0218 05:35:45.477679 24863 layer_factory.hpp:77] Creating layer pool1
I0218 05:35:45.477685 24863 net.cpp:84] Creating Layer pool1
I0218 05:35:45.477689 24863 net.cpp:406] pool1 <- conv1_2
I0218 05:35:45.477694 24863 net.cpp:380] pool1 -> pool1
I0218 05:35:45.477733 24863 net.cpp:122] Setting up pool1
I0218 05:35:45.477740 24863 net.cpp:129] Top shape: 1 64 62 203 (805504)
I0218 05:35:45.477741 24863 net.cpp:137] Memory required for data: 54435548
I0218 05:35:45.477744 24863 layer_factory.hpp:77] Creating layer conv2_1
I0218 05:35:45.477753 24863 net.cpp:84] Creating Layer conv2_1
I0218 05:35:45.477756 24863 net.cpp:406] conv2_1 <- pool1
I0218 05:35:45.477761 24863 net.cpp:380] conv2_1 -> conv2_1
I0218 05:35:45.482765 24863 net.cpp:122] Setting up conv2_1
I0218 05:35:45.482779 24863 net.cpp:129] Top shape: 1 128 62 203 (1611008)
I0218 05:35:45.482782 24863 net.cpp:137] Memory required for data: 60879580
I0218 05:35:45.482791 24863 layer_factory.hpp:77] Creating layer relu2_1
I0218 05:35:45.482800 24863 net.cpp:84] Creating Layer relu2_1
I0218 05:35:45.482802 24863 net.cpp:406] relu2_1 <- conv2_1
I0218 05:35:45.482807 24863 net.cpp:367] relu2_1 -> conv2_1 (in-place)
I0218 05:35:45.482990 24863 net.cpp:122] Setting up relu2_1
I0218 05:35:45.483000 24863 net.cpp:129] Top shape: 1 128 62 203 (1611008)
I0218 05:35:45.483002 24863 net.cpp:137] Memory required for data: 67323612
I0218 05:35:45.483006 24863 layer_factory.hpp:77] Creating layer conv2_2
I0218 05:35:45.483014 24863 net.cpp:84] Creating Layer conv2_2
I0218 05:35:45.483017 24863 net.cpp:406] conv2_2 <- conv2_1
I0218 05:35:45.483023 24863 net.cpp:380] conv2_2 -> conv2_2
I0218 05:35:45.488461 24863 net.cpp:122] Setting up conv2_2
I0218 05:35:45.488473 24863 net.cpp:129] Top shape: 1 128 62 203 (1611008)
I0218 05:35:45.488477 24863 net.cpp:137] Memory required for data: 73767644
I0218 05:35:45.488484 24863 layer_factory.hpp:77] Creating layer relu2_2
I0218 05:35:45.488490 24863 net.cpp:84] Creating Layer relu2_2
I0218 05:35:45.488493 24863 net.cpp:406] relu2_2 <- conv2_2
I0218 05:35:45.488498 24863 net.cpp:367] relu2_2 -> conv2_2 (in-place)
I0218 05:35:45.488922 24863 net.cpp:122] Setting up relu2_2
I0218 05:35:45.488934 24863 net.cpp:129] Top shape: 1 128 62 203 (1611008)
I0218 05:35:45.488939 24863 net.cpp:137] Memory required for data: 80211676
I0218 05:35:45.488941 24863 layer_factory.hpp:77] Creating layer pool2
I0218 05:35:45.488948 24863 net.cpp:84] Creating Layer pool2
I0218 05:35:45.488951 24863 net.cpp:406] pool2 <- conv2_2
I0218 05:35:45.488956 24863 net.cpp:380] pool2 -> pool2
I0218 05:35:45.488997 24863 net.cpp:122] Setting up pool2
I0218 05:35:45.489003 24863 net.cpp:129] Top shape: 1 128 31 102 (404736)
I0218 05:35:45.489006 24863 net.cpp:137] Memory required for data: 81830620
I0218 05:35:45.489008 24863 layer_factory.hpp:77] Creating layer conv3_1
I0218 05:35:45.489017 24863 net.cpp:84] Creating Layer conv3_1
I0218 05:35:45.489019 24863 net.cpp:406] conv3_1 <- pool2
I0218 05:35:45.489024 24863 net.cpp:380] conv3_1 -> conv3_1
I0218 05:35:45.499243 24863 net.cpp:122] Setting up conv3_1
I0218 05:35:45.499255 24863 net.cpp:129] Top shape: 1 256 31 102 (809472)
I0218 05:35:45.499258 24863 net.cpp:137] Memory required for data: 85068508
I0218 05:35:45.499267 24863 layer_factory.hpp:77] Creating layer relu3_1
I0218 05:35:45.499274 24863 net.cpp:84] Creating Layer relu3_1
I0218 05:35:45.499276 24863 net.cpp:406] relu3_1 <- conv3_1
I0218 05:35:45.499281 24863 net.cpp:367] relu3_1 -> conv3_1 (in-place)
I0218 05:35:45.499459 24863 net.cpp:122] Setting up relu3_1
I0218 05:35:45.499466 24863 net.cpp:129] Top shape: 1 256 31 102 (809472)
I0218 05:35:45.499470 24863 net.cpp:137] Memory required for data: 88306396
I0218 05:35:45.499475 24863 layer_factory.hpp:77] Creating layer conv3_2
I0218 05:35:45.499485 24863 net.cpp:84] Creating Layer conv3_2
I0218 05:35:45.499491 24863 net.cpp:406] conv3_2 <- conv3_1
I0218 05:35:45.499497 24863 net.cpp:380] conv3_2 -> conv3_2
I0218 05:35:45.517403 24863 net.cpp:122] Setting up conv3_2
I0218 05:35:45.517416 24863 net.cpp:129] Top shape: 1 256 31 102 (809472)
I0218 05:35:45.517418 24863 net.cpp:137] Memory required for data: 91544284
I0218 05:35:45.517426 24863 layer_factory.hpp:77] Creating layer relu3_2
I0218 05:35:45.517431 24863 net.cpp:84] Creating Layer relu3_2
I0218 05:35:45.517434 24863 net.cpp:406] relu3_2 <- conv3_2
I0218 05:35:45.517439 24863 net.cpp:367] relu3_2 -> conv3_2 (in-place)
I0218 05:35:45.517617 24863 net.cpp:122] Setting up relu3_2
I0218 05:35:45.517627 24863 net.cpp:129] Top shape: 1 256 31 102 (809472)
I0218 05:35:45.517629 24863 net.cpp:137] Memory required for data: 94782172
I0218 05:35:45.517632 24863 layer_factory.hpp:77] Creating layer conv3_3
I0218 05:35:45.517642 24863 net.cpp:84] Creating Layer conv3_3
I0218 05:35:45.517647 24863 net.cpp:406] conv3_3 <- conv3_2
I0218 05:35:45.517652 24863 net.cpp:380] conv3_3 -> conv3_3
I0218 05:35:45.534694 24863 net.cpp:122] Setting up conv3_3
I0218 05:35:45.534706 24863 net.cpp:129] Top shape: 1 256 31 102 (809472)
I0218 05:35:45.534709 24863 net.cpp:137] Memory required for data: 98020060
I0218 05:35:45.534715 24863 layer_factory.hpp:77] Creating layer relu3_3
I0218 05:35:45.534721 24863 net.cpp:84] Creating Layer relu3_3
I0218 05:35:45.534724 24863 net.cpp:406] relu3_3 <- conv3_3
I0218 05:35:45.534729 24863 net.cpp:367] relu3_3 -> conv3_3 (in-place)
I0218 05:35:45.535128 24863 net.cpp:122] Setting up relu3_3
I0218 05:35:45.535140 24863 net.cpp:129] Top shape: 1 256 31 102 (809472)
I0218 05:35:45.535142 24863 net.cpp:137] Memory required for data: 101257948
I0218 05:35:45.535145 24863 layer_factory.hpp:77] Creating layer conv3_4
I0218 05:35:45.535153 24863 net.cpp:84] Creating Layer conv3_4
I0218 05:35:45.535157 24863 net.cpp:406] conv3_4 <- conv3_3
I0218 05:35:45.535166 24863 net.cpp:380] conv3_4 -> conv3_4
I0218 05:35:45.551527 24863 net.cpp:122] Setting up conv3_4
I0218 05:35:45.551537 24863 net.cpp:129] Top shape: 1 256 31 102 (809472)
I0218 05:35:45.551540 24863 net.cpp:137] Memory required for data: 104495836
I0218 05:35:45.551546 24863 layer_factory.hpp:77] Creating layer relu3_4
I0218 05:35:45.551551 24863 net.cpp:84] Creating Layer relu3_4
I0218 05:35:45.551554 24863 net.cpp:406] relu3_4 <- conv3_4
I0218 05:35:45.551558 24863 net.cpp:367] relu3_4 -> conv3_4 (in-place)
I0218 05:35:45.551723 24863 net.cpp:122] Setting up relu3_4
I0218 05:35:45.551730 24863 net.cpp:129] Top shape: 1 256 31 102 (809472)
I0218 05:35:45.551733 24863 net.cpp:137] Memory required for data: 107733724
I0218 05:35:45.551736 24863 layer_factory.hpp:77] Creating layer conv3_5
I0218 05:35:45.551744 24863 net.cpp:84] Creating Layer conv3_5
I0218 05:35:45.551748 24863 net.cpp:406] conv3_5 <- conv3_4
I0218 05:35:45.551753 24863 net.cpp:380] conv3_5 -> conv3_5
I0218 05:35:45.567862 24863 net.cpp:122] Setting up conv3_5
I0218 05:35:45.567873 24863 net.cpp:129] Top shape: 1 256 31 102 (809472)
I0218 05:35:45.567876 24863 net.cpp:137] Memory required for data: 110971612
I0218 05:35:45.567885 24863 layer_factory.hpp:77] Creating layer relu3_5
I0218 05:35:45.567891 24863 net.cpp:84] Creating Layer relu3_5
I0218 05:35:45.567894 24863 net.cpp:406] relu3_5 <- conv3_5
I0218 05:35:45.567899 24863 net.cpp:367] relu3_5 -> conv3_5 (in-place)
I0218 05:35:45.568066 24863 net.cpp:122] Setting up relu3_5
I0218 05:35:45.568074 24863 net.cpp:129] Top shape: 1 256 31 102 (809472)
I0218 05:35:45.568078 24863 net.cpp:137] Memory required for data: 114209500
I0218 05:35:45.568080 24863 layer_factory.hpp:77] Creating layer conv3_6
I0218 05:35:45.568089 24863 net.cpp:84] Creating Layer conv3_6
I0218 05:35:45.568091 24863 net.cpp:406] conv3_6 <- conv3_5
I0218 05:35:45.568097 24863 net.cpp:380] conv3_6 -> conv3_6
I0218 05:35:45.584189 24863 net.cpp:122] Setting up conv3_6
I0218 05:35:45.584203 24863 net.cpp:129] Top shape: 1 256 31 102 (809472)
I0218 05:35:45.584208 24863 net.cpp:137] Memory required for data: 117447388
I0218 05:35:45.584213 24863 layer_factory.hpp:77] Creating layer relu3_6
I0218 05:35:45.584218 24863 net.cpp:84] Creating Layer relu3_6
I0218 05:35:45.584221 24863 net.cpp:406] relu3_6 <- conv3_6
I0218 05:35:45.584225 24863 net.cpp:367] relu3_6 -> conv3_6 (in-place)
I0218 05:35:45.584394 24863 net.cpp:122] Setting up relu3_6
I0218 05:35:45.584401 24863 net.cpp:129] Top shape: 1 256 31 102 (809472)
I0218 05:35:45.584404 24863 net.cpp:137] Memory required for data: 120685276
I0218 05:35:45.584408 24863 layer_factory.hpp:77] Creating layer conv4_1
I0218 05:35:45.584415 24863 net.cpp:84] Creating Layer conv4_1
I0218 05:35:45.584419 24863 net.cpp:406] conv4_1 <- conv3_6
I0218 05:35:45.584424 24863 net.cpp:380] conv4_1 -> conv4_1
I0218 05:35:45.615136 24863 net.cpp:122] Setting up conv4_1
I0218 05:35:45.615149 24863 net.cpp:129] Top shape: 1 512 31 102 (1618944)
I0218 05:35:45.615152 24863 net.cpp:137] Memory required for data: 127161052
I0218 05:35:45.615159 24863 layer_factory.hpp:77] Creating layer relu4_1
I0218 05:35:45.615164 24863 net.cpp:84] Creating Layer relu4_1
I0218 05:35:45.615167 24863 net.cpp:406] relu4_1 <- conv4_1
I0218 05:35:45.615172 24863 net.cpp:367] relu4_1 -> conv4_1 (in-place)
I0218 05:35:45.615567 24863 net.cpp:122] Setting up relu4_1
I0218 05:35:45.615578 24863 net.cpp:129] Top shape: 1 512 31 102 (1618944)
I0218 05:35:45.615581 24863 net.cpp:137] Memory required for data: 133636828
I0218 05:35:45.615584 24863 layer_factory.hpp:77] Creating layer conv4_2
I0218 05:35:45.615593 24863 net.cpp:84] Creating Layer conv4_2
I0218 05:35:45.615597 24863 net.cpp:406] conv4_2 <- conv4_1
I0218 05:35:45.615602 24863 net.cpp:380] conv4_2 -> conv4_2
I0218 05:35:45.675588 24863 net.cpp:122] Setting up conv4_2
I0218 05:35:45.675606 24863 net.cpp:129] Top shape: 1 512 31 102 (1618944)
I0218 05:35:45.675608 24863 net.cpp:137] Memory required for data: 140112604
I0218 05:35:45.675616 24863 layer_factory.hpp:77] Creating layer relu4_2
I0218 05:35:45.675623 24863 net.cpp:84] Creating Layer relu4_2
I0218 05:35:45.675626 24863 net.cpp:406] relu4_2 <- conv4_2
I0218 05:35:45.675631 24863 net.cpp:367] relu4_2 -> conv4_2 (in-place)
I0218 05:35:45.675799 24863 net.cpp:122] Setting up relu4_2
I0218 05:35:45.675807 24863 net.cpp:129] Top shape: 1 512 31 102 (1618944)
I0218 05:35:45.675810 24863 net.cpp:137] Memory required for data: 146588380
I0218 05:35:45.675813 24863 layer_factory.hpp:77] Creating layer conv4_3
I0218 05:35:45.675822 24863 net.cpp:84] Creating Layer conv4_3
I0218 05:35:45.675825 24863 net.cpp:406] conv4_3 <- conv4_2
I0218 05:35:45.675829 24863 net.cpp:380] conv4_3 -> conv4_3
I0218 05:35:45.735815 24863 net.cpp:122] Setting up conv4_3
I0218 05:35:45.735831 24863 net.cpp:129] Top shape: 1 512 31 102 (1618944)
I0218 05:35:45.735833 24863 net.cpp:137] Memory required for data: 153064156
I0218 05:35:45.735841 24863 layer_factory.hpp:77] Creating layer relu4_3
I0218 05:35:45.735847 24863 net.cpp:84] Creating Layer relu4_3
I0218 05:35:45.735852 24863 net.cpp:406] relu4_3 <- conv4_3
I0218 05:35:45.735855 24863 net.cpp:367] relu4_3 -> conv4_3 (in-place)
I0218 05:35:45.736032 24863 net.cpp:122] Setting up relu4_3
I0218 05:35:45.736038 24863 net.cpp:129] Top shape: 1 512 31 102 (1618944)
I0218 05:35:45.736042 24863 net.cpp:137] Memory required for data: 159539932
I0218 05:35:45.736044 24863 layer_factory.hpp:77] Creating layer tpp5
I0218 05:35:45.736050 24863 net.cpp:84] Creating Layer tpp5
I0218 05:35:45.736053 24863 net.cpp:406] tpp5 <- conv4_3
I0218 05:35:45.736058 24863 net.cpp:380] tpp5 -> tpp5
I0218 05:35:45.736431 24863 net.cpp:122] Setting up tpp5
I0218 05:35:45.736439 24863 net.cpp:129] Top shape: 1 7680 (7680)
I0218 05:35:45.736441 24863 net.cpp:137] Memory required for data: 159570652
I0218 05:35:45.736444 24863 layer_factory.hpp:77] Creating layer reshape
I0218 05:35:45.736451 24863 net.cpp:84] Creating Layer reshape
I0218 05:35:45.736454 24863 net.cpp:406] reshape <- tpp5
I0218 05:35:45.736461 24863 net.cpp:380] reshape -> reshape
I0218 05:35:45.736486 24863 net.cpp:122] Setting up reshape
I0218 05:35:45.736491 24863 net.cpp:129] Top shape: 1 960 8 1 (7680)
I0218 05:35:45.736493 24863 net.cpp:137] Memory required for data: 159601372
I0218 05:35:45.736496 24863 layer_factory.hpp:77] Creating layer premax
I0218 05:35:45.736505 24863 net.cpp:84] Creating Layer premax
I0218 05:35:45.736507 24863 net.cpp:406] premax <- reshape
I0218 05:35:45.736511 24863 net.cpp:380] premax -> premax
I0218 05:35:45.736603 24863 net.cpp:122] Setting up premax
I0218 05:35:45.736608 24863 net.cpp:129] Top shape: 1 960 8 1 (7680)
I0218 05:35:45.736611 24863 net.cpp:137] Memory required for data: 159632092
I0218 05:35:45.736615 24863 layer_factory.hpp:77] Creating layer maxout
I0218 05:35:45.736619 24863 net.cpp:84] Creating Layer maxout
I0218 05:35:45.736623 24863 net.cpp:406] maxout <- premax
I0218 05:35:45.736626 24863 net.cpp:380] maxout -> maxout
I0218 05:35:45.736660 24863 net.cpp:122] Setting up maxout
I0218 05:35:45.736663 24863 net.cpp:129] Top shape: 1 960 1 1 (960)
I0218 05:35:45.736665 24863 net.cpp:137] Memory required for data: 159635932
I0218 05:35:45.736668 24863 layer_factory.hpp:77] Creating layer fc6
I0218 05:35:45.736675 24863 net.cpp:84] Creating Layer fc6
I0218 05:35:45.736676 24863 net.cpp:406] fc6 <- maxout
I0218 05:35:45.736681 24863 net.cpp:380] fc6 -> fc6
I0218 05:35:45.837282 24863 net.cpp:122] Setting up fc6
I0218 05:35:45.837309 24863 net.cpp:129] Top shape: 1 4096 (4096)
I0218 05:35:45.837312 24863 net.cpp:137] Memory required for data: 159652316
I0218 05:35:45.837319 24863 layer_factory.hpp:77] Creating layer relu6
I0218 05:35:45.837328 24863 net.cpp:84] Creating Layer relu6
I0218 05:35:45.837332 24863 net.cpp:406] relu6 <- fc6
I0218 05:35:45.837337 24863 net.cpp:367] relu6 -> fc6 (in-place)
I0218 05:35:45.837896 24863 net.cpp:122] Setting up relu6
I0218 05:35:45.837908 24863 net.cpp:129] Top shape: 1 4096 (4096)
I0218 05:35:45.837910 24863 net.cpp:137] Memory required for data: 159668700
I0218 05:35:45.837913 24863 layer_factory.hpp:77] Creating layer drop6
I0218 05:35:45.837921 24863 net.cpp:84] Creating Layer drop6
I0218 05:35:45.837924 24863 net.cpp:406] drop6 <- fc6
I0218 05:35:45.837929 24863 net.cpp:367] drop6 -> fc6 (in-place)
I0218 05:35:45.837955 24863 net.cpp:122] Setting up drop6
I0218 05:35:45.837960 24863 net.cpp:129] Top shape: 1 4096 (4096)
I0218 05:35:45.837962 24863 net.cpp:137] Memory required for data: 159685084
I0218 05:35:45.837965 24863 layer_factory.hpp:77] Creating layer fc7
I0218 05:35:45.837971 24863 net.cpp:84] Creating Layer fc7
I0218 05:35:45.837975 24863 net.cpp:406] fc7 <- fc6
I0218 05:35:45.837980 24863 net.cpp:380] fc7 -> fc7
I0218 05:35:46.267047 24863 net.cpp:122] Setting up fc7
I0218 05:35:46.267076 24863 net.cpp:129] Top shape: 1 4096 (4096)
I0218 05:35:46.267079 24863 net.cpp:137] Memory required for data: 159701468
I0218 05:35:46.267087 24863 layer_factory.hpp:77] Creating layer relu7
I0218 05:35:46.267096 24863 net.cpp:84] Creating Layer relu7
I0218 05:35:46.267099 24863 net.cpp:406] relu7 <- fc7
I0218 05:35:46.267104 24863 net.cpp:367] relu7 -> fc7 (in-place)
I0218 05:35:46.267335 24863 net.cpp:122] Setting up relu7
I0218 05:35:46.267345 24863 net.cpp:129] Top shape: 1 4096 (4096)
I0218 05:35:46.267347 24863 net.cpp:137] Memory required for data: 159717852
I0218 05:35:46.267350 24863 layer_factory.hpp:77] Creating layer drop7
I0218 05:35:46.267357 24863 net.cpp:84] Creating Layer drop7
I0218 05:35:46.267360 24863 net.cpp:406] drop7 <- fc7
I0218 05:35:46.267365 24863 net.cpp:367] drop7 -> fc7 (in-place)
I0218 05:35:46.267390 24863 net.cpp:122] Setting up drop7
I0218 05:35:46.267395 24863 net.cpp:129] Top shape: 1 4096 (4096)
I0218 05:35:46.267396 24863 net.cpp:137] Memory required for data: 159734236
I0218 05:35:46.267398 24863 layer_factory.hpp:77] Creating layer fc8
I0218 05:35:46.267406 24863 net.cpp:84] Creating Layer fc8
I0218 05:35:46.267408 24863 net.cpp:406] fc8 <- fc7
I0218 05:35:46.267413 24863 net.cpp:380] fc8 -> fc8
I0218 05:35:46.364629 24863 net.cpp:122] Setting up fc8
I0218 05:35:46.364653 24863 net.cpp:129] Top shape: 1 926 (926)
I0218 05:35:46.364655 24863 net.cpp:137] Memory required for data: 159737940
I0218 05:35:46.364667 24863 layer_factory.hpp:77] Creating layer loss
I0218 05:35:46.364678 24863 net.cpp:84] Creating Layer loss
I0218 05:35:46.364682 24863 net.cpp:406] loss <- fc8
I0218 05:35:46.364687 24863 net.cpp:406] loss <- phocs
I0218 05:35:46.364691 24863 net.cpp:380] loss -> loss
I0218 05:35:46.364729 24863 net.cpp:122] Setting up loss
…
state {
  phase: TEST
}
layer {
  name: "word_images"
  type: "Data"
  top: "word_images"
  top: "label"
  transform_param {
    scale: -0.0039215689
    mean_value: 255
  }
  data_param {
    source: "/data/fwolf/botany/botany_nti500000_pul2-3-4-5_test_word_images_lmdb"
    batch_size: 1
    backend: LMDB
    prefetch: 20
  }
}
layer {
  name: "phocs"
  type: "Data"
  top: "phocs"
  top: "label_phocs"
  data_param {
    source: "/data/fwolf/botany/botany_nti500000_pul2-3-4-5_test_phocs_lmdb"
    batch_size: 1
    backend: LMDB
    prefetch: 20
  }
}
layer {
  name: "conv1_1"
  type: "Convolution"
  bottom: "word_images"
  top: "conv1_1"
  convolution_param {
    num_output: 64
    pad: 1
    kernel_size: 3
    stride: 1
    weight_filler {
      type: "msra"
    }
    bias_filler {
      type: "constant"
    }
    engine: CUDNN
  }
}
layer {
  name: "relu1_1"
  type: "ReLU"
  bottom: "conv1_1"
  top: "conv1_1"
}
layer {
  name: "conv1_2"
  type: "Convolution"
  bottom: "conv1_1"
  top: "conv1_2"
  convolution_param {
    num_output: 64
    pad: 1
    kernel_size: 3
    stride: 1
    weight_filler {
      type: "msra"
    }
    bias_filler {
      type: "constant"
    }
    engine: CUDNN
  }
}
layer {
  name: "relu1_2"
  type: "ReLU"
  bottom: "conv1_2"
  top: "conv1_2"
}
layer {
  name: "pool1"
  type: "Pooling"
  bottom: "conv1_2"
  top: "pool1"
  pooling_param {
    pool: MAX
    kernel_size: 2
    stride: 2
  }
}
layer {
  name: "conv2_1"
  type: "Convolution"
  bottom: "pool1"
  top: "conv2_1"
  convolution_param {
    num_output: 128
    pad: 1
    kernel_size: 3
    stride: 1
    weight_filler {
      type: "msra"
    }
    bias_filler {
      type: "constant"
    }
    engine: CUDNN
  }
}
layer {
  name: "relu2_1"
  type: "ReLU"
  bottom: "conv2_1"
  top: "conv2_1"
}
layer {
  name: "conv2_2"
  type: "Convolution"
  bottom: "conv2_1"
  top: "conv2_2"
  convolution_param {
    num_output: 128
    pad: 1
    kernel_size: 3
    stride: 1
    weight_filler {
      type: "msra"
    }
    bias_filler {
      type: "constant"
    }
    engine: CUDNN
  }
}
layer {
  name: "relu2_2"
  type: "ReLU"
  bottom: "conv2_2"
  top: "conv2_2"
}
layer {
  name: "pool2"
  type: "Pooling"
  bottom: "conv2_2"
  top: "pool2"
  pooling_param {
    pool: MAX
    kernel_size: 2
    stride: 2
  }
}
layer {
  name: "conv3_1"
  type: "Convolution"
  bottom: "pool2"
  top: "conv3_1"
  convolution_param {
    num_output: 256
    pad: 1
    kernel_size: 3
    stride: 1
    weight_filler {
      type: "msra"
    }
    bias_filler {
      type: "constant"
    }
    engine: CUDNN
  }
}
layer {
  name: "relu3_1"
  type: "ReLU"
  bottom: "conv3_1"
  top: "conv3_1"
}
layer {
  name: "conv3_2"
  type: "Convolution"
  bottom: "conv3_1"
  top: "conv3_2"
  convolution_param {
    num_output: 256
    pad: 1
    kernel_size: 3
    stride: 1
    weight_filler {
      type: "msra"
    }
    bias_filler {
      type: "constant"
    }
    engine: CUDNN
  }
}
layer {
  name: "relu3_2"
  type: "ReLU"
  bottom: "conv3_2"
  top: "conv3_2"
}
layer {
  name: "conv3_3"
  type: "Convolution"
  bottom: "conv3_2"
  top: "conv3_3"
  convolution_param {
    num_output: 256
    pad: 1
    kernel_size: 3
    stride: 1
    weight_filler {
      type: "msra"
    }
    bias_filler {
      type: "constant"
    }
    engine: CUDNN
  }
}
layer {
  name: "relu3_3"
  type: "ReLU"
  bottom: "conv3_3"
  top: "conv3_3"
}
layer {
  name: "conv3_4"
  type: "Convolution"
  bottom: "conv3_3"
  top: "conv3_4"
  convolution_param {
    num_output: 256
    pad: 1
    kernel_size: 3
    stride: 1
    weight_filler {
      type: "msra"
    }
    bias_filler {
      type: "constant"
    }
    engine: CUDNN
  }
}
layer {
  name: "relu3_4"
  type: "ReLU"
  bottom: "conv3_4"
  top: "conv3_4"
}
layer {
  name: "conv3_5"
  type: "Convolution"
  bottom: "conv3_4"
  top: "conv3_5"
  convolution_param {
    num_output: 256
    pad: 1
    kernel_size: 3
    stride: 1
    weight_filler {
      type: "msra"
    }
    bias_filler {
      type: "constant"
    }
    engine: CUDNN
  }
}
layer {
  name: "relu3_5"
  type: "ReLU"
  bottom: "conv3_5"
  top: "conv3_5"
}
layer {
  name: "conv3_6"
  type: "Convolution"
  bottom: "conv3_5"
  top: "conv3_6"
  convolution_param {
    num_output: 256
    pad: 1
    kernel_size: 3
    stride: 1
    weight_filler {
      type: "msra"
    }
    bias_filler {
      type: "constant"
    }
    engine: CUDNN
  }
}
layer {
  name: "relu3_6"
  type: "ReLU"
  bottom: "conv3_6"
  top: "conv3_6"
}
layer {
  name: "conv4_1"
  type: "Convolution"
  bottom: "conv3_6"
  top: "conv4_1"
  convolution_param {
    num_output: 512
    pad: 1
    kernel_size: 3
    stride: 1
    weight_filler {
      type: "msra"
    }
    bias_filler {
      type: "constant"
    }
    engine: CUDNN
  }
}
layer {
  name: "relu4_1"
  type: "ReLU"
  bottom: "conv4_1"
  top: "conv4_1"
}
layer {
  name: "conv4_2"
  type: "Convolution"
  bottom: "conv4_1"
  top: "conv4_2"
  convolution_param {
    num_output: 512
    pad: 1
    kernel_size: 3
    stride: 1
    weight_filler {
      type: "msra"
    }
    bias_filler {
      type: "constant"
    }
    engine: CUDNN
  }
}
layer {
  name: "relu4_2"
  type: "ReLU"
  bottom: "conv4_2"
  top: "conv4_2"
}
layer {
  name: "conv4_3"
  type: "Convolution"
  bottom: "conv4_2"
  top: "conv4_3"
  convolution_param {
    num_output: 512
    pad: 1
    kernel_size: 3
    stride: 1
    weight_filler {
      type: "msra"
    }
    bias_filler {
      type: "constant"
    }
    engine: CUDNN
  }
}
layer {
  name: "relu4_3"
  type: "ReLU"
  bottom: "conv4_3"
  top: "conv4_3"
}
layer {
  name: "tpp5"
  type: "TPP"
  bottom: "conv4_3"
  top: "tpp5"
  tpp_param {
    pyramid_layer: 1
    pyramid_layer: 2
    pyramid_layer: 3
    pyramid_layer: 4
    pyramid_layer: 5
    pool: MAX
    engine: CUDNN
  }
}
layer {
  name: "reshape"
  type: "Reshape"
  bottom: "tpp5"
  top: "reshape"
  reshape_param {
    shape {
      dim: 1
      dim: 960
      dim: 8
      dim: 1
    }
  }
}
layer {
  name: "premax"
  type: "Scale"
  bottom: "reshape"
  top: "premax"
  param {
    lr_mult: 0
    decay_mult: 0
  }
  scale_param {
    num_axes: 3
    filler {
      value: 1
    }
    bias_term: false
    bias_filler {
      value: 0
    }
  }
}
layer {
  name: "maxout"
  type: "Pooling"
  bottom: "premax"
  top: "maxout"
  pooling_param {
    pool: MAX
    global_pooling: true
  }
}
layer {
  name: "fc6"
  type: "InnerProduct"
  bottom: "maxout"
  top: "fc6"
  inner_product_param {
    num_output: 4096
    weight_filler {
      type: "msra"
    }
    bias_filler {
      type: "constant"
    }
  }
}
layer {
  name: "relu6"
  type: "ReLU"
  bottom: "fc6"
  top: "fc6"
}
layer {
  name: "fc7"
  type: "InnerProduct"
  bottom: "fc6"
  top: "fc7"
  inner_product_param {
    num_output: 4096
    weight_filler {
      type: "msra"
    }
    bias_filler {
      type: "constant"
    }
  }
}
layer {
  name: "relu7"
  type: "ReLU"
  bottom: "fc7"
  top: "fc7"
}
layer {
  name: "fc8"
  type: "InnerProduct"
  bottom: "fc7"
  top: "fc8"
  inner_product_param {
    num_output: 926
    weight_filler {
      type: "msra"
    }
    bias_filler {
      type: "constant"
    }
  }
}
layer {
  name: "sigmoid"
  type: "Sigmoid"
  bottom: "fc8"
  top: "sigmoid"
  include {
    phase: TEST
  }
}
layer {
  name: "silence"
  type: "Silence"
  bottom: "sigmoid"
  include {
    phase: TEST
  }
}
layer {
  name: "loss"
  type: "SigmoidCrossEntropyLoss"
  bottom: "fc8"
  bottom: "phocs"
  top: "loss"
}
I0218 05:35:46.368016 24863 layer_factory.hpp:77] Creating layer word_images
I0218 05:35:46.368139 24863 db_lmdb.cpp:35] Opened lmdb /data/fwolf/botany/botany_nti500000_pul2-3-4-5_test_word_images_lmdb
I0218 05:35:46.368166 24863 net.cpp:84] Creating Layer word_images
I0218 05:35:46.368177 24863 net.cpp:380] word_images -> word_images
I0218 05:35:46.368194 24863 net.cpp:380] word_images -> label
I0218 05:35:46.368947 24863 data_layer.cpp:44] output data size: 1,1,158,315
I0218 05:35:46.377574 24863 net.cpp:122] Setting up word_images
I0218 05:35:46.377604 24863 net.cpp:129] Top shape: 1 1 158 315 (49770)
I0218 05:35:46.377614 24863 net.cpp:129] Top shape: 1 (1)
I0218 05:35:46.377620 24863 net.cpp:137] Memory required for data: 199084
I0218 05:35:46.377629 24863 layer_factory.hpp:77] Creating layer phocs
I0218 05:35:46.377722 24863 db_lmdb.cpp:35] Opened lmdb /data/fwolf/botany/botany_nti500000_pul2-3-4-5_test_phocs_lmdb
I0218 05:35:46.377746 24863 net.cpp:84] Creating Layer phocs
I0218 05:35:46.377756 24863 net.cpp:380] phocs -> phocs
I0218 05:35:46.377773 24863 net.cpp:380] phocs -> label_phocs
I0218 05:35:46.378607 24863 data_layer.cpp:44] output data size: 1,1,1,926
I0218 05:35:46.383829 24863 net.cpp:122] Setting up phocs
I0218 05:35:46.383853 24863 net.cpp:129] Top shape: 1 1 1 926 (926)
I0218 05:35:46.383862 24863 net.cpp:129] Top shape: 1 (1)
I0218 05:35:46.383867 24863 net.cpp:137] Memory required for data: 202792
I0218 05:35:46.383874 24863 layer_factory.hpp:77] Creating layer conv1_1
I0218 05:35:46.383896 24863 net.cpp:84] Creating Layer conv1_1
I0218 05:35:46.383903 24863 net.cpp:406] conv1_1 <- word_images
I0218 05:35:46.383916 24863 net.cpp:380] conv1_1 -> conv1_1
I0218 05:35:46.387594 24863 net.cpp:122] Setting up conv1_1
I0218 05:35:46.387622 24863 net.cpp:129] Top shape: 1 64 158 315 (3185280)
I0218 05:35:46.387630 24863 net.cpp:137] Memory required for data: 12943912
I0218 05:35:46.387650 24863 layer_factory.hpp:77] Creating layer relu1_1
I0218 05:35:46.387662 24863 net.cpp:84] Creating Layer relu1_1
I0218 05:35:46.387670 24863 net.cpp:406] relu1_1 <- conv1_1
I0218 05:35:46.387681 24863 net.cpp:367] relu1_1 -> conv1_1 (in-place)
I0218 05:35:46.388159 24863 net.cpp:122] Setting up relu1_1
I0218 05:35:46.388178 24863 net.cpp:129] Top shape: 1 64 158 315 (3185280)
I0218 05:35:46.388185 24863 net.cpp:137] Memory required for data: 25685032
I0218 05:35:46.388192 24863 layer_factory.hpp:77] Creating layer conv1_2
I0218 05:35:46.388211 24863 net.cpp:84] Creating Layer conv1_2
I0218 05:35:46.388219 24863 net.cpp:406] conv1_2 <- conv1_1
I0218 05:35:46.388231 24863 net.cpp:380] conv1_2 -> conv1_2
I0218 05:35:46.393237 24863 net.cpp:122] Setting up conv1_2
I0218 05:35:46.393260 24863 net.cpp:129] Top shape: 1 64 158 315 (3185280)
I0218 05:35:46.393267 24863 net.cpp:137] Memory required for data: 38426152
I0218 05:35:46.393283 24863 layer_factory.hpp:77] Creating layer relu1_2
I0218 05:35:46.393296 24863 net.cpp:84] Creating Layer relu1_2
I0218 05:35:46.393303 24863 net.cpp:406] relu1_2 <- conv1_2
I0218 05:35:46.393312 24863 net.cpp:367] relu1_2 -> conv1_2 (in-place)
I0218 05:35:46.394150 24863 net.cpp:122] Setting up relu1_2
I0218 05:35:46.394172 24863 net.cpp:129] Top shape: 1 64 158 315 (3185280)
I0218 05:35:46.394179 24863 net.cpp:137] Memory required for data: 51167272
I0218 05:35:46.394186 24863 layer_factory.hpp:77] Creating layer pool1
I0218 05:35:46.394199 24863 net.cpp:84] Creating Layer pool1
I0218 05:35:46.394206 24863 net.cpp:406] pool1 <- conv1_2
I0218 05:35:46.394217 24863 net.cpp:380] pool1 -> pool1
I0218 05:35:46.394301 24863 net.cpp:122] Setting up pool1
I0218 05:35:46.394312 24863 net.cpp:129] Top shape: 1 64 79 158 (798848)
I0218 05:35:46.394317 24863 net.cpp:137] Memory required for data: 54362664
I0218 05:35:46.394323 24863 layer_factory.hpp:77] Creating layer conv2_1
I0218 05:35:46.394338 24863 net.cpp:84] Creating Layer conv2_1
I0218 05:35:46.394345 24863 net.cpp:406] conv2_1 <- pool1
I0218 05:35:46.394356 24863 net.cpp:380] conv2_1 -> conv2_1
I0218 05:35:46.402436 24863 net.cpp:122] Setting up conv2_1
I0218 05:35:46.402464 24863 net.cpp:129] Top shape: 1 128 79 158 (1597696)
I0218 05:35:46.402472 24863 net.cpp:137] Memory required for data: 60753448
I0218 05:35:46.402488 24863 layer_factory.hpp:77] Creating layer relu2_1
I0218 05:35:46.402503 24863 net.cpp:84] Creating Layer relu2_1
I0218 05:35:46.402509 24863 net.cpp:406] relu2_1 <- conv2_1
I0218 05:35:46.402520 24863 net.cpp:367] relu2_1 -> conv2_1 (in-place)
I0218 05:35:46.402889 24863 net.cpp:122] Setting up relu2_1
I0218 05:35:46.402905 24863 net.cpp:129] Top shape: 1 128 79 158 (1597696)
I0218 05:35:46.402911 24863 net.cpp:137] Memory required for data: 67144232
I0218 05:35:46.402917 24863 layer_factory.hpp:77] Creating layer conv2_2
I0218 05:35:46.402935 24863 net.cpp:84] Creating Layer conv2_2
I0218 05:35:46.402940 24863 net.cpp:406] conv2_2 <- conv2_1
I0218 05:35:46.402954 24863 net.cpp:380] conv2_2 -> conv2_2
I0218 05:35:46.413286 24863 net.cpp:122] Setting up conv2_2
I0218 05:35:46.413308 24863 net.cpp:129] Top shape: 1 128 79 158 (1597696)
I0218 05:35:46.413316 24863 net.cpp:137] Memory required for data: 73535016
I0218 05:35:46.413327 24863 layer_factory.hpp:77] Creating layer relu2_2
I0218 05:35:46.413339 24863 net.cpp:84] Creating Layer relu2_2
I0218 05:35:46.413345 24863 net.cpp:406] relu2_2 <- conv2_2
I0218 05:35:46.413354 24863 net.cpp:367] relu2_2 -> conv2_2 (in-place)
I0218 05:35:46.413697 24863 net.cpp:122] Setting up relu2_2
I0218 05:35:46.413712 24863 net.cpp:129] Top shape: 1 128 79 158 (1597696)
I0218 05:35:46.413717 24863 net.cpp:137] Memory required for data: 79925800
I0218 05:35:46.413723 24863 layer_factory.hpp:77] Creating layer pool2
I0218 05:35:46.413733 24863 net.cpp:84] Creating Layer pool2
I0218 05:35:46.413738 24863 net.cpp:406] pool2 <- conv2_2
I0218 05:35:46.413748 24863 net.cpp:380] pool2 -> pool2
I0218 05:35:46.413830 24863 net.cpp:122] Setting up pool2
I0218 05:35:46.413839 24863 net.cpp:129] Top shape: 1 128 40 79 (404480)
I0218 05:35:46.413844 24863 net.cpp:137] Memory required for data: 81543720
I0218 05:35:46.413849 24863 layer_factory.hpp:77] Creating layer conv3_1
I0218 05:35:46.413866 24863 net.cpp:84] Creating Layer conv3_1
I0218 05:35:46.413872 24863 net.cpp:406] conv3_1 <- pool2
I0218 05:35:46.413882 24863 net.cpp:380] conv3_1 -> conv3_1
I0218 05:35:46.430721 24863 net.cpp:122] Setting up conv3_1
I0218 05:35:46.430740 24863 net.cpp:129] Top shape: 1 256 40 79 (808960)
I0218 05:35:46.430747 24863 net.cpp:137] Memory required for data: 84779560
I0218 05:35:46.430763 24863 layer_factory.hpp:77] Creating layer relu3_1
I0218 05:35:46.430771 24863 net.cpp:84] Creating Layer relu3_1
I0218 05:35:46.430776 24863 net.cpp:406] relu3_1 <- conv3_1
I0218 05:35:46.430785 24863 net.cpp:367] relu3_1 -> conv3_1 (in-place)
I0218 05:35:46.431102 24863 net.cpp:122] Setting up relu3_1
I0218 05:35:46.431115 24863 net.cpp:129] Top shape: 1 256 40 79 (808960)
I0218 05:35:46.431120 24863 net.cpp:137] Memory required for data: 88015400
I0218 05:35:46.431125 24863 layer_factory.hpp:77] Creating layer conv3_2
I0218 05:35:46.431139 24863 net.cpp:84] Creating Layer conv3_2
I0218 05:35:46.431145 24863 net.cpp:406] conv3_2 <- conv3_1
I0218 05:35:46.431155 24863 net.cpp:380] conv3_2 -> conv3_2
I0218 05:35:46.460368 24863 net.cpp:122] Setting up conv3_2
I0218 05:35:46.460386 24863 net.cpp:129] Top shape: 1 256 40 79 (808960)
I0218 05:35:46.460391 24863 net.cpp:137] Memory required for data: 91251240
I0218 05:35:46.460402 24863 layer_factory.hpp:77] Creating layer relu3_2
I0218 05:35:46.460409 24863 net.cpp:84] Creating Layer relu3_2
I0218 05:35:46.460414 24863 net.cpp:406] relu3_2 <- conv3_2
I0218 05:35:46.460422 24863 net.cpp:367] relu3_2 -> conv3_2 (in-place)
I0218 05:35:46.461057 24863 net.cpp:122] Setting up relu3_2
I0218 05:35:46.461076 24863 net.cpp:129] Top shape: 1 256 40 79 (808960)
I0218 05:35:46.461081 24863 net.cpp:137] Memory required for data: 94487080
I0218 05:35:46.461086 24863 layer_factory.hpp:77] Creating layer conv3_3
I0218 05:35:46.461099 24863 net.cpp:84] Creating Layer conv3_3
I0218 05:35:46.461105 24863 net.cpp:406] conv3_3 <- conv3_2
I0218 05:35:46.461117 24863 net.cpp:380] conv3_3 -> conv3_3
I0218 05:35:46.487013 24863 net.cpp:122] Setting up conv3_3
I0218 05:35:46.487031 24863 net.cpp:129] Top shape: 1 256 40 79 (808960)
I0218 05:35:46.487036 24863 net.cpp:137] Memory required for data: 97722920
I0218 05:35:46.487046 24863 layer_factory.hpp:77] Creating layer relu3_3
I0218 05:35:46.487053 24863 net.cpp:84] Creating Layer relu3_3
I0218 05:35:46.487057 24863 net.cpp:406] relu3_3 <- conv3_3
I0218 05:35:46.487063 24863 net.cpp:367] relu3_3 -> conv3_3 (in-place)
I0218 05:35:46.487321 24863 net.cpp:122] Setting up relu3_3
I0218 05:35:46.487334 24863 net.cpp:129] Top shape: 1 256 40 79 (808960)
I0218 05:35:46.487337 24863 net.cpp:137] Memory required for data: 100958760
I0218 05:35:46.487341 24863 layer_factory.hpp:77] Creating layer conv3_4
I0218 05:35:46.487354 24863 net.cpp:84] Creating Layer conv3_4
I0218 05:35:46.487359 24863 net.cpp:406] conv3_4 <- conv3_3
I0218 05:35:46.487365 24863 net.cpp:380] conv3_4 -> conv3_4
I0218 05:35:46.511008 24863 net.cpp:122] Setting up conv3_4
I0218 05:35:46.511023 24863 net.cpp:129] Top shape: 1 256 40 79 (808960)
I0218 05:35:46.511027 24863 net.cpp:137] Memory required for data: 104194600
I0218 05:35:46.511035 24863 layer_factory.hpp:77] Creating layer relu3_4
I0218 05:35:46.511044 24863 net.cpp:84] Creating Layer relu3_4
I0218 05:35:46.511047 24863 net.cpp:406] relu3_4 <- conv3_4
I0218 05:35:46.511054 24863 net.cpp:367] relu3_4 -> conv3_4 (in-place)
I0218 05:35:46.511289 24863 net.cpp:122] Setting up relu3_4
I0218 05:35:46.511301 24863 net.cpp:129] Top shape: 1 256 40 79 (808960)
I0218 05:35:46.511306 24863 net.cpp:137] Memory required for data: 107430440
I0218 05:35:46.511309 24863 layer_factory.hpp:77] Creating layer conv3_5
I0218 05:35:46.511320 24863 net.cpp:84] Creating Layer conv3_5
I0218 05:35:46.511324 24863 net.cpp:406] conv3_5 <- conv3_4
I0218 05:35:46.511332 24863 net.cpp:380] conv3_5 -> conv3_5
I0218 05:35:46.533037 24863 net.cpp:122] Setting up conv3_5
I0218 05:35:46.533052 24863 net.cpp:129] Top shape: 1 256 40 79 (808960)
I0218 05:35:46.533056 24863 net.cpp:137] Memory required for data: 110666280
I0218 05:35:46.533067 24863 layer_factory.hpp:77] Creating layer relu3_5
I0218 05:35:46.533074 24863 net.cpp:84] Creating Layer relu3_5
I0218 05:35:46.533078 24863 net.cpp:406] relu3_5 <- conv3_5
I0218 05:35:46.533083 24863 net.cpp:367] relu3_5 -> conv3_5 (in-place)
I0218 05:35:46.533607 24863 net.cpp:122] Setting up relu3_5
I0218 05:35:46.533620 24863 net.cpp:129] Top shape: 1 256 40 79 (808960)
I0218 05:35:46.533624 24863 net.cpp:137] Memory required for data: 113902120
I0218 05:35:46.533628 24863 layer_factory.hpp:77] Creating layer conv3_6
I0218 05:35:46.533638 24863 net.cpp:84] Creating Layer conv3_6
I0218 05:35:46.533641 24863 net.cpp:406] conv3_6 <- conv3_5
I0218 05:35:46.533649 24863 net.cpp:380] conv3_6 -> conv3_6
I0218 05:35:46.554069 24863 net.cpp:122] Setting up conv3_6
I0218 05:35:46.554083 24863 net.cpp:129] Top shape: 1 256 40 79 (808960)
I0218 05:35:46.554086 24863 net.cpp:137] Memory required for data: 117137960
I0218 05:35:46.554093 24863 layer_factory.hpp:77] Creating layer relu3_6
I0218 05:35:46.554100 24863 net.cpp:84] Creating Layer relu3_6
I0218 05:35:46.554105 24863 net.cpp:406] relu3_6 <- conv3_6
I0218 05:35:46.554111 24863 net.cpp:367] relu3_6 -> conv3_6 (in-place)
I0218 05:35:46.554317 24863 net.cpp:122] Setting up relu3_6
I0218 05:35:46.554327 24863 net.cpp:129] Top shape: 1 256 40 79 (808960)
I0218 05:35:46.554329 24863 net.cpp:137] Memory required for data: 120373800
I0218 05:35:46.554332 24863 layer_factory.hpp:77] Creating layer conv4_1
I0218 05:35:46.554343 24863 net.cpp:84] Creating Layer conv4_1
I0218 05:35:46.554347 24863 net.cpp:406] conv4_1 <- conv3_6
I0218 05:35:46.554352 24863 net.cpp:380] conv4_1 -> conv4_1
I0218 05:35:46.590348 24863 net.cpp:122] Setting up conv4_1
I0218 05:35:46.590363 24863 net.cpp:129] Top shape: 1 512 40 79 (1617920)
I0218 05:35:46.590365 24863 net.cpp:137] Memory required for data: 126845480
I0218 05:35:46.590371 24863 layer_factory.hpp:77] Creating layer relu4_1
I0218 05:35:46.590380 24863 net.cpp:84] Creating Layer relu4_1
I0218 05:35:46.590384 24863 net.cpp:406] relu4_1 <- conv4_1
I0218 05:35:46.590390 24863 net.cpp:367] relu4_1 -> conv4_1 (in-place)
I0218 05:35:46.590576 24863 net.cpp:122] Setting up relu4_1
I0218 05:35:46.590585 24863 net.cpp:129] Top shape: 1 512 40 79 (1617920)
I0218 05:35:46.590589 24863 net.cpp:137] Memory required for data: 133317160
I0218 05:35:46.590591 24863 layer_factory.hpp:77] Creating layer conv4_2
I0218 05:35:46.590600 24863 net.cpp:84] Creating Layer conv4_2
I0218 05:35:46.590603 24863 net.cpp:406] conv4_2 <- conv4_1
I0218 05:35:46.590608 24863 net.cpp:380] conv4_2 -> conv4_2
I0218 05:35:46.652719 24863 net.cpp:122] Setting up conv4_2
I0218 05:35:46.652739 24863 net.cpp:129] Top shape: 1 512 40 79 (1617920)
I0218 05:35:46.652741 24863 net.cpp:137] Memory required for data: 139788840
I0218 05:35:46.652748 24863 layer_factory.hpp:77] Creating layer relu4_2
I0218 05:35:46.652755 24863 net.cpp:84] Creating Layer relu4_2
I0218 05:35:46.652758 24863 net.cpp:406] relu4_2 <- conv4_2
I0218 05:35:46.652763 24863 net.cpp:367] relu4_2 -> conv4_2 (in-place)
I0218 05:35:46.653206 24863 net.cpp:122] Setting up relu4_2
I0218 05:35:46.653218 24863 net.cpp:129] Top shape: 1 512 40 79 (1617920)
I0218 05:35:46.653220 24863 net.cpp:137] Memory required for data: 146260520
I0218 05:35:46.653223 24863 layer_factory.hpp:77] Creating layer conv4_3
I0218 05:35:46.653232 24863 net.cpp:84] Creating Layer conv4_3
I0218 05:35:46.653235 24863 net.cpp:406] conv4_3 <- conv4_2
I0218 05:35:46.653241 24863 net.cpp:380] conv4_3 -> conv4_3
I0218 05:35:46.713371 24863 net.cpp:122] Setting up conv4_3
I0218 05:35:46.713388 24863 net.cpp:129] Top shape: 1 512 40 79 (1617920)
I0218 05:35:46.713392 24863 net.cpp:137] Memory required for data: 152732200
I0218 05:35:46.713398 24863 layer_factory.hpp:77] Creating layer relu4_3
I0218 05:35:46.713407 24863 net.cpp:84] Creating Layer relu4_3
I0218 05:35:46.713410 24863 net.cpp:406] relu4_3 <- conv4_3
I0218 05:35:46.713415 24863 net.cpp:367] relu4_3 -> conv4_3 (in-place)
I0218 05:35:46.713587 24863 net.cpp:122] Setting up relu4_3
I0218 05:35:46.713595 24863 net.cpp:129] Top shape: 1 512 40 79 (1617920)
I0218 05:35:46.713598 24863 net.cpp:137] Memory required for data: 159203880
I0218 05:35:46.713600 24863 layer_factory.hpp:77] Creating layer tpp5
I0218 05:35:46.713608 24863 net.cpp:84] Creating Layer tpp5
I0218 05:35:46.713610 24863 net.cpp:406] tpp5 <- conv4_3
I0218 05:35:46.713614 24863 net.cpp:380] tpp5 -> tpp5
I0218 05:35:46.714032 24863 net.cpp:122] Setting up tpp5
I0218 05:35:46.714040 24863 net.cpp:129] Top shape: 1 7680 (7680)
I0218 05:35:46.714042 24863 net.cpp:137] Memory required for data: 159234600
I0218 05:35:46.714046 24863 layer_factory.hpp:77] Creating layer reshape
I0218 05:35:46.714051 24863 net.cpp:84] Creating Layer reshape
I0218 05:35:46.714054 24863 net.cpp:406] reshape <- tpp5
I0218 05:35:46.714058 24863 net.cpp:380] reshape -> reshape
I0218 05:35:46.714084 24863 net.cpp:122] Setting up reshape
I0218 05:35:46.714088 24863 net.cpp:129] Top shape: 1 960 8 1 (7680)
I0218 05:35:46.714090 24863 net.cpp:137] Memory required for data: 159265320
I0218 05:35:46.714093 24863 layer_factory.hpp:77] Creating layer premax
I0218 05:35:46.714102 24863 net.cpp:84] Creating Layer premax
I0218 05:35:46.714104 24863 net.cpp:406] premax <- reshape
I0218 05:35:46.714109 24863 net.cpp:380] premax -> premax
I0218 05:35:46.714215 24863 net.cpp:122] Setting up premax
I0218 05:35:46.714222 24863 net.cpp:129] Top shape: 1 960 8 1 (7680)
I0218 05:35:46.714224 24863 net.cpp:137] Memory required for data: 159296040
I0218 05:35:46.714228 24863 layer_factory.hpp:77] Creating layer maxout
I0218 05:35:46.714233 24863 net.cpp:84] Creating Layer maxout
I0218 05:35:46.714236 24863 net.cpp:406] maxout <- premax
I0218 05:35:46.714241 24863 net.cpp:380] maxout -> maxout
I0218 05:35:46.714275 24863 net.cpp:122] Setting up maxout
I0218 05:35:46.714280 24863 net.cpp:129] Top shape: 1 960 1 1 (960)
I0218 05:35:46.714282 24863 net.cpp:137] Memory required for data: 159299880
I0218 05:35:46.714288 24863 layer_factory.hpp:77] Creating layer fc6
I0218 05:35:46.714295 24863 net.cpp:84] Creating Layer fc6
I0218 05:35:46.714298 24863 net.cpp:406] fc6 <- maxout
I0218 05:35:46.714301 24863 net.cpp:380] fc6 -> fc6
I0218 05:35:46.815979 24863 net.cpp:122] Setting up fc6
I0218 05:35:46.816004 24863 net.cpp:129] Top shape: 1 4096 (4096)
I0218 05:35:46.816007 24863 net.cpp:137] Memory required for data: 159316264
I0218 05:35:46.816015 24863 layer_factory.hpp:77] Creating layer relu6
I0218 05:35:46.816025 24863 net.cpp:84] Creating Layer relu6
I0218 05:35:46.816030 24863 net.cpp:406] relu6 <- fc6
I0218 05:35:46.816035 24863 net.cpp:367] relu6 -> fc6 (in-place)
I0218 05:35:46.816265 24863 net.cpp:122] Setting up relu6
I0218 05:35:46.816273 24863 net.cpp:129] Top shape: 1 4096 (4096)
I0218 05:35:46.816277 24863 net.cpp:137] Memory required for data: 159332648
I0218 05:35:46.816279 24863 layer_factory.hpp:77] Creating layer fc7
I0218 05:35:46.816287 24863 net.cpp:84] Creating Layer fc7
I0218 05:35:46.816289 24863 net.cpp:406] fc7 <- fc6
I0218 05:35:46.816294 24863 net.cpp:380] fc7 -> fc7
I0218 05:35:47.249359 24863 net.cpp:122] Setting up fc7
I0218 05:35:47.249387 24863 net.cpp:129] Top shape: 1 4096 (4096)
I0218 05:35:47.249389 24863 net.cpp:137] Memory required for data: 159349032
I0218 05:35:47.249398 24863 layer_factory.hpp:77] Creating layer relu7
I0218 05:35:47.249408 24863 net.cpp:84] Creating Layer relu7
I0218 05:35:47.249413 24863 net.cpp:406] relu7 <- fc7
I0218 05:35:47.249418 24863 net.cpp:367] relu7 -> fc7 (in-place)
I0218 05:35:47.249656 24863 net.cpp:122] Setting up relu7
I0218 05:35:47.249665 24863 net.cpp:129] Top shape: 1 4096 (4096)
I0218 05:35:47.249667 24863 net.cpp:137] Memory required for data: 159365416
I0218 05:35:47.249670 24863 layer_factory.hpp:77] Creating layer fc8
I0218 05:35:47.249676 24863 net.cpp:84] Creating Layer fc8
I0218 05:35:47.249678 24863 net.cpp:406] fc8 <- fc7
I0218 05:35:47.249691 24863 net.cpp:380] fc8 -> fc8
I0218 05:35:47.347622 24863 net.cpp:122] Setting up fc8
I0218 05:35:47.347645 24863 net.cpp:129] Top shape: 1 926 (926)
I0218 05:35:47.347648 24863 net.cpp:137] Memory required for data: 159369120
I0218 05:35:47.347661 24863 layer_factory.hpp:77] Creating layer fc8_fc8_0_split
I0218 05:35:47.347669 24863 net.cpp:84] Creating Layer fc8_fc8_0_split
I0218 05:35:47.347673 24863 net.cpp:406] fc8_fc8_0_split <- fc8
I0218 05:35:47.347681 24863 net.cpp:380] fc8_fc8_0_split -> fc8_fc8_0_split_0
I0218 05:35:47.347687 24863 net.cpp:380] fc8_fc8_0_split -> fc8_fc8_0_split_1
I0218 05:35:47.347724 24863 net.cpp:122] Setting up fc8_fc8_0_split
I0218 05:35:47.347729 24863 net.cpp:129] Top shape: 1 926 (926)
I0218 05:35:47.347733 24863 net.cpp:129] Top shape: 1 926 (926)
I0218 05:35:47.347734 24863 net.cpp:137] Memory required for data: 159376528
I0218 05:35:47.347738 24863 layer_factory.hpp:77] Creating layer sigmoid
I0218 05:35:47.347745 24863 net.cpp:84] Creating Layer sigmoid
I0218 05:35:47.347748 24863 net.cpp:406] sigmoid <- fc8_fc8_0_split_0
I0218 05:35:47.347753 24863 net.cpp:380] sigmoid -> sigmoid
I0218 05:35:47.348373 24863 net.cpp:122] Setting up sigmoid
I0218 05:35:47.348384 24863 net.cpp:129] Top shape: 1 926 (926)
I0218 05:35:47.348387 24863 net.cpp:137] Memory required for data: 159380232
I0218 05:35:47.348390 24863 layer_factory.hpp:77] Creating layer silence
I0218 05:35:47.348395 24863 net.cpp:84] Creating Layer silence
I0218 05:35:47.348398 24863 net.cpp:406] silence <- sigmoid
I0218 05:35:47.348402 24863 net.cpp:122] Setting up silence
I0218 05:35:47.348404 24863 net.cpp:137] Memory required for data: 159380232
…
