…
state {
  phase: TRAIN
}
layer {
  name: "word_images"
  type: "Data"
  top: "word_images"
  top: "label"
  transform_param {
    scale: -0.0039215689
    mean_value: 255
  }
  data_param {
    source: "/data/fwolf/botany/botany_nti500000_pul2-3-4-5_train_word_images_lmdb"
    batch_size: 1
    backend: LMDB
    prefetch: 20
  }
}
layer {
  name: "phocs"
  type: "Data"
  top: "phocs"
  top: "label_phocs"
  data_param {
    source: "/data/fwolf/botany/botany_nti500000_pul2-3-4-5_train_phocs_lmdb"
    batch_size: 1
    backend: LMDB
    prefetch: 20
  }
}
layer {
  name: "conv1_1"
  type: "Convolution"
  bottom: "word_images"
  top: "conv1_1"
  convolution_param {
    num_output: 64
    pad: 1
    kernel_size: 3
    stride: 1
    weight_filler {
      type: "msra"
    }
    bias_filler {
      type: "constant"
    }
    engine: CUDNN
  }
}
layer {
  name: "relu1_1"
  type: "ReLU"
  bottom: "conv1_1"
  top: "conv1_1"
}
layer {
  name: "conv1_2"
  type: "Convolution"
  bottom: "conv1_1"
  top: "conv1_2"
  convolution_param {
    num_output: 64
    pad: 1
    kernel_size: 3
    stride: 1
    weight_filler {
      type: "msra"
    }
    bias_filler {
      type: "constant"
    }
    engine: CUDNN
  }
}
layer {
  name: "relu1_2"
  type: "ReLU"
  bottom: "conv1_2"
  top: "conv1_2"
}
layer {
  name: "pool1"
  type: "Pooling"
  bottom: "conv1_2"
  top: "pool1"
  pooling_param {
    pool: MAX
    kernel_size: 2
    stride: 2
  }
}
layer {
  name: "conv2_1"
  type: "Convolution"
  bottom: "pool1"
  top: "conv2_1"
  convolution_param {
    num_output: 128
    pad: 1
    kernel_size: 3
    stride: 1
    weight_filler {
      type: "msra"
    }
    bias_filler {
      type: "constant"
    }
    engine: CUDNN
  }
}
layer {
  name: "relu2_1"
  type: "ReLU"
  bottom: "conv2_1"
  top: "conv2_1"
}
layer {
  name: "conv2_2"
  type: "Convolution"
  bottom: "conv2_1"
  top: "conv2_2"
  convolution_param {
    num_output: 128
    pad: 1
    kernel_size: 3
    stride: 1
    weight_filler {
      type: "msra"
    }
    bias_filler {
      type: "constant"
    }
    engine: CUDNN
  }
}
layer {
  name: "relu2_2"
  type: "ReLU"
  bottom: "conv2_2"
  top: "conv2_2"
}
layer {
  name: "pool2"
  type: "Pooling"
  bottom: "conv2_2"
  top: "pool2"
  pooling_param {
    pool: MAX
    kernel_size: 2
    stride: 2
  }
}
layer {
  name: "conv3_1"
  type: "Convolution"
  bottom: "pool2"
  top: "conv3_1"
  convolution_param {
    num_output: 256
    pad: 1
    kernel_size: 3
    stride: 1
    weight_filler {
      type: "msra"
    }
    bias_filler {
      type: "constant"
    }
    engine: CUDNN
  }
}
layer {
  name: "relu3_1"
  type: "ReLU"
  bottom: "conv3_1"
  top: "conv3_1"
}
layer {
  name: "conv3_2"
  type: "Convolution"
  bottom: "conv3_1"
  top: "conv3_2"
  convolution_param {
    num_output: 256
    pad: 1
    kernel_size: 3
    stride: 1
    weight_filler {
      type: "msra"
    }
    bias_filler {
      type: "constant"
    }
    engine: CUDNN
  }
}
layer {
  name: "relu3_2"
  type: "ReLU"
  bottom: "conv3_2"
  top: "conv3_2"
}
layer {
  name: "conv3_3"
  type: "Convolution"
  bottom: "conv3_2"
  top: "conv3_3"
  convolution_param {
    num_output: 256
    pad: 1
    kernel_size: 3
    stride: 1
    weight_filler {
      type: "msra"
    }
    bias_filler {
      type: "constant"
    }
    engine: CUDNN
  }
}
layer {
  name: "relu3_3"
  type: "ReLU"
  bottom: "conv3_3"
  top: "conv3_3"
}
layer {
  name: "conv3_4"
  type: "Convolution"
  bottom: "conv3_3"
  top: "conv3_4"
  convolution_param {
    num_output: 256
    pad: 1
    kernel_size: 3
    stride: 1
    weight_filler {
      type: "msra"
    }
    bias_filler {
      type: "constant"
    }
    engine: CUDNN
  }
}
layer {
  name: "relu3_4"
  type: "ReLU"
  bottom: "conv3_4"
  top: "conv3_4"
}
layer {
  name: "conv3_5"
  type: "Convolution"
  bottom: "conv3_4"
  top: "conv3_5"
  convolution_param {
    num_output: 256
    pad: 1
    kernel_size: 3
    stride: 1
    weight_filler {
      type: "msra"
    }
    bias_filler {
      type: "constant"
    }
    engine: CUDNN
  }
}
layer {
  name: "relu3_5"
  type: "ReLU"
  bottom: "conv3_5"
  top: "conv3_5"
}
layer {
  name: "conv3_6"
  type: "Convolution"
  bottom: "conv3_5"
  top: "conv3_6"
  convolution_param {
    num_output: 256
    pad: 1
    kernel_size: 3
    stride: 1
    weight_filler {
      type: "msra"
    }
    bias_filler {
      type: "constant"
    }
    engine: CUDNN
  }
}
layer {
  name: "relu3_6"
  type: "ReLU"
  bottom: "conv3_6"
  top: "conv3_6"
}
layer {
  name: "conv4_1"
  type: "Convolution"
  bottom: "conv3_6"
  top: "conv4_1"
  convolution_param {
    num_output: 512
    pad: 1
    kernel_size: 3
    stride: 1
    weight_filler {
      type: "msra"
    }
    bias_filler {
      type: "constant"
    }
    engine: CUDNN
  }
}
layer {
  name: "relu4_1"
  type: "ReLU"
  bottom: "conv4_1"
  top: "conv4_1"
}
layer {
  name: "conv4_2"
  type: "Convolution"
  bottom: "conv4_1"
  top: "conv4_2"
  convolution_param {
    num_output: 512
    pad: 1
    kernel_size: 3
    stride: 1
    weight_filler {
      type: "msra"
    }
    bias_filler {
      type: "constant"
    }
    engine: CUDNN
  }
}
layer {
  name: "relu4_2"
  type: "ReLU"
  bottom: "conv4_2"
  top: "conv4_2"
}
layer {
  name: "conv4_3"
  type: "Convolution"
  bottom: "conv4_2"
  top: "conv4_3"
  convolution_param {
    num_output: 512
    pad: 1
    kernel_size: 3
    stride: 1
    weight_filler {
      type: "msra"
    }
    bias_filler {
      type: "constant"
    }
    engine: CUDNN
  }
}
layer {
  name: "relu4_3"
  type: "ReLU"
  bottom: "conv4_3"
  top: "conv4_3"
}
layer {
  name: "tpp5"
  type: "TPP"
  bottom: "conv4_3"
  top: "tpp5"
  tpp_param {
    pyramid_layer: 1
    pyramid_layer: 2
    pyramid_layer: 3
    pyramid_layer: 4
    pyramid_layer: 5
    pool: MAX
    engine: CUDNN
  }
}
layer {
  name: "reshape"
  type: "Reshape"
  bottom: "tpp5"
  top: "reshape"
  reshape_param {
    shape {
      dim: 1
      dim: 3840
      dim: 2
      dim: 1
    }
  }
}
layer {
  name: "premax"
  type: "Scale"
  bottom: "reshape"
  top: "premax"
  param {
    lr_mult: 0
    decay_mult: 0
  }
  scale_param {
    num_axes: 3
    filler {
      value: 1
    }
    bias_term: false
    bias_filler {
      value: 0
    }
  }
}
layer {
  name: "maxout"
  type: "Pooling"
  bottom: "premax"
  top: "maxout"
  pooling_param {
    pool: MAX
    global_pooling: true
  }
}
layer {
  name: "fc6"
  type: "InnerProduct"
  bottom: "maxout"
  top: "fc6"
  inner_product_param {
    num_output: 4096
    weight_filler {
      type: "msra"
    }
    bias_filler {
      type: "constant"
    }
  }
}
layer {
  name: "relu6"
  type: "ReLU"
  bottom: "fc6"
  top: "fc6"
}
layer {
  name: "drop6"
  type: "Dropout"
  bottom: "fc6"
  top: "fc6"
  include {
    phase: TRAIN
  }
  dropout_param {
    dropout_ratio: 0.5
  }
}
layer {
  name: "fc7"
  type: "InnerProduct"
  bottom: "fc6"
  top: "fc7"
  inner_product_param {
    num_output: 4096
    weight_filler {
      type: "msra"
    }
    bias_filler {
      type: "constant"
    }
  }
}
layer {
  name: "relu7"
  type: "ReLU"
  bottom: "fc7"
  top: "fc7"
}
layer {
  name: "drop7"
  type: "Dropout"
  bottom: "fc7"
  top: "fc7"
  include {
    phase: TRAIN
  }
  dropout_param {
    dropout_ratio: 0.5
  }
}
layer {
  name: "fc8"
  type: "InnerProduct"
  bottom: "fc7"
  top: "fc8"
  inner_product_param {
    num_output: 926
    weight_filler {
      type: "msra"
    }
    bias_filler {
      type: "constant"
    }
  }
}
layer {
  name: "loss"
  type: "SigmoidCrossEntropyLoss"
  bottom: "fc8"
  bottom: "phocs"
  top: "loss"
}
I0215 13:10:56.274907 25021 layer_factory.hpp:77] Creating layer word_images
I0215 13:10:56.274997 25021 db_lmdb.cpp:35] Opened lmdb /data/fwolf/botany/botany_nti500000_pul2-3-4-5_train_word_images_lmdb
I0215 13:10:56.275035 25021 net.cpp:84] Creating Layer word_images
I0215 13:10:56.275043 25021 net.cpp:380] word_images -> word_images
I0215 13:10:56.275056 25021 net.cpp:380] word_images -> label
I0215 13:10:56.321421 25021 data_layer.cpp:44] output data size: 1,1,123,405
I0215 13:10:56.368907 25021 net.cpp:122] Setting up word_images
I0215 13:10:56.368939 25021 net.cpp:129] Top shape: 1 1 123 405 (49815)
I0215 13:10:56.368947 25021 net.cpp:129] Top shape: 1 (1)
I0215 13:10:56.368952 25021 net.cpp:137] Memory required for data: 199264
I0215 13:10:56.368959 25021 layer_factory.hpp:77] Creating layer phocs
I0215 13:10:56.369024 25021 db_lmdb.cpp:35] Opened lmdb /data/fwolf/botany/botany_nti500000_pul2-3-4-5_train_phocs_lmdb
I0215 13:10:56.369062 25021 net.cpp:84] Creating Layer phocs
I0215 13:10:56.369069 25021 net.cpp:380] phocs -> phocs
I0215 13:10:56.369082 25021 net.cpp:380] phocs -> label_phocs
I0215 13:10:56.369329 25021 data_layer.cpp:44] output data size: 1,1,1,926
I0215 13:10:56.371860 25021 net.cpp:122] Setting up phocs
I0215 13:10:56.371876 25021 net.cpp:129] Top shape: 1 1 1 926 (926)
I0215 13:10:56.371882 25021 net.cpp:129] Top shape: 1 (1)
I0215 13:10:56.371886 25021 net.cpp:137] Memory required for data: 202972
I0215 13:10:56.371891 25021 layer_factory.hpp:77] Creating layer conv1_1
I0215 13:10:56.371906 25021 net.cpp:84] Creating Layer conv1_1
I0215 13:10:56.371911 25021 net.cpp:406] conv1_1 <- word_images
I0215 13:10:56.371918 25021 net.cpp:380] conv1_1 -> conv1_1
I0215 13:11:03.420126 25021 net.cpp:122] Setting up conv1_1
I0215 13:11:03.420164 25021 net.cpp:129] Top shape: 1 64 123 405 (3188160)
I0215 13:11:03.420169 25021 net.cpp:137] Memory required for data: 12955612
I0215 13:11:03.420188 25021 layer_factory.hpp:77] Creating layer relu1_1
I0215 13:11:03.420202 25021 net.cpp:84] Creating Layer relu1_1
I0215 13:11:03.420207 25021 net.cpp:406] relu1_1 <- conv1_1
I0215 13:11:03.420215 25021 net.cpp:367] relu1_1 -> conv1_1 (in-place)
I0215 13:11:03.420846 25021 net.cpp:122] Setting up relu1_1
I0215 13:11:03.420862 25021 net.cpp:129] Top shape: 1 64 123 405 (3188160)
I0215 13:11:03.420867 25021 net.cpp:137] Memory required for data: 25708252
I0215 13:11:03.420872 25021 layer_factory.hpp:77] Creating layer conv1_2
I0215 13:11:03.420889 25021 net.cpp:84] Creating Layer conv1_2
I0215 13:11:03.420894 25021 net.cpp:406] conv1_2 <- conv1_1
I0215 13:11:03.420902 25021 net.cpp:380] conv1_2 -> conv1_2
I0215 13:11:03.555110 25021 net.cpp:122] Setting up conv1_2
I0215 13:11:03.555152 25021 net.cpp:129] Top shape: 1 64 123 405 (3188160)
I0215 13:11:03.555158 25021 net.cpp:137] Memory required for data: 38460892
I0215 13:11:03.555176 25021 layer_factory.hpp:77] Creating layer relu1_2
I0215 13:11:03.555189 25021 net.cpp:84] Creating Layer relu1_2
I0215 13:11:03.555204 25021 net.cpp:406] relu1_2 <- conv1_2
I0215 13:11:03.555213 25021 net.cpp:367] relu1_2 -> conv1_2 (in-place)
I0215 13:11:03.555495 25021 net.cpp:122] Setting up relu1_2
I0215 13:11:03.555505 25021 net.cpp:129] Top shape: 1 64 123 405 (3188160)
I0215 13:11:03.555510 25021 net.cpp:137] Memory required for data: 51213532
I0215 13:11:03.555514 25021 layer_factory.hpp:77] Creating layer pool1
I0215 13:11:03.555523 25021 net.cpp:84] Creating Layer pool1
I0215 13:11:03.555528 25021 net.cpp:406] pool1 <- conv1_2
I0215 13:11:03.555534 25021 net.cpp:380] pool1 -> pool1
I0215 13:11:03.555599 25021 net.cpp:122] Setting up pool1
I0215 13:11:03.555606 25021 net.cpp:129] Top shape: 1 64 62 203 (805504)
I0215 13:11:03.555610 25021 net.cpp:137] Memory required for data: 54435548
I0215 13:11:03.555614 25021 layer_factory.hpp:77] Creating layer conv2_1
I0215 13:11:03.555627 25021 net.cpp:84] Creating Layer conv2_1
I0215 13:11:03.555632 25021 net.cpp:406] conv2_1 <- pool1
I0215 13:11:03.555639 25021 net.cpp:380] conv2_1 -> conv2_1
I0215 13:11:03.817498 25021 net.cpp:122] Setting up conv2_1
I0215 13:11:03.817531 25021 net.cpp:129] Top shape: 1 128 62 203 (1611008)
I0215 13:11:03.817536 25021 net.cpp:137] Memory required for data: 60879580
I0215 13:11:03.817553 25021 layer_factory.hpp:77] Creating layer relu2_1
I0215 13:11:03.817567 25021 net.cpp:84] Creating Layer relu2_1
I0215 13:11:03.817574 25021 net.cpp:406] relu2_1 <- conv2_1
I0215 13:11:03.817581 25021 net.cpp:367] relu2_1 -> conv2_1 (in-place)
I0215 13:11:03.817827 25021 net.cpp:122] Setting up relu2_1
I0215 13:11:03.817838 25021 net.cpp:129] Top shape: 1 128 62 203 (1611008)
I0215 13:11:03.817842 25021 net.cpp:137] Memory required for data: 67323612
I0215 13:11:03.817847 25021 layer_factory.hpp:77] Creating layer conv2_2
I0215 13:11:03.817862 25021 net.cpp:84] Creating Layer conv2_2
I0215 13:11:03.817865 25021 net.cpp:406] conv2_2 <- conv2_1
I0215 13:11:03.817873 25021 net.cpp:380] conv2_2 -> conv2_2
I0215 13:11:04.132182 25021 net.cpp:122] Setting up conv2_2
I0215 13:11:04.132221 25021 net.cpp:129] Top shape: 1 128 62 203 (1611008)
I0215 13:11:04.132228 25021 net.cpp:137] Memory required for data: 73767644
I0215 13:11:04.132242 25021 layer_factory.hpp:77] Creating layer relu2_2
I0215 13:11:04.132254 25021 net.cpp:84] Creating Layer relu2_2
I0215 13:11:04.132261 25021 net.cpp:406] relu2_2 <- conv2_2
I0215 13:11:04.132272 25021 net.cpp:367] relu2_2 -> conv2_2 (in-place)
I0215 13:11:04.132968 25021 net.cpp:122] Setting up relu2_2
I0215 13:11:04.133002 25021 net.cpp:129] Top shape: 1 128 62 203 (1611008)
I0215 13:11:04.133008 25021 net.cpp:137] Memory required for data: 80211676
I0215 13:11:04.133015 25021 layer_factory.hpp:77] Creating layer pool2
I0215 13:11:04.133029 25021 net.cpp:84] Creating Layer pool2
I0215 13:11:04.133034 25021 net.cpp:406] pool2 <- conv2_2
I0215 13:11:04.133044 25021 net.cpp:380] pool2 -> pool2
I0215 13:11:04.150602 25021 net.cpp:122] Setting up pool2
I0215 13:11:04.150640 25021 net.cpp:129] Top shape: 1 128 31 102 (404736)
I0215 13:11:04.150646 25021 net.cpp:137] Memory required for data: 81830620
I0215 13:11:04.150651 25021 layer_factory.hpp:77] Creating layer conv3_1
I0215 13:11:04.150671 25021 net.cpp:84] Creating Layer conv3_1
I0215 13:11:04.150676 25021 net.cpp:406] conv3_1 <- pool2
I0215 13:11:04.150686 25021 net.cpp:380] conv3_1 -> conv3_1
I0215 13:11:04.566483 25021 net.cpp:122] Setting up conv3_1
I0215 13:11:04.566517 25021 net.cpp:129] Top shape: 1 256 31 102 (809472)
I0215 13:11:04.566522 25021 net.cpp:137] Memory required for data: 85068508
I0215 13:11:04.566540 25021 layer_factory.hpp:77] Creating layer relu3_1
I0215 13:11:04.566552 25021 net.cpp:84] Creating Layer relu3_1
I0215 13:11:04.566558 25021 net.cpp:406] relu3_1 <- conv3_1
I0215 13:11:04.566566 25021 net.cpp:367] relu3_1 -> conv3_1 (in-place)
I0215 13:11:04.566804 25021 net.cpp:122] Setting up relu3_1
I0215 13:11:04.566815 25021 net.cpp:129] Top shape: 1 256 31 102 (809472)
I0215 13:11:04.566819 25021 net.cpp:137] Memory required for data: 88306396
I0215 13:11:04.566828 25021 layer_factory.hpp:77] Creating layer conv3_2
I0215 13:11:04.566841 25021 net.cpp:84] Creating Layer conv3_2
I0215 13:11:04.566845 25021 net.cpp:406] conv3_2 <- conv3_1
I0215 13:11:04.566854 25021 net.cpp:380] conv3_2 -> conv3_2
I0215 13:11:04.728754 25021 net.cpp:122] Setting up conv3_2
I0215 13:11:04.728790 25021 net.cpp:129] Top shape: 1 256 31 102 (809472)
I0215 13:11:04.728796 25021 net.cpp:137] Memory required for data: 91544284
I0215 13:11:04.728809 25021 layer_factory.hpp:77] Creating layer relu3_2
I0215 13:11:04.728822 25021 net.cpp:84] Creating Layer relu3_2
I0215 13:11:04.728828 25021 net.cpp:406] relu3_2 <- conv3_2
I0215 13:11:04.728837 25021 net.cpp:367] relu3_2 -> conv3_2 (in-place)
I0215 13:11:04.729050 25021 net.cpp:122] Setting up relu3_2
I0215 13:11:04.729063 25021 net.cpp:129] Top shape: 1 256 31 102 (809472)
I0215 13:11:04.729068 25021 net.cpp:137] Memory required for data: 94782172
I0215 13:11:04.729071 25021 layer_factory.hpp:77] Creating layer conv3_3
I0215 13:11:04.729089 25021 net.cpp:84] Creating Layer conv3_3
I0215 13:11:04.729094 25021 net.cpp:406] conv3_3 <- conv3_2
I0215 13:11:04.729100 25021 net.cpp:380] conv3_3 -> conv3_3
I0215 13:11:04.957068 25021 net.cpp:122] Setting up conv3_3
I0215 13:11:04.957105 25021 net.cpp:129] Top shape: 1 256 31 102 (809472)
I0215 13:11:04.957110 25021 net.cpp:137] Memory required for data: 98020060
I0215 13:11:04.957123 25021 layer_factory.hpp:77] Creating layer relu3_3
I0215 13:11:04.957136 25021 net.cpp:84] Creating Layer relu3_3
I0215 13:11:04.957144 25021 net.cpp:406] relu3_3 <- conv3_3
I0215 13:11:04.957152 25021 net.cpp:367] relu3_3 -> conv3_3 (in-place)
I0215 13:11:04.957710 25021 net.cpp:122] Setting up relu3_3
I0215 13:11:04.957725 25021 net.cpp:129] Top shape: 1 256 31 102 (809472)
I0215 13:11:04.957729 25021 net.cpp:137] Memory required for data: 101257948
I0215 13:11:04.957734 25021 layer_factory.hpp:77] Creating layer conv3_4
I0215 13:11:04.957749 25021 net.cpp:84] Creating Layer conv3_4
I0215 13:11:04.957754 25021 net.cpp:406] conv3_4 <- conv3_3
I0215 13:11:04.957762 25021 net.cpp:380] conv3_4 -> conv3_4
I0215 13:11:04.981812 25021 net.cpp:122] Setting up conv3_4
I0215 13:11:04.981847 25021 net.cpp:129] Top shape: 1 256 31 102 (809472)
I0215 13:11:04.981851 25021 net.cpp:137] Memory required for data: 104495836
I0215 13:11:04.981863 25021 layer_factory.hpp:77] Creating layer relu3_4
I0215 13:11:04.981876 25021 net.cpp:84] Creating Layer relu3_4
I0215 13:11:04.981883 25021 net.cpp:406] relu3_4 <- conv3_4
I0215 13:11:04.981890 25021 net.cpp:367] relu3_4 -> conv3_4 (in-place)
I0215 13:11:04.982103 25021 net.cpp:122] Setting up relu3_4
I0215 13:11:04.982113 25021 net.cpp:129] Top shape: 1 256 31 102 (809472)
I0215 13:11:04.982118 25021 net.cpp:137] Memory required for data: 107733724
I0215 13:11:04.982122 25021 layer_factory.hpp:77] Creating layer conv3_5
I0215 13:11:04.982136 25021 net.cpp:84] Creating Layer conv3_5
I0215 13:11:04.982141 25021 net.cpp:406] conv3_5 <- conv3_4
I0215 13:11:04.982147 25021 net.cpp:380] conv3_5 -> conv3_5
I0215 13:11:05.165835 25021 net.cpp:122] Setting up conv3_5
I0215 13:11:05.165868 25021 net.cpp:129] Top shape: 1 256 31 102 (809472)
I0215 13:11:05.165872 25021 net.cpp:137] Memory required for data: 110971612
I0215 13:11:05.165887 25021 layer_factory.hpp:77] Creating layer relu3_5
I0215 13:11:05.165899 25021 net.cpp:84] Creating Layer relu3_5
I0215 13:11:05.165905 25021 net.cpp:406] relu3_5 <- conv3_5
I0215 13:11:05.165912 25021 net.cpp:367] relu3_5 -> conv3_5 (in-place)
I0215 13:11:05.166129 25021 net.cpp:122] Setting up relu3_5
I0215 13:11:05.166139 25021 net.cpp:129] Top shape: 1 256 31 102 (809472)
I0215 13:11:05.166144 25021 net.cpp:137] Memory required for data: 114209500
I0215 13:11:05.166149 25021 layer_factory.hpp:77] Creating layer conv3_6
I0215 13:11:05.166162 25021 net.cpp:84] Creating Layer conv3_6
I0215 13:11:05.166167 25021 net.cpp:406] conv3_6 <- conv3_5
I0215 13:11:05.166173 25021 net.cpp:380] conv3_6 -> conv3_6
I0215 13:11:05.600759 25021 net.cpp:122] Setting up conv3_6
I0215 13:11:05.600797 25021 net.cpp:129] Top shape: 1 256 31 102 (809472)
I0215 13:11:05.600803 25021 net.cpp:137] Memory required for data: 117447388
I0215 13:11:05.600816 25021 layer_factory.hpp:77] Creating layer relu3_6
I0215 13:11:05.600826 25021 net.cpp:84] Creating Layer relu3_6
I0215 13:11:05.600832 25021 net.cpp:406] relu3_6 <- conv3_6
I0215 13:11:05.600841 25021 net.cpp:367] relu3_6 -> conv3_6 (in-place)
I0215 13:11:05.601054 25021 net.cpp:122] Setting up relu3_6
I0215 13:11:05.601065 25021 net.cpp:129] Top shape: 1 256 31 102 (809472)
I0215 13:11:05.601069 25021 net.cpp:137] Memory required for data: 120685276
I0215 13:11:05.601073 25021 layer_factory.hpp:77] Creating layer conv4_1
I0215 13:11:05.601086 25021 net.cpp:84] Creating Layer conv4_1
I0215 13:11:05.601091 25021 net.cpp:406] conv4_1 <- conv3_6
I0215 13:11:05.601099 25021 net.cpp:380] conv4_1 -> conv4_1
I0215 13:11:05.727038 25021 net.cpp:122] Setting up conv4_1
I0215 13:11:05.727072 25021 net.cpp:129] Top shape: 1 512 31 102 (1618944)
I0215 13:11:05.727077 25021 net.cpp:137] Memory required for data: 127161052
I0215 13:11:05.727088 25021 layer_factory.hpp:77] Creating layer relu4_1
I0215 13:11:05.727102 25021 net.cpp:84] Creating Layer relu4_1
I0215 13:11:05.727108 25021 net.cpp:406] relu4_1 <- conv4_1
I0215 13:11:05.727115 25021 net.cpp:367] relu4_1 -> conv4_1 (in-place)
I0215 13:11:05.727650 25021 net.cpp:122] Setting up relu4_1
I0215 13:11:05.727664 25021 net.cpp:129] Top shape: 1 512 31 102 (1618944)
I0215 13:11:05.727669 25021 net.cpp:137] Memory required for data: 133636828
I0215 13:11:05.727674 25021 layer_factory.hpp:77] Creating layer conv4_2
I0215 13:11:05.727687 25021 net.cpp:84] Creating Layer conv4_2
I0215 13:11:05.727694 25021 net.cpp:406] conv4_2 <- conv4_1
I0215 13:11:05.727701 25021 net.cpp:380] conv4_2 -> conv4_2
I0215 13:11:05.969527 25021 net.cpp:122] Setting up conv4_2
I0215 13:11:05.969566 25021 net.cpp:129] Top shape: 1 512 31 102 (1618944)
I0215 13:11:05.969571 25021 net.cpp:137] Memory required for data: 140112604
I0215 13:11:05.969585 25021 layer_factory.hpp:77] Creating layer relu4_2
I0215 13:11:05.969599 25021 net.cpp:84] Creating Layer relu4_2
I0215 13:11:05.969605 25021 net.cpp:406] relu4_2 <- conv4_2
I0215 13:11:05.969614 25021 net.cpp:367] relu4_2 -> conv4_2 (in-place)
I0215 13:11:05.969831 25021 net.cpp:122] Setting up relu4_2
I0215 13:11:05.969842 25021 net.cpp:129] Top shape: 1 512 31 102 (1618944)
I0215 13:11:05.969846 25021 net.cpp:137] Memory required for data: 146588380
I0215 13:11:05.969851 25021 layer_factory.hpp:77] Creating layer conv4_3
I0215 13:11:05.969864 25021 net.cpp:84] Creating Layer conv4_3
I0215 13:11:05.969868 25021 net.cpp:406] conv4_3 <- conv4_2
I0215 13:11:05.969875 25021 net.cpp:380] conv4_3 -> conv4_3
I0215 13:11:06.059406 25021 net.cpp:122] Setting up conv4_3
I0215 13:11:06.059439 25021 net.cpp:129] Top shape: 1 512 31 102 (1618944)
I0215 13:11:06.059444 25021 net.cpp:137] Memory required for data: 153064156
I0215 13:11:06.059458 25021 layer_factory.hpp:77] Creating layer relu4_3
I0215 13:11:06.059470 25021 net.cpp:84] Creating Layer relu4_3
I0215 13:11:06.059478 25021 net.cpp:406] relu4_3 <- conv4_3
I0215 13:11:06.059485 25021 net.cpp:367] relu4_3 -> conv4_3 (in-place)
I0215 13:11:06.059727 25021 net.cpp:122] Setting up relu4_3
I0215 13:11:06.059739 25021 net.cpp:129] Top shape: 1 512 31 102 (1618944)
I0215 13:11:06.059743 25021 net.cpp:137] Memory required for data: 159539932
I0215 13:11:06.059748 25021 layer_factory.hpp:77] Creating layer tpp5
I0215 13:11:06.059756 25021 net.cpp:84] Creating Layer tpp5
I0215 13:11:06.059762 25021 net.cpp:406] tpp5 <- conv4_3
I0215 13:11:06.059768 25021 net.cpp:380] tpp5 -> tpp5
I0215 13:11:06.060254 25021 net.cpp:122] Setting up tpp5
I0215 13:11:06.060266 25021 net.cpp:129] Top shape: 1 7680 (7680)
I0215 13:11:06.060271 25021 net.cpp:137] Memory required for data: 159570652
I0215 13:11:06.060274 25021 layer_factory.hpp:77] Creating layer reshape
I0215 13:11:06.060284 25021 net.cpp:84] Creating Layer reshape
I0215 13:11:06.060288 25021 net.cpp:406] reshape <- tpp5
I0215 13:11:06.060302 25021 net.cpp:380] reshape -> reshape
I0215 13:11:06.060335 25021 net.cpp:122] Setting up reshape
I0215 13:11:06.060343 25021 net.cpp:129] Top shape: 1 3840 2 1 (7680)
I0215 13:11:06.060346 25021 net.cpp:137] Memory required for data: 159601372
I0215 13:11:06.060350 25021 layer_factory.hpp:77] Creating layer premax
I0215 13:11:06.060362 25021 net.cpp:84] Creating Layer premax
I0215 13:11:06.060366 25021 net.cpp:406] premax <- reshape
I0215 13:11:06.060374 25021 net.cpp:380] premax -> premax
I0215 13:11:06.060495 25021 net.cpp:122] Setting up premax
I0215 13:11:06.060503 25021 net.cpp:129] Top shape: 1 3840 2 1 (7680)
I0215 13:11:06.060508 25021 net.cpp:137] Memory required for data: 159632092
I0215 13:11:06.060514 25021 layer_factory.hpp:77] Creating layer maxout
I0215 13:11:06.060523 25021 net.cpp:84] Creating Layer maxout
I0215 13:11:06.060526 25021 net.cpp:406] maxout <- premax
I0215 13:11:06.060533 25021 net.cpp:380] maxout -> maxout
I0215 13:11:06.060573 25021 net.cpp:122] Setting up maxout
I0215 13:11:06.060580 25021 net.cpp:129] Top shape: 1 3840 1 1 (3840)
I0215 13:11:06.060585 25021 net.cpp:137] Memory required for data: 159647452
I0215 13:11:06.060590 25021 layer_factory.hpp:77] Creating layer fc6
I0215 13:11:06.060597 25021 net.cpp:84] Creating Layer fc6
I0215 13:11:06.060601 25021 net.cpp:406] fc6 <- maxout
I0215 13:11:06.060608 25021 net.cpp:380] fc6 -> fc6
I0215 13:11:07.107148 25021 net.cpp:122] Setting up fc6
I0215 13:11:07.107192 25021 net.cpp:129] Top shape: 1 4096 (4096)
I0215 13:11:07.107199 25021 net.cpp:137] Memory required for data: 159663836
I0215 13:11:07.107213 25021 layer_factory.hpp:77] Creating layer relu6
I0215 13:11:07.107228 25021 net.cpp:84] Creating Layer relu6
I0215 13:11:07.107235 25021 net.cpp:406] relu6 <- fc6
I0215 13:11:07.107244 25021 net.cpp:367] relu6 -> fc6 (in-place)
I0215 13:11:07.162320 25021 net.cpp:122] Setting up relu6
I0215 13:11:07.162355 25021 net.cpp:129] Top shape: 1 4096 (4096)
I0215 13:11:07.162360 25021 net.cpp:137] Memory required for data: 159680220
I0215 13:11:07.162369 25021 layer_factory.hpp:77] Creating layer drop6
I0215 13:11:07.162384 25021 net.cpp:84] Creating Layer drop6
I0215 13:11:07.162390 25021 net.cpp:406] drop6 <- fc6
I0215 13:11:07.162400 25021 net.cpp:367] drop6 -> fc6 (in-place)
I0215 13:11:07.162454 25021 net.cpp:122] Setting up drop6
I0215 13:11:07.162462 25021 net.cpp:129] Top shape: 1 4096 (4096)
I0215 13:11:07.162467 25021 net.cpp:137] Memory required for data: 159696604
I0215 13:11:07.162470 25021 layer_factory.hpp:77] Creating layer fc7
I0215 13:11:07.162480 25021 net.cpp:84] Creating Layer fc7
I0215 13:11:07.162485 25021 net.cpp:406] fc7 <- fc6
I0215 13:11:07.162492 25021 net.cpp:380] fc7 -> fc7
I0215 13:11:17.934960 25021 net.cpp:122] Setting up fc7
I0215 13:11:17.935000 25021 net.cpp:129] Top shape: 1 4096 (4096)
I0215 13:11:17.935005 25021 net.cpp:137] Memory required for data: 159712988
I0215 13:11:17.935017 25021 layer_factory.hpp:77] Creating layer relu7
I0215 13:11:17.935029 25021 net.cpp:84] Creating Layer relu7
I0215 13:11:17.935035 25021 net.cpp:406] relu7 <- fc7
I0215 13:11:17.935045 25021 net.cpp:367] relu7 -> fc7 (in-place)
I0215 13:11:17.935317 25021 net.cpp:122] Setting up relu7
I0215 13:11:17.935328 25021 net.cpp:129] Top shape: 1 4096 (4096)
I0215 13:11:17.935331 25021 net.cpp:137] Memory required for data: 159729372
I0215 13:11:17.935336 25021 layer_factory.hpp:77] Creating layer drop7
I0215 13:11:17.935345 25021 net.cpp:84] Creating Layer drop7
I0215 13:11:17.935349 25021 net.cpp:406] drop7 <- fc7
I0215 13:11:17.935356 25021 net.cpp:367] drop7 -> fc7 (in-place)
I0215 13:11:17.935387 25021 net.cpp:122] Setting up drop7
I0215 13:11:17.935395 25021 net.cpp:129] Top shape: 1 4096 (4096)
I0215 13:11:17.935398 25021 net.cpp:137] Memory required for data: 159745756
I0215 13:11:17.935402 25021 layer_factory.hpp:77] Creating layer fc8
I0215 13:11:17.935411 25021 net.cpp:84] Creating Layer fc8
I0215 13:11:17.935415 25021 net.cpp:406] fc8 <- fc7
I0215 13:11:17.935421 25021 net.cpp:380] fc8 -> fc8
I0215 13:11:20.707988 25021 net.cpp:122] Setting up fc8
I0215 13:11:20.708024 25021 net.cpp:129] Top shape: 1 926 (926)
I0215 13:11:20.708029 25021 net.cpp:137] Memory required for data: 159749460
I0215 13:11:20.708045 25021 layer_factory.hpp:77] Creating layer loss
I0215 13:11:20.708058 25021 net.cpp:84] Creating Layer loss
I0215 13:11:20.708065 25021 net.cpp:406] loss <- fc8
I0215 13:11:20.708072 25021 net.cpp:406] loss <- phocs
I0215 13:11:20.708079 25021 net.cpp:380] loss -> loss
I0215 13:11:20.708129 25021 net.cpp:122] Setting up loss
…
state {
  phase: TEST
}
layer {
  name: "word_images"
  type: "Data"
  top: "word_images"
  top: "label"
  transform_param {
    scale: -0.0039215689
    mean_value: 255
  }
  data_param {
    source: "/data/fwolf/botany/botany_nti500000_pul2-3-4-5_test_word_images_lmdb"
    batch_size: 1
    backend: LMDB
    prefetch: 20
  }
}
layer {
  name: "phocs"
  type: "Data"
  top: "phocs"
  top: "label_phocs"
  data_param {
    source: "/data/fwolf/botany/botany_nti500000_pul2-3-4-5_test_phocs_lmdb"
    batch_size: 1
    backend: LMDB
    prefetch: 20
  }
}
layer {
  name: "conv1_1"
  type: "Convolution"
  bottom: "word_images"
  top: "conv1_1"
  convolution_param {
    num_output: 64
    pad: 1
    kernel_size: 3
    stride: 1
    weight_filler {
      type: "msra"
    }
    bias_filler {
      type: "constant"
    }
    engine: CUDNN
  }
}
layer {
  name: "relu1_1"
  type: "ReLU"
  bottom: "conv1_1"
  top: "conv1_1"
}
layer {
  name: "conv1_2"
  type: "Convolution"
  bottom: "conv1_1"
  top: "conv1_2"
  convolution_param {
    num_output: 64
    pad: 1
    kernel_size: 3
    stride: 1
    weight_filler {
      type: "msra"
    }
    bias_filler {
      type: "constant"
    }
    engine: CUDNN
  }
}
layer {
  name: "relu1_2"
  type: "ReLU"
  bottom: "conv1_2"
  top: "conv1_2"
}
layer {
  name: "pool1"
  type: "Pooling"
  bottom: "conv1_2"
  top: "pool1"
  pooling_param {
    pool: MAX
    kernel_size: 2
    stride: 2
  }
}
layer {
  name: "conv2_1"
  type: "Convolution"
  bottom: "pool1"
  top: "conv2_1"
  convolution_param {
    num_output: 128
    pad: 1
    kernel_size: 3
    stride: 1
    weight_filler {
      type: "msra"
    }
    bias_filler {
      type: "constant"
    }
    engine: CUDNN
  }
}
layer {
  name: "relu2_1"
  type: "ReLU"
  bottom: "conv2_1"
  top: "conv2_1"
}
layer {
  name: "conv2_2"
  type: "Convolution"
  bottom: "conv2_1"
  top: "conv2_2"
  convolution_param {
    num_output: 128
    pad: 1
    kernel_size: 3
    stride: 1
    weight_filler {
      type: "msra"
    }
    bias_filler {
      type: "constant"
    }
    engine: CUDNN
  }
}
layer {
  name: "relu2_2"
  type: "ReLU"
  bottom: "conv2_2"
  top: "conv2_2"
}
layer {
  name: "pool2"
  type: "Pooling"
  bottom: "conv2_2"
  top: "pool2"
  pooling_param {
    pool: MAX
    kernel_size: 2
    stride: 2
  }
}
layer {
  name: "conv3_1"
  type: "Convolution"
  bottom: "pool2"
  top: "conv3_1"
  convolution_param {
    num_output: 256
    pad: 1
    kernel_size: 3
    stride: 1
    weight_filler {
      type: "msra"
    }
    bias_filler {
      type: "constant"
    }
    engine: CUDNN
  }
}
layer {
  name: "relu3_1"
  type: "ReLU"
  bottom: "conv3_1"
  top: "conv3_1"
}
layer {
  name: "conv3_2"
  type: "Convolution"
  bottom: "conv3_1"
  top: "conv3_2"
  convolution_param {
    num_output: 256
    pad: 1
    kernel_size: 3
    stride: 1
    weight_filler {
      type: "msra"
    }
    bias_filler {
      type: "constant"
    }
    engine: CUDNN
  }
}
layer {
  name: "relu3_2"
  type: "ReLU"
  bottom: "conv3_2"
  top: "conv3_2"
}
layer {
  name: "conv3_3"
  type: "Convolution"
  bottom: "conv3_2"
  top: "conv3_3"
  convolution_param {
    num_output: 256
    pad: 1
    kernel_size: 3
    stride: 1
    weight_filler {
      type: "msra"
    }
    bias_filler {
      type: "constant"
    }
    engine: CUDNN
  }
}
layer {
  name: "relu3_3"
  type: "ReLU"
  bottom: "conv3_3"
  top: "conv3_3"
}
layer {
  name: "conv3_4"
  type: "Convolution"
  bottom: "conv3_3"
  top: "conv3_4"
  convolution_param {
    num_output: 256
    pad: 1
    kernel_size: 3
    stride: 1
    weight_filler {
      type: "msra"
    }
    bias_filler {
      type: "constant"
    }
    engine: CUDNN
  }
}
layer {
  name: "relu3_4"
  type: "ReLU"
  bottom: "conv3_4"
  top: "conv3_4"
}
layer {
  name: "conv3_5"
  type: "Convolution"
  bottom: "conv3_4"
  top: "conv3_5"
  convolution_param {
    num_output: 256
    pad: 1
    kernel_size: 3
    stride: 1
    weight_filler {
      type: "msra"
    }
    bias_filler {
      type: "constant"
    }
    engine: CUDNN
  }
}
layer {
  name: "relu3_5"
  type: "ReLU"
  bottom: "conv3_5"
  top: "conv3_5"
}
layer {
  name: "conv3_6"
  type: "Convolution"
  bottom: "conv3_5"
  top: "conv3_6"
  convolution_param {
    num_output: 256
    pad: 1
    kernel_size: 3
    stride: 1
    weight_filler {
      type: "msra"
    }
    bias_filler {
      type: "constant"
    }
    engine: CUDNN
  }
}
layer {
  name: "relu3_6"
  type: "ReLU"
  bottom: "conv3_6"
  top: "conv3_6"
}
layer {
  name: "conv4_1"
  type: "Convolution"
  bottom: "conv3_6"
  top: "conv4_1"
  convolution_param {
    num_output: 512
    pad: 1
    kernel_size: 3
    stride: 1
    weight_filler {
      type: "msra"
    }
    bias_filler {
      type: "constant"
    }
    engine: CUDNN
  }
}
layer {
  name: "relu4_1"
  type: "ReLU"
  bottom: "conv4_1"
  top: "conv4_1"
}
layer {
  name: "conv4_2"
  type: "Convolution"
  bottom: "conv4_1"
  top: "conv4_2"
  convolution_param {
    num_output: 512
    pad: 1
    kernel_size: 3
    stride: 1
    weight_filler {
      type: "msra"
    }
    bias_filler {
      type: "constant"
    }
    engine: CUDNN
  }
}
layer {
  name: "relu4_2"
  type: "ReLU"
  bottom: "conv4_2"
  top: "conv4_2"
}
layer {
  name: "conv4_3"
  type: "Convolution"
  bottom: "conv4_2"
  top: "conv4_3"
  convolution_param {
    num_output: 512
    pad: 1
    kernel_size: 3
    stride: 1
    weight_filler {
      type: "msra"
    }
    bias_filler {
      type: "constant"
    }
    engine: CUDNN
  }
}
layer {
  name: "relu4_3"
  type: "ReLU"
  bottom: "conv4_3"
  top: "conv4_3"
}
layer {
  name: "tpp5"
  type: "TPP"
  bottom: "conv4_3"
  top: "tpp5"
  tpp_param {
    pyramid_layer: 1
    pyramid_layer: 2
    pyramid_layer: 3
    pyramid_layer: 4
    pyramid_layer: 5
    pool: MAX
    engine: CUDNN
  }
}
layer {
  name: "reshape"
  type: "Reshape"
  bottom: "tpp5"
  top: "reshape"
  reshape_param {
    shape {
      dim: 1
      dim: 3840
      dim: 2
      dim: 1
    }
  }
}
layer {
  name: "premax"
  type: "Scale"
  bottom: "reshape"
  top: "premax"
  param {
    lr_mult: 0
    decay_mult: 0
  }
  scale_param {
    num_axes: 3
    filler {
      value: 1
    }
    bias_term: false
    bias_filler {
      value: 0
    }
  }
}
layer {
  name: "maxout"
  type: "Pooling"
  bottom: "premax"
  top: "maxout"
  pooling_param {
    pool: MAX
    global_pooling: true
  }
}
layer {
  name: "fc6"
  type: "InnerProduct"
  bottom: "maxout"
  top: "fc6"
  inner_product_param {
    num_output: 4096
    weight_filler {
      type: "msra"
    }
    bias_filler {
      type: "constant"
    }
  }
}
layer {
  name: "relu6"
  type: "ReLU"
  bottom: "fc6"
  top: "fc6"
}
layer {
  name: "fc7"
  type: "InnerProduct"
  bottom: "fc6"
  top: "fc7"
  inner_product_param {
    num_output: 4096
    weight_filler {
      type: "msra"
    }
    bias_filler {
      type: "constant"
    }
  }
}
layer {
  name: "relu7"
  type: "ReLU"
  bottom: "fc7"
  top: "fc7"
}
layer {
  name: "fc8"
  type: "InnerProduct"
  bottom: "fc7"
  top: "fc8"
  inner_product_param {
    num_output: 926
    weight_filler {
      type: "msra"
    }
    bias_filler {
      type: "constant"
    }
  }
}
layer {
  name: "sigmoid"
  type: "Sigmoid"
  bottom: "fc8"
  top: "sigmoid"
  include {
    phase: TEST
  }
}
layer {
  name: "silence"
  type: "Silence"
  bottom: "sigmoid"
  include {
    phase: TEST
  }
}
layer {
  name: "loss"
  type: "SigmoidCrossEntropyLoss"
  bottom: "fc8"
  bottom: "phocs"
  top: "loss"
}
I0215 13:11:20.805364 25021 layer_factory.hpp:77] Creating layer word_images
I0215 13:11:20.805467 25021 db_lmdb.cpp:35] Opened lmdb /data/fwolf/botany/botany_nti500000_pul2-3-4-5_test_word_images_lmdb
I0215 13:11:20.805505 25021 net.cpp:84] Creating Layer word_images
I0215 13:11:20.805516 25021 net.cpp:380] word_images -> word_images
I0215 13:11:20.805532 25021 net.cpp:380] word_images -> label
I0215 13:11:20.806007 25021 data_layer.cpp:44] output data size: 1,1,158,315
I0215 13:11:20.907335 25021 net.cpp:122] Setting up word_images
I0215 13:11:20.907367 25021 net.cpp:129] Top shape: 1 1 158 315 (49770)
I0215 13:11:20.907374 25021 net.cpp:129] Top shape: 1 (1)
I0215 13:11:20.907378 25021 net.cpp:137] Memory required for data: 199084
I0215 13:11:20.907385 25021 layer_factory.hpp:77] Creating layer phocs
I0215 13:11:20.907449 25021 db_lmdb.cpp:35] Opened lmdb /data/fwolf/botany/botany_nti500000_pul2-3-4-5_test_phocs_lmdb
I0215 13:11:20.907477 25021 net.cpp:84] Creating Layer phocs
I0215 13:11:20.907485 25021 net.cpp:380] phocs -> phocs
I0215 13:11:20.958006 25021 net.cpp:380] phocs -> label_phocs
I0215 13:11:20.958564 25021 data_layer.cpp:44] output data size: 1,1,1,926
I0215 13:11:20.997673 25021 net.cpp:122] Setting up phocs
I0215 13:11:20.997710 25021 net.cpp:129] Top shape: 1 1 1 926 (926)
I0215 13:11:20.997717 25021 net.cpp:129] Top shape: 1 (1)
I0215 13:11:20.997721 25021 net.cpp:137] Memory required for data: 202792
I0215 13:11:20.997728 25021 layer_factory.hpp:77] Creating layer conv1_1
I0215 13:11:20.997751 25021 net.cpp:84] Creating Layer conv1_1
I0215 13:11:20.997757 25021 net.cpp:406] conv1_1 <- word_images
I0215 13:11:20.997768 25021 net.cpp:380] conv1_1 -> conv1_1
I0215 13:11:21.040480 25021 net.cpp:122] Setting up conv1_1
I0215 13:11:21.040514 25021 net.cpp:129] Top shape: 1 64 158 315 (3185280)
I0215 13:11:21.040520 25021 net.cpp:137] Memory required for data: 12943912
I0215 13:11:21.040537 25021 layer_factory.hpp:77] Creating layer relu1_1
I0215 13:11:21.040549 25021 net.cpp:84] Creating Layer relu1_1
I0215 13:11:21.040555 25021 net.cpp:406] relu1_1 <- conv1_1
I0215 13:11:21.040562 25021 net.cpp:367] relu1_1 -> conv1_1 (in-place)
I0215 13:11:21.040786 25021 net.cpp:122] Setting up relu1_1
I0215 13:11:21.040796 25021 net.cpp:129] Top shape: 1 64 158 315 (3185280)
I0215 13:11:21.040801 25021 net.cpp:137] Memory required for data: 25685032
I0215 13:11:21.040805 25021 layer_factory.hpp:77] Creating layer conv1_2
I0215 13:11:21.040820 25021 net.cpp:84] Creating Layer conv1_2
I0215 13:11:21.040825 25021 net.cpp:406] conv1_2 <- conv1_1
I0215 13:11:21.040833 25021 net.cpp:380] conv1_2 -> conv1_2
I0215 13:11:21.125615 25021 net.cpp:122] Setting up conv1_2
I0215 13:11:21.125648 25021 net.cpp:129] Top shape: 1 64 158 315 (3185280)
I0215 13:11:21.125653 25021 net.cpp:137] Memory required for data: 38426152
I0215 13:11:21.125669 25021 layer_factory.hpp:77] Creating layer relu1_2
I0215 13:11:21.125681 25021 net.cpp:84] Creating Layer relu1_2
I0215 13:11:21.125686 25021 net.cpp:406] relu1_2 <- conv1_2
I0215 13:11:21.125694 25021 net.cpp:367] relu1_2 -> conv1_2 (in-place)
I0215 13:11:21.126480 25021 net.cpp:122] Setting up relu1_2
I0215 13:11:21.126493 25021 net.cpp:129] Top shape: 1 64 158 315 (3185280)
I0215 13:11:21.126497 25021 net.cpp:137] Memory required for data: 51167272
I0215 13:11:21.126502 25021 layer_factory.hpp:77] Creating layer pool1
I0215 13:11:21.126510 25021 net.cpp:84] Creating Layer pool1
I0215 13:11:21.126515 25021 net.cpp:406] pool1 <- conv1_2
I0215 13:11:21.126523 25021 net.cpp:380] pool1 -> pool1
I0215 13:11:21.126576 25021 net.cpp:122] Setting up pool1
I0215 13:11:21.126585 25021 net.cpp:129] Top shape: 1 64 79 158 (798848)
I0215 13:11:21.126588 25021 net.cpp:137] Memory required for data: 54362664
I0215 13:11:21.126592 25021 layer_factory.hpp:77] Creating layer conv2_1
I0215 13:11:21.126607 25021 net.cpp:84] Creating Layer conv2_1
I0215 13:11:21.126612 25021 net.cpp:406] conv2_1 <- pool1
I0215 13:11:21.126618 25021 net.cpp:380] conv2_1 -> conv2_1
I0215 13:11:21.277272 25021 net.cpp:122] Setting up conv2_1
I0215 13:11:21.277310 25021 net.cpp:129] Top shape: 1 128 79 158 (1597696)
I0215 13:11:21.277315 25021 net.cpp:137] Memory required for data: 60753448
I0215 13:11:21.277330 25021 layer_factory.hpp:77] Creating layer relu2_1
I0215 13:11:21.277344 25021 net.cpp:84] Creating Layer relu2_1
I0215 13:11:21.277350 25021 net.cpp:406] relu2_1 <- conv2_1
I0215 13:11:21.277359 25021 net.cpp:367] relu2_1 -> conv2_1 (in-place)
I0215 13:11:21.278062 25021 net.cpp:122] Setting up relu2_1
I0215 13:11:21.278074 25021 net.cpp:129] Top shape: 1 128 79 158 (1597696)
I0215 13:11:21.278079 25021 net.cpp:137] Memory required for data: 67144232
I0215 13:11:21.278082 25021 layer_factory.hpp:77] Creating layer conv2_2
I0215 13:11:21.278096 25021 net.cpp:84] Creating Layer conv2_2
I0215 13:11:21.278100 25021 net.cpp:406] conv2_2 <- conv2_1
I0215 13:11:21.278108 25021 net.cpp:380] conv2_2 -> conv2_2
I0215 13:11:21.601675 25021 net.cpp:122] Setting up conv2_2
I0215 13:11:21.601709 25021 net.cpp:129] Top shape: 1 128 79 158 (1597696)
I0215 13:11:21.601716 25021 net.cpp:137] Memory required for data: 73535016
I0215 13:11:21.601727 25021 layer_factory.hpp:77] Creating layer relu2_2
I0215 13:11:21.601740 25021 net.cpp:84] Creating Layer relu2_2
I0215 13:11:21.601747 25021 net.cpp:406] relu2_2 <- conv2_2
I0215 13:11:21.601758 25021 net.cpp:367] relu2_2 -> conv2_2 (in-place)
I0215 13:11:21.691231 25021 net.cpp:122] Setting up relu2_2
I0215 13:11:21.691262 25021 net.cpp:129] Top shape: 1 128 79 158 (1597696)
I0215 13:11:21.691268 25021 net.cpp:137] Memory required for data: 79925800
I0215 13:11:21.691274 25021 layer_factory.hpp:77] Creating layer pool2
I0215 13:11:21.691287 25021 net.cpp:84] Creating Layer pool2
I0215 13:11:21.691293 25021 net.cpp:406] pool2 <- conv2_2
I0215 13:11:21.691301 25021 net.cpp:380] pool2 -> pool2
I0215 13:11:21.691390 25021 net.cpp:122] Setting up pool2
I0215 13:11:21.691399 25021 net.cpp:129] Top shape: 1 128 40 79 (404480)
I0215 13:11:21.691403 25021 net.cpp:137] Memory required for data: 81543720
I0215 13:11:21.691407 25021 layer_factory.hpp:77] Creating layer conv3_1
I0215 13:11:21.691424 25021 net.cpp:84] Creating Layer conv3_1
I0215 13:11:21.691429 25021 net.cpp:406] conv3_1 <- pool2
I0215 13:11:21.691437 25021 net.cpp:380] conv3_1 -> conv3_1
I0215 13:11:22.011883 25021 net.cpp:122] Setting up conv3_1
I0215 13:11:22.011924 25021 net.cpp:129] Top shape: 1 256 40 79 (808960)
I0215 13:11:22.011929 25021 net.cpp:137] Memory required for data: 84779560
I0215 13:11:22.011947 25021 layer_factory.hpp:77] Creating layer relu3_1
I0215 13:11:22.011960 25021 net.cpp:84] Creating Layer relu3_1
I0215 13:11:22.011966 25021 net.cpp:406] relu3_1 <- conv3_1
I0215 13:11:22.011979 25021 net.cpp:367] relu3_1 -> conv3_1 (in-place)
I0215 13:11:22.012336 25021 net.cpp:122] Setting up relu3_1
I0215 13:11:22.012351 25021 net.cpp:129] Top shape: 1 256 40 79 (808960)
I0215 13:11:22.012356 25021 net.cpp:137] Memory required for data: 88015400
I0215 13:11:22.012361 25021 layer_factory.hpp:77] Creating layer conv3_2
I0215 13:11:22.012377 25021 net.cpp:84] Creating Layer conv3_2
I0215 13:11:22.012384 25021 net.cpp:406] conv3_2 <- conv3_1
I0215 13:11:22.012392 25021 net.cpp:380] conv3_2 -> conv3_2
I0215 13:11:22.587357 25021 net.cpp:122] Setting up conv3_2
I0215 13:11:22.587391 25021 net.cpp:129] Top shape: 1 256 40 79 (808960)
I0215 13:11:22.587396 25021 net.cpp:137] Memory required for data: 91251240
I0215 13:11:22.587409 25021 layer_factory.hpp:77] Creating layer relu3_2
I0215 13:11:22.587422 25021 net.cpp:84] Creating Layer relu3_2
I0215 13:11:22.587429 25021 net.cpp:406] relu3_2 <- conv3_2
I0215 13:11:22.587437 25021 net.cpp:367] relu3_2 -> conv3_2 (in-place)
I0215 13:11:22.660266 25021 net.cpp:122] Setting up relu3_2
I0215 13:11:22.660300 25021 net.cpp:129] Top shape: 1 256 40 79 (808960)
I0215 13:11:22.660306 25021 net.cpp:137] Memory required for data: 94487080
I0215 13:11:22.660313 25021 layer_factory.hpp:77] Creating layer conv3_3
I0215 13:11:22.660336 25021 net.cpp:84] Creating Layer conv3_3
I0215 13:11:22.660342 25021 net.cpp:406] conv3_3 <- conv3_2
I0215 13:11:22.660358 25021 net.cpp:380] conv3_3 -> conv3_3
I0215 13:11:23.000036 25021 net.cpp:122] Setting up conv3_3
I0215 13:11:23.000069 25021 net.cpp:129] Top shape: 1 256 40 79 (808960)
I0215 13:11:23.000074 25021 net.cpp:137] Memory required for data: 97722920
I0215 13:11:23.000087 25021 layer_factory.hpp:77] Creating layer relu3_3
I0215 13:11:23.000097 25021 net.cpp:84] Creating Layer relu3_3
I0215 13:11:23.000103 25021 net.cpp:406] relu3_3 <- conv3_3
I0215 13:11:23.000113 25021 net.cpp:367] relu3_3 -> conv3_3 (in-place)
I0215 13:11:23.000342 25021 net.cpp:122] Setting up relu3_3
I0215 13:11:23.000353 25021 net.cpp:129] Top shape: 1 256 40 79 (808960)
I0215 13:11:23.000357 25021 net.cpp:137] Memory required for data: 100958760
I0215 13:11:23.000362 25021 layer_factory.hpp:77] Creating layer conv3_4
I0215 13:11:23.000375 25021 net.cpp:84] Creating Layer conv3_4
I0215 13:11:23.000381 25021 net.cpp:406] conv3_4 <- conv3_3
I0215 13:11:23.000388 25021 net.cpp:380] conv3_4 -> conv3_4
I0215 13:11:23.024520 25021 net.cpp:122] Setting up conv3_4
I0215 13:11:23.024552 25021 net.cpp:129] Top shape: 1 256 40 79 (808960)
I0215 13:11:23.024557 25021 net.cpp:137] Memory required for data: 104194600
I0215 13:11:23.024569 25021 layer_factory.hpp:77] Creating layer relu3_4
I0215 13:11:23.024580 25021 net.cpp:84] Creating Layer relu3_4
I0215 13:11:23.024585 25021 net.cpp:406] relu3_4 <- conv3_4
I0215 13:11:23.024595 25021 net.cpp:367] relu3_4 -> conv3_4 (in-place)
I0215 13:11:23.024826 25021 net.cpp:122] Setting up relu3_4
I0215 13:11:23.024837 25021 net.cpp:129] Top shape: 1 256 40 79 (808960)
I0215 13:11:23.024840 25021 net.cpp:137] Memory required for data: 107430440
I0215 13:11:23.024844 25021 layer_factory.hpp:77] Creating layer conv3_5
I0215 13:11:23.024858 25021 net.cpp:84] Creating Layer conv3_5
I0215 13:11:23.024863 25021 net.cpp:406] conv3_5 <- conv3_4
I0215 13:11:23.024871 25021 net.cpp:380] conv3_5 -> conv3_5
I0215 13:11:23.049196 25021 net.cpp:122] Setting up conv3_5
I0215 13:11:23.049229 25021 net.cpp:129] Top shape: 1 256 40 79 (808960)
I0215 13:11:23.049234 25021 net.cpp:137] Memory required for data: 110666280
I0215 13:11:23.049252 25021 layer_factory.hpp:77] Creating layer relu3_5
I0215 13:11:23.049265 25021 net.cpp:84] Creating Layer relu3_5
I0215 13:11:23.049273 25021 net.cpp:406] relu3_5 <- conv3_5
I0215 13:11:23.049281 25021 net.cpp:367] relu3_5 -> conv3_5 (in-place)
I0215 13:11:23.049888 25021 net.cpp:122] Setting up relu3_5
I0215 13:11:23.049902 25021 net.cpp:129] Top shape: 1 256 40 79 (808960)
I0215 13:11:23.049907 25021 net.cpp:137] Memory required for data: 113902120
I0215 13:11:23.049912 25021 layer_factory.hpp:77] Creating layer conv3_6
I0215 13:11:23.049927 25021 net.cpp:84] Creating Layer conv3_6
I0215 13:11:23.049932 25021 net.cpp:406] conv3_6 <- conv3_5
I0215 13:11:23.049940 25021 net.cpp:380] conv3_6 -> conv3_6
I0215 13:11:23.468607 25021 net.cpp:122] Setting up conv3_6
I0215 13:11:23.468648 25021 net.cpp:129] Top shape: 1 256 40 79 (808960)
I0215 13:11:23.468655 25021 net.cpp:137] Memory required for data: 117137960
I0215 13:11:23.468670 25021 layer_factory.hpp:77] Creating layer relu3_6
I0215 13:11:23.468689 25021 net.cpp:84] Creating Layer relu3_6
I0215 13:11:23.468698 25021 net.cpp:406] relu3_6 <- conv3_6
I0215 13:11:23.468708 25021 net.cpp:367] relu3_6 -> conv3_6 (in-place)
I0215 13:11:23.469007 25021 net.cpp:122] Setting up relu3_6
I0215 13:11:23.469020 25021 net.cpp:129] Top shape: 1 256 40 79 (808960)
I0215 13:11:23.469025 25021 net.cpp:137] Memory required for data: 120373800
I0215 13:11:23.469030 25021 layer_factory.hpp:77] Creating layer conv4_1
I0215 13:11:23.469048 25021 net.cpp:84] Creating Layer conv4_1
I0215 13:11:23.469054 25021 net.cpp:406] conv4_1 <- conv3_6
I0215 13:11:23.469063 25021 net.cpp:380] conv4_1 -> conv4_1
I0215 13:11:23.660455 25021 net.cpp:122] Setting up conv4_1
I0215 13:11:23.660491 25021 net.cpp:129] Top shape: 1 512 40 79 (1617920)
I0215 13:11:23.660496 25021 net.cpp:137] Memory required for data: 126845480
I0215 13:11:23.660508 25021 layer_factory.hpp:77] Creating layer relu4_1
I0215 13:11:23.660527 25021 net.cpp:84] Creating Layer relu4_1
I0215 13:11:23.660534 25021 net.cpp:406] relu4_1 <- conv4_1
I0215 13:11:23.660542 25021 net.cpp:367] relu4_1 -> conv4_1 (in-place)
I0215 13:11:23.660775 25021 net.cpp:122] Setting up relu4_1
I0215 13:11:23.660786 25021 net.cpp:129] Top shape: 1 512 40 79 (1617920)
I0215 13:11:23.660790 25021 net.cpp:137] Memory required for data: 133317160
I0215 13:11:23.660794 25021 layer_factory.hpp:77] Creating layer conv4_2
I0215 13:11:23.660809 25021 net.cpp:84] Creating Layer conv4_2
I0215 13:11:23.660812 25021 net.cpp:406] conv4_2 <- conv4_1
I0215 13:11:23.660820 25021 net.cpp:380] conv4_2 -> conv4_2
I0215 13:11:23.831655 25021 net.cpp:122] Setting up conv4_2
I0215 13:11:23.831688 25021 net.cpp:129] Top shape: 1 512 40 79 (1617920)
I0215 13:11:23.831693 25021 net.cpp:137] Memory required for data: 139788840
I0215 13:11:23.831704 25021 layer_factory.hpp:77] Creating layer relu4_2
I0215 13:11:23.831717 25021 net.cpp:84] Creating Layer relu4_2
I0215 13:11:23.831724 25021 net.cpp:406] relu4_2 <- conv4_2
I0215 13:11:23.831732 25021 net.cpp:367] relu4_2 -> conv4_2 (in-place)
I0215 13:11:23.832340 25021 net.cpp:122] Setting up relu4_2
I0215 13:11:23.832355 25021 net.cpp:129] Top shape: 1 512 40 79 (1617920)
I0215 13:11:23.832360 25021 net.cpp:137] Memory required for data: 146260520
I0215 13:11:23.832365 25021 layer_factory.hpp:77] Creating layer conv4_3
I0215 13:11:23.832378 25021 net.cpp:84] Creating Layer conv4_3
I0215 13:11:23.832383 25021 net.cpp:406] conv4_3 <- conv4_2
I0215 13:11:23.832391 25021 net.cpp:380] conv4_3 -> conv4_3
I0215 13:11:23.999450 25021 net.cpp:122] Setting up conv4_3
I0215 13:11:23.999486 25021 net.cpp:129] Top shape: 1 512 40 79 (1617920)
I0215 13:11:23.999505 25021 net.cpp:137] Memory required for data: 152732200
I0215 13:11:23.999517 25021 layer_factory.hpp:77] Creating layer relu4_3
I0215 13:11:23.999529 25021 net.cpp:84] Creating Layer relu4_3
I0215 13:11:23.999536 25021 net.cpp:406] relu4_3 <- conv4_3
I0215 13:11:23.999545 25021 net.cpp:367] relu4_3 -> conv4_3 (in-place)
I0215 13:11:23.999778 25021 net.cpp:122] Setting up relu4_3
I0215 13:11:23.999789 25021 net.cpp:129] Top shape: 1 512 40 79 (1617920)
I0215 13:11:23.999794 25021 net.cpp:137] Memory required for data: 159203880
I0215 13:11:23.999797 25021 layer_factory.hpp:77] Creating layer tpp5
I0215 13:11:23.999805 25021 net.cpp:84] Creating Layer tpp5
I0215 13:11:23.999810 25021 net.cpp:406] tpp5 <- conv4_3
I0215 13:11:23.999816 25021 net.cpp:380] tpp5 -> tpp5
I0215 13:11:24.000365 25021 net.cpp:122] Setting up tpp5
I0215 13:11:24.000375 25021 net.cpp:129] Top shape: 1 7680 (7680)
I0215 13:11:24.000380 25021 net.cpp:137] Memory required for data: 159234600
I0215 13:11:24.000385 25021 layer_factory.hpp:77] Creating layer reshape
I0215 13:11:24.000393 25021 net.cpp:84] Creating Layer reshape
I0215 13:11:24.000397 25021 net.cpp:406] reshape <- tpp5
I0215 13:11:24.000404 25021 net.cpp:380] reshape -> reshape
I0215 13:11:24.000439 25021 net.cpp:122] Setting up reshape
I0215 13:11:24.000447 25021 net.cpp:129] Top shape: 1 3840 2 1 (7680)
I0215 13:11:24.000450 25021 net.cpp:137] Memory required for data: 159265320
I0215 13:11:24.000454 25021 layer_factory.hpp:77] Creating layer premax
I0215 13:11:24.000468 25021 net.cpp:84] Creating Layer premax
I0215 13:11:24.000471 25021 net.cpp:406] premax <- reshape
I0215 13:11:24.000478 25021 net.cpp:380] premax -> premax
I0215 13:11:24.000617 25021 net.cpp:122] Setting up premax
I0215 13:11:24.000625 25021 net.cpp:129] Top shape: 1 3840 2 1 (7680)
I0215 13:11:24.000629 25021 net.cpp:137] Memory required for data: 159296040
I0215 13:11:24.000635 25021 layer_factory.hpp:77] Creating layer maxout
I0215 13:11:24.000643 25021 net.cpp:84] Creating Layer maxout
I0215 13:11:24.000648 25021 net.cpp:406] maxout <- premax
I0215 13:11:24.000654 25021 net.cpp:380] maxout -> maxout
I0215 13:11:24.000701 25021 net.cpp:122] Setting up maxout
I0215 13:11:24.000708 25021 net.cpp:129] Top shape: 1 3840 1 1 (3840)
I0215 13:11:24.000717 25021 net.cpp:137] Memory required for data: 159311400
I0215 13:11:24.000721 25021 layer_factory.hpp:77] Creating layer fc6
I0215 13:11:24.000730 25021 net.cpp:84] Creating Layer fc6
I0215 13:11:24.000735 25021 net.cpp:406] fc6 <- maxout
I0215 13:11:24.000741 25021 net.cpp:380] fc6 -> fc6
I0215 13:11:29.489595 25021 net.cpp:122] Setting up fc6
I0215 13:11:29.489629 25021 net.cpp:129] Top shape: 1 4096 (4096)
I0215 13:11:29.489634 25021 net.cpp:137] Memory required for data: 159327784
I0215 13:11:29.489645 25021 layer_factory.hpp:77] Creating layer relu6
I0215 13:11:29.489660 25021 net.cpp:84] Creating Layer relu6
I0215 13:11:29.489665 25021 net.cpp:406] relu6 <- fc6
I0215 13:11:29.489675 25021 net.cpp:367] relu6 -> fc6 (in-place)
I0215 13:11:29.489964 25021 net.cpp:122] Setting up relu6
I0215 13:11:29.489974 25021 net.cpp:129] Top shape: 1 4096 (4096)
I0215 13:11:29.489979 25021 net.cpp:137] Memory required for data: 159344168
I0215 13:11:29.489982 25021 layer_factory.hpp:77] Creating layer fc7
I0215 13:11:29.489992 25021 net.cpp:84] Creating Layer fc7
I0215 13:11:29.489996 25021 net.cpp:406] fc7 <- fc6
I0215 13:11:29.490005 25021 net.cpp:380] fc7 -> fc7
I0215 13:11:33.650526 25021 net.cpp:122] Setting up fc7
I0215 13:11:33.650564 25021 net.cpp:129] Top shape: 1 4096 (4096)
I0215 13:11:33.650569 25021 net.cpp:137] Memory required for data: 159360552
I0215 13:11:33.650581 25021 layer_factory.hpp:77] Creating layer relu7
I0215 13:11:33.650596 25021 net.cpp:84] Creating Layer relu7
I0215 13:11:33.650602 25021 net.cpp:406] relu7 <- fc7
I0215 13:11:33.650610 25021 net.cpp:367] relu7 -> fc7 (in-place)
I0215 13:11:33.650928 25021 net.cpp:122] Setting up relu7
I0215 13:11:33.650938 25021 net.cpp:129] Top shape: 1 4096 (4096)
I0215 13:11:33.650943 25021 net.cpp:137] Memory required for data: 159376936
I0215 13:11:33.650949 25021 layer_factory.hpp:77] Creating layer fc8
I0215 13:11:33.650959 25021 net.cpp:84] Creating Layer fc8
I0215 13:11:33.650964 25021 net.cpp:406] fc8 <- fc7
I0215 13:11:33.650970 25021 net.cpp:380] fc8 -> fc8
I0215 13:11:35.274283 25021 net.cpp:122] Setting up fc8
I0215 13:11:35.274319 25021 net.cpp:129] Top shape: 1 926 (926)
I0215 13:11:35.274324 25021 net.cpp:137] Memory required for data: 159380640
I0215 13:11:35.274341 25021 layer_factory.hpp:77] Creating layer fc8_fc8_0_split
I0215 13:11:35.274353 25021 net.cpp:84] Creating Layer fc8_fc8_0_split
I0215 13:11:35.274359 25021 net.cpp:406] fc8_fc8_0_split <- fc8
I0215 13:11:35.274369 25021 net.cpp:380] fc8_fc8_0_split -> fc8_fc8_0_split_0
I0215 13:11:35.274379 25021 net.cpp:380] fc8_fc8_0_split -> fc8_fc8_0_split_1
I0215 13:11:35.274431 25021 net.cpp:122] Setting up fc8_fc8_0_split
I0215 13:11:35.274440 25021 net.cpp:129] Top shape: 1 926 (926)
I0215 13:11:35.274444 25021 net.cpp:129] Top shape: 1 926 (926)
I0215 13:11:35.274448 25021 net.cpp:137] Memory required for data: 159388048
I0215 13:11:35.274452 25021 layer_factory.hpp:77] Creating layer sigmoid
I0215 13:11:35.274461 25021 net.cpp:84] Creating Layer sigmoid
I0215 13:11:35.274464 25021 net.cpp:406] sigmoid <- fc8_fc8_0_split_0
I0215 13:11:35.274471 25021 net.cpp:380] sigmoid -> sigmoid
I0215 13:11:35.275329 25021 net.cpp:122] Setting up sigmoid
I0215 13:11:35.275343 25021 net.cpp:129] Top shape: 1 926 (926)
I0215 13:11:35.275348 25021 net.cpp:137] Memory required for data: 159391752
I0215 13:11:35.275352 25021 layer_factory.hpp:77] Creating layer silence
I0215 13:11:35.275359 25021 net.cpp:84] Creating Layer silence
I0215 13:11:35.275364 25021 net.cpp:406] silence <- sigmoid
I0215 13:11:35.275369 25021 net.cpp:122] Setting up silence
I0215 13:11:35.275373 25021 net.cpp:137] Memory required for data: 159391752
…
