…
  phase: TRAIN
}
layer {
  name: "word_images"
  type: "Data"
  top: "word_images"
  top: "label"
  transform_param {
    scale: -0.0039215689
    mean_value: 255
  }
  data_param {
    source: "/data/fwolf/botany/botany_nti500000_pul2-3-4-5_train_word_images_lmdb"
    batch_size: 1
    backend: LMDB
    prefetch: 20
  }
}
layer {
  name: "phocs"
  type: "Data"
  top: "phocs"
  top: "label_phocs"
  data_param {
    source: "/data/fwolf/botany/botany_nti500000_pul2-3-4-5_train_phocs_lmdb"
    batch_size: 1
    backend: LMDB
    prefetch: 20
  }
}
layer {
  name: "conv_init"
  type: "Convolution"
  bottom: "word_images"
  top: "conv_init"
  convolution_param {
    num_output: 32
    bias_term: false
    pad: 1
    kernel_size: 3
    stride: 1
    weight_filler {
      type: "msra"
    }
    bias_filler {
      type: "constant"
    }
    engine: CUDNN
  }
}
layer {
  name: "bn_init"
  type: "BatchNorm"
  bottom: "conv_init"
  top: "bn_init"
  param {
    lr_mult: 0
    decay_mult: 0
  }
  param {
    lr_mult: 0
    decay_mult: 0
  }
  param {
    lr_mult: 0
    decay_mult: 0
  }
  batch_norm_param {
    eps: 1e-05
  }
}
layer {
  name: "scale_init"
  type: "Scale"
  bottom: "bn_init"
  top: "bn_init"
  scale_param {
    filler {
      value: 1
    }
    bias_term: true
    bias_filler {
      value: 0
    }
  }
}
layer {
  name: "relu_init"
  type: "ReLU"
  bottom: "bn_init"
  top: "bn_init"
}
layer {
  name: "pool_init"
  type: "Pooling"
  bottom: "bn_init"
  top: "pool_init"
  pooling_param {
    pool: MAX
    kernel_size: 3
    stride: 2
    pad: 1
  }
}
layer {
  name: "conv0_0/bn"
  type: "BatchNorm"
  bottom: "pool_init"
  top: "conv0_0/bn"
  param {
    lr_mult: 0
    decay_mult: 0
  }
  param {
    lr_mult: 0
    decay_mult: 0
  }
  param {
    lr_mult: 0
    decay_mult: 0
  }
}
layer {
  name: "conv0_0/scale"
  type: "Scale"
  bottom: "conv0_0/bn"
  top: "conv0_0/bn"
  scale_param {
    filler {
      value: 1
    }
    bias_term: true
    bias_filler {
      value: 0
    }
  }
}
layer {
  name: "relu0_0"
  type: "ReLU"
  bottom: "conv0_0/bn"
  top: "conv0_0/bn"
}
layer {
  name: "conv0_0"
  type: "Convolution"
  bottom: "conv0_0/bn"
  top: "conv0_0"
  convolution_param {
    num_output: 32
    bias_term: false
    pad: 1
    kernel_size: 3
    stride: 1
    weight_filler {
      type: "msra"
    }
    bias_filler {
      type: "constant"
    }
    engine: CUDNN
  }
}
layer {
  name: "concat0_0"
  type: "Concat"
  bottom: "pool_init"
  bottom: "conv0_0"
  top: "concat0_0"
  concat_param {
    axis: 1
  }
}
layer {
  name: "conv0_1/bn"
  type: "BatchNorm"
  bottom: "concat0_0"
  top: "conv0_1/bn"
  param {
    lr_mult: 0
    decay_mult: 0
  }
  param {
    lr_mult: 0
    decay_mult: 0
  }
  param {
    lr_mult: 0
    decay_mult: 0
  }
}
layer {
  name: "conv0_1/scale"
  type: "Scale"
  bottom: "conv0_1/bn"
  top: "conv0_1/bn"
  scale_param {
    filler {
      value: 1
    }
    bias_term: true
    bias_filler {
      value: 0
    }
  }
}
layer {
  name: "relu0_1"
  type: "ReLU"
  bottom: "conv0_1/bn"
  top: "conv0_1/bn"
}
layer {
  name: "conv0_1"
  type: "Convolution"
  bottom: "conv0_1/bn"
  top: "conv0_1"
  convolution_param {
    num_output: 32
    bias_term: false
    pad: 1
    kernel_size: 3
    stride: 1
    weight_filler {
      type: "msra"
    }
    bias_filler {
      type: "constant"
    }
    engine: CUDNN
  }
}
layer {
  name: "concat0_1"
  type: "Concat"
  bottom: "concat0_0"
  bottom: "conv0_1"
  top: "concat0_1"
  concat_param {
    axis: 1
  }
}
layer {
  name: "conv0_2/bn"
  type: "BatchNorm"
  bottom: "concat0_1"
  top: "conv0_2/bn"
  param {
    lr_mult: 0
    decay_mult: 0
  }
  param {
    lr_mult: 0
    decay_mult: 0
  }
  param {
    lr_mult: 0
    decay_mult: 0
  }
}
layer {
  name: "conv0_2/scale"
  type: "Scale"
  bottom: "conv0_2/bn"
  top: "conv0_2/bn"
  scale_param {
    filler {
      value: 1
    }
    bias_term: true
    bias_filler {
      value: 0
    }
  }
}
layer {
  name: "relu0_2"
  type: "ReLU"
  bottom: "conv0_2/bn"
  top: "conv0_2/bn"
}
layer {
  name: "conv0_2"
  type: "Convolution"
  bottom: "conv0_2/bn"
  top: "conv0_2"
  convolution_param {
    num_output: 32
    bias_term: false
    pad: 1
    kernel_size: 3
    stride: 1
    weight_filler {
      type: "msra"
    }
    bias_filler {
      type: "constant"
    }
    engine: CUDNN
  }
}
layer {
  name: "concat0_2"
  type: "Concat"
  bottom: "concat0_1"
  bottom: "conv0_2"
  top: "concat0_2"
  concat_param {
    axis: 1
  }
}
layer {
  name: "conv0_3/bn"
  type: "BatchNorm"
  bottom: "concat0_2"
  top: "conv0_3/bn"
  param {
    lr_mult: 0
    decay_mult: 0
  }
  param {
    lr_mult: 0
    decay_mult: 0
  }
  param {
    lr_mult: 0
    decay_mult: 0
  }
}
layer {
  name: "conv0_3/scale"
  type: "Scale"
  bottom: "conv0_3/bn"
  top: "conv0_3/bn"
  scale_param {
    filler {
      value: 1
    }
    bias_term: true
    bias_filler {
      value: 0
    }
  }
}
layer {
  name: "relu0_3"
  type: "ReLU"
  bottom: "conv0_3/bn"
  top: "conv0_3/bn"
}
layer {
  name: "conv0_3"
  type: "Convolution"
  bottom: "conv0_3/bn"
  top: "conv0_3"
  convolution_param {
    num_output: 32
    bias_term: false
    pad: 1
    kernel_size: 3
    stride: 1
    weight_filler {
      type: "msra"
    }
    bias_filler {
      type: "constant"
    }
    engine: CUDNN
  }
}
layer {
  name: "concat0_3"
  type: "Concat"
  bottom: "concat0_2"
  bottom: "conv0_3"
  top: "concat0_3"
  concat_param {
    axis: 1
  }
}
layer {
  name: "conv0_4/bn"
  type: "BatchNorm"
  bottom: "concat0_3"
  top: "conv0_4/bn"
  param {
    lr_mult: 0
    decay_mult: 0
  }
  param {
    lr_mult: 0
    decay_mult: 0
  }
  param {
    lr_mult: 0
    decay_mult: 0
  }
}
layer {
  name: "conv0_4/scale"
  type: "Scale"
  bottom: "conv0_4/bn"
  top: "conv0_4/bn"
  scale_param {
    filler {
      value: 1
    }
    bias_term: true
    bias_filler {
      value: 0
    }
  }
}
layer {
  name: "relu0_4"
  type: "ReLU"
  bottom: "conv0_4/bn"
  top: "conv0_4/bn"
}
layer {
  name: "conv0_4"
  type: "Convolution"
  bottom: "conv0_4/bn"
  top: "conv0_4"
  convolution_param {
    num_output: 32
    bias_term: false
    pad: 1
    kernel_size: 3
    stride: 1
    weight_filler {
      type: "msra"
    }
    bias_filler {
      type: "constant"
    }
    engine: CUDNN
  }
}
layer {
  name: "concat0_4"
  type: "Concat"
  bottom: "concat0_3"
  bottom: "conv0_4"
  top: "concat0_4"
  concat_param {
    axis: 1
  }
}
layer {
  name: "conv0_5/bn"
  type: "BatchNorm"
  bottom: "concat0_4"
  top: "conv0_5/bn"
  param {
    lr_mult: 0
    decay_mult: 0
  }
  param {
    lr_mult: 0
    decay_mult: 0
  }
  param {
    lr_mult: 0
    decay_mult: 0
  }
}
layer {
  name: "conv0_5/scale"
  type: "Scale"
  bottom: "conv0_5/bn"
  top: "conv0_5/bn"
  scale_param {
    filler {
      value: 1
    }
    bias_term: true
    bias_filler {
      value: 0
    }
  }
}
layer {
  name: "relu0_5"
  type: "ReLU"
  bottom: "conv0_5/bn"
  top: "conv0_5/bn"
}
layer {
  name: "conv0_5"
  type: "Convolution"
  bottom: "conv0_5/bn"
  top: "conv0_5"
  convolution_param {
    num_output: 32
    bias_term: false
    pad: 1
    kernel_size: 3
    stride: 1
    weight_filler {
      type: "msra"
    }
    bias_filler {
      type: "constant"
    }
    engine: CUDNN
  }
}
layer {
  name: "concat0_5"
  type: "Concat"
  bottom: "concat0_4"
  bottom: "conv0_5"
  top: "concat0_5"
  concat_param {
    axis: 1
  }
}
layer {
  name: "conv0_6/bn"
  type: "BatchNorm"
  bottom: "concat0_5"
  top: "conv0_6/bn"
  param {
    lr_mult: 0
    decay_mult: 0
  }
  param {
    lr_mult: 0
    decay_mult: 0
  }
  param {
    lr_mult: 0
    decay_mult: 0
  }
}
layer {
  name: "conv0_6/scale"
  type: "Scale"
  bottom: "conv0_6/bn"
  top: "conv0_6/bn"
  scale_param {
    filler {
      value: 1
    }
    bias_term: true
    bias_filler {
      value: 0
    }
  }
}
layer {
  name: "relu0_6"
  type: "ReLU"
  bottom: "conv0_6/bn"
  top: "conv0_6/bn"
}
layer {
  name: "conv0_6"
  type: "Convolution"
  bottom: "conv0_6/bn"
  top: "conv0_6"
  convolution_param {
    num_output: 32
    bias_term: false
    pad: 1
    kernel_size: 3
    stride: 1
    weight_filler {
      type: "msra"
    }
    bias_filler {
      type: "constant"
    }
    engine: CUDNN
  }
}
layer {
  name: "concat0_6"
  type: "Concat"
  bottom: "concat0_5"
  bottom: "conv0_6"
  top: "concat0_6"
  concat_param {
    axis: 1
  }
}
layer {
  name: "conv0_7/bn"
  type: "BatchNorm"
  bottom: "concat0_6"
  top: "conv0_7/bn"
  param {
    lr_mult: 0
    decay_mult: 0
  }
  param {
    lr_mult: 0
    decay_mult: 0
  }
  param {
    lr_mult: 0
    decay_mult: 0
  }
}
layer {
  name: "conv0_7/scale"
  type: "Scale"
  bottom: "conv0_7/bn"
  top: "conv0_7/bn"
  scale_param {
    filler {
      value: 1
    }
    bias_term: true
    bias_filler {
      value: 0
    }
  }
}
layer {
  name: "relu0_7"
  type: "ReLU"
  bottom: "conv0_7/bn"
  top: "conv0_7/bn"
}
layer {
  name: "conv0_7"
  type: "Convolution"
  bottom: "conv0_7/bn"
  top: "conv0_7"
  convolution_param {
    num_output: 32
    bias_term: false
    pad: 1
    kernel_size: 3
    stride: 1
    weight_filler {
      type: "msra"
    }
    bias_filler {
      type: "constant"
    }
    engine: CUDNN
  }
}
layer {
  name: "concat0_7"
  type: "Concat"
  bottom: "concat0_6"
  bottom: "conv0_7"
  top: "concat0_7"
  concat_param {
    axis: 1
  }
}
layer {
  name: "conv0_8/bn"
  type: "BatchNorm"
  bottom: "concat0_7"
  top: "conv0_8/bn"
  param {
    lr_mult: 0
    decay_mult: 0
  }
  param {
    lr_mult: 0
    decay_mult: 0
  }
  param {
    lr_mult: 0
    decay_mult: 0
  }
}
layer {
  name: "conv0_8/scale"
  type: "Scale"
  bottom: "conv0_8/bn"
  top: "conv0_8/bn"
  scale_param {
    filler {
      value: 1
    }
    bias_term: true
    bias_filler {
      value: 0
    }
  }
}
layer {
  name: "relu0_8"
  type: "ReLU"
  bottom: "conv0_8/bn"
  top: "conv0_8/bn"
}
layer {
  name: "conv0_8"
  type: "Convolution"
  bottom: "conv0_8/bn"
  top: "conv0_8"
  convolution_param {
    num_output: 32
    bias_term: false
    pad: 1
    kernel_size: 3
    stride: 1
    weight_filler {
      type: "msra"
    }
    bias_filler {
      type: "constant"
    }
    engine: CUDNN
  }
}
layer {
  name: "concat0_8"
  type: "Concat"
  bottom: "concat0_7"
  bottom: "conv0_8"
  top: "concat0_8"
  concat_param {
    axis: 1
  }
}
layer {
  name: "conv0_9/bn"
  type: "BatchNorm"
  bottom: "concat0_8"
  top: "conv0_9/bn"
  param {
    lr_mult: 0
    decay_mult: 0
  }
  param {
    lr_mult: 0
    decay_mult: 0
  }
  param {
    lr_mult: 0
    decay_mult: 0
  }
}
layer {
  name: "conv0_9/scale"
  type: "Scale"
  bottom: "conv0_9/bn"
  top: "conv0_9/bn"
  scale_param {
    filler {
      value: 1
    }
    bias_term: true
    bias_filler {
      value: 0
    }
  }
}
layer {
  name: "relu0_9"
  type: "ReLU"
  bottom: "conv0_9/bn"
  top: "conv0_9/bn"
}
layer {
  name: "conv0_9"
  type: "Convolution"
  bottom: "conv0_9/bn"
  top: "conv0_9"
  convolution_param {
    num_output: 32
    bias_term: false
    pad: 1
    kernel_size: 3
    stride: 1
    weight_filler {
      type: "msra"
    }
    bias_filler {
      type: "constant"
    }
    engine: CUDNN
  }
}
layer {
  name: "concat0_9"
  type: "Concat"
  bottom: "concat0_8"
  bottom: "conv0_9"
  top: "concat0_9"
  concat_param {
    axis: 1
  }
}
layer {
  name: "conv0_10/bn"
  type: "BatchNorm"
  bottom: "concat0_9"
  top: "conv0_10/bn"
  param {
    lr_mult: 0
    decay_mult: 0
  }
  param {
    lr_mult: 0
    decay_mult: 0
  }
  param {
    lr_mult: 0
    decay_mult: 0
  }
}
layer {
  name: "conv0_10/scale"
  type: "Scale"
  bottom: "conv0_10/bn"
  top: "conv0_10/bn"
  scale_param {
    filler {
      value: 1
    }
    bias_term: true
    bias_filler {
      value: 0
    }
  }
}
layer {
  name: "relu0_10"
  type: "ReLU"
  bottom: "conv0_10/bn"
  top: "conv0_10/bn"
}
layer {
  name: "conv0_10"
  type: "Convolution"
  bottom: "conv0_10/bn"
  top: "conv0_10"
  convolution_param {
    num_output: 32
    bias_term: false
    pad: 1
    kernel_size: 3
    stride: 1
    weight_filler {
      type: "msra"
    }
    bias_filler {
      type: "constant"
    }
    engine: CUDNN
  }
}
layer {
  name: "concat0_10"
  type: "Concat"
  bottom: "concat0_9"
  bottom: "conv0_10"
  top: "concat0_10"
  concat_param {
    axis: 1
  }
}
layer {
  name: "conv0_11/bn"
  type: "BatchNorm"
  bottom: "concat0_10"
  top: "conv0_11/bn"
  param {
    lr_mult: 0
    decay_mult: 0
  }
  param {
    lr_mult: 0
    decay_mult: 0
  }
  param {
    lr_mult: 0
    decay_mult: 0
  }
}
layer {
  name: "conv0_11/scale"
  type: "Scale"
  bottom: "conv0_11/bn"
  top: "conv0_11/bn"
  scale_param {
    filler {
      value: 1
    }
    bias_term: true
    bias_filler {
      value: 0
    }
  }
}
layer {
  name: "relu0_11"
  type: "ReLU"
  bottom: "conv0_11/bn"
  top: "conv0_11/bn"
}
layer {
  name: "conv0_11"
  type: "Convolution"
  bottom: "conv0_11/bn"
  top: "conv0_11"
  convolution_param {
    num_output: 32
    bias_term: false
    pad: 1
    kernel_size: 3
    stride: 1
    weight_filler {
      type: "msra"
    }
    bias_filler {
      type: "constant"
    }
    engine: CUDNN
  }
}
layer {
  name: "concat0_11"
  type: "Concat"
  bottom: "concat0_10"
  bottom: "conv0_11"
  top: "concat0_11"
  concat_param {
    axis: 1
  }
}
layer {
  name: "conv0_12/bn"
  type: "BatchNorm"
  bottom: "concat0_11"
  top: "conv0_12/bn"
  param {
    lr_mult: 0
    decay_mult: 0
  }
  param {
    lr_mult: 0
    decay_mult: 0
  }
  param {
    lr_mult: 0
    decay_mult: 0
  }
}
layer {
  name: "conv0_12/scale"
  type: "Scale"
  bottom: "conv0_12/bn"
  top: "conv0_12/bn"
  scale_param {
    filler {
      value: 1
    }
    bias_term: true
    bias_filler {
      value: 0
    }
  }
}
layer {
  name: "relu0_12"
  type: "ReLU"
  bottom: "conv0_12/bn"
  top: "conv0_12/bn"
}
layer {
  name: "conv0_12"
  type: "Convolution"
  bottom: "conv0_12/bn"
  top: "conv0_12"
  convolution_param {
    num_output: 32
    bias_term: false
    pad: 1
    kernel_size: 3
    stride: 1
    weight_filler {
      type: "msra"
    }
    bias_filler {
      type: "constant"
    }
    engine: CUDNN
  }
}
layer {
  name: "concat0_12"
  type: "Concat"
  bottom: "concat0_11"
  bottom: "conv0_12"
  top: "concat0_12"
  concat_param {
    axis: 1
  }
}
layer {
  name: "conv0_13/bn"
  type: "BatchNorm"
  bottom: "concat0_12"
  top: "conv0_13/bn"
  param {
    lr_mult: 0
    decay_mult: 0
  }
  param {
    lr_mult: 0
    decay_mult: 0
  }
  param {
    lr_mult: 0
    decay_mult: 0
  }
}
layer {
  name: "conv0_13/scale"
  type: "Scale"
  bottom: "conv0_13/bn"
  top: "conv0_13/bn"
  scale_param {
    filler {
      value: 1
    }
    bias_term: true
    bias_filler {
      value: 0
    }
  }
}
layer {
  name: "relu0_13"
  type: "ReLU"
  bottom: "conv0_13/bn"
  top: "conv0_13/bn"
}
layer {
  name: "conv0_13"
  type: "Convolution"
  bottom: "conv0_13/bn"
  top: "conv0_13"
  convolution_param {
    num_output: 32
    bias_term: false
    pad: 1
    kernel_size: 3
    stride: 1
    weight_filler {
      type: "msra"
    }
    bias_filler {
      type: "constant"
    }
    engine: CUDNN
  }
}
layer {
  name: "concat0_13"
  type: "Concat"
  bottom: "concat0_12"
  bottom: "conv0_13"
  top: "concat0_13"
  concat_param {
    axis: 1
  }
}
layer {
  name: "conv0_14/bn"
  type: "BatchNorm"
  bottom: "concat0_13"
  top: "conv0_14/bn"
  param {
    lr_mult: 0
    decay_mult: 0
  }
  param {
    lr_mult: 0
    decay_mult: 0
  }
  param {
    lr_mult: 0
    decay_mult: 0
  }
}
layer {
  name: "conv0_14/scale"
  type: "Scale"
  bottom: "conv0_14/bn"
  top: "conv0_14/bn"
  scale_param {
    filler {
      value: 1
    }
    bias_term: true
    bias_filler {
      value: 0
    }
  }
}
layer {
  name: "relu0_14"
  type: "ReLU"
  bottom: "conv0_14/bn"
  top: "conv0_14/bn"
}
layer {
  name: "conv0_14"
  type: "Convolution"
  bottom: "conv0_14/bn"
  top: "conv0_14"
  convolution_param {
    num_output: 32
    bias_term: false
    pad: 1
    kernel_size: 3
    stride: 1
    weight_filler {
      type: "msra"
    }
    bias_filler {
      type: "constant"
    }
    engine: CUDNN
  }
}
layer {
  name: "concat0_14"
  type: "Concat"
  bottom: "concat0_13"
  bottom: "conv0_14"
  top: "concat0_14"
  concat_param {
    axis: 1
  }
}
layer {
  name: "BatchNorm1"
  type: "BatchNorm"
  bottom: "concat0_14"
  top: "BatchNorm1"
  param {
    lr_mult: 0
    decay_mult: 0
  }
  param {
    lr_mult: 0
    decay_mult: 0
  }
  param {
    lr_mult: 0
    decay_mult: 0
  }
}
layer {
  name: "Scale1"
  type: "Scale"
  bottom: "BatchNorm1"
  top: "BatchNorm1"
  scale_param {
    filler {
      value: 1
    }
    bias_term: true
    bias_filler {
      value: 0
    }
  }
}
layer {
  name: "ReLU1"
  type: "ReLU"
  bottom: "BatchNorm1"
  top: "BatchNorm1"
}
layer {
  name: "conv0_blk"
  type: "Convolution"
  bottom: "BatchNorm1"
  top: "conv0_blk"
  convolution_param {
    num_output: 512
    bias_term: false
    pad: 0
    kernel_size: 1
    stride: 1
    weight_filler {
      type: "msra"
    }
    bias_filler {
      type: "constant"
    }
    engine: CUDNN
  }
}
layer {
  name: "pool0"
  type: "Pooling"
  bottom: "conv0_blk"
  top: "pool0"
  pooling_param {
    pool: AVE
    kernel_size: 2
    stride: 2
  }
}
layer {
  name: "conv1_0/bn"
  type: "BatchNorm"
  bottom: "pool0"
  top: "conv1_0/bn"
  param {
    lr_mult: 0
    decay_mult: 0
  }
  param {
    lr_mult: 0
    decay_mult: 0
  }
  param {
    lr_mult: 0
    decay_mult: 0
  }
}
layer {
  name: "conv1_0/scale"
  type: "Scale"
  bottom: "conv1_0/bn"
  top: "conv1_0/bn"
  scale_param {
    filler {
      value: 1
    }
    bias_term: true
    bias_filler {
      value: 0
    }
  }
}
layer {
  name: "relu1_0"
  type: "ReLU"
  bottom: "conv1_0/bn"
  top: "conv1_0/bn"
}
layer {
  name: "conv1_0"
  type: "Convolution"
  bottom: "conv1_0/bn"
  top: "conv1_0"
  convolution_param {
    num_output: 32
    bias_term: false
    pad: 1
    kernel_size: 3
    stride: 1
    weight_filler {
      type: "msra"
    }
    bias_filler {
      type: "constant"
    }
    engine: CUDNN
  }
}
layer {
  name: "concat1_0"
  type: "Concat"
  bottom: "pool0"
  bottom: "conv1_0"
  top: "concat1_0"
  concat_param {
    axis: 1
  }
}
layer {
  name: "conv1_1/bn"
  type: "BatchNorm"
  bottom: "concat1_0"
  top: "conv1_1/bn"
  param {
    lr_mult: 0
    decay_mult: 0
  }
  param {
    lr_mult: 0
    decay_mult: 0
  }
  param {
    lr_mult: 0
    decay_mult: 0
  }
}
layer {
  name: "conv1_1/scale"
  type: "Scale"
  bottom: "conv1_1/bn"
  top: "conv1_1/bn"
  scale_param {
    filler {
      value: 1
    }
    bias_term: true
    bias_filler {
      value: 0
    }
  }
}
layer {
  name: "relu1_1"
  type: "ReLU"
  bottom: "conv1_1/bn"
  top: "conv1_1/bn"
}
layer {
  name: "conv1_1"
  type: "Convolution"
  bottom: "conv1_1/bn"
  top: "conv1_1"
  convolution_param {
    num_output: 32
    bias_term: false
    pad: 1
    kernel_size: 3
    stride: 1
    weight_filler {
      type: "msra"
    }
    bias_filler {
      type: "constant"
    }
    engine: CUDNN
  }
}
layer {
  name: "concat1_1"
  type: "Concat"
  bottom: "concat1_0"
  bottom: "conv1_1"
  top: "concat1_1"
  concat_param {
    axis: 1
  }
}
layer {
  name: "conv1_2/bn"
  type: "BatchNorm"
  bottom: "concat1_1"
  top: "conv1_2/bn"
  param {
    lr_mult: 0
    decay_mult: 0
  }
  param {
    lr_mult: 0
    decay_mult: 0
  }
  param {
    lr_mult: 0
    decay_mult: 0
  }
}
layer {
  name: "conv1_2/scale"
  type: "Scale"
  bottom: "conv1_2/bn"
  top: "conv1_2/bn"
  scale_param {
    filler {
      value: 1
    }
    bias_term: true
    bias_filler {
      value: 0
    }
  }
}
layer {
  name: "relu1_2"
  type: "ReLU"
  bottom: "conv1_2/bn"
  top: "conv1_2/bn"
}
layer {
  name: "conv1_2"
  type: "Convolution"
  bottom: "conv1_2/bn"
  top: "conv1_2"
  convolution_param {
    num_output: 32
    bias_term: false
    pad: 1
    kernel_size: 3
    stride: 1
    weight_filler {
      type: "msra"
    }
    bias_filler {
      type: "constant"
    }
    engine: CUDNN
  }
}
layer {
  name: "concat1_2"
  type: "Concat"
  bottom: "concat1_1"
  bottom: "conv1_2"
  top: "concat1_2"
  concat_param {
    axis: 1
  }
}
layer {
  name: "conv1_3/bn"
  type: "BatchNorm"
  bottom: "concat1_2"
  top: "conv1_3/bn"
  param {
    lr_mult: 0
    decay_mult: 0
  }
  param {
    lr_mult: 0
    decay_mult: 0
  }
  param {
    lr_mult: 0
    decay_mult: 0
  }
}
layer {
  name: "conv1_3/scale"
  type: "Scale"
  bottom: "conv1_3/bn"
  top: "conv1_3/bn"
  scale_param {
    filler {
      value: 1
    }
    bias_term: true
    bias_filler {
      value: 0
    }
  }
}
layer {
  name: "relu1_3"
  type: "ReLU"
  bottom: "conv1_3/bn"
  top: "conv1_3/bn"
}
layer {
  name: "conv1_3"
  type: "Convolution"
  bottom: "conv1_3/bn"
  top: "conv1_3"
  convolution_param {
    num_output: 32
    bias_term: false
    pad: 1
    kernel_size: 3
    stride: 1
    weight_filler {
      type: "msra"
    }
    bias_filler {
      type: "constant"
    }
    engine: CUDNN
  }
}
layer {
  name: "concat1_3"
  type: "Concat"
  bottom: "concat1_2"
  bottom: "conv1_3"
  top: "concat1_3"
  concat_param {
    axis: 1
  }
}
layer {
  name: "conv1_4/bn"
  type: "BatchNorm"
  bottom: "concat1_3"
  top: "conv1_4/bn"
  param {
    lr_mult: 0
    decay_mult: 0
  }
  param {
    lr_mult: 0
    decay_mult: 0
  }
  param {
    lr_mult: 0
    decay_mult: 0
  }
}
layer {
  name: "conv1_4/scale"
  type: "Scale"
  bottom: "conv1_4/bn"
  top: "conv1_4/bn"
  scale_param {
    filler {
      value: 1
    }
    bias_term: true
    bias_filler {
      value: 0
    }
  }
}
layer {
  name: "relu1_4"
  type: "ReLU"
  bottom: "conv1_4/bn"
  top: "conv1_4/bn"
}
layer {
  name: "conv1_4"
  type: "Convolution"
  bottom: "conv1_4/bn"
  top: "conv1_4"
  convolution_param {
    num_output: 32
    bias_term: false
    pad: 1
    kernel_size: 3
    stride: 1
    weight_filler {
      type: "msra"
    }
    bias_filler {
      type: "constant"
    }
    engine: CUDNN
  }
}
layer {
  name: "concat1_4"
  type: "Concat"
  bottom: "concat1_3"
  bottom: "conv1_4"
  top: "concat1_4"
  concat_param {
    axis: 1
  }
}
layer {
  name: "conv1_5/bn"
  type: "BatchNorm"
  bottom: "concat1_4"
  top: "conv1_5/bn"
  param {
    lr_mult: 0
    decay_mult: 0
  }
  param {
    lr_mult: 0
    decay_mult: 0
  }
  param {
    lr_mult: 0
    decay_mult: 0
  }
}
layer {
  name: "conv1_5/scale"
  type: "Scale"
  bottom: "conv1_5/bn"
  top: "conv1_5/bn"
  scale_param {
    filler {
      value: 1
    }
    bias_term: true
    bias_filler {
      value: 0
    }
  }
}
layer {
  name: "relu1_5"
  type: "ReLU"
  bottom: "conv1_5/bn"
  top: "conv1_5/bn"
}
layer {
  name: "conv1_5"
  type: "Convolution"
  bottom: "conv1_5/bn"
  top: "conv1_5"
  convolution_param {
    num_output: 32
    bias_term: false
    pad: 1
    kernel_size: 3
    stride: 1
    weight_filler {
      type: "msra"
    }
    bias_filler {
      type: "constant"
    }
    engine: CUDNN
  }
}
layer {
  name: "concat1_5"
  type: "Concat"
  bottom: "concat1_4"
  bottom: "conv1_5"
  top: "concat1_5"
  concat_param {
    axis: 1
  }
}
layer {
  name: "conv1_6/bn"
  type: "BatchNorm"
  bottom: "concat1_5"
  top: "conv1_6/bn"
  param {
    lr_mult: 0
    decay_mult: 0
  }
  param {
    lr_mult: 0
    decay_mult: 0
  }
  param {
    lr_mult: 0
    decay_mult: 0
  }
}
layer {
  name: "conv1_6/scale"
  type: "Scale"
  bottom: "conv1_6/bn"
  top: "conv1_6/bn"
  scale_param {
    filler {
      value: 1
    }
    bias_term: true
    bias_filler {
      value: 0
    }
  }
}
layer {
  name: "relu1_6"
  type: "ReLU"
  bottom: "conv1_6/bn"
  top: "conv1_6/bn"
}
layer {
  name: "conv1_6"
  type: "Convolution"
  bottom: "conv1_6/bn"
  top: "conv1_6"
  convolution_param {
    num_output: 32
    bias_term: false
    pad: 1
    kernel_size: 3
    stride: 1
    weight_filler {
      type: "msra"
    }
    bias_filler {
      type: "constant"
    }
    engine: CUDNN
  }
}
layer {
  name: "concat1_6"
  type: "Concat"
  bottom: "concat1_5"
  bottom: "conv1_6"
  top: "concat1_6"
  concat_param {
    axis: 1
  }
}
layer {
  name: "conv1_7/bn"
  type: "BatchNorm"
  bottom: "concat1_6"
  top: "conv1_7/bn"
  param {
    lr_mult: 0
    decay_mult: 0
  }
  param {
    lr_mult: 0
    decay_mult: 0
  }
  param {
    lr_mult: 0
    decay_mult: 0
  }
}
layer {
  name: "conv1_7/scale"
  type: "Scale"
  bottom: "conv1_7/bn"
  top: "conv1_7/bn"
  scale_param {
    filler {
      value: 1
    }
    bias_term: true
    bias_filler {
      value: 0
    }
  }
}
layer {
  name: "relu1_7"
  type: "ReLU"
  bottom: "conv1_7/bn"
  top: "conv1_7/bn"
}
layer {
  name: "conv1_7"
  type: "Convolution"
  bottom: "conv1_7/bn"
  top: "conv1_7"
  convolution_param {
    num_output: 32
    bias_term: false
    pad: 1
    kernel_size: 3
    stride: 1
    weight_filler {
      type: "msra"
    }
    bias_filler {
      type: "constant"
    }
    engine: CUDNN
  }
}
layer {
  name: "concat1_7"
  type: "Concat"
  bottom: "concat1_6"
  bottom: "conv1_7"
  top: "concat1_7"
  concat_param {
    axis: 1
  }
}
layer {
  name: "conv1_8/bn"
  type: "BatchNorm"
  bottom: "concat1_7"
  top: "conv1_8/bn"
  param {
    lr_mult: 0
    decay_mult: 0
  }
  param {
    lr_mult: 0
    decay_mult: 0
  }
  param {
    lr_mult: 0
    decay_mult: 0
  }
}
layer {
  name: "conv1_8/scale"
  type: "Scale"
  bottom: "conv1_8/bn"
  top: "conv1_8/bn"
  scale_param {
    filler {
      value: 1
    }
    bias_term: true
    bias_filler {
      value: 0
    }
  }
}
layer {
  name: "relu1_8"
  type: "ReLU"
  bottom: "conv1_8/bn"
  top: "conv1_8/bn"
}
layer {
  name: "conv1_8"
  type: "Convolution"
  bottom: "conv1_8/bn"
  top: "conv1_8"
  convolution_param {
    num_output: 32
    bias_term: false
    pad: 1
    kernel_size: 3
    stride: 1
    weight_filler {
      type: "msra"
    }
    bias_filler {
      type: "constant"
    }
    engine: CUDNN
  }
}
layer {
  name: "concat1_8"
  type: "Concat"
  bottom: "concat1_7"
  bottom: "conv1_8"
  top: "concat1_8"
  concat_param {
    axis: 1
  }
}
layer {
  name: "conv1_9/bn"
  type: "BatchNorm"
  bottom: "concat1_8"
  top: "conv1_9/bn"
  param {
    lr_mult: 0
    decay_mult: 0
  }
  param {
    lr_mult: 0
    decay_mult: 0
  }
  param {
    lr_mult: 0
    decay_mult: 0
  }
}
layer {
  name: "conv1_9/scale"
  type: "Scale"
  bottom: "conv1_9/bn"
  top: "conv1_9/bn"
  scale_param {
    filler {
      value: 1
    }
    bias_term: true
    bias_filler {
      value: 0
    }
  }
}
layer {
  name: "relu1_9"
  type: "ReLU"
  bottom: "conv1_9/bn"
  top: "conv1_9/bn"
}
layer {
  name: "conv1_9"
  type: "Convolution"
  bottom: "conv1_9/bn"
  top: "conv1_9"
  convolution_param {
    num_output: 32
    bias_term: false
    pad: 1
    kernel_size: 3
    stride: 1
    weight_filler {
      type: "msra"
    }
    bias_filler {
      type: "constant"
    }
    engine: CUDNN
  }
}
layer {
  name: "concat1_9"
  type: "Concat"
  bottom: "concat1_8"
  bottom: "conv1_9"
  top: "concat1_9"
  concat_param {
    axis: 1
  }
}
layer {
  name: "conv1_10/bn"
  type: "BatchNorm"
  bottom: "concat1_9"
  top: "conv1_10/bn"
  param {
    lr_mult: 0
    decay_mult: 0
  }
  param {
    lr_mult: 0
    decay_mult: 0
  }
  param {
    lr_mult: 0
    decay_mult: 0
  }
}
layer {
  name: "conv1_10/scale"
  type: "Scale"
  bottom: "conv1_10/bn"
  top: "conv1_10/bn"
  scale_param {
    filler {
      value: 1
    }
    bias_term: true
    bias_filler {
      value: 0
    }
  }
}
layer {
  name: "relu1_10"
  type: "ReLU"
  bottom: "conv1_10/bn"
  top: "conv1_10/bn"
}
layer {
  name: "conv1_10"
  type: "Convolution"
  bottom: "conv1_10/bn"
  top: "conv1_10"
  convolution_param {
    num_output: 32
    bias_term: false
    pad: 1
    kernel_size: 3
    stride: 1
    weight_filler {
      type: "msra"
    }
    bias_filler {
      type: "constant"
    }
    engine: CUDNN
  }
}
layer {
  name: "concat1_10"
  type: "Concat"
  bottom: "concat1_9"
  bottom: "conv1_10"
  top: "concat1_10"
  concat_param {
    axis: 1
  }
}
layer {
  name: "conv1_11/bn"
  type: "BatchNorm"
  bottom: "concat1_10"
  top: "conv1_11/bn"
  param {
    lr_mult: 0
    decay_mult: 0
  }
  param {
    lr_mult: 0
    decay_mult: 0
  }
  param {
    lr_mult: 0
    decay_mult: 0
  }
}
layer {
  name: "conv1_11/scale"
  type: "Scale"
  bottom: "conv1_11/bn"
  top: "conv1_11/bn"
  scale_param {
    filler {
      value: 1
    }
    bias_term: true
    bias_filler {
      value: 0
    }
  }
}
layer {
  name: "relu1_11"
  type: "ReLU"
  bottom: "conv1_11/bn"
  top: "conv1_11/bn"
}
layer {
  name: "conv1_11"
  type: "Convolution"
  bottom: "conv1_11/bn"
  top: "conv1_11"
  convolution_param {
    num_output: 32
    bias_term: false
    pad: 1
    kernel_size: 3
    stride: 1
    weight_filler {
      type: "msra"
    }
    bias_filler {
      type: "constant"
    }
    engine: CUDNN
  }
}
layer {
  name: "concat1_11"
  type: "Concat"
  bottom: "concat1_10"
  bottom: "conv1_11"
  top: "concat1_11"
  concat_param {
    axis: 1
  }
}
layer {
  name: "conv1_12/bn"
  type: "BatchNorm"
  bottom: "concat1_11"
  top: "conv1_12/bn"
  param {
    lr_mult: 0
    decay_mult: 0
  }
  param {
    lr_mult: 0
    decay_mult: 0
  }
  param {
    lr_mult: 0
    decay_mult: 0
  }
}
layer {
  name: "conv1_12/scale"
  type: "Scale"
  bottom: "conv1_12/bn"
  top: "conv1_12/bn"
  scale_param {
    filler {
      value: 1
    }
    bias_term: true
    bias_filler {
      value: 0
    }
  }
}
layer {
  name: "relu1_12"
  type: "ReLU"
  bottom: "conv1_12/bn"
  top: "conv1_12/bn"
}
layer {
  name: "conv1_12"
  type: "Convolution"
  bottom: "conv1_12/bn"
  top: "conv1_12"
  convolution_param {
    num_output: 32
    bias_term: false
    pad: 1
    kernel_size: 3
    stride: 1
    weight_filler {
      type: "msra"
    }
    bias_filler {
      type: "constant"
    }
    engine: CUDNN
  }
}
layer {
  name: "concat1
I0214 17:24:17.413630 19209 layer_factory.hpp:77] Creating layer word_images
I0214 17:24:17.413731 19209 db_lmdb.cpp:35] Opened lmdb /data/fwolf/botany/botany_nti500000_pul2-3-4-5_train_word_images_lmdb
I0214 17:24:17.413758 19209 net.cpp:84] Creating Layer word_images
I0214 17:24:17.413764 19209 net.cpp:380] word_images -> word_images
I0214 17:24:17.413776 19209 net.cpp:380] word_images -> label
I0214 17:24:17.416230 19209 data_layer.cpp:44] output data size: 1,1,97,291
I0214 17:24:17.425261 19209 net.cpp:122] Setting up word_images
I0214 17:24:17.425281 19209 net.cpp:129] Top shape: 1 1 97 291 (28227)
I0214 17:24:17.425287 19209 net.cpp:129] Top shape: 1 (1)
I0214 17:24:17.425289 19209 net.cpp:137] Memory required for data: 112912
I0214 17:24:17.425294 19209 layer_factory.hpp:77] Creating layer phocs
I0214 17:24:17.425392 19209 db_lmdb.cpp:35] Opened lmdb /data/fwolf/botany/botany_nti500000_pul2-3-4-5_train_phocs_lmdb
I0214 17:24:17.425431 19209 net.cpp:84] Creating Layer phocs
I0214 17:24:17.425438 19209 net.cpp:380] phocs -> phocs
I0214 17:24:17.425447 19209 net.cpp:380] phocs -> label_phocs
I0214 17:24:17.425988 19209 data_layer.cpp:44] output data size: 1,1,1,926
I0214 17:24:17.431931 19209 net.cpp:122] Setting up phocs
I0214 17:24:17.431948 19209 net.cpp:129] Top shape: 1 1 1 926 (926)
I0214 17:24:17.431953 19209 net.cpp:129] Top shape: 1 (1)
I0214 17:24:17.431957 19209 net.cpp:137] Memory required for data: 116620
I0214 17:24:17.431962 19209 layer_factory.hpp:77] Creating layer conv_init
I0214 17:24:17.432001 19209 net.cpp:84] Creating Layer conv_init
I0214 17:24:17.432020 19209 net.cpp:406] conv_init <- word_images
I0214 17:24:17.432029 19209 net.cpp:380] conv_init -> conv_init
I0214 17:24:18.197887 19209 net.cpp:122] Setting up conv_init
I0214 17:24:18.197937 19209 net.cpp:129] Top shape: 1 32 97 291 (903264)
I0214 17:24:18.197948 19209 net.cpp:137] Memory required for data: 3729676
I0214 17:24:18.197968 19209 layer_factory.hpp:77] Creating layer bn_init
I0214 17:24:18.197989 19209 net.cpp:84] Creating Layer bn_init
I0214 17:24:18.197999 19209 net.cpp:406] bn_init <- conv_init
I0214 17:24:18.198012 19209 net.cpp:380] bn_init -> bn_init
I0214 17:24:18.198738 19209 net.cpp:122] Setting up bn_init
I0214 17:24:18.198760 19209 net.cpp:129] Top shape: 1 32 97 291 (903264)
I0214 17:24:18.198767 19209 net.cpp:137] Memory required for data: 7342732
I0214 17:24:18.198789 19209 layer_factory.hpp:77] Creating layer scale_init
I0214 17:24:18.198807 19209 net.cpp:84] Creating Layer scale_init
I0214 17:24:18.198814 19209 net.cpp:406] scale_init <- bn_init
I0214 17:24:18.198824 19209 net.cpp:367] scale_init -> bn_init (in-place)
I0214 17:24:18.198940 19209 layer_factory.hpp:77] Creating layer scale_init
I0214 17:24:18.199383 19209 net.cpp:122] Setting up scale_init
I0214 17:24:18.199403 19209 net.cpp:129] Top shape: 1 32 97 291 (903264)
I0214 17:24:18.199410 19209 net.cpp:137] Memory required for data: 10955788
I0214 17:24:18.199426 19209 layer_factory.hpp:77] Creating layer relu_init
I0214 17:24:18.199440 19209 net.cpp:84] Creating Layer relu_init
I0214 17:24:18.199448 19209 net.cpp:406] relu_init <- bn_init
I0214 17:24:18.199457 19209 net.cpp:367] relu_init -> bn_init (in-place)
I0214 17:24:18.201153 19209 net.cpp:122] Setting up relu_init
I0214 17:24:18.201176 19209 net.cpp:129] Top shape: 1 32 97 291 (903264)
I0214 17:24:18.201185 19209 net.cpp:137] Memory required for data: 14568844
I0214 17:24:18.201194 19209 layer_factory.hpp:77] Creating layer pool_init
I0214 17:24:18.201206 19209 net.cpp:84] Creating Layer pool_init
I0214 17:24:18.201213 19209 net.cpp:406] pool_init <- bn_init
I0214 17:24:18.201223 19209 net.cpp:380] pool_init -> pool_init
I0214 17:24:18.201344 19209 net.cpp:122] Setting up pool_init
I0214 17:24:18.201360 19209 net.cpp:129] Top shape: 1 32 49 146 (228928)
I0214 17:24:18.201369 19209 net.cpp:137] Memory required for data: 15484556
I0214 17:24:18.201375 19209 layer_factory.hpp:77] Creating layer pool_init_pool_init_0_split
I0214 17:24:18.201390 19209 net.cpp:84] Creating Layer pool_init_pool_init_0_split
I0214 17:24:18.201398 19209 net.cpp:406] pool_init_pool_init_0_split <- pool_init
I0214 17:24:18.201409 19209 net.cpp:380] pool_init_pool_init_0_split -> pool_init_pool_init_0_split_0
I0214 17:24:18.201422 19209 net.cpp:380] pool_init_pool_init_0_split -> pool_init_pool_init_0_split_1
I0214 17:24:18.201531 19209 net.cpp:122] Setting up pool_init_pool_init_0_split
I0214 17:24:18.201545 19209 net.cpp:129] Top shape: 1 32 49 146 (228928)
I0214 17:24:18.201552 19209 net.cpp:129] Top shape: 1 32 49 146 (228928)
I0214 17:24:18.201557 19209 net.cpp:137] Memory required for data: 17315980
I0214 17:24:18.201565 19209 layer_factory.hpp:77] Creating layer conv0_0/bn
I0214 17:24:18.201578 19209 net.cpp:84] Creating Layer conv0_0/bn
I0214 17:24:18.201584 19209 net.cpp:406] conv0_0/bn <- pool_init_pool_init_0_split_0
I0214 17:24:18.201602 19209 net.cpp:380] conv0_0/bn -> conv0_0/bn
I0214 17:24:18.204691 19209 net.cpp:122] Setting up conv0_0/bn
I0214 17:24:18.204711 19209 net.cpp:129] Top shape: 1 32 49 146 (228928)
I0214 17:24:18.204718 19209 net.cpp:137] Memory required for data: 18231692
I0214 17:24:18.204737 19209 layer_factory.hpp:77] Creating layer conv0_0/scale
I0214 17:24:18.204751 19209 net.cpp:84] Creating Layer conv0_0/scale
I0214 17:24:18.204758 19209 net.cpp:406] conv0_0/scale <- conv0_0/bn
I0214 17:24:18.204767 19209 net.cpp:367] conv0_0/scale -> conv0_0/bn (in-place)
I0214 17:24:18.204874 19209 layer_factory.hpp:77] Creating layer conv0_0/scale
I0214 17:24:18.205219 19209 net.cpp:122] Setting up conv0_0/scale
I0214 17:24:18.205230 19209 net.cpp:129] Top shape: 1 32 49 146 (228928)
I0214 17:24:18.205237 19209 net.cpp:137] Memory required for data: 19147404
I0214 17:24:18.205248 19209 layer_factory.hpp:77] Creating layer relu0_0
I0214 17:24:18.205257 19209 net.cpp:84] Creating Layer relu0_0
I0214 17:24:18.205265 19209 net.cpp:406] relu0_0 <- conv0_0/bn
I0214 17:24:18.205274 19209 net.cpp:367] relu0_0 -> conv0_0/bn (in-place)
I0214 17:24:18.205629 19209 net.cpp:122] Setting up relu0_0
I0214 17:24:18.205644 19209 net.cpp:129] Top shape: 1 32 49 146 (228928)
I0214 17:24:18.205651 19209 net.cpp:137] Memory required for data: 20063116
I0214 17:24:18.205657 19209 layer_factory.hpp:77] Creating layer conv0_0
I0214 17:24:18.205675 19209 net.cpp:84] Creating Layer conv0_0
I0214 17:24:18.205682 19209 net.cpp:406] conv0_0 <- conv0_0/bn
I0214 17:24:18.205695 19209 net.cpp:380] conv0_0 -> conv0_0
I0214 17:24:18.209206 19209 net.cpp:122] Setting up conv0_0
I0214 17:24:18.209229 19209 net.cpp:129] Top shape: 1 32 49 146 (228928)
I0214 17:24:18.209235 19209 net.cpp:137] Memory required for data: 20978828
I0214 17:24:18.209246 19209 layer_factory.hpp:77] Creating layer concat0_0
I0214 17:24:18.209259 19209 net.cpp:84] Creating Layer concat0_0
I0214 17:24:18.209265 19209 net.cpp:406] concat0_0 <- pool_init_pool_init_0_split_1
I0214 17:24:18.209275 19209 net.cpp:406] concat0_0 <- conv0_0
I0214 17:24:18.209285 19209 net.cpp:380] concat0_0 -> concat0_0
I0214 17:24:18.209349 19209 net.cpp:122] Setting up concat0_0
I0214 17:24:18.209360 19209 net.cpp:129] Top shape: 1 64 49 146 (457856)
I0214 17:24:18.209367 19209 net.cpp:137] Memory required for data: 22810252
I0214 17:24:18.209372 19209 layer_factory.hpp:77] Creating layer concat0_0_concat0_0_0_split
I0214 17:24:18.209381 19209 net.cpp:84] Creating Layer concat0_0_concat0_0_0_split
I0214 17:24:18.209388 19209 net.cpp:406] concat0_0_concat0_0_0_split <- concat0_0
I0214 17:24:18.209396 19209 net.cpp:380] concat0_0_concat0_0_0_split -> concat0_0_concat0_0_0_split_0
I0214 17:24:18.209408 19209 net.cpp:380] concat0_0_concat0_0_0_split -> concat0_0_concat0_0_0_split_1
I0214 17:24:18.209501 19209 net.cpp:122] Setting up concat0_0_concat0_0_0_split
I0214 17:24:18.209511 19209 net.cpp:129] Top shape: 1 64 49 146 (457856)
I0214 17:24:18.209519 19209 net.cpp:129] Top shape: 1 64 49 146 (457856)
I0214 17:24:18.209525 19209 net.cpp:137] Memory required for data: 26473100
I0214 17:24:18.209532 19209 layer_factory.hpp:77] Creating layer conv0_1/bn
I0214 17:24:18.209540 19209 net.cpp:84] Creating Layer conv0_1/bn
I0214 17:24:18.209547 19209 net.cpp:406] conv0_1/bn <- concat0_0_concat0_0_0_split_0
I0214 17:24:18.209558 19209 net.cpp:380] conv0_1/bn -> conv0_1/bn
I0214 17:24:18.210129 19209 net.cpp:122] Setting up conv0_1/bn
I0214 17:24:18.210141 19209 net.cpp:129] Top shape: 1 64 49 146 (457856)
I0214 17:24:18.210147 19209 net.cpp:137] Memory required for data: 28304524
I0214 17:24:18.210160 19209 layer_factory.hpp:77] Creating layer conv0_1/scale
I0214 17:24:18.210175 19209 net.cpp:84] Creating Layer conv0_1/scale
I0214 17:24:18.210180 19209 net.cpp:406] conv0_1/scale <- conv0_1/bn
I0214 17:24:18.210189 19209 net.cpp:367] conv0_1/scale -> conv0_1/bn (in-place)
I0214 17:24:18.210288 19209 layer_factory.hpp:77] Creating layer conv0_1/scale
I0214 17:24:18.210624 19209 net.cpp:122] Setting up conv0_1/scale
I0214 17:24:18.210641 19209 net.cpp:129] Top shape: 1 64 49 146 (457856)
I0214 17:24:18.210647 19209 net.cpp:137] Memory required for data: 30135948
I0214 17:24:18.210662 19209 layer_factory.hpp:77] Creating layer relu0_1
I0214 17:24:18.210674 19209 net.cpp:84] Creating Layer relu0_1
I0214 17:24:18.210680 19209 net.cpp:406] relu0_1 <- conv0_1/bn
I0214 17:24:18.210688 19209 net.cpp:367] relu0_1 -> conv0_1/bn (in-place)
I0214 17:24:18.211033 19209 net.cpp:122] Setting up relu0_1
I0214 17:24:18.211047 19209 net.cpp:129] Top shape: 1 64 49 146 (457856)
I0214 17:24:18.211055 19209 net.cpp:137] Memory required for data: 31967372
I0214 17:24:18.211061 19209 layer_factory.hpp:77] Creating layer conv0_1
I0214 17:24:18.211077 19209 net.cpp:84] Creating Layer conv0_1
I0214 17:24:18.211084 19209 net.cpp:406] conv0_1 <- conv0_1/bn
I0214 17:24:18.211096 19209 net.cpp:380] conv0_1 -> conv0_1
I0214 17:24:18.217399 19209 net.cpp:122] Setting up conv0_1
I0214 17:24:18.217420 19209 net.cpp:129] Top shape: 1 32 49 146 (228928)
I0214 17:24:18.217427 19209 net.cpp:137] Memory required for data: 32883084
I0214 17:24:18.217437 19209 layer_factory.hpp:77] Creating layer concat0_1
I0214 17:24:18.217448 19209 net.cpp:84] Creating Layer concat0_1
I0214 17:24:18.217455 19209 net.cpp:406] concat0_1 <- concat0_0_concat0_0_0_split_1
I0214 17:24:18.217463 19209 net.cpp:406] concat0_1 <- conv0_1
I0214 17:24:18.217475 19209 net.cpp:380] concat0_1 -> concat0_1
I0214 17:24:18.217540 19209 net.cpp:122] Setting up concat0_1
I0214 17:24:18.217551 19209 net.cpp:129] Top shape: 1 96 49 146 (686784)
I0214 17:24:18.217557 19209 net.cpp:137] Memory required for data: 35630220
I0214 17:24:18.217563 19209 layer_factory.hpp:77] Creating layer concat0_1_concat0_1_0_split
I0214 17:24:18.217576 19209 net.cpp:84] Creating Layer concat0_1_concat0_1_0_split
I0214 17:24:18.217581 19209 net.cpp:406] concat0_1_concat0_1_0_split <- concat0_1
I0214 17:24:18.217591 19209 net.cpp:380] concat0_1_concat0_1_0_split -> concat0_1_concat0_1_0_split_0
I0214 17:24:18.217600 19209 net.cpp:380] concat0_1_concat0_1_0_split -> concat0_1_concat0_1_0_split_1
I0214 17:24:18.217694 19209 net.cpp:122] Setting up concat0_1_concat0_1_0_split
I0214 17:24:18.217703 19209 net.cpp:129] Top shape: 1 96 49 146 (686784)
I0214 17:24:18.217711 19209 net.cpp:129] Top shape: 1 96 49 146 (686784)
I0214 17:24:18.217717 19209 net.cpp:137] Memory required for data: 41124492
I0214 17:24:18.217723 19209 layer_factory.hpp:77] Creating layer conv0_2/bn
I0214 17:24:18.217736 19209 net.cpp:84] Creating Layer conv0_2/bn
I0214 17:24:18.217742 19209 net.cpp:406] conv0_2/bn <- concat0_1_concat0_1_0_split_0
I0214 17:24:18.217751 19209 net.cpp:380] conv0_2/bn -> conv0_2/bn
I0214 17:24:18.218343 19209 net.cpp:122] Setting up conv0_2/bn
I0214 17:24:18.218355 19209 net.cpp:129] Top shape: 1 96 49 146 (686784)
I0214 17:24:18.218361 19209 net.cpp:137] Memory required for data: 43871628
I0214 17:24:18.218375 19209 layer_factory.hpp:77] Creating layer conv0_2/scale
I0214 17:24:18.218389 19209 net.cpp:84] Creating Layer conv0_2/scale
I0214 17:24:18.218394 19209 net.cpp:406] conv0_2/scale <- conv0_2/bn
I0214 17:24:18.218403 19209 net.cpp:367] conv0_2/scale -> conv0_2/bn (in-place)
I0214 17:24:18.218502 19209 layer_factory.hpp:77] Creating layer conv0_2/scale
I0214 17:24:18.218870 19209 net.cpp:122] Setting up conv0_2/scale
I0214 17:24:18.218885 19209 net.cpp:129] Top shape: 1 96 49 146 (686784)
I0214 17:24:18.218891 19209 net.cpp:137] Memory required for data: 46618764
I0214 17:24:18.218904 19209 layer_factory.hpp:77] Creating layer relu0_2
I0214 17:24:18.218912 19209 net.cpp:84] Creating Layer relu0_2
I0214 17:24:18.218919 19209 net.cpp:406] relu0_2 <- conv0_2/bn
I0214 17:24:18.218927 19209 net.cpp:367] relu0_2 -> conv0_2/bn (in-place)
I0214 17:24:18.220585 19209 net.cpp:122] Setting up relu0_2
I0214 17:24:18.220607 19209 net.cpp:129] Top shape: 1 96 49 146 (686784)
I0214 17:24:18.220613 19209 net.cpp:137] Memory required for data: 49365900
I0214 17:24:18.220620 19209 layer_factory.hpp:77] Creating layer conv0_2
I0214 17:24:18.220651 19209 net.cpp:84] Creating Layer conv0_2
I0214 17:24:18.220659 19209 net.cpp:406] conv0_2 <- conv0_2/bn
I0214 17:24:18.220674 19209 net.cpp:380] conv0_2 -> conv0_2
I0214 17:24:18.225153 19209 net.cpp:122] Setting up conv0_2
I0214 17:24:18.225177 19209 net.cpp:129] Top shape: 1 32 49 146 (228928)
I0214 17:24:18.225184 19209 net.cpp:137] Memory required for data: 50281612
I0214 17:24:18.225196 19209 layer_factory.hpp:77] Creating layer concat0_2
I0214 17:24:18.225212 19209 net.cpp:84] Creating Layer concat0_2
I0214 17:24:18.225220 19209 net.cpp:406] concat0_2 <- concat0_1_concat0_1_0_split_1
I0214 17:24:18.225230 19209 net.cpp:406] concat0_2 <- conv0_2
I0214 17:24:18.225244 19209 net.cpp:380] concat0_2 -> concat0_2
I0214 17:24:18.225314 19209 net.cpp:122] Setting up concat0_2
I0214 17:24:18.225328 19209 net.cpp:129] Top shape: 1 128 49 146 (915712)
I0214 17:24:18.225335 19209 net.cpp:137] Memory required for data: 53944460
I0214 17:24:18.225342 19209 layer_factory.hpp:77] Creating layer concat0_2_concat0_2_0_split
I0214 17:24:18.225352 19209 net.cpp:84] Creating Layer concat0_2_concat0_2_0_split
I0214 17:24:18.225359 19209 net.cpp:406] concat0_2_concat0_2_0_split <- concat0_2
I0214 17:24:18.225374 19209 net.cpp:380] concat0_2_concat0_2_0_split -> concat0_2_concat0_2_0_split_0
I0214 17:24:18.225388 19209 net.cpp:380] concat0_2_concat0_2_0_split -> concat0_2_concat0_2_0_split_1
I0214 17:24:18.225497 19209 net.cpp:122] Setting up concat0_2_concat0_2_0_split
I0214 17:24:18.225512 19209 net.cpp:129] Top shape: 1 128 49 146 (915712)
I0214 17:24:18.225522 19209 net.cpp:129] Top shape: 1 128 49 146 (915712)
I0214 17:24:18.225527 19209 net.cpp:137] Memory required for data: 61270156
I0214 17:24:18.225533 19209 layer_factory.hpp:77] Creating layer conv0_3/bn
I0214 17:24:18.225554 19209 net.cpp:84] Creating Layer conv0_3/bn
I0214 17:24:18.225563 19209 net.cpp:406] conv0_3/bn <- concat0_2_concat0_2_0_split_0
I0214 17:24:18.225574 19209 net.cpp:380] conv0_3/bn -> conv0_3/bn
I0214 17:24:18.226239 19209 net.cpp:122] Setting up conv0_3/bn
I0214 17:24:18.226258 19209 net.cpp:129] Top shape: 1 128 49 146 (915712)
I0214 17:24:18.226264 19209 net.cpp:137] Memory required for data: 64933004
I0214 17:24:18.226279 19209 layer_factory.hpp:77] Creating layer conv0_3/scale
I0214 17:24:18.226296 19209 net.cpp:84] Creating Layer conv0_3/scale
I0214 17:24:18.226305 19209 net.cpp:406] conv0_3/scale <- conv0_3/bn
I0214 17:24:18.226316 19209 net.cpp:367] conv0_3/scale -> conv0_3/bn (in-place)
I0214 17:24:18.226431 19209 layer_factory.hpp:77] Creating layer conv0_3/scale
I0214 17:24:18.226791 19209 net.cpp:122] Setting up conv0_3/scale
I0214 17:24:18.226807 19209 net.cpp:129] Top shape: 1 128 49 146 (915712)
I0214 17:24:18.226814 19209 net.cpp:137] Memory required for data: 68595852
I0214 17:24:18.226826 19209 layer_factory.hpp:77] Creating layer relu0_3
I0214 17:24:18.226841 19209 net.cpp:84] Creating Layer relu0_3
I0214 17:24:18.226848 19209 net.cpp:406] relu0_3 <- conv0_3/bn
I0214 17:24:18.226858 19209 net.cpp:367] relu0_3 -> conv0_3/bn (in-place)
I0214 17:24:18.227218 19209 net.cpp:122] Setting up relu0_3
I0214 17:24:18.227236 19209 net.cpp:129] Top shape: 1 128 49 146 (915712)
I0214 17:24:18.227244 19209 net.cpp:137] Memory required for data: 72258700
I0214 17:24:18.227252 19209 layer_factory.hpp:77] Creating layer conv0_3
I0214 17:24:18.227270 19209 net.cpp:84] Creating Layer conv0_3
I0214 17:24:18.227279 19209 net.cpp:406] conv0_3 <- conv0_3/bn
I0214 17:24:18.227294 19209 net.cpp:380] conv0_3 -> conv0_3
I0214 17:24:18.232753 19209 net.cpp:122] Setting up conv0_3
I0214 17:24:18.232771 19209 net.cpp:129] Top shape: 1 32 49 146 (228928)
I0214 17:24:18.232775 19209 net.cpp:137] Memory required for data: 73174412
I0214 17:24:18.232784 19209 layer_factory.hpp:77] Creating layer concat0_3
I0214 17:24:18.232791 19209 net.cpp:84] Creating Layer concat0_3
I0214 17:24:18.232796 19209 net.cpp:406] concat0_3 <- concat0_2_concat0_2_0_split_1
I0214 17:24:18.232801 19209 net.cpp:406] concat0_3 <- conv0_3
I0214 17:24:18.232807 19209 net.cpp:380] concat0_3 -> concat0_3
I0214 17:24:18.232866 19209 net.cpp:122] Setting up concat0_3
I0214 17:24:18.232872 19209 net.cpp:129] Top shape: 1 160 49 146 (1144640)
I0214 17:24:18.232877 19209 net.cpp:137] Memory required for data: 77752972
I0214 17:24:18.232879 19209 layer_factory.hpp:77] Creating layer concat0_3_concat0_3_0_split
I0214 17:24:18.232885 19209 net.cpp:84] Creating Layer concat0_3_concat0_3_0_split
I0214 17:24:18.232889 19209 net.cpp:406] concat0_3_concat0_3_0_split <- concat0_3
I0214 17:24:18.232895 19209 net.cpp:380] concat0_3_concat0_3_0_split -> concat0_3_concat0_3_0_split_0
I0214 17:24:18.232904 19209 net.cpp:380] concat0_3_concat0_3_0_split -> concat0_3_concat0_3_0_split_1
I0214 17:24:18.232970 19209 net.cpp:122] Setting up concat0_3_concat0_3_0_split
I0214 17:24:18.232978 19209 net.cpp:129] Top shape: 1 160 49 146 (1144640)
I0214 17:24:18.232982 19209 net.cpp:129] Top shape: 1 160 49 146 (1144640)
I0214 17:24:18.232986 19209 net.cpp:137] Memory required for data: 86910092
I0214 17:24:18.232990 19209 layer_factory.hpp:77] Creating layer conv0_4/bn
I0214 17:24:18.233000 19209 net.cpp:84] Creating Layer conv0_4/bn
I0214 17:24:18.233003 19209 net.cpp:406] conv0_4/bn <- concat0_3_concat0_3_0_split_0
I0214 17:24:18.233009 19209 net.cpp:380] conv0_4/bn -> conv0_4/bn
I0214 17:24:18.233420 19209 net.cpp:122] Setting up conv0_4/bn
I0214 17:24:18.233429 19209 net.cpp:129] Top shape: 1 160 49 146 (1144640)
I0214 17:24:18.233433 19209 net.cpp:137] Memory required for data: 91488652
I0214 17:24:18.233446 19209 layer_factory.hpp:77] Creating layer conv0_4/scale
I0214 17:24:18.233456 19209 net.cpp:84] Creating Layer conv0_4/scale
I0214 17:24:18.233460 19209 net.cpp:406] conv0_4/scale <- conv0_4/bn
I0214 17:24:18.233466 19209 net.cpp:367] conv0_4/scale -> conv0_4/bn (in-place)
I0214 17:24:18.233536 19209 layer_factory.hpp:77] Creating layer conv0_4/scale
I0214 17:24:18.233763 19209 net.cpp:122] Setting up conv0_4/scale
I0214 17:24:18.233772 19209 net.cpp:129] Top shape: 1 160 49 146 (1144640)
I0214 17:24:18.233775 19209 net.cpp:137] Memory required for data: 96067212
I0214 17:24:18.233781 19209 layer_factory.hpp:77] Creating layer relu0_4
I0214 17:24:18.233791 19209 net.cpp:84] Creating Layer relu0_4
I0214 17:24:18.233795 19209 net.cpp:406] relu0_4 <- conv0_4/bn
I0214 17:24:18.233801 19209 net.cpp:367] relu0_4 -> conv0_4/bn (in-place)
I0214 17:24:18.234047 19209 net.cpp:122] Setting up relu0_4
I0214 17:24:18.234056 19209 net.cpp:129] Top shape: 1 160 49 146 (1144640)
I0214 17:24:18.234061 19209 net.cpp:137] Memory required for data: 100645772
I0214 17:24:18.234064 19209 layer_factory.hpp:77] Creating layer conv0_4
I0214 17:24:18.234076 19209 net.cpp:84] Creating Layer conv0_4
I0214 17:24:18.234081 19209 net.cpp:406] conv0_4 <- conv0_4/bn
I0214 17:24:18.234089 19209 net.cpp:380] conv0_4 -> conv0_4
I0214 17:24:18.237759 19209 net.cpp:122] Setting up conv0_4
I0214 17:24:18.237776 19209 net.cpp:129] Top shape: 1 32 49 146 (228928)
I0214 17:24:18.237779 19209 net.cpp:137] Memory required for data: 101561484
I0214 17:24:18.237787 19209 layer_factory.hpp:77] Creating layer concat0_4
I0214 17:24:18.237795 19209 net.cpp:84] Creating Layer concat0_4
I0214 17:24:18.237800 19209 net.cpp:406] concat0_4 <- concat0_3_concat0_3_0_split_1
I0214 17:24:18.237807 19209 net.cpp:406] concat0_4 <- conv0_4
I0214 17:24:18.237812 19209 net.cpp:380] concat0_4 -> concat0_4
I0214 17:24:18.237859 19209 net.cpp:122] Setting up concat0_4
I0214 17:24:18.237865 19209 net.cpp:129] Top shape: 1 192 49 146 (1373568)
I0214 17:24:18.237869 19209 net.cpp:137] Memory required for data: 107055756
I0214 17:24:18.237872 19209 layer_factory.hpp:77] Creating layer concat0_4_concat0_4_0_split
I0214 17:24:18.237880 19209 net.cpp:84] Creating Layer concat0_4_concat0_4_0_split
I0214 17:24:18.237884 19209 net.cpp:406] concat0_4_concat0_4_0_split <- concat0_4
I0214 17:24:18.237890 19209 net.cpp:380] concat0_4_concat0_4_0_split -> concat0_4_concat0_4_0_split_0
I0214 17:24:18.237900 19209 net.cpp:380] concat0_4_concat0_4_0_split -> concat0_4_concat0_4_0_split_1
I0214 17:24:18.237967 19209 net.cpp:122] Setting up concat0_4_concat0_4_0_split
I0214 17:24:18.237977 19209 net.cpp:129] Top shape: 1 192 49 146 (1373568)
I0214 17:24:18.237982 19209 net.cpp:129] Top shape: 1 192 49 146 (1373568)
I0214 17:24:18.237987 19209 net.cpp:137] Memory required for data: 118044300
I0214 17:24:18.237989 19209 layer_factory.hpp:77] Creating layer conv0_5/bn
I0214 17:24:18.238001 19209 net.cpp:84] Creating Layer conv0_5/bn
I0214 17:24:18.238005 19209 net.cpp:406] conv0_5/bn <- concat0_4_concat0_4_0_split_0
I0214 17:24:18.238011 19209 net.cpp:380] conv0_5/bn -> conv0_5/bn
I0214 17:24:18.238416 19209 net.cpp:122] Setting up conv0_5/bn
I0214 17:24:18.238425 19209 net.cpp:129] Top shape: 1 192 49 146 (1373568)
I0214 17:24:18.238427 19209 net.cpp:137] Memory required for data: 123538572
I0214 17:24:18.238435 19209 layer_factory.hpp:77] Creating layer conv0_5/scale
I0214 17:24:18.238445 19209 net.cpp:84] Creating Layer conv0_5/scale
I0214 17:24:18.238450 19209 net.cpp:406] conv0_5/scale <- conv0_5/bn
I0214 17:24:18.238456 19209 net.cpp:367] conv0_5/scale -> conv0_5/bn (in-place)
I0214 17:24:18.238524 19209 layer_factory.hpp:77] Creating layer conv0_5/scale
I0214 17:24:18.238755 19209 net.cpp:122] Setting up conv0_5/scale
I0214 17:24:18.238764 19209 net.cpp:129] Top shape: 1 192 49 146 (1373568)
I0214 17:24:18.238767 19209 net.cpp:137] Memory required for data: 129032844
I0214 17:24:18.238775 19209 layer_factory.hpp:77] Creating layer relu0_5
I0214 17:24:18.238783 19209 net.cpp:84] Creating Layer relu0_5
I0214 17:24:18.238788 19209 net.cpp:406] relu0_5 <- conv0_5/bn
I0214 17:24:18.238793 19209 net.cpp:367] relu0_5 -> conv0_5/bn (in-place)
I0214 17:24:18.240111 19209 net.cpp:122] Setting up relu0_5
I0214 17:24:18.240126 19209 net.cpp:129] Top shape: 1 192 49 146 (1373568)
I0214 17:24:18.240130 19209 net.cpp:137] Memory required for data: 134527116
I0214 17:24:18.240135 19209 layer_factory.hpp:77] Creating layer conv0_5
I0214 17:24:18.240149 19209 net.cpp:84] Creating Layer conv0_5
I0214 17:24:18.240152 19209 net.cpp:406] conv0_5 <- conv0_5/bn
I0214 17:24:18.240160 19209 net.cpp:380] conv0_5 -> conv0_5
I0214 17:24:18.245250 19209 net.cpp:122] Setting up conv0_5
I0214 17:24:18.245266 19209 net.cpp:129] Top shape: 1 32 49 146 (228928)
I0214 17:24:18.245270 19209 net.cpp:137] Memory required for data: 135442828
I0214 17:24:18.245277 19209 layer_factory.hpp:77] Creating layer concat0_5
I0214 17:24:18.245287 19209 net.cpp:84] Creating Layer concat0_5
I0214 17:24:18.245292 19209 net.cpp:406] concat0_5 <- concat0_4_concat0_4_0_split_1
I0214 17:24:18.245298 19209 net.cpp:406] concat0_5 <- conv0_5
I0214 17:24:18.245304 19209 net.cpp:380] concat0_5 -> concat0_5
I0214 17:24:18.245358 19209 net.cpp:122] Setting up concat0_5
I0214 17:24:18.245365 19209 net.cpp:129] Top shape: 1 224 49 146 (1602496)
I0214 17:24:18.245369 19209 net.cpp:137] Memory required for data: 141852812
I0214 17:24:18.245373 19209 layer_factory.hpp:77] Creating layer concat0_5_concat0_5_0_split
I0214 17:24:18.245378 19209 net.cpp:84] Creating Layer concat0_5_concat0_5_0_split
I0214 17:24:18.245383 19209 net.cpp:406] concat0_5_concat0_5_0_split <- concat0_5
I0214 17:24:18.245390 19209 net.cpp:380] concat0_5_concat0_5_0_split -> concat0_5_concat0_5_0_split_0
I0214 17:24:18.245396 19209 net.cpp:380] concat0_5_concat0_5_0_split -> concat0_5_concat0_5_0_split_1
I0214 17:24:18.245465 19209 net.cpp:122] Setting up concat0_5_concat0_5_0_split
I0214 17:24:18.245471 19209 net.cpp:129] Top shape: 1 224 49 146 (1602496)
I0214 17:24:18.245476 19209 net.cpp:129] Top shape: 1 224 49 146 (1602496)
I0214 17:24:18.245478 19209 net.cpp:137] Memory required for data: 154672780
I0214 17:24:18.245482 19209 layer_factory.hpp:77] Creating layer conv0_6/bn
I0214 17:24:18.245491 19209 net.cpp:84] Creating Layer conv0_6/bn
I0214 17:24:18.245494 19209 net.cpp:406] conv0_6/bn <- concat0_5_concat0_5_0_split_0
I0214 17:24:18.245502 19209 net.cpp:380] conv0_6/bn -> conv0_6/bn
I0214 17:24:18.245914 19209 net.cpp:122] Setting up conv0_6/bn
I0214 17:24:18.245923 19209 net.cpp:129] Top shape: 1 224 49 146 (1602496)
I0214 17:24:18.245929 19209 net.cpp:137] Memory required for data: 161082764
I0214 17:24:18.245939 19209 layer_factory.hpp:77] Creating layer conv0_6/scale
I0214 17:24:18.245945 19209 net.cpp:84] Creating Layer conv0_6/scale
I0214 17:24:18.245950 19209 net.cpp:406] conv0_6/scale <- conv0_6/bn
I0214 17:24:18.245957 19209 net.cpp:367] conv0_6/scale -> conv0_6/bn (in-place)
I0214 17:24:18.246029 19209 layer_factory.hpp:77] Creating layer conv0_6/scale
I0214 17:24:18.246266 19209 net.cpp:122] Setting up conv0_6/scale
I0214 17:24:18.246275 19209 net.cpp:129] Top shape: 1 224 49 146 (1602496)
I0214 17:24:18.246279 19209 net.cpp:137] Memory required for data: 167492748
I0214 17:24:18.246285 19209 layer_factory.hpp:77] Creating layer relu0_6
I0214 17:24:18.246295 19209 net.cpp:84] Creating Layer relu0_6
I0214 17:24:18.246299 19209 net.cpp:406] relu0_6 <- conv0_6/bn
I0214 17:24:18.246305 19209 net.cpp:367] relu0_6 -> conv0_6/bn (in-place)
I0214 17:24:18.246551 19209 net.cpp:122] Setting up relu0_6
I0214 17:24:18.246561 19209 net.cpp:129] Top shape: 1 224 49 146 (1602496)
I0214 17:24:18.246564 19209 net.cpp:137] Memory required for data: 173902732
I0214 17:24:18.246568 19209 layer_factory.hpp:77] Creating layer conv0_6
I0214 17:24:18.246579 19209 net.cpp:84] Creating Layer conv0_6
I0214 17:24:18.246584 19209 net.cpp:406] conv0_6 <- conv0_6/bn
I0214 17:24:18.246592 19209 net.cpp:380] conv0_6 -> conv0_6
I0214 17:24:18.251972 19209 net.cpp:122] Setting up conv0_6
I0214 17:24:18.251988 19209 net.cpp:129] Top shape: 1 32 49 146 (228928)
I0214 17:24:18.251992 19209 net.cpp:137] Memory required for data: 174818444
I0214 17:24:18.251999 19209 layer_factory.hpp:77] Creating layer concat0_6
I0214 17:24:18.252008 19209 net.cpp:84] Creating Layer concat0_6
I0214 17:24:18.252012 19209 net.cpp:406] concat0_6 <- concat0_5_concat0_5_0_split_1
I0214 17:24:18.252018 19209 net.cpp:406] concat0_6 <- conv0_6
I0214 17:24:18.252024 19209 net.cpp:380] concat0_6 -> concat0_6
I0214 17:24:18.252079 19209 net.cpp:122] Setting up concat0_6
I0214 17:24:18.252085 19209 net.cpp:129] Top shape: 1 256 49 146 (1831424)
I0214 17:24:18.252089 19209 net.cpp:137] Memory required for data: 182144140
I0214 17:24:18.252092 19209 layer_factory.hpp:77] Creating layer concat0_6_concat0_6_0_split
I0214 17:24:18.252099 19209 net.cpp:84] Creating Layer concat0_6_concat0_6_0_split
I0214 17:24:18.252102 19209 net.cpp:406] concat0_6_concat0_6_0_split <- concat0_6
I0214 17:24:18.252110 19209 net.cpp:380] concat0_6_concat0_6_0_split -> concat0_6_concat0_6_0_split_0
I0214 17:24:18.252117 19209 net.cpp:380] concat0_6_concat0_6_0_split -> concat0_6_concat0_6_0_split_1
I0214 17:24:18.252185 19209 net.cpp:122] Setting up concat0_6_concat0_6_0_split
I0214 17:24:18.252192 19209 net.cpp:129] Top shape: 1 256 49 146 (1831424)
I0214 17:24:18.252197 19209 net.cpp:129] Top shape: 1 256 49 146 (1831424)
I0214 17:24:18.252199 19209 net.cpp:137] Memory required for data: 196795532
I0214 17:24:18.252203 19209 layer_factory.hpp:77] Creating layer conv0_7/bn
I0214 17:24:18.252209 19209 net.cpp:84] Creating Layer conv0_7/bn
I0214 17:24:18.252213 19209 net.cpp:406] conv0_7/bn <- concat0_6_concat0_6_0_split_0
I0214 17:24:18.252224 19209 net.cpp:380] conv0_7/bn -> conv0_7/bn
I0214 17:24:18.252619 19209 net.cpp:122] Setting up conv0_7/bn
I0214 17:24:18.252626 19209 net.cpp:129] Top shape: 1 256 49 146 (1831424)
I0214 17:24:18.252637 19209 net.cpp:137] Memory required for data: 204121228
I0214 17:24:18.252645 19209 layer_factory.hpp:77] Creating layer conv0_7/scale
I0214 17:24:18.252653 19209 net.cpp:84] Creating Layer conv0_7/scale
I0214 17:24:18.252658 19209 net.cpp:406] conv0_7/scale <- conv0_7/bn
I0214 17:24:18.252666 19209 net.cpp:367] conv0_7/scale -> conv0_7/bn (in-place)
I0214 17:24:18.252738 19209 layer_factory.hpp:77] Creating layer conv0_7/scale
I0214 17:24:18.252952 19209 net.cpp:122] Setting up conv0_7/scale
I0214 17:24:18.252961 19209 net.cpp:129] Top shape: 1 256 49 146 (1831424)
I0214 17:24:18.252964 19209 net.cpp:137] Memory required for data: 211446924
I0214 17:24:18.252970 19209 layer_factory.hpp:77] Creating layer relu0_7
I0214 17:24:18.252981 19209 net.cpp:84] Creating Layer relu0_7
I0214 17:24:18.252985 19209 net.cpp:406] relu0_7 <- conv0_7/bn
I0214 17:24:18.252990 19209 net.cpp:367] relu0_7 -> conv0_7/bn (in-place)
I0214 17:24:18.253244 19209 net.cpp:122] Setting up relu0_7
I0214 17:24:18.253254 19209 net.cpp:129] Top shape: 1 256 49 146 (1831424)
I0214 17:24:18.253258 19209 net.cpp:137] Memory required for data: 218772620
I0214 17:24:18.253262 19209 layer_factory.hpp:77] Creating layer conv0_7
I0214 17:24:18.253275 19209 net.cpp:84] Creating Layer conv0_7
I0214 17:24:18.253280 19209 net.cpp:406] conv0_7 <- conv0_7/bn
I0214 17:24:18.253286 19209 net.cpp:380] conv0_7 -> conv0_7
I0214 17:24:18.260777 19209 net.cpp:122] Setting up conv0_7
I0214 17:24:18.260793 19209 net.cpp:129] Top shape: 1 32 49 146 (228928)
I0214 17:24:18.260797 19209 net.cpp:137] Memory required for data: 219688332
I0214 17:24:18.260804 19209 layer_factory.hpp:77] Creating layer concat0_7
I0214 17:24:18.260812 19209 net.cpp:84] Creating Layer concat0_7
I0214 17:24:18.260818 19209 net.cpp:406] concat0_7 <- concat0_6_concat0_6_0_split_1
I0214 17:24:18.260823 19209 net.cpp:406] concat0_7 <- conv0_7
I0214 17:24:18.260833 19209 net.cpp:380] concat0_7 -> concat0_7
I0214 17:24:18.260886 19209 net.cpp:122] Setting up concat0_7
I0214 17:24:18.260895 19209 net.cpp:129] Top shape: 1 288 49 146 (2060352)
I0214 17:24:18.260897 19209 net.cpp:137] Memory required for data: 227929740
I0214 17:24:18.260901 19209 layer_factory.hpp:77] Creating layer concat0_7_concat0_7_0_split
I0214 17:24:18.260907 19209 net.cpp:84] Creating Layer concat0_7_concat0_7_0_split
I0214 17:24:18.260913 19209 net.cpp:406] concat0_7_concat0_7_0_split <- concat0_7
I0214 17:24:18.260918 19209 net.cpp:380] concat0_7_concat0_7_0_split -> concat0_7_concat0_7_0_split_0
I0214 17:24:18.260926 19209 net.cpp:380] concat0_7_concat0_7_0_split -> concat0_7_concat0_7_0_split_1
I0214 17:24:18.260998 19209 net.cpp:122] Setting up concat0_7_concat0_7_0_split
I0214 17:24:18.261004 19209 net.cpp:129] Top shape: 1 288 49 146 (2060352)
I0214 17:24:18.261008 19209 net.cpp:129] Top shape: 1 288 49 146 (2060352)
I0214 17:24:18.261013 19209 net.cpp:137] Memory required for data: 244412556
I0214 17:24:18.261015 19209 layer_factory.hpp:77] Creating layer conv0_8/bn
I0214 17:24:18.261023 19209 net.cpp:84] Creating Layer conv0_8/bn
I0214 17:24:18.261027 19209 net.cpp:406] conv0_8/bn <- concat0_7_concat0_7_0_split_0
I0214 17:24:18.261034 19209 net.cpp:380] conv0_8/bn -> conv0_8/bn
I0214 17:24:18.261584 19209 net.cpp:122] Setting up conv0_8/bn
I0214 17:24:18.261600 19209 net.cpp:129] Top shape: 1 288 49 146 (2060352)
I0214 17:24:18.261603 19209 net.cpp:137] Memory required for data: 252653964
I0214 17:24:18.261613 19209 layer_factory.hpp:77] Creating layer conv0_8/scale
I0214 17:24:18.261626 19209 net.cpp:84] Creating Layer conv0_8/scale
I0214 17:24:18.261633 19209 net.cpp:406] conv0_8/scale <- conv0_8/bn
I0214 17:24:18.261643 19209 net.cpp:367] conv0_8/scale -> conv0_8/bn (in-place)
I0214 17:24:18.261762 19209 layer_factory.hpp:77] Creating layer conv0_8/scale
I0214 17:24:18.262166 19209 net.cpp:122] Setting up conv0_8/scale
I0214 17:24:18.262184 19209 net.cpp:129] Top shape: 1 288 49 146 (2060352)
I0214 17:24:18.262192 19209 net.cpp:137] Memory required for data: 260895372
I0214 17:24:18.262204 19209 layer_factory.hpp:77] Creating layer relu0_8
I0214 17:24:18.262219 19209 net.cpp:84] Creating Layer relu0_8
I0214 17:24:18.262228 19209 net.cpp:406] relu0_8 <- conv0_8/bn
I0214 17:24:18.262238 19209 net.cpp:367] relu0_8 -> conv0_8/bn (in-place)
I0214 17:24:18.262616 19209 net.cpp:122] Setting up relu0_8
I0214 17:24:18.262635 19209 net.cpp:129] Top shape: 1 288 49 146 (2060352)
I0214 17:24:18.262642 19209 net.cpp:137] Memory required for data: 269136780
I0214 17:24:18.262650 19209 layer_factory.hpp:77] Creating layer conv0_8
I0214 17:24:18.262670 19209 net.cpp:84] Creating Layer conv0_8
I0214 17:24:18.262678 19209 net.cpp:406] conv0_8 <- conv0_8/bn
I0214 17:24:18.262693 19209 net.cpp:380] conv0_8 -> conv0_8
I0214 17:24:18.271350 19209 net.cpp:122] Setting up conv0_8
I0214 17:24:18.271374 19209 net.cpp:129] Top shape: 1 32 49 146 (228928)
I0214 17:24:18.271381 19209 net.cpp:137] Memory required for data: 270052492
I0214 17:24:18.271392 19209 layer_factory.hpp:77] Creating layer concat0_8
I0214 17:24:18.271404 19209 net.cpp:84] Creating Layer concat0_8
I0214 17:24:18.271411 19209 net.cpp:406] concat0_8 <- concat0_7_concat0_7_0_split_1
I0214 17:24:18.271420 19209 net.cpp:406] concat0_8 <- conv0_8
I0214 17:24:18.271430 19209 net.cpp:380] concat0_8 -> concat0_8
I0214 17:24:18.271504 19209 net.cpp:122] Setting up concat0_8
I0214 17:24:18.271517 19209 net.cpp:129] Top shape: 1 320 49 146 (2289280)
I0214 17:24:18.271522 19209 net.cpp:137] Memory required for data: 279209612
I0214 17:24:18.271528 19209 layer_factory.hpp:77] Creating layer concat0_8_concat0_8_0_split
I0214 17:24:18.271538 19209 net.cpp:84] Creating Layer concat0_8_concat0_8_0_split
I0214 17:24:18.271543 19209 net.cpp:406] concat0_8_concat0_8_0_split <- concat0_8
I0214 17:24:18.271554 19209 net.cpp:380] concat0_8_concat0_8_0_split -> concat0_8_concat0_8_0_split_0
I0214 17:24:18.271565 19209 net.cpp:380] concat0_8_concat0_8_0_split -> concat0_8_concat0_8_0_split_1
I0214 17:24:18.271666 19209 net.cpp:122] Setting up concat0_8_concat0_8_0_split
I0214 17:24:18.271675 19209 net.cpp:129] Top shape: 1 320 49 146 (2289280)
I0214 17:24:18.271683 19209 net.cpp:129] Top shape: 1 320 49 146 (2289280)
I0214 17:24:18.271689 19209 net.cpp:137] Memory required for data: 297523852
I0214 17:24:18.271695 19209 layer_factory.hpp:77] Creating layer conv0_9/bn
I0214 17:24:18.271704 19209 net.cpp:84] Creating Layer conv0_9/bn
I0214 17:24:18.271711 19209 net.cpp:406] conv0_9/bn <- concat0_8_concat0_8_0_split_0
I0214 17:24:18.271723 19209 net.cpp:380] conv0_9/bn -> conv0_9/bn
I0214 17:24:18.272333 19209 net.cpp:122] Setting up conv0_9/bn
I0214 17:24:18.272344 19209 net.cpp:129] Top shape: 1 320 49 146 (2289280)
I0214 17:24:18.272349 19209 net.cpp:137] Memory required for data: 306680972
I0214 17:24:18.272362 19209 layer_factory.hpp:77] Creating layer conv0_9/scale
I0214 17:24:18.272374 19209 net.cpp:84] Creating Layer conv0_9/scale
I0214 17:24:18.272382 19209 net.cpp:406] conv0_9/scale <- conv0_9/bn
I0214 17:24:18.272389 19209 net.cpp:367] conv0_9/scale -> conv0_9/bn (in-place)
I0214 17:24:18.272490 19209 layer_factory.hpp:77] Creating layer conv0_9/scale
I0214 17:24:18.272825 19209 net.cpp:122] Setting up conv0_9/scale
I0214 17:24:18.272836 19209 net.cpp:129] Top shape: 1 320 49 146 (2289280)
I0214 17:24:18.272842 19209 net.cpp:137] Memory required for data: 315838092
I0214 17:24:18.272861 19209 layer_factory.hpp:77] Creating layer relu0_9
I0214 17:24:18.272883 19209 net.cpp:84] Creating Layer relu0_9
I0214 17:24:18.272889 19209 net.cpp:406] relu0_9 <- conv0_9/bn
I0214 17:24:18.272897 19209 net.cpp:367] relu0_9 -> conv0_9/bn (in-place)
I0214 17:24:18.274440 19209 net.cpp:122] Setting up relu0_9
I0214 17:24:18.274456 19209 net.cpp:129] Top shape: 1 320 49 146 (2289280)
I0214 17:24:18.274462 19209 net.cpp:137] Memory required for data: 324995212
I0214 17:24:18.274469 19209 layer_factory.hpp:77] Creating layer conv0_9
I0214 17:24:18.274485 19209 net.cpp:84] Creating Layer conv0_9
I0214 17:24:18.274492 19209 net.cpp:406] conv0_9 <- conv0_9/bn
I0214 17:24:18.274504 19209 net.cpp:380] conv0_9 -> conv0_9
I0214 17:24:18.282755 19209 net.cpp:122] Setting up conv0_9
I0214 17:24:18.282778 19209 net.cpp:129] Top shape: 1 32 49 146 (228928)
I0214 17:24:18.282785 19209 net.cpp:137] Memory required for data: 325910924
I0214 17:24:18.282795 19209 layer_factory.hpp:77] Creating layer concat0_9
I0214 17:24:18.282807 19209 net.cpp:84] Creating Layer concat0_9
I0214 17:24:18.282815 19209 net.cpp:406] concat0_9 <- concat0_8_concat0_8_0_split_1
I0214 17:24:18.282825 19209 net.cpp:406] concat0_9 <- conv0_9
I0214 17:24:18.282838 19209 net.cpp:380] concat0_9 -> concat0_9
I0214 17:24:18.282910 19209 net.cpp:122] Setting up concat0_9
I0214 17:24:18.282924 19209 net.cpp:129] Top shape: 1 352 49 146 (2518208)
I0214 17:24:18.282934 19209 net.cpp:137] Memory required for data: 335983756
I0214 17:24:18.282943 19209 layer_factory.hpp:77] Creating layer concat0_9_concat0_9_0_split
I0214 17:24:18.282950 19209 net.cpp:84] Creating Layer concat0_9_concat0_9_0_split
I0214 17:24:18.282958 19209 net.cpp:406] concat0_9_concat0_9_0_split <- concat0_9
I0214 17:24:18.282970 19209 net.cpp:380] concat0_9_concat0_9_0_split -> concat0_9_concat0_9_0_split_0
I0214 17:24:18.282982 19209 net.cpp:380] concat0_9_concat0_9_0_split -> concat0_9_concat0_9_0_split_1
I0214 17:24:18.283097 19209 net.cpp:122] Setting up concat0_9_concat0_9_0_split
I0214 17:24:18.283109 19209 net.cpp:129] Top shape: 1 352 49 146 (2518208)
I0214 17:24:18.283118 19209 net.cpp:129] Top shape: 1 352 49 146 (2518208)
I0214 17:24:18.283123 19209 net.cpp:137] Memory required for data: 356129420
I0214 17:24:18.283128 19209 layer_factory.hpp:77] Creating layer conv0_10/bn
I0214 17:24:18.283141 19209 net.cpp:84] Creating Layer conv0_10/bn
I0214 17:24:18.283149 19209 net.cpp:406] conv0_10/bn <- concat0_9_concat0_9_0_split_0
I0214 17:24:18.283159 19209 net.cpp:380] conv0_10/bn -> conv0_10/bn
I0214 17:24:18.283849 19209 net.cpp:122] Setting up conv0_10/bn
I0214 17:24:18.283867 19209 net.cpp:129] Top shape: 1 352 49 146 (2518208)
I0214 17:24:18.283874 19209 net.cpp:137] Memory required for data: 366202252
I0214 17:24:18.283888 19209 layer_factory.hpp:77] Creating layer conv0_10/scale
I0214 17:24:18.283905 19209 net.cpp:84] Creating Layer conv0_10/scale
I0214 17:24:18.283912 19209 net.cpp:406] conv0_10/scale <- conv0_10/bn
I0214 17:24:18.283922 19209 net.cpp:367] conv0_10/scale -> conv0_10/bn (in-place)
I0214 17:24:18.284037 19209 layer_factory.hpp:77] Creating layer conv0_10/scale
I0214 17:24:18.284427 19209 net.cpp:122] Setting up conv0_10/scale
I0214 17:24:18.284443 19209 net.cpp:129] Top shape: 1 352 49 146 (2518208)
I0214 17:24:18.284451 19209 net.cpp:137] Memory required for data: 376275084
I0214 17:24:18.284462 19209 layer_factory.hpp:77] Creating layer relu0_10
I0214 17:24:18.284472 19209 net.cpp:84] Creating Layer relu0_10
I0214 17:24:18.284479 19209 net.cpp:406] relu0_10 <- conv0_10/bn
I0214 17:24:18.284488 19209 net.cpp:367] relu0_10 -> conv0_10/bn (in-place)
I0214 17:24:18.284853 19209 net.cpp:122] Setting up relu0_10
I0214 17:24:18.284873 19209 net.cpp:129] Top shape: 1 352 49 146 (2518208)
I0214 17:24:18.284879 19209 net.cpp:137] Memory required for data: 386347916
I0214 17:24:18.284886 19209 layer_factory.hpp:77] Creating layer conv0_10
I0214 17:24:18.284904 19209 net.cpp:84] Creating Layer conv0_10
I0214 17:24:18.284911 19209 net.cpp:406] conv0_10 <- conv0_10/bn
I0214 17:24:18.284925 19209 net.cpp:380] conv0_10 -> conv0_10
I0214 17:24:18.293452 19209 net.cpp:122] Setting up conv0_10
I0214 17:24:18.293471 19209 net.cpp:129] Top shape: 1 32 49 146 (228928)
I0214 17:24:18.293478 19209 net.cpp:137] Memory required for data: 387263628
I0214 17:24:18.293488 19209 layer_factory.hpp:77] Creating layer concat0_10
I0214 17:24:18.293500 19209 net.cpp:84] Creating Layer concat0_10
I0214 17:24:18.293506 19209 net.cpp:406] concat0_10 <- concat0_9_concat0_9_0_split_1
I0214 17:24:18.293514 19209 net.cpp:406] concat0_10 <- conv0_10
I0214 17:24:18.293525 19209 net.cpp:380] concat0_10 -> concat0_10
I0214 17:24:18.293591 19209 net.cpp:122] Setting up concat0_10
I0214 17:24:18.293601 19209 net.cpp:129] Top shape: 1 384 49 146 (2747136)
I0214 17:24:18.293606 19209 net.cpp:137] Memory required for data: 398252172
I0214 17:24:18.293612 19209 layer_factory.hpp:77] Creating layer concat0_10_concat0_10_0_split
I0214 17:24:18.293619 19209 net.cpp:84] Creating Layer concat0_10_concat0_10_0_split
I0214 17:24:18.293624 19209 net.cpp:406] concat0_10_concat0_10_0_split <- concat0_10
I0214 17:24:18.293635 19209 net.cpp:380] concat0_10_concat0_10_0_split -> concat0_10_concat0_10_0_split_0
I0214 17:24:18.293644 19209 net.cpp:380] concat0_10_concat0_10_0_split -> concat0_10_concat0_10_0_split_1
I0214 17:24:18.293733 19209 net.cpp:122] Setting up concat0_10_concat0_10_0_split
I0214 17:24:18.293743 19209 net.cpp:129] Top shape: 1 384 49 146 (2747136)
I0214 17:24:18.293756 19209 net.cpp:129] Top shape: 1 384 49 146 (2747136)
I0214 17:24:18.293761 19209 net.cpp:137] Memory required for data: 420229260
I0214 17:24:18.293766 19209 layer_factory.hpp:77] Creating layer conv0_11/bn
I0214 17:24:18.293776 19209 net.cpp:84] Creating Layer conv0_11/bn
I0214 17:24:18.293782 19209 net.cpp:406] conv0_11/bn <- concat0_10_concat0_10_0_split_0
I0214 17:24:18.293792 19209 net.cpp:380] conv0_11/bn -> conv0_11/bn
I0214 17:24:18.294361 19209 net.cpp:122] Setting up conv0_11/bn
I0214 17:24:18.294374 19209 net.cpp:129] Top shape: 1 384 49 146 (2747136)
I0214 17:24:18.294379 19209 net.cpp:137] Memory required for data: 431217804
I0214 17:24:18.294392 19209 layer_factory.hpp:77] Creating layer conv0_11/scale
I0214 17:24:18.294405 19209 net.cpp:84] Creating Layer conv0_11/scale
I0214 17:24:18.294411 19209 net.cpp:406] conv0_11/scale <- conv0_11/bn
I0214 17:24:18.294420 19209 net.cpp:367] conv0_11/scale -> conv0_11/bn (in-place)
I0214 17:24:18.294508 19209 layer_factory.hpp:77] Creating layer conv0_11/scale
I0214 17:24:18.294821 19209 net.cpp:122] Setting up conv0_11/scale
I0214 17:24:18.294832 19209 net.cpp:129] Top shape: 1 384 49 146 (2747136)
I0214 17:24:18.294837 19209 net.cpp:137] Memory required for data: 442206348
I0214 17:24:18.294847 19209 layer_factory.hpp:77] Creating layer relu0_11
I0214 17:24:18.294857 19209 net.cpp:84] Creating Layer relu0_11
I0214 17:24:18.294862 19209 net.cpp:406] relu0_11 <- conv0_11/bn
I0214 17:24:18.294872 19209 net.cpp:367] relu0_11 -> conv0_11/bn (in-place)
I0214 17:24:18.295197 19209 net.cpp:122] Setting up relu0_11
I0214 17:24:18.295209 19209 net.cpp:129] Top shape: 1 384 49 146 (2747136)
I0214 17:24:18.295215 19209 net.cpp:137] Memory required for data: 453194892
I0214 17:24:18.295222 19209 layer_factory.hpp:77] Creating layer conv0_11
I0214 17:24:18.295236 19209 net.cpp:84] Creating Layer conv0_11
I0214 17:24:18.295243 19209 net.cpp:406] conv0_11 <- conv0_11/bn
I0214 17:24:18.295254 19209 net.cpp:380] conv0_11 -> conv0_11
I0214 17:24:18.304244 19209 net.cpp:122] Setting up conv0_11
I0214 17:24:18.304261 19209 net.cpp:129] Top shape: 1 32 49 146 (228928)
I0214 17:24:18.304267 19209 net.cpp:137] Memory required for data: 454110604
I0214 17:24:18.304276 19209 layer_factory.hpp:77] Creating layer concat0_11
I0214 17:24:18.304286 19209 net.cpp:84] Creating Layer concat0_11
I0214 17:24:18.304293 19209 net.cpp:406] concat0_11 <- concat0_10_concat0_10_0_split_1
I0214 17:24:18.304301 19209 net.cpp:406] concat0_11 <- conv0_11
I0214 17:24:18.304311 19209 net.cpp:380] concat0_11 -> concat0_11
I0214 17:24:18.304383 19209 net.cpp:122] Setting up concat0_11
I0214 17:24:18.304394 19209 net.cpp:129] Top shape: 1 416 49 146 (2976064)
I0214 17:24:18.304399 19209 net.cpp:137] Memory required for data: 466014860
I0214 17:24:18.304404 19209 layer_factory.hpp:77] Creating layer concat0_11_concat0_11_0_split
I0214 17:24:18.304414 19209 net.cpp:84] Creating Layer concat0_11_concat0_11_0_split
I0214 17:24:18.304420 19209 net.cpp:406] concat0_11_concat0_11_0_split <- concat0_11
I0214 17:24:18.304428 19209 net.cpp:380] concat0_11_concat0_11_0_split -> concat0_11_concat0_11_0_split_0
I0214 17:24:18.304437 19209 net.cpp:380] concat0_11_concat0_11_0_split -> concat0_11_concat0_11_0_split_1
I0214 17:24:18.304527 19209 net.cpp:122] Setting up concat0_11_concat0_11_0_split
I0214 17:24:18.304536 19209 net.cpp:129] Top shape: 1 416 49 146 (2976064)
I0214 17:24:18.304543 19209 net.cpp:129] Top shape: 1 416 49 146 (2976064)
I0214 17:24:18.304548 19209 net.cpp:137] Memory required for data: 489823372
I0214 17:24:18.304553 19209 layer_factory.hpp:77] Creating layer conv0_12/bn
I0214 17:24:18.304564 19209 net.cpp:84] Creating Layer conv0_12/bn
I0214 17:24:18.304570 19209 net.cpp:406] conv0_12/bn <- concat0_11_concat0_11_0_split_0
I0214 17:24:18.304579 19209 net.cpp:380] conv0_12/bn -> conv0_12/bn
I0214 17:24:18.305155 19209 net.cpp:122] Setting up conv0_12/bn
I0214 17:24:18.305168 19209 net.cpp:129] Top shape: 1 416 49 146 (2976064)
I0214 17:24:18.305173 19209 net.cpp:137] Memory required for data: 501727628
I0214 17:24:18.305189 19209 layer_factory.hpp:77] Creating layer conv0_12/scale
I0214 17:24:18.305199 19209 net.cpp:84] Creating Layer conv0_12/scale
I0214 17:24:18.305205 19209 net.cpp:406] conv0_12/scale <- conv0_12/bn
I0214 17:24:18.305217 19209 net.cpp:367] conv0_12/scale -> conv0_12/bn (in-place)
I0214 17:24:18.305320 19209 layer_factory.hpp:77] Creating layer conv0_12/scale
I0214 17:24:18.305644 19209 net.cpp:122] Setting up conv0_12/scale
I0214 17:24:18.305656 19209 net.cpp:129] Top shape: 1 416 49 146 (2976064)
I0214 17:24:18.305661 19209 net.cpp:137] Memory required for data: 513631884
I0214 17:24:18.305670 19209 layer_factory.hpp:77] Creating layer relu0_12
I0214 17:24:18.305680 19209 net.cpp:84] Creating Layer relu0_12
I0214 17:24:18.305685 19209 net.cpp:406] relu0_12 <- conv0_12/bn
I0214 17:24:18.305694 19209 net.cpp:367] relu0_12 -> conv0_12/bn (in-place)
I0214 17:24:18.307217 19209 net.cpp:122] Setting up relu0_12
I0214 17:24:18.307235 19209 net.cpp:129] Top shape: 1 416 49 146 (2976064)
I0214 17:24:18.307240 19209 net.cpp:137] Memory required for data: 525536140
I0214 17:24:18.307246 19209 layer_factory.hpp:77] Creating layer conv0_12
I0214 17:24:18.307267 19209 net.cpp:84] Creating Layer conv0_12
I0214 17:24:18.307274 19209 net.cpp:406] conv0_12 <- conv0_12/bn
I0214 17:24:18.307286 19209 net.cpp:380] conv0_12 -> conv0_12
I0214 17:24:18.318936 19209 net.cpp:122] Setting up conv0_12
I0214 17:24:18.318955 19209 net.cpp:129] Top shape: 1 32 49 146 (228928)
I0214 17:24:18.318960 19209 net.cpp:137] Memory required for data: 526451852
I0214 17:24:18.318969 19209 layer_factory.hpp:77] Creating layer concat0_12
I0214 17:24:18.318989 19209 net.cpp:84] Creating Layer concat0_12
I0214 17:24:18.318994 19209 net.cpp:406] concat0_12 <- concat0_11_concat0_11_0_split_1
I0214 17:24:18.319002 19209 net.cpp:406] concat0_12 <- conv0_12
I0214 17:24:18.319011 19209 net.cpp:380] concat0_12 -> concat0_12
I0214 17:24:18.319079 19209 net.cpp:122] Setting up concat0_12
I0214 17:24:18.319089 19209 net.cpp:129] Top shape: 1 448 49 146 (3204992)
I0214 17:24:18.319094 19209 net.cpp:137] Memory required for data: 539271820
I0214 17:24:18.319099 19209 layer_factory.hpp:77] Creating layer concat0_12_concat0_12_0_split
I0214 17:24:18.319108 19209 net.cpp:84] Creating Layer concat0_12_concat0_12_0_split
I0214 17:24:18.319113 19209 net.cpp:406] concat0_12_concat0_12_0_split <- concat0_12
I0214 17:24:18.319123 19209 net.cpp:380] concat0_12_concat0_12_0_split -> concat0_12_concat0_12_0_split_0
I0214 17:24:18.319133 19209 net.cpp:380] concat0_12_concat0_12_0_split -> concat0_12_concat0_12_0_split_1
I0214 17:24:18.319222 19209 net.cpp:122] Setting up concat0_12_concat0_12_0_split
I0214 17:24:18.319231 19209 net.cpp:129] Top shape: 1 448 49 146 (3204992)
I0214 17:24:18.319238 19209 net.cpp:129] Top shape: 1 448 49 146 (3204992)
I0214 17:24:18.319243 19209 net.cpp:137] Memory required for data: 564911756
I0214 17:24:18.319249 19209 layer_factory.hpp:77] Creating layer conv0_13/bn
I0214 17:24:18.319259 19209 net.cpp:84] Creating Layer conv0_13/bn
I0214 17:24:18.319265 19209 net.cpp:406] conv0_13/bn <- concat0_12_concat0_12_0_split_0
I0214 17:24:18.319275 19209 net.cpp:380] conv0_13/bn -> conv0_13/bn
I0214 17:24:18.319861 19209 net.cpp:122] Setting up conv0_13/bn
I0214 17:24:18.319872 19209 net.cpp:129] Top shape: 1 448 49 146 (3204992)
I0214 17:24:18.319878 19209 net.cpp:137] Memory required for data: 577731724
I0214 17:24:18.319890 19209 layer_factory.hpp:77] Creating layer conv0_13/scale
I0214 17:24:18.319900 19209 net.cpp:84] Creating Layer conv0_13/scale
I0214 17:24:18.319906 19209 net.cpp:406] conv0_13/scale <- conv0_13/bn
I0214 17:24:18.319916 19209 net.cpp:367] conv0_13/scale -> conv0_13/bn (in-place)
I0214 17:24:18.320020 19209 layer_factory.hpp:77] Creating layer conv0_13/scale
I0214 17:24:18.320351 19209 net.cpp:122] Setting up conv0_13/scale
I0214 17:24:18.320363 19209 net.cpp:129] Top shape: 1 448 49 146 (3204992)
I0214 17:24:18.320369 19209 net.cpp:137] Memory required for data: 590551692
I0214 17:24:18.320381 19209 layer_factory.hpp:77] Creating layer relu0_13
I0214 17:24:18.320394 19209 net.cpp:84] Creating Layer relu0_13
I0214 17:24:18.320400 19209 net.cpp:406] relu0_13 <- conv0_13/bn
I0214 17:24:18.320407 19209 net.cpp:367] relu0_13 -> conv0_13/bn (in-place)
I0214 17:24:18.320739 19209 net.cpp:122] Setting up relu0_13
I0214 17:24:18.320755 19209 net.cpp:129] Top shape: 1 448 49 146 (3204992)
I0214 17:24:18.320760 19209 net.cpp:137] Memory required for data: 603371660
I0214 17:24:18.320765 19209 layer_factory.hpp:77] Creating layer conv0_13
I0214 17:24:18.320781 19209 net.cpp:84] Creating Layer conv0_13
I0214 17:24:18.320787 19209 net.cpp:406] conv0_13 <- conv0_13/bn
I0214 17:24:18.320796 19209 net.cpp:380] conv0_13 -> conv0_13
I0214 17:24:18.330358 19209 net.cpp:122] Setting up conv0_13
I0214 17:24:18.330379 19209 net.cpp:129] Top shape: 1 32 49 146 (228928)
I0214 17:24:18.330386 19209 net.cpp:137] Memory required for data: 604287372
I0214 17:24:18.330396 19209 layer_factory.hpp:77] Creating layer concat0_13
I0214 17:24:18.330411 19209 net.cpp:84] Creating Layer concat0_13
I0214 17:24:18.330420 19209 net.cpp:406] concat0_13 <- concat0_12_concat0_12_0_split_1
I0214 17:24:18.330427 19209 net.cpp:406] concat0_13 <- conv0_13
I0214 17:24:18.330438 19209 net.cpp:380] concat0_13 -> concat0_13
I0214 17:24:18.330513 19209 net.cpp:122] Setting up concat0_13
I0214 17:24:18.330526 19209 net.cpp:129] Top shape: 1 480 49 146 (3433920)
I0214 17:24:18.330533 19209 net.cpp:137] Memory required for data: 618023052
I0214 17:24:18.330538 19209 layer_factory.hpp:77] Creating layer concat0_13_concat0_13_0_split
I0214 17:24:18.330546 19209 net.cpp:84] Creating Layer concat0_13_concat0_13_0_split
I0214 17:24:18.330554 19209 net.cpp:406] concat0_13_concat0_13_0_split <- concat0_13
I0214 17:24:18.330562 19209 net.cpp:380] concat0_13_concat0_13_0_split -> concat0_13_concat0_13_0_split_0
I0214 17:24:18.330574 19209 net.cpp:380] concat0_13_concat0_13_0_split -> concat0_13_concat0_13_0_split_1
I0214 17:24:18.330685 19209 net.cpp:122] Setting up concat0_13_concat0_13_0_split
I0214 17:24:18.330703 19209 net.cpp:129] Top shape: 1 480 49 146 (3433920)
I0214 17:24:18.330710 19209 net.cpp:129] Top shape: 1 480 49 146 (3433920)
I0214 17:24:18.330716 19209 net.cpp:137] Memory required for data: 645494412
I0214 17:24:18.330723 19209 layer_factory.hpp:77] Creating layer conv0_14/bn
I0214 17:24:18.330732 19209 net.cpp:84] Creating Layer conv0_14/bn
I0214 17:24:18.330740 19209 net.cpp:406] conv0_14/bn <- concat0_13_concat0_13_0_split_0
I0214 17:24:18.330754 19209 net.cpp:380] conv0_14/bn -> conv0_14/bn
I0214 17:24:18.331477 19209 net.cpp:122] Setting up conv0_14/bn
I0214 17:24:18.331495 19209 net.cpp:129] Top shape: 1 480 49 146 (3433920)
I0214 17:24:18.331501 19209 net.cpp:137] Memory required for data: 659230092
I0214 17:24:18.331514 19209 layer_factory.hpp:77] Creating layer conv0_14/scale
I0214 17:24:18.331532 19209 net.cpp:84] Creating Layer conv0_14/scale
I0214 17:24:18.331537 19209 net.cpp:406] conv0_14/scale <- conv0_14/bn
I0214 17:24:18.331544 19209 net.cpp:367] conv0_14/scale -> conv0_14/bn (in-place)
I0214 17:24:18.331625 19209 layer_factory.hpp:77] Creating layer conv0_14/scale
I0214 17:24:18.331857 19209 net.cpp:122] Setting up conv0_14/scale
I0214 17:24:18.331866 19209 net.cpp:129] Top shape: 1 480 49 146 (3433920)
I0214 17:24:18.331868 19209 net.cpp:137] Memory required for data: 672965772
I0214 17:24:18.331876 19209 layer_factory.hpp:77] Creating layer relu0_14
I0214 17:24:18.331881 19209 net.cpp:84] Creating Layer relu0_14
I0214 17:24:18.331884 19209 net.cpp:406] relu0_14 <- conv0_14/bn
I0214 17:24:18.331889 19209 net.cpp:367] relu0_14 -> conv0_14/bn (in-place)
I0214 17:24:18.332118 19209 net.cpp:122] Setting up relu0_14
I0214 17:24:18.332126 19209 net.cpp:129] Top shape: 1 480 49 146 (3433920)
I0214 17:24:18.332129 19209 net.cpp:137] Memory required for data: 686701452
I0214 17:24:18.332134 19209 layer_factory.hpp:77] Creating layer conv0_14
I0214 17:24:18.332144 19209 net.cpp:84] Creating Layer conv0_14
I0214 17:24:18.332151 19209 net.cpp:406] conv0_14 <- conv0_14/bn
I0214 17:24:18.332160 19209 net.cpp:380] conv0_14 -> conv0_14
I0214 17:24:18.340153 19209 net.cpp:122] Setting up conv0_14
I0214 17:24:18.340168 19209 net.cpp:129] Top shape: 1 32 49 146 (228928)
I0214 17:24:18.340173 19209 net.cpp:137] Memory required for data: 687617164
I0214 17:24:18.340178 19209 layer_factory.hpp:77] Creating layer concat0_14
I0214 17:24:18.340188 19209 net.cpp:84] Creating Layer concat0_14
I0214 17:24:18.340193 19209 net.cpp:406] concat0_14 <- concat0_13_concat0_13_0_split_1
I0214 17:24:18.340198 19209 net.cpp:406] concat0_14 <- conv0_14
I0214 17:24:18.340204 19209 net.cpp:380] concat0_14 -> concat0_14
I0214 17:24:18.340257 19209 net.cpp:122] Setting up concat0_14
I0214 17:24:18.340265 19209 net.cpp:129] Top shape: 1 512 49 146 (3662848)
I0214 17:24:18.340267 19209 net.cpp:137] Memory required for data: 702268556
I0214 17:24:18.340270 19209 layer_factory.hpp:77] Creating layer BatchNorm1
I0214 17:24:18.340276 19209 net.cpp:84] Creating Layer BatchNorm1
I0214 17:24:18.340281 19209 net.cpp:406] BatchNorm1 <- concat0_14
I0214 17:24:18.340287 19209 net.cpp:380] BatchNorm1 -> BatchNorm1
I0214 17:24:18.340701 19209 net.cpp:122] Setting up BatchNorm1
I0214 17:24:18.340709 19209 net.cpp:129] Top shape: 1 512 49 146 (3662848)
I0214 17:24:18.340713 19209 net.cpp:137] Memory required for data: 716919948
I0214 17:24:18.340721 19209 layer_factory.hpp:77] Creating layer Scale1
I0214 17:24:18.340730 19209 net.cpp:84] Creating Layer Scale1
I0214 17:24:18.340734 19209 net.cpp:406] Scale1 <- BatchNorm1
I0214 17:24:18.340739 19209 net.cpp:367] Scale1 -> BatchNorm1 (in-place)
I0214 17:24:18.340804 19209 layer_factory.hpp:77] Creating layer Scale1
I0214 17:24:18.341023 19209 net.cpp:122] Setting up Scale1
I0214 17:24:18.341030 19209 net.cpp:129] Top shape: 1 512 49 146 (3662848)
I0214 17:24:18.341033 19209 net.cpp:137] Memory required for data: 731571340
I0214 17:24:18.341039 19209 layer_factory.hpp:77] Creating layer ReLU1
I0214 17:24:18.341045 19209 net.cpp:84] Creating Layer ReLU1
I0214 17:24:18.341049 19209 net.cpp:406] ReLU1 <- BatchNorm1
I0214 17:24:18.341053 19209 net.cpp:367] ReLU1 -> BatchNorm1 (in-place)
I0214 17:24:18.342254 19209 net.cpp:122] Setting up ReLU1
I0214 17:24:18.342267 19209 net.cpp:129] Top shape: 1 512 49 146 (3662848)
I0214 17:24:18.342272 19209 net.cpp:137] Memory required for data: 746222732
I0214 17:24:18.342275 19209 layer_factory.hpp:77] Creating layer conv0_blk
I0214 17:24:18.342288 19209 net.cpp:84] Creating Layer conv0_blk
I0214 17:24:18.342291 19209 net.cpp:406] conv0_blk <- BatchNorm1
I0214 17:24:18.342300 19209 net.cpp:380] conv0_blk -> conv0_blk
I0214 17:24:18.356935 19209 net.cpp:122] Setting up conv0_blk
I0214 17:24:18.356954 19209 net.cpp:129] Top shape: 1 512 49 146 (3662848)
I0214 17:24:18.356961 19209 net.cpp:137] Memory required for data: 760874124
I0214 17:24:18.356971 19209 layer_factory.hpp:77] Creating layer pool0
I0214 17:24:18.356982 19209 net.cpp:84] Creating Layer pool0
I0214 17:24:18.356989 19209 net.cpp:406] pool0 <- conv0_blk
I0214 17:24:18.356998 19209 net.cpp:380] pool0 -> pool0
I0214 17:24:18.357369 19209 net.cpp:122] Setting up pool0
I0214 17:24:18.357383 19209 net.cpp:129] Top shape: 1 512 25 73 (934400)
I0214 17:24:18.357388 19209 net.cpp:137] Memory required for data: 764611724
I0214 17:24:18.357394 19209 layer_factory.hpp:77] Creating layer pool0_pool0_0_split
I0214 17:24:18.357405 19209 net.cpp:84] Creating Layer pool0_pool0_0_split
I0214 17:24:18.357411 19209 net.cpp:406] pool0_pool0_0_split <- pool0
I0214 17:24:18.357420 19209 net.cpp:380] pool0_pool0_0_split -> pool0_pool0_0_split_0
I0214 17:24:18.357429 19209 net.cpp:380] pool0_pool0_0_split -> pool0_pool0_0_split_1
I0214 17:24:18.357524 19209 net.cpp:122] Setting up pool0_pool0_0_split
I0214 17:24:18.357533 19209 net.cpp:129] Top shape: 1 512 25 73 (934400)
I0214 17:24:18.357540 19209 net.cpp:129] Top shape: 1 512 25 73 (934400)
I0214 17:24:18.357545 19209 net.cpp:137] Memory required for data: 772086924
I0214 17:24:18.357551 19209 layer_factory.hpp:77] Creating layer conv1_0/bn
I0214 17:24:18.357566 19209 net.cpp:84] Creating Layer conv1_0/bn
I0214 17:24:18.357573 19209 net.cpp:406] conv1_0/bn <- pool0_pool0_0_split_0
I0214 17:24:18.357583 19209 net.cpp:380] conv1_0/bn -> conv1_0/bn
I0214 17:24:18.360391 19209 net.cpp:122] Setting up conv1_0/bn
I0214 17:24:18.360409 19209 net.cpp:129] Top shape: 1 512 25 73 (934400)
I0214 17:24:18.360415 19209 net.cpp:137] Memory required for data: 775824524
I0214 17:24:18.360429 19209 layer_factory.hpp:77] Creating layer conv1_0/scale
I0214 17:24:18.360441 19209 net.cpp:84] Creating Layer conv1_0/scale
I0214 17:24:18.360447 19209 net.cpp:406] conv1_0/scale <- conv1_0/bn
I0214 17:24:18.360456 19209 net.cpp:367] conv1_0/scale -> conv1_0/bn (in-place)
I0214 17:24:18.360553 19209 layer_factory.hpp:77] Creating layer conv1_0/scale
I0214 17:24:18.360888 19209 net.cpp:122] Setting up conv1_0/scale
I0214 17:24:18.360901 19209 net.cpp:129] Top shape: 1 512 25 73 (934400)
I0214 17:24:18.360906 19209 net.cpp:137] Memory required for data: 779562124
I0214 17:24:18.360916 19209 layer_factory.hpp:77] Creating layer relu1_0
I0214 17:24:18.360925 19209 net.cpp:84] Creating Layer relu1_0
I0214 17:24:18.360931 19209 net.cpp:406] relu1_0 <- conv1_0/bn
I0214 17:24:18.360939 19209 net.cpp:367] relu1_0 -> conv1_0/bn (in-place)
I0214 17:24:18.361276 19209 net.cpp:122] Setting up relu1_0
I0214 17:24:18.361289 19209 net.cpp:129] Top shape: 1 512 25 73 (934400)
I0214 17:24:18.361294 19209 net.cpp:137] Memory required for data: 783299724
I0214 17:24:18.361300 19209 layer_factory.hpp:77] Creating layer conv1_0
I0214 17:24:18.361317 19209 net.cpp:84] Creating Layer conv1_0
I0214 17:24:18.361325 19209 net.cpp:406] conv1_0 <- conv1_0/bn
I0214 17:24:18.361333 19209 net.cpp:380] conv1_0 -> conv1_0
I0214 17:24:18.372009 19209 net.cpp:122] Setting up conv1_0
I0214 17:24:18.372025 19209 net.cpp:129] Top shape: 1 32 25 73 (58400)
I0214 17:24:18.372028 19209 net.cpp:137] Memory required for data: 783533324
I0214 17:24:18.372036 19209 layer_factory.hpp:77] Creating layer concat1_0
I0214 17:24:18.372045 19209 net.cpp:84] Creating Layer concat1_0
I0214 17:24:18.372050 19209 net.cpp:406] concat1_0 <- pool0_pool0_0_split_1
I0214 17:24:18.372054 19209 net.cpp:406] concat1_0 <- conv1_0
I0214 17:24:18.372061 19209 net.cpp:380] concat1_0 -> concat1_0
I0214 17:24:18.372117 19209 net.cpp:122] Setting up concat1_0
I0214 17:24:18.372123 19209 net.cpp:129] Top shape: 1 544 25 73 (992800)
I0214 17:24:18.372126 19209 net.cpp:137] Memory required for data: 787504524
I0214 17:24:18.372130 19209 layer_factory.hpp:77] Creating layer concat1_0_concat1_0_0_split
I0214 17:24:18.372135 19209 net.cpp:84] Creating Layer concat1_0_concat1_0_0_split
I0214 17:24:18.372139 19209 net.cpp:406] concat1_0_concat1_0_0_split <- concat1_0
I0214 17:24:18.372146 19209 net.cpp:380] concat1_0_concat1_0_0_split -> concat1_0_concat1_0_0_split_0
I0214 17:24:18.372153 19209 net.cpp:380] concat1_0_concat1_0_0_split -> concat1_0_concat1_0_0_split_1
I0214 17:24:18.372220 19209 net.cpp:122] Setting up concat1_0_concat1_0_0_split
I0214 17:24:18.372225 19209 net.cpp:129] Top shape: 1 544 25 73 (992800)
I0214 17:24:18.372229 19209 net.cpp:129] Top shape: 1 544 25 73 (992800)
I0214 17:24:18.372232 19209 net.cpp:137] Memory required for data: 795446924
I0214 17:24:18.372236 19209 layer_factory.hpp:77] Creating layer conv1_1/bn
I0214 17:24:18.372243 19209 net.cpp:84] Creating Layer conv1_1/bn
I0214 17:24:18.372246 19209 net.cpp:406] conv1_1/bn <- concat1_0_concat1_0_0_split_0
I0214 17:24:18.372252 19209 net.cpp:380] conv1_1/bn -> conv1_1/bn
I0214 17:24:18.372658 19209 net.cpp:122] Setting up conv1_1/bn
I0214 17:24:18.372665 19209 net.cpp:129] Top shape: 1 544 25 73 (992800)
I0214 17:24:18.372668 19209 net.cpp:137] Memory required for data: 799418124
I0214 17:24:18.372689 19209 layer_factory.hpp:77] Creating layer conv1_1/scale
I0214 17:24:18.372696 19209 net.cpp:84] Creating Layer conv1_1/scale
I0214 17:24:18.372699 19209 net.cpp:406] conv1_1/scale <- conv1_1/bn
I0214 17:24:18.372705 19209 net.cpp:367] conv1_1/scale -> conv1_1/bn (in-place)
I0214 17:24:18.372784 19209 layer_factory.hpp:77] Creating layer conv1_1/scale
I0214 17:24:18.373015 19209 net.cpp:122] Setting up conv1_1/scale
I0214 17:24:18.373023 19209 net.cpp:129] Top shape: 1 544 25 73 (992800)
I0214 17:24:18.373026 19209 net.cpp:137] Memory required for data: 803389324
I0214 17:24:18.373033 19209 layer_factory.hpp:77] Creating layer relu1_1
I0214 17:24:18.373037 19209 net.cpp:84] Creating Layer relu1_1
I0214 17:24:18.373041 19209 net.cpp:406] relu1_1 <- conv1_1/bn
I0214 17:24:18.373049 19209 net.cpp:367] relu1_1 -> conv1_1/bn (in-place)
I0214 17:24:18.373277 19209 net.cpp:122] Setting up relu1_1
I0214 17:24:18.373286 19209 net.cpp:129] Top shape: 1 544 25 73 (992800)
I0214 17:24:18.373289 19209 net.cpp:137] Memory required for data: 807360524
I0214 17:24:18.373293 19209 layer_factory.hpp:77] Creating layer conv1_1
I0214 17:24:18.373304 19209 net.cpp:84] Creating Layer conv1_1
I0214 17:24:18.373308 19209 net.cpp:406] conv1_1 <- conv1_1/bn
I0214 17:24:18.373316 19209 net.cpp:380] conv1_1 -> conv1_1
I0214 17:24:18.382493 19209 net.cpp:122] Setting up conv1_1
I0214 17:24:18.382508 19209 net.cpp:129] Top shape: 1 32 25 73 (58400)
I0214 17:24:18.382511 19209 net.cpp:137] Memory required for data: 807594124
I0214 17:24:18.382519 19209 layer_factory.hpp:77] Creating layer concat1_1
I0214 17:24:18.382527 19209 net.cpp:84] Creating Layer concat1_1
I0214 17:24:18.382532 19209 net.cpp:406] concat1_1 <- concat1_0_concat1_0_0_split_1
I0214 17:24:18.382537 19209 net.cpp:406] concat1_1 <- conv1_1
I0214 17:24:18.382542 19209 net.cpp:380] concat1_1 -> concat1_1
I0214 17:24:18.382596 19209 net.cpp:122] Setting up concat1_1
I0214 17:24:18.382602 19209 net.cpp:129] Top shape: 1 576 25 73 (1051200)
I0214 17:24:18.382606 19209 net.cpp:137] Memory required for data: 811798924
I0214 17:24:18.382609 19209 layer_factory.hpp:77] Creating layer concat1_1_concat1_1_0_split
I0214 17:24:18.382614 19209 net.cpp:84] Creating Layer concat1_1_concat1_1_0_split
I0214 17:24:18.382618 19209 net.cpp:406] concat1_1_concat1_1_0_split <- concat1_1
I0214 17:24:18.382623 19209 net.cpp:380] concat1_1_concat1_1_0_split -> concat1_1_concat1_1_0_split_0
I0214 17:24:18.382629 19209 net.cpp:380] concat1_1_concat1_1_0_split -> concat1_1_concat1_1_0_split_1
I0214 17:24:18.382694 19209 net.cpp:122] Setting up concat1_1_concat1_1_0_split
I0214 17:24:18.382702 19209 net.cpp:129] Top shape: 1 576 25 73 (1051200)
I0214 17:24:18.382706 19209 net.cpp:129] Top shape: 1 576 25 73 (1051200)
I0214 17:24:18.382709 19209 net.cpp:137] Memory required for data: 820208524
I0214 17:24:18.382712 19209 layer_factory.hpp:77] Creating layer conv1_2/bn
I0214 17:24:18.382719 19209 net.cpp:84] Creating Layer conv1_2/bn
I0214 17:24:18.382721 19209 net.cpp:406] conv1_2/bn <- concat1_1_concat1_1_0_split_0
I0214 17:24:18.382730 19209 net.cpp:380] conv1_2/bn -> conv1_2/bn
I0214 17:24:18.383141 19209 net.cpp:122] Setting up conv1_2/bn
I0214 17:24:18.383147 19209 net.cpp:129] Top shape: 1 576 25 73 (1051200)
I0214 17:24:18.383150 19209 net.cpp:137] Memory required for data: 824413324
I0214 17:24:18.383158 19209 layer_factory.hpp:77] Creating layer conv1_2/scale
I0214 17:24:18.383167 19209 net.cpp:84] Creating Layer conv1_2/scale
I0214 17:24:18.383172 19209 net.cpp:406] conv1_2/scale <- conv1_2/bn
I0214 17:24:18.383177 19209 net.cpp:367] conv1_2/scale -> conv1_2/bn (in-place)
I0214 17:24:18.383250 19209 layer_factory.hpp:77] Creating layer conv1_2/scale
I0214 17:24:18.383479 19209 net.cpp:122] Setting up conv1_2/scale
I0214 17:24:18.383487 19209 net.cpp:129] Top shape: 1 576 25 73 (1051200)
I0214 17:24:18.383491 19209 net.cpp:137] Memory required for data: 828618124
I0214 17:24:18.383496 19209 layer_factory.hpp:77] Creating layer relu1_2
I0214 17:24:18.383502 19209 net.cpp:84] Creating Layer relu1_2
I0214 17:24:18.383507 19209 net.cpp:406] relu1_2 <- conv1_2/bn
I0214 17:24:18.383510 19209 net.cpp:367] relu1_2 -> conv1_2/bn (in-place)
I0214 17:24:18.384712 19209 net.cpp:122] Setting up relu1_2
I0214 17:24:18.384728 19209 net.cpp:129] Top shape: 1 576 25 73 (1051200)
I0214 17:24:18.384735 19209 net.cpp:137] Memory required for data: 832822924
I0214 17:24:18.384739 19209 layer_factory.hpp:77] Creating layer conv1_2
I0214 17:24:18.384748 19209 net.cpp:84] Creating Layer conv1_2
I0214 17:24:18.384753 19209 net.cpp:406] conv1_2 <- conv1_2/bn
I0214 17:24:18.384762 19209 net.cpp:380] conv1_2 -> conv1_2
I0214 17:24:18.392487 19209 net.cpp:122] Setting up conv1_2
I0214 17:24:18.392500 19209 net.cpp:129] Top shape: 1 32 25 73 (58400)
I0214 17:24:18.392504 19209 net.cpp:137] Memory required for data: 833056524
I0214 17:24:18.392510 19209 layer_factory.hpp:77] Creating layer concat1_2
I0214 17:24:18.392520 19209 net.cpp:84] Creating Layer concat1_2
I0214 17:24:18.392525 19209 net.cpp:406] concat1_2 <- concat1_1_concat1_1_0_split_1
I0214 17:24:18.392530 19209 net.cpp:406] concat1_2 <- conv1_2
I0214 17:24:18.392535 19209 net.cpp:380] concat1_2 -> concat1_2
I0214 17:24:18.392587 19209 net.cpp:122] Setting up concat1_2
I0214 17:24:18.392596 19209 net.cpp:129] Top shape: 1 608 25 73 (1109600)
I0214 17:24:18.392598 19209 net.cpp:137] Memory required for data: 837494924
I0214 17:24:18.392601 19209 layer_factory.hpp:77] Creating layer concat1_2_concat1_2_0_split
I0214 17:24:18.392606 19209 net.cpp:84] Creating Layer concat1_2_concat1_2_0_split
I0214 17:24:18.392611 19209 net.cpp:406] concat1_2_concat1_2_0_split <- concat1_2
I0214 17:24:18.392616 19209 net.cpp:380] concat1_2_concat1_2_0_split -> concat1_2_concat1_2_0_split_0
I0214 17:24:18.392621 19209 net.cpp:380] concat1_2_concat1_2_0_split -> concat1_2_concat1_2_0_split_1
I0214 17:24:18.392693 19209 net.cpp:122] Setting up concat1_2_concat1_2_0_split
I0214 17:24:18.392699 19209 net.cpp:129] Top shape: 1 608 25 73 (1109600)
I0214 17:24:18.392704 19209 net.cpp:129] Top shape: 1 608 25 73 (1109600)
I0214 17:24:18.392706 19209 net.cpp:137] Memory required for data: 846371724
I0214 17:24:18.392710 19209 layer_factory.hpp:77] Creating layer conv1_3/bn
I0214 17:24:18.392717 19209 net.cpp:84] Creating Layer conv1_3/bn
I0214 17:24:18.392721 19209 net.cpp:406] conv1_3/bn <- concat1_2_concat1_2_0_split_0
I0214 17:24:18.392726 19209 net.cpp:380] conv1_3/bn -> conv1_3/bn
I0214 17:24:18.393142 19209 net.cpp:122] Setting up conv1_3/bn
I0214 17:24:18.393149 19209 net.cpp:129] Top shape: 1 608 25 73 (1109600)
I0214 17:24:18.393152 19209 net.cpp:137] Memory required for data: 850810124
I0214 17:24:18.393160 19209 layer_factory.hpp:77] Creating layer conv1_3/scale
I0214 17:24:18.393169 19209 net.cpp:84] Creating Layer conv1_3/scale
I0214 17:24:18.393173 19209 net.cpp:406] conv1_3/scale <- conv1_3/bn
I0214 17:24:18.393179 19209 net.cpp:367] conv1_3/scale -> conv1_3/bn (in-place)
I0214 17:24:18.393254 19209 layer_factory.hpp:77] Creating layer conv1_3/scale
I0214 17:24:18.393482 19209 net.cpp:122] Setting up conv1_3/scale
I0214 17:24:18.393491 19209 net.cpp:129] Top shape: 1 608 25 73 (1109600)
I0214 17:24:18.393496 19209 net.cpp:137] Memory required for data: 855248524
I0214 17:24:18.393501 19209 layer_factory.hpp:77] Creating layer relu1_3
I0214 17:24:18.393507 19209 net.cpp:84] Creating Layer relu1_3
I0214 17:24:18.393510 19209 net.cpp:406] relu1_3 <- conv1_3/bn
I0214 17:24:18.393514 19209 net.cpp:367] relu1_3 -> conv1_3/bn (in-place)
I0214 17:24:18.393746 19209 net.cpp:122] Setting up relu1_3
I0214 17:24:18.393755 19209 net.cpp:129] Top shape: 1 608 25 73 (1109600)
I0214 17:24:18.393759 19209 net.cpp:137] Memory required for data: 859686924
I0214 17:24:18.393762 19209 layer_factory.hpp:77] Creating layer conv1_3
I0214 17:24:18.393774 19209 net.cpp:84] Creating Layer conv1_3
I0214 17:24:18.393777 19209 net.cpp:406] conv1_3 <- conv1_3/bn
I0214 17:24:18.393784 19209 net.cpp:380] conv1_3 -> conv1_3
I0214 17:24:18.404765 19209 net.cpp:122] Setting up conv1_3
I0214 17:24:18.404784 19209 net.cpp:129] Top shape: 1 32 25 73 (58400)
I0214 17:24:18.404790 19209 net.cpp:137] Memory required for data: 859920524
I0214 17:24:18.404800 19209 layer_factory.hpp:77] Creating layer concat1_3
I0214 17:24:18.404810 19209 net.cpp:84] Creating Layer concat1_3
I0214 17:24:18.404817 19209 net.cpp:406] concat1_3 <- concat1_2_concat1_2_0_split_1
I0214 17:24:18.404830 19209 net.cpp:406] concat1_3 <- conv1_3
I0214 17:24:18.404841 19209 net.cpp:380] concat1_3 -> concat1_3
I0214 17:24:18.404911 19209 net.cpp:122] Setting up concat1_3
I0214 17:24:18.404922 19209 net.cpp:129] Top shape: 1 640 25 73 (1168000)
I0214 17:24:18.404927 19209 net.cpp:137] Memory required for data: 864592524
I0214 17:24:18.404932 19209 layer_factory.hpp:77] Creating layer concat1_3_concat1_3_0_split
I0214 17:24:18.404940 19209 net.cpp:84] Creating Layer concat1_3_concat1_3_0_split
I0214 17:24:18.404947 19209 net.cpp:406] concat1_3_concat1_3_0_split <- concat1_3
I0214 17:24:18.404958 19209 net.cpp:380] concat1_3_concat1_3_0_split -> concat1_3_concat1_3_0_split_0
I0214 17:24:18.404968 19209 net.cpp:380] concat1_3_concat1_3_0_split -> concat1_3_concat1_3_0_split_1
I0214 17:24:18.405062 19209 net.cpp:122] Setting up concat1_3_concat1_3_0_split
I0214 17:24:18.405072 19209 net.cpp:129] Top shape: 1 640 25 73 (1168000)
I0214 17:24:18.405079 19209 net.cpp:129] Top shape: 1 640 25 73 (1168000)
I0214 17:24:18.405084 19209 net.cpp:137] Memory required for data: 873936524
I0214 17:24:18.405091 19209 layer_factory.hpp:77] Creating layer conv1_4/bn
I0214 17:24:18.405100 19209 net.cpp:84] Creating Layer conv1_4/bn
I0214 17:24:18.405107 19209 net.cpp:406] conv1_4/bn <- concat1_3_concat1_3_0_split_0
I0214 17:24:18.405115 19209 net.cpp:380] conv1_4/bn -> conv1_4/bn
I0214 17:24:18.405714 19209 net.cpp:122] Setting up conv1_4/bn
I0214 17:24:18.405725 19209 net.cpp:129] Top shape: 1 640 25 73 (1168000)
I0214 17:24:18.405730 19209 net.cpp:137] Memory required for data: 878608524
I0214 17:24:18.405757 19209 layer_factory.hpp:77] Creating layer conv1_4/scale
I0214 17:24:18.405777 19209 net.cpp:84] Creating Layer conv1_4/scale
I0214 17:24:18.405784 19209 net.cpp:406] conv1_4/scale <- conv1_4/bn
I0214 17:24:18.405792 19209 net.cpp:367] conv1_4/scale -> conv1_4/bn (in-place)
I0214 17:24:18.405884 19209 layer_factory.hpp:77] Creating layer conv1_4/scale
I0214 17:24:18.406211 19209 net.cpp:122] Setting up conv1_4/scale
I0214 17:24:18.406224 19209 net.cpp:129] Top shape: 1 640 25 73 (1168000)
I0214 17:24:18.406229 19209 net.cpp:137] Memory required for data: 883280524
I0214 17:24:18.406239 19209 layer_factory.hpp:77] Creating layer relu1_4
I0214 17:24:18.406247 19209 net.cpp:84] Creating Layer relu1_4
I0214 17:24:18.406253 19209 net.cpp:406] relu1_4 <- conv1_4/bn
I0214 17:24:18.406260 19209 net.cpp:367] relu1_4 -> conv1_4/bn (in-place)
I0214 17:24:18.406589 19209 net.cpp:122] Setting up relu1_4
I0214 17:24:18.406602 19209 net.cpp:129] Top shape: 1 640 25 73 (1168000)
I0214 17:24:18.406608 19209 net.cpp:137] Memory required for data: 887952524
I0214 17:24:18.406613 19209 layer_factory.hpp:77] Creating layer conv1_4
I0214 17:24:18.406630 19209 net.cpp:84] Creating Layer conv1_4
I0214 17:24:18.406637 19209 net.cpp:406] conv1_4 <- conv1_4/bn
I0214 17:24:18.406646 19209 net.cpp:380] conv1_4 -> conv1_4
I0214 17:24:18.421135 19209 net.cpp:122] Setting up conv1_4
I0214 17:24:18.421151 19209 net.cpp:129] Top shape: 1 32 25 73 (58400)
I0214 17:24:18.421154 19209 net.cpp:137] Memory required for data: 888186124
I0214 17:24:18.421164 19209 layer_factory.hpp:77] Creating layer concat1_4
I0214 17:24:18.421170 19209 net.cpp:84] Creating Layer concat1_4
I0214 17:24:18.421175 19209 net.cpp:406] concat1_4 <- concat1_3_concat1_3_0_split_1
I0214 17:24:18.421180 19209 net.cpp:406] concat1_4 <- conv1_4
I0214 17:24:18.421187 19209 net.cpp:380] concat1_4 -> concat1_4
I0214 17:24:18.421244 19209 net.cpp:122] Setting up concat1_4
I0214 17:24:18.421252 19209 net.cpp:129] Top shape: 1 672 25 73 (1226400)
I0214 17:24:18.421254 19209 net.cpp:137] Memory required for data: 893091724
I0214 17:24:18.421257 19209 layer_factory.hpp:77] Creating layer concat1_4_concat1_4_0_split
I0214 17:24:18.421263 19209 net.cpp:84] Creating Layer concat1_4_concat1_4_0_split
I0214 17:24:18.421267 19209 net.cpp:406] concat1_4_concat1_4_0_split <- concat1_4
I0214 17:24:18.421274 19209 net.cpp:380] concat1_4_concat1_4_0_split -> concat1_4_concat1_4_0_split_0
I0214 17:24:18.421283 19209 net.cpp:380] concat1_4_concat1_4_0_split -> concat1_4_concat1_4_0_split_1
I0214 17:24:18.421352 19209 net.cpp:122] Setting up concat1_4_concat1_4_0_split
I0214 17:24:18.421358 19209 net.cpp:129] Top shape: 1 672 25 73 (1226400)
I0214 17:24:18.421362 19209 net.cpp:129] Top shape: 1 672 25 73 (1226400)
I0214 17:24:18.421365 19209 net.cpp:137] Memory required for data: 902902924
I0214 17:24:18.421368 19209 layer_factory.hpp:77] Creating layer conv1_5/bn
I0214 17:24:18.421377 19209 net.cpp:84] Creating Layer conv1_5/bn
I0214 17:24:18.421381 19209 net.cpp:406] conv1_5/bn <- concat1_4_concat1_4_0_split_0
I0214 17:24:18.421386 19209 net.cpp:380] conv1_5/bn -> conv1_5/bn
I0214 17:24:18.421794 19209 net.cpp:122] Setting up conv1_5/bn
I0214 17:24:18.421802 19209 net.cpp:129] Top shape: 1 672 25 73 (1226400)
I0214 17:24:18.421805 19209 net.cpp:137] Memory required for data: 907808524
I0214 17:24:18.421813 19209 layer_factory.hpp:77] Creating layer conv1_5/scale
I0214 17:24:18.421821 19209 net.cpp:84] Creating Layer conv1_5/scale
I0214 17:24:18.421825 19209 net.cpp:406] conv1_5/scale <- conv1_5/bn
I0214 17:24:18.421830 19209 net.cpp:367] conv1_5/scale -> conv1_5/bn (in-place)
I0214 17:24:18.421907 19209 layer_factory.hpp:77] Creating layer conv1_5/scale
I0214 17:24:18.422145 19209 net.cpp:122] Setting up conv1_5/scale
I0214 17:24:18.422153 19209 net.cpp:129] Top shape: 1 672 25 73 (1226400)
I0214 17:24:18.422157 19209 net.cpp:137] Memory required for data: 912714124
I0214 17:24:18.422163 19209 layer_factory.hpp:77] Creating layer relu1_5
I0214 17:24:18.422168 19209 net.cpp:84] Creating Layer relu1_5
I0214 17:24:18.422173 19209 net.cpp:406] relu1_5 <- conv1_5/bn
I0214 17:24:18.422179 19209 net.cpp:367] relu1_5 -> conv1_5/bn (in-place)
I0214 17:24:18.423379 19209 net.cpp:122] Setting up relu1_5
I0214 17:24:18.423393 19209 net.cpp:129] Top shape: 1 672 25 73 (1226400)
I0214 17:24:18.423396 19209 net.cpp:137] Memory required for data: 917619724
I0214 17:24:18.423400 19209 layer_factory.hpp:77] Creating layer conv1_5
I0214 17:24:18.423413 19209 net.cpp:84] Creating Layer conv1_5
I0214 17:24:18.423418 19209 net.cpp:406] conv1_5 <- conv1_5/bn
I0214 17:24:18.423426 19209 net.cpp:380] conv1_5 -> conv1_5
I0214 17:24:18.431942 19209 net.cpp:122] Setting up conv1_5
I0214 17:24:18.431957 19209 net.cpp:129] Top shape: 1 32 25 73 (58400)
I0214 17:24:18.431960 19209 net.cpp:137] Memory required for data: 917853324
I0214 17:24:18.431967 19209 layer_factory.hpp:77] Creating layer concat1_5
I0214 17:24:18.431973 19209 net.cpp:84] Creating Layer concat1_5
I0214 17:24:18.431978 19209 net.cpp:406] concat1_5 <- concat1_4_concat1_4_0_split_1
I0214 17:24:18.431983 19209 net.cpp:406] concat1_5 <- conv1_5
I0214 17:24:18.431990 19209 net.cpp:380] concat1_5 -> concat1_5
I0214 17:24:18.432044 19209 net.cpp:122] Setting up concat1_5
I0214 17:24:18.432050 19209 net.cpp:129] Top shape: 1 704 25 73 (1284800)
I0214 17:24:18.432054 19209 net.cpp:137] Memory required for data: 922992524
I0214 17:24:18.432056 19209 layer_factory.hpp:77] Creating layer concat1_5_concat1_5_0_split
I0214 17:24:18.432061 19209 net.cpp:84] Creating Layer concat1_5_concat1_5_0_split
I0214 17:24:18.432065 19209 net.cpp:406] concat1_5_concat1_5_0_split <- concat1_5
I0214 17:24:18.432072 19209 net.cpp:380] concat1_5_concat1_5_0_split -> concat1_5_concat1_5_0_split_0
I0214 17:24:18.432078 19209 net.cpp:380] concat1_5_concat1_5_0_split -> concat1_5_concat1_5_0_split_1
I0214 17:24:18.432150 19209 net.cpp:122] Setting up concat1_5_concat1_5_0_split
I0214 17:24:18.432157 19209 net.cpp:129] Top shape: 1 704 25 73 (1284800)
I0214 17:24:18.432160 19209 net.cpp:129] Top shape: 1 704 25 73 (1284800)
I0214 17:24:18.432163 19209 net.cpp:137] Memory required for data: 933270924
I0214 17:24:18.432168 19209 layer_factory.hpp:77] Creating layer conv1_6/bn
I0214 17:24:18.432174 19209 net.cpp:84] Creating Layer conv1_6/bn
I0214 17:24:18.432178 19209 net.cpp:406] conv1_6/bn <- concat1_5_concat1_5_0_split_0
I0214 17:24:18.432183 19209 net.cpp:380] conv1_6/bn -> conv1_6/bn
I0214 17:24:18.432606 19209 net.cpp:122] Setting up conv1_6/bn
I0214 17:24:18.432615 19209 net.cpp:129] Top shape: 1 704 25 73 (1284800)
I0214 17:24:18.432618 19209 net.cpp:137] Memory required for data: 938410124
I0214 17:24:18.432626 19209 layer_factory.hpp:77] Creating layer conv1_6/scale
I0214 17:24:18.432641 19209 net.cpp:84] Creating Layer conv1_6/scale
I0214 17:24:18.432646 19209 net.cpp:406] conv1_6/scale <- conv1_6/bn
I0214 17:24:18.432651 19209 net.cpp:367] conv1_6/scale -> conv1_6/bn (in-place)
I0214 17:24:18.432729 19209 layer_factory.hpp:77] Creating layer conv1_6/scale
I0214 17:24:18.432962 19209 net.cpp:122] Setting up conv1_6/scale
I0214 17:24:18.432971 19209 net.cpp:129] Top shape: 1 704 25 73 (1284800)
I0214 17:24:18.432973 19209 net.cpp:137] Memory required for data: 943549324
I0214 17:24:18.432979 19209 layer_factory.hpp:77] Creating layer relu1_6
I0214 17:24:18.432986 19209 net.cpp:84] Creating Layer relu1_6
I0214 17:24:18.432989 19209 net.cpp:406] relu1_6 <- conv1_6/bn
I0214 17:24:18.432994 19209 net.cpp:367] relu1_6 -> conv1_6/bn (in-place)
I0214 17:24:18.433226 19209 net.cpp:122] Setting up relu1_6
I0214 17:24:18.433235 19209 net.cpp:129] Top shape: 1 704 25 73 (1284800)
I0214 17:24:18.433238 19209 net.cpp:137] Memory required for data: 948688524
I0214 17:24:18.433243 19209 layer_factory.hpp:77] Creating layer conv1_6
I0214 17:24:18.433254 19209 net.cpp:84] Creating Layer conv1_6
I0214 17:24:18.433257 19209 net.cpp:406] conv1_6 <- conv1_6/bn
I0214 17:24:18.433269 19209 net.cpp:380] conv1_6 -> conv1_6
I0214 17:24:18.444242 19209 net.cpp:122] Setting up conv1_6
I0214 17:24:18.444262 19209 net.cpp:129] Top shape: 1 32 25 73 (58400)
I0214 17:24:18.444270 19209 net.cpp:137] Memory required for data: 948922124
I0214 17:24:18.444280 19209 layer_factory.hpp:77] Creating layer concat1_6
I0214 17:24:18.444295 19209 net.cpp:84] Creating Layer concat1_6
I0214 17:24:18.444303 19209 net.cpp:406] concat1_6 <- concat1_5_concat1_5_0_split_1
I0214 17:24:18.444311 19209 net.cpp:406] concat1_6 <- conv1_6
I0214 17:24:18.444321 19209 net.cpp:380] concat1_6 -> concat1_6
I0214 17:24:18.444399 19209 net.cpp:122] Setting up concat1_6
I0214 17:24:18.444413 19209 net.cpp:129] Top shape: 1 736 25 73 (1343200)
I0214 17:24:18.444420 19209 net.cpp:137] Memory required for data: 954294924
I0214 17:24:18.444427 19209 layer_factory.hpp:77] Creating layer concat1_6_concat1_6_0_split
I0214 17:24:18.444437 19209 net.cpp:84] Creating Layer concat1_6_concat1_6_0_split
I0214 17:24:18.444444 19209 net.cpp:406] concat1_6_concat1_6_0_split <- concat1_6
I0214 17:24:18.444454 19209 net.cpp:380] concat1_6_concat1_6_0_split -> concat1_6_concat1_6_0_split_0
I0214 17:24:18.444466 19209 net.cpp:380] concat1_6_concat1_6_0_split -> concat1_6_concat1_6_0_split_1
I0214 17:24:18.444589 19209 net.cpp:122] Setting up concat1_6_concat1_6_0_split
I0214 17:24:18.444607 19209 net.cpp:129] Top shape: 1 736 25 73 (1343200)
I0214 17:24:18.444614 19209 net.cpp:129] Top shape: 1 736 25 73 (1343200)
I0214 17:24:18.444620 19209 net.cpp:137] Memory required for data: 965040524
I0214 17:24:18.444627 19209 layer_factory.hpp:77] Creating layer conv1_7/bn
I0214 17:24:18.444648 19209 net.cpp:84] Creating Layer conv1_7/bn
I0214 17:24:18.444655 19209 net.cpp:406] conv1_7/bn <- concat1_6_concat1_6_0_split_0
I0214 17:24:18.444665 19209 net.cpp:380] conv1_7/bn -> conv1_7/bn
I0214 17:24:18.445433 19209 net.cpp:122] Setting up conv1_7/bn
I0214 17:24:18.445451 19209 net.cpp:129] Top shape: 1 736 25 73 (1343200)
I0214 17:24:18.445458 19209 net.cpp:137] Memory required for data: 970413324
I0214 17:24:18.445472 19209 layer_factory.hpp:77] Creating layer conv1_7/scale
I0214 17:24:18.445488 19209 net.cpp:84] Creating Layer conv1_7/scale
I0214 17:24:18.445497 19209 net.cpp:406] conv1_7/scale <- conv1_7/bn
I0214 17:24:18.445507 19209 net.cpp:367] conv1_7/scale -> conv1_7/bn (in-place)
I0214 17:24:18.445636 19209 layer_factory.hpp:77] Creating layer conv1_7/scale
I0214 17:24:18.446043 19209 net.cpp:122] Setting up conv1_7/scale
I0214 17:24:18.446061 19209 net.cpp:129] Top shape: 1 736 25 73 (1343200)
I0214 17:24:18.446074 19209 net.cpp:137] Memory required for data: 975786124
I0214 17:24:18.446085 19209 layer_factory.hpp:77] Creating layer relu1_7
I0214 17:24:18.446096 19209 net.cpp:84] Creating Layer relu1_7
I0214 17:24:18.446102 19209 net.cpp:406] relu1_7 <- conv1_7/bn
I0214 17:24:18.446111 19209 net.cpp:367] relu1_7 -> conv1_7/bn (in-place)
I0214 17:24:18.446478 19209 net.cpp:122] Setting up relu1_7
I0214 17:24:18.446496 19209 net.cpp:129] Top shape: 1 736 25 73 (1343200)
I0214 17:24:18.446504 19209 net.cpp:137] Memory required for data: 981158924
I0214 17:24:18.446511 19209 layer_factory.hpp:77] Creating layer conv1_7
I0214 17:24:18.446527 19209 net.cpp:84] Creating Layer conv1_7
I0214 17:24:18.446537 19209 net.cpp:406] conv1_7 <- conv1_7/bn
I0214 17:24:18.446549 19209 net.cpp:380] conv1_7 -> conv1_7
I0214 17:24:18.460260 19209 net.cpp:122] Setting up conv1_7
I0214 17:24:18.460281 19209 net.cpp:129] Top shape: 1 32 25 73 (58400)
I0214 17:24:18.460289 19209 net.cpp:137] Memory required for data: 981392524
I0214 17:24:18.460300 19209 layer_factory.hpp:77] Creating layer concat1_7
I0214 17:24:18.460312 19209 net.cpp:84] Creating Layer concat1_7
I0214 17:24:18.460320 19209 net.cpp:406] concat1_7 <- concat1_6_concat1_6_0_split_1
I0214 17:24:18.460332 19209 net.cpp:406] concat1_7 <- conv1_7
I0214 17:24:18.460343 19209 net.cpp:380] concat1_7 -> concat1_7
I0214 17:24:18.460422 19209 net.cpp:122] Setting up concat1_7
I0214 17:24:18.460436 19209 net.cpp:129] Top shape: 1 768 25 73 (1401600)
I0214 17:24:18.460443 19209 net.cpp:137] Memory required for data: 986998924
I0214 17:24:18.460449 19209 layer_factory.hpp:77] Creating layer concat1_7_concat1_7_0_split
I0214 17:24:18.460461 19209 net.cpp:84] Creating Layer concat1_7_concat1_7_0_split
I0214 17:24:18.460469 19209 net.cpp:406] concat1_7_concat1_7_0_split <- concat1_7
I0214 17:24:18.460479 19209 net.cpp:380] concat1_7_concat1_7_0_split -> concat1_7_concat1_7_0_split_0
I0214 17:24:18.460490 19209 net.cpp:380] concat1_7_concat1_7_0_split -> concat1_7_concat1_7_0_split_1
I0214 17:24:18.460611 19209 net.cpp:122] Setting up concat1_7_concat1_7_0_split
I0214 17:24:18.460625 19209 net.cpp:129] Top shape: 1 768 25 73 (1401600)
I0214 17:24:18.460640 19209 net.cpp:129] Top shape: 1 768 25 73 (1401600)
I0214 17:24:18.460647 19209 net.cpp:137] Memory required for data: 998211724
I0214 17:24:18.460654 19209 layer_factory.hpp:77] Creating layer conv1_8/bn
I0214 17:24:18.460666 19209 net.cpp:84] Creating Layer conv1_8/bn
I0214 17:24:18.460674 19209 net.cpp:406] conv1_8/bn <- concat1_7_concat1_7_0_split_0
I0214 17:24:18.460685 19209 net.cpp:380] conv1_8/bn -> conv1_8/bn
I0214 17:24:18.461426 19209 net.cpp:122] Setting up conv1_8/bn
I0214 17:24:18.461442 19209 net.cpp:129] Top shape: 1 768 25 73 (1401600)
I0214 17:24:18.461449 19209 net.cpp:137] Memory required for data: 1003818124
I0214 17:24:18.461463 19209 layer_factory.hpp:77] Creating layer conv1_8/scale
I0214 17:24:18.461478 19209 net.cpp:84] Creating Layer conv1_8/scale
I0214 17:24:18.461486 19209 net.cpp:406] conv1_8/scale <- conv1_8/bn
I0214 17:24:18.461498 19209 net.cpp:367] conv1_8/scale -> conv1_8/bn (in-place)
I0214 17:24:18.461607 19209 layer_factory.hpp:77] Creating layer conv1_8/scale
I0214 17:24:18.462002 19209 net.cpp:122] Setting up conv1_8/scale
I0214 17:24:18.462018 19209 net.cpp:129] Top shape: 1 768 25 73 (1401600)
I0214 17:24:18.462024 19209 net.cpp:137] Memory required for data: 1009424524
I0214 17:24:18.462036 19209 layer_factory.hpp:77] Creating layer relu1_8
I0214 17:24:18.462054 19209 net.cpp:84] Creating Layer relu1_8
I0214 17:24:18.462062 19209 net.cpp:406] relu1_8 <- conv1_8/bn
I0214 17:24:18.462072 19209 net.cpp:367] relu1_8 -> conv1_8/bn (in-place)
I0214 17:24:18.463701 19209 net.cpp:122] Setting up relu1_8
I0214 17:24:18.463719 19209 net.cpp:129] Top shape: 1 768 25 73 (1401600)
I0214 17:24:18.463727 19209 net.cpp:137] Memory required for data: 1015030924
I0214 17:24:18.463734 19209 layer_factory.hpp:77] Creating layer conv1_8
I0214 17:24:18.463753 19209 net.cpp:84] Creating Layer conv1_8
I0214 17:24:18.463766 19209 net.cpp:406] conv1_8 <- conv1_8/bn
I0214 17:24:18.463779 19209 net.cpp:380] conv1_8 -> conv1_8
I0214 17:24:18.475374 19209 net.cpp:122] Setting up conv1_8
I0214 17:24:18.475390 19209 net.cpp:129] Top shape: 1 32 25 73 (58400)
I0214 17:24:18.475394 19209 net.cpp:137] Memory required for data: 1015264524
I0214 17:24:18.475401 19209 layer_factory.hpp:77] Creating layer concat1_8
I0214 17:24:18.475410 19209 net.cpp:84] Creating Layer concat1_8
I0214 17:24:18.475415 19209 net.cpp:406] concat1_8 <- concat1_7_concat1_7_0_split_1
I0214 17:24:18.475420 19209 net.cpp:406] concat1_8 <- conv1_8
I0214 17:24:18.475426 19209 net.cpp:380] concat1_8 -> concat1_8
I0214 17:24:18.475481 19209 net.cpp:122] Setting up concat1_8
I0214 17:24:18.475488 19209 net.cpp:129] Top shape: 1 800 25 73 (1460000)
I0214 17:24:18.475492 19209 net.cpp:137] Memory required for data: 1021104524
I0214 17:24:18.475494 19209 layer_factory.hpp:77] Creating layer concat1_8_concat1_8_0_split
I0214 17:24:18.475499 19209 net.cpp:84] Creating Layer concat1_8_concat1_8_0_split
I0214 17:24:18.475503 19209 net.cpp:406] concat1_8_concat1_8_0_split <- concat1_8
I0214 17:24:18.475510 19209 net.cpp:380] concat1_8_concat1_8_0_split -> concat1_8_concat1_8_0_split_0
I0214 17:24:18.475517 19209 net.cpp:380] concat1_8_concat1_8_0_split -> concat1_8_concat1_8_0_split_1
I0214 17:24:18.475584 19209 net.cpp:122] Setting up concat1_8_concat1_8_0_split
I0214 17:24:18.475590 19209 net.cpp:129] Top shape: 1 800 25 73 (1460000)
I0214 17:24:18.475594 19209 net.cpp:129] Top shape: 1 800 25 73 (1460000)
I0214 17:24:18.475597 19209 net.cpp:137] Memory required for data: 1032784524
I0214 17:24:18.475600 19209 layer_factory.hpp:77] Creating layer conv1_9/bn
I0214 17:24:18.475607 19209 net.cpp:84] Creating Layer conv1_9/bn
I0214 17:24:18.475611 19209 net.cpp:406] conv1_9/bn <- concat1_8_concat1_8_0_split_0
I0214 17:24:18.475618 19209 net.cpp:380] conv1_9/bn -> conv1_9/bn
I0214 17:24:18.476040 19209 net.cpp:122] Setting up conv1_9/bn
I0214 17:24:18.476048 19209 net.cpp:129] Top shape: 1 800 25 73 (1460000)
I0214 17:24:18.476052 19209 net.cpp:137] Memory required for data: 1038624524
I0214 17:24:18.476059 19209 layer_factory.hpp:77] Creating layer conv1_9/scale
I0214 17:24:18.476068 19209 net.cpp:84] Creating Layer conv1_9/scale
I0214 17:24:18.476071 19209 net.cpp:406] conv1_9/scale <- conv1_9/bn
I0214 17:24:18.476076 19209 net.cpp:367] conv1_9/scale -> conv1_9/bn (in-place)
I0214 17:24:18.476155 19209 layer_factory.hpp:77] Creating layer conv1_9/scale
I0214 17:24:18.476395 19209 net.cpp:122] Setting up conv1_9/scale
I0214 17:24:18.476403 19209 net.cpp:129] Top shape: 1 800 25 73 (1460000)
I0214 17:24:18.476406 19209 net.cpp:137] Memory required for data: 1044464524
I0214 17:24:18.476413 19209 layer_factory.hpp:77] Creating layer relu1_9
I0214 17:24:18.476418 19209 net.cpp:84] Creating Layer relu1_9
I0214 17:24:18.476421 19209 net.cpp:406] relu1_9 <- conv1_9/bn
I0214 17:24:18.476426 19209 net.cpp:367] relu1_9 -> conv1_9/bn (in-place)
I0214 17:24:18.476670 19209 net.cpp:122] Setting up relu1_9
I0214 17:24:18.476680 19209 net.cpp:129] Top shape: 1 800 25 73 (1460000)
I0214 17:24:18.476682 19209 net.cpp:137] Memory required for data: 1050304524
I0214 17:24:18.476686 19209 layer_factory.hpp:77] Creating layer conv1_9
I0214 17:24:18.476697 19209 net.cpp:84] Creating Layer conv1_9
I0214 17:24:18.476701 19209 net.cpp:406] conv1_9 <- conv1_9/bn
I0214 17:24:18.476709 19209 net.cpp:380] conv1_9 -> conv1_9
I0214 17:24:18.486775 19209 net.cpp:122] Setting up conv1_9
I0214 17:24:18.486796 19209 net.cpp:129] Top shape: 1 32 25 73 (58400)
I0214 17:24:18.486804 19209 net.cpp:137] Memory required for data: 1050538124
I0214 17:24:18.486814 19209 layer_factory.hpp:77] Creating layer concat1_9
I0214 17:24:18.486824 19209 net.cpp:84] Creating Layer concat1_9
I0214 17:24:18.486832 19209 net.cpp:406] concat1_9 <- concat1_8_concat1_8_0_split_1
I0214 17:24:18.486840 19209 net.cpp:406] concat1_9 <- conv1_9
I0214 17:24:18.486855 19209 net.cpp:380] concat1_9 -> concat1_9
I0214 17:24:18.486937 19209 net.cpp:122] Setting up concat1_9
I0214 17:24:18.486953 19209 net.cpp:129] Top shape: 1 832 25 73 (1518400)
I0214 17:24:18.486958 19209 net.cpp:137] Memory required for data: 1056611724
I0214 17:24:18.486965 19209 layer_factory.hpp:77] Creating layer concat1_9_concat1_9_0_split
I0214 17:24:18.486979 19209 net.cpp:84] Creating Layer concat1_9_concat1_9_0_split
I0214 17:24:18.486985 19209 net.cpp:406] concat1_9_concat1_9_0_split <- concat1_9
I0214 17:24:18.486995 19209 net.cpp:380] concat1_9_concat1_9_0_split -> concat1_9_concat1_9_0_split_0
I0214 17:24:18.487006 19209 net.cpp:380] concat1_9_concat1_9_0_split -> concat1_9_concat1_9_0_split_1
I0214 17:24:18.487126 19209 net.cpp:122] Setting up concat1_9_concat1_9_0_split
I0214 17:24:18.487141 19209 net.cpp:129] Top shape: 1 832 25 73 (1518400)
I0214 17:24:18.487149 19209 net.cpp:129] Top shape: 1 832 25 73 (1518400)
I0214 17:24:18.487154 19209 net.cpp:137] Memory required for data: 1068758924
I0214 17:24:18.487160 19209 layer_factory.hpp:77] Creating layer conv1_10/bn
I0214 17:24:18.487174 19209 net.cpp:84] Creating Layer conv1_10/bn
I0214 17:24:18.487180 19209 net.cpp:406] conv1_10/bn <- concat1_9_concat1_9_0_split_0
I0214 17:24:18.487191 19209 net.cpp:380] conv1_10/bn -> conv1_10/bn
I0214 17:24:18.487984 19209 net.cpp:122] Setting up conv1_10/bn
I0214 17:24:18.488003 19209 net.cpp:129] Top shape: 1 832 25 73 (1518400)
I0214 17:24:18.488009 19209 net.cpp:137] Memory required for data: 1074832524
I0214 17:24:18.488023 19209 layer_factory.hpp:77] Creating layer conv1_10/scale
I0214 17:24:18.488039 19209 net.cpp:84] Creating Layer conv1_10/scale
I0214 17:24:18.488047 19209 net.cpp:406] conv1_10/scale <- conv1_10/bn
I0214 17:24:18.488057 19209 net.cpp:367] conv1_10/scale -> conv1_10/bn (in-place)
I0214 17:24:18.488190 19209 layer_factory.hpp:77] Creating layer conv1_10/scale
I0214 17:24:18.488605 19209 net.cpp:122] Setting up conv1_10/scale
I0214 17:24:18.488621 19209 net.cpp:129] Top shape: 1 832 25 73 (1518400)
I0214 17:24:18.488638 19209 net.cpp:137] Memory required for data: 1080906124
I0214 17:24:18.488652 19209 layer_factory.hpp:77] Creating layer relu1_10
I0214 17:24:18.488672 19209 net.cpp:84] Creating Layer relu1_10
I0214 17:24:18.488680 19209 net.cpp:406] relu1_10 <- conv1_10/bn
I0214 17:24:18.488700 19209 net.cpp:367] relu1_10 -> conv1_10/bn (in-place)
I0214 17:24:18.489068 19209 net.cpp:122] Setting up relu1_10
I0214 17:24:18.489085 19209 net.cpp:129] Top shape: 1 832 25 73 (1518400)
I0214 17:24:18.489092 19209 net.cpp:137] Memory required for data: 1086979724
I0214 17:24:18.489099 19209 layer_factory.hpp:77] Creating layer conv1_10
I0214 17:24:18.489115 19209 net.cpp:84] Creating Layer conv1_10
I0214 17:24:18.489123 19209 net.cpp:406] conv1_10 <- conv1_10/bn
I0214 17:24:18.489136 19209 net.cpp:380] conv1_10 -> conv1_10
I0214 17:24:18.506371 19209 net.cpp:122] Setting up conv1_10
I0214 17:24:18.506389 19209 net.cpp:129] Top shape: 1 32 25 73 (58400)
I0214 17:24:18.506395 19209 net.cpp:137] Memory required for data: 1087213324
I0214 17:24:18.506404 19209 layer_factory.hpp:77] Creating layer concat1_10
I0214 17:24:18.506414 19209 net.cpp:84] Creating Layer concat1_10
I0214 17:24:18.506422 19209 net.cpp:406] concat1_10 <- concat1_9_concat1_9_0_split_1
I0214 17:24:18.506429 19209 net.cpp:406] concat1_10 <- conv1_10
I0214 17:24:18.506440 19209 net.cpp:380] concat1_10 -> concat1_10
I0214 17:24:18.506520 19209 net.cpp:122] Setting up concat1_10
I0214 17:24:18.506531 19209 net.cpp:129] Top shape: 1 864 25 73 (1576800)
I0214 17:24:18.506536 19209 net.cpp:137] Memory required for data: 1093520524
I0214 17:24:18.506541 19209 layer_factory.hpp:77] Creating layer concat1_10_concat1_10_0_split
I0214 17:24:18.506551 19209 net.cpp:84] Creating Layer concat1_10_concat1_10_0_split
I0214 17:24:18.506556 19209 net.cpp:406] concat1_10_concat1_10_0_split <- concat1_10
I0214 17:24:18.506567 19209 net.cpp:380] concat1_10_concat1_10_0_split -> concat1_10_concat1_10_0_split_0
I0214 17:24:18.506578 19209 net.cpp:380] concat1_10_concat1_10_0_split -> concat1_10_concat1_10_0_split_1
I0214 17:24:18.506705 19209 net.cpp:122] Setting up concat1_10_concat1_10_0_split
I0214 17:24:18.506719 19209 net.cpp:129] Top shape: 1 864 25 73 (1576800)
I0214 17:24:18.506727 19209 net.cpp:129] Top shape: 1 864 25 73 (1576800)
I0214 17:24:18.506733 19209 net.cpp:137] Memory required for data: 1106134924
I0214 17:24:18.506739 19209 layer_factory.hpp:77] Creating layer conv1_11/bn
I0214 17:24:18.506752 19209 net.cpp:84] Creating Layer conv1_11/bn
I0214 17:24:18.506759 19209 net.cpp:406] conv1_11/bn <- concat1_10_concat1_10_0_split_0
I0214 17:24:18.506769 19209 net.cpp:380] conv1_11/bn -> conv1_11/bn
I0214 17:24:18.507442 19209 net.cpp:122] Setting up conv1_11/bn
I0214 17:24:18.507457 19209 net.cpp:129] Top shape: 1 864 25 73 (1576800)
I0214 17:24:18.507462 19209 net.cpp:137] Memory required for data: 1112442124
I0214 17:24:18.507475 19209 layer_factory.hpp:77] Creating layer conv1_11/scale
I0214 17:24:18.507488 19209 net.cpp:84] Creating Layer conv1_11/scale
I0214 17:24:18.507494 19209 net.cpp:406] conv1_11/scale <- conv1_11/bn
I0214 17:24:18.507503 19209 net.cpp:367] conv1_11/scale -> conv1_11/bn (in-place)
I0214 17:24:18.507616 19209 layer_factory.hpp:77] Creating layer conv1_11/scale
I0214 17:24:18.507975 19209 net.cpp:122] Setting up conv1_11/scale
I0214 17:24:18.507987 19209 net.cpp:129] Top shape: 1 864 25 73 (1576800)
I0214 17:24:18.507992 19209 net.cpp:137] Memory required for data: 1118749324
I0214 17:24:18.508002 19209 layer_factory.hpp:77] Creating layer relu1_11
I0214 17:24:18.508010 19209 net.cpp:84] Creating Layer relu1_11
I0214 17:24:18.508016 19209 net.cpp:406] relu1_11 <- conv1_11/bn
I0214 17:24:18.508023 19209 net.cpp:367] relu1_11 -> conv1_11/bn (in-place)
I0214 17:24:18.508374 19209 net.cpp:122] Setting up relu1_11
I0214 17:24:18.508390 19209 net.cpp:129] Top shape: 1 864 25 73 (1576800)
I0214 17:24:18.508396 19209 net.cpp:137] Memory required for data: 1125056524
I0214 17:24:18.508404 19209 layer_factory.hpp:77] Creating layer conv1_11
I0214 17:24:18.508419 19209 net.cpp:84] Creating Layer conv1_11
I0214 17:24:18.508429 19209 net.cpp:406] conv1_11 <- conv1_11/bn
I0214 17:24:18.508441 19209 net.cpp:380] conv1_11 -> conv1_11
I0214 17:24:18.522975 19209 net.cpp:122] Setting up conv1_11
I0214 17:24:18.522990 19209 net.cpp:129] Top shape: 1 32 25 73 (58400)
I0214 17:24:18.522994 19209 net.cpp:137] Memory required for data: 1125290124
I0214 17:24:18.523000 19209 layer_factory.hpp:77] Creating layer concat1_11
I0214 17:24:18.523008 19209 net.cpp:84] Creating Layer concat1_11
I0214 17:24:18.523012 19209 net.cpp:406] concat1_11 <- concat1_10_concat1_10_0_split_1
I0214 17:24:18.523018 19209 net.cpp:406] concat1_11 <- conv1_11
I0214 17:24:18.523025 19209 net.cpp:380] concat1_11 -> concat1_11
I0214 17:24:18.523080 19209 net.cpp:122] Setting up concat1_11
I0214 17:24:18.523087 19209 net.cpp:129] Top shape: 1 896 25 73 (1635200)
I0214 17:24:18.523089 19209 net.cpp:137] Memory required for data: 1131830924
I0214 17:24:18.523093 19209 layer_factory.hpp:77] Creating layer concat1_11_concat1_11_0_split
I0214 17:24:18.523098 19209 net.cpp:84] Creating Layer concat1_11_concat1_11_0_split
I0214 17:24:18.523102 19209 net.cpp:406] concat1_11_concat1_11_0_split <- concat1_11
I0214 17:24:18.523109 19209 net.cpp:380] concat1_11_concat1_11_0_split -> concat1_11_concat1_11_0_split_0
I0214 17:24:18.523115 19209 net.cpp:380] concat1_11_concat1_11_0_split -> concat1_11_concat1_11_0_split_1
I0214 17:24:18.523186 19209 net.cpp:122] Setting up concat1_11_concat1_11_0_split
I0214 17:24:18.523193 19209 net.cpp:129] Top shape: 1 896 25 73 (1635200)
I0214 17:24:18.523197 19209 net.cpp:129] Top shape: 1 896 25 73 (1635200)
I0214 17:24:18.523200 19209 net.cpp:137] Memory required for data: 1144912524
I0214 17:24:18.523203 19209 layer_factory.hpp:77] Creating layer conv1_12/bn
I0214 17:24:18.523211 19209 net.cpp:84] Creating Layer conv1_12/bn
I0214 17:24:18.523214 19209 net.cpp:406] conv1_12/bn <- concat1_11_concat1_11_0_split_0
I0214 17:24:18.523219 19209 net.cpp:380] conv1_12/bn -> conv1_12/bn
I0214 17:24:18.523645 19209 net.cpp:122] Setting up conv1_12/bn
I0214 17:24:18.523658 19209 net.cpp:129] Top shape: 1 896 25 73 (1635200)
I0214 17:24:18.523663 19209 net.cpp:137] Memory required for data: 1151453324
I0214 17:24:18.523670 19209 layer_factory.hpp:77] Creating layer conv1_12/scale
I0214 17:24:18.523677 19209 net.cpp:84] Creating Layer conv1_12/scale
I0214 17:24:18.523681 19209 net.cpp:406] conv1_12/scale <- conv1_12/bn
I0214 17:24:18.523689 19209 net.cpp:367] conv1_12/scale -> conv1_12/bn (in-place)
I0214 17:24:18.523758 19209 layer_factory.hpp:77] Creating layer conv1_12/scale
I0214 17:24:18.523993 19209 net.cpp:122] Setting up conv1_12/scale
I0214 17:24:18.524000 19209 net.cpp:129] Top shape: 1 896 25 73 (1635200)
I0214 17:24:18.524003 19209 net.cpp:137] Memory required for data: 1157994124
I0214 17:24:18.524009 19209 layer_factory.hpp:77] Creating layer relu1_12
I0214 17:24:18.524015 19209 net.cpp:84] Creating Layer relu1_12
I0214 17:24:18.524019 19209 net.cpp:406] relu1_12 <- conv1_12/bn
I0214 17:24:18.524024 19209 net.cpp:367] relu1_12 -> conv1_12/bn (in-place)
I0214 17:24:18.525249 19209 net.cpp:122] Setting up relu1_12
I0214 17:24:18.525262 19209 net.cpp:129] Top shape: 1 896 25 73 (1635200)
I0214 17:24:18.525267 19209 net.cpp:137] Memory required for data: 1164534924
I0214 17:24:18.525271 19209 layer_factory.hpp:77] Creating layer conv1_12
I0214 17:24:18.525281 19209 net.cpp:84] Creating Layer conv1_12
I0214 17:24:18.525285 19209 net.cpp:406] conv1_12 <- conv1_12/bn
I0214 17:24:18.525295 19209 net.cpp:380] conv1_12 -> conv1_12
I0214 17:24:18.537454 19209 net.cpp:122] Setting up conv1_12
I0214 17:24:18.537472 19209 net.cpp:129] Top shape: 1 32 25 73 (58400)
I0214 17:24:18.537475 19209 net.cpp:137] Memory required for data: 1164768524
I0214 17:24:18.537482 19209 layer_factory.hpp:77] Creating layer concat1_12
I0214 17:24:18.537489 19209 net.cpp:84] Creating Layer concat1_12
I0214 17:24:18.537493 19209 net.cpp:406] concat1_12 <- concat1_11_concat1_11_0_split_1
I0214 17:24:18.537498 19209 net.cpp:406] concat1_12 <- conv1_12
I0214 17:24:18.537503 19209 net.cpp:380] concat1_12 -> concat1_12
I0214 17:24:18.537560 19209 net.cpp:122] Setting up concat1_12
I0214 17:24:18.537567 19209 net.cpp:129] Top shape: 1 928 25 73 (1693600)
I0214 17:24:18.537570 19209 net.cpp:137] Memory required for data: 1171542924
I0214 17:24:18.537573 19209 layer_factory.hpp:77] Creating layer concat1_12_concat1_12_0_split
I0214 17:24:18.537580 19209 net.cpp:84] Creating Layer concat1_12_concat1_12_0_split
I0214 17:24:18.537582 19209 net.cpp:406] concat1_12_concat1_12_0_split <- concat1_12
I0214 17:24:18.537587 19209 net.cpp:380] concat1_12_concat1_12_0_split -> concat1_12_concat1_12_0_split_0
I0214 17:24:18.537595 19209 net.cpp:380] concat1_12_concat1_12_0_split -> concat1_12_concat1_12_0_split_1
I0214 17:24:18.537665 19209 net.cpp:122] Setting up concat1_12_concat1_12_0_split
I0214 17:24:18.537673 19209 net.cpp:129] Top shape: 1 928 25 73 (1693600)
I0214 17:24:18.537678 19209 net.cpp:129] Top shape: 1 928 25 73 (1693600)
I0214 17:24:18.537680 19209 net.cpp:137] Memory required for data: 1185091724
I0214 17:24:18.537683 19209 layer_factory.hpp:77] Creating layer conv1_13/bn
I0214 17:24:18.537689 19209 net.cpp:84] Creating Layer conv1_13/bn
I0214 17:24:18.537693 19209 net.cpp:406] conv1_13/bn <- concat1_12_concat1_12_0_split_0
I0214 17:24:18.537700 19209 net.cpp:380] conv1_13/bn -> conv1_13/bn
I0214 17:24:18.538149 19209 net.cpp:122] Setting up conv1_13/bn
I0214 17:24:18.538157 19209 net.cpp:129] Top shape: 1 928 25 73 (1693600)
I0214 17:24:18.538161 19209 net.cpp:137] Memory required for data: 1191866124
I0214 17:24:18.538168 19209 layer_factory.hpp:77] Creating layer conv1_13/scale
I0214 17:24:18.538177 19209 net.cpp:84] Creating Layer conv1_13/scale
I0214 17:24:18.538182 19209 net.cpp:406] conv1_13/scale <- conv1_13/bn
I0214 17:24:18.538187 19209 net.cpp:367] conv1_13/scale -> conv1_13/bn (in-place)
I0214 17:24:18.538269 19209 layer_factory.hpp:77] Creating layer conv1_13/scale
I0214 17:24:18.538516 19209 net.cpp:122] Setting up conv1_13/scale
I0214 17:24:18.538528 19209 net.cpp:129] Top shape: 1 928 25 73 (1693600)
I0214 17:24:18.538532 19209 net.cpp:137] Memory required for data: 1198640524
I0214 17:24:18.538537 19209 layer_factory.hpp:77] Creating layer relu1_13
I0214 17:24:18.538543 19209 net.cpp:84] Creating Layer relu1_13
I0214 17:24:18.538547 19209 net.cpp:406] relu1_13 <- conv1_13/bn
I0214 17:24:18.538552 19209 net.cpp:367] relu1_13 -> conv1_13/bn (in-place)
I0214 17:24:18.538792 19209 net.cpp:122] Setting up relu1_13
I0214 17:24:18.538801 19209 net.cpp:129] Top shape: 1 928 25 73 (1693600)
I0214 17:24:18.538805 19209 net.cpp:137] Memory required for data: 1205414924
I0214 17:24:18.538808 19209 layer_factory.hpp:77] Creating layer conv1_13
I0214 17:24:18.538820 19209 net.cpp:84] Creating Layer conv1_13
I0214 17:24:18.538823 19209 net.cpp:406] conv1_13 <- conv1_13/bn
I0214 17:24:18.538831 19209 net.cpp:380] conv1_13 -> conv1_13
I0214 17:24:18.551267 19209 net.cpp:122] Setting up conv1_13
I0214 17:24:18.551282 19209 net.cpp:129] Top shape: 1 32 25 73 (58400)
I0214 17:24:18.551286 19209 net.cpp:137] Memory required for data: 1205648524
I0214 17:24:18.551292 19209 layer_factory.hpp:77] Creating layer concat1_13
I0214 17:24:18.551300 19209 net.cpp:84] Creating Layer concat1_13
I0214 17:24:18.551304 19209 net.cpp:406] concat1_13 <- concat1_12_concat1_12_0_split_1
I0214 17:24:18.551309 19209 net.cpp:406] concat1_13 <- conv1_13
I0214 17:24:18.551317 19209 net.cpp:380] concat1_13 -> concat1_13
I0214 17:24:18.551373 19209 net.cpp:122] Setting up concat1_13
I0214 17:24:18.551378 19209 net.cpp:129] Top shape: 1 960 25 73 (1752000)
I0214 17:24:18.551383 19209 net.cpp:137] Memory required for data: 1212656524
I0214 17:24:18.551385 19209 layer_factory.hpp:77] Creating layer concat1_13_concat1_13_0_split
I0214 17:24:18.551391 19209 net.cpp:84] Creating Layer concat1_13_concat1_13_0_split
I0214 17:24:18.551394 19209 net.cpp:406] concat1_13_concat1_13_0_split <- concat1_13
I0214 17:24:18.551401 19209 net.cpp:380] concat1_13_concat1_13_0_split -> concat1_13_concat1_13_0_split_0
I0214 17:24:18.551407 19209 net.cpp:380] concat1_13_concat1_13_0_split -> concat1_13_concat1_13_0_split_1
I0214 17:24:18.551479 19209 net.cpp:122] Setting up concat1_13_concat1_13_0_split
I0214 17:24:18.551486 19209 net.cpp:129] Top shape: 1 960 25 73 (1752000)
I0214 17:24:18.551489 19209 net.cpp:129] Top shape: 1 960 25 73 (1752000)
I0214 17:24:18.551492 19209 net.cpp:137] Memory required for data: 1226672524
I0214 17:24:18.551496 19209 layer_factory.hpp:77] Creating layer conv1_14/bn
I0214 17:24:18.551501 19209 net.cpp:84] Creating Layer conv1_14/bn
I0214 17:24:18.551504 19209 net.cpp:406] conv1_14/bn <- concat1_13_concat1_13_0_split_0
I0214 17:24:18.551517 19209 net.cpp:380] conv1_14/bn -> conv1_14/bn
I0214 17:24:18.551964 19209 net.cpp:122] Setting up conv1_14/bn
I0214 17:24:18.551970 19209 net.cpp:129] Top shape: 1 960 25 73 (1752000)
I0214 17:24:18.551973 19209 net.cpp:137] Memory required for data: 1233680524
I0214 17:24:18.551981 19209 layer_factory.hpp:77] Creating layer conv1_14/scale
I0214 17:24:18.551990 19209 net.cpp:84] Creating Layer conv1_14/scale
I0214 17:24:18.551995 19209 net.cpp:406] conv1_14/scale <- conv1_14/bn
I0214 17:24:18.552000 19209 net.cpp:367] conv1_14/scale -> conv1_14/bn (in-place)
I0214 17:24:18.552080 19209 layer_factory.hpp:77] Creating layer conv1_14/scale
I0214 17:24:18.552330 19209 net.cpp:122] Setting up conv1_14/scale
I0214 17:24:18.552338 19209 net.cpp:129] Top shape: 1 960 25 73 (1752000)
I0214 17:24:18.552341 19209 net.cpp:137] Memory required for data: 1240688524
I0214 17:24:18.552348 19209 layer_factory.hpp:77] Creating layer relu1_14
I0214 17:24:18.552354 19209 net.cpp:84] Creating Layer relu1_14
I0214 17:24:18.552357 19209 net.cpp:406] relu1_14 <- conv1_14/bn
I0214 17:24:18.552362 19209 net.cpp:367] relu1_14 -> conv1_14/bn (in-place)
I0214 17:24:18.553648 19209 net.cpp:122] Setting up relu1_14
I0214 17:24:18.553663 19209 net.cpp:129] Top shape: 1 960 25 73 (1752000)
I0214 17:24:18.553665 19209 net.cpp:137] Memory required for data: 1247696524
I0214 17:24:18.553673 19209 layer_factory.hpp:77] Creating layer conv1_14
I0214 17:24:18.553684 19209 net.cpp:84] Creating Layer conv1_14
I0214 17:24:18.553689 19209 net.cpp:406] conv1_14 <- conv1_14/bn
I0214 17:24:18.553699 19209 net.cpp:380] conv1_14 -> conv1_14
I0214 17:24:18.567024 19209 net.cpp:122] Setting up conv1_14
I0214 17:24:18.567045 19209 net.cpp:129] Top shape: 1 32 25 73 (58400)
I0214 17:24:18.567054 19209 net.cpp:137] Memory required for data: 1247930124
I0214 17:24:18.567065 19209 layer_factory.hpp:77] Creating layer concat1_14
I0214 17:24:18.567076 19209 net.cpp:84] Creating Layer concat1_14
I0214 17:24:18.567083 19209 net.cpp:406] concat1_14 <- concat1_13_concat1_13_0_split_1
I0214 17:24:18.567091 19209 net.cpp:406] concat1_14 <- conv1_14
I0214 17:24:18.567104 19209 net.cpp:380] concat1_14 -> concat1_14
I0214 17:24:18.567188 19209 net.cpp:122] Setting up concat1_14
I0214 17:24:18.567201 19209 net.cpp:129] Top shape: 1 992 25 73 (1810400)
I0214 17:24:18.567207 19209 net.cpp:137] Memory required for data: 1255171724
I0214 17:24:18.567212 19209 layer_factory.hpp:77] Creating layer concat1_14_concat1_14_0_split
I0214 17:24:18.567224 19209 net.cpp:84] Creating Layer concat1_14_concat1_14_0_split
I0214 17:24:18.567231 19209 net.cpp:406] concat1_14_concat1_14_0_split <- concat1_14
I0214 17:24:18.567241 19209 net.cpp:380] concat1_14_concat1_14_0_split -> concat1_14_concat1_14_0_split_0
I0214 17:24:18.567252 19209 net.cpp:380] concat1_14_concat1_14_0_split -> concat1_14_concat1_14_0_split_1
I0214 17:24:18.567386 19209 net.cpp:122] Setting up concat1_14_concat1_14_0_split
I0214 17:24:18.567400 19209 net.cpp:129] Top shape: 1 992 25 73 (1810400)
I0214 17:24:18.567409 19209 net.cpp:129] Top shape: 1 992 25 73 (1810400)
I0214 17:24:18.567414 19209 net.cpp:137] Memory required for data: 1269654924
I0214 17:24:18.567420 19209 layer_factory.hpp:77] Creating layer conv1_15/bn
I0214 17:24:18.567431 19209 net.cpp:84] Creating Layer conv1_15/bn
I0214 17:24:18.567438 19209 net.cpp:406] conv1_15/bn <- concat1_14_concat1_14_0_split_0
I0214 17:24:18.567452 19209 net.cpp:380] conv1_15/bn -> conv1_15/bn
I0214 17:24:18.568270 19209 net.cpp:122] Setting up conv1_15/bn
I0214 17:24:18.568287 19209 net.cpp:129] Top shape: 1 992 25 73 (1810400)
I0214 17:24:18.568294 19209 net.cpp:137] Memory required for data: 1276896524
I0214 17:24:18.568307 19209 layer_factory.hpp:77] Creating layer conv1_15/scale
I0214 17:24:18.568323 19209 net.cpp:84] Creating Layer conv1_15/scale
I0214 17:24:18.568331 19209 net.cpp:406] conv1_15/scale <- conv1_15/bn
I0214 17:24:18.568341 19209 net.cpp:367] conv1_15/scale -> conv1_15/bn (in-place)
I0214 17:24:18.568475 19209 layer_factory.hpp:77] Creating layer conv1_15/scale
I0214 17:24:18.568936 19209 net.cpp:122] Setting up conv1_15/scale
I0214 17:24:18.568953 19209 net.cpp:129] Top shape: 1 992 25 73 (1810400)
I0214 17:24:18.568959 19209 net.cpp:137] Memory required for data: 1284138124
I0214 17:24:18.568971 19209 layer_factory.hpp:77] Creating layer relu1_15
I0214 17:24:18.568982 19209 net.cpp:84] Creating Layer relu1_15
I0214 17:24:18.568990 19209 net.cpp:406] relu1_15 <- conv1_15/bn
I0214 17:24:18.569006 19209 net.cpp:367] relu1_15 -> conv1_15/bn (in-place)
I0214 17:24:18.570627 19209 net.cpp:122] Setting up relu1_15
I0214 17:24:18.570647 19209 net.cpp:129] Top shape: 1 992 25 73 (1810400)
I0214 17:24:18.570652 19209 net.cpp:137] Memory required for data: 1291379724
I0214 17:24:18.570658 19209 layer_factory.hpp:77] Creating layer conv1_15
I0214 17:24:18.570674 19209 net.cpp:84] Creating Layer conv1_15
I0214 17:24:18.570682 19209 net.cpp:406] conv1_15 <- conv1_15/bn
I0214 17:24:18.570700 19209 net.cpp:380] conv1_15 -> conv1_15
I0214 17:24:18.589635 19209 net.cpp:122] Setting up conv1_15
I0214 17:24:18.589653 19209 net.cpp:129] Top shape: 1 32 25 73 (58400)
I0214 17:24:18.589655 19209 net.cpp:137] Memory required for data: 1291613324
I0214 17:24:18.589663 19209 layer_factory.hpp:77] Creating layer concat1_15
I0214 17:24:18.589671 19209 net.cpp:84] Creating Layer concat1_15
I0214 17:24:18.589676 19209 net.cpp:406] concat1_15 <- concat1_14_concat1_14_0_split_1
I0214 17:24:18.589685 19209 net.cpp:406] concat1_15 <- conv1_15
I0214 17:24:18.589691 19209 net.cpp:380] concat1_15 -> concat1_15
I0214 17:24:18.589749 19209 net.cpp:122] Setting up concat1_15
I0214 17:24:18.589756 19209 net.cpp:129] Top shape: 1 1024 25 73 (1868800)
I0214 17:24:18.589759 19209 net.cpp:137] Memory required for data: 1299088524
I0214 17:24:18.589762 19209 layer_factory.hpp:77] Creating layer concat1_15_concat1_15_0_split
I0214 17:24:18.589768 19209 net.cpp:84] Creating Layer concat1_15_concat1_15_0_split
I0214 17:24:18.589772 19209 net.cpp:406] concat1_15_concat1_15_0_split <- concat1_15
I0214 17:24:18.589782 19209 net.cpp:380] concat1_15_concat1_15_0_split -> concat1_15_concat1_15_0_split_0
I0214 17:24:18.589788 19209 net.cpp:380] concat1_15_concat1_15_0_split -> concat1_15_concat1_15_0_split_1
I0214 17:24:18.589861 19209 net.cpp:122] Setting up concat1_15_concat1_15_0_split
I0214 17:24:18.589867 19209 net.cpp:129] Top shape: 1 1024 25 73 (1868800)
I0214 17:24:18.589871 19209 net.cpp:129] Top shape: 1 1024 25 73 (1868800)
I0214 17:24:18.589874 19209 net.cpp:137] Memory required for data: 1314038924
I0214 17:24:18.589877 19209 layer_factory.hpp:77] Creating layer conv1_16/bn
I0214 17:24:18.589884 19209 net.cpp:84] Creating Layer conv1_16/bn
I0214 17:24:18.589889 19209 net.cpp:406] conv1_16/bn <- concat1_15_concat1_15_0_split_0
I0214 17:24:18.589895 19209 net.cpp:380] conv1_16/bn -> conv1_16/bn
I0214 17:24:18.590340 19209 net.cpp:122] Setting up conv1_16/bn
I0214 17:24:18.590348 19209 net.cpp:129] Top shape: 1 1024 25 73 (1868800)
I0214 17:24:18.590351 19209 net.cpp:137] Memory required for data: 1321514124
I0214 17:24:18.590359 19209 layer_factory.hpp:77] Creating layer conv1_16/scale
I0214 17:24:18.590368 19209 net.cpp:84] Creating Layer conv1_16/scale
I0214 17:24:18.590373 19209 net.cpp:406] conv1_16/scale <- conv1_16/bn
I0214 17:24:18.590378 19209 net.cpp:367] conv1_16/scale -> conv1_16/bn (in-place)
I0214 17:24:18.590451 19209 layer_factory.hpp:77] Creating layer conv1_16/scale
I0214 17:24:18.590694 19209 net.cpp:122] Setting up conv1_16/scale
I0214 17:24:18.590703 19209 net.cpp:129] Top shape: 1 1024 25 73 (1868800)
I0214 17:24:18.590705 19209 net.cpp:137] Memory required for data: 1328989324
I0214 17:24:18.590711 19209 layer_factory.hpp:77] Creating layer relu1_16
I0214 17:24:18.590718 19209 net.cpp:84] Creating Layer relu1_16
I0214 17:24:18.590721 19209 net.cpp:406] relu1_16 <- conv1_16/bn
I0214 17:24:18.590726 19209 net.cpp:367] relu1_16 -> conv1_16/bn (in-place)
I0214 17:24:18.590975 19209 net.cpp:122] Setting up relu1_16
I0214 17:24:18.590983 19209 net.cpp:129] Top shape: 1 1024 25 73 (1868800)
I0214 17:24:18.590986 19209 net.cpp:137] Memory required for data: 1336464524
I0214 17:24:18.590991 19209 layer_factory.hpp:77] Creating layer conv1_16
I0214 17:24:18.591003 19209 net.cpp:84] Creating Layer conv1_16
I0214 17:24:18.591007 19209 net.cpp:406] conv1_16 <- conv1_16/bn
I0214 17:24:18.591015 19209 net.cpp:380] conv1_16 -> conv1_16
I0214 17:24:18.604279 19209 net.cpp:122] Setting up conv1_16
I0214 17:24:18.604295 19209 net.cpp:129] Top shape: 1 32 25 73 (58400)
I0214 17:24:18.604297 19209 net.cpp:137] Memory required for data: 1336698124
I0214 17:24:18.604305 19209 layer_factory.hpp:77] Creating layer concat1_16
I0214 17:24:18.604311 19209 net.cpp:84] Creating Layer concat1_16
I0214 17:24:18.604316 19209 net.cpp:406] concat1_16 <- concat1_15_concat1_15_0_split_1
I0214 17:24:18.604321 19209 net.cpp:406] concat1_16 <- conv1_16
I0214 17:24:18.604329 19209 net.cpp:380] concat1_16 -> concat1_16
I0214 17:24:18.604385 19209 net.cpp:122] Setting up concat1_16
I0214 17:24:18.604393 19209 net.cpp:129] Top shape: 1 1056 25 73 (1927200)
I0214 17:24:18.604395 19209 net.cpp:137] Memory required for data: 1344406924
I0214 17:24:18.604398 19209 layer_factory.hpp:77] Creating layer concat1_16_concat1_16_0_split
I0214 17:24:18.604406 19209 net.cpp:84] Creating Layer concat1_16_concat1_16_0_split
I0214 17:24:18.604410 19209 net.cpp:406] concat1_16_concat1_16_0_split <- concat1_16
I0214 17:24:18.604423 19209 net.cpp:380] concat1_16_concat1_16_0_split -> concat1_16_concat1_16_0_split_0
I0214 17:24:18.604429 19209 net.cpp:380] concat1_16_concat1_16_0_split -> concat1_16_concat1_16_0_split_1
I0214 17:24:18.604506 19209 net.cpp:122] Setting up concat1_16_concat1_16_0_split
I0214 17:24:18.604511 19209 net.cpp:129] Top shape: 1 1056 25 73 (1927200)
I0214 17:24:18.604516 19209 net.cpp:129] Top shape: 1 1056 25 73 (1927200)
I0214 17:24:18.604518 19209 net.cpp:137] Memory required for data: 1359824524
I0214 17:24:18.604521 19209 layer_factory.hpp:77] Creating layer conv1_17/bn
I0214 17:24:18.604529 19209 net.cpp:84] Creating Layer conv1_17/bn
I0214 17:24:18.604533 19209 net.cpp:406] conv1_17/bn <- concat1_16_concat1_16_0_split_0
I0214 17:24:18.604540 19209 net.cpp:380] conv1_17/bn -> conv1_17/bn
I0214 17:24:18.605005 19209 net.cpp:122] Setting up conv1_17/bn
I0214 17:24:18.605012 19209 net.cpp:129] Top shape: 1 1056 25 73 (1927200)
I0214 17:24:18.605015 19209 net.cpp:137] Memory required for data: 1367533324
I0214 17:24:18.605026 19209 layer_factory.hpp:77] Creating layer conv1_17/scale
I0214 17:24:18.605032 19209 net.cpp:84] Creating Layer conv1_17/scale
I0214 17:24:18.605036 19209 net.cpp:406] conv1_17/scale <- conv1_17/bn
I0214 17:24:18.605041 19209 net.cpp:367] conv1_17/scale -> conv1_17/bn (in-place)
I0214 17:24:18.605119 19209 layer_factory.hpp:77] Creating layer conv1_17/scale
I0214 17:24:18.605370 19209 net.cpp:122] Setting up conv1_17/scale
I0214 17:24:18.605378 19209 net.cpp:129] Top shape: 1 1056 25 73 (1927200)
I0214 17:24:18.605381 19209 net.cpp:137] Memory required for data: 1375242124
I0214 17:24:18.605387 19209 layer_factory.hpp:77] Creating layer relu1_17
I0214 17:24:18.605393 19209 net.cpp:84] Creating Layer relu1_17
I0214 17:24:18.605397 19209 net.cpp:406] relu1_17 <- conv1_17/bn
I0214 17:24:18.605401 19209 net.cpp:367] relu1_17 -> conv1_17/bn (in-place)
I0214 17:24:18.605650 19209 net.cpp:122] Setting up relu1_17
I0214 17:24:18.605659 19209 net.cpp:129] Top shape: 1 1056 25 73 (1927200)
I0214 17:24:18.605664 19209 net.cpp:137] Memory required for data: 1382950924
I0214 17:24:18.605666 19209 layer_factory.hpp:77] Creating layer conv1_17
I0214 17:24:18.605680 19209 net.cpp:84] Creating Layer conv1_17
I0214 17:24:18.605684 19209 net.cpp:406] conv1_17 <- conv1_17/bn
I0214 17:24:18.605692 19209 net.cpp:380] conv1_17 -> conv1_17
I0214 17:24:18.624023 19209 net.cpp:122] Setting up conv1_17
I0214 17:24:18.624042 19209 net.cpp:129] Top shape: 1 32 25 73 (58400)
I0214 17:24:18.624048 19209 net.cpp:137] Memory required for data: 1383184524
I0214 17:24:18.624058 19209 layer_factory.hpp:77] Creating layer concat1_17
I0214 17:24:18.624068 19209 net.cpp:84] Creating Layer concat1_17
I0214 17:24:18.624076 19209 net.cpp:406] concat1_17 <- concat1_16_concat1_16_0_split_1
I0214 17:24:18.624086 19209 net.cpp:406] concat1_17 <- conv1_17
I0214 17:24:18.624095 19209 net.cpp:380] concat1_17 -> concat1_17
I0214 17:24:18.624176 19209 net.cpp:122] Setting up concat1_17
I0214 17:24:18.624187 19209 net.cpp:129] Top shape: 1 1088 25 73 (1985600)
I0214 17:24:18.624192 19209 net.cpp:137] Memory required for data: 1391126924
I0214 17:24:18.624197 19209 layer_factory.hpp:77] Creating layer concat1_17_concat1_17_0_split
I0214 17:24:18.624208 19209 net.cpp:84] Creating Layer concat1_17_concat1_17_0_split
I0214 17:24:18.624214 19209 net.cpp:406] concat1_17_concat1_17_0_split <- concat1_17
I0214 17:24:18.624222 19209 net.cpp:380] concat1_17_concat1_17_0_split -> concat1_17_concat1_17_0_split_0
I0214 17:24:18.624231 19209 net.cpp:380] concat1_17_concat1_17_0_split -> concat1_17_concat1_17_0_split_1
I0214 17:24:18.624336 19209 net.cpp:122] Setting up concat1_17_concat1_17_0_split
I0214 17:24:18.624346 19209 net.cpp:129] Top shape: 1 1088 25 73 (1985600)
I0214 17:24:18.624353 19209 net.cpp:129] Top shape: 1 1088 25 73 (1985600)
I0214 17:24:18.624358 19209 net.cpp:137] Memory required for data: 1407011724
I0214 17:24:18.624364 19209 layer_factory.hpp:77] Creating layer conv1_18/bn
I0214 17:24:18.624374 19209 net.cpp:84] Creating Layer conv1_18/bn
I0214 17:24:18.624385 19209 net.cpp:406] conv1_18/bn <- concat1_17_concat1_17_0_split_0
I0214 17:24:18.624394 19209 net.cpp:380] conv1_18/bn -> conv1_18/bn
I0214 17:24:18.625084 19209 net.cpp:122] Setting up conv1_18/bn
I0214 17:24:18.625097 19209 net.cpp:129] Top shape: 1 1088 25 73 (1985600)
I0214 17:24:18.625102 19209 net.cpp:137] Memory required for data: 1414954124
I0214 17:24:18.625114 19209 layer_factory.hpp:77] Creating layer conv1_18/scale
…
I0214 17:24:23.614678 19209 net.cpp:84] Creating Layer conv1_16
I0214 17:24:23.614684 19209 net.cpp:406] conv1_16 <- conv1_16/bn
I0214 17:24:23.614702 19209 net.cpp:380] conv1_16 -> conv1_16
I0214 17:24:23.633548 19209 net.cpp:122] Setting up conv1_16
I0214 17:24:23.633563 19209 net.cpp:129] Top shape: 1 32 40 79 (101120)
I0214 17:24:23.633566 19209 net.cpp:137] Memory required for data: 2341333032
I0214 17:24:23.633574 19209 layer_factory.hpp:77] Creating layer concat1_16
I0214 17:24:23.633580 19209 net.cpp:84] Creating Layer concat1_16
I0214 17:24:23.633585 19209 net.cpp:406] concat1_16 <- concat1_15_concat1_15_0_split_1
I0214 17:24:23.633590 19209 net.cpp:406] concat1_16 <- conv1_16
I0214 17:24:23.633599 19209 net.cpp:380] concat1_16 -> concat1_16
I0214 17:24:23.633667 19209 net.cpp:122] Setting up concat1_16
I0214 17:24:23.633674 19209 net.cpp:129] Top shape: 1 1056 40 79 (3336960)
I0214 17:24:23.633677 19209 net.cpp:137] Memory required for data: 2354680872
I0214 17:24:23.633682 19209 layer_factory.hpp:77] Creating layer concat1_16_concat1_16_0_split
I0214 17:24:23.633688 19209 net.cpp:84] Creating Layer concat1_16_concat1_16_0_split
I0214 17:24:23.633692 19209 net.cpp:406] concat1_16_concat1_16_0_split <- concat1_16
I0214 17:24:23.633697 19209 net.cpp:380] concat1_16_concat1_16_0_split -> concat1_16_concat1_16_0_split_0
I0214 17:24:23.633704 19209 net.cpp:380] concat1_16_concat1_16_0_split -> concat1_16_concat1_16_0_split_1
I0214 17:24:23.633805 19209 net.cpp:122] Setting up concat1_16_concat1_16_0_split
I0214 17:24:23.633810 19209 net.cpp:129] Top shape: 1 1056 40 79 (3336960)
I0214 17:24:23.633815 19209 net.cpp:129] Top shape: 1 1056 40 79 (3336960)
I0214 17:24:23.633817 19209 net.cpp:137] Memory required for data: 2381376552
I0214 17:24:23.633821 19209 layer_factory.hpp:77] Creating layer conv1_17/bn
I0214 17:24:23.633828 19209 net.cpp:84] Creating Layer conv1_17/bn
I0214 17:24:23.633832 19209 net.cpp:406] conv1_17/bn <- concat1_16_concat1_16_0_split_0
I0214 17:24:23.633839 19209 net.cpp:380] conv1_17/bn -> conv1_17/bn
I0214 17:24:23.634447 19209 net.cpp:122] Setting up conv1_17/bn
I0214 17:24:23.634455 19209 net.cpp:129] Top shape: 1 1056 40 79 (3336960)
I0214 17:24:23.634459 19209 net.cpp:137] Memory required for data: 2394724392
I0214 17:24:23.634466 19209 layer_factory.hpp:77] Creating layer conv1_17/scale
I0214 17:24:23.634474 19209 net.cpp:84] Creating Layer conv1_17/scale
I0214 17:24:23.634479 19209 net.cpp:406] conv1_17/scale <- conv1_17/bn
I0214 17:24:23.634485 19209 net.cpp:367] conv1_17/scale -> conv1_17/bn (in-place)
I0214 17:24:23.634585 19209 layer_factory.hpp:77] Creating layer conv1_17/scale
I0214 17:24:23.634915 19209 net.cpp:122] Setting up conv1_17/scale
I0214 17:24:23.634923 19209 net.cpp:129] Top shape: 1 1056 40 79 (3336960)
I0214 17:24:23.634927 19209 net.cpp:137] Memory required for data: 2408072232
I0214 17:24:23.634932 19209 layer_factory.hpp:77] Creating layer relu1_17
I0214 17:24:23.634938 19209 net.cpp:84] Creating Layer relu1_17
I0214 17:24:23.634958 19209 net.cpp:406] relu1_17 <- conv1_17/bn
I0214 17:24:23.634965 19209 net.cpp:367] relu1_17 -> conv1_17/bn (in-place)
I0214 17:24:23.635237 19209 net.cpp:122] Setting up relu1_17
I0214 17:24:23.635247 19209 net.cpp:129] Top shape: 1 1056 40 79 (3336960)
I0214 17:24:23.635251 19209 net.cpp:137] Memory required for data: 2421420072
I0214 17:24:23.635254 19209 layer_factory.hpp:77] Creating layer conv1_17
I0214 17:24:23.635265 19209 net.cpp:84] Creating Layer conv1_17
I0214 17:24:23.635269 19209 net.cpp:406] conv1_17 <- conv1_17/bn
I0214 17:24:23.635280 19209 net.cpp:380] conv1_17 -> conv1_17
I0214 17:24:23.649202 19209 net.cpp:122] Setting up conv1_17
I0214 17:24:23.649217 19209 net.cpp:129] Top shape: 1 32 40 79 (101120)
I0214 17:24:23.649221 19209 net.cpp:137] Memory required for data: 2421824552
I0214 17:24:23.649227 19209 layer_factory.hpp:77] Creating layer concat1_17
I0214 17:24:23.649235 19209 net.cpp:84] Creating Layer concat1_17
I0214 17:24:23.649240 19209 net.cpp:406] concat1_17 <- concat1_16_concat1_16_0_split_1
I0214 17:24:23.649247 19209 net.cpp:406] concat1_17 <- conv1_17
I0214 17:24:23.649252 19209 net.cpp:380] concat1_17 -> concat1_17
I0214 17:24:23.649322 19209 net.cpp:122] Setting up concat1_17
I0214 17:24:23.649329 19209 net.cpp:129] Top shape: 1 1088 40 79 (3438080)
I0214 17:24:23.649333 19209 net.cpp:137] Memory required for data: 2435576872
I0214 17:24:23.649335 19209 layer_factory.hpp:77] Creating layer concat1_17_concat1_17_0_split
I0214 17:24:23.649343 19209 net.cpp:84] Creating Layer concat1_17_concat1_17_0_split
I0214 17:24:23.649348 19209 net.cpp:406] concat1_17_concat1_17_0_split <- concat1_17
I0214 17:24:23.649353 19209 net.cpp:380] concat1_17_concat1_17_0_split -> concat1_17_concat1_17_0_split_0
I0214 17:24:23.649358 19209 net.cpp:380] concat1_17_concat1_17_0_split -> concat1_17_concat1_17_0_split_1
I0214 17:24:23.649457 19209 net.cpp:122] Setting up concat1_17_concat1_17_0_split
I0214 17:24:23.649464 19209 net.cpp:129] Top shape: 1 1088 40 79 (3438080)
I0214 17:24:23.649468 19209 net.cpp:129] Top shape: 1 1088 40 79 (3438080)
I0214 17:24:23.649471 19209 net.cpp:137] Memory required for data: 2463081512
I0214 17:24:23.649474 19209 layer_factory.hpp:77] Creating layer conv1_18/bn
I0214 17:24:23.649482 19209 net.cpp:84] Creating Layer conv1_18/bn
I0214 17:24:23.649487 19209 net.cpp:406] conv1_18/bn <- concat1_17_concat1_17_0_split_0
I0214 17:24:23.649492 19209 net.cpp:380] conv1_18/bn -> conv1_18/bn
I0214 17:24:23.650108 19209 net.cpp:122] Setting up conv1_18/bn
I0214 17:24:23.650116 19209 net.cpp:129] Top shape: 1 1088 40 79 (3438080)
I0214 17:24:23.650120 19209 net.cpp:137] Memory required for data: 2476833832
I0214 17:24:23.650127 19209 layer_factory.hpp:77] Creating layer conv1_18/scale
I0214 17:24:23.650136 19209 net.cpp:84] Creating Layer conv1_18/scale
I0214 17:24:23.650141 19209 net.cpp:406] conv1_18/scale <- conv1_18/bn
I0214 17:24:23.650146 19209 net.cpp:367] conv1_18/scale -> conv1_18/bn (in-place)
I0214 17:24:23.650247 19209 layer_factory.hpp:77] Creating layer conv1_18/scale
I0214 17:24:23.650578 19209 net.cpp:122] Setting up conv1_18/scale
I0214 17:24:23.650585 19209 net.cpp:129] Top shape: 1 1088 40 79 (3438080)
I0214 17:24:23.650588 19209 net.cpp:137] Memory required for data: 2490586152
I0214 17:24:23.650594 19209 layer_factory.hpp:77] Creating layer relu1_18
I0214 17:24:23.650600 19209 net.cpp:84] Creating Layer relu1_18
I0214 17:24:23.650604 19209 net.cpp:406] relu1_18 <- conv1_18/bn
I0214 17:24:23.650609 19209 net.cpp:367] relu1_18 -> conv1_18/bn (in-place)
I0214 17:24:23.651932 19209 net.cpp:122] Setting up relu1_18
I0214 17:24:23.651945 19209 net.cpp:129] Top shape: 1 1088 40 79 (3438080)
I0214 17:24:23.651948 19209 net.cpp:137] Memory required for data: 2504338472
I0214 17:24:23.651952 19209 layer_factory.hpp:77] Creating layer conv1_18
I0214 17:24:23.651968 19209 net.cpp:84] Creating Layer conv1_18
I0214 17:24:23.651971 19209 net.cpp:406] conv1_18 <- conv1_18/bn
I0214 17:24:23.651980 19209 net.cpp:380] conv1_18 -> conv1_18
I0214 17:24:23.672765 19209 net.cpp:122] Setting up conv1_18
I0214 17:24:23.672786 19209 net.cpp:129] Top shape: 1 32 40 79 (101120)
I0214 17:24:23.672794 19209 net.cpp:137] Memory required for data: 2504742952
I0214 17:24:23.672804 19209 layer_factory.hpp:77] Creating layer concat1_18
I0214 17:24:23.672821 19209 net.cpp:84] Creating Layer concat1_18
I0214 17:24:23.672828 19209 net.cpp:406] concat1_18 <- concat1_17_concat1_17_0_split_1
I0214 17:24:23.672838 19209 net.cpp:406] concat1_18 <- conv1_18
I0214 17:24:23.672849 19209 net.cpp:380] concat1_18 -> concat1_18
I0214 17:24:23.672952 19209 net.cpp:122] Setting up concat1_18
I0214 17:24:23.672966 19209 net.cpp:129] Top shape: 1 1120 40 79 (3539200)
I0214 17:24:23.672973 19209 net.cpp:137] Memory required for data: 2518899752
I0214 17:24:23.672979 19209 layer_factory.hpp:77] Creating layer concat1_18_concat1_18_0_split
I0214 17:24:23.672991 19209 net.cpp:84] Creating Layer concat1_18_concat1_18_0_split
I0214 17:24:23.672998 19209 net.cpp:406] concat1_18_concat1_18_0_split <- concat1_18
I0214 17:24:23.673008 19209 net.cpp:380] concat1_18_concat1_18_0_split -> concat1_18_concat1_18_0_split_0
I0214 17:24:23.673019 19209 net.cpp:380] concat1_18_concat1_18_0_split -> concat1_18_concat1_18_0_split_1
I0214 17:24:23.673187 19209 net.cpp:122] Setting up concat1_18_concat1_18_0_split
I0214 17:24:23.673202 19209 net.cpp:129] Top shape: 1 1120 40 79 (3539200)
I0214 17:24:23.673210 19209 net.cpp:129] Top shape: 1 1120 40 79 (3539200)
I0214 17:24:23.673216 19209 net.cpp:137] Memory required for data: 2547213352
I0214 17:24:23.673223 19209 layer_factory.hpp:77] Creating layer conv1_19/bn
I0214 17:24:23.673235 19209 net.cpp:84] Creating Layer conv1_19/bn
I0214 17:24:23.673243 19209 net.cpp:406] conv1_19/bn <- concat1_18_concat1_18_0_split_0
I0214 17:24:23.673254 19209 net.cpp:380] conv1_19/bn -> conv1_19/bn
I0214 17:24:23.674345 19209 net.cpp:122] Setting up conv1_19/bn
I0214 17:24:23.674362 19209 net.cpp:129] Top shape: 1 1120 40 79 (3539200)
I0214 17:24:23.674370 19209 net.cpp:137] Memory required for data: 2561370152
I0214 17:24:23.674384 19209 layer_factory.hpp:77] Creating layer conv1_19/scale
I0214 17:24:23.674399 19209 net.cpp:84] Creating Layer conv1_19/scale
I0214 17:24:23.674407 19209 net.cpp:406] conv1_19/scale <- conv1_19/bn
I0214 17:24:23.674419 19209 net.cpp:367] conv1_19/scale -> conv1_19/bn (in-place)
I0214 17:24:23.674578 19209 layer_factory.hpp:77] Creating layer conv1_19/scale
I0214 17:24:23.675132 19209 net.cpp:122] Setting up conv1_19/scale
I0214 17:24:23.675151 19209 net.cpp:129] Top shape: 1 1120 40 79 (3539200)
I0214 17:24:23.675158 19209 net.cpp:137] Memory required for data: 2575526952
I0214 17:24:23.675169 19209 layer_factory.hpp:77] Creating layer relu1_19
I0214 17:24:23.675179 19209 net.cpp:84] Creating Layer relu1_19
I0214 17:24:23.675184 19209 net.cpp:406] relu1_19 <- conv1_19/bn
I0214 17:24:23.675189 19209 net.cpp:367] relu1_19 -> conv1_19/bn (in-place)
I0214 17:24:23.675465 19209 net.cpp:122] Setting up relu1_19
I0214 17:24:23.675474 19209 net.cpp:129] Top shape: 1 1120 40 79 (3539200)
I0214 17:24:23.675477 19209 net.cpp:137] Memory required for data: 2589683752
I0214 17:24:23.675482 19209 layer_factory.hpp:77] Creating layer conv1_19
I0214 17:24:23.675493 19209 net.cpp:84] Creating Layer conv1_19
I0214 17:24:23.675496 19209 net.cpp:406] conv1_19 <- conv1_19/bn
I0214 17:24:23.675504 19209 net.cpp:380] conv1_19 -> conv1_19
I0214 17:24:23.689955 19209 net.cpp:122] Setting up conv1_19
I0214 17:24:23.689970 19209 net.cpp:129] Top shape: 1 32 40 79 (101120)
I0214 17:24:23.689975 19209 net.cpp:137] Memory required for data: 2590088232
I0214 17:24:23.689980 19209 layer_factory.hpp:77] Creating layer concat1_19
I0214 17:24:23.689992 19209 net.cpp:84] Creating Layer concat1_19
I0214 17:24:23.689997 19209 net.cpp:406] concat1_19 <- concat1_18_concat1_18_0_split_1
I0214 17:24:23.690002 19209 net.cpp:406] concat1_19 <- conv1_19
I0214 17:24:23.690008 19209 net.cpp:380] concat1_19 -> concat1_19
I0214 17:24:23.690078 19209 net.cpp:122] Setting up concat1_19
I0214 17:24:23.690085 19209 net.cpp:129] Top shape: 1 1152 40 79 (3640320)
I0214 17:24:23.690091 19209 net.cpp:137] Memory required for data: 2604649512
I0214 17:24:23.690095 19209 layer_factory.hpp:77] Creating layer concat1_19_concat1_19_0_split
I0214 17:24:23.690102 19209 net.cpp:84] Creating Layer concat1_19_concat1_19_0_split
I0214 17:24:23.690106 19209 net.cpp:406] concat1_19_concat1_19_0_split <- concat1_19
I0214 17:24:23.690112 19209 net.cpp:380] concat1_19_concat1_19_0_split -> concat1_19_concat1_19_0_split_0
I0214 17:24:23.690120 19209 net.cpp:380] concat1_19_concat1_19_0_split -> concat1_19_concat1_19_0_split_1
I0214 17:24:23.690218 19209 net.cpp:122] Setting up concat1_19_concat1_19_0_split
I0214 17:24:23.690224 19209 net.cpp:129] Top shape: 1 1152 40 79 (3640320)
I0214 17:24:23.690228 19209 net.cpp:129] Top shape: 1 1152 40 79 (3640320)
I0214 17:24:23.690232 19209 net.cpp:137] Memory required for data: 2633772072
I0214 17:24:23.690234 19209 layer_factory.hpp:77] Creating layer conv1_20/bn
I0214 17:24:23.690243 19209 net.cpp:84] Creating Layer conv1_20/bn
I0214 17:24:23.690246 19209 net.cpp:406] conv1_20/bn <- concat1_19_concat1_19_0_split_0
I0214 17:24:23.690253 19209 net.cpp:380] conv1_20/bn -> conv1_20/bn
I0214 17:24:23.690825 19209 net.cpp:122] Setting up conv1_20/bn
I0214 17:24:23.690834 19209 net.cpp:129] Top shape: 1 1152 40 79 (3640320)
I0214 17:24:23.690836 19209 net.cpp:137] Memory required for data: 2648333352
I0214 17:24:23.690845 19209 layer_factory.hpp:77] Creating layer conv1_20/scale
I0214 17:24:23.690853 19209 net.cpp:84] Creating Layer conv1_20/scale
I0214 17:24:23.690858 19209 net.cpp:406] conv1_20/scale <- conv1_20/bn
I0214 17:24:23.690865 19209 net.cpp:367] conv1_20/scale -> conv1_20/bn (in-place)
I0214 17:24:23.690966 19209 layer_factory.hpp:77] Creating layer conv1_20/scale
I0214 17:24:23.691272 19209 net.cpp:122] Setting up conv1_20/scale
I0214 17:24:23.691282 19209 net.cpp:129] Top shape: 1 1152 40 79 (3640320)
I0214 17:24:23.691284 19209 net.cpp:137] Memory required for data: 2662894632
I0214 17:24:23.691290 19209 layer_factory.hpp:77] Creating layer relu1_20
I0214 17:24:23.691295 19209 net.cpp:84] Creating Layer relu1_20
I0214 17:24:23.691299 19209 net.cpp:406] relu1_20 <- conv1_20/bn
I0214 17:24:23.691305 19209 net.cpp:367] relu1_20 -> conv1_20/bn (in-place)
I0214 17:24:23.691584 19209 net.cpp:122] Setting up relu1_20
I0214 17:24:23.691593 19209 net.cpp:129] Top shape: 1 1152 40 79 (3640320)
I0214 17:24:23.691598 19209 net.cpp:137] Memory required for data: 2677455912
I0214 17:24:23.691602 19209 layer_factory.hpp:77] Creating layer conv1_20
I0214 17:24:23.691612 19209 net.cpp:84] Creating Layer conv1_20
I0214 17:24:23.691615 19209 net.cpp:406] conv1_20 <- conv1_20/bn
I0214 17:24:23.691623 19209 net.cpp:380] conv1_20 -> conv1_20
I0214 17:24:23.713179 19209 net.cpp:122] Setting up conv1_20
I0214 17:24:23.713201 19209 net.cpp:129] Top shape: 1 32 40 79 (101120)
I0214 17:24:23.713217 19209 net.cpp:137] Memory required for data: 2677860392
I0214 17:24:23.713227 19209 layer_factory.hpp:77] Creating layer concat1_20
I0214 17:24:23.713239 19209 net.cpp:84] Creating Layer concat1_20
I0214 17:24:23.713248 19209 net.cpp:406] concat1_20 <- concat1_19_concat1_19_0_split_1
I0214 17:24:23.713258 19209 net.cpp:406] concat1_20 <- conv1_20
I0214 17:24:23.713268 19209 net.cpp:380] concat1_20 -> concat1_20
I0214 17:24:23.713369 19209 net.cpp:122] Setting up concat1_20
I0214 17:24:23.713383 19209 net.cpp:129] Top shape: 1 1184 40 79 (3741440)
I0214 17:24:23.713390 19209 net.cpp:137] Memory required for data: 2692826152
I0214 17:24:23.713397 19209 layer_factory.hpp:77] Creating layer concat1_20_concat1_20_0_split
I0214 17:24:23.713405 19209 net.cpp:84] Creating Layer concat1_20_concat1_20_0_split
I0214 17:24:23.713413 19209 net.cpp:406] concat1_20_concat1_20_0_split <- concat1_20
I0214 17:24:23.713423 19209 net.cpp:380] concat1_20_concat1_20_0_split -> concat1_20_concat1_20_0_split_0
I0214 17:24:23.713433 19209 net.cpp:380] concat1_20_concat1_20_0_split -> concat1_20_concat1_20_0_split_1
I0214 17:24:23.713596 19209 net.cpp:122] Setting up concat1_20_concat1_20_0_split
I0214 17:24:23.713618 19209 net.cpp:129] Top shape: 1 1184 40 79 (3741440)
I0214 17:24:23.713629 19209 net.cpp:129] Top shape: 1 1184 40 79 (3741440)
I0214 17:24:23.713634 19209 net.cpp:137] Memory required for data: 2722757672
I0214 17:24:23.713640 19209 layer_factory.hpp:77] Creating layer conv1_21/bn
I0214 17:24:23.713651 19209 net.cpp:84] Creating Layer conv1_21/bn
I0214 17:24:23.713659 19209 net.cpp:406] conv1_21/bn <- concat1_20_concat1_20_0_split_0
I0214 17:24:23.713671 19209 net.cpp:380] conv1_21/bn -> conv1_21/bn
I0214 17:24:23.714782 19209 net.cpp:122] Setting up conv1_21/bn
I0214 17:24:23.714800 19209 net.cpp:129] Top shape: 1 1184 40 79 (3741440)
I0214 17:24:23.714807 19209 net.cpp:137] Memory required for data: 2737723432
I0214 17:24:23.714823 19209 layer_factory.hpp:77] Creating layer conv1_21/scale
I0214 17:24:23.714838 19209 net.cpp:84] Creating Layer conv1_21/scale
I0214 17:24:23.714846 19209 net.cpp:406] conv1_21/scale <- conv1_21/bn
I0214 17:24:23.714859 19209 net.cpp:367] conv1_21/scale -> conv1_21/bn (in-place)
I0214 17:24:23.715020 19209 layer_factory.hpp:77] Creating layer conv1_21/scale
I0214 17:24:23.715498 19209 net.cpp:122] Setting up conv1_21/scale
I0214 17:24:23.715512 19209 net.cpp:129] Top shape: 1 1184 40 79 (3741440)
I0214 17:24:23.715515 19209 net.cpp:137] Memory required for data: 2752689192
I0214 17:24:23.715523 19209 layer_factory.hpp:77] Creating layer relu1_21
I0214 17:24:23.715528 19209 net.cpp:84] Creating Layer relu1_21
I0214 17:24:23.715533 19209 net.cpp:406] relu1_21 <- conv1_21/bn
I0214 17:24:23.715538 19209 net.cpp:367] relu1_21 -> conv1_21/bn (in-place)
I0214 17:24:23.716897 19209 net.cpp:122] Setting up relu1_21
I0214 17:24:23.716912 19209 net.cpp:129] Top shape: 1 1184 40 79 (3741440)
I0214 17:24:23.716917 19209 net.cpp:137] Memory required for data: 2767654952
I0214 17:24:23.716920 19209 layer_factory.hpp:77] Creating layer conv1_21
I0214 17:24:23.716933 19209 net.cpp:84] Creating Layer conv1_21
I0214 17:24:23.716938 19209 net.cpp:406] conv1_21 <- conv1_21/bn
I0214 17:24:23.716944 19209 net.cpp:380] conv1_21 -> conv1_21
I0214 17:24:23.731974 19209 net.cpp:122] Setting up conv1_21
I0214 17:24:23.731989 19209 net.cpp:129] Top shape: 1 32 40 79 (101120)
I0214 17:24:23.731993 19209 net.cpp:137] Memory required for data: 2768059432
I0214 17:24:23.731999 19209 layer_factory.hpp:77] Creating layer concat1_21
I0214 17:24:23.732007 19209 net.cpp:84] Creating Layer concat1_21
I0214 17:24:23.732012 19209 net.cpp:406] concat1_21 <- concat1_20_concat1_20_0_split_1
I0214 17:24:23.732017 19209 net.cpp:406] concat1_21 <- conv1_21
I0214 17:24:23.732025 19209 net.cpp:380] concat1_21 -> concat1_21
I0214 17:24:23.732096 19209 net.cpp:122] Setting up concat1_21
I0214 17:24:23.732103 19209 net.cpp:129] Top shape: 1 1216 40 79 (3842560)
I0214 17:24:23.732106 19209 net.cpp:137] Memory required for data: 2783429672
I0214 17:24:23.732110 19209 layer_factory.hpp:77] Creating layer concat1_21_concat1_21_0_split
I0214 17:24:23.732115 19209 net.cpp:84] Creating Layer concat1_21_concat1_21_0_split
I0214 17:24:23.732120 19209 net.cpp:406] concat1_21_concat1_21_0_split <- concat1_21
I0214 17:24:23.732126 19209 net.cpp:380] concat1_21_concat1_21_0_split -> concat1_21_concat1_21_0_split_0
I0214 17:24:23.732132 19209 net.cpp:380] concat1_21_concat1_21_0_split -> concat1_21_concat1_21_0_split_1
I0214 17:24:23.732234 19209 net.cpp:122] Setting up concat1_21_concat1_21_0_split
I0214 17:24:23.732240 19209 net.cpp:129] Top shape: 1 1216 40 79 (3842560)
I0214 17:24:23.732244 19209 net.cpp:129] Top shape: 1 1216 40 79 (3842560)
I0214 17:24:23.732247 19209 net.cpp:137] Memory required for data: 2814170152
I0214 17:24:23.732251 19209 layer_factory.hpp:77] Creating layer conv1_22/bn
I0214 17:24:23.732261 19209 net.cpp:84] Creating Layer conv1_22/bn
I0214 17:24:23.732265 19209 net.cpp:406] conv1_22/bn <- concat1_21_concat1_21_0_split_0
I0214 17:24:23.732271 19209 net.cpp:380] conv1_22/bn -> conv1_22/bn
I0214 17:24:23.732918 19209 net.cpp:122] Setting up conv1_22/bn
I0214 17:24:23.732930 19209 net.cpp:129] Top shape: 1 1216 40 79 (3842560)
I0214 17:24:23.732933 19209 net.cpp:137] Memory required for data: 2829540392
I0214 17:24:23.732942 19209 layer_factory.hpp:77] Creating layer conv1_22/scale
I0214 17:24:23.732951 19209 net.cpp:84] Creating Layer conv1_22/scale
I0214 17:24:23.732956 19209 net.cpp:406] conv1_22/scale <- conv1_22/bn
I0214 17:24:23.732961 19209 net.cpp:367] conv1_22/scale -> conv1_22/bn (in-place)
I0214 17:24:23.733067 19209 layer_factory.hpp:77] Creating layer conv1_22/scale
I0214 17:24:23.733419 19209 net.cpp:122] Setting up conv1_22/scale
I0214 17:24:23.733428 19209 net.cpp:129] Top shape: 1 1216 40 79 (3842560)
I0214 17:24:23.733430 19209 net.cpp:137] Memory required for data: 2844910632
I0214 17:24:23.733436 19209 layer_factory.hpp:77] Creating layer relu1_22
I0214 17:24:23.733443 19209 net.cpp:84] Creating Layer relu1_22
I0214 17:24:23.733448 19209 net.cpp:406] relu1_22 <- conv1_22/bn
I0214 17:24:23.733451 19209 net.cpp:367] relu1_22 -> conv1_22/bn (in-place)
I0214 17:24:23.733732 19209 net.cpp:122] Setting up relu1_22
I0214 17:24:23.733741 19209 net.cpp:129] Top shape: 1 1216 40 79 (3842560)
I0214 17:24:23.733744 19209 net.cpp:137] Memory required for data: 2860280872
I0214 17:24:23.733748 19209 layer_factory.hpp:77] Creating layer conv1_22
I0214 17:24:23.733760 19209 net.cpp:84] Creating Layer conv1_22
I0214 17:24:23.733765 19209 net.cpp:406] conv1_22 <- conv1_22/bn
I0214 17:24:23.733772 19209 net.cpp:380] conv1_22 -> conv1_22
I0214 17:24:23.756319 19209 net.cpp:122] Setting up conv1_22
I0214 17:24:23.756341 19209 net.cpp:129] Top shape: 1 32 40 79 (101120)
I0214 17:24:23.756348 19209 net.cpp:137] Memory required for data: 2860685352
I0214 17:24:23.756359 19209 layer_factory.hpp:77] Creating layer concat1_22
I0214 17:24:23.756372 19209 net.cpp:84] Creating Layer concat1_22
I0214 17:24:23.756381 19209 net.cpp:406] concat1_22 <- concat1_21_concat1_21_0_split_1
I0214 17:24:23.756391 19209 net.cpp:406] concat1_22 <- conv1_22
I0214 17:24:23.756404 19209 net.cpp:380] concat1_22 -> concat1_22
I0214 17:24:23.756506 19209 net.cpp:122] Setting up concat1_22
I0214 17:24:23.756520 19209 net.cpp:129] Top shape: 1 1248 40 79 (3943680)
I0214 17:24:23.756527 19209 net.cpp:137] Memory required for data: 2876460072
I0214 17:24:23.756533 19209 layer_factory.hpp:77] Creating layer concat1_22_concat1_22_0_split
I0214 17:24:23.756546 19209 net.cpp:84] Creating Layer concat1_22_concat1_22_0_split
I0214 17:24:23.756553 19209 net.cpp:406] concat1_22_concat1_22_0_split <- concat1_22
I0214 17:24:23.756563 19209 net.cpp:380] concat1_22_concat1_22_0_split -> concat1_22_concat1_22_0_split_0
I0214 17:24:23.756575 19209 net.cpp:380] concat1_22_concat1_22_0_split -> concat1_22_concat1_22_0_split_1
I0214 17:24:23.756748 19209 net.cpp:122] Setting up concat1_22_concat1_22_0_split
I0214 17:24:23.756763 19209 net.cpp:129] Top shape: 1 1248 40 79 (3943680)
I0214 17:24:23.756772 19209 net.cpp:129] Top shape: 1 1248 40 79 (3943680)
I0214 17:24:23.756778 19209 net.cpp:137] Memory required for data: 2908009512
I0214 17:24:23.756783 19209 layer_factory.hpp:77] Creating layer conv1_23/bn
I0214 17:24:23.756796 19209 net.cpp:84] Creating Layer conv1_23/bn
I0214 17:24:23.756803 19209 net.cpp:406] conv1_23/bn <- concat1_22_concat1_22_0_split_0
I0214 17:24:23.756814 19209 net.cpp:380] conv1_23/bn -> conv1_23/bn
I0214 17:24:23.757920 19209 net.cpp:122] Setting up conv1_23/bn
I0214 17:24:23.757936 19209 net.cpp:129] Top shape: 1 1248 40 79 (3943680)
I0214 17:24:23.757942 19209 net.cpp:137] Memory required for data: 2923784232
I0214 17:24:23.757956 19209 layer_factory.hpp:77] Creating layer conv1_23/scale
I0214 17:24:23.757971 19209 net.cpp:84] Creating Layer conv1_23/scale
I0214 17:24:23.757979 19209 net.cpp:406] conv1_23/scale <- conv1_23/bn
I0214 17:24:23.757989 19209 net.cpp:367] conv1_23/scale -> conv1_23/bn (in-place)
I0214 17:24:23.758153 19209 layer_factory.hpp:77] Creating layer conv1_23/scale
I0214 17:24:23.758733 19209 net.cpp:122] Setting up conv1_23/scale
I0214 17:24:23.758751 19209 net.cpp:129] Top shape: 1 1248 40 79 (3943680)
I0214 17:24:23.758764 19209 net.cpp:137] Memory required for data: 2939558952
I0214 17:24:23.758775 19209 layer_factory.hpp:77] Creating layer relu1_23
I0214 17:24:23.758786 19209 net.cpp:84] Creating Layer relu1_23
I0214 17:24:23.758795 19209 net.cpp:406] relu1_23 <- conv1_23/bn
I0214 17:24:23.758803 19209 net.cpp:367] relu1_23 -> conv1_23/bn (in-place)
I0214 17:24:23.759245 19209 net.cpp:122] Setting up relu1_23
I0214 17:24:23.759261 19209 net.cpp:129] Top shape: 1 1248 40 79 (3943680)
I0214 17:24:23.759269 19209 net.cpp:137] Memory required for data: 2955333672
I0214 17:24:23.759275 19209 layer_factory.hpp:77] Creating layer conv1_23
I0214 17:24:23.759294 19209 net.cpp:84] Creating Layer conv1_23
I0214 17:24:23.759302 19209 net.cpp:406] conv1_23 <- conv1_23/bn
I0214 17:24:23.759316 19209 net.cpp:380] conv1_23 -> conv1_23
I0214 17:24:23.775171 19209 net.cpp:122] Setting up conv1_23
I0214 17:24:23.775187 19209 net.cpp:129] Top shape: 1 32 40 79 (101120)
I0214 17:24:23.775190 19209 net.cpp:137] Memory required for data: 2955738152
I0214 17:24:23.775197 19209 layer_factory.hpp:77] Creating layer concat1_23
I0214 17:24:23.775203 19209 net.cpp:84] Creating Layer concat1_23
I0214 17:24:23.775208 19209 net.cpp:406] concat1_23 <- concat1_22_concat1_22_0_split_1
I0214 17:24:23.775213 19209 net.cpp:406] concat1_23 <- conv1_23
I0214 17:24:23.775221 19209 net.cpp:380] concat1_23 -> concat1_23
I0214 17:24:23.775293 19209 net.cpp:122] Setting up concat1_23
I0214 17:24:23.775300 19209 net.cpp:129] Top shape: 1 1280 40 79 (4044800)
I0214 17:24:23.775303 19209 net.cpp:137] Memory required for data: 2971917352
I0214 17:24:23.775307 19209 layer_factory.hpp:77] Creating layer concat1_23_concat1_23_0_split
I0214 17:24:23.775315 19209 net.cpp:84] Creating Layer concat1_23_concat1_23_0_split
I0214 17:24:23.775318 19209 net.cpp:406] concat1_23_concat1_23_0_split <- concat1_23
I0214 17:24:23.775323 19209 net.cpp:380] concat1_23_concat1_23_0_split -> concat1_23_concat1_23_0_split_0
I0214 17:24:23.775329 19209 net.cpp:380] concat1_23_concat1_23_0_split -> concat1_23_concat1_23_0_split_1
I0214 17:24:23.775431 19209 net.cpp:122] Setting up concat1_23_concat1_23_0_split
I0214 17:24:23.775439 19209 net.cpp:129] Top shape: 1 1280 40 79 (4044800)
I0214 17:24:23.775442 19209 net.cpp:129] Top shape: 1 1280 40 79 (4044800)
I0214 17:24:23.775445 19209 net.cpp:137] Memory required for data: 3004275752
I0214 17:24:23.775449 19209 layer_factory.hpp:77] Creating layer conv1_24/bn
I0214 17:24:23.775456 19209 net.cpp:84] Creating Layer conv1_24/bn
I0214 17:24:23.775460 19209 net.cpp:406] conv1_24/bn <- concat1_23_concat1_23_0_split_0
I0214 17:24:23.775467 19209 net.cpp:380] conv1_24/bn -> conv1_24/bn
I0214 17:24:23.776062 19209 net.cpp:122] Setting up conv1_24/bn
I0214 17:24:23.776068 19209 net.cpp:129] Top shape: 1 1280 40 79 (4044800)
I0214 17:24:23.776072 19209 net.cpp:137] Memory required for data: 3020454952
I0214 17:24:23.776079 19209 layer_factory.hpp:77] Creating layer conv1_24/scale
I0214 17:24:23.776088 19209 net.cpp:84] Creating Layer conv1_24/scale
I0214 17:24:23.776093 19209 net.cpp:406] conv1_24/scale <- conv1_24/bn
I0214 17:24:23.776098 19209 net.cpp:367] conv1_24/scale -> conv1_24/bn (in-place)
I0214 17:24:23.776203 19209 layer_factory.hpp:77] Creating layer conv1_24/scale
I0214 17:24:23.778280 19209 net.cpp:122] Setting up conv1_24/scale
I0214 17:24:23.778293 19209 net.cpp:129] Top shape: 1 1280 40 79 (4044800)
I0214 17:24:23.778297 19209 net.cpp:137] Memory required for data: 3036634152
I0214 17:24:23.778304 19209 layer_factory.hpp:77] Creating layer relu1_24
I0214 17:24:23.778311 19209 net.cpp:84] Creating Layer relu1_24
I0214 17:24:23.778316 19209 net.cpp:406] relu1_24 <- conv1_24/bn
I0214 17:24:23.778321 19209 net.cpp:367] relu1_24 -> conv1_24/bn (in-place)
I0214 17:24:23.778612 19209 net.cpp:122] Setting up relu1_24
I0214 17:24:23.778621 19209 net.cpp:129] Top shape: 1 1280 40 79 (4044800)
I0214 17:24:23.778625 19209 net.cpp:137] Memory required for data: 3052813352
I0214 17:24:23.778628 19209 layer_factory.hpp:77] Creating layer conv1_24
I0214 17:24:23.778643 19209 net.cpp:84] Creating Layer conv1_24
I0214 17:24:23.778647 19209 net.cpp:406] conv1_24 <- conv1_24/bn
I0214 17:24:23.778654 19209 net.cpp:380] conv1_24 -> conv1_24
I0214 17:24:23.801012 19209 net.cpp:122] Setting up conv1_24
I0214 17:24:23.801034 19209 net.cpp:129] Top shape: 1 32 40 79 (101120)
I0214 17:24:23.801041 19209 net.cpp:137] Memory required for data: 3053217832
I0214 17:24:23.801051 19209 layer_factory.hpp:77] Creating layer concat1_24
I0214 17:24:23.801064 19209 net.cpp:84] Creating Layer concat1_24
I0214 17:24:23.801079 19209 net.cpp:406] concat1_24 <- concat1_23_concat1_23_0_split_1
I0214 17:24:23.801090 19209 net.cpp:406] concat1_24 <- conv1_24
I0214 17:24:23.801103 19209 net.cpp:380] concat1_24 -> concat1_24
I0214 17:24:23.801205 19209 net.cpp:122] Setting up concat1_24
I0214 17:24:23.801219 19209 net.cpp:129] Top shape: 1 1312 40 79 (4145920)
I0214 17:24:23.801226 19209 net.cpp:137] Memory required for data: 3069801512
I0214 17:24:23.801232 19209 layer_factory.hpp:77] Creating layer concat1_24_concat1_24_0_split
I0214 17:24:23.801245 19209 net.cpp:84] Creating Layer concat1_24_concat1_24_0_split
I0214 17:24:23.801252 19209 net.cpp:406] concat1_24_concat1_24_0_split <- concat1_24
I0214 17:24:23.801262 19209 net.cpp:380] concat1_24_concat1_24_0_split -> concat1_24_concat1_24_0_split_0
I0214 17:24:23.801275 19209 net.cpp:380] concat1_24_concat1_24_0_split -> concat1_24_concat1_24_0_split_1
I0214 17:24:23.801445 19209 net.cpp:122] Setting up concat1_24_concat1_24_0_split
I0214 17:24:23.801460 19209 net.cpp:129] Top shape: 1 1312 40 79 (4145920)
I0214 17:24:23.801467 19209 net.cpp:129] Top shape: 1 1312 40 79 (4145920)
I0214 17:24:23.801475 19209 net.cpp:137] Memory required for data: 3102968872
I0214 17:24:23.801481 19209 layer_factory.hpp:77] Creating layer conv1_25/bn
I0214 17:24:23.801494 19209 net.cpp:84] Creating Layer conv1_25/bn
I0214 17:24:23.801502 19209 net.cpp:406] conv1_25/bn <- concat1_24_concat1_24_0_split_0
I0214 17:24:23.801512 19209 net.cpp:380] conv1_25/bn -> conv1_25/bn
I0214 17:24:23.802595 19209 net.cpp:122] Setting up conv1_25/bn
I0214 17:24:23.802613 19209 net.cpp:129] Top shape: 1 1312 40 79 (4145920)
I0214 17:24:23.802619 19209 net.cpp:137] Memory required for data: 3119552552
I0214 17:24:23.802634 19209 layer_factory.hpp:77] Creating layer conv1_25/scale
I0214 17:24:23.802649 19209 net.cpp:84] Creating Layer conv1_25/scale
I0214 17:24:23.802657 19209 net.cpp:406] conv1_25/scale <- conv1_25/bn
I0214 17:24:23.802667 19209 net.cpp:367] conv1_25/scale -> conv1_25/bn (in-place)
I0214 17:24:23.802815 19209 layer_factory.hpp:77] Creating layer conv1_25/scale
I0214 17:24:23.803339 19209 net.cpp:122] Setting up conv1_25/scale
I0214 17:24:23.803355 19209 net.cpp:129] Top shape: 1 1312 40 79 (4145920)
I0214 17:24:23.803361 19209 net.cpp:137] Memory required for data: 3136136232
I0214 17:24:23.803396 19209 layer_factory.hpp:77] Creating layer relu1_25
I0214 17:24:23.803409 19209 net.cpp:84] Creating Layer relu1_25
I0214 17:24:23.803416 19209 net.cpp:406] relu1_25 <- conv1_25/bn
I0214 17:24:23.803426 19209 net.cpp:367] relu1_25 -> conv1_25/bn (in-place)
I0214 17:24:23.805286 19209 net.cpp:122] Setting up relu1_25
I0214 17:24:23.805306 19209 net.cpp:129] Top shape: 1 1312 40 79 (4145920)
I0214 17:24:23.805315 19209 net.cpp:137] Memory required for data: 3152719912
I0214 17:24:23.805321 19209 layer_factory.hpp:77] Creating layer conv1_25
I0214 17:24:23.805353 19209 net.cpp:84] Creating Layer conv1_25
I0214 17:24:23.805363 19209 net.cpp:406] conv1_25 <- conv1_25/bn
I0214 17:24:23.805377 19209 net.cpp:380] conv1_25 -> conv1_25
I0214 17:24:23.821619 19209 net.cpp:122] Setting up conv1_25
I0214 17:24:23.821633 19209 net.cpp:129] Top shape: 1 32 40 79 (101120)
I0214 17:24:23.821637 19209 net.cpp:137] Memory required for data: 3153124392
I0214 17:24:23.821645 19209 layer_factory.hpp:77] Creating layer concat1_25
I0214 17:24:23.821655 19209 net.cpp:84] Creating Layer concat1_25
I0214 17:24:23.821660 19209 net.cpp:406] concat1_25 <- concat1_24_concat1_24_0_split_1
I0214 17:24:23.821668 19209 net.cpp:406] concat1_25 <- conv1_25
I0214 17:24:23.821674 19209 net.cpp:380] concat1_25 -> concat1_25
I0214 17:24:23.821746 19209 net.cpp:122] Setting up concat1_25
I0214 17:24:23.821753 19209 net.cpp:129] Top shape: 1 1344 40 79 (4247040)
I0214 17:24:23.821756 19209 net.cpp:137] Memory required for data: 3170112552
I0214 17:24:23.821760 19209 layer_factory.hpp:77] Creating layer concat1_25_concat1_25_0_split
I0214 17:24:23.821770 19209 net.cpp:84] Creating Layer concat1_25_concat1_25_0_split
I0214 17:24:23.821774 19209 net.cpp:406] concat1_25_concat1_25_0_split <- concat1_25
I0214 17:24:23.821779 19209 net.cpp:380] concat1_25_concat1_25_0_split -> concat1_25_concat1_25_0_split_0
I0214 17:24:23.821785 19209 net.cpp:380] concat1_25_concat1_25_0_split -> concat1_25_concat1_25_0_split_1
I0214 17:24:23.821888 19209 net.cpp:122] Setting up concat1_25_concat1_25_0_split
I0214 17:24:23.821895 19209 net.cpp:129] Top shape: 1 1344 40 79 (4247040)
I0214 17:24:23.821899 19209 net.cpp:129] Top shape: 1 1344 40 79 (4247040)
I0214 17:24:23.821902 19209 net.cpp:137] Memory required for data: 3204088872
I0214 17:24:23.821905 19209 layer_factory.hpp:77] Creating layer conv1_26/bn
I0214 17:24:23.821913 19209 net.cpp:84] Creating Layer conv1_26/bn
I0214 17:24:23.821916 19209 net.cpp:406] conv1_26/bn <- concat1_25_concat1_25_0_split_0
I0214 17:24:23.821923 19209 net.cpp:380] conv1_26/bn -> conv1_26/bn
I0214 17:24:23.822543 19209 net.cpp:122] Setting up conv1_26/bn
I0214 17:24:23.822551 19209 net.cpp:129] Top shape: 1 1344 40 79 (4247040)
I0214 17:24:23.822556 19209 net.cpp:137] Memory required for data: 3221077032
I0214 17:24:23.822562 19209 layer_factory.hpp:77] Creating layer conv1_26/scale
I0214 17:24:23.822571 19209 net.cpp:84] Creating Layer conv1_26/scale
I0214 17:24:23.822576 19209 net.cpp:406] conv1_26/scale <- conv1_26/bn
I0214 17:24:23.822582 19209 net.cpp:367] conv1_26/scale -> conv1_26/bn (in-place)
I0214 17:24:23.822677 19209 layer_factory.hpp:77] Creating layer conv1_26/scale
I0214 17:24:23.823010 19209 net.cpp:122] Setting up conv1_26/scale
I0214 17:24:23.823019 19209 net.cpp:129] Top shape: 1 1344 40 79 (4247040)
I0214 17:24:23.823021 19209 net.cpp:137] Memory required for data: 3238065192
I0214 17:24:23.823027 19209 layer_factory.hpp:77] Creating layer relu1_26
I0214 17:24:23.823035 19209 net.cpp:84] Creating Layer relu1_26
I0214 17:24:23.823038 19209 net.cpp:406] relu1_26 <- conv1_26/bn
I0214 17:24:23.823042 19209 net.cpp:367] relu1_26 -> conv1_26/bn (in-place)
I0214 17:24:23.823325 19209 net.cpp:122] Setting up relu1_26
I0214 17:24:23.823334 19209 net.cpp:129] Top shape: 1 1344 40 79 (4247040)
I0214 17:24:23.823338 19209 net.cpp:137] Memory required for data: 3255053352
I0214 17:24:23.823341 19209 layer_factory.hpp:77] Creating layer conv1_26
I0214 17:24:23.823352 19209 net.cpp:84] Creating Layer conv1_26
I0214 17:24:23.823356 19209 net.cpp:406] conv1_26 <- conv1_26/bn
I0214 17:24:23.823365 19209 net.cpp:380] conv1_26 -> conv1_26
I0214 17:24:23.847105 19209 net.cpp:122] Setting up conv1_26
I0214 17:24:23.847121 19209 net.cpp:129] Top shape: 1 32 40 79 (101120)
I0214 17:24:23.847126 19209 net.cpp:137] Memory required for data: 3255457832
I0214 17:24:23.847131 19209 layer_factory.hpp:77] Creating layer concat1_26
I0214 17:24:23.847139 19209 net.cpp:84] Creating Layer concat1_26
I0214 17:24:23.847144 19209 net.cpp:406] concat1_26 <- concat1_25_concat1_25_0_split_1
I0214 17:24:23.847151 19209 net.cpp:406] concat1_26 <- conv1_26
I0214 17:24:23.847157 19209 net.cpp:380] concat1_26 -> concat1_26
I0214 17:24:23.847234 19209 net.cpp:122] Setting up concat1_26
I0214 17:24:23.847241 19209 net.cpp:129] Top shape: 1 1376 40 79 (4348160)
I0214 17:24:23.847244 19209 net.cpp:137] Memory required for data: 3272850472
I0214 17:24:23.847247 19209 layer_factory.hpp:77] Creating layer concat1_26_concat1_26_0_split
I0214 17:24:23.847254 19209 net.cpp:84] Creating Layer concat1_26_concat1_26_0_split
I0214 17:24:23.847259 19209 net.cpp:406] concat1_26_concat1_26_0_split <- concat1_26
I0214 17:24:23.847265 19209 net.cpp:380] concat1_26_concat1_26_0_split -> concat1_26_concat1_26_0_split_0
I0214 17:24:23.847275 19209 net.cpp:380] concat1_26_concat1_26_0_split -> concat1_26_concat1_26_0_split_1
I0214 17:24:23.847379 19209 net.cpp:122] Setting up concat1_26_concat1_26_0_split
I0214 17:24:23.847386 19209 net.cpp:129] Top shape: 1 1376 40 79 (4348160)
I0214 17:24:23.847390 19209 net.cpp:129] Top shape: 1 1376 40 79 (4348160)
I0214 17:24:23.847393 19209 net.cpp:137] Memory required for data: 3307635752
I0214 17:24:23.847396 19209 layer_factory.hpp:77] Creating layer conv1_27/bn
I0214 17:24:23.847404 19209 net.cpp:84] Creating Layer conv1_27/bn
I0214 17:24:23.847407 19209 net.cpp:406] conv1_27/bn <- concat1_26_concat1_26_0_split_0
I0214 17:24:23.847415 19209 net.cpp:380] conv1_27/bn -> conv1_27/bn
I0214 17:24:23.848052 19209 net.cpp:122] Setting up conv1_27/bn
I0214 17:24:23.848060 19209 net.cpp:129] Top shape: 1 1376 40 79 (4348160)
I0214 17:24:23.848063 19209 net.cpp:137] Memory required for data: 3325028392
I0214 17:24:23.848071 19209 layer_factory.hpp:77] Creating layer conv1_27/scale
I0214 17:24:23.848080 19209 net.cpp:84] Creating Layer conv1_27/scale
I0214 17:24:23.848084 19209 net.cpp:406] conv1_27/scale <- conv1_27/bn
I0214 17:24:23.848089 19209 net.cpp:367] conv1_27/scale -> conv1_27/bn (in-place)
I0214 17:24:23.848186 19209 layer_factory.hpp:77] Creating layer conv1_27/scale
I0214 17:24:23.848516 19209 net.cpp:122] Setting up conv1_27/scale
I0214 17:24:23.848525 19209 net.cpp:129] Top shape: 1 1376 40 79 (4348160)
I0214 17:24:23.848527 19209 net.cpp:137] Memory required for data: 3342421032
I0214 17:24:23.848534 19209 layer_factory.hpp:77] Creating layer relu1_27
I0214 17:24:23.848541 19209 net.cpp:84] Creating Layer relu1_27
I0214 17:24:23.848543 19209 net.cpp:406] relu1_27 <- conv1_27/bn
I0214 17:24:23.848551 19209 net.cpp:367] relu1_27 -> conv1_27/bn (in-place)
I0214 17:24:23.848855 19209 net.cpp:122] Setting up relu1_27
I0214 17:24:23.848865 19209 net.cpp:129] Top shape: 1 1376 40 79 (4348160)
I0214 17:24:23.848867 19209 net.cpp:137] Memory required for data: 3359813672
I0214 17:24:23.848871 19209 layer_factory.hpp:77] Creating layer conv1_27
I0214 17:24:23.848882 19209 net.cpp:84] Creating Layer conv1_27
I0214 17:24:23.848886 19209 net.cpp:406] conv1_27 <- conv1_27/bn
I0214 17:24:23.848894 19209 net.cpp:380] conv1_27 -> conv1_27
I0214 17:24:23.866227 19209 net.cpp:122] Setting up conv1_27
I0214 17:24:23.866248 19209 net.cpp:129] Top shape: 1 32 40 79 (101120)
I0214 17:24:23.866256 19209 net.cpp:137] Memory required for data: 3360218152
I0214 17:24:23.866266 19209 layer_factory.hpp:77] Creating layer concat1_27
I0214 17:24:23.866286 19209 net.cpp:84] Creating Layer concat1_27
I0214 17:24:23.866294 19209 net.cpp:406] concat1_27 <- concat1_26_concat1_26_0_split_1
I0214 17:24:23.866303 19209 net.cpp:406] concat1_27 <- conv1_27
I0214 17:24:23.866314 19209 net.cpp:380] concat1_27 -> concat1_27
I0214 17:24:23.866420 19209 net.cpp:122] Setting up concat1_27
I0214 17:24:23.866437 19209 net.cpp:129] Top shape: 1 1408 40 79 (4449280)
I0214 17:24:23.866443 19209 net.cpp:137] Memory required for data: 3378015272
I0214 17:24:23.866449 19209 layer_factory.hpp:77] Creating layer concat1_27_concat1_27_0_split
I0214 17:24:23.866459 19209 net.cpp:84] Creating Layer concat1_27_concat1_27_0_split
I0214 17:24:23.866466 19209 net.cpp:406] concat1_27_concat1_27_0_split <- concat1_27
I0214 17:24:23.866475 19209 net.cpp:380] concat1_27_concat1_27_0_split -> concat1_27_concat1_27_0_split_0
I0214 17:24:23.866485 19209 net.cpp:380] concat1_27_concat1_27_0_split -> concat1_27_concat1_27_0_split_1
I0214 17:24:23.866657 19209 net.cpp:122] Setting up concat1_27_concat1_27_0_split
I0214 17:24:23.866672 19209 net.cpp:129] Top shape: 1 1408 40 79 (4449280)
I0214 17:24:23.866683 19209 net.cpp:129] Top shape: 1 1408 40 79 (4449280)
I0214 17:24:23.866688 19209 net.cpp:137] Memory required for data: 3413609512
I0214 17:24:23.866694 19209 layer_factory.hpp:77] Creating layer conv1_28/bn
I0214 17:24:23.866704 19209 net.cpp:84] Creating Layer conv1_28/bn
I0214 17:24:23.866717 19209 net.cpp:406] conv1_28/bn <- concat1_27_concat1_27_0_split_0
I0214 17:24:23.866734 19209 net.cpp:380] conv1_28/bn -> conv1_28/bn
I0214 17:24:23.867786 19209 net.cpp:122] Setting up conv1_28/bn
I0214 17:24:23.867807 19209 net.cpp:129] Top shape: 1 1408 40 79 (4449280)
I0214 17:24:23.867813 19209 net.cpp:137] Memory required for data: 3431406632
I0214 17:24:23.867827 19209 layer_factory.hpp:77] Creating layer conv1_28/scale
I0214 17:24:23.867838 19209 net.cpp:84] Creating Layer conv1_28/scale
I0214 17:24:23.867846 19209 net.cpp:406] conv1_28/scale <- conv1_28/bn
I0214 17:24:23.867858 19209 net.cpp:367] conv1_28/scale -> conv1_28/bn (in-place)
I0214 17:24:23.868010 19209 layer_factory.hpp:77] Creating layer conv1_28/scale
I0214 17:24:23.868516 19209 net.cpp:122] Setting up conv1_28/scale
I0214 17:24:23.868533 19209 net.cpp:129] Top shape: 1 1408 40 79 (4449280)
I0214 17:24:23.868541 19209 net.cpp:137] Memory required for data: 3449203752
I0214 17:24:23.868552 19209 layer_factory.hpp:77] Creating layer relu1_28
I0214 17:24:23.868564 19209 net.cpp:84] Creating Layer relu1_28
I0214 17:24:23.868572 19209 net.cpp:406] relu1_28 <- conv1_28/bn
I0214 17:24:23.868582 19209 net.cpp:367] relu1_28 -> conv1_28/bn (in-place)
I0214 17:24:23.870461 19209 net.cpp:122] Setting up relu1_28
I0214 17:24:23.870482 19209 net.cpp:129] Top shape: 1 1408 40 79 (4449280)
I0214 17:24:23.870488 19209 net.cpp:137] Memory required for data: 3467000872
I0214 17:24:23.870494 19209 layer_factory.hpp:77] Creating layer conv1_28
I0214 17:24:23.870508 19209 net.cpp:84] Creating Layer conv1_28
I0214 17:24:23.870515 19209 net.cpp:406] conv1_28 <- conv1_28/bn
I0214 17:24:23.870528 19209 net.cpp:380] conv1_28 -> conv1_28
I0214 17:24:23.892297 19209 net.cpp:122] Setting up conv1_28
I0214 17:24:23.892315 19209 net.cpp:129] Top shape: 1 32 40 79 (101120)
I0214 17:24:23.892319 19209 net.cpp:137] Memory required for data: 3467405352
I0214 17:24:23.892325 19209 layer_factory.hpp:77] Creating layer concat1_28
I0214 17:24:23.892333 19209 net.cpp:84] Creating Layer concat1_28
I0214 17:24:23.892338 19209 net.cpp:406] concat1_28 <- concat1_27_concat1_27_0_split_1
I0214 17:24:23.892343 19209 net.cpp:406] concat1_28 <- conv1_28
I0214 17:24:23.892349 19209 net.cpp:380] concat1_28 -> concat1_28
I0214 17:24:23.892426 19209 net.cpp:122] Setting up concat1_28
I0214 17:24:23.892432 19209 net.cpp:129] Top shape: 1 1440 40 79 (4550400)
I0214 17:24:23.892436 19209 net.cpp:137] Memory required for data: 3485606952
I0214 17:24:23.892438 19209 layer_factory.hpp:77] Creating layer concat1_28_concat1_28_0_split
I0214 17:24:23.892443 19209 net.cpp:84] Creating Layer concat1_28_concat1_28_0_split
I0214 17:24:23.892447 19209 net.cpp:406] concat1_28_concat1_28_0_split <- concat1_28
I0214 17:24:23.892453 19209 net.cpp:380] concat1_28_concat1_28_0_split -> concat1_28_concat1_28_0_split_0
I0214 17:24:23.892462 19209 net.cpp:380] concat1_28_concat1_28_0_split -> concat1_28_concat1_28_0_split_1
I0214 17:24:23.892566 19209 net.cpp:122] Setting up concat1_28_concat1_28_0_split
I0214 17:24:23.892575 19209 net.cpp:129] Top shape: 1 1440 40 79 (4550400)
I0214 17:24:23.892578 19209 net.cpp:129] Top shape: 1 1440 40 79 (4550400)
I0214 17:24:23.892582 19209 net.cpp:137] Memory required for data: 3522010152
I0214 17:24:23.892585 19209 layer_factory.hpp:77] Creating layer conv1_29/bn
I0214 17:24:23.892591 19209 net.cpp:84] Creating Layer conv1_29/bn
I0214 17:24:23.892596 19209 net.cpp:406] conv1_29/bn <- concat1_28_concat1_28_0_split_0
I0214 17:24:23.892602 19209 net.cpp:380] conv1_29/bn -> conv1_29/bn
I0214 17:24:23.893263 19209 net.cpp:122] Setting up conv1_29/bn
I0214 17:24:23.893272 19209 net.cpp:129] Top shape: 1 1440 40 79 (4550400)
I0214 17:24:23.893275 19209 net.cpp:137] Memory required for data: 3540211752
I0214 17:24:23.893283 19209 layer_factory.hpp:77] Creating layer conv1_29/scale
I0214 17:24:23.893291 19209 net.cpp:84] Creating Layer conv1_29/scale
I0214 17:24:23.893296 19209 net.cpp:406] conv1_29/scale <- conv1_29/bn
I0214 17:24:23.893303 19209 net.cpp:367] conv1_29/scale -> conv1_29/bn (in-place)
I0214 17:24:23.893404 19209 layer_factory.hpp:77] Creating layer conv1_29/scale
I0214 17:24:23.893738 19209 net.cpp:122] Setting up conv1_29/scale
I0214 17:24:23.893745 19209 net.cpp:129] Top shape: 1 1440 40 79 (4550400)
I0214 17:24:23.893748 19209 net.cpp:137] Memory required for data: 3558413352
I0214 17:24:23.893754 19209 layer_factory.hpp:77] Creating layer relu1_29
I0214 17:24:23.893761 19209 net.cpp:84] Creating Layer relu1_29
I0214 17:24:23.893765 19209 net.cpp:406] relu1_29 <- conv1_29/bn
I0214 17:24:23.893769 19209 net.cpp:367] relu1_29 -> conv1_29/bn (in-place)
I0214 17:24:23.894057 19209 net.cpp:122] Setting up relu1_29
I0214 17:24:23.894067 19209 net.cpp:129] Top shape: 1 1440 40 79 (4550400)
I0214 17:24:23.894069 19209 net.cpp:137] Memory required for data: 3576614952
I0214 17:24:23.894073 19209 layer_factory.hpp:77] Creating layer conv1_29
I0214 17:24:23.894086 19209 net.cpp:84] Creating Layer conv1_29
I0214 17:24:23.894090 19209 net.cpp:406] conv1_29 <- conv1_29/bn
I0214 17:24:23.894096 19209 net.cpp:380] conv1_29 -> conv1_29
I0214 17:24:23.918622 19209 net.cpp:122] Setting up conv1_29
I0214 17:24:23.918642 19209 net.cpp:129] Top shape: 1 32 40 79 (101120)
I0214 17:24:23.918648 19209 net.cpp:137] Memory required for data: 3577019432
I0214 17:24:23.918656 19209 layer_factory.hpp:77] Creating layer concat1_29
I0214 17:24:23.918668 19209 net.cpp:84] Creating Layer concat1_29
I0214 17:24:23.918674 19209 net.cpp:406] concat1_29 <- concat1_28_concat1_28_0_split_1
I0214 17:24:23.918682 19209 net.cpp:406] concat1_29 <- conv1_29
I0214 17:24:23.918694 19209 net.cpp:380] concat1_29 -> concat1_29
I0214 17:24:23.918795 19209 net.cpp:122] Setting up concat1_29
I0214 17:24:23.918809 19209 net.cpp:129] Top shape: 1 1472 40 79 (4651520)
I0214 17:24:23.918814 19209 net.cpp:137] Memory required for data: 3595625512
I0214 17:24:23.918819 19209 layer_factory.hpp:77] Creating layer tpp5
I0214 17:24:23.918830 19209 net.cpp:84] Creating Layer tpp5
I0214 17:24:23.918836 19209 net.cpp:406] tpp5 <- concat1_29
I0214 17:24:23.918848 19209 net.cpp:380] tpp5 -> tpp5
I0214 17:24:23.920917 19209 net.cpp:122] Setting up tpp5
I0214 17:24:23.920938 19209 net.cpp:129] Top shape: 1 22080 (22080)
I0214 17:24:23.920944 19209 net.cpp:137] Memory required for data: 3595713832
I0214 17:24:23.920953 19209 layer_factory.hpp:77] Creating layer fc6_d
I0214 17:24:23.920965 19209 net.cpp:84] Creating Layer fc6_d
I0214 17:24:23.920972 19209 net.cpp:406] fc6_d <- tpp5
I0214 17:24:23.920990 19209 net.cpp:380] fc6_d -> fc6_d
I0214 17:24:26.746150 19209 net.cpp:122] Setting up fc6_d
I0214 17:24:26.746196 19209 net.cpp:129] Top shape: 1 4096 (4096)
I0214 17:24:26.746199 19209 net.cpp:137] Memory required for data: 3595730216
I0214 17:24:26.746210 19209 layer_factory.hpp:77] Creating layer relu6
I0214 17:24:26.746224 19209 net.cpp:84] Creating Layer relu6
I0214 17:24:26.746232 19209 net.cpp:406] relu6 <- fc6_d
I0214 17:24:26.746240 19209 net.cpp:367] relu6 -> fc6_d (in-place)
I0214 17:24:26.746667 19209 net.cpp:122] Setting up relu6
I0214 17:24:26.746678 19209 net.cpp:129] Top shape: 1 4096 (4096)
I0214 17:24:26.746682 19209 net.cpp:137] Memory required for data: 3595746600
I0214 17:24:26.746686 19209 layer_factory.hpp:77] Creating layer fc7_d
I0214 17:24:26.746696 19209 net.cpp:84] Creating Layer fc7_d
I0214 17:24:26.746701 19209 net.cpp:406] fc7_d <- fc6_d
I0214 17:24:26.746709 19209 net.cpp:380] fc7_d -> fc7_d
I0214 17:24:27.260092 19209 net.cpp:122] Setting up fc7_d
I0214 17:24:27.260136 19209 net.cpp:129] Top shape: 1 4096 (4096)
I0214 17:24:27.260141 19209 net.cpp:137] Memory required for data: 3595762984
I0214 17:24:27.260152 19209 layer_factory.hpp:77] Creating layer relu7
I0214 17:24:27.260164 19209 net.cpp:84] Creating Layer relu7
I0214 17:24:27.260172 19209 net.cpp:406] relu7 <- fc7_d
I0214 17:24:27.260182 19209 net.cpp:367] relu7 -> fc7_d (in-place)
I0214 17:24:27.262032 19209 net.cpp:122] Setting up relu7
I0214 17:24:27.262045 19209 net.cpp:129] Top shape: 1 4096 (4096)
I0214 17:24:27.262049 19209 net.cpp:137] Memory required for data: 3595779368
I0214 17:24:27.262059 19209 layer_factory.hpp:77] Creating layer fc8_d
I0214 17:24:27.262078 19209 net.cpp:84] Creating Layer fc8_d
I0214 17:24:27.262081 19209 net.cpp:406] fc8_d <- fc7_d
I0214 17:24:27.262089 19209 net.cpp:380] fc8_d -> fc8_d
I0214 17:24:27.378561 19209 net.cpp:122] Setting up fc8_d
I0214 17:24:27.378594 19209 net.cpp:129] Top shape: 1 926 (926)
I0214 17:24:27.378598 19209 net.cpp:137] Memory required for data: 3595783072
I0214 17:24:27.378609 19209 layer_factory.hpp:77] Creating layer fc8_d_fc8_d_0_split
I0214 17:24:27.378620 19209 net.cpp:84] Creating Layer fc8_d_fc8_d_0_split
I0214 17:24:27.378628 19209 net.cpp:406] fc8_d_fc8_d_0_split <- fc8_d
I0214 17:24:27.378636 19209 net.cpp:380] fc8_d_fc8_d_0_split -> fc8_d_fc8_d_0_split_0
I0214 17:24:27.378645 19209 net.cpp:380] fc8_d_fc8_d_0_split -> fc8_d_fc8_d_0_split_1
I0214 17:24:27.378751 19209 net.cpp:122] Setting up fc8_d_fc8_d_0_split
I0214 17:24:27.378756 19209 net.cpp:129] Top shape: 1 926 (926)
I0214 17:24:27.378760 19209 net.cpp:129] Top shape: 1 926 (926)
I0214 17:24:27.378764 19209 net.cpp:137] Memory required for data: 3595790480
I0214 17:24:27.378767 19209 layer_factory.hpp:77] Creating layer sigmoid
I0214 17:24:27.378779 19209 net.cpp:84] Creating Layer sigmoid
I0214 17:24:27.378783 19209 net.cpp:406] sigmoid <- fc8_d_fc8_d_0_split_0
I0214 17:24:27.378792 19209 net.cpp:380] sigmoid -> sigmoid
I0214 17:24:27.379245 19209 net.cpp:122] Setting up sigmoid
I0214 17:24:27.379256 19209 net.cpp:129] Top shape: 1 926 (926)
I0214 17:24:27.379258 19209 net.cpp:137] Memory required for data: 3595794184
I0214 17:24:27.379262 19209 layer_factory.hpp:77] Creating layer silence
I0214 17:24:27.379269 19209 net.cpp:84] Creating Layer silence
I0214 17:24:27.379273 19209 net.cpp:406] silence <- sigmoid
I0214 17:24:27.379278 19209 net.cpp:122] Setting up silence
I0214 17:24:27.379281 19209 net.cpp:137] Memory required for data: 3595794184
…
