…
  phase: TRAIN
}
layer {
  name: "word_images"
  type: "Data"
  top: "word_images"
  top: "label"
  transform_param {
    scale: -0.0039215689
    mean_value: 255
  }
  data_param {
    source: "/data/fwolf/iam_60x160/iam-db_nti500000_pul2-3-4-5_train_word_images_lmdb"
    batch_size: 1
    backend: LMDB
    prefetch: 20
  }
}
layer {
  name: "phocs"
  type: "Data"
  top: "phocs"
  top: "label_phocs"
  data_param {
    source: "/data/fwolf/iam_60x160/iam-db_nti500000_pul2-3-4-5_train_phocs_lmdb"
    batch_size: 1
    backend: LMDB
    prefetch: 20
  }
}
layer {
  name: "conv_init"
  type: "Convolution"
  bottom: "word_images"
  top: "conv_init"
  convolution_param {
    num_output: 64
    bias_term: false
    pad: 3
    kernel_size: 7
    stride: 2
    weight_filler {
      type: "msra"
    }
    bias_filler {
      type: "constant"
    }
    engine: CUDNN
  }
}
layer {
  name: "bn_init"
  type: "BatchNorm"
  bottom: "conv_init"
  top: "bn_init"
  param {
    lr_mult: 0
    decay_mult: 0
  }
  param {
    lr_mult: 0
    decay_mult: 0
  }
  param {
    lr_mult: 0
    decay_mult: 0
  }
  batch_norm_param {
    eps: 1e-05
  }
}
layer {
  name: "scale_init"
  type: "Scale"
  bottom: "bn_init"
  top: "bn_init"
  scale_param {
    filler {
      value: 1
    }
    bias_term: true
    bias_filler {
      value: 0
    }
  }
}
layer {
  name: "relu_init"
  type: "ReLU"
  bottom: "bn_init"
  top: "bn_init"
}
layer {
  name: "pool_init"
  type: "Pooling"
  bottom: "bn_init"
  top: "pool_init"
  pooling_param {
    pool: MAX
    kernel_size: 3
    stride: 2
    pad: 1
  }
}
layer {
  name: "conv0_0/x1/bn"
  type: "BatchNorm"
  bottom: "pool_init"
  top: "conv0_0/x1/bn"
  param {
    lr_mult: 0
    decay_mult: 0
  }
  param {
    lr_mult: 0
    decay_mult: 0
  }
  param {
    lr_mult: 0
    decay_mult: 0
  }
}
layer {
  name: "conv0_0/x1/scale"
  type: "Scale"
  bottom: "conv0_0/x1/bn"
  top: "conv0_0/x1/bn"
  scale_param {
    filler {
      value: 1
    }
    bias_term: true
    bias_filler {
      value: 0
    }
  }
}
layer {
  name: "relu0_0/x1"
  type: "ReLU"
  bottom: "conv0_0/x1/bn"
  top: "conv0_0/x1/bn"
}
layer {
  name: "conv0_0/x1"
  type: "Convolution"
  bottom: "conv0_0/x1/bn"
  top: "conv0_0/x1"
  convolution_param {
    num_output: 128
    bias_term: false
    pad: 0
    kernel_size: 1
    stride: 1
    weight_filler {
      type: "msra"
    }
    bias_filler {
      type: "constant"
    }
    engine: CUDNN
  }
}
layer {
  name: "conv0_0/x2/bn"
  type: "BatchNorm"
  bottom: "conv0_0/x1"
  top: "conv0_0/x2/bn"
  param {
    lr_mult: 0
    decay_mult: 0
  }
  param {
    lr_mult: 0
    decay_mult: 0
  }
  param {
    lr_mult: 0
    decay_mult: 0
  }
}
layer {
  name: "conv0_0/x2/scale"
  type: "Scale"
  bottom: "conv0_0/x2/bn"
  top: "conv0_0/x2/bn"
  scale_param {
    filler {
      value: 1
    }
    bias_term: true
    bias_filler {
      value: 0
    }
  }
}
layer {
  name: "relu0_0/x2"
  type: "ReLU"
  bottom: "conv0_0/x2/bn"
  top: "conv0_0/x2/bn"
}
layer {
  name: "conv0_0/x2"
  type: "Convolution"
  bottom: "conv0_0/x2/bn"
  top: "conv0_0/x2"
  convolution_param {
    num_output: 32
    bias_term: false
    pad: 1
    kernel_size: 3
    stride: 1
    weight_filler {
      type: "msra"
    }
    bias_filler {
      type: "constant"
    }
    engine: CUDNN
  }
}
layer {
  name: "concat0_0"
  type: "Concat"
  bottom: "pool_init"
  bottom: "conv0_0/x2"
  top: "concat0_0"
  concat_param {
    axis: 1
  }
}
layer {
  name: "conv0_1/x1/bn"
  type: "BatchNorm"
  bottom: "concat0_0"
  top: "conv0_1/x1/bn"
  param {
    lr_mult: 0
    decay_mult: 0
  }
  param {
    lr_mult: 0
    decay_mult: 0
  }
  param {
    lr_mult: 0
    decay_mult: 0
  }
}
layer {
  name: "conv0_1/x1/scale"
  type: "Scale"
  bottom: "conv0_1/x1/bn"
  top: "conv0_1/x1/bn"
  scale_param {
    filler {
      value: 1
    }
    bias_term: true
    bias_filler {
      value: 0
    }
  }
}
layer {
  name: "relu0_1/x1"
  type: "ReLU"
  bottom: "conv0_1/x1/bn"
  top: "conv0_1/x1/bn"
}
layer {
  name: "conv0_1/x1"
  type: "Convolution"
  bottom: "conv0_1/x1/bn"
  top: "conv0_1/x1"
  convolution_param {
    num_output: 128
    bias_term: false
    pad: 0
    kernel_size: 1
    stride: 1
    weight_filler {
      type: "msra"
    }
    bias_filler {
      type: "constant"
    }
    engine: CUDNN
  }
}
layer {
  name: "conv0_1/x2/bn"
  type: "BatchNorm"
  bottom: "conv0_1/x1"
  top: "conv0_1/x2/bn"
  param {
    lr_mult: 0
    decay_mult: 0
  }
  param {
    lr_mult: 0
    decay_mult: 0
  }
  param {
    lr_mult: 0
    decay_mult: 0
  }
}
layer {
  name: "conv0_1/x2/scale"
  type: "Scale"
  bottom: "conv0_1/x2/bn"
  top: "conv0_1/x2/bn"
  scale_param {
    filler {
      value: 1
    }
    bias_term: true
    bias_filler {
      value: 0
    }
  }
}
layer {
  name: "relu0_1/x2"
  type: "ReLU"
  bottom: "conv0_1/x2/bn"
  top: "conv0_1/x2/bn"
}
layer {
  name: "conv0_1/x2"
  type: "Convolution"
  bottom: "conv0_1/x2/bn"
  top: "conv0_1/x2"
  convolution_param {
    num_output: 32
    bias_term: false
    pad: 1
    kernel_size: 3
    stride: 1
    weight_filler {
      type: "msra"
    }
    bias_filler {
      type: "constant"
    }
    engine: CUDNN
  }
}
layer {
  name: "concat0_1"
  type: "Concat"
  bottom: "concat0_0"
  bottom: "conv0_1/x2"
  top: "concat0_1"
  concat_param {
    axis: 1
  }
}
layer {
  name: "conv0_2/x1/bn"
  type: "BatchNorm"
  bottom: "concat0_1"
  top: "conv0_2/x1/bn"
  param {
    lr_mult: 0
    decay_mult: 0
  }
  param {
    lr_mult: 0
    decay_mult: 0
  }
  param {
    lr_mult: 0
    decay_mult: 0
  }
}
layer {
  name: "conv0_2/x1/scale"
  type: "Scale"
  bottom: "conv0_2/x1/bn"
  top: "conv0_2/x1/bn"
  scale_param {
    filler {
      value: 1
    }
    bias_term: true
    bias_filler {
      value: 0
    }
  }
}
layer {
  name: "relu0_2/x1"
  type: "ReLU"
  bottom: "conv0_2/x1/bn"
  top: "conv0_2/x1/bn"
}
layer {
  name: "conv0_2/x1"
  type: "Convolution"
  bottom: "conv0_2/x1/bn"
  top: "conv0_2/x1"
  convolution_param {
    num_output: 128
    bias_term: false
    pad: 0
    kernel_size: 1
    stride: 1
    weight_filler {
      type: "msra"
    }
    bias_filler {
      type: "constant"
    }
    engine: CUDNN
  }
}
layer {
  name: "conv0_2/x2/bn"
  type: "BatchNorm"
  bottom: "conv0_2/x1"
  top: "conv0_2/x2/bn"
  param {
    lr_mult: 0
    decay_mult: 0
  }
  param {
    lr_mult: 0
    decay_mult: 0
  }
  param {
    lr_mult: 0
    decay_mult: 0
  }
}
layer {
  name: "conv0_2/x2/scale"
  type: "Scale"
  bottom: "conv0_2/x2/bn"
  top: "conv0_2/x2/bn"
  scale_param {
    filler {
      value: 1
    }
    bias_term: true
    bias_filler {
      value: 0
    }
  }
}
layer {
  name: "relu0_2/x2"
  type: "ReLU"
  bottom: "conv0_2/x2/bn"
  top: "conv0_2/x2/bn"
}
layer {
  name: "conv0_2/x2"
  type: "Convolution"
  bottom: "conv0_2/x2/bn"
  top: "conv0_2/x2"
  convolution_param {
    num_output: 32
    bias_term: false
    pad: 1
    kernel_size: 3
    stride: 1
    weight_filler {
      type: "msra"
    }
    bias_filler {
      type: "constant"
    }
    engine: CUDNN
  }
}
layer {
  name: "concat0_2"
  type: "Concat"
  bottom: "concat0_1"
  bottom: "conv0_2/x2"
  top: "concat0_2"
  concat_param {
    axis: 1
  }
}
layer {
  name: "conv0_3/x1/bn"
  type: "BatchNorm"
  bottom: "concat0_2"
  top: "conv0_3/x1/bn"
  param {
    lr_mult: 0
    decay_mult: 0
  }
  param {
    lr_mult: 0
    decay_mult: 0
  }
  param {
    lr_mult: 0
    decay_mult: 0
  }
}
layer {
  name: "conv0_3/x1/scale"
  type: "Scale"
  bottom: "conv0_3/x1/bn"
  top: "conv0_3/x1/bn"
  scale_param {
    filler {
      value: 1
    }
    bias_term: true
    bias_filler {
      value: 0
    }
  }
}
layer {
  name: "relu0_3/x1"
  type: "ReLU"
  bottom: "conv0_3/x1/bn"
  top: "conv0_3/x1/bn"
}
layer {
  name: "conv0_3/x1"
  type: "Convolution"
  bottom: "conv0_3/x1/bn"
  top: "conv0_3/x1"
  convolution_param {
    num_output: 128
    bias_term: false
    pad: 0
    kernel_size: 1
    stride: 1
    weight_filler {
      type: "msra"
    }
    bias_filler {
      type: "constant"
    }
    engine: CUDNN
  }
}
layer {
  name: "conv0_3/x2/bn"
  type: "BatchNorm"
  bottom: "conv0_3/x1"
  top: "conv0_3/x2/bn"
  param {
    lr_mult: 0
    decay_mult: 0
  }
  param {
    lr_mult: 0
    decay_mult: 0
  }
  param {
    lr_mult: 0
    decay_mult: 0
  }
}
layer {
  name: "conv0_3/x2/scale"
  type: "Scale"
  bottom: "conv0_3/x2/bn"
  top: "conv0_3/x2/bn"
  scale_param {
    filler {
      value: 1
    }
    bias_term: true
    bias_filler {
      value: 0
    }
  }
}
layer {
  name: "relu0_3/x2"
  type: "ReLU"
  bottom: "conv0_3/x2/bn"
  top: "conv0_3/x2/bn"
}
layer {
  name: "conv0_3/x2"
  type: "Convolution"
  bottom: "conv0_3/x2/bn"
  top: "conv0_3/x2"
  convolution_param {
    num_output: 32
    bias_term: false
    pad: 1
    kernel_size: 3
    stride: 1
    weight_filler {
      type: "msra"
    }
    bias_filler {
      type: "constant"
    }
    engine: CUDNN
  }
}
layer {
  name: "concat0_3"
  type: "Concat"
  bottom: "concat0_2"
  bottom: "conv0_3/x2"
  top: "concat0_3"
  concat_param {
    axis: 1
  }
}
layer {
  name: "conv0_4/x1/bn"
  type: "BatchNorm"
  bottom: "concat0_3"
  top: "conv0_4/x1/bn"
  param {
    lr_mult: 0
    decay_mult: 0
  }
  param {
    lr_mult: 0
    decay_mult: 0
  }
  param {
    lr_mult: 0
    decay_mult: 0
  }
}
layer {
  name: "conv0_4/x1/scale"
  type: "Scale"
  bottom: "conv0_4/x1/bn"
  top: "conv0_4/x1/bn"
  scale_param {
    filler {
      value: 1
    }
    bias_term: true
    bias_filler {
      value: 0
    }
  }
}
layer {
  name: "relu0_4/x1"
  type: "ReLU"
  bottom: "conv0_4/x1/bn"
  top: "conv0_4/x1/bn"
}
layer {
  name: "conv0_4/x1"
  type: "Convolution"
  bottom: "conv0_4/x1/bn"
  top: "conv0_4/x1"
  convolution_param {
    num_output: 128
    bias_term: false
    pad: 0
    kernel_size: 1
    stride: 1
    weight_filler {
      type: "msra"
    }
    bias_filler {
      type: "constant"
    }
    engine: CUDNN
  }
}
layer {
  name: "conv0_4/x2/bn"
  type: "BatchNorm"
  bottom: "conv0_4/x1"
  top: "conv0_4/x2/bn"
  param {
    lr_mult: 0
    decay_mult: 0
  }
  param {
    lr_mult: 0
    decay_mult: 0
  }
  param {
    lr_mult: 0
    decay_mult: 0
  }
}
layer {
  name: "conv0_4/x2/scale"
  type: "Scale"
  bottom: "conv0_4/x2/bn"
  top: "conv0_4/x2/bn"
  scale_param {
    filler {
      value: 1
    }
    bias_term: true
    bias_filler {
      value: 0
    }
  }
}
layer {
  name: "relu0_4/x2"
  type: "ReLU"
  bottom: "conv0_4/x2/bn"
  top: "conv0_4/x2/bn"
}
layer {
  name: "conv0_4/x2"
  type: "Convolution"
  bottom: "conv0_4/x2/bn"
  top: "conv0_4/x2"
  convolution_param {
    num_output: 32
    bias_term: false
    pad: 1
    kernel_size: 3
    stride: 1
    weight_filler {
      type: "msra"
    }
    bias_filler {
      type: "constant"
    }
    engine: CUDNN
  }
}
layer {
  name: "concat0_4"
  type: "Concat"
  bottom: "concat0_3"
  bottom: "conv0_4/x2"
  top: "concat0_4"
  concat_param {
    axis: 1
  }
}
layer {
  name: "conv0_5/x1/bn"
  type: "BatchNorm"
  bottom: "concat0_4"
  top: "conv0_5/x1/bn"
  param {
    lr_mult: 0
    decay_mult: 0
  }
  param {
    lr_mult: 0
    decay_mult: 0
  }
  param {
    lr_mult: 0
    decay_mult: 0
  }
}
layer {
  name: "conv0_5/x1/scale"
  type: "Scale"
  bottom: "conv0_5/x1/bn"
  top: "conv0_5/x1/bn"
  scale_param {
    filler {
      value: 1
    }
    bias_term: true
    bias_filler {
      value: 0
    }
  }
}
layer {
  name: "relu0_5/x1"
  type: "ReLU"
  bottom: "conv0_5/x1/bn"
  top: "conv0_5/x1/bn"
}
layer {
  name: "conv0_5/x1"
  type: "Convolution"
  bottom: "conv0_5/x1/bn"
  top: "conv0_5/x1"
  convolution_param {
    num_output: 128
    bias_term: false
    pad: 0
    kernel_size: 1
    stride: 1
    weight_filler {
      type: "msra"
    }
    bias_filler {
      type: "constant"
    }
    engine: CUDNN
  }
}
layer {
  name: "conv0_5/x2/bn"
  type: "BatchNorm"
  bottom: "conv0_5/x1"
  top: "conv0_5/x2/bn"
  param {
    lr_mult: 0
    decay_mult: 0
  }
  param {
    lr_mult: 0
    decay_mult: 0
  }
  param {
    lr_mult: 0
    decay_mult: 0
  }
}
layer {
  name: "conv0_5/x2/scale"
  type: "Scale"
  bottom: "conv0_5/x2/bn"
  top: "conv0_5/x2/bn"
  scale_param {
    filler {
      value: 1
    }
    bias_term: true
    bias_filler {
      value: 0
    }
  }
}
layer {
  name: "relu0_5/x2"
  type: "ReLU"
  bottom: "conv0_5/x2/bn"
  top: "conv0_5/x2/bn"
}
layer {
  name: "conv0_5/x2"
  type: "Convolution"
  bottom: "conv0_5/x2/bn"
  top: "conv0_5/x2"
  convolution_param {
    num_output: 32
    bias_term: false
    pad: 1
    kernel_size: 3
    stride: 1
    weight_filler {
      type: "msra"
    }
    bias_filler {
      type: "constant"
    }
    engine: CUDNN
  }
}
layer {
  name: "concat0_5"
  type: "Concat"
  bottom: "concat0_4"
  bottom: "conv0_5/x2"
  top: "concat0_5"
  concat_param {
    axis: 1
  }
}
layer {
  name: "BatchNorm1"
  type: "BatchNorm"
  bottom: "concat0_5"
  top: "BatchNorm1"
  param {
    lr_mult: 0
    decay_mult: 0
  }
  param {
    lr_mult: 0
    decay_mult: 0
  }
  param {
    lr_mult: 0
    decay_mult: 0
  }
}
layer {
  name: "Scale1"
  type: "Scale"
  bottom: "BatchNorm1"
  top: "BatchNorm1"
  scale_param {
    filler {
      value: 1
    }
    bias_term: true
    bias_filler {
      value: 0
    }
  }
}
layer {
  name: "ReLU1"
  type: "ReLU"
  bottom: "BatchNorm1"
  top: "BatchNorm1"
}
layer {
  name: "conv0_blk"
  type: "Convolution"
  bottom: "BatchNorm1"
  top: "conv0_blk"
  convolution_param {
    num_output: 128
    bias_term: false
    pad: 0
    kernel_size: 1
    stride: 1
    weight_filler {
      type: "msra"
    }
    bias_filler {
      type: "constant"
    }
    engine: CUDNN
  }
}
layer {
  name: "pool0"
  type: "Pooling"
  bottom: "conv0_blk"
  top: "pool0"
  pooling_param {
    pool: AVE
    kernel_size: 2
    stride: 2
  }
}
layer {
  name: "conv1_0/x1/bn"
  type: "BatchNorm"
  bottom: "pool0"
  top: "conv1_0/x1/bn"
  param {
    lr_mult: 0
    decay_mult: 0
  }
  param {
    lr_mult: 0
    decay_mult: 0
  }
  param {
    lr_mult: 0
    decay_mult: 0
  }
}
layer {
  name: "conv1_0/x1/scale"
  type: "Scale"
  bottom: "conv1_0/x1/bn"
  top: "conv1_0/x1/bn"
  scale_param {
    filler {
      value: 1
    }
    bias_term: true
    bias_filler {
      value: 0
    }
  }
}
layer {
  name: "relu1_0/x1"
  type: "ReLU"
  bottom: "conv1_0/x1/bn"
  top: "conv1_0/x1/bn"
}
layer {
  name: "conv1_0/x1"
  type: "Convolution"
  bottom: "conv1_0/x1/bn"
  top: "conv1_0/x1"
  convolution_param {
    num_output: 128
    bias_term: false
    pad: 0
    kernel_size: 1
    stride: 1
    weight_filler {
      type: "msra"
    }
    bias_filler {
      type: "constant"
    }
    engine: CUDNN
  }
}
layer {
  name: "conv1_0/x2/bn"
  type: "BatchNorm"
  bottom: "conv1_0/x1"
  top: "conv1_0/x2/bn"
  param {
    lr_mult: 0
    decay_mult: 0
  }
  param {
    lr_mult: 0
    decay_mult: 0
  }
  param {
    lr_mult: 0
    decay_mult: 0
  }
}
layer {
  name: "conv1_0/x2/scale"
  type: "Scale"
  bottom: "conv1_0/x2/bn"
  top: "conv1_0/x2/bn"
  scale_param {
    filler {
      value: 1
    }
    bias_term: true
    bias_filler {
      value: 0
    }
  }
}
layer {
  name: "relu1_0/x2"
  type: "ReLU"
  bottom: "conv1_0/x2/bn"
  top: "conv1_0/x2/bn"
}
layer {
  name: "conv1_0/x2"
  type: "Convolution"
  bottom: "conv1_0/x2/bn"
  top: "conv1_0/x2"
  convolution_param {
    num_output: 32
    bias_term: false
    pad: 1
    kernel_size: 3
    stride: 1
    weight_filler {
      type: "msra"
    }
    bias_filler {
      type: "constant"
    }
    engine: CUDNN
  }
}
layer {
  name: "concat1_0"
  type: "Concat"
  bottom: "pool0"
  bottom: "conv1_0/x2"
  top: "concat1_0"
  concat_param {
    axis: 1
  }
}
layer {
  name: "conv1_1/x1/bn"
  type: "BatchNorm"
  bottom: "concat1_0"
  top: "conv1_1/x1/bn"
  param {
    lr_mult: 0
    decay_mult: 0
  }
  param {
    lr_mult: 0
    decay_mult: 0
  }
  param {
    lr_mult: 0
    decay_mult: 0
  }
}
layer {
  name: "conv1_1/x1/scale"
  type: "Scale"
  bottom: "conv1_1/x1/bn"
  top: "conv1_1/x1/bn"
  scale_param {
    filler {
      value: 1
    }
    bias_term: true
    bias_filler {
      value: 0
    }
  }
}
layer {
  name: "relu1_1/x1"
  type: "ReLU"
  bottom: "conv1_1/x1/bn"
  top: "conv1_1/x1/bn"
}
layer {
  name: "conv1_1/x1"
  type: "Convolution"
  bottom: "conv1_1/x1/bn"
  top: "conv1_1/x1"
  convolution_param {
    num_output: 128
    bias_term: false
    pad: 0
    kernel_size: 1
    stride: 1
    weight_filler {
      type: "msra"
    }
    bias_filler {
      type: "constant"
    }
    engine: CUDNN
  }
}
layer {
  name: "conv1_1/x2/bn"
  type: "BatchNorm"
  bottom: "conv1_1/x1"
  top: "conv1_1/x2/bn"
  param {
    lr_mult: 0
    decay_mult: 0
  }
  param {
    lr_mult: 0
    decay_mult: 0
  }
  param {
    lr_mult: 0
    decay_mult: 0
  }
}
layer {
  name: "conv1_1/x2/scale"
  type: "Scale"
  bottom: "conv1_1/x2/bn"
  top: "conv1_1/x2/bn"
  scale_param {
    filler {
      value: 1
    }
    bias_term: true
    bias_filler {
      value: 0
    }
  }
}
layer {
  name: "relu1_1/x2"
  type: "ReLU"
  bottom: "conv1_1/x2/bn"
  top: "conv1_1/x2/bn"
}
layer {
  name: "conv1_1/x2"
  type: "Convolution"
  bottom: "conv1_1/x2/bn"
  top: "conv1_1/x2"
  convolution_param {
    num_output: 32
    bias_term: false
    pad: 1
    kernel_size: 3
    stride: 1
    weight_filler {
      type: "msra"
    }
    bias_filler {
      type: "constant"
    }
    engine: CUDNN
  }
}
layer {
  name: "concat1_1"
  type: "Concat"
  bottom: "concat1_0"
  bottom: "conv1_1/x2"
  top: "concat1_1"
  concat_param {
    axis: 1
  }
}
layer {
  name: "conv1_2/x1/bn"
  type: "BatchNorm"
  bottom: "concat1_1"
  top: "conv1_2/x1/bn"
  param {
    lr_mult: 0
    decay_mult: 0
  }
  param {
    lr_mult: 0
    decay_mult: 0
  }
  param {
    lr_mult: 0
    decay_mult: 0
  }
}
layer {
  name: "conv1_2/x1/scale"
  type: "Scale"
  bottom: "conv1_2/x1/bn"
  top: "conv1_2/x1/bn"
  scale_param {
    filler {
      value: 1
    }
    bias_term: true
    bias_filler {
      value: 0
    }
  }
}
layer {
  name: "relu1_2/x1"
  type: "ReLU"
  bottom: "conv1_2/x1/bn"
  top: "conv1_2/x1/bn"
}
layer {
  name: "conv1_2/x1"
  type: "Convolution"
  bottom: "conv1_2/x1/bn"
  top: "conv1_2/x1"
  convolution_param {
    num_output: 128
    bias_term: false
    pad: 0
    kernel_size: 1
    stride: 1
    weight_filler {
      type: "msra"
    }
    bias_filler {
      type: "constant"
    }
    engine: CUDNN
  }
}
layer {
  name: "conv1_2/x2/bn"
  type: "BatchNorm"
  bottom: "conv1_2/x1"
  top: "conv1_2/x2/bn"
  param {
    lr_mult: 0
    decay_mult: 0
  }
  param {
    lr_mult: 0
    decay_mult: 0
  }
  param {
    lr_mult: 0
    decay_mult: 0
  }
}
layer {
  name: "conv1_2/x2/scale"
  type: "Scale"
  bottom: "conv1_2/x2/bn"
  top: "conv1_2/x2/bn"
  scale_param {
    filler {
      value: 1
    }
    bias_term: true
    bias_filler {
      value: 0
    }
  }
}
layer {
  name: "relu1_2/x2"
  type: "ReLU"
  bottom: "conv1_2/x2/bn"
  top: "conv1_2/x2/bn"
}
layer {
  name: "conv1_2/x2"
  type: "Convolution"
  bottom: "conv1_2/x2/bn"
  top: "conv1_2/x2"
  convolution_param {
    num_output: 32
    bias_term: false
    pad: 1
    kernel_size: 3
    stride: 1
    weight_filler {
      type: "msra"
    }
    bias_filler {
      type: "constant"
    }
    engine: CUDNN
  }
}
layer {
  name: "concat1_2"
  type: "Concat"
  bottom: "concat1_1"
  bottom: "conv1_2/x2"
  top: "concat1_2"
  concat_param {
    axis: 1
  }
}
layer {
  name: "conv1_3/x1/bn"
  type: "BatchNorm"
  bottom: "concat1_2"
  top: "conv1_3/x1/bn"
  param {
    lr_mult: 0
    decay_mult: 0
  }
  param {
    lr_mult: 0
    decay_mult: 0
  }
  param {
    lr_mult: 0
    decay_mult: 0
  }
}
layer {
  name: "conv1_3/x1/scale"
  type: "Scale"
  bottom: "conv1_3/x1/bn"
  top: "conv1_3/x1/bn"
  scale_param {
    filler {
      value: 1
    }
    bias_term: true
    bias_filler {
      value: 0
    }
  }
}
layer {
  name: "relu1_3/x1"
  type: "ReLU"
  bottom: "conv1_3/x1/bn"
  top: "conv1_3/x1/bn"
}
layer {
  name: "conv1_3/x1"
  type: "Convolution"
  bottom: "conv1_3/x1/bn"
  top: "conv1_3/x1"
  convolution_param {
    num_output: 128
    bias_term: false
    pad: 0
    kernel_size: 1
    stride: 1
    weight_filler {
      type: "msra"
    }
    bias_filler {
      type: "constant"
    }
    engine: CUDNN
  }
}
layer {
  name: "conv1_3/x2/bn"
  type: "BatchNorm"
  bottom: "conv1_3/x1"
  top: "conv1_3/x2/bn"
  param {
    lr_mult: 0
    decay_mult: 0
  }
  param {
    lr_mult: 0
    decay_mult: 0
  }
  param {
    lr_mult: 0
    decay_mult: 0
  }
}
layer {
  name: "conv1_3/x2/scale"
  type: "Scale"
  bottom: "conv1_3/x2/bn"
  top: "conv1_3/x2/bn"
  scale_param {
    filler {
      value: 1
    }
    bias_term: true
    bias_filler {
      value: 0
    }
  }
}
layer {
  name: "relu1_3/x2"
  type: "ReLU"
  bottom: "conv1_3/x2/bn"
  top: "conv1_3/x2/bn"
}
layer {
  name: "conv1_3/x2"
  type: "Convolution"
  bottom: "conv1_3/x2/bn"
  top: "conv1_3/x2"
  convolution_param {
    num_output: 32
    bias_term: false
    pad: 1
    kernel_size: 3
    stride: 1
    weight_filler {
      type: "msra"
    }
    bias_filler {
      type: "constant"
    }
    engine: CUDNN
  }
}
layer {
  name: "concat1_3"
  type: "Concat"
  bottom: "concat1_2"
  bottom: "conv1_3/x2"
  top: "concat1_3"
  concat_param {
    axis: 1
  }
}
layer {
  name: "conv1_4/x1/bn"
  type: "BatchNorm"
  bottom: "concat1_3"
  top: "conv1_4/x1/bn"
  param {
    lr_mult: 0
    decay_mult: 0
  }
  param {
    lr_mult: 0
    decay_mult: 0
  }
  param {
    lr_mult: 0
    decay_mult: 0
  }
}
layer {
  name: "conv1_4/x1/scale"
  type: "Scale"
  bottom: "conv1_4/x1/bn"
  top: "conv1_4/x1/bn"
  scale_param {
    filler {
      value: 1
    }
    bias_term: true
    bias_filler {
      value: 0
    }
  }
}
layer {
  name: "relu1_4/x1"
  type: "ReLU"
  bottom: "conv1_4/x1/bn"
  top: "conv1_4/x1/bn"
}
layer {
  name: "conv1_4/x1"
  type: "Convolution"
  bottom: "conv1_4/x1/bn"
  top: "conv1_4/x1"
  convolution_param {
    num_output: 128
    bias_term: false
    pad: 0
    kernel_size: 1
    stride: 1
    weight_filler {
      type: "msra"
    }
    bias_filler {
      type: "constant"
    }
    engine: CUDNN
  }
}
layer {
  name: "conv1_4/x2/bn"
  type: "BatchNorm"
  bottom: "conv1_4/x1"
  top: "conv1_4/x2/bn"
  param {
    lr_mult: 0
    decay_mult: 0
  }
  param {
    lr_mult: 0
    decay_mult: 0
  }
  param {
    lr_mult: 0
    decay_mult: 0
  }
}
layer {
  name: "conv1_4/x2/scale"
  type: "Scale"
  bottom: "conv1_4/x2/bn"
  top: "conv1_4/x2/bn"
  scale_param {
    filler {
      value: 1
    }
    bias_term: true
    bias_filler {
      value: 0
    }
  }
}
layer {
  name: "relu1_4/x2"
  type: "ReLU"
  bottom: "conv1_4/x2/bn"
  top: "conv1_4/x2/bn"
}
layer {
  name: "conv1_4/x2"
  type: "Convolution"
  bottom: "conv1_4/x2/bn"
  top: "conv1_4/x2"
  convolution_param {
    num_output: 32
    bias_term: false
    pad: 1
    kernel_size: 3
    stride: 1
    weight_filler {
      type: "msra"
    }
    bias_filler {
      type: "constant"
    }
    engine: CUDNN
  }
}
layer {
  name: "concat1_4"
  type: "Concat"
  bottom: "concat1_3"
  bottom: "conv1_4/x2"
  top: "concat1_4"
  concat_param {
    axis: 1
  }
}
layer {
  name: "conv1_5/x1/bn"
  type: "BatchNorm"
  bottom: "concat1_4"
  top: "conv1_5/x1/bn"
  param {
    lr_mult: 0
    decay_mult: 0
  }
  param {
    lr_mult: 0
    decay_mult: 0
  }
  param {
    lr_mult: 0
    decay_mult: 0
  }
}
layer {
  name: "conv1_5/x1/scale"
  type: "Scale"
  bottom: "conv1_5/x1/bn"
  top: "conv1_5/x1/bn"
  scale_param {
    filler {
      value: 1
    }
    bias_term: true
    bias_filler {
      value: 0
    }
  }
}
layer {
  name: "relu1_5/x1"
  type: "ReLU"
  bottom: "conv1_5/x1/bn"
  top: "conv1_5/x1/bn"
}
layer {
  name: "conv1_5/x1"
  type: "Convolution"
  bottom: "conv1_5/x1/bn"
  top: "conv1_5/x1"
  convolution_param {
    num_output: 128
    bias_term: false
    pad: 0
    kernel_size: 1
    stride: 1
    weight_filler {
      type: "msra"
    }
    bias_filler {
      type: "constant"
    }
    engine: CUDNN
  }
}
layer {
  name: "conv1_5/x2/bn"
  type: "BatchNorm"
  bottom: "conv1_5/x1"
  top: "conv1_5/x2/bn"
  param {
    lr_mult: 0
    decay_mult: 0
  }
  param {
    lr_mult: 0
    decay_mult: 0
  }
  param {
    lr_mult: 0
    decay_mult: 0
  }
}
layer {
  name: "conv1_5/x2/scale"
  type: "Scale"
  bottom: "conv1_5/x2/bn"
  top: "conv1_5/x2/bn"
  scale_param {
    filler {
      value: 1
    }
    bias_term: true
    bias_filler {
      value: 0
    }
  }
}
layer {
  name: "relu1_5/x2"
  type: "ReLU"
  bottom: "conv1_5/x2/bn"
  top: "conv1_5/x2/bn"
}
layer {
  name: "conv1_5/x2"
  type: "Convolution"
  bottom: "conv1_5/x2/bn"
  top: "conv1_5/x2"
  convolution_param {
    num_output: 32
    bias_term: false
    pad: 1
    kernel_size: 3
    stride: 1
    weight_filler {
      type: "msra"
    }
    bias_filler {
      type: "constant"
    }
    engine: CUDNN
  }
}
layer {
  name: "concat1_5"
  type: "Concat"
  bottom: "concat1_4"
  bottom: "conv1_5/x2"
  top: "concat1_5"
  concat_param {
    axis: 1
  }
}
layer {
  name: "conv1_6/x1/bn"
  type: "BatchNorm"
  bottom: "concat1_5"
  top: "conv1_6/x1/bn"
  param {
    lr_mult: 0
    decay_mult: 0
  }
  param {
    lr_mult: 0
    decay_mult: 0
  }
  param {
    lr_mult: 0
    decay_mult: 0
  }
}
layer {
  name: "conv1_6/x1/scale"
  type: "Scale"
  bottom: "conv1_6/x1/bn"
  top: "conv1_6/x1/bn"
  scale_param {
    filler {
      value: 1
    }
    bias_term: true
    bias_filler {
      value: 0
    }
  }
}
layer {
  name: "relu1_6/x1"
  type: "ReLU"
  bottom: "conv1_6/x1/bn"
  top: "conv1_6/x1/bn"
}
layer {
  name: "conv1_6/x1"
  type: "Convolution"
  bottom: "conv1_6/x1/bn"
  top: "conv1_6/x1"
  convolution_param {
    num_output: 128
    bias_term: false
    pad: 0
    kernel_size: 1
    stride: 1
    weight_filler {
      type: "msra"
    }
    bias_filler {
      type: "constant"
    }
    engine: CUDNN
  }
}
layer {
  name: "conv1_6/x2/bn"
  type: "BatchNorm"
  bottom: "conv1_6/x1"
  top: "conv1_6/x2/bn"
  param {
    lr_mult: 0
    decay_mult: 0
  }
  param {
    lr_mult: 0
    decay_mult: 0
  }
  param {
    lr_mult: 0
    decay_mult: 0
  }
}
layer {
  name: "conv1_6/x2/scale"
  type: "Scale"
  bottom: "conv1_6/x2/bn"
  top: "conv1_6/x2/bn"
  scale_param {
    filler {
      value: 1
    }
    bias_term: true
    bias_filler {
      value: 0
    }
  }
}
layer {
  name: "relu1_6/x2"
  type: "ReLU"
  bottom: "conv1_6/x2/bn"
  top: "conv1_6/x2/bn"
}
layer {
  name: "conv1_6/x2"
  type: "Convolution"
  bottom: "conv1_6/x2/bn"
  top: "conv1_6/x2"
  convolution_param {
    num_output: 32
    bias_term: false
    pad: 1
    kernel_size: 3
    stride: 1
    weight_filler {
      type: "msra"
    }
    bias_filler {
      type: "constant"
    }
    engine: CUDNN
  }
}
layer {
  name: "concat1_6"
  type: "Concat"
  bottom: "concat1_5"
  bottom: "conv1_6/x2"
  top: "concat1_6"
  concat_param {
    axis: 1
  }
}
layer {
  name: "conv1_7/x1/bn"
  type: "BatchNorm"
  bottom: "concat1_6"
  top: "conv1_7/x1/bn"
  param {
    lr_mult: 0
    decay_mult: 0
  }
  param {
    lr_mult: 0
    decay_mult: 0
  }
  param {
    lr_mult: 0
    decay_mult: 0
  }
}
layer {
  name: "conv1_7/x1/scale"
  type: "Scale"
  bottom: "conv1_7/x1/bn"
  top: "conv1_7/x1/bn"
  scale_param {
    filler {
      value: 1
    }
    bias_term: true
    bias_filler {
      value: 0
    }
  }
}
layer {
  name: "relu1_7/x1"
  type: "ReLU"
  bottom: "conv1_7/x1/bn"
  top: "conv1_7/x1/bn"
}
layer {
  name: "conv1_7/x1"
  type: "Convolution"
  bottom: "conv1_7/x1/bn"
  top: "conv1_7/x1"
  convolution_param {
    num_output: 128
    bias_term: false
    pad: 0
    kernel_size: 1
    stride: 1
    weight_filler {
      type: "msra"
    }
    bias_filler {
      type: "constant"
    }
    engine: CUDNN
  }
}
layer {
  name: "conv1_7/x2/bn"
  type: "BatchNorm"
  bottom: "conv1_7/x1"
  top: "conv1_7/x2/bn"
  param {
    lr_mult: 0
    decay_mult: 0
  }
  param {
    lr_mult: 0
    decay_mult: 0
  }
  param {
    lr_mult: 0
    decay_mult: 0
  }
}
layer {
  name: "conv1_7/x2/scale"
  type: "Scale"
  bottom: "conv1_7/x2/bn"
  top: "conv1_7/x2/bn"
  scale_param {
    filler {
      value: 1
    }
    bias_term: true
    bias_filler {
      value: 0
    }
  }
}
layer {
  name: "relu1_7/x2"
  type: "ReLU"
  bottom: "conv1_7/x2/bn"
  top: "conv1_7/x2/bn"
}
layer {
  name: "conv1_7/x2"
  type: "Convolution"
  bottom: "conv1_7/x2/bn"
  top: "conv1_7/x2"
  convolution_param {
    num_output: 32
    bias_term: false
    pad: 1
    kernel_size: 3
    stride: 1
    weight_filler {
      type: "msra"
    }
    bias_filler {
      type: "constant"
    }
    engine: CUDNN
  }
}
layer {
  name: "concat1_7"
  type: "Concat"
  bottom: "concat1_6"
  bottom: "conv1_7/x2"
  top: "concat1_7"
  concat_param {
    axis: 1
  }
}
layer {
  name: "conv1_8/x1/bn"
  type: "BatchNorm"
  bottom: "concat1_7"
  top: "conv1_8/x1/bn"
  param {
    lr_mult: 0
    decay_mult: 0
  }
  param {
    lr_mult: 0
    decay_mult: 0
  }
  param {
    lr_mult: 0
    decay_mult: 0
  }
}
layer {
  name: "conv1_8/x1/scale"
  type: "Scale"
  bottom: "conv1_8/x1/bn"
  top: "conv1_8/x1/bn"
  scale_param {
    filler {
      value: 1
    }
    bias_term: true
    bias_filler {
      value: 0
    }
  }
}
layer {
  name: "relu1_8/x1"
  type: "ReLU"
  bottom: "conv1_8/x1/bn"
  top: "conv1_8/x1/bn"
}
layer {
  name: "conv1_8/x1"
  type: "Convolution"
  bottom: "conv1_8/x1/bn"
  top: "conv1_8/x1"
  convolution_param {
    num_output: 128
    bias_term: false
    pad: 0
    kernel_size: 1
    stride: 1
    weight_filler {
      type: "msra"
    }
    bias_filler {
      type: "constant"
    }
    engine: CUDNN
  }
}
layer {
  name: "conv1_8/x2/bn"
  type: "BatchNorm"
  bottom: "conv1_8/x1"
  top: "conv1_8/x2/bn"
  param 
I0221 09:01:55.690866 42564 layer_factory.hpp:77] Creating layer word_images
I0221 09:01:55.691004 42564 db_lmdb.cpp:35] Opened lmdb /data/fwolf/iam_60x160/iam-db_nti500000_pul2-3-4-5_train_word_images_lmdb
I0221 09:01:55.691049 42564 net.cpp:84] Creating Layer word_images
I0221 09:01:55.691061 42564 net.cpp:380] word_images -> word_images
I0221 09:01:55.691081 42564 net.cpp:380] word_images -> label
I0221 09:01:55.693424 42564 data_layer.cpp:44] output data size: 1,1,60,160
I0221 09:01:55.697983 42564 net.cpp:122] Setting up word_images
I0221 09:01:55.698041 42564 net.cpp:129] Top shape: 1 1 60 160 (9600)
I0221 09:01:55.698057 42564 net.cpp:129] Top shape: 1 (1)
I0221 09:01:55.698063 42564 net.cpp:137] Memory required for data: 38404
I0221 09:01:55.698071 42564 layer_factory.hpp:77] Creating layer phocs
I0221 09:01:55.698163 42564 db_lmdb.cpp:35] Opened lmdb /data/fwolf/iam_60x160/iam-db_nti500000_pul2-3-4-5_train_phocs_lmdb
I0221 09:01:55.698210 42564 net.cpp:84] Creating Layer phocs
I0221 09:01:55.698220 42564 net.cpp:380] phocs -> phocs
I0221 09:01:55.698235 42564 net.cpp:380] phocs -> label_phocs
I0221 09:01:55.698648 42564 data_layer.cpp:44] output data size: 1,1,1,618
I0221 09:01:55.704308 42564 net.cpp:122] Setting up phocs
I0221 09:01:55.704332 42564 net.cpp:129] Top shape: 1 1 1 618 (618)
I0221 09:01:55.704341 42564 net.cpp:129] Top shape: 1 (1)
I0221 09:01:55.704346 42564 net.cpp:137] Memory required for data: 40880
I0221 09:01:55.704354 42564 layer_factory.hpp:77] Creating layer conv_init
I0221 09:01:55.704378 42564 net.cpp:84] Creating Layer conv_init
I0221 09:01:55.704385 42564 net.cpp:406] conv_init <- word_images
I0221 09:01:55.704397 42564 net.cpp:380] conv_init -> conv_init
I0221 09:01:56.451072 42564 net.cpp:122] Setting up conv_init
I0221 09:01:56.451112 42564 net.cpp:129] Top shape: 1 64 30 80 (153600)
I0221 09:01:56.451117 42564 net.cpp:137] Memory required for data: 655280
I0221 09:01:56.451131 42564 layer_factory.hpp:77] Creating layer bn_init
I0221 09:01:56.451145 42564 net.cpp:84] Creating Layer bn_init
I0221 09:01:56.451149 42564 net.cpp:406] bn_init <- conv_init
I0221 09:01:56.451156 42564 net.cpp:380] bn_init -> bn_init
I0221 09:01:56.451340 42564 net.cpp:122] Setting up bn_init
I0221 09:01:56.451347 42564 net.cpp:129] Top shape: 1 64 30 80 (153600)
I0221 09:01:56.451350 42564 net.cpp:137] Memory required for data: 1269680
I0221 09:01:56.451360 42564 layer_factory.hpp:77] Creating layer scale_init
I0221 09:01:56.451370 42564 net.cpp:84] Creating Layer scale_init
I0221 09:01:56.451375 42564 net.cpp:406] scale_init <- bn_init
I0221 09:01:56.451378 42564 net.cpp:367] scale_init -> bn_init (in-place)
I0221 09:01:56.451416 42564 layer_factory.hpp:77] Creating layer scale_init
I0221 09:01:56.451525 42564 net.cpp:122] Setting up scale_init
I0221 09:01:56.451531 42564 net.cpp:129] Top shape: 1 64 30 80 (153600)
I0221 09:01:56.451534 42564 net.cpp:137] Memory required for data: 1884080
I0221 09:01:56.451541 42564 layer_factory.hpp:77] Creating layer relu_init
I0221 09:01:56.451547 42564 net.cpp:84] Creating Layer relu_init
I0221 09:01:56.451551 42564 net.cpp:406] relu_init <- bn_init
I0221 09:01:56.451555 42564 net.cpp:367] relu_init -> bn_init (in-place)
I0221 09:01:56.452519 42564 net.cpp:122] Setting up relu_init
I0221 09:01:56.452531 42564 net.cpp:129] Top shape: 1 64 30 80 (153600)
I0221 09:01:56.452535 42564 net.cpp:137] Memory required for data: 2498480
I0221 09:01:56.452538 42564 layer_factory.hpp:77] Creating layer pool_init
I0221 09:01:56.452546 42564 net.cpp:84] Creating Layer pool_init
I0221 09:01:56.452549 42564 net.cpp:406] pool_init <- bn_init
I0221 09:01:56.452555 42564 net.cpp:380] pool_init -> pool_init
I0221 09:01:56.452603 42564 net.cpp:122] Setting up pool_init
I0221 09:01:56.452610 42564 net.cpp:129] Top shape: 1 64 16 41 (41984)
I0221 09:01:56.452612 42564 net.cpp:137] Memory required for data: 2666416
I0221 09:01:56.452615 42564 layer_factory.hpp:77] Creating layer pool_init_pool_init_0_split
I0221 09:01:56.452620 42564 net.cpp:84] Creating Layer pool_init_pool_init_0_split
I0221 09:01:56.452623 42564 net.cpp:406] pool_init_pool_init_0_split <- pool_init
I0221 09:01:56.452635 42564 net.cpp:380] pool_init_pool_init_0_split -> pool_init_pool_init_0_split_0
I0221 09:01:56.452639 42564 net.cpp:380] pool_init_pool_init_0_split -> pool_init_pool_init_0_split_1
I0221 09:01:56.452669 42564 net.cpp:122] Setting up pool_init_pool_init_0_split
I0221 09:01:56.452674 42564 net.cpp:129] Top shape: 1 64 16 41 (41984)
I0221 09:01:56.452678 42564 net.cpp:129] Top shape: 1 64 16 41 (41984)
I0221 09:01:56.452682 42564 net.cpp:137] Memory required for data: 3002288
I0221 09:01:56.452688 42564 layer_factory.hpp:77] Creating layer conv0_0/x1/bn
I0221 09:01:56.452694 42564 net.cpp:84] Creating Layer conv0_0/x1/bn
I0221 09:01:56.452697 42564 net.cpp:406] conv0_0/x1/bn <- pool_init_pool_init_0_split_0
I0221 09:01:56.452702 42564 net.cpp:380] conv0_0/x1/bn -> conv0_0/x1/bn
I0221 09:01:56.452870 42564 net.cpp:122] Setting up conv0_0/x1/bn
I0221 09:01:56.452877 42564 net.cpp:129] Top shape: 1 64 16 41 (41984)
I0221 09:01:56.452879 42564 net.cpp:137] Memory required for data: 3170224
I0221 09:01:56.452888 42564 layer_factory.hpp:77] Creating layer conv0_0/x1/scale
I0221 09:01:56.452894 42564 net.cpp:84] Creating Layer conv0_0/x1/scale
I0221 09:01:56.452898 42564 net.cpp:406] conv0_0/x1/scale <- conv0_0/x1/bn
I0221 09:01:56.452903 42564 net.cpp:367] conv0_0/x1/scale -> conv0_0/x1/bn (in-place)
I0221 09:01:56.452934 42564 layer_factory.hpp:77] Creating layer conv0_0/x1/scale
I0221 09:01:56.453027 42564 net.cpp:122] Setting up conv0_0/x1/scale
I0221 09:01:56.453033 42564 net.cpp:129] Top shape: 1 64 16 41 (41984)
I0221 09:01:56.453037 42564 net.cpp:137] Memory required for data: 3338160
I0221 09:01:56.453042 42564 layer_factory.hpp:77] Creating layer relu0_0/x1
I0221 09:01:56.453047 42564 net.cpp:84] Creating Layer relu0_0/x1
I0221 09:01:56.453049 42564 net.cpp:406] relu0_0/x1 <- conv0_0/x1/bn
I0221 09:01:56.453053 42564 net.cpp:367] relu0_0/x1 -> conv0_0/x1/bn (in-place)
I0221 09:01:56.453212 42564 net.cpp:122] Setting up relu0_0/x1
I0221 09:01:56.453218 42564 net.cpp:129] Top shape: 1 64 16 41 (41984)
I0221 09:01:56.453222 42564 net.cpp:137] Memory required for data: 3506096
I0221 09:01:56.453224 42564 layer_factory.hpp:77] Creating layer conv0_0/x1
I0221 09:01:56.453234 42564 net.cpp:84] Creating Layer conv0_0/x1
I0221 09:01:56.453238 42564 net.cpp:406] conv0_0/x1 <- conv0_0/x1/bn
I0221 09:01:56.453243 42564 net.cpp:380] conv0_0/x1 -> conv0_0/x1
I0221 09:01:56.454846 42564 net.cpp:122] Setting up conv0_0/x1
I0221 09:01:56.454859 42564 net.cpp:129] Top shape: 1 128 16 41 (83968)
I0221 09:01:56.454864 42564 net.cpp:137] Memory required for data: 3841968
I0221 09:01:56.454869 42564 layer_factory.hpp:77] Creating layer conv0_0/x2/bn
I0221 09:01:56.454875 42564 net.cpp:84] Creating Layer conv0_0/x2/bn
I0221 09:01:56.454879 42564 net.cpp:406] conv0_0/x2/bn <- conv0_0/x1
I0221 09:01:56.454885 42564 net.cpp:380] conv0_0/x2/bn -> conv0_0/x2/bn
I0221 09:01:56.455068 42564 net.cpp:122] Setting up conv0_0/x2/bn
I0221 09:01:56.455075 42564 net.cpp:129] Top shape: 1 128 16 41 (83968)
I0221 09:01:56.455078 42564 net.cpp:137] Memory required for data: 4177840
I0221 09:01:56.455085 42564 layer_factory.hpp:77] Creating layer conv0_0/x2/scale
I0221 09:01:56.455091 42564 net.cpp:84] Creating Layer conv0_0/x2/scale
I0221 09:01:56.455096 42564 net.cpp:406] conv0_0/x2/scale <- conv0_0/x2/bn
I0221 09:01:56.455099 42564 net.cpp:367] conv0_0/x2/scale -> conv0_0/x2/bn (in-place)
I0221 09:01:56.455133 42564 layer_factory.hpp:77] Creating layer conv0_0/x2/scale
I0221 09:01:56.455229 42564 net.cpp:122] Setting up conv0_0/x2/scale
I0221 09:01:56.455235 42564 net.cpp:129] Top shape: 1 128 16 41 (83968)
I0221 09:01:56.455238 42564 net.cpp:137] Memory required for data: 4513712
I0221 09:01:56.455250 42564 layer_factory.hpp:77] Creating layer relu0_0/x2
I0221 09:01:56.455256 42564 net.cpp:84] Creating Layer relu0_0/x2
I0221 09:01:56.455260 42564 net.cpp:406] relu0_0/x2 <- conv0_0/x2/bn
I0221 09:01:56.455263 42564 net.cpp:367] relu0_0/x2 -> conv0_0/x2/bn (in-place)
I0221 09:01:56.455451 42564 net.cpp:122] Setting up relu0_0/x2
I0221 09:01:56.455457 42564 net.cpp:129] Top shape: 1 128 16 41 (83968)
I0221 09:01:56.455461 42564 net.cpp:137] Memory required for data: 4849584
I0221 09:01:56.455463 42564 layer_factory.hpp:77] Creating layer conv0_0/x2
I0221 09:01:56.455472 42564 net.cpp:84] Creating Layer conv0_0/x2
I0221 09:01:56.455476 42564 net.cpp:406] conv0_0/x2 <- conv0_0/x2/bn
I0221 09:01:56.455480 42564 net.cpp:380] conv0_0/x2 -> conv0_0/x2
I0221 09:01:56.460100 42564 net.cpp:122] Setting up conv0_0/x2
I0221 09:01:56.460114 42564 net.cpp:129] Top shape: 1 32 16 41 (20992)
I0221 09:01:56.460120 42564 net.cpp:137] Memory required for data: 4933552
I0221 09:01:56.460126 42564 layer_factory.hpp:77] Creating layer concat0_0
I0221 09:01:56.460134 42564 net.cpp:84] Creating Layer concat0_0
I0221 09:01:56.460137 42564 net.cpp:406] concat0_0 <- pool_init_pool_init_0_split_1
I0221 09:01:56.460142 42564 net.cpp:406] concat0_0 <- conv0_0/x2
I0221 09:01:56.460147 42564 net.cpp:380] concat0_0 -> concat0_0
I0221 09:01:56.460175 42564 net.cpp:122] Setting up concat0_0
I0221 09:01:56.460180 42564 net.cpp:129] Top shape: 1 96 16 41 (62976)
I0221 09:01:56.460183 42564 net.cpp:137] Memory required for data: 5185456
I0221 09:01:56.460186 42564 layer_factory.hpp:77] Creating layer concat0_0_concat0_0_0_split
I0221 09:01:56.460191 42564 net.cpp:84] Creating Layer concat0_0_concat0_0_0_split
I0221 09:01:56.460194 42564 net.cpp:406] concat0_0_concat0_0_0_split <- concat0_0
I0221 09:01:56.460198 42564 net.cpp:380] concat0_0_concat0_0_0_split -> concat0_0_concat0_0_0_split_0
I0221 09:01:56.460203 42564 net.cpp:380] concat0_0_concat0_0_0_split -> concat0_0_concat0_0_0_split_1
I0221 09:01:56.460232 42564 net.cpp:122] Setting up concat0_0_concat0_0_0_split
I0221 09:01:56.460237 42564 net.cpp:129] Top shape: 1 96 16 41 (62976)
I0221 09:01:56.460240 42564 net.cpp:129] Top shape: 1 96 16 41 (62976)
I0221 09:01:56.460243 42564 net.cpp:137] Memory required for data: 5689264
I0221 09:01:56.460245 42564 layer_factory.hpp:77] Creating layer conv0_1/x1/bn
I0221 09:01:56.460252 42564 net.cpp:84] Creating Layer conv0_1/x1/bn
I0221 09:01:56.460254 42564 net.cpp:406] conv0_1/x1/bn <- concat0_0_concat0_0_0_split_0
I0221 09:01:56.460258 42564 net.cpp:380] conv0_1/x1/bn -> conv0_1/x1/bn
I0221 09:01:56.460430 42564 net.cpp:122] Setting up conv0_1/x1/bn
I0221 09:01:56.460438 42564 net.cpp:129] Top shape: 1 96 16 41 (62976)
I0221 09:01:56.460440 42564 net.cpp:137] Memory required for data: 5941168
I0221 09:01:56.460446 42564 layer_factory.hpp:77] Creating layer conv0_1/x1/scale
I0221 09:01:56.460453 42564 net.cpp:84] Creating Layer conv0_1/x1/scale
I0221 09:01:56.460456 42564 net.cpp:406] conv0_1/x1/scale <- conv0_1/x1/bn
I0221 09:01:56.460460 42564 net.cpp:367] conv0_1/x1/scale -> conv0_1/x1/bn (in-place)
I0221 09:01:56.460494 42564 layer_factory.hpp:77] Creating layer conv0_1/x1/scale
I0221 09:01:56.460592 42564 net.cpp:122] Setting up conv0_1/x1/scale
I0221 09:01:56.460597 42564 net.cpp:129] Top shape: 1 96 16 41 (62976)
I0221 09:01:56.460599 42564 net.cpp:137] Memory required for data: 6193072
I0221 09:01:56.460605 42564 layer_factory.hpp:77] Creating layer relu0_1/x1
I0221 09:01:56.460610 42564 net.cpp:84] Creating Layer relu0_1/x1
I0221 09:01:56.460613 42564 net.cpp:406] relu0_1/x1 <- conv0_1/x1/bn
I0221 09:01:56.460618 42564 net.cpp:367] relu0_1/x1 -> conv0_1/x1/bn (in-place)
I0221 09:01:56.461525 42564 net.cpp:122] Setting up relu0_1/x1
I0221 09:01:56.461537 42564 net.cpp:129] Top shape: 1 96 16 41 (62976)
I0221 09:01:56.461540 42564 net.cpp:137] Memory required for data: 6444976
I0221 09:01:56.461544 42564 layer_factory.hpp:77] Creating layer conv0_1/x1
I0221 09:01:56.461554 42564 net.cpp:84] Creating Layer conv0_1/x1
I0221 09:01:56.461556 42564 net.cpp:406] conv0_1/x1 <- conv0_1/x1/bn
I0221 09:01:56.461562 42564 net.cpp:380] conv0_1/x1 -> conv0_1/x1
I0221 09:01:56.463349 42564 net.cpp:122] Setting up conv0_1/x1
I0221 09:01:56.463362 42564 net.cpp:129] Top shape: 1 128 16 41 (83968)
I0221 09:01:56.463366 42564 net.cpp:137] Memory required for data: 6780848
I0221 09:01:56.463371 42564 layer_factory.hpp:77] Creating layer conv0_1/x2/bn
I0221 09:01:56.463378 42564 net.cpp:84] Creating Layer conv0_1/x2/bn
I0221 09:01:56.463382 42564 net.cpp:406] conv0_1/x2/bn <- conv0_1/x1
I0221 09:01:56.463387 42564 net.cpp:380] conv0_1/x2/bn -> conv0_1/x2/bn
I0221 09:01:56.463557 42564 net.cpp:122] Setting up conv0_1/x2/bn
I0221 09:01:56.463563 42564 net.cpp:129] Top shape: 1 128 16 41 (83968)
I0221 09:01:56.463565 42564 net.cpp:137] Memory required for data: 7116720
I0221 09:01:56.463572 42564 layer_factory.hpp:77] Creating layer conv0_1/x2/scale
I0221 09:01:56.463580 42564 net.cpp:84] Creating Layer conv0_1/x2/scale
I0221 09:01:56.463584 42564 net.cpp:406] conv0_1/x2/scale <- conv0_1/x2/bn
I0221 09:01:56.463589 42564 net.cpp:367] conv0_1/x2/scale -> conv0_1/x2/bn (in-place)
I0221 09:01:56.463623 42564 layer_factory.hpp:77] Creating layer conv0_1/x2/scale
I0221 09:01:56.463716 42564 net.cpp:122] Setting up conv0_1/x2/scale
I0221 09:01:56.463721 42564 net.cpp:129] Top shape: 1 128 16 41 (83968)
I0221 09:01:56.463724 42564 net.cpp:137] Memory required for data: 7452592
I0221 09:01:56.463729 42564 layer_factory.hpp:77] Creating layer relu0_1/x2
I0221 09:01:56.463734 42564 net.cpp:84] Creating Layer relu0_1/x2
I0221 09:01:56.463738 42564 net.cpp:406] relu0_1/x2 <- conv0_1/x2/bn
I0221 09:01:56.463742 42564 net.cpp:367] relu0_1/x2 -> conv0_1/x2/bn (in-place)
I0221 09:01:56.463909 42564 net.cpp:122] Setting up relu0_1/x2
I0221 09:01:56.463917 42564 net.cpp:129] Top shape: 1 128 16 41 (83968)
I0221 09:01:56.463919 42564 net.cpp:137] Memory required for data: 7788464
I0221 09:01:56.463922 42564 layer_factory.hpp:77] Creating layer conv0_1/x2
I0221 09:01:56.463930 42564 net.cpp:84] Creating Layer conv0_1/x2
I0221 09:01:56.463934 42564 net.cpp:406] conv0_1/x2 <- conv0_1/x2/bn
I0221 09:01:56.463939 42564 net.cpp:380] conv0_1/x2 -> conv0_1/x2
I0221 09:01:56.466236 42564 net.cpp:122] Setting up conv0_1/x2
I0221 09:01:56.466249 42564 net.cpp:129] Top shape: 1 32 16 41 (20992)
I0221 09:01:56.466253 42564 net.cpp:137] Memory required for data: 7872432
I0221 09:01:56.466258 42564 layer_factory.hpp:77] Creating layer concat0_1
I0221 09:01:56.466264 42564 net.cpp:84] Creating Layer concat0_1
I0221 09:01:56.466269 42564 net.cpp:406] concat0_1 <- concat0_0_concat0_0_0_split_1
I0221 09:01:56.466272 42564 net.cpp:406] concat0_1 <- conv0_1/x2
I0221 09:01:56.466276 42564 net.cpp:380] concat0_1 -> concat0_1
I0221 09:01:56.466301 42564 net.cpp:122] Setting up concat0_1
I0221 09:01:56.466306 42564 net.cpp:129] Top shape: 1 128 16 41 (83968)
I0221 09:01:56.466310 42564 net.cpp:137] Memory required for data: 8208304
I0221 09:01:56.466312 42564 layer_factory.hpp:77] Creating layer concat0_1_concat0_1_0_split
I0221 09:01:56.466316 42564 net.cpp:84] Creating Layer concat0_1_concat0_1_0_split
I0221 09:01:56.466320 42564 net.cpp:406] concat0_1_concat0_1_0_split <- concat0_1
I0221 09:01:56.466325 42564 net.cpp:380] concat0_1_concat0_1_0_split -> concat0_1_concat0_1_0_split_0
I0221 09:01:56.466329 42564 net.cpp:380] concat0_1_concat0_1_0_split -> concat0_1_concat0_1_0_split_1
I0221 09:01:56.466357 42564 net.cpp:122] Setting up concat0_1_concat0_1_0_split
I0221 09:01:56.466362 42564 net.cpp:129] Top shape: 1 128 16 41 (83968)
I0221 09:01:56.466365 42564 net.cpp:129] Top shape: 1 128 16 41 (83968)
I0221 09:01:56.466368 42564 net.cpp:137] Memory required for data: 8880048
I0221 09:01:56.466372 42564 layer_factory.hpp:77] Creating layer conv0_2/x1/bn
I0221 09:01:56.466377 42564 net.cpp:84] Creating Layer conv0_2/x1/bn
I0221 09:01:56.466380 42564 net.cpp:406] conv0_2/x1/bn <- concat0_1_concat0_1_0_split_0
I0221 09:01:56.466384 42564 net.cpp:380] conv0_2/x1/bn -> conv0_2/x1/bn
I0221 09:01:56.466547 42564 net.cpp:122] Setting up conv0_2/x1/bn
I0221 09:01:56.466552 42564 net.cpp:129] Top shape: 1 128 16 41 (83968)
I0221 09:01:56.466555 42564 net.cpp:137] Memory required for data: 9215920
I0221 09:01:56.466564 42564 layer_factory.hpp:77] Creating layer conv0_2/x1/scale
I0221 09:01:56.466570 42564 net.cpp:84] Creating Layer conv0_2/x1/scale
I0221 09:01:56.466573 42564 net.cpp:406] conv0_2/x1/scale <- conv0_2/x1/bn
I0221 09:01:56.466578 42564 net.cpp:367] conv0_2/x1/scale -> conv0_2/x1/bn (in-place)
I0221 09:01:56.466610 42564 layer_factory.hpp:77] Creating layer conv0_2/x1/scale
I0221 09:01:56.466703 42564 net.cpp:122] Setting up conv0_2/x1/scale
I0221 09:01:56.466709 42564 net.cpp:129] Top shape: 1 128 16 41 (83968)
I0221 09:01:56.466712 42564 net.cpp:137] Memory required for data: 9551792
I0221 09:01:56.466718 42564 layer_factory.hpp:77] Creating layer relu0_2/x1
I0221 09:01:56.466727 42564 net.cpp:84] Creating Layer relu0_2/x1
I0221 09:01:56.466729 42564 net.cpp:406] relu0_2/x1 <- conv0_2/x1/bn
I0221 09:01:56.466733 42564 net.cpp:367] relu0_2/x1 -> conv0_2/x1/bn (in-place)
I0221 09:01:56.466902 42564 net.cpp:122] Setting up relu0_2/x1
I0221 09:01:56.466909 42564 net.cpp:129] Top shape: 1 128 16 41 (83968)
I0221 09:01:56.466912 42564 net.cpp:137] Memory required for data: 9887664
I0221 09:01:56.466917 42564 layer_factory.hpp:77] Creating layer conv0_2/x1
I0221 09:01:56.466924 42564 net.cpp:84] Creating Layer conv0_2/x1
I0221 09:01:56.466928 42564 net.cpp:406] conv0_2/x1 <- conv0_2/x1/bn
I0221 09:01:56.466933 42564 net.cpp:380] conv0_2/x1 -> conv0_2/x1
I0221 09:01:56.468763 42564 net.cpp:122] Setting up conv0_2/x1
I0221 09:01:56.468776 42564 net.cpp:129] Top shape: 1 128 16 41 (83968)
I0221 09:01:56.468780 42564 net.cpp:137] Memory required for data: 10223536
I0221 09:01:56.468785 42564 layer_factory.hpp:77] Creating layer conv0_2/x2/bn
I0221 09:01:56.468799 42564 net.cpp:84] Creating Layer conv0_2/x2/bn
I0221 09:01:56.468802 42564 net.cpp:406] conv0_2/x2/bn <- conv0_2/x1
I0221 09:01:56.468808 42564 net.cpp:380] conv0_2/x2/bn -> conv0_2/x2/bn
I0221 09:01:56.468994 42564 net.cpp:122] Setting up conv0_2/x2/bn
I0221 09:01:56.469000 42564 net.cpp:129] Top shape: 1 128 16 41 (83968)
I0221 09:01:56.469003 42564 net.cpp:137] Memory required for data: 10559408
I0221 09:01:56.469010 42564 layer_factory.hpp:77] Creating layer conv0_2/x2/scale
I0221 09:01:56.469017 42564 net.cpp:84] Creating Layer conv0_2/x2/scale
I0221 09:01:56.469020 42564 net.cpp:406] conv0_2/x2/scale <- conv0_2/x2/bn
I0221 09:01:56.469027 42564 net.cpp:367] conv0_2/x2/scale -> conv0_2/x2/bn (in-place)
I0221 09:01:56.469063 42564 layer_factory.hpp:77] Creating layer conv0_2/x2/scale
I0221 09:01:56.469163 42564 net.cpp:122] Setting up conv0_2/x2/scale
I0221 09:01:56.469172 42564 net.cpp:129] Top shape: 1 128 16 41 (83968)
I0221 09:01:56.469174 42564 net.cpp:137] Memory required for data: 10895280
I0221 09:01:56.469179 42564 layer_factory.hpp:77] Creating layer relu0_2/x2
I0221 09:01:56.469184 42564 net.cpp:84] Creating Layer relu0_2/x2
I0221 09:01:56.469187 42564 net.cpp:406] relu0_2/x2 <- conv0_2/x2/bn
I0221 09:01:56.469192 42564 net.cpp:367] relu0_2/x2 -> conv0_2/x2/bn (in-place)
I0221 09:01:56.470103 42564 net.cpp:122] Setting up relu0_2/x2
I0221 09:01:56.470113 42564 net.cpp:129] Top shape: 1 128 16 41 (83968)
I0221 09:01:56.470116 42564 net.cpp:137] Memory required for data: 11231152
I0221 09:01:56.470120 42564 layer_factory.hpp:77] Creating layer conv0_2/x2
I0221 09:01:56.470130 42564 net.cpp:84] Creating Layer conv0_2/x2
I0221 09:01:56.470134 42564 net.cpp:406] conv0_2/x2 <- conv0_2/x2/bn
I0221 09:01:56.470141 42564 net.cpp:380] conv0_2/x2 -> conv0_2/x2
I0221 09:01:56.473371 42564 net.cpp:122] Setting up conv0_2/x2
I0221 09:01:56.473384 42564 net.cpp:129] Top shape: 1 32 16 41 (20992)
I0221 09:01:56.473387 42564 net.cpp:137] Memory required for data: 11315120
I0221 09:01:56.473393 42564 layer_factory.hpp:77] Creating layer concat0_2
I0221 09:01:56.473402 42564 net.cpp:84] Creating Layer concat0_2
I0221 09:01:56.473405 42564 net.cpp:406] concat0_2 <- concat0_1_concat0_1_0_split_1
I0221 09:01:56.473409 42564 net.cpp:406] concat0_2 <- conv0_2/x2
I0221 09:01:56.473414 42564 net.cpp:380] concat0_2 -> concat0_2
I0221 09:01:56.473445 42564 net.cpp:122] Setting up concat0_2
I0221 09:01:56.473450 42564 net.cpp:129] Top shape: 1 160 16 41 (104960)
I0221 09:01:56.473453 42564 net.cpp:137] Memory required for data: 11734960
I0221 09:01:56.473456 42564 layer_factory.hpp:77] Creating layer concat0_2_concat0_2_0_split
I0221 09:01:56.473460 42564 net.cpp:84] Creating Layer concat0_2_concat0_2_0_split
I0221 09:01:56.473464 42564 net.cpp:406] concat0_2_concat0_2_0_split <- concat0_2
I0221 09:01:56.473469 42564 net.cpp:380] concat0_2_concat0_2_0_split -> concat0_2_concat0_2_0_split_0
I0221 09:01:56.473474 42564 net.cpp:380] concat0_2_concat0_2_0_split -> concat0_2_concat0_2_0_split_1
I0221 09:01:56.473508 42564 net.cpp:122] Setting up concat0_2_concat0_2_0_split
I0221 09:01:56.473517 42564 net.cpp:129] Top shape: 1 160 16 41 (104960)
I0221 09:01:56.473520 42564 net.cpp:129] Top shape: 1 160 16 41 (104960)
I0221 09:01:56.473523 42564 net.cpp:137] Memory required for data: 12574640
I0221 09:01:56.473526 42564 layer_factory.hpp:77] Creating layer conv0_3/x1/bn
I0221 09:01:56.473532 42564 net.cpp:84] Creating Layer conv0_3/x1/bn
I0221 09:01:56.473536 42564 net.cpp:406] conv0_3/x1/bn <- concat0_2_concat0_2_0_split_0
I0221 09:01:56.473542 42564 net.cpp:380] conv0_3/x1/bn -> conv0_3/x1/bn
I0221 09:01:56.473729 42564 net.cpp:122] Setting up conv0_3/x1/bn
I0221 09:01:56.473736 42564 net.cpp:129] Top shape: 1 160 16 41 (104960)
I0221 09:01:56.473738 42564 net.cpp:137] Memory required for data: 12994480
I0221 09:01:56.473744 42564 layer_factory.hpp:77] Creating layer conv0_3/x1/scale
I0221 09:01:56.473752 42564 net.cpp:84] Creating Layer conv0_3/x1/scale
I0221 09:01:56.473757 42564 net.cpp:406] conv0_3/x1/scale <- conv0_3/x1/bn
I0221 09:01:56.473760 42564 net.cpp:367] conv0_3/x1/scale -> conv0_3/x1/bn (in-place)
I0221 09:01:56.473795 42564 layer_factory.hpp:77] Creating layer conv0_3/x1/scale
I0221 09:01:56.473906 42564 net.cpp:122] Setting up conv0_3/x1/scale
I0221 09:01:56.473912 42564 net.cpp:129] Top shape: 1 160 16 41 (104960)
I0221 09:01:56.473914 42564 net.cpp:137] Memory required for data: 13414320
I0221 09:01:56.473919 42564 layer_factory.hpp:77] Creating layer relu0_3/x1
I0221 09:01:56.473925 42564 net.cpp:84] Creating Layer relu0_3/x1
I0221 09:01:56.473928 42564 net.cpp:406] relu0_3/x1 <- conv0_3/x1/bn
I0221 09:01:56.473933 42564 net.cpp:367] relu0_3/x1 -> conv0_3/x1/bn (in-place)
I0221 09:01:56.474114 42564 net.cpp:122] Setting up relu0_3/x1
I0221 09:01:56.474123 42564 net.cpp:129] Top shape: 1 160 16 41 (104960)
I0221 09:01:56.474124 42564 net.cpp:137] Memory required for data: 13834160
I0221 09:01:56.474128 42564 layer_factory.hpp:77] Creating layer conv0_3/x1
I0221 09:01:56.474138 42564 net.cpp:84] Creating Layer conv0_3/x1
I0221 09:01:56.474141 42564 net.cpp:406] conv0_3/x1 <- conv0_3/x1/bn
I0221 09:01:56.474148 42564 net.cpp:380] conv0_3/x1 -> conv0_3/x1
I0221 09:01:56.476225 42564 net.cpp:122] Setting up conv0_3/x1
I0221 09:01:56.476238 42564 net.cpp:129] Top shape: 1 128 16 41 (83968)
I0221 09:01:56.476241 42564 net.cpp:137] Memory required for data: 14170032
I0221 09:01:56.476246 42564 layer_factory.hpp:77] Creating layer conv0_3/x2/bn
I0221 09:01:56.476254 42564 net.cpp:84] Creating Layer conv0_3/x2/bn
I0221 09:01:56.476258 42564 net.cpp:406] conv0_3/x2/bn <- conv0_3/x1
I0221 09:01:56.476265 42564 net.cpp:380] conv0_3/x2/bn -> conv0_3/x2/bn
I0221 09:01:56.476452 42564 net.cpp:122] Setting up conv0_3/x2/bn
I0221 09:01:56.476459 42564 net.cpp:129] Top shape: 1 128 16 41 (83968)
I0221 09:01:56.476478 42564 net.cpp:137] Memory required for data: 14505904
I0221 09:01:56.476485 42564 layer_factory.hpp:77] Creating layer conv0_3/x2/scale
I0221 09:01:56.476491 42564 net.cpp:84] Creating Layer conv0_3/x2/scale
I0221 09:01:56.476495 42564 net.cpp:406] conv0_3/x2/scale <- conv0_3/x2/bn
I0221 09:01:56.476500 42564 net.cpp:367] conv0_3/x2/scale -> conv0_3/x2/bn (in-place)
I0221 09:01:56.476539 42564 layer_factory.hpp:77] Creating layer conv0_3/x2/scale
I0221 09:01:56.476655 42564 net.cpp:122] Setting up conv0_3/x2/scale
I0221 09:01:56.476660 42564 net.cpp:129] Top shape: 1 128 16 41 (83968)
I0221 09:01:56.476663 42564 net.cpp:137] Memory required for data: 14841776
I0221 09:01:56.476670 42564 layer_factory.hpp:77] Creating layer relu0_3/x2
I0221 09:01:56.476676 42564 net.cpp:84] Creating Layer relu0_3/x2
I0221 09:01:56.476680 42564 net.cpp:406] relu0_3/x2 <- conv0_3/x2/bn
I0221 09:01:56.476683 42564 net.cpp:367] relu0_3/x2 -> conv0_3/x2/bn (in-place)
I0221 09:01:56.476894 42564 net.cpp:122] Setting up relu0_3/x2
I0221 09:01:56.476902 42564 net.cpp:129] Top shape: 1 128 16 41 (83968)
I0221 09:01:56.476904 42564 net.cpp:137] Memory required for data: 15177648
I0221 09:01:56.476907 42564 layer_factory.hpp:77] Creating layer conv0_3/x2
I0221 09:01:56.476919 42564 net.cpp:84] Creating Layer conv0_3/x2
I0221 09:01:56.476927 42564 net.cpp:406] conv0_3/x2 <- conv0_3/x2/bn
I0221 09:01:56.476932 42564 net.cpp:380] conv0_3/x2 -> conv0_3/x2
I0221 09:01:56.480106 42564 net.cpp:122] Setting up conv0_3/x2
I0221 09:01:56.480120 42564 net.cpp:129] Top shape: 1 32 16 41 (20992)
I0221 09:01:56.480123 42564 net.cpp:137] Memory required for data: 15261616
I0221 09:01:56.480129 42564 layer_factory.hpp:77] Creating layer concat0_3
I0221 09:01:56.480150 42564 net.cpp:84] Creating Layer concat0_3
I0221 09:01:56.480154 42564 net.cpp:406] concat0_3 <- concat0_2_concat0_2_0_split_1
I0221 09:01:56.480159 42564 net.cpp:406] concat0_3 <- conv0_3/x2
I0221 09:01:56.480165 42564 net.cpp:380] concat0_3 -> concat0_3
I0221 09:01:56.480190 42564 net.cpp:122] Setting up concat0_3
I0221 09:01:56.480197 42564 net.cpp:129] Top shape: 1 192 16 41 (125952)
I0221 09:01:56.480199 42564 net.cpp:137] Memory required for data: 15765424
I0221 09:01:56.480202 42564 layer_factory.hpp:77] Creating layer concat0_3_concat0_3_0_split
I0221 09:01:56.480207 42564 net.cpp:84] Creating Layer concat0_3_concat0_3_0_split
I0221 09:01:56.480211 42564 net.cpp:406] concat0_3_concat0_3_0_split <- concat0_3
I0221 09:01:56.480214 42564 net.cpp:380] concat0_3_concat0_3_0_split -> concat0_3_concat0_3_0_split_0
I0221 09:01:56.480219 42564 net.cpp:380] concat0_3_concat0_3_0_split -> concat0_3_concat0_3_0_split_1
I0221 09:01:56.480252 42564 net.cpp:122] Setting up concat0_3_concat0_3_0_split
I0221 09:01:56.480257 42564 net.cpp:129] Top shape: 1 192 16 41 (125952)
I0221 09:01:56.480260 42564 net.cpp:129] Top shape: 1 192 16 41 (125952)
I0221 09:01:56.480263 42564 net.cpp:137] Memory required for data: 16773040
I0221 09:01:56.480265 42564 layer_factory.hpp:77] Creating layer conv0_4/x1/bn
I0221 09:01:56.480273 42564 net.cpp:84] Creating Layer conv0_4/x1/bn
I0221 09:01:56.480276 42564 net.cpp:406] conv0_4/x1/bn <- concat0_3_concat0_3_0_split_0
I0221 09:01:56.480280 42564 net.cpp:380] conv0_4/x1/bn -> conv0_4/x1/bn
I0221 09:01:56.480468 42564 net.cpp:122] Setting up conv0_4/x1/bn
I0221 09:01:56.480474 42564 net.cpp:129] Top shape: 1 192 16 41 (125952)
I0221 09:01:56.480476 42564 net.cpp:137] Memory required for data: 17276848
I0221 09:01:56.480484 42564 layer_factory.hpp:77] Creating layer conv0_4/x1/scale
I0221 09:01:56.480489 42564 net.cpp:84] Creating Layer conv0_4/x1/scale
I0221 09:01:56.480492 42564 net.cpp:406] conv0_4/x1/scale <- conv0_4/x1/bn
I0221 09:01:56.480497 42564 net.cpp:367] conv0_4/x1/scale -> conv0_4/x1/bn (in-place)
I0221 09:01:56.480533 42564 layer_factory.hpp:77] Creating layer conv0_4/x1/scale
I0221 09:01:56.480653 42564 net.cpp:122] Setting up conv0_4/x1/scale
I0221 09:01:56.480660 42564 net.cpp:129] Top shape: 1 192 16 41 (125952)
I0221 09:01:56.480664 42564 net.cpp:137] Memory required for data: 17780656
I0221 09:01:56.480669 42564 layer_factory.hpp:77] Creating layer relu0_4/x1
I0221 09:01:56.480674 42564 net.cpp:84] Creating Layer relu0_4/x1
I0221 09:01:56.480676 42564 net.cpp:406] relu0_4/x1 <- conv0_4/x1/bn
I0221 09:01:56.480680 42564 net.cpp:367] relu0_4/x1 -> conv0_4/x1/bn (in-place)
I0221 09:01:56.480864 42564 net.cpp:122] Setting up relu0_4/x1
I0221 09:01:56.480871 42564 net.cpp:129] Top shape: 1 192 16 41 (125952)
I0221 09:01:56.480875 42564 net.cpp:137] Memory required for data: 18284464
I0221 09:01:56.480877 42564 layer_factory.hpp:77] Creating layer conv0_4/x1
I0221 09:01:56.480886 42564 net.cpp:84] Creating Layer conv0_4/x1
I0221 09:01:56.480890 42564 net.cpp:406] conv0_4/x1 <- conv0_4/x1/bn
I0221 09:01:56.480895 42564 net.cpp:380] conv0_4/x1 -> conv0_4/x1
I0221 09:01:56.482975 42564 net.cpp:122] Setting up conv0_4/x1
I0221 09:01:56.482987 42564 net.cpp:129] Top shape: 1 128 16 41 (83968)
I0221 09:01:56.482990 42564 net.cpp:137] Memory required for data: 18620336
I0221 09:01:56.482995 42564 layer_factory.hpp:77] Creating layer conv0_4/x2/bn
I0221 09:01:56.483005 42564 net.cpp:84] Creating Layer conv0_4/x2/bn
I0221 09:01:56.483007 42564 net.cpp:406] conv0_4/x2/bn <- conv0_4/x1
I0221 09:01:56.483013 42564 net.cpp:380] conv0_4/x2/bn -> conv0_4/x2/bn
I0221 09:01:56.483206 42564 net.cpp:122] Setting up conv0_4/x2/bn
I0221 09:01:56.483212 42564 net.cpp:129] Top shape: 1 128 16 41 (83968)
I0221 09:01:56.483216 42564 net.cpp:137] Memory required for data: 18956208
I0221 09:01:56.483222 42564 layer_factory.hpp:77] Creating layer conv0_4/x2/scale
I0221 09:01:56.483228 42564 net.cpp:84] Creating Layer conv0_4/x2/scale
I0221 09:01:56.483232 42564 net.cpp:406] conv0_4/x2/scale <- conv0_4/x2/bn
I0221 09:01:56.483235 42564 net.cpp:367] conv0_4/x2/scale -> conv0_4/x2/bn (in-place)
I0221 09:01:56.483273 42564 layer_factory.hpp:77] Creating layer conv0_4/x2/scale
I0221 09:01:56.483374 42564 net.cpp:122] Setting up conv0_4/x2/scale
I0221 09:01:56.483381 42564 net.cpp:129] Top shape: 1 128 16 41 (83968)
I0221 09:01:56.483383 42564 net.cpp:137] Memory required for data: 19292080
I0221 09:01:56.483395 42564 layer_factory.hpp:77] Creating layer relu0_4/x2
I0221 09:01:56.483403 42564 net.cpp:84] Creating Layer relu0_4/x2
I0221 09:01:56.483407 42564 net.cpp:406] relu0_4/x2 <- conv0_4/x2/bn
I0221 09:01:56.483410 42564 net.cpp:367] relu0_4/x2 -> conv0_4/x2/bn (in-place)
I0221 09:01:56.484323 42564 net.cpp:122] Setting up relu0_4/x2
I0221 09:01:56.484334 42564 net.cpp:129] Top shape: 1 128 16 41 (83968)
I0221 09:01:56.484338 42564 net.cpp:137] Memory required for data: 19627952
I0221 09:01:56.484342 42564 layer_factory.hpp:77] Creating layer conv0_4/x2
I0221 09:01:56.484351 42564 net.cpp:84] Creating Layer conv0_4/x2
I0221 09:01:56.484355 42564 net.cpp:406] conv0_4/x2 <- conv0_4/x2/bn
I0221 09:01:56.484362 42564 net.cpp:380] conv0_4/x2 -> conv0_4/x2
I0221 09:01:56.487578 42564 net.cpp:122] Setting up conv0_4/x2
I0221 09:01:56.487591 42564 net.cpp:129] Top shape: 1 32 16 41 (20992)
I0221 09:01:56.487594 42564 net.cpp:137] Memory required for data: 19711920
I0221 09:01:56.487601 42564 layer_factory.hpp:77] Creating layer concat0_4
I0221 09:01:56.487608 42564 net.cpp:84] Creating Layer concat0_4
I0221 09:01:56.487612 42564 net.cpp:406] concat0_4 <- concat0_3_concat0_3_0_split_1
I0221 09:01:56.487617 42564 net.cpp:406] concat0_4 <- conv0_4/x2
I0221 09:01:56.487622 42564 net.cpp:380] concat0_4 -> concat0_4
I0221 09:01:56.487653 42564 net.cpp:122] Setting up concat0_4
I0221 09:01:56.487658 42564 net.cpp:129] Top shape: 1 224 16 41 (146944)
I0221 09:01:56.487661 42564 net.cpp:137] Memory required for data: 20299696
I0221 09:01:56.487664 42564 layer_factory.hpp:77] Creating layer concat0_4_concat0_4_0_split
I0221 09:01:56.487668 42564 net.cpp:84] Creating Layer concat0_4_concat0_4_0_split
I0221 09:01:56.487671 42564 net.cpp:406] concat0_4_concat0_4_0_split <- concat0_4
I0221 09:01:56.487677 42564 net.cpp:380] concat0_4_concat0_4_0_split -> concat0_4_concat0_4_0_split_0
I0221 09:01:56.487684 42564 net.cpp:380] concat0_4_concat0_4_0_split -> concat0_4_concat0_4_0_split_1
I0221 09:01:56.487717 42564 net.cpp:122] Setting up concat0_4_concat0_4_0_split
I0221 09:01:56.487722 42564 net.cpp:129] Top shape: 1 224 16 41 (146944)
I0221 09:01:56.487725 42564 net.cpp:129] Top shape: 1 224 16 41 (146944)
I0221 09:01:56.487728 42564 net.cpp:137] Memory required for data: 21475248
I0221 09:01:56.487731 42564 layer_factory.hpp:77] Creating layer conv0_5/x1/bn
I0221 09:01:56.487737 42564 net.cpp:84] Creating Layer conv0_5/x1/bn
I0221 09:01:56.487740 42564 net.cpp:406] conv0_5/x1/bn <- concat0_4_concat0_4_0_split_0
I0221 09:01:56.487745 42564 net.cpp:380] conv0_5/x1/bn -> conv0_5/x1/bn
I0221 09:01:56.487934 42564 net.cpp:122] Setting up conv0_5/x1/bn
I0221 09:01:56.487939 42564 net.cpp:129] Top shape: 1 224 16 41 (146944)
I0221 09:01:56.487942 42564 net.cpp:137] Memory required for data: 22063024
I0221 09:01:56.487948 42564 layer_factory.hpp:77] Creating layer conv0_5/x1/scale
I0221 09:01:56.487956 42564 net.cpp:84] Creating Layer conv0_5/x1/scale
I0221 09:01:56.487958 42564 net.cpp:406] conv0_5/x1/scale <- conv0_5/x1/bn
I0221 09:01:56.487964 42564 net.cpp:367] conv0_5/x1/scale -> conv0_5/x1/bn (in-place)
I0221 09:01:56.488001 42564 layer_factory.hpp:77] Creating layer conv0_5/x1/scale
I0221 09:01:56.488119 42564 net.cpp:122] Setting up conv0_5/x1/scale
I0221 09:01:56.488126 42564 net.cpp:129] Top shape: 1 224 16 41 (146944)
I0221 09:01:56.488127 42564 net.cpp:137] Memory required for data: 22650800
I0221 09:01:56.488133 42564 layer_factory.hpp:77] Creating layer relu0_5/x1
I0221 09:01:56.488138 42564 net.cpp:84] Creating Layer relu0_5/x1
I0221 09:01:56.488142 42564 net.cpp:406] relu0_5/x1 <- conv0_5/x1/bn
I0221 09:01:56.488147 42564 net.cpp:367] relu0_5/x1 -> conv0_5/x1/bn (in-place)
I0221 09:01:56.488332 42564 net.cpp:122] Setting up relu0_5/x1
I0221 09:01:56.488340 42564 net.cpp:129] Top shape: 1 224 16 41 (146944)
I0221 09:01:56.488343 42564 net.cpp:137] Memory required for data: 23238576
I0221 09:01:56.488348 42564 layer_factory.hpp:77] Creating layer conv0_5/x1
I0221 09:01:56.488358 42564 net.cpp:84] Creating Layer conv0_5/x1
I0221 09:01:56.488360 42564 net.cpp:406] conv0_5/x1 <- conv0_5/x1/bn
I0221 09:01:56.488365 42564 net.cpp:380] conv0_5/x1 -> conv0_5/x1
I0221 09:01:56.490684 42564 net.cpp:122] Setting up conv0_5/x1
I0221 09:01:56.490697 42564 net.cpp:129] Top shape: 1 128 16 41 (83968)
I0221 09:01:56.490700 42564 net.cpp:137] Memory required for data: 23574448
I0221 09:01:56.490706 42564 layer_factory.hpp:77] Creating layer conv0_5/x2/bn
I0221 09:01:56.490712 42564 net.cpp:84] Creating Layer conv0_5/x2/bn
I0221 09:01:56.490716 42564 net.cpp:406] conv0_5/x2/bn <- conv0_5/x1
I0221 09:01:56.490722 42564 net.cpp:380] conv0_5/x2/bn -> conv0_5/x2/bn
I0221 09:01:56.490917 42564 net.cpp:122] Setting up conv0_5/x2/bn
I0221 09:01:56.490924 42564 net.cpp:129] Top shape: 1 128 16 41 (83968)
I0221 09:01:56.490926 42564 net.cpp:137] Memory required for data: 23910320
I0221 09:01:56.490933 42564 layer_factory.hpp:77] Creating layer conv0_5/x2/scale
I0221 09:01:56.490942 42564 net.cpp:84] Creating Layer conv0_5/x2/scale
I0221 09:01:56.490944 42564 net.cpp:406] conv0_5/x2/scale <- conv0_5/x2/bn
I0221 09:01:56.490949 42564 net.cpp:367] conv0_5/x2/scale -> conv0_5/x2/bn (in-place)
I0221 09:01:56.490986 42564 layer_factory.hpp:77] Creating layer conv0_5/x2/scale
I0221 09:01:56.491093 42564 net.cpp:122] Setting up conv0_5/x2/scale
I0221 09:01:56.491099 42564 net.cpp:129] Top shape: 1 128 16 41 (83968)
I0221 09:01:56.491101 42564 net.cpp:137] Memory required for data: 24246192
I0221 09:01:56.491106 42564 layer_factory.hpp:77] Creating layer relu0_5/x2
I0221 09:01:56.491116 42564 net.cpp:84] Creating Layer relu0_5/x2
I0221 09:01:56.491118 42564 net.cpp:406] relu0_5/x2 <- conv0_5/x2/bn
I0221 09:01:56.491122 42564 net.cpp:367] relu0_5/x2 -> conv0_5/x2/bn (in-place)
I0221 09:01:56.491307 42564 net.cpp:122] Setting up relu0_5/x2
I0221 09:01:56.491314 42564 net.cpp:129] Top shape: 1 128 16 41 (83968)
I0221 09:01:56.491317 42564 net.cpp:137] Memory required for data: 24582064
I0221 09:01:56.491322 42564 layer_factory.hpp:77] Creating layer conv0_5/x2
I0221 09:01:56.491330 42564 net.cpp:84] Creating Layer conv0_5/x2
I0221 09:01:56.491334 42564 net.cpp:406] conv0_5/x2 <- conv0_5/x2/bn
I0221 09:01:56.491341 42564 net.cpp:380] conv0_5/x2 -> conv0_5/x2
I0221 09:01:56.493795 42564 net.cpp:122] Setting up conv0_5/x2
I0221 09:01:56.493808 42564 net.cpp:129] Top shape: 1 32 16 41 (20992)
I0221 09:01:56.493811 42564 net.cpp:137] Memory required for data: 24666032
I0221 09:01:56.493816 42564 layer_factory.hpp:77] Creating layer concat0_5
I0221 09:01:56.493824 42564 net.cpp:84] Creating Layer concat0_5
I0221 09:01:56.493827 42564 net.cpp:406] concat0_5 <- concat0_4_concat0_4_0_split_1
I0221 09:01:56.493834 42564 net.cpp:406] concat0_5 <- conv0_5/x2
I0221 09:01:56.493839 42564 net.cpp:380] concat0_5 -> concat0_5
I0221 09:01:56.493865 42564 net.cpp:122] Setting up concat0_5
I0221 09:01:56.493871 42564 net.cpp:129] Top shape: 1 256 16 41 (167936)
I0221 09:01:56.493873 42564 net.cpp:137] Memory required for data: 25337776
I0221 09:01:56.493876 42564 layer_factory.hpp:77] Creating layer BatchNorm1
I0221 09:01:56.493881 42564 net.cpp:84] Creating Layer BatchNorm1
I0221 09:01:56.493885 42564 net.cpp:406] BatchNorm1 <- concat0_5
I0221 09:01:56.493893 42564 net.cpp:380] BatchNorm1 -> BatchNorm1
I0221 09:01:56.494081 42564 net.cpp:122] Setting up BatchNorm1
I0221 09:01:56.494086 42564 net.cpp:129] Top shape: 1 256 16 41 (167936)
I0221 09:01:56.494089 42564 net.cpp:137] Memory required for data: 26009520
I0221 09:01:56.494096 42564 layer_factory.hpp:77] Creating layer Scale1
I0221 09:01:56.494105 42564 net.cpp:84] Creating Layer Scale1
I0221 09:01:56.494109 42564 net.cpp:406] Scale1 <- BatchNorm1
I0221 09:01:56.494113 42564 net.cpp:367] Scale1 -> BatchNorm1 (in-place)
I0221 09:01:56.494149 42564 layer_factory.hpp:77] Creating layer Scale1
I0221 09:01:56.494256 42564 net.cpp:122] Setting up Scale1
I0221 09:01:56.494261 42564 net.cpp:129] Top shape: 1 256 16 41 (167936)
I0221 09:01:56.494264 42564 net.cpp:137] Memory required for data: 26681264
I0221 09:01:56.494269 42564 layer_factory.hpp:77] Creating layer ReLU1
I0221 09:01:56.494274 42564 net.cpp:84] Creating Layer ReLU1
I0221 09:01:56.494277 42564 net.cpp:406] ReLU1 <- BatchNorm1
I0221 09:01:56.494283 42564 net.cpp:367] ReLU1 -> BatchNorm1 (in-place)
I0221 09:01:56.495200 42564 net.cpp:122] Setting up ReLU1
I0221 09:01:56.495211 42564 net.cpp:129] Top shape: 1 256 16 41 (167936)
I0221 09:01:56.495215 42564 net.cpp:137] Memory required for data: 27353008
I0221 09:01:56.495218 42564 layer_factory.hpp:77] Creating layer conv0_blk
I0221 09:01:56.495234 42564 net.cpp:84] Creating Layer conv0_blk
I0221 09:01:56.495239 42564 net.cpp:406] conv0_blk <- BatchNorm1
I0221 09:01:56.495244 42564 net.cpp:380] conv0_blk -> conv0_blk
I0221 09:01:56.497594 42564 net.cpp:122] Setting up conv0_blk
I0221 09:01:56.497607 42564 net.cpp:129] Top shape: 1 128 16 41 (83968)
I0221 09:01:56.497611 42564 net.cpp:137] Memory required for data: 27688880
I0221 09:01:56.497615 42564 layer_factory.hpp:77] Creating layer pool0
I0221 09:01:56.497624 42564 net.cpp:84] Creating Layer pool0
I0221 09:01:56.497628 42564 net.cpp:406] pool0 <- conv0_blk
I0221 09:01:56.497633 42564 net.cpp:380] pool0 -> pool0
I0221 09:01:56.497838 42564 net.cpp:122] Setting up pool0
I0221 09:01:56.497846 42564 net.cpp:129] Top shape: 1 128 8 21 (21504)
I0221 09:01:56.497849 42564 net.cpp:137] Memory required for data: 27774896
I0221 09:01:56.497853 42564 layer_factory.hpp:77] Creating layer pool0_pool0_0_split
I0221 09:01:56.497858 42564 net.cpp:84] Creating Layer pool0_pool0_0_split
I0221 09:01:56.497864 42564 net.cpp:406] pool0_pool0_0_split <- pool0
I0221 09:01:56.497867 42564 net.cpp:380] pool0_pool0_0_split -> pool0_pool0_0_split_0
I0221 09:01:56.497874 42564 net.cpp:380] pool0_pool0_0_split -> pool0_pool0_0_split_1
I0221 09:01:56.497908 42564 net.cpp:122] Setting up pool0_pool0_0_split
I0221 09:01:56.497912 42564 net.cpp:129] Top shape: 1 128 8 21 (21504)
I0221 09:01:56.497916 42564 net.cpp:129] Top shape: 1 128 8 21 (21504)
I0221 09:01:56.497920 42564 net.cpp:137] Memory required for data: 27946928
I0221 09:01:56.497921 42564 layer_factory.hpp:77] Creating layer conv1_0/x1/bn
I0221 09:01:56.497926 42564 net.cpp:84] Creating Layer conv1_0/x1/bn
I0221 09:01:56.497930 42564 net.cpp:406] conv1_0/x1/bn <- pool0_pool0_0_split_0
I0221 09:01:56.497936 42564 net.cpp:380] conv1_0/x1/bn -> conv1_0/x1/bn
I0221 09:01:56.498118 42564 net.cpp:122] Setting up conv1_0/x1/bn
I0221 09:01:56.498124 42564 net.cpp:129] Top shape: 1 128 8 21 (21504)
I0221 09:01:56.498127 42564 net.cpp:137] Memory required for data: 28032944
I0221 09:01:56.498133 42564 layer_factory.hpp:77] Creating layer conv1_0/x1/scale
I0221 09:01:56.498142 42564 net.cpp:84] Creating Layer conv1_0/x1/scale
I0221 09:01:56.498145 42564 net.cpp:406] conv1_0/x1/scale <- conv1_0/x1/bn
I0221 09:01:56.498149 42564 net.cpp:367] conv1_0/x1/scale -> conv1_0/x1/bn (in-place)
I0221 09:01:56.498185 42564 layer_factory.hpp:77] Creating layer conv1_0/x1/scale
I0221 09:01:56.498287 42564 net.cpp:122] Setting up conv1_0/x1/scale
I0221 09:01:56.498293 42564 net.cpp:129] Top shape: 1 128 8 21 (21504)
I0221 09:01:56.498296 42564 net.cpp:137] Memory required for data: 28118960
I0221 09:01:56.498301 42564 layer_factory.hpp:77] Creating layer relu1_0/x1
I0221 09:01:56.498309 42564 net.cpp:84] Creating Layer relu1_0/x1
I0221 09:01:56.498312 42564 net.cpp:406] relu1_0/x1 <- conv1_0/x1/bn
I0221 09:01:56.498318 42564 net.cpp:367] relu1_0/x1 -> conv1_0/x1/bn (in-place)
I0221 09:01:56.498494 42564 net.cpp:122] Setting up relu1_0/x1
I0221 09:01:56.498502 42564 net.cpp:129] Top shape: 1 128 8 21 (21504)
I0221 09:01:56.498504 42564 net.cpp:137] Memory required for data: 28204976
I0221 09:01:56.498507 42564 layer_factory.hpp:77] Creating layer conv1_0/x1
I0221 09:01:56.498517 42564 net.cpp:84] Creating Layer conv1_0/x1
I0221 09:01:56.498519 42564 net.cpp:406] conv1_0/x1 <- conv1_0/x1/bn
I0221 09:01:56.498527 42564 net.cpp:380] conv1_0/x1 -> conv1_0/x1
I0221 09:01:56.501206 42564 net.cpp:122] Setting up conv1_0/x1
I0221 09:01:56.501219 42564 net.cpp:129] Top shape: 1 128 8 21 (21504)
I0221 09:01:56.501222 42564 net.cpp:137] Memory required for data: 28290992
I0221 09:01:56.501229 42564 layer_factory.hpp:77] Creating layer conv1_0/x2/bn
I0221 09:01:56.501236 42564 net.cpp:84] Creating Layer conv1_0/x2/bn
I0221 09:01:56.501240 42564 net.cpp:406] conv1_0/x2/bn <- conv1_0/x1
I0221 09:01:56.501247 42564 net.cpp:380] conv1_0/x2/bn -> conv1_0/x2/bn
I0221 09:01:56.501446 42564 net.cpp:122] Setting up conv1_0/x2/bn
I0221 09:01:56.501452 42564 net.cpp:129] Top shape: 1 128 8 21 (21504)
I0221 09:01:56.501454 42564 net.cpp:137] Memory required for data: 28377008
I0221 09:01:56.501461 42564 layer_factory.hpp:77] Creating layer conv1_0/x2/scale
I0221 09:01:56.501467 42564 net.cpp:84] Creating Layer conv1_0/x2/scale
I0221 09:01:56.501471 42564 net.cpp:406] conv1_0/x2/scale <- conv1_0/x2/bn
I0221 09:01:56.501476 42564 net.cpp:367] conv1_0/x2/scale -> conv1_0/x2/bn (in-place)
I0221 09:01:56.501513 42564 layer_factory.hpp:77] Creating layer conv1_0/x2/scale
I0221 09:01:56.501619 42564 net.cpp:122] Setting up conv1_0/x2/scale
I0221 09:01:56.501626 42564 net.cpp:129] Top shape: 1 128 8 21 (21504)
I0221 09:01:56.501629 42564 net.cpp:137] Memory required for data: 28463024
I0221 09:01:56.501634 42564 layer_factory.hpp:77] Creating layer relu1_0/x2
I0221 09:01:56.501639 42564 net.cpp:84] Creating Layer relu1_0/x2
I0221 09:01:56.501642 42564 net.cpp:406] relu1_0/x2 <- conv1_0/x2/bn
I0221 09:01:56.501648 42564 net.cpp:367] relu1_0/x2 -> conv1_0/x2/bn (in-place)
I0221 09:01:56.502562 42564 net.cpp:122] Setting up relu1_0/x2
I0221 09:01:56.502573 42564 net.cpp:129] Top shape: 1 128 8 21 (21504)
I0221 09:01:56.502576 42564 net.cpp:137] Memory required for data: 28549040
I0221 09:01:56.502580 42564 layer_factory.hpp:77] Creating layer conv1_0/x2
I0221 09:01:56.502590 42564 net.cpp:84] Creating Layer conv1_0/x2
I0221 09:01:56.502593 42564 net.cpp:406] conv1_0/x2 <- conv1_0/x2/bn
I0221 09:01:56.502600 42564 net.cpp:380] conv1_0/x2 -> conv1_0/x2
I0221 09:01:56.505777 42564 net.cpp:122] Setting up conv1_0/x2
I0221 09:01:56.505790 42564 net.cpp:129] Top shape: 1 32 8 21 (5376)
I0221 09:01:56.505794 42564 net.cpp:137] Memory required for data: 28570544
I0221 09:01:56.505800 42564 layer_factory.hpp:77] Creating layer concat1_0
I0221 09:01:56.505807 42564 net.cpp:84] Creating Layer concat1_0
I0221 09:01:56.505811 42564 net.cpp:406] concat1_0 <- pool0_pool0_0_split_1
I0221 09:01:56.505815 42564 net.cpp:406] concat1_0 <- conv1_0/x2
I0221 09:01:56.505820 42564 net.cpp:380] concat1_0 -> concat1_0
I0221 09:01:56.505852 42564 net.cpp:122] Setting up concat1_0
I0221 09:01:56.505858 42564 net.cpp:129] Top shape: 1 160 8 21 (26880)
I0221 09:01:56.505861 42564 net.cpp:137] Memory required for data: 28678064
I0221 09:01:56.505863 42564 layer_factory.hpp:77] Creating layer concat1_0_concat1_0_0_split
I0221 09:01:56.505868 42564 net.cpp:84] Creating Layer concat1_0_concat1_0_0_split
I0221 09:01:56.505872 42564 net.cpp:406] concat1_0_concat1_0_0_split <- concat1_0
I0221 09:01:56.505877 42564 net.cpp:380] concat1_0_concat1_0_0_split -> concat1_0_concat1_0_0_split_0
I0221 09:01:56.505882 42564 net.cpp:380] concat1_0_concat1_0_0_split -> concat1_0_concat1_0_0_split_1
I0221 09:01:56.505918 42564 net.cpp:122] Setting up concat1_0_concat1_0_0_split
I0221 09:01:56.505925 42564 net.cpp:129] Top shape: 1 160 8 21 (26880)
I0221 09:01:56.505929 42564 net.cpp:129] Top shape: 1 160 8 21 (26880)
I0221 09:01:56.505933 42564 net.cpp:137] Memory required for data: 28893104
I0221 09:01:56.505935 42564 layer_factory.hpp:77] Creating layer conv1_1/x1/bn
I0221 09:01:56.505942 42564 net.cpp:84] Creating Layer conv1_1/x1/bn
I0221 09:01:56.505945 42564 net.cpp:406] conv1_1/x1/bn <- concat1_0_concat1_0_0_split_0
I0221 09:01:56.505951 42564 net.cpp:380] conv1_1/x1/bn -> conv1_1/x1/bn
I0221 09:01:56.506145 42564 net.cpp:122] Setting up conv1_1/x1/bn
I0221 09:01:56.506151 42564 net.cpp:129] Top shape: 1 160 8 21 (26880)
I0221 09:01:56.506155 42564 net.cpp:137] Memory required for data: 29000624
I0221 09:01:56.506160 42564 layer_factory.hpp:77] Creating layer conv1_1/x1/scale
I0221 09:01:56.506166 42564 net.cpp:84] Creating Layer conv1_1/x1/scale
I0221 09:01:56.506170 42564 net.cpp:406] conv1_1/x1/scale <- conv1_1/x1/bn
I0221 09:01:56.506176 42564 net.cpp:367] conv1_1/x1/scale -> conv1_1/x1/bn (in-place)
I0221 09:01:56.506213 42564 layer_factory.hpp:77] Creating layer conv1_1/x1/scale
I0221 09:01:56.506326 42564 net.cpp:122] Setting up conv1_1/x1/scale
I0221 09:01:56.506332 42564 net.cpp:129] Top shape: 1 160 8 21 (26880)
I0221 09:01:56.506335 42564 net.cpp:137] Memory required for data: 29108144
I0221 09:01:56.506340 42564 layer_factory.hpp:77] Creating layer relu1_1/x1
I0221 09:01:56.506345 42564 net.cpp:84] Creating Layer relu1_1/x1
I0221 09:01:56.506348 42564 net.cpp:406] relu1_1/x1 <- conv1_1/x1/bn
I0221 09:01:56.506353 42564 net.cpp:367] relu1_1/x1 -> conv1_1/x1/bn (in-place)
I0221 09:01:56.506569 42564 net.cpp:122] Setting up relu1_1/x1
I0221 09:01:56.506577 42564 net.cpp:129] Top shape: 1 160 8 21 (26880)
I0221 09:01:56.506580 42564 net.cpp:137] Memory required for data: 29215664
I0221 09:01:56.506584 42564 layer_factory.hpp:77] Creating layer conv1_1/x1
I0221 09:01:56.506594 42564 net.cpp:84] Creating Layer conv1_1/x1
I0221 09:01:56.506597 42564 net.cpp:406] conv1_1/x1 <- conv1_1/x1/bn
I0221 09:01:56.506605 42564 net.cpp:380] conv1_1/x1 -> conv1_1/x1
I0221 09:01:56.508677 42564 net.cpp:122] Setting up conv1_1/x1
I0221 09:01:56.508689 42564 net.cpp:129] Top shape: 1 128 8 21 (21504)
I0221 09:01:56.508693 42564 net.cpp:137] Memory required for data: 29301680
I0221 09:01:56.508698 42564 layer_factory.hpp:77] Creating layer conv1_1/x2/bn
I0221 09:01:56.508705 42564 net.cpp:84] Creating Layer conv1_1/x2/bn
I0221 09:01:56.508709 42564 net.cpp:406] conv1_1/x2/bn <- conv1_1/x1
I0221 09:01:56.508716 42564 net.cpp:380] conv1_1/x2/bn -> conv1_1/x2/bn
I0221 09:01:56.508926 42564 net.cpp:122] Setting up conv1_1/x2/bn
I0221 09:01:56.508934 42564 net.cpp:129] Top shape: 1 128 8 21 (21504)
I0221 09:01:56.508936 42564 net.cpp:137] Memory required for data: 29387696
I0221 09:01:56.508942 42564 layer_factory.hpp:77] Creating layer conv1_1/x2/scale
I0221 09:01:56.508951 42564 net.cpp:84] Creating Layer conv1_1/x2/scale
I0221 09:01:56.508955 42564 net.cpp:406] conv1_1/x2/scale <- conv1_1/x2/bn
I0221 09:01:56.508960 42564 net.cpp:367] conv1_1/x2/scale -> conv1_1/x2/bn (in-place)
I0221 09:01:56.509042 42564 layer_factory.hpp:77] Creating layer conv1_1/x2/scale
I0221 09:01:56.509162 42564 net.cpp:122] Setting up conv1_1/x2/scale
I0221 09:01:56.509169 42564 net.cpp:129] Top shape: 1 128 8 21 (21504)
I0221 09:01:56.509172 42564 net.cpp:137] Memory required for data: 29473712
I0221 09:01:56.509177 42564 layer_factory.hpp:77] Creating layer relu1_1/x2
I0221 09:01:56.509183 42564 net.cpp:84] Creating Layer relu1_1/x2
I0221 09:01:56.509186 42564 net.cpp:406] relu1_1/x2 <- conv1_1/x2/bn
I0221 09:01:56.509192 42564 net.cpp:367] relu1_1/x2 -> conv1_1/x2/bn (in-place)
I0221 09:01:56.509405 42564 net.cpp:122] Setting up relu1_1/x2
I0221 09:01:56.509413 42564 net.cpp:129] Top shape: 1 128 8 21 (21504)
I0221 09:01:56.509415 42564 net.cpp:137] Memory required for data: 29559728
I0221 09:01:56.509418 42564 layer_factory.hpp:77] Creating layer conv1_1/x2
I0221 09:01:56.509428 42564 net.cpp:84] Creating Layer conv1_1/x2
I0221 09:01:56.509434 42564 net.cpp:406] conv1_1/x2 <- conv1_1/x2/bn
I0221 09:01:56.509441 42564 net.cpp:380] conv1_1/x2 -> conv1_1/x2
I0221 09:01:56.511901 42564 net.cpp:122] Setting up conv1_1/x2
I0221 09:01:56.511914 42564 net.cpp:129] Top shape: 1 32 8 21 (5376)
I0221 09:01:56.511917 42564 net.cpp:137] Memory required for data: 29581232
I0221 09:01:56.511922 42564 layer_factory.hpp:77] Creating layer concat1_1
I0221 09:01:56.511930 42564 net.cpp:84] Creating Layer concat1_1
I0221 09:01:56.511934 42564 net.cpp:406] concat1_1 <- concat1_0_concat1_0_0_split_1
I0221 09:01:56.511940 42564 net.cpp:406] concat1_1 <- conv1_1/x2
I0221 09:01:56.511943 42564 net.cpp:380] concat1_1 -> concat1_1
I0221 09:01:56.511972 42564 net.cpp:122] Setting up concat1_1
I0221 09:01:56.511978 42564 net.cpp:129] Top shape: 1 192 8 21 (32256)
I0221 09:01:56.511981 42564 net.cpp:137] Memory required for data: 29710256
I0221 09:01:56.511983 42564 layer_factory.hpp:77] Creating layer concat1_1_concat1_1_0_split
I0221 09:01:56.511988 42564 net.cpp:84] Creating Layer concat1_1_concat1_1_0_split
I0221 09:01:56.511991 42564 net.cpp:406] concat1_1_concat1_1_0_split <- concat1_1
I0221 09:01:56.511997 42564 net.cpp:380] concat1_1_concat1_1_0_split -> concat1_1_concat1_1_0_split_0
I0221 09:01:56.512002 42564 net.cpp:380] concat1_1_concat1_1_0_split -> concat1_1_concat1_1_0_split_1
I0221 09:01:56.512037 42564 net.cpp:122] Setting up concat1_1_concat1_1_0_split
I0221 09:01:56.512042 42564 net.cpp:129] Top shape: 1 192 8 21 (32256)
I0221 09:01:56.512044 42564 net.cpp:129] Top shape: 1 192 8 21 (32256)
I0221 09:01:56.512048 42564 net.cpp:137] Memory required for data: 29968304
I0221 09:01:56.512049 42564 layer_factory.hpp:77] Creating layer conv1_2/x1/bn
I0221 09:01:56.512056 42564 net.cpp:84] Creating Layer conv1_2/x1/bn
I0221 09:01:56.512059 42564 net.cpp:406] conv1_2/x1/bn <- concat1_1_concat1_1_0_split_0
I0221 09:01:56.512066 42564 net.cpp:380] conv1_2/x1/bn -> conv1_2/x1/bn
I0221 09:01:56.512264 42564 net.cpp:122] Setting up conv1_2/x1/bn
I0221 09:01:56.512270 42564 net.cpp:129] Top shape: 1 192 8 21 (32256)
I0221 09:01:56.512274 42564 net.cpp:137] Memory required for data: 30097328
I0221 09:01:56.512279 42564 layer_factory.hpp:77] Creating layer conv1_2/x1/scale
I0221 09:01:56.512286 42564 net.cpp:84] Creating Layer conv1_2/x1/scale
I0221 09:01:56.512290 42564 net.cpp:406] conv1_2/x1/scale <- conv1_2/x1/bn
I0221 09:01:56.512295 42564 net.cpp:367] conv1_2/x1/scale -> conv1_2/x1/bn (in-place)
I0221 09:01:56.512333 42564 layer_factory.hpp:77] Creating layer conv1_2/x1/scale
I0221 09:01:56.512449 42564 net.cpp:122] Setting up conv1_2/x1/scale
I0221 09:01:56.512455 42564 net.cpp:129] Top shape: 1 192 8 21 (32256)
I0221 09:01:56.512459 42564 net.cpp:137] Memory required for data: 30226352
I0221 09:01:56.512464 42564 layer_factory.hpp:77] Creating layer relu1_2/x1
I0221 09:01:56.512468 42564 net.cpp:84] Creating Layer relu1_2/x1
I0221 09:01:56.512472 42564 net.cpp:406] relu1_2/x1 <- conv1_2/x1/bn
I0221 09:01:56.512477 42564 net.cpp:367] relu1_2/x1 -> conv1_2/x1/bn (in-place)
I0221 09:01:56.512668 42564 net.cpp:122] Setting up relu1_2/x1
I0221 09:01:56.512676 42564 net.cpp:129] Top shape: 1 192 8 21 (32256)
I0221 09:01:56.512678 42564 net.cpp:137] Memory required for data: 30355376
I0221 09:01:56.512681 42564 layer_factory.hpp:77] Creating layer conv1_2/x1
I0221 09:01:56.512691 42564 net.cpp:84] Creating Layer conv1_2/x1
I0221 09:01:56.512694 42564 net.cpp:406] conv1_2/x1 <- conv1_2/x1/bn
I0221 09:01:56.512701 42564 net.cpp:380] conv1_2/x1 -> conv1_2/x1
I0221 09:01:56.514902 42564 net.cpp:122] Setting up conv1_2/x1
I0221 09:01:56.514916 42564 net.cpp:129] Top shape: 1 128 8 21 (21504)
I0221 09:01:56.514919 42564 net.cpp:137] Memory required for data: 30441392
I0221 09:01:56.514925 42564 layer_factory.hpp:77] Creating layer conv1_2/x2/bn
I0221 09:01:56.514931 42564 net.cpp:84] Creating Layer conv1_2/x2/bn
I0221 09:01:56.514935 42564 net.cpp:406] conv1_2/x2/bn <- conv1_2/x1
I0221 09:01:56.514942 42564 net.cpp:380] conv1_2/x2/bn -> conv1_2/x2/bn
I0221 09:01:56.515143 42564 net.cpp:122] Setting up conv1_2/x2/bn
I0221 09:01:56.515149 42564 net.cpp:129] Top shape: 1 128 8 21 (21504)
I0221 09:01:56.515152 42564 net.cpp:137] Memory required for data: 30527408
I0221 09:01:56.515159 42564 layer_factory.hpp:77] Creating layer conv1_2/x2/scale
I0221 09:01:56.515167 42564 net.cpp:84] Creating Layer conv1_2/x2/scale
I0221 09:01:56.515172 42564 net.cpp:406] conv1_2/x2/scale <- conv1_2/x2/bn
I0221 09:01:56.515175 42564 net.cpp:367] conv1_2/x2/scale -> conv1_2/x2/bn (in-place)
I0221 09:01:56.515213 42564 layer_factory.hpp:77] Creating layer conv1_2/x2/scale
I0221 09:01:56.515323 42564 net.cpp:122] Setting up conv1_2/x2/scale
I0221 09:01:56.515329 42564 net.cpp:129] Top shape: 1 128 8 21 (21504)
I0221 09:01:56.515332 42564 net.cpp:137] Memory required for data: 30613424
I0221 09:01:56.515337 42564 layer_factory.hpp:77] Creating layer relu1_2/x2
I0221 09:01:56.515342 42564 net.cpp:84] Creating Layer relu1_2/x2
I0221 09:01:56.515347 42564 net.cpp:406] relu1_2/x2 <- conv1_2/x2/bn
I0221 09:01:56.515349 42564 net.cpp:367] relu1_2/x2 -> conv1_2/x2/bn (in-place)
I0221 09:01:56.516299 42564 net.cpp:122] Setting up relu1_2/x2
I0221 09:01:56.516310 42564 net.cpp:129] Top shape: 1 128 8 21 (21504)
I0221 09:01:56.516314 42564 net.cpp:137] Memory required for data: 30699440
I0221 09:01:56.516317 42564 layer_factory.hpp:77] Creating layer conv1_2/x2
I0221 09:01:56.516329 42564 net.cpp:84] Creating Layer conv1_2/x2
I0221 09:01:56.516332 42564 net.cpp:406] conv1_2/x2 <- conv1_2/x2/bn
I0221 09:01:56.516340 42564 net.cpp:380] conv1_2/x2 -> conv1_2/x2
I0221 09:01:56.519608 42564 net.cpp:122] Setting up conv1_2/x2
I0221 09:01:56.519620 42564 net.cpp:129] Top shape: 1 32 8 21 (5376)
I0221 09:01:56.519623 42564 net.cpp:137] Memory required for data: 30720944
I0221 09:01:56.519629 42564 layer_factory.hpp:77] Creating layer concat1_2
I0221 09:01:56.519637 42564 net.cpp:84] Creating Layer concat1_2
I0221 09:01:56.519641 42564 net.cpp:406] concat1_2 <- concat1_1_concat1_1_0_split_1
I0221 09:01:56.519645 42564 net.cpp:406] concat1_2 <- conv1_2/x2
I0221 09:01:56.519650 42564 net.cpp:380] concat1_2 -> concat1_2
I0221 09:01:56.519683 42564 net.cpp:122] Setting up concat1_2
I0221 09:01:56.519690 42564 net.cpp:129] Top shape: 1 224 8 21 (37632)
I0221 09:01:56.519692 42564 net.cpp:137] Memory required for data: 30871472
I0221 09:01:56.519695 42564 layer_factory.hpp:77] Creating layer concat1_2_concat1_2_0_split
I0221 09:01:56.519700 42564 net.cpp:84] Creating Layer concat1_2_concat1_2_0_split
I0221 09:01:56.519702 42564 net.cpp:406] concat1_2_concat1_2_0_split <- concat1_2
I0221 09:01:56.519708 42564 net.cpp:380] concat1_2_concat1_2_0_split -> concat1_2_concat1_2_0_split_0
I0221 09:01:56.519713 42564 net.cpp:380] concat1_2_concat1_2_0_split -> concat1_2_concat1_2_0_split_1
I0221 09:01:56.519748 42564 net.cpp:122] Setting up concat1_2_concat1_2_0_split
I0221 09:01:56.519755 42564 net.cpp:129] Top shape: 1 224 8 21 (37632)
I0221 09:01:56.519758 42564 net.cpp:129] Top shape: 1 224 8 21 (37632)
I0221 09:01:56.519762 42564 net.cpp:137] Memory required for data: 31172528
I0221 09:01:56.519764 42564 layer_factory.hpp:77] Creating layer conv1_3/x1/bn
I0221 09:01:56.519768 42564 net.cpp:84] Creating Layer conv1_3/x1/bn
I0221 09:01:56.519773 42564 net.cpp:406] conv1_3/x1/bn <- concat1_2_concat1_2_0_split_0
I0221 09:01:56.519778 42564 net.cpp:380] conv1_3/x1/bn -> conv1_3/x1/bn
I0221 09:01:56.519979 42564 net.cpp:122] Setting up conv1_3/x1/bn
I0221 09:01:56.519984 42564 net.cpp:129] Top shape: 1 224 8 21 (37632)
I0221 09:01:56.519986 42564 net.cpp:137] Memory required for data: 31323056
I0221 09:01:56.519992 42564 layer_factory.hpp:77] Creating layer conv1_3/x1/scale
I0221 09:01:56.520001 42564 net.cpp:84] Creating Layer conv1_3/x1/scale
I0221 09:01:56.520004 42564 net.cpp:406] conv1_3/x1/scale <- conv1_3/x1/bn
I0221 09:01:56.520009 42564 net.cpp:367] conv1_3/x1/scale -> conv1_3/x1/bn (in-place)
I0221 09:01:56.520046 42564 layer_factory.hpp:77] Creating layer conv1_3/x1/scale
I0221 09:01:56.520164 42564 net.cpp:122] Setting up conv1_3/x1/scale
I0221 09:01:56.520174 42564 net.cpp:129] Top shape: 1 224 8 21 (37632)
I0221 09:01:56.520177 42564 net.cpp:137] Memory required for data: 31473584
I0221 09:01:56.520182 42564 layer_factory.hpp:77] Creating layer relu1_3/x1
I0221 09:01:56.520187 42564 net.cpp:84] Creating Layer relu1_3/x1
I0221 09:01:56.520190 42564 net.cpp:406] relu1_3/x1 <- conv1_3/x1/bn
I0221 09:01:56.520195 42564 net.cpp:367] relu1_3/x1 -> conv1_3/x1/bn (in-place)
I0221 09:01:56.520388 42564 net.cpp:122] Setting up relu1_3/x1
I0221 09:01:56.520396 42564 net.cpp:129] Top shape: 1 224 8 21 (37632)
I0221 09:01:56.520400 42564 net.cpp:137] Memory required for data: 31624112
I0221 09:01:56.520402 42564 layer_factory.hpp:77] Creating layer conv1_3/x1
I0221 09:01:56.520412 42564 net.cpp:84] Creating Layer conv1_3/x1
I0221 09:01:56.520416 42564 net.cpp:406] conv1_3/x1 <- conv1_3/x1/bn
I0221 09:01:56.520423 42564 net.cpp:380] conv1_3/x1 -> conv1_3/x1
I0221 09:01:56.522655 42564 net.cpp:122] Setting up conv1_3/x1
I0221 09:01:56.522667 42564 net.cpp:129] Top shape: 1 128 8 21 (21504)
I0221 09:01:56.522670 42564 net.cpp:137] Memory required for data: 31710128
I0221 09:01:56.522675 42564 layer_factory.hpp:77] Creating layer conv1_3/x2/bn
I0221 09:01:56.522684 42564 net.cpp:84] Creating Layer conv1_3/x2/bn
I0221 09:01:56.522688 42564 net.cpp:406] conv1_3/x2/bn <- conv1_3/x1
I0221 09:01:56.522696 42564 net.cpp:380] conv1_3/x2/bn -> conv1_3/x2/bn
I0221 09:01:56.522895 42564 net.cpp:122] Setting up conv1_3/x2/bn
I0221 09:01:56.522902 42564 net.cpp:129] Top shape: 1 128 8 21 (21504)
I0221 09:01:56.522904 42564 net.cpp:137] Memory required for data: 31796144
I0221 09:01:56.522922 42564 layer_factory.hpp:77] Creating layer conv1_3/x2/scale
I0221 09:01:56.522928 42564 net.cpp:84] Creating Layer conv1_3/x2/scale
I0221 09:01:56.522933 42564 net.cpp:406] conv1_3/x2/scale <- conv1_3/x2/bn
I0221 09:01:56.522938 42564 net.cpp:367] conv1_3/x2/scale -> conv1_3/x2/bn (in-place)
I0221 09:01:56.522980 42564 layer_factory.hpp:77] Creating layer conv1_3/x2/scale
I0221 09:01:56.523085 42564 net.cpp:122] Setting up conv1_3/x2/scale
I0221 09:01:56.523092 42564 net.cpp:129] Top shape: 1 128 8 21 (21504)
I0221 09:01:56.523093 42564 net.cpp:137] Memory required for data: 31882160
I0221 09:01:56.523098 42564 layer_factory.hpp:77] Creating layer relu1_3/x2
I0221 09:01:56.523104 42564 net.cpp:84] Creating Layer relu1_3/x2
I0221 09:01:56.523108 42564 net.cpp:406] relu1_3/x2 <- conv1_3/x2/bn
I0221 09:01:56.523113 42564 net.cpp:367] relu1_3/x2 -> conv1_3/x2/bn (in-place)
I0221 09:01:56.523293 42564 net.cpp:122] Setting up relu1_3/x2
I0221 09:01:56.523303 42564 net.cpp:129] Top shape: 1 128 8 21 (21504)
I0221 09:01:56.523305 42564 net.cpp:137] Memory required for data: 31968176
I0221 09:01:56.523308 42564 layer_factory.hpp:77] Creating layer conv1_3/x2
I0221 09:01:56.523317 42564 net.cpp:84] Creating Layer conv1_3/x2
I0221 09:01:56.523321 42564 net.cpp:406] conv1_3/x2 <- conv1_3/x2/bn
I0221 09:01:56.523326 42564 net.cpp:380] conv1_3/x2 -> conv1_3/x2
I0221 09:01:56.527077 42564 net.cpp:122] Setting up conv1_3/x2
I0221 09:01:56.527091 42564 net.cpp:129] Top shape: 1 32 8 21 (5376)
I0221 09:01:56.527093 42564 net.cpp:137] Memory required for data: 31989680
I0221 09:01:56.527099 42564 layer_factory.hpp:77] Creating layer concat1_3
I0221 09:01:56.527107 42564 net.cpp:84] Creating Layer concat1_3
I0221 09:01:56.527110 42564 net.cpp:406] concat1_3 <- concat1_2_concat1_2_0_split_1
I0221 09:01:56.527114 42564 net.cpp:406] concat1_3 <- conv1_3/x2
I0221 09:01:56.527122 42564 net.cpp:380] concat1_3 -> concat1_3
I0221 09:01:56.527149 42564 net.cpp:122] Setting up concat1_3
I0221 09:01:56.527154 42564 net.cpp:129] Top shape: 1 256 8 21 (43008)
I0221 09:01:56.527158 42564 net.cpp:137] Memory required for data: 32161712
I0221 09:01:56.527160 42564 layer_factory.hpp:77] Creating layer concat1_3_concat1_3_0_split
I0221 09:01:56.527166 42564 net.cpp:84] Creating Layer concat1_3_concat1_3_0_split
I0221 09:01:56.527169 42564 net.cpp:406] concat1_3_concat1_3_0_split <- concat1_3
I0221 09:01:56.527176 42564 net.cpp:380] concat1_3_concat1_3_0_split -> concat1_3_concat1_3_0_split_0
I0221 09:01:56.527182 42564 net.cpp:380] concat1_3_concat1_3_0_split -> concat1_3_concat1_3_0_split_1
I0221 09:01:56.527218 42564 net.cpp:122] Setting up concat1_3_concat1_3_0_split
I0221 09:01:56.527223 42564 net.cpp:129] Top shape: 1 256 8 21 (43008)
I0221 09:01:56.527227 42564 net.cpp:129] Top shape: 1 256 8 21 (43008)
I0221 09:01:56.527230 42564 net.cpp:137] Memory required for data: 32505776
I0221 09:01:56.527232 42564 layer_factory.hpp:77] Creating layer conv1_4/x1/bn
I0221 09:01:56.527240 42564 net.cpp:84] Creating Layer conv1_4/x1/bn
I0221 09:01:56.527242 42564 net.cpp:406] conv1_4/x1/bn <- concat1_3_concat1_3_0_split_0
I0221 09:01:56.527246 42564 net.cpp:380] conv1_4/x1/bn -> conv1_4/x1/bn
I0221 09:01:56.527436 42564 net.cpp:122] Setting up conv1_4/x1/bn
I0221 09:01:56.527441 42564 net.cpp:129] Top shape: 1 256 8 21 (43008)
I0221 09:01:56.527443 42564 net.cpp:137] Memory required for data: 32677808
I0221 09:01:56.527451 42564 layer_factory.hpp:77] Creating layer conv1_4/x1/scale
I0221 09:01:56.527456 42564 net.cpp:84] Creating Layer conv1_4/x1/scale
I0221 09:01:56.527460 42564 net.cpp:406] conv1_4/x1/scale <- conv1_4/x1/bn
I0221 09:01:56.527465 42564 net.cpp:367] conv1_4/x1/scale -> conv1_4/x1/bn (in-place)
I0221 09:01:56.527504 42564 layer_factory.hpp:77] Creating layer conv1_4/x1/scale
I0221 09:01:56.527607 42564 net.cpp:122] Setting up conv1_4/x1/scale
I0221 09:01:56.527613 42564 net.cpp:129] Top shape: 1 256 8 21 (43008)
I0221 09:01:56.527616 42564 net.cpp:137] Memory required for data: 32849840
I0221 09:01:56.527621 42564 layer_factory.hpp:77] Creating layer relu1_4/x1
I0221 09:01:56.527628 42564 net.cpp:84] Creating Layer relu1_4/x1
I0221 09:01:56.527631 42564 net.cpp:406] relu1_4/x1 <- conv1_4/x1/bn
I0221 09:01:56.527635 42564 net.cpp:367] relu1_4/x1 -> conv1_4/x1/bn (in-place)
I0221 09:01:56.528559 42564 net.cpp:122] Setting up relu1_4/x1
I0221 09:01:56.528570 42564 net.cpp:129] Top shape: 1 256 8 21 (43008)
I0221 09:01:56.528573 42564 net.cpp:137] Memory required for data: 33021872
I0221 09:01:56.528576 42564 layer_factory.hpp:77] Creating layer conv1_4/x1
I0221 09:01:56.528586 42564 net.cpp:84] Creating Layer conv1_4/x1
I0221 09:01:56.528590 42564 net.cpp:406] conv1_4/x1 <- conv1_4/x1/bn
I0221 09:01:56.528596 42564 net.cpp:380] conv1_4/x1 -> conv1_4/x1
I0221 09:01:56.530992 42564 net.cpp:122] Setting up conv1_4/x1
I0221 09:01:56.531004 42564 net.cpp:129] Top shape: 1 128 8 21 (21504)
I0221 09:01:56.531008 42564 net.cpp:137] Memory required for data: 33107888
I0221 09:01:56.531013 42564 layer_factory.hpp:77] Creating layer conv1_4/x2/bn
I0221 09:01:56.531019 42564 net.cpp:84] Creating Layer conv1_4/x2/bn
I0221 09:01:56.531023 42564 net.cpp:406] conv1_4/x2/bn <- conv1_4/x1
I0221 09:01:56.531030 42564 net.cpp:380] conv1_4/x2/bn -> conv1_4/x2/bn
I0221 09:01:56.531226 42564 net.cpp:122] Setting up conv1_4/x2/bn
I0221 09:01:56.531232 42564 net.cpp:129] Top shape: 1 128 8 21 (21504)
I0221 09:01:56.531235 42564 net.cpp:137] Memory required for data: 33193904
I0221 09:01:56.531241 42564 layer_factory.hpp:77] Creating layer conv1_4/x2/scale
I0221 09:01:56.531250 42564 net.cpp:84] Creating Layer conv1_4/x2/scale
I0221 09:01:56.531253 42564 net.cpp:406] conv1_4/x2/scale <- conv1_4/x2/bn
I0221 09:01:56.531257 42564 net.cpp:367] conv1_4/x2/scale -> conv1_4/x2/bn (in-place)
I0221 09:01:56.531294 42564 layer_factory.hpp:77] Creating layer conv1_4/x2/scale
I0221 09:01:56.531396 42564 net.cpp:122] Setting up conv1_4/x2/scale
I0221 09:01:56.531402 42564 net.cpp:129] Top shape: 1 128 8 21 (21504)
I0221 09:01:56.531405 42564 net.cpp:137] Memory required for data: 33279920
I0221 09:01:56.531410 42564 layer_factory.hpp:77] Creating layer relu1_4/x2
I0221 09:01:56.531415 42564 net.cpp:84] Creating Layer relu1_4/x2
I0221 09:01:56.531419 42564 net.cpp:406] relu1_4/x2 <- conv1_4/x2/bn
I0221 09:01:56.531425 42564 net.cpp:367] relu1_4/x2 -> conv1_4/x2/bn (in-place)
I0221 09:01:56.531607 42564 net.cpp:122] Setting up relu1_4/x2
I0221 09:01:56.531620 42564 net.cpp:129] Top shape: 1 128 8 21 (21504)
I0221 09:01:56.531622 42564 net.cpp:137] Memory required for data: 33365936
I0221 09:01:56.531625 42564 layer_factory.hpp:77] Creating layer conv1_4/x2
I0221 09:01:56.531633 42564 net.cpp:84] Creating Layer conv1_4/x2
I0221 09:01:56.531636 42564 net.cpp:406] conv1_4/x2 <- conv1_4/x2/bn
I0221 09:01:56.531642 42564 net.cpp:380] conv1_4/x2 -> conv1_4/x2
I0221 09:01:56.535651 42564 net.cpp:122] Setting up conv1_4/x2
I0221 09:01:56.535665 42564 net.cpp:129] Top shape: 1 32 8 21 (5376)
I0221 09:01:56.535668 42564 net.cpp:137] Memory required for data: 33387440
I0221 09:01:56.535673 42564 layer_factory.hpp:77] Creating layer concat1_4
I0221 09:01:56.535681 42564 net.cpp:84] Creating Layer concat1_4
I0221 09:01:56.535684 42564 net.cpp:406] concat1_4 <- concat1_3_concat1_3_0_split_1
I0221 09:01:56.535689 42564 net.cpp:406] concat1_4 <- conv1_4/x2
I0221 09:01:56.535696 42564 net.cpp:380] concat1_4 -> concat1_4
I0221 09:01:56.535727 42564 net.cpp:122] Setting up concat1_4
I0221 09:01:56.535733 42564 net.cpp:129] Top shape: 1 288 8 21 (48384)
I0221 09:01:56.535737 42564 net.cpp:137] Memory required for data: 33580976
I0221 09:01:56.535739 42564 layer_factory.hpp:77] Creating layer concat1_4_concat1_4_0_split
I0221 09:01:56.535743 42564 net.cpp:84] Creating Layer concat1_4_concat1_4_0_split
I0221 09:01:56.535746 42564 net.cpp:406] concat1_4_concat1_4_0_split <- concat1_4
I0221 09:01:56.535751 42564 net.cpp:380] concat1_4_concat1_4_0_split -> concat1_4_concat1_4_0_split_0
I0221 09:01:56.535756 42564 net.cpp:380] concat1_4_concat1_4_0_split -> concat1_4_concat1_4_0_split_1
I0221 09:01:56.535792 42564 net.cpp:122] Setting up concat1_4_concat1_4_0_split
I0221 09:01:56.535797 42564 net.cpp:129] Top shape: 1 288 8 21 (48384)
I0221 09:01:56.535800 42564 net.cpp:129] Top shape: 1 288 8 21 (48384)
I0221 09:01:56.535804 42564 net.cpp:137] Memory required for data: 33968048
I0221 09:01:56.535806 42564 layer_factory.hpp:77] Creating layer conv1_5/x1/bn
I0221 09:01:56.535811 42564 net.cpp:84] Creating Layer conv1_5/x1/bn
I0221 09:01:56.535815 42564 net.cpp:406] conv1_5/x1/bn <- concat1_4_concat1_4_0_split_0
I0221 09:01:56.535820 42564 net.cpp:380] conv1_5/x1/bn -> conv1_5/x1/bn
I0221 09:01:56.536028 42564 net.cpp:122] Setting up conv1_5/x1/bn
I0221 09:01:56.536033 42564 net.cpp:129] Top shape: 1 288 8 21 (48384)
I0221 09:01:56.536036 42564 net.cpp:137] Memory required for data: 34161584
I0221 09:01:56.536042 42564 layer_factory.hpp:77] Creating layer conv1_5/x1/scale
I0221 09:01:56.536049 42564 net.cpp:84] Creating Layer conv1_5/x1/scale
I0221 09:01:56.536052 42564 net.cpp:406] conv1_5/x1/scale <- conv1_5/x1/bn
I0221 09:01:56.536072 42564 net.cpp:367] conv1_5/x1/scale -> conv1_5/x1/bn (in-place)
I0221 09:01:56.536116 42564 layer_factory.hpp:77] Creating layer conv1_5/x1/scale
I0221 09:01:56.536237 42564 net.cpp:122] Setting up conv1_5/x1/scale
I0221 09:01:56.536245 42564 net.cpp:129] Top shape: 1 288 8 21 (48384)
I0221 09:01:56.536248 42564 net.cpp:137] Memory required for data: 34355120
I0221 09:01:56.536254 42564 layer_factory.hpp:77] Creating layer relu1_5/x1
I0221 09:01:56.536259 42564 net.cpp:84] Creating Layer relu1_5/x1
I0221 09:01:56.536262 42564 net.cpp:406] relu1_5/x1 <- conv1_5/x1/bn
I0221 09:01:56.536267 42564 net.cpp:367] relu1_5/x1 -> conv1_5/x1/bn (in-place)
I0221 09:01:56.536504 42564 net.cpp:122] Setting up relu1_5/x1
I0221 09:01:56.536511 42564 net.cpp:129] Top shape: 1 288 8 21 (48384)
I0221 09:01:56.536514 42564 net.cpp:137] Memory required for data: 34548656
I0221 09:01:56.536518 42564 layer_factory.hpp:77] Creating layer conv1_5/x1
I0221 09:01:56.536530 42564 net.cpp:84] Creating Layer conv1_5/x1
I0221 09:01:56.536533 42564 net.cpp:406] conv1_5/x1 <- conv1_5/x1/bn
I0221 09:01:56.536540 42564 net.cpp:380] conv1_5/x1 -> conv1_5/x1
I0221 09:01:56.539000 42564 net.cpp:122] Setting up conv1_5/x1
I0221 09:01:56.539011 42564 net.cpp:129] Top shape: 1 128 8 21 (21504)
I0221 09:01:56.539016 42564 net.cpp:137] Memory required for data: 34634672
I0221 09:01:56.539023 42564 layer_factory.hpp:77] Creating layer conv1_5/x2/bn
I0221 09:01:56.539032 42564 net.cpp:84] Creating Layer conv1_5/x2/bn
I0221 09:01:56.539036 42564 net.cpp:406] conv1_5/x2/bn <- conv1_5/x1
I0221 09:01:56.539042 42564 net.cpp:380] conv1_5/x2/bn -> conv1_5/x2/bn
I0221 09:01:56.539240 42564 net.cpp:122] Setting up conv1_5/x2/bn
I0221 09:01:56.539247 42564 net.cpp:129] Top shape: 1 128 8 21 (21504)
I0221 09:01:56.539249 42564 net.cpp:137] Memory required for data: 34720688
I0221 09:01:56.539255 42564 layer_factory.hpp:77] Creating layer conv1_5/x2/scale
I0221 09:01:56.539266 42564 net.cpp:84] Creating Layer conv1_5/x2/scale
I0221 09:01:56.539270 42564 net.cpp:406] conv1_5/x2/scale <- conv1_5/x2/bn
I0221 09:01:56.539274 42564 net.cpp:367] conv1_5/x2/scale -> conv1_5/x2/bn (in-place)
I0221 09:01:56.539314 42564 layer_factory.hpp:77] Creating layer conv1_5/x2/scale
I0221 09:01:56.539417 42564 net.cpp:122] Setting up conv1_5/x2/scale
I0221 09:01:56.539423 42564 net.cpp:129] Top shape: 1 128 8 21 (21504)
I0221 09:01:56.539425 42564 net.cpp:137] Memory required for data: 34806704
I0221 09:01:56.539432 42564 layer_factory.hpp:77] Creating layer relu1_5/x2
I0221 09:01:56.539438 42564 net.cpp:84] Creating Layer relu1_5/x2
I0221 09:01:56.539441 42564 net.cpp:406] relu1_5/x2 <- conv1_5/x2/bn
I0221 09:01:56.539445 42564 net.cpp:367] relu1_5/x2 -> conv1_5/x2/bn (in-place)
I0221 09:01:56.540359 42564 net.cpp:122] Setting up relu1_5/x2
I0221 09:01:56.540371 42564 net.cpp:129] Top shape: 1 128 8 21 (21504)
I0221 09:01:56.540374 42564 net.cpp:137] Memory required for data: 34892720
I0221 09:01:56.540379 42564 layer_factory.hpp:77] Creating layer conv1_5/x2
I0221 09:01:56.540388 42564 net.cpp:84] Creating Layer conv1_5/x2
I0221 09:01:56.540391 42564 net.cpp:406] conv1_5/x2 <- conv1_5/x2/bn
I0221 09:01:56.540400 42564 net.cpp:380] conv1_5/x2 -> conv1_5/x2
I0221 09:01:56.542839 42564 net.cpp:122] Setting up conv1_5/x2
I0221 09:01:56.542852 42564 net.cpp:129] Top shape: 1 32 8 21 (5376)
I0221 09:01:56.542856 42564 net.cpp:137] Memory required for data: 34914224
I0221 09:01:56.542861 42564 layer_factory.hpp:77] Creating layer concat1_5
I0221 09:01:56.542867 42564 net.cpp:84] Creating Layer concat1_5
I0221 09:01:56.542871 42564 net.cpp:406] concat1_5 <- concat1_4_concat1_4_0_split_1
I0221 09:01:56.542876 42564 net.cpp:406] concat1_5 <- conv1_5/x2
I0221 09:01:56.542881 42564 net.cpp:380] concat1_5 -> concat1_5
I0221 09:01:56.542910 42564 net.cpp:122] Setting up concat1_5
I0221 09:01:56.542915 42564 net.cpp:129] Top shape: 1 320 8 21 (53760)
I0221 09:01:56.542918 42564 net.cpp:137] Memory required for data: 35129264
I0221 09:01:56.542922 42564 layer_factory.hpp:77] Creating layer concat1_5_concat1_5_0_split
I0221 09:01:56.542927 42564 net.cpp:84] Creating Layer concat1_5_concat1_5_0_split
I0221 09:01:56.542929 42564 net.cpp:406] concat1_5_concat1_5_0_split <- concat1_5
I0221 09:01:56.542934 42564 net.cpp:380] concat1_5_concat1_5_0_split -> concat1_5_concat1_5_0_split_0
I0221 09:01:56.542939 42564 net.cpp:380] concat1_5_concat1_5_0_split -> concat1_5_concat1_5_0_split_1
I0221 09:01:56.542975 42564 net.cpp:122] Setting up concat1_5_concat1_5_0_split
I0221 09:01:56.542979 42564 net.cpp:129] Top shape: 1 320 8 21 (53760)
I0221 09:01:56.542984 42564 net.cpp:129] Top shape: 1 320 8 21 (53760)
I0221 09:01:56.542986 42564 net.cpp:137] Memory required for data: 35559344
I0221 09:01:56.542989 42564 layer_factory.hpp:77] Creating layer conv1_6/x1/bn
I0221 09:01:56.542994 42564 net.cpp:84] Creating Layer conv1_6/x1/bn
I0221 09:01:56.542997 42564 net.cpp:406] conv1_6/x1/bn <- concat1_5_concat1_5_0_split_0
I0221 09:01:56.543004 42564 net.cpp:380] conv1_6/x1/bn -> conv1_6/x1/bn
I0221 09:01:56.543215 42564 net.cpp:122] Setting up conv1_6/x1/bn
I0221 09:01:56.543220 42564 net.cpp:129] Top shape: 1 320 8 21 (53760)
I0221 09:01:56.543223 42564 net.cpp:137] Memory required for data: 35774384
I0221 09:01:56.543229 42564 layer_factory.hpp:77] Creating layer conv1_6/x1/scale
I0221 09:01:56.543236 42564 net.cpp:84] Creating Layer conv1_6/x1/scale
I0221 09:01:56.543244 42564 net.cpp:406] conv1_6/x1/scale <- conv1_6/x1/bn
I0221 09:01:56.543249 42564 net.cpp:367] conv1_6/x1/scale -> conv1_6/x1/bn (in-place)
I0221 09:01:56.543292 42564 layer_factory.hpp:77] Creating layer conv1_6/x1/scale
I0221 09:01:56.543412 42564 net.cpp:122] Setting up conv1_6/x1/scale
I0221 09:01:56.543419 42564 net.cpp:129] Top shape: 1 320 8 21 (53760)
I0221 09:01:56.543421 42564 net.cpp:137] Memory required for data: 35989424
I0221 09:01:56.543426 42564 layer_factory.hpp:77] Creating layer relu1_6/x1
I0221 09:01:56.543432 42564 net.cpp:84] Creating Layer relu1_6/x1
I0221 09:01:56.543436 42564 net.cpp:406] relu1_6/x1 <- conv1_6/x1/bn
I0221 09:01:56.543440 42564 net.cpp:367] relu1_6/x1 -> conv1_6/x1/bn (in-place)
I0221 09:01:56.543622 42564 net.cpp:122] Setting up relu1_6/x1
I0221 09:01:56.543628 42564 net.cpp:129] Top shape: 1 320 8 21 (53760)
I0221 09:01:56.543632 42564 net.cpp:137] Memory required for data: 36204464
I0221 09:01:56.543634 42564 layer_factory.hpp:77] Creating layer conv1_6/x1
I0221 09:01:56.543645 42564 net.cpp:84] Creating Layer conv1_6/x1
I0221 09:01:56.543648 42564 net.cpp:406] conv1_6/x1 <- conv1_6/x1/bn
I0221 09:01:56.543654 42564 net.cpp:380] conv1_6/x1 -> conv1_6/x1
I0221 09:01:56.546265 42564 net.cpp:122] Setting up conv1_6/x1
I0221 09:01:56.546278 42564 net.cpp:129] Top shape: 1 128 8 21 (21504)
I0221 09:01:56.546281 42564 net.cpp:137] Memory required for data: 36290480
I0221 09:01:56.546286 42564 layer_factory.hpp:77] Creating layer conv1_6/x2/bn
I0221 09:01:56.546294 42564 net.cpp:84] Creating Layer conv1_6/x2/bn
I0221 09:01:56.546298 42564 net.cpp:406] conv1_6/x2/bn <- conv1_6/x1
I0221 09:01:56.546304 42564 net.cpp:380] conv1_6/x2/bn -> conv1_6/x2/bn
I0221 09:01:56.546507 42564 net.cpp:122] Setting up conv1_6/x2/bn
I0221 09:01:56.546514 42564 net.cpp:129] Top shape: 1 128 8 21 (21504)
I0221 09:01:56.546516 42564 net.cpp:137] Memory required for data: 36376496
I0221 09:01:56.546522 42564 layer_factory.hpp:77] Creating layer conv1_6/x2/scale
I0221 09:01:56.546530 42564 net.cpp:84] Creating Layer conv1_6/x2/scale
I0221 09:01:56.546533 42564 net.cpp:406] conv1_6/x2/scale <- conv1_6/x2/bn
I0221 09:01:56.546537 42564 net.cpp:367] conv1_6/x2/scale -> conv1_6/x2/bn (in-place)
I0221 09:01:56.546577 42564 layer_factory.hpp:77] Creating layer conv1_6/x2/scale
I0221 09:01:56.546680 42564 net.cpp:122] Setting up conv1_6/x2/scale
I0221 09:01:56.546686 42564 net.cpp:129] Top shape: 1 128 8 21 (21504)
I0221 09:01:56.546689 42564 net.cpp:137] Memory required for data: 36462512
I0221 09:01:56.546694 42564 layer_factory.hpp:77] Creating layer relu1_6/x2
I0221 09:01:56.546700 42564 net.cpp:84] Creating Layer relu1_6/x2
I0221 09:01:56.546703 42564 net.cpp:406] relu1_6/x2 <- conv1_6/x2/bn
I0221 09:01:56.546708 42564 net.cpp:367] relu1_6/x2 -> conv1_6/x2/bn (in-place)
I0221 09:01:56.546893 42564 net.cpp:122] Setting up relu1_6/x2
I0221 09:01:56.546900 42564 net.cpp:129] Top shape: 1 128 8 21 (21504)
I0221 09:01:56.546903 42564 net.cpp:137] Memory required for data: 36548528
I0221 09:01:56.546906 42564 layer_factory.hpp:77] Creating layer conv1_6/x2
I0221 09:01:56.546916 42564 net.cpp:84] Creating Layer conv1_6/x2
I0221 09:01:56.546918 42564 net.cpp:406] conv1_6/x2 <- conv1_6/x2/bn
I0221 09:01:56.546924 42564 net.cpp:380] conv1_6/x2 -> conv1_6/x2
I0221 09:01:56.550101 42564 net.cpp:122] Setting up conv1_6/x2
I0221 09:01:56.550115 42564 net.cpp:129] Top shape: 1 32 8 21 (5376)
I0221 09:01:56.550118 42564 net.cpp:137] Memory required for data: 36570032
I0221 09:01:56.550124 42564 layer_factory.hpp:77] Creating layer concat1_6
I0221 09:01:56.550132 42564 net.cpp:84] Creating Layer concat1_6
I0221 09:01:56.550135 42564 net.cpp:406] concat1_6 <- concat1_5_concat1_5_0_split_1
I0221 09:01:56.550140 42564 net.cpp:406] concat1_6 <- conv1_6/x2
I0221 09:01:56.550144 42564 net.cpp:380] concat1_6 -> concat1_6
I0221 09:01:56.550177 42564 net.cpp:122] Setting up concat1_6
I0221 09:01:56.550184 42564 net.cpp:129] Top shape: 1 352 8 21 (59136)
I0221 09:01:56.550185 42564 net.cpp:137] Memory required for data: 36806576
I0221 09:01:56.550190 42564 layer_factory.hpp:77] Creating layer concat1_6_concat1_6_0_split
I0221 09:01:56.550195 42564 net.cpp:84] Creating Layer concat1_6_concat1_6_0_split
I0221 09:01:56.550199 42564 net.cpp:406] concat1_6_concat1_6_0_split <- concat1_6
I0221 09:01:56.550204 42564 net.cpp:380] concat1_6_concat1_6_0_split -> concat1_6_concat1_6_0_split_0
I0221 09:01:56.550209 42564 net.cpp:380] concat1_6_concat1_6_0_split -> concat1_6_concat1_6_0_split_1
I0221 09:01:56.550246 42564 net.cpp:122] Setting up concat1_6_concat1_6_0_split
I0221 09:01:56.550251 42564 net.cpp:129] Top shape: 1 352 8 21 (59136)
I0221 09:01:56.550254 42564 net.cpp:129] Top shape: 1 352 8 21 (59136)
I0221 09:01:56.550257 42564 net.cpp:137] Memory required for data: 37279664
I0221 09:01:56.550261 42564 layer_factory.hpp:77] Creating layer conv1_7/x1/bn
I0221 09:01:56.550266 42564 net.cpp:84] Creating Layer conv1_7/x1/bn
I0221 09:01:56.550268 42564 net.cpp:406] conv1_7/x1/bn <- concat1_6_concat1_6_0_split_0
I0221 09:01:56.550273 42564 net.cpp:380] conv1_7/x1/bn -> conv1_7/x1/bn
I0221 09:01:56.550480 42564 net.cpp:122] Setting up conv1_7/x1/bn
I0221 09:01:56.550487 42564 net.cpp:129] Top shape: 1 352 8 21 (59136)
I0221 09:01:56.550489 42564 net.cpp:137] Memory required for data: 37516208
I0221 09:01:56.550495 42564 layer_factory.hpp:77] Creating layer conv1_7/x1/scale
I0221 09:01:56.550503 42564 net.cpp:84] Creating Layer conv1_7/x1/scale
I0221 09:01:56.550506 42564 net.cpp:406] conv1_7/x1/scale <- conv1_7/x1/bn
I0221 09:01:56.550510 42564 net.cpp:367] conv1_7/x1/scale -> conv1_7/x1/bn (in-place)
I0221 09:01:56.550554 42564 layer_factory.hpp:77] Creating layer conv1_7/x1/scale
I0221 09:01:56.550675 42564 net.cpp:122] Setting up conv1_7/x1/scale
I0221 09:01:56.550681 42564 net.cpp:129] Top shape: 1 352 8 21 (59136)
I0221 09:01:56.550684 42564 net.cpp:137] Memory required for data: 37752752
I0221 09:01:56.550689 42564 layer_factory.hpp:77] Creating layer relu1_7/x1
I0221 09:01:56.550694 42564 net.cpp:84] Creating Layer relu1_7/x1
I0221 09:01:56.550698 42564 net.cpp:406] relu1_7/x1 <- conv1_7/x1/bn
I0221 09:01:56.550704 42564 net.cpp:367] relu1_7/x1 -> conv1_7/x1/bn (in-place)
I0221 09:01:56.550892 42564 net.cpp:122] Setting up relu1_7/x1
I0221 09:01:56.550900 42564 net.cpp:129] Top shape: 1 352 8 21 (59136)
I0221 09:01:56.550904 42564 net.cpp:137] Memory required for data: 37989296
I0221 09:01:56.550906 42564 layer_factory.hpp:77] Creating layer conv1_7/x1
I0221 09:01:56.550917 42564 net.cpp:84] Creating Layer conv1_7/x1
I0221 09:01:56.550920 42564 net.cpp:406] conv1_7/x1 <- conv1_7/x1/bn
I0221 09:01:56.550925 42564 net.cpp:380] conv1_7/x1 -> conv1_7/x1
I0221 09:01:56.553534 42564 net.cpp:122] Setting up conv1_7/x1
I0221 09:01:56.553546 42564 net.cpp:129] Top shape: 1 128 8 21 (21504)
I0221 09:01:56.553550 42564 net.cpp:137] Memory required for data: 38075312
I0221 09:01:56.553555 42564 layer_factory.hpp:77] Creating layer conv1_7/x2/bn
I0221 09:01:56.553562 42564 net.cpp:84] Creating Layer conv1_7/x2/bn
I0221 09:01:56.553566 42564 net.cpp:406] conv1_7/x2/bn <- conv1_7/x1
I0221 09:01:56.553573 42564 net.cpp:380] conv1_7/x2/bn -> conv1_7/x2/bn
I0221 09:01:56.553773 42564 net.cpp:122] Setting up conv1_7/x2/bn
I0221 09:01:56.553779 42564 net.cpp:129] Top shape: 1 128 8 21 (21504)
I0221 09:01:56.553782 42564 net.cpp:137] Memory required for data: 38161328
I0221 09:01:56.553788 42564 layer_factory.hpp:77] Creating layer conv1_7/x2/scale
I0221 09:01:56.553794 42564 net.cpp:84] Creating Layer conv1_7/x2/scale
I0221 09:01:56.553798 42564 net.cpp:406] conv1_7/x2/scale <- conv1_7/x2/bn
I0221 09:01:56.553802 42564 net.cpp:367] conv1_7/x2/scale -> conv1_7/x2/bn (in-place)
I0221 09:01:56.553840 42564 layer_factory.hpp:77] Creating layer conv1_7/x2/scale
I0221 09:01:56.553948 42564 net.cpp:122] Setting up conv1_7/x2/scale
I0221 09:01:56.553956 42564 net.cpp:129] Top shape: 1 128 8 21 (21504)
I0221 09:01:56.553957 42564 net.cpp:137] Memory required for data: 38247344
I0221 09:01:56.553962 42564 layer_factory.hpp:77] Creating layer relu1_7/x2
I0221 09:01:56.553968 42564 net.cpp:84] Creating Layer relu1_7/x2
I0221 09:01:56.553973 42564 net.cpp:406] relu1_7/x2 <- conv1_7/x2/bn
I0221 09:01:56.553983 42564 net.cpp:367] relu1_7/x2 -> conv1_7/x2/bn (in-place)
I0221 09:01:56.554900 42564 net.cpp:122] Setting up relu1_7/x2
I0221 09:01:56.554911 42564 net.cpp:129] Top shape: 1 128 8 21 (21504)
I0221 09:01:56.554914 42564 net.cpp:137] Memory required for data: 38333360
I0221 09:01:56.554919 42564 layer_factory.hpp:77] Creating layer conv1_7/x2
I0221 09:01:56.554927 42564 net.cpp:84] Creating Layer conv1_7/x2
I0221 09:01:56.554931 42564 net.cpp:406] conv1_7/x2 <- conv1_7/x2/bn
I0221 09:01:56.554939 42564 net.cpp:380] conv1_7/x2 -> conv1_7/x2
I0221 09:01:56.557476 42564 net.cpp:122] Setting up conv1_7/x2
I0221 09:01:56.557489 42564 net.cpp:129] Top shape: 1 32 8 21 (5376)
I0221 09:01:56.557492 42564 net.cpp:137] Memory required for data: 38354864
I0221 09:01:56.557497 42564 layer_factory.hpp:77] Creating layer concat1_7
I0221 09:01:56.557505 42564 net.cpp:84] Creating Layer concat1_7
I0221 09:01:56.557509 42564 net.cpp:406] concat1_7 <- concat1_6_concat1_6_0_split_1
I0221 09:01:56.557514 42564 net.cpp:406] concat1_7 <- conv1_7/x2
I0221 09:01:56.557519 42564 net.cpp:380] concat1_7 -> concat1_7
I0221 09:01:56.557549 42564 net.cpp:122] Setting up concat1_7
I0221 09:01:56.557555 42564 net.cpp:129] Top shape: 1 384 8 21 (64512)
I0221 09:01:56.557557 42564 net.cpp:137] Memory required for data: 38612912
I0221 09:01:56.557560 42564 layer_factory.hpp:77] Creating layer concat1_7_concat1_7_0_split
I0221 09:01:56.557565 42564 net.cpp:84] Creating Layer concat1_7_concat1_7_0_split
I0221 09:01:56.557569 42564 net.cpp:406] concat1_7_concat1_7_0_split <- concat1_7
I0221 09:01:56.557574 42564 net.cpp:380] concat1_7_concat1_7_0_split -> concat1_7_concat1_7_0_split_0
I0221 09:01:56.557580 42564 net.cpp:380] concat1_7_concat1_7_0_split -> concat1_7_concat1_7_0_split_1
I0221 09:01:56.557615 42564 net.cpp:122] Setting up concat1_7_concat1_7_0_split
I0221 09:01:56.557621 42564 net.cpp:129] Top shape: 1 384 8 21 (64512)
I0221 09:01:56.557623 42564 net.cpp:129] Top shape: 1 384 8 21 (64512)
I0221 09:01:56.557626 42564 net.cpp:137] Memory required for data: 39129008
I0221 09:01:56.557629 42564 layer_factory.hpp:77] Creating layer conv1_8/x1/bn
I0221 09:01:56.557633 42564 net.cpp:84] Creating Layer conv1_8/x1/bn
I0221 09:01:56.557637 42564 net.cpp:406] conv1_8/x1/bn <- concat1_7_concat1_7_0_split_0
I0221 09:01:56.557642 42564 net.cpp:380] conv1_8/x1/bn -> conv1_8/x1/bn
I0221 09:01:56.557864 42564 net.cpp:122] Setting up conv1_8/x1/bn
I0221 09:01:56.557870 42564 net.cpp:129] Top shape: 1 384 8 21 (64512)
I0221 09:01:56.557873 42564 net.cpp:137] Memory required for data: 39387056
I0221 09:01:56.557879 42564 layer_factory.hpp:77] Creating layer conv1_8/x1/scale
I0221 09:01:56.557888 42564 net.cpp:84] Creating Layer conv1_8/x1/scale
I0221 09:01:56.557891 42564 net.cpp:406] conv1_8/x1/scale <- conv1_8/x1/bn
I0221 09:01:56.557896 42564 net.cpp:367] conv1_8/x1/scale -> conv1_8/x1/bn (in-place)
I0221 09:01:56.557934 42564 layer_factory.hpp:77] Creating layer conv1_8/x1/scale
I0221 09:01:56.558056 42564 net.cpp:122] Setting up conv1_8/x1/scale
I0221 09:01:56.558063 42564 net.cpp:129] Top shape: 1 384 8 21 (64512)
I0221 09:01:56.558065 42564 net.cpp:137] Memory required for data: 39645104
I0221 09:01:56.558070 42564 layer_factory.hpp:77] Creating layer relu1_8/x1
I0221 09:01:56.558076 42564 net.cpp:84] Creating Layer relu1_8/x1
I0221 09:01:56.558079 42564 net.cpp:406] relu1_8/x1 <- conv1_8/x1/bn
I0221 09:01:56.558084 42564 net.cpp:367] relu1_8/x1 -> conv1_8/x1/bn (in-place)
I0221 09:01:56.558284 42564 net.cpp:122] Setting up relu1_8/x1
I0221 09:01:56.558290 42564 net.cpp:129] Top shape: 1 384 8 21 (64512)
I0221 09:01:56.558293 42564 net.cpp:137] Memory required for data: 39903152
I0221 09:01:56.558296 42564 layer_factory.hpp:77] Creating layer conv1_8/x1
I0221 09:01:56.558305 42564 net.cpp:84] Creating Layer conv1_8/x1
I0221 09:01:56.558308 42564 net.cpp:406] conv1_8/x1 <- conv1_8/x1/bn
I0221 09:01:56.558315 42564 net.cpp:380] conv1_8/x1 -> conv1_8/x1
I0221 09:01:56.561089 42564 net.cpp:122] Setting up conv1_8/x1
I0221 09:01:56.561102 42564 net.cpp:129] Top shape: 1 128 8 21 (21504)
I0221 09:01:56.561106 42564 net.cpp:137] Memory required for data: 39989168
I0221 09:01:56.561111 42564 layer_factory.hpp:77] Creating layer conv1_8/x2/bn
I0221 09:01:56.561118 42564 net.cpp:84] Creating Layer conv1_8/x2/bn
I0221 09:01:56.561121 42564 net.cpp:406] conv1_8/x2/bn <- conv1_8/x1
I0221 09:01:56.561128 42564 net.cpp:380] conv1_8/x2/bn -> conv1_8/x2/bn
I0221 09:01:56.561333 42564 net.cpp:122] Setting up conv1_8/x2/bn
I0221 09:01:56.561341 42564 net.cpp:129] Top shape: 1 128 8 21 (21504)
I0221 09:01:56.561343 42564 net.cpp:137] Memory required for data: 40075184
I0221 09:01:56.561349 42564 layer_factory.hpp:77] Creating layer conv1_8/x2/scale
I0221 09:01:56.561357 42564 net.cpp:84] Creating Layer conv1_8/x2/scale
I0221 09:01:56.561362 42564 net.cpp:406] conv1_8/x2/scale <- conv1_8/x2/bn
I0221 09:01:56.561365 42564 net.cpp:367] conv1_8/x2/scale -> conv1_8/x2/bn (in-place)
I0221 09:01:56.561404 42564 layer_factory.hpp:77] Creating layer conv1_8/x2/scale
I0221 09:01:56.561511 42564 net.cpp:122] Setting up conv1_8/x2/scale
I0221 09:01:56.561517 42564 net.cpp:129] Top shape: 1 128 8 21 (21504)
I0221 09:01:56.561519 42564 net.cpp:137] Memory required for data: 40161200
I0221 09:01:56.561524 42564 layer_factory.hpp:77] Creating layer relu1_8/x2
I0221 09:01:56.561529 42564 net.cpp:84] Creating Layer relu1_8/x2
I0221 09:01:56.561532 42564 net.cpp:406] relu1_8/x2 <- conv1_8/x2/bn
I0221 09:01:56.561537 42564 net.cpp:367] relu1_8/x2 -> conv1_8/x2/bn (in-place)
I0221 09:01:56.561722 42564 net.cpp:122] Setting up relu1_8/x2
I0221 09:01:56.561730 42564 net.cpp:129] Top shape: 1 128 8 21 (21504)
I0221 09:01:56.561733 42564 net.cpp:137] Memory required for data: 40247216
I0221 09:01:56.561736 42564 layer_factory.hpp:77] Creating layer conv1_8/x2
I0221 09:01:56.561745 42564 net.cpp:84] Creating Layer conv1_8/x2
I0221 09:01:56.561748 42564 net.cpp:406] conv1_8/x2 <- conv1_8/x2/bn
I0221 09:01:56.561754 42564 net.cpp:380] conv1_8/x2 -> conv1_8/x2
I0221 09:01:56.565019 42564 net.cpp:122] Setting up conv1_8/x2
I0221 09:01:56.565032 42564 net.cpp:129] Top shape: 1 32 8 21 (5376)
I0221 09:01:56.565037 42564 net.cpp:137] Memory required for data: 40268720
I0221 09:01:56.565042 42564 layer_factory.hpp:77] Creating layer concat1_8
I0221 09:01:56.565049 42564 net.cpp:84] Creating Layer concat1_8
I0221 09:01:56.565053 42564 net.cpp:406] concat1_8 <- concat1_7_concat1_7_0_split_1
I0221 09:01:56.565057 42564 net.cpp:406] concat1_8 <- conv1_8/x2
I0221 09:01:56.565062 42564 net.cpp:380] concat1_8 -> concat1_8
I0221 09:01:56.565095 42564 net.cpp:122] Setting up concat1_8
I0221 09:01:56.565101 42564 net.cpp:129] Top shape: 1 416 8 21 (69888)
I0221 09:01:56.565104 42564 net.cpp:137] Memory required for data: 40548272
I0221 09:01:56.565107 42564 layer_factory.hpp:77] Creating layer concat1_8_concat1_8_0_split
I0221 09:01:56.565111 42564 net.cpp:84] Creating Layer concat1_8_concat1_8_0_split
I0221 09:01:56.565114 42564 net.cpp:406] concat1_8_concat1_8_0_split <- concat1_8
I0221 09:01:56.565120 42564 net.cpp:380] concat1_8_concat1_8_0_split -> concat1_8_concat1_8_0_split_0
I0221 09:01:56.565125 42564 net.cpp:380] concat1_8_concat1_8_0_split -> concat1_8_concat1_8_0_split_1
I0221 09:01:56.565161 42564 net.cpp:122] Setting up concat1_8_concat1_8_0_split
I0221 09:01:56.565166 42564 net.cpp:129] Top shape: 1 416 8 21 (69888)
I0221 09:01:56.565170 42564 net.cpp:129] Top shape: 1 416 8 21 (69888)
I0221 09:01:56.565172 42564 net.cpp:137] Memory required for data: 41107376
I0221 09:01:56.565176 42564 layer_factory.hpp:77] Creating layer conv1_9/x1/bn
I0221 09:01:56.565181 42564 net.cpp:84] Creating Layer conv1_9/x1/bn
I0221 09:01:56.565184 42564 net.cpp:406] conv1_9/x1/bn <- concat1_8_concat1_8_0_split_0
I0221 09:01:56.565191 42564 net.cpp:380] conv1_9/x1/bn -> conv1_9/x1/bn
I0221 09:01:56.565392 42564 net.cpp:122] Setting up conv1_9/x1/bn
I0221 09:01:56.565398 42564 net.cpp:129] Top shape: 1 416 8 21 (69888)
I0221 09:01:56.565403 42564 net.cpp:137] Memory required for data: 41386928
I0221 09:01:56.565410 42564 layer_factory.hpp:77] Creating layer conv1_9/x1/scale
I0221 09:01:56.565416 42564 net.cpp:84] Creating Layer conv1_9/x1/scale
I0221 09:01:56.565420 42564 net.cpp:406] conv1_9/x1/scale <- conv1_9/x1/bn
I0221 09:01:56.565424 42564 net.cpp:367] conv1_9/x1/scale -> conv1_9/x1/bn (in-place)
I0221 09:01:56.565469 42564 layer_factory.hpp:77] Creating layer conv1_9/x1/scale
I0221 09:01:56.565593 42564 net.cpp:122] Setting up conv1_9/x1/scale
I0221 09:01:56.565599 42564 net.cpp:129] Top shape: 1 416 8 21 (69888)
I0221 09:01:56.565603 42564 net.cpp:137] Memory required for data: 41666480
I0221 09:01:56.565608 42564 layer_factory.hpp:77] Creating layer relu1_9/x1
I0221 09:01:56.565613 42564 net.cpp:84] Creating Layer relu1_9/x1
I0221 09:01:56.565616 42564 net.cpp:406] relu1_9/x1 <- conv1_9/x1/bn
I0221 09:01:56.565620 42564 net.cpp:367] relu1_9/x1 -> conv1_9/x1/bn (in-place)
I0221 09:01:56.566545 42564 net.cpp:122] Setting up relu1_9/x1
I0221 09:01:56.566557 42564 net.cpp:129] Top shape: 1 416 8 21 (69888)
I0221 09:01:56.566560 42564 net.cpp:137] Memory required for data: 41946032
I0221 09:01:56.566565 42564 layer_factory.hpp:77] Creating layer conv1_9/x1
I0221 09:01:56.566573 42564 net.cpp:84] Creating Layer conv1_9/x1
I0221 09:01:56.566577 42564 net.cpp:406] conv1_9/x1 <- conv1_9/x1/bn
I0221 09:01:56.566584 42564 net.cpp:380] conv1_9/x1 -> conv1_9/x1
I0221 09:01:56.569494 42564 net.cpp:122] Setting up conv1_9/x1
I0221 09:01:56.569506 42564 net.cpp:129] Top shape: 1 128 8 21 (21504)
I0221 09:01:56.569509 42564 net.cpp:137] Memory required for data: 42032048
I0221 09:01:56.569514 42564 layer_factory.hpp:77] Creating layer conv1_9/x2/bn
I0221 09:01:56.569522 42564 net.cpp:84] Creating Layer conv1_9/x2/bn
I0221 09:01:56.569526 42564 net.cpp:406] conv1_9/x2/bn <- conv1_9/x1
I0221 09:01:56.569532 42564 net.cpp:380] conv1_9/x2/bn -> conv1_9/x2/bn
I0221 09:01:56.569735 42564 net.cpp:122] Setting up conv1_9/x2/bn
I0221 09:01:56.569741 42564 net.cpp:129] Top shape: 1 128 8 21 (21504)
I0221 09:01:56.569743 42564 net.cpp:137] Memory required for data: 42118064
I0221 09:01:56.569751 42564 layer_factory.hpp:77] Creating layer conv1_9/x2/scale
I0221 09:01:56.569756 42564 net.cpp:84] Creating Layer conv1_9/x2/scale
I0221 09:01:56.569759 42564 net.cpp:406] conv1_9/x2/scale <- conv1_9/x2/bn
I0221 09:01:56.569764 42564 net.cpp:367] conv1_9/x2/scale -> conv1_9/x2/bn (in-place)
I0221 09:01:56.569803 42564 layer_factory.hpp:77] Creating layer conv1_9/x2/scale
I0221 09:01:56.569908 42564 net.cpp:122] Setting up conv1_9/x2/scale
I0221 09:01:56.569916 42564 net.cpp:129] Top shape: 1 128 8 21 (21504)
I0221 09:01:56.569918 42564 net.cpp:137] Memory required for data: 42204080
I0221 09:01:56.569923 42564 layer_factory.hpp:77] Creating layer relu1_9/x2
I0221 09:01:56.569928 42564 net.cpp:84] Creating Layer relu1_9/x2
I0221 09:01:56.569932 42564 net.cpp:406] relu1_9/x2 <- conv1_9/x2/bn
I0221 09:01:56.569936 42564 net.cpp:367] relu1_9/x2 -> conv1_9/x2/bn (in-place)
I0221 09:01:56.570127 42564 net.cpp:122] Setting up relu1_9/x2
I0221 09:01:56.570135 42564 net.cpp:129] Top shape: 1 128 8 21 (21504)
I0221 09:01:56.570138 42564 net.cpp:137] Memory required for data: 42290096
I0221 09:01:56.570142 42564 layer_factory.hpp:77] Creating layer conv1_9/x2
I0221 09:01:56.570150 42564 net.cpp:84] Creating Layer conv1_9/x2
I0221 09:01:56.570154 42564 net.cpp:406] conv1_9/x2 <- conv1_9/x2/bn
I0221 09:01:56.570160 42564 net.cpp:380] conv1_9/x2 -> conv1_9/x2
I0221 09:01:56.572571 42564 net.cpp:122] Setting up conv1_9/x2
I0221 09:01:56.572584 42564 net.cpp:129] Top shape: 1 32 8 21 (5376)
I0221 09:01:56.572587 42564 net.cpp:137] Memory required for data: 42311600
I0221 09:01:56.572592 42564 layer_factory.hpp:77] Creating layer concat1_9
I0221 09:01:56.572599 42564 net.cpp:84] Creating Layer concat1_9
I0221 09:01:56.572603 42564 net.cpp:406] concat1_9 <- concat1_8_concat1_8_0_split_1
I0221 09:01:56.572608 42564 net.cpp:406] concat1_9 <- conv1_9/x2
I0221 09:01:56.572613 42564 net.cpp:380] concat1_9 -> concat1_9
I0221 09:01:56.572652 42564 net.cpp:122] Setting up concat1_9
I0221 09:01:56.572659 42564 net.cpp:129] Top shape: 1 448 8 21 (75264)
I0221 09:01:56.572661 42564 net.cpp:137] Memory required for data: 42612656
I0221 09:01:56.572664 42564 layer_factory.hpp:77] Creating layer concat1_9_concat1_9_0_split
I0221 09:01:56.572669 42564 net.cpp:84] Creating Layer concat1_9_concat1_9_0_split
I0221 09:01:56.572672 42564 net.cpp:406] concat1_9_concat1_9_0_split <- concat1_9
I0221 09:01:56.572676 42564 net.cpp:380] concat1_9_concat1_9_0_split -> concat1_9_concat1_9_0_split_0
I0221 09:01:56.572684 42564 net.cpp:380] concat1_9_concat1_9_0_split -> concat1_9_concat1_9_0_split_1
I0221 09:01:56.572718 42564 net.cpp:122] Setting up concat1_9_concat1_9_0_split
I0221 09:01:56.572723 42564 net.cpp:129] Top shape: 1 448 8 21 (75264)
I0221 09:01:56.572727 42564 net.cpp:129] Top shape: 1 448 8 21 (75264)
I0221 09:01:56.572729 42564 net.cpp:137] Memory required for data: 43214768
I0221 09:01:56.572732 42564 layer_factory.hpp:77] Creating layer conv1_10/x1/bn
I0221 09:01:56.572738 42564 net.cpp:84] Creating Layer conv1_10/x1/bn
I0221 09:01:56.572742 42564 net.cpp:406] conv1_10/x1/bn <- concat1_9_concat1_9_0_split_0
I0221 09:01:56.572747 42564 net.cpp:380] conv1_10/x1/bn -> conv1_10/x1/bn
I0221 09:01:56.572963 42564 net.cpp:122] Setting up conv1_10/x1/bn
I0221 09:01:56.572968 42564 net.cpp:129] Top shape: 1 448 8 21 (75264)
I0221 09:01:56.572971 42564 net.cpp:137] Memory required for data: 43515824
I0221 09:01:56.572978 42564 layer_factory.hpp:77] Creating layer conv1_10/x1/scale
I0221 09:01:56.572984 42564 net.cpp:84] Creating Layer conv1_10/x1/scale
I0221 09:01:56.572988 42564 net.cpp:406] conv1_10/x1/scale <- conv1_10/x1/bn
I0221 09:01:56.572993 42564 net.cpp:367] conv1_10/x1/scale -> conv1_10/x1/bn (in-place)
I0221 09:01:56.573035 42564 layer_factory.hpp:77] Creating layer conv1_10/x1/scale
I0221 09:01:56.573153 42564 net.cpp:122] Setting up conv1_10/x1/scale
I0221 09:01:56.573159 42564 net.cpp:129] Top shape: 1 448 8 21 (75264)
I0221 09:01:56.573161 42564 net.cpp:137] Memory required for data: 43816880
I0221 09:01:56.573168 42564 layer_factory.hpp:77] Creating layer relu1_10/x1
I0221 09:01:56.573173 42564 net.cpp:84] Creating Layer relu1_10/x1
I0221 09:01:56.573175 42564 net.cpp:406] relu1_10/x1 <- conv1_10/x1/bn
I0221 09:01:56.573179 42564 net.cpp:367] relu1_10/x1 -> conv1_10/x1/bn (in-place)
I0221 09:01:56.573371 42564 net.cpp:122] Setting up relu1_10/x1
I0221 09:01:56.573379 42564 net.cpp:129] Top shape: 1 448 8 21 (75264)
I0221 09:01:56.573381 42564 net.cpp:137] Memory required for data: 44117936
I0221 09:01:56.573385 42564 layer_factory.hpp:77] Creating layer conv1_10/x1
I0221 09:01:56.573393 42564 net.cpp:84] Creating Layer conv1_10/x1
I0221 09:01:56.573396 42564 net.cpp:406] conv1_10/x1 <- conv1_10/x1/bn
I0221 09:01:56.573402 42564 net.cpp:380] conv1_10/x1 -> conv1_10/x1
I0221 09:01:56.577611 42564 net.cpp:122] Setting up conv1_10/x1
I0221 09:01:56.577625 42564 net.cpp:129] Top shape: 1 128 8 21 (21504)
I0221 09:01:56.577627 42564 net.cpp:137] Memory required for data: 44203952
I0221 09:01:56.577633 42564 layer_factory.hpp:77] Creating layer conv1_10/x2/bn
I0221 09:01:56.577643 42564 net.cpp:84] Creating Layer conv1_10/x2/bn
I0221 09:01:56.577647 42564 net.cpp:406] conv1_10/x2/bn <- conv1_10/x1
I0221 09:01:56.577654 42564 net.cpp:380] conv1_10/x2/bn -> conv1_10/x2/bn
I0221 09:01:56.577864 42564 net.cpp:122] Setting up conv1_10/x2/bn
I0221 09:01:56.577870 42564 net.cpp:129] Top shape: 1 128 8 21 (21504)
I0221 09:01:56.577873 42564 net.cpp:137] Memory required for data: 44289968
I0221 09:01:56.577880 42564 layer_factory.hpp:77] Creating layer conv1_10/x2/scale
I0221 09:01:56.577886 42564 net.cpp:84] Creating Layer conv1_10/x2/scale
I0221 09:01:56.577890 42564 net.cpp:406] conv1_10/x2/scale <- conv1_10/x2/bn
I0221 09:01:56.577894 42564 net.cpp:367] conv1_10/x2/scale -> conv1_10/x2/bn (in-place)
I0221 09:01:56.577936 42564 layer_factory.hpp:77] Creating layer conv1_10/x2/scale
I0221 09:01:56.578045 42564 net.cpp:122] Setting up conv1_10/x2/scale
I0221 09:01:56.578055 42564 net.cpp:129] Top shape: 1 128 8 21 (21504)
I0221 09:01:56.578058 42564 net.cpp:137] Memory required for data: 44375984
I0221 09:01:56.578063 42564 layer_factory.hpp:77] Creating layer relu1_10/x2
I0221 09:01:56.578068 42564 net.cpp:84] Creating Layer relu1_10/x2
I0221 09:01:56.578071 42564 net.cpp:406] relu1_10/x2 <- conv1_10/x2/bn
I0221 09:01:56.578078 42564 net.cpp:367] relu1_10/x2 -> conv1_10/x2/bn (in-place)
I0221 09:01:56.579001 42564 net.cpp:122] Setting up relu1_10/x2
I0221 09:01:56.579013 42564 net.cpp:129] Top shape: 1 128 8 21 (21504)
I0221 09:01:56.579016 42564 net.cpp:137] Memory required for data: 44462000
I0221 09:01:56.579020 42564 layer_factory.hpp:77] Creating layer conv1_10/x2
I0221 09:01:56.579030 42564 net.cpp:84] Creating Layer conv1_10/x2
I0221 09:01:56.579033 42564 net.cpp:406] conv1_10/x2 <- conv1_10/x2/bn
I0221 09:01:56.579041 42564 net.cpp:380] conv1_10/x2 -> conv1_10/x2
I0221 09:01:56.582362 42564 net.cpp:122] Setting up conv1_10/x2
I0221 09:01:56.582376 42564 net.cpp:129] Top shape: 1 32 8 21 (5376)
I0221 09:01:56.582378 42564 net.cpp:137] Memory required for data: 44483504
I0221 09:01:56.582384 42564 layer_factory.hpp:77] Creating layer concat1_10
I0221 09:01:56.582394 42564 net.cpp:84] Creating Layer concat1_10
I0221 09:01:56.582398 42564 net.cpp:406] concat1_10 <- concat1_9_concat1_9_0_split_1
I0221 09:01:56.582403 42564 net.cpp:406] concat1_10 <- conv1_10/x2
I0221 09:01:56.582408 42564 net.cpp:380] concat1_10 -> concat1_10
I0221 09:01:56.582448 42564 net.cpp:122] Setting up concat1_10
I0221 09:01:56.582455 42564 net.cpp:129] Top shape: 1 480 8 21 (80640)
I0221 09:01:56.582458 42564 net.cpp:137] Memory required for data: 44806064
I0221 09:01:56.582460 42564 layer_factory.hpp:77] Creating layer concat1_10_concat1_10_0_split
I0221 09:01:56.582465 42564 net.cpp:84] Creating Layer concat1_10_concat1_10_0_split
I0221 09:01:56.582468 42564 net.cpp:406] concat1_10_concat1_10_0_split <- concat1_10
I0221 09:01:56.582474 42564 net.cpp:380] concat1_10_concat1_10_0_split -> concat1_10_concat1_10_0_split_0
I0221 09:01:56.582479 42564 net.cpp:380] concat1_10_concat1_10_0_split -> concat1_10_concat1_10_0_split_1
I0221 09:01:56.582516 42564 net.cpp:122] Setting up concat1_10_concat1_10_0_split
I0221 09:01:56.582522 42564 net.cpp:129] Top shape: 1 480 8 21 (80640)
I0221 09:01:56.582525 42564 net.cpp:129] Top shape: 1 480 8 21 (80640)
I0221 09:01:56.582528 42564 net.cpp:137] Memory required for data: 45451184
I0221 09:01:56.582530 42564 layer_factory.hpp:77] Creating layer conv1_11/x1/bn
I0221 09:01:56.582537 42564 net.cpp:84] Creating Layer conv1_11/x1/bn
I0221 09:01:56.582540 42564 net.cpp:406] conv1_11/x1/bn <- concat1_10_concat1_10_0_split_0
I0221 09:01:56.582546 42564 net.cpp:380] conv1_11/x1/bn -> conv1_11/x1/bn
I0221 09:01:56.582763 42564 net.cpp:122] Setting up conv1_11/x1/bn
I0221 09:01:56.582769 42564 net.cpp:129] Top shape: 1 480 8 21 (80640)
I0221 09:01:56.582772 42564 net.cpp:137] Memory required for data: 45773744
I0221 09:01:56.582778 42564 layer_factory.hpp:77] Creating layer conv1_11/x1/scale
I0221 09:01:56.582784 42564 net.cpp:84] Creating Layer conv1_11/x1/scale
I0221 09:01:56.582788 42564 net.cpp:406] conv1_11/x1/scale <- conv1_11/x1/bn
I0221 09:01:56.582793 42564 net.cpp:367] conv1_11/x1/scale -> conv1_11/x1/bn (in-place)
I0221 09:01:56.582839 42564 layer_factory.hpp:77] Creating layer conv1_11/x1/scale
I0221 09:01:56.582963 42564 net.cpp:122] Setting up conv1_11/x1/scale
I0221 09:01:56.582970 42564 net.cpp:129] Top shape: 1 480 8 21 (80640)
I0221 09:01:56.582973 42564 net.cpp:137] Memory required for data: 46096304
I0221 09:01:56.582978 42564 layer_factory.hpp:77] Creating layer relu1_11/x1
I0221 09:01:56.582983 42564 net.cpp:84] Creating Layer relu1_11/x1
I0221 09:01:56.582986 42564 net.cpp:406] relu1_11/x1 <- conv1_11/x1/bn
I0221 09:01:56.582990 42564 net.cpp:367] relu1_11/x1 -> conv1_11/x1/bn (in-place)
I0221 09:01:56.583187 42564 net.cpp:122] Setting up relu1_11/x1
I0221 09:01:56.583195 42564 net.cpp:129] Top shape: 1 480 8 21 (80640)
I0221 09:01:56.583201 42564 net.cpp:137] Memory required for data: 46418864
I0221 09:01:56.583204 42564 layer_factory.hpp:77] Creating layer conv1_11/x1
I0221 09:01:56.583215 42564 net.cpp:84] Creating Layer conv1_11/x1
I0221 09:01:56.583220 42564 net.cpp:406] conv1_11/x1 <- conv1_11/x1/bn
I0221 09:01:56.583225 42564 net.cpp:380] conv1_11/x1 -> conv1_11/x1
I0221 09:01:56.586418 42564 net.cpp:122] Setting up conv1_11/x1
I0221 09:01:56.586431 42564 net.cpp:129] Top shape: 1 128 8 21 (21504)
I0221 09:01:56.586434 42564 net.cpp:137] Memory required for data: 46504880
I0221 09:01:56.586439 42564 layer_factory.hpp:77] Creating layer conv1_11/x2/bn
I0221 09:01:56.586447 42564 net.cpp:84] Creating Layer conv1_11/x2/bn
I0221 09:01:56.586450 42564 net.cpp:406] conv1_11/x2/bn <- conv1_11/x1
I0221 09:01:56.586457 42564 net.cpp:380] conv1_11/x2/bn -> conv1_11/x2/bn
I0221 09:01:56.586671 42564 net.cpp:122] Setting up conv1_11/x2/bn
I0221 09:01:56.586678 42564 net.cpp:129] Top shape: 1 128 8 21 (21504)
I0221 09:01:56.586680 42564 net.cpp:137] Memory required for data: 46590896
I0221 09:01:56.586686 42564 layer_factory.hpp:77] Creating layer conv1_11/x2/scale
I0221 09:01:56.586694 42564 net.cpp:84] Creating Layer conv1_11/x2/scale
I0221 09:01:56.586696 42564 net.cpp:406] conv1_11/x2/scale <- conv1_11/x2/bn
I0221 09:01:56.586702 42564 net.cpp:367] conv1_11/x2/scale -> conv1_11/x2/bn (in-place)
I0221 09:01:56.586740 42564 layer_factory.hpp:77] Creating layer conv1_11/x2/scale
I0221 09:01:56.586855 42564 net.cpp:122] Setting up conv1_11/x2/scale
I0221 09:01:56.586860 42564 net.cpp:129] Top shape: 1 128 8 21 (21504)
I0221 09:01:56.586863 42564 net.cpp:137] Memory required for data: 46676912
I0221 09:01:56.586869 42564 layer_factory.hpp:77] Creating layer relu1_11/x2
I0221 09:01:56.586874 42564 net.cpp:84] Creating Layer relu1_11/x2
I0221 09:01:56.586877 42564 net.cpp:406] relu1_11/x2 <- conv1_11/x2/bn
I0221 09:01:56.586881 42564 net.cpp:367] relu1_11/x2 -> conv1_11/x2/bn (in-place)
I0221 09:01:56.587074 42564 net.cpp:122] Setting up relu1_11/x2
I0221 09:01:56.587082 42564 net.cpp:129] Top shape: 1 128 8 21 (21504)
I0221 09:01:56.587085 42564 net.cpp:137] Memory required for data: 46762928
I0221 09:01:56.587088 42564 layer_factory.hpp:77] Creating layer conv1_11/x2
I0221 09:01:56.587098 42564 net.cpp:84] Creating Layer conv1_11/x2
I0221 09:01:56.587101 42564 net.cpp:406] conv1_11/x2 <- conv1_11/x2/bn
I0221 09:01:56.587108 42564 net.cpp:380] conv1_11/x2 -> conv1_11/x2
I0221 09:01:56.589555 42564 net.cpp:122] Setting up conv1_11/x2
I0221 09:01:56.589566 42564 net.cpp:129] Top shape: 1 32 8 21 (5376)
I0221 09:01:56.589570 42564 net.cpp:137] Memory required for data: 46784432
I0221 09:01:56.589576 42564 layer_factory.hpp:77] Creating layer concat1_11
I0221 09:01:56.589582 42564 net.cpp:84] Creating Layer concat1_11
I0221 09:01:56.589586 42564 net.cpp:406] concat1_11 <- concat1_10_concat1_10_0_split_1
I0221 09:01:56.589592 42564 net.cpp:406] concat1_11 <- conv1_11/x2
I0221 09:01:56.589597 42564 net.cpp:380] concat1_11 -> concat1_11
I0221 09:01:56.589627 42564 net.cpp:122] Setting up concat1_11
I0221 09:01:56.589632 42564 net.cpp:129] Top shape: 1 512 8 21 (86016)
I0221 09:01:56.589635 42564 net.cpp:137] Memory required for data: 47128496
I0221 09:01:56.589637 42564 layer_factory.hpp:77] Creating layer BatchNorm2
I0221 09:01:56.589645 42564 net.cpp:84] Creating Layer BatchNorm2
I0221 09:01:56.589648 42564 net.cpp:406] BatchNorm2 <- concat1_11
I0221 09:01:56.589654 42564 net.cpp:380] BatchNorm2 -> BatchNorm2
I0221 09:01:56.589886 42564 net.cpp:122] Setting up BatchNorm2
I0221 09:01:56.589892 42564 net.cpp:129] Top shape: 1 512 8 21 (86016)
I0221 09:01:56.589895 42564 net.cpp:137] Memory required for data: 47472560
I0221 09:01:56.589902 42564 layer_factory.hpp:77] Creating layer Scale2
I0221 09:01:56.589908 42564 net.cpp:84] Creating Layer Scale2
I0221 09:01:56.589912 42564 net.cpp:406] Scale2 <- BatchNorm2
I0221 09:01:56.589916 42564 net.cpp:367] Scale2 -> BatchNorm2 (in-place)
I0221 09:01:56.589957 42564 layer_factory.hpp:77] Creating layer Scale2
I0221 09:01:56.590085 42564 net.cpp:122] Setting up Scale2
I0221 09:01:56.590091 42564 net.cpp:129] Top shape: 1 512 8 21 (86016)
I0221 09:01:56.590095 42564 net.cpp:137] Memory required for data: 47816624
I0221 09:01:56.590100 42564 layer_factory.hpp:77] Creating layer ReLU2
I0221 09:01:56.590107 42564 net.cpp:84] Creating Layer ReLU2
I0221 09:01:56.590111 42564 net.cpp:406] ReLU2 <- BatchNorm2
I0221 09:01:56.590114 42564 net.cpp:367] ReLU2 -> BatchNorm2 (in-place)
I0221 09:01:56.590325 42564 net.cpp:122] Setting up ReLU2
I0221 09:01:56.590332 42564 net.cpp:129] Top shape: 1 512 8 21 (86016)
I0221 09:01:56.590335 42564 net.cpp:137] Memory required for data: 48160688
I0221 09:01:56.590338 42564 layer_factory.hpp:77] Creating layer conv1_blk
I0221 09:01:56.590349 42564 net.cpp:84] Creating Layer conv1_blk
I0221 09:01:56.590353 42564 net.cpp:406] conv1_blk <- BatchNorm2
I0221 09:01:56.590358 42564 net.cpp:380] conv1_blk -> conv1_blk
I0221 09:01:56.596326 42564 net.cpp:122] Setting up conv1_blk
I0221 09:01:56.596339 42564 net.cpp:129] Top shape: 1 256 8 21 (43008)
I0221 09:01:56.596343 42564 net.cpp:137] Memory required for data: 48332720
I0221 09:01:56.596364 42564 layer_factory.hpp:77] Creating layer pool1
I0221 09:01:56.596371 42564 net.cpp:84] Creating Layer pool1
I0221 09:01:56.596375 42564 net.cpp:406] pool1 <- conv1_blk
I0221 09:01:56.596384 42564 net.cpp:380] pool1 -> pool1
I0221 09:01:56.597384 42564 net.cpp:122] Setting up pool1
I0221 09:01:56.597398 42564 net.cpp:129] Top shape: 1 256 4 11 (11264)
I0221 09:01:56.597400 42564 net.cpp:137] Memory required for data: 48377776
I0221 09:01:56.597404 42564 layer_factory.hpp:77] Creating layer pool1_pool1_0_split
I0221 09:01:56.597409 42564 net.cpp:84] Creating Layer pool1_pool1_0_split
I0221 09:01:56.597414 42564 net.cpp:406] pool1_pool1_0_split <- pool1
I0221 09:01:56.597419 42564 net.cpp:380] pool1_pool1_0_split -> pool1_pool1_0_split_0
I0221 09:01:56.597424 42564 net.cpp:380] pool1_pool1_0_split -> pool1_pool1_0_split_1
I0221 09:01:56.597468 42564 net.cpp:122] Setting up pool1_pool1_0_split
I0221 09:01:56.597473 42564 net.cpp:129] Top shape: 1 256 4 11 (11264)
I0221 09:01:56.597477 42564 net.cpp:129] Top shape: 1 256 4 11 (11264)
I0221 09:01:56.597479 42564 net.cpp:137] Memory required for data: 48467888
I0221 09:01:56.597482 42564 layer_factory.hpp:77] Creating layer conv2_0/x1/bn
I0221 09:01:56.597489 42564 net.cpp:84] Creating Layer conv2_0/x1/bn
I0221 09:01:56.597492 42564 net.cpp:406] conv2_0/x1/bn <- pool1_pool1_0_split_0
I0221 09:01:56.597497 42564 net.cpp:380] conv2_0/x1/bn -> conv2_0/x1/bn
I0221 09:01:56.597717 42564 net.cpp:122] Setting up conv2_0/x1/bn
I0221 09:01:56.597723 42564 net.cpp:129] Top shape: 1 256 4 11 (11264)
I0221 09:01:56.597724 42564 net.cpp:137] Memory required for data: 48512944
I0221 09:01:56.597731 42564 layer_factory.hpp:77] Creating layer conv2_0/x1/scale
I0221 09:01:56.597755 42564 net.cpp:84] Creating Layer conv2_0/x1/scale
I0221 09:01:56.597759 42564 net.cpp:406] conv2_0/x1/scale <- conv2_0/x1/bn
I0221 09:01:56.597764 42564 net.cpp:367] conv2_0/x1/scale -> conv2_0/x1/bn (in-place)
I0221 09:01:56.597806 42564 layer_factory.hpp:77] Creating layer conv2_0/x1/scale
I0221 09:01:56.597929 42564 net.cpp:122] Setting up conv2_0/x1/scale
I0221 09:01:56.597936 42564 net.cpp:129] Top shape: 1 256 4 11 (11264)
I0221 09:01:56.597939 42564 net.cpp:137] Memory required for data: 48558000
I0221 09:01:56.597944 42564 layer_factory.hpp:77] Creating layer relu2_0/x1
I0221 09:01:56.597951 42564 net.cpp:84] Creating Layer relu2_0/x1
I0221 09:01:56.597954 42564 net.cpp:406] relu2_0/x1 <- conv2_0/x1/bn
I0221 09:01:56.597959 42564 net.cpp:367] relu2_0/x1 -> conv2_0/x1/bn (in-place)
I0221 09:01:56.598150 42564 net.cpp:122] Setting up relu2_0/x1
I0221 09:01:56.598158 42564 net.cpp:129] Top shape: 1 256 4 11 (11264)
I0221 09:01:56.598162 42564 net.cpp:137] Memory required for data: 48603056
I0221 09:01:56.598165 42564 layer_factory.hpp:77] Creating layer conv2_0/x1
I0221 09:01:56.598175 42564 net.cpp:84] Creating Layer conv2_0/x1
I0221 09:01:56.598181 42564 net.cpp:406] conv2_0/x1 <- conv2_0/x1/bn
I0221 09:01:56.598188 42564 net.cpp:380] conv2_0/x1 -> conv2_0/x1
I0221 09:01:56.601413 42564 net.cpp:122] Setting up conv2_0/x1
I0221 09:01:56.601425 42564 net.cpp:129] Top shape: 1 128 4 11 (5632)
I0221 09:01:56.601429 42564 net.cpp:137] Memory required for data: 48625584
I0221 09:01:56.601434 42564 layer_factory.hpp:77] Creating layer conv2_0/x2/bn
I0221 09:01:56.601442 42564 net.cpp:84] Creating Layer conv2_0/x2/bn
I0221 09:01:56.601446 42564 net.cpp:406] conv2_0/x2/bn <- conv2_0/x1
I0221 09:01:56.601452 42564 net.cpp:380] conv2_0/x2/bn -> conv2_0/x2/bn
I0221 09:01:56.601675 42564 net.cpp:122] Setting up conv2_0/x2/bn
I0221 09:01:56.601682 42564 net.cpp:129] Top shape: 1 128 4 11 (5632)
I0221 09:01:56.601686 42564 net.cpp:137] Memory required for data: 48648112
I0221 09:01:56.601691 42564 layer_factory.hpp:77] Creating layer conv2_0/x2/scale
I0221 09:01:56.601698 42564 net.cpp:84] Creating Layer conv2_0/x2/scale
I0221 09:01:56.601702 42564 net.cpp:406] conv2_0/x2/scale <- conv2_0/x2/bn
I0221 09:01:56.601706 42564 net.cpp:367] conv2_0/x2/scale -> conv2_0/x2/bn (in-place)
I0221 09:01:56.601749 42564 layer_factory.hpp:77] Creating layer conv2_0/x2/scale
I0221 09:01:56.601864 42564 net.cpp:122] Setting up conv2_0/x2/scale
I0221 09:01:56.601871 42564 net.cpp:129] Top shape: 1 128 4 11 (5632)
I0221 09:01:56.601873 42564 net.cpp:137] Memory required for data: 48670640
I0221 09:01:56.601878 42564 layer_factory.hpp:77] Creating layer relu2_0/x2
I0221 09:01:56.601883 42564 net.cpp:84] Creating Layer relu2_0/x2
I0221 09:01:56.601888 42564 net.cpp:406] relu2_0/x2 <- conv2_0/x2/bn
I0221 09:01:56.601892 42564 net.cpp:367] relu2_0/x2 -> conv2_0/x2/bn (in-place)
I0221 09:01:56.602082 42564 net.cpp:122] Setting up relu2_0/x2
I0221 09:01:56.602089 42564 net.cpp:129] Top shape: 1 128 4 11 (5632)
I0221 09:01:56.602092 42564 net.cpp:137] Memory required for data: 48693168
I0221 09:01:56.602095 42564 layer_factory.hpp:77] Creating layer conv2_0/x2
I0221 09:01:56.602107 42564 net.cpp:84] Creating Layer conv2_0/x2
I0221 09:01:56.602109 42564 net.cpp:406] conv2_0/x2 <- conv2_0/x2/bn
I0221 09:01:56.602115 42564 net.cpp:380] conv2_0/x2 -> conv2_0/x2
I0221 09:01:56.605336 42564 net.cpp:122] Setting up conv2_0/x2
I0221 09:01:56.605351 42564 net.cpp:129] Top shape: 1 32 4 11 (1408)
I0221 09:01:56.605355 42564 net.cpp:137] Memory required for data: 48698800
I0221 09:01:56.605360 42564 layer_factory.hpp:77] Creating layer concat2_0
I0221 09:01:56.605366 42564 net.cpp:84] Creating Layer concat2_0
I0221 09:01:56.605370 42564 net.cpp:406] concat2_0 <- pool1_pool1_0_split_1
I0221 09:01:56.605376 42564 net.cpp:406] concat2_0 <- conv2_0/x2
I0221 09:01:56.605381 42564 net.cpp:380] concat2_0 -> concat2_0
I0221 09:01:56.605415 42564 net.cpp:122] Setting up concat2_0
I0221 09:01:56.605422 42564 net.cpp:129] Top shape: 1 288 4 11 (12672)
I0221 09:01:56.605424 42564 net.cpp:137] Memory required for data: 48749488
I0221 09:01:56.605427 42564 layer_factory.hpp:77] Creating layer concat2_0_concat2_0_0_split
I0221 09:01:56.605433 42564 net.cpp:84] Creating Layer concat2_0_concat2_0_0_split
I0221 09:01:56.605437 42564 net.cpp:406] concat2_0_concat2_0_0_split <- concat2_0
I0221 09:01:56.605440 42564 net.cpp:380] concat2_0_concat2_0_0_split -> concat2_0_concat2_0_0_split_0
I0221 09:01:56.605446 42564 net.cpp:380] concat2_0_concat2_0_0_split -> concat2_0_concat2_0_0_split_1
I0221 09:01:56.605485 42564 net.cpp:122] Setting up concat2_0_concat2_0_0_split
I0221 09:01:56.605490 42564 net.cpp:129] Top shape: 1 288 4 11 (12672)
I0221 09:01:56.605494 42564 net.cpp:129] Top shape: 1 288 4 11 (12672)
I0221 09:01:56.605496 42564 net.cpp:137] Memory required for data: 48850864
I0221 09:01:56.605499 42564 layer_factory.hpp:77] Creating layer conv2_1/x1/bn
I0221 09:01:56.605504 42564 net.cpp:84] Creating Layer conv2_1/x1/bn
I0221 09:01:56.605509 42564 net.cpp:406] conv2_1/x1/bn <- concat2_0_concat2_0_0_split_0
I0221 09:01:56.605517 42564 net.cpp:380] conv2_1/x1/bn -> conv2_1/x1/bn
I0221 09:01:56.605736 42564 net.cpp:122] Setting up conv2_1/x1/bn
I0221 09:01:56.605744 42564 net.cpp:129] Top shape: 1 288 4 11 (12672)
I0221 09:01:56.605747 42564 net.cpp:137] Memory required for data: 48901552
I0221 09:01:56.605754 42564 layer_factory.hpp:77] Creating layer conv2_1/x1/scale
I0221 09:01:56.605762 42564 net.cpp:84] Creating Layer conv2_1/x1/scale
I0221 09:01:56.605765 42564 net.cpp:406] conv2_1/x1/scale <- conv2_1/x1/bn
I0221 09:01:56.605770 42564 net.cpp:367] conv2_1/x1/scale -> conv2_1/x1/bn (in-place)
I0221 09:01:56.605815 42564 layer_factory.hpp:77] Creating layer conv2_1/x1/scale
I0221 09:01:56.605944 42564 net.cpp:122] Setting up conv2_1/x1/scale
I0221 09:01:56.605952 42564 net.cpp:129] Top shape: 1 288 4 11 (12672)
I0221 09:01:56.605953 42564 net.cpp:137] Memory required for data: 48952240
I0221 09:01:56.605959 42564 layer_factory.hpp:77] Creating layer relu2_1/x1
I0221 09:01:56.605964 42564 net.cpp:84] Creating Layer relu2_1/x1
I0221 09:01:56.605967 42564 net.cpp:406] relu2_1/x1 <- conv2_1/x1/bn
I0221 09:01:56.605973 42564 net.cpp:367] relu2_1/x1 -> conv2_1/x1/bn (in-place)
I0221 09:01:56.606905 42564 net.cpp:122] Setting up relu2_1/x1
I0221 09:01:56.606917 42564 net.cpp:129] Top shape: 1 288 4 11 (12672)
I0221 09:01:56.606920 42564 net.cpp:137] Memory required for data: 49002928
I0221 09:01:56.606923 42564 layer_factory.hpp:77] Creating layer conv2_1/x1
I0221 09:01:56.606950 42564 net.cpp:84] Creating Layer conv2_1/x1
I0221 09:01:56.606953 42564 net.cpp:406] conv2_1/x1 <- conv2_1/x1/bn
I0221 09:01:56.606961 42564 net.cpp:380] conv2_1/x1 -> conv2_1/x1
I0221 09:01:56.609493 42564 net.cpp:122] Setting up conv2_1/x1
I0221 09:01:56.609505 42564 net.cpp:129] Top shape: 1 128 4 11 (5632)
I0221 09:01:56.609509 42564 net.cpp:137] Memory required for data: 49025456
I0221 09:01:56.609515 42564 layer_factory.hpp:77] Creating layer conv2_1/x2/bn
I0221 09:01:56.609522 42564 net.cpp:84] Creating Layer conv2_1/x2/bn
I0221 09:01:56.609526 42564 net.cpp:406] conv2_1/x2/bn <- conv2_1/x1
I0221 09:01:56.609534 42564 net.cpp:380] conv2_1/x2/bn -> conv2_1/x2/bn
I0221 09:01:56.609802 42564 net.cpp:122] Setting up conv2_1/x2/bn
I0221 09:01:56.609808 42564 net.cpp:129] Top shape: 1 128 4 11 (5632)
I0221 09:01:56.609812 42564 net.cpp:137] Memory required for data: 49047984
I0221 09:01:56.609817 42564 layer_factory.hpp:77] Creating layer conv2_1/x2/scale
I0221 09:01:56.609827 42564 net.cpp:84] Creating Layer conv2_1/x2/scale
I0221 09:01:56.609830 42564 net.cpp:406] conv2_1/x2/scale <- conv2_1/x2/bn
I0221 09:01:56.609834 42564 net.cpp:367] conv2_1/x2/scale -> conv2_1/x2/bn (in-place)
I0221 09:01:56.609877 42564 layer_factory.hpp:77] Creating layer conv2_1/x2/scale
I0221 09:01:56.610011 42564 net.cpp:122] Setting up conv2_1/x2/scale
I0221 09:01:56.610018 42564 net.cpp:129] Top shape: 1 128 4 11 (5632)
I0221 09:01:56.610020 42564 net.cpp:137] Memory required for data: 49070512
I0221 09:01:56.610036 42564 layer_factory.hpp:77] Creating layer relu2_1/x2
I0221 09:01:56.610043 42564 net.cpp:84] Creating Layer relu2_1/x2
I0221 09:01:56.610046 42564 net.cpp:406] relu2_1/x2 <- conv2_1/x2/bn
I0221 09:01:56.610049 42564 net.cpp:367] relu2_1/x2 -> conv2_1/x2/bn (in-place)
I0221 09:01:56.610247 42564 net.cpp:122] Setting up relu2_1/x2
I0221 09:01:56.610255 42564 net.cpp:129] Top shape: 1 128 4 11 (5632)
I0221 09:01:56.610258 42564 net.cpp:137] Memory required for data: 49093040
I0221 09:01:56.610261 42564 layer_factory.hpp:77] Creating layer conv2_1/x2
I0221 09:01:56.610270 42564 net.cpp:84] Creating Layer conv2_1/x2
I0221 09:01:56.610275 42564 net.cpp:406] conv2_1/x2 <- conv2_1/x2/bn
I0221 09:01:56.610281 42564 net.cpp:380] conv2_1/x2 -> conv2_1/x2
I0221 09:01:56.612823 42564 net.cpp:122] Setting up conv2_1/x2
I0221 09:01:56.612835 42564 net.cpp:129] Top shape: 1 32 4 11 (1408)
I0221 09:01:56.612839 42564 net.cpp:137] Memory required for data: 49098672
I0221 09:01:56.612844 42564 layer_factory.hpp:77] Creating layer concat2_1
I0221 09:01:56.612854 42564 net.cpp:84] Creating Layer concat2_1
I0221 09:01:56.612857 42564 net.cpp:406] concat2_1 <- concat2_0_concat2_0_0_split_1
I0221 09:01:56.612865 42564 net.cpp:406] concat2_1 <- conv2_1/x2
I0221 09:01:56.612871 42564 net.cpp:380] concat2_1 -> concat2_1
I0221 09:01:56.612906 42564 net.cpp:122] Setting up concat2_1
I0221 09:01:56.612912 42564 net.cpp:129] Top shape: 1 320 4 11 (14080)
I0221 09:01:56.612915 42564 net.cpp:137] Memory required for data: 49154992
I0221 09:01:56.612918 42564 layer_factory.hpp:77] Creating layer concat2_1_concat2_1_0_split
I0221 09:01:56.612923 42564 net.cpp:84] Creating Layer concat2_1_concat2_1_0_split
I0221 09:01:56.612941 42564 net.cpp:406] concat2_1_concat2_1_0_split <- concat2_1
I0221 09:01:56.612962 42564 net.cpp:380] concat2_1_concat2_1_0_split -> concat2_1_concat2_1_0_split_0
…
I0221 09:01:58.577327 42564 net.cpp:122] Setting up concat3_7_concat3_7_0_split
I0221 09:01:58.577334 42564 net.cpp:129] Top shape: 1 768 2 6 (9216)
I0221 09:01:58.577338 42564 net.cpp:129] Top shape: 1 768 2 6 (9216)
I0221 09:01:58.577342 42564 net.cpp:137] Memory required for data: 69013424
I0221 09:01:58.577345 42564 layer_factory.hpp:77] Creating layer conv3_8/x1/bn
I0221 09:01:58.577355 42564 net.cpp:84] Creating Layer conv3_8/x1/bn
I0221 09:01:58.577359 42564 net.cpp:406] conv3_8/x1/bn <- concat3_7_concat3_7_0_split_0
I0221 09:01:58.577365 42564 net.cpp:380] conv3_8/x1/bn -> conv3_8/x1/bn
I0221 09:01:58.577684 42564 net.cpp:122] Setting up conv3_8/x1/bn
I0221 09:01:58.577692 42564 net.cpp:129] Top shape: 1 768 2 6 (9216)
I0221 09:01:58.577695 42564 net.cpp:137] Memory required for data: 69050288
I0221 09:01:58.577704 42564 layer_factory.hpp:77] Creating layer conv3_8/x1/scale
I0221 09:01:58.577713 42564 net.cpp:84] Creating Layer conv3_8/x1/scale
I0221 09:01:58.577718 42564 net.cpp:406] conv3_8/x1/scale <- conv3_8/x1/bn
I0221 09:01:58.577724 42564 net.cpp:367] conv3_8/x1/scale -> conv3_8/x1/bn (in-place)
I0221 09:01:58.577800 42564 layer_factory.hpp:77] Creating layer conv3_8/x1/scale
I0221 09:01:58.577975 42564 net.cpp:122] Setting up conv3_8/x1/scale
I0221 09:01:58.577985 42564 net.cpp:129] Top shape: 1 768 2 6 (9216)
I0221 09:01:58.577988 42564 net.cpp:137] Memory required for data: 69087152
I0221 09:01:58.577999 42564 layer_factory.hpp:77] Creating layer relu3_8/x1
I0221 09:01:58.578007 42564 net.cpp:84] Creating Layer relu3_8/x1
I0221 09:01:58.578011 42564 net.cpp:406] relu3_8/x1 <- conv3_8/x1/bn
I0221 09:01:58.578016 42564 net.cpp:367] relu3_8/x1 -> conv3_8/x1/bn (in-place)
I0221 09:01:58.578325 42564 net.cpp:122] Setting up relu3_8/x1
I0221 09:01:58.578335 42564 net.cpp:129] Top shape: 1 768 2 6 (9216)
I0221 09:01:58.578338 42564 net.cpp:137] Memory required for data: 69124016
I0221 09:01:58.578343 42564 layer_factory.hpp:77] Creating layer conv3_8/x1
I0221 09:01:58.578357 42564 net.cpp:84] Creating Layer conv3_8/x1
I0221 09:01:58.578362 42564 net.cpp:406] conv3_8/x1 <- conv3_8/x1/bn
I0221 09:01:58.578369 42564 net.cpp:380] conv3_8/x1 -> conv3_8/x1
I0221 09:01:58.583806 42564 net.cpp:122] Setting up conv3_8/x1
I0221 09:01:58.583822 42564 net.cpp:129] Top shape: 1 128 2 6 (1536)
I0221 09:01:58.583827 42564 net.cpp:137] Memory required for data: 69130160
I0221 09:01:58.583833 42564 layer_factory.hpp:77] Creating layer conv3_8/x2/bn
I0221 09:01:58.583844 42564 net.cpp:84] Creating Layer conv3_8/x2/bn
I0221 09:01:58.583849 42564 net.cpp:406] conv3_8/x2/bn <- conv3_8/x1
I0221 09:01:58.583856 42564 net.cpp:380] conv3_8/x2/bn -> conv3_8/x2/bn
I0221 09:01:58.584125 42564 net.cpp:122] Setting up conv3_8/x2/bn
I0221 09:01:58.584133 42564 net.cpp:129] Top shape: 1 128 2 6 (1536)
I0221 09:01:58.584137 42564 net.cpp:137] Memory required for data: 69136304
I0221 09:01:58.584146 42564 layer_factory.hpp:77] Creating layer conv3_8/x2/scale
I0221 09:01:58.584153 42564 net.cpp:84] Creating Layer conv3_8/x2/scale
I0221 09:01:58.584158 42564 net.cpp:406] conv3_8/x2/scale <- conv3_8/x2/bn
I0221 09:01:58.584164 42564 net.cpp:367] conv3_8/x2/scale -> conv3_8/x2/bn (in-place)
I0221 09:01:58.584213 42564 layer_factory.hpp:77] Creating layer conv3_8/x2/scale
I0221 09:01:58.584352 42564 net.cpp:122] Setting up conv3_8/x2/scale
I0221 09:01:58.584358 42564 net.cpp:129] Top shape: 1 128 2 6 (1536)
I0221 09:01:58.584362 42564 net.cpp:137] Memory required for data: 69142448
I0221 09:01:58.584368 42564 layer_factory.hpp:77] Creating layer relu3_8/x2
I0221 09:01:58.584378 42564 net.cpp:84] Creating Layer relu3_8/x2
I0221 09:01:58.584381 42564 net.cpp:406] relu3_8/x2 <- conv3_8/x2/bn
I0221 09:01:58.584388 42564 net.cpp:367] relu3_8/x2 -> conv3_8/x2/bn (in-place)
I0221 09:01:58.584702 42564 net.cpp:122] Setting up relu3_8/x2
I0221 09:01:58.584712 42564 net.cpp:129] Top shape: 1 128 2 6 (1536)
I0221 09:01:58.584715 42564 net.cpp:137] Memory required for data: 69148592
I0221 09:01:58.584720 42564 layer_factory.hpp:77] Creating layer conv3_8/x2
I0221 09:01:58.584734 42564 net.cpp:84] Creating Layer conv3_8/x2
I0221 09:01:58.584739 42564 net.cpp:406] conv3_8/x2 <- conv3_8/x2/bn
I0221 09:01:58.584745 42564 net.cpp:380] conv3_8/x2 -> conv3_8/x2
I0221 09:01:58.589324 42564 net.cpp:122] Setting up conv3_8/x2
I0221 09:01:58.589340 42564 net.cpp:129] Top shape: 1 32 2 6 (384)
I0221 09:01:58.589344 42564 net.cpp:137] Memory required for data: 69150128
I0221 09:01:58.589352 42564 layer_factory.hpp:77] Creating layer concat3_8
I0221 09:01:58.589360 42564 net.cpp:84] Creating Layer concat3_8
I0221 09:01:58.589366 42564 net.cpp:406] concat3_8 <- concat3_7_concat3_7_0_split_1
I0221 09:01:58.589372 42564 net.cpp:406] concat3_8 <- conv3_8/x2
I0221 09:01:58.589378 42564 net.cpp:380] concat3_8 -> concat3_8
I0221 09:01:58.589421 42564 net.cpp:122] Setting up concat3_8
I0221 09:01:58.589427 42564 net.cpp:129] Top shape: 1 800 2 6 (9600)
I0221 09:01:58.589431 42564 net.cpp:137] Memory required for data: 69188528
I0221 09:01:58.589434 42564 layer_factory.hpp:77] Creating layer concat3_8_concat3_8_0_split
I0221 09:01:58.589442 42564 net.cpp:84] Creating Layer concat3_8_concat3_8_0_split
I0221 09:01:58.589447 42564 net.cpp:406] concat3_8_concat3_8_0_split <- concat3_8
I0221 09:01:58.589452 42564 net.cpp:380] concat3_8_concat3_8_0_split -> concat3_8_concat3_8_0_split_0
I0221 09:01:58.589459 42564 net.cpp:380] concat3_8_concat3_8_0_split -> concat3_8_concat3_8_0_split_1
I0221 09:01:58.589510 42564 net.cpp:122] Setting up concat3_8_concat3_8_0_split
I0221 09:01:58.589517 42564 net.cpp:129] Top shape: 1 800 2 6 (9600)
I0221 09:01:58.589521 42564 net.cpp:129] Top shape: 1 800 2 6 (9600)
I0221 09:01:58.589525 42564 net.cpp:137] Memory required for data: 69265328
I0221 09:01:58.589529 42564 layer_factory.hpp:77] Creating layer conv3_9/x1/bn
I0221 09:01:58.589537 42564 net.cpp:84] Creating Layer conv3_9/x1/bn
I0221 09:01:58.589541 42564 net.cpp:406] conv3_9/x1/bn <- concat3_8_concat3_8_0_split_0
I0221 09:01:58.589547 42564 net.cpp:380] conv3_9/x1/bn -> conv3_9/x1/bn
I0221 09:01:58.589874 42564 net.cpp:122] Setting up conv3_9/x1/bn
I0221 09:01:58.589884 42564 net.cpp:129] Top shape: 1 800 2 6 (9600)
I0221 09:01:58.589886 42564 net.cpp:137] Memory required for data: 69303728
I0221 09:01:58.589895 42564 layer_factory.hpp:77] Creating layer conv3_9/x1/scale
I0221 09:01:58.589906 42564 net.cpp:84] Creating Layer conv3_9/x1/scale
I0221 09:01:58.589911 42564 net.cpp:406] conv3_9/x1/scale <- conv3_9/x1/bn
I0221 09:01:58.589917 42564 net.cpp:367] conv3_9/x1/scale -> conv3_9/x1/bn (in-place)
I0221 09:01:58.590004 42564 layer_factory.hpp:77] Creating layer conv3_9/x1/scale
I0221 09:01:58.590193 42564 net.cpp:122] Setting up conv3_9/x1/scale
I0221 09:01:58.590200 42564 net.cpp:129] Top shape: 1 800 2 6 (9600)
I0221 09:01:58.590204 42564 net.cpp:137] Memory required for data: 69342128
I0221 09:01:58.590211 42564 layer_factory.hpp:77] Creating layer relu3_9/x1
I0221 09:01:58.590217 42564 net.cpp:84] Creating Layer relu3_9/x1
I0221 09:01:58.590222 42564 net.cpp:406] relu3_9/x1 <- conv3_9/x1/bn
I0221 09:01:58.590229 42564 net.cpp:367] relu3_9/x1 -> conv3_9/x1/bn (in-place)
I0221 09:01:58.591578 42564 net.cpp:122] Setting up relu3_9/x1
I0221 09:01:58.591591 42564 net.cpp:129] Top shape: 1 800 2 6 (9600)
I0221 09:01:58.591598 42564 net.cpp:137] Memory required for data: 69380528
I0221 09:01:58.591603 42564 layer_factory.hpp:77] Creating layer conv3_9/x1
I0221 09:01:58.591614 42564 net.cpp:84] Creating Layer conv3_9/x1
I0221 09:01:58.591619 42564 net.cpp:406] conv3_9/x1 <- conv3_9/x1/bn
I0221 09:01:58.591629 42564 net.cpp:380] conv3_9/x1 -> conv3_9/x1
I0221 09:01:58.598757 42564 net.cpp:122] Setting up conv3_9/x1
I0221 09:01:58.598774 42564 net.cpp:129] Top shape: 1 128 2 6 (1536)
I0221 09:01:58.598778 42564 net.cpp:137] Memory required for data: 69386672
I0221 09:01:58.598785 42564 layer_factory.hpp:77] Creating layer conv3_9/x2/bn
I0221 09:01:58.598796 42564 net.cpp:84] Creating Layer conv3_9/x2/bn
I0221 09:01:58.598801 42564 net.cpp:406] conv3_9/x2/bn <- conv3_9/x1
I0221 09:01:58.598809 42564 net.cpp:380] conv3_9/x2/bn -> conv3_9/x2/bn
I0221 09:01:58.599081 42564 net.cpp:122] Setting up conv3_9/x2/bn
I0221 09:01:58.599089 42564 net.cpp:129] Top shape: 1 128 2 6 (1536)
I0221 09:01:58.599092 42564 net.cpp:137] Memory required for data: 69392816
I0221 09:01:58.599102 42564 layer_factory.hpp:77] Creating layer conv3_9/x2/scale
I0221 09:01:58.599112 42564 net.cpp:84] Creating Layer conv3_9/x2/scale
I0221 09:01:58.599117 42564 net.cpp:406] conv3_9/x2/scale <- conv3_9/x2/bn
I0221 09:01:58.599123 42564 net.cpp:367] conv3_9/x2/scale -> conv3_9/x2/bn (in-place)
I0221 09:01:58.599174 42564 layer_factory.hpp:77] Creating layer conv3_9/x2/scale
I0221 09:01:58.599319 42564 net.cpp:122] Setting up conv3_9/x2/scale
I0221 09:01:58.599328 42564 net.cpp:129] Top shape: 1 128 2 6 (1536)
I0221 09:01:58.599330 42564 net.cpp:137] Memory required for data: 69398960
I0221 09:01:58.599337 42564 layer_factory.hpp:77] Creating layer relu3_9/x2
I0221 09:01:58.599345 42564 net.cpp:84] Creating Layer relu3_9/x2
I0221 09:01:58.599350 42564 net.cpp:406] relu3_9/x2 <- conv3_9/x2/bn
I0221 09:01:58.599355 42564 net.cpp:367] relu3_9/x2 -> conv3_9/x2/bn (in-place)
I0221 09:01:58.599665 42564 net.cpp:122] Setting up relu3_9/x2
I0221 09:01:58.599674 42564 net.cpp:129] Top shape: 1 128 2 6 (1536)
I0221 09:01:58.599678 42564 net.cpp:137] Memory required for data: 69405104
I0221 09:01:58.599683 42564 layer_factory.hpp:77] Creating layer conv3_9/x2
I0221 09:01:58.599700 42564 net.cpp:84] Creating Layer conv3_9/x2
I0221 09:01:58.599705 42564 net.cpp:406] conv3_9/x2 <- conv3_9/x2/bn
I0221 09:01:58.599712 42564 net.cpp:380] conv3_9/x2 -> conv3_9/x2
I0221 09:01:58.604714 42564 net.cpp:122] Setting up conv3_9/x2
I0221 09:01:58.604730 42564 net.cpp:129] Top shape: 1 32 2 6 (384)
I0221 09:01:58.604735 42564 net.cpp:137] Memory required for data: 69406640
I0221 09:01:58.604743 42564 layer_factory.hpp:77] Creating layer concat3_9
I0221 09:01:58.604750 42564 net.cpp:84] Creating Layer concat3_9
I0221 09:01:58.604755 42564 net.cpp:406] concat3_9 <- concat3_8_concat3_8_0_split_1
I0221 09:01:58.604763 42564 net.cpp:406] concat3_9 <- conv3_9/x2
I0221 09:01:58.604770 42564 net.cpp:380] concat3_9 -> concat3_9
I0221 09:01:58.604807 42564 net.cpp:122] Setting up concat3_9
I0221 09:01:58.604815 42564 net.cpp:129] Top shape: 1 832 2 6 (9984)
I0221 09:01:58.604818 42564 net.cpp:137] Memory required for data: 69446576
I0221 09:01:58.604822 42564 layer_factory.hpp:77] Creating layer concat3_9_concat3_9_0_split
I0221 09:01:58.604828 42564 net.cpp:84] Creating Layer concat3_9_concat3_9_0_split
I0221 09:01:58.604832 42564 net.cpp:406] concat3_9_concat3_9_0_split <- concat3_9
I0221 09:01:58.604838 42564 net.cpp:380] concat3_9_concat3_9_0_split -> concat3_9_concat3_9_0_split_0
I0221 09:01:58.604846 42564 net.cpp:380] concat3_9_concat3_9_0_split -> concat3_9_concat3_9_0_split_1
I0221 09:01:58.604892 42564 net.cpp:122] Setting up concat3_9_concat3_9_0_split
I0221 09:01:58.604898 42564 net.cpp:129] Top shape: 1 832 2 6 (9984)
I0221 09:01:58.604903 42564 net.cpp:129] Top shape: 1 832 2 6 (9984)
I0221 09:01:58.604907 42564 net.cpp:137] Memory required for data: 69526448
I0221 09:01:58.604910 42564 layer_factory.hpp:77] Creating layer conv3_10/x1/bn
I0221 09:01:58.604919 42564 net.cpp:84] Creating Layer conv3_10/x1/bn
I0221 09:01:58.604923 42564 net.cpp:406] conv3_10/x1/bn <- concat3_9_concat3_9_0_split_0
I0221 09:01:58.604931 42564 net.cpp:380] conv3_10/x1/bn -> conv3_10/x1/bn
I0221 09:01:58.605268 42564 net.cpp:122] Setting up conv3_10/x1/bn
I0221 09:01:58.605275 42564 net.cpp:129] Top shape: 1 832 2 6 (9984)
I0221 09:01:58.605279 42564 net.cpp:137] Memory required for data: 69566384
I0221 09:01:58.605288 42564 layer_factory.hpp:77] Creating layer conv3_10/x1/scale
I0221 09:01:58.605295 42564 net.cpp:84] Creating Layer conv3_10/x1/scale
I0221 09:01:58.605300 42564 net.cpp:406] conv3_10/x1/scale <- conv3_10/x1/bn
I0221 09:01:58.605306 42564 net.cpp:367] conv3_10/x1/scale -> conv3_10/x1/bn (in-place)
I0221 09:01:58.605392 42564 layer_factory.hpp:77] Creating layer conv3_10/x1/scale
I0221 09:01:58.605581 42564 net.cpp:122] Setting up conv3_10/x1/scale
I0221 09:01:58.605590 42564 net.cpp:129] Top shape: 1 832 2 6 (9984)
I0221 09:01:58.605593 42564 net.cpp:137] Memory required for data: 69606320
I0221 09:01:58.605600 42564 layer_factory.hpp:77] Creating layer relu3_10/x1
I0221 09:01:58.605607 42564 net.cpp:84] Creating Layer relu3_10/x1
I0221 09:01:58.605612 42564 net.cpp:406] relu3_10/x1 <- conv3_10/x1/bn
I0221 09:01:58.605617 42564 net.cpp:367] relu3_10/x1 -> conv3_10/x1/bn (in-place)
I0221 09:01:58.605933 42564 net.cpp:122] Setting up relu3_10/x1
I0221 09:01:58.605944 42564 net.cpp:129] Top shape: 1 832 2 6 (9984)
I0221 09:01:58.605947 42564 net.cpp:137] Memory required for data: 69646256
I0221 09:01:58.605952 42564 layer_factory.hpp:77] Creating layer conv3_10/x1
I0221 09:01:58.605969 42564 net.cpp:84] Creating Layer conv3_10/x1
I0221 09:01:58.605974 42564 net.cpp:406] conv3_10/x1 <- conv3_10/x1/bn
I0221 09:01:58.605980 42564 net.cpp:380] conv3_10/x1 -> conv3_10/x1
I0221 09:01:58.611676 42564 net.cpp:122] Setting up conv3_10/x1
I0221 09:01:58.611692 42564 net.cpp:129] Top shape: 1 128 2 6 (1536)
I0221 09:01:58.611696 42564 net.cpp:137] Memory required for data: 69652400
I0221 09:01:58.611703 42564 layer_factory.hpp:77] Creating layer conv3_10/x2/bn
I0221 09:01:58.611713 42564 net.cpp:84] Creating Layer conv3_10/x2/bn
I0221 09:01:58.611718 42564 net.cpp:406] conv3_10/x2/bn <- conv3_10/x1
I0221 09:01:58.611730 42564 net.cpp:380] conv3_10/x2/bn -> conv3_10/x2/bn
I0221 09:01:58.612004 42564 net.cpp:122] Setting up conv3_10/x2/bn
I0221 09:01:58.612011 42564 net.cpp:129] Top shape: 1 128 2 6 (1536)
I0221 09:01:58.612015 42564 net.cpp:137] Memory required for data: 69658544
I0221 09:01:58.612023 42564 layer_factory.hpp:77] Creating layer conv3_10/x2/scale
I0221 09:01:58.612032 42564 net.cpp:84] Creating Layer conv3_10/x2/scale
I0221 09:01:58.612036 42564 net.cpp:406] conv3_10/x2/scale <- conv3_10/x2/bn
I0221 09:01:58.612045 42564 net.cpp:367] conv3_10/x2/scale -> conv3_10/x2/bn (in-place)
I0221 09:01:58.612093 42564 layer_factory.hpp:77] Creating layer conv3_10/x2/scale
I0221 09:01:58.612233 42564 net.cpp:122] Setting up conv3_10/x2/scale
I0221 09:01:58.612241 42564 net.cpp:129] Top shape: 1 128 2 6 (1536)
I0221 09:01:58.612244 42564 net.cpp:137] Memory required for data: 69664688
I0221 09:01:58.612251 42564 layer_factory.hpp:77] Creating layer relu3_10/x2
I0221 09:01:58.612258 42564 net.cpp:84] Creating Layer relu3_10/x2
I0221 09:01:58.612262 42564 net.cpp:406] relu3_10/x2 <- conv3_10/x2/bn
I0221 09:01:58.612267 42564 net.cpp:367] relu3_10/x2 -> conv3_10/x2/bn (in-place)
I0221 09:01:58.613611 42564 net.cpp:122] Setting up relu3_10/x2
I0221 09:01:58.613626 42564 net.cpp:129] Top shape: 1 128 2 6 (1536)
I0221 09:01:58.613629 42564 net.cpp:137] Memory required for data: 69670832
I0221 09:01:58.613634 42564 layer_factory.hpp:77] Creating layer conv3_10/x2
I0221 09:01:58.613648 42564 net.cpp:84] Creating Layer conv3_10/x2
I0221 09:01:58.613653 42564 net.cpp:406] conv3_10/x2 <- conv3_10/x2/bn
I0221 09:01:58.613662 42564 net.cpp:380] conv3_10/x2 -> conv3_10/x2
I0221 09:01:58.618168 42564 net.cpp:122] Setting up conv3_10/x2
I0221 09:01:58.618185 42564 net.cpp:129] Top shape: 1 32 2 6 (384)
I0221 09:01:58.618188 42564 net.cpp:137] Memory required for data: 69672368
I0221 09:01:58.618196 42564 layer_factory.hpp:77] Creating layer concat3_10
I0221 09:01:58.618204 42564 net.cpp:84] Creating Layer concat3_10
I0221 09:01:58.618209 42564 net.cpp:406] concat3_10 <- concat3_9_concat3_9_0_split_1
I0221 09:01:58.618218 42564 net.cpp:406] concat3_10 <- conv3_10/x2
I0221 09:01:58.618224 42564 net.cpp:380] concat3_10 -> concat3_10
I0221 09:01:58.618263 42564 net.cpp:122] Setting up concat3_10
I0221 09:01:58.618271 42564 net.cpp:129] Top shape: 1 864 2 6 (10368)
I0221 09:01:58.618274 42564 net.cpp:137] Memory required for data: 69713840
I0221 09:01:58.618278 42564 layer_factory.hpp:77] Creating layer concat3_10_concat3_10_0_split
I0221 09:01:58.618286 42564 net.cpp:84] Creating Layer concat3_10_concat3_10_0_split
I0221 09:01:58.618290 42564 net.cpp:406] concat3_10_concat3_10_0_split <- concat3_10
I0221 09:01:58.618296 42564 net.cpp:380] concat3_10_concat3_10_0_split -> concat3_10_concat3_10_0_split_0
I0221 09:01:58.618304 42564 net.cpp:380] concat3_10_concat3_10_0_split -> concat3_10_concat3_10_0_split_1
I0221 09:01:58.618351 42564 net.cpp:122] Setting up concat3_10_concat3_10_0_split
I0221 09:01:58.618357 42564 net.cpp:129] Top shape: 1 864 2 6 (10368)
I0221 09:01:58.618362 42564 net.cpp:129] Top shape: 1 864 2 6 (10368)
I0221 09:01:58.618366 42564 net.cpp:137] Memory required for data: 69796784
I0221 09:01:58.618369 42564 layer_factory.hpp:77] Creating layer conv3_11/x1/bn
I0221 09:01:58.618378 42564 net.cpp:84] Creating Layer conv3_11/x1/bn
I0221 09:01:58.618382 42564 net.cpp:406] conv3_11/x1/bn <- concat3_10_concat3_10_0_split_0
I0221 09:01:58.618388 42564 net.cpp:380] conv3_11/x1/bn -> conv3_11/x1/bn
I0221 09:01:58.618732 42564 net.cpp:122] Setting up conv3_11/x1/bn
I0221 09:01:58.618741 42564 net.cpp:129] Top shape: 1 864 2 6 (10368)
I0221 09:01:58.618743 42564 net.cpp:137] Memory required for data: 69838256
I0221 09:01:58.618752 42564 layer_factory.hpp:77] Creating layer conv3_11/x1/scale
I0221 09:01:58.618763 42564 net.cpp:84] Creating Layer conv3_11/x1/scale
I0221 09:01:58.618768 42564 net.cpp:406] conv3_11/x1/scale <- conv3_11/x1/bn
I0221 09:01:58.618775 42564 net.cpp:367] conv3_11/x1/scale -> conv3_11/x1/bn (in-place)
I0221 09:01:58.618866 42564 layer_factory.hpp:77] Creating layer conv3_11/x1/scale
I0221 09:01:58.619056 42564 net.cpp:122] Setting up conv3_11/x1/scale
I0221 09:01:58.619065 42564 net.cpp:129] Top shape: 1 864 2 6 (10368)
I0221 09:01:58.619068 42564 net.cpp:137] Memory required for data: 69879728
I0221 09:01:58.619076 42564 layer_factory.hpp:77] Creating layer relu3_11/x1
I0221 09:01:58.619084 42564 net.cpp:84] Creating Layer relu3_11/x1
I0221 09:01:58.619088 42564 net.cpp:406] relu3_11/x1 <- conv3_11/x1/bn
I0221 09:01:58.619093 42564 net.cpp:367] relu3_11/x1 -> conv3_11/x1/bn (in-place)
I0221 09:01:58.619415 42564 net.cpp:122] Setting up relu3_11/x1
I0221 09:01:58.619424 42564 net.cpp:129] Top shape: 1 864 2 6 (10368)
I0221 09:01:58.619428 42564 net.cpp:137] Memory required for data: 69921200
I0221 09:01:58.619432 42564 layer_factory.hpp:77] Creating layer conv3_11/x1
I0221 09:01:58.619447 42564 net.cpp:84] Creating Layer conv3_11/x1
I0221 09:01:58.619452 42564 net.cpp:406] conv3_11/x1 <- conv3_11/x1/bn
I0221 09:01:58.619462 42564 net.cpp:380] conv3_11/x1 -> conv3_11/x1
I0221 09:01:58.625362 42564 net.cpp:122] Setting up conv3_11/x1
I0221 09:01:58.625378 42564 net.cpp:129] Top shape: 1 128 2 6 (1536)
I0221 09:01:58.625383 42564 net.cpp:137] Memory required for data: 69927344
I0221 09:01:58.625389 42564 layer_factory.hpp:77] Creating layer conv3_11/x2/bn
I0221 09:01:58.625401 42564 net.cpp:84] Creating Layer conv3_11/x2/bn
I0221 09:01:58.625406 42564 net.cpp:406] conv3_11/x2/bn <- conv3_11/x1
I0221 09:01:58.625416 42564 net.cpp:380] conv3_11/x2/bn -> conv3_11/x2/bn
I0221 09:01:58.625689 42564 net.cpp:122] Setting up conv3_11/x2/bn
I0221 09:01:58.625696 42564 net.cpp:129] Top shape: 1 128 2 6 (1536)
I0221 09:01:58.625699 42564 net.cpp:137] Memory required for data: 69933488
I0221 09:01:58.625708 42564 layer_factory.hpp:77] Creating layer conv3_11/x2/scale
I0221 09:01:58.625718 42564 net.cpp:84] Creating Layer conv3_11/x2/scale
I0221 09:01:58.625723 42564 net.cpp:406] conv3_11/x2/scale <- conv3_11/x2/bn
I0221 09:01:58.625730 42564 net.cpp:367] conv3_11/x2/scale -> conv3_11/x2/bn (in-place)
I0221 09:01:58.625780 42564 layer_factory.hpp:77] Creating layer conv3_11/x2/scale
I0221 09:01:58.625921 42564 net.cpp:122] Setting up conv3_11/x2/scale
I0221 09:01:58.625929 42564 net.cpp:129] Top shape: 1 128 2 6 (1536)
I0221 09:01:58.625932 42564 net.cpp:137] Memory required for data: 69939632
I0221 09:01:58.625939 42564 layer_factory.hpp:77] Creating layer relu3_11/x2
I0221 09:01:58.625952 42564 net.cpp:84] Creating Layer relu3_11/x2
I0221 09:01:58.625957 42564 net.cpp:406] relu3_11/x2 <- conv3_11/x2/bn
I0221 09:01:58.625962 42564 net.cpp:367] relu3_11/x2 -> conv3_11/x2/bn (in-place)
I0221 09:01:58.626269 42564 net.cpp:122] Setting up relu3_11/x2
I0221 09:01:58.626278 42564 net.cpp:129] Top shape: 1 128 2 6 (1536)
I0221 09:01:58.626282 42564 net.cpp:137] Memory required for data: 69945776
I0221 09:01:58.626286 42564 layer_factory.hpp:77] Creating layer conv3_11/x2
I0221 09:01:58.626299 42564 net.cpp:84] Creating Layer conv3_11/x2
I0221 09:01:58.626304 42564 net.cpp:406] conv3_11/x2 <- conv3_11/x2/bn
I0221 09:01:58.626313 42564 net.cpp:380] conv3_11/x2 -> conv3_11/x2
I0221 09:01:58.629777 42564 net.cpp:122] Setting up conv3_11/x2
I0221 09:01:58.629792 42564 net.cpp:129] Top shape: 1 32 2 6 (384)
I0221 09:01:58.629797 42564 net.cpp:137] Memory required for data: 69947312
I0221 09:01:58.629803 42564 layer_factory.hpp:77] Creating layer concat3_11
I0221 09:01:58.629812 42564 net.cpp:84] Creating Layer concat3_11
I0221 09:01:58.629817 42564 net.cpp:406] concat3_11 <- concat3_10_concat3_10_0_split_1
I0221 09:01:58.629823 42564 net.cpp:406] concat3_11 <- conv3_11/x2
I0221 09:01:58.629832 42564 net.cpp:380] concat3_11 -> concat3_11
I0221 09:01:58.629866 42564 net.cpp:122] Setting up concat3_11
I0221 09:01:58.629875 42564 net.cpp:129] Top shape: 1 896 2 6 (10752)
I0221 09:01:58.629879 42564 net.cpp:137] Memory required for data: 69990320
I0221 09:01:58.629882 42564 layer_factory.hpp:77] Creating layer concat3_11_concat3_11_0_split
I0221 09:01:58.629892 42564 net.cpp:84] Creating Layer concat3_11_concat3_11_0_split
I0221 09:01:58.629896 42564 net.cpp:406] concat3_11_concat3_11_0_split <- concat3_11
I0221 09:01:58.629902 42564 net.cpp:380] concat3_11_concat3_11_0_split -> concat3_11_concat3_11_0_split_0
I0221 09:01:58.629909 42564 net.cpp:380] concat3_11_concat3_11_0_split -> concat3_11_concat3_11_0_split_1
I0221 09:01:58.629958 42564 net.cpp:122] Setting up concat3_11_concat3_11_0_split
I0221 09:01:58.629964 42564 net.cpp:129] Top shape: 1 896 2 6 (10752)
I0221 09:01:58.629969 42564 net.cpp:129] Top shape: 1 896 2 6 (10752)
I0221 09:01:58.629972 42564 net.cpp:137] Memory required for data: 70076336
I0221 09:01:58.629976 42564 layer_factory.hpp:77] Creating layer conv3_12/x1/bn
I0221 09:01:58.629986 42564 net.cpp:84] Creating Layer conv3_12/x1/bn
I0221 09:01:58.629989 42564 net.cpp:406] conv3_12/x1/bn <- concat3_11_concat3_11_0_split_0
I0221 09:01:58.629995 42564 net.cpp:380] conv3_12/x1/bn -> conv3_12/x1/bn
I0221 09:01:58.630326 42564 net.cpp:122] Setting up conv3_12/x1/bn
I0221 09:01:58.630334 42564 net.cpp:129] Top shape: 1 896 2 6 (10752)
I0221 09:01:58.630337 42564 net.cpp:137] Memory required for data: 70119344
I0221 09:01:58.630347 42564 layer_factory.hpp:77] Creating layer conv3_12/x1/scale
I0221 09:01:58.630354 42564 net.cpp:84] Creating Layer conv3_12/x1/scale
I0221 09:01:58.630359 42564 net.cpp:406] conv3_12/x1/scale <- conv3_12/x1/bn
I0221 09:01:58.630365 42564 net.cpp:367] conv3_12/x1/scale -> conv3_12/x1/bn (in-place)
I0221 09:01:58.630441 42564 layer_factory.hpp:77] Creating layer conv3_12/x1/scale
I0221 09:01:58.630625 42564 net.cpp:122] Setting up conv3_12/x1/scale
I0221 09:01:58.630635 42564 net.cpp:129] Top shape: 1 896 2 6 (10752)
I0221 09:01:58.630637 42564 net.cpp:137] Memory required for data: 70162352
I0221 09:01:58.630645 42564 layer_factory.hpp:77] Creating layer relu3_12/x1
I0221 09:01:58.630652 42564 net.cpp:84] Creating Layer relu3_12/x1
I0221 09:01:58.630657 42564 net.cpp:406] relu3_12/x1 <- conv3_12/x1/bn
I0221 09:01:58.630662 42564 net.cpp:367] relu3_12/x1 -> conv3_12/x1/bn (in-place)
I0221 09:01:58.630977 42564 net.cpp:122] Setting up relu3_12/x1
I0221 09:01:58.630987 42564 net.cpp:129] Top shape: 1 896 2 6 (10752)
I0221 09:01:58.630991 42564 net.cpp:137] Memory required for data: 70205360
I0221 09:01:58.630995 42564 layer_factory.hpp:77] Creating layer conv3_12/x1
I0221 09:01:58.631007 42564 net.cpp:84] Creating Layer conv3_12/x1
I0221 09:01:58.631012 42564 net.cpp:406] conv3_12/x1 <- conv3_12/x1/bn
I0221 09:01:58.631023 42564 net.cpp:380] conv3_12/x1 -> conv3_12/x1
I0221 09:01:58.637008 42564 net.cpp:122] Setting up conv3_12/x1
I0221 09:01:58.637023 42564 net.cpp:129] Top shape: 1 128 2 6 (1536)
I0221 09:01:58.637027 42564 net.cpp:137] Memory required for data: 70211504
I0221 09:01:58.637034 42564 layer_factory.hpp:77] Creating layer conv3_12/x2/bn
I0221 09:01:58.637045 42564 net.cpp:84] Creating Layer conv3_12/x2/bn
I0221 09:01:58.637051 42564 net.cpp:406] conv3_12/x2/bn <- conv3_12/x1
I0221 09:01:58.637058 42564 net.cpp:380] conv3_12/x2/bn -> conv3_12/x2/bn
I0221 09:01:58.637334 42564 net.cpp:122] Setting up conv3_12/x2/bn
I0221 09:01:58.637342 42564 net.cpp:129] Top shape: 1 128 2 6 (1536)
I0221 09:01:58.637346 42564 net.cpp:137] Memory required for data: 70217648
I0221 09:01:58.637354 42564 layer_factory.hpp:77] Creating layer conv3_12/x2/scale
I0221 09:01:58.637365 42564 net.cpp:84] Creating Layer conv3_12/x2/scale
I0221 09:01:58.637370 42564 net.cpp:406] conv3_12/x2/scale <- conv3_12/x2/bn
I0221 09:01:58.637377 42564 net.cpp:367] conv3_12/x2/scale -> conv3_12/x2/bn (in-place)
I0221 09:01:58.637426 42564 layer_factory.hpp:77] Creating layer conv3_12/x2/scale
I0221 09:01:58.637569 42564 net.cpp:122] Setting up conv3_12/x2/scale
I0221 09:01:58.637576 42564 net.cpp:129] Top shape: 1 128 2 6 (1536)
I0221 09:01:58.637580 42564 net.cpp:137] Memory required for data: 70223792
I0221 09:01:58.637586 42564 layer_factory.hpp:77] Creating layer relu3_12/x2
I0221 09:01:58.637595 42564 net.cpp:84] Creating Layer relu3_12/x2
I0221 09:01:58.637603 42564 net.cpp:406] relu3_12/x2 <- conv3_12/x2/bn
I0221 09:01:58.637609 42564 net.cpp:367] relu3_12/x2 -> conv3_12/x2/bn (in-place)
I0221 09:01:58.638943 42564 net.cpp:122] Setting up relu3_12/x2
I0221 09:01:58.638959 42564 net.cpp:129] Top shape: 1 128 2 6 (1536)
I0221 09:01:58.638963 42564 net.cpp:137] Memory required for data: 70229936
I0221 09:01:58.638968 42564 layer_factory.hpp:77] Creating layer conv3_12/x2
I0221 09:01:58.638981 42564 net.cpp:84] Creating Layer conv3_12/x2
I0221 09:01:58.638986 42564 net.cpp:406] conv3_12/x2 <- conv3_12/x2/bn
I0221 09:01:58.638994 42564 net.cpp:380] conv3_12/x2 -> conv3_12/x2
I0221 09:01:58.643540 42564 net.cpp:122] Setting up conv3_12/x2
I0221 09:01:58.643556 42564 net.cpp:129] Top shape: 1 32 2 6 (384)
I0221 09:01:58.643560 42564 net.cpp:137] Memory required for data: 70231472
I0221 09:01:58.643568 42564 layer_factory.hpp:77] Creating layer concat3_12
I0221 09:01:58.643576 42564 net.cpp:84] Creating Layer concat3_12
I0221 09:01:58.643582 42564 net.cpp:406] concat3_12 <- concat3_11_concat3_11_0_split_1
I0221 09:01:58.643589 42564 net.cpp:406] concat3_12 <- conv3_12/x2
I0221 09:01:58.643596 42564 net.cpp:380] concat3_12 -> concat3_12
I0221 09:01:58.643640 42564 net.cpp:122] Setting up concat3_12
I0221 09:01:58.643646 42564 net.cpp:129] Top shape: 1 928 2 6 (11136)
I0221 09:01:58.643651 42564 net.cpp:137] Memory required for data: 70276016
I0221 09:01:58.643654 42564 layer_factory.hpp:77] Creating layer concat3_12_concat3_12_0_split
I0221 09:01:58.643661 42564 net.cpp:84] Creating Layer concat3_12_concat3_12_0_split
I0221 09:01:58.643664 42564 net.cpp:406] concat3_12_concat3_12_0_split <- concat3_12
I0221 09:01:58.643671 42564 net.cpp:380] concat3_12_concat3_12_0_split -> concat3_12_concat3_12_0_split_0
I0221 09:01:58.643677 42564 net.cpp:380] concat3_12_concat3_12_0_split -> concat3_12_concat3_12_0_split_1
I0221 09:01:58.643726 42564 net.cpp:122] Setting up concat3_12_concat3_12_0_split
I0221 09:01:58.643733 42564 net.cpp:129] Top shape: 1 928 2 6 (11136)
I0221 09:01:58.643738 42564 net.cpp:129] Top shape: 1 928 2 6 (11136)
I0221 09:01:58.643740 42564 net.cpp:137] Memory required for data: 70365104
I0221 09:01:58.643744 42564 layer_factory.hpp:77] Creating layer conv3_13/x1/bn
I0221 09:01:58.643754 42564 net.cpp:84] Creating Layer conv3_13/x1/bn
I0221 09:01:58.643759 42564 net.cpp:406] conv3_13/x1/bn <- concat3_12_concat3_12_0_split_0
I0221 09:01:58.643766 42564 net.cpp:380] conv3_13/x1/bn -> conv3_13/x1/bn
I0221 09:01:58.644104 42564 net.cpp:122] Setting up conv3_13/x1/bn
I0221 09:01:58.644114 42564 net.cpp:129] Top shape: 1 928 2 6 (11136)
I0221 09:01:58.644116 42564 net.cpp:137] Memory required for data: 70409648
I0221 09:01:58.644125 42564 layer_factory.hpp:77] Creating layer conv3_13/x1/scale
I0221 09:01:58.644134 42564 net.cpp:84] Creating Layer conv3_13/x1/scale
I0221 09:01:58.644140 42564 net.cpp:406] conv3_13/x1/scale <- conv3_13/x1/bn
I0221 09:01:58.644145 42564 net.cpp:367] conv3_13/x1/scale -> conv3_13/x1/bn (in-place)
I0221 09:01:58.644234 42564 layer_factory.hpp:77] Creating layer conv3_13/x1/scale
I0221 09:01:58.644428 42564 net.cpp:122] Setting up conv3_13/x1/scale
I0221 09:01:58.644435 42564 net.cpp:129] Top shape: 1 928 2 6 (11136)
I0221 09:01:58.644439 42564 net.cpp:137] Memory required for data: 70454192
I0221 09:01:58.644445 42564 layer_factory.hpp:77] Creating layer relu3_13/x1
I0221 09:01:58.644454 42564 net.cpp:84] Creating Layer relu3_13/x1
I0221 09:01:58.644459 42564 net.cpp:406] relu3_13/x1 <- conv3_13/x1/bn
I0221 09:01:58.644464 42564 net.cpp:367] relu3_13/x1 -> conv3_13/x1/bn (in-place)
I0221 09:01:58.644795 42564 net.cpp:122] Setting up relu3_13/x1
I0221 09:01:58.644804 42564 net.cpp:129] Top shape: 1 928 2 6 (11136)
I0221 09:01:58.644809 42564 net.cpp:137] Memory required for data: 70498736
I0221 09:01:58.644812 42564 layer_factory.hpp:77] Creating layer conv3_13/x1
I0221 09:01:58.644829 42564 net.cpp:84] Creating Layer conv3_13/x1
I0221 09:01:58.644834 42564 net.cpp:406] conv3_13/x1 <- conv3_13/x1/bn
I0221 09:01:58.644841 42564 net.cpp:380] conv3_13/x1 -> conv3_13/x1
I0221 09:01:58.652501 42564 net.cpp:122] Setting up conv3_13/x1
I0221 09:01:58.652518 42564 net.cpp:129] Top shape: 1 128 2 6 (1536)
I0221 09:01:58.652523 42564 net.cpp:137] Memory required for data: 70504880
I0221 09:01:58.652529 42564 layer_factory.hpp:77] Creating layer conv3_13/x2/bn
I0221 09:01:58.652539 42564 net.cpp:84] Creating Layer conv3_13/x2/bn
I0221 09:01:58.652545 42564 net.cpp:406] conv3_13/x2/bn <- conv3_13/x1
I0221 09:01:58.652552 42564 net.cpp:380] conv3_13/x2/bn -> conv3_13/x2/bn
I0221 09:01:58.652848 42564 net.cpp:122] Setting up conv3_13/x2/bn
I0221 09:01:58.652855 42564 net.cpp:129] Top shape: 1 128 2 6 (1536)
I0221 09:01:58.652859 42564 net.cpp:137] Memory required for data: 70511024
I0221 09:01:58.652868 42564 layer_factory.hpp:77] Creating layer conv3_13/x2/scale
I0221 09:01:58.652878 42564 net.cpp:84] Creating Layer conv3_13/x2/scale
I0221 09:01:58.652884 42564 net.cpp:406] conv3_13/x2/scale <- conv3_13/x2/bn
I0221 09:01:58.652889 42564 net.cpp:367] conv3_13/x2/scale -> conv3_13/x2/bn (in-place)
I0221 09:01:58.652940 42564 layer_factory.hpp:77] Creating layer conv3_13/x2/scale
I0221 09:01:58.653086 42564 net.cpp:122] Setting up conv3_13/x2/scale
I0221 09:01:58.653095 42564 net.cpp:129] Top shape: 1 128 2 6 (1536)
I0221 09:01:58.653097 42564 net.cpp:137] Memory required for data: 70517168
I0221 09:01:58.653105 42564 layer_factory.hpp:77] Creating layer relu3_13/x2
I0221 09:01:58.653113 42564 net.cpp:84] Creating Layer relu3_13/x2
I0221 09:01:58.653117 42564 net.cpp:406] relu3_13/x2 <- conv3_13/x2/bn
I0221 09:01:58.653122 42564 net.cpp:367] relu3_13/x2 -> conv3_13/x2/bn (in-place)
I0221 09:01:58.653439 42564 net.cpp:122] Setting up relu3_13/x2
I0221 09:01:58.653450 42564 net.cpp:129] Top shape: 1 128 2 6 (1536)
I0221 09:01:58.653453 42564 net.cpp:137] Memory required for data: 70523312
I0221 09:01:58.653457 42564 layer_factory.hpp:77] Creating layer conv3_13/x2
I0221 09:01:58.653470 42564 net.cpp:84] Creating Layer conv3_13/x2
I0221 09:01:58.653475 42564 net.cpp:406] conv3_13/x2 <- conv3_13/x2/bn
I0221 09:01:58.653482 42564 net.cpp:380] conv3_13/x2 -> conv3_13/x2
I0221 09:01:58.656963 42564 net.cpp:122] Setting up conv3_13/x2
I0221 09:01:58.656980 42564 net.cpp:129] Top shape: 1 32 2 6 (384)
I0221 09:01:58.656983 42564 net.cpp:137] Memory required for data: 70524848
I0221 09:01:58.656991 42564 layer_factory.hpp:77] Creating layer concat3_13
I0221 09:01:58.656999 42564 net.cpp:84] Creating Layer concat3_13
I0221 09:01:58.657004 42564 net.cpp:406] concat3_13 <- concat3_12_concat3_12_0_split_1
I0221 09:01:58.657011 42564 net.cpp:406] concat3_13 <- conv3_13/x2
I0221 09:01:58.657019 42564 net.cpp:380] concat3_13 -> concat3_13
I0221 09:01:58.657058 42564 net.cpp:122] Setting up concat3_13
I0221 09:01:58.657064 42564 net.cpp:129] Top shape: 1 960 2 6 (11520)
I0221 09:01:58.657068 42564 net.cpp:137] Memory required for data: 70570928
I0221 09:01:58.657071 42564 layer_factory.hpp:77] Creating layer concat3_13_concat3_13_0_split
I0221 09:01:58.657078 42564 net.cpp:84] Creating Layer concat3_13_concat3_13_0_split
I0221 09:01:58.657083 42564 net.cpp:406] concat3_13_concat3_13_0_split <- concat3_13
I0221 09:01:58.657088 42564 net.cpp:380] concat3_13_concat3_13_0_split -> concat3_13_concat3_13_0_split_0
I0221 09:01:58.657094 42564 net.cpp:380] concat3_13_concat3_13_0_split -> concat3_13_concat3_13_0_split_1
I0221 09:01:58.657143 42564 net.cpp:122] Setting up concat3_13_concat3_13_0_split
I0221 09:01:58.657150 42564 net.cpp:129] Top shape: 1 960 2 6 (11520)
I0221 09:01:58.657153 42564 net.cpp:129] Top shape: 1 960 2 6 (11520)
I0221 09:01:58.657157 42564 net.cpp:137] Memory required for data: 70663088
I0221 09:01:58.657160 42564 layer_factory.hpp:77] Creating layer conv3_14/x1/bn
I0221 09:01:58.657169 42564 net.cpp:84] Creating Layer conv3_14/x1/bn
I0221 09:01:58.657173 42564 net.cpp:406] conv3_14/x1/bn <- concat3_13_concat3_13_0_split_0
I0221 09:01:58.657181 42564 net.cpp:380] conv3_14/x1/bn -> conv3_14/x1/bn
I0221 09:01:58.657524 42564 net.cpp:122] Setting up conv3_14/x1/bn
I0221 09:01:58.657538 42564 net.cpp:129] Top shape: 1 960 2 6 (11520)
I0221 09:01:58.657542 42564 net.cpp:137] Memory required for data: 70709168
I0221 09:01:58.657551 42564 layer_factory.hpp:77] Creating layer conv3_14/x1/scale
I0221 09:01:58.657559 42564 net.cpp:84] Creating Layer conv3_14/x1/scale
I0221 09:01:58.657564 42564 net.cpp:406] conv3_14/x1/scale <- conv3_14/x1/bn
I0221 09:01:58.657569 42564 net.cpp:367] conv3_14/x1/scale -> conv3_14/x1/bn (in-place)
I0221 09:01:58.657660 42564 layer_factory.hpp:77] Creating layer conv3_14/x1/scale
I0221 09:01:58.657856 42564 net.cpp:122] Setting up conv3_14/x1/scale
I0221 09:01:58.657865 42564 net.cpp:129] Top shape: 1 960 2 6 (11520)
I0221 09:01:58.657868 42564 net.cpp:137] Memory required for data: 70755248
I0221 09:01:58.657876 42564 layer_factory.hpp:77] Creating layer relu3_14/x1
I0221 09:01:58.657881 42564 net.cpp:84] Creating Layer relu3_14/x1
I0221 09:01:58.657886 42564 net.cpp:406] relu3_14/x1 <- conv3_14/x1/bn
I0221 09:01:58.657891 42564 net.cpp:367] relu3_14/x1 -> conv3_14/x1/bn (in-place)
I0221 09:01:58.659241 42564 net.cpp:122] Setting up relu3_14/x1
I0221 09:01:58.659256 42564 net.cpp:129] Top shape: 1 960 2 6 (11520)
I0221 09:01:58.659260 42564 net.cpp:137] Memory required for data: 70801328
I0221 09:01:58.659265 42564 layer_factory.hpp:77] Creating layer conv3_14/x1
I0221 09:01:58.659278 42564 net.cpp:84] Creating Layer conv3_14/x1
I0221 09:01:58.659283 42564 net.cpp:406] conv3_14/x1 <- conv3_14/x1/bn
I0221 09:01:58.659291 42564 net.cpp:380] conv3_14/x1 -> conv3_14/x1
I0221 09:01:58.665797 42564 net.cpp:122] Setting up conv3_14/x1
I0221 09:01:58.665813 42564 net.cpp:129] Top shape: 1 128 2 6 (1536)
I0221 09:01:58.665818 42564 net.cpp:137] Memory required for data: 70807472
I0221 09:01:58.665825 42564 layer_factory.hpp:77] Creating layer conv3_14/x2/bn
I0221 09:01:58.665835 42564 net.cpp:84] Creating Layer conv3_14/x2/bn
I0221 09:01:58.665841 42564 net.cpp:406] conv3_14/x2/bn <- conv3_14/x1
I0221 09:01:58.665848 42564 net.cpp:380] conv3_14/x2/bn -> conv3_14/x2/bn
I0221 09:01:58.666133 42564 net.cpp:122] Setting up conv3_14/x2/bn
I0221 09:01:58.666141 42564 net.cpp:129] Top shape: 1 128 2 6 (1536)
I0221 09:01:58.666146 42564 net.cpp:137] Memory required for data: 70813616
I0221 09:01:58.666154 42564 layer_factory.hpp:77] Creating layer conv3_14/x2/scale
I0221 09:01:58.666167 42564 net.cpp:84] Creating Layer conv3_14/x2/scale
I0221 09:01:58.666172 42564 net.cpp:406] conv3_14/x2/scale <- conv3_14/x2/bn
I0221 09:01:58.666177 42564 net.cpp:367] conv3_14/x2/scale -> conv3_14/x2/bn (in-place)
I0221 09:01:58.666227 42564 layer_factory.hpp:77] Creating layer conv3_14/x2/scale
I0221 09:01:58.666373 42564 net.cpp:122] Setting up conv3_14/x2/scale
I0221 09:01:58.666379 42564 net.cpp:129] Top shape: 1 128 2 6 (1536)
I0221 09:01:58.666383 42564 net.cpp:137] Memory required for data: 70819760
I0221 09:01:58.666389 42564 layer_factory.hpp:77] Creating layer relu3_14/x2
I0221 09:01:58.666398 42564 net.cpp:84] Creating Layer relu3_14/x2
I0221 09:01:58.666401 42564 net.cpp:406] relu3_14/x2 <- conv3_14/x2/bn
I0221 09:01:58.666409 42564 net.cpp:367] relu3_14/x2 -> conv3_14/x2/bn (in-place)
I0221 09:01:58.666720 42564 net.cpp:122] Setting up relu3_14/x2
I0221 09:01:58.666730 42564 net.cpp:129] Top shape: 1 128 2 6 (1536)
I0221 09:01:58.666734 42564 net.cpp:137] Memory required for data: 70825904
I0221 09:01:58.666738 42564 layer_factory.hpp:77] Creating layer conv3_14/x2
I0221 09:01:58.666751 42564 net.cpp:84] Creating Layer conv3_14/x2
I0221 09:01:58.666755 42564 net.cpp:406] conv3_14/x2 <- conv3_14/x2/bn
I0221 09:01:58.666764 42564 net.cpp:380] conv3_14/x2 -> conv3_14/x2
I0221 09:01:58.672420 42564 net.cpp:122] Setting up conv3_14/x2
I0221 09:01:58.672435 42564 net.cpp:129] Top shape: 1 32 2 6 (384)
I0221 09:01:58.672439 42564 net.cpp:137] Memory required for data: 70827440
I0221 09:01:58.672446 42564 layer_factory.hpp:77] Creating layer concat3_14
I0221 09:01:58.672456 42564 net.cpp:84] Creating Layer concat3_14
I0221 09:01:58.672461 42564 net.cpp:406] concat3_14 <- concat3_13_concat3_13_0_split_1
I0221 09:01:58.672472 42564 net.cpp:406] concat3_14 <- conv3_14/x2
I0221 09:01:58.672478 42564 net.cpp:380] concat3_14 -> concat3_14
I0221 09:01:58.672523 42564 net.cpp:122] Setting up concat3_14
I0221 09:01:58.672530 42564 net.cpp:129] Top shape: 1 992 2 6 (11904)
I0221 09:01:58.672534 42564 net.cpp:137] Memory required for data: 70875056
I0221 09:01:58.672538 42564 layer_factory.hpp:77] Creating layer concat3_14_concat3_14_0_split
I0221 09:01:58.672545 42564 net.cpp:84] Creating Layer concat3_14_concat3_14_0_split
I0221 09:01:58.672550 42564 net.cpp:406] concat3_14_concat3_14_0_split <- concat3_14
I0221 09:01:58.672555 42564 net.cpp:380] concat3_14_concat3_14_0_split -> concat3_14_concat3_14_0_split_0
I0221 09:01:58.672562 42564 net.cpp:380] concat3_14_concat3_14_0_split -> concat3_14_concat3_14_0_split_1
I0221 09:01:58.672613 42564 net.cpp:122] Setting up concat3_14_concat3_14_0_split
I0221 09:01:58.672621 42564 net.cpp:129] Top shape: 1 992 2 6 (11904)
I0221 09:01:58.672624 42564 net.cpp:129] Top shape: 1 992 2 6 (11904)
I0221 09:01:58.672636 42564 net.cpp:137] Memory required for data: 70970288
I0221 09:01:58.672639 42564 layer_factory.hpp:77] Creating layer conv3_15/x1/bn
I0221 09:01:58.672646 42564 net.cpp:84] Creating Layer conv3_15/x1/bn
I0221 09:01:58.672652 42564 net.cpp:406] conv3_15/x1/bn <- concat3_14_concat3_14_0_split_0
I0221 09:01:58.672658 42564 net.cpp:380] conv3_15/x1/bn -> conv3_15/x1/bn
I0221 09:01:58.673024 42564 net.cpp:122] Setting up conv3_15/x1/bn
I0221 09:01:58.673032 42564 net.cpp:129] Top shape: 1 992 2 6 (11904)
I0221 09:01:58.673035 42564 net.cpp:137] Memory required for data: 71017904
I0221 09:01:58.673044 42564 layer_factory.hpp:77] Creating layer conv3_15/x1/scale
I0221 09:01:58.673053 42564 net.cpp:84] Creating Layer conv3_15/x1/scale
I0221 09:01:58.673058 42564 net.cpp:406] conv3_15/x1/scale <- conv3_15/x1/bn
I0221 09:01:58.673063 42564 net.cpp:367] conv3_15/x1/scale -> conv3_15/x1/bn (in-place)
I0221 09:01:58.673153 42564 layer_factory.hpp:77] Creating layer conv3_15/x1/scale
I0221 09:01:58.673347 42564 net.cpp:122] Setting up conv3_15/x1/scale
I0221 09:01:58.673355 42564 net.cpp:129] Top shape: 1 992 2 6 (11904)
I0221 09:01:58.673359 42564 net.cpp:137] Memory required for data: 71065520
I0221 09:01:58.673365 42564 layer_factory.hpp:77] Creating layer relu3_15/x1
I0221 09:01:58.673374 42564 net.cpp:84] Creating Layer relu3_15/x1
I0221 09:01:58.673379 42564 net.cpp:406] relu3_15/x1 <- conv3_15/x1/bn
I0221 09:01:58.673384 42564 net.cpp:367] relu3_15/x1 -> conv3_15/x1/bn (in-place)
I0221 09:01:58.673710 42564 net.cpp:122] Setting up relu3_15/x1
I0221 09:01:58.673719 42564 net.cpp:129] Top shape: 1 992 2 6 (11904)
I0221 09:01:58.673723 42564 net.cpp:137] Memory required for data: 71113136
I0221 09:01:58.673728 42564 layer_factory.hpp:77] Creating layer conv3_15/x1
I0221 09:01:58.673743 42564 net.cpp:84] Creating Layer conv3_15/x1
I0221 09:01:58.673748 42564 net.cpp:406] conv3_15/x1 <- conv3_15/x1/bn
I0221 09:01:58.673754 42564 net.cpp:380] conv3_15/x1 -> conv3_15/x1
I0221 09:01:58.680141 42564 net.cpp:122] Setting up conv3_15/x1
I0221 09:01:58.680157 42564 net.cpp:129] Top shape: 1 128 2 6 (1536)
I0221 09:01:58.680161 42564 net.cpp:137] Memory required for data: 71119280
I0221 09:01:58.680168 42564 layer_factory.hpp:77] Creating layer conv3_15/x2/bn
I0221 09:01:58.680179 42564 net.cpp:84] Creating Layer conv3_15/x2/bn
I0221 09:01:58.680186 42564 net.cpp:406] conv3_15/x2/bn <- conv3_15/x1
I0221 09:01:58.680193 42564 net.cpp:380] conv3_15/x2/bn -> conv3_15/x2/bn
I0221 09:01:58.680480 42564 net.cpp:122] Setting up conv3_15/x2/bn
I0221 09:01:58.680487 42564 net.cpp:129] Top shape: 1 128 2 6 (1536)
I0221 09:01:58.680491 42564 net.cpp:137] Memory required for data: 71125424
I0221 09:01:58.680500 42564 layer_factory.hpp:77] Creating layer conv3_15/x2/scale
I0221 09:01:58.680508 42564 net.cpp:84] Creating Layer conv3_15/x2/scale
I0221 09:01:58.680513 42564 net.cpp:406] conv3_15/x2/scale <- conv3_15/x2/bn
I0221 09:01:58.680519 42564 net.cpp:367] conv3_15/x2/scale -> conv3_15/x2/bn (in-place)
I0221 09:01:58.680580 42564 layer_factory.hpp:77] Creating layer conv3_15/x2/scale
I0221 09:01:58.680735 42564 net.cpp:122] Setting up conv3_15/x2/scale
I0221 09:01:58.680743 42564 net.cpp:129] Top shape: 1 128 2 6 (1536)
I0221 09:01:58.680747 42564 net.cpp:137] Memory required for data: 71131568
I0221 09:01:58.680754 42564 layer_factory.hpp:77] Creating layer relu3_15/x2
I0221 09:01:58.680761 42564 net.cpp:84] Creating Layer relu3_15/x2
I0221 09:01:58.680765 42564 net.cpp:406] relu3_15/x2 <- conv3_15/x2/bn
I0221 09:01:58.680773 42564 net.cpp:367] relu3_15/x2 -> conv3_15/x2/bn (in-place)
I0221 09:01:58.682109 42564 net.cpp:122] Setting up relu3_15/x2
I0221 09:01:58.682123 42564 net.cpp:129] Top shape: 1 128 2 6 (1536)
I0221 09:01:58.682127 42564 net.cpp:137] Memory required for data: 71137712
I0221 09:01:58.682132 42564 layer_factory.hpp:77] Creating layer conv3_15/x2
I0221 09:01:58.682145 42564 net.cpp:84] Creating Layer conv3_15/x2
I0221 09:01:58.682150 42564 net.cpp:406] conv3_15/x2 <- conv3_15/x2/bn
I0221 09:01:58.682159 42564 net.cpp:380] conv3_15/x2 -> conv3_15/x2
I0221 09:01:58.685638 42564 net.cpp:122] Setting up conv3_15/x2
I0221 09:01:58.685653 42564 net.cpp:129] Top shape: 1 32 2 6 (384)
I0221 09:01:58.685657 42564 net.cpp:137] Memory required for data: 71139248
I0221 09:01:58.685664 42564 layer_factory.hpp:77] Creating layer concat3_15
I0221 09:01:58.685675 42564 net.cpp:84] Creating Layer concat3_15
I0221 09:01:58.685680 42564 net.cpp:406] concat3_15 <- concat3_14_concat3_14_0_split_1
I0221 09:01:58.685688 42564 net.cpp:406] concat3_15 <- conv3_15/x2
I0221 09:01:58.685693 42564 net.cpp:380] concat3_15 -> concat3_15
I0221 09:01:58.685731 42564 net.cpp:122] Setting up concat3_15
I0221 09:01:58.685739 42564 net.cpp:129] Top shape: 1 1024 2 6 (12288)
I0221 09:01:58.685741 42564 net.cpp:137] Memory required for data: 71188400
I0221 09:01:58.685745 42564 layer_factory.hpp:77] Creating layer conv3_blk/bn
I0221 09:01:58.685755 42564 net.cpp:84] Creating Layer conv3_blk/bn
I0221 09:01:58.685758 42564 net.cpp:406] conv3_blk/bn <- concat3_15
I0221 09:01:58.685765 42564 net.cpp:380] conv3_blk/bn -> conv3_blk/bn
I0221 09:01:58.686110 42564 net.cpp:122] Setting up conv3_blk/bn
I0221 09:01:58.686118 42564 net.cpp:129] Top shape: 1 1024 2 6 (12288)
I0221 09:01:58.686122 42564 net.cpp:137] Memory required for data: 71237552
I0221 09:01:58.686131 42564 layer_factory.hpp:77] Creating layer conv3_blk/scale
I0221 09:01:58.686139 42564 net.cpp:84] Creating Layer conv3_blk/scale
I0221 09:01:58.686143 42564 net.cpp:406] conv3_blk/scale <- conv3_blk/bn
I0221 09:01:58.686153 42564 net.cpp:367] conv3_blk/scale -> conv3_blk/bn (in-place)
I0221 09:01:58.686233 42564 layer_factory.hpp:77] Creating layer conv3_blk/scale
I0221 09:01:58.686424 42564 net.cpp:122] Setting up conv3_blk/scale
I0221 09:01:58.686434 42564 net.cpp:129] Top shape: 1 1024 2 6 (12288)
I0221 09:01:58.686436 42564 net.cpp:137] Memory required for data: 71286704
I0221 09:01:58.686444 42564 layer_factory.hpp:77] Creating layer relu3_blk
I0221 09:01:58.686450 42564 net.cpp:84] Creating Layer relu3_blk
I0221 09:01:58.686455 42564 net.cpp:406] relu3_blk <- conv3_blk/bn
I0221 09:01:58.686460 42564 net.cpp:367] relu3_blk -> conv3_blk/bn (in-place)
I0221 09:01:58.686775 42564 net.cpp:122] Setting up relu3_blk
I0221 09:01:58.686784 42564 net.cpp:129] Top shape: 1 1024 2 6 (12288)
I0221 09:01:58.686789 42564 net.cpp:137] Memory required for data: 71335856
I0221 09:01:58.686792 42564 layer_factory.hpp:77] Creating layer gp
I0221 09:01:58.686800 42564 net.cpp:84] Creating Layer gp
I0221 09:01:58.686805 42564 net.cpp:406] gp <- conv3_blk/bn
I0221 09:01:58.686812 42564 net.cpp:380] gp -> gp
I0221 09:01:58.687142 42564 net.cpp:122] Setting up gp
I0221 09:01:58.687152 42564 net.cpp:129] Top shape: 1 1024 1 1 (1024)
I0221 09:01:58.687155 42564 net.cpp:137] Memory required for data: 71339952
I0221 09:01:58.687160 42564 layer_factory.hpp:77] Creating layer fc6_d
I0221 09:01:58.687170 42564 net.cpp:84] Creating Layer fc6_d
I0221 09:01:58.687175 42564 net.cpp:406] fc6_d <- gp
I0221 09:01:58.687185 42564 net.cpp:380] fc6_d -> fc6_d
I0221 09:01:58.828225 42564 net.cpp:122] Setting up fc6_d
I0221 09:01:58.828261 42564 net.cpp:129] Top shape: 1 4096 (4096)
I0221 09:01:58.828264 42564 net.cpp:137] Memory required for data: 71356336
I0221 09:01:58.828275 42564 layer_factory.hpp:77] Creating layer relu6
I0221 09:01:58.828289 42564 net.cpp:84] Creating Layer relu6
I0221 09:01:58.828295 42564 net.cpp:406] relu6 <- fc6_d
I0221 09:01:58.828303 42564 net.cpp:367] relu6 -> fc6_d (in-place)
I0221 09:01:58.828714 42564 net.cpp:122] Setting up relu6
I0221 09:01:58.828725 42564 net.cpp:129] Top shape: 1 4096 (4096)
I0221 09:01:58.828728 42564 net.cpp:137] Memory required for data: 71372720
I0221 09:01:58.828732 42564 layer_factory.hpp:77] Creating layer fc7_d
I0221 09:01:58.828743 42564 net.cpp:84] Creating Layer fc7_d
I0221 09:01:58.828747 42564 net.cpp:406] fc7_d <- fc6_d
I0221 09:01:58.828755 42564 net.cpp:380] fc7_d -> fc7_d
I0221 09:01:59.340770 42564 net.cpp:122] Setting up fc7_d
I0221 09:01:59.340811 42564 net.cpp:129] Top shape: 1 4096 (4096)
I0221 09:01:59.340816 42564 net.cpp:137] Memory required for data: 71389104
I0221 09:01:59.340826 42564 layer_factory.hpp:77] Creating layer relu7
I0221 09:01:59.340838 42564 net.cpp:84] Creating Layer relu7
I0221 09:01:59.340845 42564 net.cpp:406] relu7 <- fc7_d
I0221 09:01:59.340854 42564 net.cpp:367] relu7 -> fc7_d (in-place)
I0221 09:01:59.342528 42564 net.cpp:122] Setting up relu7
I0221 09:01:59.342542 42564 net.cpp:129] Top shape: 1 4096 (4096)
I0221 09:01:59.342546 42564 net.cpp:137] Memory required for data: 71405488
I0221 09:01:59.342550 42564 layer_factory.hpp:77] Creating layer fc8_d
I0221 09:01:59.342561 42564 net.cpp:84] Creating Layer fc8_d
I0221 09:01:59.342566 42564 net.cpp:406] fc8_d <- fc7_d
I0221 09:01:59.342573 42564 net.cpp:380] fc8_d -> fc8_d
I0221 09:01:59.419337 42564 net.cpp:122] Setting up fc8_d
I0221 09:01:59.419363 42564 net.cpp:129] Top shape: 1 618 (618)
I0221 09:01:59.419366 42564 net.cpp:137] Memory required for data: 71407960
I0221 09:01:59.419375 42564 layer_factory.hpp:77] Creating layer fc8_d_fc8_d_0_split
I0221 09:01:59.419384 42564 net.cpp:84] Creating Layer fc8_d_fc8_d_0_split
I0221 09:01:59.419389 42564 net.cpp:406] fc8_d_fc8_d_0_split <- fc8_d
I0221 09:01:59.419395 42564 net.cpp:380] fc8_d_fc8_d_0_split -> fc8_d_fc8_d_0_split_0
I0221 09:01:59.419404 42564 net.cpp:380] fc8_d_fc8_d_0_split -> fc8_d_fc8_d_0_split_1
I0221 09:01:59.419452 42564 net.cpp:122] Setting up fc8_d_fc8_d_0_split
I0221 09:01:59.419458 42564 net.cpp:129] Top shape: 1 618 (618)
I0221 09:01:59.419462 42564 net.cpp:129] Top shape: 1 618 (618)
I0221 09:01:59.419466 42564 net.cpp:137] Memory required for data: 71412904
I0221 09:01:59.419469 42564 layer_factory.hpp:77] Creating layer sigmoid
I0221 09:01:59.419477 42564 net.cpp:84] Creating Layer sigmoid
I0221 09:01:59.419481 42564 net.cpp:406] sigmoid <- fc8_d_fc8_d_0_split_0
I0221 09:01:59.419490 42564 net.cpp:380] sigmoid -> sigmoid
I0221 09:01:59.419847 42564 net.cpp:122] Setting up sigmoid
I0221 09:01:59.419857 42564 net.cpp:129] Top shape: 1 618 (618)
I0221 09:01:59.419860 42564 net.cpp:137] Memory required for data: 71415376
I0221 09:01:59.419864 42564 layer_factory.hpp:77] Creating layer silence
I0221 09:01:59.419872 42564 net.cpp:84] Creating Layer silence
I0221 09:01:59.419875 42564 net.cpp:406] silence <- sigmoid
I0221 09:01:59.419883 42564 net.cpp:122] Setting up silence
I0221 09:01:59.419885 42564 net.cpp:137] Memory required for data: 71415376
…
