…
  phase: TRAIN
}
layer {
  name: "word_images"
  type: "Data"
  top: "word_images"
  top: "label"
  transform_param {
    scale: -0.0039215689
    mean_value: 255
  }
  data_param {
    source: "/data/fwolf/iam_50000/iam-db_nti500000_pul2-3-4-5_train_word_images_lmdb"
    batch_size: 1
    backend: LMDB
    prefetch: 20
  }
}
layer {
  name: "phocs"
  type: "Data"
  top: "phocs"
  top: "label_phocs"
  data_param {
    source: "/data/fwolf/iam_50000/iam-db_nti500000_pul2-3-4-5_train_phocs_lmdb"
    batch_size: 1
    backend: LMDB
    prefetch: 20
  }
}
layer {
  name: "conv_init"
  type: "Convolution"
  bottom: "word_images"
  top: "conv_init"
  convolution_param {
    num_output: 32
    bias_term: false
    pad: 1
    kernel_size: 3
    stride: 1
    weight_filler {
      type: "msra"
    }
    bias_filler {
      type: "constant"
    }
    engine: CUDNN
  }
}
layer {
  name: "bn_init"
  type: "BatchNorm"
  bottom: "conv_init"
  top: "bn_init"
  param {
    lr_mult: 0
    decay_mult: 0
  }
  param {
    lr_mult: 0
    decay_mult: 0
  }
  param {
    lr_mult: 0
    decay_mult: 0
  }
  batch_norm_param {
    eps: 1e-05
  }
}
layer {
  name: "scale_init"
  type: "Scale"
  bottom: "bn_init"
  top: "bn_init"
  scale_param {
    filler {
      value: 1
    }
    bias_term: true
    bias_filler {
      value: 0
    }
  }
}
layer {
  name: "relu_init"
  type: "ReLU"
  bottom: "bn_init"
  top: "bn_init"
}
layer {
  name: "pool_init"
  type: "Pooling"
  bottom: "bn_init"
  top: "pool_init"
  pooling_param {
    pool: MAX
    kernel_size: 3
    stride: 2
    pad: 1
  }
}
layer {
  name: "conv0_0/bn"
  type: "BatchNorm"
  bottom: "pool_init"
  top: "conv0_0/bn"
  param {
    lr_mult: 0
    decay_mult: 0
  }
  param {
    lr_mult: 0
    decay_mult: 0
  }
  param {
    lr_mult: 0
    decay_mult: 0
  }
}
layer {
  name: "conv0_0/scale"
  type: "Scale"
  bottom: "conv0_0/bn"
  top: "conv0_0/bn"
  scale_param {
    filler {
      value: 1
    }
    bias_term: true
    bias_filler {
      value: 0
    }
  }
}
layer {
  name: "relu0_0"
  type: "ReLU"
  bottom: "conv0_0/bn"
  top: "conv0_0/bn"
}
layer {
  name: "conv0_0"
  type: "Convolution"
  bottom: "conv0_0/bn"
  top: "conv0_0"
  convolution_param {
    num_output: 32
    bias_term: false
    pad: 1
    kernel_size: 3
    stride: 1
    weight_filler {
      type: "msra"
    }
    bias_filler {
      type: "constant"
    }
    engine: CUDNN
  }
}
layer {
  name: "concat0_0"
  type: "Concat"
  bottom: "pool_init"
  bottom: "conv0_0"
  top: "concat0_0"
  concat_param {
    axis: 1
  }
}
layer {
  name: "conv0_1/bn"
  type: "BatchNorm"
  bottom: "concat0_0"
  top: "conv0_1/bn"
  param {
    lr_mult: 0
    decay_mult: 0
  }
  param {
    lr_mult: 0
    decay_mult: 0
  }
  param {
    lr_mult: 0
    decay_mult: 0
  }
}
layer {
  name: "conv0_1/scale"
  type: "Scale"
  bottom: "conv0_1/bn"
  top: "conv0_1/bn"
  scale_param {
    filler {
      value: 1
    }
    bias_term: true
    bias_filler {
      value: 0
    }
  }
}
layer {
  name: "relu0_1"
  type: "ReLU"
  bottom: "conv0_1/bn"
  top: "conv0_1/bn"
}
layer {
  name: "conv0_1"
  type: "Convolution"
  bottom: "conv0_1/bn"
  top: "conv0_1"
  convolution_param {
    num_output: 32
    bias_term: false
    pad: 1
    kernel_size: 3
    stride: 1
    weight_filler {
      type: "msra"
    }
    bias_filler {
      type: "constant"
    }
    engine: CUDNN
  }
}
layer {
  name: "concat0_1"
  type: "Concat"
  bottom: "concat0_0"
  bottom: "conv0_1"
  top: "concat0_1"
  concat_param {
    axis: 1
  }
}
layer {
  name: "conv0_2/bn"
  type: "BatchNorm"
  bottom: "concat0_1"
  top: "conv0_2/bn"
  param {
    lr_mult: 0
    decay_mult: 0
  }
  param {
    lr_mult: 0
    decay_mult: 0
  }
  param {
    lr_mult: 0
    decay_mult: 0
  }
}
layer {
  name: "conv0_2/scale"
  type: "Scale"
  bottom: "conv0_2/bn"
  top: "conv0_2/bn"
  scale_param {
    filler {
      value: 1
    }
    bias_term: true
    bias_filler {
      value: 0
    }
  }
}
layer {
  name: "relu0_2"
  type: "ReLU"
  bottom: "conv0_2/bn"
  top: "conv0_2/bn"
}
layer {
  name: "conv0_2"
  type: "Convolution"
  bottom: "conv0_2/bn"
  top: "conv0_2"
  convolution_param {
    num_output: 32
    bias_term: false
    pad: 1
    kernel_size: 3
    stride: 1
    weight_filler {
      type: "msra"
    }
    bias_filler {
      type: "constant"
    }
    engine: CUDNN
  }
}
layer {
  name: "concat0_2"
  type: "Concat"
  bottom: "concat0_1"
  bottom: "conv0_2"
  top: "concat0_2"
  concat_param {
    axis: 1
  }
}
layer {
  name: "conv0_3/bn"
  type: "BatchNorm"
  bottom: "concat0_2"
  top: "conv0_3/bn"
  param {
    lr_mult: 0
    decay_mult: 0
  }
  param {
    lr_mult: 0
    decay_mult: 0
  }
  param {
    lr_mult: 0
    decay_mult: 0
  }
}
layer {
  name: "conv0_3/scale"
  type: "Scale"
  bottom: "conv0_3/bn"
  top: "conv0_3/bn"
  scale_param {
    filler {
      value: 1
    }
    bias_term: true
    bias_filler {
      value: 0
    }
  }
}
layer {
  name: "relu0_3"
  type: "ReLU"
  bottom: "conv0_3/bn"
  top: "conv0_3/bn"
}
layer {
  name: "conv0_3"
  type: "Convolution"
  bottom: "conv0_3/bn"
  top: "conv0_3"
  convolution_param {
    num_output: 32
    bias_term: false
    pad: 1
    kernel_size: 3
    stride: 1
    weight_filler {
      type: "msra"
    }
    bias_filler {
      type: "constant"
    }
    engine: CUDNN
  }
}
layer {
  name: "concat0_3"
  type: "Concat"
  bottom: "concat0_2"
  bottom: "conv0_3"
  top: "concat0_3"
  concat_param {
    axis: 1
  }
}
layer {
  name: "conv0_4/bn"
  type: "BatchNorm"
  bottom: "concat0_3"
  top: "conv0_4/bn"
  param {
    lr_mult: 0
    decay_mult: 0
  }
  param {
    lr_mult: 0
    decay_mult: 0
  }
  param {
    lr_mult: 0
    decay_mult: 0
  }
}
layer {
  name: "conv0_4/scale"
  type: "Scale"
  bottom: "conv0_4/bn"
  top: "conv0_4/bn"
  scale_param {
    filler {
      value: 1
    }
    bias_term: true
    bias_filler {
      value: 0
    }
  }
}
layer {
  name: "relu0_4"
  type: "ReLU"
  bottom: "conv0_4/bn"
  top: "conv0_4/bn"
}
layer {
  name: "conv0_4"
  type: "Convolution"
  bottom: "conv0_4/bn"
  top: "conv0_4"
  convolution_param {
    num_output: 32
    bias_term: false
    pad: 1
    kernel_size: 3
    stride: 1
    weight_filler {
      type: "msra"
    }
    bias_filler {
      type: "constant"
    }
    engine: CUDNN
  }
}
layer {
  name: "concat0_4"
  type: "Concat"
  bottom: "concat0_3"
  bottom: "conv0_4"
  top: "concat0_4"
  concat_param {
    axis: 1
  }
}
layer {
  name: "conv0_5/bn"
  type: "BatchNorm"
  bottom: "concat0_4"
  top: "conv0_5/bn"
  param {
    lr_mult: 0
    decay_mult: 0
  }
  param {
    lr_mult: 0
    decay_mult: 0
  }
  param {
    lr_mult: 0
    decay_mult: 0
  }
}
layer {
  name: "conv0_5/scale"
  type: "Scale"
  bottom: "conv0_5/bn"
  top: "conv0_5/bn"
  scale_param {
    filler {
      value: 1
    }
    bias_term: true
    bias_filler {
      value: 0
    }
  }
}
layer {
  name: "relu0_5"
  type: "ReLU"
  bottom: "conv0_5/bn"
  top: "conv0_5/bn"
}
layer {
  name: "conv0_5"
  type: "Convolution"
  bottom: "conv0_5/bn"
  top: "conv0_5"
  convolution_param {
    num_output: 32
    bias_term: false
    pad: 1
    kernel_size: 3
    stride: 1
    weight_filler {
      type: "msra"
    }
    bias_filler {
      type: "constant"
    }
    engine: CUDNN
  }
}
layer {
  name: "concat0_5"
  type: "Concat"
  bottom: "concat0_4"
  bottom: "conv0_5"
  top: "concat0_5"
  concat_param {
    axis: 1
  }
}
layer {
  name: "conv0_6/bn"
  type: "BatchNorm"
  bottom: "concat0_5"
  top: "conv0_6/bn"
  param {
    lr_mult: 0
    decay_mult: 0
  }
  param {
    lr_mult: 0
    decay_mult: 0
  }
  param {
    lr_mult: 0
    decay_mult: 0
  }
}
layer {
  name: "conv0_6/scale"
  type: "Scale"
  bottom: "conv0_6/bn"
  top: "conv0_6/bn"
  scale_param {
    filler {
      value: 1
    }
    bias_term: true
    bias_filler {
      value: 0
    }
  }
}
layer {
  name: "relu0_6"
  type: "ReLU"
  bottom: "conv0_6/bn"
  top: "conv0_6/bn"
}
layer {
  name: "conv0_6"
  type: "Convolution"
  bottom: "conv0_6/bn"
  top: "conv0_6"
  convolution_param {
    num_output: 32
    bias_term: false
    pad: 1
    kernel_size: 3
    stride: 1
    weight_filler {
      type: "msra"
    }
    bias_filler {
      type: "constant"
    }
    engine: CUDNN
  }
}
layer {
  name: "concat0_6"
  type: "Concat"
  bottom: "concat0_5"
  bottom: "conv0_6"
  top: "concat0_6"
  concat_param {
    axis: 1
  }
}
layer {
  name: "conv0_7/bn"
  type: "BatchNorm"
  bottom: "concat0_6"
  top: "conv0_7/bn"
  param {
    lr_mult: 0
    decay_mult: 0
  }
  param {
    lr_mult: 0
    decay_mult: 0
  }
  param {
    lr_mult: 0
    decay_mult: 0
  }
}
layer {
  name: "conv0_7/scale"
  type: "Scale"
  bottom: "conv0_7/bn"
  top: "conv0_7/bn"
  scale_param {
    filler {
      value: 1
    }
    bias_term: true
    bias_filler {
      value: 0
    }
  }
}
layer {
  name: "relu0_7"
  type: "ReLU"
  bottom: "conv0_7/bn"
  top: "conv0_7/bn"
}
layer {
  name: "conv0_7"
  type: "Convolution"
  bottom: "conv0_7/bn"
  top: "conv0_7"
  convolution_param {
    num_output: 32
    bias_term: false
    pad: 1
    kernel_size: 3
    stride: 1
    weight_filler {
      type: "msra"
    }
    bias_filler {
      type: "constant"
    }
    engine: CUDNN
  }
}
layer {
  name: "concat0_7"
  type: "Concat"
  bottom: "concat0_6"
  bottom: "conv0_7"
  top: "concat0_7"
  concat_param {
    axis: 1
  }
}
layer {
  name: "conv0_8/bn"
  type: "BatchNorm"
  bottom: "concat0_7"
  top: "conv0_8/bn"
  param {
    lr_mult: 0
    decay_mult: 0
  }
  param {
    lr_mult: 0
    decay_mult: 0
  }
  param {
    lr_mult: 0
    decay_mult: 0
  }
}
layer {
  name: "conv0_8/scale"
  type: "Scale"
  bottom: "conv0_8/bn"
  top: "conv0_8/bn"
  scale_param {
    filler {
      value: 1
    }
    bias_term: true
    bias_filler {
      value: 0
    }
  }
}
layer {
  name: "relu0_8"
  type: "ReLU"
  bottom: "conv0_8/bn"
  top: "conv0_8/bn"
}
layer {
  name: "conv0_8"
  type: "Convolution"
  bottom: "conv0_8/bn"
  top: "conv0_8"
  convolution_param {
    num_output: 32
    bias_term: false
    pad: 1
    kernel_size: 3
    stride: 1
    weight_filler {
      type: "msra"
    }
    bias_filler {
      type: "constant"
    }
    engine: CUDNN
  }
}
layer {
  name: "concat0_8"
  type: "Concat"
  bottom: "concat0_7"
  bottom: "conv0_8"
  top: "concat0_8"
  concat_param {
    axis: 1
  }
}
layer {
  name: "conv0_9/bn"
  type: "BatchNorm"
  bottom: "concat0_8"
  top: "conv0_9/bn"
  param {
    lr_mult: 0
    decay_mult: 0
  }
  param {
    lr_mult: 0
    decay_mult: 0
  }
  param {
    lr_mult: 0
    decay_mult: 0
  }
}
layer {
  name: "conv0_9/scale"
  type: "Scale"
  bottom: "conv0_9/bn"
  top: "conv0_9/bn"
  scale_param {
    filler {
      value: 1
    }
    bias_term: true
    bias_filler {
      value: 0
    }
  }
}
layer {
  name: "relu0_9"
  type: "ReLU"
  bottom: "conv0_9/bn"
  top: "conv0_9/bn"
}
layer {
  name: "conv0_9"
  type: "Convolution"
  bottom: "conv0_9/bn"
  top: "conv0_9"
  convolution_param {
    num_output: 32
    bias_term: false
    pad: 1
    kernel_size: 3
    stride: 1
    weight_filler {
      type: "msra"
    }
    bias_filler {
      type: "constant"
    }
    engine: CUDNN
  }
}
layer {
  name: "concat0_9"
  type: "Concat"
  bottom: "concat0_8"
  bottom: "conv0_9"
  top: "concat0_9"
  concat_param {
    axis: 1
  }
}
layer {
  name: "BatchNorm1"
  type: "BatchNorm"
  bottom: "concat0_9"
  top: "BatchNorm1"
  param {
    lr_mult: 0
    decay_mult: 0
  }
  param {
    lr_mult: 0
    decay_mult: 0
  }
  param {
    lr_mult: 0
    decay_mult: 0
  }
}
layer {
  name: "Scale1"
  type: "Scale"
  bottom: "BatchNorm1"
  top: "BatchNorm1"
  scale_param {
    filler {
      value: 1
    }
    bias_term: true
    bias_filler {
      value: 0
    }
  }
}
layer {
  name: "ReLU1"
  type: "ReLU"
  bottom: "BatchNorm1"
  top: "BatchNorm1"
}
layer {
  name: "conv0_blk"
  type: "Convolution"
  bottom: "BatchNorm1"
  top: "conv0_blk"
  convolution_param {
    num_output: 352
    bias_term: false
    pad: 0
    kernel_size: 1
    stride: 1
    weight_filler {
      type: "msra"
    }
    bias_filler {
      type: "constant"
    }
    engine: CUDNN
  }
}
layer {
  name: "pool0"
  type: "Pooling"
  bottom: "conv0_blk"
  top: "pool0"
  pooling_param {
    pool: AVE
    kernel_size: 2
    stride: 2
  }
}
layer {
  name: "conv1_0/bn"
  type: "BatchNorm"
  bottom: "pool0"
  top: "conv1_0/bn"
  param {
    lr_mult: 0
    decay_mult: 0
  }
  param {
    lr_mult: 0
    decay_mult: 0
  }
  param {
    lr_mult: 0
    decay_mult: 0
  }
}
layer {
  name: "conv1_0/scale"
  type: "Scale"
  bottom: "conv1_0/bn"
  top: "conv1_0/bn"
  scale_param {
    filler {
      value: 1
    }
    bias_term: true
    bias_filler {
      value: 0
    }
  }
}
layer {
  name: "relu1_0"
  type: "ReLU"
  bottom: "conv1_0/bn"
  top: "conv1_0/bn"
}
layer {
  name: "conv1_0"
  type: "Convolution"
  bottom: "conv1_0/bn"
  top: "conv1_0"
  convolution_param {
    num_output: 32
    bias_term: false
    pad: 1
    kernel_size: 3
    stride: 1
    weight_filler {
      type: "msra"
    }
    bias_filler {
      type: "constant"
    }
    engine: CUDNN
  }
}
layer {
  name: "concat1_0"
  type: "Concat"
  bottom: "pool0"
  bottom: "conv1_0"
  top: "concat1_0"
  concat_param {
    axis: 1
  }
}
layer {
  name: "conv1_1/bn"
  type: "BatchNorm"
  bottom: "concat1_0"
  top: "conv1_1/bn"
  param {
    lr_mult: 0
    decay_mult: 0
  }
  param {
    lr_mult: 0
    decay_mult: 0
  }
  param {
    lr_mult: 0
    decay_mult: 0
  }
}
layer {
  name: "conv1_1/scale"
  type: "Scale"
  bottom: "conv1_1/bn"
  top: "conv1_1/bn"
  scale_param {
    filler {
      value: 1
    }
    bias_term: true
    bias_filler {
      value: 0
    }
  }
}
layer {
  name: "relu1_1"
  type: "ReLU"
  bottom: "conv1_1/bn"
  top: "conv1_1/bn"
}
layer {
  name: "conv1_1"
  type: "Convolution"
  bottom: "conv1_1/bn"
  top: "conv1_1"
  convolution_param {
    num_output: 32
    bias_term: false
    pad: 1
    kernel_size: 3
    stride: 1
    weight_filler {
      type: "msra"
    }
    bias_filler {
      type: "constant"
    }
    engine: CUDNN
  }
}
layer {
  name: "concat1_1"
  type: "Concat"
  bottom: "concat1_0"
  bottom: "conv1_1"
  top: "concat1_1"
  concat_param {
    axis: 1
  }
}
layer {
  name: "conv1_2/bn"
  type: "BatchNorm"
  bottom: "concat1_1"
  top: "conv1_2/bn"
  param {
    lr_mult: 0
    decay_mult: 0
  }
  param {
    lr_mult: 0
    decay_mult: 0
  }
  param {
    lr_mult: 0
    decay_mult: 0
  }
}
layer {
  name: "conv1_2/scale"
  type: "Scale"
  bottom: "conv1_2/bn"
  top: "conv1_2/bn"
  scale_param {
    filler {
      value: 1
    }
    bias_term: true
    bias_filler {
      value: 0
    }
  }
}
layer {
  name: "relu1_2"
  type: "ReLU"
  bottom: "conv1_2/bn"
  top: "conv1_2/bn"
}
layer {
  name: "conv1_2"
  type: "Convolution"
  bottom: "conv1_2/bn"
  top: "conv1_2"
  convolution_param {
    num_output: 32
    bias_term: false
    pad: 1
    kernel_size: 3
    stride: 1
    weight_filler {
      type: "msra"
    }
    bias_filler {
      type: "constant"
    }
    engine: CUDNN
  }
}
layer {
  name: "concat1_2"
  type: "Concat"
  bottom: "concat1_1"
  bottom: "conv1_2"
  top: "concat1_2"
  concat_param {
    axis: 1
  }
}
layer {
  name: "conv1_3/bn"
  type: "BatchNorm"
  bottom: "concat1_2"
  top: "conv1_3/bn"
  param {
    lr_mult: 0
    decay_mult: 0
  }
  param {
    lr_mult: 0
    decay_mult: 0
  }
  param {
    lr_mult: 0
    decay_mult: 0
  }
}
layer {
  name: "conv1_3/scale"
  type: "Scale"
  bottom: "conv1_3/bn"
  top: "conv1_3/bn"
  scale_param {
    filler {
      value: 1
    }
    bias_term: true
    bias_filler {
      value: 0
    }
  }
}
layer {
  name: "relu1_3"
  type: "ReLU"
  bottom: "conv1_3/bn"
  top: "conv1_3/bn"
}
layer {
  name: "conv1_3"
  type: "Convolution"
  bottom: "conv1_3/bn"
  top: "conv1_3"
  convolution_param {
    num_output: 32
    bias_term: false
    pad: 1
    kernel_size: 3
    stride: 1
    weight_filler {
      type: "msra"
    }
    bias_filler {
      type: "constant"
    }
    engine: CUDNN
  }
}
layer {
  name: "concat1_3"
  type: "Concat"
  bottom: "concat1_2"
  bottom: "conv1_3"
  top: "concat1_3"
  concat_param {
    axis: 1
  }
}
layer {
  name: "conv1_4/bn"
  type: "BatchNorm"
  bottom: "concat1_3"
  top: "conv1_4/bn"
  param {
    lr_mult: 0
    decay_mult: 0
  }
  param {
    lr_mult: 0
    decay_mult: 0
  }
  param {
    lr_mult: 0
    decay_mult: 0
  }
}
layer {
  name: "conv1_4/scale"
  type: "Scale"
  bottom: "conv1_4/bn"
  top: "conv1_4/bn"
  scale_param {
    filler {
      value: 1
    }
    bias_term: true
    bias_filler {
      value: 0
    }
  }
}
layer {
  name: "relu1_4"
  type: "ReLU"
  bottom: "conv1_4/bn"
  top: "conv1_4/bn"
}
layer {
  name: "conv1_4"
  type: "Convolution"
  bottom: "conv1_4/bn"
  top: "conv1_4"
  convolution_param {
    num_output: 32
    bias_term: false
    pad: 1
    kernel_size: 3
    stride: 1
    weight_filler {
      type: "msra"
    }
    bias_filler {
      type: "constant"
    }
    engine: CUDNN
  }
}
layer {
  name: "concat1_4"
  type: "Concat"
  bottom: "concat1_3"
  bottom: "conv1_4"
  top: "concat1_4"
  concat_param {
    axis: 1
  }
}
layer {
  name: "conv1_5/bn"
  type: "BatchNorm"
  bottom: "concat1_4"
  top: "conv1_5/bn"
  param {
    lr_mult: 0
    decay_mult: 0
  }
  param {
    lr_mult: 0
    decay_mult: 0
  }
  param {
    lr_mult: 0
    decay_mult: 0
  }
}
layer {
  name: "conv1_5/scale"
  type: "Scale"
  bottom: "conv1_5/bn"
  top: "conv1_5/bn"
  scale_param {
    filler {
      value: 1
    }
    bias_term: true
    bias_filler {
      value: 0
    }
  }
}
layer {
  name: "relu1_5"
  type: "ReLU"
  bottom: "conv1_5/bn"
  top: "conv1_5/bn"
}
layer {
  name: "conv1_5"
  type: "Convolution"
  bottom: "conv1_5/bn"
  top: "conv1_5"
  convolution_param {
    num_output: 32
    bias_term: false
    pad: 1
    kernel_size: 3
    stride: 1
    weight_filler {
      type: "msra"
    }
    bias_filler {
      type: "constant"
    }
    engine: CUDNN
  }
}
layer {
  name: "concat1_5"
  type: "Concat"
  bottom: "concat1_4"
  bottom: "conv1_5"
  top: "concat1_5"
  concat_param {
    axis: 1
  }
}
layer {
  name: "conv1_6/bn"
  type: "BatchNorm"
  bottom: "concat1_5"
  top: "conv1_6/bn"
  param {
    lr_mult: 0
    decay_mult: 0
  }
  param {
    lr_mult: 0
    decay_mult: 0
  }
  param {
    lr_mult: 0
    decay_mult: 0
  }
}
layer {
  name: "conv1_6/scale"
  type: "Scale"
  bottom: "conv1_6/bn"
  top: "conv1_6/bn"
  scale_param {
    filler {
      value: 1
    }
    bias_term: true
    bias_filler {
      value: 0
    }
  }
}
layer {
  name: "relu1_6"
  type: "ReLU"
  bottom: "conv1_6/bn"
  top: "conv1_6/bn"
}
layer {
  name: "conv1_6"
  type: "Convolution"
  bottom: "conv1_6/bn"
  top: "conv1_6"
  convolution_param {
    num_output: 32
    bias_term: false
    pad: 1
    kernel_size: 3
    stride: 1
    weight_filler {
      type: "msra"
    }
    bias_filler {
      type: "constant"
    }
    engine: CUDNN
  }
}
layer {
  name: "concat1_6"
  type: "Concat"
  bottom: "concat1_5"
  bottom: "conv1_6"
  top: "concat1_6"
  concat_param {
    axis: 1
  }
}
layer {
  name: "conv1_7/bn"
  type: "BatchNorm"
  bottom: "concat1_6"
  top: "conv1_7/bn"
  param {
    lr_mult: 0
    decay_mult: 0
  }
  param {
    lr_mult: 0
    decay_mult: 0
  }
  param {
    lr_mult: 0
    decay_mult: 0
  }
}
layer {
  name: "conv1_7/scale"
  type: "Scale"
  bottom: "conv1_7/bn"
  top: "conv1_7/bn"
  scale_param {
    filler {
      value: 1
    }
    bias_term: true
    bias_filler {
      value: 0
    }
  }
}
layer {
  name: "relu1_7"
  type: "ReLU"
  bottom: "conv1_7/bn"
  top: "conv1_7/bn"
}
layer {
  name: "conv1_7"
  type: "Convolution"
  bottom: "conv1_7/bn"
  top: "conv1_7"
  convolution_param {
    num_output: 32
    bias_term: false
    pad: 1
    kernel_size: 3
    stride: 1
    weight_filler {
      type: "msra"
    }
    bias_filler {
      type: "constant"
    }
    engine: CUDNN
  }
}
layer {
  name: "concat1_7"
  type: "Concat"
  bottom: "concat1_6"
  bottom: "conv1_7"
  top: "concat1_7"
  concat_param {
    axis: 1
  }
}
layer {
  name: "conv1_8/bn"
  type: "BatchNorm"
  bottom: "concat1_7"
  top: "conv1_8/bn"
  param {
    lr_mult: 0
    decay_mult: 0
  }
  param {
    lr_mult: 0
    decay_mult: 0
  }
  param {
    lr_mult: 0
    decay_mult: 0
  }
}
layer {
  name: "conv1_8/scale"
  type: "Scale"
  bottom: "conv1_8/bn"
  top: "conv1_8/bn"
  scale_param {
    filler {
      value: 1
    }
    bias_term: true
    bias_filler {
      value: 0
    }
  }
}
layer {
  name: "relu1_8"
  type: "ReLU"
  bottom: "conv1_8/bn"
  top: "conv1_8/bn"
}
layer {
  name: "conv1_8"
  type: "Convolution"
  bottom: "conv1_8/bn"
  top: "conv1_8"
  convolution_param {
    num_output: 32
    bias_term: false
    pad: 1
    kernel_size: 3
    stride: 1
    weight_filler {
      type: "msra"
    }
    bias_filler {
      type: "constant"
    }
    engine: CUDNN
  }
}
layer {
  name: "concat1_8"
  type: "Concat"
  bottom: "concat1_7"
  bottom: "conv1_8"
  top: "concat1_8"
  concat_param {
    axis: 1
  }
}
layer {
  name: "conv1_9/bn"
  type: "BatchNorm"
  bottom: "concat1_8"
  top: "conv1_9/bn"
  param {
    lr_mult: 0
    decay_mult: 0
  }
  param {
    lr_mult: 0
    decay_mult: 0
  }
  param {
    lr_mult: 0
    decay_mult: 0
  }
}
layer {
  name: "conv1_9/scale"
  type: "Scale"
  bottom: "conv1_9/bn"
  top: "conv1_9/bn"
  scale_param {
    filler {
      value: 1
    }
    bias_term: true
    bias_filler {
      value: 0
    }
  }
}
layer {
  name: "relu1_9"
  type: "ReLU"
  bottom: "conv1_9/bn"
  top: "conv1_9/bn"
}
layer {
  name: "conv1_9"
  type: "Convolution"
  bottom: "conv1_9/bn"
  top: "conv1_9"
  convolution_param {
    num_output: 32
    bias_term: false
    pad: 1
    kernel_size: 3
    stride: 1
    weight_filler {
      type: "msra"
    }
    bias_filler {
      type: "constant"
    }
    engine: CUDNN
  }
}
layer {
  name: "concat1_9"
  type: "Concat"
  bottom: "concat1_8"
  bottom: "conv1_9"
  top: "concat1_9"
  concat_param {
    axis: 1
  }
}
layer {
  name: "conv1_10/bn"
  type: "BatchNorm"
  bottom: "concat1_9"
  top: "conv1_10/bn"
  param {
    lr_mult: 0
    decay_mult: 0
  }
  param {
    lr_mult: 0
    decay_mult: 0
  }
  param {
    lr_mult: 0
    decay_mult: 0
  }
}
layer {
  name: "conv1_10/scale"
  type: "Scale"
  bottom: "conv1_10/bn"
  top: "conv1_10/bn"
  scale_param {
    filler {
      value: 1
    }
    bias_term: true
    bias_filler {
      value: 0
    }
  }
}
layer {
  name: "relu1_10"
  type: "ReLU"
  bottom: "conv1_10/bn"
  top: "conv1_10/bn"
}
layer {
  name: "conv1_10"
  type: "Convolution"
  bottom: "conv1_10/bn"
  top: "conv1_10"
  convolution_param {
    num_output: 32
    bias_term: false
    pad: 1
    kernel_size: 3
    stride: 1
    weight_filler {
      type: "msra"
    }
    bias_filler {
      type: "constant"
    }
    engine: CUDNN
  }
}
layer {
  name: "concat1_10"
  type: "Concat"
  bottom: "concat1_9"
  bottom: "conv1_10"
  top: "concat1_10"
  concat_param {
    axis: 1
  }
}
layer {
  name: "conv1_11/bn"
  type: "BatchNorm"
  bottom: "concat1_10"
  top: "conv1_11/bn"
  param {
    lr_mult: 0
    decay_mult: 0
  }
  param {
    lr_mult: 0
    decay_mult: 0
  }
  param {
    lr_mult: 0
    decay_mult: 0
  }
}
layer {
  name: "conv1_11/scale"
  type: "Scale"
  bottom: "conv1_11/bn"
  top: "conv1_11/bn"
  scale_param {
    filler {
      value: 1
    }
    bias_term: true
    bias_filler {
      value: 0
    }
  }
}
layer {
  name: "relu1_11"
  type: "ReLU"
  bottom: "conv1_11/bn"
  top: "conv1_11/bn"
}
layer {
  name: "conv1_11"
  type: "Convolution"
  bottom: "conv1_11/bn"
  top: "conv1_11"
  convolution_param {
    num_output: 32
    bias_term: false
    pad: 1
    kernel_size: 3
    stride: 1
    weight_filler {
      type: "msra"
    }
    bias_filler {
      type: "constant"
    }
    engine: CUDNN
  }
}
layer {
  name: "concat1_11"
  type: "Concat"
  bottom: "concat1_10"
  bottom: "conv1_11"
  top: "concat1_11"
  concat_param {
    axis: 1
  }
}
layer {
  name: "conv1_12/bn"
  type: "BatchNorm"
  bottom: "concat1_11"
  top: "conv1_12/bn"
  param {
    lr_mult: 0
    decay_mult: 0
  }
  param {
    lr_mult: 0
    decay_mult: 0
  }
  param {
    lr_mult: 0
    decay_mult: 0
  }
}
layer {
  name: "conv1_12/scale"
  type: "Scale"
  bottom: "conv1_12/bn"
  top: "conv1_12/bn"
  scale_param {
    filler {
      value: 1
    }
    bias_term: true
    bias_filler {
      value: 0
    }
  }
}
layer {
  name: "relu1_12"
  type: "ReLU"
  bottom: "conv1_12/bn"
  top: "conv1_12/bn"
}
layer {
  name: "conv1_12"
  type: "Convolution"
  bottom: "conv1_12/bn"
  top: "conv1_12"
  convolution_param {
    num_output: 32
    bias_term: false
    pad: 1
    kernel_size: 3
    stride: 1
    weight_filler {
      type: "msra"
    }
    bias_filler {
      type: "constant"
    }
    engine: CUDNN
  }
}
layer {
  name: "concat1_12"
  type: "Concat"
  bottom: "concat1_11"
  bottom: "conv1_12"
  top: "concat1_12"
  concat_param {
    axis: 1
  }
}
layer {
  name: "conv1_13/bn"
  type: "BatchNorm"
  bottom: "concat1_12"
  top: "conv1_13/bn"
  param {
    lr_mult: 0
    decay_mult: 0
  }
  param {
    lr_mult: 0
    decay_mult: 0
  }
  param {
    lr_mult: 0
    decay_mult: 0
  }
}
layer {
  name: "conv1_13/scale"
  type: "Scale"
  bottom: "conv1_13/bn"
  top: "conv1_13/bn"
  scale_param {
    filler {
      value: 1
    }
    bias_term: true
    bias_filler {
      value: 0
    }
  }
}
layer {
  name: "relu1_13"
  type: "ReLU"
  bottom: "conv1_13/bn"
  top: "conv1_13/bn"
}
layer {
  name: "conv1_13"
  type: "Convolution"
  bottom: "conv1_13/bn"
  top: "conv1_13"
  convolution_param {
    num_output: 32
    bias_term: false
    pad: 1
    kernel_size: 3
    stride: 1
    weight_filler {
      type: "msra"
    }
    bias_filler {
      type: "constant"
    }
    engine: CUDNN
  }
}
layer {
  name: "concat1_13"
  type: "Concat"
  bottom: "concat1_12"
  bottom: "conv1_13"
  top: "concat1_13"
  concat_param {
    axis: 1
  }
}
layer {
  name: "conv1_14/bn"
  type: "BatchNorm"
  bottom: "concat1_13"
  top: "conv1_14/bn"
  param {
    lr_mult: 0
    decay_mult: 0
  }
  param {
    lr_mult: 0
    decay_mult: 0
  }
  param {
    lr_mult: 0
    decay_mult: 0
  }
}
layer {
  name: "conv1_14/scale"
  type: "Scale"
  bottom: "conv1_14/bn"
  top: "conv1_14/bn"
  scale_param {
    filler {
      value: 1
    }
    bias_term: true
    bias_filler {
      value: 0
    }
  }
}
layer {
  name: "relu1_14"
  type: "ReLU"
  bottom: "conv1_14/bn"
  top: "conv1_14/bn"
}
layer {
  name: "conv1_14"
  type: "Convolution"
  bottom: "conv1_14/bn"
  top: "conv1_14"
  convolution_param {
    num_output: 32
    bias_term: false
    pad: 1
    kernel_size: 3
    stride: 1
    weight_filler {
      type: "msra"
    }
    bias_filler {
      type: "constant"
    }
    engine: CUDNN
  }
}
layer {
  name: "concat1_14"
  type: "Concat"
  bottom: "concat1_13"
  bottom: "conv1_14"
  top: "concat1_14"
  concat_param {
    axis: 1
  }
}
layer {
  name: "conv1_15/bn"
  type: "BatchNorm"
  bottom: "concat1_14"
  top: "conv1_15/bn"
  param {
    lr_mult: 0
    decay_mult: 0
  }
  param {
    lr_mult: 0
    decay_mult: 0
  }
  param {
    lr_mult: 0
    decay_mult: 0
  }
}
layer {
  name: "conv1_15/scale"
  type: "Scale"
  bottom: "conv1_15/bn"
  top: "conv1_15/bn"
  scale_param {
    filler {
      value: 1
    }
    bias_term: true
    bias_filler {
      value: 0
    }
  }
}
layer {
  name: "relu1_15"
  type: "ReLU"
  bottom: "conv1_15/bn"
  top: "conv1_15/bn"
}
layer {
  name: "conv1_15"
  type: "Convolution"
  bottom: "conv1_15/bn"
  top: "conv1_15"
  convolution_param {
    num_output: 32
    bias_term: false
    pad: 1
    kernel_size: 3
    stride: 1
    weight_filler {
      type: "msra"
    }
    bias_filler {
      type: "constant"
    }
    engine: CUDNN
  }
}
layer {
  name: "concat1_15"
  type: "Concat"
  bottom: "concat1_14"
  bottom: "conv1_15"
  top: "concat1_15"
  concat_param {
    axis: 1
  }
}
layer {
  name: "conv1_16/bn"
  type: "BatchNorm"
  bottom: "concat1_15"
  top: "conv1_16/bn"
  param {
    lr_mult: 0
    decay_mult: 0
  }
  param {
    lr_mult: 0
    decay_mult: 0
  }
  param {
    lr_mult: 0
    decay_mult: 0
  }
}
layer {
  name: "conv1_16/scale"
  type: "Scale"
  bottom: "conv1_16/bn"
  top: "conv1_16/bn"
  scale_param {
    filler {
      value: 1
    }
    bias_term: true
    bias_filler {
      value: 0
    }
  }
}
layer {
  name: "relu1_16"
  type: "ReLU"
  bottom: "conv1_16/bn"
  top: "conv1_16/bn"
}
layer {
  name: "conv1_16"
  type: "Convolution"
  bottom: "conv1_16/bn"
  top: "conv1_16"
  convolution_param {
    num_output: 32
    bias_term: false
    pad: 1
    kernel_size: 3
    stride: 1
    weight_filler {
      type: "msra"
    }
    bias_filler {
      type: "constant"
    }
    engine: CUDNN
  }
}
layer {
  name: "concat1_16"
  type: "Concat"
  bottom: "concat1_15"
  bottom: "conv1_16"
  top: "concat1_16"
  concat_param {
    axis: 1
  }
}
layer {
  name: "conv1_17/bn"
  type: "BatchNorm"
  bottom: "concat1_16"
  top: "conv1_17/bn"
  param {
    lr_mult: 0
    decay_mult: 0
  }
  param {
    lr_mult: 0
    decay_mult: 0
  }
  param {
    lr_mult: 0
    decay_mult: 0
  }
}
layer {
  name: "conv1_17/scale"
  type: "Scale"
  bottom: "conv1_17/bn"
  top: "conv1_17/bn"
  scale_param {
    filler {
      value: 1
    }
    bias_term: true
    bias_filler {
      value: 0
    }
  }
}
layer {
  name: "relu1_17"
  type: "ReLU"
  bottom: "conv1_17/bn"
  top: "conv1_17/bn"
}
layer {
  name: "conv1_17"
  type: "Convolution"
  bottom: "conv1_17/bn"
  top: "conv1_17"
  convolution_param {
    num_output: 32
    bias_term: false
    pad: 1
    kernel_size: 3
    stride: 1
    weight_filler {
      type: "msra"
    }
    bias_filler {
      type: "constant"
    }
    engine: CUDNN
  }
}
layer {
  name: "
I0118 19:07:50.228087 10991 layer_factory.hpp:77] Creating layer word_images
I0118 19:07:50.228181 10991 db_lmdb.cpp:35] Opened lmdb /data/fwolf/iam_50000/iam-db_nti500000_pul2-3-4-5_train_word_images_lmdb
I0118 19:07:50.228220 10991 net.cpp:84] Creating Layer word_images
I0118 19:07:50.228230 10991 net.cpp:380] word_images -> word_images
I0118 19:07:50.228245 10991 net.cpp:380] word_images -> label
I0118 19:07:50.229245 10991 data_layer.cpp:44] output data size: 1,1,79,231
I0118 19:07:50.233777 10991 net.cpp:122] Setting up word_images
I0118 19:07:50.233815 10991 net.cpp:129] Top shape: 1 1 79 231 (18249)
I0118 19:07:50.233824 10991 net.cpp:129] Top shape: 1 (1)
I0118 19:07:50.233827 10991 net.cpp:137] Memory required for data: 73000
I0118 19:07:50.233836 10991 layer_factory.hpp:77] Creating layer phocs
I0118 19:07:50.233923 10991 db_lmdb.cpp:35] Opened lmdb /data/fwolf/iam_50000/iam-db_nti500000_pul2-3-4-5_train_phocs_lmdb
I0118 19:07:50.233963 10991 net.cpp:84] Creating Layer phocs
I0118 19:07:50.233973 10991 net.cpp:380] phocs -> phocs
I0118 19:07:50.233986 10991 net.cpp:380] phocs -> label_phocs
I0118 19:07:50.234272 10991 data_layer.cpp:44] output data size: 1,1,1,618
I0118 19:07:50.238071 10991 net.cpp:122] Setting up phocs
I0118 19:07:50.238106 10991 net.cpp:129] Top shape: 1 1 1 618 (618)
I0118 19:07:50.238111 10991 net.cpp:129] Top shape: 1 (1)
I0118 19:07:50.238114 10991 net.cpp:137] Memory required for data: 75476
I0118 19:07:50.238121 10991 layer_factory.hpp:77] Creating layer conv_init
I0118 19:07:50.238142 10991 net.cpp:84] Creating Layer conv_init
I0118 19:07:50.238147 10991 net.cpp:406] conv_init <- word_images
I0118 19:07:50.238158 10991 net.cpp:380] conv_init -> conv_init
I0118 19:07:50.820830 10991 net.cpp:122] Setting up conv_init
I0118 19:07:50.820865 10991 net.cpp:129] Top shape: 1 32 79 231 (583968)
I0118 19:07:50.820870 10991 net.cpp:137] Memory required for data: 2411348
I0118 19:07:50.820883 10991 layer_factory.hpp:77] Creating layer bn_init
I0118 19:07:50.820900 10991 net.cpp:84] Creating Layer bn_init
I0118 19:07:50.820905 10991 net.cpp:406] bn_init <- conv_init
I0118 19:07:50.820914 10991 net.cpp:380] bn_init -> bn_init
I0118 19:07:50.821193 10991 net.cpp:122] Setting up bn_init
I0118 19:07:50.821203 10991 net.cpp:129] Top shape: 1 32 79 231 (583968)
I0118 19:07:50.821208 10991 net.cpp:137] Memory required for data: 4747220
I0118 19:07:50.821219 10991 layer_factory.hpp:77] Creating layer scale_init
I0118 19:07:50.821229 10991 net.cpp:84] Creating Layer scale_init
I0118 19:07:50.821234 10991 net.cpp:406] scale_init <- bn_init
I0118 19:07:50.821243 10991 net.cpp:367] scale_init -> bn_init (in-place)
I0118 19:07:50.821293 10991 layer_factory.hpp:77] Creating layer scale_init
I0118 19:07:50.821462 10991 net.cpp:122] Setting up scale_init
I0118 19:07:50.821471 10991 net.cpp:129] Top shape: 1 32 79 231 (583968)
I0118 19:07:50.821475 10991 net.cpp:137] Memory required for data: 7083092
I0118 19:07:50.821483 10991 layer_factory.hpp:77] Creating layer relu_init
I0118 19:07:50.821491 10991 net.cpp:84] Creating Layer relu_init
I0118 19:07:50.821496 10991 net.cpp:406] relu_init <- bn_init
I0118 19:07:50.821503 10991 net.cpp:367] relu_init -> bn_init (in-place)
I0118 19:07:50.823379 10991 net.cpp:122] Setting up relu_init
I0118 19:07:50.823393 10991 net.cpp:129] Top shape: 1 32 79 231 (583968)
I0118 19:07:50.823398 10991 net.cpp:137] Memory required for data: 9418964
I0118 19:07:50.823402 10991 layer_factory.hpp:77] Creating layer pool_init
I0118 19:07:50.823412 10991 net.cpp:84] Creating Layer pool_init
I0118 19:07:50.823417 10991 net.cpp:406] pool_init <- bn_init
I0118 19:07:50.823423 10991 net.cpp:380] pool_init -> pool_init
I0118 19:07:50.823478 10991 net.cpp:122] Setting up pool_init
I0118 19:07:50.823487 10991 net.cpp:129] Top shape: 1 32 40 116 (148480)
I0118 19:07:50.823490 10991 net.cpp:137] Memory required for data: 10012884
I0118 19:07:50.823494 10991 layer_factory.hpp:77] Creating layer pool_init_pool_init_0_split
I0118 19:07:50.823500 10991 net.cpp:84] Creating Layer pool_init_pool_init_0_split
I0118 19:07:50.823505 10991 net.cpp:406] pool_init_pool_init_0_split <- pool_init
I0118 19:07:50.823513 10991 net.cpp:380] pool_init_pool_init_0_split -> pool_init_pool_init_0_split_0
I0118 19:07:50.823519 10991 net.cpp:380] pool_init_pool_init_0_split -> pool_init_pool_init_0_split_1
I0118 19:07:50.823561 10991 net.cpp:122] Setting up pool_init_pool_init_0_split
I0118 19:07:50.823570 10991 net.cpp:129] Top shape: 1 32 40 116 (148480)
I0118 19:07:50.823575 10991 net.cpp:129] Top shape: 1 32 40 116 (148480)
I0118 19:07:50.823580 10991 net.cpp:137] Memory required for data: 11200724
I0118 19:07:50.823583 10991 layer_factory.hpp:77] Creating layer conv0_0/bn
I0118 19:07:50.823590 10991 net.cpp:84] Creating Layer conv0_0/bn
I0118 19:07:50.823595 10991 net.cpp:406] conv0_0/bn <- pool_init_pool_init_0_split_0
I0118 19:07:50.823601 10991 net.cpp:380] conv0_0/bn -> conv0_0/bn
I0118 19:07:50.824468 10991 net.cpp:122] Setting up conv0_0/bn
I0118 19:07:50.824482 10991 net.cpp:129] Top shape: 1 32 40 116 (148480)
I0118 19:07:50.824486 10991 net.cpp:137] Memory required for data: 11794644
I0118 19:07:50.824502 10991 layer_factory.hpp:77] Creating layer conv0_0/scale
I0118 19:07:50.824512 10991 net.cpp:84] Creating Layer conv0_0/scale
I0118 19:07:50.824515 10991 net.cpp:406] conv0_0/scale <- conv0_0/bn
I0118 19:07:50.824523 10991 net.cpp:367] conv0_0/scale -> conv0_0/bn (in-place)
I0118 19:07:50.824574 10991 layer_factory.hpp:77] Creating layer conv0_0/scale
I0118 19:07:50.824720 10991 net.cpp:122] Setting up conv0_0/scale
I0118 19:07:50.824729 10991 net.cpp:129] Top shape: 1 32 40 116 (148480)
I0118 19:07:50.824733 10991 net.cpp:137] Memory required for data: 12388564
I0118 19:07:50.824741 10991 layer_factory.hpp:77] Creating layer relu0_0
I0118 19:07:50.824748 10991 net.cpp:84] Creating Layer relu0_0
I0118 19:07:50.824751 10991 net.cpp:406] relu0_0 <- conv0_0/bn
I0118 19:07:50.824759 10991 net.cpp:367] relu0_0 -> conv0_0/bn (in-place)
I0118 19:07:50.825604 10991 net.cpp:122] Setting up relu0_0
I0118 19:07:50.825618 10991 net.cpp:129] Top shape: 1 32 40 116 (148480)
I0118 19:07:50.825623 10991 net.cpp:137] Memory required for data: 12982484
I0118 19:07:50.825628 10991 layer_factory.hpp:77] Creating layer conv0_0
I0118 19:07:50.825641 10991 net.cpp:84] Creating Layer conv0_0
I0118 19:07:50.825645 10991 net.cpp:406] conv0_0 <- conv0_0/bn
I0118 19:07:50.825654 10991 net.cpp:380] conv0_0 -> conv0_0
I0118 19:07:50.829804 10991 net.cpp:122] Setting up conv0_0
I0118 19:07:50.829836 10991 net.cpp:129] Top shape: 1 32 40 116 (148480)
I0118 19:07:50.829839 10991 net.cpp:137] Memory required for data: 13576404
I0118 19:07:50.829847 10991 layer_factory.hpp:77] Creating layer concat0_0
I0118 19:07:50.829857 10991 net.cpp:84] Creating Layer concat0_0
I0118 19:07:50.829862 10991 net.cpp:406] concat0_0 <- pool_init_pool_init_0_split_1
I0118 19:07:50.829867 10991 net.cpp:406] concat0_0 <- conv0_0
I0118 19:07:50.829872 10991 net.cpp:380] concat0_0 -> concat0_0
I0118 19:07:50.829901 10991 net.cpp:122] Setting up concat0_0
I0118 19:07:50.829906 10991 net.cpp:129] Top shape: 1 64 40 116 (296960)
I0118 19:07:50.829910 10991 net.cpp:137] Memory required for data: 14764244
I0118 19:07:50.829911 10991 layer_factory.hpp:77] Creating layer concat0_0_concat0_0_0_split
I0118 19:07:50.829917 10991 net.cpp:84] Creating Layer concat0_0_concat0_0_0_split
I0118 19:07:50.829919 10991 net.cpp:406] concat0_0_concat0_0_0_split <- concat0_0
I0118 19:07:50.829923 10991 net.cpp:380] concat0_0_concat0_0_0_split -> concat0_0_concat0_0_0_split_0
I0118 19:07:50.829928 10991 net.cpp:380] concat0_0_concat0_0_0_split -> concat0_0_concat0_0_0_split_1
I0118 19:07:50.829957 10991 net.cpp:122] Setting up concat0_0_concat0_0_0_split
I0118 19:07:50.829962 10991 net.cpp:129] Top shape: 1 64 40 116 (296960)
I0118 19:07:50.829965 10991 net.cpp:129] Top shape: 1 64 40 116 (296960)
I0118 19:07:50.829967 10991 net.cpp:137] Memory required for data: 17139924
I0118 19:07:50.829970 10991 layer_factory.hpp:77] Creating layer conv0_1/bn
I0118 19:07:50.829974 10991 net.cpp:84] Creating Layer conv0_1/bn
I0118 19:07:50.829977 10991 net.cpp:406] conv0_1/bn <- concat0_0_concat0_0_0_split_0
I0118 19:07:50.829982 10991 net.cpp:380] conv0_1/bn -> conv0_1/bn
I0118 19:07:50.830148 10991 net.cpp:122] Setting up conv0_1/bn
I0118 19:07:50.830154 10991 net.cpp:129] Top shape: 1 64 40 116 (296960)
I0118 19:07:50.830157 10991 net.cpp:137] Memory required for data: 18327764
I0118 19:07:50.830164 10991 layer_factory.hpp:77] Creating layer conv0_1/scale
I0118 19:07:50.830173 10991 net.cpp:84] Creating Layer conv0_1/scale
I0118 19:07:50.830175 10991 net.cpp:406] conv0_1/scale <- conv0_1/bn
I0118 19:07:50.830179 10991 net.cpp:367] conv0_1/scale -> conv0_1/bn (in-place)
I0118 19:07:50.830214 10991 layer_factory.hpp:77] Creating layer conv0_1/scale
I0118 19:07:50.830317 10991 net.cpp:122] Setting up conv0_1/scale
I0118 19:07:50.830322 10991 net.cpp:129] Top shape: 1 64 40 116 (296960)
I0118 19:07:50.830325 10991 net.cpp:137] Memory required for data: 19515604
I0118 19:07:50.830332 10991 layer_factory.hpp:77] Creating layer relu0_1
I0118 19:07:50.830339 10991 net.cpp:84] Creating Layer relu0_1
I0118 19:07:50.830346 10991 net.cpp:406] relu0_1 <- conv0_1/bn
I0118 19:07:50.830350 10991 net.cpp:367] relu0_1 -> conv0_1/bn (in-place)
I0118 19:07:50.830773 10991 net.cpp:122] Setting up relu0_1
I0118 19:07:50.830785 10991 net.cpp:129] Top shape: 1 64 40 116 (296960)
I0118 19:07:50.830788 10991 net.cpp:137] Memory required for data: 20703444
I0118 19:07:50.830791 10991 layer_factory.hpp:77] Creating layer conv0_1
I0118 19:07:50.830802 10991 net.cpp:84] Creating Layer conv0_1
I0118 19:07:50.830806 10991 net.cpp:406] conv0_1 <- conv0_1/bn
I0118 19:07:50.830811 10991 net.cpp:380] conv0_1 -> conv0_1
I0118 19:07:50.833423 10991 net.cpp:122] Setting up conv0_1
I0118 19:07:50.833452 10991 net.cpp:129] Top shape: 1 32 40 116 (148480)
I0118 19:07:50.833456 10991 net.cpp:137] Memory required for data: 21297364
I0118 19:07:50.833463 10991 layer_factory.hpp:77] Creating layer concat0_1
I0118 19:07:50.833473 10991 net.cpp:84] Creating Layer concat0_1
I0118 19:07:50.833478 10991 net.cpp:406] concat0_1 <- concat0_0_concat0_0_0_split_1
I0118 19:07:50.833483 10991 net.cpp:406] concat0_1 <- conv0_1
I0118 19:07:50.833489 10991 net.cpp:380] concat0_1 -> concat0_1
I0118 19:07:50.833518 10991 net.cpp:122] Setting up concat0_1
I0118 19:07:50.833523 10991 net.cpp:129] Top shape: 1 96 40 116 (445440)
I0118 19:07:50.833525 10991 net.cpp:137] Memory required for data: 23079124
I0118 19:07:50.833528 10991 layer_factory.hpp:77] Creating layer concat0_1_concat0_1_0_split
I0118 19:07:50.833534 10991 net.cpp:84] Creating Layer concat0_1_concat0_1_0_split
I0118 19:07:50.833537 10991 net.cpp:406] concat0_1_concat0_1_0_split <- concat0_1
I0118 19:07:50.833540 10991 net.cpp:380] concat0_1_concat0_1_0_split -> concat0_1_concat0_1_0_split_0
I0118 19:07:50.833546 10991 net.cpp:380] concat0_1_concat0_1_0_split -> concat0_1_concat0_1_0_split_1
I0118 19:07:50.833582 10991 net.cpp:122] Setting up concat0_1_concat0_1_0_split
I0118 19:07:50.833587 10991 net.cpp:129] Top shape: 1 96 40 116 (445440)
I0118 19:07:50.833590 10991 net.cpp:129] Top shape: 1 96 40 116 (445440)
I0118 19:07:50.833592 10991 net.cpp:137] Memory required for data: 26642644
I0118 19:07:50.833595 10991 layer_factory.hpp:77] Creating layer conv0_2/bn
I0118 19:07:50.833601 10991 net.cpp:84] Creating Layer conv0_2/bn
I0118 19:07:50.833603 10991 net.cpp:406] conv0_2/bn <- concat0_1_concat0_1_0_split_0
I0118 19:07:50.833607 10991 net.cpp:380] conv0_2/bn -> conv0_2/bn
I0118 19:07:50.833786 10991 net.cpp:122] Setting up conv0_2/bn
I0118 19:07:50.833791 10991 net.cpp:129] Top shape: 1 96 40 116 (445440)
I0118 19:07:50.833793 10991 net.cpp:137] Memory required for data: 28424404
I0118 19:07:50.833801 10991 layer_factory.hpp:77] Creating layer conv0_2/scale
I0118 19:07:50.833808 10991 net.cpp:84] Creating Layer conv0_2/scale
I0118 19:07:50.833811 10991 net.cpp:406] conv0_2/scale <- conv0_2/bn
I0118 19:07:50.833817 10991 net.cpp:367] conv0_2/scale -> conv0_2/bn (in-place)
I0118 19:07:50.833853 10991 layer_factory.hpp:77] Creating layer conv0_2/scale
I0118 19:07:50.833956 10991 net.cpp:122] Setting up conv0_2/scale
I0118 19:07:50.833961 10991 net.cpp:129] Top shape: 1 96 40 116 (445440)
I0118 19:07:50.833964 10991 net.cpp:137] Memory required for data: 30206164
I0118 19:07:50.833968 10991 layer_factory.hpp:77] Creating layer relu0_2
I0118 19:07:50.833976 10991 net.cpp:84] Creating Layer relu0_2
I0118 19:07:50.833977 10991 net.cpp:406] relu0_2 <- conv0_2/bn
I0118 19:07:50.833981 10991 net.cpp:367] relu0_2 -> conv0_2/bn (in-place)
I0118 19:07:50.834169 10991 net.cpp:122] Setting up relu0_2
I0118 19:07:50.834178 10991 net.cpp:129] Top shape: 1 96 40 116 (445440)
I0118 19:07:50.834180 10991 net.cpp:137] Memory required for data: 31987924
I0118 19:07:50.834183 10991 layer_factory.hpp:77] Creating layer conv0_2
I0118 19:07:50.834193 10991 net.cpp:84] Creating Layer conv0_2
I0118 19:07:50.834197 10991 net.cpp:406] conv0_2 <- conv0_2/bn
I0118 19:07:50.834201 10991 net.cpp:380] conv0_2 -> conv0_2
I0118 19:07:50.837627 10991 net.cpp:122] Setting up conv0_2
I0118 19:07:50.837658 10991 net.cpp:129] Top shape: 1 32 40 116 (148480)
I0118 19:07:50.837666 10991 net.cpp:137] Memory required for data: 32581844
I0118 19:07:50.837674 10991 layer_factory.hpp:77] Creating layer concat0_2
I0118 19:07:50.837683 10991 net.cpp:84] Creating Layer concat0_2
I0118 19:07:50.837688 10991 net.cpp:406] concat0_2 <- concat0_1_concat0_1_0_split_1
I0118 19:07:50.837693 10991 net.cpp:406] concat0_2 <- conv0_2
I0118 19:07:50.837697 10991 net.cpp:380] concat0_2 -> concat0_2
I0118 19:07:50.837731 10991 net.cpp:122] Setting up concat0_2
I0118 19:07:50.837736 10991 net.cpp:129] Top shape: 1 128 40 116 (593920)
I0118 19:07:50.837738 10991 net.cpp:137] Memory required for data: 34957524
I0118 19:07:50.837740 10991 layer_factory.hpp:77] Creating layer concat0_2_concat0_2_0_split
I0118 19:07:50.837746 10991 net.cpp:84] Creating Layer concat0_2_concat0_2_0_split
I0118 19:07:50.837749 10991 net.cpp:406] concat0_2_concat0_2_0_split <- concat0_2
I0118 19:07:50.837752 10991 net.cpp:380] concat0_2_concat0_2_0_split -> concat0_2_concat0_2_0_split_0
I0118 19:07:50.837757 10991 net.cpp:380] concat0_2_concat0_2_0_split -> concat0_2_concat0_2_0_split_1
I0118 19:07:50.837787 10991 net.cpp:122] Setting up concat0_2_concat0_2_0_split
I0118 19:07:50.837791 10991 net.cpp:129] Top shape: 1 128 40 116 (593920)
I0118 19:07:50.837795 10991 net.cpp:129] Top shape: 1 128 40 116 (593920)
I0118 19:07:50.837797 10991 net.cpp:137] Memory required for data: 39708884
I0118 19:07:50.837800 10991 layer_factory.hpp:77] Creating layer conv0_3/bn
I0118 19:07:50.837805 10991 net.cpp:84] Creating Layer conv0_3/bn
I0118 19:07:50.837806 10991 net.cpp:406] conv0_3/bn <- concat0_2_concat0_2_0_split_0
I0118 19:07:50.837811 10991 net.cpp:380] conv0_3/bn -> conv0_3/bn
I0118 19:07:50.837985 10991 net.cpp:122] Setting up conv0_3/bn
I0118 19:07:50.837990 10991 net.cpp:129] Top shape: 1 128 40 116 (593920)
I0118 19:07:50.837991 10991 net.cpp:137] Memory required for data: 42084564
I0118 19:07:50.837998 10991 layer_factory.hpp:77] Creating layer conv0_3/scale
I0118 19:07:50.838006 10991 net.cpp:84] Creating Layer conv0_3/scale
I0118 19:07:50.838008 10991 net.cpp:406] conv0_3/scale <- conv0_3/bn
I0118 19:07:50.838012 10991 net.cpp:367] conv0_3/scale -> conv0_3/bn (in-place)
I0118 19:07:50.838047 10991 layer_factory.hpp:77] Creating layer conv0_3/scale
I0118 19:07:50.838141 10991 net.cpp:122] Setting up conv0_3/scale
I0118 19:07:50.838146 10991 net.cpp:129] Top shape: 1 128 40 116 (593920)
I0118 19:07:50.838148 10991 net.cpp:137] Memory required for data: 44460244
I0118 19:07:50.838153 10991 layer_factory.hpp:77] Creating layer relu0_3
I0118 19:07:50.838158 10991 net.cpp:84] Creating Layer relu0_3
I0118 19:07:50.838160 10991 net.cpp:406] relu0_3 <- conv0_3/bn
I0118 19:07:50.838165 10991 net.cpp:367] relu0_3 -> conv0_3/bn (in-place)
I0118 19:07:50.838866 10991 net.cpp:122] Setting up relu0_3
I0118 19:07:50.838877 10991 net.cpp:129] Top shape: 1 128 40 116 (593920)
I0118 19:07:50.838881 10991 net.cpp:137] Memory required for data: 46835924
I0118 19:07:50.838883 10991 layer_factory.hpp:77] Creating layer conv0_3
I0118 19:07:50.838894 10991 net.cpp:84] Creating Layer conv0_3
I0118 19:07:50.838897 10991 net.cpp:406] conv0_3 <- conv0_3/bn
I0118 19:07:50.838903 10991 net.cpp:380] conv0_3 -> conv0_3
I0118 19:07:50.845579 10991 net.cpp:122] Setting up conv0_3
I0118 19:07:50.845609 10991 net.cpp:129] Top shape: 1 32 40 116 (148480)
I0118 19:07:50.845613 10991 net.cpp:137] Memory required for data: 47429844
I0118 19:07:50.845621 10991 layer_factory.hpp:77] Creating layer concat0_3
I0118 19:07:50.845631 10991 net.cpp:84] Creating Layer concat0_3
I0118 19:07:50.845636 10991 net.cpp:406] concat0_3 <- concat0_2_concat0_2_0_split_1
I0118 19:07:50.845643 10991 net.cpp:406] concat0_3 <- conv0_3
I0118 19:07:50.845648 10991 net.cpp:380] concat0_3 -> concat0_3
I0118 19:07:50.845682 10991 net.cpp:122] Setting up concat0_3
I0118 19:07:50.845687 10991 net.cpp:129] Top shape: 1 160 40 116 (742400)
I0118 19:07:50.845690 10991 net.cpp:137] Memory required for data: 50399444
I0118 19:07:50.845691 10991 layer_factory.hpp:77] Creating layer concat0_3_concat0_3_0_split
I0118 19:07:50.845702 10991 net.cpp:84] Creating Layer concat0_3_concat0_3_0_split
I0118 19:07:50.845705 10991 net.cpp:406] concat0_3_concat0_3_0_split <- concat0_3
I0118 19:07:50.845708 10991 net.cpp:380] concat0_3_concat0_3_0_split -> concat0_3_concat0_3_0_split_0
I0118 19:07:50.845715 10991 net.cpp:380] concat0_3_concat0_3_0_split -> concat0_3_concat0_3_0_split_1
I0118 19:07:50.845746 10991 net.cpp:122] Setting up concat0_3_concat0_3_0_split
I0118 19:07:50.845751 10991 net.cpp:129] Top shape: 1 160 40 116 (742400)
I0118 19:07:50.845753 10991 net.cpp:129] Top shape: 1 160 40 116 (742400)
I0118 19:07:50.845755 10991 net.cpp:137] Memory required for data: 56338644
I0118 19:07:50.845757 10991 layer_factory.hpp:77] Creating layer conv0_4/bn
I0118 19:07:50.845767 10991 net.cpp:84] Creating Layer conv0_4/bn
I0118 19:07:50.845769 10991 net.cpp:406] conv0_4/bn <- concat0_3_concat0_3_0_split_0
I0118 19:07:50.845774 10991 net.cpp:380] conv0_4/bn -> conv0_4/bn
I0118 19:07:50.845957 10991 net.cpp:122] Setting up conv0_4/bn
I0118 19:07:50.845962 10991 net.cpp:129] Top shape: 1 160 40 116 (742400)
I0118 19:07:50.845963 10991 net.cpp:137] Memory required for data: 59308244
I0118 19:07:50.845978 10991 layer_factory.hpp:77] Creating layer conv0_4/scale
I0118 19:07:50.845984 10991 net.cpp:84] Creating Layer conv0_4/scale
I0118 19:07:50.845988 10991 net.cpp:406] conv0_4/scale <- conv0_4/bn
I0118 19:07:50.845999 10991 net.cpp:367] conv0_4/scale -> conv0_4/bn (in-place)
I0118 19:07:50.846036 10991 layer_factory.hpp:77] Creating layer conv0_4/scale
I0118 19:07:50.846139 10991 net.cpp:122] Setting up conv0_4/scale
I0118 19:07:50.846144 10991 net.cpp:129] Top shape: 1 160 40 116 (742400)
I0118 19:07:50.846148 10991 net.cpp:137] Memory required for data: 62277844
I0118 19:07:50.846151 10991 layer_factory.hpp:77] Creating layer relu0_4
I0118 19:07:50.846156 10991 net.cpp:84] Creating Layer relu0_4
I0118 19:07:50.846159 10991 net.cpp:406] relu0_4 <- conv0_4/bn
I0118 19:07:50.846163 10991 net.cpp:367] relu0_4 -> conv0_4/bn (in-place)
I0118 19:07:50.846585 10991 net.cpp:122] Setting up relu0_4
I0118 19:07:50.846597 10991 net.cpp:129] Top shape: 1 160 40 116 (742400)
I0118 19:07:50.846601 10991 net.cpp:137] Memory required for data: 65247444
I0118 19:07:50.846603 10991 layer_factory.hpp:77] Creating layer conv0_4
I0118 19:07:50.846614 10991 net.cpp:84] Creating Layer conv0_4
I0118 19:07:50.846617 10991 net.cpp:406] conv0_4 <- conv0_4/bn
I0118 19:07:50.846623 10991 net.cpp:380] conv0_4 -> conv0_4
I0118 19:07:50.849303 10991 net.cpp:122] Setting up conv0_4
I0118 19:07:50.849333 10991 net.cpp:129] Top shape: 1 32 40 116 (148480)
I0118 19:07:50.849335 10991 net.cpp:137] Memory required for data: 65841364
I0118 19:07:50.849344 10991 layer_factory.hpp:77] Creating layer concat0_4
I0118 19:07:50.849354 10991 net.cpp:84] Creating Layer concat0_4
I0118 19:07:50.849359 10991 net.cpp:406] concat0_4 <- concat0_3_concat0_3_0_split_1
I0118 19:07:50.849365 10991 net.cpp:406] concat0_4 <- conv0_4
I0118 19:07:50.849370 10991 net.cpp:380] concat0_4 -> concat0_4
I0118 19:07:50.849406 10991 net.cpp:122] Setting up concat0_4
I0118 19:07:50.849411 10991 net.cpp:129] Top shape: 1 192 40 116 (890880)
I0118 19:07:50.849414 10991 net.cpp:137] Memory required for data: 69404884
I0118 19:07:50.849416 10991 layer_factory.hpp:77] Creating layer concat0_4_concat0_4_0_split
I0118 19:07:50.849422 10991 net.cpp:84] Creating Layer concat0_4_concat0_4_0_split
I0118 19:07:50.849424 10991 net.cpp:406] concat0_4_concat0_4_0_split <- concat0_4
I0118 19:07:50.849428 10991 net.cpp:380] concat0_4_concat0_4_0_split -> concat0_4_concat0_4_0_split_0
I0118 19:07:50.849436 10991 net.cpp:380] concat0_4_concat0_4_0_split -> concat0_4_concat0_4_0_split_1
I0118 19:07:50.849467 10991 net.cpp:122] Setting up concat0_4_concat0_4_0_split
I0118 19:07:50.849472 10991 net.cpp:129] Top shape: 1 192 40 116 (890880)
I0118 19:07:50.849474 10991 net.cpp:129] Top shape: 1 192 40 116 (890880)
I0118 19:07:50.849478 10991 net.cpp:137] Memory required for data: 76531924
I0118 19:07:50.849483 10991 layer_factory.hpp:77] Creating layer conv0_5/bn
I0118 19:07:50.849490 10991 net.cpp:84] Creating Layer conv0_5/bn
I0118 19:07:50.849493 10991 net.cpp:406] conv0_5/bn <- concat0_4_concat0_4_0_split_0
I0118 19:07:50.849498 10991 net.cpp:380] conv0_5/bn -> conv0_5/bn
I0118 19:07:50.849687 10991 net.cpp:122] Setting up conv0_5/bn
I0118 19:07:50.849692 10991 net.cpp:129] Top shape: 1 192 40 116 (890880)
I0118 19:07:50.849695 10991 net.cpp:137] Memory required for data: 80095444
I0118 19:07:50.849701 10991 layer_factory.hpp:77] Creating layer conv0_5/scale
I0118 19:07:50.849709 10991 net.cpp:84] Creating Layer conv0_5/scale
I0118 19:07:50.849710 10991 net.cpp:406] conv0_5/scale <- conv0_5/bn
I0118 19:07:50.849714 10991 net.cpp:367] conv0_5/scale -> conv0_5/bn (in-place)
I0118 19:07:50.849750 10991 layer_factory.hpp:77] Creating layer conv0_5/scale
I0118 19:07:50.849859 10991 net.cpp:122] Setting up conv0_5/scale
I0118 19:07:50.849865 10991 net.cpp:129] Top shape: 1 192 40 116 (890880)
I0118 19:07:50.849867 10991 net.cpp:137] Memory required for data: 83658964
I0118 19:07:50.849872 10991 layer_factory.hpp:77] Creating layer relu0_5
I0118 19:07:50.849877 10991 net.cpp:84] Creating Layer relu0_5
I0118 19:07:50.849879 10991 net.cpp:406] relu0_5 <- conv0_5/bn
I0118 19:07:50.849884 10991 net.cpp:367] relu0_5 -> conv0_5/bn (in-place)
I0118 19:07:50.850075 10991 net.cpp:122] Setting up relu0_5
I0118 19:07:50.850083 10991 net.cpp:129] Top shape: 1 192 40 116 (890880)
I0118 19:07:50.850085 10991 net.cpp:137] Memory required for data: 87222484
I0118 19:07:50.850088 10991 layer_factory.hpp:77] Creating layer conv0_5
I0118 19:07:50.850098 10991 net.cpp:84] Creating Layer conv0_5
I0118 19:07:50.850101 10991 net.cpp:406] conv0_5 <- conv0_5/bn
I0118 19:07:50.850106 10991 net.cpp:380] conv0_5 -> conv0_5
I0118 19:07:50.852934 10991 net.cpp:122] Setting up conv0_5
I0118 19:07:50.852965 10991 net.cpp:129] Top shape: 1 32 40 116 (148480)
I0118 19:07:50.852968 10991 net.cpp:137] Memory required for data: 87816404
I0118 19:07:50.852978 10991 layer_factory.hpp:77] Creating layer concat0_5
I0118 19:07:50.852990 10991 net.cpp:84] Creating Layer concat0_5
I0118 19:07:50.852994 10991 net.cpp:406] concat0_5 <- concat0_4_concat0_4_0_split_1
I0118 19:07:50.853000 10991 net.cpp:406] concat0_5 <- conv0_5
I0118 19:07:50.853006 10991 net.cpp:380] concat0_5 -> concat0_5
I0118 19:07:50.853042 10991 net.cpp:122] Setting up concat0_5
I0118 19:07:50.853046 10991 net.cpp:129] Top shape: 1 224 40 116 (1039360)
I0118 19:07:50.853049 10991 net.cpp:137] Memory required for data: 91973844
I0118 19:07:50.853051 10991 layer_factory.hpp:77] Creating layer concat0_5_concat0_5_0_split
I0118 19:07:50.853056 10991 net.cpp:84] Creating Layer concat0_5_concat0_5_0_split
I0118 19:07:50.853058 10991 net.cpp:406] concat0_5_concat0_5_0_split <- concat0_5
I0118 19:07:50.853063 10991 net.cpp:380] concat0_5_concat0_5_0_split -> concat0_5_concat0_5_0_split_0
I0118 19:07:50.853068 10991 net.cpp:380] concat0_5_concat0_5_0_split -> concat0_5_concat0_5_0_split_1
I0118 19:07:50.853104 10991 net.cpp:122] Setting up concat0_5_concat0_5_0_split
I0118 19:07:50.853109 10991 net.cpp:129] Top shape: 1 224 40 116 (1039360)
I0118 19:07:50.853112 10991 net.cpp:129] Top shape: 1 224 40 116 (1039360)
I0118 19:07:50.853114 10991 net.cpp:137] Memory required for data: 100288724
I0118 19:07:50.853116 10991 layer_factory.hpp:77] Creating layer conv0_6/bn
I0118 19:07:50.853122 10991 net.cpp:84] Creating Layer conv0_6/bn
I0118 19:07:50.853126 10991 net.cpp:406] conv0_6/bn <- concat0_5_concat0_5_0_split_0
I0118 19:07:50.853129 10991 net.cpp:380] conv0_6/bn -> conv0_6/bn
I0118 19:07:50.853320 10991 net.cpp:122] Setting up conv0_6/bn
I0118 19:07:50.853327 10991 net.cpp:129] Top shape: 1 224 40 116 (1039360)
I0118 19:07:50.853328 10991 net.cpp:137] Memory required for data: 104446164
I0118 19:07:50.853335 10991 layer_factory.hpp:77] Creating layer conv0_6/scale
I0118 19:07:50.853341 10991 net.cpp:84] Creating Layer conv0_6/scale
I0118 19:07:50.853344 10991 net.cpp:406] conv0_6/scale <- conv0_6/bn
I0118 19:07:50.853354 10991 net.cpp:367] conv0_6/scale -> conv0_6/bn (in-place)
I0118 19:07:50.853394 10991 layer_factory.hpp:77] Creating layer conv0_6/scale
I0118 19:07:50.853502 10991 net.cpp:122] Setting up conv0_6/scale
I0118 19:07:50.853507 10991 net.cpp:129] Top shape: 1 224 40 116 (1039360)
I0118 19:07:50.853510 10991 net.cpp:137] Memory required for data: 108603604
I0118 19:07:50.853514 10991 layer_factory.hpp:77] Creating layer relu0_6
I0118 19:07:50.853520 10991 net.cpp:84] Creating Layer relu0_6
I0118 19:07:50.853523 10991 net.cpp:406] relu0_6 <- conv0_6/bn
I0118 19:07:50.853534 10991 net.cpp:367] relu0_6 -> conv0_6/bn (in-place)
I0118 19:07:50.853947 10991 net.cpp:122] Setting up relu0_6
I0118 19:07:50.853960 10991 net.cpp:129] Top shape: 1 224 40 116 (1039360)
I0118 19:07:50.853963 10991 net.cpp:137] Memory required for data: 112761044
I0118 19:07:50.853966 10991 layer_factory.hpp:77] Creating layer conv0_6
I0118 19:07:50.853977 10991 net.cpp:84] Creating Layer conv0_6
I0118 19:07:50.853981 10991 net.cpp:406] conv0_6 <- conv0_6/bn
I0118 19:07:50.853987 10991 net.cpp:380] conv0_6 -> conv0_6
I0118 19:07:50.858216 10991 net.cpp:122] Setting up conv0_6
I0118 19:07:50.858234 10991 net.cpp:129] Top shape: 1 32 40 116 (148480)
I0118 19:07:50.858237 10991 net.cpp:137] Memory required for data: 113354964
I0118 19:07:50.858243 10991 layer_factory.hpp:77] Creating layer concat0_6
I0118 19:07:50.858252 10991 net.cpp:84] Creating Layer concat0_6
I0118 19:07:50.858255 10991 net.cpp:406] concat0_6 <- concat0_5_concat0_5_0_split_1
I0118 19:07:50.858259 10991 net.cpp:406] concat0_6 <- conv0_6
I0118 19:07:50.858265 10991 net.cpp:380] concat0_6 -> concat0_6
I0118 19:07:50.858295 10991 net.cpp:122] Setting up concat0_6
I0118 19:07:50.858299 10991 net.cpp:129] Top shape: 1 256 40 116 (1187840)
I0118 19:07:50.858302 10991 net.cpp:137] Memory required for data: 118106324
I0118 19:07:50.858304 10991 layer_factory.hpp:77] Creating layer concat0_6_concat0_6_0_split
I0118 19:07:50.858314 10991 net.cpp:84] Creating Layer concat0_6_concat0_6_0_split
I0118 19:07:50.858315 10991 net.cpp:406] concat0_6_concat0_6_0_split <- concat0_6
I0118 19:07:50.858319 10991 net.cpp:380] concat0_6_concat0_6_0_split -> concat0_6_concat0_6_0_split_0
I0118 19:07:50.858323 10991 net.cpp:380] concat0_6_concat0_6_0_split -> concat0_6_concat0_6_0_split_1
I0118 19:07:50.858355 10991 net.cpp:122] Setting up concat0_6_concat0_6_0_split
I0118 19:07:50.858361 10991 net.cpp:129] Top shape: 1 256 40 116 (1187840)
I0118 19:07:50.858363 10991 net.cpp:129] Top shape: 1 256 40 116 (1187840)
I0118 19:07:50.858366 10991 net.cpp:137] Memory required for data: 127609044
I0118 19:07:50.858367 10991 layer_factory.hpp:77] Creating layer conv0_7/bn
I0118 19:07:50.858374 10991 net.cpp:84] Creating Layer conv0_7/bn
I0118 19:07:50.858376 10991 net.cpp:406] conv0_7/bn <- concat0_6_concat0_6_0_split_0
I0118 19:07:50.858381 10991 net.cpp:380] conv0_7/bn -> conv0_7/bn
I0118 19:07:50.858556 10991 net.cpp:122] Setting up conv0_7/bn
I0118 19:07:50.858561 10991 net.cpp:129] Top shape: 1 256 40 116 (1187840)
I0118 19:07:50.858563 10991 net.cpp:137] Memory required for data: 132360404
I0118 19:07:50.858569 10991 layer_factory.hpp:77] Creating layer conv0_7/scale
I0118 19:07:50.858575 10991 net.cpp:84] Creating Layer conv0_7/scale
I0118 19:07:50.858578 10991 net.cpp:406] conv0_7/scale <- conv0_7/bn
I0118 19:07:50.858583 10991 net.cpp:367] conv0_7/scale -> conv0_7/bn (in-place)
I0118 19:07:50.858618 10991 layer_factory.hpp:77] Creating layer conv0_7/scale
I0118 19:07:50.858716 10991 net.cpp:122] Setting up conv0_7/scale
I0118 19:07:50.858722 10991 net.cpp:129] Top shape: 1 256 40 116 (1187840)
I0118 19:07:50.858724 10991 net.cpp:137] Memory required for data: 137111764
I0118 19:07:50.858729 10991 layer_factory.hpp:77] Creating layer relu0_7
I0118 19:07:50.858734 10991 net.cpp:84] Creating Layer relu0_7
I0118 19:07:50.858736 10991 net.cpp:406] relu0_7 <- conv0_7/bn
I0118 19:07:50.858739 10991 net.cpp:367] relu0_7 -> conv0_7/bn (in-place)
I0118 19:07:50.859160 10991 net.cpp:122] Setting up relu0_7
I0118 19:07:50.859171 10991 net.cpp:129] Top shape: 1 256 40 116 (1187840)
I0118 19:07:50.859174 10991 net.cpp:137] Memory required for data: 141863124
I0118 19:07:50.859176 10991 layer_factory.hpp:77] Creating layer conv0_7
I0118 19:07:50.859187 10991 net.cpp:84] Creating Layer conv0_7
I0118 19:07:50.859190 10991 net.cpp:406] conv0_7 <- conv0_7/bn
I0118 19:07:50.859194 10991 net.cpp:380] conv0_7 -> conv0_7
I0118 19:07:50.862747 10991 net.cpp:122] Setting up conv0_7
I0118 19:07:50.862776 10991 net.cpp:129] Top shape: 1 32 40 116 (148480)
I0118 19:07:50.862778 10991 net.cpp:137] Memory required for data: 142457044
I0118 19:07:50.862787 10991 layer_factory.hpp:77] Creating layer concat0_7
I0118 19:07:50.862797 10991 net.cpp:84] Creating Layer concat0_7
I0118 19:07:50.862802 10991 net.cpp:406] concat0_7 <- concat0_6_concat0_6_0_split_1
I0118 19:07:50.862807 10991 net.cpp:406] concat0_7 <- conv0_7
I0118 19:07:50.862812 10991 net.cpp:380] concat0_7 -> concat0_7
I0118 19:07:50.862848 10991 net.cpp:122] Setting up concat0_7
I0118 19:07:50.862853 10991 net.cpp:129] Top shape: 1 288 40 116 (1336320)
I0118 19:07:50.862855 10991 net.cpp:137] Memory required for data: 147802324
I0118 19:07:50.862857 10991 layer_factory.hpp:77] Creating layer concat0_7_concat0_7_0_split
I0118 19:07:50.862862 10991 net.cpp:84] Creating Layer concat0_7_concat0_7_0_split
I0118 19:07:50.862865 10991 net.cpp:406] concat0_7_concat0_7_0_split <- concat0_7
I0118 19:07:50.862870 10991 net.cpp:380] concat0_7_concat0_7_0_split -> concat0_7_concat0_7_0_split_0
I0118 19:07:50.862875 10991 net.cpp:380] concat0_7_concat0_7_0_split -> concat0_7_concat0_7_0_split_1
I0118 19:07:50.862910 10991 net.cpp:122] Setting up concat0_7_concat0_7_0_split
I0118 19:07:50.862915 10991 net.cpp:129] Top shape: 1 288 40 116 (1336320)
I0118 19:07:50.862918 10991 net.cpp:129] Top shape: 1 288 40 116 (1336320)
I0118 19:07:50.862921 10991 net.cpp:137] Memory required for data: 158492884
I0118 19:07:50.862924 10991 layer_factory.hpp:77] Creating layer conv0_8/bn
I0118 19:07:50.862931 10991 net.cpp:84] Creating Layer conv0_8/bn
I0118 19:07:50.862936 10991 net.cpp:406] conv0_8/bn <- concat0_7_concat0_7_0_split_0
I0118 19:07:50.862942 10991 net.cpp:380] conv0_8/bn -> conv0_8/bn
I0118 19:07:50.863214 10991 net.cpp:122] Setting up conv0_8/bn
I0118 19:07:50.863227 10991 net.cpp:129] Top shape: 1 288 40 116 (1336320)
I0118 19:07:50.863232 10991 net.cpp:137] Memory required for data: 163838164
I0118 19:07:50.863245 10991 layer_factory.hpp:77] Creating layer conv0_8/scale
I0118 19:07:50.863257 10991 net.cpp:84] Creating Layer conv0_8/scale
I0118 19:07:50.863262 10991 net.cpp:406] conv0_8/scale <- conv0_8/bn
I0118 19:07:50.863270 10991 net.cpp:367] conv0_8/scale -> conv0_8/bn (in-place)
I0118 19:07:50.863317 10991 layer_factory.hpp:77] Creating layer conv0_8/scale
I0118 19:07:50.863428 10991 net.cpp:122] Setting up conv0_8/scale
I0118 19:07:50.863435 10991 net.cpp:129] Top shape: 1 288 40 116 (1336320)
I0118 19:07:50.863436 10991 net.cpp:137] Memory required for data: 169183444
I0118 19:07:50.863441 10991 layer_factory.hpp:77] Creating layer relu0_8
I0118 19:07:50.863446 10991 net.cpp:84] Creating Layer relu0_8
I0118 19:07:50.863450 10991 net.cpp:406] relu0_8 <- conv0_8/bn
I0118 19:07:50.863453 10991 net.cpp:367] relu0_8 -> conv0_8/bn (in-place)
I0118 19:07:50.863862 10991 net.cpp:122] Setting up relu0_8
I0118 19:07:50.863873 10991 net.cpp:129] Top shape: 1 288 40 116 (1336320)
I0118 19:07:50.863876 10991 net.cpp:137] Memory required for data: 174528724
I0118 19:07:50.863879 10991 layer_factory.hpp:77] Creating layer conv0_8
I0118 19:07:50.863889 10991 net.cpp:84] Creating Layer conv0_8
I0118 19:07:50.863893 10991 net.cpp:406] conv0_8 <- conv0_8/bn
I0118 19:07:50.863900 10991 net.cpp:380] conv0_8 -> conv0_8
I0118 19:07:50.867727 10991 net.cpp:122] Setting up conv0_8
I0118 19:07:50.867768 10991 net.cpp:129] Top shape: 1 32 40 116 (148480)
I0118 19:07:50.867772 10991 net.cpp:137] Memory required for data: 175122644
I0118 19:07:50.867782 10991 layer_factory.hpp:77] Creating layer concat0_8
I0118 19:07:50.867800 10991 net.cpp:84] Creating Layer concat0_8
I0118 19:07:50.867807 10991 net.cpp:406] concat0_8 <- concat0_7_concat0_7_0_split_1
I0118 19:07:50.867815 10991 net.cpp:406] concat0_8 <- conv0_8
I0118 19:07:50.867821 10991 net.cpp:380] concat0_8 -> concat0_8
I0118 19:07:50.867864 10991 net.cpp:122] Setting up concat0_8
I0118 19:07:50.867872 10991 net.cpp:129] Top shape: 1 320 40 116 (1484800)
I0118 19:07:50.867877 10991 net.cpp:137] Memory required for data: 181061844
I0118 19:07:50.867880 10991 layer_factory.hpp:77] Creating layer concat0_8_concat0_8_0_split
I0118 19:07:50.867887 10991 net.cpp:84] Creating Layer concat0_8_concat0_8_0_split
I0118 19:07:50.867890 10991 net.cpp:406] concat0_8_concat0_8_0_split <- concat0_8
I0118 19:07:50.867898 10991 net.cpp:380] concat0_8_concat0_8_0_split -> concat0_8_concat0_8_0_split_0
I0118 19:07:50.867905 10991 net.cpp:380] concat0_8_concat0_8_0_split -> concat0_8_concat0_8_0_split_1
I0118 19:07:50.867952 10991 net.cpp:122] Setting up concat0_8_concat0_8_0_split
I0118 19:07:50.867965 10991 net.cpp:129] Top shape: 1 320 40 116 (1484800)
I0118 19:07:50.867971 10991 net.cpp:129] Top shape: 1 320 40 116 (1484800)
I0118 19:07:50.867975 10991 net.cpp:137] Memory required for data: 192940244
I0118 19:07:50.867980 10991 layer_factory.hpp:77] Creating layer conv0_9/bn
I0118 19:07:50.867987 10991 net.cpp:84] Creating Layer conv0_9/bn
I0118 19:07:50.867992 10991 net.cpp:406] conv0_9/bn <- concat0_8_concat0_8_0_split_0
I0118 19:07:50.867998 10991 net.cpp:380] conv0_9/bn -> conv0_9/bn
I0118 19:07:50.868293 10991 net.cpp:122] Setting up conv0_9/bn
I0118 19:07:50.868300 10991 net.cpp:129] Top shape: 1 320 40 116 (1484800)
I0118 19:07:50.868304 10991 net.cpp:137] Memory required for data: 198879444
I0118 19:07:50.868314 10991 layer_factory.hpp:77] Creating layer conv0_9/scale
I0118 19:07:50.868324 10991 net.cpp:84] Creating Layer conv0_9/scale
I0118 19:07:50.868327 10991 net.cpp:406] conv0_9/scale <- conv0_9/bn
I0118 19:07:50.868335 10991 net.cpp:367] conv0_9/scale -> conv0_9/bn (in-place)
I0118 19:07:50.868393 10991 layer_factory.hpp:77] Creating layer conv0_9/scale
I0118 19:07:50.868556 10991 net.cpp:122] Setting up conv0_9/scale
I0118 19:07:50.868563 10991 net.cpp:129] Top shape: 1 320 40 116 (1484800)
I0118 19:07:50.868568 10991 net.cpp:137] Memory required for data: 204818644
I0118 19:07:50.868583 10991 layer_factory.hpp:77] Creating layer relu0_9
I0118 19:07:50.868598 10991 net.cpp:84] Creating Layer relu0_9
I0118 19:07:50.868603 10991 net.cpp:406] relu0_9 <- conv0_9/bn
I0118 19:07:50.868609 10991 net.cpp:367] relu0_9 -> conv0_9/bn (in-place)
I0118 19:07:50.869063 10991 net.cpp:122] Setting up relu0_9
I0118 19:07:50.869076 10991 net.cpp:129] Top shape: 1 320 40 116 (1484800)
I0118 19:07:50.869081 10991 net.cpp:137] Memory required for data: 210757844
I0118 19:07:50.869086 10991 layer_factory.hpp:77] Creating layer conv0_9
I0118 19:07:50.869101 10991 net.cpp:84] Creating Layer conv0_9
I0118 19:07:50.869105 10991 net.cpp:406] conv0_9 <- conv0_9/bn
I0118 19:07:50.869112 10991 net.cpp:380] conv0_9 -> conv0_9
I0118 19:07:50.874635 10991 net.cpp:122] Setting up conv0_9
I0118 19:07:50.874670 10991 net.cpp:129] Top shape: 1 32 40 116 (148480)
I0118 19:07:50.874673 10991 net.cpp:137] Memory required for data: 211351764
I0118 19:07:50.874683 10991 layer_factory.hpp:77] Creating layer concat0_9
I0118 19:07:50.874696 10991 net.cpp:84] Creating Layer concat0_9
I0118 19:07:50.874702 10991 net.cpp:406] concat0_9 <- concat0_8_concat0_8_0_split_1
I0118 19:07:50.874711 10991 net.cpp:406] concat0_9 <- conv0_9
I0118 19:07:50.874717 10991 net.cpp:380] concat0_9 -> concat0_9
I0118 19:07:50.874759 10991 net.cpp:122] Setting up concat0_9
I0118 19:07:50.874768 10991 net.cpp:129] Top shape: 1 352 40 116 (1633280)
I0118 19:07:50.874771 10991 net.cpp:137] Memory required for data: 217884884
I0118 19:07:50.874775 10991 layer_factory.hpp:77] Creating layer BatchNorm1
I0118 19:07:50.874784 10991 net.cpp:84] Creating Layer BatchNorm1
I0118 19:07:50.874789 10991 net.cpp:406] BatchNorm1 <- concat0_9
I0118 19:07:50.874795 10991 net.cpp:380] BatchNorm1 -> BatchNorm1
I0118 19:07:50.875110 10991 net.cpp:122] Setting up BatchNorm1
I0118 19:07:50.875120 10991 net.cpp:129] Top shape: 1 352 40 116 (1633280)
I0118 19:07:50.875124 10991 net.cpp:137] Memory required for data: 224418004
I0118 19:07:50.875134 10991 layer_factory.hpp:77] Creating layer Scale1
I0118 19:07:50.875144 10991 net.cpp:84] Creating Layer Scale1
I0118 19:07:50.875147 10991 net.cpp:406] Scale1 <- BatchNorm1
I0118 19:07:50.875154 10991 net.cpp:367] Scale1 -> BatchNorm1 (in-place)
I0118 19:07:50.875211 10991 layer_factory.hpp:77] Creating layer Scale1
I0118 19:07:50.875375 10991 net.cpp:122] Setting up Scale1
I0118 19:07:50.875391 10991 net.cpp:129] Top shape: 1 352 40 116 (1633280)
I0118 19:07:50.875396 10991 net.cpp:137] Memory required for data: 230951124
I0118 19:07:50.875402 10991 layer_factory.hpp:77] Creating layer ReLU1
I0118 19:07:50.875409 10991 net.cpp:84] Creating Layer ReLU1
I0118 19:07:50.875413 10991 net.cpp:406] ReLU1 <- BatchNorm1
I0118 19:07:50.875418 10991 net.cpp:367] ReLU1 -> BatchNorm1 (in-place)
I0118 19:07:50.875664 10991 net.cpp:122] Setting up ReLU1
I0118 19:07:50.875675 10991 net.cpp:129] Top shape: 1 352 40 116 (1633280)
I0118 19:07:50.875680 10991 net.cpp:137] Memory required for data: 237484244
I0118 19:07:50.875684 10991 layer_factory.hpp:77] Creating layer conv0_blk
I0118 19:07:50.875696 10991 net.cpp:84] Creating Layer conv0_blk
I0118 19:07:50.875701 10991 net.cpp:406] conv0_blk <- BatchNorm1
I0118 19:07:50.875708 10991 net.cpp:380] conv0_blk -> conv0_blk
I0118 19:07:50.882562 10991 net.cpp:122] Setting up conv0_blk
I0118 19:07:50.882593 10991 net.cpp:129] Top shape: 1 352 40 116 (1633280)
I0118 19:07:50.882601 10991 net.cpp:137] Memory required for data: 244017364
I0118 19:07:50.882609 10991 layer_factory.hpp:77] Creating layer pool0
I0118 19:07:50.882623 10991 net.cpp:84] Creating Layer pool0
I0118 19:07:50.882632 10991 net.cpp:406] pool0 <- conv0_blk
I0118 19:07:50.882642 10991 net.cpp:380] pool0 -> pool0
I0118 19:07:50.883175 10991 net.cpp:122] Setting up pool0
I0118 19:07:50.883193 10991 net.cpp:129] Top shape: 1 352 20 58 (408320)
I0118 19:07:50.883196 10991 net.cpp:137] Memory required for data: 245650644
I0118 19:07:50.883201 10991 layer_factory.hpp:77] Creating layer pool0_pool0_0_split
I0118 19:07:50.883209 10991 net.cpp:84] Creating Layer pool0_pool0_0_split
I0118 19:07:50.883214 10991 net.cpp:406] pool0_pool0_0_split <- pool0
I0118 19:07:50.883220 10991 net.cpp:380] pool0_pool0_0_split -> pool0_pool0_0_split_0
I0118 19:07:50.883229 10991 net.cpp:380] pool0_pool0_0_split -> pool0_pool0_0_split_1
I0118 19:07:50.883291 10991 net.cpp:122] Setting up pool0_pool0_0_split
I0118 19:07:50.883298 10991 net.cpp:129] Top shape: 1 352 20 58 (408320)
I0118 19:07:50.883304 10991 net.cpp:129] Top shape: 1 352 20 58 (408320)
I0118 19:07:50.883308 10991 net.cpp:137] Memory required for data: 248917204
I0118 19:07:50.883312 10991 layer_factory.hpp:77] Creating layer conv1_0/bn
I0118 19:07:50.883327 10991 net.cpp:84] Creating Layer conv1_0/bn
I0118 19:07:50.883332 10991 net.cpp:406] conv1_0/bn <- pool0_pool0_0_split_0
I0118 19:07:50.883339 10991 net.cpp:380] conv1_0/bn -> conv1_0/bn
I0118 19:07:50.884317 10991 net.cpp:122] Setting up conv1_0/bn
I0118 19:07:50.884341 10991 net.cpp:129] Top shape: 1 352 20 58 (408320)
I0118 19:07:50.884344 10991 net.cpp:137] Memory required for data: 250550484
I0118 19:07:50.884358 10991 layer_factory.hpp:77] Creating layer conv1_0/scale
I0118 19:07:50.884372 10991 net.cpp:84] Creating Layer conv1_0/scale
I0118 19:07:50.884378 10991 net.cpp:406] conv1_0/scale <- conv1_0/bn
I0118 19:07:50.884385 10991 net.cpp:367] conv1_0/scale -> conv1_0/bn (in-place)
I0118 19:07:50.884454 10991 layer_factory.hpp:77] Creating layer conv1_0/scale
I0118 19:07:50.884624 10991 net.cpp:122] Setting up conv1_0/scale
I0118 19:07:50.884632 10991 net.cpp:129] Top shape: 1 352 20 58 (408320)
I0118 19:07:50.884636 10991 net.cpp:137] Memory required for data: 252183764
I0118 19:07:50.884644 10991 layer_factory.hpp:77] Creating layer relu1_0
I0118 19:07:50.884660 10991 net.cpp:84] Creating Layer relu1_0
I0118 19:07:50.884665 10991 net.cpp:406] relu1_0 <- conv1_0/bn
I0118 19:07:50.884670 10991 net.cpp:367] relu1_0 -> conv1_0/bn (in-place)
I0118 19:07:50.884958 10991 net.cpp:122] Setting up relu1_0
I0118 19:07:50.884969 10991 net.cpp:129] Top shape: 1 352 20 58 (408320)
I0118 19:07:50.884974 10991 net.cpp:137] Memory required for data: 253817044
I0118 19:07:50.884979 10991 layer_factory.hpp:77] Creating layer conv1_0
I0118 19:07:50.884992 10991 net.cpp:84] Creating Layer conv1_0
I0118 19:07:50.884997 10991 net.cpp:406] conv1_0 <- conv1_0/bn
I0118 19:07:50.885005 10991 net.cpp:380] conv1_0 -> conv1_0
I0118 19:07:50.891062 10991 net.cpp:122] Setting up conv1_0
I0118 19:07:50.891098 10991 net.cpp:129] Top shape: 1 32 20 58 (37120)
I0118 19:07:50.891103 10991 net.cpp:137] Memory required for data: 253965524
I0118 19:07:50.891113 10991 layer_factory.hpp:77] Creating layer concat1_0
I0118 19:07:50.891126 10991 net.cpp:84] Creating Layer concat1_0
I0118 19:07:50.891134 10991 net.cpp:406] concat1_0 <- pool0_pool0_0_split_1
I0118 19:07:50.891140 10991 net.cpp:406] concat1_0 <- conv1_0
I0118 19:07:50.891147 10991 net.cpp:380] concat1_0 -> concat1_0
I0118 19:07:50.891198 10991 net.cpp:122] Setting up concat1_0
I0118 19:07:50.891207 10991 net.cpp:129] Top shape: 1 384 20 58 (445440)
I0118 19:07:50.891211 10991 net.cpp:137] Memory required for data: 255747284
I0118 19:07:50.891216 10991 layer_factory.hpp:77] Creating layer concat1_0_concat1_0_0_split
I0118 19:07:50.891223 10991 net.cpp:84] Creating Layer concat1_0_concat1_0_0_split
I0118 19:07:50.891227 10991 net.cpp:406] concat1_0_concat1_0_0_split <- concat1_0
I0118 19:07:50.891235 10991 net.cpp:380] concat1_0_concat1_0_0_split -> concat1_0_concat1_0_0_split_0
I0118 19:07:50.891243 10991 net.cpp:380] concat1_0_concat1_0_0_split -> concat1_0_concat1_0_0_split_1
I0118 19:07:50.891294 10991 net.cpp:122] Setting up concat1_0_concat1_0_0_split
I0118 19:07:50.891301 10991 net.cpp:129] Top shape: 1 384 20 58 (445440)
I0118 19:07:50.891306 10991 net.cpp:129] Top shape: 1 384 20 58 (445440)
I0118 19:07:50.891310 10991 net.cpp:137] Memory required for data: 259310804
I0118 19:07:50.891314 10991 layer_factory.hpp:77] Creating layer conv1_1/bn
I0118 19:07:50.891324 10991 net.cpp:84] Creating Layer conv1_1/bn
I0118 19:07:50.891327 10991 net.cpp:406] conv1_1/bn <- concat1_0_concat1_0_0_split_0
I0118 19:07:50.891335 10991 net.cpp:380] conv1_1/bn -> conv1_1/bn
I0118 19:07:50.891623 10991 net.cpp:122] Setting up conv1_1/bn
I0118 19:07:50.891630 10991 net.cpp:129] Top shape: 1 384 20 58 (445440)
I0118 19:07:50.891634 10991 net.cpp:137] Memory required for data: 261092564
I0118 19:07:50.891644 10991 layer_factory.hpp:77] Creating layer conv1_1/scale
I0118 19:07:50.891654 10991 net.cpp:84] Creating Layer conv1_1/scale
I0118 19:07:50.891659 10991 net.cpp:406] conv1_1/scale <- conv1_1/bn
I0118 19:07:50.891664 10991 net.cpp:367] conv1_1/scale -> conv1_1/bn (in-place)
I0118 19:07:50.891716 10991 layer_factory.hpp:77] Creating layer conv1_1/scale
I0118 19:07:50.891880 10991 net.cpp:122] Setting up conv1_1/scale
I0118 19:07:50.891890 10991 net.cpp:129] Top shape: 1 384 20 58 (445440)
I0118 19:07:50.891893 10991 net.cpp:137] Memory required for data: 262874324
I0118 19:07:50.891901 10991 layer_factory.hpp:77] Creating layer relu1_1
I0118 19:07:50.891908 10991 net.cpp:84] Creating Layer relu1_1
I0118 19:07:50.891912 10991 net.cpp:406] relu1_1 <- conv1_1/bn
I0118 19:07:50.891919 10991 net.cpp:367] relu1_1 -> conv1_1/bn (in-place)
I0118 19:07:50.892372 10991 net.cpp:122] Setting up relu1_1
I0118 19:07:50.892385 10991 net.cpp:129] Top shape: 1 384 20 58 (445440)
I0118 19:07:50.892390 10991 net.cpp:137] Memory required for data: 264656084
I0118 19:07:50.892395 10991 layer_factory.hpp:77] Creating layer conv1_1
I0118 19:07:50.892408 10991 net.cpp:84] Creating Layer conv1_1
I0118 19:07:50.892413 10991 net.cpp:406] conv1_1 <- conv1_1/bn
I0118 19:07:50.892421 10991 net.cpp:380] conv1_1 -> conv1_1
I0118 19:07:50.898768 10991 net.cpp:122] Setting up conv1_1
I0118 19:07:50.898790 10991 net.cpp:129] Top shape: 1 32 20 58 (37120)
I0118 19:07:50.898794 10991 net.cpp:137] Memory required for data: 264804564
I0118 19:07:50.898802 10991 layer_factory.hpp:77] Creating layer concat1_1
I0118 19:07:50.898811 10991 net.cpp:84] Creating Layer concat1_1
I0118 19:07:50.898816 10991 net.cpp:406] concat1_1 <- concat1_0_concat1_0_0_split_1
I0118 19:07:50.898823 10991 net.cpp:406] concat1_1 <- conv1_1
I0118 19:07:50.898830 10991 net.cpp:380] concat1_1 -> concat1_1
I0118 19:07:50.898869 10991 net.cpp:122] Setting up concat1_1
I0118 19:07:50.898880 10991 net.cpp:129] Top shape: 1 416 20 58 (482560)
I0118 19:07:50.898883 10991 net.cpp:137] Memory required for data: 266734804
I0118 19:07:50.898887 10991 layer_factory.hpp:77] Creating layer concat1_1_concat1_1_0_split
I0118 19:07:50.898893 10991 net.cpp:84] Creating Layer concat1_1_concat1_1_0_split
I0118 19:07:50.898897 10991 net.cpp:406] concat1_1_concat1_1_0_split <- concat1_1
I0118 19:07:50.898903 10991 net.cpp:380] concat1_1_concat1_1_0_split -> concat1_1_concat1_1_0_split_0
I0118 19:07:50.898910 10991 net.cpp:380] concat1_1_concat1_1_0_split -> concat1_1_concat1_1_0_split_1
I0118 19:07:50.898965 10991 net.cpp:122] Setting up concat1_1_concat1_1_0_split
I0118 19:07:50.898973 10991 net.cpp:129] Top shape: 1 416 20 58 (482560)
I0118 19:07:50.898978 10991 net.cpp:129] Top shape: 1 416 20 58 (482560)
I0118 19:07:50.898983 10991 net.cpp:137] Memory required for data: 270595284
I0118 19:07:50.898986 10991 layer_factory.hpp:77] Creating layer conv1_2/bn
I0118 19:07:50.898998 10991 net.cpp:84] Creating Layer conv1_2/bn
I0118 19:07:50.899003 10991 net.cpp:406] conv1_2/bn <- concat1_1_concat1_1_0_split_0
I0118 19:07:50.899008 10991 net.cpp:380] conv1_2/bn -> conv1_2/bn
I0118 19:07:50.899299 10991 net.cpp:122] Setting up conv1_2/bn
I0118 19:07:50.899308 10991 net.cpp:129] Top shape: 1 416 20 58 (482560)
I0118 19:07:50.899312 10991 net.cpp:137] Memory required for data: 272525524
I0118 19:07:50.899322 10991 layer_factory.hpp:77] Creating layer conv1_2/scale
I0118 19:07:50.899330 10991 net.cpp:84] Creating Layer conv1_2/scale
I0118 19:07:50.899334 10991 net.cpp:406] conv1_2/scale <- conv1_2/bn
I0118 19:07:50.899340 10991 net.cpp:367] conv1_2/scale -> conv1_2/bn (in-place)
I0118 19:07:50.899397 10991 layer_factory.hpp:77] Creating layer conv1_2/scale
I0118 19:07:50.899555 10991 net.cpp:122] Setting up conv1_2/scale
I0118 19:07:50.899564 10991 net.cpp:129] Top shape: 1 416 20 58 (482560)
I0118 19:07:50.899567 10991 net.cpp:137] Memory required for data: 274455764
I0118 19:07:50.899574 10991 layer_factory.hpp:77] Creating layer relu1_2
I0118 19:07:50.899583 10991 net.cpp:84] Creating Layer relu1_2
I0118 19:07:50.899588 10991 net.cpp:406] relu1_2 <- conv1_2/bn
I0118 19:07:50.899593 10991 net.cpp:367] relu1_2 -> conv1_2/bn (in-place)
I0118 19:07:50.900051 10991 net.cpp:122] Setting up relu1_2
I0118 19:07:50.900063 10991 net.cpp:129] Top shape: 1 416 20 58 (482560)
I0118 19:07:50.900068 10991 net.cpp:137] Memory required for data: 276386004
I0118 19:07:50.900072 10991 layer_factory.hpp:77] Creating layer conv1_2
I0118 19:07:50.900084 10991 net.cpp:84] Creating Layer conv1_2
I0118 19:07:50.900089 10991 net.cpp:406] conv1_2 <- conv1_2/bn
I0118 19:07:50.900099 10991 net.cpp:380] conv1_2 -> conv1_2
I0118 19:07:50.906178 10991 net.cpp:122] Setting up conv1_2
I0118 19:07:50.906194 10991 net.cpp:129] Top shape: 1 32 20 58 (37120)
I0118 19:07:50.906198 10991 net.cpp:137] Memory required for data: 276534484
I0118 19:07:50.906205 10991 layer_factory.hpp:77] Creating layer concat1_2
I0118 19:07:50.906215 10991 net.cpp:84] Creating Layer concat1_2
I0118 19:07:50.906221 10991 net.cpp:406] concat1_2 <- concat1_1_concat1_1_0_split_1
I0118 19:07:50.906227 10991 net.cpp:406] concat1_2 <- conv1_2
I0118 19:07:50.906234 10991 net.cpp:380] concat1_2 -> concat1_2
I0118 19:07:50.906277 10991 net.cpp:122] Setting up concat1_2
I0118 19:07:50.906286 10991 net.cpp:129] Top shape: 1 448 20 58 (519680)
I0118 19:07:50.906289 10991 net.cpp:137] Memory required for data: 278613204
I0118 19:07:50.906293 10991 layer_factory.hpp:77] Creating layer concat1_2_concat1_2_0_split
I0118 19:07:50.906303 10991 net.cpp:84] Creating Layer concat1_2_concat1_2_0_split
I0118 19:07:50.906308 10991 net.cpp:406] concat1_2_concat1_2_0_split <- concat1_2
I0118 19:07:50.906316 10991 net.cpp:380] concat1_2_concat1_2_0_split -> concat1_2_concat1_2_0_split_0
I0118 19:07:50.906323 10991 net.cpp:380] concat1_2_concat1_2_0_split -> concat1_2_concat1_2_0_split_1
I0118 19:07:50.906373 10991 net.cpp:122] Setting up concat1_2_concat1_2_0_split
I0118 19:07:50.906380 10991 net.cpp:129] Top shape: 1 448 20 58 (519680)
I0118 19:07:50.906386 10991 net.cpp:129] Top shape: 1 448 20 58 (519680)
I0118 19:07:50.906390 10991 net.cpp:137] Memory required for data: 282770644
I0118 19:07:50.906394 10991 layer_factory.hpp:77] Creating layer conv1_3/bn
I0118 19:07:50.906402 10991 net.cpp:84] Creating Layer conv1_3/bn
I0118 19:07:50.906407 10991 net.cpp:406] conv1_3/bn <- concat1_2_concat1_2_0_split_0
I0118 19:07:50.906414 10991 net.cpp:380] conv1_3/bn -> conv1_3/bn
I0118 19:07:50.906708 10991 net.cpp:122] Setting up conv1_3/bn
I0118 19:07:50.906718 10991 net.cpp:129] Top shape: 1 448 20 58 (519680)
I0118 19:07:50.906721 10991 net.cpp:137] Memory required for data: 284849364
I0118 19:07:50.906730 10991 layer_factory.hpp:77] Creating layer conv1_3/scale
I0118 19:07:50.906738 10991 net.cpp:84] Creating Layer conv1_3/scale
I0118 19:07:50.906743 10991 net.cpp:406] conv1_3/scale <- conv1_3/bn
I0118 19:07:50.906750 10991 net.cpp:367] conv1_3/scale -> conv1_3/bn (in-place)
I0118 19:07:50.906807 10991 layer_factory.hpp:77] Creating layer conv1_3/scale
I0118 19:07:50.906970 10991 net.cpp:122] Setting up conv1_3/scale
I0118 19:07:50.906980 10991 net.cpp:129] Top shape: 1 448 20 58 (519680)
I0118 19:07:50.906983 10991 net.cpp:137] Memory required for data: 286928084
I0118 19:07:50.906991 10991 layer_factory.hpp:77] Creating layer relu1_3
I0118 19:07:50.906997 10991 net.cpp:84] Creating Layer relu1_3
I0118 19:07:50.907001 10991 net.cpp:406] relu1_3 <- conv1_3/bn
I0118 19:07:50.907008 10991 net.cpp:367] relu1_3 -> conv1_3/bn (in-place)
I0118 19:07:50.907452 10991 net.cpp:122] Setting up relu1_3
I0118 19:07:50.907464 10991 net.cpp:129] Top shape: 1 448 20 58 (519680)
I0118 19:07:50.907469 10991 net.cpp:137] Memory required for data: 289006804
I0118 19:07:50.907474 10991 layer_factory.hpp:77] Creating layer conv1_3
I0118 19:07:50.907487 10991 net.cpp:84] Creating Layer conv1_3
I0118 19:07:50.907492 10991 net.cpp:406] conv1_3 <- conv1_3/bn
I0118 19:07:50.907500 10991 net.cpp:380] conv1_3 -> conv1_3
I0118 19:07:50.914659 10991 net.cpp:122] Setting up conv1_3
I0118 19:07:50.914690 10991 net.cpp:129] Top shape: 1 32 20 58 (37120)
I0118 19:07:50.914695 10991 net.cpp:137] Memory required for data: 289155284
I0118 19:07:50.914705 10991 layer_factory.hpp:77] Creating layer concat1_3
I0118 19:07:50.914719 10991 net.cpp:84] Creating Layer concat1_3
I0118 19:07:50.914726 10991 net.cpp:406] concat1_3 <- concat1_2_concat1_2_0_split_1
I0118 19:07:50.914734 10991 net.cpp:406] concat1_3 <- conv1_3
I0118 19:07:50.914741 10991 net.cpp:380] concat1_3 -> concat1_3
I0118 19:07:50.914786 10991 net.cpp:122] Setting up concat1_3
I0118 19:07:50.914794 10991 net.cpp:129] Top shape: 1 480 20 58 (556800)
I0118 19:07:50.914798 10991 net.cpp:137] Memory required for data: 291382484
I0118 19:07:50.914803 10991 layer_factory.hpp:77] Creating layer concat1_3_concat1_3_0_split
I0118 19:07:50.914809 10991 net.cpp:84] Creating Layer concat1_3_concat1_3_0_split
I0118 19:07:50.914813 10991 net.cpp:406] concat1_3_concat1_3_0_split <- concat1_3
I0118 19:07:50.914821 10991 net.cpp:380] concat1_3_concat1_3_0_split -> concat1_3_concat1_3_0_split_0
I0118 19:07:50.914829 10991 net.cpp:380] concat1_3_concat1_3_0_split -> concat1_3_concat1_3_0_split_1
I0118 19:07:50.914880 10991 net.cpp:122] Setting up concat1_3_concat1_3_0_split
I0118 19:07:50.914887 10991 net.cpp:129] Top shape: 1 480 20 58 (556800)
I0118 19:07:50.914892 10991 net.cpp:129] Top shape: 1 480 20 58 (556800)
I0118 19:07:50.914896 10991 net.cpp:137] Memory required for data: 295836884
I0118 19:07:50.914906 10991 layer_factory.hpp:77] Creating layer conv1_4/bn
I0118 19:07:50.914916 10991 net.cpp:84] Creating Layer conv1_4/bn
I0118 19:07:50.914919 10991 net.cpp:406] conv1_4/bn <- concat1_3_concat1_3_0_split_0
I0118 19:07:50.914927 10991 net.cpp:380] conv1_4/bn -> conv1_4/bn
I0118 19:07:50.915241 10991 net.cpp:122] Setting up conv1_4/bn
I0118 19:07:50.915249 10991 net.cpp:129] Top shape: 1 480 20 58 (556800)
I0118 19:07:50.915253 10991 net.cpp:137] Memory required for data: 298064084
I0118 19:07:50.915263 10991 layer_factory.hpp:77] Creating layer conv1_4/scale
I0118 19:07:50.915273 10991 net.cpp:84] Creating Layer conv1_4/scale
I0118 19:07:50.915278 10991 net.cpp:406] conv1_4/scale <- conv1_4/bn
I0118 19:07:50.915284 10991 net.cpp:367] conv1_4/scale -> conv1_4/bn (in-place)
I0118 19:07:50.915349 10991 layer_factory.hpp:77] Creating layer conv1_4/scale
I0118 19:07:50.915515 10991 net.cpp:122] Setting up conv1_4/scale
I0118 19:07:50.915524 10991 net.cpp:129] Top shape: 1 480 20 58 (556800)
I0118 19:07:50.915529 10991 net.cpp:137] Memory required for data: 300291284
I0118 19:07:50.915536 10991 layer_factory.hpp:77] Creating layer relu1_4
I0118 19:07:50.915544 10991 net.cpp:84] Creating Layer relu1_4
I0118 19:07:50.915549 10991 net.cpp:406] relu1_4 <- conv1_4/bn
I0118 19:07:50.915555 10991 net.cpp:367] relu1_4 -> conv1_4/bn (in-place)
I0118 19:07:50.916076 10991 net.cpp:122] Setting up relu1_4
I0118 19:07:50.916091 10991 net.cpp:129] Top shape: 1 480 20 58 (556800)
I0118 19:07:50.916095 10991 net.cpp:137] Memory required for data: 302518484
I0118 19:07:50.916100 10991 layer_factory.hpp:77] Creating layer conv1_4
I0118 19:07:50.916115 10991 net.cpp:84] Creating Layer conv1_4
I0118 19:07:50.916121 10991 net.cpp:406] conv1_4 <- conv1_4/bn
I0118 19:07:50.916128 10991 net.cpp:380] conv1_4 -> conv1_4
I0118 19:07:50.923874 10991 net.cpp:122] Setting up conv1_4
I0118 19:07:50.923912 10991 net.cpp:129] Top shape: 1 32 20 58 (37120)
I0118 19:07:50.923916 10991 net.cpp:137] Memory required for data: 302666964
I0118 19:07:50.923926 10991 layer_factory.hpp:77] Creating layer concat1_4
I0118 19:07:50.923939 10991 net.cpp:84] Creating Layer concat1_4
I0118 19:07:50.923946 10991 net.cpp:406] concat1_4 <- concat1_3_concat1_3_0_split_1
I0118 19:07:50.923954 10991 net.cpp:406] concat1_4 <- conv1_4
I0118 19:07:50.923961 10991 net.cpp:380] concat1_4 -> concat1_4
I0118 19:07:50.924007 10991 net.cpp:122] Setting up concat1_4
I0118 19:07:50.924015 10991 net.cpp:129] Top shape: 1 512 20 58 (593920)
I0118 19:07:50.924019 10991 net.cpp:137] Memory required for data: 305042644
I0118 19:07:50.924023 10991 layer_factory.hpp:77] Creating layer concat1_4_concat1_4_0_split
I0118 19:07:50.924031 10991 net.cpp:84] Creating Layer concat1_4_concat1_4_0_split
I0118 19:07:50.924036 10991 net.cpp:406] concat1_4_concat1_4_0_split <- concat1_4
I0118 19:07:50.924042 10991 net.cpp:380] concat1_4_concat1_4_0_split -> concat1_4_concat1_4_0_split_0
I0118 19:07:50.924049 10991 net.cpp:380] concat1_4_concat1_4_0_split -> concat1_4_concat1_4_0_split_1
I0118 19:07:50.924101 10991 net.cpp:122] Setting up concat1_4_concat1_4_0_split
I0118 19:07:50.924109 10991 net.cpp:129] Top shape: 1 512 20 58 (593920)
I0118 19:07:50.924114 10991 net.cpp:129] Top shape: 1 512 20 58 (593920)
I0118 19:07:50.924118 10991 net.cpp:137] Memory required for data: 309794004
I0118 19:07:50.924123 10991 layer_factory.hpp:77] Creating layer conv1_5/bn
I0118 19:07:50.924130 10991 net.cpp:84] Creating Layer conv1_5/bn
I0118 19:07:50.924135 10991 net.cpp:406] conv1_5/bn <- concat1_4_concat1_4_0_split_0
I0118 19:07:50.924141 10991 net.cpp:380] conv1_5/bn -> conv1_5/bn
I0118 19:07:50.924449 10991 net.cpp:122] Setting up conv1_5/bn
I0118 19:07:50.924458 10991 net.cpp:129] Top shape: 1 512 20 58 (593920)
I0118 19:07:50.924463 10991 net.cpp:137] Memory required for data: 312169684
I0118 19:07:50.924471 10991 layer_factory.hpp:77] Creating layer conv1_5/scale
I0118 19:07:50.924486 10991 net.cpp:84] Creating Layer conv1_5/scale
I0118 19:07:50.924491 10991 net.cpp:406] conv1_5/scale <- conv1_5/bn
I0118 19:07:50.924501 10991 net.cpp:367] conv1_5/scale -> conv1_5/bn (in-place)
I0118 19:07:50.924556 10991 layer_factory.hpp:77] Creating layer conv1_5/scale
I0118 19:07:50.924720 10991 net.cpp:122] Setting up conv1_5/scale
I0118 19:07:50.924728 10991 net.cpp:129] Top shape: 1 512 20 58 (593920)
I0118 19:07:50.924732 10991 net.cpp:137] Memory required for data: 314545364
I0118 19:07:50.924741 10991 layer_factory.hpp:77] Creating layer relu1_5
I0118 19:07:50.924748 10991 net.cpp:84] Creating Layer relu1_5
I0118 19:07:50.924753 10991 net.cpp:406] relu1_5 <- conv1_5/bn
I0118 19:07:50.924758 10991 net.cpp:367] relu1_5 -> conv1_5/bn (in-place)
I0118 19:07:50.925014 10991 net.cpp:122] Setting up relu1_5
I0118 19:07:50.925026 10991 net.cpp:129] Top shape: 1 512 20 58 (593920)
I0118 19:07:50.925031 10991 net.cpp:137] Memory required for data: 316921044
I0118 19:07:50.925035 10991 layer_factory.hpp:77] Creating layer conv1_5
I0118 19:07:50.925048 10991 net.cpp:84] Creating Layer conv1_5
I0118 19:07:50.925053 10991 net.cpp:406] conv1_5 <- conv1_5/bn
I0118 19:07:50.925060 10991 net.cpp:380] conv1_5 -> conv1_5
I0118 19:07:50.931459 10991 net.cpp:122] Setting up conv1_5
I0118 19:07:50.931473 10991 net.cpp:129] Top shape: 1 32 20 58 (37120)
I0118 19:07:50.931476 10991 net.cpp:137] Memory required for data: 317069524
I0118 19:07:50.931480 10991 layer_factory.hpp:77] Creating layer concat1_5
I0118 19:07:50.931490 10991 net.cpp:84] Creating Layer concat1_5
I0118 19:07:50.931494 10991 net.cpp:406] concat1_5 <- concat1_4_concat1_4_0_split_1
I0118 19:07:50.931499 10991 net.cpp:406] concat1_5 <- conv1_5
I0118 19:07:50.931502 10991 net.cpp:380] concat1_5 -> concat1_5
I0118 19:07:50.931535 10991 net.cpp:122] Setting up concat1_5
I0118 19:07:50.931540 10991 net.cpp:129] Top shape: 1 544 20 58 (631040)
I0118 19:07:50.931541 10991 net.cpp:137] Memory required for data: 319593684
I0118 19:07:50.931545 10991 layer_factory.hpp:77] Creating layer concat1_5_concat1_5_0_split
I0118 19:07:50.931548 10991 net.cpp:84] Creating Layer concat1_5_concat1_5_0_split
I0118 19:07:50.931551 10991 net.cpp:406] concat1_5_concat1_5_0_split <- concat1_5
I0118 19:07:50.931555 10991 net.cpp:380] concat1_5_concat1_5_0_split -> concat1_5_concat1_5_0_split_0
I0118 19:07:50.931560 10991 net.cpp:380] concat1_5_concat1_5_0_split -> concat1_5_concat1_5_0_split_1
I0118 19:07:50.931596 10991 net.cpp:122] Setting up concat1_5_concat1_5_0_split
I0118 19:07:50.931599 10991 net.cpp:129] Top shape: 1 544 20 58 (631040)
I0118 19:07:50.931602 10991 net.cpp:129] Top shape: 1 544 20 58 (631040)
I0118 19:07:50.931604 10991 net.cpp:137] Memory required for data: 324642004
I0118 19:07:50.931607 10991 layer_factory.hpp:77] Creating layer conv1_6/bn
I0118 19:07:50.931613 10991 net.cpp:84] Creating Layer conv1_6/bn
I0118 19:07:50.931617 10991 net.cpp:406] conv1_6/bn <- concat1_5_concat1_5_0_split_0
I0118 19:07:50.931622 10991 net.cpp:380] conv1_6/bn -> conv1_6/bn
I0118 19:07:50.931828 10991 net.cpp:122] Setting up conv1_6/bn
I0118 19:07:50.931833 10991 net.cpp:129] Top shape: 1 544 20 58 (631040)
I0118 19:07:50.931835 10991 net.cpp:137] Memory required for data: 327166164
I0118 19:07:50.931841 10991 layer_factory.hpp:77] Creating layer conv1_6/scale
I0118 19:07:50.931846 10991 net.cpp:84] Creating Layer conv1_6/scale
I0118 19:07:50.931849 10991 net.cpp:406] conv1_6/scale <- conv1_6/bn
I0118 19:07:50.931854 10991 net.cpp:367] conv1_6/scale -> conv1_6/bn (in-place)
I0118 19:07:50.931895 10991 layer_factory.hpp:77] Creating layer conv1_6/scale
I0118 19:07:50.932018 10991 net.cpp:122] Setting up conv1_6/scale
I0118 19:07:50.932025 10991 net.cpp:129] Top shape: 1 544 20 58 (631040)
I0118 19:07:50.932027 10991 net.cpp:137] Memory required for data: 329690324
I0118 19:07:50.932032 10991 layer_factory.hpp:77] Creating layer relu1_6
I0118 19:07:50.932037 10991 net.cpp:84] Creating Layer relu1_6
I0118 19:07:50.932039 10991 net.cpp:406] relu1_6 <- conv1_6/bn
I0118 19:07:50.932044 10991 net.cpp:367] relu1_6 -> conv1_6/bn (in-place)
I0118 19:07:50.932394 10991 net.cpp:122] Setting up relu1_6
I0118 19:07:50.932405 10991 net.cpp:129] Top shape: 1 544 20 58 (631040)
I0118 19:07:50.932409 10991 net.cpp:137] Memory required for data: 332214484
I0118 19:07:50.932411 10991 layer_factory.hpp:77] Creating layer conv1_6
I0118 19:07:50.932420 10991 net.cpp:84] Creating Layer conv1_6
I0118 19:07:50.932423 10991 net.cpp:406] conv1_6 <- conv1_6/bn
I0118 19:07:50.932428 10991 net.cpp:380] conv1_6 -> conv1_6
I0118 19:07:50.939860 10991 net.cpp:122] Setting up conv1_6
I0118 19:07:50.939890 10991 net.cpp:129] Top shape: 1 32 20 58 (37120)
I0118 19:07:50.939894 10991 net.cpp:137] Memory required for data: 332362964
I0118 19:07:50.939903 10991 layer_factory.hpp:77] Creating layer concat1_6
I0118 19:07:50.939914 10991 net.cpp:84] Creating Layer concat1_6
I0118 19:07:50.939919 10991 net.cpp:406] concat1_6 <- concat1_5_concat1_5_0_split_1
I0118 19:07:50.939925 10991 net.cpp:406] concat1_6 <- conv1_6
I0118 19:07:50.939930 10991 net.cpp:380] concat1_6 -> concat1_6
I0118 19:07:50.939972 10991 net.cpp:122] Setting up concat1_6
I0118 19:07:50.939977 10991 net.cpp:129] Top shape: 1 576 20 58 (668160)
I0118 19:07:50.939980 10991 net.cpp:137] Memory required for data: 335035604
I0118 19:07:50.939982 10991 layer_factory.hpp:77] Creating layer concat1_6_concat1_6_0_split
I0118 19:07:50.939986 10991 net.cpp:84] Creating Layer concat1_6_concat1_6_0_split
I0118 19:07:50.939990 10991 net.cpp:406] concat1_6_concat1_6_0_split <- concat1_6
I0118 19:07:50.939995 10991 net.cpp:380] concat1_6_concat1_6_0_split -> concat1_6_concat1_6_0_split_0
I0118 19:07:50.939999 10991 net.cpp:380] concat1_6_concat1_6_0_split -> concat1_6_concat1_6_0_split_1
I0118 19:07:50.940037 10991 net.cpp:122] Setting up concat1_6_concat1_6_0_split
I0118 19:07:50.940040 10991 net.cpp:129] Top shape: 1 576 20 58 (668160)
I0118 19:07:50.940044 10991 net.cpp:129] Top shape: 1 576 20 58 (668160)
I0118 19:07:50.940047 10991 net.cpp:137] Memory required for data: 340380884
I0118 19:07:50.940048 10991 layer_factory.hpp:77] Creating layer conv1_7/bn
I0118 19:07:50.940055 10991 net.cpp:84] Creating Layer conv1_7/bn
I0118 19:07:50.940059 10991 net.cpp:406] conv1_7/bn <- concat1_6_concat1_6_0_split_0
I0118 19:07:50.940063 10991 net.cpp:380] conv1_7/bn -> conv1_7/bn
I0118 19:07:50.940280 10991 net.cpp:122] Setting up conv1_7/bn
I0118 19:07:50.940285 10991 net.cpp:129] Top shape: 1 576 20 58 (668160)
I0118 19:07:50.940289 10991 net.cpp:137] Memory required for data: 343053524
I0118 19:07:50.940294 10991 layer_factory.hpp:77] Creating layer conv1_7/scale
I0118 19:07:50.940301 10991 net.cpp:84] Creating Layer conv1_7/scale
I0118 19:07:50.940304 10991 net.cpp:406] conv1_7/scale <- conv1_7/bn
I0118 19:07:50.940310 10991 net.cpp:367] conv1_7/scale -> conv1_7/bn (in-place)
I0118 19:07:50.940352 10991 layer_factory.hpp:77] Creating layer conv1_7/scale
I0118 19:07:50.940466 10991 net.cpp:122] Setting up conv1_7/scale
I0118 19:07:50.940471 10991 net.cpp:129] Top shape: 1 576 20 58 (668160)
I0118 19:07:50.940474 10991 net.cpp:137] Memory required for data: 345726164
I0118 19:07:50.940479 10991 layer_factory.hpp:77] Creating layer relu1_7
I0118 19:07:50.940484 10991 net.cpp:84] Creating Layer relu1_7
I0118 19:07:50.940486 10991 net.cpp:406] relu1_7 <- conv1_7/bn
I0118 19:07:50.940490 10991 net.cpp:367] relu1_7 -> conv1_7/bn (in-place)
I0118 19:07:50.940903 10991 net.cpp:122] Setting up relu1_7
I0118 19:07:50.940913 10991 net.cpp:129] Top shape: 1 576 20 58 (668160)
I0118 19:07:50.940917 10991 net.cpp:137] Memory required for data: 348398804
I0118 19:07:50.940919 10991 layer_factory.hpp:77] Creating layer conv1_7
I0118 19:07:50.940930 10991 net.cpp:84] Creating Layer conv1_7
I0118 19:07:50.940933 10991 net.cpp:406] conv1_7 <- conv1_7/bn
I0118 19:07:50.940939 10991 net.cpp:380] conv1_7 -> conv1_7
I0118 19:07:50.947229 10991 net.cpp:122] Setting up conv1_7
I0118 19:07:50.947259 10991 net.cpp:129] Top shape: 1 32 20 58 (37120)
I0118 19:07:50.947263 10991 net.cpp:137] Memory required for data: 348547284
I0118 19:07:50.947271 10991 layer_factory.hpp:77] Creating layer concat1_7
I0118 19:07:50.947284 10991 net.cpp:84] Creating Layer concat1_7
I0118 19:07:50.947289 10991 net.cpp:406] concat1_7 <- concat1_6_concat1_6_0_split_1
I0118 19:07:50.947295 10991 net.cpp:406] concat1_7 <- conv1_7
I0118 19:07:50.947301 10991 net.cpp:380] concat1_7 -> concat1_7
I0118 19:07:50.947338 10991 net.cpp:122] Setting up concat1_7
I0118 19:07:50.947343 10991 net.cpp:129] Top shape: 1 608 20 58 (705280)
I0118 19:07:50.947345 10991 net.cpp:137] Memory required for data: 351368404
I0118 19:07:50.947348 10991 layer_factory.hpp:77] Creating layer concat1_7_concat1_7_0_split
I0118 19:07:50.947355 10991 net.cpp:84] Creating Layer concat1_7_concat1_7_0_split
I0118 19:07:50.947357 10991 net.cpp:406] concat1_7_concat1_7_0_split <- concat1_7
I0118 19:07:50.947361 10991 net.cpp:380] concat1_7_concat1_7_0_split -> concat1_7_concat1_7_0_split_0
I0118 19:07:50.947366 10991 net.cpp:380] concat1_7_concat1_7_0_split -> concat1_7_concat1_7_0_split_1
I0118 19:07:50.947403 10991 net.cpp:122] Setting up concat1_7_concat1_7_0_split
I0118 19:07:50.947408 10991 net.cpp:129] Top shape: 1 608 20 58 (705280)
I0118 19:07:50.947412 10991 net.cpp:129] Top shape: 1 608 20 58 (705280)
I0118 19:07:50.947413 10991 net.cpp:137] Memory required for data: 357010644
I0118 19:07:50.947415 10991 layer_factory.hpp:77] Creating layer conv1_8/bn
I0118 19:07:50.947422 10991 net.cpp:84] Creating Layer conv1_8/bn
I0118 19:07:50.947424 10991 net.cpp:406] conv1_8/bn <- concat1_7_concat1_7_0_split_0
I0118 19:07:50.947428 10991 net.cpp:380] conv1_8/bn -> conv1_8/bn
I0118 19:07:50.947654 10991 net.cpp:122] Setting up conv1_8/bn
I0118 19:07:50.947660 10991 net.cpp:129] Top shape: 1 608 20 58 (705280)
I0118 19:07:50.947662 10991 net.cpp:137] Memory required for data: 359831764
I0118 19:07:50.947669 10991 layer_factory.hpp:77] Creating layer conv1_8/scale
I0118 19:07:50.947676 10991 net.cpp:84] Creating Layer conv1_8/scale
I0118 19:07:50.947679 10991 net.cpp:406] conv1_8/scale <- conv1_8/bn
I0118 19:07:50.947684 10991 net.cpp:367] conv1_8/scale -> conv1_8/bn (in-place)
I0118 19:07:50.947728 10991 layer_factory.hpp:77] Creating layer conv1_8/scale
I0118 19:07:50.947854 10991 net.cpp:122] Setting up conv1_8/scale
I0118 19:07:50.947860 10991 net.cpp:129] Top shape: 1 608 20 58 (705280)
I0118 19:07:50.947862 10991 net.cpp:137] Memory required for data: 362652884
I0118 19:07:50.947867 10991 layer_factory.hpp:77] Creating layer relu1_8
I0118 19:07:50.947875 10991 net.cpp:84] Creating Layer relu1_8
I0118 19:07:50.947876 10991 net.cpp:406] relu1_8 <- conv1_8/bn
I0118 19:07:50.947880 10991 net.cpp:367] relu1_8 -> conv1_8/bn (in-place)
I0118 19:07:50.948065 10991 net.cpp:122] Setting up relu1_8
I0118 19:07:50.948072 10991 net.cpp:129] Top shape: 1 608 20 58 (705280)
I0118 19:07:50.948074 10991 net.cpp:137] Memory required for data: 365474004
I0118 19:07:50.948077 10991 layer_factory.hpp:77] Creating layer conv1_8
I0118 19:07:50.948086 10991 net.cpp:84] Creating Layer conv1_8
I0118 19:07:50.948089 10991 net.cpp:406] conv1_8 <- conv1_8/bn
I0118 19:07:50.948096 10991 net.cpp:380] conv1_8 -> conv1_8
I0118 19:07:50.954676 10991 net.cpp:122] Setting up conv1_8
I0118 19:07:50.954720 10991 net.cpp:129] Top shape: 1 32 20 58 (37120)
I0118 19:07:50.954727 10991 net.cpp:137] Memory required for data: 365622484
I0118 19:07:50.954740 10991 layer_factory.hpp:77] Creating layer concat1_8
I0118 19:07:50.954756 10991 net.cpp:84] Creating Layer concat1_8
I0118 19:07:50.954766 10991 net.cpp:406] concat1_8 <- concat1_7_concat1_7_0_split_1
I0118 19:07:50.954776 10991 net.cpp:406] concat1_8 <- conv1_8
I0118 19:07:50.954783 10991 net.cpp:380] concat1_8 -> concat1_8
I0118 19:07:50.954846 10991 net.cpp:122] Setting up concat1_8
I0118 19:07:50.954859 10991 net.cpp:129] Top shape: 1 640 20 58 (742400)
I0118 19:07:50.954862 10991 net.cpp:137] Memory required for data: 368592084
I0118 19:07:50.954867 10991 layer_factory.hpp:77] Creating layer concat1_8_concat1_8_0_split
I0118 19:07:50.954874 10991 net.cpp:84] Creating Layer concat1_8_concat1_8_0_split
I0118 19:07:50.954879 10991 net.cpp:406] concat1_8_concat1_8_0_split <- concat1_8
I0118 19:07:50.954902 10991 net.cpp:380] concat1_8_concat1_8_0_split -> concat1_8_concat1_8_0_split_0
I0118 19:07:50.954913 10991 net.cpp:380] concat1_8_concat1_8_0_split -> concat1_8_concat1_8_0_split_1
I0118 19:07:50.954987 10991 net.cpp:122] Setting up concat1_8_concat1_8_0_split
I0118 19:07:50.954998 10991 net.cpp:129] Top shape: 1 640 20 58 (742400)
I0118 19:07:50.955003 10991 net.cpp:129] Top shape: 1 640 20 58 (742400)
I0118 19:07:50.955008 10991 net.cpp:137] Memory required for data: 374531284
I0118 19:07:50.955013 10991 layer_factory.hpp:77] Creating layer conv1_9/bn
I0118 19:07:50.955024 10991 net.cpp:84] Creating Layer conv1_9/bn
I0118 19:07:50.955029 10991 net.cpp:406] conv1_9/bn <- concat1_8_concat1_8_0_split_0
I0118 19:07:50.955039 10991 net.cpp:380] conv1_9/bn -> conv1_9/bn
I0118 19:07:50.955395 10991 net.cpp:122] Setting up conv1_9/bn
I0118 19:07:50.955410 10991 net.cpp:129] Top shape: 1 640 20 58 (742400)
I0118 19:07:50.955413 10991 net.cpp:137] Memory required for data: 377500884
I0118 19:07:50.955437 10991 layer_factory.hpp:77] Creating layer conv1_9/scale
I0118 19:07:50.955454 10991 net.cpp:84] Creating Layer conv1_9/scale
I0118 19:07:50.955459 10991 net.cpp:406] conv1_9/scale <- conv1_9/bn
I0118 19:07:50.955466 10991 net.cpp:367] conv1_9/scale -> conv1_9/bn (in-place)
I0118 19:07:50.955526 10991 layer_factory.hpp:77] Creating layer conv1_9/scale
I0118 19:07:50.955695 10991 net.cpp:122] Setting up conv1_9/scale
I0118 19:07:50.955704 10991 net.cpp:129] Top shape: 1 640 20 58 (742400)
I0118 19:07:50.955708 10991 net.cpp:137] Memory required for data: 380470484
I0118 19:07:50.955716 10991 layer_factory.hpp:77] Creating layer relu1_9
I0118 19:07:50.955724 10991 net.cpp:84] Creating Layer relu1_9
I0118 19:07:50.955729 10991 net.cpp:406] relu1_9 <- conv1_9/bn
I0118 19:07:50.955735 10991 net.cpp:367] relu1_9 -> conv1_9/bn (in-place)
I0118 19:07:50.956331 10991 net.cpp:122] Setting up relu1_9
I0118 19:07:50.956344 10991 net.cpp:129] Top shape: 1 640 20 58 (742400)
I0118 19:07:50.956349 10991 net.cpp:137] Memory required for data: 383440084
I0118 19:07:50.956353 10991 layer_factory.hpp:77] Creating layer conv1_9
I0118 19:07:50.956368 10991 net.cpp:84] Creating Layer conv1_9
I0118 19:07:50.956373 10991 net.cpp:406] conv1_9 <- conv1_9/bn
I0118 19:07:50.956382 10991 net.cpp:380] conv1_9 -> conv1_9
I0118 19:07:50.966013 10991 net.cpp:122] Setting up conv1_9
I0118 19:07:50.966047 10991 net.cpp:129] Top shape: 1 32 20 58 (37120)
I0118 19:07:50.966051 10991 net.cpp:137] Memory required for data: 383588564
I0118 19:07:50.966061 10991 layer_factory.hpp:77] Creating layer concat1_9
I0118 19:07:50.966073 10991 net.cpp:84] Creating Layer concat1_9
I0118 19:07:50.966080 10991 net.cpp:406] concat1_9 <- concat1_8_concat1_8_0_split_1
I0118 19:07:50.966089 10991 net.cpp:406] concat1_9 <- conv1_9
I0118 19:07:50.966097 10991 net.cpp:380] concat1_9 -> concat1_9
I0118 19:07:50.966141 10991 net.cpp:122] Setting up concat1_9
I0118 19:07:50.966150 10991 net.cpp:129] Top shape: 1 672 20 58 (779520)
I0118 19:07:50.966153 10991 net.cpp:137] Memory required for data: 386706644
I0118 19:07:50.966157 10991 layer_factory.hpp:77] Creating layer concat1_9_concat1_9_0_split
I0118 19:07:50.966168 10991 net.cpp:84] Creating Layer concat1_9_concat1_9_0_split
I0118 19:07:50.966173 10991 net.cpp:406] concat1_9_concat1_9_0_split <- concat1_9
I0118 19:07:50.966179 10991 net.cpp:380] concat1_9_concat1_9_0_split -> concat1_9_concat1_9_0_split_0
I0118 19:07:50.966188 10991 net.cpp:380] concat1_9_concat1_9_0_split -> concat1_9_concat1_9_0_split_1
I0118 19:07:50.966243 10991 net.cpp:122] Setting up concat1_9_concat1_9_0_split
I0118 19:07:50.966250 10991 net.cpp:129] Top shape: 1 672 20 58 (779520)
I0118 19:07:50.966255 10991 net.cpp:129] Top shape: 1 672 20 58 (779520)
I0118 19:07:50.966259 10991 net.cpp:137] Memory required for data: 392942804
I0118 19:07:50.966264 10991 layer_factory.hpp:77] Creating layer conv1_10/bn
I0118 19:07:50.966271 10991 net.cpp:84] Creating Layer conv1_10/bn
I0118 19:07:50.966276 10991 net.cpp:406] conv1_10/bn <- concat1_9_concat1_9_0_split_0
I0118 19:07:50.966289 10991 net.cpp:380] conv1_10/bn -> conv1_10/bn
I0118 19:07:50.966634 10991 net.cpp:122] Setting up conv1_10/bn
I0118 19:07:50.966646 10991 net.cpp:129] Top shape: 1 672 20 58 (779520)
I0118 19:07:50.966650 10991 net.cpp:137] Memory required for data: 396060884
I0118 19:07:50.966660 10991 layer_factory.hpp:77] Creating layer conv1_10/scale
I0118 19:07:50.966671 10991 net.cpp:84] Creating Layer conv1_10/scale
I0118 19:07:50.966677 10991 net.cpp:406] conv1_10/scale <- conv1_10/bn
I0118 19:07:50.966684 10991 net.cpp:367] conv1_10/scale -> conv1_10/bn (in-place)
I0118 19:07:50.966758 10991 layer_factory.hpp:77] Creating layer conv1_10/scale
I0118 19:07:50.966941 10991 net.cpp:122] Setting up conv1_10/scale
I0118 19:07:50.966950 10991 net.cpp:129] Top shape: 1 672 20 58 (779520)
I0118 19:07:50.966954 10991 net.cpp:137] Memory required for data: 399178964
I0118 19:07:50.966962 10991 layer_factory.hpp:77] Creating layer relu1_10
I0118 19:07:50.966972 10991 net.cpp:84] Creating Layer relu1_10
I0118 19:07:50.966976 10991 net.cpp:406] relu1_10 <- conv1_10/bn
I0118 19:07:50.966982 10991 net.cpp:367] relu1_10 -> conv1_10/bn (in-place)
I0118 19:07:50.967238 10991 net.cpp:122] Setting up relu1_10
I0118 19:07:50.967248 10991 net.cpp:129] Top shape: 1 672 20 58 (779520)
I0118 19:07:50.967252 10991 net.cpp:137] Memory required for data: 402297044
I0118 19:07:50.967257 10991 layer_factory.hpp:77] Creating layer conv1_10
I0118 19:07:50.967270 10991 net.cpp:84] Creating Layer conv1_10
I0118 19:07:50.967277 10991 net.cpp:406] conv1_10 <- conv1_10/bn
I0118 19:07:50.967283 10991 net.cpp:380] conv1_10 -> conv1_10
I0118 19:07:50.978911 10991 net.cpp:122] Setting up conv1_10
I0118 19:07:50.978943 10991 net.cpp:129] Top shape: 1 32 20 58 (37120)
I0118 19:07:50.978946 10991 net.cpp:137] Memory required for data: 402445524
I0118 19:07:50.978955 10991 layer_factory.hpp:77] Creating layer concat1_10
I0118 19:07:50.978966 10991 net.cpp:84] Creating Layer concat1_10
I0118 19:07:50.978971 10991 net.cpp:406] concat1_10 <- concat1_9_concat1_9_0_split_1
I0118 19:07:50.978977 10991 net.cpp:406] concat1_10 <- conv1_10
I0118 19:07:50.978983 10991 net.cpp:380] concat1_10 -> concat1_10
I0118 19:07:50.979022 10991 net.cpp:122] Setting up concat1_10
I0118 19:07:50.979029 10991 net.cpp:129] Top shape: 1 704 20 58 (816640)
I0118 19:07:50.979032 10991 net.cpp:137] Memory required for data: 405712084
I0118 19:07:50.979034 10991 layer_factory.hpp:77] Creating layer concat1_10_concat1_10_0_split
I0118 19:07:50.979038 10991 net.cpp:84] Creating Layer concat1_10_concat1_10_0_split
I0118 19:07:50.979041 10991 net.cpp:406] concat1_10_concat1_10_0_split <- concat1_10
I0118 19:07:50.979045 10991 net.cpp:380] concat1_10_concat1_10_0_split -> concat1_10_concat1_10_0_split_0
I0118 19:07:50.979050 10991 net.cpp:380] concat1_10_concat1_10_0_split -> concat1_10_concat1_10_0_split_1
I0118 19:07:50.979089 10991 net.cpp:122] Setting up concat1_10_concat1_10_0_split
I0118 19:07:50.979094 10991 net.cpp:129] Top shape: 1 704 20 58 (816640)
I0118 19:07:50.979096 10991 net.cpp:129] Top shape: 1 704 20 58 (816640)
I0118 19:07:50.979099 10991 net.cpp:137] Memory required for data: 412245204
I0118 19:07:50.979101 10991 layer_factory.hpp:77] Creating layer conv1_11/bn
I0118 19:07:50.979109 10991 net.cpp:84] Creating Layer conv1_11/bn
I0118 19:07:50.979111 10991 net.cpp:406] conv1_11/bn <- concat1_10_concat1_10_0_split_0
I0118 19:07:50.979115 10991 net.cpp:380] conv1_11/bn -> conv1_11/bn
I0118 19:07:50.979362 10991 net.cpp:122] Setting up conv1_11/bn
I0118 19:07:50.979367 10991 net.cpp:129] Top shape: 1 704 20 58 (816640)
I0118 19:07:50.979370 10991 net.cpp:137] Memory required for data: 415511764
I0118 19:07:50.979377 10991 layer_factory.hpp:77] Creating layer conv1_11/scale
I0118 19:07:50.979383 10991 net.cpp:84] Creating Layer conv1_11/scale
I0118 19:07:50.979387 10991 net.cpp:406] conv1_11/scale <- conv1_11/bn
I0118 19:07:50.979390 10991 net.cpp:367] conv1_11/scale -> conv1_11/bn (in-place)
I0118 19:07:50.979437 10991 layer_factory.hpp:77] Creating layer conv1_11/scale
I0118 19:07:50.979563 10991 net.cpp:122] Setting up conv1_11/scale
I0118 19:07:50.979569 10991 net.cpp:129] Top shape: 1 704 20 58 (816640)
I0118 19:07:50.979571 10991 net.cpp:137] Memory required for data: 418778324
I0118 19:07:50.979576 10991 layer_factory.hpp:77] Creating layer relu1_11
I0118 19:07:50.979581 10991 net.cpp:84] Creating Layer relu1_11
I0118 19:07:50.979584 10991 net.cpp:406] relu1_11 <- conv1_11/bn
I0118 19:07:50.979588 10991 net.cpp:367] relu1_11 -> conv1_11/bn (in-place)
I0118 19:07:50.980166 10991 net.cpp:122] Setting up relu1_11
I0118 19:07:50.980176 10991 net.cpp:129] Top shape: 1 704 20 58 (816640)
I0118 19:07:50.980180 10991 net.cpp:137] Memory required for data: 422044884
I0118 19:07:50.980182 10991 layer_factory.hpp:77] Creating layer conv1_11
I0118 19:07:50.980193 10991 net.cpp:84] Creating Layer conv1_11
I0118 19:07:50.980196 10991 net.cpp:406] conv1_11 <- conv1_11/bn
I0118 19:07:50.980201 10991 net.cpp:380] conv1_11 -> conv1_11
I0118 19:07:50.988636 10991 net.cpp:122] Setting up conv1_11
I0118 19:07:50.988665 10991 net.cpp:129] Top shape: 1 32 20 58 (37120)
I0118 19:07:50.988668 10991 net.cpp:137] Memory required for data: 422193364
I0118 19:07:50.988675 10991 layer_factory.hpp:77] Creating layer concat1_11
I0118 19:07:50.988685 10991 net.cpp:84] Creating Layer concat1_11
I0118 19:07:50.988692 10991 net.cpp:406] concat1_11 <- concat1_10_concat1_10_0_split_1
I0118 19:07:50.988696 10991 net.cpp:406] concat1_11 <- conv1_11
I0118 19:07:50.988701 10991 net.cpp:380] concat1_11 -> concat1_11
I0118 19:07:50.988737 10991 net.cpp:122] Setting up concat1_11
I0118 19:07:50.988744 10991 net.cpp:129] Top shape: 1 736 20 58 (853760)
I0118 19:07:50.988745 10991 net.cpp:137] Memory required for data: 425608404
I0118 19:07:50.988747 10991 layer_factory.hpp:77] Creating layer concat1_11_concat1_11_0_split
I0118 19:07:50.988752 10991 net.cpp:84] Creating Layer concat1_11_concat1_11_0_split
I0118 19:07:50.988755 10991 net.cpp:406] concat1_11_concat1_11_0_split <- concat1_11
I0118 19:07:50.988760 10991 net.cpp:380] concat1_11_concat1_11_0_split -> concat1_11_concat1_11_0_split_0
I0118 19:07:50.988765 10991 net.cpp:380] concat1_11_concat1_11_0_split -> concat1_11_concat1_11_0_split_1
I0118 19:07:50.988802 10991 net.cpp:122] Setting up concat1_11_concat1_11_0_split
I0118 19:07:50.988807 10991 net.cpp:129] Top shape: 1 736 20 58 (853760)
I0118 19:07:50.988811 10991 net.cpp:129] Top shape: 1 736 20 58 (853760)
I0118 19:07:50.988813 10991 net.cpp:137] Memory required for data: 432438484
I0118 19:07:50.988816 10991 layer_factory.hpp:77] Creating layer conv1_12/bn
I0118 19:07:50.988821 10991 net.cpp:84] Creating Layer conv1_12/bn
I0118 19:07:50.988822 10991 net.cpp:406] conv1_12/bn <- concat1_11_concat1_11_0_split_0
I0118 19:07:50.988828 10991 net.cpp:380] conv1_12/bn -> conv1_12/bn
I0118 19:07:50.989068 10991 net.cpp:122] Setting up conv1_12/bn
I0118 19:07:50.989073 10991 net.cpp:129] Top shape: 1 736 20 58 (853760)
I0118 19:07:50.989076 10991 net.cpp:137] Memory required for data: 435853524
I0118 19:07:50.989082 10991 layer_factory.hpp:77] Creating layer conv1_12/scale
I0118 19:07:50.989089 10991 net.cpp:84] Creating Layer conv1_12/scale
I0118 19:07:50.989092 10991 net.cpp:406] conv1_12/scale <- conv1_12/bn
I0118 19:07:50.989096 10991 net.cpp:367] conv1_12/scale -> conv1_12/bn (in-place)
I0118 19:07:50.989145 10991 layer_factory.hpp:77] Creating layer conv1_12/scale
I0118 19:07:50.989270 10991 net.cpp:122] Setting up conv1_12/scale
I0118 19:07:50.989276 10991 net.cpp:129] Top shape: 1 736 20 58 (853760)
I0118 19:07:50.989279 10991 net.cpp:137] Memory required for data: 439268564
I0118 19:07:50.989282 10991 layer_factory.hpp:77] Creating layer relu1_12
I0118 19:07:50.989287 10991 net.cpp:84] Creating Layer relu1_12
I0118 19:07:50.989290 10991 net.cpp:406] relu1_12 <- conv1_12/bn
I0118 19:07:50.989295 10991 net.cpp:367] relu1_12 -> conv1_12/bn (in-place)
I0118 19:07:50.989661 10991 net.cpp:122] Setting up relu1_12
I0118 19:07:50.989671 10991 net.cpp:129] Top shape: 1 736 20 58 (853760)
I0118 19:07:50.989677 10991 net.cpp:137] Memory required for data: 442683604
I0118 19:07:50.989681 10991 layer_factory.hpp:77] Creating layer conv1_12
I0118 19:07:50.989691 10991 net.cpp:84] Creating Layer conv1_12
I0118 19:07:50.989693 10991 net.cpp:406] conv1_12 <- conv1_12/bn
I0118 19:07:50.989698 10991 net.cpp:380] conv1_12 -> conv1_12
I0118 19:07:50.996491 10991 net.cpp:122] Setting up conv1_12
I0118 19:07:50.996511 10991 net.cpp:129] Top shape: 1 32 20 58 (37120)
I0118 19:07:50.996515 10991 net.cpp:137] Memory required for data: 442832084
I0118 19:07:50.996520 10991 layer_factory.hpp:77] Creating layer concat1_12
I0118 19:07:50.996528 10991 net.cpp:84] Creating Layer concat1_12
I0118 19:07:50.996532 10991 net.cpp:406] concat1_12 <- concat1_11_concat1_11_0_split_1
I0118 19:07:50.996536 10991 net.cpp:406] concat1_12 <- conv1_12
I0118 19:07:50.996542 10991 net.cpp:380] concat1_12 -> concat1_12
I0118 19:07:50.996577 10991 net.cpp:122] Setting up concat1_12
I0118 19:07:50.996583 10991 net.cpp:129] Top shape: 1 768 20 58 (890880)
I0118 19:07:50.996585 10991 net.cpp:137] Memory required for data: 446395604
I0118 19:07:50.996587 10991 layer_factory.hpp:77] Creating layer concat1_12_concat1_12_0_split
I0118 19:07:50.996592 10991 net.cpp:84] Creating Layer concat1_12_concat1_12_0_split
I0118 19:07:50.996594 10991 net.cpp:406] concat1_12_concat1_12_0_split <- concat1_12
I0118 19:07:50.996598 10991 net.cpp:380] concat1_12_concat1_12_0_split -> concat1_12_concat1_12_0_split_0
I0118 19:07:50.996603 10991 net.cpp:380] concat1_12_concat1_12_0_split -> concat1_12_concat1_12_0_split_1
I0118 19:07:50.996642 10991 net.cpp:122] Setting up concat1_12_concat1_12_0_split
I0118 19:07:50.996647 10991 net.cpp:129] Top shape: 1 768 20 58 (890880)
I0118 19:07:50.996650 10991 net.cpp:129] Top shape: 1 768 20 58 (890880)
I0118 19:07:50.996652 10991 net.cpp:137] Memory required for data: 453522644
I0118 19:07:50.996654 10991 layer_factory.hpp:77] Creating layer conv1_13/bn
I0118 19:07:50.996660 10991 net.cpp:84] Creating Layer conv1_13/bn
I0118 19:07:50.996664 10991 net.cpp:406] conv1_13/bn <- concat1_12_concat1_12_0_split_0
I0118 19:07:50.996667 10991 net.cpp:380] conv1_13/bn -> conv1_13/bn
I0118 19:07:50.996897 10991 net.cpp:122] Setting up conv1_13/bn
I0118 19:07:50.996902 10991 net.cpp:129] Top shape: 1 768 20 58 (890880)
I0118 19:07:50.996906 10991 net.cpp:137] Memory required for data: 457086164
I0118 19:07:50.996912 10991 layer_factory.hpp:77] Creating layer conv1_13/scale
I0118 19:07:50.996917 10991 net.cpp:84] Creating Layer conv1_13/scale
I0118 19:07:50.996920 10991 net.cpp:406] conv1_13/scale <- conv1_13/bn
I0118 19:07:50.996923 10991 net.cpp:367] conv1_13/scale -> conv1_13/bn (in-place)
I0118 19:07:50.996965 10991 layer_factory.hpp:77] Creating layer conv1_13/scale
I0118 19:07:50.997089 10991 net.cpp:122] Setting up conv1_13/scale
I0118 19:07:50.997095 10991 net.cpp:129] Top shape: 1 768 20 58 (890880)
I0118 19:07:50.997097 10991 net.cpp:137] Memory required for data: 460649684
I0118 19:07:50.997102 10991 layer_factory.hpp:77] Creating layer relu1_13
I0118 19:07:50.997107 10991 net.cpp:84] Creating Layer relu1_13
I0118 19:07:50.997110 10991 net.cpp:406] relu1_13 <- conv1_13/bn
I0118 19:07:50.997114 10991 net.cpp:367] relu1_13 -> conv1_13/bn (in-place)
I0118 19:07:50.997298 10991 net.cpp:122] Setting up relu1_13
I0118 19:07:50.997304 10991 net.cpp:129] Top shape: 1 768 20 58 (890880)
I0118 19:07:50.997308 10991 net.cpp:137] Memory required for data: 464213204
I0118 19:07:50.997310 10991 layer_factory.hpp:77] Creating layer conv1_13
I0118 19:07:50.997318 10991 net.cpp:84] Creating Layer conv1_13
I0118 19:07:50.997321 10991 net.cpp:406] conv1_13 <- conv1_13/bn
I0118 19:07:50.997326 10991 net.cpp:380] conv1_13 -> conv1_13
I0118 19:07:51.005137 10991 net.cpp:122] Setting up conv1_13
I0118 19:07:51.005167 10991 net.cpp:129] Top shape: 1 32 20 58 (37120)
I0118 19:07:51.005169 10991 net.cpp:137] Memory required for data: 464361684
I0118 19:07:51.005177 10991 layer_factory.hpp:77] Creating layer concat1_13
I0118 19:07:51.005187 10991 net.cpp:84] Creating Layer concat1_13
I0118 19:07:51.005195 10991 net.cpp:406] concat1_13 <- concat1_12_concat1_12_0_split_1
I0118 19:07:51.005201 10991 net.cpp:406] concat1_13 <- conv1_13
I0118 19:07:51.005206 10991 net.cpp:380] concat1_13 -> concat1_13
I0118 19:07:51.005244 10991 net.cpp:122] Setting up concat1_13
I0118 19:07:51.005249 10991 net.cpp:129] Top shape: 1 800 20 58 (928000)
I0118 19:07:51.005251 10991 net.cpp:137] Memory required for data: 468073684
I0118 19:07:51.005254 10991 layer_factory.hpp:77] Creating layer concat1_13_concat1_13_0_split
I0118 19:07:51.005259 10991 net.cpp:84] Creating Layer concat1_13_concat1_13_0_split
I0118 19:07:51.005260 10991 net.cpp:406] concat1_13_concat1_13_0_split <- concat1_13
I0118 19:07:51.005265 10991 net.cpp:380] concat1_13_concat1_13_0_split -> concat1_13_concat1_13_0_split_0
I0118 19:07:51.005270 10991 net.cpp:380] concat1_13_concat1_13_0_split -> concat1_13_concat1_13_0_split_1
I0118 19:07:51.005311 10991 net.cpp:122] Setting up concat1_13_concat1_13_0_split
I0118 19:07:51.005316 10991 net.cpp:129] Top shape: 1 800 20 58 (928000)
I0118 19:07:51.005318 10991 net.cpp:129] Top shape: 1 800 20 58 (928000)
I0118 19:07:51.005321 10991 net.cpp:137] Memory required for data: 475497684
I0118 19:07:51.005322 10991 layer_factory.hpp:77] Creating layer conv1_14/bn
I0118 19:07:51.005328 10991 net.cpp:84] Creating Layer conv1_14/bn
I0118 19:07:51.005331 10991 net.cpp:406] conv1_14/bn <- concat1_13_concat1_13_0_split_0
I0118 19:07:51.005336 10991 net.cpp:380] conv1_14/bn -> conv1_14/bn
I0118 19:07:51.005574 10991 net.cpp:122] Setting up conv1_14/bn
I0118 19:07:51.005580 10991 net.cpp:129] Top shape: 1 800 20 58 (928000)
I0118 19:07:51.005584 10991 net.cpp:137] Memory required for data: 479209684
I0118 19:07:51.005589 10991 layer_factory.hpp:77] Creating layer conv1_14/scale
I0118 19:07:51.005595 10991 net.cpp:84] Creating Layer conv1_14/scale
I0118 19:07:51.005599 10991 net.cpp:406] conv1_14/scale <- conv1_14/bn
I0118 19:07:51.005604 10991 net.cpp:367] conv1_14/scale -> conv1_14/bn (in-place)
I0118 19:07:51.005652 10991 layer_factory.hpp:77] Creating layer conv1_14/scale
I0118 19:07:51.005779 10991 net.cpp:122] Setting up conv1_14/scale
I0118 19:07:51.005784 10991 net.cpp:129] Top shape: 1 800 20 58 (928000)
I0118 19:07:51.005787 10991 net.cpp:137] Memory required for data: 482921684
I0118 19:07:51.005791 10991 layer_factory.hpp:77] Creating layer relu1_14
I0118 19:07:51.005796 10991 net.cpp:84] Creating Layer relu1_14
I0118 19:07:51.005800 10991 net.cpp:406] relu1_14 <- conv1_14/bn
I0118 19:07:51.005802 10991 net.cpp:367] relu1_14 -> conv1_14/bn (in-place)
I0118 19:07:51.006178 10991 net.cpp:122] Setting up relu1_14
I0118 19:07:51.006188 10991 net.cpp:129] Top shape: 1 800 20 58 (928000)
I0118 19:07:51.006191 10991 net.cpp:137] Memory required for data: 486633684
I0118 19:07:51.006194 10991 layer_factory.hpp:77] Creating layer conv1_14
I0118 19:07:51.006204 10991 net.cpp:84] Creating Layer conv1_14
I0118 19:07:51.006207 10991 net.cpp:406] conv1_14 <- conv1_14/bn
I0118 19:07:51.006212 10991 net.cpp:380] conv1_14 -> conv1_14
I0118 19:07:51.014075 10991 net.cpp:122] Setting up conv1_14
I0118 19:07:51.014106 10991 net.cpp:129] Top shape: 1 32 20 58 (37120)
I0118 19:07:51.014111 10991 net.cpp:137] Memory required for data: 486782164
I0118 19:07:51.014118 10991 layer_factory.hpp:77] Creating layer concat1_14
I0118 19:07:51.014128 10991 net.cpp:84] Creating Layer concat1_14
I0118 19:07:51.014134 10991 net.cpp:406] concat1_14 <- concat1_13_concat1_13_0_split_1
I0118 19:07:51.014140 10991 net.cpp:406] concat1_14 <- conv1_14
I0118 19:07:51.014145 10991 net.cpp:380] concat1_14 -> concat1_14
I0118 19:07:51.014186 10991 net.cpp:122] Setting up concat1_14
I0118 19:07:51.014191 10991 net.cpp:129] Top shape: 1 832 20 58 (965120)
I0118 19:07:51.014194 10991 net.cpp:137] Memory required for data: 490642644
I0118 19:07:51.014196 10991 layer_factory.hpp:77] Creating layer concat1_14_concat1_14_0_split
I0118 19:07:51.014200 10991 net.cpp:84] Creating Layer concat1_14_concat1_14_0_split
I0118 19:07:51.014204 10991 net.cpp:406] concat1_14_concat1_14_0_split <- concat1_14
I0118 19:07:51.014212 10991 net.cpp:380] concat1_14_concat1_14_0_split -> concat1_14_concat1_14_0_split_0
I0118 19:07:51.014217 10991 net.cpp:380] concat1_14_concat1_14_0_split -> concat1_14_concat1_14_0_split_1
I0118 19:07:51.014261 10991 net.cpp:122] Setting up concat1_14_concat1_14_0_split
I0118 19:07:51.014266 10991 net.cpp:129] Top shape: 1 832 20 58 (965120)
I0118 19:07:51.014268 10991 net.cpp:129] Top shape: 1 832 20 58 (965120)
I0118 19:07:51.014271 10991 net.cpp:137] Memory required for data: 498363604
I0118 19:07:51.014273 10991 layer_factory.hpp:77] Creating layer conv1_15/bn
I0118 19:07:51.014281 10991 net.cpp:84] Creating Layer conv1_15/bn
I0118 19:07:51.014282 10991 net.cpp:406] conv1_15/bn <- concat1_14_concat1_14_0_split_0
I0118 19:07:51.014287 10991 net.cpp:380] conv1_15/bn -> conv1_15/bn
I0118 19:07:51.014535 10991 net.cpp:122] Setting up conv1_15/bn
I0118 19:07:51.014541 10991 net.cpp:129] Top shape: 1 832 20 58 (965120)
I0118 19:07:51.014544 10991 net.cpp:137] Memory required for data: 502224084
I0118 19:07:51.014550 10991 layer_factory.hpp:77] Creating layer conv1_15/scale
I0118 19:07:51.014557 10991 net.cpp:84] Creating Layer conv1_15/scale
I0118 19:07:51.014560 10991 net.cpp:406] conv1_15/scale <- conv1_15/bn
I0118 19:07:51.014569 10991 net.cpp:367] conv1_15/scale -> conv1_15/bn (in-place)
I0118 19:07:51.014621 10991 layer_factory.hpp:77] Creating layer conv1_15/scale
I0118 19:07:51.014775 10991 net.cpp:122] Setting up conv1_15/scale
I0118 19:07:51.014784 10991 net.cpp:129] Top shape: 1 832 20 58 (965120)
I0118 19:07:51.014787 10991 net.cpp:137] Memory required for data: 506084564
I0118 19:07:51.014792 10991 layer_factory.hpp:77] Creating layer relu1_15
I0118 19:07:51.014798 10991 net.cpp:84] Creating Layer relu1_15
I0118 19:07:51.014801 10991 net.cpp:406] relu1_15 <- conv1_15/bn
I0118 19:07:51.014807 10991 net.cpp:367] relu1_15 -> conv1_15/bn (in-place)
I0118 19:07:51.015033 10991 net.cpp:122] Setting up relu1_15
I0118 19:07:51.015043 10991 net.cpp:129] Top shape: 1 832 20 58 (965120)
I0118 19:07:51.015044 10991 net.cpp:137] Memory required for data: 509945044
I0118 19:07:51.015048 10991 layer_factory.hpp:77] Creating layer conv1_15
I0118 19:07:51.015056 10991 net.cpp:84] Creating Layer conv1_15
I0118 19:07:51.015060 10991 net.cpp:406] conv1_15 <- conv1_15/bn
I0118 19:07:51.015069 10991 net.cpp:380] conv1_15 -> conv1_15
I0118 19:07:51.026919 10991 net.cpp:122] Setting up conv1_15
I0118 19:07:51.026955 10991 net.cpp:129] Top shape: 1 32 20 58 (37120)
I0118 19:07:51.026960 10991 net.cpp:137] Memory required for data: 510093524
I0118 19:07:51.026971 10991 layer_factory.hpp:77] Creating layer concat1_15
I0118 19:07:51.026983 10991 net.cpp:84] Creating Layer concat1_15
I0118 19:07:51.026991 10991 net.cpp:406] concat1_15 <- concat1_14_concat1_14_0_split_1
I0118 19:07:51.026999 10991 net.cpp:406] concat1_15 <- conv1_15
I0118 19:07:51.027014 10991 net.cpp:380] concat1_15 -> concat1_15
I0118 19:07:51.027068 10991 net.cpp:122] Setting up concat1_15
I0118 19:07:51.027078 10991 net.cpp:129] Top shape: 1 864 20 58 (1002240)
I0118 19:07:51.027083 10991 net.cpp:137] Memory required for data: 514102484
I0118 19:07:51.027087 10991 layer_factory.hpp:77] Creating layer concat1_15_concat1_15_0_split
I0118 19:07:51.027094 10991 net.cpp:84] Creating Layer concat1_15_concat1_15_0_split
I0118 19:07:51.027099 10991 net.cpp:406] concat1_15_concat1_15_0_split <- concat1_15
I0118 19:07:51.027106 10991 net.cpp:380] concat1_15_concat1_15_0_split -> concat1_15_concat1_15_0_split_0
I0118 19:07:51.027115 10991 net.cpp:380] concat1_15_concat1_15_0_split -> concat1_15_concat1_15_0_split_1
I0118 19:07:51.027192 10991 net.cpp:122] Setting up concat1_15_concat1_15_0_split
I0118 19:07:51.027202 10991 net.cpp:129] Top shape: 1 864 20 58 (1002240)
I0118 19:07:51.027209 10991 net.cpp:129] Top shape: 1 864 20 58 (1002240)
I0118 19:07:51.027212 10991 net.cpp:137] Memory required for data: 522120404
I0118 19:07:51.027216 10991 layer_factory.hpp:77] Creating layer conv1_16/bn
I0118 19:07:51.027232 10991 net.cpp:84] Creating Layer conv1_16/bn
I0118 19:07:51.027238 10991 net.cpp:406] conv1_16/bn <- concat1_15_concat1_15_0_split_0
I0118 19:07:51.027246 10991 net.cpp:380] conv1_16/bn -> conv1_16/bn
I0118 19:07:51.027712 10991 net.cpp:122] Setting up conv1_16/bn
I0118 19:07:51.027726 10991 net.cpp:129] Top shape: 1 864 20 58 (1002240)
I0118 19:07:51.027731 10991 net.cpp:137] Memory required for data: 526129364
I0118 19:07:51.027742 10991 layer_factory.hpp:77] Creating layer conv1_16/scale
I0118 19:07:51.027757 10991 net.cpp:84] Creating Layer conv1_16/scale
I0118 19:07:51.027762 10991 net.cpp:406] conv1_16/scale <- conv1_16/bn
I0118 19:07:51.027770 10991 net.cpp:367] conv1_16/scale -> conv1_16/bn (in-place)
I0118 19:07:51.027844 10991 layer_factory.hpp:77] Creating layer conv1_16/scale
I0118 19:07:51.028038 10991 net.cpp:122] Setting up conv1_16/scale
I0118 19:07:51.028048 10991 net.cpp:129] Top shape: 1 864 20 58 (1002240)
I0118 19:07:51.028051 10991 net.cpp:137] Memory required for data: 530138324
I0118 19:07:51.028059 10991 layer_factory.hpp:77] Creating layer relu1_16
I0118 19:07:51.028066 10991 net.cpp:84] Creating Layer relu1_16
I0118 19:07:51.028071 10991 net.cpp:406] relu1_16 <- conv1_16/bn
I0118 19:07:51.028076 10991 net.cpp:367] relu1_16 -> conv1_16/bn (in-place)
I0118 19:07:51.028561 10991 net.cpp:122] Setting up relu1_16
I0118 19:07:51.028574 10991 net.cpp:129] Top shape: 1 864 20 58 (1002240)
I0118 19:07:51.028578 10991 net.cpp:137] Memory required for data: 534147284
I0118 19:07:51.028583 10991 layer_factory.hpp:77] Creating layer conv1_16
I0118 19:07:51.028595 10991 net.cpp:84] Creating Layer conv1_16
I0118 19:07:51.028600 10991 net.cpp:406] conv1_16 <- conv1_16/bn
I0118 19:07:51.028609 10991 net.cpp:380] conv1_16 -> conv1_16
I0118 19:07:51.041643 10991 net.cpp:122] Setting up conv1_16
I0118 19:07:51.041682 10991 net.cpp:129] Top shape: 1 32 20 58 (37120)
I0118 19:07:51.041687 10991 net.cpp:137] Memory required for data: 534295764
I0118 19:07:51.041698 10991 layer_factory.hpp:77] Creating layer concat1_16
I0118 19:07:51.041714 10991 net.cpp:84] Creating Layer concat1_16
I0118 19:07:51.041723 10991 net.cpp:406] concat1_16 <- concat1_15_concat1_15_0_split_1
I0118 19:07:51.041731 10991 net.cpp:406] concat1_16 <- conv1_16
I0118 19:07:51.041738 10991 net.cpp:380] concat1_16 -> concat1_16
I0118 19:07:51.041793 10991 net.cpp:122] Setting up concat1_16
I0118 19:07:51.041802 10991 net.cpp:129] Top shape: 1 896 20 58 (1039360)
I0118 19:07:51.041806 10991 net.cpp:137] Memory required for data: 538453204
I0118 19:07:51.041810 10991 layer_factory.hpp:77] Creating layer concat1_16_concat1_16_0_split
I0118 19:07:51.041817 10991 net.cpp:84] Creating Layer concat1_16_concat1_16_0_split
I0118 19:07:51.041821 10991 net.cpp:406] concat1_16_concat1_16_0_split <- concat1_16
I0118 19:07:51.041828 10991 net.cpp:380] concat1_16_concat1_16_0_split -> concat1_16_concat1_16_0_split_0
I0118 19:07:51.041836 10991 net.cpp:380] concat1_16_concat1_16_0_split -> concat1_16_concat1_16_0_split_1
I0118 19:07:51.041898 10991 net.cpp:122] Setting up concat1_16_concat1_16_0_split
I0118 19:07:51.041906 10991 net.cpp:129] Top shape: 1 896 20 58 (1039360)
I0118 19:07:51.041911 10991 net.cpp:129] Top shape: 1 896 20 58 (1039360)
I0118 19:07:51.041915 10991 net.cpp:137] Memory required for data: 546768084
I0118 19:07:51.041919 10991 layer_factory.hpp:77] Creating layer conv1_17/bn
I0118 19:07:51.041930 10991 net.cpp:84] Creating Layer conv1_17/bn
I0118 19:07:51.041935 10991 net.cpp:406] conv1_17/bn <- concat1_16_concat1_16_0_split_0
I0118 19:07:51.041942 10991 net.cpp:380] conv1_17/bn -> conv1_17/bn
I0118 19:07:51.042302 10991 net.cpp:122] Setting up conv1_17/bn
I0118 19:07:51.042311 10991 net.cpp:129] Top shape: 1 896 20 58 (1039360)
I0118 19:07:51.042315 10991 net.cpp:137] Memory required for data: 550925524
I0118 19:07:51.042325 10991 layer_factory.hpp:77] Creating layer conv1_17/scale
I0118 19:07:51.042335 10991 net.cpp:84] Creating Layer conv1_17/scale
I0118 19:07:51.042340 10991 net.cpp:406] conv1_17/scale <- conv1_17/bn
I0118 19:07:51.042351 10991 net.cpp:367] conv1_17/scale -> conv1_17/bn (in-place)
I0118 19:07:51.042418 10991 layer_factory.hpp:77] Creating layer conv1_17/scale
I0118 19:07:51.042605 10991 net.cpp:122] Setting up conv1_17/scale
I0118 19:07:51.042615 10991 net.cpp:129] Top shape: 1 896 20 58 (1039360)
I0118 19:07:51.042619 10991 net.cpp:137] Memory required for data: 555082964
I0118 19:07:51.042628 10991 layer_factory.hpp:77] Creating layer relu1_17
I0118 19:07:51.042636 10991 net.cpp:84] Creating Layer relu1_17
I0118 19:07:51.042641 10991 net.cpp:406] relu1_17 <- conv1_17/bn
I0118 19:07:51.042647 10991 net.cpp:367] relu1_17 -> conv1_17/bn (in-place)
I0118 19:07:51.043249 10991 net.cpp:122] Setting up relu1_17
I0118 19:07:51.043265 10991 net.cpp:129] Top shape: 1 896 20 58 (1039360)
I0118 19:07:51.043269 10991 net.cpp:137] Memory required for data: 559240404
I0118 19:07:51.043274 10991 layer_factory.hpp:77] Creating layer conv1_17
I0118 19:07:51.043289 10991 net.cpp:84] Creating Layer conv1_17
I0118 19:07:51.043294 10991 net.cpp:406] conv1_17 <- conv1_17/bn
I0118 19:07:51.043303 10991 net.cpp:380] conv1_17 -> conv1_17
I0118 19:07:51.055941 10991 net.cpp:122] Setting up conv1_17
I0118 19:07:51.055977 10991 net.cpp:129] Top shape: 1 32 20 58 (37120)
I0118 19:07:51.055982 10991 net.cpp:137] Memory required for data: 559388884
I0118 19:07:51.055994 10991 layer_factory.hpp:77] Creating layer concat1_17
I0118 19:07:51.056007 10991 net.cpp:84] Creating Layer concat1_17
I0118 19:07:51.056015 10991 net.cpp:406] concat1_17 <- concat1_16_concat1_16_0_split_1
I0118 19:07:51.056023 10991 net.cpp:406] concat1_17 <- conv1_17
I0118 19:07:51.056032 10991 net.cpp:380] concat1_17 -> concat1_17
I0118 19:07:51.056085 10991 net.cpp:122] Setting up concat1_17
I0118 19:07:51.056093 10991 net.cpp:129] Top shape: 1 928 20 58 (1076480)
I0118 19:07:51.056097 10991 net.cpp:137] Memory required for data: 563694804
I0118 19:07:51.056102 10991 layer_factory.hpp:77] Creating layer concat1_17_concat1_17_0_split
I0118 19:07:51.056108 10991 net.cpp:84] Creating Layer concat1_17_concat1_17_0_split
I0118 19:07:51.056113 10991 net.cpp:406] concat1_17_concat1_17_0_split <- concat1_17
I0118 19:07:51.056118 10991 net.cpp:380] concat1_17_concat1_17_0_split -> concat1_17_concat1_17_0_split_0
I0118 19:07:51.056126 10991 net.cpp:380] concat1_17_concat1_17_0_split -> concat1_17_concat1_17_0_split_1
I0118 19:07:51.056188 10991 net.cpp:122] Setting up concat1_17_concat1_17_0_split
I0118 19:07:51.056197 10991 net.cpp:129] Top shape: 1 928 20 58 (1076480)
I0118 19:07:51.056202 10991 net.cpp:129] Top shape: 1 928 20 58 (1076480)
I0118 19:07:51.056206 10991 net.cpp:137] Memory required for data: 572306644
I0118 19:07:51.056210 10991 layer_factory.hpp:77] Creating layer conv1_18/bn
I0118 19:07:51.056221 10991 net.cpp:84] Creating Layer conv1_18/bn
I0118 19:07:51.056226 10991 net.cpp:406] conv1_18/bn <- concat1_17_concat1_17_0_split_0
I0118 19:07:51.056231 10991 net.cpp:380] conv1_18/bn -> conv1_18/bn
I0118 19:07:51.056602 10991 net.cpp:122] Setting up conv1_18/bn
I0118 19:07:51.056610 10991 net.cpp:129] Top shape: 1 928 20 58 (1076480)
I0118 19:07:51.056614 10991 net.cpp:137] Memory required for data: 576612564
I0118 19:07:51.056624 10991 layer_factory.hpp:77] Creating layer conv1_18/scale
I0118 19:07:51.056634 10991 net.cpp:84] Creating Layer conv1_18/scale
I0118 19:07:51.056638 10991 net.cpp:406] conv1_18/scale <- conv1_18/bn
I0118 19:07:51.056644 10991 net.cpp:367] conv1_18/scale -> conv1_18/bn (in-place)
I0118 19:07:51.056715 10991 layer_factory.hpp:77] Creating layer conv1_18/scale
I0118 19:07:51.056911 10991 net.cpp:122] Setting up conv1_18/scale
I0118 19:07:51.056921 10991 net.cpp:129] Top shape: 1 928 20 58 (1076480)
I0118 19:07:51.056924 10991 net.cpp:137] Memory required for data: 580918484
I0118 19:07:51.056931 10991 layer_factory.hpp:77] Creating layer relu1_18
I0118 19:07:51.056941 10991 net.cpp:84] Creating Layer relu1_18
I0118 19:07:51.056946 10991 net.cpp:406] relu1_18 <- conv1_18/bn
I0118 19:07:51.056951 10991 net.cpp:367] relu1_18 -> conv1_18/bn (in-place)
I0118 19:07:51.057250 10991 net.cpp:122] Setting up relu1_18
I0118 19:07:51.057261 10991 net.cpp:129] Top shape: 1 928 20 58 (1076480)
I0118 19:07:51.057265 10991 net.cpp:137] Memory required for data: 585224404
I0118 19:07:51.057271 10991 layer_factory.hpp:77] Creating layer conv1_18
I0118 19:07:51.057284 10991 net.cpp:84] Creating Layer conv1_18
I0118 19:07:51.057289 10991 net.cpp:406] conv1_18 <- conv1_18/bn
I0118 19:07:51.057296 10991 net.cpp:380] conv1_18 -> conv1_18
I0118 19:07:51.070011 10991 net.cpp:122] Setting up conv1_18
I0118 19:07:51.070051 10991 net.cpp:129] Top shape: 1 32 20 58 (37120)
I0118 19:07:51.070056 10991 net.cpp:137] Memory required for data: 585372884
I0118 19:07:51.070067 10991 layer_factory.hpp:77] Creating layer concat1_18
I0118 19:07:51.070080 10991 net.cpp:84] Creating Layer concat1_18
I0118 19:07:51.070088 10991 net.cpp:406] concat1_18 <- concat1_17_concat1_17_0_split_1
I0118 19:07:51.070096 10991 net.cpp:406] concat1_18 <- conv1_18
I0118 19:07:51.070106 10991 net.cpp:380] concat1_18 -> concat1_18
I0118 19:07:51.070155 10991 net.cpp:122] Setting up concat1_18
I0118 19:07:51.070163 10991 net.cpp:129] Top shape: 1 960 20 58 (1113600)
I0118 19:07:51.070168 10991 net.cpp:137] Memory required for data: 589827284
I0118 19:07:51.070171 10991 layer_factory.hpp:77] Creating layer concat1_18_concat1_18_0_split
I0118 19:07:51.070179 10991 net.cpp:84] Creating Layer concat1_18_concat1_18_0_split
I0118 19:07:51.070184 10991 net.cpp:406] concat1_18_concat1_18_0_split <- concat1_18
I0118 19:07:51.070190 10991 net.cpp:380] concat1_18_concat1_18_0_split -> concat1_18_concat1_18_0_split_0
I0118 19:07:51.070197 10991 net.cpp:380] concat1_18_concat1_18_0_split -> concat1_18_concat1_18_0_split_1
I0118 19:07:51.070266 10991 net.cpp:122] Setting up concat1_18_concat1_18_0_split
I0118 19:07:51.070273 10991 net.cpp:129] Top shape: 1 960 20 58 (1113600)
I0118 19:07:51.070279 10991 net.cpp:129] Top shape: 1 960 20 58 (1113600)
I0118 19:07:51.070283 10991 net.cpp:137] Memory required for data: 598736084
I0118 19:07:51.070287 10991 layer_factory.hpp:77] Creating layer conv1_19/bn
I0118 19:07:51.070296 10991 net.cpp:84] Creating Layer conv1_19/bn
I0118 19:07:51.070300 10991 net.cpp:406] conv1_19/bn <- concat1_18_concat1_18_0_split_0
I0118 19:07:51.070307 10991 net.cpp:380] conv1_19/bn -> conv1_19/bn
I0118 19:07:51.070683 10991 net.cpp:122] Setting up conv1_19/bn
I0118 19:07:51.070691 10991 net.cpp:129] Top shape: 1 960 20 58 (1113600)
I0118 19:07:51.070695 10991 net.cpp:137] Memory required for data: 603190484
I0118 19:07:51.070705 10991 layer_factory.hpp:77] Creating layer conv1_19/scale
I0118 19:07:51.070716 10991 net.cpp:84] Creating Layer conv1_19/scale
I0118 19:07:51.070721 10991 net.cpp:406] conv1_19/scale <- conv1_19/bn
I0118 19:07:51.070727 10991 net.cpp:367] conv1_19/scale -> conv1_19/bn (in-place)
I0118 19:07:51.070798 10991 layer_factory.hpp:77] Creating layer conv1_19/scale
I0118 19:07:51.070998 10991 net.cpp:122] Setting up conv1_19/scale
I0118 19:07:51.071007 10991 net.cpp:129] Top shape: 1 960 20 58 (1113600)
I0118 19:07:51.071012 10991 net.cpp:137] Memory required for data: 607644884
I0118 19:07:51.071018 10991 layer_factory.hpp:77] Creating layer relu1_19
I0118 19:07:51.071027 10991 net.cpp:84] Creating Layer relu1_19
I0118 19:07:51.071032 10991 net.cpp:406] relu1_19 <- conv1_19/bn
I0118 19:07:51.071036 10991 net.cpp:367] relu1_19 -> conv1_19/bn (in-place)
I0118 19:07:51.071761 10991 net.cpp:122] Setting up relu1_19
I0118 19:07:51.071781 10991 net.cpp:129] Top shape: 1 960 20 58 (1113600)
I0118 19:07:51.071786 10991 net.cpp:137] Memory required for data: 612099284
I0118 19:07:51.071790 10991 layer_factory.hpp:77] Creating layer conv1_19
I0118 19:07:51.071805 10991 net.cpp:84] Creating Layer conv1_19
I0118 19:07:51.071810 10991 net.cpp:406] conv1_19 <- conv1_19/bn
I0118 19:07:51.071818 10991 net.cpp:380] conv1_19 -> conv1_19
I0118 19:07:51.085120 10991 net.cpp:122] Setting up conv1_19
I0118 19:07:51.085157 10991 net.cpp:129] Top shape: 1 32 20 58 (37120)
I0118 19:07:51.085162 10991 net.cpp:137] Memory required for data: 612247764
I0118 19:07:51.085181 10991 layer_factory.hpp:77] Creating layer concat1_19
I0118 19:07:51.085196 10991 net.cpp:84] Creating Layer concat1_19
I0118 19:07:51.085202 10991 net.cpp:406] concat1_19 <- concat1_18_concat1_18_0_split_1
I0118 19:07:51.085212 10991 net.cpp:406] concat1_19 <- conv1_19
I0118 19:07:51.085219 10991 net.cpp:380] concat1_19 -> concat1_19
I0118 19:07:51.085274 10991 net.cpp:122] Setting up concat1_19
I0118 19:07:51.085283 10991 net.cpp:129] Top shape: 1 992 20 58 (1150720)
I0118 19:07:51.085286 10991 net.cpp:137] Memory required for data: 616850644
I0118 19:07:51.085290 10991 layer_factory.hpp:77] Creating layer tpp5
I0118 19:07:51.085299 10991 net.cpp:84] Creating Layer tpp5
I0118 19:07:51.085304 10991 net.cpp:406] tpp5 <- concat1_19
I0118 19:07:51.085311 10991 net.cpp:380] tpp5 -> tpp5
I0118 19:07:51.086073 10991 net.cpp:122] Setting up tpp5
I0118 19:07:51.086088 10991 net.cpp:129] Top shape: 1 14880 (14880)
I0118 19:07:51.086092 10991 net.cpp:137] Memory required for data: 616910164
I0118 19:07:51.086097 10991 layer_factory.hpp:77] Creating layer fc6_d
I0118 19:07:51.086107 10991 net.cpp:84] Creating Layer fc6_d
I0118 19:07:51.086112 10991 net.cpp:406] fc6_d <- tpp5
I0118 19:07:51.086119 10991 net.cpp:380] fc6_d -> fc6_d
I0118 19:07:53.048035 10991 net.cpp:122] Setting up fc6_d
I0118 19:07:53.048074 10991 net.cpp:129] Top shape: 1 4096 (4096)
I0118 19:07:53.048079 10991 net.cpp:137] Memory required for data: 616926548
I0118 19:07:53.048090 10991 layer_factory.hpp:77] Creating layer relu6
I0118 19:07:53.048102 10991 net.cpp:84] Creating Layer relu6
I0118 19:07:53.048108 10991 net.cpp:406] relu6 <- fc6_d
I0118 19:07:53.048117 10991 net.cpp:367] relu6 -> fc6_d (in-place)
I0118 19:07:53.048454 10991 net.cpp:122] Setting up relu6
I0118 19:07:53.048465 10991 net.cpp:129] Top shape: 1 4096 (4096)
I0118 19:07:53.048470 10991 net.cpp:137] Memory required for data: 616942932
I0118 19:07:53.048475 10991 layer_factory.hpp:77] Creating layer drop6
I0118 19:07:53.048485 10991 net.cpp:84] Creating Layer drop6
I0118 19:07:53.048488 10991 net.cpp:406] drop6 <- fc6_d
I0118 19:07:53.048494 10991 net.cpp:367] drop6 -> fc6_d (in-place)
I0118 19:07:53.048542 10991 net.cpp:122] Setting up drop6
I0118 19:07:53.048549 10991 net.cpp:129] Top shape: 1 4096 (4096)
I0118 19:07:53.048553 10991 net.cpp:137] Memory required for data: 616959316
I0118 19:07:53.048557 10991 layer_factory.hpp:77] Creating layer fc7_d
I0118 19:07:53.048568 10991 net.cpp:84] Creating Layer fc7_d
I0118 19:07:53.048571 10991 net.cpp:406] fc7_d <- fc6_d
I0118 19:07:53.048578 10991 net.cpp:380] fc7_d -> fc7_d
I0118 19:07:53.575953 10991 net.cpp:122] Setting up fc7_d
I0118 19:07:53.575984 10991 net.cpp:129] Top shape: 1 4096 (4096)
I0118 19:07:53.575987 10991 net.cpp:137] Memory required for data: 616975700
I0118 19:07:53.575995 10991 layer_factory.hpp:77] Creating layer relu7
I0118 19:07:53.576004 10991 net.cpp:84] Creating Layer relu7
I0118 19:07:53.576009 10991 net.cpp:406] relu7 <- fc7_d
I0118 19:07:53.576015 10991 net.cpp:367] relu7 -> fc7_d (in-place)
I0118 19:07:53.576551 10991 net.cpp:122] Setting up relu7
I0118 19:07:53.576562 10991 net.cpp:129] Top shape: 1 4096 (4096)
I0118 19:07:53.576565 10991 net.cpp:137] Memory required for data: 616992084
I0118 19:07:53.576568 10991 layer_factory.hpp:77] Creating layer drop7
I0118 19:07:53.576575 10991 net.cpp:84] Creating Layer drop7
I0118 19:07:53.576578 10991 net.cpp:406] drop7 <- fc7_d
I0118 19:07:53.576583 10991 net.cpp:367] drop7 -> fc7_d (in-place)
I0118 19:07:53.576620 10991 net.cpp:122] Setting up drop7
I0118 19:07:53.576624 10991 net.cpp:129] Top shape: 1 4096 (4096)
I0118 19:07:53.576627 10991 net.cpp:137] Memory required for data: 617008468
I0118 19:07:53.576629 10991 layer_factory.hpp:77] Creating layer fc8_d
I0118 19:07:53.576635 10991 net.cpp:84] Creating Layer fc8_d
I0118 19:07:53.576638 10991 net.cpp:406] fc8_d <- fc7_d
I0118 19:07:53.576647 10991 net.cpp:380] fc8_d -> fc8_d
I0118 19:07:53.656548 10991 net.cpp:122] Setting up fc8_d
I0118 19:07:53.656584 10991 net.cpp:129] Top shape: 1 618 (618)
I0118 19:07:53.656594 10991 net.cpp:137] Memory required for data: 617010940
I0118 19:07:53.656605 10991 layer_factory.hpp:77] Creating layer loss
I0118 19:07:53.656618 10991 net.cpp:84] Creating Layer loss
I0118 19:07:53.656625 10991 net.cpp:406] loss <- fc8_d
I0118 19:07:53.656632 10991 net.cpp:406] loss <- phocs
I0118 19:07:53.656639 10991 net.cpp:380] loss -> loss
I0118 19:07:53.656713 10991 net.cpp:122] Setting up loss
…
  phase: TEST
}
layer {
  name: "word_images"
  type: "Data"
  top: "word_images"
  top: "label"
  transform_param {
    scale: -0.0039215689
    mean_value: 255
  }
  data_param {
    source: "/data/fwolf/iam_50000/iam-db_nti500000_pul2-3-4-5_test_word_images_lmdb"
    batch_size: 1
    backend: LMDB
    prefetch: 20
  }
}
layer {
  name: "phocs"
  type: "Data"
  top: "phocs"
  top: "label_phocs"
  data_param {
    source: "/data/fwolf/iam_50000/iam-db_nti500000_pul2-3-4-5_test_phocs_lmdb"
    batch_size: 1
    backend: LMDB
    prefetch: 20
  }
}
layer {
  name: "conv_init"
  type: "Convolution"
  bottom: "word_images"
  top: "conv_init"
  convolution_param {
    num_output: 32
    bias_term: false
    pad: 1
    kernel_size: 3
    stride: 1
    weight_filler {
      type: "msra"
    }
    bias_filler {
      type: "constant"
    }
    engine: CUDNN
  }
}
layer {
  name: "bn_init"
  type: "BatchNorm"
  bottom: "conv_init"
  top: "bn_init"
  param {
    lr_mult: 0
    decay_mult: 0
  }
  param {
    lr_mult: 0
    decay_mult: 0
  }
  param {
    lr_mult: 0
    decay_mult: 0
  }
  batch_norm_param {
    eps: 1e-05
  }
}
layer {
  name: "scale_init"
  type: "Scale"
  bottom: "bn_init"
  top: "bn_init"
  scale_param {
    filler {
      value: 1
    }
    bias_term: true
    bias_filler {
      value: 0
    }
  }
}
layer {
  name: "relu_init"
  type: "ReLU"
  bottom: "bn_init"
  top: "bn_init"
}
layer {
  name: "pool_init"
  type: "Pooling"
  bottom: "bn_init"
  top: "pool_init"
  pooling_param {
    pool: MAX
    kernel_size: 3
    stride: 2
    pad: 1
  }
}
layer {
  name: "conv0_0/bn"
  type: "BatchNorm"
  bottom: "pool_init"
  top: "conv0_0/bn"
  param {
    lr_mult: 0
    decay_mult: 0
  }
  param {
    lr_mult: 0
    decay_mult: 0
  }
  param {
    lr_mult: 0
    decay_mult: 0
  }
}
layer {
  name: "conv0_0/scale"
  type: "Scale"
  bottom: "conv0_0/bn"
  top: "conv0_0/bn"
  scale_param {
    filler {
      value: 1
    }
    bias_term: true
    bias_filler {
      value: 0
    }
  }
}
layer {
  name: "relu0_0"
  type: "ReLU"
  bottom: "conv0_0/bn"
  top: "conv0_0/bn"
}
layer {
  name: "conv0_0"
  type: "Convolution"
  bottom: "conv0_0/bn"
  top: "conv0_0"
  convolution_param {
    num_output: 32
    bias_term: false
    pad: 1
    kernel_size: 3
    stride: 1
    weight_filler {
      type: "msra"
    }
    bias_filler {
      type: "constant"
    }
    engine: CUDNN
  }
}
layer {
  name: "concat0_0"
  type: "Concat"
  bottom: "pool_init"
  bottom: "conv0_0"
  top: "concat0_0"
  concat_param {
    axis: 1
  }
}
layer {
  name: "conv0_1/bn"
  type: "BatchNorm"
  bottom: "concat0_0"
  top: "conv0_1/bn"
  param {
    lr_mult: 0
    decay_mult: 0
  }
  param {
    lr_mult: 0
    decay_mult: 0
  }
  param {
    lr_mult: 0
    decay_mult: 0
  }
}
layer {
  name: "conv0_1/scale"
  type: "Scale"
  bottom: "conv0_1/bn"
  top: "conv0_1/bn"
  scale_param {
    filler {
      value: 1
    }
    bias_term: true
    bias_filler {
      value: 0
    }
  }
}
layer {
  name: "relu0_1"
  type: "ReLU"
  bottom: "conv0_1/bn"
  top: "conv0_1/bn"
}
layer {
  name: "conv0_1"
  type: "Convolution"
  bottom: "conv0_1/bn"
  top: "conv0_1"
  convolution_param {
    num_output: 32
    bias_term: false
    pad: 1
    kernel_size: 3
    stride: 1
    weight_filler {
      type: "msra"
    }
    bias_filler {
      type: "constant"
    }
    engine: CUDNN
  }
}
layer {
  name: "concat0_1"
  type: "Concat"
  bottom: "concat0_0"
  bottom: "conv0_1"
  top: "concat0_1"
  concat_param {
    axis: 1
  }
}
layer {
  name: "conv0_2/bn"
  type: "BatchNorm"
  bottom: "concat0_1"
  top: "conv0_2/bn"
  param {
    lr_mult: 0
    decay_mult: 0
  }
  param {
    lr_mult: 0
    decay_mult: 0
  }
  param {
    lr_mult: 0
    decay_mult: 0
  }
}
layer {
  name: "conv0_2/scale"
  type: "Scale"
  bottom: "conv0_2/bn"
  top: "conv0_2/bn"
  scale_param {
    filler {
      value: 1
    }
    bias_term: true
    bias_filler {
      value: 0
    }
  }
}
layer {
  name: "relu0_2"
  type: "ReLU"
  bottom: "conv0_2/bn"
  top: "conv0_2/bn"
}
layer {
  name: "conv0_2"
  type: "Convolution"
  bottom: "conv0_2/bn"
  top: "conv0_2"
  convolution_param {
    num_output: 32
    bias_term: false
    pad: 1
    kernel_size: 3
    stride: 1
    weight_filler {
      type: "msra"
    }
    bias_filler {
      type: "constant"
    }
    engine: CUDNN
  }
}
layer {
  name: "concat0_2"
  type: "Concat"
  bottom: "concat0_1"
  bottom: "conv0_2"
  top: "concat0_2"
  concat_param {
    axis: 1
  }
}
layer {
  name: "conv0_3/bn"
  type: "BatchNorm"
  bottom: "concat0_2"
  top: "conv0_3/bn"
  param {
    lr_mult: 0
    decay_mult: 0
  }
  param {
    lr_mult: 0
    decay_mult: 0
  }
  param {
    lr_mult: 0
    decay_mult: 0
  }
}
layer {
  name: "conv0_3/scale"
  type: "Scale"
  bottom: "conv0_3/bn"
  top: "conv0_3/bn"
  scale_param {
    filler {
      value: 1
    }
    bias_term: true
    bias_filler {
      value: 0
    }
  }
}
layer {
  name: "relu0_3"
  type: "ReLU"
  bottom: "conv0_3/bn"
  top: "conv0_3/bn"
}
layer {
  name: "conv0_3"
  type: "Convolution"
  bottom: "conv0_3/bn"
  top: "conv0_3"
  convolution_param {
    num_output: 32
    bias_term: false
    pad: 1
    kernel_size: 3
    stride: 1
    weight_filler {
      type: "msra"
    }
    bias_filler {
      type: "constant"
    }
    engine: CUDNN
  }
}
layer {
  name: "concat0_3"
  type: "Concat"
  bottom: "concat0_2"
  bottom: "conv0_3"
  top: "concat0_3"
  concat_param {
    axis: 1
  }
}
layer {
  name: "conv0_4/bn"
  type: "BatchNorm"
  bottom: "concat0_3"
  top: "conv0_4/bn"
  param {
    lr_mult: 0
    decay_mult: 0
  }
  param {
    lr_mult: 0
    decay_mult: 0
  }
  param {
    lr_mult: 0
    decay_mult: 0
  }
}
layer {
  name: "conv0_4/scale"
  type: "Scale"
  bottom: "conv0_4/bn"
  top: "conv0_4/bn"
  scale_param {
    filler {
      value: 1
    }
    bias_term: true
    bias_filler {
      value: 0
    }
  }
}
layer {
  name: "relu0_4"
  type: "ReLU"
  bottom: "conv0_4/bn"
  top: "conv0_4/bn"
}
layer {
  name: "conv0_4"
  type: "Convolution"
  bottom: "conv0_4/bn"
  top: "conv0_4"
  convolution_param {
    num_output: 32
    bias_term: false
    pad: 1
    kernel_size: 3
    stride: 1
    weight_filler {
      type: "msra"
    }
    bias_filler {
      type: "constant"
    }
    engine: CUDNN
  }
}
layer {
  name: "concat0_4"
  type: "Concat"
  bottom: "concat0_3"
  bottom: "conv0_4"
  top: "concat0_4"
  concat_param {
    axis: 1
  }
}
layer {
  name: "conv0_5/bn"
  type: "BatchNorm"
  bottom: "concat0_4"
  top: "conv0_5/bn"
  param {
    lr_mult: 0
    decay_mult: 0
  }
  param {
    lr_mult: 0
    decay_mult: 0
  }
  param {
    lr_mult: 0
    decay_mult: 0
  }
}
layer {
  name: "conv0_5/scale"
  type: "Scale"
  bottom: "conv0_5/bn"
  top: "conv0_5/bn"
  scale_param {
    filler {
      value: 1
    }
    bias_term: true
    bias_filler {
      value: 0
    }
  }
}
layer {
  name: "relu0_5"
  type: "ReLU"
  bottom: "conv0_5/bn"
  top: "conv0_5/bn"
}
layer {
  name: "conv0_5"
  type: "Convolution"
  bottom: "conv0_5/bn"
  top: "conv0_5"
  convolution_param {
    num_output: 32
    bias_term: false
    pad: 1
    kernel_size: 3
    stride: 1
    weight_filler {
      type: "msra"
    }
    bias_filler {
      type: "constant"
    }
    engine: CUDNN
  }
}
layer {
  name: "concat0_5"
  type: "Concat"
  bottom: "concat0_4"
  bottom: "conv0_5"
  top: "concat0_5"
  concat_param {
    axis: 1
  }
}
layer {
  name: "conv0_6/bn"
  type: "BatchNorm"
  bottom: "concat0_5"
  top: "conv0_6/bn"
  param {
    lr_mult: 0
    decay_mult: 0
  }
  param {
    lr_mult: 0
    decay_mult: 0
  }
  param {
    lr_mult: 0
    decay_mult: 0
  }
}
layer {
  name: "conv0_6/scale"
  type: "Scale"
  bottom: "conv0_6/bn"
  top: "conv0_6/bn"
  scale_param {
    filler {
      value: 1
    }
    bias_term: true
    bias_filler {
      value: 0
    }
  }
}
layer {
  name: "relu0_6"
  type: "ReLU"
  bottom: "conv0_6/bn"
…
I0118 19:07:53.823173 10991 net.cpp:84] Creating Layer relu1_6
I0118 19:07:53.823174 10991 net.cpp:406] relu1_6 <- conv1_6/bn
I0118 19:07:53.823179 10991 net.cpp:367] relu1_6 -> conv1_6/bn (in-place)
I0118 19:07:53.823791 10991 net.cpp:122] Setting up relu1_6
I0118 19:07:53.823808 10991 net.cpp:129] Top shape: 1 544 23 24 (300288)
I0118 19:07:53.823818 10991 net.cpp:137] Memory required for data: 157973984
I0118 19:07:53.823823 10991 layer_factory.hpp:77] Creating layer conv1_6
I0118 19:07:53.823837 10991 net.cpp:84] Creating Layer conv1_6
I0118 19:07:53.823843 10991 net.cpp:406] conv1_6 <- conv1_6/bn
I0118 19:07:53.823853 10991 net.cpp:380] conv1_6 -> conv1_6
I0118 19:07:53.833075 10991 net.cpp:122] Setting up conv1_6
I0118 19:07:53.833109 10991 net.cpp:129] Top shape: 1 32 23 24 (17664)
I0118 19:07:53.833114 10991 net.cpp:137] Memory required for data: 158044640
I0118 19:07:53.833125 10991 layer_factory.hpp:77] Creating layer concat1_6
I0118 19:07:53.833137 10991 net.cpp:84] Creating Layer concat1_6
I0118 19:07:53.833144 10991 net.cpp:406] concat1_6 <- concat1_5_concat1_5_0_split_1
I0118 19:07:53.833153 10991 net.cpp:406] concat1_6 <- conv1_6
I0118 19:07:53.833161 10991 net.cpp:380] concat1_6 -> concat1_6
I0118 19:07:53.833195 10991 net.cpp:122] Setting up concat1_6
I0118 19:07:53.833202 10991 net.cpp:129] Top shape: 1 576 23 24 (317952)
I0118 19:07:53.833206 10991 net.cpp:137] Memory required for data: 159316448
I0118 19:07:53.833210 10991 layer_factory.hpp:77] Creating layer concat1_6_concat1_6_0_split
I0118 19:07:53.833217 10991 net.cpp:84] Creating Layer concat1_6_concat1_6_0_split
I0118 19:07:53.833221 10991 net.cpp:406] concat1_6_concat1_6_0_split <- concat1_6
I0118 19:07:53.833230 10991 net.cpp:380] concat1_6_concat1_6_0_split -> concat1_6_concat1_6_0_split_0
I0118 19:07:53.833236 10991 net.cpp:380] concat1_6_concat1_6_0_split -> concat1_6_concat1_6_0_split_1
I0118 19:07:53.833281 10991 net.cpp:122] Setting up concat1_6_concat1_6_0_split
I0118 19:07:53.833287 10991 net.cpp:129] Top shape: 1 576 23 24 (317952)
I0118 19:07:53.833293 10991 net.cpp:129] Top shape: 1 576 23 24 (317952)
I0118 19:07:53.833297 10991 net.cpp:137] Memory required for data: 161860064
I0118 19:07:53.833302 10991 layer_factory.hpp:77] Creating layer conv1_7/bn
I0118 19:07:53.833309 10991 net.cpp:84] Creating Layer conv1_7/bn
I0118 19:07:53.833314 10991 net.cpp:406] conv1_7/bn <- concat1_6_concat1_6_0_split_0
I0118 19:07:53.833320 10991 net.cpp:380] conv1_7/bn -> conv1_7/bn
I0118 19:07:53.833640 10991 net.cpp:122] Setting up conv1_7/bn
I0118 19:07:53.833652 10991 net.cpp:129] Top shape: 1 576 23 24 (317952)
I0118 19:07:53.833657 10991 net.cpp:137] Memory required for data: 163131872
I0118 19:07:53.833667 10991 layer_factory.hpp:77] Creating layer conv1_7/scale
I0118 19:07:53.833675 10991 net.cpp:84] Creating Layer conv1_7/scale
I0118 19:07:53.833680 10991 net.cpp:406] conv1_7/scale <- conv1_7/bn
I0118 19:07:53.833688 10991 net.cpp:367] conv1_7/scale -> conv1_7/bn (in-place)
I0118 19:07:53.833767 10991 layer_factory.hpp:77] Creating layer conv1_7/scale
I0118 19:07:53.833964 10991 net.cpp:122] Setting up conv1_7/scale
I0118 19:07:53.833973 10991 net.cpp:129] Top shape: 1 576 23 24 (317952)
I0118 19:07:53.833977 10991 net.cpp:137] Memory required for data: 164403680
I0118 19:07:53.833984 10991 layer_factory.hpp:77] Creating layer relu1_7
I0118 19:07:53.833992 10991 net.cpp:84] Creating Layer relu1_7
I0118 19:07:53.833997 10991 net.cpp:406] relu1_7 <- conv1_7/bn
I0118 19:07:53.834004 10991 net.cpp:367] relu1_7 -> conv1_7/bn (in-place)
I0118 19:07:53.834558 10991 net.cpp:122] Setting up relu1_7
I0118 19:07:53.834573 10991 net.cpp:129] Top shape: 1 576 23 24 (317952)
I0118 19:07:53.834576 10991 net.cpp:137] Memory required for data: 165675488
I0118 19:07:53.834581 10991 layer_factory.hpp:77] Creating layer conv1_7
I0118 19:07:53.834596 10991 net.cpp:84] Creating Layer conv1_7
I0118 19:07:53.834601 10991 net.cpp:406] conv1_7 <- conv1_7/bn
I0118 19:07:53.834609 10991 net.cpp:380] conv1_7 -> conv1_7
I0118 19:07:53.842967 10991 net.cpp:122] Setting up conv1_7
I0118 19:07:53.842998 10991 net.cpp:129] Top shape: 1 32 23 24 (17664)
I0118 19:07:53.843000 10991 net.cpp:137] Memory required for data: 165746144
I0118 19:07:53.843008 10991 layer_factory.hpp:77] Creating layer concat1_7
I0118 19:07:53.843019 10991 net.cpp:84] Creating Layer concat1_7
I0118 19:07:53.843024 10991 net.cpp:406] concat1_7 <- concat1_6_concat1_6_0_split_1
I0118 19:07:53.843034 10991 net.cpp:406] concat1_7 <- conv1_7
I0118 19:07:53.843039 10991 net.cpp:380] concat1_7 -> concat1_7
I0118 19:07:53.843068 10991 net.cpp:122] Setting up concat1_7
I0118 19:07:53.843073 10991 net.cpp:129] Top shape: 1 608 23 24 (335616)
I0118 19:07:53.843075 10991 net.cpp:137] Memory required for data: 167088608
I0118 19:07:53.843077 10991 layer_factory.hpp:77] Creating layer concat1_7_concat1_7_0_split
I0118 19:07:53.843087 10991 net.cpp:84] Creating Layer concat1_7_concat1_7_0_split
I0118 19:07:53.843091 10991 net.cpp:406] concat1_7_concat1_7_0_split <- concat1_7
I0118 19:07:53.843096 10991 net.cpp:380] concat1_7_concat1_7_0_split -> concat1_7_concat1_7_0_split_0
I0118 19:07:53.843101 10991 net.cpp:380] concat1_7_concat1_7_0_split -> concat1_7_concat1_7_0_split_1
I0118 19:07:53.843129 10991 net.cpp:122] Setting up concat1_7_concat1_7_0_split
I0118 19:07:53.843133 10991 net.cpp:129] Top shape: 1 608 23 24 (335616)
I0118 19:07:53.843137 10991 net.cpp:129] Top shape: 1 608 23 24 (335616)
I0118 19:07:53.843138 10991 net.cpp:137] Memory required for data: 169773536
I0118 19:07:53.843140 10991 layer_factory.hpp:77] Creating layer conv1_8/bn
I0118 19:07:53.843147 10991 net.cpp:84] Creating Layer conv1_8/bn
I0118 19:07:53.843149 10991 net.cpp:406] conv1_8/bn <- concat1_7_concat1_7_0_split_0
I0118 19:07:53.843153 10991 net.cpp:380] conv1_8/bn -> conv1_8/bn
I0118 19:07:53.843379 10991 net.cpp:122] Setting up conv1_8/bn
I0118 19:07:53.843385 10991 net.cpp:129] Top shape: 1 608 23 24 (335616)
I0118 19:07:53.843389 10991 net.cpp:137] Memory required for data: 171116000
I0118 19:07:53.843394 10991 layer_factory.hpp:77] Creating layer conv1_8/scale
I0118 19:07:53.843401 10991 net.cpp:84] Creating Layer conv1_8/scale
I0118 19:07:53.843405 10991 net.cpp:406] conv1_8/scale <- conv1_8/bn
I0118 19:07:53.843410 10991 net.cpp:367] conv1_8/scale -> conv1_8/bn (in-place)
I0118 19:07:53.843466 10991 layer_factory.hpp:77] Creating layer conv1_8/scale
I0118 19:07:53.843605 10991 net.cpp:122] Setting up conv1_8/scale
I0118 19:07:53.843611 10991 net.cpp:129] Top shape: 1 608 23 24 (335616)
I0118 19:07:53.843613 10991 net.cpp:137] Memory required for data: 172458464
I0118 19:07:53.843618 10991 layer_factory.hpp:77] Creating layer relu1_8
I0118 19:07:53.843623 10991 net.cpp:84] Creating Layer relu1_8
I0118 19:07:53.843626 10991 net.cpp:406] relu1_8 <- conv1_8/bn
I0118 19:07:53.843631 10991 net.cpp:367] relu1_8 -> conv1_8/bn (in-place)
I0118 19:07:53.843843 10991 net.cpp:122] Setting up relu1_8
I0118 19:07:53.843852 10991 net.cpp:129] Top shape: 1 608 23 24 (335616)
I0118 19:07:53.843853 10991 net.cpp:137] Memory required for data: 173800928
I0118 19:07:53.843857 10991 layer_factory.hpp:77] Creating layer conv1_8
I0118 19:07:53.843866 10991 net.cpp:84] Creating Layer conv1_8
I0118 19:07:53.843869 10991 net.cpp:406] conv1_8 <- conv1_8/bn
I0118 19:07:53.843875 10991 net.cpp:380] conv1_8 -> conv1_8
I0118 19:07:53.852669 10991 net.cpp:122] Setting up conv1_8
I0118 19:07:53.852690 10991 net.cpp:129] Top shape: 1 32 23 24 (17664)
I0118 19:07:53.852694 10991 net.cpp:137] Memory required for data: 173871584
I0118 19:07:53.852699 10991 layer_factory.hpp:77] Creating layer concat1_8
I0118 19:07:53.852710 10991 net.cpp:84] Creating Layer concat1_8
I0118 19:07:53.852713 10991 net.cpp:406] concat1_8 <- concat1_7_concat1_7_0_split_1
I0118 19:07:53.852720 10991 net.cpp:406] concat1_8 <- conv1_8
I0118 19:07:53.852723 10991 net.cpp:380] concat1_8 -> concat1_8
I0118 19:07:53.852753 10991 net.cpp:122] Setting up concat1_8
I0118 19:07:53.852758 10991 net.cpp:129] Top shape: 1 640 23 24 (353280)
I0118 19:07:53.852761 10991 net.cpp:137] Memory required for data: 175284704
I0118 19:07:53.852762 10991 layer_factory.hpp:77] Creating layer concat1_8_concat1_8_0_split
I0118 19:07:53.852767 10991 net.cpp:84] Creating Layer concat1_8_concat1_8_0_split
I0118 19:07:53.852769 10991 net.cpp:406] concat1_8_concat1_8_0_split <- concat1_8
I0118 19:07:53.852774 10991 net.cpp:380] concat1_8_concat1_8_0_split -> concat1_8_concat1_8_0_split_0
I0118 19:07:53.852783 10991 net.cpp:380] concat1_8_concat1_8_0_split -> concat1_8_concat1_8_0_split_1
I0118 19:07:53.852813 10991 net.cpp:122] Setting up concat1_8_concat1_8_0_split
I0118 19:07:53.852818 10991 net.cpp:129] Top shape: 1 640 23 24 (353280)
I0118 19:07:53.852821 10991 net.cpp:129] Top shape: 1 640 23 24 (353280)
I0118 19:07:53.852823 10991 net.cpp:137] Memory required for data: 178110944
I0118 19:07:53.852826 10991 layer_factory.hpp:77] Creating layer conv1_9/bn
I0118 19:07:53.852831 10991 net.cpp:84] Creating Layer conv1_9/bn
I0118 19:07:53.852834 10991 net.cpp:406] conv1_9/bn <- concat1_8_concat1_8_0_split_0
I0118 19:07:53.852838 10991 net.cpp:380] conv1_9/bn -> conv1_9/bn
I0118 19:07:53.853054 10991 net.cpp:122] Setting up conv1_9/bn
I0118 19:07:53.853060 10991 net.cpp:129] Top shape: 1 640 23 24 (353280)
I0118 19:07:53.853061 10991 net.cpp:137] Memory required for data: 179524064
I0118 19:07:53.853078 10991 layer_factory.hpp:77] Creating layer conv1_9/scale
I0118 19:07:53.853091 10991 net.cpp:84] Creating Layer conv1_9/scale
I0118 19:07:53.853093 10991 net.cpp:406] conv1_9/scale <- conv1_9/bn
I0118 19:07:53.853097 10991 net.cpp:367] conv1_9/scale -> conv1_9/bn (in-place)
I0118 19:07:53.853154 10991 layer_factory.hpp:77] Creating layer conv1_9/scale
I0118 19:07:53.853283 10991 net.cpp:122] Setting up conv1_9/scale
I0118 19:07:53.853289 10991 net.cpp:129] Top shape: 1 640 23 24 (353280)
I0118 19:07:53.853291 10991 net.cpp:137] Memory required for data: 180937184
I0118 19:07:53.853296 10991 layer_factory.hpp:77] Creating layer relu1_9
I0118 19:07:53.853302 10991 net.cpp:84] Creating Layer relu1_9
I0118 19:07:53.853304 10991 net.cpp:406] relu1_9 <- conv1_9/bn
I0118 19:07:53.853308 10991 net.cpp:367] relu1_9 -> conv1_9/bn (in-place)
I0118 19:07:53.853794 10991 net.cpp:122] Setting up relu1_9
I0118 19:07:53.853807 10991 net.cpp:129] Top shape: 1 640 23 24 (353280)
I0118 19:07:53.853809 10991 net.cpp:137] Memory required for data: 182350304
I0118 19:07:53.853812 10991 layer_factory.hpp:77] Creating layer conv1_9
I0118 19:07:53.853823 10991 net.cpp:84] Creating Layer conv1_9
I0118 19:07:53.853826 10991 net.cpp:406] conv1_9 <- conv1_9/bn
I0118 19:07:53.853832 10991 net.cpp:380] conv1_9 -> conv1_9
I0118 19:07:53.860436 10991 net.cpp:122] Setting up conv1_9
I0118 19:07:53.860466 10991 net.cpp:129] Top shape: 1 32 23 24 (17664)
I0118 19:07:53.860468 10991 net.cpp:137] Memory required for data: 182420960
I0118 19:07:53.860476 10991 layer_factory.hpp:77] Creating layer concat1_9
I0118 19:07:53.860487 10991 net.cpp:84] Creating Layer concat1_9
I0118 19:07:53.860493 10991 net.cpp:406] concat1_9 <- concat1_8_concat1_8_0_split_1
I0118 19:07:53.860498 10991 net.cpp:406] concat1_9 <- conv1_9
I0118 19:07:53.860503 10991 net.cpp:380] concat1_9 -> concat1_9
I0118 19:07:53.860532 10991 net.cpp:122] Setting up concat1_9
I0118 19:07:53.860536 10991 net.cpp:129] Top shape: 1 672 23 24 (370944)
I0118 19:07:53.860539 10991 net.cpp:137] Memory required for data: 183904736
I0118 19:07:53.860541 10991 layer_factory.hpp:77] Creating layer concat1_9_concat1_9_0_split
I0118 19:07:53.860545 10991 net.cpp:84] Creating Layer concat1_9_concat1_9_0_split
I0118 19:07:53.860548 10991 net.cpp:406] concat1_9_concat1_9_0_split <- concat1_9
I0118 19:07:53.860553 10991 net.cpp:380] concat1_9_concat1_9_0_split -> concat1_9_concat1_9_0_split_0
I0118 19:07:53.860558 10991 net.cpp:380] concat1_9_concat1_9_0_split -> concat1_9_concat1_9_0_split_1
I0118 19:07:53.860586 10991 net.cpp:122] Setting up concat1_9_concat1_9_0_split
I0118 19:07:53.860591 10991 net.cpp:129] Top shape: 1 672 23 24 (370944)
I0118 19:07:53.860594 10991 net.cpp:129] Top shape: 1 672 23 24 (370944)
I0118 19:07:53.860596 10991 net.cpp:137] Memory required for data: 186872288
I0118 19:07:53.860599 10991 layer_factory.hpp:77] Creating layer conv1_10/bn
I0118 19:07:53.860604 10991 net.cpp:84] Creating Layer conv1_10/bn
I0118 19:07:53.860606 10991 net.cpp:406] conv1_10/bn <- concat1_9_concat1_9_0_split_0
I0118 19:07:53.860611 10991 net.cpp:380] conv1_10/bn -> conv1_10/bn
I0118 19:07:53.860847 10991 net.cpp:122] Setting up conv1_10/bn
I0118 19:07:53.860854 10991 net.cpp:129] Top shape: 1 672 23 24 (370944)
I0118 19:07:53.860857 10991 net.cpp:137] Memory required for data: 188356064
I0118 19:07:53.860862 10991 layer_factory.hpp:77] Creating layer conv1_10/scale
I0118 19:07:53.860870 10991 net.cpp:84] Creating Layer conv1_10/scale
I0118 19:07:53.860873 10991 net.cpp:406] conv1_10/scale <- conv1_10/bn
I0118 19:07:53.860877 10991 net.cpp:367] conv1_10/scale -> conv1_10/bn (in-place)
I0118 19:07:53.860927 10991 layer_factory.hpp:77] Creating layer conv1_10/scale
I0118 19:07:53.861069 10991 net.cpp:122] Setting up conv1_10/scale
I0118 19:07:53.861075 10991 net.cpp:129] Top shape: 1 672 23 24 (370944)
I0118 19:07:53.861078 10991 net.cpp:137] Memory required for data: 189839840
I0118 19:07:53.861083 10991 layer_factory.hpp:77] Creating layer relu1_10
I0118 19:07:53.861088 10991 net.cpp:84] Creating Layer relu1_10
I0118 19:07:53.861090 10991 net.cpp:406] relu1_10 <- conv1_10/bn
I0118 19:07:53.861095 10991 net.cpp:367] relu1_10 -> conv1_10/bn (in-place)
I0118 19:07:53.861308 10991 net.cpp:122] Setting up relu1_10
I0118 19:07:53.861316 10991 net.cpp:129] Top shape: 1 672 23 24 (370944)
I0118 19:07:53.861320 10991 net.cpp:137] Memory required for data: 191323616
I0118 19:07:53.861322 10991 layer_factory.hpp:77] Creating layer conv1_10
I0118 19:07:53.861331 10991 net.cpp:84] Creating Layer conv1_10
I0118 19:07:53.861335 10991 net.cpp:406] conv1_10 <- conv1_10/bn
I0118 19:07:53.861340 10991 net.cpp:380] conv1_10 -> conv1_10
I0118 19:07:53.867965 10991 net.cpp:122] Setting up conv1_10
I0118 19:07:53.867995 10991 net.cpp:129] Top shape: 1 32 23 24 (17664)
I0118 19:07:53.867997 10991 net.cpp:137] Memory required for data: 191394272
I0118 19:07:53.868006 10991 layer_factory.hpp:77] Creating layer concat1_10
I0118 19:07:53.868016 10991 net.cpp:84] Creating Layer concat1_10
I0118 19:07:53.868022 10991 net.cpp:406] concat1_10 <- concat1_9_concat1_9_0_split_1
I0118 19:07:53.868027 10991 net.cpp:406] concat1_10 <- conv1_10
I0118 19:07:53.868036 10991 net.cpp:380] concat1_10 -> concat1_10
I0118 19:07:53.868075 10991 net.cpp:122] Setting up concat1_10
I0118 19:07:53.868083 10991 net.cpp:129] Top shape: 1 704 23 24 (388608)
I0118 19:07:53.868085 10991 net.cpp:137] Memory required for data: 192948704
I0118 19:07:53.868088 10991 layer_factory.hpp:77] Creating layer concat1_10_concat1_10_0_split
I0118 19:07:53.868094 10991 net.cpp:84] Creating Layer concat1_10_concat1_10_0_split
I0118 19:07:53.868098 10991 net.cpp:406] concat1_10_concat1_10_0_split <- concat1_10
I0118 19:07:53.868101 10991 net.cpp:380] concat1_10_concat1_10_0_split -> concat1_10_concat1_10_0_split_0
I0118 19:07:53.868106 10991 net.cpp:380] concat1_10_concat1_10_0_split -> concat1_10_concat1_10_0_split_1
I0118 19:07:53.868139 10991 net.cpp:122] Setting up concat1_10_concat1_10_0_split
I0118 19:07:53.868144 10991 net.cpp:129] Top shape: 1 704 23 24 (388608)
I0118 19:07:53.868146 10991 net.cpp:129] Top shape: 1 704 23 24 (388608)
I0118 19:07:53.868149 10991 net.cpp:137] Memory required for data: 196057568
I0118 19:07:53.868150 10991 layer_factory.hpp:77] Creating layer conv1_11/bn
I0118 19:07:53.868158 10991 net.cpp:84] Creating Layer conv1_11/bn
I0118 19:07:53.868161 10991 net.cpp:406] conv1_11/bn <- concat1_10_concat1_10_0_split_0
I0118 19:07:53.868165 10991 net.cpp:380] conv1_11/bn -> conv1_11/bn
I0118 19:07:53.868461 10991 net.cpp:122] Setting up conv1_11/bn
I0118 19:07:53.868471 10991 net.cpp:129] Top shape: 1 704 23 24 (388608)
I0118 19:07:53.868474 10991 net.cpp:137] Memory required for data: 197612000
I0118 19:07:53.868481 10991 layer_factory.hpp:77] Creating layer conv1_11/scale
I0118 19:07:53.868489 10991 net.cpp:84] Creating Layer conv1_11/scale
I0118 19:07:53.868492 10991 net.cpp:406] conv1_11/scale <- conv1_11/bn
I0118 19:07:53.868497 10991 net.cpp:367] conv1_11/scale -> conv1_11/bn (in-place)
I0118 19:07:53.868552 10991 layer_factory.hpp:77] Creating layer conv1_11/scale
I0118 19:07:53.868691 10991 net.cpp:122] Setting up conv1_11/scale
I0118 19:07:53.868701 10991 net.cpp:129] Top shape: 1 704 23 24 (388608)
I0118 19:07:53.868705 10991 net.cpp:137] Memory required for data: 199166432
I0118 19:07:53.868708 10991 layer_factory.hpp:77] Creating layer relu1_11
I0118 19:07:53.868716 10991 net.cpp:84] Creating Layer relu1_11
I0118 19:07:53.868718 10991 net.cpp:406] relu1_11 <- conv1_11/bn
I0118 19:07:53.868721 10991 net.cpp:367] relu1_11 -> conv1_11/bn (in-place)
I0118 19:07:53.869168 10991 net.cpp:122] Setting up relu1_11
I0118 19:07:53.869179 10991 net.cpp:129] Top shape: 1 704 23 24 (388608)
I0118 19:07:53.869182 10991 net.cpp:137] Memory required for data: 200720864
I0118 19:07:53.869185 10991 layer_factory.hpp:77] Creating layer conv1_11
I0118 19:07:53.869196 10991 net.cpp:84] Creating Layer conv1_11
I0118 19:07:53.869199 10991 net.cpp:406] conv1_11 <- conv1_11/bn
I0118 19:07:53.869204 10991 net.cpp:380] conv1_11 -> conv1_11
I0118 19:07:53.878105 10991 net.cpp:122] Setting up conv1_11
I0118 19:07:53.878142 10991 net.cpp:129] Top shape: 1 32 23 24 (17664)
I0118 19:07:53.878147 10991 net.cpp:137] Memory required for data: 200791520
I0118 19:07:53.878159 10991 layer_factory.hpp:77] Creating layer concat1_11
I0118 19:07:53.878173 10991 net.cpp:84] Creating Layer concat1_11
I0118 19:07:53.878180 10991 net.cpp:406] concat1_11 <- concat1_10_concat1_10_0_split_1
I0118 19:07:53.878190 10991 net.cpp:406] concat1_11 <- conv1_11
I0118 19:07:53.878196 10991 net.cpp:380] concat1_11 -> concat1_11
I0118 19:07:53.878234 10991 net.cpp:122] Setting up concat1_11
I0118 19:07:53.878242 10991 net.cpp:129] Top shape: 1 736 23 24 (406272)
I0118 19:07:53.878245 10991 net.cpp:137] Memory required for data: 202416608
I0118 19:07:53.878249 10991 layer_factory.hpp:77] Creating layer concat1_11_concat1_11_0_split
I0118 19:07:53.878258 10991 net.cpp:84] Creating Layer concat1_11_concat1_11_0_split
I0118 19:07:53.878262 10991 net.cpp:406] concat1_11_concat1_11_0_split <- concat1_11
I0118 19:07:53.878269 10991 net.cpp:380] concat1_11_concat1_11_0_split -> concat1_11_concat1_11_0_split_0
I0118 19:07:53.878278 10991 net.cpp:380] concat1_11_concat1_11_0_split -> concat1_11_concat1_11_0_split_1
I0118 19:07:53.878320 10991 net.cpp:122] Setting up concat1_11_concat1_11_0_split
I0118 19:07:53.878327 10991 net.cpp:129] Top shape: 1 736 23 24 (406272)
I0118 19:07:53.878334 10991 net.cpp:129] Top shape: 1 736 23 24 (406272)
I0118 19:07:53.878337 10991 net.cpp:137] Memory required for data: 205666784
I0118 19:07:53.878340 10991 layer_factory.hpp:77] Creating layer conv1_12/bn
I0118 19:07:53.878350 10991 net.cpp:84] Creating Layer conv1_12/bn
I0118 19:07:53.878353 10991 net.cpp:406] conv1_12/bn <- concat1_11_concat1_11_0_split_0
I0118 19:07:53.878360 10991 net.cpp:380] conv1_12/bn -> conv1_12/bn
I0118 19:07:53.878693 10991 net.cpp:122] Setting up conv1_12/bn
I0118 19:07:53.878702 10991 net.cpp:129] Top shape: 1 736 23 24 (406272)
I0118 19:07:53.878706 10991 net.cpp:137] Memory required for data: 207291872
I0118 19:07:53.878716 10991 layer_factory.hpp:77] Creating layer conv1_12/scale
I0118 19:07:53.878727 10991 net.cpp:84] Creating Layer conv1_12/scale
I0118 19:07:53.878732 10991 net.cpp:406] conv1_12/scale <- conv1_12/bn
I0118 19:07:53.878739 10991 net.cpp:367] conv1_12/scale -> conv1_12/bn (in-place)
I0118 19:07:53.878810 10991 layer_factory.hpp:77] Creating layer conv1_12/scale
I0118 19:07:53.879020 10991 net.cpp:122] Setting up conv1_12/scale
I0118 19:07:53.879029 10991 net.cpp:129] Top shape: 1 736 23 24 (406272)
I0118 19:07:53.879034 10991 net.cpp:137] Memory required for data: 208916960
I0118 19:07:53.879041 10991 layer_factory.hpp:77] Creating layer relu1_12
I0118 19:07:53.879048 10991 net.cpp:84] Creating Layer relu1_12
I0118 19:07:53.879053 10991 net.cpp:406] relu1_12 <- conv1_12/bn
I0118 19:07:53.879061 10991 net.cpp:367] relu1_12 -> conv1_12/bn (in-place)
I0118 19:07:53.879611 10991 net.cpp:122] Setting up relu1_12
I0118 19:07:53.879624 10991 net.cpp:129] Top shape: 1 736 23 24 (406272)
I0118 19:07:53.879629 10991 net.cpp:137] Memory required for data: 210542048
I0118 19:07:53.879638 10991 layer_factory.hpp:77] Creating layer conv1_12
I0118 19:07:53.879654 10991 net.cpp:84] Creating Layer conv1_12
I0118 19:07:53.879659 10991 net.cpp:406] conv1_12 <- conv1_12/bn
I0118 19:07:53.879667 10991 net.cpp:380] conv1_12 -> conv1_12
I0118 19:07:53.892810 10991 net.cpp:122] Setting up conv1_12
I0118 19:07:53.892840 10991 net.cpp:129] Top shape: 1 32 23 24 (17664)
I0118 19:07:53.892843 10991 net.cpp:137] Memory required for data: 210612704
I0118 19:07:53.892851 10991 layer_factory.hpp:77] Creating layer concat1_12
I0118 19:07:53.892863 10991 net.cpp:84] Creating Layer concat1_12
I0118 19:07:53.892868 10991 net.cpp:406] concat1_12 <- concat1_11_concat1_11_0_split_1
I0118 19:07:53.892874 10991 net.cpp:406] concat1_12 <- conv1_12
I0118 19:07:53.892877 10991 net.cpp:380] concat1_12 -> concat1_12
I0118 19:07:53.892911 10991 net.cpp:122] Setting up concat1_12
I0118 19:07:53.892916 10991 net.cpp:129] Top shape: 1 768 23 24 (423936)
I0118 19:07:53.892918 10991 net.cpp:137] Memory required for data: 212308448
I0118 19:07:53.892920 10991 layer_factory.hpp:77] Creating layer concat1_12_concat1_12_0_split
I0118 19:07:53.892925 10991 net.cpp:84] Creating Layer concat1_12_concat1_12_0_split
I0118 19:07:53.892928 10991 net.cpp:406] concat1_12_concat1_12_0_split <- concat1_12
I0118 19:07:53.892933 10991 net.cpp:380] concat1_12_concat1_12_0_split -> concat1_12_concat1_12_0_split_0
I0118 19:07:53.892938 10991 net.cpp:380] concat1_12_concat1_12_0_split -> concat1_12_concat1_12_0_split_1
I0118 19:07:53.892968 10991 net.cpp:122] Setting up concat1_12_concat1_12_0_split
I0118 19:07:53.892973 10991 net.cpp:129] Top shape: 1 768 23 24 (423936)
I0118 19:07:53.892976 10991 net.cpp:129] Top shape: 1 768 23 24 (423936)
I0118 19:07:53.892978 10991 net.cpp:137] Memory required for data: 215699936
I0118 19:07:53.892982 10991 layer_factory.hpp:77] Creating layer conv1_13/bn
I0118 19:07:53.892985 10991 net.cpp:84] Creating Layer conv1_13/bn
I0118 19:07:53.892988 10991 net.cpp:406] conv1_13/bn <- concat1_12_concat1_12_0_split_0
I0118 19:07:53.892994 10991 net.cpp:380] conv1_13/bn -> conv1_13/bn
I0118 19:07:53.893224 10991 net.cpp:122] Setting up conv1_13/bn
I0118 19:07:53.893230 10991 net.cpp:129] Top shape: 1 768 23 24 (423936)
I0118 19:07:53.893232 10991 net.cpp:137] Memory required for data: 217395680
I0118 19:07:53.893239 10991 layer_factory.hpp:77] Creating layer conv1_13/scale
I0118 19:07:53.893247 10991 net.cpp:84] Creating Layer conv1_13/scale
I0118 19:07:53.893250 10991 net.cpp:406] conv1_13/scale <- conv1_13/bn
I0118 19:07:53.893254 10991 net.cpp:367] conv1_13/scale -> conv1_13/bn (in-place)
I0118 19:07:53.893308 10991 layer_factory.hpp:77] Creating layer conv1_13/scale
I0118 19:07:53.893443 10991 net.cpp:122] Setting up conv1_13/scale
I0118 19:07:53.893450 10991 net.cpp:129] Top shape: 1 768 23 24 (423936)
I0118 19:07:53.893452 10991 net.cpp:137] Memory required for data: 219091424
I0118 19:07:53.893457 10991 layer_factory.hpp:77] Creating layer relu1_13
I0118 19:07:53.893462 10991 net.cpp:84] Creating Layer relu1_13
I0118 19:07:53.893465 10991 net.cpp:406] relu1_13 <- conv1_13/bn
I0118 19:07:53.893471 10991 net.cpp:367] relu1_13 -> conv1_13/bn (in-place)
I0118 19:07:53.893702 10991 net.cpp:122] Setting up relu1_13
I0118 19:07:53.893709 10991 net.cpp:129] Top shape: 1 768 23 24 (423936)
I0118 19:07:53.893712 10991 net.cpp:137] Memory required for data: 220787168
I0118 19:07:53.893715 10991 layer_factory.hpp:77] Creating layer conv1_13
I0118 19:07:53.893725 10991 net.cpp:84] Creating Layer conv1_13
I0118 19:07:53.893728 10991 net.cpp:406] conv1_13 <- conv1_13/bn
I0118 19:07:53.893734 10991 net.cpp:380] conv1_13 -> conv1_13
I0118 19:07:53.902029 10991 net.cpp:122] Setting up conv1_13
I0118 19:07:53.902061 10991 net.cpp:129] Top shape: 1 32 23 24 (17664)
I0118 19:07:53.902065 10991 net.cpp:137] Memory required for data: 220857824
I0118 19:07:53.902073 10991 layer_factory.hpp:77] Creating layer concat1_13
I0118 19:07:53.902084 10991 net.cpp:84] Creating Layer concat1_13
I0118 19:07:53.902091 10991 net.cpp:406] concat1_13 <- concat1_12_concat1_12_0_split_1
I0118 19:07:53.902101 10991 net.cpp:406] concat1_13 <- conv1_13
I0118 19:07:53.902106 10991 net.cpp:380] concat1_13 -> concat1_13
I0118 19:07:53.902138 10991 net.cpp:122] Setting up concat1_13
I0118 19:07:53.902143 10991 net.cpp:129] Top shape: 1 800 23 24 (441600)
I0118 19:07:53.902145 10991 net.cpp:137] Memory required for data: 222624224
I0118 19:07:53.902148 10991 layer_factory.hpp:77] Creating layer concat1_13_concat1_13_0_split
I0118 19:07:53.902153 10991 net.cpp:84] Creating Layer concat1_13_concat1_13_0_split
I0118 19:07:53.902155 10991 net.cpp:406] concat1_13_concat1_13_0_split <- concat1_13
I0118 19:07:53.902166 10991 net.cpp:380] concat1_13_concat1_13_0_split -> concat1_13_concat1_13_0_split_0
I0118 19:07:53.902170 10991 net.cpp:380] concat1_13_concat1_13_0_split -> concat1_13_concat1_13_0_split_1
I0118 19:07:53.902204 10991 net.cpp:122] Setting up concat1_13_concat1_13_0_split
I0118 19:07:53.902209 10991 net.cpp:129] Top shape: 1 800 23 24 (441600)
I0118 19:07:53.902211 10991 net.cpp:129] Top shape: 1 800 23 24 (441600)
I0118 19:07:53.902215 10991 net.cpp:137] Memory required for data: 226157024
I0118 19:07:53.902216 10991 layer_factory.hpp:77] Creating layer conv1_14/bn
I0118 19:07:53.902223 10991 net.cpp:84] Creating Layer conv1_14/bn
I0118 19:07:53.902226 10991 net.cpp:406] conv1_14/bn <- concat1_13_concat1_13_0_split_0
I0118 19:07:53.902231 10991 net.cpp:380] conv1_14/bn -> conv1_14/bn
I0118 19:07:53.902477 10991 net.cpp:122] Setting up conv1_14/bn
I0118 19:07:53.902483 10991 net.cpp:129] Top shape: 1 800 23 24 (441600)
I0118 19:07:53.902485 10991 net.cpp:137] Memory required for data: 227923424
I0118 19:07:53.902493 10991 layer_factory.hpp:77] Creating layer conv1_14/scale
I0118 19:07:53.902499 10991 net.cpp:84] Creating Layer conv1_14/scale
I0118 19:07:53.902503 10991 net.cpp:406] conv1_14/scale <- conv1_14/bn
I0118 19:07:53.902508 10991 net.cpp:367] conv1_14/scale -> conv1_14/bn (in-place)
I0118 19:07:53.902561 10991 layer_factory.hpp:77] Creating layer conv1_14/scale
I0118 19:07:53.902709 10991 net.cpp:122] Setting up conv1_14/scale
I0118 19:07:53.902716 10991 net.cpp:129] Top shape: 1 800 23 24 (441600)
I0118 19:07:53.902719 10991 net.cpp:137] Memory required for data: 229689824
I0118 19:07:53.902724 10991 layer_factory.hpp:77] Creating layer relu1_14
I0118 19:07:53.902729 10991 net.cpp:84] Creating Layer relu1_14
I0118 19:07:53.902731 10991 net.cpp:406] relu1_14 <- conv1_14/bn
I0118 19:07:53.902736 10991 net.cpp:367] relu1_14 -> conv1_14/bn (in-place)
I0118 19:07:53.903419 10991 net.cpp:122] Setting up relu1_14
I0118 19:07:53.903432 10991 net.cpp:129] Top shape: 1 800 23 24 (441600)
I0118 19:07:53.903435 10991 net.cpp:137] Memory required for data: 231456224
I0118 19:07:53.903439 10991 layer_factory.hpp:77] Creating layer conv1_14
I0118 19:07:53.903455 10991 net.cpp:84] Creating Layer conv1_14
I0118 19:07:53.903458 10991 net.cpp:406] conv1_14 <- conv1_14/bn
I0118 19:07:53.903465 10991 net.cpp:380] conv1_14 -> conv1_14
I0118 19:07:53.912788 10991 net.cpp:122] Setting up conv1_14
I0118 19:07:53.912819 10991 net.cpp:129] Top shape: 1 32 23 24 (17664)
I0118 19:07:53.912822 10991 net.cpp:137] Memory required for data: 231526880
I0118 19:07:53.912832 10991 layer_factory.hpp:77] Creating layer concat1_14
I0118 19:07:53.912842 10991 net.cpp:84] Creating Layer concat1_14
I0118 19:07:53.912847 10991 net.cpp:406] concat1_14 <- concat1_13_concat1_13_0_split_1
I0118 19:07:53.912853 10991 net.cpp:406] concat1_14 <- conv1_14
I0118 19:07:53.912859 10991 net.cpp:380] concat1_14 -> concat1_14
I0118 19:07:53.912890 10991 net.cpp:122] Setting up concat1_14
I0118 19:07:53.912894 10991 net.cpp:129] Top shape: 1 832 23 24 (459264)
I0118 19:07:53.912897 10991 net.cpp:137] Memory required for data: 233363936
I0118 19:07:53.912899 10991 layer_factory.hpp:77] Creating layer concat1_14_concat1_14_0_split
I0118 19:07:53.912904 10991 net.cpp:84] Creating Layer concat1_14_concat1_14_0_split
I0118 19:07:53.912906 10991 net.cpp:406] concat1_14_concat1_14_0_split <- concat1_14
I0118 19:07:53.912911 10991 net.cpp:380] concat1_14_concat1_14_0_split -> concat1_14_concat1_14_0_split_0
I0118 19:07:53.912920 10991 net.cpp:380] concat1_14_concat1_14_0_split -> concat1_14_concat1_14_0_split_1
I0118 19:07:53.912955 10991 net.cpp:122] Setting up concat1_14_concat1_14_0_split
I0118 19:07:53.912958 10991 net.cpp:129] Top shape: 1 832 23 24 (459264)
I0118 19:07:53.912961 10991 net.cpp:129] Top shape: 1 832 23 24 (459264)
I0118 19:07:53.912963 10991 net.cpp:137] Memory required for data: 237038048
I0118 19:07:53.912966 10991 layer_factory.hpp:77] Creating layer conv1_15/bn
I0118 19:07:53.912972 10991 net.cpp:84] Creating Layer conv1_15/bn
I0118 19:07:53.912974 10991 net.cpp:406] conv1_15/bn <- concat1_14_concat1_14_0_split_0
I0118 19:07:53.912979 10991 net.cpp:380] conv1_15/bn -> conv1_15/bn
I0118 19:07:53.913229 10991 net.cpp:122] Setting up conv1_15/bn
I0118 19:07:53.913236 10991 net.cpp:129] Top shape: 1 832 23 24 (459264)
I0118 19:07:53.913239 10991 net.cpp:137] Memory required for data: 238875104
I0118 19:07:53.913245 10991 layer_factory.hpp:77] Creating layer conv1_15/scale
I0118 19:07:53.913252 10991 net.cpp:84] Creating Layer conv1_15/scale
I0118 19:07:53.913255 10991 net.cpp:406] conv1_15/scale <- conv1_15/bn
I0118 19:07:53.913260 10991 net.cpp:367] conv1_15/scale -> conv1_15/bn (in-place)
I0118 19:07:53.913317 10991 layer_factory.hpp:77] Creating layer conv1_15/scale
I0118 19:07:53.913471 10991 net.cpp:122] Setting up conv1_15/scale
I0118 19:07:53.913477 10991 net.cpp:129] Top shape: 1 832 23 24 (459264)
I0118 19:07:53.913480 10991 net.cpp:137] Memory required for data: 240712160
I0118 19:07:53.913483 10991 layer_factory.hpp:77] Creating layer relu1_15
I0118 19:07:53.913488 10991 net.cpp:84] Creating Layer relu1_15
I0118 19:07:53.913491 10991 net.cpp:406] relu1_15 <- conv1_15/bn
I0118 19:07:53.913496 10991 net.cpp:367] relu1_15 -> conv1_15/bn (in-place)
I0118 19:07:53.913734 10991 net.cpp:122] Setting up relu1_15
I0118 19:07:53.913744 10991 net.cpp:129] Top shape: 1 832 23 24 (459264)
I0118 19:07:53.913746 10991 net.cpp:137] Memory required for data: 242549216
I0118 19:07:53.913749 10991 layer_factory.hpp:77] Creating layer conv1_15
I0118 19:07:53.913758 10991 net.cpp:84] Creating Layer conv1_15
I0118 19:07:53.913761 10991 net.cpp:406] conv1_15 <- conv1_15/bn
I0118 19:07:53.913766 10991 net.cpp:380] conv1_15 -> conv1_15
I0118 19:07:53.922273 10991 net.cpp:122] Setting up conv1_15
I0118 19:07:53.922309 10991 net.cpp:129] Top shape: 1 32 23 24 (17664)
I0118 19:07:53.922314 10991 net.cpp:137] Memory required for data: 242619872
I0118 19:07:53.922325 10991 layer_factory.hpp:77] Creating layer concat1_15
I0118 19:07:53.922339 10991 net.cpp:84] Creating Layer concat1_15
I0118 19:07:53.922346 10991 net.cpp:406] concat1_15 <- concat1_14_concat1_14_0_split_1
I0118 19:07:53.922355 10991 net.cpp:406] concat1_15 <- conv1_15
I0118 19:07:53.922363 10991 net.cpp:380] concat1_15 -> concat1_15
I0118 19:07:53.922405 10991 net.cpp:122] Setting up concat1_15
I0118 19:07:53.922412 10991 net.cpp:129] Top shape: 1 864 23 24 (476928)
I0118 19:07:53.922416 10991 net.cpp:137] Memory required for data: 244527584
I0118 19:07:53.922420 10991 layer_factory.hpp:77] Creating layer concat1_15_concat1_15_0_split
I0118 19:07:53.922427 10991 net.cpp:84] Creating Layer concat1_15_concat1_15_0_split
I0118 19:07:53.922431 10991 net.cpp:406] concat1_15_concat1_15_0_split <- concat1_15
I0118 19:07:53.922438 10991 net.cpp:380] concat1_15_concat1_15_0_split -> concat1_15_concat1_15_0_split_0
I0118 19:07:53.922446 10991 net.cpp:380] concat1_15_concat1_15_0_split -> concat1_15_concat1_15_0_split_1
I0118 19:07:53.922492 10991 net.cpp:122] Setting up concat1_15_concat1_15_0_split
I0118 19:07:53.922498 10991 net.cpp:129] Top shape: 1 864 23 24 (476928)
I0118 19:07:53.922503 10991 net.cpp:129] Top shape: 1 864 23 24 (476928)
I0118 19:07:53.922508 10991 net.cpp:137] Memory required for data: 248343008
I0118 19:07:53.922511 10991 layer_factory.hpp:77] Creating layer conv1_16/bn
I0118 19:07:53.922525 10991 net.cpp:84] Creating Layer conv1_16/bn
I0118 19:07:53.922530 10991 net.cpp:406] conv1_16/bn <- concat1_15_concat1_15_0_split_0
I0118 19:07:53.922544 10991 net.cpp:380] conv1_16/bn -> conv1_16/bn
I0118 19:07:53.922894 10991 net.cpp:122] Setting up conv1_16/bn
I0118 19:07:53.922902 10991 net.cpp:129] Top shape: 1 864 23 24 (476928)
I0118 19:07:53.922906 10991 net.cpp:137] Memory required for data: 250250720
I0118 19:07:53.922916 10991 layer_factory.hpp:77] Creating layer conv1_16/scale
I0118 19:07:53.922925 10991 net.cpp:84] Creating Layer conv1_16/scale
I0118 19:07:53.922930 10991 net.cpp:406] conv1_16/scale <- conv1_16/bn
I0118 19:07:53.922938 10991 net.cpp:367] conv1_16/scale -> conv1_16/bn (in-place)
I0118 19:07:53.923012 10991 layer_factory.hpp:77] Creating layer conv1_16/scale
I0118 19:07:53.923231 10991 net.cpp:122] Setting up conv1_16/scale
I0118 19:07:53.923240 10991 net.cpp:129] Top shape: 1 864 23 24 (476928)
I0118 19:07:53.923244 10991 net.cpp:137] Memory required for data: 252158432
I0118 19:07:53.923251 10991 layer_factory.hpp:77] Creating layer relu1_16
I0118 19:07:53.923259 10991 net.cpp:84] Creating Layer relu1_16
I0118 19:07:53.923264 10991 net.cpp:406] relu1_16 <- conv1_16/bn
I0118 19:07:53.923271 10991 net.cpp:367] relu1_16 -> conv1_16/bn (in-place)
I0118 19:07:53.923813 10991 net.cpp:122] Setting up relu1_16
I0118 19:07:53.923828 10991 net.cpp:129] Top shape: 1 864 23 24 (476928)
I0118 19:07:53.923832 10991 net.cpp:137] Memory required for data: 254066144
I0118 19:07:53.923837 10991 layer_factory.hpp:77] Creating layer conv1_16
I0118 19:07:53.923851 10991 net.cpp:84] Creating Layer conv1_16
I0118 19:07:53.923856 10991 net.cpp:406] conv1_16 <- conv1_16/bn
I0118 19:07:53.923866 10991 net.cpp:380] conv1_16 -> conv1_16
I0118 19:07:53.936448 10991 net.cpp:122] Setting up conv1_16
I0118 19:07:53.936480 10991 net.cpp:129] Top shape: 1 32 23 24 (17664)
I0118 19:07:53.936482 10991 net.cpp:137] Memory required for data: 254136800
I0118 19:07:53.936491 10991 layer_factory.hpp:77] Creating layer concat1_16
I0118 19:07:53.936502 10991 net.cpp:84] Creating Layer concat1_16
I0118 19:07:53.936509 10991 net.cpp:406] concat1_16 <- concat1_15_concat1_15_0_split_1
I0118 19:07:53.936516 10991 net.cpp:406] concat1_16 <- conv1_16
I0118 19:07:53.936519 10991 net.cpp:380] concat1_16 -> concat1_16
I0118 19:07:53.936552 10991 net.cpp:122] Setting up concat1_16
I0118 19:07:53.936556 10991 net.cpp:129] Top shape: 1 896 23 24 (494592)
I0118 19:07:53.936559 10991 net.cpp:137] Memory required for data: 256115168
I0118 19:07:53.936561 10991 layer_factory.hpp:77] Creating layer concat1_16_concat1_16_0_split
I0118 19:07:53.936565 10991 net.cpp:84] Creating Layer concat1_16_concat1_16_0_split
I0118 19:07:53.936568 10991 net.cpp:406] concat1_16_concat1_16_0_split <- concat1_16
I0118 19:07:53.936573 10991 net.cpp:380] concat1_16_concat1_16_0_split -> concat1_16_concat1_16_0_split_0
I0118 19:07:53.936578 10991 net.cpp:380] concat1_16_concat1_16_0_split -> concat1_16_concat1_16_0_split_1
I0118 19:07:53.936609 10991 net.cpp:122] Setting up concat1_16_concat1_16_0_split
I0118 19:07:53.936614 10991 net.cpp:129] Top shape: 1 896 23 24 (494592)
I0118 19:07:53.936617 10991 net.cpp:129] Top shape: 1 896 23 24 (494592)
I0118 19:07:53.936619 10991 net.cpp:137] Memory required for data: 260071904
I0118 19:07:53.936621 10991 layer_factory.hpp:77] Creating layer conv1_17/bn
I0118 19:07:53.936630 10991 net.cpp:84] Creating Layer conv1_17/bn
I0118 19:07:53.936632 10991 net.cpp:406] conv1_17/bn <- concat1_16_concat1_16_0_split_0
I0118 19:07:53.936636 10991 net.cpp:380] conv1_17/bn -> conv1_17/bn
I0118 19:07:53.936866 10991 net.cpp:122] Setting up conv1_17/bn
I0118 19:07:53.936872 10991 net.cpp:129] Top shape: 1 896 23 24 (494592)
I0118 19:07:53.936874 10991 net.cpp:137] Memory required for data: 262050272
I0118 19:07:53.936880 10991 layer_factory.hpp:77] Creating layer conv1_17/scale
I0118 19:07:53.936887 10991 net.cpp:84] Creating Layer conv1_17/scale
I0118 19:07:53.936890 10991 net.cpp:406] conv1_17/scale <- conv1_17/bn
I0118 19:07:53.936893 10991 net.cpp:367] conv1_17/scale -> conv1_17/bn (in-place)
I0118 19:07:53.936952 10991 layer_factory.hpp:77] Creating layer conv1_17/scale
I0118 19:07:53.937094 10991 net.cpp:122] Setting up conv1_17/scale
I0118 19:07:53.937100 10991 net.cpp:129] Top shape: 1 896 23 24 (494592)
I0118 19:07:53.937103 10991 net.cpp:137] Memory required for data: 264028640
I0118 19:07:53.937108 10991 layer_factory.hpp:77] Creating layer relu1_17
I0118 19:07:53.937113 10991 net.cpp:84] Creating Layer relu1_17
I0118 19:07:53.937114 10991 net.cpp:406] relu1_17 <- conv1_17/bn
I0118 19:07:53.937119 10991 net.cpp:367] relu1_17 -> conv1_17/bn (in-place)
I0118 19:07:53.937588 10991 net.cpp:122] Setting up relu1_17
I0118 19:07:53.937599 10991 net.cpp:129] Top shape: 1 896 23 24 (494592)
I0118 19:07:53.937602 10991 net.cpp:137] Memory required for data: 266007008
I0118 19:07:53.937604 10991 layer_factory.hpp:77] Creating layer conv1_17
I0118 19:07:53.937615 10991 net.cpp:84] Creating Layer conv1_17
I0118 19:07:53.937618 10991 net.cpp:406] conv1_17 <- conv1_17/bn
I0118 19:07:53.937624 10991 net.cpp:380] conv1_17 -> conv1_17
I0118 19:07:53.946946 10991 net.cpp:122] Setting up conv1_17
I0118 19:07:53.946974 10991 net.cpp:129] Top shape: 1 32 23 24 (17664)
I0118 19:07:53.946977 10991 net.cpp:137] Memory required for data: 266077664
I0118 19:07:53.946985 10991 layer_factory.hpp:77] Creating layer concat1_17
I0118 19:07:53.946993 10991 net.cpp:84] Creating Layer concat1_17
I0118 19:07:53.946998 10991 net.cpp:406] concat1_17 <- concat1_16_concat1_16_0_split_1
I0118 19:07:53.947006 10991 net.cpp:406] concat1_17 <- conv1_17
I0118 19:07:53.947011 10991 net.cpp:380] concat1_17 -> concat1_17
I0118 19:07:53.947042 10991 net.cpp:122] Setting up concat1_17
I0118 19:07:53.947047 10991 net.cpp:129] Top shape: 1 928 23 24 (512256)
I0118 19:07:53.947049 10991 net.cpp:137] Memory required for data: 268126688
I0118 19:07:53.947052 10991 layer_factory.hpp:77] Creating layer concat1_17_concat1_17_0_split
I0118 19:07:53.947057 10991 net.cpp:84] Creating Layer concat1_17_concat1_17_0_split
I0118 19:07:53.947058 10991 net.cpp:406] concat1_17_concat1_17_0_split <- concat1_17
I0118 19:07:53.947062 10991 net.cpp:380] concat1_17_concat1_17_0_split -> concat1_17_concat1_17_0_split_0
I0118 19:07:53.947068 10991 net.cpp:380] concat1_17_concat1_17_0_split -> concat1_17_concat1_17_0_split_1
I0118 19:07:53.947101 10991 net.cpp:122] Setting up concat1_17_concat1_17_0_split
I0118 19:07:53.947105 10991 net.cpp:129] Top shape: 1 928 23 24 (512256)
I0118 19:07:53.947108 10991 net.cpp:129] Top shape: 1 928 23 24 (512256)
I0118 19:07:53.947110 10991 net.cpp:137] Memory required for data: 272224736
I0118 19:07:53.947113 10991 layer_factory.hpp:77] Creating layer conv1_18/bn
I0118 19:07:53.947118 10991 net.cpp:84] Creating Layer conv1_18/bn
I0118 19:07:53.947121 10991 net.cpp:406] conv1_18/bn <- concat1_17_concat1_17_0_split_0
I0118 19:07:53.947127 10991 net.cpp:380] conv1_18/bn -> conv1_18/bn
I0118 19:07:53.947377 10991 net.cpp:122] Setting up conv1_18/bn
I0118 19:07:53.947383 10991 net.cpp:129] Top shape: 1 928 23 24 (512256)
I0118 19:07:53.947386 10991 net.cpp:137] Memory required for data: 274273760
I0118 19:07:53.947391 10991 layer_factory.hpp:77] Creating layer conv1_18/scale
I0118 19:07:53.947398 10991 net.cpp:84] Creating Layer conv1_18/scale
I0118 19:07:53.947402 10991 net.cpp:406] conv1_18/scale <- conv1_18/bn
I0118 19:07:53.947404 10991 net.cpp:367] conv1_18/scale -> conv1_18/bn (in-place)
I0118 19:07:53.947460 10991 layer_factory.hpp:77] Creating layer conv1_18/scale
I0118 19:07:53.947618 10991 net.cpp:122] Setting up conv1_18/scale
I0118 19:07:53.947623 10991 net.cpp:129] Top shape: 1 928 23 24 (512256)
I0118 19:07:53.947626 10991 net.cpp:137] Memory required for data: 276322784
I0118 19:07:53.947630 10991 layer_factory.hpp:77] Creating layer relu1_18
I0118 19:07:53.947635 10991 net.cpp:84] Creating Layer relu1_18
I0118 19:07:53.947638 10991 net.cpp:406] relu1_18 <- conv1_18/bn
I0118 19:07:53.947641 10991 net.cpp:367] relu1_18 -> conv1_18/bn (in-place)
I0118 19:07:53.947863 10991 net.cpp:122] Setting up relu1_18
I0118 19:07:53.947872 10991 net.cpp:129] Top shape: 1 928 23 24 (512256)
I0118 19:07:53.947878 10991 net.cpp:137] Memory required for data: 278371808
I0118 19:07:53.947881 10991 layer_factory.hpp:77] Creating layer conv1_18
I0118 19:07:53.947891 10991 net.cpp:84] Creating Layer conv1_18
I0118 19:07:53.947895 10991 net.cpp:406] conv1_18 <- conv1_18/bn
I0118 19:07:53.947899 10991 net.cpp:380] conv1_18 -> conv1_18
I0118 19:07:53.957166 10991 net.cpp:122] Setting up conv1_18
I0118 19:07:53.957206 10991 net.cpp:129] Top shape: 1 32 23 24 (17664)
I0118 19:07:53.957211 10991 net.cpp:137] Memory required for data: 278442464
I0118 19:07:53.957221 10991 layer_factory.hpp:77] Creating layer concat1_18
I0118 19:07:53.957234 10991 net.cpp:84] Creating Layer concat1_18
I0118 19:07:53.957242 10991 net.cpp:406] concat1_18 <- concat1_17_concat1_17_0_split_1
I0118 19:07:53.957250 10991 net.cpp:406] concat1_18 <- conv1_18
I0118 19:07:53.957257 10991 net.cpp:380] concat1_18 -> concat1_18
I0118 19:07:53.957304 10991 net.cpp:122] Setting up concat1_18
I0118 19:07:53.957311 10991 net.cpp:129] Top shape: 1 960 23 24 (529920)
I0118 19:07:53.957315 10991 net.cpp:137] Memory required for data: 280562144
I0118 19:07:53.957319 10991 layer_factory.hpp:77] Creating layer concat1_18_concat1_18_0_split
I0118 19:07:53.957329 10991 net.cpp:84] Creating Layer concat1_18_concat1_18_0_split
I0118 19:07:53.957332 10991 net.cpp:406] concat1_18_concat1_18_0_split <- concat1_18
I0118 19:07:53.957339 10991 net.cpp:380] concat1_18_concat1_18_0_split -> concat1_18_concat1_18_0_split_0
I0118 19:07:53.957345 10991 net.cpp:380] concat1_18_concat1_18_0_split -> concat1_18_concat1_18_0_split_1
I0118 19:07:53.957396 10991 net.cpp:122] Setting up concat1_18_concat1_18_0_split
I0118 19:07:53.957403 10991 net.cpp:129] Top shape: 1 960 23 24 (529920)
I0118 19:07:53.957408 10991 net.cpp:129] Top shape: 1 960 23 24 (529920)
I0118 19:07:53.957412 10991 net.cpp:137] Memory required for data: 284801504
I0118 19:07:53.957417 10991 layer_factory.hpp:77] Creating layer conv1_19/bn
I0118 19:07:53.957423 10991 net.cpp:84] Creating Layer conv1_19/bn
I0118 19:07:53.957427 10991 net.cpp:406] conv1_19/bn <- concat1_18_concat1_18_0_split_0
I0118 19:07:53.957435 10991 net.cpp:380] conv1_19/bn -> conv1_19/bn
I0118 19:07:53.957799 10991 net.cpp:122] Setting up conv1_19/bn
I0118 19:07:53.957809 10991 net.cpp:129] Top shape: 1 960 23 24 (529920)
I0118 19:07:53.957813 10991 net.cpp:137] Memory required for data: 286921184
I0118 19:07:53.957823 10991 layer_factory.hpp:77] Creating layer conv1_19/scale
I0118 19:07:53.957834 10991 net.cpp:84] Creating Layer conv1_19/scale
I0118 19:07:53.957837 10991 net.cpp:406] conv1_19/scale <- conv1_19/bn
I0118 19:07:53.957844 10991 net.cpp:367] conv1_19/scale -> conv1_19/bn (in-place)
I0118 19:07:53.957922 10991 layer_factory.hpp:77] Creating layer conv1_19/scale
I0118 19:07:53.958144 10991 net.cpp:122] Setting up conv1_19/scale
I0118 19:07:53.958153 10991 net.cpp:129] Top shape: 1 960 23 24 (529920)
I0118 19:07:53.958158 10991 net.cpp:137] Memory required for data: 289040864
I0118 19:07:53.958165 10991 layer_factory.hpp:77] Creating layer relu1_19
I0118 19:07:53.958174 10991 net.cpp:84] Creating Layer relu1_19
I0118 19:07:53.958179 10991 net.cpp:406] relu1_19 <- conv1_19/bn
I0118 19:07:53.958184 10991 net.cpp:367] relu1_19 -> conv1_19/bn (in-place)
I0118 19:07:53.958827 10991 net.cpp:122] Setting up relu1_19
I0118 19:07:53.958843 10991 net.cpp:129] Top shape: 1 960 23 24 (529920)
I0118 19:07:53.958847 10991 net.cpp:137] Memory required for data: 291160544
I0118 19:07:53.958853 10991 layer_factory.hpp:77] Creating layer conv1_19
I0118 19:07:53.958868 10991 net.cpp:84] Creating Layer conv1_19
I0118 19:07:53.958873 10991 net.cpp:406] conv1_19 <- conv1_19/bn
I0118 19:07:53.958881 10991 net.cpp:380] conv1_19 -> conv1_19
I0118 19:07:53.972028 10991 net.cpp:122] Setting up conv1_19
I0118 19:07:53.972064 10991 net.cpp:129] Top shape: 1 32 23 24 (17664)
I0118 19:07:53.972067 10991 net.cpp:137] Memory required for data: 291231200
I0118 19:07:53.972077 10991 layer_factory.hpp:77] Creating layer concat1_19
I0118 19:07:53.972093 10991 net.cpp:84] Creating Layer concat1_19
I0118 19:07:53.972100 10991 net.cpp:406] concat1_19 <- concat1_18_concat1_18_0_split_1
I0118 19:07:53.972108 10991 net.cpp:406] concat1_19 <- conv1_19
I0118 19:07:53.972116 10991 net.cpp:380] concat1_19 -> concat1_19
I0118 19:07:53.972157 10991 net.cpp:122] Setting up concat1_19
I0118 19:07:53.972164 10991 net.cpp:129] Top shape: 1 992 23 24 (547584)
I0118 19:07:53.972168 10991 net.cpp:137] Memory required for data: 293421536
I0118 19:07:53.972172 10991 layer_factory.hpp:77] Creating layer tpp5
I0118 19:07:53.972180 10991 net.cpp:84] Creating Layer tpp5
I0118 19:07:53.972184 10991 net.cpp:406] tpp5 <- concat1_19
I0118 19:07:53.972190 10991 net.cpp:380] tpp5 -> tpp5
I0118 19:07:53.972781 10991 net.cpp:122] Setting up tpp5
I0118 19:07:53.972792 10991 net.cpp:129] Top shape: 1 14880 (14880)
I0118 19:07:53.972796 10991 net.cpp:137] Memory required for data: 293481056
I0118 19:07:53.972800 10991 layer_factory.hpp:77] Creating layer fc6_d
I0118 19:07:53.972810 10991 net.cpp:84] Creating Layer fc6_d
I0118 19:07:53.972815 10991 net.cpp:406] fc6_d <- tpp5
I0118 19:07:53.972821 10991 net.cpp:380] fc6_d -> fc6_d
I0118 19:07:55.855654 10991 net.cpp:122] Setting up fc6_d
I0118 19:07:55.855682 10991 net.cpp:129] Top shape: 1 4096 (4096)
I0118 19:07:55.855685 10991 net.cpp:137] Memory required for data: 293497440
I0118 19:07:55.855695 10991 layer_factory.hpp:77] Creating layer relu6
I0118 19:07:55.855703 10991 net.cpp:84] Creating Layer relu6
I0118 19:07:55.855707 10991 net.cpp:406] relu6 <- fc6_d
I0118 19:07:55.855712 10991 net.cpp:367] relu6 -> fc6_d (in-place)
I0118 19:07:55.856027 10991 net.cpp:122] Setting up relu6
I0118 19:07:55.856036 10991 net.cpp:129] Top shape: 1 4096 (4096)
I0118 19:07:55.856039 10991 net.cpp:137] Memory required for data: 293513824
I0118 19:07:55.856041 10991 layer_factory.hpp:77] Creating layer fc7_d
I0118 19:07:55.856050 10991 net.cpp:84] Creating Layer fc7_d
I0118 19:07:55.856053 10991 net.cpp:406] fc7_d <- fc6_d
I0118 19:07:55.856057 10991 net.cpp:380] fc7_d -> fc7_d
I0118 19:07:56.272079 10991 net.cpp:122] Setting up fc7_d
I0118 19:07:56.272109 10991 net.cpp:129] Top shape: 1 4096 (4096)
I0118 19:07:56.272112 10991 net.cpp:137] Memory required for data: 293530208
I0118 19:07:56.272120 10991 layer_factory.hpp:77] Creating layer relu7
I0118 19:07:56.272130 10991 net.cpp:84] Creating Layer relu7
I0118 19:07:56.272135 10991 net.cpp:406] relu7 <- fc7_d
I0118 19:07:56.272140 10991 net.cpp:367] relu7 -> fc7_d (in-place)
I0118 19:07:56.272755 10991 net.cpp:122] Setting up relu7
I0118 19:07:56.272765 10991 net.cpp:129] Top shape: 1 4096 (4096)
I0118 19:07:56.272768 10991 net.cpp:137] Memory required for data: 293546592
I0118 19:07:56.272771 10991 layer_factory.hpp:77] Creating layer fc8_d
I0118 19:07:56.272779 10991 net.cpp:84] Creating Layer fc8_d
I0118 19:07:56.272783 10991 net.cpp:406] fc8_d <- fc7_d
I0118 19:07:56.272786 10991 net.cpp:380] fc8_d -> fc8_d
I0118 19:07:56.335971 10991 net.cpp:122] Setting up fc8_d
I0118 19:07:56.336000 10991 net.cpp:129] Top shape: 1 618 (618)
I0118 19:07:56.336004 10991 net.cpp:137] Memory required for data: 293549064
I0118 19:07:56.336011 10991 layer_factory.hpp:77] Creating layer fc8_d_fc8_d_0_split
I0118 19:07:56.336020 10991 net.cpp:84] Creating Layer fc8_d_fc8_d_0_split
I0118 19:07:56.336024 10991 net.cpp:406] fc8_d_fc8_d_0_split <- fc8_d
I0118 19:07:56.336030 10991 net.cpp:380] fc8_d_fc8_d_0_split -> fc8_d_fc8_d_0_split_0
I0118 19:07:56.336037 10991 net.cpp:380] fc8_d_fc8_d_0_split -> fc8_d_fc8_d_0_split_1
I0118 19:07:56.336074 10991 net.cpp:122] Setting up fc8_d_fc8_d_0_split
I0118 19:07:56.336079 10991 net.cpp:129] Top shape: 1 618 (618)
I0118 19:07:56.336082 10991 net.cpp:129] Top shape: 1 618 (618)
I0118 19:07:56.336086 10991 net.cpp:137] Memory required for data: 293554008
I0118 19:07:56.336087 10991 layer_factory.hpp:77] Creating layer sigmoid
I0118 19:07:56.336096 10991 net.cpp:84] Creating Layer sigmoid
I0118 19:07:56.336098 10991 net.cpp:406] sigmoid <- fc8_d_fc8_d_0_split_0
I0118 19:07:56.336102 10991 net.cpp:380] sigmoid -> sigmoid
I0118 19:07:56.336705 10991 net.cpp:122] Setting up sigmoid
I0118 19:07:56.336716 10991 net.cpp:129] Top shape: 1 618 (618)
I0118 19:07:56.336719 10991 net.cpp:137] Memory required for data: 293556480
I0118 19:07:56.336722 10991 layer_factory.hpp:77] Creating layer silence
I0118 19:07:56.336729 10991 net.cpp:84] Creating Layer silence
I0118 19:07:56.336731 10991 net.cpp:406] silence <- sigmoid
I0118 19:07:56.336735 10991 net.cpp:122] Setting up silence
I0118 19:07:56.336737 10991 net.cpp:137] Memory required for data: 293556480
…
