…
  phase: TRAIN
}
layer {
  name: "word_images"
  type: "Data"
  top: "word_images"
  top: "label"
  transform_param {
    scale: -0.0039215689
    mean_value: 255
  }
  data_param {
    source: "/data/fwolf/iam_50000/iam-db_nti500000_pul2-3-4-5_train_word_images_lmdb"
    batch_size: 1
    backend: LMDB
    prefetch: 20
  }
}
layer {
  name: "phocs"
  type: "Data"
  top: "phocs"
  top: "label_phocs"
  data_param {
    source: "/data/fwolf/iam_50000/iam-db_nti500000_pul2-3-4-5_train_phocs_lmdb"
    batch_size: 1
    backend: LMDB
    prefetch: 20
  }
}
layer {
  name: "conv_init"
  type: "Convolution"
  bottom: "word_images"
  top: "conv_init"
  convolution_param {
    num_output: 32
    bias_term: false
    pad: 1
    kernel_size: 3
    stride: 1
    weight_filler {
      type: "msra"
    }
    bias_filler {
      type: "constant"
    }
    engine: CUDNN
  }
}
layer {
  name: "bn_init"
  type: "BatchNorm"
  bottom: "conv_init"
  top: "bn_init"
  param {
    lr_mult: 0
    decay_mult: 0
  }
  param {
    lr_mult: 0
    decay_mult: 0
  }
  param {
    lr_mult: 0
    decay_mult: 0
  }
  batch_norm_param {
    eps: 1e-05
  }
}
layer {
  name: "scale_init"
  type: "Scale"
  bottom: "bn_init"
  top: "bn_init"
  scale_param {
    filler {
      value: 1
    }
    bias_term: true
    bias_filler {
      value: 0
    }
  }
}
layer {
  name: "relu_init"
  type: "ReLU"
  bottom: "bn_init"
  top: "bn_init"
}
layer {
  name: "pool_init"
  type: "Pooling"
  bottom: "bn_init"
  top: "pool_init"
  pooling_param {
    pool: MAX
    kernel_size: 3
    stride: 2
    pad: 1
  }
}
layer {
  name: "conv0_0/bn"
  type: "BatchNorm"
  bottom: "pool_init"
  top: "conv0_0/bn"
  param {
    lr_mult: 0
    decay_mult: 0
  }
  param {
    lr_mult: 0
    decay_mult: 0
  }
  param {
    lr_mult: 0
    decay_mult: 0
  }
}
layer {
  name: "conv0_0/scale"
  type: "Scale"
  bottom: "conv0_0/bn"
  top: "conv0_0/bn"
  scale_param {
    filler {
      value: 1
    }
    bias_term: true
    bias_filler {
      value: 0
    }
  }
}
layer {
  name: "relu0_0"
  type: "ReLU"
  bottom: "conv0_0/bn"
  top: "conv0_0/bn"
}
layer {
  name: "conv0_0"
  type: "Convolution"
  bottom: "conv0_0/bn"
  top: "conv0_0"
  convolution_param {
    num_output: 32
    bias_term: false
    pad: 1
    kernel_size: 3
    stride: 1
    weight_filler {
      type: "msra"
    }
    bias_filler {
      type: "constant"
    }
    engine: CUDNN
  }
}
layer {
  name: "concat0_0"
  type: "Concat"
  bottom: "pool_init"
  bottom: "conv0_0"
  top: "concat0_0"
  concat_param {
    axis: 1
  }
}
layer {
  name: "conv0_1/bn"
  type: "BatchNorm"
  bottom: "concat0_0"
  top: "conv0_1/bn"
  param {
    lr_mult: 0
    decay_mult: 0
  }
  param {
    lr_mult: 0
    decay_mult: 0
  }
  param {
    lr_mult: 0
    decay_mult: 0
  }
}
layer {
  name: "conv0_1/scale"
  type: "Scale"
  bottom: "conv0_1/bn"
  top: "conv0_1/bn"
  scale_param {
    filler {
      value: 1
    }
    bias_term: true
    bias_filler {
      value: 0
    }
  }
}
layer {
  name: "relu0_1"
  type: "ReLU"
  bottom: "conv0_1/bn"
  top: "conv0_1/bn"
}
layer {
  name: "conv0_1"
  type: "Convolution"
  bottom: "conv0_1/bn"
  top: "conv0_1"
  convolution_param {
    num_output: 32
    bias_term: false
    pad: 1
    kernel_size: 3
    stride: 1
    weight_filler {
      type: "msra"
    }
    bias_filler {
      type: "constant"
    }
    engine: CUDNN
  }
}
layer {
  name: "concat0_1"
  type: "Concat"
  bottom: "concat0_0"
  bottom: "conv0_1"
  top: "concat0_1"
  concat_param {
    axis: 1
  }
}
layer {
  name: "conv0_2/bn"
  type: "BatchNorm"
  bottom: "concat0_1"
  top: "conv0_2/bn"
  param {
    lr_mult: 0
    decay_mult: 0
  }
  param {
    lr_mult: 0
    decay_mult: 0
  }
  param {
    lr_mult: 0
    decay_mult: 0
  }
}
layer {
  name: "conv0_2/scale"
  type: "Scale"
  bottom: "conv0_2/bn"
  top: "conv0_2/bn"
  scale_param {
    filler {
      value: 1
    }
    bias_term: true
    bias_filler {
      value: 0
    }
  }
}
layer {
  name: "relu0_2"
  type: "ReLU"
  bottom: "conv0_2/bn"
  top: "conv0_2/bn"
}
layer {
  name: "conv0_2"
  type: "Convolution"
  bottom: "conv0_2/bn"
  top: "conv0_2"
  convolution_param {
    num_output: 32
    bias_term: false
    pad: 1
    kernel_size: 3
    stride: 1
    weight_filler {
      type: "msra"
    }
    bias_filler {
      type: "constant"
    }
    engine: CUDNN
  }
}
layer {
  name: "concat0_2"
  type: "Concat"
  bottom: "concat0_1"
  bottom: "conv0_2"
  top: "concat0_2"
  concat_param {
    axis: 1
  }
}
layer {
  name: "conv0_3/bn"
  type: "BatchNorm"
  bottom: "concat0_2"
  top: "conv0_3/bn"
  param {
    lr_mult: 0
    decay_mult: 0
  }
  param {
    lr_mult: 0
    decay_mult: 0
  }
  param {
    lr_mult: 0
    decay_mult: 0
  }
}
layer {
  name: "conv0_3/scale"
  type: "Scale"
  bottom: "conv0_3/bn"
  top: "conv0_3/bn"
  scale_param {
    filler {
      value: 1
    }
    bias_term: true
    bias_filler {
      value: 0
    }
  }
}
layer {
  name: "relu0_3"
  type: "ReLU"
  bottom: "conv0_3/bn"
  top: "conv0_3/bn"
}
layer {
  name: "conv0_3"
  type: "Convolution"
  bottom: "conv0_3/bn"
  top: "conv0_3"
  convolution_param {
    num_output: 32
    bias_term: false
    pad: 1
    kernel_size: 3
    stride: 1
    weight_filler {
      type: "msra"
    }
    bias_filler {
      type: "constant"
    }
    engine: CUDNN
  }
}
layer {
  name: "concat0_3"
  type: "Concat"
  bottom: "concat0_2"
  bottom: "conv0_3"
  top: "concat0_3"
  concat_param {
    axis: 1
  }
}
layer {
  name: "conv0_4/bn"
  type: "BatchNorm"
  bottom: "concat0_3"
  top: "conv0_4/bn"
  param {
    lr_mult: 0
    decay_mult: 0
  }
  param {
    lr_mult: 0
    decay_mult: 0
  }
  param {
    lr_mult: 0
    decay_mult: 0
  }
}
layer {
  name: "conv0_4/scale"
  type: "Scale"
  bottom: "conv0_4/bn"
  top: "conv0_4/bn"
  scale_param {
    filler {
      value: 1
    }
    bias_term: true
    bias_filler {
      value: 0
    }
  }
}
layer {
  name: "relu0_4"
  type: "ReLU"
  bottom: "conv0_4/bn"
  top: "conv0_4/bn"
}
layer {
  name: "conv0_4"
  type: "Convolution"
  bottom: "conv0_4/bn"
  top: "conv0_4"
  convolution_param {
    num_output: 32
    bias_term: false
    pad: 1
    kernel_size: 3
    stride: 1
    weight_filler {
      type: "msra"
    }
    bias_filler {
      type: "constant"
    }
    engine: CUDNN
  }
}
layer {
  name: "concat0_4"
  type: "Concat"
  bottom: "concat0_3"
  bottom: "conv0_4"
  top: "concat0_4"
  concat_param {
    axis: 1
  }
}
layer {
  name: "conv0_5/bn"
  type: "BatchNorm"
  bottom: "concat0_4"
  top: "conv0_5/bn"
  param {
    lr_mult: 0
    decay_mult: 0
  }
  param {
    lr_mult: 0
    decay_mult: 0
  }
  param {
    lr_mult: 0
    decay_mult: 0
  }
}
layer {
  name: "conv0_5/scale"
  type: "Scale"
  bottom: "conv0_5/bn"
  top: "conv0_5/bn"
  scale_param {
    filler {
      value: 1
    }
    bias_term: true
    bias_filler {
      value: 0
    }
  }
}
layer {
  name: "relu0_5"
  type: "ReLU"
  bottom: "conv0_5/bn"
  top: "conv0_5/bn"
}
layer {
  name: "conv0_5"
  type: "Convolution"
  bottom: "conv0_5/bn"
  top: "conv0_5"
  convolution_param {
    num_output: 32
    bias_term: false
    pad: 1
    kernel_size: 3
    stride: 1
    weight_filler {
      type: "msra"
    }
    bias_filler {
      type: "constant"
    }
    engine: CUDNN
  }
}
layer {
  name: "concat0_5"
  type: "Concat"
  bottom: "concat0_4"
  bottom: "conv0_5"
  top: "concat0_5"
  concat_param {
    axis: 1
  }
}
layer {
  name: "conv0_6/bn"
  type: "BatchNorm"
  bottom: "concat0_5"
  top: "conv0_6/bn"
  param {
    lr_mult: 0
    decay_mult: 0
  }
  param {
    lr_mult: 0
    decay_mult: 0
  }
  param {
    lr_mult: 0
    decay_mult: 0
  }
}
layer {
  name: "conv0_6/scale"
  type: "Scale"
  bottom: "conv0_6/bn"
  top: "conv0_6/bn"
  scale_param {
    filler {
      value: 1
    }
    bias_term: true
    bias_filler {
      value: 0
    }
  }
}
layer {
  name: "relu0_6"
  type: "ReLU"
  bottom: "conv0_6/bn"
  top: "conv0_6/bn"
}
layer {
  name: "conv0_6"
  type: "Convolution"
  bottom: "conv0_6/bn"
  top: "conv0_6"
  convolution_param {
    num_output: 32
    bias_term: false
    pad: 1
    kernel_size: 3
    stride: 1
    weight_filler {
      type: "msra"
    }
    bias_filler {
      type: "constant"
    }
    engine: CUDNN
  }
}
layer {
  name: "concat0_6"
  type: "Concat"
  bottom: "concat0_5"
  bottom: "conv0_6"
  top: "concat0_6"
  concat_param {
    axis: 1
  }
}
layer {
  name: "conv0_7/bn"
  type: "BatchNorm"
  bottom: "concat0_6"
  top: "conv0_7/bn"
  param {
    lr_mult: 0
    decay_mult: 0
  }
  param {
    lr_mult: 0
    decay_mult: 0
  }
  param {
    lr_mult: 0
    decay_mult: 0
  }
}
layer {
  name: "conv0_7/scale"
  type: "Scale"
  bottom: "conv0_7/bn"
  top: "conv0_7/bn"
  scale_param {
    filler {
      value: 1
    }
    bias_term: true
    bias_filler {
      value: 0
    }
  }
}
layer {
  name: "relu0_7"
  type: "ReLU"
  bottom: "conv0_7/bn"
  top: "conv0_7/bn"
}
layer {
  name: "conv0_7"
  type: "Convolution"
  bottom: "conv0_7/bn"
  top: "conv0_7"
  convolution_param {
    num_output: 32
    bias_term: false
    pad: 1
    kernel_size: 3
    stride: 1
    weight_filler {
      type: "msra"
    }
    bias_filler {
      type: "constant"
    }
    engine: CUDNN
  }
}
layer {
  name: "concat0_7"
  type: "Concat"
  bottom: "concat0_6"
  bottom: "conv0_7"
  top: "concat0_7"
  concat_param {
    axis: 1
  }
}
layer {
  name: "conv0_8/bn"
  type: "BatchNorm"
  bottom: "concat0_7"
  top: "conv0_8/bn"
  param {
    lr_mult: 0
    decay_mult: 0
  }
  param {
    lr_mult: 0
    decay_mult: 0
  }
  param {
    lr_mult: 0
    decay_mult: 0
  }
}
layer {
  name: "conv0_8/scale"
  type: "Scale"
  bottom: "conv0_8/bn"
  top: "conv0_8/bn"
  scale_param {
    filler {
      value: 1
    }
    bias_term: true
    bias_filler {
      value: 0
    }
  }
}
layer {
  name: "relu0_8"
  type: "ReLU"
  bottom: "conv0_8/bn"
  top: "conv0_8/bn"
}
layer {
  name: "conv0_8"
  type: "Convolution"
  bottom: "conv0_8/bn"
  top: "conv0_8"
  convolution_param {
    num_output: 32
    bias_term: false
    pad: 1
    kernel_size: 3
    stride: 1
    weight_filler {
      type: "msra"
    }
    bias_filler {
      type: "constant"
    }
    engine: CUDNN
  }
}
layer {
  name: "concat0_8"
  type: "Concat"
  bottom: "concat0_7"
  bottom: "conv0_8"
  top: "concat0_8"
  concat_param {
    axis: 1
  }
}
layer {
  name: "conv0_9/bn"
  type: "BatchNorm"
  bottom: "concat0_8"
  top: "conv0_9/bn"
  param {
    lr_mult: 0
    decay_mult: 0
  }
  param {
    lr_mult: 0
    decay_mult: 0
  }
  param {
    lr_mult: 0
    decay_mult: 0
  }
}
layer {
  name: "conv0_9/scale"
  type: "Scale"
  bottom: "conv0_9/bn"
  top: "conv0_9/bn"
  scale_param {
    filler {
      value: 1
    }
    bias_term: true
    bias_filler {
      value: 0
    }
  }
}
layer {
  name: "relu0_9"
  type: "ReLU"
  bottom: "conv0_9/bn"
  top: "conv0_9/bn"
}
layer {
  name: "conv0_9"
  type: "Convolution"
  bottom: "conv0_9/bn"
  top: "conv0_9"
  convolution_param {
    num_output: 32
    bias_term: false
    pad: 1
    kernel_size: 3
    stride: 1
    weight_filler {
      type: "msra"
    }
    bias_filler {
      type: "constant"
    }
    engine: CUDNN
  }
}
layer {
  name: "concat0_9"
  type: "Concat"
  bottom: "concat0_8"
  bottom: "conv0_9"
  top: "concat0_9"
  concat_param {
    axis: 1
  }
}
layer {
  name: "conv0_10/bn"
  type: "BatchNorm"
  bottom: "concat0_9"
  top: "conv0_10/bn"
  param {
    lr_mult: 0
    decay_mult: 0
  }
  param {
    lr_mult: 0
    decay_mult: 0
  }
  param {
    lr_mult: 0
    decay_mult: 0
  }
}
layer {
  name: "conv0_10/scale"
  type: "Scale"
  bottom: "conv0_10/bn"
  top: "conv0_10/bn"
  scale_param {
    filler {
      value: 1
    }
    bias_term: true
    bias_filler {
      value: 0
    }
  }
}
layer {
  name: "relu0_10"
  type: "ReLU"
  bottom: "conv0_10/bn"
  top: "conv0_10/bn"
}
layer {
  name: "conv0_10"
  type: "Convolution"
  bottom: "conv0_10/bn"
  top: "conv0_10"
  convolution_param {
    num_output: 32
    bias_term: false
    pad: 1
    kernel_size: 3
    stride: 1
    weight_filler {
      type: "msra"
    }
    bias_filler {
      type: "constant"
    }
    engine: CUDNN
  }
}
layer {
  name: "concat0_10"
  type: "Concat"
  bottom: "concat0_9"
  bottom: "conv0_10"
  top: "concat0_10"
  concat_param {
    axis: 1
  }
}
layer {
  name: "conv0_11/bn"
  type: "BatchNorm"
  bottom: "concat0_10"
  top: "conv0_11/bn"
  param {
    lr_mult: 0
    decay_mult: 0
  }
  param {
    lr_mult: 0
    decay_mult: 0
  }
  param {
    lr_mult: 0
    decay_mult: 0
  }
}
layer {
  name: "conv0_11/scale"
  type: "Scale"
  bottom: "conv0_11/bn"
  top: "conv0_11/bn"
  scale_param {
    filler {
      value: 1
    }
    bias_term: true
    bias_filler {
      value: 0
    }
  }
}
layer {
  name: "relu0_11"
  type: "ReLU"
  bottom: "conv0_11/bn"
  top: "conv0_11/bn"
}
layer {
  name: "conv0_11"
  type: "Convolution"
  bottom: "conv0_11/bn"
  top: "conv0_11"
  convolution_param {
    num_output: 32
    bias_term: false
    pad: 1
    kernel_size: 3
    stride: 1
    weight_filler {
      type: "msra"
    }
    bias_filler {
      type: "constant"
    }
    engine: CUDNN
  }
}
layer {
  name: "concat0_11"
  type: "Concat"
  bottom: "concat0_10"
  bottom: "conv0_11"
  top: "concat0_11"
  concat_param {
    axis: 1
  }
}
layer {
  name: "conv0_12/bn"
  type: "BatchNorm"
  bottom: "concat0_11"
  top: "conv0_12/bn"
  param {
    lr_mult: 0
    decay_mult: 0
  }
  param {
    lr_mult: 0
    decay_mult: 0
  }
  param {
    lr_mult: 0
    decay_mult: 0
  }
}
layer {
  name: "conv0_12/scale"
  type: "Scale"
  bottom: "conv0_12/bn"
  top: "conv0_12/bn"
  scale_param {
    filler {
      value: 1
    }
    bias_term: true
    bias_filler {
      value: 0
    }
  }
}
layer {
  name: "relu0_12"
  type: "ReLU"
  bottom: "conv0_12/bn"
  top: "conv0_12/bn"
}
layer {
  name: "conv0_12"
  type: "Convolution"
  bottom: "conv0_12/bn"
  top: "conv0_12"
  convolution_param {
    num_output: 32
    bias_term: false
    pad: 1
    kernel_size: 3
    stride: 1
    weight_filler {
      type: "msra"
    }
    bias_filler {
      type: "constant"
    }
    engine: CUDNN
  }
}
layer {
  name: "concat0_12"
  type: "Concat"
  bottom: "concat0_11"
  bottom: "conv0_12"
  top: "concat0_12"
  concat_param {
    axis: 1
  }
}
layer {
  name: "conv0_13/bn"
  type: "BatchNorm"
  bottom: "concat0_12"
  top: "conv0_13/bn"
  param {
    lr_mult: 0
    decay_mult: 0
  }
  param {
    lr_mult: 0
    decay_mult: 0
  }
  param {
    lr_mult: 0
    decay_mult: 0
  }
}
layer {
  name: "conv0_13/scale"
  type: "Scale"
  bottom: "conv0_13/bn"
  top: "conv0_13/bn"
  scale_param {
    filler {
      value: 1
    }
    bias_term: true
    bias_filler {
      value: 0
    }
  }
}
layer {
  name: "relu0_13"
  type: "ReLU"
  bottom: "conv0_13/bn"
  top: "conv0_13/bn"
}
layer {
  name: "conv0_13"
  type: "Convolution"
  bottom: "conv0_13/bn"
  top: "conv0_13"
  convolution_param {
    num_output: 32
    bias_term: false
    pad: 1
    kernel_size: 3
    stride: 1
    weight_filler {
      type: "msra"
    }
    bias_filler {
      type: "constant"
    }
    engine: CUDNN
  }
}
layer {
  name: "concat0_13"
  type: "Concat"
  bottom: "concat0_12"
  bottom: "conv0_13"
  top: "concat0_13"
  concat_param {
    axis: 1
  }
}
layer {
  name: "conv0_14/bn"
  type: "BatchNorm"
  bottom: "concat0_13"
  top: "conv0_14/bn"
  param {
    lr_mult: 0
    decay_mult: 0
  }
  param {
    lr_mult: 0
    decay_mult: 0
  }
  param {
    lr_mult: 0
    decay_mult: 0
  }
}
layer {
  name: "conv0_14/scale"
  type: "Scale"
  bottom: "conv0_14/bn"
  top: "conv0_14/bn"
  scale_param {
    filler {
      value: 1
    }
    bias_term: true
    bias_filler {
      value: 0
    }
  }
}
layer {
  name: "relu0_14"
  type: "ReLU"
  bottom: "conv0_14/bn"
  top: "conv0_14/bn"
}
layer {
  name: "conv0_14"
  type: "Convolution"
  bottom: "conv0_14/bn"
  top: "conv0_14"
  convolution_param {
    num_output: 32
    bias_term: false
    pad: 1
    kernel_size: 3
    stride: 1
    weight_filler {
      type: "msra"
    }
    bias_filler {
      type: "constant"
    }
    engine: CUDNN
  }
}
layer {
  name: "concat0_14"
  type: "Concat"
  bottom: "concat0_13"
  bottom: "conv0_14"
  top: "concat0_14"
  concat_param {
    axis: 1
  }
}
layer {
  name: "BatchNorm1"
  type: "BatchNorm"
  bottom: "concat0_14"
  top: "BatchNorm1"
  param {
    lr_mult: 0
    decay_mult: 0
  }
  param {
    lr_mult: 0
    decay_mult: 0
  }
  param {
    lr_mult: 0
    decay_mult: 0
  }
}
layer {
  name: "Scale1"
  type: "Scale"
  bottom: "BatchNorm1"
  top: "BatchNorm1"
  scale_param {
    filler {
      value: 1
    }
    bias_term: true
    bias_filler {
      value: 0
    }
  }
}
layer {
  name: "ReLU1"
  type: "ReLU"
  bottom: "BatchNorm1"
  top: "BatchNorm1"
}
layer {
  name: "conv0_blk"
  type: "Convolution"
  bottom: "BatchNorm1"
  top: "conv0_blk"
  convolution_param {
    num_output: 512
    bias_term: false
    pad: 0
    kernel_size: 1
    stride: 1
    weight_filler {
      type: "msra"
    }
    bias_filler {
      type: "constant"
    }
    engine: CUDNN
  }
}
layer {
  name: "pool0"
  type: "Pooling"
  bottom: "conv0_blk"
  top: "pool0"
  pooling_param {
    pool: AVE
    kernel_size: 2
    stride: 2
  }
}
layer {
  name: "conv1_0/bn"
  type: "BatchNorm"
  bottom: "pool0"
  top: "conv1_0/bn"
  param {
    lr_mult: 0
    decay_mult: 0
  }
  param {
    lr_mult: 0
    decay_mult: 0
  }
  param {
    lr_mult: 0
    decay_mult: 0
  }
}
layer {
  name: "conv1_0/scale"
  type: "Scale"
  bottom: "conv1_0/bn"
  top: "conv1_0/bn"
  scale_param {
    filler {
      value: 1
    }
    bias_term: true
    bias_filler {
      value: 0
    }
  }
}
layer {
  name: "relu1_0"
  type: "ReLU"
  bottom: "conv1_0/bn"
  top: "conv1_0/bn"
}
layer {
  name: "conv1_0"
  type: "Convolution"
  bottom: "conv1_0/bn"
  top: "conv1_0"
  convolution_param {
    num_output: 32
    bias_term: false
    pad: 1
    kernel_size: 3
    stride: 1
    weight_filler {
      type: "msra"
    }
    bias_filler {
      type: "constant"
    }
    engine: CUDNN
  }
}
layer {
  name: "concat1_0"
  type: "Concat"
  bottom: "pool0"
  bottom: "conv1_0"
  top: "concat1_0"
  concat_param {
    axis: 1
  }
}
layer {
  name: "conv1_1/bn"
  type: "BatchNorm"
  bottom: "concat1_0"
  top: "conv1_1/bn"
  param {
    lr_mult: 0
    decay_mult: 0
  }
  param {
    lr_mult: 0
    decay_mult: 0
  }
  param {
    lr_mult: 0
    decay_mult: 0
  }
}
layer {
  name: "conv1_1/scale"
  type: "Scale"
  bottom: "conv1_1/bn"
  top: "conv1_1/bn"
  scale_param {
    filler {
      value: 1
    }
    bias_term: true
    bias_filler {
      value: 0
    }
  }
}
layer {
  name: "relu1_1"
  type: "ReLU"
  bottom: "conv1_1/bn"
  top: "conv1_1/bn"
}
layer {
  name: "conv1_1"
  type: "Convolution"
  bottom: "conv1_1/bn"
  top: "conv1_1"
  convolution_param {
    num_output: 32
    bias_term: false
    pad: 1
    kernel_size: 3
    stride: 1
    weight_filler {
      type: "msra"
    }
    bias_filler {
      type: "constant"
    }
    engine: CUDNN
  }
}
layer {
  name: "concat1_1"
  type: "Concat"
  bottom: "concat1_0"
  bottom: "conv1_1"
  top: "concat1_1"
  concat_param {
    axis: 1
  }
}
layer {
  name: "conv1_2/bn"
  type: "BatchNorm"
  bottom: "concat1_1"
  top: "conv1_2/bn"
  param {
    lr_mult: 0
    decay_mult: 0
  }
  param {
    lr_mult: 0
    decay_mult: 0
  }
  param {
    lr_mult: 0
    decay_mult: 0
  }
}
layer {
  name: "conv1_2/scale"
  type: "Scale"
  bottom: "conv1_2/bn"
  top: "conv1_2/bn"
  scale_param {
    filler {
      value: 1
    }
    bias_term: true
    bias_filler {
      value: 0
    }
  }
}
layer {
  name: "relu1_2"
  type: "ReLU"
  bottom: "conv1_2/bn"
  top: "conv1_2/bn"
}
layer {
  name: "conv1_2"
  type: "Convolution"
  bottom: "conv1_2/bn"
  top: "conv1_2"
  convolution_param {
    num_output: 32
    bias_term: false
    pad: 1
    kernel_size: 3
    stride: 1
    weight_filler {
      type: "msra"
    }
    bias_filler {
      type: "constant"
    }
    engine: CUDNN
  }
}
layer {
  name: "concat1_2"
  type: "Concat"
  bottom: "concat1_1"
  bottom: "conv1_2"
  top: "concat1_2"
  concat_param {
    axis: 1
  }
}
layer {
  name: "conv1_3/bn"
  type: "BatchNorm"
  bottom: "concat1_2"
  top: "conv1_3/bn"
  param {
    lr_mult: 0
    decay_mult: 0
  }
  param {
    lr_mult: 0
    decay_mult: 0
  }
  param {
    lr_mult: 0
    decay_mult: 0
  }
}
layer {
  name: "conv1_3/scale"
  type: "Scale"
  bottom: "conv1_3/bn"
  top: "conv1_3/bn"
  scale_param {
    filler {
      value: 1
    }
    bias_term: true
    bias_filler {
      value: 0
    }
  }
}
layer {
  name: "relu1_3"
  type: "ReLU"
  bottom: "conv1_3/bn"
  top: "conv1_3/bn"
}
layer {
  name: "conv1_3"
  type: "Convolution"
  bottom: "conv1_3/bn"
  top: "conv1_3"
  convolution_param {
    num_output: 32
    bias_term: false
    pad: 1
    kernel_size: 3
    stride: 1
    weight_filler {
      type: "msra"
    }
    bias_filler {
      type: "constant"
    }
    engine: CUDNN
  }
}
layer {
  name: "concat1_3"
  type: "Concat"
  bottom: "concat1_2"
  bottom: "conv1_3"
  top: "concat1_3"
  concat_param {
    axis: 1
  }
}
layer {
  name: "conv1_4/bn"
  type: "BatchNorm"
  bottom: "concat1_3"
  top: "conv1_4/bn"
  param {
    lr_mult: 0
    decay_mult: 0
  }
  param {
    lr_mult: 0
    decay_mult: 0
  }
  param {
    lr_mult: 0
    decay_mult: 0
  }
}
layer {
  name: "conv1_4/scale"
  type: "Scale"
  bottom: "conv1_4/bn"
  top: "conv1_4/bn"
  scale_param {
    filler {
      value: 1
    }
    bias_term: true
    bias_filler {
      value: 0
    }
  }
}
layer {
  name: "relu1_4"
  type: "ReLU"
  bottom: "conv1_4/bn"
  top: "conv1_4/bn"
}
layer {
  name: "conv1_4"
  type: "Convolution"
  bottom: "conv1_4/bn"
  top: "conv1_4"
  convolution_param {
    num_output: 32
    bias_term: false
    pad: 1
    kernel_size: 3
    stride: 1
    weight_filler {
      type: "msra"
    }
    bias_filler {
      type: "constant"
    }
    engine: CUDNN
  }
}
layer {
  name: "concat1_4"
  type: "Concat"
  bottom: "concat1_3"
  bottom: "conv1_4"
  top: "concat1_4"
  concat_param {
    axis: 1
  }
}
layer {
  name: "conv1_5/bn"
  type: "BatchNorm"
  bottom: "concat1_4"
  top: "conv1_5/bn"
  param {
    lr_mult: 0
    decay_mult: 0
  }
  param {
    lr_mult: 0
    decay_mult: 0
  }
  param {
    lr_mult: 0
    decay_mult: 0
  }
}
layer {
  name: "conv1_5/scale"
  type: "Scale"
  bottom: "conv1_5/bn"
  top: "conv1_5/bn"
  scale_param {
    filler {
      value: 1
    }
    bias_term: true
    bias_filler {
      value: 0
    }
  }
}
layer {
  name: "relu1_5"
  type: "ReLU"
  bottom: "conv1_5/bn"
  top: "conv1_5/bn"
}
layer {
  name: "conv1_5"
  type: "Convolution"
  bottom: "conv1_5/bn"
  top: "conv1_5"
  convolution_param {
    num_output: 32
    bias_term: false
    pad: 1
    kernel_size: 3
    stride: 1
    weight_filler {
      type: "msra"
    }
    bias_filler {
      type: "constant"
    }
    engine: CUDNN
  }
}
layer {
  name: "concat1_5"
  type: "Concat"
  bottom: "concat1_4"
  bottom: "conv1_5"
  top: "concat1_5"
  concat_param {
    axis: 1
  }
}
layer {
  name: "conv1_6/bn"
  type: "BatchNorm"
  bottom: "concat1_5"
  top: "conv1_6/bn"
  param {
    lr_mult: 0
    decay_mult: 0
  }
  param {
    lr_mult: 0
    decay_mult: 0
  }
  param {
    lr_mult: 0
    decay_mult: 0
  }
}
layer {
  name: "conv1_6/scale"
  type: "Scale"
  bottom: "conv1_6/bn"
  top: "conv1_6/bn"
  scale_param {
    filler {
      value: 1
    }
    bias_term: true
    bias_filler {
      value: 0
    }
  }
}
layer {
  name: "relu1_6"
  type: "ReLU"
  bottom: "conv1_6/bn"
  top: "conv1_6/bn"
}
layer {
  name: "conv1_6"
  type: "Convolution"
  bottom: "conv1_6/bn"
  top: "conv1_6"
  convolution_param {
    num_output: 32
    bias_term: false
    pad: 1
    kernel_size: 3
    stride: 1
    weight_filler {
      type: "msra"
    }
    bias_filler {
      type: "constant"
    }
    engine: CUDNN
  }
}
layer {
  name: "concat1_6"
  type: "Concat"
  bottom: "concat1_5"
  bottom: "conv1_6"
  top: "concat1_6"
  concat_param {
    axis: 1
  }
}
layer {
  name: "conv1_7/bn"
  type: "BatchNorm"
  bottom: "concat1_6"
  top: "conv1_7/bn"
  param {
    lr_mult: 0
    decay_mult: 0
  }
  param {
    lr_mult: 0
    decay_mult: 0
  }
  param {
    lr_mult: 0
    decay_mult: 0
  }
}
layer {
  name: "conv1_7/scale"
  type: "Scale"
  bottom: "conv1_7/bn"
  top: "conv1_7/bn"
  scale_param {
    filler {
      value: 1
    }
    bias_term: true
    bias_filler {
      value: 0
    }
  }
}
layer {
  name: "relu1_7"
  type: "ReLU"
  bottom: "conv1_7/bn"
  top: "conv1_7/bn"
}
layer {
  name: "conv1_7"
  type: "Convolution"
  bottom: "conv1_7/bn"
  top: "conv1_7"
  convolution_param {
    num_output: 32
    bias_term: false
    pad: 1
    kernel_size: 3
    stride: 1
    weight_filler {
      type: "msra"
    }
    bias_filler {
      type: "constant"
    }
    engine: CUDNN
  }
}
layer {
  name: "concat1_7"
  type: "Concat"
  bottom: "concat1_6"
  bottom: "conv1_7"
  top: "concat1_7"
  concat_param {
    axis: 1
  }
}
layer {
  name: "conv1_8/bn"
  type: "BatchNorm"
  bottom: "concat1_7"
  top: "conv1_8/bn"
  param {
    lr_mult: 0
    decay_mult: 0
  }
  param {
    lr_mult: 0
    decay_mult: 0
  }
  param {
    lr_mult: 0
    decay_mult: 0
  }
}
layer {
  name: "conv1_8/scale"
  type: "Scale"
  bottom: "conv1_8/bn"
  top: "conv1_8/bn"
  scale_param {
    filler {
      value: 1
    }
    bias_term: true
    bias_filler {
      value: 0
    }
  }
}
layer {
  name: "relu1_8"
  type: "ReLU"
  bottom: "conv1_8/bn"
  top: "conv1_8/bn"
}
layer {
  name: "conv1_8"
  type: "Convolution"
  bottom: "conv1_8/bn"
  top: "conv1_8"
  convolution_param {
    num_output: 32
    bias_term: false
    pad: 1
    kernel_size: 3
    stride: 1
    weight_filler {
      type: "msra"
    }
    bias_filler {
      type: "constant"
    }
    engine: CUDNN
  }
}
layer {
  name: "concat1_8"
  type: "Concat"
  bottom: "concat1_7"
  bottom: "conv1_8"
  top: "concat1_8"
  concat_param {
    axis: 1
  }
}
layer {
  name: "conv1_9/bn"
  type: "BatchNorm"
  bottom: "concat1_8"
  top: "conv1_9/bn"
  param {
    lr_mult: 0
    decay_mult: 0
  }
  param {
    lr_mult: 0
    decay_mult: 0
  }
  param {
    lr_mult: 0
    decay_mult: 0
  }
}
layer {
  name: "conv1_9/scale"
  type: "Scale"
  bottom: "conv1_9/bn"
  top: "conv1_9/bn"
  scale_param {
    filler {
      value: 1
    }
    bias_term: true
    bias_filler {
      value: 0
    }
  }
}
layer {
  name: "relu1_9"
  type: "ReLU"
  bottom: "conv1_9/bn"
  top: "conv1_9/bn"
}
layer {
  name: "conv1_9"
  type: "Convolution"
  bottom: "conv1_9/bn"
  top: "conv1_9"
  convolution_param {
    num_output: 32
    bias_term: false
    pad: 1
    kernel_size: 3
    stride: 1
    weight_filler {
      type: "msra"
    }
    bias_filler {
      type: "constant"
    }
    engine: CUDNN
  }
}
layer {
  name: "concat1_9"
  type: "Concat"
  bottom: "concat1_8"
  bottom: "conv1_9"
  top: "concat1_9"
  concat_param {
    axis: 1
  }
}
layer {
  name: "conv1_10/bn"
  type: "BatchNorm"
  bottom: "concat1_9"
  top: "conv1_10/bn"
  param {
    lr_mult: 0
    decay_mult: 0
  }
  param {
    lr_mult: 0
    decay_mult: 0
  }
  param {
    lr_mult: 0
    decay_mult: 0
  }
}
layer {
  name: "conv1_10/scale"
  type: "Scale"
  bottom: "conv1_10/bn"
  top: "conv1_10/bn"
  scale_param {
    filler {
      value: 1
    }
    bias_term: true
    bias_filler {
      value: 0
    }
  }
}
layer {
  name: "relu1_10"
  type: "ReLU"
  bottom: "conv1_10/bn"
  top: "conv1_10/bn"
}
layer {
  name: "conv1_10"
  type: "Convolution"
  bottom: "conv1_10/bn"
  top: "conv1_10"
  convolution_param {
    num_output: 32
    bias_term: false
    pad: 1
    kernel_size: 3
    stride: 1
    weight_filler {
      type: "msra"
    }
    bias_filler {
      type: "constant"
    }
    engine: CUDNN
  }
}
layer {
  name: "concat1_10"
  type: "Concat"
  bottom: "concat1_9"
  bottom: "conv1_10"
  top: "concat1_10"
  concat_param {
    axis: 1
  }
}
layer {
  name: "conv1_11/bn"
  type: "BatchNorm"
  bottom: "concat1_10"
  top: "conv1_11/bn"
  param {
    lr_mult: 0
    decay_mult: 0
  }
  param {
    lr_mult: 0
    decay_mult: 0
  }
  param {
    lr_mult: 0
    decay_mult: 0
  }
}
layer {
  name: "conv1_11/scale"
  type: "Scale"
  bottom: "conv1_11/bn"
  top: "conv1_11/bn"
  scale_param {
    filler {
      value: 1
    }
    bias_term: true
    bias_filler {
      value: 0
    }
  }
}
layer {
  name: "relu1_11"
  type: "ReLU"
  bottom: "conv1_11/bn"
  top: "conv1_11/bn"
}
layer {
  name: "conv1_11"
  type: "Convolution"
  bottom: "conv1_11/bn"
  top: "conv1_11"
  convolution_param {
    num_output: 32
    bias_term: false
    pad: 1
    kernel_size: 3
    stride: 1
    weight_filler {
      type: "msra"
    }
    bias_filler {
      type: "constant"
    }
    engine: CUDNN
  }
}
layer {
  name: "concat1_11"
  type: "Concat"
  bottom: "concat1_10"
  bottom: "conv1_11"
  top: "concat1_11"
  concat_param {
    axis: 1
  }
}
layer {
  name: "conv1_12/bn"
  type: "BatchNorm"
  bottom: "concat1_11"
  top: "conv1_12/bn"
  param {
    lr_mult: 0
    decay_mult: 0
  }
  param {
    lr_mult: 0
    decay_mult: 0
  }
  param {
    lr_mult: 0
    decay_mult: 0
  }
}
layer {
  name: "conv1_12/scale"
  type: "Scale"
  bottom: "conv1_12/bn"
  top: "conv1_12/bn"
  scale_param {
    filler {
      value: 1
    }
    bias_term: true
    bias_filler {
      value: 0
    }
  }
}
layer {
  name: "relu1_12"
  type: "ReLU"
  bottom: "conv1_12/bn"
  top: "conv1_12/bn"
}
layer {
  name: "conv1_12"
  type: "Convolution"
  bottom: "conv1_12/bn"
  top: "conv1_12"
  convolution_param {
    num_output: 32
    bias_term: false
    pad: 1
    kernel_size: 3
    stride: 1
    weight_filler {
      type: "msra"
    }
    bias_filler {
      type: "constant"
    }
    engine: CUDNN
  }
}
layer {
  name: "c
I0122 11:44:29.305310 22077 layer_factory.hpp:77] Creating layer word_images
I0122 11:44:29.305392 22077 db_lmdb.cpp:35] Opened lmdb /data/fwolf/iam_50000/iam-db_nti500000_pul2-3-4-5_train_word_images_lmdb
I0122 11:44:29.305431 22077 net.cpp:84] Creating Layer word_images
I0122 11:44:29.305438 22077 net.cpp:380] word_images -> word_images
I0122 11:44:29.305451 22077 net.cpp:380] word_images -> label
I0122 11:44:29.306785 22077 data_layer.cpp:44] output data size: 1,1,79,231
I0122 11:44:29.311523 22077 net.cpp:122] Setting up word_images
I0122 11:44:29.311542 22077 net.cpp:129] Top shape: 1 1 79 231 (18249)
I0122 11:44:29.311547 22077 net.cpp:129] Top shape: 1 (1)
I0122 11:44:29.311550 22077 net.cpp:137] Memory required for data: 73000
I0122 11:44:29.311556 22077 layer_factory.hpp:77] Creating layer phocs
I0122 11:44:29.311606 22077 db_lmdb.cpp:35] Opened lmdb /data/fwolf/iam_50000/iam-db_nti500000_pul2-3-4-5_train_phocs_lmdb
I0122 11:44:29.311642 22077 net.cpp:84] Creating Layer phocs
I0122 11:44:29.311650 22077 net.cpp:380] phocs -> phocs
I0122 11:44:29.311661 22077 net.cpp:380] phocs -> label_phocs
I0122 11:44:29.312130 22077 data_layer.cpp:44] output data size: 1,1,1,618
I0122 11:44:29.315034 22077 net.cpp:122] Setting up phocs
I0122 11:44:29.315048 22077 net.cpp:129] Top shape: 1 1 1 618 (618)
I0122 11:44:29.315053 22077 net.cpp:129] Top shape: 1 (1)
I0122 11:44:29.315057 22077 net.cpp:137] Memory required for data: 75476
I0122 11:44:29.315062 22077 layer_factory.hpp:77] Creating layer conv_init
I0122 11:44:29.315078 22077 net.cpp:84] Creating Layer conv_init
I0122 11:44:29.315083 22077 net.cpp:406] conv_init <- word_images
I0122 11:44:29.315090 22077 net.cpp:380] conv_init -> conv_init
I0122 11:44:29.968344 22077 net.cpp:122] Setting up conv_init
I0122 11:44:29.968379 22077 net.cpp:129] Top shape: 1 32 79 231 (583968)
I0122 11:44:29.968384 22077 net.cpp:137] Memory required for data: 2411348
I0122 11:44:29.968399 22077 layer_factory.hpp:77] Creating layer bn_init
I0122 11:44:29.968415 22077 net.cpp:84] Creating Layer bn_init
I0122 11:44:29.968422 22077 net.cpp:406] bn_init <- conv_init
I0122 11:44:29.968432 22077 net.cpp:380] bn_init -> bn_init
I0122 11:44:29.968950 22077 net.cpp:122] Setting up bn_init
I0122 11:44:29.968962 22077 net.cpp:129] Top shape: 1 32 79 231 (583968)
I0122 11:44:29.968966 22077 net.cpp:137] Memory required for data: 4747220
I0122 11:44:29.968981 22077 layer_factory.hpp:77] Creating layer scale_init
I0122 11:44:29.968993 22077 net.cpp:84] Creating Layer scale_init
I0122 11:44:29.968998 22077 net.cpp:406] scale_init <- bn_init
I0122 11:44:29.969007 22077 net.cpp:367] scale_init -> bn_init (in-place)
I0122 11:44:29.969092 22077 layer_factory.hpp:77] Creating layer scale_init
I0122 11:44:29.969384 22077 net.cpp:122] Setting up scale_init
I0122 11:44:29.969395 22077 net.cpp:129] Top shape: 1 32 79 231 (583968)
I0122 11:44:29.969399 22077 net.cpp:137] Memory required for data: 7083092
I0122 11:44:29.969410 22077 layer_factory.hpp:77] Creating layer relu_init
I0122 11:44:29.969420 22077 net.cpp:84] Creating Layer relu_init
I0122 11:44:29.969425 22077 net.cpp:406] relu_init <- bn_init
I0122 11:44:29.969432 22077 net.cpp:367] relu_init -> bn_init (in-place)
I0122 11:44:29.969916 22077 net.cpp:122] Setting up relu_init
I0122 11:44:29.969931 22077 net.cpp:129] Top shape: 1 32 79 231 (583968)
I0122 11:44:29.969936 22077 net.cpp:137] Memory required for data: 9418964
I0122 11:44:29.969941 22077 layer_factory.hpp:77] Creating layer pool_init
I0122 11:44:29.969951 22077 net.cpp:84] Creating Layer pool_init
I0122 11:44:29.969956 22077 net.cpp:406] pool_init <- bn_init
I0122 11:44:29.969965 22077 net.cpp:380] pool_init -> pool_init
I0122 11:44:29.970060 22077 net.cpp:122] Setting up pool_init
I0122 11:44:29.970069 22077 net.cpp:129] Top shape: 1 32 40 116 (148480)
I0122 11:44:29.970074 22077 net.cpp:137] Memory required for data: 10012884
I0122 11:44:29.970078 22077 layer_factory.hpp:77] Creating layer pool_init_pool_init_0_split
I0122 11:44:29.970088 22077 net.cpp:84] Creating Layer pool_init_pool_init_0_split
I0122 11:44:29.970093 22077 net.cpp:406] pool_init_pool_init_0_split <- pool_init
I0122 11:44:29.970099 22077 net.cpp:380] pool_init_pool_init_0_split -> pool_init_pool_init_0_split_0
I0122 11:44:29.970108 22077 net.cpp:380] pool_init_pool_init_0_split -> pool_init_pool_init_0_split_1
I0122 11:44:29.970181 22077 net.cpp:122] Setting up pool_init_pool_init_0_split
I0122 11:44:29.970191 22077 net.cpp:129] Top shape: 1 32 40 116 (148480)
I0122 11:44:29.970196 22077 net.cpp:129] Top shape: 1 32 40 116 (148480)
I0122 11:44:29.970201 22077 net.cpp:137] Memory required for data: 11200724
I0122 11:44:29.970206 22077 layer_factory.hpp:77] Creating layer conv0_0/bn
I0122 11:44:29.970216 22077 net.cpp:84] Creating Layer conv0_0/bn
I0122 11:44:29.970221 22077 net.cpp:406] conv0_0/bn <- pool_init_pool_init_0_split_0
I0122 11:44:29.970230 22077 net.cpp:380] conv0_0/bn -> conv0_0/bn
I0122 11:44:29.971479 22077 net.cpp:122] Setting up conv0_0/bn
I0122 11:44:29.971494 22077 net.cpp:129] Top shape: 1 32 40 116 (148480)
I0122 11:44:29.971499 22077 net.cpp:137] Memory required for data: 11794644
I0122 11:44:29.971518 22077 layer_factory.hpp:77] Creating layer conv0_0/scale
I0122 11:44:29.971529 22077 net.cpp:84] Creating Layer conv0_0/scale
I0122 11:44:29.971534 22077 net.cpp:406] conv0_0/scale <- conv0_0/bn
I0122 11:44:29.971542 22077 net.cpp:367] conv0_0/scale -> conv0_0/bn (in-place)
I0122 11:44:29.971624 22077 layer_factory.hpp:77] Creating layer conv0_0/scale
I0122 11:44:29.971896 22077 net.cpp:122] Setting up conv0_0/scale
I0122 11:44:29.971909 22077 net.cpp:129] Top shape: 1 32 40 116 (148480)
I0122 11:44:29.971912 22077 net.cpp:137] Memory required for data: 12388564
I0122 11:44:29.971921 22077 layer_factory.hpp:77] Creating layer relu0_0
I0122 11:44:29.971930 22077 net.cpp:84] Creating Layer relu0_0
I0122 11:44:29.971935 22077 net.cpp:406] relu0_0 <- conv0_0/bn
I0122 11:44:29.971940 22077 net.cpp:367] relu0_0 -> conv0_0/bn (in-place)
I0122 11:44:29.972214 22077 net.cpp:122] Setting up relu0_0
I0122 11:44:29.972228 22077 net.cpp:129] Top shape: 1 32 40 116 (148480)
I0122 11:44:29.972231 22077 net.cpp:137] Memory required for data: 12982484
I0122 11:44:29.972236 22077 layer_factory.hpp:77] Creating layer conv0_0
I0122 11:44:29.972250 22077 net.cpp:84] Creating Layer conv0_0
I0122 11:44:29.972255 22077 net.cpp:406] conv0_0 <- conv0_0/bn
I0122 11:44:29.972266 22077 net.cpp:380] conv0_0 -> conv0_0
I0122 11:44:29.974315 22077 net.cpp:122] Setting up conv0_0
I0122 11:44:29.974330 22077 net.cpp:129] Top shape: 1 32 40 116 (148480)
I0122 11:44:29.974335 22077 net.cpp:137] Memory required for data: 13576404
I0122 11:44:29.974344 22077 layer_factory.hpp:77] Creating layer concat0_0
I0122 11:44:29.974352 22077 net.cpp:84] Creating Layer concat0_0
I0122 11:44:29.974357 22077 net.cpp:406] concat0_0 <- pool_init_pool_init_0_split_1
I0122 11:44:29.974364 22077 net.cpp:406] concat0_0 <- conv0_0
I0122 11:44:29.974372 22077 net.cpp:380] concat0_0 -> concat0_0
I0122 11:44:29.974421 22077 net.cpp:122] Setting up concat0_0
I0122 11:44:29.974431 22077 net.cpp:129] Top shape: 1 64 40 116 (296960)
I0122 11:44:29.974434 22077 net.cpp:137] Memory required for data: 14764244
I0122 11:44:29.974438 22077 layer_factory.hpp:77] Creating layer concat0_0_concat0_0_0_split
I0122 11:44:29.974445 22077 net.cpp:84] Creating Layer concat0_0_concat0_0_0_split
I0122 11:44:29.974450 22077 net.cpp:406] concat0_0_concat0_0_0_split <- concat0_0
I0122 11:44:29.974458 22077 net.cpp:380] concat0_0_concat0_0_0_split -> concat0_0_concat0_0_0_split_0
I0122 11:44:29.974467 22077 net.cpp:380] concat0_0_concat0_0_0_split -> concat0_0_concat0_0_0_split_1
I0122 11:44:29.974539 22077 net.cpp:122] Setting up concat0_0_concat0_0_0_split
I0122 11:44:29.974548 22077 net.cpp:129] Top shape: 1 64 40 116 (296960)
I0122 11:44:29.974555 22077 net.cpp:129] Top shape: 1 64 40 116 (296960)
I0122 11:44:29.974558 22077 net.cpp:137] Memory required for data: 17139924
I0122 11:44:29.974562 22077 layer_factory.hpp:77] Creating layer conv0_1/bn
I0122 11:44:29.974571 22077 net.cpp:84] Creating Layer conv0_1/bn
I0122 11:44:29.974575 22077 net.cpp:406] conv0_1/bn <- concat0_0_concat0_0_0_split_0
I0122 11:44:29.974582 22077 net.cpp:380] conv0_1/bn -> conv0_1/bn
I0122 11:44:29.975028 22077 net.cpp:122] Setting up conv0_1/bn
I0122 11:44:29.975039 22077 net.cpp:129] Top shape: 1 64 40 116 (296960)
I0122 11:44:29.975044 22077 net.cpp:137] Memory required for data: 18327764
I0122 11:44:29.975054 22077 layer_factory.hpp:77] Creating layer conv0_1/scale
I0122 11:44:29.975064 22077 net.cpp:84] Creating Layer conv0_1/scale
I0122 11:44:29.975069 22077 net.cpp:406] conv0_1/scale <- conv0_1/bn
I0122 11:44:29.975076 22077 net.cpp:367] conv0_1/scale -> conv0_1/bn (in-place)
I0122 11:44:29.975154 22077 layer_factory.hpp:77] Creating layer conv0_1/scale
I0122 11:44:29.975401 22077 net.cpp:122] Setting up conv0_1/scale
I0122 11:44:29.975410 22077 net.cpp:129] Top shape: 1 64 40 116 (296960)
I0122 11:44:29.975414 22077 net.cpp:137] Memory required for data: 19515604
I0122 11:44:29.975425 22077 layer_factory.hpp:77] Creating layer relu0_1
I0122 11:44:29.975433 22077 net.cpp:84] Creating Layer relu0_1
I0122 11:44:29.975441 22077 net.cpp:406] relu0_1 <- conv0_1/bn
I0122 11:44:29.975450 22077 net.cpp:367] relu0_1 -> conv0_1/bn (in-place)
I0122 11:44:29.975930 22077 net.cpp:122] Setting up relu0_1
I0122 11:44:29.975944 22077 net.cpp:129] Top shape: 1 64 40 116 (296960)
I0122 11:44:29.975949 22077 net.cpp:137] Memory required for data: 20703444
I0122 11:44:29.975953 22077 layer_factory.hpp:77] Creating layer conv0_1
I0122 11:44:29.975966 22077 net.cpp:84] Creating Layer conv0_1
I0122 11:44:29.975972 22077 net.cpp:406] conv0_1 <- conv0_1/bn
I0122 11:44:29.975981 22077 net.cpp:380] conv0_1 -> conv0_1
I0122 11:44:29.978415 22077 net.cpp:122] Setting up conv0_1
I0122 11:44:29.978430 22077 net.cpp:129] Top shape: 1 32 40 116 (148480)
I0122 11:44:29.978435 22077 net.cpp:137] Memory required for data: 21297364
I0122 11:44:29.978443 22077 layer_factory.hpp:77] Creating layer concat0_1
I0122 11:44:29.978452 22077 net.cpp:84] Creating Layer concat0_1
I0122 11:44:29.978457 22077 net.cpp:406] concat0_1 <- concat0_0_concat0_0_0_split_1
I0122 11:44:29.978464 22077 net.cpp:406] concat0_1 <- conv0_1
I0122 11:44:29.978473 22077 net.cpp:380] concat0_1 -> concat0_1
I0122 11:44:29.978525 22077 net.cpp:122] Setting up concat0_1
I0122 11:44:29.978535 22077 net.cpp:129] Top shape: 1 96 40 116 (445440)
I0122 11:44:29.978539 22077 net.cpp:137] Memory required for data: 23079124
I0122 11:44:29.978544 22077 layer_factory.hpp:77] Creating layer concat0_1_concat0_1_0_split
I0122 11:44:29.978552 22077 net.cpp:84] Creating Layer concat0_1_concat0_1_0_split
I0122 11:44:29.978557 22077 net.cpp:406] concat0_1_concat0_1_0_split <- concat0_1
I0122 11:44:29.978564 22077 net.cpp:380] concat0_1_concat0_1_0_split -> concat0_1_concat0_1_0_split_0
I0122 11:44:29.978574 22077 net.cpp:380] concat0_1_concat0_1_0_split -> concat0_1_concat0_1_0_split_1
I0122 11:44:29.978653 22077 net.cpp:122] Setting up concat0_1_concat0_1_0_split
I0122 11:44:29.978662 22077 net.cpp:129] Top shape: 1 96 40 116 (445440)
I0122 11:44:29.978668 22077 net.cpp:129] Top shape: 1 96 40 116 (445440)
I0122 11:44:29.978672 22077 net.cpp:137] Memory required for data: 26642644
I0122 11:44:29.978677 22077 layer_factory.hpp:77] Creating layer conv0_2/bn
I0122 11:44:29.978687 22077 net.cpp:84] Creating Layer conv0_2/bn
I0122 11:44:29.978691 22077 net.cpp:406] conv0_2/bn <- concat0_1_concat0_1_0_split_0
I0122 11:44:29.978698 22077 net.cpp:380] conv0_2/bn -> conv0_2/bn
I0122 11:44:29.979166 22077 net.cpp:122] Setting up conv0_2/bn
I0122 11:44:29.979176 22077 net.cpp:129] Top shape: 1 96 40 116 (445440)
I0122 11:44:29.979179 22077 net.cpp:137] Memory required for data: 28424404
I0122 11:44:29.979190 22077 layer_factory.hpp:77] Creating layer conv0_2/scale
I0122 11:44:29.979199 22077 net.cpp:84] Creating Layer conv0_2/scale
I0122 11:44:29.979205 22077 net.cpp:406] conv0_2/scale <- conv0_2/bn
I0122 11:44:29.979212 22077 net.cpp:367] conv0_2/scale -> conv0_2/bn (in-place)
I0122 11:44:29.979288 22077 layer_factory.hpp:77] Creating layer conv0_2/scale
I0122 11:44:29.979550 22077 net.cpp:122] Setting up conv0_2/scale
I0122 11:44:29.979559 22077 net.cpp:129] Top shape: 1 96 40 116 (445440)
I0122 11:44:29.979563 22077 net.cpp:137] Memory required for data: 30206164
I0122 11:44:29.979571 22077 layer_factory.hpp:77] Creating layer relu0_2
I0122 11:44:29.979578 22077 net.cpp:84] Creating Layer relu0_2
I0122 11:44:29.979583 22077 net.cpp:406] relu0_2 <- conv0_2/bn
I0122 11:44:29.979589 22077 net.cpp:367] relu0_2 -> conv0_2/bn (in-place)
I0122 11:44:29.979857 22077 net.cpp:122] Setting up relu0_2
I0122 11:44:29.979869 22077 net.cpp:129] Top shape: 1 96 40 116 (445440)
I0122 11:44:29.979874 22077 net.cpp:137] Memory required for data: 31987924
I0122 11:44:29.979879 22077 layer_factory.hpp:77] Creating layer conv0_2
I0122 11:44:29.979892 22077 net.cpp:84] Creating Layer conv0_2
I0122 11:44:29.979897 22077 net.cpp:406] conv0_2 <- conv0_2/bn
I0122 11:44:29.979907 22077 net.cpp:380] conv0_2 -> conv0_2
I0122 11:44:29.982993 22077 net.cpp:122] Setting up conv0_2
I0122 11:44:29.983014 22077 net.cpp:129] Top shape: 1 32 40 116 (148480)
I0122 11:44:29.983024 22077 net.cpp:137] Memory required for data: 32581844
I0122 11:44:29.983032 22077 layer_factory.hpp:77] Creating layer concat0_2
I0122 11:44:29.983044 22077 net.cpp:84] Creating Layer concat0_2
I0122 11:44:29.983050 22077 net.cpp:406] concat0_2 <- concat0_1_concat0_1_0_split_1
I0122 11:44:29.983057 22077 net.cpp:406] concat0_2 <- conv0_2
I0122 11:44:29.983064 22077 net.cpp:380] concat0_2 -> concat0_2
I0122 11:44:29.983119 22077 net.cpp:122] Setting up concat0_2
I0122 11:44:29.983129 22077 net.cpp:129] Top shape: 1 128 40 116 (593920)
I0122 11:44:29.983132 22077 net.cpp:137] Memory required for data: 34957524
I0122 11:44:29.983137 22077 layer_factory.hpp:77] Creating layer concat0_2_concat0_2_0_split
I0122 11:44:29.983144 22077 net.cpp:84] Creating Layer concat0_2_concat0_2_0_split
I0122 11:44:29.983150 22077 net.cpp:406] concat0_2_concat0_2_0_split <- concat0_2
I0122 11:44:29.983155 22077 net.cpp:380] concat0_2_concat0_2_0_split -> concat0_2_concat0_2_0_split_0
I0122 11:44:29.983163 22077 net.cpp:380] concat0_2_concat0_2_0_split -> concat0_2_concat0_2_0_split_1
I0122 11:44:29.983237 22077 net.cpp:122] Setting up concat0_2_concat0_2_0_split
I0122 11:44:29.983247 22077 net.cpp:129] Top shape: 1 128 40 116 (593920)
I0122 11:44:29.983253 22077 net.cpp:129] Top shape: 1 128 40 116 (593920)
I0122 11:44:29.983258 22077 net.cpp:137] Memory required for data: 39708884
I0122 11:44:29.983263 22077 layer_factory.hpp:77] Creating layer conv0_3/bn
I0122 11:44:29.983270 22077 net.cpp:84] Creating Layer conv0_3/bn
I0122 11:44:29.983274 22077 net.cpp:406] conv0_3/bn <- concat0_2_concat0_2_0_split_0
I0122 11:44:29.983283 22077 net.cpp:380] conv0_3/bn -> conv0_3/bn
I0122 11:44:29.983741 22077 net.cpp:122] Setting up conv0_3/bn
I0122 11:44:29.983759 22077 net.cpp:129] Top shape: 1 128 40 116 (593920)
I0122 11:44:29.983764 22077 net.cpp:137] Memory required for data: 42084564
I0122 11:44:29.983775 22077 layer_factory.hpp:77] Creating layer conv0_3/scale
I0122 11:44:29.983784 22077 net.cpp:84] Creating Layer conv0_3/scale
I0122 11:44:29.983789 22077 net.cpp:406] conv0_3/scale <- conv0_3/bn
I0122 11:44:29.983798 22077 net.cpp:367] conv0_3/scale -> conv0_3/bn (in-place)
I0122 11:44:29.983878 22077 layer_factory.hpp:77] Creating layer conv0_3/scale
I0122 11:44:29.984123 22077 net.cpp:122] Setting up conv0_3/scale
I0122 11:44:29.984133 22077 net.cpp:129] Top shape: 1 128 40 116 (593920)
I0122 11:44:29.984136 22077 net.cpp:137] Memory required for data: 44460244
I0122 11:44:29.984144 22077 layer_factory.hpp:77] Creating layer relu0_3
I0122 11:44:29.984151 22077 net.cpp:84] Creating Layer relu0_3
I0122 11:44:29.984156 22077 net.cpp:406] relu0_3 <- conv0_3/bn
I0122 11:44:29.984163 22077 net.cpp:367] relu0_3 -> conv0_3/bn (in-place)
I0122 11:44:29.984657 22077 net.cpp:122] Setting up relu0_3
I0122 11:44:29.984670 22077 net.cpp:129] Top shape: 1 128 40 116 (593920)
I0122 11:44:29.984675 22077 net.cpp:137] Memory required for data: 46835924
I0122 11:44:29.984680 22077 layer_factory.hpp:77] Creating layer conv0_3
I0122 11:44:29.984694 22077 net.cpp:84] Creating Layer conv0_3
I0122 11:44:29.984699 22077 net.cpp:406] conv0_3 <- conv0_3/bn
I0122 11:44:29.984709 22077 net.cpp:380] conv0_3 -> conv0_3
I0122 11:44:29.988749 22077 net.cpp:122] Setting up conv0_3
I0122 11:44:29.988765 22077 net.cpp:129] Top shape: 1 32 40 116 (148480)
I0122 11:44:29.988770 22077 net.cpp:137] Memory required for data: 47429844
I0122 11:44:29.988778 22077 layer_factory.hpp:77] Creating layer concat0_3
I0122 11:44:29.988788 22077 net.cpp:84] Creating Layer concat0_3
I0122 11:44:29.988795 22077 net.cpp:406] concat0_3 <- concat0_2_concat0_2_0_split_1
I0122 11:44:29.988801 22077 net.cpp:406] concat0_3 <- conv0_3
I0122 11:44:29.988807 22077 net.cpp:380] concat0_3 -> concat0_3
I0122 11:44:29.988862 22077 net.cpp:122] Setting up concat0_3
I0122 11:44:29.988870 22077 net.cpp:129] Top shape: 1 160 40 116 (742400)
I0122 11:44:29.988874 22077 net.cpp:137] Memory required for data: 50399444
I0122 11:44:29.988879 22077 layer_factory.hpp:77] Creating layer concat0_3_concat0_3_0_split
I0122 11:44:29.988890 22077 net.cpp:84] Creating Layer concat0_3_concat0_3_0_split
I0122 11:44:29.988895 22077 net.cpp:406] concat0_3_concat0_3_0_split <- concat0_3
I0122 11:44:29.988901 22077 net.cpp:380] concat0_3_concat0_3_0_split -> concat0_3_concat0_3_0_split_0
I0122 11:44:29.988909 22077 net.cpp:380] concat0_3_concat0_3_0_split -> concat0_3_concat0_3_0_split_1
I0122 11:44:29.988984 22077 net.cpp:122] Setting up concat0_3_concat0_3_0_split
I0122 11:44:29.988993 22077 net.cpp:129] Top shape: 1 160 40 116 (742400)
I0122 11:44:29.988999 22077 net.cpp:129] Top shape: 1 160 40 116 (742400)
I0122 11:44:29.989003 22077 net.cpp:137] Memory required for data: 56338644
I0122 11:44:29.989008 22077 layer_factory.hpp:77] Creating layer conv0_4/bn
I0122 11:44:29.989017 22077 net.cpp:84] Creating Layer conv0_4/bn
I0122 11:44:29.989022 22077 net.cpp:406] conv0_4/bn <- concat0_3_concat0_3_0_split_0
I0122 11:44:29.989030 22077 net.cpp:380] conv0_4/bn -> conv0_4/bn
I0122 11:44:29.989502 22077 net.cpp:122] Setting up conv0_4/bn
I0122 11:44:29.989511 22077 net.cpp:129] Top shape: 1 160 40 116 (742400)
I0122 11:44:29.989516 22077 net.cpp:137] Memory required for data: 59308244
I0122 11:44:29.989531 22077 layer_factory.hpp:77] Creating layer conv0_4/scale
I0122 11:44:29.989540 22077 net.cpp:84] Creating Layer conv0_4/scale
I0122 11:44:29.989544 22077 net.cpp:406] conv0_4/scale <- conv0_4/bn
I0122 11:44:29.989552 22077 net.cpp:367] conv0_4/scale -> conv0_4/bn (in-place)
I0122 11:44:29.989632 22077 layer_factory.hpp:77] Creating layer conv0_4/scale
I0122 11:44:29.989883 22077 net.cpp:122] Setting up conv0_4/scale
I0122 11:44:29.989892 22077 net.cpp:129] Top shape: 1 160 40 116 (742400)
I0122 11:44:29.989897 22077 net.cpp:137] Memory required for data: 62277844
I0122 11:44:29.989904 22077 layer_factory.hpp:77] Creating layer relu0_4
I0122 11:44:29.989912 22077 net.cpp:84] Creating Layer relu0_4
I0122 11:44:29.989917 22077 net.cpp:406] relu0_4 <- conv0_4/bn
I0122 11:44:29.989923 22077 net.cpp:367] relu0_4 -> conv0_4/bn (in-place)
I0122 11:44:29.990387 22077 net.cpp:122] Setting up relu0_4
I0122 11:44:29.990401 22077 net.cpp:129] Top shape: 1 160 40 116 (742400)
I0122 11:44:29.990406 22077 net.cpp:137] Memory required for data: 65247444
I0122 11:44:29.990411 22077 layer_factory.hpp:77] Creating layer conv0_4
I0122 11:44:29.990424 22077 net.cpp:84] Creating Layer conv0_4
I0122 11:44:29.990429 22077 net.cpp:406] conv0_4 <- conv0_4/bn
I0122 11:44:29.990437 22077 net.cpp:380] conv0_4 -> conv0_4
I0122 11:44:29.994351 22077 net.cpp:122] Setting up conv0_4
I0122 11:44:29.994367 22077 net.cpp:129] Top shape: 1 32 40 116 (148480)
I0122 11:44:29.994372 22077 net.cpp:137] Memory required for data: 65841364
I0122 11:44:29.994381 22077 layer_factory.hpp:77] Creating layer concat0_4
I0122 11:44:29.994390 22077 net.cpp:84] Creating Layer concat0_4
I0122 11:44:29.994395 22077 net.cpp:406] concat0_4 <- concat0_3_concat0_3_0_split_1
I0122 11:44:29.994402 22077 net.cpp:406] concat0_4 <- conv0_4
I0122 11:44:29.994410 22077 net.cpp:380] concat0_4 -> concat0_4
I0122 11:44:29.994467 22077 net.cpp:122] Setting up concat0_4
I0122 11:44:29.994474 22077 net.cpp:129] Top shape: 1 192 40 116 (890880)
I0122 11:44:29.994479 22077 net.cpp:137] Memory required for data: 69404884
I0122 11:44:29.994483 22077 layer_factory.hpp:77] Creating layer concat0_4_concat0_4_0_split
I0122 11:44:29.994490 22077 net.cpp:84] Creating Layer concat0_4_concat0_4_0_split
I0122 11:44:29.994494 22077 net.cpp:406] concat0_4_concat0_4_0_split <- concat0_4
I0122 11:44:29.994503 22077 net.cpp:380] concat0_4_concat0_4_0_split -> concat0_4_concat0_4_0_split_0
I0122 11:44:29.994513 22077 net.cpp:380] concat0_4_concat0_4_0_split -> concat0_4_concat0_4_0_split_1
I0122 11:44:29.994591 22077 net.cpp:122] Setting up concat0_4_concat0_4_0_split
I0122 11:44:29.994601 22077 net.cpp:129] Top shape: 1 192 40 116 (890880)
I0122 11:44:29.994606 22077 net.cpp:129] Top shape: 1 192 40 116 (890880)
I0122 11:44:29.994611 22077 net.cpp:137] Memory required for data: 76531924
I0122 11:44:29.994618 22077 layer_factory.hpp:77] Creating layer conv0_5/bn
I0122 11:44:29.994628 22077 net.cpp:84] Creating Layer conv0_5/bn
I0122 11:44:29.994633 22077 net.cpp:406] conv0_5/bn <- concat0_4_concat0_4_0_split_0
I0122 11:44:29.994640 22077 net.cpp:380] conv0_5/bn -> conv0_5/bn
I0122 11:44:29.995121 22077 net.cpp:122] Setting up conv0_5/bn
I0122 11:44:29.995131 22077 net.cpp:129] Top shape: 1 192 40 116 (890880)
I0122 11:44:29.995134 22077 net.cpp:137] Memory required for data: 80095444
I0122 11:44:29.995144 22077 layer_factory.hpp:77] Creating layer conv0_5/scale
I0122 11:44:29.995154 22077 net.cpp:84] Creating Layer conv0_5/scale
I0122 11:44:29.995159 22077 net.cpp:406] conv0_5/scale <- conv0_5/bn
I0122 11:44:29.995167 22077 net.cpp:367] conv0_5/scale -> conv0_5/bn (in-place)
I0122 11:44:29.995244 22077 layer_factory.hpp:77] Creating layer conv0_5/scale
I0122 11:44:29.995501 22077 net.cpp:122] Setting up conv0_5/scale
I0122 11:44:29.995512 22077 net.cpp:129] Top shape: 1 192 40 116 (890880)
I0122 11:44:29.995515 22077 net.cpp:137] Memory required for data: 83658964
I0122 11:44:29.995523 22077 layer_factory.hpp:77] Creating layer relu0_5
I0122 11:44:29.995530 22077 net.cpp:84] Creating Layer relu0_5
I0122 11:44:29.995535 22077 net.cpp:406] relu0_5 <- conv0_5/bn
I0122 11:44:29.995542 22077 net.cpp:367] relu0_5 -> conv0_5/bn (in-place)
I0122 11:44:29.995846 22077 net.cpp:122] Setting up relu0_5
I0122 11:44:29.995858 22077 net.cpp:129] Top shape: 1 192 40 116 (890880)
I0122 11:44:29.995863 22077 net.cpp:137] Memory required for data: 87222484
I0122 11:44:29.995868 22077 layer_factory.hpp:77] Creating layer conv0_5
I0122 11:44:29.995884 22077 net.cpp:84] Creating Layer conv0_5
I0122 11:44:29.995889 22077 net.cpp:406] conv0_5 <- conv0_5/bn
I0122 11:44:29.995899 22077 net.cpp:380] conv0_5 -> conv0_5
I0122 11:44:30.000082 22077 net.cpp:122] Setting up conv0_5
I0122 11:44:30.000103 22077 net.cpp:129] Top shape: 1 32 40 116 (148480)
I0122 11:44:30.000108 22077 net.cpp:137] Memory required for data: 87816404
I0122 11:44:30.000118 22077 layer_factory.hpp:77] Creating layer concat0_5
I0122 11:44:30.000129 22077 net.cpp:84] Creating Layer concat0_5
I0122 11:44:30.000135 22077 net.cpp:406] concat0_5 <- concat0_4_concat0_4_0_split_1
I0122 11:44:30.000142 22077 net.cpp:406] concat0_5 <- conv0_5
I0122 11:44:30.000149 22077 net.cpp:380] concat0_5 -> concat0_5
I0122 11:44:30.000202 22077 net.cpp:122] Setting up concat0_5
I0122 11:44:30.000211 22077 net.cpp:129] Top shape: 1 224 40 116 (1039360)
I0122 11:44:30.000216 22077 net.cpp:137] Memory required for data: 91973844
I0122 11:44:30.000219 22077 layer_factory.hpp:77] Creating layer concat0_5_concat0_5_0_split
I0122 11:44:30.000227 22077 net.cpp:84] Creating Layer concat0_5_concat0_5_0_split
I0122 11:44:30.000232 22077 net.cpp:406] concat0_5_concat0_5_0_split <- concat0_5
I0122 11:44:30.000238 22077 net.cpp:380] concat0_5_concat0_5_0_split -> concat0_5_concat0_5_0_split_0
I0122 11:44:30.000247 22077 net.cpp:380] concat0_5_concat0_5_0_split -> concat0_5_concat0_5_0_split_1
I0122 11:44:30.000319 22077 net.cpp:122] Setting up concat0_5_concat0_5_0_split
I0122 11:44:30.000327 22077 net.cpp:129] Top shape: 1 224 40 116 (1039360)
I0122 11:44:30.000334 22077 net.cpp:129] Top shape: 1 224 40 116 (1039360)
I0122 11:44:30.000337 22077 net.cpp:137] Memory required for data: 100288724
I0122 11:44:30.000341 22077 layer_factory.hpp:77] Creating layer conv0_6/bn
I0122 11:44:30.000350 22077 net.cpp:84] Creating Layer conv0_6/bn
I0122 11:44:30.000355 22077 net.cpp:406] conv0_6/bn <- concat0_5_concat0_5_0_split_0
I0122 11:44:30.000362 22077 net.cpp:380] conv0_6/bn -> conv0_6/bn
I0122 11:44:30.000833 22077 net.cpp:122] Setting up conv0_6/bn
I0122 11:44:30.000844 22077 net.cpp:129] Top shape: 1 224 40 116 (1039360)
I0122 11:44:30.000847 22077 net.cpp:137] Memory required for data: 104446164
I0122 11:44:30.000856 22077 layer_factory.hpp:77] Creating layer conv0_6/scale
I0122 11:44:30.000865 22077 net.cpp:84] Creating Layer conv0_6/scale
I0122 11:44:30.000870 22077 net.cpp:406] conv0_6/scale <- conv0_6/bn
I0122 11:44:30.000885 22077 net.cpp:367] conv0_6/scale -> conv0_6/bn (in-place)
I0122 11:44:30.000962 22077 layer_factory.hpp:77] Creating layer conv0_6/scale
I0122 11:44:30.001222 22077 net.cpp:122] Setting up conv0_6/scale
I0122 11:44:30.001231 22077 net.cpp:129] Top shape: 1 224 40 116 (1039360)
I0122 11:44:30.001235 22077 net.cpp:137] Memory required for data: 108603604
I0122 11:44:30.001243 22077 layer_factory.hpp:77] Creating layer relu0_6
I0122 11:44:30.001250 22077 net.cpp:84] Creating Layer relu0_6
I0122 11:44:30.001255 22077 net.cpp:406] relu0_6 <- conv0_6/bn
I0122 11:44:30.001262 22077 net.cpp:367] relu0_6 -> conv0_6/bn (in-place)
I0122 11:44:30.001715 22077 net.cpp:122] Setting up relu0_6
I0122 11:44:30.001729 22077 net.cpp:129] Top shape: 1 224 40 116 (1039360)
I0122 11:44:30.001732 22077 net.cpp:137] Memory required for data: 112761044
I0122 11:44:30.001737 22077 layer_factory.hpp:77] Creating layer conv0_6
I0122 11:44:30.001751 22077 net.cpp:84] Creating Layer conv0_6
I0122 11:44:30.001756 22077 net.cpp:406] conv0_6 <- conv0_6/bn
I0122 11:44:30.001765 22077 net.cpp:380] conv0_6 -> conv0_6
I0122 11:44:30.006436 22077 net.cpp:122] Setting up conv0_6
I0122 11:44:30.006460 22077 net.cpp:129] Top shape: 1 32 40 116 (148480)
I0122 11:44:30.006464 22077 net.cpp:137] Memory required for data: 113354964
I0122 11:44:30.006474 22077 layer_factory.hpp:77] Creating layer concat0_6
I0122 11:44:30.006484 22077 net.cpp:84] Creating Layer concat0_6
I0122 11:44:30.006490 22077 net.cpp:406] concat0_6 <- concat0_5_concat0_5_0_split_1
I0122 11:44:30.006497 22077 net.cpp:406] concat0_6 <- conv0_6
I0122 11:44:30.006505 22077 net.cpp:380] concat0_6 -> concat0_6
I0122 11:44:30.006557 22077 net.cpp:122] Setting up concat0_6
I0122 11:44:30.006569 22077 net.cpp:129] Top shape: 1 256 40 116 (1187840)
I0122 11:44:30.006573 22077 net.cpp:137] Memory required for data: 118106324
I0122 11:44:30.006577 22077 layer_factory.hpp:77] Creating layer concat0_6_concat0_6_0_split
I0122 11:44:30.006585 22077 net.cpp:84] Creating Layer concat0_6_concat0_6_0_split
I0122 11:44:30.006589 22077 net.cpp:406] concat0_6_concat0_6_0_split <- concat0_6
I0122 11:44:30.006595 22077 net.cpp:380] concat0_6_concat0_6_0_split -> concat0_6_concat0_6_0_split_0
I0122 11:44:30.006603 22077 net.cpp:380] concat0_6_concat0_6_0_split -> concat0_6_concat0_6_0_split_1
I0122 11:44:30.006677 22077 net.cpp:122] Setting up concat0_6_concat0_6_0_split
I0122 11:44:30.006685 22077 net.cpp:129] Top shape: 1 256 40 116 (1187840)
I0122 11:44:30.006691 22077 net.cpp:129] Top shape: 1 256 40 116 (1187840)
I0122 11:44:30.006695 22077 net.cpp:137] Memory required for data: 127609044
I0122 11:44:30.006700 22077 layer_factory.hpp:77] Creating layer conv0_7/bn
I0122 11:44:30.006707 22077 net.cpp:84] Creating Layer conv0_7/bn
I0122 11:44:30.006712 22077 net.cpp:406] conv0_7/bn <- concat0_6_concat0_6_0_split_0
I0122 11:44:30.006718 22077 net.cpp:380] conv0_7/bn -> conv0_7/bn
I0122 11:44:30.007163 22077 net.cpp:122] Setting up conv0_7/bn
I0122 11:44:30.007169 22077 net.cpp:129] Top shape: 1 256 40 116 (1187840)
I0122 11:44:30.007172 22077 net.cpp:137] Memory required for data: 132360404
I0122 11:44:30.007179 22077 layer_factory.hpp:77] Creating layer conv0_7/scale
I0122 11:44:30.007186 22077 net.cpp:84] Creating Layer conv0_7/scale
I0122 11:44:30.007189 22077 net.cpp:406] conv0_7/scale <- conv0_7/bn
I0122 11:44:30.007194 22077 net.cpp:367] conv0_7/scale -> conv0_7/bn (in-place)
I0122 11:44:30.007252 22077 layer_factory.hpp:77] Creating layer conv0_7/scale
I0122 11:44:30.007429 22077 net.cpp:122] Setting up conv0_7/scale
I0122 11:44:30.007436 22077 net.cpp:129] Top shape: 1 256 40 116 (1187840)
I0122 11:44:30.007438 22077 net.cpp:137] Memory required for data: 137111764
I0122 11:44:30.007442 22077 layer_factory.hpp:77] Creating layer relu0_7
I0122 11:44:30.007447 22077 net.cpp:84] Creating Layer relu0_7
I0122 11:44:30.007450 22077 net.cpp:406] relu0_7 <- conv0_7/bn
I0122 11:44:30.007455 22077 net.cpp:367] relu0_7 -> conv0_7/bn (in-place)
I0122 11:44:30.007647 22077 net.cpp:122] Setting up relu0_7
I0122 11:44:30.007658 22077 net.cpp:129] Top shape: 1 256 40 116 (1187840)
I0122 11:44:30.007661 22077 net.cpp:137] Memory required for data: 141863124
I0122 11:44:30.007664 22077 layer_factory.hpp:77] Creating layer conv0_7
I0122 11:44:30.007673 22077 net.cpp:84] Creating Layer conv0_7
I0122 11:44:30.007676 22077 net.cpp:406] conv0_7 <- conv0_7/bn
I0122 11:44:30.007683 22077 net.cpp:380] conv0_7 -> conv0_7
I0122 11:44:30.011565 22077 net.cpp:122] Setting up conv0_7
I0122 11:44:30.011577 22077 net.cpp:129] Top shape: 1 32 40 116 (148480)
I0122 11:44:30.011580 22077 net.cpp:137] Memory required for data: 142457044
I0122 11:44:30.011585 22077 layer_factory.hpp:77] Creating layer concat0_7
I0122 11:44:30.011592 22077 net.cpp:84] Creating Layer concat0_7
I0122 11:44:30.011596 22077 net.cpp:406] concat0_7 <- concat0_6_concat0_6_0_split_1
I0122 11:44:30.011600 22077 net.cpp:406] concat0_7 <- conv0_7
I0122 11:44:30.011605 22077 net.cpp:380] concat0_7 -> concat0_7
I0122 11:44:30.011646 22077 net.cpp:122] Setting up concat0_7
I0122 11:44:30.011652 22077 net.cpp:129] Top shape: 1 288 40 116 (1336320)
I0122 11:44:30.011654 22077 net.cpp:137] Memory required for data: 147802324
I0122 11:44:30.011657 22077 layer_factory.hpp:77] Creating layer concat0_7_concat0_7_0_split
I0122 11:44:30.011663 22077 net.cpp:84] Creating Layer concat0_7_concat0_7_0_split
I0122 11:44:30.011667 22077 net.cpp:406] concat0_7_concat0_7_0_split <- concat0_7
I0122 11:44:30.011670 22077 net.cpp:380] concat0_7_concat0_7_0_split -> concat0_7_concat0_7_0_split_0
I0122 11:44:30.011677 22077 net.cpp:380] concat0_7_concat0_7_0_split -> concat0_7_concat0_7_0_split_1
I0122 11:44:30.011730 22077 net.cpp:122] Setting up concat0_7_concat0_7_0_split
I0122 11:44:30.011736 22077 net.cpp:129] Top shape: 1 288 40 116 (1336320)
I0122 11:44:30.011739 22077 net.cpp:129] Top shape: 1 288 40 116 (1336320)
I0122 11:44:30.011742 22077 net.cpp:137] Memory required for data: 158492884
I0122 11:44:30.011744 22077 layer_factory.hpp:77] Creating layer conv0_8/bn
I0122 11:44:30.011756 22077 net.cpp:84] Creating Layer conv0_8/bn
I0122 11:44:30.011759 22077 net.cpp:406] conv0_8/bn <- concat0_7_concat0_7_0_split_0
I0122 11:44:30.011765 22077 net.cpp:380] conv0_8/bn -> conv0_8/bn
I0122 11:44:30.012138 22077 net.cpp:122] Setting up conv0_8/bn
I0122 11:44:30.012145 22077 net.cpp:129] Top shape: 1 288 40 116 (1336320)
I0122 11:44:30.012147 22077 net.cpp:137] Memory required for data: 163838164
I0122 11:44:30.012153 22077 layer_factory.hpp:77] Creating layer conv0_8/scale
I0122 11:44:30.012159 22077 net.cpp:84] Creating Layer conv0_8/scale
I0122 11:44:30.012162 22077 net.cpp:406] conv0_8/scale <- conv0_8/bn
I0122 11:44:30.012168 22077 net.cpp:367] conv0_8/scale -> conv0_8/bn (in-place)
I0122 11:44:30.012229 22077 layer_factory.hpp:77] Creating layer conv0_8/scale
I0122 11:44:30.012421 22077 net.cpp:122] Setting up conv0_8/scale
I0122 11:44:30.012428 22077 net.cpp:129] Top shape: 1 288 40 116 (1336320)
I0122 11:44:30.012430 22077 net.cpp:137] Memory required for data: 169183444
I0122 11:44:30.012435 22077 layer_factory.hpp:77] Creating layer relu0_8
I0122 11:44:30.012439 22077 net.cpp:84] Creating Layer relu0_8
I0122 11:44:30.012442 22077 net.cpp:406] relu0_8 <- conv0_8/bn
I0122 11:44:30.012446 22077 net.cpp:367] relu0_8 -> conv0_8/bn (in-place)
I0122 11:44:30.012795 22077 net.cpp:122] Setting up relu0_8
I0122 11:44:30.012805 22077 net.cpp:129] Top shape: 1 288 40 116 (1336320)
I0122 11:44:30.012809 22077 net.cpp:137] Memory required for data: 174528724
I0122 11:44:30.012811 22077 layer_factory.hpp:77] Creating layer conv0_8
I0122 11:44:30.012820 22077 net.cpp:84] Creating Layer conv0_8
I0122 11:44:30.012823 22077 net.cpp:406] conv0_8 <- conv0_8/bn
I0122 11:44:30.012828 22077 net.cpp:380] conv0_8 -> conv0_8
I0122 11:44:30.016238 22077 net.cpp:122] Setting up conv0_8
I0122 11:44:30.016249 22077 net.cpp:129] Top shape: 1 32 40 116 (148480)
I0122 11:44:30.016252 22077 net.cpp:137] Memory required for data: 175122644
I0122 11:44:30.016258 22077 layer_factory.hpp:77] Creating layer concat0_8
I0122 11:44:30.016265 22077 net.cpp:84] Creating Layer concat0_8
I0122 11:44:30.016268 22077 net.cpp:406] concat0_8 <- concat0_7_concat0_7_0_split_1
I0122 11:44:30.016274 22077 net.cpp:406] concat0_8 <- conv0_8
I0122 11:44:30.016278 22077 net.cpp:380] concat0_8 -> concat0_8
I0122 11:44:30.016319 22077 net.cpp:122] Setting up concat0_8
I0122 11:44:30.016325 22077 net.cpp:129] Top shape: 1 320 40 116 (1484800)
I0122 11:44:30.016327 22077 net.cpp:137] Memory required for data: 181061844
I0122 11:44:30.016330 22077 layer_factory.hpp:77] Creating layer concat0_8_concat0_8_0_split
I0122 11:44:30.016335 22077 net.cpp:84] Creating Layer concat0_8_concat0_8_0_split
I0122 11:44:30.016338 22077 net.cpp:406] concat0_8_concat0_8_0_split <- concat0_8
I0122 11:44:30.016342 22077 net.cpp:380] concat0_8_concat0_8_0_split -> concat0_8_concat0_8_0_split_0
I0122 11:44:30.016347 22077 net.cpp:380] concat0_8_concat0_8_0_split -> concat0_8_concat0_8_0_split_1
I0122 11:44:30.016402 22077 net.cpp:122] Setting up concat0_8_concat0_8_0_split
I0122 11:44:30.016408 22077 net.cpp:129] Top shape: 1 320 40 116 (1484800)
I0122 11:44:30.016412 22077 net.cpp:129] Top shape: 1 320 40 116 (1484800)
I0122 11:44:30.016413 22077 net.cpp:137] Memory required for data: 192940244
I0122 11:44:30.016415 22077 layer_factory.hpp:77] Creating layer conv0_9/bn
I0122 11:44:30.016422 22077 net.cpp:84] Creating Layer conv0_9/bn
I0122 11:44:30.016424 22077 net.cpp:406] conv0_9/bn <- concat0_8_concat0_8_0_split_0
I0122 11:44:30.016429 22077 net.cpp:380] conv0_9/bn -> conv0_9/bn
I0122 11:44:30.016780 22077 net.cpp:122] Setting up conv0_9/bn
I0122 11:44:30.016788 22077 net.cpp:129] Top shape: 1 320 40 116 (1484800)
I0122 11:44:30.016790 22077 net.cpp:137] Memory required for data: 198879444
I0122 11:44:30.016796 22077 layer_factory.hpp:77] Creating layer conv0_9/scale
I0122 11:44:30.016803 22077 net.cpp:84] Creating Layer conv0_9/scale
I0122 11:44:30.016805 22077 net.cpp:406] conv0_9/scale <- conv0_9/bn
I0122 11:44:30.016809 22077 net.cpp:367] conv0_9/scale -> conv0_9/bn (in-place)
I0122 11:44:30.016871 22077 layer_factory.hpp:77] Creating layer conv0_9/scale
I0122 11:44:30.017067 22077 net.cpp:122] Setting up conv0_9/scale
I0122 11:44:30.017073 22077 net.cpp:129] Top shape: 1 320 40 116 (1484800)
I0122 11:44:30.017076 22077 net.cpp:137] Memory required for data: 204818644
I0122 11:44:30.017086 22077 layer_factory.hpp:77] Creating layer relu0_9
I0122 11:44:30.017094 22077 net.cpp:84] Creating Layer relu0_9
I0122 11:44:30.017097 22077 net.cpp:406] relu0_9 <- conv0_9/bn
I0122 11:44:30.017102 22077 net.cpp:367] relu0_9 -> conv0_9/bn (in-place)
I0122 11:44:30.017462 22077 net.cpp:122] Setting up relu0_9
I0122 11:44:30.017472 22077 net.cpp:129] Top shape: 1 320 40 116 (1484800)
I0122 11:44:30.017474 22077 net.cpp:137] Memory required for data: 210757844
I0122 11:44:30.017478 22077 layer_factory.hpp:77] Creating layer conv0_9
I0122 11:44:30.017488 22077 net.cpp:84] Creating Layer conv0_9
I0122 11:44:30.017493 22077 net.cpp:406] conv0_9 <- conv0_9/bn
I0122 11:44:30.017498 22077 net.cpp:380] conv0_9 -> conv0_9
I0122 11:44:30.021446 22077 net.cpp:122] Setting up conv0_9
I0122 11:44:30.021476 22077 net.cpp:129] Top shape: 1 32 40 116 (148480)
I0122 11:44:30.021478 22077 net.cpp:137] Memory required for data: 211351764
I0122 11:44:30.021488 22077 layer_factory.hpp:77] Creating layer concat0_9
I0122 11:44:30.021498 22077 net.cpp:84] Creating Layer concat0_9
I0122 11:44:30.021503 22077 net.cpp:406] concat0_9 <- concat0_8_concat0_8_0_split_1
I0122 11:44:30.021509 22077 net.cpp:406] concat0_9 <- conv0_9
I0122 11:44:30.021515 22077 net.cpp:380] concat0_9 -> concat0_9
I0122 11:44:30.021561 22077 net.cpp:122] Setting up concat0_9
I0122 11:44:30.021567 22077 net.cpp:129] Top shape: 1 352 40 116 (1633280)
I0122 11:44:30.021569 22077 net.cpp:137] Memory required for data: 217884884
I0122 11:44:30.021572 22077 layer_factory.hpp:77] Creating layer concat0_9_concat0_9_0_split
I0122 11:44:30.021576 22077 net.cpp:84] Creating Layer concat0_9_concat0_9_0_split
I0122 11:44:30.021579 22077 net.cpp:406] concat0_9_concat0_9_0_split <- concat0_9
I0122 11:44:30.021589 22077 net.cpp:380] concat0_9_concat0_9_0_split -> concat0_9_concat0_9_0_split_0
I0122 11:44:30.021595 22077 net.cpp:380] concat0_9_concat0_9_0_split -> concat0_9_concat0_9_0_split_1
I0122 11:44:30.021651 22077 net.cpp:122] Setting up concat0_9_concat0_9_0_split
I0122 11:44:30.021657 22077 net.cpp:129] Top shape: 1 352 40 116 (1633280)
I0122 11:44:30.021661 22077 net.cpp:129] Top shape: 1 352 40 116 (1633280)
I0122 11:44:30.021663 22077 net.cpp:137] Memory required for data: 230951124
I0122 11:44:30.021666 22077 layer_factory.hpp:77] Creating layer conv0_10/bn
I0122 11:44:30.021674 22077 net.cpp:84] Creating Layer conv0_10/bn
I0122 11:44:30.021677 22077 net.cpp:406] conv0_10/bn <- concat0_9_concat0_9_0_split_0
I0122 11:44:30.021682 22077 net.cpp:380] conv0_10/bn -> conv0_10/bn
I0122 11:44:30.022063 22077 net.cpp:122] Setting up conv0_10/bn
I0122 11:44:30.022070 22077 net.cpp:129] Top shape: 1 352 40 116 (1633280)
I0122 11:44:30.022073 22077 net.cpp:137] Memory required for data: 237484244
I0122 11:44:30.022079 22077 layer_factory.hpp:77] Creating layer conv0_10/scale
I0122 11:44:30.022085 22077 net.cpp:84] Creating Layer conv0_10/scale
I0122 11:44:30.022089 22077 net.cpp:406] conv0_10/scale <- conv0_10/bn
I0122 11:44:30.022094 22077 net.cpp:367] conv0_10/scale -> conv0_10/bn (in-place)
I0122 11:44:30.022158 22077 layer_factory.hpp:77] Creating layer conv0_10/scale
I0122 11:44:30.022377 22077 net.cpp:122] Setting up conv0_10/scale
I0122 11:44:30.022384 22077 net.cpp:129] Top shape: 1 352 40 116 (1633280)
I0122 11:44:30.022387 22077 net.cpp:137] Memory required for data: 244017364
I0122 11:44:30.022392 22077 layer_factory.hpp:77] Creating layer relu0_10
I0122 11:44:30.022398 22077 net.cpp:84] Creating Layer relu0_10
I0122 11:44:30.022402 22077 net.cpp:406] relu0_10 <- conv0_10/bn
I0122 11:44:30.022405 22077 net.cpp:367] relu0_10 -> conv0_10/bn (in-place)
I0122 11:44:30.022610 22077 net.cpp:122] Setting up relu0_10
I0122 11:44:30.022619 22077 net.cpp:129] Top shape: 1 352 40 116 (1633280)
I0122 11:44:30.022621 22077 net.cpp:137] Memory required for data: 250550484
I0122 11:44:30.022624 22077 layer_factory.hpp:77] Creating layer conv0_10
I0122 11:44:30.022634 22077 net.cpp:84] Creating Layer conv0_10
I0122 11:44:30.022636 22077 net.cpp:406] conv0_10 <- conv0_10/bn
I0122 11:44:30.022640 22077 net.cpp:380] conv0_10 -> conv0_10
I0122 11:44:30.027179 22077 net.cpp:122] Setting up conv0_10
I0122 11:44:30.027197 22077 net.cpp:129] Top shape: 1 32 40 116 (148480)
I0122 11:44:30.027200 22077 net.cpp:137] Memory required for data: 251144404
I0122 11:44:30.027206 22077 layer_factory.hpp:77] Creating layer concat0_10
I0122 11:44:30.027214 22077 net.cpp:84] Creating Layer concat0_10
I0122 11:44:30.027217 22077 net.cpp:406] concat0_10 <- concat0_9_concat0_9_0_split_1
I0122 11:44:30.027222 22077 net.cpp:406] concat0_10 <- conv0_10
I0122 11:44:30.027226 22077 net.cpp:380] concat0_10 -> concat0_10
I0122 11:44:30.027271 22077 net.cpp:122] Setting up concat0_10
I0122 11:44:30.027276 22077 net.cpp:129] Top shape: 1 384 40 116 (1781760)
I0122 11:44:30.027278 22077 net.cpp:137] Memory required for data: 258271444
I0122 11:44:30.027281 22077 layer_factory.hpp:77] Creating layer concat0_10_concat0_10_0_split
I0122 11:44:30.027285 22077 net.cpp:84] Creating Layer concat0_10_concat0_10_0_split
I0122 11:44:30.027288 22077 net.cpp:406] concat0_10_concat0_10_0_split <- concat0_10
I0122 11:44:30.027293 22077 net.cpp:380] concat0_10_concat0_10_0_split -> concat0_10_concat0_10_0_split_0
I0122 11:44:30.027298 22077 net.cpp:380] concat0_10_concat0_10_0_split -> concat0_10_concat0_10_0_split_1
I0122 11:44:30.027354 22077 net.cpp:122] Setting up concat0_10_concat0_10_0_split
I0122 11:44:30.027359 22077 net.cpp:129] Top shape: 1 384 40 116 (1781760)
I0122 11:44:30.027362 22077 net.cpp:129] Top shape: 1 384 40 116 (1781760)
I0122 11:44:30.027364 22077 net.cpp:137] Memory required for data: 272525524
I0122 11:44:30.027367 22077 layer_factory.hpp:77] Creating layer conv0_11/bn
I0122 11:44:30.027372 22077 net.cpp:84] Creating Layer conv0_11/bn
I0122 11:44:30.027379 22077 net.cpp:406] conv0_11/bn <- concat0_10_concat0_10_0_split_0
I0122 11:44:30.027384 22077 net.cpp:380] conv0_11/bn -> conv0_11/bn
I0122 11:44:30.027745 22077 net.cpp:122] Setting up conv0_11/bn
I0122 11:44:30.027757 22077 net.cpp:129] Top shape: 1 384 40 116 (1781760)
I0122 11:44:30.027760 22077 net.cpp:137] Memory required for data: 279652564
I0122 11:44:30.027766 22077 layer_factory.hpp:77] Creating layer conv0_11/scale
I0122 11:44:30.027773 22077 net.cpp:84] Creating Layer conv0_11/scale
I0122 11:44:30.027777 22077 net.cpp:406] conv0_11/scale <- conv0_11/bn
I0122 11:44:30.027781 22077 net.cpp:367] conv0_11/scale -> conv0_11/bn (in-place)
I0122 11:44:30.027838 22077 layer_factory.hpp:77] Creating layer conv0_11/scale
I0122 11:44:30.028024 22077 net.cpp:122] Setting up conv0_11/scale
I0122 11:44:30.028030 22077 net.cpp:129] Top shape: 1 384 40 116 (1781760)
I0122 11:44:30.028033 22077 net.cpp:137] Memory required for data: 286779604
I0122 11:44:30.028038 22077 layer_factory.hpp:77] Creating layer relu0_11
I0122 11:44:30.028043 22077 net.cpp:84] Creating Layer relu0_11
I0122 11:44:30.028045 22077 net.cpp:406] relu0_11 <- conv0_11/bn
I0122 11:44:30.028048 22077 net.cpp:367] relu0_11 -> conv0_11/bn (in-place)
I0122 11:44:30.028400 22077 net.cpp:122] Setting up relu0_11
I0122 11:44:30.028410 22077 net.cpp:129] Top shape: 1 384 40 116 (1781760)
I0122 11:44:30.028414 22077 net.cpp:137] Memory required for data: 293906644
I0122 11:44:30.028416 22077 layer_factory.hpp:77] Creating layer conv0_11
I0122 11:44:30.028425 22077 net.cpp:84] Creating Layer conv0_11
I0122 11:44:30.028429 22077 net.cpp:406] conv0_11 <- conv0_11/bn
I0122 11:44:30.028434 22077 net.cpp:380] conv0_11 -> conv0_11
I0122 11:44:30.032945 22077 net.cpp:122] Setting up conv0_11
I0122 11:44:30.032964 22077 net.cpp:129] Top shape: 1 32 40 116 (148480)
I0122 11:44:30.032968 22077 net.cpp:137] Memory required for data: 294500564
I0122 11:44:30.032976 22077 layer_factory.hpp:77] Creating layer concat0_11
I0122 11:44:30.032985 22077 net.cpp:84] Creating Layer concat0_11
I0122 11:44:30.032992 22077 net.cpp:406] concat0_11 <- concat0_10_concat0_10_0_split_1
I0122 11:44:30.032999 22077 net.cpp:406] concat0_11 <- conv0_11
I0122 11:44:30.033004 22077 net.cpp:380] concat0_11 -> concat0_11
I0122 11:44:30.033061 22077 net.cpp:122] Setting up concat0_11
I0122 11:44:30.033069 22077 net.cpp:129] Top shape: 1 416 40 116 (1930240)
I0122 11:44:30.033073 22077 net.cpp:137] Memory required for data: 302221524
I0122 11:44:30.033077 22077 layer_factory.hpp:77] Creating layer concat0_11_concat0_11_0_split
I0122 11:44:30.033085 22077 net.cpp:84] Creating Layer concat0_11_concat0_11_0_split
I0122 11:44:30.033089 22077 net.cpp:406] concat0_11_concat0_11_0_split <- concat0_11
I0122 11:44:30.033095 22077 net.cpp:380] concat0_11_concat0_11_0_split -> concat0_11_concat0_11_0_split_0
I0122 11:44:30.033103 22077 net.cpp:380] concat0_11_concat0_11_0_split -> concat0_11_concat0_11_0_split_1
I0122 11:44:30.033179 22077 net.cpp:122] Setting up concat0_11_concat0_11_0_split
I0122 11:44:30.033187 22077 net.cpp:129] Top shape: 1 416 40 116 (1930240)
I0122 11:44:30.033192 22077 net.cpp:129] Top shape: 1 416 40 116 (1930240)
I0122 11:44:30.033196 22077 net.cpp:137] Memory required for data: 317663444
I0122 11:44:30.033200 22077 layer_factory.hpp:77] Creating layer conv0_12/bn
I0122 11:44:30.033208 22077 net.cpp:84] Creating Layer conv0_12/bn
I0122 11:44:30.033212 22077 net.cpp:406] conv0_12/bn <- concat0_11_concat0_11_0_split_0
I0122 11:44:30.033219 22077 net.cpp:380] conv0_12/bn -> conv0_12/bn
I0122 11:44:30.033713 22077 net.cpp:122] Setting up conv0_12/bn
I0122 11:44:30.033722 22077 net.cpp:129] Top shape: 1 416 40 116 (1930240)
I0122 11:44:30.033726 22077 net.cpp:137] Memory required for data: 325384404
I0122 11:44:30.033735 22077 layer_factory.hpp:77] Creating layer conv0_12/scale
I0122 11:44:30.033743 22077 net.cpp:84] Creating Layer conv0_12/scale
I0122 11:44:30.033747 22077 net.cpp:406] conv0_12/scale <- conv0_12/bn
I0122 11:44:30.033756 22077 net.cpp:367] conv0_12/scale -> conv0_12/bn (in-place)
I0122 11:44:30.033846 22077 layer_factory.hpp:77] Creating layer conv0_12/scale
I0122 11:44:30.034117 22077 net.cpp:122] Setting up conv0_12/scale
I0122 11:44:30.034126 22077 net.cpp:129] Top shape: 1 416 40 116 (1930240)
I0122 11:44:30.034131 22077 net.cpp:137] Memory required for data: 333105364
I0122 11:44:30.034137 22077 layer_factory.hpp:77] Creating layer relu0_12
I0122 11:44:30.034147 22077 net.cpp:84] Creating Layer relu0_12
I0122 11:44:30.034152 22077 net.cpp:406] relu0_12 <- conv0_12/bn
I0122 11:44:30.034157 22077 net.cpp:367] relu0_12 -> conv0_12/bn (in-place)
I0122 11:44:30.034405 22077 net.cpp:122] Setting up relu0_12
I0122 11:44:30.034415 22077 net.cpp:129] Top shape: 1 416 40 116 (1930240)
I0122 11:44:30.034420 22077 net.cpp:137] Memory required for data: 340826324
I0122 11:44:30.034425 22077 layer_factory.hpp:77] Creating layer conv0_12
I0122 11:44:30.034438 22077 net.cpp:84] Creating Layer conv0_12
I0122 11:44:30.034445 22077 net.cpp:406] conv0_12 <- conv0_12/bn
I0122 11:44:30.034451 22077 net.cpp:380] conv0_12 -> conv0_12
I0122 11:44:30.041718 22077 net.cpp:122] Setting up conv0_12
I0122 11:44:30.041752 22077 net.cpp:129] Top shape: 1 32 40 116 (148480)
I0122 11:44:30.041757 22077 net.cpp:137] Memory required for data: 341420244
I0122 11:44:30.041767 22077 layer_factory.hpp:77] Creating layer concat0_12
I0122 11:44:30.041779 22077 net.cpp:84] Creating Layer concat0_12
I0122 11:44:30.041785 22077 net.cpp:406] concat0_12 <- concat0_11_concat0_11_0_split_1
I0122 11:44:30.041792 22077 net.cpp:406] concat0_12 <- conv0_12
I0122 11:44:30.041800 22077 net.cpp:380] concat0_12 -> concat0_12
I0122 11:44:30.041860 22077 net.cpp:122] Setting up concat0_12
I0122 11:44:30.041869 22077 net.cpp:129] Top shape: 1 448 40 116 (2078720)
I0122 11:44:30.041872 22077 net.cpp:137] Memory required for data: 349735124
I0122 11:44:30.041877 22077 layer_factory.hpp:77] Creating layer concat0_12_concat0_12_0_split
I0122 11:44:30.041884 22077 net.cpp:84] Creating Layer concat0_12_concat0_12_0_split
I0122 11:44:30.041888 22077 net.cpp:406] concat0_12_concat0_12_0_split <- concat0_12
I0122 11:44:30.041894 22077 net.cpp:380] concat0_12_concat0_12_0_split -> concat0_12_concat0_12_0_split_0
I0122 11:44:30.041903 22077 net.cpp:380] concat0_12_concat0_12_0_split -> concat0_12_concat0_12_0_split_1
I0122 11:44:30.041981 22077 net.cpp:122] Setting up concat0_12_concat0_12_0_split
I0122 11:44:30.041990 22077 net.cpp:129] Top shape: 1 448 40 116 (2078720)
I0122 11:44:30.041996 22077 net.cpp:129] Top shape: 1 448 40 116 (2078720)
I0122 11:44:30.041999 22077 net.cpp:137] Memory required for data: 366364884
I0122 11:44:30.042003 22077 layer_factory.hpp:77] Creating layer conv0_13/bn
I0122 11:44:30.042011 22077 net.cpp:84] Creating Layer conv0_13/bn
I0122 11:44:30.042014 22077 net.cpp:406] conv0_13/bn <- concat0_12_concat0_12_0_split_0
I0122 11:44:30.042022 22077 net.cpp:380] conv0_13/bn -> conv0_13/bn
I0122 11:44:30.042551 22077 net.cpp:122] Setting up conv0_13/bn
I0122 11:44:30.042559 22077 net.cpp:129] Top shape: 1 448 40 116 (2078720)
I0122 11:44:30.042563 22077 net.cpp:137] Memory required for data: 374679764
I0122 11:44:30.042573 22077 layer_factory.hpp:77] Creating layer conv0_13/scale
I0122 11:44:30.042583 22077 net.cpp:84] Creating Layer conv0_13/scale
I0122 11:44:30.042588 22077 net.cpp:406] conv0_13/scale <- conv0_13/bn
I0122 11:44:30.042595 22077 net.cpp:367] conv0_13/scale -> conv0_13/bn (in-place)
I0122 11:44:30.042682 22077 layer_factory.hpp:77] Creating layer conv0_13/scale
I0122 11:44:30.042958 22077 net.cpp:122] Setting up conv0_13/scale
I0122 11:44:30.042968 22077 net.cpp:129] Top shape: 1 448 40 116 (2078720)
I0122 11:44:30.042971 22077 net.cpp:137] Memory required for data: 382994644
I0122 11:44:30.042979 22077 layer_factory.hpp:77] Creating layer relu0_13
I0122 11:44:30.042986 22077 net.cpp:84] Creating Layer relu0_13
I0122 11:44:30.042991 22077 net.cpp:406] relu0_13 <- conv0_13/bn
I0122 11:44:30.042996 22077 net.cpp:367] relu0_13 -> conv0_13/bn (in-place)
I0122 11:44:30.043469 22077 net.cpp:122] Setting up relu0_13
I0122 11:44:30.043483 22077 net.cpp:129] Top shape: 1 448 40 116 (2078720)
I0122 11:44:30.043488 22077 net.cpp:137] Memory required for data: 391309524
I0122 11:44:30.043493 22077 layer_factory.hpp:77] Creating layer conv0_13
I0122 11:44:30.043504 22077 net.cpp:84] Creating Layer conv0_13
I0122 11:44:30.043509 22077 net.cpp:406] conv0_13 <- conv0_13/bn
I0122 11:44:30.043517 22077 net.cpp:380] conv0_13 -> conv0_13
I0122 11:44:30.050426 22077 net.cpp:122] Setting up conv0_13
I0122 11:44:30.050459 22077 net.cpp:129] Top shape: 1 32 40 116 (148480)
I0122 11:44:30.050464 22077 net.cpp:137] Memory required for data: 391903444
I0122 11:44:30.050474 22077 layer_factory.hpp:77] Creating layer concat0_13
I0122 11:44:30.050485 22077 net.cpp:84] Creating Layer concat0_13
I0122 11:44:30.050493 22077 net.cpp:406] concat0_13 <- concat0_12_concat0_12_0_split_1
I0122 11:44:30.050500 22077 net.cpp:406] concat0_13 <- conv0_13
I0122 11:44:30.050506 22077 net.cpp:380] concat0_13 -> concat0_13
I0122 11:44:30.050563 22077 net.cpp:122] Setting up concat0_13
I0122 11:44:30.050571 22077 net.cpp:129] Top shape: 1 480 40 116 (2227200)
I0122 11:44:30.050575 22077 net.cpp:137] Memory required for data: 400812244
I0122 11:44:30.050580 22077 layer_factory.hpp:77] Creating layer concat0_13_concat0_13_0_split
I0122 11:44:30.050586 22077 net.cpp:84] Creating Layer concat0_13_concat0_13_0_split
I0122 11:44:30.050590 22077 net.cpp:406] concat0_13_concat0_13_0_split <- concat0_13
I0122 11:44:30.050596 22077 net.cpp:380] concat0_13_concat0_13_0_split -> concat0_13_concat0_13_0_split_0
I0122 11:44:30.050606 22077 net.cpp:380] concat0_13_concat0_13_0_split -> concat0_13_concat0_13_0_split_1
I0122 11:44:30.050684 22077 net.cpp:122] Setting up concat0_13_concat0_13_0_split
I0122 11:44:30.050693 22077 net.cpp:129] Top shape: 1 480 40 116 (2227200)
I0122 11:44:30.050698 22077 net.cpp:129] Top shape: 1 480 40 116 (2227200)
I0122 11:44:30.050703 22077 net.cpp:137] Memory required for data: 418629844
I0122 11:44:30.050707 22077 layer_factory.hpp:77] Creating layer conv0_14/bn
I0122 11:44:30.050714 22077 net.cpp:84] Creating Layer conv0_14/bn
I0122 11:44:30.050719 22077 net.cpp:406] conv0_14/bn <- concat0_13_concat0_13_0_split_0
I0122 11:44:30.050726 22077 net.cpp:380] conv0_14/bn -> conv0_14/bn
I0122 11:44:30.051267 22077 net.cpp:122] Setting up conv0_14/bn
I0122 11:44:30.051276 22077 net.cpp:129] Top shape: 1 480 40 116 (2227200)
I0122 11:44:30.051280 22077 net.cpp:137] Memory required for data: 427538644
I0122 11:44:30.051290 22077 layer_factory.hpp:77] Creating layer conv0_14/scale
I0122 11:44:30.051300 22077 net.cpp:84] Creating Layer conv0_14/scale
I0122 11:44:30.051303 22077 net.cpp:406] conv0_14/scale <- conv0_14/bn
I0122 11:44:30.051313 22077 net.cpp:367] conv0_14/scale -> conv0_14/bn (in-place)
I0122 11:44:30.051403 22077 layer_factory.hpp:77] Creating layer conv0_14/scale
I0122 11:44:30.051678 22077 net.cpp:122] Setting up conv0_14/scale
I0122 11:44:30.051687 22077 net.cpp:129] Top shape: 1 480 40 116 (2227200)
I0122 11:44:30.051692 22077 net.cpp:137] Memory required for data: 436447444
I0122 11:44:30.051698 22077 layer_factory.hpp:77] Creating layer relu0_14
I0122 11:44:30.051705 22077 net.cpp:84] Creating Layer relu0_14
I0122 11:44:30.051710 22077 net.cpp:406] relu0_14 <- conv0_14/bn
I0122 11:44:30.051715 22077 net.cpp:367] relu0_14 -> conv0_14/bn (in-place)
I0122 11:44:30.052165 22077 net.cpp:122] Setting up relu0_14
I0122 11:44:30.052178 22077 net.cpp:129] Top shape: 1 480 40 116 (2227200)
I0122 11:44:30.052182 22077 net.cpp:137] Memory required for data: 445356244
I0122 11:44:30.052186 22077 layer_factory.hpp:77] Creating layer conv0_14
I0122 11:44:30.052199 22077 net.cpp:84] Creating Layer conv0_14
I0122 11:44:30.052204 22077 net.cpp:406] conv0_14 <- conv0_14/bn
I0122 11:44:30.052211 22077 net.cpp:380] conv0_14 -> conv0_14
I0122 11:44:30.060233 22077 net.cpp:122] Setting up conv0_14
I0122 11:44:30.060248 22077 net.cpp:129] Top shape: 1 32 40 116 (148480)
I0122 11:44:30.060253 22077 net.cpp:137] Memory required for data: 445950164
I0122 11:44:30.060263 22077 layer_factory.hpp:77] Creating layer concat0_14
I0122 11:44:30.060273 22077 net.cpp:84] Creating Layer concat0_14
I0122 11:44:30.060279 22077 net.cpp:406] concat0_14 <- concat0_13_concat0_13_0_split_1
I0122 11:44:30.060286 22077 net.cpp:406] concat0_14 <- conv0_14
I0122 11:44:30.060292 22077 net.cpp:380] concat0_14 -> concat0_14
I0122 11:44:30.060346 22077 net.cpp:122] Setting up concat0_14
I0122 11:44:30.060355 22077 net.cpp:129] Top shape: 1 512 40 116 (2375680)
I0122 11:44:30.060359 22077 net.cpp:137] Memory required for data: 455452884
I0122 11:44:30.060364 22077 layer_factory.hpp:77] Creating layer BatchNorm1
I0122 11:44:30.060371 22077 net.cpp:84] Creating Layer BatchNorm1
I0122 11:44:30.060375 22077 net.cpp:406] BatchNorm1 <- concat0_14
I0122 11:44:30.060384 22077 net.cpp:380] BatchNorm1 -> BatchNorm1
I0122 11:44:30.060879 22077 net.cpp:122] Setting up BatchNorm1
I0122 11:44:30.060889 22077 net.cpp:129] Top shape: 1 512 40 116 (2375680)
I0122 11:44:30.060892 22077 net.cpp:137] Memory required for data: 464955604
I0122 11:44:30.060902 22077 layer_factory.hpp:77] Creating layer Scale1
I0122 11:44:30.060911 22077 net.cpp:84] Creating Layer Scale1
I0122 11:44:30.060915 22077 net.cpp:406] Scale1 <- BatchNorm1
I0122 11:44:30.060921 22077 net.cpp:367] Scale1 -> BatchNorm1 (in-place)
I0122 11:44:30.060995 22077 layer_factory.hpp:77] Creating layer Scale1
I0122 11:44:30.061260 22077 net.cpp:122] Setting up Scale1
I0122 11:44:30.061269 22077 net.cpp:129] Top shape: 1 512 40 116 (2375680)
I0122 11:44:30.061273 22077 net.cpp:137] Memory required for data: 474458324
I0122 11:44:30.061280 22077 layer_factory.hpp:77] Creating layer ReLU1
I0122 11:44:30.061287 22077 net.cpp:84] Creating Layer ReLU1
I0122 11:44:30.061291 22077 net.cpp:406] ReLU1 <- BatchNorm1
I0122 11:44:30.061296 22077 net.cpp:367] ReLU1 -> BatchNorm1 (in-place)
I0122 11:44:30.061547 22077 net.cpp:122] Setting up ReLU1
I0122 11:44:30.061556 22077 net.cpp:129] Top shape: 1 512 40 116 (2375680)
I0122 11:44:30.061560 22077 net.cpp:137] Memory required for data: 483961044
I0122 11:44:30.061564 22077 layer_factory.hpp:77] Creating layer conv0_blk
I0122 11:44:30.061575 22077 net.cpp:84] Creating Layer conv0_blk
I0122 11:44:30.061580 22077 net.cpp:406] conv0_blk <- BatchNorm1
I0122 11:44:30.061589 22077 net.cpp:380] conv0_blk -> conv0_blk
I0122 11:44:30.073601 22077 net.cpp:122] Setting up conv0_blk
I0122 11:44:30.073618 22077 net.cpp:129] Top shape: 1 512 40 116 (2375680)
I0122 11:44:30.073623 22077 net.cpp:137] Memory required for data: 493463764
I0122 11:44:30.073631 22077 layer_factory.hpp:77] Creating layer pool0
I0122 11:44:30.073642 22077 net.cpp:84] Creating Layer pool0
I0122 11:44:30.073647 22077 net.cpp:406] pool0 <- conv0_blk
I0122 11:44:30.073654 22077 net.cpp:380] pool0 -> pool0
I0122 11:44:30.074141 22077 net.cpp:122] Setting up pool0
I0122 11:44:30.074154 22077 net.cpp:129] Top shape: 1 512 20 58 (593920)
I0122 11:44:30.074158 22077 net.cpp:137] Memory required for data: 495839444
I0122 11:44:30.074163 22077 layer_factory.hpp:77] Creating layer pool0_pool0_0_split
I0122 11:44:30.074172 22077 net.cpp:84] Creating Layer pool0_pool0_0_split
I0122 11:44:30.074175 22077 net.cpp:406] pool0_pool0_0_split <- pool0
I0122 11:44:30.074183 22077 net.cpp:380] pool0_pool0_0_split -> pool0_pool0_0_split_0
I0122 11:44:30.074192 22077 net.cpp:380] pool0_pool0_0_split -> pool0_pool0_0_split_1
I0122 11:44:30.074275 22077 net.cpp:122] Setting up pool0_pool0_0_split
I0122 11:44:30.074282 22077 net.cpp:129] Top shape: 1 512 20 58 (593920)
I0122 11:44:30.074287 22077 net.cpp:129] Top shape: 1 512 20 58 (593920)
I0122 11:44:30.074291 22077 net.cpp:137] Memory required for data: 500590804
I0122 11:44:30.074295 22077 layer_factory.hpp:77] Creating layer conv1_0/bn
I0122 11:44:30.074303 22077 net.cpp:84] Creating Layer conv1_0/bn
I0122 11:44:30.074307 22077 net.cpp:406] conv1_0/bn <- pool0_pool0_0_split_0
I0122 11:44:30.074314 22077 net.cpp:380] conv1_0/bn -> conv1_0/bn
I0122 11:44:30.075491 22077 net.cpp:122] Setting up conv1_0/bn
I0122 11:44:30.075508 22077 net.cpp:129] Top shape: 1 512 20 58 (593920)
I0122 11:44:30.075513 22077 net.cpp:137] Memory required for data: 502966484
I0122 11:44:30.075523 22077 layer_factory.hpp:77] Creating layer conv1_0/scale
I0122 11:44:30.075531 22077 net.cpp:84] Creating Layer conv1_0/scale
I0122 11:44:30.075536 22077 net.cpp:406] conv1_0/scale <- conv1_0/bn
I0122 11:44:30.075543 22077 net.cpp:367] conv1_0/scale -> conv1_0/bn (in-place)
I0122 11:44:30.075623 22077 layer_factory.hpp:77] Creating layer conv1_0/scale
I0122 11:44:30.075894 22077 net.cpp:122] Setting up conv1_0/scale
I0122 11:44:30.075904 22077 net.cpp:129] Top shape: 1 512 20 58 (593920)
I0122 11:44:30.075908 22077 net.cpp:137] Memory required for data: 505342164
I0122 11:44:30.075917 22077 layer_factory.hpp:77] Creating layer relu1_0
I0122 11:44:30.075923 22077 net.cpp:84] Creating Layer relu1_0
I0122 11:44:30.075927 22077 net.cpp:406] relu1_0 <- conv1_0/bn
I0122 11:44:30.075933 22077 net.cpp:367] relu1_0 -> conv1_0/bn (in-place)
I0122 11:44:30.076179 22077 net.cpp:122] Setting up relu1_0
I0122 11:44:30.076190 22077 net.cpp:129] Top shape: 1 512 20 58 (593920)
I0122 11:44:30.076195 22077 net.cpp:137] Memory required for data: 507717844
I0122 11:44:30.076198 22077 layer_factory.hpp:77] Creating layer conv1_0
I0122 11:44:30.076212 22077 net.cpp:84] Creating Layer conv1_0
I0122 11:44:30.076216 22077 net.cpp:406] conv1_0 <- conv1_0/bn
I0122 11:44:30.076223 22077 net.cpp:380] conv1_0 -> conv1_0
I0122 11:44:30.084182 22077 net.cpp:122] Setting up conv1_0
I0122 11:44:30.084198 22077 net.cpp:129] Top shape: 1 32 20 58 (37120)
I0122 11:44:30.084203 22077 net.cpp:137] Memory required for data: 507866324
I0122 11:44:30.084211 22077 layer_factory.hpp:77] Creating layer concat1_0
I0122 11:44:30.084220 22077 net.cpp:84] Creating Layer concat1_0
I0122 11:44:30.084225 22077 net.cpp:406] concat1_0 <- pool0_pool0_0_split_1
I0122 11:44:30.084231 22077 net.cpp:406] concat1_0 <- conv1_0
I0122 11:44:30.084239 22077 net.cpp:380] concat1_0 -> concat1_0
I0122 11:44:30.084296 22077 net.cpp:122] Setting up concat1_0
I0122 11:44:30.084306 22077 net.cpp:129] Top shape: 1 544 20 58 (631040)
I0122 11:44:30.084308 22077 net.cpp:137] Memory required for data: 510390484
I0122 11:44:30.084312 22077 layer_factory.hpp:77] Creating layer concat1_0_concat1_0_0_split
I0122 11:44:30.084319 22077 net.cpp:84] Creating Layer concat1_0_concat1_0_0_split
I0122 11:44:30.084323 22077 net.cpp:406] concat1_0_concat1_0_0_split <- concat1_0
I0122 11:44:30.084331 22077 net.cpp:380] concat1_0_concat1_0_0_split -> concat1_0_concat1_0_0_split_0
I0122 11:44:30.084338 22077 net.cpp:380] concat1_0_concat1_0_0_split -> concat1_0_concat1_0_0_split_1
I0122 11:44:30.084419 22077 net.cpp:122] Setting up concat1_0_concat1_0_0_split
I0122 11:44:30.084427 22077 net.cpp:129] Top shape: 1 544 20 58 (631040)
I0122 11:44:30.084432 22077 net.cpp:129] Top shape: 1 544 20 58 (631040)
I0122 11:44:30.084436 22077 net.cpp:137] Memory required for data: 515438804
I0122 11:44:30.084440 22077 layer_factory.hpp:77] Creating layer conv1_1/bn
I0122 11:44:30.084448 22077 net.cpp:84] Creating Layer conv1_1/bn
I0122 11:44:30.084453 22077 net.cpp:406] conv1_1/bn <- concat1_0_concat1_0_0_split_0
I0122 11:44:30.084460 22077 net.cpp:380] conv1_1/bn -> conv1_1/bn
I0122 11:44:30.084967 22077 net.cpp:122] Setting up conv1_1/bn
I0122 11:44:30.084976 22077 net.cpp:129] Top shape: 1 544 20 58 (631040)
I0122 11:44:30.084980 22077 net.cpp:137] Memory required for data: 517962964
I0122 11:44:30.084990 22077 layer_factory.hpp:77] Creating layer conv1_1/scale
I0122 11:44:30.085000 22077 net.cpp:84] Creating Layer conv1_1/scale
I0122 11:44:30.085003 22077 net.cpp:406] conv1_1/scale <- conv1_1/bn
I0122 11:44:30.085009 22077 net.cpp:367] conv1_1/scale -> conv1_1/bn (in-place)
I0122 11:44:30.085101 22077 layer_factory.hpp:77] Creating layer conv1_1/scale
I0122 11:44:30.085381 22077 net.cpp:122] Setting up conv1_1/scale
I0122 11:44:30.085391 22077 net.cpp:129] Top shape: 1 544 20 58 (631040)
I0122 11:44:30.085394 22077 net.cpp:137] Memory required for data: 520487124
I0122 11:44:30.085405 22077 layer_factory.hpp:77] Creating layer relu1_1
I0122 11:44:30.085413 22077 net.cpp:84] Creating Layer relu1_1
I0122 11:44:30.085417 22077 net.cpp:406] relu1_1 <- conv1_1/bn
I0122 11:44:30.085424 22077 net.cpp:367] relu1_1 -> conv1_1/bn (in-place)
I0122 11:44:30.085906 22077 net.cpp:122] Setting up relu1_1
I0122 11:44:30.085918 22077 net.cpp:129] Top shape: 1 544 20 58 (631040)
I0122 11:44:30.085923 22077 net.cpp:137] Memory required for data: 523011284
I0122 11:44:30.085927 22077 layer_factory.hpp:77] Creating layer conv1_1
I0122 11:44:30.085940 22077 net.cpp:84] Creating Layer conv1_1
I0122 11:44:30.085945 22077 net.cpp:406] conv1_1 <- conv1_1/bn
I0122 11:44:30.085953 22077 net.cpp:380] conv1_1 -> conv1_1
I0122 11:44:30.094444 22077 net.cpp:122] Setting up conv1_1
I0122 11:44:30.094465 22077 net.cpp:129] Top shape: 1 32 20 58 (37120)
I0122 11:44:30.094470 22077 net.cpp:137] Memory required for data: 523159764
I0122 11:44:30.094478 22077 layer_factory.hpp:77] Creating layer concat1_1
I0122 11:44:30.094488 22077 net.cpp:84] Creating Layer concat1_1
I0122 11:44:30.094494 22077 net.cpp:406] concat1_1 <- concat1_0_concat1_0_0_split_1
I0122 11:44:30.094501 22077 net.cpp:406] concat1_1 <- conv1_1
I0122 11:44:30.094509 22077 net.cpp:380] concat1_1 -> concat1_1
I0122 11:44:30.094566 22077 net.cpp:122] Setting up concat1_1
I0122 11:44:30.094575 22077 net.cpp:129] Top shape: 1 576 20 58 (668160)
I0122 11:44:30.094578 22077 net.cpp:137] Memory required for data: 525832404
I0122 11:44:30.094583 22077 layer_factory.hpp:77] Creating layer concat1_1_concat1_1_0_split
I0122 11:44:30.094589 22077 net.cpp:84] Creating Layer concat1_1_concat1_1_0_split
I0122 11:44:30.094594 22077 net.cpp:406] concat1_1_concat1_1_0_split <- concat1_1
I0122 11:44:30.094601 22077 net.cpp:380] concat1_1_concat1_1_0_split -> concat1_1_concat1_1_0_split_0
I0122 11:44:30.094609 22077 net.cpp:380] concat1_1_concat1_1_0_split -> concat1_1_concat1_1_0_split_1
I0122 11:44:30.094691 22077 net.cpp:122] Setting up concat1_1_concat1_1_0_split
I0122 11:44:30.094699 22077 net.cpp:129] Top shape: 1 576 20 58 (668160)
I0122 11:44:30.094704 22077 net.cpp:129] Top shape: 1 576 20 58 (668160)
I0122 11:44:30.094708 22077 net.cpp:137] Memory required for data: 531177684
I0122 11:44:30.094712 22077 layer_factory.hpp:77] Creating layer conv1_2/bn
I0122 11:44:30.094723 22077 net.cpp:84] Creating Layer conv1_2/bn
I0122 11:44:30.094728 22077 net.cpp:406] conv1_2/bn <- concat1_1_concat1_1_0_split_0
I0122 11:44:30.094734 22077 net.cpp:380] conv1_2/bn -> conv1_2/bn
I0122 11:44:30.095265 22077 net.cpp:122] Setting up conv1_2/bn
I0122 11:44:30.095274 22077 net.cpp:129] Top shape: 1 576 20 58 (668160)
I0122 11:44:30.095278 22077 net.cpp:137] Memory required for data: 533850324
I0122 11:44:30.095288 22077 layer_factory.hpp:77] Creating layer conv1_2/scale
I0122 11:44:30.095299 22077 net.cpp:84] Creating Layer conv1_2/scale
I0122 11:44:30.095304 22077 net.cpp:406] conv1_2/scale <- conv1_2/bn
I0122 11:44:30.095309 22077 net.cpp:367] conv1_2/scale -> conv1_2/bn (in-place)
I0122 11:44:30.095397 22077 layer_factory.hpp:77] Creating layer conv1_2/scale
I0122 11:44:30.095670 22077 net.cpp:122] Setting up conv1_2/scale
I0122 11:44:30.095679 22077 net.cpp:129] Top shape: 1 576 20 58 (668160)
I0122 11:44:30.095683 22077 net.cpp:137] Memory required for data: 536522964
I0122 11:44:30.095690 22077 layer_factory.hpp:77] Creating layer relu1_2
I0122 11:44:30.095697 22077 net.cpp:84] Creating Layer relu1_2
I0122 11:44:30.095701 22077 net.cpp:406] relu1_2 <- conv1_2/bn
I0122 11:44:30.095707 22077 net.cpp:367] relu1_2 -> conv1_2/bn (in-place)
I0122 11:44:30.096174 22077 net.cpp:122] Setting up relu1_2
I0122 11:44:30.096186 22077 net.cpp:129] Top shape: 1 576 20 58 (668160)
I0122 11:44:30.096190 22077 net.cpp:137] Memory required for data: 539195604
I0122 11:44:30.096195 22077 layer_factory.hpp:77] Creating layer conv1_2
I0122 11:44:30.096209 22077 net.cpp:84] Creating Layer conv1_2
I0122 11:44:30.096213 22077 net.cpp:406] conv1_2 <- conv1_2/bn
I0122 11:44:30.096221 22077 net.cpp:380] conv1_2 -> conv1_2
I0122 11:44:30.105115 22077 net.cpp:122] Setting up conv1_2
I0122 11:44:30.105144 22077 net.cpp:129] Top shape: 1 32 20 58 (37120)
I0122 11:44:30.105149 22077 net.cpp:137] Memory required for data: 539344084
I0122 11:44:30.105157 22077 layer_factory.hpp:77] Creating layer concat1_2
I0122 11:44:30.105168 22077 net.cpp:84] Creating Layer concat1_2
I0122 11:44:30.105175 22077 net.cpp:406] concat1_2 <- concat1_1_concat1_1_0_split_1
I0122 11:44:30.105181 22077 net.cpp:406] concat1_2 <- conv1_2
I0122 11:44:30.105190 22077 net.cpp:380] concat1_2 -> concat1_2
I0122 11:44:30.105250 22077 net.cpp:122] Setting up concat1_2
I0122 11:44:30.105258 22077 net.cpp:129] Top shape: 1 608 20 58 (705280)
I0122 11:44:30.105262 22077 net.cpp:137] Memory required for data: 542165204
I0122 11:44:30.105267 22077 layer_factory.hpp:77] Creating layer concat1_2_concat1_2_0_split
I0122 11:44:30.105273 22077 net.cpp:84] Creating Layer concat1_2_concat1_2_0_split
I0122 11:44:30.105278 22077 net.cpp:406] concat1_2_concat1_2_0_split <- concat1_2
I0122 11:44:30.105285 22077 net.cpp:380] concat1_2_concat1_2_0_split -> concat1_2_concat1_2_0_split_0
I0122 11:44:30.105293 22077 net.cpp:380] concat1_2_concat1_2_0_split -> concat1_2_concat1_2_0_split_1
I0122 11:44:30.105376 22077 net.cpp:122] Setting up concat1_2_concat1_2_0_split
I0122 11:44:30.105383 22077 net.cpp:129] Top shape: 1 608 20 58 (705280)
I0122 11:44:30.105388 22077 net.cpp:129] Top shape: 1 608 20 58 (705280)
I0122 11:44:30.105392 22077 net.cpp:137] Memory required for data: 547807444
I0122 11:44:30.105396 22077 layer_factory.hpp:77] Creating layer conv1_3/bn
I0122 11:44:30.105404 22077 net.cpp:84] Creating Layer conv1_3/bn
I0122 11:44:30.105409 22077 net.cpp:406] conv1_3/bn <- concat1_2_concat1_2_0_split_0
I0122 11:44:30.105415 22077 net.cpp:380] conv1_3/bn -> conv1_3/bn
I0122 11:44:30.105963 22077 net.cpp:122] Setting up conv1_3/bn
I0122 11:44:30.105973 22077 net.cpp:129] Top shape: 1 608 20 58 (705280)
I0122 11:44:30.105976 22077 net.cpp:137] Memory required for data: 550628564
I0122 11:44:30.105986 22077 layer_factory.hpp:77] Creating layer conv1_3/scale
I0122 11:44:30.105998 22077 net.cpp:84] Creating Layer conv1_3/scale
I0122 11:44:30.106001 22077 net.cpp:406] conv1_3/scale <- conv1_3/bn
I0122 11:44:30.106007 22077 net.cpp:367] conv1_3/scale -> conv1_3/bn (in-place)
I0122 11:44:30.106096 22077 layer_factory.hpp:77] Creating layer conv1_3/scale
I0122 11:44:30.106374 22077 net.cpp:122] Setting up conv1_3/scale
I0122 11:44:30.106384 22077 net.cpp:129] Top shape: 1 608 20 58 (705280)
I0122 11:44:30.106387 22077 net.cpp:137] Memory required for data: 553449684
I0122 11:44:30.106395 22077 layer_factory.hpp:77] Creating layer relu1_3
I0122 11:44:30.106401 22077 net.cpp:84] Creating Layer relu1_3
I0122 11:44:30.106405 22077 net.cpp:406] relu1_3 <- conv1_3/bn
I0122 11:44:30.106411 22077 net.cpp:367] relu1_3 -> conv1_3/bn (in-place)
I0122 11:44:30.106684 22077 net.cpp:122] Setting up relu1_3
I0122 11:44:30.106695 22077 net.cpp:129] Top shape: 1 608 20 58 (705280)
I0122 11:44:30.106699 22077 net.cpp:137] Memory required for data: 556270804
I0122 11:44:30.106703 22077 layer_factory.hpp:77] Creating layer conv1_3
I0122 11:44:30.106715 22077 net.cpp:84] Creating Layer conv1_3
I0122 11:44:30.106720 22077 net.cpp:406] conv1_3 <- conv1_3/bn
I0122 11:44:30.106729 22077 net.cpp:380] conv1_3 -> conv1_3
I0122 11:44:30.115818 22077 net.cpp:122] Setting up conv1_3
I0122 11:44:30.115839 22077 net.cpp:129] Top shape: 1 32 20 58 (37120)
I0122 11:44:30.115841 22077 net.cpp:137] Memory required for data: 556419284
I0122 11:44:30.115847 22077 layer_factory.hpp:77] Creating layer concat1_3
I0122 11:44:30.115855 22077 net.cpp:84] Creating Layer concat1_3
I0122 11:44:30.115860 22077 net.cpp:406] concat1_3 <- concat1_2_concat1_2_0_split_1
I0122 11:44:30.115865 22077 net.cpp:406] concat1_3 <- conv1_3
I0122 11:44:30.115871 22077 net.cpp:380] concat1_3 -> concat1_3
I0122 11:44:30.115917 22077 net.cpp:122] Setting up concat1_3
I0122 11:44:30.115923 22077 net.cpp:129] Top shape: 1 640 20 58 (742400)
I0122 11:44:30.115931 22077 net.cpp:137] Memory required for data: 559388884
I0122 11:44:30.115932 22077 layer_factory.hpp:77] Creating layer concat1_3_concat1_3_0_split
I0122 11:44:30.115937 22077 net.cpp:84] Creating Layer concat1_3_concat1_3_0_split
I0122 11:44:30.115942 22077 net.cpp:406] concat1_3_concat1_3_0_split <- concat1_3
I0122 11:44:30.115945 22077 net.cpp:380] concat1_3_concat1_3_0_split -> concat1_3_concat1_3_0_split_0
I0122 11:44:30.115950 22077 net.cpp:380] concat1_3_concat1_3_0_split -> concat1_3_concat1_3_0_split_1
I0122 11:44:30.116014 22077 net.cpp:122] Setting up concat1_3_concat1_3_0_split
I0122 11:44:30.116019 22077 net.cpp:129] Top shape: 1 640 20 58 (742400)
I0122 11:44:30.116022 22077 net.cpp:129] Top shape: 1 640 20 58 (742400)
I0122 11:44:30.116024 22077 net.cpp:137] Memory required for data: 565328084
I0122 11:44:30.116027 22077 layer_factory.hpp:77] Creating layer conv1_4/bn
I0122 11:44:30.116034 22077 net.cpp:84] Creating Layer conv1_4/bn
I0122 11:44:30.116035 22077 net.cpp:406] conv1_4/bn <- concat1_3_concat1_3_0_split_0
I0122 11:44:30.116039 22077 net.cpp:380] conv1_4/bn -> conv1_4/bn
I0122 11:44:30.116428 22077 net.cpp:122] Setting up conv1_4/bn
I0122 11:44:30.116436 22077 net.cpp:129] Top shape: 1 640 20 58 (742400)
I0122 11:44:30.116438 22077 net.cpp:137] Memory required for data: 568297684
I0122 11:44:30.116453 22077 layer_factory.hpp:77] Creating layer conv1_4/scale
I0122 11:44:30.116463 22077 net.cpp:84] Creating Layer conv1_4/scale
I0122 11:44:30.116466 22077 net.cpp:406] conv1_4/scale <- conv1_4/bn
I0122 11:44:30.116470 22077 net.cpp:367] conv1_4/scale -> conv1_4/bn (in-place)
I0122 11:44:30.116533 22077 layer_factory.hpp:77] Creating layer conv1_4/scale
I0122 11:44:30.116727 22077 net.cpp:122] Setting up conv1_4/scale
I0122 11:44:30.116734 22077 net.cpp:129] Top shape: 1 640 20 58 (742400)
I0122 11:44:30.116735 22077 net.cpp:137] Memory required for data: 571267284
I0122 11:44:30.116740 22077 layer_factory.hpp:77] Creating layer relu1_4
I0122 11:44:30.116745 22077 net.cpp:84] Creating Layer relu1_4
I0122 11:44:30.116749 22077 net.cpp:406] relu1_4 <- conv1_4/bn
I0122 11:44:30.116752 22077 net.cpp:367] relu1_4 -> conv1_4/bn (in-place)
I0122 11:44:30.117121 22077 net.cpp:122] Setting up relu1_4
I0122 11:44:30.117131 22077 net.cpp:129] Top shape: 1 640 20 58 (742400)
I0122 11:44:30.117135 22077 net.cpp:137] Memory required for data: 574236884
I0122 11:44:30.117137 22077 layer_factory.hpp:77] Creating layer conv1_4
I0122 11:44:30.117146 22077 net.cpp:84] Creating Layer conv1_4
I0122 11:44:30.117151 22077 net.cpp:406] conv1_4 <- conv1_4/bn
I0122 11:44:30.117156 22077 net.cpp:380] conv1_4 -> conv1_4
I0122 11:44:30.123611 22077 net.cpp:122] Setting up conv1_4
I0122 11:44:30.123623 22077 net.cpp:129] Top shape: 1 32 20 58 (37120)
I0122 11:44:30.123626 22077 net.cpp:137] Memory required for data: 574385364
I0122 11:44:30.123631 22077 layer_factory.hpp:77] Creating layer concat1_4
I0122 11:44:30.123638 22077 net.cpp:84] Creating Layer concat1_4
I0122 11:44:30.123641 22077 net.cpp:406] concat1_4 <- concat1_3_concat1_3_0_split_1
I0122 11:44:30.123646 22077 net.cpp:406] concat1_4 <- conv1_4
I0122 11:44:30.123649 22077 net.cpp:380] concat1_4 -> concat1_4
I0122 11:44:30.123695 22077 net.cpp:122] Setting up concat1_4
I0122 11:44:30.123702 22077 net.cpp:129] Top shape: 1 672 20 58 (779520)
I0122 11:44:30.123703 22077 net.cpp:137] Memory required for data: 577503444
I0122 11:44:30.123706 22077 layer_factory.hpp:77] Creating layer concat1_4_concat1_4_0_split
I0122 11:44:30.123713 22077 net.cpp:84] Creating Layer concat1_4_concat1_4_0_split
I0122 11:44:30.123716 22077 net.cpp:406] concat1_4_concat1_4_0_split <- concat1_4
I0122 11:44:30.123720 22077 net.cpp:380] concat1_4_concat1_4_0_split -> concat1_4_concat1_4_0_split_0
I0122 11:44:30.123726 22077 net.cpp:380] concat1_4_concat1_4_0_split -> concat1_4_concat1_4_0_split_1
I0122 11:44:30.123793 22077 net.cpp:122] Setting up concat1_4_concat1_4_0_split
I0122 11:44:30.123800 22077 net.cpp:129] Top shape: 1 672 20 58 (779520)
I0122 11:44:30.123803 22077 net.cpp:129] Top shape: 1 672 20 58 (779520)
I0122 11:44:30.123807 22077 net.cpp:137] Memory required for data: 583739604
I0122 11:44:30.123811 22077 layer_factory.hpp:77] Creating layer conv1_5/bn
I0122 11:44:30.123816 22077 net.cpp:84] Creating Layer conv1_5/bn
I0122 11:44:30.123818 22077 net.cpp:406] conv1_5/bn <- concat1_4_concat1_4_0_split_0
I0122 11:44:30.123824 22077 net.cpp:380] conv1_5/bn -> conv1_5/bn
I0122 11:44:30.124208 22077 net.cpp:122] Setting up conv1_5/bn
I0122 11:44:30.124215 22077 net.cpp:129] Top shape: 1 672 20 58 (779520)
I0122 11:44:30.124217 22077 net.cpp:137] Memory required for data: 586857684
I0122 11:44:30.124223 22077 layer_factory.hpp:77] Creating layer conv1_5/scale
I0122 11:44:30.124230 22077 net.cpp:84] Creating Layer conv1_5/scale
I0122 11:44:30.124233 22077 net.cpp:406] conv1_5/scale <- conv1_5/bn
I0122 11:44:30.124236 22077 net.cpp:367] conv1_5/scale -> conv1_5/bn (in-place)
I0122 11:44:30.124305 22077 layer_factory.hpp:77] Creating layer conv1_5/scale
I0122 11:44:30.124516 22077 net.cpp:122] Setting up conv1_5/scale
I0122 11:44:30.124522 22077 net.cpp:129] Top shape: 1 672 20 58 (779520)
I0122 11:44:30.124526 22077 net.cpp:137] Memory required for data: 589975764
I0122 11:44:30.124529 22077 layer_factory.hpp:77] Creating layer relu1_5
I0122 11:44:30.124534 22077 net.cpp:84] Creating Layer relu1_5
I0122 11:44:30.124537 22077 net.cpp:406] relu1_5 <- conv1_5/bn
I0122 11:44:30.124541 22077 net.cpp:367] relu1_5 -> conv1_5/bn (in-place)
I0122 11:44:30.124734 22077 net.cpp:122] Setting up relu1_5
I0122 11:44:30.124742 22077 net.cpp:129] Top shape: 1 672 20 58 (779520)
I0122 11:44:30.124744 22077 net.cpp:137] Memory required for data: 593093844
I0122 11:44:30.124747 22077 layer_factory.hpp:77] Creating layer conv1_5
I0122 11:44:30.124755 22077 net.cpp:84] Creating Layer conv1_5
I0122 11:44:30.124758 22077 net.cpp:406] conv1_5 <- conv1_5/bn
I0122 11:44:30.124763 22077 net.cpp:380] conv1_5 -> conv1_5
I0122 11:44:30.131772 22077 net.cpp:122] Setting up conv1_5
I0122 11:44:30.131796 22077 net.cpp:129] Top shape: 1 32 20 58 (37120)
I0122 11:44:30.131799 22077 net.cpp:137] Memory required for data: 593242324
I0122 11:44:30.131808 22077 layer_factory.hpp:77] Creating layer concat1_5
I0122 11:44:30.131819 22077 net.cpp:84] Creating Layer concat1_5
I0122 11:44:30.131824 22077 net.cpp:406] concat1_5 <- concat1_4_concat1_4_0_split_1
I0122 11:44:30.131829 22077 net.cpp:406] concat1_5 <- conv1_5
I0122 11:44:30.131834 22077 net.cpp:380] concat1_5 -> concat1_5
I0122 11:44:30.131883 22077 net.cpp:122] Setting up concat1_5
I0122 11:44:30.131889 22077 net.cpp:129] Top shape: 1 704 20 58 (816640)
I0122 11:44:30.131892 22077 net.cpp:137] Memory required for data: 596508884
I0122 11:44:30.131894 22077 layer_factory.hpp:77] Creating layer concat1_5_concat1_5_0_split
I0122 11:44:30.131899 22077 net.cpp:84] Creating Layer concat1_5_concat1_5_0_split
I0122 11:44:30.131902 22077 net.cpp:406] concat1_5_concat1_5_0_split <- concat1_5
I0122 11:44:30.131907 22077 net.cpp:380] concat1_5_concat1_5_0_split -> concat1_5_concat1_5_0_split_0
I0122 11:44:30.131912 22077 net.cpp:380] concat1_5_concat1_5_0_split -> concat1_5_concat1_5_0_split_1
I0122 11:44:30.131974 22077 net.cpp:122] Setting up concat1_5_concat1_5_0_split
I0122 11:44:30.131979 22077 net.cpp:129] Top shape: 1 704 20 58 (816640)
I0122 11:44:30.131983 22077 net.cpp:129] Top shape: 1 704 20 58 (816640)
I0122 11:44:30.131985 22077 net.cpp:137] Memory required for data: 603042004
I0122 11:44:30.131988 22077 layer_factory.hpp:77] Creating layer conv1_6/bn
I0122 11:44:30.131994 22077 net.cpp:84] Creating Layer conv1_6/bn
I0122 11:44:30.131996 22077 net.cpp:406] conv1_6/bn <- concat1_5_concat1_5_0_split_0
I0122 11:44:30.132001 22077 net.cpp:380] conv1_6/bn -> conv1_6/bn
I0122 11:44:30.132416 22077 net.cpp:122] Setting up conv1_6/bn
I0122 11:44:30.132422 22077 net.cpp:129] Top shape: 1 704 20 58 (816640)
I0122 11:44:30.132424 22077 net.cpp:137] Memory required for data: 606308564
I0122 11:44:30.132431 22077 layer_factory.hpp:77] Creating layer conv1_6/scale
I0122 11:44:30.132441 22077 net.cpp:84] Creating Layer conv1_6/scale
I0122 11:44:30.132444 22077 net.cpp:406] conv1_6/scale <- conv1_6/bn
I0122 11:44:30.132448 22077 net.cpp:367] conv1_6/scale -> conv1_6/bn (in-place)
I0122 11:44:30.132520 22077 layer_factory.hpp:77] Creating layer conv1_6/scale
I0122 11:44:30.132733 22077 net.cpp:122] Setting up conv1_6/scale
I0122 11:44:30.132740 22077 net.cpp:129] Top shape: 1 704 20 58 (816640)
I0122 11:44:30.132742 22077 net.cpp:137] Memory required for data: 609575124
I0122 11:44:30.132747 22077 layer_factory.hpp:77] Creating layer relu1_6
I0122 11:44:30.132752 22077 net.cpp:84] Creating Layer relu1_6
I0122 11:44:30.132755 22077 net.cpp:406] relu1_6 <- conv1_6/bn
I0122 11:44:30.132760 22077 net.cpp:367] relu1_6 -> conv1_6/bn (in-place)
I0122 11:44:30.133282 22077 net.cpp:122] Setting up relu1_6
I0122 11:44:30.133293 22077 net.cpp:129] Top shape: 1 704 20 58 (816640)
I0122 11:44:30.133296 22077 net.cpp:137] Memory required for data: 612841684
I0122 11:44:30.133299 22077 layer_factory.hpp:77] Creating layer conv1_6
I0122 11:44:30.133307 22077 net.cpp:84] Creating Layer conv1_6
I0122 11:44:30.133311 22077 net.cpp:406] conv1_6 <- conv1_6/bn
I0122 11:44:30.133316 22077 net.cpp:380] conv1_6 -> conv1_6
I0122 11:44:30.140570 22077 net.cpp:122] Setting up conv1_6
I0122 11:44:30.140599 22077 net.cpp:129] Top shape: 1 32 20 58 (37120)
I0122 11:44:30.140604 22077 net.cpp:137] Memory required for data: 612990164
I0122 11:44:30.140614 22077 layer_factory.hpp:77] Creating layer concat1_6
I0122 11:44:30.140625 22077 net.cpp:84] Creating Layer concat1_6
I0122 11:44:30.140630 22077 net.cpp:406] concat1_6 <- concat1_5_concat1_5_0_split_1
I0122 11:44:30.140638 22077 net.cpp:406] concat1_6 <- conv1_6
I0122 11:44:30.140645 22077 net.cpp:380] concat1_6 -> concat1_6
I0122 11:44:30.140707 22077 net.cpp:122] Setting up concat1_6
I0122 11:44:30.140717 22077 net.cpp:129] Top shape: 1 736 20 58 (853760)
I0122 11:44:30.140719 22077 net.cpp:137] Memory required for data: 616405204
I0122 11:44:30.140723 22077 layer_factory.hpp:77] Creating layer concat1_6_concat1_6_0_split
I0122 11:44:30.140730 22077 net.cpp:84] Creating Layer concat1_6_concat1_6_0_split
I0122 11:44:30.140735 22077 net.cpp:406] concat1_6_concat1_6_0_split <- concat1_6
I0122 11:44:30.140741 22077 net.cpp:380] concat1_6_concat1_6_0_split -> concat1_6_concat1_6_0_split_0
I0122 11:44:30.140749 22077 net.cpp:380] concat1_6_concat1_6_0_split -> concat1_6_concat1_6_0_split_1
I0122 11:44:30.140835 22077 net.cpp:122] Setting up concat1_6_concat1_6_0_split
I0122 11:44:30.140843 22077 net.cpp:129] Top shape: 1 736 20 58 (853760)
I0122 11:44:30.140849 22077 net.cpp:129] Top shape: 1 736 20 58 (853760)
I0122 11:44:30.140853 22077 net.cpp:137] Memory required for data: 623235284
I0122 11:44:30.140857 22077 layer_factory.hpp:77] Creating layer conv1_7/bn
I0122 11:44:30.140864 22077 net.cpp:84] Creating Layer conv1_7/bn
I0122 11:44:30.140868 22077 net.cpp:406] conv1_7/bn <- concat1_6_concat1_6_0_split_0
I0122 11:44:30.140877 22077 net.cpp:380] conv1_7/bn -> conv1_7/bn
I0122 11:44:30.141451 22077 net.cpp:122] Setting up conv1_7/bn
I0122 11:44:30.141460 22077 net.cpp:129] Top shape: 1 736 20 58 (853760)
I0122 11:44:30.141464 22077 net.cpp:137] Memory required for data: 626650324
I0122 11:44:30.141474 22077 layer_factory.hpp:77] Creating layer conv1_7/scale
I0122 11:44:30.141484 22077 net.cpp:84] Creating Layer conv1_7/scale
I0122 11:44:30.141489 22077 net.cpp:406] conv1_7/scale <- conv1_7/bn
I0122 11:44:30.141496 22077 net.cpp:367] conv1_7/scale -> conv1_7/bn (in-place)
I0122 11:44:30.141590 22077 layer_factory.hpp:77] Creating layer conv1_7/scale
I0122 11:44:30.141880 22077 net.cpp:122] Setting up conv1_7/scale
I0122 11:44:30.141890 22077 net.cpp:129] Top shape: 1 736 20 58 (853760)
I0122 11:44:30.141893 22077 net.cpp:137] Memory required for data: 630065364
I0122 11:44:30.141901 22077 layer_factory.hpp:77] Creating layer relu1_7
I0122 11:44:30.141907 22077 net.cpp:84] Creating Layer relu1_7
I0122 11:44:30.141911 22077 net.cpp:406] relu1_7 <- conv1_7/bn
I0122 11:44:30.141921 22077 net.cpp:367] relu1_7 -> conv1_7/bn (in-place)
I0122 11:44:30.142380 22077 net.cpp:122] Setting up relu1_7
I0122 11:44:30.142393 22077 net.cpp:129] Top shape: 1 736 20 58 (853760)
I0122 11:44:30.142397 22077 net.cpp:137] Memory required for data: 633480404
I0122 11:44:30.142401 22077 layer_factory.hpp:77] Creating layer conv1_7
I0122 11:44:30.142415 22077 net.cpp:84] Creating Layer conv1_7
I0122 11:44:30.142419 22077 net.cpp:406] conv1_7 <- conv1_7/bn
I0122 11:44:30.142428 22077 net.cpp:380] conv1_7 -> conv1_7
I0122 11:44:30.153237 22077 net.cpp:122] Setting up conv1_7
I0122 11:44:30.153273 22077 net.cpp:129] Top shape: 1 32 20 58 (37120)
I0122 11:44:30.153277 22077 net.cpp:137] Memory required for data: 633628884
I0122 11:44:30.153288 22077 layer_factory.hpp:77] Creating layer concat1_7
I0122 11:44:30.153301 22077 net.cpp:84] Creating Layer concat1_7
I0122 11:44:30.153308 22077 net.cpp:406] concat1_7 <- concat1_6_concat1_6_0_split_1
I0122 11:44:30.153316 22077 net.cpp:406] concat1_7 <- conv1_7
I0122 11:44:30.153323 22077 net.cpp:380] concat1_7 -> concat1_7
I0122 11:44:30.153385 22077 net.cpp:122] Setting up concat1_7
I0122 11:44:30.153393 22077 net.cpp:129] Top shape: 1 768 20 58 (890880)
I0122 11:44:30.153398 22077 net.cpp:137] Memory required for data: 637192404
I0122 11:44:30.153401 22077 layer_factory.hpp:77] Creating layer concat1_7_concat1_7_0_split
I0122 11:44:30.153409 22077 net.cpp:84] Creating Layer concat1_7_concat1_7_0_split
I0122 11:44:30.153412 22077 net.cpp:406] concat1_7_concat1_7_0_split <- concat1_7
I0122 11:44:30.153419 22077 net.cpp:380] concat1_7_concat1_7_0_split -> concat1_7_concat1_7_0_split_0
I0122 11:44:30.153429 22077 net.cpp:380] concat1_7_concat1_7_0_split -> concat1_7_concat1_7_0_split_1
I0122 11:44:30.153513 22077 net.cpp:122] Setting up concat1_7_concat1_7_0_split
I0122 11:44:30.153523 22077 net.cpp:129] Top shape: 1 768 20 58 (890880)
I0122 11:44:30.153528 22077 net.cpp:129] Top shape: 1 768 20 58 (890880)
I0122 11:44:30.153532 22077 net.cpp:137] Memory required for data: 644319444
I0122 11:44:30.153537 22077 layer_factory.hpp:77] Creating layer conv1_8/bn
I0122 11:44:30.153543 22077 net.cpp:84] Creating Layer conv1_8/bn
I0122 11:44:30.153548 22077 net.cpp:406] conv1_8/bn <- concat1_7_concat1_7_0_split_0
I0122 11:44:30.153558 22077 net.cpp:380] conv1_8/bn -> conv1_8/bn
I0122 11:44:30.154121 22077 net.cpp:122] Setting up conv1_8/bn
I0122 11:44:30.154131 22077 net.cpp:129] Top shape: 1 768 20 58 (890880)
I0122 11:44:30.154135 22077 net.cpp:137] Memory required for data: 647882964
I0122 11:44:30.154145 22077 layer_factory.hpp:77] Creating layer conv1_8/scale
I0122 11:44:30.154155 22077 net.cpp:84] Creating Layer conv1_8/scale
I0122 11:44:30.154160 22077 net.cpp:406] conv1_8/scale <- conv1_8/bn
I0122 11:44:30.154165 22077 net.cpp:367] conv1_8/scale -> conv1_8/bn (in-place)
I0122 11:44:30.154253 22077 layer_factory.hpp:77] Creating layer conv1_8/scale
I0122 11:44:30.154528 22077 net.cpp:122] Setting up conv1_8/scale
I0122 11:44:30.154537 22077 net.cpp:129] Top shape: 1 768 20 58 (890880)
I0122 11:44:30.154541 22077 net.cpp:137] Memory required for data: 651446484
I0122 11:44:30.154548 22077 layer_factory.hpp:77] Creating layer relu1_8
I0122 11:44:30.154556 22077 net.cpp:84] Creating Layer relu1_8
I0122 11:44:30.154561 22077 net.cpp:406] relu1_8 <- conv1_8/bn
I0122 11:44:30.154566 22077 net.cpp:367] relu1_8 -> conv1_8/bn (in-place)
I0122 11:44:30.154834 22077 net.cpp:122] Setting up relu1_8
I0122 11:44:30.154845 22077 net.cpp:129] Top shape: 1 768 20 58 (890880)
I0122 11:44:30.154850 22077 net.cpp:137] Memory required for data: 655010004
I0122 11:44:30.154853 22077 layer_factory.hpp:77] Creating layer conv1_8
I0122 11:44:30.154865 22077 net.cpp:84] Creating Layer conv1_8
I0122 11:44:30.154870 22077 net.cpp:406] conv1_8 <- conv1_8/bn
I0122 11:44:30.154877 22077 net.cpp:380] conv1_8 -> conv1_8
I0122 11:44:30.165951 22077 net.cpp:122] Setting up conv1_8
I0122 11:44:30.165983 22077 net.cpp:129] Top shape: 1 32 20 58 (37120)
I0122 11:44:30.165987 22077 net.cpp:137] Memory required for data: 655158484
I0122 11:44:30.166000 22077 layer_factory.hpp:77] Creating layer concat1_8
I0122 11:44:30.166013 22077 net.cpp:84] Creating Layer concat1_8
I0122 11:44:30.166019 22077 net.cpp:406] concat1_8 <- concat1_7_concat1_7_0_split_1
I0122 11:44:30.166028 22077 net.cpp:406] concat1_8 <- conv1_8
I0122 11:44:30.166035 22077 net.cpp:380] concat1_8 -> concat1_8
I0122 11:44:30.166097 22077 net.cpp:122] Setting up concat1_8
I0122 11:44:30.166105 22077 net.cpp:129] Top shape: 1 800 20 58 (928000)
I0122 11:44:30.166110 22077 net.cpp:137] Memory required for data: 658870484
I0122 11:44:30.166113 22077 layer_factory.hpp:77] Creating layer concat1_8_concat1_8_0_split
I0122 11:44:30.166121 22077 net.cpp:84] Creating Layer concat1_8_concat1_8_0_split
I0122 11:44:30.166126 22077 net.cpp:406] concat1_8_concat1_8_0_split <- concat1_8
I0122 11:44:30.166131 22077 net.cpp:380] concat1_8_concat1_8_0_split -> concat1_8_concat1_8_0_split_0
I0122 11:44:30.166139 22077 net.cpp:380] concat1_8_concat1_8_0_split -> concat1_8_concat1_8_0_split_1
I0122 11:44:30.166227 22077 net.cpp:122] Setting up concat1_8_concat1_8_0_split
I0122 11:44:30.166235 22077 net.cpp:129] Top shape: 1 800 20 58 (928000)
I0122 11:44:30.166240 22077 net.cpp:129] Top shape: 1 800 20 58 (928000)
I0122 11:44:30.166244 22077 net.cpp:137] Memory required for data: 666294484
I0122 11:44:30.166249 22077 layer_factory.hpp:77] Creating layer conv1_9/bn
I0122 11:44:30.166256 22077 net.cpp:84] Creating Layer conv1_9/bn
I0122 11:44:30.166261 22077 net.cpp:406] conv1_9/bn <- concat1_8_concat1_8_0_split_0
I0122 11:44:30.166267 22077 net.cpp:380] conv1_9/bn -> conv1_9/bn
I0122 11:44:30.166832 22077 net.cpp:122] Setting up conv1_9/bn
I0122 11:44:30.166842 22077 net.cpp:129] Top shape: 1 800 20 58 (928000)
I0122 11:44:30.166846 22077 net.cpp:137] Memory required for data: 670006484
I0122 11:44:30.166856 22077 layer_factory.hpp:77] Creating layer conv1_9/scale
I0122 11:44:30.166864 22077 net.cpp:84] Creating Layer conv1_9/scale
I0122 11:44:30.166869 22077 net.cpp:406] conv1_9/scale <- conv1_9/bn
I0122 11:44:30.166877 22077 net.cpp:367] conv1_9/scale -> conv1_9/bn (in-place)
I0122 11:44:30.166975 22077 layer_factory.hpp:77] Creating layer conv1_9/scale
I0122 11:44:30.167268 22077 net.cpp:122] Setting up conv1_9/scale
I0122 11:44:30.167276 22077 net.cpp:129] Top shape: 1 800 20 58 (928000)
I0122 11:44:30.167280 22077 net.cpp:137] Memory required for data: 673718484
I0122 11:44:30.167287 22077 layer_factory.hpp:77] Creating layer relu1_9
I0122 11:44:30.167295 22077 net.cpp:84] Creating Layer relu1_9
I0122 11:44:30.167299 22077 net.cpp:406] relu1_9 <- conv1_9/bn
I0122 11:44:30.167306 22077 net.cpp:367] relu1_9 -> conv1_9/bn (in-place)
I0122 11:44:30.167773 22077 net.cpp:122] Setting up relu1_9
I0122 11:44:30.167784 22077 net.cpp:129] Top shape: 1 800 20 58 (928000)
I0122 11:44:30.167788 22077 net.cpp:137] Memory required for data: 677430484
I0122 11:44:30.167793 22077 layer_factory.hpp:77] Creating layer conv1_9
I0122 11:44:30.167807 22077 net.cpp:84] Creating Layer conv1_9
I0122 11:44:30.167812 22077 net.cpp:406] conv1_9 <- conv1_9/bn
I0122 11:44:30.167820 22077 net.cpp:380] conv1_9 -> conv1_9
I0122 11:44:30.178918 22077 net.cpp:122] Setting up conv1_9
I0122 11:44:30.178936 22077 net.cpp:129] Top shape: 1 32 20 58 (37120)
I0122 11:44:30.178941 22077 net.cpp:137] Memory required for data: 677578964
I0122 11:44:30.178947 22077 layer_factory.hpp:77] Creating layer concat1_9
I0122 11:44:30.178956 22077 net.cpp:84] Creating Layer concat1_9
I0122 11:44:30.178961 22077 net.cpp:406] concat1_9 <- concat1_8_concat1_8_0_split_1
I0122 11:44:30.178967 22077 net.cpp:406] concat1_9 <- conv1_9
I0122 11:44:30.178975 22077 net.cpp:380] concat1_9 -> concat1_9
I0122 11:44:30.179034 22077 net.cpp:122] Setting up concat1_9
I0122 11:44:30.179044 22077 net.cpp:129] Top shape: 1 832 20 58 (965120)
I0122 11:44:30.179047 22077 net.cpp:137] Memory required for data: 681439444
I0122 11:44:30.179051 22077 layer_factory.hpp:77] Creating layer concat1_9_concat1_9_0_split
I0122 11:44:30.179059 22077 net.cpp:84] Creating Layer concat1_9_concat1_9_0_split
I0122 11:44:30.179069 22077 net.cpp:406] concat1_9_concat1_9_0_split <- concat1_9
I0122 11:44:30.179075 22077 net.cpp:380] concat1_9_concat1_9_0_split -> concat1_9_concat1_9_0_split_0
I0122 11:44:30.179082 22077 net.cpp:380] concat1_9_concat1_9_0_split -> concat1_9_concat1_9_0_split_1
I0122 11:44:30.179170 22077 net.cpp:122] Setting up concat1_9_concat1_9_0_split
I0122 11:44:30.179178 22077 net.cpp:129] Top shape: 1 832 20 58 (965120)
I0122 11:44:30.179184 22077 net.cpp:129] Top shape: 1 832 20 58 (965120)
I0122 11:44:30.179188 22077 net.cpp:137] Memory required for data: 689160404
I0122 11:44:30.179191 22077 layer_factory.hpp:77] Creating layer conv1_10/bn
I0122 11:44:30.179199 22077 net.cpp:84] Creating Layer conv1_10/bn
I0122 11:44:30.179204 22077 net.cpp:406] conv1_10/bn <- concat1_9_concat1_9_0_split_0
I0122 11:44:30.179213 22077 net.cpp:380] conv1_10/bn -> conv1_10/bn
I0122 11:44:30.179795 22077 net.cpp:122] Setting up conv1_10/bn
I0122 11:44:30.179805 22077 net.cpp:129] Top shape: 1 832 20 58 (965120)
I0122 11:44:30.179808 22077 net.cpp:137] Memory required for data: 693020884
I0122 11:44:30.179821 22077 layer_factory.hpp:77] Creating layer conv1_10/scale
I0122 11:44:30.179828 22077 net.cpp:84] Creating Layer conv1_10/scale
I0122 11:44:30.179832 22077 net.cpp:406] conv1_10/scale <- conv1_10/bn
I0122 11:44:30.179838 22077 net.cpp:367] conv1_10/scale -> conv1_10/bn (in-place)
I0122 11:44:30.179934 22077 layer_factory.hpp:77] Creating layer conv1_10/scale
I0122 11:44:30.180233 22077 net.cpp:122] Setting up conv1_10/scale
I0122 11:44:30.180243 22077 net.cpp:129] Top shape: 1 832 20 58 (965120)
I0122 11:44:30.180246 22077 net.cpp:137] Memory required for data: 696881364
I0122 11:44:30.180253 22077 layer_factory.hpp:77] Creating layer relu1_10
I0122 11:44:30.180260 22077 net.cpp:84] Creating Layer relu1_10
I0122 11:44:30.180264 22077 net.cpp:406] relu1_10 <- conv1_10/bn
I0122 11:44:30.180271 22077 net.cpp:367] relu1_10 -> conv1_10/bn (in-place)
I0122 11:44:30.180529 22077 net.cpp:122] Setting up relu1_10
I0122 11:44:30.180541 22077 net.cpp:129] Top shape: 1 832 20 58 (965120)
I0122 11:44:30.180544 22077 net.cpp:137] Memory required for data: 700741844
I0122 11:44:30.180548 22077 layer_factory.hpp:77] Creating layer conv1_10
I0122 11:44:30.180562 22077 net.cpp:84] Creating Layer conv1_10
I0122 11:44:30.180567 22077 net.cpp:406] conv1_10 <- conv1_10/bn
I0122 11:44:30.180574 22077 net.cpp:380] conv1_10 -> conv1_10
I0122 11:44:30.192106 22077 net.cpp:122] Setting up conv1_10
I0122 11:44:30.192131 22077 net.cpp:129] Top shape: 1 32 20 58 (37120)
I0122 11:44:30.192136 22077 net.cpp:137] Memory required for data: 700890324
I0122 11:44:30.192143 22077 layer_factory.hpp:77] Creating layer concat1_10
I0122 11:44:30.192154 22077 net.cpp:84] Creating Layer concat1_10
I0122 11:44:30.192162 22077 net.cpp:406] concat1_10 <- concat1_9_concat1_9_0_split_1
I0122 11:44:30.192167 22077 net.cpp:406] concat1_10 <- conv1_10
I0122 11:44:30.192174 22077 net.cpp:380] concat1_10 -> concat1_10
I0122 11:44:30.192234 22077 net.cpp:122] Setting up concat1_10
I0122 11:44:30.192245 22077 net.cpp:129] Top shape: 1 864 20 58 (1002240)
I0122 11:44:30.192250 22077 net.cpp:137] Memory required for data: 704899284
I0122 11:44:30.192253 22077 layer_factory.hpp:77] Creating layer concat1_10_concat1_10_0_split
I0122 11:44:30.192260 22077 net.cpp:84] Creating Layer concat1_10_concat1_10_0_split
I0122 11:44:30.192265 22077 net.cpp:406] concat1_10_concat1_10_0_split <- concat1_10
I0122 11:44:30.192270 22077 net.cpp:380] concat1_10_concat1_10_0_split -> concat1_10_concat1_10_0_split_0
I0122 11:44:30.192277 22077 net.cpp:380] concat1_10_concat1_10_0_split -> concat1_10_concat1_10_0_split_1
I0122 11:44:30.192364 22077 net.cpp:122] Setting up concat1_10_concat1_10_0_split
I0122 11:44:30.192373 22077 net.cpp:129] Top shape: 1 864 20 58 (1002240)
I0122 11:44:30.192378 22077 net.cpp:129] Top shape: 1 864 20 58 (1002240)
I0122 11:44:30.192381 22077 net.cpp:137] Memory required for data: 712917204
I0122 11:44:30.192385 22077 layer_factory.hpp:77] Creating layer conv1_11/bn
I0122 11:44:30.192399 22077 net.cpp:84] Creating Layer conv1_11/bn
I0122 11:44:30.192404 22077 net.cpp:406] conv1_11/bn <- concat1_10_concat1_10_0_split_0
I0122 11:44:30.192409 22077 net.cpp:380] conv1_11/bn -> conv1_11/bn
I0122 11:44:30.193014 22077 net.cpp:122] Setting up conv1_11/bn
I0122 11:44:30.193023 22077 net.cpp:129] Top shape: 1 864 20 58 (1002240)
I0122 11:44:30.193027 22077 net.cpp:137] Memory required for data: 716926164
I0122 11:44:30.193037 22077 layer_factory.hpp:77] Creating layer conv1_11/scale
I0122 11:44:30.193045 22077 net.cpp:84] Creating Layer conv1_11/scale
I0122 11:44:30.193050 22077 net.cpp:406] conv1_11/scale <- conv1_11/bn
I0122 11:44:30.193058 22077 net.cpp:367] conv1_11/scale -> conv1_11/bn (in-place)
I0122 11:44:30.193152 22077 layer_factory.hpp:77] Creating layer conv1_11/scale
I0122 11:44:30.193456 22077 net.cpp:122] Setting up conv1_11/scale
I0122 11:44:30.193465 22077 net.cpp:129] Top shape: 1 864 20 58 (1002240)
I0122 11:44:30.193470 22077 net.cpp:137] Memory required for data: 720935124
I0122 11:44:30.193476 22077 layer_factory.hpp:77] Creating layer relu1_11
I0122 11:44:30.193485 22077 net.cpp:84] Creating Layer relu1_11
I0122 11:44:30.193488 22077 net.cpp:406] relu1_11 <- conv1_11/bn
I0122 11:44:30.193495 22077 net.cpp:367] relu1_11 -> conv1_11/bn (in-place)
I0122 11:44:30.193994 22077 net.cpp:122] Setting up relu1_11
I0122 11:44:30.194007 22077 net.cpp:129] Top shape: 1 864 20 58 (1002240)
I0122 11:44:30.194011 22077 net.cpp:137] Memory required for data: 724944084
I0122 11:44:30.194016 22077 layer_factory.hpp:77] Creating layer conv1_11
I0122 11:44:30.194030 22077 net.cpp:84] Creating Layer conv1_11
I0122 11:44:30.194034 22077 net.cpp:406] conv1_11 <- conv1_11/bn
I0122 11:44:30.194041 22077 net.cpp:380] conv1_11 -> conv1_11
I0122 11:44:30.205935 22077 net.cpp:122] Setting up conv1_11
I0122 11:44:30.205955 22077 net.cpp:129] Top shape: 1 32 20 58 (37120)
I0122 11:44:30.205960 22077 net.cpp:137] Memory required for data: 725092564
I0122 11:44:30.205968 22077 layer_factory.hpp:77] Creating layer concat1_11
I0122 11:44:30.205977 22077 net.cpp:84] Creating Layer concat1_11
I0122 11:44:30.205984 22077 net.cpp:406] concat1_11 <- concat1_10_concat1_10_0_split_1
I0122 11:44:30.205993 22077 net.cpp:406] concat1_11 <- conv1_11
I0122 11:44:30.206001 22077 net.cpp:380] concat1_11 -> concat1_11
I0122 11:44:30.206060 22077 net.cpp:122] Setting up concat1_11
I0122 11:44:30.206068 22077 net.cpp:129] Top shape: 1 896 20 58 (1039360)
I0122 11:44:30.206073 22077 net.cpp:137] Memory required for data: 729250004
I0122 11:44:30.206076 22077 layer_factory.hpp:77] Creating layer concat1_11_concat1_11_0_split
I0122 11:44:30.206084 22077 net.cpp:84] Creating Layer concat1_11_concat1_11_0_split
I0122 11:44:30.206089 22077 net.cpp:406] concat1_11_concat1_11_0_split <- concat1_11
I0122 11:44:30.206094 22077 net.cpp:380] concat1_11_concat1_11_0_split -> concat1_11_concat1_11_0_split_0
I0122 11:44:30.206101 22077 net.cpp:380] concat1_11_concat1_11_0_split -> concat1_11_concat1_11_0_split_1
I0122 11:44:30.206189 22077 net.cpp:122] Setting up concat1_11_concat1_11_0_split
I0122 11:44:30.206197 22077 net.cpp:129] Top shape: 1 896 20 58 (1039360)
I0122 11:44:30.206203 22077 net.cpp:129] Top shape: 1 896 20 58 (1039360)
I0122 11:44:30.206207 22077 net.cpp:137] Memory required for data: 737564884
I0122 11:44:30.206210 22077 layer_factory.hpp:77] Creating layer conv1_12/bn
I0122 11:44:30.206219 22077 net.cpp:84] Creating Layer conv1_12/bn
I0122 11:44:30.206223 22077 net.cpp:406] conv1_12/bn <- concat1_11_concat1_11_0_split_0
I0122 11:44:30.206230 22077 net.cpp:380] conv1_12/bn -> conv1_12/bn
I0122 11:44:30.206820 22077 net.cpp:122] Setting up conv1_12/bn
I0122 11:44:30.206827 22077 net.cpp:129] Top shape: 1 896 20 58 (1039360)
I0122 11:44:30.206831 22077 net.cpp:137] Memory required for data: 741722324
I0122 11:44:30.206840 22077 layer_factory.hpp:77] Creating layer conv1_12/scale
I0122 11:44:30.206849 22077 net.cpp:84] Creating Layer conv1_12/scale
I0122 11:44:30.206853 22077 net.cpp:406] conv1_12/scale <- conv1_12/bn
I0122 11:44:30.206866 22077 net.cpp:367] conv1_12/scale -> conv1_12/bn (in-place)
I0122 11:44:30.206954 22077 layer_factory.hpp:77] Creating layer conv1_12/scale
I0122 11:44:30.207250 22077 net.cpp:122] Setting up conv1_12/scale
I0122 11:44:30.207259 22077 net.cpp:129] Top shape: 1 896 20 58 (1039360)
I0122 11:44:30.207262 22077 net.cpp:137] Memory required for data: 745879764
I0122 11:44:30.207270 22077 layer_factory.hpp:77] Creating layer relu1_12
I0122 11:44:30.207278 22077 net.cpp:84] Creating Layer relu1_12
I0122 11:44:30.207281 22077 net.cpp:406] relu1_12 <- conv1_12/bn
I0122 11:44:30.207288 22077 net.cpp:367] relu1_12 -> conv1_12/bn (in-place)
I0122 11:44:30.207842 22077 net.cpp:122] Setting up relu1_12
I0122 11:44:30.207855 22077 net.cpp:129] Top shape: 1 896 20 58 (1039360)
I0122 11:44:30.207861 22077 net.cpp:137] Memory required for data: 750037204
I0122 11:44:30.207865 22077 layer_factory.hpp:77] Creating layer conv1_12
I0122 11:44:30.207877 22077 net.cpp:84] Creating Layer conv1_12
I0122 11:44:30.207882 22077 net.cpp:406] conv1_12 <- conv1_12/bn
I0122 11:44:30.207891 22077 net.cpp:380] conv1_12 -> conv1_12
I0122 11:44:30.220373 22077 net.cpp:122] Setting up conv1_12
I0122 11:44:30.220402 22077 net.cpp:129] Top shape: 1 32 20 58 (37120)
I0122 11:44:30.220409 22077 net.cpp:137] Memory required for data: 750185684
I0122 11:44:30.220418 22077 layer_factory.hpp:77] Creating layer concat1_12
I0122 11:44:30.220429 22077 net.cpp:84] Creating Layer concat1_12
I0122 11:44:30.220435 22077 net.cpp:406] concat1_12 <- concat1_11_concat1_11_0_split_1
I0122 11:44:30.220443 22077 net.cpp:406] concat1_12 <- conv1_12
I0122 11:44:30.220449 22077 net.cpp:380] concat1_12 -> concat1_12
I0122 11:44:30.220515 22077 net.cpp:122] Setting up concat1_12
I0122 11:44:30.220523 22077 net.cpp:129] Top shape: 1 928 20 58 (1076480)
I0122 11:44:30.220527 22077 net.cpp:137] Memory required for data: 754491604
I0122 11:44:30.220531 22077 layer_factory.hpp:77] Creating layer concat1_12_concat1_12_0_split
I0122 11:44:30.220538 22077 net.cpp:84] Creating Layer concat1_12_concat1_12_0_split
I0122 11:44:30.220542 22077 net.cpp:406] concat1_12_concat1_12_0_split <- concat1_12
I0122 11:44:30.220548 22077 net.cpp:380] concat1_12_concat1_12_0_split -> concat1_12_concat1_12_0_split_0
I0122 11:44:30.220556 22077 net.cpp:380] concat1_12_concat1_12_0_split -> concat1_12_concat1_12_0_split_1
I0122 11:44:30.220649 22077 net.cpp:122] Setting up concat1_12_concat1_12_0_split
I0122 11:44:30.220657 22077 net.cpp:129] Top shape: 1 928 20 58 (1076480)
I0122 11:44:30.220662 22077 net.cpp:129] Top shape: 1 928 20 58 (1076480)
I0122 11:44:30.220666 22077 net.cpp:137] Memory required for data: 763103444
I0122 11:44:30.220670 22077 layer_factory.hpp:77] Creating layer conv1_13/bn
I0122 11:44:30.220677 22077 net.cpp:84] Creating Layer conv1_13/bn
I0122 11:44:30.220682 22077 net.cpp:406] conv1_13/bn <- concat1_12_concat1_12_0_split_0
I0122 11:44:30.220690 22077 net.cpp:380] conv1_13/bn -> conv1_13/bn
I0122 11:44:30.221283 22077 net.cpp:122] Setting up conv1_13/bn
I0122 11:44:30.221290 22077 net.cpp:129] Top shape: 1 928 20 58 (1076480)
I0122 11:44:30.221293 22077 net.cpp:137] Memory required for data: 767409364
I0122 11:44:30.221299 22077 layer_factory.hpp:77] Creating layer conv1_13/scale
I0122 11:44:30.221307 22077 net.cpp:84] Creating Layer conv1_13/scale
I0122 11:44:30.221310 22077 net.cpp:406] conv1_13/scale <- conv1_13/bn
I0122 11:44:30.221314 22077 net.cpp:367] conv1_13/scale -> conv1_13/bn (in-place)
I0122 11:44:30.221392 22077 layer_factory.hpp:77] Creating layer conv1_13/scale
I0122 11:44:30.221626 22077 net.cpp:122] Setting up conv1_13/scale
I0122 11:44:30.221632 22077 net.cpp:129] Top shape: 1 928 20 58 (1076480)
I0122 11:44:30.221634 22077 net.cpp:137] Memory required for data: 771715284
I0122 11:44:30.221638 22077 layer_factory.hpp:77] Creating layer relu1_13
I0122 11:44:30.221643 22077 net.cpp:84] Creating Layer relu1_13
I0122 11:44:30.221647 22077 net.cpp:406] relu1_13 <- conv1_13/bn
I0122 11:44:30.221649 22077 net.cpp:367] relu1_13 -> conv1_13/bn (in-place)
I0122 11:44:30.221854 22077 net.cpp:122] Setting up relu1_13
I0122 11:44:30.221863 22077 net.cpp:129] Top shape: 1 928 20 58 (1076480)
I0122 11:44:30.221864 22077 net.cpp:137] Memory required for data: 776021204
I0122 11:44:30.221868 22077 layer_factory.hpp:77] Creating layer conv1_13
I0122 11:44:30.221877 22077 net.cpp:84] Creating Layer conv1_13
I0122 11:44:30.221880 22077 net.cpp:406] conv1_13 <- conv1_13/bn
I0122 11:44:30.221886 22077 net.cpp:380] conv1_13 -> conv1_13
I0122 11:44:30.230458 22077 net.cpp:122] Setting up conv1_13
I0122 11:44:30.230476 22077 net.cpp:129] Top shape: 1 32 20 58 (37120)
I0122 11:44:30.230479 22077 net.cpp:137] Memory required for data: 776169684
I0122 11:44:30.230484 22077 layer_factory.hpp:77] Creating layer concat1_13
I0122 11:44:30.230491 22077 net.cpp:84] Creating Layer concat1_13
I0122 11:44:30.230495 22077 net.cpp:406] concat1_13 <- concat1_12_concat1_12_0_split_1
I0122 11:44:30.230499 22077 net.cpp:406] concat1_13 <- conv1_13
I0122 11:44:30.230504 22077 net.cpp:380] concat1_13 -> concat1_13
I0122 11:44:30.230556 22077 net.cpp:122] Setting up concat1_13
I0122 11:44:30.230561 22077 net.cpp:129] Top shape: 1 960 20 58 (1113600)
I0122 11:44:30.230564 22077 net.cpp:137] Memory required for data: 780624084
I0122 11:44:30.230566 22077 layer_factory.hpp:77] Creating layer concat1_13_concat1_13_0_split
I0122 11:44:30.230571 22077 net.cpp:84] Creating Layer concat1_13_concat1_13_0_split
I0122 11:44:30.230574 22077 net.cpp:406] concat1_13_concat1_13_0_split <- concat1_13
I0122 11:44:30.230578 22077 net.cpp:380] concat1_13_concat1_13_0_split -> concat1_13_concat1_13_0_split_0
I0122 11:44:30.230584 22077 net.cpp:380] concat1_13_concat1_13_0_split -> concat1_13_concat1_13_0_split_1
I0122 11:44:30.230654 22077 net.cpp:122] Setting up concat1_13_concat1_13_0_split
I0122 11:44:30.230661 22077 net.cpp:129] Top shape: 1 960 20 58 (1113600)
I0122 11:44:30.230664 22077 net.cpp:129] Top shape: 1 960 20 58 (1113600)
I0122 11:44:30.230666 22077 net.cpp:137] Memory required for data: 789532884
I0122 11:44:30.230669 22077 layer_factory.hpp:77] Creating layer conv1_14/bn
I0122 11:44:30.230674 22077 net.cpp:84] Creating Layer conv1_14/bn
I0122 11:44:30.230676 22077 net.cpp:406] conv1_14/bn <- concat1_13_concat1_13_0_split_0
I0122 11:44:30.230684 22077 net.cpp:380] conv1_14/bn -> conv1_14/bn
I0122 11:44:30.231144 22077 net.cpp:122] Setting up conv1_14/bn
I0122 11:44:30.231150 22077 net.cpp:129] Top shape: 1 960 20 58 (1113600)
I0122 11:44:30.231153 22077 net.cpp:137] Memory required for data: 793987284
I0122 11:44:30.231159 22077 layer_factory.hpp:77] Creating layer conv1_14/scale
I0122 11:44:30.231166 22077 net.cpp:84] Creating Layer conv1_14/scale
I0122 11:44:30.231169 22077 net.cpp:406] conv1_14/scale <- conv1_14/bn
I0122 11:44:30.231174 22077 net.cpp:367] conv1_14/scale -> conv1_14/bn (in-place)
I0122 11:44:30.231251 22077 layer_factory.hpp:77] Creating layer conv1_14/scale
I0122 11:44:30.231480 22077 net.cpp:122] Setting up conv1_14/scale
I0122 11:44:30.231487 22077 net.cpp:129] Top shape: 1 960 20 58 (1113600)
I0122 11:44:30.231488 22077 net.cpp:137] Memory required for data: 798441684
I0122 11:44:30.231493 22077 layer_factory.hpp:77] Creating layer relu1_14
I0122 11:44:30.231499 22077 net.cpp:84] Creating Layer relu1_14
I0122 11:44:30.231503 22077 net.cpp:406] relu1_14 <- conv1_14/bn
I0122 11:44:30.231505 22077 net.cpp:367] relu1_14 -> conv1_14/bn (in-place)
I0122 11:44:30.232089 22077 net.cpp:122] Setting up relu1_14
I0122 11:44:30.232102 22077 net.cpp:129] Top shape: 1 960 20 58 (1113600)
I0122 11:44:30.232105 22077 net.cpp:137] Memory required for data: 802896084
I0122 11:44:30.232108 22077 layer_factory.hpp:77] Creating layer conv1_14
I0122 11:44:30.232120 22077 net.cpp:84] Creating Layer conv1_14
I0122 11:44:30.232123 22077 net.cpp:406] conv1_14 <- conv1_14/bn
I0122 11:44:30.232128 22077 net.cpp:380] conv1_14 -> conv1_14
I0122 11:44:30.241304 22077 net.cpp:122] Setting up conv1_14
I0122 11:44:30.241334 22077 net.cpp:129] Top shape: 1 32 20 58 (37120)
I0122 11:44:30.241340 22077 net.cpp:137] Memory required for data: 803044564
I0122 11:44:30.241348 22077 layer_factory.hpp:77] Creating layer concat1_14
I0122 11:44:30.241360 22077 net.cpp:84] Creating Layer concat1_14
I0122 11:44:30.241365 22077 net.cpp:406] concat1_14 <- concat1_13_concat1_13_0_split_1
I0122 11:44:30.241371 22077 net.cpp:406] concat1_14 <- conv1_14
I0122 11:44:30.241375 22077 net.cpp:380] concat1_14 -> concat1_14
I0122 11:44:30.241427 22077 net.cpp:122] Setting up concat1_14
I0122 11:44:30.241433 22077 net.cpp:129] Top shape: 1 992 20 58 (1150720)
I0122 11:44:30.241436 22077 net.cpp:137] Memory required for data: 807647444
I0122 11:44:30.241438 22077 layer_factory.hpp:77] Creating layer concat1_14_concat1_14_0_split
I0122 11:44:30.241444 22077 net.cpp:84] Creating Layer concat1_14_concat1_14_0_split
I0122 11:44:30.241447 22077 net.cpp:406] concat1_14_concat1_14_0_split <- concat1_14
I0122 11:44:30.241451 22077 net.cpp:380] concat1_14_concat1_14_0_split -> concat1_14_concat1_14_0_split_0
I0122 11:44:30.241457 22077 net.cpp:380] concat1_14_concat1_14_0_split -> concat1_14_concat1_14_0_split_1
I0122 11:44:30.241528 22077 net.cpp:122] Setting up concat1_14_concat1_14_0_split
I0122 11:44:30.241533 22077 net.cpp:129] Top shape: 1 992 20 58 (1150720)
I0122 11:44:30.241538 22077 net.cpp:129] Top shape: 1 992 20 58 (1150720)
I0122 11:44:30.241539 22077 net.cpp:137] Memory required for data: 816853204
I0122 11:44:30.241541 22077 layer_factory.hpp:77] Creating layer conv1_15/bn
I0122 11:44:30.241547 22077 net.cpp:84] Creating Layer conv1_15/bn
I0122 11:44:30.241550 22077 net.cpp:406] conv1_15/bn <- concat1_14_concat1_14_0_split_0
I0122 11:44:30.241555 22077 net.cpp:380] conv1_15/bn -> conv1_15/bn
I0122 11:44:30.242039 22077 net.cpp:122] Setting up conv1_15/bn
I0122 11:44:30.242048 22077 net.cpp:129] Top shape: 1 992 20 58 (1150720)
I0122 11:44:30.242049 22077 net.cpp:137] Memory required for data: 821456084
I0122 11:44:30.242055 22077 layer_factory.hpp:77] Creating layer conv1_15/scale
I0122 11:44:30.242063 22077 net.cpp:84] Creating Layer conv1_15/scale
I0122 11:44:30.242065 22077 net.cpp:406] conv1_15/scale <- conv1_15/bn
I0122 11:44:30.242069 22077 net.cpp:367] conv1_15/scale -> conv1_15/bn (in-place)
I0122 11:44:30.242148 22077 layer_factory.hpp:77] Creating layer conv1_15/scale
I0122 11:44:30.242388 22077 net.cpp:122] Setting up conv1_15/scale
I0122 11:44:30.242393 22077 net.cpp:129] Top shape: 1 992 20 58 (1150720)
I0122 11:44:30.242395 22077 net.cpp:137] Memory required for data: 826058964
I0122 11:44:30.242400 22077 layer_factory.hpp:77] Creating layer relu1_15
I0122 11:44:30.242405 22077 net.cpp:84] Creating Layer relu1_15
I0122 11:44:30.242408 22077 net.cpp:406] relu1_15 <- conv1_15/bn
I0122 11:44:30.242415 22077 net.cpp:367] relu1_15 -> conv1_15/bn (in-place)
I0122 11:44:30.242615 22077 net.cpp:122] Setting up relu1_15
I0122 11:44:30.242624 22077 net.cpp:129] Top shape: 1 992 20 58 (1150720)
I0122 11:44:30.242627 22077 net.cpp:137] Memory required for data: 830661844
I0122 11:44:30.242630 22077 layer_factory.hpp:77] Creating layer conv1_15
I0122 11:44:30.242638 22077 net.cpp:84] Creating Layer conv1_15
I0122 11:44:30.242641 22077 net.cpp:406] conv1_15 <- conv1_15/bn
I0122 11:44:30.242647 22077 net.cpp:380] conv1_15 -> conv1_15
I0122 11:44:30.256058 22077 net.cpp:122] Setting up conv1_15
I0122 11:44:30.256095 22077 net.cpp:129] Top shape: 1 32 20 58 (37120)
I0122 11:44:30.256100 22077 net.cpp:137] Memory required for data: 830810324
I0122 11:44:30.256110 22077 layer_factory.hpp:77] Creating layer concat1_15
I0122 11:44:30.256124 22077 net.cpp:84] Creating Layer concat1_15
I0122 11:44:30.256130 22077 net.cpp:406] concat1_15 <- concat1_14_concat1_14_0_split_1
I0122 11:44:30.256139 22077 net.cpp:406] concat1_15 <- conv1_15
I0122 11:44:30.256146 22077 net.cpp:380] concat1_15 -> concat1_15
I0122 11:44:30.256212 22077 net.cpp:122] Setting up concat1_15
I0122 11:44:30.256222 22077 net.cpp:129] Top shape: 1 1024 20 58 (1187840)
I0122 11:44:30.256224 22077 net.cpp:137] Memory required for data: 835561684
I0122 11:44:30.256229 22077 layer_factory.hpp:77] Creating layer concat1_15_concat1_15_0_split
I0122 11:44:30.256240 22077 net.cpp:84] Creating Layer concat1_15_concat1_15_0_split
I0122 11:44:30.256244 22077 net.cpp:406] concat1_15_concat1_15_0_split <- concat1_15
I0122 11:44:30.256250 22077 net.cpp:380] concat1_15_concat1_15_0_split -> concat1_15_concat1_15_0_split_0
I0122 11:44:30.256259 22077 net.cpp:380] concat1_15_concat1_15_0_split -> concat1_15_concat1_15_0_split_1
I0122 11:44:30.256353 22077 net.cpp:122] Setting up concat1_15_concat1_15_0_split
I0122 11:44:30.256362 22077 net.cpp:129] Top shape: 1 1024 20 58 (1187840)
I0122 11:44:30.256367 22077 net.cpp:129] Top shape: 1 1024 20 58 (1187840)
I0122 11:44:30.256371 22077 net.cpp:137] Memory required for data: 845064404
I0122 11:44:30.256376 22077 layer_factory.hpp:77] Creating layer conv1_16/bn
I0122 11:44:30.256382 22077 net.cpp:84] Creating Layer conv1_16/bn
I0122 11:44:30.256387 22077 net.cpp:406] conv1_16/bn <- concat1_15_concat1_15_0_split_0
I0122 11:44:30.256395 22077 net.cpp:380] conv1_16/bn -> conv1_16/bn
I0122 11:44:30.257021 22077 net.cpp:122] Setting up conv1_16/bn
I0122 11:44:30.257031 22077 net.cpp:129] Top shape: 1 1024 20 58 (1187840)
I0122 11:44:30.257035 22077 net.cpp:137] Memory required for data: 849815764
I0122 11:44:30.257045 22077 layer_factory.hpp:77] Creating layer conv1_16/scale
I0122 11:44:30.257055 22077 net.cpp:84] Creating Layer conv1_16/scale
I0122 11:44:30.257058 22077 net.cpp:406] conv1_16/scale <- conv1_16/bn
I0122 11:44:30.257066 22077 net.cpp:367] conv1_16/scale -> conv1_16/bn (in-place)
I0122 11:44:30.257158 22077 layer_factory.hpp:77] Creating layer conv1_16/scale
I0122 11:44:30.257467 22077 net.cpp:122] Setting up conv1_16/scale
I0122 11:44:30.257477 22077 net.cpp:129] Top shape: 1 1024 20 58 (1187840)
I0122 11:44:30.257480 22077 net.cpp:137] Memory required for data: 854567124
I0122 11:44:30.257488 22077 layer_factory.hpp:77] Creating layer relu1_16
I0122 11:44:30.257494 22077 net.cpp:84] Creating Layer relu1_16
I0122 11:44:30.257499 22077 net.cpp:406] relu1_16 <- conv1_16/bn
I0122 11:44:30.257504 22077 net.cpp:367] relu1_16 -> conv1_16/bn (in-place)
I0122 11:44:30.257994 22077 net.cpp:122] Setting up relu1_16
I0122 11:44:30.258008 22077 net.cpp:129] Top shape: 1 1024 20 58 (1187840)
I0122 11:44:30.258013 22077 net.cpp:137] Memory required for data: 859318484
I0122 11:44:30.258018 22077 layer_factory.hpp:77] Creating layer conv1_16
I0122 11:44:30.258031 22077 net.cpp:84] Creating Layer conv1_16
I0122 11:44:30.258036 22077 net.cpp:406] conv1_16 <- conv1_16/bn
I0122 11:44:30.258044 22077 net.cpp:380] conv1_16 -> conv1_16
I0122 11:44:30.271725 22077 net.cpp:122] Setting up conv1_16
I0122 11:44:30.271751 22077 net.cpp:129] Top shape: 1 32 20 58 (37120)
I0122 11:44:30.271756 22077 net.cpp:137] Memory required for data: 859466964
I0122 11:44:30.271765 22077 layer_factory.hpp:77] Creating layer concat1_16
I0122 11:44:30.271775 22077 net.cpp:84] Creating Layer concat1_16
I0122 11:44:30.271781 22077 net.cpp:406] concat1_16 <- concat1_15_concat1_15_0_split_1
I0122 11:44:30.271787 22077 net.cpp:406] concat1_16 <- conv1_16
I0122 11:44:30.271795 22077 net.cpp:380] concat1_16 -> concat1_16
I0122 11:44:30.271862 22077 net.cpp:122] Setting up concat1_16
I0122 11:44:30.271870 22077 net.cpp:129] Top shape: 1 1056 20 58 (1224960)
I0122 11:44:30.271874 22077 net.cpp:137] Memory required for data: 864366804
I0122 11:44:30.271878 22077 layer_factory.hpp:77] Creating layer concat1_16_concat1_16_0_split
I0122 11:44:30.271885 22077 net.cpp:84] Creating Layer concat1_16_concat1_16_0_split
I0122 11:44:30.271889 22077 net.cpp:406] concat1_16_concat1_16_0_split <- concat1_16
I0122 11:44:30.271896 22077 net.cpp:380] concat1_16_concat1_16_0_split -> concat1_16_concat1_16_0_split_0
I0122 11:44:30.271903 22077 net.cpp:380] concat1_16_concat1_16_0_split -> concat1_16_concat1_16_0_split_1
I0122 11:44:30.271999 22077 net.cpp:122] Setting up concat1_16_concat1_16_0_split
I0122 11:44:30.272007 22077 net.cpp:129] Top shape: 1 1056 20 58 (1224960)
I0122 11:44:30.272012 22077 net.cpp:129] Top shape: 1 1056 20 58 (1224960)
I0122 11:44:30.272020 22077 net.cpp:137] Memory required for data: 874166484
I0122 11:44:30.272024 22077 layer_factory.hpp:77] Creating layer conv1_17/bn
I0122 11:44:30.272035 22077 net.cpp:84] Creating Layer conv1_17/bn
I0122 11:44:30.272040 22077 net.cpp:406] conv1_17/bn <- concat1_16_concat1_16_0_split_0
I0122 11:44:30.272047 22077 net.cpp:380] conv1_17/bn -> conv1_17/bn
I0122 11:44:30.272666 22077 net.cpp:122] Setting up conv1_17/bn
I0122 11:44:30.272676 22077 net.cpp:129] Top shape: 1 1056 20 58 (1224960)
I0122 11:44:30.272680 22077 net.cpp:137] Memory required for data: 879066324
I0122 11:44:30.272689 22077 layer_factory.hpp:77] Creating layer conv1_17/scale
I0122 11:44:30.272699 22077 net.cpp:84] Creating Layer conv1_17/scale
I0122 11:44:30.272703 22077 net.cpp:406] conv1_17/scale <- conv1_17/bn
I0122 11:44:30.272711 22077 net.cpp:367] conv1_17/scale -> conv1_17/bn (in-place)
I0122 11:44:30.272804 22077 layer_factory.hpp:77] Creating layer conv1_17/scale
I0122 11:44:30.273123 22077 net.cpp:122] Setting up conv1_17/scale
I0122 11:44:30.273133 22077 net.cpp:129] Top shape: 1 1056 20 58 (1224960)
I0122 11:44:30.273136 22077 net.cpp:137] Memory required for data: 883966164
I0122 11:44:30.273144 22077 layer_factory.hpp:77] Creating layer relu1_17
I0122 11:44:30.273151 22077 net.cpp:84] Creating Layer relu1_17
I0122 11:44:30.273155 22077 net.cpp:406] relu1_17 <- conv1_17/bn
I0122 11:44:30.273161 22077 net.cpp:367] relu1_17 -> conv1_17/bn (in-place)
I0122 11:44:30.273648 22077 net.cpp:122] Setting up relu1_17
I0122 11:44:30.273661 22077 net.cpp:129] Top shape: 1 1056 20 58 (1224960)
I0122 11:44:30.273665 22077 net.cpp:137] Memory required for data: 888866004
I0122 11:44:30.273670 22077 layer_factory.hpp:77] Creating layer conv1_17
I0122 11:44:30.273682 22077 net.cpp:84] Creating Layer conv1_17
I0122 11:44:30.273687 22077 net.cpp:406] conv1_17 <- conv1_17/bn
I0122 11:44:30.273695 22077 net.cpp:380] conv1_17 -> conv1_17
I0122 11:44:30.287806 22077 net.cpp:122] Setting up conv1_17
I0122 11:44:30.287828 22077 net.cpp:129] Top shape: 1 32 20 58 (37120)
I0122 11:44:30.287833 22077 net.cpp:137] Memory required for data: 889014484
I0122 11:44:30.287840 22077 layer_factory.hpp:77] Creating layer concat1_17
I0122 11:44:30.287850 22077 net.cpp:84] Creating Layer concat1_17
I0122 11:44:30.287856 22077 net.cpp:406] concat1_17 <- concat1_16_concat1_16_0_split_1
I0122 11:44:30.287863 22077 net.cpp:406] concat1_17 <- conv1_17
I0122 11:44:30.287870 22077 net.cpp:380] concat1_17 -> concat1_17
I0122 11:44:30.287936 22077 net.cpp:122] Setting up concat1_17
I0122 11:44:30.287945 22077 net.cpp:129] Top shape: 1 1088 20 58 (1262080)
I0122 11:44:30.287950 22077 net.cpp:137] Memory required for data: 894062804
I0122 11:44:30.287953 22077 layer_factory.hpp:77] Creating layer concat1_17_concat1_17_0_split
I0122 11:44:30.287962 22077 net.cpp:84] Creating Layer concat1_17_concat1_17_0_split
I0122 11:44:30.287966 22077 net.cpp:406] concat1_17_concat1_17_0_split <- concat1_17
I0122 11:44:30.287972 22077 net.cpp:380] concat1_17_concat1_17_0_split -> concat1_17_concat1_17_0_split_0
I0122 11:44:30.287981 22077 net.cpp:380] concat1_17_concat1_17_0_split -> concat1_17_concat1_17_0_split_1
I0122 11:44:30.288074 22077 net.cpp:122] Setting up concat1_17_concat1_17_0_split
I0122 11:44:30.288082 22077 net.cpp:129] Top shape: 1 1088 20 58 (1262080)
I0122 11:44:30.288087 22077 net.cpp:129] Top shape: 1 1088 20 58 (1262080)
I0122 11:44:30.288091 22077 net.cpp:137] Memory required for data: 904159444
I0122 11:44:30.288095 22077 layer_factory.hpp:77] Creating layer conv1_18/bn
I0122 11:44:30.288105 22077 net.cpp:84] Creating Layer conv1_18/bn
I0122 11:44:30.288108 22077 net.cpp:406] conv1_18/bn <- concat1_17_concat1_17_0_split_0
I0122 11:44:30.288115 22077 net.cpp:380] conv1_18/bn -> conv1_18/bn
I0122 11:44:30.288738 22077 net.cpp:122] Setting up conv1_18/bn
I0122 11:44:30.288748 22077 net.cpp:129] Top shape: 1 1088 20 58 (1262080)
I0122 11:44:30.288751 22077 net.cpp:137] Memory required for data: 909207764
I0122 11:44:30.288760 22077 layer_factory.hpp:77] Creating layer conv1_18/scale
I0122 11:44:30.288776 22077 net.cpp:84] Creating Layer conv1_18/scale
I0122 11:44:30.288781 22077 net.cpp:406] conv1_18/scale <- conv1_18/bn
…
I0122 11:44:34.660070 22077 net.cpp:129] Top shape: 1 1024 23 24 (565248)
I0122 11:44:34.660076 22077 net.cpp:137] Memory required for data: 408802784
I0122 11:44:34.660087 22077 layer_factory.hpp:77] Creating layer conv1_16
I0122 11:44:34.660107 22077 net.cpp:84] Creating Layer conv1_16
I0122 11:44:34.660115 22077 net.cpp:406] conv1_16 <- conv1_16/bn
I0122 11:44:34.660125 22077 net.cpp:380] conv1_16 -> conv1_16
I0122 11:44:34.674641 22077 net.cpp:122] Setting up conv1_16
I0122 11:44:34.674681 22077 net.cpp:129] Top shape: 1 32 23 24 (17664)
I0122 11:44:34.674688 22077 net.cpp:137] Memory required for data: 408873440
I0122 11:44:34.674701 22077 layer_factory.hpp:77] Creating layer concat1_16
I0122 11:44:34.674718 22077 net.cpp:84] Creating Layer concat1_16
I0122 11:44:34.674727 22077 net.cpp:406] concat1_16 <- concat1_15_concat1_15_0_split_1
I0122 11:44:34.674737 22077 net.cpp:406] concat1_16 <- conv1_16
I0122 11:44:34.674746 22077 net.cpp:380] concat1_16 -> concat1_16
I0122 11:44:34.674818 22077 net.cpp:122] Setting up concat1_16
I0122 11:44:34.674829 22077 net.cpp:129] Top shape: 1 1056 23 24 (582912)
I0122 11:44:34.674834 22077 net.cpp:137] Memory required for data: 411205088
I0122 11:44:34.674839 22077 layer_factory.hpp:77] Creating layer concat1_16_concat1_16_0_split
I0122 11:44:34.674849 22077 net.cpp:84] Creating Layer concat1_16_concat1_16_0_split
I0122 11:44:34.674855 22077 net.cpp:406] concat1_16_concat1_16_0_split <- concat1_16
I0122 11:44:34.674862 22077 net.cpp:380] concat1_16_concat1_16_0_split -> concat1_16_concat1_16_0_split_0
I0122 11:44:34.674873 22077 net.cpp:380] concat1_16_concat1_16_0_split -> concat1_16_concat1_16_0_split_1
I0122 11:44:34.674973 22077 net.cpp:122] Setting up concat1_16_concat1_16_0_split
I0122 11:44:34.674986 22077 net.cpp:129] Top shape: 1 1056 23 24 (582912)
I0122 11:44:34.674993 22077 net.cpp:129] Top shape: 1 1056 23 24 (582912)
I0122 11:44:34.674996 22077 net.cpp:137] Memory required for data: 415868384
I0122 11:44:34.675000 22077 layer_factory.hpp:77] Creating layer conv1_17/bn
I0122 11:44:34.675010 22077 net.cpp:84] Creating Layer conv1_17/bn
I0122 11:44:34.675017 22077 net.cpp:406] conv1_17/bn <- concat1_16_concat1_16_0_split_0
I0122 11:44:34.675026 22077 net.cpp:380] conv1_17/bn -> conv1_17/bn
I0122 11:44:34.675783 22077 net.cpp:122] Setting up conv1_17/bn
I0122 11:44:34.675799 22077 net.cpp:129] Top shape: 1 1056 23 24 (582912)
I0122 11:44:34.675804 22077 net.cpp:137] Memory required for data: 418200032
I0122 11:44:34.675817 22077 layer_factory.hpp:77] Creating layer conv1_17/scale
I0122 11:44:34.675827 22077 net.cpp:84] Creating Layer conv1_17/scale
I0122 11:44:34.675833 22077 net.cpp:406] conv1_17/scale <- conv1_17/bn
I0122 11:44:34.675843 22077 net.cpp:367] conv1_17/scale -> conv1_17/bn (in-place)
I0122 11:44:34.675953 22077 layer_factory.hpp:77] Creating layer conv1_17/scale
I0122 11:44:34.676323 22077 net.cpp:122] Setting up conv1_17/scale
I0122 11:44:34.676333 22077 net.cpp:129] Top shape: 1 1056 23 24 (582912)
I0122 11:44:34.676337 22077 net.cpp:137] Memory required for data: 420531680
I0122 11:44:34.676345 22077 layer_factory.hpp:77] Creating layer relu1_17
I0122 11:44:34.676353 22077 net.cpp:84] Creating Layer relu1_17
I0122 11:44:34.676357 22077 net.cpp:406] relu1_17 <- conv1_17/bn
I0122 11:44:34.676365 22077 net.cpp:367] relu1_17 -> conv1_17/bn (in-place)
I0122 11:44:34.677050 22077 net.cpp:122] Setting up relu1_17
I0122 11:44:34.677063 22077 net.cpp:129] Top shape: 1 1056 23 24 (582912)
I0122 11:44:34.677068 22077 net.cpp:137] Memory required for data: 422863328
I0122 11:44:34.677073 22077 layer_factory.hpp:77] Creating layer conv1_17
I0122 11:44:34.677086 22077 net.cpp:84] Creating Layer conv1_17
I0122 11:44:34.677091 22077 net.cpp:406] conv1_17 <- conv1_17/bn
I0122 11:44:34.677099 22077 net.cpp:380] conv1_17 -> conv1_17
I0122 11:44:34.692111 22077 net.cpp:122] Setting up conv1_17
I0122 11:44:34.692147 22077 net.cpp:129] Top shape: 1 32 23 24 (17664)
I0122 11:44:34.692152 22077 net.cpp:137] Memory required for data: 422933984
I0122 11:44:34.692162 22077 layer_factory.hpp:77] Creating layer concat1_17
I0122 11:44:34.692173 22077 net.cpp:84] Creating Layer concat1_17
I0122 11:44:34.692183 22077 net.cpp:406] concat1_17 <- concat1_16_concat1_16_0_split_1
I0122 11:44:34.692188 22077 net.cpp:406] concat1_17 <- conv1_17
I0122 11:44:34.692193 22077 net.cpp:380] concat1_17 -> concat1_17
I0122 11:44:34.692245 22077 net.cpp:122] Setting up concat1_17
I0122 11:44:34.692250 22077 net.cpp:129] Top shape: 1 1088 23 24 (600576)
I0122 11:44:34.692252 22077 net.cpp:137] Memory required for data: 425336288
I0122 11:44:34.692255 22077 layer_factory.hpp:77] Creating layer concat1_17_concat1_17_0_split
I0122 11:44:34.692260 22077 net.cpp:84] Creating Layer concat1_17_concat1_17_0_split
I0122 11:44:34.692263 22077 net.cpp:406] concat1_17_concat1_17_0_split <- concat1_17
I0122 11:44:34.692267 22077 net.cpp:380] concat1_17_concat1_17_0_split -> concat1_17_concat1_17_0_split_0
I0122 11:44:34.692272 22077 net.cpp:380] concat1_17_concat1_17_0_split -> concat1_17_concat1_17_0_split_1
I0122 11:44:34.692332 22077 net.cpp:122] Setting up concat1_17_concat1_17_0_split
I0122 11:44:34.692338 22077 net.cpp:129] Top shape: 1 1088 23 24 (600576)
I0122 11:44:34.692342 22077 net.cpp:129] Top shape: 1 1088 23 24 (600576)
I0122 11:44:34.692343 22077 net.cpp:137] Memory required for data: 430140896
I0122 11:44:34.692347 22077 layer_factory.hpp:77] Creating layer conv1_18/bn
I0122 11:44:34.692354 22077 net.cpp:84] Creating Layer conv1_18/bn
I0122 11:44:34.692358 22077 net.cpp:406] conv1_18/bn <- concat1_17_concat1_17_0_split_0
I0122 11:44:34.692363 22077 net.cpp:380] conv1_18/bn -> conv1_18/bn
I0122 11:44:34.692819 22077 net.cpp:122] Setting up conv1_18/bn
I0122 11:44:34.692826 22077 net.cpp:129] Top shape: 1 1088 23 24 (600576)
I0122 11:44:34.692828 22077 net.cpp:137] Memory required for data: 432543200
I0122 11:44:34.692834 22077 layer_factory.hpp:77] Creating layer conv1_18/scale
I0122 11:44:34.692842 22077 net.cpp:84] Creating Layer conv1_18/scale
I0122 11:44:34.692845 22077 net.cpp:406] conv1_18/scale <- conv1_18/bn
I0122 11:44:34.692849 22077 net.cpp:367] conv1_18/scale -> conv1_18/bn (in-place)
I0122 11:44:34.692919 22077 layer_factory.hpp:77] Creating layer conv1_18/scale
I0122 11:44:34.693179 22077 net.cpp:122] Setting up conv1_18/scale
I0122 11:44:34.693186 22077 net.cpp:129] Top shape: 1 1088 23 24 (600576)
I0122 11:44:34.693188 22077 net.cpp:137] Memory required for data: 434945504
I0122 11:44:34.693192 22077 layer_factory.hpp:77] Creating layer relu1_18
I0122 11:44:34.693197 22077 net.cpp:84] Creating Layer relu1_18
I0122 11:44:34.693200 22077 net.cpp:406] relu1_18 <- conv1_18/bn
I0122 11:44:34.693204 22077 net.cpp:367] relu1_18 -> conv1_18/bn (in-place)
I0122 11:44:34.693434 22077 net.cpp:122] Setting up relu1_18
I0122 11:44:34.693442 22077 net.cpp:129] Top shape: 1 1088 23 24 (600576)
I0122 11:44:34.693444 22077 net.cpp:137] Memory required for data: 437347808
I0122 11:44:34.693447 22077 layer_factory.hpp:77] Creating layer conv1_18
I0122 11:44:34.693456 22077 net.cpp:84] Creating Layer conv1_18
I0122 11:44:34.693459 22077 net.cpp:406] conv1_18 <- conv1_18/bn
I0122 11:44:34.693465 22077 net.cpp:380] conv1_18 -> conv1_18
I0122 11:44:34.703135 22077 net.cpp:122] Setting up conv1_18
I0122 11:44:34.703147 22077 net.cpp:129] Top shape: 1 32 23 24 (17664)
I0122 11:44:34.703150 22077 net.cpp:137] Memory required for data: 437418464
I0122 11:44:34.703155 22077 layer_factory.hpp:77] Creating layer concat1_18
I0122 11:44:34.703161 22077 net.cpp:84] Creating Layer concat1_18
I0122 11:44:34.703166 22077 net.cpp:406] concat1_18 <- concat1_17_concat1_17_0_split_1
I0122 11:44:34.703169 22077 net.cpp:406] concat1_18 <- conv1_18
I0122 11:44:34.703173 22077 net.cpp:380] concat1_18 -> concat1_18
I0122 11:44:34.703217 22077 net.cpp:122] Setting up concat1_18
I0122 11:44:34.703225 22077 net.cpp:129] Top shape: 1 1120 23 24 (618240)
I0122 11:44:34.703227 22077 net.cpp:137] Memory required for data: 439891424
I0122 11:44:34.703229 22077 layer_factory.hpp:77] Creating layer concat1_18_concat1_18_0_split
I0122 11:44:34.703233 22077 net.cpp:84] Creating Layer concat1_18_concat1_18_0_split
I0122 11:44:34.703236 22077 net.cpp:406] concat1_18_concat1_18_0_split <- concat1_18
I0122 11:44:34.703243 22077 net.cpp:380] concat1_18_concat1_18_0_split -> concat1_18_concat1_18_0_split_0
I0122 11:44:34.703248 22077 net.cpp:380] concat1_18_concat1_18_0_split -> concat1_18_concat1_18_0_split_1
I0122 11:44:34.703308 22077 net.cpp:122] Setting up concat1_18_concat1_18_0_split
I0122 11:44:34.703315 22077 net.cpp:129] Top shape: 1 1120 23 24 (618240)
I0122 11:44:34.703317 22077 net.cpp:129] Top shape: 1 1120 23 24 (618240)
I0122 11:44:34.703320 22077 net.cpp:137] Memory required for data: 444837344
I0122 11:44:34.703321 22077 layer_factory.hpp:77] Creating layer conv1_19/bn
I0122 11:44:34.703327 22077 net.cpp:84] Creating Layer conv1_19/bn
I0122 11:44:34.703330 22077 net.cpp:406] conv1_19/bn <- concat1_18_concat1_18_0_split_0
I0122 11:44:34.703335 22077 net.cpp:380] conv1_19/bn -> conv1_19/bn
I0122 11:44:34.703754 22077 net.cpp:122] Setting up conv1_19/bn
I0122 11:44:34.703763 22077 net.cpp:129] Top shape: 1 1120 23 24 (618240)
I0122 11:44:34.703764 22077 net.cpp:137] Memory required for data: 447310304
I0122 11:44:34.703770 22077 layer_factory.hpp:77] Creating layer conv1_19/scale
I0122 11:44:34.703776 22077 net.cpp:84] Creating Layer conv1_19/scale
I0122 11:44:34.703779 22077 net.cpp:406] conv1_19/scale <- conv1_19/bn
I0122 11:44:34.703784 22077 net.cpp:367] conv1_19/scale -> conv1_19/bn (in-place)
I0122 11:44:34.703855 22077 layer_factory.hpp:77] Creating layer conv1_19/scale
I0122 11:44:34.704111 22077 net.cpp:122] Setting up conv1_19/scale
I0122 11:44:34.704118 22077 net.cpp:129] Top shape: 1 1120 23 24 (618240)
I0122 11:44:34.704120 22077 net.cpp:137] Memory required for data: 449783264
I0122 11:44:34.704125 22077 layer_factory.hpp:77] Creating layer relu1_19
I0122 11:44:34.704129 22077 net.cpp:84] Creating Layer relu1_19
I0122 11:44:34.704133 22077 net.cpp:406] relu1_19 <- conv1_19/bn
I0122 11:44:34.704135 22077 net.cpp:367] relu1_19 -> conv1_19/bn (in-place)
I0122 11:44:34.704563 22077 net.cpp:122] Setting up relu1_19
I0122 11:44:34.704573 22077 net.cpp:129] Top shape: 1 1120 23 24 (618240)
I0122 11:44:34.704576 22077 net.cpp:137] Memory required for data: 452256224
I0122 11:44:34.704578 22077 layer_factory.hpp:77] Creating layer conv1_19
I0122 11:44:34.704587 22077 net.cpp:84] Creating Layer conv1_19
I0122 11:44:34.704591 22077 net.cpp:406] conv1_19 <- conv1_19/bn
I0122 11:44:34.704596 22077 net.cpp:380] conv1_19 -> conv1_19
I0122 11:44:34.717905 22077 net.cpp:122] Setting up conv1_19
I0122 11:44:34.717924 22077 net.cpp:129] Top shape: 1 32 23 24 (17664)
I0122 11:44:34.717928 22077 net.cpp:137] Memory required for data: 452326880
I0122 11:44:34.717936 22077 layer_factory.hpp:77] Creating layer concat1_19
I0122 11:44:34.717945 22077 net.cpp:84] Creating Layer concat1_19
I0122 11:44:34.717950 22077 net.cpp:406] concat1_19 <- concat1_18_concat1_18_0_split_1
I0122 11:44:34.717957 22077 net.cpp:406] concat1_19 <- conv1_19
I0122 11:44:34.717965 22077 net.cpp:380] concat1_19 -> concat1_19
I0122 11:44:34.718025 22077 net.cpp:122] Setting up concat1_19
I0122 11:44:34.718034 22077 net.cpp:129] Top shape: 1 1152 23 24 (635904)
I0122 11:44:34.718039 22077 net.cpp:137] Memory required for data: 454870496
I0122 11:44:34.718042 22077 layer_factory.hpp:77] Creating layer concat1_19_concat1_19_0_split
I0122 11:44:34.718050 22077 net.cpp:84] Creating Layer concat1_19_concat1_19_0_split
I0122 11:44:34.718055 22077 net.cpp:406] concat1_19_concat1_19_0_split <- concat1_19
I0122 11:44:34.718060 22077 net.cpp:380] concat1_19_concat1_19_0_split -> concat1_19_concat1_19_0_split_0
I0122 11:44:34.718068 22077 net.cpp:380] concat1_19_concat1_19_0_split -> concat1_19_concat1_19_0_split_1
I0122 11:44:34.718153 22077 net.cpp:122] Setting up concat1_19_concat1_19_0_split
I0122 11:44:34.718161 22077 net.cpp:129] Top shape: 1 1152 23 24 (635904)
I0122 11:44:34.718168 22077 net.cpp:129] Top shape: 1 1152 23 24 (635904)
I0122 11:44:34.718170 22077 net.cpp:137] Memory required for data: 459957728
I0122 11:44:34.718174 22077 layer_factory.hpp:77] Creating layer conv1_20/bn
I0122 11:44:34.718183 22077 net.cpp:84] Creating Layer conv1_20/bn
I0122 11:44:34.718191 22077 net.cpp:406] conv1_20/bn <- concat1_19_concat1_19_0_split_0
I0122 11:44:34.718199 22077 net.cpp:380] conv1_20/bn -> conv1_20/bn
I0122 11:44:34.718781 22077 net.cpp:122] Setting up conv1_20/bn
I0122 11:44:34.718792 22077 net.cpp:129] Top shape: 1 1152 23 24 (635904)
I0122 11:44:34.718796 22077 net.cpp:137] Memory required for data: 462501344
I0122 11:44:34.718806 22077 layer_factory.hpp:77] Creating layer conv1_20/scale
I0122 11:44:34.718813 22077 net.cpp:84] Creating Layer conv1_20/scale
I0122 11:44:34.718818 22077 net.cpp:406] conv1_20/scale <- conv1_20/bn
I0122 11:44:34.718825 22077 net.cpp:367] conv1_20/scale -> conv1_20/bn (in-place)
I0122 11:44:34.718909 22077 layer_factory.hpp:77] Creating layer conv1_20/scale
I0122 11:44:34.719252 22077 net.cpp:122] Setting up conv1_20/scale
I0122 11:44:34.719261 22077 net.cpp:129] Top shape: 1 1152 23 24 (635904)
I0122 11:44:34.719265 22077 net.cpp:137] Memory required for data: 465044960
I0122 11:44:34.719272 22077 layer_factory.hpp:77] Creating layer relu1_20
I0122 11:44:34.719280 22077 net.cpp:84] Creating Layer relu1_20
I0122 11:44:34.719283 22077 net.cpp:406] relu1_20 <- conv1_20/bn
I0122 11:44:34.719288 22077 net.cpp:367] relu1_20 -> conv1_20/bn (in-place)
I0122 11:44:34.719614 22077 net.cpp:122] Setting up relu1_20
I0122 11:44:34.719629 22077 net.cpp:129] Top shape: 1 1152 23 24 (635904)
I0122 11:44:34.719633 22077 net.cpp:137] Memory required for data: 467588576
I0122 11:44:34.719638 22077 layer_factory.hpp:77] Creating layer conv1_20
I0122 11:44:34.719652 22077 net.cpp:84] Creating Layer conv1_20
I0122 11:44:34.719660 22077 net.cpp:406] conv1_20 <- conv1_20/bn
I0122 11:44:34.719668 22077 net.cpp:380] conv1_20 -> conv1_20
I0122 11:44:34.735112 22077 net.cpp:122] Setting up conv1_20
I0122 11:44:34.735141 22077 net.cpp:129] Top shape: 1 32 23 24 (17664)
I0122 11:44:34.735146 22077 net.cpp:137] Memory required for data: 467659232
I0122 11:44:34.735154 22077 layer_factory.hpp:77] Creating layer concat1_20
I0122 11:44:34.735167 22077 net.cpp:84] Creating Layer concat1_20
I0122 11:44:34.735174 22077 net.cpp:406] concat1_20 <- concat1_19_concat1_19_0_split_1
I0122 11:44:34.735182 22077 net.cpp:406] concat1_20 <- conv1_20
I0122 11:44:34.735188 22077 net.cpp:380] concat1_20 -> concat1_20
I0122 11:44:34.735255 22077 net.cpp:122] Setting up concat1_20
I0122 11:44:34.735265 22077 net.cpp:129] Top shape: 1 1184 23 24 (653568)
I0122 11:44:34.735270 22077 net.cpp:137] Memory required for data: 470273504
I0122 11:44:34.735275 22077 layer_factory.hpp:77] Creating layer concat1_20_concat1_20_0_split
I0122 11:44:34.735282 22077 net.cpp:84] Creating Layer concat1_20_concat1_20_0_split
I0122 11:44:34.735288 22077 net.cpp:406] concat1_20_concat1_20_0_split <- concat1_20
I0122 11:44:34.735298 22077 net.cpp:380] concat1_20_concat1_20_0_split -> concat1_20_concat1_20_0_split_0
I0122 11:44:34.735307 22077 net.cpp:380] concat1_20_concat1_20_0_split -> concat1_20_concat1_20_0_split_1
I0122 11:44:34.735410 22077 net.cpp:122] Setting up concat1_20_concat1_20_0_split
I0122 11:44:34.735422 22077 net.cpp:129] Top shape: 1 1184 23 24 (653568)
I0122 11:44:34.735430 22077 net.cpp:129] Top shape: 1 1184 23 24 (653568)
I0122 11:44:34.735433 22077 net.cpp:137] Memory required for data: 475502048
I0122 11:44:34.735438 22077 layer_factory.hpp:77] Creating layer conv1_21/bn
I0122 11:44:34.735447 22077 net.cpp:84] Creating Layer conv1_21/bn
I0122 11:44:34.735452 22077 net.cpp:406] conv1_21/bn <- concat1_20_concat1_20_0_split_0
I0122 11:44:34.735462 22077 net.cpp:380] conv1_21/bn -> conv1_21/bn
I0122 11:44:34.736193 22077 net.cpp:122] Setting up conv1_21/bn
I0122 11:44:34.736207 22077 net.cpp:129] Top shape: 1 1184 23 24 (653568)
I0122 11:44:34.736213 22077 net.cpp:137] Memory required for data: 478116320
I0122 11:44:34.736243 22077 layer_factory.hpp:77] Creating layer conv1_21/scale
I0122 11:44:34.736253 22077 net.cpp:84] Creating Layer conv1_21/scale
I0122 11:44:34.736258 22077 net.cpp:406] conv1_21/scale <- conv1_21/bn
I0122 11:44:34.736264 22077 net.cpp:367] conv1_21/scale -> conv1_21/bn (in-place)
I0122 11:44:34.736382 22077 layer_factory.hpp:77] Creating layer conv1_21/scale
I0122 11:44:34.736836 22077 net.cpp:122] Setting up conv1_21/scale
I0122 11:44:34.736848 22077 net.cpp:129] Top shape: 1 1184 23 24 (653568)
I0122 11:44:34.736852 22077 net.cpp:137] Memory required for data: 480730592
I0122 11:44:34.736860 22077 layer_factory.hpp:77] Creating layer relu1_21
I0122 11:44:34.736868 22077 net.cpp:84] Creating Layer relu1_21
I0122 11:44:34.736873 22077 net.cpp:406] relu1_21 <- conv1_21/bn
I0122 11:44:34.736878 22077 net.cpp:367] relu1_21 -> conv1_21/bn (in-place)
I0122 11:44:34.737485 22077 net.cpp:122] Setting up relu1_21
I0122 11:44:34.737499 22077 net.cpp:129] Top shape: 1 1184 23 24 (653568)
I0122 11:44:34.737504 22077 net.cpp:137] Memory required for data: 483344864
I0122 11:44:34.737509 22077 layer_factory.hpp:77] Creating layer conv1_21
I0122 11:44:34.737521 22077 net.cpp:84] Creating Layer conv1_21
I0122 11:44:34.737526 22077 net.cpp:406] conv1_21 <- conv1_21/bn
I0122 11:44:34.737534 22077 net.cpp:380] conv1_21 -> conv1_21
I0122 11:44:34.753192 22077 net.cpp:122] Setting up conv1_21
I0122 11:44:34.753216 22077 net.cpp:129] Top shape: 1 32 23 24 (17664)
I0122 11:44:34.753221 22077 net.cpp:137] Memory required for data: 483415520
I0122 11:44:34.753229 22077 layer_factory.hpp:77] Creating layer concat1_21
I0122 11:44:34.753238 22077 net.cpp:84] Creating Layer concat1_21
I0122 11:44:34.753244 22077 net.cpp:406] concat1_21 <- concat1_20_concat1_20_0_split_1
I0122 11:44:34.753252 22077 net.cpp:406] concat1_21 <- conv1_21
I0122 11:44:34.753259 22077 net.cpp:380] concat1_21 -> concat1_21
I0122 11:44:34.753321 22077 net.cpp:122] Setting up concat1_21
I0122 11:44:34.753332 22077 net.cpp:129] Top shape: 1 1216 23 24 (671232)
I0122 11:44:34.753337 22077 net.cpp:137] Memory required for data: 486100448
I0122 11:44:34.753342 22077 layer_factory.hpp:77] Creating layer concat1_21_concat1_21_0_split
I0122 11:44:34.753350 22077 net.cpp:84] Creating Layer concat1_21_concat1_21_0_split
I0122 11:44:34.753353 22077 net.cpp:406] concat1_21_concat1_21_0_split <- concat1_21
I0122 11:44:34.753361 22077 net.cpp:380] concat1_21_concat1_21_0_split -> concat1_21_concat1_21_0_split_0
I0122 11:44:34.753370 22077 net.cpp:380] concat1_21_concat1_21_0_split -> concat1_21_concat1_21_0_split_1
I0122 11:44:34.753470 22077 net.cpp:122] Setting up concat1_21_concat1_21_0_split
I0122 11:44:34.753480 22077 net.cpp:129] Top shape: 1 1216 23 24 (671232)
I0122 11:44:34.753486 22077 net.cpp:129] Top shape: 1 1216 23 24 (671232)
I0122 11:44:34.753490 22077 net.cpp:137] Memory required for data: 491470304
I0122 11:44:34.753494 22077 layer_factory.hpp:77] Creating layer conv1_22/bn
I0122 11:44:34.753504 22077 net.cpp:84] Creating Layer conv1_22/bn
I0122 11:44:34.753509 22077 net.cpp:406] conv1_22/bn <- concat1_21_concat1_21_0_split_0
I0122 11:44:34.753516 22077 net.cpp:380] conv1_22/bn -> conv1_22/bn
I0122 11:44:34.754220 22077 net.cpp:122] Setting up conv1_22/bn
I0122 11:44:34.754235 22077 net.cpp:129] Top shape: 1 1216 23 24 (671232)
I0122 11:44:34.754240 22077 net.cpp:137] Memory required for data: 494155232
I0122 11:44:34.754250 22077 layer_factory.hpp:77] Creating layer conv1_22/scale
I0122 11:44:34.754259 22077 net.cpp:84] Creating Layer conv1_22/scale
I0122 11:44:34.754266 22077 net.cpp:406] conv1_22/scale <- conv1_22/bn
I0122 11:44:34.754271 22077 net.cpp:367] conv1_22/scale -> conv1_22/bn (in-place)
I0122 11:44:34.754371 22077 layer_factory.hpp:77] Creating layer conv1_22/scale
I0122 11:44:34.754766 22077 net.cpp:122] Setting up conv1_22/scale
I0122 11:44:34.754779 22077 net.cpp:129] Top shape: 1 1216 23 24 (671232)
I0122 11:44:34.754783 22077 net.cpp:137] Memory required for data: 496840160
I0122 11:44:34.754791 22077 layer_factory.hpp:77] Creating layer relu1_22
I0122 11:44:34.754798 22077 net.cpp:84] Creating Layer relu1_22
I0122 11:44:34.754803 22077 net.cpp:406] relu1_22 <- conv1_22/bn
I0122 11:44:34.754809 22077 net.cpp:367] relu1_22 -> conv1_22/bn (in-place)
I0122 11:44:34.755470 22077 net.cpp:122] Setting up relu1_22
I0122 11:44:34.755499 22077 net.cpp:129] Top shape: 1 1216 23 24 (671232)
I0122 11:44:34.755506 22077 net.cpp:137] Memory required for data: 499525088
I0122 11:44:34.755511 22077 layer_factory.hpp:77] Creating layer conv1_22
I0122 11:44:34.755527 22077 net.cpp:84] Creating Layer conv1_22
I0122 11:44:34.755533 22077 net.cpp:406] conv1_22 <- conv1_22/bn
I0122 11:44:34.755542 22077 net.cpp:380] conv1_22 -> conv1_22
I0122 11:44:34.771864 22077 net.cpp:122] Setting up conv1_22
I0122 11:44:34.771893 22077 net.cpp:129] Top shape: 1 32 23 24 (17664)
I0122 11:44:34.771896 22077 net.cpp:137] Memory required for data: 499595744
I0122 11:44:34.771905 22077 layer_factory.hpp:77] Creating layer concat1_22
I0122 11:44:34.771916 22077 net.cpp:84] Creating Layer concat1_22
I0122 11:44:34.771922 22077 net.cpp:406] concat1_22 <- concat1_21_concat1_21_0_split_1
I0122 11:44:34.771930 22077 net.cpp:406] concat1_22 <- conv1_22
I0122 11:44:34.771939 22077 net.cpp:380] concat1_22 -> concat1_22
I0122 11:44:34.772001 22077 net.cpp:122] Setting up concat1_22
I0122 11:44:34.772011 22077 net.cpp:129] Top shape: 1 1248 23 24 (688896)
I0122 11:44:34.772014 22077 net.cpp:137] Memory required for data: 502351328
I0122 11:44:34.772018 22077 layer_factory.hpp:77] Creating layer concat1_22_concat1_22_0_split
I0122 11:44:34.772024 22077 net.cpp:84] Creating Layer concat1_22_concat1_22_0_split
I0122 11:44:34.772029 22077 net.cpp:406] concat1_22_concat1_22_0_split <- concat1_22
I0122 11:44:34.772037 22077 net.cpp:380] concat1_22_concat1_22_0_split -> concat1_22_concat1_22_0_split_0
I0122 11:44:34.772044 22077 net.cpp:380] concat1_22_concat1_22_0_split -> concat1_22_concat1_22_0_split_1
I0122 11:44:34.772133 22077 net.cpp:122] Setting up concat1_22_concat1_22_0_split
I0122 11:44:34.772141 22077 net.cpp:129] Top shape: 1 1248 23 24 (688896)
I0122 11:44:34.772146 22077 net.cpp:129] Top shape: 1 1248 23 24 (688896)
I0122 11:44:34.772150 22077 net.cpp:137] Memory required for data: 507862496
I0122 11:44:34.772155 22077 layer_factory.hpp:77] Creating layer conv1_23/bn
I0122 11:44:34.772162 22077 net.cpp:84] Creating Layer conv1_23/bn
I0122 11:44:34.772167 22077 net.cpp:406] conv1_23/bn <- concat1_22_concat1_22_0_split_0
I0122 11:44:34.772173 22077 net.cpp:380] conv1_23/bn -> conv1_23/bn
I0122 11:44:34.772826 22077 net.cpp:122] Setting up conv1_23/bn
I0122 11:44:34.772835 22077 net.cpp:129] Top shape: 1 1248 23 24 (688896)
I0122 11:44:34.772840 22077 net.cpp:137] Memory required for data: 510618080
I0122 11:44:34.772848 22077 layer_factory.hpp:77] Creating layer conv1_23/scale
I0122 11:44:34.772858 22077 net.cpp:84] Creating Layer conv1_23/scale
I0122 11:44:34.772863 22077 net.cpp:406] conv1_23/scale <- conv1_23/bn
I0122 11:44:34.772869 22077 net.cpp:367] conv1_23/scale -> conv1_23/bn (in-place)
I0122 11:44:34.772966 22077 layer_factory.hpp:77] Creating layer conv1_23/scale
I0122 11:44:34.773339 22077 net.cpp:122] Setting up conv1_23/scale
I0122 11:44:34.773350 22077 net.cpp:129] Top shape: 1 1248 23 24 (688896)
I0122 11:44:34.773353 22077 net.cpp:137] Memory required for data: 513373664
I0122 11:44:34.773360 22077 layer_factory.hpp:77] Creating layer relu1_23
I0122 11:44:34.773367 22077 net.cpp:84] Creating Layer relu1_23
I0122 11:44:34.773372 22077 net.cpp:406] relu1_23 <- conv1_23/bn
I0122 11:44:34.773377 22077 net.cpp:367] relu1_23 -> conv1_23/bn (in-place)
I0122 11:44:34.773696 22077 net.cpp:122] Setting up relu1_23
I0122 11:44:34.773706 22077 net.cpp:129] Top shape: 1 1248 23 24 (688896)
I0122 11:44:34.773710 22077 net.cpp:137] Memory required for data: 516129248
I0122 11:44:34.773715 22077 layer_factory.hpp:77] Creating layer conv1_23
I0122 11:44:34.773726 22077 net.cpp:84] Creating Layer conv1_23
I0122 11:44:34.773731 22077 net.cpp:406] conv1_23 <- conv1_23/bn
I0122 11:44:34.773738 22077 net.cpp:380] conv1_23 -> conv1_23
I0122 11:44:34.790323 22077 net.cpp:122] Setting up conv1_23
I0122 11:44:34.790355 22077 net.cpp:129] Top shape: 1 32 23 24 (17664)
I0122 11:44:34.790360 22077 net.cpp:137] Memory required for data: 516199904
I0122 11:44:34.790376 22077 layer_factory.hpp:77] Creating layer concat1_23
I0122 11:44:34.790388 22077 net.cpp:84] Creating Layer concat1_23
I0122 11:44:34.790396 22077 net.cpp:406] concat1_23 <- concat1_22_concat1_22_0_split_1
I0122 11:44:34.790406 22077 net.cpp:406] concat1_23 <- conv1_23
I0122 11:44:34.790416 22077 net.cpp:380] concat1_23 -> concat1_23
I0122 11:44:34.790484 22077 net.cpp:122] Setting up concat1_23
I0122 11:44:34.790496 22077 net.cpp:129] Top shape: 1 1280 23 24 (706560)
I0122 11:44:34.790500 22077 net.cpp:137] Memory required for data: 519026144
I0122 11:44:34.790505 22077 layer_factory.hpp:77] Creating layer concat1_23_concat1_23_0_split
I0122 11:44:34.790513 22077 net.cpp:84] Creating Layer concat1_23_concat1_23_0_split
I0122 11:44:34.790518 22077 net.cpp:406] concat1_23_concat1_23_0_split <- concat1_23
I0122 11:44:34.790527 22077 net.cpp:380] concat1_23_concat1_23_0_split -> concat1_23_concat1_23_0_split_0
I0122 11:44:34.790537 22077 net.cpp:380] concat1_23_concat1_23_0_split -> concat1_23_concat1_23_0_split_1
I0122 11:44:34.790644 22077 net.cpp:122] Setting up concat1_23_concat1_23_0_split
I0122 11:44:34.790657 22077 net.cpp:129] Top shape: 1 1280 23 24 (706560)
I0122 11:44:34.790663 22077 net.cpp:129] Top shape: 1 1280 23 24 (706560)
I0122 11:44:34.790668 22077 net.cpp:137] Memory required for data: 524678624
I0122 11:44:34.790671 22077 layer_factory.hpp:77] Creating layer conv1_24/bn
I0122 11:44:34.790683 22077 net.cpp:84] Creating Layer conv1_24/bn
I0122 11:44:34.790688 22077 net.cpp:406] conv1_24/bn <- concat1_23_concat1_23_0_split_0
I0122 11:44:34.790696 22077 net.cpp:380] conv1_24/bn -> conv1_24/bn
I0122 11:44:34.791455 22077 net.cpp:122] Setting up conv1_24/bn
I0122 11:44:34.791467 22077 net.cpp:129] Top shape: 1 1280 23 24 (706560)
I0122 11:44:34.791473 22077 net.cpp:137] Memory required for data: 527504864
I0122 11:44:34.791483 22077 layer_factory.hpp:77] Creating layer conv1_24/scale
I0122 11:44:34.791496 22077 net.cpp:84] Creating Layer conv1_24/scale
I0122 11:44:34.791502 22077 net.cpp:406] conv1_24/scale <- conv1_24/bn
I0122 11:44:34.791510 22077 net.cpp:367] conv1_24/scale -> conv1_24/bn (in-place)
I0122 11:44:34.791615 22077 layer_factory.hpp:77] Creating layer conv1_24/scale
I0122 11:44:34.792049 22077 net.cpp:122] Setting up conv1_24/scale
I0122 11:44:34.792063 22077 net.cpp:129] Top shape: 1 1280 23 24 (706560)
I0122 11:44:34.792068 22077 net.cpp:137] Memory required for data: 530331104
I0122 11:44:34.792078 22077 layer_factory.hpp:77] Creating layer relu1_24
I0122 11:44:34.792085 22077 net.cpp:84] Creating Layer relu1_24
I0122 11:44:34.792091 22077 net.cpp:406] relu1_24 <- conv1_24/bn
I0122 11:44:34.792100 22077 net.cpp:367] relu1_24 -> conv1_24/bn (in-place)
I0122 11:44:34.792714 22077 net.cpp:122] Setting up relu1_24
I0122 11:44:34.792729 22077 net.cpp:129] Top shape: 1 1280 23 24 (706560)
I0122 11:44:34.792735 22077 net.cpp:137] Memory required for data: 533157344
I0122 11:44:34.792740 22077 layer_factory.hpp:77] Creating layer conv1_24
I0122 11:44:34.792757 22077 net.cpp:84] Creating Layer conv1_24
I0122 11:44:34.792762 22077 net.cpp:406] conv1_24 <- conv1_24/bn
I0122 11:44:34.792773 22077 net.cpp:380] conv1_24 -> conv1_24
I0122 11:44:34.809855 22077 net.cpp:122] Setting up conv1_24
I0122 11:44:34.809891 22077 net.cpp:129] Top shape: 1 32 23 24 (17664)
I0122 11:44:34.809895 22077 net.cpp:137] Memory required for data: 533228000
I0122 11:44:34.809906 22077 layer_factory.hpp:77] Creating layer concat1_24
I0122 11:44:34.809917 22077 net.cpp:84] Creating Layer concat1_24
I0122 11:44:34.809926 22077 net.cpp:406] concat1_24 <- concat1_23_concat1_23_0_split_1
I0122 11:44:34.809936 22077 net.cpp:406] concat1_24 <- conv1_24
I0122 11:44:34.809942 22077 net.cpp:380] concat1_24 -> concat1_24
I0122 11:44:34.810005 22077 net.cpp:122] Setting up concat1_24
I0122 11:44:34.810014 22077 net.cpp:129] Top shape: 1 1312 23 24 (724224)
I0122 11:44:34.810019 22077 net.cpp:137] Memory required for data: 536124896
I0122 11:44:34.810022 22077 layer_factory.hpp:77] Creating layer concat1_24_concat1_24_0_split
I0122 11:44:34.810034 22077 net.cpp:84] Creating Layer concat1_24_concat1_24_0_split
I0122 11:44:34.810039 22077 net.cpp:406] concat1_24_concat1_24_0_split <- concat1_24
I0122 11:44:34.810045 22077 net.cpp:380] concat1_24_concat1_24_0_split -> concat1_24_concat1_24_0_split_0
I0122 11:44:34.810053 22077 net.cpp:380] concat1_24_concat1_24_0_split -> concat1_24_concat1_24_0_split_1
I0122 11:44:34.810142 22077 net.cpp:122] Setting up concat1_24_concat1_24_0_split
I0122 11:44:34.810150 22077 net.cpp:129] Top shape: 1 1312 23 24 (724224)
I0122 11:44:34.810155 22077 net.cpp:129] Top shape: 1 1312 23 24 (724224)
I0122 11:44:34.810159 22077 net.cpp:137] Memory required for data: 541918688
I0122 11:44:34.810163 22077 layer_factory.hpp:77] Creating layer conv1_25/bn
I0122 11:44:34.810171 22077 net.cpp:84] Creating Layer conv1_25/bn
I0122 11:44:34.810176 22077 net.cpp:406] conv1_25/bn <- concat1_24_concat1_24_0_split_0
I0122 11:44:34.810183 22077 net.cpp:380] conv1_25/bn -> conv1_25/bn
I0122 11:44:34.810839 22077 net.cpp:122] Setting up conv1_25/bn
I0122 11:44:34.810848 22077 net.cpp:129] Top shape: 1 1312 23 24 (724224)
I0122 11:44:34.810853 22077 net.cpp:137] Memory required for data: 544815584
I0122 11:44:34.810863 22077 layer_factory.hpp:77] Creating layer conv1_25/scale
I0122 11:44:34.810871 22077 net.cpp:84] Creating Layer conv1_25/scale
I0122 11:44:34.810876 22077 net.cpp:406] conv1_25/scale <- conv1_25/bn
I0122 11:44:34.810883 22077 net.cpp:367] conv1_25/scale -> conv1_25/bn (in-place)
I0122 11:44:34.810984 22077 layer_factory.hpp:77] Creating layer conv1_25/scale
I0122 11:44:34.811362 22077 net.cpp:122] Setting up conv1_25/scale
I0122 11:44:34.811372 22077 net.cpp:129] Top shape: 1 1312 23 24 (724224)
I0122 11:44:34.811375 22077 net.cpp:137] Memory required for data: 547712480
I0122 11:44:34.811398 22077 layer_factory.hpp:77] Creating layer relu1_25
I0122 11:44:34.811405 22077 net.cpp:84] Creating Layer relu1_25
I0122 11:44:34.811410 22077 net.cpp:406] relu1_25 <- conv1_25/bn
I0122 11:44:34.811415 22077 net.cpp:367] relu1_25 -> conv1_25/bn (in-place)
I0122 11:44:34.811739 22077 net.cpp:122] Setting up relu1_25
I0122 11:44:34.811754 22077 net.cpp:129] Top shape: 1 1312 23 24 (724224)
I0122 11:44:34.811758 22077 net.cpp:137] Memory required for data: 550609376
I0122 11:44:34.811764 22077 layer_factory.hpp:77] Creating layer conv1_25
I0122 11:44:34.811789 22077 net.cpp:84] Creating Layer conv1_25
I0122 11:44:34.811794 22077 net.cpp:406] conv1_25 <- conv1_25/bn
I0122 11:44:34.811801 22077 net.cpp:380] conv1_25 -> conv1_25
I0122 11:44:34.827586 22077 net.cpp:122] Setting up conv1_25
I0122 11:44:34.827613 22077 net.cpp:129] Top shape: 1 32 23 24 (17664)
I0122 11:44:34.827616 22077 net.cpp:137] Memory required for data: 550680032
I0122 11:44:34.827625 22077 layer_factory.hpp:77] Creating layer concat1_25
I0122 11:44:34.827636 22077 net.cpp:84] Creating Layer concat1_25
I0122 11:44:34.827641 22077 net.cpp:406] concat1_25 <- concat1_24_concat1_24_0_split_1
I0122 11:44:34.827646 22077 net.cpp:406] concat1_25 <- conv1_25
I0122 11:44:34.827651 22077 net.cpp:380] concat1_25 -> concat1_25
I0122 11:44:34.827700 22077 net.cpp:122] Setting up concat1_25
I0122 11:44:34.827706 22077 net.cpp:129] Top shape: 1 1344 23 24 (741888)
I0122 11:44:34.827709 22077 net.cpp:137] Memory required for data: 553647584
I0122 11:44:34.827711 22077 layer_factory.hpp:77] Creating layer concat1_25_concat1_25_0_split
I0122 11:44:34.827718 22077 net.cpp:84] Creating Layer concat1_25_concat1_25_0_split
I0122 11:44:34.827720 22077 net.cpp:406] concat1_25_concat1_25_0_split <- concat1_25
I0122 11:44:34.827724 22077 net.cpp:380] concat1_25_concat1_25_0_split -> concat1_25_concat1_25_0_split_0
I0122 11:44:34.827729 22077 net.cpp:380] concat1_25_concat1_25_0_split -> concat1_25_concat1_25_0_split_1
I0122 11:44:34.827806 22077 net.cpp:122] Setting up concat1_25_concat1_25_0_split
I0122 11:44:34.827813 22077 net.cpp:129] Top shape: 1 1344 23 24 (741888)
I0122 11:44:34.827816 22077 net.cpp:129] Top shape: 1 1344 23 24 (741888)
I0122 11:44:34.827818 22077 net.cpp:137] Memory required for data: 559582688
I0122 11:44:34.827823 22077 layer_factory.hpp:77] Creating layer conv1_26/bn
I0122 11:44:34.827831 22077 net.cpp:84] Creating Layer conv1_26/bn
I0122 11:44:34.827833 22077 net.cpp:406] conv1_26/bn <- concat1_25_concat1_25_0_split_0
I0122 11:44:34.827838 22077 net.cpp:380] conv1_26/bn -> conv1_26/bn
I0122 11:44:34.828320 22077 net.cpp:122] Setting up conv1_26/bn
I0122 11:44:34.828325 22077 net.cpp:129] Top shape: 1 1344 23 24 (741888)
I0122 11:44:34.828328 22077 net.cpp:137] Memory required for data: 562550240
I0122 11:44:34.828335 22077 layer_factory.hpp:77] Creating layer conv1_26/scale
I0122 11:44:34.828341 22077 net.cpp:84] Creating Layer conv1_26/scale
I0122 11:44:34.828344 22077 net.cpp:406] conv1_26/scale <- conv1_26/bn
I0122 11:44:34.828348 22077 net.cpp:367] conv1_26/scale -> conv1_26/bn (in-place)
I0122 11:44:34.828423 22077 layer_factory.hpp:77] Creating layer conv1_26/scale
I0122 11:44:34.828706 22077 net.cpp:122] Setting up conv1_26/scale
I0122 11:44:34.828712 22077 net.cpp:129] Top shape: 1 1344 23 24 (741888)
I0122 11:44:34.828714 22077 net.cpp:137] Memory required for data: 565517792
I0122 11:44:34.828719 22077 layer_factory.hpp:77] Creating layer relu1_26
I0122 11:44:34.828724 22077 net.cpp:84] Creating Layer relu1_26
I0122 11:44:34.828727 22077 net.cpp:406] relu1_26 <- conv1_26/bn
I0122 11:44:34.828732 22077 net.cpp:367] relu1_26 -> conv1_26/bn (in-place)
I0122 11:44:34.829154 22077 net.cpp:122] Setting up relu1_26
I0122 11:44:34.829164 22077 net.cpp:129] Top shape: 1 1344 23 24 (741888)
I0122 11:44:34.829165 22077 net.cpp:137] Memory required for data: 568485344
I0122 11:44:34.829169 22077 layer_factory.hpp:77] Creating layer conv1_26
I0122 11:44:34.829177 22077 net.cpp:84] Creating Layer conv1_26
I0122 11:44:34.829180 22077 net.cpp:406] conv1_26 <- conv1_26/bn
I0122 11:44:34.829186 22077 net.cpp:380] conv1_26 -> conv1_26
I0122 11:44:34.840971 22077 net.cpp:122] Setting up conv1_26
I0122 11:44:34.840988 22077 net.cpp:129] Top shape: 1 32 23 24 (17664)
I0122 11:44:34.840993 22077 net.cpp:137] Memory required for data: 568556000
I0122 11:44:34.841001 22077 layer_factory.hpp:77] Creating layer concat1_26
I0122 11:44:34.841009 22077 net.cpp:84] Creating Layer concat1_26
I0122 11:44:34.841014 22077 net.cpp:406] concat1_26 <- concat1_25_concat1_25_0_split_1
I0122 11:44:34.841020 22077 net.cpp:406] concat1_26 <- conv1_26
I0122 11:44:34.841028 22077 net.cpp:380] concat1_26 -> concat1_26
I0122 11:44:34.841087 22077 net.cpp:122] Setting up concat1_26
I0122 11:44:34.841096 22077 net.cpp:129] Top shape: 1 1376 23 24 (759552)
I0122 11:44:34.841099 22077 net.cpp:137] Memory required for data: 571594208
I0122 11:44:34.841104 22077 layer_factory.hpp:77] Creating layer concat1_26_concat1_26_0_split
I0122 11:44:34.841111 22077 net.cpp:84] Creating Layer concat1_26_concat1_26_0_split
I0122 11:44:34.841116 22077 net.cpp:406] concat1_26_concat1_26_0_split <- concat1_26
I0122 11:44:34.841122 22077 net.cpp:380] concat1_26_concat1_26_0_split -> concat1_26_concat1_26_0_split_0
I0122 11:44:34.841130 22077 net.cpp:380] concat1_26_concat1_26_0_split -> concat1_26_concat1_26_0_split_1
I0122 11:44:34.841217 22077 net.cpp:122] Setting up concat1_26_concat1_26_0_split
I0122 11:44:34.841224 22077 net.cpp:129] Top shape: 1 1376 23 24 (759552)
I0122 11:44:34.841229 22077 net.cpp:129] Top shape: 1 1376 23 24 (759552)
I0122 11:44:34.841233 22077 net.cpp:137] Memory required for data: 577670624
I0122 11:44:34.841238 22077 layer_factory.hpp:77] Creating layer conv1_27/bn
I0122 11:44:34.841245 22077 net.cpp:84] Creating Layer conv1_27/bn
I0122 11:44:34.841249 22077 net.cpp:406] conv1_27/bn <- concat1_26_concat1_26_0_split_0
I0122 11:44:34.841255 22077 net.cpp:380] conv1_27/bn -> conv1_27/bn
I0122 11:44:34.841859 22077 net.cpp:122] Setting up conv1_27/bn
I0122 11:44:34.841868 22077 net.cpp:129] Top shape: 1 1376 23 24 (759552)
I0122 11:44:34.841872 22077 net.cpp:137] Memory required for data: 580708832
I0122 11:44:34.841881 22077 layer_factory.hpp:77] Creating layer conv1_27/scale
I0122 11:44:34.841892 22077 net.cpp:84] Creating Layer conv1_27/scale
I0122 11:44:34.841899 22077 net.cpp:406] conv1_27/scale <- conv1_27/bn
I0122 11:44:34.841905 22077 net.cpp:367] conv1_27/scale -> conv1_27/bn (in-place)
I0122 11:44:34.842000 22077 layer_factory.hpp:77] Creating layer conv1_27/scale
I0122 11:44:34.842362 22077 net.cpp:122] Setting up conv1_27/scale
I0122 11:44:34.842371 22077 net.cpp:129] Top shape: 1 1376 23 24 (759552)
I0122 11:44:34.842375 22077 net.cpp:137] Memory required for data: 583747040
I0122 11:44:34.842382 22077 layer_factory.hpp:77] Creating layer relu1_27
I0122 11:44:34.842389 22077 net.cpp:84] Creating Layer relu1_27
I0122 11:44:34.842393 22077 net.cpp:406] relu1_27 <- conv1_27/bn
I0122 11:44:34.842398 22077 net.cpp:367] relu1_27 -> conv1_27/bn (in-place)
I0122 11:44:34.842943 22077 net.cpp:122] Setting up relu1_27
I0122 11:44:34.842957 22077 net.cpp:129] Top shape: 1 1376 23 24 (759552)
I0122 11:44:34.842960 22077 net.cpp:137] Memory required for data: 586785248
I0122 11:44:34.842964 22077 layer_factory.hpp:77] Creating layer conv1_27
I0122 11:44:34.842977 22077 net.cpp:84] Creating Layer conv1_27
I0122 11:44:34.842981 22077 net.cpp:406] conv1_27 <- conv1_27/bn
I0122 11:44:34.842989 22077 net.cpp:380] conv1_27 -> conv1_27
I0122 11:44:34.860863 22077 net.cpp:122] Setting up conv1_27
I0122 11:44:34.860893 22077 net.cpp:129] Top shape: 1 32 23 24 (17664)
I0122 11:44:34.860900 22077 net.cpp:137] Memory required for data: 586855904
I0122 11:44:34.860910 22077 layer_factory.hpp:77] Creating layer concat1_27
I0122 11:44:34.860921 22077 net.cpp:84] Creating Layer concat1_27
I0122 11:44:34.860929 22077 net.cpp:406] concat1_27 <- concat1_26_concat1_26_0_split_1
I0122 11:44:34.860936 22077 net.cpp:406] concat1_27 <- conv1_27
I0122 11:44:34.860942 22077 net.cpp:380] concat1_27 -> concat1_27
I0122 11:44:34.861011 22077 net.cpp:122] Setting up concat1_27
I0122 11:44:34.861023 22077 net.cpp:129] Top shape: 1 1408 23 24 (777216)
I0122 11:44:34.861027 22077 net.cpp:137] Memory required for data: 589964768
I0122 11:44:34.861032 22077 layer_factory.hpp:77] Creating layer concat1_27_concat1_27_0_split
I0122 11:44:34.861040 22077 net.cpp:84] Creating Layer concat1_27_concat1_27_0_split
I0122 11:44:34.861045 22077 net.cpp:406] concat1_27_concat1_27_0_split <- concat1_27
I0122 11:44:34.861054 22077 net.cpp:380] concat1_27_concat1_27_0_split -> concat1_27_concat1_27_0_split_0
I0122 11:44:34.861064 22077 net.cpp:380] concat1_27_concat1_27_0_split -> concat1_27_concat1_27_0_split_1
I0122 11:44:34.861174 22077 net.cpp:122] Setting up concat1_27_concat1_27_0_split
I0122 11:44:34.861187 22077 net.cpp:129] Top shape: 1 1408 23 24 (777216)
I0122 11:44:34.861194 22077 net.cpp:129] Top shape: 1 1408 23 24 (777216)
I0122 11:44:34.861198 22077 net.cpp:137] Memory required for data: 596182496
I0122 11:44:34.861203 22077 layer_factory.hpp:77] Creating layer conv1_28/bn
I0122 11:44:34.861212 22077 net.cpp:84] Creating Layer conv1_28/bn
I0122 11:44:34.861215 22077 net.cpp:406] conv1_28/bn <- concat1_27_concat1_27_0_split_0
I0122 11:44:34.861228 22077 net.cpp:380] conv1_28/bn -> conv1_28/bn
I0122 11:44:34.862026 22077 net.cpp:122] Setting up conv1_28/bn
I0122 11:44:34.862042 22077 net.cpp:129] Top shape: 1 1408 23 24 (777216)
I0122 11:44:34.862046 22077 net.cpp:137] Memory required for data: 599291360
I0122 11:44:34.862056 22077 layer_factory.hpp:77] Creating layer conv1_28/scale
I0122 11:44:34.862068 22077 net.cpp:84] Creating Layer conv1_28/scale
I0122 11:44:34.862073 22077 net.cpp:406] conv1_28/scale <- conv1_28/bn
I0122 11:44:34.862082 22077 net.cpp:367] conv1_28/scale -> conv1_28/bn (in-place)
I0122 11:44:34.862185 22077 layer_factory.hpp:77] Creating layer conv1_28/scale
I0122 11:44:34.862650 22077 net.cpp:122] Setting up conv1_28/scale
I0122 11:44:34.862663 22077 net.cpp:129] Top shape: 1 1408 23 24 (777216)
I0122 11:44:34.862669 22077 net.cpp:137] Memory required for data: 602400224
I0122 11:44:34.862679 22077 layer_factory.hpp:77] Creating layer relu1_28
I0122 11:44:34.862689 22077 net.cpp:84] Creating Layer relu1_28
I0122 11:44:34.862694 22077 net.cpp:406] relu1_28 <- conv1_28/bn
I0122 11:44:34.862707 22077 net.cpp:367] relu1_28 -> conv1_28/bn (in-place)
I0122 11:44:34.863059 22077 net.cpp:122] Setting up relu1_28
I0122 11:44:34.863070 22077 net.cpp:129] Top shape: 1 1408 23 24 (777216)
I0122 11:44:34.863075 22077 net.cpp:137] Memory required for data: 605509088
I0122 11:44:34.863078 22077 layer_factory.hpp:77] Creating layer conv1_28
I0122 11:44:34.863091 22077 net.cpp:84] Creating Layer conv1_28
I0122 11:44:34.863096 22077 net.cpp:406] conv1_28 <- conv1_28/bn
I0122 11:44:34.863104 22077 net.cpp:380] conv1_28 -> conv1_28
I0122 11:44:34.881677 22077 net.cpp:122] Setting up conv1_28
I0122 11:44:34.881716 22077 net.cpp:129] Top shape: 1 32 23 24 (17664)
I0122 11:44:34.881723 22077 net.cpp:137] Memory required for data: 605579744
I0122 11:44:34.881736 22077 layer_factory.hpp:77] Creating layer concat1_28
I0122 11:44:34.881752 22077 net.cpp:84] Creating Layer concat1_28
I0122 11:44:34.881760 22077 net.cpp:406] concat1_28 <- concat1_27_concat1_27_0_split_1
I0122 11:44:34.881770 22077 net.cpp:406] concat1_28 <- conv1_28
I0122 11:44:34.881779 22077 net.cpp:380] concat1_28 -> concat1_28
I0122 11:44:34.881863 22077 net.cpp:122] Setting up concat1_28
I0122 11:44:34.881880 22077 net.cpp:129] Top shape: 1 1440 23 24 (794880)
I0122 11:44:34.881884 22077 net.cpp:137] Memory required for data: 608759264
I0122 11:44:34.881889 22077 layer_factory.hpp:77] Creating layer concat1_28_concat1_28_0_split
I0122 11:44:34.881897 22077 net.cpp:84] Creating Layer concat1_28_concat1_28_0_split
I0122 11:44:34.881902 22077 net.cpp:406] concat1_28_concat1_28_0_split <- concat1_28
I0122 11:44:34.881909 22077 net.cpp:380] concat1_28_concat1_28_0_split -> concat1_28_concat1_28_0_split_0
I0122 11:44:34.881919 22077 net.cpp:380] concat1_28_concat1_28_0_split -> concat1_28_concat1_28_0_split_1
I0122 11:44:34.882032 22077 net.cpp:122] Setting up concat1_28_concat1_28_0_split
I0122 11:44:34.882043 22077 net.cpp:129] Top shape: 1 1440 23 24 (794880)
I0122 11:44:34.882051 22077 net.cpp:129] Top shape: 1 1440 23 24 (794880)
I0122 11:44:34.882055 22077 net.cpp:137] Memory required for data: 615118304
I0122 11:44:34.882059 22077 layer_factory.hpp:77] Creating layer conv1_29/bn
I0122 11:44:34.882067 22077 net.cpp:84] Creating Layer conv1_29/bn
I0122 11:44:34.882072 22077 net.cpp:406] conv1_29/bn <- concat1_28_concat1_28_0_split_0
I0122 11:44:34.882082 22077 net.cpp:380] conv1_29/bn -> conv1_29/bn
I0122 11:44:34.882902 22077 net.cpp:122] Setting up conv1_29/bn
I0122 11:44:34.882916 22077 net.cpp:129] Top shape: 1 1440 23 24 (794880)
I0122 11:44:34.882922 22077 net.cpp:137] Memory required for data: 618297824
I0122 11:44:34.882933 22077 layer_factory.hpp:77] Creating layer conv1_29/scale
I0122 11:44:34.882947 22077 net.cpp:84] Creating Layer conv1_29/scale
I0122 11:44:34.882953 22077 net.cpp:406] conv1_29/scale <- conv1_29/bn
I0122 11:44:34.882961 22077 net.cpp:367] conv1_29/scale -> conv1_29/bn (in-place)
I0122 11:44:34.883081 22077 layer_factory.hpp:77] Creating layer conv1_29/scale
I0122 11:44:34.883534 22077 net.cpp:122] Setting up conv1_29/scale
I0122 11:44:34.883548 22077 net.cpp:129] Top shape: 1 1440 23 24 (794880)
I0122 11:44:34.883553 22077 net.cpp:137] Memory required for data: 621477344
I0122 11:44:34.883563 22077 layer_factory.hpp:77] Creating layer relu1_29
I0122 11:44:34.883572 22077 net.cpp:84] Creating Layer relu1_29
I0122 11:44:34.883579 22077 net.cpp:406] relu1_29 <- conv1_29/bn
I0122 11:44:34.883585 22077 net.cpp:367] relu1_29 -> conv1_29/bn (in-place)
I0122 11:44:34.884289 22077 net.cpp:122] Setting up relu1_29
I0122 11:44:34.884304 22077 net.cpp:129] Top shape: 1 1440 23 24 (794880)
I0122 11:44:34.884307 22077 net.cpp:137] Memory required for data: 624656864
I0122 11:44:34.884312 22077 layer_factory.hpp:77] Creating layer conv1_29
I0122 11:44:34.884327 22077 net.cpp:84] Creating Layer conv1_29
I0122 11:44:34.884333 22077 net.cpp:406] conv1_29 <- conv1_29/bn
I0122 11:44:34.884341 22077 net.cpp:380] conv1_29 -> conv1_29
I0122 11:44:34.903339 22077 net.cpp:122] Setting up conv1_29
I0122 11:44:34.903383 22077 net.cpp:129] Top shape: 1 32 23 24 (17664)
I0122 11:44:34.903389 22077 net.cpp:137] Memory required for data: 624727520
I0122 11:44:34.903401 22077 layer_factory.hpp:77] Creating layer concat1_29
I0122 11:44:34.903416 22077 net.cpp:84] Creating Layer concat1_29
I0122 11:44:34.903425 22077 net.cpp:406] concat1_29 <- concat1_28_concat1_28_0_split_1
I0122 11:44:34.903435 22077 net.cpp:406] concat1_29 <- conv1_29
I0122 11:44:34.903446 22077 net.cpp:380] concat1_29 -> concat1_29
I0122 11:44:34.903532 22077 net.cpp:122] Setting up concat1_29
I0122 11:44:34.903544 22077 net.cpp:129] Top shape: 1 1472 23 24 (812544)
I0122 11:44:34.903549 22077 net.cpp:137] Memory required for data: 627977696
I0122 11:44:34.903554 22077 layer_factory.hpp:77] Creating layer tpp5
I0122 11:44:34.903565 22077 net.cpp:84] Creating Layer tpp5
I0122 11:44:34.903571 22077 net.cpp:406] tpp5 <- concat1_29
I0122 11:44:34.903580 22077 net.cpp:380] tpp5 -> tpp5
I0122 11:44:34.905097 22077 net.cpp:122] Setting up tpp5
I0122 11:44:34.905127 22077 net.cpp:129] Top shape: 1 22080 (22080)
I0122 11:44:34.905133 22077 net.cpp:137] Memory required for data: 628066016
I0122 11:44:34.905138 22077 layer_factory.hpp:77] Creating layer fc6_d
I0122 11:44:34.905151 22077 net.cpp:84] Creating Layer fc6_d
I0122 11:44:34.905159 22077 net.cpp:406] fc6_d <- tpp5
I0122 11:44:34.905170 22077 net.cpp:380] fc6_d -> fc6_d
I0122 11:44:38.135535 22077 net.cpp:122] Setting up fc6_d
I0122 11:44:38.135574 22077 net.cpp:129] Top shape: 1 4096 (4096)
I0122 11:44:38.135579 22077 net.cpp:137] Memory required for data: 628082400
I0122 11:44:38.135591 22077 layer_factory.hpp:77] Creating layer relu6
I0122 11:44:38.135604 22077 net.cpp:84] Creating Layer relu6
I0122 11:44:38.135612 22077 net.cpp:406] relu6 <- fc6_d
I0122 11:44:38.135620 22077 net.cpp:367] relu6 -> fc6_d (in-place)
I0122 11:44:38.136132 22077 net.cpp:122] Setting up relu6
I0122 11:44:38.136145 22077 net.cpp:129] Top shape: 1 4096 (4096)
I0122 11:44:38.136149 22077 net.cpp:137] Memory required for data: 628098784
I0122 11:44:38.136154 22077 layer_factory.hpp:77] Creating layer fc7_d
I0122 11:44:38.136165 22077 net.cpp:84] Creating Layer fc7_d
I0122 11:44:38.136170 22077 net.cpp:406] fc7_d <- fc6_d
I0122 11:44:38.136178 22077 net.cpp:380] fc7_d -> fc7_d
I0122 11:44:38.761593 22077 net.cpp:122] Setting up fc7_d
I0122 11:44:38.761629 22077 net.cpp:129] Top shape: 1 4096 (4096)
I0122 11:44:38.761633 22077 net.cpp:137] Memory required for data: 628115168
I0122 11:44:38.761646 22077 layer_factory.hpp:77] Creating layer relu7
I0122 11:44:38.761656 22077 net.cpp:84] Creating Layer relu7
I0122 11:44:38.761662 22077 net.cpp:406] relu7 <- fc7_d
I0122 11:44:38.761672 22077 net.cpp:367] relu7 -> fc7_d (in-place)
I0122 11:44:38.762468 22077 net.cpp:122] Setting up relu7
I0122 11:44:38.762481 22077 net.cpp:129] Top shape: 1 4096 (4096)
I0122 11:44:38.762485 22077 net.cpp:137] Memory required for data: 628131552
I0122 11:44:38.762490 22077 layer_factory.hpp:77] Creating layer fc8_d
I0122 11:44:38.762501 22077 net.cpp:84] Creating Layer fc8_d
I0122 11:44:38.762506 22077 net.cpp:406] fc8_d <- fc7_d
I0122 11:44:38.762513 22077 net.cpp:380] fc8_d -> fc8_d
I0122 11:44:38.858487 22077 net.cpp:122] Setting up fc8_d
I0122 11:44:38.858521 22077 net.cpp:129] Top shape: 1 618 (618)
I0122 11:44:38.858526 22077 net.cpp:137] Memory required for data: 628134024
I0122 11:44:38.858537 22077 layer_factory.hpp:77] Creating layer fc8_d_fc8_d_0_split
I0122 11:44:38.858547 22077 net.cpp:84] Creating Layer fc8_d_fc8_d_0_split
I0122 11:44:38.858554 22077 net.cpp:406] fc8_d_fc8_d_0_split <- fc8_d
I0122 11:44:38.858573 22077 net.cpp:380] fc8_d_fc8_d_0_split -> fc8_d_fc8_d_0_split_0
I0122 11:44:38.858583 22077 net.cpp:380] fc8_d_fc8_d_0_split -> fc8_d_fc8_d_0_split_1
I0122 11:44:38.858674 22077 net.cpp:122] Setting up fc8_d_fc8_d_0_split
I0122 11:44:38.858682 22077 net.cpp:129] Top shape: 1 618 (618)
I0122 11:44:38.858687 22077 net.cpp:129] Top shape: 1 618 (618)
I0122 11:44:38.858691 22077 net.cpp:137] Memory required for data: 628138968
I0122 11:44:38.858700 22077 layer_factory.hpp:77] Creating layer sigmoid
I0122 11:44:38.858709 22077 net.cpp:84] Creating Layer sigmoid
I0122 11:44:38.858713 22077 net.cpp:406] sigmoid <- fc8_d_fc8_d_0_split_0
I0122 11:44:38.858721 22077 net.cpp:380] sigmoid -> sigmoid
I0122 11:44:38.859505 22077 net.cpp:122] Setting up sigmoid
I0122 11:44:38.859519 22077 net.cpp:129] Top shape: 1 618 (618)
I0122 11:44:38.859522 22077 net.cpp:137] Memory required for data: 628141440
I0122 11:44:38.859526 22077 layer_factory.hpp:77] Creating layer silence
I0122 11:44:38.859534 22077 net.cpp:84] Creating Layer silence
I0122 11:44:38.859539 22077 net.cpp:406] silence <- sigmoid
I0122 11:44:38.859544 22077 net.cpp:122] Setting up silence
I0122 11:44:38.859547 22077 net.cpp:137] Memory required for data: 628141440
…
