…
state {
  phase: TRAIN
}
layer {
  name: "word_images"
  type: "Data"
  top: "word_images"
  top: "label"
  transform_param {
    scale: -0.0039215689
    mean_value: 255
  }
  data_param {
    source: "/data/fwolf/iam/iam-db_nti500000_pul2-3-4-5_train_word_images_lmdb"
    batch_size: 1
    backend: LMDB
    prefetch: 20
  }
}
layer {
  name: "phocs"
  type: "Data"
  top: "phocs"
  top: "label_phocs"
  data_param {
    source: "/data/fwolf/iam/iam-db_nti500000_pul2-3-4-5_train_phocs_lmdb"
    batch_size: 1
    backend: LMDB
    prefetch: 20
  }
}
layer {
  name: "conv_init"
  type: "Convolution"
  bottom: "word_images"
  top: "conv_init"
  convolution_param {
    num_output: 32
    bias_term: false
    pad: 1
    kernel_size: 3
    stride: 1
    weight_filler {
      type: "msra"
    }
    bias_filler {
      type: "constant"
    }
    engine: CUDNN
  }
}
layer {
  name: "bn_init"
  type: "BatchNorm"
  bottom: "conv_init"
  top: "bn_init"
  param {
    lr_mult: 0
    decay_mult: 0
  }
  param {
    lr_mult: 0
    decay_mult: 0
  }
  param {
    lr_mult: 0
    decay_mult: 0
  }
  batch_norm_param {
    eps: 1e-05
  }
}
layer {
  name: "scale_init"
  type: "Scale"
  bottom: "bn_init"
  top: "bn_init"
  scale_param {
    filler {
      value: 1
    }
    bias_term: true
    bias_filler {
      value: 0
    }
  }
}
layer {
  name: "relu_init"
  type: "ReLU"
  bottom: "bn_init"
  top: "bn_init"
}
layer {
  name: "pool_init"
  type: "Pooling"
  bottom: "bn_init"
  top: "pool_init"
  pooling_param {
    pool: MAX
    kernel_size: 3
    stride: 2
    pad: 1
  }
}
layer {
  name: "conv0_0/bn"
  type: "BatchNorm"
  bottom: "pool_init"
  top: "conv0_0/bn"
  param {
    lr_mult: 0
    decay_mult: 0
  }
  param {
    lr_mult: 0
    decay_mult: 0
  }
  param {
    lr_mult: 0
    decay_mult: 0
  }
}
layer {
  name: "conv0_0/scale"
  type: "Scale"
  bottom: "conv0_0/bn"
  top: "conv0_0/bn"
  scale_param {
    filler {
      value: 1
    }
    bias_term: true
    bias_filler {
      value: 0
    }
  }
}
layer {
  name: "relu0_0"
  type: "ReLU"
  bottom: "conv0_0/bn"
  top: "conv0_0/bn"
}
layer {
  name: "conv0_0"
  type: "Convolution"
  bottom: "conv0_0/bn"
  top: "conv0_0"
  convolution_param {
    num_output: 12
    bias_term: false
    pad: 1
    kernel_size: 3
    stride: 1
    weight_filler {
      type: "msra"
    }
    bias_filler {
      type: "constant"
    }
    engine: CUDNN
  }
}
layer {
  name: "concat0_0"
  type: "Concat"
  bottom: "pool_init"
  bottom: "conv0_0"
  top: "concat0_0"
  concat_param {
    axis: 1
  }
}
layer {
  name: "conv0_1/bn"
  type: "BatchNorm"
  bottom: "concat0_0"
  top: "conv0_1/bn"
  param {
    lr_mult: 0
    decay_mult: 0
  }
  param {
    lr_mult: 0
    decay_mult: 0
  }
  param {
    lr_mult: 0
    decay_mult: 0
  }
}
layer {
  name: "conv0_1/scale"
  type: "Scale"
  bottom: "conv0_1/bn"
  top: "conv0_1/bn"
  scale_param {
    filler {
      value: 1
    }
    bias_term: true
    bias_filler {
      value: 0
    }
  }
}
layer {
  name: "relu0_1"
  type: "ReLU"
  bottom: "conv0_1/bn"
  top: "conv0_1/bn"
}
layer {
  name: "conv0_1"
  type: "Convolution"
  bottom: "conv0_1/bn"
  top: "conv0_1"
  convolution_param {
    num_output: 12
    bias_term: false
    pad: 1
    kernel_size: 3
    stride: 1
    weight_filler {
      type: "msra"
    }
    bias_filler {
      type: "constant"
    }
    engine: CUDNN
  }
}
layer {
  name: "concat0_1"
  type: "Concat"
  bottom: "concat0_0"
  bottom: "conv0_1"
  top: "concat0_1"
  concat_param {
    axis: 1
  }
}
layer {
  name: "conv0_2/bn"
  type: "BatchNorm"
  bottom: "concat0_1"
  top: "conv0_2/bn"
  param {
    lr_mult: 0
    decay_mult: 0
  }
  param {
    lr_mult: 0
    decay_mult: 0
  }
  param {
    lr_mult: 0
    decay_mult: 0
  }
}
layer {
  name: "conv0_2/scale"
  type: "Scale"
  bottom: "conv0_2/bn"
  top: "conv0_2/bn"
  scale_param {
    filler {
      value: 1
    }
    bias_term: true
    bias_filler {
      value: 0
    }
  }
}
layer {
  name: "relu0_2"
  type: "ReLU"
  bottom: "conv0_2/bn"
  top: "conv0_2/bn"
}
layer {
  name: "conv0_2"
  type: "Convolution"
  bottom: "conv0_2/bn"
  top: "conv0_2"
  convolution_param {
    num_output: 12
    bias_term: false
    pad: 1
    kernel_size: 3
    stride: 1
    weight_filler {
      type: "msra"
    }
    bias_filler {
      type: "constant"
    }
    engine: CUDNN
  }
}
layer {
  name: "concat0_2"
  type: "Concat"
  bottom: "concat0_1"
  bottom: "conv0_2"
  top: "concat0_2"
  concat_param {
    axis: 1
  }
}
layer {
  name: "conv0_3/bn"
  type: "BatchNorm"
  bottom: "concat0_2"
  top: "conv0_3/bn"
  param {
    lr_mult: 0
    decay_mult: 0
  }
  param {
    lr_mult: 0
    decay_mult: 0
  }
  param {
    lr_mult: 0
    decay_mult: 0
  }
}
layer {
  name: "conv0_3/scale"
  type: "Scale"
  bottom: "conv0_3/bn"
  top: "conv0_3/bn"
  scale_param {
    filler {
      value: 1
    }
    bias_term: true
    bias_filler {
      value: 0
    }
  }
}
layer {
  name: "relu0_3"
  type: "ReLU"
  bottom: "conv0_3/bn"
  top: "conv0_3/bn"
}
layer {
  name: "conv0_3"
  type: "Convolution"
  bottom: "conv0_3/bn"
  top: "conv0_3"
  convolution_param {
    num_output: 12
    bias_term: false
    pad: 1
    kernel_size: 3
    stride: 1
    weight_filler {
      type: "msra"
    }
    bias_filler {
      type: "constant"
    }
    engine: CUDNN
  }
}
layer {
  name: "concat0_3"
  type: "Concat"
  bottom: "concat0_2"
  bottom: "conv0_3"
  top: "concat0_3"
  concat_param {
    axis: 1
  }
}
layer {
  name: "conv0_4/bn"
  type: "BatchNorm"
  bottom: "concat0_3"
  top: "conv0_4/bn"
  param {
    lr_mult: 0
    decay_mult: 0
  }
  param {
    lr_mult: 0
    decay_mult: 0
  }
  param {
    lr_mult: 0
    decay_mult: 0
  }
}
layer {
  name: "conv0_4/scale"
  type: "Scale"
  bottom: "conv0_4/bn"
  top: "conv0_4/bn"
  scale_param {
    filler {
      value: 1
    }
    bias_term: true
    bias_filler {
      value: 0
    }
  }
}
layer {
  name: "relu0_4"
  type: "ReLU"
  bottom: "conv0_4/bn"
  top: "conv0_4/bn"
}
layer {
  name: "conv0_4"
  type: "Convolution"
  bottom: "conv0_4/bn"
  top: "conv0_4"
  convolution_param {
    num_output: 12
    bias_term: false
    pad: 1
    kernel_size: 3
    stride: 1
    weight_filler {
      type: "msra"
    }
    bias_filler {
      type: "constant"
    }
    engine: CUDNN
  }
}
layer {
  name: "concat0_4"
  type: "Concat"
  bottom: "concat0_3"
  bottom: "conv0_4"
  top: "concat0_4"
  concat_param {
    axis: 1
  }
}
layer {
  name: "BatchNorm1"
  type: "BatchNorm"
  bottom: "concat0_4"
  top: "BatchNorm1"
  param {
    lr_mult: 0
    decay_mult: 0
  }
  param {
    lr_mult: 0
    decay_mult: 0
  }
  param {
    lr_mult: 0
    decay_mult: 0
  }
}
layer {
  name: "Scale1"
  type: "Scale"
  bottom: "BatchNorm1"
  top: "BatchNorm1"
  scale_param {
    filler {
      value: 1
    }
    bias_term: true
    bias_filler {
      value: 0
    }
  }
}
layer {
  name: "ReLU1"
  type: "ReLU"
  bottom: "BatchNorm1"
  top: "BatchNorm1"
}
layer {
  name: "conv0_blk"
  type: "Convolution"
  bottom: "BatchNorm1"
  top: "conv0_blk"
  convolution_param {
    num_output: 92
    bias_term: false
    pad: 0
    kernel_size: 1
    stride: 1
    weight_filler {
      type: "msra"
    }
    bias_filler {
      type: "constant"
    }
    engine: CUDNN
  }
}
layer {
  name: "pool0"
  type: "Pooling"
  bottom: "conv0_blk"
  top: "pool0"
  pooling_param {
    pool: AVE
    kernel_size: 2
    stride: 2
  }
}
layer {
  name: "conv1_0/bn"
  type: "BatchNorm"
  bottom: "pool0"
  top: "conv1_0/bn"
  param {
    lr_mult: 0
    decay_mult: 0
  }
  param {
    lr_mult: 0
    decay_mult: 0
  }
  param {
    lr_mult: 0
    decay_mult: 0
  }
}
layer {
  name: "conv1_0/scale"
  type: "Scale"
  bottom: "conv1_0/bn"
  top: "conv1_0/bn"
  scale_param {
    filler {
      value: 1
    }
    bias_term: true
    bias_filler {
      value: 0
    }
  }
}
layer {
  name: "relu1_0"
  type: "ReLU"
  bottom: "conv1_0/bn"
  top: "conv1_0/bn"
}
layer {
  name: "conv1_0"
  type: "Convolution"
  bottom: "conv1_0/bn"
  top: "conv1_0"
  convolution_param {
    num_output: 12
    bias_term: false
    pad: 1
    kernel_size: 3
    stride: 1
    weight_filler {
      type: "msra"
    }
    bias_filler {
      type: "constant"
    }
    engine: CUDNN
  }
}
layer {
  name: "concat1_0"
  type: "Concat"
  bottom: "pool0"
  bottom: "conv1_0"
  top: "concat1_0"
  concat_param {
    axis: 1
  }
}
layer {
  name: "conv1_1/bn"
  type: "BatchNorm"
  bottom: "concat1_0"
  top: "conv1_1/bn"
  param {
    lr_mult: 0
    decay_mult: 0
  }
  param {
    lr_mult: 0
    decay_mult: 0
  }
  param {
    lr_mult: 0
    decay_mult: 0
  }
}
layer {
  name: "conv1_1/scale"
  type: "Scale"
  bottom: "conv1_1/bn"
  top: "conv1_1/bn"
  scale_param {
    filler {
      value: 1
    }
    bias_term: true
    bias_filler {
      value: 0
    }
  }
}
layer {
  name: "relu1_1"
  type: "ReLU"
  bottom: "conv1_1/bn"
  top: "conv1_1/bn"
}
layer {
  name: "conv1_1"
  type: "Convolution"
  bottom: "conv1_1/bn"
  top: "conv1_1"
  convolution_param {
    num_output: 12
    bias_term: false
    pad: 1
    kernel_size: 3
    stride: 1
    weight_filler {
      type: "msra"
    }
    bias_filler {
      type: "constant"
    }
    engine: CUDNN
  }
}
layer {
  name: "concat1_1"
  type: "Concat"
  bottom: "concat1_0"
  bottom: "conv1_1"
  top: "concat1_1"
  concat_param {
    axis: 1
  }
}
layer {
  name: "conv1_2/bn"
  type: "BatchNorm"
  bottom: "concat1_1"
  top: "conv1_2/bn"
  param {
    lr_mult: 0
    decay_mult: 0
  }
  param {
    lr_mult: 0
    decay_mult: 0
  }
  param {
    lr_mult: 0
    decay_mult: 0
  }
}
layer {
  name: "conv1_2/scale"
  type: "Scale"
  bottom: "conv1_2/bn"
  top: "conv1_2/bn"
  scale_param {
    filler {
      value: 1
    }
    bias_term: true
    bias_filler {
      value: 0
    }
  }
}
layer {
  name: "relu1_2"
  type: "ReLU"
  bottom: "conv1_2/bn"
  top: "conv1_2/bn"
}
layer {
  name: "conv1_2"
  type: "Convolution"
  bottom: "conv1_2/bn"
  top: "conv1_2"
  convolution_param {
    num_output: 12
    bias_term: false
    pad: 1
    kernel_size: 3
    stride: 1
    weight_filler {
      type: "msra"
    }
    bias_filler {
      type: "constant"
    }
    engine: CUDNN
  }
}
layer {
  name: "concat1_2"
  type: "Concat"
  bottom: "concat1_1"
  bottom: "conv1_2"
  top: "concat1_2"
  concat_param {
    axis: 1
  }
}
layer {
  name: "conv1_3/bn"
  type: "BatchNorm"
  bottom: "concat1_2"
  top: "conv1_3/bn"
  param {
    lr_mult: 0
    decay_mult: 0
  }
  param {
    lr_mult: 0
    decay_mult: 0
  }
  param {
    lr_mult: 0
    decay_mult: 0
  }
}
layer {
  name: "conv1_3/scale"
  type: "Scale"
  bottom: "conv1_3/bn"
  top: "conv1_3/bn"
  scale_param {
    filler {
      value: 1
    }
    bias_term: true
    bias_filler {
      value: 0
    }
  }
}
layer {
  name: "relu1_3"
  type: "ReLU"
  bottom: "conv1_3/bn"
  top: "conv1_3/bn"
}
layer {
  name: "conv1_3"
  type: "Convolution"
  bottom: "conv1_3/bn"
  top: "conv1_3"
  convolution_param {
    num_output: 12
    bias_term: false
    pad: 1
    kernel_size: 3
    stride: 1
    weight_filler {
      type: "msra"
    }
    bias_filler {
      type: "constant"
    }
    engine: CUDNN
  }
}
layer {
  name: "concat1_3"
  type: "Concat"
  bottom: "concat1_2"
  bottom: "conv1_3"
  top: "concat1_3"
  concat_param {
    axis: 1
  }
}
layer {
  name: "conv1_4/bn"
  type: "BatchNorm"
  bottom: "concat1_3"
  top: "conv1_4/bn"
  param {
    lr_mult: 0
    decay_mult: 0
  }
  param {
    lr_mult: 0
    decay_mult: 0
  }
  param {
    lr_mult: 0
    decay_mult: 0
  }
}
layer {
  name: "conv1_4/scale"
  type: "Scale"
  bottom: "conv1_4/bn"
  top: "conv1_4/bn"
  scale_param {
    filler {
      value: 1
    }
    bias_term: true
    bias_filler {
      value: 0
    }
  }
}
layer {
  name: "relu1_4"
  type: "ReLU"
  bottom: "conv1_4/bn"
  top: "conv1_4/bn"
}
layer {
  name: "conv1_4"
  type: "Convolution"
  bottom: "conv1_4/bn"
  top: "conv1_4"
  convolution_param {
    num_output: 12
    bias_term: false
    pad: 1
    kernel_size: 3
    stride: 1
    weight_filler {
      type: "msra"
    }
    bias_filler {
      type: "constant"
    }
    engine: CUDNN
  }
}
layer {
  name: "concat1_4"
  type: "Concat"
  bottom: "concat1_3"
  bottom: "conv1_4"
  top: "concat1_4"
  concat_param {
    axis: 1
  }
}
layer {
  name: "conv1_5/bn"
  type: "BatchNorm"
  bottom: "concat1_4"
  top: "conv1_5/bn"
  param {
    lr_mult: 0
    decay_mult: 0
  }
  param {
    lr_mult: 0
    decay_mult: 0
  }
  param {
    lr_mult: 0
    decay_mult: 0
  }
}
layer {
  name: "conv1_5/scale"
  type: "Scale"
  bottom: "conv1_5/bn"
  top: "conv1_5/bn"
  scale_param {
    filler {
      value: 1
    }
    bias_term: true
    bias_filler {
      value: 0
    }
  }
}
layer {
  name: "relu1_5"
  type: "ReLU"
  bottom: "conv1_5/bn"
  top: "conv1_5/bn"
}
layer {
  name: "conv1_5"
  type: "Convolution"
  bottom: "conv1_5/bn"
  top: "conv1_5"
  convolution_param {
    num_output: 12
    bias_term: false
    pad: 1
    kernel_size: 3
    stride: 1
    weight_filler {
      type: "msra"
    }
    bias_filler {
      type: "constant"
    }
    engine: CUDNN
  }
}
layer {
  name: "concat1_5"
  type: "Concat"
  bottom: "concat1_4"
  bottom: "conv1_5"
  top: "concat1_5"
  concat_param {
    axis: 1
  }
}
layer {
  name: "conv1_6/bn"
  type: "BatchNorm"
  bottom: "concat1_5"
  top: "conv1_6/bn"
  param {
    lr_mult: 0
    decay_mult: 0
  }
  param {
    lr_mult: 0
    decay_mult: 0
  }
  param {
    lr_mult: 0
    decay_mult: 0
  }
}
layer {
  name: "conv1_6/scale"
  type: "Scale"
  bottom: "conv1_6/bn"
  top: "conv1_6/bn"
  scale_param {
    filler {
      value: 1
    }
    bias_term: true
    bias_filler {
      value: 0
    }
  }
}
layer {
  name: "relu1_6"
  type: "ReLU"
  bottom: "conv1_6/bn"
  top: "conv1_6/bn"
}
layer {
  name: "conv1_6"
  type: "Convolution"
  bottom: "conv1_6/bn"
  top: "conv1_6"
  convolution_param {
    num_output: 12
    bias_term: false
    pad: 1
    kernel_size: 3
    stride: 1
    weight_filler {
      type: "msra"
    }
    bias_filler {
      type: "constant"
    }
    engine: CUDNN
  }
}
layer {
  name: "concat1_6"
  type: "Concat"
  bottom: "concat1_5"
  bottom: "conv1_6"
  top: "concat1_6"
  concat_param {
    axis: 1
  }
}
layer {
  name: "conv1_7/bn"
  type: "BatchNorm"
  bottom: "concat1_6"
  top: "conv1_7/bn"
  param {
    lr_mult: 0
    decay_mult: 0
  }
  param {
    lr_mult: 0
    decay_mult: 0
  }
  param {
    lr_mult: 0
    decay_mult: 0
  }
}
layer {
  name: "conv1_7/scale"
  type: "Scale"
  bottom: "conv1_7/bn"
  top: "conv1_7/bn"
  scale_param {
    filler {
      value: 1
    }
    bias_term: true
    bias_filler {
      value: 0
    }
  }
}
layer {
  name: "relu1_7"
  type: "ReLU"
  bottom: "conv1_7/bn"
  top: "conv1_7/bn"
}
layer {
  name: "conv1_7"
  type: "Convolution"
  bottom: "conv1_7/bn"
  top: "conv1_7"
  convolution_param {
    num_output: 12
    bias_term: false
    pad: 1
    kernel_size: 3
    stride: 1
    weight_filler {
      type: "msra"
    }
    bias_filler {
      type: "constant"
    }
    engine: CUDNN
  }
}
layer {
  name: "concat1_7"
  type: "Concat"
  bottom: "concat1_6"
  bottom: "conv1_7"
  top: "concat1_7"
  concat_param {
    axis: 1
  }
}
layer {
  name: "conv1_8/bn"
  type: "BatchNorm"
  bottom: "concat1_7"
  top: "conv1_8/bn"
  param {
    lr_mult: 0
    decay_mult: 0
  }
  param {
    lr_mult: 0
    decay_mult: 0
  }
  param {
    lr_mult: 0
    decay_mult: 0
  }
}
layer {
  name: "conv1_8/scale"
  type: "Scale"
  bottom: "conv1_8/bn"
  top: "conv1_8/bn"
  scale_param {
    filler {
      value: 1
    }
    bias_term: true
    bias_filler {
      value: 0
    }
  }
}
layer {
  name: "relu1_8"
  type: "ReLU"
  bottom: "conv1_8/bn"
  top: "conv1_8/bn"
}
layer {
  name: "conv1_8"
  type: "Convolution"
  bottom: "conv1_8/bn"
  top: "conv1_8"
  convolution_param {
    num_output: 12
    bias_term: false
    pad: 1
    kernel_size: 3
    stride: 1
    weight_filler {
      type: "msra"
    }
    bias_filler {
      type: "constant"
    }
    engine: CUDNN
  }
}
layer {
  name: "concat1_8"
  type: "Concat"
  bottom: "concat1_7"
  bottom: "conv1_8"
  top: "concat1_8"
  concat_param {
    axis: 1
  }
}
layer {
  name: "conv1_9/bn"
  type: "BatchNorm"
  bottom: "concat1_8"
  top: "conv1_9/bn"
  param {
    lr_mult: 0
    decay_mult: 0
  }
  param {
    lr_mult: 0
    decay_mult: 0
  }
  param {
    lr_mult: 0
    decay_mult: 0
  }
}
layer {
  name: "conv1_9/scale"
  type: "Scale"
  bottom: "conv1_9/bn"
  top: "conv1_9/bn"
  scale_param {
    filler {
      value: 1
    }
    bias_term: true
    bias_filler {
      value: 0
    }
  }
}
layer {
  name: "relu1_9"
  type: "ReLU"
  bottom: "conv1_9/bn"
  top: "conv1_9/bn"
}
layer {
  name: "conv1_9"
  type: "Convolution"
  bottom: "conv1_9/bn"
  top: "conv1_9"
  convolution_param {
    num_output: 12
    bias_term: false
    pad: 1
    kernel_size: 3
    stride: 1
    weight_filler {
      type: "msra"
    }
    bias_filler {
      type: "constant"
    }
    engine: CUDNN
  }
}
layer {
  name: "concat1_9"
  type: "Concat"
  bottom: "concat1_8"
  bottom: "conv1_9"
  top: "concat1_9"
  concat_param {
    axis: 1
  }
}
layer {
  name: "tpp5"
  type: "TPP"
  bottom: "concat1_9"
  top: "tpp5"
  tpp_param {
    pyramid_layer: 1
    pyramid_layer: 2
    pyramid_layer: 3
    pyramid_layer: 4
    pyramid_layer: 5
    pool: MAX
    engine: CUDNN
  }
}
layer {
  name: "fc6_d"
  type: "InnerProduct"
  bottom: "tpp5"
  top: "fc6_d"
  inner_product_param {
    num_output: 4096
    weight_filler {
      type: "msra"
    }
    bias_filler {
      type: "constant"
    }
  }
}
layer {
  name: "relu6"
  type: "ReLU"
  bottom: "fc6_d"
  top: "fc6_d"
}
layer {
  name: "drop6"
  type: "Dropout"
  bottom: "fc6_d"
  top: "fc6_d"
  include {
    phase: TRAIN
  }
  dropout_param {
    dropout_ratio: 0.5
  }
}
layer {
  name: "fc7_d"
  type: "InnerProduct"
  bottom: "fc6_d"
  top: "fc7_d"
  inner_product_param {
    num_output: 4096
    weight_filler {
      type: "msra"
    }
    bias_filler {
      type: "constant"
    }
  }
}
layer {
  name: "relu7"
  type: "ReLU"
  bottom: "fc7_d"
  top: "fc7_d"
}
layer {
  name: "drop7"
  type: "Dropout"
  bottom: "fc7_d"
  top: "fc7_d"
  include {
    phase: TRAIN
  }
  dropout_param {
    dropout_ratio: 0.5
  }
}
layer {
  name: "fc8_d"
  type: "InnerProduct"
  bottom: "fc7_d"
  top: "fc8_d"
  inner_product_param {
    num_output: 618
    weight_filler {
      type: "msra"
    }
    bias_filler {
      type: "constant"
    }
  }
}
layer {
  name: "loss"
  type: "SigmoidCrossEntropyLoss"
  bottom: "fc8_d"
  bottom: "phocs"
  top: "loss"
}
I0108 14:34:34.555182 23655 layer_factory.hpp:77] Creating layer word_images
I0108 14:34:34.555291 23655 db_lmdb.cpp:35] Opened lmdb /data/fwolf/iam/iam-db_nti500000_pul2-3-4-5_train_word_images_lmdb
I0108 14:34:34.555321 23655 net.cpp:84] Creating Layer word_images
I0108 14:34:34.555418 23655 net.cpp:380] word_images -> word_images
I0108 14:34:34.555434 23655 net.cpp:380] word_images -> label
I0108 14:34:34.556774 23655 data_layer.cpp:44] output data size: 1,1,127,433
I0108 14:34:34.595659 23655 net.cpp:122] Setting up word_images
I0108 14:34:34.595698 23655 net.cpp:129] Top shape: 1 1 127 433 (54991)
I0108 14:34:34.595705 23655 net.cpp:129] Top shape: 1 (1)
I0108 14:34:34.595708 23655 net.cpp:137] Memory required for data: 219968
I0108 14:34:34.595717 23655 layer_factory.hpp:77] Creating layer phocs
I0108 14:34:34.603188 23655 db_lmdb.cpp:35] Opened lmdb /data/fwolf/iam/iam-db_nti500000_pul2-3-4-5_train_phocs_lmdb
I0108 14:34:34.603241 23655 net.cpp:84] Creating Layer phocs
I0108 14:34:34.603256 23655 net.cpp:380] phocs -> phocs
I0108 14:34:34.603271 23655 net.cpp:380] phocs -> label_phocs
I0108 14:34:34.605226 23655 data_layer.cpp:44] output data size: 1,1,1,618
I0108 14:34:34.616788 23655 net.cpp:122] Setting up phocs
I0108 14:34:34.616827 23655 net.cpp:129] Top shape: 1 1 1 618 (618)
I0108 14:34:34.616833 23655 net.cpp:129] Top shape: 1 (1)
I0108 14:34:34.616837 23655 net.cpp:137] Memory required for data: 222444
I0108 14:34:34.616845 23655 layer_factory.hpp:77] Creating layer conv_init
I0108 14:34:34.616868 23655 net.cpp:84] Creating Layer conv_init
I0108 14:34:34.616873 23655 net.cpp:406] conv_init <- word_images
I0108 14:34:34.616884 23655 net.cpp:380] conv_init -> conv_init
I0108 14:34:35.628737 23655 net.cpp:122] Setting up conv_init
I0108 14:34:35.628774 23655 net.cpp:129] Top shape: 1 32 127 433 (1759712)
I0108 14:34:35.628779 23655 net.cpp:137] Memory required for data: 7261292
I0108 14:34:35.628793 23655 layer_factory.hpp:77] Creating layer bn_init
I0108 14:34:35.628806 23655 net.cpp:84] Creating Layer bn_init
I0108 14:34:35.628813 23655 net.cpp:406] bn_init <- conv_init
I0108 14:34:35.628823 23655 net.cpp:380] bn_init -> bn_init
I0108 14:34:35.643174 23655 net.cpp:122] Setting up bn_init
I0108 14:34:35.643215 23655 net.cpp:129] Top shape: 1 32 127 433 (1759712)
I0108 14:34:35.643220 23655 net.cpp:137] Memory required for data: 14300140
I0108 14:34:35.643241 23655 layer_factory.hpp:77] Creating layer scale_init
I0108 14:34:35.643260 23655 net.cpp:84] Creating Layer scale_init
I0108 14:34:35.643265 23655 net.cpp:406] scale_init <- bn_init
I0108 14:34:35.643275 23655 net.cpp:367] scale_init -> bn_init (in-place)
I0108 14:34:35.643362 23655 layer_factory.hpp:77] Creating layer scale_init
I0108 14:34:35.643681 23655 net.cpp:122] Setting up scale_init
I0108 14:34:35.643690 23655 net.cpp:129] Top shape: 1 32 127 433 (1759712)
I0108 14:34:35.643694 23655 net.cpp:137] Memory required for data: 21338988
I0108 14:34:35.643705 23655 layer_factory.hpp:77] Creating layer relu_init
I0108 14:34:35.643713 23655 net.cpp:84] Creating Layer relu_init
I0108 14:34:35.643718 23655 net.cpp:406] relu_init <- bn_init
I0108 14:34:35.643724 23655 net.cpp:367] relu_init -> bn_init (in-place)
I0108 14:34:35.644383 23655 net.cpp:122] Setting up relu_init
I0108 14:34:35.644407 23655 net.cpp:129] Top shape: 1 32 127 433 (1759712)
I0108 14:34:35.644412 23655 net.cpp:137] Memory required for data: 28377836
I0108 14:34:35.644418 23655 layer_factory.hpp:77] Creating layer pool_init
I0108 14:34:35.644429 23655 net.cpp:84] Creating Layer pool_init
I0108 14:34:35.644434 23655 net.cpp:406] pool_init <- bn_init
I0108 14:34:35.644443 23655 net.cpp:380] pool_init -> pool_init
I0108 14:34:35.644553 23655 net.cpp:122] Setting up pool_init
I0108 14:34:35.644562 23655 net.cpp:129] Top shape: 1 32 64 217 (444416)
I0108 14:34:35.644565 23655 net.cpp:137] Memory required for data: 30155500
I0108 14:34:35.644569 23655 layer_factory.hpp:77] Creating layer pool_init_pool_init_0_split
I0108 14:34:35.644577 23655 net.cpp:84] Creating Layer pool_init_pool_init_0_split
I0108 14:34:35.644580 23655 net.cpp:406] pool_init_pool_init_0_split <- pool_init
I0108 14:34:35.644587 23655 net.cpp:380] pool_init_pool_init_0_split -> pool_init_pool_init_0_split_0
I0108 14:34:35.644594 23655 net.cpp:380] pool_init_pool_init_0_split -> pool_init_pool_init_0_split_1
I0108 14:34:35.644667 23655 net.cpp:122] Setting up pool_init_pool_init_0_split
I0108 14:34:35.644675 23655 net.cpp:129] Top shape: 1 32 64 217 (444416)
I0108 14:34:35.644680 23655 net.cpp:129] Top shape: 1 32 64 217 (444416)
I0108 14:34:35.644685 23655 net.cpp:137] Memory required for data: 33710828
I0108 14:34:35.644688 23655 layer_factory.hpp:77] Creating layer conv0_0/bn
I0108 14:34:35.644700 23655 net.cpp:84] Creating Layer conv0_0/bn
I0108 14:34:35.644703 23655 net.cpp:406] conv0_0/bn <- pool_init_pool_init_0_split_0
I0108 14:34:35.644709 23655 net.cpp:380] conv0_0/bn -> conv0_0/bn
I0108 14:34:35.653949 23655 net.cpp:122] Setting up conv0_0/bn
I0108 14:34:35.653985 23655 net.cpp:129] Top shape: 1 32 64 217 (444416)
I0108 14:34:35.653990 23655 net.cpp:137] Memory required for data: 35488492
I0108 14:34:35.654013 23655 layer_factory.hpp:77] Creating layer conv0_0/scale
I0108 14:34:35.654029 23655 net.cpp:84] Creating Layer conv0_0/scale
I0108 14:34:35.654034 23655 net.cpp:406] conv0_0/scale <- conv0_0/bn
I0108 14:34:35.654047 23655 net.cpp:367] conv0_0/scale -> conv0_0/bn (in-place)
I0108 14:34:35.654139 23655 layer_factory.hpp:77] Creating layer conv0_0/scale
I0108 14:34:35.654420 23655 net.cpp:122] Setting up conv0_0/scale
I0108 14:34:35.654430 23655 net.cpp:129] Top shape: 1 32 64 217 (444416)
I0108 14:34:35.654434 23655 net.cpp:137] Memory required for data: 37266156
I0108 14:34:35.654443 23655 layer_factory.hpp:77] Creating layer relu0_0
I0108 14:34:35.654450 23655 net.cpp:84] Creating Layer relu0_0
I0108 14:34:35.654454 23655 net.cpp:406] relu0_0 <- conv0_0/bn
I0108 14:34:35.654461 23655 net.cpp:367] relu0_0 -> conv0_0/bn (in-place)
I0108 14:34:35.654750 23655 net.cpp:122] Setting up relu0_0
I0108 14:34:35.654762 23655 net.cpp:129] Top shape: 1 32 64 217 (444416)
I0108 14:34:35.654767 23655 net.cpp:137] Memory required for data: 39043820
I0108 14:34:35.654772 23655 layer_factory.hpp:77] Creating layer conv0_0
I0108 14:34:35.654784 23655 net.cpp:84] Creating Layer conv0_0
I0108 14:34:35.654788 23655 net.cpp:406] conv0_0 <- conv0_0/bn
I0108 14:34:35.654798 23655 net.cpp:380] conv0_0 -> conv0_0
I0108 14:34:35.658529 23655 net.cpp:122] Setting up conv0_0
I0108 14:34:35.658566 23655 net.cpp:129] Top shape: 1 12 64 217 (166656)
I0108 14:34:35.658571 23655 net.cpp:137] Memory required for data: 39710444
I0108 14:34:35.658583 23655 layer_factory.hpp:77] Creating layer concat0_0
I0108 14:34:35.658598 23655 net.cpp:84] Creating Layer concat0_0
I0108 14:34:35.658605 23655 net.cpp:406] concat0_0 <- pool_init_pool_init_0_split_1
I0108 14:34:35.658613 23655 net.cpp:406] concat0_0 <- conv0_0
I0108 14:34:35.658620 23655 net.cpp:380] concat0_0 -> concat0_0
I0108 14:34:35.658767 23655 net.cpp:122] Setting up concat0_0
I0108 14:34:35.658779 23655 net.cpp:129] Top shape: 1 44 64 217 (611072)
I0108 14:34:35.658783 23655 net.cpp:137] Memory required for data: 42154732
I0108 14:34:35.658787 23655 layer_factory.hpp:77] Creating layer concat0_0_concat0_0_0_split
I0108 14:34:35.658795 23655 net.cpp:84] Creating Layer concat0_0_concat0_0_0_split
I0108 14:34:35.658829 23655 net.cpp:406] concat0_0_concat0_0_0_split <- concat0_0
I0108 14:34:35.658839 23655 net.cpp:380] concat0_0_concat0_0_0_split -> concat0_0_concat0_0_0_split_0
I0108 14:34:35.658846 23655 net.cpp:380] concat0_0_concat0_0_0_split -> concat0_0_concat0_0_0_split_1
I0108 14:34:35.658926 23655 net.cpp:122] Setting up concat0_0_concat0_0_0_split
I0108 14:34:35.658934 23655 net.cpp:129] Top shape: 1 44 64 217 (611072)
I0108 14:34:35.658939 23655 net.cpp:129] Top shape: 1 44 64 217 (611072)
I0108 14:34:35.658943 23655 net.cpp:137] Memory required for data: 47043308
I0108 14:34:35.658948 23655 layer_factory.hpp:77] Creating layer conv0_1/bn
I0108 14:34:35.658957 23655 net.cpp:84] Creating Layer conv0_1/bn
I0108 14:34:35.658962 23655 net.cpp:406] conv0_1/bn <- concat0_0_concat0_0_0_split_0
I0108 14:34:35.658969 23655 net.cpp:380] conv0_1/bn -> conv0_1/bn
I0108 14:34:35.659463 23655 net.cpp:122] Setting up conv0_1/bn
I0108 14:34:35.659484 23655 net.cpp:129] Top shape: 1 44 64 217 (611072)
I0108 14:34:35.659499 23655 net.cpp:137] Memory required for data: 49487596
I0108 14:34:35.659518 23655 layer_factory.hpp:77] Creating layer conv0_1/scale
I0108 14:34:35.659533 23655 net.cpp:84] Creating Layer conv0_1/scale
I0108 14:34:35.659540 23655 net.cpp:406] conv0_1/scale <- conv0_1/bn
I0108 14:34:35.659550 23655 net.cpp:367] conv0_1/scale -> conv0_1/bn (in-place)
I0108 14:34:35.659647 23655 layer_factory.hpp:77] Creating layer conv0_1/scale
I0108 14:34:35.659946 23655 net.cpp:122] Setting up conv0_1/scale
I0108 14:34:35.659958 23655 net.cpp:129] Top shape: 1 44 64 217 (611072)
I0108 14:34:35.659963 23655 net.cpp:137] Memory required for data: 51931884
I0108 14:34:35.659977 23655 layer_factory.hpp:77] Creating layer relu0_1
I0108 14:34:35.659987 23655 net.cpp:84] Creating Layer relu0_1
I0108 14:34:35.659992 23655 net.cpp:406] relu0_1 <- conv0_1/bn
I0108 14:34:35.659998 23655 net.cpp:367] relu0_1 -> conv0_1/bn (in-place)
I0108 14:34:35.660681 23655 net.cpp:122] Setting up relu0_1
I0108 14:34:35.660698 23655 net.cpp:129] Top shape: 1 44 64 217 (611072)
I0108 14:34:35.660703 23655 net.cpp:137] Memory required for data: 54376172
I0108 14:34:35.660708 23655 layer_factory.hpp:77] Creating layer conv0_1
I0108 14:34:35.660724 23655 net.cpp:84] Creating Layer conv0_1
I0108 14:34:35.660729 23655 net.cpp:406] conv0_1 <- conv0_1/bn
I0108 14:34:35.660738 23655 net.cpp:380] conv0_1 -> conv0_1
I0108 14:34:35.665112 23655 net.cpp:122] Setting up conv0_1
I0108 14:34:35.665168 23655 net.cpp:129] Top shape: 1 12 64 217 (166656)
I0108 14:34:35.665179 23655 net.cpp:137] Memory required for data: 55042796
I0108 14:34:35.665199 23655 layer_factory.hpp:77] Creating layer concat0_1
I0108 14:34:35.665221 23655 net.cpp:84] Creating Layer concat0_1
I0108 14:34:35.665232 23655 net.cpp:406] concat0_1 <- concat0_0_concat0_0_0_split_1
I0108 14:34:35.665246 23655 net.cpp:406] concat0_1 <- conv0_1
I0108 14:34:35.665257 23655 net.cpp:380] concat0_1 -> concat0_1
I0108 14:34:35.665403 23655 net.cpp:122] Setting up concat0_1
I0108 14:34:35.665417 23655 net.cpp:129] Top shape: 1 56 64 217 (777728)
I0108 14:34:35.665421 23655 net.cpp:137] Memory required for data: 58153708
I0108 14:34:35.665427 23655 layer_factory.hpp:77] Creating layer concat0_1_concat0_1_0_split
I0108 14:34:35.665436 23655 net.cpp:84] Creating Layer concat0_1_concat0_1_0_split
I0108 14:34:35.665441 23655 net.cpp:406] concat0_1_concat0_1_0_split <- concat0_1
I0108 14:34:35.665448 23655 net.cpp:380] concat0_1_concat0_1_0_split -> concat0_1_concat0_1_0_split_0
I0108 14:34:35.665458 23655 net.cpp:380] concat0_1_concat0_1_0_split -> concat0_1_concat0_1_0_split_1
I0108 14:34:35.665577 23655 net.cpp:122] Setting up concat0_1_concat0_1_0_split
I0108 14:34:35.665591 23655 net.cpp:129] Top shape: 1 56 64 217 (777728)
I0108 14:34:35.665598 23655 net.cpp:129] Top shape: 1 56 64 217 (777728)
I0108 14:34:35.665602 23655 net.cpp:137] Memory required for data: 64375532
I0108 14:34:35.665606 23655 layer_factory.hpp:77] Creating layer conv0_2/bn
I0108 14:34:35.665618 23655 net.cpp:84] Creating Layer conv0_2/bn
I0108 14:34:35.665623 23655 net.cpp:406] conv0_2/bn <- concat0_1_concat0_1_0_split_0
I0108 14:34:35.665630 23655 net.cpp:380] conv0_2/bn -> conv0_2/bn
I0108 14:34:35.666173 23655 net.cpp:122] Setting up conv0_2/bn
I0108 14:34:35.666203 23655 net.cpp:129] Top shape: 1 56 64 217 (777728)
I0108 14:34:35.666208 23655 net.cpp:137] Memory required for data: 67486444
I0108 14:34:35.666224 23655 layer_factory.hpp:77] Creating layer conv0_2/scale
I0108 14:34:35.666239 23655 net.cpp:84] Creating Layer conv0_2/scale
I0108 14:34:35.666244 23655 net.cpp:406] conv0_2/scale <- conv0_2/bn
I0108 14:34:35.666252 23655 net.cpp:367] conv0_2/scale -> conv0_2/bn (in-place)
I0108 14:34:35.666344 23655 layer_factory.hpp:77] Creating layer conv0_2/scale
I0108 14:34:35.666631 23655 net.cpp:122] Setting up conv0_2/scale
I0108 14:34:35.666645 23655 net.cpp:129] Top shape: 1 56 64 217 (777728)
I0108 14:34:35.666648 23655 net.cpp:137] Memory required for data: 70597356
I0108 14:34:35.666666 23655 layer_factory.hpp:77] Creating layer relu0_2
I0108 14:34:35.666676 23655 net.cpp:84] Creating Layer relu0_2
I0108 14:34:35.666682 23655 net.cpp:406] relu0_2 <- conv0_2/bn
I0108 14:34:35.666688 23655 net.cpp:367] relu0_2 -> conv0_2/bn (in-place)
I0108 14:34:35.667021 23655 net.cpp:122] Setting up relu0_2
I0108 14:34:35.667039 23655 net.cpp:129] Top shape: 1 56 64 217 (777728)
I0108 14:34:35.667043 23655 net.cpp:137] Memory required for data: 73708268
I0108 14:34:35.667048 23655 layer_factory.hpp:77] Creating layer conv0_2
I0108 14:34:35.667068 23655 net.cpp:84] Creating Layer conv0_2
I0108 14:34:35.667073 23655 net.cpp:406] conv0_2 <- conv0_2/bn
I0108 14:34:35.667084 23655 net.cpp:380] conv0_2 -> conv0_2
I0108 14:34:35.670130 23655 net.cpp:122] Setting up conv0_2
I0108 14:34:35.670169 23655 net.cpp:129] Top shape: 1 12 64 217 (166656)
I0108 14:34:35.670174 23655 net.cpp:137] Memory required for data: 74374892
I0108 14:34:35.670187 23655 layer_factory.hpp:77] Creating layer concat0_2
I0108 14:34:35.670203 23655 net.cpp:84] Creating Layer concat0_2
I0108 14:34:35.670210 23655 net.cpp:406] concat0_2 <- concat0_1_concat0_1_0_split_1
I0108 14:34:35.670219 23655 net.cpp:406] concat0_2 <- conv0_2
I0108 14:34:35.670228 23655 net.cpp:380] concat0_2 -> concat0_2
I0108 14:34:35.670285 23655 net.cpp:122] Setting up concat0_2
I0108 14:34:35.670295 23655 net.cpp:129] Top shape: 1 68 64 217 (944384)
I0108 14:34:35.670297 23655 net.cpp:137] Memory required for data: 78152428
I0108 14:34:35.670301 23655 layer_factory.hpp:77] Creating layer concat0_2_concat0_2_0_split
I0108 14:34:35.670310 23655 net.cpp:84] Creating Layer concat0_2_concat0_2_0_split
I0108 14:34:35.670313 23655 net.cpp:406] concat0_2_concat0_2_0_split <- concat0_2
I0108 14:34:35.670320 23655 net.cpp:380] concat0_2_concat0_2_0_split -> concat0_2_concat0_2_0_split_0
I0108 14:34:35.670327 23655 net.cpp:380] concat0_2_concat0_2_0_split -> concat0_2_concat0_2_0_split_1
I0108 14:34:35.670398 23655 net.cpp:122] Setting up concat0_2_concat0_2_0_split
I0108 14:34:35.670405 23655 net.cpp:129] Top shape: 1 68 64 217 (944384)
I0108 14:34:35.670411 23655 net.cpp:129] Top shape: 1 68 64 217 (944384)
I0108 14:34:35.670415 23655 net.cpp:137] Memory required for data: 85707500
I0108 14:34:35.670419 23655 layer_factory.hpp:77] Creating layer conv0_3/bn
I0108 14:34:35.670428 23655 net.cpp:84] Creating Layer conv0_3/bn
I0108 14:34:35.670433 23655 net.cpp:406] conv0_3/bn <- concat0_2_concat0_2_0_split_0
I0108 14:34:35.670439 23655 net.cpp:380] conv0_3/bn -> conv0_3/bn
I0108 14:34:35.670917 23655 net.cpp:122] Setting up conv0_3/bn
I0108 14:34:35.670930 23655 net.cpp:129] Top shape: 1 68 64 217 (944384)
I0108 14:34:35.670934 23655 net.cpp:137] Memory required for data: 89485036
I0108 14:34:35.670945 23655 layer_factory.hpp:77] Creating layer conv0_3/scale
I0108 14:34:35.670958 23655 net.cpp:84] Creating Layer conv0_3/scale
I0108 14:34:35.670961 23655 net.cpp:406] conv0_3/scale <- conv0_3/bn
I0108 14:34:35.670969 23655 net.cpp:367] conv0_3/scale -> conv0_3/bn (in-place)
I0108 14:34:35.671049 23655 layer_factory.hpp:77] Creating layer conv0_3/scale
I0108 14:34:35.671319 23655 net.cpp:122] Setting up conv0_3/scale
I0108 14:34:35.671329 23655 net.cpp:129] Top shape: 1 68 64 217 (944384)
I0108 14:34:35.671334 23655 net.cpp:137] Memory required for data: 93262572
I0108 14:34:35.671341 23655 layer_factory.hpp:77] Creating layer relu0_3
I0108 14:34:35.671350 23655 net.cpp:84] Creating Layer relu0_3
I0108 14:34:35.671355 23655 net.cpp:406] relu0_3 <- conv0_3/bn
I0108 14:34:35.671361 23655 net.cpp:367] relu0_3 -> conv0_3/bn (in-place)
I0108 14:34:35.672144 23655 net.cpp:122] Setting up relu0_3
I0108 14:34:35.672168 23655 net.cpp:129] Top shape: 1 68 64 217 (944384)
I0108 14:34:35.672173 23655 net.cpp:137] Memory required for data: 97040108
I0108 14:34:35.672179 23655 layer_factory.hpp:77] Creating layer conv0_3
I0108 14:34:35.672197 23655 net.cpp:84] Creating Layer conv0_3
I0108 14:34:35.672204 23655 net.cpp:406] conv0_3 <- conv0_3/bn
I0108 14:34:35.672211 23655 net.cpp:380] conv0_3 -> conv0_3
I0108 14:34:35.676147 23655 net.cpp:122] Setting up conv0_3
I0108 14:34:35.676189 23655 net.cpp:129] Top shape: 1 12 64 217 (166656)
I0108 14:34:35.676195 23655 net.cpp:137] Memory required for data: 97706732
I0108 14:34:35.676208 23655 layer_factory.hpp:77] Creating layer concat0_3
I0108 14:34:35.676224 23655 net.cpp:84] Creating Layer concat0_3
I0108 14:34:35.676231 23655 net.cpp:406] concat0_3 <- concat0_2_concat0_2_0_split_1
I0108 14:34:35.676239 23655 net.cpp:406] concat0_3 <- conv0_3
I0108 14:34:35.676247 23655 net.cpp:380] concat0_3 -> concat0_3
I0108 14:34:35.676321 23655 net.cpp:122] Setting up concat0_3
I0108 14:34:35.676331 23655 net.cpp:129] Top shape: 1 80 64 217 (1111040)
I0108 14:34:35.676336 23655 net.cpp:137] Memory required for data: 102150892
I0108 14:34:35.676339 23655 layer_factory.hpp:77] Creating layer concat0_3_concat0_3_0_split
I0108 14:34:35.676347 23655 net.cpp:84] Creating Layer concat0_3_concat0_3_0_split
I0108 14:34:35.676350 23655 net.cpp:406] concat0_3_concat0_3_0_split <- concat0_3
I0108 14:34:35.676357 23655 net.cpp:380] concat0_3_concat0_3_0_split -> concat0_3_concat0_3_0_split_0
I0108 14:34:35.676364 23655 net.cpp:380] concat0_3_concat0_3_0_split -> concat0_3_concat0_3_0_split_1
I0108 14:34:35.676440 23655 net.cpp:122] Setting up concat0_3_concat0_3_0_split
I0108 14:34:35.676448 23655 net.cpp:129] Top shape: 1 80 64 217 (1111040)
I0108 14:34:35.676455 23655 net.cpp:129] Top shape: 1 80 64 217 (1111040)
I0108 14:34:35.676458 23655 net.cpp:137] Memory required for data: 111039212
I0108 14:34:35.676462 23655 layer_factory.hpp:77] Creating layer conv0_4/bn
I0108 14:34:35.676475 23655 net.cpp:84] Creating Layer conv0_4/bn
I0108 14:34:35.676479 23655 net.cpp:406] conv0_4/bn <- concat0_3_concat0_3_0_split_0
I0108 14:34:35.676487 23655 net.cpp:380] conv0_4/bn -> conv0_4/bn
I0108 14:34:35.676973 23655 net.cpp:122] Setting up conv0_4/bn
I0108 14:34:35.676985 23655 net.cpp:129] Top shape: 1 80 64 217 (1111040)
I0108 14:34:35.676988 23655 net.cpp:137] Memory required for data: 115483372
I0108 14:34:35.677006 23655 layer_factory.hpp:77] Creating layer conv0_4/scale
I0108 14:34:35.677017 23655 net.cpp:84] Creating Layer conv0_4/scale
I0108 14:34:35.677022 23655 net.cpp:406] conv0_4/scale <- conv0_4/bn
I0108 14:34:35.677031 23655 net.cpp:367] conv0_4/scale -> conv0_4/bn (in-place)
I0108 14:34:35.677114 23655 layer_factory.hpp:77] Creating layer conv0_4/scale
I0108 14:34:35.677404 23655 net.cpp:122] Setting up conv0_4/scale
I0108 14:34:35.677418 23655 net.cpp:129] Top shape: 1 80 64 217 (1111040)
I0108 14:34:35.677423 23655 net.cpp:137] Memory required for data: 119927532
I0108 14:34:35.677431 23655 layer_factory.hpp:77] Creating layer relu0_4
I0108 14:34:35.677440 23655 net.cpp:84] Creating Layer relu0_4
I0108 14:34:35.677445 23655 net.cpp:406] relu0_4 <- conv0_4/bn
I0108 14:34:35.677453 23655 net.cpp:367] relu0_4 -> conv0_4/bn (in-place)
I0108 14:34:35.678292 23655 net.cpp:122] Setting up relu0_4
I0108 14:34:35.678335 23655 net.cpp:129] Top shape: 1 80 64 217 (1111040)
I0108 14:34:35.678345 23655 net.cpp:137] Memory required for data: 124371692
I0108 14:34:35.678354 23655 layer_factory.hpp:77] Creating layer conv0_4
I0108 14:34:35.678386 23655 net.cpp:84] Creating Layer conv0_4
I0108 14:34:35.678397 23655 net.cpp:406] conv0_4 <- conv0_4/bn
I0108 14:34:35.678412 23655 net.cpp:380] conv0_4 -> conv0_4
I0108 14:34:35.683778 23655 net.cpp:122] Setting up conv0_4
I0108 14:34:35.683827 23655 net.cpp:129] Top shape: 1 12 64 217 (166656)
I0108 14:34:35.683836 23655 net.cpp:137] Memory required for data: 125038316
I0108 14:34:35.683851 23655 layer_factory.hpp:77] Creating layer concat0_4
I0108 14:34:35.683867 23655 net.cpp:84] Creating Layer concat0_4
I0108 14:34:35.683877 23655 net.cpp:406] concat0_4 <- concat0_3_concat0_3_0_split_1
I0108 14:34:35.683889 23655 net.cpp:406] concat0_4 <- conv0_4
I0108 14:34:35.683902 23655 net.cpp:380] concat0_4 -> concat0_4
I0108 14:34:35.683974 23655 net.cpp:122] Setting up concat0_4
I0108 14:34:35.683984 23655 net.cpp:129] Top shape: 1 92 64 217 (1277696)
I0108 14:34:35.684000 23655 net.cpp:137] Memory required for data: 130149100
I0108 14:34:35.684007 23655 layer_factory.hpp:77] Creating layer BatchNorm1
I0108 14:34:35.684020 23655 net.cpp:84] Creating Layer BatchNorm1
I0108 14:34:35.684027 23655 net.cpp:406] BatchNorm1 <- concat0_4
I0108 14:34:35.684037 23655 net.cpp:380] BatchNorm1 -> BatchNorm1
I0108 14:34:35.684698 23655 net.cpp:122] Setting up BatchNorm1
I0108 14:34:35.684725 23655 net.cpp:129] Top shape: 1 92 64 217 (1277696)
I0108 14:34:35.684731 23655 net.cpp:137] Memory required for data: 135259884
I0108 14:34:35.684747 23655 layer_factory.hpp:77] Creating layer Scale1
I0108 14:34:35.684762 23655 net.cpp:84] Creating Layer Scale1
I0108 14:34:35.684770 23655 net.cpp:406] Scale1 <- BatchNorm1
I0108 14:34:35.684783 23655 net.cpp:367] Scale1 -> BatchNorm1 (in-place)
I0108 14:34:35.684890 23655 layer_factory.hpp:77] Creating layer Scale1
I0108 14:34:35.686751 23655 net.cpp:122] Setting up Scale1
I0108 14:34:35.686787 23655 net.cpp:129] Top shape: 1 92 64 217 (1277696)
I0108 14:34:35.686792 23655 net.cpp:137] Memory required for data: 140370668
I0108 14:34:35.686805 23655 layer_factory.hpp:77] Creating layer ReLU1
I0108 14:34:35.686816 23655 net.cpp:84] Creating Layer ReLU1
I0108 14:34:35.686822 23655 net.cpp:406] ReLU1 <- BatchNorm1
I0108 14:34:35.686831 23655 net.cpp:367] ReLU1 -> BatchNorm1 (in-place)
I0108 14:34:35.687151 23655 net.cpp:122] Setting up ReLU1
I0108 14:34:35.687162 23655 net.cpp:129] Top shape: 1 92 64 217 (1277696)
I0108 14:34:35.687166 23655 net.cpp:137] Memory required for data: 145481452
I0108 14:34:35.687171 23655 layer_factory.hpp:77] Creating layer conv0_blk
I0108 14:34:35.687186 23655 net.cpp:84] Creating Layer conv0_blk
I0108 14:34:35.687191 23655 net.cpp:406] conv0_blk <- BatchNorm1
I0108 14:34:35.687201 23655 net.cpp:380] conv0_blk -> conv0_blk
I0108 14:34:35.720005 23655 net.cpp:122] Setting up conv0_blk
I0108 14:34:35.720043 23655 net.cpp:129] Top shape: 1 92 64 217 (1277696)
I0108 14:34:35.720048 23655 net.cpp:137] Memory required for data: 150592236
I0108 14:34:35.720059 23655 layer_factory.hpp:77] Creating layer pool0
I0108 14:34:35.720074 23655 net.cpp:84] Creating Layer pool0
I0108 14:34:35.720080 23655 net.cpp:406] pool0 <- conv0_blk
I0108 14:34:35.720090 23655 net.cpp:380] pool0 -> pool0
I0108 14:34:35.720713 23655 net.cpp:122] Setting up pool0
I0108 14:34:35.720727 23655 net.cpp:129] Top shape: 1 92 32 109 (320896)
I0108 14:34:35.720732 23655 net.cpp:137] Memory required for data: 151875820
I0108 14:34:35.720736 23655 layer_factory.hpp:77] Creating layer pool0_pool0_0_split
I0108 14:34:35.720746 23655 net.cpp:84] Creating Layer pool0_pool0_0_split
I0108 14:34:35.720749 23655 net.cpp:406] pool0_pool0_0_split <- pool0
I0108 14:34:35.720755 23655 net.cpp:380] pool0_pool0_0_split -> pool0_pool0_0_split_0
I0108 14:34:35.720765 23655 net.cpp:380] pool0_pool0_0_split -> pool0_pool0_0_split_1
I0108 14:34:35.720836 23655 net.cpp:122] Setting up pool0_pool0_0_split
I0108 14:34:35.720844 23655 net.cpp:129] Top shape: 1 92 32 109 (320896)
I0108 14:34:35.720849 23655 net.cpp:129] Top shape: 1 92 32 109 (320896)
I0108 14:34:35.720852 23655 net.cpp:137] Memory required for data: 154442988
I0108 14:34:35.720856 23655 layer_factory.hpp:77] Creating layer conv1_0/bn
I0108 14:34:35.720865 23655 net.cpp:84] Creating Layer conv1_0/bn
I0108 14:34:35.720870 23655 net.cpp:406] conv1_0/bn <- pool0_pool0_0_split_0
I0108 14:34:35.720876 23655 net.cpp:380] conv1_0/bn -> conv1_0/bn
I0108 14:34:35.721323 23655 net.cpp:122] Setting up conv1_0/bn
I0108 14:34:35.721333 23655 net.cpp:129] Top shape: 1 92 32 109 (320896)
I0108 14:34:35.721335 23655 net.cpp:137] Memory required for data: 155726572
I0108 14:34:35.721345 23655 layer_factory.hpp:77] Creating layer conv1_0/scale
I0108 14:34:35.721356 23655 net.cpp:84] Creating Layer conv1_0/scale
I0108 14:34:35.721360 23655 net.cpp:406] conv1_0/scale <- conv1_0/bn
I0108 14:34:35.721366 23655 net.cpp:367] conv1_0/scale -> conv1_0/bn (in-place)
I0108 14:34:35.721442 23655 layer_factory.hpp:77] Creating layer conv1_0/scale
I0108 14:34:35.721693 23655 net.cpp:122] Setting up conv1_0/scale
I0108 14:34:35.721702 23655 net.cpp:129] Top shape: 1 92 32 109 (320896)
I0108 14:34:35.721706 23655 net.cpp:137] Memory required for data: 157010156
I0108 14:34:35.721712 23655 layer_factory.hpp:77] Creating layer relu1_0
I0108 14:34:35.721720 23655 net.cpp:84] Creating Layer relu1_0
I0108 14:34:35.721724 23655 net.cpp:406] relu1_0 <- conv1_0/bn
I0108 14:34:35.721729 23655 net.cpp:367] relu1_0 -> conv1_0/bn (in-place)
I0108 14:34:35.722512 23655 net.cpp:122] Setting up relu1_0
I0108 14:34:35.722527 23655 net.cpp:129] Top shape: 1 92 32 109 (320896)
I0108 14:34:35.722530 23655 net.cpp:137] Memory required for data: 158293740
I0108 14:34:35.722535 23655 layer_factory.hpp:77] Creating layer conv1_0
I0108 14:34:35.722549 23655 net.cpp:84] Creating Layer conv1_0
I0108 14:34:35.722554 23655 net.cpp:406] conv1_0 <- conv1_0/bn
I0108 14:34:35.722563 23655 net.cpp:380] conv1_0 -> conv1_0
I0108 14:34:35.780181 23655 net.cpp:122] Setting up conv1_0
I0108 14:34:35.780223 23655 net.cpp:129] Top shape: 1 12 32 109 (41856)
I0108 14:34:35.780228 23655 net.cpp:137] Memory required for data: 158461164
I0108 14:34:35.780242 23655 layer_factory.hpp:77] Creating layer concat1_0
I0108 14:34:35.780258 23655 net.cpp:84] Creating Layer concat1_0
I0108 14:34:35.780266 23655 net.cpp:406] concat1_0 <- pool0_pool0_0_split_1
I0108 14:34:35.780273 23655 net.cpp:406] concat1_0 <- conv1_0
I0108 14:34:35.780282 23655 net.cpp:380] concat1_0 -> concat1_0
I0108 14:34:35.780349 23655 net.cpp:122] Setting up concat1_0
I0108 14:34:35.780357 23655 net.cpp:129] Top shape: 1 104 32 109 (362752)
I0108 14:34:35.780361 23655 net.cpp:137] Memory required for data: 159912172
I0108 14:34:35.780365 23655 layer_factory.hpp:77] Creating layer concat1_0_concat1_0_0_split
I0108 14:34:35.780371 23655 net.cpp:84] Creating Layer concat1_0_concat1_0_0_split
I0108 14:34:35.780376 23655 net.cpp:406] concat1_0_concat1_0_0_split <- concat1_0
I0108 14:34:35.780385 23655 net.cpp:380] concat1_0_concat1_0_0_split -> concat1_0_concat1_0_0_split_0
I0108 14:34:35.780391 23655 net.cpp:380] concat1_0_concat1_0_0_split -> concat1_0_concat1_0_0_split_1
I0108 14:34:35.780465 23655 net.cpp:122] Setting up concat1_0_concat1_0_0_split
I0108 14:34:35.780473 23655 net.cpp:129] Top shape: 1 104 32 109 (362752)
I0108 14:34:35.780478 23655 net.cpp:129] Top shape: 1 104 32 109 (362752)
I0108 14:34:35.780483 23655 net.cpp:137] Memory required for data: 162814188
I0108 14:34:35.780486 23655 layer_factory.hpp:77] Creating layer conv1_1/bn
I0108 14:34:35.780495 23655 net.cpp:84] Creating Layer conv1_1/bn
I0108 14:34:35.780500 23655 net.cpp:406] conv1_1/bn <- concat1_0_concat1_0_0_split_0
I0108 14:34:35.780509 23655 net.cpp:380] conv1_1/bn -> conv1_1/bn
I0108 14:34:35.780993 23655 net.cpp:122] Setting up conv1_1/bn
I0108 14:34:35.781006 23655 net.cpp:129] Top shape: 1 104 32 109 (362752)
I0108 14:34:35.781010 23655 net.cpp:137] Memory required for data: 164265196
I0108 14:34:35.781021 23655 layer_factory.hpp:77] Creating layer conv1_1/scale
I0108 14:34:35.781031 23655 net.cpp:84] Creating Layer conv1_1/scale
I0108 14:34:35.781036 23655 net.cpp:406] conv1_1/scale <- conv1_1/bn
I0108 14:34:35.781044 23655 net.cpp:367] conv1_1/scale -> conv1_1/bn (in-place)
I0108 14:34:35.781123 23655 layer_factory.hpp:77] Creating layer conv1_1/scale
I0108 14:34:35.781378 23655 net.cpp:122] Setting up conv1_1/scale
I0108 14:34:35.781388 23655 net.cpp:129] Top shape: 1 104 32 109 (362752)
I0108 14:34:35.781391 23655 net.cpp:137] Memory required for data: 165716204
I0108 14:34:35.781399 23655 layer_factory.hpp:77] Creating layer relu1_1
I0108 14:34:35.781409 23655 net.cpp:84] Creating Layer relu1_1
I0108 14:34:35.781414 23655 net.cpp:406] relu1_1 <- conv1_1/bn
I0108 14:34:35.781419 23655 net.cpp:367] relu1_1 -> conv1_1/bn (in-place)
I0108 14:34:35.782130 23655 net.cpp:122] Setting up relu1_1
I0108 14:34:35.782155 23655 net.cpp:129] Top shape: 1 104 32 109 (362752)
I0108 14:34:35.782160 23655 net.cpp:137] Memory required for data: 167167212
I0108 14:34:35.782165 23655 layer_factory.hpp:77] Creating layer conv1_1
I0108 14:34:35.782192 23655 net.cpp:84] Creating Layer conv1_1
I0108 14:34:35.782199 23655 net.cpp:406] conv1_1 <- conv1_1/bn
I0108 14:34:35.782208 23655 net.cpp:380] conv1_1 -> conv1_1
I0108 14:34:35.785987 23655 net.cpp:122] Setting up conv1_1
I0108 14:34:35.786029 23655 net.cpp:129] Top shape: 1 12 32 109 (41856)
I0108 14:34:35.786038 23655 net.cpp:137] Memory required for data: 167334636
I0108 14:34:35.786051 23655 layer_factory.hpp:77] Creating layer concat1_1
I0108 14:34:35.786065 23655 net.cpp:84] Creating Layer concat1_1
I0108 14:34:35.786073 23655 net.cpp:406] concat1_1 <- concat1_0_concat1_0_0_split_1
I0108 14:34:35.786082 23655 net.cpp:406] concat1_1 <- conv1_1
I0108 14:34:35.786089 23655 net.cpp:380] concat1_1 -> concat1_1
I0108 14:34:35.786175 23655 net.cpp:122] Setting up concat1_1
I0108 14:34:35.786182 23655 net.cpp:129] Top shape: 1 116 32 109 (404608)
I0108 14:34:35.786185 23655 net.cpp:137] Memory required for data: 168953068
I0108 14:34:35.786190 23655 layer_factory.hpp:77] Creating layer concat1_1_concat1_1_0_split
I0108 14:34:35.786197 23655 net.cpp:84] Creating Layer concat1_1_concat1_1_0_split
I0108 14:34:35.786201 23655 net.cpp:406] concat1_1_concat1_1_0_split <- concat1_1
I0108 14:34:35.786208 23655 net.cpp:380] concat1_1_concat1_1_0_split -> concat1_1_concat1_1_0_split_0
I0108 14:34:35.786216 23655 net.cpp:380] concat1_1_concat1_1_0_split -> concat1_1_concat1_1_0_split_1
I0108 14:34:35.786294 23655 net.cpp:122] Setting up concat1_1_concat1_1_0_split
I0108 14:34:35.786303 23655 net.cpp:129] Top shape: 1 116 32 109 (404608)
I0108 14:34:35.786309 23655 net.cpp:129] Top shape: 1 116 32 109 (404608)
I0108 14:34:35.786314 23655 net.cpp:137] Memory required for data: 172189932
I0108 14:34:35.786317 23655 layer_factory.hpp:77] Creating layer conv1_2/bn
I0108 14:34:35.786324 23655 net.cpp:84] Creating Layer conv1_2/bn
I0108 14:34:35.786329 23655 net.cpp:406] conv1_2/bn <- concat1_1_concat1_1_0_split_0
I0108 14:34:35.786337 23655 net.cpp:380] conv1_2/bn -> conv1_2/bn
I0108 14:34:35.786835 23655 net.cpp:122] Setting up conv1_2/bn
I0108 14:34:35.786851 23655 net.cpp:129] Top shape: 1 116 32 109 (404608)
I0108 14:34:35.786855 23655 net.cpp:137] Memory required for data: 173808364
I0108 14:34:35.786866 23655 layer_factory.hpp:77] Creating layer conv1_2/scale
I0108 14:34:35.786878 23655 net.cpp:84] Creating Layer conv1_2/scale
I0108 14:34:35.786885 23655 net.cpp:406] conv1_2/scale <- conv1_2/bn
I0108 14:34:35.786892 23655 net.cpp:367] conv1_2/scale -> conv1_2/bn (in-place)
I0108 14:34:35.786976 23655 layer_factory.hpp:77] Creating layer conv1_2/scale
I0108 14:34:35.787235 23655 net.cpp:122] Setting up conv1_2/scale
I0108 14:34:35.787245 23655 net.cpp:129] Top shape: 1 116 32 109 (404608)
I0108 14:34:35.787248 23655 net.cpp:137] Memory required for data: 175426796
I0108 14:34:35.787256 23655 layer_factory.hpp:77] Creating layer relu1_2
I0108 14:34:35.787264 23655 net.cpp:84] Creating Layer relu1_2
I0108 14:34:35.787269 23655 net.cpp:406] relu1_2 <- conv1_2/bn
I0108 14:34:35.787276 23655 net.cpp:367] relu1_2 -> conv1_2/bn (in-place)
I0108 14:34:35.787988 23655 net.cpp:122] Setting up relu1_2
I0108 14:34:35.788010 23655 net.cpp:129] Top shape: 1 116 32 109 (404608)
I0108 14:34:35.788017 23655 net.cpp:137] Memory required for data: 177045228
I0108 14:34:35.788022 23655 layer_factory.hpp:77] Creating layer conv1_2
I0108 14:34:35.788039 23655 net.cpp:84] Creating Layer conv1_2
I0108 14:34:35.788046 23655 net.cpp:406] conv1_2 <- conv1_2/bn
I0108 14:34:35.788058 23655 net.cpp:380] conv1_2 -> conv1_2
I0108 14:34:35.791807 23655 net.cpp:122] Setting up conv1_2
I0108 14:34:35.791844 23655 net.cpp:129] Top shape: 1 12 32 109 (41856)
I0108 14:34:35.791849 23655 net.cpp:137] Memory required for data: 177212652
I0108 14:34:35.791862 23655 layer_factory.hpp:77] Creating layer concat1_2
I0108 14:34:35.791875 23655 net.cpp:84] Creating Layer concat1_2
I0108 14:34:35.791883 23655 net.cpp:406] concat1_2 <- concat1_1_concat1_1_0_split_1
I0108 14:34:35.791891 23655 net.cpp:406] concat1_2 <- conv1_2
I0108 14:34:35.791906 23655 net.cpp:380] concat1_2 -> concat1_2
I0108 14:34:35.791976 23655 net.cpp:122] Setting up concat1_2
I0108 14:34:35.791985 23655 net.cpp:129] Top shape: 1 128 32 109 (446464)
I0108 14:34:35.791990 23655 net.cpp:137] Memory required for data: 178998508
I0108 14:34:35.791993 23655 layer_factory.hpp:77] Creating layer concat1_2_concat1_2_0_split
I0108 14:34:35.792001 23655 net.cpp:84] Creating Layer concat1_2_concat1_2_0_split
I0108 14:34:35.792004 23655 net.cpp:406] concat1_2_concat1_2_0_split <- concat1_2
I0108 14:34:35.792011 23655 net.cpp:380] concat1_2_concat1_2_0_split -> concat1_2_concat1_2_0_split_0
I0108 14:34:35.792019 23655 net.cpp:380] concat1_2_concat1_2_0_split -> concat1_2_concat1_2_0_split_1
I0108 14:34:35.792098 23655 net.cpp:122] Setting up concat1_2_concat1_2_0_split
I0108 14:34:35.792105 23655 net.cpp:129] Top shape: 1 128 32 109 (446464)
I0108 14:34:35.792111 23655 net.cpp:129] Top shape: 1 128 32 109 (446464)
I0108 14:34:35.792114 23655 net.cpp:137] Memory required for data: 182570220
I0108 14:34:35.792119 23655 layer_factory.hpp:77] Creating layer conv1_3/bn
I0108 14:34:35.792129 23655 net.cpp:84] Creating Layer conv1_3/bn
I0108 14:34:35.792132 23655 net.cpp:406] conv1_3/bn <- concat1_2_concat1_2_0_split_0
I0108 14:34:35.792138 23655 net.cpp:380] conv1_3/bn -> conv1_3/bn
I0108 14:34:35.792587 23655 net.cpp:122] Setting up conv1_3/bn
I0108 14:34:35.792596 23655 net.cpp:129] Top shape: 1 128 32 109 (446464)
I0108 14:34:35.792600 23655 net.cpp:137] Memory required for data: 184356076
I0108 14:34:35.792613 23655 layer_factory.hpp:77] Creating layer conv1_3/scale
I0108 14:34:35.792623 23655 net.cpp:84] Creating Layer conv1_3/scale
I0108 14:34:35.792629 23655 net.cpp:406] conv1_3/scale <- conv1_3/bn
I0108 14:34:35.792634 23655 net.cpp:367] conv1_3/scale -> conv1_3/bn (in-place)
I0108 14:34:35.792714 23655 layer_factory.hpp:77] Creating layer conv1_3/scale
I0108 14:34:35.792948 23655 net.cpp:122] Setting up conv1_3/scale
I0108 14:34:35.792956 23655 net.cpp:129] Top shape: 1 128 32 109 (446464)
I0108 14:34:35.792960 23655 net.cpp:137] Memory required for data: 186141932
I0108 14:34:35.792984 23655 layer_factory.hpp:77] Creating layer relu1_3
I0108 14:34:35.792994 23655 net.cpp:84] Creating Layer relu1_3
I0108 14:34:35.792999 23655 net.cpp:406] relu1_3 <- conv1_3/bn
I0108 14:34:35.793004 23655 net.cpp:367] relu1_3 -> conv1_3/bn (in-place)
I0108 14:34:35.793299 23655 net.cpp:122] Setting up relu1_3
I0108 14:34:35.793313 23655 net.cpp:129] Top shape: 1 128 32 109 (446464)
I0108 14:34:35.793318 23655 net.cpp:137] Memory required for data: 187927788
I0108 14:34:35.793321 23655 layer_factory.hpp:77] Creating layer conv1_3
I0108 14:34:35.793339 23655 net.cpp:84] Creating Layer conv1_3
I0108 14:34:35.793345 23655 net.cpp:406] conv1_3 <- conv1_3/bn
I0108 14:34:35.793352 23655 net.cpp:380] conv1_3 -> conv1_3
I0108 14:34:35.796149 23655 net.cpp:122] Setting up conv1_3
I0108 14:34:35.796183 23655 net.cpp:129] Top shape: 1 12 32 109 (41856)
I0108 14:34:35.796188 23655 net.cpp:137] Memory required for data: 188095212
I0108 14:34:35.796200 23655 layer_factory.hpp:77] Creating layer concat1_3
I0108 14:34:35.796214 23655 net.cpp:84] Creating Layer concat1_3
I0108 14:34:35.796221 23655 net.cpp:406] concat1_3 <- concat1_2_concat1_2_0_split_1
I0108 14:34:35.796229 23655 net.cpp:406] concat1_3 <- conv1_3
I0108 14:34:35.796236 23655 net.cpp:380] concat1_3 -> concat1_3
I0108 14:34:35.796291 23655 net.cpp:122] Setting up concat1_3
I0108 14:34:35.796299 23655 net.cpp:129] Top shape: 1 140 32 109 (488320)
I0108 14:34:35.796303 23655 net.cpp:137] Memory required for data: 190048492
I0108 14:34:35.796308 23655 layer_factory.hpp:77] Creating layer concat1_3_concat1_3_0_split
I0108 14:34:35.796315 23655 net.cpp:84] Creating Layer concat1_3_concat1_3_0_split
I0108 14:34:35.796319 23655 net.cpp:406] concat1_3_concat1_3_0_split <- concat1_3
I0108 14:34:35.796325 23655 net.cpp:380] concat1_3_concat1_3_0_split -> concat1_3_concat1_3_0_split_0
I0108 14:34:35.796334 23655 net.cpp:380] concat1_3_concat1_3_0_split -> concat1_3_concat1_3_0_split_1
I0108 14:34:35.796412 23655 net.cpp:122] Setting up concat1_3_concat1_3_0_split
I0108 14:34:35.796422 23655 net.cpp:129] Top shape: 1 140 32 109 (488320)
I0108 14:34:35.796427 23655 net.cpp:129] Top shape: 1 140 32 109 (488320)
I0108 14:34:35.796430 23655 net.cpp:137] Memory required for data: 193955052
I0108 14:34:35.796434 23655 layer_factory.hpp:77] Creating layer conv1_4/bn
I0108 14:34:35.796443 23655 net.cpp:84] Creating Layer conv1_4/bn
I0108 14:34:35.796447 23655 net.cpp:406] conv1_4/bn <- concat1_3_concat1_3_0_split_0
I0108 14:34:35.796455 23655 net.cpp:380] conv1_4/bn -> conv1_4/bn
I0108 14:34:35.796933 23655 net.cpp:122] Setting up conv1_4/bn
I0108 14:34:35.796944 23655 net.cpp:129] Top shape: 1 140 32 109 (488320)
I0108 14:34:35.796948 23655 net.cpp:137] Memory required for data: 195908332
I0108 14:34:35.796958 23655 layer_factory.hpp:77] Creating layer conv1_4/scale
I0108 14:34:35.796967 23655 net.cpp:84] Creating Layer conv1_4/scale
I0108 14:34:35.796972 23655 net.cpp:406] conv1_4/scale <- conv1_4/bn
I0108 14:34:35.796979 23655 net.cpp:367] conv1_4/scale -> conv1_4/bn (in-place)
I0108 14:34:35.797058 23655 layer_factory.hpp:77] Creating layer conv1_4/scale
I0108 14:34:35.797307 23655 net.cpp:122] Setting up conv1_4/scale
I0108 14:34:35.797315 23655 net.cpp:129] Top shape: 1 140 32 109 (488320)
I0108 14:34:35.797319 23655 net.cpp:137] Memory required for data: 197861612
I0108 14:34:35.797327 23655 layer_factory.hpp:77] Creating layer relu1_4
I0108 14:34:35.797334 23655 net.cpp:84] Creating Layer relu1_4
I0108 14:34:35.797339 23655 net.cpp:406] relu1_4 <- conv1_4/bn
I0108 14:34:35.797346 23655 net.cpp:367] relu1_4 -> conv1_4/bn (in-place)
I0108 14:34:35.797986 23655 net.cpp:122] Setting up relu1_4
I0108 14:34:35.798002 23655 net.cpp:129] Top shape: 1 140 32 109 (488320)
I0108 14:34:35.798007 23655 net.cpp:137] Memory required for data: 199814892
I0108 14:34:35.798012 23655 layer_factory.hpp:77] Creating layer conv1_4
I0108 14:34:35.798025 23655 net.cpp:84] Creating Layer conv1_4
I0108 14:34:35.798030 23655 net.cpp:406] conv1_4 <- conv1_4/bn
I0108 14:34:35.798039 23655 net.cpp:380] conv1_4 -> conv1_4
I0108 14:34:35.800853 23655 net.cpp:122] Setting up conv1_4
I0108 14:34:35.800889 23655 net.cpp:129] Top shape: 1 12 32 109 (41856)
I0108 14:34:35.800894 23655 net.cpp:137] Memory required for data: 199982316
I0108 14:34:35.800904 23655 layer_factory.hpp:77] Creating layer concat1_4
I0108 14:34:35.800920 23655 net.cpp:84] Creating Layer concat1_4
I0108 14:34:35.800927 23655 net.cpp:406] concat1_4 <- concat1_3_concat1_3_0_split_1
I0108 14:34:35.800935 23655 net.cpp:406] concat1_4 <- conv1_4
I0108 14:34:35.800943 23655 net.cpp:380] concat1_4 -> concat1_4
I0108 14:34:35.801002 23655 net.cpp:122] Setting up concat1_4
I0108 14:34:35.801010 23655 net.cpp:129] Top shape: 1 152 32 109 (530176)
I0108 14:34:35.801014 23655 net.cpp:137] Memory required for data: 202103020
I0108 14:34:35.801018 23655 layer_factory.hpp:77] Creating layer concat1_4_concat1_4_0_split
I0108 14:34:35.801026 23655 net.cpp:84] Creating Layer concat1_4_concat1_4_0_split
I0108 14:34:35.801031 23655 net.cpp:406] concat1_4_concat1_4_0_split <- concat1_4
I0108 14:34:35.801038 23655 net.cpp:380] concat1_4_concat1_4_0_split -> concat1_4_concat1_4_0_split_0
I0108 14:34:35.801045 23655 net.cpp:380] concat1_4_concat1_4_0_split -> concat1_4_concat1_4_0_split_1
I0108 14:34:35.801120 23655 net.cpp:122] Setting up concat1_4_concat1_4_0_split
I0108 14:34:35.801127 23655 net.cpp:129] Top shape: 1 152 32 109 (530176)
I0108 14:34:35.801133 23655 net.cpp:129] Top shape: 1 152 32 109 (530176)
I0108 14:34:35.801137 23655 net.cpp:137] Memory required for data: 206344428
I0108 14:34:35.801141 23655 layer_factory.hpp:77] Creating layer conv1_5/bn
I0108 14:34:35.801149 23655 net.cpp:84] Creating Layer conv1_5/bn
I0108 14:34:35.801154 23655 net.cpp:406] conv1_5/bn <- concat1_4_concat1_4_0_split_0
I0108 14:34:35.801162 23655 net.cpp:380] conv1_5/bn -> conv1_5/bn
I0108 14:34:35.801647 23655 net.cpp:122] Setting up conv1_5/bn
I0108 14:34:35.801666 23655 net.cpp:129] Top shape: 1 152 32 109 (530176)
I0108 14:34:35.801671 23655 net.cpp:137] Memory required for data: 208465132
I0108 14:34:35.801682 23655 layer_factory.hpp:77] Creating layer conv1_5/scale
I0108 14:34:35.801693 23655 net.cpp:84] Creating Layer conv1_5/scale
I0108 14:34:35.801697 23655 net.cpp:406] conv1_5/scale <- conv1_5/bn
I0108 14:34:35.801705 23655 net.cpp:367] conv1_5/scale -> conv1_5/bn (in-place)
I0108 14:34:35.801791 23655 layer_factory.hpp:77] Creating layer conv1_5/scale
I0108 14:34:35.802050 23655 net.cpp:122] Setting up conv1_5/scale
I0108 14:34:35.802059 23655 net.cpp:129] Top shape: 1 152 32 109 (530176)
I0108 14:34:35.802063 23655 net.cpp:137] Memory required for data: 210585836
I0108 14:34:35.802070 23655 layer_factory.hpp:77] Creating layer relu1_5
I0108 14:34:35.802078 23655 net.cpp:84] Creating Layer relu1_5
I0108 14:34:35.802083 23655 net.cpp:406] relu1_5 <- conv1_5/bn
I0108 14:34:35.802089 23655 net.cpp:367] relu1_5 -> conv1_5/bn (in-place)
I0108 14:34:35.802404 23655 net.cpp:122] Setting up relu1_5
I0108 14:34:35.802418 23655 net.cpp:129] Top shape: 1 152 32 109 (530176)
I0108 14:34:35.802423 23655 net.cpp:137] Memory required for data: 212706540
I0108 14:34:35.802428 23655 layer_factory.hpp:77] Creating layer conv1_5
I0108 14:34:35.802440 23655 net.cpp:84] Creating Layer conv1_5
I0108 14:34:35.802444 23655 net.cpp:406] conv1_5 <- conv1_5/bn
I0108 14:34:35.802453 23655 net.cpp:380] conv1_5 -> conv1_5
I0108 14:34:35.806723 23655 net.cpp:122] Setting up conv1_5
I0108 14:34:35.806761 23655 net.cpp:129] Top shape: 1 12 32 109 (41856)
I0108 14:34:35.806766 23655 net.cpp:137] Memory required for data: 212873964
I0108 14:34:35.806777 23655 layer_factory.hpp:77] Creating layer concat1_5
I0108 14:34:35.806792 23655 net.cpp:84] Creating Layer concat1_5
I0108 14:34:35.806798 23655 net.cpp:406] concat1_5 <- concat1_4_concat1_4_0_split_1
I0108 14:34:35.806807 23655 net.cpp:406] concat1_5 <- conv1_5
I0108 14:34:35.806815 23655 net.cpp:380] concat1_5 -> concat1_5
I0108 14:34:35.806880 23655 net.cpp:122] Setting up concat1_5
I0108 14:34:35.806890 23655 net.cpp:129] Top shape: 1 164 32 109 (572032)
I0108 14:34:35.806895 23655 net.cpp:137] Memory required for data: 215162092
I0108 14:34:35.806898 23655 layer_factory.hpp:77] Creating layer concat1_5_concat1_5_0_split
I0108 14:34:35.806906 23655 net.cpp:84] Creating Layer concat1_5_concat1_5_0_split
I0108 14:34:35.806910 23655 net.cpp:406] concat1_5_concat1_5_0_split <- concat1_5
I0108 14:34:35.806917 23655 net.cpp:380] concat1_5_concat1_5_0_split -> concat1_5_concat1_5_0_split_0
I0108 14:34:35.806924 23655 net.cpp:380] concat1_5_concat1_5_0_split -> concat1_5_concat1_5_0_split_1
I0108 14:34:35.806998 23655 net.cpp:122] Setting up concat1_5_concat1_5_0_split
I0108 14:34:35.807006 23655 net.cpp:129] Top shape: 1 164 32 109 (572032)
I0108 14:34:35.807013 23655 net.cpp:129] Top shape: 1 164 32 109 (572032)
I0108 14:34:35.807015 23655 net.cpp:137] Memory required for data: 219738348
I0108 14:34:35.807020 23655 layer_factory.hpp:77] Creating layer conv1_6/bn
I0108 14:34:35.807030 23655 net.cpp:84] Creating Layer conv1_6/bn
I0108 14:34:35.807034 23655 net.cpp:406] conv1_6/bn <- concat1_5_concat1_5_0_split_0
I0108 14:34:35.807040 23655 net.cpp:380] conv1_6/bn -> conv1_6/bn
I0108 14:34:35.807523 23655 net.cpp:122] Setting up conv1_6/bn
I0108 14:34:35.807531 23655 net.cpp:129] Top shape: 1 164 32 109 (572032)
I0108 14:34:35.807535 23655 net.cpp:137] Memory required for data: 222026476
I0108 14:34:35.807545 23655 layer_factory.hpp:77] Creating layer conv1_6/scale
I0108 14:34:35.807556 23655 net.cpp:84] Creating Layer conv1_6/scale
I0108 14:34:35.807561 23655 net.cpp:406] conv1_6/scale <- conv1_6/bn
I0108 14:34:35.807567 23655 net.cpp:367] conv1_6/scale -> conv1_6/bn (in-place)
I0108 14:34:35.807648 23655 layer_factory.hpp:77] Creating layer conv1_6/scale
I0108 14:34:35.807925 23655 net.cpp:122] Setting up conv1_6/scale
I0108 14:34:35.807935 23655 net.cpp:129] Top shape: 1 164 32 109 (572032)
I0108 14:34:35.807940 23655 net.cpp:137] Memory required for data: 224314604
I0108 14:34:35.807952 23655 layer_factory.hpp:77] Creating layer relu1_6
I0108 14:34:35.807960 23655 net.cpp:84] Creating Layer relu1_6
I0108 14:34:35.807965 23655 net.cpp:406] relu1_6 <- conv1_6/bn
I0108 14:34:35.807971 23655 net.cpp:367] relu1_6 -> conv1_6/bn (in-place)
I0108 14:34:35.808646 23655 net.cpp:122] Setting up relu1_6
I0108 14:34:35.808663 23655 net.cpp:129] Top shape: 1 164 32 109 (572032)
I0108 14:34:35.808668 23655 net.cpp:137] Memory required for data: 226602732
I0108 14:34:35.808673 23655 layer_factory.hpp:77] Creating layer conv1_6
I0108 14:34:35.808687 23655 net.cpp:84] Creating Layer conv1_6
I0108 14:34:35.808693 23655 net.cpp:406] conv1_6 <- conv1_6/bn
I0108 14:34:35.808701 23655 net.cpp:380] conv1_6 -> conv1_6
I0108 14:34:35.812417 23655 net.cpp:122] Setting up conv1_6
I0108 14:34:35.812455 23655 net.cpp:129] Top shape: 1 12 32 109 (41856)
I0108 14:34:35.812460 23655 net.cpp:137] Memory required for data: 226770156
I0108 14:34:35.812472 23655 layer_factory.hpp:77] Creating layer concat1_6
I0108 14:34:35.812485 23655 net.cpp:84] Creating Layer concat1_6
I0108 14:34:35.812494 23655 net.cpp:406] concat1_6 <- concat1_5_concat1_5_0_split_1
I0108 14:34:35.812502 23655 net.cpp:406] concat1_6 <- conv1_6
I0108 14:34:35.812510 23655 net.cpp:380] concat1_6 -> concat1_6
I0108 14:34:35.812572 23655 net.cpp:122] Setting up concat1_6
I0108 14:34:35.812579 23655 net.cpp:129] Top shape: 1 176 32 109 (613888)
I0108 14:34:35.812583 23655 net.cpp:137] Memory required for data: 229225708
I0108 14:34:35.812587 23655 layer_factory.hpp:77] Creating layer concat1_6_concat1_6_0_split
I0108 14:34:35.812594 23655 net.cpp:84] Creating Layer concat1_6_concat1_6_0_split
I0108 14:34:35.812599 23655 net.cpp:406] concat1_6_concat1_6_0_split <- concat1_6
I0108 14:34:35.812604 23655 net.cpp:380] concat1_6_concat1_6_0_split -> concat1_6_concat1_6_0_split_0
I0108 14:34:35.812613 23655 net.cpp:380] concat1_6_concat1_6_0_split -> concat1_6_concat1_6_0_split_1
I0108 14:34:35.812690 23655 net.cpp:122] Setting up concat1_6_concat1_6_0_split
I0108 14:34:35.812698 23655 net.cpp:129] Top shape: 1 176 32 109 (613888)
I0108 14:34:35.812705 23655 net.cpp:129] Top shape: 1 176 32 109 (613888)
I0108 14:34:35.812707 23655 net.cpp:137] Memory required for data: 234136812
I0108 14:34:35.812711 23655 layer_factory.hpp:77] Creating layer conv1_7/bn
I0108 14:34:35.812719 23655 net.cpp:84] Creating Layer conv1_7/bn
I0108 14:34:35.812723 23655 net.cpp:406] conv1_7/bn <- concat1_6_concat1_6_0_split_0
I0108 14:34:35.812731 23655 net.cpp:380] conv1_7/bn -> conv1_7/bn
I0108 14:34:35.813225 23655 net.cpp:122] Setting up conv1_7/bn
I0108 14:34:35.813235 23655 net.cpp:129] Top shape: 1 176 32 109 (613888)
I0108 14:34:35.813239 23655 net.cpp:137] Memory required for data: 236592364
I0108 14:34:35.813249 23655 layer_factory.hpp:77] Creating layer conv1_7/scale
I0108 14:34:35.813261 23655 net.cpp:84] Creating Layer conv1_7/scale
I0108 14:34:35.813266 23655 net.cpp:406] conv1_7/scale <- conv1_7/bn
I0108 14:34:35.813274 23655 net.cpp:367] conv1_7/scale -> conv1_7/bn (in-place)
I0108 14:34:35.813362 23655 layer_factory.hpp:77] Creating layer conv1_7/scale
I0108 14:34:35.813627 23655 net.cpp:122] Setting up conv1_7/scale
I0108 14:34:35.813635 23655 net.cpp:129] Top shape: 1 176 32 109 (613888)
I0108 14:34:35.813639 23655 net.cpp:137] Memory required for data: 239047916
I0108 14:34:35.813647 23655 layer_factory.hpp:77] Creating layer relu1_7
I0108 14:34:35.813654 23655 net.cpp:84] Creating Layer relu1_7
I0108 14:34:35.813659 23655 net.cpp:406] relu1_7 <- conv1_7/bn
I0108 14:34:35.813664 23655 net.cpp:367] relu1_7 -> conv1_7/bn (in-place)
I0108 14:34:35.820080 23655 net.cpp:122] Setting up relu1_7
I0108 14:34:35.820121 23655 net.cpp:129] Top shape: 1 176 32 109 (613888)
I0108 14:34:35.820125 23655 net.cpp:137] Memory required for data: 241503468
I0108 14:34:35.820133 23655 layer_factory.hpp:77] Creating layer conv1_7
I0108 14:34:35.820153 23655 net.cpp:84] Creating Layer conv1_7
I0108 14:34:35.820159 23655 net.cpp:406] conv1_7 <- conv1_7/bn
I0108 14:34:35.820176 23655 net.cpp:380] conv1_7 -> conv1_7
I0108 14:34:35.826848 23655 net.cpp:122] Setting up conv1_7
I0108 14:34:35.826889 23655 net.cpp:129] Top shape: 1 12 32 109 (41856)
I0108 14:34:35.826895 23655 net.cpp:137] Memory required for data: 241670892
I0108 14:34:35.826908 23655 layer_factory.hpp:77] Creating layer concat1_7
I0108 14:34:35.826923 23655 net.cpp:84] Creating Layer concat1_7
I0108 14:34:35.826931 23655 net.cpp:406] concat1_7 <- concat1_6_concat1_6_0_split_1
I0108 14:34:35.826941 23655 net.cpp:406] concat1_7 <- conv1_7
I0108 14:34:35.826949 23655 net.cpp:380] concat1_7 -> concat1_7
I0108 14:34:35.827023 23655 net.cpp:122] Setting up concat1_7
I0108 14:34:35.827033 23655 net.cpp:129] Top shape: 1 188 32 109 (655744)
I0108 14:34:35.827036 23655 net.cpp:137] Memory required for data: 244293868
I0108 14:34:35.827040 23655 layer_factory.hpp:77] Creating layer concat1_7_concat1_7_0_split
I0108 14:34:35.827047 23655 net.cpp:84] Creating Layer concat1_7_concat1_7_0_split
I0108 14:34:35.827052 23655 net.cpp:406] concat1_7_concat1_7_0_split <- concat1_7
I0108 14:34:35.827060 23655 net.cpp:380] concat1_7_concat1_7_0_split -> concat1_7_concat1_7_0_split_0
I0108 14:34:35.827069 23655 net.cpp:380] concat1_7_concat1_7_0_split -> concat1_7_concat1_7_0_split_1
I0108 14:34:35.827165 23655 net.cpp:122] Setting up concat1_7_concat1_7_0_split
I0108 14:34:35.827174 23655 net.cpp:129] Top shape: 1 188 32 109 (655744)
I0108 14:34:35.827180 23655 net.cpp:129] Top shape: 1 188 32 109 (655744)
I0108 14:34:35.827184 23655 net.cpp:137] Memory required for data: 249539820
I0108 14:34:35.827188 23655 layer_factory.hpp:77] Creating layer conv1_8/bn
I0108 14:34:35.827206 23655 net.cpp:84] Creating Layer conv1_8/bn
I0108 14:34:35.827213 23655 net.cpp:406] conv1_8/bn <- concat1_7_concat1_7_0_split_0
I0108 14:34:35.827219 23655 net.cpp:380] conv1_8/bn -> conv1_8/bn
I0108 14:34:35.827788 23655 net.cpp:122] Setting up conv1_8/bn
I0108 14:34:35.827802 23655 net.cpp:129] Top shape: 1 188 32 109 (655744)
I0108 14:34:35.827807 23655 net.cpp:137] Memory required for data: 252162796
I0108 14:34:35.827819 23655 layer_factory.hpp:77] Creating layer conv1_8/scale
I0108 14:34:35.827831 23655 net.cpp:84] Creating Layer conv1_8/scale
I0108 14:34:35.827836 23655 net.cpp:406] conv1_8/scale <- conv1_8/bn
I0108 14:34:35.827843 23655 net.cpp:367] conv1_8/scale -> conv1_8/bn (in-place)
I0108 14:34:35.827932 23655 layer_factory.hpp:77] Creating layer conv1_8/scale
I0108 14:34:35.828240 23655 net.cpp:122] Setting up conv1_8/scale
I0108 14:34:35.828253 23655 net.cpp:129] Top shape: 1 188 32 109 (655744)
I0108 14:34:35.828256 23655 net.cpp:137] Memory required for data: 254785772
I0108 14:34:35.828265 23655 layer_factory.hpp:77] Creating layer relu1_8
I0108 14:34:35.828274 23655 net.cpp:84] Creating Layer relu1_8
I0108 14:34:35.828279 23655 net.cpp:406] relu1_8 <- conv1_8/bn
I0108 14:34:35.828284 23655 net.cpp:367] relu1_8 -> conv1_8/bn (in-place)
I0108 14:34:35.828985 23655 net.cpp:122] Setting up relu1_8
I0108 14:34:35.829005 23655 net.cpp:129] Top shape: 1 188 32 109 (655744)
I0108 14:34:35.829010 23655 net.cpp:137] Memory required for data: 257408748
I0108 14:34:35.829016 23655 layer_factory.hpp:77] Creating layer conv1_8
I0108 14:34:35.829032 23655 net.cpp:84] Creating Layer conv1_8
I0108 14:34:35.829040 23655 net.cpp:406] conv1_8 <- conv1_8/bn
I0108 14:34:35.829049 23655 net.cpp:380] conv1_8 -> conv1_8
I0108 14:34:35.833528 23655 net.cpp:122] Setting up conv1_8
I0108 14:34:35.833565 23655 net.cpp:129] Top shape: 1 12 32 109 (41856)
I0108 14:34:35.833570 23655 net.cpp:137] Memory required for data: 257576172
I0108 14:34:35.833582 23655 layer_factory.hpp:77] Creating layer concat1_8
I0108 14:34:35.833597 23655 net.cpp:84] Creating Layer concat1_8
I0108 14:34:35.833604 23655 net.cpp:406] concat1_8 <- concat1_7_concat1_7_0_split_1
I0108 14:34:35.833612 23655 net.cpp:406] concat1_8 <- conv1_8
I0108 14:34:35.833619 23655 net.cpp:380] concat1_8 -> concat1_8
I0108 14:34:35.833695 23655 net.cpp:122] Setting up concat1_8
I0108 14:34:35.833706 23655 net.cpp:129] Top shape: 1 200 32 109 (697600)
I0108 14:34:35.833717 23655 net.cpp:137] Memory required for data: 260366572
I0108 14:34:35.833722 23655 layer_factory.hpp:77] Creating layer concat1_8_concat1_8_0_split
I0108 14:34:35.833730 23655 net.cpp:84] Creating Layer concat1_8_concat1_8_0_split
I0108 14:34:35.833735 23655 net.cpp:406] concat1_8_concat1_8_0_split <- concat1_8
I0108 14:34:35.833744 23655 net.cpp:380] concat1_8_concat1_8_0_split -> concat1_8_concat1_8_0_split_0
I0108 14:34:35.833751 23655 net.cpp:380] concat1_8_concat1_8_0_split -> concat1_8_concat1_8_0_split_1
I0108 14:34:35.833848 23655 net.cpp:122] Setting up concat1_8_concat1_8_0_split
I0108 14:34:35.833858 23655 net.cpp:129] Top shape: 1 200 32 109 (697600)
I0108 14:34:35.833864 23655 net.cpp:129] Top shape: 1 200 32 109 (697600)
I0108 14:34:35.833868 23655 net.cpp:137] Memory required for data: 265947372
I0108 14:34:35.833873 23655 layer_factory.hpp:77] Creating layer conv1_9/bn
I0108 14:34:35.833881 23655 net.cpp:84] Creating Layer conv1_9/bn
I0108 14:34:35.833886 23655 net.cpp:406] conv1_9/bn <- concat1_8_concat1_8_0_split_0
I0108 14:34:35.833895 23655 net.cpp:380] conv1_9/bn -> conv1_9/bn
I0108 14:34:35.834519 23655 net.cpp:122] Setting up conv1_9/bn
I0108 14:34:35.834534 23655 net.cpp:129] Top shape: 1 200 32 109 (697600)
I0108 14:34:35.834539 23655 net.cpp:137] Memory required for data: 268737772
I0108 14:34:35.834550 23655 layer_factory.hpp:77] Creating layer conv1_9/scale
I0108 14:34:35.834561 23655 net.cpp:84] Creating Layer conv1_9/scale
I0108 14:34:35.834566 23655 net.cpp:406] conv1_9/scale <- conv1_9/bn
I0108 14:34:35.834575 23655 net.cpp:367] conv1_9/scale -> conv1_9/bn (in-place)
I0108 14:34:35.834672 23655 layer_factory.hpp:77] Creating layer conv1_9/scale
I0108 14:34:35.834978 23655 net.cpp:122] Setting up conv1_9/scale
I0108 14:34:35.834990 23655 net.cpp:129] Top shape: 1 200 32 109 (697600)
I0108 14:34:35.834992 23655 net.cpp:137] Memory required for data: 271528172
I0108 14:34:35.835000 23655 layer_factory.hpp:77] Creating layer relu1_9
I0108 14:34:35.835009 23655 net.cpp:84] Creating Layer relu1_9
I0108 14:34:35.835014 23655 net.cpp:406] relu1_9 <- conv1_9/bn
I0108 14:34:35.835019 23655 net.cpp:367] relu1_9 -> conv1_9/bn (in-place)
I0108 14:34:35.835798 23655 net.cpp:122] Setting up relu1_9
I0108 14:34:35.835822 23655 net.cpp:129] Top shape: 1 200 32 109 (697600)
I0108 14:34:35.835827 23655 net.cpp:137] Memory required for data: 274318572
I0108 14:34:35.835834 23655 layer_factory.hpp:77] Creating layer conv1_9
I0108 14:34:35.835850 23655 net.cpp:84] Creating Layer conv1_9
I0108 14:34:35.835858 23655 net.cpp:406] conv1_9 <- conv1_9/bn
I0108 14:34:35.835870 23655 net.cpp:380] conv1_9 -> conv1_9
I0108 14:34:35.839201 23655 net.cpp:122] Setting up conv1_9
I0108 14:34:35.839241 23655 net.cpp:129] Top shape: 1 12 32 109 (41856)
I0108 14:34:35.839247 23655 net.cpp:137] Memory required for data: 274485996
I0108 14:34:35.839259 23655 layer_factory.hpp:77] Creating layer concat1_9
I0108 14:34:35.839277 23655 net.cpp:84] Creating Layer concat1_9
I0108 14:34:35.839284 23655 net.cpp:406] concat1_9 <- concat1_8_concat1_8_0_split_1
I0108 14:34:35.839294 23655 net.cpp:406] concat1_9 <- conv1_9
I0108 14:34:35.839303 23655 net.cpp:380] concat1_9 -> concat1_9
I0108 14:34:35.839385 23655 net.cpp:122] Setting up concat1_9
I0108 14:34:35.839395 23655 net.cpp:129] Top shape: 1 212 32 109 (739456)
I0108 14:34:35.839399 23655 net.cpp:137] Memory required for data: 277443820
I0108 14:34:35.839404 23655 layer_factory.hpp:77] Creating layer tpp5
I0108 14:34:35.839413 23655 net.cpp:84] Creating Layer tpp5
I0108 14:34:35.839418 23655 net.cpp:406] tpp5 <- concat1_9
I0108 14:34:35.839426 23655 net.cpp:380] tpp5 -> tpp5
I0108 14:34:35.840663 23655 net.cpp:122] Setting up tpp5
I0108 14:34:35.840695 23655 net.cpp:129] Top shape: 1 3180 (3180)
I0108 14:34:35.840700 23655 net.cpp:137] Memory required for data: 277456540
I0108 14:34:35.840706 23655 layer_factory.hpp:77] Creating layer fc6_d
I0108 14:34:35.840719 23655 net.cpp:84] Creating Layer fc6_d
I0108 14:34:35.840725 23655 net.cpp:406] fc6_d <- tpp5
I0108 14:34:35.840742 23655 net.cpp:380] fc6_d -> fc6_d
I0108 14:34:36.524255 23655 net.cpp:122] Setting up fc6_d
I0108 14:34:36.524296 23655 net.cpp:129] Top shape: 1 4096 (4096)
I0108 14:34:36.524300 23655 net.cpp:137] Memory required for data: 277472924
I0108 14:34:36.524313 23655 layer_factory.hpp:77] Creating layer relu6
I0108 14:34:36.524327 23655 net.cpp:84] Creating Layer relu6
I0108 14:34:36.524333 23655 net.cpp:406] relu6 <- fc6_d
I0108 14:34:36.524340 23655 net.cpp:367] relu6 -> fc6_d (in-place)
I0108 14:34:36.524667 23655 net.cpp:122] Setting up relu6
I0108 14:34:36.524678 23655 net.cpp:129] Top shape: 1 4096 (4096)
I0108 14:34:36.524682 23655 net.cpp:137] Memory required for data: 277489308
I0108 14:34:36.524688 23655 layer_factory.hpp:77] Creating layer drop6
I0108 14:34:36.524698 23655 net.cpp:84] Creating Layer drop6
I0108 14:34:36.524703 23655 net.cpp:406] drop6 <- fc6_d
I0108 14:34:36.524710 23655 net.cpp:367] drop6 -> fc6_d (in-place)
I0108 14:34:36.524765 23655 net.cpp:122] Setting up drop6
I0108 14:34:36.524772 23655 net.cpp:129] Top shape: 1 4096 (4096)
I0108 14:34:36.524776 23655 net.cpp:137] Memory required for data: 277505692
I0108 14:34:36.524780 23655 layer_factory.hpp:77] Creating layer fc7_d
I0108 14:34:36.524790 23655 net.cpp:84] Creating Layer fc7_d
I0108 14:34:36.524793 23655 net.cpp:406] fc7_d <- fc6_d
I0108 14:34:36.524801 23655 net.cpp:380] fc7_d -> fc7_d
I0108 14:34:37.193470 23655 net.cpp:122] Setting up fc7_d
I0108 14:34:37.193512 23655 net.cpp:129] Top shape: 1 4096 (4096)
I0108 14:34:37.193518 23655 net.cpp:137] Memory required for data: 277522076
I0108 14:34:37.193532 23655 layer_factory.hpp:77] Creating layer relu7
I0108 14:34:37.193547 23655 net.cpp:84] Creating Layer relu7
I0108 14:34:37.193553 23655 net.cpp:406] relu7 <- fc7_d
I0108 14:34:37.193562 23655 net.cpp:367] relu7 -> fc7_d (in-place)
I0108 14:34:37.194805 23655 net.cpp:122] Setting up relu7
I0108 14:34:37.194828 23655 net.cpp:129] Top shape: 1 4096 (4096)
I0108 14:34:37.194833 23655 net.cpp:137] Memory required for data: 277538460
I0108 14:34:37.194839 23655 layer_factory.hpp:77] Creating layer drop7
I0108 14:34:37.194852 23655 net.cpp:84] Creating Layer drop7
I0108 14:34:37.194859 23655 net.cpp:406] drop7 <- fc7_d
I0108 14:34:37.194866 23655 net.cpp:367] drop7 -> fc7_d (in-place)
I0108 14:34:37.194948 23655 net.cpp:122] Setting up drop7
I0108 14:34:37.194958 23655 net.cpp:129] Top shape: 1 4096 (4096)
I0108 14:34:37.194962 23655 net.cpp:137] Memory required for data: 277554844
I0108 14:34:37.194967 23655 layer_factory.hpp:77] Creating layer fc8_d
I0108 14:34:37.194977 23655 net.cpp:84] Creating Layer fc8_d
I0108 14:34:37.194981 23655 net.cpp:406] fc8_d <- fc7_d
I0108 14:34:37.194988 23655 net.cpp:380] fc8_d -> fc8_d
I0108 14:34:37.298409 23655 net.cpp:122] Setting up fc8_d
I0108 14:34:37.298450 23655 net.cpp:129] Top shape: 1 618 (618)
I0108 14:34:37.298456 23655 net.cpp:137] Memory required for data: 277557316
I0108 14:34:37.298470 23655 layer_factory.hpp:77] Creating layer loss
I0108 14:34:37.298483 23655 net.cpp:84] Creating Layer loss
I0108 14:34:37.298491 23655 net.cpp:406] loss <- fc8_d
I0108 14:34:37.298497 23655 net.cpp:406] loss <- phocs
I0108 14:34:37.298506 23655 net.cpp:380] loss -> loss
I0108 14:34:37.298606 23655 net.cpp:122] Setting up loss
…
state {
  phase: TEST
}
layer {
  name: "word_images"
  type: "Data"
  top: "word_images"
  top: "label"
  transform_param {
    scale: -0.0039215689
    mean_value: 255
  }
  data_param {
    source: "/data/fwolf/iam/iam-db_nti500000_pul2-3-4-5_test_word_images_lmdb"
    batch_size: 1
    backend: LMDB
    prefetch: 20
  }
}
layer {
  name: "phocs"
  type: "Data"
  top: "phocs"
  top: "label_phocs"
  data_param {
    source: "/data/fwolf/iam/iam-db_nti500000_pul2-3-4-5_test_phocs_lmdb"
    batch_size: 1
    backend: LMDB
    prefetch: 20
  }
}
layer {
  name: "conv_init"
  type: "Convolution"
  bottom: "word_images"
  top: "conv_init"
  convolution_param {
    num_output: 32
    bias_term: false
    pad: 1
    kernel_size: 3
    stride: 1
    weight_filler {
      type: "msra"
    }
    bias_filler {
      type: "constant"
    }
    engine: CUDNN
  }
}
layer {
  name: "bn_init"
  type: "BatchNorm"
  bottom: "conv_init"
  top: "bn_init"
  param {
    lr_mult: 0
    decay_mult: 0
  }
  param {
    lr_mult: 0
    decay_mult: 0
  }
  param {
    lr_mult: 0
    decay_mult: 0
  }
  batch_norm_param {
    eps: 1e-05
  }
}
layer {
  name: "scale_init"
  type: "Scale"
  bottom: "bn_init"
  top: "bn_init"
  scale_param {
    filler {
      value: 1
    }
    bias_term: true
    bias_filler {
      value: 0
    }
  }
}
layer {
  name: "relu_init"
  type: "ReLU"
  bottom: "bn_init"
  top: "bn_init"
}
layer {
  name: "pool_init"
  type: "Pooling"
  bottom: "bn_init"
  top: "pool_init"
  pooling_param {
    pool: MAX
    kernel_size: 3
    stride: 2
    pad: 1
  }
}
layer {
  name: "conv0_0/bn"
  type: "BatchNorm"
  bottom: "pool_init"
  top: "conv0_0/bn"
  param {
    lr_mult: 0
    decay_mult: 0
  }
  param {
    lr_mult: 0
    decay_mult: 0
  }
  param {
    lr_mult: 0
    decay_mult: 0
  }
}
layer {
  name: "conv0_0/scale"
  type: "Scale"
  bottom: "conv0_0/bn"
  top: "conv0_0/bn"
  scale_param {
    filler {
      value: 1
    }
    bias_term: true
    bias_filler {
      value: 0
    }
  }
}
layer {
  name: "relu0_0"
  type: "ReLU"
  bottom: "conv0_0/bn"
  top: "conv0_0/bn"
}
layer {
  name: "conv0_0"
  type: "Convolution"
  bottom: "conv0_0/bn"
  top: "conv0_0"
  convolution_param {
    num_output: 12
    bias_term: false
    pad: 1
    kernel_size: 3
    stride: 1
    weight_filler {
      type: "msra"
    }
    bias_filler {
      type: "constant"
    }
    engine: CUDNN
  }
}
layer {
  name: "concat0_0"
  type: "Concat"
  bottom: "pool_init"
  bottom: "conv0_0"
  top: "concat0_0"
  concat_param {
    axis: 1
  }
}
layer {
  name: "conv0_1/bn"
  type: "BatchNorm"
  bottom: "concat0_0"
  top: "conv0_1/bn"
  param {
    lr_mult: 0
    decay_mult: 0
  }
  param {
    lr_mult: 0
    decay_mult: 0
  }
  param {
    lr_mult: 0
    decay_mult: 0
  }
}
layer {
  name: "conv0_1/scale"
  type: "Scale"
  bottom: "conv0_1/bn"
  top: "conv0_1/bn"
  scale_param {
    filler {
      value: 1
    }
    bias_term: true
    bias_filler {
      value: 0
    }
  }
}
layer {
  name: "relu0_1"
  type: "ReLU"
  bottom: "conv0_1/bn"
  top: "conv0_1/bn"
}
layer {
  name: "conv0_1"
  type: "Convolution"
  bottom: "conv0_1/bn"
  top: "conv0_1"
  convolution_param {
    num_output: 12
    bias_term: false
    pad: 1
    kernel_size: 3
    stride: 1
    weight_filler {
      type: "msra"
    }
    bias_filler {
      type: "constant"
    }
    engine: CUDNN
  }
}
layer {
  name: "concat0_1"
  type: "Concat"
  bottom: "concat0_0"
  bottom: "conv0_1"
  top: "concat0_1"
  concat_param {
    axis: 1
  }
}
layer {
  name: "conv0_2/bn"
  type: "BatchNorm"
  bottom: "concat0_1"
  top: "conv0_2/bn"
  param {
    lr_mult: 0
    decay_mult: 0
  }
  param {
    lr_mult: 0
    decay_mult: 0
  }
  param {
    lr_mult: 0
    decay_mult: 0
  }
}
layer {
  name: "conv0_2/scale"
  type: "Scale"
  bottom: "conv0_2/bn"
  top: "conv0_2/bn"
  scale_param {
    filler {
      value: 1
    }
    bias_term: true
    bias_filler {
      value: 0
    }
  }
}
layer {
  name: "relu0_2"
  type: "ReLU"
  bottom: "conv0_2/bn"
  top: "conv0_2/bn"
}
layer {
  name: "conv0_2"
  type: "Convolution"
  bottom: "conv0_2/bn"
  top: "conv0_2"
  convolution_param {
    num_output: 12
    bias_term: false
    pad: 1
    kernel_size: 3
    stride: 1
    weight_filler {
      type: "msra"
    }
    bias_filler {
      type: "constant"
    }
    engine: CUDNN
  }
}
layer {
  name: "concat0_2"
  type: "Concat"
  bottom: "concat0_1"
  bottom: "conv0_2"
  top: "concat0_2"
  concat_param {
    axis: 1
  }
}
layer {
  name: "conv0_3/bn"
  type: "BatchNorm"
  bottom: "concat0_2"
  top: "conv0_3/bn"
  param {
    lr_mult: 0
    decay_mult: 0
  }
  param {
    lr_mult: 0
    decay_mult: 0
  }
  param {
    lr_mult: 0
    decay_mult: 0
  }
}
layer {
  name: "conv0_3/scale"
  type: "Scale"
  bottom: "conv0_3/bn"
  top: "conv0_3/bn"
  scale_param {
    filler {
      value: 1
    }
    bias_term: true
    bias_filler {
      value: 0
    }
  }
}
layer {
  name: "relu0_3"
  type: "ReLU"
  bottom: "conv0_3/bn"
  top: "conv0_3/bn"
}
layer {
  name: "conv0_3"
  type: "Convolution"
  bottom: "conv0_3/bn"
  top: "conv0_3"
  convolution_param {
    num_output: 12
    bias_term: false
    pad: 1
    kernel_size: 3
    stride: 1
    weight_filler {
      type: "msra"
    }
    bias_filler {
      type: "constant"
    }
    engine: CUDNN
  }
}
layer {
  name: "concat0_3"
  type: "Concat"
  bottom: "concat0_2"
  bottom: "conv0_3"
  top: "concat0_3"
  concat_param {
    axis: 1
  }
}
layer {
  name: "conv0_4/bn"
  type: "BatchNorm"
  bottom: "concat0_3"
  top: "conv0_4/bn"
  param {
    lr_mult: 0
    decay_mult: 0
  }
  param {
    lr_mult: 0
    decay_mult: 0
  }
  param {
    lr_mult: 0
    decay_mult: 0
  }
}
layer {
  name: "conv0_4/scale"
  type: "Scale"
  bottom: "conv0_4/bn"
  top: "conv0_4/bn"
  scale_param {
    filler {
      value: 1
    }
    bias_term: true
    bias_filler {
      value: 0
    }
  }
}
layer {
  name: "relu0_4"
  type: "ReLU"
  bottom: "conv0_4/bn"
  top: "conv0_4/bn"
}
layer {
  name: "conv0_4"
  type: "Convolution"
  bottom: "conv0_4/bn"
  top: "conv0_4"
  convolution_param {
    num_output: 12
    bias_term: false
    pad: 1
    kernel_size: 3
    stride: 1
    weight_filler {
      type: "msra"
    }
    bias_filler {
      type: "constant"
    }
    engine: CUDNN
  }
}
layer {
  name: "concat0_4"
  type: "Concat"
  bottom: "concat0_3"
  bottom: "conv0_4"
  top: "concat0_4"
  concat_param {
    axis: 1
  }
}
layer {
  name: "BatchNorm1"
  type: "BatchNorm"
  bottom: "concat0_4"
  top: "BatchNorm1"
  param {
    lr_mult: 0
    decay_mult: 0
  }
  param {
    lr_mult: 0
    decay_mult: 0
  }
  param {
    lr_mult: 0
    decay_mult: 0
  }
}
layer {
  name: "Scale1"
  type: "Scale"
  bottom: "BatchNorm1"
  top: "BatchNorm1"
  scale_param {
    filler {
      value: 1
    }
    bias_term: true
    bias_filler {
      value: 0
    }
  }
}
layer {
  name: "ReLU1"
  type: "ReLU"
  bottom: "BatchNorm1"
  top: "BatchNorm1"
}
layer {
  name: "conv0_blk"
  type: "Convolution"
  bottom: "BatchNorm1"
  top: "conv0_blk"
  convolution_param {
    num_output: 92
    bias_term: false
    pad: 0
    kernel_size: 1
    stride: 1
    weight_filler {
      type: "msra"
    }
    bias_filler {
      type: "constant"
    }
    engine: CUDNN
  }
}
layer {
  name: "pool0"
  type: "Pooling"
  bottom: "conv0_blk"
  top: "pool0"
  pooling_param {
    pool: AVE
    kernel_size: 2
    stride: 2
  }
}
layer {
  name: "conv1_0/bn"
  type: "BatchNorm"
  bottom: "pool0"
  top: "conv1_0/bn"
  param {
    lr_mult: 0
    decay_mult: 0
  }
  param {
    lr_mult: 0
    decay_mult: 0
  }
  param {
    lr_mult: 0
    decay_mult: 0
  }
}
layer {
  name: "conv1_0/scale"
  type: "Scale"
  bottom: "conv1_0/bn"
  top: "conv1_0/bn"
  scale_param {
    filler {
      value: 1
    }
    bias_term: true
    bias_filler {
      value: 0
    }
  }
}
layer {
  name: "relu1_0"
  type: "ReLU"
  bottom: "conv1_0/bn"
  top: "conv1_0/bn"
}
layer {
  name: "conv1_0"
  type: "Convolution"
  bottom: "conv1_0/bn"
  top: "conv1_0"
  convolution_param {
    num_output: 12
    bias_term: false
    pad: 1
    kernel_size: 3
    stride: 1
    weight_filler {
      type: "msra"
    }
    bias_filler {
      type: "constant"
    }
    engine: CUDNN
  }
}
layer {
  name: "concat1_0"
  type: "Concat"
  bottom: "pool0"
  bottom: "conv1_0"
  top: "concat1_0"
  concat_param {
    axis: 1
  }
}
layer {
  name: "conv1_1/bn"
  type: "BatchNorm"
  bottom: "concat1_0"
  top: "conv1_1/bn"
  param {
    lr_mult: 0
    decay_mult: 0
  }
  param {
    lr_mult: 0
    decay_mult: 0
  }
  param {
    lr_mult: 0
    decay_mult: 0
  }
}
layer {
  name: "conv1_1/scale"
  type: "Scale"
  bottom: "conv1_1/bn"
  top: "conv1_1/bn"
  scale_param {
    filler {
      value: 1
    }
    bias_term: true
    bias_filler {
      value: 0
    }
  }
}
layer {
  name: "relu1_1"
  type: "ReLU"
  bottom: "conv1_1/bn"
  top: "conv1_1/bn"
}
layer {
  name: "conv1_1"
  type: "Convolution"
  bottom: "conv1_1/bn"
  top: "conv1_1"
  convolution_param {
    num_output: 12
    bias_term: false
    pad: 1
    kernel_size: 3
    stride: 1
    weight_filler {
      type: "msra"
    }
    bias_filler {
      type: "constant"
    }
    engine: CUDNN
  }
}
layer {
  name: "concat1_1"
  type: "Concat"
  bottom: "concat1_0"
  bottom: "conv1_1"
  top: "concat1_1"
  concat_param {
    axis: 1
  }
}
layer {
  name: "conv1_2/bn"
  type: "BatchNorm"
  bottom: "concat1_1"
  top: "conv1_2/bn"
  param {
    lr_mult: 0
    decay_mult: 0
  }
  param {
    lr_mult: 0
    decay_mult: 0
  }
  param {
    lr_mult: 0
    decay_mult: 0
  }
}
layer {
  name: "conv1_2/scale"
  type: "Scale"
  bottom: "conv1_2/bn"
  top: "conv1_2/bn"
  scale_param {
    filler {
      value: 1
    }
    bias_term: true
    bias_filler {
      value: 0
    }
  }
}
layer {
  name: "relu1_2"
  type: "ReLU"
  bottom: "conv1_2/bn"
  top: "conv1_2/bn"
}
layer {
  name: "conv1_2"
  type: "Convolution"
  bottom: "conv1_2/bn"
  top: "conv1_2"
  convolution_param {
    num_output: 12
    bias_term: false
    pad: 1
    kernel_size: 3
    stride: 1
    weight_filler {
      type: "msra"
    }
    bias_filler {
      type: "constant"
    }
    engine: CUDNN
  }
}
layer {
  name: "concat1_2"
  type: "Concat"
  bottom: "concat1_1"
  bottom: "conv1_2"
  top: "concat1_2"
  concat_param {
    axis: 1
  }
}
layer {
  name: "conv1_3/bn"
  type: "BatchNorm"
  bottom: "concat1_2"
  top: "conv1_3/bn"
  param {
    lr_mult: 0
    decay_mult: 0
  }
  param {
    lr_mult: 0
    decay_mult: 0
  }
  param {
    lr_mult: 0
    decay_mult: 0
  }
}
layer {
  name: "conv1_3/scale"
  type: "Scale"
  bottom: "conv1_3/bn"
  top: "conv1_3/bn"
  scale_param {
    filler {
      value: 1
    }
    bias_term: true
    bias_filler {
      value: 0
    }
  }
}
layer {
  name: "relu1_3"
  type: "ReLU"
  bottom: "conv1_3/bn"
  top: "conv1_3/bn"
}
layer {
  name: "conv1_3"
  type: "Convolution"
  bottom: "conv1_3/bn"
  top: "conv1_3"
  convolution_param {
    num_output: 12
    bias_term: false
    pad: 1
    kernel_size: 3
    stride: 1
    weight_filler {
      type: "msra"
    }
    bias_filler {
      type: "constant"
    }
    engine: CUDNN
  }
}
layer {
  name: "concat1_3"
  type: "Concat"
  bottom: "concat1_2"
  bottom: "conv1_3"
  top: "concat1_3"
  concat_param {
    axis: 1
  }
}
layer {
  name: "conv1_4/bn"
  type: "BatchNorm"
  bottom: "concat1_3"
  top: "conv1_4/bn"
  param {
    lr_mult: 0
    decay_mult: 0
  }
  param {
    lr_mult: 0
    decay_mult: 0
  }
  param {
    lr_mult: 0
    decay_mult: 0
  }
}
layer {
  name: "conv1_4/scale"
  type: "Scale"
  bottom: "conv1_4/bn"
  top: "conv1_4/bn"
  scale_param {
    filler {
      value: 1
    }
    bias_term: true
    bias_filler {
      value: 0
    }
  }
}
layer {
  name: "relu1_4"
  type: "ReLU"
  bottom: "conv1_4/bn"
  top: "conv1_4/bn"
}
layer {
  name: "conv1_4"
  type: "Convolution"
  bottom: "conv1_4/bn"
  top: "conv1_4"
  convolution_param {
    num_output: 12
    bias_term: false
    pad: 1
    kernel_size: 3
    stride: 1
    weight_filler {
      type: "msra"
    }
    bias_filler {
      type: "constant"
    }
    engine: CUDNN
  }
}
layer {
  name: "concat1_4"
  type: "Concat"
  bottom: "concat1_3"
  bottom: "conv1_4"
  top: "concat1_4"
  concat_param {
    axis: 1
  }
}
layer {
  name: "conv1_5/bn"
  type: "BatchNorm"
  bottom: "concat1_4"
  top: "conv1_5/bn"
  param {
    lr_mult: 0
    decay_mult: 0
  }
  param {
    lr_mult: 0
    decay_mult: 0
  }
  param {
    lr_mult: 0
    decay_mult: 0
  }
}
layer {
  name: "conv1_5/scale"
  type: "Scale"
  bottom: "conv1_5/bn"
  top: "conv1_5/bn"
  scale_param {
    filler {
      value: 1
    }
    bias_term: true
    bias_filler {
      value: 0
    }
  }
}
layer {
  name: "relu1_5"
  type: "ReLU"
  bottom: "conv1_5/bn"
  top: "conv1_5/bn"
}
layer {
  name: "conv1_5"
  type: "Convolution"
  bottom: "conv1_5/bn"
  top: "conv1_5"
  convolution_param {
    num_output: 12
    bias_term: false
    pad: 1
    kernel_size: 3
    stride: 1
    weight_filler {
      type: "msra"
    }
    bias_filler {
      type: "constant"
    }
    engine: CUDNN
  }
}
layer {
  name: "concat1_5"
  type: "Concat"
  bottom: "concat1_4"
  bottom: "conv1_5"
  top: "concat1_5"
  concat_param {
    axis: 1
  }
}
layer {
  name: "conv1_6/bn"
  type: "BatchNorm"
  bottom: "concat1_5"
  top: "conv1_6/bn"
  param {
    lr_mult: 0
    decay_mult: 0
  }
  param {
    lr_mult: 0
    decay_mult: 0
  }
  param {
    lr_mult: 0
    decay_mult: 0
  }
}
layer {
  name: "conv1_6/scale"
  type: "Scale"
  bottom: "conv1_6/bn"
  top: "conv1_6/bn"
  scale_param {
    filler {
      value: 1
    }
    bias_term: true
    bias_filler {
      value: 0
    }
  }
}
layer {
  name: "relu1_6"
  type: "ReLU"
  bottom: "conv1_6/bn"
  top: "conv1_6/bn"
}
layer {
  name: "conv1_6"
  type: "Convolution"
  bottom: "conv1_6/bn"
  top: "conv1_6"
  convolution_param {
    num_output: 12
    bias_term: false
    pad: 1
    kernel_size: 3
    stride: 1
    weight_filler {
      type: "msra"
    }
    bias_filler {
      type: "constant"
    }
    engine: CUDNN
  }
}
layer {
  name: "concat1_6"
  type: "Concat"
  bottom: "concat1_5"
  bottom: "conv1_6"
  top: "concat1_6"
  concat_param {
    axis: 1
  }
}
layer {
  name: "conv1_7/bn"
  type: "BatchNorm"
  bottom: "concat1_6"
  top: "conv1_7/bn"
  param {
    lr_mult: 0
    decay_mult: 0
  }
  param {
    lr_mult: 0
    decay_mult: 0
  }
  param {
    lr_mult: 0
    decay_mult: 0
  }
}
layer {
  name: "conv1_7/scale"
  type: "Scale"
  bottom: "conv1_7/bn"
  top: "conv1_7/bn"
  scale_param {
    filler {
      value: 1
    }
    bias_term: true
    bias_filler {
      value: 0
    }
  }
}
layer {
  name: "relu1_7"
  type: "ReLU"
  bottom: "conv1_7/bn"
  top: "conv1_7/bn"
}
layer {
  name: "conv1_7"
  type: "Convolution"
  bottom: "conv1_7/bn"
  top: "conv1_7"
  convolution_param {
    num_output: 12
    bias_term: false
    pad: 1
    kernel_size: 3
    stride: 1
    weight_filler {
      type: "msra"
    }
    bias_filler {
      type: "constant"
    }
    engine: CUDNN
  }
}
layer {
  name: "concat1_7"
  type: "Concat"
  bottom: "concat1_6"
  bottom: "conv1_7"
  top: "concat1_7"
  concat_param {
    axis: 1
  }
}
layer {
  name: "conv1_8/bn"
  type: "BatchNorm"
  bottom: "concat1_7"
  top: "conv1_8/bn"
  param {
    lr_mult: 0
    decay_mult: 0
  }
  param {
    lr_mult: 0
    decay_mult: 0
  }
  param {
    lr_mult: 0
    decay_mult: 0
  }
}
layer {
  name: "conv1_8/scale"
  type: "Scale"
  bottom: "conv1_8/bn"
  top: "conv1_8/bn"
  scale_param {
    filler {
      value: 1
    }
    bias_term: true
    bias_filler {
      value: 0
    }
  }
}
layer {
  name: "relu1_8"
  type: "ReLU"
  bottom: "conv1_8/bn"
  top: "conv1_8/bn"
}
layer {
  name: "conv1_8"
  type: "Convolution"
  bottom: "conv1_8/bn"
  top: "conv1_8"
  convolution_param {
    num_output: 12
    bias_term: false
    pad: 1
    kernel_size: 3
    stride: 1
    weight_filler {
      type: "msra"
    }
    bias_filler {
      type: "constant"
    }
    engine: CUDNN
  }
}
layer {
  name: "concat1_8"
  type: "Concat"
  bottom: "concat1_7"
  bottom: "conv1_8"
  top: "concat1_8"
  concat_param {
    axis: 1
  }
}
layer {
  name: "conv1_9/bn"
  type: "BatchNorm"
  bottom: "concat1_8"
  top: "conv1_9/bn"
  param {
    lr_mult: 0
    decay_mult: 0
  }
  param {
    lr_mult: 0
    decay_mult: 0
  }
  param {
    lr_mult: 0
    decay_mult: 0
  }
}
layer {
  name: "conv1_9/scale"
  type: "Scale"
  bottom: "conv1_9/bn"
  top: "conv1_9/bn"
  scale_param {
    filler {
      value: 1
    }
    bias_term: true
    bias_filler {
      value: 0
    }
  }
}
layer {
  name: "relu1_9"
  type: "ReLU"
  bottom: "conv1_9/bn"
  top: "conv1_9/bn"
}
layer {
  name: "conv1_9"
  type: "Convolution"
  bottom: "conv1_9/bn"
  top: "conv1_9"
  convolution_param {
    num_output: 12
    bias_term: false
    pad: 1
    kernel_size: 3
    stride: 1
    weight_filler {
      type: "msra"
    }
    bias_filler {
      type: "constant"
    }
    engine: CUDNN
  }
}
layer {
  name: "concat1_9"
  type: "Concat"
  bottom: "concat1_8"
  bottom: "conv1_9"
  top: "concat1_9"
  concat_param {
    axis: 1
  }
}
layer {
  name: "tpp5"
  type: "TPP"
  bottom: "concat1_9"
  top: "tpp5"
  tpp_param {
    pyramid_layer: 1
    pyramid_layer: 2
    pyramid_layer: 3
    pyramid_layer: 4
    pyramid_layer: 5
    pool: MAX
    engine: CUDNN
  }
}
layer {
  name: "fc6_d"
  type: "InnerProduct"
  bottom: "tpp5"
  top: "fc6_d"
  inner_product_param {
    num_output: 4096
    weight_filler {
      type: "msra"
    }
    bias_filler {
      type: "constant"
    }
  }
}
layer {
  name: "relu6"
  type: "ReLU"
  bottom: "fc6_d"
  top: "fc6_d"
}
layer {
  name: "fc7_d"
  type: "InnerProduct"
  bottom: "fc6_d"
  top: "fc7_d"
  inner_product_param {
    num_output: 4096
    weight_filler {
      type: "msra"
    }
    bias_filler {
      type: "constant"
    }
  }
}
layer {
  name: "relu7"
  type: "ReLU"
  bottom: "fc7_d"
  top: "fc7_d"
}
layer {
  name: "fc8_d"
  type: "InnerProduct"
  bottom: "fc7_d"
  top: "fc8_d"
  inner_product_param {
    num_output: 618
    weight_filler {
      type: "msra"
    }
    bias_filler {
      type: "constant"
    }
  }
}
layer {
  name: "sigmoid"
  type: "Sigmoid"
  bottom: "fc8_d"
  top: "sigmoid"
  include {
    phase: TEST
  }
}
layer {
  name: "silence"
  type: "Silence"
  bottom: "sigmoid"
  include {
    phase: TEST
  }
}
layer {
  name: "loss"
  type: "SigmoidCrossEntropyLoss"
  bottom: "fc8_d"
  bottom: "phocs"
  top: "loss"
}
I0108 14:34:37.303863 23655 layer_factory.hpp:77] Creating layer word_images
I0108 14:34:37.303977 23655 db_lmdb.cpp:35] Opened lmdb /data/fwolf/iam/iam-db_nti500000_pul2-3-4-5_test_word_images_lmdb
I0108 14:34:37.304003 23655 net.cpp:84] Creating Layer word_images
I0108 14:34:37.304014 23655 net.cpp:380] word_images -> word_images
I0108 14:34:37.304030 23655 net.cpp:380] word_images -> label
I0108 14:34:37.304930 23655 data_layer.cpp:44] output data size: 1,1,90,94
I0108 14:34:37.319502 23655 net.cpp:122] Setting up word_images
I0108 14:34:37.319545 23655 net.cpp:129] Top shape: 1 1 90 94 (8460)
I0108 14:34:37.319552 23655 net.cpp:129] Top shape: 1 (1)
I0108 14:34:37.319557 23655 net.cpp:137] Memory required for data: 33844
I0108 14:34:37.319566 23655 layer_factory.hpp:77] Creating layer phocs
I0108 14:34:37.319654 23655 db_lmdb.cpp:35] Opened lmdb /data/fwolf/iam/iam-db_nti500000_pul2-3-4-5_test_phocs_lmdb
I0108 14:34:37.319675 23655 net.cpp:84] Creating Layer phocs
I0108 14:34:37.319684 23655 net.cpp:380] phocs -> phocs
I0108 14:34:37.319699 23655 net.cpp:380] phocs -> label_phocs
I0108 14:34:37.324652 23655 data_layer.cpp:44] output data size: 1,1,1,618
I0108 14:34:37.348898 23655 net.cpp:122] Setting up phocs
I0108 14:34:37.348934 23655 net.cpp:129] Top shape: 1 1 1 618 (618)
I0108 14:34:37.348942 23655 net.cpp:129] Top shape: 1 (1)
I0108 14:34:37.348945 23655 net.cpp:137] Memory required for data: 36320
I0108 14:34:37.348953 23655 layer_factory.hpp:77] Creating layer conv_init
I0108 14:34:37.348973 23655 net.cpp:84] Creating Layer conv_init
I0108 14:34:37.348979 23655 net.cpp:406] conv_init <- word_images
I0108 14:34:37.348992 23655 net.cpp:380] conv_init -> conv_init
I0108 14:34:37.351231 23655 net.cpp:122] Setting up conv_init
I0108 14:34:37.351265 23655 net.cpp:129] Top shape: 1 32 90 94 (270720)
I0108 14:34:37.351271 23655 net.cpp:137] Memory required for data: 1119200
I0108 14:34:37.351285 23655 layer_factory.hpp:77] Creating layer bn_init
I0108 14:34:37.351299 23655 net.cpp:84] Creating Layer bn_init
I0108 14:34:37.351305 23655 net.cpp:406] bn_init <- conv_init
I0108 14:34:37.351315 23655 net.cpp:380] bn_init -> bn_init
I0108 14:34:37.351961 23655 net.cpp:122] Setting up bn_init
I0108 14:34:37.351972 23655 net.cpp:129] Top shape: 1 32 90 94 (270720)
I0108 14:34:37.351977 23655 net.cpp:137] Memory required for data: 2202080
I0108 14:34:37.351991 23655 layer_factory.hpp:77] Creating layer scale_init
I0108 14:34:37.352002 23655 net.cpp:84] Creating Layer scale_init
I0108 14:34:37.352010 23655 net.cpp:406] scale_init <- bn_init
I0108 14:34:37.352015 23655 net.cpp:367] scale_init -> bn_init (in-place)
I0108 14:34:37.352111 23655 layer_factory.hpp:77] Creating layer scale_init
I0108 14:34:37.352428 23655 net.cpp:122] Setting up scale_init
I0108 14:34:37.352438 23655 net.cpp:129] Top shape: 1 32 90 94 (270720)
I0108 14:34:37.352442 23655 net.cpp:137] Memory required for data: 3284960
I0108 14:34:37.352450 23655 layer_factory.hpp:77] Creating layer relu_init
I0108 14:34:37.352458 23655 net.cpp:84] Creating Layer relu_init
I0108 14:34:37.352463 23655 net.cpp:406] relu_init <- bn_init
I0108 14:34:37.352469 23655 net.cpp:367] relu_init -> bn_init (in-place)
I0108 14:34:37.353127 23655 net.cpp:122] Setting up relu_init
I0108 14:34:37.353142 23655 net.cpp:129] Top shape: 1 32 90 94 (270720)
I0108 14:34:37.353147 23655 net.cpp:137] Memory required for data: 4367840
I0108 14:34:37.353150 23655 layer_factory.hpp:77] Creating layer pool_init
I0108 14:34:37.353159 23655 net.cpp:84] Creating Layer pool_init
I0108 14:34:37.353164 23655 net.cpp:406] pool_init <- bn_init
I0108 14:34:37.353170 23655 net.cpp:380] pool_init -> pool_init
I0108 14:34:37.353274 23655 net.cpp:122] Setting up pool_init
I0108 14:34:37.353286 23655 net.cpp:129] Top shape: 1 32 46 48 (70656)
I0108 14:34:37.353289 23655 net.cpp:137] Memory required for data: 4650464
I0108 14:34:37.353293 23655 layer_factory.hpp:77] Creating layer pool_init_pool_init_0_split
I0108 14:34:37.353301 23655 net.cpp:84] Creating Layer pool_init_pool_init_0_split
I0108 14:34:37.353304 23655 net.cpp:406] pool_init_pool_init_0_split <- pool_init
I0108 14:34:37.353310 23655 net.cpp:380] pool_init_pool_init_0_split -> pool_init_pool_init_0_split_0
I0108 14:34:37.353317 23655 net.cpp:380] pool_init_pool_init_0_split -> pool_init_pool_init_0_split_1
I0108 14:34:37.353406 23655 net.cpp:122] Setting up pool_init_pool_init_0_split
I0108 14:34:37.353415 23655 net.cpp:129] Top shape: 1 32 46 48 (70656)
I0108 14:34:37.353421 23655 net.cpp:129] Top shape: 1 32 46 48 (70656)
I0108 14:34:37.353425 23655 net.cpp:137] Memory required for data: 5215712
I0108 14:34:37.353435 23655 layer_factory.hpp:77] Creating layer conv0_0/bn
I0108 14:34:37.353443 23655 net.cpp:84] Creating Layer conv0_0/bn
I0108 14:34:37.353448 23655 net.cpp:406] conv0_0/bn <- pool_init_pool_init_0_split_0
I0108 14:34:37.353456 23655 net.cpp:380] conv0_0/bn -> conv0_0/bn
I0108 14:34:37.354024 23655 net.cpp:122] Setting up conv0_0/bn
I0108 14:34:37.354033 23655 net.cpp:129] Top shape: 1 32 46 48 (70656)
I0108 14:34:37.354038 23655 net.cpp:137] Memory required for data: 5498336
I0108 14:34:37.354049 23655 layer_factory.hpp:77] Creating layer conv0_0/scale
I0108 14:34:37.354059 23655 net.cpp:84] Creating Layer conv0_0/scale
I0108 14:34:37.354064 23655 net.cpp:406] conv0_0/scale <- conv0_0/bn
I0108 14:34:37.354071 23655 net.cpp:367] conv0_0/scale -> conv0_0/bn (in-place)
I0108 14:34:37.354164 23655 layer_factory.hpp:77] Creating layer conv0_0/scale
I0108 14:34:37.354475 23655 net.cpp:122] Setting up conv0_0/scale
I0108 14:34:37.354485 23655 net.cpp:129] Top shape: 1 32 46 48 (70656)
I0108 14:34:37.354490 23655 net.cpp:137] Memory required for data: 5780960
I0108 14:34:37.354497 23655 layer_factory.hpp:77] Creating layer relu0_0
I0108 14:34:37.354504 23655 net.cpp:84] Creating Layer relu0_0
I0108 14:34:37.354509 23655 net.cpp:406] relu0_0 <- conv0_0/bn
I0108 14:34:37.354516 23655 net.cpp:367] relu0_0 -> conv0_0/bn (in-place)
I0108 14:34:37.354787 23655 net.cpp:122] Setting up relu0_0
I0108 14:34:37.354797 23655 net.cpp:129] Top shape: 1 32 46 48 (70656)
I0108 14:34:37.354804 23655 net.cpp:137] Memory required for data: 6063584
I0108 14:34:37.354807 23655 layer_factory.hpp:77] Creating layer conv0_0
I0108 14:34:37.354821 23655 net.cpp:84] Creating Layer conv0_0
I0108 14:34:37.354827 23655 net.cpp:406] conv0_0 <- conv0_0/bn
I0108 14:34:37.354835 23655 net.cpp:380] conv0_0 -> conv0_0
I0108 14:34:37.357408 23655 net.cpp:122] Setting up conv0_0
I0108 14:34:37.357444 23655 net.cpp:129] Top shape: 1 12 46 48 (26496)
I0108 14:34:37.357450 23655 net.cpp:137] Memory required for data: 6169568
I0108 14:34:37.357461 23655 layer_factory.hpp:77] Creating layer concat0_0
I0108 14:34:37.357476 23655 net.cpp:84] Creating Layer concat0_0
I0108 14:34:37.357483 23655 net.cpp:406] concat0_0 <- pool_init_pool_init_0_split_1
I0108 14:34:37.357493 23655 net.cpp:406] concat0_0 <- conv0_0
I0108 14:34:37.357501 23655 net.cpp:380] concat0_0 -> concat0_0
I0108 14:34:37.357565 23655 net.cpp:122] Setting up concat0_0
I0108 14:34:37.357574 23655 net.cpp:129] Top shape: 1 44 46 48 (97152)
I0108 14:34:37.357578 23655 net.cpp:137] Memory required for data: 6558176
I0108 14:34:37.357583 23655 layer_factory.hpp:77] Creating layer concat0_0_concat0_0_0_split
I0108 14:34:37.357590 23655 net.cpp:84] Creating Layer concat0_0_concat0_0_0_split
I0108 14:34:37.357595 23655 net.cpp:406] concat0_0_concat0_0_0_split <- concat0_0
I0108 14:34:37.357604 23655 net.cpp:380] concat0_0_concat0_0_0_split -> concat0_0_concat0_0_0_split_0
I0108 14:34:37.357611 23655 net.cpp:380] concat0_0_concat0_0_0_split -> concat0_0_concat0_0_0_split_1
I0108 14:34:37.357713 23655 net.cpp:122] Setting up concat0_0_concat0_0_0_split
I0108 14:34:37.357722 23655 net.cpp:129] Top shape: 1 44 46 48 (97152)
I0108 14:34:37.357728 23655 net.cpp:129] Top shape: 1 44 46 48 (97152)
I0108 14:34:37.357733 23655 net.cpp:137] Memory required for data: 7335392
I0108 14:34:37.357736 23655 layer_factory.hpp:77] Creating layer conv0_1/bn
I0108 14:34:37.357744 23655 net.cpp:84] Creating Layer conv0_1/bn
I0108 14:34:37.357749 23655 net.cpp:406] conv0_1/bn <- concat0_0_concat0_0_0_split_0
I0108 14:34:37.357758 23655 net.cpp:380] conv0_1/bn -> conv0_1/bn
I0108 14:34:37.358505 23655 net.cpp:122] Setting up conv0_1/bn
I0108 14:34:37.358523 23655 net.cpp:129] Top shape: 1 44 46 48 (97152)
I0108 14:34:37.358527 23655 net.cpp:137] Memory required for data: 7724000
I0108 14:34:37.358539 23655 layer_factory.hpp:77] Creating layer conv0_1/scale
I0108 14:34:37.358556 23655 net.cpp:84] Creating Layer conv0_1/scale
I0108 14:34:37.358561 23655 net.cpp:406] conv0_1/scale <- conv0_1/bn
I0108 14:34:37.358575 23655 net.cpp:367] conv0_1/scale -> conv0_1/bn (in-place)
I0108 14:34:37.358711 23655 layer_factory.hpp:77] Creating layer conv0_1/scale
I0108 14:34:37.359163 23655 net.cpp:122] Setting up conv0_1/scale
I0108 14:34:37.359174 23655 net.cpp:129] Top shape: 1 44 46 48 (97152)
I0108 14:34:37.359179 23655 net.cpp:137] Memory required for data: 8112608
I0108 14:34:37.359190 23655 layer_factory.hpp:77] Creating layer relu0_1
I0108 14:34:37.359205 23655 net.cpp:84] Creating Layer relu0_1
I0108 14:34:37.359215 23655 net.cpp:406] relu0_1 <- conv0_1/bn
I0108 14:34:37.359221 23655 net.cpp:367] relu0_1 -> conv0_1/bn (in-place)
I0108 14:34:37.360177 23655 net.cpp:122] Setting up relu0_1
I0108 14:34:37.360201 23655 net.cpp:129] Top shape: 1 44 46 48 (97152)
I0108 14:34:37.360206 23655 net.cpp:137] Memory required for data: 8501216
I0108 14:34:37.360213 23655 layer_factory.hpp:77] Creating layer conv0_1
I0108 14:34:37.360231 23655 net.cpp:84] Creating Layer conv0_1
I0108 14:34:37.360239 23655 net.cpp:406] conv0_1 <- conv0_1/bn
I0108 14:34:37.360250 23655 net.cpp:380] conv0_1 -> conv0_1
I0108 14:34:37.363771 23655 net.cpp:122] Setting up conv0_1
I0108 14:34:37.363809 23655 net.cpp:129] Top shape: 1 12 46 48 (26496)
I0108 14:34:37.363816 23655 net.cpp:137] Memory required for data: 8607200
I0108 14:34:37.363826 23655 layer_factory.hpp:77] Creating layer concat0_1
I0108 14:34:37.363843 23655 net.cpp:84] Creating Layer concat0_1
I0108 14:34:37.363850 23655 net.cpp:406] concat0_1 <- concat0_0_concat0_0_0_split_1
I0108 14:34:37.363859 23655 net.cpp:406] concat0_1 <- conv0_1
I0108 14:34:37.363867 23655 net.cpp:380] concat0_1 -> concat0_1
I0108 14:34:37.363932 23655 net.cpp:122] Setting up concat0_1
I0108 14:34:37.363943 23655 net.cpp:129] Top shape: 1 56 46 48 (123648)
I0108 14:34:37.363947 23655 net.cpp:137] Memory required for data: 9101792
I0108 14:34:37.363951 23655 layer_factory.hpp:77] Creating layer concat0_1_concat0_1_0_split
I0108 14:34:37.363958 23655 net.cpp:84] Creating Layer concat0_1_concat0_1_0_split
I0108 14:34:37.363963 23655 net.cpp:406] concat0_1_concat0_1_0_split <- concat0_1
I0108 14:34:37.363970 23655 net.cpp:380] concat0_1_concat0_1_0_split -> concat0_1_concat0_1_0_split_0
I0108 14:34:37.363976 23655 net.cpp:380] concat0_1_concat0_1_0_split -> concat0_1_concat0_1_0_split_1
I0108 14:34:37.364070 23655 net.cpp:122] Setting up concat0_1_concat0_1_0_split
I0108 14:34:37.364080 23655 net.cpp:129] Top shape: 1 56 46 48 (123648)
I0108 14:34:37.364086 23655 net.cpp:129] Top shape: 1 56 46 48 (123648)
I0108 14:34:37.364090 23655 net.cpp:137] Memory required for data: 10090976
I0108 14:34:37.364094 23655 layer_factory.hpp:77] Creating layer conv0_2/bn
I0108 14:34:37.364102 23655 net.cpp:84] Creating Layer conv0_2/bn
I0108 14:34:37.364106 23655 net.cpp:406] conv0_2/bn <- concat0_1_concat0_1_0_split_0
I0108 14:34:37.364114 23655 net.cpp:380] conv0_2/bn -> conv0_2/bn
I0108 14:34:37.364785 23655 net.cpp:122] Setting up conv0_2/bn
I0108 14:34:37.364804 23655 net.cpp:129] Top shape: 1 56 46 48 (123648)
I0108 14:34:37.364809 23655 net.cpp:137] Memory required for data: 10585568
I0108 14:34:37.364820 23655 layer_factory.hpp:77] Creating layer conv0_2/scale
I0108 14:34:37.364833 23655 net.cpp:84] Creating Layer conv0_2/scale
I0108 14:34:37.364840 23655 net.cpp:406] conv0_2/scale <- conv0_2/bn
I0108 14:34:37.364848 23655 net.cpp:367] conv0_2/scale -> conv0_2/bn (in-place)
I0108 14:34:37.364956 23655 layer_factory.hpp:77] Creating layer conv0_2/scale
I0108 14:34:37.365308 23655 net.cpp:122] Setting up conv0_2/scale
I0108 14:34:37.365319 23655 net.cpp:129] Top shape: 1 56 46 48 (123648)
I0108 14:34:37.365324 23655 net.cpp:137] Memory required for data: 11080160
I0108 14:34:37.365332 23655 layer_factory.hpp:77] Creating layer relu0_2
I0108 14:34:37.365342 23655 net.cpp:84] Creating Layer relu0_2
I0108 14:34:37.365346 23655 net.cpp:406] relu0_2 <- conv0_2/bn
I0108 14:34:37.365352 23655 net.cpp:367] relu0_2 -> conv0_2/bn (in-place)
I0108 14:34:37.365732 23655 net.cpp:122] Setting up relu0_2
I0108 14:34:37.365748 23655 net.cpp:129] Top shape: 1 56 46 48 (123648)
I0108 14:34:37.365762 23655 net.cpp:137] Memory required for data: 11574752
I0108 14:34:37.365768 23655 layer_factory.hpp:77] Creating layer conv0_2
I0108 14:34:37.365787 23655 net.cpp:84] Creating Layer conv0_2
I0108 14:34:37.365792 23655 net.cpp:406] conv0_2 <- conv0_2/bn
I0108 14:34:37.365803 23655 net.cpp:380] conv0_2 -> conv0_2
I0108 14:34:37.368414 23655 net.cpp:122] Setting up conv0_2
I0108 14:34:37.368453 23655 net.cpp:129] Top shape: 1 12 46 48 (26496)
I0108 14:34:37.368459 23655 net.cpp:137] Memory required for data: 11680736
I0108 14:34:37.368471 23655 layer_factory.hpp:77] Creating layer concat0_2
I0108 14:34:37.368485 23655 net.cpp:84] Creating Layer concat0_2
I0108 14:34:37.368492 23655 net.cpp:406] concat0_2 <- concat0_1_concat0_1_0_split_1
I0108 14:34:37.368500 23655 net.cpp:406] concat0_2 <- conv0_2
I0108 14:34:37.368510 23655 net.cpp:380] concat0_2 -> concat0_2
I0108 14:34:37.368571 23655 net.cpp:122] Setting up concat0_2
I0108 14:34:37.368580 23655 net.cpp:129] Top shape: 1 68 46 48 (150144)
I0108 14:34:37.368585 23655 net.cpp:137] Memory required for data: 12281312
I0108 14:34:37.368589 23655 layer_factory.hpp:77] Creating layer concat0_2_concat0_2_0_split
I0108 14:34:37.368597 23655 net.cpp:84] Creating Layer concat0_2_concat0_2_0_split
I0108 14:34:37.368602 23655 net.cpp:406] concat0_2_concat0_2_0_split <- concat0_2
I0108 14:34:37.368608 23655 net.cpp:380] concat0_2_concat0_2_0_split -> concat0_2_concat0_2_0_split_0
I0108 14:34:37.368615 23655 net.cpp:380] concat0_2_concat0_2_0_split -> concat0_2_concat0_2_0_split_1
I0108 14:34:37.368707 23655 net.cpp:122] Setting up concat0_2_concat0_2_0_split
I0108 14:34:37.368716 23655 net.cpp:129] Top shape: 1 68 46 48 (150144)
I0108 14:34:37.368722 23655 net.cpp:129] Top shape: 1 68 46 48 (150144)
I0108 14:34:37.368726 23655 net.cpp:137] Memory required for data: 13482464
I0108 14:34:37.368731 23655 layer_factory.hpp:77] Creating layer conv0_3/bn
I0108 14:34:37.368739 23655 net.cpp:84] Creating Layer conv0_3/bn
I0108 14:34:37.368744 23655 net.cpp:406] conv0_3/bn <- concat0_2_concat0_2_0_split_0
I0108 14:34:37.368752 23655 net.cpp:380] conv0_3/bn -> conv0_3/bn
I0108 14:34:37.369391 23655 net.cpp:122] Setting up conv0_3/bn
I0108 14:34:37.369401 23655 net.cpp:129] Top shape: 1 68 46 48 (150144)
I0108 14:34:37.369405 23655 net.cpp:137] Memory required for data: 14083040
I0108 14:34:37.369415 23655 layer_factory.hpp:77] Creating layer conv0_3/scale
I0108 14:34:37.369427 23655 net.cpp:84] Creating Layer conv0_3/scale
I0108 14:34:37.369432 23655 net.cpp:406] conv0_3/scale <- conv0_3/bn
I0108 14:34:37.369439 23655 net.cpp:367] conv0_3/scale -> conv0_3/bn (in-place)
I0108 14:34:37.369539 23655 layer_factory.hpp:77] Creating layer conv0_3/scale
I0108 14:34:37.369871 23655 net.cpp:122] Setting up conv0_3/scale
I0108 14:34:37.369881 23655 net.cpp:129] Top shape: 1 68 46 48 (150144)
I0108 14:34:37.369885 23655 net.cpp:137] Memory required for data: 14683616
I0108 14:34:37.369892 23655 layer_factory.hpp:77] Creating layer relu0_3
I0108 14:34:37.369900 23655 net.cpp:84] Creating Layer relu0_3
I0108 14:34:37.369905 23655 net.cpp:406] relu0_3 <- conv0_3/bn
I0108 14:34:37.369911 23655 net.cpp:367] relu0_3 -> conv0_3/bn (in-place)
I0108 14:34:37.370630 23655 net.cpp:122] Setting up relu0_3
I0108 14:34:37.370646 23655 net.cpp:129] Top shape: 1 68 46 48 (150144)
I0108 14:34:37.370651 23655 net.cpp:137] Memory required for data: 15284192
I0108 14:34:37.370656 23655 layer_factory.hpp:77] Creating layer conv0_3
I0108 14:34:37.370671 23655 net.cpp:84] Creating Layer conv0_3
I0108 14:34:37.370677 23655 net.cpp:406] conv0_3 <- conv0_3/bn
I0108 14:34:37.370687 23655 net.cpp:380] conv0_3 -> conv0_3
I0108 14:34:37.373819 23655 net.cpp:122] Setting up conv0_3
I0108 14:34:37.373855 23655 net.cpp:129] Top shape: 1 12 46 48 (26496)
I0108 14:34:37.373862 23655 net.cpp:137] Memory required for data: 15390176
I0108 14:34:37.373873 23655 layer_factory.hpp:77] Creating layer concat0_3
I0108 14:34:37.373890 23655 net.cpp:84] Creating Layer concat0_3
I0108 14:34:37.373903 23655 net.cpp:406] concat0_3 <- concat0_2_concat0_2_0_split_1
I0108 14:34:37.373911 23655 net.cpp:406] concat0_3 <- conv0_3
I0108 14:34:37.373919 23655 net.cpp:380] concat0_3 -> concat0_3
I0108 14:34:37.373991 23655 net.cpp:122] Setting up concat0_3
I0108 14:34:37.373999 23655 net.cpp:129] Top shape: 1 80 46 48 (176640)
I0108 14:34:37.374003 23655 net.cpp:137] Memory required for data: 16096736
I0108 14:34:37.374007 23655 layer_factory.hpp:77] Creating layer concat0_3_concat0_3_0_split
I0108 14:34:37.374017 23655 net.cpp:84] Creating Layer concat0_3_concat0_3_0_split
I0108 14:34:37.374020 23655 net.cpp:406] concat0_3_concat0_3_0_split <- concat0_3
I0108 14:34:37.374027 23655 net.cpp:380] concat0_3_concat0_3_0_split -> concat0_3_concat0_3_0_split_0
I0108 14:34:37.374035 23655 net.cpp:380] concat0_3_concat0_3_0_split -> concat0_3_concat0_3_0_split_1
I0108 14:34:37.374128 23655 net.cpp:122] Setting up concat0_3_concat0_3_0_split
I0108 14:34:37.374137 23655 net.cpp:129] Top shape: 1 80 46 48 (176640)
I0108 14:34:37.374143 23655 net.cpp:129] Top shape: 1 80 46 48 (176640)
I0108 14:34:37.374147 23655 net.cpp:137] Memory required for data: 17509856
I0108 14:34:37.374151 23655 layer_factory.hpp:77] Creating layer conv0_4/bn
I0108 14:34:37.374163 23655 net.cpp:84] Creating Layer conv0_4/bn
I0108 14:34:37.374168 23655 net.cpp:406] conv0_4/bn <- concat0_3_concat0_3_0_split_0
I0108 14:34:37.374176 23655 net.cpp:380] conv0_4/bn -> conv0_4/bn
I0108 14:34:37.375001 23655 net.cpp:122] Setting up conv0_4/bn
I0108 14:34:37.375015 23655 net.cpp:129] Top shape: 1 80 46 48 (176640)
I0108 14:34:37.375020 23655 net.cpp:137] Memory required for data: 18216416
I0108 14:34:37.375037 23655 layer_factory.hpp:77] Creating layer conv0_4/scale
I0108 14:34:37.375049 23655 net.cpp:84] Creating Layer conv0_4/scale
I0108 14:34:37.375054 23655 net.cpp:406] conv0_4/scale <- conv0_4/bn
I0108 14:34:37.375062 23655 net.cpp:367] conv0_4/scale -> conv0_4/bn (in-place)
I0108 14:34:37.375162 23655 layer_factory.hpp:77] Creating layer conv0_4/scale
I0108 14:34:37.375542 23655 net.cpp:122] Setting up conv0_4/scale
I0108 14:34:37.375552 23655 net.cpp:129] Top shape: 1 80 46 48 (176640)
I0108 14:34:37.375556 23655 net.cpp:137] Memory required for data: 18922976
I0108 14:34:37.375564 23655 layer_factory.hpp:77] Creating layer relu0_4
I0108 14:34:37.375573 23655 net.cpp:84] Creating Layer relu0_4
I0108 14:34:37.375577 23655 net.cpp:406] relu0_4 <- conv0_4/bn
I0108 14:34:37.375583 23655 net.cpp:367] relu0_4 -> conv0_4/bn (in-place)
I0108 14:34:37.376408 23655 net.cpp:122] Setting up relu0_4
I0108 14:34:37.376425 23655 net.cpp:129] Top shape: 1 80 46 48 (176640)
I0108 14:34:37.376430 23655 net.cpp:137] Memory required for data: 19629536
I0108 14:34:37.376436 23655 layer_factory.hpp:77] Creating layer conv0_4
I0108 14:34:37.376452 23655 net.cpp:84] Creating Layer conv0_4
I0108 14:34:37.376458 23655 net.cpp:406] conv0_4 <- conv0_4/bn
I0108 14:34:37.376466 23655 net.cpp:380] conv0_4 -> conv0_4
I0108 14:34:37.379178 23655 net.cpp:122] Setting up conv0_4
I0108 14:34:37.379215 23655 net.cpp:129] Top shape: 1 12 46 48 (26496)
I0108 14:34:37.379220 23655 net.cpp:137] Memory required for data: 19735520
I0108 14:34:37.379232 23655 layer_factory.hpp:77] Creating layer concat0_4
I0108 14:34:37.379248 23655 net.cpp:84] Creating Layer concat0_4
I0108 14:34:37.379256 23655 net.cpp:406] concat0_4 <- concat0_3_concat0_3_0_split_1
I0108 14:34:37.379264 23655 net.cpp:406] concat0_4 <- conv0_4
I0108 14:34:37.379272 23655 net.cpp:380] concat0_4 -> concat0_4
I0108 14:34:37.379338 23655 net.cpp:122] Setting up concat0_4
I0108 14:34:37.379346 23655 net.cpp:129] Top shape: 1 92 46 48 (203136)
I0108 14:34:37.379350 23655 net.cpp:137] Memory required for data: 20548064
I0108 14:34:37.379355 23655 layer_factory.hpp:77] Creating layer BatchNorm1
I0108 14:34:37.379364 23655 net.cpp:84] Creating Layer BatchNorm1
I0108 14:34:37.379367 23655 net.cpp:406] BatchNorm1 <- concat0_4
I0108 14:34:37.379375 23655 net.cpp:380] BatchNorm1 -> BatchNorm1
I0108 14:34:37.380048 23655 net.cpp:122] Setting up BatchNorm1
I0108 14:34:37.380066 23655 net.cpp:129] Top shape: 1 92 46 48 (203136)
I0108 14:34:37.380071 23655 net.cpp:137] Memory required for data: 21360608
I0108 14:34:37.380082 23655 layer_factory.hpp:77] Creating layer Scale1
I0108 14:34:37.380095 23655 net.cpp:84] Creating Layer Scale1
I0108 14:34:37.380100 23655 net.cpp:406] Scale1 <- BatchNorm1
I0108 14:34:37.380105 23655 net.cpp:367] Scale1 -> BatchNorm1 (in-place)
I0108 14:34:37.380205 23655 layer_factory.hpp:77] Creating layer Scale1
I0108 14:34:37.380535 23655 net.cpp:122] Setting up Scale1
I0108 14:34:37.380545 23655 net.cpp:129] Top shape: 1 92 46 48 (203136)
I0108 14:34:37.380549 23655 net.cpp:137] Memory required for data: 22173152
I0108 14:34:37.380558 23655 layer_factory.hpp:77] Creating layer ReLU1
I0108 14:34:37.380565 23655 net.cpp:84] Creating Layer ReLU1
I0108 14:34:37.380569 23655 net.cpp:406] ReLU1 <- BatchNorm1
I0108 14:34:37.380575 23655 net.cpp:367] ReLU1 -> BatchNorm1 (in-place)
I0108 14:34:37.381013 23655 net.cpp:122] Setting up ReLU1
I0108 14:34:37.381028 23655 net.cpp:129] Top shape: 1 92 46 48 (203136)
I0108 14:34:37.381033 23655 net.cpp:137] Memory required for data: 22985696
I0108 14:34:37.381038 23655 layer_factory.hpp:77] Creating layer conv0_blk
I0108 14:34:37.381053 23655 net.cpp:84] Creating Layer conv0_blk
I0108 14:34:37.381059 23655 net.cpp:406] conv0_blk <- BatchNorm1
I0108 14:34:37.381078 23655 net.cpp:380] conv0_blk -> conv0_blk
I0108 14:34:37.383862 23655 net.cpp:122] Setting up conv0_blk
I0108 14:34:37.383899 23655 net.cpp:129] Top shape: 1 92 46 48 (203136)
I0108 14:34:37.383905 23655 net.cpp:137] Memory required for data: 23798240
I0108 14:34:37.383916 23655 layer_factory.hpp:77] Creating layer pool0
I0108 14:34:37.383932 23655 net.cpp:84] Creating Layer pool0
I0108 14:34:37.383939 23655 net.cpp:406] pool0 <- conv0_blk
I0108 14:34:37.383951 23655 net.cpp:380] pool0 -> pool0
I0108 14:34:37.384656 23655 net.cpp:122] Setting up pool0
I0108 14:34:37.384673 23655 net.cpp:129] Top shape: 1 92 23 24 (50784)
I0108 14:34:37.384678 23655 net.cpp:137] Memory required for data: 24001376
I0108 14:34:37.384685 23655 layer_factory.hpp:77] Creating layer pool0_pool0_0_split
I0108 14:34:37.384692 23655 net.cpp:84] Creating Layer pool0_pool0_0_split
I0108 14:34:37.384697 23655 net.cpp:406] pool0_pool0_0_split <- pool0
I0108 14:34:37.384706 23655 net.cpp:380] pool0_pool0_0_split -> pool0_pool0_0_split_0
I0108 14:34:37.384716 23655 net.cpp:380] pool0_pool0_0_split -> pool0_pool0_0_split_1
I0108 14:34:37.384814 23655 net.cpp:122] Setting up pool0_pool0_0_split
I0108 14:34:37.384824 23655 net.cpp:129] Top shape: 1 92 23 24 (50784)
I0108 14:34:37.384829 23655 net.cpp:129] Top shape: 1 92 23 24 (50784)
I0108 14:34:37.384832 23655 net.cpp:137] Memory required for data: 24407648
I0108 14:34:37.384836 23655 layer_factory.hpp:77] Creating layer conv1_0/bn
I0108 14:34:37.384845 23655 net.cpp:84] Creating Layer conv1_0/bn
I0108 14:34:37.384851 23655 net.cpp:406] conv1_0/bn <- pool0_pool0_0_split_0
I0108 14:34:37.384858 23655 net.cpp:380] conv1_0/bn -> conv1_0/bn
I0108 14:34:37.385531 23655 net.cpp:122] Setting up conv1_0/bn
I0108 14:34:37.385540 23655 net.cpp:129] Top shape: 1 92 23 24 (50784)
I0108 14:34:37.385545 23655 net.cpp:137] Memory required for data: 24610784
I0108 14:34:37.385556 23655 layer_factory.hpp:77] Creating layer conv1_0/scale
I0108 14:34:37.385565 23655 net.cpp:84] Creating Layer conv1_0/scale
I0108 14:34:37.385571 23655 net.cpp:406] conv1_0/scale <- conv1_0/bn
I0108 14:34:37.385578 23655 net.cpp:367] conv1_0/scale -> conv1_0/bn (in-place)
I0108 14:34:37.385679 23655 layer_factory.hpp:77] Creating layer conv1_0/scale
I0108 14:34:37.386019 23655 net.cpp:122] Setting up conv1_0/scale
I0108 14:34:37.386029 23655 net.cpp:129] Top shape: 1 92 23 24 (50784)
I0108 14:34:37.386032 23655 net.cpp:137] Memory required for data: 24813920
I0108 14:34:37.386039 23655 layer_factory.hpp:77] Creating layer relu1_0
I0108 14:34:37.386049 23655 net.cpp:84] Creating Layer relu1_0
I0108 14:34:37.386054 23655 net.cpp:406] relu1_0 <- conv1_0/bn
I0108 14:34:37.386066 23655 net.cpp:367] relu1_0 -> conv1_0/bn (in-place)
I0108 14:34:37.386332 23655 net.cpp:122] Setting up relu1_0
I0108 14:34:37.386343 23655 net.cpp:129] Top shape: 1 92 23 24 (50784)
I0108 14:34:37.386346 23655 net.cpp:137] Memory required for data: 25017056
I0108 14:34:37.386351 23655 layer_factory.hpp:77] Creating layer conv1_0
I0108 14:34:37.386364 23655 net.cpp:84] Creating Layer conv1_0
I0108 14:34:37.386369 23655 net.cpp:406] conv1_0 <- conv1_0/bn
I0108 14:34:37.386376 23655 net.cpp:380] conv1_0 -> conv1_0
I0108 14:34:37.389161 23655 net.cpp:122] Setting up conv1_0
I0108 14:34:37.389183 23655 net.cpp:129] Top shape: 1 12 23 24 (6624)
I0108 14:34:37.389187 23655 net.cpp:137] Memory required for data: 25043552
I0108 14:34:37.389195 23655 layer_factory.hpp:77] Creating layer concat1_0
I0108 14:34:37.389207 23655 net.cpp:84] Creating Layer concat1_0
I0108 14:34:37.389214 23655 net.cpp:406] concat1_0 <- pool0_pool0_0_split_1
I0108 14:34:37.389219 23655 net.cpp:406] concat1_0 <- conv1_0
I0108 14:34:37.389226 23655 net.cpp:380] concat1_0 -> concat1_0
I0108 14:34:37.389288 23655 net.cpp:122] Setting up concat1_0
I0108 14:34:37.389297 23655 net.cpp:129] Top shape: 1 104 23 24 (57408)
I0108 14:34:37.389302 23655 net.cpp:137] Memory required for data: 25273184
I0108 14:34:37.389305 23655 layer_factory.hpp:77] Creating layer concat1_0_concat1_0_0_split
I0108 14:34:37.389313 23655 net.cpp:84] Creating Layer concat1_0_concat1_0_0_split
I0108 14:34:37.389318 23655 net.cpp:406] concat1_0_concat1_0_0_split <- concat1_0
I0108 14:34:37.389324 23655 net.cpp:380] concat1_0_concat1_0_0_split -> concat1_0_concat1_0_0_split_0
I0108 14:34:37.389333 23655 net.cpp:380] concat1_0_concat1_0_0_split -> concat1_0_concat1_0_0_split_1
I0108 14:34:37.389428 23655 net.cpp:122] Setting up concat1_0_concat1_0_0_split
I0108 14:34:37.389437 23655 net.cpp:129] Top shape: 1 104 23 24 (57408)
I0108 14:34:37.389442 23655 net.cpp:129] Top shape: 1 104 23 24 (57408)
I0108 14:34:37.389446 23655 net.cpp:137] Memory required for data: 25732448
I0108 14:34:37.389451 23655 layer_factory.hpp:77] Creating layer conv1_1/bn
I0108 14:34:37.389459 23655 net.cpp:84] Creating Layer conv1_1/bn
I0108 14:34:37.389464 23655 net.cpp:406] conv1_1/bn <- concat1_0_concat1_0_0_split_0
I0108 14:34:37.389474 23655 net.cpp:380] conv1_1/bn -> conv1_1/bn
I0108 14:34:37.390132 23655 net.cpp:122] Setting up conv1_1/bn
I0108 14:34:37.390142 23655 net.cpp:129] Top shape: 1 104 23 24 (57408)
I0108 14:34:37.390146 23655 net.cpp:137] Memory required for data: 25962080
I0108 14:34:37.390156 23655 layer_factory.hpp:77] Creating layer conv1_1/scale
I0108 14:34:37.390166 23655 net.cpp:84] Creating Layer conv1_1/scale
I0108 14:34:37.390169 23655 net.cpp:406] conv1_1/scale <- conv1_1/bn
I0108 14:34:37.390177 23655 net.cpp:367] conv1_1/scale -> conv1_1/bn (in-place)
I0108 14:34:37.390277 23655 layer_factory.hpp:77] Creating layer conv1_1/scale
I0108 14:34:37.390615 23655 net.cpp:122] Setting up conv1_1/scale
I0108 14:34:37.390625 23655 net.cpp:129] Top shape: 1 104 23 24 (57408)
I0108 14:34:37.390630 23655 net.cpp:137] Memory required for data: 26191712
I0108 14:34:37.390636 23655 layer_factory.hpp:77] Creating layer relu1_1
I0108 14:34:37.390645 23655 net.cpp:84] Creating Layer relu1_1
I0108 14:34:37.390650 23655 net.cpp:406] relu1_1 <- conv1_1/bn
I0108 14:34:37.390656 23655 net.cpp:367] relu1_1 -> conv1_1/bn (in-place)
I0108 14:34:37.391221 23655 net.cpp:122] Setting up relu1_1
I0108 14:34:37.391234 23655 net.cpp:129] Top shape: 1 104 23 24 (57408)
I0108 14:34:37.391239 23655 net.cpp:137] Memory required for data: 26421344
I0108 14:34:37.391244 23655 layer_factory.hpp:77] Creating layer conv1_1
I0108 14:34:37.391258 23655 net.cpp:84] Creating Layer conv1_1
I0108 14:34:37.391263 23655 net.cpp:406] conv1_1 <- conv1_1/bn
I0108 14:34:37.391271 23655 net.cpp:380] conv1_1 -> conv1_1
I0108 14:34:37.395540 23655 net.cpp:122] Setting up conv1_1
I0108 14:34:37.395581 23655 net.cpp:129] Top shape: 1 12 23 24 (6624)
I0108 14:34:37.395587 23655 net.cpp:137] Memory required for data: 26447840
I0108 14:34:37.395606 23655 layer_factory.hpp:77] Creating layer concat1_1
I0108 14:34:37.395620 23655 net.cpp:84] Creating Layer concat1_1
I0108 14:34:37.395627 23655 net.cpp:406] concat1_1 <- concat1_0_concat1_0_0_split_1
I0108 14:34:37.395637 23655 net.cpp:406] concat1_1 <- conv1_1
I0108 14:34:37.395647 23655 net.cpp:380] concat1_1 -> concat1_1
I0108 14:34:37.395715 23655 net.cpp:122] Setting up concat1_1
I0108 14:34:37.395725 23655 net.cpp:129] Top shape: 1 116 23 24 (64032)
I0108 14:34:37.395728 23655 net.cpp:137] Memory required for data: 26703968
I0108 14:34:37.395732 23655 layer_factory.hpp:77] Creating layer concat1_1_concat1_1_0_split
I0108 14:34:37.395740 23655 net.cpp:84] Creating Layer concat1_1_concat1_1_0_split
I0108 14:34:37.395743 23655 net.cpp:406] concat1_1_concat1_1_0_split <- concat1_1
I0108 14:34:37.395771 23655 net.cpp:380] concat1_1_concat1_1_0_split -> concat1_1_concat1_1_0_split_0
I0108 14:34:37.395781 23655 net.cpp:380] concat1_1_concat1_1_0_split -> concat1_1_concat1_1_0_split_1
I0108 14:34:37.395881 23655 net.cpp:122] Setting up concat1_1_concat1_1_0_split
I0108 14:34:37.395890 23655 net.cpp:129] Top shape: 1 116 23 24 (64032)
I0108 14:34:37.395896 23655 net.cpp:129] Top shape: 1 116 23 24 (64032)
I0108 14:34:37.395900 23655 net.cpp:137] Memory required for data: 27216224
I0108 14:34:37.395905 23655 layer_factory.hpp:77] Creating layer conv1_2/bn
I0108 14:34:37.395913 23655 net.cpp:84] Creating Layer conv1_2/bn
I0108 14:34:37.395918 23655 net.cpp:406] conv1_2/bn <- concat1_1_concat1_1_0_split_0
I0108 14:34:37.395925 23655 net.cpp:380] conv1_2/bn -> conv1_2/bn
I0108 14:34:37.396610 23655 net.cpp:122] Setting up conv1_2/bn
I0108 14:34:37.396626 23655 net.cpp:129] Top shape: 1 116 23 24 (64032)
I0108 14:34:37.396631 23655 net.cpp:137] Memory required for data: 27472352
I0108 14:34:37.396641 23655 layer_factory.hpp:77] Creating layer conv1_2/scale
I0108 14:34:37.396654 23655 net.cpp:84] Creating Layer conv1_2/scale
I0108 14:34:37.396659 23655 net.cpp:406] conv1_2/scale <- conv1_2/bn
I0108 14:34:37.396667 23655 net.cpp:367] conv1_2/scale -> conv1_2/bn (in-place)
I0108 14:34:37.396773 23655 layer_factory.hpp:77] Creating layer conv1_2/scale
I0108 14:34:37.397135 23655 net.cpp:122] Setting up conv1_2/scale
I0108 14:34:37.397146 23655 net.cpp:129] Top shape: 1 116 23 24 (64032)
I0108 14:34:37.397150 23655 net.cpp:137] Memory required for data: 27728480
I0108 14:34:37.397158 23655 layer_factory.hpp:77] Creating layer relu1_2
I0108 14:34:37.397167 23655 net.cpp:84] Creating Layer relu1_2
I0108 14:34:37.397172 23655 net.cpp:406] relu1_2 <- conv1_2/bn
I0108 14:34:37.397178 23655 net.cpp:367] relu1_2 -> conv1_2/bn (in-place)
I0108 14:34:37.398119 23655 net.cpp:122] Setting up relu1_2
I0108 14:34:37.398146 23655 net.cpp:129] Top shape: 1 116 23 24 (64032)
I0108 14:34:37.398151 23655 net.cpp:137] Memory required for data: 27984608
I0108 14:34:37.398159 23655 layer_factory.hpp:77] Creating layer conv1_2
I0108 14:34:37.398175 23655 net.cpp:84] Creating Layer conv1_2
I0108 14:34:37.398182 23655 net.cpp:406] conv1_2 <- conv1_2/bn
I0108 14:34:37.398193 23655 net.cpp:380] conv1_2 -> conv1_2
I0108 14:34:37.401875 23655 net.cpp:122] Setting up conv1_2
I0108 14:34:37.401912 23655 net.cpp:129] Top shape: 1 12 23 24 (6624)
I0108 14:34:37.401918 23655 net.cpp:137] Memory required for data: 28011104
I0108 14:34:37.401931 23655 layer_factory.hpp:77] Creating layer concat1_2
I0108 14:34:37.401947 23655 net.cpp:84] Creating Layer concat1_2
I0108 14:34:37.401954 23655 net.cpp:406] concat1_2 <- concat1_1_concat1_1_0_split_1
I0108 14:34:37.401962 23655 net.cpp:406] concat1_2 <- conv1_2
I0108 14:34:37.401969 23655 net.cpp:380] concat1_2 -> concat1_2
I0108 14:34:37.402042 23655 net.cpp:122] Setting up concat1_2
I0108 14:34:37.402050 23655 net.cpp:129] Top shape: 1 128 23 24 (70656)
I0108 14:34:37.402055 23655 net.cpp:137] Memory required for data: 28293728
I0108 14:34:37.402058 23655 layer_factory.hpp:77] Creating layer concat1_2_concat1_2_0_split
I0108 14:34:37.402065 23655 net.cpp:84] Creating Layer concat1_2_concat1_2_0_split
I0108 14:34:37.402076 23655 net.cpp:406] concat1_2_concat1_2_0_split <- concat1_2
I0108 14:34:37.402083 23655 net.cpp:380] concat1_2_concat1_2_0_split -> concat1_2_concat1_2_0_split_0
I0108 14:34:37.402091 23655 net.cpp:380] concat1_2_concat1_2_0_split -> concat1_2_concat1_2_0_split_1
I0108 14:34:37.402190 23655 net.cpp:122] Setting up concat1_2_concat1_2_0_split
I0108 14:34:37.402199 23655 net.cpp:129] Top shape: 1 128 23 24 (70656)
I0108 14:34:37.402205 23655 net.cpp:129] Top shape: 1 128 23 24 (70656)
I0108 14:34:37.402209 23655 net.cpp:137] Memory required for data: 28858976
I0108 14:34:37.402212 23655 layer_factory.hpp:77] Creating layer conv1_3/bn
I0108 14:34:37.402221 23655 net.cpp:84] Creating Layer conv1_3/bn
I0108 14:34:37.402227 23655 net.cpp:406] conv1_3/bn <- concat1_2_concat1_2_0_split_0
I0108 14:34:37.402235 23655 net.cpp:380] conv1_3/bn -> conv1_3/bn
I0108 14:34:37.402884 23655 net.cpp:122] Setting up conv1_3/bn
I0108 14:34:37.402894 23655 net.cpp:129] Top shape: 1 128 23 24 (70656)
I0108 14:34:37.402899 23655 net.cpp:137] Memory required for data: 29141600
I0108 14:34:37.402909 23655 layer_factory.hpp:77] Creating layer conv1_3/scale
I0108 14:34:37.402920 23655 net.cpp:84] Creating Layer conv1_3/scale
I0108 14:34:37.402926 23655 net.cpp:406] conv1_3/scale <- conv1_3/bn
I0108 14:34:37.402935 23655 net.cpp:367] conv1_3/scale -> conv1_3/bn (in-place)
I0108 14:34:37.403036 23655 layer_factory.hpp:77] Creating layer conv1_3/scale
I0108 14:34:37.403363 23655 net.cpp:122] Setting up conv1_3/scale
I0108 14:34:37.403373 23655 net.cpp:129] Top shape: 1 128 23 24 (70656)
I0108 14:34:37.403376 23655 net.cpp:137] Memory required for data: 29424224
I0108 14:34:37.403393 23655 layer_factory.hpp:77] Creating layer relu1_3
I0108 14:34:37.403403 23655 net.cpp:84] Creating Layer relu1_3
I0108 14:34:37.403409 23655 net.cpp:406] relu1_3 <- conv1_3/bn
I0108 14:34:37.403414 23655 net.cpp:367] relu1_3 -> conv1_3/bn (in-place)
I0108 14:34:37.403741 23655 net.cpp:122] Setting up relu1_3
I0108 14:34:37.403769 23655 net.cpp:129] Top shape: 1 128 23 24 (70656)
I0108 14:34:37.403776 23655 net.cpp:137] Memory required for data: 29706848
I0108 14:34:37.403781 23655 layer_factory.hpp:77] Creating layer conv1_3
I0108 14:34:37.403800 23655 net.cpp:84] Creating Layer conv1_3
I0108 14:34:37.403805 23655 net.cpp:406] conv1_3 <- conv1_3/bn
I0108 14:34:37.403812 23655 net.cpp:380] conv1_3 -> conv1_3
I0108 14:34:37.407666 23655 net.cpp:122] Setting up conv1_3
I0108 14:34:37.407701 23655 net.cpp:129] Top shape: 1 12 23 24 (6624)
I0108 14:34:37.407706 23655 net.cpp:137] Memory required for data: 29733344
I0108 14:34:37.407719 23655 layer_factory.hpp:77] Creating layer concat1_3
I0108 14:34:37.407732 23655 net.cpp:84] Creating Layer concat1_3
I0108 14:34:37.407739 23655 net.cpp:406] concat1_3 <- concat1_2_concat1_2_0_split_1
I0108 14:34:37.407764 23655 net.cpp:406] concat1_3 <- conv1_3
I0108 14:34:37.407775 23655 net.cpp:380] concat1_3 -> concat1_3
I0108 14:34:37.407845 23655 net.cpp:122] Setting up concat1_3
I0108 14:34:37.407852 23655 net.cpp:129] Top shape: 1 140 23 24 (77280)
I0108 14:34:37.407856 23655 net.cpp:137] Memory required for data: 30042464
I0108 14:34:37.407860 23655 layer_factory.hpp:77] Creating layer concat1_3_concat1_3_0_split
I0108 14:34:37.407867 23655 net.cpp:84] Creating Layer concat1_3_concat1_3_0_split
I0108 14:34:37.407873 23655 net.cpp:406] concat1_3_concat1_3_0_split <- concat1_3
I0108 14:34:37.407879 23655 net.cpp:380] concat1_3_concat1_3_0_split -> concat1_3_concat1_3_0_split_0
I0108 14:34:37.407886 23655 net.cpp:380] concat1_3_concat1_3_0_split -> concat1_3_concat1_3_0_split_1
I0108 14:34:37.407990 23655 net.cpp:122] Setting up concat1_3_concat1_3_0_split
I0108 14:34:37.407999 23655 net.cpp:129] Top shape: 1 140 23 24 (77280)
I0108 14:34:37.408004 23655 net.cpp:129] Top shape: 1 140 23 24 (77280)
I0108 14:34:37.408008 23655 net.cpp:137] Memory required for data: 30660704
I0108 14:34:37.408012 23655 layer_factory.hpp:77] Creating layer conv1_4/bn
I0108 14:34:37.408020 23655 net.cpp:84] Creating Layer conv1_4/bn
I0108 14:34:37.408033 23655 net.cpp:406] conv1_4/bn <- concat1_3_concat1_3_0_split_0
I0108 14:34:37.408041 23655 net.cpp:380] conv1_4/bn -> conv1_4/bn
I0108 14:34:37.408704 23655 net.cpp:122] Setting up conv1_4/bn
I0108 14:34:37.408715 23655 net.cpp:129] Top shape: 1 140 23 24 (77280)
I0108 14:34:37.408720 23655 net.cpp:137] Memory required for data: 30969824
I0108 14:34:37.408730 23655 layer_factory.hpp:77] Creating layer conv1_4/scale
I0108 14:34:37.408741 23655 net.cpp:84] Creating Layer conv1_4/scale
I0108 14:34:37.408746 23655 net.cpp:406] conv1_4/scale <- conv1_4/bn
I0108 14:34:37.408753 23655 net.cpp:367] conv1_4/scale -> conv1_4/bn (in-place)
I0108 14:34:37.408855 23655 layer_factory.hpp:77] Creating layer conv1_4/scale
I0108 14:34:37.409209 23655 net.cpp:122] Setting up conv1_4/scale
I0108 14:34:37.409219 23655 net.cpp:129] Top shape: 1 140 23 24 (77280)
I0108 14:34:37.409224 23655 net.cpp:137] Memory required for data: 31278944
I0108 14:34:37.409231 23655 layer_factory.hpp:77] Creating layer relu1_4
I0108 14:34:37.409241 23655 net.cpp:84] Creating Layer relu1_4
I0108 14:34:37.409246 23655 net.cpp:406] relu1_4 <- conv1_4/bn
I0108 14:34:37.409252 23655 net.cpp:367] relu1_4 -> conv1_4/bn (in-place)
I0108 14:34:37.409941 23655 net.cpp:122] Setting up relu1_4
I0108 14:34:37.409957 23655 net.cpp:129] Top shape: 1 140 23 24 (77280)
I0108 14:34:37.409962 23655 net.cpp:137] Memory required for data: 31588064
I0108 14:34:37.409967 23655 layer_factory.hpp:77] Creating layer conv1_4
I0108 14:34:37.409983 23655 net.cpp:84] Creating Layer conv1_4
I0108 14:34:37.409988 23655 net.cpp:406] conv1_4 <- conv1_4/bn
I0108 14:34:37.409996 23655 net.cpp:380] conv1_4 -> conv1_4
I0108 14:34:37.415499 23655 net.cpp:122] Setting up conv1_4
I0108 14:34:37.415531 23655 net.cpp:129] Top shape: 1 12 23 24 (6624)
I0108 14:34:37.415537 23655 net.cpp:137] Memory required for data: 31614560
I0108 14:34:37.415549 23655 layer_factory.hpp:77] Creating layer concat1_4
I0108 14:34:37.415562 23655 net.cpp:84] Creating Layer concat1_4
I0108 14:34:37.415570 23655 net.cpp:406] concat1_4 <- concat1_3_concat1_3_0_split_1
I0108 14:34:37.415578 23655 net.cpp:406] concat1_4 <- conv1_4
I0108 14:34:37.415587 23655 net.cpp:380] concat1_4 -> concat1_4
I0108 14:34:37.415653 23655 net.cpp:122] Setting up concat1_4
I0108 14:34:37.415663 23655 net.cpp:129] Top shape: 1 152 23 24 (83904)
I0108 14:34:37.415666 23655 net.cpp:137] Memory required for data: 31950176
I0108 14:34:37.415670 23655 layer_factory.hpp:77] Creating layer concat1_4_concat1_4_0_split
I0108 14:34:37.415679 23655 net.cpp:84] Creating Layer concat1_4_concat1_4_0_split
I0108 14:34:37.415684 23655 net.cpp:406] concat1_4_concat1_4_0_split <- concat1_4
I0108 14:34:37.415690 23655 net.cpp:380] concat1_4_concat1_4_0_split -> concat1_4_concat1_4_0_split_0
I0108 14:34:37.415697 23655 net.cpp:380] concat1_4_concat1_4_0_split -> concat1_4_concat1_4_0_split_1
I0108 14:34:37.415808 23655 net.cpp:122] Setting up concat1_4_concat1_4_0_split
I0108 14:34:37.415819 23655 net.cpp:129] Top shape: 1 152 23 24 (83904)
I0108 14:34:37.415824 23655 net.cpp:129] Top shape: 1 152 23 24 (83904)
I0108 14:34:37.415828 23655 net.cpp:137] Memory required for data: 32621408
I0108 14:34:37.415832 23655 layer_factory.hpp:77] Creating layer conv1_5/bn
I0108 14:34:37.415841 23655 net.cpp:84] Creating Layer conv1_5/bn
I0108 14:34:37.415846 23655 net.cpp:406] conv1_5/bn <- concat1_4_concat1_4_0_split_0
I0108 14:34:37.415853 23655 net.cpp:380] conv1_5/bn -> conv1_5/bn
I0108 14:34:37.416520 23655 net.cpp:122] Setting up conv1_5/bn
I0108 14:34:37.416530 23655 net.cpp:129] Top shape: 1 152 23 24 (83904)
I0108 14:34:37.416534 23655 net.cpp:137] Memory required for data: 32957024
I0108 14:34:37.416544 23655 layer_factory.hpp:77] Creating layer conv1_5/scale
I0108 14:34:37.416555 23655 net.cpp:84] Creating Layer conv1_5/scale
I0108 14:34:37.416561 23655 net.cpp:406] conv1_5/scale <- conv1_5/bn
I0108 14:34:37.416568 23655 net.cpp:367] conv1_5/scale -> conv1_5/bn (in-place)
I0108 14:34:37.416668 23655 layer_factory.hpp:77] Creating layer conv1_5/scale
I0108 14:34:37.417023 23655 net.cpp:122] Setting up conv1_5/scale
I0108 14:34:37.417033 23655 net.cpp:129] Top shape: 1 152 23 24 (83904)
I0108 14:34:37.417037 23655 net.cpp:137] Memory required for data: 33292640
I0108 14:34:37.417044 23655 layer_factory.hpp:77] Creating layer relu1_5
I0108 14:34:37.417052 23655 net.cpp:84] Creating Layer relu1_5
I0108 14:34:37.417057 23655 net.cpp:406] relu1_5 <- conv1_5/bn
I0108 14:34:37.417063 23655 net.cpp:367] relu1_5 -> conv1_5/bn (in-place)
I0108 14:34:37.417362 23655 net.cpp:122] Setting up relu1_5
I0108 14:34:37.417373 23655 net.cpp:129] Top shape: 1 152 23 24 (83904)
I0108 14:34:37.417378 23655 net.cpp:137] Memory required for data: 33628256
I0108 14:34:37.417382 23655 layer_factory.hpp:77] Creating layer conv1_5
I0108 14:34:37.417397 23655 net.cpp:84] Creating Layer conv1_5
I0108 14:34:37.417403 23655 net.cpp:406] conv1_5 <- conv1_5/bn
I0108 14:34:37.417415 23655 net.cpp:380] conv1_5 -> conv1_5
I0108 14:34:37.421159 23655 net.cpp:122] Setting up conv1_5
I0108 14:34:37.421190 23655 net.cpp:129] Top shape: 1 12 23 24 (6624)
I0108 14:34:37.421195 23655 net.cpp:137] Memory required for data: 33654752
I0108 14:34:37.421205 23655 layer_factory.hpp:77] Creating layer concat1_5
I0108 14:34:37.421219 23655 net.cpp:84] Creating Layer concat1_5
I0108 14:34:37.421227 23655 net.cpp:406] concat1_5 <- concat1_4_concat1_4_0_split_1
I0108 14:34:37.421236 23655 net.cpp:406] concat1_5 <- conv1_5
I0108 14:34:37.421242 23655 net.cpp:380] concat1_5 -> concat1_5
I0108 14:34:37.421313 23655 net.cpp:122] Setting up concat1_5
I0108 14:34:37.421324 23655 net.cpp:129] Top shape: 1 164 23 24 (90528)
I0108 14:34:37.421327 23655 net.cpp:137] Memory required for data: 34016864
I0108 14:34:37.421332 23655 layer_factory.hpp:77] Creating layer concat1_5_concat1_5_0_split
I0108 14:34:37.421339 23655 net.cpp:84] Creating Layer concat1_5_concat1_5_0_split
I0108 14:34:37.421344 23655 net.cpp:406] concat1_5_concat1_5_0_split <- concat1_5
I0108 14:34:37.421350 23655 net.cpp:380] concat1_5_concat1_5_0_split -> concat1_5_concat1_5_0_split_0
I0108 14:34:37.421357 23655 net.cpp:380] concat1_5_concat1_5_0_split -> concat1_5_concat1_5_0_split_1
I0108 14:34:37.421455 23655 net.cpp:122] Setting up concat1_5_concat1_5_0_split
I0108 14:34:37.421464 23655 net.cpp:129] Top shape: 1 164 23 24 (90528)
I0108 14:34:37.421469 23655 net.cpp:129] Top shape: 1 164 23 24 (90528)
I0108 14:34:37.421473 23655 net.cpp:137] Memory required for data: 34741088
I0108 14:34:37.421478 23655 layer_factory.hpp:77] Creating layer conv1_6/bn
I0108 14:34:37.421486 23655 net.cpp:84] Creating Layer conv1_6/bn
I0108 14:34:37.421491 23655 net.cpp:406] conv1_6/bn <- concat1_5_concat1_5_0_split_0
I0108 14:34:37.421499 23655 net.cpp:380] conv1_6/bn -> conv1_6/bn
I0108 14:34:37.422173 23655 net.cpp:122] Setting up conv1_6/bn
I0108 14:34:37.422183 23655 net.cpp:129] Top shape: 1 164 23 24 (90528)
I0108 14:34:37.422188 23655 net.cpp:137] Memory required for data: 35103200
I0108 14:34:37.422197 23655 layer_factory.hpp:77] Creating layer conv1_6/scale
I0108 14:34:37.422209 23655 net.cpp:84] Creating Layer conv1_6/scale
I0108 14:34:37.422214 23655 net.cpp:406] conv1_6/scale <- conv1_6/bn
I0108 14:34:37.422221 23655 net.cpp:367] conv1_6/scale -> conv1_6/bn (in-place)
I0108 14:34:37.422323 23655 layer_factory.hpp:77] Creating layer conv1_6/scale
I0108 14:34:37.422672 23655 net.cpp:122] Setting up conv1_6/scale
I0108 14:34:37.422683 23655 net.cpp:129] Top shape: 1 164 23 24 (90528)
I0108 14:34:37.422686 23655 net.cpp:137] Memory required for data: 35465312
I0108 14:34:37.422693 23655 layer_factory.hpp:77] Creating layer relu1_6
I0108 14:34:37.422701 23655 net.cpp:84] Creating Layer relu1_6
I0108 14:34:37.422705 23655 net.cpp:406] relu1_6 <- conv1_6/bn
I0108 14:34:37.422711 23655 net.cpp:367] relu1_6 -> conv1_6/bn (in-place)
I0108 14:34:37.423305 23655 net.cpp:122] Setting up relu1_6
I0108 14:34:37.423317 23655 net.cpp:129] Top shape: 1 164 23 24 (90528)
I0108 14:34:37.423322 23655 net.cpp:137] Memory required for data: 35827424
I0108 14:34:37.423327 23655 layer_factory.hpp:77] Creating layer conv1_6
I0108 14:34:37.423346 23655 net.cpp:84] Creating Layer conv1_6
I0108 14:34:37.423352 23655 net.cpp:406] conv1_6 <- conv1_6/bn
I0108 14:34:37.423360 23655 net.cpp:380] conv1_6 -> conv1_6
I0108 14:34:37.428431 23655 net.cpp:122] Setting up conv1_6
I0108 14:34:37.428468 23655 net.cpp:129] Top shape: 1 12 23 24 (6624)
I0108 14:34:37.428474 23655 net.cpp:137] Memory required for data: 35853920
I0108 14:34:37.428488 23655 layer_factory.hpp:77] Creating layer concat1_6
I0108 14:34:37.428501 23655 net.cpp:84] Creating Layer concat1_6
I0108 14:34:37.428509 23655 net.cpp:406] concat1_6 <- concat1_5_concat1_5_0_split_1
I0108 14:34:37.428517 23655 net.cpp:406] concat1_6 <- conv1_6
I0108 14:34:37.428526 23655 net.cpp:380] concat1_6 -> concat1_6
I0108 14:34:37.428591 23655 net.cpp:122] Setting up concat1_6
I0108 14:34:37.428601 23655 net.cpp:129] Top shape: 1 176 23 24 (97152)
I0108 14:34:37.428604 23655 net.cpp:137] Memory required for data: 36242528
I0108 14:34:37.428608 23655 layer_factory.hpp:77] Creating layer concat1_6_concat1_6_0_split
I0108 14:34:37.428616 23655 net.cpp:84] Creating Layer concat1_6_concat1_6_0_split
I0108 14:34:37.428619 23655 net.cpp:406] concat1_6_concat1_6_0_split <- concat1_6
I0108 14:34:37.428628 23655 net.cpp:380] concat1_6_concat1_6_0_split -> concat1_6_concat1_6_0_split_0
I0108 14:34:37.428635 23655 net.cpp:380] concat1_6_concat1_6_0_split -> concat1_6_concat1_6_0_split_1
I0108 14:34:37.428735 23655 net.cpp:122] Setting up concat1_6_concat1_6_0_split
I0108 14:34:37.428743 23655 net.cpp:129] Top shape: 1 176 23 24 (97152)
I0108 14:34:37.428748 23655 net.cpp:129] Top shape: 1 176 23 24 (97152)
I0108 14:34:37.428752 23655 net.cpp:137] Memory required for data: 37019744
I0108 14:34:37.428756 23655 layer_factory.hpp:77] Creating layer conv1_7/bn
I0108 14:34:37.428771 23655 net.cpp:84] Creating Layer conv1_7/bn
I0108 14:34:37.428776 23655 net.cpp:406] conv1_7/bn <- concat1_6_concat1_6_0_split_0
I0108 14:34:37.428786 23655 net.cpp:380] conv1_7/bn -> conv1_7/bn
I0108 14:34:37.429461 23655 net.cpp:122] Setting up conv1_7/bn
I0108 14:34:37.429471 23655 net.cpp:129] Top shape: 1 176 23 24 (97152)
I0108 14:34:37.429474 23655 net.cpp:137] Memory required for data: 37408352
I0108 14:34:37.429484 23655 layer_factory.hpp:77] Creating layer conv1_7/scale
I0108 14:34:37.429496 23655 net.cpp:84] Creating Layer conv1_7/scale
I0108 14:34:37.429500 23655 net.cpp:406] conv1_7/scale <- conv1_7/bn
I0108 14:34:37.429507 23655 net.cpp:367] conv1_7/scale -> conv1_7/bn (in-place)
I0108 14:34:37.429608 23655 layer_factory.hpp:77] Creating layer conv1_7/scale
I0108 14:34:37.429962 23655 net.cpp:122] Setting up conv1_7/scale
I0108 14:34:37.429971 23655 net.cpp:129] Top shape: 1 176 23 24 (97152)
I0108 14:34:37.429975 23655 net.cpp:137] Memory required for data: 37796960
I0108 14:34:37.429982 23655 layer_factory.hpp:77] Creating layer relu1_7
I0108 14:34:37.429989 23655 net.cpp:84] Creating Layer relu1_7
I0108 14:34:37.429994 23655 net.cpp:406] relu1_7 <- conv1_7/bn
I0108 14:34:37.430001 23655 net.cpp:367] relu1_7 -> conv1_7/bn (in-place)
I0108 14:34:37.430716 23655 net.cpp:122] Setting up relu1_7
I0108 14:34:37.430732 23655 net.cpp:129] Top shape: 1 176 23 24 (97152)
I0108 14:34:37.430737 23655 net.cpp:137] Memory required for data: 38185568
I0108 14:34:37.430742 23655 layer_factory.hpp:77] Creating layer conv1_7
I0108 14:34:37.430757 23655 net.cpp:84] Creating Layer conv1_7
I0108 14:34:37.430763 23655 net.cpp:406] conv1_7 <- conv1_7/bn
I0108 14:34:37.430771 23655 net.cpp:380] conv1_7 -> conv1_7
I0108 14:34:37.435168 23655 net.cpp:122] Setting up conv1_7
I0108 14:34:37.435215 23655 net.cpp:129] Top shape: 1 12 23 24 (6624)
I0108 14:34:37.435221 23655 net.cpp:137] Memory required for data: 38212064
I0108 14:34:37.435235 23655 layer_factory.hpp:77] Creating layer concat1_7
I0108 14:34:37.435256 23655 net.cpp:84] Creating Layer concat1_7
I0108 14:34:37.435266 23655 net.cpp:406] concat1_7 <- concat1_6_concat1_6_0_split_1
I0108 14:34:37.435276 23655 net.cpp:406] concat1_7 <- conv1_7
I0108 14:34:37.435282 23655 net.cpp:380] concat1_7 -> concat1_7
I0108 14:34:37.435406 23655 net.cpp:122] Setting up concat1_7
I0108 14:34:37.435420 23655 net.cpp:129] Top shape: 1 188 23 24 (103776)
I0108 14:34:37.435423 23655 net.cpp:137] Memory required for data: 38627168
I0108 14:34:37.435428 23655 layer_factory.hpp:77] Creating layer concat1_7_concat1_7_0_split
I0108 14:34:37.435437 23655 net.cpp:84] Creating Layer concat1_7_concat1_7_0_split
I0108 14:34:37.435443 23655 net.cpp:406] concat1_7_concat1_7_0_split <- concat1_7
I0108 14:34:37.435449 23655 net.cpp:380] concat1_7_concat1_7_0_split -> concat1_7_concat1_7_0_split_0
I0108 14:34:37.435461 23655 net.cpp:380] concat1_7_concat1_7_0_split -> concat1_7_concat1_7_0_split_1
I0108 14:34:37.435576 23655 net.cpp:122] Setting up concat1_7_concat1_7_0_split
I0108 14:34:37.435586 23655 net.cpp:129] Top shape: 1 188 23 24 (103776)
I0108 14:34:37.435591 23655 net.cpp:129] Top shape: 1 188 23 24 (103776)
I0108 14:34:37.435595 23655 net.cpp:137] Memory required for data: 39457376
I0108 14:34:37.435600 23655 layer_factory.hpp:77] Creating layer conv1_8/bn
I0108 14:34:37.435611 23655 net.cpp:84] Creating Layer conv1_8/bn
I0108 14:34:37.435616 23655 net.cpp:406] conv1_8/bn <- concat1_7_concat1_7_0_split_0
I0108 14:34:37.435624 23655 net.cpp:380] conv1_8/bn -> conv1_8/bn
I0108 14:34:37.436362 23655 net.cpp:122] Setting up conv1_8/bn
I0108 14:34:37.436381 23655 net.cpp:129] Top shape: 1 188 23 24 (103776)
I0108 14:34:37.436386 23655 net.cpp:137] Memory required for data: 39872480
I0108 14:34:37.436399 23655 layer_factory.hpp:77] Creating layer conv1_8/scale
I0108 14:34:37.436410 23655 net.cpp:84] Creating Layer conv1_8/scale
I0108 14:34:37.436416 23655 net.cpp:406] conv1_8/scale <- conv1_8/bn
I0108 14:34:37.436425 23655 net.cpp:367] conv1_8/scale -> conv1_8/bn (in-place)
I0108 14:34:37.436535 23655 layer_factory.hpp:77] Creating layer conv1_8/scale
I0108 14:34:37.436915 23655 net.cpp:122] Setting up conv1_8/scale
I0108 14:34:37.436928 23655 net.cpp:129] Top shape: 1 188 23 24 (103776)
I0108 14:34:37.436931 23655 net.cpp:137] Memory required for data: 40287584
I0108 14:34:37.436941 23655 layer_factory.hpp:77] Creating layer relu1_8
I0108 14:34:37.436950 23655 net.cpp:84] Creating Layer relu1_8
I0108 14:34:37.436956 23655 net.cpp:406] relu1_8 <- conv1_8/bn
I0108 14:34:37.436964 23655 net.cpp:367] relu1_8 -> conv1_8/bn (in-place)
I0108 14:34:37.437361 23655 net.cpp:122] Setting up relu1_8
I0108 14:34:37.437379 23655 net.cpp:129] Top shape: 1 188 23 24 (103776)
I0108 14:34:37.437384 23655 net.cpp:137] Memory required for data: 40702688
I0108 14:34:37.437391 23655 layer_factory.hpp:77] Creating layer conv1_8
I0108 14:34:37.437407 23655 net.cpp:84] Creating Layer conv1_8
I0108 14:34:37.437413 23655 net.cpp:406] conv1_8 <- conv1_8/bn
I0108 14:34:37.437423 23655 net.cpp:380] conv1_8 -> conv1_8
I0108 14:34:37.442119 23655 net.cpp:122] Setting up conv1_8
I0108 14:34:37.442157 23655 net.cpp:129] Top shape: 1 12 23 24 (6624)
I0108 14:34:37.442162 23655 net.cpp:137] Memory required for data: 40729184
I0108 14:34:37.442175 23655 layer_factory.hpp:77] Creating layer concat1_8
I0108 14:34:37.442189 23655 net.cpp:84] Creating Layer concat1_8
I0108 14:34:37.442198 23655 net.cpp:406] concat1_8 <- concat1_7_concat1_7_0_split_1
I0108 14:34:37.442207 23655 net.cpp:406] concat1_8 <- conv1_8
I0108 14:34:37.442217 23655 net.cpp:380] concat1_8 -> concat1_8
I0108 14:34:37.442291 23655 net.cpp:122] Setting up concat1_8
I0108 14:34:37.442301 23655 net.cpp:129] Top shape: 1 200 23 24 (110400)
I0108 14:34:37.442304 23655 net.cpp:137] Memory required for data: 41170784
I0108 14:34:37.442308 23655 layer_factory.hpp:77] Creating layer concat1_8_concat1_8_0_split
I0108 14:34:37.442317 23655 net.cpp:84] Creating Layer concat1_8_concat1_8_0_split
I0108 14:34:37.442322 23655 net.cpp:406] concat1_8_concat1_8_0_split <- concat1_8
I0108 14:34:37.442327 23655 net.cpp:380] concat1_8_concat1_8_0_split -> concat1_8_concat1_8_0_split_0
I0108 14:34:37.442335 23655 net.cpp:380] concat1_8_concat1_8_0_split -> concat1_8_concat1_8_0_split_1
I0108 14:34:37.442436 23655 net.cpp:122] Setting up concat1_8_concat1_8_0_split
I0108 14:34:37.442451 23655 net.cpp:129] Top shape: 1 200 23 24 (110400)
I0108 14:34:37.442457 23655 net.cpp:129] Top shape: 1 200 23 24 (110400)
I0108 14:34:37.442461 23655 net.cpp:137] Memory required for data: 42053984
I0108 14:34:37.442466 23655 layer_factory.hpp:77] Creating layer conv1_9/bn
I0108 14:34:37.442476 23655 net.cpp:84] Creating Layer conv1_9/bn
I0108 14:34:37.442481 23655 net.cpp:406] conv1_9/bn <- concat1_8_concat1_8_0_split_0
I0108 14:34:37.442487 23655 net.cpp:380] conv1_9/bn -> conv1_9/bn
I0108 14:34:37.443202 23655 net.cpp:122] Setting up conv1_9/bn
I0108 14:34:37.443213 23655 net.cpp:129] Top shape: 1 200 23 24 (110400)
I0108 14:34:37.443217 23655 net.cpp:137] Memory required for data: 42495584
I0108 14:34:37.443228 23655 layer_factory.hpp:77] Creating layer conv1_9/scale
I0108 14:34:37.443240 23655 net.cpp:84] Creating Layer conv1_9/scale
I0108 14:34:37.443245 23655 net.cpp:406] conv1_9/scale <- conv1_9/bn
I0108 14:34:37.443253 23655 net.cpp:367] conv1_9/scale -> conv1_9/bn (in-place)
I0108 14:34:37.443358 23655 layer_factory.hpp:77] Creating layer conv1_9/scale
I0108 14:34:37.443722 23655 net.cpp:122] Setting up conv1_9/scale
I0108 14:34:37.443732 23655 net.cpp:129] Top shape: 1 200 23 24 (110400)
I0108 14:34:37.443735 23655 net.cpp:137] Memory required for data: 42937184
I0108 14:34:37.443742 23655 layer_factory.hpp:77] Creating layer relu1_9
I0108 14:34:37.443758 23655 net.cpp:84] Creating Layer relu1_9
I0108 14:34:37.443763 23655 net.cpp:406] relu1_9 <- conv1_9/bn
I0108 14:34:37.443775 23655 net.cpp:367] relu1_9 -> conv1_9/bn (in-place)
I0108 14:34:37.444522 23655 net.cpp:122] Setting up relu1_9
I0108 14:34:37.444538 23655 net.cpp:129] Top shape: 1 200 23 24 (110400)
I0108 14:34:37.444545 23655 net.cpp:137] Memory required for data: 43378784
I0108 14:34:37.444550 23655 layer_factory.hpp:77] Creating layer conv1_9
I0108 14:34:37.444564 23655 net.cpp:84] Creating Layer conv1_9
I0108 14:34:37.444571 23655 net.cpp:406] conv1_9 <- conv1_9/bn
I0108 14:34:37.444578 23655 net.cpp:380] conv1_9 -> conv1_9
I0108 14:34:37.449656 23655 net.cpp:122] Setting up conv1_9
I0108 14:34:37.449692 23655 net.cpp:129] Top shape: 1 12 23 24 (6624)
I0108 14:34:37.449697 23655 net.cpp:137] Memory required for data: 43405280
I0108 14:34:37.449709 23655 layer_factory.hpp:77] Creating layer concat1_9
I0108 14:34:37.449724 23655 net.cpp:84] Creating Layer concat1_9
I0108 14:34:37.449733 23655 net.cpp:406] concat1_9 <- concat1_8_concat1_8_0_split_1
I0108 14:34:37.449741 23655 net.cpp:406] concat1_9 <- conv1_9
I0108 14:34:37.449749 23655 net.cpp:380] concat1_9 -> concat1_9
I0108 14:34:37.449825 23655 net.cpp:122] Setting up concat1_9
I0108 14:34:37.449834 23655 net.cpp:129] Top shape: 1 212 23 24 (117024)
I0108 14:34:37.449838 23655 net.cpp:137] Memory required for data: 43873376
I0108 14:34:37.449842 23655 layer_factory.hpp:77] Creating layer tpp5
I0108 14:34:37.449849 23655 net.cpp:84] Creating Layer tpp5
I0108 14:34:37.449854 23655 net.cpp:406] tpp5 <- concat1_9
I0108 14:34:37.449861 23655 net.cpp:380] tpp5 -> tpp5
I0108 14:34:37.451210 23655 net.cpp:122] Setting up tpp5
I0108 14:34:37.451228 23655 net.cpp:129] Top shape: 1 3180 (3180)
I0108 14:34:37.451233 23655 net.cpp:137] Memory required for data: 43886096
I0108 14:34:37.451237 23655 layer_factory.hpp:77] Creating layer fc6_d
I0108 14:34:37.451247 23655 net.cpp:84] Creating Layer fc6_d
I0108 14:34:37.451253 23655 net.cpp:406] fc6_d <- tpp5
I0108 14:34:37.451261 23655 net.cpp:380] fc6_d -> fc6_d
I0108 14:34:37.983183 23655 net.cpp:122] Setting up fc6_d
I0108 14:34:37.983227 23655 net.cpp:129] Top shape: 1 4096 (4096)
I0108 14:34:37.983233 23655 net.cpp:137] Memory required for data: 43902480
I0108 14:34:37.983245 23655 layer_factory.hpp:77] Creating layer relu6
I0108 14:34:37.983259 23655 net.cpp:84] Creating Layer relu6
I0108 14:34:37.983268 23655 net.cpp:406] relu6 <- fc6_d
I0108 14:34:37.983275 23655 net.cpp:367] relu6 -> fc6_d (in-place)
I0108 14:34:37.983675 23655 net.cpp:122] Setting up relu6
I0108 14:34:37.983697 23655 net.cpp:129] Top shape: 1 4096 (4096)
I0108 14:34:37.983702 23655 net.cpp:137] Memory required for data: 43918864
I0108 14:34:37.983708 23655 layer_factory.hpp:77] Creating layer fc7_d
I0108 14:34:37.983721 23655 net.cpp:84] Creating Layer fc7_d
I0108 14:34:37.983726 23655 net.cpp:406] fc7_d <- fc6_d
I0108 14:34:37.983737 23655 net.cpp:380] fc7_d -> fc7_d
I0108 14:34:38.655381 23655 net.cpp:122] Setting up fc7_d
I0108 14:34:38.655421 23655 net.cpp:129] Top shape: 1 4096 (4096)
I0108 14:34:38.655428 23655 net.cpp:137] Memory required for data: 43935248
I0108 14:34:38.655441 23655 layer_factory.hpp:77] Creating layer relu7
I0108 14:34:38.655454 23655 net.cpp:84] Creating Layer relu7
I0108 14:34:38.655462 23655 net.cpp:406] relu7 <- fc7_d
I0108 14:34:38.655470 23655 net.cpp:367] relu7 -> fc7_d (in-place)
I0108 14:34:38.656226 23655 net.cpp:122] Setting up relu7
I0108 14:34:38.656241 23655 net.cpp:129] Top shape: 1 4096 (4096)
I0108 14:34:38.656247 23655 net.cpp:137] Memory required for data: 43951632
I0108 14:34:38.656252 23655 layer_factory.hpp:77] Creating layer fc8_d
I0108 14:34:38.656265 23655 net.cpp:84] Creating Layer fc8_d
I0108 14:34:38.656270 23655 net.cpp:406] fc8_d <- fc7_d
I0108 14:34:38.656277 23655 net.cpp:380] fc8_d -> fc8_d
I0108 14:34:38.759683 23655 net.cpp:122] Setting up fc8_d
I0108 14:34:38.759729 23655 net.cpp:129] Top shape: 1 618 (618)
I0108 14:34:38.759735 23655 net.cpp:137] Memory required for data: 43954104
I0108 14:34:38.759757 23655 layer_factory.hpp:77] Creating layer fc8_d_fc8_d_0_split
I0108 14:34:38.759771 23655 net.cpp:84] Creating Layer fc8_d_fc8_d_0_split
I0108 14:34:38.759778 23655 net.cpp:406] fc8_d_fc8_d_0_split <- fc8_d
I0108 14:34:38.759788 23655 net.cpp:380] fc8_d_fc8_d_0_split -> fc8_d_fc8_d_0_split_0
I0108 14:34:38.759800 23655 net.cpp:380] fc8_d_fc8_d_0_split -> fc8_d_fc8_d_0_split_1
I0108 14:34:38.759910 23655 net.cpp:122] Setting up fc8_d_fc8_d_0_split
I0108 14:34:38.759919 23655 net.cpp:129] Top shape: 1 618 (618)
I0108 14:34:38.759925 23655 net.cpp:129] Top shape: 1 618 (618)
I0108 14:34:38.759928 23655 net.cpp:137] Memory required for data: 43959048
I0108 14:34:38.759933 23655 layer_factory.hpp:77] Creating layer sigmoid
I0108 14:34:38.759943 23655 net.cpp:84] Creating Layer sigmoid
I0108 14:34:38.759949 23655 net.cpp:406] sigmoid <- fc8_d_fc8_d_0_split_0
I0108 14:34:38.759955 23655 net.cpp:380] sigmoid -> sigmoid
I0108 14:34:38.760812 23655 net.cpp:122] Setting up sigmoid
I0108 14:34:38.760830 23655 net.cpp:129] Top shape: 1 618 (618)
I0108 14:34:38.760835 23655 net.cpp:137] Memory required for data: 43961520
I0108 14:34:38.760841 23655 layer_factory.hpp:77] Creating layer silence
I0108 14:34:38.760849 23655 net.cpp:84] Creating Layer silence
I0108 14:34:38.760854 23655 net.cpp:406] silence <- sigmoid
I0108 14:34:38.760860 23655 net.cpp:122] Setting up silence
I0108 14:34:38.760866 23655 net.cpp:137] Memory required for data: 43961520
…
